…
I0403 19:29:26.844138  9300 net.cpp:313] The NetState phase (1) differed from the phase (0) specified by a rule in layer data
I0403 19:29:26.845552  9300 net.cpp:49] Initializing net from parameters: 
state {
  phase: TEST
}
layer {
  name: "data"
  type: "Data"
  top: "data"
  top: "label"
  include {
    phase: TEST
  }
  transform_param {
    mirror: false
    crop_size: 224
    mean_file: "/home/mohanty/data/final_dataset/lmdb/color-60-40/mean.binaryproto"
  }
  data_param {
    source: "/home/mohanty/data/final_dataset/lmdb/color-60-40/test_db"
    batch_size: 24
    backend: LMDB
  }
}
layer {
  name: "conv1/7x7_s2"
  type: "Convolution"
  bottom: "data"
  top: "conv1/7x7_s2"
  param {
    lr_mult: 1
    decay_mult: 1
  }
  param {
    lr_mult: 2
    decay_mult: 0
  }
  convolution_param {
    num_output: 64
    pad: 3
    kernel_size: 7
    stride: 2
    weight_filler {
      type: "xavier"
      std: 0.1
    }
    bias_filler {
      type: "constant"
      value: 0.2
    }
  }
}
layer {
  name: "conv1/relu_7x7"
  type: "ReLU"
  bottom: "conv1/7x7_s2"
  top: "conv1/7x7_s2"
}
layer {
  name: "pool1/3x3_s2"
  type: "Pooling"
  bottom: "conv1/7x7_s2"
  top: "pool1/3x3_s2"
  pooling_param {
    pool: MAX
    kernel_size: 3
    stride: 2
  }
}
layer {
  name: "pool1/norm1"
  type: "LRN"
  bottom: "pool1/3x3_s2"
  top: "pool1/norm1"
  lrn_param {
    local_size: 5
    alpha: 0.0001
    beta: 0.75
  }
}
layer {
  name: "conv2/3x3_reduce"
  type: "Convolution"
  bottom: "pool1/norm1"
  top: "conv2/3x3_reduce"
  param {
    lr_mult: 1
    decay_mult: 1
  }
  param {
    lr_mult: 2
    decay_mult: 0
  }
  convolution_param {
    num_output: 64
    kernel_size: 1
    weight_filler {
      type: "xavier"
      std: 0.1
    }
    bias_filler {
      type: "constant"
      value: 0.2
    }
  }
}
layer {
  name: "conv2/relu_3x3_reduce"
  type: "ReLU"
  bottom: "conv2/3x3_reduce"
  top: "conv2/3x3_reduce"
}
layer {
  name: "conv2/3x3"
  type: "Convolution"
  bottom: "conv2/3x3_reduce"
  top: "conv2/3x3"
  param {
    lr_mult: 1
    decay_mult: 1
  }
  param {
    lr_mult: 2
    decay_mult: 0
  }
  convolution_param {
    num_output: 192
    pad: 1
    kernel_size: 3
    weight_filler {
      type: "xavier"
      std: 0.03
    }
    bias_filler {
      type: "constant"
      value: 0.2
    }
  }
}
layer {
  name: "conv2/relu_3x3"
  type: "ReLU"
  bottom: "conv2/3x3"
  top: "conv2/3x3"
}
layer {
  name: "conv2/norm2"
  type: "LRN"
  bottom: "conv2/3x3"
  top: "conv2/norm2"
  lrn_param {
    local_size: 5
    alpha: 0.0001
    beta: 0.75
  }
}
layer {
  name: "pool2/3x3_s2"
  type: "Pooling"
  bottom: "conv2/norm2"
  top: "pool2/3x3_s2"
  pooling_param {
    pool: MAX
    kernel_size: 3
    stride: 2
  }
}
layer {
  name: "inception_3a/1x1"
  type: "Convolution"
  bottom: "pool2/3x3_s2"
  top: "inception_3a/1x1"
  param {
    lr_mult: 1
    decay_mult: 1
  }
  param {
    lr_mult: 2
    decay_mult: 0
  }
  convolution_param {
    num_output: 64
    kernel_size: 1
    weight_filler {
      type: "xavier"
      std: 0.03
    }
    bias_filler {
      type: "constant"
      value: 0.2
    }
  }
}
layer {
  name: "inception_3a/relu_1x1"
  type: "ReLU"
  bottom: "inception_3a/1x1"
  top: "inception_3a/1x1"
}
layer {
  name: "inception_3a/3x3_reduce"
  type: "Convolution"
  bottom: "pool2/3x3_s2"
  top: "inception_3a/3x3_reduce"
  param {
    lr_mult: 1
    decay_mult: 1
  }
  param {
    lr_mult: 2
    decay_mult: 0
  }
  convolution_param {
    num_output: 96
    kernel_size: 1
    weight_filler {
      type: "xavier"
      std: 0.09
    }
    bias_filler {
      type: "constant"
      value: 0.2
    }
  }
}
layer {
  name: "inception_3a/relu_3x3_reduce"
  type: "ReLU"
  bottom: "inception_3a/3x3_reduce"
  top: "inception_3a/3x3_reduce"
}
layer {
  name: "inception_3a/3x3"
  type: "Convolution"
  bottom: "inception_3a/3x3_reduce"
  top: "inception_3a/3x3"
  param {
    lr_mult: 1
    decay_mult: 1
  }
  param {
    lr_mult: 2
    decay_mult: 0
  }
  convolution_param {
    num_output: 128
    pad: 1
    kernel_size: 3
    weight_filler {
      type: "xavier"
      std: 0.03
    }
    bias_filler {
      type: "constant"
      value: 0.2
    }
  }
}
layer {
  name: "inception_3a/relu_3x3"
  type: "ReLU"
  bottom: "inception_3a/3x3"
  top: "inception_3a/3x3"
}
layer {
  name: "inception_3a/5x5_reduce"
  type: "Convolution"
  bottom: "pool2/3x3_s2"
  top: "inception_3a/5x5_reduce"
  param {
    lr_mult: 1
    decay_mult: 1
  }
  param {
    lr_mult: 2
    decay_mult: 0
  }
  convolution_param {
    num_output: 16
    kernel_size: 1
    weight_filler {
      type: "xavier"
      std: 0.2
    }
    bias_filler {
      type: "constant"
      value: 0.2
    }
  }
}
layer {
  name: "inception_3a/relu_5x5_reduce"
  type: "ReLU"
  bottom: "inception_3a/5x5_reduce"
  top: "inception_3a/5x5_reduce"
}
layer {
  name: "inception_3a/5x5"
  type: "Convolution"
  bottom: "inception_3a/5x5_reduce"
  top: "inception_3a/5x5"
  param {
    lr_mult: 1
    decay_mult: 1
  }
  param {
    lr_mult: 2
    decay_mult: 0
  }
  convolution_param {
    num_output: 32
    pad: 2
    kernel_size: 5
    weight_filler {
      type: "xavier"
      std: 0.03
    }
    bias_filler {
      type: "constant"
      value: 0.2
    }
  }
}
layer {
  name: "inception_3a/relu_5x5"
  type: "ReLU"
  bottom: "inception_3a/5x5"
  top: "inception_3a/5x5"
}
layer {
  name: "inception_3a/pool"
  type: "Pooling"
  bottom: "pool2/3x3_s2"
  top: "inception_3a/pool"
  pooling_param {
    pool: MAX
    kernel_size: 3
    stride: 1
    pad: 1
  }
}
layer {
  name: "inception_3a/pool_proj"
  type: "Convolution"
  bottom: "inception_3a/pool"
  top: "inception_3a/pool_proj"
  param {
    lr_mult: 1
    decay_mult: 1
  }
  param {
    lr_mult: 2
    decay_mult: 0
  }
  convolution_param {
    num_output: 32
    kernel_size: 1
    weight_filler {
      type: "xavier"
      std: 0.1
    }
    bias_filler {
      type: "constant"
      value: 0.2
    }
  }
}
layer {
  name: "inception_3a/relu_pool_proj"
  type: "ReLU"
  bottom: "inception_3a/pool_proj"
  top: "inception_3a/pool_proj"
}
layer {
  name: "inception_3a/output"
  type: "Concat"
  bottom: "inception_3a/1x1"
  bottom: "inception_3a/3x3"
  bottom: "inception_3a/5x5"
  bottom: "inception_3a/pool_proj"
  top: "inception_3a/output"
}
layer {
  name: "inception_3b/1x1"
  type: "Convolution"
  bottom: "inception_3a/output"
  top: "inception_3b/1x1"
  param {
    lr_mult: 1
    decay_mult: 1
  }
  param {
    lr_mult: 2
    decay_mult: 0
  }
  convolution_param {
    num_output: 128
    kernel_size: 1
    weight_filler {
      type: "xavier"
      std: 0.03
    }
    bias_filler {
      type: "constant"
      value: 0.2
    }
  }
}
layer {
  name: "inception_3b/relu_1x1"
  type: "ReLU"
  bottom: "inception_3b/1x1"
  top: "inception_3b/1x1"
}
layer {
  name: "inception_3b/3x3_reduce"
  type: "Convolution"
  bottom: "inception_3a/output"
  top: "inception_3b/3x3_reduce"
  param {
    lr_mult: 1
    decay_mult: 1
  }
  param {
    lr_mult: 2
    decay_mult: 0
  }
  convolution_param {
    num_output: 128
    kernel_size: 1
    weight_filler {
      type: "xavier"
      std: 0.09
    }
    bias_filler {
      type: "constant"
      value: 0.2
    }
  }
}
layer {
  name: "inception_3b/relu_3x3_reduce"
  type: "ReLU"
  bottom: "inception_3b/3x3_reduce"
  top: "inception_3b/3x3_reduce"
}
layer {
  name: "inception_3b/3x3"
  type: "Convolution"
  bottom: "inception_3b/3x3_reduce"
  top: "inception_3b/3x3"
  param {
    lr_mult: 1
    decay_mult: 1
  }
  param {
    lr_mult: 2
    decay_mult: 0
  }
  convolution_param {
    num_output: 192
    pad: 1
    kernel_size: 3
    weight_filler {
      type: "xavier"
      std: 0.03
    }
    bias_filler {
      type: "constant"
      value: 0.2
    }
  }
}
layer {
  name: "inception_3b/relu_3x3"
  type: "ReLU"
  bottom: "inception_3b/3x3"
  top: "inception_3b/3x3"
}
layer {
  name: "inception_3b/5x5_reduce"
  type: "Convolution"
  bottom: "inception_3a/output"
  top: "inception_3b/5x5_reduce"
  param {
    lr_mult: 1
    decay_mult: 1
  }
  param {
    lr_mult: 2
    decay_mult: 0
  }
  convolution_param {
    num_output: 32
    kernel_size: 1
    weight_filler {
      type: "xavier"
      std: 0.2
    }
    bias_filler {
      type: "constant"
      value: 0.2
    }
  }
}
layer {
  name: "inception_3b/relu_5x5_reduce"
  type: "ReLU"
  bottom: "inception_3b/5x5_reduce"
  top: "inception_3b/5x5_reduce"
}
layer {
  name: "inception_3b/5x5"
  type: "Convolution"
  bottom: "inception_3b/5x5_reduce"
  top: "inception_3b/5x5"
  param {
    lr_mult: 1
    decay_mult: 1
  }
  param {
    lr_mult: 2
    decay_mult: 0
  }
  convolution_param {
    num_output: 96
    pad: 2
    kernel_size: 5
    weight_filler {
      type: "xavier"
      std: 0.03
    }
    bias_filler {
      type: "constant"
      value: 0.2
    }
  }
}
layer {
  name: "inception_3b/relu_5x5"
  type: "ReLU"
  bottom: "inception_3b/5x5"
  top: "inception_3b/5x5"
}
layer {
  name: "inception_3b/pool"
  type: "Pooling"
  bottom: "inception_3a/output"
  top: "inception_3b/pool"
  pooling_param {
    pool: MAX
    kernel_size: 3
    stride: 1
    pad: 1
  }
}
layer {
  name: "inception_3b/pool_proj"
  type: "Convolution"
  bottom: "inception_3b/pool"
  top: "inception_3b/pool_proj"
  param {
    lr_mult: 1
    decay_mult: 1
  }
  param {
    lr_mult: 2
    decay_mult: 0
  }
  convolution_param {
    num_output: 64
    kernel_size: 1
    weight_filler {
      type: "xavier"
      std: 0.1
    }
    bias_filler {
      type: "constant"
      value: 0.2
    }
  }
}
layer {
  name: "inception_3b/relu_pool_proj"
  type: "ReLU"
  bottom: "inception_3b/pool_proj"
  top: "inception_3b/pool_proj"
}
layer {
  name: "inception_3b/output"
  type: "Concat"
  bottom: "inception_3b/1x1"
  bottom: "inception_3b/3x3"
  bottom: "inception_3b/5x5"
  bottom: "inception_3b/pool_proj"
  top: "inception_3b/output"
}
layer {
  name: "pool3/3x3_s2"
  type: "Pooling"
  bottom: "inception_3b/output"
  top: "pool3/3x3_s2"
  pooling_param {
    pool: MAX
    kernel_size: 3
    stride: 2
  }
}
layer {
  name: "inception_4a/1x1"
  type: "Convolution"
  bottom: "pool3/3x3_s2"
  top: "inception_4a/1x1"
  param {
    lr_mult: 1
    decay_mult: 1
  }
  param {
    lr_mult: 2
    decay_mult: 0
  }
  convolution_param {
    num_output: 192
    kernel_size: 1
    weight_filler {
      type: "xavier"
      std: 0.03
    }
    bias_filler {
      type: "constant"
      value: 0.2
    }
  }
}
layer {
  name: "inception_4a/relu_1x1"
  type: "ReLU"
  bottom: "inception_4a/1x1"
  top: "inception_4a/1x1"
}
layer {
  name: "inception_4a/3x3_reduce"
  type: "Convolution"
  bottom: "pool3/3x3_s2"
  top: "inception_4a/3x3_reduce"
  param {
    lr_mult: 1
    decay_mult: 1
  }
  param {
    lr_mult: 2
    decay_mult: 0
  }
  convolution_param {
    num_output: 96
    kernel_size: 1
    weight_filler {
      type: "xavier"
      std: 0.09
    }
    bias_filler {
      type: "constant"
      value: 0.2
    }
  }
}
layer {
  name: "inception_4a/relu_3x3_reduce"
  type: "ReLU"
  bottom: "inception_4a/3x3_reduce"
  top: "inception_4a/3x3_reduce"
}
layer {
  name: "inception_4a/3x3"
  type: "Convolution"
  bottom: "inception_4a/3x3_reduce"
  top: "inception_4a/3x3"
  param {
    lr_mult: 1
    decay_mult: 1
  }
  param {
    lr_mult: 2
    decay_mult: 0
  }
  convolution_param {
    num_output: 208
    pad: 1
    kernel_size: 3
    weight_filler {
      type: "xavier"
      std: 0.03
    }
    bias_filler {
      type: "constant"
      value: 0.2
    }
  }
}
layer {
  name: "inception_4a/relu_3x3"
  type: "ReLU"
  bottom: "inception_4a/3x3"
  top: "inception_4a/3x3"
}
layer {
  name: "inception_4a/5x5_reduce"
  type: "Convolution"
  bottom: "pool3/3x3_s2"
  top: "inception_4a/5x5_reduce"
  param {
    lr_mult: 1
    decay_mult: 1
  }
  param {
    lr_mult: 2
    decay_mult: 0
  }
  convolution_param {
    num_output: 16
    kernel_size: 1
    weight_filler {
      type: "xavier"
      std: 0.2
    }
    bias_filler {
      type: "constant"
      value: 0.2
    }
  }
}
layer {
  name: "inception_4a/relu_5x5_reduce"
  type: "ReLU"
  bottom: "inception_4a/5x5_reduce"
  top: "inception_4a/5x5_reduce"
}
layer {
  name: "inception_4a/5x5"
  type: "Convolution"
  bottom: "inception_4a/5x5_reduce"
  top: "inception_4a/5x5"
  param {
    lr_mult: 1
    decay_mult: 1
  }
  param {
    lr_mult: 2
    decay_mult: 0
  }
  convolution_param {
    num_output: 48
    pad: 2
    kernel_size: 5
    weight_filler {
      type: "xavier"
      std: 0.03
    }
    bias_filler {
      type: "constant"
      value: 0.2
    }
  }
}
layer {
  name: "inception_4a/relu_5x5"
  type: "ReLU"
  bottom: "inception_4a/5x5"
  top: "inception_4a/5x5"
}
layer {
  name: "inception_4a/pool"
  type: "Pooling"
  bottom: "pool3/3x3_s2"
  top: "inception_4a/pool"
  pooling_param {
    pool: MAX
    kernel_size: 3
    stride: 1
    pad: 1
  }
}
layer {
  name: "inception_4a/pool_proj"
  type: "Convolution"
  bottom: "inception_4a/pool"
  top: "inception_4a/pool_proj"
  param {
    lr_mult: 1
    decay_mult: 1
  }
  param {
    lr_mult: 2
    decay_mult: 0
  }
  convolution_param {
    num_output: 64
    kernel_size: 1
    weight_filler {
      type: "xavier"
      std: 0.1
    }
    bias_filler {
      type: "constant"
      value: 0.2
    }
  }
}
layer {
  name: "inception_4a/relu_pool_proj"
  type: "ReLU"
  bottom: "inception_4a/pool_proj"
  top: "inception_4a/pool_proj"
}
layer {
  name: "inception_4a/output"
  type: "Concat"
  bottom: "inception_4a/1x1"
  bottom: "inception_4a/3x3"
  bottom: "inception_4a/5x5"
  bottom: "inception_4a/pool_proj"
  top: "inception_4a/output"
}
layer {
  name: "loss1/ave_pool"
  type: "Pooling"
  bottom: "inception_4a/output"
  top: "loss1/ave_pool"
  pooling_param {
    pool: AVE
    kernel_size: 5
    stride: 3
  }
}
layer {
  name: "loss1/conv"
  type: "Convolution"
  bottom: "loss1/ave_pool"
  top: "loss1/conv"
  param {
    lr_mult: 1
    decay_mult: 1
  }
  param {
    lr_mult: 2
    decay_mult: 0
  }
  convolution_param {
    num_output: 128
    kernel_size: 1
    weight_filler {
      type: "xavier"
      std: 0.08
    }
    bias_filler {
      type: "constant"
      value: 0.2
    }
  }
}
layer {
  name: "loss1/relu_conv"
  type: "ReLU"
  bottom: "loss1/conv"
  top: "loss1/conv"
}
layer {
  name: "loss1/fc"
  type: "InnerProduct"
  bottom: "loss1/conv"
  top: "loss1/fc"
  param {
    lr_mult: 1
    decay_mult: 1
  }
  param {
    lr_mult: 2
    decay_mult: 0
  }
  inner_product_param {
    num_output: 1024
    weight_filler {
      type: "xavier"
      std: 0.02
    }
    bias_filler {
      type: "constant"
      value: 0.2
    }
  }
}
layer {
  name: "loss1/relu_fc"
  type: "ReLU"
  bottom: "loss1/fc"
  top: "loss1/fc"
}
layer {
  name: "loss1/drop_fc"
  type: "Dropout"
  bottom: "loss1/fc"
  top: "loss1/fc"
  dropout_param {
    dropout_ratio: 0.7
  }
}
layer {
  name: "loss1/classifier_plantvillage"
  type: "InnerProduct"
  bottom: "loss1/fc"
  top: "loss1/classifier_plantvillage"
  param {
    lr_mult: 1
    decay_mult: 1
  }
  param {
    lr_mult: 2
    decay_mult: 0
  }
  inner_product_param {
    num_output: 38
    weight_filler {
      type: "xavier"
      std: 0.0009765625
    }
    bias_filler {
      type: "constant"
      value: 0
    }
  }
}
layer {
  name: "inception_4b/1x1"
  type: "Convolution"
  bottom: "inception_4a/output"
  top: "inception_4b/1x1"
  param {
    lr_mult: 1
    decay_mult: 1
  }
  param {
    lr_mult: 2
    decay_mult: 0
  }
  convolution_param {
    num_output: 160
    kernel_size: 1
    weight_filler {
      type: "xavier"
      std: 0.03
    }
    bias_filler {
      type: "constant"
      value: 0.2
    }
  }
}
layer {
  name: "inception_4b/relu_1x1"
  type: "ReLU"
  bottom: "inception_4b/1x1"
  top: "inception_4b/1x1"
}
layer {
  name: "inception_4b/3x3_reduce"
  type: "Convolution"
  bottom: "inception_4a/output"
  top: "inception_4b/3x3_reduce"
  param {
    lr_mult: 1
    decay_mult: 1
  }
  param {
    lr_mult: 2
    decay_mult: 0
  }
  convolution_param {
    num_output: 112
    kernel_size: 1
    weight_filler {
      type: "xavier"
      std: 0.09
    }
    bias_filler {
      type: "constant"
      value: 0.2
    }
  }
}
layer {
  name: "inception_4b/relu_3x3_reduce"
  type: "ReLU"
  bottom: "inception_4b/3x3_reduce"
  top: "inception_4b/3x3_reduce"
}
layer {
  name: "inception_4b/3x3"
  type: "Convolution"
  bottom: "inception_4b/3x3_reduce"
  top: "inception_4b/3x3"
  param {
    lr_mult: 1
    decay_mult: 1
  }
  param {
    lr_mult: 2
    decay_mult: 0
  }
  convolution_param {
    num_output: 224
    pad: 1
    kernel_size: 3
    weight_filler {
      type: "xavier"
      std: 0.03
    }
    bias_filler {
      type: "constant"
      value: 0.2
    }
  }
}
layer {
  name: "inception_4b/relu_3x3"
  type: "ReLU"
  bottom: "inception_4b/3x3"
  top: "inception_4b/3x3"
}
layer {
  name: "inception_4b/5x5_reduce"
  type: "Convolution"
  bottom: "inception_4a/output"
  top: "inception_4b/5x5_reduce"
  param {
    lr_mult: 1
    decay_mult: 1
  }
  param {
    lr_mult: 2
    decay_mult: 0
  }
  convolution_param {
    num_output: 24
    kernel_size: 1
    weight_filler {
      type: "xavier"
      std: 0.2
    }
    bias_filler {
      type: "constant"
      value: 0.2
    }
  }
}
layer {
  name: "inception_4b/relu_5x5_reduce"
  type: "ReLU"
  bottom: "inception_4b/5x5_reduce"
  top: "inception_4b/5x5_reduce"
}
layer {
  name: "inception_4b/5x5"
  type: "Convolution"
  bottom: "inception_4b/5x5_reduce"
  top: "inception_4b/5x5"
  param {
    lr_mult: 1
    decay_mult: 1
  }
  param {
    lr_mult: 2
    decay_mult: 0
  }
  convolution_param {
    num_output: 64
    pad: 2
    kernel_size: 5
    weight_filler {
      type: "xavier"
      std: 0.03
    }
    bias_filler {
      type: "constant"
      value: 0.2
    }
  }
}
layer {
  name: "inception_4b/relu_5x5"
  type: "ReLU"
  bottom: "inception_4b/5x5"
  top: "inception_4b/5x5"
}
layer {
  name: "inception_4b/pool"
  type: "Pooling"
  bottom: "inception_4a/output"
  top: "inception_4b/pool"
  pooling_param {
    pool: MAX
    kernel_size: 3
    stride: 1
    pad: 1
  }
}
layer {
  name: "inception_4b/pool_proj"
  type: "Convolution"
  bottom: "inception_4b/pool"
  top: "inception_4b/pool_proj"
  param {
    lr_mult: 1
    decay_mult: 1
  }
  param {
    lr_mult: 2
    decay_mult: 0
  }
  convolution_param {
    num_output: 64
    kernel_size: 1
    weight_filler {
      type: "xavier"
      std: 0.1
    }
    bias_filler {
      type: "constant"
      value: 0.2
    }
  }
}
layer {
  name: "inception_4b/relu_pool_proj"
  type: "ReLU"
  bottom: "inception_4b/pool_proj"
  top: "inception_4b/pool_proj"
}
layer {
  name: "inception_4b/output"
  type: "Concat"
  bottom: "inception_4b/1x1"
  bottom: "inception_4b/3x3"
  bottom: "inception_4b/5x5"
  bottom: "inception_4b/pool_proj"
  top: "inception_4b/output"
}
layer {
  name: "inception_4c/1x1"
  type: "Convolution"
  bottom: "inception_4b/output"
  top: "inception_4c/1x1"
  param {
    lr_mult: 1
    decay_mult: 1
  }
  param {
    lr_mult: 2
    decay_mult: 0
  }
  convolution_param {
    num_output: 128
    kernel_size: 1
    weight_filler {
      type: "xavier"
      std: 0.03
    }
    bias_filler {
      type: "constant"
      value: 0.2
    }
  }
}
layer {
  name: "inception_4c/relu_1x1"
  type: "ReLU"
  bottom: "inception_4c/1x1"
  top: "inception_4c/1x1"
}
layer {
  name: "inception_4c/3x3_reduce"
  type: "Convolution"
  bottom: "inception_4b/output"
  top: "inception_4c/3x3_reduce"
  param {
    lr_mult: 1
    decay_mult: 1
  }
  param {
    lr_mult: 2
    decay_mult: 0
  }
  convolution_param {
    num_output: 128
    kernel_size: 1
    weight_filler {
      type: "xavier"
      std: 0.09
    }
    bias_filler {
      type: "constant"
      value: 0.2
    }
  }
}
layer {
  name: "inception_4c/relu_3x3_reduce"
  type: "ReLU"
  bottom: "inception_4c/3x3_reduce"
  top: "inception_4c/3x3_reduce"
}
layer {
  name: "inception_4c/3x3"
  type: "Convolution"
  bottom: "inception_4c/3x3_reduce"
  top: "inception_4c/3x3"
  param {
    lr_mult: 1
    decay_mult: 1
  }
  param {
    lr_mult: 2
    decay_mult: 0
  }
  convolution_param {
    num_output: 256
    pad: 1
    kernel_size: 3
    weight_filler {
      type: "xavier"
      std: 0.03
    }
    bias_filler {
      type: "constant"
      value: 0.2
    }
  }
}
layer {
  name: "inception_4c/relu_3x3"
  type: "ReLU"
  bottom: "inception_4c/3x3"
  top: "inception_4c/3x3"
}
layer {
  name: "inception_4c/5x5_reduce"
  type: "Convolution"
  bottom: "inception_4b/output"
  top: "inception_4c/5x5_reduce"
  param {
    lr_mult: 1
    decay_mult: 1
  }
  param {
    lr_mult: 2
    decay_mult: 0
  }
  convolution_param {
    num_output: 24
    kernel_size: 1
    weight_filler {
      type: "xavier"
      std: 0.2
    }
    bias_filler {
      type: "constant"
      value: 0.2
    }
  }
}
layer {
  name: "inception_4c/relu_5x5_reduce"
  type: "ReLU"
  bottom: "inception_4c/5x5_reduce"
  top: "inception_4c/5x5_reduce"
}
layer {
  name: "inception_4c/5x5"
  type: "Convolution"
  bottom: "inception_4c/5x5_reduce"
  top: "inception_4c/5x5"
  param {
    lr_mult: 1
    decay_mult: 1
  }
  param {
    lr_mult: 2
    decay_mult: 0
  }
  convolution_param {
    num_output: 64
    pad: 2
    kernel_size: 5
    weight_filler {
      type: "xavier"
      std: 0.03
    }
    bias_filler {
      type: "constant"
      value: 0.2
    }
  }
}
layer {
  name: "inception_4c/relu_5x5"
  type: "ReLU"
  bottom: "inception_4c/5x5"
  top: "inception_4c/5x5"
}
layer {
  name: "inception_4c/pool"
  type: "Pooling"
  bottom: "inception_4b/output"
  top: "inception_4c/pool"
  pooling_param {
    pool: MAX
    kernel_size: 3
    stride: 1
    pad: 1
  }
}
layer {
  name: "inception_4c/pool_proj"
  type: "Convolution"
  bottom: "inception_4c/pool"
  top: "inception_4c/pool_proj"
  param {
    lr_mult: 1
    decay_mult: 1
  }
  param {
    lr_mult: 2
    decay_mult: 0
  }
  convolution_param {
    num_output: 64
    kernel_size: 1
    weight_filler {
      type: "xavier"
      std: 0.1
    }
    bias_filler {
      type: "constant"
      value: 0.2
    }
  }
}
layer {
  name: "inception_4c/relu_pool_proj"
  type: "ReLU"
  bottom: "inception_4c/pool_proj"
  top: "inception_4c/pool_proj"
}
layer {
  name: "inception_4c/output"
  type: "Concat"
  bottom: "inception_4c/1x1"
  bottom: "inception_4c/3x3"
  bottom: "inception_4c/5x5"
  bottom: "inception_4c/pool_proj"
  top: "inception_4c/output"
}
layer {
  name: "inception_4d/1x1"
  type: "Convolution"
  bottom: "inception_4c/output"
  top: "inception_4d/1x1"
  param {
    lr_mult: 1
    decay_mult: 1
  }
  param {
    lr_mult: 2
    decay_mult: 0
  }
  convolution_param {
    num_output: 112
    kernel_size: 1
    weight_filler {
      type: "xavier"
      std: 0.03
    }
    bias_filler {
      type: "constant"
      value: 0.2
    }
  }
}
layer {
  name: "inception_4d/relu_1x1"
  type: "ReLU"
  bottom: "inception_4d/1x1"
  top: "inception_4d/1x1"
}
layer {
  name: "inception_4d/3x3_reduce"
  type: "Convolution"
  bottom: "inception_4c/output"
  top: "inception_4d/3x3_reduce"
  param {
    lr_mult: 1
    decay_mult: 1
  }
  param {
    lr_mult: 2
    decay_mult: 0
  }
  convolution_param {
    num_output: 144
    kernel_size: 1
    weight_filler {
      type: "xavier"
      std: 0.09
    }
    bias_filler {
      type: "constant"
      value: 0.2
    }
  }
}
layer {
  name: "inception_4d/relu_3x3_reduce"
  type: "ReLU"
  bottom: "inception_4d/3x3_reduce"
  top: "inception_4d/3x3_reduce"
}
layer {
  name: "inception_4d/3x3"
  type: "Convolution"
  bottom: "inception_4d/3x3_reduce"
  top: "inception_4d/3x3"
  param {
    lr_mult: 1
    decay_mult: 1
  }
  param {
    lr_mult: 2
    decay_mult: 0
  }
  convolution_param {
    num_output: 288
    pad: 1
    kernel_size: 3
    weight_filler {
      type: "xavier"
      std: 0.03
    }
    bias_filler {
      type: "constant"
      value: 0.2
    }
  }
}
layer {
  name: "inception_4d/relu_3x3"
  type: "ReLU"
  bottom: "inception_4d/3x3"
  top: "inception_4d/3x3"
}
layer {
  name: "inception_4d/5x5_reduce"
  type: "Convolution"
  bottom: "inception_4c/output"
  top: "inception_4d/5x5_reduce"
  param {
    lr_mult: 1
    decay_mult: 1
  }
  param {
    lr_mult: 2
    decay_mult: 0
  }
  convolution_param {
    num_output: 32
    kernel_size: 1
    weight_filler {
      type: "xavier"
      std: 0.2
    }
    bias_filler {
      type: "constant"
      value: 0.2
    }
  }
}
layer {
  name: "inception_4d/relu_5x5_reduce"
  type: "ReLU"
  bottom: "inception_4d/5x5_reduce"
  top: "inception_4d/5x5_reduce"
}
layer {
  name: "inception_4d/5x5"
  type: "Convolution"
  bottom: "inception_4d/5x5_reduce"
  top: "inception_4d/5x5"
  param {
    lr_mult: 1
    decay_mult: 1
  }
  param {
    lr_mult: 2
    decay_mult: 0
  }
  convolution_param {
    num_output: 64
    pad: 2
    kernel_size: 5
    weight_filler {
      type: "xavier"
      std: 0.03
    }
    bias_filler {
      type: "constant"
      value: 0.2
    }
  }
}
layer {
  name: "inception_4d/relu_5x5"
  type: "ReLU"
  bottom: "inception_4d/5x5"
  top: "inception_4d/5x5"
}
layer {
  name: "inception_4d/pool"
  type: "Pooling"
  bottom: "inception_4c/output"
  top: "inception_4d/pool"
  pooling_param {
    pool: MAX
    kernel_size: 3
    stride: 1
    pad: 1
  }
}
layer {
  name: "inception_4d/pool_proj"
  type: "Convolution"
  bottom: "inception_4d/pool"
  top: "inception_4d/pool_proj"
  param {
    lr_mult: 1
    decay_mult: 1
  }
  param {
    lr_mult: 2
    decay_mult: 0
  }
  convolution_param {
    num_output: 64
    kernel_size: 1
    weight_filler {
      type: "xavier"
      std: 0.1
    }
    bias_filler {
      type: "constant"
      value: 0.2
    }
  }
}
layer {
  name: "inception_4d/relu_pool_proj"
  type: "ReLU"
  bottom: "inception_4d/pool_proj"
  top: "inception_4d/pool_proj"
}
layer {
  name: "inception_4d/output"
  type: "Concat"
  bottom: "inception_4d/1x1"
  bottom: "inception_4d/3x3"
  bottom: "inception_4d/5x5"
  bottom: "inception_4d/pool_proj"
  top: "inception_4d/output"
}
layer {
  name: "loss2/ave_pool"
  type: "Pooling"
  bottom: "inception_4d/output"
  top: "loss2/ave_pool"
  pooling_param {
    pool: AVE
    kernel_size: 5
    stride: 3
  }
}
layer {
  name: "loss2/conv"
  type: "Convolution"
  bottom: "loss2/ave_pool"
  top: "loss2/conv"
  param {
    lr_mult: 1
    decay_mult: 1
  }
  param {
    lr_mult: 2
    decay_mult: 0
  }
  convolution_param {
    num_output: 128
    kernel_size: 1
    weight_filler {
      type: "xavier"
      std: 0.08
    }
    bias_filler {
      type: "constant"
      value: 0.2
    }
  }
}
layer {
  name: "loss2/relu_conv"
  type: "ReLU"
  bottom: "loss2/conv"
  top: "loss2/conv"
}
layer {
  name: "loss2/fc"
  type: "InnerProduct"
  bottom: "loss2/conv"
  top: "loss2/fc"
  param {
    lr_mult: 1
    decay_mult: 1
  }
  param {
    lr_mult: 2
    decay_mult: 0
  }
  inner_product_param {
    num_output: 1024
    weight_filler {
      type: "xavier"
      std: 0.02
    }
    bias_filler {
      type: "constant"
      value: 0.2
    }
  }
}
layer {
  name: "loss2/relu_fc"
  type: "ReLU"
  bottom: "loss2/fc"
  top: "loss2/fc"
}
layer {
  name: "loss2/drop_fc"
  type: "Dropout"
  bottom: "loss2/fc"
  top: "loss2/fc"
  dropout_param {
    dropout_ratio: 0.7
  }
}
layer {
  name: "loss2/classifier_plantvillage"
  type: "InnerProduct"
  bottom: "loss2/fc"
  top: "loss2/classifier_plantvillage"
  param {
    lr_mult: 1
    decay_mult: 1
  }
  param {
    lr_mult: 2
    decay_mult: 0
  }
  inner_product_param {
    num_output: 38
    weight_filler {
      type: "xavier"
      std: 0.0009765625
    }
    bias_filler {
      type: "constant"
      value: 0
    }
  }
}
layer {
  name: "inception_4e/1x1"
  type: "Convolution"
  bottom: "inception_4d/output"
  top: "inception_4e/1x1"
  param {
    lr_mult: 1
    decay_mult: 1
  }
  param {
    lr_mult: 2
    decay_mult: 0
  }
  convolution_param {
    num_output: 256
    kernel_size: 1
    weight_filler {
      type: "xavier"
      std: 0.03
    }
    bias_filler {
      type: "constant"
      value: 0.2
    }
  }
}
layer {
  name: "inception_4e/relu_1x1"
  type: "ReLU"
  bottom: "inception_4e/1x1"
  top: "inception_4e/1x1"
}
layer {
  name: "inception_4e/3x3_reduce"
  type: "Convolution"
  bottom: "inception_4d/output"
  top: "inception_4e/3x3_reduce"
  param {
    lr_mult: 1
    decay_mult: 1
  }
  param {
    lr_mult: 2
    decay_mult: 0
  }
  convolution_param {
    num_output: 160
    kernel_size: 1
    weight_filler {
      type: "xavier"
      std: 0.09
    }
    bias_filler {
      type: "constant"
      value: 0.2
    }
  }
}
layer {
  name: "inception_4e/relu_3x3_reduce"
  type: "ReLU"
  bottom: "inception_4e/3x3_reduce"
  top: "inception_4e/3x3_reduce"
}
layer {
  name: "inception_4e/3x3"
  type: "Convolution"
  bottom: "inception_4e/3x3_reduce"
  top: "inception_4e/3x3"
  param {
    lr_mult: 1
    decay_mult: 1
  }
  param {
    lr_mult: 2
    decay_mult: 0
  }
  convolution_param {
    num_output: 320
    pad: 1
    kernel_size: 3
    weight_filler {
      type: "xavier"
      std: 0.03
    }
    bias_filler {
      type: "constant"
      value: 0.2
    }
  }
}
layer {
  name: "inception_4e/relu_3x3"
  type: "ReLU"
  bottom: "inception_4e/3x3"
  top: "inception_4e/3x3"
}
layer {
  name: "inception_4e/5x5_reduce"
  type: "Convolution"
  bottom: "inception_4d/output"
  top: "inception_4e/5x5_reduce"
  param {
    lr_mult: 1
    decay_mult: 1
  }
  param {
    lr_mult: 2
    decay_mult: 0
  }
  convolution_param {
    num_output: 32
    kernel_size: 1
    weight_filler {
      type: "xavier"
      std: 0.2
    }
    bias_filler {
      type: "constant"
      value: 0.2
    }
  }
}
layer {
  name: "inception_4e/relu_5x5_reduce"
  type: "ReLU"
  bottom: "inception_4e/5x5_reduce"
  top: "inception_4e/5x5_reduce"
}
layer {
  name: "inception_4e/5x5"
  type: "Convolution"
  bottom: "inception_4e/5x5_reduce"
  top: "inception_4e/5x5"
  p
I0403 19:29:26.847654  9300 layer_factory.hpp:77] Creating layer data
I0403 19:29:26.848376  9300 net.cpp:91] Creating Layer data
I0403 19:29:26.848425  9300 net.cpp:399] data -> data
I0403 19:29:26.848501  9300 net.cpp:399] data -> label
I0403 19:29:26.848547  9300 data_transformer.cpp:25] Loading mean file from: /home/mohanty/data/final_dataset/lmdb/color-60-40/mean.binaryproto
I0403 19:29:26.849908  9303 db_lmdb.cpp:38] Opened lmdb /home/mohanty/data/final_dataset/lmdb/color-60-40/test_db
I0403 19:29:26.864863  9300 data_layer.cpp:41] output data size: 24,3,224,224
I0403 19:29:26.896407  9300 net.cpp:141] Setting up data
I0403 19:29:26.896499  9300 net.cpp:148] Top shape: 24 3 224 224 (3612672)
I0403 19:29:26.896528  9300 net.cpp:148] Top shape: 24 (24)
I0403 19:29:26.896548  9300 net.cpp:156] Memory required for data: 14450784
I0403 19:29:26.896584  9300 layer_factory.hpp:77] Creating layer label_data_1_split
I0403 19:29:26.896620  9300 net.cpp:91] Creating Layer label_data_1_split
I0403 19:29:26.896642  9300 net.cpp:425] label_data_1_split <- label
I0403 19:29:26.896683  9300 net.cpp:399] label_data_1_split -> label_data_1_split_0
I0403 19:29:26.896718  9300 net.cpp:399] label_data_1_split -> label_data_1_split_1
I0403 19:29:26.896744  9300 net.cpp:399] label_data_1_split -> label_data_1_split_2
I0403 19:29:26.896770  9300 net.cpp:399] label_data_1_split -> label_data_1_split_3
I0403 19:29:26.896795  9300 net.cpp:399] label_data_1_split -> label_data_1_split_4
I0403 19:29:26.896819  9300 net.cpp:399] label_data_1_split -> label_data_1_split_5
I0403 19:29:26.896842  9300 net.cpp:399] label_data_1_split -> label_data_1_split_6
I0403 19:29:26.896867  9300 net.cpp:399] label_data_1_split -> label_data_1_split_7
I0403 19:29:26.896889  9300 net.cpp:399] label_data_1_split -> label_data_1_split_8
I0403 19:29:26.896914  9300 net.cpp:399] label_data_1_split -> label_data_1_split_9
I0403 19:29:26.897054  9300 net.cpp:141] Setting up label_data_1_split
I0403 19:29:26.897083  9300 net.cpp:148] Top shape: 24 (24)
I0403 19:29:26.897104  9300 net.cpp:148] Top shape: 24 (24)
I0403 19:29:26.897125  9300 net.cpp:148] Top shape: 24 (24)
I0403 19:29:26.897145  9300 net.cpp:148] Top shape: 24 (24)
I0403 19:29:26.897164  9300 net.cpp:148] Top shape: 24 (24)
I0403 19:29:26.897186  9300 net.cpp:148] Top shape: 24 (24)
I0403 19:29:26.897207  9300 net.cpp:148] Top shape: 24 (24)
I0403 19:29:26.897227  9300 net.cpp:148] Top shape: 24 (24)
I0403 19:29:26.897246  9300 net.cpp:148] Top shape: 24 (24)
I0403 19:29:26.897266  9300 net.cpp:148] Top shape: 24 (24)
I0403 19:29:26.897326  9300 net.cpp:156] Memory required for data: 14451744
I0403 19:29:26.897347  9300 layer_factory.hpp:77] Creating layer conv1/7x7_s2
I0403 19:29:26.897389  9300 net.cpp:91] Creating Layer conv1/7x7_s2
I0403 19:29:26.897413  9300 net.cpp:425] conv1/7x7_s2 <- data
I0403 19:29:26.897441  9300 net.cpp:399] conv1/7x7_s2 -> conv1/7x7_s2
I0403 19:29:27.065412  9300 net.cpp:141] Setting up conv1/7x7_s2
I0403 19:29:27.065505  9300 net.cpp:148] Top shape: 24 64 112 112 (19267584)
I0403 19:29:27.065527  9300 net.cpp:156] Memory required for data: 91522080
I0403 19:29:27.065568  9300 layer_factory.hpp:77] Creating layer conv1/relu_7x7
I0403 19:29:27.065604  9300 net.cpp:91] Creating Layer conv1/relu_7x7
I0403 19:29:27.065629  9300 net.cpp:425] conv1/relu_7x7 <- conv1/7x7_s2
I0403 19:29:27.065654  9300 net.cpp:386] conv1/relu_7x7 -> conv1/7x7_s2 (in-place)
I0403 19:29:27.065961  9300 net.cpp:141] Setting up conv1/relu_7x7
I0403 19:29:27.066054  9300 net.cpp:148] Top shape: 24 64 112 112 (19267584)
I0403 19:29:27.066081  9300 net.cpp:156] Memory required for data: 168592416
I0403 19:29:27.066100  9300 layer_factory.hpp:77] Creating layer pool1/3x3_s2
I0403 19:29:27.066133  9300 net.cpp:91] Creating Layer pool1/3x3_s2
I0403 19:29:27.066155  9300 net.cpp:425] pool1/3x3_s2 <- conv1/7x7_s2
I0403 19:29:27.066179  9300 net.cpp:399] pool1/3x3_s2 -> pool1/3x3_s2
I0403 19:29:27.066272  9300 net.cpp:141] Setting up pool1/3x3_s2
I0403 19:29:27.066301  9300 net.cpp:148] Top shape: 24 64 56 56 (4816896)
I0403 19:29:27.066319  9300 net.cpp:156] Memory required for data: 187860000
I0403 19:29:27.066339  9300 layer_factory.hpp:77] Creating layer pool1/norm1
I0403 19:29:27.066370  9300 net.cpp:91] Creating Layer pool1/norm1
I0403 19:29:27.066392  9300 net.cpp:425] pool1/norm1 <- pool1/3x3_s2
I0403 19:29:27.066414  9300 net.cpp:399] pool1/norm1 -> pool1/norm1
I0403 19:29:27.066766  9300 net.cpp:141] Setting up pool1/norm1
I0403 19:29:27.066800  9300 net.cpp:148] Top shape: 24 64 56 56 (4816896)
I0403 19:29:27.066820  9300 net.cpp:156] Memory required for data: 207127584
I0403 19:29:27.066839  9300 layer_factory.hpp:77] Creating layer conv2/3x3_reduce
I0403 19:29:27.066871  9300 net.cpp:91] Creating Layer conv2/3x3_reduce
I0403 19:29:27.066892  9300 net.cpp:425] conv2/3x3_reduce <- pool1/norm1
I0403 19:29:27.066916  9300 net.cpp:399] conv2/3x3_reduce -> conv2/3x3_reduce
I0403 19:29:27.068603  9300 net.cpp:141] Setting up conv2/3x3_reduce
I0403 19:29:27.068639  9300 net.cpp:148] Top shape: 24 64 56 56 (4816896)
I0403 19:29:27.068660  9300 net.cpp:156] Memory required for data: 226395168
I0403 19:29:27.068687  9300 layer_factory.hpp:77] Creating layer conv2/relu_3x3_reduce
I0403 19:29:27.068714  9300 net.cpp:91] Creating Layer conv2/relu_3x3_reduce
I0403 19:29:27.068737  9300 net.cpp:425] conv2/relu_3x3_reduce <- conv2/3x3_reduce
I0403 19:29:27.068758  9300 net.cpp:386] conv2/relu_3x3_reduce -> conv2/3x3_reduce (in-place)
I0403 19:29:27.069079  9300 net.cpp:141] Setting up conv2/relu_3x3_reduce
I0403 19:29:27.069113  9300 net.cpp:148] Top shape: 24 64 56 56 (4816896)
I0403 19:29:27.069133  9300 net.cpp:156] Memory required for data: 245662752
I0403 19:29:27.069154  9300 layer_factory.hpp:77] Creating layer conv2/3x3
I0403 19:29:27.069190  9300 net.cpp:91] Creating Layer conv2/3x3
I0403 19:29:27.069212  9300 net.cpp:425] conv2/3x3 <- conv2/3x3_reduce
I0403 19:29:27.069239  9300 net.cpp:399] conv2/3x3 -> conv2/3x3
I0403 19:29:27.072053  9300 net.cpp:141] Setting up conv2/3x3
I0403 19:29:27.072091  9300 net.cpp:148] Top shape: 24 192 56 56 (14450688)
I0403 19:29:27.072111  9300 net.cpp:156] Memory required for data: 303465504
I0403 19:29:27.072139  9300 layer_factory.hpp:77] Creating layer conv2/relu_3x3
I0403 19:29:27.072165  9300 net.cpp:91] Creating Layer conv2/relu_3x3
I0403 19:29:27.072185  9300 net.cpp:425] conv2/relu_3x3 <- conv2/3x3
I0403 19:29:27.072207  9300 net.cpp:386] conv2/relu_3x3 -> conv2/3x3 (in-place)
I0403 19:29:27.072499  9300 net.cpp:141] Setting up conv2/relu_3x3
I0403 19:29:27.072540  9300 net.cpp:148] Top shape: 24 192 56 56 (14450688)
I0403 19:29:27.072602  9300 net.cpp:156] Memory required for data: 361268256
I0403 19:29:27.072623  9300 layer_factory.hpp:77] Creating layer conv2/norm2
I0403 19:29:27.072645  9300 net.cpp:91] Creating Layer conv2/norm2
I0403 19:29:27.072665  9300 net.cpp:425] conv2/norm2 <- conv2/3x3
I0403 19:29:27.072692  9300 net.cpp:399] conv2/norm2 -> conv2/norm2
I0403 19:29:27.073065  9300 net.cpp:141] Setting up conv2/norm2
I0403 19:29:27.073099  9300 net.cpp:148] Top shape: 24 192 56 56 (14450688)
I0403 19:29:27.073118  9300 net.cpp:156] Memory required for data: 419071008
I0403 19:29:27.073137  9300 layer_factory.hpp:77] Creating layer pool2/3x3_s2
I0403 19:29:27.073161  9300 net.cpp:91] Creating Layer pool2/3x3_s2
I0403 19:29:27.073181  9300 net.cpp:425] pool2/3x3_s2 <- conv2/norm2
I0403 19:29:27.073206  9300 net.cpp:399] pool2/3x3_s2 -> pool2/3x3_s2
I0403 19:29:27.073271  9300 net.cpp:141] Setting up pool2/3x3_s2
I0403 19:29:27.073299  9300 net.cpp:148] Top shape: 24 192 28 28 (3612672)
I0403 19:29:27.073318  9300 net.cpp:156] Memory required for data: 433521696
I0403 19:29:27.073338  9300 layer_factory.hpp:77] Creating layer pool2/3x3_s2_pool2/3x3_s2_0_split
I0403 19:29:27.073364  9300 net.cpp:91] Creating Layer pool2/3x3_s2_pool2/3x3_s2_0_split
I0403 19:29:27.073384  9300 net.cpp:425] pool2/3x3_s2_pool2/3x3_s2_0_split <- pool2/3x3_s2
I0403 19:29:27.073408  9300 net.cpp:399] pool2/3x3_s2_pool2/3x3_s2_0_split -> pool2/3x3_s2_pool2/3x3_s2_0_split_0
I0403 19:29:27.073441  9300 net.cpp:399] pool2/3x3_s2_pool2/3x3_s2_0_split -> pool2/3x3_s2_pool2/3x3_s2_0_split_1
I0403 19:29:27.073467  9300 net.cpp:399] pool2/3x3_s2_pool2/3x3_s2_0_split -> pool2/3x3_s2_pool2/3x3_s2_0_split_2
I0403 19:29:27.073492  9300 net.cpp:399] pool2/3x3_s2_pool2/3x3_s2_0_split -> pool2/3x3_s2_pool2/3x3_s2_0_split_3
I0403 19:29:27.073575  9300 net.cpp:141] Setting up pool2/3x3_s2_pool2/3x3_s2_0_split
I0403 19:29:27.073604  9300 net.cpp:148] Top shape: 24 192 28 28 (3612672)
I0403 19:29:27.073626  9300 net.cpp:148] Top shape: 24 192 28 28 (3612672)
I0403 19:29:27.073645  9300 net.cpp:148] Top shape: 24 192 28 28 (3612672)
I0403 19:29:27.073665  9300 net.cpp:148] Top shape: 24 192 28 28 (3612672)
I0403 19:29:27.073684  9300 net.cpp:156] Memory required for data: 491324448
I0403 19:29:27.073703  9300 layer_factory.hpp:77] Creating layer inception_3a/1x1
I0403 19:29:27.073731  9300 net.cpp:91] Creating Layer inception_3a/1x1
I0403 19:29:27.073753  9300 net.cpp:425] inception_3a/1x1 <- pool2/3x3_s2_pool2/3x3_s2_0_split_0
I0403 19:29:27.073779  9300 net.cpp:399] inception_3a/1x1 -> inception_3a/1x1
I0403 19:29:27.075695  9300 net.cpp:141] Setting up inception_3a/1x1
I0403 19:29:27.075732  9300 net.cpp:148] Top shape: 24 64 28 28 (1204224)
I0403 19:29:27.075753  9300 net.cpp:156] Memory required for data: 496141344
I0403 19:29:27.075776  9300 layer_factory.hpp:77] Creating layer inception_3a/relu_1x1
I0403 19:29:27.075806  9300 net.cpp:91] Creating Layer inception_3a/relu_1x1
I0403 19:29:27.075829  9300 net.cpp:425] inception_3a/relu_1x1 <- inception_3a/1x1
I0403 19:29:27.075850  9300 net.cpp:386] inception_3a/relu_1x1 -> inception_3a/1x1 (in-place)
I0403 19:29:27.076061  9300 net.cpp:141] Setting up inception_3a/relu_1x1
I0403 19:29:27.076092  9300 net.cpp:148] Top shape: 24 64 28 28 (1204224)
I0403 19:29:27.076112  9300 net.cpp:156] Memory required for data: 500958240
I0403 19:29:27.076129  9300 layer_factory.hpp:77] Creating layer inception_3a/3x3_reduce
I0403 19:29:27.076161  9300 net.cpp:91] Creating Layer inception_3a/3x3_reduce
I0403 19:29:27.076184  9300 net.cpp:425] inception_3a/3x3_reduce <- pool2/3x3_s2_pool2/3x3_s2_0_split_1
I0403 19:29:27.076207  9300 net.cpp:399] inception_3a/3x3_reduce -> inception_3a/3x3_reduce
I0403 19:29:27.078234  9300 net.cpp:141] Setting up inception_3a/3x3_reduce
I0403 19:29:27.078271  9300 net.cpp:148] Top shape: 24 96 28 28 (1806336)
I0403 19:29:27.078292  9300 net.cpp:156] Memory required for data: 508183584
I0403 19:29:27.078318  9300 layer_factory.hpp:77] Creating layer inception_3a/relu_3x3_reduce
I0403 19:29:27.078366  9300 net.cpp:91] Creating Layer inception_3a/relu_3x3_reduce
I0403 19:29:27.078390  9300 net.cpp:425] inception_3a/relu_3x3_reduce <- inception_3a/3x3_reduce
I0403 19:29:27.078413  9300 net.cpp:386] inception_3a/relu_3x3_reduce -> inception_3a/3x3_reduce (in-place)
I0403 19:29:27.078649  9300 net.cpp:141] Setting up inception_3a/relu_3x3_reduce
I0403 19:29:27.078680  9300 net.cpp:148] Top shape: 24 96 28 28 (1806336)
I0403 19:29:27.078699  9300 net.cpp:156] Memory required for data: 515408928
I0403 19:29:27.078718  9300 layer_factory.hpp:77] Creating layer inception_3a/3x3
I0403 19:29:27.078747  9300 net.cpp:91] Creating Layer inception_3a/3x3
I0403 19:29:27.078769  9300 net.cpp:425] inception_3a/3x3 <- inception_3a/3x3_reduce
I0403 19:29:27.078796  9300 net.cpp:399] inception_3a/3x3 -> inception_3a/3x3
I0403 19:29:27.080791  9300 net.cpp:141] Setting up inception_3a/3x3
I0403 19:29:27.080826  9300 net.cpp:148] Top shape: 24 128 28 28 (2408448)
I0403 19:29:27.080847  9300 net.cpp:156] Memory required for data: 525042720
I0403 19:29:27.080870  9300 layer_factory.hpp:77] Creating layer inception_3a/relu_3x3
I0403 19:29:27.080898  9300 net.cpp:91] Creating Layer inception_3a/relu_3x3
I0403 19:29:27.080919  9300 net.cpp:425] inception_3a/relu_3x3 <- inception_3a/3x3
I0403 19:29:27.080940  9300 net.cpp:386] inception_3a/relu_3x3 -> inception_3a/3x3 (in-place)
I0403 19:29:27.081264  9300 net.cpp:141] Setting up inception_3a/relu_3x3
I0403 19:29:27.081297  9300 net.cpp:148] Top shape: 24 128 28 28 (2408448)
I0403 19:29:27.081317  9300 net.cpp:156] Memory required for data: 534676512
I0403 19:29:27.081336  9300 layer_factory.hpp:77] Creating layer inception_3a/5x5_reduce
I0403 19:29:27.081365  9300 net.cpp:91] Creating Layer inception_3a/5x5_reduce
I0403 19:29:27.081388  9300 net.cpp:425] inception_3a/5x5_reduce <- pool2/3x3_s2_pool2/3x3_s2_0_split_2
I0403 19:29:27.081415  9300 net.cpp:399] inception_3a/5x5_reduce -> inception_3a/5x5_reduce
I0403 19:29:27.082592  9300 net.cpp:141] Setting up inception_3a/5x5_reduce
I0403 19:29:27.082628  9300 net.cpp:148] Top shape: 24 16 28 28 (301056)
I0403 19:29:27.082650  9300 net.cpp:156] Memory required for data: 535880736
I0403 19:29:27.082675  9300 layer_factory.hpp:77] Creating layer inception_3a/relu_5x5_reduce
I0403 19:29:27.082698  9300 net.cpp:91] Creating Layer inception_3a/relu_5x5_reduce
I0403 19:29:27.082720  9300 net.cpp:425] inception_3a/relu_5x5_reduce <- inception_3a/5x5_reduce
I0403 19:29:27.082742  9300 net.cpp:386] inception_3a/relu_5x5_reduce -> inception_3a/5x5_reduce (in-place)
I0403 19:29:27.083089  9300 net.cpp:141] Setting up inception_3a/relu_5x5_reduce
I0403 19:29:27.083129  9300 net.cpp:148] Top shape: 24 16 28 28 (301056)
I0403 19:29:27.083150  9300 net.cpp:156] Memory required for data: 537084960
I0403 19:29:27.083170  9300 layer_factory.hpp:77] Creating layer inception_3a/5x5
I0403 19:29:27.083197  9300 net.cpp:91] Creating Layer inception_3a/5x5
I0403 19:29:27.083220  9300 net.cpp:425] inception_3a/5x5 <- inception_3a/5x5_reduce
I0403 19:29:27.083243  9300 net.cpp:399] inception_3a/5x5 -> inception_3a/5x5
I0403 19:29:27.084471  9300 net.cpp:141] Setting up inception_3a/5x5
I0403 19:29:27.084506  9300 net.cpp:148] Top shape: 24 32 28 28 (602112)
I0403 19:29:27.084527  9300 net.cpp:156] Memory required for data: 539493408
I0403 19:29:27.084550  9300 layer_factory.hpp:77] Creating layer inception_3a/relu_5x5
I0403 19:29:27.084576  9300 net.cpp:91] Creating Layer inception_3a/relu_5x5
I0403 19:29:27.084597  9300 net.cpp:425] inception_3a/relu_5x5 <- inception_3a/5x5
I0403 19:29:27.084620  9300 net.cpp:386] inception_3a/relu_5x5 -> inception_3a/5x5 (in-place)
I0403 19:29:27.084830  9300 net.cpp:141] Setting up inception_3a/relu_5x5
I0403 19:29:27.084862  9300 net.cpp:148] Top shape: 24 32 28 28 (602112)
I0403 19:29:27.084882  9300 net.cpp:156] Memory required for data: 541901856
I0403 19:29:27.084900  9300 layer_factory.hpp:77] Creating layer inception_3a/pool
I0403 19:29:27.084926  9300 net.cpp:91] Creating Layer inception_3a/pool
I0403 19:29:27.084946  9300 net.cpp:425] inception_3a/pool <- pool2/3x3_s2_pool2/3x3_s2_0_split_3
I0403 19:29:27.084985  9300 net.cpp:399] inception_3a/pool -> inception_3a/pool
I0403 19:29:27.085059  9300 net.cpp:141] Setting up inception_3a/pool
I0403 19:29:27.085088  9300 net.cpp:148] Top shape: 24 192 28 28 (3612672)
I0403 19:29:27.085108  9300 net.cpp:156] Memory required for data: 556352544
I0403 19:29:27.085125  9300 layer_factory.hpp:77] Creating layer inception_3a/pool_proj
I0403 19:29:27.085155  9300 net.cpp:91] Creating Layer inception_3a/pool_proj
I0403 19:29:27.085176  9300 net.cpp:425] inception_3a/pool_proj <- inception_3a/pool
I0403 19:29:27.085203  9300 net.cpp:399] inception_3a/pool_proj -> inception_3a/pool_proj
I0403 19:29:27.086370  9300 net.cpp:141] Setting up inception_3a/pool_proj
I0403 19:29:27.086408  9300 net.cpp:148] Top shape: 24 32 28 28 (602112)
I0403 19:29:27.086436  9300 net.cpp:156] Memory required for data: 558760992
I0403 19:29:27.086483  9300 layer_factory.hpp:77] Creating layer inception_3a/relu_pool_proj
I0403 19:29:27.086509  9300 net.cpp:91] Creating Layer inception_3a/relu_pool_proj
I0403 19:29:27.086530  9300 net.cpp:425] inception_3a/relu_pool_proj <- inception_3a/pool_proj
I0403 19:29:27.086552  9300 net.cpp:386] inception_3a/relu_pool_proj -> inception_3a/pool_proj (in-place)
I0403 19:29:27.086890  9300 net.cpp:141] Setting up inception_3a/relu_pool_proj
I0403 19:29:27.086932  9300 net.cpp:148] Top shape: 24 32 28 28 (602112)
I0403 19:29:27.086973  9300 net.cpp:156] Memory required for data: 561169440
I0403 19:29:27.087014  9300 layer_factory.hpp:77] Creating layer inception_3a/output
I0403 19:29:27.087070  9300 net.cpp:91] Creating Layer inception_3a/output
I0403 19:29:27.087105  9300 net.cpp:425] inception_3a/output <- inception_3a/1x1
I0403 19:29:27.087148  9300 net.cpp:425] inception_3a/output <- inception_3a/3x3
I0403 19:29:27.087206  9300 net.cpp:425] inception_3a/output <- inception_3a/5x5
I0403 19:29:27.087229  9300 net.cpp:425] inception_3a/output <- inception_3a/pool_proj
I0403 19:29:27.087249  9300 net.cpp:399] inception_3a/output -> inception_3a/output
I0403 19:29:27.087309  9300 net.cpp:141] Setting up inception_3a/output
I0403 19:29:27.087338  9300 net.cpp:148] Top shape: 24 256 28 28 (4816896)
I0403 19:29:27.087357  9300 net.cpp:156] Memory required for data: 580437024
I0403 19:29:27.087376  9300 layer_factory.hpp:77] Creating layer inception_3a/output_inception_3a/output_0_split
I0403 19:29:27.087399  9300 net.cpp:91] Creating Layer inception_3a/output_inception_3a/output_0_split
I0403 19:29:27.087417  9300 net.cpp:425] inception_3a/output_inception_3a/output_0_split <- inception_3a/output
I0403 19:29:27.087451  9300 net.cpp:399] inception_3a/output_inception_3a/output_0_split -> inception_3a/output_inception_3a/output_0_split_0
I0403 19:29:27.087478  9300 net.cpp:399] inception_3a/output_inception_3a/output_0_split -> inception_3a/output_inception_3a/output_0_split_1
I0403 19:29:27.087505  9300 net.cpp:399] inception_3a/output_inception_3a/output_0_split -> inception_3a/output_inception_3a/output_0_split_2
I0403 19:29:27.087532  9300 net.cpp:399] inception_3a/output_inception_3a/output_0_split -> inception_3a/output_inception_3a/output_0_split_3
I0403 19:29:27.087622  9300 net.cpp:141] Setting up inception_3a/output_inception_3a/output_0_split
I0403 19:29:27.087651  9300 net.cpp:148] Top shape: 24 256 28 28 (4816896)
I0403 19:29:27.087674  9300 net.cpp:148] Top shape: 24 256 28 28 (4816896)
I0403 19:29:27.087694  9300 net.cpp:148] Top shape: 24 256 28 28 (4816896)
I0403 19:29:27.087713  9300 net.cpp:148] Top shape: 24 256 28 28 (4816896)
I0403 19:29:27.087731  9300 net.cpp:156] Memory required for data: 657507360
I0403 19:29:27.087750  9300 layer_factory.hpp:77] Creating layer inception_3b/1x1
I0403 19:29:27.087779  9300 net.cpp:91] Creating Layer inception_3b/1x1
I0403 19:29:27.087801  9300 net.cpp:425] inception_3b/1x1 <- inception_3a/output_inception_3a/output_0_split_0
I0403 19:29:27.087828  9300 net.cpp:399] inception_3b/1x1 -> inception_3b/1x1
I0403 19:29:27.089216  9300 net.cpp:141] Setting up inception_3b/1x1
I0403 19:29:27.089265  9300 net.cpp:148] Top shape: 24 128 28 28 (2408448)
I0403 19:29:27.089287  9300 net.cpp:156] Memory required for data: 667141152
I0403 19:29:27.089309  9300 layer_factory.hpp:77] Creating layer inception_3b/relu_1x1
I0403 19:29:27.089332  9300 net.cpp:91] Creating Layer inception_3b/relu_1x1
I0403 19:29:27.089354  9300 net.cpp:425] inception_3b/relu_1x1 <- inception_3b/1x1
I0403 19:29:27.089378  9300 net.cpp:386] inception_3b/relu_1x1 -> inception_3b/1x1 (in-place)
I0403 19:29:27.089601  9300 net.cpp:141] Setting up inception_3b/relu_1x1
I0403 19:29:27.089632  9300 net.cpp:148] Top shape: 24 128 28 28 (2408448)
I0403 19:29:27.089653  9300 net.cpp:156] Memory required for data: 676774944
I0403 19:29:27.089670  9300 layer_factory.hpp:77] Creating layer inception_3b/3x3_reduce
I0403 19:29:27.089699  9300 net.cpp:91] Creating Layer inception_3b/3x3_reduce
I0403 19:29:27.089721  9300 net.cpp:425] inception_3b/3x3_reduce <- inception_3a/output_inception_3a/output_0_split_1
I0403 19:29:27.089750  9300 net.cpp:399] inception_3b/3x3_reduce -> inception_3b/3x3_reduce
I0403 19:29:27.091130  9300 net.cpp:141] Setting up inception_3b/3x3_reduce
I0403 19:29:27.091164  9300 net.cpp:148] Top shape: 24 128 28 28 (2408448)
I0403 19:29:27.091183  9300 net.cpp:156] Memory required for data: 686408736
I0403 19:29:27.091207  9300 layer_factory.hpp:77] Creating layer inception_3b/relu_3x3_reduce
I0403 19:29:27.091234  9300 net.cpp:91] Creating Layer inception_3b/relu_3x3_reduce
I0403 19:29:27.091255  9300 net.cpp:425] inception_3b/relu_3x3_reduce <- inception_3b/3x3_reduce
I0403 19:29:27.091277  9300 net.cpp:386] inception_3b/relu_3x3_reduce -> inception_3b/3x3_reduce (in-place)
I0403 19:29:27.091497  9300 net.cpp:141] Setting up inception_3b/relu_3x3_reduce
I0403 19:29:27.091529  9300 net.cpp:148] Top shape: 24 128 28 28 (2408448)
I0403 19:29:27.091548  9300 net.cpp:156] Memory required for data: 696042528
I0403 19:29:27.091567  9300 layer_factory.hpp:77] Creating layer inception_3b/3x3
I0403 19:29:27.091599  9300 net.cpp:91] Creating Layer inception_3b/3x3
I0403 19:29:27.091622  9300 net.cpp:425] inception_3b/3x3 <- inception_3b/3x3_reduce
I0403 19:29:27.091647  9300 net.cpp:399] inception_3b/3x3 -> inception_3b/3x3
I0403 19:29:27.095180  9300 net.cpp:141] Setting up inception_3b/3x3
I0403 19:29:27.095216  9300 net.cpp:148] Top shape: 24 192 28 28 (3612672)
I0403 19:29:27.095237  9300 net.cpp:156] Memory required for data: 710493216
I0403 19:29:27.095259  9300 layer_factory.hpp:77] Creating layer inception_3b/relu_3x3
I0403 19:29:27.095285  9300 net.cpp:91] Creating Layer inception_3b/relu_3x3
I0403 19:29:27.095306  9300 net.cpp:425] inception_3b/relu_3x3 <- inception_3b/3x3
I0403 19:29:27.095329  9300 net.cpp:386] inception_3b/relu_3x3 -> inception_3b/3x3 (in-place)
I0403 19:29:27.095664  9300 net.cpp:141] Setting up inception_3b/relu_3x3
I0403 19:29:27.095698  9300 net.cpp:148] Top shape: 24 192 28 28 (3612672)
I0403 19:29:27.095718  9300 net.cpp:156] Memory required for data: 724943904
I0403 19:29:27.095737  9300 layer_factory.hpp:77] Creating layer inception_3b/5x5_reduce
I0403 19:29:27.095765  9300 net.cpp:91] Creating Layer inception_3b/5x5_reduce
I0403 19:29:27.095788  9300 net.cpp:425] inception_3b/5x5_reduce <- inception_3a/output_inception_3a/output_0_split_2
I0403 19:29:27.095818  9300 net.cpp:399] inception_3b/5x5_reduce -> inception_3b/5x5_reduce
I0403 19:29:27.097043  9300 net.cpp:141] Setting up inception_3b/5x5_reduce
I0403 19:29:27.097079  9300 net.cpp:148] Top shape: 24 32 28 28 (602112)
I0403 19:29:27.097097  9300 net.cpp:156] Memory required for data: 727352352
I0403 19:29:27.097121  9300 layer_factory.hpp:77] Creating layer inception_3b/relu_5x5_reduce
I0403 19:29:27.097146  9300 net.cpp:91] Creating Layer inception_3b/relu_5x5_reduce
I0403 19:29:27.097168  9300 net.cpp:425] inception_3b/relu_5x5_reduce <- inception_3b/5x5_reduce
I0403 19:29:27.097189  9300 net.cpp:386] inception_3b/relu_5x5_reduce -> inception_3b/5x5_reduce (in-place)
I0403 19:29:27.097409  9300 net.cpp:141] Setting up inception_3b/relu_5x5_reduce
I0403 19:29:27.097462  9300 net.cpp:148] Top shape: 24 32 28 28 (602112)
I0403 19:29:27.097482  9300 net.cpp:156] Memory required for data: 729760800
I0403 19:29:27.097501  9300 layer_factory.hpp:77] Creating layer inception_3b/5x5
I0403 19:29:27.097532  9300 net.cpp:91] Creating Layer inception_3b/5x5
I0403 19:29:27.097554  9300 net.cpp:425] inception_3b/5x5 <- inception_3b/5x5_reduce
I0403 19:29:27.097579  9300 net.cpp:399] inception_3b/5x5 -> inception_3b/5x5
I0403 19:29:27.099956  9300 net.cpp:141] Setting up inception_3b/5x5
I0403 19:29:27.099993  9300 net.cpp:148] Top shape: 24 96 28 28 (1806336)
I0403 19:29:27.100013  9300 net.cpp:156] Memory required for data: 736986144
I0403 19:29:27.100036  9300 layer_factory.hpp:77] Creating layer inception_3b/relu_5x5
I0403 19:29:27.100059  9300 net.cpp:91] Creating Layer inception_3b/relu_5x5
I0403 19:29:27.100109  9300 net.cpp:425] inception_3b/relu_5x5 <- inception_3b/5x5
I0403 19:29:27.100131  9300 net.cpp:386] inception_3b/relu_5x5 -> inception_3b/5x5 (in-place)
I0403 19:29:27.100366  9300 net.cpp:141] Setting up inception_3b/relu_5x5
I0403 19:29:27.100399  9300 net.cpp:148] Top shape: 24 96 28 28 (1806336)
I0403 19:29:27.100417  9300 net.cpp:156] Memory required for data: 744211488
I0403 19:29:27.100445  9300 layer_factory.hpp:77] Creating layer inception_3b/pool
I0403 19:29:27.100467  9300 net.cpp:91] Creating Layer inception_3b/pool
I0403 19:29:27.100487  9300 net.cpp:425] inception_3b/pool <- inception_3a/output_inception_3a/output_0_split_3
I0403 19:29:27.100510  9300 net.cpp:399] inception_3b/pool -> inception_3b/pool
I0403 19:29:27.100581  9300 net.cpp:141] Setting up inception_3b/pool
I0403 19:29:27.100610  9300 net.cpp:148] Top shape: 24 256 28 28 (4816896)
I0403 19:29:27.100628  9300 net.cpp:156] Memory required for data: 763479072
I0403 19:29:27.100647  9300 layer_factory.hpp:77] Creating layer inception_3b/pool_proj
I0403 19:29:27.100675  9300 net.cpp:91] Creating Layer inception_3b/pool_proj
I0403 19:29:27.100698  9300 net.cpp:425] inception_3b/pool_proj <- inception_3b/pool
I0403 19:29:27.100724  9300 net.cpp:399] inception_3b/pool_proj -> inception_3b/pool_proj
I0403 19:29:27.102004  9300 net.cpp:141] Setting up inception_3b/pool_proj
I0403 19:29:27.102041  9300 net.cpp:148] Top shape: 24 64 28 28 (1204224)
I0403 19:29:27.102062  9300 net.cpp:156] Memory required for data: 768295968
I0403 19:29:27.102085  9300 layer_factory.hpp:77] Creating layer inception_3b/relu_pool_proj
I0403 19:29:27.102109  9300 net.cpp:91] Creating Layer inception_3b/relu_pool_proj
I0403 19:29:27.102129  9300 net.cpp:425] inception_3b/relu_pool_proj <- inception_3b/pool_proj
I0403 19:29:27.102154  9300 net.cpp:386] inception_3b/relu_pool_proj -> inception_3b/pool_proj (in-place)
I0403 19:29:27.102639  9300 net.cpp:141] Setting up inception_3b/relu_pool_proj
I0403 19:29:27.102675  9300 net.cpp:148] Top shape: 24 64 28 28 (1204224)
I0403 19:29:27.102696  9300 net.cpp:156] Memory required for data: 773112864
I0403 19:29:27.102716  9300 layer_factory.hpp:77] Creating layer inception_3b/output
I0403 19:29:27.102738  9300 net.cpp:91] Creating Layer inception_3b/output
I0403 19:29:27.102759  9300 net.cpp:425] inception_3b/output <- inception_3b/1x1
I0403 19:29:27.102782  9300 net.cpp:425] inception_3b/output <- inception_3b/3x3
I0403 19:29:27.102802  9300 net.cpp:425] inception_3b/output <- inception_3b/5x5
I0403 19:29:27.102820  9300 net.cpp:425] inception_3b/output <- inception_3b/pool_proj
I0403 19:29:27.102841  9300 net.cpp:399] inception_3b/output -> inception_3b/output
I0403 19:29:27.102895  9300 net.cpp:141] Setting up inception_3b/output
I0403 19:29:27.102926  9300 net.cpp:148] Top shape: 24 480 28 28 (9031680)
I0403 19:29:27.102944  9300 net.cpp:156] Memory required for data: 809239584
I0403 19:29:27.102963  9300 layer_factory.hpp:77] Creating layer pool3/3x3_s2
I0403 19:29:27.102988  9300 net.cpp:91] Creating Layer pool3/3x3_s2
I0403 19:29:27.103008  9300 net.cpp:425] pool3/3x3_s2 <- inception_3b/output
I0403 19:29:27.103030  9300 net.cpp:399] pool3/3x3_s2 -> pool3/3x3_s2
I0403 19:29:27.103121  9300 net.cpp:141] Setting up pool3/3x3_s2
I0403 19:29:27.103150  9300 net.cpp:148] Top shape: 24 480 14 14 (2257920)
I0403 19:29:27.103170  9300 net.cpp:156] Memory required for data: 818271264
I0403 19:29:27.103189  9300 layer_factory.hpp:77] Creating layer pool3/3x3_s2_pool3/3x3_s2_0_split
I0403 19:29:27.103211  9300 net.cpp:91] Creating Layer pool3/3x3_s2_pool3/3x3_s2_0_split
I0403 19:29:27.103231  9300 net.cpp:425] pool3/3x3_s2_pool3/3x3_s2_0_split <- pool3/3x3_s2
I0403 19:29:27.103255  9300 net.cpp:399] pool3/3x3_s2_pool3/3x3_s2_0_split -> pool3/3x3_s2_pool3/3x3_s2_0_split_0
I0403 19:29:27.103281  9300 net.cpp:399] pool3/3x3_s2_pool3/3x3_s2_0_split -> pool3/3x3_s2_pool3/3x3_s2_0_split_1
I0403 19:29:27.103307  9300 net.cpp:399] pool3/3x3_s2_pool3/3x3_s2_0_split -> pool3/3x3_s2_pool3/3x3_s2_0_split_2
I0403 19:29:27.103329  9300 net.cpp:399] pool3/3x3_s2_pool3/3x3_s2_0_split -> pool3/3x3_s2_pool3/3x3_s2_0_split_3
I0403 19:29:27.103422  9300 net.cpp:141] Setting up pool3/3x3_s2_pool3/3x3_s2_0_split
I0403 19:29:27.103461  9300 net.cpp:148] Top shape: 24 480 14 14 (2257920)
I0403 19:29:27.103483  9300 net.cpp:148] Top shape: 24 480 14 14 (2257920)
I0403 19:29:27.103505  9300 net.cpp:148] Top shape: 24 480 14 14 (2257920)
I0403 19:29:27.103525  9300 net.cpp:148] Top shape: 24 480 14 14 (2257920)
I0403 19:29:27.103544  9300 net.cpp:156] Memory required for data: 854397984
I0403 19:29:27.103564  9300 layer_factory.hpp:77] Creating layer inception_4a/1x1
I0403 19:29:27.103595  9300 net.cpp:91] Creating Layer inception_4a/1x1
I0403 19:29:27.103617  9300 net.cpp:425] inception_4a/1x1 <- pool3/3x3_s2_pool3/3x3_s2_0_split_0
I0403 19:29:27.103641  9300 net.cpp:399] inception_4a/1x1 -> inception_4a/1x1
I0403 19:29:27.105563  9300 net.cpp:141] Setting up inception_4a/1x1
I0403 19:29:27.105600  9300 net.cpp:148] Top shape: 24 192 14 14 (903168)
I0403 19:29:27.105622  9300 net.cpp:156] Memory required for data: 858010656
I0403 19:29:27.105645  9300 layer_factory.hpp:77] Creating layer inception_4a/relu_1x1
I0403 19:29:27.105669  9300 net.cpp:91] Creating Layer inception_4a/relu_1x1
I0403 19:29:27.105689  9300 net.cpp:425] inception_4a/relu_1x1 <- inception_4a/1x1
I0403 19:29:27.105716  9300 net.cpp:386] inception_4a/relu_1x1 -> inception_4a/1x1 (in-place)
I0403 19:29:27.105931  9300 net.cpp:141] Setting up inception_4a/relu_1x1
I0403 19:29:27.105963  9300 net.cpp:148] Top shape: 24 192 14 14 (903168)
I0403 19:29:27.105983  9300 net.cpp:156] Memory required for data: 861623328
I0403 19:29:27.106003  9300 layer_factory.hpp:77] Creating layer inception_4a/3x3_reduce
I0403 19:29:27.106030  9300 net.cpp:91] Creating Layer inception_4a/3x3_reduce
I0403 19:29:27.106053  9300 net.cpp:425] inception_4a/3x3_reduce <- pool3/3x3_s2_pool3/3x3_s2_0_split_1
I0403 19:29:27.106081  9300 net.cpp:399] inception_4a/3x3_reduce -> inception_4a/3x3_reduce
I0403 19:29:27.107620  9300 net.cpp:141] Setting up inception_4a/3x3_reduce
I0403 19:29:27.107656  9300 net.cpp:148] Top shape: 24 96 14 14 (451584)
I0403 19:29:27.107677  9300 net.cpp:156] Memory required for data: 863429664
I0403 19:29:27.107707  9300 layer_factory.hpp:77] Creating layer inception_4a/relu_3x3_reduce
I0403 19:29:27.107733  9300 net.cpp:91] Creating Layer inception_4a/relu_3x3_reduce
I0403 19:29:27.107754  9300 net.cpp:425] inception_4a/relu_3x3_reduce <- inception_4a/3x3_reduce
I0403 19:29:27.107776  9300 net.cpp:386] inception_4a/relu_3x3_reduce -> inception_4a/3x3_reduce (in-place)
I0403 19:29:27.107992  9300 net.cpp:141] Setting up inception_4a/relu_3x3_reduce
I0403 19:29:27.108023  9300 net.cpp:148] Top shape: 24 96 14 14 (451584)
I0403 19:29:27.108042  9300 net.cpp:156] Memory required for data: 865236000
I0403 19:29:27.108062  9300 layer_factory.hpp:77] Creating layer inception_4a/3x3
I0403 19:29:27.108090  9300 net.cpp:91] Creating Layer inception_4a/3x3
I0403 19:29:27.108111  9300 net.cpp:425] inception_4a/3x3 <- inception_4a/3x3_reduce
I0403 19:29:27.108139  9300 net.cpp:399] inception_4a/3x3 -> inception_4a/3x3
I0403 19:29:27.111385  9300 net.cpp:141] Setting up inception_4a/3x3
I0403 19:29:27.111421  9300 net.cpp:148] Top shape: 24 208 14 14 (978432)
I0403 19:29:27.111448  9300 net.cpp:156] Memory required for data: 869149728
I0403 19:29:27.111471  9300 layer_factory.hpp:77] Creating layer inception_4a/relu_3x3
I0403 19:29:27.111498  9300 net.cpp:91] Creating Layer inception_4a/relu_3x3
I0403 19:29:27.111521  9300 net.cpp:425] inception_4a/relu_3x3 <- inception_4a/3x3
I0403 19:29:27.111543  9300 net.cpp:386] inception_4a/relu_3x3 -> inception_4a/3x3 (in-place)
I0403 19:29:27.111876  9300 net.cpp:141] Setting up inception_4a/relu_3x3
I0403 19:29:27.111909  9300 net.cpp:148] Top shape: 24 208 14 14 (978432)
I0403 19:29:27.111928  9300 net.cpp:156] Memory required for data: 873063456
I0403 19:29:27.111948  9300 layer_factory.hpp:77] Creating layer inception_4a/5x5_reduce
I0403 19:29:27.111977  9300 net.cpp:91] Creating Layer inception_4a/5x5_reduce
I0403 19:29:27.111999  9300 net.cpp:425] inception_4a/5x5_reduce <- pool3/3x3_s2_pool3/3x3_s2_0_split_2
I0403 19:29:27.112027  9300 net.cpp:399] inception_4a/5x5_reduce -> inception_4a/5x5_reduce
I0403 19:29:27.113272  9300 net.cpp:141] Setting up inception_4a/5x5_reduce
I0403 19:29:27.113307  9300 net.cpp:148] Top shape: 24 16 14 14 (75264)
I0403 19:29:27.113327  9300 net.cpp:156] Memory required for data: 873364512
I0403 19:29:27.113351  9300 layer_factory.hpp:77] Creating layer inception_4a/relu_5x5_reduce
I0403 19:29:27.113376  9300 net.cpp:91] Creating Layer inception_4a/relu_5x5_reduce
I0403 19:29:27.113399  9300 net.cpp:425] inception_4a/relu_5x5_reduce <- inception_4a/5x5_reduce
I0403 19:29:27.113422  9300 net.cpp:386] inception_4a/relu_5x5_reduce -> inception_4a/5x5_reduce (in-place)
I0403 19:29:27.113648  9300 net.cpp:141] Setting up inception_4a/relu_5x5_reduce
I0403 19:29:27.113680  9300 net.cpp:148] Top shape: 24 16 14 14 (75264)
I0403 19:29:27.113698  9300 net.cpp:156] Memory required for data: 873665568
I0403 19:29:27.113718  9300 layer_factory.hpp:77] Creating layer inception_4a/5x5
I0403 19:29:27.113749  9300 net.cpp:91] Creating Layer inception_4a/5x5
I0403 19:29:27.113771  9300 net.cpp:425] inception_4a/5x5 <- inception_4a/5x5_reduce
I0403 19:29:27.113795  9300 net.cpp:399] inception_4a/5x5 -> inception_4a/5x5
I0403 19:29:27.115121  9300 net.cpp:141] Setting up inception_4a/5x5
I0403 19:29:27.115159  9300 net.cpp:148] Top shape: 24 48 14 14 (225792)
I0403 19:29:27.115180  9300 net.cpp:156] Memory required for data: 874568736
I0403 19:29:27.115206  9300 layer_factory.hpp:77] Creating layer inception_4a/relu_5x5
I0403 19:29:27.115229  9300 net.cpp:91] Creating Layer inception_4a/relu_5x5
I0403 19:29:27.115250  9300 net.cpp:425] inception_4a/relu_5x5 <- inception_4a/5x5
I0403 19:29:27.115273  9300 net.cpp:386] inception_4a/relu_5x5 -> inception_4a/5x5 (in-place)
I0403 19:29:27.115504  9300 net.cpp:141] Setting up inception_4a/relu_5x5
I0403 19:29:27.115537  9300 net.cpp:148] Top shape: 24 48 14 14 (225792)
I0403 19:29:27.115558  9300 net.cpp:156] Memory required for data: 875471904
I0403 19:29:27.115577  9300 layer_factory.hpp:77] Creating layer inception_4a/pool
I0403 19:29:27.115600  9300 net.cpp:91] Creating Layer inception_4a/pool
I0403 19:29:27.115620  9300 net.cpp:425] inception_4a/pool <- pool3/3x3_s2_pool3/3x3_s2_0_split_3
I0403 19:29:27.115645  9300 net.cpp:399] inception_4a/pool -> inception_4a/pool
I0403 19:29:27.115720  9300 net.cpp:141] Setting up inception_4a/pool
I0403 19:29:27.115751  9300 net.cpp:148] Top shape: 24 480 14 14 (2257920)
I0403 19:29:27.115772  9300 net.cpp:156] Memory required for data: 884503584
I0403 19:29:27.115792  9300 layer_factory.hpp:77] Creating layer inception_4a/pool_proj
I0403 19:29:27.115820  9300 net.cpp:91] Creating Layer inception_4a/pool_proj
I0403 19:29:27.115842  9300 net.cpp:425] inception_4a/pool_proj <- inception_4a/pool
I0403 19:29:27.115866  9300 net.cpp:399] inception_4a/pool_proj -> inception_4a/pool_proj
I0403 19:29:27.117274  9300 net.cpp:141] Setting up inception_4a/pool_proj
I0403 19:29:27.117313  9300 net.cpp:148] Top shape: 24 64 14 14 (301056)
I0403 19:29:27.117352  9300 net.cpp:156] Memory required for data: 885707808
I0403 19:29:27.117375  9300 layer_factory.hpp:77] Creating layer inception_4a/relu_pool_proj
I0403 19:29:27.117398  9300 net.cpp:91] Creating Layer inception_4a/relu_pool_proj
I0403 19:29:27.117419  9300 net.cpp:425] inception_4a/relu_pool_proj <- inception_4a/pool_proj
I0403 19:29:27.117452  9300 net.cpp:386] inception_4a/relu_pool_proj -> inception_4a/pool_proj (in-place)
I0403 19:29:27.117794  9300 net.cpp:141] Setting up inception_4a/relu_pool_proj
I0403 19:29:27.117830  9300 net.cpp:148] Top shape: 24 64 14 14 (301056)
I0403 19:29:27.117851  9300 net.cpp:156] Memory required for data: 886912032
I0403 19:29:27.117871  9300 layer_factory.hpp:77] Creating layer inception_4a/output
I0403 19:29:27.117898  9300 net.cpp:91] Creating Layer inception_4a/output
I0403 19:29:27.117918  9300 net.cpp:425] inception_4a/output <- inception_4a/1x1
I0403 19:29:27.117940  9300 net.cpp:425] inception_4a/output <- inception_4a/3x3
I0403 19:29:27.117960  9300 net.cpp:425] inception_4a/output <- inception_4a/5x5
I0403 19:29:27.117980  9300 net.cpp:425] inception_4a/output <- inception_4a/pool_proj
I0403 19:29:27.118001  9300 net.cpp:399] inception_4a/output -> inception_4a/output
I0403 19:29:27.118057  9300 net.cpp:141] Setting up inception_4a/output
I0403 19:29:27.118086  9300 net.cpp:148] Top shape: 24 512 14 14 (2408448)
I0403 19:29:27.118105  9300 net.cpp:156] Memory required for data: 896545824
I0403 19:29:27.118124  9300 layer_factory.hpp:77] Creating layer inception_4a/output_inception_4a/output_0_split
I0403 19:29:27.118149  9300 net.cpp:91] Creating Layer inception_4a/output_inception_4a/output_0_split
I0403 19:29:27.118170  9300 net.cpp:425] inception_4a/output_inception_4a/output_0_split <- inception_4a/output
I0403 19:29:27.118192  9300 net.cpp:399] inception_4a/output_inception_4a/output_0_split -> inception_4a/output_inception_4a/output_0_split_0
I0403 19:29:27.118217  9300 net.cpp:399] inception_4a/output_inception_4a/output_0_split -> inception_4a/output_inception_4a/output_0_split_1
I0403 19:29:27.118243  9300 net.cpp:399] inception_4a/output_inception_4a/output_0_split -> inception_4a/output_inception_4a/output_0_split_2
I0403 19:29:27.118275  9300 net.cpp:399] inception_4a/output_inception_4a/output_0_split -> inception_4a/output_inception_4a/output_0_split_3
I0403 19:29:27.118300  9300 net.cpp:399] inception_4a/output_inception_4a/output_0_split -> inception_4a/output_inception_4a/output_0_split_4
I0403 19:29:27.118414  9300 net.cpp:141] Setting up inception_4a/output_inception_4a/output_0_split
I0403 19:29:27.118451  9300 net.cpp:148] Top shape: 24 512 14 14 (2408448)
I0403 19:29:27.118474  9300 net.cpp:148] Top shape: 24 512 14 14 (2408448)
I0403 19:29:27.118496  9300 net.cpp:148] Top shape: 24 512 14 14 (2408448)
I0403 19:29:27.118516  9300 net.cpp:148] Top shape: 24 512 14 14 (2408448)
I0403 19:29:27.118536  9300 net.cpp:148] Top shape: 24 512 14 14 (2408448)
I0403 19:29:27.118553  9300 net.cpp:156] Memory required for data: 944714784
I0403 19:29:27.118572  9300 layer_factory.hpp:77] Creating layer loss1/ave_pool
I0403 19:29:27.118597  9300 net.cpp:91] Creating Layer loss1/ave_pool
I0403 19:29:27.118618  9300 net.cpp:425] loss1/ave_pool <- inception_4a/output_inception_4a/output_0_split_0
I0403 19:29:27.118641  9300 net.cpp:399] loss1/ave_pool -> loss1/ave_pool
I0403 19:29:27.118892  9300 net.cpp:141] Setting up loss1/ave_pool
I0403 19:29:27.118927  9300 net.cpp:148] Top shape: 24 512 4 4 (196608)
I0403 19:29:27.118948  9300 net.cpp:156] Memory required for data: 945501216
I0403 19:29:27.118968  9300 layer_factory.hpp:77] Creating layer loss1/conv
I0403 19:29:27.118996  9300 net.cpp:91] Creating Layer loss1/conv
I0403 19:29:27.119019  9300 net.cpp:425] loss1/conv <- loss1/ave_pool
I0403 19:29:27.119043  9300 net.cpp:399] loss1/conv -> loss1/conv
I0403 19:29:27.120766  9300 net.cpp:141] Setting up loss1/conv
I0403 19:29:27.120801  9300 net.cpp:148] Top shape: 24 128 4 4 (49152)
I0403 19:29:27.120822  9300 net.cpp:156] Memory required for data: 945697824
I0403 19:29:27.120863  9300 layer_factory.hpp:77] Creating layer loss1/relu_conv
I0403 19:29:27.120890  9300 net.cpp:91] Creating Layer loss1/relu_conv
I0403 19:29:27.120913  9300 net.cpp:425] loss1/relu_conv <- loss1/conv
I0403 19:29:27.120935  9300 net.cpp:386] loss1/relu_conv -> loss1/conv (in-place)
I0403 19:29:27.121270  9300 net.cpp:141] Setting up loss1/relu_conv
I0403 19:29:27.121302  9300 net.cpp:148] Top shape: 24 128 4 4 (49152)
I0403 19:29:27.121322  9300 net.cpp:156] Memory required for data: 945894432
I0403 19:29:27.121341  9300 layer_factory.hpp:77] Creating layer loss1/fc
I0403 19:29:27.121376  9300 net.cpp:91] Creating Layer loss1/fc
I0403 19:29:27.121398  9300 net.cpp:425] loss1/fc <- loss1/conv
I0403 19:29:27.121422  9300 net.cpp:399] loss1/fc -> loss1/fc
I0403 19:29:27.143456  9300 net.cpp:141] Setting up loss1/fc
I0403 19:29:27.143497  9300 net.cpp:148] Top shape: 24 1024 (24576)
I0403 19:29:27.143517  9300 net.cpp:156] Memory required for data: 945992736
I0403 19:29:27.143542  9300 layer_factory.hpp:77] Creating layer loss1/relu_fc
I0403 19:29:27.143564  9300 net.cpp:91] Creating Layer loss1/relu_fc
I0403 19:29:27.143585  9300 net.cpp:425] loss1/relu_fc <- loss1/fc
I0403 19:29:27.143610  9300 net.cpp:386] loss1/relu_fc -> loss1/fc (in-place)
I0403 19:29:27.143837  9300 net.cpp:141] Setting up loss1/relu_fc
I0403 19:29:27.143868  9300 net.cpp:148] Top shape: 24 1024 (24576)
I0403 19:29:27.143888  9300 net.cpp:156] Memory required for data: 946091040
I0403 19:29:27.143908  9300 layer_factory.hpp:77] Creating layer loss1/drop_fc
I0403 19:29:27.143939  9300 net.cpp:91] Creating Layer loss1/drop_fc
I0403 19:29:27.143964  9300 net.cpp:425] loss1/drop_fc <- loss1/fc
I0403 19:29:27.143985  9300 net.cpp:386] loss1/drop_fc -> loss1/fc (in-place)
I0403 19:29:27.144048  9300 net.cpp:141] Setting up loss1/drop_fc
I0403 19:29:27.144078  9300 net.cpp:148] Top shape: 24 1024 (24576)
I0403 19:29:27.144096  9300 net.cpp:156] Memory required for data: 946189344
I0403 19:29:27.144116  9300 layer_factory.hpp:77] Creating layer loss1/classifier_plantvillage
I0403 19:29:27.144145  9300 net.cpp:91] Creating Layer loss1/classifier_plantvillage
I0403 19:29:27.144167  9300 net.cpp:425] loss1/classifier_plantvillage <- loss1/fc
I0403 19:29:27.144192  9300 net.cpp:399] loss1/classifier_plantvillage -> loss1/classifier_plantvillage
I0403 19:29:27.145293  9300 net.cpp:141] Setting up loss1/classifier_plantvillage
I0403 19:29:27.145329  9300 net.cpp:148] Top shape: 24 38 (912)
I0403 19:29:27.145349  9300 net.cpp:156] Memory required for data: 946192992
I0403 19:29:27.145373  9300 layer_factory.hpp:77] Creating layer loss1/classifier_plantvillage_loss1/classifier_plantvillage_0_split
I0403 19:29:27.145396  9300 net.cpp:91] Creating Layer loss1/classifier_plantvillage_loss1/classifier_plantvillage_0_split
I0403 19:29:27.145417  9300 net.cpp:425] loss1/classifier_plantvillage_loss1/classifier_plantvillage_0_split <- loss1/classifier_plantvillage
I0403 19:29:27.145449  9300 net.cpp:399] loss1/classifier_plantvillage_loss1/classifier_plantvillage_0_split -> loss1/classifier_plantvillage_loss1/classifier_plantvillage_0_split_0
I0403 19:29:27.145478  9300 net.cpp:399] loss1/classifier_plantvillage_loss1/classifier_plantvillage_0_split -> loss1/classifier_plantvillage_loss1/classifier_plantvillage_0_split_1
I0403 19:29:27.145503  9300 net.cpp:399] loss1/classifier_plantvillage_loss1/classifier_plantvillage_0_split -> loss1/classifier_plantvillage_loss1/classifier_plantvillage_0_split_2
I0403 19:29:27.145583  9300 net.cpp:141] Setting up loss1/classifier_plantvillage_loss1/classifier_plantvillage_0_split
I0403 19:29:27.145615  9300 net.cpp:148] Top shape: 24 38 (912)
I0403 19:29:27.145638  9300 net.cpp:148] Top shape: 24 38 (912)
I0403 19:29:27.145658  9300 net.cpp:148] Top shape: 24 38 (912)
I0403 19:29:27.145676  9300 net.cpp:156] Memory required for data: 946203936
I0403 19:29:27.145695  9300 layer_factory.hpp:77] Creating layer inception_4b/1x1
I0403 19:29:27.145720  9300 net.cpp:91] Creating Layer inception_4b/1x1
I0403 19:29:27.145761  9300 net.cpp:425] inception_4b/1x1 <- inception_4a/output_inception_4a/output_0_split_1
I0403 19:29:27.145787  9300 net.cpp:399] inception_4b/1x1 -> inception_4b/1x1
I0403 19:29:27.147794  9300 net.cpp:141] Setting up inception_4b/1x1
I0403 19:29:27.147830  9300 net.cpp:148] Top shape: 24 160 14 14 (752640)
I0403 19:29:27.147850  9300 net.cpp:156] Memory required for data: 949214496
I0403 19:29:27.147872  9300 layer_factory.hpp:77] Creating layer inception_4b/relu_1x1
I0403 19:29:27.147902  9300 net.cpp:91] Creating Layer inception_4b/relu_1x1
I0403 19:29:27.147923  9300 net.cpp:425] inception_4b/relu_1x1 <- inception_4b/1x1
I0403 19:29:27.147946  9300 net.cpp:386] inception_4b/relu_1x1 -> inception_4b/1x1 (in-place)
I0403 19:29:27.148166  9300 net.cpp:141] Setting up inception_4b/relu_1x1
I0403 19:29:27.148198  9300 net.cpp:148] Top shape: 24 160 14 14 (752640)
I0403 19:29:27.148216  9300 net.cpp:156] Memory required for data: 952225056
I0403 19:29:27.148236  9300 layer_factory.hpp:77] Creating layer inception_4b/3x3_reduce
I0403 19:29:27.148264  9300 net.cpp:91] Creating Layer inception_4b/3x3_reduce
I0403 19:29:27.148288  9300 net.cpp:425] inception_4b/3x3_reduce <- inception_4a/output_inception_4a/output_0_split_2
I0403 19:29:27.148313  9300 net.cpp:399] inception_4b/3x3_reduce -> inception_4b/3x3_reduce
I0403 19:29:27.149979  9300 net.cpp:141] Setting up inception_4b/3x3_reduce
I0403 19:29:27.150014  9300 net.cpp:148] Top shape: 24 112 14 14 (526848)
I0403 19:29:27.150034  9300 net.cpp:156] Memory required for data: 954332448
I0403 19:29:27.150058  9300 layer_factory.hpp:77] Creating layer inception_4b/relu_3x3_reduce
I0403 19:29:27.150085  9300 net.cpp:91] Creating Layer inception_4b/relu_3x3_reduce
I0403 19:29:27.150109  9300 net.cpp:425] inception_4b/relu_3x3_reduce <- inception_4b/3x3_reduce
I0403 19:29:27.150131  9300 net.cpp:386] inception_4b/relu_3x3_reduce -> inception_4b/3x3_reduce (in-place)
I0403 19:29:27.150485  9300 net.cpp:141] Setting up inception_4b/relu_3x3_reduce
I0403 19:29:27.150518  9300 net.cpp:148] Top shape: 24 112 14 14 (526848)
I0403 19:29:27.150538  9300 net.cpp:156] Memory required for data: 956439840
I0403 19:29:27.150558  9300 layer_factory.hpp:77] Creating layer inception_4b/3x3
I0403 19:29:27.150589  9300 net.cpp:91] Creating Layer inception_4b/3x3
I0403 19:29:27.150612  9300 net.cpp:425] inception_4b/3x3 <- inception_4b/3x3_reduce
I0403 19:29:27.150635  9300 net.cpp:399] inception_4b/3x3 -> inception_4b/3x3
I0403 19:29:27.154278  9300 net.cpp:141] Setting up inception_4b/3x3
I0403 19:29:27.154317  9300 net.cpp:148] Top shape: 24 224 14 14 (1053696)
I0403 19:29:27.154338  9300 net.cpp:156] Memory required for data: 960654624
I0403 19:29:27.154363  9300 layer_factory.hpp:77] Creating layer inception_4b/relu_3x3
I0403 19:29:27.154386  9300 net.cpp:91] Creating Layer inception_4b/relu_3x3
I0403 19:29:27.154407  9300 net.cpp:425] inception_4b/relu_3x3 <- inception_4b/3x3
I0403 19:29:27.154436  9300 net.cpp:386] inception_4b/relu_3x3 -> inception_4b/3x3 (in-place)
I0403 19:29:27.154664  9300 net.cpp:141] Setting up inception_4b/relu_3x3
I0403 19:29:27.154695  9300 net.cpp:148] Top shape: 24 224 14 14 (1053696)
I0403 19:29:27.154714  9300 net.cpp:156] Memory required for data: 964869408
I0403 19:29:27.154734  9300 layer_factory.hpp:77] Creating layer inception_4b/5x5_reduce
I0403 19:29:27.154762  9300 net.cpp:91] Creating Layer inception_4b/5x5_reduce
I0403 19:29:27.154783  9300 net.cpp:425] inception_4b/5x5_reduce <- inception_4a/output_inception_4a/output_0_split_3
I0403 19:29:27.154811  9300 net.cpp:399] inception_4b/5x5_reduce -> inception_4b/5x5_reduce
I0403 19:29:27.156131  9300 net.cpp:141] Setting up inception_4b/5x5_reduce
I0403 19:29:27.156167  9300 net.cpp:148] Top shape: 24 24 14 14 (112896)
I0403 19:29:27.156186  9300 net.cpp:156] Memory required for data: 965320992
I0403 19:29:27.156209  9300 layer_factory.hpp:77] Creating layer inception_4b/relu_5x5_reduce
I0403 19:29:27.156237  9300 net.cpp:91] Creating Layer inception_4b/relu_5x5_reduce
I0403 19:29:27.156277  9300 net.cpp:425] inception_4b/relu_5x5_reduce <- inception_4b/5x5_reduce
I0403 19:29:27.156301  9300 net.cpp:386] inception_4b/relu_5x5_reduce -> inception_4b/5x5_reduce (in-place)
I0403 19:29:27.156532  9300 net.cpp:141] Setting up inception_4b/relu_5x5_reduce
I0403 19:29:27.156566  9300 net.cpp:148] Top shape: 24 24 14 14 (112896)
I0403 19:29:27.156586  9300 net.cpp:156] Memory required for data: 965772576
I0403 19:29:27.156606  9300 layer_factory.hpp:77] Creating layer inception_4b/5x5
I0403 19:29:27.156635  9300 net.cpp:91] Creating Layer inception_4b/5x5
I0403 19:29:27.156656  9300 net.cpp:425] inception_4b/5x5 <- inception_4b/5x5_reduce
I0403 19:29:27.156682  9300 net.cpp:399] inception_4b/5x5 -> inception_4b/5x5
I0403 19:29:27.158185  9300 net.cpp:141] Setting up inception_4b/5x5
I0403 19:29:27.158221  9300 net.cpp:148] Top shape: 24 64 14 14 (301056)
I0403 19:29:27.158241  9300 net.cpp:156] Memory required for data: 966976800
I0403 19:29:27.158264  9300 layer_factory.hpp:77] Creating layer inception_4b/relu_5x5
I0403 19:29:27.158291  9300 net.cpp:91] Creating Layer inception_4b/relu_5x5
I0403 19:29:27.158313  9300 net.cpp:425] inception_4b/relu_5x5 <- inception_4b/5x5
I0403 19:29:27.158334  9300 net.cpp:386] inception_4b/relu_5x5 -> inception_4b/5x5 (in-place)
I0403 19:29:27.158689  9300 net.cpp:141] Setting up inception_4b/relu_5x5
I0403 19:29:27.158721  9300 net.cpp:148] Top shape: 24 64 14 14 (301056)
I0403 19:29:27.158740  9300 net.cpp:156] Memory required for data: 968181024
I0403 19:29:27.158761  9300 layer_factory.hpp:77] Creating layer inception_4b/pool
I0403 19:29:27.158787  9300 net.cpp:91] Creating Layer inception_4b/pool
I0403 19:29:27.158808  9300 net.cpp:425] inception_4b/pool <- inception_4a/output_inception_4a/output_0_split_4
I0403 19:29:27.158830  9300 net.cpp:399] inception_4b/pool -> inception_4b/pool
I0403 19:29:27.158911  9300 net.cpp:141] Setting up inception_4b/pool
I0403 19:29:27.158942  9300 net.cpp:148] Top shape: 24 512 14 14 (2408448)
I0403 19:29:27.158962  9300 net.cpp:156] Memory required for data: 977814816
I0403 19:29:27.158980  9300 layer_factory.hpp:77] Creating layer inception_4b/pool_proj
I0403 19:29:27.159009  9300 net.cpp:91] Creating Layer inception_4b/pool_proj
I0403 19:29:27.159032  9300 net.cpp:425] inception_4b/pool_proj <- inception_4b/pool
I0403 19:29:27.159060  9300 net.cpp:399] inception_4b/pool_proj -> inception_4b/pool_proj
I0403 19:29:27.160537  9300 net.cpp:141] Setting up inception_4b/pool_proj
I0403 19:29:27.160572  9300 net.cpp:148] Top shape: 24 64 14 14 (301056)
I0403 19:29:27.160593  9300 net.cpp:156] Memory required for data: 979019040
I0403 19:29:27.160615  9300 layer_factory.hpp:77] Creating layer inception_4b/relu_pool_proj
I0403 19:29:27.160642  9300 net.cpp:91] Creating Layer inception_4b/relu_pool_proj
I0403 19:29:27.160663  9300 net.cpp:425] inception_4b/relu_pool_proj <- inception_4b/pool_proj
I0403 19:29:27.160686  9300 net.cpp:386] inception_4b/relu_pool_proj -> inception_4b/pool_proj (in-place)
I0403 19:29:27.160908  9300 net.cpp:141] Setting up inception_4b/relu_pool_proj
I0403 19:29:27.160943  9300 net.cpp:148] Top shape: 24 64 14 14 (301056)
I0403 19:29:27.160962  9300 net.cpp:156] Memory required for data: 980223264
I0403 19:29:27.160984  9300 layer_factory.hpp:77] Creating layer inception_4b/output
I0403 19:29:27.161006  9300 net.cpp:91] Creating Layer inception_4b/output
I0403 19:29:27.161026  9300 net.cpp:425] inception_4b/output <- inception_4b/1x1
I0403 19:29:27.161046  9300 net.cpp:425] inception_4b/output <- inception_4b/3x3
I0403 19:29:27.161067  9300 net.cpp:425] inception_4b/output <- inception_4b/5x5
I0403 19:29:27.161088  9300 net.cpp:425] inception_4b/output <- inception_4b/pool_proj
I0403 19:29:27.161110  9300 net.cpp:399] inception_4b/output -> inception_4b/output
I0403 19:29:27.161169  9300 net.cpp:141] Setting up inception_4b/output
I0403 19:29:27.161201  9300 net.cpp:148] Top shape: 24 512 14 14 (2408448)
I0403 19:29:27.161219  9300 net.cpp:156] Memory required for data: 989857056
I0403 19:29:27.161254  9300 layer_factory.hpp:77] Creating layer inception_4b/output_inception_4b/output_0_split
I0403 19:29:27.161278  9300 net.cpp:91] Creating Layer inception_4b/output_inception_4b/output_0_split
I0403 19:29:27.161298  9300 net.cpp:425] inception_4b/output_inception_4b/output_0_split <- inception_4b/output
I0403 19:29:27.161329  9300 net.cpp:399] inception_4b/output_inception_4b/output_0_split -> inception_4b/output_inception_4b/output_0_split_0
I0403 19:29:27.161355  9300 net.cpp:399] inception_4b/output_inception_4b/output_0_split -> inception_4b/output_inception_4b/output_0_split_1
I0403 19:29:27.161380  9300 net.cpp:399] inception_4b/output_inception_4b/output_0_split -> inception_4b/output_inception_4b/output_0_split_2
I0403 19:29:27.161408  9300 net.cpp:399] inception_4b/output_inception_4b/output_0_split -> inception_4b/output_inception_4b/output_0_split_3
I0403 19:29:27.161520  9300 net.cpp:141] Setting up inception_4b/output_inception_4b/output_0_split
I0403 19:29:27.161550  9300 net.cpp:148] Top shape: 24 512 14 14 (2408448)
I0403 19:29:27.161572  9300 net.cpp:148] Top shape: 24 512 14 14 (2408448)
I0403 19:29:27.161593  9300 net.cpp:148] Top shape: 24 512 14 14 (2408448)
I0403 19:29:27.161613  9300 net.cpp:148] Top shape: 24 512 14 14 (2408448)
I0403 19:29:27.161630  9300 net.cpp:156] Memory required for data: 1028392224
I0403 19:29:27.161649  9300 layer_factory.hpp:77] Creating layer inception_4c/1x1
I0403 19:29:27.161679  9300 net.cpp:91] Creating Layer inception_4c/1x1
I0403 19:29:27.161700  9300 net.cpp:425] inception_4c/1x1 <- inception_4b/output_inception_4b/output_0_split_0
I0403 19:29:27.161728  9300 net.cpp:399] inception_4c/1x1 -> inception_4c/1x1
I0403 19:29:27.163506  9300 net.cpp:141] Setting up inception_4c/1x1
I0403 19:29:27.163544  9300 net.cpp:148] Top shape: 24 128 14 14 (602112)
I0403 19:29:27.163566  9300 net.cpp:156] Memory required for data: 1030800672
I0403 19:29:27.163590  9300 layer_factory.hpp:77] Creating layer inception_4c/relu_1x1
I0403 19:29:27.163614  9300 net.cpp:91] Creating Layer inception_4c/relu_1x1
I0403 19:29:27.163635  9300 net.cpp:425] inception_4c/relu_1x1 <- inception_4c/1x1
I0403 19:29:27.163660  9300 net.cpp:386] inception_4c/relu_1x1 -> inception_4c/1x1 (in-place)
I0403 19:29:27.163880  9300 net.cpp:141] Setting up inception_4c/relu_1x1
I0403 19:29:27.163911  9300 net.cpp:148] Top shape: 24 128 14 14 (602112)
I0403 19:29:27.163931  9300 net.cpp:156] Memory required for data: 1033209120
I0403 19:29:27.163950  9300 layer_factory.hpp:77] Creating layer inception_4c/3x3_reduce
I0403 19:29:27.163978  9300 net.cpp:91] Creating Layer inception_4c/3x3_reduce
I0403 19:29:27.164000  9300 net.cpp:425] inception_4c/3x3_reduce <- inception_4b/output_inception_4b/output_0_split_1
I0403 19:29:27.164028  9300 net.cpp:399] inception_4c/3x3_reduce -> inception_4c/3x3_reduce
I0403 19:29:27.166414  9300 net.cpp:141] Setting up inception_4c/3x3_reduce
I0403 19:29:27.166457  9300 net.cpp:148] Top shape: 24 128 14 14 (602112)
I0403 19:29:27.166478  9300 net.cpp:156] Memory required for data: 1035617568
I0403 19:29:27.166502  9300 layer_factory.hpp:77] Creating layer inception_4c/relu_3x3_reduce
I0403 19:29:27.166528  9300 net.cpp:91] Creating Layer inception_4c/relu_3x3_reduce
I0403 19:29:27.166550  9300 net.cpp:425] inception_4c/relu_3x3_reduce <- inception_4c/3x3_reduce
I0403 19:29:27.166574  9300 net.cpp:386] inception_4c/relu_3x3_reduce -> inception_4c/3x3_reduce (in-place)
I0403 19:29:27.166919  9300 net.cpp:141] Setting up inception_4c/relu_3x3_reduce
I0403 19:29:27.166955  9300 net.cpp:148] Top shape: 24 128 14 14 (602112)
I0403 19:29:27.166975  9300 net.cpp:156] Memory required for data: 1038026016
I0403 19:29:27.166995  9300 layer_factory.hpp:77] Creating layer inception_4c/3x3
I0403 19:29:27.167022  9300 net.cpp:91] Creating Layer inception_4c/3x3
I0403 19:29:27.167047  9300 net.cpp:425] inception_4c/3x3 <- inception_4c/3x3_reduce
I0403 19:29:27.167074  9300 net.cpp:399] inception_4c/3x3 -> inception_4c/3x3
I0403 19:29:27.171468  9300 net.cpp:141] Setting up inception_4c/3x3
I0403 19:29:27.171525  9300 net.cpp:148] Top shape: 24 256 14 14 (1204224)
I0403 19:29:27.171547  9300 net.cpp:156] Memory required for data: 1042842912
I0403 19:29:27.171591  9300 layer_factory.hpp:77] Creating layer inception_4c/relu_3x3
I0403 19:29:27.171620  9300 net.cpp:91] Creating Layer inception_4c/relu_3x3
I0403 19:29:27.171643  9300 net.cpp:425] inception_4c/relu_3x3 <- inception_4c/3x3
I0403 19:29:27.171664  9300 net.cpp:386] inception_4c/relu_3x3 -> inception_4c/3x3 (in-place)
I0403 19:29:27.171888  9300 net.cpp:141] Setting up inception_4c/relu_3x3
I0403 19:29:27.171921  9300 net.cpp:148] Top shape: 24 256 14 14 (1204224)
I0403 19:29:27.171941  9300 net.cpp:156] Memory required for data: 1047659808
I0403 19:29:27.171959  9300 layer_factory.hpp:77] Creating layer inception_4c/5x5_reduce
I0403 19:29:27.171988  9300 net.cpp:91] Creating Layer inception_4c/5x5_reduce
I0403 19:29:27.172010  9300 net.cpp:425] inception_4c/5x5_reduce <- inception_4b/output_inception_4b/output_0_split_2
I0403 19:29:27.172039  9300 net.cpp:399] inception_4c/5x5_reduce -> inception_4c/5x5_reduce
I0403 19:29:27.173380  9300 net.cpp:141] Setting up inception_4c/5x5_reduce
I0403 19:29:27.173416  9300 net.cpp:148] Top shape: 24 24 14 14 (112896)
I0403 19:29:27.173445  9300 net.cpp:156] Memory required for data: 1048111392
I0403 19:29:27.173470  9300 layer_factory.hpp:77] Creating layer inception_4c/relu_5x5_reduce
I0403 19:29:27.173496  9300 net.cpp:91] Creating Layer inception_4c/relu_5x5_reduce
I0403 19:29:27.173517  9300 net.cpp:425] inception_4c/relu_5x5_reduce <- inception_4c/5x5_reduce
I0403 19:29:27.173540  9300 net.cpp:386] inception_4c/relu_5x5_reduce -> inception_4c/5x5_reduce (in-place)
I0403 19:29:27.173765  9300 net.cpp:141] Setting up inception_4c/relu_5x5_reduce
I0403 19:29:27.173800  9300 net.cpp:148] Top shape: 24 24 14 14 (112896)
I0403 19:29:27.173821  9300 net.cpp:156] Memory required for data: 1048562976
I0403 19:29:27.173841  9300 layer_factory.hpp:77] Creating layer inception_4c/5x5
I0403 19:29:27.173871  9300 net.cpp:91] Creating Layer inception_4c/5x5
I0403 19:29:27.173893  9300 net.cpp:425] inception_4c/5x5 <- inception_4c/5x5_reduce
I0403 19:29:27.173918  9300 net.cpp:399] inception_4c/5x5 -> inception_4c/5x5
I0403 19:29:27.175447  9300 net.cpp:141] Setting up inception_4c/5x5
I0403 19:29:27.175485  9300 net.cpp:148] Top shape: 24 64 14 14 (301056)
I0403 19:29:27.175525  9300 net.cpp:156] Memory required for data: 1049767200
I0403 19:29:27.175551  9300 layer_factory.hpp:77] Creating layer inception_4c/relu_5x5
I0403 19:29:27.175575  9300 net.cpp:91] Creating Layer inception_4c/relu_5x5
I0403 19:29:27.175629  9300 net.cpp:425] inception_4c/relu_5x5 <- inception_4c/5x5
I0403 19:29:27.175655  9300 net.cpp:386] inception_4c/relu_5x5 -> inception_4c/5x5 (in-place)
I0403 19:29:27.176007  9300 net.cpp:141] Setting up inception_4c/relu_5x5
I0403 19:29:27.176069  9300 net.cpp:148] Top shape: 24 64 14 14 (301056)
I0403 19:29:27.176090  9300 net.cpp:156] Memory required for data: 1050971424
I0403 19:29:27.176110  9300 layer_factory.hpp:77] Creating layer inception_4c/pool
I0403 19:29:27.176132  9300 net.cpp:91] Creating Layer inception_4c/pool
I0403 19:29:27.176153  9300 net.cpp:425] inception_4c/pool <- inception_4b/output_inception_4b/output_0_split_3
I0403 19:29:27.176179  9300 net.cpp:399] inception_4c/pool -> inception_4c/pool
I0403 19:29:27.176260  9300 net.cpp:141] Setting up inception_4c/pool
I0403 19:29:27.176291  9300 net.cpp:148] Top shape: 24 512 14 14 (2408448)
I0403 19:29:27.176312  9300 net.cpp:156] Memory required for data: 1060605216
I0403 19:29:27.176332  9300 layer_factory.hpp:77] Creating layer inception_4c/pool_proj
I0403 19:29:27.176360  9300 net.cpp:91] Creating Layer inception_4c/pool_proj
I0403 19:29:27.176383  9300 net.cpp:425] inception_4c/pool_proj <- inception_4c/pool
I0403 19:29:27.176409  9300 net.cpp:399] inception_4c/pool_proj -> inception_4c/pool_proj
I0403 19:29:27.177919  9300 net.cpp:141] Setting up inception_4c/pool_proj
I0403 19:29:27.177954  9300 net.cpp:148] Top shape: 24 64 14 14 (301056)
I0403 19:29:27.177994  9300 net.cpp:156] Memory required for data: 1061809440
I0403 19:29:27.178020  9300 layer_factory.hpp:77] Creating layer inception_4c/relu_pool_proj
I0403 19:29:27.178046  9300 net.cpp:91] Creating Layer inception_4c/relu_pool_proj
I0403 19:29:27.178068  9300 net.cpp:425] inception_4c/relu_pool_proj <- inception_4c/pool_proj
I0403 19:29:27.178092  9300 net.cpp:386] inception_4c/relu_pool_proj -> inception_4c/pool_proj (in-place)
I0403 19:29:27.178318  9300 net.cpp:141] Setting up inception_4c/relu_pool_proj
I0403 19:29:27.178351  9300 net.cpp:148] Top shape: 24 64 14 14 (301056)
I0403 19:29:27.178371  9300 net.cpp:156] Memory required for data: 1063013664
I0403 19:29:27.178391  9300 layer_factory.hpp:77] Creating layer inception_4c/output
I0403 19:29:27.178413  9300 net.cpp:91] Creating Layer inception_4c/output
I0403 19:29:27.178439  9300 net.cpp:425] inception_4c/output <- inception_4c/1x1
I0403 19:29:27.178462  9300 net.cpp:425] inception_4c/output <- inception_4c/3x3
I0403 19:29:27.178484  9300 net.cpp:425] inception_4c/output <- inception_4c/5x5
I0403 19:29:27.178504  9300 net.cpp:425] inception_4c/output <- inception_4c/pool_proj
I0403 19:29:27.178526  9300 net.cpp:399] inception_4c/output -> inception_4c/output
I0403 19:29:27.178587  9300 net.cpp:141] Setting up inception_4c/output
I0403 19:29:27.178617  9300 net.cpp:148] Top shape: 24 512 14 14 (2408448)
I0403 19:29:27.178635  9300 net.cpp:156] Memory required for data: 1072647456
I0403 19:29:27.178653  9300 layer_factory.hpp:77] Creating layer inception_4c/output_inception_4c/output_0_split
I0403 19:29:27.178675  9300 net.cpp:91] Creating Layer inception_4c/output_inception_4c/output_0_split
I0403 19:29:27.178695  9300 net.cpp:425] inception_4c/output_inception_4c/output_0_split <- inception_4c/output
I0403 19:29:27.178719  9300 net.cpp:399] inception_4c/output_inception_4c/output_0_split -> inception_4c/output_inception_4c/output_0_split_0
I0403 19:29:27.178745  9300 net.cpp:399] inception_4c/output_inception_4c/output_0_split -> inception_4c/output_inception_4c/output_0_split_1
I0403 19:29:27.178771  9300 net.cpp:399] inception_4c/output_inception_4c/output_0_split -> inception_4c/output_inception_4c/output_0_split_2
I0403 19:29:27.178796  9300 net.cpp:399] inception_4c/output_inception_4c/output_0_split -> inception_4c/output_inception_4c/output_0_split_3
I0403 19:29:27.178906  9300 net.cpp:141] Setting up inception_4c/output_inception_4c/output_0_split
I0403 19:29:27.178936  9300 net.cpp:148] Top shape: 24 512 14 14 (2408448)
I0403 19:29:27.178957  9300 net.cpp:148] Top shape: 24 512 14 14 (2408448)
I0403 19:29:27.178977  9300 net.cpp:148] Top shape: 24 512 14 14 (2408448)
I0403 19:29:27.178997  9300 net.cpp:148] Top shape: 24 512 14 14 (2408448)
I0403 19:29:27.179014  9300 net.cpp:156] Memory required for data: 1111182624
I0403 19:29:27.179033  9300 layer_factory.hpp:77] Creating layer inception_4d/1x1
I0403 19:29:27.179060  9300 net.cpp:91] Creating Layer inception_4d/1x1
I0403 19:29:27.179085  9300 net.cpp:425] inception_4d/1x1 <- inception_4c/output_inception_4c/output_0_split_0
I0403 19:29:27.179111  9300 net.cpp:399] inception_4d/1x1 -> inception_4d/1x1
I0403 19:29:27.180815  9300 net.cpp:141] Setting up inception_4d/1x1
I0403 19:29:27.180850  9300 net.cpp:148] Top shape: 24 112 14 14 (526848)
I0403 19:29:27.180871  9300 net.cpp:156] Memory required for data: 1113290016
I0403 19:29:27.180894  9300 layer_factory.hpp:77] Creating layer inception_4d/relu_1x1
I0403 19:29:27.180917  9300 net.cpp:91] Creating Layer inception_4d/relu_1x1
I0403 19:29:27.180938  9300 net.cpp:425] inception_4d/relu_1x1 <- inception_4d/1x1
I0403 19:29:27.180965  9300 net.cpp:386] inception_4d/relu_1x1 -> inception_4d/1x1 (in-place)
I0403 19:29:27.181192  9300 net.cpp:141] Setting up inception_4d/relu_1x1
I0403 19:29:27.181224  9300 net.cpp:148] Top shape: 24 112 14 14 (526848)
I0403 19:29:27.181244  9300 net.cpp:156] Memory required for data: 1115397408
I0403 19:29:27.181263  9300 layer_factory.hpp:77] Creating layer inception_4d/3x3_reduce
I0403 19:29:27.181309  9300 net.cpp:91] Creating Layer inception_4d/3x3_reduce
I0403 19:29:27.181334  9300 net.cpp:425] inception_4d/3x3_reduce <- inception_4c/output_inception_4c/output_0_split_1
I0403 19:29:27.181361  9300 net.cpp:399] inception_4d/3x3_reduce -> inception_4d/3x3_reduce
I0403 19:29:27.183224  9300 net.cpp:141] Setting up inception_4d/3x3_reduce
I0403 19:29:27.183262  9300 net.cpp:148] Top shape: 24 144 14 14 (677376)
I0403 19:29:27.183282  9300 net.cpp:156] Memory required for data: 1118106912
I0403 19:29:27.183306  9300 layer_factory.hpp:77] Creating layer inception_4d/relu_3x3_reduce
I0403 19:29:27.183329  9300 net.cpp:91] Creating Layer inception_4d/relu_3x3_reduce
I0403 19:29:27.183351  9300 net.cpp:425] inception_4d/relu_3x3_reduce <- inception_4d/3x3_reduce
I0403 19:29:27.183372  9300 net.cpp:386] inception_4d/relu_3x3_reduce -> inception_4d/3x3_reduce (in-place)
I0403 19:29:27.183728  9300 net.cpp:141] Setting up inception_4d/relu_3x3_reduce
I0403 19:29:27.183764  9300 net.cpp:148] Top shape: 24 144 14 14 (677376)
I0403 19:29:27.183785  9300 net.cpp:156] Memory required for data: 1120816416
I0403 19:29:27.183805  9300 layer_factory.hpp:77] Creating layer inception_4d/3x3
I0403 19:29:27.183835  9300 net.cpp:91] Creating Layer inception_4d/3x3
I0403 19:29:27.183856  9300 net.cpp:425] inception_4d/3x3 <- inception_4d/3x3_reduce
I0403 19:29:27.183881  9300 net.cpp:399] inception_4d/3x3 -> inception_4d/3x3
I0403 19:29:27.189148  9300 net.cpp:141] Setting up inception_4d/3x3
I0403 19:29:27.189185  9300 net.cpp:148] Top shape: 24 288 14 14 (1354752)
I0403 19:29:27.189205  9300 net.cpp:156] Memory required for data: 1126235424
I0403 19:29:27.189229  9300 layer_factory.hpp:77] Creating layer inception_4d/relu_3x3
I0403 19:29:27.189251  9300 net.cpp:91] Creating Layer inception_4d/relu_3x3
I0403 19:29:27.189272  9300 net.cpp:425] inception_4d/relu_3x3 <- inception_4d/3x3
I0403 19:29:27.189297  9300 net.cpp:386] inception_4d/relu_3x3 -> inception_4d/3x3 (in-place)
I0403 19:29:27.189532  9300 net.cpp:141] Setting up inception_4d/relu_3x3
I0403 19:29:27.189564  9300 net.cpp:148] Top shape: 24 288 14 14 (1354752)
I0403 19:29:27.189584  9300 net.cpp:156] Memory required for data: 1131654432
I0403 19:29:27.189601  9300 layer_factory.hpp:77] Creating layer inception_4d/5x5_reduce
I0403 19:29:27.189630  9300 net.cpp:91] Creating Layer inception_4d/5x5_reduce
I0403 19:29:27.189652  9300 net.cpp:425] inception_4d/5x5_reduce <- inception_4c/output_inception_4c/output_0_split_2
I0403 19:29:27.189682  9300 net.cpp:399] inception_4d/5x5_reduce -> inception_4d/5x5_reduce
I0403 19:29:27.191093  9300 net.cpp:141] Setting up inception_4d/5x5_reduce
I0403 19:29:27.191129  9300 net.cpp:148] Top shape: 24 32 14 14 (150528)
I0403 19:29:27.191148  9300 net.cpp:156] Memory required for data: 1132256544
I0403 19:29:27.191171  9300 layer_factory.hpp:77] Creating layer inception_4d/relu_5x5_reduce
I0403 19:29:27.191195  9300 net.cpp:91] Creating Layer inception_4d/relu_5x5_reduce
I0403 19:29:27.191220  9300 net.cpp:425] inception_4d/relu_5x5_reduce <- inception_4d/5x5_reduce
I0403 19:29:27.191241  9300 net.cpp:386] inception_4d/relu_5x5_reduce -> inception_4d/5x5_reduce (in-place)
I0403 19:29:27.191481  9300 net.cpp:141] Setting up inception_4d/relu_5x5_reduce
I0403 19:29:27.191514  9300 net.cpp:148] Top shape: 24 32 14 14 (150528)
I0403 19:29:27.191531  9300 net.cpp:156] Memory required for data: 1132858656
I0403 19:29:27.191550  9300 layer_factory.hpp:77] Creating layer inception_4d/5x5
I0403 19:29:27.191578  9300 net.cpp:91] Creating Layer inception_4d/5x5
I0403 19:29:27.191601  9300 net.cpp:425] inception_4d/5x5 <- inception_4d/5x5_reduce
I0403 19:29:27.191627  9300 net.cpp:399] inception_4d/5x5 -> inception_4d/5x5
I0403 19:29:27.193459  9300 net.cpp:141] Setting up inception_4d/5x5
I0403 19:29:27.193493  9300 net.cpp:148] Top shape: 24 64 14 14 (301056)
I0403 19:29:27.193513  9300 net.cpp:156] Memory required for data: 1134062880
I0403 19:29:27.193538  9300 layer_factory.hpp:77] Creating layer inception_4d/relu_5x5
I0403 19:29:27.193583  9300 net.cpp:91] Creating Layer inception_4d/relu_5x5
I0403 19:29:27.193605  9300 net.cpp:425] inception_4d/relu_5x5 <- inception_4d/5x5
I0403 19:29:27.193627  9300 net.cpp:386] inception_4d/relu_5x5 -> inception_4d/5x5 (in-place)
I0403 19:29:27.194015  9300 net.cpp:141] Setting up inception_4d/relu_5x5
I0403 19:29:27.194048  9300 net.cpp:148] Top shape: 24 64 14 14 (301056)
I0403 19:29:27.194068  9300 net.cpp:156] Memory required for data: 1135267104
I0403 19:29:27.194087  9300 layer_factory.hpp:77] Creating layer inception_4d/pool
I0403 19:29:27.194113  9300 net.cpp:91] Creating Layer inception_4d/pool
I0403 19:29:27.194134  9300 net.cpp:425] inception_4d/pool <- inception_4c/output_inception_4c/output_0_split_3
I0403 19:29:27.194157  9300 net.cpp:399] inception_4d/pool -> inception_4d/pool
I0403 19:29:27.194245  9300 net.cpp:141] Setting up inception_4d/pool
I0403 19:29:27.194279  9300 net.cpp:148] Top shape: 24 512 14 14 (2408448)
I0403 19:29:27.194298  9300 net.cpp:156] Memory required for data: 1144900896
I0403 19:29:27.194317  9300 layer_factory.hpp:77] Creating layer inception_4d/pool_proj
I0403 19:29:27.194345  9300 net.cpp:91] Creating Layer inception_4d/pool_proj
I0403 19:29:27.194368  9300 net.cpp:425] inception_4d/pool_proj <- inception_4d/pool
I0403 19:29:27.194394  9300 net.cpp:399] inception_4d/pool_proj -> inception_4d/pool_proj
I0403 19:29:27.196547  9300 net.cpp:141] Setting up inception_4d/pool_proj
I0403 19:29:27.196584  9300 net.cpp:148] Top shape: 24 64 14 14 (301056)
I0403 19:29:27.196604  9300 net.cpp:156] Memory required for data: 1146105120
I0403 19:29:27.196630  9300 layer_factory.hpp:77] Creating layer inception_4d/relu_pool_proj
I0403 19:29:27.196653  9300 net.cpp:91] Creating Layer inception_4d/relu_pool_proj
I0403 19:29:27.196674  9300 net.cpp:425] inception_4d/relu_pool_proj <- inception_4d/pool_proj
I0403 19:29:27.196699  9300 net.cpp:386] inception_4d/relu_pool_proj -> inception_4d/pool_proj (in-place)
I0403 19:29:27.196928  9300 net.cpp:141] Setting up inception_4d/relu_pool_proj
I0403 19:29:27.196960  9300 net.cpp:148] Top shape: 24 64 14 14 (301056)
I0403 19:29:27.196979  9300 net.cpp:156] Memory required for data: 1147309344
I0403 19:29:27.196998  9300 layer_factory.hpp:77] Creating layer inception_4d/output
I0403 19:29:27.197022  9300 net.cpp:91] Creating Layer inception_4d/output
I0403 19:29:27.197043  9300 net.cpp:425] inception_4d/output <- inception_4d/1x1
I0403 19:29:27.197065  9300 net.cpp:425] inception_4d/output <- inception_4d/3x3
I0403 19:29:27.197085  9300 net.cpp:425] inception_4d/output <- inception_4d/5x5
I0403 19:29:27.197105  9300 net.cpp:425] inception_4d/output <- inception_4d/pool_proj
I0403 19:29:27.197127  9300 net.cpp:399] inception_4d/output -> inception_4d/output
I0403 19:29:27.197188  9300 net.cpp:141] Setting up inception_4d/output
I0403 19:29:27.197223  9300 net.cpp:148] Top shape: 24 528 14 14 (2483712)
I0403 19:29:27.197242  9300 net.cpp:156] Memory required for data: 1157244192
I0403 19:29:27.197262  9300 layer_factory.hpp:77] Creating layer inception_4d/output_inception_4d/output_0_split
I0403 19:29:27.197284  9300 net.cpp:91] Creating Layer inception_4d/output_inception_4d/output_0_split
I0403 19:29:27.197304  9300 net.cpp:425] inception_4d/output_inception_4d/output_0_split <- inception_4d/output
I0403 19:29:27.197329  9300 net.cpp:399] inception_4d/output_inception_4d/output_0_split -> inception_4d/output_inception_4d/output_0_split_0
I0403 19:29:27.197356  9300 net.cpp:399] inception_4d/output_inception_4d/output_0_split -> inception_4d/output_inception_4d/output_0_split_1
I0403 19:29:27.197381  9300 net.cpp:399] inception_4d/output_inception_4d/output_0_split -> inception_4d/output_inception_4d/output_0_split_2
I0403 19:29:27.197407  9300 net.cpp:399] inception_4d/output_inception_4d/output_0_split -> inception_4d/output_inception_4d/output_0_split_3
I0403 19:29:27.197438  9300 net.cpp:399] inception_4d/output_inception_4d/output_0_split -> inception_4d/output_inception_4d/output_0_split_4
I0403 19:29:27.197571  9300 net.cpp:141] Setting up inception_4d/output_inception_4d/output_0_split
I0403 19:29:27.197616  9300 net.cpp:148] Top shape: 24 528 14 14 (2483712)
I0403 19:29:27.197640  9300 net.cpp:148] Top shape: 24 528 14 14 (2483712)
I0403 19:29:27.197662  9300 net.cpp:148] Top shape: 24 528 14 14 (2483712)
I0403 19:29:27.197682  9300 net.cpp:148] Top shape: 24 528 14 14 (2483712)
I0403 19:29:27.197702  9300 net.cpp:148] Top shape: 24 528 14 14 (2483712)
I0403 19:29:27.197721  9300 net.cpp:156] Memory required for data: 1206918432
I0403 19:29:27.197739  9300 layer_factory.hpp:77] Creating layer loss2/ave_pool
I0403 19:29:27.197762  9300 net.cpp:91] Creating Layer loss2/ave_pool
I0403 19:29:27.197782  9300 net.cpp:425] loss2/ave_pool <- inception_4d/output_inception_4d/output_0_split_0
I0403 19:29:27.197808  9300 net.cpp:399] loss2/ave_pool -> loss2/ave_pool
I0403 19:29:27.198191  9300 net.cpp:141] Setting up loss2/ave_pool
I0403 19:29:27.198225  9300 net.cpp:148] Top shape: 24 528 4 4 (202752)
I0403 19:29:27.198246  9300 net.cpp:156] Memory required for data: 1207729440
I0403 19:29:27.198266  9300 layer_factory.hpp:77] Creating layer loss2/conv
I0403 19:29:27.198293  9300 net.cpp:91] Creating Layer loss2/conv
I0403 19:29:27.198317  9300 net.cpp:425] loss2/conv <- loss2/ave_pool
I0403 19:29:27.198343  9300 net.cpp:399] loss2/conv -> loss2/conv
I0403 19:29:27.200649  9300 net.cpp:141] Setting up loss2/conv
I0403 19:29:27.200685  9300 net.cpp:148] Top shape: 24 128 4 4 (49152)
I0403 19:29:27.200709  9300 net.cpp:156] Memory required for data: 1207926048
I0403 19:29:27.200736  9300 layer_factory.hpp:77] Creating layer loss2/relu_conv
I0403 19:29:27.200757  9300 net.cpp:91] Creating Layer loss2/relu_conv
I0403 19:29:27.200778  9300 net.cpp:425] loss2/relu_conv <- loss2/conv
I0403 19:29:27.200799  9300 net.cpp:386] loss2/relu_conv -> loss2/conv (in-place)
I0403 19:29:27.201145  9300 net.cpp:141] Setting up loss2/relu_conv
I0403 19:29:27.201179  9300 net.cpp:148] Top shape: 24 128 4 4 (49152)
I0403 19:29:27.201202  9300 net.cpp:156] Memory required for data: 1208122656
I0403 19:29:27.201222  9300 layer_factory.hpp:77] Creating layer loss2/fc
I0403 19:29:27.201246  9300 net.cpp:91] Creating Layer loss2/fc
I0403 19:29:27.201267  9300 net.cpp:425] loss2/fc <- loss2/conv
I0403 19:29:27.201292  9300 net.cpp:399] loss2/fc -> loss2/fc
I0403 19:29:27.223125  9300 net.cpp:141] Setting up loss2/fc
I0403 19:29:27.223163  9300 net.cpp:148] Top shape: 24 1024 (24576)
I0403 19:29:27.223184  9300 net.cpp:156] Memory required for data: 1208220960
I0403 19:29:27.223208  9300 layer_factory.hpp:77] Creating layer loss2/relu_fc
I0403 19:29:27.223233  9300 net.cpp:91] Creating Layer loss2/relu_fc
I0403 19:29:27.223255  9300 net.cpp:425] loss2/relu_fc <- loss2/fc
I0403 19:29:27.223278  9300 net.cpp:386] loss2/relu_fc -> loss2/fc (in-place)
I0403 19:29:27.223654  9300 net.cpp:141] Setting up loss2/relu_fc
I0403 19:29:27.223713  9300 net.cpp:148] Top shape: 24 1024 (24576)
I0403 19:29:27.223736  9300 net.cpp:156] Memory required for data: 1208319264
I0403 19:29:27.223754  9300 layer_factory.hpp:77] Creating layer loss2/drop_fc
I0403 19:29:27.223778  9300 net.cpp:91] Creating Layer loss2/drop_fc
I0403 19:29:27.223801  9300 net.cpp:425] loss2/drop_fc <- loss2/fc
I0403 19:29:27.223824  9300 net.cpp:386] loss2/drop_fc -> loss2/fc (in-place)
I0403 19:29:27.223882  9300 net.cpp:141] Setting up loss2/drop_fc
I0403 19:29:27.223918  9300 net.cpp:148] Top shape: 24 1024 (24576)
I0403 19:29:27.223951  9300 net.cpp:156] Memory required for data: 1208417568
I0403 19:29:27.223984  9300 layer_factory.hpp:77] Creating layer loss2/classifier_plantvillage
I0403 19:29:27.224027  9300 net.cpp:91] Creating Layer loss2/classifier_plantvillage
I0403 19:29:27.224071  9300 net.cpp:425] loss2/classifier_plantvillage <- loss2/fc
I0403 19:29:27.224113  9300 net.cpp:399] loss2/classifier_plantvillage -> loss2/classifier_plantvillage
I0403 19:29:27.224642  9300 net.cpp:141] Setting up loss2/classifier_plantvillage
I0403 19:29:27.224678  9300 net.cpp:148] Top shape: 24 38 (912)
I0403 19:29:27.224696  9300 net.cpp:156] Memory required for data: 1208421216
I0403 19:29:27.224740  9300 layer_factory.hpp:77] Creating layer loss2/classifier_plantvillage_loss2/classifier_plantvillage_0_split
I0403 19:29:27.224763  9300 net.cpp:91] Creating Layer loss2/classifier_plantvillage_loss2/classifier_plantvillage_0_split
I0403 19:29:27.224784  9300 net.cpp:425] loss2/classifier_plantvillage_loss2/classifier_plantvillage_0_split <- loss2/classifier_plantvillage
I0403 19:29:27.224807  9300 net.cpp:399] loss2/classifier_plantvillage_loss2/classifier_plantvillage_0_split -> loss2/classifier_plantvillage_loss2/classifier_plantvillage_0_split_0
I0403 19:29:27.224833  9300 net.cpp:399] loss2/classifier_plantvillage_loss2/classifier_plantvillage_0_split -> loss2/classifier_plantvillage_loss2/classifier_plantvillage_0_split_1
I0403 19:29:27.224860  9300 net.cpp:399] loss2/classifier_plantvillage_loss2/classifier_plantvillage_0_split -> loss2/classifier_plantvillage_loss2/classifier_plantvillage_0_split_2
I0403 19:29:27.224956  9300 net.cpp:141] Setting up loss2/classifier_plantvillage_loss2/classifier_plantvillage_0_split
I0403 19:29:27.224987  9300 net.cpp:148] Top shape: 24 38 (912)
I0403 19:29:27.225008  9300 net.cpp:148] Top shape: 24 38 (912)
I0403 19:29:27.225028  9300 net.cpp:148] Top shape: 24 38 (912)
I0403 19:29:27.225046  9300 net.cpp:156] Memory required for data: 1208432160
I0403 19:29:27.225065  9300 layer_factory.hpp:77] Creating layer inception_4e/1x1
I0403 19:29:27.225093  9300 net.cpp:91] Creating Layer inception_4e/1x1
I0403 19:29:27.225116  9300 net.cpp:425] inception_4e/1x1 <- inception_4d/output_inception_4d/output_0_split_1
I0403 19:29:27.225143  9300 net.cpp:399] inception_4e/1x1 -> inception_4e/1x1
I0403 19:29:27.227386  9300 net.cpp:141] Setting up inception_4e/1x1
I0403 19:29:27.227422  9300 net.cpp:148] Top shape: 24 256 14 14 (1204224)
I0403 19:29:27.227453  9300 net.cpp:156] Memory required for data: 1213249056
I0403 19:29:27.227478  9300 layer_factory.hpp:77] Creating layer inception_4e/relu_1x1
I0403 19:29:27.227504  9300 net.cpp:91] Creating Layer inception_4e/relu_1x1
I0403 19:29:27.227526  9300 net.cpp:425] inception_4e/relu_1x1 <- inception_4e/1x1
I0403 19:29:27.227548  9300 net.cpp:386] inception_4e/relu_1x1 -> inception_4e/1x1 (in-place)
I0403 19:29:27.227908  9300 net.cpp:141] Setting up inception_4e/relu_1x1
I0403 19:29:27.227942  9300 net.cpp:148] Top shape: 24 256 14 14 (1204224)
I0403 19:29:27.227962  9300 net.cpp:156] Memory required for data: 1218065952
I0403 19:29:27.227982  9300 layer_factory.hpp:77] Creating layer inception_4e/3x3_reduce
I0403 19:29:27.228011  9300 net.cpp:91] Creating Layer inception_4e/3x3_reduce
I0403 19:29:27.228034  9300 net.cpp:425] inception_4e/3x3_reduce <- inception_4d/output_inception_4d/output_0_split_2
I0403 19:29:27.228060  9300 net.cpp:399] inception_4e/3x3_reduce -> inception_4e/3x3_reduce
I0403 19:29:27.230639  9300 net.cpp:141] Setting up inception_4e/3x3_reduce
I0403 19:29:27.230676  9300 net.cpp:148] Top shape: 24 160 14 14 (752640)
I0403 19:29:27.230697  9300 net.cpp:156] Memory required for data: 1221076512
I0403 19:29:27.230720  9300 layer_factory.hpp:77] Creating layer inception_4e/relu_3x3_reduce
I0403 19:29:27.230746  9300 net.cpp:91] Creating Layer inception_4e/relu_3x3_reduce
I0403 19:29:27.230767  9300 net.cpp:425] inception_4e/relu_3x3_reduce <- inception_4e/3x3_reduce
I0403 19:29:27.230790  9300 net.cpp:386] inception_4e/relu_3x3_reduce -> inception_4e/3x3_reduce (in-place)
I0403 19:29:27.231020  9300 net.cpp:141] Setting up inception_4e/relu_3x3_reduce
I0403 19:29:27.231055  9300 net.cpp:148] Top shape: 24 160 14 14 (752640)
I0403 19:29:27.231076  9300 net.cpp:156] Memory required for data: 1224087072
I0403 19:29:27.231096  9300 layer_factory.hpp:77] Creating layer inception_4e/3x3
I0403 19:29:27.231123  9300 net.cpp:91] Creating Layer inception_4e/3x3
I0403 19:29:27.231145  9300 net.cpp:425] inception_4e/3x3 <- inception_4e/3x3_reduce
I0403 19:29:27.231169  9300 net.cpp:399] inception_4e/3x3 -> inception_4e/3x3
I0403 19:29:27.237346  9300 net.cpp:141] Setting up inception_4e/3x3
I0403 19:29:27.237401  9300 net.cpp:148] Top shape: 24 320 14 14 (1505280)
I0403 19:29:27.237422  9300 net.cpp:156] Memory required for data: 1230108192
I0403 19:29:27.237454  9300 layer_factory.hpp:77] Creating layer inception_4e/relu_3x3
I0403 19:29:27.237480  9300 net.cpp:91] Creating Layer inception_4e/relu_3x3
I0403 19:29:27.237503  9300 net.cpp:425] inception_4e/relu_3x3 <- inception_4e/3x3
I0403 19:29:27.237526  9300 net.cpp:386] inception_4e/relu_3x3 -> inception_4e/3x3 (in-place)
I0403 19:29:27.237895  9300 net.cpp:141] Setting up inception_4e/relu_3x3
I0403 19:29:27.237929  9300 net.cpp:148] Top shape: 24 320 14 14 (1505280)
I0403 19:29:27.237948  9300 net.cpp:156] Memory required for data: 1236129312
I0403 19:29:27.237968  9300 layer_factory.hpp:77] Creating layer inception_4e/5x5_reduce
I0403 19:29:27.237998  9300 net.cpp:91] Creating Layer inception_4e/5x5_reduce
I0403 19:29:27.238021  9300 net.cpp:425] inception_4e/5x5_reduce <- inception_4d/output_inception_4d/output_0_split_3
I0403 19:29:27.238049  9300 net.cpp:399] inception_4e/5x5_reduce -> inception_4e/5x5_reduce
I0403 19:29:27.239377  9300 net.cpp:141] Setting up inception_4e/5x5_reduce
I0403 19:29:27.239411  9300 net.cpp:148] Top shape: 24 32 14 14 (150528)
I0403 19:29:27.239439  9300 net.cpp:156] Memory required for data: 1236731424
I0403 19:29:27.239464  9300 layer_factory.hpp:77] Creating layer inception_4e/relu_5x5_reduce
I0403 19:29:27.239491  9300 net.cpp:91] Creating Layer inception_4e/relu_5x5_reduce
I0403 19:29:27.239513  9300 net.cpp:425] inception_4e/relu_5x5_reduce <- inception_4e/5x5_reduce
I0403 19:29:27.239536  9300 net.cpp:386] inception_4e/relu_5x5_reduce -> inception_4e/5x5_reduce (in-place)
I0403 19:29:27.239907  9300 net.cpp:141] Setting up inception_4e/relu_5x5_reduce
I0403 19:29:27.239940  9300 net.cpp:148] Top shape: 24 32 14 14 (150528)
I0403 19:29:27.239959  9300 net.cpp:156] Memory required for data: 1237333536
I0403 19:29:27.239979  9300 layer_factory.hpp:77] Creating layer inception_4e/5x5
I0403 19:29:27.240027  9300 net.cpp:91] Creating Layer inception_4e/5x5
I0403 19:29:27.240051  9300 net.cpp:425] inception_4e/5x5 <- inception_4e/5x5_reduce
I0403 19:29:27.240077  9300 net.cpp:399] inception_4e/5x5 -> inception_4e/5x5
I0403 19:29:27.242331  9300 net.cpp:141] Setting up inception_4e/5x5
I0403 19:29:27.242365  9300 net.cpp:148] Top shape: 24 128 14 14 (602112)
I0403 19:29:27.242385  9300 net.cpp:156] Memory required for data: 1239741984
I0403 19:29:27.242409  9300 layer_factory.hpp:77] Creating layer inception_4e/relu_5x5
I0403 19:29:27.242449  9300 net.cpp:91] Creating Layer inception_4e/relu_5x5
I0403 19:29:27.242475  9300 net.cpp:425] inception_4e/relu_5x5 <- inception_4e/5x5
I0403 19:29:27.242499  9300 net.cpp:386] inception_4e/relu_5x5 -> inception_4e/5x5 (in-place)
I0403 19:29:27.242738  9300 net.cpp:141] Setting up inception_4e/relu_5x5
I0403 19:29:27.242774  9300 net.cpp:148] Top shape: 24 128 14 14 (602112)
I0403 19:29:27.242792  9300 net.cpp:156] Memory required for data: 1242150432
I0403 19:29:27.242812  9300 layer_factory.hpp:77] Creating layer inception_4e/pool
I0403 19:29:27.242835  9300 net.cpp:91] Creating Layer inception_4e/pool
I0403 19:29:27.242856  9300 net.cpp:425] inception_4e/pool <- inception_4d/output_inception_4d/output_0_split_4
I0403 19:29:27.242878  9300 net.cpp:399] inception_4e/pool -> inception_4e/pool
I0403 19:29:27.242965  9300 net.cpp:141] Setting up inception_4e/pool
I0403 19:29:27.242995  9300 net.cpp:148] Top shape: 24 528 14 14 (2483712)
I0403 19:29:27.243015  9300 net.cpp:156] Memory required for data: 1252085280
I0403 19:29:27.243032  9300 layer_factory.hpp:77] Creating layer inception_4e/pool_proj
I0403 19:29:27.243059  9300 net.cpp:91] Creating Layer inception_4e/pool_proj
I0403 19:29:27.243083  9300 net.cpp:425] inception_4e/pool_proj <- inception_4e/pool
I0403 19:29:27.243109  9300 net.cpp:399] inception_4e/pool_proj -> inception_4e/pool_proj
I0403 19:29:27.244956  9300 net.cpp:141] Setting up inception_4e/pool_proj
I0403 19:29:27.244992  9300 net.cpp:148] Top shape: 24 128 14 14 (602112)
I0403 19:29:27.245028  9300 net.cpp:156] Memory required for data: 1254493728
I0403 19:29:27.245053  9300 layer_factory.hpp:77] Creating layer inception_4e/relu_pool_proj
I0403 19:29:27.245075  9300 net.cpp:91] Creating Layer inception_4e/relu_pool_proj
I0403 19:29:27.245097  9300 net.cpp:425] inception_4e/relu_pool_proj <- inception_4e/pool_proj
I0403 19:29:27.245122  9300 net.cpp:386] inception_4e/relu_pool_proj -> inception_4e/pool_proj (in-place)
I0403 19:29:27.245487  9300 net.cpp:141] Setting up inception_4e/relu_pool_proj
I0403 19:29:27.245520  9300 net.cpp:148] Top shape: 24 128 14 14 (602112)
I0403 19:29:27.245539  9300 net.cpp:156] Memory required for data: 1256902176
I0403 19:29:27.245559  9300 layer_factory.hpp:77] Creating layer inception_4e/output
I0403 19:29:27.245582  9300 net.cpp:91] Creating Layer inception_4e/output
I0403 19:29:27.245602  9300 net.cpp:425] inception_4e/output <- inception_4e/1x1
I0403 19:29:27.245636  9300 net.cpp:425] inception_4e/output <- inception_4e/3x3
I0403 19:29:27.245657  9300 net.cpp:425] inception_4e/output <- inception_4e/5x5
I0403 19:29:27.245677  9300 net.cpp:425] inception_4e/output <- inception_4e/pool_proj
I0403 19:29:27.245702  9300 net.cpp:399] inception_4e/output -> inception_4e/output
I0403 19:29:27.245762  9300 net.cpp:141] Setting up inception_4e/output
I0403 19:29:27.245795  9300 net.cpp:148] Top shape: 24 832 14 14 (3913728)
I0403 19:29:27.245815  9300 net.cpp:156] Memory required for data: 1272557088
I0403 19:29:27.245836  9300 layer_factory.hpp:77] Creating layer pool4/3x3_s2
I0403 19:29:27.245858  9300 net.cpp:91] Creating Layer pool4/3x3_s2
I0403 19:29:27.245878  9300 net.cpp:425] pool4/3x3_s2 <- inception_4e/output
I0403 19:29:27.245904  9300 net.cpp:399] pool4/3x3_s2 -> pool4/3x3_s2
I0403 19:29:27.245990  9300 net.cpp:141] Setting up pool4/3x3_s2
I0403 19:29:27.246019  9300 net.cpp:148] Top shape: 24 832 7 7 (978432)
I0403 19:29:27.246038  9300 net.cpp:156] Memory required for data: 1276470816
I0403 19:29:27.246058  9300 layer_factory.hpp:77] Creating layer pool4/3x3_s2_pool4/3x3_s2_0_split
I0403 19:29:27.246083  9300 net.cpp:91] Creating Layer pool4/3x3_s2_pool4/3x3_s2_0_split
I0403 19:29:27.246104  9300 net.cpp:425] pool4/3x3_s2_pool4/3x3_s2_0_split <- pool4/3x3_s2
I0403 19:29:27.246126  9300 net.cpp:399] pool4/3x3_s2_pool4/3x3_s2_0_split -> pool4/3x3_s2_pool4/3x3_s2_0_split_0
I0403 19:29:27.246152  9300 net.cpp:399] pool4/3x3_s2_pool4/3x3_s2_0_split -> pool4/3x3_s2_pool4/3x3_s2_0_split_1
I0403 19:29:27.246181  9300 net.cpp:399] pool4/3x3_s2_pool4/3x3_s2_0_split -> pool4/3x3_s2_pool4/3x3_s2_0_split_2
I0403 19:29:27.246207  9300 net.cpp:399] pool4/3x3_s2_pool4/3x3_s2_0_split -> pool4/3x3_s2_pool4/3x3_s2_0_split_3
I0403 19:29:27.246320  9300 net.cpp:141] Setting up pool4/3x3_s2_pool4/3x3_s2_0_split
I0403 19:29:27.246348  9300 net.cpp:148] Top shape: 24 832 7 7 (978432)
I0403 19:29:27.246369  9300 net.cpp:148] Top shape: 24 832 7 7 (978432)
I0403 19:29:27.246389  9300 net.cpp:148] Top shape: 24 832 7 7 (978432)
I0403 19:29:27.246410  9300 net.cpp:148] Top shape: 24 832 7 7 (978432)
I0403 19:29:27.246435  9300 net.cpp:156] Memory required for data: 1292125728
I0403 19:29:27.246455  9300 layer_factory.hpp:77] Creating layer inception_5a/1x1
I0403 19:29:27.246484  9300 net.cpp:91] Creating Layer inception_5a/1x1
I0403 19:29:27.246505  9300 net.cpp:425] inception_5a/1x1 <- pool4/3x3_s2_pool4/3x3_s2_0_split_0
I0403 19:29:27.246532  9300 net.cpp:399] inception_5a/1x1 -> inception_5a/1x1
I0403 19:29:27.250018  9300 net.cpp:141] Setting up inception_5a/1x1
I0403 19:29:27.250056  9300 net.cpp:148] Top shape: 24 256 7 7 (301056)
I0403 19:29:27.250075  9300 net.cpp:156] Memory required for data: 1293329952
I0403 19:29:27.250099  9300 layer_factory.hpp:77] Creating layer inception_5a/relu_1x1
I0403 19:29:27.250125  9300 net.cpp:91] Creating Layer inception_5a/relu_1x1
I0403 19:29:27.250147  9300 net.cpp:425] inception_5a/relu_1x1 <- inception_5a/1x1
I0403 19:29:27.250170  9300 net.cpp:386] inception_5a/relu_1x1 -> inception_5a/1x1 (in-place)
I0403 19:29:27.250560  9300 net.cpp:141] Setting up inception_5a/relu_1x1
I0403 19:29:27.250593  9300 net.cpp:148] Top shape: 24 256 7 7 (301056)
I0403 19:29:27.250613  9300 net.cpp:156] Memory required for data: 1294534176
I0403 19:29:27.250633  9300 layer_factory.hpp:77] Creating layer inception_5a/3x3_reduce
I0403 19:29:27.250661  9300 net.cpp:91] Creating Layer inception_5a/3x3_reduce
I0403 19:29:27.250684  9300 net.cpp:425] inception_5a/3x3_reduce <- pool4/3x3_s2_pool4/3x3_s2_0_split_1
I0403 19:29:27.250711  9300 net.cpp:399] inception_5a/3x3_reduce -> inception_5a/3x3_reduce
I0403 19:29:27.253720  9300 net.cpp:141] Setting up inception_5a/3x3_reduce
I0403 19:29:27.253757  9300 net.cpp:148] Top shape: 24 160 7 7 (188160)
I0403 19:29:27.253778  9300 net.cpp:156] Memory required for data: 1295286816
I0403 19:29:27.253801  9300 layer_factory.hpp:77] Creating layer inception_5a/relu_3x3_reduce
I0403 19:29:27.253826  9300 net.cpp:91] Creating Layer inception_5a/relu_3x3_reduce
I0403 19:29:27.253849  9300 net.cpp:425] inception_5a/relu_3x3_reduce <- inception_5a/3x3_reduce
I0403 19:29:27.253873  9300 net.cpp:386] inception_5a/relu_3x3_reduce -> inception_5a/3x3_reduce (in-place)
I0403 19:29:27.254104  9300 net.cpp:141] Setting up inception_5a/relu_3x3_reduce
I0403 19:29:27.254137  9300 net.cpp:148] Top shape: 24 160 7 7 (188160)
I0403 19:29:27.254155  9300 net.cpp:156] Memory required for data: 1296039456
I0403 19:29:27.254174  9300 layer_factory.hpp:77] Creating layer inception_5a/3x3
I0403 19:29:27.254204  9300 net.cpp:91] Creating Layer inception_5a/3x3
I0403 19:29:27.254226  9300 net.cpp:425] inception_5a/3x3 <- inception_5a/3x3_reduce
I0403 19:29:27.254254  9300 net.cpp:399] inception_5a/3x3 -> inception_5a/3x3
I0403 19:29:27.260507  9300 net.cpp:141] Setting up inception_5a/3x3
I0403 19:29:27.260545  9300 net.cpp:148] Top shape: 24 320 7 7 (376320)
I0403 19:29:27.260565  9300 net.cpp:156] Memory required for data: 1297544736
I0403 19:29:27.260588  9300 layer_factory.hpp:77] Creating layer inception_5a/relu_3x3
I0403 19:29:27.260614  9300 net.cpp:91] Creating Layer inception_5a/relu_3x3
I0403 19:29:27.260637  9300 net.cpp:425] inception_5a/relu_3x3 <- inception_5a/3x3
I0403 19:29:27.260658  9300 net.cpp:386] inception_5a/relu_3x3 -> inception_5a/3x3 (in-place)
I0403 19:29:27.261014  9300 net.cpp:141] Setting up inception_5a/relu_3x3
I0403 19:29:27.261049  9300 net.cpp:148] Top shape: 24 320 7 7 (376320)
I0403 19:29:27.261067  9300 net.cpp:156] Memory required for data: 1299050016
I0403 19:29:27.261087  9300 layer_factory.hpp:77] Creating layer inception_5a/5x5_reduce
I0403 19:29:27.261116  9300 net.cpp:91] Creating Layer inception_5a/5x5_reduce
I0403 19:29:27.261137  9300 net.cpp:425] inception_5a/5x5_reduce <- pool4/3x3_s2_pool4/3x3_s2_0_split_2
I0403 19:29:27.261167  9300 net.cpp:399] inception_5a/5x5_reduce -> inception_5a/5x5_reduce
I0403 19:29:27.262621  9300 net.cpp:141] Setting up inception_5a/5x5_reduce
I0403 19:29:27.262660  9300 net.cpp:148] Top shape: 24 32 7 7 (37632)
I0403 19:29:27.262682  9300 net.cpp:156] Memory required for data: 1299200544
I0403 19:29:27.262706  9300 layer_factory.hpp:77] Creating layer inception_5a/relu_5x5_reduce
I0403 19:29:27.262728  9300 net.cpp:91] Creating Layer inception_5a/relu_5x5_reduce
I0403 19:29:27.262748  9300 net.cpp:425] inception_5a/relu_5x5_reduce <- inception_5a/5x5_reduce
I0403 19:29:27.262769  9300 net.cpp:386] inception_5a/relu_5x5_reduce -> inception_5a/5x5_reduce (in-place)
I0403 19:29:27.263133  9300 net.cpp:141] Setting up inception_5a/relu_5x5_reduce
I0403 19:29:27.263165  9300 net.cpp:148] Top shape: 24 32 7 7 (37632)
I0403 19:29:27.263190  9300 net.cpp:156] Memory required for data: 1299351072
I0403 19:29:27.263208  9300 layer_factory.hpp:77] Creating layer inception_5a/5x5
I0403 19:29:27.263234  9300 net.cpp:91] Creating Layer inception_5a/5x5
I0403 19:29:27.263255  9300 net.cpp:425] inception_5a/5x5 <- inception_5a/5x5_reduce
I0403 19:29:27.263283  9300 net.cpp:399] inception_5a/5x5 -> inception_5a/5x5
I0403 19:29:27.265404  9300 net.cpp:141] Setting up inception_5a/5x5
I0403 19:29:27.265460  9300 net.cpp:148] Top shape: 24 128 7 7 (150528)
I0403 19:29:27.265480  9300 net.cpp:156] Memory required for data: 1299953184
I0403 19:29:27.265506  9300 layer_factory.hpp:77] Creating layer inception_5a/relu_5x5
I0403 19:29:27.265532  9300 net.cpp:91] Creating Layer inception_5a/relu_5x5
I0403 19:29:27.265554  9300 net.cpp:425] inception_5a/relu_5x5 <- inception_5a/5x5
I0403 19:29:27.265576  9300 net.cpp:386] inception_5a/relu_5x5 -> inception_5a/5x5 (in-place)
I0403 19:29:27.265811  9300 net.cpp:141] Setting up inception_5a/relu_5x5
I0403 19:29:27.265846  9300 net.cpp:148] Top shape: 24 128 7 7 (150528)
I0403 19:29:27.265867  9300 net.cpp:156] Memory required for data: 1300555296
I0403 19:29:27.265887  9300 layer_factory.hpp:77] Creating layer inception_5a/pool
I0403 19:29:27.265910  9300 net.cpp:91] Creating Layer inception_5a/pool
I0403 19:29:27.265931  9300 net.cpp:425] inception_5a/pool <- pool4/3x3_s2_pool4/3x3_s2_0_split_3
I0403 19:29:27.265954  9300 net.cpp:399] inception_5a/pool -> inception_5a/pool
I0403 19:29:27.266041  9300 net.cpp:141] Setting up inception_5a/pool
I0403 19:29:27.266072  9300 net.cpp:148] Top shape: 24 832 7 7 (978432)
I0403 19:29:27.266093  9300 net.cpp:156] Memory required for data: 1304469024
I0403 19:29:27.266111  9300 layer_factory.hpp:77] Creating layer inception_5a/pool_proj
I0403 19:29:27.266139  9300 net.cpp:91] Creating Layer inception_5a/pool_proj
I0403 19:29:27.266160  9300 net.cpp:425] inception_5a/pool_proj <- inception_5a/pool
I0403 19:29:27.266187  9300 net.cpp:399] inception_5a/pool_proj -> inception_5a/pool_proj
I0403 19:29:27.268990  9300 net.cpp:141] Setting up inception_5a/pool_proj
I0403 19:29:27.269026  9300 net.cpp:148] Top shape: 24 128 7 7 (150528)
I0403 19:29:27.269047  9300 net.cpp:156] Memory required for data: 1305071136
I0403 19:29:27.269070  9300 layer_factory.hpp:77] Creating layer inception_5a/relu_pool_proj
I0403 19:29:27.269095  9300 net.cpp:91] Creating Layer inception_5a/relu_pool_proj
I0403 19:29:27.269119  9300 net.cpp:425] inception_5a/relu_pool_proj <- inception_5a/pool_proj
I0403 19:29:27.269141  9300 net.cpp:386] inception_5a/relu_pool_proj -> inception_5a/pool_proj (in-place)
I0403 19:29:27.269510  9300 net.cpp:141] Setting up inception_5a/relu_pool_proj
I0403 19:29:27.269542  9300 net.cpp:148] Top shape: 24 128 7 7 (150528)
I0403 19:29:27.269562  9300 net.cpp:156] Memory required for data: 1305673248
I0403 19:29:27.269582  9300 layer_factory.hpp:77] Creating layer inception_5a/output
I0403 19:29:27.269603  9300 net.cpp:91] Creating Layer inception_5a/output
I0403 19:29:27.269624  9300 net.cpp:425] inception_5a/output <- inception_5a/1x1
I0403 19:29:27.269646  9300 net.cpp:425] inception_5a/output <- inception_5a/3x3
I0403 19:29:27.269666  9300 net.cpp:425] inception_5a/output <- inception_5a/5x5
I0403 19:29:27.269687  9300 net.cpp:425] inception_5a/output <- inception_5a/pool_proj
I0403 19:29:27.269711  9300 net.cpp:399] inception_5a/output -> inception_5a/output
I0403 19:29:27.269774  9300 net.cpp:141] Setting up inception_5a/output
I0403 19:29:27.269807  9300 net.cpp:148] Top shape: 24 832 7 7 (978432)
I0403 19:29:27.269829  9300 net.cpp:156] Memory required for data: 1309586976
I0403 19:29:27.269848  9300 layer_factory.hpp:77] Creating layer inception_5a/output_inception_5a/output_0_split
I0403 19:29:27.269870  9300 net.cpp:91] Creating Layer inception_5a/output_inception_5a/output_0_split
I0403 19:29:27.269891  9300 net.cpp:425] inception_5a/output_inception_5a/output_0_split <- inception_5a/output
I0403 19:29:27.269917  9300 net.cpp:399] inception_5a/output_inception_5a/output_0_split -> inception_5a/output_inception_5a/output_0_split_0
I0403 19:29:27.269948  9300 net.cpp:399] inception_5a/output_inception_5a/output_0_split -> inception_5a/output_inception_5a/output_0_split_1
I0403 19:29:27.269973  9300 net.cpp:399] inception_5a/output_inception_5a/output_0_split -> inception_5a/output_inception_5a/output_0_split_2
I0403 19:29:27.269999  9300 net.cpp:399] inception_5a/output_inception_5a/output_0_split -> inception_5a/output_inception_5a/output_0_split_3
I0403 19:29:27.270135  9300 net.cpp:141] Setting up inception_5a/output_inception_5a/output_0_split
I0403 19:29:27.270166  9300 net.cpp:148] Top shape: 24 832 7 7 (978432)
I0403 19:29:27.270190  9300 net.cpp:148] Top shape: 24 832 7 7 (978432)
I0403 19:29:27.270211  9300 net.cpp:148] Top shape: 24 832 7 7 (978432)
I0403 19:29:27.270231  9300 net.cpp:148] Top shape: 24 832 7 7 (978432)
I0403 19:29:27.270249  9300 net.cpp:156] Memory required for data: 1325241888
I0403 19:29:27.270267  9300 layer_factory.hpp:77] Creating layer inception_5b/1x1
I0403 19:29:27.270292  9300 net.cpp:91] Creating Layer inception_5b/1x1
I0403 19:29:27.270314  9300 net.cpp:425] inception_5b/1x1 <- inception_5a/output_inception_5a/output_0_split_0
I0403 19:29:27.270341  9300 net.cpp:399] inception_5b/1x1 -> inception_5b/1x1
I0403 19:29:27.274974  9300 net.cpp:141] Setting up inception_5b/1x1
I0403 19:29:27.275012  9300 net.cpp:148] Top shape: 24 384 7 7 (451584)
I0403 19:29:27.275032  9300 net.cpp:156] Memory required for data: 1327048224
I0403 19:29:27.275055  9300 layer_factory.hpp:77] Creating layer inception_5b/relu_1x1
I0403 19:29:27.275079  9300 net.cpp:91] Creating Layer inception_5b/relu_1x1
I0403 19:29:27.275099  9300 net.cpp:425] inception_5b/relu_1x1 <- inception_5b/1x1
I0403 19:29:27.275126  9300 net.cpp:386] inception_5b/relu_1x1 -> inception_5b/1x1 (in-place)
I0403 19:29:27.275509  9300 net.cpp:141] Setting up inception_5b/relu_1x1
I0403 19:29:27.275542  9300 net.cpp:148] Top shape: 24 384 7 7 (451584)
I0403 19:29:27.275563  9300 net.cpp:156] Memory required for data: 1328854560
I0403 19:29:27.275581  9300 layer_factory.hpp:77] Creating layer inception_5b/3x3_reduce
I0403 19:29:27.275610  9300 net.cpp:91] Creating Layer inception_5b/3x3_reduce
I0403 19:29:27.275634  9300 net.cpp:425] inception_5b/3x3_reduce <- inception_5a/output_inception_5a/output_0_split_1
I0403 19:29:27.275662  9300 net.cpp:399] inception_5b/3x3_reduce -> inception_5b/3x3_reduce
I0403 19:29:27.278944  9300 net.cpp:141] Setting up inception_5b/3x3_reduce
I0403 19:29:27.278980  9300 net.cpp:148] Top shape: 24 192 7 7 (225792)
I0403 19:29:27.279000  9300 net.cpp:156] Memory required for data: 1329757728
I0403 19:29:27.279023  9300 layer_factory.hpp:77] Creating layer inception_5b/relu_3x3_reduce
I0403 19:29:27.279047  9300 net.cpp:91] Creating Layer inception_5b/relu_3x3_reduce
I0403 19:29:27.279072  9300 net.cpp:425] inception_5b/relu_3x3_reduce <- inception_5b/3x3_reduce
I0403 19:29:27.279094  9300 net.cpp:386] inception_5b/relu_3x3_reduce -> inception_5b/3x3_reduce (in-place)
I0403 19:29:27.279328  9300 net.cpp:141] Setting up inception_5b/relu_3x3_reduce
I0403 19:29:27.279361  9300 net.cpp:148] Top shape: 24 192 7 7 (225792)
I0403 19:29:27.279378  9300 net.cpp:156] Memory required for data: 1330660896
I0403 19:29:27.279397  9300 layer_factory.hpp:77] Creating layer inception_5b/3x3
I0403 19:29:27.279436  9300 net.cpp:91] Creating Layer inception_5b/3x3
I0403 19:29:27.279460  9300 net.cpp:425] inception_5b/3x3 <- inception_5b/3x3_reduce
I0403 19:29:27.279489  9300 net.cpp:399] inception_5b/3x3 -> inception_5b/3x3
I0403 19:29:27.287814  9300 net.cpp:141] Setting up inception_5b/3x3
I0403 19:29:27.287852  9300 net.cpp:148] Top shape: 24 384 7 7 (451584)
I0403 19:29:27.287873  9300 net.cpp:156] Memory required for data: 1332467232
I0403 19:29:27.287896  9300 layer_factory.hpp:77] Creating layer inception_5b/relu_3x3
I0403 19:29:27.287922  9300 net.cpp:91] Creating Layer inception_5b/relu_3x3
I0403 19:29:27.287945  9300 net.cpp:425] inception_5b/relu_3x3 <- inception_5b/3x3
I0403 19:29:27.287968  9300 net.cpp:386] inception_5b/relu_3x3 -> inception_5b/3x3 (in-place)
I0403 19:29:27.288327  9300 net.cpp:141] Setting up inception_5b/relu_3x3
I0403 19:29:27.288360  9300 net.cpp:148] Top shape: 24 384 7 7 (451584)
I0403 19:29:27.288380  9300 net.cpp:156] Memory required for data: 1334273568
I0403 19:29:27.288399  9300 layer_factory.hpp:77] Creating layer inception_5b/5x5_reduce
I0403 19:29:27.288452  9300 net.cpp:91] Creating Layer inception_5b/5x5_reduce
I0403 19:29:27.288480  9300 net.cpp:425] inception_5b/5x5_reduce <- inception_5a/output_inception_5a/output_0_split_2
I0403 19:29:27.288507  9300 net.cpp:399] inception_5b/5x5_reduce -> inception_5b/5x5_reduce
I0403 19:29:27.290076  9300 net.cpp:141] Setting up inception_5b/5x5_reduce
I0403 19:29:27.290112  9300 net.cpp:148] Top shape: 24 48 7 7 (56448)
I0403 19:29:27.290132  9300 net.cpp:156] Memory required for data: 1334499360
I0403 19:29:27.290158  9300 layer_factory.hpp:77] Creating layer inception_5b/relu_5x5_reduce
I0403 19:29:27.290180  9300 net.cpp:91] Creating Layer inception_5b/relu_5x5_reduce
I0403 19:29:27.290201  9300 net.cpp:425] inception_5b/relu_5x5_reduce <- inception_5b/5x5_reduce
I0403 19:29:27.290227  9300 net.cpp:386] inception_5b/relu_5x5_reduce -> inception_5b/5x5_reduce (in-place)
I0403 19:29:27.290688  9300 net.cpp:141] Setting up inception_5b/relu_5x5_reduce
I0403 19:29:27.290721  9300 net.cpp:148] Top shape: 24 48 7 7 (56448)
I0403 19:29:27.290741  9300 net.cpp:156] Memory required for data: 1334725152
I0403 19:29:27.290760  9300 layer_factory.hpp:77] Creating layer inception_5b/5x5
I0403 19:29:27.290786  9300 net.cpp:91] Creating Layer inception_5b/5x5
I0403 19:29:27.290808  9300 net.cpp:425] inception_5b/5x5 <- inception_5b/5x5_reduce
I0403 19:29:27.290832  9300 net.cpp:399] inception_5b/5x5 -> inception_5b/5x5
I0403 19:29:27.293366  9300 net.cpp:141] Setting up inception_5b/5x5
I0403 19:29:27.293401  9300 net.cpp:148] Top shape: 24 128 7 7 (150528)
I0403 19:29:27.293421  9300 net.cpp:156] Memory required for data: 1335327264
I0403 19:29:27.293454  9300 layer_factory.hpp:77] Creating layer inception_5b/relu_5x5
I0403 19:29:27.293481  9300 net.cpp:91] Creating Layer inception_5b/relu_5x5
I0403 19:29:27.293504  9300 net.cpp:425] inception_5b/relu_5x5 <- inception_5b/5x5
I0403 19:29:27.293527  9300 net.cpp:386] inception_5b/relu_5x5 -> inception_5b/5x5 (in-place)
I0403 19:29:27.293767  9300 net.cpp:141] Setting up inception_5b/relu_5x5
I0403 19:29:27.293802  9300 net.cpp:148] Top shape: 24 128 7 7 (150528)
I0403 19:29:27.293823  9300 net.cpp:156] Memory required for data: 1335929376
I0403 19:29:27.293841  9300 layer_factory.hpp:77] Creating layer inception_5b/pool
I0403 19:29:27.293865  9300 net.cpp:91] Creating Layer inception_5b/pool
I0403 19:29:27.293886  9300 net.cpp:425] inception_5b/pool <- inception_5a/output_inception_5a/output_0_split_3
I0403 19:29:27.293912  9300 net.cpp:399] inception_5b/pool -> inception_5b/pool
I0403 19:29:27.294003  9300 net.cpp:141] Setting up inception_5b/pool
I0403 19:29:27.294034  9300 net.cpp:148] Top shape: 24 832 7 7 (978432)
I0403 19:29:27.294054  9300 net.cpp:156] Memory required for data: 1339843104
I0403 19:29:27.294071  9300 layer_factory.hpp:77] Creating layer inception_5b/pool_proj
I0403 19:29:27.294100  9300 net.cpp:91] Creating Layer inception_5b/pool_proj
I0403 19:29:27.294123  9300 net.cpp:425] inception_5b/pool_proj <- inception_5b/pool
I0403 19:29:27.294150  9300 net.cpp:399] inception_5b/pool_proj -> inception_5b/pool_proj
I0403 19:29:27.296963  9300 net.cpp:141] Setting up inception_5b/pool_proj
I0403 19:29:27.297000  9300 net.cpp:148] Top shape: 24 128 7 7 (150528)
I0403 19:29:27.297024  9300 net.cpp:156] Memory required for data: 1340445216
I0403 19:29:27.297046  9300 layer_factory.hpp:77] Creating layer inception_5b/relu_pool_proj
I0403 19:29:27.297071  9300 net.cpp:91] Creating Layer inception_5b/relu_pool_proj
I0403 19:29:27.297093  9300 net.cpp:425] inception_5b/relu_pool_proj <- inception_5b/pool_proj
I0403 19:29:27.297116  9300 net.cpp:386] inception_5b/relu_pool_proj -> inception_5b/pool_proj (in-place)
I0403 19:29:27.297488  9300 net.cpp:141] Setting up inception_5b/relu_pool_proj
I0403 19:29:27.297523  9300 net.cpp:148] Top shape: 24 128 7 7 (150528)
I0403 19:29:27.297543  9300 net.cpp:156] Memory required for data: 1341047328
I0403 19:29:27.297560  9300 layer_factory.hpp:77] Creating layer inception_5b/output
I0403 19:29:27.297583  9300 net.cpp:91] Creating Layer inception_5b/output
I0403 19:29:27.297621  9300 net.cpp:425] inception_5b/output <- inception_5b/1x1
I0403 19:29:27.297644  9300 net.cpp:425] inception_5b/output <- inception_5b/3x3
I0403 19:29:27.297665  9300 net.cpp:425] inception_5b/output <- inception_5b/5x5
I0403 19:29:27.297688  9300 net.cpp:425] inception_5b/output <- inception_5b/pool_proj
I0403 19:29:27.297713  9300 net.cpp:399] inception_5b/output -> inception_5b/output
I0403 19:29:27.297776  9300 net.cpp:141] Setting up inception_5b/output
I0403 19:29:27.297811  9300 net.cpp:148] Top shape: 24 1024 7 7 (1204224)
I0403 19:29:27.297829  9300 net.cpp:156] Memory required for data: 1345864224
I0403 19:29:27.297849  9300 layer_factory.hpp:77] Creating layer pool5/7x7_s1
I0403 19:29:27.297873  9300 net.cpp:91] Creating Layer pool5/7x7_s1
I0403 19:29:27.297891  9300 net.cpp:425] pool5/7x7_s1 <- inception_5b/output
I0403 19:29:27.297916  9300 net.cpp:399] pool5/7x7_s1 -> pool5/7x7_s1
I0403 19:29:27.298182  9300 net.cpp:141] Setting up pool5/7x7_s1
I0403 19:29:27.298215  9300 net.cpp:148] Top shape: 24 1024 1 1 (24576)
I0403 19:29:27.298234  9300 net.cpp:156] Memory required for data: 1345962528
I0403 19:29:27.298254  9300 layer_factory.hpp:77] Creating layer pool5/drop_7x7_s1
I0403 19:29:27.298276  9300 net.cpp:91] Creating Layer pool5/drop_7x7_s1
I0403 19:29:27.298296  9300 net.cpp:425] pool5/drop_7x7_s1 <- pool5/7x7_s1
I0403 19:29:27.298321  9300 net.cpp:386] pool5/drop_7x7_s1 -> pool5/7x7_s1 (in-place)
I0403 19:29:27.298388  9300 net.cpp:141] Setting up pool5/drop_7x7_s1
I0403 19:29:27.298418  9300 net.cpp:148] Top shape: 24 1024 1 1 (24576)
I0403 19:29:27.298444  9300 net.cpp:156] Memory required for data: 1346060832
I0403 19:29:27.298466  9300 layer_factory.hpp:77] Creating layer loss3/classifier_plantvillage
I0403 19:29:27.298491  9300 net.cpp:91] Creating Layer loss3/classifier_plantvillage
I0403 19:29:27.298511  9300 net.cpp:425] loss3/classifier_plantvillage <- pool5/7x7_s1
I0403 19:29:27.298539  9300 net.cpp:399] loss3/classifier_plantvillage -> loss3/classifier_plantvillage
I0403 19:29:27.299065  9300 net.cpp:141] Setting up loss3/classifier_plantvillage
I0403 19:29:27.299096  9300 net.cpp:148] Top shape: 24 38 (912)
I0403 19:29:27.299116  9300 net.cpp:156] Memory required for data: 1346064480
I0403 19:29:27.299140  9300 layer_factory.hpp:77] Creating layer loss3/classifier_plantvillage_loss3/classifier_plantvillage_0_split
I0403 19:29:27.299167  9300 net.cpp:91] Creating Layer loss3/classifier_plantvillage_loss3/classifier_plantvillage_0_split
I0403 19:29:27.299190  9300 net.cpp:425] loss3/classifier_plantvillage_loss3/classifier_plantvillage_0_split <- loss3/classifier_plantvillage
I0403 19:29:27.299214  9300 net.cpp:399] loss3/classifier_plantvillage_loss3/classifier_plantvillage_0_split -> loss3/classifier_plantvillage_loss3/classifier_plantvillage_0_split_0
I0403 19:29:27.299242  9300 net.cpp:399] loss3/classifier_plantvillage_loss3/classifier_plantvillage_0_split -> loss3/classifier_plantvillage_loss3/classifier_plantvillage_0_split_1
I0403 19:29:27.299266  9300 net.cpp:399] loss3/classifier_plantvillage_loss3/classifier_plantvillage_0_split -> loss3/classifier_plantvillage_loss3/classifier_plantvillage_0_split_2
I0403 19:29:27.299291  9300 net.cpp:399] loss3/classifier_plantvillage_loss3/classifier_plantvillage_0_split -> loss3/classifier_plantvillage_loss3/classifier_plantvillage_0_split_3
I0403 19:29:27.299414  9300 net.cpp:141] Setting up loss3/classifier_plantvillage_loss3/classifier_plantvillage_0_split
I0403 19:29:27.299449  9300 net.cpp:148] Top shape: 24 38 (912)
I0403 19:29:27.299471  9300 net.cpp:148] Top shape: 24 38 (912)
I0403 19:29:27.299492  9300 net.cpp:148] Top shape: 24 38 (912)
I0403 19:29:27.299512  9300 net.cpp:148] Top shape: 24 38 (912)
I0403 19:29:27.299530  9300 net.cpp:156] Memory required for data: 1346079072
I0403 19:29:27.299549  9300 layer_factory.hpp:77] Creating layer loss1/loss
I0403 19:29:27.299578  9300 net.cpp:91] Creating Layer loss1/loss
I0403 19:29:27.299600  9300 net.cpp:425] loss1/loss <- loss1/classifier_plantvillage_loss1/classifier_plantvillage_0_split_0
I0403 19:29:27.299639  9300 net.cpp:425] loss1/loss <- label_data_1_split_0
…
