…
I0403 04:58:50.723742 31448 net.cpp:313] The NetState phase (0) differed from the phase (1) specified by a rule in layer accuracy
I0403 04:58:50.724397 31448 net.cpp:49] Initializing net from parameters: 
state {
  phase: TRAIN
}
layer {
  name: "data"
  type: "Data"
  top: "data"
  top: "label"
  include {
    phase: TRAIN
  }
  transform_param {
    mirror: true
    crop_size: 227
    mean_file: "/home/mohanty/data/final_dataset/lmdb/grayscale-20-80/mean.binaryproto"
  }
  data_param {
    source: "/home/mohanty/data/final_dataset/lmdb/grayscale-20-80/train_db"
    batch_size: 100
    backend: LMDB
  }
}
layer {
  name: "conv1"
  type: "Convolution"
  bottom: "data"
  top: "conv1"
  param {
    lr_mult: 1
    decay_mult: 1
  }
  param {
    lr_mult: 2
    decay_mult: 0
  }
  convolution_param {
    num_output: 96
    kernel_size: 11
    stride: 4
    weight_filler {
      type: "gaussian"
      std: 0.01
    }
    bias_filler {
      type: "constant"
      value: 0
    }
  }
}
layer {
  name: "relu1"
  type: "ReLU"
  bottom: "conv1"
  top: "conv1"
}
layer {
  name: "norm1"
  type: "LRN"
  bottom: "conv1"
  top: "norm1"
  lrn_param {
    local_size: 5
    alpha: 0.0001
    beta: 0.75
  }
}
layer {
  name: "pool1"
  type: "Pooling"
  bottom: "norm1"
  top: "pool1"
  pooling_param {
    pool: MAX
    kernel_size: 3
    stride: 2
  }
}
layer {
  name: "conv2"
  type: "Convolution"
  bottom: "pool1"
  top: "conv2"
  param {
    lr_mult: 1
    decay_mult: 1
  }
  param {
    lr_mult: 2
    decay_mult: 0
  }
  convolution_param {
    num_output: 256
    pad: 2
    kernel_size: 5
    group: 2
    weight_filler {
      type: "gaussian"
      std: 0.01
    }
    bias_filler {
      type: "constant"
      value: 0.1
    }
  }
}
layer {
  name: "relu2"
  type: "ReLU"
  bottom: "conv2"
  top: "conv2"
}
layer {
  name: "norm2"
  type: "LRN"
  bottom: "conv2"
  top: "norm2"
  lrn_param {
    local_size: 5
    alpha: 0.0001
    beta: 0.75
  }
}
layer {
  name: "pool2"
  type: "Pooling"
  bottom: "norm2"
  top: "pool2"
  pooling_param {
    pool: MAX
    kernel_size: 3
    stride: 2
  }
}
layer {
  name: "conv3"
  type: "Convolution"
  bottom: "pool2"
  top: "conv3"
  param {
    lr_mult: 1
    decay_mult: 1
  }
  param {
    lr_mult: 2
    decay_mult: 0
  }
  convolution_param {
    num_output: 384
    pad: 1
    kernel_size: 3
    weight_filler {
      type: "gaussian"
      std: 0.01
    }
    bias_filler {
      type: "constant"
      value: 0
    }
  }
}
layer {
  name: "relu3"
  type: "ReLU"
  bottom: "conv3"
  top: "conv3"
}
layer {
  name: "conv4"
  type: "Convolution"
  bottom: "conv3"
  top: "conv4"
  param {
    lr_mult: 1
    decay_mult: 1
  }
  param {
    lr_mult: 2
    decay_mult: 0
  }
  convolution_param {
    num_output: 384
    pad: 1
    kernel_size: 3
    group: 2
    weight_filler {
      type: "gaussian"
      std: 0.01
    }
    bias_filler {
      type: "constant"
      value: 0.1
    }
  }
}
layer {
  name: "relu4"
  type: "ReLU"
  bottom: "conv4"
  top: "conv4"
}
layer {
  name: "conv5"
  type: "Convolution"
  bottom: "conv4"
  top: "conv5"
  param {
    lr_mult: 1
    decay_mult: 1
  }
  param {
    lr_mult: 2
    decay_mult: 0
  }
  convolution_param {
    num_output: 256
    pad: 1
    kernel_size: 3
    group: 2
    weight_filler {
      type: "gaussian"
      std: 0.01
    }
    bias_filler {
      type: "constant"
      value: 0.1
    }
  }
}
layer {
  name: "relu5"
  type: "ReLU"
  bottom: "conv5"
  top: "conv5"
}
layer {
  name: "pool5"
  type: "Pooling"
  bottom: "conv5"
  top: "pool5"
  pooling_param {
    pool: MAX
    kernel_size: 3
    stride: 2
  }
}
layer {
  name: "fc6"
  type: "InnerProduct"
  bottom: "pool5"
  top: "fc6"
  param {
    lr_mult: 1
    decay_mult: 1
  }
  param {
    lr_mult: 2
    decay_mult: 0
  }
  inner_product_param {
    num_output: 4096
    weight_filler {
      type: "gaussian"
      std: 0.005
    }
    bias_filler {
      type: "constant"
      value: 0.1
    }
  }
}
layer {
  name: "relu6"
  type: "ReLU"
  bottom: "fc6"
  top: "fc6"
}
layer {
  name: "drop6"
  type: "Dropout"
  bottom: "fc6"
  top: "fc6"
  dropout_param {
    dropout_ratio: 0.5
  }
}
layer {
  name: "fc7"
  type: "InnerProduct"
  bottom: "fc6"
  top: "fc7"
  param {
    lr_mult: 1
    decay_mult: 1
  }
  param {
    lr_mult: 2
    decay_mult: 0
  }
  inner_product_param {
    num_output: 4096
    weight_filler {
      type: "gaussian"
      std: 0.005
    }
    bias_filler {
      type: "constant"
      value: 0.1
    }
  }
}
layer {
  name: "relu7"
  type: "ReLU"
  bottom: "fc7"
  top: "fc7"
}
layer {
  name: "drop7"
  type: "Dropout"
  bottom: "fc7"
  top: "fc7"
  dropout_param {
    dropout_ratio: 0.5
  }
}
layer {
  name: "fc8_plantvillage"
  type: "InnerProduct"
  bottom: "fc7"
  top: "fc8_plantvillage"
  param {
    lr_mult: 1
    decay_mult: 1
  }
  param {
    lr_mult: 2
    decay_mult: 0
  }
  inner_product_param {
    num_output: 38
    weight_filler {
      type: "gaussian"
      std: 0.01
    }
    bias_filler {
      type: "constant"
      value: 0
    }
  }
}
layer {
  name: "loss"
  type: "SoftmaxWithLoss"
  bottom: "fc8_plantvillage"
  bottom: "label"
  top: "loss"
}
I0403 04:58:50.724876 31448 layer_factory.hpp:77] Creating layer data
I0403 04:58:50.725587 31448 net.cpp:91] Creating Layer data
I0403 04:58:50.725626 31448 net.cpp:399] data -> data
I0403 04:58:50.725678 31448 net.cpp:399] data -> label
I0403 04:58:50.725715 31448 data_transformer.cpp:25] Loading mean file from: /home/mohanty/data/final_dataset/lmdb/grayscale-20-80/mean.binaryproto
I0403 04:58:50.772070 31450 db_lmdb.cpp:38] Opened lmdb /home/mohanty/data/final_dataset/lmdb/grayscale-20-80/train_db
I0403 04:58:50.810116 31448 data_layer.cpp:41] output data size: 100,3,227,227
I0403 04:58:50.932087 31448 net.cpp:141] Setting up data
I0403 04:58:50.932199 31448 net.cpp:148] Top shape: 100 3 227 227 (15458700)
I0403 04:58:50.932224 31448 net.cpp:148] Top shape: 100 (100)
I0403 04:58:50.932241 31448 net.cpp:156] Memory required for data: 61835200
I0403 04:58:50.932274 31448 layer_factory.hpp:77] Creating layer conv1
I0403 04:58:50.932328 31448 net.cpp:91] Creating Layer conv1
I0403 04:58:50.932353 31448 net.cpp:425] conv1 <- data
I0403 04:58:50.932387 31448 net.cpp:399] conv1 -> conv1
I0403 04:58:50.935078 31448 net.cpp:141] Setting up conv1
I0403 04:58:50.935111 31448 net.cpp:148] Top shape: 100 96 55 55 (29040000)
I0403 04:58:50.935130 31448 net.cpp:156] Memory required for data: 177995200
I0403 04:58:50.935168 31448 layer_factory.hpp:77] Creating layer relu1
I0403 04:58:50.935196 31448 net.cpp:91] Creating Layer relu1
I0403 04:58:50.935217 31448 net.cpp:425] relu1 <- conv1
I0403 04:58:50.935236 31448 net.cpp:386] relu1 -> conv1 (in-place)
I0403 04:58:50.935262 31448 net.cpp:141] Setting up relu1
I0403 04:58:50.935283 31448 net.cpp:148] Top shape: 100 96 55 55 (29040000)
I0403 04:58:50.935308 31448 net.cpp:156] Memory required for data: 294155200
I0403 04:58:50.935327 31448 layer_factory.hpp:77] Creating layer norm1
I0403 04:58:50.935382 31448 net.cpp:91] Creating Layer norm1
I0403 04:58:50.935401 31448 net.cpp:425] norm1 <- conv1
I0403 04:58:50.935423 31448 net.cpp:399] norm1 -> norm1
I0403 04:58:50.941033 31448 net.cpp:141] Setting up norm1
I0403 04:58:50.941071 31448 net.cpp:148] Top shape: 100 96 55 55 (29040000)
I0403 04:58:50.941089 31448 net.cpp:156] Memory required for data: 410315200
I0403 04:58:50.941105 31448 layer_factory.hpp:77] Creating layer pool1
I0403 04:58:50.941128 31448 net.cpp:91] Creating Layer pool1
I0403 04:58:50.941148 31448 net.cpp:425] pool1 <- norm1
I0403 04:58:50.941169 31448 net.cpp:399] pool1 -> pool1
I0403 04:58:50.941231 31448 net.cpp:141] Setting up pool1
I0403 04:58:50.941259 31448 net.cpp:148] Top shape: 100 96 27 27 (6998400)
I0403 04:58:50.941277 31448 net.cpp:156] Memory required for data: 438308800
I0403 04:58:50.941301 31448 layer_factory.hpp:77] Creating layer conv2
I0403 04:58:50.941329 31448 net.cpp:91] Creating Layer conv2
I0403 04:58:50.941349 31448 net.cpp:425] conv2 <- pool1
I0403 04:58:50.941371 31448 net.cpp:399] conv2 -> conv2
I0403 04:58:50.942762 31452 blocking_queue.cpp:50] Waiting for data
I0403 04:58:50.958396 31448 net.cpp:141] Setting up conv2
I0403 04:58:50.958427 31448 net.cpp:148] Top shape: 100 256 27 27 (18662400)
I0403 04:58:50.958446 31448 net.cpp:156] Memory required for data: 512958400
I0403 04:58:50.958468 31448 layer_factory.hpp:77] Creating layer relu2
I0403 04:58:50.958492 31448 net.cpp:91] Creating Layer relu2
I0403 04:58:50.958511 31448 net.cpp:425] relu2 <- conv2
I0403 04:58:50.958530 31448 net.cpp:386] relu2 -> conv2 (in-place)
I0403 04:58:50.958551 31448 net.cpp:141] Setting up relu2
I0403 04:58:50.958570 31448 net.cpp:148] Top shape: 100 256 27 27 (18662400)
I0403 04:58:50.958587 31448 net.cpp:156] Memory required for data: 587608000
I0403 04:58:50.958606 31448 layer_factory.hpp:77] Creating layer norm2
I0403 04:58:50.958624 31448 net.cpp:91] Creating Layer norm2
I0403 04:58:50.958641 31448 net.cpp:425] norm2 <- conv2
I0403 04:58:50.958660 31448 net.cpp:399] norm2 -> norm2
I0403 04:58:50.958705 31448 net.cpp:141] Setting up norm2
I0403 04:58:50.958730 31448 net.cpp:148] Top shape: 100 256 27 27 (18662400)
I0403 04:58:50.958746 31448 net.cpp:156] Memory required for data: 662257600
I0403 04:58:50.958763 31448 layer_factory.hpp:77] Creating layer pool2
I0403 04:58:50.958784 31448 net.cpp:91] Creating Layer pool2
I0403 04:58:50.958802 31448 net.cpp:425] pool2 <- norm2
I0403 04:58:50.958820 31448 net.cpp:399] pool2 -> pool2
I0403 04:58:50.958866 31448 net.cpp:141] Setting up pool2
I0403 04:58:50.958890 31448 net.cpp:148] Top shape: 100 256 13 13 (4326400)
I0403 04:58:50.958906 31448 net.cpp:156] Memory required for data: 679563200
I0403 04:58:50.958921 31448 layer_factory.hpp:77] Creating layer conv3
I0403 04:58:50.958943 31448 net.cpp:91] Creating Layer conv3
I0403 04:58:50.958961 31448 net.cpp:425] conv3 <- pool2
I0403 04:58:50.958982 31448 net.cpp:399] conv3 -> conv3
I0403 04:58:50.993111 31448 net.cpp:141] Setting up conv3
I0403 04:58:50.993144 31448 net.cpp:148] Top shape: 100 384 13 13 (6489600)
I0403 04:58:50.993162 31448 net.cpp:156] Memory required for data: 705521600
I0403 04:58:50.993185 31448 layer_factory.hpp:77] Creating layer relu3
I0403 04:58:50.993206 31448 net.cpp:91] Creating Layer relu3
I0403 04:58:50.993224 31448 net.cpp:425] relu3 <- conv3
I0403 04:58:50.993244 31448 net.cpp:386] relu3 -> conv3 (in-place)
I0403 04:58:50.993265 31448 net.cpp:141] Setting up relu3
I0403 04:58:50.993284 31448 net.cpp:148] Top shape: 100 384 13 13 (6489600)
I0403 04:58:50.993305 31448 net.cpp:156] Memory required for data: 731480000
I0403 04:58:50.993322 31448 layer_factory.hpp:77] Creating layer conv4
I0403 04:58:50.993345 31448 net.cpp:91] Creating Layer conv4
I0403 04:58:50.993366 31448 net.cpp:425] conv4 <- conv3
I0403 04:58:50.993388 31448 net.cpp:399] conv4 -> conv4
I0403 04:58:51.018940 31448 net.cpp:141] Setting up conv4
I0403 04:58:51.018975 31448 net.cpp:148] Top shape: 100 384 13 13 (6489600)
I0403 04:58:51.018992 31448 net.cpp:156] Memory required for data: 757438400
I0403 04:58:51.019031 31448 layer_factory.hpp:77] Creating layer relu4
I0403 04:58:51.019053 31448 net.cpp:91] Creating Layer relu4
I0403 04:58:51.019073 31448 net.cpp:425] relu4 <- conv4
I0403 04:58:51.019093 31448 net.cpp:386] relu4 -> conv4 (in-place)
I0403 04:58:51.019114 31448 net.cpp:141] Setting up relu4
I0403 04:58:51.019134 31448 net.cpp:148] Top shape: 100 384 13 13 (6489600)
I0403 04:58:51.019151 31448 net.cpp:156] Memory required for data: 783396800
I0403 04:58:51.019166 31448 layer_factory.hpp:77] Creating layer conv5
I0403 04:58:51.019189 31448 net.cpp:91] Creating Layer conv5
I0403 04:58:51.019208 31448 net.cpp:425] conv5 <- conv4
I0403 04:58:51.019229 31448 net.cpp:399] conv5 -> conv5
I0403 04:58:51.036451 31448 net.cpp:141] Setting up conv5
I0403 04:58:51.036487 31448 net.cpp:148] Top shape: 100 256 13 13 (4326400)
I0403 04:58:51.036505 31448 net.cpp:156] Memory required for data: 800702400
I0403 04:58:51.036528 31448 layer_factory.hpp:77] Creating layer relu5
I0403 04:58:51.036552 31448 net.cpp:91] Creating Layer relu5
I0403 04:58:51.036571 31448 net.cpp:425] relu5 <- conv5
I0403 04:58:51.036592 31448 net.cpp:386] relu5 -> conv5 (in-place)
I0403 04:58:51.036615 31448 net.cpp:141] Setting up relu5
I0403 04:58:51.036636 31448 net.cpp:148] Top shape: 100 256 13 13 (4326400)
I0403 04:58:51.036653 31448 net.cpp:156] Memory required for data: 818008000
I0403 04:58:51.036669 31448 layer_factory.hpp:77] Creating layer pool5
I0403 04:58:51.036690 31448 net.cpp:91] Creating Layer pool5
I0403 04:58:51.036706 31448 net.cpp:425] pool5 <- conv5
I0403 04:58:51.036727 31448 net.cpp:399] pool5 -> pool5
I0403 04:58:51.036777 31448 net.cpp:141] Setting up pool5
I0403 04:58:51.036803 31448 net.cpp:148] Top shape: 100 256 6 6 (921600)
I0403 04:58:51.036820 31448 net.cpp:156] Memory required for data: 821694400
I0403 04:58:51.036837 31448 layer_factory.hpp:77] Creating layer fc6
I0403 04:58:51.036870 31448 net.cpp:91] Creating Layer fc6
I0403 04:58:51.036890 31448 net.cpp:425] fc6 <- pool5
I0403 04:58:51.036912 31448 net.cpp:399] fc6 -> fc6
I0403 04:58:52.424613 31448 net.cpp:141] Setting up fc6
I0403 04:58:52.424710 31448 net.cpp:148] Top shape: 100 4096 (409600)
I0403 04:58:52.424727 31448 net.cpp:156] Memory required for data: 823332800
I0403 04:58:52.424751 31448 layer_factory.hpp:77] Creating layer relu6
I0403 04:58:52.424778 31448 net.cpp:91] Creating Layer relu6
I0403 04:58:52.424798 31448 net.cpp:425] relu6 <- fc6
I0403 04:58:52.424818 31448 net.cpp:386] relu6 -> fc6 (in-place)
I0403 04:58:52.424840 31448 net.cpp:141] Setting up relu6
I0403 04:58:52.424859 31448 net.cpp:148] Top shape: 100 4096 (409600)
I0403 04:58:52.424873 31448 net.cpp:156] Memory required for data: 824971200
I0403 04:58:52.424886 31448 layer_factory.hpp:77] Creating layer drop6
I0403 04:58:52.424916 31448 net.cpp:91] Creating Layer drop6
I0403 04:58:52.424932 31448 net.cpp:425] drop6 <- fc6
I0403 04:58:52.424950 31448 net.cpp:386] drop6 -> fc6 (in-place)
I0403 04:58:52.424998 31448 net.cpp:141] Setting up drop6
I0403 04:58:52.425024 31448 net.cpp:148] Top shape: 100 4096 (409600)
I0403 04:58:52.425040 31448 net.cpp:156] Memory required for data: 826609600
I0403 04:58:52.425055 31448 layer_factory.hpp:77] Creating layer fc7
I0403 04:58:52.425076 31448 net.cpp:91] Creating Layer fc7
I0403 04:58:52.425091 31448 net.cpp:425] fc7 <- fc6
I0403 04:58:52.425110 31448 net.cpp:399] fc7 -> fc7
I0403 04:58:53.036368 31448 net.cpp:141] Setting up fc7
I0403 04:58:53.036470 31448 net.cpp:148] Top shape: 100 4096 (409600)
I0403 04:58:53.036489 31448 net.cpp:156] Memory required for data: 828248000
I0403 04:58:53.036511 31448 layer_factory.hpp:77] Creating layer relu7
I0403 04:58:53.036537 31448 net.cpp:91] Creating Layer relu7
I0403 04:58:53.036566 31448 net.cpp:425] relu7 <- fc7
I0403 04:58:53.036587 31448 net.cpp:386] relu7 -> fc7 (in-place)
I0403 04:58:53.036622 31448 net.cpp:141] Setting up relu7
I0403 04:58:53.036640 31448 net.cpp:148] Top shape: 100 4096 (409600)
I0403 04:58:53.036655 31448 net.cpp:156] Memory required for data: 829886400
I0403 04:58:53.036705 31448 layer_factory.hpp:77] Creating layer drop7
I0403 04:58:53.036731 31448 net.cpp:91] Creating Layer drop7
I0403 04:58:53.036749 31448 net.cpp:425] drop7 <- fc7
I0403 04:58:53.036767 31448 net.cpp:386] drop7 -> fc7 (in-place)
I0403 04:58:53.036808 31448 net.cpp:141] Setting up drop7
I0403 04:58:53.036831 31448 net.cpp:148] Top shape: 100 4096 (409600)
I0403 04:58:53.036851 31448 net.cpp:156] Memory required for data: 831524800
I0403 04:58:53.036866 31448 layer_factory.hpp:77] Creating layer fc8_plantvillage
I0403 04:58:53.036890 31448 net.cpp:91] Creating Layer fc8_plantvillage
I0403 04:58:53.036918 31448 net.cpp:425] fc8_plantvillage <- fc7
I0403 04:58:53.036938 31448 net.cpp:399] fc8_plantvillage -> fc8_plantvillage
I0403 04:58:53.042914 31448 net.cpp:141] Setting up fc8_plantvillage
I0403 04:58:53.042945 31448 net.cpp:148] Top shape: 100 38 (3800)
I0403 04:58:53.042963 31448 net.cpp:156] Memory required for data: 831540000
I0403 04:58:53.042982 31448 layer_factory.hpp:77] Creating layer loss
I0403 04:58:53.043007 31448 net.cpp:91] Creating Layer loss
I0403 04:58:53.043025 31448 net.cpp:425] loss <- fc8_plantvillage
I0403 04:58:53.043041 31448 net.cpp:425] loss <- label
I0403 04:58:53.043062 31448 net.cpp:399] loss -> loss
I0403 04:58:53.043089 31448 layer_factory.hpp:77] Creating layer loss
…
I0403 04:58:53.044764 31448 net.cpp:313] The NetState phase (1) differed from the phase (0) specified by a rule in layer data
I0403 04:58:53.045379 31448 net.cpp:49] Initializing net from parameters: 
state {
  phase: TEST
}
layer {
  name: "data"
  type: "Data"
  top: "data"
  top: "label"
  include {
    phase: TEST
  }
  transform_param {
    crop_size: 227
    mean_file: "/home/mohanty/data/final_dataset/lmdb/grayscale-20-80/mean.binaryproto"
  }
  data_param {
    source: "/home/mohanty/data/final_dataset/lmdb/grayscale-20-80/test_db"
    batch_size: 100
    backend: LMDB
  }
}
layer {
  name: "conv1"
  type: "Convolution"
  bottom: "data"
  top: "conv1"
  param {
    lr_mult: 1
    decay_mult: 1
  }
  param {
    lr_mult: 2
    decay_mult: 0
  }
  convolution_param {
    num_output: 96
    kernel_size: 11
    stride: 4
    weight_filler {
      type: "gaussian"
      std: 0.01
    }
    bias_filler {
      type: "constant"
      value: 0
    }
  }
}
layer {
  name: "relu1"
  type: "ReLU"
  bottom: "conv1"
  top: "conv1"
}
layer {
  name: "norm1"
  type: "LRN"
  bottom: "conv1"
  top: "norm1"
  lrn_param {
    local_size: 5
    alpha: 0.0001
    beta: 0.75
  }
}
layer {
  name: "pool1"
  type: "Pooling"
  bottom: "norm1"
  top: "pool1"
  pooling_param {
    pool: MAX
    kernel_size: 3
    stride: 2
  }
}
layer {
  name: "conv2"
  type: "Convolution"
  bottom: "pool1"
  top: "conv2"
  param {
    lr_mult: 1
    decay_mult: 1
  }
  param {
    lr_mult: 2
    decay_mult: 0
  }
  convolution_param {
    num_output: 256
    pad: 2
    kernel_size: 5
    group: 2
    weight_filler {
      type: "gaussian"
      std: 0.01
    }
    bias_filler {
      type: "constant"
      value: 0.1
    }
  }
}
layer {
  name: "relu2"
  type: "ReLU"
  bottom: "conv2"
  top: "conv2"
}
layer {
  name: "norm2"
  type: "LRN"
  bottom: "conv2"
  top: "norm2"
  lrn_param {
    local_size: 5
    alpha: 0.0001
    beta: 0.75
  }
}
layer {
  name: "pool2"
  type: "Pooling"
  bottom: "norm2"
  top: "pool2"
  pooling_param {
    pool: MAX
    kernel_size: 3
    stride: 2
  }
}
layer {
  name: "conv3"
  type: "Convolution"
  bottom: "pool2"
  top: "conv3"
  param {
    lr_mult: 1
    decay_mult: 1
  }
  param {
    lr_mult: 2
    decay_mult: 0
  }
  convolution_param {
    num_output: 384
    pad: 1
    kernel_size: 3
    weight_filler {
      type: "gaussian"
      std: 0.01
    }
    bias_filler {
      type: "constant"
      value: 0
    }
  }
}
layer {
  name: "relu3"
  type: "ReLU"
  bottom: "conv3"
  top: "conv3"
}
layer {
  name: "conv4"
  type: "Convolution"
  bottom: "conv3"
  top: "conv4"
  param {
    lr_mult: 1
    decay_mult: 1
  }
  param {
    lr_mult: 2
    decay_mult: 0
  }
  convolution_param {
    num_output: 384
    pad: 1
    kernel_size: 3
    group: 2
    weight_filler {
      type: "gaussian"
      std: 0.01
    }
    bias_filler {
      type: "constant"
      value: 0.1
    }
  }
}
layer {
  name: "relu4"
  type: "ReLU"
  bottom: "conv4"
  top: "conv4"
}
layer {
  name: "conv5"
  type: "Convolution"
  bottom: "conv4"
  top: "conv5"
  param {
    lr_mult: 1
    decay_mult: 1
  }
  param {
    lr_mult: 2
    decay_mult: 0
  }
  convolution_param {
    num_output: 256
    pad: 1
    kernel_size: 3
    group: 2
    weight_filler {
      type: "gaussian"
      std: 0.01
    }
    bias_filler {
      type: "constant"
      value: 0.1
    }
  }
}
layer {
  name: "relu5"
  type: "ReLU"
  bottom: "conv5"
  top: "conv5"
}
layer {
  name: "pool5"
  type: "Pooling"
  bottom: "conv5"
  top: "pool5"
  pooling_param {
    pool: MAX
    kernel_size: 3
    stride: 2
  }
}
layer {
  name: "fc6"
  type: "InnerProduct"
  bottom: "pool5"
  top: "fc6"
  param {
    lr_mult: 1
    decay_mult: 1
  }
  param {
    lr_mult: 2
    decay_mult: 0
  }
  inner_product_param {
    num_output: 4096
    weight_filler {
      type: "gaussian"
      std: 0.005
    }
    bias_filler {
      type: "constant"
      value: 0.1
    }
  }
}
layer {
  name: "relu6"
  type: "ReLU"
  bottom: "fc6"
  top: "fc6"
}
layer {
  name: "drop6"
  type: "Dropout"
  bottom: "fc6"
  top: "fc6"
  dropout_param {
    dropout_ratio: 0.5
  }
}
layer {
  name: "fc7"
  type: "InnerProduct"
  bottom: "fc6"
  top: "fc7"
  param {
    lr_mult: 1
    decay_mult: 1
  }
  param {
    lr_mult: 2
    decay_mult: 0
  }
  inner_product_param {
    num_output: 4096
    weight_filler {
      type: "gaussian"
      std: 0.005
    }
    bias_filler {
      type: "constant"
      value: 0.1
    }
  }
}
layer {
  name: "relu7"
  type: "ReLU"
  bottom: "fc7"
  top: "fc7"
}
layer {
  name: "drop7"
  type: "Dropout"
  bottom: "fc7"
  top: "fc7"
  dropout_param {
    dropout_ratio: 0.5
  }
}
layer {
  name: "fc8_plantvillage"
  type: "InnerProduct"
  bottom: "fc7"
  top: "fc8_plantvillage"
  param {
    lr_mult: 1
    decay_mult: 1
  }
  param {
    lr_mult: 2
    decay_mult: 0
  }
  inner_product_param {
    num_output: 38
    weight_filler {
      type: "gaussian"
      std: 0.01
    }
    bias_filler {
      type: "constant"
      value: 0
    }
  }
}
layer {
  name: "loss"
  type: "SoftmaxWithLoss"
  bottom: "fc8_plantvillage"
  bottom: "label"
  top: "loss"
}
layer {
  name: "accuracy"
  type: "Accuracy"
  bottom: "fc8_plantvillage"
  bottom: "label"
  top: "accuracy"
  include {
    phase: TEST
  }
}
I0403 04:58:53.045532 31448 layer_factory.hpp:77] Creating layer data
I0403 04:58:53.045697 31448 net.cpp:91] Creating Layer data
I0403 04:58:53.045727 31448 net.cpp:399] data -> data
I0403 04:58:53.045753 31448 net.cpp:399] data -> label
I0403 04:58:53.045776 31448 data_transformer.cpp:25] Loading mean file from: /home/mohanty/data/final_dataset/lmdb/grayscale-20-80/mean.binaryproto
I0403 04:58:53.092578 31453 db_lmdb.cpp:38] Opened lmdb /home/mohanty/data/final_dataset/lmdb/grayscale-20-80/test_db
I0403 04:58:53.151515 31448 data_layer.cpp:41] output data size: 100,3,227,227
I0403 04:58:53.341711 31448 net.cpp:141] Setting up data
I0403 04:58:53.341789 31448 net.cpp:148] Top shape: 100 3 227 227 (15458700)
I0403 04:58:53.341809 31448 net.cpp:148] Top shape: 100 (100)
I0403 04:58:53.341826 31448 net.cpp:156] Memory required for data: 61835200
I0403 04:58:53.341845 31448 layer_factory.hpp:77] Creating layer label_data_1_split
I0403 04:58:53.341874 31448 net.cpp:91] Creating Layer label_data_1_split
I0403 04:58:53.341894 31448 net.cpp:425] label_data_1_split <- label
I0403 04:58:53.341917 31448 net.cpp:399] label_data_1_split -> label_data_1_split_0
I0403 04:58:53.341944 31448 net.cpp:399] label_data_1_split -> label_data_1_split_1
I0403 04:58:53.342006 31448 net.cpp:141] Setting up label_data_1_split
I0403 04:58:53.342031 31448 net.cpp:148] Top shape: 100 (100)
I0403 04:58:53.342048 31448 net.cpp:148] Top shape: 100 (100)
I0403 04:58:53.342066 31448 net.cpp:156] Memory required for data: 61836000
I0403 04:58:53.342082 31448 layer_factory.hpp:77] Creating layer conv1
I0403 04:58:53.342113 31448 net.cpp:91] Creating Layer conv1
I0403 04:58:53.342133 31448 net.cpp:425] conv1 <- data
I0403 04:58:53.342154 31448 net.cpp:399] conv1 -> conv1
I0403 04:58:53.343755 31448 net.cpp:141] Setting up conv1
I0403 04:58:53.343783 31448 net.cpp:148] Top shape: 100 96 55 55 (29040000)
I0403 04:58:53.343801 31448 net.cpp:156] Memory required for data: 177996000
I0403 04:58:53.343825 31448 layer_factory.hpp:77] Creating layer relu1
I0403 04:58:53.343847 31448 net.cpp:91] Creating Layer relu1
I0403 04:58:53.343865 31448 net.cpp:425] relu1 <- conv1
I0403 04:58:53.343885 31448 net.cpp:386] relu1 -> conv1 (in-place)
I0403 04:58:53.343906 31448 net.cpp:141] Setting up relu1
I0403 04:58:53.343925 31448 net.cpp:148] Top shape: 100 96 55 55 (29040000)
I0403 04:58:53.343941 31448 net.cpp:156] Memory required for data: 294156000
I0403 04:58:53.343958 31448 layer_factory.hpp:77] Creating layer norm1
I0403 04:58:53.343981 31448 net.cpp:91] Creating Layer norm1
I0403 04:58:53.343998 31448 net.cpp:425] norm1 <- conv1
I0403 04:58:53.344018 31448 net.cpp:399] norm1 -> norm1
I0403 04:58:53.349903 31448 net.cpp:141] Setting up norm1
I0403 04:58:53.349944 31448 net.cpp:148] Top shape: 100 96 55 55 (29040000)
I0403 04:58:53.349962 31448 net.cpp:156] Memory required for data: 410316000
I0403 04:58:53.349979 31448 layer_factory.hpp:77] Creating layer pool1
I0403 04:58:53.350003 31448 net.cpp:91] Creating Layer pool1
I0403 04:58:53.350019 31448 net.cpp:425] pool1 <- norm1
I0403 04:58:53.350040 31448 net.cpp:399] pool1 -> pool1
I0403 04:58:53.350092 31448 net.cpp:141] Setting up pool1
I0403 04:58:53.350117 31448 net.cpp:148] Top shape: 100 96 27 27 (6998400)
I0403 04:58:53.350133 31448 net.cpp:156] Memory required for data: 438309600
I0403 04:58:53.350175 31448 layer_factory.hpp:77] Creating layer conv2
I0403 04:58:53.350201 31448 net.cpp:91] Creating Layer conv2
I0403 04:58:53.350221 31448 net.cpp:425] conv2 <- pool1
I0403 04:58:53.350242 31448 net.cpp:399] conv2 -> conv2
I0403 04:58:53.362669 31448 net.cpp:141] Setting up conv2
I0403 04:58:53.364748 31448 net.cpp:148] Top shape: 100 256 27 27 (18662400)
I0403 04:58:53.364778 31448 net.cpp:156] Memory required for data: 512959200
I0403 04:58:53.364809 31448 layer_factory.hpp:77] Creating layer relu2
I0403 04:58:53.364838 31448 net.cpp:91] Creating Layer relu2
I0403 04:58:53.364863 31448 net.cpp:425] relu2 <- conv2
I0403 04:58:53.364889 31448 net.cpp:386] relu2 -> conv2 (in-place)
I0403 04:58:53.364910 31448 net.cpp:141] Setting up relu2
I0403 04:58:53.364938 31448 net.cpp:148] Top shape: 100 256 27 27 (18662400)
I0403 04:58:53.364974 31448 net.cpp:156] Memory required for data: 587608800
I0403 04:58:53.364997 31448 layer_factory.hpp:77] Creating layer norm2
I0403 04:58:53.365020 31448 net.cpp:91] Creating Layer norm2
I0403 04:58:53.365037 31448 net.cpp:425] norm2 <- conv2
I0403 04:58:53.365057 31448 net.cpp:399] norm2 -> norm2
I0403 04:58:53.365116 31448 net.cpp:141] Setting up norm2
I0403 04:58:53.365142 31448 net.cpp:148] Top shape: 100 256 27 27 (18662400)
I0403 04:58:53.365159 31448 net.cpp:156] Memory required for data: 662258400
I0403 04:58:53.365175 31448 layer_factory.hpp:77] Creating layer pool2
I0403 04:58:53.365195 31448 net.cpp:91] Creating Layer pool2
I0403 04:58:53.365211 31448 net.cpp:425] pool2 <- norm2
I0403 04:58:53.365231 31448 net.cpp:399] pool2 -> pool2
I0403 04:58:53.365304 31448 net.cpp:141] Setting up pool2
I0403 04:58:53.365330 31448 net.cpp:148] Top shape: 100 256 13 13 (4326400)
I0403 04:58:53.365346 31448 net.cpp:156] Memory required for data: 679564000
I0403 04:58:53.365361 31448 layer_factory.hpp:77] Creating layer conv3
I0403 04:58:53.365386 31448 net.cpp:91] Creating Layer conv3
I0403 04:58:53.365406 31448 net.cpp:425] conv3 <- pool2
I0403 04:58:53.365427 31448 net.cpp:399] conv3 -> conv3
I0403 04:58:53.399910 31448 net.cpp:141] Setting up conv3
I0403 04:58:53.399966 31448 net.cpp:148] Top shape: 100 384 13 13 (6489600)
I0403 04:58:53.399984 31448 net.cpp:156] Memory required for data: 705522400
I0403 04:58:53.400010 31448 layer_factory.hpp:77] Creating layer relu3
I0403 04:58:53.400035 31448 net.cpp:91] Creating Layer relu3
I0403 04:58:53.400054 31448 net.cpp:425] relu3 <- conv3
I0403 04:58:53.400075 31448 net.cpp:386] relu3 -> conv3 (in-place)
I0403 04:58:53.400097 31448 net.cpp:141] Setting up relu3
I0403 04:58:53.400116 31448 net.cpp:148] Top shape: 100 384 13 13 (6489600)
I0403 04:58:53.400131 31448 net.cpp:156] Memory required for data: 731480800
I0403 04:58:53.400147 31448 layer_factory.hpp:77] Creating layer conv4
I0403 04:58:53.400171 31448 net.cpp:91] Creating Layer conv4
I0403 04:58:53.400190 31448 net.cpp:425] conv4 <- conv3
I0403 04:58:53.400213 31448 net.cpp:399] conv4 -> conv4
I0403 04:58:53.425918 31448 net.cpp:141] Setting up conv4
I0403 04:58:53.425958 31448 net.cpp:148] Top shape: 100 384 13 13 (6489600)
I0403 04:58:53.425974 31448 net.cpp:156] Memory required for data: 757439200
I0403 04:58:53.425994 31448 layer_factory.hpp:77] Creating layer relu4
I0403 04:58:53.426015 31448 net.cpp:91] Creating Layer relu4
I0403 04:58:53.426033 31448 net.cpp:425] relu4 <- conv4
I0403 04:58:53.426053 31448 net.cpp:386] relu4 -> conv4 (in-place)
I0403 04:58:53.426072 31448 net.cpp:141] Setting up relu4
I0403 04:58:53.426090 31448 net.cpp:148] Top shape: 100 384 13 13 (6489600)
I0403 04:58:53.426105 31448 net.cpp:156] Memory required for data: 783397600
I0403 04:58:53.426121 31448 layer_factory.hpp:77] Creating layer conv5
I0403 04:58:53.426144 31448 net.cpp:91] Creating Layer conv5
I0403 04:58:53.426162 31448 net.cpp:425] conv5 <- conv4
I0403 04:58:53.426182 31448 net.cpp:399] conv5 -> conv5
I0403 04:58:53.443522 31448 net.cpp:141] Setting up conv5
I0403 04:58:53.443554 31448 net.cpp:148] Top shape: 100 256 13 13 (4326400)
I0403 04:58:53.443599 31448 net.cpp:156] Memory required for data: 800703200
I0403 04:58:53.443626 31448 layer_factory.hpp:77] Creating layer relu5
I0403 04:58:53.443648 31448 net.cpp:91] Creating Layer relu5
I0403 04:58:53.443675 31448 net.cpp:425] relu5 <- conv5
I0403 04:58:53.443701 31448 net.cpp:386] relu5 -> conv5 (in-place)
I0403 04:58:53.443729 31448 net.cpp:141] Setting up relu5
I0403 04:58:53.443758 31448 net.cpp:148] Top shape: 100 256 13 13 (4326400)
I0403 04:58:53.443774 31448 net.cpp:156] Memory required for data: 818008800
I0403 04:58:53.443789 31448 layer_factory.hpp:77] Creating layer pool5
I0403 04:58:53.443815 31448 net.cpp:91] Creating Layer pool5
I0403 04:58:53.443835 31448 net.cpp:425] pool5 <- conv5
I0403 04:58:53.443856 31448 net.cpp:399] pool5 -> pool5
I0403 04:58:53.443910 31448 net.cpp:141] Setting up pool5
I0403 04:58:53.443934 31448 net.cpp:148] Top shape: 100 256 6 6 (921600)
I0403 04:58:53.443950 31448 net.cpp:156] Memory required for data: 821695200
I0403 04:58:53.443965 31448 layer_factory.hpp:77] Creating layer fc6
I0403 04:58:53.443989 31448 net.cpp:91] Creating Layer fc6
I0403 04:58:53.444010 31448 net.cpp:425] fc6 <- pool5
I0403 04:58:53.444030 31448 net.cpp:399] fc6 -> fc6
I0403 04:58:54.836196 31448 net.cpp:141] Setting up fc6
I0403 04:58:54.836297 31448 net.cpp:148] Top shape: 100 4096 (409600)
I0403 04:58:54.836315 31448 net.cpp:156] Memory required for data: 823333600
I0403 04:58:54.836338 31448 layer_factory.hpp:77] Creating layer relu6
I0403 04:58:54.836366 31448 net.cpp:91] Creating Layer relu6
I0403 04:58:54.836385 31448 net.cpp:425] relu6 <- fc6
I0403 04:58:54.836405 31448 net.cpp:386] relu6 -> fc6 (in-place)
I0403 04:58:54.836427 31448 net.cpp:141] Setting up relu6
I0403 04:58:54.836447 31448 net.cpp:148] Top shape: 100 4096 (409600)
I0403 04:58:54.836459 31448 net.cpp:156] Memory required for data: 824972000
I0403 04:58:54.836473 31448 layer_factory.hpp:77] Creating layer drop6
I0403 04:58:54.836494 31448 net.cpp:91] Creating Layer drop6
I0403 04:58:54.836513 31448 net.cpp:425] drop6 <- fc6
I0403 04:58:54.836529 31448 net.cpp:386] drop6 -> fc6 (in-place)
I0403 04:58:54.836567 31448 net.cpp:141] Setting up drop6
I0403 04:58:54.836596 31448 net.cpp:148] Top shape: 100 4096 (409600)
I0403 04:58:54.836613 31448 net.cpp:156] Memory required for data: 826610400
I0403 04:58:54.836627 31448 layer_factory.hpp:77] Creating layer fc7
I0403 04:58:54.836649 31448 net.cpp:91] Creating Layer fc7
I0403 04:58:54.836666 31448 net.cpp:425] fc7 <- fc6
I0403 04:58:54.836685 31448 net.cpp:399] fc7 -> fc7
I0403 04:58:55.440155 31448 net.cpp:141] Setting up fc7
I0403 04:58:55.440248 31448 net.cpp:148] Top shape: 100 4096 (409600)
I0403 04:58:55.440266 31448 net.cpp:156] Memory required for data: 828248800
I0403 04:58:55.440294 31448 layer_factory.hpp:77] Creating layer relu7
I0403 04:58:55.440321 31448 net.cpp:91] Creating Layer relu7
I0403 04:58:55.440340 31448 net.cpp:425] relu7 <- fc7
I0403 04:58:55.440359 31448 net.cpp:386] relu7 -> fc7 (in-place)
I0403 04:58:55.440382 31448 net.cpp:141] Setting up relu7
I0403 04:58:55.440398 31448 net.cpp:148] Top shape: 100 4096 (409600)
I0403 04:58:55.440413 31448 net.cpp:156] Memory required for data: 829887200
I0403 04:58:55.440428 31448 layer_factory.hpp:77] Creating layer drop7
I0403 04:58:55.440450 31448 net.cpp:91] Creating Layer drop7
I0403 04:58:55.440467 31448 net.cpp:425] drop7 <- fc7
I0403 04:58:55.440485 31448 net.cpp:386] drop7 -> fc7 (in-place)
I0403 04:58:55.440526 31448 net.cpp:141] Setting up drop7
I0403 04:58:55.440547 31448 net.cpp:148] Top shape: 100 4096 (409600)
I0403 04:58:55.440562 31448 net.cpp:156] Memory required for data: 831525600
I0403 04:58:55.440577 31448 layer_factory.hpp:77] Creating layer fc8_plantvillage
I0403 04:58:55.440598 31448 net.cpp:91] Creating Layer fc8_plantvillage
I0403 04:58:55.440615 31448 net.cpp:425] fc8_plantvillage <- fc7
I0403 04:58:55.440635 31448 net.cpp:399] fc8_plantvillage -> fc8_plantvillage
I0403 04:58:55.446622 31448 net.cpp:141] Setting up fc8_plantvillage
I0403 04:58:55.446655 31448 net.cpp:148] Top shape: 100 38 (3800)
I0403 04:58:55.446704 31448 net.cpp:156] Memory required for data: 831540800
I0403 04:58:55.446723 31448 layer_factory.hpp:77] Creating layer fc8_plantvillage_fc8_plantvillage_0_split
I0403 04:58:55.446744 31448 net.cpp:91] Creating Layer fc8_plantvillage_fc8_plantvillage_0_split
I0403 04:58:55.446760 31448 net.cpp:425] fc8_plantvillage_fc8_plantvillage_0_split <- fc8_plantvillage
I0403 04:58:55.446779 31448 net.cpp:399] fc8_plantvillage_fc8_plantvillage_0_split -> fc8_plantvillage_fc8_plantvillage_0_split_0
I0403 04:58:55.446799 31448 net.cpp:399] fc8_plantvillage_fc8_plantvillage_0_split -> fc8_plantvillage_fc8_plantvillage_0_split_1
I0403 04:58:55.446856 31448 net.cpp:141] Setting up fc8_plantvillage_fc8_plantvillage_0_split
I0403 04:58:55.446879 31448 net.cpp:148] Top shape: 100 38 (3800)
I0403 04:58:55.446895 31448 net.cpp:148] Top shape: 100 38 (3800)
I0403 04:58:55.446909 31448 net.cpp:156] Memory required for data: 831571200
I0403 04:58:55.446925 31448 layer_factory.hpp:77] Creating layer loss
I0403 04:58:55.446943 31448 net.cpp:91] Creating Layer loss
I0403 04:58:55.446959 31448 net.cpp:425] loss <- fc8_plantvillage_fc8_plantvillage_0_split_0
I0403 04:58:55.446976 31448 net.cpp:425] loss <- label_data_1_split_0
I0403 04:58:55.446995 31448 net.cpp:399] loss -> loss
…
