…
I0403 08:45:40.705435  3803 net.cpp:313] The NetState phase (0) differed from the phase (1) specified by a rule in layer accuracy
I0403 08:45:40.707095  3803 net.cpp:49] Initializing net from parameters: 
state {
  phase: TRAIN
}
layer {
  name: "data"
  type: "Data"
  top: "data"
  top: "label"
  include {
    phase: TRAIN
  }
  transform_param {
    mirror: true
    crop_size: 227
    mean_file: "/home/mohanty/data/final_dataset/lmdb/segmented-80-20/mean.binaryproto"
  }
  data_param {
    source: "/home/mohanty/data/final_dataset/lmdb/segmented-80-20/train_db"
    batch_size: 100
    backend: LMDB
  }
}
layer {
  name: "conv1"
  type: "Convolution"
  bottom: "data"
  top: "conv1"
  param {
    lr_mult: 1
    decay_mult: 1
  }
  param {
    lr_mult: 2
    decay_mult: 0
  }
  convolution_param {
    num_output: 96
    kernel_size: 11
    stride: 4
    weight_filler {
      type: "gaussian"
      std: 0.01
    }
    bias_filler {
      type: "constant"
      value: 0
    }
  }
}
layer {
  name: "relu1"
  type: "ReLU"
  bottom: "conv1"
  top: "conv1"
}
layer {
  name: "norm1"
  type: "LRN"
  bottom: "conv1"
  top: "norm1"
  lrn_param {
    local_size: 5
    alpha: 0.0001
    beta: 0.75
  }
}
layer {
  name: "pool1"
  type: "Pooling"
  bottom: "norm1"
  top: "pool1"
  pooling_param {
    pool: MAX
    kernel_size: 3
    stride: 2
  }
}
layer {
  name: "conv2"
  type: "Convolution"
  bottom: "pool1"
  top: "conv2"
  param {
    lr_mult: 1
    decay_mult: 1
  }
  param {
    lr_mult: 2
    decay_mult: 0
  }
  convolution_param {
    num_output: 256
    pad: 2
    kernel_size: 5
    group: 2
    weight_filler {
      type: "gaussian"
      std: 0.01
    }
    bias_filler {
      type: "constant"
      value: 0.1
    }
  }
}
layer {
  name: "relu2"
  type: "ReLU"
  bottom: "conv2"
  top: "conv2"
}
layer {
  name: "norm2"
  type: "LRN"
  bottom: "conv2"
  top: "norm2"
  lrn_param {
    local_size: 5
    alpha: 0.0001
    beta: 0.75
  }
}
layer {
  name: "pool2"
  type: "Pooling"
  bottom: "norm2"
  top: "pool2"
  pooling_param {
    pool: MAX
    kernel_size: 3
    stride: 2
  }
}
layer {
  name: "conv3"
  type: "Convolution"
  bottom: "pool2"
  top: "conv3"
  param {
    lr_mult: 1
    decay_mult: 1
  }
  param {
    lr_mult: 2
    decay_mult: 0
  }
  convolution_param {
    num_output: 384
    pad: 1
    kernel_size: 3
    weight_filler {
      type: "gaussian"
      std: 0.01
    }
    bias_filler {
      type: "constant"
      value: 0
    }
  }
}
layer {
  name: "relu3"
  type: "ReLU"
  bottom: "conv3"
  top: "conv3"
}
layer {
  name: "conv4"
  type: "Convolution"
  bottom: "conv3"
  top: "conv4"
  param {
    lr_mult: 1
    decay_mult: 1
  }
  param {
    lr_mult: 2
    decay_mult: 0
  }
  convolution_param {
    num_output: 384
    pad: 1
    kernel_size: 3
    group: 2
    weight_filler {
      type: "gaussian"
      std: 0.01
    }
    bias_filler {
      type: "constant"
      value: 0.1
    }
  }
}
layer {
  name: "relu4"
  type: "ReLU"
  bottom: "conv4"
  top: "conv4"
}
layer {
  name: "conv5"
  type: "Convolution"
  bottom: "conv4"
  top: "conv5"
  param {
    lr_mult: 1
    decay_mult: 1
  }
  param {
    lr_mult: 2
    decay_mult: 0
  }
  convolution_param {
    num_output: 256
    pad: 1
    kernel_size: 3
    group: 2
    weight_filler {
      type: "gaussian"
      std: 0.01
    }
    bias_filler {
      type: "constant"
      value: 0.1
    }
  }
}
layer {
  name: "relu5"
  type: "ReLU"
  bottom: "conv5"
  top: "conv5"
}
layer {
  name: "pool5"
  type: "Pooling"
  bottom: "conv5"
  top: "pool5"
  pooling_param {
    pool: MAX
    kernel_size: 3
    stride: 2
  }
}
layer {
  name: "fc6"
  type: "InnerProduct"
  bottom: "pool5"
  top: "fc6"
  param {
    lr_mult: 1
    decay_mult: 1
  }
  param {
    lr_mult: 2
    decay_mult: 0
  }
  inner_product_param {
    num_output: 4096
    weight_filler {
      type: "gaussian"
      std: 0.005
    }
    bias_filler {
      type: "constant"
      value: 0.1
    }
  }
}
layer {
  name: "relu6"
  type: "ReLU"
  bottom: "fc6"
  top: "fc6"
}
layer {
  name: "drop6"
  type: "Dropout"
  bottom: "fc6"
  top: "fc6"
  dropout_param {
    dropout_ratio: 0.5
  }
}
layer {
  name: "fc7"
  type: "InnerProduct"
  bottom: "fc6"
  top: "fc7"
  param {
    lr_mult: 1
    decay_mult: 1
  }
  param {
    lr_mult: 2
    decay_mult: 0
  }
  inner_product_param {
    num_output: 4096
    weight_filler {
      type: "gaussian"
      std: 0.005
    }
    bias_filler {
      type: "constant"
      value: 0.1
    }
  }
}
layer {
  name: "relu7"
  type: "ReLU"
  bottom: "fc7"
  top: "fc7"
}
layer {
  name: "drop7"
  type: "Dropout"
  bottom: "fc7"
  top: "fc7"
  dropout_param {
    dropout_ratio: 0.5
  }
}
layer {
  name: "fc8_plantvillage"
  type: "InnerProduct"
  bottom: "fc7"
  top: "fc8_plantvillage"
  param {
    lr_mult: 1
    decay_mult: 1
  }
  param {
    lr_mult: 2
    decay_mult: 0
  }
  inner_product_param {
    num_output: 38
    weight_filler {
      type: "gaussian"
      std: 0.01
    }
    bias_filler {
      type: "constant"
      value: 0
    }
  }
}
layer {
  name: "loss"
  type: "SoftmaxWithLoss"
  bottom: "fc8_plantvillage"
  bottom: "label"
  top: "loss"
}
I0403 08:45:40.708118  3803 layer_factory.hpp:77] Creating layer data
I0403 08:45:40.709843  3803 net.cpp:91] Creating Layer data
I0403 08:45:40.709941  3803 net.cpp:399] data -> data
I0403 08:45:40.710059  3803 net.cpp:399] data -> label
I0403 08:45:40.710142  3803 data_transformer.cpp:25] Loading mean file from: /home/mohanty/data/final_dataset/lmdb/segmented-80-20/mean.binaryproto
I0403 08:45:40.794767  3806 db_lmdb.cpp:38] Opened lmdb /home/mohanty/data/final_dataset/lmdb/segmented-80-20/train_db
I0403 08:45:40.814342  3803 data_layer.cpp:41] output data size: 100,3,227,227
I0403 08:45:40.933178  3803 net.cpp:141] Setting up data
I0403 08:45:40.933284  3803 net.cpp:148] Top shape: 100 3 227 227 (15458700)
I0403 08:45:40.933307  3803 net.cpp:148] Top shape: 100 (100)
I0403 08:45:40.933325  3803 net.cpp:156] Memory required for data: 61835200
I0403 08:45:40.933354  3803 layer_factory.hpp:77] Creating layer conv1
I0403 08:45:40.933395  3803 net.cpp:91] Creating Layer conv1
I0403 08:45:40.933416  3803 net.cpp:425] conv1 <- data
I0403 08:45:40.933446  3803 net.cpp:399] conv1 -> conv1
I0403 08:45:40.935984  3803 net.cpp:141] Setting up conv1
I0403 08:45:40.936015  3803 net.cpp:148] Top shape: 100 96 55 55 (29040000)
I0403 08:45:40.936033  3803 net.cpp:156] Memory required for data: 177995200
I0403 08:45:40.936067  3803 layer_factory.hpp:77] Creating layer relu1
I0403 08:45:40.936094  3803 net.cpp:91] Creating Layer relu1
I0403 08:45:40.936112  3803 net.cpp:425] relu1 <- conv1
I0403 08:45:40.936131  3803 net.cpp:386] relu1 -> conv1 (in-place)
I0403 08:45:40.936152  3803 net.cpp:141] Setting up relu1
I0403 08:45:40.936170  3803 net.cpp:148] Top shape: 100 96 55 55 (29040000)
I0403 08:45:40.936184  3803 net.cpp:156] Memory required for data: 294155200
I0403 08:45:40.936198  3803 layer_factory.hpp:77] Creating layer norm1
I0403 08:45:40.936249  3803 net.cpp:91] Creating Layer norm1
I0403 08:45:40.936272  3803 net.cpp:425] norm1 <- conv1
I0403 08:45:40.936292  3803 net.cpp:399] norm1 -> norm1
I0403 08:45:40.941947  3803 net.cpp:141] Setting up norm1
I0403 08:45:40.941982  3803 net.cpp:148] Top shape: 100 96 55 55 (29040000)
I0403 08:45:40.941999  3803 net.cpp:156] Memory required for data: 410315200
I0403 08:45:40.942014  3803 layer_factory.hpp:77] Creating layer pool1
I0403 08:45:40.942035  3803 net.cpp:91] Creating Layer pool1
I0403 08:45:40.942052  3803 net.cpp:425] pool1 <- norm1
I0403 08:45:40.942072  3803 net.cpp:399] pool1 -> pool1
I0403 08:45:40.942131  3803 net.cpp:141] Setting up pool1
I0403 08:45:40.942157  3803 net.cpp:148] Top shape: 100 96 27 27 (6998400)
I0403 08:45:40.942172  3803 net.cpp:156] Memory required for data: 438308800
I0403 08:45:40.942186  3803 layer_factory.hpp:77] Creating layer conv2
I0403 08:45:40.942209  3803 net.cpp:91] Creating Layer conv2
I0403 08:45:40.942225  3803 net.cpp:425] conv2 <- pool1
I0403 08:45:40.942245  3803 net.cpp:399] conv2 -> conv2
I0403 08:45:40.943434  3807 blocking_queue.cpp:50] Waiting for data
I0403 08:45:40.958210  3803 net.cpp:141] Setting up conv2
I0403 08:45:40.958240  3803 net.cpp:148] Top shape: 100 256 27 27 (18662400)
I0403 08:45:40.958261  3803 net.cpp:156] Memory required for data: 512958400
I0403 08:45:40.958281  3803 layer_factory.hpp:77] Creating layer relu2
I0403 08:45:40.958302  3803 net.cpp:91] Creating Layer relu2
I0403 08:45:40.958319  3803 net.cpp:425] relu2 <- conv2
I0403 08:45:40.958338  3803 net.cpp:386] relu2 -> conv2 (in-place)
I0403 08:45:40.958355  3803 net.cpp:141] Setting up relu2
I0403 08:45:40.958372  3803 net.cpp:148] Top shape: 100 256 27 27 (18662400)
I0403 08:45:40.958386  3803 net.cpp:156] Memory required for data: 587608000
I0403 08:45:40.958401  3803 layer_factory.hpp:77] Creating layer norm2
I0403 08:45:40.958418  3803 net.cpp:91] Creating Layer norm2
I0403 08:45:40.958434  3803 net.cpp:425] norm2 <- conv2
I0403 08:45:40.958451  3803 net.cpp:399] norm2 -> norm2
I0403 08:45:40.958497  3803 net.cpp:141] Setting up norm2
I0403 08:45:40.958518  3803 net.cpp:148] Top shape: 100 256 27 27 (18662400)
I0403 08:45:40.958533  3803 net.cpp:156] Memory required for data: 662257600
I0403 08:45:40.958549  3803 layer_factory.hpp:77] Creating layer pool2
I0403 08:45:40.958567  3803 net.cpp:91] Creating Layer pool2
I0403 08:45:40.958583  3803 net.cpp:425] pool2 <- norm2
I0403 08:45:40.958600  3803 net.cpp:399] pool2 -> pool2
I0403 08:45:40.958642  3803 net.cpp:141] Setting up pool2
I0403 08:45:40.958663  3803 net.cpp:148] Top shape: 100 256 13 13 (4326400)
I0403 08:45:40.958678  3803 net.cpp:156] Memory required for data: 679563200
I0403 08:45:40.958693  3803 layer_factory.hpp:77] Creating layer conv3
I0403 08:45:40.958714  3803 net.cpp:91] Creating Layer conv3
I0403 08:45:40.958729  3803 net.cpp:425] conv3 <- pool2
I0403 08:45:40.958746  3803 net.cpp:399] conv3 -> conv3
I0403 08:45:40.990754  3803 net.cpp:141] Setting up conv3
I0403 08:45:40.990785  3803 net.cpp:148] Top shape: 100 384 13 13 (6489600)
I0403 08:45:40.990800  3803 net.cpp:156] Memory required for data: 705521600
I0403 08:45:40.990821  3803 layer_factory.hpp:77] Creating layer relu3
I0403 08:45:40.990840  3803 net.cpp:91] Creating Layer relu3
I0403 08:45:40.990855  3803 net.cpp:425] relu3 <- conv3
I0403 08:45:40.990874  3803 net.cpp:386] relu3 -> conv3 (in-place)
I0403 08:45:40.990891  3803 net.cpp:141] Setting up relu3
I0403 08:45:40.990909  3803 net.cpp:148] Top shape: 100 384 13 13 (6489600)
I0403 08:45:40.990923  3803 net.cpp:156] Memory required for data: 731480000
I0403 08:45:40.990937  3803 layer_factory.hpp:77] Creating layer conv4
I0403 08:45:40.990957  3803 net.cpp:91] Creating Layer conv4
I0403 08:45:40.990973  3803 net.cpp:425] conv4 <- conv3
I0403 08:45:40.990993  3803 net.cpp:399] conv4 -> conv4
I0403 08:45:41.015161  3803 net.cpp:141] Setting up conv4
I0403 08:45:41.015192  3803 net.cpp:148] Top shape: 100 384 13 13 (6489600)
I0403 08:45:41.015207  3803 net.cpp:156] Memory required for data: 757438400
I0403 08:45:41.015241  3803 layer_factory.hpp:77] Creating layer relu4
I0403 08:45:41.015269  3803 net.cpp:91] Creating Layer relu4
I0403 08:45:41.015288  3803 net.cpp:425] relu4 <- conv4
I0403 08:45:41.015306  3803 net.cpp:386] relu4 -> conv4 (in-place)
I0403 08:45:41.015326  3803 net.cpp:141] Setting up relu4
I0403 08:45:41.015343  3803 net.cpp:148] Top shape: 100 384 13 13 (6489600)
I0403 08:45:41.015357  3803 net.cpp:156] Memory required for data: 783396800
I0403 08:45:41.015370  3803 layer_factory.hpp:77] Creating layer conv5
I0403 08:45:41.015391  3803 net.cpp:91] Creating Layer conv5
I0403 08:45:41.015408  3803 net.cpp:425] conv5 <- conv4
I0403 08:45:41.015426  3803 net.cpp:399] conv5 -> conv5
I0403 08:45:41.031685  3803 net.cpp:141] Setting up conv5
I0403 08:45:41.031714  3803 net.cpp:148] Top shape: 100 256 13 13 (4326400)
I0403 08:45:41.031731  3803 net.cpp:156] Memory required for data: 800702400
I0403 08:45:41.031810  3803 layer_factory.hpp:77] Creating layer relu5
I0403 08:45:41.031836  3803 net.cpp:91] Creating Layer relu5
I0403 08:45:41.031853  3803 net.cpp:425] relu5 <- conv5
I0403 08:45:41.031872  3803 net.cpp:386] relu5 -> conv5 (in-place)
I0403 08:45:41.031889  3803 net.cpp:141] Setting up relu5
I0403 08:45:41.031906  3803 net.cpp:148] Top shape: 100 256 13 13 (4326400)
I0403 08:45:41.031920  3803 net.cpp:156] Memory required for data: 818008000
I0403 08:45:41.031935  3803 layer_factory.hpp:77] Creating layer pool5
I0403 08:45:41.031952  3803 net.cpp:91] Creating Layer pool5
I0403 08:45:41.031967  3803 net.cpp:425] pool5 <- conv5
I0403 08:45:41.031987  3803 net.cpp:399] pool5 -> pool5
I0403 08:45:41.032032  3803 net.cpp:141] Setting up pool5
I0403 08:45:41.032054  3803 net.cpp:148] Top shape: 100 256 6 6 (921600)
I0403 08:45:41.032069  3803 net.cpp:156] Memory required for data: 821694400
I0403 08:45:41.032084  3803 layer_factory.hpp:77] Creating layer fc6
I0403 08:45:41.032112  3803 net.cpp:91] Creating Layer fc6
I0403 08:45:41.032131  3803 net.cpp:425] fc6 <- pool5
I0403 08:45:41.032150  3803 net.cpp:399] fc6 -> fc6
I0403 08:45:42.407240  3803 net.cpp:141] Setting up fc6
I0403 08:45:42.407338  3803 net.cpp:148] Top shape: 100 4096 (409600)
I0403 08:45:42.407356  3803 net.cpp:156] Memory required for data: 823332800
I0403 08:45:42.407378  3803 layer_factory.hpp:77] Creating layer relu6
I0403 08:45:42.407407  3803 net.cpp:91] Creating Layer relu6
I0403 08:45:42.407425  3803 net.cpp:425] relu6 <- fc6
I0403 08:45:42.407444  3803 net.cpp:386] relu6 -> fc6 (in-place)
I0403 08:45:42.407466  3803 net.cpp:141] Setting up relu6
I0403 08:45:42.407483  3803 net.cpp:148] Top shape: 100 4096 (409600)
I0403 08:45:42.407497  3803 net.cpp:156] Memory required for data: 824971200
I0403 08:45:42.407511  3803 layer_factory.hpp:77] Creating layer drop6
I0403 08:45:42.407539  3803 net.cpp:91] Creating Layer drop6
I0403 08:45:42.407557  3803 net.cpp:425] drop6 <- fc6
I0403 08:45:42.407572  3803 net.cpp:386] drop6 -> fc6 (in-place)
I0403 08:45:42.407618  3803 net.cpp:141] Setting up drop6
I0403 08:45:42.407639  3803 net.cpp:148] Top shape: 100 4096 (409600)
I0403 08:45:42.407655  3803 net.cpp:156] Memory required for data: 826609600
I0403 08:45:42.407668  3803 layer_factory.hpp:77] Creating layer fc7
I0403 08:45:42.407693  3803 net.cpp:91] Creating Layer fc7
I0403 08:45:42.407709  3803 net.cpp:425] fc7 <- fc6
I0403 08:45:42.407727  3803 net.cpp:399] fc7 -> fc7
I0403 08:45:43.013514  3803 net.cpp:141] Setting up fc7
I0403 08:45:43.013608  3803 net.cpp:148] Top shape: 100 4096 (409600)
I0403 08:45:43.013627  3803 net.cpp:156] Memory required for data: 828248000
I0403 08:45:43.013648  3803 layer_factory.hpp:77] Creating layer relu7
I0403 08:45:43.013672  3803 net.cpp:91] Creating Layer relu7
I0403 08:45:43.013689  3803 net.cpp:425] relu7 <- fc7
I0403 08:45:43.013710  3803 net.cpp:386] relu7 -> fc7 (in-place)
I0403 08:45:43.013731  3803 net.cpp:141] Setting up relu7
I0403 08:45:43.013747  3803 net.cpp:148] Top shape: 100 4096 (409600)
I0403 08:45:43.013761  3803 net.cpp:156] Memory required for data: 829886400
I0403 08:45:43.013809  3803 layer_factory.hpp:77] Creating layer drop7
I0403 08:45:43.013833  3803 net.cpp:91] Creating Layer drop7
I0403 08:45:43.013849  3803 net.cpp:425] drop7 <- fc7
I0403 08:45:43.013866  3803 net.cpp:386] drop7 -> fc7 (in-place)
I0403 08:45:43.013906  3803 net.cpp:141] Setting up drop7
I0403 08:45:43.013928  3803 net.cpp:148] Top shape: 100 4096 (409600)
I0403 08:45:43.013942  3803 net.cpp:156] Memory required for data: 831524800
I0403 08:45:43.013958  3803 layer_factory.hpp:77] Creating layer fc8_plantvillage
I0403 08:45:43.013979  3803 net.cpp:91] Creating Layer fc8_plantvillage
I0403 08:45:43.013994  3803 net.cpp:425] fc8_plantvillage <- fc7
I0403 08:45:43.014014  3803 net.cpp:399] fc8_plantvillage -> fc8_plantvillage
I0403 08:45:43.020077  3803 net.cpp:141] Setting up fc8_plantvillage
I0403 08:45:43.020105  3803 net.cpp:148] Top shape: 100 38 (3800)
I0403 08:45:43.020123  3803 net.cpp:156] Memory required for data: 831540000
I0403 08:45:43.020141  3803 layer_factory.hpp:77] Creating layer loss
I0403 08:45:43.020169  3803 net.cpp:91] Creating Layer loss
I0403 08:45:43.020186  3803 net.cpp:425] loss <- fc8_plantvillage
I0403 08:45:43.020202  3803 net.cpp:425] loss <- label
I0403 08:45:43.020222  3803 net.cpp:399] loss -> loss
I0403 08:45:43.020248  3803 layer_factory.hpp:77] Creating layer loss
…
I0403 08:45:43.021894  3803 net.cpp:313] The NetState phase (1) differed from the phase (0) specified by a rule in layer data
I0403 08:45:43.022501  3803 net.cpp:49] Initializing net from parameters: 
state {
  phase: TEST
}
layer {
  name: "data"
  type: "Data"
  top: "data"
  top: "label"
  include {
    phase: TEST
  }
  transform_param {
    crop_size: 227
    mean_file: "/home/mohanty/data/final_dataset/lmdb/segmented-80-20/mean.binaryproto"
  }
  data_param {
    source: "/home/mohanty/data/final_dataset/lmdb/segmented-80-20/test_db"
    batch_size: 100
    backend: LMDB
  }
}
layer {
  name: "conv1"
  type: "Convolution"
  bottom: "data"
  top: "conv1"
  param {
    lr_mult: 1
    decay_mult: 1
  }
  param {
    lr_mult: 2
    decay_mult: 0
  }
  convolution_param {
    num_output: 96
    kernel_size: 11
    stride: 4
    weight_filler {
      type: "gaussian"
      std: 0.01
    }
    bias_filler {
      type: "constant"
      value: 0
    }
  }
}
layer {
  name: "relu1"
  type: "ReLU"
  bottom: "conv1"
  top: "conv1"
}
layer {
  name: "norm1"
  type: "LRN"
  bottom: "conv1"
  top: "norm1"
  lrn_param {
    local_size: 5
    alpha: 0.0001
    beta: 0.75
  }
}
layer {
  name: "pool1"
  type: "Pooling"
  bottom: "norm1"
  top: "pool1"
  pooling_param {
    pool: MAX
    kernel_size: 3
    stride: 2
  }
}
layer {
  name: "conv2"
  type: "Convolution"
  bottom: "pool1"
  top: "conv2"
  param {
    lr_mult: 1
    decay_mult: 1
  }
  param {
    lr_mult: 2
    decay_mult: 0
  }
  convolution_param {
    num_output: 256
    pad: 2
    kernel_size: 5
    group: 2
    weight_filler {
      type: "gaussian"
      std: 0.01
    }
    bias_filler {
      type: "constant"
      value: 0.1
    }
  }
}
layer {
  name: "relu2"
  type: "ReLU"
  bottom: "conv2"
  top: "conv2"
}
layer {
  name: "norm2"
  type: "LRN"
  bottom: "conv2"
  top: "norm2"
  lrn_param {
    local_size: 5
    alpha: 0.0001
    beta: 0.75
  }
}
layer {
  name: "pool2"
  type: "Pooling"
  bottom: "norm2"
  top: "pool2"
  pooling_param {
    pool: MAX
    kernel_size: 3
    stride: 2
  }
}
layer {
  name: "conv3"
  type: "Convolution"
  bottom: "pool2"
  top: "conv3"
  param {
    lr_mult: 1
    decay_mult: 1
  }
  param {
    lr_mult: 2
    decay_mult: 0
  }
  convolution_param {
    num_output: 384
    pad: 1
    kernel_size: 3
    weight_filler {
      type: "gaussian"
      std: 0.01
    }
    bias_filler {
      type: "constant"
      value: 0
    }
  }
}
layer {
  name: "relu3"
  type: "ReLU"
  bottom: "conv3"
  top: "conv3"
}
layer {
  name: "conv4"
  type: "Convolution"
  bottom: "conv3"
  top: "conv4"
  param {
    lr_mult: 1
    decay_mult: 1
  }
  param {
    lr_mult: 2
    decay_mult: 0
  }
  convolution_param {
    num_output: 384
    pad: 1
    kernel_size: 3
    group: 2
    weight_filler {
      type: "gaussian"
      std: 0.01
    }
    bias_filler {
      type: "constant"
      value: 0.1
    }
  }
}
layer {
  name: "relu4"
  type: "ReLU"
  bottom: "conv4"
  top: "conv4"
}
layer {
  name: "conv5"
  type: "Convolution"
  bottom: "conv4"
  top: "conv5"
  param {
    lr_mult: 1
    decay_mult: 1
  }
  param {
    lr_mult: 2
    decay_mult: 0
  }
  convolution_param {
    num_output: 256
    pad: 1
    kernel_size: 3
    group: 2
    weight_filler {
      type: "gaussian"
      std: 0.01
    }
    bias_filler {
      type: "constant"
      value: 0.1
    }
  }
}
layer {
  name: "relu5"
  type: "ReLU"
  bottom: "conv5"
  top: "conv5"
}
layer {
  name: "pool5"
  type: "Pooling"
  bottom: "conv5"
  top: "pool5"
  pooling_param {
    pool: MAX
    kernel_size: 3
    stride: 2
  }
}
layer {
  name: "fc6"
  type: "InnerProduct"
  bottom: "pool5"
  top: "fc6"
  param {
    lr_mult: 1
    decay_mult: 1
  }
  param {
    lr_mult: 2
    decay_mult: 0
  }
  inner_product_param {
    num_output: 4096
    weight_filler {
      type: "gaussian"
      std: 0.005
    }
    bias_filler {
      type: "constant"
      value: 0.1
    }
  }
}
layer {
  name: "relu6"
  type: "ReLU"
  bottom: "fc6"
  top: "fc6"
}
layer {
  name: "drop6"
  type: "Dropout"
  bottom: "fc6"
  top: "fc6"
  dropout_param {
    dropout_ratio: 0.5
  }
}
layer {
  name: "fc7"
  type: "InnerProduct"
  bottom: "fc6"
  top: "fc7"
  param {
    lr_mult: 1
    decay_mult: 1
  }
  param {
    lr_mult: 2
    decay_mult: 0
  }
  inner_product_param {
    num_output: 4096
    weight_filler {
      type: "gaussian"
      std: 0.005
    }
    bias_filler {
      type: "constant"
      value: 0.1
    }
  }
}
layer {
  name: "relu7"
  type: "ReLU"
  bottom: "fc7"
  top: "fc7"
}
layer {
  name: "drop7"
  type: "Dropout"
  bottom: "fc7"
  top: "fc7"
  dropout_param {
    dropout_ratio: 0.5
  }
}
layer {
  name: "fc8_plantvillage"
  type: "InnerProduct"
  bottom: "fc7"
  top: "fc8_plantvillage"
  param {
    lr_mult: 1
    decay_mult: 1
  }
  param {
    lr_mult: 2
    decay_mult: 0
  }
  inner_product_param {
    num_output: 38
    weight_filler {
      type: "gaussian"
      std: 0.01
    }
    bias_filler {
      type: "constant"
      value: 0
    }
  }
}
layer {
  name: "loss"
  type: "SoftmaxWithLoss"
  bottom: "fc8_plantvillage"
  bottom: "label"
  top: "loss"
}
layer {
  name: "accuracy"
  type: "Accuracy"
  bottom: "fc8_plantvillage"
  bottom: "label"
  top: "accuracy"
  include {
    phase: TEST
  }
}
I0403 08:45:43.022655  3803 layer_factory.hpp:77] Creating layer data
I0403 08:45:43.022819  3803 net.cpp:91] Creating Layer data
I0403 08:45:43.022850  3803 net.cpp:399] data -> data
I0403 08:45:43.022874  3803 net.cpp:399] data -> label
I0403 08:45:43.022897  3803 data_transformer.cpp:25] Loading mean file from: /home/mohanty/data/final_dataset/lmdb/segmented-80-20/mean.binaryproto
I0403 08:45:43.093300  3808 db_lmdb.cpp:38] Opened lmdb /home/mohanty/data/final_dataset/lmdb/segmented-80-20/test_db
I0403 08:45:43.113997  3803 data_layer.cpp:41] output data size: 100,3,227,227
I0403 08:45:43.252005  3803 net.cpp:141] Setting up data
I0403 08:45:43.252104  3803 net.cpp:148] Top shape: 100 3 227 227 (15458700)
I0403 08:45:43.252125  3803 net.cpp:148] Top shape: 100 (100)
I0403 08:45:43.252140  3803 net.cpp:156] Memory required for data: 61835200
I0403 08:45:43.252159  3803 layer_factory.hpp:77] Creating layer label_data_1_split
I0403 08:45:43.252188  3803 net.cpp:91] Creating Layer label_data_1_split
I0403 08:45:43.252207  3803 net.cpp:425] label_data_1_split <- label
I0403 08:45:43.252228  3803 net.cpp:399] label_data_1_split -> label_data_1_split_0
I0403 08:45:43.252251  3803 net.cpp:399] label_data_1_split -> label_data_1_split_1
I0403 08:45:43.252315  3803 net.cpp:141] Setting up label_data_1_split
I0403 08:45:43.252339  3803 net.cpp:148] Top shape: 100 (100)
I0403 08:45:43.252357  3803 net.cpp:148] Top shape: 100 (100)
I0403 08:45:43.252373  3803 net.cpp:156] Memory required for data: 61836000
I0403 08:45:43.252389  3803 layer_factory.hpp:77] Creating layer conv1
I0403 08:45:43.252435  3803 net.cpp:91] Creating Layer conv1
I0403 08:45:43.252455  3803 net.cpp:425] conv1 <- data
I0403 08:45:43.252475  3803 net.cpp:399] conv1 -> conv1
I0403 08:45:43.254019  3803 net.cpp:141] Setting up conv1
I0403 08:45:43.254048  3803 net.cpp:148] Top shape: 100 96 55 55 (29040000)
I0403 08:45:43.254065  3803 net.cpp:156] Memory required for data: 177996000
I0403 08:45:43.254091  3803 layer_factory.hpp:77] Creating layer relu1
I0403 08:45:43.254112  3803 net.cpp:91] Creating Layer relu1
I0403 08:45:43.254129  3803 net.cpp:425] relu1 <- conv1
I0403 08:45:43.254148  3803 net.cpp:386] relu1 -> conv1 (in-place)
I0403 08:45:43.254168  3803 net.cpp:141] Setting up relu1
I0403 08:45:43.254186  3803 net.cpp:148] Top shape: 100 96 55 55 (29040000)
I0403 08:45:43.254202  3803 net.cpp:156] Memory required for data: 294156000
I0403 08:45:43.254217  3803 layer_factory.hpp:77] Creating layer norm1
I0403 08:45:43.254240  3803 net.cpp:91] Creating Layer norm1
I0403 08:45:43.254256  3803 net.cpp:425] norm1 <- conv1
I0403 08:45:43.254276  3803 net.cpp:399] norm1 -> norm1
I0403 08:45:43.260004  3803 net.cpp:141] Setting up norm1
I0403 08:45:43.260040  3803 net.cpp:148] Top shape: 100 96 55 55 (29040000)
I0403 08:45:43.260059  3803 net.cpp:156] Memory required for data: 410316000
I0403 08:45:43.260076  3803 layer_factory.hpp:77] Creating layer pool1
I0403 08:45:43.260097  3803 net.cpp:91] Creating Layer pool1
I0403 08:45:43.260113  3803 net.cpp:425] pool1 <- norm1
I0403 08:45:43.260133  3803 net.cpp:399] pool1 -> pool1
I0403 08:45:43.260185  3803 net.cpp:141] Setting up pool1
I0403 08:45:43.260210  3803 net.cpp:148] Top shape: 100 96 27 27 (6998400)
I0403 08:45:43.260226  3803 net.cpp:156] Memory required for data: 438309600
I0403 08:45:43.260273  3803 layer_factory.hpp:77] Creating layer conv2
I0403 08:45:43.260304  3803 net.cpp:91] Creating Layer conv2
I0403 08:45:43.260325  3803 net.cpp:425] conv2 <- pool1
I0403 08:45:43.260345  3803 net.cpp:399] conv2 -> conv2
I0403 08:45:43.272632  3803 net.cpp:141] Setting up conv2
I0403 08:45:43.272665  3803 net.cpp:148] Top shape: 100 256 27 27 (18662400)
I0403 08:45:43.272682  3803 net.cpp:156] Memory required for data: 512959200
I0403 08:45:43.272704  3803 layer_factory.hpp:77] Creating layer relu2
I0403 08:45:43.272725  3803 net.cpp:91] Creating Layer relu2
I0403 08:45:43.272743  3803 net.cpp:425] relu2 <- conv2
I0403 08:45:43.272761  3803 net.cpp:386] relu2 -> conv2 (in-place)
I0403 08:45:43.272781  3803 net.cpp:141] Setting up relu2
I0403 08:45:43.272799  3803 net.cpp:148] Top shape: 100 256 27 27 (18662400)
I0403 08:45:43.272814  3803 net.cpp:156] Memory required for data: 587608800
I0403 08:45:43.272830  3803 layer_factory.hpp:77] Creating layer norm2
I0403 08:45:43.272850  3803 net.cpp:91] Creating Layer norm2
I0403 08:45:43.272866  3803 net.cpp:425] norm2 <- conv2
I0403 08:45:43.272886  3803 net.cpp:399] norm2 -> norm2
I0403 08:45:43.272933  3803 net.cpp:141] Setting up norm2
I0403 08:45:43.272958  3803 net.cpp:148] Top shape: 100 256 27 27 (18662400)
I0403 08:45:43.272974  3803 net.cpp:156] Memory required for data: 662258400
I0403 08:45:43.272990  3803 layer_factory.hpp:77] Creating layer pool2
I0403 08:45:43.273010  3803 net.cpp:91] Creating Layer pool2
I0403 08:45:43.273026  3803 net.cpp:425] pool2 <- norm2
I0403 08:45:43.273044  3803 net.cpp:399] pool2 -> pool2
I0403 08:45:43.273090  3803 net.cpp:141] Setting up pool2
I0403 08:45:43.273114  3803 net.cpp:148] Top shape: 100 256 13 13 (4326400)
I0403 08:45:43.273130  3803 net.cpp:156] Memory required for data: 679564000
I0403 08:45:43.273145  3803 layer_factory.hpp:77] Creating layer conv3
I0403 08:45:43.273167  3803 net.cpp:91] Creating Layer conv3
I0403 08:45:43.273183  3803 net.cpp:425] conv3 <- pool2
I0403 08:45:43.273203  3803 net.cpp:399] conv3 -> conv3
I0403 08:45:43.307335  3803 net.cpp:141] Setting up conv3
I0403 08:45:43.307396  3803 net.cpp:148] Top shape: 100 384 13 13 (6489600)
I0403 08:45:43.307415  3803 net.cpp:156] Memory required for data: 705522400
I0403 08:45:43.307440  3803 layer_factory.hpp:77] Creating layer relu3
I0403 08:45:43.307464  3803 net.cpp:91] Creating Layer relu3
I0403 08:45:43.307482  3803 net.cpp:425] relu3 <- conv3
I0403 08:45:43.307502  3803 net.cpp:386] relu3 -> conv3 (in-place)
I0403 08:45:43.307523  3803 net.cpp:141] Setting up relu3
I0403 08:45:43.307540  3803 net.cpp:148] Top shape: 100 384 13 13 (6489600)
I0403 08:45:43.307555  3803 net.cpp:156] Memory required for data: 731480800
I0403 08:45:43.307570  3803 layer_factory.hpp:77] Creating layer conv4
I0403 08:45:43.307595  3803 net.cpp:91] Creating Layer conv4
I0403 08:45:43.307612  3803 net.cpp:425] conv4 <- conv3
I0403 08:45:43.307631  3803 net.cpp:399] conv4 -> conv4
I0403 08:45:43.333720  3803 net.cpp:141] Setting up conv4
I0403 08:45:43.333760  3803 net.cpp:148] Top shape: 100 384 13 13 (6489600)
I0403 08:45:43.333778  3803 net.cpp:156] Memory required for data: 757439200
I0403 08:45:43.333798  3803 layer_factory.hpp:77] Creating layer relu4
I0403 08:45:43.333819  3803 net.cpp:91] Creating Layer relu4
I0403 08:45:43.333837  3803 net.cpp:425] relu4 <- conv4
I0403 08:45:43.333855  3803 net.cpp:386] relu4 -> conv4 (in-place)
I0403 08:45:43.333875  3803 net.cpp:141] Setting up relu4
I0403 08:45:43.333894  3803 net.cpp:148] Top shape: 100 384 13 13 (6489600)
I0403 08:45:43.333909  3803 net.cpp:156] Memory required for data: 783397600
I0403 08:45:43.333925  3803 layer_factory.hpp:77] Creating layer conv5
I0403 08:45:43.333946  3803 net.cpp:91] Creating Layer conv5
I0403 08:45:43.333964  3803 net.cpp:425] conv5 <- conv4
I0403 08:45:43.333984  3803 net.cpp:399] conv5 -> conv5
I0403 08:45:43.351320  3803 net.cpp:141] Setting up conv5
I0403 08:45:43.351356  3803 net.cpp:148] Top shape: 100 256 13 13 (4326400)
I0403 08:45:43.351403  3803 net.cpp:156] Memory required for data: 800703200
I0403 08:45:43.351433  3803 layer_factory.hpp:77] Creating layer relu5
I0403 08:45:43.351456  3803 net.cpp:91] Creating Layer relu5
I0403 08:45:43.351475  3803 net.cpp:425] relu5 <- conv5
I0403 08:45:43.351493  3803 net.cpp:386] relu5 -> conv5 (in-place)
I0403 08:45:43.351513  3803 net.cpp:141] Setting up relu5
I0403 08:45:43.351532  3803 net.cpp:148] Top shape: 100 256 13 13 (4326400)
I0403 08:45:43.351547  3803 net.cpp:156] Memory required for data: 818008800
I0403 08:45:43.351565  3803 layer_factory.hpp:77] Creating layer pool5
I0403 08:45:43.351593  3803 net.cpp:91] Creating Layer pool5
I0403 08:45:43.351613  3803 net.cpp:425] pool5 <- conv5
I0403 08:45:43.351632  3803 net.cpp:399] pool5 -> pool5
I0403 08:45:43.351691  3803 net.cpp:141] Setting up pool5
I0403 08:45:43.351716  3803 net.cpp:148] Top shape: 100 256 6 6 (921600)
I0403 08:45:43.351732  3803 net.cpp:156] Memory required for data: 821695200
I0403 08:45:43.351748  3803 layer_factory.hpp:77] Creating layer fc6
I0403 08:45:43.351773  3803 net.cpp:91] Creating Layer fc6
I0403 08:45:43.351788  3803 net.cpp:425] fc6 <- pool5
I0403 08:45:43.351810  3803 net.cpp:399] fc6 -> fc6
I0403 08:45:44.764459  3803 net.cpp:141] Setting up fc6
I0403 08:45:44.764551  3803 net.cpp:148] Top shape: 100 4096 (409600)
I0403 08:45:44.764570  3803 net.cpp:156] Memory required for data: 823333600
I0403 08:45:44.764595  3803 layer_factory.hpp:77] Creating layer relu6
I0403 08:45:44.764624  3803 net.cpp:91] Creating Layer relu6
I0403 08:45:44.764644  3803 net.cpp:425] relu6 <- fc6
I0403 08:45:44.764670  3803 net.cpp:386] relu6 -> fc6 (in-place)
I0403 08:45:44.764693  3803 net.cpp:141] Setting up relu6
I0403 08:45:44.764713  3803 net.cpp:148] Top shape: 100 4096 (409600)
I0403 08:45:44.764729  3803 net.cpp:156] Memory required for data: 824972000
I0403 08:45:44.764744  3803 layer_factory.hpp:77] Creating layer drop6
I0403 08:45:44.764765  3803 net.cpp:91] Creating Layer drop6
I0403 08:45:44.764781  3803 net.cpp:425] drop6 <- fc6
I0403 08:45:44.764803  3803 net.cpp:386] drop6 -> fc6 (in-place)
I0403 08:45:44.764847  3803 net.cpp:141] Setting up drop6
I0403 08:45:44.764870  3803 net.cpp:148] Top shape: 100 4096 (409600)
I0403 08:45:44.764886  3803 net.cpp:156] Memory required for data: 826610400
I0403 08:45:44.764902  3803 layer_factory.hpp:77] Creating layer fc7
I0403 08:45:44.764928  3803 net.cpp:91] Creating Layer fc7
I0403 08:45:44.764960  3803 net.cpp:425] fc7 <- fc6
I0403 08:45:44.764978  3803 net.cpp:399] fc7 -> fc7
I0403 08:45:45.393657  3803 net.cpp:141] Setting up fc7
I0403 08:45:45.393754  3803 net.cpp:148] Top shape: 100 4096 (409600)
I0403 08:45:45.393770  3803 net.cpp:156] Memory required for data: 828248800
I0403 08:45:45.393793  3803 layer_factory.hpp:77] Creating layer relu7
I0403 08:45:45.393818  3803 net.cpp:91] Creating Layer relu7
I0403 08:45:45.393836  3803 net.cpp:425] relu7 <- fc7
I0403 08:45:45.393856  3803 net.cpp:386] relu7 -> fc7 (in-place)
I0403 08:45:45.393877  3803 net.cpp:141] Setting up relu7
I0403 08:45:45.393894  3803 net.cpp:148] Top shape: 100 4096 (409600)
I0403 08:45:45.393909  3803 net.cpp:156] Memory required for data: 829887200
I0403 08:45:45.393924  3803 layer_factory.hpp:77] Creating layer drop7
I0403 08:45:45.393946  3803 net.cpp:91] Creating Layer drop7
I0403 08:45:45.393964  3803 net.cpp:425] drop7 <- fc7
I0403 08:45:45.393980  3803 net.cpp:386] drop7 -> fc7 (in-place)
I0403 08:45:45.394018  3803 net.cpp:141] Setting up drop7
I0403 08:45:45.394044  3803 net.cpp:148] Top shape: 100 4096 (409600)
I0403 08:45:45.394062  3803 net.cpp:156] Memory required for data: 831525600
I0403 08:45:45.394076  3803 layer_factory.hpp:77] Creating layer fc8_plantvillage
I0403 08:45:45.394098  3803 net.cpp:91] Creating Layer fc8_plantvillage
I0403 08:45:45.394112  3803 net.cpp:425] fc8_plantvillage <- fc7
I0403 08:45:45.394132  3803 net.cpp:399] fc8_plantvillage -> fc8_plantvillage
I0403 08:45:45.400266  3803 net.cpp:141] Setting up fc8_plantvillage
I0403 08:45:45.400305  3803 net.cpp:148] Top shape: 100 38 (3800)
I0403 08:45:45.400352  3803 net.cpp:156] Memory required for data: 831540800
I0403 08:45:45.400372  3803 layer_factory.hpp:77] Creating layer fc8_plantvillage_fc8_plantvillage_0_split
I0403 08:45:45.400391  3803 net.cpp:91] Creating Layer fc8_plantvillage_fc8_plantvillage_0_split
I0403 08:45:45.400408  3803 net.cpp:425] fc8_plantvillage_fc8_plantvillage_0_split <- fc8_plantvillage
I0403 08:45:45.400425  3803 net.cpp:399] fc8_plantvillage_fc8_plantvillage_0_split -> fc8_plantvillage_fc8_plantvillage_0_split_0
I0403 08:45:45.400445  3803 net.cpp:399] fc8_plantvillage_fc8_plantvillage_0_split -> fc8_plantvillage_fc8_plantvillage_0_split_1
I0403 08:45:45.400497  3803 net.cpp:141] Setting up fc8_plantvillage_fc8_plantvillage_0_split
I0403 08:45:45.400521  3803 net.cpp:148] Top shape: 100 38 (3800)
I0403 08:45:45.400537  3803 net.cpp:148] Top shape: 100 38 (3800)
I0403 08:45:45.400549  3803 net.cpp:156] Memory required for data: 831571200
I0403 08:45:45.400564  3803 layer_factory.hpp:77] Creating layer loss
I0403 08:45:45.400583  3803 net.cpp:91] Creating Layer loss
I0403 08:45:45.400599  3803 net.cpp:425] loss <- fc8_plantvillage_fc8_plantvillage_0_split_0
I0403 08:45:45.400615  3803 net.cpp:425] loss <- label_data_1_split_0
I0403 08:45:45.400635  3803 net.cpp:399] loss -> loss
…
