…
I0403 07:33:25.553066 24116 net.cpp:313] The NetState phase (0) differed from the phase (1) specified by a rule in layer accuracy
I0403 07:33:25.553894 24116 net.cpp:49] Initializing net from parameters: 
state {
  phase: TRAIN
}
layer {
  name: "data"
  type: "Data"
  top: "data"
  top: "label"
  include {
    phase: TRAIN
  }
  transform_param {
    mirror: true
    crop_size: 227
    mean_file: "/home/mohanty/data/final_dataset/lmdb/grayscale-40-60/mean.binaryproto"
  }
  data_param {
    source: "/home/mohanty/data/final_dataset/lmdb/grayscale-40-60/train_db"
    batch_size: 100
    backend: LMDB
  }
}
layer {
  name: "conv1"
  type: "Convolution"
  bottom: "data"
  top: "conv1"
  param {
    lr_mult: 1
    decay_mult: 1
  }
  param {
    lr_mult: 2
    decay_mult: 0
  }
  convolution_param {
    num_output: 96
    kernel_size: 11
    stride: 4
    weight_filler {
      type: "gaussian"
      std: 0.01
    }
    bias_filler {
      type: "constant"
      value: 0
    }
  }
}
layer {
  name: "relu1"
  type: "ReLU"
  bottom: "conv1"
  top: "conv1"
}
layer {
  name: "norm1"
  type: "LRN"
  bottom: "conv1"
  top: "norm1"
  lrn_param {
    local_size: 5
    alpha: 0.0001
    beta: 0.75
  }
}
layer {
  name: "pool1"
  type: "Pooling"
  bottom: "norm1"
  top: "pool1"
  pooling_param {
    pool: MAX
    kernel_size: 3
    stride: 2
  }
}
layer {
  name: "conv2"
  type: "Convolution"
  bottom: "pool1"
  top: "conv2"
  param {
    lr_mult: 1
    decay_mult: 1
  }
  param {
    lr_mult: 2
    decay_mult: 0
  }
  convolution_param {
    num_output: 256
    pad: 2
    kernel_size: 5
    group: 2
    weight_filler {
      type: "gaussian"
      std: 0.01
    }
    bias_filler {
      type: "constant"
      value: 0.1
    }
  }
}
layer {
  name: "relu2"
  type: "ReLU"
  bottom: "conv2"
  top: "conv2"
}
layer {
  name: "norm2"
  type: "LRN"
  bottom: "conv2"
  top: "norm2"
  lrn_param {
    local_size: 5
    alpha: 0.0001
    beta: 0.75
  }
}
layer {
  name: "pool2"
  type: "Pooling"
  bottom: "norm2"
  top: "pool2"
  pooling_param {
    pool: MAX
    kernel_size: 3
    stride: 2
  }
}
layer {
  name: "conv3"
  type: "Convolution"
  bottom: "pool2"
  top: "conv3"
  param {
    lr_mult: 1
    decay_mult: 1
  }
  param {
    lr_mult: 2
    decay_mult: 0
  }
  convolution_param {
    num_output: 384
    pad: 1
    kernel_size: 3
    weight_filler {
      type: "gaussian"
      std: 0.01
    }
    bias_filler {
      type: "constant"
      value: 0
    }
  }
}
layer {
  name: "relu3"
  type: "ReLU"
  bottom: "conv3"
  top: "conv3"
}
layer {
  name: "conv4"
  type: "Convolution"
  bottom: "conv3"
  top: "conv4"
  param {
    lr_mult: 1
    decay_mult: 1
  }
  param {
    lr_mult: 2
    decay_mult: 0
  }
  convolution_param {
    num_output: 384
    pad: 1
    kernel_size: 3
    group: 2
    weight_filler {
      type: "gaussian"
      std: 0.01
    }
    bias_filler {
      type: "constant"
      value: 0.1
    }
  }
}
layer {
  name: "relu4"
  type: "ReLU"
  bottom: "conv4"
  top: "conv4"
}
layer {
  name: "conv5"
  type: "Convolution"
  bottom: "conv4"
  top: "conv5"
  param {
    lr_mult: 1
    decay_mult: 1
  }
  param {
    lr_mult: 2
    decay_mult: 0
  }
  convolution_param {
    num_output: 256
    pad: 1
    kernel_size: 3
    group: 2
    weight_filler {
      type: "gaussian"
      std: 0.01
    }
    bias_filler {
      type: "constant"
      value: 0.1
    }
  }
}
layer {
  name: "relu5"
  type: "ReLU"
  bottom: "conv5"
  top: "conv5"
}
layer {
  name: "pool5"
  type: "Pooling"
  bottom: "conv5"
  top: "pool5"
  pooling_param {
    pool: MAX
    kernel_size: 3
    stride: 2
  }
}
layer {
  name: "fc6"
  type: "InnerProduct"
  bottom: "pool5"
  top: "fc6"
  param {
    lr_mult: 1
    decay_mult: 1
  }
  param {
    lr_mult: 2
    decay_mult: 0
  }
  inner_product_param {
    num_output: 4096
    weight_filler {
      type: "gaussian"
      std: 0.005
    }
    bias_filler {
      type: "constant"
      value: 0.1
    }
  }
}
layer {
  name: "relu6"
  type: "ReLU"
  bottom: "fc6"
  top: "fc6"
}
layer {
  name: "drop6"
  type: "Dropout"
  bottom: "fc6"
  top: "fc6"
  dropout_param {
    dropout_ratio: 0.5
  }
}
layer {
  name: "fc7"
  type: "InnerProduct"
  bottom: "fc6"
  top: "fc7"
  param {
    lr_mult: 1
    decay_mult: 1
  }
  param {
    lr_mult: 2
    decay_mult: 0
  }
  inner_product_param {
    num_output: 4096
    weight_filler {
      type: "gaussian"
      std: 0.005
    }
    bias_filler {
      type: "constant"
      value: 0.1
    }
  }
}
layer {
  name: "relu7"
  type: "ReLU"
  bottom: "fc7"
  top: "fc7"
}
layer {
  name: "drop7"
  type: "Dropout"
  bottom: "fc7"
  top: "fc7"
  dropout_param {
    dropout_ratio: 0.5
  }
}
layer {
  name: "fc8_plantvillage"
  type: "InnerProduct"
  bottom: "fc7"
  top: "fc8_plantvillage"
  param {
    lr_mult: 1
    decay_mult: 1
  }
  param {
    lr_mult: 2
    decay_mult: 0
  }
  inner_product_param {
    num_output: 38
    weight_filler {
      type: "gaussian"
      std: 0.01
    }
    bias_filler {
      type: "constant"
      value: 0
    }
  }
}
layer {
  name: "loss"
  type: "SoftmaxWithLoss"
  bottom: "fc8_plantvillage"
  bottom: "label"
  top: "loss"
}
I0403 07:33:25.554450 24116 layer_factory.hpp:77] Creating layer data
I0403 07:33:25.555243 24116 net.cpp:91] Creating Layer data
I0403 07:33:25.556828 24116 net.cpp:399] data -> data
I0403 07:33:25.556895 24116 net.cpp:399] data -> label
I0403 07:33:25.556936 24116 data_transformer.cpp:25] Loading mean file from: /home/mohanty/data/final_dataset/lmdb/grayscale-40-60/mean.binaryproto
I0403 07:33:25.693534 24119 db_lmdb.cpp:38] Opened lmdb /home/mohanty/data/final_dataset/lmdb/grayscale-40-60/train_db
I0403 07:33:25.716369 24116 data_layer.cpp:41] output data size: 100,3,227,227
I0403 07:33:25.859091 24116 net.cpp:141] Setting up data
I0403 07:33:25.859191 24116 net.cpp:148] Top shape: 100 3 227 227 (15458700)
I0403 07:33:25.859218 24116 net.cpp:148] Top shape: 100 (100)
I0403 07:33:25.859237 24116 net.cpp:156] Memory required for data: 61835200
I0403 07:33:25.859273 24116 layer_factory.hpp:77] Creating layer conv1
I0403 07:33:25.859323 24116 net.cpp:91] Creating Layer conv1
I0403 07:33:25.859350 24116 net.cpp:425] conv1 <- data
I0403 07:33:25.859388 24116 net.cpp:399] conv1 -> conv1
I0403 07:33:25.862593 24116 net.cpp:141] Setting up conv1
I0403 07:33:25.862632 24116 net.cpp:148] Top shape: 100 96 55 55 (29040000)
I0403 07:33:25.862653 24116 net.cpp:156] Memory required for data: 177995200
I0403 07:33:25.862694 24116 layer_factory.hpp:77] Creating layer relu1
I0403 07:33:25.862728 24116 net.cpp:91] Creating Layer relu1
I0403 07:33:25.862756 24116 net.cpp:425] relu1 <- conv1
I0403 07:33:25.862788 24116 net.cpp:386] relu1 -> conv1 (in-place)
I0403 07:33:25.862819 24116 net.cpp:141] Setting up relu1
I0403 07:33:25.862843 24116 net.cpp:148] Top shape: 100 96 55 55 (29040000)
I0403 07:33:25.862862 24116 net.cpp:156] Memory required for data: 294155200
I0403 07:33:25.862880 24116 layer_factory.hpp:77] Creating layer norm1
I0403 07:33:25.862942 24116 net.cpp:91] Creating Layer norm1
I0403 07:33:25.862964 24116 net.cpp:425] norm1 <- conv1
I0403 07:33:25.862988 24116 net.cpp:399] norm1 -> norm1
I0403 07:33:25.868589 24116 net.cpp:141] Setting up norm1
I0403 07:33:25.868633 24116 net.cpp:148] Top shape: 100 96 55 55 (29040000)
I0403 07:33:25.868654 24116 net.cpp:156] Memory required for data: 410315200
I0403 07:33:25.868671 24116 layer_factory.hpp:77] Creating layer pool1
I0403 07:33:25.868698 24116 net.cpp:91] Creating Layer pool1
I0403 07:33:25.868721 24116 net.cpp:425] pool1 <- norm1
I0403 07:33:25.868749 24116 net.cpp:399] pool1 -> pool1
I0403 07:33:25.868839 24116 net.cpp:141] Setting up pool1
I0403 07:33:25.868870 24116 net.cpp:148] Top shape: 100 96 27 27 (6998400)
I0403 07:33:25.868890 24116 net.cpp:156] Memory required for data: 438308800
I0403 07:33:25.868908 24116 layer_factory.hpp:77] Creating layer conv2
I0403 07:33:25.868937 24116 net.cpp:91] Creating Layer conv2
I0403 07:33:25.868958 24116 net.cpp:425] conv2 <- pool1
I0403 07:33:25.868983 24116 net.cpp:399] conv2 -> conv2
I0403 07:33:25.870815 24121 blocking_queue.cpp:50] Waiting for data
I0403 07:33:25.888366 24116 net.cpp:141] Setting up conv2
I0403 07:33:25.888404 24116 net.cpp:148] Top shape: 100 256 27 27 (18662400)
I0403 07:33:25.888425 24116 net.cpp:156] Memory required for data: 512958400
I0403 07:33:25.888453 24116 layer_factory.hpp:77] Creating layer relu2
I0403 07:33:25.888478 24116 net.cpp:91] Creating Layer relu2
I0403 07:33:25.888499 24116 net.cpp:425] relu2 <- conv2
I0403 07:33:25.888520 24116 net.cpp:386] relu2 -> conv2 (in-place)
I0403 07:33:25.888545 24116 net.cpp:141] Setting up relu2
I0403 07:33:25.888566 24116 net.cpp:148] Top shape: 100 256 27 27 (18662400)
I0403 07:33:25.888583 24116 net.cpp:156] Memory required for data: 587608000
I0403 07:33:25.888602 24116 layer_factory.hpp:77] Creating layer norm2
I0403 07:33:25.888625 24116 net.cpp:91] Creating Layer norm2
I0403 07:33:25.888645 24116 net.cpp:425] norm2 <- conv2
I0403 07:33:25.888669 24116 net.cpp:399] norm2 -> norm2
I0403 07:33:25.888727 24116 net.cpp:141] Setting up norm2
I0403 07:33:25.888761 24116 net.cpp:148] Top shape: 100 256 27 27 (18662400)
I0403 07:33:25.888780 24116 net.cpp:156] Memory required for data: 662257600
I0403 07:33:25.888798 24116 layer_factory.hpp:77] Creating layer pool2
I0403 07:33:25.888824 24116 net.cpp:91] Creating Layer pool2
I0403 07:33:25.888844 24116 net.cpp:425] pool2 <- norm2
I0403 07:33:25.888865 24116 net.cpp:399] pool2 -> pool2
I0403 07:33:25.888922 24116 net.cpp:141] Setting up pool2
I0403 07:33:25.888950 24116 net.cpp:148] Top shape: 100 256 13 13 (4326400)
I0403 07:33:25.888969 24116 net.cpp:156] Memory required for data: 679563200
I0403 07:33:25.888988 24116 layer_factory.hpp:77] Creating layer conv3
I0403 07:33:25.889015 24116 net.cpp:91] Creating Layer conv3
I0403 07:33:25.889039 24116 net.cpp:425] conv3 <- pool2
I0403 07:33:25.889062 24116 net.cpp:399] conv3 -> conv3
I0403 07:33:25.930881 24116 net.cpp:141] Setting up conv3
I0403 07:33:25.930919 24116 net.cpp:148] Top shape: 100 384 13 13 (6489600)
I0403 07:33:25.930940 24116 net.cpp:156] Memory required for data: 705521600
I0403 07:33:25.930968 24116 layer_factory.hpp:77] Creating layer relu3
I0403 07:33:25.930994 24116 net.cpp:91] Creating Layer relu3
I0403 07:33:25.931015 24116 net.cpp:425] relu3 <- conv3
I0403 07:33:25.931036 24116 net.cpp:386] relu3 -> conv3 (in-place)
I0403 07:33:25.931071 24116 net.cpp:141] Setting up relu3
I0403 07:33:25.931093 24116 net.cpp:148] Top shape: 100 384 13 13 (6489600)
I0403 07:33:25.931113 24116 net.cpp:156] Memory required for data: 731480000
I0403 07:33:25.931130 24116 layer_factory.hpp:77] Creating layer conv4
I0403 07:33:25.931156 24116 net.cpp:91] Creating Layer conv4
I0403 07:33:25.931179 24116 net.cpp:425] conv4 <- conv3
I0403 07:33:25.931202 24116 net.cpp:399] conv4 -> conv4
I0403 07:33:25.962674 24116 net.cpp:141] Setting up conv4
I0403 07:33:25.962712 24116 net.cpp:148] Top shape: 100 384 13 13 (6489600)
I0403 07:33:25.962733 24116 net.cpp:156] Memory required for data: 757438400
I0403 07:33:25.962781 24116 layer_factory.hpp:77] Creating layer relu4
I0403 07:33:25.962808 24116 net.cpp:91] Creating Layer relu4
I0403 07:33:25.962829 24116 net.cpp:425] relu4 <- conv4
I0403 07:33:25.962853 24116 net.cpp:386] relu4 -> conv4 (in-place)
I0403 07:33:25.962878 24116 net.cpp:141] Setting up relu4
I0403 07:33:25.962901 24116 net.cpp:148] Top shape: 100 384 13 13 (6489600)
I0403 07:33:25.962920 24116 net.cpp:156] Memory required for data: 783396800
I0403 07:33:25.962937 24116 layer_factory.hpp:77] Creating layer conv5
I0403 07:33:25.962965 24116 net.cpp:91] Creating Layer conv5
I0403 07:33:25.962985 24116 net.cpp:425] conv5 <- conv4
I0403 07:33:25.963011 24116 net.cpp:399] conv5 -> conv5
I0403 07:33:25.984151 24116 net.cpp:141] Setting up conv5
I0403 07:33:25.984189 24116 net.cpp:148] Top shape: 100 256 13 13 (4326400)
I0403 07:33:25.984210 24116 net.cpp:156] Memory required for data: 800702400
I0403 07:33:25.984241 24116 layer_factory.hpp:77] Creating layer relu5
I0403 07:33:25.984266 24116 net.cpp:91] Creating Layer relu5
I0403 07:33:25.984287 24116 net.cpp:425] relu5 <- conv5
I0403 07:33:25.984310 24116 net.cpp:386] relu5 -> conv5 (in-place)
I0403 07:33:25.984335 24116 net.cpp:141] Setting up relu5
I0403 07:33:25.984357 24116 net.cpp:148] Top shape: 100 256 13 13 (4326400)
I0403 07:33:25.984376 24116 net.cpp:156] Memory required for data: 818008000
I0403 07:33:25.984395 24116 layer_factory.hpp:77] Creating layer pool5
I0403 07:33:25.984417 24116 net.cpp:91] Creating Layer pool5
I0403 07:33:25.984437 24116 net.cpp:425] pool5 <- conv5
I0403 07:33:25.984459 24116 net.cpp:399] pool5 -> pool5
I0403 07:33:25.984519 24116 net.cpp:141] Setting up pool5
I0403 07:33:25.984547 24116 net.cpp:148] Top shape: 100 256 6 6 (921600)
I0403 07:33:25.984566 24116 net.cpp:156] Memory required for data: 821694400
I0403 07:33:25.984585 24116 layer_factory.hpp:77] Creating layer fc6
I0403 07:33:25.984621 24116 net.cpp:91] Creating Layer fc6
I0403 07:33:25.984643 24116 net.cpp:425] fc6 <- pool5
I0403 07:33:25.984668 24116 net.cpp:399] fc6 -> fc6
I0403 07:33:27.515008 24116 net.cpp:141] Setting up fc6
I0403 07:33:27.515090 24116 net.cpp:148] Top shape: 100 4096 (409600)
I0403 07:33:27.515107 24116 net.cpp:156] Memory required for data: 823332800
I0403 07:33:27.515130 24116 layer_factory.hpp:77] Creating layer relu6
I0403 07:33:27.515153 24116 net.cpp:91] Creating Layer relu6
I0403 07:33:27.515172 24116 net.cpp:425] relu6 <- fc6
I0403 07:33:27.515192 24116 net.cpp:386] relu6 -> fc6 (in-place)
I0403 07:33:27.515216 24116 net.cpp:141] Setting up relu6
I0403 07:33:27.515234 24116 net.cpp:148] Top shape: 100 4096 (409600)
I0403 07:33:27.515249 24116 net.cpp:156] Memory required for data: 824971200
I0403 07:33:27.515264 24116 layer_factory.hpp:77] Creating layer drop6
I0403 07:33:27.515288 24116 net.cpp:91] Creating Layer drop6
I0403 07:33:27.515305 24116 net.cpp:425] drop6 <- fc6
I0403 07:33:27.515323 24116 net.cpp:386] drop6 -> fc6 (in-place)
I0403 07:33:27.515369 24116 net.cpp:141] Setting up drop6
I0403 07:33:27.515391 24116 net.cpp:148] Top shape: 100 4096 (409600)
I0403 07:33:27.515406 24116 net.cpp:156] Memory required for data: 826609600
I0403 07:33:27.515420 24116 layer_factory.hpp:77] Creating layer fc7
I0403 07:33:27.515442 24116 net.cpp:91] Creating Layer fc7
I0403 07:33:27.515460 24116 net.cpp:425] fc7 <- fc6
I0403 07:33:27.515480 24116 net.cpp:399] fc7 -> fc7
I0403 07:33:28.125238 24116 net.cpp:141] Setting up fc7
I0403 07:33:28.125319 24116 net.cpp:148] Top shape: 100 4096 (409600)
I0403 07:33:28.125335 24116 net.cpp:156] Memory required for data: 828248000
I0403 07:33:28.125357 24116 layer_factory.hpp:77] Creating layer relu7
I0403 07:33:28.125381 24116 net.cpp:91] Creating Layer relu7
I0403 07:33:28.125398 24116 net.cpp:425] relu7 <- fc7
I0403 07:33:28.125422 24116 net.cpp:386] relu7 -> fc7 (in-place)
I0403 07:33:28.125445 24116 net.cpp:141] Setting up relu7
I0403 07:33:28.125463 24116 net.cpp:148] Top shape: 100 4096 (409600)
I0403 07:33:28.125478 24116 net.cpp:156] Memory required for data: 829886400
I0403 07:33:28.125525 24116 layer_factory.hpp:77] Creating layer drop7
I0403 07:33:28.125547 24116 net.cpp:91] Creating Layer drop7
I0403 07:33:28.125562 24116 net.cpp:425] drop7 <- fc7
I0403 07:33:28.125579 24116 net.cpp:386] drop7 -> fc7 (in-place)
I0403 07:33:28.125619 24116 net.cpp:141] Setting up drop7
I0403 07:33:28.125640 24116 net.cpp:148] Top shape: 100 4096 (409600)
I0403 07:33:28.125655 24116 net.cpp:156] Memory required for data: 831524800
I0403 07:33:28.125669 24116 layer_factory.hpp:77] Creating layer fc8_plantvillage
I0403 07:33:28.125694 24116 net.cpp:91] Creating Layer fc8_plantvillage
I0403 07:33:28.125711 24116 net.cpp:425] fc8_plantvillage <- fc7
I0403 07:33:28.125730 24116 net.cpp:399] fc8_plantvillage -> fc8_plantvillage
I0403 07:33:28.131784 24116 net.cpp:141] Setting up fc8_plantvillage
I0403 07:33:28.131813 24116 net.cpp:148] Top shape: 100 38 (3800)
I0403 07:33:28.131829 24116 net.cpp:156] Memory required for data: 831540000
I0403 07:33:28.131847 24116 layer_factory.hpp:77] Creating layer loss
I0403 07:33:28.131873 24116 net.cpp:91] Creating Layer loss
I0403 07:33:28.131891 24116 net.cpp:425] loss <- fc8_plantvillage
I0403 07:33:28.131907 24116 net.cpp:425] loss <- label
I0403 07:33:28.131932 24116 net.cpp:399] loss -> loss
I0403 07:33:28.131961 24116 layer_factory.hpp:77] Creating layer loss
…
I0403 07:33:28.133646 24116 net.cpp:313] The NetState phase (1) differed from the phase (0) specified by a rule in layer data
I0403 07:33:28.134299 24116 net.cpp:49] Initializing net from parameters: 
state {
  phase: TEST
}
layer {
  name: "data"
  type: "Data"
  top: "data"
  top: "label"
  include {
    phase: TEST
  }
  transform_param {
    crop_size: 227
    mean_file: "/home/mohanty/data/final_dataset/lmdb/grayscale-40-60/mean.binaryproto"
  }
  data_param {
    source: "/home/mohanty/data/final_dataset/lmdb/grayscale-40-60/test_db"
    batch_size: 100
    backend: LMDB
  }
}
layer {
  name: "conv1"
  type: "Convolution"
  bottom: "data"
  top: "conv1"
  param {
    lr_mult: 1
    decay_mult: 1
  }
  param {
    lr_mult: 2
    decay_mult: 0
  }
  convolution_param {
    num_output: 96
    kernel_size: 11
    stride: 4
    weight_filler {
      type: "gaussian"
      std: 0.01
    }
    bias_filler {
      type: "constant"
      value: 0
    }
  }
}
layer {
  name: "relu1"
  type: "ReLU"
  bottom: "conv1"
  top: "conv1"
}
layer {
  name: "norm1"
  type: "LRN"
  bottom: "conv1"
  top: "norm1"
  lrn_param {
    local_size: 5
    alpha: 0.0001
    beta: 0.75
  }
}
layer {
  name: "pool1"
  type: "Pooling"
  bottom: "norm1"
  top: "pool1"
  pooling_param {
    pool: MAX
    kernel_size: 3
    stride: 2
  }
}
layer {
  name: "conv2"
  type: "Convolution"
  bottom: "pool1"
  top: "conv2"
  param {
    lr_mult: 1
    decay_mult: 1
  }
  param {
    lr_mult: 2
    decay_mult: 0
  }
  convolution_param {
    num_output: 256
    pad: 2
    kernel_size: 5
    group: 2
    weight_filler {
      type: "gaussian"
      std: 0.01
    }
    bias_filler {
      type: "constant"
      value: 0.1
    }
  }
}
layer {
  name: "relu2"
  type: "ReLU"
  bottom: "conv2"
  top: "conv2"
}
layer {
  name: "norm2"
  type: "LRN"
  bottom: "conv2"
  top: "norm2"
  lrn_param {
    local_size: 5
    alpha: 0.0001
    beta: 0.75
  }
}
layer {
  name: "pool2"
  type: "Pooling"
  bottom: "norm2"
  top: "pool2"
  pooling_param {
    pool: MAX
    kernel_size: 3
    stride: 2
  }
}
layer {
  name: "conv3"
  type: "Convolution"
  bottom: "pool2"
  top: "conv3"
  param {
    lr_mult: 1
    decay_mult: 1
  }
  param {
    lr_mult: 2
    decay_mult: 0
  }
  convolution_param {
    num_output: 384
    pad: 1
    kernel_size: 3
    weight_filler {
      type: "gaussian"
      std: 0.01
    }
    bias_filler {
      type: "constant"
      value: 0
    }
  }
}
layer {
  name: "relu3"
  type: "ReLU"
  bottom: "conv3"
  top: "conv3"
}
layer {
  name: "conv4"
  type: "Convolution"
  bottom: "conv3"
  top: "conv4"
  param {
    lr_mult: 1
    decay_mult: 1
  }
  param {
    lr_mult: 2
    decay_mult: 0
  }
  convolution_param {
    num_output: 384
    pad: 1
    kernel_size: 3
    group: 2
    weight_filler {
      type: "gaussian"
      std: 0.01
    }
    bias_filler {
      type: "constant"
      value: 0.1
    }
  }
}
layer {
  name: "relu4"
  type: "ReLU"
  bottom: "conv4"
  top: "conv4"
}
layer {
  name: "conv5"
  type: "Convolution"
  bottom: "conv4"
  top: "conv5"
  param {
    lr_mult: 1
    decay_mult: 1
  }
  param {
    lr_mult: 2
    decay_mult: 0
  }
  convolution_param {
    num_output: 256
    pad: 1
    kernel_size: 3
    group: 2
    weight_filler {
      type: "gaussian"
      std: 0.01
    }
    bias_filler {
      type: "constant"
      value: 0.1
    }
  }
}
layer {
  name: "relu5"
  type: "ReLU"
  bottom: "conv5"
  top: "conv5"
}
layer {
  name: "pool5"
  type: "Pooling"
  bottom: "conv5"
  top: "pool5"
  pooling_param {
    pool: MAX
    kernel_size: 3
    stride: 2
  }
}
layer {
  name: "fc6"
  type: "InnerProduct"
  bottom: "pool5"
  top: "fc6"
  param {
    lr_mult: 1
    decay_mult: 1
  }
  param {
    lr_mult: 2
    decay_mult: 0
  }
  inner_product_param {
    num_output: 4096
    weight_filler {
      type: "gaussian"
      std: 0.005
    }
    bias_filler {
      type: "constant"
      value: 0.1
    }
  }
}
layer {
  name: "relu6"
  type: "ReLU"
  bottom: "fc6"
  top: "fc6"
}
layer {
  name: "drop6"
  type: "Dropout"
  bottom: "fc6"
  top: "fc6"
  dropout_param {
    dropout_ratio: 0.5
  }
}
layer {
  name: "fc7"
  type: "InnerProduct"
  bottom: "fc6"
  top: "fc7"
  param {
    lr_mult: 1
    decay_mult: 1
  }
  param {
    lr_mult: 2
    decay_mult: 0
  }
  inner_product_param {
    num_output: 4096
    weight_filler {
      type: "gaussian"
      std: 0.005
    }
    bias_filler {
      type: "constant"
      value: 0.1
    }
  }
}
layer {
  name: "relu7"
  type: "ReLU"
  bottom: "fc7"
  top: "fc7"
}
layer {
  name: "drop7"
  type: "Dropout"
  bottom: "fc7"
  top: "fc7"
  dropout_param {
    dropout_ratio: 0.5
  }
}
layer {
  name: "fc8_plantvillage"
  type: "InnerProduct"
  bottom: "fc7"
  top: "fc8_plantvillage"
  param {
    lr_mult: 1
    decay_mult: 1
  }
  param {
    lr_mult: 2
    decay_mult: 0
  }
  inner_product_param {
    num_output: 38
    weight_filler {
      type: "gaussian"
      std: 0.01
    }
    bias_filler {
      type: "constant"
      value: 0
    }
  }
}
layer {
  name: "loss"
  type: "SoftmaxWithLoss"
  bottom: "fc8_plantvillage"
  bottom: "label"
  top: "loss"
}
layer {
  name: "accuracy"
  type: "Accuracy"
  bottom: "fc8_plantvillage"
  bottom: "label"
  top: "accuracy"
  include {
    phase: TEST
  }
}
I0403 07:33:28.134460 24116 layer_factory.hpp:77] Creating layer data
I0403 07:33:28.134625 24116 net.cpp:91] Creating Layer data
I0403 07:33:28.134652 24116 net.cpp:399] data -> data
I0403 07:33:28.134678 24116 net.cpp:399] data -> label
I0403 07:33:28.134701 24116 data_transformer.cpp:25] Loading mean file from: /home/mohanty/data/final_dataset/lmdb/grayscale-40-60/mean.binaryproto
I0403 07:33:28.222684 24124 db_lmdb.cpp:38] Opened lmdb /home/mohanty/data/final_dataset/lmdb/grayscale-40-60/test_db
I0403 07:33:28.260860 24116 data_layer.cpp:41] output data size: 100,3,227,227
I0403 07:33:28.445894 24116 net.cpp:141] Setting up data
I0403 07:33:28.445961 24116 net.cpp:148] Top shape: 100 3 227 227 (15458700)
I0403 07:33:28.445984 24116 net.cpp:148] Top shape: 100 (100)
I0403 07:33:28.446003 24116 net.cpp:156] Memory required for data: 61835200
I0403 07:33:28.446030 24116 layer_factory.hpp:77] Creating layer label_data_1_split
I0403 07:33:28.446069 24116 net.cpp:91] Creating Layer label_data_1_split
I0403 07:33:28.446095 24116 net.cpp:425] label_data_1_split <- label
I0403 07:33:28.446120 24116 net.cpp:399] label_data_1_split -> label_data_1_split_0
I0403 07:33:28.446154 24116 net.cpp:399] label_data_1_split -> label_data_1_split_1
I0403 07:33:28.446238 24116 net.cpp:141] Setting up label_data_1_split
I0403 07:33:28.446269 24116 net.cpp:148] Top shape: 100 (100)
I0403 07:33:28.446293 24116 net.cpp:148] Top shape: 100 (100)
I0403 07:33:28.446310 24116 net.cpp:156] Memory required for data: 61836000
I0403 07:33:28.446333 24116 layer_factory.hpp:77] Creating layer conv1
I0403 07:33:28.446370 24116 net.cpp:91] Creating Layer conv1
I0403 07:33:28.446393 24116 net.cpp:425] conv1 <- data
I0403 07:33:28.446420 24116 net.cpp:399] conv1 -> conv1
I0403 07:33:28.448060 24116 net.cpp:141] Setting up conv1
I0403 07:33:28.448096 24116 net.cpp:148] Top shape: 100 96 55 55 (29040000)
I0403 07:33:28.448120 24116 net.cpp:156] Memory required for data: 177996000
I0403 07:33:28.448153 24116 layer_factory.hpp:77] Creating layer relu1
I0403 07:33:28.448176 24116 net.cpp:91] Creating Layer relu1
I0403 07:33:28.448204 24116 net.cpp:425] relu1 <- conv1
I0403 07:33:28.448230 24116 net.cpp:386] relu1 -> conv1 (in-place)
I0403 07:33:28.448258 24116 net.cpp:141] Setting up relu1
I0403 07:33:28.448278 24116 net.cpp:148] Top shape: 100 96 55 55 (29040000)
I0403 07:33:28.448302 24116 net.cpp:156] Memory required for data: 294156000
I0403 07:33:28.448325 24116 layer_factory.hpp:77] Creating layer norm1
I0403 07:33:28.448348 24116 net.cpp:91] Creating Layer norm1
I0403 07:33:28.448375 24116 net.cpp:425] norm1 <- conv1
I0403 07:33:28.448401 24116 net.cpp:399] norm1 -> norm1
I0403 07:33:28.448457 24116 net.cpp:141] Setting up norm1
I0403 07:33:28.448487 24116 net.cpp:148] Top shape: 100 96 55 55 (29040000)
I0403 07:33:28.448505 24116 net.cpp:156] Memory required for data: 410316000
I0403 07:33:28.448525 24116 layer_factory.hpp:77] Creating layer pool1
I0403 07:33:28.448551 24116 net.cpp:91] Creating Layer pool1
I0403 07:33:28.448568 24116 net.cpp:425] pool1 <- norm1
I0403 07:33:28.448596 24116 net.cpp:399] pool1 -> pool1
I0403 07:33:28.448654 24116 net.cpp:141] Setting up pool1
I0403 07:33:28.448679 24116 net.cpp:148] Top shape: 100 96 27 27 (6998400)
I0403 07:33:28.448696 24116 net.cpp:156] Memory required for data: 438309600
I0403 07:33:28.448734 24116 layer_factory.hpp:77] Creating layer conv2
I0403 07:33:28.448777 24116 net.cpp:91] Creating Layer conv2
I0403 07:33:28.448801 24116 net.cpp:425] conv2 <- pool1
I0403 07:33:28.448832 24116 net.cpp:399] conv2 -> conv2
I0403 07:33:28.461518 24116 net.cpp:141] Setting up conv2
I0403 07:33:28.487117 24116 net.cpp:148] Top shape: 100 256 27 27 (18662400)
I0403 07:33:28.487139 24116 net.cpp:156] Memory required for data: 512959200
I0403 07:33:28.487162 24116 layer_factory.hpp:77] Creating layer relu2
I0403 07:33:28.487185 24116 net.cpp:91] Creating Layer relu2
I0403 07:33:28.487201 24116 net.cpp:425] relu2 <- conv2
I0403 07:33:28.487221 24116 net.cpp:386] relu2 -> conv2 (in-place)
I0403 07:33:28.487242 24116 net.cpp:141] Setting up relu2
I0403 07:33:28.487260 24116 net.cpp:148] Top shape: 100 256 27 27 (18662400)
I0403 07:33:28.487275 24116 net.cpp:156] Memory required for data: 587608800
I0403 07:33:28.487290 24116 layer_factory.hpp:77] Creating layer norm2
I0403 07:33:28.487311 24116 net.cpp:91] Creating Layer norm2
I0403 07:33:28.487337 24116 net.cpp:425] norm2 <- conv2
I0403 07:33:28.487363 24116 net.cpp:399] norm2 -> norm2
I0403 07:33:28.487422 24116 net.cpp:141] Setting up norm2
I0403 07:33:28.487452 24116 net.cpp:148] Top shape: 100 256 27 27 (18662400)
I0403 07:33:28.487469 24116 net.cpp:156] Memory required for data: 662258400
I0403 07:33:28.487493 24116 layer_factory.hpp:77] Creating layer pool2
I0403 07:33:28.487519 24116 net.cpp:91] Creating Layer pool2
I0403 07:33:28.487537 24116 net.cpp:425] pool2 <- norm2
I0403 07:33:28.487563 24116 net.cpp:399] pool2 -> pool2
I0403 07:33:28.487623 24116 net.cpp:141] Setting up pool2
I0403 07:33:28.487653 24116 net.cpp:148] Top shape: 100 256 13 13 (4326400)
I0403 07:33:28.487674 24116 net.cpp:156] Memory required for data: 679564000
I0403 07:33:28.487695 24116 layer_factory.hpp:77] Creating layer conv3
I0403 07:33:28.487726 24116 net.cpp:91] Creating Layer conv3
I0403 07:33:28.487753 24116 net.cpp:425] conv3 <- pool2
I0403 07:33:28.487797 24116 net.cpp:399] conv3 -> conv3
I0403 07:33:28.524296 24116 net.cpp:141] Setting up conv3
I0403 07:33:28.524349 24116 net.cpp:148] Top shape: 100 384 13 13 (6489600)
I0403 07:33:28.524368 24116 net.cpp:156] Memory required for data: 705522400
I0403 07:33:28.524394 24116 layer_factory.hpp:77] Creating layer relu3
I0403 07:33:28.524418 24116 net.cpp:91] Creating Layer relu3
I0403 07:33:28.524438 24116 net.cpp:425] relu3 <- conv3
I0403 07:33:28.524461 24116 net.cpp:386] relu3 -> conv3 (in-place)
I0403 07:33:28.524483 24116 net.cpp:141] Setting up relu3
I0403 07:33:28.524502 24116 net.cpp:148] Top shape: 100 384 13 13 (6489600)
I0403 07:33:28.524518 24116 net.cpp:156] Memory required for data: 731480800
I0403 07:33:28.524533 24116 layer_factory.hpp:77] Creating layer conv4
I0403 07:33:28.524559 24116 net.cpp:91] Creating Layer conv4
I0403 07:33:28.524579 24116 net.cpp:425] conv4 <- conv3
I0403 07:33:28.524600 24116 net.cpp:399] conv4 -> conv4
I0403 07:33:28.552258 24116 net.cpp:141] Setting up conv4
I0403 07:33:28.552315 24116 net.cpp:148] Top shape: 100 384 13 13 (6489600)
I0403 07:33:28.552335 24116 net.cpp:156] Memory required for data: 757439200
I0403 07:33:28.552356 24116 layer_factory.hpp:77] Creating layer relu4
I0403 07:33:28.552381 24116 net.cpp:91] Creating Layer relu4
I0403 07:33:28.552402 24116 net.cpp:425] relu4 <- conv4
I0403 07:33:28.552423 24116 net.cpp:386] relu4 -> conv4 (in-place)
I0403 07:33:28.552445 24116 net.cpp:141] Setting up relu4
I0403 07:33:28.552464 24116 net.cpp:148] Top shape: 100 384 13 13 (6489600)
I0403 07:33:28.552480 24116 net.cpp:156] Memory required for data: 783397600
I0403 07:33:28.552496 24116 layer_factory.hpp:77] Creating layer conv5
I0403 07:33:28.552521 24116 net.cpp:91] Creating Layer conv5
I0403 07:33:28.552539 24116 net.cpp:425] conv5 <- conv4
I0403 07:33:28.552561 24116 net.cpp:399] conv5 -> conv5
I0403 07:33:28.570895 24116 net.cpp:141] Setting up conv5
I0403 07:33:28.570930 24116 net.cpp:148] Top shape: 100 256 13 13 (4326400)
I0403 07:33:28.570969 24116 net.cpp:156] Memory required for data: 800703200
I0403 07:33:28.570996 24116 layer_factory.hpp:77] Creating layer relu5
I0403 07:33:28.571020 24116 net.cpp:91] Creating Layer relu5
I0403 07:33:28.571039 24116 net.cpp:425] relu5 <- conv5
I0403 07:33:28.571059 24116 net.cpp:386] relu5 -> conv5 (in-place)
I0403 07:33:28.571080 24116 net.cpp:141] Setting up relu5
I0403 07:33:28.571100 24116 net.cpp:148] Top shape: 100 256 13 13 (4326400)
I0403 07:33:28.571118 24116 net.cpp:156] Memory required for data: 818008800
I0403 07:33:28.571144 24116 layer_factory.hpp:77] Creating layer pool5
I0403 07:33:28.571177 24116 net.cpp:91] Creating Layer pool5
I0403 07:33:28.571197 24116 net.cpp:425] pool5 <- conv5
I0403 07:33:28.571224 24116 net.cpp:399] pool5 -> pool5
I0403 07:33:28.571283 24116 net.cpp:141] Setting up pool5
I0403 07:33:28.571308 24116 net.cpp:148] Top shape: 100 256 6 6 (921600)
I0403 07:33:28.571324 24116 net.cpp:156] Memory required for data: 821695200
I0403 07:33:28.571341 24116 layer_factory.hpp:77] Creating layer fc6
I0403 07:33:28.571367 24116 net.cpp:91] Creating Layer fc6
I0403 07:33:28.571388 24116 net.cpp:425] fc6 <- pool5
I0403 07:33:28.571409 24116 net.cpp:399] fc6 -> fc6
I0403 07:33:29.965759 24116 net.cpp:141] Setting up fc6
I0403 07:33:29.965845 24116 net.cpp:148] Top shape: 100 4096 (409600)
I0403 07:33:29.965863 24116 net.cpp:156] Memory required for data: 823333600
I0403 07:33:29.965885 24116 layer_factory.hpp:77] Creating layer relu6
I0403 07:33:29.965909 24116 net.cpp:91] Creating Layer relu6
I0403 07:33:29.965926 24116 net.cpp:425] relu6 <- fc6
I0403 07:33:29.965947 24116 net.cpp:386] relu6 -> fc6 (in-place)
I0403 07:33:29.965970 24116 net.cpp:141] Setting up relu6
I0403 07:33:29.965988 24116 net.cpp:148] Top shape: 100 4096 (409600)
I0403 07:33:29.966002 24116 net.cpp:156] Memory required for data: 824972000
I0403 07:33:29.966017 24116 layer_factory.hpp:77] Creating layer drop6
I0403 07:33:29.966048 24116 net.cpp:91] Creating Layer drop6
I0403 07:33:29.966065 24116 net.cpp:425] drop6 <- fc6
I0403 07:33:29.966084 24116 net.cpp:386] drop6 -> fc6 (in-place)
I0403 07:33:29.966125 24116 net.cpp:141] Setting up drop6
I0403 07:33:29.966145 24116 net.cpp:148] Top shape: 100 4096 (409600)
I0403 07:33:29.966161 24116 net.cpp:156] Memory required for data: 826610400
I0403 07:33:29.966176 24116 layer_factory.hpp:77] Creating layer fc7
I0403 07:33:29.966195 24116 net.cpp:91] Creating Layer fc7
I0403 07:33:29.966212 24116 net.cpp:425] fc7 <- fc6
I0403 07:33:29.966233 24116 net.cpp:399] fc7 -> fc7
I0403 07:33:30.572159 24116 net.cpp:141] Setting up fc7
I0403 07:33:30.572242 24116 net.cpp:148] Top shape: 100 4096 (409600)
I0403 07:33:30.572260 24116 net.cpp:156] Memory required for data: 828248800
I0403 07:33:30.572283 24116 layer_factory.hpp:77] Creating layer relu7
I0403 07:33:30.572309 24116 net.cpp:91] Creating Layer relu7
I0403 07:33:30.572336 24116 net.cpp:425] relu7 <- fc7
I0403 07:33:30.572360 24116 net.cpp:386] relu7 -> fc7 (in-place)
I0403 07:33:30.572382 24116 net.cpp:141] Setting up relu7
I0403 07:33:30.572401 24116 net.cpp:148] Top shape: 100 4096 (409600)
I0403 07:33:30.572415 24116 net.cpp:156] Memory required for data: 829887200
I0403 07:33:30.572429 24116 layer_factory.hpp:77] Creating layer drop7
I0403 07:33:30.572448 24116 net.cpp:91] Creating Layer drop7
I0403 07:33:30.572463 24116 net.cpp:425] drop7 <- fc7
I0403 07:33:30.572480 24116 net.cpp:386] drop7 -> fc7 (in-place)
I0403 07:33:30.572521 24116 net.cpp:141] Setting up drop7
I0403 07:33:30.572543 24116 net.cpp:148] Top shape: 100 4096 (409600)
I0403 07:33:30.572558 24116 net.cpp:156] Memory required for data: 831525600
I0403 07:33:30.572573 24116 layer_factory.hpp:77] Creating layer fc8_plantvillage
I0403 07:33:30.572598 24116 net.cpp:91] Creating Layer fc8_plantvillage
I0403 07:33:30.572615 24116 net.cpp:425] fc8_plantvillage <- fc7
I0403 07:33:30.572633 24116 net.cpp:399] fc8_plantvillage -> fc8_plantvillage
I0403 07:33:30.578615 24116 net.cpp:141] Setting up fc8_plantvillage
I0403 07:33:30.578644 24116 net.cpp:148] Top shape: 100 38 (3800)
I0403 07:33:30.578706 24116 net.cpp:156] Memory required for data: 831540800
I0403 07:33:30.578727 24116 layer_factory.hpp:77] Creating layer fc8_plantvillage_fc8_plantvillage_0_split
I0403 07:33:30.578758 24116 net.cpp:91] Creating Layer fc8_plantvillage_fc8_plantvillage_0_split
I0403 07:33:30.578779 24116 net.cpp:425] fc8_plantvillage_fc8_plantvillage_0_split <- fc8_plantvillage
I0403 07:33:30.578800 24116 net.cpp:399] fc8_plantvillage_fc8_plantvillage_0_split -> fc8_plantvillage_fc8_plantvillage_0_split_0
I0403 07:33:30.578824 24116 net.cpp:399] fc8_plantvillage_fc8_plantvillage_0_split -> fc8_plantvillage_fc8_plantvillage_0_split_1
I0403 07:33:30.578874 24116 net.cpp:141] Setting up fc8_plantvillage_fc8_plantvillage_0_split
I0403 07:33:30.578901 24116 net.cpp:148] Top shape: 100 38 (3800)
I0403 07:33:30.578917 24116 net.cpp:148] Top shape: 100 38 (3800)
I0403 07:33:30.578932 24116 net.cpp:156] Memory required for data: 831571200
I0403 07:33:30.578948 24116 layer_factory.hpp:77] Creating layer loss
I0403 07:33:30.578964 24116 net.cpp:91] Creating Layer loss
I0403 07:33:30.578981 24116 net.cpp:425] loss <- fc8_plantvillage_fc8_plantvillage_0_split_0
I0403 07:33:30.579000 24116 net.cpp:425] loss <- label_data_1_split_0
I0403 07:33:30.579018 24116 net.cpp:399] loss -> loss
…
