…
I0403 13:31:02.258471 11446 net.cpp:313] The NetState phase (1) differed from the phase (0) specified by a rule in layer data
I0403 13:31:02.258832 11446 net.cpp:49] Initializing net from parameters: 
state {
  phase: TEST
}
layer {
  name: "data"
  type: "Data"
  top: "data"
  top: "label"
  include {
    phase: TEST
  }
  transform_param {
    crop_size: 227
    mean_file: "/home/mohanty/data/final_dataset/lmdb/grayscale-80-20/mean.binaryproto"
  }
  data_param {
    source: "/home/mohanty/data/final_dataset/lmdb/grayscale-80-20/test_db"
    batch_size: 100
    backend: LMDB
  }
}
layer {
  name: "conv1"
  type: "Convolution"
  bottom: "data"
  top: "conv1"
  param {
    lr_mult: 1
    decay_mult: 1
  }
  param {
    lr_mult: 2
    decay_mult: 0
  }
  convolution_param {
    num_output: 96
    kernel_size: 11
    stride: 4
    weight_filler {
      type: "gaussian"
      std: 0.01
    }
    bias_filler {
      type: "constant"
      value: 0
    }
  }
}
layer {
  name: "relu1"
  type: "ReLU"
  bottom: "conv1"
  top: "conv1"
}
layer {
  name: "norm1"
  type: "LRN"
  bottom: "conv1"
  top: "norm1"
  lrn_param {
    local_size: 5
    alpha: 0.0001
    beta: 0.75
  }
}
layer {
  name: "pool1"
  type: "Pooling"
  bottom: "norm1"
  top: "pool1"
  pooling_param {
    pool: MAX
    kernel_size: 3
    stride: 2
  }
}
layer {
  name: "conv2"
  type: "Convolution"
  bottom: "pool1"
  top: "conv2"
  param {
    lr_mult: 1
    decay_mult: 1
  }
  param {
    lr_mult: 2
    decay_mult: 0
  }
  convolution_param {
    num_output: 256
    pad: 2
    kernel_size: 5
    group: 2
    weight_filler {
      type: "gaussian"
      std: 0.01
    }
    bias_filler {
      type: "constant"
      value: 0.1
    }
  }
}
layer {
  name: "relu2"
  type: "ReLU"
  bottom: "conv2"
  top: "conv2"
}
layer {
  name: "norm2"
  type: "LRN"
  bottom: "conv2"
  top: "norm2"
  lrn_param {
    local_size: 5
    alpha: 0.0001
    beta: 0.75
  }
}
layer {
  name: "pool2"
  type: "Pooling"
  bottom: "norm2"
  top: "pool2"
  pooling_param {
    pool: MAX
    kernel_size: 3
    stride: 2
  }
}
layer {
  name: "conv3"
  type: "Convolution"
  bottom: "pool2"
  top: "conv3"
  param {
    lr_mult: 1
    decay_mult: 1
  }
  param {
    lr_mult: 2
    decay_mult: 0
  }
  convolution_param {
    num_output: 384
    pad: 1
    kernel_size: 3
    weight_filler {
      type: "gaussian"
      std: 0.01
    }
    bias_filler {
      type: "constant"
      value: 0
    }
  }
}
layer {
  name: "relu3"
  type: "ReLU"
  bottom: "conv3"
  top: "conv3"
}
layer {
  name: "conv4"
  type: "Convolution"
  bottom: "conv3"
  top: "conv4"
  param {
    lr_mult: 1
    decay_mult: 1
  }
  param {
    lr_mult: 2
    decay_mult: 0
  }
  convolution_param {
    num_output: 384
    pad: 1
    kernel_size: 3
    group: 2
    weight_filler {
      type: "gaussian"
      std: 0.01
    }
    bias_filler {
      type: "constant"
      value: 0.1
    }
  }
}
layer {
  name: "relu4"
  type: "ReLU"
  bottom: "conv4"
  top: "conv4"
}
layer {
  name: "conv5"
  type: "Convolution"
  bottom: "conv4"
  top: "conv5"
  param {
    lr_mult: 1
    decay_mult: 1
  }
  param {
    lr_mult: 2
    decay_mult: 0
  }
  convolution_param {
    num_output: 256
    pad: 1
    kernel_size: 3
    group: 2
    weight_filler {
      type: "gaussian"
      std: 0.01
    }
    bias_filler {
      type: "constant"
      value: 0.1
    }
  }
}
layer {
  name: "relu5"
  type: "ReLU"
  bottom: "conv5"
  top: "conv5"
}
layer {
  name: "pool5"
  type: "Pooling"
  bottom: "conv5"
  top: "pool5"
  pooling_param {
    pool: MAX
    kernel_size: 3
    stride: 2
  }
}
layer {
  name: "fc6"
  type: "InnerProduct"
  bottom: "pool5"
  top: "fc6"
  param {
    lr_mult: 1
    decay_mult: 1
  }
  param {
    lr_mult: 2
    decay_mult: 0
  }
  inner_product_param {
    num_output: 4096
    weight_filler {
      type: "gaussian"
      std: 0.005
    }
    bias_filler {
      type: "constant"
      value: 0.1
    }
  }
}
layer {
  name: "relu6"
  type: "ReLU"
  bottom: "fc6"
  top: "fc6"
}
layer {
  name: "drop6"
  type: "Dropout"
  bottom: "fc6"
  top: "fc6"
  dropout_param {
    dropout_ratio: 0.5
  }
}
layer {
  name: "fc7"
  type: "InnerProduct"
  bottom: "fc6"
  top: "fc7"
  param {
    lr_mult: 1
    decay_mult: 1
  }
  param {
    lr_mult: 2
    decay_mult: 0
  }
  inner_product_param {
    num_output: 4096
    weight_filler {
      type: "gaussian"
      std: 0.005
    }
    bias_filler {
      type: "constant"
      value: 0.1
    }
  }
}
layer {
  name: "relu7"
  type: "ReLU"
  bottom: "fc7"
  top: "fc7"
}
layer {
  name: "drop7"
  type: "Dropout"
  bottom: "fc7"
  top: "fc7"
  dropout_param {
    dropout_ratio: 0.5
  }
}
layer {
  name: "fc8_plantvillage"
  type: "InnerProduct"
  bottom: "fc7"
  top: "fc8_plantvillage"
  param {
    lr_mult: 1
    decay_mult: 1
  }
  param {
    lr_mult: 2
    decay_mult: 0
  }
  inner_product_param {
    num_output: 38
    weight_filler {
      type: "gaussian"
      std: 0.01
    }
    bias_filler {
      type: "constant"
      value: 0
    }
  }
}
layer {
  name: "prob"
  type: "Softmax"
  bottom: "fc8_plantvillage"
  top: "prob"
  include {
    phase: TEST
  }
}
layer {
  name: "hdf5out"
  type: "HDF5Output"
  bottom: "prob"
  bottom: "label"
  include {
    phase: TEST
  }
  hdf5_output_param {
    file_name: "hdf5_dumps/iter_8284.h5"
  }
}
layer {
  name: "loss"
  type: "SoftmaxWithLoss"
  bottom: "fc8_plantvillage"
  bottom: "label"
  top: "loss"
}
layer {
  name: "accuracy"
  type: "Accuracy"
  bottom: "fc8_plantvillage"
  bottom: "label"
  top: "accuracy"
  include {
    phase: TEST
  }
}
I0403 13:31:02.259477 11446 layer_factory.hpp:77] Creating layer data
I0403 13:31:02.260256 11446 net.cpp:91] Creating Layer data
I0403 13:31:02.260290 11446 net.cpp:399] data -> data
I0403 13:31:02.260347 11446 net.cpp:399] data -> label
I0403 13:31:02.260391 11446 data_transformer.cpp:25] Loading mean file from: /home/mohanty/data/final_dataset/lmdb/grayscale-80-20/mean.binaryproto
I0403 13:31:02.263139 11448 db_lmdb.cpp:38] Opened lmdb /home/mohanty/data/final_dataset/lmdb/grayscale-80-20/test_db
I0403 13:31:02.276895 11446 data_layer.cpp:41] output data size: 100,3,227,227
I0403 13:31:02.410447 11446 net.cpp:141] Setting up data
I0403 13:31:02.410552 11446 net.cpp:148] Top shape: 100 3 227 227 (15458700)
I0403 13:31:02.410584 11446 net.cpp:148] Top shape: 100 (100)
I0403 13:31:02.410604 11446 net.cpp:156] Memory required for data: 61835200
I0403 13:31:02.410636 11446 layer_factory.hpp:77] Creating layer label_data_1_split
I0403 13:31:02.410665 11446 net.cpp:91] Creating Layer label_data_1_split
I0403 13:31:02.410687 11446 net.cpp:425] label_data_1_split <- label
I0403 13:31:02.410725 11446 net.cpp:399] label_data_1_split -> label_data_1_split_0
I0403 13:31:02.410758 11446 net.cpp:399] label_data_1_split -> label_data_1_split_1
I0403 13:31:02.410783 11446 net.cpp:399] label_data_1_split -> label_data_1_split_2
I0403 13:31:02.410857 11446 net.cpp:141] Setting up label_data_1_split
I0403 13:31:02.410886 11446 net.cpp:148] Top shape: 100 (100)
I0403 13:31:02.410904 11446 net.cpp:148] Top shape: 100 (100)
I0403 13:31:02.410923 11446 net.cpp:148] Top shape: 100 (100)
I0403 13:31:02.410939 11446 net.cpp:156] Memory required for data: 61836400
I0403 13:31:02.410956 11446 layer_factory.hpp:77] Creating layer conv1
I0403 13:31:02.410994 11446 net.cpp:91] Creating Layer conv1
I0403 13:31:02.411016 11446 net.cpp:425] conv1 <- data
I0403 13:31:02.411039 11446 net.cpp:399] conv1 -> conv1
I0403 13:31:02.572003 11446 net.cpp:141] Setting up conv1
I0403 13:31:02.572087 11446 net.cpp:148] Top shape: 100 96 55 55 (29040000)
I0403 13:31:02.572108 11446 net.cpp:156] Memory required for data: 177996400
I0403 13:31:02.572144 11446 layer_factory.hpp:77] Creating layer relu1
I0403 13:31:02.572176 11446 net.cpp:91] Creating Layer relu1
I0403 13:31:02.572198 11446 net.cpp:425] relu1 <- conv1
I0403 13:31:02.572227 11446 net.cpp:386] relu1 -> conv1 (in-place)
I0403 13:31:02.572541 11446 net.cpp:141] Setting up relu1
I0403 13:31:02.572581 11446 net.cpp:148] Top shape: 100 96 55 55 (29040000)
I0403 13:31:02.572621 11446 net.cpp:156] Memory required for data: 294156400
I0403 13:31:02.572641 11446 layer_factory.hpp:77] Creating layer norm1
I0403 13:31:02.572693 11446 net.cpp:91] Creating Layer norm1
I0403 13:31:02.572716 11446 net.cpp:425] norm1 <- conv1
I0403 13:31:02.572744 11446 net.cpp:399] norm1 -> norm1
I0403 13:31:02.573110 11446 net.cpp:141] Setting up norm1
I0403 13:31:02.573144 11446 net.cpp:148] Top shape: 100 96 55 55 (29040000)
I0403 13:31:02.573163 11446 net.cpp:156] Memory required for data: 410316400
I0403 13:31:02.573180 11446 layer_factory.hpp:77] Creating layer pool1
I0403 13:31:02.573206 11446 net.cpp:91] Creating Layer pool1
I0403 13:31:02.573227 11446 net.cpp:425] pool1 <- norm1
I0403 13:31:02.573248 11446 net.cpp:399] pool1 -> pool1
I0403 13:31:02.573328 11446 net.cpp:141] Setting up pool1
I0403 13:31:02.573356 11446 net.cpp:148] Top shape: 100 96 27 27 (6998400)
I0403 13:31:02.573374 11446 net.cpp:156] Memory required for data: 438310000
I0403 13:31:02.573390 11446 layer_factory.hpp:77] Creating layer conv2
I0403 13:31:02.573421 11446 net.cpp:91] Creating Layer conv2
I0403 13:31:02.573439 11446 net.cpp:425] conv2 <- pool1
I0403 13:31:02.573460 11446 net.cpp:399] conv2 -> conv2
I0403 13:31:02.591251 11446 net.cpp:141] Setting up conv2
I0403 13:31:02.591312 11446 net.cpp:148] Top shape: 100 256 27 27 (18662400)
I0403 13:31:02.591332 11446 net.cpp:156] Memory required for data: 512959600
I0403 13:31:02.591361 11446 layer_factory.hpp:77] Creating layer relu2
I0403 13:31:02.591387 11446 net.cpp:91] Creating Layer relu2
I0403 13:31:02.591408 11446 net.cpp:425] relu2 <- conv2
I0403 13:31:02.591430 11446 net.cpp:386] relu2 -> conv2 (in-place)
I0403 13:31:02.591771 11446 net.cpp:141] Setting up relu2
I0403 13:31:02.591804 11446 net.cpp:148] Top shape: 100 256 27 27 (18662400)
I0403 13:31:02.591822 11446 net.cpp:156] Memory required for data: 587609200
I0403 13:31:02.591840 11446 layer_factory.hpp:77] Creating layer norm2
I0403 13:31:02.591869 11446 net.cpp:91] Creating Layer norm2
I0403 13:31:02.591892 11446 net.cpp:425] norm2 <- conv2
I0403 13:31:02.591915 11446 net.cpp:399] norm2 -> norm2
I0403 13:31:02.592159 11446 net.cpp:141] Setting up norm2
I0403 13:31:02.592190 11446 net.cpp:148] Top shape: 100 256 27 27 (18662400)
I0403 13:31:02.592208 11446 net.cpp:156] Memory required for data: 662258800
I0403 13:31:02.592226 11446 layer_factory.hpp:77] Creating layer pool2
I0403 13:31:02.592250 11446 net.cpp:91] Creating Layer pool2
I0403 13:31:02.592270 11446 net.cpp:425] pool2 <- norm2
I0403 13:31:02.592290 11446 net.cpp:399] pool2 -> pool2
I0403 13:31:02.592356 11446 net.cpp:141] Setting up pool2
I0403 13:31:02.592383 11446 net.cpp:148] Top shape: 100 256 13 13 (4326400)
I0403 13:31:02.592401 11446 net.cpp:156] Memory required for data: 679564400
I0403 13:31:02.592417 11446 layer_factory.hpp:77] Creating layer conv3
I0403 13:31:02.592447 11446 net.cpp:91] Creating Layer conv3
I0403 13:31:02.592468 11446 net.cpp:425] conv3 <- pool2
I0403 13:31:02.592491 11446 net.cpp:399] conv3 -> conv3
I0403 13:31:02.638265 11446 net.cpp:141] Setting up conv3
I0403 13:31:02.638350 11446 net.cpp:148] Top shape: 100 384 13 13 (6489600)
I0403 13:31:02.638370 11446 net.cpp:156] Memory required for data: 705522800
I0403 13:31:02.638401 11446 layer_factory.hpp:77] Creating layer relu3
I0403 13:31:02.638432 11446 net.cpp:91] Creating Layer relu3
I0403 13:31:02.638454 11446 net.cpp:425] relu3 <- conv3
I0403 13:31:02.638478 11446 net.cpp:386] relu3 -> conv3 (in-place)
I0403 13:31:02.638813 11446 net.cpp:141] Setting up relu3
I0403 13:31:02.638844 11446 net.cpp:148] Top shape: 100 384 13 13 (6489600)
I0403 13:31:02.638864 11446 net.cpp:156] Memory required for data: 731481200
I0403 13:31:02.638880 11446 layer_factory.hpp:77] Creating layer conv4
I0403 13:31:02.638911 11446 net.cpp:91] Creating Layer conv4
I0403 13:31:02.638932 11446 net.cpp:425] conv4 <- conv3
I0403 13:31:02.638957 11446 net.cpp:399] conv4 -> conv4
I0403 13:31:02.674299 11446 net.cpp:141] Setting up conv4
I0403 13:31:02.674373 11446 net.cpp:148] Top shape: 100 384 13 13 (6489600)
I0403 13:31:02.674430 11446 net.cpp:156] Memory required for data: 757439600
I0403 13:31:02.674456 11446 layer_factory.hpp:77] Creating layer relu4
I0403 13:31:02.674481 11446 net.cpp:91] Creating Layer relu4
I0403 13:31:02.674501 11446 net.cpp:425] relu4 <- conv4
I0403 13:31:02.674526 11446 net.cpp:386] relu4 -> conv4 (in-place)
I0403 13:31:02.674903 11446 net.cpp:141] Setting up relu4
I0403 13:31:02.674937 11446 net.cpp:148] Top shape: 100 384 13 13 (6489600)
I0403 13:31:02.674955 11446 net.cpp:156] Memory required for data: 783398000
I0403 13:31:02.674973 11446 layer_factory.hpp:77] Creating layer conv5
I0403 13:31:02.675004 11446 net.cpp:91] Creating Layer conv5
I0403 13:31:02.675024 11446 net.cpp:425] conv5 <- conv4
I0403 13:31:02.675050 11446 net.cpp:399] conv5 -> conv5
I0403 13:31:02.699465 11446 net.cpp:141] Setting up conv5
I0403 13:31:02.699533 11446 net.cpp:148] Top shape: 100 256 13 13 (4326400)
I0403 13:31:02.699553 11446 net.cpp:156] Memory required for data: 800703600
I0403 13:31:02.699587 11446 layer_factory.hpp:77] Creating layer relu5
I0403 13:31:02.699620 11446 net.cpp:91] Creating Layer relu5
I0403 13:31:02.699640 11446 net.cpp:425] relu5 <- conv5
I0403 13:31:02.699662 11446 net.cpp:386] relu5 -> conv5 (in-place)
I0403 13:31:02.699996 11446 net.cpp:141] Setting up relu5
I0403 13:31:02.700028 11446 net.cpp:148] Top shape: 100 256 13 13 (4326400)
I0403 13:31:02.700048 11446 net.cpp:156] Memory required for data: 818009200
I0403 13:31:02.700067 11446 layer_factory.hpp:77] Creating layer pool5
I0403 13:31:02.700098 11446 net.cpp:91] Creating Layer pool5
I0403 13:31:02.700119 11446 net.cpp:425] pool5 <- conv5
I0403 13:31:02.700140 11446 net.cpp:399] pool5 -> pool5
I0403 13:31:02.700213 11446 net.cpp:141] Setting up pool5
I0403 13:31:02.700240 11446 net.cpp:148] Top shape: 100 256 6 6 (921600)
I0403 13:31:02.700258 11446 net.cpp:156] Memory required for data: 821695600
I0403 13:31:02.700274 11446 layer_factory.hpp:77] Creating layer fc6
I0403 13:31:02.700307 11446 net.cpp:91] Creating Layer fc6
I0403 13:31:02.700330 11446 net.cpp:425] fc6 <- pool5
I0403 13:31:02.700351 11446 net.cpp:399] fc6 -> fc6
I0403 13:31:04.255851 11446 net.cpp:141] Setting up fc6
I0403 13:31:04.255918 11446 net.cpp:148] Top shape: 100 4096 (409600)
I0403 13:31:04.255934 11446 net.cpp:156] Memory required for data: 823334000
I0403 13:31:04.255954 11446 layer_factory.hpp:77] Creating layer relu6
I0403 13:31:04.255976 11446 net.cpp:91] Creating Layer relu6
I0403 13:31:04.255993 11446 net.cpp:425] relu6 <- fc6
I0403 13:31:04.256014 11446 net.cpp:386] relu6 -> fc6 (in-place)
I0403 13:31:04.256237 11446 net.cpp:141] Setting up relu6
I0403 13:31:04.256261 11446 net.cpp:148] Top shape: 100 4096 (409600)
I0403 13:31:04.256275 11446 net.cpp:156] Memory required for data: 824972400
I0403 13:31:04.256289 11446 layer_factory.hpp:77] Creating layer drop6
I0403 13:31:04.256309 11446 net.cpp:91] Creating Layer drop6
I0403 13:31:04.256325 11446 net.cpp:425] drop6 <- fc6
I0403 13:31:04.256342 11446 net.cpp:386] drop6 -> fc6 (in-place)
I0403 13:31:04.256391 11446 net.cpp:141] Setting up drop6
I0403 13:31:04.256415 11446 net.cpp:148] Top shape: 100 4096 (409600)
I0403 13:31:04.256429 11446 net.cpp:156] Memory required for data: 826610800
I0403 13:31:04.256443 11446 layer_factory.hpp:77] Creating layer fc7
I0403 13:31:04.256463 11446 net.cpp:91] Creating Layer fc7
I0403 13:31:04.256477 11446 net.cpp:425] fc7 <- fc6
I0403 13:31:04.256497 11446 net.cpp:399] fc7 -> fc7
I0403 13:31:04.940388 11446 net.cpp:141] Setting up fc7
I0403 13:31:04.940465 11446 net.cpp:148] Top shape: 100 4096 (409600)
I0403 13:31:04.940481 11446 net.cpp:156] Memory required for data: 828249200
I0403 13:31:04.940502 11446 layer_factory.hpp:77] Creating layer relu7
I0403 13:31:04.940526 11446 net.cpp:91] Creating Layer relu7
I0403 13:31:04.940542 11446 net.cpp:425] relu7 <- fc7
I0403 13:31:04.940563 11446 net.cpp:386] relu7 -> fc7 (in-place)
I0403 13:31:04.940986 11446 net.cpp:141] Setting up relu7
I0403 13:31:04.941012 11446 net.cpp:148] Top shape: 100 4096 (409600)
I0403 13:31:04.941059 11446 net.cpp:156] Memory required for data: 829887600
I0403 13:31:04.941074 11446 layer_factory.hpp:77] Creating layer drop7
I0403 13:31:04.941093 11446 net.cpp:91] Creating Layer drop7
I0403 13:31:04.941108 11446 net.cpp:425] drop7 <- fc7
I0403 13:31:04.941128 11446 net.cpp:386] drop7 -> fc7 (in-place)
I0403 13:31:04.941172 11446 net.cpp:141] Setting up drop7
I0403 13:31:04.941196 11446 net.cpp:148] Top shape: 100 4096 (409600)
I0403 13:31:04.941211 11446 net.cpp:156] Memory required for data: 831526000
I0403 13:31:04.941226 11446 layer_factory.hpp:77] Creating layer fc8_plantvillage
I0403 13:31:04.941244 11446 net.cpp:91] Creating Layer fc8_plantvillage
I0403 13:31:04.941261 11446 net.cpp:425] fc8_plantvillage <- fc7
I0403 13:31:04.941280 11446 net.cpp:399] fc8_plantvillage -> fc8_plantvillage
I0403 13:31:04.948053 11446 net.cpp:141] Setting up fc8_plantvillage
I0403 13:31:04.948081 11446 net.cpp:148] Top shape: 100 38 (3800)
I0403 13:31:04.948097 11446 net.cpp:156] Memory required for data: 831541200
I0403 13:31:04.948115 11446 layer_factory.hpp:77] Creating layer fc8_plantvillage_fc8_plantvillage_0_split
I0403 13:31:04.948137 11446 net.cpp:91] Creating Layer fc8_plantvillage_fc8_plantvillage_0_split
I0403 13:31:04.948153 11446 net.cpp:425] fc8_plantvillage_fc8_plantvillage_0_split <- fc8_plantvillage
I0403 13:31:04.948169 11446 net.cpp:399] fc8_plantvillage_fc8_plantvillage_0_split -> fc8_plantvillage_fc8_plantvillage_0_split_0
I0403 13:31:04.948189 11446 net.cpp:399] fc8_plantvillage_fc8_plantvillage_0_split -> fc8_plantvillage_fc8_plantvillage_0_split_1
I0403 13:31:04.948209 11446 net.cpp:399] fc8_plantvillage_fc8_plantvillage_0_split -> fc8_plantvillage_fc8_plantvillage_0_split_2
I0403 13:31:04.948299 11446 net.cpp:141] Setting up fc8_plantvillage_fc8_plantvillage_0_split
I0403 13:31:04.948323 11446 net.cpp:148] Top shape: 100 38 (3800)
I0403 13:31:04.948339 11446 net.cpp:148] Top shape: 100 38 (3800)
I0403 13:31:04.948355 11446 net.cpp:148] Top shape: 100 38 (3800)
I0403 13:31:04.948369 11446 net.cpp:156] Memory required for data: 831586800
I0403 13:31:04.948384 11446 layer_factory.hpp:77] Creating layer prob
I0403 13:31:04.948402 11446 net.cpp:91] Creating Layer prob
I0403 13:31:04.948420 11446 net.cpp:425] prob <- fc8_plantvillage_fc8_plantvillage_0_split_0
I0403 13:31:04.948437 11446 net.cpp:399] prob -> prob
I0403 13:31:04.948712 11446 net.cpp:141] Setting up prob
I0403 13:31:04.948739 11446 net.cpp:148] Top shape: 100 38 (3800)
I0403 13:31:04.948755 11446 net.cpp:156] Memory required for data: 831602000
I0403 13:31:04.948770 11446 layer_factory.hpp:77] Creating layer hdf5out
I0403 13:31:04.948789 11446 net.cpp:91] Creating Layer hdf5out
I0403 13:31:04.948806 11446 net.cpp:425] hdf5out <- prob
I0403 13:31:04.948822 11446 net.cpp:425] hdf5out <- label_data_1_split_0
I0403 13:31:04.951524 11446 net.cpp:141] Setting up hdf5out
…
