…
I0403 13:35:36.730876 11682 net.cpp:313] The NetState phase (1) differed from the phase (0) specified by a rule in layer data
I0403 13:35:36.731178 11682 net.cpp:49] Initializing net from parameters: 
state {
  phase: TEST
}
layer {
  name: "data"
  type: "Data"
  top: "data"
  top: "label"
  include {
    phase: TEST
  }
  transform_param {
    crop_size: 227
    mean_file: "/home/mohanty/data/final_dataset/lmdb/grayscale-80-20/mean.binaryproto"
  }
  data_param {
    source: "/home/mohanty/data/final_dataset/lmdb/grayscale-80-20/test_db"
    batch_size: 100
    backend: LMDB
  }
}
layer {
  name: "conv1"
  type: "Convolution"
  bottom: "data"
  top: "conv1"
  param {
    lr_mult: 1
    decay_mult: 1
  }
  param {
    lr_mult: 2
    decay_mult: 0
  }
  convolution_param {
    num_output: 96
    kernel_size: 11
    stride: 4
    weight_filler {
      type: "gaussian"
      std: 0.01
    }
    bias_filler {
      type: "constant"
      value: 0
    }
  }
}
layer {
  name: "relu1"
  type: "ReLU"
  bottom: "conv1"
  top: "conv1"
}
layer {
  name: "norm1"
  type: "LRN"
  bottom: "conv1"
  top: "norm1"
  lrn_param {
    local_size: 5
    alpha: 0.0001
    beta: 0.75
  }
}
layer {
  name: "pool1"
  type: "Pooling"
  bottom: "norm1"
  top: "pool1"
  pooling_param {
    pool: MAX
    kernel_size: 3
    stride: 2
  }
}
layer {
  name: "conv2"
  type: "Convolution"
  bottom: "pool1"
  top: "conv2"
  param {
    lr_mult: 1
    decay_mult: 1
  }
  param {
    lr_mult: 2
    decay_mult: 0
  }
  convolution_param {
    num_output: 256
    pad: 2
    kernel_size: 5
    group: 2
    weight_filler {
      type: "gaussian"
      std: 0.01
    }
    bias_filler {
      type: "constant"
      value: 0.1
    }
  }
}
layer {
  name: "relu2"
  type: "ReLU"
  bottom: "conv2"
  top: "conv2"
}
layer {
  name: "norm2"
  type: "LRN"
  bottom: "conv2"
  top: "norm2"
  lrn_param {
    local_size: 5
    alpha: 0.0001
    beta: 0.75
  }
}
layer {
  name: "pool2"
  type: "Pooling"
  bottom: "norm2"
  top: "pool2"
  pooling_param {
    pool: MAX
    kernel_size: 3
    stride: 2
  }
}
layer {
  name: "conv3"
  type: "Convolution"
  bottom: "pool2"
  top: "conv3"
  param {
    lr_mult: 1
    decay_mult: 1
  }
  param {
    lr_mult: 2
    decay_mult: 0
  }
  convolution_param {
    num_output: 384
    pad: 1
    kernel_size: 3
    weight_filler {
      type: "gaussian"
      std: 0.01
    }
    bias_filler {
      type: "constant"
      value: 0
    }
  }
}
layer {
  name: "relu3"
  type: "ReLU"
  bottom: "conv3"
  top: "conv3"
}
layer {
  name: "conv4"
  type: "Convolution"
  bottom: "conv3"
  top: "conv4"
  param {
    lr_mult: 1
    decay_mult: 1
  }
  param {
    lr_mult: 2
    decay_mult: 0
  }
  convolution_param {
    num_output: 384
    pad: 1
    kernel_size: 3
    group: 2
    weight_filler {
      type: "gaussian"
      std: 0.01
    }
    bias_filler {
      type: "constant"
      value: 0.1
    }
  }
}
layer {
  name: "relu4"
  type: "ReLU"
  bottom: "conv4"
  top: "conv4"
}
layer {
  name: "conv5"
  type: "Convolution"
  bottom: "conv4"
  top: "conv5"
  param {
    lr_mult: 1
    decay_mult: 1
  }
  param {
    lr_mult: 2
    decay_mult: 0
  }
  convolution_param {
    num_output: 256
    pad: 1
    kernel_size: 3
    group: 2
    weight_filler {
      type: "gaussian"
      std: 0.01
    }
    bias_filler {
      type: "constant"
      value: 0.1
    }
  }
}
layer {
  name: "relu5"
  type: "ReLU"
  bottom: "conv5"
  top: "conv5"
}
layer {
  name: "pool5"
  type: "Pooling"
  bottom: "conv5"
  top: "pool5"
  pooling_param {
    pool: MAX
    kernel_size: 3
    stride: 2
  }
}
layer {
  name: "fc6"
  type: "InnerProduct"
  bottom: "pool5"
  top: "fc6"
  param {
    lr_mult: 1
    decay_mult: 1
  }
  param {
    lr_mult: 2
    decay_mult: 0
  }
  inner_product_param {
    num_output: 4096
    weight_filler {
      type: "gaussian"
      std: 0.005
    }
    bias_filler {
      type: "constant"
      value: 0.1
    }
  }
}
layer {
  name: "relu6"
  type: "ReLU"
  bottom: "fc6"
  top: "fc6"
}
layer {
  name: "drop6"
  type: "Dropout"
  bottom: "fc6"
  top: "fc6"
  dropout_param {
    dropout_ratio: 0.5
  }
}
layer {
  name: "fc7"
  type: "InnerProduct"
  bottom: "fc6"
  top: "fc7"
  param {
    lr_mult: 1
    decay_mult: 1
  }
  param {
    lr_mult: 2
    decay_mult: 0
  }
  inner_product_param {
    num_output: 4096
    weight_filler {
      type: "gaussian"
      std: 0.005
    }
    bias_filler {
      type: "constant"
      value: 0.1
    }
  }
}
layer {
  name: "relu7"
  type: "ReLU"
  bottom: "fc7"
  top: "fc7"
}
layer {
  name: "drop7"
  type: "Dropout"
  bottom: "fc7"
  top: "fc7"
  dropout_param {
    dropout_ratio: 0.5
  }
}
layer {
  name: "fc8_plantvillage"
  type: "InnerProduct"
  bottom: "fc7"
  top: "fc8_plantvillage"
  param {
    lr_mult: 1
    decay_mult: 1
  }
  param {
    lr_mult: 2
    decay_mult: 0
  }
  inner_product_param {
    num_output: 38
    weight_filler {
      type: "gaussian"
      std: 0.01
    }
    bias_filler {
      type: "constant"
      value: 0
    }
  }
}
layer {
  name: "prob"
  type: "Softmax"
  bottom: "fc8_plantvillage"
  top: "prob"
  include {
    phase: TEST
  }
}
layer {
  name: "hdf5out"
  type: "HDF5Output"
  bottom: "prob"
  bottom: "label"
  include {
    phase: TEST
  }
  hdf5_output_param {
    file_name: "hdf5_dumps/iter_13080.h5"
  }
}
layer {
  name: "loss"
  type: "SoftmaxWithLoss"
  bottom: "fc8_plantvillage"
  bottom: "label"
  top: "loss"
}
layer {
  name: "accuracy"
  type: "Accuracy"
  bottom: "fc8_plantvillage"
  bottom: "label"
  top: "accuracy"
  include {
    phase: TEST
  }
}
I0403 13:35:36.731729 11682 layer_factory.hpp:77] Creating layer data
I0403 13:35:36.732365 11682 net.cpp:91] Creating Layer data
I0403 13:35:36.732398 11682 net.cpp:399] data -> data
I0403 13:35:36.732447 11682 net.cpp:399] data -> label
I0403 13:35:36.732483 11682 data_transformer.cpp:25] Loading mean file from: /home/mohanty/data/final_dataset/lmdb/grayscale-80-20/mean.binaryproto
I0403 13:35:36.735221 11687 db_lmdb.cpp:38] Opened lmdb /home/mohanty/data/final_dataset/lmdb/grayscale-80-20/test_db
I0403 13:35:36.747184 11682 data_layer.cpp:41] output data size: 100,3,227,227
I0403 13:35:36.868505 11682 net.cpp:141] Setting up data
I0403 13:35:36.868564 11682 net.cpp:148] Top shape: 100 3 227 227 (15458700)
I0403 13:35:36.868592 11682 net.cpp:148] Top shape: 100 (100)
I0403 13:35:36.868607 11682 net.cpp:156] Memory required for data: 61835200
I0403 13:35:36.868635 11682 layer_factory.hpp:77] Creating layer label_data_1_split
I0403 13:35:36.868660 11682 net.cpp:91] Creating Layer label_data_1_split
I0403 13:35:36.868680 11682 net.cpp:425] label_data_1_split <- label
I0403 13:35:36.868719 11682 net.cpp:399] label_data_1_split -> label_data_1_split_0
I0403 13:35:36.868753 11682 net.cpp:399] label_data_1_split -> label_data_1_split_1
I0403 13:35:36.868775 11682 net.cpp:399] label_data_1_split -> label_data_1_split_2
I0403 13:35:36.868840 11682 net.cpp:141] Setting up label_data_1_split
I0403 13:35:36.868865 11682 net.cpp:148] Top shape: 100 (100)
I0403 13:35:36.868881 11682 net.cpp:148] Top shape: 100 (100)
I0403 13:35:36.868898 11682 net.cpp:148] Top shape: 100 (100)
I0403 13:35:36.868912 11682 net.cpp:156] Memory required for data: 61836400
I0403 13:35:36.868927 11682 layer_factory.hpp:77] Creating layer conv1
I0403 13:35:36.868959 11682 net.cpp:91] Creating Layer conv1
I0403 13:35:36.868978 11682 net.cpp:425] conv1 <- data
I0403 13:35:36.868996 11682 net.cpp:399] conv1 -> conv1
I0403 13:35:37.013944 11682 net.cpp:141] Setting up conv1
I0403 13:35:37.014009 11682 net.cpp:148] Top shape: 100 96 55 55 (29040000)
I0403 13:35:37.014029 11682 net.cpp:156] Memory required for data: 177996400
I0403 13:35:37.014060 11682 layer_factory.hpp:77] Creating layer relu1
I0403 13:35:37.014087 11682 net.cpp:91] Creating Layer relu1
I0403 13:35:37.014106 11682 net.cpp:425] relu1 <- conv1
I0403 13:35:37.014125 11682 net.cpp:386] relu1 -> conv1 (in-place)
I0403 13:35:37.014386 11682 net.cpp:141] Setting up relu1
I0403 13:35:37.014415 11682 net.cpp:148] Top shape: 100 96 55 55 (29040000)
I0403 13:35:37.014467 11682 net.cpp:156] Memory required for data: 294156400
I0403 13:35:37.014484 11682 layer_factory.hpp:77] Creating layer norm1
I0403 13:35:37.014511 11682 net.cpp:91] Creating Layer norm1
I0403 13:35:37.014529 11682 net.cpp:425] norm1 <- conv1
I0403 13:35:37.014590 11682 net.cpp:399] norm1 -> norm1
I0403 13:35:37.014905 11682 net.cpp:141] Setting up norm1
I0403 13:35:37.014942 11682 net.cpp:148] Top shape: 100 96 55 55 (29040000)
I0403 13:35:37.014958 11682 net.cpp:156] Memory required for data: 410316400
I0403 13:35:37.014974 11682 layer_factory.hpp:77] Creating layer pool1
I0403 13:35:37.014997 11682 net.cpp:91] Creating Layer pool1
I0403 13:35:37.015014 11682 net.cpp:425] pool1 <- norm1
I0403 13:35:37.015033 11682 net.cpp:399] pool1 -> pool1
I0403 13:35:37.015100 11682 net.cpp:141] Setting up pool1
I0403 13:35:37.015123 11682 net.cpp:148] Top shape: 100 96 27 27 (6998400)
I0403 13:35:37.015139 11682 net.cpp:156] Memory required for data: 438310000
I0403 13:35:37.015154 11682 layer_factory.hpp:77] Creating layer conv2
I0403 13:35:37.015178 11682 net.cpp:91] Creating Layer conv2
I0403 13:35:37.015194 11682 net.cpp:425] conv2 <- pool1
I0403 13:35:37.015213 11682 net.cpp:399] conv2 -> conv2
I0403 13:35:37.030432 11682 net.cpp:141] Setting up conv2
I0403 13:35:37.030469 11682 net.cpp:148] Top shape: 100 256 27 27 (18662400)
I0403 13:35:37.030486 11682 net.cpp:156] Memory required for data: 512959600
I0403 13:35:37.030508 11682 layer_factory.hpp:77] Creating layer relu2
I0403 13:35:37.030529 11682 net.cpp:91] Creating Layer relu2
I0403 13:35:37.030545 11682 net.cpp:425] relu2 <- conv2
I0403 13:35:37.030562 11682 net.cpp:386] relu2 -> conv2 (in-place)
I0403 13:35:37.030854 11682 net.cpp:141] Setting up relu2
I0403 13:35:37.030881 11682 net.cpp:148] Top shape: 100 256 27 27 (18662400)
I0403 13:35:37.030896 11682 net.cpp:156] Memory required for data: 587609200
I0403 13:35:37.030912 11682 layer_factory.hpp:77] Creating layer norm2
I0403 13:35:37.030936 11682 net.cpp:91] Creating Layer norm2
I0403 13:35:37.030952 11682 net.cpp:425] norm2 <- conv2
I0403 13:35:37.030971 11682 net.cpp:399] norm2 -> norm2
I0403 13:35:37.031167 11682 net.cpp:141] Setting up norm2
I0403 13:35:37.031196 11682 net.cpp:148] Top shape: 100 256 27 27 (18662400)
I0403 13:35:37.031213 11682 net.cpp:156] Memory required for data: 662258800
I0403 13:35:37.031229 11682 layer_factory.hpp:77] Creating layer pool2
I0403 13:35:37.031246 11682 net.cpp:91] Creating Layer pool2
I0403 13:35:37.031261 11682 net.cpp:425] pool2 <- norm2
I0403 13:35:37.031281 11682 net.cpp:399] pool2 -> pool2
I0403 13:35:37.031335 11682 net.cpp:141] Setting up pool2
I0403 13:35:37.031359 11682 net.cpp:148] Top shape: 100 256 13 13 (4326400)
I0403 13:35:37.031373 11682 net.cpp:156] Memory required for data: 679564400
I0403 13:35:37.031388 11682 layer_factory.hpp:77] Creating layer conv3
I0403 13:35:37.031411 11682 net.cpp:91] Creating Layer conv3
I0403 13:35:37.031429 11682 net.cpp:425] conv3 <- pool2
I0403 13:35:37.031450 11682 net.cpp:399] conv3 -> conv3
I0403 13:35:37.074204 11682 net.cpp:141] Setting up conv3
I0403 13:35:37.074254 11682 net.cpp:148] Top shape: 100 384 13 13 (6489600)
I0403 13:35:37.074271 11682 net.cpp:156] Memory required for data: 705522800
I0403 13:35:37.074296 11682 layer_factory.hpp:77] Creating layer relu3
I0403 13:35:37.074316 11682 net.cpp:91] Creating Layer relu3
I0403 13:35:37.074334 11682 net.cpp:425] relu3 <- conv3
I0403 13:35:37.074355 11682 net.cpp:386] relu3 -> conv3 (in-place)
I0403 13:35:37.074661 11682 net.cpp:141] Setting up relu3
I0403 13:35:37.074688 11682 net.cpp:148] Top shape: 100 384 13 13 (6489600)
I0403 13:35:37.074704 11682 net.cpp:156] Memory required for data: 731481200
I0403 13:35:37.074719 11682 layer_factory.hpp:77] Creating layer conv4
I0403 13:35:37.074753 11682 net.cpp:91] Creating Layer conv4
I0403 13:35:37.074770 11682 net.cpp:425] conv4 <- conv3
I0403 13:35:37.074792 11682 net.cpp:399] conv4 -> conv4
I0403 13:35:37.105629 11682 net.cpp:141] Setting up conv4
I0403 13:35:37.105685 11682 net.cpp:148] Top shape: 100 384 13 13 (6489600)
I0403 13:35:37.105737 11682 net.cpp:156] Memory required for data: 757439600
I0403 13:35:37.105759 11682 layer_factory.hpp:77] Creating layer relu4
I0403 13:35:37.105782 11682 net.cpp:91] Creating Layer relu4
I0403 13:35:37.105798 11682 net.cpp:425] relu4 <- conv4
I0403 13:35:37.105818 11682 net.cpp:386] relu4 -> conv4 (in-place)
I0403 13:35:37.106106 11682 net.cpp:141] Setting up relu4
I0403 13:35:37.106137 11682 net.cpp:148] Top shape: 100 384 13 13 (6489600)
I0403 13:35:37.106153 11682 net.cpp:156] Memory required for data: 783398000
I0403 13:35:37.106168 11682 layer_factory.hpp:77] Creating layer conv5
I0403 13:35:37.106194 11682 net.cpp:91] Creating Layer conv5
I0403 13:35:37.106211 11682 net.cpp:425] conv5 <- conv4
I0403 13:35:37.106231 11682 net.cpp:399] conv5 -> conv5
I0403 13:35:37.127980 11682 net.cpp:141] Setting up conv5
I0403 13:35:37.128047 11682 net.cpp:148] Top shape: 100 256 13 13 (4326400)
I0403 13:35:37.128067 11682 net.cpp:156] Memory required for data: 800703600
I0403 13:35:37.128093 11682 layer_factory.hpp:77] Creating layer relu5
I0403 13:35:37.128115 11682 net.cpp:91] Creating Layer relu5
I0403 13:35:37.128134 11682 net.cpp:425] relu5 <- conv5
I0403 13:35:37.128155 11682 net.cpp:386] relu5 -> conv5 (in-place)
I0403 13:35:37.128450 11682 net.cpp:141] Setting up relu5
I0403 13:35:37.128479 11682 net.cpp:148] Top shape: 100 256 13 13 (4326400)
I0403 13:35:37.128496 11682 net.cpp:156] Memory required for data: 818009200
I0403 13:35:37.128511 11682 layer_factory.hpp:77] Creating layer pool5
I0403 13:35:37.128537 11682 net.cpp:91] Creating Layer pool5
I0403 13:35:37.128556 11682 net.cpp:425] pool5 <- conv5
I0403 13:35:37.128581 11682 net.cpp:399] pool5 -> pool5
I0403 13:35:37.128648 11682 net.cpp:141] Setting up pool5
I0403 13:35:37.128682 11682 net.cpp:148] Top shape: 100 256 6 6 (921600)
I0403 13:35:37.128697 11682 net.cpp:156] Memory required for data: 821695600
I0403 13:35:37.128712 11682 layer_factory.hpp:77] Creating layer fc6
I0403 13:35:37.128741 11682 net.cpp:91] Creating Layer fc6
I0403 13:35:37.128758 11682 net.cpp:425] fc6 <- pool5
I0403 13:35:37.128780 11682 net.cpp:399] fc6 -> fc6
I0403 13:35:38.662870 11682 net.cpp:141] Setting up fc6
I0403 13:35:38.662919 11682 net.cpp:148] Top shape: 100 4096 (409600)
I0403 13:35:38.662935 11682 net.cpp:156] Memory required for data: 823334000
I0403 13:35:38.662957 11682 layer_factory.hpp:77] Creating layer relu6
I0403 13:35:38.662979 11682 net.cpp:91] Creating Layer relu6
I0403 13:35:38.662997 11682 net.cpp:425] relu6 <- fc6
I0403 13:35:38.663017 11682 net.cpp:386] relu6 -> fc6 (in-place)
I0403 13:35:38.663238 11682 net.cpp:141] Setting up relu6
I0403 13:35:38.663264 11682 net.cpp:148] Top shape: 100 4096 (409600)
I0403 13:35:38.663280 11682 net.cpp:156] Memory required for data: 824972400
I0403 13:35:38.663297 11682 layer_factory.hpp:77] Creating layer drop6
I0403 13:35:38.663317 11682 net.cpp:91] Creating Layer drop6
I0403 13:35:38.663332 11682 net.cpp:425] drop6 <- fc6
I0403 13:35:38.663352 11682 net.cpp:386] drop6 -> fc6 (in-place)
I0403 13:35:38.663404 11682 net.cpp:141] Setting up drop6
I0403 13:35:38.663427 11682 net.cpp:148] Top shape: 100 4096 (409600)
I0403 13:35:38.663442 11682 net.cpp:156] Memory required for data: 826610800
I0403 13:35:38.663457 11682 layer_factory.hpp:77] Creating layer fc7
I0403 13:35:38.663480 11682 net.cpp:91] Creating Layer fc7
I0403 13:35:38.663496 11682 net.cpp:425] fc7 <- fc6
I0403 13:35:38.663517 11682 net.cpp:399] fc7 -> fc7
I0403 13:35:39.337262 11682 net.cpp:141] Setting up fc7
I0403 13:35:39.337328 11682 net.cpp:148] Top shape: 100 4096 (409600)
I0403 13:35:39.337344 11682 net.cpp:156] Memory required for data: 828249200
I0403 13:35:39.337364 11682 layer_factory.hpp:77] Creating layer relu7
I0403 13:35:39.337385 11682 net.cpp:91] Creating Layer relu7
I0403 13:35:39.337402 11682 net.cpp:425] relu7 <- fc7
I0403 13:35:39.337421 11682 net.cpp:386] relu7 -> fc7 (in-place)
I0403 13:35:39.337815 11682 net.cpp:141] Setting up relu7
I0403 13:35:39.337841 11682 net.cpp:148] Top shape: 100 4096 (409600)
I0403 13:35:39.337894 11682 net.cpp:156] Memory required for data: 829887600
I0403 13:35:39.337910 11682 layer_factory.hpp:77] Creating layer drop7
I0403 13:35:39.337927 11682 net.cpp:91] Creating Layer drop7
I0403 13:35:39.337942 11682 net.cpp:425] drop7 <- fc7
I0403 13:35:39.337961 11682 net.cpp:386] drop7 -> fc7 (in-place)
I0403 13:35:39.338003 11682 net.cpp:141] Setting up drop7
I0403 13:35:39.338024 11682 net.cpp:148] Top shape: 100 4096 (409600)
I0403 13:35:39.338038 11682 net.cpp:156] Memory required for data: 831526000
I0403 13:35:39.338052 11682 layer_factory.hpp:77] Creating layer fc8_plantvillage
I0403 13:35:39.338073 11682 net.cpp:91] Creating Layer fc8_plantvillage
I0403 13:35:39.338089 11682 net.cpp:425] fc8_plantvillage <- fc7
I0403 13:35:39.338109 11682 net.cpp:399] fc8_plantvillage -> fc8_plantvillage
I0403 13:35:39.344643 11682 net.cpp:141] Setting up fc8_plantvillage
I0403 13:35:39.344671 11682 net.cpp:148] Top shape: 100 38 (3800)
I0403 13:35:39.344686 11682 net.cpp:156] Memory required for data: 831541200
I0403 13:35:39.344702 11682 layer_factory.hpp:77] Creating layer fc8_plantvillage_fc8_plantvillage_0_split
I0403 13:35:39.344720 11682 net.cpp:91] Creating Layer fc8_plantvillage_fc8_plantvillage_0_split
I0403 13:35:39.344735 11682 net.cpp:425] fc8_plantvillage_fc8_plantvillage_0_split <- fc8_plantvillage
I0403 13:35:39.344754 11682 net.cpp:399] fc8_plantvillage_fc8_plantvillage_0_split -> fc8_plantvillage_fc8_plantvillage_0_split_0
I0403 13:35:39.344775 11682 net.cpp:399] fc8_plantvillage_fc8_plantvillage_0_split -> fc8_plantvillage_fc8_plantvillage_0_split_1
I0403 13:35:39.344794 11682 net.cpp:399] fc8_plantvillage_fc8_plantvillage_0_split -> fc8_plantvillage_fc8_plantvillage_0_split_2
I0403 13:35:39.344868 11682 net.cpp:141] Setting up fc8_plantvillage_fc8_plantvillage_0_split
I0403 13:35:39.344893 11682 net.cpp:148] Top shape: 100 38 (3800)
I0403 13:35:39.344909 11682 net.cpp:148] Top shape: 100 38 (3800)
I0403 13:35:39.344924 11682 net.cpp:148] Top shape: 100 38 (3800)
I0403 13:35:39.344938 11682 net.cpp:156] Memory required for data: 831586800
I0403 13:35:39.344951 11682 layer_factory.hpp:77] Creating layer prob
I0403 13:35:39.344969 11682 net.cpp:91] Creating Layer prob
I0403 13:35:39.344985 11682 net.cpp:425] prob <- fc8_plantvillage_fc8_plantvillage_0_split_0
I0403 13:35:39.345001 11682 net.cpp:399] prob -> prob
I0403 13:35:39.345214 11682 net.cpp:141] Setting up prob
I0403 13:35:39.345240 11682 net.cpp:148] Top shape: 100 38 (3800)
I0403 13:35:39.345255 11682 net.cpp:156] Memory required for data: 831602000
I0403 13:35:39.345269 11682 layer_factory.hpp:77] Creating layer hdf5out
I0403 13:35:39.345288 11682 net.cpp:91] Creating Layer hdf5out
I0403 13:35:39.345302 11682 net.cpp:425] hdf5out <- prob
I0403 13:35:39.345319 11682 net.cpp:425] hdf5out <- label_data_1_split_0
I0403 13:35:39.348592 11682 net.cpp:141] Setting up hdf5out
…
