…
I0403 13:26:22.375866 11251 net.cpp:313] The NetState phase (1) differed from the phase (0) specified by a rule in layer data
I0403 13:26:22.376168 11251 net.cpp:49] Initializing net from parameters: 
state {
  phase: TEST
}
layer {
  name: "data"
  type: "Data"
  top: "data"
  top: "label"
  include {
    phase: TEST
  }
  transform_param {
    crop_size: 227
    mean_file: "/home/mohanty/data/final_dataset/lmdb/grayscale-80-20/mean.binaryproto"
  }
  data_param {
    source: "/home/mohanty/data/final_dataset/lmdb/grayscale-80-20/test_db"
    batch_size: 100
    backend: LMDB
  }
}
layer {
  name: "conv1"
  type: "Convolution"
  bottom: "data"
  top: "conv1"
  param {
    lr_mult: 1
    decay_mult: 1
  }
  param {
    lr_mult: 2
    decay_mult: 0
  }
  convolution_param {
    num_output: 96
    kernel_size: 11
    stride: 4
    weight_filler {
      type: "gaussian"
      std: 0.01
    }
    bias_filler {
      type: "constant"
      value: 0
    }
  }
}
layer {
  name: "relu1"
  type: "ReLU"
  bottom: "conv1"
  top: "conv1"
}
layer {
  name: "norm1"
  type: "LRN"
  bottom: "conv1"
  top: "norm1"
  lrn_param {
    local_size: 5
    alpha: 0.0001
    beta: 0.75
  }
}
layer {
  name: "pool1"
  type: "Pooling"
  bottom: "norm1"
  top: "pool1"
  pooling_param {
    pool: MAX
    kernel_size: 3
    stride: 2
  }
}
layer {
  name: "conv2"
  type: "Convolution"
  bottom: "pool1"
  top: "conv2"
  param {
    lr_mult: 1
    decay_mult: 1
  }
  param {
    lr_mult: 2
    decay_mult: 0
  }
  convolution_param {
    num_output: 256
    pad: 2
    kernel_size: 5
    group: 2
    weight_filler {
      type: "gaussian"
      std: 0.01
    }
    bias_filler {
      type: "constant"
      value: 0.1
    }
  }
}
layer {
  name: "relu2"
  type: "ReLU"
  bottom: "conv2"
  top: "conv2"
}
layer {
  name: "norm2"
  type: "LRN"
  bottom: "conv2"
  top: "norm2"
  lrn_param {
    local_size: 5
    alpha: 0.0001
    beta: 0.75
  }
}
layer {
  name: "pool2"
  type: "Pooling"
  bottom: "norm2"
  top: "pool2"
  pooling_param {
    pool: MAX
    kernel_size: 3
    stride: 2
  }
}
layer {
  name: "conv3"
  type: "Convolution"
  bottom: "pool2"
  top: "conv3"
  param {
    lr_mult: 1
    decay_mult: 1
  }
  param {
    lr_mult: 2
    decay_mult: 0
  }
  convolution_param {
    num_output: 384
    pad: 1
    kernel_size: 3
    weight_filler {
      type: "gaussian"
      std: 0.01
    }
    bias_filler {
      type: "constant"
      value: 0
    }
  }
}
layer {
  name: "relu3"
  type: "ReLU"
  bottom: "conv3"
  top: "conv3"
}
layer {
  name: "conv4"
  type: "Convolution"
  bottom: "conv3"
  top: "conv4"
  param {
    lr_mult: 1
    decay_mult: 1
  }
  param {
    lr_mult: 2
    decay_mult: 0
  }
  convolution_param {
    num_output: 384
    pad: 1
    kernel_size: 3
    group: 2
    weight_filler {
      type: "gaussian"
      std: 0.01
    }
    bias_filler {
      type: "constant"
      value: 0.1
    }
  }
}
layer {
  name: "relu4"
  type: "ReLU"
  bottom: "conv4"
  top: "conv4"
}
layer {
  name: "conv5"
  type: "Convolution"
  bottom: "conv4"
  top: "conv5"
  param {
    lr_mult: 1
    decay_mult: 1
  }
  param {
    lr_mult: 2
    decay_mult: 0
  }
  convolution_param {
    num_output: 256
    pad: 1
    kernel_size: 3
    group: 2
    weight_filler {
      type: "gaussian"
      std: 0.01
    }
    bias_filler {
      type: "constant"
      value: 0.1
    }
  }
}
layer {
  name: "relu5"
  type: "ReLU"
  bottom: "conv5"
  top: "conv5"
}
layer {
  name: "pool5"
  type: "Pooling"
  bottom: "conv5"
  top: "pool5"
  pooling_param {
    pool: MAX
    kernel_size: 3
    stride: 2
  }
}
layer {
  name: "fc6"
  type: "InnerProduct"
  bottom: "pool5"
  top: "fc6"
  param {
    lr_mult: 1
    decay_mult: 1
  }
  param {
    lr_mult: 2
    decay_mult: 0
  }
  inner_product_param {
    num_output: 4096
    weight_filler {
      type: "gaussian"
      std: 0.005
    }
    bias_filler {
      type: "constant"
      value: 0.1
    }
  }
}
layer {
  name: "relu6"
  type: "ReLU"
  bottom: "fc6"
  top: "fc6"
}
layer {
  name: "drop6"
  type: "Dropout"
  bottom: "fc6"
  top: "fc6"
  dropout_param {
    dropout_ratio: 0.5
  }
}
layer {
  name: "fc7"
  type: "InnerProduct"
  bottom: "fc6"
  top: "fc7"
  param {
    lr_mult: 1
    decay_mult: 1
  }
  param {
    lr_mult: 2
    decay_mult: 0
  }
  inner_product_param {
    num_output: 4096
    weight_filler {
      type: "gaussian"
      std: 0.005
    }
    bias_filler {
      type: "constant"
      value: 0.1
    }
  }
}
layer {
  name: "relu7"
  type: "ReLU"
  bottom: "fc7"
  top: "fc7"
}
layer {
  name: "drop7"
  type: "Dropout"
  bottom: "fc7"
  top: "fc7"
  dropout_param {
    dropout_ratio: 0.5
  }
}
layer {
  name: "fc8_plantvillage"
  type: "InnerProduct"
  bottom: "fc7"
  top: "fc8_plantvillage"
  param {
    lr_mult: 1
    decay_mult: 1
  }
  param {
    lr_mult: 2
    decay_mult: 0
  }
  inner_product_param {
    num_output: 38
    weight_filler {
      type: "gaussian"
      std: 0.01
    }
    bias_filler {
      type: "constant"
      value: 0
    }
  }
}
layer {
  name: "prob"
  type: "Softmax"
  bottom: "fc8_plantvillage"
  top: "prob"
  include {
    phase: TEST
  }
}
layer {
  name: "hdf5out"
  type: "HDF5Output"
  bottom: "prob"
  bottom: "label"
  include {
    phase: TEST
  }
  hdf5_output_param {
    file_name: "hdf5_dumps/iter_3488.h5"
  }
}
layer {
  name: "loss"
  type: "SoftmaxWithLoss"
  bottom: "fc8_plantvillage"
  bottom: "label"
  top: "loss"
}
layer {
  name: "accuracy"
  type: "Accuracy"
  bottom: "fc8_plantvillage"
  bottom: "label"
  top: "accuracy"
  include {
    phase: TEST
  }
}
I0403 13:26:22.376752 11251 layer_factory.hpp:77] Creating layer data
I0403 13:26:22.377388 11251 net.cpp:91] Creating Layer data
I0403 13:26:22.377418 11251 net.cpp:399] data -> data
I0403 13:26:22.377467 11251 net.cpp:399] data -> label
I0403 13:26:22.377503 11251 data_transformer.cpp:25] Loading mean file from: /home/mohanty/data/final_dataset/lmdb/grayscale-80-20/mean.binaryproto
I0403 13:26:22.380132 11253 db_lmdb.cpp:38] Opened lmdb /home/mohanty/data/final_dataset/lmdb/grayscale-80-20/test_db
I0403 13:26:22.391672 11251 data_layer.cpp:41] output data size: 100,3,227,227
I0403 13:26:22.507573 11251 net.cpp:141] Setting up data
I0403 13:26:22.507671 11251 net.cpp:148] Top shape: 100 3 227 227 (15458700)
I0403 13:26:22.507694 11251 net.cpp:148] Top shape: 100 (100)
I0403 13:26:22.507709 11251 net.cpp:156] Memory required for data: 61835200
I0403 13:26:22.507736 11251 layer_factory.hpp:77] Creating layer label_data_1_split
I0403 13:26:22.507762 11251 net.cpp:91] Creating Layer label_data_1_split
I0403 13:26:22.507781 11251 net.cpp:425] label_data_1_split <- label
I0403 13:26:22.507812 11251 net.cpp:399] label_data_1_split -> label_data_1_split_0
I0403 13:26:22.507841 11251 net.cpp:399] label_data_1_split -> label_data_1_split_1
I0403 13:26:22.507863 11251 net.cpp:399] label_data_1_split -> label_data_1_split_2
I0403 13:26:22.507926 11251 net.cpp:141] Setting up label_data_1_split
I0403 13:26:22.507949 11251 net.cpp:148] Top shape: 100 (100)
I0403 13:26:22.507966 11251 net.cpp:148] Top shape: 100 (100)
I0403 13:26:22.507980 11251 net.cpp:148] Top shape: 100 (100)
I0403 13:26:22.507994 11251 net.cpp:156] Memory required for data: 61836400
I0403 13:26:22.508009 11251 layer_factory.hpp:77] Creating layer conv1
I0403 13:26:22.508041 11251 net.cpp:91] Creating Layer conv1
I0403 13:26:22.508060 11251 net.cpp:425] conv1 <- data
I0403 13:26:22.508080 11251 net.cpp:399] conv1 -> conv1
I0403 13:26:22.647209 11251 net.cpp:141] Setting up conv1
I0403 13:26:22.647287 11251 net.cpp:148] Top shape: 100 96 55 55 (29040000)
I0403 13:26:22.647305 11251 net.cpp:156] Memory required for data: 177996400
I0403 13:26:22.647336 11251 layer_factory.hpp:77] Creating layer relu1
I0403 13:26:22.647363 11251 net.cpp:91] Creating Layer relu1
I0403 13:26:22.647382 11251 net.cpp:425] relu1 <- conv1
I0403 13:26:22.647400 11251 net.cpp:386] relu1 -> conv1 (in-place)
I0403 13:26:22.647667 11251 net.cpp:141] Setting up relu1
I0403 13:26:22.647696 11251 net.cpp:148] Top shape: 100 96 55 55 (29040000)
I0403 13:26:22.647750 11251 net.cpp:156] Memory required for data: 294156400
I0403 13:26:22.647768 11251 layer_factory.hpp:77] Creating layer norm1
I0403 13:26:22.647794 11251 net.cpp:91] Creating Layer norm1
I0403 13:26:22.647812 11251 net.cpp:425] norm1 <- conv1
I0403 13:26:22.647830 11251 net.cpp:399] norm1 -> norm1
I0403 13:26:22.648140 11251 net.cpp:141] Setting up norm1
I0403 13:26:22.648167 11251 net.cpp:148] Top shape: 100 96 55 55 (29040000)
I0403 13:26:22.648182 11251 net.cpp:156] Memory required for data: 410316400
I0403 13:26:22.648198 11251 layer_factory.hpp:77] Creating layer pool1
I0403 13:26:22.648221 11251 net.cpp:91] Creating Layer pool1
I0403 13:26:22.648237 11251 net.cpp:425] pool1 <- norm1
I0403 13:26:22.648255 11251 net.cpp:399] pool1 -> pool1
I0403 13:26:22.648322 11251 net.cpp:141] Setting up pool1
I0403 13:26:22.648345 11251 net.cpp:148] Top shape: 100 96 27 27 (6998400)
I0403 13:26:22.648361 11251 net.cpp:156] Memory required for data: 438310000
I0403 13:26:22.648376 11251 layer_factory.hpp:77] Creating layer conv2
I0403 13:26:22.648401 11251 net.cpp:91] Creating Layer conv2
I0403 13:26:22.648417 11251 net.cpp:425] conv2 <- pool1
I0403 13:26:22.648437 11251 net.cpp:399] conv2 -> conv2
I0403 13:26:22.663914 11251 net.cpp:141] Setting up conv2
I0403 13:26:22.663951 11251 net.cpp:148] Top shape: 100 256 27 27 (18662400)
I0403 13:26:22.663975 11251 net.cpp:156] Memory required for data: 512959600
I0403 13:26:22.663996 11251 layer_factory.hpp:77] Creating layer relu2
I0403 13:26:22.664016 11251 net.cpp:91] Creating Layer relu2
I0403 13:26:22.664031 11251 net.cpp:425] relu2 <- conv2
I0403 13:26:22.664049 11251 net.cpp:386] relu2 -> conv2 (in-place)
I0403 13:26:22.664331 11251 net.cpp:141] Setting up relu2
I0403 13:26:22.664361 11251 net.cpp:148] Top shape: 100 256 27 27 (18662400)
I0403 13:26:22.664377 11251 net.cpp:156] Memory required for data: 587609200
I0403 13:26:22.664392 11251 layer_factory.hpp:77] Creating layer norm2
I0403 13:26:22.664412 11251 net.cpp:91] Creating Layer norm2
I0403 13:26:22.664428 11251 net.cpp:425] norm2 <- conv2
I0403 13:26:22.664448 11251 net.cpp:399] norm2 -> norm2
I0403 13:26:22.664661 11251 net.cpp:141] Setting up norm2
I0403 13:26:22.664687 11251 net.cpp:148] Top shape: 100 256 27 27 (18662400)
I0403 13:26:22.664703 11251 net.cpp:156] Memory required for data: 662258800
I0403 13:26:22.664718 11251 layer_factory.hpp:77] Creating layer pool2
I0403 13:26:22.664738 11251 net.cpp:91] Creating Layer pool2
I0403 13:26:22.664755 11251 net.cpp:425] pool2 <- norm2
I0403 13:26:22.664772 11251 net.cpp:399] pool2 -> pool2
I0403 13:26:22.664875 11251 net.cpp:141] Setting up pool2
I0403 13:26:22.664901 11251 net.cpp:148] Top shape: 100 256 13 13 (4326400)
I0403 13:26:22.664916 11251 net.cpp:156] Memory required for data: 679564400
I0403 13:26:22.664932 11251 layer_factory.hpp:77] Creating layer conv3
I0403 13:26:22.664958 11251 net.cpp:91] Creating Layer conv3
I0403 13:26:22.664976 11251 net.cpp:425] conv3 <- pool2
I0403 13:26:22.664999 11251 net.cpp:399] conv3 -> conv3
I0403 13:26:22.708010 11251 net.cpp:141] Setting up conv3
I0403 13:26:22.708070 11251 net.cpp:148] Top shape: 100 384 13 13 (6489600)
I0403 13:26:22.708086 11251 net.cpp:156] Memory required for data: 705522800
I0403 13:26:22.708111 11251 layer_factory.hpp:77] Creating layer relu3
I0403 13:26:22.708133 11251 net.cpp:91] Creating Layer relu3
I0403 13:26:22.708151 11251 net.cpp:425] relu3 <- conv3
I0403 13:26:22.708169 11251 net.cpp:386] relu3 -> conv3 (in-place)
I0403 13:26:22.708439 11251 net.cpp:141] Setting up relu3
I0403 13:26:22.708466 11251 net.cpp:148] Top shape: 100 384 13 13 (6489600)
I0403 13:26:22.708480 11251 net.cpp:156] Memory required for data: 731481200
I0403 13:26:22.708495 11251 layer_factory.hpp:77] Creating layer conv4
I0403 13:26:22.708520 11251 net.cpp:91] Creating Layer conv4
I0403 13:26:22.708537 11251 net.cpp:425] conv4 <- conv3
I0403 13:26:22.708556 11251 net.cpp:399] conv4 -> conv4
I0403 13:26:22.738307 11251 net.cpp:141] Setting up conv4
I0403 13:26:22.738354 11251 net.cpp:148] Top shape: 100 384 13 13 (6489600)
I0403 13:26:22.738404 11251 net.cpp:156] Memory required for data: 757439600
I0403 13:26:22.738423 11251 layer_factory.hpp:77] Creating layer relu4
I0403 13:26:22.738446 11251 net.cpp:91] Creating Layer relu4
I0403 13:26:22.738463 11251 net.cpp:425] relu4 <- conv4
I0403 13:26:22.738481 11251 net.cpp:386] relu4 -> conv4 (in-place)
I0403 13:26:22.738808 11251 net.cpp:141] Setting up relu4
I0403 13:26:22.738836 11251 net.cpp:148] Top shape: 100 384 13 13 (6489600)
I0403 13:26:22.738849 11251 net.cpp:156] Memory required for data: 783398000
I0403 13:26:22.738864 11251 layer_factory.hpp:77] Creating layer conv5
I0403 13:26:22.738893 11251 net.cpp:91] Creating Layer conv5
I0403 13:26:22.738909 11251 net.cpp:425] conv5 <- conv4
I0403 13:26:22.738931 11251 net.cpp:399] conv5 -> conv5
I0403 13:26:22.759254 11251 net.cpp:141] Setting up conv5
I0403 13:26:22.759289 11251 net.cpp:148] Top shape: 100 256 13 13 (4326400)
I0403 13:26:22.759306 11251 net.cpp:156] Memory required for data: 800703600
I0403 13:26:22.759332 11251 layer_factory.hpp:77] Creating layer relu5
I0403 13:26:22.759353 11251 net.cpp:91] Creating Layer relu5
I0403 13:26:22.759371 11251 net.cpp:425] relu5 <- conv5
I0403 13:26:22.759387 11251 net.cpp:386] relu5 -> conv5 (in-place)
I0403 13:26:22.759666 11251 net.cpp:141] Setting up relu5
I0403 13:26:22.759696 11251 net.cpp:148] Top shape: 100 256 13 13 (4326400)
I0403 13:26:22.759711 11251 net.cpp:156] Memory required for data: 818009200
I0403 13:26:22.759726 11251 layer_factory.hpp:77] Creating layer pool5
I0403 13:26:22.759747 11251 net.cpp:91] Creating Layer pool5
I0403 13:26:22.759763 11251 net.cpp:425] pool5 <- conv5
I0403 13:26:22.759783 11251 net.cpp:399] pool5 -> pool5
I0403 13:26:22.759842 11251 net.cpp:141] Setting up pool5
I0403 13:26:22.759865 11251 net.cpp:148] Top shape: 100 256 6 6 (921600)
I0403 13:26:22.759881 11251 net.cpp:156] Memory required for data: 821695600
I0403 13:26:22.759896 11251 layer_factory.hpp:77] Creating layer fc6
I0403 13:26:22.759922 11251 net.cpp:91] Creating Layer fc6
I0403 13:26:22.759940 11251 net.cpp:425] fc6 <- pool5
I0403 13:26:22.759960 11251 net.cpp:399] fc6 -> fc6
I0403 13:26:24.349704 11251 net.cpp:141] Setting up fc6
I0403 13:26:24.349781 11251 net.cpp:148] Top shape: 100 4096 (409600)
I0403 13:26:24.349798 11251 net.cpp:156] Memory required for data: 823334000
I0403 13:26:24.349819 11251 layer_factory.hpp:77] Creating layer relu6
I0403 13:26:24.349843 11251 net.cpp:91] Creating Layer relu6
I0403 13:26:24.349860 11251 net.cpp:425] relu6 <- fc6
I0403 13:26:24.349882 11251 net.cpp:386] relu6 -> fc6 (in-place)
I0403 13:26:24.350113 11251 net.cpp:141] Setting up relu6
I0403 13:26:24.350138 11251 net.cpp:148] Top shape: 100 4096 (409600)
I0403 13:26:24.350157 11251 net.cpp:156] Memory required for data: 824972400
I0403 13:26:24.350170 11251 layer_factory.hpp:77] Creating layer drop6
I0403 13:26:24.350189 11251 net.cpp:91] Creating Layer drop6
I0403 13:26:24.350205 11251 net.cpp:425] drop6 <- fc6
I0403 13:26:24.350222 11251 net.cpp:386] drop6 -> fc6 (in-place)
I0403 13:26:24.350276 11251 net.cpp:141] Setting up drop6
I0403 13:26:24.350299 11251 net.cpp:148] Top shape: 100 4096 (409600)
I0403 13:26:24.350314 11251 net.cpp:156] Memory required for data: 826610800
I0403 13:26:24.350328 11251 layer_factory.hpp:77] Creating layer fc7
I0403 13:26:24.350360 11251 net.cpp:91] Creating Layer fc7
I0403 13:26:24.350378 11251 net.cpp:425] fc7 <- fc6
I0403 13:26:24.350395 11251 net.cpp:399] fc7 -> fc7
I0403 13:26:25.050938 11251 net.cpp:141] Setting up fc7
I0403 13:26:25.051013 11251 net.cpp:148] Top shape: 100 4096 (409600)
I0403 13:26:25.051029 11251 net.cpp:156] Memory required for data: 828249200
I0403 13:26:25.051049 11251 layer_factory.hpp:77] Creating layer relu7
I0403 13:26:25.051072 11251 net.cpp:91] Creating Layer relu7
I0403 13:26:25.051090 11251 net.cpp:425] relu7 <- fc7
I0403 13:26:25.051110 11251 net.cpp:386] relu7 -> fc7 (in-place)
I0403 13:26:25.051528 11251 net.cpp:141] Setting up relu7
I0403 13:26:25.051554 11251 net.cpp:148] Top shape: 100 4096 (409600)
I0403 13:26:25.051612 11251 net.cpp:156] Memory required for data: 829887600
I0403 13:26:25.051630 11251 layer_factory.hpp:77] Creating layer drop7
I0403 13:26:25.051650 11251 net.cpp:91] Creating Layer drop7
I0403 13:26:25.051666 11251 net.cpp:425] drop7 <- fc7
I0403 13:26:25.051683 11251 net.cpp:386] drop7 -> fc7 (in-place)
I0403 13:26:25.051729 11251 net.cpp:141] Setting up drop7
I0403 13:26:25.051751 11251 net.cpp:148] Top shape: 100 4096 (409600)
I0403 13:26:25.051766 11251 net.cpp:156] Memory required for data: 831526000
I0403 13:26:25.051780 11251 layer_factory.hpp:77] Creating layer fc8_plantvillage
I0403 13:26:25.051798 11251 net.cpp:91] Creating Layer fc8_plantvillage
I0403 13:26:25.051815 11251 net.cpp:425] fc8_plantvillage <- fc7
I0403 13:26:25.051834 11251 net.cpp:399] fc8_plantvillage -> fc8_plantvillage
I0403 13:26:25.058560 11251 net.cpp:141] Setting up fc8_plantvillage
I0403 13:26:25.058593 11251 net.cpp:148] Top shape: 100 38 (3800)
I0403 13:26:25.058614 11251 net.cpp:156] Memory required for data: 831541200
I0403 13:26:25.058632 11251 layer_factory.hpp:77] Creating layer fc8_plantvillage_fc8_plantvillage_0_split
I0403 13:26:25.058650 11251 net.cpp:91] Creating Layer fc8_plantvillage_fc8_plantvillage_0_split
I0403 13:26:25.058665 11251 net.cpp:425] fc8_plantvillage_fc8_plantvillage_0_split <- fc8_plantvillage
I0403 13:26:25.058681 11251 net.cpp:399] fc8_plantvillage_fc8_plantvillage_0_split -> fc8_plantvillage_fc8_plantvillage_0_split_0
I0403 13:26:25.058701 11251 net.cpp:399] fc8_plantvillage_fc8_plantvillage_0_split -> fc8_plantvillage_fc8_plantvillage_0_split_1
I0403 13:26:25.058724 11251 net.cpp:399] fc8_plantvillage_fc8_plantvillage_0_split -> fc8_plantvillage_fc8_plantvillage_0_split_2
I0403 13:26:25.058804 11251 net.cpp:141] Setting up fc8_plantvillage_fc8_plantvillage_0_split
I0403 13:26:25.058827 11251 net.cpp:148] Top shape: 100 38 (3800)
I0403 13:26:25.058842 11251 net.cpp:148] Top shape: 100 38 (3800)
I0403 13:26:25.058857 11251 net.cpp:148] Top shape: 100 38 (3800)
I0403 13:26:25.058871 11251 net.cpp:156] Memory required for data: 831586800
I0403 13:26:25.058886 11251 layer_factory.hpp:77] Creating layer prob
I0403 13:26:25.058904 11251 net.cpp:91] Creating Layer prob
I0403 13:26:25.058919 11251 net.cpp:425] prob <- fc8_plantvillage_fc8_plantvillage_0_split_0
I0403 13:26:25.058936 11251 net.cpp:399] prob -> prob
I0403 13:26:25.059164 11251 net.cpp:141] Setting up prob
I0403 13:26:25.059188 11251 net.cpp:148] Top shape: 100 38 (3800)
I0403 13:26:25.059202 11251 net.cpp:156] Memory required for data: 831602000
I0403 13:26:25.059217 11251 layer_factory.hpp:77] Creating layer hdf5out
I0403 13:26:25.059238 11251 net.cpp:91] Creating Layer hdf5out
I0403 13:26:25.059254 11251 net.cpp:425] hdf5out <- prob
I0403 13:26:25.059272 11251 net.cpp:425] hdf5out <- label_data_1_split_0
I0403 13:26:25.061713 11251 net.cpp:141] Setting up hdf5out
…
