…
I0403 13:31:27.327425 11539 net.cpp:313] The NetState phase (1) differed from the phase (0) specified by a rule in layer data
I0403 13:31:27.327759 11539 net.cpp:49] Initializing net from parameters: 
state {
  phase: TEST
}
layer {
  name: "data"
  type: "Data"
  top: "data"
  top: "label"
  include {
    phase: TEST
  }
  transform_param {
    crop_size: 227
    mean_file: "/home/mohanty/data/final_dataset/lmdb/grayscale-80-20/mean.binaryproto"
  }
  data_param {
    source: "/home/mohanty/data/final_dataset/lmdb/grayscale-80-20/test_db"
    batch_size: 100
    backend: LMDB
  }
}
layer {
  name: "conv1"
  type: "Convolution"
  bottom: "data"
  top: "conv1"
  param {
    lr_mult: 1
    decay_mult: 1
  }
  param {
    lr_mult: 2
    decay_mult: 0
  }
  convolution_param {
    num_output: 96
    kernel_size: 11
    stride: 4
    weight_filler {
      type: "gaussian"
      std: 0.01
    }
    bias_filler {
      type: "constant"
      value: 0
    }
  }
}
layer {
  name: "relu1"
  type: "ReLU"
  bottom: "conv1"
  top: "conv1"
}
layer {
  name: "norm1"
  type: "LRN"
  bottom: "conv1"
  top: "norm1"
  lrn_param {
    local_size: 5
    alpha: 0.0001
    beta: 0.75
  }
}
layer {
  name: "pool1"
  type: "Pooling"
  bottom: "norm1"
  top: "pool1"
  pooling_param {
    pool: MAX
    kernel_size: 3
    stride: 2
  }
}
layer {
  name: "conv2"
  type: "Convolution"
  bottom: "pool1"
  top: "conv2"
  param {
    lr_mult: 1
    decay_mult: 1
  }
  param {
    lr_mult: 2
    decay_mult: 0
  }
  convolution_param {
    num_output: 256
    pad: 2
    kernel_size: 5
    group: 2
    weight_filler {
      type: "gaussian"
      std: 0.01
    }
    bias_filler {
      type: "constant"
      value: 0.1
    }
  }
}
layer {
  name: "relu2"
  type: "ReLU"
  bottom: "conv2"
  top: "conv2"
}
layer {
  name: "norm2"
  type: "LRN"
  bottom: "conv2"
  top: "norm2"
  lrn_param {
    local_size: 5
    alpha: 0.0001
    beta: 0.75
  }
}
layer {
  name: "pool2"
  type: "Pooling"
  bottom: "norm2"
  top: "pool2"
  pooling_param {
    pool: MAX
    kernel_size: 3
    stride: 2
  }
}
layer {
  name: "conv3"
  type: "Convolution"
  bottom: "pool2"
  top: "conv3"
  param {
    lr_mult: 1
    decay_mult: 1
  }
  param {
    lr_mult: 2
    decay_mult: 0
  }
  convolution_param {
    num_output: 384
    pad: 1
    kernel_size: 3
    weight_filler {
      type: "gaussian"
      std: 0.01
    }
    bias_filler {
      type: "constant"
      value: 0
    }
  }
}
layer {
  name: "relu3"
  type: "ReLU"
  bottom: "conv3"
  top: "conv3"
}
layer {
  name: "conv4"
  type: "Convolution"
  bottom: "conv3"
  top: "conv4"
  param {
    lr_mult: 1
    decay_mult: 1
  }
  param {
    lr_mult: 2
    decay_mult: 0
  }
  convolution_param {
    num_output: 384
    pad: 1
    kernel_size: 3
    group: 2
    weight_filler {
      type: "gaussian"
      std: 0.01
    }
    bias_filler {
      type: "constant"
      value: 0.1
    }
  }
}
layer {
  name: "relu4"
  type: "ReLU"
  bottom: "conv4"
  top: "conv4"
}
layer {
  name: "conv5"
  type: "Convolution"
  bottom: "conv4"
  top: "conv5"
  param {
    lr_mult: 1
    decay_mult: 1
  }
  param {
    lr_mult: 2
    decay_mult: 0
  }
  convolution_param {
    num_output: 256
    pad: 1
    kernel_size: 3
    group: 2
    weight_filler {
      type: "gaussian"
      std: 0.01
    }
    bias_filler {
      type: "constant"
      value: 0.1
    }
  }
}
layer {
  name: "relu5"
  type: "ReLU"
  bottom: "conv5"
  top: "conv5"
}
layer {
  name: "pool5"
  type: "Pooling"
  bottom: "conv5"
  top: "pool5"
  pooling_param {
    pool: MAX
    kernel_size: 3
    stride: 2
  }
}
layer {
  name: "fc6"
  type: "InnerProduct"
  bottom: "pool5"
  top: "fc6"
  param {
    lr_mult: 1
    decay_mult: 1
  }
  param {
    lr_mult: 2
    decay_mult: 0
  }
  inner_product_param {
    num_output: 4096
    weight_filler {
      type: "gaussian"
      std: 0.005
    }
    bias_filler {
      type: "constant"
      value: 0.1
    }
  }
}
layer {
  name: "relu6"
  type: "ReLU"
  bottom: "fc6"
  top: "fc6"
}
layer {
  name: "drop6"
  type: "Dropout"
  bottom: "fc6"
  top: "fc6"
  dropout_param {
    dropout_ratio: 0.5
  }
}
layer {
  name: "fc7"
  type: "InnerProduct"
  bottom: "fc6"
  top: "fc7"
  param {
    lr_mult: 1
    decay_mult: 1
  }
  param {
    lr_mult: 2
    decay_mult: 0
  }
  inner_product_param {
    num_output: 4096
    weight_filler {
      type: "gaussian"
      std: 0.005
    }
    bias_filler {
      type: "constant"
      value: 0.1
    }
  }
}
layer {
  name: "relu7"
  type: "ReLU"
  bottom: "fc7"
  top: "fc7"
}
layer {
  name: "drop7"
  type: "Dropout"
  bottom: "fc7"
  top: "fc7"
  dropout_param {
    dropout_ratio: 0.5
  }
}
layer {
  name: "fc8_plantvillage"
  type: "InnerProduct"
  bottom: "fc7"
  top: "fc8_plantvillage"
  param {
    lr_mult: 1
    decay_mult: 1
  }
  param {
    lr_mult: 2
    decay_mult: 0
  }
  inner_product_param {
    num_output: 38
    weight_filler {
      type: "gaussian"
      std: 0.01
    }
    bias_filler {
      type: "constant"
      value: 0
    }
  }
}
layer {
  name: "prob"
  type: "Softmax"
  bottom: "fc8_plantvillage"
  top: "prob"
  include {
    phase: TEST
  }
}
layer {
  name: "hdf5out"
  type: "HDF5Output"
  bottom: "prob"
  bottom: "label"
  include {
    phase: TEST
  }
  hdf5_output_param {
    file_name: "hdf5_dumps/iter_8720.h5"
  }
}
layer {
  name: "loss"
  type: "SoftmaxWithLoss"
  bottom: "fc8_plantvillage"
  bottom: "label"
  top: "loss"
}
layer {
  name: "accuracy"
  type: "Accuracy"
  bottom: "fc8_plantvillage"
  bottom: "label"
  top: "accuracy"
  include {
    phase: TEST
  }
}
I0403 13:31:27.328981 11539 layer_factory.hpp:77] Creating layer data
I0403 13:31:27.330564 11539 net.cpp:91] Creating Layer data
I0403 13:31:27.330653 11539 net.cpp:399] data -> data
I0403 13:31:27.330770 11539 net.cpp:399] data -> label
I0403 13:31:27.330858 11539 data_transformer.cpp:25] Loading mean file from: /home/mohanty/data/final_dataset/lmdb/grayscale-80-20/mean.binaryproto
I0403 13:31:27.335382 11542 db_lmdb.cpp:38] Opened lmdb /home/mohanty/data/final_dataset/lmdb/grayscale-80-20/test_db
I0403 13:31:27.352962 11539 data_layer.cpp:41] output data size: 100,3,227,227
I0403 13:31:27.469552 11539 net.cpp:141] Setting up data
I0403 13:31:27.469647 11539 net.cpp:148] Top shape: 100 3 227 227 (15458700)
I0403 13:31:27.469669 11539 net.cpp:148] Top shape: 100 (100)
I0403 13:31:27.469684 11539 net.cpp:156] Memory required for data: 61835200
I0403 13:31:27.469709 11539 layer_factory.hpp:77] Creating layer label_data_1_split
I0403 13:31:27.469734 11539 net.cpp:91] Creating Layer label_data_1_split
I0403 13:31:27.469750 11539 net.cpp:425] label_data_1_split <- label
I0403 13:31:27.469781 11539 net.cpp:399] label_data_1_split -> label_data_1_split_0
I0403 13:31:27.469807 11539 net.cpp:399] label_data_1_split -> label_data_1_split_1
I0403 13:31:27.469826 11539 net.cpp:399] label_data_1_split -> label_data_1_split_2
I0403 13:31:27.469885 11539 net.cpp:141] Setting up label_data_1_split
I0403 13:31:27.469907 11539 net.cpp:148] Top shape: 100 (100)
I0403 13:31:27.469923 11539 net.cpp:148] Top shape: 100 (100)
I0403 13:31:27.469938 11539 net.cpp:148] Top shape: 100 (100)
I0403 13:31:27.469951 11539 net.cpp:156] Memory required for data: 61836400
I0403 13:31:27.469965 11539 layer_factory.hpp:77] Creating layer conv1
I0403 13:31:27.469995 11539 net.cpp:91] Creating Layer conv1
I0403 13:31:27.470012 11539 net.cpp:425] conv1 <- data
I0403 13:31:27.470031 11539 net.cpp:399] conv1 -> conv1
I0403 13:31:27.606655 11539 net.cpp:141] Setting up conv1
I0403 13:31:27.606729 11539 net.cpp:148] Top shape: 100 96 55 55 (29040000)
I0403 13:31:27.606745 11539 net.cpp:156] Memory required for data: 177996400
I0403 13:31:27.606775 11539 layer_factory.hpp:77] Creating layer relu1
I0403 13:31:27.606801 11539 net.cpp:91] Creating Layer relu1
I0403 13:31:27.606819 11539 net.cpp:425] relu1 <- conv1
I0403 13:31:27.606838 11539 net.cpp:386] relu1 -> conv1 (in-place)
I0403 13:31:27.607084 11539 net.cpp:141] Setting up relu1
I0403 13:31:27.607110 11539 net.cpp:148] Top shape: 100 96 55 55 (29040000)
I0403 13:31:27.607156 11539 net.cpp:156] Memory required for data: 294156400
I0403 13:31:27.607172 11539 layer_factory.hpp:77] Creating layer norm1
I0403 13:31:27.607197 11539 net.cpp:91] Creating Layer norm1
I0403 13:31:27.607214 11539 net.cpp:425] norm1 <- conv1
I0403 13:31:27.607231 11539 net.cpp:399] norm1 -> norm1
I0403 13:31:27.607594 11539 net.cpp:141] Setting up norm1
I0403 13:31:27.607620 11539 net.cpp:148] Top shape: 100 96 55 55 (29040000)
I0403 13:31:27.607635 11539 net.cpp:156] Memory required for data: 410316400
I0403 13:31:27.607647 11539 layer_factory.hpp:77] Creating layer pool1
I0403 13:31:27.607671 11539 net.cpp:91] Creating Layer pool1
I0403 13:31:27.607686 11539 net.cpp:425] pool1 <- norm1
I0403 13:31:27.607702 11539 net.cpp:399] pool1 -> pool1
I0403 13:31:27.607766 11539 net.cpp:141] Setting up pool1
I0403 13:31:27.607789 11539 net.cpp:148] Top shape: 100 96 27 27 (6998400)
I0403 13:31:27.607802 11539 net.cpp:156] Memory required for data: 438310000
I0403 13:31:27.607815 11539 layer_factory.hpp:77] Creating layer conv2
I0403 13:31:27.607838 11539 net.cpp:91] Creating Layer conv2
I0403 13:31:27.607854 11539 net.cpp:425] conv2 <- pool1
I0403 13:31:27.607872 11539 net.cpp:399] conv2 -> conv2
I0403 13:31:27.622040 11539 net.cpp:141] Setting up conv2
I0403 13:31:27.622072 11539 net.cpp:148] Top shape: 100 256 27 27 (18662400)
I0403 13:31:27.622088 11539 net.cpp:156] Memory required for data: 512959600
I0403 13:31:27.622108 11539 layer_factory.hpp:77] Creating layer relu2
I0403 13:31:27.622126 11539 net.cpp:91] Creating Layer relu2
I0403 13:31:27.622141 11539 net.cpp:425] relu2 <- conv2
I0403 13:31:27.622158 11539 net.cpp:386] relu2 -> conv2 (in-place)
I0403 13:31:27.622417 11539 net.cpp:141] Setting up relu2
I0403 13:31:27.622443 11539 net.cpp:148] Top shape: 100 256 27 27 (18662400)
I0403 13:31:27.622457 11539 net.cpp:156] Memory required for data: 587609200
I0403 13:31:27.622472 11539 layer_factory.hpp:77] Creating layer norm2
I0403 13:31:27.622493 11539 net.cpp:91] Creating Layer norm2
I0403 13:31:27.622509 11539 net.cpp:425] norm2 <- conv2
I0403 13:31:27.622525 11539 net.cpp:399] norm2 -> norm2
I0403 13:31:27.622717 11539 net.cpp:141] Setting up norm2
I0403 13:31:27.622742 11539 net.cpp:148] Top shape: 100 256 27 27 (18662400)
I0403 13:31:27.622756 11539 net.cpp:156] Memory required for data: 662258800
I0403 13:31:27.622771 11539 layer_factory.hpp:77] Creating layer pool2
I0403 13:31:27.622786 11539 net.cpp:91] Creating Layer pool2
I0403 13:31:27.622800 11539 net.cpp:425] pool2 <- norm2
I0403 13:31:27.622818 11539 net.cpp:399] pool2 -> pool2
I0403 13:31:27.622869 11539 net.cpp:141] Setting up pool2
I0403 13:31:27.622890 11539 net.cpp:148] Top shape: 100 256 13 13 (4326400)
I0403 13:31:27.622903 11539 net.cpp:156] Memory required for data: 679564400
I0403 13:31:27.622917 11539 layer_factory.hpp:77] Creating layer conv3
I0403 13:31:27.622941 11539 net.cpp:91] Creating Layer conv3
I0403 13:31:27.622956 11539 net.cpp:425] conv3 <- pool2
I0403 13:31:27.622972 11539 net.cpp:399] conv3 -> conv3
I0403 13:31:27.661322 11539 net.cpp:141] Setting up conv3
I0403 13:31:27.661370 11539 net.cpp:148] Top shape: 100 384 13 13 (6489600)
I0403 13:31:27.661387 11539 net.cpp:156] Memory required for data: 705522800
I0403 13:31:27.661408 11539 layer_factory.hpp:77] Creating layer relu3
I0403 13:31:27.661427 11539 net.cpp:91] Creating Layer relu3
I0403 13:31:27.661442 11539 net.cpp:425] relu3 <- conv3
I0403 13:31:27.661463 11539 net.cpp:386] relu3 -> conv3 (in-place)
I0403 13:31:27.661731 11539 net.cpp:141] Setting up relu3
I0403 13:31:27.661756 11539 net.cpp:148] Top shape: 100 384 13 13 (6489600)
I0403 13:31:27.661770 11539 net.cpp:156] Memory required for data: 731481200
I0403 13:31:27.661784 11539 layer_factory.hpp:77] Creating layer conv4
I0403 13:31:27.661806 11539 net.cpp:91] Creating Layer conv4
I0403 13:31:27.661823 11539 net.cpp:425] conv4 <- conv3
I0403 13:31:27.661842 11539 net.cpp:399] conv4 -> conv4
I0403 13:31:27.690346 11539 net.cpp:141] Setting up conv4
I0403 13:31:27.690387 11539 net.cpp:148] Top shape: 100 384 13 13 (6489600)
I0403 13:31:27.690434 11539 net.cpp:156] Memory required for data: 757439600
I0403 13:31:27.690454 11539 layer_factory.hpp:77] Creating layer relu4
I0403 13:31:27.690472 11539 net.cpp:91] Creating Layer relu4
I0403 13:31:27.690487 11539 net.cpp:425] relu4 <- conv4
I0403 13:31:27.690507 11539 net.cpp:386] relu4 -> conv4 (in-place)
I0403 13:31:27.690778 11539 net.cpp:141] Setting up relu4
I0403 13:31:27.690806 11539 net.cpp:148] Top shape: 100 384 13 13 (6489600)
I0403 13:31:27.690821 11539 net.cpp:156] Memory required for data: 783398000
I0403 13:31:27.690836 11539 layer_factory.hpp:77] Creating layer conv5
I0403 13:31:27.690860 11539 net.cpp:91] Creating Layer conv5
I0403 13:31:27.690877 11539 net.cpp:425] conv5 <- conv4
I0403 13:31:27.690917 11539 net.cpp:399] conv5 -> conv5
I0403 13:31:27.710467 11539 net.cpp:141] Setting up conv5
I0403 13:31:27.710501 11539 net.cpp:148] Top shape: 100 256 13 13 (4326400)
I0403 13:31:27.710517 11539 net.cpp:156] Memory required for data: 800703600
I0403 13:31:27.710541 11539 layer_factory.hpp:77] Creating layer relu5
I0403 13:31:27.710559 11539 net.cpp:91] Creating Layer relu5
I0403 13:31:27.710578 11539 net.cpp:425] relu5 <- conv5
I0403 13:31:27.710598 11539 net.cpp:386] relu5 -> conv5 (in-place)
I0403 13:31:27.710912 11539 net.cpp:141] Setting up relu5
I0403 13:31:27.710937 11539 net.cpp:148] Top shape: 100 256 13 13 (4326400)
I0403 13:31:27.710952 11539 net.cpp:156] Memory required for data: 818009200
I0403 13:31:27.710966 11539 layer_factory.hpp:77] Creating layer pool5
I0403 13:31:27.710988 11539 net.cpp:91] Creating Layer pool5
I0403 13:31:27.711002 11539 net.cpp:425] pool5 <- conv5
I0403 13:31:27.711022 11539 net.cpp:399] pool5 -> pool5
I0403 13:31:27.711079 11539 net.cpp:141] Setting up pool5
I0403 13:31:27.711102 11539 net.cpp:148] Top shape: 100 256 6 6 (921600)
I0403 13:31:27.711114 11539 net.cpp:156] Memory required for data: 821695600
I0403 13:31:27.711128 11539 layer_factory.hpp:77] Creating layer fc6
I0403 13:31:27.711154 11539 net.cpp:91] Creating Layer fc6
I0403 13:31:27.711172 11539 net.cpp:425] fc6 <- pool5
I0403 13:31:27.711191 11539 net.cpp:399] fc6 -> fc6
I0403 13:31:29.174190 11539 net.cpp:141] Setting up fc6
I0403 13:31:29.174268 11539 net.cpp:148] Top shape: 100 4096 (409600)
I0403 13:31:29.174283 11539 net.cpp:156] Memory required for data: 823334000
I0403 13:31:29.174302 11539 layer_factory.hpp:77] Creating layer relu6
I0403 13:31:29.174329 11539 net.cpp:91] Creating Layer relu6
I0403 13:31:29.174346 11539 net.cpp:425] relu6 <- fc6
I0403 13:31:29.174365 11539 net.cpp:386] relu6 -> fc6 (in-place)
I0403 13:31:29.174595 11539 net.cpp:141] Setting up relu6
I0403 13:31:29.174619 11539 net.cpp:148] Top shape: 100 4096 (409600)
I0403 13:31:29.174633 11539 net.cpp:156] Memory required for data: 824972400
I0403 13:31:29.174645 11539 layer_factory.hpp:77] Creating layer drop6
I0403 13:31:29.174664 11539 net.cpp:91] Creating Layer drop6
I0403 13:31:29.174677 11539 net.cpp:425] drop6 <- fc6
I0403 13:31:29.174695 11539 net.cpp:386] drop6 -> fc6 (in-place)
I0403 13:31:29.174743 11539 net.cpp:141] Setting up drop6
I0403 13:31:29.174765 11539 net.cpp:148] Top shape: 100 4096 (409600)
I0403 13:31:29.174782 11539 net.cpp:156] Memory required for data: 826610800
I0403 13:31:29.174795 11539 layer_factory.hpp:77] Creating layer fc7
I0403 13:31:29.174813 11539 net.cpp:91] Creating Layer fc7
I0403 13:31:29.174829 11539 net.cpp:425] fc7 <- fc6
I0403 13:31:29.174846 11539 net.cpp:399] fc7 -> fc7
I0403 13:31:29.820047 11539 net.cpp:141] Setting up fc7
I0403 13:31:29.820125 11539 net.cpp:148] Top shape: 100 4096 (409600)
I0403 13:31:29.820140 11539 net.cpp:156] Memory required for data: 828249200
I0403 13:31:29.820160 11539 layer_factory.hpp:77] Creating layer relu7
I0403 13:31:29.820181 11539 net.cpp:91] Creating Layer relu7
I0403 13:31:29.820197 11539 net.cpp:425] relu7 <- fc7
I0403 13:31:29.820219 11539 net.cpp:386] relu7 -> fc7 (in-place)
I0403 13:31:29.820616 11539 net.cpp:141] Setting up relu7
I0403 13:31:29.820641 11539 net.cpp:148] Top shape: 100 4096 (409600)
I0403 13:31:29.820696 11539 net.cpp:156] Memory required for data: 829887600
I0403 13:31:29.820713 11539 layer_factory.hpp:77] Creating layer drop7
I0403 13:31:29.820729 11539 net.cpp:91] Creating Layer drop7
I0403 13:31:29.820744 11539 net.cpp:425] drop7 <- fc7
I0403 13:31:29.820761 11539 net.cpp:386] drop7 -> fc7 (in-place)
I0403 13:31:29.820801 11539 net.cpp:141] Setting up drop7
I0403 13:31:29.820822 11539 net.cpp:148] Top shape: 100 4096 (409600)
I0403 13:31:29.820835 11539 net.cpp:156] Memory required for data: 831526000
I0403 13:31:29.820848 11539 layer_factory.hpp:77] Creating layer fc8_plantvillage
I0403 13:31:29.820868 11539 net.cpp:91] Creating Layer fc8_plantvillage
I0403 13:31:29.820883 11539 net.cpp:425] fc8_plantvillage <- fc7
I0403 13:31:29.820901 11539 net.cpp:399] fc8_plantvillage -> fc8_plantvillage
I0403 13:31:29.827237 11539 net.cpp:141] Setting up fc8_plantvillage
I0403 13:31:29.827265 11539 net.cpp:148] Top shape: 100 38 (3800)
I0403 13:31:29.827278 11539 net.cpp:156] Memory required for data: 831541200
I0403 13:31:29.827294 11539 layer_factory.hpp:77] Creating layer fc8_plantvillage_fc8_plantvillage_0_split
I0403 13:31:29.827312 11539 net.cpp:91] Creating Layer fc8_plantvillage_fc8_plantvillage_0_split
I0403 13:31:29.827327 11539 net.cpp:425] fc8_plantvillage_fc8_plantvillage_0_split <- fc8_plantvillage
I0403 13:31:29.827344 11539 net.cpp:399] fc8_plantvillage_fc8_plantvillage_0_split -> fc8_plantvillage_fc8_plantvillage_0_split_0
I0403 13:31:29.827363 11539 net.cpp:399] fc8_plantvillage_fc8_plantvillage_0_split -> fc8_plantvillage_fc8_plantvillage_0_split_1
I0403 13:31:29.827384 11539 net.cpp:399] fc8_plantvillage_fc8_plantvillage_0_split -> fc8_plantvillage_fc8_plantvillage_0_split_2
I0403 13:31:29.827457 11539 net.cpp:141] Setting up fc8_plantvillage_fc8_plantvillage_0_split
I0403 13:31:29.827481 11539 net.cpp:148] Top shape: 100 38 (3800)
I0403 13:31:29.827494 11539 net.cpp:148] Top shape: 100 38 (3800)
I0403 13:31:29.827509 11539 net.cpp:148] Top shape: 100 38 (3800)
I0403 13:31:29.827522 11539 net.cpp:156] Memory required for data: 831586800
I0403 13:31:29.827535 11539 layer_factory.hpp:77] Creating layer prob
I0403 13:31:29.827553 11539 net.cpp:91] Creating Layer prob
I0403 13:31:29.827572 11539 net.cpp:425] prob <- fc8_plantvillage_fc8_plantvillage_0_split_0
I0403 13:31:29.827606 11539 net.cpp:399] prob -> prob
I0403 13:31:29.827826 11539 net.cpp:141] Setting up prob
I0403 13:31:29.827854 11539 net.cpp:148] Top shape: 100 38 (3800)
I0403 13:31:29.827869 11539 net.cpp:156] Memory required for data: 831602000
I0403 13:31:29.827883 11539 layer_factory.hpp:77] Creating layer hdf5out
I0403 13:31:29.827901 11539 net.cpp:91] Creating Layer hdf5out
I0403 13:31:29.827926 11539 net.cpp:425] hdf5out <- prob
I0403 13:31:29.827941 11539 net.cpp:425] hdf5out <- label_data_1_split_0
I0403 13:31:29.830551 11539 net.cpp:141] Setting up hdf5out
…
