…
I0403 13:27:38.712869 11300 net.cpp:313] The NetState phase (1) differed from the phase (0) specified by a rule in layer data
I0403 13:27:38.713167 11300 net.cpp:49] Initializing net from parameters: 
state {
  phase: TEST
}
layer {
  name: "data"
  type: "Data"
  top: "data"
  top: "label"
  include {
    phase: TEST
  }
  transform_param {
    crop_size: 227
    mean_file: "/home/mohanty/data/final_dataset/lmdb/grayscale-80-20/mean.binaryproto"
  }
  data_param {
    source: "/home/mohanty/data/final_dataset/lmdb/grayscale-80-20/test_db"
    batch_size: 100
    backend: LMDB
  }
}
layer {
  name: "conv1"
  type: "Convolution"
  bottom: "data"
  top: "conv1"
  param {
    lr_mult: 1
    decay_mult: 1
  }
  param {
    lr_mult: 2
    decay_mult: 0
  }
  convolution_param {
    num_output: 96
    kernel_size: 11
    stride: 4
    weight_filler {
      type: "gaussian"
      std: 0.01
    }
    bias_filler {
      type: "constant"
      value: 0
    }
  }
}
layer {
  name: "relu1"
  type: "ReLU"
  bottom: "conv1"
  top: "conv1"
}
layer {
  name: "norm1"
  type: "LRN"
  bottom: "conv1"
  top: "norm1"
  lrn_param {
    local_size: 5
    alpha: 0.0001
    beta: 0.75
  }
}
layer {
  name: "pool1"
  type: "Pooling"
  bottom: "norm1"
  top: "pool1"
  pooling_param {
    pool: MAX
    kernel_size: 3
    stride: 2
  }
}
layer {
  name: "conv2"
  type: "Convolution"
  bottom: "pool1"
  top: "conv2"
  param {
    lr_mult: 1
    decay_mult: 1
  }
  param {
    lr_mult: 2
    decay_mult: 0
  }
  convolution_param {
    num_output: 256
    pad: 2
    kernel_size: 5
    group: 2
    weight_filler {
      type: "gaussian"
      std: 0.01
    }
    bias_filler {
      type: "constant"
      value: 0.1
    }
  }
}
layer {
  name: "relu2"
  type: "ReLU"
  bottom: "conv2"
  top: "conv2"
}
layer {
  name: "norm2"
  type: "LRN"
  bottom: "conv2"
  top: "norm2"
  lrn_param {
    local_size: 5
    alpha: 0.0001
    beta: 0.75
  }
}
layer {
  name: "pool2"
  type: "Pooling"
  bottom: "norm2"
  top: "pool2"
  pooling_param {
    pool: MAX
    kernel_size: 3
    stride: 2
  }
}
layer {
  name: "conv3"
  type: "Convolution"
  bottom: "pool2"
  top: "conv3"
  param {
    lr_mult: 1
    decay_mult: 1
  }
  param {
    lr_mult: 2
    decay_mult: 0
  }
  convolution_param {
    num_output: 384
    pad: 1
    kernel_size: 3
    weight_filler {
      type: "gaussian"
      std: 0.01
    }
    bias_filler {
      type: "constant"
      value: 0
    }
  }
}
layer {
  name: "relu3"
  type: "ReLU"
  bottom: "conv3"
  top: "conv3"
}
layer {
  name: "conv4"
  type: "Convolution"
  bottom: "conv3"
  top: "conv4"
  param {
    lr_mult: 1
    decay_mult: 1
  }
  param {
    lr_mult: 2
    decay_mult: 0
  }
  convolution_param {
    num_output: 384
    pad: 1
    kernel_size: 3
    group: 2
    weight_filler {
      type: "gaussian"
      std: 0.01
    }
    bias_filler {
      type: "constant"
      value: 0.1
    }
  }
}
layer {
  name: "relu4"
  type: "ReLU"
  bottom: "conv4"
  top: "conv4"
}
layer {
  name: "conv5"
  type: "Convolution"
  bottom: "conv4"
  top: "conv5"
  param {
    lr_mult: 1
    decay_mult: 1
  }
  param {
    lr_mult: 2
    decay_mult: 0
  }
  convolution_param {
    num_output: 256
    pad: 1
    kernel_size: 3
    group: 2
    weight_filler {
      type: "gaussian"
      std: 0.01
    }
    bias_filler {
      type: "constant"
      value: 0.1
    }
  }
}
layer {
  name: "relu5"
  type: "ReLU"
  bottom: "conv5"
  top: "conv5"
}
layer {
  name: "pool5"
  type: "Pooling"
  bottom: "conv5"
  top: "pool5"
  pooling_param {
    pool: MAX
    kernel_size: 3
    stride: 2
  }
}
layer {
  name: "fc6"
  type: "InnerProduct"
  bottom: "pool5"
  top: "fc6"
  param {
    lr_mult: 1
    decay_mult: 1
  }
  param {
    lr_mult: 2
    decay_mult: 0
  }
  inner_product_param {
    num_output: 4096
    weight_filler {
      type: "gaussian"
      std: 0.005
    }
    bias_filler {
      type: "constant"
      value: 0.1
    }
  }
}
layer {
  name: "relu6"
  type: "ReLU"
  bottom: "fc6"
  top: "fc6"
}
layer {
  name: "drop6"
  type: "Dropout"
  bottom: "fc6"
  top: "fc6"
  dropout_param {
    dropout_ratio: 0.5
  }
}
layer {
  name: "fc7"
  type: "InnerProduct"
  bottom: "fc6"
  top: "fc7"
  param {
    lr_mult: 1
    decay_mult: 1
  }
  param {
    lr_mult: 2
    decay_mult: 0
  }
  inner_product_param {
    num_output: 4096
    weight_filler {
      type: "gaussian"
      std: 0.005
    }
    bias_filler {
      type: "constant"
      value: 0.1
    }
  }
}
layer {
  name: "relu7"
  type: "ReLU"
  bottom: "fc7"
  top: "fc7"
}
layer {
  name: "drop7"
  type: "Dropout"
  bottom: "fc7"
  top: "fc7"
  dropout_param {
    dropout_ratio: 0.5
  }
}
layer {
  name: "fc8_plantvillage"
  type: "InnerProduct"
  bottom: "fc7"
  top: "fc8_plantvillage"
  param {
    lr_mult: 1
    decay_mult: 1
  }
  param {
    lr_mult: 2
    decay_mult: 0
  }
  inner_product_param {
    num_output: 38
    weight_filler {
      type: "gaussian"
      std: 0.01
    }
    bias_filler {
      type: "constant"
      value: 0
    }
  }
}
layer {
  name: "prob"
  type: "Softmax"
  bottom: "fc8_plantvillage"
  top: "prob"
  include {
    phase: TEST
  }
}
layer {
  name: "hdf5out"
  type: "HDF5Output"
  bottom: "prob"
  bottom: "label"
  include {
    phase: TEST
  }
  hdf5_output_param {
    file_name: "hdf5_dumps/iter_4796.h5"
  }
}
layer {
  name: "loss"
  type: "SoftmaxWithLoss"
  bottom: "fc8_plantvillage"
  bottom: "label"
  top: "loss"
}
layer {
  name: "accuracy"
  type: "Accuracy"
  bottom: "fc8_plantvillage"
  bottom: "label"
  top: "accuracy"
  include {
    phase: TEST
  }
}
I0403 13:27:38.713737 11300 layer_factory.hpp:77] Creating layer data
I0403 13:27:38.714378 11300 net.cpp:91] Creating Layer data
I0403 13:27:38.714418 11300 net.cpp:399] data -> data
I0403 13:27:38.714469 11300 net.cpp:399] data -> label
I0403 13:27:38.714506 11300 data_transformer.cpp:25] Loading mean file from: /home/mohanty/data/final_dataset/lmdb/grayscale-80-20/mean.binaryproto
I0403 13:27:38.717181 11303 db_lmdb.cpp:38] Opened lmdb /home/mohanty/data/final_dataset/lmdb/grayscale-80-20/test_db
I0403 13:27:38.729020 11300 data_layer.cpp:41] output data size: 100,3,227,227
I0403 13:27:38.846582 11300 net.cpp:141] Setting up data
I0403 13:27:38.846675 11300 net.cpp:148] Top shape: 100 3 227 227 (15458700)
I0403 13:27:38.846699 11300 net.cpp:148] Top shape: 100 (100)
I0403 13:27:38.846714 11300 net.cpp:156] Memory required for data: 61835200
I0403 13:27:38.846742 11300 layer_factory.hpp:77] Creating layer label_data_1_split
I0403 13:27:38.846768 11300 net.cpp:91] Creating Layer label_data_1_split
I0403 13:27:38.846786 11300 net.cpp:425] label_data_1_split <- label
I0403 13:27:38.846820 11300 net.cpp:399] label_data_1_split -> label_data_1_split_0
I0403 13:27:38.846848 11300 net.cpp:399] label_data_1_split -> label_data_1_split_1
I0403 13:27:38.846868 11300 net.cpp:399] label_data_1_split -> label_data_1_split_2
I0403 13:27:38.846933 11300 net.cpp:141] Setting up label_data_1_split
I0403 13:27:38.846959 11300 net.cpp:148] Top shape: 100 (100)
I0403 13:27:38.846976 11300 net.cpp:148] Top shape: 100 (100)
I0403 13:27:38.846992 11300 net.cpp:148] Top shape: 100 (100)
I0403 13:27:38.847007 11300 net.cpp:156] Memory required for data: 61836400
I0403 13:27:38.847023 11300 layer_factory.hpp:77] Creating layer conv1
I0403 13:27:38.847056 11300 net.cpp:91] Creating Layer conv1
I0403 13:27:38.847076 11300 net.cpp:425] conv1 <- data
I0403 13:27:38.847097 11300 net.cpp:399] conv1 -> conv1
I0403 13:27:38.986541 11300 net.cpp:141] Setting up conv1
I0403 13:27:38.986619 11300 net.cpp:148] Top shape: 100 96 55 55 (29040000)
I0403 13:27:38.986636 11300 net.cpp:156] Memory required for data: 177996400
I0403 13:27:38.986666 11300 layer_factory.hpp:77] Creating layer relu1
I0403 13:27:38.986693 11300 net.cpp:91] Creating Layer relu1
I0403 13:27:38.986711 11300 net.cpp:425] relu1 <- conv1
I0403 13:27:38.986732 11300 net.cpp:386] relu1 -> conv1 (in-place)
I0403 13:27:38.986999 11300 net.cpp:141] Setting up relu1
I0403 13:27:38.987026 11300 net.cpp:148] Top shape: 100 96 55 55 (29040000)
I0403 13:27:38.987074 11300 net.cpp:156] Memory required for data: 294156400
I0403 13:27:38.987092 11300 layer_factory.hpp:77] Creating layer norm1
I0403 13:27:38.987120 11300 net.cpp:91] Creating Layer norm1
I0403 13:27:38.987138 11300 net.cpp:425] norm1 <- conv1
I0403 13:27:38.987156 11300 net.cpp:399] norm1 -> norm1
I0403 13:27:38.987476 11300 net.cpp:141] Setting up norm1
I0403 13:27:38.987504 11300 net.cpp:148] Top shape: 100 96 55 55 (29040000)
I0403 13:27:38.987519 11300 net.cpp:156] Memory required for data: 410316400
I0403 13:27:38.987532 11300 layer_factory.hpp:77] Creating layer pool1
I0403 13:27:38.987557 11300 net.cpp:91] Creating Layer pool1
I0403 13:27:38.987581 11300 net.cpp:425] pool1 <- norm1
I0403 13:27:38.987599 11300 net.cpp:399] pool1 -> pool1
I0403 13:27:38.987669 11300 net.cpp:141] Setting up pool1
I0403 13:27:38.987694 11300 net.cpp:148] Top shape: 100 96 27 27 (6998400)
I0403 13:27:38.987709 11300 net.cpp:156] Memory required for data: 438310000
I0403 13:27:38.987722 11300 layer_factory.hpp:77] Creating layer conv2
I0403 13:27:38.987748 11300 net.cpp:91] Creating Layer conv2
I0403 13:27:38.987766 11300 net.cpp:425] conv2 <- pool1
I0403 13:27:38.987785 11300 net.cpp:399] conv2 -> conv2
I0403 13:27:39.002243 11300 net.cpp:141] Setting up conv2
I0403 13:27:39.002279 11300 net.cpp:148] Top shape: 100 256 27 27 (18662400)
I0403 13:27:39.002295 11300 net.cpp:156] Memory required for data: 512959600
I0403 13:27:39.002316 11300 layer_factory.hpp:77] Creating layer relu2
I0403 13:27:39.002336 11300 net.cpp:91] Creating Layer relu2
I0403 13:27:39.002353 11300 net.cpp:425] relu2 <- conv2
I0403 13:27:39.002370 11300 net.cpp:386] relu2 -> conv2 (in-place)
I0403 13:27:39.002645 11300 net.cpp:141] Setting up relu2
I0403 13:27:39.002671 11300 net.cpp:148] Top shape: 100 256 27 27 (18662400)
I0403 13:27:39.002686 11300 net.cpp:156] Memory required for data: 587609200
I0403 13:27:39.002699 11300 layer_factory.hpp:77] Creating layer norm2
I0403 13:27:39.002722 11300 net.cpp:91] Creating Layer norm2
I0403 13:27:39.002739 11300 net.cpp:425] norm2 <- conv2
I0403 13:27:39.002758 11300 net.cpp:399] norm2 -> norm2
I0403 13:27:39.002953 11300 net.cpp:141] Setting up norm2
I0403 13:27:39.002977 11300 net.cpp:148] Top shape: 100 256 27 27 (18662400)
I0403 13:27:39.002992 11300 net.cpp:156] Memory required for data: 662258800
I0403 13:27:39.003007 11300 layer_factory.hpp:77] Creating layer pool2
I0403 13:27:39.003026 11300 net.cpp:91] Creating Layer pool2
I0403 13:27:39.003043 11300 net.cpp:425] pool2 <- norm2
I0403 13:27:39.003060 11300 net.cpp:399] pool2 -> pool2
I0403 13:27:39.003111 11300 net.cpp:141] Setting up pool2
I0403 13:27:39.003134 11300 net.cpp:148] Top shape: 100 256 13 13 (4326400)
I0403 13:27:39.003149 11300 net.cpp:156] Memory required for data: 679564400
I0403 13:27:39.003164 11300 layer_factory.hpp:77] Creating layer conv3
I0403 13:27:39.003185 11300 net.cpp:91] Creating Layer conv3
I0403 13:27:39.003202 11300 net.cpp:425] conv3 <- pool2
I0403 13:27:39.003222 11300 net.cpp:399] conv3 -> conv3
I0403 13:27:39.046180 11300 net.cpp:141] Setting up conv3
I0403 13:27:39.046241 11300 net.cpp:148] Top shape: 100 384 13 13 (6489600)
I0403 13:27:39.046257 11300 net.cpp:156] Memory required for data: 705522800
I0403 13:27:39.046280 11300 layer_factory.hpp:77] Creating layer relu3
I0403 13:27:39.046304 11300 net.cpp:91] Creating Layer relu3
I0403 13:27:39.046324 11300 net.cpp:425] relu3 <- conv3
I0403 13:27:39.046341 11300 net.cpp:386] relu3 -> conv3 (in-place)
I0403 13:27:39.046613 11300 net.cpp:141] Setting up relu3
I0403 13:27:39.046640 11300 net.cpp:148] Top shape: 100 384 13 13 (6489600)
I0403 13:27:39.046654 11300 net.cpp:156] Memory required for data: 731481200
I0403 13:27:39.046669 11300 layer_factory.hpp:77] Creating layer conv4
I0403 13:27:39.046694 11300 net.cpp:91] Creating Layer conv4
I0403 13:27:39.046712 11300 net.cpp:425] conv4 <- conv3
I0403 13:27:39.046733 11300 net.cpp:399] conv4 -> conv4
I0403 13:27:39.075448 11300 net.cpp:141] Setting up conv4
I0403 13:27:39.075495 11300 net.cpp:148] Top shape: 100 384 13 13 (6489600)
I0403 13:27:39.075546 11300 net.cpp:156] Memory required for data: 757439600
I0403 13:27:39.075570 11300 layer_factory.hpp:77] Creating layer relu4
I0403 13:27:39.075592 11300 net.cpp:91] Creating Layer relu4
I0403 13:27:39.075608 11300 net.cpp:425] relu4 <- conv4
I0403 13:27:39.075628 11300 net.cpp:386] relu4 -> conv4 (in-place)
I0403 13:27:39.075899 11300 net.cpp:141] Setting up relu4
I0403 13:27:39.075927 11300 net.cpp:148] Top shape: 100 384 13 13 (6489600)
I0403 13:27:39.075940 11300 net.cpp:156] Memory required for data: 783398000
I0403 13:27:39.075955 11300 layer_factory.hpp:77] Creating layer conv5
I0403 13:27:39.075979 11300 net.cpp:91] Creating Layer conv5
I0403 13:27:39.075996 11300 net.cpp:425] conv5 <- conv4
I0403 13:27:39.076017 11300 net.cpp:399] conv5 -> conv5
I0403 13:27:39.095782 11300 net.cpp:141] Setting up conv5
I0403 13:27:39.095819 11300 net.cpp:148] Top shape: 100 256 13 13 (4326400)
I0403 13:27:39.095835 11300 net.cpp:156] Memory required for data: 800703600
I0403 13:27:39.095859 11300 layer_factory.hpp:77] Creating layer relu5
I0403 13:27:39.095880 11300 net.cpp:91] Creating Layer relu5
I0403 13:27:39.095896 11300 net.cpp:425] relu5 <- conv5
I0403 13:27:39.095914 11300 net.cpp:386] relu5 -> conv5 (in-place)
I0403 13:27:39.096187 11300 net.cpp:141] Setting up relu5
I0403 13:27:39.096216 11300 net.cpp:148] Top shape: 100 256 13 13 (4326400)
I0403 13:27:39.096231 11300 net.cpp:156] Memory required for data: 818009200
I0403 13:27:39.096246 11300 layer_factory.hpp:77] Creating layer pool5
I0403 13:27:39.096271 11300 net.cpp:91] Creating Layer pool5
I0403 13:27:39.096288 11300 net.cpp:425] pool5 <- conv5
I0403 13:27:39.096307 11300 net.cpp:399] pool5 -> pool5
I0403 13:27:39.096366 11300 net.cpp:141] Setting up pool5
I0403 13:27:39.096390 11300 net.cpp:148] Top shape: 100 256 6 6 (921600)
I0403 13:27:39.096405 11300 net.cpp:156] Memory required for data: 821695600
I0403 13:27:39.096418 11300 layer_factory.hpp:77] Creating layer fc6
I0403 13:27:39.096446 11300 net.cpp:91] Creating Layer fc6
I0403 13:27:39.096463 11300 net.cpp:425] fc6 <- pool5
I0403 13:27:39.096482 11300 net.cpp:399] fc6 -> fc6
I0403 13:27:40.668702 11300 net.cpp:141] Setting up fc6
I0403 13:27:40.668782 11300 net.cpp:148] Top shape: 100 4096 (409600)
I0403 13:27:40.668800 11300 net.cpp:156] Memory required for data: 823334000
I0403 13:27:40.668823 11300 layer_factory.hpp:77] Creating layer relu6
I0403 13:27:40.668846 11300 net.cpp:91] Creating Layer relu6
I0403 13:27:40.668864 11300 net.cpp:425] relu6 <- fc6
I0403 13:27:40.668884 11300 net.cpp:386] relu6 -> fc6 (in-place)
I0403 13:27:40.669103 11300 net.cpp:141] Setting up relu6
I0403 13:27:40.669128 11300 net.cpp:148] Top shape: 100 4096 (409600)
I0403 13:27:40.669143 11300 net.cpp:156] Memory required for data: 824972400
I0403 13:27:40.669158 11300 layer_factory.hpp:77] Creating layer drop6
I0403 13:27:40.669178 11300 net.cpp:91] Creating Layer drop6
I0403 13:27:40.669194 11300 net.cpp:425] drop6 <- fc6
I0403 13:27:40.669211 11300 net.cpp:386] drop6 -> fc6 (in-place)
I0403 13:27:40.669261 11300 net.cpp:141] Setting up drop6
I0403 13:27:40.669287 11300 net.cpp:148] Top shape: 100 4096 (409600)
I0403 13:27:40.669302 11300 net.cpp:156] Memory required for data: 826610800
I0403 13:27:40.669317 11300 layer_factory.hpp:77] Creating layer fc7
I0403 13:27:40.669337 11300 net.cpp:91] Creating Layer fc7
I0403 13:27:40.669351 11300 net.cpp:425] fc7 <- fc6
I0403 13:27:40.669371 11300 net.cpp:399] fc7 -> fc7
I0403 13:27:41.353190 11300 net.cpp:141] Setting up fc7
I0403 13:27:41.353266 11300 net.cpp:148] Top shape: 100 4096 (409600)
I0403 13:27:41.353281 11300 net.cpp:156] Memory required for data: 828249200
I0403 13:27:41.353303 11300 layer_factory.hpp:77] Creating layer relu7
I0403 13:27:41.353324 11300 net.cpp:91] Creating Layer relu7
I0403 13:27:41.353341 11300 net.cpp:425] relu7 <- fc7
I0403 13:27:41.353363 11300 net.cpp:386] relu7 -> fc7 (in-place)
I0403 13:27:41.353788 11300 net.cpp:141] Setting up relu7
I0403 13:27:41.353816 11300 net.cpp:148] Top shape: 100 4096 (409600)
I0403 13:27:41.353865 11300 net.cpp:156] Memory required for data: 829887600
I0403 13:27:41.353881 11300 layer_factory.hpp:77] Creating layer drop7
I0403 13:27:41.353900 11300 net.cpp:91] Creating Layer drop7
I0403 13:27:41.353914 11300 net.cpp:425] drop7 <- fc7
I0403 13:27:41.353934 11300 net.cpp:386] drop7 -> fc7 (in-place)
I0403 13:27:41.353981 11300 net.cpp:141] Setting up drop7
I0403 13:27:41.354003 11300 net.cpp:148] Top shape: 100 4096 (409600)
I0403 13:27:41.354017 11300 net.cpp:156] Memory required for data: 831526000
I0403 13:27:41.354032 11300 layer_factory.hpp:77] Creating layer fc8_plantvillage
I0403 13:27:41.354050 11300 net.cpp:91] Creating Layer fc8_plantvillage
I0403 13:27:41.354065 11300 net.cpp:425] fc8_plantvillage <- fc7
I0403 13:27:41.354086 11300 net.cpp:399] fc8_plantvillage -> fc8_plantvillage
I0403 13:27:41.361001 11300 net.cpp:141] Setting up fc8_plantvillage
I0403 13:27:41.361032 11300 net.cpp:148] Top shape: 100 38 (3800)
I0403 13:27:41.361048 11300 net.cpp:156] Memory required for data: 831541200
I0403 13:27:41.361066 11300 layer_factory.hpp:77] Creating layer fc8_plantvillage_fc8_plantvillage_0_split
I0403 13:27:41.361086 11300 net.cpp:91] Creating Layer fc8_plantvillage_fc8_plantvillage_0_split
I0403 13:27:41.361102 11300 net.cpp:425] fc8_plantvillage_fc8_plantvillage_0_split <- fc8_plantvillage
I0403 13:27:41.361120 11300 net.cpp:399] fc8_plantvillage_fc8_plantvillage_0_split -> fc8_plantvillage_fc8_plantvillage_0_split_0
I0403 13:27:41.361140 11300 net.cpp:399] fc8_plantvillage_fc8_plantvillage_0_split -> fc8_plantvillage_fc8_plantvillage_0_split_1
I0403 13:27:41.361160 11300 net.cpp:399] fc8_plantvillage_fc8_plantvillage_0_split -> fc8_plantvillage_fc8_plantvillage_0_split_2
I0403 13:27:41.361238 11300 net.cpp:141] Setting up fc8_plantvillage_fc8_plantvillage_0_split
I0403 13:27:41.361263 11300 net.cpp:148] Top shape: 100 38 (3800)
I0403 13:27:41.361279 11300 net.cpp:148] Top shape: 100 38 (3800)
I0403 13:27:41.361295 11300 net.cpp:148] Top shape: 100 38 (3800)
I0403 13:27:41.361310 11300 net.cpp:156] Memory required for data: 831586800
I0403 13:27:41.361322 11300 layer_factory.hpp:77] Creating layer prob
I0403 13:27:41.361340 11300 net.cpp:91] Creating Layer prob
I0403 13:27:41.361356 11300 net.cpp:425] prob <- fc8_plantvillage_fc8_plantvillage_0_split_0
I0403 13:27:41.361374 11300 net.cpp:399] prob -> prob
I0403 13:27:41.361603 11300 net.cpp:141] Setting up prob
I0403 13:27:41.361629 11300 net.cpp:148] Top shape: 100 38 (3800)
I0403 13:27:41.361644 11300 net.cpp:156] Memory required for data: 831602000
I0403 13:27:41.361660 11300 layer_factory.hpp:77] Creating layer hdf5out
I0403 13:27:41.361677 11300 net.cpp:91] Creating Layer hdf5out
I0403 13:27:41.361693 11300 net.cpp:425] hdf5out <- prob
I0403 13:27:41.361711 11300 net.cpp:425] hdf5out <- label_data_1_split_0
I0403 13:27:41.364070 11300 net.cpp:141] Setting up hdf5out
…
