…
I0403 13:35:11.779907 11675 net.cpp:313] The NetState phase (1) differed from the phase (0) specified by a rule in layer data
I0403 13:35:11.780205 11675 net.cpp:49] Initializing net from parameters: 
state {
  phase: TEST
}
layer {
  name: "data"
  type: "Data"
  top: "data"
  top: "label"
  include {
    phase: TEST
  }
  transform_param {
    crop_size: 227
    mean_file: "/home/mohanty/data/final_dataset/lmdb/grayscale-80-20/mean.binaryproto"
  }
  data_param {
    source: "/home/mohanty/data/final_dataset/lmdb/grayscale-80-20/test_db"
    batch_size: 100
    backend: LMDB
  }
}
layer {
  name: "conv1"
  type: "Convolution"
  bottom: "data"
  top: "conv1"
  param {
    lr_mult: 1
    decay_mult: 1
  }
  param {
    lr_mult: 2
    decay_mult: 0
  }
  convolution_param {
    num_output: 96
    kernel_size: 11
    stride: 4
    weight_filler {
      type: "gaussian"
      std: 0.01
    }
    bias_filler {
      type: "constant"
      value: 0
    }
  }
}
layer {
  name: "relu1"
  type: "ReLU"
  bottom: "conv1"
  top: "conv1"
}
layer {
  name: "norm1"
  type: "LRN"
  bottom: "conv1"
  top: "norm1"
  lrn_param {
    local_size: 5
    alpha: 0.0001
    beta: 0.75
  }
}
layer {
  name: "pool1"
  type: "Pooling"
  bottom: "norm1"
  top: "pool1"
  pooling_param {
    pool: MAX
    kernel_size: 3
    stride: 2
  }
}
layer {
  name: "conv2"
  type: "Convolution"
  bottom: "pool1"
  top: "conv2"
  param {
    lr_mult: 1
    decay_mult: 1
  }
  param {
    lr_mult: 2
    decay_mult: 0
  }
  convolution_param {
    num_output: 256
    pad: 2
    kernel_size: 5
    group: 2
    weight_filler {
      type: "gaussian"
      std: 0.01
    }
    bias_filler {
      type: "constant"
      value: 0.1
    }
  }
}
layer {
  name: "relu2"
  type: "ReLU"
  bottom: "conv2"
  top: "conv2"
}
layer {
  name: "norm2"
  type: "LRN"
  bottom: "conv2"
  top: "norm2"
  lrn_param {
    local_size: 5
    alpha: 0.0001
    beta: 0.75
  }
}
layer {
  name: "pool2"
  type: "Pooling"
  bottom: "norm2"
  top: "pool2"
  pooling_param {
    pool: MAX
    kernel_size: 3
    stride: 2
  }
}
layer {
  name: "conv3"
  type: "Convolution"
  bottom: "pool2"
  top: "conv3"
  param {
    lr_mult: 1
    decay_mult: 1
  }
  param {
    lr_mult: 2
    decay_mult: 0
  }
  convolution_param {
    num_output: 384
    pad: 1
    kernel_size: 3
    weight_filler {
      type: "gaussian"
      std: 0.01
    }
    bias_filler {
      type: "constant"
      value: 0
    }
  }
}
layer {
  name: "relu3"
  type: "ReLU"
  bottom: "conv3"
  top: "conv3"
}
layer {
  name: "conv4"
  type: "Convolution"
  bottom: "conv3"
  top: "conv4"
  param {
    lr_mult: 1
    decay_mult: 1
  }
  param {
    lr_mult: 2
    decay_mult: 0
  }
  convolution_param {
    num_output: 384
    pad: 1
    kernel_size: 3
    group: 2
    weight_filler {
      type: "gaussian"
      std: 0.01
    }
    bias_filler {
      type: "constant"
      value: 0.1
    }
  }
}
layer {
  name: "relu4"
  type: "ReLU"
  bottom: "conv4"
  top: "conv4"
}
layer {
  name: "conv5"
  type: "Convolution"
  bottom: "conv4"
  top: "conv5"
  param {
    lr_mult: 1
    decay_mult: 1
  }
  param {
    lr_mult: 2
    decay_mult: 0
  }
  convolution_param {
    num_output: 256
    pad: 1
    kernel_size: 3
    group: 2
    weight_filler {
      type: "gaussian"
      std: 0.01
    }
    bias_filler {
      type: "constant"
      value: 0.1
    }
  }
}
layer {
  name: "relu5"
  type: "ReLU"
  bottom: "conv5"
  top: "conv5"
}
layer {
  name: "pool5"
  type: "Pooling"
  bottom: "conv5"
  top: "pool5"
  pooling_param {
    pool: MAX
    kernel_size: 3
    stride: 2
  }
}
layer {
  name: "fc6"
  type: "InnerProduct"
  bottom: "pool5"
  top: "fc6"
  param {
    lr_mult: 1
    decay_mult: 1
  }
  param {
    lr_mult: 2
    decay_mult: 0
  }
  inner_product_param {
    num_output: 4096
    weight_filler {
      type: "gaussian"
      std: 0.005
    }
    bias_filler {
      type: "constant"
      value: 0.1
    }
  }
}
layer {
  name: "relu6"
  type: "ReLU"
  bottom: "fc6"
  top: "fc6"
}
layer {
  name: "drop6"
  type: "Dropout"
  bottom: "fc6"
  top: "fc6"
  dropout_param {
    dropout_ratio: 0.5
  }
}
layer {
  name: "fc7"
  type: "InnerProduct"
  bottom: "fc6"
  top: "fc7"
  param {
    lr_mult: 1
    decay_mult: 1
  }
  param {
    lr_mult: 2
    decay_mult: 0
  }
  inner_product_param {
    num_output: 4096
    weight_filler {
      type: "gaussian"
      std: 0.005
    }
    bias_filler {
      type: "constant"
      value: 0.1
    }
  }
}
layer {
  name: "relu7"
  type: "ReLU"
  bottom: "fc7"
  top: "fc7"
}
layer {
  name: "drop7"
  type: "Dropout"
  bottom: "fc7"
  top: "fc7"
  dropout_param {
    dropout_ratio: 0.5
  }
}
layer {
  name: "fc8_plantvillage"
  type: "InnerProduct"
  bottom: "fc7"
  top: "fc8_plantvillage"
  param {
    lr_mult: 1
    decay_mult: 1
  }
  param {
    lr_mult: 2
    decay_mult: 0
  }
  inner_product_param {
    num_output: 38
    weight_filler {
      type: "gaussian"
      std: 0.01
    }
    bias_filler {
      type: "constant"
      value: 0
    }
  }
}
layer {
  name: "prob"
  type: "Softmax"
  bottom: "fc8_plantvillage"
  top: "prob"
  include {
    phase: TEST
  }
}
layer {
  name: "hdf5out"
  type: "HDF5Output"
  bottom: "prob"
  bottom: "label"
  include {
    phase: TEST
  }
  hdf5_output_param {
    file_name: "hdf5_dumps/iter_12644.h5"
  }
}
layer {
  name: "loss"
  type: "SoftmaxWithLoss"
  bottom: "fc8_plantvillage"
  bottom: "label"
  top: "loss"
}
layer {
  name: "accuracy"
  type: "Accuracy"
  bottom: "fc8_plantvillage"
  bottom: "label"
  top: "accuracy"
  include {
    phase: TEST
  }
}
I0403 13:35:11.780803 11675 layer_factory.hpp:77] Creating layer data
I0403 13:35:11.781456 11675 net.cpp:91] Creating Layer data
I0403 13:35:11.781487 11675 net.cpp:399] data -> data
I0403 13:35:11.781539 11675 net.cpp:399] data -> label
I0403 13:35:11.781580 11675 data_transformer.cpp:25] Loading mean file from: /home/mohanty/data/final_dataset/lmdb/grayscale-80-20/mean.binaryproto
I0403 13:35:11.784265 11678 db_lmdb.cpp:38] Opened lmdb /home/mohanty/data/final_dataset/lmdb/grayscale-80-20/test_db
I0403 13:35:11.796243 11675 data_layer.cpp:41] output data size: 100,3,227,227
I0403 13:35:11.915745 11675 net.cpp:141] Setting up data
I0403 13:35:11.915845 11675 net.cpp:148] Top shape: 100 3 227 227 (15458700)
I0403 13:35:11.915868 11675 net.cpp:148] Top shape: 100 (100)
I0403 13:35:11.915881 11675 net.cpp:156] Memory required for data: 61835200
I0403 13:35:11.915907 11675 layer_factory.hpp:77] Creating layer label_data_1_split
I0403 13:35:11.915931 11675 net.cpp:91] Creating Layer label_data_1_split
I0403 13:35:11.915948 11675 net.cpp:425] label_data_1_split <- label
I0403 13:35:11.915979 11675 net.cpp:399] label_data_1_split -> label_data_1_split_0
I0403 13:35:11.916005 11675 net.cpp:399] label_data_1_split -> label_data_1_split_1
I0403 13:35:11.916024 11675 net.cpp:399] label_data_1_split -> label_data_1_split_2
I0403 13:35:11.916087 11675 net.cpp:141] Setting up label_data_1_split
I0403 13:35:11.916110 11675 net.cpp:148] Top shape: 100 (100)
I0403 13:35:11.916126 11675 net.cpp:148] Top shape: 100 (100)
I0403 13:35:11.916139 11675 net.cpp:148] Top shape: 100 (100)
I0403 13:35:11.916153 11675 net.cpp:156] Memory required for data: 61836400
I0403 13:35:11.916167 11675 layer_factory.hpp:77] Creating layer conv1
I0403 13:35:11.916198 11675 net.cpp:91] Creating Layer conv1
I0403 13:35:11.916215 11675 net.cpp:425] conv1 <- data
I0403 13:35:11.916234 11675 net.cpp:399] conv1 -> conv1
I0403 13:35:12.054636 11675 net.cpp:141] Setting up conv1
I0403 13:35:12.054713 11675 net.cpp:148] Top shape: 100 96 55 55 (29040000)
I0403 13:35:12.054729 11675 net.cpp:156] Memory required for data: 177996400
I0403 13:35:12.054759 11675 layer_factory.hpp:77] Creating layer relu1
I0403 13:35:12.054785 11675 net.cpp:91] Creating Layer relu1
I0403 13:35:12.054803 11675 net.cpp:425] relu1 <- conv1
I0403 13:35:12.054821 11675 net.cpp:386] relu1 -> conv1 (in-place)
I0403 13:35:12.055096 11675 net.cpp:141] Setting up relu1
I0403 13:35:12.055124 11675 net.cpp:148] Top shape: 100 96 55 55 (29040000)
I0403 13:35:12.055172 11675 net.cpp:156] Memory required for data: 294156400
I0403 13:35:12.055188 11675 layer_factory.hpp:77] Creating layer norm1
I0403 13:35:12.055217 11675 net.cpp:91] Creating Layer norm1
I0403 13:35:12.055234 11675 net.cpp:425] norm1 <- conv1
I0403 13:35:12.055253 11675 net.cpp:399] norm1 -> norm1
I0403 13:35:12.055588 11675 net.cpp:141] Setting up norm1
I0403 13:35:12.055619 11675 net.cpp:148] Top shape: 100 96 55 55 (29040000)
I0403 13:35:12.055635 11675 net.cpp:156] Memory required for data: 410316400
I0403 13:35:12.055649 11675 layer_factory.hpp:77] Creating layer pool1
I0403 13:35:12.055671 11675 net.cpp:91] Creating Layer pool1
I0403 13:35:12.055687 11675 net.cpp:425] pool1 <- norm1
I0403 13:35:12.055706 11675 net.cpp:399] pool1 -> pool1
I0403 13:35:12.055776 11675 net.cpp:141] Setting up pool1
I0403 13:35:12.055799 11675 net.cpp:148] Top shape: 100 96 27 27 (6998400)
I0403 13:35:12.055814 11675 net.cpp:156] Memory required for data: 438310000
I0403 13:35:12.055827 11675 layer_factory.hpp:77] Creating layer conv2
I0403 13:35:12.055855 11675 net.cpp:91] Creating Layer conv2
I0403 13:35:12.055872 11675 net.cpp:425] conv2 <- pool1
I0403 13:35:12.055894 11675 net.cpp:399] conv2 -> conv2
I0403 13:35:12.071094 11675 net.cpp:141] Setting up conv2
I0403 13:35:12.071149 11675 net.cpp:148] Top shape: 100 256 27 27 (18662400)
I0403 13:35:12.071167 11675 net.cpp:156] Memory required for data: 512959600
I0403 13:35:12.071192 11675 layer_factory.hpp:77] Creating layer relu2
I0403 13:35:12.071213 11675 net.cpp:91] Creating Layer relu2
I0403 13:35:12.071228 11675 net.cpp:425] relu2 <- conv2
I0403 13:35:12.071249 11675 net.cpp:386] relu2 -> conv2 (in-place)
I0403 13:35:12.071553 11675 net.cpp:141] Setting up relu2
I0403 13:35:12.071581 11675 net.cpp:148] Top shape: 100 256 27 27 (18662400)
I0403 13:35:12.071598 11675 net.cpp:156] Memory required for data: 587609200
I0403 13:35:12.071619 11675 layer_factory.hpp:77] Creating layer norm2
I0403 13:35:12.071643 11675 net.cpp:91] Creating Layer norm2
I0403 13:35:12.071660 11675 net.cpp:425] norm2 <- conv2
I0403 13:35:12.071678 11675 net.cpp:399] norm2 -> norm2
I0403 13:35:12.071890 11675 net.cpp:141] Setting up norm2
I0403 13:35:12.071919 11675 net.cpp:148] Top shape: 100 256 27 27 (18662400)
I0403 13:35:12.071936 11675 net.cpp:156] Memory required for data: 662258800
I0403 13:35:12.071951 11675 layer_factory.hpp:77] Creating layer pool2
I0403 13:35:12.071970 11675 net.cpp:91] Creating Layer pool2
I0403 13:35:12.071985 11675 net.cpp:425] pool2 <- norm2
I0403 13:35:12.072005 11675 net.cpp:399] pool2 -> pool2
I0403 13:35:12.072060 11675 net.cpp:141] Setting up pool2
I0403 13:35:12.072083 11675 net.cpp:148] Top shape: 100 256 13 13 (4326400)
I0403 13:35:12.072098 11675 net.cpp:156] Memory required for data: 679564400
I0403 13:35:12.072113 11675 layer_factory.hpp:77] Creating layer conv3
I0403 13:35:12.072140 11675 net.cpp:91] Creating Layer conv3
I0403 13:35:12.072160 11675 net.cpp:425] conv3 <- pool2
I0403 13:35:12.072185 11675 net.cpp:399] conv3 -> conv3
I0403 13:35:12.110749 11675 net.cpp:141] Setting up conv3
I0403 13:35:12.110822 11675 net.cpp:148] Top shape: 100 384 13 13 (6489600)
I0403 13:35:12.110841 11675 net.cpp:156] Memory required for data: 705522800
I0403 13:35:12.110865 11675 layer_factory.hpp:77] Creating layer relu3
I0403 13:35:12.110888 11675 net.cpp:91] Creating Layer relu3
I0403 13:35:12.110903 11675 net.cpp:425] relu3 <- conv3
I0403 13:35:12.110924 11675 net.cpp:386] relu3 -> conv3 (in-place)
I0403 13:35:12.111212 11675 net.cpp:141] Setting up relu3
I0403 13:35:12.111238 11675 net.cpp:148] Top shape: 100 384 13 13 (6489600)
I0403 13:35:12.111253 11675 net.cpp:156] Memory required for data: 731481200
I0403 13:35:12.111268 11675 layer_factory.hpp:77] Creating layer conv4
I0403 13:35:12.111292 11675 net.cpp:91] Creating Layer conv4
I0403 13:35:12.111310 11675 net.cpp:425] conv4 <- conv3
I0403 13:35:12.111331 11675 net.cpp:399] conv4 -> conv4
I0403 13:35:12.140096 11675 net.cpp:141] Setting up conv4
I0403 13:35:12.140139 11675 net.cpp:148] Top shape: 100 384 13 13 (6489600)
I0403 13:35:12.140187 11675 net.cpp:156] Memory required for data: 757439600
I0403 13:35:12.140207 11675 layer_factory.hpp:77] Creating layer relu4
I0403 13:35:12.140225 11675 net.cpp:91] Creating Layer relu4
I0403 13:35:12.140241 11675 net.cpp:425] relu4 <- conv4
I0403 13:35:12.140259 11675 net.cpp:386] relu4 -> conv4 (in-place)
I0403 13:35:12.140530 11675 net.cpp:141] Setting up relu4
I0403 13:35:12.140560 11675 net.cpp:148] Top shape: 100 384 13 13 (6489600)
I0403 13:35:12.140576 11675 net.cpp:156] Memory required for data: 783398000
I0403 13:35:12.140591 11675 layer_factory.hpp:77] Creating layer conv5
I0403 13:35:12.140619 11675 net.cpp:91] Creating Layer conv5
I0403 13:35:12.140637 11675 net.cpp:425] conv5 <- conv4
I0403 13:35:12.140655 11675 net.cpp:399] conv5 -> conv5
I0403 13:35:12.160976 11675 net.cpp:141] Setting up conv5
I0403 13:35:12.161031 11675 net.cpp:148] Top shape: 100 256 13 13 (4326400)
I0403 13:35:12.161048 11675 net.cpp:156] Memory required for data: 800703600
I0403 13:35:12.161073 11675 layer_factory.hpp:77] Creating layer relu5
I0403 13:35:12.161093 11675 net.cpp:91] Creating Layer relu5
I0403 13:35:12.161109 11675 net.cpp:425] relu5 <- conv5
I0403 13:35:12.161130 11675 net.cpp:386] relu5 -> conv5 (in-place)
I0403 13:35:12.161418 11675 net.cpp:141] Setting up relu5
I0403 13:35:12.161449 11675 net.cpp:148] Top shape: 100 256 13 13 (4326400)
I0403 13:35:12.161466 11675 net.cpp:156] Memory required for data: 818009200
I0403 13:35:12.161481 11675 layer_factory.hpp:77] Creating layer pool5
I0403 13:35:12.161506 11675 net.cpp:91] Creating Layer pool5
I0403 13:35:12.161523 11675 net.cpp:425] pool5 <- conv5
I0403 13:35:12.161541 11675 net.cpp:399] pool5 -> pool5
I0403 13:35:12.161607 11675 net.cpp:141] Setting up pool5
I0403 13:35:12.161630 11675 net.cpp:148] Top shape: 100 256 6 6 (921600)
I0403 13:35:12.161645 11675 net.cpp:156] Memory required for data: 821695600
I0403 13:35:12.161660 11675 layer_factory.hpp:77] Creating layer fc6
I0403 13:35:12.161686 11675 net.cpp:91] Creating Layer fc6
I0403 13:35:12.161705 11675 net.cpp:425] fc6 <- pool5
I0403 13:35:12.161725 11675 net.cpp:399] fc6 -> fc6
I0403 13:35:13.692492 11675 net.cpp:141] Setting up fc6
I0403 13:35:13.692546 11675 net.cpp:148] Top shape: 100 4096 (409600)
I0403 13:35:13.692564 11675 net.cpp:156] Memory required for data: 823334000
I0403 13:35:13.692584 11675 layer_factory.hpp:77] Creating layer relu6
I0403 13:35:13.692608 11675 net.cpp:91] Creating Layer relu6
I0403 13:35:13.692626 11675 net.cpp:425] relu6 <- fc6
I0403 13:35:13.692644 11675 net.cpp:386] relu6 -> fc6 (in-place)
I0403 13:35:13.692864 11675 net.cpp:141] Setting up relu6
I0403 13:35:13.692891 11675 net.cpp:148] Top shape: 100 4096 (409600)
I0403 13:35:13.692906 11675 net.cpp:156] Memory required for data: 824972400
I0403 13:35:13.692921 11675 layer_factory.hpp:77] Creating layer drop6
I0403 13:35:13.692939 11675 net.cpp:91] Creating Layer drop6
I0403 13:35:13.692953 11675 net.cpp:425] drop6 <- fc6
I0403 13:35:13.692972 11675 net.cpp:386] drop6 -> fc6 (in-place)
I0403 13:35:13.693022 11675 net.cpp:141] Setting up drop6
I0403 13:35:13.693044 11675 net.cpp:148] Top shape: 100 4096 (409600)
I0403 13:35:13.693058 11675 net.cpp:156] Memory required for data: 826610800
I0403 13:35:13.693073 11675 layer_factory.hpp:77] Creating layer fc7
I0403 13:35:13.693096 11675 net.cpp:91] Creating Layer fc7
I0403 13:35:13.693112 11675 net.cpp:425] fc7 <- fc6
I0403 13:35:13.693131 11675 net.cpp:399] fc7 -> fc7
I0403 13:35:14.365630 11675 net.cpp:141] Setting up fc7
I0403 13:35:14.365701 11675 net.cpp:148] Top shape: 100 4096 (409600)
I0403 13:35:14.365716 11675 net.cpp:156] Memory required for data: 828249200
I0403 13:35:14.365736 11675 layer_factory.hpp:77] Creating layer relu7
I0403 13:35:14.365757 11675 net.cpp:91] Creating Layer relu7
I0403 13:35:14.365773 11675 net.cpp:425] relu7 <- fc7
I0403 13:35:14.365792 11675 net.cpp:386] relu7 -> fc7 (in-place)
I0403 13:35:14.366183 11675 net.cpp:141] Setting up relu7
I0403 13:35:14.366210 11675 net.cpp:148] Top shape: 100 4096 (409600)
I0403 13:35:14.366263 11675 net.cpp:156] Memory required for data: 829887600
I0403 13:35:14.366278 11675 layer_factory.hpp:77] Creating layer drop7
I0403 13:35:14.366297 11675 net.cpp:91] Creating Layer drop7
I0403 13:35:14.366312 11675 net.cpp:425] drop7 <- fc7
I0403 13:35:14.366328 11675 net.cpp:386] drop7 -> fc7 (in-place)
I0403 13:35:14.366370 11675 net.cpp:141] Setting up drop7
I0403 13:35:14.366391 11675 net.cpp:148] Top shape: 100 4096 (409600)
I0403 13:35:14.366405 11675 net.cpp:156] Memory required for data: 831526000
I0403 13:35:14.366420 11675 layer_factory.hpp:77] Creating layer fc8_plantvillage
I0403 13:35:14.366441 11675 net.cpp:91] Creating Layer fc8_plantvillage
I0403 13:35:14.366456 11675 net.cpp:425] fc8_plantvillage <- fc7
I0403 13:35:14.366472 11675 net.cpp:399] fc8_plantvillage -> fc8_plantvillage
I0403 13:35:14.372977 11675 net.cpp:141] Setting up fc8_plantvillage
I0403 13:35:14.373003 11675 net.cpp:148] Top shape: 100 38 (3800)
I0403 13:35:14.373018 11675 net.cpp:156] Memory required for data: 831541200
I0403 13:35:14.373034 11675 layer_factory.hpp:77] Creating layer fc8_plantvillage_fc8_plantvillage_0_split
I0403 13:35:14.373051 11675 net.cpp:91] Creating Layer fc8_plantvillage_fc8_plantvillage_0_split
I0403 13:35:14.373066 11675 net.cpp:425] fc8_plantvillage_fc8_plantvillage_0_split <- fc8_plantvillage
I0403 13:35:14.373085 11675 net.cpp:399] fc8_plantvillage_fc8_plantvillage_0_split -> fc8_plantvillage_fc8_plantvillage_0_split_0
I0403 13:35:14.373103 11675 net.cpp:399] fc8_plantvillage_fc8_plantvillage_0_split -> fc8_plantvillage_fc8_plantvillage_0_split_1
I0403 13:35:14.373122 11675 net.cpp:399] fc8_plantvillage_fc8_plantvillage_0_split -> fc8_plantvillage_fc8_plantvillage_0_split_2
I0403 13:35:14.373195 11675 net.cpp:141] Setting up fc8_plantvillage_fc8_plantvillage_0_split
I0403 13:35:14.373219 11675 net.cpp:148] Top shape: 100 38 (3800)
I0403 13:35:14.373236 11675 net.cpp:148] Top shape: 100 38 (3800)
I0403 13:35:14.373251 11675 net.cpp:148] Top shape: 100 38 (3800)
I0403 13:35:14.373265 11675 net.cpp:156] Memory required for data: 831586800
I0403 13:35:14.373277 11675 layer_factory.hpp:77] Creating layer prob
I0403 13:35:14.373296 11675 net.cpp:91] Creating Layer prob
I0403 13:35:14.373311 11675 net.cpp:425] prob <- fc8_plantvillage_fc8_plantvillage_0_split_0
I0403 13:35:14.373327 11675 net.cpp:399] prob -> prob
I0403 13:35:14.373548 11675 net.cpp:141] Setting up prob
I0403 13:35:14.373575 11675 net.cpp:148] Top shape: 100 38 (3800)
I0403 13:35:14.373595 11675 net.cpp:156] Memory required for data: 831602000
I0403 13:35:14.373616 11675 layer_factory.hpp:77] Creating layer hdf5out
I0403 13:35:14.373636 11675 net.cpp:91] Creating Layer hdf5out
I0403 13:35:14.373649 11675 net.cpp:425] hdf5out <- prob
I0403 13:35:14.373664 11675 net.cpp:425] hdf5out <- label_data_1_split_0
I0403 13:35:14.376124 11675 net.cpp:141] Setting up hdf5out
…
