…
I0403 13:32:16.829136 11586 net.cpp:313] The NetState phase (1) differed from the phase (0) specified by a rule in layer data
I0403 13:32:16.829424 11586 net.cpp:49] Initializing net from parameters: 
state {
  phase: TEST
}
layer {
  name: "data"
  type: "Data"
  top: "data"
  top: "label"
  include {
    phase: TEST
  }
  transform_param {
    crop_size: 227
    mean_file: "/home/mohanty/data/final_dataset/lmdb/grayscale-80-20/mean.binaryproto"
  }
  data_param {
    source: "/home/mohanty/data/final_dataset/lmdb/grayscale-80-20/test_db"
    batch_size: 100
    backend: LMDB
  }
}
layer {
  name: "conv1"
  type: "Convolution"
  bottom: "data"
  top: "conv1"
  param {
    lr_mult: 1
    decay_mult: 1
  }
  param {
    lr_mult: 2
    decay_mult: 0
  }
  convolution_param {
    num_output: 96
    kernel_size: 11
    stride: 4
    weight_filler {
      type: "gaussian"
      std: 0.01
    }
    bias_filler {
      type: "constant"
      value: 0
    }
  }
}
layer {
  name: "relu1"
  type: "ReLU"
  bottom: "conv1"
  top: "conv1"
}
layer {
  name: "norm1"
  type: "LRN"
  bottom: "conv1"
  top: "norm1"
  lrn_param {
    local_size: 5
    alpha: 0.0001
    beta: 0.75
  }
}
layer {
  name: "pool1"
  type: "Pooling"
  bottom: "norm1"
  top: "pool1"
  pooling_param {
    pool: MAX
    kernel_size: 3
    stride: 2
  }
}
layer {
  name: "conv2"
  type: "Convolution"
  bottom: "pool1"
  top: "conv2"
  param {
    lr_mult: 1
    decay_mult: 1
  }
  param {
    lr_mult: 2
    decay_mult: 0
  }
  convolution_param {
    num_output: 256
    pad: 2
    kernel_size: 5
    group: 2
    weight_filler {
      type: "gaussian"
      std: 0.01
    }
    bias_filler {
      type: "constant"
      value: 0.1
    }
  }
}
layer {
  name: "relu2"
  type: "ReLU"
  bottom: "conv2"
  top: "conv2"
}
layer {
  name: "norm2"
  type: "LRN"
  bottom: "conv2"
  top: "norm2"
  lrn_param {
    local_size: 5
    alpha: 0.0001
    beta: 0.75
  }
}
layer {
  name: "pool2"
  type: "Pooling"
  bottom: "norm2"
  top: "pool2"
  pooling_param {
    pool: MAX
    kernel_size: 3
    stride: 2
  }
}
layer {
  name: "conv3"
  type: "Convolution"
  bottom: "pool2"
  top: "conv3"
  param {
    lr_mult: 1
    decay_mult: 1
  }
  param {
    lr_mult: 2
    decay_mult: 0
  }
  convolution_param {
    num_output: 384
    pad: 1
    kernel_size: 3
    weight_filler {
      type: "gaussian"
      std: 0.01
    }
    bias_filler {
      type: "constant"
      value: 0
    }
  }
}
layer {
  name: "relu3"
  type: "ReLU"
  bottom: "conv3"
  top: "conv3"
}
layer {
  name: "conv4"
  type: "Convolution"
  bottom: "conv3"
  top: "conv4"
  param {
    lr_mult: 1
    decay_mult: 1
  }
  param {
    lr_mult: 2
    decay_mult: 0
  }
  convolution_param {
    num_output: 384
    pad: 1
    kernel_size: 3
    group: 2
    weight_filler {
      type: "gaussian"
      std: 0.01
    }
    bias_filler {
      type: "constant"
      value: 0.1
    }
  }
}
layer {
  name: "relu4"
  type: "ReLU"
  bottom: "conv4"
  top: "conv4"
}
layer {
  name: "conv5"
  type: "Convolution"
  bottom: "conv4"
  top: "conv5"
  param {
    lr_mult: 1
    decay_mult: 1
  }
  param {
    lr_mult: 2
    decay_mult: 0
  }
  convolution_param {
    num_output: 256
    pad: 1
    kernel_size: 3
    group: 2
    weight_filler {
      type: "gaussian"
      std: 0.01
    }
    bias_filler {
      type: "constant"
      value: 0.1
    }
  }
}
layer {
  name: "relu5"
  type: "ReLU"
  bottom: "conv5"
  top: "conv5"
}
layer {
  name: "pool5"
  type: "Pooling"
  bottom: "conv5"
  top: "pool5"
  pooling_param {
    pool: MAX
    kernel_size: 3
    stride: 2
  }
}
layer {
  name: "fc6"
  type: "InnerProduct"
  bottom: "pool5"
  top: "fc6"
  param {
    lr_mult: 1
    decay_mult: 1
  }
  param {
    lr_mult: 2
    decay_mult: 0
  }
  inner_product_param {
    num_output: 4096
    weight_filler {
      type: "gaussian"
      std: 0.005
    }
    bias_filler {
      type: "constant"
      value: 0.1
    }
  }
}
layer {
  name: "relu6"
  type: "ReLU"
  bottom: "fc6"
  top: "fc6"
}
layer {
  name: "drop6"
  type: "Dropout"
  bottom: "fc6"
  top: "fc6"
  dropout_param {
    dropout_ratio: 0.5
  }
}
layer {
  name: "fc7"
  type: "InnerProduct"
  bottom: "fc6"
  top: "fc7"
  param {
    lr_mult: 1
    decay_mult: 1
  }
  param {
    lr_mult: 2
    decay_mult: 0
  }
  inner_product_param {
    num_output: 4096
    weight_filler {
      type: "gaussian"
      std: 0.005
    }
    bias_filler {
      type: "constant"
      value: 0.1
    }
  }
}
layer {
  name: "relu7"
  type: "ReLU"
  bottom: "fc7"
  top: "fc7"
}
layer {
  name: "drop7"
  type: "Dropout"
  bottom: "fc7"
  top: "fc7"
  dropout_param {
    dropout_ratio: 0.5
  }
}
layer {
  name: "fc8_plantvillage"
  type: "InnerProduct"
  bottom: "fc7"
  top: "fc8_plantvillage"
  param {
    lr_mult: 1
    decay_mult: 1
  }
  param {
    lr_mult: 2
    decay_mult: 0
  }
  inner_product_param {
    num_output: 38
    weight_filler {
      type: "gaussian"
      std: 0.01
    }
    bias_filler {
      type: "constant"
      value: 0
    }
  }
}
layer {
  name: "prob"
  type: "Softmax"
  bottom: "fc8_plantvillage"
  top: "prob"
  include {
    phase: TEST
  }
}
layer {
  name: "hdf5out"
  type: "HDF5Output"
  bottom: "prob"
  bottom: "label"
  include {
    phase: TEST
  }
  hdf5_output_param {
    file_name: "hdf5_dumps/iter_9592.h5"
  }
}
layer {
  name: "loss"
  type: "SoftmaxWithLoss"
  bottom: "fc8_plantvillage"
  bottom: "label"
  top: "loss"
}
layer {
  name: "accuracy"
  type: "Accuracy"
  bottom: "fc8_plantvillage"
  bottom: "label"
  top: "accuracy"
  include {
    phase: TEST
  }
}
I0403 13:32:16.830104 11586 layer_factory.hpp:77] Creating layer data
I0403 13:32:16.830744 11586 net.cpp:91] Creating Layer data
I0403 13:32:16.830777 11586 net.cpp:399] data -> data
I0403 13:32:16.830827 11586 net.cpp:399] data -> label
I0403 13:32:16.830862 11586 data_transformer.cpp:25] Loading mean file from: /home/mohanty/data/final_dataset/lmdb/grayscale-80-20/mean.binaryproto
I0403 13:32:16.833209 11589 db_lmdb.cpp:38] Opened lmdb /home/mohanty/data/final_dataset/lmdb/grayscale-80-20/test_db
I0403 13:32:16.844851 11586 data_layer.cpp:41] output data size: 100,3,227,227
I0403 13:32:16.963546 11586 net.cpp:141] Setting up data
I0403 13:32:16.963641 11586 net.cpp:148] Top shape: 100 3 227 227 (15458700)
I0403 13:32:16.963663 11586 net.cpp:148] Top shape: 100 (100)
I0403 13:32:16.963678 11586 net.cpp:156] Memory required for data: 61835200
I0403 13:32:16.963706 11586 layer_factory.hpp:77] Creating layer label_data_1_split
I0403 13:32:16.963731 11586 net.cpp:91] Creating Layer label_data_1_split
I0403 13:32:16.963747 11586 net.cpp:425] label_data_1_split <- label
I0403 13:32:16.963779 11586 net.cpp:399] label_data_1_split -> label_data_1_split_0
I0403 13:32:16.963805 11586 net.cpp:399] label_data_1_split -> label_data_1_split_1
I0403 13:32:16.963825 11586 net.cpp:399] label_data_1_split -> label_data_1_split_2
I0403 13:32:16.963888 11586 net.cpp:141] Setting up label_data_1_split
I0403 13:32:16.963910 11586 net.cpp:148] Top shape: 100 (100)
I0403 13:32:16.963927 11586 net.cpp:148] Top shape: 100 (100)
I0403 13:32:16.963942 11586 net.cpp:148] Top shape: 100 (100)
I0403 13:32:16.963955 11586 net.cpp:156] Memory required for data: 61836400
I0403 13:32:16.963969 11586 layer_factory.hpp:77] Creating layer conv1
I0403 13:32:16.964000 11586 net.cpp:91] Creating Layer conv1
I0403 13:32:16.964018 11586 net.cpp:425] conv1 <- data
I0403 13:32:16.964037 11586 net.cpp:399] conv1 -> conv1
I0403 13:32:17.105069 11586 net.cpp:141] Setting up conv1
I0403 13:32:17.105149 11586 net.cpp:148] Top shape: 100 96 55 55 (29040000)
I0403 13:32:17.105165 11586 net.cpp:156] Memory required for data: 177996400
I0403 13:32:17.105195 11586 layer_factory.hpp:77] Creating layer relu1
I0403 13:32:17.105222 11586 net.cpp:91] Creating Layer relu1
I0403 13:32:17.105240 11586 net.cpp:425] relu1 <- conv1
I0403 13:32:17.105258 11586 net.cpp:386] relu1 -> conv1 (in-place)
I0403 13:32:17.105512 11586 net.cpp:141] Setting up relu1
I0403 13:32:17.105538 11586 net.cpp:148] Top shape: 100 96 55 55 (29040000)
I0403 13:32:17.105605 11586 net.cpp:156] Memory required for data: 294156400
I0403 13:32:17.105623 11586 layer_factory.hpp:77] Creating layer norm1
I0403 13:32:17.105657 11586 net.cpp:91] Creating Layer norm1
I0403 13:32:17.105676 11586 net.cpp:425] norm1 <- conv1
I0403 13:32:17.105695 11586 net.cpp:399] norm1 -> norm1
I0403 13:32:17.106020 11586 net.cpp:141] Setting up norm1
I0403 13:32:17.106047 11586 net.cpp:148] Top shape: 100 96 55 55 (29040000)
I0403 13:32:17.106063 11586 net.cpp:156] Memory required for data: 410316400
I0403 13:32:17.106078 11586 layer_factory.hpp:77] Creating layer pool1
I0403 13:32:17.106101 11586 net.cpp:91] Creating Layer pool1
I0403 13:32:17.106119 11586 net.cpp:425] pool1 <- norm1
I0403 13:32:17.106137 11586 net.cpp:399] pool1 -> pool1
I0403 13:32:17.106204 11586 net.cpp:141] Setting up pool1
I0403 13:32:17.106228 11586 net.cpp:148] Top shape: 100 96 27 27 (6998400)
I0403 13:32:17.106243 11586 net.cpp:156] Memory required for data: 438310000
I0403 13:32:17.106258 11586 layer_factory.hpp:77] Creating layer conv2
I0403 13:32:17.106292 11586 net.cpp:91] Creating Layer conv2
I0403 13:32:17.106308 11586 net.cpp:425] conv2 <- pool1
I0403 13:32:17.106325 11586 net.cpp:399] conv2 -> conv2
I0403 13:32:17.121901 11586 net.cpp:141] Setting up conv2
I0403 13:32:17.121949 11586 net.cpp:148] Top shape: 100 256 27 27 (18662400)
I0403 13:32:17.121966 11586 net.cpp:156] Memory required for data: 512959600
I0403 13:32:17.121989 11586 layer_factory.hpp:77] Creating layer relu2
I0403 13:32:17.122010 11586 net.cpp:91] Creating Layer relu2
I0403 13:32:17.122026 11586 net.cpp:425] relu2 <- conv2
I0403 13:32:17.122046 11586 net.cpp:386] relu2 -> conv2 (in-place)
I0403 13:32:17.122344 11586 net.cpp:141] Setting up relu2
I0403 13:32:17.122373 11586 net.cpp:148] Top shape: 100 256 27 27 (18662400)
I0403 13:32:17.122429 11586 net.cpp:156] Memory required for data: 587609200
I0403 13:32:17.122452 11586 layer_factory.hpp:77] Creating layer norm2
I0403 13:32:17.122476 11586 net.cpp:91] Creating Layer norm2
I0403 13:32:17.122494 11586 net.cpp:425] norm2 <- conv2
I0403 13:32:17.122512 11586 net.cpp:399] norm2 -> norm2
I0403 13:32:17.122726 11586 net.cpp:141] Setting up norm2
I0403 13:32:17.122752 11586 net.cpp:148] Top shape: 100 256 27 27 (18662400)
I0403 13:32:17.122768 11586 net.cpp:156] Memory required for data: 662258800
I0403 13:32:17.122783 11586 layer_factory.hpp:77] Creating layer pool2
I0403 13:32:17.122802 11586 net.cpp:91] Creating Layer pool2
I0403 13:32:17.122817 11586 net.cpp:425] pool2 <- norm2
I0403 13:32:17.122836 11586 net.cpp:399] pool2 -> pool2
I0403 13:32:17.122891 11586 net.cpp:141] Setting up pool2
I0403 13:32:17.122915 11586 net.cpp:148] Top shape: 100 256 13 13 (4326400)
I0403 13:32:17.122931 11586 net.cpp:156] Memory required for data: 679564400
I0403 13:32:17.122944 11586 layer_factory.hpp:77] Creating layer conv3
I0403 13:32:17.122972 11586 net.cpp:91] Creating Layer conv3
I0403 13:32:17.122989 11586 net.cpp:425] conv3 <- pool2
I0403 13:32:17.123008 11586 net.cpp:399] conv3 -> conv3
I0403 13:32:17.163175 11586 net.cpp:141] Setting up conv3
I0403 13:32:17.163223 11586 net.cpp:148] Top shape: 100 384 13 13 (6489600)
I0403 13:32:17.163241 11586 net.cpp:156] Memory required for data: 705522800
I0403 13:32:17.163266 11586 layer_factory.hpp:77] Creating layer relu3
I0403 13:32:17.163287 11586 net.cpp:91] Creating Layer relu3
I0403 13:32:17.163303 11586 net.cpp:425] relu3 <- conv3
I0403 13:32:17.163324 11586 net.cpp:386] relu3 -> conv3 (in-place)
I0403 13:32:17.163599 11586 net.cpp:141] Setting up relu3
I0403 13:32:17.163626 11586 net.cpp:148] Top shape: 100 384 13 13 (6489600)
I0403 13:32:17.163640 11586 net.cpp:156] Memory required for data: 731481200
I0403 13:32:17.163655 11586 layer_factory.hpp:77] Creating layer conv4
I0403 13:32:17.163681 11586 net.cpp:91] Creating Layer conv4
I0403 13:32:17.163698 11586 net.cpp:425] conv4 <- conv3
I0403 13:32:17.163718 11586 net.cpp:399] conv4 -> conv4
I0403 13:32:17.193140 11586 net.cpp:141] Setting up conv4
I0403 13:32:17.193187 11586 net.cpp:148] Top shape: 100 384 13 13 (6489600)
I0403 13:32:17.193230 11586 net.cpp:156] Memory required for data: 757439600
I0403 13:32:17.193250 11586 layer_factory.hpp:77] Creating layer relu4
I0403 13:32:17.193269 11586 net.cpp:91] Creating Layer relu4
I0403 13:32:17.193284 11586 net.cpp:425] relu4 <- conv4
I0403 13:32:17.193305 11586 net.cpp:386] relu4 -> conv4 (in-place)
I0403 13:32:17.193577 11586 net.cpp:141] Setting up relu4
I0403 13:32:17.193606 11586 net.cpp:148] Top shape: 100 384 13 13 (6489600)
I0403 13:32:17.193622 11586 net.cpp:156] Memory required for data: 783398000
I0403 13:32:17.193637 11586 layer_factory.hpp:77] Creating layer conv5
I0403 13:32:17.193660 11586 net.cpp:91] Creating Layer conv5
I0403 13:32:17.193675 11586 net.cpp:425] conv5 <- conv4
I0403 13:32:17.193693 11586 net.cpp:399] conv5 -> conv5
I0403 13:32:17.214246 11586 net.cpp:141] Setting up conv5
I0403 13:32:17.214295 11586 net.cpp:148] Top shape: 100 256 13 13 (4326400)
I0403 13:32:17.214313 11586 net.cpp:156] Memory required for data: 800703600
I0403 13:32:17.214337 11586 layer_factory.hpp:77] Creating layer relu5
I0403 13:32:17.214357 11586 net.cpp:91] Creating Layer relu5
I0403 13:32:17.214373 11586 net.cpp:425] relu5 <- conv5
I0403 13:32:17.214395 11586 net.cpp:386] relu5 -> conv5 (in-place)
I0403 13:32:17.214730 11586 net.cpp:141] Setting up relu5
I0403 13:32:17.214756 11586 net.cpp:148] Top shape: 100 256 13 13 (4326400)
I0403 13:32:17.214772 11586 net.cpp:156] Memory required for data: 818009200
I0403 13:32:17.214787 11586 layer_factory.hpp:77] Creating layer pool5
I0403 13:32:17.214809 11586 net.cpp:91] Creating Layer pool5
I0403 13:32:17.214825 11586 net.cpp:425] pool5 <- conv5
I0403 13:32:17.214845 11586 net.cpp:399] pool5 -> pool5
I0403 13:32:17.214906 11586 net.cpp:141] Setting up pool5
I0403 13:32:17.214929 11586 net.cpp:148] Top shape: 100 256 6 6 (921600)
I0403 13:32:17.214943 11586 net.cpp:156] Memory required for data: 821695600
I0403 13:32:17.214958 11586 layer_factory.hpp:77] Creating layer fc6
I0403 13:32:17.214987 11586 net.cpp:91] Creating Layer fc6
I0403 13:32:17.215003 11586 net.cpp:425] fc6 <- pool5
I0403 13:32:17.215023 11586 net.cpp:399] fc6 -> fc6
I0403 13:32:18.741446 11586 net.cpp:141] Setting up fc6
I0403 13:32:18.741503 11586 net.cpp:148] Top shape: 100 4096 (409600)
I0403 13:32:18.741518 11586 net.cpp:156] Memory required for data: 823334000
I0403 13:32:18.741539 11586 layer_factory.hpp:77] Creating layer relu6
I0403 13:32:18.741562 11586 net.cpp:91] Creating Layer relu6
I0403 13:32:18.741585 11586 net.cpp:425] relu6 <- fc6
I0403 13:32:18.741606 11586 net.cpp:386] relu6 -> fc6 (in-place)
I0403 13:32:18.741821 11586 net.cpp:141] Setting up relu6
I0403 13:32:18.741845 11586 net.cpp:148] Top shape: 100 4096 (409600)
I0403 13:32:18.741860 11586 net.cpp:156] Memory required for data: 824972400
I0403 13:32:18.741874 11586 layer_factory.hpp:77] Creating layer drop6
I0403 13:32:18.741893 11586 net.cpp:91] Creating Layer drop6
I0403 13:32:18.741907 11586 net.cpp:425] drop6 <- fc6
I0403 13:32:18.741925 11586 net.cpp:386] drop6 -> fc6 (in-place)
I0403 13:32:18.741974 11586 net.cpp:141] Setting up drop6
I0403 13:32:18.741997 11586 net.cpp:148] Top shape: 100 4096 (409600)
I0403 13:32:18.742017 11586 net.cpp:156] Memory required for data: 826610800
I0403 13:32:18.742030 11586 layer_factory.hpp:77] Creating layer fc7
I0403 13:32:18.742049 11586 net.cpp:91] Creating Layer fc7
I0403 13:32:18.742064 11586 net.cpp:425] fc7 <- fc6
I0403 13:32:18.742084 11586 net.cpp:399] fc7 -> fc7
I0403 13:32:19.419862 11586 net.cpp:141] Setting up fc7
I0403 13:32:19.419904 11586 net.cpp:148] Top shape: 100 4096 (409600)
I0403 13:32:19.419920 11586 net.cpp:156] Memory required for data: 828249200
I0403 13:32:19.419940 11586 layer_factory.hpp:77] Creating layer relu7
I0403 13:32:19.419962 11586 net.cpp:91] Creating Layer relu7
I0403 13:32:19.419978 11586 net.cpp:425] relu7 <- fc7
I0403 13:32:19.419999 11586 net.cpp:386] relu7 -> fc7 (in-place)
I0403 13:32:19.420408 11586 net.cpp:141] Setting up relu7
I0403 13:32:19.420436 11586 net.cpp:148] Top shape: 100 4096 (409600)
I0403 13:32:19.420492 11586 net.cpp:156] Memory required for data: 829887600
I0403 13:32:19.420508 11586 layer_factory.hpp:77] Creating layer drop7
I0403 13:32:19.420526 11586 net.cpp:91] Creating Layer drop7
I0403 13:32:19.420542 11586 net.cpp:425] drop7 <- fc7
I0403 13:32:19.420577 11586 net.cpp:386] drop7 -> fc7 (in-place)
I0403 13:32:19.420619 11586 net.cpp:141] Setting up drop7
I0403 13:32:19.420641 11586 net.cpp:148] Top shape: 100 4096 (409600)
I0403 13:32:19.420655 11586 net.cpp:156] Memory required for data: 831526000
I0403 13:32:19.420670 11586 layer_factory.hpp:77] Creating layer fc8_plantvillage
I0403 13:32:19.420691 11586 net.cpp:91] Creating Layer fc8_plantvillage
I0403 13:32:19.420706 11586 net.cpp:425] fc8_plantvillage <- fc7
I0403 13:32:19.420725 11586 net.cpp:399] fc8_plantvillage -> fc8_plantvillage
I0403 13:32:19.427462 11586 net.cpp:141] Setting up fc8_plantvillage
I0403 13:32:19.427491 11586 net.cpp:148] Top shape: 100 38 (3800)
I0403 13:32:19.427506 11586 net.cpp:156] Memory required for data: 831541200
I0403 13:32:19.427523 11586 layer_factory.hpp:77] Creating layer fc8_plantvillage_fc8_plantvillage_0_split
I0403 13:32:19.427542 11586 net.cpp:91] Creating Layer fc8_plantvillage_fc8_plantvillage_0_split
I0403 13:32:19.427557 11586 net.cpp:425] fc8_plantvillage_fc8_plantvillage_0_split <- fc8_plantvillage
I0403 13:32:19.427582 11586 net.cpp:399] fc8_plantvillage_fc8_plantvillage_0_split -> fc8_plantvillage_fc8_plantvillage_0_split_0
I0403 13:32:19.427604 11586 net.cpp:399] fc8_plantvillage_fc8_plantvillage_0_split -> fc8_plantvillage_fc8_plantvillage_0_split_1
I0403 13:32:19.427625 11586 net.cpp:399] fc8_plantvillage_fc8_plantvillage_0_split -> fc8_plantvillage_fc8_plantvillage_0_split_2
I0403 13:32:19.427702 11586 net.cpp:141] Setting up fc8_plantvillage_fc8_plantvillage_0_split
I0403 13:32:19.427726 11586 net.cpp:148] Top shape: 100 38 (3800)
I0403 13:32:19.427742 11586 net.cpp:148] Top shape: 100 38 (3800)
I0403 13:32:19.427757 11586 net.cpp:148] Top shape: 100 38 (3800)
I0403 13:32:19.427769 11586 net.cpp:156] Memory required for data: 831586800
I0403 13:32:19.427783 11586 layer_factory.hpp:77] Creating layer prob
I0403 13:32:19.427801 11586 net.cpp:91] Creating Layer prob
I0403 13:32:19.427815 11586 net.cpp:425] prob <- fc8_plantvillage_fc8_plantvillage_0_split_0
I0403 13:32:19.427835 11586 net.cpp:399] prob -> prob
I0403 13:32:19.428058 11586 net.cpp:141] Setting up prob
I0403 13:32:19.428087 11586 net.cpp:148] Top shape: 100 38 (3800)
I0403 13:32:19.428102 11586 net.cpp:156] Memory required for data: 831602000
I0403 13:32:19.428117 11586 layer_factory.hpp:77] Creating layer hdf5out
I0403 13:32:19.428134 11586 net.cpp:91] Creating Layer hdf5out
I0403 13:32:19.428149 11586 net.cpp:425] hdf5out <- prob
I0403 13:32:19.428165 11586 net.cpp:425] hdf5out <- label_data_1_split_0
I0403 13:32:19.430683 11586 net.cpp:141] Setting up hdf5out
…
