…
I0403 13:23:44.940901 11142 net.cpp:313] The NetState phase (1) differed from the phase (0) specified by a rule in layer data
I0403 13:23:44.941237 11142 net.cpp:49] Initializing net from parameters: 
state {
  phase: TEST
}
layer {
  name: "data"
  type: "Data"
  top: "data"
  top: "label"
  include {
    phase: TEST
  }
  transform_param {
    crop_size: 227
    mean_file: "/home/mohanty/data/final_dataset/lmdb/grayscale-80-20/mean.binaryproto"
  }
  data_param {
    source: "/home/mohanty/data/final_dataset/lmdb/grayscale-80-20/test_db"
    batch_size: 100
    backend: LMDB
  }
}
layer {
  name: "conv1"
  type: "Convolution"
  bottom: "data"
  top: "conv1"
  param {
    lr_mult: 1
    decay_mult: 1
  }
  param {
    lr_mult: 2
    decay_mult: 0
  }
  convolution_param {
    num_output: 96
    kernel_size: 11
    stride: 4
    weight_filler {
      type: "gaussian"
      std: 0.01
    }
    bias_filler {
      type: "constant"
      value: 0
    }
  }
}
layer {
  name: "relu1"
  type: "ReLU"
  bottom: "conv1"
  top: "conv1"
}
layer {
  name: "norm1"
  type: "LRN"
  bottom: "conv1"
  top: "norm1"
  lrn_param {
    local_size: 5
    alpha: 0.0001
    beta: 0.75
  }
}
layer {
  name: "pool1"
  type: "Pooling"
  bottom: "norm1"
  top: "pool1"
  pooling_param {
    pool: MAX
    kernel_size: 3
    stride: 2
  }
}
layer {
  name: "conv2"
  type: "Convolution"
  bottom: "pool1"
  top: "conv2"
  param {
    lr_mult: 1
    decay_mult: 1
  }
  param {
    lr_mult: 2
    decay_mult: 0
  }
  convolution_param {
    num_output: 256
    pad: 2
    kernel_size: 5
    group: 2
    weight_filler {
      type: "gaussian"
      std: 0.01
    }
    bias_filler {
      type: "constant"
      value: 0.1
    }
  }
}
layer {
  name: "relu2"
  type: "ReLU"
  bottom: "conv2"
  top: "conv2"
}
layer {
  name: "norm2"
  type: "LRN"
  bottom: "conv2"
  top: "norm2"
  lrn_param {
    local_size: 5
    alpha: 0.0001
    beta: 0.75
  }
}
layer {
  name: "pool2"
  type: "Pooling"
  bottom: "norm2"
  top: "pool2"
  pooling_param {
    pool: MAX
    kernel_size: 3
    stride: 2
  }
}
layer {
  name: "conv3"
  type: "Convolution"
  bottom: "pool2"
  top: "conv3"
  param {
    lr_mult: 1
    decay_mult: 1
  }
  param {
    lr_mult: 2
    decay_mult: 0
  }
  convolution_param {
    num_output: 384
    pad: 1
    kernel_size: 3
    weight_filler {
      type: "gaussian"
      std: 0.01
    }
    bias_filler {
      type: "constant"
      value: 0
    }
  }
}
layer {
  name: "relu3"
  type: "ReLU"
  bottom: "conv3"
  top: "conv3"
}
layer {
  name: "conv4"
  type: "Convolution"
  bottom: "conv3"
  top: "conv4"
  param {
    lr_mult: 1
    decay_mult: 1
  }
  param {
    lr_mult: 2
    decay_mult: 0
  }
  convolution_param {
    num_output: 384
    pad: 1
    kernel_size: 3
    group: 2
    weight_filler {
      type: "gaussian"
      std: 0.01
    }
    bias_filler {
      type: "constant"
      value: 0.1
    }
  }
}
layer {
  name: "relu4"
  type: "ReLU"
  bottom: "conv4"
  top: "conv4"
}
layer {
  name: "conv5"
  type: "Convolution"
  bottom: "conv4"
  top: "conv5"
  param {
    lr_mult: 1
    decay_mult: 1
  }
  param {
    lr_mult: 2
    decay_mult: 0
  }
  convolution_param {
    num_output: 256
    pad: 1
    kernel_size: 3
    group: 2
    weight_filler {
      type: "gaussian"
      std: 0.01
    }
    bias_filler {
      type: "constant"
      value: 0.1
    }
  }
}
layer {
  name: "relu5"
  type: "ReLU"
  bottom: "conv5"
  top: "conv5"
}
layer {
  name: "pool5"
  type: "Pooling"
  bottom: "conv5"
  top: "pool5"
  pooling_param {
    pool: MAX
    kernel_size: 3
    stride: 2
  }
}
layer {
  name: "fc6"
  type: "InnerProduct"
  bottom: "pool5"
  top: "fc6"
  param {
    lr_mult: 1
    decay_mult: 1
  }
  param {
    lr_mult: 2
    decay_mult: 0
  }
  inner_product_param {
    num_output: 4096
    weight_filler {
      type: "gaussian"
      std: 0.005
    }
    bias_filler {
      type: "constant"
      value: 0.1
    }
  }
}
layer {
  name: "relu6"
  type: "ReLU"
  bottom: "fc6"
  top: "fc6"
}
layer {
  name: "drop6"
  type: "Dropout"
  bottom: "fc6"
  top: "fc6"
  dropout_param {
    dropout_ratio: 0.5
  }
}
layer {
  name: "fc7"
  type: "InnerProduct"
  bottom: "fc6"
  top: "fc7"
  param {
    lr_mult: 1
    decay_mult: 1
  }
  param {
    lr_mult: 2
    decay_mult: 0
  }
  inner_product_param {
    num_output: 4096
    weight_filler {
      type: "gaussian"
      std: 0.005
    }
    bias_filler {
      type: "constant"
      value: 0.1
    }
  }
}
layer {
  name: "relu7"
  type: "ReLU"
  bottom: "fc7"
  top: "fc7"
}
layer {
  name: "drop7"
  type: "Dropout"
  bottom: "fc7"
  top: "fc7"
  dropout_param {
    dropout_ratio: 0.5
  }
}
layer {
  name: "fc8_plantvillage"
  type: "InnerProduct"
  bottom: "fc7"
  top: "fc8_plantvillage"
  param {
    lr_mult: 1
    decay_mult: 1
  }
  param {
    lr_mult: 2
    decay_mult: 0
  }
  inner_product_param {
    num_output: 38
    weight_filler {
      type: "gaussian"
      std: 0.01
    }
    bias_filler {
      type: "constant"
      value: 0
    }
  }
}
layer {
  name: "prob"
  type: "Softmax"
  bottom: "fc8_plantvillage"
  top: "prob"
  include {
    phase: TEST
  }
}
layer {
  name: "hdf5out"
  type: "HDF5Output"
  bottom: "prob"
  bottom: "label"
  include {
    phase: TEST
  }
  hdf5_output_param {
    file_name: "hdf5_dumps/iter_872.h5"
  }
}
layer {
  name: "loss"
  type: "SoftmaxWithLoss"
  bottom: "fc8_plantvillage"
  bottom: "label"
  top: "loss"
}
layer {
  name: "accuracy"
  type: "Accuracy"
  bottom: "fc8_plantvillage"
  bottom: "label"
  top: "accuracy"
  include {
    phase: TEST
  }
}
I0403 13:23:44.941859 11142 layer_factory.hpp:77] Creating layer data
I0403 13:23:44.942534 11142 net.cpp:91] Creating Layer data
I0403 13:23:44.942577 11142 net.cpp:399] data -> data
I0403 13:23:44.942636 11142 net.cpp:399] data -> label
I0403 13:23:44.942674 11142 data_transformer.cpp:25] Loading mean file from: /home/mohanty/data/final_dataset/lmdb/grayscale-80-20/mean.binaryproto
I0403 13:23:44.954615 11146 db_lmdb.cpp:38] Opened lmdb /home/mohanty/data/final_dataset/lmdb/grayscale-80-20/test_db
I0403 13:23:44.966172 11142 data_layer.cpp:41] output data size: 100,3,227,227
I0403 13:23:45.083349 11142 net.cpp:141] Setting up data
I0403 13:23:45.083443 11142 net.cpp:148] Top shape: 100 3 227 227 (15458700)
I0403 13:23:45.083467 11142 net.cpp:148] Top shape: 100 (100)
I0403 13:23:45.083482 11142 net.cpp:156] Memory required for data: 61835200
I0403 13:23:45.083511 11142 layer_factory.hpp:77] Creating layer label_data_1_split
I0403 13:23:45.083537 11142 net.cpp:91] Creating Layer label_data_1_split
I0403 13:23:45.083554 11142 net.cpp:425] label_data_1_split <- label
I0403 13:23:45.083587 11142 net.cpp:399] label_data_1_split -> label_data_1_split_0
I0403 13:23:45.083619 11142 net.cpp:399] label_data_1_split -> label_data_1_split_1
I0403 13:23:45.083641 11142 net.cpp:399] label_data_1_split -> label_data_1_split_2
I0403 13:23:45.083704 11142 net.cpp:141] Setting up label_data_1_split
I0403 13:23:45.083729 11142 net.cpp:148] Top shape: 100 (100)
I0403 13:23:45.083745 11142 net.cpp:148] Top shape: 100 (100)
I0403 13:23:45.083761 11142 net.cpp:148] Top shape: 100 (100)
I0403 13:23:45.083775 11142 net.cpp:156] Memory required for data: 61836400
I0403 13:23:45.083791 11142 layer_factory.hpp:77] Creating layer conv1
I0403 13:23:45.083822 11142 net.cpp:91] Creating Layer conv1
I0403 13:23:45.083840 11142 net.cpp:425] conv1 <- data
I0403 13:23:45.083868 11142 net.cpp:399] conv1 -> conv1
I0403 13:23:45.220031 11142 net.cpp:141] Setting up conv1
I0403 13:23:45.220106 11142 net.cpp:148] Top shape: 100 96 55 55 (29040000)
I0403 13:23:45.220124 11142 net.cpp:156] Memory required for data: 177996400
I0403 13:23:45.220155 11142 layer_factory.hpp:77] Creating layer relu1
I0403 13:23:45.220182 11142 net.cpp:91] Creating Layer relu1
I0403 13:23:45.220201 11142 net.cpp:425] relu1 <- conv1
I0403 13:23:45.220218 11142 net.cpp:386] relu1 -> conv1 (in-place)
I0403 13:23:45.220469 11142 net.cpp:141] Setting up relu1
I0403 13:23:45.220495 11142 net.cpp:148] Top shape: 100 96 55 55 (29040000)
I0403 13:23:45.220542 11142 net.cpp:156] Memory required for data: 294156400
I0403 13:23:45.220558 11142 layer_factory.hpp:77] Creating layer norm1
I0403 13:23:45.220585 11142 net.cpp:91] Creating Layer norm1
I0403 13:23:45.220607 11142 net.cpp:425] norm1 <- conv1
I0403 13:23:45.220626 11142 net.cpp:399] norm1 -> norm1
I0403 13:23:45.220924 11142 net.cpp:141] Setting up norm1
I0403 13:23:45.220952 11142 net.cpp:148] Top shape: 100 96 55 55 (29040000)
I0403 13:23:45.220968 11142 net.cpp:156] Memory required for data: 410316400
I0403 13:23:45.220981 11142 layer_factory.hpp:77] Creating layer pool1
I0403 13:23:45.221004 11142 net.cpp:91] Creating Layer pool1
I0403 13:23:45.221021 11142 net.cpp:425] pool1 <- norm1
I0403 13:23:45.221038 11142 net.cpp:399] pool1 -> pool1
I0403 13:23:45.221103 11142 net.cpp:141] Setting up pool1
I0403 13:23:45.221127 11142 net.cpp:148] Top shape: 100 96 27 27 (6998400)
I0403 13:23:45.221141 11142 net.cpp:156] Memory required for data: 438310000
I0403 13:23:45.221155 11142 layer_factory.hpp:77] Creating layer conv2
I0403 13:23:45.221179 11142 net.cpp:91] Creating Layer conv2
I0403 13:23:45.221195 11142 net.cpp:425] conv2 <- pool1
I0403 13:23:45.221215 11142 net.cpp:399] conv2 -> conv2
I0403 13:23:45.235605 11142 net.cpp:141] Setting up conv2
I0403 13:23:45.235641 11142 net.cpp:148] Top shape: 100 256 27 27 (18662400)
I0403 13:23:45.235657 11142 net.cpp:156] Memory required for data: 512959600
I0403 13:23:45.235678 11142 layer_factory.hpp:77] Creating layer relu2
I0403 13:23:45.235697 11142 net.cpp:91] Creating Layer relu2
I0403 13:23:45.235712 11142 net.cpp:425] relu2 <- conv2
I0403 13:23:45.235728 11142 net.cpp:386] relu2 -> conv2 (in-place)
I0403 13:23:45.235985 11142 net.cpp:141] Setting up relu2
I0403 13:23:45.236012 11142 net.cpp:148] Top shape: 100 256 27 27 (18662400)
I0403 13:23:45.236027 11142 net.cpp:156] Memory required for data: 587609200
I0403 13:23:45.236042 11142 layer_factory.hpp:77] Creating layer norm2
I0403 13:23:45.236060 11142 net.cpp:91] Creating Layer norm2
I0403 13:23:45.236076 11142 net.cpp:425] norm2 <- conv2
I0403 13:23:45.236093 11142 net.cpp:399] norm2 -> norm2
I0403 13:23:45.236268 11142 net.cpp:141] Setting up norm2
I0403 13:23:45.236294 11142 net.cpp:148] Top shape: 100 256 27 27 (18662400)
I0403 13:23:45.236309 11142 net.cpp:156] Memory required for data: 662258800
I0403 13:23:45.236323 11142 layer_factory.hpp:77] Creating layer pool2
I0403 13:23:45.236340 11142 net.cpp:91] Creating Layer pool2
I0403 13:23:45.236356 11142 net.cpp:425] pool2 <- norm2
I0403 13:23:45.236372 11142 net.cpp:399] pool2 -> pool2
I0403 13:23:45.236418 11142 net.cpp:141] Setting up pool2
I0403 13:23:45.236441 11142 net.cpp:148] Top shape: 100 256 13 13 (4326400)
I0403 13:23:45.236455 11142 net.cpp:156] Memory required for data: 679564400
I0403 13:23:45.236470 11142 layer_factory.hpp:77] Creating layer conv3
I0403 13:23:45.236490 11142 net.cpp:91] Creating Layer conv3
I0403 13:23:45.236505 11142 net.cpp:425] conv3 <- pool2
I0403 13:23:45.236522 11142 net.cpp:399] conv3 -> conv3
I0403 13:23:45.273804 11142 net.cpp:141] Setting up conv3
I0403 13:23:45.273876 11142 net.cpp:148] Top shape: 100 384 13 13 (6489600)
I0403 13:23:45.273892 11142 net.cpp:156] Memory required for data: 705522800
I0403 13:23:45.273917 11142 layer_factory.hpp:77] Creating layer relu3
I0403 13:23:45.273939 11142 net.cpp:91] Creating Layer relu3
I0403 13:23:45.273955 11142 net.cpp:425] relu3 <- conv3
I0403 13:23:45.273973 11142 net.cpp:386] relu3 -> conv3 (in-place)
I0403 13:23:45.274230 11142 net.cpp:141] Setting up relu3
I0403 13:23:45.274257 11142 net.cpp:148] Top shape: 100 384 13 13 (6489600)
I0403 13:23:45.274271 11142 net.cpp:156] Memory required for data: 731481200
I0403 13:23:45.274286 11142 layer_factory.hpp:77] Creating layer conv4
I0403 13:23:45.274308 11142 net.cpp:91] Creating Layer conv4
I0403 13:23:45.274325 11142 net.cpp:425] conv4 <- conv3
I0403 13:23:45.274343 11142 net.cpp:399] conv4 -> conv4
I0403 13:23:45.302995 11142 net.cpp:141] Setting up conv4
I0403 13:23:45.303045 11142 net.cpp:148] Top shape: 100 384 13 13 (6489600)
I0403 13:23:45.303093 11142 net.cpp:156] Memory required for data: 757439600
I0403 13:23:45.303115 11142 layer_factory.hpp:77] Creating layer relu4
I0403 13:23:45.303135 11142 net.cpp:91] Creating Layer relu4
I0403 13:23:45.303153 11142 net.cpp:425] relu4 <- conv4
I0403 13:23:45.303174 11142 net.cpp:386] relu4 -> conv4 (in-place)
I0403 13:23:45.303452 11142 net.cpp:141] Setting up relu4
I0403 13:23:45.303478 11142 net.cpp:148] Top shape: 100 384 13 13 (6489600)
I0403 13:23:45.303493 11142 net.cpp:156] Memory required for data: 783398000
I0403 13:23:45.303508 11142 layer_factory.hpp:77] Creating layer conv5
I0403 13:23:45.303531 11142 net.cpp:91] Creating Layer conv5
I0403 13:23:45.303549 11142 net.cpp:425] conv5 <- conv4
I0403 13:23:45.303568 11142 net.cpp:399] conv5 -> conv5
I0403 13:23:45.323351 11142 net.cpp:141] Setting up conv5
I0403 13:23:45.323388 11142 net.cpp:148] Top shape: 100 256 13 13 (4326400)
I0403 13:23:45.323405 11142 net.cpp:156] Memory required for data: 800703600
I0403 13:23:45.323426 11142 layer_factory.hpp:77] Creating layer relu5
I0403 13:23:45.323449 11142 net.cpp:91] Creating Layer relu5
I0403 13:23:45.323467 11142 net.cpp:425] relu5 <- conv5
I0403 13:23:45.323484 11142 net.cpp:386] relu5 -> conv5 (in-place)
I0403 13:23:45.323768 11142 net.cpp:141] Setting up relu5
I0403 13:23:45.323799 11142 net.cpp:148] Top shape: 100 256 13 13 (4326400)
I0403 13:23:45.323814 11142 net.cpp:156] Memory required for data: 818009200
I0403 13:23:45.323829 11142 layer_factory.hpp:77] Creating layer pool5
I0403 13:23:45.323850 11142 net.cpp:91] Creating Layer pool5
I0403 13:23:45.323866 11142 net.cpp:425] pool5 <- conv5
I0403 13:23:45.323886 11142 net.cpp:399] pool5 -> pool5
I0403 13:23:45.323945 11142 net.cpp:141] Setting up pool5
I0403 13:23:45.323971 11142 net.cpp:148] Top shape: 100 256 6 6 (921600)
I0403 13:23:45.323987 11142 net.cpp:156] Memory required for data: 821695600
I0403 13:23:45.324000 11142 layer_factory.hpp:77] Creating layer fc6
I0403 13:23:45.324026 11142 net.cpp:91] Creating Layer fc6
I0403 13:23:45.324043 11142 net.cpp:425] fc6 <- pool5
I0403 13:23:45.324062 11142 net.cpp:399] fc6 -> fc6
I0403 13:23:46.838297 11142 net.cpp:141] Setting up fc6
I0403 13:23:46.838384 11142 net.cpp:148] Top shape: 100 4096 (409600)
I0403 13:23:46.838400 11142 net.cpp:156] Memory required for data: 823334000
I0403 13:23:46.838421 11142 layer_factory.hpp:77] Creating layer relu6
I0403 13:23:46.838446 11142 net.cpp:91] Creating Layer relu6
I0403 13:23:46.838464 11142 net.cpp:425] relu6 <- fc6
I0403 13:23:46.838482 11142 net.cpp:386] relu6 -> fc6 (in-place)
I0403 13:23:46.838713 11142 net.cpp:141] Setting up relu6
I0403 13:23:46.838737 11142 net.cpp:148] Top shape: 100 4096 (409600)
I0403 13:23:46.838752 11142 net.cpp:156] Memory required for data: 824972400
I0403 13:23:46.838767 11142 layer_factory.hpp:77] Creating layer drop6
I0403 13:23:46.838788 11142 net.cpp:91] Creating Layer drop6
I0403 13:23:46.838803 11142 net.cpp:425] drop6 <- fc6
I0403 13:23:46.838819 11142 net.cpp:386] drop6 -> fc6 (in-place)
I0403 13:23:46.838872 11142 net.cpp:141] Setting up drop6
I0403 13:23:46.838894 11142 net.cpp:148] Top shape: 100 4096 (409600)
I0403 13:23:46.838908 11142 net.cpp:156] Memory required for data: 826610800
I0403 13:23:46.838922 11142 layer_factory.hpp:77] Creating layer fc7
I0403 13:23:46.838945 11142 net.cpp:91] Creating Layer fc7
I0403 13:23:46.838961 11142 net.cpp:425] fc7 <- fc6
I0403 13:23:46.838979 11142 net.cpp:399] fc7 -> fc7
I0403 13:23:47.535414 11142 net.cpp:141] Setting up fc7
I0403 13:23:47.535486 11142 net.cpp:148] Top shape: 100 4096 (409600)
I0403 13:23:47.535506 11142 net.cpp:156] Memory required for data: 828249200
I0403 13:23:47.535529 11142 layer_factory.hpp:77] Creating layer relu7
I0403 13:23:47.535552 11142 net.cpp:91] Creating Layer relu7
I0403 13:23:47.535578 11142 net.cpp:425] relu7 <- fc7
I0403 13:23:47.535601 11142 net.cpp:386] relu7 -> fc7 (in-place)
I0403 13:23:47.536041 11142 net.cpp:141] Setting up relu7
I0403 13:23:47.536072 11142 net.cpp:148] Top shape: 100 4096 (409600)
I0403 13:23:47.536128 11142 net.cpp:156] Memory required for data: 829887600
I0403 13:23:47.536144 11142 layer_factory.hpp:77] Creating layer drop7
I0403 13:23:47.536166 11142 net.cpp:91] Creating Layer drop7
I0403 13:23:47.536182 11142 net.cpp:425] drop7 <- fc7
I0403 13:23:47.536201 11142 net.cpp:386] drop7 -> fc7 (in-place)
I0403 13:23:47.536249 11142 net.cpp:141] Setting up drop7
I0403 13:23:47.536273 11142 net.cpp:148] Top shape: 100 4096 (409600)
I0403 13:23:47.536288 11142 net.cpp:156] Memory required for data: 831526000
I0403 13:23:47.536303 11142 layer_factory.hpp:77] Creating layer fc8_plantvillage
I0403 13:23:47.536325 11142 net.cpp:91] Creating Layer fc8_plantvillage
I0403 13:23:47.536342 11142 net.cpp:425] fc8_plantvillage <- fc7
I0403 13:23:47.536361 11142 net.cpp:399] fc8_plantvillage -> fc8_plantvillage
I0403 13:23:47.543472 11142 net.cpp:141] Setting up fc8_plantvillage
I0403 13:23:47.553797 11142 net.cpp:148] Top shape: 100 38 (3800)
I0403 13:23:47.553822 11142 net.cpp:156] Memory required for data: 831541200
I0403 13:23:47.553844 11142 layer_factory.hpp:77] Creating layer fc8_plantvillage_fc8_plantvillage_0_split
I0403 13:23:47.553872 11142 net.cpp:91] Creating Layer fc8_plantvillage_fc8_plantvillage_0_split
I0403 13:23:47.553891 11142 net.cpp:425] fc8_plantvillage_fc8_plantvillage_0_split <- fc8_plantvillage
I0403 13:23:47.553915 11142 net.cpp:399] fc8_plantvillage_fc8_plantvillage_0_split -> fc8_plantvillage_fc8_plantvillage_0_split_0
I0403 13:23:47.553941 11142 net.cpp:399] fc8_plantvillage_fc8_plantvillage_0_split -> fc8_plantvillage_fc8_plantvillage_0_split_1
I0403 13:23:47.553966 11142 net.cpp:399] fc8_plantvillage_fc8_plantvillage_0_split -> fc8_plantvillage_fc8_plantvillage_0_split_2
I0403 13:23:47.554055 11142 net.cpp:141] Setting up fc8_plantvillage_fc8_plantvillage_0_split
I0403 13:23:47.554082 11142 net.cpp:148] Top shape: 100 38 (3800)
I0403 13:23:47.554101 11142 net.cpp:148] Top shape: 100 38 (3800)
I0403 13:23:47.554116 11142 net.cpp:148] Top shape: 100 38 (3800)
I0403 13:23:47.554133 11142 net.cpp:156] Memory required for data: 831586800
I0403 13:23:47.554152 11142 layer_factory.hpp:77] Creating layer prob
I0403 13:23:47.554175 11142 net.cpp:91] Creating Layer prob
I0403 13:23:47.554196 11142 net.cpp:425] prob <- fc8_plantvillage_fc8_plantvillage_0_split_0
I0403 13:23:47.554215 11142 net.cpp:399] prob -> prob
I0403 13:23:47.554462 11142 net.cpp:141] Setting up prob
I0403 13:23:47.554491 11142 net.cpp:148] Top shape: 100 38 (3800)
I0403 13:23:47.554515 11142 net.cpp:156] Memory required for data: 831602000
I0403 13:23:47.554532 11142 layer_factory.hpp:77] Creating layer hdf5out
I0403 13:23:47.554554 11142 net.cpp:91] Creating Layer hdf5out
I0403 13:23:47.554590 11142 net.cpp:425] hdf5out <- prob
I0403 13:23:47.554633 11142 net.cpp:425] hdf5out <- label_data_1_split_0
I0403 13:23:47.558789 11142 net.cpp:141] Setting up hdf5out
…
