…
I0403 13:23:14.889037 11123 net.cpp:313] The NetState phase (1) differed from the phase (0) specified by a rule in layer data
I0403 13:23:14.889334 11123 net.cpp:49] Initializing net from parameters: 
state {
  phase: TEST
}
layer {
  name: "data"
  type: "Data"
  top: "data"
  top: "label"
  include {
    phase: TEST
  }
  transform_param {
    crop_size: 227
    mean_file: "/home/mohanty/data/final_dataset/lmdb/grayscale-80-20/mean.binaryproto"
  }
  data_param {
    source: "/home/mohanty/data/final_dataset/lmdb/grayscale-80-20/test_db"
    batch_size: 100
    backend: LMDB
  }
}
layer {
  name: "conv1"
  type: "Convolution"
  bottom: "data"
  top: "conv1"
  param {
    lr_mult: 1
    decay_mult: 1
  }
  param {
    lr_mult: 2
    decay_mult: 0
  }
  convolution_param {
    num_output: 96
    kernel_size: 11
    stride: 4
    weight_filler {
      type: "gaussian"
      std: 0.01
    }
    bias_filler {
      type: "constant"
      value: 0
    }
  }
}
layer {
  name: "relu1"
  type: "ReLU"
  bottom: "conv1"
  top: "conv1"
}
layer {
  name: "norm1"
  type: "LRN"
  bottom: "conv1"
  top: "norm1"
  lrn_param {
    local_size: 5
    alpha: 0.0001
    beta: 0.75
  }
}
layer {
  name: "pool1"
  type: "Pooling"
  bottom: "norm1"
  top: "pool1"
  pooling_param {
    pool: MAX
    kernel_size: 3
    stride: 2
  }
}
layer {
  name: "conv2"
  type: "Convolution"
  bottom: "pool1"
  top: "conv2"
  param {
    lr_mult: 1
    decay_mult: 1
  }
  param {
    lr_mult: 2
    decay_mult: 0
  }
  convolution_param {
    num_output: 256
    pad: 2
    kernel_size: 5
    group: 2
    weight_filler {
      type: "gaussian"
      std: 0.01
    }
    bias_filler {
      type: "constant"
      value: 0.1
    }
  }
}
layer {
  name: "relu2"
  type: "ReLU"
  bottom: "conv2"
  top: "conv2"
}
layer {
  name: "norm2"
  type: "LRN"
  bottom: "conv2"
  top: "norm2"
  lrn_param {
    local_size: 5
    alpha: 0.0001
    beta: 0.75
  }
}
layer {
  name: "pool2"
  type: "Pooling"
  bottom: "norm2"
  top: "pool2"
  pooling_param {
    pool: MAX
    kernel_size: 3
    stride: 2
  }
}
layer {
  name: "conv3"
  type: "Convolution"
  bottom: "pool2"
  top: "conv3"
  param {
    lr_mult: 1
    decay_mult: 1
  }
  param {
    lr_mult: 2
    decay_mult: 0
  }
  convolution_param {
    num_output: 384
    pad: 1
    kernel_size: 3
    weight_filler {
      type: "gaussian"
      std: 0.01
    }
    bias_filler {
      type: "constant"
      value: 0
    }
  }
}
layer {
  name: "relu3"
  type: "ReLU"
  bottom: "conv3"
  top: "conv3"
}
layer {
  name: "conv4"
  type: "Convolution"
  bottom: "conv3"
  top: "conv4"
  param {
    lr_mult: 1
    decay_mult: 1
  }
  param {
    lr_mult: 2
    decay_mult: 0
  }
  convolution_param {
    num_output: 384
    pad: 1
    kernel_size: 3
    group: 2
    weight_filler {
      type: "gaussian"
      std: 0.01
    }
    bias_filler {
      type: "constant"
      value: 0.1
    }
  }
}
layer {
  name: "relu4"
  type: "ReLU"
  bottom: "conv4"
  top: "conv4"
}
layer {
  name: "conv5"
  type: "Convolution"
  bottom: "conv4"
  top: "conv5"
  param {
    lr_mult: 1
    decay_mult: 1
  }
  param {
    lr_mult: 2
    decay_mult: 0
  }
  convolution_param {
    num_output: 256
    pad: 1
    kernel_size: 3
    group: 2
    weight_filler {
      type: "gaussian"
      std: 0.01
    }
    bias_filler {
      type: "constant"
      value: 0.1
    }
  }
}
layer {
  name: "relu5"
  type: "ReLU"
  bottom: "conv5"
  top: "conv5"
}
layer {
  name: "pool5"
  type: "Pooling"
  bottom: "conv5"
  top: "pool5"
  pooling_param {
    pool: MAX
    kernel_size: 3
    stride: 2
  }
}
layer {
  name: "fc6"
  type: "InnerProduct"
  bottom: "pool5"
  top: "fc6"
  param {
    lr_mult: 1
    decay_mult: 1
  }
  param {
    lr_mult: 2
    decay_mult: 0
  }
  inner_product_param {
    num_output: 4096
    weight_filler {
      type: "gaussian"
      std: 0.005
    }
    bias_filler {
      type: "constant"
      value: 0.1
    }
  }
}
layer {
  name: "relu6"
  type: "ReLU"
  bottom: "fc6"
  top: "fc6"
}
layer {
  name: "drop6"
  type: "Dropout"
  bottom: "fc6"
  top: "fc6"
  dropout_param {
    dropout_ratio: 0.5
  }
}
layer {
  name: "fc7"
  type: "InnerProduct"
  bottom: "fc6"
  top: "fc7"
  param {
    lr_mult: 1
    decay_mult: 1
  }
  param {
    lr_mult: 2
    decay_mult: 0
  }
  inner_product_param {
    num_output: 4096
    weight_filler {
      type: "gaussian"
      std: 0.005
    }
    bias_filler {
      type: "constant"
      value: 0.1
    }
  }
}
layer {
  name: "relu7"
  type: "ReLU"
  bottom: "fc7"
  top: "fc7"
}
layer {
  name: "drop7"
  type: "Dropout"
  bottom: "fc7"
  top: "fc7"
  dropout_param {
    dropout_ratio: 0.5
  }
}
layer {
  name: "fc8_plantvillage"
  type: "InnerProduct"
  bottom: "fc7"
  top: "fc8_plantvillage"
  param {
    lr_mult: 1
    decay_mult: 1
  }
  param {
    lr_mult: 2
    decay_mult: 0
  }
  inner_product_param {
    num_output: 38
    weight_filler {
      type: "gaussian"
      std: 0.01
    }
    bias_filler {
      type: "constant"
      value: 0
    }
  }
}
layer {
  name: "prob"
  type: "Softmax"
  bottom: "fc8_plantvillage"
  top: "prob"
  include {
    phase: TEST
  }
}
layer {
  name: "hdf5out"
  type: "HDF5Output"
  bottom: "prob"
  bottom: "label"
  include {
    phase: TEST
  }
  hdf5_output_param {
    file_name: "hdf5_dumps/iter_436.h5"
  }
}
layer {
  name: "loss"
  type: "SoftmaxWithLoss"
  bottom: "fc8_plantvillage"
  bottom: "label"
  top: "loss"
}
layer {
  name: "accuracy"
  type: "Accuracy"
  bottom: "fc8_plantvillage"
  bottom: "label"
  top: "accuracy"
  include {
    phase: TEST
  }
}
I0403 13:23:14.889961 11123 layer_factory.hpp:77] Creating layer data
I0403 13:23:14.890615 11123 net.cpp:91] Creating Layer data
I0403 13:23:14.890648 11123 net.cpp:399] data -> data
I0403 13:23:14.890700 11123 net.cpp:399] data -> label
I0403 13:23:14.890738 11123 data_transformer.cpp:25] Loading mean file from: /home/mohanty/data/final_dataset/lmdb/grayscale-80-20/mean.binaryproto
I0403 13:23:14.945327 11125 db_lmdb.cpp:38] Opened lmdb /home/mohanty/data/final_dataset/lmdb/grayscale-80-20/test_db
I0403 13:23:14.985851 11123 data_layer.cpp:41] output data size: 100,3,227,227
I0403 13:23:15.127239 11123 net.cpp:141] Setting up data
I0403 13:23:15.127328 11123 net.cpp:148] Top shape: 100 3 227 227 (15458700)
I0403 13:23:15.127353 11123 net.cpp:148] Top shape: 100 (100)
I0403 13:23:15.127370 11123 net.cpp:156] Memory required for data: 61835200
I0403 13:23:15.127401 11123 layer_factory.hpp:77] Creating layer label_data_1_split
I0403 13:23:15.127429 11123 net.cpp:91] Creating Layer label_data_1_split
I0403 13:23:15.127449 11123 net.cpp:425] label_data_1_split <- label
I0403 13:23:15.127485 11123 net.cpp:399] label_data_1_split -> label_data_1_split_0
I0403 13:23:15.127513 11123 net.cpp:399] label_data_1_split -> label_data_1_split_1
I0403 13:23:15.127537 11123 net.cpp:399] label_data_1_split -> label_data_1_split_2
I0403 13:23:15.127614 11123 net.cpp:141] Setting up label_data_1_split
I0403 13:23:15.127638 11123 net.cpp:148] Top shape: 100 (100)
I0403 13:23:15.127656 11123 net.cpp:148] Top shape: 100 (100)
I0403 13:23:15.127674 11123 net.cpp:148] Top shape: 100 (100)
I0403 13:23:15.127689 11123 net.cpp:156] Memory required for data: 61836400
I0403 13:23:15.127704 11123 layer_factory.hpp:77] Creating layer conv1
I0403 13:23:15.127737 11123 net.cpp:91] Creating Layer conv1
I0403 13:23:15.127755 11123 net.cpp:425] conv1 <- data
I0403 13:23:15.127775 11123 net.cpp:399] conv1 -> conv1
I0403 13:23:15.272635 11123 net.cpp:141] Setting up conv1
I0403 13:23:15.272703 11123 net.cpp:148] Top shape: 100 96 55 55 (29040000)
I0403 13:23:15.272722 11123 net.cpp:156] Memory required for data: 177996400
I0403 13:23:15.272753 11123 layer_factory.hpp:77] Creating layer relu1
I0403 13:23:15.272779 11123 net.cpp:91] Creating Layer relu1
I0403 13:23:15.272799 11123 net.cpp:425] relu1 <- conv1
I0403 13:23:15.272817 11123 net.cpp:386] relu1 -> conv1 (in-place)
I0403 13:23:15.273082 11123 net.cpp:141] Setting up relu1
I0403 13:23:15.273109 11123 net.cpp:148] Top shape: 100 96 55 55 (29040000)
I0403 13:23:15.273170 11123 net.cpp:156] Memory required for data: 294156400
I0403 13:23:15.273187 11123 layer_factory.hpp:77] Creating layer norm1
I0403 13:23:15.273216 11123 net.cpp:91] Creating Layer norm1
I0403 13:23:15.273233 11123 net.cpp:425] norm1 <- conv1
I0403 13:23:15.273252 11123 net.cpp:399] norm1 -> norm1
I0403 13:23:15.273566 11123 net.cpp:141] Setting up norm1
I0403 13:23:15.273599 11123 net.cpp:148] Top shape: 100 96 55 55 (29040000)
I0403 13:23:15.273617 11123 net.cpp:156] Memory required for data: 410316400
I0403 13:23:15.273632 11123 layer_factory.hpp:77] Creating layer pool1
I0403 13:23:15.273654 11123 net.cpp:91] Creating Layer pool1
I0403 13:23:15.273672 11123 net.cpp:425] pool1 <- norm1
I0403 13:23:15.273691 11123 net.cpp:399] pool1 -> pool1
I0403 13:23:15.273761 11123 net.cpp:141] Setting up pool1
I0403 13:23:15.273787 11123 net.cpp:148] Top shape: 100 96 27 27 (6998400)
I0403 13:23:15.273802 11123 net.cpp:156] Memory required for data: 438310000
I0403 13:23:15.273816 11123 layer_factory.hpp:77] Creating layer conv2
I0403 13:23:15.273841 11123 net.cpp:91] Creating Layer conv2
I0403 13:23:15.273941 11123 net.cpp:425] conv2 <- pool1
I0403 13:23:15.273967 11123 net.cpp:399] conv2 -> conv2
I0403 13:23:15.289820 11123 net.cpp:141] Setting up conv2
I0403 13:23:15.289867 11123 net.cpp:148] Top shape: 100 256 27 27 (18662400)
I0403 13:23:15.289887 11123 net.cpp:156] Memory required for data: 512959600
I0403 13:23:15.289909 11123 layer_factory.hpp:77] Creating layer relu2
I0403 13:23:15.289929 11123 net.cpp:91] Creating Layer relu2
I0403 13:23:15.289947 11123 net.cpp:425] relu2 <- conv2
I0403 13:23:15.289965 11123 net.cpp:386] relu2 -> conv2 (in-place)
I0403 13:23:15.290251 11123 net.cpp:141] Setting up relu2
I0403 13:23:15.290278 11123 net.cpp:148] Top shape: 100 256 27 27 (18662400)
I0403 13:23:15.290293 11123 net.cpp:156] Memory required for data: 587609200
I0403 13:23:15.290308 11123 layer_factory.hpp:77] Creating layer norm2
I0403 13:23:15.290333 11123 net.cpp:91] Creating Layer norm2
I0403 13:23:15.290349 11123 net.cpp:425] norm2 <- conv2
I0403 13:23:15.290369 11123 net.cpp:399] norm2 -> norm2
I0403 13:23:15.290685 11123 net.cpp:141] Setting up norm2
I0403 13:23:15.290714 11123 net.cpp:148] Top shape: 100 256 27 27 (18662400)
I0403 13:23:15.290730 11123 net.cpp:156] Memory required for data: 662258800
I0403 13:23:15.290745 11123 layer_factory.hpp:77] Creating layer pool2
I0403 13:23:15.290762 11123 net.cpp:91] Creating Layer pool2
I0403 13:23:15.290778 11123 net.cpp:425] pool2 <- norm2
I0403 13:23:15.290797 11123 net.cpp:399] pool2 -> pool2
I0403 13:23:15.290850 11123 net.cpp:141] Setting up pool2
I0403 13:23:15.290874 11123 net.cpp:148] Top shape: 100 256 13 13 (4326400)
I0403 13:23:15.290889 11123 net.cpp:156] Memory required for data: 679564400
I0403 13:23:15.290904 11123 layer_factory.hpp:77] Creating layer conv3
I0403 13:23:15.290926 11123 net.cpp:91] Creating Layer conv3
I0403 13:23:15.290943 11123 net.cpp:425] conv3 <- pool2
I0403 13:23:15.290964 11123 net.cpp:399] conv3 -> conv3
I0403 13:23:15.332690 11123 net.cpp:141] Setting up conv3
I0403 13:23:15.332733 11123 net.cpp:148] Top shape: 100 384 13 13 (6489600)
I0403 13:23:15.332753 11123 net.cpp:156] Memory required for data: 705522800
I0403 13:23:15.332780 11123 layer_factory.hpp:77] Creating layer relu3
I0403 13:23:15.332804 11123 net.cpp:91] Creating Layer relu3
I0403 13:23:15.332825 11123 net.cpp:425] relu3 <- conv3
I0403 13:23:15.332849 11123 net.cpp:386] relu3 -> conv3 (in-place)
I0403 13:23:15.333143 11123 net.cpp:141] Setting up relu3
I0403 13:23:15.333173 11123 net.cpp:148] Top shape: 100 384 13 13 (6489600)
I0403 13:23:15.333189 11123 net.cpp:156] Memory required for data: 731481200
I0403 13:23:15.333205 11123 layer_factory.hpp:77] Creating layer conv4
I0403 13:23:15.333231 11123 net.cpp:91] Creating Layer conv4
I0403 13:23:15.333250 11123 net.cpp:425] conv4 <- conv3
I0403 13:23:15.333271 11123 net.cpp:399] conv4 -> conv4
I0403 13:23:15.364460 11123 net.cpp:141] Setting up conv4
I0403 13:23:15.364526 11123 net.cpp:148] Top shape: 100 384 13 13 (6489600)
I0403 13:23:15.364594 11123 net.cpp:156] Memory required for data: 757439600
I0403 13:23:15.364629 11123 layer_factory.hpp:77] Creating layer relu4
I0403 13:23:15.364652 11123 net.cpp:91] Creating Layer relu4
I0403 13:23:15.364671 11123 net.cpp:425] relu4 <- conv4
I0403 13:23:15.364691 11123 net.cpp:386] relu4 -> conv4 (in-place)
I0403 13:23:15.365123 11123 net.cpp:141] Setting up relu4
I0403 13:23:15.365151 11123 net.cpp:148] Top shape: 100 384 13 13 (6489600)
I0403 13:23:15.365169 11123 net.cpp:156] Memory required for data: 783398000
I0403 13:23:15.365185 11123 layer_factory.hpp:77] Creating layer conv5
I0403 13:23:15.365208 11123 net.cpp:91] Creating Layer conv5
I0403 13:23:15.365224 11123 net.cpp:425] conv5 <- conv4
I0403 13:23:15.365245 11123 net.cpp:399] conv5 -> conv5
I0403 13:23:15.386867 11123 net.cpp:141] Setting up conv5
I0403 13:23:15.386916 11123 net.cpp:148] Top shape: 100 256 13 13 (4326400)
I0403 13:23:15.386934 11123 net.cpp:156] Memory required for data: 800703600
I0403 13:23:15.386960 11123 layer_factory.hpp:77] Creating layer relu5
I0403 13:23:15.386981 11123 net.cpp:91] Creating Layer relu5
I0403 13:23:15.386998 11123 net.cpp:425] relu5 <- conv5
I0403 13:23:15.387019 11123 net.cpp:386] relu5 -> conv5 (in-place)
I0403 13:23:15.387297 11123 net.cpp:141] Setting up relu5
I0403 13:23:15.387326 11123 net.cpp:148] Top shape: 100 256 13 13 (4326400)
I0403 13:23:15.387343 11123 net.cpp:156] Memory required for data: 818009200
I0403 13:23:15.387358 11123 layer_factory.hpp:77] Creating layer pool5
I0403 13:23:15.387379 11123 net.cpp:91] Creating Layer pool5
I0403 13:23:15.387398 11123 net.cpp:425] pool5 <- conv5
I0403 13:23:15.387418 11123 net.cpp:399] pool5 -> pool5
I0403 13:23:15.387478 11123 net.cpp:141] Setting up pool5
I0403 13:23:15.387504 11123 net.cpp:148] Top shape: 100 256 6 6 (921600)
I0403 13:23:15.387523 11123 net.cpp:156] Memory required for data: 821695600
I0403 13:23:15.387537 11123 layer_factory.hpp:77] Creating layer fc6
I0403 13:23:15.387563 11123 net.cpp:91] Creating Layer fc6
I0403 13:23:15.387588 11123 net.cpp:425] fc6 <- pool5
I0403 13:23:15.387609 11123 net.cpp:399] fc6 -> fc6
I0403 13:23:16.997807 11123 net.cpp:141] Setting up fc6
I0403 13:23:16.997894 11123 net.cpp:148] Top shape: 100 4096 (409600)
I0403 13:23:16.997910 11123 net.cpp:156] Memory required for data: 823334000
I0403 13:23:16.997931 11123 layer_factory.hpp:77] Creating layer relu6
I0403 13:23:16.997951 11123 net.cpp:91] Creating Layer relu6
I0403 13:23:16.997968 11123 net.cpp:425] relu6 <- fc6
I0403 13:23:16.997987 11123 net.cpp:386] relu6 -> fc6 (in-place)
I0403 13:23:16.998215 11123 net.cpp:141] Setting up relu6
I0403 13:23:16.998240 11123 net.cpp:148] Top shape: 100 4096 (409600)
I0403 13:23:16.998255 11123 net.cpp:156] Memory required for data: 824972400
I0403 13:23:16.998270 11123 layer_factory.hpp:77] Creating layer drop6
I0403 13:23:16.998287 11123 net.cpp:91] Creating Layer drop6
I0403 13:23:16.998302 11123 net.cpp:425] drop6 <- fc6
I0403 13:23:16.998320 11123 net.cpp:386] drop6 -> fc6 (in-place)
I0403 13:23:16.998371 11123 net.cpp:141] Setting up drop6
I0403 13:23:16.998394 11123 net.cpp:148] Top shape: 100 4096 (409600)
I0403 13:23:16.998406 11123 net.cpp:156] Memory required for data: 826610800
I0403 13:23:16.998420 11123 layer_factory.hpp:77] Creating layer fc7
I0403 13:23:16.998446 11123 net.cpp:91] Creating Layer fc7
I0403 13:23:16.998462 11123 net.cpp:425] fc7 <- fc6
I0403 13:23:16.998482 11123 net.cpp:399] fc7 -> fc7
I0403 13:23:18.993706 11123 net.cpp:141] Setting up fc7
I0403 13:23:18.993788 11123 net.cpp:148] Top shape: 100 4096 (409600)
I0403 13:23:18.993805 11123 net.cpp:156] Memory required for data: 828249200
I0403 13:23:18.993827 11123 layer_factory.hpp:77] Creating layer relu7
I0403 13:23:18.993850 11123 net.cpp:91] Creating Layer relu7
I0403 13:23:18.993867 11123 net.cpp:425] relu7 <- fc7
I0403 13:23:18.993885 11123 net.cpp:386] relu7 -> fc7 (in-place)
I0403 13:23:18.994268 11123 net.cpp:141] Setting up relu7
I0403 13:23:18.994297 11123 net.cpp:148] Top shape: 100 4096 (409600)
I0403 13:23:18.994349 11123 net.cpp:156] Memory required for data: 829887600
I0403 13:23:18.994364 11123 layer_factory.hpp:77] Creating layer drop7
I0403 13:23:18.994384 11123 net.cpp:91] Creating Layer drop7
I0403 13:23:18.994398 11123 net.cpp:425] drop7 <- fc7
I0403 13:23:18.994415 11123 net.cpp:386] drop7 -> fc7 (in-place)
I0403 13:23:18.994460 11123 net.cpp:141] Setting up drop7
I0403 13:23:18.994482 11123 net.cpp:148] Top shape: 100 4096 (409600)
I0403 13:23:18.994496 11123 net.cpp:156] Memory required for data: 831526000
I0403 13:23:18.994510 11123 layer_factory.hpp:77] Creating layer fc8_plantvillage
I0403 13:23:18.994531 11123 net.cpp:91] Creating Layer fc8_plantvillage
I0403 13:23:18.994549 11123 net.cpp:425] fc8_plantvillage <- fc7
I0403 13:23:18.994566 11123 net.cpp:399] fc8_plantvillage -> fc8_plantvillage
I0403 13:23:19.001277 11123 net.cpp:141] Setting up fc8_plantvillage
I0403 13:23:19.001307 11123 net.cpp:148] Top shape: 100 38 (3800)
I0403 13:23:19.001325 11123 net.cpp:156] Memory required for data: 831541200
I0403 13:23:19.001344 11123 layer_factory.hpp:77] Creating layer fc8_plantvillage_fc8_plantvillage_0_split
I0403 13:23:19.001363 11123 net.cpp:91] Creating Layer fc8_plantvillage_fc8_plantvillage_0_split
I0403 13:23:19.001379 11123 net.cpp:425] fc8_plantvillage_fc8_plantvillage_0_split <- fc8_plantvillage
I0403 13:23:19.001397 11123 net.cpp:399] fc8_plantvillage_fc8_plantvillage_0_split -> fc8_plantvillage_fc8_plantvillage_0_split_0
I0403 13:23:19.001418 11123 net.cpp:399] fc8_plantvillage_fc8_plantvillage_0_split -> fc8_plantvillage_fc8_plantvillage_0_split_1
I0403 13:23:19.001438 11123 net.cpp:399] fc8_plantvillage_fc8_plantvillage_0_split -> fc8_plantvillage_fc8_plantvillage_0_split_2
I0403 13:23:19.001515 11123 net.cpp:141] Setting up fc8_plantvillage_fc8_plantvillage_0_split
I0403 13:23:19.001539 11123 net.cpp:148] Top shape: 100 38 (3800)
I0403 13:23:19.001555 11123 net.cpp:148] Top shape: 100 38 (3800)
I0403 13:23:19.001574 11123 net.cpp:148] Top shape: 100 38 (3800)
I0403 13:23:19.001590 11123 net.cpp:156] Memory required for data: 831586800
I0403 13:23:19.001605 11123 layer_factory.hpp:77] Creating layer prob
I0403 13:23:19.001624 11123 net.cpp:91] Creating Layer prob
I0403 13:23:19.001639 11123 net.cpp:425] prob <- fc8_plantvillage_fc8_plantvillage_0_split_0
I0403 13:23:19.001657 11123 net.cpp:399] prob -> prob
I0403 13:23:19.001883 11123 net.cpp:141] Setting up prob
I0403 13:23:19.001911 11123 net.cpp:148] Top shape: 100 38 (3800)
I0403 13:23:19.001927 11123 net.cpp:156] Memory required for data: 831602000
I0403 13:23:19.001943 11123 layer_factory.hpp:77] Creating layer hdf5out
I0403 13:23:19.001962 11123 net.cpp:91] Creating Layer hdf5out
I0403 13:23:19.001977 11123 net.cpp:425] hdf5out <- prob
I0403 13:23:19.001993 11123 net.cpp:425] hdf5out <- label_data_1_split_0
I0403 13:23:19.014618 11123 net.cpp:141] Setting up hdf5out
…
