…
I0403 13:29:20.307245 11373 net.cpp:313] The NetState phase (1) differed from the phase (0) specified by a rule in layer data
I0403 13:29:20.307646 11373 net.cpp:49] Initializing net from parameters: 
state {
  phase: TEST
}
layer {
  name: "data"
  type: "Data"
  top: "data"
  top: "label"
  include {
    phase: TEST
  }
  transform_param {
    crop_size: 227
    mean_file: "/home/mohanty/data/final_dataset/lmdb/grayscale-80-20/mean.binaryproto"
  }
  data_param {
    source: "/home/mohanty/data/final_dataset/lmdb/grayscale-80-20/test_db"
    batch_size: 100
    backend: LMDB
  }
}
layer {
  name: "conv1"
  type: "Convolution"
  bottom: "data"
  top: "conv1"
  param {
    lr_mult: 1
    decay_mult: 1
  }
  param {
    lr_mult: 2
    decay_mult: 0
  }
  convolution_param {
    num_output: 96
    kernel_size: 11
    stride: 4
    weight_filler {
      type: "gaussian"
      std: 0.01
    }
    bias_filler {
      type: "constant"
      value: 0
    }
  }
}
layer {
  name: "relu1"
  type: "ReLU"
  bottom: "conv1"
  top: "conv1"
}
layer {
  name: "norm1"
  type: "LRN"
  bottom: "conv1"
  top: "norm1"
  lrn_param {
    local_size: 5
    alpha: 0.0001
    beta: 0.75
  }
}
layer {
  name: "pool1"
  type: "Pooling"
  bottom: "norm1"
  top: "pool1"
  pooling_param {
    pool: MAX
    kernel_size: 3
    stride: 2
  }
}
layer {
  name: "conv2"
  type: "Convolution"
  bottom: "pool1"
  top: "conv2"
  param {
    lr_mult: 1
    decay_mult: 1
  }
  param {
    lr_mult: 2
    decay_mult: 0
  }
  convolution_param {
    num_output: 256
    pad: 2
    kernel_size: 5
    group: 2
    weight_filler {
      type: "gaussian"
      std: 0.01
    }
    bias_filler {
      type: "constant"
      value: 0.1
    }
  }
}
layer {
  name: "relu2"
  type: "ReLU"
  bottom: "conv2"
  top: "conv2"
}
layer {
  name: "norm2"
  type: "LRN"
  bottom: "conv2"
  top: "norm2"
  lrn_param {
    local_size: 5
    alpha: 0.0001
    beta: 0.75
  }
}
layer {
  name: "pool2"
  type: "Pooling"
  bottom: "norm2"
  top: "pool2"
  pooling_param {
    pool: MAX
    kernel_size: 3
    stride: 2
  }
}
layer {
  name: "conv3"
  type: "Convolution"
  bottom: "pool2"
  top: "conv3"
  param {
    lr_mult: 1
    decay_mult: 1
  }
  param {
    lr_mult: 2
    decay_mult: 0
  }
  convolution_param {
    num_output: 384
    pad: 1
    kernel_size: 3
    weight_filler {
      type: "gaussian"
      std: 0.01
    }
    bias_filler {
      type: "constant"
      value: 0
    }
  }
}
layer {
  name: "relu3"
  type: "ReLU"
  bottom: "conv3"
  top: "conv3"
}
layer {
  name: "conv4"
  type: "Convolution"
  bottom: "conv3"
  top: "conv4"
  param {
    lr_mult: 1
    decay_mult: 1
  }
  param {
    lr_mult: 2
    decay_mult: 0
  }
  convolution_param {
    num_output: 384
    pad: 1
    kernel_size: 3
    group: 2
    weight_filler {
      type: "gaussian"
      std: 0.01
    }
    bias_filler {
      type: "constant"
      value: 0.1
    }
  }
}
layer {
  name: "relu4"
  type: "ReLU"
  bottom: "conv4"
  top: "conv4"
}
layer {
  name: "conv5"
  type: "Convolution"
  bottom: "conv4"
  top: "conv5"
  param {
    lr_mult: 1
    decay_mult: 1
  }
  param {
    lr_mult: 2
    decay_mult: 0
  }
  convolution_param {
    num_output: 256
    pad: 1
    kernel_size: 3
    group: 2
    weight_filler {
      type: "gaussian"
      std: 0.01
    }
    bias_filler {
      type: "constant"
      value: 0.1
    }
  }
}
layer {
  name: "relu5"
  type: "ReLU"
  bottom: "conv5"
  top: "conv5"
}
layer {
  name: "pool5"
  type: "Pooling"
  bottom: "conv5"
  top: "pool5"
  pooling_param {
    pool: MAX
    kernel_size: 3
    stride: 2
  }
}
layer {
  name: "fc6"
  type: "InnerProduct"
  bottom: "pool5"
  top: "fc6"
  param {
    lr_mult: 1
    decay_mult: 1
  }
  param {
    lr_mult: 2
    decay_mult: 0
  }
  inner_product_param {
    num_output: 4096
    weight_filler {
      type: "gaussian"
      std: 0.005
    }
    bias_filler {
      type: "constant"
      value: 0.1
    }
  }
}
layer {
  name: "relu6"
  type: "ReLU"
  bottom: "fc6"
  top: "fc6"
}
layer {
  name: "drop6"
  type: "Dropout"
  bottom: "fc6"
  top: "fc6"
  dropout_param {
    dropout_ratio: 0.5
  }
}
layer {
  name: "fc7"
  type: "InnerProduct"
  bottom: "fc6"
  top: "fc7"
  param {
    lr_mult: 1
    decay_mult: 1
  }
  param {
    lr_mult: 2
    decay_mult: 0
  }
  inner_product_param {
    num_output: 4096
    weight_filler {
      type: "gaussian"
      std: 0.005
    }
    bias_filler {
      type: "constant"
      value: 0.1
    }
  }
}
layer {
  name: "relu7"
  type: "ReLU"
  bottom: "fc7"
  top: "fc7"
}
layer {
  name: "drop7"
  type: "Dropout"
  bottom: "fc7"
  top: "fc7"
  dropout_param {
    dropout_ratio: 0.5
  }
}
layer {
  name: "fc8_plantvillage"
  type: "InnerProduct"
  bottom: "fc7"
  top: "fc8_plantvillage"
  param {
    lr_mult: 1
    decay_mult: 1
  }
  param {
    lr_mult: 2
    decay_mult: 0
  }
  inner_product_param {
    num_output: 38
    weight_filler {
      type: "gaussian"
      std: 0.01
    }
    bias_filler {
      type: "constant"
      value: 0
    }
  }
}
layer {
  name: "prob"
  type: "Softmax"
  bottom: "fc8_plantvillage"
  top: "prob"
  include {
    phase: TEST
  }
}
layer {
  name: "hdf5out"
  type: "HDF5Output"
  bottom: "prob"
  bottom: "label"
  include {
    phase: TEST
  }
  hdf5_output_param {
    file_name: "hdf5_dumps/iter_6540.h5"
  }
}
layer {
  name: "loss"
  type: "SoftmaxWithLoss"
  bottom: "fc8_plantvillage"
  bottom: "label"
  top: "loss"
}
layer {
  name: "accuracy"
  type: "Accuracy"
  bottom: "fc8_plantvillage"
  bottom: "label"
  top: "accuracy"
  include {
    phase: TEST
  }
}
I0403 13:29:20.308326 11373 layer_factory.hpp:77] Creating layer data
I0403 13:29:20.309141 11373 net.cpp:91] Creating Layer data
I0403 13:29:20.309178 11373 net.cpp:399] data -> data
I0403 13:29:20.309237 11373 net.cpp:399] data -> label
I0403 13:29:20.309283 11373 data_transformer.cpp:25] Loading mean file from: /home/mohanty/data/final_dataset/lmdb/grayscale-80-20/mean.binaryproto
I0403 13:29:20.312690 11378 db_lmdb.cpp:38] Opened lmdb /home/mohanty/data/final_dataset/lmdb/grayscale-80-20/test_db
I0403 13:29:20.325611 11373 data_layer.cpp:41] output data size: 100,3,227,227
I0403 13:29:20.460244 11373 net.cpp:141] Setting up data
I0403 13:29:20.460345 11373 net.cpp:148] Top shape: 100 3 227 227 (15458700)
I0403 13:29:20.460374 11373 net.cpp:148] Top shape: 100 (100)
I0403 13:29:20.460397 11373 net.cpp:156] Memory required for data: 61835200
I0403 13:29:20.460435 11373 layer_factory.hpp:77] Creating layer label_data_1_split
I0403 13:29:20.460479 11373 net.cpp:91] Creating Layer label_data_1_split
I0403 13:29:20.460549 11373 net.cpp:425] label_data_1_split <- label
I0403 13:29:20.460631 11373 net.cpp:399] label_data_1_split -> label_data_1_split_0
I0403 13:29:20.460724 11373 net.cpp:399] label_data_1_split -> label_data_1_split_1
I0403 13:29:20.460782 11373 net.cpp:399] label_data_1_split -> label_data_1_split_2
I0403 13:29:20.460865 11373 net.cpp:141] Setting up label_data_1_split
I0403 13:29:20.460894 11373 net.cpp:148] Top shape: 100 (100)
I0403 13:29:20.460916 11373 net.cpp:148] Top shape: 100 (100)
I0403 13:29:20.460937 11373 net.cpp:148] Top shape: 100 (100)
I0403 13:29:20.460955 11373 net.cpp:156] Memory required for data: 61836400
I0403 13:29:20.460975 11373 layer_factory.hpp:77] Creating layer conv1
I0403 13:29:20.461014 11373 net.cpp:91] Creating Layer conv1
I0403 13:29:20.461036 11373 net.cpp:425] conv1 <- data
I0403 13:29:20.461061 11373 net.cpp:399] conv1 -> conv1
I0403 13:29:20.634857 11373 net.cpp:141] Setting up conv1
I0403 13:29:20.634937 11373 net.cpp:148] Top shape: 100 96 55 55 (29040000)
I0403 13:29:20.634958 11373 net.cpp:156] Memory required for data: 177996400
I0403 13:29:20.634994 11373 layer_factory.hpp:77] Creating layer relu1
I0403 13:29:20.635027 11373 net.cpp:91] Creating Layer relu1
I0403 13:29:20.635048 11373 net.cpp:425] relu1 <- conv1
I0403 13:29:20.635071 11373 net.cpp:386] relu1 -> conv1 (in-place)
I0403 13:29:20.635381 11373 net.cpp:141] Setting up relu1
I0403 13:29:20.635416 11373 net.cpp:148] Top shape: 100 96 55 55 (29040000)
I0403 13:29:20.635464 11373 net.cpp:156] Memory required for data: 294156400
I0403 13:29:20.635484 11373 layer_factory.hpp:77] Creating layer norm1
I0403 13:29:20.635517 11373 net.cpp:91] Creating Layer norm1
I0403 13:29:20.635540 11373 net.cpp:425] norm1 <- conv1
I0403 13:29:20.635561 11373 net.cpp:399] norm1 -> norm1
I0403 13:29:20.635936 11373 net.cpp:141] Setting up norm1
I0403 13:29:20.635968 11373 net.cpp:148] Top shape: 100 96 55 55 (29040000)
I0403 13:29:20.635987 11373 net.cpp:156] Memory required for data: 410316400
I0403 13:29:20.636005 11373 layer_factory.hpp:77] Creating layer pool1
I0403 13:29:20.636031 11373 net.cpp:91] Creating Layer pool1
I0403 13:29:20.636052 11373 net.cpp:425] pool1 <- norm1
I0403 13:29:20.636075 11373 net.cpp:399] pool1 -> pool1
I0403 13:29:20.636154 11373 net.cpp:141] Setting up pool1
I0403 13:29:20.636183 11373 net.cpp:148] Top shape: 100 96 27 27 (6998400)
I0403 13:29:20.636201 11373 net.cpp:156] Memory required for data: 438310000
I0403 13:29:20.636219 11373 layer_factory.hpp:77] Creating layer conv2
I0403 13:29:20.636248 11373 net.cpp:91] Creating Layer conv2
I0403 13:29:20.636270 11373 net.cpp:425] conv2 <- pool1
I0403 13:29:20.636291 11373 net.cpp:399] conv2 -> conv2
I0403 13:29:20.654356 11373 net.cpp:141] Setting up conv2
I0403 13:29:20.654428 11373 net.cpp:148] Top shape: 100 256 27 27 (18662400)
I0403 13:29:20.654451 11373 net.cpp:156] Memory required for data: 512959600
I0403 13:29:20.654484 11373 layer_factory.hpp:77] Creating layer relu2
I0403 13:29:20.654516 11373 net.cpp:91] Creating Layer relu2
I0403 13:29:20.654539 11373 net.cpp:425] relu2 <- conv2
I0403 13:29:20.654564 11373 net.cpp:386] relu2 -> conv2 (in-place)
I0403 13:29:20.654911 11373 net.cpp:141] Setting up relu2
I0403 13:29:20.654945 11373 net.cpp:148] Top shape: 100 256 27 27 (18662400)
I0403 13:29:20.654965 11373 net.cpp:156] Memory required for data: 587609200
I0403 13:29:20.654985 11373 layer_factory.hpp:77] Creating layer norm2
I0403 13:29:20.655016 11373 net.cpp:91] Creating Layer norm2
I0403 13:29:20.655036 11373 net.cpp:425] norm2 <- conv2
I0403 13:29:20.655061 11373 net.cpp:399] norm2 -> norm2
I0403 13:29:20.655311 11373 net.cpp:141] Setting up norm2
I0403 13:29:20.655342 11373 net.cpp:148] Top shape: 100 256 27 27 (18662400)
I0403 13:29:20.655361 11373 net.cpp:156] Memory required for data: 662258800
I0403 13:29:20.655380 11373 layer_factory.hpp:77] Creating layer pool2
I0403 13:29:20.655401 11373 net.cpp:91] Creating Layer pool2
I0403 13:29:20.655421 11373 net.cpp:425] pool2 <- norm2
I0403 13:29:20.655447 11373 net.cpp:399] pool2 -> pool2
I0403 13:29:20.655516 11373 net.cpp:141] Setting up pool2
I0403 13:29:20.655549 11373 net.cpp:148] Top shape: 100 256 13 13 (4326400)
I0403 13:29:20.655566 11373 net.cpp:156] Memory required for data: 679564400
I0403 13:29:20.655586 11373 layer_factory.hpp:77] Creating layer conv3
I0403 13:29:20.655627 11373 net.cpp:91] Creating Layer conv3
I0403 13:29:20.655650 11373 net.cpp:425] conv3 <- pool2
I0403 13:29:20.655678 11373 net.cpp:399] conv3 -> conv3
I0403 13:29:20.702493 11373 net.cpp:141] Setting up conv3
I0403 13:29:20.702565 11373 net.cpp:148] Top shape: 100 384 13 13 (6489600)
I0403 13:29:20.702586 11373 net.cpp:156] Memory required for data: 705522800
I0403 13:29:20.702625 11373 layer_factory.hpp:77] Creating layer relu3
I0403 13:29:20.702654 11373 net.cpp:91] Creating Layer relu3
I0403 13:29:20.702677 11373 net.cpp:425] relu3 <- conv3
I0403 13:29:20.702708 11373 net.cpp:386] relu3 -> conv3 (in-place)
I0403 13:29:20.703040 11373 net.cpp:141] Setting up relu3
I0403 13:29:20.703073 11373 net.cpp:148] Top shape: 100 384 13 13 (6489600)
I0403 13:29:20.703094 11373 net.cpp:156] Memory required for data: 731481200
I0403 13:29:20.703114 11373 layer_factory.hpp:77] Creating layer conv4
I0403 13:29:20.703146 11373 net.cpp:91] Creating Layer conv4
I0403 13:29:20.703169 11373 net.cpp:425] conv4 <- conv3
I0403 13:29:20.703197 11373 net.cpp:399] conv4 -> conv4
I0403 13:29:20.738711 11373 net.cpp:141] Setting up conv4
I0403 13:29:20.738782 11373 net.cpp:148] Top shape: 100 384 13 13 (6489600)
I0403 13:29:20.738836 11373 net.cpp:156] Memory required for data: 757439600
I0403 13:29:20.738863 11373 layer_factory.hpp:77] Creating layer relu4
I0403 13:29:20.738891 11373 net.cpp:91] Creating Layer relu4
I0403 13:29:20.738911 11373 net.cpp:425] relu4 <- conv4
I0403 13:29:20.738940 11373 net.cpp:386] relu4 -> conv4 (in-place)
I0403 13:29:20.739281 11373 net.cpp:141] Setting up relu4
I0403 13:29:20.739317 11373 net.cpp:148] Top shape: 100 384 13 13 (6489600)
I0403 13:29:20.739337 11373 net.cpp:156] Memory required for data: 783398000
I0403 13:29:20.739359 11373 layer_factory.hpp:77] Creating layer conv5
I0403 13:29:20.739392 11373 net.cpp:91] Creating Layer conv5
I0403 13:29:20.739415 11373 net.cpp:425] conv5 <- conv4
I0403 13:29:20.739441 11373 net.cpp:399] conv5 -> conv5
I0403 13:29:20.764124 11373 net.cpp:141] Setting up conv5
I0403 13:29:20.764215 11373 net.cpp:148] Top shape: 100 256 13 13 (4326400)
I0403 13:29:20.764235 11373 net.cpp:156] Memory required for data: 800703600
I0403 13:29:20.764268 11373 layer_factory.hpp:77] Creating layer relu5
I0403 13:29:20.764300 11373 net.cpp:91] Creating Layer relu5
I0403 13:29:20.764322 11373 net.cpp:425] relu5 <- conv5
I0403 13:29:20.764345 11373 net.cpp:386] relu5 -> conv5 (in-place)
I0403 13:29:20.764700 11373 net.cpp:141] Setting up relu5
I0403 13:29:20.764734 11373 net.cpp:148] Top shape: 100 256 13 13 (4326400)
I0403 13:29:20.764752 11373 net.cpp:156] Memory required for data: 818009200
I0403 13:29:20.764770 11373 layer_factory.hpp:77] Creating layer pool5
I0403 13:29:20.764801 11373 net.cpp:91] Creating Layer pool5
I0403 13:29:20.764822 11373 net.cpp:425] pool5 <- conv5
I0403 13:29:20.764845 11373 net.cpp:399] pool5 -> pool5
I0403 13:29:20.764924 11373 net.cpp:141] Setting up pool5
I0403 13:29:20.764952 11373 net.cpp:148] Top shape: 100 256 6 6 (921600)
I0403 13:29:20.764971 11373 net.cpp:156] Memory required for data: 821695600
I0403 13:29:20.764987 11373 layer_factory.hpp:77] Creating layer fc6
I0403 13:29:20.765020 11373 net.cpp:91] Creating Layer fc6
I0403 13:29:20.765041 11373 net.cpp:425] fc6 <- pool5
I0403 13:29:20.765066 11373 net.cpp:399] fc6 -> fc6
I0403 13:29:22.343212 11373 net.cpp:141] Setting up fc6
I0403 13:29:22.343253 11373 net.cpp:148] Top shape: 100 4096 (409600)
I0403 13:29:22.343269 11373 net.cpp:156] Memory required for data: 823334000
I0403 13:29:22.343291 11373 layer_factory.hpp:77] Creating layer relu6
I0403 13:29:22.343312 11373 net.cpp:91] Creating Layer relu6
I0403 13:29:22.343327 11373 net.cpp:425] relu6 <- fc6
I0403 13:29:22.343346 11373 net.cpp:386] relu6 -> fc6 (in-place)
I0403 13:29:22.343577 11373 net.cpp:141] Setting up relu6
I0403 13:29:22.343619 11373 net.cpp:148] Top shape: 100 4096 (409600)
I0403 13:29:22.343636 11373 net.cpp:156] Memory required for data: 824972400
I0403 13:29:22.343650 11373 layer_factory.hpp:77] Creating layer drop6
I0403 13:29:22.343680 11373 net.cpp:91] Creating Layer drop6
I0403 13:29:22.343695 11373 net.cpp:425] drop6 <- fc6
I0403 13:29:22.343715 11373 net.cpp:386] drop6 -> fc6 (in-place)
I0403 13:29:22.343765 11373 net.cpp:141] Setting up drop6
I0403 13:29:22.343791 11373 net.cpp:148] Top shape: 100 4096 (409600)
I0403 13:29:22.343806 11373 net.cpp:156] Memory required for data: 826610800
I0403 13:29:22.343821 11373 layer_factory.hpp:77] Creating layer fc7
I0403 13:29:22.343840 11373 net.cpp:91] Creating Layer fc7
I0403 13:29:22.343855 11373 net.cpp:425] fc7 <- fc6
I0403 13:29:22.343875 11373 net.cpp:399] fc7 -> fc7
I0403 13:29:23.033800 11373 net.cpp:141] Setting up fc7
I0403 13:29:23.033874 11373 net.cpp:148] Top shape: 100 4096 (409600)
I0403 13:29:23.033890 11373 net.cpp:156] Memory required for data: 828249200
I0403 13:29:23.033922 11373 layer_factory.hpp:77] Creating layer relu7
I0403 13:29:23.033944 11373 net.cpp:91] Creating Layer relu7
I0403 13:29:23.033962 11373 net.cpp:425] relu7 <- fc7
I0403 13:29:23.033983 11373 net.cpp:386] relu7 -> fc7 (in-place)
I0403 13:29:23.034369 11373 net.cpp:141] Setting up relu7
I0403 13:29:23.034395 11373 net.cpp:148] Top shape: 100 4096 (409600)
I0403 13:29:23.034451 11373 net.cpp:156] Memory required for data: 829887600
I0403 13:29:23.034466 11373 layer_factory.hpp:77] Creating layer drop7
I0403 13:29:23.034485 11373 net.cpp:91] Creating Layer drop7
I0403 13:29:23.034500 11373 net.cpp:425] drop7 <- fc7
I0403 13:29:23.034520 11373 net.cpp:386] drop7 -> fc7 (in-place)
I0403 13:29:23.034564 11373 net.cpp:141] Setting up drop7
I0403 13:29:23.034589 11373 net.cpp:148] Top shape: 100 4096 (409600)
I0403 13:29:23.034615 11373 net.cpp:156] Memory required for data: 831526000
I0403 13:29:23.034631 11373 layer_factory.hpp:77] Creating layer fc8_plantvillage
I0403 13:29:23.034651 11373 net.cpp:91] Creating Layer fc8_plantvillage
I0403 13:29:23.034667 11373 net.cpp:425] fc8_plantvillage <- fc7
I0403 13:29:23.034687 11373 net.cpp:399] fc8_plantvillage -> fc8_plantvillage
I0403 13:29:23.041420 11373 net.cpp:141] Setting up fc8_plantvillage
I0403 13:29:23.041448 11373 net.cpp:148] Top shape: 100 38 (3800)
I0403 13:29:23.041463 11373 net.cpp:156] Memory required for data: 831541200
I0403 13:29:23.041481 11373 layer_factory.hpp:77] Creating layer fc8_plantvillage_fc8_plantvillage_0_split
I0403 13:29:23.041503 11373 net.cpp:91] Creating Layer fc8_plantvillage_fc8_plantvillage_0_split
I0403 13:29:23.041520 11373 net.cpp:425] fc8_plantvillage_fc8_plantvillage_0_split <- fc8_plantvillage
I0403 13:29:23.041538 11373 net.cpp:399] fc8_plantvillage_fc8_plantvillage_0_split -> fc8_plantvillage_fc8_plantvillage_0_split_0
I0403 13:29:23.041556 11373 net.cpp:399] fc8_plantvillage_fc8_plantvillage_0_split -> fc8_plantvillage_fc8_plantvillage_0_split_1
I0403 13:29:23.041576 11373 net.cpp:399] fc8_plantvillage_fc8_plantvillage_0_split -> fc8_plantvillage_fc8_plantvillage_0_split_2
I0403 13:29:23.041661 11373 net.cpp:141] Setting up fc8_plantvillage_fc8_plantvillage_0_split
I0403 13:29:23.041685 11373 net.cpp:148] Top shape: 100 38 (3800)
I0403 13:29:23.041702 11373 net.cpp:148] Top shape: 100 38 (3800)
I0403 13:29:23.041717 11373 net.cpp:148] Top shape: 100 38 (3800)
I0403 13:29:23.041729 11373 net.cpp:156] Memory required for data: 831586800
I0403 13:29:23.041743 11373 layer_factory.hpp:77] Creating layer prob
I0403 13:29:23.041761 11373 net.cpp:91] Creating Layer prob
I0403 13:29:23.041776 11373 net.cpp:425] prob <- fc8_plantvillage_fc8_plantvillage_0_split_0
I0403 13:29:23.041793 11373 net.cpp:399] prob -> prob
I0403 13:29:23.042018 11373 net.cpp:141] Setting up prob
I0403 13:29:23.042043 11373 net.cpp:148] Top shape: 100 38 (3800)
I0403 13:29:23.042058 11373 net.cpp:156] Memory required for data: 831602000
I0403 13:29:23.042073 11373 layer_factory.hpp:77] Creating layer hdf5out
I0403 13:29:23.042091 11373 net.cpp:91] Creating Layer hdf5out
I0403 13:29:23.042106 11373 net.cpp:425] hdf5out <- prob
I0403 13:29:23.042122 11373 net.cpp:425] hdf5out <- label_data_1_split_0
I0403 13:29:23.044487 11373 net.cpp:141] Setting up hdf5out
…
