…
I0403 13:25:05.747995 11201 net.cpp:313] The NetState phase (1) differed from the phase (0) specified by a rule in layer data
I0403 13:25:05.748358 11201 net.cpp:49] Initializing net from parameters: 
state {
  phase: TEST
}
layer {
  name: "data"
  type: "Data"
  top: "data"
  top: "label"
  include {
    phase: TEST
  }
  transform_param {
    crop_size: 227
    mean_file: "/home/mohanty/data/final_dataset/lmdb/grayscale-80-20/mean.binaryproto"
  }
  data_param {
    source: "/home/mohanty/data/final_dataset/lmdb/grayscale-80-20/test_db"
    batch_size: 100
    backend: LMDB
  }
}
layer {
  name: "conv1"
  type: "Convolution"
  bottom: "data"
  top: "conv1"
  param {
    lr_mult: 1
    decay_mult: 1
  }
  param {
    lr_mult: 2
    decay_mult: 0
  }
  convolution_param {
    num_output: 96
    kernel_size: 11
    stride: 4
    weight_filler {
      type: "gaussian"
      std: 0.01
    }
    bias_filler {
      type: "constant"
      value: 0
    }
  }
}
layer {
  name: "relu1"
  type: "ReLU"
  bottom: "conv1"
  top: "conv1"
}
layer {
  name: "norm1"
  type: "LRN"
  bottom: "conv1"
  top: "norm1"
  lrn_param {
    local_size: 5
    alpha: 0.0001
    beta: 0.75
  }
}
layer {
  name: "pool1"
  type: "Pooling"
  bottom: "norm1"
  top: "pool1"
  pooling_param {
    pool: MAX
    kernel_size: 3
    stride: 2
  }
}
layer {
  name: "conv2"
  type: "Convolution"
  bottom: "pool1"
  top: "conv2"
  param {
    lr_mult: 1
    decay_mult: 1
  }
  param {
    lr_mult: 2
    decay_mult: 0
  }
  convolution_param {
    num_output: 256
    pad: 2
    kernel_size: 5
    group: 2
    weight_filler {
      type: "gaussian"
      std: 0.01
    }
    bias_filler {
      type: "constant"
      value: 0.1
    }
  }
}
layer {
  name: "relu2"
  type: "ReLU"
  bottom: "conv2"
  top: "conv2"
}
layer {
  name: "norm2"
  type: "LRN"
  bottom: "conv2"
  top: "norm2"
  lrn_param {
    local_size: 5
    alpha: 0.0001
    beta: 0.75
  }
}
layer {
  name: "pool2"
  type: "Pooling"
  bottom: "norm2"
  top: "pool2"
  pooling_param {
    pool: MAX
    kernel_size: 3
    stride: 2
  }
}
layer {
  name: "conv3"
  type: "Convolution"
  bottom: "pool2"
  top: "conv3"
  param {
    lr_mult: 1
    decay_mult: 1
  }
  param {
    lr_mult: 2
    decay_mult: 0
  }
  convolution_param {
    num_output: 384
    pad: 1
    kernel_size: 3
    weight_filler {
      type: "gaussian"
      std: 0.01
    }
    bias_filler {
      type: "constant"
      value: 0
    }
  }
}
layer {
  name: "relu3"
  type: "ReLU"
  bottom: "conv3"
  top: "conv3"
}
layer {
  name: "conv4"
  type: "Convolution"
  bottom: "conv3"
  top: "conv4"
  param {
    lr_mult: 1
    decay_mult: 1
  }
  param {
    lr_mult: 2
    decay_mult: 0
  }
  convolution_param {
    num_output: 384
    pad: 1
    kernel_size: 3
    group: 2
    weight_filler {
      type: "gaussian"
      std: 0.01
    }
    bias_filler {
      type: "constant"
      value: 0.1
    }
  }
}
layer {
  name: "relu4"
  type: "ReLU"
  bottom: "conv4"
  top: "conv4"
}
layer {
  name: "conv5"
  type: "Convolution"
  bottom: "conv4"
  top: "conv5"
  param {
    lr_mult: 1
    decay_mult: 1
  }
  param {
    lr_mult: 2
    decay_mult: 0
  }
  convolution_param {
    num_output: 256
    pad: 1
    kernel_size: 3
    group: 2
    weight_filler {
      type: "gaussian"
      std: 0.01
    }
    bias_filler {
      type: "constant"
      value: 0.1
    }
  }
}
layer {
  name: "relu5"
  type: "ReLU"
  bottom: "conv5"
  top: "conv5"
}
layer {
  name: "pool5"
  type: "Pooling"
  bottom: "conv5"
  top: "pool5"
  pooling_param {
    pool: MAX
    kernel_size: 3
    stride: 2
  }
}
layer {
  name: "fc6"
  type: "InnerProduct"
  bottom: "pool5"
  top: "fc6"
  param {
    lr_mult: 1
    decay_mult: 1
  }
  param {
    lr_mult: 2
    decay_mult: 0
  }
  inner_product_param {
    num_output: 4096
    weight_filler {
      type: "gaussian"
      std: 0.005
    }
    bias_filler {
      type: "constant"
      value: 0.1
    }
  }
}
layer {
  name: "relu6"
  type: "ReLU"
  bottom: "fc6"
  top: "fc6"
}
layer {
  name: "drop6"
  type: "Dropout"
  bottom: "fc6"
  top: "fc6"
  dropout_param {
    dropout_ratio: 0.5
  }
}
layer {
  name: "fc7"
  type: "InnerProduct"
  bottom: "fc6"
  top: "fc7"
  param {
    lr_mult: 1
    decay_mult: 1
  }
  param {
    lr_mult: 2
    decay_mult: 0
  }
  inner_product_param {
    num_output: 4096
    weight_filler {
      type: "gaussian"
      std: 0.005
    }
    bias_filler {
      type: "constant"
      value: 0.1
    }
  }
}
layer {
  name: "relu7"
  type: "ReLU"
  bottom: "fc7"
  top: "fc7"
}
layer {
  name: "drop7"
  type: "Dropout"
  bottom: "fc7"
  top: "fc7"
  dropout_param {
    dropout_ratio: 0.5
  }
}
layer {
  name: "fc8_plantvillage"
  type: "InnerProduct"
  bottom: "fc7"
  top: "fc8_plantvillage"
  param {
    lr_mult: 1
    decay_mult: 1
  }
  param {
    lr_mult: 2
    decay_mult: 0
  }
  inner_product_param {
    num_output: 38
    weight_filler {
      type: "gaussian"
      std: 0.01
    }
    bias_filler {
      type: "constant"
      value: 0
    }
  }
}
layer {
  name: "prob"
  type: "Softmax"
  bottom: "fc8_plantvillage"
  top: "prob"
  include {
    phase: TEST
  }
}
layer {
  name: "hdf5out"
  type: "HDF5Output"
  bottom: "prob"
  bottom: "label"
  include {
    phase: TEST
  }
  hdf5_output_param {
    file_name: "hdf5_dumps/iter_2180.h5"
  }
}
layer {
  name: "loss"
  type: "SoftmaxWithLoss"
  bottom: "fc8_plantvillage"
  bottom: "label"
  top: "loss"
}
layer {
  name: "accuracy"
  type: "Accuracy"
  bottom: "fc8_plantvillage"
  bottom: "label"
  top: "accuracy"
  include {
    phase: TEST
  }
}
I0403 13:25:05.749040 11201 layer_factory.hpp:77] Creating layer data
I0403 13:25:05.749835 11201 net.cpp:91] Creating Layer data
I0403 13:25:05.749871 11201 net.cpp:399] data -> data
I0403 13:25:05.749927 11201 net.cpp:399] data -> label
I0403 13:25:05.749974 11201 data_transformer.cpp:25] Loading mean file from: /home/mohanty/data/final_dataset/lmdb/grayscale-80-20/mean.binaryproto
I0403 13:25:05.752791 11207 db_lmdb.cpp:38] Opened lmdb /home/mohanty/data/final_dataset/lmdb/grayscale-80-20/test_db
I0403 13:25:05.766643 11201 data_layer.cpp:41] output data size: 100,3,227,227
I0403 13:25:05.899633 11201 net.cpp:141] Setting up data
I0403 13:25:05.899744 11201 net.cpp:148] Top shape: 100 3 227 227 (15458700)
I0403 13:25:05.899770 11201 net.cpp:148] Top shape: 100 (100)
I0403 13:25:05.899788 11201 net.cpp:156] Memory required for data: 61835200
I0403 13:25:05.899821 11201 layer_factory.hpp:77] Creating layer label_data_1_split
I0403 13:25:05.899850 11201 net.cpp:91] Creating Layer label_data_1_split
I0403 13:25:05.899871 11201 net.cpp:425] label_data_1_split <- label
I0403 13:25:05.899909 11201 net.cpp:399] label_data_1_split -> label_data_1_split_0
I0403 13:25:05.899941 11201 net.cpp:399] label_data_1_split -> label_data_1_split_1
I0403 13:25:05.899966 11201 net.cpp:399] label_data_1_split -> label_data_1_split_2
I0403 13:25:05.900043 11201 net.cpp:141] Setting up label_data_1_split
I0403 13:25:05.900070 11201 net.cpp:148] Top shape: 100 (100)
I0403 13:25:05.900090 11201 net.cpp:148] Top shape: 100 (100)
I0403 13:25:05.900109 11201 net.cpp:148] Top shape: 100 (100)
I0403 13:25:05.900125 11201 net.cpp:156] Memory required for data: 61836400
I0403 13:25:05.900142 11201 layer_factory.hpp:77] Creating layer conv1
I0403 13:25:05.900180 11201 net.cpp:91] Creating Layer conv1
I0403 13:25:05.900202 11201 net.cpp:425] conv1 <- data
I0403 13:25:05.900224 11201 net.cpp:399] conv1 -> conv1
I0403 13:25:06.060333 11201 net.cpp:141] Setting up conv1
I0403 13:25:06.060421 11201 net.cpp:148] Top shape: 100 96 55 55 (29040000)
I0403 13:25:06.060441 11201 net.cpp:156] Memory required for data: 177996400
I0403 13:25:06.060477 11201 layer_factory.hpp:77] Creating layer relu1
I0403 13:25:06.060509 11201 net.cpp:91] Creating Layer relu1
I0403 13:25:06.060529 11201 net.cpp:425] relu1 <- conv1
I0403 13:25:06.060552 11201 net.cpp:386] relu1 -> conv1 (in-place)
I0403 13:25:06.060860 11201 net.cpp:141] Setting up relu1
I0403 13:25:06.060892 11201 net.cpp:148] Top shape: 100 96 55 55 (29040000)
I0403 13:25:06.060952 11201 net.cpp:156] Memory required for data: 294156400
I0403 13:25:06.060972 11201 layer_factory.hpp:77] Creating layer norm1
I0403 13:25:06.061003 11201 net.cpp:91] Creating Layer norm1
I0403 13:25:06.061028 11201 net.cpp:425] norm1 <- conv1
I0403 13:25:06.061051 11201 net.cpp:399] norm1 -> norm1
I0403 13:25:06.061432 11201 net.cpp:141] Setting up norm1
I0403 13:25:06.061465 11201 net.cpp:148] Top shape: 100 96 55 55 (29040000)
I0403 13:25:06.061485 11201 net.cpp:156] Memory required for data: 410316400
I0403 13:25:06.061501 11201 layer_factory.hpp:77] Creating layer pool1
I0403 13:25:06.061528 11201 net.cpp:91] Creating Layer pool1
I0403 13:25:06.061550 11201 net.cpp:425] pool1 <- norm1
I0403 13:25:06.061576 11201 net.cpp:399] pool1 -> pool1
I0403 13:25:06.061660 11201 net.cpp:141] Setting up pool1
I0403 13:25:06.061688 11201 net.cpp:148] Top shape: 100 96 27 27 (6998400)
I0403 13:25:06.061705 11201 net.cpp:156] Memory required for data: 438310000
I0403 13:25:06.061723 11201 layer_factory.hpp:77] Creating layer conv2
I0403 13:25:06.061751 11201 net.cpp:91] Creating Layer conv2
I0403 13:25:06.061770 11201 net.cpp:425] conv2 <- pool1
I0403 13:25:06.061792 11201 net.cpp:399] conv2 -> conv2
I0403 13:25:06.079560 11201 net.cpp:141] Setting up conv2
I0403 13:25:06.079607 11201 net.cpp:148] Top shape: 100 256 27 27 (18662400)
I0403 13:25:06.079625 11201 net.cpp:156] Memory required for data: 512959600
I0403 13:25:06.079650 11201 layer_factory.hpp:77] Creating layer relu2
I0403 13:25:06.079677 11201 net.cpp:91] Creating Layer relu2
I0403 13:25:06.079697 11201 net.cpp:425] relu2 <- conv2
I0403 13:25:06.079717 11201 net.cpp:386] relu2 -> conv2 (in-place)
I0403 13:25:06.080051 11201 net.cpp:141] Setting up relu2
I0403 13:25:06.080085 11201 net.cpp:148] Top shape: 100 256 27 27 (18662400)
I0403 13:25:06.080104 11201 net.cpp:156] Memory required for data: 587609200
I0403 13:25:06.080122 11201 layer_factory.hpp:77] Creating layer norm2
I0403 13:25:06.080145 11201 net.cpp:91] Creating Layer norm2
I0403 13:25:06.080164 11201 net.cpp:425] norm2 <- conv2
I0403 13:25:06.080188 11201 net.cpp:399] norm2 -> norm2
I0403 13:25:06.080427 11201 net.cpp:141] Setting up norm2
I0403 13:25:06.080458 11201 net.cpp:148] Top shape: 100 256 27 27 (18662400)
I0403 13:25:06.080476 11201 net.cpp:156] Memory required for data: 662258800
I0403 13:25:06.080493 11201 layer_factory.hpp:77] Creating layer pool2
I0403 13:25:06.080516 11201 net.cpp:91] Creating Layer pool2
I0403 13:25:06.080536 11201 net.cpp:425] pool2 <- norm2
I0403 13:25:06.080557 11201 net.cpp:399] pool2 -> pool2
I0403 13:25:06.080628 11201 net.cpp:141] Setting up pool2
I0403 13:25:06.080656 11201 net.cpp:148] Top shape: 100 256 13 13 (4326400)
I0403 13:25:06.080673 11201 net.cpp:156] Memory required for data: 679564400
I0403 13:25:06.080689 11201 layer_factory.hpp:77] Creating layer conv3
I0403 13:25:06.080718 11201 net.cpp:91] Creating Layer conv3
I0403 13:25:06.080737 11201 net.cpp:425] conv3 <- pool2
I0403 13:25:06.080763 11201 net.cpp:399] conv3 -> conv3
I0403 13:25:06.125783 11201 net.cpp:141] Setting up conv3
I0403 13:25:06.125851 11201 net.cpp:148] Top shape: 100 384 13 13 (6489600)
I0403 13:25:06.125866 11201 net.cpp:156] Memory required for data: 705522800
I0403 13:25:06.125892 11201 layer_factory.hpp:77] Creating layer relu3
I0403 13:25:06.125915 11201 net.cpp:91] Creating Layer relu3
I0403 13:25:06.125931 11201 net.cpp:425] relu3 <- conv3
I0403 13:25:06.125947 11201 net.cpp:386] relu3 -> conv3 (in-place)
I0403 13:25:06.126215 11201 net.cpp:141] Setting up relu3
I0403 13:25:06.126243 11201 net.cpp:148] Top shape: 100 384 13 13 (6489600)
I0403 13:25:06.126260 11201 net.cpp:156] Memory required for data: 731481200
I0403 13:25:06.126274 11201 layer_factory.hpp:77] Creating layer conv4
I0403 13:25:06.126296 11201 net.cpp:91] Creating Layer conv4
I0403 13:25:06.126312 11201 net.cpp:425] conv4 <- conv3
I0403 13:25:06.126332 11201 net.cpp:399] conv4 -> conv4
I0403 13:25:06.155295 11201 net.cpp:141] Setting up conv4
I0403 13:25:06.155338 11201 net.cpp:148] Top shape: 100 384 13 13 (6489600)
I0403 13:25:06.155386 11201 net.cpp:156] Memory required for data: 757439600
I0403 13:25:06.155406 11201 layer_factory.hpp:77] Creating layer relu4
I0403 13:25:06.155428 11201 net.cpp:91] Creating Layer relu4
I0403 13:25:06.155446 11201 net.cpp:425] relu4 <- conv4
I0403 13:25:06.155462 11201 net.cpp:386] relu4 -> conv4 (in-place)
I0403 13:25:06.155742 11201 net.cpp:141] Setting up relu4
I0403 13:25:06.155768 11201 net.cpp:148] Top shape: 100 384 13 13 (6489600)
I0403 13:25:06.155783 11201 net.cpp:156] Memory required for data: 783398000
I0403 13:25:06.155797 11201 layer_factory.hpp:77] Creating layer conv5
I0403 13:25:06.155820 11201 net.cpp:91] Creating Layer conv5
I0403 13:25:06.155838 11201 net.cpp:425] conv5 <- conv4
I0403 13:25:06.155858 11201 net.cpp:399] conv5 -> conv5
I0403 13:25:06.175835 11201 net.cpp:141] Setting up conv5
I0403 13:25:06.175874 11201 net.cpp:148] Top shape: 100 256 13 13 (4326400)
I0403 13:25:06.175889 11201 net.cpp:156] Memory required for data: 800703600
I0403 13:25:06.175912 11201 layer_factory.hpp:77] Creating layer relu5
I0403 13:25:06.175935 11201 net.cpp:91] Creating Layer relu5
I0403 13:25:06.175953 11201 net.cpp:425] relu5 <- conv5
I0403 13:25:06.175969 11201 net.cpp:386] relu5 -> conv5 (in-place)
I0403 13:25:06.176242 11201 net.cpp:141] Setting up relu5
I0403 13:25:06.176270 11201 net.cpp:148] Top shape: 100 256 13 13 (4326400)
I0403 13:25:06.176285 11201 net.cpp:156] Memory required for data: 818009200
I0403 13:25:06.176301 11201 layer_factory.hpp:77] Creating layer pool5
I0403 13:25:06.176324 11201 net.cpp:91] Creating Layer pool5
I0403 13:25:06.176342 11201 net.cpp:425] pool5 <- conv5
I0403 13:25:06.176362 11201 net.cpp:399] pool5 -> pool5
I0403 13:25:06.176419 11201 net.cpp:141] Setting up pool5
I0403 13:25:06.176442 11201 net.cpp:148] Top shape: 100 256 6 6 (921600)
I0403 13:25:06.176457 11201 net.cpp:156] Memory required for data: 821695600
I0403 13:25:06.176470 11201 layer_factory.hpp:77] Creating layer fc6
I0403 13:25:06.176498 11201 net.cpp:91] Creating Layer fc6
I0403 13:25:06.176517 11201 net.cpp:425] fc6 <- pool5
I0403 13:25:06.176537 11201 net.cpp:399] fc6 -> fc6
I0403 13:25:07.705410 11201 net.cpp:141] Setting up fc6
I0403 13:25:07.705488 11201 net.cpp:148] Top shape: 100 4096 (409600)
I0403 13:25:07.705504 11201 net.cpp:156] Memory required for data: 823334000
I0403 13:25:07.705525 11201 layer_factory.hpp:77] Creating layer relu6
I0403 13:25:07.705550 11201 net.cpp:91] Creating Layer relu6
I0403 13:25:07.705571 11201 net.cpp:425] relu6 <- fc6
I0403 13:25:07.705591 11201 net.cpp:386] relu6 -> fc6 (in-place)
I0403 13:25:07.705814 11201 net.cpp:141] Setting up relu6
I0403 13:25:07.705838 11201 net.cpp:148] Top shape: 100 4096 (409600)
I0403 13:25:07.705853 11201 net.cpp:156] Memory required for data: 824972400
I0403 13:25:07.705868 11201 layer_factory.hpp:77] Creating layer drop6
I0403 13:25:07.705886 11201 net.cpp:91] Creating Layer drop6
I0403 13:25:07.705901 11201 net.cpp:425] drop6 <- fc6
I0403 13:25:07.705917 11201 net.cpp:386] drop6 -> fc6 (in-place)
I0403 13:25:07.705970 11201 net.cpp:141] Setting up drop6
I0403 13:25:07.705991 11201 net.cpp:148] Top shape: 100 4096 (409600)
I0403 13:25:07.706006 11201 net.cpp:156] Memory required for data: 826610800
I0403 13:25:07.706018 11201 layer_factory.hpp:77] Creating layer fc7
I0403 13:25:07.706037 11201 net.cpp:91] Creating Layer fc7
I0403 13:25:07.706051 11201 net.cpp:425] fc7 <- fc6
I0403 13:25:07.706071 11201 net.cpp:399] fc7 -> fc7
I0403 13:25:08.417029 11201 net.cpp:141] Setting up fc7
I0403 13:25:08.417117 11201 net.cpp:148] Top shape: 100 4096 (409600)
I0403 13:25:08.417135 11201 net.cpp:156] Memory required for data: 828249200
I0403 13:25:08.417158 11201 layer_factory.hpp:77] Creating layer relu7
I0403 13:25:08.417181 11201 net.cpp:91] Creating Layer relu7
I0403 13:25:08.417201 11201 net.cpp:425] relu7 <- fc7
I0403 13:25:08.417219 11201 net.cpp:386] relu7 -> fc7 (in-place)
I0403 13:25:08.417644 11201 net.cpp:141] Setting up relu7
I0403 13:25:08.417672 11201 net.cpp:148] Top shape: 100 4096 (409600)
I0403 13:25:08.417726 11201 net.cpp:156] Memory required for data: 829887600
I0403 13:25:08.417743 11201 layer_factory.hpp:77] Creating layer drop7
I0403 13:25:08.417767 11201 net.cpp:91] Creating Layer drop7
I0403 13:25:08.417783 11201 net.cpp:425] drop7 <- fc7
I0403 13:25:08.417800 11201 net.cpp:386] drop7 -> fc7 (in-place)
I0403 13:25:08.417847 11201 net.cpp:141] Setting up drop7
I0403 13:25:08.417871 11201 net.cpp:148] Top shape: 100 4096 (409600)
I0403 13:25:08.417886 11201 net.cpp:156] Memory required for data: 831526000
I0403 13:25:08.417901 11201 layer_factory.hpp:77] Creating layer fc8_plantvillage
I0403 13:25:08.417924 11201 net.cpp:91] Creating Layer fc8_plantvillage
I0403 13:25:08.417942 11201 net.cpp:425] fc8_plantvillage <- fc7
I0403 13:25:08.417959 11201 net.cpp:399] fc8_plantvillage -> fc8_plantvillage
I0403 13:25:08.425125 11201 net.cpp:141] Setting up fc8_plantvillage
I0403 13:25:08.425158 11201 net.cpp:148] Top shape: 100 38 (3800)
I0403 13:25:08.425175 11201 net.cpp:156] Memory required for data: 831541200
I0403 13:25:08.425196 11201 layer_factory.hpp:77] Creating layer fc8_plantvillage_fc8_plantvillage_0_split
I0403 13:25:08.425220 11201 net.cpp:91] Creating Layer fc8_plantvillage_fc8_plantvillage_0_split
I0403 13:25:08.425238 11201 net.cpp:425] fc8_plantvillage_fc8_plantvillage_0_split <- fc8_plantvillage
I0403 13:25:08.425258 11201 net.cpp:399] fc8_plantvillage_fc8_plantvillage_0_split -> fc8_plantvillage_fc8_plantvillage_0_split_0
I0403 13:25:08.425283 11201 net.cpp:399] fc8_plantvillage_fc8_plantvillage_0_split -> fc8_plantvillage_fc8_plantvillage_0_split_1
I0403 13:25:08.425307 11201 net.cpp:399] fc8_plantvillage_fc8_plantvillage_0_split -> fc8_plantvillage_fc8_plantvillage_0_split_2
I0403 13:25:08.425390 11201 net.cpp:141] Setting up fc8_plantvillage_fc8_plantvillage_0_split
I0403 13:25:08.425416 11201 net.cpp:148] Top shape: 100 38 (3800)
I0403 13:25:08.425433 11201 net.cpp:148] Top shape: 100 38 (3800)
I0403 13:25:08.425451 11201 net.cpp:148] Top shape: 100 38 (3800)
I0403 13:25:08.425467 11201 net.cpp:156] Memory required for data: 831586800
I0403 13:25:08.425482 11201 layer_factory.hpp:77] Creating layer prob
I0403 13:25:08.425504 11201 net.cpp:91] Creating Layer prob
I0403 13:25:08.425523 11201 net.cpp:425] prob <- fc8_plantvillage_fc8_plantvillage_0_split_0
I0403 13:25:08.425541 11201 net.cpp:399] prob -> prob
I0403 13:25:08.425792 11201 net.cpp:141] Setting up prob
I0403 13:25:08.425820 11201 net.cpp:148] Top shape: 100 38 (3800)
I0403 13:25:08.425837 11201 net.cpp:156] Memory required for data: 831602000
I0403 13:25:08.425853 11201 layer_factory.hpp:77] Creating layer hdf5out
I0403 13:25:08.425876 11201 net.cpp:91] Creating Layer hdf5out
I0403 13:25:08.425894 11201 net.cpp:425] hdf5out <- prob
I0403 13:25:08.425914 11201 net.cpp:425] hdf5out <- label_data_1_split_0
I0403 13:25:08.686067 11201 net.cpp:141] Setting up hdf5out
…
