…
I0403 13:24:36.986028 11182 net.cpp:313] The NetState phase (1) differed from the phase (0) specified by a rule in layer data
I0403 13:24:36.986347 11182 net.cpp:49] Initializing net from parameters: 
state {
  phase: TEST
}
layer {
  name: "data"
  type: "Data"
  top: "data"
  top: "label"
  include {
    phase: TEST
  }
  transform_param {
    crop_size: 227
    mean_file: "/home/mohanty/data/final_dataset/lmdb/grayscale-80-20/mean.binaryproto"
  }
  data_param {
    source: "/home/mohanty/data/final_dataset/lmdb/grayscale-80-20/test_db"
    batch_size: 100
    backend: LMDB
  }
}
layer {
  name: "conv1"
  type: "Convolution"
  bottom: "data"
  top: "conv1"
  param {
    lr_mult: 1
    decay_mult: 1
  }
  param {
    lr_mult: 2
    decay_mult: 0
  }
  convolution_param {
    num_output: 96
    kernel_size: 11
    stride: 4
    weight_filler {
      type: "gaussian"
      std: 0.01
    }
    bias_filler {
      type: "constant"
      value: 0
    }
  }
}
layer {
  name: "relu1"
  type: "ReLU"
  bottom: "conv1"
  top: "conv1"
}
layer {
  name: "norm1"
  type: "LRN"
  bottom: "conv1"
  top: "norm1"
  lrn_param {
    local_size: 5
    alpha: 0.0001
    beta: 0.75
  }
}
layer {
  name: "pool1"
  type: "Pooling"
  bottom: "norm1"
  top: "pool1"
  pooling_param {
    pool: MAX
    kernel_size: 3
    stride: 2
  }
}
layer {
  name: "conv2"
  type: "Convolution"
  bottom: "pool1"
  top: "conv2"
  param {
    lr_mult: 1
    decay_mult: 1
  }
  param {
    lr_mult: 2
    decay_mult: 0
  }
  convolution_param {
    num_output: 256
    pad: 2
    kernel_size: 5
    group: 2
    weight_filler {
      type: "gaussian"
      std: 0.01
    }
    bias_filler {
      type: "constant"
      value: 0.1
    }
  }
}
layer {
  name: "relu2"
  type: "ReLU"
  bottom: "conv2"
  top: "conv2"
}
layer {
  name: "norm2"
  type: "LRN"
  bottom: "conv2"
  top: "norm2"
  lrn_param {
    local_size: 5
    alpha: 0.0001
    beta: 0.75
  }
}
layer {
  name: "pool2"
  type: "Pooling"
  bottom: "norm2"
  top: "pool2"
  pooling_param {
    pool: MAX
    kernel_size: 3
    stride: 2
  }
}
layer {
  name: "conv3"
  type: "Convolution"
  bottom: "pool2"
  top: "conv3"
  param {
    lr_mult: 1
    decay_mult: 1
  }
  param {
    lr_mult: 2
    decay_mult: 0
  }
  convolution_param {
    num_output: 384
    pad: 1
    kernel_size: 3
    weight_filler {
      type: "gaussian"
      std: 0.01
    }
    bias_filler {
      type: "constant"
      value: 0
    }
  }
}
layer {
  name: "relu3"
  type: "ReLU"
  bottom: "conv3"
  top: "conv3"
}
layer {
  name: "conv4"
  type: "Convolution"
  bottom: "conv3"
  top: "conv4"
  param {
    lr_mult: 1
    decay_mult: 1
  }
  param {
    lr_mult: 2
    decay_mult: 0
  }
  convolution_param {
    num_output: 384
    pad: 1
    kernel_size: 3
    group: 2
    weight_filler {
      type: "gaussian"
      std: 0.01
    }
    bias_filler {
      type: "constant"
      value: 0.1
    }
  }
}
layer {
  name: "relu4"
  type: "ReLU"
  bottom: "conv4"
  top: "conv4"
}
layer {
  name: "conv5"
  type: "Convolution"
  bottom: "conv4"
  top: "conv5"
  param {
    lr_mult: 1
    decay_mult: 1
  }
  param {
    lr_mult: 2
    decay_mult: 0
  }
  convolution_param {
    num_output: 256
    pad: 1
    kernel_size: 3
    group: 2
    weight_filler {
      type: "gaussian"
      std: 0.01
    }
    bias_filler {
      type: "constant"
      value: 0.1
    }
  }
}
layer {
  name: "relu5"
  type: "ReLU"
  bottom: "conv5"
  top: "conv5"
}
layer {
  name: "pool5"
  type: "Pooling"
  bottom: "conv5"
  top: "pool5"
  pooling_param {
    pool: MAX
    kernel_size: 3
    stride: 2
  }
}
layer {
  name: "fc6"
  type: "InnerProduct"
  bottom: "pool5"
  top: "fc6"
  param {
    lr_mult: 1
    decay_mult: 1
  }
  param {
    lr_mult: 2
    decay_mult: 0
  }
  inner_product_param {
    num_output: 4096
    weight_filler {
      type: "gaussian"
      std: 0.005
    }
    bias_filler {
      type: "constant"
      value: 0.1
    }
  }
}
layer {
  name: "relu6"
  type: "ReLU"
  bottom: "fc6"
  top: "fc6"
}
layer {
  name: "drop6"
  type: "Dropout"
  bottom: "fc6"
  top: "fc6"
  dropout_param {
    dropout_ratio: 0.5
  }
}
layer {
  name: "fc7"
  type: "InnerProduct"
  bottom: "fc6"
  top: "fc7"
  param {
    lr_mult: 1
    decay_mult: 1
  }
  param {
    lr_mult: 2
    decay_mult: 0
  }
  inner_product_param {
    num_output: 4096
    weight_filler {
      type: "gaussian"
      std: 0.005
    }
    bias_filler {
      type: "constant"
      value: 0.1
    }
  }
}
layer {
  name: "relu7"
  type: "ReLU"
  bottom: "fc7"
  top: "fc7"
}
layer {
  name: "drop7"
  type: "Dropout"
  bottom: "fc7"
  top: "fc7"
  dropout_param {
    dropout_ratio: 0.5
  }
}
layer {
  name: "fc8_plantvillage"
  type: "InnerProduct"
  bottom: "fc7"
  top: "fc8_plantvillage"
  param {
    lr_mult: 1
    decay_mult: 1
  }
  param {
    lr_mult: 2
    decay_mult: 0
  }
  inner_product_param {
    num_output: 38
    weight_filler {
      type: "gaussian"
      std: 0.01
    }
    bias_filler {
      type: "constant"
      value: 0
    }
  }
}
layer {
  name: "prob"
  type: "Softmax"
  bottom: "fc8_plantvillage"
  top: "prob"
  include {
    phase: TEST
  }
}
layer {
  name: "hdf5out"
  type: "HDF5Output"
  bottom: "prob"
  bottom: "label"
  include {
    phase: TEST
  }
  hdf5_output_param {
    file_name: "hdf5_dumps/iter_1744.h5"
  }
}
layer {
  name: "loss"
  type: "SoftmaxWithLoss"
  bottom: "fc8_plantvillage"
  bottom: "label"
  top: "loss"
}
layer {
  name: "accuracy"
  type: "Accuracy"
  bottom: "fc8_plantvillage"
  bottom: "label"
  top: "accuracy"
  include {
    phase: TEST
  }
}
I0403 13:24:36.986938 11182 layer_factory.hpp:77] Creating layer data
I0403 13:24:36.987617 11182 net.cpp:91] Creating Layer data
I0403 13:24:36.987648 11182 net.cpp:399] data -> data
I0403 13:24:36.987697 11182 net.cpp:399] data -> label
I0403 13:24:36.987737 11182 data_transformer.cpp:25] Loading mean file from: /home/mohanty/data/final_dataset/lmdb/grayscale-80-20/mean.binaryproto
I0403 13:24:36.990979 11188 db_lmdb.cpp:38] Opened lmdb /home/mohanty/data/final_dataset/lmdb/grayscale-80-20/test_db
I0403 13:24:37.001862 11182 data_layer.cpp:41] output data size: 100,3,227,227
I0403 13:24:37.118497 11182 net.cpp:141] Setting up data
I0403 13:24:37.118597 11182 net.cpp:148] Top shape: 100 3 227 227 (15458700)
I0403 13:24:37.118621 11182 net.cpp:148] Top shape: 100 (100)
I0403 13:24:37.118638 11182 net.cpp:156] Memory required for data: 61835200
I0403 13:24:37.118664 11182 layer_factory.hpp:77] Creating layer label_data_1_split
I0403 13:24:37.118690 11182 net.cpp:91] Creating Layer label_data_1_split
I0403 13:24:37.118706 11182 net.cpp:425] label_data_1_split <- label
I0403 13:24:37.118739 11182 net.cpp:399] label_data_1_split -> label_data_1_split_0
I0403 13:24:37.118767 11182 net.cpp:399] label_data_1_split -> label_data_1_split_1
I0403 13:24:37.118788 11182 net.cpp:399] label_data_1_split -> label_data_1_split_2
I0403 13:24:37.118851 11182 net.cpp:141] Setting up label_data_1_split
I0403 13:24:37.118875 11182 net.cpp:148] Top shape: 100 (100)
I0403 13:24:37.118891 11182 net.cpp:148] Top shape: 100 (100)
I0403 13:24:37.118907 11182 net.cpp:148] Top shape: 100 (100)
I0403 13:24:37.118921 11182 net.cpp:156] Memory required for data: 61836400
I0403 13:24:37.118935 11182 layer_factory.hpp:77] Creating layer conv1
I0403 13:24:37.118968 11182 net.cpp:91] Creating Layer conv1
I0403 13:24:37.118985 11182 net.cpp:425] conv1 <- data
I0403 13:24:37.119004 11182 net.cpp:399] conv1 -> conv1
I0403 13:24:37.255331 11182 net.cpp:141] Setting up conv1
I0403 13:24:37.255409 11182 net.cpp:148] Top shape: 100 96 55 55 (29040000)
I0403 13:24:37.255426 11182 net.cpp:156] Memory required for data: 177996400
I0403 13:24:37.255456 11182 layer_factory.hpp:77] Creating layer relu1
I0403 13:24:37.255511 11182 net.cpp:91] Creating Layer relu1
I0403 13:24:37.255532 11182 net.cpp:425] relu1 <- conv1
I0403 13:24:37.255551 11182 net.cpp:386] relu1 -> conv1 (in-place)
I0403 13:24:37.255818 11182 net.cpp:141] Setting up relu1
I0403 13:24:37.255846 11182 net.cpp:148] Top shape: 100 96 55 55 (29040000)
I0403 13:24:37.255904 11182 net.cpp:156] Memory required for data: 294156400
I0403 13:24:37.255920 11182 layer_factory.hpp:77] Creating layer norm1
I0403 13:24:37.255947 11182 net.cpp:91] Creating Layer norm1
I0403 13:24:37.255964 11182 net.cpp:425] norm1 <- conv1
I0403 13:24:37.255982 11182 net.cpp:399] norm1 -> norm1
I0403 13:24:37.256284 11182 net.cpp:141] Setting up norm1
I0403 13:24:37.256311 11182 net.cpp:148] Top shape: 100 96 55 55 (29040000)
I0403 13:24:37.256326 11182 net.cpp:156] Memory required for data: 410316400
I0403 13:24:37.256341 11182 layer_factory.hpp:77] Creating layer pool1
I0403 13:24:37.256364 11182 net.cpp:91] Creating Layer pool1
I0403 13:24:37.256381 11182 net.cpp:425] pool1 <- norm1
I0403 13:24:37.256398 11182 net.cpp:399] pool1 -> pool1
I0403 13:24:37.256463 11182 net.cpp:141] Setting up pool1
I0403 13:24:37.256485 11182 net.cpp:148] Top shape: 100 96 27 27 (6998400)
I0403 13:24:37.256500 11182 net.cpp:156] Memory required for data: 438310000
I0403 13:24:37.256515 11182 layer_factory.hpp:77] Creating layer conv2
I0403 13:24:37.256539 11182 net.cpp:91] Creating Layer conv2
I0403 13:24:37.256556 11182 net.cpp:425] conv2 <- pool1
I0403 13:24:37.256577 11182 net.cpp:399] conv2 -> conv2
I0403 13:24:37.271255 11182 net.cpp:141] Setting up conv2
I0403 13:24:37.271291 11182 net.cpp:148] Top shape: 100 256 27 27 (18662400)
I0403 13:24:37.271307 11182 net.cpp:156] Memory required for data: 512959600
I0403 13:24:37.271328 11182 layer_factory.hpp:77] Creating layer relu2
I0403 13:24:37.271347 11182 net.cpp:91] Creating Layer relu2
I0403 13:24:37.271363 11182 net.cpp:425] relu2 <- conv2
I0403 13:24:37.271378 11182 net.cpp:386] relu2 -> conv2 (in-place)
I0403 13:24:37.271648 11182 net.cpp:141] Setting up relu2
I0403 13:24:37.271674 11182 net.cpp:148] Top shape: 100 256 27 27 (18662400)
I0403 13:24:37.271689 11182 net.cpp:156] Memory required for data: 587609200
I0403 13:24:37.271703 11182 layer_factory.hpp:77] Creating layer norm2
I0403 13:24:37.271723 11182 net.cpp:91] Creating Layer norm2
I0403 13:24:37.271739 11182 net.cpp:425] norm2 <- conv2
I0403 13:24:37.271756 11182 net.cpp:399] norm2 -> norm2
I0403 13:24:37.271941 11182 net.cpp:141] Setting up norm2
I0403 13:24:37.271966 11182 net.cpp:148] Top shape: 100 256 27 27 (18662400)
I0403 13:24:37.271981 11182 net.cpp:156] Memory required for data: 662258800
I0403 13:24:37.271996 11182 layer_factory.hpp:77] Creating layer pool2
I0403 13:24:37.272016 11182 net.cpp:91] Creating Layer pool2
I0403 13:24:37.272032 11182 net.cpp:425] pool2 <- norm2
I0403 13:24:37.272048 11182 net.cpp:399] pool2 -> pool2
I0403 13:24:37.272099 11182 net.cpp:141] Setting up pool2
I0403 13:24:37.272122 11182 net.cpp:148] Top shape: 100 256 13 13 (4326400)
I0403 13:24:37.272136 11182 net.cpp:156] Memory required for data: 679564400
I0403 13:24:37.272150 11182 layer_factory.hpp:77] Creating layer conv3
I0403 13:24:37.272172 11182 net.cpp:91] Creating Layer conv3
I0403 13:24:37.272189 11182 net.cpp:425] conv3 <- pool2
I0403 13:24:37.272210 11182 net.cpp:399] conv3 -> conv3
I0403 13:24:37.316045 11182 net.cpp:141] Setting up conv3
I0403 13:24:37.316107 11182 net.cpp:148] Top shape: 100 384 13 13 (6489600)
I0403 13:24:37.316124 11182 net.cpp:156] Memory required for data: 705522800
I0403 13:24:37.316148 11182 layer_factory.hpp:77] Creating layer relu3
I0403 13:24:37.316171 11182 net.cpp:91] Creating Layer relu3
I0403 13:24:37.316189 11182 net.cpp:425] relu3 <- conv3
I0403 13:24:37.316206 11182 net.cpp:386] relu3 -> conv3 (in-place)
I0403 13:24:37.316484 11182 net.cpp:141] Setting up relu3
I0403 13:24:37.316510 11182 net.cpp:148] Top shape: 100 384 13 13 (6489600)
I0403 13:24:37.316525 11182 net.cpp:156] Memory required for data: 731481200
I0403 13:24:37.316540 11182 layer_factory.hpp:77] Creating layer conv4
I0403 13:24:37.316565 11182 net.cpp:91] Creating Layer conv4
I0403 13:24:37.316598 11182 net.cpp:425] conv4 <- conv3
I0403 13:24:37.316622 11182 net.cpp:399] conv4 -> conv4
I0403 13:24:37.345587 11182 net.cpp:141] Setting up conv4
I0403 13:24:37.345634 11182 net.cpp:148] Top shape: 100 384 13 13 (6489600)
I0403 13:24:37.345690 11182 net.cpp:156] Memory required for data: 757439600
I0403 13:24:37.345711 11182 layer_factory.hpp:77] Creating layer relu4
I0403 13:24:37.345731 11182 net.cpp:91] Creating Layer relu4
I0403 13:24:37.345747 11182 net.cpp:425] relu4 <- conv4
I0403 13:24:37.345769 11182 net.cpp:386] relu4 -> conv4 (in-place)
I0403 13:24:37.346040 11182 net.cpp:141] Setting up relu4
I0403 13:24:37.346066 11182 net.cpp:148] Top shape: 100 384 13 13 (6489600)
I0403 13:24:37.346082 11182 net.cpp:156] Memory required for data: 783398000
I0403 13:24:37.346096 11182 layer_factory.hpp:77] Creating layer conv5
I0403 13:24:37.346122 11182 net.cpp:91] Creating Layer conv5
I0403 13:24:37.346138 11182 net.cpp:425] conv5 <- conv4
I0403 13:24:37.346159 11182 net.cpp:399] conv5 -> conv5
I0403 13:24:37.365921 11182 net.cpp:141] Setting up conv5
I0403 13:24:37.365955 11182 net.cpp:148] Top shape: 100 256 13 13 (4326400)
I0403 13:24:37.365972 11182 net.cpp:156] Memory required for data: 800703600
I0403 13:24:37.365994 11182 layer_factory.hpp:77] Creating layer relu5
I0403 13:24:37.366016 11182 net.cpp:91] Creating Layer relu5
I0403 13:24:37.366034 11182 net.cpp:425] relu5 <- conv5
I0403 13:24:37.366050 11182 net.cpp:386] relu5 -> conv5 (in-place)
I0403 13:24:37.366327 11182 net.cpp:141] Setting up relu5
I0403 13:24:37.366355 11182 net.cpp:148] Top shape: 100 256 13 13 (4326400)
I0403 13:24:37.366370 11182 net.cpp:156] Memory required for data: 818009200
I0403 13:24:37.366385 11182 layer_factory.hpp:77] Creating layer pool5
I0403 13:24:37.366410 11182 net.cpp:91] Creating Layer pool5
I0403 13:24:37.366426 11182 net.cpp:425] pool5 <- conv5
I0403 13:24:37.366446 11182 net.cpp:399] pool5 -> pool5
I0403 13:24:37.366504 11182 net.cpp:141] Setting up pool5
I0403 13:24:37.366528 11182 net.cpp:148] Top shape: 100 256 6 6 (921600)
I0403 13:24:37.366542 11182 net.cpp:156] Memory required for data: 821695600
I0403 13:24:37.366556 11182 layer_factory.hpp:77] Creating layer fc6
I0403 13:24:37.366588 11182 net.cpp:91] Creating Layer fc6
I0403 13:24:37.366606 11182 net.cpp:425] fc6 <- pool5
I0403 13:24:37.366624 11182 net.cpp:399] fc6 -> fc6
I0403 13:24:38.874177 11182 net.cpp:141] Setting up fc6
I0403 13:24:38.874259 11182 net.cpp:148] Top shape: 100 4096 (409600)
I0403 13:24:38.874275 11182 net.cpp:156] Memory required for data: 823334000
I0403 13:24:38.874296 11182 layer_factory.hpp:77] Creating layer relu6
I0403 13:24:38.874317 11182 net.cpp:91] Creating Layer relu6
I0403 13:24:38.874333 11182 net.cpp:425] relu6 <- fc6
I0403 13:24:38.874354 11182 net.cpp:386] relu6 -> fc6 (in-place)
I0403 13:24:38.874629 11182 net.cpp:141] Setting up relu6
I0403 13:24:38.874655 11182 net.cpp:148] Top shape: 100 4096 (409600)
I0403 13:24:38.874670 11182 net.cpp:156] Memory required for data: 824972400
I0403 13:24:38.874683 11182 layer_factory.hpp:77] Creating layer drop6
I0403 13:24:38.874712 11182 net.cpp:91] Creating Layer drop6
I0403 13:24:38.874729 11182 net.cpp:425] drop6 <- fc6
I0403 13:24:38.874745 11182 net.cpp:386] drop6 -> fc6 (in-place)
I0403 13:24:38.874797 11182 net.cpp:141] Setting up drop6
I0403 13:24:38.874822 11182 net.cpp:148] Top shape: 100 4096 (409600)
I0403 13:24:38.874847 11182 net.cpp:156] Memory required for data: 826610800
I0403 13:24:38.874874 11182 layer_factory.hpp:77] Creating layer fc7
I0403 13:24:38.874902 11182 net.cpp:91] Creating Layer fc7
I0403 13:24:38.874917 11182 net.cpp:425] fc7 <- fc6
I0403 13:24:38.874935 11182 net.cpp:399] fc7 -> fc7
I0403 13:24:39.544886 11182 net.cpp:141] Setting up fc7
I0403 13:24:39.544963 11182 net.cpp:148] Top shape: 100 4096 (409600)
I0403 13:24:39.544978 11182 net.cpp:156] Memory required for data: 828249200
I0403 13:24:39.544999 11182 layer_factory.hpp:77] Creating layer relu7
I0403 13:24:39.545019 11182 net.cpp:91] Creating Layer relu7
I0403 13:24:39.545037 11182 net.cpp:425] relu7 <- fc7
I0403 13:24:39.545056 11182 net.cpp:386] relu7 -> fc7 (in-place)
I0403 13:24:39.545445 11182 net.cpp:141] Setting up relu7
I0403 13:24:39.545470 11182 net.cpp:148] Top shape: 100 4096 (409600)
I0403 13:24:39.545526 11182 net.cpp:156] Memory required for data: 829887600
I0403 13:24:39.545542 11182 layer_factory.hpp:77] Creating layer drop7
I0403 13:24:39.545559 11182 net.cpp:91] Creating Layer drop7
I0403 13:24:39.545579 11182 net.cpp:425] drop7 <- fc7
I0403 13:24:39.545600 11182 net.cpp:386] drop7 -> fc7 (in-place)
I0403 13:24:39.545645 11182 net.cpp:141] Setting up drop7
I0403 13:24:39.545666 11182 net.cpp:148] Top shape: 100 4096 (409600)
I0403 13:24:39.545680 11182 net.cpp:156] Memory required for data: 831526000
I0403 13:24:39.545692 11182 layer_factory.hpp:77] Creating layer fc8_plantvillage
I0403 13:24:39.545711 11182 net.cpp:91] Creating Layer fc8_plantvillage
I0403 13:24:39.545725 11182 net.cpp:425] fc8_plantvillage <- fc7
I0403 13:24:39.545745 11182 net.cpp:399] fc8_plantvillage -> fc8_plantvillage
I0403 13:24:39.552072 11182 net.cpp:141] Setting up fc8_plantvillage
I0403 13:24:39.552099 11182 net.cpp:148] Top shape: 100 38 (3800)
I0403 13:24:39.552114 11182 net.cpp:156] Memory required for data: 831541200
I0403 13:24:39.552132 11182 layer_factory.hpp:77] Creating layer fc8_plantvillage_fc8_plantvillage_0_split
I0403 13:24:39.552152 11182 net.cpp:91] Creating Layer fc8_plantvillage_fc8_plantvillage_0_split
I0403 13:24:39.552168 11182 net.cpp:425] fc8_plantvillage_fc8_plantvillage_0_split <- fc8_plantvillage
I0403 13:24:39.552186 11182 net.cpp:399] fc8_plantvillage_fc8_plantvillage_0_split -> fc8_plantvillage_fc8_plantvillage_0_split_0
I0403 13:24:39.552204 11182 net.cpp:399] fc8_plantvillage_fc8_plantvillage_0_split -> fc8_plantvillage_fc8_plantvillage_0_split_1
I0403 13:24:39.552224 11182 net.cpp:399] fc8_plantvillage_fc8_plantvillage_0_split -> fc8_plantvillage_fc8_plantvillage_0_split_2
I0403 13:24:39.552299 11182 net.cpp:141] Setting up fc8_plantvillage_fc8_plantvillage_0_split
I0403 13:24:39.552321 11182 net.cpp:148] Top shape: 100 38 (3800)
I0403 13:24:39.552337 11182 net.cpp:148] Top shape: 100 38 (3800)
I0403 13:24:39.552351 11182 net.cpp:148] Top shape: 100 38 (3800)
I0403 13:24:39.552364 11182 net.cpp:156] Memory required for data: 831586800
I0403 13:24:39.552377 11182 layer_factory.hpp:77] Creating layer prob
I0403 13:24:39.552394 11182 net.cpp:91] Creating Layer prob
I0403 13:24:39.552408 11182 net.cpp:425] prob <- fc8_plantvillage_fc8_plantvillage_0_split_0
I0403 13:24:39.552425 11182 net.cpp:399] prob -> prob
I0403 13:24:39.552644 11182 net.cpp:141] Setting up prob
I0403 13:24:39.552667 11182 net.cpp:148] Top shape: 100 38 (3800)
I0403 13:24:39.552681 11182 net.cpp:156] Memory required for data: 831602000
I0403 13:24:39.552695 11182 layer_factory.hpp:77] Creating layer hdf5out
I0403 13:24:39.552712 11182 net.cpp:91] Creating Layer hdf5out
I0403 13:24:39.552726 11182 net.cpp:425] hdf5out <- prob
I0403 13:24:39.552742 11182 net.cpp:425] hdf5out <- label_data_1_split_0
I0403 13:24:39.555580 11182 net.cpp:141] Setting up hdf5out
…
