…
I0403 13:25:31.446353 11217 net.cpp:313] The NetState phase (1) differed from the phase (0) specified by a rule in layer data
I0403 13:25:31.446689 11217 net.cpp:49] Initializing net from parameters: 
state {
  phase: TEST
}
layer {
  name: "data"
  type: "Data"
  top: "data"
  top: "label"
  include {
    phase: TEST
  }
  transform_param {
    crop_size: 227
    mean_file: "/home/mohanty/data/final_dataset/lmdb/grayscale-80-20/mean.binaryproto"
  }
  data_param {
    source: "/home/mohanty/data/final_dataset/lmdb/grayscale-80-20/test_db"
    batch_size: 100
    backend: LMDB
  }
}
layer {
  name: "conv1"
  type: "Convolution"
  bottom: "data"
  top: "conv1"
  param {
    lr_mult: 1
    decay_mult: 1
  }
  param {
    lr_mult: 2
    decay_mult: 0
  }
  convolution_param {
    num_output: 96
    kernel_size: 11
    stride: 4
    weight_filler {
      type: "gaussian"
      std: 0.01
    }
    bias_filler {
      type: "constant"
      value: 0
    }
  }
}
layer {
  name: "relu1"
  type: "ReLU"
  bottom: "conv1"
  top: "conv1"
}
layer {
  name: "norm1"
  type: "LRN"
  bottom: "conv1"
  top: "norm1"
  lrn_param {
    local_size: 5
    alpha: 0.0001
    beta: 0.75
  }
}
layer {
  name: "pool1"
  type: "Pooling"
  bottom: "norm1"
  top: "pool1"
  pooling_param {
    pool: MAX
    kernel_size: 3
    stride: 2
  }
}
layer {
  name: "conv2"
  type: "Convolution"
  bottom: "pool1"
  top: "conv2"
  param {
    lr_mult: 1
    decay_mult: 1
  }
  param {
    lr_mult: 2
    decay_mult: 0
  }
  convolution_param {
    num_output: 256
    pad: 2
    kernel_size: 5
    group: 2
    weight_filler {
      type: "gaussian"
      std: 0.01
    }
    bias_filler {
      type: "constant"
      value: 0.1
    }
  }
}
layer {
  name: "relu2"
  type: "ReLU"
  bottom: "conv2"
  top: "conv2"
}
layer {
  name: "norm2"
  type: "LRN"
  bottom: "conv2"
  top: "norm2"
  lrn_param {
    local_size: 5
    alpha: 0.0001
    beta: 0.75
  }
}
layer {
  name: "pool2"
  type: "Pooling"
  bottom: "norm2"
  top: "pool2"
  pooling_param {
    pool: MAX
    kernel_size: 3
    stride: 2
  }
}
layer {
  name: "conv3"
  type: "Convolution"
  bottom: "pool2"
  top: "conv3"
  param {
    lr_mult: 1
    decay_mult: 1
  }
  param {
    lr_mult: 2
    decay_mult: 0
  }
  convolution_param {
    num_output: 384
    pad: 1
    kernel_size: 3
    weight_filler {
      type: "gaussian"
      std: 0.01
    }
    bias_filler {
      type: "constant"
      value: 0
    }
  }
}
layer {
  name: "relu3"
  type: "ReLU"
  bottom: "conv3"
  top: "conv3"
}
layer {
  name: "conv4"
  type: "Convolution"
  bottom: "conv3"
  top: "conv4"
  param {
    lr_mult: 1
    decay_mult: 1
  }
  param {
    lr_mult: 2
    decay_mult: 0
  }
  convolution_param {
    num_output: 384
    pad: 1
    kernel_size: 3
    group: 2
    weight_filler {
      type: "gaussian"
      std: 0.01
    }
    bias_filler {
      type: "constant"
      value: 0.1
    }
  }
}
layer {
  name: "relu4"
  type: "ReLU"
  bottom: "conv4"
  top: "conv4"
}
layer {
  name: "conv5"
  type: "Convolution"
  bottom: "conv4"
  top: "conv5"
  param {
    lr_mult: 1
    decay_mult: 1
  }
  param {
    lr_mult: 2
    decay_mult: 0
  }
  convolution_param {
    num_output: 256
    pad: 1
    kernel_size: 3
    group: 2
    weight_filler {
      type: "gaussian"
      std: 0.01
    }
    bias_filler {
      type: "constant"
      value: 0.1
    }
  }
}
layer {
  name: "relu5"
  type: "ReLU"
  bottom: "conv5"
  top: "conv5"
}
layer {
  name: "pool5"
  type: "Pooling"
  bottom: "conv5"
  top: "pool5"
  pooling_param {
    pool: MAX
    kernel_size: 3
    stride: 2
  }
}
layer {
  name: "fc6"
  type: "InnerProduct"
  bottom: "pool5"
  top: "fc6"
  param {
    lr_mult: 1
    decay_mult: 1
  }
  param {
    lr_mult: 2
    decay_mult: 0
  }
  inner_product_param {
    num_output: 4096
    weight_filler {
      type: "gaussian"
      std: 0.005
    }
    bias_filler {
      type: "constant"
      value: 0.1
    }
  }
}
layer {
  name: "relu6"
  type: "ReLU"
  bottom: "fc6"
  top: "fc6"
}
layer {
  name: "drop6"
  type: "Dropout"
  bottom: "fc6"
  top: "fc6"
  dropout_param {
    dropout_ratio: 0.5
  }
}
layer {
  name: "fc7"
  type: "InnerProduct"
  bottom: "fc6"
  top: "fc7"
  param {
    lr_mult: 1
    decay_mult: 1
  }
  param {
    lr_mult: 2
    decay_mult: 0
  }
  inner_product_param {
    num_output: 4096
    weight_filler {
      type: "gaussian"
      std: 0.005
    }
    bias_filler {
      type: "constant"
      value: 0.1
    }
  }
}
layer {
  name: "relu7"
  type: "ReLU"
  bottom: "fc7"
  top: "fc7"
}
layer {
  name: "drop7"
  type: "Dropout"
  bottom: "fc7"
  top: "fc7"
  dropout_param {
    dropout_ratio: 0.5
  }
}
layer {
  name: "fc8_plantvillage"
  type: "InnerProduct"
  bottom: "fc7"
  top: "fc8_plantvillage"
  param {
    lr_mult: 1
    decay_mult: 1
  }
  param {
    lr_mult: 2
    decay_mult: 0
  }
  inner_product_param {
    num_output: 38
    weight_filler {
      type: "gaussian"
      std: 0.01
    }
    bias_filler {
      type: "constant"
      value: 0
    }
  }
}
layer {
  name: "prob"
  type: "Softmax"
  bottom: "fc8_plantvillage"
  top: "prob"
  include {
    phase: TEST
  }
}
layer {
  name: "hdf5out"
  type: "HDF5Output"
  bottom: "prob"
  bottom: "label"
  include {
    phase: TEST
  }
  hdf5_output_param {
    file_name: "hdf5_dumps/iter_2616.h5"
  }
}
layer {
  name: "loss"
  type: "SoftmaxWithLoss"
  bottom: "fc8_plantvillage"
  bottom: "label"
  top: "loss"
}
layer {
  name: "accuracy"
  type: "Accuracy"
  bottom: "fc8_plantvillage"
  bottom: "label"
  top: "accuracy"
  include {
    phase: TEST
  }
}
I0403 13:25:31.447270 11217 layer_factory.hpp:77] Creating layer data
I0403 13:25:31.447935 11217 net.cpp:91] Creating Layer data
I0403 13:25:31.447967 11217 net.cpp:399] data -> data
I0403 13:25:31.448016 11217 net.cpp:399] data -> label
I0403 13:25:31.448055 11217 data_transformer.cpp:25] Loading mean file from: /home/mohanty/data/final_dataset/lmdb/grayscale-80-20/mean.binaryproto
I0403 13:25:31.450866 11220 db_lmdb.cpp:38] Opened lmdb /home/mohanty/data/final_dataset/lmdb/grayscale-80-20/test_db
I0403 13:25:31.462157 11217 data_layer.cpp:41] output data size: 100,3,227,227
I0403 13:25:31.579097 11217 net.cpp:141] Setting up data
I0403 13:25:31.579192 11217 net.cpp:148] Top shape: 100 3 227 227 (15458700)
I0403 13:25:31.579216 11217 net.cpp:148] Top shape: 100 (100)
I0403 13:25:31.579231 11217 net.cpp:156] Memory required for data: 61835200
I0403 13:25:31.579258 11217 layer_factory.hpp:77] Creating layer label_data_1_split
I0403 13:25:31.579283 11217 net.cpp:91] Creating Layer label_data_1_split
I0403 13:25:31.579301 11217 net.cpp:425] label_data_1_split <- label
I0403 13:25:31.579334 11217 net.cpp:399] label_data_1_split -> label_data_1_split_0
I0403 13:25:31.579360 11217 net.cpp:399] label_data_1_split -> label_data_1_split_1
I0403 13:25:31.579381 11217 net.cpp:399] label_data_1_split -> label_data_1_split_2
I0403 13:25:31.579444 11217 net.cpp:141] Setting up label_data_1_split
I0403 13:25:31.579468 11217 net.cpp:148] Top shape: 100 (100)
I0403 13:25:31.579484 11217 net.cpp:148] Top shape: 100 (100)
I0403 13:25:31.579500 11217 net.cpp:148] Top shape: 100 (100)
I0403 13:25:31.579514 11217 net.cpp:156] Memory required for data: 61836400
I0403 13:25:31.579529 11217 layer_factory.hpp:77] Creating layer conv1
I0403 13:25:31.579558 11217 net.cpp:91] Creating Layer conv1
I0403 13:25:31.579576 11217 net.cpp:425] conv1 <- data
I0403 13:25:31.579596 11217 net.cpp:399] conv1 -> conv1
I0403 13:25:31.717739 11217 net.cpp:141] Setting up conv1
I0403 13:25:31.717814 11217 net.cpp:148] Top shape: 100 96 55 55 (29040000)
I0403 13:25:31.717831 11217 net.cpp:156] Memory required for data: 177996400
I0403 13:25:31.717862 11217 layer_factory.hpp:77] Creating layer relu1
I0403 13:25:31.717888 11217 net.cpp:91] Creating Layer relu1
I0403 13:25:31.717905 11217 net.cpp:425] relu1 <- conv1
I0403 13:25:31.717923 11217 net.cpp:386] relu1 -> conv1 (in-place)
I0403 13:25:31.718173 11217 net.cpp:141] Setting up relu1
I0403 13:25:31.718200 11217 net.cpp:148] Top shape: 100 96 55 55 (29040000)
I0403 13:25:31.718250 11217 net.cpp:156] Memory required for data: 294156400
I0403 13:25:31.718266 11217 layer_factory.hpp:77] Creating layer norm1
I0403 13:25:31.718291 11217 net.cpp:91] Creating Layer norm1
I0403 13:25:31.718308 11217 net.cpp:425] norm1 <- conv1
I0403 13:25:31.718327 11217 net.cpp:399] norm1 -> norm1
I0403 13:25:31.718695 11217 net.cpp:141] Setting up norm1
I0403 13:25:31.718724 11217 net.cpp:148] Top shape: 100 96 55 55 (29040000)
I0403 13:25:31.718739 11217 net.cpp:156] Memory required for data: 410316400
I0403 13:25:31.718752 11217 layer_factory.hpp:77] Creating layer pool1
I0403 13:25:31.718775 11217 net.cpp:91] Creating Layer pool1
I0403 13:25:31.718791 11217 net.cpp:425] pool1 <- norm1
I0403 13:25:31.718808 11217 net.cpp:399] pool1 -> pool1
I0403 13:25:31.718873 11217 net.cpp:141] Setting up pool1
I0403 13:25:31.718896 11217 net.cpp:148] Top shape: 100 96 27 27 (6998400)
I0403 13:25:31.718911 11217 net.cpp:156] Memory required for data: 438310000
I0403 13:25:31.718925 11217 layer_factory.hpp:77] Creating layer conv2
I0403 13:25:31.718950 11217 net.cpp:91] Creating Layer conv2
I0403 13:25:31.718964 11217 net.cpp:425] conv2 <- pool1
I0403 13:25:31.718982 11217 net.cpp:399] conv2 -> conv2
I0403 13:25:31.733614 11217 net.cpp:141] Setting up conv2
I0403 13:25:31.733649 11217 net.cpp:148] Top shape: 100 256 27 27 (18662400)
I0403 13:25:31.733664 11217 net.cpp:156] Memory required for data: 512959600
I0403 13:25:31.733685 11217 layer_factory.hpp:77] Creating layer relu2
I0403 13:25:31.733702 11217 net.cpp:91] Creating Layer relu2
I0403 13:25:31.733718 11217 net.cpp:425] relu2 <- conv2
I0403 13:25:31.733736 11217 net.cpp:386] relu2 -> conv2 (in-place)
I0403 13:25:31.734037 11217 net.cpp:141] Setting up relu2
I0403 13:25:31.734064 11217 net.cpp:148] Top shape: 100 256 27 27 (18662400)
I0403 13:25:31.734081 11217 net.cpp:156] Memory required for data: 587609200
I0403 13:25:31.734094 11217 layer_factory.hpp:77] Creating layer norm2
I0403 13:25:31.734114 11217 net.cpp:91] Creating Layer norm2
I0403 13:25:31.734130 11217 net.cpp:425] norm2 <- conv2
I0403 13:25:31.734148 11217 net.cpp:399] norm2 -> norm2
I0403 13:25:31.734326 11217 net.cpp:141] Setting up norm2
I0403 13:25:31.734352 11217 net.cpp:148] Top shape: 100 256 27 27 (18662400)
I0403 13:25:31.734366 11217 net.cpp:156] Memory required for data: 662258800
I0403 13:25:31.734380 11217 layer_factory.hpp:77] Creating layer pool2
I0403 13:25:31.734397 11217 net.cpp:91] Creating Layer pool2
I0403 13:25:31.734412 11217 net.cpp:425] pool2 <- norm2
I0403 13:25:31.734429 11217 net.cpp:399] pool2 -> pool2
I0403 13:25:31.734475 11217 net.cpp:141] Setting up pool2
I0403 13:25:31.734498 11217 net.cpp:148] Top shape: 100 256 13 13 (4326400)
I0403 13:25:31.734513 11217 net.cpp:156] Memory required for data: 679564400
I0403 13:25:31.734527 11217 layer_factory.hpp:77] Creating layer conv3
I0403 13:25:31.734547 11217 net.cpp:91] Creating Layer conv3
I0403 13:25:31.734562 11217 net.cpp:425] conv3 <- pool2
I0403 13:25:31.734591 11217 net.cpp:399] conv3 -> conv3
I0403 13:25:31.777065 11217 net.cpp:141] Setting up conv3
I0403 13:25:31.777122 11217 net.cpp:148] Top shape: 100 384 13 13 (6489600)
I0403 13:25:31.777138 11217 net.cpp:156] Memory required for data: 705522800
I0403 13:25:31.777163 11217 layer_factory.hpp:77] Creating layer relu3
I0403 13:25:31.777182 11217 net.cpp:91] Creating Layer relu3
I0403 13:25:31.777199 11217 net.cpp:425] relu3 <- conv3
I0403 13:25:31.777217 11217 net.cpp:386] relu3 -> conv3 (in-place)
I0403 13:25:31.777482 11217 net.cpp:141] Setting up relu3
I0403 13:25:31.777508 11217 net.cpp:148] Top shape: 100 384 13 13 (6489600)
I0403 13:25:31.777523 11217 net.cpp:156] Memory required for data: 731481200
I0403 13:25:31.777537 11217 layer_factory.hpp:77] Creating layer conv4
I0403 13:25:31.777561 11217 net.cpp:91] Creating Layer conv4
I0403 13:25:31.777583 11217 net.cpp:425] conv4 <- conv3
I0403 13:25:31.777604 11217 net.cpp:399] conv4 -> conv4
I0403 13:25:31.807011 11217 net.cpp:141] Setting up conv4
I0403 13:25:31.807059 11217 net.cpp:148] Top shape: 100 384 13 13 (6489600)
I0403 13:25:31.807109 11217 net.cpp:156] Memory required for data: 757439600
I0403 13:25:31.807131 11217 layer_factory.hpp:77] Creating layer relu4
I0403 13:25:31.807150 11217 net.cpp:91] Creating Layer relu4
I0403 13:25:31.807166 11217 net.cpp:425] relu4 <- conv4
I0403 13:25:31.807185 11217 net.cpp:386] relu4 -> conv4 (in-place)
I0403 13:25:31.807454 11217 net.cpp:141] Setting up relu4
I0403 13:25:31.807481 11217 net.cpp:148] Top shape: 100 384 13 13 (6489600)
I0403 13:25:31.807495 11217 net.cpp:156] Memory required for data: 783398000
I0403 13:25:31.807510 11217 layer_factory.hpp:77] Creating layer conv5
I0403 13:25:31.807534 11217 net.cpp:91] Creating Layer conv5
I0403 13:25:31.807551 11217 net.cpp:425] conv5 <- conv4
I0403 13:25:31.807610 11217 net.cpp:399] conv5 -> conv5
I0403 13:25:31.827723 11217 net.cpp:141] Setting up conv5
I0403 13:25:31.827757 11217 net.cpp:148] Top shape: 100 256 13 13 (4326400)
I0403 13:25:31.827774 11217 net.cpp:156] Memory required for data: 800703600
I0403 13:25:31.827796 11217 layer_factory.hpp:77] Creating layer relu5
I0403 13:25:31.827818 11217 net.cpp:91] Creating Layer relu5
I0403 13:25:31.827836 11217 net.cpp:425] relu5 <- conv5
I0403 13:25:31.827852 11217 net.cpp:386] relu5 -> conv5 (in-place)
I0403 13:25:31.828161 11217 net.cpp:141] Setting up relu5
I0403 13:25:31.828187 11217 net.cpp:148] Top shape: 100 256 13 13 (4326400)
I0403 13:25:31.828202 11217 net.cpp:156] Memory required for data: 818009200
I0403 13:25:31.828217 11217 layer_factory.hpp:77] Creating layer pool5
I0403 13:25:31.828239 11217 net.cpp:91] Creating Layer pool5
I0403 13:25:31.828255 11217 net.cpp:425] pool5 <- conv5
I0403 13:25:31.828274 11217 net.cpp:399] pool5 -> pool5
I0403 13:25:31.828331 11217 net.cpp:141] Setting up pool5
I0403 13:25:31.828353 11217 net.cpp:148] Top shape: 100 256 6 6 (921600)
I0403 13:25:31.828368 11217 net.cpp:156] Memory required for data: 821695600
I0403 13:25:31.828382 11217 layer_factory.hpp:77] Creating layer fc6
I0403 13:25:31.828409 11217 net.cpp:91] Creating Layer fc6
I0403 13:25:31.828428 11217 net.cpp:425] fc6 <- pool5
I0403 13:25:31.828444 11217 net.cpp:399] fc6 -> fc6
I0403 13:25:33.416422 11217 net.cpp:141] Setting up fc6
I0403 13:25:33.416497 11217 net.cpp:148] Top shape: 100 4096 (409600)
I0403 13:25:33.416513 11217 net.cpp:156] Memory required for data: 823334000
I0403 13:25:33.416533 11217 layer_factory.hpp:77] Creating layer relu6
I0403 13:25:33.416554 11217 net.cpp:91] Creating Layer relu6
I0403 13:25:33.416577 11217 net.cpp:425] relu6 <- fc6
I0403 13:25:33.416604 11217 net.cpp:386] relu6 -> fc6 (in-place)
I0403 13:25:33.416826 11217 net.cpp:141] Setting up relu6
I0403 13:25:33.416851 11217 net.cpp:148] Top shape: 100 4096 (409600)
I0403 13:25:33.416865 11217 net.cpp:156] Memory required for data: 824972400
I0403 13:25:33.416879 11217 layer_factory.hpp:77] Creating layer drop6
I0403 13:25:33.416898 11217 net.cpp:91] Creating Layer drop6
I0403 13:25:33.416915 11217 net.cpp:425] drop6 <- fc6
I0403 13:25:33.416931 11217 net.cpp:386] drop6 -> fc6 (in-place)
I0403 13:25:33.416981 11217 net.cpp:141] Setting up drop6
I0403 13:25:33.417006 11217 net.cpp:148] Top shape: 100 4096 (409600)
I0403 13:25:33.417021 11217 net.cpp:156] Memory required for data: 826610800
I0403 13:25:33.417035 11217 layer_factory.hpp:77] Creating layer fc7
I0403 13:25:33.417054 11217 net.cpp:91] Creating Layer fc7
I0403 13:25:33.417069 11217 net.cpp:425] fc7 <- fc6
I0403 13:25:33.417088 11217 net.cpp:399] fc7 -> fc7
I0403 13:25:34.099884 11217 net.cpp:141] Setting up fc7
I0403 13:25:34.099925 11217 net.cpp:148] Top shape: 100 4096 (409600)
I0403 13:25:34.099939 11217 net.cpp:156] Memory required for data: 828249200
I0403 13:25:34.099959 11217 layer_factory.hpp:77] Creating layer relu7
I0403 13:25:34.099980 11217 net.cpp:91] Creating Layer relu7
I0403 13:25:34.099997 11217 net.cpp:425] relu7 <- fc7
I0403 13:25:34.100018 11217 net.cpp:386] relu7 -> fc7 (in-place)
I0403 13:25:34.100410 11217 net.cpp:141] Setting up relu7
I0403 13:25:34.100436 11217 net.cpp:148] Top shape: 100 4096 (409600)
I0403 13:25:34.100492 11217 net.cpp:156] Memory required for data: 829887600
I0403 13:25:34.100508 11217 layer_factory.hpp:77] Creating layer drop7
I0403 13:25:34.100525 11217 net.cpp:91] Creating Layer drop7
I0403 13:25:34.100540 11217 net.cpp:425] drop7 <- fc7
I0403 13:25:34.100558 11217 net.cpp:386] drop7 -> fc7 (in-place)
I0403 13:25:34.100606 11217 net.cpp:141] Setting up drop7
I0403 13:25:34.100630 11217 net.cpp:148] Top shape: 100 4096 (409600)
I0403 13:25:34.100646 11217 net.cpp:156] Memory required for data: 831526000
I0403 13:25:34.100659 11217 layer_factory.hpp:77] Creating layer fc8_plantvillage
I0403 13:25:34.100678 11217 net.cpp:91] Creating Layer fc8_plantvillage
I0403 13:25:34.100693 11217 net.cpp:425] fc8_plantvillage <- fc7
I0403 13:25:34.100713 11217 net.cpp:399] fc8_plantvillage -> fc8_plantvillage
I0403 13:25:34.107450 11217 net.cpp:141] Setting up fc8_plantvillage
I0403 13:25:34.107477 11217 net.cpp:148] Top shape: 100 38 (3800)
I0403 13:25:34.107493 11217 net.cpp:156] Memory required for data: 831541200
I0403 13:25:34.107511 11217 layer_factory.hpp:77] Creating layer fc8_plantvillage_fc8_plantvillage_0_split
I0403 13:25:34.107532 11217 net.cpp:91] Creating Layer fc8_plantvillage_fc8_plantvillage_0_split
I0403 13:25:34.107547 11217 net.cpp:425] fc8_plantvillage_fc8_plantvillage_0_split <- fc8_plantvillage
I0403 13:25:34.107563 11217 net.cpp:399] fc8_plantvillage_fc8_plantvillage_0_split -> fc8_plantvillage_fc8_plantvillage_0_split_0
I0403 13:25:34.107589 11217 net.cpp:399] fc8_plantvillage_fc8_plantvillage_0_split -> fc8_plantvillage_fc8_plantvillage_0_split_1
I0403 13:25:34.107609 11217 net.cpp:399] fc8_plantvillage_fc8_plantvillage_0_split -> fc8_plantvillage_fc8_plantvillage_0_split_2
I0403 13:25:34.107687 11217 net.cpp:141] Setting up fc8_plantvillage_fc8_plantvillage_0_split
I0403 13:25:34.107710 11217 net.cpp:148] Top shape: 100 38 (3800)
I0403 13:25:34.107725 11217 net.cpp:148] Top shape: 100 38 (3800)
I0403 13:25:34.107740 11217 net.cpp:148] Top shape: 100 38 (3800)
I0403 13:25:34.107754 11217 net.cpp:156] Memory required for data: 831586800
I0403 13:25:34.107769 11217 layer_factory.hpp:77] Creating layer prob
I0403 13:25:34.107785 11217 net.cpp:91] Creating Layer prob
I0403 13:25:34.107800 11217 net.cpp:425] prob <- fc8_plantvillage_fc8_plantvillage_0_split_0
I0403 13:25:34.107817 11217 net.cpp:399] prob -> prob
I0403 13:25:34.108042 11217 net.cpp:141] Setting up prob
I0403 13:25:34.108065 11217 net.cpp:148] Top shape: 100 38 (3800)
I0403 13:25:34.108080 11217 net.cpp:156] Memory required for data: 831602000
I0403 13:25:34.108094 11217 layer_factory.hpp:77] Creating layer hdf5out
I0403 13:25:34.108114 11217 net.cpp:91] Creating Layer hdf5out
I0403 13:25:34.108129 11217 net.cpp:425] hdf5out <- prob
I0403 13:25:34.108144 11217 net.cpp:425] hdf5out <- label_data_1_split_0
I0403 13:25:34.221670 11217 net.cpp:141] Setting up hdf5out
…
