…
I0403 13:28:04.045344 11313 net.cpp:313] The NetState phase (1) differed from the phase (0) specified by a rule in layer data
I0403 13:28:04.045668 11313 net.cpp:49] Initializing net from parameters: 
state {
  phase: TEST
}
layer {
  name: "data"
  type: "Data"
  top: "data"
  top: "label"
  include {
    phase: TEST
  }
  transform_param {
    crop_size: 227
    mean_file: "/home/mohanty/data/final_dataset/lmdb/grayscale-80-20/mean.binaryproto"
  }
  data_param {
    source: "/home/mohanty/data/final_dataset/lmdb/grayscale-80-20/test_db"
    batch_size: 100
    backend: LMDB
  }
}
layer {
  name: "conv1"
  type: "Convolution"
  bottom: "data"
  top: "conv1"
  param {
    lr_mult: 1
    decay_mult: 1
  }
  param {
    lr_mult: 2
    decay_mult: 0
  }
  convolution_param {
    num_output: 96
    kernel_size: 11
    stride: 4
    weight_filler {
      type: "gaussian"
      std: 0.01
    }
    bias_filler {
      type: "constant"
      value: 0
    }
  }
}
layer {
  name: "relu1"
  type: "ReLU"
  bottom: "conv1"
  top: "conv1"
}
layer {
  name: "norm1"
  type: "LRN"
  bottom: "conv1"
  top: "norm1"
  lrn_param {
    local_size: 5
    alpha: 0.0001
    beta: 0.75
  }
}
layer {
  name: "pool1"
  type: "Pooling"
  bottom: "norm1"
  top: "pool1"
  pooling_param {
    pool: MAX
    kernel_size: 3
    stride: 2
  }
}
layer {
  name: "conv2"
  type: "Convolution"
  bottom: "pool1"
  top: "conv2"
  param {
    lr_mult: 1
    decay_mult: 1
  }
  param {
    lr_mult: 2
    decay_mult: 0
  }
  convolution_param {
    num_output: 256
    pad: 2
    kernel_size: 5
    group: 2
    weight_filler {
      type: "gaussian"
      std: 0.01
    }
    bias_filler {
      type: "constant"
      value: 0.1
    }
  }
}
layer {
  name: "relu2"
  type: "ReLU"
  bottom: "conv2"
  top: "conv2"
}
layer {
  name: "norm2"
  type: "LRN"
  bottom: "conv2"
  top: "norm2"
  lrn_param {
    local_size: 5
    alpha: 0.0001
    beta: 0.75
  }
}
layer {
  name: "pool2"
  type: "Pooling"
  bottom: "norm2"
  top: "pool2"
  pooling_param {
    pool: MAX
    kernel_size: 3
    stride: 2
  }
}
layer {
  name: "conv3"
  type: "Convolution"
  bottom: "pool2"
  top: "conv3"
  param {
    lr_mult: 1
    decay_mult: 1
  }
  param {
    lr_mult: 2
    decay_mult: 0
  }
  convolution_param {
    num_output: 384
    pad: 1
    kernel_size: 3
    weight_filler {
      type: "gaussian"
      std: 0.01
    }
    bias_filler {
      type: "constant"
      value: 0
    }
  }
}
layer {
  name: "relu3"
  type: "ReLU"
  bottom: "conv3"
  top: "conv3"
}
layer {
  name: "conv4"
  type: "Convolution"
  bottom: "conv3"
  top: "conv4"
  param {
    lr_mult: 1
    decay_mult: 1
  }
  param {
    lr_mult: 2
    decay_mult: 0
  }
  convolution_param {
    num_output: 384
    pad: 1
    kernel_size: 3
    group: 2
    weight_filler {
      type: "gaussian"
      std: 0.01
    }
    bias_filler {
      type: "constant"
      value: 0.1
    }
  }
}
layer {
  name: "relu4"
  type: "ReLU"
  bottom: "conv4"
  top: "conv4"
}
layer {
  name: "conv5"
  type: "Convolution"
  bottom: "conv4"
  top: "conv5"
  param {
    lr_mult: 1
    decay_mult: 1
  }
  param {
    lr_mult: 2
    decay_mult: 0
  }
  convolution_param {
    num_output: 256
    pad: 1
    kernel_size: 3
    group: 2
    weight_filler {
      type: "gaussian"
      std: 0.01
    }
    bias_filler {
      type: "constant"
      value: 0.1
    }
  }
}
layer {
  name: "relu5"
  type: "ReLU"
  bottom: "conv5"
  top: "conv5"
}
layer {
  name: "pool5"
  type: "Pooling"
  bottom: "conv5"
  top: "pool5"
  pooling_param {
    pool: MAX
    kernel_size: 3
    stride: 2
  }
}
layer {
  name: "fc6"
  type: "InnerProduct"
  bottom: "pool5"
  top: "fc6"
  param {
    lr_mult: 1
    decay_mult: 1
  }
  param {
    lr_mult: 2
    decay_mult: 0
  }
  inner_product_param {
    num_output: 4096
    weight_filler {
      type: "gaussian"
      std: 0.005
    }
    bias_filler {
      type: "constant"
      value: 0.1
    }
  }
}
layer {
  name: "relu6"
  type: "ReLU"
  bottom: "fc6"
  top: "fc6"
}
layer {
  name: "drop6"
  type: "Dropout"
  bottom: "fc6"
  top: "fc6"
  dropout_param {
    dropout_ratio: 0.5
  }
}
layer {
  name: "fc7"
  type: "InnerProduct"
  bottom: "fc6"
  top: "fc7"
  param {
    lr_mult: 1
    decay_mult: 1
  }
  param {
    lr_mult: 2
    decay_mult: 0
  }
  inner_product_param {
    num_output: 4096
    weight_filler {
      type: "gaussian"
      std: 0.005
    }
    bias_filler {
      type: "constant"
      value: 0.1
    }
  }
}
layer {
  name: "relu7"
  type: "ReLU"
  bottom: "fc7"
  top: "fc7"
}
layer {
  name: "drop7"
  type: "Dropout"
  bottom: "fc7"
  top: "fc7"
  dropout_param {
    dropout_ratio: 0.5
  }
}
layer {
  name: "fc8_plantvillage"
  type: "InnerProduct"
  bottom: "fc7"
  top: "fc8_plantvillage"
  param {
    lr_mult: 1
    decay_mult: 1
  }
  param {
    lr_mult: 2
    decay_mult: 0
  }
  inner_product_param {
    num_output: 38
    weight_filler {
      type: "gaussian"
      std: 0.01
    }
    bias_filler {
      type: "constant"
      value: 0
    }
  }
}
layer {
  name: "prob"
  type: "Softmax"
  bottom: "fc8_plantvillage"
  top: "prob"
  include {
    phase: TEST
  }
}
layer {
  name: "hdf5out"
  type: "HDF5Output"
  bottom: "prob"
  bottom: "label"
  include {
    phase: TEST
  }
  hdf5_output_param {
    file_name: "hdf5_dumps/iter_5232.h5"
  }
}
layer {
  name: "loss"
  type: "SoftmaxWithLoss"
  bottom: "fc8_plantvillage"
  bottom: "label"
  top: "loss"
}
layer {
  name: "accuracy"
  type: "Accuracy"
  bottom: "fc8_plantvillage"
  bottom: "label"
  top: "accuracy"
  include {
    phase: TEST
  }
}
I0403 13:28:04.046262 11313 layer_factory.hpp:77] Creating layer data
I0403 13:28:04.046891 11313 net.cpp:91] Creating Layer data
I0403 13:28:04.046922 11313 net.cpp:399] data -> data
I0403 13:28:04.046972 11313 net.cpp:399] data -> label
I0403 13:28:04.047008 11313 data_transformer.cpp:25] Loading mean file from: /home/mohanty/data/final_dataset/lmdb/grayscale-80-20/mean.binaryproto
I0403 13:28:04.050228 11315 db_lmdb.cpp:38] Opened lmdb /home/mohanty/data/final_dataset/lmdb/grayscale-80-20/test_db
I0403 13:28:04.060757 11313 data_layer.cpp:41] output data size: 100,3,227,227
I0403 13:28:04.175478 11313 net.cpp:141] Setting up data
I0403 13:28:04.175581 11313 net.cpp:148] Top shape: 100 3 227 227 (15458700)
I0403 13:28:04.175608 11313 net.cpp:148] Top shape: 100 (100)
I0403 13:28:04.175626 11313 net.cpp:156] Memory required for data: 61835200
I0403 13:28:04.175653 11313 layer_factory.hpp:77] Creating layer label_data_1_split
I0403 13:28:04.175678 11313 net.cpp:91] Creating Layer label_data_1_split
I0403 13:28:04.175696 11313 net.cpp:425] label_data_1_split <- label
I0403 13:28:04.175729 11313 net.cpp:399] label_data_1_split -> label_data_1_split_0
I0403 13:28:04.175755 11313 net.cpp:399] label_data_1_split -> label_data_1_split_1
I0403 13:28:04.175777 11313 net.cpp:399] label_data_1_split -> label_data_1_split_2
I0403 13:28:04.175839 11313 net.cpp:141] Setting up label_data_1_split
I0403 13:28:04.175863 11313 net.cpp:148] Top shape: 100 (100)
I0403 13:28:04.175879 11313 net.cpp:148] Top shape: 100 (100)
I0403 13:28:04.175896 11313 net.cpp:148] Top shape: 100 (100)
I0403 13:28:04.175909 11313 net.cpp:156] Memory required for data: 61836400
I0403 13:28:04.175923 11313 layer_factory.hpp:77] Creating layer conv1
I0403 13:28:04.175956 11313 net.cpp:91] Creating Layer conv1
I0403 13:28:04.175976 11313 net.cpp:425] conv1 <- data
I0403 13:28:04.175994 11313 net.cpp:399] conv1 -> conv1
I0403 13:28:04.311549 11313 net.cpp:141] Setting up conv1
I0403 13:28:04.311630 11313 net.cpp:148] Top shape: 100 96 55 55 (29040000)
I0403 13:28:04.311651 11313 net.cpp:156] Memory required for data: 177996400
I0403 13:28:04.311687 11313 layer_factory.hpp:77] Creating layer relu1
I0403 13:28:04.311714 11313 net.cpp:91] Creating Layer relu1
I0403 13:28:04.311733 11313 net.cpp:425] relu1 <- conv1
I0403 13:28:04.311751 11313 net.cpp:386] relu1 -> conv1 (in-place)
I0403 13:28:04.312002 11313 net.cpp:141] Setting up relu1
I0403 13:28:04.312028 11313 net.cpp:148] Top shape: 100 96 55 55 (29040000)
I0403 13:28:04.312068 11313 net.cpp:156] Memory required for data: 294156400
I0403 13:28:04.312084 11313 layer_factory.hpp:77] Creating layer norm1
I0403 13:28:04.312109 11313 net.cpp:91] Creating Layer norm1
I0403 13:28:04.312126 11313 net.cpp:425] norm1 <- conv1
I0403 13:28:04.312144 11313 net.cpp:399] norm1 -> norm1
I0403 13:28:04.312450 11313 net.cpp:141] Setting up norm1
I0403 13:28:04.312477 11313 net.cpp:148] Top shape: 100 96 55 55 (29040000)
I0403 13:28:04.312491 11313 net.cpp:156] Memory required for data: 410316400
I0403 13:28:04.312506 11313 layer_factory.hpp:77] Creating layer pool1
I0403 13:28:04.312528 11313 net.cpp:91] Creating Layer pool1
I0403 13:28:04.312546 11313 net.cpp:425] pool1 <- norm1
I0403 13:28:04.312563 11313 net.cpp:399] pool1 -> pool1
I0403 13:28:04.312633 11313 net.cpp:141] Setting up pool1
I0403 13:28:04.312655 11313 net.cpp:148] Top shape: 100 96 27 27 (6998400)
I0403 13:28:04.312670 11313 net.cpp:156] Memory required for data: 438310000
I0403 13:28:04.312685 11313 layer_factory.hpp:77] Creating layer conv2
I0403 13:28:04.312708 11313 net.cpp:91] Creating Layer conv2
I0403 13:28:04.312723 11313 net.cpp:425] conv2 <- pool1
I0403 13:28:04.312741 11313 net.cpp:399] conv2 -> conv2
I0403 13:28:04.327285 11313 net.cpp:141] Setting up conv2
I0403 13:28:04.327318 11313 net.cpp:148] Top shape: 100 256 27 27 (18662400)
I0403 13:28:04.327333 11313 net.cpp:156] Memory required for data: 512959600
I0403 13:28:04.327355 11313 layer_factory.hpp:77] Creating layer relu2
I0403 13:28:04.327378 11313 net.cpp:91] Creating Layer relu2
I0403 13:28:04.327394 11313 net.cpp:425] relu2 <- conv2
I0403 13:28:04.327410 11313 net.cpp:386] relu2 -> conv2 (in-place)
I0403 13:28:04.327692 11313 net.cpp:141] Setting up relu2
I0403 13:28:04.327720 11313 net.cpp:148] Top shape: 100 256 27 27 (18662400)
I0403 13:28:04.327736 11313 net.cpp:156] Memory required for data: 587609200
I0403 13:28:04.327751 11313 layer_factory.hpp:77] Creating layer norm2
I0403 13:28:04.327774 11313 net.cpp:91] Creating Layer norm2
I0403 13:28:04.327790 11313 net.cpp:425] norm2 <- conv2
I0403 13:28:04.327807 11313 net.cpp:399] norm2 -> norm2
I0403 13:28:04.327998 11313 net.cpp:141] Setting up norm2
I0403 13:28:04.328023 11313 net.cpp:148] Top shape: 100 256 27 27 (18662400)
I0403 13:28:04.328037 11313 net.cpp:156] Memory required for data: 662258800
I0403 13:28:04.328052 11313 layer_factory.hpp:77] Creating layer pool2
I0403 13:28:04.328073 11313 net.cpp:91] Creating Layer pool2
I0403 13:28:04.328088 11313 net.cpp:425] pool2 <- norm2
I0403 13:28:04.328104 11313 net.cpp:399] pool2 -> pool2
I0403 13:28:04.328156 11313 net.cpp:141] Setting up pool2
I0403 13:28:04.328179 11313 net.cpp:148] Top shape: 100 256 13 13 (4326400)
I0403 13:28:04.328193 11313 net.cpp:156] Memory required for data: 679564400
I0403 13:28:04.328207 11313 layer_factory.hpp:77] Creating layer conv3
I0403 13:28:04.328232 11313 net.cpp:91] Creating Layer conv3
I0403 13:28:04.328249 11313 net.cpp:425] conv3 <- pool2
I0403 13:28:04.328269 11313 net.cpp:399] conv3 -> conv3
I0403 13:28:04.365453 11313 net.cpp:141] Setting up conv3
I0403 13:28:04.365514 11313 net.cpp:148] Top shape: 100 384 13 13 (6489600)
I0403 13:28:04.365532 11313 net.cpp:156] Memory required for data: 705522800
I0403 13:28:04.365558 11313 layer_factory.hpp:77] Creating layer relu3
I0403 13:28:04.365581 11313 net.cpp:91] Creating Layer relu3
I0403 13:28:04.365602 11313 net.cpp:425] relu3 <- conv3
I0403 13:28:04.365622 11313 net.cpp:386] relu3 -> conv3 (in-place)
I0403 13:28:04.365895 11313 net.cpp:141] Setting up relu3
I0403 13:28:04.365924 11313 net.cpp:148] Top shape: 100 384 13 13 (6489600)
I0403 13:28:04.365942 11313 net.cpp:156] Memory required for data: 731481200
I0403 13:28:04.365957 11313 layer_factory.hpp:77] Creating layer conv4
I0403 13:28:04.365980 11313 net.cpp:91] Creating Layer conv4
I0403 13:28:04.365998 11313 net.cpp:425] conv4 <- conv3
I0403 13:28:04.366015 11313 net.cpp:399] conv4 -> conv4
I0403 13:28:04.394724 11313 net.cpp:141] Setting up conv4
I0403 13:28:04.394767 11313 net.cpp:148] Top shape: 100 384 13 13 (6489600)
I0403 13:28:04.394820 11313 net.cpp:156] Memory required for data: 757439600
I0403 13:28:04.394845 11313 layer_factory.hpp:77] Creating layer relu4
I0403 13:28:04.394867 11313 net.cpp:91] Creating Layer relu4
I0403 13:28:04.394883 11313 net.cpp:425] relu4 <- conv4
I0403 13:28:04.394901 11313 net.cpp:386] relu4 -> conv4 (in-place)
I0403 13:28:04.395174 11313 net.cpp:141] Setting up relu4
I0403 13:28:04.395200 11313 net.cpp:148] Top shape: 100 384 13 13 (6489600)
I0403 13:28:04.395215 11313 net.cpp:156] Memory required for data: 783398000
I0403 13:28:04.395231 11313 layer_factory.hpp:77] Creating layer conv5
I0403 13:28:04.395253 11313 net.cpp:91] Creating Layer conv5
I0403 13:28:04.395270 11313 net.cpp:425] conv5 <- conv4
I0403 13:28:04.395290 11313 net.cpp:399] conv5 -> conv5
I0403 13:28:04.415057 11313 net.cpp:141] Setting up conv5
I0403 13:28:04.415092 11313 net.cpp:148] Top shape: 100 256 13 13 (4326400)
I0403 13:28:04.415108 11313 net.cpp:156] Memory required for data: 800703600
I0403 13:28:04.415132 11313 layer_factory.hpp:77] Creating layer relu5
I0403 13:28:04.415155 11313 net.cpp:91] Creating Layer relu5
I0403 13:28:04.415174 11313 net.cpp:425] relu5 <- conv5
I0403 13:28:04.415190 11313 net.cpp:386] relu5 -> conv5 (in-place)
I0403 13:28:04.415472 11313 net.cpp:141] Setting up relu5
I0403 13:28:04.415501 11313 net.cpp:148] Top shape: 100 256 13 13 (4326400)
I0403 13:28:04.415518 11313 net.cpp:156] Memory required for data: 818009200
I0403 13:28:04.415532 11313 layer_factory.hpp:77] Creating layer pool5
I0403 13:28:04.415555 11313 net.cpp:91] Creating Layer pool5
I0403 13:28:04.415570 11313 net.cpp:425] pool5 <- conv5
I0403 13:28:04.415592 11313 net.cpp:399] pool5 -> pool5
I0403 13:28:04.415654 11313 net.cpp:141] Setting up pool5
I0403 13:28:04.415679 11313 net.cpp:148] Top shape: 100 256 6 6 (921600)
I0403 13:28:04.415694 11313 net.cpp:156] Memory required for data: 821695600
I0403 13:28:04.415709 11313 layer_factory.hpp:77] Creating layer fc6
I0403 13:28:04.415734 11313 net.cpp:91] Creating Layer fc6
I0403 13:28:04.415750 11313 net.cpp:425] fc6 <- pool5
I0403 13:28:04.415769 11313 net.cpp:399] fc6 -> fc6
I0403 13:28:05.995751 11313 net.cpp:141] Setting up fc6
I0403 13:28:05.995831 11313 net.cpp:148] Top shape: 100 4096 (409600)
I0403 13:28:05.995847 11313 net.cpp:156] Memory required for data: 823334000
I0403 13:28:05.995867 11313 layer_factory.hpp:77] Creating layer relu6
I0403 13:28:05.995892 11313 net.cpp:91] Creating Layer relu6
I0403 13:28:05.995909 11313 net.cpp:425] relu6 <- fc6
I0403 13:28:05.995929 11313 net.cpp:386] relu6 -> fc6 (in-place)
I0403 13:28:05.996151 11313 net.cpp:141] Setting up relu6
I0403 13:28:05.996176 11313 net.cpp:148] Top shape: 100 4096 (409600)
I0403 13:28:05.996191 11313 net.cpp:156] Memory required for data: 824972400
I0403 13:28:05.996206 11313 layer_factory.hpp:77] Creating layer drop6
I0403 13:28:05.996227 11313 net.cpp:91] Creating Layer drop6
I0403 13:28:05.996243 11313 net.cpp:425] drop6 <- fc6
I0403 13:28:05.996258 11313 net.cpp:386] drop6 -> fc6 (in-place)
I0403 13:28:05.996309 11313 net.cpp:141] Setting up drop6
I0403 13:28:05.996331 11313 net.cpp:148] Top shape: 100 4096 (409600)
I0403 13:28:05.996345 11313 net.cpp:156] Memory required for data: 826610800
I0403 13:28:05.996359 11313 layer_factory.hpp:77] Creating layer fc7
I0403 13:28:05.996381 11313 net.cpp:91] Creating Layer fc7
I0403 13:28:05.996395 11313 net.cpp:425] fc7 <- fc6
I0403 13:28:05.996413 11313 net.cpp:399] fc7 -> fc7
I0403 13:28:06.679738 11313 net.cpp:141] Setting up fc7
I0403 13:28:06.679780 11313 net.cpp:148] Top shape: 100 4096 (409600)
I0403 13:28:06.679797 11313 net.cpp:156] Memory required for data: 828249200
I0403 13:28:06.679818 11313 layer_factory.hpp:77] Creating layer relu7
I0403 13:28:06.679841 11313 net.cpp:91] Creating Layer relu7
I0403 13:28:06.679857 11313 net.cpp:425] relu7 <- fc7
I0403 13:28:06.679874 11313 net.cpp:386] relu7 -> fc7 (in-place)
I0403 13:28:06.681944 11313 net.cpp:141] Setting up relu7
I0403 13:28:06.681973 11313 net.cpp:148] Top shape: 100 4096 (409600)
I0403 13:28:06.682027 11313 net.cpp:156] Memory required for data: 829887600
I0403 13:28:06.682054 11313 layer_factory.hpp:77] Creating layer drop7
I0403 13:28:06.682073 11313 net.cpp:91] Creating Layer drop7
I0403 13:28:06.682087 11313 net.cpp:425] drop7 <- fc7
I0403 13:28:06.682102 11313 net.cpp:386] drop7 -> fc7 (in-place)
I0403 13:28:06.682144 11313 net.cpp:141] Setting up drop7
I0403 13:28:06.682166 11313 net.cpp:148] Top shape: 100 4096 (409600)
I0403 13:28:06.682179 11313 net.cpp:156] Memory required for data: 831526000
I0403 13:28:06.682193 11313 layer_factory.hpp:77] Creating layer fc8_plantvillage
I0403 13:28:06.682214 11313 net.cpp:91] Creating Layer fc8_plantvillage
I0403 13:28:06.682229 11313 net.cpp:425] fc8_plantvillage <- fc7
I0403 13:28:06.682246 11313 net.cpp:399] fc8_plantvillage -> fc8_plantvillage
I0403 13:28:06.690383 11313 net.cpp:141] Setting up fc8_plantvillage
I0403 13:28:06.690419 11313 net.cpp:148] Top shape: 100 38 (3800)
I0403 13:28:06.690434 11313 net.cpp:156] Memory required for data: 831541200
I0403 13:28:06.690453 11313 layer_factory.hpp:77] Creating layer fc8_plantvillage_fc8_plantvillage_0_split
I0403 13:28:06.690474 11313 net.cpp:91] Creating Layer fc8_plantvillage_fc8_plantvillage_0_split
I0403 13:28:06.690490 11313 net.cpp:425] fc8_plantvillage_fc8_plantvillage_0_split <- fc8_plantvillage
I0403 13:28:06.690508 11313 net.cpp:399] fc8_plantvillage_fc8_plantvillage_0_split -> fc8_plantvillage_fc8_plantvillage_0_split_0
I0403 13:28:06.690528 11313 net.cpp:399] fc8_plantvillage_fc8_plantvillage_0_split -> fc8_plantvillage_fc8_plantvillage_0_split_1
I0403 13:28:06.690547 11313 net.cpp:399] fc8_plantvillage_fc8_plantvillage_0_split -> fc8_plantvillage_fc8_plantvillage_0_split_2
I0403 13:28:06.690629 11313 net.cpp:141] Setting up fc8_plantvillage_fc8_plantvillage_0_split
I0403 13:28:06.690652 11313 net.cpp:148] Top shape: 100 38 (3800)
I0403 13:28:06.690667 11313 net.cpp:148] Top shape: 100 38 (3800)
I0403 13:28:06.690682 11313 net.cpp:148] Top shape: 100 38 (3800)
I0403 13:28:06.690696 11313 net.cpp:156] Memory required for data: 831586800
I0403 13:28:06.690713 11313 layer_factory.hpp:77] Creating layer prob
I0403 13:28:06.690745 11313 net.cpp:91] Creating Layer prob
I0403 13:28:06.690762 11313 net.cpp:425] prob <- fc8_plantvillage_fc8_plantvillage_0_split_0
I0403 13:28:06.690779 11313 net.cpp:399] prob -> prob
I0403 13:28:06.690999 11313 net.cpp:141] Setting up prob
I0403 13:28:06.691035 11313 net.cpp:148] Top shape: 100 38 (3800)
I0403 13:28:06.691057 11313 net.cpp:156] Memory required for data: 831602000
I0403 13:28:06.691071 11313 layer_factory.hpp:77] Creating layer hdf5out
I0403 13:28:06.691089 11313 net.cpp:91] Creating Layer hdf5out
I0403 13:28:06.691103 11313 net.cpp:425] hdf5out <- prob
I0403 13:28:06.691121 11313 net.cpp:425] hdf5out <- label_data_1_split_0
I0403 13:28:06.693568 11313 net.cpp:141] Setting up hdf5out
…
