…
I0403 13:30:36.857313 11427 net.cpp:313] The NetState phase (1) differed from the phase (0) specified by a rule in layer data
I0403 13:30:36.857636 11427 net.cpp:49] Initializing net from parameters: 
state {
  phase: TEST
}
layer {
  name: "data"
  type: "Data"
  top: "data"
  top: "label"
  include {
    phase: TEST
  }
  transform_param {
    crop_size: 227
    mean_file: "/home/mohanty/data/final_dataset/lmdb/grayscale-80-20/mean.binaryproto"
  }
  data_param {
    source: "/home/mohanty/data/final_dataset/lmdb/grayscale-80-20/test_db"
    batch_size: 100
    backend: LMDB
  }
}
layer {
  name: "conv1"
  type: "Convolution"
  bottom: "data"
  top: "conv1"
  param {
    lr_mult: 1
    decay_mult: 1
  }
  param {
    lr_mult: 2
    decay_mult: 0
  }
  convolution_param {
    num_output: 96
    kernel_size: 11
    stride: 4
    weight_filler {
      type: "gaussian"
      std: 0.01
    }
    bias_filler {
      type: "constant"
      value: 0
    }
  }
}
layer {
  name: "relu1"
  type: "ReLU"
  bottom: "conv1"
  top: "conv1"
}
layer {
  name: "norm1"
  type: "LRN"
  bottom: "conv1"
  top: "norm1"
  lrn_param {
    local_size: 5
    alpha: 0.0001
    beta: 0.75
  }
}
layer {
  name: "pool1"
  type: "Pooling"
  bottom: "norm1"
  top: "pool1"
  pooling_param {
    pool: MAX
    kernel_size: 3
    stride: 2
  }
}
layer {
  name: "conv2"
  type: "Convolution"
  bottom: "pool1"
  top: "conv2"
  param {
    lr_mult: 1
    decay_mult: 1
  }
  param {
    lr_mult: 2
    decay_mult: 0
  }
  convolution_param {
    num_output: 256
    pad: 2
    kernel_size: 5
    group: 2
    weight_filler {
      type: "gaussian"
      std: 0.01
    }
    bias_filler {
      type: "constant"
      value: 0.1
    }
  }
}
layer {
  name: "relu2"
  type: "ReLU"
  bottom: "conv2"
  top: "conv2"
}
layer {
  name: "norm2"
  type: "LRN"
  bottom: "conv2"
  top: "norm2"
  lrn_param {
    local_size: 5
    alpha: 0.0001
    beta: 0.75
  }
}
layer {
  name: "pool2"
  type: "Pooling"
  bottom: "norm2"
  top: "pool2"
  pooling_param {
    pool: MAX
    kernel_size: 3
    stride: 2
  }
}
layer {
  name: "conv3"
  type: "Convolution"
  bottom: "pool2"
  top: "conv3"
  param {
    lr_mult: 1
    decay_mult: 1
  }
  param {
    lr_mult: 2
    decay_mult: 0
  }
  convolution_param {
    num_output: 384
    pad: 1
    kernel_size: 3
    weight_filler {
      type: "gaussian"
      std: 0.01
    }
    bias_filler {
      type: "constant"
      value: 0
    }
  }
}
layer {
  name: "relu3"
  type: "ReLU"
  bottom: "conv3"
  top: "conv3"
}
layer {
  name: "conv4"
  type: "Convolution"
  bottom: "conv3"
  top: "conv4"
  param {
    lr_mult: 1
    decay_mult: 1
  }
  param {
    lr_mult: 2
    decay_mult: 0
  }
  convolution_param {
    num_output: 384
    pad: 1
    kernel_size: 3
    group: 2
    weight_filler {
      type: "gaussian"
      std: 0.01
    }
    bias_filler {
      type: "constant"
      value: 0.1
    }
  }
}
layer {
  name: "relu4"
  type: "ReLU"
  bottom: "conv4"
  top: "conv4"
}
layer {
  name: "conv5"
  type: "Convolution"
  bottom: "conv4"
  top: "conv5"
  param {
    lr_mult: 1
    decay_mult: 1
  }
  param {
    lr_mult: 2
    decay_mult: 0
  }
  convolution_param {
    num_output: 256
    pad: 1
    kernel_size: 3
    group: 2
    weight_filler {
      type: "gaussian"
      std: 0.01
    }
    bias_filler {
      type: "constant"
      value: 0.1
    }
  }
}
layer {
  name: "relu5"
  type: "ReLU"
  bottom: "conv5"
  top: "conv5"
}
layer {
  name: "pool5"
  type: "Pooling"
  bottom: "conv5"
  top: "pool5"
  pooling_param {
    pool: MAX
    kernel_size: 3
    stride: 2
  }
}
layer {
  name: "fc6"
  type: "InnerProduct"
  bottom: "pool5"
  top: "fc6"
  param {
    lr_mult: 1
    decay_mult: 1
  }
  param {
    lr_mult: 2
    decay_mult: 0
  }
  inner_product_param {
    num_output: 4096
    weight_filler {
      type: "gaussian"
      std: 0.005
    }
    bias_filler {
      type: "constant"
      value: 0.1
    }
  }
}
layer {
  name: "relu6"
  type: "ReLU"
  bottom: "fc6"
  top: "fc6"
}
layer {
  name: "drop6"
  type: "Dropout"
  bottom: "fc6"
  top: "fc6"
  dropout_param {
    dropout_ratio: 0.5
  }
}
layer {
  name: "fc7"
  type: "InnerProduct"
  bottom: "fc6"
  top: "fc7"
  param {
    lr_mult: 1
    decay_mult: 1
  }
  param {
    lr_mult: 2
    decay_mult: 0
  }
  inner_product_param {
    num_output: 4096
    weight_filler {
      type: "gaussian"
      std: 0.005
    }
    bias_filler {
      type: "constant"
      value: 0.1
    }
  }
}
layer {
  name: "relu7"
  type: "ReLU"
  bottom: "fc7"
  top: "fc7"
}
layer {
  name: "drop7"
  type: "Dropout"
  bottom: "fc7"
  top: "fc7"
  dropout_param {
    dropout_ratio: 0.5
  }
}
layer {
  name: "fc8_plantvillage"
  type: "InnerProduct"
  bottom: "fc7"
  top: "fc8_plantvillage"
  param {
    lr_mult: 1
    decay_mult: 1
  }
  param {
    lr_mult: 2
    decay_mult: 0
  }
  inner_product_param {
    num_output: 38
    weight_filler {
      type: "gaussian"
      std: 0.01
    }
    bias_filler {
      type: "constant"
      value: 0
    }
  }
}
layer {
  name: "prob"
  type: "Softmax"
  bottom: "fc8_plantvillage"
  top: "prob"
  include {
    phase: TEST
  }
}
layer {
  name: "hdf5out"
  type: "HDF5Output"
  bottom: "prob"
  bottom: "label"
  include {
    phase: TEST
  }
  hdf5_output_param {
    file_name: "hdf5_dumps/iter_7848.h5"
  }
}
layer {
  name: "loss"
  type: "SoftmaxWithLoss"
  bottom: "fc8_plantvillage"
  bottom: "label"
  top: "loss"
}
layer {
  name: "accuracy"
  type: "Accuracy"
  bottom: "fc8_plantvillage"
  bottom: "label"
  top: "accuracy"
  include {
    phase: TEST
  }
}
I0403 13:30:36.858227 11427 layer_factory.hpp:77] Creating layer data
I0403 13:30:36.858883 11427 net.cpp:91] Creating Layer data
I0403 13:30:36.858914 11427 net.cpp:399] data -> data
I0403 13:30:36.858966 11427 net.cpp:399] data -> label
I0403 13:30:36.859004 11427 data_transformer.cpp:25] Loading mean file from: /home/mohanty/data/final_dataset/lmdb/grayscale-80-20/mean.binaryproto
I0403 13:30:36.861805 11433 db_lmdb.cpp:38] Opened lmdb /home/mohanty/data/final_dataset/lmdb/grayscale-80-20/test_db
I0403 13:30:36.873894 11427 data_layer.cpp:41] output data size: 100,3,227,227
I0403 13:30:36.991113 11427 net.cpp:141] Setting up data
I0403 13:30:36.991176 11427 net.cpp:148] Top shape: 100 3 227 227 (15458700)
I0403 13:30:36.991200 11427 net.cpp:148] Top shape: 100 (100)
I0403 13:30:36.991216 11427 net.cpp:156] Memory required for data: 61835200
I0403 13:30:36.991245 11427 layer_factory.hpp:77] Creating layer label_data_1_split
I0403 13:30:36.991271 11427 net.cpp:91] Creating Layer label_data_1_split
I0403 13:30:36.991289 11427 net.cpp:425] label_data_1_split <- label
I0403 13:30:36.991323 11427 net.cpp:399] label_data_1_split -> label_data_1_split_0
I0403 13:30:36.991350 11427 net.cpp:399] label_data_1_split -> label_data_1_split_1
I0403 13:30:36.991371 11427 net.cpp:399] label_data_1_split -> label_data_1_split_2
I0403 13:30:36.991436 11427 net.cpp:141] Setting up label_data_1_split
I0403 13:30:36.991459 11427 net.cpp:148] Top shape: 100 (100)
I0403 13:30:36.991477 11427 net.cpp:148] Top shape: 100 (100)
I0403 13:30:36.991493 11427 net.cpp:148] Top shape: 100 (100)
I0403 13:30:36.991506 11427 net.cpp:156] Memory required for data: 61836400
I0403 13:30:36.991521 11427 layer_factory.hpp:77] Creating layer conv1
I0403 13:30:36.991554 11427 net.cpp:91] Creating Layer conv1
I0403 13:30:36.991572 11427 net.cpp:425] conv1 <- data
I0403 13:30:36.991592 11427 net.cpp:399] conv1 -> conv1
I0403 13:30:37.132189 11427 net.cpp:141] Setting up conv1
I0403 13:30:37.132267 11427 net.cpp:148] Top shape: 100 96 55 55 (29040000)
I0403 13:30:37.132284 11427 net.cpp:156] Memory required for data: 177996400
I0403 13:30:37.132316 11427 layer_factory.hpp:77] Creating layer relu1
I0403 13:30:37.132344 11427 net.cpp:91] Creating Layer relu1
I0403 13:30:37.132362 11427 net.cpp:425] relu1 <- conv1
I0403 13:30:37.132381 11427 net.cpp:386] relu1 -> conv1 (in-place)
I0403 13:30:37.132652 11427 net.cpp:141] Setting up relu1
I0403 13:30:37.132683 11427 net.cpp:148] Top shape: 100 96 55 55 (29040000)
I0403 13:30:37.132732 11427 net.cpp:156] Memory required for data: 294156400
I0403 13:30:37.132748 11427 layer_factory.hpp:77] Creating layer norm1
I0403 13:30:37.132776 11427 net.cpp:91] Creating Layer norm1
I0403 13:30:37.132793 11427 net.cpp:425] norm1 <- conv1
I0403 13:30:37.132812 11427 net.cpp:399] norm1 -> norm1
I0403 13:30:37.133132 11427 net.cpp:141] Setting up norm1
I0403 13:30:37.133162 11427 net.cpp:148] Top shape: 100 96 55 55 (29040000)
I0403 13:30:37.133178 11427 net.cpp:156] Memory required for data: 410316400
I0403 13:30:37.133193 11427 layer_factory.hpp:77] Creating layer pool1
I0403 13:30:37.133215 11427 net.cpp:91] Creating Layer pool1
I0403 13:30:37.133232 11427 net.cpp:425] pool1 <- norm1
I0403 13:30:37.133250 11427 net.cpp:399] pool1 -> pool1
I0403 13:30:37.133321 11427 net.cpp:141] Setting up pool1
I0403 13:30:37.133345 11427 net.cpp:148] Top shape: 100 96 27 27 (6998400)
I0403 13:30:37.133359 11427 net.cpp:156] Memory required for data: 438310000
I0403 13:30:37.133373 11427 layer_factory.hpp:77] Creating layer conv2
I0403 13:30:37.133399 11427 net.cpp:91] Creating Layer conv2
I0403 13:30:37.133417 11427 net.cpp:425] conv2 <- pool1
I0403 13:30:37.133438 11427 net.cpp:399] conv2 -> conv2
I0403 13:30:37.148455 11427 net.cpp:141] Setting up conv2
I0403 13:30:37.148501 11427 net.cpp:148] Top shape: 100 256 27 27 (18662400)
I0403 13:30:37.148519 11427 net.cpp:156] Memory required for data: 512959600
I0403 13:30:37.148542 11427 layer_factory.hpp:77] Creating layer relu2
I0403 13:30:37.148571 11427 net.cpp:91] Creating Layer relu2
I0403 13:30:37.148591 11427 net.cpp:425] relu2 <- conv2
I0403 13:30:37.148610 11427 net.cpp:386] relu2 -> conv2 (in-place)
I0403 13:30:37.148890 11427 net.cpp:141] Setting up relu2
I0403 13:30:37.148922 11427 net.cpp:148] Top shape: 100 256 27 27 (18662400)
I0403 13:30:37.148939 11427 net.cpp:156] Memory required for data: 587609200
I0403 13:30:37.148955 11427 layer_factory.hpp:77] Creating layer norm2
I0403 13:30:37.148978 11427 net.cpp:91] Creating Layer norm2
I0403 13:30:37.148998 11427 net.cpp:425] norm2 <- conv2
I0403 13:30:37.149016 11427 net.cpp:399] norm2 -> norm2
I0403 13:30:37.149212 11427 net.cpp:141] Setting up norm2
I0403 13:30:37.149238 11427 net.cpp:148] Top shape: 100 256 27 27 (18662400)
I0403 13:30:37.149253 11427 net.cpp:156] Memory required for data: 662258800
I0403 13:30:37.149267 11427 layer_factory.hpp:77] Creating layer pool2
I0403 13:30:37.149288 11427 net.cpp:91] Creating Layer pool2
I0403 13:30:37.149304 11427 net.cpp:425] pool2 <- norm2
I0403 13:30:37.149322 11427 net.cpp:399] pool2 -> pool2
I0403 13:30:37.149377 11427 net.cpp:141] Setting up pool2
I0403 13:30:37.149400 11427 net.cpp:148] Top shape: 100 256 13 13 (4326400)
I0403 13:30:37.149415 11427 net.cpp:156] Memory required for data: 679564400
I0403 13:30:37.149430 11427 layer_factory.hpp:77] Creating layer conv3
I0403 13:30:37.149452 11427 net.cpp:91] Creating Layer conv3
I0403 13:30:37.149469 11427 net.cpp:425] conv3 <- pool2
I0403 13:30:37.149490 11427 net.cpp:399] conv3 -> conv3
I0403 13:30:37.187886 11427 net.cpp:141] Setting up conv3
I0403 13:30:37.187960 11427 net.cpp:148] Top shape: 100 384 13 13 (6489600)
I0403 13:30:37.187980 11427 net.cpp:156] Memory required for data: 705522800
I0403 13:30:37.188004 11427 layer_factory.hpp:77] Creating layer relu3
I0403 13:30:37.188026 11427 net.cpp:91] Creating Layer relu3
I0403 13:30:37.188043 11427 net.cpp:425] relu3 <- conv3
I0403 13:30:37.188062 11427 net.cpp:386] relu3 -> conv3 (in-place)
I0403 13:30:37.188340 11427 net.cpp:141] Setting up relu3
I0403 13:30:37.188371 11427 net.cpp:148] Top shape: 100 384 13 13 (6489600)
I0403 13:30:37.188390 11427 net.cpp:156] Memory required for data: 731481200
I0403 13:30:37.188405 11427 layer_factory.hpp:77] Creating layer conv4
I0403 13:30:37.188431 11427 net.cpp:91] Creating Layer conv4
I0403 13:30:37.188449 11427 net.cpp:425] conv4 <- conv3
I0403 13:30:37.188468 11427 net.cpp:399] conv4 -> conv4
I0403 13:30:37.223868 11427 net.cpp:141] Setting up conv4
I0403 13:30:37.223943 11427 net.cpp:148] Top shape: 100 384 13 13 (6489600)
I0403 13:30:37.223987 11427 net.cpp:156] Memory required for data: 757439600
I0403 13:30:37.224009 11427 layer_factory.hpp:77] Creating layer relu4
I0403 13:30:37.224032 11427 net.cpp:91] Creating Layer relu4
I0403 13:30:37.224050 11427 net.cpp:425] relu4 <- conv4
I0403 13:30:37.224069 11427 net.cpp:386] relu4 -> conv4 (in-place)
I0403 13:30:37.224373 11427 net.cpp:141] Setting up relu4
I0403 13:30:37.224400 11427 net.cpp:148] Top shape: 100 384 13 13 (6489600)
I0403 13:30:37.224416 11427 net.cpp:156] Memory required for data: 783398000
I0403 13:30:37.224429 11427 layer_factory.hpp:77] Creating layer conv5
I0403 13:30:37.224453 11427 net.cpp:91] Creating Layer conv5
I0403 13:30:37.224472 11427 net.cpp:425] conv5 <- conv4
I0403 13:30:37.224491 11427 net.cpp:399] conv5 -> conv5
I0403 13:30:37.244837 11427 net.cpp:141] Setting up conv5
I0403 13:30:37.244885 11427 net.cpp:148] Top shape: 100 256 13 13 (4326400)
I0403 13:30:37.244900 11427 net.cpp:156] Memory required for data: 800703600
I0403 13:30:37.244925 11427 layer_factory.hpp:77] Creating layer relu5
I0403 13:30:37.244949 11427 net.cpp:91] Creating Layer relu5
I0403 13:30:37.244967 11427 net.cpp:425] relu5 <- conv5
I0403 13:30:37.244987 11427 net.cpp:386] relu5 -> conv5 (in-place)
I0403 13:30:37.245259 11427 net.cpp:141] Setting up relu5
I0403 13:30:37.245290 11427 net.cpp:148] Top shape: 100 256 13 13 (4326400)
I0403 13:30:37.245306 11427 net.cpp:156] Memory required for data: 818009200
I0403 13:30:37.245321 11427 layer_factory.hpp:77] Creating layer pool5
I0403 13:30:37.245342 11427 net.cpp:91] Creating Layer pool5
I0403 13:30:37.245359 11427 net.cpp:425] pool5 <- conv5
I0403 13:30:37.245379 11427 net.cpp:399] pool5 -> pool5
I0403 13:30:37.245440 11427 net.cpp:141] Setting up pool5
I0403 13:30:37.245465 11427 net.cpp:148] Top shape: 100 256 6 6 (921600)
I0403 13:30:37.245481 11427 net.cpp:156] Memory required for data: 821695600
I0403 13:30:37.245496 11427 layer_factory.hpp:77] Creating layer fc6
I0403 13:30:37.245522 11427 net.cpp:91] Creating Layer fc6
I0403 13:30:37.245540 11427 net.cpp:425] fc6 <- pool5
I0403 13:30:37.245563 11427 net.cpp:399] fc6 -> fc6
I0403 13:30:38.810608 11427 net.cpp:141] Setting up fc6
I0403 13:30:38.810652 11427 net.cpp:148] Top shape: 100 4096 (409600)
I0403 13:30:38.810668 11427 net.cpp:156] Memory required for data: 823334000
I0403 13:30:38.810689 11427 layer_factory.hpp:77] Creating layer relu6
I0403 13:30:38.810713 11427 net.cpp:91] Creating Layer relu6
I0403 13:30:38.810730 11427 net.cpp:425] relu6 <- fc6
I0403 13:30:38.810748 11427 net.cpp:386] relu6 -> fc6 (in-place)
I0403 13:30:38.810966 11427 net.cpp:141] Setting up relu6
I0403 13:30:38.810992 11427 net.cpp:148] Top shape: 100 4096 (409600)
I0403 13:30:38.811005 11427 net.cpp:156] Memory required for data: 824972400
I0403 13:30:38.811019 11427 layer_factory.hpp:77] Creating layer drop6
I0403 13:30:38.811039 11427 net.cpp:91] Creating Layer drop6
I0403 13:30:38.811055 11427 net.cpp:425] drop6 <- fc6
I0403 13:30:38.811071 11427 net.cpp:386] drop6 -> fc6 (in-place)
I0403 13:30:38.811122 11427 net.cpp:141] Setting up drop6
I0403 13:30:38.811144 11427 net.cpp:148] Top shape: 100 4096 (409600)
I0403 13:30:38.811158 11427 net.cpp:156] Memory required for data: 826610800
I0403 13:30:38.811172 11427 layer_factory.hpp:77] Creating layer fc7
I0403 13:30:38.811194 11427 net.cpp:91] Creating Layer fc7
I0403 13:30:38.811210 11427 net.cpp:425] fc7 <- fc6
I0403 13:30:38.811228 11427 net.cpp:399] fc7 -> fc7
I0403 13:30:39.501535 11427 net.cpp:141] Setting up fc7
I0403 13:30:39.501617 11427 net.cpp:148] Top shape: 100 4096 (409600)
I0403 13:30:39.501636 11427 net.cpp:156] Memory required for data: 828249200
I0403 13:30:39.501655 11427 layer_factory.hpp:77] Creating layer relu7
I0403 13:30:39.501677 11427 net.cpp:91] Creating Layer relu7
I0403 13:30:39.501694 11427 net.cpp:425] relu7 <- fc7
I0403 13:30:39.501713 11427 net.cpp:386] relu7 -> fc7 (in-place)
I0403 13:30:39.502127 11427 net.cpp:141] Setting up relu7
I0403 13:30:39.502156 11427 net.cpp:148] Top shape: 100 4096 (409600)
I0403 13:30:39.502210 11427 net.cpp:156] Memory required for data: 829887600
I0403 13:30:39.502226 11427 layer_factory.hpp:77] Creating layer drop7
I0403 13:30:39.502244 11427 net.cpp:91] Creating Layer drop7
I0403 13:30:39.502259 11427 net.cpp:425] drop7 <- fc7
I0403 13:30:39.502275 11427 net.cpp:386] drop7 -> fc7 (in-place)
I0403 13:30:39.502322 11427 net.cpp:141] Setting up drop7
I0403 13:30:39.502344 11427 net.cpp:148] Top shape: 100 4096 (409600)
I0403 13:30:39.502357 11427 net.cpp:156] Memory required for data: 831526000
I0403 13:30:39.502372 11427 layer_factory.hpp:77] Creating layer fc8_plantvillage
I0403 13:30:39.502393 11427 net.cpp:91] Creating Layer fc8_plantvillage
I0403 13:30:39.502408 11427 net.cpp:425] fc8_plantvillage <- fc7
I0403 13:30:39.502424 11427 net.cpp:399] fc8_plantvillage -> fc8_plantvillage
I0403 13:30:39.509194 11427 net.cpp:141] Setting up fc8_plantvillage
I0403 13:30:39.509222 11427 net.cpp:148] Top shape: 100 38 (3800)
I0403 13:30:39.509238 11427 net.cpp:156] Memory required for data: 831541200
I0403 13:30:39.509254 11427 layer_factory.hpp:77] Creating layer fc8_plantvillage_fc8_plantvillage_0_split
I0403 13:30:39.509274 11427 net.cpp:91] Creating Layer fc8_plantvillage_fc8_plantvillage_0_split
I0403 13:30:39.509292 11427 net.cpp:425] fc8_plantvillage_fc8_plantvillage_0_split <- fc8_plantvillage
I0403 13:30:39.509310 11427 net.cpp:399] fc8_plantvillage_fc8_plantvillage_0_split -> fc8_plantvillage_fc8_plantvillage_0_split_0
I0403 13:30:39.509331 11427 net.cpp:399] fc8_plantvillage_fc8_plantvillage_0_split -> fc8_plantvillage_fc8_plantvillage_0_split_1
I0403 13:30:39.509351 11427 net.cpp:399] fc8_plantvillage_fc8_plantvillage_0_split -> fc8_plantvillage_fc8_plantvillage_0_split_2
I0403 13:30:39.509426 11427 net.cpp:141] Setting up fc8_plantvillage_fc8_plantvillage_0_split
I0403 13:30:39.509449 11427 net.cpp:148] Top shape: 100 38 (3800)
I0403 13:30:39.509464 11427 net.cpp:148] Top shape: 100 38 (3800)
I0403 13:30:39.509479 11427 net.cpp:148] Top shape: 100 38 (3800)
I0403 13:30:39.509492 11427 net.cpp:156] Memory required for data: 831586800
I0403 13:30:39.509506 11427 layer_factory.hpp:77] Creating layer prob
I0403 13:30:39.509526 11427 net.cpp:91] Creating Layer prob
I0403 13:30:39.509542 11427 net.cpp:425] prob <- fc8_plantvillage_fc8_plantvillage_0_split_0
I0403 13:30:39.509559 11427 net.cpp:399] prob -> prob
I0403 13:30:39.509786 11427 net.cpp:141] Setting up prob
I0403 13:30:39.509811 11427 net.cpp:148] Top shape: 100 38 (3800)
I0403 13:30:39.509826 11427 net.cpp:156] Memory required for data: 831602000
I0403 13:30:39.509840 11427 layer_factory.hpp:77] Creating layer hdf5out
I0403 13:30:39.509861 11427 net.cpp:91] Creating Layer hdf5out
I0403 13:30:39.509877 11427 net.cpp:425] hdf5out <- prob
I0403 13:30:39.509892 11427 net.cpp:425] hdf5out <- label_data_1_split_0
I0403 13:30:39.512261 11427 net.cpp:141] Setting up hdf5out
…
