…
I0403 13:28:29.371680 11330 net.cpp:313] The NetState phase (1) differed from the phase (0) specified by a rule in layer data
I0403 13:28:29.371973 11330 net.cpp:49] Initializing net from parameters: 
state {
  phase: TEST
}
layer {
  name: "data"
  type: "Data"
  top: "data"
  top: "label"
  include {
    phase: TEST
  }
  transform_param {
    crop_size: 227
    mean_file: "/home/mohanty/data/final_dataset/lmdb/grayscale-80-20/mean.binaryproto"
  }
  data_param {
    source: "/home/mohanty/data/final_dataset/lmdb/grayscale-80-20/test_db"
    batch_size: 100
    backend: LMDB
  }
}
layer {
  name: "conv1"
  type: "Convolution"
  bottom: "data"
  top: "conv1"
  param {
    lr_mult: 1
    decay_mult: 1
  }
  param {
    lr_mult: 2
    decay_mult: 0
  }
  convolution_param {
    num_output: 96
    kernel_size: 11
    stride: 4
    weight_filler {
      type: "gaussian"
      std: 0.01
    }
    bias_filler {
      type: "constant"
      value: 0
    }
  }
}
layer {
  name: "relu1"
  type: "ReLU"
  bottom: "conv1"
  top: "conv1"
}
layer {
  name: "norm1"
  type: "LRN"
  bottom: "conv1"
  top: "norm1"
  lrn_param {
    local_size: 5
    alpha: 0.0001
    beta: 0.75
  }
}
layer {
  name: "pool1"
  type: "Pooling"
  bottom: "norm1"
  top: "pool1"
  pooling_param {
    pool: MAX
    kernel_size: 3
    stride: 2
  }
}
layer {
  name: "conv2"
  type: "Convolution"
  bottom: "pool1"
  top: "conv2"
  param {
    lr_mult: 1
    decay_mult: 1
  }
  param {
    lr_mult: 2
    decay_mult: 0
  }
  convolution_param {
    num_output: 256
    pad: 2
    kernel_size: 5
    group: 2
    weight_filler {
      type: "gaussian"
      std: 0.01
    }
    bias_filler {
      type: "constant"
      value: 0.1
    }
  }
}
layer {
  name: "relu2"
  type: "ReLU"
  bottom: "conv2"
  top: "conv2"
}
layer {
  name: "norm2"
  type: "LRN"
  bottom: "conv2"
  top: "norm2"
  lrn_param {
    local_size: 5
    alpha: 0.0001
    beta: 0.75
  }
}
layer {
  name: "pool2"
  type: "Pooling"
  bottom: "norm2"
  top: "pool2"
  pooling_param {
    pool: MAX
    kernel_size: 3
    stride: 2
  }
}
layer {
  name: "conv3"
  type: "Convolution"
  bottom: "pool2"
  top: "conv3"
  param {
    lr_mult: 1
    decay_mult: 1
  }
  param {
    lr_mult: 2
    decay_mult: 0
  }
  convolution_param {
    num_output: 384
    pad: 1
    kernel_size: 3
    weight_filler {
      type: "gaussian"
      std: 0.01
    }
    bias_filler {
      type: "constant"
      value: 0
    }
  }
}
layer {
  name: "relu3"
  type: "ReLU"
  bottom: "conv3"
  top: "conv3"
}
layer {
  name: "conv4"
  type: "Convolution"
  bottom: "conv3"
  top: "conv4"
  param {
    lr_mult: 1
    decay_mult: 1
  }
  param {
    lr_mult: 2
    decay_mult: 0
  }
  convolution_param {
    num_output: 384
    pad: 1
    kernel_size: 3
    group: 2
    weight_filler {
      type: "gaussian"
      std: 0.01
    }
    bias_filler {
      type: "constant"
      value: 0.1
    }
  }
}
layer {
  name: "relu4"
  type: "ReLU"
  bottom: "conv4"
  top: "conv4"
}
layer {
  name: "conv5"
  type: "Convolution"
  bottom: "conv4"
  top: "conv5"
  param {
    lr_mult: 1
    decay_mult: 1
  }
  param {
    lr_mult: 2
    decay_mult: 0
  }
  convolution_param {
    num_output: 256
    pad: 1
    kernel_size: 3
    group: 2
    weight_filler {
      type: "gaussian"
      std: 0.01
    }
    bias_filler {
      type: "constant"
      value: 0.1
    }
  }
}
layer {
  name: "relu5"
  type: "ReLU"
  bottom: "conv5"
  top: "conv5"
}
layer {
  name: "pool5"
  type: "Pooling"
  bottom: "conv5"
  top: "pool5"
  pooling_param {
    pool: MAX
    kernel_size: 3
    stride: 2
  }
}
layer {
  name: "fc6"
  type: "InnerProduct"
  bottom: "pool5"
  top: "fc6"
  param {
    lr_mult: 1
    decay_mult: 1
  }
  param {
    lr_mult: 2
    decay_mult: 0
  }
  inner_product_param {
    num_output: 4096
    weight_filler {
      type: "gaussian"
      std: 0.005
    }
    bias_filler {
      type: "constant"
      value: 0.1
    }
  }
}
layer {
  name: "relu6"
  type: "ReLU"
  bottom: "fc6"
  top: "fc6"
}
layer {
  name: "drop6"
  type: "Dropout"
  bottom: "fc6"
  top: "fc6"
  dropout_param {
    dropout_ratio: 0.5
  }
}
layer {
  name: "fc7"
  type: "InnerProduct"
  bottom: "fc6"
  top: "fc7"
  param {
    lr_mult: 1
    decay_mult: 1
  }
  param {
    lr_mult: 2
    decay_mult: 0
  }
  inner_product_param {
    num_output: 4096
    weight_filler {
      type: "gaussian"
      std: 0.005
    }
    bias_filler {
      type: "constant"
      value: 0.1
    }
  }
}
layer {
  name: "relu7"
  type: "ReLU"
  bottom: "fc7"
  top: "fc7"
}
layer {
  name: "drop7"
  type: "Dropout"
  bottom: "fc7"
  top: "fc7"
  dropout_param {
    dropout_ratio: 0.5
  }
}
layer {
  name: "fc8_plantvillage"
  type: "InnerProduct"
  bottom: "fc7"
  top: "fc8_plantvillage"
  param {
    lr_mult: 1
    decay_mult: 1
  }
  param {
    lr_mult: 2
    decay_mult: 0
  }
  inner_product_param {
    num_output: 38
    weight_filler {
      type: "gaussian"
      std: 0.01
    }
    bias_filler {
      type: "constant"
      value: 0
    }
  }
}
layer {
  name: "prob"
  type: "Softmax"
  bottom: "fc8_plantvillage"
  top: "prob"
  include {
    phase: TEST
  }
}
layer {
  name: "hdf5out"
  type: "HDF5Output"
  bottom: "prob"
  bottom: "label"
  include {
    phase: TEST
  }
  hdf5_output_param {
    file_name: "hdf5_dumps/iter_5668.h5"
  }
}
layer {
  name: "loss"
  type: "SoftmaxWithLoss"
  bottom: "fc8_plantvillage"
  bottom: "label"
  top: "loss"
}
layer {
  name: "accuracy"
  type: "Accuracy"
  bottom: "fc8_plantvillage"
  bottom: "label"
  top: "accuracy"
  include {
    phase: TEST
  }
}
I0403 13:28:29.372490 11330 layer_factory.hpp:77] Creating layer data
I0403 13:28:29.373096 11330 net.cpp:91] Creating Layer data
I0403 13:28:29.373128 11330 net.cpp:399] data -> data
I0403 13:28:29.373177 11330 net.cpp:399] data -> label
I0403 13:28:29.373211 11330 data_transformer.cpp:25] Loading mean file from: /home/mohanty/data/final_dataset/lmdb/grayscale-80-20/mean.binaryproto
I0403 13:28:29.375933 11334 db_lmdb.cpp:38] Opened lmdb /home/mohanty/data/final_dataset/lmdb/grayscale-80-20/test_db
I0403 13:28:29.387014 11330 data_layer.cpp:41] output data size: 100,3,227,227
I0403 13:28:29.503587 11330 net.cpp:141] Setting up data
I0403 13:28:29.503684 11330 net.cpp:148] Top shape: 100 3 227 227 (15458700)
I0403 13:28:29.503705 11330 net.cpp:148] Top shape: 100 (100)
I0403 13:28:29.503720 11330 net.cpp:156] Memory required for data: 61835200
I0403 13:28:29.503747 11330 layer_factory.hpp:77] Creating layer label_data_1_split
I0403 13:28:29.503772 11330 net.cpp:91] Creating Layer label_data_1_split
I0403 13:28:29.503789 11330 net.cpp:425] label_data_1_split <- label
I0403 13:28:29.503821 11330 net.cpp:399] label_data_1_split -> label_data_1_split_0
I0403 13:28:29.503847 11330 net.cpp:399] label_data_1_split -> label_data_1_split_1
I0403 13:28:29.503867 11330 net.cpp:399] label_data_1_split -> label_data_1_split_2
I0403 13:28:29.503931 11330 net.cpp:141] Setting up label_data_1_split
I0403 13:28:29.503953 11330 net.cpp:148] Top shape: 100 (100)
I0403 13:28:29.503969 11330 net.cpp:148] Top shape: 100 (100)
I0403 13:28:29.503984 11330 net.cpp:148] Top shape: 100 (100)
I0403 13:28:29.503998 11330 net.cpp:156] Memory required for data: 61836400
I0403 13:28:29.504011 11330 layer_factory.hpp:77] Creating layer conv1
I0403 13:28:29.504041 11330 net.cpp:91] Creating Layer conv1
I0403 13:28:29.504058 11330 net.cpp:425] conv1 <- data
I0403 13:28:29.504076 11330 net.cpp:399] conv1 -> conv1
I0403 13:28:29.641945 11330 net.cpp:141] Setting up conv1
I0403 13:28:29.642017 11330 net.cpp:148] Top shape: 100 96 55 55 (29040000)
I0403 13:28:29.642035 11330 net.cpp:156] Memory required for data: 177996400
I0403 13:28:29.642066 11330 layer_factory.hpp:77] Creating layer relu1
I0403 13:28:29.642093 11330 net.cpp:91] Creating Layer relu1
I0403 13:28:29.642112 11330 net.cpp:425] relu1 <- conv1
I0403 13:28:29.642130 11330 net.cpp:386] relu1 -> conv1 (in-place)
I0403 13:28:29.642405 11330 net.cpp:141] Setting up relu1
I0403 13:28:29.642433 11330 net.cpp:148] Top shape: 100 96 55 55 (29040000)
I0403 13:28:29.642484 11330 net.cpp:156] Memory required for data: 294156400
I0403 13:28:29.642501 11330 layer_factory.hpp:77] Creating layer norm1
I0403 13:28:29.642529 11330 net.cpp:91] Creating Layer norm1
I0403 13:28:29.642547 11330 net.cpp:425] norm1 <- conv1
I0403 13:28:29.642565 11330 net.cpp:399] norm1 -> norm1
I0403 13:28:29.642889 11330 net.cpp:141] Setting up norm1
I0403 13:28:29.642916 11330 net.cpp:148] Top shape: 100 96 55 55 (29040000)
I0403 13:28:29.642931 11330 net.cpp:156] Memory required for data: 410316400
I0403 13:28:29.642946 11330 layer_factory.hpp:77] Creating layer pool1
I0403 13:28:29.642968 11330 net.cpp:91] Creating Layer pool1
I0403 13:28:29.642984 11330 net.cpp:425] pool1 <- norm1
I0403 13:28:29.643002 11330 net.cpp:399] pool1 -> pool1
I0403 13:28:29.643069 11330 net.cpp:141] Setting up pool1
I0403 13:28:29.643095 11330 net.cpp:148] Top shape: 100 96 27 27 (6998400)
I0403 13:28:29.643108 11330 net.cpp:156] Memory required for data: 438310000
I0403 13:28:29.643123 11330 layer_factory.hpp:77] Creating layer conv2
I0403 13:28:29.643146 11330 net.cpp:91] Creating Layer conv2
I0403 13:28:29.643163 11330 net.cpp:425] conv2 <- pool1
I0403 13:28:29.643182 11330 net.cpp:399] conv2 -> conv2
I0403 13:28:29.658149 11330 net.cpp:141] Setting up conv2
I0403 13:28:29.658185 11330 net.cpp:148] Top shape: 100 256 27 27 (18662400)
I0403 13:28:29.658202 11330 net.cpp:156] Memory required for data: 512959600
I0403 13:28:29.658223 11330 layer_factory.hpp:77] Creating layer relu2
I0403 13:28:29.658246 11330 net.cpp:91] Creating Layer relu2
I0403 13:28:29.658264 11330 net.cpp:425] relu2 <- conv2
I0403 13:28:29.658280 11330 net.cpp:386] relu2 -> conv2 (in-place)
I0403 13:28:29.658565 11330 net.cpp:141] Setting up relu2
I0403 13:28:29.658594 11330 net.cpp:148] Top shape: 100 256 27 27 (18662400)
I0403 13:28:29.658614 11330 net.cpp:156] Memory required for data: 587609200
I0403 13:28:29.658630 11330 layer_factory.hpp:77] Creating layer norm2
I0403 13:28:29.658653 11330 net.cpp:91] Creating Layer norm2
I0403 13:28:29.658669 11330 net.cpp:425] norm2 <- conv2
I0403 13:28:29.658687 11330 net.cpp:399] norm2 -> norm2
I0403 13:28:29.658888 11330 net.cpp:141] Setting up norm2
I0403 13:28:29.658915 11330 net.cpp:148] Top shape: 100 256 27 27 (18662400)
I0403 13:28:29.658928 11330 net.cpp:156] Memory required for data: 662258800
I0403 13:28:29.658943 11330 layer_factory.hpp:77] Creating layer pool2
I0403 13:28:29.658963 11330 net.cpp:91] Creating Layer pool2
I0403 13:28:29.658979 11330 net.cpp:425] pool2 <- norm2
I0403 13:28:29.658996 11330 net.cpp:399] pool2 -> pool2
I0403 13:28:29.659052 11330 net.cpp:141] Setting up pool2
I0403 13:28:29.659075 11330 net.cpp:148] Top shape: 100 256 13 13 (4326400)
I0403 13:28:29.659090 11330 net.cpp:156] Memory required for data: 679564400
I0403 13:28:29.659104 11330 layer_factory.hpp:77] Creating layer conv3
I0403 13:28:29.659127 11330 net.cpp:91] Creating Layer conv3
I0403 13:28:29.659144 11330 net.cpp:425] conv3 <- pool2
I0403 13:28:29.659164 11330 net.cpp:399] conv3 -> conv3
I0403 13:28:29.697648 11330 net.cpp:141] Setting up conv3
I0403 13:28:29.697710 11330 net.cpp:148] Top shape: 100 384 13 13 (6489600)
I0403 13:28:29.697727 11330 net.cpp:156] Memory required for data: 705522800
I0403 13:28:29.697752 11330 layer_factory.hpp:77] Creating layer relu3
I0403 13:28:29.697773 11330 net.cpp:91] Creating Layer relu3
I0403 13:28:29.697790 11330 net.cpp:425] relu3 <- conv3
I0403 13:28:29.697808 11330 net.cpp:386] relu3 -> conv3 (in-place)
I0403 13:28:29.698087 11330 net.cpp:141] Setting up relu3
I0403 13:28:29.698117 11330 net.cpp:148] Top shape: 100 384 13 13 (6489600)
I0403 13:28:29.698133 11330 net.cpp:156] Memory required for data: 731481200
I0403 13:28:29.698148 11330 layer_factory.hpp:77] Creating layer conv4
I0403 13:28:29.698171 11330 net.cpp:91] Creating Layer conv4
I0403 13:28:29.698189 11330 net.cpp:425] conv4 <- conv3
I0403 13:28:29.698207 11330 net.cpp:399] conv4 -> conv4
I0403 13:28:29.727864 11330 net.cpp:141] Setting up conv4
I0403 13:28:29.727911 11330 net.cpp:148] Top shape: 100 384 13 13 (6489600)
I0403 13:28:29.727962 11330 net.cpp:156] Memory required for data: 757439600
I0403 13:28:29.727982 11330 layer_factory.hpp:77] Creating layer relu4
I0403 13:28:29.728004 11330 net.cpp:91] Creating Layer relu4
I0403 13:28:29.728023 11330 net.cpp:425] relu4 <- conv4
I0403 13:28:29.728041 11330 net.cpp:386] relu4 -> conv4 (in-place)
I0403 13:28:29.728322 11330 net.cpp:141] Setting up relu4
I0403 13:28:29.728348 11330 net.cpp:148] Top shape: 100 384 13 13 (6489600)
I0403 13:28:29.728363 11330 net.cpp:156] Memory required for data: 783398000
I0403 13:28:29.728379 11330 layer_factory.hpp:77] Creating layer conv5
I0403 13:28:29.728404 11330 net.cpp:91] Creating Layer conv5
I0403 13:28:29.728421 11330 net.cpp:425] conv5 <- conv4
I0403 13:28:29.728442 11330 net.cpp:399] conv5 -> conv5
I0403 13:28:29.748842 11330 net.cpp:141] Setting up conv5
I0403 13:28:29.748879 11330 net.cpp:148] Top shape: 100 256 13 13 (4326400)
I0403 13:28:29.748895 11330 net.cpp:156] Memory required for data: 800703600
I0403 13:28:29.748919 11330 layer_factory.hpp:77] Creating layer relu5
I0403 13:28:29.748940 11330 net.cpp:91] Creating Layer relu5
I0403 13:28:29.748958 11330 net.cpp:425] relu5 <- conv5
I0403 13:28:29.748978 11330 net.cpp:386] relu5 -> conv5 (in-place)
I0403 13:28:29.749265 11330 net.cpp:141] Setting up relu5
I0403 13:28:29.749295 11330 net.cpp:148] Top shape: 100 256 13 13 (4326400)
I0403 13:28:29.749312 11330 net.cpp:156] Memory required for data: 818009200
I0403 13:28:29.749327 11330 layer_factory.hpp:77] Creating layer pool5
I0403 13:28:29.749348 11330 net.cpp:91] Creating Layer pool5
I0403 13:28:29.749363 11330 net.cpp:425] pool5 <- conv5
I0403 13:28:29.749383 11330 net.cpp:399] pool5 -> pool5
I0403 13:28:29.749444 11330 net.cpp:141] Setting up pool5
I0403 13:28:29.749469 11330 net.cpp:148] Top shape: 100 256 6 6 (921600)
I0403 13:28:29.749485 11330 net.cpp:156] Memory required for data: 821695600
I0403 13:28:29.749500 11330 layer_factory.hpp:77] Creating layer fc6
I0403 13:28:29.749524 11330 net.cpp:91] Creating Layer fc6
I0403 13:28:29.749542 11330 net.cpp:425] fc6 <- pool5
I0403 13:28:29.749563 11330 net.cpp:399] fc6 -> fc6
I0403 13:28:31.330490 11330 net.cpp:141] Setting up fc6
I0403 13:28:31.330566 11330 net.cpp:148] Top shape: 100 4096 (409600)
I0403 13:28:31.330581 11330 net.cpp:156] Memory required for data: 823334000
I0403 13:28:31.330605 11330 layer_factory.hpp:77] Creating layer relu6
I0403 13:28:31.330631 11330 net.cpp:91] Creating Layer relu6
I0403 13:28:31.330648 11330 net.cpp:425] relu6 <- fc6
I0403 13:28:31.330667 11330 net.cpp:386] relu6 -> fc6 (in-place)
I0403 13:28:31.330890 11330 net.cpp:141] Setting up relu6
I0403 13:28:31.330915 11330 net.cpp:148] Top shape: 100 4096 (409600)
I0403 13:28:31.330929 11330 net.cpp:156] Memory required for data: 824972400
I0403 13:28:31.330945 11330 layer_factory.hpp:77] Creating layer drop6
I0403 13:28:31.330965 11330 net.cpp:91] Creating Layer drop6
I0403 13:28:31.330979 11330 net.cpp:425] drop6 <- fc6
I0403 13:28:31.330996 11330 net.cpp:386] drop6 -> fc6 (in-place)
I0403 13:28:31.331048 11330 net.cpp:141] Setting up drop6
I0403 13:28:31.331070 11330 net.cpp:148] Top shape: 100 4096 (409600)
I0403 13:28:31.331084 11330 net.cpp:156] Memory required for data: 826610800
I0403 13:28:31.331099 11330 layer_factory.hpp:77] Creating layer fc7
I0403 13:28:31.331125 11330 net.cpp:91] Creating Layer fc7
I0403 13:28:31.331140 11330 net.cpp:425] fc7 <- fc6
I0403 13:28:31.331158 11330 net.cpp:399] fc7 -> fc7
I0403 13:28:32.013770 11330 net.cpp:141] Setting up fc7
I0403 13:28:32.013849 11330 net.cpp:148] Top shape: 100 4096 (409600)
I0403 13:28:32.013865 11330 net.cpp:156] Memory required for data: 828249200
I0403 13:28:32.013886 11330 layer_factory.hpp:77] Creating layer relu7
I0403 13:28:32.013907 11330 net.cpp:91] Creating Layer relu7
I0403 13:28:32.013924 11330 net.cpp:425] relu7 <- fc7
I0403 13:28:32.013942 11330 net.cpp:386] relu7 -> fc7 (in-place)
I0403 13:28:32.014359 11330 net.cpp:141] Setting up relu7
I0403 13:28:32.014389 11330 net.cpp:148] Top shape: 100 4096 (409600)
I0403 13:28:32.014442 11330 net.cpp:156] Memory required for data: 829887600
I0403 13:28:32.014458 11330 layer_factory.hpp:77] Creating layer drop7
I0403 13:28:32.014477 11330 net.cpp:91] Creating Layer drop7
I0403 13:28:32.014492 11330 net.cpp:425] drop7 <- fc7
I0403 13:28:32.014509 11330 net.cpp:386] drop7 -> fc7 (in-place)
I0403 13:28:32.014554 11330 net.cpp:141] Setting up drop7
I0403 13:28:32.014576 11330 net.cpp:148] Top shape: 100 4096 (409600)
I0403 13:28:32.014590 11330 net.cpp:156] Memory required for data: 831526000
I0403 13:28:32.014616 11330 layer_factory.hpp:77] Creating layer fc8_plantvillage
I0403 13:28:32.014641 11330 net.cpp:91] Creating Layer fc8_plantvillage
I0403 13:28:32.014657 11330 net.cpp:425] fc8_plantvillage <- fc7
I0403 13:28:32.014674 11330 net.cpp:399] fc8_plantvillage -> fc8_plantvillage
I0403 13:28:32.021368 11330 net.cpp:141] Setting up fc8_plantvillage
I0403 13:28:32.021396 11330 net.cpp:148] Top shape: 100 38 (3800)
I0403 13:28:32.021411 11330 net.cpp:156] Memory required for data: 831541200
I0403 13:28:32.021430 11330 layer_factory.hpp:77] Creating layer fc8_plantvillage_fc8_plantvillage_0_split
I0403 13:28:32.021450 11330 net.cpp:91] Creating Layer fc8_plantvillage_fc8_plantvillage_0_split
I0403 13:28:32.021466 11330 net.cpp:425] fc8_plantvillage_fc8_plantvillage_0_split <- fc8_plantvillage
I0403 13:28:32.021482 11330 net.cpp:399] fc8_plantvillage_fc8_plantvillage_0_split -> fc8_plantvillage_fc8_plantvillage_0_split_0
I0403 13:28:32.021504 11330 net.cpp:399] fc8_plantvillage_fc8_plantvillage_0_split -> fc8_plantvillage_fc8_plantvillage_0_split_1
I0403 13:28:32.021524 11330 net.cpp:399] fc8_plantvillage_fc8_plantvillage_0_split -> fc8_plantvillage_fc8_plantvillage_0_split_2
I0403 13:28:32.021605 11330 net.cpp:141] Setting up fc8_plantvillage_fc8_plantvillage_0_split
I0403 13:28:32.021628 11330 net.cpp:148] Top shape: 100 38 (3800)
I0403 13:28:32.021643 11330 net.cpp:148] Top shape: 100 38 (3800)
I0403 13:28:32.021659 11330 net.cpp:148] Top shape: 100 38 (3800)
I0403 13:28:32.021672 11330 net.cpp:156] Memory required for data: 831586800
I0403 13:28:32.021687 11330 layer_factory.hpp:77] Creating layer prob
I0403 13:28:32.021706 11330 net.cpp:91] Creating Layer prob
I0403 13:28:32.021723 11330 net.cpp:425] prob <- fc8_plantvillage_fc8_plantvillage_0_split_0
I0403 13:28:32.021740 11330 net.cpp:399] prob -> prob
I0403 13:28:32.021965 11330 net.cpp:141] Setting up prob
I0403 13:28:32.021989 11330 net.cpp:148] Top shape: 100 38 (3800)
I0403 13:28:32.022003 11330 net.cpp:156] Memory required for data: 831602000
I0403 13:28:32.022017 11330 layer_factory.hpp:77] Creating layer hdf5out
I0403 13:28:32.022037 11330 net.cpp:91] Creating Layer hdf5out
I0403 13:28:32.022053 11330 net.cpp:425] hdf5out <- prob
I0403 13:28:32.022069 11330 net.cpp:425] hdf5out <- label_data_1_split_0
I0403 13:28:32.287719 11330 net.cpp:141] Setting up hdf5out
…
