…
I0403 13:27:13.378298 11284 net.cpp:313] The NetState phase (1) differed from the phase (0) specified by a rule in layer data
I0403 13:27:13.378612 11284 net.cpp:49] Initializing net from parameters: 
state {
  phase: TEST
}
layer {
  name: "data"
  type: "Data"
  top: "data"
  top: "label"
  include {
    phase: TEST
  }
  transform_param {
    crop_size: 227
    mean_file: "/home/mohanty/data/final_dataset/lmdb/grayscale-80-20/mean.binaryproto"
  }
  data_param {
    source: "/home/mohanty/data/final_dataset/lmdb/grayscale-80-20/test_db"
    batch_size: 100
    backend: LMDB
  }
}
layer {
  name: "conv1"
  type: "Convolution"
  bottom: "data"
  top: "conv1"
  param {
    lr_mult: 1
    decay_mult: 1
  }
  param {
    lr_mult: 2
    decay_mult: 0
  }
  convolution_param {
    num_output: 96
    kernel_size: 11
    stride: 4
    weight_filler {
      type: "gaussian"
      std: 0.01
    }
    bias_filler {
      type: "constant"
      value: 0
    }
  }
}
layer {
  name: "relu1"
  type: "ReLU"
  bottom: "conv1"
  top: "conv1"
}
layer {
  name: "norm1"
  type: "LRN"
  bottom: "conv1"
  top: "norm1"
  lrn_param {
    local_size: 5
    alpha: 0.0001
    beta: 0.75
  }
}
layer {
  name: "pool1"
  type: "Pooling"
  bottom: "norm1"
  top: "pool1"
  pooling_param {
    pool: MAX
    kernel_size: 3
    stride: 2
  }
}
layer {
  name: "conv2"
  type: "Convolution"
  bottom: "pool1"
  top: "conv2"
  param {
    lr_mult: 1
    decay_mult: 1
  }
  param {
    lr_mult: 2
    decay_mult: 0
  }
  convolution_param {
    num_output: 256
    pad: 2
    kernel_size: 5
    group: 2
    weight_filler {
      type: "gaussian"
      std: 0.01
    }
    bias_filler {
      type: "constant"
      value: 0.1
    }
  }
}
layer {
  name: "relu2"
  type: "ReLU"
  bottom: "conv2"
  top: "conv2"
}
layer {
  name: "norm2"
  type: "LRN"
  bottom: "conv2"
  top: "norm2"
  lrn_param {
    local_size: 5
    alpha: 0.0001
    beta: 0.75
  }
}
layer {
  name: "pool2"
  type: "Pooling"
  bottom: "norm2"
  top: "pool2"
  pooling_param {
    pool: MAX
    kernel_size: 3
    stride: 2
  }
}
layer {
  name: "conv3"
  type: "Convolution"
  bottom: "pool2"
  top: "conv3"
  param {
    lr_mult: 1
    decay_mult: 1
  }
  param {
    lr_mult: 2
    decay_mult: 0
  }
  convolution_param {
    num_output: 384
    pad: 1
    kernel_size: 3
    weight_filler {
      type: "gaussian"
      std: 0.01
    }
    bias_filler {
      type: "constant"
      value: 0
    }
  }
}
layer {
  name: "relu3"
  type: "ReLU"
  bottom: "conv3"
  top: "conv3"
}
layer {
  name: "conv4"
  type: "Convolution"
  bottom: "conv3"
  top: "conv4"
  param {
    lr_mult: 1
    decay_mult: 1
  }
  param {
    lr_mult: 2
    decay_mult: 0
  }
  convolution_param {
    num_output: 384
    pad: 1
    kernel_size: 3
    group: 2
    weight_filler {
      type: "gaussian"
      std: 0.01
    }
    bias_filler {
      type: "constant"
      value: 0.1
    }
  }
}
layer {
  name: "relu4"
  type: "ReLU"
  bottom: "conv4"
  top: "conv4"
}
layer {
  name: "conv5"
  type: "Convolution"
  bottom: "conv4"
  top: "conv5"
  param {
    lr_mult: 1
    decay_mult: 1
  }
  param {
    lr_mult: 2
    decay_mult: 0
  }
  convolution_param {
    num_output: 256
    pad: 1
    kernel_size: 3
    group: 2
    weight_filler {
      type: "gaussian"
      std: 0.01
    }
    bias_filler {
      type: "constant"
      value: 0.1
    }
  }
}
layer {
  name: "relu5"
  type: "ReLU"
  bottom: "conv5"
  top: "conv5"
}
layer {
  name: "pool5"
  type: "Pooling"
  bottom: "conv5"
  top: "pool5"
  pooling_param {
    pool: MAX
    kernel_size: 3
    stride: 2
  }
}
layer {
  name: "fc6"
  type: "InnerProduct"
  bottom: "pool5"
  top: "fc6"
  param {
    lr_mult: 1
    decay_mult: 1
  }
  param {
    lr_mult: 2
    decay_mult: 0
  }
  inner_product_param {
    num_output: 4096
    weight_filler {
      type: "gaussian"
      std: 0.005
    }
    bias_filler {
      type: "constant"
      value: 0.1
    }
  }
}
layer {
  name: "relu6"
  type: "ReLU"
  bottom: "fc6"
  top: "fc6"
}
layer {
  name: "drop6"
  type: "Dropout"
  bottom: "fc6"
  top: "fc6"
  dropout_param {
    dropout_ratio: 0.5
  }
}
layer {
  name: "fc7"
  type: "InnerProduct"
  bottom: "fc6"
  top: "fc7"
  param {
    lr_mult: 1
    decay_mult: 1
  }
  param {
    lr_mult: 2
    decay_mult: 0
  }
  inner_product_param {
    num_output: 4096
    weight_filler {
      type: "gaussian"
      std: 0.005
    }
    bias_filler {
      type: "constant"
      value: 0.1
    }
  }
}
layer {
  name: "relu7"
  type: "ReLU"
  bottom: "fc7"
  top: "fc7"
}
layer {
  name: "drop7"
  type: "Dropout"
  bottom: "fc7"
  top: "fc7"
  dropout_param {
    dropout_ratio: 0.5
  }
}
layer {
  name: "fc8_plantvillage"
  type: "InnerProduct"
  bottom: "fc7"
  top: "fc8_plantvillage"
  param {
    lr_mult: 1
    decay_mult: 1
  }
  param {
    lr_mult: 2
    decay_mult: 0
  }
  inner_product_param {
    num_output: 38
    weight_filler {
      type: "gaussian"
      std: 0.01
    }
    bias_filler {
      type: "constant"
      value: 0
    }
  }
}
layer {
  name: "prob"
  type: "Softmax"
  bottom: "fc8_plantvillage"
  top: "prob"
  include {
    phase: TEST
  }
}
layer {
  name: "hdf5out"
  type: "HDF5Output"
  bottom: "prob"
  bottom: "label"
  include {
    phase: TEST
  }
  hdf5_output_param {
    file_name: "hdf5_dumps/iter_4360.h5"
  }
}
layer {
  name: "loss"
  type: "SoftmaxWithLoss"
  bottom: "fc8_plantvillage"
  bottom: "label"
  top: "loss"
}
layer {
  name: "accuracy"
  type: "Accuracy"
  bottom: "fc8_plantvillage"
  bottom: "label"
  top: "accuracy"
  include {
    phase: TEST
  }
}
I0403 13:27:13.379164 11284 layer_factory.hpp:77] Creating layer data
I0403 13:27:13.379812 11284 net.cpp:91] Creating Layer data
I0403 13:27:13.379842 11284 net.cpp:399] data -> data
I0403 13:27:13.379896 11284 net.cpp:399] data -> label
I0403 13:27:13.379935 11284 data_transformer.cpp:25] Loading mean file from: /home/mohanty/data/final_dataset/lmdb/grayscale-80-20/mean.binaryproto
I0403 13:27:13.382655 11287 db_lmdb.cpp:38] Opened lmdb /home/mohanty/data/final_dataset/lmdb/grayscale-80-20/test_db
I0403 13:27:13.394001 11284 data_layer.cpp:41] output data size: 100,3,227,227
I0403 13:27:13.509965 11284 net.cpp:141] Setting up data
I0403 13:27:13.510061 11284 net.cpp:148] Top shape: 100 3 227 227 (15458700)
I0403 13:27:13.510085 11284 net.cpp:148] Top shape: 100 (100)
I0403 13:27:13.510102 11284 net.cpp:156] Memory required for data: 61835200
I0403 13:27:13.510130 11284 layer_factory.hpp:77] Creating layer label_data_1_split
I0403 13:27:13.510157 11284 net.cpp:91] Creating Layer label_data_1_split
I0403 13:27:13.510176 11284 net.cpp:425] label_data_1_split <- label
I0403 13:27:13.510210 11284 net.cpp:399] label_data_1_split -> label_data_1_split_0
I0403 13:27:13.510238 11284 net.cpp:399] label_data_1_split -> label_data_1_split_1
I0403 13:27:13.510260 11284 net.cpp:399] label_data_1_split -> label_data_1_split_2
I0403 13:27:13.510325 11284 net.cpp:141] Setting up label_data_1_split
I0403 13:27:13.510350 11284 net.cpp:148] Top shape: 100 (100)
I0403 13:27:13.510367 11284 net.cpp:148] Top shape: 100 (100)
I0403 13:27:13.510385 11284 net.cpp:148] Top shape: 100 (100)
I0403 13:27:13.510398 11284 net.cpp:156] Memory required for data: 61836400
I0403 13:27:13.510413 11284 layer_factory.hpp:77] Creating layer conv1
I0403 13:27:13.510447 11284 net.cpp:91] Creating Layer conv1
I0403 13:27:13.510465 11284 net.cpp:425] conv1 <- data
I0403 13:27:13.510486 11284 net.cpp:399] conv1 -> conv1
I0403 13:27:13.665313 11284 net.cpp:141] Setting up conv1
I0403 13:27:13.665395 11284 net.cpp:148] Top shape: 100 96 55 55 (29040000)
I0403 13:27:13.665413 11284 net.cpp:156] Memory required for data: 177996400
I0403 13:27:13.665446 11284 layer_factory.hpp:77] Creating layer relu1
I0403 13:27:13.665474 11284 net.cpp:91] Creating Layer relu1
I0403 13:27:13.665494 11284 net.cpp:425] relu1 <- conv1
I0403 13:27:13.665514 11284 net.cpp:386] relu1 -> conv1 (in-place)
I0403 13:27:13.665796 11284 net.cpp:141] Setting up relu1
I0403 13:27:13.665824 11284 net.cpp:148] Top shape: 100 96 55 55 (29040000)
I0403 13:27:13.665876 11284 net.cpp:156] Memory required for data: 294156400
I0403 13:27:13.665894 11284 layer_factory.hpp:77] Creating layer norm1
I0403 13:27:13.665922 11284 net.cpp:91] Creating Layer norm1
I0403 13:27:13.665941 11284 net.cpp:425] norm1 <- conv1
I0403 13:27:13.665961 11284 net.cpp:399] norm1 -> norm1
I0403 13:27:13.666275 11284 net.cpp:141] Setting up norm1
I0403 13:27:13.666306 11284 net.cpp:148] Top shape: 100 96 55 55 (29040000)
I0403 13:27:13.666321 11284 net.cpp:156] Memory required for data: 410316400
I0403 13:27:13.666337 11284 layer_factory.hpp:77] Creating layer pool1
I0403 13:27:13.666360 11284 net.cpp:91] Creating Layer pool1
I0403 13:27:13.666379 11284 net.cpp:425] pool1 <- norm1
I0403 13:27:13.666398 11284 net.cpp:399] pool1 -> pool1
I0403 13:27:13.666468 11284 net.cpp:141] Setting up pool1
I0403 13:27:13.666494 11284 net.cpp:148] Top shape: 100 96 27 27 (6998400)
I0403 13:27:13.666509 11284 net.cpp:156] Memory required for data: 438310000
I0403 13:27:13.666525 11284 layer_factory.hpp:77] Creating layer conv2
I0403 13:27:13.666550 11284 net.cpp:91] Creating Layer conv2
I0403 13:27:13.666574 11284 net.cpp:425] conv2 <- pool1
I0403 13:27:13.666594 11284 net.cpp:399] conv2 -> conv2
I0403 13:27:13.683226 11284 net.cpp:141] Setting up conv2
I0403 13:27:13.683266 11284 net.cpp:148] Top shape: 100 256 27 27 (18662400)
I0403 13:27:13.683284 11284 net.cpp:156] Memory required for data: 512959600
I0403 13:27:13.683306 11284 layer_factory.hpp:77] Creating layer relu2
I0403 13:27:13.683326 11284 net.cpp:91] Creating Layer relu2
I0403 13:27:13.683342 11284 net.cpp:425] relu2 <- conv2
I0403 13:27:13.683359 11284 net.cpp:386] relu2 -> conv2 (in-place)
I0403 13:27:13.683624 11284 net.cpp:141] Setting up relu2
I0403 13:27:13.683651 11284 net.cpp:148] Top shape: 100 256 27 27 (18662400)
I0403 13:27:13.683667 11284 net.cpp:156] Memory required for data: 587609200
I0403 13:27:13.683683 11284 layer_factory.hpp:77] Creating layer norm2
I0403 13:27:13.683703 11284 net.cpp:91] Creating Layer norm2
I0403 13:27:13.683722 11284 net.cpp:425] norm2 <- conv2
I0403 13:27:13.683782 11284 net.cpp:399] norm2 -> norm2
I0403 13:27:13.683972 11284 net.cpp:141] Setting up norm2
I0403 13:27:13.684000 11284 net.cpp:148] Top shape: 100 256 27 27 (18662400)
I0403 13:27:13.684015 11284 net.cpp:156] Memory required for data: 662258800
I0403 13:27:13.684029 11284 layer_factory.hpp:77] Creating layer pool2
I0403 13:27:13.684047 11284 net.cpp:91] Creating Layer pool2
I0403 13:27:13.684063 11284 net.cpp:425] pool2 <- norm2
I0403 13:27:13.684082 11284 net.cpp:399] pool2 -> pool2
I0403 13:27:13.684130 11284 net.cpp:141] Setting up pool2
I0403 13:27:13.684154 11284 net.cpp:148] Top shape: 100 256 13 13 (4326400)
I0403 13:27:13.684170 11284 net.cpp:156] Memory required for data: 679564400
I0403 13:27:13.684185 11284 layer_factory.hpp:77] Creating layer conv3
I0403 13:27:13.684204 11284 net.cpp:91] Creating Layer conv3
I0403 13:27:13.684221 11284 net.cpp:425] conv3 <- pool2
I0403 13:27:13.684240 11284 net.cpp:399] conv3 -> conv3
I0403 13:27:13.726274 11284 net.cpp:141] Setting up conv3
I0403 13:27:13.726333 11284 net.cpp:148] Top shape: 100 384 13 13 (6489600)
I0403 13:27:13.726351 11284 net.cpp:156] Memory required for data: 705522800
I0403 13:27:13.726374 11284 layer_factory.hpp:77] Creating layer relu3
I0403 13:27:13.726398 11284 net.cpp:91] Creating Layer relu3
I0403 13:27:13.726418 11284 net.cpp:425] relu3 <- conv3
I0403 13:27:13.726436 11284 net.cpp:386] relu3 -> conv3 (in-place)
I0403 13:27:13.726716 11284 net.cpp:141] Setting up relu3
I0403 13:27:13.726744 11284 net.cpp:148] Top shape: 100 384 13 13 (6489600)
I0403 13:27:13.726759 11284 net.cpp:156] Memory required for data: 731481200
I0403 13:27:13.726775 11284 layer_factory.hpp:77] Creating layer conv4
I0403 13:27:13.726801 11284 net.cpp:91] Creating Layer conv4
I0403 13:27:13.726824 11284 net.cpp:425] conv4 <- conv3
I0403 13:27:13.726842 11284 net.cpp:399] conv4 -> conv4
I0403 13:27:13.756428 11284 net.cpp:141] Setting up conv4
I0403 13:27:13.756480 11284 net.cpp:148] Top shape: 100 384 13 13 (6489600)
I0403 13:27:13.756541 11284 net.cpp:156] Memory required for data: 757439600
I0403 13:27:13.756561 11284 layer_factory.hpp:77] Creating layer relu4
I0403 13:27:13.756590 11284 net.cpp:91] Creating Layer relu4
I0403 13:27:13.756610 11284 net.cpp:425] relu4 <- conv4
I0403 13:27:13.756628 11284 net.cpp:386] relu4 -> conv4 (in-place)
I0403 13:27:13.756906 11284 net.cpp:141] Setting up relu4
I0403 13:27:13.756933 11284 net.cpp:148] Top shape: 100 384 13 13 (6489600)
I0403 13:27:13.756948 11284 net.cpp:156] Memory required for data: 783398000
I0403 13:27:13.756963 11284 layer_factory.hpp:77] Creating layer conv5
I0403 13:27:13.756989 11284 net.cpp:91] Creating Layer conv5
I0403 13:27:13.757007 11284 net.cpp:425] conv5 <- conv4
I0403 13:27:13.757030 11284 net.cpp:399] conv5 -> conv5
I0403 13:27:13.777400 11284 net.cpp:141] Setting up conv5
I0403 13:27:13.777437 11284 net.cpp:148] Top shape: 100 256 13 13 (4326400)
I0403 13:27:13.777454 11284 net.cpp:156] Memory required for data: 800703600
I0403 13:27:13.777480 11284 layer_factory.hpp:77] Creating layer relu5
I0403 13:27:13.777503 11284 net.cpp:91] Creating Layer relu5
I0403 13:27:13.777519 11284 net.cpp:425] relu5 <- conv5
I0403 13:27:13.777536 11284 net.cpp:386] relu5 -> conv5 (in-place)
I0403 13:27:13.777820 11284 net.cpp:141] Setting up relu5
I0403 13:27:13.777848 11284 net.cpp:148] Top shape: 100 256 13 13 (4326400)
I0403 13:27:13.777865 11284 net.cpp:156] Memory required for data: 818009200
I0403 13:27:13.777884 11284 layer_factory.hpp:77] Creating layer pool5
I0403 13:27:13.777910 11284 net.cpp:91] Creating Layer pool5
I0403 13:27:13.777930 11284 net.cpp:425] pool5 <- conv5
I0403 13:27:13.777948 11284 net.cpp:399] pool5 -> pool5
I0403 13:27:13.778012 11284 net.cpp:141] Setting up pool5
I0403 13:27:13.778038 11284 net.cpp:148] Top shape: 100 256 6 6 (921600)
I0403 13:27:13.778053 11284 net.cpp:156] Memory required for data: 821695600
I0403 13:27:13.778067 11284 layer_factory.hpp:77] Creating layer fc6
I0403 13:27:13.778095 11284 net.cpp:91] Creating Layer fc6
I0403 13:27:13.778115 11284 net.cpp:425] fc6 <- pool5
I0403 13:27:13.778136 11284 net.cpp:399] fc6 -> fc6
I0403 13:27:15.359675 11284 net.cpp:141] Setting up fc6
I0403 13:27:15.359755 11284 net.cpp:148] Top shape: 100 4096 (409600)
I0403 13:27:15.359771 11284 net.cpp:156] Memory required for data: 823334000
I0403 13:27:15.359793 11284 layer_factory.hpp:77] Creating layer relu6
I0403 13:27:15.359815 11284 net.cpp:91] Creating Layer relu6
I0403 13:27:15.359833 11284 net.cpp:425] relu6 <- fc6
I0403 13:27:15.359863 11284 net.cpp:386] relu6 -> fc6 (in-place)
I0403 13:27:15.360087 11284 net.cpp:141] Setting up relu6
I0403 13:27:15.360113 11284 net.cpp:148] Top shape: 100 4096 (409600)
I0403 13:27:15.360128 11284 net.cpp:156] Memory required for data: 824972400
I0403 13:27:15.360151 11284 layer_factory.hpp:77] Creating layer drop6
I0403 13:27:15.360172 11284 net.cpp:91] Creating Layer drop6
I0403 13:27:15.360188 11284 net.cpp:425] drop6 <- fc6
I0403 13:27:15.360205 11284 net.cpp:386] drop6 -> fc6 (in-place)
I0403 13:27:15.360260 11284 net.cpp:141] Setting up drop6
I0403 13:27:15.360282 11284 net.cpp:148] Top shape: 100 4096 (409600)
I0403 13:27:15.360297 11284 net.cpp:156] Memory required for data: 826610800
I0403 13:27:15.360312 11284 layer_factory.hpp:77] Creating layer fc7
I0403 13:27:15.360332 11284 net.cpp:91] Creating Layer fc7
I0403 13:27:15.360352 11284 net.cpp:425] fc7 <- fc6
I0403 13:27:15.360369 11284 net.cpp:399] fc7 -> fc7
I0403 13:27:16.043720 11284 net.cpp:141] Setting up fc7
I0403 13:27:16.043761 11284 net.cpp:148] Top shape: 100 4096 (409600)
I0403 13:27:16.043777 11284 net.cpp:156] Memory required for data: 828249200
I0403 13:27:16.043797 11284 layer_factory.hpp:77] Creating layer relu7
I0403 13:27:16.043822 11284 net.cpp:91] Creating Layer relu7
I0403 13:27:16.043840 11284 net.cpp:425] relu7 <- fc7
I0403 13:27:16.043859 11284 net.cpp:386] relu7 -> fc7 (in-place)
I0403 13:27:16.044291 11284 net.cpp:141] Setting up relu7
I0403 13:27:16.044317 11284 net.cpp:148] Top shape: 100 4096 (409600)
I0403 13:27:16.044370 11284 net.cpp:156] Memory required for data: 829887600
I0403 13:27:16.044385 11284 layer_factory.hpp:77] Creating layer drop7
I0403 13:27:16.044407 11284 net.cpp:91] Creating Layer drop7
I0403 13:27:16.044425 11284 net.cpp:425] drop7 <- fc7
I0403 13:27:16.044441 11284 net.cpp:386] drop7 -> fc7 (in-place)
I0403 13:27:16.044486 11284 net.cpp:141] Setting up drop7
I0403 13:27:16.044508 11284 net.cpp:148] Top shape: 100 4096 (409600)
I0403 13:27:16.044523 11284 net.cpp:156] Memory required for data: 831526000
I0403 13:27:16.044536 11284 layer_factory.hpp:77] Creating layer fc8_plantvillage
I0403 13:27:16.044555 11284 net.cpp:91] Creating Layer fc8_plantvillage
I0403 13:27:16.044589 11284 net.cpp:425] fc8_plantvillage <- fc7
I0403 13:27:16.044611 11284 net.cpp:399] fc8_plantvillage -> fc8_plantvillage
I0403 13:27:16.051246 11284 net.cpp:141] Setting up fc8_plantvillage
I0403 13:27:16.051275 11284 net.cpp:148] Top shape: 100 38 (3800)
I0403 13:27:16.051291 11284 net.cpp:156] Memory required for data: 831541200
I0403 13:27:16.051309 11284 layer_factory.hpp:77] Creating layer fc8_plantvillage_fc8_plantvillage_0_split
I0403 13:27:16.051327 11284 net.cpp:91] Creating Layer fc8_plantvillage_fc8_plantvillage_0_split
I0403 13:27:16.051342 11284 net.cpp:425] fc8_plantvillage_fc8_plantvillage_0_split <- fc8_plantvillage
I0403 13:27:16.051358 11284 net.cpp:399] fc8_plantvillage_fc8_plantvillage_0_split -> fc8_plantvillage_fc8_plantvillage_0_split_0
I0403 13:27:16.051378 11284 net.cpp:399] fc8_plantvillage_fc8_plantvillage_0_split -> fc8_plantvillage_fc8_plantvillage_0_split_1
I0403 13:27:16.051398 11284 net.cpp:399] fc8_plantvillage_fc8_plantvillage_0_split -> fc8_plantvillage_fc8_plantvillage_0_split_2
I0403 13:27:16.051476 11284 net.cpp:141] Setting up fc8_plantvillage_fc8_plantvillage_0_split
I0403 13:27:16.051498 11284 net.cpp:148] Top shape: 100 38 (3800)
I0403 13:27:16.051515 11284 net.cpp:148] Top shape: 100 38 (3800)
I0403 13:27:16.051530 11284 net.cpp:148] Top shape: 100 38 (3800)
I0403 13:27:16.051544 11284 net.cpp:156] Memory required for data: 831586800
I0403 13:27:16.051558 11284 layer_factory.hpp:77] Creating layer prob
I0403 13:27:16.051583 11284 net.cpp:91] Creating Layer prob
I0403 13:27:16.051599 11284 net.cpp:425] prob <- fc8_plantvillage_fc8_plantvillage_0_split_0
I0403 13:27:16.051615 11284 net.cpp:399] prob -> prob
I0403 13:27:16.051853 11284 net.cpp:141] Setting up prob
I0403 13:27:16.051879 11284 net.cpp:148] Top shape: 100 38 (3800)
I0403 13:27:16.051894 11284 net.cpp:156] Memory required for data: 831602000
I0403 13:27:16.051908 11284 layer_factory.hpp:77] Creating layer hdf5out
I0403 13:27:16.051930 11284 net.cpp:91] Creating Layer hdf5out
I0403 13:27:16.051959 11284 net.cpp:425] hdf5out <- prob
I0403 13:27:16.051975 11284 net.cpp:425] hdf5out <- label_data_1_split_0
I0403 13:27:16.054224 11284 net.cpp:141] Setting up hdf5out
…
