…
I0403 13:32:41.773852 11596 net.cpp:313] The NetState phase (1) differed from the phase (0) specified by a rule in layer data
I0403 13:32:41.774160 11596 net.cpp:49] Initializing net from parameters: 
state {
  phase: TEST
}
layer {
  name: "data"
  type: "Data"
  top: "data"
  top: "label"
  include {
    phase: TEST
  }
  transform_param {
    crop_size: 227
    mean_file: "/home/mohanty/data/final_dataset/lmdb/grayscale-80-20/mean.binaryproto"
  }
  data_param {
    source: "/home/mohanty/data/final_dataset/lmdb/grayscale-80-20/test_db"
    batch_size: 100
    backend: LMDB
  }
}
layer {
  name: "conv1"
  type: "Convolution"
  bottom: "data"
  top: "conv1"
  param {
    lr_mult: 1
    decay_mult: 1
  }
  param {
    lr_mult: 2
    decay_mult: 0
  }
  convolution_param {
    num_output: 96
    kernel_size: 11
    stride: 4
    weight_filler {
      type: "gaussian"
      std: 0.01
    }
    bias_filler {
      type: "constant"
      value: 0
    }
  }
}
layer {
  name: "relu1"
  type: "ReLU"
  bottom: "conv1"
  top: "conv1"
}
layer {
  name: "norm1"
  type: "LRN"
  bottom: "conv1"
  top: "norm1"
  lrn_param {
    local_size: 5
    alpha: 0.0001
    beta: 0.75
  }
}
layer {
  name: "pool1"
  type: "Pooling"
  bottom: "norm1"
  top: "pool1"
  pooling_param {
    pool: MAX
    kernel_size: 3
    stride: 2
  }
}
layer {
  name: "conv2"
  type: "Convolution"
  bottom: "pool1"
  top: "conv2"
  param {
    lr_mult: 1
    decay_mult: 1
  }
  param {
    lr_mult: 2
    decay_mult: 0
  }
  convolution_param {
    num_output: 256
    pad: 2
    kernel_size: 5
    group: 2
    weight_filler {
      type: "gaussian"
      std: 0.01
    }
    bias_filler {
      type: "constant"
      value: 0.1
    }
  }
}
layer {
  name: "relu2"
  type: "ReLU"
  bottom: "conv2"
  top: "conv2"
}
layer {
  name: "norm2"
  type: "LRN"
  bottom: "conv2"
  top: "norm2"
  lrn_param {
    local_size: 5
    alpha: 0.0001
    beta: 0.75
  }
}
layer {
  name: "pool2"
  type: "Pooling"
  bottom: "norm2"
  top: "pool2"
  pooling_param {
    pool: MAX
    kernel_size: 3
    stride: 2
  }
}
layer {
  name: "conv3"
  type: "Convolution"
  bottom: "pool2"
  top: "conv3"
  param {
    lr_mult: 1
    decay_mult: 1
  }
  param {
    lr_mult: 2
    decay_mult: 0
  }
  convolution_param {
    num_output: 384
    pad: 1
    kernel_size: 3
    weight_filler {
      type: "gaussian"
      std: 0.01
    }
    bias_filler {
      type: "constant"
      value: 0
    }
  }
}
layer {
  name: "relu3"
  type: "ReLU"
  bottom: "conv3"
  top: "conv3"
}
layer {
  name: "conv4"
  type: "Convolution"
  bottom: "conv3"
  top: "conv4"
  param {
    lr_mult: 1
    decay_mult: 1
  }
  param {
    lr_mult: 2
    decay_mult: 0
  }
  convolution_param {
    num_output: 384
    pad: 1
    kernel_size: 3
    group: 2
    weight_filler {
      type: "gaussian"
      std: 0.01
    }
    bias_filler {
      type: "constant"
      value: 0.1
    }
  }
}
layer {
  name: "relu4"
  type: "ReLU"
  bottom: "conv4"
  top: "conv4"
}
layer {
  name: "conv5"
  type: "Convolution"
  bottom: "conv4"
  top: "conv5"
  param {
    lr_mult: 1
    decay_mult: 1
  }
  param {
    lr_mult: 2
    decay_mult: 0
  }
  convolution_param {
    num_output: 256
    pad: 1
    kernel_size: 3
    group: 2
    weight_filler {
      type: "gaussian"
      std: 0.01
    }
    bias_filler {
      type: "constant"
      value: 0.1
    }
  }
}
layer {
  name: "relu5"
  type: "ReLU"
  bottom: "conv5"
  top: "conv5"
}
layer {
  name: "pool5"
  type: "Pooling"
  bottom: "conv5"
  top: "pool5"
  pooling_param {
    pool: MAX
    kernel_size: 3
    stride: 2
  }
}
layer {
  name: "fc6"
  type: "InnerProduct"
  bottom: "pool5"
  top: "fc6"
  param {
    lr_mult: 1
    decay_mult: 1
  }
  param {
    lr_mult: 2
    decay_mult: 0
  }
  inner_product_param {
    num_output: 4096
    weight_filler {
      type: "gaussian"
      std: 0.005
    }
    bias_filler {
      type: "constant"
      value: 0.1
    }
  }
}
layer {
  name: "relu6"
  type: "ReLU"
  bottom: "fc6"
  top: "fc6"
}
layer {
  name: "drop6"
  type: "Dropout"
  bottom: "fc6"
  top: "fc6"
  dropout_param {
    dropout_ratio: 0.5
  }
}
layer {
  name: "fc7"
  type: "InnerProduct"
  bottom: "fc6"
  top: "fc7"
  param {
    lr_mult: 1
    decay_mult: 1
  }
  param {
    lr_mult: 2
    decay_mult: 0
  }
  inner_product_param {
    num_output: 4096
    weight_filler {
      type: "gaussian"
      std: 0.005
    }
    bias_filler {
      type: "constant"
      value: 0.1
    }
  }
}
layer {
  name: "relu7"
  type: "ReLU"
  bottom: "fc7"
  top: "fc7"
}
layer {
  name: "drop7"
  type: "Dropout"
  bottom: "fc7"
  top: "fc7"
  dropout_param {
    dropout_ratio: 0.5
  }
}
layer {
  name: "fc8_plantvillage"
  type: "InnerProduct"
  bottom: "fc7"
  top: "fc8_plantvillage"
  param {
    lr_mult: 1
    decay_mult: 1
  }
  param {
    lr_mult: 2
    decay_mult: 0
  }
  inner_product_param {
    num_output: 38
    weight_filler {
      type: "gaussian"
      std: 0.01
    }
    bias_filler {
      type: "constant"
      value: 0
    }
  }
}
layer {
  name: "prob"
  type: "Softmax"
  bottom: "fc8_plantvillage"
  top: "prob"
  include {
    phase: TEST
  }
}
layer {
  name: "hdf5out"
  type: "HDF5Output"
  bottom: "prob"
  bottom: "label"
  include {
    phase: TEST
  }
  hdf5_output_param {
    file_name: "hdf5_dumps/iter_10028.h5"
  }
}
layer {
  name: "loss"
  type: "SoftmaxWithLoss"
  bottom: "fc8_plantvillage"
  bottom: "label"
  top: "loss"
}
layer {
  name: "accuracy"
  type: "Accuracy"
  bottom: "fc8_plantvillage"
  bottom: "label"
  top: "accuracy"
  include {
    phase: TEST
  }
}
I0403 13:32:41.774735 11596 layer_factory.hpp:77] Creating layer data
I0403 13:32:41.775372 11596 net.cpp:91] Creating Layer data
I0403 13:32:41.775413 11596 net.cpp:399] data -> data
I0403 13:32:41.775468 11596 net.cpp:399] data -> label
I0403 13:32:41.775506 11596 data_transformer.cpp:25] Loading mean file from: /home/mohanty/data/final_dataset/lmdb/grayscale-80-20/mean.binaryproto
I0403 13:32:41.778826 11599 db_lmdb.cpp:38] Opened lmdb /home/mohanty/data/final_dataset/lmdb/grayscale-80-20/test_db
I0403 13:32:41.789655 11596 data_layer.cpp:41] output data size: 100,3,227,227
I0403 13:32:41.910766 11596 net.cpp:141] Setting up data
I0403 13:32:41.910835 11596 net.cpp:148] Top shape: 100 3 227 227 (15458700)
I0403 13:32:41.910858 11596 net.cpp:148] Top shape: 100 (100)
I0403 13:32:41.910873 11596 net.cpp:156] Memory required for data: 61835200
I0403 13:32:41.910902 11596 layer_factory.hpp:77] Creating layer label_data_1_split
I0403 13:32:41.910928 11596 net.cpp:91] Creating Layer label_data_1_split
I0403 13:32:41.910944 11596 net.cpp:425] label_data_1_split <- label
I0403 13:32:41.910977 11596 net.cpp:399] label_data_1_split -> label_data_1_split_0
I0403 13:32:41.911005 11596 net.cpp:399] label_data_1_split -> label_data_1_split_1
I0403 13:32:41.911025 11596 net.cpp:399] label_data_1_split -> label_data_1_split_2
I0403 13:32:41.911087 11596 net.cpp:141] Setting up label_data_1_split
I0403 13:32:41.911109 11596 net.cpp:148] Top shape: 100 (100)
I0403 13:32:41.911125 11596 net.cpp:148] Top shape: 100 (100)
I0403 13:32:41.911141 11596 net.cpp:148] Top shape: 100 (100)
I0403 13:32:41.911155 11596 net.cpp:156] Memory required for data: 61836400
I0403 13:32:41.911170 11596 layer_factory.hpp:77] Creating layer conv1
I0403 13:32:41.911202 11596 net.cpp:91] Creating Layer conv1
I0403 13:32:41.911221 11596 net.cpp:425] conv1 <- data
I0403 13:32:41.911240 11596 net.cpp:399] conv1 -> conv1
I0403 13:32:42.048192 11596 net.cpp:141] Setting up conv1
I0403 13:32:42.048272 11596 net.cpp:148] Top shape: 100 96 55 55 (29040000)
I0403 13:32:42.048290 11596 net.cpp:156] Memory required for data: 177996400
I0403 13:32:42.048321 11596 layer_factory.hpp:77] Creating layer relu1
I0403 13:32:42.048347 11596 net.cpp:91] Creating Layer relu1
I0403 13:32:42.048365 11596 net.cpp:425] relu1 <- conv1
I0403 13:32:42.048387 11596 net.cpp:386] relu1 -> conv1 (in-place)
I0403 13:32:42.048647 11596 net.cpp:141] Setting up relu1
I0403 13:32:42.048674 11596 net.cpp:148] Top shape: 100 96 55 55 (29040000)
I0403 13:32:42.048724 11596 net.cpp:156] Memory required for data: 294156400
I0403 13:32:42.048740 11596 layer_factory.hpp:77] Creating layer norm1
I0403 13:32:42.048768 11596 net.cpp:91] Creating Layer norm1
I0403 13:32:42.048785 11596 net.cpp:425] norm1 <- conv1
I0403 13:32:42.048804 11596 net.cpp:399] norm1 -> norm1
I0403 13:32:42.049098 11596 net.cpp:141] Setting up norm1
I0403 13:32:42.049125 11596 net.cpp:148] Top shape: 100 96 55 55 (29040000)
I0403 13:32:42.049141 11596 net.cpp:156] Memory required for data: 410316400
I0403 13:32:42.049156 11596 layer_factory.hpp:77] Creating layer pool1
I0403 13:32:42.049180 11596 net.cpp:91] Creating Layer pool1
I0403 13:32:42.049196 11596 net.cpp:425] pool1 <- norm1
I0403 13:32:42.049213 11596 net.cpp:399] pool1 -> pool1
I0403 13:32:42.049278 11596 net.cpp:141] Setting up pool1
I0403 13:32:42.049301 11596 net.cpp:148] Top shape: 100 96 27 27 (6998400)
I0403 13:32:42.049315 11596 net.cpp:156] Memory required for data: 438310000
I0403 13:32:42.049330 11596 layer_factory.hpp:77] Creating layer conv2
I0403 13:32:42.049355 11596 net.cpp:91] Creating Layer conv2
I0403 13:32:42.049371 11596 net.cpp:425] conv2 <- pool1
I0403 13:32:42.049388 11596 net.cpp:399] conv2 -> conv2
I0403 13:32:42.063900 11596 net.cpp:141] Setting up conv2
I0403 13:32:42.063936 11596 net.cpp:148] Top shape: 100 256 27 27 (18662400)
I0403 13:32:42.063953 11596 net.cpp:156] Memory required for data: 512959600
I0403 13:32:42.063976 11596 layer_factory.hpp:77] Creating layer relu2
I0403 13:32:42.063997 11596 net.cpp:91] Creating Layer relu2
I0403 13:32:42.064013 11596 net.cpp:425] relu2 <- conv2
I0403 13:32:42.064029 11596 net.cpp:386] relu2 -> conv2 (in-place)
I0403 13:32:42.064298 11596 net.cpp:141] Setting up relu2
I0403 13:32:42.064324 11596 net.cpp:148] Top shape: 100 256 27 27 (18662400)
I0403 13:32:42.064340 11596 net.cpp:156] Memory required for data: 587609200
I0403 13:32:42.064355 11596 layer_factory.hpp:77] Creating layer norm2
I0403 13:32:42.064376 11596 net.cpp:91] Creating Layer norm2
I0403 13:32:42.064393 11596 net.cpp:425] norm2 <- conv2
I0403 13:32:42.064411 11596 net.cpp:399] norm2 -> norm2
I0403 13:32:42.064612 11596 net.cpp:141] Setting up norm2
I0403 13:32:42.064638 11596 net.cpp:148] Top shape: 100 256 27 27 (18662400)
I0403 13:32:42.064654 11596 net.cpp:156] Memory required for data: 662258800
I0403 13:32:42.064668 11596 layer_factory.hpp:77] Creating layer pool2
I0403 13:32:42.064689 11596 net.cpp:91] Creating Layer pool2
I0403 13:32:42.064707 11596 net.cpp:425] pool2 <- norm2
I0403 13:32:42.064724 11596 net.cpp:399] pool2 -> pool2
I0403 13:32:42.064779 11596 net.cpp:141] Setting up pool2
I0403 13:32:42.064801 11596 net.cpp:148] Top shape: 100 256 13 13 (4326400)
I0403 13:32:42.064818 11596 net.cpp:156] Memory required for data: 679564400
I0403 13:32:42.064834 11596 layer_factory.hpp:77] Creating layer conv3
I0403 13:32:42.064859 11596 net.cpp:91] Creating Layer conv3
I0403 13:32:42.064877 11596 net.cpp:425] conv3 <- pool2
I0403 13:32:42.064898 11596 net.cpp:399] conv3 -> conv3
I0403 13:32:42.103889 11596 net.cpp:141] Setting up conv3
I0403 13:32:42.103963 11596 net.cpp:148] Top shape: 100 384 13 13 (6489600)
I0403 13:32:42.103981 11596 net.cpp:156] Memory required for data: 705522800
I0403 13:32:42.104006 11596 layer_factory.hpp:77] Creating layer relu3
I0403 13:32:42.104029 11596 net.cpp:91] Creating Layer relu3
I0403 13:32:42.104048 11596 net.cpp:425] relu3 <- conv3
I0403 13:32:42.104066 11596 net.cpp:386] relu3 -> conv3 (in-place)
I0403 13:32:42.104337 11596 net.cpp:141] Setting up relu3
I0403 13:32:42.104363 11596 net.cpp:148] Top shape: 100 384 13 13 (6489600)
I0403 13:32:42.104378 11596 net.cpp:156] Memory required for data: 731481200
I0403 13:32:42.104393 11596 layer_factory.hpp:77] Creating layer conv4
I0403 13:32:42.104420 11596 net.cpp:91] Creating Layer conv4
I0403 13:32:42.104439 11596 net.cpp:425] conv4 <- conv3
I0403 13:32:42.104457 11596 net.cpp:399] conv4 -> conv4
I0403 13:32:42.139226 11596 net.cpp:141] Setting up conv4
I0403 13:32:42.139276 11596 net.cpp:148] Top shape: 100 384 13 13 (6489600)
I0403 13:32:42.139324 11596 net.cpp:156] Memory required for data: 757439600
I0403 13:32:42.139345 11596 layer_factory.hpp:77] Creating layer relu4
I0403 13:32:42.139367 11596 net.cpp:91] Creating Layer relu4
I0403 13:32:42.139384 11596 net.cpp:425] relu4 <- conv4
I0403 13:32:42.139402 11596 net.cpp:386] relu4 -> conv4 (in-place)
I0403 13:32:42.139684 11596 net.cpp:141] Setting up relu4
I0403 13:32:42.139710 11596 net.cpp:148] Top shape: 100 384 13 13 (6489600)
I0403 13:32:42.139725 11596 net.cpp:156] Memory required for data: 783398000
I0403 13:32:42.139740 11596 layer_factory.hpp:77] Creating layer conv5
I0403 13:32:42.139765 11596 net.cpp:91] Creating Layer conv5
I0403 13:32:42.139786 11596 net.cpp:425] conv5 <- conv4
I0403 13:32:42.139807 11596 net.cpp:399] conv5 -> conv5
I0403 13:32:42.159997 11596 net.cpp:141] Setting up conv5
I0403 13:32:42.160039 11596 net.cpp:148] Top shape: 100 256 13 13 (4326400)
I0403 13:32:42.160056 11596 net.cpp:156] Memory required for data: 800703600
I0403 13:32:42.160084 11596 layer_factory.hpp:77] Creating layer relu5
I0403 13:32:42.160105 11596 net.cpp:91] Creating Layer relu5
I0403 13:32:42.160122 11596 net.cpp:425] relu5 <- conv5
I0403 13:32:42.160140 11596 net.cpp:386] relu5 -> conv5 (in-place)
I0403 13:32:42.160420 11596 net.cpp:141] Setting up relu5
I0403 13:32:42.160449 11596 net.cpp:148] Top shape: 100 256 13 13 (4326400)
I0403 13:32:42.160466 11596 net.cpp:156] Memory required for data: 818009200
I0403 13:32:42.160481 11596 layer_factory.hpp:77] Creating layer pool5
I0403 13:32:42.160503 11596 net.cpp:91] Creating Layer pool5
I0403 13:32:42.160521 11596 net.cpp:425] pool5 <- conv5
I0403 13:32:42.160544 11596 net.cpp:399] pool5 -> pool5
I0403 13:32:42.160609 11596 net.cpp:141] Setting up pool5
I0403 13:32:42.160632 11596 net.cpp:148] Top shape: 100 256 6 6 (921600)
I0403 13:32:42.160647 11596 net.cpp:156] Memory required for data: 821695600
I0403 13:32:42.160661 11596 layer_factory.hpp:77] Creating layer fc6
I0403 13:32:42.160691 11596 net.cpp:91] Creating Layer fc6
I0403 13:32:42.160709 11596 net.cpp:425] fc6 <- pool5
I0403 13:32:42.160729 11596 net.cpp:399] fc6 -> fc6
I0403 13:32:43.693847 11596 net.cpp:141] Setting up fc6
I0403 13:32:43.693907 11596 net.cpp:148] Top shape: 100 4096 (409600)
I0403 13:32:43.693922 11596 net.cpp:156] Memory required for data: 823334000
I0403 13:32:43.693943 11596 layer_factory.hpp:77] Creating layer relu6
I0403 13:32:43.693965 11596 net.cpp:91] Creating Layer relu6
I0403 13:32:43.693982 11596 net.cpp:425] relu6 <- fc6
I0403 13:32:43.694005 11596 net.cpp:386] relu6 -> fc6 (in-place)
I0403 13:32:43.694221 11596 net.cpp:141] Setting up relu6
I0403 13:32:43.694247 11596 net.cpp:148] Top shape: 100 4096 (409600)
I0403 13:32:43.694262 11596 net.cpp:156] Memory required for data: 824972400
I0403 13:32:43.694277 11596 layer_factory.hpp:77] Creating layer drop6
I0403 13:32:43.694298 11596 net.cpp:91] Creating Layer drop6
I0403 13:32:43.694314 11596 net.cpp:425] drop6 <- fc6
I0403 13:32:43.694330 11596 net.cpp:386] drop6 -> fc6 (in-place)
I0403 13:32:43.694383 11596 net.cpp:141] Setting up drop6
I0403 13:32:43.694406 11596 net.cpp:148] Top shape: 100 4096 (409600)
I0403 13:32:43.694419 11596 net.cpp:156] Memory required for data: 826610800
I0403 13:32:43.694433 11596 layer_factory.hpp:77] Creating layer fc7
I0403 13:32:43.694455 11596 net.cpp:91] Creating Layer fc7
I0403 13:32:43.694471 11596 net.cpp:425] fc7 <- fc6
I0403 13:32:43.694489 11596 net.cpp:399] fc7 -> fc7
I0403 13:32:44.368188 11596 net.cpp:141] Setting up fc7
I0403 13:32:44.368255 11596 net.cpp:148] Top shape: 100 4096 (409600)
I0403 13:32:44.368271 11596 net.cpp:156] Memory required for data: 828249200
I0403 13:32:44.368291 11596 layer_factory.hpp:77] Creating layer relu7
I0403 13:32:44.368315 11596 net.cpp:91] Creating Layer relu7
I0403 13:32:44.368333 11596 net.cpp:425] relu7 <- fc7
I0403 13:32:44.368352 11596 net.cpp:386] relu7 -> fc7 (in-place)
I0403 13:32:44.368742 11596 net.cpp:141] Setting up relu7
I0403 13:32:44.368768 11596 net.cpp:148] Top shape: 100 4096 (409600)
I0403 13:32:44.368818 11596 net.cpp:156] Memory required for data: 829887600
I0403 13:32:44.368834 11596 layer_factory.hpp:77] Creating layer drop7
I0403 13:32:44.368854 11596 net.cpp:91] Creating Layer drop7
I0403 13:32:44.368870 11596 net.cpp:425] drop7 <- fc7
I0403 13:32:44.368885 11596 net.cpp:386] drop7 -> fc7 (in-place)
I0403 13:32:44.368928 11596 net.cpp:141] Setting up drop7
I0403 13:32:44.368950 11596 net.cpp:148] Top shape: 100 4096 (409600)
I0403 13:32:44.368964 11596 net.cpp:156] Memory required for data: 831526000
I0403 13:32:44.368978 11596 layer_factory.hpp:77] Creating layer fc8_plantvillage
I0403 13:32:44.368998 11596 net.cpp:91] Creating Layer fc8_plantvillage
I0403 13:32:44.369012 11596 net.cpp:425] fc8_plantvillage <- fc7
I0403 13:32:44.369031 11596 net.cpp:399] fc8_plantvillage -> fc8_plantvillage
I0403 13:32:44.375675 11596 net.cpp:141] Setting up fc8_plantvillage
I0403 13:32:44.375706 11596 net.cpp:148] Top shape: 100 38 (3800)
I0403 13:32:44.375722 11596 net.cpp:156] Memory required for data: 831541200
I0403 13:32:44.375740 11596 layer_factory.hpp:77] Creating layer fc8_plantvillage_fc8_plantvillage_0_split
I0403 13:32:44.375758 11596 net.cpp:91] Creating Layer fc8_plantvillage_fc8_plantvillage_0_split
I0403 13:32:44.375773 11596 net.cpp:425] fc8_plantvillage_fc8_plantvillage_0_split <- fc8_plantvillage
I0403 13:32:44.375790 11596 net.cpp:399] fc8_plantvillage_fc8_plantvillage_0_split -> fc8_plantvillage_fc8_plantvillage_0_split_0
I0403 13:32:44.375810 11596 net.cpp:399] fc8_plantvillage_fc8_plantvillage_0_split -> fc8_plantvillage_fc8_plantvillage_0_split_1
I0403 13:32:44.375830 11596 net.cpp:399] fc8_plantvillage_fc8_plantvillage_0_split -> fc8_plantvillage_fc8_plantvillage_0_split_2
I0403 13:32:44.375906 11596 net.cpp:141] Setting up fc8_plantvillage_fc8_plantvillage_0_split
I0403 13:32:44.375929 11596 net.cpp:148] Top shape: 100 38 (3800)
I0403 13:32:44.375946 11596 net.cpp:148] Top shape: 100 38 (3800)
I0403 13:32:44.375960 11596 net.cpp:148] Top shape: 100 38 (3800)
I0403 13:32:44.375974 11596 net.cpp:156] Memory required for data: 831586800
I0403 13:32:44.375988 11596 layer_factory.hpp:77] Creating layer prob
I0403 13:32:44.376005 11596 net.cpp:91] Creating Layer prob
I0403 13:32:44.376020 11596 net.cpp:425] prob <- fc8_plantvillage_fc8_plantvillage_0_split_0
I0403 13:32:44.376037 11596 net.cpp:399] prob -> prob
I0403 13:32:44.376260 11596 net.cpp:141] Setting up prob
I0403 13:32:44.376286 11596 net.cpp:148] Top shape: 100 38 (3800)
I0403 13:32:44.376301 11596 net.cpp:156] Memory required for data: 831602000
I0403 13:32:44.376314 11596 layer_factory.hpp:77] Creating layer hdf5out
I0403 13:32:44.376337 11596 net.cpp:91] Creating Layer hdf5out
I0403 13:32:44.376354 11596 net.cpp:425] hdf5out <- prob
I0403 13:32:44.376370 11596 net.cpp:425] hdf5out <- label_data_1_split_0
I0403 13:32:44.378528 11596 net.cpp:141] Setting up hdf5out
…
