…
I0403 13:34:21.680696 11647 net.cpp:313] The NetState phase (1) differed from the phase (0) specified by a rule in layer data
I0403 13:34:21.681007 11647 net.cpp:49] Initializing net from parameters: 
state {
  phase: TEST
}
layer {
  name: "data"
  type: "Data"
  top: "data"
  top: "label"
  include {
    phase: TEST
  }
  transform_param {
    crop_size: 227
    mean_file: "/home/mohanty/data/final_dataset/lmdb/grayscale-80-20/mean.binaryproto"
  }
  data_param {
    source: "/home/mohanty/data/final_dataset/lmdb/grayscale-80-20/test_db"
    batch_size: 100
    backend: LMDB
  }
}
layer {
  name: "conv1"
  type: "Convolution"
  bottom: "data"
  top: "conv1"
  param {
    lr_mult: 1
    decay_mult: 1
  }
  param {
    lr_mult: 2
    decay_mult: 0
  }
  convolution_param {
    num_output: 96
    kernel_size: 11
    stride: 4
    weight_filler {
      type: "gaussian"
      std: 0.01
    }
    bias_filler {
      type: "constant"
      value: 0
    }
  }
}
layer {
  name: "relu1"
  type: "ReLU"
  bottom: "conv1"
  top: "conv1"
}
layer {
  name: "norm1"
  type: "LRN"
  bottom: "conv1"
  top: "norm1"
  lrn_param {
    local_size: 5
    alpha: 0.0001
    beta: 0.75
  }
}
layer {
  name: "pool1"
  type: "Pooling"
  bottom: "norm1"
  top: "pool1"
  pooling_param {
    pool: MAX
    kernel_size: 3
    stride: 2
  }
}
layer {
  name: "conv2"
  type: "Convolution"
  bottom: "pool1"
  top: "conv2"
  param {
    lr_mult: 1
    decay_mult: 1
  }
  param {
    lr_mult: 2
    decay_mult: 0
  }
  convolution_param {
    num_output: 256
    pad: 2
    kernel_size: 5
    group: 2
    weight_filler {
      type: "gaussian"
      std: 0.01
    }
    bias_filler {
      type: "constant"
      value: 0.1
    }
  }
}
layer {
  name: "relu2"
  type: "ReLU"
  bottom: "conv2"
  top: "conv2"
}
layer {
  name: "norm2"
  type: "LRN"
  bottom: "conv2"
  top: "norm2"
  lrn_param {
    local_size: 5
    alpha: 0.0001
    beta: 0.75
  }
}
layer {
  name: "pool2"
  type: "Pooling"
  bottom: "norm2"
  top: "pool2"
  pooling_param {
    pool: MAX
    kernel_size: 3
    stride: 2
  }
}
layer {
  name: "conv3"
  type: "Convolution"
  bottom: "pool2"
  top: "conv3"
  param {
    lr_mult: 1
    decay_mult: 1
  }
  param {
    lr_mult: 2
    decay_mult: 0
  }
  convolution_param {
    num_output: 384
    pad: 1
    kernel_size: 3
    weight_filler {
      type: "gaussian"
      std: 0.01
    }
    bias_filler {
      type: "constant"
      value: 0
    }
  }
}
layer {
  name: "relu3"
  type: "ReLU"
  bottom: "conv3"
  top: "conv3"
}
layer {
  name: "conv4"
  type: "Convolution"
  bottom: "conv3"
  top: "conv4"
  param {
    lr_mult: 1
    decay_mult: 1
  }
  param {
    lr_mult: 2
    decay_mult: 0
  }
  convolution_param {
    num_output: 384
    pad: 1
    kernel_size: 3
    group: 2
    weight_filler {
      type: "gaussian"
      std: 0.01
    }
    bias_filler {
      type: "constant"
      value: 0.1
    }
  }
}
layer {
  name: "relu4"
  type: "ReLU"
  bottom: "conv4"
  top: "conv4"
}
layer {
  name: "conv5"
  type: "Convolution"
  bottom: "conv4"
  top: "conv5"
  param {
    lr_mult: 1
    decay_mult: 1
  }
  param {
    lr_mult: 2
    decay_mult: 0
  }
  convolution_param {
    num_output: 256
    pad: 1
    kernel_size: 3
    group: 2
    weight_filler {
      type: "gaussian"
      std: 0.01
    }
    bias_filler {
      type: "constant"
      value: 0.1
    }
  }
}
layer {
  name: "relu5"
  type: "ReLU"
  bottom: "conv5"
  top: "conv5"
}
layer {
  name: "pool5"
  type: "Pooling"
  bottom: "conv5"
  top: "pool5"
  pooling_param {
    pool: MAX
    kernel_size: 3
    stride: 2
  }
}
layer {
  name: "fc6"
  type: "InnerProduct"
  bottom: "pool5"
  top: "fc6"
  param {
    lr_mult: 1
    decay_mult: 1
  }
  param {
    lr_mult: 2
    decay_mult: 0
  }
  inner_product_param {
    num_output: 4096
    weight_filler {
      type: "gaussian"
      std: 0.005
    }
    bias_filler {
      type: "constant"
      value: 0.1
    }
  }
}
layer {
  name: "relu6"
  type: "ReLU"
  bottom: "fc6"
  top: "fc6"
}
layer {
  name: "drop6"
  type: "Dropout"
  bottom: "fc6"
  top: "fc6"
  dropout_param {
    dropout_ratio: 0.5
  }
}
layer {
  name: "fc7"
  type: "InnerProduct"
  bottom: "fc6"
  top: "fc7"
  param {
    lr_mult: 1
    decay_mult: 1
  }
  param {
    lr_mult: 2
    decay_mult: 0
  }
  inner_product_param {
    num_output: 4096
    weight_filler {
      type: "gaussian"
      std: 0.005
    }
    bias_filler {
      type: "constant"
      value: 0.1
    }
  }
}
layer {
  name: "relu7"
  type: "ReLU"
  bottom: "fc7"
  top: "fc7"
}
layer {
  name: "drop7"
  type: "Dropout"
  bottom: "fc7"
  top: "fc7"
  dropout_param {
    dropout_ratio: 0.5
  }
}
layer {
  name: "fc8_plantvillage"
  type: "InnerProduct"
  bottom: "fc7"
  top: "fc8_plantvillage"
  param {
    lr_mult: 1
    decay_mult: 1
  }
  param {
    lr_mult: 2
    decay_mult: 0
  }
  inner_product_param {
    num_output: 38
    weight_filler {
      type: "gaussian"
      std: 0.01
    }
    bias_filler {
      type: "constant"
      value: 0
    }
  }
}
layer {
  name: "prob"
  type: "Softmax"
  bottom: "fc8_plantvillage"
  top: "prob"
  include {
    phase: TEST
  }
}
layer {
  name: "hdf5out"
  type: "HDF5Output"
  bottom: "prob"
  bottom: "label"
  include {
    phase: TEST
  }
  hdf5_output_param {
    file_name: "hdf5_dumps/iter_11772.h5"
  }
}
layer {
  name: "loss"
  type: "SoftmaxWithLoss"
  bottom: "fc8_plantvillage"
  bottom: "label"
  top: "loss"
}
layer {
  name: "accuracy"
  type: "Accuracy"
  bottom: "fc8_plantvillage"
  bottom: "label"
  top: "accuracy"
  include {
    phase: TEST
  }
}
I0403 13:34:21.681576 11647 layer_factory.hpp:77] Creating layer data
I0403 13:34:21.682220 11647 net.cpp:91] Creating Layer data
I0403 13:34:21.682253 11647 net.cpp:399] data -> data
I0403 13:34:21.682304 11647 net.cpp:399] data -> label
I0403 13:34:21.682339 11647 data_transformer.cpp:25] Loading mean file from: /home/mohanty/data/final_dataset/lmdb/grayscale-80-20/mean.binaryproto
I0403 13:34:21.685405 11652 db_lmdb.cpp:38] Opened lmdb /home/mohanty/data/final_dataset/lmdb/grayscale-80-20/test_db
I0403 13:34:21.696480 11647 data_layer.cpp:41] output data size: 100,3,227,227
I0403 13:34:21.815174 11647 net.cpp:141] Setting up data
I0403 13:34:21.815263 11647 net.cpp:148] Top shape: 100 3 227 227 (15458700)
I0403 13:34:21.815285 11647 net.cpp:148] Top shape: 100 (100)
I0403 13:34:21.815302 11647 net.cpp:156] Memory required for data: 61835200
I0403 13:34:21.815330 11647 layer_factory.hpp:77] Creating layer label_data_1_split
I0403 13:34:21.815357 11647 net.cpp:91] Creating Layer label_data_1_split
I0403 13:34:21.815376 11647 net.cpp:425] label_data_1_split <- label
I0403 13:34:21.815407 11647 net.cpp:399] label_data_1_split -> label_data_1_split_0
I0403 13:34:21.815434 11647 net.cpp:399] label_data_1_split -> label_data_1_split_1
I0403 13:34:21.815456 11647 net.cpp:399] label_data_1_split -> label_data_1_split_2
I0403 13:34:21.815518 11647 net.cpp:141] Setting up label_data_1_split
I0403 13:34:21.815542 11647 net.cpp:148] Top shape: 100 (100)
I0403 13:34:21.815559 11647 net.cpp:148] Top shape: 100 (100)
I0403 13:34:21.815582 11647 net.cpp:148] Top shape: 100 (100)
I0403 13:34:21.815596 11647 net.cpp:156] Memory required for data: 61836400
I0403 13:34:21.815611 11647 layer_factory.hpp:77] Creating layer conv1
I0403 13:34:21.815641 11647 net.cpp:91] Creating Layer conv1
I0403 13:34:21.815659 11647 net.cpp:425] conv1 <- data
I0403 13:34:21.815677 11647 net.cpp:399] conv1 -> conv1
I0403 13:34:21.956348 11647 net.cpp:141] Setting up conv1
I0403 13:34:21.956396 11647 net.cpp:148] Top shape: 100 96 55 55 (29040000)
I0403 13:34:21.956420 11647 net.cpp:156] Memory required for data: 177996400
I0403 13:34:21.956461 11647 layer_factory.hpp:77] Creating layer relu1
I0403 13:34:21.956496 11647 net.cpp:91] Creating Layer relu1
I0403 13:34:21.956516 11647 net.cpp:425] relu1 <- conv1
I0403 13:34:21.956539 11647 net.cpp:386] relu1 -> conv1 (in-place)
I0403 13:34:21.956825 11647 net.cpp:141] Setting up relu1
I0403 13:34:21.956854 11647 net.cpp:148] Top shape: 100 96 55 55 (29040000)
I0403 13:34:21.956888 11647 net.cpp:156] Memory required for data: 294156400
I0403 13:34:21.956905 11647 layer_factory.hpp:77] Creating layer norm1
I0403 13:34:21.956935 11647 net.cpp:91] Creating Layer norm1
I0403 13:34:21.956954 11647 net.cpp:425] norm1 <- conv1
I0403 13:34:21.956974 11647 net.cpp:399] norm1 -> norm1
I0403 13:34:21.957317 11647 net.cpp:141] Setting up norm1
I0403 13:34:21.957346 11647 net.cpp:148] Top shape: 100 96 55 55 (29040000)
I0403 13:34:21.957362 11647 net.cpp:156] Memory required for data: 410316400
I0403 13:34:21.957378 11647 layer_factory.hpp:77] Creating layer pool1
I0403 13:34:21.957406 11647 net.cpp:91] Creating Layer pool1
I0403 13:34:21.957424 11647 net.cpp:425] pool1 <- norm1
I0403 13:34:21.957445 11647 net.cpp:399] pool1 -> pool1
I0403 13:34:21.957531 11647 net.cpp:141] Setting up pool1
I0403 13:34:21.957556 11647 net.cpp:148] Top shape: 100 96 27 27 (6998400)
I0403 13:34:21.957572 11647 net.cpp:156] Memory required for data: 438310000
I0403 13:34:21.957602 11647 layer_factory.hpp:77] Creating layer conv2
I0403 13:34:21.957633 11647 net.cpp:91] Creating Layer conv2
I0403 13:34:21.957651 11647 net.cpp:425] conv2 <- pool1
I0403 13:34:21.957672 11647 net.cpp:399] conv2 -> conv2
I0403 13:34:21.972383 11647 net.cpp:141] Setting up conv2
I0403 13:34:21.972420 11647 net.cpp:148] Top shape: 100 256 27 27 (18662400)
I0403 13:34:21.972437 11647 net.cpp:156] Memory required for data: 512959600
I0403 13:34:21.972460 11647 layer_factory.hpp:77] Creating layer relu2
I0403 13:34:21.972484 11647 net.cpp:91] Creating Layer relu2
I0403 13:34:21.972503 11647 net.cpp:425] relu2 <- conv2
I0403 13:34:21.972522 11647 net.cpp:386] relu2 -> conv2 (in-place)
I0403 13:34:21.972805 11647 net.cpp:141] Setting up relu2
I0403 13:34:21.972832 11647 net.cpp:148] Top shape: 100 256 27 27 (18662400)
I0403 13:34:21.972848 11647 net.cpp:156] Memory required for data: 587609200
I0403 13:34:21.972862 11647 layer_factory.hpp:77] Creating layer norm2
I0403 13:34:21.972884 11647 net.cpp:91] Creating Layer norm2
I0403 13:34:21.972901 11647 net.cpp:425] norm2 <- conv2
I0403 13:34:21.972921 11647 net.cpp:399] norm2 -> norm2
I0403 13:34:21.973146 11647 net.cpp:141] Setting up norm2
I0403 13:34:21.973171 11647 net.cpp:148] Top shape: 100 256 27 27 (18662400)
I0403 13:34:21.973186 11647 net.cpp:156] Memory required for data: 662258800
I0403 13:34:21.973202 11647 layer_factory.hpp:77] Creating layer pool2
I0403 13:34:21.973219 11647 net.cpp:91] Creating Layer pool2
I0403 13:34:21.973234 11647 net.cpp:425] pool2 <- norm2
I0403 13:34:21.973253 11647 net.cpp:399] pool2 -> pool2
I0403 13:34:21.973305 11647 net.cpp:141] Setting up pool2
I0403 13:34:21.973328 11647 net.cpp:148] Top shape: 100 256 13 13 (4326400)
I0403 13:34:21.973342 11647 net.cpp:156] Memory required for data: 679564400
I0403 13:34:21.973356 11647 layer_factory.hpp:77] Creating layer conv3
I0403 13:34:21.973381 11647 net.cpp:91] Creating Layer conv3
I0403 13:34:21.973397 11647 net.cpp:425] conv3 <- pool2
I0403 13:34:21.973415 11647 net.cpp:399] conv3 -> conv3
I0403 13:34:22.014942 11647 net.cpp:141] Setting up conv3
I0403 13:34:22.015000 11647 net.cpp:148] Top shape: 100 384 13 13 (6489600)
I0403 13:34:22.015017 11647 net.cpp:156] Memory required for data: 705522800
I0403 13:34:22.015041 11647 layer_factory.hpp:77] Creating layer relu3
I0403 13:34:22.015064 11647 net.cpp:91] Creating Layer relu3
I0403 13:34:22.015084 11647 net.cpp:425] relu3 <- conv3
I0403 13:34:22.015102 11647 net.cpp:386] relu3 -> conv3 (in-place)
I0403 13:34:22.015382 11647 net.cpp:141] Setting up relu3
I0403 13:34:22.015408 11647 net.cpp:148] Top shape: 100 384 13 13 (6489600)
I0403 13:34:22.015424 11647 net.cpp:156] Memory required for data: 731481200
I0403 13:34:22.015439 11647 layer_factory.hpp:77] Creating layer conv4
I0403 13:34:22.015463 11647 net.cpp:91] Creating Layer conv4
I0403 13:34:22.015480 11647 net.cpp:425] conv4 <- conv3
I0403 13:34:22.015503 11647 net.cpp:399] conv4 -> conv4
I0403 13:34:22.045449 11647 net.cpp:141] Setting up conv4
I0403 13:34:22.045491 11647 net.cpp:148] Top shape: 100 384 13 13 (6489600)
I0403 13:34:22.045548 11647 net.cpp:156] Memory required for data: 757439600
I0403 13:34:22.045572 11647 layer_factory.hpp:77] Creating layer relu4
I0403 13:34:22.045603 11647 net.cpp:91] Creating Layer relu4
I0403 13:34:22.045621 11647 net.cpp:425] relu4 <- conv4
I0403 13:34:22.045645 11647 net.cpp:386] relu4 -> conv4 (in-place)
I0403 13:34:22.045928 11647 net.cpp:141] Setting up relu4
I0403 13:34:22.045960 11647 net.cpp:148] Top shape: 100 384 13 13 (6489600)
I0403 13:34:22.045980 11647 net.cpp:156] Memory required for data: 783398000
I0403 13:34:22.045996 11647 layer_factory.hpp:77] Creating layer conv5
I0403 13:34:22.046022 11647 net.cpp:91] Creating Layer conv5
I0403 13:34:22.046041 11647 net.cpp:425] conv5 <- conv4
I0403 13:34:22.046062 11647 net.cpp:399] conv5 -> conv5
I0403 13:34:22.065999 11647 net.cpp:141] Setting up conv5
I0403 13:34:22.066038 11647 net.cpp:148] Top shape: 100 256 13 13 (4326400)
I0403 13:34:22.066056 11647 net.cpp:156] Memory required for data: 800703600
I0403 13:34:22.066079 11647 layer_factory.hpp:77] Creating layer relu5
I0403 13:34:22.066099 11647 net.cpp:91] Creating Layer relu5
I0403 13:34:22.066115 11647 net.cpp:425] relu5 <- conv5
I0403 13:34:22.066138 11647 net.cpp:386] relu5 -> conv5 (in-place)
I0403 13:34:22.066421 11647 net.cpp:141] Setting up relu5
I0403 13:34:22.066447 11647 net.cpp:148] Top shape: 100 256 13 13 (4326400)
I0403 13:34:22.066463 11647 net.cpp:156] Memory required for data: 818009200
I0403 13:34:22.066478 11647 layer_factory.hpp:77] Creating layer pool5
I0403 13:34:22.066501 11647 net.cpp:91] Creating Layer pool5
I0403 13:34:22.066519 11647 net.cpp:425] pool5 <- conv5
I0403 13:34:22.066537 11647 net.cpp:399] pool5 -> pool5
I0403 13:34:22.066614 11647 net.cpp:141] Setting up pool5
I0403 13:34:22.066639 11647 net.cpp:148] Top shape: 100 256 6 6 (921600)
I0403 13:34:22.066654 11647 net.cpp:156] Memory required for data: 821695600
I0403 13:34:22.066669 11647 layer_factory.hpp:77] Creating layer fc6
I0403 13:34:22.066699 11647 net.cpp:91] Creating Layer fc6
I0403 13:34:22.066716 11647 net.cpp:425] fc6 <- pool5
I0403 13:34:22.066735 11647 net.cpp:399] fc6 -> fc6
I0403 13:34:23.606833 11647 net.cpp:141] Setting up fc6
I0403 13:34:23.606885 11647 net.cpp:148] Top shape: 100 4096 (409600)
I0403 13:34:23.606904 11647 net.cpp:156] Memory required for data: 823334000
I0403 13:34:23.606925 11647 layer_factory.hpp:77] Creating layer relu6
I0403 13:34:23.606947 11647 net.cpp:91] Creating Layer relu6
I0403 13:34:23.606966 11647 net.cpp:425] relu6 <- fc6
I0403 13:34:23.606987 11647 net.cpp:386] relu6 -> fc6 (in-place)
I0403 13:34:23.607197 11647 net.cpp:141] Setting up relu6
I0403 13:34:23.607221 11647 net.cpp:148] Top shape: 100 4096 (409600)
I0403 13:34:23.607236 11647 net.cpp:156] Memory required for data: 824972400
I0403 13:34:23.607251 11647 layer_factory.hpp:77] Creating layer drop6
I0403 13:34:23.607272 11647 net.cpp:91] Creating Layer drop6
I0403 13:34:23.607286 11647 net.cpp:425] drop6 <- fc6
I0403 13:34:23.607306 11647 net.cpp:386] drop6 -> fc6 (in-place)
I0403 13:34:23.607354 11647 net.cpp:141] Setting up drop6
I0403 13:34:23.607378 11647 net.cpp:148] Top shape: 100 4096 (409600)
I0403 13:34:23.607393 11647 net.cpp:156] Memory required for data: 826610800
I0403 13:34:23.607406 11647 layer_factory.hpp:77] Creating layer fc7
I0403 13:34:23.607425 11647 net.cpp:91] Creating Layer fc7
I0403 13:34:23.607439 11647 net.cpp:425] fc7 <- fc6
I0403 13:34:23.607458 11647 net.cpp:399] fc7 -> fc7
I0403 13:34:24.285717 11647 net.cpp:141] Setting up fc7
I0403 13:34:24.285758 11647 net.cpp:148] Top shape: 100 4096 (409600)
I0403 13:34:24.285773 11647 net.cpp:156] Memory required for data: 828249200
I0403 13:34:24.285795 11647 layer_factory.hpp:77] Creating layer relu7
I0403 13:34:24.285816 11647 net.cpp:91] Creating Layer relu7
I0403 13:34:24.285838 11647 net.cpp:425] relu7 <- fc7
I0403 13:34:24.285858 11647 net.cpp:386] relu7 -> fc7 (in-place)
I0403 13:34:24.286248 11647 net.cpp:141] Setting up relu7
I0403 13:34:24.286273 11647 net.cpp:148] Top shape: 100 4096 (409600)
I0403 13:34:24.286327 11647 net.cpp:156] Memory required for data: 829887600
I0403 13:34:24.286344 11647 layer_factory.hpp:77] Creating layer drop7
I0403 13:34:24.286362 11647 net.cpp:91] Creating Layer drop7
I0403 13:34:24.286376 11647 net.cpp:425] drop7 <- fc7
I0403 13:34:24.286396 11647 net.cpp:386] drop7 -> fc7 (in-place)
I0403 13:34:24.286437 11647 net.cpp:141] Setting up drop7
I0403 13:34:24.286461 11647 net.cpp:148] Top shape: 100 4096 (409600)
I0403 13:34:24.286476 11647 net.cpp:156] Memory required for data: 831526000
I0403 13:34:24.286490 11647 layer_factory.hpp:77] Creating layer fc8_plantvillage
I0403 13:34:24.286509 11647 net.cpp:91] Creating Layer fc8_plantvillage
I0403 13:34:24.286525 11647 net.cpp:425] fc8_plantvillage <- fc7
I0403 13:34:24.286543 11647 net.cpp:399] fc8_plantvillage -> fc8_plantvillage
I0403 13:34:24.293087 11647 net.cpp:141] Setting up fc8_plantvillage
I0403 13:34:24.293113 11647 net.cpp:148] Top shape: 100 38 (3800)
I0403 13:34:24.293130 11647 net.cpp:156] Memory required for data: 831541200
I0403 13:34:24.293148 11647 layer_factory.hpp:77] Creating layer fc8_plantvillage_fc8_plantvillage_0_split
I0403 13:34:24.293166 11647 net.cpp:91] Creating Layer fc8_plantvillage_fc8_plantvillage_0_split
I0403 13:34:24.293181 11647 net.cpp:425] fc8_plantvillage_fc8_plantvillage_0_split <- fc8_plantvillage
I0403 13:34:24.293201 11647 net.cpp:399] fc8_plantvillage_fc8_plantvillage_0_split -> fc8_plantvillage_fc8_plantvillage_0_split_0
I0403 13:34:24.293221 11647 net.cpp:399] fc8_plantvillage_fc8_plantvillage_0_split -> fc8_plantvillage_fc8_plantvillage_0_split_1
I0403 13:34:24.293241 11647 net.cpp:399] fc8_plantvillage_fc8_plantvillage_0_split -> fc8_plantvillage_fc8_plantvillage_0_split_2
I0403 13:34:24.293315 11647 net.cpp:141] Setting up fc8_plantvillage_fc8_plantvillage_0_split
I0403 13:34:24.293339 11647 net.cpp:148] Top shape: 100 38 (3800)
I0403 13:34:24.293354 11647 net.cpp:148] Top shape: 100 38 (3800)
I0403 13:34:24.293370 11647 net.cpp:148] Top shape: 100 38 (3800)
I0403 13:34:24.293382 11647 net.cpp:156] Memory required for data: 831586800
I0403 13:34:24.293396 11647 layer_factory.hpp:77] Creating layer prob
I0403 13:34:24.293413 11647 net.cpp:91] Creating Layer prob
I0403 13:34:24.293428 11647 net.cpp:425] prob <- fc8_plantvillage_fc8_plantvillage_0_split_0
I0403 13:34:24.293447 11647 net.cpp:399] prob -> prob
I0403 13:34:24.293675 11647 net.cpp:141] Setting up prob
I0403 13:34:24.293700 11647 net.cpp:148] Top shape: 100 38 (3800)
I0403 13:34:24.293715 11647 net.cpp:156] Memory required for data: 831602000
I0403 13:34:24.293730 11647 layer_factory.hpp:77] Creating layer hdf5out
I0403 13:34:24.293747 11647 net.cpp:91] Creating Layer hdf5out
I0403 13:34:24.293766 11647 net.cpp:425] hdf5out <- prob
I0403 13:34:24.293781 11647 net.cpp:425] hdf5out <- label_data_1_split_0
I0403 13:34:24.296258 11647 net.cpp:141] Setting up hdf5out
…
