…
I0403 13:34:46.811961 11665 net.cpp:313] The NetState phase (1) differed from the phase (0) specified by a rule in layer data
I0403 13:34:46.812278 11665 net.cpp:49] Initializing net from parameters: 
state {
  phase: TEST
}
layer {
  name: "data"
  type: "Data"
  top: "data"
  top: "label"
  include {
    phase: TEST
  }
  transform_param {
    crop_size: 227
    mean_file: "/home/mohanty/data/final_dataset/lmdb/grayscale-80-20/mean.binaryproto"
  }
  data_param {
    source: "/home/mohanty/data/final_dataset/lmdb/grayscale-80-20/test_db"
    batch_size: 100
    backend: LMDB
  }
}
layer {
  name: "conv1"
  type: "Convolution"
  bottom: "data"
  top: "conv1"
  param {
    lr_mult: 1
    decay_mult: 1
  }
  param {
    lr_mult: 2
    decay_mult: 0
  }
  convolution_param {
    num_output: 96
    kernel_size: 11
    stride: 4
    weight_filler {
      type: "gaussian"
      std: 0.01
    }
    bias_filler {
      type: "constant"
      value: 0
    }
  }
}
layer {
  name: "relu1"
  type: "ReLU"
  bottom: "conv1"
  top: "conv1"
}
layer {
  name: "norm1"
  type: "LRN"
  bottom: "conv1"
  top: "norm1"
  lrn_param {
    local_size: 5
    alpha: 0.0001
    beta: 0.75
  }
}
layer {
  name: "pool1"
  type: "Pooling"
  bottom: "norm1"
  top: "pool1"
  pooling_param {
    pool: MAX
    kernel_size: 3
    stride: 2
  }
}
layer {
  name: "conv2"
  type: "Convolution"
  bottom: "pool1"
  top: "conv2"
  param {
    lr_mult: 1
    decay_mult: 1
  }
  param {
    lr_mult: 2
    decay_mult: 0
  }
  convolution_param {
    num_output: 256
    pad: 2
    kernel_size: 5
    group: 2
    weight_filler {
      type: "gaussian"
      std: 0.01
    }
    bias_filler {
      type: "constant"
      value: 0.1
    }
  }
}
layer {
  name: "relu2"
  type: "ReLU"
  bottom: "conv2"
  top: "conv2"
}
layer {
  name: "norm2"
  type: "LRN"
  bottom: "conv2"
  top: "norm2"
  lrn_param {
    local_size: 5
    alpha: 0.0001
    beta: 0.75
  }
}
layer {
  name: "pool2"
  type: "Pooling"
  bottom: "norm2"
  top: "pool2"
  pooling_param {
    pool: MAX
    kernel_size: 3
    stride: 2
  }
}
layer {
  name: "conv3"
  type: "Convolution"
  bottom: "pool2"
  top: "conv3"
  param {
    lr_mult: 1
    decay_mult: 1
  }
  param {
    lr_mult: 2
    decay_mult: 0
  }
  convolution_param {
    num_output: 384
    pad: 1
    kernel_size: 3
    weight_filler {
      type: "gaussian"
      std: 0.01
    }
    bias_filler {
      type: "constant"
      value: 0
    }
  }
}
layer {
  name: "relu3"
  type: "ReLU"
  bottom: "conv3"
  top: "conv3"
}
layer {
  name: "conv4"
  type: "Convolution"
  bottom: "conv3"
  top: "conv4"
  param {
    lr_mult: 1
    decay_mult: 1
  }
  param {
    lr_mult: 2
    decay_mult: 0
  }
  convolution_param {
    num_output: 384
    pad: 1
    kernel_size: 3
    group: 2
    weight_filler {
      type: "gaussian"
      std: 0.01
    }
    bias_filler {
      type: "constant"
      value: 0.1
    }
  }
}
layer {
  name: "relu4"
  type: "ReLU"
  bottom: "conv4"
  top: "conv4"
}
layer {
  name: "conv5"
  type: "Convolution"
  bottom: "conv4"
  top: "conv5"
  param {
    lr_mult: 1
    decay_mult: 1
  }
  param {
    lr_mult: 2
    decay_mult: 0
  }
  convolution_param {
    num_output: 256
    pad: 1
    kernel_size: 3
    group: 2
    weight_filler {
      type: "gaussian"
      std: 0.01
    }
    bias_filler {
      type: "constant"
      value: 0.1
    }
  }
}
layer {
  name: "relu5"
  type: "ReLU"
  bottom: "conv5"
  top: "conv5"
}
layer {
  name: "pool5"
  type: "Pooling"
  bottom: "conv5"
  top: "pool5"
  pooling_param {
    pool: MAX
    kernel_size: 3
    stride: 2
  }
}
layer {
  name: "fc6"
  type: "InnerProduct"
  bottom: "pool5"
  top: "fc6"
  param {
    lr_mult: 1
    decay_mult: 1
  }
  param {
    lr_mult: 2
    decay_mult: 0
  }
  inner_product_param {
    num_output: 4096
    weight_filler {
      type: "gaussian"
      std: 0.005
    }
    bias_filler {
      type: "constant"
      value: 0.1
    }
  }
}
layer {
  name: "relu6"
  type: "ReLU"
  bottom: "fc6"
  top: "fc6"
}
layer {
  name: "drop6"
  type: "Dropout"
  bottom: "fc6"
  top: "fc6"
  dropout_param {
    dropout_ratio: 0.5
  }
}
layer {
  name: "fc7"
  type: "InnerProduct"
  bottom: "fc6"
  top: "fc7"
  param {
    lr_mult: 1
    decay_mult: 1
  }
  param {
    lr_mult: 2
    decay_mult: 0
  }
  inner_product_param {
    num_output: 4096
    weight_filler {
      type: "gaussian"
      std: 0.005
    }
    bias_filler {
      type: "constant"
      value: 0.1
    }
  }
}
layer {
  name: "relu7"
  type: "ReLU"
  bottom: "fc7"
  top: "fc7"
}
layer {
  name: "drop7"
  type: "Dropout"
  bottom: "fc7"
  top: "fc7"
  dropout_param {
    dropout_ratio: 0.5
  }
}
layer {
  name: "fc8_plantvillage"
  type: "InnerProduct"
  bottom: "fc7"
  top: "fc8_plantvillage"
  param {
    lr_mult: 1
    decay_mult: 1
  }
  param {
    lr_mult: 2
    decay_mult: 0
  }
  inner_product_param {
    num_output: 38
    weight_filler {
      type: "gaussian"
      std: 0.01
    }
    bias_filler {
      type: "constant"
      value: 0
    }
  }
}
layer {
  name: "prob"
  type: "Softmax"
  bottom: "fc8_plantvillage"
  top: "prob"
  include {
    phase: TEST
  }
}
layer {
  name: "hdf5out"
  type: "HDF5Output"
  bottom: "prob"
  bottom: "label"
  include {
    phase: TEST
  }
  hdf5_output_param {
    file_name: "hdf5_dumps/iter_12208.h5"
  }
}
layer {
  name: "loss"
  type: "SoftmaxWithLoss"
  bottom: "fc8_plantvillage"
  bottom: "label"
  top: "loss"
}
layer {
  name: "accuracy"
  type: "Accuracy"
  bottom: "fc8_plantvillage"
  bottom: "label"
  top: "accuracy"
  include {
    phase: TEST
  }
}
I0403 13:34:46.812850 11665 layer_factory.hpp:77] Creating layer data
I0403 13:34:46.813508 11665 net.cpp:91] Creating Layer data
I0403 13:34:46.813541 11665 net.cpp:399] data -> data
I0403 13:34:46.813592 11665 net.cpp:399] data -> label
I0403 13:34:46.813634 11665 data_transformer.cpp:25] Loading mean file from: /home/mohanty/data/final_dataset/lmdb/grayscale-80-20/mean.binaryproto
I0403 13:34:46.816709 11668 db_lmdb.cpp:38] Opened lmdb /home/mohanty/data/final_dataset/lmdb/grayscale-80-20/test_db
I0403 13:34:46.827807 11665 data_layer.cpp:41] output data size: 100,3,227,227
I0403 13:34:46.949337 11665 net.cpp:141] Setting up data
I0403 13:34:46.949441 11665 net.cpp:148] Top shape: 100 3 227 227 (15458700)
I0403 13:34:46.949465 11665 net.cpp:148] Top shape: 100 (100)
I0403 13:34:46.949481 11665 net.cpp:156] Memory required for data: 61835200
I0403 13:34:46.949509 11665 layer_factory.hpp:77] Creating layer label_data_1_split
I0403 13:34:46.949535 11665 net.cpp:91] Creating Layer label_data_1_split
I0403 13:34:46.949554 11665 net.cpp:425] label_data_1_split <- label
I0403 13:34:46.949587 11665 net.cpp:399] label_data_1_split -> label_data_1_split_0
I0403 13:34:46.949620 11665 net.cpp:399] label_data_1_split -> label_data_1_split_1
I0403 13:34:46.949645 11665 net.cpp:399] label_data_1_split -> label_data_1_split_2
I0403 13:34:46.949717 11665 net.cpp:141] Setting up label_data_1_split
I0403 13:34:46.949741 11665 net.cpp:148] Top shape: 100 (100)
I0403 13:34:46.949759 11665 net.cpp:148] Top shape: 100 (100)
I0403 13:34:46.949774 11665 net.cpp:148] Top shape: 100 (100)
I0403 13:34:46.949789 11665 net.cpp:156] Memory required for data: 61836400
I0403 13:34:46.949805 11665 layer_factory.hpp:77] Creating layer conv1
I0403 13:34:46.949836 11665 net.cpp:91] Creating Layer conv1
I0403 13:34:46.949856 11665 net.cpp:425] conv1 <- data
I0403 13:34:46.949877 11665 net.cpp:399] conv1 -> conv1
I0403 13:34:47.092300 11665 net.cpp:141] Setting up conv1
I0403 13:34:47.092357 11665 net.cpp:148] Top shape: 100 96 55 55 (29040000)
I0403 13:34:47.092375 11665 net.cpp:156] Memory required for data: 177996400
I0403 13:34:47.092406 11665 layer_factory.hpp:77] Creating layer relu1
I0403 13:34:47.092433 11665 net.cpp:91] Creating Layer relu1
I0403 13:34:47.092450 11665 net.cpp:425] relu1 <- conv1
I0403 13:34:47.092468 11665 net.cpp:386] relu1 -> conv1 (in-place)
I0403 13:34:47.092730 11665 net.cpp:141] Setting up relu1
I0403 13:34:47.092756 11665 net.cpp:148] Top shape: 100 96 55 55 (29040000)
I0403 13:34:47.092816 11665 net.cpp:156] Memory required for data: 294156400
I0403 13:34:47.092833 11665 layer_factory.hpp:77] Creating layer norm1
I0403 13:34:47.092861 11665 net.cpp:91] Creating Layer norm1
I0403 13:34:47.092880 11665 net.cpp:425] norm1 <- conv1
I0403 13:34:47.092897 11665 net.cpp:399] norm1 -> norm1
I0403 13:34:47.093204 11665 net.cpp:141] Setting up norm1
I0403 13:34:47.093230 11665 net.cpp:148] Top shape: 100 96 55 55 (29040000)
I0403 13:34:47.093245 11665 net.cpp:156] Memory required for data: 410316400
I0403 13:34:47.093261 11665 layer_factory.hpp:77] Creating layer pool1
I0403 13:34:47.093282 11665 net.cpp:91] Creating Layer pool1
I0403 13:34:47.093299 11665 net.cpp:425] pool1 <- norm1
I0403 13:34:47.093317 11665 net.cpp:399] pool1 -> pool1
I0403 13:34:47.093382 11665 net.cpp:141] Setting up pool1
I0403 13:34:47.093415 11665 net.cpp:148] Top shape: 100 96 27 27 (6998400)
I0403 13:34:47.093430 11665 net.cpp:156] Memory required for data: 438310000
I0403 13:34:47.093444 11665 layer_factory.hpp:77] Creating layer conv2
I0403 13:34:47.093466 11665 net.cpp:91] Creating Layer conv2
I0403 13:34:47.093482 11665 net.cpp:425] conv2 <- pool1
I0403 13:34:47.093499 11665 net.cpp:399] conv2 -> conv2
I0403 13:34:47.107911 11665 net.cpp:141] Setting up conv2
I0403 13:34:47.107945 11665 net.cpp:148] Top shape: 100 256 27 27 (18662400)
I0403 13:34:47.107962 11665 net.cpp:156] Memory required for data: 512959600
I0403 13:34:47.107983 11665 layer_factory.hpp:77] Creating layer relu2
I0403 13:34:47.108006 11665 net.cpp:91] Creating Layer relu2
I0403 13:34:47.108032 11665 net.cpp:425] relu2 <- conv2
I0403 13:34:47.108050 11665 net.cpp:386] relu2 -> conv2 (in-place)
I0403 13:34:47.108325 11665 net.cpp:141] Setting up relu2
I0403 13:34:47.108351 11665 net.cpp:148] Top shape: 100 256 27 27 (18662400)
I0403 13:34:47.108367 11665 net.cpp:156] Memory required for data: 587609200
I0403 13:34:47.108382 11665 layer_factory.hpp:77] Creating layer norm2
I0403 13:34:47.108407 11665 net.cpp:91] Creating Layer norm2
I0403 13:34:47.108424 11665 net.cpp:425] norm2 <- conv2
I0403 13:34:47.108444 11665 net.cpp:399] norm2 -> norm2
I0403 13:34:47.108672 11665 net.cpp:141] Setting up norm2
I0403 13:34:47.108700 11665 net.cpp:148] Top shape: 100 256 27 27 (18662400)
I0403 13:34:47.108714 11665 net.cpp:156] Memory required for data: 662258800
I0403 13:34:47.108728 11665 layer_factory.hpp:77] Creating layer pool2
I0403 13:34:47.108746 11665 net.cpp:91] Creating Layer pool2
I0403 13:34:47.108759 11665 net.cpp:425] pool2 <- norm2
I0403 13:34:47.108778 11665 net.cpp:399] pool2 -> pool2
I0403 13:34:47.108831 11665 net.cpp:141] Setting up pool2
I0403 13:34:47.108855 11665 net.cpp:148] Top shape: 100 256 13 13 (4326400)
I0403 13:34:47.108878 11665 net.cpp:156] Memory required for data: 679564400
I0403 13:34:47.108892 11665 layer_factory.hpp:77] Creating layer conv3
I0403 13:34:47.108914 11665 net.cpp:91] Creating Layer conv3
I0403 13:34:47.108930 11665 net.cpp:425] conv3 <- pool2
I0403 13:34:47.108950 11665 net.cpp:399] conv3 -> conv3
I0403 13:34:47.153972 11665 net.cpp:141] Setting up conv3
I0403 13:34:47.154042 11665 net.cpp:148] Top shape: 100 384 13 13 (6489600)
I0403 13:34:47.154058 11665 net.cpp:156] Memory required for data: 705522800
I0403 13:34:47.154085 11665 layer_factory.hpp:77] Creating layer relu3
I0403 13:34:47.154109 11665 net.cpp:91] Creating Layer relu3
I0403 13:34:47.154126 11665 net.cpp:425] relu3 <- conv3
I0403 13:34:47.154145 11665 net.cpp:386] relu3 -> conv3 (in-place)
I0403 13:34:47.154429 11665 net.cpp:141] Setting up relu3
I0403 13:34:47.154456 11665 net.cpp:148] Top shape: 100 384 13 13 (6489600)
I0403 13:34:47.154471 11665 net.cpp:156] Memory required for data: 731481200
I0403 13:34:47.154486 11665 layer_factory.hpp:77] Creating layer conv4
I0403 13:34:47.154512 11665 net.cpp:91] Creating Layer conv4
I0403 13:34:47.154530 11665 net.cpp:425] conv4 <- conv3
I0403 13:34:47.154551 11665 net.cpp:399] conv4 -> conv4
I0403 13:34:47.184890 11665 net.cpp:141] Setting up conv4
I0403 13:34:47.184931 11665 net.cpp:148] Top shape: 100 384 13 13 (6489600)
I0403 13:34:47.184980 11665 net.cpp:156] Memory required for data: 757439600
I0403 13:34:47.185003 11665 layer_factory.hpp:77] Creating layer relu4
I0403 13:34:47.185025 11665 net.cpp:91] Creating Layer relu4
I0403 13:34:47.185044 11665 net.cpp:425] relu4 <- conv4
I0403 13:34:47.185062 11665 net.cpp:386] relu4 -> conv4 (in-place)
I0403 13:34:47.185366 11665 net.cpp:141] Setting up relu4
I0403 13:34:47.185392 11665 net.cpp:148] Top shape: 100 384 13 13 (6489600)
I0403 13:34:47.185407 11665 net.cpp:156] Memory required for data: 783398000
I0403 13:34:47.185422 11665 layer_factory.hpp:77] Creating layer conv5
I0403 13:34:47.185448 11665 net.cpp:91] Creating Layer conv5
I0403 13:34:47.185466 11665 net.cpp:425] conv5 <- conv4
I0403 13:34:47.185487 11665 net.cpp:399] conv5 -> conv5
I0403 13:34:47.205766 11665 net.cpp:141] Setting up conv5
I0403 13:34:47.205801 11665 net.cpp:148] Top shape: 100 256 13 13 (4326400)
I0403 13:34:47.205818 11665 net.cpp:156] Memory required for data: 800703600
I0403 13:34:47.205842 11665 layer_factory.hpp:77] Creating layer relu5
I0403 13:34:47.205867 11665 net.cpp:91] Creating Layer relu5
I0403 13:34:47.205885 11665 net.cpp:425] relu5 <- conv5
I0403 13:34:47.205904 11665 net.cpp:386] relu5 -> conv5 (in-place)
I0403 13:34:47.206182 11665 net.cpp:141] Setting up relu5
I0403 13:34:47.206209 11665 net.cpp:148] Top shape: 100 256 13 13 (4326400)
I0403 13:34:47.206225 11665 net.cpp:156] Memory required for data: 818009200
I0403 13:34:47.206239 11665 layer_factory.hpp:77] Creating layer pool5
I0403 13:34:47.206262 11665 net.cpp:91] Creating Layer pool5
I0403 13:34:47.206279 11665 net.cpp:425] pool5 <- conv5
I0403 13:34:47.206298 11665 net.cpp:399] pool5 -> pool5
I0403 13:34:47.206363 11665 net.cpp:141] Setting up pool5
I0403 13:34:47.206387 11665 net.cpp:148] Top shape: 100 256 6 6 (921600)
I0403 13:34:47.206400 11665 net.cpp:156] Memory required for data: 821695600
I0403 13:34:47.206414 11665 layer_factory.hpp:77] Creating layer fc6
I0403 13:34:47.206441 11665 net.cpp:91] Creating Layer fc6
I0403 13:34:47.206459 11665 net.cpp:425] fc6 <- pool5
I0403 13:34:47.206476 11665 net.cpp:399] fc6 -> fc6
I0403 13:34:48.739320 11665 net.cpp:141] Setting up fc6
I0403 13:34:48.739382 11665 net.cpp:148] Top shape: 100 4096 (409600)
I0403 13:34:48.739400 11665 net.cpp:156] Memory required for data: 823334000
I0403 13:34:48.739420 11665 layer_factory.hpp:77] Creating layer relu6
I0403 13:34:48.739442 11665 net.cpp:91] Creating Layer relu6
I0403 13:34:48.739459 11665 net.cpp:425] relu6 <- fc6
I0403 13:34:48.739480 11665 net.cpp:386] relu6 -> fc6 (in-place)
I0403 13:34:48.739703 11665 net.cpp:141] Setting up relu6
I0403 13:34:48.739729 11665 net.cpp:148] Top shape: 100 4096 (409600)
I0403 13:34:48.739745 11665 net.cpp:156] Memory required for data: 824972400
I0403 13:34:48.739759 11665 layer_factory.hpp:77] Creating layer drop6
I0403 13:34:48.739778 11665 net.cpp:91] Creating Layer drop6
I0403 13:34:48.739794 11665 net.cpp:425] drop6 <- fc6
I0403 13:34:48.739811 11665 net.cpp:386] drop6 -> fc6 (in-place)
I0403 13:34:48.739863 11665 net.cpp:141] Setting up drop6
I0403 13:34:48.739886 11665 net.cpp:148] Top shape: 100 4096 (409600)
I0403 13:34:48.739900 11665 net.cpp:156] Memory required for data: 826610800
I0403 13:34:48.739914 11665 layer_factory.hpp:77] Creating layer fc7
I0403 13:34:48.739933 11665 net.cpp:91] Creating Layer fc7
I0403 13:34:48.739948 11665 net.cpp:425] fc7 <- fc6
I0403 13:34:48.739969 11665 net.cpp:399] fc7 -> fc7
I0403 13:34:49.411119 11665 net.cpp:141] Setting up fc7
I0403 13:34:49.411164 11665 net.cpp:148] Top shape: 100 4096 (409600)
I0403 13:34:49.411180 11665 net.cpp:156] Memory required for data: 828249200
I0403 13:34:49.411200 11665 layer_factory.hpp:77] Creating layer relu7
I0403 13:34:49.411223 11665 net.cpp:91] Creating Layer relu7
I0403 13:34:49.411242 11665 net.cpp:425] relu7 <- fc7
I0403 13:34:49.411259 11665 net.cpp:386] relu7 -> fc7 (in-place)
I0403 13:34:49.411665 11665 net.cpp:141] Setting up relu7
I0403 13:34:49.411691 11665 net.cpp:148] Top shape: 100 4096 (409600)
I0403 13:34:49.411746 11665 net.cpp:156] Memory required for data: 829887600
I0403 13:34:49.411762 11665 layer_factory.hpp:77] Creating layer drop7
I0403 13:34:49.411783 11665 net.cpp:91] Creating Layer drop7
I0403 13:34:49.411800 11665 net.cpp:425] drop7 <- fc7
I0403 13:34:49.411816 11665 net.cpp:386] drop7 -> fc7 (in-place)
I0403 13:34:49.411857 11665 net.cpp:141] Setting up drop7
I0403 13:34:49.411882 11665 net.cpp:148] Top shape: 100 4096 (409600)
I0403 13:34:49.411897 11665 net.cpp:156] Memory required for data: 831526000
I0403 13:34:49.411911 11665 layer_factory.hpp:77] Creating layer fc8_plantvillage
I0403 13:34:49.411931 11665 net.cpp:91] Creating Layer fc8_plantvillage
I0403 13:34:49.411947 11665 net.cpp:425] fc8_plantvillage <- fc7
I0403 13:34:49.411965 11665 net.cpp:399] fc8_plantvillage -> fc8_plantvillage
I0403 13:34:49.418683 11665 net.cpp:141] Setting up fc8_plantvillage
I0403 13:34:49.418711 11665 net.cpp:148] Top shape: 100 38 (3800)
I0403 13:34:49.418727 11665 net.cpp:156] Memory required for data: 831541200
I0403 13:34:49.418745 11665 layer_factory.hpp:77] Creating layer fc8_plantvillage_fc8_plantvillage_0_split
I0403 13:34:49.418764 11665 net.cpp:91] Creating Layer fc8_plantvillage_fc8_plantvillage_0_split
I0403 13:34:49.418781 11665 net.cpp:425] fc8_plantvillage_fc8_plantvillage_0_split <- fc8_plantvillage
I0403 13:34:49.418797 11665 net.cpp:399] fc8_plantvillage_fc8_plantvillage_0_split -> fc8_plantvillage_fc8_plantvillage_0_split_0
I0403 13:34:49.418817 11665 net.cpp:399] fc8_plantvillage_fc8_plantvillage_0_split -> fc8_plantvillage_fc8_plantvillage_0_split_1
I0403 13:34:49.418835 11665 net.cpp:399] fc8_plantvillage_fc8_plantvillage_0_split -> fc8_plantvillage_fc8_plantvillage_0_split_2
I0403 13:34:49.418917 11665 net.cpp:141] Setting up fc8_plantvillage_fc8_plantvillage_0_split
I0403 13:34:49.418941 11665 net.cpp:148] Top shape: 100 38 (3800)
I0403 13:34:49.418956 11665 net.cpp:148] Top shape: 100 38 (3800)
I0403 13:34:49.418972 11665 net.cpp:148] Top shape: 100 38 (3800)
I0403 13:34:49.418985 11665 net.cpp:156] Memory required for data: 831586800
I0403 13:34:49.418999 11665 layer_factory.hpp:77] Creating layer prob
I0403 13:34:49.419018 11665 net.cpp:91] Creating Layer prob
I0403 13:34:49.419034 11665 net.cpp:425] prob <- fc8_plantvillage_fc8_plantvillage_0_split_0
I0403 13:34:49.419052 11665 net.cpp:399] prob -> prob
I0403 13:34:49.419280 11665 net.cpp:141] Setting up prob
I0403 13:34:49.419304 11665 net.cpp:148] Top shape: 100 38 (3800)
I0403 13:34:49.419320 11665 net.cpp:156] Memory required for data: 831602000
I0403 13:34:49.419334 11665 layer_factory.hpp:77] Creating layer hdf5out
I0403 13:34:49.419355 11665 net.cpp:91] Creating Layer hdf5out
I0403 13:34:49.419371 11665 net.cpp:425] hdf5out <- prob
I0403 13:34:49.419387 11665 net.cpp:425] hdf5out <- label_data_1_split_0
I0403 13:34:49.421733 11665 net.cpp:141] Setting up hdf5out
…
