…
I0403 13:26:47.727035 11266 net.cpp:313] The NetState phase (1) differed from the phase (0) specified by a rule in layer data
I0403 13:26:47.727337 11266 net.cpp:49] Initializing net from parameters: 
state {
  phase: TEST
}
layer {
  name: "data"
  type: "Data"
  top: "data"
  top: "label"
  include {
    phase: TEST
  }
  transform_param {
    crop_size: 227
    mean_file: "/home/mohanty/data/final_dataset/lmdb/grayscale-80-20/mean.binaryproto"
  }
  data_param {
    source: "/home/mohanty/data/final_dataset/lmdb/grayscale-80-20/test_db"
    batch_size: 100
    backend: LMDB
  }
}
layer {
  name: "conv1"
  type: "Convolution"
  bottom: "data"
  top: "conv1"
  param {
    lr_mult: 1
    decay_mult: 1
  }
  param {
    lr_mult: 2
    decay_mult: 0
  }
  convolution_param {
    num_output: 96
    kernel_size: 11
    stride: 4
    weight_filler {
      type: "gaussian"
      std: 0.01
    }
    bias_filler {
      type: "constant"
      value: 0
    }
  }
}
layer {
  name: "relu1"
  type: "ReLU"
  bottom: "conv1"
  top: "conv1"
}
layer {
  name: "norm1"
  type: "LRN"
  bottom: "conv1"
  top: "norm1"
  lrn_param {
    local_size: 5
    alpha: 0.0001
    beta: 0.75
  }
}
layer {
  name: "pool1"
  type: "Pooling"
  bottom: "norm1"
  top: "pool1"
  pooling_param {
    pool: MAX
    kernel_size: 3
    stride: 2
  }
}
layer {
  name: "conv2"
  type: "Convolution"
  bottom: "pool1"
  top: "conv2"
  param {
    lr_mult: 1
    decay_mult: 1
  }
  param {
    lr_mult: 2
    decay_mult: 0
  }
  convolution_param {
    num_output: 256
    pad: 2
    kernel_size: 5
    group: 2
    weight_filler {
      type: "gaussian"
      std: 0.01
    }
    bias_filler {
      type: "constant"
      value: 0.1
    }
  }
}
layer {
  name: "relu2"
  type: "ReLU"
  bottom: "conv2"
  top: "conv2"
}
layer {
  name: "norm2"
  type: "LRN"
  bottom: "conv2"
  top: "norm2"
  lrn_param {
    local_size: 5
    alpha: 0.0001
    beta: 0.75
  }
}
layer {
  name: "pool2"
  type: "Pooling"
  bottom: "norm2"
  top: "pool2"
  pooling_param {
    pool: MAX
    kernel_size: 3
    stride: 2
  }
}
layer {
  name: "conv3"
  type: "Convolution"
  bottom: "pool2"
  top: "conv3"
  param {
    lr_mult: 1
    decay_mult: 1
  }
  param {
    lr_mult: 2
    decay_mult: 0
  }
  convolution_param {
    num_output: 384
    pad: 1
    kernel_size: 3
    weight_filler {
      type: "gaussian"
      std: 0.01
    }
    bias_filler {
      type: "constant"
      value: 0
    }
  }
}
layer {
  name: "relu3"
  type: "ReLU"
  bottom: "conv3"
  top: "conv3"
}
layer {
  name: "conv4"
  type: "Convolution"
  bottom: "conv3"
  top: "conv4"
  param {
    lr_mult: 1
    decay_mult: 1
  }
  param {
    lr_mult: 2
    decay_mult: 0
  }
  convolution_param {
    num_output: 384
    pad: 1
    kernel_size: 3
    group: 2
    weight_filler {
      type: "gaussian"
      std: 0.01
    }
    bias_filler {
      type: "constant"
      value: 0.1
    }
  }
}
layer {
  name: "relu4"
  type: "ReLU"
  bottom: "conv4"
  top: "conv4"
}
layer {
  name: "conv5"
  type: "Convolution"
  bottom: "conv4"
  top: "conv5"
  param {
    lr_mult: 1
    decay_mult: 1
  }
  param {
    lr_mult: 2
    decay_mult: 0
  }
  convolution_param {
    num_output: 256
    pad: 1
    kernel_size: 3
    group: 2
    weight_filler {
      type: "gaussian"
      std: 0.01
    }
    bias_filler {
      type: "constant"
      value: 0.1
    }
  }
}
layer {
  name: "relu5"
  type: "ReLU"
  bottom: "conv5"
  top: "conv5"
}
layer {
  name: "pool5"
  type: "Pooling"
  bottom: "conv5"
  top: "pool5"
  pooling_param {
    pool: MAX
    kernel_size: 3
    stride: 2
  }
}
layer {
  name: "fc6"
  type: "InnerProduct"
  bottom: "pool5"
  top: "fc6"
  param {
    lr_mult: 1
    decay_mult: 1
  }
  param {
    lr_mult: 2
    decay_mult: 0
  }
  inner_product_param {
    num_output: 4096
    weight_filler {
      type: "gaussian"
      std: 0.005
    }
    bias_filler {
      type: "constant"
      value: 0.1
    }
  }
}
layer {
  name: "relu6"
  type: "ReLU"
  bottom: "fc6"
  top: "fc6"
}
layer {
  name: "drop6"
  type: "Dropout"
  bottom: "fc6"
  top: "fc6"
  dropout_param {
    dropout_ratio: 0.5
  }
}
layer {
  name: "fc7"
  type: "InnerProduct"
  bottom: "fc6"
  top: "fc7"
  param {
    lr_mult: 1
    decay_mult: 1
  }
  param {
    lr_mult: 2
    decay_mult: 0
  }
  inner_product_param {
    num_output: 4096
    weight_filler {
      type: "gaussian"
      std: 0.005
    }
    bias_filler {
      type: "constant"
      value: 0.1
    }
  }
}
layer {
  name: "relu7"
  type: "ReLU"
  bottom: "fc7"
  top: "fc7"
}
layer {
  name: "drop7"
  type: "Dropout"
  bottom: "fc7"
  top: "fc7"
  dropout_param {
    dropout_ratio: 0.5
  }
}
layer {
  name: "fc8_plantvillage"
  type: "InnerProduct"
  bottom: "fc7"
  top: "fc8_plantvillage"
  param {
    lr_mult: 1
    decay_mult: 1
  }
  param {
    lr_mult: 2
    decay_mult: 0
  }
  inner_product_param {
    num_output: 38
    weight_filler {
      type: "gaussian"
      std: 0.01
    }
    bias_filler {
      type: "constant"
      value: 0
    }
  }
}
layer {
  name: "prob"
  type: "Softmax"
  bottom: "fc8_plantvillage"
  top: "prob"
  include {
    phase: TEST
  }
}
layer {
  name: "hdf5out"
  type: "HDF5Output"
  bottom: "prob"
  bottom: "label"
  include {
    phase: TEST
  }
  hdf5_output_param {
    file_name: "hdf5_dumps/iter_3924.h5"
  }
}
layer {
  name: "loss"
  type: "SoftmaxWithLoss"
  bottom: "fc8_plantvillage"
  bottom: "label"
  top: "loss"
}
layer {
  name: "accuracy"
  type: "Accuracy"
  bottom: "fc8_plantvillage"
  bottom: "label"
  top: "accuracy"
  include {
    phase: TEST
  }
}
I0403 13:26:47.727934 11266 layer_factory.hpp:77] Creating layer data
I0403 13:26:47.728571 11266 net.cpp:91] Creating Layer data
I0403 13:26:47.728601 11266 net.cpp:399] data -> data
I0403 13:26:47.728654 11266 net.cpp:399] data -> label
I0403 13:26:47.728691 11266 data_transformer.cpp:25] Loading mean file from: /home/mohanty/data/final_dataset/lmdb/grayscale-80-20/mean.binaryproto
I0403 13:26:47.730940 11268 db_lmdb.cpp:38] Opened lmdb /home/mohanty/data/final_dataset/lmdb/grayscale-80-20/test_db
I0403 13:26:47.746104 11266 data_layer.cpp:41] output data size: 100,3,227,227
I0403 13:26:47.862171 11266 net.cpp:141] Setting up data
I0403 13:26:47.862262 11266 net.cpp:148] Top shape: 100 3 227 227 (15458700)
I0403 13:26:47.862283 11266 net.cpp:148] Top shape: 100 (100)
I0403 13:26:47.862298 11266 net.cpp:156] Memory required for data: 61835200
I0403 13:26:47.862326 11266 layer_factory.hpp:77] Creating layer label_data_1_split
I0403 13:26:47.862351 11266 net.cpp:91] Creating Layer label_data_1_split
I0403 13:26:47.862370 11266 net.cpp:425] label_data_1_split <- label
I0403 13:26:47.862401 11266 net.cpp:399] label_data_1_split -> label_data_1_split_0
I0403 13:26:47.862427 11266 net.cpp:399] label_data_1_split -> label_data_1_split_1
I0403 13:26:47.862448 11266 net.cpp:399] label_data_1_split -> label_data_1_split_2
I0403 13:26:47.862512 11266 net.cpp:141] Setting up label_data_1_split
I0403 13:26:47.862534 11266 net.cpp:148] Top shape: 100 (100)
I0403 13:26:47.862551 11266 net.cpp:148] Top shape: 100 (100)
I0403 13:26:47.862571 11266 net.cpp:148] Top shape: 100 (100)
I0403 13:26:47.862596 11266 net.cpp:156] Memory required for data: 61836400
I0403 13:26:47.862610 11266 layer_factory.hpp:77] Creating layer conv1
I0403 13:26:47.862640 11266 net.cpp:91] Creating Layer conv1
I0403 13:26:47.862658 11266 net.cpp:425] conv1 <- data
I0403 13:26:47.862678 11266 net.cpp:399] conv1 -> conv1
I0403 13:26:47.998724 11266 net.cpp:141] Setting up conv1
I0403 13:26:47.998800 11266 net.cpp:148] Top shape: 100 96 55 55 (29040000)
I0403 13:26:47.998817 11266 net.cpp:156] Memory required for data: 177996400
I0403 13:26:47.998849 11266 layer_factory.hpp:77] Creating layer relu1
I0403 13:26:47.998877 11266 net.cpp:91] Creating Layer relu1
I0403 13:26:47.998895 11266 net.cpp:425] relu1 <- conv1
I0403 13:26:47.998914 11266 net.cpp:386] relu1 -> conv1 (in-place)
I0403 13:26:47.999176 11266 net.cpp:141] Setting up relu1
I0403 13:26:47.999202 11266 net.cpp:148] Top shape: 100 96 55 55 (29040000)
I0403 13:26:47.999251 11266 net.cpp:156] Memory required for data: 294156400
I0403 13:26:47.999269 11266 layer_factory.hpp:77] Creating layer norm1
I0403 13:26:47.999297 11266 net.cpp:91] Creating Layer norm1
I0403 13:26:47.999315 11266 net.cpp:425] norm1 <- conv1
I0403 13:26:47.999333 11266 net.cpp:399] norm1 -> norm1
I0403 13:26:47.999723 11266 net.cpp:141] Setting up norm1
I0403 13:26:47.999752 11266 net.cpp:148] Top shape: 100 96 55 55 (29040000)
I0403 13:26:47.999768 11266 net.cpp:156] Memory required for data: 410316400
I0403 13:26:47.999783 11266 layer_factory.hpp:77] Creating layer pool1
I0403 13:26:47.999806 11266 net.cpp:91] Creating Layer pool1
I0403 13:26:47.999824 11266 net.cpp:425] pool1 <- norm1
I0403 13:26:47.999841 11266 net.cpp:399] pool1 -> pool1
I0403 13:26:47.999907 11266 net.cpp:141] Setting up pool1
I0403 13:26:47.999932 11266 net.cpp:148] Top shape: 100 96 27 27 (6998400)
I0403 13:26:47.999948 11266 net.cpp:156] Memory required for data: 438310000
I0403 13:26:47.999961 11266 layer_factory.hpp:77] Creating layer conv2
I0403 13:26:47.999986 11266 net.cpp:91] Creating Layer conv2
I0403 13:26:48.000004 11266 net.cpp:425] conv2 <- pool1
I0403 13:26:48.000022 11266 net.cpp:399] conv2 -> conv2
I0403 13:26:48.014698 11266 net.cpp:141] Setting up conv2
I0403 13:26:48.014776 11266 net.cpp:148] Top shape: 100 256 27 27 (18662400)
I0403 13:26:48.014796 11266 net.cpp:156] Memory required for data: 512959600
I0403 13:26:48.014818 11266 layer_factory.hpp:77] Creating layer relu2
I0403 13:26:48.014838 11266 net.cpp:91] Creating Layer relu2
I0403 13:26:48.014854 11266 net.cpp:425] relu2 <- conv2
I0403 13:26:48.014871 11266 net.cpp:386] relu2 -> conv2 (in-place)
I0403 13:26:48.015128 11266 net.cpp:141] Setting up relu2
I0403 13:26:48.015154 11266 net.cpp:148] Top shape: 100 256 27 27 (18662400)
I0403 13:26:48.015171 11266 net.cpp:156] Memory required for data: 587609200
I0403 13:26:48.015184 11266 layer_factory.hpp:77] Creating layer norm2
I0403 13:26:48.015204 11266 net.cpp:91] Creating Layer norm2
I0403 13:26:48.015220 11266 net.cpp:425] norm2 <- conv2
I0403 13:26:48.015238 11266 net.cpp:399] norm2 -> norm2
I0403 13:26:48.015411 11266 net.cpp:141] Setting up norm2
I0403 13:26:48.015436 11266 net.cpp:148] Top shape: 100 256 27 27 (18662400)
I0403 13:26:48.015451 11266 net.cpp:156] Memory required for data: 662258800
I0403 13:26:48.015465 11266 layer_factory.hpp:77] Creating layer pool2
I0403 13:26:48.015482 11266 net.cpp:91] Creating Layer pool2
I0403 13:26:48.015498 11266 net.cpp:425] pool2 <- norm2
I0403 13:26:48.015516 11266 net.cpp:399] pool2 -> pool2
I0403 13:26:48.015563 11266 net.cpp:141] Setting up pool2
I0403 13:26:48.015590 11266 net.cpp:148] Top shape: 100 256 13 13 (4326400)
I0403 13:26:48.015605 11266 net.cpp:156] Memory required for data: 679564400
I0403 13:26:48.015619 11266 layer_factory.hpp:77] Creating layer conv3
I0403 13:26:48.015640 11266 net.cpp:91] Creating Layer conv3
I0403 13:26:48.015655 11266 net.cpp:425] conv3 <- pool2
I0403 13:26:48.015673 11266 net.cpp:399] conv3 -> conv3
I0403 13:26:48.058145 11266 net.cpp:141] Setting up conv3
I0403 13:26:48.058204 11266 net.cpp:148] Top shape: 100 384 13 13 (6489600)
I0403 13:26:48.058221 11266 net.cpp:156] Memory required for data: 705522800
I0403 13:26:48.058246 11266 layer_factory.hpp:77] Creating layer relu3
I0403 13:26:48.058276 11266 net.cpp:91] Creating Layer relu3
I0403 13:26:48.058295 11266 net.cpp:425] relu3 <- conv3
I0403 13:26:48.058312 11266 net.cpp:386] relu3 -> conv3 (in-place)
I0403 13:26:48.058590 11266 net.cpp:141] Setting up relu3
I0403 13:26:48.058616 11266 net.cpp:148] Top shape: 100 384 13 13 (6489600)
I0403 13:26:48.058631 11266 net.cpp:156] Memory required for data: 731481200
I0403 13:26:48.058646 11266 layer_factory.hpp:77] Creating layer conv4
I0403 13:26:48.058670 11266 net.cpp:91] Creating Layer conv4
I0403 13:26:48.058688 11266 net.cpp:425] conv4 <- conv3
I0403 13:26:48.058712 11266 net.cpp:399] conv4 -> conv4
I0403 13:26:48.088218 11266 net.cpp:141] Setting up conv4
I0403 13:26:48.088266 11266 net.cpp:148] Top shape: 100 384 13 13 (6489600)
I0403 13:26:48.088317 11266 net.cpp:156] Memory required for data: 757439600
I0403 13:26:48.088338 11266 layer_factory.hpp:77] Creating layer relu4
I0403 13:26:48.088358 11266 net.cpp:91] Creating Layer relu4
I0403 13:26:48.088376 11266 net.cpp:425] relu4 <- conv4
I0403 13:26:48.088395 11266 net.cpp:386] relu4 -> conv4 (in-place)
I0403 13:26:48.088675 11266 net.cpp:141] Setting up relu4
I0403 13:26:48.088703 11266 net.cpp:148] Top shape: 100 384 13 13 (6489600)
I0403 13:26:48.088719 11266 net.cpp:156] Memory required for data: 783398000
I0403 13:26:48.088754 11266 layer_factory.hpp:77] Creating layer conv5
I0403 13:26:48.088788 11266 net.cpp:91] Creating Layer conv5
I0403 13:26:48.088805 11266 net.cpp:425] conv5 <- conv4
I0403 13:26:48.088824 11266 net.cpp:399] conv5 -> conv5
I0403 13:26:48.108947 11266 net.cpp:141] Setting up conv5
I0403 13:26:48.108986 11266 net.cpp:148] Top shape: 100 256 13 13 (4326400)
I0403 13:26:48.109004 11266 net.cpp:156] Memory required for data: 800703600
I0403 13:26:48.109027 11266 layer_factory.hpp:77] Creating layer relu5
I0403 13:26:48.109047 11266 net.cpp:91] Creating Layer relu5
I0403 13:26:48.109063 11266 net.cpp:425] relu5 <- conv5
I0403 13:26:48.109082 11266 net.cpp:386] relu5 -> conv5 (in-place)
I0403 13:26:48.109405 11266 net.cpp:141] Setting up relu5
I0403 13:26:48.109432 11266 net.cpp:148] Top shape: 100 256 13 13 (4326400)
I0403 13:26:48.109447 11266 net.cpp:156] Memory required for data: 818009200
I0403 13:26:48.109462 11266 layer_factory.hpp:77] Creating layer pool5
I0403 13:26:48.109485 11266 net.cpp:91] Creating Layer pool5
I0403 13:26:48.109503 11266 net.cpp:425] pool5 <- conv5
I0403 13:26:48.109520 11266 net.cpp:399] pool5 -> pool5
I0403 13:26:48.109585 11266 net.cpp:141] Setting up pool5
I0403 13:26:48.109607 11266 net.cpp:148] Top shape: 100 256 6 6 (921600)
I0403 13:26:48.109622 11266 net.cpp:156] Memory required for data: 821695600
I0403 13:26:48.109637 11266 layer_factory.hpp:77] Creating layer fc6
I0403 13:26:48.109663 11266 net.cpp:91] Creating Layer fc6
I0403 13:26:48.109680 11266 net.cpp:425] fc6 <- pool5
I0403 13:26:48.109700 11266 net.cpp:399] fc6 -> fc6
I0403 13:26:49.681784 11266 net.cpp:141] Setting up fc6
I0403 13:26:49.681860 11266 net.cpp:148] Top shape: 100 4096 (409600)
I0403 13:26:49.681876 11266 net.cpp:156] Memory required for data: 823334000
I0403 13:26:49.681898 11266 layer_factory.hpp:77] Creating layer relu6
I0403 13:26:49.681923 11266 net.cpp:91] Creating Layer relu6
I0403 13:26:49.681941 11266 net.cpp:425] relu6 <- fc6
I0403 13:26:49.681960 11266 net.cpp:386] relu6 -> fc6 (in-place)
I0403 13:26:49.682174 11266 net.cpp:141] Setting up relu6
I0403 13:26:49.682199 11266 net.cpp:148] Top shape: 100 4096 (409600)
I0403 13:26:49.682216 11266 net.cpp:156] Memory required for data: 824972400
I0403 13:26:49.682230 11266 layer_factory.hpp:77] Creating layer drop6
I0403 13:26:49.682248 11266 net.cpp:91] Creating Layer drop6
I0403 13:26:49.682263 11266 net.cpp:425] drop6 <- fc6
I0403 13:26:49.682282 11266 net.cpp:386] drop6 -> fc6 (in-place)
I0403 13:26:49.682332 11266 net.cpp:141] Setting up drop6
I0403 13:26:49.682358 11266 net.cpp:148] Top shape: 100 4096 (409600)
I0403 13:26:49.682374 11266 net.cpp:156] Memory required for data: 826610800
I0403 13:26:49.682387 11266 layer_factory.hpp:77] Creating layer fc7
I0403 13:26:49.682406 11266 net.cpp:91] Creating Layer fc7
I0403 13:26:49.682422 11266 net.cpp:425] fc7 <- fc6
I0403 13:26:49.682442 11266 net.cpp:399] fc7 -> fc7
I0403 13:26:50.365522 11266 net.cpp:141] Setting up fc7
I0403 13:26:50.365615 11266 net.cpp:148] Top shape: 100 4096 (409600)
I0403 13:26:50.365633 11266 net.cpp:156] Memory required for data: 828249200
I0403 13:26:50.365655 11266 layer_factory.hpp:77] Creating layer relu7
I0403 13:26:50.365679 11266 net.cpp:91] Creating Layer relu7
I0403 13:26:50.365696 11266 net.cpp:425] relu7 <- fc7
I0403 13:26:50.365717 11266 net.cpp:386] relu7 -> fc7 (in-place)
I0403 13:26:50.366144 11266 net.cpp:141] Setting up relu7
I0403 13:26:50.366173 11266 net.cpp:148] Top shape: 100 4096 (409600)
I0403 13:26:50.366228 11266 net.cpp:156] Memory required for data: 829887600
I0403 13:26:50.366245 11266 layer_factory.hpp:77] Creating layer drop7
I0403 13:26:50.366264 11266 net.cpp:91] Creating Layer drop7
I0403 13:26:50.366279 11266 net.cpp:425] drop7 <- fc7
I0403 13:26:50.366298 11266 net.cpp:386] drop7 -> fc7 (in-place)
I0403 13:26:50.366340 11266 net.cpp:141] Setting up drop7
I0403 13:26:50.366363 11266 net.cpp:148] Top shape: 100 4096 (409600)
I0403 13:26:50.366377 11266 net.cpp:156] Memory required for data: 831526000
I0403 13:26:50.366391 11266 layer_factory.hpp:77] Creating layer fc8_plantvillage
I0403 13:26:50.366415 11266 net.cpp:91] Creating Layer fc8_plantvillage
I0403 13:26:50.366430 11266 net.cpp:425] fc8_plantvillage <- fc7
I0403 13:26:50.366449 11266 net.cpp:399] fc8_plantvillage -> fc8_plantvillage
I0403 13:26:50.373153 11266 net.cpp:141] Setting up fc8_plantvillage
I0403 13:26:50.373183 11266 net.cpp:148] Top shape: 100 38 (3800)
I0403 13:26:50.373199 11266 net.cpp:156] Memory required for data: 831541200
I0403 13:26:50.373219 11266 layer_factory.hpp:77] Creating layer fc8_plantvillage_fc8_plantvillage_0_split
I0403 13:26:50.373239 11266 net.cpp:91] Creating Layer fc8_plantvillage_fc8_plantvillage_0_split
I0403 13:26:50.373255 11266 net.cpp:425] fc8_plantvillage_fc8_plantvillage_0_split <- fc8_plantvillage
I0403 13:26:50.373275 11266 net.cpp:399] fc8_plantvillage_fc8_plantvillage_0_split -> fc8_plantvillage_fc8_plantvillage_0_split_0
I0403 13:26:50.373296 11266 net.cpp:399] fc8_plantvillage_fc8_plantvillage_0_split -> fc8_plantvillage_fc8_plantvillage_0_split_1
I0403 13:26:50.373316 11266 net.cpp:399] fc8_plantvillage_fc8_plantvillage_0_split -> fc8_plantvillage_fc8_plantvillage_0_split_2
I0403 13:26:50.373391 11266 net.cpp:141] Setting up fc8_plantvillage_fc8_plantvillage_0_split
I0403 13:26:50.373414 11266 net.cpp:148] Top shape: 100 38 (3800)
I0403 13:26:50.373430 11266 net.cpp:148] Top shape: 100 38 (3800)
I0403 13:26:50.373446 11266 net.cpp:148] Top shape: 100 38 (3800)
I0403 13:26:50.373459 11266 net.cpp:156] Memory required for data: 831586800
I0403 13:26:50.373473 11266 layer_factory.hpp:77] Creating layer prob
I0403 13:26:50.373492 11266 net.cpp:91] Creating Layer prob
I0403 13:26:50.373507 11266 net.cpp:425] prob <- fc8_plantvillage_fc8_plantvillage_0_split_0
I0403 13:26:50.373528 11266 net.cpp:399] prob -> prob
I0403 13:26:50.373756 11266 net.cpp:141] Setting up prob
I0403 13:26:50.373785 11266 net.cpp:148] Top shape: 100 38 (3800)
I0403 13:26:50.373801 11266 net.cpp:156] Memory required for data: 831602000
I0403 13:26:50.373816 11266 layer_factory.hpp:77] Creating layer hdf5out
I0403 13:26:50.373833 11266 net.cpp:91] Creating Layer hdf5out
I0403 13:26:50.373849 11266 net.cpp:425] hdf5out <- prob
I0403 13:26:50.373865 11266 net.cpp:425] hdf5out <- label_data_1_split_0
I0403 13:26:50.376526 11266 net.cpp:141] Setting up hdf5out
…
