…
I0403 13:24:10.759454 11168 net.cpp:313] The NetState phase (1) differed from the phase (0) specified by a rule in layer data
I0403 13:24:10.759802 11168 net.cpp:49] Initializing net from parameters: 
state {
  phase: TEST
}
layer {
  name: "data"
  type: "Data"
  top: "data"
  top: "label"
  include {
    phase: TEST
  }
  transform_param {
    crop_size: 227
    mean_file: "/home/mohanty/data/final_dataset/lmdb/grayscale-80-20/mean.binaryproto"
  }
  data_param {
    source: "/home/mohanty/data/final_dataset/lmdb/grayscale-80-20/test_db"
    batch_size: 100
    backend: LMDB
  }
}
layer {
  name: "conv1"
  type: "Convolution"
  bottom: "data"
  top: "conv1"
  param {
    lr_mult: 1
    decay_mult: 1
  }
  param {
    lr_mult: 2
    decay_mult: 0
  }
  convolution_param {
    num_output: 96
    kernel_size: 11
    stride: 4
    weight_filler {
      type: "gaussian"
      std: 0.01
    }
    bias_filler {
      type: "constant"
      value: 0
    }
  }
}
layer {
  name: "relu1"
  type: "ReLU"
  bottom: "conv1"
  top: "conv1"
}
layer {
  name: "norm1"
  type: "LRN"
  bottom: "conv1"
  top: "norm1"
  lrn_param {
    local_size: 5
    alpha: 0.0001
    beta: 0.75
  }
}
layer {
  name: "pool1"
  type: "Pooling"
  bottom: "norm1"
  top: "pool1"
  pooling_param {
    pool: MAX
    kernel_size: 3
    stride: 2
  }
}
layer {
  name: "conv2"
  type: "Convolution"
  bottom: "pool1"
  top: "conv2"
  param {
    lr_mult: 1
    decay_mult: 1
  }
  param {
    lr_mult: 2
    decay_mult: 0
  }
  convolution_param {
    num_output: 256
    pad: 2
    kernel_size: 5
    group: 2
    weight_filler {
      type: "gaussian"
      std: 0.01
    }
    bias_filler {
      type: "constant"
      value: 0.1
    }
  }
}
layer {
  name: "relu2"
  type: "ReLU"
  bottom: "conv2"
  top: "conv2"
}
layer {
  name: "norm2"
  type: "LRN"
  bottom: "conv2"
  top: "norm2"
  lrn_param {
    local_size: 5
    alpha: 0.0001
    beta: 0.75
  }
}
layer {
  name: "pool2"
  type: "Pooling"
  bottom: "norm2"
  top: "pool2"
  pooling_param {
    pool: MAX
    kernel_size: 3
    stride: 2
  }
}
layer {
  name: "conv3"
  type: "Convolution"
  bottom: "pool2"
  top: "conv3"
  param {
    lr_mult: 1
    decay_mult: 1
  }
  param {
    lr_mult: 2
    decay_mult: 0
  }
  convolution_param {
    num_output: 384
    pad: 1
    kernel_size: 3
    weight_filler {
      type: "gaussian"
      std: 0.01
    }
    bias_filler {
      type: "constant"
      value: 0
    }
  }
}
layer {
  name: "relu3"
  type: "ReLU"
  bottom: "conv3"
  top: "conv3"
}
layer {
  name: "conv4"
  type: "Convolution"
  bottom: "conv3"
  top: "conv4"
  param {
    lr_mult: 1
    decay_mult: 1
  }
  param {
    lr_mult: 2
    decay_mult: 0
  }
  convolution_param {
    num_output: 384
    pad: 1
    kernel_size: 3
    group: 2
    weight_filler {
      type: "gaussian"
      std: 0.01
    }
    bias_filler {
      type: "constant"
      value: 0.1
    }
  }
}
layer {
  name: "relu4"
  type: "ReLU"
  bottom: "conv4"
  top: "conv4"
}
layer {
  name: "conv5"
  type: "Convolution"
  bottom: "conv4"
  top: "conv5"
  param {
    lr_mult: 1
    decay_mult: 1
  }
  param {
    lr_mult: 2
    decay_mult: 0
  }
  convolution_param {
    num_output: 256
    pad: 1
    kernel_size: 3
    group: 2
    weight_filler {
      type: "gaussian"
      std: 0.01
    }
    bias_filler {
      type: "constant"
      value: 0.1
    }
  }
}
layer {
  name: "relu5"
  type: "ReLU"
  bottom: "conv5"
  top: "conv5"
}
layer {
  name: "pool5"
  type: "Pooling"
  bottom: "conv5"
  top: "pool5"
  pooling_param {
    pool: MAX
    kernel_size: 3
    stride: 2
  }
}
layer {
  name: "fc6"
  type: "InnerProduct"
  bottom: "pool5"
  top: "fc6"
  param {
    lr_mult: 1
    decay_mult: 1
  }
  param {
    lr_mult: 2
    decay_mult: 0
  }
  inner_product_param {
    num_output: 4096
    weight_filler {
      type: "gaussian"
      std: 0.005
    }
    bias_filler {
      type: "constant"
      value: 0.1
    }
  }
}
layer {
  name: "relu6"
  type: "ReLU"
  bottom: "fc6"
  top: "fc6"
}
layer {
  name: "drop6"
  type: "Dropout"
  bottom: "fc6"
  top: "fc6"
  dropout_param {
    dropout_ratio: 0.5
  }
}
layer {
  name: "fc7"
  type: "InnerProduct"
  bottom: "fc6"
  top: "fc7"
  param {
    lr_mult: 1
    decay_mult: 1
  }
  param {
    lr_mult: 2
    decay_mult: 0
  }
  inner_product_param {
    num_output: 4096
    weight_filler {
      type: "gaussian"
      std: 0.005
    }
    bias_filler {
      type: "constant"
      value: 0.1
    }
  }
}
layer {
  name: "relu7"
  type: "ReLU"
  bottom: "fc7"
  top: "fc7"
}
layer {
  name: "drop7"
  type: "Dropout"
  bottom: "fc7"
  top: "fc7"
  dropout_param {
    dropout_ratio: 0.5
  }
}
layer {
  name: "fc8_plantvillage"
  type: "InnerProduct"
  bottom: "fc7"
  top: "fc8_plantvillage"
  param {
    lr_mult: 1
    decay_mult: 1
  }
  param {
    lr_mult: 2
    decay_mult: 0
  }
  inner_product_param {
    num_output: 38
    weight_filler {
      type: "gaussian"
      std: 0.01
    }
    bias_filler {
      type: "constant"
      value: 0
    }
  }
}
layer {
  name: "prob"
  type: "Softmax"
  bottom: "fc8_plantvillage"
  top: "prob"
  include {
    phase: TEST
  }
}
layer {
  name: "hdf5out"
  type: "HDF5Output"
  bottom: "prob"
  bottom: "label"
  include {
    phase: TEST
  }
  hdf5_output_param {
    file_name: "hdf5_dumps/iter_1308.h5"
  }
}
layer {
  name: "loss"
  type: "SoftmaxWithLoss"
  bottom: "fc8_plantvillage"
  bottom: "label"
  top: "loss"
}
layer {
  name: "accuracy"
  type: "Accuracy"
  bottom: "fc8_plantvillage"
  bottom: "label"
  top: "accuracy"
  include {
    phase: TEST
  }
}
I0403 13:24:10.760428 11168 layer_factory.hpp:77] Creating layer data
I0403 13:24:10.761106 11168 net.cpp:91] Creating Layer data
I0403 13:24:10.761138 11168 net.cpp:399] data -> data
I0403 13:24:10.761190 11168 net.cpp:399] data -> label
I0403 13:24:10.761226 11168 data_transformer.cpp:25] Loading mean file from: /home/mohanty/data/final_dataset/lmdb/grayscale-80-20/mean.binaryproto
I0403 13:24:10.765045 11172 db_lmdb.cpp:38] Opened lmdb /home/mohanty/data/final_dataset/lmdb/grayscale-80-20/test_db
I0403 13:24:10.775357 11168 data_layer.cpp:41] output data size: 100,3,227,227
I0403 13:24:10.893268 11168 net.cpp:141] Setting up data
I0403 13:24:10.893360 11168 net.cpp:148] Top shape: 100 3 227 227 (15458700)
I0403 13:24:10.893383 11168 net.cpp:148] Top shape: 100 (100)
I0403 13:24:10.893398 11168 net.cpp:156] Memory required for data: 61835200
I0403 13:24:10.893426 11168 layer_factory.hpp:77] Creating layer label_data_1_split
I0403 13:24:10.893451 11168 net.cpp:91] Creating Layer label_data_1_split
I0403 13:24:10.893470 11168 net.cpp:425] label_data_1_split <- label
I0403 13:24:10.893501 11168 net.cpp:399] label_data_1_split -> label_data_1_split_0
I0403 13:24:10.893529 11168 net.cpp:399] label_data_1_split -> label_data_1_split_1
I0403 13:24:10.893549 11168 net.cpp:399] label_data_1_split -> label_data_1_split_2
I0403 13:24:10.893615 11168 net.cpp:141] Setting up label_data_1_split
I0403 13:24:10.893640 11168 net.cpp:148] Top shape: 100 (100)
I0403 13:24:10.893656 11168 net.cpp:148] Top shape: 100 (100)
I0403 13:24:10.893672 11168 net.cpp:148] Top shape: 100 (100)
I0403 13:24:10.893685 11168 net.cpp:156] Memory required for data: 61836400
I0403 13:24:10.893700 11168 layer_factory.hpp:77] Creating layer conv1
I0403 13:24:10.893731 11168 net.cpp:91] Creating Layer conv1
I0403 13:24:10.893749 11168 net.cpp:425] conv1 <- data
I0403 13:24:10.893769 11168 net.cpp:399] conv1 -> conv1
I0403 13:24:11.029084 11168 net.cpp:141] Setting up conv1
I0403 13:24:11.029162 11168 net.cpp:148] Top shape: 100 96 55 55 (29040000)
I0403 13:24:11.029180 11168 net.cpp:156] Memory required for data: 177996400
I0403 13:24:11.029211 11168 layer_factory.hpp:77] Creating layer relu1
I0403 13:24:11.029237 11168 net.cpp:91] Creating Layer relu1
I0403 13:24:11.029255 11168 net.cpp:425] relu1 <- conv1
I0403 13:24:11.029273 11168 net.cpp:386] relu1 -> conv1 (in-place)
I0403 13:24:11.029528 11168 net.cpp:141] Setting up relu1
I0403 13:24:11.029556 11168 net.cpp:148] Top shape: 100 96 55 55 (29040000)
I0403 13:24:11.029618 11168 net.cpp:156] Memory required for data: 294156400
I0403 13:24:11.029634 11168 layer_factory.hpp:77] Creating layer norm1
I0403 13:24:11.029660 11168 net.cpp:91] Creating Layer norm1
I0403 13:24:11.029678 11168 net.cpp:425] norm1 <- conv1
I0403 13:24:11.029696 11168 net.cpp:399] norm1 -> norm1
I0403 13:24:11.029999 11168 net.cpp:141] Setting up norm1
I0403 13:24:11.030026 11168 net.cpp:148] Top shape: 100 96 55 55 (29040000)
I0403 13:24:11.030041 11168 net.cpp:156] Memory required for data: 410316400
I0403 13:24:11.030055 11168 layer_factory.hpp:77] Creating layer pool1
I0403 13:24:11.030077 11168 net.cpp:91] Creating Layer pool1
I0403 13:24:11.030093 11168 net.cpp:425] pool1 <- norm1
I0403 13:24:11.030110 11168 net.cpp:399] pool1 -> pool1
I0403 13:24:11.030175 11168 net.cpp:141] Setting up pool1
I0403 13:24:11.030199 11168 net.cpp:148] Top shape: 100 96 27 27 (6998400)
I0403 13:24:11.030212 11168 net.cpp:156] Memory required for data: 438310000
I0403 13:24:11.030226 11168 layer_factory.hpp:77] Creating layer conv2
I0403 13:24:11.030251 11168 net.cpp:91] Creating Layer conv2
I0403 13:24:11.030266 11168 net.cpp:425] conv2 <- pool1
I0403 13:24:11.030282 11168 net.cpp:399] conv2 -> conv2
I0403 13:24:11.044708 11168 net.cpp:141] Setting up conv2
I0403 13:24:11.044746 11168 net.cpp:148] Top shape: 100 256 27 27 (18662400)
I0403 13:24:11.044762 11168 net.cpp:156] Memory required for data: 512959600
I0403 13:24:11.044787 11168 layer_factory.hpp:77] Creating layer relu2
I0403 13:24:11.044807 11168 net.cpp:91] Creating Layer relu2
I0403 13:24:11.044822 11168 net.cpp:425] relu2 <- conv2
I0403 13:24:11.044839 11168 net.cpp:386] relu2 -> conv2 (in-place)
I0403 13:24:11.045120 11168 net.cpp:141] Setting up relu2
I0403 13:24:11.045146 11168 net.cpp:148] Top shape: 100 256 27 27 (18662400)
I0403 13:24:11.045169 11168 net.cpp:156] Memory required for data: 587609200
I0403 13:24:11.045184 11168 layer_factory.hpp:77] Creating layer norm2
I0403 13:24:11.045203 11168 net.cpp:91] Creating Layer norm2
I0403 13:24:11.045219 11168 net.cpp:425] norm2 <- conv2
I0403 13:24:11.045239 11168 net.cpp:399] norm2 -> norm2
I0403 13:24:11.045439 11168 net.cpp:141] Setting up norm2
I0403 13:24:11.045464 11168 net.cpp:148] Top shape: 100 256 27 27 (18662400)
I0403 13:24:11.045480 11168 net.cpp:156] Memory required for data: 662258800
I0403 13:24:11.045495 11168 layer_factory.hpp:77] Creating layer pool2
I0403 13:24:11.045516 11168 net.cpp:91] Creating Layer pool2
I0403 13:24:11.045533 11168 net.cpp:425] pool2 <- norm2
I0403 13:24:11.045550 11168 net.cpp:399] pool2 -> pool2
I0403 13:24:11.045608 11168 net.cpp:141] Setting up pool2
I0403 13:24:11.045631 11168 net.cpp:148] Top shape: 100 256 13 13 (4326400)
I0403 13:24:11.045645 11168 net.cpp:156] Memory required for data: 679564400
I0403 13:24:11.045660 11168 layer_factory.hpp:77] Creating layer conv3
I0403 13:24:11.045682 11168 net.cpp:91] Creating Layer conv3
I0403 13:24:11.045699 11168 net.cpp:425] conv3 <- pool2
I0403 13:24:11.045720 11168 net.cpp:399] conv3 -> conv3
I0403 13:24:11.083526 11168 net.cpp:141] Setting up conv3
I0403 13:24:11.083587 11168 net.cpp:148] Top shape: 100 384 13 13 (6489600)
I0403 13:24:11.083607 11168 net.cpp:156] Memory required for data: 705522800
I0403 13:24:11.083632 11168 layer_factory.hpp:77] Creating layer relu3
I0403 13:24:11.083655 11168 net.cpp:91] Creating Layer relu3
I0403 13:24:11.083673 11168 net.cpp:425] relu3 <- conv3
I0403 13:24:11.083691 11168 net.cpp:386] relu3 -> conv3 (in-place)
I0403 13:24:11.083966 11168 net.cpp:141] Setting up relu3
I0403 13:24:11.083992 11168 net.cpp:148] Top shape: 100 384 13 13 (6489600)
I0403 13:24:11.084007 11168 net.cpp:156] Memory required for data: 731481200
I0403 13:24:11.084020 11168 layer_factory.hpp:77] Creating layer conv4
I0403 13:24:11.084045 11168 net.cpp:91] Creating Layer conv4
I0403 13:24:11.084063 11168 net.cpp:425] conv4 <- conv3
I0403 13:24:11.084082 11168 net.cpp:399] conv4 -> conv4
I0403 13:24:11.112781 11168 net.cpp:141] Setting up conv4
I0403 13:24:11.112823 11168 net.cpp:148] Top shape: 100 384 13 13 (6489600)
I0403 13:24:11.112876 11168 net.cpp:156] Memory required for data: 757439600
I0403 13:24:11.112900 11168 layer_factory.hpp:77] Creating layer relu4
I0403 13:24:11.112921 11168 net.cpp:91] Creating Layer relu4
I0403 13:24:11.112939 11168 net.cpp:425] relu4 <- conv4
I0403 13:24:11.112960 11168 net.cpp:386] relu4 -> conv4 (in-place)
I0403 13:24:11.113234 11168 net.cpp:141] Setting up relu4
I0403 13:24:11.113260 11168 net.cpp:148] Top shape: 100 384 13 13 (6489600)
I0403 13:24:11.113276 11168 net.cpp:156] Memory required for data: 783398000
I0403 13:24:11.113289 11168 layer_factory.hpp:77] Creating layer conv5
I0403 13:24:11.113312 11168 net.cpp:91] Creating Layer conv5
I0403 13:24:11.113329 11168 net.cpp:425] conv5 <- conv4
I0403 13:24:11.113349 11168 net.cpp:399] conv5 -> conv5
I0403 13:24:11.133128 11168 net.cpp:141] Setting up conv5
I0403 13:24:11.133165 11168 net.cpp:148] Top shape: 100 256 13 13 (4326400)
I0403 13:24:11.133182 11168 net.cpp:156] Memory required for data: 800703600
I0403 13:24:11.133205 11168 layer_factory.hpp:77] Creating layer relu5
I0403 13:24:11.133229 11168 net.cpp:91] Creating Layer relu5
I0403 13:24:11.133245 11168 net.cpp:425] relu5 <- conv5
I0403 13:24:11.133261 11168 net.cpp:386] relu5 -> conv5 (in-place)
I0403 13:24:11.133543 11168 net.cpp:141] Setting up relu5
I0403 13:24:11.133569 11168 net.cpp:148] Top shape: 100 256 13 13 (4326400)
I0403 13:24:11.133590 11168 net.cpp:156] Memory required for data: 818009200
I0403 13:24:11.133625 11168 layer_factory.hpp:77] Creating layer pool5
I0403 13:24:11.133651 11168 net.cpp:91] Creating Layer pool5
I0403 13:24:11.133677 11168 net.cpp:425] pool5 <- conv5
I0403 13:24:11.133694 11168 net.cpp:399] pool5 -> pool5
I0403 13:24:11.133757 11168 net.cpp:141] Setting up pool5
I0403 13:24:11.133781 11168 net.cpp:148] Top shape: 100 256 6 6 (921600)
I0403 13:24:11.133796 11168 net.cpp:156] Memory required for data: 821695600
I0403 13:24:11.133811 11168 layer_factory.hpp:77] Creating layer fc6
I0403 13:24:11.133839 11168 net.cpp:91] Creating Layer fc6
I0403 13:24:11.133858 11168 net.cpp:425] fc6 <- pool5
I0403 13:24:11.133887 11168 net.cpp:399] fc6 -> fc6
I0403 13:24:12.652328 11168 net.cpp:141] Setting up fc6
I0403 13:24:12.652420 11168 net.cpp:148] Top shape: 100 4096 (409600)
I0403 13:24:12.652436 11168 net.cpp:156] Memory required for data: 823334000
I0403 13:24:12.652456 11168 layer_factory.hpp:77] Creating layer relu6
I0403 13:24:12.652478 11168 net.cpp:91] Creating Layer relu6
I0403 13:24:12.652495 11168 net.cpp:425] relu6 <- fc6
I0403 13:24:12.652518 11168 net.cpp:386] relu6 -> fc6 (in-place)
I0403 13:24:12.652755 11168 net.cpp:141] Setting up relu6
I0403 13:24:12.652781 11168 net.cpp:148] Top shape: 100 4096 (409600)
I0403 13:24:12.652794 11168 net.cpp:156] Memory required for data: 824972400
I0403 13:24:12.652808 11168 layer_factory.hpp:77] Creating layer drop6
I0403 13:24:12.652828 11168 net.cpp:91] Creating Layer drop6
I0403 13:24:12.652851 11168 net.cpp:425] drop6 <- fc6
I0403 13:24:12.652868 11168 net.cpp:386] drop6 -> fc6 (in-place)
I0403 13:24:12.652918 11168 net.cpp:141] Setting up drop6
I0403 13:24:12.652943 11168 net.cpp:148] Top shape: 100 4096 (409600)
I0403 13:24:12.652958 11168 net.cpp:156] Memory required for data: 826610800
I0403 13:24:12.652972 11168 layer_factory.hpp:77] Creating layer fc7
I0403 13:24:12.652992 11168 net.cpp:91] Creating Layer fc7
I0403 13:24:12.653007 11168 net.cpp:425] fc7 <- fc6
I0403 13:24:12.653025 11168 net.cpp:399] fc7 -> fc7
I0403 13:24:13.353281 11168 net.cpp:141] Setting up fc7
I0403 13:24:13.353354 11168 net.cpp:148] Top shape: 100 4096 (409600)
I0403 13:24:13.353374 11168 net.cpp:156] Memory required for data: 828249200
I0403 13:24:13.353399 11168 layer_factory.hpp:77] Creating layer relu7
I0403 13:24:13.353425 11168 net.cpp:91] Creating Layer relu7
I0403 13:24:13.353445 11168 net.cpp:425] relu7 <- fc7
I0403 13:24:13.353469 11168 net.cpp:386] relu7 -> fc7 (in-place)
I0403 13:24:13.353909 11168 net.cpp:141] Setting up relu7
I0403 13:24:13.353942 11168 net.cpp:148] Top shape: 100 4096 (409600)
I0403 13:24:13.353991 11168 net.cpp:156] Memory required for data: 829887600
I0403 13:24:13.354012 11168 layer_factory.hpp:77] Creating layer drop7
I0403 13:24:13.354032 11168 net.cpp:91] Creating Layer drop7
I0403 13:24:13.354050 11168 net.cpp:425] drop7 <- fc7
I0403 13:24:13.354070 11168 net.cpp:386] drop7 -> fc7 (in-place)
I0403 13:24:13.354120 11168 net.cpp:141] Setting up drop7
I0403 13:24:13.354145 11168 net.cpp:148] Top shape: 100 4096 (409600)
I0403 13:24:13.354159 11168 net.cpp:156] Memory required for data: 831526000
I0403 13:24:13.354176 11168 layer_factory.hpp:77] Creating layer fc8_plantvillage
I0403 13:24:13.354202 11168 net.cpp:91] Creating Layer fc8_plantvillage
I0403 13:24:13.354220 11168 net.cpp:425] fc8_plantvillage <- fc7
I0403 13:24:13.354244 11168 net.cpp:399] fc8_plantvillage -> fc8_plantvillage
I0403 13:24:13.361413 11168 net.cpp:141] Setting up fc8_plantvillage
I0403 13:24:13.361449 11168 net.cpp:148] Top shape: 100 38 (3800)
I0403 13:24:13.361466 11168 net.cpp:156] Memory required for data: 831541200
I0403 13:24:13.361486 11168 layer_factory.hpp:77] Creating layer fc8_plantvillage_fc8_plantvillage_0_split
I0403 13:24:13.361507 11168 net.cpp:91] Creating Layer fc8_plantvillage_fc8_plantvillage_0_split
I0403 13:24:13.361526 11168 net.cpp:425] fc8_plantvillage_fc8_plantvillage_0_split <- fc8_plantvillage
I0403 13:24:13.361546 11168 net.cpp:399] fc8_plantvillage_fc8_plantvillage_0_split -> fc8_plantvillage_fc8_plantvillage_0_split_0
I0403 13:24:13.361578 11168 net.cpp:399] fc8_plantvillage_fc8_plantvillage_0_split -> fc8_plantvillage_fc8_plantvillage_0_split_1
I0403 13:24:13.361603 11168 net.cpp:399] fc8_plantvillage_fc8_plantvillage_0_split -> fc8_plantvillage_fc8_plantvillage_0_split_2
I0403 13:24:13.361688 11168 net.cpp:141] Setting up fc8_plantvillage_fc8_plantvillage_0_split
I0403 13:24:13.361716 11168 net.cpp:148] Top shape: 100 38 (3800)
I0403 13:24:13.361733 11168 net.cpp:148] Top shape: 100 38 (3800)
I0403 13:24:13.361752 11168 net.cpp:148] Top shape: 100 38 (3800)
I0403 13:24:13.361766 11168 net.cpp:156] Memory required for data: 831586800
I0403 13:24:13.361781 11168 layer_factory.hpp:77] Creating layer prob
I0403 13:24:13.361800 11168 net.cpp:91] Creating Layer prob
I0403 13:24:13.361817 11168 net.cpp:425] prob <- fc8_plantvillage_fc8_plantvillage_0_split_0
I0403 13:24:13.361837 11168 net.cpp:399] prob -> prob
I0403 13:24:13.362078 11168 net.cpp:141] Setting up prob
I0403 13:24:13.362105 11168 net.cpp:148] Top shape: 100 38 (3800)
I0403 13:24:13.362123 11168 net.cpp:156] Memory required for data: 831602000
I0403 13:24:13.362139 11168 layer_factory.hpp:77] Creating layer hdf5out
I0403 13:24:13.362160 11168 net.cpp:91] Creating Layer hdf5out
I0403 13:24:13.362176 11168 net.cpp:425] hdf5out <- prob
I0403 13:24:13.362200 11168 net.cpp:425] hdf5out <- label_data_1_split_0
I0403 13:24:13.364588 11168 net.cpp:141] Setting up hdf5out
…
