…
I0403 13:31:51.903170 11575 net.cpp:313] The NetState phase (1) differed from the phase (0) specified by a rule in layer data
I0403 13:31:51.903475 11575 net.cpp:49] Initializing net from parameters: 
state {
  phase: TEST
}
layer {
  name: "data"
  type: "Data"
  top: "data"
  top: "label"
  include {
    phase: TEST
  }
  transform_param {
    crop_size: 227
    mean_file: "/home/mohanty/data/final_dataset/lmdb/grayscale-80-20/mean.binaryproto"
  }
  data_param {
    source: "/home/mohanty/data/final_dataset/lmdb/grayscale-80-20/test_db"
    batch_size: 100
    backend: LMDB
  }
}
layer {
  name: "conv1"
  type: "Convolution"
  bottom: "data"
  top: "conv1"
  param {
    lr_mult: 1
    decay_mult: 1
  }
  param {
    lr_mult: 2
    decay_mult: 0
  }
  convolution_param {
    num_output: 96
    kernel_size: 11
    stride: 4
    weight_filler {
      type: "gaussian"
      std: 0.01
    }
    bias_filler {
      type: "constant"
      value: 0
    }
  }
}
layer {
  name: "relu1"
  type: "ReLU"
  bottom: "conv1"
  top: "conv1"
}
layer {
  name: "norm1"
  type: "LRN"
  bottom: "conv1"
  top: "norm1"
  lrn_param {
    local_size: 5
    alpha: 0.0001
    beta: 0.75
  }
}
layer {
  name: "pool1"
  type: "Pooling"
  bottom: "norm1"
  top: "pool1"
  pooling_param {
    pool: MAX
    kernel_size: 3
    stride: 2
  }
}
layer {
  name: "conv2"
  type: "Convolution"
  bottom: "pool1"
  top: "conv2"
  param {
    lr_mult: 1
    decay_mult: 1
  }
  param {
    lr_mult: 2
    decay_mult: 0
  }
  convolution_param {
    num_output: 256
    pad: 2
    kernel_size: 5
    group: 2
    weight_filler {
      type: "gaussian"
      std: 0.01
    }
    bias_filler {
      type: "constant"
      value: 0.1
    }
  }
}
layer {
  name: "relu2"
  type: "ReLU"
  bottom: "conv2"
  top: "conv2"
}
layer {
  name: "norm2"
  type: "LRN"
  bottom: "conv2"
  top: "norm2"
  lrn_param {
    local_size: 5
    alpha: 0.0001
    beta: 0.75
  }
}
layer {
  name: "pool2"
  type: "Pooling"
  bottom: "norm2"
  top: "pool2"
  pooling_param {
    pool: MAX
    kernel_size: 3
    stride: 2
  }
}
layer {
  name: "conv3"
  type: "Convolution"
  bottom: "pool2"
  top: "conv3"
  param {
    lr_mult: 1
    decay_mult: 1
  }
  param {
    lr_mult: 2
    decay_mult: 0
  }
  convolution_param {
    num_output: 384
    pad: 1
    kernel_size: 3
    weight_filler {
      type: "gaussian"
      std: 0.01
    }
    bias_filler {
      type: "constant"
      value: 0
    }
  }
}
layer {
  name: "relu3"
  type: "ReLU"
  bottom: "conv3"
  top: "conv3"
}
layer {
  name: "conv4"
  type: "Convolution"
  bottom: "conv3"
  top: "conv4"
  param {
    lr_mult: 1
    decay_mult: 1
  }
  param {
    lr_mult: 2
    decay_mult: 0
  }
  convolution_param {
    num_output: 384
    pad: 1
    kernel_size: 3
    group: 2
    weight_filler {
      type: "gaussian"
      std: 0.01
    }
    bias_filler {
      type: "constant"
      value: 0.1
    }
  }
}
layer {
  name: "relu4"
  type: "ReLU"
  bottom: "conv4"
  top: "conv4"
}
layer {
  name: "conv5"
  type: "Convolution"
  bottom: "conv4"
  top: "conv5"
  param {
    lr_mult: 1
    decay_mult: 1
  }
  param {
    lr_mult: 2
    decay_mult: 0
  }
  convolution_param {
    num_output: 256
    pad: 1
    kernel_size: 3
    group: 2
    weight_filler {
      type: "gaussian"
      std: 0.01
    }
    bias_filler {
      type: "constant"
      value: 0.1
    }
  }
}
layer {
  name: "relu5"
  type: "ReLU"
  bottom: "conv5"
  top: "conv5"
}
layer {
  name: "pool5"
  type: "Pooling"
  bottom: "conv5"
  top: "pool5"
  pooling_param {
    pool: MAX
    kernel_size: 3
    stride: 2
  }
}
layer {
  name: "fc6"
  type: "InnerProduct"
  bottom: "pool5"
  top: "fc6"
  param {
    lr_mult: 1
    decay_mult: 1
  }
  param {
    lr_mult: 2
    decay_mult: 0
  }
  inner_product_param {
    num_output: 4096
    weight_filler {
      type: "gaussian"
      std: 0.005
    }
    bias_filler {
      type: "constant"
      value: 0.1
    }
  }
}
layer {
  name: "relu6"
  type: "ReLU"
  bottom: "fc6"
  top: "fc6"
}
layer {
  name: "drop6"
  type: "Dropout"
  bottom: "fc6"
  top: "fc6"
  dropout_param {
    dropout_ratio: 0.5
  }
}
layer {
  name: "fc7"
  type: "InnerProduct"
  bottom: "fc6"
  top: "fc7"
  param {
    lr_mult: 1
    decay_mult: 1
  }
  param {
    lr_mult: 2
    decay_mult: 0
  }
  inner_product_param {
    num_output: 4096
    weight_filler {
      type: "gaussian"
      std: 0.005
    }
    bias_filler {
      type: "constant"
      value: 0.1
    }
  }
}
layer {
  name: "relu7"
  type: "ReLU"
  bottom: "fc7"
  top: "fc7"
}
layer {
  name: "drop7"
  type: "Dropout"
  bottom: "fc7"
  top: "fc7"
  dropout_param {
    dropout_ratio: 0.5
  }
}
layer {
  name: "fc8_plantvillage"
  type: "InnerProduct"
  bottom: "fc7"
  top: "fc8_plantvillage"
  param {
    lr_mult: 1
    decay_mult: 1
  }
  param {
    lr_mult: 2
    decay_mult: 0
  }
  inner_product_param {
    num_output: 38
    weight_filler {
      type: "gaussian"
      std: 0.01
    }
    bias_filler {
      type: "constant"
      value: 0
    }
  }
}
layer {
  name: "prob"
  type: "Softmax"
  bottom: "fc8_plantvillage"
  top: "prob"
  include {
    phase: TEST
  }
}
layer {
  name: "hdf5out"
  type: "HDF5Output"
  bottom: "prob"
  bottom: "label"
  include {
    phase: TEST
  }
  hdf5_output_param {
    file_name: "hdf5_dumps/iter_9156.h5"
  }
}
layer {
  name: "loss"
  type: "SoftmaxWithLoss"
  bottom: "fc8_plantvillage"
  bottom: "label"
  top: "loss"
}
layer {
  name: "accuracy"
  type: "Accuracy"
  bottom: "fc8_plantvillage"
  bottom: "label"
  top: "accuracy"
  include {
    phase: TEST
  }
}
I0403 13:31:51.904137 11575 layer_factory.hpp:77] Creating layer data
I0403 13:31:51.904803 11575 net.cpp:91] Creating Layer data
I0403 13:31:51.904835 11575 net.cpp:399] data -> data
I0403 13:31:51.904889 11575 net.cpp:399] data -> label
I0403 13:31:51.904927 11575 data_transformer.cpp:25] Loading mean file from: /home/mohanty/data/final_dataset/lmdb/grayscale-80-20/mean.binaryproto
I0403 13:31:51.907798 11580 db_lmdb.cpp:38] Opened lmdb /home/mohanty/data/final_dataset/lmdb/grayscale-80-20/test_db
I0403 13:31:51.919450 11575 data_layer.cpp:41] output data size: 100,3,227,227
I0403 13:31:52.040496 11575 net.cpp:141] Setting up data
I0403 13:31:52.040552 11575 net.cpp:148] Top shape: 100 3 227 227 (15458700)
I0403 13:31:52.040575 11575 net.cpp:148] Top shape: 100 (100)
I0403 13:31:52.040591 11575 net.cpp:156] Memory required for data: 61835200
I0403 13:31:52.040622 11575 layer_factory.hpp:77] Creating layer label_data_1_split
I0403 13:31:52.040648 11575 net.cpp:91] Creating Layer label_data_1_split
I0403 13:31:52.040666 11575 net.cpp:425] label_data_1_split <- label
I0403 13:31:52.040698 11575 net.cpp:399] label_data_1_split -> label_data_1_split_0
I0403 13:31:52.040725 11575 net.cpp:399] label_data_1_split -> label_data_1_split_1
I0403 13:31:52.040746 11575 net.cpp:399] label_data_1_split -> label_data_1_split_2
I0403 13:31:52.040807 11575 net.cpp:141] Setting up label_data_1_split
I0403 13:31:52.040830 11575 net.cpp:148] Top shape: 100 (100)
I0403 13:31:52.040848 11575 net.cpp:148] Top shape: 100 (100)
I0403 13:31:52.040863 11575 net.cpp:148] Top shape: 100 (100)
I0403 13:31:52.040877 11575 net.cpp:156] Memory required for data: 61836400
I0403 13:31:52.040894 11575 layer_factory.hpp:77] Creating layer conv1
I0403 13:31:52.040925 11575 net.cpp:91] Creating Layer conv1
I0403 13:31:52.040943 11575 net.cpp:425] conv1 <- data
I0403 13:31:52.040962 11575 net.cpp:399] conv1 -> conv1
I0403 13:31:52.183023 11575 net.cpp:141] Setting up conv1
I0403 13:31:52.183100 11575 net.cpp:148] Top shape: 100 96 55 55 (29040000)
I0403 13:31:52.183118 11575 net.cpp:156] Memory required for data: 177996400
I0403 13:31:52.183148 11575 layer_factory.hpp:77] Creating layer relu1
I0403 13:31:52.183176 11575 net.cpp:91] Creating Layer relu1
I0403 13:31:52.183194 11575 net.cpp:425] relu1 <- conv1
I0403 13:31:52.183213 11575 net.cpp:386] relu1 -> conv1 (in-place)
I0403 13:31:52.183468 11575 net.cpp:141] Setting up relu1
I0403 13:31:52.183496 11575 net.cpp:148] Top shape: 100 96 55 55 (29040000)
I0403 13:31:52.183547 11575 net.cpp:156] Memory required for data: 294156400
I0403 13:31:52.183563 11575 layer_factory.hpp:77] Creating layer norm1
I0403 13:31:52.183589 11575 net.cpp:91] Creating Layer norm1
I0403 13:31:52.183612 11575 net.cpp:425] norm1 <- conv1
I0403 13:31:52.183631 11575 net.cpp:399] norm1 -> norm1
I0403 13:31:52.183938 11575 net.cpp:141] Setting up norm1
I0403 13:31:52.183966 11575 net.cpp:148] Top shape: 100 96 55 55 (29040000)
I0403 13:31:52.183982 11575 net.cpp:156] Memory required for data: 410316400
I0403 13:31:52.183998 11575 layer_factory.hpp:77] Creating layer pool1
I0403 13:31:52.184022 11575 net.cpp:91] Creating Layer pool1
I0403 13:31:52.184039 11575 net.cpp:425] pool1 <- norm1
I0403 13:31:52.184058 11575 net.cpp:399] pool1 -> pool1
I0403 13:31:52.184124 11575 net.cpp:141] Setting up pool1
I0403 13:31:52.184149 11575 net.cpp:148] Top shape: 100 96 27 27 (6998400)
I0403 13:31:52.184164 11575 net.cpp:156] Memory required for data: 438310000
I0403 13:31:52.184180 11575 layer_factory.hpp:77] Creating layer conv2
I0403 13:31:52.184204 11575 net.cpp:91] Creating Layer conv2
I0403 13:31:52.184221 11575 net.cpp:425] conv2 <- pool1
I0403 13:31:52.184238 11575 net.cpp:399] conv2 -> conv2
I0403 13:31:52.199641 11575 net.cpp:141] Setting up conv2
I0403 13:31:52.199682 11575 net.cpp:148] Top shape: 100 256 27 27 (18662400)
I0403 13:31:52.199700 11575 net.cpp:156] Memory required for data: 512959600
I0403 13:31:52.199723 11575 layer_factory.hpp:77] Creating layer relu2
I0403 13:31:52.199743 11575 net.cpp:91] Creating Layer relu2
I0403 13:31:52.199760 11575 net.cpp:425] relu2 <- conv2
I0403 13:31:52.199780 11575 net.cpp:386] relu2 -> conv2 (in-place)
I0403 13:31:52.200059 11575 net.cpp:141] Setting up relu2
I0403 13:31:52.200086 11575 net.cpp:148] Top shape: 100 256 27 27 (18662400)
I0403 13:31:52.200101 11575 net.cpp:156] Memory required for data: 587609200
I0403 13:31:52.200116 11575 layer_factory.hpp:77] Creating layer norm2
I0403 13:31:52.200140 11575 net.cpp:91] Creating Layer norm2
I0403 13:31:52.200158 11575 net.cpp:425] norm2 <- conv2
I0403 13:31:52.200176 11575 net.cpp:399] norm2 -> norm2
I0403 13:31:52.200376 11575 net.cpp:141] Setting up norm2
I0403 13:31:52.200403 11575 net.cpp:148] Top shape: 100 256 27 27 (18662400)
I0403 13:31:52.200420 11575 net.cpp:156] Memory required for data: 662258800
I0403 13:31:52.200435 11575 layer_factory.hpp:77] Creating layer pool2
I0403 13:31:52.200454 11575 net.cpp:91] Creating Layer pool2
I0403 13:31:52.200470 11575 net.cpp:425] pool2 <- norm2
I0403 13:31:52.200490 11575 net.cpp:399] pool2 -> pool2
I0403 13:31:52.200543 11575 net.cpp:141] Setting up pool2
I0403 13:31:52.200567 11575 net.cpp:148] Top shape: 100 256 13 13 (4326400)
I0403 13:31:52.200582 11575 net.cpp:156] Memory required for data: 679564400
I0403 13:31:52.200597 11575 layer_factory.hpp:77] Creating layer conv3
I0403 13:31:52.200626 11575 net.cpp:91] Creating Layer conv3
I0403 13:31:52.200644 11575 net.cpp:425] conv3 <- pool2
I0403 13:31:52.200669 11575 net.cpp:399] conv3 -> conv3
I0403 13:31:52.238138 11575 net.cpp:141] Setting up conv3
I0403 13:31:52.238193 11575 net.cpp:148] Top shape: 100 384 13 13 (6489600)
I0403 13:31:52.238209 11575 net.cpp:156] Memory required for data: 705522800
I0403 13:31:52.238232 11575 layer_factory.hpp:77] Creating layer relu3
I0403 13:31:52.238252 11575 net.cpp:91] Creating Layer relu3
I0403 13:31:52.238268 11575 net.cpp:425] relu3 <- conv3
I0403 13:31:52.238288 11575 net.cpp:386] relu3 -> conv3 (in-place)
I0403 13:31:52.238549 11575 net.cpp:141] Setting up relu3
I0403 13:31:52.238577 11575 net.cpp:148] Top shape: 100 384 13 13 (6489600)
I0403 13:31:52.238595 11575 net.cpp:156] Memory required for data: 731481200
I0403 13:31:52.238613 11575 layer_factory.hpp:77] Creating layer conv4
I0403 13:31:52.238639 11575 net.cpp:91] Creating Layer conv4
I0403 13:31:52.238657 11575 net.cpp:425] conv4 <- conv3
I0403 13:31:52.238675 11575 net.cpp:399] conv4 -> conv4
I0403 13:31:52.268234 11575 net.cpp:141] Setting up conv4
I0403 13:31:52.268298 11575 net.cpp:148] Top shape: 100 384 13 13 (6489600)
I0403 13:31:52.268350 11575 net.cpp:156] Memory required for data: 757439600
I0403 13:31:52.268373 11575 layer_factory.hpp:77] Creating layer relu4
I0403 13:31:52.268398 11575 net.cpp:91] Creating Layer relu4
I0403 13:31:52.268416 11575 net.cpp:425] relu4 <- conv4
I0403 13:31:52.268435 11575 net.cpp:386] relu4 -> conv4 (in-place)
I0403 13:31:52.268717 11575 net.cpp:141] Setting up relu4
I0403 13:31:52.268744 11575 net.cpp:148] Top shape: 100 384 13 13 (6489600)
I0403 13:31:52.268759 11575 net.cpp:156] Memory required for data: 783398000
I0403 13:31:52.268775 11575 layer_factory.hpp:77] Creating layer conv5
I0403 13:31:52.268802 11575 net.cpp:91] Creating Layer conv5
I0403 13:31:52.268821 11575 net.cpp:425] conv5 <- conv4
I0403 13:31:52.268841 11575 net.cpp:399] conv5 -> conv5
I0403 13:31:52.289283 11575 net.cpp:141] Setting up conv5
I0403 13:31:52.289319 11575 net.cpp:148] Top shape: 100 256 13 13 (4326400)
I0403 13:31:52.289337 11575 net.cpp:156] Memory required for data: 800703600
I0403 13:31:52.289361 11575 layer_factory.hpp:77] Creating layer relu5
I0403 13:31:52.289381 11575 net.cpp:91] Creating Layer relu5
I0403 13:31:52.289398 11575 net.cpp:425] relu5 <- conv5
I0403 13:31:52.289418 11575 net.cpp:386] relu5 -> conv5 (in-place)
I0403 13:31:52.289693 11575 net.cpp:141] Setting up relu5
I0403 13:31:52.289721 11575 net.cpp:148] Top shape: 100 256 13 13 (4326400)
I0403 13:31:52.289736 11575 net.cpp:156] Memory required for data: 818009200
I0403 13:31:52.289751 11575 layer_factory.hpp:77] Creating layer pool5
I0403 13:31:52.289772 11575 net.cpp:91] Creating Layer pool5
I0403 13:31:52.289788 11575 net.cpp:425] pool5 <- conv5
I0403 13:31:52.289809 11575 net.cpp:399] pool5 -> pool5
I0403 13:31:52.289872 11575 net.cpp:141] Setting up pool5
I0403 13:31:52.289896 11575 net.cpp:148] Top shape: 100 256 6 6 (921600)
I0403 13:31:52.289911 11575 net.cpp:156] Memory required for data: 821695600
I0403 13:31:52.289924 11575 layer_factory.hpp:77] Creating layer fc6
I0403 13:31:52.289953 11575 net.cpp:91] Creating Layer fc6
I0403 13:31:52.289971 11575 net.cpp:425] fc6 <- pool5
I0403 13:31:52.289991 11575 net.cpp:399] fc6 -> fc6
I0403 13:31:53.827298 11575 net.cpp:141] Setting up fc6
I0403 13:31:53.827338 11575 net.cpp:148] Top shape: 100 4096 (409600)
I0403 13:31:53.827354 11575 net.cpp:156] Memory required for data: 823334000
I0403 13:31:53.827374 11575 layer_factory.hpp:77] Creating layer relu6
I0403 13:31:53.827399 11575 net.cpp:91] Creating Layer relu6
I0403 13:31:53.827415 11575 net.cpp:425] relu6 <- fc6
I0403 13:31:53.827433 11575 net.cpp:386] relu6 -> fc6 (in-place)
I0403 13:31:53.827646 11575 net.cpp:141] Setting up relu6
I0403 13:31:53.827673 11575 net.cpp:148] Top shape: 100 4096 (409600)
I0403 13:31:53.827687 11575 net.cpp:156] Memory required for data: 824972400
I0403 13:31:53.827702 11575 layer_factory.hpp:77] Creating layer drop6
I0403 13:31:53.827719 11575 net.cpp:91] Creating Layer drop6
I0403 13:31:53.827734 11575 net.cpp:425] drop6 <- fc6
I0403 13:31:53.827750 11575 net.cpp:386] drop6 -> fc6 (in-place)
I0403 13:31:53.827801 11575 net.cpp:141] Setting up drop6
I0403 13:31:53.827823 11575 net.cpp:148] Top shape: 100 4096 (409600)
I0403 13:31:53.827836 11575 net.cpp:156] Memory required for data: 826610800
I0403 13:31:53.827850 11575 layer_factory.hpp:77] Creating layer fc7
I0403 13:31:53.827872 11575 net.cpp:91] Creating Layer fc7
I0403 13:31:53.827888 11575 net.cpp:425] fc7 <- fc6
I0403 13:31:53.827904 11575 net.cpp:399] fc7 -> fc7
I0403 13:31:54.501838 11575 net.cpp:141] Setting up fc7
I0403 13:31:54.501880 11575 net.cpp:148] Top shape: 100 4096 (409600)
I0403 13:31:54.501898 11575 net.cpp:156] Memory required for data: 828249200
I0403 13:31:54.501919 11575 layer_factory.hpp:77] Creating layer relu7
I0403 13:31:54.501940 11575 net.cpp:91] Creating Layer relu7
I0403 13:31:54.501957 11575 net.cpp:425] relu7 <- fc7
I0403 13:31:54.501979 11575 net.cpp:386] relu7 -> fc7 (in-place)
I0403 13:31:54.502368 11575 net.cpp:141] Setting up relu7
I0403 13:31:54.502396 11575 net.cpp:148] Top shape: 100 4096 (409600)
I0403 13:31:54.502452 11575 net.cpp:156] Memory required for data: 829887600
I0403 13:31:54.502468 11575 layer_factory.hpp:77] Creating layer drop7
I0403 13:31:54.502486 11575 net.cpp:91] Creating Layer drop7
I0403 13:31:54.502502 11575 net.cpp:425] drop7 <- fc7
I0403 13:31:54.502522 11575 net.cpp:386] drop7 -> fc7 (in-place)
I0403 13:31:54.502565 11575 net.cpp:141] Setting up drop7
I0403 13:31:54.502586 11575 net.cpp:148] Top shape: 100 4096 (409600)
I0403 13:31:54.502605 11575 net.cpp:156] Memory required for data: 831526000
I0403 13:31:54.502620 11575 layer_factory.hpp:77] Creating layer fc8_plantvillage
I0403 13:31:54.502642 11575 net.cpp:91] Creating Layer fc8_plantvillage
I0403 13:31:54.502660 11575 net.cpp:425] fc8_plantvillage <- fc7
I0403 13:31:54.502681 11575 net.cpp:399] fc8_plantvillage -> fc8_plantvillage
I0403 13:31:54.509395 11575 net.cpp:141] Setting up fc8_plantvillage
I0403 13:31:54.509423 11575 net.cpp:148] Top shape: 100 38 (3800)
I0403 13:31:54.509438 11575 net.cpp:156] Memory required for data: 831541200
I0403 13:31:54.509456 11575 layer_factory.hpp:77] Creating layer fc8_plantvillage_fc8_plantvillage_0_split
I0403 13:31:54.509474 11575 net.cpp:91] Creating Layer fc8_plantvillage_fc8_plantvillage_0_split
I0403 13:31:54.509490 11575 net.cpp:425] fc8_plantvillage_fc8_plantvillage_0_split <- fc8_plantvillage
I0403 13:31:54.509508 11575 net.cpp:399] fc8_plantvillage_fc8_plantvillage_0_split -> fc8_plantvillage_fc8_plantvillage_0_split_0
I0403 13:31:54.509531 11575 net.cpp:399] fc8_plantvillage_fc8_plantvillage_0_split -> fc8_plantvillage_fc8_plantvillage_0_split_1
I0403 13:31:54.509552 11575 net.cpp:399] fc8_plantvillage_fc8_plantvillage_0_split -> fc8_plantvillage_fc8_plantvillage_0_split_2
I0403 13:31:54.509632 11575 net.cpp:141] Setting up fc8_plantvillage_fc8_plantvillage_0_split
I0403 13:31:54.509656 11575 net.cpp:148] Top shape: 100 38 (3800)
I0403 13:31:54.509672 11575 net.cpp:148] Top shape: 100 38 (3800)
I0403 13:31:54.509687 11575 net.cpp:148] Top shape: 100 38 (3800)
I0403 13:31:54.509701 11575 net.cpp:156] Memory required for data: 831586800
I0403 13:31:54.509716 11575 layer_factory.hpp:77] Creating layer prob
I0403 13:31:54.509735 11575 net.cpp:91] Creating Layer prob
I0403 13:31:54.509750 11575 net.cpp:425] prob <- fc8_plantvillage_fc8_plantvillage_0_split_0
I0403 13:31:54.509768 11575 net.cpp:399] prob -> prob
I0403 13:31:54.509987 11575 net.cpp:141] Setting up prob
I0403 13:31:54.510015 11575 net.cpp:148] Top shape: 100 38 (3800)
I0403 13:31:54.510031 11575 net.cpp:156] Memory required for data: 831602000
I0403 13:31:54.510046 11575 layer_factory.hpp:77] Creating layer hdf5out
I0403 13:31:54.510064 11575 net.cpp:91] Creating Layer hdf5out
I0403 13:31:54.510081 11575 net.cpp:425] hdf5out <- prob
I0403 13:31:54.510097 11575 net.cpp:425] hdf5out <- label_data_1_split_0
I0403 13:31:54.512691 11575 net.cpp:141] Setting up hdf5out
…
