…
I0403 13:28:54.914333 11359 net.cpp:313] The NetState phase (1) differed from the phase (0) specified by a rule in layer data
I0403 13:28:54.914692 11359 net.cpp:49] Initializing net from parameters: 
state {
  phase: TEST
}
layer {
  name: "data"
  type: "Data"
  top: "data"
  top: "label"
  include {
    phase: TEST
  }
  transform_param {
    crop_size: 227
    mean_file: "/home/mohanty/data/final_dataset/lmdb/grayscale-80-20/mean.binaryproto"
  }
  data_param {
    source: "/home/mohanty/data/final_dataset/lmdb/grayscale-80-20/test_db"
    batch_size: 100
    backend: LMDB
  }
}
layer {
  name: "conv1"
  type: "Convolution"
  bottom: "data"
  top: "conv1"
  param {
    lr_mult: 1
    decay_mult: 1
  }
  param {
    lr_mult: 2
    decay_mult: 0
  }
  convolution_param {
    num_output: 96
    kernel_size: 11
    stride: 4
    weight_filler {
      type: "gaussian"
      std: 0.01
    }
    bias_filler {
      type: "constant"
      value: 0
    }
  }
}
layer {
  name: "relu1"
  type: "ReLU"
  bottom: "conv1"
  top: "conv1"
}
layer {
  name: "norm1"
  type: "LRN"
  bottom: "conv1"
  top: "norm1"
  lrn_param {
    local_size: 5
    alpha: 0.0001
    beta: 0.75
  }
}
layer {
  name: "pool1"
  type: "Pooling"
  bottom: "norm1"
  top: "pool1"
  pooling_param {
    pool: MAX
    kernel_size: 3
    stride: 2
  }
}
layer {
  name: "conv2"
  type: "Convolution"
  bottom: "pool1"
  top: "conv2"
  param {
    lr_mult: 1
    decay_mult: 1
  }
  param {
    lr_mult: 2
    decay_mult: 0
  }
  convolution_param {
    num_output: 256
    pad: 2
    kernel_size: 5
    group: 2
    weight_filler {
      type: "gaussian"
      std: 0.01
    }
    bias_filler {
      type: "constant"
      value: 0.1
    }
  }
}
layer {
  name: "relu2"
  type: "ReLU"
  bottom: "conv2"
  top: "conv2"
}
layer {
  name: "norm2"
  type: "LRN"
  bottom: "conv2"
  top: "norm2"
  lrn_param {
    local_size: 5
    alpha: 0.0001
    beta: 0.75
  }
}
layer {
  name: "pool2"
  type: "Pooling"
  bottom: "norm2"
  top: "pool2"
  pooling_param {
    pool: MAX
    kernel_size: 3
    stride: 2
  }
}
layer {
  name: "conv3"
  type: "Convolution"
  bottom: "pool2"
  top: "conv3"
  param {
    lr_mult: 1
    decay_mult: 1
  }
  param {
    lr_mult: 2
    decay_mult: 0
  }
  convolution_param {
    num_output: 384
    pad: 1
    kernel_size: 3
    weight_filler {
      type: "gaussian"
      std: 0.01
    }
    bias_filler {
      type: "constant"
      value: 0
    }
  }
}
layer {
  name: "relu3"
  type: "ReLU"
  bottom: "conv3"
  top: "conv3"
}
layer {
  name: "conv4"
  type: "Convolution"
  bottom: "conv3"
  top: "conv4"
  param {
    lr_mult: 1
    decay_mult: 1
  }
  param {
    lr_mult: 2
    decay_mult: 0
  }
  convolution_param {
    num_output: 384
    pad: 1
    kernel_size: 3
    group: 2
    weight_filler {
      type: "gaussian"
      std: 0.01
    }
    bias_filler {
      type: "constant"
      value: 0.1
    }
  }
}
layer {
  name: "relu4"
  type: "ReLU"
  bottom: "conv4"
  top: "conv4"
}
layer {
  name: "conv5"
  type: "Convolution"
  bottom: "conv4"
  top: "conv5"
  param {
    lr_mult: 1
    decay_mult: 1
  }
  param {
    lr_mult: 2
    decay_mult: 0
  }
  convolution_param {
    num_output: 256
    pad: 1
    kernel_size: 3
    group: 2
    weight_filler {
      type: "gaussian"
      std: 0.01
    }
    bias_filler {
      type: "constant"
      value: 0.1
    }
  }
}
layer {
  name: "relu5"
  type: "ReLU"
  bottom: "conv5"
  top: "conv5"
}
layer {
  name: "pool5"
  type: "Pooling"
  bottom: "conv5"
  top: "pool5"
  pooling_param {
    pool: MAX
    kernel_size: 3
    stride: 2
  }
}
layer {
  name: "fc6"
  type: "InnerProduct"
  bottom: "pool5"
  top: "fc6"
  param {
    lr_mult: 1
    decay_mult: 1
  }
  param {
    lr_mult: 2
    decay_mult: 0
  }
  inner_product_param {
    num_output: 4096
    weight_filler {
      type: "gaussian"
      std: 0.005
    }
    bias_filler {
      type: "constant"
      value: 0.1
    }
  }
}
layer {
  name: "relu6"
  type: "ReLU"
  bottom: "fc6"
  top: "fc6"
}
layer {
  name: "drop6"
  type: "Dropout"
  bottom: "fc6"
  top: "fc6"
  dropout_param {
    dropout_ratio: 0.5
  }
}
layer {
  name: "fc7"
  type: "InnerProduct"
  bottom: "fc6"
  top: "fc7"
  param {
    lr_mult: 1
    decay_mult: 1
  }
  param {
    lr_mult: 2
    decay_mult: 0
  }
  inner_product_param {
    num_output: 4096
    weight_filler {
      type: "gaussian"
      std: 0.005
    }
    bias_filler {
      type: "constant"
      value: 0.1
    }
  }
}
layer {
  name: "relu7"
  type: "ReLU"
  bottom: "fc7"
  top: "fc7"
}
layer {
  name: "drop7"
  type: "Dropout"
  bottom: "fc7"
  top: "fc7"
  dropout_param {
    dropout_ratio: 0.5
  }
}
layer {
  name: "fc8_plantvillage"
  type: "InnerProduct"
  bottom: "fc7"
  top: "fc8_plantvillage"
  param {
    lr_mult: 1
    decay_mult: 1
  }
  param {
    lr_mult: 2
    decay_mult: 0
  }
  inner_product_param {
    num_output: 38
    weight_filler {
      type: "gaussian"
      std: 0.01
    }
    bias_filler {
      type: "constant"
      value: 0
    }
  }
}
layer {
  name: "prob"
  type: "Softmax"
  bottom: "fc8_plantvillage"
  top: "prob"
  include {
    phase: TEST
  }
}
layer {
  name: "hdf5out"
  type: "HDF5Output"
  bottom: "prob"
  bottom: "label"
  include {
    phase: TEST
  }
  hdf5_output_param {
    file_name: "hdf5_dumps/iter_6104.h5"
  }
}
layer {
  name: "loss"
  type: "SoftmaxWithLoss"
  bottom: "fc8_plantvillage"
  bottom: "label"
  top: "loss"
}
layer {
  name: "accuracy"
  type: "Accuracy"
  bottom: "fc8_plantvillage"
  bottom: "label"
  top: "accuracy"
  include {
    phase: TEST
  }
}
I0403 13:28:54.915290 11359 layer_factory.hpp:77] Creating layer data
I0403 13:28:54.915982 11359 net.cpp:91] Creating Layer data
I0403 13:28:54.916013 11359 net.cpp:399] data -> data
I0403 13:28:54.916067 11359 net.cpp:399] data -> label
I0403 13:28:54.916107 11359 data_transformer.cpp:25] Loading mean file from: /home/mohanty/data/final_dataset/lmdb/grayscale-80-20/mean.binaryproto
I0403 13:28:54.919440 11363 db_lmdb.cpp:38] Opened lmdb /home/mohanty/data/final_dataset/lmdb/grayscale-80-20/test_db
I0403 13:28:54.930289 11359 data_layer.cpp:41] output data size: 100,3,227,227
I0403 13:28:55.058590 11359 net.cpp:141] Setting up data
I0403 13:28:55.058683 11359 net.cpp:148] Top shape: 100 3 227 227 (15458700)
I0403 13:28:55.058708 11359 net.cpp:148] Top shape: 100 (100)
I0403 13:28:55.058727 11359 net.cpp:156] Memory required for data: 61835200
I0403 13:28:55.058758 11359 layer_factory.hpp:77] Creating layer label_data_1_split
I0403 13:28:55.058786 11359 net.cpp:91] Creating Layer label_data_1_split
I0403 13:28:55.058806 11359 net.cpp:425] label_data_1_split <- label
I0403 13:28:55.058843 11359 net.cpp:399] label_data_1_split -> label_data_1_split_0
I0403 13:28:55.058876 11359 net.cpp:399] label_data_1_split -> label_data_1_split_1
I0403 13:28:55.058898 11359 net.cpp:399] label_data_1_split -> label_data_1_split_2
I0403 13:28:55.058970 11359 net.cpp:141] Setting up label_data_1_split
I0403 13:28:55.058995 11359 net.cpp:148] Top shape: 100 (100)
I0403 13:28:55.059013 11359 net.cpp:148] Top shape: 100 (100)
I0403 13:28:55.059032 11359 net.cpp:148] Top shape: 100 (100)
I0403 13:28:55.059049 11359 net.cpp:156] Memory required for data: 61836400
I0403 13:28:55.059068 11359 layer_factory.hpp:77] Creating layer conv1
I0403 13:28:55.059103 11359 net.cpp:91] Creating Layer conv1
I0403 13:28:55.059121 11359 net.cpp:425] conv1 <- data
I0403 13:28:55.059141 11359 net.cpp:399] conv1 -> conv1
I0403 13:28:55.217232 11359 net.cpp:141] Setting up conv1
I0403 13:28:55.217303 11359 net.cpp:148] Top shape: 100 96 55 55 (29040000)
I0403 13:28:55.217321 11359 net.cpp:156] Memory required for data: 177996400
I0403 13:28:55.217355 11359 layer_factory.hpp:77] Creating layer relu1
I0403 13:28:55.217386 11359 net.cpp:91] Creating Layer relu1
I0403 13:28:55.217406 11359 net.cpp:425] relu1 <- conv1
I0403 13:28:55.217428 11359 net.cpp:386] relu1 -> conv1 (in-place)
I0403 13:28:55.217710 11359 net.cpp:141] Setting up relu1
I0403 13:28:55.217737 11359 net.cpp:148] Top shape: 100 96 55 55 (29040000)
I0403 13:28:55.217797 11359 net.cpp:156] Memory required for data: 294156400
I0403 13:28:55.217814 11359 layer_factory.hpp:77] Creating layer norm1
I0403 13:28:55.217844 11359 net.cpp:91] Creating Layer norm1
I0403 13:28:55.217862 11359 net.cpp:425] norm1 <- conv1
I0403 13:28:55.217883 11359 net.cpp:399] norm1 -> norm1
I0403 13:28:55.218204 11359 net.cpp:141] Setting up norm1
I0403 13:28:55.218233 11359 net.cpp:148] Top shape: 100 96 55 55 (29040000)
I0403 13:28:55.218250 11359 net.cpp:156] Memory required for data: 410316400
I0403 13:28:55.218267 11359 layer_factory.hpp:77] Creating layer pool1
I0403 13:28:55.218292 11359 net.cpp:91] Creating Layer pool1
I0403 13:28:55.218312 11359 net.cpp:425] pool1 <- norm1
I0403 13:28:55.218332 11359 net.cpp:399] pool1 -> pool1
I0403 13:28:55.218401 11359 net.cpp:141] Setting up pool1
I0403 13:28:55.218426 11359 net.cpp:148] Top shape: 100 96 27 27 (6998400)
I0403 13:28:55.218444 11359 net.cpp:156] Memory required for data: 438310000
I0403 13:28:55.218461 11359 layer_factory.hpp:77] Creating layer conv2
I0403 13:28:55.218487 11359 net.cpp:91] Creating Layer conv2
I0403 13:28:55.218505 11359 net.cpp:425] conv2 <- pool1
I0403 13:28:55.218525 11359 net.cpp:399] conv2 -> conv2
I0403 13:28:55.234079 11359 net.cpp:141] Setting up conv2
I0403 13:28:55.234143 11359 net.cpp:148] Top shape: 100 256 27 27 (18662400)
I0403 13:28:55.234161 11359 net.cpp:156] Memory required for data: 512959600
I0403 13:28:55.234189 11359 layer_factory.hpp:77] Creating layer relu2
I0403 13:28:55.234215 11359 net.cpp:91] Creating Layer relu2
I0403 13:28:55.234233 11359 net.cpp:425] relu2 <- conv2
I0403 13:28:55.234256 11359 net.cpp:386] relu2 -> conv2 (in-place)
I0403 13:28:55.234537 11359 net.cpp:141] Setting up relu2
I0403 13:28:55.234578 11359 net.cpp:148] Top shape: 100 256 27 27 (18662400)
I0403 13:28:55.234598 11359 net.cpp:156] Memory required for data: 587609200
I0403 13:28:55.234616 11359 layer_factory.hpp:77] Creating layer norm2
I0403 13:28:55.234642 11359 net.cpp:91] Creating Layer norm2
I0403 13:28:55.234659 11359 net.cpp:425] norm2 <- conv2
I0403 13:28:55.234679 11359 net.cpp:399] norm2 -> norm2
I0403 13:28:55.234876 11359 net.cpp:141] Setting up norm2
I0403 13:28:55.234905 11359 net.cpp:148] Top shape: 100 256 27 27 (18662400)
I0403 13:28:55.234921 11359 net.cpp:156] Memory required for data: 662258800
I0403 13:28:55.234938 11359 layer_factory.hpp:77] Creating layer pool2
I0403 13:28:55.234961 11359 net.cpp:91] Creating Layer pool2
I0403 13:28:55.234977 11359 net.cpp:425] pool2 <- norm2
I0403 13:28:55.234997 11359 net.cpp:399] pool2 -> pool2
I0403 13:28:55.235050 11359 net.cpp:141] Setting up pool2
I0403 13:28:55.235075 11359 net.cpp:148] Top shape: 100 256 13 13 (4326400)
I0403 13:28:55.235091 11359 net.cpp:156] Memory required for data: 679564400
I0403 13:28:55.235107 11359 layer_factory.hpp:77] Creating layer conv3
I0403 13:28:55.235134 11359 net.cpp:91] Creating Layer conv3
I0403 13:28:55.235152 11359 net.cpp:425] conv3 <- pool2
I0403 13:28:55.235172 11359 net.cpp:399] conv3 -> conv3
I0403 13:28:55.274860 11359 net.cpp:141] Setting up conv3
I0403 13:28:55.274935 11359 net.cpp:148] Top shape: 100 384 13 13 (6489600)
I0403 13:28:55.274953 11359 net.cpp:156] Memory required for data: 705522800
I0403 13:28:55.274981 11359 layer_factory.hpp:77] Creating layer relu3
I0403 13:28:55.275010 11359 net.cpp:91] Creating Layer relu3
I0403 13:28:55.275030 11359 net.cpp:425] relu3 <- conv3
I0403 13:28:55.275053 11359 net.cpp:386] relu3 -> conv3 (in-place)
I0403 13:28:55.275341 11359 net.cpp:141] Setting up relu3
I0403 13:28:55.275369 11359 net.cpp:148] Top shape: 100 384 13 13 (6489600)
I0403 13:28:55.275388 11359 net.cpp:156] Memory required for data: 731481200
I0403 13:28:55.275404 11359 layer_factory.hpp:77] Creating layer conv4
I0403 13:28:55.275432 11359 net.cpp:91] Creating Layer conv4
I0403 13:28:55.275451 11359 net.cpp:425] conv4 <- conv3
I0403 13:28:55.275472 11359 net.cpp:399] conv4 -> conv4
I0403 13:28:55.306267 11359 net.cpp:141] Setting up conv4
I0403 13:28:55.306329 11359 net.cpp:148] Top shape: 100 384 13 13 (6489600)
I0403 13:28:55.306388 11359 net.cpp:156] Memory required for data: 757439600
I0403 13:28:55.306413 11359 layer_factory.hpp:77] Creating layer relu4
I0403 13:28:55.306440 11359 net.cpp:91] Creating Layer relu4
I0403 13:28:55.306459 11359 net.cpp:425] relu4 <- conv4
I0403 13:28:55.306480 11359 net.cpp:386] relu4 -> conv4 (in-place)
I0403 13:28:55.306779 11359 net.cpp:141] Setting up relu4
I0403 13:28:55.306807 11359 net.cpp:148] Top shape: 100 384 13 13 (6489600)
I0403 13:28:55.306824 11359 net.cpp:156] Memory required for data: 783398000
I0403 13:28:55.306841 11359 layer_factory.hpp:77] Creating layer conv5
I0403 13:28:55.306869 11359 net.cpp:91] Creating Layer conv5
I0403 13:28:55.306887 11359 net.cpp:425] conv5 <- conv4
I0403 13:28:55.306911 11359 net.cpp:399] conv5 -> conv5
I0403 13:28:55.328388 11359 net.cpp:141] Setting up conv5
I0403 13:28:55.328477 11359 net.cpp:148] Top shape: 100 256 13 13 (4326400)
I0403 13:28:55.328501 11359 net.cpp:156] Memory required for data: 800703600
I0403 13:28:55.328531 11359 layer_factory.hpp:77] Creating layer relu5
I0403 13:28:55.328557 11359 net.cpp:91] Creating Layer relu5
I0403 13:28:55.328580 11359 net.cpp:425] relu5 <- conv5
I0403 13:28:55.328601 11359 net.cpp:386] relu5 -> conv5 (in-place)
I0403 13:28:55.328894 11359 net.cpp:141] Setting up relu5
I0403 13:28:55.328924 11359 net.cpp:148] Top shape: 100 256 13 13 (4326400)
I0403 13:28:55.328941 11359 net.cpp:156] Memory required for data: 818009200
I0403 13:28:55.328958 11359 layer_factory.hpp:77] Creating layer pool5
I0403 13:28:55.328979 11359 net.cpp:91] Creating Layer pool5
I0403 13:28:55.328996 11359 net.cpp:425] pool5 <- conv5
I0403 13:28:55.329020 11359 net.cpp:399] pool5 -> pool5
I0403 13:28:55.329084 11359 net.cpp:141] Setting up pool5
I0403 13:28:55.329109 11359 net.cpp:148] Top shape: 100 256 6 6 (921600)
I0403 13:28:55.329124 11359 net.cpp:156] Memory required for data: 821695600
I0403 13:28:55.329139 11359 layer_factory.hpp:77] Creating layer fc6
I0403 13:28:55.329170 11359 net.cpp:91] Creating Layer fc6
I0403 13:28:55.329190 11359 net.cpp:425] fc6 <- pool5
I0403 13:28:55.329211 11359 net.cpp:399] fc6 -> fc6
I0403 13:28:56.889037 11359 net.cpp:141] Setting up fc6
I0403 13:28:56.889113 11359 net.cpp:148] Top shape: 100 4096 (409600)
I0403 13:28:56.889138 11359 net.cpp:156] Memory required for data: 823334000
I0403 13:28:56.889159 11359 layer_factory.hpp:77] Creating layer relu6
I0403 13:28:56.889183 11359 net.cpp:91] Creating Layer relu6
I0403 13:28:56.889200 11359 net.cpp:425] relu6 <- fc6
I0403 13:28:56.889220 11359 net.cpp:386] relu6 -> fc6 (in-place)
I0403 13:28:56.889446 11359 net.cpp:141] Setting up relu6
I0403 13:28:56.889473 11359 net.cpp:148] Top shape: 100 4096 (409600)
I0403 13:28:56.889488 11359 net.cpp:156] Memory required for data: 824972400
I0403 13:28:56.889503 11359 layer_factory.hpp:77] Creating layer drop6
I0403 13:28:56.889521 11359 net.cpp:91] Creating Layer drop6
I0403 13:28:56.889536 11359 net.cpp:425] drop6 <- fc6
I0403 13:28:56.889554 11359 net.cpp:386] drop6 -> fc6 (in-place)
I0403 13:28:56.889619 11359 net.cpp:141] Setting up drop6
I0403 13:28:56.889647 11359 net.cpp:148] Top shape: 100 4096 (409600)
I0403 13:28:56.889660 11359 net.cpp:156] Memory required for data: 826610800
I0403 13:28:56.889674 11359 layer_factory.hpp:77] Creating layer fc7
I0403 13:28:56.889695 11359 net.cpp:91] Creating Layer fc7
I0403 13:28:56.889711 11359 net.cpp:425] fc7 <- fc6
I0403 13:28:56.889729 11359 net.cpp:399] fc7 -> fc7
I0403 13:28:57.576848 11359 net.cpp:141] Setting up fc7
I0403 13:28:57.576916 11359 net.cpp:148] Top shape: 100 4096 (409600)
I0403 13:28:57.576932 11359 net.cpp:156] Memory required for data: 828249200
I0403 13:28:57.576952 11359 layer_factory.hpp:77] Creating layer relu7
I0403 13:28:57.576975 11359 net.cpp:91] Creating Layer relu7
I0403 13:28:57.576992 11359 net.cpp:425] relu7 <- fc7
I0403 13:28:57.577011 11359 net.cpp:386] relu7 -> fc7 (in-place)
I0403 13:28:57.577417 11359 net.cpp:141] Setting up relu7
I0403 13:28:57.577443 11359 net.cpp:148] Top shape: 100 4096 (409600)
I0403 13:28:57.577510 11359 net.cpp:156] Memory required for data: 829887600
I0403 13:28:57.577527 11359 layer_factory.hpp:77] Creating layer drop7
I0403 13:28:57.577555 11359 net.cpp:91] Creating Layer drop7
I0403 13:28:57.577590 11359 net.cpp:425] drop7 <- fc7
I0403 13:28:57.577610 11359 net.cpp:386] drop7 -> fc7 (in-place)
I0403 13:28:57.577654 11359 net.cpp:141] Setting up drop7
I0403 13:28:57.577677 11359 net.cpp:148] Top shape: 100 4096 (409600)
I0403 13:28:57.577692 11359 net.cpp:156] Memory required for data: 831526000
I0403 13:28:57.577704 11359 layer_factory.hpp:77] Creating layer fc8_plantvillage
I0403 13:28:57.577726 11359 net.cpp:91] Creating Layer fc8_plantvillage
I0403 13:28:57.577742 11359 net.cpp:425] fc8_plantvillage <- fc7
I0403 13:28:57.577760 11359 net.cpp:399] fc8_plantvillage -> fc8_plantvillage
I0403 13:28:57.584476 11359 net.cpp:141] Setting up fc8_plantvillage
I0403 13:28:57.584504 11359 net.cpp:148] Top shape: 100 38 (3800)
I0403 13:28:57.584519 11359 net.cpp:156] Memory required for data: 831541200
I0403 13:28:57.584537 11359 layer_factory.hpp:77] Creating layer fc8_plantvillage_fc8_plantvillage_0_split
I0403 13:28:57.584554 11359 net.cpp:91] Creating Layer fc8_plantvillage_fc8_plantvillage_0_split
I0403 13:28:57.584579 11359 net.cpp:425] fc8_plantvillage_fc8_plantvillage_0_split <- fc8_plantvillage
I0403 13:28:57.584600 11359 net.cpp:399] fc8_plantvillage_fc8_plantvillage_0_split -> fc8_plantvillage_fc8_plantvillage_0_split_0
I0403 13:28:57.584624 11359 net.cpp:399] fc8_plantvillage_fc8_plantvillage_0_split -> fc8_plantvillage_fc8_plantvillage_0_split_1
I0403 13:28:57.584643 11359 net.cpp:399] fc8_plantvillage_fc8_plantvillage_0_split -> fc8_plantvillage_fc8_plantvillage_0_split_2
I0403 13:28:57.584720 11359 net.cpp:141] Setting up fc8_plantvillage_fc8_plantvillage_0_split
I0403 13:28:57.584743 11359 net.cpp:148] Top shape: 100 38 (3800)
I0403 13:28:57.584759 11359 net.cpp:148] Top shape: 100 38 (3800)
I0403 13:28:57.584774 11359 net.cpp:148] Top shape: 100 38 (3800)
I0403 13:28:57.584786 11359 net.cpp:156] Memory required for data: 831586800
I0403 13:28:57.584800 11359 layer_factory.hpp:77] Creating layer prob
I0403 13:28:57.584817 11359 net.cpp:91] Creating Layer prob
I0403 13:28:57.584832 11359 net.cpp:425] prob <- fc8_plantvillage_fc8_plantvillage_0_split_0
I0403 13:28:57.584849 11359 net.cpp:399] prob -> prob
I0403 13:28:57.585072 11359 net.cpp:141] Setting up prob
I0403 13:28:57.585098 11359 net.cpp:148] Top shape: 100 38 (3800)
I0403 13:28:57.585113 11359 net.cpp:156] Memory required for data: 831602000
I0403 13:28:57.585127 11359 layer_factory.hpp:77] Creating layer hdf5out
I0403 13:28:57.585150 11359 net.cpp:91] Creating Layer hdf5out
I0403 13:28:57.585165 11359 net.cpp:425] hdf5out <- prob
I0403 13:28:57.585181 11359 net.cpp:425] hdf5out <- label_data_1_split_0
I0403 13:28:57.587385 11359 net.cpp:141] Setting up hdf5out
…
