…
I0403 13:33:31.717566 11618 net.cpp:313] The NetState phase (1) differed from the phase (0) specified by a rule in layer data
I0403 13:33:31.717870 11618 net.cpp:49] Initializing net from parameters: 
state {
  phase: TEST
}
layer {
  name: "data"
  type: "Data"
  top: "data"
  top: "label"
  include {
    phase: TEST
  }
  transform_param {
    crop_size: 227
    mean_file: "/home/mohanty/data/final_dataset/lmdb/grayscale-80-20/mean.binaryproto"
  }
  data_param {
    source: "/home/mohanty/data/final_dataset/lmdb/grayscale-80-20/test_db"
    batch_size: 100
    backend: LMDB
  }
}
layer {
  name: "conv1"
  type: "Convolution"
  bottom: "data"
  top: "conv1"
  param {
    lr_mult: 1
    decay_mult: 1
  }
  param {
    lr_mult: 2
    decay_mult: 0
  }
  convolution_param {
    num_output: 96
    kernel_size: 11
    stride: 4
    weight_filler {
      type: "gaussian"
      std: 0.01
    }
    bias_filler {
      type: "constant"
      value: 0
    }
  }
}
layer {
  name: "relu1"
  type: "ReLU"
  bottom: "conv1"
  top: "conv1"
}
layer {
  name: "norm1"
  type: "LRN"
  bottom: "conv1"
  top: "norm1"
  lrn_param {
    local_size: 5
    alpha: 0.0001
    beta: 0.75
  }
}
layer {
  name: "pool1"
  type: "Pooling"
  bottom: "norm1"
  top: "pool1"
  pooling_param {
    pool: MAX
    kernel_size: 3
    stride: 2
  }
}
layer {
  name: "conv2"
  type: "Convolution"
  bottom: "pool1"
  top: "conv2"
  param {
    lr_mult: 1
    decay_mult: 1
  }
  param {
    lr_mult: 2
    decay_mult: 0
  }
  convolution_param {
    num_output: 256
    pad: 2
    kernel_size: 5
    group: 2
    weight_filler {
      type: "gaussian"
      std: 0.01
    }
    bias_filler {
      type: "constant"
      value: 0.1
    }
  }
}
layer {
  name: "relu2"
  type: "ReLU"
  bottom: "conv2"
  top: "conv2"
}
layer {
  name: "norm2"
  type: "LRN"
  bottom: "conv2"
  top: "norm2"
  lrn_param {
    local_size: 5
    alpha: 0.0001
    beta: 0.75
  }
}
layer {
  name: "pool2"
  type: "Pooling"
  bottom: "norm2"
  top: "pool2"
  pooling_param {
    pool: MAX
    kernel_size: 3
    stride: 2
  }
}
layer {
  name: "conv3"
  type: "Convolution"
  bottom: "pool2"
  top: "conv3"
  param {
    lr_mult: 1
    decay_mult: 1
  }
  param {
    lr_mult: 2
    decay_mult: 0
  }
  convolution_param {
    num_output: 384
    pad: 1
    kernel_size: 3
    weight_filler {
      type: "gaussian"
      std: 0.01
    }
    bias_filler {
      type: "constant"
      value: 0
    }
  }
}
layer {
  name: "relu3"
  type: "ReLU"
  bottom: "conv3"
  top: "conv3"
}
layer {
  name: "conv4"
  type: "Convolution"
  bottom: "conv3"
  top: "conv4"
  param {
    lr_mult: 1
    decay_mult: 1
  }
  param {
    lr_mult: 2
    decay_mult: 0
  }
  convolution_param {
    num_output: 384
    pad: 1
    kernel_size: 3
    group: 2
    weight_filler {
      type: "gaussian"
      std: 0.01
    }
    bias_filler {
      type: "constant"
      value: 0.1
    }
  }
}
layer {
  name: "relu4"
  type: "ReLU"
  bottom: "conv4"
  top: "conv4"
}
layer {
  name: "conv5"
  type: "Convolution"
  bottom: "conv4"
  top: "conv5"
  param {
    lr_mult: 1
    decay_mult: 1
  }
  param {
    lr_mult: 2
    decay_mult: 0
  }
  convolution_param {
    num_output: 256
    pad: 1
    kernel_size: 3
    group: 2
    weight_filler {
      type: "gaussian"
      std: 0.01
    }
    bias_filler {
      type: "constant"
      value: 0.1
    }
  }
}
layer {
  name: "relu5"
  type: "ReLU"
  bottom: "conv5"
  top: "conv5"
}
layer {
  name: "pool5"
  type: "Pooling"
  bottom: "conv5"
  top: "pool5"
  pooling_param {
    pool: MAX
    kernel_size: 3
    stride: 2
  }
}
layer {
  name: "fc6"
  type: "InnerProduct"
  bottom: "pool5"
  top: "fc6"
  param {
    lr_mult: 1
    decay_mult: 1
  }
  param {
    lr_mult: 2
    decay_mult: 0
  }
  inner_product_param {
    num_output: 4096
    weight_filler {
      type: "gaussian"
      std: 0.005
    }
    bias_filler {
      type: "constant"
      value: 0.1
    }
  }
}
layer {
  name: "relu6"
  type: "ReLU"
  bottom: "fc6"
  top: "fc6"
}
layer {
  name: "drop6"
  type: "Dropout"
  bottom: "fc6"
  top: "fc6"
  dropout_param {
    dropout_ratio: 0.5
  }
}
layer {
  name: "fc7"
  type: "InnerProduct"
  bottom: "fc6"
  top: "fc7"
  param {
    lr_mult: 1
    decay_mult: 1
  }
  param {
    lr_mult: 2
    decay_mult: 0
  }
  inner_product_param {
    num_output: 4096
    weight_filler {
      type: "gaussian"
      std: 0.005
    }
    bias_filler {
      type: "constant"
      value: 0.1
    }
  }
}
layer {
  name: "relu7"
  type: "ReLU"
  bottom: "fc7"
  top: "fc7"
}
layer {
  name: "drop7"
  type: "Dropout"
  bottom: "fc7"
  top: "fc7"
  dropout_param {
    dropout_ratio: 0.5
  }
}
layer {
  name: "fc8_plantvillage"
  type: "InnerProduct"
  bottom: "fc7"
  top: "fc8_plantvillage"
  param {
    lr_mult: 1
    decay_mult: 1
  }
  param {
    lr_mult: 2
    decay_mult: 0
  }
  inner_product_param {
    num_output: 38
    weight_filler {
      type: "gaussian"
      std: 0.01
    }
    bias_filler {
      type: "constant"
      value: 0
    }
  }
}
layer {
  name: "prob"
  type: "Softmax"
  bottom: "fc8_plantvillage"
  top: "prob"
  include {
    phase: TEST
  }
}
layer {
  name: "hdf5out"
  type: "HDF5Output"
  bottom: "prob"
  bottom: "label"
  include {
    phase: TEST
  }
  hdf5_output_param {
    file_name: "hdf5_dumps/iter_10900.h5"
  }
}
layer {
  name: "loss"
  type: "SoftmaxWithLoss"
  bottom: "fc8_plantvillage"
  bottom: "label"
  top: "loss"
}
layer {
  name: "accuracy"
  type: "Accuracy"
  bottom: "fc8_plantvillage"
  bottom: "label"
  top: "accuracy"
  include {
    phase: TEST
  }
}
I0403 13:33:31.718461 11618 layer_factory.hpp:77] Creating layer data
I0403 13:33:31.719115 11618 net.cpp:91] Creating Layer data
I0403 13:33:31.719147 11618 net.cpp:399] data -> data
I0403 13:33:31.719198 11618 net.cpp:399] data -> label
I0403 13:33:31.719233 11618 data_transformer.cpp:25] Loading mean file from: /home/mohanty/data/final_dataset/lmdb/grayscale-80-20/mean.binaryproto
I0403 13:33:31.722275 11621 db_lmdb.cpp:38] Opened lmdb /home/mohanty/data/final_dataset/lmdb/grayscale-80-20/test_db
I0403 13:33:31.733228 11618 data_layer.cpp:41] output data size: 100,3,227,227
I0403 13:33:31.851202 11618 net.cpp:141] Setting up data
I0403 13:33:31.851295 11618 net.cpp:148] Top shape: 100 3 227 227 (15458700)
I0403 13:33:31.851317 11618 net.cpp:148] Top shape: 100 (100)
I0403 13:33:31.851332 11618 net.cpp:156] Memory required for data: 61835200
I0403 13:33:31.851358 11618 layer_factory.hpp:77] Creating layer label_data_1_split
I0403 13:33:31.851382 11618 net.cpp:91] Creating Layer label_data_1_split
I0403 13:33:31.851399 11618 net.cpp:425] label_data_1_split <- label
I0403 13:33:31.851431 11618 net.cpp:399] label_data_1_split -> label_data_1_split_0
I0403 13:33:31.851457 11618 net.cpp:399] label_data_1_split -> label_data_1_split_1
I0403 13:33:31.851476 11618 net.cpp:399] label_data_1_split -> label_data_1_split_2
I0403 13:33:31.851536 11618 net.cpp:141] Setting up label_data_1_split
I0403 13:33:31.851557 11618 net.cpp:148] Top shape: 100 (100)
I0403 13:33:31.851573 11618 net.cpp:148] Top shape: 100 (100)
I0403 13:33:31.851588 11618 net.cpp:148] Top shape: 100 (100)
I0403 13:33:31.851606 11618 net.cpp:156] Memory required for data: 61836400
I0403 13:33:31.851621 11618 layer_factory.hpp:77] Creating layer conv1
I0403 13:33:31.851652 11618 net.cpp:91] Creating Layer conv1
I0403 13:33:31.851670 11618 net.cpp:425] conv1 <- data
I0403 13:33:31.851689 11618 net.cpp:399] conv1 -> conv1
I0403 13:33:31.993309 11618 net.cpp:141] Setting up conv1
I0403 13:33:31.993387 11618 net.cpp:148] Top shape: 100 96 55 55 (29040000)
I0403 13:33:31.993405 11618 net.cpp:156] Memory required for data: 177996400
I0403 13:33:31.993438 11618 layer_factory.hpp:77] Creating layer relu1
I0403 13:33:31.993465 11618 net.cpp:91] Creating Layer relu1
I0403 13:33:31.993484 11618 net.cpp:425] relu1 <- conv1
I0403 13:33:31.993504 11618 net.cpp:386] relu1 -> conv1 (in-place)
I0403 13:33:31.993767 11618 net.cpp:141] Setting up relu1
I0403 13:33:31.993795 11618 net.cpp:148] Top shape: 100 96 55 55 (29040000)
I0403 13:33:31.993849 11618 net.cpp:156] Memory required for data: 294156400
I0403 13:33:31.993865 11618 layer_factory.hpp:77] Creating layer norm1
I0403 13:33:31.993891 11618 net.cpp:91] Creating Layer norm1
I0403 13:33:31.993909 11618 net.cpp:425] norm1 <- conv1
I0403 13:33:31.993927 11618 net.cpp:399] norm1 -> norm1
I0403 13:33:31.994240 11618 net.cpp:141] Setting up norm1
I0403 13:33:31.994267 11618 net.cpp:148] Top shape: 100 96 55 55 (29040000)
I0403 13:33:31.994283 11618 net.cpp:156] Memory required for data: 410316400
I0403 13:33:31.994299 11618 layer_factory.hpp:77] Creating layer pool1
I0403 13:33:31.994323 11618 net.cpp:91] Creating Layer pool1
I0403 13:33:31.994340 11618 net.cpp:425] pool1 <- norm1
I0403 13:33:31.994359 11618 net.cpp:399] pool1 -> pool1
I0403 13:33:31.994424 11618 net.cpp:141] Setting up pool1
I0403 13:33:31.994448 11618 net.cpp:148] Top shape: 100 96 27 27 (6998400)
I0403 13:33:31.994463 11618 net.cpp:156] Memory required for data: 438310000
I0403 13:33:31.994477 11618 layer_factory.hpp:77] Creating layer conv2
I0403 13:33:31.994501 11618 net.cpp:91] Creating Layer conv2
I0403 13:33:31.994518 11618 net.cpp:425] conv2 <- pool1
I0403 13:33:31.994536 11618 net.cpp:399] conv2 -> conv2
I0403 13:33:32.009050 11618 net.cpp:141] Setting up conv2
I0403 13:33:32.009085 11618 net.cpp:148] Top shape: 100 256 27 27 (18662400)
I0403 13:33:32.009104 11618 net.cpp:156] Memory required for data: 512959600
I0403 13:33:32.009125 11618 layer_factory.hpp:77] Creating layer relu2
I0403 13:33:32.009145 11618 net.cpp:91] Creating Layer relu2
I0403 13:33:32.009162 11618 net.cpp:425] relu2 <- conv2
I0403 13:33:32.009181 11618 net.cpp:386] relu2 -> conv2 (in-place)
I0403 13:33:32.009454 11618 net.cpp:141] Setting up relu2
I0403 13:33:32.009479 11618 net.cpp:148] Top shape: 100 256 27 27 (18662400)
I0403 13:33:32.009495 11618 net.cpp:156] Memory required for data: 587609200
I0403 13:33:32.009508 11618 layer_factory.hpp:77] Creating layer norm2
I0403 13:33:32.009531 11618 net.cpp:91] Creating Layer norm2
I0403 13:33:32.009546 11618 net.cpp:425] norm2 <- conv2
I0403 13:33:32.009567 11618 net.cpp:399] norm2 -> norm2
I0403 13:33:32.009768 11618 net.cpp:141] Setting up norm2
I0403 13:33:32.009794 11618 net.cpp:148] Top shape: 100 256 27 27 (18662400)
I0403 13:33:32.009809 11618 net.cpp:156] Memory required for data: 662258800
I0403 13:33:32.009824 11618 layer_factory.hpp:77] Creating layer pool2
I0403 13:33:32.009840 11618 net.cpp:91] Creating Layer pool2
I0403 13:33:32.009855 11618 net.cpp:425] pool2 <- norm2
I0403 13:33:32.009876 11618 net.cpp:399] pool2 -> pool2
I0403 13:33:32.009929 11618 net.cpp:141] Setting up pool2
I0403 13:33:32.009951 11618 net.cpp:148] Top shape: 100 256 13 13 (4326400)
I0403 13:33:32.009965 11618 net.cpp:156] Memory required for data: 679564400
I0403 13:33:32.009979 11618 layer_factory.hpp:77] Creating layer conv3
I0403 13:33:32.010004 11618 net.cpp:91] Creating Layer conv3
I0403 13:33:32.010021 11618 net.cpp:425] conv3 <- pool2
I0403 13:33:32.010041 11618 net.cpp:399] conv3 -> conv3
I0403 13:33:32.051240 11618 net.cpp:141] Setting up conv3
I0403 13:33:32.051282 11618 net.cpp:148] Top shape: 100 384 13 13 (6489600)
I0403 13:33:32.051301 11618 net.cpp:156] Memory required for data: 705522800
I0403 13:33:32.051324 11618 layer_factory.hpp:77] Creating layer relu3
I0403 13:33:32.051348 11618 net.cpp:91] Creating Layer relu3
I0403 13:33:32.051367 11618 net.cpp:425] relu3 <- conv3
I0403 13:33:32.051384 11618 net.cpp:386] relu3 -> conv3 (in-place)
I0403 13:33:32.051666 11618 net.cpp:141] Setting up relu3
I0403 13:33:32.051693 11618 net.cpp:148] Top shape: 100 384 13 13 (6489600)
I0403 13:33:32.051709 11618 net.cpp:156] Memory required for data: 731481200
I0403 13:33:32.051724 11618 layer_factory.hpp:77] Creating layer conv4
I0403 13:33:32.051749 11618 net.cpp:91] Creating Layer conv4
I0403 13:33:32.051767 11618 net.cpp:425] conv4 <- conv3
I0403 13:33:32.051789 11618 net.cpp:399] conv4 -> conv4
I0403 13:33:32.081575 11618 net.cpp:141] Setting up conv4
I0403 13:33:32.081650 11618 net.cpp:148] Top shape: 100 384 13 13 (6489600)
I0403 13:33:32.081706 11618 net.cpp:156] Memory required for data: 757439600
I0403 13:33:32.081728 11618 layer_factory.hpp:77] Creating layer relu4
I0403 13:33:32.081749 11618 net.cpp:91] Creating Layer relu4
I0403 13:33:32.081770 11618 net.cpp:425] relu4 <- conv4
I0403 13:33:32.081789 11618 net.cpp:386] relu4 -> conv4 (in-place)
I0403 13:33:32.082073 11618 net.cpp:141] Setting up relu4
I0403 13:33:32.082101 11618 net.cpp:148] Top shape: 100 384 13 13 (6489600)
I0403 13:33:32.082116 11618 net.cpp:156] Memory required for data: 783398000
I0403 13:33:32.082130 11618 layer_factory.hpp:77] Creating layer conv5
I0403 13:33:32.082155 11618 net.cpp:91] Creating Layer conv5
I0403 13:33:32.082173 11618 net.cpp:425] conv5 <- conv4
I0403 13:33:32.082196 11618 net.cpp:399] conv5 -> conv5
I0403 13:33:32.102140 11618 net.cpp:141] Setting up conv5
I0403 13:33:32.102176 11618 net.cpp:148] Top shape: 100 256 13 13 (4326400)
I0403 13:33:32.102193 11618 net.cpp:156] Memory required for data: 800703600
I0403 13:33:32.102216 11618 layer_factory.hpp:77] Creating layer relu5
I0403 13:33:32.102238 11618 net.cpp:91] Creating Layer relu5
I0403 13:33:32.102257 11618 net.cpp:425] relu5 <- conv5
I0403 13:33:32.102275 11618 net.cpp:386] relu5 -> conv5 (in-place)
I0403 13:33:32.102555 11618 net.cpp:141] Setting up relu5
I0403 13:33:32.102582 11618 net.cpp:148] Top shape: 100 256 13 13 (4326400)
I0403 13:33:32.102597 11618 net.cpp:156] Memory required for data: 818009200
I0403 13:33:32.102617 11618 layer_factory.hpp:77] Creating layer pool5
I0403 13:33:32.102639 11618 net.cpp:91] Creating Layer pool5
I0403 13:33:32.102656 11618 net.cpp:425] pool5 <- conv5
I0403 13:33:32.102674 11618 net.cpp:399] pool5 -> pool5
I0403 13:33:32.102735 11618 net.cpp:141] Setting up pool5
I0403 13:33:32.102758 11618 net.cpp:148] Top shape: 100 256 6 6 (921600)
I0403 13:33:32.102772 11618 net.cpp:156] Memory required for data: 821695600
I0403 13:33:32.102787 11618 layer_factory.hpp:77] Creating layer fc6
I0403 13:33:32.102814 11618 net.cpp:91] Creating Layer fc6
I0403 13:33:32.102833 11618 net.cpp:425] fc6 <- pool5
I0403 13:33:32.102850 11618 net.cpp:399] fc6 -> fc6
I0403 13:33:33.644187 11618 net.cpp:141] Setting up fc6
I0403 13:33:33.644233 11618 net.cpp:148] Top shape: 100 4096 (409600)
I0403 13:33:33.644249 11618 net.cpp:156] Memory required for data: 823334000
I0403 13:33:33.644270 11618 layer_factory.hpp:77] Creating layer relu6
I0403 13:33:33.644291 11618 net.cpp:91] Creating Layer relu6
I0403 13:33:33.644309 11618 net.cpp:425] relu6 <- fc6
I0403 13:33:33.644332 11618 net.cpp:386] relu6 -> fc6 (in-place)
I0403 13:33:33.644547 11618 net.cpp:141] Setting up relu6
I0403 13:33:33.644583 11618 net.cpp:148] Top shape: 100 4096 (409600)
I0403 13:33:33.644600 11618 net.cpp:156] Memory required for data: 824972400
I0403 13:33:33.644619 11618 layer_factory.hpp:77] Creating layer drop6
I0403 13:33:33.644639 11618 net.cpp:91] Creating Layer drop6
I0403 13:33:33.644656 11618 net.cpp:425] drop6 <- fc6
I0403 13:33:33.644678 11618 net.cpp:386] drop6 -> fc6 (in-place)
I0403 13:33:33.644739 11618 net.cpp:141] Setting up drop6
I0403 13:33:33.644767 11618 net.cpp:148] Top shape: 100 4096 (409600)
I0403 13:33:33.644779 11618 net.cpp:156] Memory required for data: 826610800
I0403 13:33:33.644793 11618 layer_factory.hpp:77] Creating layer fc7
I0403 13:33:33.644812 11618 net.cpp:91] Creating Layer fc7
I0403 13:33:33.644827 11618 net.cpp:425] fc7 <- fc6
I0403 13:33:33.644850 11618 net.cpp:399] fc7 -> fc7
I0403 13:33:34.320543 11618 net.cpp:141] Setting up fc7
I0403 13:33:34.320612 11618 net.cpp:148] Top shape: 100 4096 (409600)
I0403 13:33:34.320629 11618 net.cpp:156] Memory required for data: 828249200
I0403 13:33:34.320650 11618 layer_factory.hpp:77] Creating layer relu7
I0403 13:33:34.320674 11618 net.cpp:91] Creating Layer relu7
I0403 13:33:34.320693 11618 net.cpp:425] relu7 <- fc7
I0403 13:33:34.320711 11618 net.cpp:386] relu7 -> fc7 (in-place)
I0403 13:33:34.321107 11618 net.cpp:141] Setting up relu7
I0403 13:33:34.321133 11618 net.cpp:148] Top shape: 100 4096 (409600)
I0403 13:33:34.321190 11618 net.cpp:156] Memory required for data: 829887600
I0403 13:33:34.321207 11618 layer_factory.hpp:77] Creating layer drop7
I0403 13:33:34.321226 11618 net.cpp:91] Creating Layer drop7
I0403 13:33:34.321241 11618 net.cpp:425] drop7 <- fc7
I0403 13:33:34.321257 11618 net.cpp:386] drop7 -> fc7 (in-place)
I0403 13:33:34.321307 11618 net.cpp:141] Setting up drop7
I0403 13:33:34.321332 11618 net.cpp:148] Top shape: 100 4096 (409600)
I0403 13:33:34.321347 11618 net.cpp:156] Memory required for data: 831526000
I0403 13:33:34.321362 11618 layer_factory.hpp:77] Creating layer fc8_plantvillage
I0403 13:33:34.321380 11618 net.cpp:91] Creating Layer fc8_plantvillage
I0403 13:33:34.321394 11618 net.cpp:425] fc8_plantvillage <- fc7
I0403 13:33:34.321413 11618 net.cpp:399] fc8_plantvillage -> fc8_plantvillage
I0403 13:33:34.327930 11618 net.cpp:141] Setting up fc8_plantvillage
I0403 13:33:34.327958 11618 net.cpp:148] Top shape: 100 38 (3800)
I0403 13:33:34.327972 11618 net.cpp:156] Memory required for data: 831541200
I0403 13:33:34.327989 11618 layer_factory.hpp:77] Creating layer fc8_plantvillage_fc8_plantvillage_0_split
I0403 13:33:34.328009 11618 net.cpp:91] Creating Layer fc8_plantvillage_fc8_plantvillage_0_split
I0403 13:33:34.328024 11618 net.cpp:425] fc8_plantvillage_fc8_plantvillage_0_split <- fc8_plantvillage
I0403 13:33:34.328042 11618 net.cpp:399] fc8_plantvillage_fc8_plantvillage_0_split -> fc8_plantvillage_fc8_plantvillage_0_split_0
I0403 13:33:34.328060 11618 net.cpp:399] fc8_plantvillage_fc8_plantvillage_0_split -> fc8_plantvillage_fc8_plantvillage_0_split_1
I0403 13:33:34.328078 11618 net.cpp:399] fc8_plantvillage_fc8_plantvillage_0_split -> fc8_plantvillage_fc8_plantvillage_0_split_2
I0403 13:33:34.328158 11618 net.cpp:141] Setting up fc8_plantvillage_fc8_plantvillage_0_split
I0403 13:33:34.328181 11618 net.cpp:148] Top shape: 100 38 (3800)
I0403 13:33:34.328197 11618 net.cpp:148] Top shape: 100 38 (3800)
I0403 13:33:34.328210 11618 net.cpp:148] Top shape: 100 38 (3800)
I0403 13:33:34.328223 11618 net.cpp:156] Memory required for data: 831586800
I0403 13:33:34.328238 11618 layer_factory.hpp:77] Creating layer prob
I0403 13:33:34.328254 11618 net.cpp:91] Creating Layer prob
I0403 13:33:34.328269 11618 net.cpp:425] prob <- fc8_plantvillage_fc8_plantvillage_0_split_0
I0403 13:33:34.328289 11618 net.cpp:399] prob -> prob
I0403 13:33:34.328517 11618 net.cpp:141] Setting up prob
I0403 13:33:34.328541 11618 net.cpp:148] Top shape: 100 38 (3800)
I0403 13:33:34.328555 11618 net.cpp:156] Memory required for data: 831602000
I0403 13:33:34.328573 11618 layer_factory.hpp:77] Creating layer hdf5out
I0403 13:33:34.328600 11618 net.cpp:91] Creating Layer hdf5out
I0403 13:33:34.328616 11618 net.cpp:425] hdf5out <- prob
I0403 13:33:34.328631 11618 net.cpp:425] hdf5out <- label_data_1_split_0
I0403 13:33:34.331022 11618 net.cpp:141] Setting up hdf5out
…
