…
I0403 13:33:56.710288 11639 net.cpp:313] The NetState phase (1) differed from the phase (0) specified by a rule in layer data
I0403 13:33:56.710592 11639 net.cpp:49] Initializing net from parameters: 
state {
  phase: TEST
}
layer {
  name: "data"
  type: "Data"
  top: "data"
  top: "label"
  include {
    phase: TEST
  }
  transform_param {
    crop_size: 227
    mean_file: "/home/mohanty/data/final_dataset/lmdb/grayscale-80-20/mean.binaryproto"
  }
  data_param {
    source: "/home/mohanty/data/final_dataset/lmdb/grayscale-80-20/test_db"
    batch_size: 100
    backend: LMDB
  }
}
layer {
  name: "conv1"
  type: "Convolution"
  bottom: "data"
  top: "conv1"
  param {
    lr_mult: 1
    decay_mult: 1
  }
  param {
    lr_mult: 2
    decay_mult: 0
  }
  convolution_param {
    num_output: 96
    kernel_size: 11
    stride: 4
    weight_filler {
      type: "gaussian"
      std: 0.01
    }
    bias_filler {
      type: "constant"
      value: 0
    }
  }
}
layer {
  name: "relu1"
  type: "ReLU"
  bottom: "conv1"
  top: "conv1"
}
layer {
  name: "norm1"
  type: "LRN"
  bottom: "conv1"
  top: "norm1"
  lrn_param {
    local_size: 5
    alpha: 0.0001
    beta: 0.75
  }
}
layer {
  name: "pool1"
  type: "Pooling"
  bottom: "norm1"
  top: "pool1"
  pooling_param {
    pool: MAX
    kernel_size: 3
    stride: 2
  }
}
layer {
  name: "conv2"
  type: "Convolution"
  bottom: "pool1"
  top: "conv2"
  param {
    lr_mult: 1
    decay_mult: 1
  }
  param {
    lr_mult: 2
    decay_mult: 0
  }
  convolution_param {
    num_output: 256
    pad: 2
    kernel_size: 5
    group: 2
    weight_filler {
      type: "gaussian"
      std: 0.01
    }
    bias_filler {
      type: "constant"
      value: 0.1
    }
  }
}
layer {
  name: "relu2"
  type: "ReLU"
  bottom: "conv2"
  top: "conv2"
}
layer {
  name: "norm2"
  type: "LRN"
  bottom: "conv2"
  top: "norm2"
  lrn_param {
    local_size: 5
    alpha: 0.0001
    beta: 0.75
  }
}
layer {
  name: "pool2"
  type: "Pooling"
  bottom: "norm2"
  top: "pool2"
  pooling_param {
    pool: MAX
    kernel_size: 3
    stride: 2
  }
}
layer {
  name: "conv3"
  type: "Convolution"
  bottom: "pool2"
  top: "conv3"
  param {
    lr_mult: 1
    decay_mult: 1
  }
  param {
    lr_mult: 2
    decay_mult: 0
  }
  convolution_param {
    num_output: 384
    pad: 1
    kernel_size: 3
    weight_filler {
      type: "gaussian"
      std: 0.01
    }
    bias_filler {
      type: "constant"
      value: 0
    }
  }
}
layer {
  name: "relu3"
  type: "ReLU"
  bottom: "conv3"
  top: "conv3"
}
layer {
  name: "conv4"
  type: "Convolution"
  bottom: "conv3"
  top: "conv4"
  param {
    lr_mult: 1
    decay_mult: 1
  }
  param {
    lr_mult: 2
    decay_mult: 0
  }
  convolution_param {
    num_output: 384
    pad: 1
    kernel_size: 3
    group: 2
    weight_filler {
      type: "gaussian"
      std: 0.01
    }
    bias_filler {
      type: "constant"
      value: 0.1
    }
  }
}
layer {
  name: "relu4"
  type: "ReLU"
  bottom: "conv4"
  top: "conv4"
}
layer {
  name: "conv5"
  type: "Convolution"
  bottom: "conv4"
  top: "conv5"
  param {
    lr_mult: 1
    decay_mult: 1
  }
  param {
    lr_mult: 2
    decay_mult: 0
  }
  convolution_param {
    num_output: 256
    pad: 1
    kernel_size: 3
    group: 2
    weight_filler {
      type: "gaussian"
      std: 0.01
    }
    bias_filler {
      type: "constant"
      value: 0.1
    }
  }
}
layer {
  name: "relu5"
  type: "ReLU"
  bottom: "conv5"
  top: "conv5"
}
layer {
  name: "pool5"
  type: "Pooling"
  bottom: "conv5"
  top: "pool5"
  pooling_param {
    pool: MAX
    kernel_size: 3
    stride: 2
  }
}
layer {
  name: "fc6"
  type: "InnerProduct"
  bottom: "pool5"
  top: "fc6"
  param {
    lr_mult: 1
    decay_mult: 1
  }
  param {
    lr_mult: 2
    decay_mult: 0
  }
  inner_product_param {
    num_output: 4096
    weight_filler {
      type: "gaussian"
      std: 0.005
    }
    bias_filler {
      type: "constant"
      value: 0.1
    }
  }
}
layer {
  name: "relu6"
  type: "ReLU"
  bottom: "fc6"
  top: "fc6"
}
layer {
  name: "drop6"
  type: "Dropout"
  bottom: "fc6"
  top: "fc6"
  dropout_param {
    dropout_ratio: 0.5
  }
}
layer {
  name: "fc7"
  type: "InnerProduct"
  bottom: "fc6"
  top: "fc7"
  param {
    lr_mult: 1
    decay_mult: 1
  }
  param {
    lr_mult: 2
    decay_mult: 0
  }
  inner_product_param {
    num_output: 4096
    weight_filler {
      type: "gaussian"
      std: 0.005
    }
    bias_filler {
      type: "constant"
      value: 0.1
    }
  }
}
layer {
  name: "relu7"
  type: "ReLU"
  bottom: "fc7"
  top: "fc7"
}
layer {
  name: "drop7"
  type: "Dropout"
  bottom: "fc7"
  top: "fc7"
  dropout_param {
    dropout_ratio: 0.5
  }
}
layer {
  name: "fc8_plantvillage"
  type: "InnerProduct"
  bottom: "fc7"
  top: "fc8_plantvillage"
  param {
    lr_mult: 1
    decay_mult: 1
  }
  param {
    lr_mult: 2
    decay_mult: 0
  }
  inner_product_param {
    num_output: 38
    weight_filler {
      type: "gaussian"
      std: 0.01
    }
    bias_filler {
      type: "constant"
      value: 0
    }
  }
}
layer {
  name: "prob"
  type: "Softmax"
  bottom: "fc8_plantvillage"
  top: "prob"
  include {
    phase: TEST
  }
}
layer {
  name: "hdf5out"
  type: "HDF5Output"
  bottom: "prob"
  bottom: "label"
  include {
    phase: TEST
  }
  hdf5_output_param {
    file_name: "hdf5_dumps/iter_11336.h5"
  }
}
layer {
  name: "loss"
  type: "SoftmaxWithLoss"
  bottom: "fc8_plantvillage"
  bottom: "label"
  top: "loss"
}
layer {
  name: "accuracy"
  type: "Accuracy"
  bottom: "fc8_plantvillage"
  bottom: "label"
  top: "accuracy"
  include {
    phase: TEST
  }
}
I0403 13:33:56.711158 11639 layer_factory.hpp:77] Creating layer data
I0403 13:33:56.711776 11639 net.cpp:91] Creating Layer data
I0403 13:33:56.711808 11639 net.cpp:399] data -> data
I0403 13:33:56.711858 11639 net.cpp:399] data -> label
I0403 13:33:56.711894 11639 data_transformer.cpp:25] Loading mean file from: /home/mohanty/data/final_dataset/lmdb/grayscale-80-20/mean.binaryproto
I0403 13:33:56.714512 11642 db_lmdb.cpp:38] Opened lmdb /home/mohanty/data/final_dataset/lmdb/grayscale-80-20/test_db
I0403 13:33:56.726739 11639 data_layer.cpp:41] output data size: 100,3,227,227
I0403 13:33:56.847985 11639 net.cpp:141] Setting up data
I0403 13:33:56.848078 11639 net.cpp:148] Top shape: 100 3 227 227 (15458700)
I0403 13:33:56.848099 11639 net.cpp:148] Top shape: 100 (100)
I0403 13:33:56.848114 11639 net.cpp:156] Memory required for data: 61835200
I0403 13:33:56.848142 11639 layer_factory.hpp:77] Creating layer label_data_1_split
I0403 13:33:56.848166 11639 net.cpp:91] Creating Layer label_data_1_split
I0403 13:33:56.848184 11639 net.cpp:425] label_data_1_split <- label
I0403 13:33:56.848215 11639 net.cpp:399] label_data_1_split -> label_data_1_split_0
I0403 13:33:56.848242 11639 net.cpp:399] label_data_1_split -> label_data_1_split_1
I0403 13:33:56.848263 11639 net.cpp:399] label_data_1_split -> label_data_1_split_2
I0403 13:33:56.848325 11639 net.cpp:141] Setting up label_data_1_split
I0403 13:33:56.848348 11639 net.cpp:148] Top shape: 100 (100)
I0403 13:33:56.848366 11639 net.cpp:148] Top shape: 100 (100)
I0403 13:33:56.848381 11639 net.cpp:148] Top shape: 100 (100)
I0403 13:33:56.848394 11639 net.cpp:156] Memory required for data: 61836400
I0403 13:33:56.848408 11639 layer_factory.hpp:77] Creating layer conv1
I0403 13:33:56.848439 11639 net.cpp:91] Creating Layer conv1
I0403 13:33:56.848458 11639 net.cpp:425] conv1 <- data
I0403 13:33:56.848476 11639 net.cpp:399] conv1 -> conv1
I0403 13:33:56.989447 11639 net.cpp:141] Setting up conv1
I0403 13:33:56.989512 11639 net.cpp:148] Top shape: 100 96 55 55 (29040000)
I0403 13:33:56.989531 11639 net.cpp:156] Memory required for data: 177996400
I0403 13:33:56.989562 11639 layer_factory.hpp:77] Creating layer relu1
I0403 13:33:56.989590 11639 net.cpp:91] Creating Layer relu1
I0403 13:33:56.989614 11639 net.cpp:425] relu1 <- conv1
I0403 13:33:56.989636 11639 net.cpp:386] relu1 -> conv1 (in-place)
I0403 13:33:56.989925 11639 net.cpp:141] Setting up relu1
I0403 13:33:56.989956 11639 net.cpp:148] Top shape: 100 96 55 55 (29040000)
I0403 13:33:56.990018 11639 net.cpp:156] Memory required for data: 294156400
I0403 13:33:56.990036 11639 layer_factory.hpp:77] Creating layer norm1
I0403 13:33:56.990064 11639 net.cpp:91] Creating Layer norm1
I0403 13:33:56.990083 11639 net.cpp:425] norm1 <- conv1
I0403 13:33:56.990103 11639 net.cpp:399] norm1 -> norm1
I0403 13:33:56.990447 11639 net.cpp:141] Setting up norm1
I0403 13:33:56.990476 11639 net.cpp:148] Top shape: 100 96 55 55 (29040000)
I0403 13:33:56.990492 11639 net.cpp:156] Memory required for data: 410316400
I0403 13:33:56.990507 11639 layer_factory.hpp:77] Creating layer pool1
I0403 13:33:56.990531 11639 net.cpp:91] Creating Layer pool1
I0403 13:33:56.990548 11639 net.cpp:425] pool1 <- norm1
I0403 13:33:56.990566 11639 net.cpp:399] pool1 -> pool1
I0403 13:33:56.990641 11639 net.cpp:141] Setting up pool1
I0403 13:33:56.990666 11639 net.cpp:148] Top shape: 100 96 27 27 (6998400)
I0403 13:33:56.990680 11639 net.cpp:156] Memory required for data: 438310000
I0403 13:33:56.990695 11639 layer_factory.hpp:77] Creating layer conv2
I0403 13:33:56.990721 11639 net.cpp:91] Creating Layer conv2
I0403 13:33:56.990738 11639 net.cpp:425] conv2 <- pool1
I0403 13:33:56.990759 11639 net.cpp:399] conv2 -> conv2
I0403 13:33:57.005817 11639 net.cpp:141] Setting up conv2
I0403 13:33:57.005870 11639 net.cpp:148] Top shape: 100 256 27 27 (18662400)
I0403 13:33:57.005887 11639 net.cpp:156] Memory required for data: 512959600
I0403 13:33:57.005910 11639 layer_factory.hpp:77] Creating layer relu2
I0403 13:33:57.005934 11639 net.cpp:91] Creating Layer relu2
I0403 13:33:57.005951 11639 net.cpp:425] relu2 <- conv2
I0403 13:33:57.005970 11639 net.cpp:386] relu2 -> conv2 (in-place)
I0403 13:33:57.006275 11639 net.cpp:141] Setting up relu2
I0403 13:33:57.006304 11639 net.cpp:148] Top shape: 100 256 27 27 (18662400)
I0403 13:33:57.006319 11639 net.cpp:156] Memory required for data: 587609200
I0403 13:33:57.006333 11639 layer_factory.hpp:77] Creating layer norm2
I0403 13:33:57.006356 11639 net.cpp:91] Creating Layer norm2
I0403 13:33:57.006374 11639 net.cpp:425] norm2 <- conv2
I0403 13:33:57.006393 11639 net.cpp:399] norm2 -> norm2
I0403 13:33:57.006594 11639 net.cpp:141] Setting up norm2
I0403 13:33:57.006624 11639 net.cpp:148] Top shape: 100 256 27 27 (18662400)
I0403 13:33:57.006640 11639 net.cpp:156] Memory required for data: 662258800
I0403 13:33:57.006655 11639 layer_factory.hpp:77] Creating layer pool2
I0403 13:33:57.006674 11639 net.cpp:91] Creating Layer pool2
I0403 13:33:57.006690 11639 net.cpp:425] pool2 <- norm2
I0403 13:33:57.006710 11639 net.cpp:399] pool2 -> pool2
I0403 13:33:57.006762 11639 net.cpp:141] Setting up pool2
I0403 13:33:57.006786 11639 net.cpp:148] Top shape: 100 256 13 13 (4326400)
I0403 13:33:57.006801 11639 net.cpp:156] Memory required for data: 679564400
I0403 13:33:57.006815 11639 layer_factory.hpp:77] Creating layer conv3
I0403 13:33:57.006840 11639 net.cpp:91] Creating Layer conv3
I0403 13:33:57.006857 11639 net.cpp:425] conv3 <- pool2
I0403 13:33:57.006875 11639 net.cpp:399] conv3 -> conv3
I0403 13:33:57.050237 11639 net.cpp:141] Setting up conv3
I0403 13:33:57.050302 11639 net.cpp:148] Top shape: 100 384 13 13 (6489600)
I0403 13:33:57.050318 11639 net.cpp:156] Memory required for data: 705522800
I0403 13:33:57.050340 11639 layer_factory.hpp:77] Creating layer relu3
I0403 13:33:57.050364 11639 net.cpp:91] Creating Layer relu3
I0403 13:33:57.050382 11639 net.cpp:425] relu3 <- conv3
I0403 13:33:57.050400 11639 net.cpp:386] relu3 -> conv3 (in-place)
I0403 13:33:57.050674 11639 net.cpp:141] Setting up relu3
I0403 13:33:57.050700 11639 net.cpp:148] Top shape: 100 384 13 13 (6489600)
I0403 13:33:57.050716 11639 net.cpp:156] Memory required for data: 731481200
I0403 13:33:57.050731 11639 layer_factory.hpp:77] Creating layer conv4
I0403 13:33:57.050755 11639 net.cpp:91] Creating Layer conv4
I0403 13:33:57.050773 11639 net.cpp:425] conv4 <- conv3
I0403 13:33:57.050794 11639 net.cpp:399] conv4 -> conv4
I0403 13:33:57.079967 11639 net.cpp:141] Setting up conv4
I0403 13:33:57.080014 11639 net.cpp:148] Top shape: 100 384 13 13 (6489600)
I0403 13:33:57.080065 11639 net.cpp:156] Memory required for data: 757439600
I0403 13:33:57.080086 11639 layer_factory.hpp:77] Creating layer relu4
I0403 13:33:57.080108 11639 net.cpp:91] Creating Layer relu4
I0403 13:33:57.080137 11639 net.cpp:425] relu4 <- conv4
I0403 13:33:57.080159 11639 net.cpp:386] relu4 -> conv4 (in-place)
I0403 13:33:57.080452 11639 net.cpp:141] Setting up relu4
I0403 13:33:57.080482 11639 net.cpp:148] Top shape: 100 384 13 13 (6489600)
I0403 13:33:57.080497 11639 net.cpp:156] Memory required for data: 783398000
I0403 13:33:57.080513 11639 layer_factory.hpp:77] Creating layer conv5
I0403 13:33:57.080538 11639 net.cpp:91] Creating Layer conv5
I0403 13:33:57.080557 11639 net.cpp:425] conv5 <- conv4
I0403 13:33:57.080579 11639 net.cpp:399] conv5 -> conv5
I0403 13:33:57.101090 11639 net.cpp:141] Setting up conv5
I0403 13:33:57.101150 11639 net.cpp:148] Top shape: 100 256 13 13 (4326400)
I0403 13:33:57.101167 11639 net.cpp:156] Memory required for data: 800703600
I0403 13:33:57.101193 11639 layer_factory.hpp:77] Creating layer relu5
I0403 13:33:57.101215 11639 net.cpp:91] Creating Layer relu5
I0403 13:33:57.101233 11639 net.cpp:425] relu5 <- conv5
I0403 13:33:57.101253 11639 net.cpp:386] relu5 -> conv5 (in-place)
I0403 13:33:57.101583 11639 net.cpp:141] Setting up relu5
I0403 13:33:57.101615 11639 net.cpp:148] Top shape: 100 256 13 13 (4326400)
I0403 13:33:57.101632 11639 net.cpp:156] Memory required for data: 818009200
I0403 13:33:57.101656 11639 layer_factory.hpp:77] Creating layer pool5
I0403 13:33:57.101681 11639 net.cpp:91] Creating Layer pool5
I0403 13:33:57.101698 11639 net.cpp:425] pool5 <- conv5
I0403 13:33:57.101717 11639 net.cpp:399] pool5 -> pool5
I0403 13:33:57.101783 11639 net.cpp:141] Setting up pool5
I0403 13:33:57.101809 11639 net.cpp:148] Top shape: 100 256 6 6 (921600)
I0403 13:33:57.101824 11639 net.cpp:156] Memory required for data: 821695600
I0403 13:33:57.101840 11639 layer_factory.hpp:77] Creating layer fc6
I0403 13:33:57.101869 11639 net.cpp:91] Creating Layer fc6
I0403 13:33:57.101887 11639 net.cpp:425] fc6 <- pool5
I0403 13:33:57.101905 11639 net.cpp:399] fc6 -> fc6
I0403 13:33:58.628957 11639 net.cpp:141] Setting up fc6
I0403 13:33:58.629019 11639 net.cpp:148] Top shape: 100 4096 (409600)
I0403 13:33:58.629034 11639 net.cpp:156] Memory required for data: 823334000
I0403 13:33:58.629053 11639 layer_factory.hpp:77] Creating layer relu6
I0403 13:33:58.629076 11639 net.cpp:91] Creating Layer relu6
I0403 13:33:58.629091 11639 net.cpp:425] relu6 <- fc6
I0403 13:33:58.629113 11639 net.cpp:386] relu6 -> fc6 (in-place)
I0403 13:33:58.629330 11639 net.cpp:141] Setting up relu6
I0403 13:33:58.629355 11639 net.cpp:148] Top shape: 100 4096 (409600)
I0403 13:33:58.629369 11639 net.cpp:156] Memory required for data: 824972400
I0403 13:33:58.629384 11639 layer_factory.hpp:77] Creating layer drop6
I0403 13:33:58.629401 11639 net.cpp:91] Creating Layer drop6
I0403 13:33:58.629416 11639 net.cpp:425] drop6 <- fc6
I0403 13:33:58.629434 11639 net.cpp:386] drop6 -> fc6 (in-place)
I0403 13:33:58.629484 11639 net.cpp:141] Setting up drop6
I0403 13:33:58.629506 11639 net.cpp:148] Top shape: 100 4096 (409600)
I0403 13:33:58.629520 11639 net.cpp:156] Memory required for data: 826610800
I0403 13:33:58.629534 11639 layer_factory.hpp:77] Creating layer fc7
I0403 13:33:58.629552 11639 net.cpp:91] Creating Layer fc7
I0403 13:33:58.629566 11639 net.cpp:425] fc7 <- fc6
I0403 13:33:58.629587 11639 net.cpp:399] fc7 -> fc7
I0403 13:33:59.302916 11639 net.cpp:141] Setting up fc7
I0403 13:33:59.302955 11639 net.cpp:148] Top shape: 100 4096 (409600)
I0403 13:33:59.302971 11639 net.cpp:156] Memory required for data: 828249200
I0403 13:33:59.302991 11639 layer_factory.hpp:77] Creating layer relu7
I0403 13:33:59.303015 11639 net.cpp:91] Creating Layer relu7
I0403 13:33:59.303033 11639 net.cpp:425] relu7 <- fc7
I0403 13:33:59.303052 11639 net.cpp:386] relu7 -> fc7 (in-place)
I0403 13:33:59.303452 11639 net.cpp:141] Setting up relu7
I0403 13:33:59.303478 11639 net.cpp:148] Top shape: 100 4096 (409600)
I0403 13:33:59.303514 11639 net.cpp:156] Memory required for data: 829887600
I0403 13:33:59.303529 11639 layer_factory.hpp:77] Creating layer drop7
I0403 13:33:59.303549 11639 net.cpp:91] Creating Layer drop7
I0403 13:33:59.303566 11639 net.cpp:425] drop7 <- fc7
I0403 13:33:59.303583 11639 net.cpp:386] drop7 -> fc7 (in-place)
I0403 13:33:59.303630 11639 net.cpp:141] Setting up drop7
I0403 13:33:59.303655 11639 net.cpp:148] Top shape: 100 4096 (409600)
I0403 13:33:59.303670 11639 net.cpp:156] Memory required for data: 831526000
I0403 13:33:59.303685 11639 layer_factory.hpp:77] Creating layer fc8_plantvillage
I0403 13:33:59.303704 11639 net.cpp:91] Creating Layer fc8_plantvillage
I0403 13:33:59.303719 11639 net.cpp:425] fc8_plantvillage <- fc7
I0403 13:33:59.303738 11639 net.cpp:399] fc8_plantvillage -> fc8_plantvillage
I0403 13:33:59.310452 11639 net.cpp:141] Setting up fc8_plantvillage
I0403 13:33:59.310482 11639 net.cpp:148] Top shape: 100 38 (3800)
I0403 13:33:59.310497 11639 net.cpp:156] Memory required for data: 831541200
I0403 13:33:59.310514 11639 layer_factory.hpp:77] Creating layer fc8_plantvillage_fc8_plantvillage_0_split
I0403 13:33:59.310535 11639 net.cpp:91] Creating Layer fc8_plantvillage_fc8_plantvillage_0_split
I0403 13:33:59.310551 11639 net.cpp:425] fc8_plantvillage_fc8_plantvillage_0_split <- fc8_plantvillage
I0403 13:33:59.310569 11639 net.cpp:399] fc8_plantvillage_fc8_plantvillage_0_split -> fc8_plantvillage_fc8_plantvillage_0_split_0
I0403 13:33:59.310588 11639 net.cpp:399] fc8_plantvillage_fc8_plantvillage_0_split -> fc8_plantvillage_fc8_plantvillage_0_split_1
I0403 13:33:59.310613 11639 net.cpp:399] fc8_plantvillage_fc8_plantvillage_0_split -> fc8_plantvillage_fc8_plantvillage_0_split_2
I0403 13:33:59.310694 11639 net.cpp:141] Setting up fc8_plantvillage_fc8_plantvillage_0_split
I0403 13:33:59.310717 11639 net.cpp:148] Top shape: 100 38 (3800)
I0403 13:33:59.310732 11639 net.cpp:148] Top shape: 100 38 (3800)
I0403 13:33:59.310747 11639 net.cpp:148] Top shape: 100 38 (3800)
I0403 13:33:59.310761 11639 net.cpp:156] Memory required for data: 831586800
I0403 13:33:59.310775 11639 layer_factory.hpp:77] Creating layer prob
I0403 13:33:59.310793 11639 net.cpp:91] Creating Layer prob
I0403 13:33:59.310808 11639 net.cpp:425] prob <- fc8_plantvillage_fc8_plantvillage_0_split_0
I0403 13:33:59.310827 11639 net.cpp:399] prob -> prob
I0403 13:33:59.311051 11639 net.cpp:141] Setting up prob
I0403 13:33:59.311076 11639 net.cpp:148] Top shape: 100 38 (3800)
I0403 13:33:59.311091 11639 net.cpp:156] Memory required for data: 831602000
I0403 13:33:59.311105 11639 layer_factory.hpp:77] Creating layer hdf5out
I0403 13:33:59.311126 11639 net.cpp:91] Creating Layer hdf5out
I0403 13:33:59.311142 11639 net.cpp:425] hdf5out <- prob
I0403 13:33:59.311157 11639 net.cpp:425] hdf5out <- label_data_1_split_0
I0403 13:33:59.313649 11639 net.cpp:141] Setting up hdf5out
…
