…
I0403 13:36:01.732092 11694 net.cpp:313] The NetState phase (1) differed from the phase (0) specified by a rule in layer data
I0403 13:36:01.732403 11694 net.cpp:49] Initializing net from parameters: 
state {
  phase: TEST
}
layer {
  name: "data"
  type: "Data"
  top: "data"
  top: "label"
  include {
    phase: TEST
  }
  transform_param {
    crop_size: 227
    mean_file: "/home/mohanty/data/final_dataset/lmdb/grayscale-80-20/mean.binaryproto"
  }
  data_param {
    source: "/home/mohanty/data/final_dataset/lmdb/grayscale-80-20/test_db"
    batch_size: 100
    backend: LMDB
  }
}
layer {
  name: "conv1"
  type: "Convolution"
  bottom: "data"
  top: "conv1"
  param {
    lr_mult: 1
    decay_mult: 1
  }
  param {
    lr_mult: 2
    decay_mult: 0
  }
  convolution_param {
    num_output: 96
    kernel_size: 11
    stride: 4
    weight_filler {
      type: "gaussian"
      std: 0.01
    }
    bias_filler {
      type: "constant"
      value: 0
    }
  }
}
layer {
  name: "relu1"
  type: "ReLU"
  bottom: "conv1"
  top: "conv1"
}
layer {
  name: "norm1"
  type: "LRN"
  bottom: "conv1"
  top: "norm1"
  lrn_param {
    local_size: 5
    alpha: 0.0001
    beta: 0.75
  }
}
layer {
  name: "pool1"
  type: "Pooling"
  bottom: "norm1"
  top: "pool1"
  pooling_param {
    pool: MAX
    kernel_size: 3
    stride: 2
  }
}
layer {
  name: "conv2"
  type: "Convolution"
  bottom: "pool1"
  top: "conv2"
  param {
    lr_mult: 1
    decay_mult: 1
  }
  param {
    lr_mult: 2
    decay_mult: 0
  }
  convolution_param {
    num_output: 256
    pad: 2
    kernel_size: 5
    group: 2
    weight_filler {
      type: "gaussian"
      std: 0.01
    }
    bias_filler {
      type: "constant"
      value: 0.1
    }
  }
}
layer {
  name: "relu2"
  type: "ReLU"
  bottom: "conv2"
  top: "conv2"
}
layer {
  name: "norm2"
  type: "LRN"
  bottom: "conv2"
  top: "norm2"
  lrn_param {
    local_size: 5
    alpha: 0.0001
    beta: 0.75
  }
}
layer {
  name: "pool2"
  type: "Pooling"
  bottom: "norm2"
  top: "pool2"
  pooling_param {
    pool: MAX
    kernel_size: 3
    stride: 2
  }
}
layer {
  name: "conv3"
  type: "Convolution"
  bottom: "pool2"
  top: "conv3"
  param {
    lr_mult: 1
    decay_mult: 1
  }
  param {
    lr_mult: 2
    decay_mult: 0
  }
  convolution_param {
    num_output: 384
    pad: 1
    kernel_size: 3
    weight_filler {
      type: "gaussian"
      std: 0.01
    }
    bias_filler {
      type: "constant"
      value: 0
    }
  }
}
layer {
  name: "relu3"
  type: "ReLU"
  bottom: "conv3"
  top: "conv3"
}
layer {
  name: "conv4"
  type: "Convolution"
  bottom: "conv3"
  top: "conv4"
  param {
    lr_mult: 1
    decay_mult: 1
  }
  param {
    lr_mult: 2
    decay_mult: 0
  }
  convolution_param {
    num_output: 384
    pad: 1
    kernel_size: 3
    group: 2
    weight_filler {
      type: "gaussian"
      std: 0.01
    }
    bias_filler {
      type: "constant"
      value: 0.1
    }
  }
}
layer {
  name: "relu4"
  type: "ReLU"
  bottom: "conv4"
  top: "conv4"
}
layer {
  name: "conv5"
  type: "Convolution"
  bottom: "conv4"
  top: "conv5"
  param {
    lr_mult: 1
    decay_mult: 1
  }
  param {
    lr_mult: 2
    decay_mult: 0
  }
  convolution_param {
    num_output: 256
    pad: 1
    kernel_size: 3
    group: 2
    weight_filler {
      type: "gaussian"
      std: 0.01
    }
    bias_filler {
      type: "constant"
      value: 0.1
    }
  }
}
layer {
  name: "relu5"
  type: "ReLU"
  bottom: "conv5"
  top: "conv5"
}
layer {
  name: "pool5"
  type: "Pooling"
  bottom: "conv5"
  top: "pool5"
  pooling_param {
    pool: MAX
    kernel_size: 3
    stride: 2
  }
}
layer {
  name: "fc6"
  type: "InnerProduct"
  bottom: "pool5"
  top: "fc6"
  param {
    lr_mult: 1
    decay_mult: 1
  }
  param {
    lr_mult: 2
    decay_mult: 0
  }
  inner_product_param {
    num_output: 4096
    weight_filler {
      type: "gaussian"
      std: 0.005
    }
    bias_filler {
      type: "constant"
      value: 0.1
    }
  }
}
layer {
  name: "relu6"
  type: "ReLU"
  bottom: "fc6"
  top: "fc6"
}
layer {
  name: "drop6"
  type: "Dropout"
  bottom: "fc6"
  top: "fc6"
  dropout_param {
    dropout_ratio: 0.5
  }
}
layer {
  name: "fc7"
  type: "InnerProduct"
  bottom: "fc6"
  top: "fc7"
  param {
    lr_mult: 1
    decay_mult: 1
  }
  param {
    lr_mult: 2
    decay_mult: 0
  }
  inner_product_param {
    num_output: 4096
    weight_filler {
      type: "gaussian"
      std: 0.005
    }
    bias_filler {
      type: "constant"
      value: 0.1
    }
  }
}
layer {
  name: "relu7"
  type: "ReLU"
  bottom: "fc7"
  top: "fc7"
}
layer {
  name: "drop7"
  type: "Dropout"
  bottom: "fc7"
  top: "fc7"
  dropout_param {
    dropout_ratio: 0.5
  }
}
layer {
  name: "fc8_plantvillage"
  type: "InnerProduct"
  bottom: "fc7"
  top: "fc8_plantvillage"
  param {
    lr_mult: 1
    decay_mult: 1
  }
  param {
    lr_mult: 2
    decay_mult: 0
  }
  inner_product_param {
    num_output: 38
    weight_filler {
      type: "gaussian"
      std: 0.01
    }
    bias_filler {
      type: "constant"
      value: 0
    }
  }
}
layer {
  name: "prob"
  type: "Softmax"
  bottom: "fc8_plantvillage"
  top: "prob"
  include {
    phase: TEST
  }
}
layer {
  name: "hdf5out"
  type: "HDF5Output"
  bottom: "prob"
  bottom: "label"
  include {
    phase: TEST
  }
  hdf5_output_param {
    file_name: "hdf5_dumps/iter_13085.h5"
  }
}
layer {
  name: "loss"
  type: "SoftmaxWithLoss"
  bottom: "fc8_plantvillage"
  bottom: "label"
  top: "loss"
}
layer {
  name: "accuracy"
  type: "Accuracy"
  bottom: "fc8_plantvillage"
  bottom: "label"
  top: "accuracy"
  include {
    phase: TEST
  }
}
I0403 13:36:01.733012 11694 layer_factory.hpp:77] Creating layer data
I0403 13:36:01.733680 11694 net.cpp:91] Creating Layer data
I0403 13:36:01.733722 11694 net.cpp:399] data -> data
I0403 13:36:01.733775 11694 net.cpp:399] data -> label
I0403 13:36:01.733813 11694 data_transformer.cpp:25] Loading mean file from: /home/mohanty/data/final_dataset/lmdb/grayscale-80-20/mean.binaryproto
I0403 13:36:01.736831 11697 db_lmdb.cpp:38] Opened lmdb /home/mohanty/data/final_dataset/lmdb/grayscale-80-20/test_db
I0403 13:36:01.748286 11694 data_layer.cpp:41] output data size: 100,3,227,227
I0403 13:36:01.870985 11694 net.cpp:141] Setting up data
I0403 13:36:01.871047 11694 net.cpp:148] Top shape: 100 3 227 227 (15458700)
I0403 13:36:01.871070 11694 net.cpp:148] Top shape: 100 (100)
I0403 13:36:01.871086 11694 net.cpp:156] Memory required for data: 61835200
I0403 13:36:01.871115 11694 layer_factory.hpp:77] Creating layer label_data_1_split
I0403 13:36:01.871140 11694 net.cpp:91] Creating Layer label_data_1_split
I0403 13:36:01.871158 11694 net.cpp:425] label_data_1_split <- label
I0403 13:36:01.871191 11694 net.cpp:399] label_data_1_split -> label_data_1_split_0
I0403 13:36:01.871218 11694 net.cpp:399] label_data_1_split -> label_data_1_split_1
I0403 13:36:01.871239 11694 net.cpp:399] label_data_1_split -> label_data_1_split_2
I0403 13:36:01.871302 11694 net.cpp:141] Setting up label_data_1_split
I0403 13:36:01.871327 11694 net.cpp:148] Top shape: 100 (100)
I0403 13:36:01.871345 11694 net.cpp:148] Top shape: 100 (100)
I0403 13:36:01.871361 11694 net.cpp:148] Top shape: 100 (100)
I0403 13:36:01.871374 11694 net.cpp:156] Memory required for data: 61836400
I0403 13:36:01.871389 11694 layer_factory.hpp:77] Creating layer conv1
I0403 13:36:01.871422 11694 net.cpp:91] Creating Layer conv1
I0403 13:36:01.871440 11694 net.cpp:425] conv1 <- data
I0403 13:36:01.871460 11694 net.cpp:399] conv1 -> conv1
I0403 13:36:02.013036 11694 net.cpp:141] Setting up conv1
I0403 13:36:02.013113 11694 net.cpp:148] Top shape: 100 96 55 55 (29040000)
I0403 13:36:02.013131 11694 net.cpp:156] Memory required for data: 177996400
I0403 13:36:02.013162 11694 layer_factory.hpp:77] Creating layer relu1
I0403 13:36:02.013190 11694 net.cpp:91] Creating Layer relu1
I0403 13:36:02.013208 11694 net.cpp:425] relu1 <- conv1
I0403 13:36:02.013227 11694 net.cpp:386] relu1 -> conv1 (in-place)
I0403 13:36:02.013484 11694 net.cpp:141] Setting up relu1
I0403 13:36:02.013512 11694 net.cpp:148] Top shape: 100 96 55 55 (29040000)
I0403 13:36:02.013567 11694 net.cpp:156] Memory required for data: 294156400
I0403 13:36:02.013583 11694 layer_factory.hpp:77] Creating layer norm1
I0403 13:36:02.013614 11694 net.cpp:91] Creating Layer norm1
I0403 13:36:02.013633 11694 net.cpp:425] norm1 <- conv1
I0403 13:36:02.013651 11694 net.cpp:399] norm1 -> norm1
I0403 13:36:02.013958 11694 net.cpp:141] Setting up norm1
I0403 13:36:02.013986 11694 net.cpp:148] Top shape: 100 96 55 55 (29040000)
I0403 13:36:02.014003 11694 net.cpp:156] Memory required for data: 410316400
I0403 13:36:02.014017 11694 layer_factory.hpp:77] Creating layer pool1
I0403 13:36:02.014040 11694 net.cpp:91] Creating Layer pool1
I0403 13:36:02.014057 11694 net.cpp:425] pool1 <- norm1
I0403 13:36:02.014075 11694 net.cpp:399] pool1 -> pool1
I0403 13:36:02.014142 11694 net.cpp:141] Setting up pool1
I0403 13:36:02.014165 11694 net.cpp:148] Top shape: 100 96 27 27 (6998400)
I0403 13:36:02.014180 11694 net.cpp:156] Memory required for data: 438310000
I0403 13:36:02.014194 11694 layer_factory.hpp:77] Creating layer conv2
I0403 13:36:02.014219 11694 net.cpp:91] Creating Layer conv2
I0403 13:36:02.014235 11694 net.cpp:425] conv2 <- pool1
I0403 13:36:02.014253 11694 net.cpp:399] conv2 -> conv2
I0403 13:36:02.029304 11694 net.cpp:141] Setting up conv2
I0403 13:36:02.029343 11694 net.cpp:148] Top shape: 100 256 27 27 (18662400)
I0403 13:36:02.029361 11694 net.cpp:156] Memory required for data: 512959600
I0403 13:36:02.029383 11694 layer_factory.hpp:77] Creating layer relu2
I0403 13:36:02.029402 11694 net.cpp:91] Creating Layer relu2
I0403 13:36:02.029420 11694 net.cpp:425] relu2 <- conv2
I0403 13:36:02.029438 11694 net.cpp:386] relu2 -> conv2 (in-place)
I0403 13:36:02.029714 11694 net.cpp:141] Setting up relu2
I0403 13:36:02.029742 11694 net.cpp:148] Top shape: 100 256 27 27 (18662400)
I0403 13:36:02.029758 11694 net.cpp:156] Memory required for data: 587609200
I0403 13:36:02.029773 11694 layer_factory.hpp:77] Creating layer norm2
I0403 13:36:02.029794 11694 net.cpp:91] Creating Layer norm2
I0403 13:36:02.029811 11694 net.cpp:425] norm2 <- conv2
I0403 13:36:02.029829 11694 net.cpp:399] norm2 -> norm2
I0403 13:36:02.030017 11694 net.cpp:141] Setting up norm2
I0403 13:36:02.030043 11694 net.cpp:148] Top shape: 100 256 27 27 (18662400)
I0403 13:36:02.030060 11694 net.cpp:156] Memory required for data: 662258800
I0403 13:36:02.030076 11694 layer_factory.hpp:77] Creating layer pool2
I0403 13:36:02.030094 11694 net.cpp:91] Creating Layer pool2
I0403 13:36:02.030110 11694 net.cpp:425] pool2 <- norm2
I0403 13:36:02.030128 11694 net.cpp:399] pool2 -> pool2
I0403 13:36:02.030179 11694 net.cpp:141] Setting up pool2
I0403 13:36:02.030202 11694 net.cpp:148] Top shape: 100 256 13 13 (4326400)
I0403 13:36:02.030218 11694 net.cpp:156] Memory required for data: 679564400
I0403 13:36:02.030233 11694 layer_factory.hpp:77] Creating layer conv3
I0403 13:36:02.030254 11694 net.cpp:91] Creating Layer conv3
I0403 13:36:02.030272 11694 net.cpp:425] conv3 <- pool2
I0403 13:36:02.030290 11694 net.cpp:399] conv3 -> conv3
I0403 13:36:02.069782 11694 net.cpp:141] Setting up conv3
I0403 13:36:02.069880 11694 net.cpp:148] Top shape: 100 384 13 13 (6489600)
I0403 13:36:02.069897 11694 net.cpp:156] Memory required for data: 705522800
I0403 13:36:02.069923 11694 layer_factory.hpp:77] Creating layer relu3
I0403 13:36:02.069946 11694 net.cpp:91] Creating Layer relu3
I0403 13:36:02.069963 11694 net.cpp:425] relu3 <- conv3
I0403 13:36:02.069983 11694 net.cpp:386] relu3 -> conv3 (in-place)
I0403 13:36:02.070268 11694 net.cpp:141] Setting up relu3
I0403 13:36:02.070299 11694 net.cpp:148] Top shape: 100 384 13 13 (6489600)
I0403 13:36:02.070317 11694 net.cpp:156] Memory required for data: 731481200
I0403 13:36:02.070332 11694 layer_factory.hpp:77] Creating layer conv4
I0403 13:36:02.070358 11694 net.cpp:91] Creating Layer conv4
I0403 13:36:02.070374 11694 net.cpp:425] conv4 <- conv3
I0403 13:36:02.070394 11694 net.cpp:399] conv4 -> conv4
I0403 13:36:02.100091 11694 net.cpp:141] Setting up conv4
I0403 13:36:02.100133 11694 net.cpp:148] Top shape: 100 384 13 13 (6489600)
I0403 13:36:02.100188 11694 net.cpp:156] Memory required for data: 757439600
I0403 13:36:02.100208 11694 layer_factory.hpp:77] Creating layer relu4
I0403 13:36:02.100231 11694 net.cpp:91] Creating Layer relu4
I0403 13:36:02.100250 11694 net.cpp:425] relu4 <- conv4
I0403 13:36:02.100270 11694 net.cpp:386] relu4 -> conv4 (in-place)
I0403 13:36:02.100556 11694 net.cpp:141] Setting up relu4
I0403 13:36:02.100584 11694 net.cpp:148] Top shape: 100 384 13 13 (6489600)
I0403 13:36:02.100602 11694 net.cpp:156] Memory required for data: 783398000
I0403 13:36:02.100620 11694 layer_factory.hpp:77] Creating layer conv5
I0403 13:36:02.100643 11694 net.cpp:91] Creating Layer conv5
I0403 13:36:02.100661 11694 net.cpp:425] conv5 <- conv4
I0403 13:36:02.100682 11694 net.cpp:399] conv5 -> conv5
I0403 13:36:02.121450 11694 net.cpp:141] Setting up conv5
I0403 13:36:02.121490 11694 net.cpp:148] Top shape: 100 256 13 13 (4326400)
I0403 13:36:02.121507 11694 net.cpp:156] Memory required for data: 800703600
I0403 13:36:02.121534 11694 layer_factory.hpp:77] Creating layer relu5
I0403 13:36:02.121562 11694 net.cpp:91] Creating Layer relu5
I0403 13:36:02.121582 11694 net.cpp:425] relu5 <- conv5
I0403 13:36:02.121608 11694 net.cpp:386] relu5 -> conv5 (in-place)
I0403 13:36:02.121901 11694 net.cpp:141] Setting up relu5
I0403 13:36:02.121933 11694 net.cpp:148] Top shape: 100 256 13 13 (4326400)
I0403 13:36:02.121951 11694 net.cpp:156] Memory required for data: 818009200
I0403 13:36:02.121968 11694 layer_factory.hpp:77] Creating layer pool5
I0403 13:36:02.121989 11694 net.cpp:91] Creating Layer pool5
I0403 13:36:02.122007 11694 net.cpp:425] pool5 <- conv5
I0403 13:36:02.122028 11694 net.cpp:399] pool5 -> pool5
I0403 13:36:02.122090 11694 net.cpp:141] Setting up pool5
I0403 13:36:02.122117 11694 net.cpp:148] Top shape: 100 256 6 6 (921600)
I0403 13:36:02.122133 11694 net.cpp:156] Memory required for data: 821695600
I0403 13:36:02.122148 11694 layer_factory.hpp:77] Creating layer fc6
I0403 13:36:02.122175 11694 net.cpp:91] Creating Layer fc6
I0403 13:36:02.122194 11694 net.cpp:425] fc6 <- pool5
I0403 13:36:02.122217 11694 net.cpp:399] fc6 -> fc6
I0403 13:36:03.673578 11694 net.cpp:141] Setting up fc6
I0403 13:36:03.673645 11694 net.cpp:148] Top shape: 100 4096 (409600)
I0403 13:36:03.673662 11694 net.cpp:156] Memory required for data: 823334000
I0403 13:36:03.673683 11694 layer_factory.hpp:77] Creating layer relu6
I0403 13:36:03.673708 11694 net.cpp:91] Creating Layer relu6
I0403 13:36:03.673725 11694 net.cpp:425] relu6 <- fc6
I0403 13:36:03.673744 11694 net.cpp:386] relu6 -> fc6 (in-place)
I0403 13:36:03.673962 11694 net.cpp:141] Setting up relu6
I0403 13:36:03.673986 11694 net.cpp:148] Top shape: 100 4096 (409600)
I0403 13:36:03.674001 11694 net.cpp:156] Memory required for data: 824972400
I0403 13:36:03.674015 11694 layer_factory.hpp:77] Creating layer drop6
I0403 13:36:03.674036 11694 net.cpp:91] Creating Layer drop6
I0403 13:36:03.674052 11694 net.cpp:425] drop6 <- fc6
I0403 13:36:03.674068 11694 net.cpp:386] drop6 -> fc6 (in-place)
I0403 13:36:03.674121 11694 net.cpp:141] Setting up drop6
I0403 13:36:03.674144 11694 net.cpp:148] Top shape: 100 4096 (409600)
I0403 13:36:03.674157 11694 net.cpp:156] Memory required for data: 826610800
I0403 13:36:03.674171 11694 layer_factory.hpp:77] Creating layer fc7
I0403 13:36:03.674192 11694 net.cpp:91] Creating Layer fc7
I0403 13:36:03.674209 11694 net.cpp:425] fc7 <- fc6
I0403 13:36:03.674226 11694 net.cpp:399] fc7 -> fc7
I0403 13:36:04.351788 11694 net.cpp:141] Setting up fc7
I0403 13:36:04.351832 11694 net.cpp:148] Top shape: 100 4096 (409600)
I0403 13:36:04.351850 11694 net.cpp:156] Memory required for data: 828249200
I0403 13:36:04.351871 11694 layer_factory.hpp:77] Creating layer relu7
I0403 13:36:04.351893 11694 net.cpp:91] Creating Layer relu7
I0403 13:36:04.351910 11694 net.cpp:425] relu7 <- fc7
I0403 13:36:04.351929 11694 net.cpp:386] relu7 -> fc7 (in-place)
I0403 13:36:04.352336 11694 net.cpp:141] Setting up relu7
I0403 13:36:04.352365 11694 net.cpp:148] Top shape: 100 4096 (409600)
I0403 13:36:04.352398 11694 net.cpp:156] Memory required for data: 829887600
I0403 13:36:04.352416 11694 layer_factory.hpp:77] Creating layer drop7
I0403 13:36:04.352434 11694 net.cpp:91] Creating Layer drop7
I0403 13:36:04.352449 11694 net.cpp:425] drop7 <- fc7
I0403 13:36:04.352465 11694 net.cpp:386] drop7 -> fc7 (in-place)
I0403 13:36:04.352510 11694 net.cpp:141] Setting up drop7
I0403 13:36:04.352533 11694 net.cpp:148] Top shape: 100 4096 (409600)
I0403 13:36:04.352548 11694 net.cpp:156] Memory required for data: 831526000
I0403 13:36:04.352562 11694 layer_factory.hpp:77] Creating layer fc8_plantvillage
I0403 13:36:04.352583 11694 net.cpp:91] Creating Layer fc8_plantvillage
I0403 13:36:04.352604 11694 net.cpp:425] fc8_plantvillage <- fc7
I0403 13:36:04.352624 11694 net.cpp:399] fc8_plantvillage -> fc8_plantvillage
I0403 13:36:04.359333 11694 net.cpp:141] Setting up fc8_plantvillage
I0403 13:36:04.359361 11694 net.cpp:148] Top shape: 100 38 (3800)
I0403 13:36:04.359377 11694 net.cpp:156] Memory required for data: 831541200
I0403 13:36:04.359395 11694 layer_factory.hpp:77] Creating layer fc8_plantvillage_fc8_plantvillage_0_split
I0403 13:36:04.359416 11694 net.cpp:91] Creating Layer fc8_plantvillage_fc8_plantvillage_0_split
I0403 13:36:04.359432 11694 net.cpp:425] fc8_plantvillage_fc8_plantvillage_0_split <- fc8_plantvillage
I0403 13:36:04.359452 11694 net.cpp:399] fc8_plantvillage_fc8_plantvillage_0_split -> fc8_plantvillage_fc8_plantvillage_0_split_0
I0403 13:36:04.359473 11694 net.cpp:399] fc8_plantvillage_fc8_plantvillage_0_split -> fc8_plantvillage_fc8_plantvillage_0_split_1
I0403 13:36:04.359493 11694 net.cpp:399] fc8_plantvillage_fc8_plantvillage_0_split -> fc8_plantvillage_fc8_plantvillage_0_split_2
I0403 13:36:04.359575 11694 net.cpp:141] Setting up fc8_plantvillage_fc8_plantvillage_0_split
I0403 13:36:04.359602 11694 net.cpp:148] Top shape: 100 38 (3800)
I0403 13:36:04.359621 11694 net.cpp:148] Top shape: 100 38 (3800)
I0403 13:36:04.359635 11694 net.cpp:148] Top shape: 100 38 (3800)
I0403 13:36:04.359649 11694 net.cpp:156] Memory required for data: 831586800
I0403 13:36:04.359663 11694 layer_factory.hpp:77] Creating layer prob
I0403 13:36:04.359683 11694 net.cpp:91] Creating Layer prob
I0403 13:36:04.359700 11694 net.cpp:425] prob <- fc8_plantvillage_fc8_plantvillage_0_split_0
I0403 13:36:04.359719 11694 net.cpp:399] prob -> prob
I0403 13:36:04.359941 11694 net.cpp:141] Setting up prob
I0403 13:36:04.359966 11694 net.cpp:148] Top shape: 100 38 (3800)
I0403 13:36:04.359984 11694 net.cpp:156] Memory required for data: 831602000
I0403 13:36:04.359999 11694 layer_factory.hpp:77] Creating layer hdf5out
I0403 13:36:04.360016 11694 net.cpp:91] Creating Layer hdf5out
I0403 13:36:04.360033 11694 net.cpp:425] hdf5out <- prob
I0403 13:36:04.360047 11694 net.cpp:425] hdf5out <- label_data_1_split_0
I0403 13:36:04.362488 11694 net.cpp:141] Setting up hdf5out
…
