…
I0403 13:25:56.931074 11234 net.cpp:313] The NetState phase (1) differed from the phase (0) specified by a rule in layer data
I0403 13:25:56.931375 11234 net.cpp:49] Initializing net from parameters: 
state {
  phase: TEST
}
layer {
  name: "data"
  type: "Data"
  top: "data"
  top: "label"
  include {
    phase: TEST
  }
  transform_param {
    crop_size: 227
    mean_file: "/home/mohanty/data/final_dataset/lmdb/grayscale-80-20/mean.binaryproto"
  }
  data_param {
    source: "/home/mohanty/data/final_dataset/lmdb/grayscale-80-20/test_db"
    batch_size: 100
    backend: LMDB
  }
}
layer {
  name: "conv1"
  type: "Convolution"
  bottom: "data"
  top: "conv1"
  param {
    lr_mult: 1
    decay_mult: 1
  }
  param {
    lr_mult: 2
    decay_mult: 0
  }
  convolution_param {
    num_output: 96
    kernel_size: 11
    stride: 4
    weight_filler {
      type: "gaussian"
      std: 0.01
    }
    bias_filler {
      type: "constant"
      value: 0
    }
  }
}
layer {
  name: "relu1"
  type: "ReLU"
  bottom: "conv1"
  top: "conv1"
}
layer {
  name: "norm1"
  type: "LRN"
  bottom: "conv1"
  top: "norm1"
  lrn_param {
    local_size: 5
    alpha: 0.0001
    beta: 0.75
  }
}
layer {
  name: "pool1"
  type: "Pooling"
  bottom: "norm1"
  top: "pool1"
  pooling_param {
    pool: MAX
    kernel_size: 3
    stride: 2
  }
}
layer {
  name: "conv2"
  type: "Convolution"
  bottom: "pool1"
  top: "conv2"
  param {
    lr_mult: 1
    decay_mult: 1
  }
  param {
    lr_mult: 2
    decay_mult: 0
  }
  convolution_param {
    num_output: 256
    pad: 2
    kernel_size: 5
    group: 2
    weight_filler {
      type: "gaussian"
      std: 0.01
    }
    bias_filler {
      type: "constant"
      value: 0.1
    }
  }
}
layer {
  name: "relu2"
  type: "ReLU"
  bottom: "conv2"
  top: "conv2"
}
layer {
  name: "norm2"
  type: "LRN"
  bottom: "conv2"
  top: "norm2"
  lrn_param {
    local_size: 5
    alpha: 0.0001
    beta: 0.75
  }
}
layer {
  name: "pool2"
  type: "Pooling"
  bottom: "norm2"
  top: "pool2"
  pooling_param {
    pool: MAX
    kernel_size: 3
    stride: 2
  }
}
layer {
  name: "conv3"
  type: "Convolution"
  bottom: "pool2"
  top: "conv3"
  param {
    lr_mult: 1
    decay_mult: 1
  }
  param {
    lr_mult: 2
    decay_mult: 0
  }
  convolution_param {
    num_output: 384
    pad: 1
    kernel_size: 3
    weight_filler {
      type: "gaussian"
      std: 0.01
    }
    bias_filler {
      type: "constant"
      value: 0
    }
  }
}
layer {
  name: "relu3"
  type: "ReLU"
  bottom: "conv3"
  top: "conv3"
}
layer {
  name: "conv4"
  type: "Convolution"
  bottom: "conv3"
  top: "conv4"
  param {
    lr_mult: 1
    decay_mult: 1
  }
  param {
    lr_mult: 2
    decay_mult: 0
  }
  convolution_param {
    num_output: 384
    pad: 1
    kernel_size: 3
    group: 2
    weight_filler {
      type: "gaussian"
      std: 0.01
    }
    bias_filler {
      type: "constant"
      value: 0.1
    }
  }
}
layer {
  name: "relu4"
  type: "ReLU"
  bottom: "conv4"
  top: "conv4"
}
layer {
  name: "conv5"
  type: "Convolution"
  bottom: "conv4"
  top: "conv5"
  param {
    lr_mult: 1
    decay_mult: 1
  }
  param {
    lr_mult: 2
    decay_mult: 0
  }
  convolution_param {
    num_output: 256
    pad: 1
    kernel_size: 3
    group: 2
    weight_filler {
      type: "gaussian"
      std: 0.01
    }
    bias_filler {
      type: "constant"
      value: 0.1
    }
  }
}
layer {
  name: "relu5"
  type: "ReLU"
  bottom: "conv5"
  top: "conv5"
}
layer {
  name: "pool5"
  type: "Pooling"
  bottom: "conv5"
  top: "pool5"
  pooling_param {
    pool: MAX
    kernel_size: 3
    stride: 2
  }
}
layer {
  name: "fc6"
  type: "InnerProduct"
  bottom: "pool5"
  top: "fc6"
  param {
    lr_mult: 1
    decay_mult: 1
  }
  param {
    lr_mult: 2
    decay_mult: 0
  }
  inner_product_param {
    num_output: 4096
    weight_filler {
      type: "gaussian"
      std: 0.005
    }
    bias_filler {
      type: "constant"
      value: 0.1
    }
  }
}
layer {
  name: "relu6"
  type: "ReLU"
  bottom: "fc6"
  top: "fc6"
}
layer {
  name: "drop6"
  type: "Dropout"
  bottom: "fc6"
  top: "fc6"
  dropout_param {
    dropout_ratio: 0.5
  }
}
layer {
  name: "fc7"
  type: "InnerProduct"
  bottom: "fc6"
  top: "fc7"
  param {
    lr_mult: 1
    decay_mult: 1
  }
  param {
    lr_mult: 2
    decay_mult: 0
  }
  inner_product_param {
    num_output: 4096
    weight_filler {
      type: "gaussian"
      std: 0.005
    }
    bias_filler {
      type: "constant"
      value: 0.1
    }
  }
}
layer {
  name: "relu7"
  type: "ReLU"
  bottom: "fc7"
  top: "fc7"
}
layer {
  name: "drop7"
  type: "Dropout"
  bottom: "fc7"
  top: "fc7"
  dropout_param {
    dropout_ratio: 0.5
  }
}
layer {
  name: "fc8_plantvillage"
  type: "InnerProduct"
  bottom: "fc7"
  top: "fc8_plantvillage"
  param {
    lr_mult: 1
    decay_mult: 1
  }
  param {
    lr_mult: 2
    decay_mult: 0
  }
  inner_product_param {
    num_output: 38
    weight_filler {
      type: "gaussian"
      std: 0.01
    }
    bias_filler {
      type: "constant"
      value: 0
    }
  }
}
layer {
  name: "prob"
  type: "Softmax"
  bottom: "fc8_plantvillage"
  top: "prob"
  include {
    phase: TEST
  }
}
layer {
  name: "hdf5out"
  type: "HDF5Output"
  bottom: "prob"
  bottom: "label"
  include {
    phase: TEST
  }
  hdf5_output_param {
    file_name: "hdf5_dumps/iter_3052.h5"
  }
}
layer {
  name: "loss"
  type: "SoftmaxWithLoss"
  bottom: "fc8_plantvillage"
  bottom: "label"
  top: "loss"
}
layer {
  name: "accuracy"
  type: "Accuracy"
  bottom: "fc8_plantvillage"
  bottom: "label"
  top: "accuracy"
  include {
    phase: TEST
  }
}
I0403 13:25:56.931957 11234 layer_factory.hpp:77] Creating layer data
I0403 13:25:56.932593 11234 net.cpp:91] Creating Layer data
I0403 13:25:56.932629 11234 net.cpp:399] data -> data
I0403 13:25:56.932679 11234 net.cpp:399] data -> label
I0403 13:25:56.932715 11234 data_transformer.cpp:25] Loading mean file from: /home/mohanty/data/final_dataset/lmdb/grayscale-80-20/mean.binaryproto
I0403 13:25:56.935515 11236 db_lmdb.cpp:38] Opened lmdb /home/mohanty/data/final_dataset/lmdb/grayscale-80-20/test_db
I0403 13:25:56.946467 11234 data_layer.cpp:41] output data size: 100,3,227,227
I0403 13:25:57.059928 11234 net.cpp:141] Setting up data
I0403 13:25:57.060017 11234 net.cpp:148] Top shape: 100 3 227 227 (15458700)
I0403 13:25:57.060040 11234 net.cpp:148] Top shape: 100 (100)
I0403 13:25:57.060055 11234 net.cpp:156] Memory required for data: 61835200
I0403 13:25:57.060082 11234 layer_factory.hpp:77] Creating layer label_data_1_split
I0403 13:25:57.060107 11234 net.cpp:91] Creating Layer label_data_1_split
I0403 13:25:57.060124 11234 net.cpp:425] label_data_1_split <- label
I0403 13:25:57.060158 11234 net.cpp:399] label_data_1_split -> label_data_1_split_0
I0403 13:25:57.060184 11234 net.cpp:399] label_data_1_split -> label_data_1_split_1
I0403 13:25:57.060204 11234 net.cpp:399] label_data_1_split -> label_data_1_split_2
I0403 13:25:57.060264 11234 net.cpp:141] Setting up label_data_1_split
I0403 13:25:57.060286 11234 net.cpp:148] Top shape: 100 (100)
I0403 13:25:57.060302 11234 net.cpp:148] Top shape: 100 (100)
I0403 13:25:57.060317 11234 net.cpp:148] Top shape: 100 (100)
I0403 13:25:57.060331 11234 net.cpp:156] Memory required for data: 61836400
I0403 13:25:57.060345 11234 layer_factory.hpp:77] Creating layer conv1
I0403 13:25:57.060375 11234 net.cpp:91] Creating Layer conv1
I0403 13:25:57.060394 11234 net.cpp:425] conv1 <- data
I0403 13:25:57.060411 11234 net.cpp:399] conv1 -> conv1
I0403 13:25:57.197106 11234 net.cpp:141] Setting up conv1
I0403 13:25:57.197221 11234 net.cpp:148] Top shape: 100 96 55 55 (29040000)
I0403 13:25:57.197268 11234 net.cpp:156] Memory required for data: 177996400
I0403 13:25:57.197300 11234 layer_factory.hpp:77] Creating layer relu1
I0403 13:25:57.197326 11234 net.cpp:91] Creating Layer relu1
I0403 13:25:57.197345 11234 net.cpp:425] relu1 <- conv1
I0403 13:25:57.197365 11234 net.cpp:386] relu1 -> conv1 (in-place)
I0403 13:25:57.197641 11234 net.cpp:141] Setting up relu1
I0403 13:25:57.197669 11234 net.cpp:148] Top shape: 100 96 55 55 (29040000)
I0403 13:25:57.197717 11234 net.cpp:156] Memory required for data: 294156400
I0403 13:25:57.197733 11234 layer_factory.hpp:77] Creating layer norm1
I0403 13:25:57.197762 11234 net.cpp:91] Creating Layer norm1
I0403 13:25:57.197779 11234 net.cpp:425] norm1 <- conv1
I0403 13:25:57.197798 11234 net.cpp:399] norm1 -> norm1
I0403 13:25:57.198117 11234 net.cpp:141] Setting up norm1
I0403 13:25:57.198143 11234 net.cpp:148] Top shape: 100 96 55 55 (29040000)
I0403 13:25:57.198159 11234 net.cpp:156] Memory required for data: 410316400
I0403 13:25:57.198174 11234 layer_factory.hpp:77] Creating layer pool1
I0403 13:25:57.198199 11234 net.cpp:91] Creating Layer pool1
I0403 13:25:57.198215 11234 net.cpp:425] pool1 <- norm1
I0403 13:25:57.198233 11234 net.cpp:399] pool1 -> pool1
I0403 13:25:57.198304 11234 net.cpp:141] Setting up pool1
I0403 13:25:57.198328 11234 net.cpp:148] Top shape: 100 96 27 27 (6998400)
I0403 13:25:57.198343 11234 net.cpp:156] Memory required for data: 438310000
I0403 13:25:57.198359 11234 layer_factory.hpp:77] Creating layer conv2
I0403 13:25:57.198384 11234 net.cpp:91] Creating Layer conv2
I0403 13:25:57.198400 11234 net.cpp:425] conv2 <- pool1
I0403 13:25:57.198421 11234 net.cpp:399] conv2 -> conv2
I0403 13:25:57.213318 11234 net.cpp:141] Setting up conv2
I0403 13:25:57.213352 11234 net.cpp:148] Top shape: 100 256 27 27 (18662400)
I0403 13:25:57.213368 11234 net.cpp:156] Memory required for data: 512959600
I0403 13:25:57.213389 11234 layer_factory.hpp:77] Creating layer relu2
I0403 13:25:57.213412 11234 net.cpp:91] Creating Layer relu2
I0403 13:25:57.213428 11234 net.cpp:425] relu2 <- conv2
I0403 13:25:57.213446 11234 net.cpp:386] relu2 -> conv2 (in-place)
I0403 13:25:57.213723 11234 net.cpp:141] Setting up relu2
I0403 13:25:57.213750 11234 net.cpp:148] Top shape: 100 256 27 27 (18662400)
I0403 13:25:57.213765 11234 net.cpp:156] Memory required for data: 587609200
I0403 13:25:57.213780 11234 layer_factory.hpp:77] Creating layer norm2
I0403 13:25:57.213801 11234 net.cpp:91] Creating Layer norm2
I0403 13:25:57.213819 11234 net.cpp:425] norm2 <- conv2
I0403 13:25:57.213838 11234 net.cpp:399] norm2 -> norm2
I0403 13:25:57.214031 11234 net.cpp:141] Setting up norm2
I0403 13:25:57.214057 11234 net.cpp:148] Top shape: 100 256 27 27 (18662400)
I0403 13:25:57.214072 11234 net.cpp:156] Memory required for data: 662258800
I0403 13:25:57.214087 11234 layer_factory.hpp:77] Creating layer pool2
I0403 13:25:57.214107 11234 net.cpp:91] Creating Layer pool2
I0403 13:25:57.214123 11234 net.cpp:425] pool2 <- norm2
I0403 13:25:57.214140 11234 net.cpp:399] pool2 -> pool2
I0403 13:25:57.214191 11234 net.cpp:141] Setting up pool2
I0403 13:25:57.214215 11234 net.cpp:148] Top shape: 100 256 13 13 (4326400)
I0403 13:25:57.214228 11234 net.cpp:156] Memory required for data: 679564400
I0403 13:25:57.214242 11234 layer_factory.hpp:77] Creating layer conv3
I0403 13:25:57.214264 11234 net.cpp:91] Creating Layer conv3
I0403 13:25:57.214282 11234 net.cpp:425] conv3 <- pool2
I0403 13:25:57.214300 11234 net.cpp:399] conv3 -> conv3
I0403 13:25:57.252171 11234 net.cpp:141] Setting up conv3
I0403 13:25:57.252230 11234 net.cpp:148] Top shape: 100 384 13 13 (6489600)
I0403 13:25:57.252246 11234 net.cpp:156] Memory required for data: 705522800
I0403 13:25:57.252274 11234 layer_factory.hpp:77] Creating layer relu3
I0403 13:25:57.252295 11234 net.cpp:91] Creating Layer relu3
I0403 13:25:57.252311 11234 net.cpp:425] relu3 <- conv3
I0403 13:25:57.252332 11234 net.cpp:386] relu3 -> conv3 (in-place)
I0403 13:25:57.252619 11234 net.cpp:141] Setting up relu3
I0403 13:25:57.252645 11234 net.cpp:148] Top shape: 100 384 13 13 (6489600)
I0403 13:25:57.252661 11234 net.cpp:156] Memory required for data: 731481200
I0403 13:25:57.252676 11234 layer_factory.hpp:77] Creating layer conv4
I0403 13:25:57.252699 11234 net.cpp:91] Creating Layer conv4
I0403 13:25:57.252715 11234 net.cpp:425] conv4 <- conv3
I0403 13:25:57.252735 11234 net.cpp:399] conv4 -> conv4
I0403 13:25:57.281999 11234 net.cpp:141] Setting up conv4
I0403 13:25:57.282044 11234 net.cpp:148] Top shape: 100 384 13 13 (6489600)
I0403 13:25:57.282095 11234 net.cpp:156] Memory required for data: 757439600
I0403 13:25:57.282115 11234 layer_factory.hpp:77] Creating layer relu4
I0403 13:25:57.282137 11234 net.cpp:91] Creating Layer relu4
I0403 13:25:57.282155 11234 net.cpp:425] relu4 <- conv4
I0403 13:25:57.282172 11234 net.cpp:386] relu4 -> conv4 (in-place)
I0403 13:25:57.282445 11234 net.cpp:141] Setting up relu4
I0403 13:25:57.282471 11234 net.cpp:148] Top shape: 100 384 13 13 (6489600)
I0403 13:25:57.282487 11234 net.cpp:156] Memory required for data: 783398000
I0403 13:25:57.282502 11234 layer_factory.hpp:77] Creating layer conv5
I0403 13:25:57.282526 11234 net.cpp:91] Creating Layer conv5
I0403 13:25:57.282543 11234 net.cpp:425] conv5 <- conv4
I0403 13:25:57.282563 11234 net.cpp:399] conv5 -> conv5
I0403 13:25:57.302850 11234 net.cpp:141] Setting up conv5
I0403 13:25:57.302886 11234 net.cpp:148] Top shape: 100 256 13 13 (4326400)
I0403 13:25:57.302902 11234 net.cpp:156] Memory required for data: 800703600
I0403 13:25:57.302925 11234 layer_factory.hpp:77] Creating layer relu5
I0403 13:25:57.302949 11234 net.cpp:91] Creating Layer relu5
I0403 13:25:57.302966 11234 net.cpp:425] relu5 <- conv5
I0403 13:25:57.302984 11234 net.cpp:386] relu5 -> conv5 (in-place)
I0403 13:25:57.303258 11234 net.cpp:141] Setting up relu5
I0403 13:25:57.303285 11234 net.cpp:148] Top shape: 100 256 13 13 (4326400)
I0403 13:25:57.303300 11234 net.cpp:156] Memory required for data: 818009200
I0403 13:25:57.303315 11234 layer_factory.hpp:77] Creating layer pool5
I0403 13:25:57.303339 11234 net.cpp:91] Creating Layer pool5
I0403 13:25:57.303356 11234 net.cpp:425] pool5 <- conv5
I0403 13:25:57.303377 11234 net.cpp:399] pool5 -> pool5
I0403 13:25:57.303436 11234 net.cpp:141] Setting up pool5
I0403 13:25:57.303459 11234 net.cpp:148] Top shape: 100 256 6 6 (921600)
I0403 13:25:57.303473 11234 net.cpp:156] Memory required for data: 821695600
I0403 13:25:57.303488 11234 layer_factory.hpp:77] Creating layer fc6
I0403 13:25:57.303515 11234 net.cpp:91] Creating Layer fc6
I0403 13:25:57.303534 11234 net.cpp:425] fc6 <- pool5
I0403 13:25:57.303551 11234 net.cpp:399] fc6 -> fc6
I0403 13:25:58.889461 11234 net.cpp:141] Setting up fc6
I0403 13:25:58.889520 11234 net.cpp:148] Top shape: 100 4096 (409600)
I0403 13:25:58.889536 11234 net.cpp:156] Memory required for data: 823334000
I0403 13:25:58.889556 11234 layer_factory.hpp:77] Creating layer relu6
I0403 13:25:58.889580 11234 net.cpp:91] Creating Layer relu6
I0403 13:25:58.889595 11234 net.cpp:425] relu6 <- fc6
I0403 13:25:58.889622 11234 net.cpp:386] relu6 -> fc6 (in-place)
I0403 13:25:58.889856 11234 net.cpp:141] Setting up relu6
I0403 13:25:58.889880 11234 net.cpp:148] Top shape: 100 4096 (409600)
I0403 13:25:58.889895 11234 net.cpp:156] Memory required for data: 824972400
I0403 13:25:58.889920 11234 layer_factory.hpp:77] Creating layer drop6
I0403 13:25:58.889941 11234 net.cpp:91] Creating Layer drop6
I0403 13:25:58.889960 11234 net.cpp:425] drop6 <- fc6
I0403 13:25:58.889976 11234 net.cpp:386] drop6 -> fc6 (in-place)
I0403 13:25:58.890030 11234 net.cpp:141] Setting up drop6
I0403 13:25:58.890053 11234 net.cpp:148] Top shape: 100 4096 (409600)
I0403 13:25:58.890069 11234 net.cpp:156] Memory required for data: 826610800
I0403 13:25:58.890082 11234 layer_factory.hpp:77] Creating layer fc7
I0403 13:25:58.890110 11234 net.cpp:91] Creating Layer fc7
I0403 13:25:58.890125 11234 net.cpp:425] fc7 <- fc6
I0403 13:25:58.890143 11234 net.cpp:399] fc7 -> fc7
I0403 13:25:59.573158 11234 net.cpp:141] Setting up fc7
I0403 13:25:59.573236 11234 net.cpp:148] Top shape: 100 4096 (409600)
I0403 13:25:59.573252 11234 net.cpp:156] Memory required for data: 828249200
I0403 13:25:59.573273 11234 layer_factory.hpp:77] Creating layer relu7
I0403 13:25:59.573298 11234 net.cpp:91] Creating Layer relu7
I0403 13:25:59.573317 11234 net.cpp:425] relu7 <- fc7
I0403 13:25:59.573334 11234 net.cpp:386] relu7 -> fc7 (in-place)
I0403 13:25:59.573740 11234 net.cpp:141] Setting up relu7
I0403 13:25:59.573765 11234 net.cpp:148] Top shape: 100 4096 (409600)
I0403 13:25:59.573822 11234 net.cpp:156] Memory required for data: 829887600
I0403 13:25:59.573837 11234 layer_factory.hpp:77] Creating layer drop7
I0403 13:25:59.573858 11234 net.cpp:91] Creating Layer drop7
I0403 13:25:59.573874 11234 net.cpp:425] drop7 <- fc7
I0403 13:25:59.573891 11234 net.cpp:386] drop7 -> fc7 (in-place)
I0403 13:25:59.573937 11234 net.cpp:141] Setting up drop7
I0403 13:25:59.573959 11234 net.cpp:148] Top shape: 100 4096 (409600)
I0403 13:25:59.573974 11234 net.cpp:156] Memory required for data: 831526000
I0403 13:25:59.573989 11234 layer_factory.hpp:77] Creating layer fc8_plantvillage
I0403 13:25:59.574008 11234 net.cpp:91] Creating Layer fc8_plantvillage
I0403 13:25:59.574023 11234 net.cpp:425] fc8_plantvillage <- fc7
I0403 13:25:59.574043 11234 net.cpp:399] fc8_plantvillage -> fc8_plantvillage
I0403 13:25:59.580757 11234 net.cpp:141] Setting up fc8_plantvillage
I0403 13:25:59.580786 11234 net.cpp:148] Top shape: 100 38 (3800)
I0403 13:25:59.580801 11234 net.cpp:156] Memory required for data: 831541200
I0403 13:25:59.580818 11234 layer_factory.hpp:77] Creating layer fc8_plantvillage_fc8_plantvillage_0_split
I0403 13:25:59.580839 11234 net.cpp:91] Creating Layer fc8_plantvillage_fc8_plantvillage_0_split
I0403 13:25:59.580855 11234 net.cpp:425] fc8_plantvillage_fc8_plantvillage_0_split <- fc8_plantvillage
I0403 13:25:59.580873 11234 net.cpp:399] fc8_plantvillage_fc8_plantvillage_0_split -> fc8_plantvillage_fc8_plantvillage_0_split_0
I0403 13:25:59.580891 11234 net.cpp:399] fc8_plantvillage_fc8_plantvillage_0_split -> fc8_plantvillage_fc8_plantvillage_0_split_1
I0403 13:25:59.580914 11234 net.cpp:399] fc8_plantvillage_fc8_plantvillage_0_split -> fc8_plantvillage_fc8_plantvillage_0_split_2
I0403 13:25:59.580991 11234 net.cpp:141] Setting up fc8_plantvillage_fc8_plantvillage_0_split
I0403 13:25:59.581014 11234 net.cpp:148] Top shape: 100 38 (3800)
I0403 13:25:59.581032 11234 net.cpp:148] Top shape: 100 38 (3800)
I0403 13:25:59.581046 11234 net.cpp:148] Top shape: 100 38 (3800)
I0403 13:25:59.581059 11234 net.cpp:156] Memory required for data: 831586800
I0403 13:25:59.581073 11234 layer_factory.hpp:77] Creating layer prob
I0403 13:25:59.581094 11234 net.cpp:91] Creating Layer prob
I0403 13:25:59.581110 11234 net.cpp:425] prob <- fc8_plantvillage_fc8_plantvillage_0_split_0
I0403 13:25:59.581128 11234 net.cpp:399] prob -> prob
I0403 13:25:59.581354 11234 net.cpp:141] Setting up prob
I0403 13:25:59.581379 11234 net.cpp:148] Top shape: 100 38 (3800)
I0403 13:25:59.581394 11234 net.cpp:156] Memory required for data: 831602000
I0403 13:25:59.581409 11234 layer_factory.hpp:77] Creating layer hdf5out
I0403 13:25:59.581430 11234 net.cpp:91] Creating Layer hdf5out
I0403 13:25:59.581449 11234 net.cpp:425] hdf5out <- prob
I0403 13:25:59.581465 11234 net.cpp:425] hdf5out <- label_data_1_split_0
I0403 13:25:59.584137 11234 net.cpp:141] Setting up hdf5out
…
