…
I0403 13:33:06.732950 11605 net.cpp:313] The NetState phase (1) differed from the phase (0) specified by a rule in layer data
I0403 13:33:06.733235 11605 net.cpp:49] Initializing net from parameters: 
state {
  phase: TEST
}
layer {
  name: "data"
  type: "Data"
  top: "data"
  top: "label"
  include {
    phase: TEST
  }
  transform_param {
    crop_size: 227
    mean_file: "/home/mohanty/data/final_dataset/lmdb/grayscale-80-20/mean.binaryproto"
  }
  data_param {
    source: "/home/mohanty/data/final_dataset/lmdb/grayscale-80-20/test_db"
    batch_size: 100
    backend: LMDB
  }
}
layer {
  name: "conv1"
  type: "Convolution"
  bottom: "data"
  top: "conv1"
  param {
    lr_mult: 1
    decay_mult: 1
  }
  param {
    lr_mult: 2
    decay_mult: 0
  }
  convolution_param {
    num_output: 96
    kernel_size: 11
    stride: 4
    weight_filler {
      type: "gaussian"
      std: 0.01
    }
    bias_filler {
      type: "constant"
      value: 0
    }
  }
}
layer {
  name: "relu1"
  type: "ReLU"
  bottom: "conv1"
  top: "conv1"
}
layer {
  name: "norm1"
  type: "LRN"
  bottom: "conv1"
  top: "norm1"
  lrn_param {
    local_size: 5
    alpha: 0.0001
    beta: 0.75
  }
}
layer {
  name: "pool1"
  type: "Pooling"
  bottom: "norm1"
  top: "pool1"
  pooling_param {
    pool: MAX
    kernel_size: 3
    stride: 2
  }
}
layer {
  name: "conv2"
  type: "Convolution"
  bottom: "pool1"
  top: "conv2"
  param {
    lr_mult: 1
    decay_mult: 1
  }
  param {
    lr_mult: 2
    decay_mult: 0
  }
  convolution_param {
    num_output: 256
    pad: 2
    kernel_size: 5
    group: 2
    weight_filler {
      type: "gaussian"
      std: 0.01
    }
    bias_filler {
      type: "constant"
      value: 0.1
    }
  }
}
layer {
  name: "relu2"
  type: "ReLU"
  bottom: "conv2"
  top: "conv2"
}
layer {
  name: "norm2"
  type: "LRN"
  bottom: "conv2"
  top: "norm2"
  lrn_param {
    local_size: 5
    alpha: 0.0001
    beta: 0.75
  }
}
layer {
  name: "pool2"
  type: "Pooling"
  bottom: "norm2"
  top: "pool2"
  pooling_param {
    pool: MAX
    kernel_size: 3
    stride: 2
  }
}
layer {
  name: "conv3"
  type: "Convolution"
  bottom: "pool2"
  top: "conv3"
  param {
    lr_mult: 1
    decay_mult: 1
  }
  param {
    lr_mult: 2
    decay_mult: 0
  }
  convolution_param {
    num_output: 384
    pad: 1
    kernel_size: 3
    weight_filler {
      type: "gaussian"
      std: 0.01
    }
    bias_filler {
      type: "constant"
      value: 0
    }
  }
}
layer {
  name: "relu3"
  type: "ReLU"
  bottom: "conv3"
  top: "conv3"
}
layer {
  name: "conv4"
  type: "Convolution"
  bottom: "conv3"
  top: "conv4"
  param {
    lr_mult: 1
    decay_mult: 1
  }
  param {
    lr_mult: 2
    decay_mult: 0
  }
  convolution_param {
    num_output: 384
    pad: 1
    kernel_size: 3
    group: 2
    weight_filler {
      type: "gaussian"
      std: 0.01
    }
    bias_filler {
      type: "constant"
      value: 0.1
    }
  }
}
layer {
  name: "relu4"
  type: "ReLU"
  bottom: "conv4"
  top: "conv4"
}
layer {
  name: "conv5"
  type: "Convolution"
  bottom: "conv4"
  top: "conv5"
  param {
    lr_mult: 1
    decay_mult: 1
  }
  param {
    lr_mult: 2
    decay_mult: 0
  }
  convolution_param {
    num_output: 256
    pad: 1
    kernel_size: 3
    group: 2
    weight_filler {
      type: "gaussian"
      std: 0.01
    }
    bias_filler {
      type: "constant"
      value: 0.1
    }
  }
}
layer {
  name: "relu5"
  type: "ReLU"
  bottom: "conv5"
  top: "conv5"
}
layer {
  name: "pool5"
  type: "Pooling"
  bottom: "conv5"
  top: "pool5"
  pooling_param {
    pool: MAX
    kernel_size: 3
    stride: 2
  }
}
layer {
  name: "fc6"
  type: "InnerProduct"
  bottom: "pool5"
  top: "fc6"
  param {
    lr_mult: 1
    decay_mult: 1
  }
  param {
    lr_mult: 2
    decay_mult: 0
  }
  inner_product_param {
    num_output: 4096
    weight_filler {
      type: "gaussian"
      std: 0.005
    }
    bias_filler {
      type: "constant"
      value: 0.1
    }
  }
}
layer {
  name: "relu6"
  type: "ReLU"
  bottom: "fc6"
  top: "fc6"
}
layer {
  name: "drop6"
  type: "Dropout"
  bottom: "fc6"
  top: "fc6"
  dropout_param {
    dropout_ratio: 0.5
  }
}
layer {
  name: "fc7"
  type: "InnerProduct"
  bottom: "fc6"
  top: "fc7"
  param {
    lr_mult: 1
    decay_mult: 1
  }
  param {
    lr_mult: 2
    decay_mult: 0
  }
  inner_product_param {
    num_output: 4096
    weight_filler {
      type: "gaussian"
      std: 0.005
    }
    bias_filler {
      type: "constant"
      value: 0.1
    }
  }
}
layer {
  name: "relu7"
  type: "ReLU"
  bottom: "fc7"
  top: "fc7"
}
layer {
  name: "drop7"
  type: "Dropout"
  bottom: "fc7"
  top: "fc7"
  dropout_param {
    dropout_ratio: 0.5
  }
}
layer {
  name: "fc8_plantvillage"
  type: "InnerProduct"
  bottom: "fc7"
  top: "fc8_plantvillage"
  param {
    lr_mult: 1
    decay_mult: 1
  }
  param {
    lr_mult: 2
    decay_mult: 0
  }
  inner_product_param {
    num_output: 38
    weight_filler {
      type: "gaussian"
      std: 0.01
    }
    bias_filler {
      type: "constant"
      value: 0
    }
  }
}
layer {
  name: "prob"
  type: "Softmax"
  bottom: "fc8_plantvillage"
  top: "prob"
  include {
    phase: TEST
  }
}
layer {
  name: "hdf5out"
  type: "HDF5Output"
  bottom: "prob"
  bottom: "label"
  include {
    phase: TEST
  }
  hdf5_output_param {
    file_name: "hdf5_dumps/iter_10464.h5"
  }
}
layer {
  name: "loss"
  type: "SoftmaxWithLoss"
  bottom: "fc8_plantvillage"
  bottom: "label"
  top: "loss"
}
layer {
  name: "accuracy"
  type: "Accuracy"
  bottom: "fc8_plantvillage"
  bottom: "label"
  top: "accuracy"
  include {
    phase: TEST
  }
}
I0403 13:33:06.733790 11605 layer_factory.hpp:77] Creating layer data
I0403 13:33:06.734423 11605 net.cpp:91] Creating Layer data
I0403 13:33:06.734455 11605 net.cpp:399] data -> data
I0403 13:33:06.734505 11605 net.cpp:399] data -> label
I0403 13:33:06.734542 11605 data_transformer.cpp:25] Loading mean file from: /home/mohanty/data/final_dataset/lmdb/grayscale-80-20/mean.binaryproto
I0403 13:33:06.736897 11610 db_lmdb.cpp:38] Opened lmdb /home/mohanty/data/final_dataset/lmdb/grayscale-80-20/test_db
I0403 13:33:06.749174 11605 data_layer.cpp:41] output data size: 100,3,227,227
I0403 13:33:06.870803 11605 net.cpp:141] Setting up data
I0403 13:33:06.870893 11605 net.cpp:148] Top shape: 100 3 227 227 (15458700)
I0403 13:33:06.870918 11605 net.cpp:148] Top shape: 100 (100)
I0403 13:33:06.870934 11605 net.cpp:156] Memory required for data: 61835200
I0403 13:33:06.870965 11605 layer_factory.hpp:77] Creating layer label_data_1_split
I0403 13:33:06.870990 11605 net.cpp:91] Creating Layer label_data_1_split
I0403 13:33:06.871009 11605 net.cpp:425] label_data_1_split <- label
I0403 13:33:06.871042 11605 net.cpp:399] label_data_1_split -> label_data_1_split_0
I0403 13:33:06.871071 11605 net.cpp:399] label_data_1_split -> label_data_1_split_1
I0403 13:33:06.871094 11605 net.cpp:399] label_data_1_split -> label_data_1_split_2
I0403 13:33:06.871160 11605 net.cpp:141] Setting up label_data_1_split
I0403 13:33:06.871184 11605 net.cpp:148] Top shape: 100 (100)
I0403 13:33:06.871201 11605 net.cpp:148] Top shape: 100 (100)
I0403 13:33:06.871218 11605 net.cpp:148] Top shape: 100 (100)
I0403 13:33:06.871232 11605 net.cpp:156] Memory required for data: 61836400
I0403 13:33:06.871248 11605 layer_factory.hpp:77] Creating layer conv1
I0403 13:33:06.871280 11605 net.cpp:91] Creating Layer conv1
I0403 13:33:06.871301 11605 net.cpp:425] conv1 <- data
I0403 13:33:06.871320 11605 net.cpp:399] conv1 -> conv1
I0403 13:33:07.015810 11605 net.cpp:141] Setting up conv1
I0403 13:33:07.015887 11605 net.cpp:148] Top shape: 100 96 55 55 (29040000)
I0403 13:33:07.015913 11605 net.cpp:156] Memory required for data: 177996400
I0403 13:33:07.015944 11605 layer_factory.hpp:77] Creating layer relu1
I0403 13:33:07.015974 11605 net.cpp:91] Creating Layer relu1
I0403 13:33:07.015991 11605 net.cpp:425] relu1 <- conv1
I0403 13:33:07.016010 11605 net.cpp:386] relu1 -> conv1 (in-place)
I0403 13:33:07.016276 11605 net.cpp:141] Setting up relu1
I0403 13:33:07.016305 11605 net.cpp:148] Top shape: 100 96 55 55 (29040000)
I0403 13:33:07.016355 11605 net.cpp:156] Memory required for data: 294156400
I0403 13:33:07.016372 11605 layer_factory.hpp:77] Creating layer norm1
I0403 13:33:07.016401 11605 net.cpp:91] Creating Layer norm1
I0403 13:33:07.016418 11605 net.cpp:425] norm1 <- conv1
I0403 13:33:07.016438 11605 net.cpp:399] norm1 -> norm1
I0403 13:33:07.016821 11605 net.cpp:141] Setting up norm1
I0403 13:33:07.016850 11605 net.cpp:148] Top shape: 100 96 55 55 (29040000)
I0403 13:33:07.016866 11605 net.cpp:156] Memory required for data: 410316400
I0403 13:33:07.016881 11605 layer_factory.hpp:77] Creating layer pool1
I0403 13:33:07.016904 11605 net.cpp:91] Creating Layer pool1
I0403 13:33:07.016922 11605 net.cpp:425] pool1 <- norm1
I0403 13:33:07.016940 11605 net.cpp:399] pool1 -> pool1
I0403 13:33:07.017009 11605 net.cpp:141] Setting up pool1
I0403 13:33:07.017032 11605 net.cpp:148] Top shape: 100 96 27 27 (6998400)
I0403 13:33:07.017048 11605 net.cpp:156] Memory required for data: 438310000
I0403 13:33:07.017063 11605 layer_factory.hpp:77] Creating layer conv2
I0403 13:33:07.017087 11605 net.cpp:91] Creating Layer conv2
I0403 13:33:07.017104 11605 net.cpp:425] conv2 <- pool1
I0403 13:33:07.017122 11605 net.cpp:399] conv2 -> conv2
I0403 13:33:07.032591 11605 net.cpp:141] Setting up conv2
I0403 13:33:07.032640 11605 net.cpp:148] Top shape: 100 256 27 27 (18662400)
I0403 13:33:07.032660 11605 net.cpp:156] Memory required for data: 512959600
I0403 13:33:07.032687 11605 layer_factory.hpp:77] Creating layer relu2
I0403 13:33:07.032708 11605 net.cpp:91] Creating Layer relu2
I0403 13:33:07.032726 11605 net.cpp:425] relu2 <- conv2
I0403 13:33:07.032747 11605 net.cpp:386] relu2 -> conv2 (in-place)
I0403 13:33:07.033047 11605 net.cpp:141] Setting up relu2
I0403 13:33:07.033076 11605 net.cpp:148] Top shape: 100 256 27 27 (18662400)
I0403 13:33:07.033092 11605 net.cpp:156] Memory required for data: 587609200
I0403 13:33:07.033108 11605 layer_factory.hpp:77] Creating layer norm2
I0403 13:33:07.033131 11605 net.cpp:91] Creating Layer norm2
I0403 13:33:07.033159 11605 net.cpp:425] norm2 <- conv2
I0403 13:33:07.033177 11605 net.cpp:399] norm2 -> norm2
I0403 13:33:07.033385 11605 net.cpp:141] Setting up norm2
I0403 13:33:07.033413 11605 net.cpp:148] Top shape: 100 256 27 27 (18662400)
I0403 13:33:07.033430 11605 net.cpp:156] Memory required for data: 662258800
I0403 13:33:07.033445 11605 layer_factory.hpp:77] Creating layer pool2
I0403 13:33:07.033464 11605 net.cpp:91] Creating Layer pool2
I0403 13:33:07.033480 11605 net.cpp:425] pool2 <- norm2
I0403 13:33:07.033501 11605 net.cpp:399] pool2 -> pool2
I0403 13:33:07.033556 11605 net.cpp:141] Setting up pool2
I0403 13:33:07.033581 11605 net.cpp:148] Top shape: 100 256 13 13 (4326400)
I0403 13:33:07.033596 11605 net.cpp:156] Memory required for data: 679564400
I0403 13:33:07.033617 11605 layer_factory.hpp:77] Creating layer conv3
I0403 13:33:07.033641 11605 net.cpp:91] Creating Layer conv3
I0403 13:33:07.033658 11605 net.cpp:425] conv3 <- pool2
I0403 13:33:07.033680 11605 net.cpp:399] conv3 -> conv3
I0403 13:33:07.075206 11605 net.cpp:141] Setting up conv3
I0403 13:33:07.075253 11605 net.cpp:148] Top shape: 100 384 13 13 (6489600)
I0403 13:33:07.075271 11605 net.cpp:156] Memory required for data: 705522800
I0403 13:33:07.075297 11605 layer_factory.hpp:77] Creating layer relu3
I0403 13:33:07.075320 11605 net.cpp:91] Creating Layer relu3
I0403 13:33:07.075338 11605 net.cpp:425] relu3 <- conv3
I0403 13:33:07.075358 11605 net.cpp:386] relu3 -> conv3 (in-place)
I0403 13:33:07.075652 11605 net.cpp:141] Setting up relu3
I0403 13:33:07.075682 11605 net.cpp:148] Top shape: 100 384 13 13 (6489600)
I0403 13:33:07.075698 11605 net.cpp:156] Memory required for data: 731481200
I0403 13:33:07.075714 11605 layer_factory.hpp:77] Creating layer conv4
I0403 13:33:07.075749 11605 net.cpp:91] Creating Layer conv4
I0403 13:33:07.075767 11605 net.cpp:425] conv4 <- conv3
I0403 13:33:07.075789 11605 net.cpp:399] conv4 -> conv4
I0403 13:33:07.105520 11605 net.cpp:141] Setting up conv4
I0403 13:33:07.105566 11605 net.cpp:148] Top shape: 100 384 13 13 (6489600)
I0403 13:33:07.105624 11605 net.cpp:156] Memory required for data: 757439600
I0403 13:33:07.105646 11605 layer_factory.hpp:77] Creating layer relu4
I0403 13:33:07.105666 11605 net.cpp:91] Creating Layer relu4
I0403 13:33:07.105684 11605 net.cpp:425] relu4 <- conv4
I0403 13:33:07.105701 11605 net.cpp:386] relu4 -> conv4 (in-place)
I0403 13:33:07.105990 11605 net.cpp:141] Setting up relu4
I0403 13:33:07.106017 11605 net.cpp:148] Top shape: 100 384 13 13 (6489600)
I0403 13:33:07.106036 11605 net.cpp:156] Memory required for data: 783398000
I0403 13:33:07.106051 11605 layer_factory.hpp:77] Creating layer conv5
I0403 13:33:07.106071 11605 net.cpp:91] Creating Layer conv5
I0403 13:33:07.106088 11605 net.cpp:425] conv5 <- conv4
I0403 13:33:07.106112 11605 net.cpp:399] conv5 -> conv5
I0403 13:33:07.126941 11605 net.cpp:141] Setting up conv5
I0403 13:33:07.126991 11605 net.cpp:148] Top shape: 100 256 13 13 (4326400)
I0403 13:33:07.127007 11605 net.cpp:156] Memory required for data: 800703600
I0403 13:33:07.127045 11605 layer_factory.hpp:77] Creating layer relu5
I0403 13:33:07.127068 11605 net.cpp:91] Creating Layer relu5
I0403 13:33:07.127084 11605 net.cpp:425] relu5 <- conv5
I0403 13:33:07.127105 11605 net.cpp:386] relu5 -> conv5 (in-place)
I0403 13:33:07.127440 11605 net.cpp:141] Setting up relu5
I0403 13:33:07.127472 11605 net.cpp:148] Top shape: 100 256 13 13 (4326400)
I0403 13:33:07.127490 11605 net.cpp:156] Memory required for data: 818009200
I0403 13:33:07.127506 11605 layer_factory.hpp:77] Creating layer pool5
I0403 13:33:07.127528 11605 net.cpp:91] Creating Layer pool5
I0403 13:33:07.127545 11605 net.cpp:425] pool5 <- conv5
I0403 13:33:07.127567 11605 net.cpp:399] pool5 -> pool5
I0403 13:33:07.127634 11605 net.cpp:141] Setting up pool5
I0403 13:33:07.127661 11605 net.cpp:148] Top shape: 100 256 6 6 (921600)
I0403 13:33:07.127689 11605 net.cpp:156] Memory required for data: 821695600
I0403 13:33:07.127704 11605 layer_factory.hpp:77] Creating layer fc6
I0403 13:33:07.127732 11605 net.cpp:91] Creating Layer fc6
I0403 13:33:07.127750 11605 net.cpp:425] fc6 <- pool5
I0403 13:33:07.127771 11605 net.cpp:399] fc6 -> fc6
I0403 13:33:08.656662 11605 net.cpp:141] Setting up fc6
I0403 13:33:08.656708 11605 net.cpp:148] Top shape: 100 4096 (409600)
I0403 13:33:08.656726 11605 net.cpp:156] Memory required for data: 823334000
I0403 13:33:08.656749 11605 layer_factory.hpp:77] Creating layer relu6
I0403 13:33:08.656772 11605 net.cpp:91] Creating Layer relu6
I0403 13:33:08.656790 11605 net.cpp:425] relu6 <- fc6
I0403 13:33:08.656810 11605 net.cpp:386] relu6 -> fc6 (in-place)
I0403 13:33:08.657027 11605 net.cpp:141] Setting up relu6
I0403 13:33:08.657055 11605 net.cpp:148] Top shape: 100 4096 (409600)
I0403 13:33:08.657073 11605 net.cpp:156] Memory required for data: 824972400
I0403 13:33:08.657088 11605 layer_factory.hpp:77] Creating layer drop6
I0403 13:33:08.657107 11605 net.cpp:91] Creating Layer drop6
I0403 13:33:08.657124 11605 net.cpp:425] drop6 <- fc6
I0403 13:33:08.657142 11605 net.cpp:386] drop6 -> fc6 (in-place)
I0403 13:33:08.657198 11605 net.cpp:141] Setting up drop6
I0403 13:33:08.657222 11605 net.cpp:148] Top shape: 100 4096 (409600)
I0403 13:33:08.657238 11605 net.cpp:156] Memory required for data: 826610800
I0403 13:33:08.657253 11605 layer_factory.hpp:77] Creating layer fc7
I0403 13:33:08.657276 11605 net.cpp:91] Creating Layer fc7
I0403 13:33:08.657294 11605 net.cpp:425] fc7 <- fc6
I0403 13:33:08.657315 11605 net.cpp:399] fc7 -> fc7
I0403 13:33:09.329917 11605 net.cpp:141] Setting up fc7
I0403 13:33:09.329959 11605 net.cpp:148] Top shape: 100 4096 (409600)
I0403 13:33:09.329977 11605 net.cpp:156] Memory required for data: 828249200
I0403 13:33:09.329998 11605 layer_factory.hpp:77] Creating layer relu7
I0403 13:33:09.330023 11605 net.cpp:91] Creating Layer relu7
I0403 13:33:09.330039 11605 net.cpp:425] relu7 <- fc7
I0403 13:33:09.330059 11605 net.cpp:386] relu7 -> fc7 (in-place)
I0403 13:33:09.330453 11605 net.cpp:141] Setting up relu7
I0403 13:33:09.330482 11605 net.cpp:148] Top shape: 100 4096 (409600)
I0403 13:33:09.330539 11605 net.cpp:156] Memory required for data: 829887600
I0403 13:33:09.330555 11605 layer_factory.hpp:77] Creating layer drop7
I0403 13:33:09.330574 11605 net.cpp:91] Creating Layer drop7
I0403 13:33:09.330590 11605 net.cpp:425] drop7 <- fc7
I0403 13:33:09.330613 11605 net.cpp:386] drop7 -> fc7 (in-place)
I0403 13:33:09.330667 11605 net.cpp:141] Setting up drop7
I0403 13:33:09.330689 11605 net.cpp:148] Top shape: 100 4096 (409600)
I0403 13:33:09.330704 11605 net.cpp:156] Memory required for data: 831526000
I0403 13:33:09.330718 11605 layer_factory.hpp:77] Creating layer fc8_plantvillage
I0403 13:33:09.330740 11605 net.cpp:91] Creating Layer fc8_plantvillage
I0403 13:33:09.330756 11605 net.cpp:425] fc8_plantvillage <- fc7
I0403 13:33:09.330775 11605 net.cpp:399] fc8_plantvillage -> fc8_plantvillage
I0403 13:33:09.337484 11605 net.cpp:141] Setting up fc8_plantvillage
I0403 13:33:09.337515 11605 net.cpp:148] Top shape: 100 38 (3800)
I0403 13:33:09.337532 11605 net.cpp:156] Memory required for data: 831541200
I0403 13:33:09.337550 11605 layer_factory.hpp:77] Creating layer fc8_plantvillage_fc8_plantvillage_0_split
I0403 13:33:09.337569 11605 net.cpp:91] Creating Layer fc8_plantvillage_fc8_plantvillage_0_split
I0403 13:33:09.337585 11605 net.cpp:425] fc8_plantvillage_fc8_plantvillage_0_split <- fc8_plantvillage
I0403 13:33:09.337609 11605 net.cpp:399] fc8_plantvillage_fc8_plantvillage_0_split -> fc8_plantvillage_fc8_plantvillage_0_split_0
I0403 13:33:09.337632 11605 net.cpp:399] fc8_plantvillage_fc8_plantvillage_0_split -> fc8_plantvillage_fc8_plantvillage_0_split_1
I0403 13:33:09.337653 11605 net.cpp:399] fc8_plantvillage_fc8_plantvillage_0_split -> fc8_plantvillage_fc8_plantvillage_0_split_2
I0403 13:33:09.337730 11605 net.cpp:141] Setting up fc8_plantvillage_fc8_plantvillage_0_split
I0403 13:33:09.337756 11605 net.cpp:148] Top shape: 100 38 (3800)
I0403 13:33:09.337774 11605 net.cpp:148] Top shape: 100 38 (3800)
I0403 13:33:09.337790 11605 net.cpp:148] Top shape: 100 38 (3800)
I0403 13:33:09.337802 11605 net.cpp:156] Memory required for data: 831586800
I0403 13:33:09.337816 11605 layer_factory.hpp:77] Creating layer prob
I0403 13:33:09.337836 11605 net.cpp:91] Creating Layer prob
I0403 13:33:09.337852 11605 net.cpp:425] prob <- fc8_plantvillage_fc8_plantvillage_0_split_0
I0403 13:33:09.337870 11605 net.cpp:399] prob -> prob
I0403 13:33:09.338093 11605 net.cpp:141] Setting up prob
I0403 13:33:09.338121 11605 net.cpp:148] Top shape: 100 38 (3800)
I0403 13:33:09.338137 11605 net.cpp:156] Memory required for data: 831602000
I0403 13:33:09.338152 11605 layer_factory.hpp:77] Creating layer hdf5out
I0403 13:33:09.338171 11605 net.cpp:91] Creating Layer hdf5out
I0403 13:33:09.338186 11605 net.cpp:425] hdf5out <- prob
I0403 13:33:09.338202 11605 net.cpp:425] hdf5out <- label_data_1_split_0
I0403 13:33:09.340642 11605 net.cpp:141] Setting up hdf5out
…
