…
I0403 13:29:45.845835 11391 net.cpp:313] The NetState phase (1) differed from the phase (0) specified by a rule in layer data
I0403 13:29:45.846174 11391 net.cpp:49] Initializing net from parameters: 
state {
  phase: TEST
}
layer {
  name: "data"
  type: "Data"
  top: "data"
  top: "label"
  include {
    phase: TEST
  }
  transform_param {
    crop_size: 227
    mean_file: "/home/mohanty/data/final_dataset/lmdb/grayscale-80-20/mean.binaryproto"
  }
  data_param {
    source: "/home/mohanty/data/final_dataset/lmdb/grayscale-80-20/test_db"
    batch_size: 100
    backend: LMDB
  }
}
layer {
  name: "conv1"
  type: "Convolution"
  bottom: "data"
  top: "conv1"
  param {
    lr_mult: 1
    decay_mult: 1
  }
  param {
    lr_mult: 2
    decay_mult: 0
  }
  convolution_param {
    num_output: 96
    kernel_size: 11
    stride: 4
    weight_filler {
      type: "gaussian"
      std: 0.01
    }
    bias_filler {
      type: "constant"
      value: 0
    }
  }
}
layer {
  name: "relu1"
  type: "ReLU"
  bottom: "conv1"
  top: "conv1"
}
layer {
  name: "norm1"
  type: "LRN"
  bottom: "conv1"
  top: "norm1"
  lrn_param {
    local_size: 5
    alpha: 0.0001
    beta: 0.75
  }
}
layer {
  name: "pool1"
  type: "Pooling"
  bottom: "norm1"
  top: "pool1"
  pooling_param {
    pool: MAX
    kernel_size: 3
    stride: 2
  }
}
layer {
  name: "conv2"
  type: "Convolution"
  bottom: "pool1"
  top: "conv2"
  param {
    lr_mult: 1
    decay_mult: 1
  }
  param {
    lr_mult: 2
    decay_mult: 0
  }
  convolution_param {
    num_output: 256
    pad: 2
    kernel_size: 5
    group: 2
    weight_filler {
      type: "gaussian"
      std: 0.01
    }
    bias_filler {
      type: "constant"
      value: 0.1
    }
  }
}
layer {
  name: "relu2"
  type: "ReLU"
  bottom: "conv2"
  top: "conv2"
}
layer {
  name: "norm2"
  type: "LRN"
  bottom: "conv2"
  top: "norm2"
  lrn_param {
    local_size: 5
    alpha: 0.0001
    beta: 0.75
  }
}
layer {
  name: "pool2"
  type: "Pooling"
  bottom: "norm2"
  top: "pool2"
  pooling_param {
    pool: MAX
    kernel_size: 3
    stride: 2
  }
}
layer {
  name: "conv3"
  type: "Convolution"
  bottom: "pool2"
  top: "conv3"
  param {
    lr_mult: 1
    decay_mult: 1
  }
  param {
    lr_mult: 2
    decay_mult: 0
  }
  convolution_param {
    num_output: 384
    pad: 1
    kernel_size: 3
    weight_filler {
      type: "gaussian"
      std: 0.01
    }
    bias_filler {
      type: "constant"
      value: 0
    }
  }
}
layer {
  name: "relu3"
  type: "ReLU"
  bottom: "conv3"
  top: "conv3"
}
layer {
  name: "conv4"
  type: "Convolution"
  bottom: "conv3"
  top: "conv4"
  param {
    lr_mult: 1
    decay_mult: 1
  }
  param {
    lr_mult: 2
    decay_mult: 0
  }
  convolution_param {
    num_output: 384
    pad: 1
    kernel_size: 3
    group: 2
    weight_filler {
      type: "gaussian"
      std: 0.01
    }
    bias_filler {
      type: "constant"
      value: 0.1
    }
  }
}
layer {
  name: "relu4"
  type: "ReLU"
  bottom: "conv4"
  top: "conv4"
}
layer {
  name: "conv5"
  type: "Convolution"
  bottom: "conv4"
  top: "conv5"
  param {
    lr_mult: 1
    decay_mult: 1
  }
  param {
    lr_mult: 2
    decay_mult: 0
  }
  convolution_param {
    num_output: 256
    pad: 1
    kernel_size: 3
    group: 2
    weight_filler {
      type: "gaussian"
      std: 0.01
    }
    bias_filler {
      type: "constant"
      value: 0.1
    }
  }
}
layer {
  name: "relu5"
  type: "ReLU"
  bottom: "conv5"
  top: "conv5"
}
layer {
  name: "pool5"
  type: "Pooling"
  bottom: "conv5"
  top: "pool5"
  pooling_param {
    pool: MAX
    kernel_size: 3
    stride: 2
  }
}
layer {
  name: "fc6"
  type: "InnerProduct"
  bottom: "pool5"
  top: "fc6"
  param {
    lr_mult: 1
    decay_mult: 1
  }
  param {
    lr_mult: 2
    decay_mult: 0
  }
  inner_product_param {
    num_output: 4096
    weight_filler {
      type: "gaussian"
      std: 0.005
    }
    bias_filler {
      type: "constant"
      value: 0.1
    }
  }
}
layer {
  name: "relu6"
  type: "ReLU"
  bottom: "fc6"
  top: "fc6"
}
layer {
  name: "drop6"
  type: "Dropout"
  bottom: "fc6"
  top: "fc6"
  dropout_param {
    dropout_ratio: 0.5
  }
}
layer {
  name: "fc7"
  type: "InnerProduct"
  bottom: "fc6"
  top: "fc7"
  param {
    lr_mult: 1
    decay_mult: 1
  }
  param {
    lr_mult: 2
    decay_mult: 0
  }
  inner_product_param {
    num_output: 4096
    weight_filler {
      type: "gaussian"
      std: 0.005
    }
    bias_filler {
      type: "constant"
      value: 0.1
    }
  }
}
layer {
  name: "relu7"
  type: "ReLU"
  bottom: "fc7"
  top: "fc7"
}
layer {
  name: "drop7"
  type: "Dropout"
  bottom: "fc7"
  top: "fc7"
  dropout_param {
    dropout_ratio: 0.5
  }
}
layer {
  name: "fc8_plantvillage"
  type: "InnerProduct"
  bottom: "fc7"
  top: "fc8_plantvillage"
  param {
    lr_mult: 1
    decay_mult: 1
  }
  param {
    lr_mult: 2
    decay_mult: 0
  }
  inner_product_param {
    num_output: 38
    weight_filler {
      type: "gaussian"
      std: 0.01
    }
    bias_filler {
      type: "constant"
      value: 0
    }
  }
}
layer {
  name: "prob"
  type: "Softmax"
  bottom: "fc8_plantvillage"
  top: "prob"
  include {
    phase: TEST
  }
}
layer {
  name: "hdf5out"
  type: "HDF5Output"
  bottom: "prob"
  bottom: "label"
  include {
    phase: TEST
  }
  hdf5_output_param {
    file_name: "hdf5_dumps/iter_6976.h5"
  }
}
layer {
  name: "loss"
  type: "SoftmaxWithLoss"
  bottom: "fc8_plantvillage"
  bottom: "label"
  top: "loss"
}
layer {
  name: "accuracy"
  type: "Accuracy"
  bottom: "fc8_plantvillage"
  bottom: "label"
  top: "accuracy"
  include {
    phase: TEST
  }
}
I0403 13:29:45.846917 11391 layer_factory.hpp:77] Creating layer data
I0403 13:29:45.847609 11391 net.cpp:91] Creating Layer data
I0403 13:29:45.847648 11391 net.cpp:399] data -> data
I0403 13:29:45.847705 11391 net.cpp:399] data -> label
I0403 13:29:45.847743 11391 data_transformer.cpp:25] Loading mean file from: /home/mohanty/data/final_dataset/lmdb/grayscale-80-20/mean.binaryproto
I0403 13:29:45.850826 11394 db_lmdb.cpp:38] Opened lmdb /home/mohanty/data/final_dataset/lmdb/grayscale-80-20/test_db
I0403 13:29:45.862421 11391 data_layer.cpp:41] output data size: 100,3,227,227
I0403 13:29:45.994132 11391 net.cpp:141] Setting up data
I0403 13:29:45.994226 11391 net.cpp:148] Top shape: 100 3 227 227 (15458700)
I0403 13:29:45.994251 11391 net.cpp:148] Top shape: 100 (100)
I0403 13:29:45.994268 11391 net.cpp:156] Memory required for data: 61835200
I0403 13:29:45.994302 11391 layer_factory.hpp:77] Creating layer label_data_1_split
I0403 13:29:45.994330 11391 net.cpp:91] Creating Layer label_data_1_split
I0403 13:29:45.994349 11391 net.cpp:425] label_data_1_split <- label
I0403 13:29:45.994387 11391 net.cpp:399] label_data_1_split -> label_data_1_split_0
I0403 13:29:45.994416 11391 net.cpp:399] label_data_1_split -> label_data_1_split_1
I0403 13:29:45.994438 11391 net.cpp:399] label_data_1_split -> label_data_1_split_2
I0403 13:29:45.994510 11391 net.cpp:141] Setting up label_data_1_split
I0403 13:29:45.994536 11391 net.cpp:148] Top shape: 100 (100)
I0403 13:29:45.994555 11391 net.cpp:148] Top shape: 100 (100)
I0403 13:29:45.994585 11391 net.cpp:148] Top shape: 100 (100)
I0403 13:29:45.994603 11391 net.cpp:156] Memory required for data: 61836400
I0403 13:29:45.994621 11391 layer_factory.hpp:77] Creating layer conv1
I0403 13:29:45.994655 11391 net.cpp:91] Creating Layer conv1
I0403 13:29:45.994675 11391 net.cpp:425] conv1 <- data
I0403 13:29:45.994695 11391 net.cpp:399] conv1 -> conv1
I0403 13:29:46.145007 11391 net.cpp:141] Setting up conv1
I0403 13:29:46.145071 11391 net.cpp:148] Top shape: 100 96 55 55 (29040000)
I0403 13:29:46.145088 11391 net.cpp:156] Memory required for data: 177996400
I0403 13:29:46.145120 11391 layer_factory.hpp:77] Creating layer relu1
I0403 13:29:46.145148 11391 net.cpp:91] Creating Layer relu1
I0403 13:29:46.145165 11391 net.cpp:425] relu1 <- conv1
I0403 13:29:46.145184 11391 net.cpp:386] relu1 -> conv1 (in-place)
I0403 13:29:46.145442 11391 net.cpp:141] Setting up relu1
I0403 13:29:46.145470 11391 net.cpp:148] Top shape: 100 96 55 55 (29040000)
I0403 13:29:46.145526 11391 net.cpp:156] Memory required for data: 294156400
I0403 13:29:46.145544 11391 layer_factory.hpp:77] Creating layer norm1
I0403 13:29:46.145577 11391 net.cpp:91] Creating Layer norm1
I0403 13:29:46.145597 11391 net.cpp:425] norm1 <- conv1
I0403 13:29:46.145617 11391 net.cpp:399] norm1 -> norm1
I0403 13:29:46.145926 11391 net.cpp:141] Setting up norm1
I0403 13:29:46.145956 11391 net.cpp:148] Top shape: 100 96 55 55 (29040000)
I0403 13:29:46.145972 11391 net.cpp:156] Memory required for data: 410316400
I0403 13:29:46.145987 11391 layer_factory.hpp:77] Creating layer pool1
I0403 13:29:46.146013 11391 net.cpp:91] Creating Layer pool1
I0403 13:29:46.146031 11391 net.cpp:425] pool1 <- norm1
I0403 13:29:46.146049 11391 net.cpp:399] pool1 -> pool1
I0403 13:29:46.146119 11391 net.cpp:141] Setting up pool1
I0403 13:29:46.146143 11391 net.cpp:148] Top shape: 100 96 27 27 (6998400)
I0403 13:29:46.146160 11391 net.cpp:156] Memory required for data: 438310000
I0403 13:29:46.146176 11391 layer_factory.hpp:77] Creating layer conv2
I0403 13:29:46.146200 11391 net.cpp:91] Creating Layer conv2
I0403 13:29:46.146217 11391 net.cpp:425] conv2 <- pool1
I0403 13:29:46.146237 11391 net.cpp:399] conv2 -> conv2
I0403 13:29:46.161855 11391 net.cpp:141] Setting up conv2
I0403 13:29:46.161917 11391 net.cpp:148] Top shape: 100 256 27 27 (18662400)
I0403 13:29:46.161936 11391 net.cpp:156] Memory required for data: 512959600
I0403 13:29:46.161962 11391 layer_factory.hpp:77] Creating layer relu2
I0403 13:29:46.161988 11391 net.cpp:91] Creating Layer relu2
I0403 13:29:46.162008 11391 net.cpp:425] relu2 <- conv2
I0403 13:29:46.162027 11391 net.cpp:386] relu2 -> conv2 (in-place)
I0403 13:29:46.162310 11391 net.cpp:141] Setting up relu2
I0403 13:29:46.162338 11391 net.cpp:148] Top shape: 100 256 27 27 (18662400)
I0403 13:29:46.162355 11391 net.cpp:156] Memory required for data: 587609200
I0403 13:29:46.162372 11391 layer_factory.hpp:77] Creating layer norm2
I0403 13:29:46.162400 11391 net.cpp:91] Creating Layer norm2
I0403 13:29:46.162416 11391 net.cpp:425] norm2 <- conv2
I0403 13:29:46.162438 11391 net.cpp:399] norm2 -> norm2
I0403 13:29:46.162703 11391 net.cpp:141] Setting up norm2
I0403 13:29:46.162729 11391 net.cpp:148] Top shape: 100 256 27 27 (18662400)
I0403 13:29:46.162746 11391 net.cpp:156] Memory required for data: 662258800
I0403 13:29:46.162762 11391 layer_factory.hpp:77] Creating layer pool2
I0403 13:29:46.162794 11391 net.cpp:91] Creating Layer pool2
I0403 13:29:46.162811 11391 net.cpp:425] pool2 <- norm2
I0403 13:29:46.162830 11391 net.cpp:399] pool2 -> pool2
I0403 13:29:46.162888 11391 net.cpp:141] Setting up pool2
I0403 13:29:46.162914 11391 net.cpp:148] Top shape: 100 256 13 13 (4326400)
I0403 13:29:46.162932 11391 net.cpp:156] Memory required for data: 679564400
I0403 13:29:46.162947 11391 layer_factory.hpp:77] Creating layer conv3
I0403 13:29:46.162972 11391 net.cpp:91] Creating Layer conv3
I0403 13:29:46.162992 11391 net.cpp:425] conv3 <- pool2
I0403 13:29:46.163012 11391 net.cpp:399] conv3 -> conv3
I0403 13:29:46.202096 11391 net.cpp:141] Setting up conv3
I0403 13:29:46.202162 11391 net.cpp:148] Top shape: 100 384 13 13 (6489600)
I0403 13:29:46.202179 11391 net.cpp:156] Memory required for data: 705522800
I0403 13:29:46.202204 11391 layer_factory.hpp:77] Creating layer relu3
I0403 13:29:46.202229 11391 net.cpp:91] Creating Layer relu3
I0403 13:29:46.202246 11391 net.cpp:425] relu3 <- conv3
I0403 13:29:46.202273 11391 net.cpp:386] relu3 -> conv3 (in-place)
I0403 13:29:46.202574 11391 net.cpp:141] Setting up relu3
I0403 13:29:46.202602 11391 net.cpp:148] Top shape: 100 384 13 13 (6489600)
I0403 13:29:46.202620 11391 net.cpp:156] Memory required for data: 731481200
I0403 13:29:46.202636 11391 layer_factory.hpp:77] Creating layer conv4
I0403 13:29:46.202664 11391 net.cpp:91] Creating Layer conv4
I0403 13:29:46.202683 11391 net.cpp:425] conv4 <- conv3
I0403 13:29:46.202707 11391 net.cpp:399] conv4 -> conv4
I0403 13:29:46.233131 11391 net.cpp:141] Setting up conv4
I0403 13:29:46.233196 11391 net.cpp:148] Top shape: 100 384 13 13 (6489600)
I0403 13:29:46.233238 11391 net.cpp:156] Memory required for data: 757439600
I0403 13:29:46.233260 11391 layer_factory.hpp:77] Creating layer relu4
I0403 13:29:46.233283 11391 net.cpp:91] Creating Layer relu4
I0403 13:29:46.233304 11391 net.cpp:425] relu4 <- conv4
I0403 13:29:46.233327 11391 net.cpp:386] relu4 -> conv4 (in-place)
I0403 13:29:46.233621 11391 net.cpp:141] Setting up relu4
I0403 13:29:46.233649 11391 net.cpp:148] Top shape: 100 384 13 13 (6489600)
I0403 13:29:46.233666 11391 net.cpp:156] Memory required for data: 783398000
I0403 13:29:46.233681 11391 layer_factory.hpp:77] Creating layer conv5
I0403 13:29:46.233708 11391 net.cpp:91] Creating Layer conv5
I0403 13:29:46.233727 11391 net.cpp:425] conv5 <- conv4
I0403 13:29:46.233749 11391 net.cpp:399] conv5 -> conv5
I0403 13:29:46.255287 11391 net.cpp:141] Setting up conv5
I0403 13:29:46.255370 11391 net.cpp:148] Top shape: 100 256 13 13 (4326400)
I0403 13:29:46.255388 11391 net.cpp:156] Memory required for data: 800703600
I0403 13:29:46.255414 11391 layer_factory.hpp:77] Creating layer relu5
I0403 13:29:46.255441 11391 net.cpp:91] Creating Layer relu5
I0403 13:29:46.255460 11391 net.cpp:425] relu5 <- conv5
I0403 13:29:46.255481 11391 net.cpp:386] relu5 -> conv5 (in-place)
I0403 13:29:46.255777 11391 net.cpp:141] Setting up relu5
I0403 13:29:46.255805 11391 net.cpp:148] Top shape: 100 256 13 13 (4326400)
I0403 13:29:46.255820 11391 net.cpp:156] Memory required for data: 818009200
I0403 13:29:46.255836 11391 layer_factory.hpp:77] Creating layer pool5
I0403 13:29:46.255861 11391 net.cpp:91] Creating Layer pool5
I0403 13:29:46.255879 11391 net.cpp:425] pool5 <- conv5
I0403 13:29:46.255897 11391 net.cpp:399] pool5 -> pool5
I0403 13:29:46.255962 11391 net.cpp:141] Setting up pool5
I0403 13:29:46.255985 11391 net.cpp:148] Top shape: 100 256 6 6 (921600)
I0403 13:29:46.256000 11391 net.cpp:156] Memory required for data: 821695600
I0403 13:29:46.256016 11391 layer_factory.hpp:77] Creating layer fc6
I0403 13:29:46.256044 11391 net.cpp:91] Creating Layer fc6
I0403 13:29:46.256062 11391 net.cpp:425] fc6 <- pool5
I0403 13:29:46.256081 11391 net.cpp:399] fc6 -> fc6
I0403 13:29:47.815981 11391 net.cpp:141] Setting up fc6
I0403 13:29:47.816026 11391 net.cpp:148] Top shape: 100 4096 (409600)
I0403 13:29:47.816042 11391 net.cpp:156] Memory required for data: 823334000
I0403 13:29:47.816063 11391 layer_factory.hpp:77] Creating layer relu6
I0403 13:29:47.816084 11391 net.cpp:91] Creating Layer relu6
I0403 13:29:47.816102 11391 net.cpp:425] relu6 <- fc6
I0403 13:29:47.816119 11391 net.cpp:386] relu6 -> fc6 (in-place)
I0403 13:29:47.816336 11391 net.cpp:141] Setting up relu6
I0403 13:29:47.816359 11391 net.cpp:148] Top shape: 100 4096 (409600)
I0403 13:29:47.816373 11391 net.cpp:156] Memory required for data: 824972400
I0403 13:29:47.816387 11391 layer_factory.hpp:77] Creating layer drop6
I0403 13:29:47.816406 11391 net.cpp:91] Creating Layer drop6
I0403 13:29:47.816419 11391 net.cpp:425] drop6 <- fc6
I0403 13:29:47.816437 11391 net.cpp:386] drop6 -> fc6 (in-place)
I0403 13:29:47.816488 11391 net.cpp:141] Setting up drop6
I0403 13:29:47.816511 11391 net.cpp:148] Top shape: 100 4096 (409600)
I0403 13:29:47.816526 11391 net.cpp:156] Memory required for data: 826610800
I0403 13:29:47.816540 11391 layer_factory.hpp:77] Creating layer fc7
I0403 13:29:47.816560 11391 net.cpp:91] Creating Layer fc7
I0403 13:29:47.816573 11391 net.cpp:425] fc7 <- fc6
I0403 13:29:47.816592 11391 net.cpp:399] fc7 -> fc7
I0403 13:29:48.500901 11391 net.cpp:141] Setting up fc7
I0403 13:29:48.500978 11391 net.cpp:148] Top shape: 100 4096 (409600)
I0403 13:29:48.500994 11391 net.cpp:156] Memory required for data: 828249200
I0403 13:29:48.501016 11391 layer_factory.hpp:77] Creating layer relu7
I0403 13:29:48.501037 11391 net.cpp:91] Creating Layer relu7
I0403 13:29:48.501055 11391 net.cpp:425] relu7 <- fc7
I0403 13:29:48.501077 11391 net.cpp:386] relu7 -> fc7 (in-place)
I0403 13:29:48.501482 11391 net.cpp:141] Setting up relu7
I0403 13:29:48.501508 11391 net.cpp:148] Top shape: 100 4096 (409600)
I0403 13:29:48.501566 11391 net.cpp:156] Memory required for data: 829887600
I0403 13:29:48.501581 11391 layer_factory.hpp:77] Creating layer drop7
I0403 13:29:48.501605 11391 net.cpp:91] Creating Layer drop7
I0403 13:29:48.501622 11391 net.cpp:425] drop7 <- fc7
I0403 13:29:48.501641 11391 net.cpp:386] drop7 -> fc7 (in-place)
I0403 13:29:48.501684 11391 net.cpp:141] Setting up drop7
I0403 13:29:48.501709 11391 net.cpp:148] Top shape: 100 4096 (409600)
I0403 13:29:48.501724 11391 net.cpp:156] Memory required for data: 831526000
I0403 13:29:48.501739 11391 layer_factory.hpp:77] Creating layer fc8_plantvillage
I0403 13:29:48.501757 11391 net.cpp:91] Creating Layer fc8_plantvillage
I0403 13:29:48.501771 11391 net.cpp:425] fc8_plantvillage <- fc7
I0403 13:29:48.501791 11391 net.cpp:399] fc8_plantvillage -> fc8_plantvillage
I0403 13:29:48.508505 11391 net.cpp:141] Setting up fc8_plantvillage
I0403 13:29:48.508533 11391 net.cpp:148] Top shape: 100 38 (3800)
I0403 13:29:48.508548 11391 net.cpp:156] Memory required for data: 831541200
I0403 13:29:48.508564 11391 layer_factory.hpp:77] Creating layer fc8_plantvillage_fc8_plantvillage_0_split
I0403 13:29:48.508585 11391 net.cpp:91] Creating Layer fc8_plantvillage_fc8_plantvillage_0_split
I0403 13:29:48.508606 11391 net.cpp:425] fc8_plantvillage_fc8_plantvillage_0_split <- fc8_plantvillage
I0403 13:29:48.508625 11391 net.cpp:399] fc8_plantvillage_fc8_plantvillage_0_split -> fc8_plantvillage_fc8_plantvillage_0_split_0
I0403 13:29:48.508644 11391 net.cpp:399] fc8_plantvillage_fc8_plantvillage_0_split -> fc8_plantvillage_fc8_plantvillage_0_split_1
I0403 13:29:48.508663 11391 net.cpp:399] fc8_plantvillage_fc8_plantvillage_0_split -> fc8_plantvillage_fc8_plantvillage_0_split_2
I0403 13:29:48.508744 11391 net.cpp:141] Setting up fc8_plantvillage_fc8_plantvillage_0_split
I0403 13:29:48.508769 11391 net.cpp:148] Top shape: 100 38 (3800)
I0403 13:29:48.508783 11391 net.cpp:148] Top shape: 100 38 (3800)
I0403 13:29:48.508798 11391 net.cpp:148] Top shape: 100 38 (3800)
I0403 13:29:48.508811 11391 net.cpp:156] Memory required for data: 831586800
I0403 13:29:48.508824 11391 layer_factory.hpp:77] Creating layer prob
I0403 13:29:48.508842 11391 net.cpp:91] Creating Layer prob
I0403 13:29:48.508857 11391 net.cpp:425] prob <- fc8_plantvillage_fc8_plantvillage_0_split_0
I0403 13:29:48.508875 11391 net.cpp:399] prob -> prob
I0403 13:29:48.509104 11391 net.cpp:141] Setting up prob
I0403 13:29:48.509129 11391 net.cpp:148] Top shape: 100 38 (3800)
I0403 13:29:48.509143 11391 net.cpp:156] Memory required for data: 831602000
I0403 13:29:48.509156 11391 layer_factory.hpp:77] Creating layer hdf5out
I0403 13:29:48.509176 11391 net.cpp:91] Creating Layer hdf5out
I0403 13:29:48.509191 11391 net.cpp:425] hdf5out <- prob
I0403 13:29:48.509207 11391 net.cpp:425] hdf5out <- label_data_1_split_0
I0403 13:29:48.511735 11391 net.cpp:141] Setting up hdf5out
…
