…
I0403 13:30:11.240066 11413 net.cpp:313] The NetState phase (1) differed from the phase (0) specified by a rule in layer data
I0403 13:30:11.240456 11413 net.cpp:49] Initializing net from parameters: 
state {
  phase: TEST
}
layer {
  name: "data"
  type: "Data"
  top: "data"
  top: "label"
  include {
    phase: TEST
  }
  transform_param {
    crop_size: 227
    mean_file: "/home/mohanty/data/final_dataset/lmdb/grayscale-80-20/mean.binaryproto"
  }
  data_param {
    source: "/home/mohanty/data/final_dataset/lmdb/grayscale-80-20/test_db"
    batch_size: 100
    backend: LMDB
  }
}
layer {
  name: "conv1"
  type: "Convolution"
  bottom: "data"
  top: "conv1"
  param {
    lr_mult: 1
    decay_mult: 1
  }
  param {
    lr_mult: 2
    decay_mult: 0
  }
  convolution_param {
    num_output: 96
    kernel_size: 11
    stride: 4
    weight_filler {
      type: "gaussian"
      std: 0.01
    }
    bias_filler {
      type: "constant"
      value: 0
    }
  }
}
layer {
  name: "relu1"
  type: "ReLU"
  bottom: "conv1"
  top: "conv1"
}
layer {
  name: "norm1"
  type: "LRN"
  bottom: "conv1"
  top: "norm1"
  lrn_param {
    local_size: 5
    alpha: 0.0001
    beta: 0.75
  }
}
layer {
  name: "pool1"
  type: "Pooling"
  bottom: "norm1"
  top: "pool1"
  pooling_param {
    pool: MAX
    kernel_size: 3
    stride: 2
  }
}
layer {
  name: "conv2"
  type: "Convolution"
  bottom: "pool1"
  top: "conv2"
  param {
    lr_mult: 1
    decay_mult: 1
  }
  param {
    lr_mult: 2
    decay_mult: 0
  }
  convolution_param {
    num_output: 256
    pad: 2
    kernel_size: 5
    group: 2
    weight_filler {
      type: "gaussian"
      std: 0.01
    }
    bias_filler {
      type: "constant"
      value: 0.1
    }
  }
}
layer {
  name: "relu2"
  type: "ReLU"
  bottom: "conv2"
  top: "conv2"
}
layer {
  name: "norm2"
  type: "LRN"
  bottom: "conv2"
  top: "norm2"
  lrn_param {
    local_size: 5
    alpha: 0.0001
    beta: 0.75
  }
}
layer {
  name: "pool2"
  type: "Pooling"
  bottom: "norm2"
  top: "pool2"
  pooling_param {
    pool: MAX
    kernel_size: 3
    stride: 2
  }
}
layer {
  name: "conv3"
  type: "Convolution"
  bottom: "pool2"
  top: "conv3"
  param {
    lr_mult: 1
    decay_mult: 1
  }
  param {
    lr_mult: 2
    decay_mult: 0
  }
  convolution_param {
    num_output: 384
    pad: 1
    kernel_size: 3
    weight_filler {
      type: "gaussian"
      std: 0.01
    }
    bias_filler {
      type: "constant"
      value: 0
    }
  }
}
layer {
  name: "relu3"
  type: "ReLU"
  bottom: "conv3"
  top: "conv3"
}
layer {
  name: "conv4"
  type: "Convolution"
  bottom: "conv3"
  top: "conv4"
  param {
    lr_mult: 1
    decay_mult: 1
  }
  param {
    lr_mult: 2
    decay_mult: 0
  }
  convolution_param {
    num_output: 384
    pad: 1
    kernel_size: 3
    group: 2
    weight_filler {
      type: "gaussian"
      std: 0.01
    }
    bias_filler {
      type: "constant"
      value: 0.1
    }
  }
}
layer {
  name: "relu4"
  type: "ReLU"
  bottom: "conv4"
  top: "conv4"
}
layer {
  name: "conv5"
  type: "Convolution"
  bottom: "conv4"
  top: "conv5"
  param {
    lr_mult: 1
    decay_mult: 1
  }
  param {
    lr_mult: 2
    decay_mult: 0
  }
  convolution_param {
    num_output: 256
    pad: 1
    kernel_size: 3
    group: 2
    weight_filler {
      type: "gaussian"
      std: 0.01
    }
    bias_filler {
      type: "constant"
      value: 0.1
    }
  }
}
layer {
  name: "relu5"
  type: "ReLU"
  bottom: "conv5"
  top: "conv5"
}
layer {
  name: "pool5"
  type: "Pooling"
  bottom: "conv5"
  top: "pool5"
  pooling_param {
    pool: MAX
    kernel_size: 3
    stride: 2
  }
}
layer {
  name: "fc6"
  type: "InnerProduct"
  bottom: "pool5"
  top: "fc6"
  param {
    lr_mult: 1
    decay_mult: 1
  }
  param {
    lr_mult: 2
    decay_mult: 0
  }
  inner_product_param {
    num_output: 4096
    weight_filler {
      type: "gaussian"
      std: 0.005
    }
    bias_filler {
      type: "constant"
      value: 0.1
    }
  }
}
layer {
  name: "relu6"
  type: "ReLU"
  bottom: "fc6"
  top: "fc6"
}
layer {
  name: "drop6"
  type: "Dropout"
  bottom: "fc6"
  top: "fc6"
  dropout_param {
    dropout_ratio: 0.5
  }
}
layer {
  name: "fc7"
  type: "InnerProduct"
  bottom: "fc6"
  top: "fc7"
  param {
    lr_mult: 1
    decay_mult: 1
  }
  param {
    lr_mult: 2
    decay_mult: 0
  }
  inner_product_param {
    num_output: 4096
    weight_filler {
      type: "gaussian"
      std: 0.005
    }
    bias_filler {
      type: "constant"
      value: 0.1
    }
  }
}
layer {
  name: "relu7"
  type: "ReLU"
  bottom: "fc7"
  top: "fc7"
}
layer {
  name: "drop7"
  type: "Dropout"
  bottom: "fc7"
  top: "fc7"
  dropout_param {
    dropout_ratio: 0.5
  }
}
layer {
  name: "fc8_plantvillage"
  type: "InnerProduct"
  bottom: "fc7"
  top: "fc8_plantvillage"
  param {
    lr_mult: 1
    decay_mult: 1
  }
  param {
    lr_mult: 2
    decay_mult: 0
  }
  inner_product_param {
    num_output: 38
    weight_filler {
      type: "gaussian"
      std: 0.01
    }
    bias_filler {
      type: "constant"
      value: 0
    }
  }
}
layer {
  name: "prob"
  type: "Softmax"
  bottom: "fc8_plantvillage"
  top: "prob"
  include {
    phase: TEST
  }
}
layer {
  name: "hdf5out"
  type: "HDF5Output"
  bottom: "prob"
  bottom: "label"
  include {
    phase: TEST
  }
  hdf5_output_param {
    file_name: "hdf5_dumps/iter_7412.h5"
  }
}
layer {
  name: "loss"
  type: "SoftmaxWithLoss"
  bottom: "fc8_plantvillage"
  bottom: "label"
  top: "loss"
}
layer {
  name: "accuracy"
  type: "Accuracy"
  bottom: "fc8_plantvillage"
  bottom: "label"
  top: "accuracy"
  include {
    phase: TEST
  }
}
I0403 13:30:11.241191 11413 layer_factory.hpp:77] Creating layer data
I0403 13:30:11.242010 11413 net.cpp:91] Creating Layer data
I0403 13:30:11.242048 11413 net.cpp:399] data -> data
I0403 13:30:11.242108 11413 net.cpp:399] data -> label
I0403 13:30:11.242151 11413 data_transformer.cpp:25] Loading mean file from: /home/mohanty/data/final_dataset/lmdb/grayscale-80-20/mean.binaryproto
I0403 13:30:11.245169 11417 db_lmdb.cpp:38] Opened lmdb /home/mohanty/data/final_dataset/lmdb/grayscale-80-20/test_db
I0403 13:30:11.258769 11413 data_layer.cpp:41] output data size: 100,3,227,227
I0403 13:30:11.393522 11413 net.cpp:141] Setting up data
I0403 13:30:11.393625 11413 net.cpp:148] Top shape: 100 3 227 227 (15458700)
I0403 13:30:11.393653 11413 net.cpp:148] Top shape: 100 (100)
I0403 13:30:11.393673 11413 net.cpp:156] Memory required for data: 61835200
I0403 13:30:11.393710 11413 layer_factory.hpp:77] Creating layer label_data_1_split
I0403 13:30:11.393748 11413 net.cpp:91] Creating Layer label_data_1_split
I0403 13:30:11.393771 11413 net.cpp:425] label_data_1_split <- label
I0403 13:30:11.393810 11413 net.cpp:399] label_data_1_split -> label_data_1_split_0
I0403 13:30:11.393844 11413 net.cpp:399] label_data_1_split -> label_data_1_split_1
I0403 13:30:11.393870 11413 net.cpp:399] label_data_1_split -> label_data_1_split_2
I0403 13:30:11.393950 11413 net.cpp:141] Setting up label_data_1_split
I0403 13:30:11.393980 11413 net.cpp:148] Top shape: 100 (100)
I0403 13:30:11.394001 11413 net.cpp:148] Top shape: 100 (100)
I0403 13:30:11.394021 11413 net.cpp:148] Top shape: 100 (100)
I0403 13:30:11.394040 11413 net.cpp:156] Memory required for data: 61836400
I0403 13:30:11.394060 11413 layer_factory.hpp:77] Creating layer conv1
I0403 13:30:11.394104 11413 net.cpp:91] Creating Layer conv1
I0403 13:30:11.394129 11413 net.cpp:425] conv1 <- data
I0403 13:30:11.394153 11413 net.cpp:399] conv1 -> conv1
I0403 13:30:11.570673 11413 net.cpp:141] Setting up conv1
I0403 13:30:11.570755 11413 net.cpp:148] Top shape: 100 96 55 55 (29040000)
I0403 13:30:11.570776 11413 net.cpp:156] Memory required for data: 177996400
I0403 13:30:11.570812 11413 layer_factory.hpp:77] Creating layer relu1
I0403 13:30:11.570844 11413 net.cpp:91] Creating Layer relu1
I0403 13:30:11.570866 11413 net.cpp:425] relu1 <- conv1
I0403 13:30:11.570889 11413 net.cpp:386] relu1 -> conv1 (in-place)
I0403 13:30:11.571202 11413 net.cpp:141] Setting up relu1
I0403 13:30:11.571234 11413 net.cpp:148] Top shape: 100 96 55 55 (29040000)
I0403 13:30:11.571285 11413 net.cpp:156] Memory required for data: 294156400
I0403 13:30:11.571303 11413 layer_factory.hpp:77] Creating layer norm1
I0403 13:30:11.571336 11413 net.cpp:91] Creating Layer norm1
I0403 13:30:11.571357 11413 net.cpp:425] norm1 <- conv1
I0403 13:30:11.571379 11413 net.cpp:399] norm1 -> norm1
I0403 13:30:11.571753 11413 net.cpp:141] Setting up norm1
I0403 13:30:11.571786 11413 net.cpp:148] Top shape: 100 96 55 55 (29040000)
I0403 13:30:11.571805 11413 net.cpp:156] Memory required for data: 410316400
I0403 13:30:11.571823 11413 layer_factory.hpp:77] Creating layer pool1
I0403 13:30:11.571851 11413 net.cpp:91] Creating Layer pool1
I0403 13:30:11.571872 11413 net.cpp:425] pool1 <- norm1
I0403 13:30:11.571893 11413 net.cpp:399] pool1 -> pool1
I0403 13:30:11.571972 11413 net.cpp:141] Setting up pool1
I0403 13:30:11.572000 11413 net.cpp:148] Top shape: 100 96 27 27 (6998400)
I0403 13:30:11.572017 11413 net.cpp:156] Memory required for data: 438310000
I0403 13:30:11.572036 11413 layer_factory.hpp:77] Creating layer conv2
I0403 13:30:11.572064 11413 net.cpp:91] Creating Layer conv2
I0403 13:30:11.572084 11413 net.cpp:425] conv2 <- pool1
I0403 13:30:11.572105 11413 net.cpp:399] conv2 -> conv2
I0403 13:30:11.590030 11413 net.cpp:141] Setting up conv2
I0403 13:30:11.590101 11413 net.cpp:148] Top shape: 100 256 27 27 (18662400)
I0403 13:30:11.590123 11413 net.cpp:156] Memory required for data: 512959600
I0403 13:30:11.590155 11413 layer_factory.hpp:77] Creating layer relu2
I0403 13:30:11.590184 11413 net.cpp:91] Creating Layer relu2
I0403 13:30:11.590207 11413 net.cpp:425] relu2 <- conv2
I0403 13:30:11.590231 11413 net.cpp:386] relu2 -> conv2 (in-place)
I0403 13:30:11.590556 11413 net.cpp:141] Setting up relu2
I0403 13:30:11.590596 11413 net.cpp:148] Top shape: 100 256 27 27 (18662400)
I0403 13:30:11.590616 11413 net.cpp:156] Memory required for data: 587609200
I0403 13:30:11.590636 11413 layer_factory.hpp:77] Creating layer norm2
I0403 13:30:11.590667 11413 net.cpp:91] Creating Layer norm2
I0403 13:30:11.590688 11413 net.cpp:425] norm2 <- conv2
I0403 13:30:11.590713 11413 net.cpp:399] norm2 -> norm2
I0403 13:30:11.590945 11413 net.cpp:141] Setting up norm2
I0403 13:30:11.590980 11413 net.cpp:148] Top shape: 100 256 27 27 (18662400)
I0403 13:30:11.590999 11413 net.cpp:156] Memory required for data: 662258800
I0403 13:30:11.591019 11413 layer_factory.hpp:77] Creating layer pool2
I0403 13:30:11.591045 11413 net.cpp:91] Creating Layer pool2
I0403 13:30:11.591066 11413 net.cpp:425] pool2 <- norm2
I0403 13:30:11.591089 11413 net.cpp:399] pool2 -> pool2
I0403 13:30:11.591153 11413 net.cpp:141] Setting up pool2
I0403 13:30:11.591181 11413 net.cpp:148] Top shape: 100 256 13 13 (4326400)
I0403 13:30:11.591200 11413 net.cpp:156] Memory required for data: 679564400
I0403 13:30:11.591218 11413 layer_factory.hpp:77] Creating layer conv3
I0403 13:30:11.591248 11413 net.cpp:91] Creating Layer conv3
I0403 13:30:11.591269 11413 net.cpp:425] conv3 <- pool2
I0403 13:30:11.591294 11413 net.cpp:399] conv3 -> conv3
I0403 13:30:11.637008 11413 net.cpp:141] Setting up conv3
I0403 13:30:11.637079 11413 net.cpp:148] Top shape: 100 384 13 13 (6489600)
I0403 13:30:11.637100 11413 net.cpp:156] Memory required for data: 705522800
I0403 13:30:11.637133 11413 layer_factory.hpp:77] Creating layer relu3
I0403 13:30:11.637161 11413 net.cpp:91] Creating Layer relu3
I0403 13:30:11.637182 11413 net.cpp:425] relu3 <- conv3
I0403 13:30:11.637213 11413 net.cpp:386] relu3 -> conv3 (in-place)
I0403 13:30:11.637540 11413 net.cpp:141] Setting up relu3
I0403 13:30:11.637579 11413 net.cpp:148] Top shape: 100 384 13 13 (6489600)
I0403 13:30:11.637599 11413 net.cpp:156] Memory required for data: 731481200
I0403 13:30:11.637619 11413 layer_factory.hpp:77] Creating layer conv4
I0403 13:30:11.637650 11413 net.cpp:91] Creating Layer conv4
I0403 13:30:11.637671 11413 net.cpp:425] conv4 <- conv3
I0403 13:30:11.637696 11413 net.cpp:399] conv4 -> conv4
I0403 13:30:11.673197 11413 net.cpp:141] Setting up conv4
I0403 13:30:11.673267 11413 net.cpp:148] Top shape: 100 384 13 13 (6489600)
I0403 13:30:11.673317 11413 net.cpp:156] Memory required for data: 757439600
I0403 13:30:11.673346 11413 layer_factory.hpp:77] Creating layer relu4
I0403 13:30:11.673377 11413 net.cpp:91] Creating Layer relu4
I0403 13:30:11.673403 11413 net.cpp:425] relu4 <- conv4
I0403 13:30:11.673427 11413 net.cpp:386] relu4 -> conv4 (in-place)
I0403 13:30:11.673774 11413 net.cpp:141] Setting up relu4
I0403 13:30:11.673809 11413 net.cpp:148] Top shape: 100 384 13 13 (6489600)
I0403 13:30:11.673828 11413 net.cpp:156] Memory required for data: 783398000
I0403 13:30:11.673848 11413 layer_factory.hpp:77] Creating layer conv5
I0403 13:30:11.673882 11413 net.cpp:91] Creating Layer conv5
I0403 13:30:11.673902 11413 net.cpp:425] conv5 <- conv4
I0403 13:30:11.673930 11413 net.cpp:399] conv5 -> conv5
I0403 13:30:11.698680 11413 net.cpp:141] Setting up conv5
I0403 13:30:11.698776 11413 net.cpp:148] Top shape: 100 256 13 13 (4326400)
I0403 13:30:11.698799 11413 net.cpp:156] Memory required for data: 800703600
I0403 13:30:11.698832 11413 layer_factory.hpp:77] Creating layer relu5
I0403 13:30:11.698876 11413 net.cpp:91] Creating Layer relu5
I0403 13:30:11.698902 11413 net.cpp:425] relu5 <- conv5
I0403 13:30:11.698928 11413 net.cpp:386] relu5 -> conv5 (in-place)
I0403 13:30:11.699273 11413 net.cpp:141] Setting up relu5
I0403 13:30:11.699309 11413 net.cpp:148] Top shape: 100 256 13 13 (4326400)
I0403 13:30:11.699329 11413 net.cpp:156] Memory required for data: 818009200
I0403 13:30:11.699347 11413 layer_factory.hpp:77] Creating layer pool5
I0403 13:30:11.699373 11413 net.cpp:91] Creating Layer pool5
I0403 13:30:11.699393 11413 net.cpp:425] pool5 <- conv5
I0403 13:30:11.699417 11413 net.cpp:399] pool5 -> pool5
I0403 13:30:11.699491 11413 net.cpp:141] Setting up pool5
I0403 13:30:11.699522 11413 net.cpp:148] Top shape: 100 256 6 6 (921600)
I0403 13:30:11.699542 11413 net.cpp:156] Memory required for data: 821695600
I0403 13:30:11.699560 11413 layer_factory.hpp:77] Creating layer fc6
I0403 13:30:11.699600 11413 net.cpp:91] Creating Layer fc6
I0403 13:30:11.699622 11413 net.cpp:425] fc6 <- pool5
I0403 13:30:11.699646 11413 net.cpp:399] fc6 -> fc6
I0403 13:30:13.269243 11413 net.cpp:141] Setting up fc6
I0403 13:30:13.269285 11413 net.cpp:148] Top shape: 100 4096 (409600)
I0403 13:30:13.269300 11413 net.cpp:156] Memory required for data: 823334000
I0403 13:30:13.269320 11413 layer_factory.hpp:77] Creating layer relu6
I0403 13:30:13.269356 11413 net.cpp:91] Creating Layer relu6
I0403 13:30:13.269373 11413 net.cpp:425] relu6 <- fc6
I0403 13:30:13.269392 11413 net.cpp:386] relu6 -> fc6 (in-place)
I0403 13:30:13.269611 11413 net.cpp:141] Setting up relu6
I0403 13:30:13.269637 11413 net.cpp:148] Top shape: 100 4096 (409600)
I0403 13:30:13.269654 11413 net.cpp:156] Memory required for data: 824972400
I0403 13:30:13.269666 11413 layer_factory.hpp:77] Creating layer drop6
I0403 13:30:13.269685 11413 net.cpp:91] Creating Layer drop6
I0403 13:30:13.269700 11413 net.cpp:425] drop6 <- fc6
I0403 13:30:13.269716 11413 net.cpp:386] drop6 -> fc6 (in-place)
I0403 13:30:13.269767 11413 net.cpp:141] Setting up drop6
I0403 13:30:13.269788 11413 net.cpp:148] Top shape: 100 4096 (409600)
I0403 13:30:13.269800 11413 net.cpp:156] Memory required for data: 826610800
I0403 13:30:13.269814 11413 layer_factory.hpp:77] Creating layer fc7
I0403 13:30:13.269835 11413 net.cpp:91] Creating Layer fc7
I0403 13:30:13.269850 11413 net.cpp:425] fc7 <- fc6
I0403 13:30:13.269867 11413 net.cpp:399] fc7 -> fc7
I0403 13:30:13.957465 11413 net.cpp:141] Setting up fc7
I0403 13:30:13.957541 11413 net.cpp:148] Top shape: 100 4096 (409600)
I0403 13:30:13.957557 11413 net.cpp:156] Memory required for data: 828249200
I0403 13:30:13.957581 11413 layer_factory.hpp:77] Creating layer relu7
I0403 13:30:13.957605 11413 net.cpp:91] Creating Layer relu7
I0403 13:30:13.957623 11413 net.cpp:425] relu7 <- fc7
I0403 13:30:13.957641 11413 net.cpp:386] relu7 -> fc7 (in-place)
I0403 13:30:13.958029 11413 net.cpp:141] Setting up relu7
I0403 13:30:13.958056 11413 net.cpp:148] Top shape: 100 4096 (409600)
I0403 13:30:13.958111 11413 net.cpp:156] Memory required for data: 829887600
I0403 13:30:13.958127 11413 layer_factory.hpp:77] Creating layer drop7
I0403 13:30:13.958144 11413 net.cpp:91] Creating Layer drop7
I0403 13:30:13.958159 11413 net.cpp:425] drop7 <- fc7
I0403 13:30:13.958176 11413 net.cpp:386] drop7 -> fc7 (in-place)
I0403 13:30:13.958220 11413 net.cpp:141] Setting up drop7
I0403 13:30:13.958242 11413 net.cpp:148] Top shape: 100 4096 (409600)
I0403 13:30:13.958256 11413 net.cpp:156] Memory required for data: 831526000
I0403 13:30:13.958271 11413 layer_factory.hpp:77] Creating layer fc8_plantvillage
I0403 13:30:13.958292 11413 net.cpp:91] Creating Layer fc8_plantvillage
I0403 13:30:13.958308 11413 net.cpp:425] fc8_plantvillage <- fc7
I0403 13:30:13.958325 11413 net.cpp:399] fc8_plantvillage -> fc8_plantvillage
I0403 13:30:13.965029 11413 net.cpp:141] Setting up fc8_plantvillage
I0403 13:30:13.965055 11413 net.cpp:148] Top shape: 100 38 (3800)
I0403 13:30:13.965070 11413 net.cpp:156] Memory required for data: 831541200
I0403 13:30:13.965088 11413 layer_factory.hpp:77] Creating layer fc8_plantvillage_fc8_plantvillage_0_split
I0403 13:30:13.965107 11413 net.cpp:91] Creating Layer fc8_plantvillage_fc8_plantvillage_0_split
I0403 13:30:13.965122 11413 net.cpp:425] fc8_plantvillage_fc8_plantvillage_0_split <- fc8_plantvillage
I0403 13:30:13.965142 11413 net.cpp:399] fc8_plantvillage_fc8_plantvillage_0_split -> fc8_plantvillage_fc8_plantvillage_0_split_0
I0403 13:30:13.965162 11413 net.cpp:399] fc8_plantvillage_fc8_plantvillage_0_split -> fc8_plantvillage_fc8_plantvillage_0_split_1
I0403 13:30:13.965183 11413 net.cpp:399] fc8_plantvillage_fc8_plantvillage_0_split -> fc8_plantvillage_fc8_plantvillage_0_split_2
I0403 13:30:13.965260 11413 net.cpp:141] Setting up fc8_plantvillage_fc8_plantvillage_0_split
I0403 13:30:13.965282 11413 net.cpp:148] Top shape: 100 38 (3800)
I0403 13:30:13.965297 11413 net.cpp:148] Top shape: 100 38 (3800)
I0403 13:30:13.965312 11413 net.cpp:148] Top shape: 100 38 (3800)
I0403 13:30:13.965325 11413 net.cpp:156] Memory required for data: 831586800
I0403 13:30:13.965339 11413 layer_factory.hpp:77] Creating layer prob
I0403 13:30:13.965359 11413 net.cpp:91] Creating Layer prob
I0403 13:30:13.965375 11413 net.cpp:425] prob <- fc8_plantvillage_fc8_plantvillage_0_split_0
I0403 13:30:13.965392 11413 net.cpp:399] prob -> prob
I0403 13:30:13.965625 11413 net.cpp:141] Setting up prob
I0403 13:30:13.965651 11413 net.cpp:148] Top shape: 100 38 (3800)
I0403 13:30:13.965667 11413 net.cpp:156] Memory required for data: 831602000
I0403 13:30:13.965680 11413 layer_factory.hpp:77] Creating layer hdf5out
I0403 13:30:13.965699 11413 net.cpp:91] Creating Layer hdf5out
I0403 13:30:13.965714 11413 net.cpp:425] hdf5out <- prob
I0403 13:30:13.965730 11413 net.cpp:425] hdf5out <- label_data_1_split_0
I0403 13:30:13.968250 11413 net.cpp:141] Setting up hdf5out
…
