…
I0403 15:14:50.604807 31354 net.cpp:313] The NetState phase (1) differed from the phase (0) specified by a rule in layer data
I0403 15:14:50.605989 31354 net.cpp:49] Initializing net from parameters: 
state {
  phase: TEST
}
layer {
  name: "data"
  type: "Data"
  top: "data"
  top: "label"
  include {
    phase: TEST
  }
  transform_param {
    mirror: false
    crop_size: 224
    mean_file: "/home/mohanty/data/final_dataset/lmdb/color-60-40/mean.binaryproto"
  }
  data_param {
    source: "/home/mohanty/data/final_dataset/lmdb/color-60-40/test_db"
    batch_size: 24
    backend: LMDB
  }
}
layer {
  name: "conv1/7x7_s2"
  type: "Convolution"
  bottom: "data"
  top: "conv1/7x7_s2"
  param {
    lr_mult: 1
    decay_mult: 1
  }
  param {
    lr_mult: 2
    decay_mult: 0
  }
  convolution_param {
    num_output: 64
    pad: 3
    kernel_size: 7
    stride: 2
    weight_filler {
      type: "xavier"
      std: 0.1
    }
    bias_filler {
      type: "constant"
      value: 0.2
    }
  }
}
layer {
  name: "conv1/relu_7x7"
  type: "ReLU"
  bottom: "conv1/7x7_s2"
  top: "conv1/7x7_s2"
}
layer {
  name: "pool1/3x3_s2"
  type: "Pooling"
  bottom: "conv1/7x7_s2"
  top: "pool1/3x3_s2"
  pooling_param {
    pool: MAX
    kernel_size: 3
    stride: 2
  }
}
layer {
  name: "pool1/norm1"
  type: "LRN"
  bottom: "pool1/3x3_s2"
  top: "pool1/norm1"
  lrn_param {
    local_size: 5
    alpha: 0.0001
    beta: 0.75
  }
}
layer {
  name: "conv2/3x3_reduce"
  type: "Convolution"
  bottom: "pool1/norm1"
  top: "conv2/3x3_reduce"
  param {
    lr_mult: 1
    decay_mult: 1
  }
  param {
    lr_mult: 2
    decay_mult: 0
  }
  convolution_param {
    num_output: 64
    kernel_size: 1
    weight_filler {
      type: "xavier"
      std: 0.1
    }
    bias_filler {
      type: "constant"
      value: 0.2
    }
  }
}
layer {
  name: "conv2/relu_3x3_reduce"
  type: "ReLU"
  bottom: "conv2/3x3_reduce"
  top: "conv2/3x3_reduce"
}
layer {
  name: "conv2/3x3"
  type: "Convolution"
  bottom: "conv2/3x3_reduce"
  top: "conv2/3x3"
  param {
    lr_mult: 1
    decay_mult: 1
  }
  param {
    lr_mult: 2
    decay_mult: 0
  }
  convolution_param {
    num_output: 192
    pad: 1
    kernel_size: 3
    weight_filler {
      type: "xavier"
      std: 0.03
    }
    bias_filler {
      type: "constant"
      value: 0.2
    }
  }
}
layer {
  name: "conv2/relu_3x3"
  type: "ReLU"
  bottom: "conv2/3x3"
  top: "conv2/3x3"
}
layer {
  name: "conv2/norm2"
  type: "LRN"
  bottom: "conv2/3x3"
  top: "conv2/norm2"
  lrn_param {
    local_size: 5
    alpha: 0.0001
    beta: 0.75
  }
}
layer {
  name: "pool2/3x3_s2"
  type: "Pooling"
  bottom: "conv2/norm2"
  top: "pool2/3x3_s2"
  pooling_param {
    pool: MAX
    kernel_size: 3
    stride: 2
  }
}
layer {
  name: "inception_3a/1x1"
  type: "Convolution"
  bottom: "pool2/3x3_s2"
  top: "inception_3a/1x1"
  param {
    lr_mult: 1
    decay_mult: 1
  }
  param {
    lr_mult: 2
    decay_mult: 0
  }
  convolution_param {
    num_output: 64
    kernel_size: 1
    weight_filler {
      type: "xavier"
      std: 0.03
    }
    bias_filler {
      type: "constant"
      value: 0.2
    }
  }
}
layer {
  name: "inception_3a/relu_1x1"
  type: "ReLU"
  bottom: "inception_3a/1x1"
  top: "inception_3a/1x1"
}
layer {
  name: "inception_3a/3x3_reduce"
  type: "Convolution"
  bottom: "pool2/3x3_s2"
  top: "inception_3a/3x3_reduce"
  param {
    lr_mult: 1
    decay_mult: 1
  }
  param {
    lr_mult: 2
    decay_mult: 0
  }
  convolution_param {
    num_output: 96
    kernel_size: 1
    weight_filler {
      type: "xavier"
      std: 0.09
    }
    bias_filler {
      type: "constant"
      value: 0.2
    }
  }
}
layer {
  name: "inception_3a/relu_3x3_reduce"
  type: "ReLU"
  bottom: "inception_3a/3x3_reduce"
  top: "inception_3a/3x3_reduce"
}
layer {
  name: "inception_3a/3x3"
  type: "Convolution"
  bottom: "inception_3a/3x3_reduce"
  top: "inception_3a/3x3"
  param {
    lr_mult: 1
    decay_mult: 1
  }
  param {
    lr_mult: 2
    decay_mult: 0
  }
  convolution_param {
    num_output: 128
    pad: 1
    kernel_size: 3
    weight_filler {
      type: "xavier"
      std: 0.03
    }
    bias_filler {
      type: "constant"
      value: 0.2
    }
  }
}
layer {
  name: "inception_3a/relu_3x3"
  type: "ReLU"
  bottom: "inception_3a/3x3"
  top: "inception_3a/3x3"
}
layer {
  name: "inception_3a/5x5_reduce"
  type: "Convolution"
  bottom: "pool2/3x3_s2"
  top: "inception_3a/5x5_reduce"
  param {
    lr_mult: 1
    decay_mult: 1
  }
  param {
    lr_mult: 2
    decay_mult: 0
  }
  convolution_param {
    num_output: 16
    kernel_size: 1
    weight_filler {
      type: "xavier"
      std: 0.2
    }
    bias_filler {
      type: "constant"
      value: 0.2
    }
  }
}
layer {
  name: "inception_3a/relu_5x5_reduce"
  type: "ReLU"
  bottom: "inception_3a/5x5_reduce"
  top: "inception_3a/5x5_reduce"
}
layer {
  name: "inception_3a/5x5"
  type: "Convolution"
  bottom: "inception_3a/5x5_reduce"
  top: "inception_3a/5x5"
  param {
    lr_mult: 1
    decay_mult: 1
  }
  param {
    lr_mult: 2
    decay_mult: 0
  }
  convolution_param {
    num_output: 32
    pad: 2
    kernel_size: 5
    weight_filler {
      type: "xavier"
      std: 0.03
    }
    bias_filler {
      type: "constant"
      value: 0.2
    }
  }
}
layer {
  name: "inception_3a/relu_5x5"
  type: "ReLU"
  bottom: "inception_3a/5x5"
  top: "inception_3a/5x5"
}
layer {
  name: "inception_3a/pool"
  type: "Pooling"
  bottom: "pool2/3x3_s2"
  top: "inception_3a/pool"
  pooling_param {
    pool: MAX
    kernel_size: 3
    stride: 1
    pad: 1
  }
}
layer {
  name: "inception_3a/pool_proj"
  type: "Convolution"
  bottom: "inception_3a/pool"
  top: "inception_3a/pool_proj"
  param {
    lr_mult: 1
    decay_mult: 1
  }
  param {
    lr_mult: 2
    decay_mult: 0
  }
  convolution_param {
    num_output: 32
    kernel_size: 1
    weight_filler {
      type: "xavier"
      std: 0.1
    }
    bias_filler {
      type: "constant"
      value: 0.2
    }
  }
}
layer {
  name: "inception_3a/relu_pool_proj"
  type: "ReLU"
  bottom: "inception_3a/pool_proj"
  top: "inception_3a/pool_proj"
}
layer {
  name: "inception_3a/output"
  type: "Concat"
  bottom: "inception_3a/1x1"
  bottom: "inception_3a/3x3"
  bottom: "inception_3a/5x5"
  bottom: "inception_3a/pool_proj"
  top: "inception_3a/output"
}
layer {
  name: "inception_3b/1x1"
  type: "Convolution"
  bottom: "inception_3a/output"
  top: "inception_3b/1x1"
  param {
    lr_mult: 1
    decay_mult: 1
  }
  param {
    lr_mult: 2
    decay_mult: 0
  }
  convolution_param {
    num_output: 128
    kernel_size: 1
    weight_filler {
      type: "xavier"
      std: 0.03
    }
    bias_filler {
      type: "constant"
      value: 0.2
    }
  }
}
layer {
  name: "inception_3b/relu_1x1"
  type: "ReLU"
  bottom: "inception_3b/1x1"
  top: "inception_3b/1x1"
}
layer {
  name: "inception_3b/3x3_reduce"
  type: "Convolution"
  bottom: "inception_3a/output"
  top: "inception_3b/3x3_reduce"
  param {
    lr_mult: 1
    decay_mult: 1
  }
  param {
    lr_mult: 2
    decay_mult: 0
  }
  convolution_param {
    num_output: 128
    kernel_size: 1
    weight_filler {
      type: "xavier"
      std: 0.09
    }
    bias_filler {
      type: "constant"
      value: 0.2
    }
  }
}
layer {
  name: "inception_3b/relu_3x3_reduce"
  type: "ReLU"
  bottom: "inception_3b/3x3_reduce"
  top: "inception_3b/3x3_reduce"
}
layer {
  name: "inception_3b/3x3"
  type: "Convolution"
  bottom: "inception_3b/3x3_reduce"
  top: "inception_3b/3x3"
  param {
    lr_mult: 1
    decay_mult: 1
  }
  param {
    lr_mult: 2
    decay_mult: 0
  }
  convolution_param {
    num_output: 192
    pad: 1
    kernel_size: 3
    weight_filler {
      type: "xavier"
      std: 0.03
    }
    bias_filler {
      type: "constant"
      value: 0.2
    }
  }
}
layer {
  name: "inception_3b/relu_3x3"
  type: "ReLU"
  bottom: "inception_3b/3x3"
  top: "inception_3b/3x3"
}
layer {
  name: "inception_3b/5x5_reduce"
  type: "Convolution"
  bottom: "inception_3a/output"
  top: "inception_3b/5x5_reduce"
  param {
    lr_mult: 1
    decay_mult: 1
  }
  param {
    lr_mult: 2
    decay_mult: 0
  }
  convolution_param {
    num_output: 32
    kernel_size: 1
    weight_filler {
      type: "xavier"
      std: 0.2
    }
    bias_filler {
      type: "constant"
      value: 0.2
    }
  }
}
layer {
  name: "inception_3b/relu_5x5_reduce"
  type: "ReLU"
  bottom: "inception_3b/5x5_reduce"
  top: "inception_3b/5x5_reduce"
}
layer {
  name: "inception_3b/5x5"
  type: "Convolution"
  bottom: "inception_3b/5x5_reduce"
  top: "inception_3b/5x5"
  param {
    lr_mult: 1
    decay_mult: 1
  }
  param {
    lr_mult: 2
    decay_mult: 0
  }
  convolution_param {
    num_output: 96
    pad: 2
    kernel_size: 5
    weight_filler {
      type: "xavier"
      std: 0.03
    }
    bias_filler {
      type: "constant"
      value: 0.2
    }
  }
}
layer {
  name: "inception_3b/relu_5x5"
  type: "ReLU"
  bottom: "inception_3b/5x5"
  top: "inception_3b/5x5"
}
layer {
  name: "inception_3b/pool"
  type: "Pooling"
  bottom: "inception_3a/output"
  top: "inception_3b/pool"
  pooling_param {
    pool: MAX
    kernel_size: 3
    stride: 1
    pad: 1
  }
}
layer {
  name: "inception_3b/pool_proj"
  type: "Convolution"
  bottom: "inception_3b/pool"
  top: "inception_3b/pool_proj"
  param {
    lr_mult: 1
    decay_mult: 1
  }
  param {
    lr_mult: 2
    decay_mult: 0
  }
  convolution_param {
    num_output: 64
    kernel_size: 1
    weight_filler {
      type: "xavier"
      std: 0.1
    }
    bias_filler {
      type: "constant"
      value: 0.2
    }
  }
}
layer {
  name: "inception_3b/relu_pool_proj"
  type: "ReLU"
  bottom: "inception_3b/pool_proj"
  top: "inception_3b/pool_proj"
}
layer {
  name: "inception_3b/output"
  type: "Concat"
  bottom: "inception_3b/1x1"
  bottom: "inception_3b/3x3"
  bottom: "inception_3b/5x5"
  bottom: "inception_3b/pool_proj"
  top: "inception_3b/output"
}
layer {
  name: "pool3/3x3_s2"
  type: "Pooling"
  bottom: "inception_3b/output"
  top: "pool3/3x3_s2"
  pooling_param {
    pool: MAX
    kernel_size: 3
    stride: 2
  }
}
layer {
  name: "inception_4a/1x1"
  type: "Convolution"
  bottom: "pool3/3x3_s2"
  top: "inception_4a/1x1"
  param {
    lr_mult: 1
    decay_mult: 1
  }
  param {
    lr_mult: 2
    decay_mult: 0
  }
  convolution_param {
    num_output: 192
    kernel_size: 1
    weight_filler {
      type: "xavier"
      std: 0.03
    }
    bias_filler {
      type: "constant"
      value: 0.2
    }
  }
}
layer {
  name: "inception_4a/relu_1x1"
  type: "ReLU"
  bottom: "inception_4a/1x1"
  top: "inception_4a/1x1"
}
layer {
  name: "inception_4a/3x3_reduce"
  type: "Convolution"
  bottom: "pool3/3x3_s2"
  top: "inception_4a/3x3_reduce"
  param {
    lr_mult: 1
    decay_mult: 1
  }
  param {
    lr_mult: 2
    decay_mult: 0
  }
  convolution_param {
    num_output: 96
    kernel_size: 1
    weight_filler {
      type: "xavier"
      std: 0.09
    }
    bias_filler {
      type: "constant"
      value: 0.2
    }
  }
}
layer {
  name: "inception_4a/relu_3x3_reduce"
  type: "ReLU"
  bottom: "inception_4a/3x3_reduce"
  top: "inception_4a/3x3_reduce"
}
layer {
  name: "inception_4a/3x3"
  type: "Convolution"
  bottom: "inception_4a/3x3_reduce"
  top: "inception_4a/3x3"
  param {
    lr_mult: 1
    decay_mult: 1
  }
  param {
    lr_mult: 2
    decay_mult: 0
  }
  convolution_param {
    num_output: 208
    pad: 1
    kernel_size: 3
    weight_filler {
      type: "xavier"
      std: 0.03
    }
    bias_filler {
      type: "constant"
      value: 0.2
    }
  }
}
layer {
  name: "inception_4a/relu_3x3"
  type: "ReLU"
  bottom: "inception_4a/3x3"
  top: "inception_4a/3x3"
}
layer {
  name: "inception_4a/5x5_reduce"
  type: "Convolution"
  bottom: "pool3/3x3_s2"
  top: "inception_4a/5x5_reduce"
  param {
    lr_mult: 1
    decay_mult: 1
  }
  param {
    lr_mult: 2
    decay_mult: 0
  }
  convolution_param {
    num_output: 16
    kernel_size: 1
    weight_filler {
      type: "xavier"
      std: 0.2
    }
    bias_filler {
      type: "constant"
      value: 0.2
    }
  }
}
layer {
  name: "inception_4a/relu_5x5_reduce"
  type: "ReLU"
  bottom: "inception_4a/5x5_reduce"
  top: "inception_4a/5x5_reduce"
}
layer {
  name: "inception_4a/5x5"
  type: "Convolution"
  bottom: "inception_4a/5x5_reduce"
  top: "inception_4a/5x5"
  param {
    lr_mult: 1
    decay_mult: 1
  }
  param {
    lr_mult: 2
    decay_mult: 0
  }
  convolution_param {
    num_output: 48
    pad: 2
    kernel_size: 5
    weight_filler {
      type: "xavier"
      std: 0.03
    }
    bias_filler {
      type: "constant"
      value: 0.2
    }
  }
}
layer {
  name: "inception_4a/relu_5x5"
  type: "ReLU"
  bottom: "inception_4a/5x5"
  top: "inception_4a/5x5"
}
layer {
  name: "inception_4a/pool"
  type: "Pooling"
  bottom: "pool3/3x3_s2"
  top: "inception_4a/pool"
  pooling_param {
    pool: MAX
    kernel_size: 3
    stride: 1
    pad: 1
  }
}
layer {
  name: "inception_4a/pool_proj"
  type: "Convolution"
  bottom: "inception_4a/pool"
  top: "inception_4a/pool_proj"
  param {
    lr_mult: 1
    decay_mult: 1
  }
  param {
    lr_mult: 2
    decay_mult: 0
  }
  convolution_param {
    num_output: 64
    kernel_size: 1
    weight_filler {
      type: "xavier"
      std: 0.1
    }
    bias_filler {
      type: "constant"
      value: 0.2
    }
  }
}
layer {
  name: "inception_4a/relu_pool_proj"
  type: "ReLU"
  bottom: "inception_4a/pool_proj"
  top: "inception_4a/pool_proj"
}
layer {
  name: "inception_4a/output"
  type: "Concat"
  bottom: "inception_4a/1x1"
  bottom: "inception_4a/3x3"
  bottom: "inception_4a/5x5"
  bottom: "inception_4a/pool_proj"
  top: "inception_4a/output"
}
layer {
  name: "loss1/ave_pool"
  type: "Pooling"
  bottom: "inception_4a/output"
  top: "loss1/ave_pool"
  pooling_param {
    pool: AVE
    kernel_size: 5
    stride: 3
  }
}
layer {
  name: "loss1/conv"
  type: "Convolution"
  bottom: "loss1/ave_pool"
  top: "loss1/conv"
  param {
    lr_mult: 1
    decay_mult: 1
  }
  param {
    lr_mult: 2
    decay_mult: 0
  }
  convolution_param {
    num_output: 128
    kernel_size: 1
    weight_filler {
      type: "xavier"
      std: 0.08
    }
    bias_filler {
      type: "constant"
      value: 0.2
    }
  }
}
layer {
  name: "loss1/relu_conv"
  type: "ReLU"
  bottom: "loss1/conv"
  top: "loss1/conv"
}
layer {
  name: "loss1/fc"
  type: "InnerProduct"
  bottom: "loss1/conv"
  top: "loss1/fc"
  param {
    lr_mult: 1
    decay_mult: 1
  }
  param {
    lr_mult: 2
    decay_mult: 0
  }
  inner_product_param {
    num_output: 1024
    weight_filler {
      type: "xavier"
      std: 0.02
    }
    bias_filler {
      type: "constant"
      value: 0.2
    }
  }
}
layer {
  name: "loss1/relu_fc"
  type: "ReLU"
  bottom: "loss1/fc"
  top: "loss1/fc"
}
layer {
  name: "loss1/drop_fc"
  type: "Dropout"
  bottom: "loss1/fc"
  top: "loss1/fc"
  dropout_param {
    dropout_ratio: 0.7
  }
}
layer {
  name: "loss1/classifier_plantvillage"
  type: "InnerProduct"
  bottom: "loss1/fc"
  top: "loss1/classifier_plantvillage"
  param {
    lr_mult: 1
    decay_mult: 1
  }
  param {
    lr_mult: 2
    decay_mult: 0
  }
  inner_product_param {
    num_output: 38
    weight_filler {
      type: "xavier"
      std: 0.0009765625
    }
    bias_filler {
      type: "constant"
      value: 0
    }
  }
}
layer {
  name: "inception_4b/1x1"
  type: "Convolution"
  bottom: "inception_4a/output"
  top: "inception_4b/1x1"
  param {
    lr_mult: 1
    decay_mult: 1
  }
  param {
    lr_mult: 2
    decay_mult: 0
  }
  convolution_param {
    num_output: 160
    kernel_size: 1
    weight_filler {
      type: "xavier"
      std: 0.03
    }
    bias_filler {
      type: "constant"
      value: 0.2
    }
  }
}
layer {
  name: "inception_4b/relu_1x1"
  type: "ReLU"
  bottom: "inception_4b/1x1"
  top: "inception_4b/1x1"
}
layer {
  name: "inception_4b/3x3_reduce"
  type: "Convolution"
  bottom: "inception_4a/output"
  top: "inception_4b/3x3_reduce"
  param {
    lr_mult: 1
    decay_mult: 1
  }
  param {
    lr_mult: 2
    decay_mult: 0
  }
  convolution_param {
    num_output: 112
    kernel_size: 1
    weight_filler {
      type: "xavier"
      std: 0.09
    }
    bias_filler {
      type: "constant"
      value: 0.2
    }
  }
}
layer {
  name: "inception_4b/relu_3x3_reduce"
  type: "ReLU"
  bottom: "inception_4b/3x3_reduce"
  top: "inception_4b/3x3_reduce"
}
layer {
  name: "inception_4b/3x3"
  type: "Convolution"
  bottom: "inception_4b/3x3_reduce"
  top: "inception_4b/3x3"
  param {
    lr_mult: 1
    decay_mult: 1
  }
  param {
    lr_mult: 2
    decay_mult: 0
  }
  convolution_param {
    num_output: 224
    pad: 1
    kernel_size: 3
    weight_filler {
      type: "xavier"
      std: 0.03
    }
    bias_filler {
      type: "constant"
      value: 0.2
    }
  }
}
layer {
  name: "inception_4b/relu_3x3"
  type: "ReLU"
  bottom: "inception_4b/3x3"
  top: "inception_4b/3x3"
}
layer {
  name: "inception_4b/5x5_reduce"
  type: "Convolution"
  bottom: "inception_4a/output"
  top: "inception_4b/5x5_reduce"
  param {
    lr_mult: 1
    decay_mult: 1
  }
  param {
    lr_mult: 2
    decay_mult: 0
  }
  convolution_param {
    num_output: 24
    kernel_size: 1
    weight_filler {
      type: "xavier"
      std: 0.2
    }
    bias_filler {
      type: "constant"
      value: 0.2
    }
  }
}
layer {
  name: "inception_4b/relu_5x5_reduce"
  type: "ReLU"
  bottom: "inception_4b/5x5_reduce"
  top: "inception_4b/5x5_reduce"
}
layer {
  name: "inception_4b/5x5"
  type: "Convolution"
  bottom: "inception_4b/5x5_reduce"
  top: "inception_4b/5x5"
  param {
    lr_mult: 1
    decay_mult: 1
  }
  param {
    lr_mult: 2
    decay_mult: 0
  }
  convolution_param {
    num_output: 64
    pad: 2
    kernel_size: 5
    weight_filler {
      type: "xavier"
      std: 0.03
    }
    bias_filler {
      type: "constant"
      value: 0.2
    }
  }
}
layer {
  name: "inception_4b/relu_5x5"
  type: "ReLU"
  bottom: "inception_4b/5x5"
  top: "inception_4b/5x5"
}
layer {
  name: "inception_4b/pool"
  type: "Pooling"
  bottom: "inception_4a/output"
  top: "inception_4b/pool"
  pooling_param {
    pool: MAX
    kernel_size: 3
    stride: 1
    pad: 1
  }
}
layer {
  name: "inception_4b/pool_proj"
  type: "Convolution"
  bottom: "inception_4b/pool"
  top: "inception_4b/pool_proj"
  param {
    lr_mult: 1
    decay_mult: 1
  }
  param {
    lr_mult: 2
    decay_mult: 0
  }
  convolution_param {
    num_output: 64
    kernel_size: 1
    weight_filler {
      type: "xavier"
      std: 0.1
    }
    bias_filler {
      type: "constant"
      value: 0.2
    }
  }
}
layer {
  name: "inception_4b/relu_pool_proj"
  type: "ReLU"
  bottom: "inception_4b/pool_proj"
  top: "inception_4b/pool_proj"
}
layer {
  name: "inception_4b/output"
  type: "Concat"
  bottom: "inception_4b/1x1"
  bottom: "inception_4b/3x3"
  bottom: "inception_4b/5x5"
  bottom: "inception_4b/pool_proj"
  top: "inception_4b/output"
}
layer {
  name: "inception_4c/1x1"
  type: "Convolution"
  bottom: "inception_4b/output"
  top: "inception_4c/1x1"
  param {
    lr_mult: 1
    decay_mult: 1
  }
  param {
    lr_mult: 2
    decay_mult: 0
  }
  convolution_param {
    num_output: 128
    kernel_size: 1
    weight_filler {
      type: "xavier"
      std: 0.03
    }
    bias_filler {
      type: "constant"
      value: 0.2
    }
  }
}
layer {
  name: "inception_4c/relu_1x1"
  type: "ReLU"
  bottom: "inception_4c/1x1"
  top: "inception_4c/1x1"
}
layer {
  name: "inception_4c/3x3_reduce"
  type: "Convolution"
  bottom: "inception_4b/output"
  top: "inception_4c/3x3_reduce"
  param {
    lr_mult: 1
    decay_mult: 1
  }
  param {
    lr_mult: 2
    decay_mult: 0
  }
  convolution_param {
    num_output: 128
    kernel_size: 1
    weight_filler {
      type: "xavier"
      std: 0.09
    }
    bias_filler {
      type: "constant"
      value: 0.2
    }
  }
}
layer {
  name: "inception_4c/relu_3x3_reduce"
  type: "ReLU"
  bottom: "inception_4c/3x3_reduce"
  top: "inception_4c/3x3_reduce"
}
layer {
  name: "inception_4c/3x3"
  type: "Convolution"
  bottom: "inception_4c/3x3_reduce"
  top: "inception_4c/3x3"
  param {
    lr_mult: 1
    decay_mult: 1
  }
  param {
    lr_mult: 2
    decay_mult: 0
  }
  convolution_param {
    num_output: 256
    pad: 1
    kernel_size: 3
    weight_filler {
      type: "xavier"
      std: 0.03
    }
    bias_filler {
      type: "constant"
      value: 0.2
    }
  }
}
layer {
  name: "inception_4c/relu_3x3"
  type: "ReLU"
  bottom: "inception_4c/3x3"
  top: "inception_4c/3x3"
}
layer {
  name: "inception_4c/5x5_reduce"
  type: "Convolution"
  bottom: "inception_4b/output"
  top: "inception_4c/5x5_reduce"
  param {
    lr_mult: 1
    decay_mult: 1
  }
  param {
    lr_mult: 2
    decay_mult: 0
  }
  convolution_param {
    num_output: 24
    kernel_size: 1
    weight_filler {
      type: "xavier"
      std: 0.2
    }
    bias_filler {
      type: "constant"
      value: 0.2
    }
  }
}
layer {
  name: "inception_4c/relu_5x5_reduce"
  type: "ReLU"
  bottom: "inception_4c/5x5_reduce"
  top: "inception_4c/5x5_reduce"
}
layer {
  name: "inception_4c/5x5"
  type: "Convolution"
  bottom: "inception_4c/5x5_reduce"
  top: "inception_4c/5x5"
  param {
    lr_mult: 1
    decay_mult: 1
  }
  param {
    lr_mult: 2
    decay_mult: 0
  }
  convolution_param {
    num_output: 64
    pad: 2
    kernel_size: 5
    weight_filler {
      type: "xavier"
      std: 0.03
    }
    bias_filler {
      type: "constant"
      value: 0.2
    }
  }
}
layer {
  name: "inception_4c/relu_5x5"
  type: "ReLU"
  bottom: "inception_4c/5x5"
  top: "inception_4c/5x5"
}
layer {
  name: "inception_4c/pool"
  type: "Pooling"
  bottom: "inception_4b/output"
  top: "inception_4c/pool"
  pooling_param {
    pool: MAX
    kernel_size: 3
    stride: 1
    pad: 1
  }
}
layer {
  name: "inception_4c/pool_proj"
  type: "Convolution"
  bottom: "inception_4c/pool"
  top: "inception_4c/pool_proj"
  param {
    lr_mult: 1
    decay_mult: 1
  }
  param {
    lr_mult: 2
    decay_mult: 0
  }
  convolution_param {
    num_output: 64
    kernel_size: 1
    weight_filler {
      type: "xavier"
      std: 0.1
    }
    bias_filler {
      type: "constant"
      value: 0.2
    }
  }
}
layer {
  name: "inception_4c/relu_pool_proj"
  type: "ReLU"
  bottom: "inception_4c/pool_proj"
  top: "inception_4c/pool_proj"
}
layer {
  name: "inception_4c/output"
  type: "Concat"
  bottom: "inception_4c/1x1"
  bottom: "inception_4c/3x3"
  bottom: "inception_4c/5x5"
  bottom: "inception_4c/pool_proj"
  top: "inception_4c/output"
}
layer {
  name: "inception_4d/1x1"
  type: "Convolution"
  bottom: "inception_4c/output"
  top: "inception_4d/1x1"
  param {
    lr_mult: 1
    decay_mult: 1
  }
  param {
    lr_mult: 2
    decay_mult: 0
  }
  convolution_param {
    num_output: 112
    kernel_size: 1
    weight_filler {
      type: "xavier"
      std: 0.03
    }
    bias_filler {
      type: "constant"
      value: 0.2
    }
  }
}
layer {
  name: "inception_4d/relu_1x1"
  type: "ReLU"
  bottom: "inception_4d/1x1"
  top: "inception_4d/1x1"
}
layer {
  name: "inception_4d/3x3_reduce"
  type: "Convolution"
  bottom: "inception_4c/output"
  top: "inception_4d/3x3_reduce"
  param {
    lr_mult: 1
    decay_mult: 1
  }
  param {
    lr_mult: 2
    decay_mult: 0
  }
  convolution_param {
    num_output: 144
    kernel_size: 1
    weight_filler {
      type: "xavier"
      std: 0.09
    }
    bias_filler {
      type: "constant"
      value: 0.2
    }
  }
}
layer {
  name: "inception_4d/relu_3x3_reduce"
  type: "ReLU"
  bottom: "inception_4d/3x3_reduce"
  top: "inception_4d/3x3_reduce"
}
layer {
  name: "inception_4d/3x3"
  type: "Convolution"
  bottom: "inception_4d/3x3_reduce"
  top: "inception_4d/3x3"
  param {
    lr_mult: 1
    decay_mult: 1
  }
  param {
    lr_mult: 2
    decay_mult: 0
  }
  convolution_param {
    num_output: 288
    pad: 1
    kernel_size: 3
    weight_filler {
      type: "xavier"
      std: 0.03
    }
    bias_filler {
      type: "constant"
      value: 0.2
    }
  }
}
layer {
  name: "inception_4d/relu_3x3"
  type: "ReLU"
  bottom: "inception_4d/3x3"
  top: "inception_4d/3x3"
}
layer {
  name: "inception_4d/5x5_reduce"
  type: "Convolution"
  bottom: "inception_4c/output"
  top: "inception_4d/5x5_reduce"
  param {
    lr_mult: 1
    decay_mult: 1
  }
  param {
    lr_mult: 2
    decay_mult: 0
  }
  convolution_param {
    num_output: 32
    kernel_size: 1
    weight_filler {
      type: "xavier"
      std: 0.2
    }
    bias_filler {
      type: "constant"
      value: 0.2
    }
  }
}
layer {
  name: "inception_4d/relu_5x5_reduce"
  type: "ReLU"
  bottom: "inception_4d/5x5_reduce"
  top: "inception_4d/5x5_reduce"
}
layer {
  name: "inception_4d/5x5"
  type: "Convolution"
  bottom: "inception_4d/5x5_reduce"
  top: "inception_4d/5x5"
  param {
    lr_mult: 1
    decay_mult: 1
  }
  param {
    lr_mult: 2
    decay_mult: 0
  }
  convolution_param {
    num_output: 64
    pad: 2
    kernel_size: 5
    weight_filler {
      type: "xavier"
      std: 0.03
    }
    bias_filler {
      type: "constant"
      value: 0.2
    }
  }
}
layer {
  name: "inception_4d/relu_5x5"
  type: "ReLU"
  bottom: "inception_4d/5x5"
  top: "inception_4d/5x5"
}
layer {
  name: "inception_4d/pool"
  type: "Pooling"
  bottom: "inception_4c/output"
  top: "inception_4d/pool"
  pooling_param {
    pool: MAX
    kernel_size: 3
    stride: 1
    pad: 1
  }
}
layer {
  name: "inception_4d/pool_proj"
  type: "Convolution"
  bottom: "inception_4d/pool"
  top: "inception_4d/pool_proj"
  param {
    lr_mult: 1
    decay_mult: 1
  }
  param {
    lr_mult: 2
    decay_mult: 0
  }
  convolution_param {
    num_output: 64
    kernel_size: 1
    weight_filler {
      type: "xavier"
      std: 0.1
    }
    bias_filler {
      type: "constant"
      value: 0.2
    }
  }
}
layer {
  name: "inception_4d/relu_pool_proj"
  type: "ReLU"
  bottom: "inception_4d/pool_proj"
  top: "inception_4d/pool_proj"
}
layer {
  name: "inception_4d/output"
  type: "Concat"
  bottom: "inception_4d/1x1"
  bottom: "inception_4d/3x3"
  bottom: "inception_4d/5x5"
  bottom: "inception_4d/pool_proj"
  top: "inception_4d/output"
}
layer {
  name: "loss2/ave_pool"
  type: "Pooling"
  bottom: "inception_4d/output"
  top: "loss2/ave_pool"
  pooling_param {
    pool: AVE
    kernel_size: 5
    stride: 3
  }
}
layer {
  name: "loss2/conv"
  type: "Convolution"
  bottom: "loss2/ave_pool"
  top: "loss2/conv"
  param {
    lr_mult: 1
    decay_mult: 1
  }
  param {
    lr_mult: 2
    decay_mult: 0
  }
  convolution_param {
    num_output: 128
    kernel_size: 1
    weight_filler {
      type: "xavier"
      std: 0.08
    }
    bias_filler {
      type: "constant"
      value: 0.2
    }
  }
}
layer {
  name: "loss2/relu_conv"
  type: "ReLU"
  bottom: "loss2/conv"
  top: "loss2/conv"
}
layer {
  name: "loss2/fc"
  type: "InnerProduct"
  bottom: "loss2/conv"
  top: "loss2/fc"
  param {
    lr_mult: 1
    decay_mult: 1
  }
  param {
    lr_mult: 2
    decay_mult: 0
  }
  inner_product_param {
    num_output: 1024
    weight_filler {
      type: "xavier"
      std: 0.02
    }
    bias_filler {
      type: "constant"
      value: 0.2
    }
  }
}
layer {
  name: "loss2/relu_fc"
  type: "ReLU"
  bottom: "loss2/fc"
  top: "loss2/fc"
}
layer {
  name: "loss2/drop_fc"
  type: "Dropout"
  bottom: "loss2/fc"
  top: "loss2/fc"
  dropout_param {
    dropout_ratio: 0.7
  }
}
layer {
  name: "loss2/classifier_plantvillage"
  type: "InnerProduct"
  bottom: "loss2/fc"
  top: "loss2/classifier_plantvillage"
  param {
    lr_mult: 1
    decay_mult: 1
  }
  param {
    lr_mult: 2
    decay_mult: 0
  }
  inner_product_param {
    num_output: 38
    weight_filler {
      type: "xavier"
      std: 0.0009765625
    }
    bias_filler {
      type: "constant"
      value: 0
    }
  }
}
layer {
  name: "inception_4e/1x1"
  type: "Convolution"
  bottom: "inception_4d/output"
  top: "inception_4e/1x1"
  param {
    lr_mult: 1
    decay_mult: 1
  }
  param {
    lr_mult: 2
    decay_mult: 0
  }
  convolution_param {
    num_output: 256
    kernel_size: 1
    weight_filler {
      type: "xavier"
      std: 0.03
    }
    bias_filler {
      type: "constant"
      value: 0.2
    }
  }
}
layer {
  name: "inception_4e/relu_1x1"
  type: "ReLU"
  bottom: "inception_4e/1x1"
  top: "inception_4e/1x1"
}
layer {
  name: "inception_4e/3x3_reduce"
  type: "Convolution"
  bottom: "inception_4d/output"
  top: "inception_4e/3x3_reduce"
  param {
    lr_mult: 1
    decay_mult: 1
  }
  param {
    lr_mult: 2
    decay_mult: 0
  }
  convolution_param {
    num_output: 160
    kernel_size: 1
    weight_filler {
      type: "xavier"
      std: 0.09
    }
    bias_filler {
      type: "constant"
      value: 0.2
    }
  }
}
layer {
  name: "inception_4e/relu_3x3_reduce"
  type: "ReLU"
  bottom: "inception_4e/3x3_reduce"
  top: "inception_4e/3x3_reduce"
}
layer {
  name: "inception_4e/3x3"
  type: "Convolution"
  bottom: "inception_4e/3x3_reduce"
  top: "inception_4e/3x3"
  param {
    lr_mult: 1
    decay_mult: 1
  }
  param {
    lr_mult: 2
    decay_mult: 0
  }
  convolution_param {
    num_output: 320
    pad: 1
    kernel_size: 3
    weight_filler {
      type: "xavier"
      std: 0.03
    }
    bias_filler {
      type: "constant"
      value: 0.2
    }
  }
}
layer {
  name: "inception_4e/relu_3x3"
  type: "ReLU"
  bottom: "inception_4e/3x3"
  top: "inception_4e/3x3"
}
layer {
  name: "inception_4e/5x5_reduce"
  type: "Convolution"
  bottom: "inception_4d/output"
  top: "inception_4e/5x5_reduce"
  param {
    lr_mult: 1
    decay_mult: 1
  }
  param {
    lr_mult: 2
    decay_mult: 0
  }
  convolution_param {
    num_output: 32
    kernel_size: 1
    weight_filler {
      type: "xavier"
      std: 0.2
    }
    bias_filler {
      type: "constant"
      value: 0.2
    }
  }
}
layer {
  name: "inception_4e/relu_5x5_reduce"
  type: "ReLU"
  bottom: "inception_4e/5x5_reduce"
  top: "inception_4e/5x5_reduce"
}
layer {
  name: "inception_4e/5x5"
  type: "Convolution"
  bottom: "inception_4e/5x5_reduce"
  top: "inception_4e/5x5"
  p
I0403 15:14:50.607242 31354 layer_factory.hpp:77] Creating layer data
I0403 15:14:50.607877 31354 net.cpp:91] Creating Layer data
I0403 15:14:50.607910 31354 net.cpp:399] data -> data
I0403 15:14:50.607965 31354 net.cpp:399] data -> label
I0403 15:14:50.608006 31354 data_transformer.cpp:25] Loading mean file from: /home/mohanty/data/final_dataset/lmdb/color-60-40/mean.binaryproto
I0403 15:14:50.610540 31361 db_lmdb.cpp:38] Opened lmdb /home/mohanty/data/final_dataset/lmdb/color-60-40/test_db
I0403 15:14:50.621597 31354 data_layer.cpp:41] output data size: 24,3,224,224
I0403 15:14:50.652580 31354 net.cpp:141] Setting up data
I0403 15:14:50.652670 31354 net.cpp:148] Top shape: 24 3 224 224 (3612672)
I0403 15:14:50.652694 31354 net.cpp:148] Top shape: 24 (24)
I0403 15:14:50.652711 31354 net.cpp:156] Memory required for data: 14450784
I0403 15:14:50.652740 31354 layer_factory.hpp:77] Creating layer label_data_1_split
I0403 15:14:50.652770 31354 net.cpp:91] Creating Layer label_data_1_split
I0403 15:14:50.652789 31354 net.cpp:425] label_data_1_split <- label
I0403 15:14:50.652823 31354 net.cpp:399] label_data_1_split -> label_data_1_split_0
I0403 15:14:50.652853 31354 net.cpp:399] label_data_1_split -> label_data_1_split_1
I0403 15:14:50.652876 31354 net.cpp:399] label_data_1_split -> label_data_1_split_2
I0403 15:14:50.652899 31354 net.cpp:399] label_data_1_split -> label_data_1_split_3
I0403 15:14:50.652921 31354 net.cpp:399] label_data_1_split -> label_data_1_split_4
I0403 15:14:50.652943 31354 net.cpp:399] label_data_1_split -> label_data_1_split_5
I0403 15:14:50.652963 31354 net.cpp:399] label_data_1_split -> label_data_1_split_6
I0403 15:14:50.652986 31354 net.cpp:399] label_data_1_split -> label_data_1_split_7
I0403 15:14:50.653007 31354 net.cpp:399] label_data_1_split -> label_data_1_split_8
I0403 15:14:50.653028 31354 net.cpp:399] label_data_1_split -> label_data_1_split_9
I0403 15:14:50.653148 31354 net.cpp:141] Setting up label_data_1_split
I0403 15:14:50.653174 31354 net.cpp:148] Top shape: 24 (24)
I0403 15:14:50.653193 31354 net.cpp:148] Top shape: 24 (24)
I0403 15:14:50.653210 31354 net.cpp:148] Top shape: 24 (24)
I0403 15:14:50.653228 31354 net.cpp:148] Top shape: 24 (24)
I0403 15:14:50.653244 31354 net.cpp:148] Top shape: 24 (24)
I0403 15:14:50.653261 31354 net.cpp:148] Top shape: 24 (24)
I0403 15:14:50.653280 31354 net.cpp:148] Top shape: 24 (24)
I0403 15:14:50.653302 31354 net.cpp:148] Top shape: 24 (24)
I0403 15:14:50.653321 31354 net.cpp:148] Top shape: 24 (24)
I0403 15:14:50.653338 31354 net.cpp:148] Top shape: 24 (24)
I0403 15:14:50.653385 31354 net.cpp:156] Memory required for data: 14451744
I0403 15:14:50.653404 31354 layer_factory.hpp:77] Creating layer conv1/7x7_s2
I0403 15:14:50.653439 31354 net.cpp:91] Creating Layer conv1/7x7_s2
I0403 15:14:50.653457 31354 net.cpp:425] conv1/7x7_s2 <- data
I0403 15:14:50.653478 31354 net.cpp:399] conv1/7x7_s2 -> conv1/7x7_s2
I0403 15:14:50.801795 31354 net.cpp:141] Setting up conv1/7x7_s2
I0403 15:14:50.801877 31354 net.cpp:148] Top shape: 24 64 112 112 (19267584)
I0403 15:14:50.801898 31354 net.cpp:156] Memory required for data: 91522080
I0403 15:14:50.801930 31354 layer_factory.hpp:77] Creating layer conv1/relu_7x7
I0403 15:14:50.801959 31354 net.cpp:91] Creating Layer conv1/relu_7x7
I0403 15:14:50.801980 31354 net.cpp:425] conv1/relu_7x7 <- conv1/7x7_s2
I0403 15:14:50.802001 31354 net.cpp:386] conv1/relu_7x7 -> conv1/7x7_s2 (in-place)
I0403 15:14:50.802268 31354 net.cpp:141] Setting up conv1/relu_7x7
I0403 15:14:50.802302 31354 net.cpp:148] Top shape: 24 64 112 112 (19267584)
I0403 15:14:50.802321 31354 net.cpp:156] Memory required for data: 168592416
I0403 15:14:50.802338 31354 layer_factory.hpp:77] Creating layer pool1/3x3_s2
I0403 15:14:50.802366 31354 net.cpp:91] Creating Layer pool1/3x3_s2
I0403 15:14:50.802384 31354 net.cpp:425] pool1/3x3_s2 <- conv1/7x7_s2
I0403 15:14:50.802405 31354 net.cpp:399] pool1/3x3_s2 -> pool1/3x3_s2
I0403 15:14:50.802484 31354 net.cpp:141] Setting up pool1/3x3_s2
I0403 15:14:50.802510 31354 net.cpp:148] Top shape: 24 64 56 56 (4816896)
I0403 15:14:50.802526 31354 net.cpp:156] Memory required for data: 187860000
I0403 15:14:50.802543 31354 layer_factory.hpp:77] Creating layer pool1/norm1
I0403 15:14:50.802569 31354 net.cpp:91] Creating Layer pool1/norm1
I0403 15:14:50.802587 31354 net.cpp:425] pool1/norm1 <- pool1/3x3_s2
I0403 15:14:50.802608 31354 net.cpp:399] pool1/norm1 -> pool1/norm1
I0403 15:14:50.802920 31354 net.cpp:141] Setting up pool1/norm1
I0403 15:14:50.802984 31354 net.cpp:148] Top shape: 24 64 56 56 (4816896)
I0403 15:14:50.803022 31354 net.cpp:156] Memory required for data: 207127584
I0403 15:14:50.803061 31354 layer_factory.hpp:77] Creating layer conv2/3x3_reduce
I0403 15:14:50.803117 31354 net.cpp:91] Creating Layer conv2/3x3_reduce
I0403 15:14:50.803143 31354 net.cpp:425] conv2/3x3_reduce <- pool1/norm1
I0403 15:14:50.803166 31354 net.cpp:399] conv2/3x3_reduce -> conv2/3x3_reduce
I0403 15:14:50.804568 31354 net.cpp:141] Setting up conv2/3x3_reduce
I0403 15:14:50.804600 31354 net.cpp:148] Top shape: 24 64 56 56 (4816896)
I0403 15:14:50.804617 31354 net.cpp:156] Memory required for data: 226395168
I0403 15:14:50.804641 31354 layer_factory.hpp:77] Creating layer conv2/relu_3x3_reduce
I0403 15:14:50.804664 31354 net.cpp:91] Creating Layer conv2/relu_3x3_reduce
I0403 15:14:50.804682 31354 net.cpp:425] conv2/relu_3x3_reduce <- conv2/3x3_reduce
I0403 15:14:50.804718 31354 net.cpp:386] conv2/relu_3x3_reduce -> conv2/3x3_reduce (in-place)
I0403 15:14:50.805007 31354 net.cpp:141] Setting up conv2/relu_3x3_reduce
I0403 15:14:50.805060 31354 net.cpp:148] Top shape: 24 64 56 56 (4816896)
I0403 15:14:50.805104 31354 net.cpp:156] Memory required for data: 245662752
I0403 15:14:50.805142 31354 layer_factory.hpp:77] Creating layer conv2/3x3
I0403 15:14:50.805187 31354 net.cpp:91] Creating Layer conv2/3x3
I0403 15:14:50.805227 31354 net.cpp:425] conv2/3x3 <- conv2/3x3_reduce
I0403 15:14:50.805266 31354 net.cpp:399] conv2/3x3 -> conv2/3x3
I0403 15:14:50.807793 31354 net.cpp:141] Setting up conv2/3x3
I0403 15:14:50.807827 31354 net.cpp:148] Top shape: 24 192 56 56 (14450688)
I0403 15:14:50.807847 31354 net.cpp:156] Memory required for data: 303465504
I0403 15:14:50.807871 31354 layer_factory.hpp:77] Creating layer conv2/relu_3x3
I0403 15:14:50.807893 31354 net.cpp:91] Creating Layer conv2/relu_3x3
I0403 15:14:50.807910 31354 net.cpp:425] conv2/relu_3x3 <- conv2/3x3
I0403 15:14:50.807929 31354 net.cpp:386] conv2/relu_3x3 -> conv2/3x3 (in-place)
I0403 15:14:50.808135 31354 net.cpp:141] Setting up conv2/relu_3x3
I0403 15:14:50.808163 31354 net.cpp:148] Top shape: 24 192 56 56 (14450688)
I0403 15:14:50.808212 31354 net.cpp:156] Memory required for data: 361268256
I0403 15:14:50.808229 31354 layer_factory.hpp:77] Creating layer conv2/norm2
I0403 15:14:50.808262 31354 net.cpp:91] Creating Layer conv2/norm2
I0403 15:14:50.808281 31354 net.cpp:425] conv2/norm2 <- conv2/3x3
I0403 15:14:50.808308 31354 net.cpp:399] conv2/norm2 -> conv2/norm2
I0403 15:14:50.808634 31354 net.cpp:141] Setting up conv2/norm2
I0403 15:14:50.808663 31354 net.cpp:148] Top shape: 24 192 56 56 (14450688)
I0403 15:14:50.808681 31354 net.cpp:156] Memory required for data: 419071008
I0403 15:14:50.808696 31354 layer_factory.hpp:77] Creating layer pool2/3x3_s2
I0403 15:14:50.808718 31354 net.cpp:91] Creating Layer pool2/3x3_s2
I0403 15:14:50.808737 31354 net.cpp:425] pool2/3x3_s2 <- conv2/norm2
I0403 15:14:50.808758 31354 net.cpp:399] pool2/3x3_s2 -> pool2/3x3_s2
I0403 15:14:50.808814 31354 net.cpp:141] Setting up pool2/3x3_s2
I0403 15:14:50.808838 31354 net.cpp:148] Top shape: 24 192 28 28 (3612672)
I0403 15:14:50.808854 31354 net.cpp:156] Memory required for data: 433521696
I0403 15:14:50.808871 31354 layer_factory.hpp:77] Creating layer pool2/3x3_s2_pool2/3x3_s2_0_split
I0403 15:14:50.808892 31354 net.cpp:91] Creating Layer pool2/3x3_s2_pool2/3x3_s2_0_split
I0403 15:14:50.808908 31354 net.cpp:425] pool2/3x3_s2_pool2/3x3_s2_0_split <- pool2/3x3_s2
I0403 15:14:50.808931 31354 net.cpp:399] pool2/3x3_s2_pool2/3x3_s2_0_split -> pool2/3x3_s2_pool2/3x3_s2_0_split_0
I0403 15:14:50.808982 31354 net.cpp:399] pool2/3x3_s2_pool2/3x3_s2_0_split -> pool2/3x3_s2_pool2/3x3_s2_0_split_1
I0403 15:14:50.809006 31354 net.cpp:399] pool2/3x3_s2_pool2/3x3_s2_0_split -> pool2/3x3_s2_pool2/3x3_s2_0_split_2
I0403 15:14:50.809029 31354 net.cpp:399] pool2/3x3_s2_pool2/3x3_s2_0_split -> pool2/3x3_s2_pool2/3x3_s2_0_split_3
I0403 15:14:50.809108 31354 net.cpp:141] Setting up pool2/3x3_s2_pool2/3x3_s2_0_split
I0403 15:14:50.809136 31354 net.cpp:148] Top shape: 24 192 28 28 (3612672)
I0403 15:14:50.809155 31354 net.cpp:148] Top shape: 24 192 28 28 (3612672)
I0403 15:14:50.809173 31354 net.cpp:148] Top shape: 24 192 28 28 (3612672)
I0403 15:14:50.809190 31354 net.cpp:148] Top shape: 24 192 28 28 (3612672)
I0403 15:14:50.809206 31354 net.cpp:156] Memory required for data: 491324448
I0403 15:14:50.809221 31354 layer_factory.hpp:77] Creating layer inception_3a/1x1
I0403 15:14:50.809247 31354 net.cpp:91] Creating Layer inception_3a/1x1
I0403 15:14:50.809267 31354 net.cpp:425] inception_3a/1x1 <- pool2/3x3_s2_pool2/3x3_s2_0_split_0
I0403 15:14:50.809291 31354 net.cpp:399] inception_3a/1x1 -> inception_3a/1x1
I0403 15:14:50.810935 31354 net.cpp:141] Setting up inception_3a/1x1
I0403 15:14:50.810986 31354 net.cpp:148] Top shape: 24 64 28 28 (1204224)
I0403 15:14:50.811017 31354 net.cpp:156] Memory required for data: 496141344
I0403 15:14:50.811043 31354 layer_factory.hpp:77] Creating layer inception_3a/relu_1x1
I0403 15:14:50.811086 31354 net.cpp:91] Creating Layer inception_3a/relu_1x1
I0403 15:14:50.811123 31354 net.cpp:425] inception_3a/relu_1x1 <- inception_3a/1x1
I0403 15:14:50.811173 31354 net.cpp:386] inception_3a/relu_1x1 -> inception_3a/1x1 (in-place)
I0403 15:14:50.811362 31354 net.cpp:141] Setting up inception_3a/relu_1x1
I0403 15:14:50.811408 31354 net.cpp:148] Top shape: 24 64 28 28 (1204224)
I0403 15:14:50.811445 31354 net.cpp:156] Memory required for data: 500958240
I0403 15:14:50.811471 31354 layer_factory.hpp:77] Creating layer inception_3a/3x3_reduce
I0403 15:14:50.811513 31354 net.cpp:91] Creating Layer inception_3a/3x3_reduce
I0403 15:14:50.811560 31354 net.cpp:425] inception_3a/3x3_reduce <- pool2/3x3_s2_pool2/3x3_s2_0_split_1
I0403 15:14:50.811584 31354 net.cpp:399] inception_3a/3x3_reduce -> inception_3a/3x3_reduce
I0403 15:14:50.813436 31354 net.cpp:141] Setting up inception_3a/3x3_reduce
I0403 15:14:50.813489 31354 net.cpp:148] Top shape: 24 96 28 28 (1806336)
I0403 15:14:50.813509 31354 net.cpp:156] Memory required for data: 508183584
I0403 15:14:50.813541 31354 layer_factory.hpp:77] Creating layer inception_3a/relu_3x3_reduce
I0403 15:14:50.813606 31354 net.cpp:91] Creating Layer inception_3a/relu_3x3_reduce
I0403 15:14:50.813648 31354 net.cpp:425] inception_3a/relu_3x3_reduce <- inception_3a/3x3_reduce
I0403 15:14:50.813690 31354 net.cpp:386] inception_3a/relu_3x3_reduce -> inception_3a/3x3_reduce (in-place)
I0403 15:14:50.813889 31354 net.cpp:141] Setting up inception_3a/relu_3x3_reduce
I0403 15:14:50.813917 31354 net.cpp:148] Top shape: 24 96 28 28 (1806336)
I0403 15:14:50.813952 31354 net.cpp:156] Memory required for data: 515408928
I0403 15:14:50.813995 31354 layer_factory.hpp:77] Creating layer inception_3a/3x3
I0403 15:14:50.814049 31354 net.cpp:91] Creating Layer inception_3a/3x3
I0403 15:14:50.814081 31354 net.cpp:425] inception_3a/3x3 <- inception_3a/3x3_reduce
I0403 15:14:50.814128 31354 net.cpp:399] inception_3a/3x3 -> inception_3a/3x3
I0403 15:14:50.815872 31354 net.cpp:141] Setting up inception_3a/3x3
I0403 15:14:50.815906 31354 net.cpp:148] Top shape: 24 128 28 28 (2408448)
I0403 15:14:50.815924 31354 net.cpp:156] Memory required for data: 525042720
I0403 15:14:50.815963 31354 layer_factory.hpp:77] Creating layer inception_3a/relu_3x3
I0403 15:14:50.815986 31354 net.cpp:91] Creating Layer inception_3a/relu_3x3
I0403 15:14:50.816021 31354 net.cpp:425] inception_3a/relu_3x3 <- inception_3a/3x3
I0403 15:14:50.816051 31354 net.cpp:386] inception_3a/relu_3x3 -> inception_3a/3x3 (in-place)
I0403 15:14:50.816359 31354 net.cpp:141] Setting up inception_3a/relu_3x3
I0403 15:14:50.816390 31354 net.cpp:148] Top shape: 24 128 28 28 (2408448)
I0403 15:14:50.816421 31354 net.cpp:156] Memory required for data: 534676512
I0403 15:14:50.816454 31354 layer_factory.hpp:77] Creating layer inception_3a/5x5_reduce
I0403 15:14:50.816501 31354 net.cpp:91] Creating Layer inception_3a/5x5_reduce
I0403 15:14:50.816527 31354 net.cpp:425] inception_3a/5x5_reduce <- pool2/3x3_s2_pool2/3x3_s2_0_split_2
I0403 15:14:50.816552 31354 net.cpp:399] inception_3a/5x5_reduce -> inception_3a/5x5_reduce
I0403 15:14:50.817607 31354 net.cpp:141] Setting up inception_3a/5x5_reduce
I0403 15:14:50.817639 31354 net.cpp:148] Top shape: 24 16 28 28 (301056)
I0403 15:14:50.817656 31354 net.cpp:156] Memory required for data: 535880736
I0403 15:14:50.817677 31354 layer_factory.hpp:77] Creating layer inception_3a/relu_5x5_reduce
I0403 15:14:50.817697 31354 net.cpp:91] Creating Layer inception_3a/relu_5x5_reduce
I0403 15:14:50.817713 31354 net.cpp:425] inception_3a/relu_5x5_reduce <- inception_3a/5x5_reduce
I0403 15:14:50.817736 31354 net.cpp:386] inception_3a/relu_5x5_reduce -> inception_3a/5x5_reduce (in-place)
I0403 15:14:50.818039 31354 net.cpp:141] Setting up inception_3a/relu_5x5_reduce
I0403 15:14:50.818068 31354 net.cpp:148] Top shape: 24 16 28 28 (301056)
I0403 15:14:50.818084 31354 net.cpp:156] Memory required for data: 537084960
I0403 15:14:50.818100 31354 layer_factory.hpp:77] Creating layer inception_3a/5x5
I0403 15:14:50.818125 31354 net.cpp:91] Creating Layer inception_3a/5x5
I0403 15:14:50.818142 31354 net.cpp:425] inception_3a/5x5 <- inception_3a/5x5_reduce
I0403 15:14:50.818166 31354 net.cpp:399] inception_3a/5x5 -> inception_3a/5x5
I0403 15:14:50.819197 31354 net.cpp:141] Setting up inception_3a/5x5
I0403 15:14:50.819227 31354 net.cpp:148] Top shape: 24 32 28 28 (602112)
I0403 15:14:50.819244 31354 net.cpp:156] Memory required for data: 539493408
I0403 15:14:50.819264 31354 layer_factory.hpp:77] Creating layer inception_3a/relu_5x5
I0403 15:14:50.819291 31354 net.cpp:91] Creating Layer inception_3a/relu_5x5
I0403 15:14:50.819313 31354 net.cpp:425] inception_3a/relu_5x5 <- inception_3a/5x5
I0403 15:14:50.819331 31354 net.cpp:386] inception_3a/relu_5x5 -> inception_3a/5x5 (in-place)
I0403 15:14:50.819511 31354 net.cpp:141] Setting up inception_3a/relu_5x5
I0403 15:14:50.819538 31354 net.cpp:148] Top shape: 24 32 28 28 (602112)
I0403 15:14:50.819555 31354 net.cpp:156] Memory required for data: 541901856
I0403 15:14:50.819571 31354 layer_factory.hpp:77] Creating layer inception_3a/pool
I0403 15:14:50.819591 31354 net.cpp:91] Creating Layer inception_3a/pool
I0403 15:14:50.819608 31354 net.cpp:425] inception_3a/pool <- pool2/3x3_s2_pool2/3x3_s2_0_split_3
I0403 15:14:50.819646 31354 net.cpp:399] inception_3a/pool -> inception_3a/pool
I0403 15:14:50.819710 31354 net.cpp:141] Setting up inception_3a/pool
I0403 15:14:50.819736 31354 net.cpp:148] Top shape: 24 192 28 28 (3612672)
I0403 15:14:50.819751 31354 net.cpp:156] Memory required for data: 556352544
I0403 15:14:50.819767 31354 layer_factory.hpp:77] Creating layer inception_3a/pool_proj
I0403 15:14:50.819792 31354 net.cpp:91] Creating Layer inception_3a/pool_proj
I0403 15:14:50.819813 31354 net.cpp:425] inception_3a/pool_proj <- inception_3a/pool
I0403 15:14:50.819833 31354 net.cpp:399] inception_3a/pool_proj -> inception_3a/pool_proj
I0403 15:14:50.820816 31354 net.cpp:141] Setting up inception_3a/pool_proj
I0403 15:14:50.820845 31354 net.cpp:148] Top shape: 24 32 28 28 (602112)
I0403 15:14:50.820863 31354 net.cpp:156] Memory required for data: 558760992
I0403 15:14:50.820888 31354 layer_factory.hpp:77] Creating layer inception_3a/relu_pool_proj
I0403 15:14:50.820909 31354 net.cpp:91] Creating Layer inception_3a/relu_pool_proj
I0403 15:14:50.820927 31354 net.cpp:425] inception_3a/relu_pool_proj <- inception_3a/pool_proj
I0403 15:14:50.820948 31354 net.cpp:386] inception_3a/relu_pool_proj -> inception_3a/pool_proj (in-place)
I0403 15:14:50.821228 31354 net.cpp:141] Setting up inception_3a/relu_pool_proj
I0403 15:14:50.821259 31354 net.cpp:148] Top shape: 24 32 28 28 (602112)
I0403 15:14:50.821290 31354 net.cpp:156] Memory required for data: 561169440
I0403 15:14:50.821307 31354 layer_factory.hpp:77] Creating layer inception_3a/output
I0403 15:14:50.821327 31354 net.cpp:91] Creating Layer inception_3a/output
I0403 15:14:50.821344 31354 net.cpp:425] inception_3a/output <- inception_3a/1x1
I0403 15:14:50.821362 31354 net.cpp:425] inception_3a/output <- inception_3a/3x3
I0403 15:14:50.821380 31354 net.cpp:425] inception_3a/output <- inception_3a/5x5
I0403 15:14:50.821398 31354 net.cpp:425] inception_3a/output <- inception_3a/pool_proj
I0403 15:14:50.821419 31354 net.cpp:399] inception_3a/output -> inception_3a/output
I0403 15:14:50.821467 31354 net.cpp:141] Setting up inception_3a/output
I0403 15:14:50.821492 31354 net.cpp:148] Top shape: 24 256 28 28 (4816896)
I0403 15:14:50.821508 31354 net.cpp:156] Memory required for data: 580437024
I0403 15:14:50.821526 31354 layer_factory.hpp:77] Creating layer inception_3a/output_inception_3a/output_0_split
I0403 15:14:50.821547 31354 net.cpp:91] Creating Layer inception_3a/output_inception_3a/output_0_split
I0403 15:14:50.821575 31354 net.cpp:425] inception_3a/output_inception_3a/output_0_split <- inception_3a/output
I0403 15:14:50.821595 31354 net.cpp:399] inception_3a/output_inception_3a/output_0_split -> inception_3a/output_inception_3a/output_0_split_0
I0403 15:14:50.821616 31354 net.cpp:399] inception_3a/output_inception_3a/output_0_split -> inception_3a/output_inception_3a/output_0_split_1
I0403 15:14:50.821645 31354 net.cpp:399] inception_3a/output_inception_3a/output_0_split -> inception_3a/output_inception_3a/output_0_split_2
I0403 15:14:50.821669 31354 net.cpp:399] inception_3a/output_inception_3a/output_0_split -> inception_3a/output_inception_3a/output_0_split_3
I0403 15:14:50.821748 31354 net.cpp:141] Setting up inception_3a/output_inception_3a/output_0_split
I0403 15:14:50.821771 31354 net.cpp:148] Top shape: 24 256 28 28 (4816896)
I0403 15:14:50.821794 31354 net.cpp:148] Top shape: 24 256 28 28 (4816896)
I0403 15:14:50.821812 31354 net.cpp:148] Top shape: 24 256 28 28 (4816896)
I0403 15:14:50.821830 31354 net.cpp:148] Top shape: 24 256 28 28 (4816896)
I0403 15:14:50.821846 31354 net.cpp:156] Memory required for data: 657507360
I0403 15:14:50.821874 31354 layer_factory.hpp:77] Creating layer inception_3b/1x1
I0403 15:14:50.821903 31354 net.cpp:91] Creating Layer inception_3b/1x1
I0403 15:14:50.821920 31354 net.cpp:425] inception_3b/1x1 <- inception_3a/output_inception_3a/output_0_split_0
I0403 15:14:50.821943 31354 net.cpp:399] inception_3b/1x1 -> inception_3b/1x1
I0403 15:14:50.823110 31354 net.cpp:141] Setting up inception_3b/1x1
I0403 15:14:50.823151 31354 net.cpp:148] Top shape: 24 128 28 28 (2408448)
I0403 15:14:50.823169 31354 net.cpp:156] Memory required for data: 667141152
I0403 15:14:50.823189 31354 layer_factory.hpp:77] Creating layer inception_3b/relu_1x1
I0403 15:14:50.823211 31354 net.cpp:91] Creating Layer inception_3b/relu_1x1
I0403 15:14:50.823228 31354 net.cpp:425] inception_3b/relu_1x1 <- inception_3b/1x1
I0403 15:14:50.823247 31354 net.cpp:386] inception_3b/relu_1x1 -> inception_3b/1x1 (in-place)
I0403 15:14:50.823436 31354 net.cpp:141] Setting up inception_3b/relu_1x1
I0403 15:14:50.823464 31354 net.cpp:148] Top shape: 24 128 28 28 (2408448)
I0403 15:14:50.823482 31354 net.cpp:156] Memory required for data: 676774944
I0403 15:14:50.823498 31354 layer_factory.hpp:77] Creating layer inception_3b/3x3_reduce
I0403 15:14:50.823523 31354 net.cpp:91] Creating Layer inception_3b/3x3_reduce
I0403 15:14:50.823541 31354 net.cpp:425] inception_3b/3x3_reduce <- inception_3a/output_inception_3a/output_0_split_1
I0403 15:14:50.823562 31354 net.cpp:399] inception_3b/3x3_reduce -> inception_3b/3x3_reduce
I0403 15:14:50.824744 31354 net.cpp:141] Setting up inception_3b/3x3_reduce
I0403 15:14:50.824774 31354 net.cpp:148] Top shape: 24 128 28 28 (2408448)
I0403 15:14:50.824791 31354 net.cpp:156] Memory required for data: 686408736
I0403 15:14:50.824812 31354 layer_factory.hpp:77] Creating layer inception_3b/relu_3x3_reduce
I0403 15:14:50.824836 31354 net.cpp:91] Creating Layer inception_3b/relu_3x3_reduce
I0403 15:14:50.824853 31354 net.cpp:425] inception_3b/relu_3x3_reduce <- inception_3b/3x3_reduce
I0403 15:14:50.824872 31354 net.cpp:386] inception_3b/relu_3x3_reduce -> inception_3b/3x3_reduce (in-place)
I0403 15:14:50.825050 31354 net.cpp:141] Setting up inception_3b/relu_3x3_reduce
I0403 15:14:50.825079 31354 net.cpp:148] Top shape: 24 128 28 28 (2408448)
I0403 15:14:50.825096 31354 net.cpp:156] Memory required for data: 696042528
I0403 15:14:50.825114 31354 layer_factory.hpp:77] Creating layer inception_3b/3x3
I0403 15:14:50.825139 31354 net.cpp:91] Creating Layer inception_3b/3x3
I0403 15:14:50.825158 31354 net.cpp:425] inception_3b/3x3 <- inception_3b/3x3_reduce
I0403 15:14:50.825181 31354 net.cpp:399] inception_3b/3x3 -> inception_3b/3x3
I0403 15:14:50.828176 31354 net.cpp:141] Setting up inception_3b/3x3
I0403 15:14:50.828218 31354 net.cpp:148] Top shape: 24 192 28 28 (3612672)
I0403 15:14:50.828248 31354 net.cpp:156] Memory required for data: 710493216
I0403 15:14:50.828269 31354 layer_factory.hpp:77] Creating layer inception_3b/relu_3x3
I0403 15:14:50.828294 31354 net.cpp:91] Creating Layer inception_3b/relu_3x3
I0403 15:14:50.828312 31354 net.cpp:425] inception_3b/relu_3x3 <- inception_3b/3x3
I0403 15:14:50.828336 31354 net.cpp:386] inception_3b/relu_3x3 -> inception_3b/3x3 (in-place)
I0403 15:14:50.828622 31354 net.cpp:141] Setting up inception_3b/relu_3x3
I0403 15:14:50.828652 31354 net.cpp:148] Top shape: 24 192 28 28 (3612672)
I0403 15:14:50.828670 31354 net.cpp:156] Memory required for data: 724943904
I0403 15:14:50.828687 31354 layer_factory.hpp:77] Creating layer inception_3b/5x5_reduce
I0403 15:14:50.828711 31354 net.cpp:91] Creating Layer inception_3b/5x5_reduce
I0403 15:14:50.828730 31354 net.cpp:425] inception_3b/5x5_reduce <- inception_3a/output_inception_3a/output_0_split_2
I0403 15:14:50.828750 31354 net.cpp:399] inception_3b/5x5_reduce -> inception_3b/5x5_reduce
I0403 15:14:50.829735 31354 net.cpp:141] Setting up inception_3b/5x5_reduce
I0403 15:14:50.829766 31354 net.cpp:148] Top shape: 24 32 28 28 (602112)
I0403 15:14:50.829783 31354 net.cpp:156] Memory required for data: 727352352
I0403 15:14:50.829803 31354 layer_factory.hpp:77] Creating layer inception_3b/relu_5x5_reduce
I0403 15:14:50.829821 31354 net.cpp:91] Creating Layer inception_3b/relu_5x5_reduce
I0403 15:14:50.829838 31354 net.cpp:425] inception_3b/relu_5x5_reduce <- inception_3b/5x5_reduce
I0403 15:14:50.829859 31354 net.cpp:386] inception_3b/relu_5x5_reduce -> inception_3b/5x5_reduce (in-place)
I0403 15:14:50.830034 31354 net.cpp:141] Setting up inception_3b/relu_5x5_reduce
I0403 15:14:50.830072 31354 net.cpp:148] Top shape: 24 32 28 28 (602112)
I0403 15:14:50.830088 31354 net.cpp:156] Memory required for data: 729760800
I0403 15:14:50.830104 31354 layer_factory.hpp:77] Creating layer inception_3b/5x5
I0403 15:14:50.830127 31354 net.cpp:91] Creating Layer inception_3b/5x5
I0403 15:14:50.830147 31354 net.cpp:425] inception_3b/5x5 <- inception_3b/5x5_reduce
I0403 15:14:50.830168 31354 net.cpp:399] inception_3b/5x5 -> inception_3b/5x5
I0403 15:14:50.832129 31354 net.cpp:141] Setting up inception_3b/5x5
I0403 15:14:50.832159 31354 net.cpp:148] Top shape: 24 96 28 28 (1806336)
I0403 15:14:50.832175 31354 net.cpp:156] Memory required for data: 736986144
I0403 15:14:50.832193 31354 layer_factory.hpp:77] Creating layer inception_3b/relu_5x5
I0403 15:14:50.832214 31354 net.cpp:91] Creating Layer inception_3b/relu_5x5
I0403 15:14:50.832232 31354 net.cpp:425] inception_3b/relu_5x5 <- inception_3b/5x5
I0403 15:14:50.832262 31354 net.cpp:386] inception_3b/relu_5x5 -> inception_3b/5x5 (in-place)
I0403 15:14:50.832468 31354 net.cpp:141] Setting up inception_3b/relu_5x5
I0403 15:14:50.832495 31354 net.cpp:148] Top shape: 24 96 28 28 (1806336)
I0403 15:14:50.832512 31354 net.cpp:156] Memory required for data: 744211488
I0403 15:14:50.832527 31354 layer_factory.hpp:77] Creating layer inception_3b/pool
I0403 15:14:50.832546 31354 net.cpp:91] Creating Layer inception_3b/pool
I0403 15:14:50.832564 31354 net.cpp:425] inception_3b/pool <- inception_3a/output_inception_3a/output_0_split_3
I0403 15:14:50.832584 31354 net.cpp:399] inception_3b/pool -> inception_3b/pool
I0403 15:14:50.832653 31354 net.cpp:141] Setting up inception_3b/pool
I0403 15:14:50.832677 31354 net.cpp:148] Top shape: 24 256 28 28 (4816896)
I0403 15:14:50.832693 31354 net.cpp:156] Memory required for data: 763479072
I0403 15:14:50.832708 31354 layer_factory.hpp:77] Creating layer inception_3b/pool_proj
I0403 15:14:50.832731 31354 net.cpp:91] Creating Layer inception_3b/pool_proj
I0403 15:14:50.832751 31354 net.cpp:425] inception_3b/pool_proj <- inception_3b/pool
I0403 15:14:50.832772 31354 net.cpp:399] inception_3b/pool_proj -> inception_3b/pool_proj
I0403 15:14:50.833827 31354 net.cpp:141] Setting up inception_3b/pool_proj
I0403 15:14:50.833854 31354 net.cpp:148] Top shape: 24 64 28 28 (1204224)
I0403 15:14:50.833871 31354 net.cpp:156] Memory required for data: 768295968
I0403 15:14:50.833890 31354 layer_factory.hpp:77] Creating layer inception_3b/relu_pool_proj
I0403 15:14:50.833909 31354 net.cpp:91] Creating Layer inception_3b/relu_pool_proj
I0403 15:14:50.833926 31354 net.cpp:425] inception_3b/relu_pool_proj <- inception_3b/pool_proj
I0403 15:14:50.833946 31354 net.cpp:386] inception_3b/relu_pool_proj -> inception_3b/pool_proj (in-place)
I0403 15:14:50.834388 31354 net.cpp:141] Setting up inception_3b/relu_pool_proj
I0403 15:14:50.834416 31354 net.cpp:148] Top shape: 24 64 28 28 (1204224)
I0403 15:14:50.834432 31354 net.cpp:156] Memory required for data: 773112864
I0403 15:14:50.834468 31354 layer_factory.hpp:77] Creating layer inception_3b/output
I0403 15:14:50.834493 31354 net.cpp:91] Creating Layer inception_3b/output
I0403 15:14:50.834511 31354 net.cpp:425] inception_3b/output <- inception_3b/1x1
I0403 15:14:50.834542 31354 net.cpp:425] inception_3b/output <- inception_3b/3x3
I0403 15:14:50.834578 31354 net.cpp:425] inception_3b/output <- inception_3b/5x5
I0403 15:14:50.834616 31354 net.cpp:425] inception_3b/output <- inception_3b/pool_proj
I0403 15:14:50.834656 31354 net.cpp:399] inception_3b/output -> inception_3b/output
I0403 15:14:50.834725 31354 net.cpp:141] Setting up inception_3b/output
I0403 15:14:50.834750 31354 net.cpp:148] Top shape: 24 480 28 28 (9031680)
I0403 15:14:50.834766 31354 net.cpp:156] Memory required for data: 809239584
I0403 15:14:50.834781 31354 layer_factory.hpp:77] Creating layer pool3/3x3_s2
I0403 15:14:50.834800 31354 net.cpp:91] Creating Layer pool3/3x3_s2
I0403 15:14:50.834818 31354 net.cpp:425] pool3/3x3_s2 <- inception_3b/output
I0403 15:14:50.834837 31354 net.cpp:399] pool3/3x3_s2 -> pool3/3x3_s2
I0403 15:14:50.834911 31354 net.cpp:141] Setting up pool3/3x3_s2
I0403 15:14:50.834938 31354 net.cpp:148] Top shape: 24 480 14 14 (2257920)
I0403 15:14:50.834952 31354 net.cpp:156] Memory required for data: 818271264
I0403 15:14:50.834969 31354 layer_factory.hpp:77] Creating layer pool3/3x3_s2_pool3/3x3_s2_0_split
I0403 15:14:50.834988 31354 net.cpp:91] Creating Layer pool3/3x3_s2_pool3/3x3_s2_0_split
I0403 15:14:50.835017 31354 net.cpp:425] pool3/3x3_s2_pool3/3x3_s2_0_split <- pool3/3x3_s2
I0403 15:14:50.835036 31354 net.cpp:399] pool3/3x3_s2_pool3/3x3_s2_0_split -> pool3/3x3_s2_pool3/3x3_s2_0_split_0
I0403 15:14:50.835057 31354 net.cpp:399] pool3/3x3_s2_pool3/3x3_s2_0_split -> pool3/3x3_s2_pool3/3x3_s2_0_split_1
I0403 15:14:50.835078 31354 net.cpp:399] pool3/3x3_s2_pool3/3x3_s2_0_split -> pool3/3x3_s2_pool3/3x3_s2_0_split_2
I0403 15:14:50.835099 31354 net.cpp:399] pool3/3x3_s2_pool3/3x3_s2_0_split -> pool3/3x3_s2_pool3/3x3_s2_0_split_3
I0403 15:14:50.835180 31354 net.cpp:141] Setting up pool3/3x3_s2_pool3/3x3_s2_0_split
I0403 15:14:50.835204 31354 net.cpp:148] Top shape: 24 480 14 14 (2257920)
I0403 15:14:50.835222 31354 net.cpp:148] Top shape: 24 480 14 14 (2257920)
I0403 15:14:50.835238 31354 net.cpp:148] Top shape: 24 480 14 14 (2257920)
I0403 15:14:50.835268 31354 net.cpp:148] Top shape: 24 480 14 14 (2257920)
I0403 15:14:50.835286 31354 net.cpp:156] Memory required for data: 854397984
I0403 15:14:50.835304 31354 layer_factory.hpp:77] Creating layer inception_4a/1x1
I0403 15:14:50.835330 31354 net.cpp:91] Creating Layer inception_4a/1x1
I0403 15:14:50.835350 31354 net.cpp:425] inception_4a/1x1 <- pool3/3x3_s2_pool3/3x3_s2_0_split_0
I0403 15:14:50.835372 31354 net.cpp:399] inception_4a/1x1 -> inception_4a/1x1
I0403 15:14:50.837085 31354 net.cpp:141] Setting up inception_4a/1x1
I0403 15:14:50.837115 31354 net.cpp:148] Top shape: 24 192 14 14 (903168)
I0403 15:14:50.837131 31354 net.cpp:156] Memory required for data: 858010656
I0403 15:14:50.837151 31354 layer_factory.hpp:77] Creating layer inception_4a/relu_1x1
I0403 15:14:50.837172 31354 net.cpp:91] Creating Layer inception_4a/relu_1x1
I0403 15:14:50.837189 31354 net.cpp:425] inception_4a/relu_1x1 <- inception_4a/1x1
I0403 15:14:50.837208 31354 net.cpp:386] inception_4a/relu_1x1 -> inception_4a/1x1 (in-place)
I0403 15:14:50.837386 31354 net.cpp:141] Setting up inception_4a/relu_1x1
I0403 15:14:50.837412 31354 net.cpp:148] Top shape: 24 192 14 14 (903168)
I0403 15:14:50.837430 31354 net.cpp:156] Memory required for data: 861623328
I0403 15:14:50.837446 31354 layer_factory.hpp:77] Creating layer inception_4a/3x3_reduce
I0403 15:14:50.837466 31354 net.cpp:91] Creating Layer inception_4a/3x3_reduce
I0403 15:14:50.837483 31354 net.cpp:425] inception_4a/3x3_reduce <- pool3/3x3_s2_pool3/3x3_s2_0_split_1
I0403 15:14:50.837504 31354 net.cpp:399] inception_4a/3x3_reduce -> inception_4a/3x3_reduce
I0403 15:14:50.838826 31354 net.cpp:141] Setting up inception_4a/3x3_reduce
I0403 15:14:50.838855 31354 net.cpp:148] Top shape: 24 96 14 14 (451584)
I0403 15:14:50.838872 31354 net.cpp:156] Memory required for data: 863429664
I0403 15:14:50.838898 31354 layer_factory.hpp:77] Creating layer inception_4a/relu_3x3_reduce
I0403 15:14:50.838918 31354 net.cpp:91] Creating Layer inception_4a/relu_3x3_reduce
I0403 15:14:50.838935 31354 net.cpp:425] inception_4a/relu_3x3_reduce <- inception_4a/3x3_reduce
I0403 15:14:50.838955 31354 net.cpp:386] inception_4a/relu_3x3_reduce -> inception_4a/3x3_reduce (in-place)
I0403 15:14:50.839135 31354 net.cpp:141] Setting up inception_4a/relu_3x3_reduce
I0403 15:14:50.839160 31354 net.cpp:148] Top shape: 24 96 14 14 (451584)
I0403 15:14:50.839175 31354 net.cpp:156] Memory required for data: 865236000
I0403 15:14:50.839191 31354 layer_factory.hpp:77] Creating layer inception_4a/3x3
I0403 15:14:50.839215 31354 net.cpp:91] Creating Layer inception_4a/3x3
I0403 15:14:50.839233 31354 net.cpp:425] inception_4a/3x3 <- inception_4a/3x3_reduce
I0403 15:14:50.839256 31354 net.cpp:399] inception_4a/3x3 -> inception_4a/3x3
I0403 15:14:50.841933 31354 net.cpp:141] Setting up inception_4a/3x3
I0403 15:14:50.841964 31354 net.cpp:148] Top shape: 24 208 14 14 (978432)
I0403 15:14:50.841979 31354 net.cpp:156] Memory required for data: 869149728
I0403 15:14:50.842000 31354 layer_factory.hpp:77] Creating layer inception_4a/relu_3x3
I0403 15:14:50.842020 31354 net.cpp:91] Creating Layer inception_4a/relu_3x3
I0403 15:14:50.842039 31354 net.cpp:425] inception_4a/relu_3x3 <- inception_4a/3x3
I0403 15:14:50.842058 31354 net.cpp:386] inception_4a/relu_3x3 -> inception_4a/3x3 (in-place)
I0403 15:14:50.842418 31354 net.cpp:141] Setting up inception_4a/relu_3x3
I0403 15:14:50.842445 31354 net.cpp:148] Top shape: 24 208 14 14 (978432)
I0403 15:14:50.842463 31354 net.cpp:156] Memory required for data: 873063456
I0403 15:14:50.842478 31354 layer_factory.hpp:77] Creating layer inception_4a/5x5_reduce
I0403 15:14:50.842506 31354 net.cpp:91] Creating Layer inception_4a/5x5_reduce
I0403 15:14:50.842526 31354 net.cpp:425] inception_4a/5x5_reduce <- pool3/3x3_s2_pool3/3x3_s2_0_split_2
I0403 15:14:50.842546 31354 net.cpp:399] inception_4a/5x5_reduce -> inception_4a/5x5_reduce
I0403 15:14:50.843606 31354 net.cpp:141] Setting up inception_4a/5x5_reduce
I0403 15:14:50.843636 31354 net.cpp:148] Top shape: 24 16 14 14 (75264)
I0403 15:14:50.843652 31354 net.cpp:156] Memory required for data: 873364512
I0403 15:14:50.843672 31354 layer_factory.hpp:77] Creating layer inception_4a/relu_5x5_reduce
I0403 15:14:50.843693 31354 net.cpp:91] Creating Layer inception_4a/relu_5x5_reduce
I0403 15:14:50.843711 31354 net.cpp:425] inception_4a/relu_5x5_reduce <- inception_4a/5x5_reduce
I0403 15:14:50.843730 31354 net.cpp:386] inception_4a/relu_5x5_reduce -> inception_4a/5x5_reduce (in-place)
I0403 15:14:50.843911 31354 net.cpp:141] Setting up inception_4a/relu_5x5_reduce
I0403 15:14:50.843936 31354 net.cpp:148] Top shape: 24 16 14 14 (75264)
I0403 15:14:50.843951 31354 net.cpp:156] Memory required for data: 873665568
I0403 15:14:50.843966 31354 layer_factory.hpp:77] Creating layer inception_4a/5x5
I0403 15:14:50.843989 31354 net.cpp:91] Creating Layer inception_4a/5x5
I0403 15:14:50.844008 31354 net.cpp:425] inception_4a/5x5 <- inception_4a/5x5_reduce
I0403 15:14:50.844030 31354 net.cpp:399] inception_4a/5x5 -> inception_4a/5x5
I0403 15:14:50.845120 31354 net.cpp:141] Setting up inception_4a/5x5
I0403 15:14:50.845150 31354 net.cpp:148] Top shape: 24 48 14 14 (225792)
I0403 15:14:50.845165 31354 net.cpp:156] Memory required for data: 874568736
I0403 15:14:50.845185 31354 layer_factory.hpp:77] Creating layer inception_4a/relu_5x5
I0403 15:14:50.845204 31354 net.cpp:91] Creating Layer inception_4a/relu_5x5
I0403 15:14:50.845222 31354 net.cpp:425] inception_4a/relu_5x5 <- inception_4a/5x5
I0403 15:14:50.845243 31354 net.cpp:386] inception_4a/relu_5x5 -> inception_4a/5x5 (in-place)
I0403 15:14:50.845427 31354 net.cpp:141] Setting up inception_4a/relu_5x5
I0403 15:14:50.845453 31354 net.cpp:148] Top shape: 24 48 14 14 (225792)
I0403 15:14:50.845468 31354 net.cpp:156] Memory required for data: 875471904
I0403 15:14:50.845485 31354 layer_factory.hpp:77] Creating layer inception_4a/pool
I0403 15:14:50.845506 31354 net.cpp:91] Creating Layer inception_4a/pool
I0403 15:14:50.845525 31354 net.cpp:425] inception_4a/pool <- pool3/3x3_s2_pool3/3x3_s2_0_split_3
I0403 15:14:50.845544 31354 net.cpp:399] inception_4a/pool -> inception_4a/pool
I0403 15:14:50.845607 31354 net.cpp:141] Setting up inception_4a/pool
I0403 15:14:50.845631 31354 net.cpp:148] Top shape: 24 480 14 14 (2257920)
I0403 15:14:50.845648 31354 net.cpp:156] Memory required for data: 884503584
I0403 15:14:50.845662 31354 layer_factory.hpp:77] Creating layer inception_4a/pool_proj
I0403 15:14:50.845685 31354 net.cpp:91] Creating Layer inception_4a/pool_proj
I0403 15:14:50.845705 31354 net.cpp:425] inception_4a/pool_proj <- inception_4a/pool
I0403 15:14:50.845727 31354 net.cpp:399] inception_4a/pool_proj -> inception_4a/pool_proj
I0403 15:14:50.846982 31354 net.cpp:141] Setting up inception_4a/pool_proj
I0403 15:14:50.847012 31354 net.cpp:148] Top shape: 24 64 14 14 (301056)
I0403 15:14:50.847044 31354 net.cpp:156] Memory required for data: 885707808
I0403 15:14:50.847065 31354 layer_factory.hpp:77] Creating layer inception_4a/relu_pool_proj
I0403 15:14:50.847086 31354 net.cpp:91] Creating Layer inception_4a/relu_pool_proj
I0403 15:14:50.847105 31354 net.cpp:425] inception_4a/relu_pool_proj <- inception_4a/pool_proj
I0403 15:14:50.847122 31354 net.cpp:386] inception_4a/relu_pool_proj -> inception_4a/pool_proj (in-place)
I0403 15:14:50.847411 31354 net.cpp:141] Setting up inception_4a/relu_pool_proj
I0403 15:14:50.847437 31354 net.cpp:148] Top shape: 24 64 14 14 (301056)
I0403 15:14:50.847453 31354 net.cpp:156] Memory required for data: 886912032
I0403 15:14:50.847468 31354 layer_factory.hpp:77] Creating layer inception_4a/output
I0403 15:14:50.847486 31354 net.cpp:91] Creating Layer inception_4a/output
I0403 15:14:50.847502 31354 net.cpp:425] inception_4a/output <- inception_4a/1x1
I0403 15:14:50.847520 31354 net.cpp:425] inception_4a/output <- inception_4a/3x3
I0403 15:14:50.847537 31354 net.cpp:425] inception_4a/output <- inception_4a/5x5
I0403 15:14:50.847553 31354 net.cpp:425] inception_4a/output <- inception_4a/pool_proj
I0403 15:14:50.847573 31354 net.cpp:399] inception_4a/output -> inception_4a/output
I0403 15:14:50.847617 31354 net.cpp:141] Setting up inception_4a/output
I0403 15:14:50.847645 31354 net.cpp:148] Top shape: 24 512 14 14 (2408448)
I0403 15:14:50.847661 31354 net.cpp:156] Memory required for data: 896545824
I0403 15:14:50.847676 31354 layer_factory.hpp:77] Creating layer inception_4a/output_inception_4a/output_0_split
I0403 15:14:50.847694 31354 net.cpp:91] Creating Layer inception_4a/output_inception_4a/output_0_split
I0403 15:14:50.847710 31354 net.cpp:425] inception_4a/output_inception_4a/output_0_split <- inception_4a/output
I0403 15:14:50.847733 31354 net.cpp:399] inception_4a/output_inception_4a/output_0_split -> inception_4a/output_inception_4a/output_0_split_0
I0403 15:14:50.847754 31354 net.cpp:399] inception_4a/output_inception_4a/output_0_split -> inception_4a/output_inception_4a/output_0_split_1
I0403 15:14:50.847776 31354 net.cpp:399] inception_4a/output_inception_4a/output_0_split -> inception_4a/output_inception_4a/output_0_split_2
I0403 15:14:50.847798 31354 net.cpp:399] inception_4a/output_inception_4a/output_0_split -> inception_4a/output_inception_4a/output_0_split_3
I0403 15:14:50.847820 31354 net.cpp:399] inception_4a/output_inception_4a/output_0_split -> inception_4a/output_inception_4a/output_0_split_4
I0403 15:14:50.847913 31354 net.cpp:141] Setting up inception_4a/output_inception_4a/output_0_split
I0403 15:14:50.847940 31354 net.cpp:148] Top shape: 24 512 14 14 (2408448)
I0403 15:14:50.847977 31354 net.cpp:148] Top shape: 24 512 14 14 (2408448)
I0403 15:14:50.848018 31354 net.cpp:148] Top shape: 24 512 14 14 (2408448)
I0403 15:14:50.848057 31354 net.cpp:148] Top shape: 24 512 14 14 (2408448)
I0403 15:14:50.848103 31354 net.cpp:148] Top shape: 24 512 14 14 (2408448)
I0403 15:14:50.848141 31354 net.cpp:156] Memory required for data: 944714784
I0403 15:14:50.848158 31354 layer_factory.hpp:77] Creating layer loss1/ave_pool
I0403 15:14:50.848176 31354 net.cpp:91] Creating Layer loss1/ave_pool
I0403 15:14:50.848192 31354 net.cpp:425] loss1/ave_pool <- inception_4a/output_inception_4a/output_0_split_0
I0403 15:14:50.848214 31354 net.cpp:399] loss1/ave_pool -> loss1/ave_pool
I0403 15:14:50.848428 31354 net.cpp:141] Setting up loss1/ave_pool
I0403 15:14:50.848464 31354 net.cpp:148] Top shape: 24 512 4 4 (196608)
I0403 15:14:50.848492 31354 net.cpp:156] Memory required for data: 945501216
I0403 15:14:50.848510 31354 layer_factory.hpp:77] Creating layer loss1/conv
I0403 15:14:50.848533 31354 net.cpp:91] Creating Layer loss1/conv
I0403 15:14:50.848579 31354 net.cpp:425] loss1/conv <- loss1/ave_pool
I0403 15:14:50.848629 31354 net.cpp:399] loss1/conv -> loss1/conv
I0403 15:14:50.850126 31354 net.cpp:141] Setting up loss1/conv
I0403 15:14:50.850157 31354 net.cpp:148] Top shape: 24 128 4 4 (49152)
I0403 15:14:50.850173 31354 net.cpp:156] Memory required for data: 945697824
I0403 15:14:50.850209 31354 layer_factory.hpp:77] Creating layer loss1/relu_conv
I0403 15:14:50.850234 31354 net.cpp:91] Creating Layer loss1/relu_conv
I0403 15:14:50.850250 31354 net.cpp:425] loss1/relu_conv <- loss1/conv
I0403 15:14:50.850270 31354 net.cpp:386] loss1/relu_conv -> loss1/conv (in-place)
I0403 15:14:50.850553 31354 net.cpp:141] Setting up loss1/relu_conv
I0403 15:14:50.850608 31354 net.cpp:148] Top shape: 24 128 4 4 (49152)
I0403 15:14:50.850651 31354 net.cpp:156] Memory required for data: 945894432
I0403 15:14:50.850667 31354 layer_factory.hpp:77] Creating layer loss1/fc
I0403 15:14:50.850693 31354 net.cpp:91] Creating Layer loss1/fc
I0403 15:14:50.850713 31354 net.cpp:425] loss1/fc <- loss1/conv
I0403 15:14:50.850734 31354 net.cpp:399] loss1/fc -> loss1/fc
I0403 15:14:50.868450 31354 net.cpp:141] Setting up loss1/fc
I0403 15:14:50.868485 31354 net.cpp:148] Top shape: 24 1024 (24576)
I0403 15:14:50.868502 31354 net.cpp:156] Memory required for data: 945992736
I0403 15:14:50.868522 31354 layer_factory.hpp:77] Creating layer loss1/relu_fc
I0403 15:14:50.868542 31354 net.cpp:91] Creating Layer loss1/relu_fc
I0403 15:14:50.868559 31354 net.cpp:425] loss1/relu_fc <- loss1/fc
I0403 15:14:50.868580 31354 net.cpp:386] loss1/relu_fc -> loss1/fc (in-place)
I0403 15:14:50.868768 31354 net.cpp:141] Setting up loss1/relu_fc
I0403 15:14:50.868796 31354 net.cpp:148] Top shape: 24 1024 (24576)
I0403 15:14:50.868813 31354 net.cpp:156] Memory required for data: 946091040
I0403 15:14:50.868829 31354 layer_factory.hpp:77] Creating layer loss1/drop_fc
I0403 15:14:50.868856 31354 net.cpp:91] Creating Layer loss1/drop_fc
I0403 15:14:50.868875 31354 net.cpp:425] loss1/drop_fc <- loss1/fc
I0403 15:14:50.868894 31354 net.cpp:386] loss1/drop_fc -> loss1/fc (in-place)
I0403 15:14:50.868947 31354 net.cpp:141] Setting up loss1/drop_fc
I0403 15:14:50.868973 31354 net.cpp:148] Top shape: 24 1024 (24576)
I0403 15:14:50.868988 31354 net.cpp:156] Memory required for data: 946189344
I0403 15:14:50.869004 31354 layer_factory.hpp:77] Creating layer loss1/classifier_plantvillage
I0403 15:14:50.869022 31354 net.cpp:91] Creating Layer loss1/classifier_plantvillage
I0403 15:14:50.869040 31354 net.cpp:425] loss1/classifier_plantvillage <- loss1/fc
I0403 15:14:50.869063 31354 net.cpp:399] loss1/classifier_plantvillage -> loss1/classifier_plantvillage
I0403 15:14:50.869976 31354 net.cpp:141] Setting up loss1/classifier_plantvillage
I0403 15:14:50.870007 31354 net.cpp:148] Top shape: 24 38 (912)
I0403 15:14:50.870023 31354 net.cpp:156] Memory required for data: 946192992
I0403 15:14:50.870043 31354 layer_factory.hpp:77] Creating layer loss1/classifier_plantvillage_loss1/classifier_plantvillage_0_split
I0403 15:14:50.870064 31354 net.cpp:91] Creating Layer loss1/classifier_plantvillage_loss1/classifier_plantvillage_0_split
I0403 15:14:50.870081 31354 net.cpp:425] loss1/classifier_plantvillage_loss1/classifier_plantvillage_0_split <- loss1/classifier_plantvillage
I0403 15:14:50.870101 31354 net.cpp:399] loss1/classifier_plantvillage_loss1/classifier_plantvillage_0_split -> loss1/classifier_plantvillage_loss1/classifier_plantvillage_0_split_0
I0403 15:14:50.870122 31354 net.cpp:399] loss1/classifier_plantvillage_loss1/classifier_plantvillage_0_split -> loss1/classifier_plantvillage_loss1/classifier_plantvillage_0_split_1
I0403 15:14:50.870142 31354 net.cpp:399] loss1/classifier_plantvillage_loss1/classifier_plantvillage_0_split -> loss1/classifier_plantvillage_loss1/classifier_plantvillage_0_split_2
I0403 15:14:50.870211 31354 net.cpp:141] Setting up loss1/classifier_plantvillage_loss1/classifier_plantvillage_0_split
I0403 15:14:50.870235 31354 net.cpp:148] Top shape: 24 38 (912)
I0403 15:14:50.870252 31354 net.cpp:148] Top shape: 24 38 (912)
I0403 15:14:50.870270 31354 net.cpp:148] Top shape: 24 38 (912)
I0403 15:14:50.870286 31354 net.cpp:156] Memory required for data: 946203936
I0403 15:14:50.870303 31354 layer_factory.hpp:77] Creating layer inception_4b/1x1
I0403 15:14:50.870327 31354 net.cpp:91] Creating Layer inception_4b/1x1
I0403 15:14:50.870362 31354 net.cpp:425] inception_4b/1x1 <- inception_4a/output_inception_4a/output_0_split_1
I0403 15:14:50.870383 31354 net.cpp:399] inception_4b/1x1 -> inception_4b/1x1
I0403 15:14:50.872053 31354 net.cpp:141] Setting up inception_4b/1x1
I0403 15:14:50.872084 31354 net.cpp:148] Top shape: 24 160 14 14 (752640)
I0403 15:14:50.872102 31354 net.cpp:156] Memory required for data: 949214496
I0403 15:14:50.872122 31354 layer_factory.hpp:77] Creating layer inception_4b/relu_1x1
I0403 15:14:50.872144 31354 net.cpp:91] Creating Layer inception_4b/relu_1x1
I0403 15:14:50.872164 31354 net.cpp:425] inception_4b/relu_1x1 <- inception_4b/1x1
I0403 15:14:50.872182 31354 net.cpp:386] inception_4b/relu_1x1 -> inception_4b/1x1 (in-place)
I0403 15:14:50.872375 31354 net.cpp:141] Setting up inception_4b/relu_1x1
I0403 15:14:50.872401 31354 net.cpp:148] Top shape: 24 160 14 14 (752640)
I0403 15:14:50.872417 31354 net.cpp:156] Memory required for data: 952225056
I0403 15:14:50.872433 31354 layer_factory.hpp:77] Creating layer inception_4b/3x3_reduce
I0403 15:14:50.872459 31354 net.cpp:91] Creating Layer inception_4b/3x3_reduce
I0403 15:14:50.872479 31354 net.cpp:425] inception_4b/3x3_reduce <- inception_4a/output_inception_4a/output_0_split_2
I0403 15:14:50.872501 31354 net.cpp:399] inception_4b/3x3_reduce -> inception_4b/3x3_reduce
I0403 15:14:50.873893 31354 net.cpp:141] Setting up inception_4b/3x3_reduce
I0403 15:14:50.873924 31354 net.cpp:148] Top shape: 24 112 14 14 (526848)
I0403 15:14:50.873940 31354 net.cpp:156] Memory required for data: 954332448
I0403 15:14:50.873961 31354 layer_factory.hpp:77] Creating layer inception_4b/relu_3x3_reduce
I0403 15:14:50.873980 31354 net.cpp:91] Creating Layer inception_4b/relu_3x3_reduce
I0403 15:14:50.873997 31354 net.cpp:425] inception_4b/relu_3x3_reduce <- inception_4b/3x3_reduce
I0403 15:14:50.874018 31354 net.cpp:386] inception_4b/relu_3x3_reduce -> inception_4b/3x3_reduce (in-place)
I0403 15:14:50.874347 31354 net.cpp:141] Setting up inception_4b/relu_3x3_reduce
I0403 15:14:50.874377 31354 net.cpp:148] Top shape: 24 112 14 14 (526848)
I0403 15:14:50.874393 31354 net.cpp:156] Memory required for data: 956439840
I0403 15:14:50.874409 31354 layer_factory.hpp:77] Creating layer inception_4b/3x3
I0403 15:14:50.874434 31354 net.cpp:91] Creating Layer inception_4b/3x3
I0403 15:14:50.874454 31354 net.cpp:425] inception_4b/3x3 <- inception_4b/3x3_reduce
I0403 15:14:50.874476 31354 net.cpp:399] inception_4b/3x3 -> inception_4b/3x3
I0403 15:14:50.877535 31354 net.cpp:141] Setting up inception_4b/3x3
I0403 15:14:50.877568 31354 net.cpp:148] Top shape: 24 224 14 14 (1053696)
I0403 15:14:50.877605 31354 net.cpp:156] Memory required for data: 960654624
I0403 15:14:50.877653 31354 layer_factory.hpp:77] Creating layer inception_4b/relu_3x3
I0403 15:14:50.877686 31354 net.cpp:91] Creating Layer inception_4b/relu_3x3
I0403 15:14:50.877709 31354 net.cpp:425] inception_4b/relu_3x3 <- inception_4b/3x3
I0403 15:14:50.877740 31354 net.cpp:386] inception_4b/relu_3x3 -> inception_4b/3x3 (in-place)
I0403 15:14:50.877948 31354 net.cpp:141] Setting up inception_4b/relu_3x3
I0403 15:14:50.877982 31354 net.cpp:148] Top shape: 24 224 14 14 (1053696)
I0403 15:14:50.878012 31354 net.cpp:156] Memory required for data: 964869408
I0403 15:14:50.878047 31354 layer_factory.hpp:77] Creating layer inception_4b/5x5_reduce
I0403 15:14:50.878095 31354 net.cpp:91] Creating Layer inception_4b/5x5_reduce
I0403 15:14:50.878125 31354 net.cpp:425] inception_4b/5x5_reduce <- inception_4a/output_inception_4a/output_0_split_3
I0403 15:14:50.878168 31354 net.cpp:399] inception_4b/5x5_reduce -> inception_4b/5x5_reduce
I0403 15:14:50.879313 31354 net.cpp:141] Setting up inception_4b/5x5_reduce
I0403 15:14:50.879346 31354 net.cpp:148] Top shape: 24 24 14 14 (112896)
I0403 15:14:50.879364 31354 net.cpp:156] Memory required for data: 965320992
I0403 15:14:50.879384 31354 layer_factory.hpp:77] Creating layer inception_4b/relu_5x5_reduce
I0403 15:14:50.879405 31354 net.cpp:91] Creating Layer inception_4b/relu_5x5_reduce
I0403 15:14:50.879438 31354 net.cpp:425] inception_4b/relu_5x5_reduce <- inception_4b/5x5_reduce
I0403 15:14:50.879458 31354 net.cpp:386] inception_4b/relu_5x5_reduce -> inception_4b/5x5_reduce (in-place)
I0403 15:14:50.879655 31354 net.cpp:141] Setting up inception_4b/relu_5x5_reduce
I0403 15:14:50.879681 31354 net.cpp:148] Top shape: 24 24 14 14 (112896)
I0403 15:14:50.879698 31354 net.cpp:156] Memory required for data: 965772576
I0403 15:14:50.879714 31354 layer_factory.hpp:77] Creating layer inception_4b/5x5
I0403 15:14:50.879737 31354 net.cpp:91] Creating Layer inception_4b/5x5
I0403 15:14:50.879757 31354 net.cpp:425] inception_4b/5x5 <- inception_4b/5x5_reduce
I0403 15:14:50.879781 31354 net.cpp:399] inception_4b/5x5 -> inception_4b/5x5
I0403 15:14:50.881039 31354 net.cpp:141] Setting up inception_4b/5x5
I0403 15:14:50.881086 31354 net.cpp:148] Top shape: 24 64 14 14 (301056)
I0403 15:14:50.881103 31354 net.cpp:156] Memory required for data: 966976800
I0403 15:14:50.881124 31354 layer_factory.hpp:77] Creating layer inception_4b/relu_5x5
I0403 15:14:50.881145 31354 net.cpp:91] Creating Layer inception_4b/relu_5x5
I0403 15:14:50.881163 31354 net.cpp:425] inception_4b/relu_5x5 <- inception_4b/5x5
I0403 15:14:50.881181 31354 net.cpp:386] inception_4b/relu_5x5 -> inception_4b/5x5 (in-place)
I0403 15:14:50.881482 31354 net.cpp:141] Setting up inception_4b/relu_5x5
I0403 15:14:50.881510 31354 net.cpp:148] Top shape: 24 64 14 14 (301056)
I0403 15:14:50.881526 31354 net.cpp:156] Memory required for data: 968181024
I0403 15:14:50.881542 31354 layer_factory.hpp:77] Creating layer inception_4b/pool
I0403 15:14:50.881566 31354 net.cpp:91] Creating Layer inception_4b/pool
I0403 15:14:50.881583 31354 net.cpp:425] inception_4b/pool <- inception_4a/output_inception_4a/output_0_split_4
I0403 15:14:50.881603 31354 net.cpp:399] inception_4b/pool -> inception_4b/pool
I0403 15:14:50.881671 31354 net.cpp:141] Setting up inception_4b/pool
I0403 15:14:50.881697 31354 net.cpp:148] Top shape: 24 512 14 14 (2408448)
I0403 15:14:50.881713 31354 net.cpp:156] Memory required for data: 977814816
I0403 15:14:50.881729 31354 layer_factory.hpp:77] Creating layer inception_4b/pool_proj
I0403 15:14:50.881753 31354 net.cpp:91] Creating Layer inception_4b/pool_proj
I0403 15:14:50.881772 31354 net.cpp:425] inception_4b/pool_proj <- inception_4b/pool
I0403 15:14:50.881796 31354 net.cpp:399] inception_4b/pool_proj -> inception_4b/pool_proj
I0403 15:14:50.883031 31354 net.cpp:141] Setting up inception_4b/pool_proj
I0403 15:14:50.883064 31354 net.cpp:148] Top shape: 24 64 14 14 (301056)
I0403 15:14:50.883081 31354 net.cpp:156] Memory required for data: 979019040
I0403 15:14:50.883101 31354 layer_factory.hpp:77] Creating layer inception_4b/relu_pool_proj
I0403 15:14:50.883123 31354 net.cpp:91] Creating Layer inception_4b/relu_pool_proj
I0403 15:14:50.883141 31354 net.cpp:425] inception_4b/relu_pool_proj <- inception_4b/pool_proj
I0403 15:14:50.883162 31354 net.cpp:386] inception_4b/relu_pool_proj -> inception_4b/pool_proj (in-place)
I0403 15:14:50.883352 31354 net.cpp:141] Setting up inception_4b/relu_pool_proj
I0403 15:14:50.883378 31354 net.cpp:148] Top shape: 24 64 14 14 (301056)
I0403 15:14:50.883394 31354 net.cpp:156] Memory required for data: 980223264
I0403 15:14:50.883411 31354 layer_factory.hpp:77] Creating layer inception_4b/output
I0403 15:14:50.883430 31354 net.cpp:91] Creating Layer inception_4b/output
I0403 15:14:50.883447 31354 net.cpp:425] inception_4b/output <- inception_4b/1x1
I0403 15:14:50.883465 31354 net.cpp:425] inception_4b/output <- inception_4b/3x3
I0403 15:14:50.883482 31354 net.cpp:425] inception_4b/output <- inception_4b/5x5
I0403 15:14:50.883499 31354 net.cpp:425] inception_4b/output <- inception_4b/pool_proj
I0403 15:14:50.883520 31354 net.cpp:399] inception_4b/output -> inception_4b/output
I0403 15:14:50.883568 31354 net.cpp:141] Setting up inception_4b/output
I0403 15:14:50.883596 31354 net.cpp:148] Top shape: 24 512 14 14 (2408448)
I0403 15:14:50.883613 31354 net.cpp:156] Memory required for data: 989857056
I0403 15:14:50.883644 31354 layer_factory.hpp:77] Creating layer inception_4b/output_inception_4b/output_0_split
I0403 15:14:50.883664 31354 net.cpp:91] Creating Layer inception_4b/output_inception_4b/output_0_split
I0403 15:14:50.883682 31354 net.cpp:425] inception_4b/output_inception_4b/output_0_split <- inception_4b/output
I0403 15:14:50.883702 31354 net.cpp:399] inception_4b/output_inception_4b/output_0_split -> inception_4b/output_inception_4b/output_0_split_0
I0403 15:14:50.883725 31354 net.cpp:399] inception_4b/output_inception_4b/output_0_split -> inception_4b/output_inception_4b/output_0_split_1
I0403 15:14:50.883749 31354 net.cpp:399] inception_4b/output_inception_4b/output_0_split -> inception_4b/output_inception_4b/output_0_split_2
I0403 15:14:50.883770 31354 net.cpp:399] inception_4b/output_inception_4b/output_0_split -> inception_4b/output_inception_4b/output_0_split_3
I0403 15:14:50.883858 31354 net.cpp:141] Setting up inception_4b/output_inception_4b/output_0_split
I0403 15:14:50.883884 31354 net.cpp:148] Top shape: 24 512 14 14 (2408448)
I0403 15:14:50.883903 31354 net.cpp:148] Top shape: 24 512 14 14 (2408448)
I0403 15:14:50.883919 31354 net.cpp:148] Top shape: 24 512 14 14 (2408448)
I0403 15:14:50.883934 31354 net.cpp:148] Top shape: 24 512 14 14 (2408448)
I0403 15:14:50.883949 31354 net.cpp:156] Memory required for data: 1028392224
I0403 15:14:50.883965 31354 layer_factory.hpp:77] Creating layer inception_4c/1x1
I0403 15:14:50.883990 31354 net.cpp:91] Creating Layer inception_4c/1x1
I0403 15:14:50.884011 31354 net.cpp:425] inception_4c/1x1 <- inception_4b/output_inception_4b/output_0_split_0
I0403 15:14:50.884030 31354 net.cpp:399] inception_4c/1x1 -> inception_4c/1x1
I0403 15:14:50.885548 31354 net.cpp:141] Setting up inception_4c/1x1
I0403 15:14:50.885578 31354 net.cpp:148] Top shape: 24 128 14 14 (602112)
I0403 15:14:50.885596 31354 net.cpp:156] Memory required for data: 1030800672
I0403 15:14:50.885614 31354 layer_factory.hpp:77] Creating layer inception_4c/relu_1x1
I0403 15:14:50.885633 31354 net.cpp:91] Creating Layer inception_4c/relu_1x1
I0403 15:14:50.885650 31354 net.cpp:425] inception_4c/relu_1x1 <- inception_4c/1x1
I0403 15:14:50.885671 31354 net.cpp:386] inception_4c/relu_1x1 -> inception_4c/1x1 (in-place)
I0403 15:14:50.885854 31354 net.cpp:141] Setting up inception_4c/relu_1x1
I0403 15:14:50.885880 31354 net.cpp:148] Top shape: 24 128 14 14 (602112)
I0403 15:14:50.885896 31354 net.cpp:156] Memory required for data: 1033209120
I0403 15:14:50.885911 31354 layer_factory.hpp:77] Creating layer inception_4c/3x3_reduce
I0403 15:14:50.885936 31354 net.cpp:91] Creating Layer inception_4c/3x3_reduce
I0403 15:14:50.885953 31354 net.cpp:425] inception_4c/3x3_reduce <- inception_4b/output_inception_4b/output_0_split_1
I0403 15:14:50.885975 31354 net.cpp:399] inception_4c/3x3_reduce -> inception_4c/3x3_reduce
I0403 15:14:50.887971 31354 net.cpp:141] Setting up inception_4c/3x3_reduce
I0403 15:14:50.888001 31354 net.cpp:148] Top shape: 24 128 14 14 (602112)
I0403 15:14:50.888023 31354 net.cpp:156] Memory required for data: 1035617568
I0403 15:14:50.888043 31354 layer_factory.hpp:77] Creating layer inception_4c/relu_3x3_reduce
I0403 15:14:50.888063 31354 net.cpp:91] Creating Layer inception_4c/relu_3x3_reduce
I0403 15:14:50.888082 31354 net.cpp:425] inception_4c/relu_3x3_reduce <- inception_4c/3x3_reduce
I0403 15:14:50.888099 31354 net.cpp:386] inception_4c/relu_3x3_reduce -> inception_4c/3x3_reduce (in-place)
I0403 15:14:50.888398 31354 net.cpp:141] Setting up inception_4c/relu_3x3_reduce
I0403 15:14:50.888428 31354 net.cpp:148] Top shape: 24 128 14 14 (602112)
I0403 15:14:50.888445 31354 net.cpp:156] Memory required for data: 1038026016
I0403 15:14:50.888461 31354 layer_factory.hpp:77] Creating layer inception_4c/3x3
I0403 15:14:50.888484 31354 net.cpp:91] Creating Layer inception_4c/3x3
I0403 15:14:50.888501 31354 net.cpp:425] inception_4c/3x3 <- inception_4c/3x3_reduce
I0403 15:14:50.888525 31354 net.cpp:399] inception_4c/3x3 -> inception_4c/3x3
I0403 15:14:50.892235 31354 net.cpp:141] Setting up inception_4c/3x3
I0403 15:14:50.892282 31354 net.cpp:148] Top shape: 24 256 14 14 (1204224)
I0403 15:14:50.892305 31354 net.cpp:156] Memory required for data: 1042842912
I0403 15:14:50.892340 31354 layer_factory.hpp:77] Creating layer inception_4c/relu_3x3
I0403 15:14:50.892362 31354 net.cpp:91] Creating Layer inception_4c/relu_3x3
I0403 15:14:50.892379 31354 net.cpp:425] inception_4c/relu_3x3 <- inception_4c/3x3
I0403 15:14:50.892400 31354 net.cpp:386] inception_4c/relu_3x3 -> inception_4c/3x3 (in-place)
I0403 15:14:50.892585 31354 net.cpp:141] Setting up inception_4c/relu_3x3
I0403 15:14:50.892614 31354 net.cpp:148] Top shape: 24 256 14 14 (1204224)
I0403 15:14:50.892632 31354 net.cpp:156] Memory required for data: 1047659808
I0403 15:14:50.892649 31354 layer_factory.hpp:77] Creating layer inception_4c/5x5_reduce
I0403 15:14:50.892674 31354 net.cpp:91] Creating Layer inception_4c/5x5_reduce
I0403 15:14:50.892693 31354 net.cpp:425] inception_4c/5x5_reduce <- inception_4b/output_inception_4b/output_0_split_2
I0403 15:14:50.892714 31354 net.cpp:399] inception_4c/5x5_reduce -> inception_4c/5x5_reduce
I0403 15:14:50.893836 31354 net.cpp:141] Setting up inception_4c/5x5_reduce
I0403 15:14:50.893867 31354 net.cpp:148] Top shape: 24 24 14 14 (112896)
I0403 15:14:50.893884 31354 net.cpp:156] Memory required for data: 1048111392
I0403 15:14:50.893905 31354 layer_factory.hpp:77] Creating layer inception_4c/relu_5x5_reduce
I0403 15:14:50.893924 31354 net.cpp:91] Creating Layer inception_4c/relu_5x5_reduce
I0403 15:14:50.893942 31354 net.cpp:425] inception_4c/relu_5x5_reduce <- inception_4c/5x5_reduce
I0403 15:14:50.893960 31354 net.cpp:386] inception_4c/relu_5x5_reduce -> inception_4c/5x5_reduce (in-place)
I0403 15:14:50.894153 31354 net.cpp:141] Setting up inception_4c/relu_5x5_reduce
I0403 15:14:50.894179 31354 net.cpp:148] Top shape: 24 24 14 14 (112896)
I0403 15:14:50.894196 31354 net.cpp:156] Memory required for data: 1048562976
I0403 15:14:50.894213 31354 layer_factory.hpp:77] Creating layer inception_4c/5x5
I0403 15:14:50.894237 31354 net.cpp:91] Creating Layer inception_4c/5x5
I0403 15:14:50.894255 31354 net.cpp:425] inception_4c/5x5 <- inception_4c/5x5_reduce
I0403 15:14:50.894278 31354 net.cpp:399] inception_4c/5x5 -> inception_4c/5x5
I0403 15:14:50.895567 31354 net.cpp:141] Setting up inception_4c/5x5
I0403 15:14:50.895596 31354 net.cpp:148] Top shape: 24 64 14 14 (301056)
I0403 15:14:50.895612 31354 net.cpp:156] Memory required for data: 1049767200
I0403 15:14:50.895633 31354 layer_factory.hpp:77] Creating layer inception_4c/relu_5x5
I0403 15:14:50.895654 31354 net.cpp:91] Creating Layer inception_4c/relu_5x5
I0403 15:14:50.895671 31354 net.cpp:425] inception_4c/relu_5x5 <- inception_4c/5x5
I0403 15:14:50.895691 31354 net.cpp:386] inception_4c/relu_5x5 -> inception_4c/5x5 (in-place)
I0403 15:14:50.895989 31354 net.cpp:141] Setting up inception_4c/relu_5x5
I0403 15:14:50.896018 31354 net.cpp:148] Top shape: 24 64 14 14 (301056)
I0403 15:14:50.896034 31354 net.cpp:156] Memory required for data: 1050971424
I0403 15:14:50.896049 31354 layer_factory.hpp:77] Creating layer inception_4c/pool
I0403 15:14:50.896070 31354 net.cpp:91] Creating Layer inception_4c/pool
I0403 15:14:50.896086 31354 net.cpp:425] inception_4c/pool <- inception_4b/output_inception_4b/output_0_split_3
I0403 15:14:50.896108 31354 net.cpp:399] inception_4c/pool -> inception_4c/pool
I0403 15:14:50.896178 31354 net.cpp:141] Setting up inception_4c/pool
I0403 15:14:50.896204 31354 net.cpp:148] Top shape: 24 512 14 14 (2408448)
I0403 15:14:50.896220 31354 net.cpp:156] Memory required for data: 1060605216
I0403 15:14:50.896237 31354 layer_factory.hpp:77] Creating layer inception_4c/pool_proj
I0403 15:14:50.896263 31354 net.cpp:91] Creating Layer inception_4c/pool_proj
I0403 15:14:50.896282 31354 net.cpp:425] inception_4c/pool_proj <- inception_4c/pool
I0403 15:14:50.896319 31354 net.cpp:399] inception_4c/pool_proj -> inception_4c/pool_proj
I0403 15:14:50.897603 31354 net.cpp:141] Setting up inception_4c/pool_proj
I0403 15:14:50.897636 31354 net.cpp:148] Top shape: 24 64 14 14 (301056)
I0403 15:14:50.897666 31354 net.cpp:156] Memory required for data: 1061809440
I0403 15:14:50.897687 31354 layer_factory.hpp:77] Creating layer inception_4c/relu_pool_proj
I0403 15:14:50.897707 31354 net.cpp:91] Creating Layer inception_4c/relu_pool_proj
I0403 15:14:50.897725 31354 net.cpp:425] inception_4c/relu_pool_proj <- inception_4c/pool_proj
I0403 15:14:50.897745 31354 net.cpp:386] inception_4c/relu_pool_proj -> inception_4c/pool_proj (in-place)
I0403 15:14:50.897936 31354 net.cpp:141] Setting up inception_4c/relu_pool_proj
I0403 15:14:50.897963 31354 net.cpp:148] Top shape: 24 64 14 14 (301056)
I0403 15:14:50.897979 31354 net.cpp:156] Memory required for data: 1063013664
I0403 15:14:50.897995 31354 layer_factory.hpp:77] Creating layer inception_4c/output
I0403 15:14:50.898015 31354 net.cpp:91] Creating Layer inception_4c/output
I0403 15:14:50.898031 31354 net.cpp:425] inception_4c/output <- inception_4c/1x1
I0403 15:14:50.898048 31354 net.cpp:425] inception_4c/output <- inception_4c/3x3
I0403 15:14:50.898066 31354 net.cpp:425] inception_4c/output <- inception_4c/5x5
I0403 15:14:50.898085 31354 net.cpp:425] inception_4c/output <- inception_4c/pool_proj
I0403 15:14:50.898107 31354 net.cpp:399] inception_4c/output -> inception_4c/output
I0403 15:14:50.898156 31354 net.cpp:141] Setting up inception_4c/output
I0403 15:14:50.898185 31354 net.cpp:148] Top shape: 24 512 14 14 (2408448)
I0403 15:14:50.898201 31354 net.cpp:156] Memory required for data: 1072647456
I0403 15:14:50.898218 31354 layer_factory.hpp:77] Creating layer inception_4c/output_inception_4c/output_0_split
I0403 15:14:50.898236 31354 net.cpp:91] Creating Layer inception_4c/output_inception_4c/output_0_split
I0403 15:14:50.898253 31354 net.cpp:425] inception_4c/output_inception_4c/output_0_split <- inception_4c/output
I0403 15:14:50.898272 31354 net.cpp:399] inception_4c/output_inception_4c/output_0_split -> inception_4c/output_inception_4c/output_0_split_0
I0403 15:14:50.898299 31354 net.cpp:399] inception_4c/output_inception_4c/output_0_split -> inception_4c/output_inception_4c/output_0_split_1
I0403 15:14:50.898327 31354 net.cpp:399] inception_4c/output_inception_4c/output_0_split -> inception_4c/output_inception_4c/output_0_split_2
I0403 15:14:50.898351 31354 net.cpp:399] inception_4c/output_inception_4c/output_0_split -> inception_4c/output_inception_4c/output_0_split_3
I0403 15:14:50.898442 31354 net.cpp:141] Setting up inception_4c/output_inception_4c/output_0_split
I0403 15:14:50.898495 31354 net.cpp:148] Top shape: 24 512 14 14 (2408448)
I0403 15:14:50.898546 31354 net.cpp:148] Top shape: 24 512 14 14 (2408448)
I0403 15:14:50.898602 31354 net.cpp:148] Top shape: 24 512 14 14 (2408448)
I0403 15:14:50.898646 31354 net.cpp:148] Top shape: 24 512 14 14 (2408448)
I0403 15:14:50.898686 31354 net.cpp:156] Memory required for data: 1111182624
I0403 15:14:50.898704 31354 layer_factory.hpp:77] Creating layer inception_4d/1x1
I0403 15:14:50.898726 31354 net.cpp:91] Creating Layer inception_4d/1x1
I0403 15:14:50.898746 31354 net.cpp:425] inception_4d/1x1 <- inception_4c/output_inception_4c/output_0_split_0
I0403 15:14:50.898767 31354 net.cpp:399] inception_4d/1x1 -> inception_4d/1x1
I0403 15:14:50.900197 31354 net.cpp:141] Setting up inception_4d/1x1
I0403 15:14:50.900228 31354 net.cpp:148] Top shape: 24 112 14 14 (526848)
I0403 15:14:50.900244 31354 net.cpp:156] Memory required for data: 1113290016
I0403 15:14:50.900264 31354 layer_factory.hpp:77] Creating layer inception_4d/relu_1x1
I0403 15:14:50.900290 31354 net.cpp:91] Creating Layer inception_4d/relu_1x1
I0403 15:14:50.900310 31354 net.cpp:425] inception_4d/relu_1x1 <- inception_4d/1x1
I0403 15:14:50.900329 31354 net.cpp:386] inception_4d/relu_1x1 -> inception_4d/1x1 (in-place)
I0403 15:14:50.900517 31354 net.cpp:141] Setting up inception_4d/relu_1x1
I0403 15:14:50.900547 31354 net.cpp:148] Top shape: 24 112 14 14 (526848)
I0403 15:14:50.900563 31354 net.cpp:156] Memory required for data: 1115397408
I0403 15:14:50.900579 31354 layer_factory.hpp:77] Creating layer inception_4d/3x3_reduce
I0403 15:14:50.900617 31354 net.cpp:91] Creating Layer inception_4d/3x3_reduce
I0403 15:14:50.900638 31354 net.cpp:425] inception_4d/3x3_reduce <- inception_4c/output_inception_4c/output_0_split_1
I0403 15:14:50.900658 31354 net.cpp:399] inception_4d/3x3_reduce -> inception_4d/3x3_reduce
I0403 15:14:50.902228 31354 net.cpp:141] Setting up inception_4d/3x3_reduce
I0403 15:14:50.902279 31354 net.cpp:148] Top shape: 24 144 14 14 (677376)
I0403 15:14:50.902323 31354 net.cpp:156] Memory required for data: 1118106912
I0403 15:14:50.902359 31354 layer_factory.hpp:77] Creating layer inception_4d/relu_3x3_reduce
I0403 15:14:50.902384 31354 net.cpp:91] Creating Layer inception_4d/relu_3x3_reduce
I0403 15:14:50.902421 31354 net.cpp:425] inception_4d/relu_3x3_reduce <- inception_4d/3x3_reduce
I0403 15:14:50.902451 31354 net.cpp:386] inception_4d/relu_3x3_reduce -> inception_4d/3x3_reduce (in-place)
I0403 15:14:50.902751 31354 net.cpp:141] Setting up inception_4d/relu_3x3_reduce
I0403 15:14:50.902779 31354 net.cpp:148] Top shape: 24 144 14 14 (677376)
I0403 15:14:50.902796 31354 net.cpp:156] Memory required for data: 1120816416
I0403 15:14:50.902813 31354 layer_factory.hpp:77] Creating layer inception_4d/3x3
I0403 15:14:50.902837 31354 net.cpp:91] Creating Layer inception_4d/3x3
I0403 15:14:50.902856 31354 net.cpp:425] inception_4d/3x3 <- inception_4d/3x3_reduce
I0403 15:14:50.902879 31354 net.cpp:399] inception_4d/3x3 -> inception_4d/3x3
I0403 15:14:50.907332 31354 net.cpp:141] Setting up inception_4d/3x3
I0403 15:14:50.907364 31354 net.cpp:148] Top shape: 24 288 14 14 (1354752)
I0403 15:14:50.907382 31354 net.cpp:156] Memory required for data: 1126235424
I0403 15:14:50.907402 31354 layer_factory.hpp:77] Creating layer inception_4d/relu_3x3
I0403 15:14:50.907424 31354 net.cpp:91] Creating Layer inception_4d/relu_3x3
I0403 15:14:50.907443 31354 net.cpp:425] inception_4d/relu_3x3 <- inception_4d/3x3
I0403 15:14:50.907483 31354 net.cpp:386] inception_4d/relu_3x3 -> inception_4d/3x3 (in-place)
I0403 15:14:50.907668 31354 net.cpp:141] Setting up inception_4d/relu_3x3
I0403 15:14:50.907696 31354 net.cpp:148] Top shape: 24 288 14 14 (1354752)
I0403 15:14:50.907712 31354 net.cpp:156] Memory required for data: 1131654432
I0403 15:14:50.907727 31354 layer_factory.hpp:77] Creating layer inception_4d/5x5_reduce
I0403 15:14:50.907752 31354 net.cpp:91] Creating Layer inception_4d/5x5_reduce
I0403 15:14:50.907770 31354 net.cpp:425] inception_4d/5x5_reduce <- inception_4c/output_inception_4c/output_0_split_2
I0403 15:14:50.907790 31354 net.cpp:399] inception_4d/5x5_reduce -> inception_4d/5x5_reduce
I0403 15:14:50.908938 31354 net.cpp:141] Setting up inception_4d/5x5_reduce
I0403 15:14:50.908967 31354 net.cpp:148] Top shape: 24 32 14 14 (150528)
I0403 15:14:50.908984 31354 net.cpp:156] Memory required for data: 1132256544
I0403 15:14:50.909004 31354 layer_factory.hpp:77] Creating layer inception_4d/relu_5x5_reduce
I0403 15:14:50.909025 31354 net.cpp:91] Creating Layer inception_4d/relu_5x5_reduce
I0403 15:14:50.909044 31354 net.cpp:425] inception_4d/relu_5x5_reduce <- inception_4d/5x5_reduce
I0403 15:14:50.909063 31354 net.cpp:386] inception_4d/relu_5x5_reduce -> inception_4d/5x5_reduce (in-place)
I0403 15:14:50.909250 31354 net.cpp:141] Setting up inception_4d/relu_5x5_reduce
I0403 15:14:50.909279 31354 net.cpp:148] Top shape: 24 32 14 14 (150528)
I0403 15:14:50.909301 31354 net.cpp:156] Memory required for data: 1132858656
I0403 15:14:50.909317 31354 layer_factory.hpp:77] Creating layer inception_4d/5x5
I0403 15:14:50.909342 31354 net.cpp:91] Creating Layer inception_4d/5x5
I0403 15:14:50.909360 31354 net.cpp:425] inception_4d/5x5 <- inception_4d/5x5_reduce
I0403 15:14:50.909380 31354 net.cpp:399] inception_4d/5x5 -> inception_4d/5x5
I0403 15:14:50.910866 31354 net.cpp:141] Setting up inception_4d/5x5
I0403 15:14:50.910897 31354 net.cpp:148] Top shape: 24 64 14 14 (301056)
I0403 15:14:50.910913 31354 net.cpp:156] Memory required for data: 1134062880
I0403 15:14:50.910934 31354 layer_factory.hpp:77] Creating layer inception_4d/relu_5x5
I0403 15:14:50.910969 31354 net.cpp:91] Creating Layer inception_4d/relu_5x5
I0403 15:14:50.910987 31354 net.cpp:425] inception_4d/relu_5x5 <- inception_4d/5x5
I0403 15:14:50.911008 31354 net.cpp:386] inception_4d/relu_5x5 -> inception_4d/5x5 (in-place)
I0403 15:14:50.911315 31354 net.cpp:141] Setting up inception_4d/relu_5x5
I0403 15:14:50.911342 31354 net.cpp:148] Top shape: 24 64 14 14 (301056)
I0403 15:14:50.911357 31354 net.cpp:156] Memory required for data: 1135267104
I0403 15:14:50.911375 31354 layer_factory.hpp:77] Creating layer inception_4d/pool
I0403 15:14:50.911392 31354 net.cpp:91] Creating Layer inception_4d/pool
I0403 15:14:50.911409 31354 net.cpp:425] inception_4d/pool <- inception_4c/output_inception_4c/output_0_split_3
I0403 15:14:50.911429 31354 net.cpp:399] inception_4d/pool -> inception_4d/pool
I0403 15:14:50.911497 31354 net.cpp:141] Setting up inception_4d/pool
I0403 15:14:50.911528 31354 net.cpp:148] Top shape: 24 512 14 14 (2408448)
I0403 15:14:50.911556 31354 net.cpp:156] Memory required for data: 1144900896
I0403 15:14:50.911589 31354 layer_factory.hpp:77] Creating layer inception_4d/pool_proj
I0403 15:14:50.911620 31354 net.cpp:91] Creating Layer inception_4d/pool_proj
I0403 15:14:50.911641 31354 net.cpp:425] inception_4d/pool_proj <- inception_4d/pool
I0403 15:14:50.911661 31354 net.cpp:399] inception_4d/pool_proj -> inception_4d/pool_proj
I0403 15:14:50.913472 31354 net.cpp:141] Setting up inception_4d/pool_proj
I0403 15:14:50.913504 31354 net.cpp:148] Top shape: 24 64 14 14 (301056)
I0403 15:14:50.913521 31354 net.cpp:156] Memory required for data: 1146105120
I0403 15:14:50.913540 31354 layer_factory.hpp:77] Creating layer inception_4d/relu_pool_proj
I0403 15:14:50.913563 31354 net.cpp:91] Creating Layer inception_4d/relu_pool_proj
I0403 15:14:50.913580 31354 net.cpp:425] inception_4d/relu_pool_proj <- inception_4d/pool_proj
I0403 15:14:50.913599 31354 net.cpp:386] inception_4d/relu_pool_proj -> inception_4d/pool_proj (in-place)
I0403 15:14:50.913786 31354 net.cpp:141] Setting up inception_4d/relu_pool_proj
I0403 15:14:50.913815 31354 net.cpp:148] Top shape: 24 64 14 14 (301056)
I0403 15:14:50.913833 31354 net.cpp:156] Memory required for data: 1147309344
I0403 15:14:50.913849 31354 layer_factory.hpp:77] Creating layer inception_4d/output
I0403 15:14:50.913867 31354 net.cpp:91] Creating Layer inception_4d/output
I0403 15:14:50.913909 31354 net.cpp:425] inception_4d/output <- inception_4d/1x1
I0403 15:14:50.913951 31354 net.cpp:425] inception_4d/output <- inception_4d/3x3
I0403 15:14:50.913992 31354 net.cpp:425] inception_4d/output <- inception_4d/5x5
I0403 15:14:50.914034 31354 net.cpp:425] inception_4d/output <- inception_4d/pool_proj
I0403 15:14:50.914077 31354 net.cpp:399] inception_4d/output -> inception_4d/output
I0403 15:14:50.914145 31354 net.cpp:141] Setting up inception_4d/output
I0403 15:14:50.914171 31354 net.cpp:148] Top shape: 24 528 14 14 (2483712)
I0403 15:14:50.914186 31354 net.cpp:156] Memory required for data: 1157244192
I0403 15:14:50.914202 31354 layer_factory.hpp:77] Creating layer inception_4d/output_inception_4d/output_0_split
I0403 15:14:50.914224 31354 net.cpp:91] Creating Layer inception_4d/output_inception_4d/output_0_split
I0403 15:14:50.914242 31354 net.cpp:425] inception_4d/output_inception_4d/output_0_split <- inception_4d/output
I0403 15:14:50.914263 31354 net.cpp:399] inception_4d/output_inception_4d/output_0_split -> inception_4d/output_inception_4d/output_0_split_0
I0403 15:14:50.914293 31354 net.cpp:399] inception_4d/output_inception_4d/output_0_split -> inception_4d/output_inception_4d/output_0_split_1
I0403 15:14:50.914324 31354 net.cpp:399] inception_4d/output_inception_4d/output_0_split -> inception_4d/output_inception_4d/output_0_split_2
I0403 15:14:50.914355 31354 net.cpp:399] inception_4d/output_inception_4d/output_0_split -> inception_4d/output_inception_4d/output_0_split_3
I0403 15:14:50.914404 31354 net.cpp:399] inception_4d/output_inception_4d/output_0_split -> inception_4d/output_inception_4d/output_0_split_4
I0403 15:14:50.914525 31354 net.cpp:141] Setting up inception_4d/output_inception_4d/output_0_split
I0403 15:14:50.914562 31354 net.cpp:148] Top shape: 24 528 14 14 (2483712)
I0403 15:14:50.914597 31354 net.cpp:148] Top shape: 24 528 14 14 (2483712)
I0403 15:14:50.914636 31354 net.cpp:148] Top shape: 24 528 14 14 (2483712)
I0403 15:14:50.914674 31354 net.cpp:148] Top shape: 24 528 14 14 (2483712)
I0403 15:14:50.914708 31354 net.cpp:148] Top shape: 24 528 14 14 (2483712)
I0403 15:14:50.914741 31354 net.cpp:156] Memory required for data: 1206918432
I0403 15:14:50.914777 31354 layer_factory.hpp:77] Creating layer loss2/ave_pool
I0403 15:14:50.914808 31354 net.cpp:91] Creating Layer loss2/ave_pool
I0403 15:14:50.914826 31354 net.cpp:425] loss2/ave_pool <- inception_4d/output_inception_4d/output_0_split_0
I0403 15:14:50.914846 31354 net.cpp:399] loss2/ave_pool -> loss2/ave_pool
I0403 15:14:50.915163 31354 net.cpp:141] Setting up loss2/ave_pool
I0403 15:14:50.915190 31354 net.cpp:148] Top shape: 24 528 4 4 (202752)
I0403 15:14:50.915205 31354 net.cpp:156] Memory required for data: 1207729440
I0403 15:14:50.915221 31354 layer_factory.hpp:77] Creating layer loss2/conv
I0403 15:14:50.915244 31354 net.cpp:91] Creating Layer loss2/conv
I0403 15:14:50.915264 31354 net.cpp:425] loss2/conv <- loss2/ave_pool
I0403 15:14:50.915302 31354 net.cpp:399] loss2/conv -> loss2/conv
I0403 15:14:50.917317 31354 net.cpp:141] Setting up loss2/conv
I0403 15:14:50.917366 31354 net.cpp:148] Top shape: 24 128 4 4 (49152)
I0403 15:14:50.917407 31354 net.cpp:156] Memory required for data: 1207926048
I0403 15:14:50.917451 31354 layer_factory.hpp:77] Creating layer loss2/relu_conv
I0403 15:14:50.917471 31354 net.cpp:91] Creating Layer loss2/relu_conv
I0403 15:14:50.917490 31354 net.cpp:425] loss2/relu_conv <- loss2/conv
I0403 15:14:50.917510 31354 net.cpp:386] loss2/relu_conv -> loss2/conv (in-place)
I0403 15:14:50.917795 31354 net.cpp:141] Setting up loss2/relu_conv
I0403 15:14:50.917825 31354 net.cpp:148] Top shape: 24 128 4 4 (49152)
I0403 15:14:50.917841 31354 net.cpp:156] Memory required for data: 1208122656
I0403 15:14:50.917857 31354 layer_factory.hpp:77] Creating layer loss2/fc
I0403 15:14:50.917877 31354 net.cpp:91] Creating Layer loss2/fc
I0403 15:14:50.917896 31354 net.cpp:425] loss2/fc <- loss2/conv
I0403 15:14:50.917919 31354 net.cpp:399] loss2/fc -> loss2/fc
I0403 15:14:50.935689 31354 net.cpp:141] Setting up loss2/fc
I0403 15:14:50.935731 31354 net.cpp:148] Top shape: 24 1024 (24576)
I0403 15:14:50.935756 31354 net.cpp:156] Memory required for data: 1208220960
I0403 15:14:50.935777 31354 layer_factory.hpp:77] Creating layer loss2/relu_fc
I0403 15:14:50.935802 31354 net.cpp:91] Creating Layer loss2/relu_fc
I0403 15:14:50.935827 31354 net.cpp:425] loss2/relu_fc <- loss2/fc
I0403 15:14:50.935849 31354 net.cpp:386] loss2/relu_fc -> loss2/fc (in-place)
I0403 15:14:50.936225 31354 net.cpp:141] Setting up loss2/relu_fc
I0403 15:14:50.936264 31354 net.cpp:148] Top shape: 24 1024 (24576)
I0403 15:14:50.936280 31354 net.cpp:156] Memory required for data: 1208319264
I0403 15:14:50.936305 31354 layer_factory.hpp:77] Creating layer loss2/drop_fc
I0403 15:14:50.936336 31354 net.cpp:91] Creating Layer loss2/drop_fc
I0403 15:14:50.936383 31354 net.cpp:425] loss2/drop_fc <- loss2/fc
I0403 15:14:50.936429 31354 net.cpp:386] loss2/drop_fc -> loss2/fc (in-place)
I0403 15:14:50.936507 31354 net.cpp:141] Setting up loss2/drop_fc
I0403 15:14:50.936548 31354 net.cpp:148] Top shape: 24 1024 (24576)
I0403 15:14:50.936586 31354 net.cpp:156] Memory required for data: 1208417568
I0403 15:14:50.936628 31354 layer_factory.hpp:77] Creating layer loss2/classifier_plantvillage
I0403 15:14:50.936679 31354 net.cpp:91] Creating Layer loss2/classifier_plantvillage
I0403 15:14:50.936717 31354 net.cpp:425] loss2/classifier_plantvillage <- loss2/fc
I0403 15:14:50.936754 31354 net.cpp:399] loss2/classifier_plantvillage -> loss2/classifier_plantvillage
I0403 15:14:50.937176 31354 net.cpp:141] Setting up loss2/classifier_plantvillage
I0403 15:14:50.937202 31354 net.cpp:148] Top shape: 24 38 (912)
I0403 15:14:50.937218 31354 net.cpp:156] Memory required for data: 1208421216
I0403 15:14:50.937255 31354 layer_factory.hpp:77] Creating layer loss2/classifier_plantvillage_loss2/classifier_plantvillage_0_split
I0403 15:14:50.937274 31354 net.cpp:91] Creating Layer loss2/classifier_plantvillage_loss2/classifier_plantvillage_0_split
I0403 15:14:50.937295 31354 net.cpp:425] loss2/classifier_plantvillage_loss2/classifier_plantvillage_0_split <- loss2/classifier_plantvillage
I0403 15:14:50.937317 31354 net.cpp:399] loss2/classifier_plantvillage_loss2/classifier_plantvillage_0_split -> loss2/classifier_plantvillage_loss2/classifier_plantvillage_0_split_0
I0403 15:14:50.937340 31354 net.cpp:399] loss2/classifier_plantvillage_loss2/classifier_plantvillage_0_split -> loss2/classifier_plantvillage_loss2/classifier_plantvillage_0_split_1
I0403 15:14:50.937361 31354 net.cpp:399] loss2/classifier_plantvillage_loss2/classifier_plantvillage_0_split -> loss2/classifier_plantvillage_loss2/classifier_plantvillage_0_split_2
I0403 15:14:50.937438 31354 net.cpp:141] Setting up loss2/classifier_plantvillage_loss2/classifier_plantvillage_0_split
I0403 15:14:50.937465 31354 net.cpp:148] Top shape: 24 38 (912)
I0403 15:14:50.937482 31354 net.cpp:148] Top shape: 24 38 (912)
I0403 15:14:50.937499 31354 net.cpp:148] Top shape: 24 38 (912)
I0403 15:14:50.937511 31354 net.cpp:156] Memory required for data: 1208432160
I0403 15:14:50.937526 31354 layer_factory.hpp:77] Creating layer inception_4e/1x1
I0403 15:14:50.937546 31354 net.cpp:91] Creating Layer inception_4e/1x1
I0403 15:14:50.937564 31354 net.cpp:425] inception_4e/1x1 <- inception_4d/output_inception_4d/output_0_split_1
I0403 15:14:50.937584 31354 net.cpp:399] inception_4e/1x1 -> inception_4e/1x1
I0403 15:14:50.939352 31354 net.cpp:141] Setting up inception_4e/1x1
I0403 15:14:50.939380 31354 net.cpp:148] Top shape: 24 256 14 14 (1204224)
I0403 15:14:50.939396 31354 net.cpp:156] Memory required for data: 1213249056
I0403 15:14:50.939414 31354 layer_factory.hpp:77] Creating layer inception_4e/relu_1x1
I0403 15:14:50.939432 31354 net.cpp:91] Creating Layer inception_4e/relu_1x1
I0403 15:14:50.939450 31354 net.cpp:425] inception_4e/relu_1x1 <- inception_4e/1x1
I0403 15:14:50.939470 31354 net.cpp:386] inception_4e/relu_1x1 -> inception_4e/1x1 (in-place)
I0403 15:14:50.939757 31354 net.cpp:141] Setting up inception_4e/relu_1x1
I0403 15:14:50.939785 31354 net.cpp:148] Top shape: 24 256 14 14 (1204224)
I0403 15:14:50.939800 31354 net.cpp:156] Memory required for data: 1218065952
I0403 15:14:50.939816 31354 layer_factory.hpp:77] Creating layer inception_4e/3x3_reduce
I0403 15:14:50.939839 31354 net.cpp:91] Creating Layer inception_4e/3x3_reduce
I0403 15:14:50.939857 31354 net.cpp:425] inception_4e/3x3_reduce <- inception_4d/output_inception_4d/output_0_split_2
I0403 15:14:50.939878 31354 net.cpp:399] inception_4e/3x3_reduce -> inception_4e/3x3_reduce
I0403 15:14:50.941946 31354 net.cpp:141] Setting up inception_4e/3x3_reduce
I0403 15:14:50.941979 31354 net.cpp:148] Top shape: 24 160 14 14 (752640)
I0403 15:14:50.941998 31354 net.cpp:156] Memory required for data: 1221076512
I0403 15:14:50.942016 31354 layer_factory.hpp:77] Creating layer inception_4e/relu_3x3_reduce
I0403 15:14:50.942035 31354 net.cpp:91] Creating Layer inception_4e/relu_3x3_reduce
I0403 15:14:50.942051 31354 net.cpp:425] inception_4e/relu_3x3_reduce <- inception_4e/3x3_reduce
I0403 15:14:50.942072 31354 net.cpp:386] inception_4e/relu_3x3_reduce -> inception_4e/3x3_reduce (in-place)
I0403 15:14:50.942268 31354 net.cpp:141] Setting up inception_4e/relu_3x3_reduce
I0403 15:14:50.942299 31354 net.cpp:148] Top shape: 24 160 14 14 (752640)
I0403 15:14:50.942317 31354 net.cpp:156] Memory required for data: 1224087072
I0403 15:14:50.942332 31354 layer_factory.hpp:77] Creating layer inception_4e/3x3
I0403 15:14:50.942355 31354 net.cpp:91] Creating Layer inception_4e/3x3
I0403 15:14:50.942373 31354 net.cpp:425] inception_4e/3x3 <- inception_4e/3x3_reduce
I0403 15:14:50.942396 31354 net.cpp:399] inception_4e/3x3 -> inception_4e/3x3
I0403 15:14:50.947464 31354 net.cpp:141] Setting up inception_4e/3x3
I0403 15:14:50.947507 31354 net.cpp:148] Top shape: 24 320 14 14 (1505280)
I0403 15:14:50.947525 31354 net.cpp:156] Memory required for data: 1230108192
I0403 15:14:50.947545 31354 layer_factory.hpp:77] Creating layer inception_4e/relu_3x3
I0403 15:14:50.947563 31354 net.cpp:91] Creating Layer inception_4e/relu_3x3
I0403 15:14:50.947582 31354 net.cpp:425] inception_4e/relu_3x3 <- inception_4e/3x3
I0403 15:14:50.947602 31354 net.cpp:386] inception_4e/relu_3x3 -> inception_4e/3x3 (in-place)
I0403 15:14:50.947904 31354 net.cpp:141] Setting up inception_4e/relu_3x3
I0403 15:14:50.947932 31354 net.cpp:148] Top shape: 24 320 14 14 (1505280)
I0403 15:14:50.947947 31354 net.cpp:156] Memory required for data: 1236129312
I0403 15:14:50.947963 31354 layer_factory.hpp:77] Creating layer inception_4e/5x5_reduce
I0403 15:14:50.947989 31354 net.cpp:91] Creating Layer inception_4e/5x5_reduce
I0403 15:14:50.948009 31354 net.cpp:425] inception_4e/5x5_reduce <- inception_4d/output_inception_4d/output_0_split_3
I0403 15:14:50.948031 31354 net.cpp:399] inception_4e/5x5_reduce -> inception_4e/5x5_reduce
I0403 15:14:50.949100 31354 net.cpp:141] Setting up inception_4e/5x5_reduce
I0403 15:14:50.949131 31354 net.cpp:148] Top shape: 24 32 14 14 (150528)
I0403 15:14:50.949146 31354 net.cpp:156] Memory required for data: 1236731424
I0403 15:14:50.949167 31354 layer_factory.hpp:77] Creating layer inception_4e/relu_5x5_reduce
I0403 15:14:50.949187 31354 net.cpp:91] Creating Layer inception_4e/relu_5x5_reduce
I0403 15:14:50.949203 31354 net.cpp:425] inception_4e/relu_5x5_reduce <- inception_4e/5x5_reduce
I0403 15:14:50.949223 31354 net.cpp:386] inception_4e/relu_5x5_reduce -> inception_4e/5x5_reduce (in-place)
I0403 15:14:50.949523 31354 net.cpp:141] Setting up inception_4e/relu_5x5_reduce
I0403 15:14:50.949553 31354 net.cpp:148] Top shape: 24 32 14 14 (150528)
I0403 15:14:50.949570 31354 net.cpp:156] Memory required for data: 1237333536
I0403 15:14:50.949586 31354 layer_factory.hpp:77] Creating layer inception_4e/5x5
I0403 15:14:50.949625 31354 net.cpp:91] Creating Layer inception_4e/5x5
I0403 15:14:50.949645 31354 net.cpp:425] inception_4e/5x5 <- inception_4e/5x5_reduce
I0403 15:14:50.949664 31354 net.cpp:399] inception_4e/5x5 -> inception_4e/5x5
I0403 15:14:50.951563 31354 net.cpp:141] Setting up inception_4e/5x5
I0403 15:14:50.951597 31354 net.cpp:148] Top shape: 24 128 14 14 (602112)
I0403 15:14:50.951614 31354 net.cpp:156] Memory required for data: 1239741984
I0403 15:14:50.951635 31354 layer_factory.hpp:77] Creating layer inception_4e/relu_5x5
I0403 15:14:50.951660 31354 net.cpp:91] Creating Layer inception_4e/relu_5x5
I0403 15:14:50.951683 31354 net.cpp:425] inception_4e/relu_5x5 <- inception_4e/5x5
I0403 15:14:50.951704 31354 net.cpp:386] inception_4e/relu_5x5 -> inception_4e/5x5 (in-place)
I0403 15:14:50.951933 31354 net.cpp:141] Setting up inception_4e/relu_5x5
I0403 15:14:50.951963 31354 net.cpp:148] Top shape: 24 128 14 14 (602112)
I0403 15:14:50.951979 31354 net.cpp:156] Memory required for data: 1242150432
I0403 15:14:50.951995 31354 layer_factory.hpp:77] Creating layer inception_4e/pool
I0403 15:14:50.952014 31354 net.cpp:91] Creating Layer inception_4e/pool
I0403 15:14:50.952031 31354 net.cpp:425] inception_4e/pool <- inception_4d/output_inception_4d/output_0_split_4
I0403 15:14:50.952054 31354 net.cpp:399] inception_4e/pool -> inception_4e/pool
I0403 15:14:50.952122 31354 net.cpp:141] Setting up inception_4e/pool
I0403 15:14:50.952149 31354 net.cpp:148] Top shape: 24 528 14 14 (2483712)
I0403 15:14:50.952165 31354 net.cpp:156] Memory required for data: 1252085280
I0403 15:14:50.952181 31354 layer_factory.hpp:77] Creating layer inception_4e/pool_proj
I0403 15:14:50.952204 31354 net.cpp:91] Creating Layer inception_4e/pool_proj
I0403 15:14:50.952224 31354 net.cpp:425] inception_4e/pool_proj <- inception_4e/pool
I0403 15:14:50.952244 31354 net.cpp:399] inception_4e/pool_proj -> inception_4e/pool_proj
I0403 15:14:50.953749 31354 net.cpp:141] Setting up inception_4e/pool_proj
I0403 15:14:50.953779 31354 net.cpp:148] Top shape: 24 128 14 14 (602112)
I0403 15:14:50.953810 31354 net.cpp:156] Memory required for data: 1254493728
I0403 15:14:50.953831 31354 layer_factory.hpp:77] Creating layer inception_4e/relu_pool_proj
I0403 15:14:50.953853 31354 net.cpp:91] Creating Layer inception_4e/relu_pool_proj
I0403 15:14:50.953871 31354 net.cpp:425] inception_4e/relu_pool_proj <- inception_4e/pool_proj
I0403 15:14:50.953888 31354 net.cpp:386] inception_4e/relu_pool_proj -> inception_4e/pool_proj (in-place)
I0403 15:14:50.954185 31354 net.cpp:141] Setting up inception_4e/relu_pool_proj
I0403 15:14:50.954211 31354 net.cpp:148] Top shape: 24 128 14 14 (602112)
I0403 15:14:50.954228 31354 net.cpp:156] Memory required for data: 1256902176
I0403 15:14:50.954244 31354 layer_factory.hpp:77] Creating layer inception_4e/output
I0403 15:14:50.954265 31354 net.cpp:91] Creating Layer inception_4e/output
I0403 15:14:50.954282 31354 net.cpp:425] inception_4e/output <- inception_4e/1x1
I0403 15:14:50.954313 31354 net.cpp:425] inception_4e/output <- inception_4e/3x3
I0403 15:14:50.954331 31354 net.cpp:425] inception_4e/output <- inception_4e/5x5
I0403 15:14:50.954349 31354 net.cpp:425] inception_4e/output <- inception_4e/pool_proj
I0403 15:14:50.954367 31354 net.cpp:399] inception_4e/output -> inception_4e/output
I0403 15:14:50.954418 31354 net.cpp:141] Setting up inception_4e/output
I0403 15:14:50.954442 31354 net.cpp:148] Top shape: 24 832 14 14 (3913728)
I0403 15:14:50.954458 31354 net.cpp:156] Memory required for data: 1272557088
I0403 15:14:50.954474 31354 layer_factory.hpp:77] Creating layer pool4/3x3_s2
I0403 15:14:50.954493 31354 net.cpp:91] Creating Layer pool4/3x3_s2
I0403 15:14:50.954509 31354 net.cpp:425] pool4/3x3_s2 <- inception_4e/output
I0403 15:14:50.954530 31354 net.cpp:399] pool4/3x3_s2 -> pool4/3x3_s2
I0403 15:14:50.954598 31354 net.cpp:141] Setting up pool4/3x3_s2
I0403 15:14:50.954623 31354 net.cpp:148] Top shape: 24 832 7 7 (978432)
I0403 15:14:50.954639 31354 net.cpp:156] Memory required for data: 1276470816
I0403 15:14:50.954655 31354 layer_factory.hpp:77] Creating layer pool4/3x3_s2_pool4/3x3_s2_0_split
I0403 15:14:50.954674 31354 net.cpp:91] Creating Layer pool4/3x3_s2_pool4/3x3_s2_0_split
I0403 15:14:50.954689 31354 net.cpp:425] pool4/3x3_s2_pool4/3x3_s2_0_split <- pool4/3x3_s2
I0403 15:14:50.954707 31354 net.cpp:399] pool4/3x3_s2_pool4/3x3_s2_0_split -> pool4/3x3_s2_pool4/3x3_s2_0_split_0
I0403 15:14:50.954731 31354 net.cpp:399] pool4/3x3_s2_pool4/3x3_s2_0_split -> pool4/3x3_s2_pool4/3x3_s2_0_split_1
I0403 15:14:50.954754 31354 net.cpp:399] pool4/3x3_s2_pool4/3x3_s2_0_split -> pool4/3x3_s2_pool4/3x3_s2_0_split_2
I0403 15:14:50.954777 31354 net.cpp:399] pool4/3x3_s2_pool4/3x3_s2_0_split -> pool4/3x3_s2_pool4/3x3_s2_0_split_3
I0403 15:14:50.954869 31354 net.cpp:141] Setting up pool4/3x3_s2_pool4/3x3_s2_0_split
I0403 15:14:50.954893 31354 net.cpp:148] Top shape: 24 832 7 7 (978432)
I0403 15:14:50.954910 31354 net.cpp:148] Top shape: 24 832 7 7 (978432)
I0403 15:14:50.954927 31354 net.cpp:148] Top shape: 24 832 7 7 (978432)
I0403 15:14:50.954943 31354 net.cpp:148] Top shape: 24 832 7 7 (978432)
I0403 15:14:50.954957 31354 net.cpp:156] Memory required for data: 1292125728
I0403 15:14:50.954972 31354 layer_factory.hpp:77] Creating layer inception_5a/1x1
I0403 15:14:50.954999 31354 net.cpp:91] Creating Layer inception_5a/1x1
I0403 15:14:50.955018 31354 net.cpp:425] inception_5a/1x1 <- pool4/3x3_s2_pool4/3x3_s2_0_split_0
I0403 15:14:50.955037 31354 net.cpp:399] inception_5a/1x1 -> inception_5a/1x1
I0403 15:14:50.957892 31354 net.cpp:141] Setting up inception_5a/1x1
I0403 15:14:50.957924 31354 net.cpp:148] Top shape: 24 256 7 7 (301056)
I0403 15:14:50.957942 31354 net.cpp:156] Memory required for data: 1293329952
I0403 15:14:50.957962 31354 layer_factory.hpp:77] Creating layer inception_5a/relu_1x1
I0403 15:14:50.957980 31354 net.cpp:91] Creating Layer inception_5a/relu_1x1
I0403 15:14:50.957998 31354 net.cpp:425] inception_5a/relu_1x1 <- inception_5a/1x1
I0403 15:14:50.958019 31354 net.cpp:386] inception_5a/relu_1x1 -> inception_5a/1x1 (in-place)
I0403 15:14:50.958379 31354 net.cpp:141] Setting up inception_5a/relu_1x1
I0403 15:14:50.958408 31354 net.cpp:148] Top shape: 24 256 7 7 (301056)
I0403 15:14:50.958425 31354 net.cpp:156] Memory required for data: 1294534176
I0403 15:14:50.958441 31354 layer_factory.hpp:77] Creating layer inception_5a/3x3_reduce
I0403 15:14:50.958464 31354 net.cpp:91] Creating Layer inception_5a/3x3_reduce
I0403 15:14:50.958483 31354 net.cpp:425] inception_5a/3x3_reduce <- pool4/3x3_s2_pool4/3x3_s2_0_split_1
I0403 15:14:50.958504 31354 net.cpp:399] inception_5a/3x3_reduce -> inception_5a/3x3_reduce
I0403 15:14:50.960994 31354 net.cpp:141] Setting up inception_5a/3x3_reduce
I0403 15:14:50.961027 31354 net.cpp:148] Top shape: 24 160 7 7 (188160)
I0403 15:14:50.961045 31354 net.cpp:156] Memory required for data: 1295286816
I0403 15:14:50.961066 31354 layer_factory.hpp:77] Creating layer inception_5a/relu_3x3_reduce
I0403 15:14:50.961088 31354 net.cpp:91] Creating Layer inception_5a/relu_3x3_reduce
I0403 15:14:50.961107 31354 net.cpp:425] inception_5a/relu_3x3_reduce <- inception_5a/3x3_reduce
I0403 15:14:50.961124 31354 net.cpp:386] inception_5a/relu_3x3_reduce -> inception_5a/3x3_reduce (in-place)
I0403 15:14:50.961328 31354 net.cpp:141] Setting up inception_5a/relu_3x3_reduce
I0403 15:14:50.961370 31354 net.cpp:148] Top shape: 24 160 7 7 (188160)
I0403 15:14:50.961408 31354 net.cpp:156] Memory required for data: 1296039456
I0403 15:14:50.961426 31354 layer_factory.hpp:77] Creating layer inception_5a/3x3
I0403 15:14:50.961452 31354 net.cpp:91] Creating Layer inception_5a/3x3
I0403 15:14:50.961498 31354 net.cpp:425] inception_5a/3x3 <- inception_5a/3x3_reduce
I0403 15:14:50.961545 31354 net.cpp:399] inception_5a/3x3 -> inception_5a/3x3
I0403 15:14:50.967032 31354 net.cpp:141] Setting up inception_5a/3x3
I0403 15:14:50.967075 31354 net.cpp:148] Top shape: 24 320 7 7 (376320)
I0403 15:14:50.967118 31354 net.cpp:156] Memory required for data: 1297544736
I0403 15:14:50.967170 31354 layer_factory.hpp:77] Creating layer inception_5a/relu_3x3
I0403 15:14:50.967206 31354 net.cpp:91] Creating Layer inception_5a/relu_3x3
I0403 15:14:50.967247 31354 net.cpp:425] inception_5a/relu_3x3 <- inception_5a/3x3
I0403 15:14:50.967295 31354 net.cpp:386] inception_5a/relu_3x3 -> inception_5a/3x3 (in-place)
I0403 15:14:50.967633 31354 net.cpp:141] Setting up inception_5a/relu_3x3
I0403 15:14:50.967681 31354 net.cpp:148] Top shape: 24 320 7 7 (376320)
I0403 15:14:50.967720 31354 net.cpp:156] Memory required for data: 1299050016
I0403 15:14:50.967759 31354 layer_factory.hpp:77] Creating layer inception_5a/5x5_reduce
I0403 15:14:50.967804 31354 net.cpp:91] Creating Layer inception_5a/5x5_reduce
I0403 15:14:50.967833 31354 net.cpp:425] inception_5a/5x5_reduce <- pool4/3x3_s2_pool4/3x3_s2_0_split_2
I0403 15:14:50.967876 31354 net.cpp:399] inception_5a/5x5_reduce -> inception_5a/5x5_reduce
I0403 15:14:50.969110 31354 net.cpp:141] Setting up inception_5a/5x5_reduce
I0403 15:14:50.969166 31354 net.cpp:148] Top shape: 24 32 7 7 (37632)
I0403 15:14:50.969187 31354 net.cpp:156] Memory required for data: 1299200544
I0403 15:14:50.969225 31354 layer_factory.hpp:77] Creating layer inception_5a/relu_5x5_reduce
I0403 15:14:50.969251 31354 net.cpp:91] Creating Layer inception_5a/relu_5x5_reduce
I0403 15:14:50.969298 31354 net.cpp:425] inception_5a/relu_5x5_reduce <- inception_5a/5x5_reduce
I0403 15:14:50.969348 31354 net.cpp:386] inception_5a/relu_5x5_reduce -> inception_5a/5x5_reduce (in-place)
I0403 15:14:50.969681 31354 net.cpp:141] Setting up inception_5a/relu_5x5_reduce
I0403 15:14:50.969722 31354 net.cpp:148] Top shape: 24 32 7 7 (37632)
I0403 15:14:50.969768 31354 net.cpp:156] Memory required for data: 1299351072
I0403 15:14:50.969812 31354 layer_factory.hpp:77] Creating layer inception_5a/5x5
I0403 15:14:50.969866 31354 net.cpp:91] Creating Layer inception_5a/5x5
I0403 15:14:50.969907 31354 net.cpp:425] inception_5a/5x5 <- inception_5a/5x5_reduce
I0403 15:14:50.969955 31354 net.cpp:399] inception_5a/5x5 -> inception_5a/5x5
I0403 15:14:50.971753 31354 net.cpp:141] Setting up inception_5a/5x5
I0403 15:14:50.971803 31354 net.cpp:148] Top shape: 24 128 7 7 (150528)
I0403 15:14:50.971822 31354 net.cpp:156] Memory required for data: 1299953184
I0403 15:14:50.971843 31354 layer_factory.hpp:77] Creating layer inception_5a/relu_5x5
I0403 15:14:50.971881 31354 net.cpp:91] Creating Layer inception_5a/relu_5x5
I0403 15:14:50.971899 31354 net.cpp:425] inception_5a/relu_5x5 <- inception_5a/5x5
I0403 15:14:50.971928 31354 net.cpp:386] inception_5a/relu_5x5 -> inception_5a/5x5 (in-place)
I0403 15:14:50.972151 31354 net.cpp:141] Setting up inception_5a/relu_5x5
I0403 15:14:50.972178 31354 net.cpp:148] Top shape: 24 128 7 7 (150528)
I0403 15:14:50.972195 31354 net.cpp:156] Memory required for data: 1300555296
I0403 15:14:50.972211 31354 layer_factory.hpp:77] Creating layer inception_5a/pool
I0403 15:14:50.972234 31354 net.cpp:91] Creating Layer inception_5a/pool
I0403 15:14:50.972265 31354 net.cpp:425] inception_5a/pool <- pool4/3x3_s2_pool4/3x3_s2_0_split_3
I0403 15:14:50.972290 31354 net.cpp:399] inception_5a/pool -> inception_5a/pool
I0403 15:14:50.972378 31354 net.cpp:141] Setting up inception_5a/pool
I0403 15:14:50.972407 31354 net.cpp:148] Top shape: 24 832 7 7 (978432)
I0403 15:14:50.972426 31354 net.cpp:156] Memory required for data: 1304469024
I0403 15:14:50.972442 31354 layer_factory.hpp:77] Creating layer inception_5a/pool_proj
I0403 15:14:50.972470 31354 net.cpp:91] Creating Layer inception_5a/pool_proj
I0403 15:14:50.972491 31354 net.cpp:425] inception_5a/pool_proj <- inception_5a/pool
I0403 15:14:50.972512 31354 net.cpp:399] inception_5a/pool_proj -> inception_5a/pool_proj
I0403 15:14:50.974999 31354 net.cpp:141] Setting up inception_5a/pool_proj
I0403 15:14:50.975033 31354 net.cpp:148] Top shape: 24 128 7 7 (150528)
I0403 15:14:50.975054 31354 net.cpp:156] Memory required for data: 1305071136
I0403 15:14:50.975074 31354 layer_factory.hpp:77] Creating layer inception_5a/relu_pool_proj
I0403 15:14:50.975112 31354 net.cpp:91] Creating Layer inception_5a/relu_pool_proj
I0403 15:14:50.975137 31354 net.cpp:425] inception_5a/relu_pool_proj <- inception_5a/pool_proj
I0403 15:14:50.975167 31354 net.cpp:386] inception_5a/relu_pool_proj -> inception_5a/pool_proj (in-place)
I0403 15:14:50.975494 31354 net.cpp:141] Setting up inception_5a/relu_pool_proj
I0403 15:14:50.975523 31354 net.cpp:148] Top shape: 24 128 7 7 (150528)
I0403 15:14:50.975545 31354 net.cpp:156] Memory required for data: 1305673248
I0403 15:14:50.975564 31354 layer_factory.hpp:77] Creating layer inception_5a/output
I0403 15:14:50.975585 31354 net.cpp:91] Creating Layer inception_5a/output
I0403 15:14:50.975605 31354 net.cpp:425] inception_5a/output <- inception_5a/1x1
I0403 15:14:50.975623 31354 net.cpp:425] inception_5a/output <- inception_5a/3x3
I0403 15:14:50.975641 31354 net.cpp:425] inception_5a/output <- inception_5a/5x5
I0403 15:14:50.975659 31354 net.cpp:425] inception_5a/output <- inception_5a/pool_proj
I0403 15:14:50.975678 31354 net.cpp:399] inception_5a/output -> inception_5a/output
I0403 15:14:50.975735 31354 net.cpp:141] Setting up inception_5a/output
I0403 15:14:50.975761 31354 net.cpp:148] Top shape: 24 832 7 7 (978432)
I0403 15:14:50.975778 31354 net.cpp:156] Memory required for data: 1309586976
I0403 15:14:50.975795 31354 layer_factory.hpp:77] Creating layer inception_5a/output_inception_5a/output_0_split
I0403 15:14:50.975813 31354 net.cpp:91] Creating Layer inception_5a/output_inception_5a/output_0_split
I0403 15:14:50.975831 31354 net.cpp:425] inception_5a/output_inception_5a/output_0_split <- inception_5a/output
I0403 15:14:50.975854 31354 net.cpp:399] inception_5a/output_inception_5a/output_0_split -> inception_5a/output_inception_5a/output_0_split_0
I0403 15:14:50.975877 31354 net.cpp:399] inception_5a/output_inception_5a/output_0_split -> inception_5a/output_inception_5a/output_0_split_1
I0403 15:14:50.975899 31354 net.cpp:399] inception_5a/output_inception_5a/output_0_split -> inception_5a/output_inception_5a/output_0_split_2
I0403 15:14:50.975921 31354 net.cpp:399] inception_5a/output_inception_5a/output_0_split -> inception_5a/output_inception_5a/output_0_split_3
I0403 15:14:50.976044 31354 net.cpp:141] Setting up inception_5a/output_inception_5a/output_0_split
I0403 15:14:50.976073 31354 net.cpp:148] Top shape: 24 832 7 7 (978432)
I0403 15:14:50.976092 31354 net.cpp:148] Top shape: 24 832 7 7 (978432)
I0403 15:14:50.976111 31354 net.cpp:148] Top shape: 24 832 7 7 (978432)
I0403 15:14:50.976128 31354 net.cpp:148] Top shape: 24 832 7 7 (978432)
I0403 15:14:50.976143 31354 net.cpp:156] Memory required for data: 1325241888
I0403 15:14:50.976161 31354 layer_factory.hpp:77] Creating layer inception_5b/1x1
I0403 15:14:50.976184 31354 net.cpp:91] Creating Layer inception_5b/1x1
I0403 15:14:50.976204 31354 net.cpp:425] inception_5b/1x1 <- inception_5a/output_inception_5a/output_0_split_0
I0403 15:14:50.976225 31354 net.cpp:399] inception_5b/1x1 -> inception_5b/1x1
I0403 15:14:50.980247 31354 net.cpp:141] Setting up inception_5b/1x1
I0403 15:14:50.980280 31354 net.cpp:148] Top shape: 24 384 7 7 (451584)
I0403 15:14:50.980304 31354 net.cpp:156] Memory required for data: 1327048224
I0403 15:14:50.980324 31354 layer_factory.hpp:77] Creating layer inception_5b/relu_1x1
I0403 15:14:50.980347 31354 net.cpp:91] Creating Layer inception_5b/relu_1x1
I0403 15:14:50.980365 31354 net.cpp:425] inception_5b/relu_1x1 <- inception_5b/1x1
I0403 15:14:50.980386 31354 net.cpp:386] inception_5b/relu_1x1 -> inception_5b/1x1 (in-place)
I0403 15:14:50.980710 31354 net.cpp:141] Setting up inception_5b/relu_1x1
I0403 15:14:50.980738 31354 net.cpp:148] Top shape: 24 384 7 7 (451584)
I0403 15:14:50.980756 31354 net.cpp:156] Memory required for data: 1328854560
I0403 15:14:50.980773 31354 layer_factory.hpp:77] Creating layer inception_5b/3x3_reduce
I0403 15:14:50.980798 31354 net.cpp:91] Creating Layer inception_5b/3x3_reduce
I0403 15:14:50.980818 31354 net.cpp:425] inception_5b/3x3_reduce <- inception_5a/output_inception_5a/output_0_split_1
I0403 15:14:50.980840 31354 net.cpp:399] inception_5b/3x3_reduce -> inception_5b/3x3_reduce
I0403 15:14:50.983678 31354 net.cpp:141] Setting up inception_5b/3x3_reduce
I0403 15:14:50.983711 31354 net.cpp:148] Top shape: 24 192 7 7 (225792)
I0403 15:14:50.983728 31354 net.cpp:156] Memory required for data: 1329757728
I0403 15:14:50.983749 31354 layer_factory.hpp:77] Creating layer inception_5b/relu_3x3_reduce
I0403 15:14:50.983772 31354 net.cpp:91] Creating Layer inception_5b/relu_3x3_reduce
I0403 15:14:50.983793 31354 net.cpp:425] inception_5b/relu_3x3_reduce <- inception_5b/3x3_reduce
I0403 15:14:50.983811 31354 net.cpp:386] inception_5b/relu_3x3_reduce -> inception_5b/3x3_reduce (in-place)
I0403 15:14:50.984016 31354 net.cpp:141] Setting up inception_5b/relu_3x3_reduce
I0403 15:14:50.984046 31354 net.cpp:148] Top shape: 24 192 7 7 (225792)
I0403 15:14:50.984063 31354 net.cpp:156] Memory required for data: 1330660896
I0403 15:14:50.984081 31354 layer_factory.hpp:77] Creating layer inception_5b/3x3
I0403 15:14:50.984104 31354 net.cpp:91] Creating Layer inception_5b/3x3
I0403 15:14:50.984124 31354 net.cpp:425] inception_5b/3x3 <- inception_5b/3x3_reduce
I0403 15:14:50.984145 31354 net.cpp:399] inception_5b/3x3 -> inception_5b/3x3
I0403 15:14:50.991317 31354 net.cpp:141] Setting up inception_5b/3x3
I0403 15:14:50.991349 31354 net.cpp:148] Top shape: 24 384 7 7 (451584)
I0403 15:14:50.991367 31354 net.cpp:156] Memory required for data: 1332467232
I0403 15:14:50.991389 31354 layer_factory.hpp:77] Creating layer inception_5b/relu_3x3
I0403 15:14:50.991410 31354 net.cpp:91] Creating Layer inception_5b/relu_3x3
I0403 15:14:50.991430 31354 net.cpp:425] inception_5b/relu_3x3 <- inception_5b/3x3
I0403 15:14:50.991449 31354 net.cpp:386] inception_5b/relu_3x3 -> inception_5b/3x3 (in-place)
I0403 15:14:50.991775 31354 net.cpp:141] Setting up inception_5b/relu_3x3
I0403 15:14:50.991803 31354 net.cpp:148] Top shape: 24 384 7 7 (451584)
I0403 15:14:50.991821 31354 net.cpp:156] Memory required for data: 1334273568
I0403 15:14:50.991837 31354 layer_factory.hpp:77] Creating layer inception_5b/5x5_reduce
I0403 15:14:50.991888 31354 net.cpp:91] Creating Layer inception_5b/5x5_reduce
I0403 15:14:50.991910 31354 net.cpp:425] inception_5b/5x5_reduce <- inception_5a/output_inception_5a/output_0_split_2
I0403 15:14:50.991932 31354 net.cpp:399] inception_5b/5x5_reduce -> inception_5b/5x5_reduce
I0403 15:14:50.993301 31354 net.cpp:141] Setting up inception_5b/5x5_reduce
I0403 15:14:50.993332 31354 net.cpp:148] Top shape: 24 48 7 7 (56448)
I0403 15:14:50.993350 31354 net.cpp:156] Memory required for data: 1334499360
I0403 15:14:50.993372 31354 layer_factory.hpp:77] Creating layer inception_5b/relu_5x5_reduce
I0403 15:14:50.993396 31354 net.cpp:91] Creating Layer inception_5b/relu_5x5_reduce
I0403 15:14:50.993414 31354 net.cpp:425] inception_5b/relu_5x5_reduce <- inception_5b/5x5_reduce
I0403 15:14:50.993434 31354 net.cpp:386] inception_5b/relu_5x5_reduce -> inception_5b/5x5_reduce (in-place)
I0403 15:14:50.993834 31354 net.cpp:141] Setting up inception_5b/relu_5x5_reduce
I0403 15:14:50.993861 31354 net.cpp:148] Top shape: 24 48 7 7 (56448)
I0403 15:14:50.993878 31354 net.cpp:156] Memory required for data: 1334725152
I0403 15:14:50.993896 31354 layer_factory.hpp:77] Creating layer inception_5b/5x5
I0403 15:14:50.993919 31354 net.cpp:91] Creating Layer inception_5b/5x5
I0403 15:14:50.993940 31354 net.cpp:425] inception_5b/5x5 <- inception_5b/5x5_reduce
I0403 15:14:50.993962 31354 net.cpp:399] inception_5b/5x5 -> inception_5b/5x5
I0403 15:14:50.996175 31354 net.cpp:141] Setting up inception_5b/5x5
I0403 15:14:50.996209 31354 net.cpp:148] Top shape: 24 128 7 7 (150528)
I0403 15:14:50.996228 31354 net.cpp:156] Memory required for data: 1335327264
I0403 15:14:50.996249 31354 layer_factory.hpp:77] Creating layer inception_5b/relu_5x5
I0403 15:14:50.996271 31354 net.cpp:91] Creating Layer inception_5b/relu_5x5
I0403 15:14:50.996294 31354 net.cpp:425] inception_5b/relu_5x5 <- inception_5b/5x5
I0403 15:14:50.996318 31354 net.cpp:386] inception_5b/relu_5x5 -> inception_5b/5x5 (in-place)
I0403 15:14:50.996526 31354 net.cpp:141] Setting up inception_5b/relu_5x5
I0403 15:14:50.996554 31354 net.cpp:148] Top shape: 24 128 7 7 (150528)
I0403 15:14:50.996572 31354 net.cpp:156] Memory required for data: 1335929376
I0403 15:14:50.996589 31354 layer_factory.hpp:77] Creating layer inception_5b/pool
I0403 15:14:50.996610 31354 net.cpp:91] Creating Layer inception_5b/pool
I0403 15:14:50.996628 31354 net.cpp:425] inception_5b/pool <- inception_5a/output_inception_5a/output_0_split_3
I0403 15:14:50.996652 31354 net.cpp:399] inception_5b/pool -> inception_5b/pool
I0403 15:14:50.996734 31354 net.cpp:141] Setting up inception_5b/pool
I0403 15:14:50.996762 31354 net.cpp:148] Top shape: 24 832 7 7 (978432)
I0403 15:14:50.996778 31354 net.cpp:156] Memory required for data: 1339843104
I0403 15:14:50.996793 31354 layer_factory.hpp:77] Creating layer inception_5b/pool_proj
I0403 15:14:50.996819 31354 net.cpp:91] Creating Layer inception_5b/pool_proj
I0403 15:14:50.996840 31354 net.cpp:425] inception_5b/pool_proj <- inception_5b/pool
I0403 15:14:50.996860 31354 net.cpp:399] inception_5b/pool_proj -> inception_5b/pool_proj
I0403 15:14:50.999361 31354 net.cpp:141] Setting up inception_5b/pool_proj
I0403 15:14:50.999398 31354 net.cpp:148] Top shape: 24 128 7 7 (150528)
I0403 15:14:50.999418 31354 net.cpp:156] Memory required for data: 1340445216
I0403 15:14:50.999439 31354 layer_factory.hpp:77] Creating layer inception_5b/relu_pool_proj
I0403 15:14:50.999461 31354 net.cpp:91] Creating Layer inception_5b/relu_pool_proj
I0403 15:14:50.999480 31354 net.cpp:425] inception_5b/relu_pool_proj <- inception_5b/pool_proj
I0403 15:14:50.999500 31354 net.cpp:386] inception_5b/relu_pool_proj -> inception_5b/pool_proj (in-place)
I0403 15:14:50.999835 31354 net.cpp:141] Setting up inception_5b/relu_pool_proj
I0403 15:14:50.999883 31354 net.cpp:148] Top shape: 24 128 7 7 (150528)
I0403 15:14:50.999902 31354 net.cpp:156] Memory required for data: 1341047328
I0403 15:14:50.999920 31354 layer_factory.hpp:77] Creating layer inception_5b/output
I0403 15:14:50.999940 31354 net.cpp:91] Creating Layer inception_5b/output
I0403 15:14:50.999979 31354 net.cpp:425] inception_5b/output <- inception_5b/1x1
I0403 15:14:50.999999 31354 net.cpp:425] inception_5b/output <- inception_5b/3x3
I0403 15:14:51.000016 31354 net.cpp:425] inception_5b/output <- inception_5b/5x5
I0403 15:14:51.000036 31354 net.cpp:425] inception_5b/output <- inception_5b/pool_proj
I0403 15:14:51.000056 31354 net.cpp:399] inception_5b/output -> inception_5b/output
I0403 15:14:51.000115 31354 net.cpp:141] Setting up inception_5b/output
I0403 15:14:51.000151 31354 net.cpp:148] Top shape: 24 1024 7 7 (1204224)
I0403 15:14:51.000169 31354 net.cpp:156] Memory required for data: 1345864224
I0403 15:14:51.000188 31354 layer_factory.hpp:77] Creating layer pool5/7x7_s1
I0403 15:14:51.000211 31354 net.cpp:91] Creating Layer pool5/7x7_s1
I0403 15:14:51.000228 31354 net.cpp:425] pool5/7x7_s1 <- inception_5b/output
I0403 15:14:51.000249 31354 net.cpp:399] pool5/7x7_s1 -> pool5/7x7_s1
I0403 15:14:51.000489 31354 net.cpp:141] Setting up pool5/7x7_s1
I0403 15:14:51.000524 31354 net.cpp:148] Top shape: 24 1024 1 1 (24576)
I0403 15:14:51.000540 31354 net.cpp:156] Memory required for data: 1345962528
I0403 15:14:51.000557 31354 layer_factory.hpp:77] Creating layer pool5/drop_7x7_s1
I0403 15:14:51.000578 31354 net.cpp:91] Creating Layer pool5/drop_7x7_s1
I0403 15:14:51.000597 31354 net.cpp:425] pool5/drop_7x7_s1 <- pool5/7x7_s1
I0403 15:14:51.000617 31354 net.cpp:386] pool5/drop_7x7_s1 -> pool5/7x7_s1 (in-place)
I0403 15:14:51.000672 31354 net.cpp:141] Setting up pool5/drop_7x7_s1
I0403 15:14:51.000699 31354 net.cpp:148] Top shape: 24 1024 1 1 (24576)
I0403 15:14:51.000715 31354 net.cpp:156] Memory required for data: 1346060832
I0403 15:14:51.000731 31354 layer_factory.hpp:77] Creating layer loss3/classifier_plantvillage
I0403 15:14:51.000756 31354 net.cpp:91] Creating Layer loss3/classifier_plantvillage
I0403 15:14:51.000774 31354 net.cpp:425] loss3/classifier_plantvillage <- pool5/7x7_s1
I0403 15:14:51.000798 31354 net.cpp:399] loss3/classifier_plantvillage -> loss3/classifier_plantvillage
I0403 15:14:51.001255 31354 net.cpp:141] Setting up loss3/classifier_plantvillage
I0403 15:14:51.001297 31354 net.cpp:148] Top shape: 24 38 (912)
I0403 15:14:51.001318 31354 net.cpp:156] Memory required for data: 1346064480
I0403 15:14:51.001341 31354 layer_factory.hpp:77] Creating layer loss3/classifier_plantvillage_loss3/classifier_plantvillage_0_split
I0403 15:14:51.001363 31354 net.cpp:91] Creating Layer loss3/classifier_plantvillage_loss3/classifier_plantvillage_0_split
I0403 15:14:51.001386 31354 net.cpp:425] loss3/classifier_plantvillage_loss3/classifier_plantvillage_0_split <- loss3/classifier_plantvillage
I0403 15:14:51.001415 31354 net.cpp:399] loss3/classifier_plantvillage_loss3/classifier_plantvillage_0_split -> loss3/classifier_plantvillage_loss3/classifier_plantvillage_0_split_0
I0403 15:14:51.001442 31354 net.cpp:399] loss3/classifier_plantvillage_loss3/classifier_plantvillage_0_split -> loss3/classifier_plantvillage_loss3/classifier_plantvillage_0_split_1
I0403 15:14:51.001469 31354 net.cpp:399] loss3/classifier_plantvillage_loss3/classifier_plantvillage_0_split -> loss3/classifier_plantvillage_loss3/classifier_plantvillage_0_split_2
I0403 15:14:51.001497 31354 net.cpp:399] loss3/classifier_plantvillage_loss3/classifier_plantvillage_0_split -> loss3/classifier_plantvillage_loss3/classifier_plantvillage_0_split_3
I0403 15:14:51.001616 31354 net.cpp:141] Setting up loss3/classifier_plantvillage_loss3/classifier_plantvillage_0_split
I0403 15:14:51.001651 31354 net.cpp:148] Top shape: 24 38 (912)
I0403 15:14:51.001674 31354 net.cpp:148] Top shape: 24 38 (912)
I0403 15:14:51.001696 31354 net.cpp:148] Top shape: 24 38 (912)
I0403 15:14:51.001719 31354 net.cpp:148] Top shape: 24 38 (912)
I0403 15:14:51.001735 31354 net.cpp:156] Memory required for data: 1346079072
I0403 15:14:51.001752 31354 layer_factory.hpp:77] Creating layer loss1/loss
I0403 15:14:51.001775 31354 net.cpp:91] Creating Layer loss1/loss
I0403 15:14:51.001801 31354 net.cpp:425] loss1/loss <- loss1/classifier_plantvillage_loss1/classifier_plantvillage_0_split_0
I0403 15:14:51.001842 31354 net.cpp:425] loss1/loss <- label_data_1_split_0
…
