…
I0403 15:10:25.537518 31243 net.cpp:313] The NetState phase (1) differed from the phase (0) specified by a rule in layer data
I0403 15:10:25.538668 31243 net.cpp:49] Initializing net from parameters: 
state {
  phase: TEST
}
layer {
  name: "data"
  type: "Data"
  top: "data"
  top: "label"
  include {
    phase: TEST
  }
  transform_param {
    mirror: false
    crop_size: 224
    mean_file: "/home/mohanty/data/final_dataset/lmdb/color-60-40/mean.binaryproto"
  }
  data_param {
    source: "/home/mohanty/data/final_dataset/lmdb/color-60-40/test_db"
    batch_size: 24
    backend: LMDB
  }
}
layer {
  name: "conv1/7x7_s2"
  type: "Convolution"
  bottom: "data"
  top: "conv1/7x7_s2"
  param {
    lr_mult: 1
    decay_mult: 1
  }
  param {
    lr_mult: 2
    decay_mult: 0
  }
  convolution_param {
    num_output: 64
    pad: 3
    kernel_size: 7
    stride: 2
    weight_filler {
      type: "xavier"
      std: 0.1
    }
    bias_filler {
      type: "constant"
      value: 0.2
    }
  }
}
layer {
  name: "conv1/relu_7x7"
  type: "ReLU"
  bottom: "conv1/7x7_s2"
  top: "conv1/7x7_s2"
}
layer {
  name: "pool1/3x3_s2"
  type: "Pooling"
  bottom: "conv1/7x7_s2"
  top: "pool1/3x3_s2"
  pooling_param {
    pool: MAX
    kernel_size: 3
    stride: 2
  }
}
layer {
  name: "pool1/norm1"
  type: "LRN"
  bottom: "pool1/3x3_s2"
  top: "pool1/norm1"
  lrn_param {
    local_size: 5
    alpha: 0.0001
    beta: 0.75
  }
}
layer {
  name: "conv2/3x3_reduce"
  type: "Convolution"
  bottom: "pool1/norm1"
  top: "conv2/3x3_reduce"
  param {
    lr_mult: 1
    decay_mult: 1
  }
  param {
    lr_mult: 2
    decay_mult: 0
  }
  convolution_param {
    num_output: 64
    kernel_size: 1
    weight_filler {
      type: "xavier"
      std: 0.1
    }
    bias_filler {
      type: "constant"
      value: 0.2
    }
  }
}
layer {
  name: "conv2/relu_3x3_reduce"
  type: "ReLU"
  bottom: "conv2/3x3_reduce"
  top: "conv2/3x3_reduce"
}
layer {
  name: "conv2/3x3"
  type: "Convolution"
  bottom: "conv2/3x3_reduce"
  top: "conv2/3x3"
  param {
    lr_mult: 1
    decay_mult: 1
  }
  param {
    lr_mult: 2
    decay_mult: 0
  }
  convolution_param {
    num_output: 192
    pad: 1
    kernel_size: 3
    weight_filler {
      type: "xavier"
      std: 0.03
    }
    bias_filler {
      type: "constant"
      value: 0.2
    }
  }
}
layer {
  name: "conv2/relu_3x3"
  type: "ReLU"
  bottom: "conv2/3x3"
  top: "conv2/3x3"
}
layer {
  name: "conv2/norm2"
  type: "LRN"
  bottom: "conv2/3x3"
  top: "conv2/norm2"
  lrn_param {
    local_size: 5
    alpha: 0.0001
    beta: 0.75
  }
}
layer {
  name: "pool2/3x3_s2"
  type: "Pooling"
  bottom: "conv2/norm2"
  top: "pool2/3x3_s2"
  pooling_param {
    pool: MAX
    kernel_size: 3
    stride: 2
  }
}
layer {
  name: "inception_3a/1x1"
  type: "Convolution"
  bottom: "pool2/3x3_s2"
  top: "inception_3a/1x1"
  param {
    lr_mult: 1
    decay_mult: 1
  }
  param {
    lr_mult: 2
    decay_mult: 0
  }
  convolution_param {
    num_output: 64
    kernel_size: 1
    weight_filler {
      type: "xavier"
      std: 0.03
    }
    bias_filler {
      type: "constant"
      value: 0.2
    }
  }
}
layer {
  name: "inception_3a/relu_1x1"
  type: "ReLU"
  bottom: "inception_3a/1x1"
  top: "inception_3a/1x1"
}
layer {
  name: "inception_3a/3x3_reduce"
  type: "Convolution"
  bottom: "pool2/3x3_s2"
  top: "inception_3a/3x3_reduce"
  param {
    lr_mult: 1
    decay_mult: 1
  }
  param {
    lr_mult: 2
    decay_mult: 0
  }
  convolution_param {
    num_output: 96
    kernel_size: 1
    weight_filler {
      type: "xavier"
      std: 0.09
    }
    bias_filler {
      type: "constant"
      value: 0.2
    }
  }
}
layer {
  name: "inception_3a/relu_3x3_reduce"
  type: "ReLU"
  bottom: "inception_3a/3x3_reduce"
  top: "inception_3a/3x3_reduce"
}
layer {
  name: "inception_3a/3x3"
  type: "Convolution"
  bottom: "inception_3a/3x3_reduce"
  top: "inception_3a/3x3"
  param {
    lr_mult: 1
    decay_mult: 1
  }
  param {
    lr_mult: 2
    decay_mult: 0
  }
  convolution_param {
    num_output: 128
    pad: 1
    kernel_size: 3
    weight_filler {
      type: "xavier"
      std: 0.03
    }
    bias_filler {
      type: "constant"
      value: 0.2
    }
  }
}
layer {
  name: "inception_3a/relu_3x3"
  type: "ReLU"
  bottom: "inception_3a/3x3"
  top: "inception_3a/3x3"
}
layer {
  name: "inception_3a/5x5_reduce"
  type: "Convolution"
  bottom: "pool2/3x3_s2"
  top: "inception_3a/5x5_reduce"
  param {
    lr_mult: 1
    decay_mult: 1
  }
  param {
    lr_mult: 2
    decay_mult: 0
  }
  convolution_param {
    num_output: 16
    kernel_size: 1
    weight_filler {
      type: "xavier"
      std: 0.2
    }
    bias_filler {
      type: "constant"
      value: 0.2
    }
  }
}
layer {
  name: "inception_3a/relu_5x5_reduce"
  type: "ReLU"
  bottom: "inception_3a/5x5_reduce"
  top: "inception_3a/5x5_reduce"
}
layer {
  name: "inception_3a/5x5"
  type: "Convolution"
  bottom: "inception_3a/5x5_reduce"
  top: "inception_3a/5x5"
  param {
    lr_mult: 1
    decay_mult: 1
  }
  param {
    lr_mult: 2
    decay_mult: 0
  }
  convolution_param {
    num_output: 32
    pad: 2
    kernel_size: 5
    weight_filler {
      type: "xavier"
      std: 0.03
    }
    bias_filler {
      type: "constant"
      value: 0.2
    }
  }
}
layer {
  name: "inception_3a/relu_5x5"
  type: "ReLU"
  bottom: "inception_3a/5x5"
  top: "inception_3a/5x5"
}
layer {
  name: "inception_3a/pool"
  type: "Pooling"
  bottom: "pool2/3x3_s2"
  top: "inception_3a/pool"
  pooling_param {
    pool: MAX
    kernel_size: 3
    stride: 1
    pad: 1
  }
}
layer {
  name: "inception_3a/pool_proj"
  type: "Convolution"
  bottom: "inception_3a/pool"
  top: "inception_3a/pool_proj"
  param {
    lr_mult: 1
    decay_mult: 1
  }
  param {
    lr_mult: 2
    decay_mult: 0
  }
  convolution_param {
    num_output: 32
    kernel_size: 1
    weight_filler {
      type: "xavier"
      std: 0.1
    }
    bias_filler {
      type: "constant"
      value: 0.2
    }
  }
}
layer {
  name: "inception_3a/relu_pool_proj"
  type: "ReLU"
  bottom: "inception_3a/pool_proj"
  top: "inception_3a/pool_proj"
}
layer {
  name: "inception_3a/output"
  type: "Concat"
  bottom: "inception_3a/1x1"
  bottom: "inception_3a/3x3"
  bottom: "inception_3a/5x5"
  bottom: "inception_3a/pool_proj"
  top: "inception_3a/output"
}
layer {
  name: "inception_3b/1x1"
  type: "Convolution"
  bottom: "inception_3a/output"
  top: "inception_3b/1x1"
  param {
    lr_mult: 1
    decay_mult: 1
  }
  param {
    lr_mult: 2
    decay_mult: 0
  }
  convolution_param {
    num_output: 128
    kernel_size: 1
    weight_filler {
      type: "xavier"
      std: 0.03
    }
    bias_filler {
      type: "constant"
      value: 0.2
    }
  }
}
layer {
  name: "inception_3b/relu_1x1"
  type: "ReLU"
  bottom: "inception_3b/1x1"
  top: "inception_3b/1x1"
}
layer {
  name: "inception_3b/3x3_reduce"
  type: "Convolution"
  bottom: "inception_3a/output"
  top: "inception_3b/3x3_reduce"
  param {
    lr_mult: 1
    decay_mult: 1
  }
  param {
    lr_mult: 2
    decay_mult: 0
  }
  convolution_param {
    num_output: 128
    kernel_size: 1
    weight_filler {
      type: "xavier"
      std: 0.09
    }
    bias_filler {
      type: "constant"
      value: 0.2
    }
  }
}
layer {
  name: "inception_3b/relu_3x3_reduce"
  type: "ReLU"
  bottom: "inception_3b/3x3_reduce"
  top: "inception_3b/3x3_reduce"
}
layer {
  name: "inception_3b/3x3"
  type: "Convolution"
  bottom: "inception_3b/3x3_reduce"
  top: "inception_3b/3x3"
  param {
    lr_mult: 1
    decay_mult: 1
  }
  param {
    lr_mult: 2
    decay_mult: 0
  }
  convolution_param {
    num_output: 192
    pad: 1
    kernel_size: 3
    weight_filler {
      type: "xavier"
      std: 0.03
    }
    bias_filler {
      type: "constant"
      value: 0.2
    }
  }
}
layer {
  name: "inception_3b/relu_3x3"
  type: "ReLU"
  bottom: "inception_3b/3x3"
  top: "inception_3b/3x3"
}
layer {
  name: "inception_3b/5x5_reduce"
  type: "Convolution"
  bottom: "inception_3a/output"
  top: "inception_3b/5x5_reduce"
  param {
    lr_mult: 1
    decay_mult: 1
  }
  param {
    lr_mult: 2
    decay_mult: 0
  }
  convolution_param {
    num_output: 32
    kernel_size: 1
    weight_filler {
      type: "xavier"
      std: 0.2
    }
    bias_filler {
      type: "constant"
      value: 0.2
    }
  }
}
layer {
  name: "inception_3b/relu_5x5_reduce"
  type: "ReLU"
  bottom: "inception_3b/5x5_reduce"
  top: "inception_3b/5x5_reduce"
}
layer {
  name: "inception_3b/5x5"
  type: "Convolution"
  bottom: "inception_3b/5x5_reduce"
  top: "inception_3b/5x5"
  param {
    lr_mult: 1
    decay_mult: 1
  }
  param {
    lr_mult: 2
    decay_mult: 0
  }
  convolution_param {
    num_output: 96
    pad: 2
    kernel_size: 5
    weight_filler {
      type: "xavier"
      std: 0.03
    }
    bias_filler {
      type: "constant"
      value: 0.2
    }
  }
}
layer {
  name: "inception_3b/relu_5x5"
  type: "ReLU"
  bottom: "inception_3b/5x5"
  top: "inception_3b/5x5"
}
layer {
  name: "inception_3b/pool"
  type: "Pooling"
  bottom: "inception_3a/output"
  top: "inception_3b/pool"
  pooling_param {
    pool: MAX
    kernel_size: 3
    stride: 1
    pad: 1
  }
}
layer {
  name: "inception_3b/pool_proj"
  type: "Convolution"
  bottom: "inception_3b/pool"
  top: "inception_3b/pool_proj"
  param {
    lr_mult: 1
    decay_mult: 1
  }
  param {
    lr_mult: 2
    decay_mult: 0
  }
  convolution_param {
    num_output: 64
    kernel_size: 1
    weight_filler {
      type: "xavier"
      std: 0.1
    }
    bias_filler {
      type: "constant"
      value: 0.2
    }
  }
}
layer {
  name: "inception_3b/relu_pool_proj"
  type: "ReLU"
  bottom: "inception_3b/pool_proj"
  top: "inception_3b/pool_proj"
}
layer {
  name: "inception_3b/output"
  type: "Concat"
  bottom: "inception_3b/1x1"
  bottom: "inception_3b/3x3"
  bottom: "inception_3b/5x5"
  bottom: "inception_3b/pool_proj"
  top: "inception_3b/output"
}
layer {
  name: "pool3/3x3_s2"
  type: "Pooling"
  bottom: "inception_3b/output"
  top: "pool3/3x3_s2"
  pooling_param {
    pool: MAX
    kernel_size: 3
    stride: 2
  }
}
layer {
  name: "inception_4a/1x1"
  type: "Convolution"
  bottom: "pool3/3x3_s2"
  top: "inception_4a/1x1"
  param {
    lr_mult: 1
    decay_mult: 1
  }
  param {
    lr_mult: 2
    decay_mult: 0
  }
  convolution_param {
    num_output: 192
    kernel_size: 1
    weight_filler {
      type: "xavier"
      std: 0.03
    }
    bias_filler {
      type: "constant"
      value: 0.2
    }
  }
}
layer {
  name: "inception_4a/relu_1x1"
  type: "ReLU"
  bottom: "inception_4a/1x1"
  top: "inception_4a/1x1"
}
layer {
  name: "inception_4a/3x3_reduce"
  type: "Convolution"
  bottom: "pool3/3x3_s2"
  top: "inception_4a/3x3_reduce"
  param {
    lr_mult: 1
    decay_mult: 1
  }
  param {
    lr_mult: 2
    decay_mult: 0
  }
  convolution_param {
    num_output: 96
    kernel_size: 1
    weight_filler {
      type: "xavier"
      std: 0.09
    }
    bias_filler {
      type: "constant"
      value: 0.2
    }
  }
}
layer {
  name: "inception_4a/relu_3x3_reduce"
  type: "ReLU"
  bottom: "inception_4a/3x3_reduce"
  top: "inception_4a/3x3_reduce"
}
layer {
  name: "inception_4a/3x3"
  type: "Convolution"
  bottom: "inception_4a/3x3_reduce"
  top: "inception_4a/3x3"
  param {
    lr_mult: 1
    decay_mult: 1
  }
  param {
    lr_mult: 2
    decay_mult: 0
  }
  convolution_param {
    num_output: 208
    pad: 1
    kernel_size: 3
    weight_filler {
      type: "xavier"
      std: 0.03
    }
    bias_filler {
      type: "constant"
      value: 0.2
    }
  }
}
layer {
  name: "inception_4a/relu_3x3"
  type: "ReLU"
  bottom: "inception_4a/3x3"
  top: "inception_4a/3x3"
}
layer {
  name: "inception_4a/5x5_reduce"
  type: "Convolution"
  bottom: "pool3/3x3_s2"
  top: "inception_4a/5x5_reduce"
  param {
    lr_mult: 1
    decay_mult: 1
  }
  param {
    lr_mult: 2
    decay_mult: 0
  }
  convolution_param {
    num_output: 16
    kernel_size: 1
    weight_filler {
      type: "xavier"
      std: 0.2
    }
    bias_filler {
      type: "constant"
      value: 0.2
    }
  }
}
layer {
  name: "inception_4a/relu_5x5_reduce"
  type: "ReLU"
  bottom: "inception_4a/5x5_reduce"
  top: "inception_4a/5x5_reduce"
}
layer {
  name: "inception_4a/5x5"
  type: "Convolution"
  bottom: "inception_4a/5x5_reduce"
  top: "inception_4a/5x5"
  param {
    lr_mult: 1
    decay_mult: 1
  }
  param {
    lr_mult: 2
    decay_mult: 0
  }
  convolution_param {
    num_output: 48
    pad: 2
    kernel_size: 5
    weight_filler {
      type: "xavier"
      std: 0.03
    }
    bias_filler {
      type: "constant"
      value: 0.2
    }
  }
}
layer {
  name: "inception_4a/relu_5x5"
  type: "ReLU"
  bottom: "inception_4a/5x5"
  top: "inception_4a/5x5"
}
layer {
  name: "inception_4a/pool"
  type: "Pooling"
  bottom: "pool3/3x3_s2"
  top: "inception_4a/pool"
  pooling_param {
    pool: MAX
    kernel_size: 3
    stride: 1
    pad: 1
  }
}
layer {
  name: "inception_4a/pool_proj"
  type: "Convolution"
  bottom: "inception_4a/pool"
  top: "inception_4a/pool_proj"
  param {
    lr_mult: 1
    decay_mult: 1
  }
  param {
    lr_mult: 2
    decay_mult: 0
  }
  convolution_param {
    num_output: 64
    kernel_size: 1
    weight_filler {
      type: "xavier"
      std: 0.1
    }
    bias_filler {
      type: "constant"
      value: 0.2
    }
  }
}
layer {
  name: "inception_4a/relu_pool_proj"
  type: "ReLU"
  bottom: "inception_4a/pool_proj"
  top: "inception_4a/pool_proj"
}
layer {
  name: "inception_4a/output"
  type: "Concat"
  bottom: "inception_4a/1x1"
  bottom: "inception_4a/3x3"
  bottom: "inception_4a/5x5"
  bottom: "inception_4a/pool_proj"
  top: "inception_4a/output"
}
layer {
  name: "loss1/ave_pool"
  type: "Pooling"
  bottom: "inception_4a/output"
  top: "loss1/ave_pool"
  pooling_param {
    pool: AVE
    kernel_size: 5
    stride: 3
  }
}
layer {
  name: "loss1/conv"
  type: "Convolution"
  bottom: "loss1/ave_pool"
  top: "loss1/conv"
  param {
    lr_mult: 1
    decay_mult: 1
  }
  param {
    lr_mult: 2
    decay_mult: 0
  }
  convolution_param {
    num_output: 128
    kernel_size: 1
    weight_filler {
      type: "xavier"
      std: 0.08
    }
    bias_filler {
      type: "constant"
      value: 0.2
    }
  }
}
layer {
  name: "loss1/relu_conv"
  type: "ReLU"
  bottom: "loss1/conv"
  top: "loss1/conv"
}
layer {
  name: "loss1/fc"
  type: "InnerProduct"
  bottom: "loss1/conv"
  top: "loss1/fc"
  param {
    lr_mult: 1
    decay_mult: 1
  }
  param {
    lr_mult: 2
    decay_mult: 0
  }
  inner_product_param {
    num_output: 1024
    weight_filler {
      type: "xavier"
      std: 0.02
    }
    bias_filler {
      type: "constant"
      value: 0.2
    }
  }
}
layer {
  name: "loss1/relu_fc"
  type: "ReLU"
  bottom: "loss1/fc"
  top: "loss1/fc"
}
layer {
  name: "loss1/drop_fc"
  type: "Dropout"
  bottom: "loss1/fc"
  top: "loss1/fc"
  dropout_param {
    dropout_ratio: 0.7
  }
}
layer {
  name: "loss1/classifier_plantvillage"
  type: "InnerProduct"
  bottom: "loss1/fc"
  top: "loss1/classifier_plantvillage"
  param {
    lr_mult: 1
    decay_mult: 1
  }
  param {
    lr_mult: 2
    decay_mult: 0
  }
  inner_product_param {
    num_output: 38
    weight_filler {
      type: "xavier"
      std: 0.0009765625
    }
    bias_filler {
      type: "constant"
      value: 0
    }
  }
}
layer {
  name: "inception_4b/1x1"
  type: "Convolution"
  bottom: "inception_4a/output"
  top: "inception_4b/1x1"
  param {
    lr_mult: 1
    decay_mult: 1
  }
  param {
    lr_mult: 2
    decay_mult: 0
  }
  convolution_param {
    num_output: 160
    kernel_size: 1
    weight_filler {
      type: "xavier"
      std: 0.03
    }
    bias_filler {
      type: "constant"
      value: 0.2
    }
  }
}
layer {
  name: "inception_4b/relu_1x1"
  type: "ReLU"
  bottom: "inception_4b/1x1"
  top: "inception_4b/1x1"
}
layer {
  name: "inception_4b/3x3_reduce"
  type: "Convolution"
  bottom: "inception_4a/output"
  top: "inception_4b/3x3_reduce"
  param {
    lr_mult: 1
    decay_mult: 1
  }
  param {
    lr_mult: 2
    decay_mult: 0
  }
  convolution_param {
    num_output: 112
    kernel_size: 1
    weight_filler {
      type: "xavier"
      std: 0.09
    }
    bias_filler {
      type: "constant"
      value: 0.2
    }
  }
}
layer {
  name: "inception_4b/relu_3x3_reduce"
  type: "ReLU"
  bottom: "inception_4b/3x3_reduce"
  top: "inception_4b/3x3_reduce"
}
layer {
  name: "inception_4b/3x3"
  type: "Convolution"
  bottom: "inception_4b/3x3_reduce"
  top: "inception_4b/3x3"
  param {
    lr_mult: 1
    decay_mult: 1
  }
  param {
    lr_mult: 2
    decay_mult: 0
  }
  convolution_param {
    num_output: 224
    pad: 1
    kernel_size: 3
    weight_filler {
      type: "xavier"
      std: 0.03
    }
    bias_filler {
      type: "constant"
      value: 0.2
    }
  }
}
layer {
  name: "inception_4b/relu_3x3"
  type: "ReLU"
  bottom: "inception_4b/3x3"
  top: "inception_4b/3x3"
}
layer {
  name: "inception_4b/5x5_reduce"
  type: "Convolution"
  bottom: "inception_4a/output"
  top: "inception_4b/5x5_reduce"
  param {
    lr_mult: 1
    decay_mult: 1
  }
  param {
    lr_mult: 2
    decay_mult: 0
  }
  convolution_param {
    num_output: 24
    kernel_size: 1
    weight_filler {
      type: "xavier"
      std: 0.2
    }
    bias_filler {
      type: "constant"
      value: 0.2
    }
  }
}
layer {
  name: "inception_4b/relu_5x5_reduce"
  type: "ReLU"
  bottom: "inception_4b/5x5_reduce"
  top: "inception_4b/5x5_reduce"
}
layer {
  name: "inception_4b/5x5"
  type: "Convolution"
  bottom: "inception_4b/5x5_reduce"
  top: "inception_4b/5x5"
  param {
    lr_mult: 1
    decay_mult: 1
  }
  param {
    lr_mult: 2
    decay_mult: 0
  }
  convolution_param {
    num_output: 64
    pad: 2
    kernel_size: 5
    weight_filler {
      type: "xavier"
      std: 0.03
    }
    bias_filler {
      type: "constant"
      value: 0.2
    }
  }
}
layer {
  name: "inception_4b/relu_5x5"
  type: "ReLU"
  bottom: "inception_4b/5x5"
  top: "inception_4b/5x5"
}
layer {
  name: "inception_4b/pool"
  type: "Pooling"
  bottom: "inception_4a/output"
  top: "inception_4b/pool"
  pooling_param {
    pool: MAX
    kernel_size: 3
    stride: 1
    pad: 1
  }
}
layer {
  name: "inception_4b/pool_proj"
  type: "Convolution"
  bottom: "inception_4b/pool"
  top: "inception_4b/pool_proj"
  param {
    lr_mult: 1
    decay_mult: 1
  }
  param {
    lr_mult: 2
    decay_mult: 0
  }
  convolution_param {
    num_output: 64
    kernel_size: 1
    weight_filler {
      type: "xavier"
      std: 0.1
    }
    bias_filler {
      type: "constant"
      value: 0.2
    }
  }
}
layer {
  name: "inception_4b/relu_pool_proj"
  type: "ReLU"
  bottom: "inception_4b/pool_proj"
  top: "inception_4b/pool_proj"
}
layer {
  name: "inception_4b/output"
  type: "Concat"
  bottom: "inception_4b/1x1"
  bottom: "inception_4b/3x3"
  bottom: "inception_4b/5x5"
  bottom: "inception_4b/pool_proj"
  top: "inception_4b/output"
}
layer {
  name: "inception_4c/1x1"
  type: "Convolution"
  bottom: "inception_4b/output"
  top: "inception_4c/1x1"
  param {
    lr_mult: 1
    decay_mult: 1
  }
  param {
    lr_mult: 2
    decay_mult: 0
  }
  convolution_param {
    num_output: 128
    kernel_size: 1
    weight_filler {
      type: "xavier"
      std: 0.03
    }
    bias_filler {
      type: "constant"
      value: 0.2
    }
  }
}
layer {
  name: "inception_4c/relu_1x1"
  type: "ReLU"
  bottom: "inception_4c/1x1"
  top: "inception_4c/1x1"
}
layer {
  name: "inception_4c/3x3_reduce"
  type: "Convolution"
  bottom: "inception_4b/output"
  top: "inception_4c/3x3_reduce"
  param {
    lr_mult: 1
    decay_mult: 1
  }
  param {
    lr_mult: 2
    decay_mult: 0
  }
  convolution_param {
    num_output: 128
    kernel_size: 1
    weight_filler {
      type: "xavier"
      std: 0.09
    }
    bias_filler {
      type: "constant"
      value: 0.2
    }
  }
}
layer {
  name: "inception_4c/relu_3x3_reduce"
  type: "ReLU"
  bottom: "inception_4c/3x3_reduce"
  top: "inception_4c/3x3_reduce"
}
layer {
  name: "inception_4c/3x3"
  type: "Convolution"
  bottom: "inception_4c/3x3_reduce"
  top: "inception_4c/3x3"
  param {
    lr_mult: 1
    decay_mult: 1
  }
  param {
    lr_mult: 2
    decay_mult: 0
  }
  convolution_param {
    num_output: 256
    pad: 1
    kernel_size: 3
    weight_filler {
      type: "xavier"
      std: 0.03
    }
    bias_filler {
      type: "constant"
      value: 0.2
    }
  }
}
layer {
  name: "inception_4c/relu_3x3"
  type: "ReLU"
  bottom: "inception_4c/3x3"
  top: "inception_4c/3x3"
}
layer {
  name: "inception_4c/5x5_reduce"
  type: "Convolution"
  bottom: "inception_4b/output"
  top: "inception_4c/5x5_reduce"
  param {
    lr_mult: 1
    decay_mult: 1
  }
  param {
    lr_mult: 2
    decay_mult: 0
  }
  convolution_param {
    num_output: 24
    kernel_size: 1
    weight_filler {
      type: "xavier"
      std: 0.2
    }
    bias_filler {
      type: "constant"
      value: 0.2
    }
  }
}
layer {
  name: "inception_4c/relu_5x5_reduce"
  type: "ReLU"
  bottom: "inception_4c/5x5_reduce"
  top: "inception_4c/5x5_reduce"
}
layer {
  name: "inception_4c/5x5"
  type: "Convolution"
  bottom: "inception_4c/5x5_reduce"
  top: "inception_4c/5x5"
  param {
    lr_mult: 1
    decay_mult: 1
  }
  param {
    lr_mult: 2
    decay_mult: 0
  }
  convolution_param {
    num_output: 64
    pad: 2
    kernel_size: 5
    weight_filler {
      type: "xavier"
      std: 0.03
    }
    bias_filler {
      type: "constant"
      value: 0.2
    }
  }
}
layer {
  name: "inception_4c/relu_5x5"
  type: "ReLU"
  bottom: "inception_4c/5x5"
  top: "inception_4c/5x5"
}
layer {
  name: "inception_4c/pool"
  type: "Pooling"
  bottom: "inception_4b/output"
  top: "inception_4c/pool"
  pooling_param {
    pool: MAX
    kernel_size: 3
    stride: 1
    pad: 1
  }
}
layer {
  name: "inception_4c/pool_proj"
  type: "Convolution"
  bottom: "inception_4c/pool"
  top: "inception_4c/pool_proj"
  param {
    lr_mult: 1
    decay_mult: 1
  }
  param {
    lr_mult: 2
    decay_mult: 0
  }
  convolution_param {
    num_output: 64
    kernel_size: 1
    weight_filler {
      type: "xavier"
      std: 0.1
    }
    bias_filler {
      type: "constant"
      value: 0.2
    }
  }
}
layer {
  name: "inception_4c/relu_pool_proj"
  type: "ReLU"
  bottom: "inception_4c/pool_proj"
  top: "inception_4c/pool_proj"
}
layer {
  name: "inception_4c/output"
  type: "Concat"
  bottom: "inception_4c/1x1"
  bottom: "inception_4c/3x3"
  bottom: "inception_4c/5x5"
  bottom: "inception_4c/pool_proj"
  top: "inception_4c/output"
}
layer {
  name: "inception_4d/1x1"
  type: "Convolution"
  bottom: "inception_4c/output"
  top: "inception_4d/1x1"
  param {
    lr_mult: 1
    decay_mult: 1
  }
  param {
    lr_mult: 2
    decay_mult: 0
  }
  convolution_param {
    num_output: 112
    kernel_size: 1
    weight_filler {
      type: "xavier"
      std: 0.03
    }
    bias_filler {
      type: "constant"
      value: 0.2
    }
  }
}
layer {
  name: "inception_4d/relu_1x1"
  type: "ReLU"
  bottom: "inception_4d/1x1"
  top: "inception_4d/1x1"
}
layer {
  name: "inception_4d/3x3_reduce"
  type: "Convolution"
  bottom: "inception_4c/output"
  top: "inception_4d/3x3_reduce"
  param {
    lr_mult: 1
    decay_mult: 1
  }
  param {
    lr_mult: 2
    decay_mult: 0
  }
  convolution_param {
    num_output: 144
    kernel_size: 1
    weight_filler {
      type: "xavier"
      std: 0.09
    }
    bias_filler {
      type: "constant"
      value: 0.2
    }
  }
}
layer {
  name: "inception_4d/relu_3x3_reduce"
  type: "ReLU"
  bottom: "inception_4d/3x3_reduce"
  top: "inception_4d/3x3_reduce"
}
layer {
  name: "inception_4d/3x3"
  type: "Convolution"
  bottom: "inception_4d/3x3_reduce"
  top: "inception_4d/3x3"
  param {
    lr_mult: 1
    decay_mult: 1
  }
  param {
    lr_mult: 2
    decay_mult: 0
  }
  convolution_param {
    num_output: 288
    pad: 1
    kernel_size: 3
    weight_filler {
      type: "xavier"
      std: 0.03
    }
    bias_filler {
      type: "constant"
      value: 0.2
    }
  }
}
layer {
  name: "inception_4d/relu_3x3"
  type: "ReLU"
  bottom: "inception_4d/3x3"
  top: "inception_4d/3x3"
}
layer {
  name: "inception_4d/5x5_reduce"
  type: "Convolution"
  bottom: "inception_4c/output"
  top: "inception_4d/5x5_reduce"
  param {
    lr_mult: 1
    decay_mult: 1
  }
  param {
    lr_mult: 2
    decay_mult: 0
  }
  convolution_param {
    num_output: 32
    kernel_size: 1
    weight_filler {
      type: "xavier"
      std: 0.2
    }
    bias_filler {
      type: "constant"
      value: 0.2
    }
  }
}
layer {
  name: "inception_4d/relu_5x5_reduce"
  type: "ReLU"
  bottom: "inception_4d/5x5_reduce"
  top: "inception_4d/5x5_reduce"
}
layer {
  name: "inception_4d/5x5"
  type: "Convolution"
  bottom: "inception_4d/5x5_reduce"
  top: "inception_4d/5x5"
  param {
    lr_mult: 1
    decay_mult: 1
  }
  param {
    lr_mult: 2
    decay_mult: 0
  }
  convolution_param {
    num_output: 64
    pad: 2
    kernel_size: 5
    weight_filler {
      type: "xavier"
      std: 0.03
    }
    bias_filler {
      type: "constant"
      value: 0.2
    }
  }
}
layer {
  name: "inception_4d/relu_5x5"
  type: "ReLU"
  bottom: "inception_4d/5x5"
  top: "inception_4d/5x5"
}
layer {
  name: "inception_4d/pool"
  type: "Pooling"
  bottom: "inception_4c/output"
  top: "inception_4d/pool"
  pooling_param {
    pool: MAX
    kernel_size: 3
    stride: 1
    pad: 1
  }
}
layer {
  name: "inception_4d/pool_proj"
  type: "Convolution"
  bottom: "inception_4d/pool"
  top: "inception_4d/pool_proj"
  param {
    lr_mult: 1
    decay_mult: 1
  }
  param {
    lr_mult: 2
    decay_mult: 0
  }
  convolution_param {
    num_output: 64
    kernel_size: 1
    weight_filler {
      type: "xavier"
      std: 0.1
    }
    bias_filler {
      type: "constant"
      value: 0.2
    }
  }
}
layer {
  name: "inception_4d/relu_pool_proj"
  type: "ReLU"
  bottom: "inception_4d/pool_proj"
  top: "inception_4d/pool_proj"
}
layer {
  name: "inception_4d/output"
  type: "Concat"
  bottom: "inception_4d/1x1"
  bottom: "inception_4d/3x3"
  bottom: "inception_4d/5x5"
  bottom: "inception_4d/pool_proj"
  top: "inception_4d/output"
}
layer {
  name: "loss2/ave_pool"
  type: "Pooling"
  bottom: "inception_4d/output"
  top: "loss2/ave_pool"
  pooling_param {
    pool: AVE
    kernel_size: 5
    stride: 3
  }
}
layer {
  name: "loss2/conv"
  type: "Convolution"
  bottom: "loss2/ave_pool"
  top: "loss2/conv"
  param {
    lr_mult: 1
    decay_mult: 1
  }
  param {
    lr_mult: 2
    decay_mult: 0
  }
  convolution_param {
    num_output: 128
    kernel_size: 1
    weight_filler {
      type: "xavier"
      std: 0.08
    }
    bias_filler {
      type: "constant"
      value: 0.2
    }
  }
}
layer {
  name: "loss2/relu_conv"
  type: "ReLU"
  bottom: "loss2/conv"
  top: "loss2/conv"
}
layer {
  name: "loss2/fc"
  type: "InnerProduct"
  bottom: "loss2/conv"
  top: "loss2/fc"
  param {
    lr_mult: 1
    decay_mult: 1
  }
  param {
    lr_mult: 2
    decay_mult: 0
  }
  inner_product_param {
    num_output: 1024
    weight_filler {
      type: "xavier"
      std: 0.02
    }
    bias_filler {
      type: "constant"
      value: 0.2
    }
  }
}
layer {
  name: "loss2/relu_fc"
  type: "ReLU"
  bottom: "loss2/fc"
  top: "loss2/fc"
}
layer {
  name: "loss2/drop_fc"
  type: "Dropout"
  bottom: "loss2/fc"
  top: "loss2/fc"
  dropout_param {
    dropout_ratio: 0.7
  }
}
layer {
  name: "loss2/classifier_plantvillage"
  type: "InnerProduct"
  bottom: "loss2/fc"
  top: "loss2/classifier_plantvillage"
  param {
    lr_mult: 1
    decay_mult: 1
  }
  param {
    lr_mult: 2
    decay_mult: 0
  }
  inner_product_param {
    num_output: 38
    weight_filler {
      type: "xavier"
      std: 0.0009765625
    }
    bias_filler {
      type: "constant"
      value: 0
    }
  }
}
layer {
  name: "inception_4e/1x1"
  type: "Convolution"
  bottom: "inception_4d/output"
  top: "inception_4e/1x1"
  param {
    lr_mult: 1
    decay_mult: 1
  }
  param {
    lr_mult: 2
    decay_mult: 0
  }
  convolution_param {
    num_output: 256
    kernel_size: 1
    weight_filler {
      type: "xavier"
      std: 0.03
    }
    bias_filler {
      type: "constant"
      value: 0.2
    }
  }
}
layer {
  name: "inception_4e/relu_1x1"
  type: "ReLU"
  bottom: "inception_4e/1x1"
  top: "inception_4e/1x1"
}
layer {
  name: "inception_4e/3x3_reduce"
  type: "Convolution"
  bottom: "inception_4d/output"
  top: "inception_4e/3x3_reduce"
  param {
    lr_mult: 1
    decay_mult: 1
  }
  param {
    lr_mult: 2
    decay_mult: 0
  }
  convolution_param {
    num_output: 160
    kernel_size: 1
    weight_filler {
      type: "xavier"
      std: 0.09
    }
    bias_filler {
      type: "constant"
      value: 0.2
    }
  }
}
layer {
  name: "inception_4e/relu_3x3_reduce"
  type: "ReLU"
  bottom: "inception_4e/3x3_reduce"
  top: "inception_4e/3x3_reduce"
}
layer {
  name: "inception_4e/3x3"
  type: "Convolution"
  bottom: "inception_4e/3x3_reduce"
  top: "inception_4e/3x3"
  param {
    lr_mult: 1
    decay_mult: 1
  }
  param {
    lr_mult: 2
    decay_mult: 0
  }
  convolution_param {
    num_output: 320
    pad: 1
    kernel_size: 3
    weight_filler {
      type: "xavier"
      std: 0.03
    }
    bias_filler {
      type: "constant"
      value: 0.2
    }
  }
}
layer {
  name: "inception_4e/relu_3x3"
  type: "ReLU"
  bottom: "inception_4e/3x3"
  top: "inception_4e/3x3"
}
layer {
  name: "inception_4e/5x5_reduce"
  type: "Convolution"
  bottom: "inception_4d/output"
  top: "inception_4e/5x5_reduce"
  param {
    lr_mult: 1
    decay_mult: 1
  }
  param {
    lr_mult: 2
    decay_mult: 0
  }
  convolution_param {
    num_output: 32
    kernel_size: 1
    weight_filler {
      type: "xavier"
      std: 0.2
    }
    bias_filler {
      type: "constant"
      value: 0.2
    }
  }
}
layer {
  name: "inception_4e/relu_5x5_reduce"
  type: "ReLU"
  bottom: "inception_4e/5x5_reduce"
  top: "inception_4e/5x5_reduce"
}
layer {
  name: "inception_4e/5x5"
  type: "Convolution"
  bottom: "inception_4e/5x5_reduce"
  top: "inception_4e/5x5"
  p
I0403 15:10:25.539948 31243 layer_factory.hpp:77] Creating layer data
I0403 15:10:25.540556 31243 net.cpp:91] Creating Layer data
I0403 15:10:25.540588 31243 net.cpp:399] data -> data
I0403 15:10:25.540642 31243 net.cpp:399] data -> label
I0403 15:10:25.540679 31243 data_transformer.cpp:25] Loading mean file from: /home/mohanty/data/final_dataset/lmdb/color-60-40/mean.binaryproto
I0403 15:10:25.543450 31247 db_lmdb.cpp:38] Opened lmdb /home/mohanty/data/final_dataset/lmdb/color-60-40/test_db
I0403 15:10:25.554415 31243 data_layer.cpp:41] output data size: 24,3,224,224
I0403 15:10:25.585052 31243 net.cpp:141] Setting up data
I0403 15:10:25.585129 31243 net.cpp:148] Top shape: 24 3 224 224 (3612672)
I0403 15:10:25.585155 31243 net.cpp:148] Top shape: 24 (24)
I0403 15:10:25.585170 31243 net.cpp:156] Memory required for data: 14450784
I0403 15:10:25.585201 31243 layer_factory.hpp:77] Creating layer label_data_1_split
I0403 15:10:25.585229 31243 net.cpp:91] Creating Layer label_data_1_split
I0403 15:10:25.585248 31243 net.cpp:425] label_data_1_split <- label
I0403 15:10:25.585281 31243 net.cpp:399] label_data_1_split -> label_data_1_split_0
I0403 15:10:25.585316 31243 net.cpp:399] label_data_1_split -> label_data_1_split_1
I0403 15:10:25.585341 31243 net.cpp:399] label_data_1_split -> label_data_1_split_2
I0403 15:10:25.585364 31243 net.cpp:399] label_data_1_split -> label_data_1_split_3
I0403 15:10:25.585386 31243 net.cpp:399] label_data_1_split -> label_data_1_split_4
I0403 15:10:25.585408 31243 net.cpp:399] label_data_1_split -> label_data_1_split_5
I0403 15:10:25.585429 31243 net.cpp:399] label_data_1_split -> label_data_1_split_6
I0403 15:10:25.585451 31243 net.cpp:399] label_data_1_split -> label_data_1_split_7
I0403 15:10:25.585472 31243 net.cpp:399] label_data_1_split -> label_data_1_split_8
I0403 15:10:25.585495 31243 net.cpp:399] label_data_1_split -> label_data_1_split_9
I0403 15:10:25.585613 31243 net.cpp:141] Setting up label_data_1_split
I0403 15:10:25.585638 31243 net.cpp:148] Top shape: 24 (24)
I0403 15:10:25.585657 31243 net.cpp:148] Top shape: 24 (24)
I0403 15:10:25.585675 31243 net.cpp:148] Top shape: 24 (24)
I0403 15:10:25.585691 31243 net.cpp:148] Top shape: 24 (24)
I0403 15:10:25.585708 31243 net.cpp:148] Top shape: 24 (24)
I0403 15:10:25.585726 31243 net.cpp:148] Top shape: 24 (24)
I0403 15:10:25.585741 31243 net.cpp:148] Top shape: 24 (24)
I0403 15:10:25.585757 31243 net.cpp:148] Top shape: 24 (24)
I0403 15:10:25.585783 31243 net.cpp:148] Top shape: 24 (24)
I0403 15:10:25.585800 31243 net.cpp:148] Top shape: 24 (24)
I0403 15:10:25.585842 31243 net.cpp:156] Memory required for data: 14451744
I0403 15:10:25.585860 31243 layer_factory.hpp:77] Creating layer conv1/7x7_s2
I0403 15:10:25.585892 31243 net.cpp:91] Creating Layer conv1/7x7_s2
I0403 15:10:25.585911 31243 net.cpp:425] conv1/7x7_s2 <- data
I0403 15:10:25.585932 31243 net.cpp:399] conv1/7x7_s2 -> conv1/7x7_s2
I0403 15:10:27.817981 31243 net.cpp:141] Setting up conv1/7x7_s2
I0403 15:10:27.818073 31243 net.cpp:148] Top shape: 24 64 112 112 (19267584)
I0403 15:10:27.818092 31243 net.cpp:156] Memory required for data: 91522080
I0403 15:10:27.818125 31243 layer_factory.hpp:77] Creating layer conv1/relu_7x7
I0403 15:10:27.818156 31243 net.cpp:91] Creating Layer conv1/relu_7x7
I0403 15:10:27.818177 31243 net.cpp:425] conv1/relu_7x7 <- conv1/7x7_s2
I0403 15:10:27.818199 31243 net.cpp:386] conv1/relu_7x7 -> conv1/7x7_s2 (in-place)
I0403 15:10:27.818485 31243 net.cpp:141] Setting up conv1/relu_7x7
I0403 15:10:27.818513 31243 net.cpp:148] Top shape: 24 64 112 112 (19267584)
I0403 15:10:27.818531 31243 net.cpp:156] Memory required for data: 168592416
I0403 15:10:27.818547 31243 layer_factory.hpp:77] Creating layer pool1/3x3_s2
I0403 15:10:27.818581 31243 net.cpp:91] Creating Layer pool1/3x3_s2
I0403 15:10:27.818601 31243 net.cpp:425] pool1/3x3_s2 <- conv1/7x7_s2
I0403 15:10:27.818620 31243 net.cpp:399] pool1/3x3_s2 -> pool1/3x3_s2
I0403 15:10:27.818698 31243 net.cpp:141] Setting up pool1/3x3_s2
I0403 15:10:27.818724 31243 net.cpp:148] Top shape: 24 64 56 56 (4816896)
I0403 15:10:27.818740 31243 net.cpp:156] Memory required for data: 187860000
I0403 15:10:27.818756 31243 layer_factory.hpp:77] Creating layer pool1/norm1
I0403 15:10:27.818784 31243 net.cpp:91] Creating Layer pool1/norm1
I0403 15:10:27.818804 31243 net.cpp:425] pool1/norm1 <- pool1/3x3_s2
I0403 15:10:27.818824 31243 net.cpp:399] pool1/norm1 -> pool1/norm1
I0403 15:10:27.819131 31243 net.cpp:141] Setting up pool1/norm1
I0403 15:10:27.819160 31243 net.cpp:148] Top shape: 24 64 56 56 (4816896)
I0403 15:10:27.819177 31243 net.cpp:156] Memory required for data: 207127584
I0403 15:10:27.819193 31243 layer_factory.hpp:77] Creating layer conv2/3x3_reduce
I0403 15:10:27.819222 31243 net.cpp:91] Creating Layer conv2/3x3_reduce
I0403 15:10:27.819242 31243 net.cpp:425] conv2/3x3_reduce <- pool1/norm1
I0403 15:10:27.819263 31243 net.cpp:399] conv2/3x3_reduce -> conv2/3x3_reduce
I0403 15:10:27.820516 31243 net.cpp:141] Setting up conv2/3x3_reduce
I0403 15:10:27.820549 31243 net.cpp:148] Top shape: 24 64 56 56 (4816896)
I0403 15:10:27.820565 31243 net.cpp:156] Memory required for data: 226395168
I0403 15:10:27.820587 31243 layer_factory.hpp:77] Creating layer conv2/relu_3x3_reduce
I0403 15:10:27.820618 31243 net.cpp:91] Creating Layer conv2/relu_3x3_reduce
I0403 15:10:27.820636 31243 net.cpp:425] conv2/relu_3x3_reduce <- conv2/3x3_reduce
I0403 15:10:27.820657 31243 net.cpp:386] conv2/relu_3x3_reduce -> conv2/3x3_reduce (in-place)
I0403 15:10:27.820935 31243 net.cpp:141] Setting up conv2/relu_3x3_reduce
I0403 15:10:27.820963 31243 net.cpp:148] Top shape: 24 64 56 56 (4816896)
I0403 15:10:27.820979 31243 net.cpp:156] Memory required for data: 245662752
I0403 15:10:27.820996 31243 layer_factory.hpp:77] Creating layer conv2/3x3
I0403 15:10:27.821022 31243 net.cpp:91] Creating Layer conv2/3x3
I0403 15:10:27.821041 31243 net.cpp:425] conv2/3x3 <- conv2/3x3_reduce
I0403 15:10:27.821065 31243 net.cpp:399] conv2/3x3 -> conv2/3x3
I0403 15:10:27.823400 31243 net.cpp:141] Setting up conv2/3x3
I0403 15:10:27.823432 31243 net.cpp:148] Top shape: 24 192 56 56 (14450688)
I0403 15:10:27.823449 31243 net.cpp:156] Memory required for data: 303465504
I0403 15:10:27.823472 31243 layer_factory.hpp:77] Creating layer conv2/relu_3x3
I0403 15:10:27.823496 31243 net.cpp:91] Creating Layer conv2/relu_3x3
I0403 15:10:27.823514 31243 net.cpp:425] conv2/relu_3x3 <- conv2/3x3
I0403 15:10:27.823534 31243 net.cpp:386] conv2/relu_3x3 -> conv2/3x3 (in-place)
I0403 15:10:27.823714 31243 net.cpp:141] Setting up conv2/relu_3x3
I0403 15:10:27.823740 31243 net.cpp:148] Top shape: 24 192 56 56 (14450688)
I0403 15:10:27.823787 31243 net.cpp:156] Memory required for data: 361268256
I0403 15:10:27.823806 31243 layer_factory.hpp:77] Creating layer conv2/norm2
I0403 15:10:27.823827 31243 net.cpp:91] Creating Layer conv2/norm2
I0403 15:10:27.823845 31243 net.cpp:425] conv2/norm2 <- conv2/3x3
I0403 15:10:27.823868 31243 net.cpp:399] conv2/norm2 -> conv2/norm2
I0403 15:10:27.824175 31243 net.cpp:141] Setting up conv2/norm2
I0403 15:10:27.824206 31243 net.cpp:148] Top shape: 24 192 56 56 (14450688)
I0403 15:10:27.824224 31243 net.cpp:156] Memory required for data: 419071008
I0403 15:10:27.824241 31243 layer_factory.hpp:77] Creating layer pool2/3x3_s2
I0403 15:10:27.824260 31243 net.cpp:91] Creating Layer pool2/3x3_s2
I0403 15:10:27.824277 31243 net.cpp:425] pool2/3x3_s2 <- conv2/norm2
I0403 15:10:27.824313 31243 net.cpp:399] pool2/3x3_s2 -> pool2/3x3_s2
I0403 15:10:27.824372 31243 net.cpp:141] Setting up pool2/3x3_s2
I0403 15:10:27.824396 31243 net.cpp:148] Top shape: 24 192 28 28 (3612672)
I0403 15:10:27.824412 31243 net.cpp:156] Memory required for data: 433521696
I0403 15:10:27.824429 31243 layer_factory.hpp:77] Creating layer pool2/3x3_s2_pool2/3x3_s2_0_split
I0403 15:10:27.824450 31243 net.cpp:91] Creating Layer pool2/3x3_s2_pool2/3x3_s2_0_split
I0403 15:10:27.824467 31243 net.cpp:425] pool2/3x3_s2_pool2/3x3_s2_0_split <- pool2/3x3_s2
I0403 15:10:27.824487 31243 net.cpp:399] pool2/3x3_s2_pool2/3x3_s2_0_split -> pool2/3x3_s2_pool2/3x3_s2_0_split_0
I0403 15:10:27.824508 31243 net.cpp:399] pool2/3x3_s2_pool2/3x3_s2_0_split -> pool2/3x3_s2_pool2/3x3_s2_0_split_1
I0403 15:10:27.824529 31243 net.cpp:399] pool2/3x3_s2_pool2/3x3_s2_0_split -> pool2/3x3_s2_pool2/3x3_s2_0_split_2
I0403 15:10:27.824553 31243 net.cpp:399] pool2/3x3_s2_pool2/3x3_s2_0_split -> pool2/3x3_s2_pool2/3x3_s2_0_split_3
I0403 15:10:27.824637 31243 net.cpp:141] Setting up pool2/3x3_s2_pool2/3x3_s2_0_split
I0403 15:10:27.824661 31243 net.cpp:148] Top shape: 24 192 28 28 (3612672)
I0403 15:10:27.824681 31243 net.cpp:148] Top shape: 24 192 28 28 (3612672)
I0403 15:10:27.824702 31243 net.cpp:148] Top shape: 24 192 28 28 (3612672)
I0403 15:10:27.824718 31243 net.cpp:148] Top shape: 24 192 28 28 (3612672)
I0403 15:10:27.824733 31243 net.cpp:156] Memory required for data: 491324448
I0403 15:10:27.824748 31243 layer_factory.hpp:77] Creating layer inception_3a/1x1
I0403 15:10:27.824770 31243 net.cpp:91] Creating Layer inception_3a/1x1
I0403 15:10:27.824790 31243 net.cpp:425] inception_3a/1x1 <- pool2/3x3_s2_pool2/3x3_s2_0_split_0
I0403 15:10:27.824812 31243 net.cpp:399] inception_3a/1x1 -> inception_3a/1x1
I0403 15:10:27.826459 31243 net.cpp:141] Setting up inception_3a/1x1
I0403 15:10:27.826493 31243 net.cpp:148] Top shape: 24 64 28 28 (1204224)
I0403 15:10:27.826509 31243 net.cpp:156] Memory required for data: 496141344
I0403 15:10:27.826531 31243 layer_factory.hpp:77] Creating layer inception_3a/relu_1x1
I0403 15:10:27.826551 31243 net.cpp:91] Creating Layer inception_3a/relu_1x1
I0403 15:10:27.826570 31243 net.cpp:425] inception_3a/relu_1x1 <- inception_3a/1x1
I0403 15:10:27.826592 31243 net.cpp:386] inception_3a/relu_1x1 -> inception_3a/1x1 (in-place)
I0403 15:10:27.826792 31243 net.cpp:141] Setting up inception_3a/relu_1x1
I0403 15:10:27.826819 31243 net.cpp:148] Top shape: 24 64 28 28 (1204224)
I0403 15:10:27.826835 31243 net.cpp:156] Memory required for data: 500958240
I0403 15:10:27.826853 31243 layer_factory.hpp:77] Creating layer inception_3a/3x3_reduce
I0403 15:10:27.826879 31243 net.cpp:91] Creating Layer inception_3a/3x3_reduce
I0403 15:10:27.826899 31243 net.cpp:425] inception_3a/3x3_reduce <- pool2/3x3_s2_pool2/3x3_s2_0_split_1
I0403 15:10:27.826921 31243 net.cpp:399] inception_3a/3x3_reduce -> inception_3a/3x3_reduce
I0403 15:10:27.828640 31243 net.cpp:141] Setting up inception_3a/3x3_reduce
I0403 15:10:27.828670 31243 net.cpp:148] Top shape: 24 96 28 28 (1806336)
I0403 15:10:27.828687 31243 net.cpp:156] Memory required for data: 508183584
I0403 15:10:27.828711 31243 layer_factory.hpp:77] Creating layer inception_3a/relu_3x3_reduce
I0403 15:10:27.828749 31243 net.cpp:91] Creating Layer inception_3a/relu_3x3_reduce
I0403 15:10:27.828771 31243 net.cpp:425] inception_3a/relu_3x3_reduce <- inception_3a/3x3_reduce
I0403 15:10:27.828791 31243 net.cpp:386] inception_3a/relu_3x3_reduce -> inception_3a/3x3_reduce (in-place)
I0403 15:10:27.828976 31243 net.cpp:141] Setting up inception_3a/relu_3x3_reduce
I0403 15:10:27.829005 31243 net.cpp:148] Top shape: 24 96 28 28 (1806336)
I0403 15:10:27.829022 31243 net.cpp:156] Memory required for data: 515408928
I0403 15:10:27.829037 31243 layer_factory.hpp:77] Creating layer inception_3a/3x3
I0403 15:10:27.829063 31243 net.cpp:91] Creating Layer inception_3a/3x3
I0403 15:10:27.829082 31243 net.cpp:425] inception_3a/3x3 <- inception_3a/3x3_reduce
I0403 15:10:27.829102 31243 net.cpp:399] inception_3a/3x3 -> inception_3a/3x3
I0403 15:10:27.830773 31243 net.cpp:141] Setting up inception_3a/3x3
I0403 15:10:27.830804 31243 net.cpp:148] Top shape: 24 128 28 28 (2408448)
I0403 15:10:27.830821 31243 net.cpp:156] Memory required for data: 525042720
I0403 15:10:27.830842 31243 layer_factory.hpp:77] Creating layer inception_3a/relu_3x3
I0403 15:10:27.830862 31243 net.cpp:91] Creating Layer inception_3a/relu_3x3
I0403 15:10:27.830881 31243 net.cpp:425] inception_3a/relu_3x3 <- inception_3a/3x3
I0403 15:10:27.830900 31243 net.cpp:386] inception_3a/relu_3x3 -> inception_3a/3x3 (in-place)
I0403 15:10:27.831183 31243 net.cpp:141] Setting up inception_3a/relu_3x3
I0403 15:10:27.831212 31243 net.cpp:148] Top shape: 24 128 28 28 (2408448)
I0403 15:10:27.831228 31243 net.cpp:156] Memory required for data: 534676512
I0403 15:10:27.831243 31243 layer_factory.hpp:77] Creating layer inception_3a/5x5_reduce
I0403 15:10:27.831267 31243 net.cpp:91] Creating Layer inception_3a/5x5_reduce
I0403 15:10:27.831290 31243 net.cpp:425] inception_3a/5x5_reduce <- pool2/3x3_s2_pool2/3x3_s2_0_split_2
I0403 15:10:27.831315 31243 net.cpp:399] inception_3a/5x5_reduce -> inception_3a/5x5_reduce
I0403 15:10:27.832294 31243 net.cpp:141] Setting up inception_3a/5x5_reduce
I0403 15:10:27.832324 31243 net.cpp:148] Top shape: 24 16 28 28 (301056)
I0403 15:10:27.832342 31243 net.cpp:156] Memory required for data: 535880736
I0403 15:10:27.832362 31243 layer_factory.hpp:77] Creating layer inception_3a/relu_5x5_reduce
I0403 15:10:27.832384 31243 net.cpp:91] Creating Layer inception_3a/relu_5x5_reduce
I0403 15:10:27.832403 31243 net.cpp:425] inception_3a/relu_5x5_reduce <- inception_3a/5x5_reduce
I0403 15:10:27.832422 31243 net.cpp:386] inception_3a/relu_5x5_reduce -> inception_3a/5x5_reduce (in-place)
I0403 15:10:27.832731 31243 net.cpp:141] Setting up inception_3a/relu_5x5_reduce
I0403 15:10:27.832758 31243 net.cpp:148] Top shape: 24 16 28 28 (301056)
I0403 15:10:27.832775 31243 net.cpp:156] Memory required for data: 537084960
I0403 15:10:27.832792 31243 layer_factory.hpp:77] Creating layer inception_3a/5x5
I0403 15:10:27.832816 31243 net.cpp:91] Creating Layer inception_3a/5x5
I0403 15:10:27.832836 31243 net.cpp:425] inception_3a/5x5 <- inception_3a/5x5_reduce
I0403 15:10:27.832857 31243 net.cpp:399] inception_3a/5x5 -> inception_3a/5x5
I0403 15:10:27.833895 31243 net.cpp:141] Setting up inception_3a/5x5
I0403 15:10:27.833925 31243 net.cpp:148] Top shape: 24 32 28 28 (602112)
I0403 15:10:27.833945 31243 net.cpp:156] Memory required for data: 539493408
I0403 15:10:27.833966 31243 layer_factory.hpp:77] Creating layer inception_3a/relu_5x5
I0403 15:10:27.833984 31243 net.cpp:91] Creating Layer inception_3a/relu_5x5
I0403 15:10:27.834002 31243 net.cpp:425] inception_3a/relu_5x5 <- inception_3a/5x5
I0403 15:10:27.834023 31243 net.cpp:386] inception_3a/relu_5x5 -> inception_3a/5x5 (in-place)
I0403 15:10:27.834203 31243 net.cpp:141] Setting up inception_3a/relu_5x5
I0403 15:10:27.834231 31243 net.cpp:148] Top shape: 24 32 28 28 (602112)
I0403 15:10:27.834247 31243 net.cpp:156] Memory required for data: 541901856
I0403 15:10:27.834262 31243 layer_factory.hpp:77] Creating layer inception_3a/pool
I0403 15:10:27.834295 31243 net.cpp:91] Creating Layer inception_3a/pool
I0403 15:10:27.834317 31243 net.cpp:425] inception_3a/pool <- pool2/3x3_s2_pool2/3x3_s2_0_split_3
I0403 15:10:27.834352 31243 net.cpp:399] inception_3a/pool -> inception_3a/pool
I0403 15:10:27.834414 31243 net.cpp:141] Setting up inception_3a/pool
I0403 15:10:27.834439 31243 net.cpp:148] Top shape: 24 192 28 28 (3612672)
I0403 15:10:27.834455 31243 net.cpp:156] Memory required for data: 556352544
I0403 15:10:27.834472 31243 layer_factory.hpp:77] Creating layer inception_3a/pool_proj
I0403 15:10:27.834496 31243 net.cpp:91] Creating Layer inception_3a/pool_proj
I0403 15:10:27.834514 31243 net.cpp:425] inception_3a/pool_proj <- inception_3a/pool
I0403 15:10:27.834538 31243 net.cpp:399] inception_3a/pool_proj -> inception_3a/pool_proj
I0403 15:10:27.835530 31243 net.cpp:141] Setting up inception_3a/pool_proj
I0403 15:10:27.835577 31243 net.cpp:148] Top shape: 24 32 28 28 (602112)
I0403 15:10:27.835595 31243 net.cpp:156] Memory required for data: 558760992
I0403 15:10:27.835624 31243 layer_factory.hpp:77] Creating layer inception_3a/relu_pool_proj
I0403 15:10:27.835649 31243 net.cpp:91] Creating Layer inception_3a/relu_pool_proj
I0403 15:10:27.835669 31243 net.cpp:425] inception_3a/relu_pool_proj <- inception_3a/pool_proj
I0403 15:10:27.835688 31243 net.cpp:386] inception_3a/relu_pool_proj -> inception_3a/pool_proj (in-place)
I0403 15:10:27.835988 31243 net.cpp:141] Setting up inception_3a/relu_pool_proj
I0403 15:10:27.836016 31243 net.cpp:148] Top shape: 24 32 28 28 (602112)
I0403 15:10:27.836035 31243 net.cpp:156] Memory required for data: 561169440
I0403 15:10:27.836052 31243 layer_factory.hpp:77] Creating layer inception_3a/output
I0403 15:10:27.836071 31243 net.cpp:91] Creating Layer inception_3a/output
I0403 15:10:27.836088 31243 net.cpp:425] inception_3a/output <- inception_3a/1x1
I0403 15:10:27.836107 31243 net.cpp:425] inception_3a/output <- inception_3a/3x3
I0403 15:10:27.836125 31243 net.cpp:425] inception_3a/output <- inception_3a/5x5
I0403 15:10:27.836143 31243 net.cpp:425] inception_3a/output <- inception_3a/pool_proj
I0403 15:10:27.836169 31243 net.cpp:399] inception_3a/output -> inception_3a/output
I0403 15:10:27.836220 31243 net.cpp:141] Setting up inception_3a/output
I0403 15:10:27.836248 31243 net.cpp:148] Top shape: 24 256 28 28 (4816896)
I0403 15:10:27.836264 31243 net.cpp:156] Memory required for data: 580437024
I0403 15:10:27.836282 31243 layer_factory.hpp:77] Creating layer inception_3a/output_inception_3a/output_0_split
I0403 15:10:27.836307 31243 net.cpp:91] Creating Layer inception_3a/output_inception_3a/output_0_split
I0403 15:10:27.836324 31243 net.cpp:425] inception_3a/output_inception_3a/output_0_split <- inception_3a/output
I0403 15:10:27.836347 31243 net.cpp:399] inception_3a/output_inception_3a/output_0_split -> inception_3a/output_inception_3a/output_0_split_0
I0403 15:10:27.836370 31243 net.cpp:399] inception_3a/output_inception_3a/output_0_split -> inception_3a/output_inception_3a/output_0_split_1
I0403 15:10:27.836396 31243 net.cpp:399] inception_3a/output_inception_3a/output_0_split -> inception_3a/output_inception_3a/output_0_split_2
I0403 15:10:27.836419 31243 net.cpp:399] inception_3a/output_inception_3a/output_0_split -> inception_3a/output_inception_3a/output_0_split_3
I0403 15:10:27.836500 31243 net.cpp:141] Setting up inception_3a/output_inception_3a/output_0_split
I0403 15:10:27.836529 31243 net.cpp:148] Top shape: 24 256 28 28 (4816896)
I0403 15:10:27.836549 31243 net.cpp:148] Top shape: 24 256 28 28 (4816896)
I0403 15:10:27.836567 31243 net.cpp:148] Top shape: 24 256 28 28 (4816896)
I0403 15:10:27.836585 31243 net.cpp:148] Top shape: 24 256 28 28 (4816896)
I0403 15:10:27.836599 31243 net.cpp:156] Memory required for data: 657507360
I0403 15:10:27.836616 31243 layer_factory.hpp:77] Creating layer inception_3b/1x1
I0403 15:10:27.836642 31243 net.cpp:91] Creating Layer inception_3b/1x1
I0403 15:10:27.836661 31243 net.cpp:425] inception_3b/1x1 <- inception_3a/output_inception_3a/output_0_split_0
I0403 15:10:27.836685 31243 net.cpp:399] inception_3b/1x1 -> inception_3b/1x1
I0403 15:10:27.837877 31243 net.cpp:141] Setting up inception_3b/1x1
I0403 15:10:27.837924 31243 net.cpp:148] Top shape: 24 128 28 28 (2408448)
I0403 15:10:27.837944 31243 net.cpp:156] Memory required for data: 667141152
I0403 15:10:27.837965 31243 layer_factory.hpp:77] Creating layer inception_3b/relu_1x1
I0403 15:10:27.837987 31243 net.cpp:91] Creating Layer inception_3b/relu_1x1
I0403 15:10:27.838006 31243 net.cpp:425] inception_3b/relu_1x1 <- inception_3b/1x1
I0403 15:10:27.838028 31243 net.cpp:386] inception_3b/relu_1x1 -> inception_3b/1x1 (in-place)
I0403 15:10:27.838212 31243 net.cpp:141] Setting up inception_3b/relu_1x1
I0403 15:10:27.838238 31243 net.cpp:148] Top shape: 24 128 28 28 (2408448)
I0403 15:10:27.838260 31243 net.cpp:156] Memory required for data: 676774944
I0403 15:10:27.838279 31243 layer_factory.hpp:77] Creating layer inception_3b/3x3_reduce
I0403 15:10:27.838310 31243 net.cpp:91] Creating Layer inception_3b/3x3_reduce
I0403 15:10:27.838330 31243 net.cpp:425] inception_3b/3x3_reduce <- inception_3a/output_inception_3a/output_0_split_1
I0403 15:10:27.838354 31243 net.cpp:399] inception_3b/3x3_reduce -> inception_3b/3x3_reduce
I0403 15:10:27.839550 31243 net.cpp:141] Setting up inception_3b/3x3_reduce
I0403 15:10:27.839586 31243 net.cpp:148] Top shape: 24 128 28 28 (2408448)
I0403 15:10:27.839604 31243 net.cpp:156] Memory required for data: 686408736
I0403 15:10:27.839624 31243 layer_factory.hpp:77] Creating layer inception_3b/relu_3x3_reduce
I0403 15:10:27.839645 31243 net.cpp:91] Creating Layer inception_3b/relu_3x3_reduce
I0403 15:10:27.839664 31243 net.cpp:425] inception_3b/relu_3x3_reduce <- inception_3b/3x3_reduce
I0403 15:10:27.839686 31243 net.cpp:386] inception_3b/relu_3x3_reduce -> inception_3b/3x3_reduce (in-place)
I0403 15:10:27.839869 31243 net.cpp:141] Setting up inception_3b/relu_3x3_reduce
I0403 15:10:27.839897 31243 net.cpp:148] Top shape: 24 128 28 28 (2408448)
I0403 15:10:27.839915 31243 net.cpp:156] Memory required for data: 696042528
I0403 15:10:27.839932 31243 layer_factory.hpp:77] Creating layer inception_3b/3x3
I0403 15:10:27.839961 31243 net.cpp:91] Creating Layer inception_3b/3x3
I0403 15:10:27.839982 31243 net.cpp:425] inception_3b/3x3 <- inception_3b/3x3_reduce
I0403 15:10:27.840003 31243 net.cpp:399] inception_3b/3x3 -> inception_3b/3x3
I0403 15:10:27.843116 31243 net.cpp:141] Setting up inception_3b/3x3
I0403 15:10:27.843147 31243 net.cpp:148] Top shape: 24 192 28 28 (3612672)
I0403 15:10:27.843165 31243 net.cpp:156] Memory required for data: 710493216
I0403 15:10:27.843185 31243 layer_factory.hpp:77] Creating layer inception_3b/relu_3x3
I0403 15:10:27.843209 31243 net.cpp:91] Creating Layer inception_3b/relu_3x3
I0403 15:10:27.843228 31243 net.cpp:425] inception_3b/relu_3x3 <- inception_3b/3x3
I0403 15:10:27.843248 31243 net.cpp:386] inception_3b/relu_3x3 -> inception_3b/3x3 (in-place)
I0403 15:10:27.843539 31243 net.cpp:141] Setting up inception_3b/relu_3x3
I0403 15:10:27.843572 31243 net.cpp:148] Top shape: 24 192 28 28 (3612672)
I0403 15:10:27.843590 31243 net.cpp:156] Memory required for data: 724943904
I0403 15:10:27.843606 31243 layer_factory.hpp:77] Creating layer inception_3b/5x5_reduce
I0403 15:10:27.843633 31243 net.cpp:91] Creating Layer inception_3b/5x5_reduce
I0403 15:10:27.843653 31243 net.cpp:425] inception_3b/5x5_reduce <- inception_3a/output_inception_3a/output_0_split_2
I0403 15:10:27.843680 31243 net.cpp:399] inception_3b/5x5_reduce -> inception_3b/5x5_reduce
I0403 15:10:27.844729 31243 net.cpp:141] Setting up inception_3b/5x5_reduce
I0403 15:10:27.844761 31243 net.cpp:148] Top shape: 24 32 28 28 (602112)
I0403 15:10:27.844779 31243 net.cpp:156] Memory required for data: 727352352
I0403 15:10:27.844800 31243 layer_factory.hpp:77] Creating layer inception_3b/relu_5x5_reduce
I0403 15:10:27.844821 31243 net.cpp:91] Creating Layer inception_3b/relu_5x5_reduce
I0403 15:10:27.844841 31243 net.cpp:425] inception_3b/relu_5x5_reduce <- inception_3b/5x5_reduce
I0403 15:10:27.844864 31243 net.cpp:386] inception_3b/relu_5x5_reduce -> inception_3b/5x5_reduce (in-place)
I0403 15:10:27.845055 31243 net.cpp:141] Setting up inception_3b/relu_5x5_reduce
I0403 15:10:27.845096 31243 net.cpp:148] Top shape: 24 32 28 28 (602112)
I0403 15:10:27.845113 31243 net.cpp:156] Memory required for data: 729760800
I0403 15:10:27.845131 31243 layer_factory.hpp:77] Creating layer inception_3b/5x5
I0403 15:10:27.845158 31243 net.cpp:91] Creating Layer inception_3b/5x5
I0403 15:10:27.845177 31243 net.cpp:425] inception_3b/5x5 <- inception_3b/5x5_reduce
I0403 15:10:27.845201 31243 net.cpp:399] inception_3b/5x5 -> inception_3b/5x5
I0403 15:10:27.847276 31243 net.cpp:141] Setting up inception_3b/5x5
I0403 15:10:27.847314 31243 net.cpp:148] Top shape: 24 96 28 28 (1806336)
I0403 15:10:27.847332 31243 net.cpp:156] Memory required for data: 736986144
I0403 15:10:27.847352 31243 layer_factory.hpp:77] Creating layer inception_3b/relu_5x5
I0403 15:10:27.847373 31243 net.cpp:91] Creating Layer inception_3b/relu_5x5
I0403 15:10:27.847391 31243 net.cpp:425] inception_3b/relu_5x5 <- inception_3b/5x5
I0403 15:10:27.847414 31243 net.cpp:386] inception_3b/relu_5x5 -> inception_3b/5x5 (in-place)
I0403 15:10:27.847614 31243 net.cpp:141] Setting up inception_3b/relu_5x5
I0403 15:10:27.847640 31243 net.cpp:148] Top shape: 24 96 28 28 (1806336)
I0403 15:10:27.847658 31243 net.cpp:156] Memory required for data: 744211488
I0403 15:10:27.847674 31243 layer_factory.hpp:77] Creating layer inception_3b/pool
I0403 15:10:27.847694 31243 net.cpp:91] Creating Layer inception_3b/pool
I0403 15:10:27.847712 31243 net.cpp:425] inception_3b/pool <- inception_3a/output_inception_3a/output_0_split_3
I0403 15:10:27.847733 31243 net.cpp:399] inception_3b/pool -> inception_3b/pool
I0403 15:10:27.847796 31243 net.cpp:141] Setting up inception_3b/pool
I0403 15:10:27.847823 31243 net.cpp:148] Top shape: 24 256 28 28 (4816896)
I0403 15:10:27.847841 31243 net.cpp:156] Memory required for data: 763479072
I0403 15:10:27.847857 31243 layer_factory.hpp:77] Creating layer inception_3b/pool_proj
I0403 15:10:27.847882 31243 net.cpp:91] Creating Layer inception_3b/pool_proj
I0403 15:10:27.847903 31243 net.cpp:425] inception_3b/pool_proj <- inception_3b/pool
I0403 15:10:27.847925 31243 net.cpp:399] inception_3b/pool_proj -> inception_3b/pool_proj
I0403 15:10:27.849045 31243 net.cpp:141] Setting up inception_3b/pool_proj
I0403 15:10:27.849076 31243 net.cpp:148] Top shape: 24 64 28 28 (1204224)
I0403 15:10:27.849093 31243 net.cpp:156] Memory required for data: 768295968
I0403 15:10:27.849114 31243 layer_factory.hpp:77] Creating layer inception_3b/relu_pool_proj
I0403 15:10:27.849138 31243 net.cpp:91] Creating Layer inception_3b/relu_pool_proj
I0403 15:10:27.849164 31243 net.cpp:425] inception_3b/relu_pool_proj <- inception_3b/pool_proj
I0403 15:10:27.849186 31243 net.cpp:386] inception_3b/relu_pool_proj -> inception_3b/pool_proj (in-place)
I0403 15:10:27.849620 31243 net.cpp:141] Setting up inception_3b/relu_pool_proj
I0403 15:10:27.849653 31243 net.cpp:148] Top shape: 24 64 28 28 (1204224)
I0403 15:10:27.849678 31243 net.cpp:156] Memory required for data: 773112864
I0403 15:10:27.849704 31243 layer_factory.hpp:77] Creating layer inception_3b/output
I0403 15:10:27.849726 31243 net.cpp:91] Creating Layer inception_3b/output
I0403 15:10:27.849746 31243 net.cpp:425] inception_3b/output <- inception_3b/1x1
I0403 15:10:27.849766 31243 net.cpp:425] inception_3b/output <- inception_3b/3x3
I0403 15:10:27.849783 31243 net.cpp:425] inception_3b/output <- inception_3b/5x5
I0403 15:10:27.849802 31243 net.cpp:425] inception_3b/output <- inception_3b/pool_proj
I0403 15:10:27.849820 31243 net.cpp:399] inception_3b/output -> inception_3b/output
I0403 15:10:27.849869 31243 net.cpp:141] Setting up inception_3b/output
I0403 15:10:27.849896 31243 net.cpp:148] Top shape: 24 480 28 28 (9031680)
I0403 15:10:27.849912 31243 net.cpp:156] Memory required for data: 809239584
I0403 15:10:27.849931 31243 layer_factory.hpp:77] Creating layer pool3/3x3_s2
I0403 15:10:27.849949 31243 net.cpp:91] Creating Layer pool3/3x3_s2
I0403 15:10:27.849967 31243 net.cpp:425] pool3/3x3_s2 <- inception_3b/output
I0403 15:10:27.849989 31243 net.cpp:399] pool3/3x3_s2 -> pool3/3x3_s2
I0403 15:10:27.850067 31243 net.cpp:141] Setting up pool3/3x3_s2
I0403 15:10:27.850095 31243 net.cpp:148] Top shape: 24 480 14 14 (2257920)
I0403 15:10:27.850113 31243 net.cpp:156] Memory required for data: 818271264
I0403 15:10:27.850131 31243 layer_factory.hpp:77] Creating layer pool3/3x3_s2_pool3/3x3_s2_0_split
I0403 15:10:27.850152 31243 net.cpp:91] Creating Layer pool3/3x3_s2_pool3/3x3_s2_0_split
I0403 15:10:27.850169 31243 net.cpp:425] pool3/3x3_s2_pool3/3x3_s2_0_split <- pool3/3x3_s2
I0403 15:10:27.850191 31243 net.cpp:399] pool3/3x3_s2_pool3/3x3_s2_0_split -> pool3/3x3_s2_pool3/3x3_s2_0_split_0
I0403 15:10:27.850214 31243 net.cpp:399] pool3/3x3_s2_pool3/3x3_s2_0_split -> pool3/3x3_s2_pool3/3x3_s2_0_split_1
I0403 15:10:27.850237 31243 net.cpp:399] pool3/3x3_s2_pool3/3x3_s2_0_split -> pool3/3x3_s2_pool3/3x3_s2_0_split_2
I0403 15:10:27.850265 31243 net.cpp:399] pool3/3x3_s2_pool3/3x3_s2_0_split -> pool3/3x3_s2_pool3/3x3_s2_0_split_3
I0403 15:10:27.850353 31243 net.cpp:141] Setting up pool3/3x3_s2_pool3/3x3_s2_0_split
I0403 15:10:27.850378 31243 net.cpp:148] Top shape: 24 480 14 14 (2257920)
I0403 15:10:27.850396 31243 net.cpp:148] Top shape: 24 480 14 14 (2257920)
I0403 15:10:27.850415 31243 net.cpp:148] Top shape: 24 480 14 14 (2257920)
I0403 15:10:27.850433 31243 net.cpp:148] Top shape: 24 480 14 14 (2257920)
I0403 15:10:27.850448 31243 net.cpp:156] Memory required for data: 854397984
I0403 15:10:27.850464 31243 layer_factory.hpp:77] Creating layer inception_4a/1x1
I0403 15:10:27.850489 31243 net.cpp:91] Creating Layer inception_4a/1x1
I0403 15:10:27.850507 31243 net.cpp:425] inception_4a/1x1 <- pool3/3x3_s2_pool3/3x3_s2_0_split_0
I0403 15:10:27.850531 31243 net.cpp:399] inception_4a/1x1 -> inception_4a/1x1
I0403 15:10:27.852201 31243 net.cpp:141] Setting up inception_4a/1x1
I0403 15:10:27.852236 31243 net.cpp:148] Top shape: 24 192 14 14 (903168)
I0403 15:10:27.852255 31243 net.cpp:156] Memory required for data: 858010656
I0403 15:10:27.852277 31243 layer_factory.hpp:77] Creating layer inception_4a/relu_1x1
I0403 15:10:27.852303 31243 net.cpp:91] Creating Layer inception_4a/relu_1x1
I0403 15:10:27.852325 31243 net.cpp:425] inception_4a/relu_1x1 <- inception_4a/1x1
I0403 15:10:27.852345 31243 net.cpp:386] inception_4a/relu_1x1 -> inception_4a/1x1 (in-place)
I0403 15:10:27.852537 31243 net.cpp:141] Setting up inception_4a/relu_1x1
I0403 15:10:27.852566 31243 net.cpp:148] Top shape: 24 192 14 14 (903168)
I0403 15:10:27.852583 31243 net.cpp:156] Memory required for data: 861623328
I0403 15:10:27.852601 31243 layer_factory.hpp:77] Creating layer inception_4a/3x3_reduce
I0403 15:10:27.852624 31243 net.cpp:91] Creating Layer inception_4a/3x3_reduce
I0403 15:10:27.852643 31243 net.cpp:425] inception_4a/3x3_reduce <- pool3/3x3_s2_pool3/3x3_s2_0_split_1
I0403 15:10:27.852668 31243 net.cpp:399] inception_4a/3x3_reduce -> inception_4a/3x3_reduce
I0403 15:10:27.854013 31243 net.cpp:141] Setting up inception_4a/3x3_reduce
I0403 15:10:27.854044 31243 net.cpp:148] Top shape: 24 96 14 14 (451584)
I0403 15:10:27.854068 31243 net.cpp:156] Memory required for data: 863429664
I0403 15:10:27.854099 31243 layer_factory.hpp:77] Creating layer inception_4a/relu_3x3_reduce
I0403 15:10:27.854120 31243 net.cpp:91] Creating Layer inception_4a/relu_3x3_reduce
I0403 15:10:27.854142 31243 net.cpp:425] inception_4a/relu_3x3_reduce <- inception_4a/3x3_reduce
I0403 15:10:27.854163 31243 net.cpp:386] inception_4a/relu_3x3_reduce -> inception_4a/3x3_reduce (in-place)
I0403 15:10:27.854354 31243 net.cpp:141] Setting up inception_4a/relu_3x3_reduce
I0403 15:10:27.854385 31243 net.cpp:148] Top shape: 24 96 14 14 (451584)
I0403 15:10:27.854403 31243 net.cpp:156] Memory required for data: 865236000
I0403 15:10:27.854421 31243 layer_factory.hpp:77] Creating layer inception_4a/3x3
I0403 15:10:27.854445 31243 net.cpp:91] Creating Layer inception_4a/3x3
I0403 15:10:27.854465 31243 net.cpp:425] inception_4a/3x3 <- inception_4a/3x3_reduce
I0403 15:10:27.854486 31243 net.cpp:399] inception_4a/3x3 -> inception_4a/3x3
I0403 15:10:27.857336 31243 net.cpp:141] Setting up inception_4a/3x3
I0403 15:10:27.857367 31243 net.cpp:148] Top shape: 24 208 14 14 (978432)
I0403 15:10:27.857388 31243 net.cpp:156] Memory required for data: 869149728
I0403 15:10:27.857408 31243 layer_factory.hpp:77] Creating layer inception_4a/relu_3x3
I0403 15:10:27.857427 31243 net.cpp:91] Creating Layer inception_4a/relu_3x3
I0403 15:10:27.857445 31243 net.cpp:425] inception_4a/relu_3x3 <- inception_4a/3x3
I0403 15:10:27.857466 31243 net.cpp:386] inception_4a/relu_3x3 -> inception_4a/3x3 (in-place)
I0403 15:10:27.857755 31243 net.cpp:141] Setting up inception_4a/relu_3x3
I0403 15:10:27.857782 31243 net.cpp:148] Top shape: 24 208 14 14 (978432)
I0403 15:10:27.857800 31243 net.cpp:156] Memory required for data: 873063456
I0403 15:10:27.857815 31243 layer_factory.hpp:77] Creating layer inception_4a/5x5_reduce
I0403 15:10:27.857839 31243 net.cpp:91] Creating Layer inception_4a/5x5_reduce
I0403 15:10:27.857858 31243 net.cpp:425] inception_4a/5x5_reduce <- pool3/3x3_s2_pool3/3x3_s2_0_split_2
I0403 15:10:27.857883 31243 net.cpp:399] inception_4a/5x5_reduce -> inception_4a/5x5_reduce
I0403 15:10:27.858927 31243 net.cpp:141] Setting up inception_4a/5x5_reduce
I0403 15:10:27.858958 31243 net.cpp:148] Top shape: 24 16 14 14 (75264)
I0403 15:10:27.858975 31243 net.cpp:156] Memory required for data: 873364512
I0403 15:10:27.858995 31243 layer_factory.hpp:77] Creating layer inception_4a/relu_5x5_reduce
I0403 15:10:27.859014 31243 net.cpp:91] Creating Layer inception_4a/relu_5x5_reduce
I0403 15:10:27.859032 31243 net.cpp:425] inception_4a/relu_5x5_reduce <- inception_4a/5x5_reduce
I0403 15:10:27.859055 31243 net.cpp:386] inception_4a/relu_5x5_reduce -> inception_4a/5x5_reduce (in-place)
I0403 15:10:27.859238 31243 net.cpp:141] Setting up inception_4a/relu_5x5_reduce
I0403 15:10:27.859266 31243 net.cpp:148] Top shape: 24 16 14 14 (75264)
I0403 15:10:27.859282 31243 net.cpp:156] Memory required for data: 873665568
I0403 15:10:27.859303 31243 layer_factory.hpp:77] Creating layer inception_4a/5x5
I0403 15:10:27.859328 31243 net.cpp:91] Creating Layer inception_4a/5x5
I0403 15:10:27.859345 31243 net.cpp:425] inception_4a/5x5 <- inception_4a/5x5_reduce
I0403 15:10:27.859367 31243 net.cpp:399] inception_4a/5x5 -> inception_4a/5x5
I0403 15:10:27.860482 31243 net.cpp:141] Setting up inception_4a/5x5
I0403 15:10:27.860513 31243 net.cpp:148] Top shape: 24 48 14 14 (225792)
I0403 15:10:27.860529 31243 net.cpp:156] Memory required for data: 874568736
I0403 15:10:27.860549 31243 layer_factory.hpp:77] Creating layer inception_4a/relu_5x5
I0403 15:10:27.860570 31243 net.cpp:91] Creating Layer inception_4a/relu_5x5
I0403 15:10:27.860589 31243 net.cpp:425] inception_4a/relu_5x5 <- inception_4a/5x5
I0403 15:10:27.860607 31243 net.cpp:386] inception_4a/relu_5x5 -> inception_4a/5x5 (in-place)
I0403 15:10:27.860783 31243 net.cpp:141] Setting up inception_4a/relu_5x5
I0403 15:10:27.860812 31243 net.cpp:148] Top shape: 24 48 14 14 (225792)
I0403 15:10:27.860828 31243 net.cpp:156] Memory required for data: 875471904
I0403 15:10:27.860844 31243 layer_factory.hpp:77] Creating layer inception_4a/pool
I0403 15:10:27.860862 31243 net.cpp:91] Creating Layer inception_4a/pool
I0403 15:10:27.860879 31243 net.cpp:425] inception_4a/pool <- pool3/3x3_s2_pool3/3x3_s2_0_split_3
I0403 15:10:27.860903 31243 net.cpp:399] inception_4a/pool -> inception_4a/pool
I0403 15:10:27.860965 31243 net.cpp:141] Setting up inception_4a/pool
I0403 15:10:27.860990 31243 net.cpp:148] Top shape: 24 480 14 14 (2257920)
I0403 15:10:27.861004 31243 net.cpp:156] Memory required for data: 884503584
I0403 15:10:27.861021 31243 layer_factory.hpp:77] Creating layer inception_4a/pool_proj
I0403 15:10:27.861042 31243 net.cpp:91] Creating Layer inception_4a/pool_proj
I0403 15:10:27.861062 31243 net.cpp:425] inception_4a/pool_proj <- inception_4a/pool
I0403 15:10:27.861083 31243 net.cpp:399] inception_4a/pool_proj -> inception_4a/pool_proj
I0403 15:10:27.862318 31243 net.cpp:141] Setting up inception_4a/pool_proj
I0403 15:10:27.862352 31243 net.cpp:148] Top shape: 24 64 14 14 (301056)
I0403 15:10:27.862390 31243 net.cpp:156] Memory required for data: 885707808
I0403 15:10:27.862413 31243 layer_factory.hpp:77] Creating layer inception_4a/relu_pool_proj
I0403 15:10:27.862437 31243 net.cpp:91] Creating Layer inception_4a/relu_pool_proj
I0403 15:10:27.862458 31243 net.cpp:425] inception_4a/relu_pool_proj <- inception_4a/pool_proj
I0403 15:10:27.862481 31243 net.cpp:386] inception_4a/relu_pool_proj -> inception_4a/pool_proj (in-place)
I0403 15:10:27.862769 31243 net.cpp:141] Setting up inception_4a/relu_pool_proj
I0403 15:10:27.862800 31243 net.cpp:148] Top shape: 24 64 14 14 (301056)
I0403 15:10:27.862817 31243 net.cpp:156] Memory required for data: 886912032
I0403 15:10:27.862831 31243 layer_factory.hpp:77] Creating layer inception_4a/output
I0403 15:10:27.862851 31243 net.cpp:91] Creating Layer inception_4a/output
I0403 15:10:27.862869 31243 net.cpp:425] inception_4a/output <- inception_4a/1x1
I0403 15:10:27.862886 31243 net.cpp:425] inception_4a/output <- inception_4a/3x3
I0403 15:10:27.862903 31243 net.cpp:425] inception_4a/output <- inception_4a/5x5
I0403 15:10:27.862921 31243 net.cpp:425] inception_4a/output <- inception_4a/pool_proj
I0403 15:10:27.862939 31243 net.cpp:399] inception_4a/output -> inception_4a/output
I0403 15:10:27.862987 31243 net.cpp:141] Setting up inception_4a/output
I0403 15:10:27.863011 31243 net.cpp:148] Top shape: 24 512 14 14 (2408448)
I0403 15:10:27.863026 31243 net.cpp:156] Memory required for data: 896545824
I0403 15:10:27.863041 31243 layer_factory.hpp:77] Creating layer inception_4a/output_inception_4a/output_0_split
I0403 15:10:27.863060 31243 net.cpp:91] Creating Layer inception_4a/output_inception_4a/output_0_split
I0403 15:10:27.863075 31243 net.cpp:425] inception_4a/output_inception_4a/output_0_split <- inception_4a/output
I0403 15:10:27.863096 31243 net.cpp:399] inception_4a/output_inception_4a/output_0_split -> inception_4a/output_inception_4a/output_0_split_0
I0403 15:10:27.863118 31243 net.cpp:399] inception_4a/output_inception_4a/output_0_split -> inception_4a/output_inception_4a/output_0_split_1
I0403 15:10:27.863140 31243 net.cpp:399] inception_4a/output_inception_4a/output_0_split -> inception_4a/output_inception_4a/output_0_split_2
I0403 15:10:27.863165 31243 net.cpp:399] inception_4a/output_inception_4a/output_0_split -> inception_4a/output_inception_4a/output_0_split_3
I0403 15:10:27.863188 31243 net.cpp:399] inception_4a/output_inception_4a/output_0_split -> inception_4a/output_inception_4a/output_0_split_4
I0403 15:10:27.863287 31243 net.cpp:141] Setting up inception_4a/output_inception_4a/output_0_split
I0403 15:10:27.863313 31243 net.cpp:148] Top shape: 24 512 14 14 (2408448)
I0403 15:10:27.863332 31243 net.cpp:148] Top shape: 24 512 14 14 (2408448)
I0403 15:10:27.863348 31243 net.cpp:148] Top shape: 24 512 14 14 (2408448)
I0403 15:10:27.863364 31243 net.cpp:148] Top shape: 24 512 14 14 (2408448)
I0403 15:10:27.863381 31243 net.cpp:148] Top shape: 24 512 14 14 (2408448)
I0403 15:10:27.863397 31243 net.cpp:156] Memory required for data: 944714784
I0403 15:10:27.863414 31243 layer_factory.hpp:77] Creating layer loss1/ave_pool
I0403 15:10:27.863431 31243 net.cpp:91] Creating Layer loss1/ave_pool
I0403 15:10:27.863447 31243 net.cpp:425] loss1/ave_pool <- inception_4a/output_inception_4a/output_0_split_0
I0403 15:10:27.863468 31243 net.cpp:399] loss1/ave_pool -> loss1/ave_pool
I0403 15:10:27.863695 31243 net.cpp:141] Setting up loss1/ave_pool
I0403 15:10:27.863723 31243 net.cpp:148] Top shape: 24 512 4 4 (196608)
I0403 15:10:27.863741 31243 net.cpp:156] Memory required for data: 945501216
I0403 15:10:27.863757 31243 layer_factory.hpp:77] Creating layer loss1/conv
I0403 15:10:27.863782 31243 net.cpp:91] Creating Layer loss1/conv
I0403 15:10:27.863801 31243 net.cpp:425] loss1/conv <- loss1/ave_pool
I0403 15:10:27.863822 31243 net.cpp:399] loss1/conv -> loss1/conv
I0403 15:10:27.865289 31243 net.cpp:141] Setting up loss1/conv
I0403 15:10:27.865319 31243 net.cpp:148] Top shape: 24 128 4 4 (49152)
I0403 15:10:27.865336 31243 net.cpp:156] Memory required for data: 945697824
I0403 15:10:27.865372 31243 layer_factory.hpp:77] Creating layer loss1/relu_conv
I0403 15:10:27.865392 31243 net.cpp:91] Creating Layer loss1/relu_conv
I0403 15:10:27.865411 31243 net.cpp:425] loss1/relu_conv <- loss1/conv
I0403 15:10:27.865432 31243 net.cpp:386] loss1/relu_conv -> loss1/conv (in-place)
I0403 15:10:27.865725 31243 net.cpp:141] Setting up loss1/relu_conv
I0403 15:10:27.865753 31243 net.cpp:148] Top shape: 24 128 4 4 (49152)
I0403 15:10:27.865770 31243 net.cpp:156] Memory required for data: 945894432
I0403 15:10:27.865787 31243 layer_factory.hpp:77] Creating layer loss1/fc
I0403 15:10:27.865811 31243 net.cpp:91] Creating Layer loss1/fc
I0403 15:10:27.865830 31243 net.cpp:425] loss1/fc <- loss1/conv
I0403 15:10:27.865854 31243 net.cpp:399] loss1/fc -> loss1/fc
I0403 15:10:27.884245 31243 net.cpp:141] Setting up loss1/fc
I0403 15:10:27.884295 31243 net.cpp:148] Top shape: 24 1024 (24576)
I0403 15:10:27.884327 31243 net.cpp:156] Memory required for data: 945992736
I0403 15:10:27.884347 31243 layer_factory.hpp:77] Creating layer loss1/relu_fc
I0403 15:10:27.884366 31243 net.cpp:91] Creating Layer loss1/relu_fc
I0403 15:10:27.884395 31243 net.cpp:425] loss1/relu_fc <- loss1/fc
I0403 15:10:27.884414 31243 net.cpp:386] loss1/relu_fc -> loss1/fc (in-place)
I0403 15:10:27.884631 31243 net.cpp:141] Setting up loss1/relu_fc
I0403 15:10:27.884659 31243 net.cpp:148] Top shape: 24 1024 (24576)
I0403 15:10:27.884675 31243 net.cpp:156] Memory required for data: 946091040
I0403 15:10:27.884692 31243 layer_factory.hpp:77] Creating layer loss1/drop_fc
I0403 15:10:27.884721 31243 net.cpp:91] Creating Layer loss1/drop_fc
I0403 15:10:27.884742 31243 net.cpp:425] loss1/drop_fc <- loss1/fc
I0403 15:10:27.884764 31243 net.cpp:386] loss1/drop_fc -> loss1/fc (in-place)
I0403 15:10:27.884820 31243 net.cpp:141] Setting up loss1/drop_fc
I0403 15:10:27.884846 31243 net.cpp:148] Top shape: 24 1024 (24576)
I0403 15:10:27.884863 31243 net.cpp:156] Memory required for data: 946189344
I0403 15:10:27.884881 31243 layer_factory.hpp:77] Creating layer loss1/classifier_plantvillage
I0403 15:10:27.884913 31243 net.cpp:91] Creating Layer loss1/classifier_plantvillage
I0403 15:10:27.884944 31243 net.cpp:425] loss1/classifier_plantvillage <- loss1/fc
I0403 15:10:27.884965 31243 net.cpp:399] loss1/classifier_plantvillage -> loss1/classifier_plantvillage
I0403 15:10:27.885946 31243 net.cpp:141] Setting up loss1/classifier_plantvillage
I0403 15:10:27.885977 31243 net.cpp:148] Top shape: 24 38 (912)
I0403 15:10:27.885994 31243 net.cpp:156] Memory required for data: 946192992
I0403 15:10:27.886020 31243 layer_factory.hpp:77] Creating layer loss1/classifier_plantvillage_loss1/classifier_plantvillage_0_split
I0403 15:10:27.886040 31243 net.cpp:91] Creating Layer loss1/classifier_plantvillage_loss1/classifier_plantvillage_0_split
I0403 15:10:27.886057 31243 net.cpp:425] loss1/classifier_plantvillage_loss1/classifier_plantvillage_0_split <- loss1/classifier_plantvillage
I0403 15:10:27.886075 31243 net.cpp:399] loss1/classifier_plantvillage_loss1/classifier_plantvillage_0_split -> loss1/classifier_plantvillage_loss1/classifier_plantvillage_0_split_0
I0403 15:10:27.886098 31243 net.cpp:399] loss1/classifier_plantvillage_loss1/classifier_plantvillage_0_split -> loss1/classifier_plantvillage_loss1/classifier_plantvillage_0_split_1
I0403 15:10:27.886121 31243 net.cpp:399] loss1/classifier_plantvillage_loss1/classifier_plantvillage_0_split -> loss1/classifier_plantvillage_loss1/classifier_plantvillage_0_split_2
I0403 15:10:27.886188 31243 net.cpp:141] Setting up loss1/classifier_plantvillage_loss1/classifier_plantvillage_0_split
I0403 15:10:27.886214 31243 net.cpp:148] Top shape: 24 38 (912)
I0403 15:10:27.886231 31243 net.cpp:148] Top shape: 24 38 (912)
I0403 15:10:27.886247 31243 net.cpp:148] Top shape: 24 38 (912)
I0403 15:10:27.886261 31243 net.cpp:156] Memory required for data: 946203936
I0403 15:10:27.886276 31243 layer_factory.hpp:77] Creating layer inception_4b/1x1
I0403 15:10:27.886303 31243 net.cpp:91] Creating Layer inception_4b/1x1
I0403 15:10:27.886339 31243 net.cpp:425] inception_4b/1x1 <- inception_4a/output_inception_4a/output_0_split_1
I0403 15:10:27.886363 31243 net.cpp:399] inception_4b/1x1 -> inception_4b/1x1
I0403 15:10:27.888013 31243 net.cpp:141] Setting up inception_4b/1x1
I0403 15:10:27.888043 31243 net.cpp:148] Top shape: 24 160 14 14 (752640)
I0403 15:10:27.888059 31243 net.cpp:156] Memory required for data: 949214496
I0403 15:10:27.888078 31243 layer_factory.hpp:77] Creating layer inception_4b/relu_1x1
I0403 15:10:27.888098 31243 net.cpp:91] Creating Layer inception_4b/relu_1x1
I0403 15:10:27.888116 31243 net.cpp:425] inception_4b/relu_1x1 <- inception_4b/1x1
I0403 15:10:27.888136 31243 net.cpp:386] inception_4b/relu_1x1 -> inception_4b/1x1 (in-place)
I0403 15:10:27.888322 31243 net.cpp:141] Setting up inception_4b/relu_1x1
I0403 15:10:27.888350 31243 net.cpp:148] Top shape: 24 160 14 14 (752640)
I0403 15:10:27.888365 31243 net.cpp:156] Memory required for data: 952225056
I0403 15:10:27.888381 31243 layer_factory.hpp:77] Creating layer inception_4b/3x3_reduce
I0403 15:10:27.888404 31243 net.cpp:91] Creating Layer inception_4b/3x3_reduce
I0403 15:10:27.888428 31243 net.cpp:425] inception_4b/3x3_reduce <- inception_4a/output_inception_4a/output_0_split_2
I0403 15:10:27.888452 31243 net.cpp:399] inception_4b/3x3_reduce -> inception_4b/3x3_reduce
I0403 15:10:27.889811 31243 net.cpp:141] Setting up inception_4b/3x3_reduce
I0403 15:10:27.889843 31243 net.cpp:148] Top shape: 24 112 14 14 (526848)
I0403 15:10:27.889866 31243 net.cpp:156] Memory required for data: 954332448
I0403 15:10:27.889889 31243 layer_factory.hpp:77] Creating layer inception_4b/relu_3x3_reduce
I0403 15:10:27.889914 31243 net.cpp:91] Creating Layer inception_4b/relu_3x3_reduce
I0403 15:10:27.889935 31243 net.cpp:425] inception_4b/relu_3x3_reduce <- inception_4b/3x3_reduce
I0403 15:10:27.889961 31243 net.cpp:386] inception_4b/relu_3x3_reduce -> inception_4b/3x3_reduce (in-place)
I0403 15:10:27.890251 31243 net.cpp:141] Setting up inception_4b/relu_3x3_reduce
I0403 15:10:27.890280 31243 net.cpp:148] Top shape: 24 112 14 14 (526848)
I0403 15:10:27.890301 31243 net.cpp:156] Memory required for data: 956439840
I0403 15:10:27.890321 31243 layer_factory.hpp:77] Creating layer inception_4b/3x3
I0403 15:10:27.890346 31243 net.cpp:91] Creating Layer inception_4b/3x3
I0403 15:10:27.890365 31243 net.cpp:425] inception_4b/3x3 <- inception_4b/3x3_reduce
I0403 15:10:27.890400 31243 net.cpp:399] inception_4b/3x3 -> inception_4b/3x3
I0403 15:10:27.893560 31243 net.cpp:141] Setting up inception_4b/3x3
I0403 15:10:27.893625 31243 net.cpp:148] Top shape: 24 224 14 14 (1053696)
I0403 15:10:27.893651 31243 net.cpp:156] Memory required for data: 960654624
I0403 15:10:27.893672 31243 layer_factory.hpp:77] Creating layer inception_4b/relu_3x3
I0403 15:10:27.893702 31243 net.cpp:91] Creating Layer inception_4b/relu_3x3
I0403 15:10:27.893721 31243 net.cpp:425] inception_4b/relu_3x3 <- inception_4b/3x3
I0403 15:10:27.893762 31243 net.cpp:386] inception_4b/relu_3x3 -> inception_4b/3x3 (in-place)
I0403 15:10:27.893972 31243 net.cpp:141] Setting up inception_4b/relu_3x3
I0403 15:10:27.894023 31243 net.cpp:148] Top shape: 24 224 14 14 (1053696)
I0403 15:10:27.894074 31243 net.cpp:156] Memory required for data: 964869408
I0403 15:10:27.894121 31243 layer_factory.hpp:77] Creating layer inception_4b/5x5_reduce
I0403 15:10:27.894150 31243 net.cpp:91] Creating Layer inception_4b/5x5_reduce
I0403 15:10:27.894183 31243 net.cpp:425] inception_4b/5x5_reduce <- inception_4a/output_inception_4a/output_0_split_3
I0403 15:10:27.894233 31243 net.cpp:399] inception_4b/5x5_reduce -> inception_4b/5x5_reduce
I0403 15:10:27.895551 31243 net.cpp:141] Setting up inception_4b/5x5_reduce
I0403 15:10:27.895582 31243 net.cpp:148] Top shape: 24 24 14 14 (112896)
I0403 15:10:27.895599 31243 net.cpp:156] Memory required for data: 965320992
I0403 15:10:27.895619 31243 layer_factory.hpp:77] Creating layer inception_4b/relu_5x5_reduce
I0403 15:10:27.895643 31243 net.cpp:91] Creating Layer inception_4b/relu_5x5_reduce
I0403 15:10:27.895680 31243 net.cpp:425] inception_4b/relu_5x5_reduce <- inception_4b/5x5_reduce
I0403 15:10:27.895701 31243 net.cpp:386] inception_4b/relu_5x5_reduce -> inception_4b/5x5_reduce (in-place)
I0403 15:10:27.895895 31243 net.cpp:141] Setting up inception_4b/relu_5x5_reduce
I0403 15:10:27.895925 31243 net.cpp:148] Top shape: 24 24 14 14 (112896)
I0403 15:10:27.895961 31243 net.cpp:156] Memory required for data: 965772576
I0403 15:10:27.895977 31243 layer_factory.hpp:77] Creating layer inception_4b/5x5
I0403 15:10:27.896009 31243 net.cpp:91] Creating Layer inception_4b/5x5
I0403 15:10:27.896045 31243 net.cpp:425] inception_4b/5x5 <- inception_4b/5x5_reduce
I0403 15:10:27.896070 31243 net.cpp:399] inception_4b/5x5 -> inception_4b/5x5
I0403 15:10:27.897372 31243 net.cpp:141] Setting up inception_4b/5x5
I0403 15:10:27.897402 31243 net.cpp:148] Top shape: 24 64 14 14 (301056)
I0403 15:10:27.897418 31243 net.cpp:156] Memory required for data: 966976800
I0403 15:10:27.897442 31243 layer_factory.hpp:77] Creating layer inception_4b/relu_5x5
I0403 15:10:27.897471 31243 net.cpp:91] Creating Layer inception_4b/relu_5x5
I0403 15:10:27.897488 31243 net.cpp:425] inception_4b/relu_5x5 <- inception_4b/5x5
I0403 15:10:27.897523 31243 net.cpp:386] inception_4b/relu_5x5 -> inception_4b/5x5 (in-place)
I0403 15:10:27.897821 31243 net.cpp:141] Setting up inception_4b/relu_5x5
I0403 15:10:27.897851 31243 net.cpp:148] Top shape: 24 64 14 14 (301056)
I0403 15:10:27.897869 31243 net.cpp:156] Memory required for data: 968181024
I0403 15:10:27.897884 31243 layer_factory.hpp:77] Creating layer inception_4b/pool
I0403 15:10:27.897910 31243 net.cpp:91] Creating Layer inception_4b/pool
I0403 15:10:27.897929 31243 net.cpp:425] inception_4b/pool <- inception_4a/output_inception_4a/output_0_split_4
I0403 15:10:27.897954 31243 net.cpp:399] inception_4b/pool -> inception_4b/pool
I0403 15:10:27.898026 31243 net.cpp:141] Setting up inception_4b/pool
I0403 15:10:27.898061 31243 net.cpp:148] Top shape: 24 512 14 14 (2408448)
I0403 15:10:27.898078 31243 net.cpp:156] Memory required for data: 977814816
I0403 15:10:27.898095 31243 layer_factory.hpp:77] Creating layer inception_4b/pool_proj
I0403 15:10:27.898123 31243 net.cpp:91] Creating Layer inception_4b/pool_proj
I0403 15:10:27.898145 31243 net.cpp:425] inception_4b/pool_proj <- inception_4b/pool
I0403 15:10:27.898169 31243 net.cpp:399] inception_4b/pool_proj -> inception_4b/pool_proj
I0403 15:10:27.899374 31243 net.cpp:141] Setting up inception_4b/pool_proj
I0403 15:10:27.899404 31243 net.cpp:148] Top shape: 24 64 14 14 (301056)
I0403 15:10:27.899420 31243 net.cpp:156] Memory required for data: 979019040
I0403 15:10:27.899441 31243 layer_factory.hpp:77] Creating layer inception_4b/relu_pool_proj
I0403 15:10:27.899461 31243 net.cpp:91] Creating Layer inception_4b/relu_pool_proj
I0403 15:10:27.899477 31243 net.cpp:425] inception_4b/relu_pool_proj <- inception_4b/pool_proj
I0403 15:10:27.899497 31243 net.cpp:386] inception_4b/relu_pool_proj -> inception_4b/pool_proj (in-place)
I0403 15:10:27.899679 31243 net.cpp:141] Setting up inception_4b/relu_pool_proj
I0403 15:10:27.899706 31243 net.cpp:148] Top shape: 24 64 14 14 (301056)
I0403 15:10:27.899723 31243 net.cpp:156] Memory required for data: 980223264
I0403 15:10:27.899739 31243 layer_factory.hpp:77] Creating layer inception_4b/output
I0403 15:10:27.899763 31243 net.cpp:91] Creating Layer inception_4b/output
I0403 15:10:27.899780 31243 net.cpp:425] inception_4b/output <- inception_4b/1x1
I0403 15:10:27.899797 31243 net.cpp:425] inception_4b/output <- inception_4b/3x3
I0403 15:10:27.899816 31243 net.cpp:425] inception_4b/output <- inception_4b/5x5
I0403 15:10:27.899833 31243 net.cpp:425] inception_4b/output <- inception_4b/pool_proj
I0403 15:10:27.899852 31243 net.cpp:399] inception_4b/output -> inception_4b/output
I0403 15:10:27.899904 31243 net.cpp:141] Setting up inception_4b/output
I0403 15:10:27.899927 31243 net.cpp:148] Top shape: 24 512 14 14 (2408448)
I0403 15:10:27.899943 31243 net.cpp:156] Memory required for data: 989857056
I0403 15:10:27.899973 31243 layer_factory.hpp:77] Creating layer inception_4b/output_inception_4b/output_0_split
I0403 15:10:27.899992 31243 net.cpp:91] Creating Layer inception_4b/output_inception_4b/output_0_split
I0403 15:10:27.900009 31243 net.cpp:425] inception_4b/output_inception_4b/output_0_split <- inception_4b/output
I0403 15:10:27.900032 31243 net.cpp:399] inception_4b/output_inception_4b/output_0_split -> inception_4b/output_inception_4b/output_0_split_0
I0403 15:10:27.900055 31243 net.cpp:399] inception_4b/output_inception_4b/output_0_split -> inception_4b/output_inception_4b/output_0_split_1
I0403 15:10:27.900077 31243 net.cpp:399] inception_4b/output_inception_4b/output_0_split -> inception_4b/output_inception_4b/output_0_split_2
I0403 15:10:27.900099 31243 net.cpp:399] inception_4b/output_inception_4b/output_0_split -> inception_4b/output_inception_4b/output_0_split_3
I0403 15:10:27.900185 31243 net.cpp:141] Setting up inception_4b/output_inception_4b/output_0_split
I0403 15:10:27.900210 31243 net.cpp:148] Top shape: 24 512 14 14 (2408448)
I0403 15:10:27.900228 31243 net.cpp:148] Top shape: 24 512 14 14 (2408448)
I0403 15:10:27.900244 31243 net.cpp:148] Top shape: 24 512 14 14 (2408448)
I0403 15:10:27.900264 31243 net.cpp:148] Top shape: 24 512 14 14 (2408448)
I0403 15:10:27.900280 31243 net.cpp:156] Memory required for data: 1028392224
I0403 15:10:27.900305 31243 layer_factory.hpp:77] Creating layer inception_4c/1x1
I0403 15:10:27.900328 31243 net.cpp:91] Creating Layer inception_4c/1x1
I0403 15:10:27.900347 31243 net.cpp:425] inception_4c/1x1 <- inception_4b/output_inception_4b/output_0_split_0
I0403 15:10:27.900369 31243 net.cpp:399] inception_4c/1x1 -> inception_4c/1x1
I0403 15:10:27.901823 31243 net.cpp:141] Setting up inception_4c/1x1
I0403 15:10:27.901856 31243 net.cpp:148] Top shape: 24 128 14 14 (602112)
I0403 15:10:27.901875 31243 net.cpp:156] Memory required for data: 1030800672
I0403 15:10:27.901896 31243 layer_factory.hpp:77] Creating layer inception_4c/relu_1x1
I0403 15:10:27.901918 31243 net.cpp:91] Creating Layer inception_4c/relu_1x1
I0403 15:10:27.901938 31243 net.cpp:425] inception_4c/relu_1x1 <- inception_4c/1x1
I0403 15:10:27.901957 31243 net.cpp:386] inception_4c/relu_1x1 -> inception_4c/1x1 (in-place)
I0403 15:10:27.902143 31243 net.cpp:141] Setting up inception_4c/relu_1x1
I0403 15:10:27.902174 31243 net.cpp:148] Top shape: 24 128 14 14 (602112)
I0403 15:10:27.902191 31243 net.cpp:156] Memory required for data: 1033209120
I0403 15:10:27.902209 31243 layer_factory.hpp:77] Creating layer inception_4c/3x3_reduce
I0403 15:10:27.902231 31243 net.cpp:91] Creating Layer inception_4c/3x3_reduce
I0403 15:10:27.902251 31243 net.cpp:425] inception_4c/3x3_reduce <- inception_4b/output_inception_4b/output_0_split_1
I0403 15:10:27.902272 31243 net.cpp:399] inception_4c/3x3_reduce -> inception_4c/3x3_reduce
I0403 15:10:27.904322 31243 net.cpp:141] Setting up inception_4c/3x3_reduce
I0403 15:10:27.904353 31243 net.cpp:148] Top shape: 24 128 14 14 (602112)
I0403 15:10:27.904371 31243 net.cpp:156] Memory required for data: 1035617568
I0403 15:10:27.904392 31243 layer_factory.hpp:77] Creating layer inception_4c/relu_3x3_reduce
I0403 15:10:27.904409 31243 net.cpp:91] Creating Layer inception_4c/relu_3x3_reduce
I0403 15:10:27.904427 31243 net.cpp:425] inception_4c/relu_3x3_reduce <- inception_4c/3x3_reduce
I0403 15:10:27.904448 31243 net.cpp:386] inception_4c/relu_3x3_reduce -> inception_4c/3x3_reduce (in-place)
I0403 15:10:27.904747 31243 net.cpp:141] Setting up inception_4c/relu_3x3_reduce
I0403 15:10:27.904774 31243 net.cpp:148] Top shape: 24 128 14 14 (602112)
I0403 15:10:27.904793 31243 net.cpp:156] Memory required for data: 1038026016
I0403 15:10:27.904809 31243 layer_factory.hpp:77] Creating layer inception_4c/3x3
I0403 15:10:27.904834 31243 net.cpp:91] Creating Layer inception_4c/3x3
I0403 15:10:27.904853 31243 net.cpp:425] inception_4c/3x3 <- inception_4c/3x3_reduce
I0403 15:10:27.904876 31243 net.cpp:399] inception_4c/3x3 -> inception_4c/3x3
I0403 15:10:27.908608 31243 net.cpp:141] Setting up inception_4c/3x3
I0403 15:10:27.908653 31243 net.cpp:148] Top shape: 24 256 14 14 (1204224)
I0403 15:10:27.908671 31243 net.cpp:156] Memory required for data: 1042842912
I0403 15:10:27.908704 31243 layer_factory.hpp:77] Creating layer inception_4c/relu_3x3
I0403 15:10:27.908727 31243 net.cpp:91] Creating Layer inception_4c/relu_3x3
I0403 15:10:27.908746 31243 net.cpp:425] inception_4c/relu_3x3 <- inception_4c/3x3
I0403 15:10:27.908767 31243 net.cpp:386] inception_4c/relu_3x3 -> inception_4c/3x3 (in-place)
I0403 15:10:27.908957 31243 net.cpp:141] Setting up inception_4c/relu_3x3
I0403 15:10:27.908984 31243 net.cpp:148] Top shape: 24 256 14 14 (1204224)
I0403 15:10:27.909000 31243 net.cpp:156] Memory required for data: 1047659808
I0403 15:10:27.909016 31243 layer_factory.hpp:77] Creating layer inception_4c/5x5_reduce
I0403 15:10:27.909042 31243 net.cpp:91] Creating Layer inception_4c/5x5_reduce
I0403 15:10:27.909063 31243 net.cpp:425] inception_4c/5x5_reduce <- inception_4b/output_inception_4b/output_0_split_2
I0403 15:10:27.909086 31243 net.cpp:399] inception_4c/5x5_reduce -> inception_4c/5x5_reduce
I0403 15:10:27.910218 31243 net.cpp:141] Setting up inception_4c/5x5_reduce
I0403 15:10:27.910248 31243 net.cpp:148] Top shape: 24 24 14 14 (112896)
I0403 15:10:27.910265 31243 net.cpp:156] Memory required for data: 1048111392
I0403 15:10:27.910290 31243 layer_factory.hpp:77] Creating layer inception_4c/relu_5x5_reduce
I0403 15:10:27.910315 31243 net.cpp:91] Creating Layer inception_4c/relu_5x5_reduce
I0403 15:10:27.910333 31243 net.cpp:425] inception_4c/relu_5x5_reduce <- inception_4c/5x5_reduce
I0403 15:10:27.910353 31243 net.cpp:386] inception_4c/relu_5x5_reduce -> inception_4c/5x5_reduce (in-place)
I0403 15:10:27.910540 31243 net.cpp:141] Setting up inception_4c/relu_5x5_reduce
I0403 15:10:27.910567 31243 net.cpp:148] Top shape: 24 24 14 14 (112896)
I0403 15:10:27.910583 31243 net.cpp:156] Memory required for data: 1048562976
I0403 15:10:27.910599 31243 layer_factory.hpp:77] Creating layer inception_4c/5x5
I0403 15:10:27.910624 31243 net.cpp:91] Creating Layer inception_4c/5x5
I0403 15:10:27.910645 31243 net.cpp:425] inception_4c/5x5 <- inception_4c/5x5_reduce
I0403 15:10:27.910665 31243 net.cpp:399] inception_4c/5x5 -> inception_4c/5x5
I0403 15:10:27.911953 31243 net.cpp:141] Setting up inception_4c/5x5
I0403 15:10:27.911983 31243 net.cpp:148] Top shape: 24 64 14 14 (301056)
I0403 15:10:27.911999 31243 net.cpp:156] Memory required for data: 1049767200
I0403 15:10:27.912032 31243 layer_factory.hpp:77] Creating layer inception_4c/relu_5x5
I0403 15:10:27.912055 31243 net.cpp:91] Creating Layer inception_4c/relu_5x5
I0403 15:10:27.912073 31243 net.cpp:425] inception_4c/relu_5x5 <- inception_4c/5x5
I0403 15:10:27.912093 31243 net.cpp:386] inception_4c/relu_5x5 -> inception_4c/5x5 (in-place)
I0403 15:10:27.912410 31243 net.cpp:141] Setting up inception_4c/relu_5x5
I0403 15:10:27.912438 31243 net.cpp:148] Top shape: 24 64 14 14 (301056)
I0403 15:10:27.912456 31243 net.cpp:156] Memory required for data: 1050971424
I0403 15:10:27.912472 31243 layer_factory.hpp:77] Creating layer inception_4c/pool
I0403 15:10:27.912492 31243 net.cpp:91] Creating Layer inception_4c/pool
I0403 15:10:27.912511 31243 net.cpp:425] inception_4c/pool <- inception_4b/output_inception_4b/output_0_split_3
I0403 15:10:27.912533 31243 net.cpp:399] inception_4c/pool -> inception_4c/pool
I0403 15:10:27.912606 31243 net.cpp:141] Setting up inception_4c/pool
I0403 15:10:27.912631 31243 net.cpp:148] Top shape: 24 512 14 14 (2408448)
I0403 15:10:27.912647 31243 net.cpp:156] Memory required for data: 1060605216
I0403 15:10:27.912664 31243 layer_factory.hpp:77] Creating layer inception_4c/pool_proj
I0403 15:10:27.912688 31243 net.cpp:91] Creating Layer inception_4c/pool_proj
I0403 15:10:27.912708 31243 net.cpp:425] inception_4c/pool_proj <- inception_4c/pool
I0403 15:10:27.912730 31243 net.cpp:399] inception_4c/pool_proj -> inception_4c/pool_proj
I0403 15:10:27.913990 31243 net.cpp:141] Setting up inception_4c/pool_proj
I0403 15:10:27.914019 31243 net.cpp:148] Top shape: 24 64 14 14 (301056)
I0403 15:10:27.914050 31243 net.cpp:156] Memory required for data: 1061809440
I0403 15:10:27.914072 31243 layer_factory.hpp:77] Creating layer inception_4c/relu_pool_proj
I0403 15:10:27.914093 31243 net.cpp:91] Creating Layer inception_4c/relu_pool_proj
I0403 15:10:27.914110 31243 net.cpp:425] inception_4c/relu_pool_proj <- inception_4c/pool_proj
I0403 15:10:27.914132 31243 net.cpp:386] inception_4c/relu_pool_proj -> inception_4c/pool_proj (in-place)
I0403 15:10:27.914335 31243 net.cpp:141] Setting up inception_4c/relu_pool_proj
I0403 15:10:27.914363 31243 net.cpp:148] Top shape: 24 64 14 14 (301056)
I0403 15:10:27.914378 31243 net.cpp:156] Memory required for data: 1063013664
I0403 15:10:27.914396 31243 layer_factory.hpp:77] Creating layer inception_4c/output
I0403 15:10:27.914417 31243 net.cpp:91] Creating Layer inception_4c/output
I0403 15:10:27.914433 31243 net.cpp:425] inception_4c/output <- inception_4c/1x1
I0403 15:10:27.914451 31243 net.cpp:425] inception_4c/output <- inception_4c/3x3
I0403 15:10:27.914469 31243 net.cpp:425] inception_4c/output <- inception_4c/5x5
I0403 15:10:27.914486 31243 net.cpp:425] inception_4c/output <- inception_4c/pool_proj
I0403 15:10:27.914505 31243 net.cpp:399] inception_4c/output -> inception_4c/output
I0403 15:10:27.914556 31243 net.cpp:141] Setting up inception_4c/output
I0403 15:10:27.914583 31243 net.cpp:148] Top shape: 24 512 14 14 (2408448)
I0403 15:10:27.914598 31243 net.cpp:156] Memory required for data: 1072647456
I0403 15:10:27.914614 31243 layer_factory.hpp:77] Creating layer inception_4c/output_inception_4c/output_0_split
I0403 15:10:27.914631 31243 net.cpp:91] Creating Layer inception_4c/output_inception_4c/output_0_split
I0403 15:10:27.914649 31243 net.cpp:425] inception_4c/output_inception_4c/output_0_split <- inception_4c/output
I0403 15:10:27.914670 31243 net.cpp:399] inception_4c/output_inception_4c/output_0_split -> inception_4c/output_inception_4c/output_0_split_0
I0403 15:10:27.914695 31243 net.cpp:399] inception_4c/output_inception_4c/output_0_split -> inception_4c/output_inception_4c/output_0_split_1
I0403 15:10:27.914717 31243 net.cpp:399] inception_4c/output_inception_4c/output_0_split -> inception_4c/output_inception_4c/output_0_split_2
I0403 15:10:27.914739 31243 net.cpp:399] inception_4c/output_inception_4c/output_0_split -> inception_4c/output_inception_4c/output_0_split_3
I0403 15:10:27.914829 31243 net.cpp:141] Setting up inception_4c/output_inception_4c/output_0_split
I0403 15:10:27.914855 31243 net.cpp:148] Top shape: 24 512 14 14 (2408448)
I0403 15:10:27.914872 31243 net.cpp:148] Top shape: 24 512 14 14 (2408448)
I0403 15:10:27.914891 31243 net.cpp:148] Top shape: 24 512 14 14 (2408448)
I0403 15:10:27.914907 31243 net.cpp:148] Top shape: 24 512 14 14 (2408448)
I0403 15:10:27.914921 31243 net.cpp:156] Memory required for data: 1111182624
I0403 15:10:27.914937 31243 layer_factory.hpp:77] Creating layer inception_4d/1x1
I0403 15:10:27.914963 31243 net.cpp:91] Creating Layer inception_4d/1x1
I0403 15:10:27.914981 31243 net.cpp:425] inception_4d/1x1 <- inception_4c/output_inception_4c/output_0_split_0
I0403 15:10:27.915005 31243 net.cpp:399] inception_4d/1x1 -> inception_4d/1x1
I0403 15:10:27.916463 31243 net.cpp:141] Setting up inception_4d/1x1
I0403 15:10:27.916496 31243 net.cpp:148] Top shape: 24 112 14 14 (526848)
I0403 15:10:27.916513 31243 net.cpp:156] Memory required for data: 1113290016
I0403 15:10:27.916532 31243 layer_factory.hpp:77] Creating layer inception_4d/relu_1x1
I0403 15:10:27.916551 31243 net.cpp:91] Creating Layer inception_4d/relu_1x1
I0403 15:10:27.916570 31243 net.cpp:425] inception_4d/relu_1x1 <- inception_4d/1x1
I0403 15:10:27.916591 31243 net.cpp:386] inception_4d/relu_1x1 -> inception_4d/1x1 (in-place)
I0403 15:10:27.916786 31243 net.cpp:141] Setting up inception_4d/relu_1x1
I0403 15:10:27.916813 31243 net.cpp:148] Top shape: 24 112 14 14 (526848)
I0403 15:10:27.916831 31243 net.cpp:156] Memory required for data: 1115397408
I0403 15:10:27.916846 31243 layer_factory.hpp:77] Creating layer inception_4d/3x3_reduce
I0403 15:10:27.916885 31243 net.cpp:91] Creating Layer inception_4d/3x3_reduce
I0403 15:10:27.916905 31243 net.cpp:425] inception_4d/3x3_reduce <- inception_4c/output_inception_4c/output_0_split_1
I0403 15:10:27.916929 31243 net.cpp:399] inception_4d/3x3_reduce -> inception_4d/3x3_reduce
I0403 15:10:27.918721 31243 net.cpp:141] Setting up inception_4d/3x3_reduce
I0403 15:10:27.918751 31243 net.cpp:148] Top shape: 24 144 14 14 (677376)
I0403 15:10:27.918768 31243 net.cpp:156] Memory required for data: 1118106912
I0403 15:10:27.918790 31243 layer_factory.hpp:77] Creating layer inception_4d/relu_3x3_reduce
I0403 15:10:27.918812 31243 net.cpp:91] Creating Layer inception_4d/relu_3x3_reduce
I0403 15:10:27.918830 31243 net.cpp:425] inception_4d/relu_3x3_reduce <- inception_4d/3x3_reduce
I0403 15:10:27.918849 31243 net.cpp:386] inception_4d/relu_3x3_reduce -> inception_4d/3x3_reduce (in-place)
I0403 15:10:27.919147 31243 net.cpp:141] Setting up inception_4d/relu_3x3_reduce
I0403 15:10:27.919174 31243 net.cpp:148] Top shape: 24 144 14 14 (677376)
I0403 15:10:27.919191 31243 net.cpp:156] Memory required for data: 1120816416
I0403 15:10:27.919209 31243 layer_factory.hpp:77] Creating layer inception_4d/3x3
I0403 15:10:27.919234 31243 net.cpp:91] Creating Layer inception_4d/3x3
I0403 15:10:27.919253 31243 net.cpp:425] inception_4d/3x3 <- inception_4d/3x3_reduce
I0403 15:10:27.919273 31243 net.cpp:399] inception_4d/3x3 -> inception_4d/3x3
I0403 15:10:27.923708 31243 net.cpp:141] Setting up inception_4d/3x3
I0403 15:10:27.923741 31243 net.cpp:148] Top shape: 24 288 14 14 (1354752)
I0403 15:10:27.923759 31243 net.cpp:156] Memory required for data: 1126235424
I0403 15:10:27.923780 31243 layer_factory.hpp:77] Creating layer inception_4d/relu_3x3
I0403 15:10:27.923801 31243 net.cpp:91] Creating Layer inception_4d/relu_3x3
I0403 15:10:27.923820 31243 net.cpp:425] inception_4d/relu_3x3 <- inception_4d/3x3
I0403 15:10:27.923841 31243 net.cpp:386] inception_4d/relu_3x3 -> inception_4d/3x3 (in-place)
I0403 15:10:27.924031 31243 net.cpp:141] Setting up inception_4d/relu_3x3
I0403 15:10:27.924057 31243 net.cpp:148] Top shape: 24 288 14 14 (1354752)
I0403 15:10:27.924074 31243 net.cpp:156] Memory required for data: 1131654432
I0403 15:10:27.924090 31243 layer_factory.hpp:77] Creating layer inception_4d/5x5_reduce
I0403 15:10:27.924114 31243 net.cpp:91] Creating Layer inception_4d/5x5_reduce
I0403 15:10:27.924134 31243 net.cpp:425] inception_4d/5x5_reduce <- inception_4c/output_inception_4c/output_0_split_2
I0403 15:10:27.924159 31243 net.cpp:399] inception_4d/5x5_reduce -> inception_4d/5x5_reduce
I0403 15:10:27.925390 31243 net.cpp:141] Setting up inception_4d/5x5_reduce
I0403 15:10:27.925420 31243 net.cpp:148] Top shape: 24 32 14 14 (150528)
I0403 15:10:27.925438 31243 net.cpp:156] Memory required for data: 1132256544
I0403 15:10:27.925460 31243 layer_factory.hpp:77] Creating layer inception_4d/relu_5x5_reduce
I0403 15:10:27.925479 31243 net.cpp:91] Creating Layer inception_4d/relu_5x5_reduce
I0403 15:10:27.925498 31243 net.cpp:425] inception_4d/relu_5x5_reduce <- inception_4d/5x5_reduce
I0403 15:10:27.925525 31243 net.cpp:386] inception_4d/relu_5x5_reduce -> inception_4d/5x5_reduce (in-place)
I0403 15:10:27.925732 31243 net.cpp:141] Setting up inception_4d/relu_5x5_reduce
I0403 15:10:27.925760 31243 net.cpp:148] Top shape: 24 32 14 14 (150528)
I0403 15:10:27.925789 31243 net.cpp:156] Memory required for data: 1132858656
I0403 15:10:27.925807 31243 layer_factory.hpp:77] Creating layer inception_4d/5x5
I0403 15:10:27.925830 31243 net.cpp:91] Creating Layer inception_4d/5x5
I0403 15:10:27.925866 31243 net.cpp:425] inception_4d/5x5 <- inception_4d/5x5_reduce
I0403 15:10:27.925890 31243 net.cpp:399] inception_4d/5x5 -> inception_4d/5x5
I0403 15:10:27.927467 31243 net.cpp:141] Setting up inception_4d/5x5
I0403 15:10:27.927496 31243 net.cpp:148] Top shape: 24 64 14 14 (301056)
I0403 15:10:27.927515 31243 net.cpp:156] Memory required for data: 1134062880
I0403 15:10:27.927536 31243 layer_factory.hpp:77] Creating layer inception_4d/relu_5x5
I0403 15:10:27.927577 31243 net.cpp:91] Creating Layer inception_4d/relu_5x5
I0403 15:10:27.927597 31243 net.cpp:425] inception_4d/relu_5x5 <- inception_4d/5x5
I0403 15:10:27.927615 31243 net.cpp:386] inception_4d/relu_5x5 -> inception_4d/5x5 (in-place)
I0403 15:10:27.927927 31243 net.cpp:141] Setting up inception_4d/relu_5x5
I0403 15:10:27.927954 31243 net.cpp:148] Top shape: 24 64 14 14 (301056)
I0403 15:10:27.927971 31243 net.cpp:156] Memory required for data: 1135267104
I0403 15:10:27.927989 31243 layer_factory.hpp:77] Creating layer inception_4d/pool
I0403 15:10:27.928011 31243 net.cpp:91] Creating Layer inception_4d/pool
I0403 15:10:27.928030 31243 net.cpp:425] inception_4d/pool <- inception_4c/output_inception_4c/output_0_split_3
I0403 15:10:27.928048 31243 net.cpp:399] inception_4d/pool -> inception_4d/pool
I0403 15:10:27.928120 31243 net.cpp:141] Setting up inception_4d/pool
I0403 15:10:27.928146 31243 net.cpp:148] Top shape: 24 512 14 14 (2408448)
I0403 15:10:27.928164 31243 net.cpp:156] Memory required for data: 1144900896
I0403 15:10:27.928179 31243 layer_factory.hpp:77] Creating layer inception_4d/pool_proj
I0403 15:10:27.928202 31243 net.cpp:91] Creating Layer inception_4d/pool_proj
I0403 15:10:27.928220 31243 net.cpp:425] inception_4d/pool_proj <- inception_4d/pool
I0403 15:10:27.928243 31243 net.cpp:399] inception_4d/pool_proj -> inception_4d/pool_proj
I0403 15:10:27.930073 31243 net.cpp:141] Setting up inception_4d/pool_proj
I0403 15:10:27.930104 31243 net.cpp:148] Top shape: 24 64 14 14 (301056)
I0403 15:10:27.930122 31243 net.cpp:156] Memory required for data: 1146105120
I0403 15:10:27.930142 31243 layer_factory.hpp:77] Creating layer inception_4d/relu_pool_proj
I0403 15:10:27.930163 31243 net.cpp:91] Creating Layer inception_4d/relu_pool_proj
I0403 15:10:27.930182 31243 net.cpp:425] inception_4d/relu_pool_proj <- inception_4d/pool_proj
I0403 15:10:27.930204 31243 net.cpp:386] inception_4d/relu_pool_proj -> inception_4d/pool_proj (in-place)
I0403 15:10:27.930402 31243 net.cpp:141] Setting up inception_4d/relu_pool_proj
I0403 15:10:27.930428 31243 net.cpp:148] Top shape: 24 64 14 14 (301056)
I0403 15:10:27.930445 31243 net.cpp:156] Memory required for data: 1147309344
I0403 15:10:27.930461 31243 layer_factory.hpp:77] Creating layer inception_4d/output
I0403 15:10:27.930480 31243 net.cpp:91] Creating Layer inception_4d/output
I0403 15:10:27.930496 31243 net.cpp:425] inception_4d/output <- inception_4d/1x1
I0403 15:10:27.930515 31243 net.cpp:425] inception_4d/output <- inception_4d/3x3
I0403 15:10:27.930532 31243 net.cpp:425] inception_4d/output <- inception_4d/5x5
I0403 15:10:27.930551 31243 net.cpp:425] inception_4d/output <- inception_4d/pool_proj
I0403 15:10:27.930572 31243 net.cpp:399] inception_4d/output -> inception_4d/output
I0403 15:10:27.930624 31243 net.cpp:141] Setting up inception_4d/output
I0403 15:10:27.930649 31243 net.cpp:148] Top shape: 24 528 14 14 (2483712)
I0403 15:10:27.930665 31243 net.cpp:156] Memory required for data: 1157244192
I0403 15:10:27.930680 31243 layer_factory.hpp:77] Creating layer inception_4d/output_inception_4d/output_0_split
I0403 15:10:27.930701 31243 net.cpp:91] Creating Layer inception_4d/output_inception_4d/output_0_split
I0403 15:10:27.930718 31243 net.cpp:425] inception_4d/output_inception_4d/output_0_split <- inception_4d/output
I0403 15:10:27.930742 31243 net.cpp:399] inception_4d/output_inception_4d/output_0_split -> inception_4d/output_inception_4d/output_0_split_0
I0403 15:10:27.930764 31243 net.cpp:399] inception_4d/output_inception_4d/output_0_split -> inception_4d/output_inception_4d/output_0_split_1
I0403 15:10:27.930786 31243 net.cpp:399] inception_4d/output_inception_4d/output_0_split -> inception_4d/output_inception_4d/output_0_split_2
I0403 15:10:27.930809 31243 net.cpp:399] inception_4d/output_inception_4d/output_0_split -> inception_4d/output_inception_4d/output_0_split_3
I0403 15:10:27.930831 31243 net.cpp:399] inception_4d/output_inception_4d/output_0_split -> inception_4d/output_inception_4d/output_0_split_4
I0403 15:10:27.930939 31243 net.cpp:141] Setting up inception_4d/output_inception_4d/output_0_split
I0403 15:10:27.930979 31243 net.cpp:148] Top shape: 24 528 14 14 (2483712)
I0403 15:10:27.930999 31243 net.cpp:148] Top shape: 24 528 14 14 (2483712)
I0403 15:10:27.931018 31243 net.cpp:148] Top shape: 24 528 14 14 (2483712)
I0403 15:10:27.931035 31243 net.cpp:148] Top shape: 24 528 14 14 (2483712)
I0403 15:10:27.931051 31243 net.cpp:148] Top shape: 24 528 14 14 (2483712)
I0403 15:10:27.931067 31243 net.cpp:156] Memory required for data: 1206918432
I0403 15:10:27.931083 31243 layer_factory.hpp:77] Creating layer loss2/ave_pool
I0403 15:10:27.931102 31243 net.cpp:91] Creating Layer loss2/ave_pool
I0403 15:10:27.931119 31243 net.cpp:425] loss2/ave_pool <- inception_4d/output_inception_4d/output_0_split_0
I0403 15:10:27.931141 31243 net.cpp:399] loss2/ave_pool -> loss2/ave_pool
I0403 15:10:27.931470 31243 net.cpp:141] Setting up loss2/ave_pool
I0403 15:10:27.931500 31243 net.cpp:148] Top shape: 24 528 4 4 (202752)
I0403 15:10:27.931519 31243 net.cpp:156] Memory required for data: 1207729440
I0403 15:10:27.931535 31243 layer_factory.hpp:77] Creating layer loss2/conv
I0403 15:10:27.931558 31243 net.cpp:91] Creating Layer loss2/conv
I0403 15:10:27.931577 31243 net.cpp:425] loss2/conv <- loss2/ave_pool
I0403 15:10:27.931598 31243 net.cpp:399] loss2/conv -> loss2/conv
I0403 15:10:27.933583 31243 net.cpp:141] Setting up loss2/conv
I0403 15:10:27.933615 31243 net.cpp:148] Top shape: 24 128 4 4 (49152)
I0403 15:10:27.933635 31243 net.cpp:156] Memory required for data: 1207926048
I0403 15:10:27.933655 31243 layer_factory.hpp:77] Creating layer loss2/relu_conv
I0403 15:10:27.933677 31243 net.cpp:91] Creating Layer loss2/relu_conv
I0403 15:10:27.933696 31243 net.cpp:425] loss2/relu_conv <- loss2/conv
I0403 15:10:27.933715 31243 net.cpp:386] loss2/relu_conv -> loss2/conv (in-place)
I0403 15:10:27.934023 31243 net.cpp:141] Setting up loss2/relu_conv
I0403 15:10:27.934052 31243 net.cpp:148] Top shape: 24 128 4 4 (49152)
I0403 15:10:27.934069 31243 net.cpp:156] Memory required for data: 1208122656
I0403 15:10:27.934087 31243 layer_factory.hpp:77] Creating layer loss2/fc
I0403 15:10:27.934109 31243 net.cpp:91] Creating Layer loss2/fc
I0403 15:10:27.934128 31243 net.cpp:425] loss2/fc <- loss2/conv
I0403 15:10:27.934151 31243 net.cpp:399] loss2/fc -> loss2/fc
I0403 15:10:27.952401 31243 net.cpp:141] Setting up loss2/fc
I0403 15:10:27.952437 31243 net.cpp:148] Top shape: 24 1024 (24576)
I0403 15:10:27.952453 31243 net.cpp:156] Memory required for data: 1208220960
I0403 15:10:27.952473 31243 layer_factory.hpp:77] Creating layer loss2/relu_fc
I0403 15:10:27.952492 31243 net.cpp:91] Creating Layer loss2/relu_fc
I0403 15:10:27.952512 31243 net.cpp:425] loss2/relu_fc <- loss2/fc
I0403 15:10:27.952533 31243 net.cpp:386] loss2/relu_fc -> loss2/fc (in-place)
I0403 15:10:27.952890 31243 net.cpp:141] Setting up loss2/relu_fc
I0403 15:10:27.952931 31243 net.cpp:148] Top shape: 24 1024 (24576)
I0403 15:10:27.952960 31243 net.cpp:156] Memory required for data: 1208319264
I0403 15:10:27.952976 31243 layer_factory.hpp:77] Creating layer loss2/drop_fc
I0403 15:10:27.952996 31243 net.cpp:91] Creating Layer loss2/drop_fc
I0403 15:10:27.953012 31243 net.cpp:425] loss2/drop_fc <- loss2/fc
I0403 15:10:27.953034 31243 net.cpp:386] loss2/drop_fc -> loss2/fc (in-place)
I0403 15:10:27.953091 31243 net.cpp:141] Setting up loss2/drop_fc
I0403 15:10:27.953119 31243 net.cpp:148] Top shape: 24 1024 (24576)
I0403 15:10:27.953135 31243 net.cpp:156] Memory required for data: 1208417568
I0403 15:10:27.953151 31243 layer_factory.hpp:77] Creating layer loss2/classifier_plantvillage
I0403 15:10:27.953171 31243 net.cpp:91] Creating Layer loss2/classifier_plantvillage
I0403 15:10:27.953188 31243 net.cpp:425] loss2/classifier_plantvillage <- loss2/fc
I0403 15:10:27.953212 31243 net.cpp:399] loss2/classifier_plantvillage -> loss2/classifier_plantvillage
I0403 15:10:27.953672 31243 net.cpp:141] Setting up loss2/classifier_plantvillage
I0403 15:10:27.953701 31243 net.cpp:148] Top shape: 24 38 (912)
I0403 15:10:27.953717 31243 net.cpp:156] Memory required for data: 1208421216
I0403 15:10:27.953763 31243 layer_factory.hpp:77] Creating layer loss2/classifier_plantvillage_loss2/classifier_plantvillage_0_split
I0403 15:10:27.953788 31243 net.cpp:91] Creating Layer loss2/classifier_plantvillage_loss2/classifier_plantvillage_0_split
I0403 15:10:27.953807 31243 net.cpp:425] loss2/classifier_plantvillage_loss2/classifier_plantvillage_0_split <- loss2/classifier_plantvillage
I0403 15:10:27.953830 31243 net.cpp:399] loss2/classifier_plantvillage_loss2/classifier_plantvillage_0_split -> loss2/classifier_plantvillage_loss2/classifier_plantvillage_0_split_0
I0403 15:10:27.953852 31243 net.cpp:399] loss2/classifier_plantvillage_loss2/classifier_plantvillage_0_split -> loss2/classifier_plantvillage_loss2/classifier_plantvillage_0_split_1
I0403 15:10:27.953877 31243 net.cpp:399] loss2/classifier_plantvillage_loss2/classifier_plantvillage_0_split -> loss2/classifier_plantvillage_loss2/classifier_plantvillage_0_split_2
I0403 15:10:27.953968 31243 net.cpp:141] Setting up loss2/classifier_plantvillage_loss2/classifier_plantvillage_0_split
I0403 15:10:27.953992 31243 net.cpp:148] Top shape: 24 38 (912)
I0403 15:10:27.954010 31243 net.cpp:148] Top shape: 24 38 (912)
I0403 15:10:27.954026 31243 net.cpp:148] Top shape: 24 38 (912)
I0403 15:10:27.954041 31243 net.cpp:156] Memory required for data: 1208432160
I0403 15:10:27.954056 31243 layer_factory.hpp:77] Creating layer inception_4e/1x1
I0403 15:10:27.954080 31243 net.cpp:91] Creating Layer inception_4e/1x1
I0403 15:10:27.954098 31243 net.cpp:425] inception_4e/1x1 <- inception_4d/output_inception_4d/output_0_split_1
I0403 15:10:27.954119 31243 net.cpp:399] inception_4e/1x1 -> inception_4e/1x1
I0403 15:10:27.955972 31243 net.cpp:141] Setting up inception_4e/1x1
I0403 15:10:27.956001 31243 net.cpp:148] Top shape: 24 256 14 14 (1204224)
I0403 15:10:27.956017 31243 net.cpp:156] Memory required for data: 1213249056
I0403 15:10:27.956037 31243 layer_factory.hpp:77] Creating layer inception_4e/relu_1x1
I0403 15:10:27.956058 31243 net.cpp:91] Creating Layer inception_4e/relu_1x1
I0403 15:10:27.956078 31243 net.cpp:425] inception_4e/relu_1x1 <- inception_4e/1x1
I0403 15:10:27.956097 31243 net.cpp:386] inception_4e/relu_1x1 -> inception_4e/1x1 (in-place)
I0403 15:10:27.956403 31243 net.cpp:141] Setting up inception_4e/relu_1x1
I0403 15:10:27.956431 31243 net.cpp:148] Top shape: 24 256 14 14 (1204224)
I0403 15:10:27.956449 31243 net.cpp:156] Memory required for data: 1218065952
I0403 15:10:27.956464 31243 layer_factory.hpp:77] Creating layer inception_4e/3x3_reduce
I0403 15:10:27.956488 31243 net.cpp:91] Creating Layer inception_4e/3x3_reduce
I0403 15:10:27.956507 31243 net.cpp:425] inception_4e/3x3_reduce <- inception_4d/output_inception_4d/output_0_split_2
I0403 15:10:27.956531 31243 net.cpp:399] inception_4e/3x3_reduce -> inception_4e/3x3_reduce
I0403 15:10:27.958670 31243 net.cpp:141] Setting up inception_4e/3x3_reduce
I0403 15:10:27.958700 31243 net.cpp:148] Top shape: 24 160 14 14 (752640)
I0403 15:10:27.958716 31243 net.cpp:156] Memory required for data: 1221076512
I0403 15:10:27.958736 31243 layer_factory.hpp:77] Creating layer inception_4e/relu_3x3_reduce
I0403 15:10:27.958756 31243 net.cpp:91] Creating Layer inception_4e/relu_3x3_reduce
I0403 15:10:27.958775 31243 net.cpp:425] inception_4e/relu_3x3_reduce <- inception_4e/3x3_reduce
I0403 15:10:27.958794 31243 net.cpp:386] inception_4e/relu_3x3_reduce -> inception_4e/3x3_reduce (in-place)
I0403 15:10:27.958983 31243 net.cpp:141] Setting up inception_4e/relu_3x3_reduce
I0403 15:10:27.959012 31243 net.cpp:148] Top shape: 24 160 14 14 (752640)
I0403 15:10:27.959028 31243 net.cpp:156] Memory required for data: 1224087072
I0403 15:10:27.959044 31243 layer_factory.hpp:77] Creating layer inception_4e/3x3
I0403 15:10:27.959065 31243 net.cpp:91] Creating Layer inception_4e/3x3
I0403 15:10:27.959084 31243 net.cpp:425] inception_4e/3x3 <- inception_4e/3x3_reduce
I0403 15:10:27.959107 31243 net.cpp:399] inception_4e/3x3 -> inception_4e/3x3
I0403 15:10:27.964123 31243 net.cpp:141] Setting up inception_4e/3x3
I0403 15:10:27.964166 31243 net.cpp:148] Top shape: 24 320 14 14 (1505280)
I0403 15:10:27.964184 31243 net.cpp:156] Memory required for data: 1230108192
I0403 15:10:27.964205 31243 layer_factory.hpp:77] Creating layer inception_4e/relu_3x3
I0403 15:10:27.964224 31243 net.cpp:91] Creating Layer inception_4e/relu_3x3
I0403 15:10:27.964241 31243 net.cpp:425] inception_4e/relu_3x3 <- inception_4e/3x3
I0403 15:10:27.964260 31243 net.cpp:386] inception_4e/relu_3x3 -> inception_4e/3x3 (in-place)
I0403 15:10:27.964571 31243 net.cpp:141] Setting up inception_4e/relu_3x3
I0403 15:10:27.964601 31243 net.cpp:148] Top shape: 24 320 14 14 (1505280)
I0403 15:10:27.964619 31243 net.cpp:156] Memory required for data: 1236129312
I0403 15:10:27.964635 31243 layer_factory.hpp:77] Creating layer inception_4e/5x5_reduce
I0403 15:10:27.964659 31243 net.cpp:91] Creating Layer inception_4e/5x5_reduce
I0403 15:10:27.964679 31243 net.cpp:425] inception_4e/5x5_reduce <- inception_4d/output_inception_4d/output_0_split_3
I0403 15:10:27.964702 31243 net.cpp:399] inception_4e/5x5_reduce -> inception_4e/5x5_reduce
I0403 15:10:27.965778 31243 net.cpp:141] Setting up inception_4e/5x5_reduce
I0403 15:10:27.965807 31243 net.cpp:148] Top shape: 24 32 14 14 (150528)
I0403 15:10:27.965823 31243 net.cpp:156] Memory required for data: 1236731424
I0403 15:10:27.965843 31243 layer_factory.hpp:77] Creating layer inception_4e/relu_5x5_reduce
I0403 15:10:27.965864 31243 net.cpp:91] Creating Layer inception_4e/relu_5x5_reduce
I0403 15:10:27.965883 31243 net.cpp:425] inception_4e/relu_5x5_reduce <- inception_4e/5x5_reduce
I0403 15:10:27.965901 31243 net.cpp:386] inception_4e/relu_5x5_reduce -> inception_4e/5x5_reduce (in-place)
I0403 15:10:27.966203 31243 net.cpp:141] Setting up inception_4e/relu_5x5_reduce
I0403 15:10:27.966231 31243 net.cpp:148] Top shape: 24 32 14 14 (150528)
I0403 15:10:27.966248 31243 net.cpp:156] Memory required for data: 1237333536
I0403 15:10:27.966264 31243 layer_factory.hpp:77] Creating layer inception_4e/5x5
I0403 15:10:27.966310 31243 net.cpp:91] Creating Layer inception_4e/5x5
I0403 15:10:27.966332 31243 net.cpp:425] inception_4e/5x5 <- inception_4e/5x5_reduce
I0403 15:10:27.966354 31243 net.cpp:399] inception_4e/5x5 -> inception_4e/5x5
I0403 15:10:27.968206 31243 net.cpp:141] Setting up inception_4e/5x5
I0403 15:10:27.968235 31243 net.cpp:148] Top shape: 24 128 14 14 (602112)
I0403 15:10:27.968251 31243 net.cpp:156] Memory required for data: 1239741984
I0403 15:10:27.968271 31243 layer_factory.hpp:77] Creating layer inception_4e/relu_5x5
I0403 15:10:27.968296 31243 net.cpp:91] Creating Layer inception_4e/relu_5x5
I0403 15:10:27.968317 31243 net.cpp:425] inception_4e/relu_5x5 <- inception_4e/5x5
I0403 15:10:27.968335 31243 net.cpp:386] inception_4e/relu_5x5 -> inception_4e/5x5 (in-place)
I0403 15:10:27.968533 31243 net.cpp:141] Setting up inception_4e/relu_5x5
I0403 15:10:27.968562 31243 net.cpp:148] Top shape: 24 128 14 14 (602112)
I0403 15:10:27.968580 31243 net.cpp:156] Memory required for data: 1242150432
I0403 15:10:27.968595 31243 layer_factory.hpp:77] Creating layer inception_4e/pool
I0403 15:10:27.968619 31243 net.cpp:91] Creating Layer inception_4e/pool
I0403 15:10:27.968637 31243 net.cpp:425] inception_4e/pool <- inception_4d/output_inception_4d/output_0_split_4
I0403 15:10:27.968657 31243 net.cpp:399] inception_4e/pool -> inception_4e/pool
I0403 15:10:27.968734 31243 net.cpp:141] Setting up inception_4e/pool
I0403 15:10:27.968758 31243 net.cpp:148] Top shape: 24 528 14 14 (2483712)
I0403 15:10:27.968775 31243 net.cpp:156] Memory required for data: 1252085280
I0403 15:10:27.968792 31243 layer_factory.hpp:77] Creating layer inception_4e/pool_proj
I0403 15:10:27.968816 31243 net.cpp:91] Creating Layer inception_4e/pool_proj
I0403 15:10:27.968837 31243 net.cpp:425] inception_4e/pool_proj <- inception_4e/pool
I0403 15:10:27.968859 31243 net.cpp:399] inception_4e/pool_proj -> inception_4e/pool_proj
I0403 15:10:27.970413 31243 net.cpp:141] Setting up inception_4e/pool_proj
I0403 15:10:27.970445 31243 net.cpp:148] Top shape: 24 128 14 14 (602112)
I0403 15:10:27.970476 31243 net.cpp:156] Memory required for data: 1254493728
I0403 15:10:27.970497 31243 layer_factory.hpp:77] Creating layer inception_4e/relu_pool_proj
I0403 15:10:27.970516 31243 net.cpp:91] Creating Layer inception_4e/relu_pool_proj
I0403 15:10:27.970536 31243 net.cpp:425] inception_4e/relu_pool_proj <- inception_4e/pool_proj
I0403 15:10:27.970559 31243 net.cpp:386] inception_4e/relu_pool_proj -> inception_4e/pool_proj (in-place)
I0403 15:10:27.970856 31243 net.cpp:141] Setting up inception_4e/relu_pool_proj
I0403 15:10:27.970891 31243 net.cpp:148] Top shape: 24 128 14 14 (602112)
I0403 15:10:27.970909 31243 net.cpp:156] Memory required for data: 1256902176
I0403 15:10:27.970927 31243 layer_factory.hpp:77] Creating layer inception_4e/output
I0403 15:10:27.970947 31243 net.cpp:91] Creating Layer inception_4e/output
I0403 15:10:27.970965 31243 net.cpp:425] inception_4e/output <- inception_4e/1x1
I0403 15:10:27.970983 31243 net.cpp:425] inception_4e/output <- inception_4e/3x3
I0403 15:10:27.971001 31243 net.cpp:425] inception_4e/output <- inception_4e/5x5
I0403 15:10:27.971019 31243 net.cpp:425] inception_4e/output <- inception_4e/pool_proj
I0403 15:10:27.971038 31243 net.cpp:399] inception_4e/output -> inception_4e/output
I0403 15:10:27.971088 31243 net.cpp:141] Setting up inception_4e/output
I0403 15:10:27.971113 31243 net.cpp:148] Top shape: 24 832 14 14 (3913728)
I0403 15:10:27.971128 31243 net.cpp:156] Memory required for data: 1272557088
I0403 15:10:27.971144 31243 layer_factory.hpp:77] Creating layer pool4/3x3_s2
I0403 15:10:27.971165 31243 net.cpp:91] Creating Layer pool4/3x3_s2
I0403 15:10:27.971184 31243 net.cpp:425] pool4/3x3_s2 <- inception_4e/output
I0403 15:10:27.971207 31243 net.cpp:399] pool4/3x3_s2 -> pool4/3x3_s2
I0403 15:10:27.971277 31243 net.cpp:141] Setting up pool4/3x3_s2
I0403 15:10:27.971307 31243 net.cpp:148] Top shape: 24 832 7 7 (978432)
I0403 15:10:27.971323 31243 net.cpp:156] Memory required for data: 1276470816
I0403 15:10:27.971338 31243 layer_factory.hpp:77] Creating layer pool4/3x3_s2_pool4/3x3_s2_0_split
I0403 15:10:27.971359 31243 net.cpp:91] Creating Layer pool4/3x3_s2_pool4/3x3_s2_0_split
I0403 15:10:27.971377 31243 net.cpp:425] pool4/3x3_s2_pool4/3x3_s2_0_split <- pool4/3x3_s2
I0403 15:10:27.971395 31243 net.cpp:399] pool4/3x3_s2_pool4/3x3_s2_0_split -> pool4/3x3_s2_pool4/3x3_s2_0_split_0
I0403 15:10:27.971416 31243 net.cpp:399] pool4/3x3_s2_pool4/3x3_s2_0_split -> pool4/3x3_s2_pool4/3x3_s2_0_split_1
I0403 15:10:27.971438 31243 net.cpp:399] pool4/3x3_s2_pool4/3x3_s2_0_split -> pool4/3x3_s2_pool4/3x3_s2_0_split_2
I0403 15:10:27.971459 31243 net.cpp:399] pool4/3x3_s2_pool4/3x3_s2_0_split -> pool4/3x3_s2_pool4/3x3_s2_0_split_3
I0403 15:10:27.971554 31243 net.cpp:141] Setting up pool4/3x3_s2_pool4/3x3_s2_0_split
I0403 15:10:27.971580 31243 net.cpp:148] Top shape: 24 832 7 7 (978432)
I0403 15:10:27.971597 31243 net.cpp:148] Top shape: 24 832 7 7 (978432)
I0403 15:10:27.971614 31243 net.cpp:148] Top shape: 24 832 7 7 (978432)
I0403 15:10:27.971631 31243 net.cpp:148] Top shape: 24 832 7 7 (978432)
I0403 15:10:27.971645 31243 net.cpp:156] Memory required for data: 1292125728
I0403 15:10:27.971660 31243 layer_factory.hpp:77] Creating layer inception_5a/1x1
I0403 15:10:27.971683 31243 net.cpp:91] Creating Layer inception_5a/1x1
I0403 15:10:27.971701 31243 net.cpp:425] inception_5a/1x1 <- pool4/3x3_s2_pool4/3x3_s2_0_split_0
I0403 15:10:27.971724 31243 net.cpp:399] inception_5a/1x1 -> inception_5a/1x1
I0403 15:10:27.974596 31243 net.cpp:141] Setting up inception_5a/1x1
I0403 15:10:27.974627 31243 net.cpp:148] Top shape: 24 256 7 7 (301056)
I0403 15:10:27.974642 31243 net.cpp:156] Memory required for data: 1293329952
I0403 15:10:27.974661 31243 layer_factory.hpp:77] Creating layer inception_5a/relu_1x1
I0403 15:10:27.974681 31243 net.cpp:91] Creating Layer inception_5a/relu_1x1
I0403 15:10:27.974699 31243 net.cpp:425] inception_5a/relu_1x1 <- inception_5a/1x1
I0403 15:10:27.974720 31243 net.cpp:386] inception_5a/relu_1x1 -> inception_5a/1x1 (in-place)
I0403 15:10:27.975030 31243 net.cpp:141] Setting up inception_5a/relu_1x1
I0403 15:10:27.975057 31243 net.cpp:148] Top shape: 24 256 7 7 (301056)
I0403 15:10:27.975077 31243 net.cpp:156] Memory required for data: 1294534176
I0403 15:10:27.975096 31243 layer_factory.hpp:77] Creating layer inception_5a/3x3_reduce
I0403 15:10:27.975119 31243 net.cpp:91] Creating Layer inception_5a/3x3_reduce
I0403 15:10:27.975139 31243 net.cpp:425] inception_5a/3x3_reduce <- pool4/3x3_s2_pool4/3x3_s2_0_split_1
I0403 15:10:27.975165 31243 net.cpp:399] inception_5a/3x3_reduce -> inception_5a/3x3_reduce
I0403 15:10:27.977644 31243 net.cpp:141] Setting up inception_5a/3x3_reduce
I0403 15:10:27.977676 31243 net.cpp:148] Top shape: 24 160 7 7 (188160)
I0403 15:10:27.977694 31243 net.cpp:156] Memory required for data: 1295286816
I0403 15:10:27.977713 31243 layer_factory.hpp:77] Creating layer inception_5a/relu_3x3_reduce
I0403 15:10:27.977733 31243 net.cpp:91] Creating Layer inception_5a/relu_3x3_reduce
I0403 15:10:27.977751 31243 net.cpp:425] inception_5a/relu_3x3_reduce <- inception_5a/3x3_reduce
I0403 15:10:27.977771 31243 net.cpp:386] inception_5a/relu_3x3_reduce -> inception_5a/3x3_reduce (in-place)
I0403 15:10:27.977962 31243 net.cpp:141] Setting up inception_5a/relu_3x3_reduce
I0403 15:10:27.977988 31243 net.cpp:148] Top shape: 24 160 7 7 (188160)
I0403 15:10:27.978003 31243 net.cpp:156] Memory required for data: 1296039456
I0403 15:10:27.978019 31243 layer_factory.hpp:77] Creating layer inception_5a/3x3
I0403 15:10:27.978042 31243 net.cpp:91] Creating Layer inception_5a/3x3
I0403 15:10:27.978061 31243 net.cpp:425] inception_5a/3x3 <- inception_5a/3x3_reduce
I0403 15:10:27.978085 31243 net.cpp:399] inception_5a/3x3 -> inception_5a/3x3
I0403 15:10:27.983119 31243 net.cpp:141] Setting up inception_5a/3x3
I0403 15:10:27.983150 31243 net.cpp:148] Top shape: 24 320 7 7 (376320)
I0403 15:10:27.983168 31243 net.cpp:156] Memory required for data: 1297544736
I0403 15:10:27.983188 31243 layer_factory.hpp:77] Creating layer inception_5a/relu_3x3
I0403 15:10:27.983209 31243 net.cpp:91] Creating Layer inception_5a/relu_3x3
I0403 15:10:27.983227 31243 net.cpp:425] inception_5a/relu_3x3 <- inception_5a/3x3
I0403 15:10:27.983247 31243 net.cpp:386] inception_5a/relu_3x3 -> inception_5a/3x3 (in-place)
I0403 15:10:27.983549 31243 net.cpp:141] Setting up inception_5a/relu_3x3
I0403 15:10:27.983579 31243 net.cpp:148] Top shape: 24 320 7 7 (376320)
I0403 15:10:27.983595 31243 net.cpp:156] Memory required for data: 1299050016
I0403 15:10:27.983611 31243 layer_factory.hpp:77] Creating layer inception_5a/5x5_reduce
I0403 15:10:27.983634 31243 net.cpp:91] Creating Layer inception_5a/5x5_reduce
I0403 15:10:27.983654 31243 net.cpp:425] inception_5a/5x5_reduce <- pool4/3x3_s2_pool4/3x3_s2_0_split_2
I0403 15:10:27.983678 31243 net.cpp:399] inception_5a/5x5_reduce -> inception_5a/5x5_reduce
I0403 15:10:27.984869 31243 net.cpp:141] Setting up inception_5a/5x5_reduce
I0403 15:10:27.984899 31243 net.cpp:148] Top shape: 24 32 7 7 (37632)
I0403 15:10:27.984916 31243 net.cpp:156] Memory required for data: 1299200544
I0403 15:10:27.984936 31243 layer_factory.hpp:77] Creating layer inception_5a/relu_5x5_reduce
I0403 15:10:27.984957 31243 net.cpp:91] Creating Layer inception_5a/relu_5x5_reduce
I0403 15:10:27.984975 31243 net.cpp:425] inception_5a/relu_5x5_reduce <- inception_5a/5x5_reduce
I0403 15:10:27.984994 31243 net.cpp:386] inception_5a/relu_5x5_reduce -> inception_5a/5x5_reduce (in-place)
I0403 15:10:27.985304 31243 net.cpp:141] Setting up inception_5a/relu_5x5_reduce
I0403 15:10:27.985332 31243 net.cpp:148] Top shape: 24 32 7 7 (37632)
I0403 15:10:27.985349 31243 net.cpp:156] Memory required for data: 1299351072
I0403 15:10:27.985366 31243 layer_factory.hpp:77] Creating layer inception_5a/5x5
I0403 15:10:27.985390 31243 net.cpp:91] Creating Layer inception_5a/5x5
I0403 15:10:27.985409 31243 net.cpp:425] inception_5a/5x5 <- inception_5a/5x5_reduce
I0403 15:10:27.985431 31243 net.cpp:399] inception_5a/5x5 -> inception_5a/5x5
I0403 15:10:27.987174 31243 net.cpp:141] Setting up inception_5a/5x5
I0403 15:10:27.987215 31243 net.cpp:148] Top shape: 24 128 7 7 (150528)
I0403 15:10:27.987231 31243 net.cpp:156] Memory required for data: 1299953184
I0403 15:10:27.987251 31243 layer_factory.hpp:77] Creating layer inception_5a/relu_5x5
I0403 15:10:27.987272 31243 net.cpp:91] Creating Layer inception_5a/relu_5x5
I0403 15:10:27.987293 31243 net.cpp:425] inception_5a/relu_5x5 <- inception_5a/5x5
I0403 15:10:27.987313 31243 net.cpp:386] inception_5a/relu_5x5 -> inception_5a/5x5 (in-place)
I0403 15:10:27.987504 31243 net.cpp:141] Setting up inception_5a/relu_5x5
I0403 15:10:27.987534 31243 net.cpp:148] Top shape: 24 128 7 7 (150528)
I0403 15:10:27.987565 31243 net.cpp:156] Memory required for data: 1300555296
I0403 15:10:27.987582 31243 layer_factory.hpp:77] Creating layer inception_5a/pool
I0403 15:10:27.987604 31243 net.cpp:91] Creating Layer inception_5a/pool
I0403 15:10:27.987625 31243 net.cpp:425] inception_5a/pool <- pool4/3x3_s2_pool4/3x3_s2_0_split_3
I0403 15:10:27.987649 31243 net.cpp:399] inception_5a/pool -> inception_5a/pool
I0403 15:10:27.987728 31243 net.cpp:141] Setting up inception_5a/pool
I0403 15:10:27.987754 31243 net.cpp:148] Top shape: 24 832 7 7 (978432)
I0403 15:10:27.987773 31243 net.cpp:156] Memory required for data: 1304469024
I0403 15:10:27.987790 31243 layer_factory.hpp:77] Creating layer inception_5a/pool_proj
I0403 15:10:27.987815 31243 net.cpp:91] Creating Layer inception_5a/pool_proj
I0403 15:10:27.987848 31243 net.cpp:425] inception_5a/pool_proj <- inception_5a/pool
I0403 15:10:27.987869 31243 net.cpp:399] inception_5a/pool_proj -> inception_5a/pool_proj
I0403 15:10:27.990185 31243 net.cpp:141] Setting up inception_5a/pool_proj
I0403 15:10:27.990216 31243 net.cpp:148] Top shape: 24 128 7 7 (150528)
I0403 15:10:27.990234 31243 net.cpp:156] Memory required for data: 1305071136
I0403 15:10:27.990254 31243 layer_factory.hpp:77] Creating layer inception_5a/relu_pool_proj
I0403 15:10:27.990274 31243 net.cpp:91] Creating Layer inception_5a/relu_pool_proj
I0403 15:10:27.990298 31243 net.cpp:425] inception_5a/relu_pool_proj <- inception_5a/pool_proj
I0403 15:10:27.990321 31243 net.cpp:386] inception_5a/relu_pool_proj -> inception_5a/pool_proj (in-place)
I0403 15:10:27.990629 31243 net.cpp:141] Setting up inception_5a/relu_pool_proj
I0403 15:10:27.990658 31243 net.cpp:148] Top shape: 24 128 7 7 (150528)
I0403 15:10:27.990674 31243 net.cpp:156] Memory required for data: 1305673248
I0403 15:10:27.990691 31243 layer_factory.hpp:77] Creating layer inception_5a/output
I0403 15:10:27.990710 31243 net.cpp:91] Creating Layer inception_5a/output
I0403 15:10:27.990727 31243 net.cpp:425] inception_5a/output <- inception_5a/1x1
I0403 15:10:27.990746 31243 net.cpp:425] inception_5a/output <- inception_5a/3x3
I0403 15:10:27.990763 31243 net.cpp:425] inception_5a/output <- inception_5a/5x5
I0403 15:10:27.990782 31243 net.cpp:425] inception_5a/output <- inception_5a/pool_proj
I0403 15:10:27.990803 31243 net.cpp:399] inception_5a/output -> inception_5a/output
I0403 15:10:27.990856 31243 net.cpp:141] Setting up inception_5a/output
I0403 15:10:27.990885 31243 net.cpp:148] Top shape: 24 832 7 7 (978432)
I0403 15:10:27.990902 31243 net.cpp:156] Memory required for data: 1309586976
I0403 15:10:27.990919 31243 layer_factory.hpp:77] Creating layer inception_5a/output_inception_5a/output_0_split
I0403 15:10:27.990937 31243 net.cpp:91] Creating Layer inception_5a/output_inception_5a/output_0_split
I0403 15:10:27.990955 31243 net.cpp:425] inception_5a/output_inception_5a/output_0_split <- inception_5a/output
I0403 15:10:27.990974 31243 net.cpp:399] inception_5a/output_inception_5a/output_0_split -> inception_5a/output_inception_5a/output_0_split_0
I0403 15:10:27.990996 31243 net.cpp:399] inception_5a/output_inception_5a/output_0_split -> inception_5a/output_inception_5a/output_0_split_1
I0403 15:10:27.991020 31243 net.cpp:399] inception_5a/output_inception_5a/output_0_split -> inception_5a/output_inception_5a/output_0_split_2
I0403 15:10:27.991044 31243 net.cpp:399] inception_5a/output_inception_5a/output_0_split -> inception_5a/output_inception_5a/output_0_split_3
I0403 15:10:27.991163 31243 net.cpp:141] Setting up inception_5a/output_inception_5a/output_0_split
I0403 15:10:27.991189 31243 net.cpp:148] Top shape: 24 832 7 7 (978432)
I0403 15:10:27.991207 31243 net.cpp:148] Top shape: 24 832 7 7 (978432)
I0403 15:10:27.991225 31243 net.cpp:148] Top shape: 24 832 7 7 (978432)
I0403 15:10:27.991242 31243 net.cpp:148] Top shape: 24 832 7 7 (978432)
I0403 15:10:27.991257 31243 net.cpp:156] Memory required for data: 1325241888
I0403 15:10:27.991273 31243 layer_factory.hpp:77] Creating layer inception_5b/1x1
I0403 15:10:27.991302 31243 net.cpp:91] Creating Layer inception_5b/1x1
I0403 15:10:27.991323 31243 net.cpp:425] inception_5b/1x1 <- inception_5a/output_inception_5a/output_0_split_0
I0403 15:10:27.991348 31243 net.cpp:399] inception_5b/1x1 -> inception_5b/1x1
I0403 15:10:27.995254 31243 net.cpp:141] Setting up inception_5b/1x1
I0403 15:10:27.995292 31243 net.cpp:148] Top shape: 24 384 7 7 (451584)
I0403 15:10:27.995311 31243 net.cpp:156] Memory required for data: 1327048224
I0403 15:10:27.995332 31243 layer_factory.hpp:77] Creating layer inception_5b/relu_1x1
I0403 15:10:27.995352 31243 net.cpp:91] Creating Layer inception_5b/relu_1x1
I0403 15:10:27.995371 31243 net.cpp:425] inception_5b/relu_1x1 <- inception_5b/1x1
I0403 15:10:27.995393 31243 net.cpp:386] inception_5b/relu_1x1 -> inception_5b/1x1 (in-place)
I0403 15:10:27.995710 31243 net.cpp:141] Setting up inception_5b/relu_1x1
I0403 15:10:27.995740 31243 net.cpp:148] Top shape: 24 384 7 7 (451584)
I0403 15:10:27.995759 31243 net.cpp:156] Memory required for data: 1328854560
I0403 15:10:27.995775 31243 layer_factory.hpp:77] Creating layer inception_5b/3x3_reduce
I0403 15:10:27.995800 31243 net.cpp:91] Creating Layer inception_5b/3x3_reduce
I0403 15:10:27.995820 31243 net.cpp:425] inception_5b/3x3_reduce <- inception_5a/output_inception_5a/output_0_split_1
I0403 15:10:27.995841 31243 net.cpp:399] inception_5b/3x3_reduce -> inception_5b/3x3_reduce
I0403 15:10:27.998641 31243 net.cpp:141] Setting up inception_5b/3x3_reduce
I0403 15:10:27.998672 31243 net.cpp:148] Top shape: 24 192 7 7 (225792)
I0403 15:10:27.998690 31243 net.cpp:156] Memory required for data: 1329757728
I0403 15:10:27.998710 31243 layer_factory.hpp:77] Creating layer inception_5b/relu_3x3_reduce
I0403 15:10:27.998730 31243 net.cpp:91] Creating Layer inception_5b/relu_3x3_reduce
I0403 15:10:27.998749 31243 net.cpp:425] inception_5b/relu_3x3_reduce <- inception_5b/3x3_reduce
I0403 15:10:27.998769 31243 net.cpp:386] inception_5b/relu_3x3_reduce -> inception_5b/3x3_reduce (in-place)
I0403 15:10:27.998970 31243 net.cpp:141] Setting up inception_5b/relu_3x3_reduce
I0403 15:10:27.998997 31243 net.cpp:148] Top shape: 24 192 7 7 (225792)
I0403 15:10:27.999013 31243 net.cpp:156] Memory required for data: 1330660896
I0403 15:10:27.999030 31243 layer_factory.hpp:77] Creating layer inception_5b/3x3
I0403 15:10:27.999053 31243 net.cpp:91] Creating Layer inception_5b/3x3
I0403 15:10:27.999073 31243 net.cpp:425] inception_5b/3x3 <- inception_5b/3x3_reduce
I0403 15:10:27.999097 31243 net.cpp:399] inception_5b/3x3 -> inception_5b/3x3
I0403 15:10:28.006172 31243 net.cpp:141] Setting up inception_5b/3x3
I0403 15:10:28.006204 31243 net.cpp:148] Top shape: 24 384 7 7 (451584)
I0403 15:10:28.006223 31243 net.cpp:156] Memory required for data: 1332467232
I0403 15:10:28.006243 31243 layer_factory.hpp:77] Creating layer inception_5b/relu_3x3
I0403 15:10:28.006264 31243 net.cpp:91] Creating Layer inception_5b/relu_3x3
I0403 15:10:28.006288 31243 net.cpp:425] inception_5b/relu_3x3 <- inception_5b/3x3
I0403 15:10:28.006312 31243 net.cpp:386] inception_5b/relu_3x3 -> inception_5b/3x3 (in-place)
I0403 15:10:28.006626 31243 net.cpp:141] Setting up inception_5b/relu_3x3
I0403 15:10:28.006655 31243 net.cpp:148] Top shape: 24 384 7 7 (451584)
I0403 15:10:28.006672 31243 net.cpp:156] Memory required for data: 1334273568
I0403 15:10:28.006690 31243 layer_factory.hpp:77] Creating layer inception_5b/5x5_reduce
I0403 15:10:28.006732 31243 net.cpp:91] Creating Layer inception_5b/5x5_reduce
I0403 15:10:28.006754 31243 net.cpp:425] inception_5b/5x5_reduce <- inception_5a/output_inception_5a/output_0_split_2
I0403 15:10:28.006780 31243 net.cpp:399] inception_5b/5x5_reduce -> inception_5b/5x5_reduce
I0403 15:10:28.008111 31243 net.cpp:141] Setting up inception_5b/5x5_reduce
I0403 15:10:28.008142 31243 net.cpp:148] Top shape: 24 48 7 7 (56448)
I0403 15:10:28.008162 31243 net.cpp:156] Memory required for data: 1334499360
I0403 15:10:28.008182 31243 layer_factory.hpp:77] Creating layer inception_5b/relu_5x5_reduce
I0403 15:10:28.008201 31243 net.cpp:91] Creating Layer inception_5b/relu_5x5_reduce
I0403 15:10:28.008219 31243 net.cpp:425] inception_5b/relu_5x5_reduce <- inception_5b/5x5_reduce
I0403 15:10:28.008241 31243 net.cpp:386] inception_5b/relu_5x5_reduce -> inception_5b/5x5_reduce (in-place)
I0403 15:10:28.008631 31243 net.cpp:141] Setting up inception_5b/relu_5x5_reduce
I0403 15:10:28.008661 31243 net.cpp:148] Top shape: 24 48 7 7 (56448)
I0403 15:10:28.008677 31243 net.cpp:156] Memory required for data: 1334725152
I0403 15:10:28.008694 31243 layer_factory.hpp:77] Creating layer inception_5b/5x5
I0403 15:10:28.008716 31243 net.cpp:91] Creating Layer inception_5b/5x5
I0403 15:10:28.008735 31243 net.cpp:425] inception_5b/5x5 <- inception_5b/5x5_reduce
I0403 15:10:28.008756 31243 net.cpp:399] inception_5b/5x5 -> inception_5b/5x5
I0403 15:10:28.010906 31243 net.cpp:141] Setting up inception_5b/5x5
I0403 15:10:28.010936 31243 net.cpp:148] Top shape: 24 128 7 7 (150528)
I0403 15:10:28.010953 31243 net.cpp:156] Memory required for data: 1335327264
I0403 15:10:28.010973 31243 layer_factory.hpp:77] Creating layer inception_5b/relu_5x5
I0403 15:10:28.010993 31243 net.cpp:91] Creating Layer inception_5b/relu_5x5
I0403 15:10:28.011013 31243 net.cpp:425] inception_5b/relu_5x5 <- inception_5b/5x5
I0403 15:10:28.011039 31243 net.cpp:386] inception_5b/relu_5x5 -> inception_5b/5x5 (in-place)
I0403 15:10:28.011241 31243 net.cpp:141] Setting up inception_5b/relu_5x5
I0403 15:10:28.011268 31243 net.cpp:148] Top shape: 24 128 7 7 (150528)
I0403 15:10:28.011291 31243 net.cpp:156] Memory required for data: 1335929376
I0403 15:10:28.011309 31243 layer_factory.hpp:77] Creating layer inception_5b/pool
I0403 15:10:28.011333 31243 net.cpp:91] Creating Layer inception_5b/pool
I0403 15:10:28.011351 31243 net.cpp:425] inception_5b/pool <- inception_5a/output_inception_5a/output_0_split_3
I0403 15:10:28.011371 31243 net.cpp:399] inception_5b/pool -> inception_5b/pool
I0403 15:10:28.011450 31243 net.cpp:141] Setting up inception_5b/pool
I0403 15:10:28.011476 31243 net.cpp:148] Top shape: 24 832 7 7 (978432)
I0403 15:10:28.011492 31243 net.cpp:156] Memory required for data: 1339843104
I0403 15:10:28.011508 31243 layer_factory.hpp:77] Creating layer inception_5b/pool_proj
I0403 15:10:28.011533 31243 net.cpp:91] Creating Layer inception_5b/pool_proj
I0403 15:10:28.011551 31243 net.cpp:425] inception_5b/pool_proj <- inception_5b/pool
I0403 15:10:28.011574 31243 net.cpp:399] inception_5b/pool_proj -> inception_5b/pool_proj
I0403 15:10:28.013979 31243 net.cpp:141] Setting up inception_5b/pool_proj
I0403 15:10:28.014010 31243 net.cpp:148] Top shape: 24 128 7 7 (150528)
I0403 15:10:28.014029 31243 net.cpp:156] Memory required for data: 1340445216
I0403 15:10:28.014048 31243 layer_factory.hpp:77] Creating layer inception_5b/relu_pool_proj
I0403 15:10:28.014070 31243 net.cpp:91] Creating Layer inception_5b/relu_pool_proj
I0403 15:10:28.014088 31243 net.cpp:425] inception_5b/relu_pool_proj <- inception_5b/pool_proj
I0403 15:10:28.014111 31243 net.cpp:386] inception_5b/relu_pool_proj -> inception_5b/pool_proj (in-place)
I0403 15:10:28.014436 31243 net.cpp:141] Setting up inception_5b/relu_pool_proj
I0403 15:10:28.014464 31243 net.cpp:148] Top shape: 24 128 7 7 (150528)
I0403 15:10:28.014480 31243 net.cpp:156] Memory required for data: 1341047328
I0403 15:10:28.014498 31243 layer_factory.hpp:77] Creating layer inception_5b/output
I0403 15:10:28.014518 31243 net.cpp:91] Creating Layer inception_5b/output
I0403 15:10:28.014551 31243 net.cpp:425] inception_5b/output <- inception_5b/1x1
I0403 15:10:28.014574 31243 net.cpp:425] inception_5b/output <- inception_5b/3x3
I0403 15:10:28.014591 31243 net.cpp:425] inception_5b/output <- inception_5b/5x5
I0403 15:10:28.014608 31243 net.cpp:425] inception_5b/output <- inception_5b/pool_proj
I0403 15:10:28.014631 31243 net.cpp:399] inception_5b/output -> inception_5b/output
I0403 15:10:28.014688 31243 net.cpp:141] Setting up inception_5b/output
I0403 15:10:28.014715 31243 net.cpp:148] Top shape: 24 1024 7 7 (1204224)
I0403 15:10:28.014731 31243 net.cpp:156] Memory required for data: 1345864224
I0403 15:10:28.014747 31243 layer_factory.hpp:77] Creating layer pool5/7x7_s1
I0403 15:10:28.014770 31243 net.cpp:91] Creating Layer pool5/7x7_s1
I0403 15:10:28.014787 31243 net.cpp:425] pool5/7x7_s1 <- inception_5b/output
I0403 15:10:28.014811 31243 net.cpp:399] pool5/7x7_s1 -> pool5/7x7_s1
I0403 15:10:28.015038 31243 net.cpp:141] Setting up pool5/7x7_s1
I0403 15:10:28.015065 31243 net.cpp:148] Top shape: 24 1024 1 1 (24576)
I0403 15:10:28.015081 31243 net.cpp:156] Memory required for data: 1345962528
I0403 15:10:28.015097 31243 layer_factory.hpp:77] Creating layer pool5/drop_7x7_s1
I0403 15:10:28.015116 31243 net.cpp:91] Creating Layer pool5/drop_7x7_s1
I0403 15:10:28.015135 31243 net.cpp:425] pool5/drop_7x7_s1 <- pool5/7x7_s1
I0403 15:10:28.015156 31243 net.cpp:386] pool5/drop_7x7_s1 -> pool5/7x7_s1 (in-place)
I0403 15:10:28.015209 31243 net.cpp:141] Setting up pool5/drop_7x7_s1
I0403 15:10:28.015238 31243 net.cpp:148] Top shape: 24 1024 1 1 (24576)
I0403 15:10:28.015254 31243 net.cpp:156] Memory required for data: 1346060832
I0403 15:10:28.015271 31243 layer_factory.hpp:77] Creating layer loss3/classifier_plantvillage
I0403 15:10:28.015296 31243 net.cpp:91] Creating Layer loss3/classifier_plantvillage
I0403 15:10:28.015316 31243 net.cpp:425] loss3/classifier_plantvillage <- pool5/7x7_s1
I0403 15:10:28.015339 31243 net.cpp:399] loss3/classifier_plantvillage -> loss3/classifier_plantvillage
I0403 15:10:28.015782 31243 net.cpp:141] Setting up loss3/classifier_plantvillage
I0403 15:10:28.015813 31243 net.cpp:148] Top shape: 24 38 (912)
I0403 15:10:28.015835 31243 net.cpp:156] Memory required for data: 1346064480
I0403 15:10:28.015854 31243 layer_factory.hpp:77] Creating layer loss3/classifier_plantvillage_loss3/classifier_plantvillage_0_split
I0403 15:10:28.015875 31243 net.cpp:91] Creating Layer loss3/classifier_plantvillage_loss3/classifier_plantvillage_0_split
I0403 15:10:28.015892 31243 net.cpp:425] loss3/classifier_plantvillage_loss3/classifier_plantvillage_0_split <- loss3/classifier_plantvillage
I0403 15:10:28.015911 31243 net.cpp:399] loss3/classifier_plantvillage_loss3/classifier_plantvillage_0_split -> loss3/classifier_plantvillage_loss3/classifier_plantvillage_0_split_0
I0403 15:10:28.015933 31243 net.cpp:399] loss3/classifier_plantvillage_loss3/classifier_plantvillage_0_split -> loss3/classifier_plantvillage_loss3/classifier_plantvillage_0_split_1
I0403 15:10:28.015959 31243 net.cpp:399] loss3/classifier_plantvillage_loss3/classifier_plantvillage_0_split -> loss3/classifier_plantvillage_loss3/classifier_plantvillage_0_split_2
I0403 15:10:28.015982 31243 net.cpp:399] loss3/classifier_plantvillage_loss3/classifier_plantvillage_0_split -> loss3/classifier_plantvillage_loss3/classifier_plantvillage_0_split_3
I0403 15:10:28.016089 31243 net.cpp:141] Setting up loss3/classifier_plantvillage_loss3/classifier_plantvillage_0_split
I0403 15:10:28.016115 31243 net.cpp:148] Top shape: 24 38 (912)
I0403 15:10:28.016134 31243 net.cpp:148] Top shape: 24 38 (912)
I0403 15:10:28.016150 31243 net.cpp:148] Top shape: 24 38 (912)
I0403 15:10:28.016166 31243 net.cpp:148] Top shape: 24 38 (912)
I0403 15:10:28.016182 31243 net.cpp:156] Memory required for data: 1346079072
I0403 15:10:28.016198 31243 layer_factory.hpp:77] Creating layer loss1/loss
I0403 15:10:28.016232 31243 net.cpp:91] Creating Layer loss1/loss
I0403 15:10:28.016254 31243 net.cpp:425] loss1/loss <- loss1/classifier_plantvillage_loss1/classifier_plantvillage_0_split_0
I0403 15:10:28.016294 31243 net.cpp:425] loss1/loss <- label_data_1_split_0
…
