…
I0403 15:26:26.672703 31836 net.cpp:313] The NetState phase (1) differed from the phase (0) specified by a rule in layer data
I0403 15:26:26.673838 31836 net.cpp:49] Initializing net from parameters: 
state {
  phase: TEST
}
layer {
  name: "data"
  type: "Data"
  top: "data"
  top: "label"
  include {
    phase: TEST
  }
  transform_param {
    mirror: false
    crop_size: 224
    mean_file: "/home/mohanty/data/final_dataset/lmdb/color-60-40/mean.binaryproto"
  }
  data_param {
    source: "/home/mohanty/data/final_dataset/lmdb/color-60-40/test_db"
    batch_size: 24
    backend: LMDB
  }
}
layer {
  name: "conv1/7x7_s2"
  type: "Convolution"
  bottom: "data"
  top: "conv1/7x7_s2"
  param {
    lr_mult: 1
    decay_mult: 1
  }
  param {
    lr_mult: 2
    decay_mult: 0
  }
  convolution_param {
    num_output: 64
    pad: 3
    kernel_size: 7
    stride: 2
    weight_filler {
      type: "xavier"
      std: 0.1
    }
    bias_filler {
      type: "constant"
      value: 0.2
    }
  }
}
layer {
  name: "conv1/relu_7x7"
  type: "ReLU"
  bottom: "conv1/7x7_s2"
  top: "conv1/7x7_s2"
}
layer {
  name: "pool1/3x3_s2"
  type: "Pooling"
  bottom: "conv1/7x7_s2"
  top: "pool1/3x3_s2"
  pooling_param {
    pool: MAX
    kernel_size: 3
    stride: 2
  }
}
layer {
  name: "pool1/norm1"
  type: "LRN"
  bottom: "pool1/3x3_s2"
  top: "pool1/norm1"
  lrn_param {
    local_size: 5
    alpha: 0.0001
    beta: 0.75
  }
}
layer {
  name: "conv2/3x3_reduce"
  type: "Convolution"
  bottom: "pool1/norm1"
  top: "conv2/3x3_reduce"
  param {
    lr_mult: 1
    decay_mult: 1
  }
  param {
    lr_mult: 2
    decay_mult: 0
  }
  convolution_param {
    num_output: 64
    kernel_size: 1
    weight_filler {
      type: "xavier"
      std: 0.1
    }
    bias_filler {
      type: "constant"
      value: 0.2
    }
  }
}
layer {
  name: "conv2/relu_3x3_reduce"
  type: "ReLU"
  bottom: "conv2/3x3_reduce"
  top: "conv2/3x3_reduce"
}
layer {
  name: "conv2/3x3"
  type: "Convolution"
  bottom: "conv2/3x3_reduce"
  top: "conv2/3x3"
  param {
    lr_mult: 1
    decay_mult: 1
  }
  param {
    lr_mult: 2
    decay_mult: 0
  }
  convolution_param {
    num_output: 192
    pad: 1
    kernel_size: 3
    weight_filler {
      type: "xavier"
      std: 0.03
    }
    bias_filler {
      type: "constant"
      value: 0.2
    }
  }
}
layer {
  name: "conv2/relu_3x3"
  type: "ReLU"
  bottom: "conv2/3x3"
  top: "conv2/3x3"
}
layer {
  name: "conv2/norm2"
  type: "LRN"
  bottom: "conv2/3x3"
  top: "conv2/norm2"
  lrn_param {
    local_size: 5
    alpha: 0.0001
    beta: 0.75
  }
}
layer {
  name: "pool2/3x3_s2"
  type: "Pooling"
  bottom: "conv2/norm2"
  top: "pool2/3x3_s2"
  pooling_param {
    pool: MAX
    kernel_size: 3
    stride: 2
  }
}
layer {
  name: "inception_3a/1x1"
  type: "Convolution"
  bottom: "pool2/3x3_s2"
  top: "inception_3a/1x1"
  param {
    lr_mult: 1
    decay_mult: 1
  }
  param {
    lr_mult: 2
    decay_mult: 0
  }
  convolution_param {
    num_output: 64
    kernel_size: 1
    weight_filler {
      type: "xavier"
      std: 0.03
    }
    bias_filler {
      type: "constant"
      value: 0.2
    }
  }
}
layer {
  name: "inception_3a/relu_1x1"
  type: "ReLU"
  bottom: "inception_3a/1x1"
  top: "inception_3a/1x1"
}
layer {
  name: "inception_3a/3x3_reduce"
  type: "Convolution"
  bottom: "pool2/3x3_s2"
  top: "inception_3a/3x3_reduce"
  param {
    lr_mult: 1
    decay_mult: 1
  }
  param {
    lr_mult: 2
    decay_mult: 0
  }
  convolution_param {
    num_output: 96
    kernel_size: 1
    weight_filler {
      type: "xavier"
      std: 0.09
    }
    bias_filler {
      type: "constant"
      value: 0.2
    }
  }
}
layer {
  name: "inception_3a/relu_3x3_reduce"
  type: "ReLU"
  bottom: "inception_3a/3x3_reduce"
  top: "inception_3a/3x3_reduce"
}
layer {
  name: "inception_3a/3x3"
  type: "Convolution"
  bottom: "inception_3a/3x3_reduce"
  top: "inception_3a/3x3"
  param {
    lr_mult: 1
    decay_mult: 1
  }
  param {
    lr_mult: 2
    decay_mult: 0
  }
  convolution_param {
    num_output: 128
    pad: 1
    kernel_size: 3
    weight_filler {
      type: "xavier"
      std: 0.03
    }
    bias_filler {
      type: "constant"
      value: 0.2
    }
  }
}
layer {
  name: "inception_3a/relu_3x3"
  type: "ReLU"
  bottom: "inception_3a/3x3"
  top: "inception_3a/3x3"
}
layer {
  name: "inception_3a/5x5_reduce"
  type: "Convolution"
  bottom: "pool2/3x3_s2"
  top: "inception_3a/5x5_reduce"
  param {
    lr_mult: 1
    decay_mult: 1
  }
  param {
    lr_mult: 2
    decay_mult: 0
  }
  convolution_param {
    num_output: 16
    kernel_size: 1
    weight_filler {
      type: "xavier"
      std: 0.2
    }
    bias_filler {
      type: "constant"
      value: 0.2
    }
  }
}
layer {
  name: "inception_3a/relu_5x5_reduce"
  type: "ReLU"
  bottom: "inception_3a/5x5_reduce"
  top: "inception_3a/5x5_reduce"
}
layer {
  name: "inception_3a/5x5"
  type: "Convolution"
  bottom: "inception_3a/5x5_reduce"
  top: "inception_3a/5x5"
  param {
    lr_mult: 1
    decay_mult: 1
  }
  param {
    lr_mult: 2
    decay_mult: 0
  }
  convolution_param {
    num_output: 32
    pad: 2
    kernel_size: 5
    weight_filler {
      type: "xavier"
      std: 0.03
    }
    bias_filler {
      type: "constant"
      value: 0.2
    }
  }
}
layer {
  name: "inception_3a/relu_5x5"
  type: "ReLU"
  bottom: "inception_3a/5x5"
  top: "inception_3a/5x5"
}
layer {
  name: "inception_3a/pool"
  type: "Pooling"
  bottom: "pool2/3x3_s2"
  top: "inception_3a/pool"
  pooling_param {
    pool: MAX
    kernel_size: 3
    stride: 1
    pad: 1
  }
}
layer {
  name: "inception_3a/pool_proj"
  type: "Convolution"
  bottom: "inception_3a/pool"
  top: "inception_3a/pool_proj"
  param {
    lr_mult: 1
    decay_mult: 1
  }
  param {
    lr_mult: 2
    decay_mult: 0
  }
  convolution_param {
    num_output: 32
    kernel_size: 1
    weight_filler {
      type: "xavier"
      std: 0.1
    }
    bias_filler {
      type: "constant"
      value: 0.2
    }
  }
}
layer {
  name: "inception_3a/relu_pool_proj"
  type: "ReLU"
  bottom: "inception_3a/pool_proj"
  top: "inception_3a/pool_proj"
}
layer {
  name: "inception_3a/output"
  type: "Concat"
  bottom: "inception_3a/1x1"
  bottom: "inception_3a/3x3"
  bottom: "inception_3a/5x5"
  bottom: "inception_3a/pool_proj"
  top: "inception_3a/output"
}
layer {
  name: "inception_3b/1x1"
  type: "Convolution"
  bottom: "inception_3a/output"
  top: "inception_3b/1x1"
  param {
    lr_mult: 1
    decay_mult: 1
  }
  param {
    lr_mult: 2
    decay_mult: 0
  }
  convolution_param {
    num_output: 128
    kernel_size: 1
    weight_filler {
      type: "xavier"
      std: 0.03
    }
    bias_filler {
      type: "constant"
      value: 0.2
    }
  }
}
layer {
  name: "inception_3b/relu_1x1"
  type: "ReLU"
  bottom: "inception_3b/1x1"
  top: "inception_3b/1x1"
}
layer {
  name: "inception_3b/3x3_reduce"
  type: "Convolution"
  bottom: "inception_3a/output"
  top: "inception_3b/3x3_reduce"
  param {
    lr_mult: 1
    decay_mult: 1
  }
  param {
    lr_mult: 2
    decay_mult: 0
  }
  convolution_param {
    num_output: 128
    kernel_size: 1
    weight_filler {
      type: "xavier"
      std: 0.09
    }
    bias_filler {
      type: "constant"
      value: 0.2
    }
  }
}
layer {
  name: "inception_3b/relu_3x3_reduce"
  type: "ReLU"
  bottom: "inception_3b/3x3_reduce"
  top: "inception_3b/3x3_reduce"
}
layer {
  name: "inception_3b/3x3"
  type: "Convolution"
  bottom: "inception_3b/3x3_reduce"
  top: "inception_3b/3x3"
  param {
    lr_mult: 1
    decay_mult: 1
  }
  param {
    lr_mult: 2
    decay_mult: 0
  }
  convolution_param {
    num_output: 192
    pad: 1
    kernel_size: 3
    weight_filler {
      type: "xavier"
      std: 0.03
    }
    bias_filler {
      type: "constant"
      value: 0.2
    }
  }
}
layer {
  name: "inception_3b/relu_3x3"
  type: "ReLU"
  bottom: "inception_3b/3x3"
  top: "inception_3b/3x3"
}
layer {
  name: "inception_3b/5x5_reduce"
  type: "Convolution"
  bottom: "inception_3a/output"
  top: "inception_3b/5x5_reduce"
  param {
    lr_mult: 1
    decay_mult: 1
  }
  param {
    lr_mult: 2
    decay_mult: 0
  }
  convolution_param {
    num_output: 32
    kernel_size: 1
    weight_filler {
      type: "xavier"
      std: 0.2
    }
    bias_filler {
      type: "constant"
      value: 0.2
    }
  }
}
layer {
  name: "inception_3b/relu_5x5_reduce"
  type: "ReLU"
  bottom: "inception_3b/5x5_reduce"
  top: "inception_3b/5x5_reduce"
}
layer {
  name: "inception_3b/5x5"
  type: "Convolution"
  bottom: "inception_3b/5x5_reduce"
  top: "inception_3b/5x5"
  param {
    lr_mult: 1
    decay_mult: 1
  }
  param {
    lr_mult: 2
    decay_mult: 0
  }
  convolution_param {
    num_output: 96
    pad: 2
    kernel_size: 5
    weight_filler {
      type: "xavier"
      std: 0.03
    }
    bias_filler {
      type: "constant"
      value: 0.2
    }
  }
}
layer {
  name: "inception_3b/relu_5x5"
  type: "ReLU"
  bottom: "inception_3b/5x5"
  top: "inception_3b/5x5"
}
layer {
  name: "inception_3b/pool"
  type: "Pooling"
  bottom: "inception_3a/output"
  top: "inception_3b/pool"
  pooling_param {
    pool: MAX
    kernel_size: 3
    stride: 1
    pad: 1
  }
}
layer {
  name: "inception_3b/pool_proj"
  type: "Convolution"
  bottom: "inception_3b/pool"
  top: "inception_3b/pool_proj"
  param {
    lr_mult: 1
    decay_mult: 1
  }
  param {
    lr_mult: 2
    decay_mult: 0
  }
  convolution_param {
    num_output: 64
    kernel_size: 1
    weight_filler {
      type: "xavier"
      std: 0.1
    }
    bias_filler {
      type: "constant"
      value: 0.2
    }
  }
}
layer {
  name: "inception_3b/relu_pool_proj"
  type: "ReLU"
  bottom: "inception_3b/pool_proj"
  top: "inception_3b/pool_proj"
}
layer {
  name: "inception_3b/output"
  type: "Concat"
  bottom: "inception_3b/1x1"
  bottom: "inception_3b/3x3"
  bottom: "inception_3b/5x5"
  bottom: "inception_3b/pool_proj"
  top: "inception_3b/output"
}
layer {
  name: "pool3/3x3_s2"
  type: "Pooling"
  bottom: "inception_3b/output"
  top: "pool3/3x3_s2"
  pooling_param {
    pool: MAX
    kernel_size: 3
    stride: 2
  }
}
layer {
  name: "inception_4a/1x1"
  type: "Convolution"
  bottom: "pool3/3x3_s2"
  top: "inception_4a/1x1"
  param {
    lr_mult: 1
    decay_mult: 1
  }
  param {
    lr_mult: 2
    decay_mult: 0
  }
  convolution_param {
    num_output: 192
    kernel_size: 1
    weight_filler {
      type: "xavier"
      std: 0.03
    }
    bias_filler {
      type: "constant"
      value: 0.2
    }
  }
}
layer {
  name: "inception_4a/relu_1x1"
  type: "ReLU"
  bottom: "inception_4a/1x1"
  top: "inception_4a/1x1"
}
layer {
  name: "inception_4a/3x3_reduce"
  type: "Convolution"
  bottom: "pool3/3x3_s2"
  top: "inception_4a/3x3_reduce"
  param {
    lr_mult: 1
    decay_mult: 1
  }
  param {
    lr_mult: 2
    decay_mult: 0
  }
  convolution_param {
    num_output: 96
    kernel_size: 1
    weight_filler {
      type: "xavier"
      std: 0.09
    }
    bias_filler {
      type: "constant"
      value: 0.2
    }
  }
}
layer {
  name: "inception_4a/relu_3x3_reduce"
  type: "ReLU"
  bottom: "inception_4a/3x3_reduce"
  top: "inception_4a/3x3_reduce"
}
layer {
  name: "inception_4a/3x3"
  type: "Convolution"
  bottom: "inception_4a/3x3_reduce"
  top: "inception_4a/3x3"
  param {
    lr_mult: 1
    decay_mult: 1
  }
  param {
    lr_mult: 2
    decay_mult: 0
  }
  convolution_param {
    num_output: 208
    pad: 1
    kernel_size: 3
    weight_filler {
      type: "xavier"
      std: 0.03
    }
    bias_filler {
      type: "constant"
      value: 0.2
    }
  }
}
layer {
  name: "inception_4a/relu_3x3"
  type: "ReLU"
  bottom: "inception_4a/3x3"
  top: "inception_4a/3x3"
}
layer {
  name: "inception_4a/5x5_reduce"
  type: "Convolution"
  bottom: "pool3/3x3_s2"
  top: "inception_4a/5x5_reduce"
  param {
    lr_mult: 1
    decay_mult: 1
  }
  param {
    lr_mult: 2
    decay_mult: 0
  }
  convolution_param {
    num_output: 16
    kernel_size: 1
    weight_filler {
      type: "xavier"
      std: 0.2
    }
    bias_filler {
      type: "constant"
      value: 0.2
    }
  }
}
layer {
  name: "inception_4a/relu_5x5_reduce"
  type: "ReLU"
  bottom: "inception_4a/5x5_reduce"
  top: "inception_4a/5x5_reduce"
}
layer {
  name: "inception_4a/5x5"
  type: "Convolution"
  bottom: "inception_4a/5x5_reduce"
  top: "inception_4a/5x5"
  param {
    lr_mult: 1
    decay_mult: 1
  }
  param {
    lr_mult: 2
    decay_mult: 0
  }
  convolution_param {
    num_output: 48
    pad: 2
    kernel_size: 5
    weight_filler {
      type: "xavier"
      std: 0.03
    }
    bias_filler {
      type: "constant"
      value: 0.2
    }
  }
}
layer {
  name: "inception_4a/relu_5x5"
  type: "ReLU"
  bottom: "inception_4a/5x5"
  top: "inception_4a/5x5"
}
layer {
  name: "inception_4a/pool"
  type: "Pooling"
  bottom: "pool3/3x3_s2"
  top: "inception_4a/pool"
  pooling_param {
    pool: MAX
    kernel_size: 3
    stride: 1
    pad: 1
  }
}
layer {
  name: "inception_4a/pool_proj"
  type: "Convolution"
  bottom: "inception_4a/pool"
  top: "inception_4a/pool_proj"
  param {
    lr_mult: 1
    decay_mult: 1
  }
  param {
    lr_mult: 2
    decay_mult: 0
  }
  convolution_param {
    num_output: 64
    kernel_size: 1
    weight_filler {
      type: "xavier"
      std: 0.1
    }
    bias_filler {
      type: "constant"
      value: 0.2
    }
  }
}
layer {
  name: "inception_4a/relu_pool_proj"
  type: "ReLU"
  bottom: "inception_4a/pool_proj"
  top: "inception_4a/pool_proj"
}
layer {
  name: "inception_4a/output"
  type: "Concat"
  bottom: "inception_4a/1x1"
  bottom: "inception_4a/3x3"
  bottom: "inception_4a/5x5"
  bottom: "inception_4a/pool_proj"
  top: "inception_4a/output"
}
layer {
  name: "loss1/ave_pool"
  type: "Pooling"
  bottom: "inception_4a/output"
  top: "loss1/ave_pool"
  pooling_param {
    pool: AVE
    kernel_size: 5
    stride: 3
  }
}
layer {
  name: "loss1/conv"
  type: "Convolution"
  bottom: "loss1/ave_pool"
  top: "loss1/conv"
  param {
    lr_mult: 1
    decay_mult: 1
  }
  param {
    lr_mult: 2
    decay_mult: 0
  }
  convolution_param {
    num_output: 128
    kernel_size: 1
    weight_filler {
      type: "xavier"
      std: 0.08
    }
    bias_filler {
      type: "constant"
      value: 0.2
    }
  }
}
layer {
  name: "loss1/relu_conv"
  type: "ReLU"
  bottom: "loss1/conv"
  top: "loss1/conv"
}
layer {
  name: "loss1/fc"
  type: "InnerProduct"
  bottom: "loss1/conv"
  top: "loss1/fc"
  param {
    lr_mult: 1
    decay_mult: 1
  }
  param {
    lr_mult: 2
    decay_mult: 0
  }
  inner_product_param {
    num_output: 1024
    weight_filler {
      type: "xavier"
      std: 0.02
    }
    bias_filler {
      type: "constant"
      value: 0.2
    }
  }
}
layer {
  name: "loss1/relu_fc"
  type: "ReLU"
  bottom: "loss1/fc"
  top: "loss1/fc"
}
layer {
  name: "loss1/drop_fc"
  type: "Dropout"
  bottom: "loss1/fc"
  top: "loss1/fc"
  dropout_param {
    dropout_ratio: 0.7
  }
}
layer {
  name: "loss1/classifier_plantvillage"
  type: "InnerProduct"
  bottom: "loss1/fc"
  top: "loss1/classifier_plantvillage"
  param {
    lr_mult: 1
    decay_mult: 1
  }
  param {
    lr_mult: 2
    decay_mult: 0
  }
  inner_product_param {
    num_output: 38
    weight_filler {
      type: "xavier"
      std: 0.0009765625
    }
    bias_filler {
      type: "constant"
      value: 0
    }
  }
}
layer {
  name: "inception_4b/1x1"
  type: "Convolution"
  bottom: "inception_4a/output"
  top: "inception_4b/1x1"
  param {
    lr_mult: 1
    decay_mult: 1
  }
  param {
    lr_mult: 2
    decay_mult: 0
  }
  convolution_param {
    num_output: 160
    kernel_size: 1
    weight_filler {
      type: "xavier"
      std: 0.03
    }
    bias_filler {
      type: "constant"
      value: 0.2
    }
  }
}
layer {
  name: "inception_4b/relu_1x1"
  type: "ReLU"
  bottom: "inception_4b/1x1"
  top: "inception_4b/1x1"
}
layer {
  name: "inception_4b/3x3_reduce"
  type: "Convolution"
  bottom: "inception_4a/output"
  top: "inception_4b/3x3_reduce"
  param {
    lr_mult: 1
    decay_mult: 1
  }
  param {
    lr_mult: 2
    decay_mult: 0
  }
  convolution_param {
    num_output: 112
    kernel_size: 1
    weight_filler {
      type: "xavier"
      std: 0.09
    }
    bias_filler {
      type: "constant"
      value: 0.2
    }
  }
}
layer {
  name: "inception_4b/relu_3x3_reduce"
  type: "ReLU"
  bottom: "inception_4b/3x3_reduce"
  top: "inception_4b/3x3_reduce"
}
layer {
  name: "inception_4b/3x3"
  type: "Convolution"
  bottom: "inception_4b/3x3_reduce"
  top: "inception_4b/3x3"
  param {
    lr_mult: 1
    decay_mult: 1
  }
  param {
    lr_mult: 2
    decay_mult: 0
  }
  convolution_param {
    num_output: 224
    pad: 1
    kernel_size: 3
    weight_filler {
      type: "xavier"
      std: 0.03
    }
    bias_filler {
      type: "constant"
      value: 0.2
    }
  }
}
layer {
  name: "inception_4b/relu_3x3"
  type: "ReLU"
  bottom: "inception_4b/3x3"
  top: "inception_4b/3x3"
}
layer {
  name: "inception_4b/5x5_reduce"
  type: "Convolution"
  bottom: "inception_4a/output"
  top: "inception_4b/5x5_reduce"
  param {
    lr_mult: 1
    decay_mult: 1
  }
  param {
    lr_mult: 2
    decay_mult: 0
  }
  convolution_param {
    num_output: 24
    kernel_size: 1
    weight_filler {
      type: "xavier"
      std: 0.2
    }
    bias_filler {
      type: "constant"
      value: 0.2
    }
  }
}
layer {
  name: "inception_4b/relu_5x5_reduce"
  type: "ReLU"
  bottom: "inception_4b/5x5_reduce"
  top: "inception_4b/5x5_reduce"
}
layer {
  name: "inception_4b/5x5"
  type: "Convolution"
  bottom: "inception_4b/5x5_reduce"
  top: "inception_4b/5x5"
  param {
    lr_mult: 1
    decay_mult: 1
  }
  param {
    lr_mult: 2
    decay_mult: 0
  }
  convolution_param {
    num_output: 64
    pad: 2
    kernel_size: 5
    weight_filler {
      type: "xavier"
      std: 0.03
    }
    bias_filler {
      type: "constant"
      value: 0.2
    }
  }
}
layer {
  name: "inception_4b/relu_5x5"
  type: "ReLU"
  bottom: "inception_4b/5x5"
  top: "inception_4b/5x5"
}
layer {
  name: "inception_4b/pool"
  type: "Pooling"
  bottom: "inception_4a/output"
  top: "inception_4b/pool"
  pooling_param {
    pool: MAX
    kernel_size: 3
    stride: 1
    pad: 1
  }
}
layer {
  name: "inception_4b/pool_proj"
  type: "Convolution"
  bottom: "inception_4b/pool"
  top: "inception_4b/pool_proj"
  param {
    lr_mult: 1
    decay_mult: 1
  }
  param {
    lr_mult: 2
    decay_mult: 0
  }
  convolution_param {
    num_output: 64
    kernel_size: 1
    weight_filler {
      type: "xavier"
      std: 0.1
    }
    bias_filler {
      type: "constant"
      value: 0.2
    }
  }
}
layer {
  name: "inception_4b/relu_pool_proj"
  type: "ReLU"
  bottom: "inception_4b/pool_proj"
  top: "inception_4b/pool_proj"
}
layer {
  name: "inception_4b/output"
  type: "Concat"
  bottom: "inception_4b/1x1"
  bottom: "inception_4b/3x3"
  bottom: "inception_4b/5x5"
  bottom: "inception_4b/pool_proj"
  top: "inception_4b/output"
}
layer {
  name: "inception_4c/1x1"
  type: "Convolution"
  bottom: "inception_4b/output"
  top: "inception_4c/1x1"
  param {
    lr_mult: 1
    decay_mult: 1
  }
  param {
    lr_mult: 2
    decay_mult: 0
  }
  convolution_param {
    num_output: 128
    kernel_size: 1
    weight_filler {
      type: "xavier"
      std: 0.03
    }
    bias_filler {
      type: "constant"
      value: 0.2
    }
  }
}
layer {
  name: "inception_4c/relu_1x1"
  type: "ReLU"
  bottom: "inception_4c/1x1"
  top: "inception_4c/1x1"
}
layer {
  name: "inception_4c/3x3_reduce"
  type: "Convolution"
  bottom: "inception_4b/output"
  top: "inception_4c/3x3_reduce"
  param {
    lr_mult: 1
    decay_mult: 1
  }
  param {
    lr_mult: 2
    decay_mult: 0
  }
  convolution_param {
    num_output: 128
    kernel_size: 1
    weight_filler {
      type: "xavier"
      std: 0.09
    }
    bias_filler {
      type: "constant"
      value: 0.2
    }
  }
}
layer {
  name: "inception_4c/relu_3x3_reduce"
  type: "ReLU"
  bottom: "inception_4c/3x3_reduce"
  top: "inception_4c/3x3_reduce"
}
layer {
  name: "inception_4c/3x3"
  type: "Convolution"
  bottom: "inception_4c/3x3_reduce"
  top: "inception_4c/3x3"
  param {
    lr_mult: 1
    decay_mult: 1
  }
  param {
    lr_mult: 2
    decay_mult: 0
  }
  convolution_param {
    num_output: 256
    pad: 1
    kernel_size: 3
    weight_filler {
      type: "xavier"
      std: 0.03
    }
    bias_filler {
      type: "constant"
      value: 0.2
    }
  }
}
layer {
  name: "inception_4c/relu_3x3"
  type: "ReLU"
  bottom: "inception_4c/3x3"
  top: "inception_4c/3x3"
}
layer {
  name: "inception_4c/5x5_reduce"
  type: "Convolution"
  bottom: "inception_4b/output"
  top: "inception_4c/5x5_reduce"
  param {
    lr_mult: 1
    decay_mult: 1
  }
  param {
    lr_mult: 2
    decay_mult: 0
  }
  convolution_param {
    num_output: 24
    kernel_size: 1
    weight_filler {
      type: "xavier"
      std: 0.2
    }
    bias_filler {
      type: "constant"
      value: 0.2
    }
  }
}
layer {
  name: "inception_4c/relu_5x5_reduce"
  type: "ReLU"
  bottom: "inception_4c/5x5_reduce"
  top: "inception_4c/5x5_reduce"
}
layer {
  name: "inception_4c/5x5"
  type: "Convolution"
  bottom: "inception_4c/5x5_reduce"
  top: "inception_4c/5x5"
  param {
    lr_mult: 1
    decay_mult: 1
  }
  param {
    lr_mult: 2
    decay_mult: 0
  }
  convolution_param {
    num_output: 64
    pad: 2
    kernel_size: 5
    weight_filler {
      type: "xavier"
      std: 0.03
    }
    bias_filler {
      type: "constant"
      value: 0.2
    }
  }
}
layer {
  name: "inception_4c/relu_5x5"
  type: "ReLU"
  bottom: "inception_4c/5x5"
  top: "inception_4c/5x5"
}
layer {
  name: "inception_4c/pool"
  type: "Pooling"
  bottom: "inception_4b/output"
  top: "inception_4c/pool"
  pooling_param {
    pool: MAX
    kernel_size: 3
    stride: 1
    pad: 1
  }
}
layer {
  name: "inception_4c/pool_proj"
  type: "Convolution"
  bottom: "inception_4c/pool"
  top: "inception_4c/pool_proj"
  param {
    lr_mult: 1
    decay_mult: 1
  }
  param {
    lr_mult: 2
    decay_mult: 0
  }
  convolution_param {
    num_output: 64
    kernel_size: 1
    weight_filler {
      type: "xavier"
      std: 0.1
    }
    bias_filler {
      type: "constant"
      value: 0.2
    }
  }
}
layer {
  name: "inception_4c/relu_pool_proj"
  type: "ReLU"
  bottom: "inception_4c/pool_proj"
  top: "inception_4c/pool_proj"
}
layer {
  name: "inception_4c/output"
  type: "Concat"
  bottom: "inception_4c/1x1"
  bottom: "inception_4c/3x3"
  bottom: "inception_4c/5x5"
  bottom: "inception_4c/pool_proj"
  top: "inception_4c/output"
}
layer {
  name: "inception_4d/1x1"
  type: "Convolution"
  bottom: "inception_4c/output"
  top: "inception_4d/1x1"
  param {
    lr_mult: 1
    decay_mult: 1
  }
  param {
    lr_mult: 2
    decay_mult: 0
  }
  convolution_param {
    num_output: 112
    kernel_size: 1
    weight_filler {
      type: "xavier"
      std: 0.03
    }
    bias_filler {
      type: "constant"
      value: 0.2
    }
  }
}
layer {
  name: "inception_4d/relu_1x1"
  type: "ReLU"
  bottom: "inception_4d/1x1"
  top: "inception_4d/1x1"
}
layer {
  name: "inception_4d/3x3_reduce"
  type: "Convolution"
  bottom: "inception_4c/output"
  top: "inception_4d/3x3_reduce"
  param {
    lr_mult: 1
    decay_mult: 1
  }
  param {
    lr_mult: 2
    decay_mult: 0
  }
  convolution_param {
    num_output: 144
    kernel_size: 1
    weight_filler {
      type: "xavier"
      std: 0.09
    }
    bias_filler {
      type: "constant"
      value: 0.2
    }
  }
}
layer {
  name: "inception_4d/relu_3x3_reduce"
  type: "ReLU"
  bottom: "inception_4d/3x3_reduce"
  top: "inception_4d/3x3_reduce"
}
layer {
  name: "inception_4d/3x3"
  type: "Convolution"
  bottom: "inception_4d/3x3_reduce"
  top: "inception_4d/3x3"
  param {
    lr_mult: 1
    decay_mult: 1
  }
  param {
    lr_mult: 2
    decay_mult: 0
  }
  convolution_param {
    num_output: 288
    pad: 1
    kernel_size: 3
    weight_filler {
      type: "xavier"
      std: 0.03
    }
    bias_filler {
      type: "constant"
      value: 0.2
    }
  }
}
layer {
  name: "inception_4d/relu_3x3"
  type: "ReLU"
  bottom: "inception_4d/3x3"
  top: "inception_4d/3x3"
}
layer {
  name: "inception_4d/5x5_reduce"
  type: "Convolution"
  bottom: "inception_4c/output"
  top: "inception_4d/5x5_reduce"
  param {
    lr_mult: 1
    decay_mult: 1
  }
  param {
    lr_mult: 2
    decay_mult: 0
  }
  convolution_param {
    num_output: 32
    kernel_size: 1
    weight_filler {
      type: "xavier"
      std: 0.2
    }
    bias_filler {
      type: "constant"
      value: 0.2
    }
  }
}
layer {
  name: "inception_4d/relu_5x5_reduce"
  type: "ReLU"
  bottom: "inception_4d/5x5_reduce"
  top: "inception_4d/5x5_reduce"
}
layer {
  name: "inception_4d/5x5"
  type: "Convolution"
  bottom: "inception_4d/5x5_reduce"
  top: "inception_4d/5x5"
  param {
    lr_mult: 1
    decay_mult: 1
  }
  param {
    lr_mult: 2
    decay_mult: 0
  }
  convolution_param {
    num_output: 64
    pad: 2
    kernel_size: 5
    weight_filler {
      type: "xavier"
      std: 0.03
    }
    bias_filler {
      type: "constant"
      value: 0.2
    }
  }
}
layer {
  name: "inception_4d/relu_5x5"
  type: "ReLU"
  bottom: "inception_4d/5x5"
  top: "inception_4d/5x5"
}
layer {
  name: "inception_4d/pool"
  type: "Pooling"
  bottom: "inception_4c/output"
  top: "inception_4d/pool"
  pooling_param {
    pool: MAX
    kernel_size: 3
    stride: 1
    pad: 1
  }
}
layer {
  name: "inception_4d/pool_proj"
  type: "Convolution"
  bottom: "inception_4d/pool"
  top: "inception_4d/pool_proj"
  param {
    lr_mult: 1
    decay_mult: 1
  }
  param {
    lr_mult: 2
    decay_mult: 0
  }
  convolution_param {
    num_output: 64
    kernel_size: 1
    weight_filler {
      type: "xavier"
      std: 0.1
    }
    bias_filler {
      type: "constant"
      value: 0.2
    }
  }
}
layer {
  name: "inception_4d/relu_pool_proj"
  type: "ReLU"
  bottom: "inception_4d/pool_proj"
  top: "inception_4d/pool_proj"
}
layer {
  name: "inception_4d/output"
  type: "Concat"
  bottom: "inception_4d/1x1"
  bottom: "inception_4d/3x3"
  bottom: "inception_4d/5x5"
  bottom: "inception_4d/pool_proj"
  top: "inception_4d/output"
}
layer {
  name: "loss2/ave_pool"
  type: "Pooling"
  bottom: "inception_4d/output"
  top: "loss2/ave_pool"
  pooling_param {
    pool: AVE
    kernel_size: 5
    stride: 3
  }
}
layer {
  name: "loss2/conv"
  type: "Convolution"
  bottom: "loss2/ave_pool"
  top: "loss2/conv"
  param {
    lr_mult: 1
    decay_mult: 1
  }
  param {
    lr_mult: 2
    decay_mult: 0
  }
  convolution_param {
    num_output: 128
    kernel_size: 1
    weight_filler {
      type: "xavier"
      std: 0.08
    }
    bias_filler {
      type: "constant"
      value: 0.2
    }
  }
}
layer {
  name: "loss2/relu_conv"
  type: "ReLU"
  bottom: "loss2/conv"
  top: "loss2/conv"
}
layer {
  name: "loss2/fc"
  type: "InnerProduct"
  bottom: "loss2/conv"
  top: "loss2/fc"
  param {
    lr_mult: 1
    decay_mult: 1
  }
  param {
    lr_mult: 2
    decay_mult: 0
  }
  inner_product_param {
    num_output: 1024
    weight_filler {
      type: "xavier"
      std: 0.02
    }
    bias_filler {
      type: "constant"
      value: 0.2
    }
  }
}
layer {
  name: "loss2/relu_fc"
  type: "ReLU"
  bottom: "loss2/fc"
  top: "loss2/fc"
}
layer {
  name: "loss2/drop_fc"
  type: "Dropout"
  bottom: "loss2/fc"
  top: "loss2/fc"
  dropout_param {
    dropout_ratio: 0.7
  }
}
layer {
  name: "loss2/classifier_plantvillage"
  type: "InnerProduct"
  bottom: "loss2/fc"
  top: "loss2/classifier_plantvillage"
  param {
    lr_mult: 1
    decay_mult: 1
  }
  param {
    lr_mult: 2
    decay_mult: 0
  }
  inner_product_param {
    num_output: 38
    weight_filler {
      type: "xavier"
      std: 0.0009765625
    }
    bias_filler {
      type: "constant"
      value: 0
    }
  }
}
layer {
  name: "inception_4e/1x1"
  type: "Convolution"
  bottom: "inception_4d/output"
  top: "inception_4e/1x1"
  param {
    lr_mult: 1
    decay_mult: 1
  }
  param {
    lr_mult: 2
    decay_mult: 0
  }
  convolution_param {
    num_output: 256
    kernel_size: 1
    weight_filler {
      type: "xavier"
      std: 0.03
    }
    bias_filler {
      type: "constant"
      value: 0.2
    }
  }
}
layer {
  name: "inception_4e/relu_1x1"
  type: "ReLU"
  bottom: "inception_4e/1x1"
  top: "inception_4e/1x1"
}
layer {
  name: "inception_4e/3x3_reduce"
  type: "Convolution"
  bottom: "inception_4d/output"
  top: "inception_4e/3x3_reduce"
  param {
    lr_mult: 1
    decay_mult: 1
  }
  param {
    lr_mult: 2
    decay_mult: 0
  }
  convolution_param {
    num_output: 160
    kernel_size: 1
    weight_filler {
      type: "xavier"
      std: 0.09
    }
    bias_filler {
      type: "constant"
      value: 0.2
    }
  }
}
layer {
  name: "inception_4e/relu_3x3_reduce"
  type: "ReLU"
  bottom: "inception_4e/3x3_reduce"
  top: "inception_4e/3x3_reduce"
}
layer {
  name: "inception_4e/3x3"
  type: "Convolution"
  bottom: "inception_4e/3x3_reduce"
  top: "inception_4e/3x3"
  param {
    lr_mult: 1
    decay_mult: 1
  }
  param {
    lr_mult: 2
    decay_mult: 0
  }
  convolution_param {
    num_output: 320
    pad: 1
    kernel_size: 3
    weight_filler {
      type: "xavier"
      std: 0.03
    }
    bias_filler {
      type: "constant"
      value: 0.2
    }
  }
}
layer {
  name: "inception_4e/relu_3x3"
  type: "ReLU"
  bottom: "inception_4e/3x3"
  top: "inception_4e/3x3"
}
layer {
  name: "inception_4e/5x5_reduce"
  type: "Convolution"
  bottom: "inception_4d/output"
  top: "inception_4e/5x5_reduce"
  param {
    lr_mult: 1
    decay_mult: 1
  }
  param {
    lr_mult: 2
    decay_mult: 0
  }
  convolution_param {
    num_output: 32
    kernel_size: 1
    weight_filler {
      type: "xavier"
      std: 0.2
    }
    bias_filler {
      type: "constant"
      value: 0.2
    }
  }
}
layer {
  name: "inception_4e/relu_5x5_reduce"
  type: "ReLU"
  bottom: "inception_4e/5x5_reduce"
  top: "inception_4e/5x5_reduce"
}
layer {
  name: "inception_4e/5x5"
  type: "Convolution"
  bottom: "inception_4e/5x5_reduce"
  top: "inception_4e/5x5"
  p
I0403 15:26:26.675078 31836 layer_factory.hpp:77] Creating layer data
I0403 15:26:26.675705 31836 net.cpp:91] Creating Layer data
I0403 15:26:26.675739 31836 net.cpp:399] data -> data
I0403 15:26:26.675791 31836 net.cpp:399] data -> label
I0403 15:26:26.675832 31836 data_transformer.cpp:25] Loading mean file from: /home/mohanty/data/final_dataset/lmdb/color-60-40/mean.binaryproto
I0403 15:26:26.678534 31839 db_lmdb.cpp:38] Opened lmdb /home/mohanty/data/final_dataset/lmdb/color-60-40/test_db
I0403 15:26:26.689545 31836 data_layer.cpp:41] output data size: 24,3,224,224
I0403 15:26:26.720325 31836 net.cpp:141] Setting up data
I0403 15:26:26.720412 31836 net.cpp:148] Top shape: 24 3 224 224 (3612672)
I0403 15:26:26.720434 31836 net.cpp:148] Top shape: 24 (24)
I0403 15:26:26.720450 31836 net.cpp:156] Memory required for data: 14450784
I0403 15:26:26.720479 31836 layer_factory.hpp:77] Creating layer label_data_1_split
I0403 15:26:26.720507 31836 net.cpp:91] Creating Layer label_data_1_split
I0403 15:26:26.720526 31836 net.cpp:425] label_data_1_split <- label
I0403 15:26:26.720559 31836 net.cpp:399] label_data_1_split -> label_data_1_split_0
I0403 15:26:26.720587 31836 net.cpp:399] label_data_1_split -> label_data_1_split_1
I0403 15:26:26.720610 31836 net.cpp:399] label_data_1_split -> label_data_1_split_2
I0403 15:26:26.720633 31836 net.cpp:399] label_data_1_split -> label_data_1_split_3
I0403 15:26:26.720654 31836 net.cpp:399] label_data_1_split -> label_data_1_split_4
I0403 15:26:26.720672 31836 net.cpp:399] label_data_1_split -> label_data_1_split_5
I0403 15:26:26.720692 31836 net.cpp:399] label_data_1_split -> label_data_1_split_6
I0403 15:26:26.720713 31836 net.cpp:399] label_data_1_split -> label_data_1_split_7
I0403 15:26:26.720734 31836 net.cpp:399] label_data_1_split -> label_data_1_split_8
I0403 15:26:26.720754 31836 net.cpp:399] label_data_1_split -> label_data_1_split_9
I0403 15:26:26.720872 31836 net.cpp:141] Setting up label_data_1_split
I0403 15:26:26.720896 31836 net.cpp:148] Top shape: 24 (24)
I0403 15:26:26.720914 31836 net.cpp:148] Top shape: 24 (24)
I0403 15:26:26.720930 31836 net.cpp:148] Top shape: 24 (24)
I0403 15:26:26.720947 31836 net.cpp:148] Top shape: 24 (24)
I0403 15:26:26.720963 31836 net.cpp:148] Top shape: 24 (24)
I0403 15:26:26.720979 31836 net.cpp:148] Top shape: 24 (24)
I0403 15:26:26.720996 31836 net.cpp:148] Top shape: 24 (24)
I0403 15:26:26.721014 31836 net.cpp:148] Top shape: 24 (24)
I0403 15:26:26.721030 31836 net.cpp:148] Top shape: 24 (24)
I0403 15:26:26.721046 31836 net.cpp:148] Top shape: 24 (24)
I0403 15:26:26.721091 31836 net.cpp:156] Memory required for data: 14451744
I0403 15:26:26.721109 31836 layer_factory.hpp:77] Creating layer conv1/7x7_s2
I0403 15:26:26.721141 31836 net.cpp:91] Creating Layer conv1/7x7_s2
I0403 15:26:26.721160 31836 net.cpp:425] conv1/7x7_s2 <- data
I0403 15:26:26.721181 31836 net.cpp:399] conv1/7x7_s2 -> conv1/7x7_s2
I0403 15:26:26.868541 31836 net.cpp:141] Setting up conv1/7x7_s2
I0403 15:26:26.868620 31836 net.cpp:148] Top shape: 24 64 112 112 (19267584)
I0403 15:26:26.868638 31836 net.cpp:156] Memory required for data: 91522080
I0403 15:26:26.868671 31836 layer_factory.hpp:77] Creating layer conv1/relu_7x7
I0403 15:26:26.868700 31836 net.cpp:91] Creating Layer conv1/relu_7x7
I0403 15:26:26.868721 31836 net.cpp:425] conv1/relu_7x7 <- conv1/7x7_s2
I0403 15:26:26.868741 31836 net.cpp:386] conv1/relu_7x7 -> conv1/7x7_s2 (in-place)
I0403 15:26:26.869001 31836 net.cpp:141] Setting up conv1/relu_7x7
I0403 15:26:26.869030 31836 net.cpp:148] Top shape: 24 64 112 112 (19267584)
I0403 15:26:26.869047 31836 net.cpp:156] Memory required for data: 168592416
I0403 15:26:26.869063 31836 layer_factory.hpp:77] Creating layer pool1/3x3_s2
I0403 15:26:26.869089 31836 net.cpp:91] Creating Layer pool1/3x3_s2
I0403 15:26:26.869109 31836 net.cpp:425] pool1/3x3_s2 <- conv1/7x7_s2
I0403 15:26:26.869129 31836 net.cpp:399] pool1/3x3_s2 -> pool1/3x3_s2
I0403 15:26:26.869204 31836 net.cpp:141] Setting up pool1/3x3_s2
I0403 15:26:26.869230 31836 net.cpp:148] Top shape: 24 64 56 56 (4816896)
I0403 15:26:26.869246 31836 net.cpp:156] Memory required for data: 187860000
I0403 15:26:26.869262 31836 layer_factory.hpp:77] Creating layer pool1/norm1
I0403 15:26:26.869292 31836 net.cpp:91] Creating Layer pool1/norm1
I0403 15:26:26.869312 31836 net.cpp:425] pool1/norm1 <- pool1/3x3_s2
I0403 15:26:26.869331 31836 net.cpp:399] pool1/norm1 -> pool1/norm1
I0403 15:26:26.869676 31836 net.cpp:141] Setting up pool1/norm1
I0403 15:26:26.869704 31836 net.cpp:148] Top shape: 24 64 56 56 (4816896)
I0403 15:26:26.869721 31836 net.cpp:156] Memory required for data: 207127584
I0403 15:26:26.869737 31836 layer_factory.hpp:77] Creating layer conv2/3x3_reduce
I0403 15:26:26.869763 31836 net.cpp:91] Creating Layer conv2/3x3_reduce
I0403 15:26:26.869781 31836 net.cpp:425] conv2/3x3_reduce <- pool1/norm1
I0403 15:26:26.869802 31836 net.cpp:399] conv2/3x3_reduce -> conv2/3x3_reduce
I0403 15:26:26.871140 31836 net.cpp:141] Setting up conv2/3x3_reduce
I0403 15:26:26.871198 31836 net.cpp:148] Top shape: 24 64 56 56 (4816896)
I0403 15:26:26.871215 31836 net.cpp:156] Memory required for data: 226395168
I0403 15:26:26.871238 31836 layer_factory.hpp:77] Creating layer conv2/relu_3x3_reduce
I0403 15:26:26.871259 31836 net.cpp:91] Creating Layer conv2/relu_3x3_reduce
I0403 15:26:26.871276 31836 net.cpp:425] conv2/relu_3x3_reduce <- conv2/3x3_reduce
I0403 15:26:26.871314 31836 net.cpp:386] conv2/relu_3x3_reduce -> conv2/3x3_reduce (in-place)
I0403 15:26:26.871603 31836 net.cpp:141] Setting up conv2/relu_3x3_reduce
I0403 15:26:26.871631 31836 net.cpp:148] Top shape: 24 64 56 56 (4816896)
I0403 15:26:26.871646 31836 net.cpp:156] Memory required for data: 245662752
I0403 15:26:26.871664 31836 layer_factory.hpp:77] Creating layer conv2/3x3
I0403 15:26:26.871690 31836 net.cpp:91] Creating Layer conv2/3x3
I0403 15:26:26.871708 31836 net.cpp:425] conv2/3x3 <- conv2/3x3_reduce
I0403 15:26:26.871728 31836 net.cpp:399] conv2/3x3 -> conv2/3x3
I0403 15:26:26.874122 31836 net.cpp:141] Setting up conv2/3x3
I0403 15:26:26.874155 31836 net.cpp:148] Top shape: 24 192 56 56 (14450688)
I0403 15:26:26.874172 31836 net.cpp:156] Memory required for data: 303465504
I0403 15:26:26.874196 31836 layer_factory.hpp:77] Creating layer conv2/relu_3x3
I0403 15:26:26.874217 31836 net.cpp:91] Creating Layer conv2/relu_3x3
I0403 15:26:26.874235 31836 net.cpp:425] conv2/relu_3x3 <- conv2/3x3
I0403 15:26:26.874254 31836 net.cpp:386] conv2/relu_3x3 -> conv2/3x3 (in-place)
I0403 15:26:26.874444 31836 net.cpp:141] Setting up conv2/relu_3x3
I0403 15:26:26.874472 31836 net.cpp:148] Top shape: 24 192 56 56 (14450688)
I0403 15:26:26.874519 31836 net.cpp:156] Memory required for data: 361268256
I0403 15:26:26.874537 31836 layer_factory.hpp:77] Creating layer conv2/norm2
I0403 15:26:26.874557 31836 net.cpp:91] Creating Layer conv2/norm2
I0403 15:26:26.874574 31836 net.cpp:425] conv2/norm2 <- conv2/3x3
I0403 15:26:26.874594 31836 net.cpp:399] conv2/norm2 -> conv2/norm2
I0403 15:26:26.874966 31836 net.cpp:141] Setting up conv2/norm2
I0403 15:26:26.874995 31836 net.cpp:148] Top shape: 24 192 56 56 (14450688)
I0403 15:26:26.875011 31836 net.cpp:156] Memory required for data: 419071008
I0403 15:26:26.875028 31836 layer_factory.hpp:77] Creating layer pool2/3x3_s2
I0403 15:26:26.875047 31836 net.cpp:91] Creating Layer pool2/3x3_s2
I0403 15:26:26.875064 31836 net.cpp:425] pool2/3x3_s2 <- conv2/norm2
I0403 15:26:26.875085 31836 net.cpp:399] pool2/3x3_s2 -> pool2/3x3_s2
I0403 15:26:26.875143 31836 net.cpp:141] Setting up pool2/3x3_s2
I0403 15:26:26.875169 31836 net.cpp:148] Top shape: 24 192 28 28 (3612672)
I0403 15:26:26.875183 31836 net.cpp:156] Memory required for data: 433521696
I0403 15:26:26.875200 31836 layer_factory.hpp:77] Creating layer pool2/3x3_s2_pool2/3x3_s2_0_split
I0403 15:26:26.875218 31836 net.cpp:91] Creating Layer pool2/3x3_s2_pool2/3x3_s2_0_split
I0403 15:26:26.875233 31836 net.cpp:425] pool2/3x3_s2_pool2/3x3_s2_0_split <- pool2/3x3_s2
I0403 15:26:26.875254 31836 net.cpp:399] pool2/3x3_s2_pool2/3x3_s2_0_split -> pool2/3x3_s2_pool2/3x3_s2_0_split_0
I0403 15:26:26.875275 31836 net.cpp:399] pool2/3x3_s2_pool2/3x3_s2_0_split -> pool2/3x3_s2_pool2/3x3_s2_0_split_1
I0403 15:26:26.875303 31836 net.cpp:399] pool2/3x3_s2_pool2/3x3_s2_0_split -> pool2/3x3_s2_pool2/3x3_s2_0_split_2
I0403 15:26:26.875324 31836 net.cpp:399] pool2/3x3_s2_pool2/3x3_s2_0_split -> pool2/3x3_s2_pool2/3x3_s2_0_split_3
I0403 15:26:26.875396 31836 net.cpp:141] Setting up pool2/3x3_s2_pool2/3x3_s2_0_split
I0403 15:26:26.875422 31836 net.cpp:148] Top shape: 24 192 28 28 (3612672)
I0403 15:26:26.875442 31836 net.cpp:148] Top shape: 24 192 28 28 (3612672)
I0403 15:26:26.875458 31836 net.cpp:148] Top shape: 24 192 28 28 (3612672)
I0403 15:26:26.875474 31836 net.cpp:148] Top shape: 24 192 28 28 (3612672)
I0403 15:26:26.875489 31836 net.cpp:156] Memory required for data: 491324448
I0403 15:26:26.875505 31836 layer_factory.hpp:77] Creating layer inception_3a/1x1
I0403 15:26:26.875530 31836 net.cpp:91] Creating Layer inception_3a/1x1
I0403 15:26:26.875547 31836 net.cpp:425] inception_3a/1x1 <- pool2/3x3_s2_pool2/3x3_s2_0_split_0
I0403 15:26:26.875567 31836 net.cpp:399] inception_3a/1x1 -> inception_3a/1x1
I0403 15:26:26.877161 31836 net.cpp:141] Setting up inception_3a/1x1
I0403 15:26:26.877192 31836 net.cpp:148] Top shape: 24 64 28 28 (1204224)
I0403 15:26:26.877208 31836 net.cpp:156] Memory required for data: 496141344
I0403 15:26:26.877228 31836 layer_factory.hpp:77] Creating layer inception_3a/relu_1x1
I0403 15:26:26.877250 31836 net.cpp:91] Creating Layer inception_3a/relu_1x1
I0403 15:26:26.877269 31836 net.cpp:425] inception_3a/relu_1x1 <- inception_3a/1x1
I0403 15:26:26.877291 31836 net.cpp:386] inception_3a/relu_1x1 -> inception_3a/1x1 (in-place)
I0403 15:26:26.877471 31836 net.cpp:141] Setting up inception_3a/relu_1x1
I0403 15:26:26.877501 31836 net.cpp:148] Top shape: 24 64 28 28 (1204224)
I0403 15:26:26.877518 31836 net.cpp:156] Memory required for data: 500958240
I0403 15:26:26.877534 31836 layer_factory.hpp:77] Creating layer inception_3a/3x3_reduce
I0403 15:26:26.877559 31836 net.cpp:91] Creating Layer inception_3a/3x3_reduce
I0403 15:26:26.877580 31836 net.cpp:425] inception_3a/3x3_reduce <- pool2/3x3_s2_pool2/3x3_s2_0_split_1
I0403 15:26:26.877601 31836 net.cpp:399] inception_3a/3x3_reduce -> inception_3a/3x3_reduce
I0403 15:26:26.879390 31836 net.cpp:141] Setting up inception_3a/3x3_reduce
I0403 15:26:26.879421 31836 net.cpp:148] Top shape: 24 96 28 28 (1806336)
I0403 15:26:26.879438 31836 net.cpp:156] Memory required for data: 508183584
I0403 15:26:26.879462 31836 layer_factory.hpp:77] Creating layer inception_3a/relu_3x3_reduce
I0403 15:26:26.879501 31836 net.cpp:91] Creating Layer inception_3a/relu_3x3_reduce
I0403 15:26:26.879521 31836 net.cpp:425] inception_3a/relu_3x3_reduce <- inception_3a/3x3_reduce
I0403 15:26:26.879544 31836 net.cpp:386] inception_3a/relu_3x3_reduce -> inception_3a/3x3_reduce (in-place)
I0403 15:26:26.879726 31836 net.cpp:141] Setting up inception_3a/relu_3x3_reduce
I0403 15:26:26.879755 31836 net.cpp:148] Top shape: 24 96 28 28 (1806336)
I0403 15:26:26.879770 31836 net.cpp:156] Memory required for data: 515408928
I0403 15:26:26.879786 31836 layer_factory.hpp:77] Creating layer inception_3a/3x3
I0403 15:26:26.879808 31836 net.cpp:91] Creating Layer inception_3a/3x3
I0403 15:26:26.879827 31836 net.cpp:425] inception_3a/3x3 <- inception_3a/3x3_reduce
I0403 15:26:26.879850 31836 net.cpp:399] inception_3a/3x3 -> inception_3a/3x3
I0403 15:26:26.881567 31836 net.cpp:141] Setting up inception_3a/3x3
I0403 15:26:26.881611 31836 net.cpp:148] Top shape: 24 128 28 28 (2408448)
I0403 15:26:26.881630 31836 net.cpp:156] Memory required for data: 525042720
I0403 15:26:26.881650 31836 layer_factory.hpp:77] Creating layer inception_3a/relu_3x3
I0403 15:26:26.881670 31836 net.cpp:91] Creating Layer inception_3a/relu_3x3
I0403 15:26:26.881686 31836 net.cpp:425] inception_3a/relu_3x3 <- inception_3a/3x3
I0403 15:26:26.881705 31836 net.cpp:386] inception_3a/relu_3x3 -> inception_3a/3x3 (in-place)
I0403 15:26:26.881989 31836 net.cpp:141] Setting up inception_3a/relu_3x3
I0403 15:26:26.882020 31836 net.cpp:148] Top shape: 24 128 28 28 (2408448)
I0403 15:26:26.882038 31836 net.cpp:156] Memory required for data: 534676512
I0403 15:26:26.882055 31836 layer_factory.hpp:77] Creating layer inception_3a/5x5_reduce
I0403 15:26:26.882079 31836 net.cpp:91] Creating Layer inception_3a/5x5_reduce
I0403 15:26:26.882098 31836 net.cpp:425] inception_3a/5x5_reduce <- pool2/3x3_s2_pool2/3x3_s2_0_split_2
I0403 15:26:26.882118 31836 net.cpp:399] inception_3a/5x5_reduce -> inception_3a/5x5_reduce
I0403 15:26:26.883112 31836 net.cpp:141] Setting up inception_3a/5x5_reduce
I0403 15:26:26.883144 31836 net.cpp:148] Top shape: 24 16 28 28 (301056)
I0403 15:26:26.883162 31836 net.cpp:156] Memory required for data: 535880736
I0403 15:26:26.883183 31836 layer_factory.hpp:77] Creating layer inception_3a/relu_5x5_reduce
I0403 15:26:26.883204 31836 net.cpp:91] Creating Layer inception_3a/relu_5x5_reduce
I0403 15:26:26.883220 31836 net.cpp:425] inception_3a/relu_5x5_reduce <- inception_3a/5x5_reduce
I0403 15:26:26.883240 31836 net.cpp:386] inception_3a/relu_5x5_reduce -> inception_3a/5x5_reduce (in-place)
I0403 15:26:26.883558 31836 net.cpp:141] Setting up inception_3a/relu_5x5_reduce
I0403 15:26:26.883587 31836 net.cpp:148] Top shape: 24 16 28 28 (301056)
I0403 15:26:26.883604 31836 net.cpp:156] Memory required for data: 537084960
I0403 15:26:26.883620 31836 layer_factory.hpp:77] Creating layer inception_3a/5x5
I0403 15:26:26.883643 31836 net.cpp:91] Creating Layer inception_3a/5x5
I0403 15:26:26.883661 31836 net.cpp:425] inception_3a/5x5 <- inception_3a/5x5_reduce
I0403 15:26:26.883684 31836 net.cpp:399] inception_3a/5x5 -> inception_3a/5x5
I0403 15:26:26.884716 31836 net.cpp:141] Setting up inception_3a/5x5
I0403 15:26:26.884747 31836 net.cpp:148] Top shape: 24 32 28 28 (602112)
I0403 15:26:26.884763 31836 net.cpp:156] Memory required for data: 539493408
I0403 15:26:26.884783 31836 layer_factory.hpp:77] Creating layer inception_3a/relu_5x5
I0403 15:26:26.884805 31836 net.cpp:91] Creating Layer inception_3a/relu_5x5
I0403 15:26:26.884822 31836 net.cpp:425] inception_3a/relu_5x5 <- inception_3a/5x5
I0403 15:26:26.884840 31836 net.cpp:386] inception_3a/relu_5x5 -> inception_3a/5x5 (in-place)
I0403 15:26:26.885020 31836 net.cpp:141] Setting up inception_3a/relu_5x5
I0403 15:26:26.885047 31836 net.cpp:148] Top shape: 24 32 28 28 (602112)
I0403 15:26:26.885064 31836 net.cpp:156] Memory required for data: 541901856
I0403 15:26:26.885082 31836 layer_factory.hpp:77] Creating layer inception_3a/pool
I0403 15:26:26.885100 31836 net.cpp:91] Creating Layer inception_3a/pool
I0403 15:26:26.885118 31836 net.cpp:425] inception_3a/pool <- pool2/3x3_s2_pool2/3x3_s2_0_split_3
I0403 15:26:26.885154 31836 net.cpp:399] inception_3a/pool -> inception_3a/pool
I0403 15:26:26.885215 31836 net.cpp:141] Setting up inception_3a/pool
I0403 15:26:26.885241 31836 net.cpp:148] Top shape: 24 192 28 28 (3612672)
I0403 15:26:26.885257 31836 net.cpp:156] Memory required for data: 556352544
I0403 15:26:26.885272 31836 layer_factory.hpp:77] Creating layer inception_3a/pool_proj
I0403 15:26:26.885303 31836 net.cpp:91] Creating Layer inception_3a/pool_proj
I0403 15:26:26.885323 31836 net.cpp:425] inception_3a/pool_proj <- inception_3a/pool
I0403 15:26:26.885345 31836 net.cpp:399] inception_3a/pool_proj -> inception_3a/pool_proj
I0403 15:26:26.886329 31836 net.cpp:141] Setting up inception_3a/pool_proj
I0403 15:26:26.886358 31836 net.cpp:148] Top shape: 24 32 28 28 (602112)
I0403 15:26:26.886375 31836 net.cpp:156] Memory required for data: 558760992
I0403 15:26:26.886400 31836 layer_factory.hpp:77] Creating layer inception_3a/relu_pool_proj
I0403 15:26:26.886422 31836 net.cpp:91] Creating Layer inception_3a/relu_pool_proj
I0403 15:26:26.886440 31836 net.cpp:425] inception_3a/relu_pool_proj <- inception_3a/pool_proj
I0403 15:26:26.886461 31836 net.cpp:386] inception_3a/relu_pool_proj -> inception_3a/pool_proj (in-place)
I0403 15:26:26.886739 31836 net.cpp:141] Setting up inception_3a/relu_pool_proj
I0403 15:26:26.886770 31836 net.cpp:148] Top shape: 24 32 28 28 (602112)
I0403 15:26:26.886788 31836 net.cpp:156] Memory required for data: 561169440
I0403 15:26:26.886806 31836 layer_factory.hpp:77] Creating layer inception_3a/output
I0403 15:26:26.886824 31836 net.cpp:91] Creating Layer inception_3a/output
I0403 15:26:26.886840 31836 net.cpp:425] inception_3a/output <- inception_3a/1x1
I0403 15:26:26.886858 31836 net.cpp:425] inception_3a/output <- inception_3a/3x3
I0403 15:26:26.886875 31836 net.cpp:425] inception_3a/output <- inception_3a/5x5
I0403 15:26:26.886893 31836 net.cpp:425] inception_3a/output <- inception_3a/pool_proj
I0403 15:26:26.886911 31836 net.cpp:399] inception_3a/output -> inception_3a/output
I0403 15:26:26.886961 31836 net.cpp:141] Setting up inception_3a/output
I0403 15:26:26.886986 31836 net.cpp:148] Top shape: 24 256 28 28 (4816896)
I0403 15:26:26.887001 31836 net.cpp:156] Memory required for data: 580437024
I0403 15:26:26.887017 31836 layer_factory.hpp:77] Creating layer inception_3a/output_inception_3a/output_0_split
I0403 15:26:26.887035 31836 net.cpp:91] Creating Layer inception_3a/output_inception_3a/output_0_split
I0403 15:26:26.887054 31836 net.cpp:425] inception_3a/output_inception_3a/output_0_split <- inception_3a/output
I0403 15:26:26.887073 31836 net.cpp:399] inception_3a/output_inception_3a/output_0_split -> inception_3a/output_inception_3a/output_0_split_0
I0403 15:26:26.887094 31836 net.cpp:399] inception_3a/output_inception_3a/output_0_split -> inception_3a/output_inception_3a/output_0_split_1
I0403 15:26:26.887120 31836 net.cpp:399] inception_3a/output_inception_3a/output_0_split -> inception_3a/output_inception_3a/output_0_split_2
I0403 15:26:26.887145 31836 net.cpp:399] inception_3a/output_inception_3a/output_0_split -> inception_3a/output_inception_3a/output_0_split_3
I0403 15:26:26.887223 31836 net.cpp:141] Setting up inception_3a/output_inception_3a/output_0_split
I0403 15:26:26.887248 31836 net.cpp:148] Top shape: 24 256 28 28 (4816896)
I0403 15:26:26.887266 31836 net.cpp:148] Top shape: 24 256 28 28 (4816896)
I0403 15:26:26.887287 31836 net.cpp:148] Top shape: 24 256 28 28 (4816896)
I0403 15:26:26.887305 31836 net.cpp:148] Top shape: 24 256 28 28 (4816896)
I0403 15:26:26.887320 31836 net.cpp:156] Memory required for data: 657507360
I0403 15:26:26.887337 31836 layer_factory.hpp:77] Creating layer inception_3b/1x1
I0403 15:26:26.887362 31836 net.cpp:91] Creating Layer inception_3b/1x1
I0403 15:26:26.887379 31836 net.cpp:425] inception_3b/1x1 <- inception_3a/output_inception_3a/output_0_split_0
I0403 15:26:26.887401 31836 net.cpp:399] inception_3b/1x1 -> inception_3b/1x1
I0403 15:26:26.888597 31836 net.cpp:141] Setting up inception_3b/1x1
I0403 15:26:26.888638 31836 net.cpp:148] Top shape: 24 128 28 28 (2408448)
I0403 15:26:26.888656 31836 net.cpp:156] Memory required for data: 667141152
I0403 15:26:26.888676 31836 layer_factory.hpp:77] Creating layer inception_3b/relu_1x1
I0403 15:26:26.888700 31836 net.cpp:91] Creating Layer inception_3b/relu_1x1
I0403 15:26:26.888720 31836 net.cpp:425] inception_3b/relu_1x1 <- inception_3b/1x1
I0403 15:26:26.888738 31836 net.cpp:386] inception_3b/relu_1x1 -> inception_3b/1x1 (in-place)
I0403 15:26:26.888916 31836 net.cpp:141] Setting up inception_3b/relu_1x1
I0403 15:26:26.888944 31836 net.cpp:148] Top shape: 24 128 28 28 (2408448)
I0403 15:26:26.888960 31836 net.cpp:156] Memory required for data: 676774944
I0403 15:26:26.888977 31836 layer_factory.hpp:77] Creating layer inception_3b/3x3_reduce
I0403 15:26:26.889000 31836 net.cpp:91] Creating Layer inception_3b/3x3_reduce
I0403 15:26:26.889019 31836 net.cpp:425] inception_3b/3x3_reduce <- inception_3a/output_inception_3a/output_0_split_1
I0403 15:26:26.889039 31836 net.cpp:399] inception_3b/3x3_reduce -> inception_3b/3x3_reduce
I0403 15:26:26.890198 31836 net.cpp:141] Setting up inception_3b/3x3_reduce
I0403 15:26:26.890228 31836 net.cpp:148] Top shape: 24 128 28 28 (2408448)
I0403 15:26:26.890245 31836 net.cpp:156] Memory required for data: 686408736
I0403 15:26:26.890265 31836 layer_factory.hpp:77] Creating layer inception_3b/relu_3x3_reduce
I0403 15:26:26.890291 31836 net.cpp:91] Creating Layer inception_3b/relu_3x3_reduce
I0403 15:26:26.890326 31836 net.cpp:425] inception_3b/relu_3x3_reduce <- inception_3b/3x3_reduce
I0403 15:26:26.890343 31836 net.cpp:386] inception_3b/relu_3x3_reduce -> inception_3b/3x3_reduce (in-place)
I0403 15:26:26.890527 31836 net.cpp:141] Setting up inception_3b/relu_3x3_reduce
I0403 15:26:26.890553 31836 net.cpp:148] Top shape: 24 128 28 28 (2408448)
I0403 15:26:26.890569 31836 net.cpp:156] Memory required for data: 696042528
I0403 15:26:26.890599 31836 layer_factory.hpp:77] Creating layer inception_3b/3x3
I0403 15:26:26.890626 31836 net.cpp:91] Creating Layer inception_3b/3x3
I0403 15:26:26.890645 31836 net.cpp:425] inception_3b/3x3 <- inception_3b/3x3_reduce
I0403 15:26:26.890668 31836 net.cpp:399] inception_3b/3x3 -> inception_3b/3x3
I0403 15:26:26.893733 31836 net.cpp:141] Setting up inception_3b/3x3
I0403 15:26:26.893766 31836 net.cpp:148] Top shape: 24 192 28 28 (3612672)
I0403 15:26:26.893784 31836 net.cpp:156] Memory required for data: 710493216
I0403 15:26:26.893805 31836 layer_factory.hpp:77] Creating layer inception_3b/relu_3x3
I0403 15:26:26.893824 31836 net.cpp:91] Creating Layer inception_3b/relu_3x3
I0403 15:26:26.893841 31836 net.cpp:425] inception_3b/relu_3x3 <- inception_3b/3x3
I0403 15:26:26.893859 31836 net.cpp:386] inception_3b/relu_3x3 -> inception_3b/3x3 (in-place)
I0403 15:26:26.894140 31836 net.cpp:141] Setting up inception_3b/relu_3x3
I0403 15:26:26.894170 31836 net.cpp:148] Top shape: 24 192 28 28 (3612672)
I0403 15:26:26.894187 31836 net.cpp:156] Memory required for data: 724943904
I0403 15:26:26.894204 31836 layer_factory.hpp:77] Creating layer inception_3b/5x5_reduce
I0403 15:26:26.894227 31836 net.cpp:91] Creating Layer inception_3b/5x5_reduce
I0403 15:26:26.894248 31836 net.cpp:425] inception_3b/5x5_reduce <- inception_3a/output_inception_3a/output_0_split_2
I0403 15:26:26.894268 31836 net.cpp:399] inception_3b/5x5_reduce -> inception_3b/5x5_reduce
I0403 15:26:26.895342 31836 net.cpp:141] Setting up inception_3b/5x5_reduce
I0403 15:26:26.895387 31836 net.cpp:148] Top shape: 24 32 28 28 (602112)
I0403 15:26:26.895404 31836 net.cpp:156] Memory required for data: 727352352
I0403 15:26:26.895423 31836 layer_factory.hpp:77] Creating layer inception_3b/relu_5x5_reduce
I0403 15:26:26.895442 31836 net.cpp:91] Creating Layer inception_3b/relu_5x5_reduce
I0403 15:26:26.895458 31836 net.cpp:425] inception_3b/relu_5x5_reduce <- inception_3b/5x5_reduce
I0403 15:26:26.895476 31836 net.cpp:386] inception_3b/relu_5x5_reduce -> inception_3b/5x5_reduce (in-place)
I0403 15:26:26.895668 31836 net.cpp:141] Setting up inception_3b/relu_5x5_reduce
I0403 15:26:26.895707 31836 net.cpp:148] Top shape: 24 32 28 28 (602112)
I0403 15:26:26.895725 31836 net.cpp:156] Memory required for data: 729760800
I0403 15:26:26.895740 31836 layer_factory.hpp:77] Creating layer inception_3b/5x5
I0403 15:26:26.895763 31836 net.cpp:91] Creating Layer inception_3b/5x5
I0403 15:26:26.895783 31836 net.cpp:425] inception_3b/5x5 <- inception_3b/5x5_reduce
I0403 15:26:26.895815 31836 net.cpp:399] inception_3b/5x5 -> inception_3b/5x5
I0403 15:26:26.897938 31836 net.cpp:141] Setting up inception_3b/5x5
I0403 15:26:26.897975 31836 net.cpp:148] Top shape: 24 96 28 28 (1806336)
I0403 15:26:26.897994 31836 net.cpp:156] Memory required for data: 736986144
I0403 15:26:26.898013 31836 layer_factory.hpp:77] Creating layer inception_3b/relu_5x5
I0403 15:26:26.898041 31836 net.cpp:91] Creating Layer inception_3b/relu_5x5
I0403 15:26:26.898059 31836 net.cpp:425] inception_3b/relu_5x5 <- inception_3b/5x5
I0403 15:26:26.898078 31836 net.cpp:386] inception_3b/relu_5x5 -> inception_3b/5x5 (in-place)
I0403 15:26:26.898325 31836 net.cpp:141] Setting up inception_3b/relu_5x5
I0403 15:26:26.898351 31836 net.cpp:148] Top shape: 24 96 28 28 (1806336)
I0403 15:26:26.898368 31836 net.cpp:156] Memory required for data: 744211488
I0403 15:26:26.898385 31836 layer_factory.hpp:77] Creating layer inception_3b/pool
I0403 15:26:26.898403 31836 net.cpp:91] Creating Layer inception_3b/pool
I0403 15:26:26.898419 31836 net.cpp:425] inception_3b/pool <- inception_3a/output_inception_3a/output_0_split_3
I0403 15:26:26.898438 31836 net.cpp:399] inception_3b/pool -> inception_3b/pool
I0403 15:26:26.898507 31836 net.cpp:141] Setting up inception_3b/pool
I0403 15:26:26.898531 31836 net.cpp:148] Top shape: 24 256 28 28 (4816896)
I0403 15:26:26.898546 31836 net.cpp:156] Memory required for data: 763479072
I0403 15:26:26.898571 31836 layer_factory.hpp:77] Creating layer inception_3b/pool_proj
I0403 15:26:26.898593 31836 net.cpp:91] Creating Layer inception_3b/pool_proj
I0403 15:26:26.898612 31836 net.cpp:425] inception_3b/pool_proj <- inception_3b/pool
I0403 15:26:26.898634 31836 net.cpp:399] inception_3b/pool_proj -> inception_3b/pool_proj
I0403 15:26:26.899677 31836 net.cpp:141] Setting up inception_3b/pool_proj
I0403 15:26:26.899709 31836 net.cpp:148] Top shape: 24 64 28 28 (1204224)
I0403 15:26:26.899726 31836 net.cpp:156] Memory required for data: 768295968
I0403 15:26:26.899745 31836 layer_factory.hpp:77] Creating layer inception_3b/relu_pool_proj
I0403 15:26:26.899762 31836 net.cpp:91] Creating Layer inception_3b/relu_pool_proj
I0403 15:26:26.899780 31836 net.cpp:425] inception_3b/relu_pool_proj <- inception_3b/pool_proj
I0403 15:26:26.899797 31836 net.cpp:386] inception_3b/relu_pool_proj -> inception_3b/pool_proj (in-place)
I0403 15:26:26.900190 31836 net.cpp:141] Setting up inception_3b/relu_pool_proj
I0403 15:26:26.900231 31836 net.cpp:148] Top shape: 24 64 28 28 (1204224)
I0403 15:26:26.900248 31836 net.cpp:156] Memory required for data: 773112864
I0403 15:26:26.900264 31836 layer_factory.hpp:77] Creating layer inception_3b/output
I0403 15:26:26.900281 31836 net.cpp:91] Creating Layer inception_3b/output
I0403 15:26:26.900302 31836 net.cpp:425] inception_3b/output <- inception_3b/1x1
I0403 15:26:26.900320 31836 net.cpp:425] inception_3b/output <- inception_3b/3x3
I0403 15:26:26.900337 31836 net.cpp:425] inception_3b/output <- inception_3b/5x5
I0403 15:26:26.900354 31836 net.cpp:425] inception_3b/output <- inception_3b/pool_proj
I0403 15:26:26.900372 31836 net.cpp:399] inception_3b/output -> inception_3b/output
I0403 15:26:26.900418 31836 net.cpp:141] Setting up inception_3b/output
I0403 15:26:26.900441 31836 net.cpp:148] Top shape: 24 480 28 28 (9031680)
I0403 15:26:26.900457 31836 net.cpp:156] Memory required for data: 809239584
I0403 15:26:26.900472 31836 layer_factory.hpp:77] Creating layer pool3/3x3_s2
I0403 15:26:26.900504 31836 net.cpp:91] Creating Layer pool3/3x3_s2
I0403 15:26:26.900521 31836 net.cpp:425] pool3/3x3_s2 <- inception_3b/output
I0403 15:26:26.900540 31836 net.cpp:399] pool3/3x3_s2 -> pool3/3x3_s2
I0403 15:26:26.900614 31836 net.cpp:141] Setting up pool3/3x3_s2
I0403 15:26:26.900637 31836 net.cpp:148] Top shape: 24 480 14 14 (2257920)
I0403 15:26:26.900652 31836 net.cpp:156] Memory required for data: 818271264
I0403 15:26:26.900667 31836 layer_factory.hpp:77] Creating layer pool3/3x3_s2_pool3/3x3_s2_0_split
I0403 15:26:26.900686 31836 net.cpp:91] Creating Layer pool3/3x3_s2_pool3/3x3_s2_0_split
I0403 15:26:26.900701 31836 net.cpp:425] pool3/3x3_s2_pool3/3x3_s2_0_split <- pool3/3x3_s2
I0403 15:26:26.900719 31836 net.cpp:399] pool3/3x3_s2_pool3/3x3_s2_0_split -> pool3/3x3_s2_pool3/3x3_s2_0_split_0
I0403 15:26:26.900739 31836 net.cpp:399] pool3/3x3_s2_pool3/3x3_s2_0_split -> pool3/3x3_s2_pool3/3x3_s2_0_split_1
I0403 15:26:26.900760 31836 net.cpp:399] pool3/3x3_s2_pool3/3x3_s2_0_split -> pool3/3x3_s2_pool3/3x3_s2_0_split_2
I0403 15:26:26.900780 31836 net.cpp:399] pool3/3x3_s2_pool3/3x3_s2_0_split -> pool3/3x3_s2_pool3/3x3_s2_0_split_3
I0403 15:26:26.900856 31836 net.cpp:141] Setting up pool3/3x3_s2_pool3/3x3_s2_0_split
I0403 15:26:26.900882 31836 net.cpp:148] Top shape: 24 480 14 14 (2257920)
I0403 15:26:26.900900 31836 net.cpp:148] Top shape: 24 480 14 14 (2257920)
I0403 15:26:26.900916 31836 net.cpp:148] Top shape: 24 480 14 14 (2257920)
I0403 15:26:26.900931 31836 net.cpp:148] Top shape: 24 480 14 14 (2257920)
I0403 15:26:26.900944 31836 net.cpp:156] Memory required for data: 854397984
I0403 15:26:26.900959 31836 layer_factory.hpp:77] Creating layer inception_4a/1x1
I0403 15:26:26.900980 31836 net.cpp:91] Creating Layer inception_4a/1x1
I0403 15:26:26.901008 31836 net.cpp:425] inception_4a/1x1 <- pool3/3x3_s2_pool3/3x3_s2_0_split_0
I0403 15:26:26.901051 31836 net.cpp:399] inception_4a/1x1 -> inception_4a/1x1
I0403 15:26:26.902719 31836 net.cpp:141] Setting up inception_4a/1x1
I0403 15:26:26.902748 31836 net.cpp:148] Top shape: 24 192 14 14 (903168)
I0403 15:26:26.902766 31836 net.cpp:156] Memory required for data: 858010656
I0403 15:26:26.902786 31836 layer_factory.hpp:77] Creating layer inception_4a/relu_1x1
I0403 15:26:26.902820 31836 net.cpp:91] Creating Layer inception_4a/relu_1x1
I0403 15:26:26.902839 31836 net.cpp:425] inception_4a/relu_1x1 <- inception_4a/1x1
I0403 15:26:26.902869 31836 net.cpp:386] inception_4a/relu_1x1 -> inception_4a/1x1 (in-place)
I0403 15:26:26.903061 31836 net.cpp:141] Setting up inception_4a/relu_1x1
I0403 15:26:26.903087 31836 net.cpp:148] Top shape: 24 192 14 14 (903168)
I0403 15:26:26.903103 31836 net.cpp:156] Memory required for data: 861623328
I0403 15:26:26.903131 31836 layer_factory.hpp:77] Creating layer inception_4a/3x3_reduce
I0403 15:26:26.903153 31836 net.cpp:91] Creating Layer inception_4a/3x3_reduce
I0403 15:26:26.903172 31836 net.cpp:425] inception_4a/3x3_reduce <- pool3/3x3_s2_pool3/3x3_s2_0_split_1
I0403 15:26:26.903194 31836 net.cpp:399] inception_4a/3x3_reduce -> inception_4a/3x3_reduce
I0403 15:26:26.904563 31836 net.cpp:141] Setting up inception_4a/3x3_reduce
I0403 15:26:26.904604 31836 net.cpp:148] Top shape: 24 96 14 14 (451584)
I0403 15:26:26.904620 31836 net.cpp:156] Memory required for data: 863429664
I0403 15:26:26.904659 31836 layer_factory.hpp:77] Creating layer inception_4a/relu_3x3_reduce
I0403 15:26:26.904678 31836 net.cpp:91] Creating Layer inception_4a/relu_3x3_reduce
I0403 15:26:26.904695 31836 net.cpp:425] inception_4a/relu_3x3_reduce <- inception_4a/3x3_reduce
I0403 15:26:26.904714 31836 net.cpp:386] inception_4a/relu_3x3_reduce -> inception_4a/3x3_reduce (in-place)
I0403 15:26:26.904889 31836 net.cpp:141] Setting up inception_4a/relu_3x3_reduce
I0403 15:26:26.904914 31836 net.cpp:148] Top shape: 24 96 14 14 (451584)
I0403 15:26:26.904930 31836 net.cpp:156] Memory required for data: 865236000
I0403 15:26:26.904958 31836 layer_factory.hpp:77] Creating layer inception_4a/3x3
I0403 15:26:26.904980 31836 net.cpp:91] Creating Layer inception_4a/3x3
I0403 15:26:26.904999 31836 net.cpp:425] inception_4a/3x3 <- inception_4a/3x3_reduce
I0403 15:26:26.905019 31836 net.cpp:399] inception_4a/3x3 -> inception_4a/3x3
I0403 15:26:26.907737 31836 net.cpp:141] Setting up inception_4a/3x3
I0403 15:26:26.907766 31836 net.cpp:148] Top shape: 24 208 14 14 (978432)
I0403 15:26:26.907783 31836 net.cpp:156] Memory required for data: 869149728
I0403 15:26:26.907804 31836 layer_factory.hpp:77] Creating layer inception_4a/relu_3x3
I0403 15:26:26.907824 31836 net.cpp:91] Creating Layer inception_4a/relu_3x3
I0403 15:26:26.907855 31836 net.cpp:425] inception_4a/relu_3x3 <- inception_4a/3x3
I0403 15:26:26.907872 31836 net.cpp:386] inception_4a/relu_3x3 -> inception_4a/3x3 (in-place)
I0403 15:26:26.908179 31836 net.cpp:141] Setting up inception_4a/relu_3x3
I0403 15:26:26.908205 31836 net.cpp:148] Top shape: 24 208 14 14 (978432)
I0403 15:26:26.908221 31836 net.cpp:156] Memory required for data: 873063456
I0403 15:26:26.908237 31836 layer_factory.hpp:77] Creating layer inception_4a/5x5_reduce
I0403 15:26:26.908260 31836 net.cpp:91] Creating Layer inception_4a/5x5_reduce
I0403 15:26:26.908278 31836 net.cpp:425] inception_4a/5x5_reduce <- pool3/3x3_s2_pool3/3x3_s2_0_split_2
I0403 15:26:26.908305 31836 net.cpp:399] inception_4a/5x5_reduce -> inception_4a/5x5_reduce
I0403 15:26:26.909328 31836 net.cpp:141] Setting up inception_4a/5x5_reduce
I0403 15:26:26.909356 31836 net.cpp:148] Top shape: 24 16 14 14 (75264)
I0403 15:26:26.909371 31836 net.cpp:156] Memory required for data: 873364512
I0403 15:26:26.909389 31836 layer_factory.hpp:77] Creating layer inception_4a/relu_5x5_reduce
I0403 15:26:26.909411 31836 net.cpp:91] Creating Layer inception_4a/relu_5x5_reduce
I0403 15:26:26.909428 31836 net.cpp:425] inception_4a/relu_5x5_reduce <- inception_4a/5x5_reduce
I0403 15:26:26.909446 31836 net.cpp:386] inception_4a/relu_5x5_reduce -> inception_4a/5x5_reduce (in-place)
I0403 15:26:26.909616 31836 net.cpp:141] Setting up inception_4a/relu_5x5_reduce
I0403 15:26:26.909643 31836 net.cpp:148] Top shape: 24 16 14 14 (75264)
I0403 15:26:26.909660 31836 net.cpp:156] Memory required for data: 873665568
I0403 15:26:26.909677 31836 layer_factory.hpp:77] Creating layer inception_4a/5x5
I0403 15:26:26.909698 31836 net.cpp:91] Creating Layer inception_4a/5x5
I0403 15:26:26.909716 31836 net.cpp:425] inception_4a/5x5 <- inception_4a/5x5_reduce
I0403 15:26:26.909736 31836 net.cpp:399] inception_4a/5x5 -> inception_4a/5x5
I0403 15:26:26.910797 31836 net.cpp:141] Setting up inception_4a/5x5
I0403 15:26:26.910825 31836 net.cpp:148] Top shape: 24 48 14 14 (225792)
I0403 15:26:26.910841 31836 net.cpp:156] Memory required for data: 874568736
I0403 15:26:26.910861 31836 layer_factory.hpp:77] Creating layer inception_4a/relu_5x5
I0403 15:26:26.910878 31836 net.cpp:91] Creating Layer inception_4a/relu_5x5
I0403 15:26:26.910894 31836 net.cpp:425] inception_4a/relu_5x5 <- inception_4a/5x5
I0403 15:26:26.910914 31836 net.cpp:386] inception_4a/relu_5x5 -> inception_4a/5x5 (in-place)
I0403 15:26:26.911090 31836 net.cpp:141] Setting up inception_4a/relu_5x5
I0403 15:26:26.911115 31836 net.cpp:148] Top shape: 24 48 14 14 (225792)
I0403 15:26:26.911130 31836 net.cpp:156] Memory required for data: 875471904
I0403 15:26:26.911145 31836 layer_factory.hpp:77] Creating layer inception_4a/pool
I0403 15:26:26.911166 31836 net.cpp:91] Creating Layer inception_4a/pool
I0403 15:26:26.911182 31836 net.cpp:425] inception_4a/pool <- pool3/3x3_s2_pool3/3x3_s2_0_split_3
I0403 15:26:26.911201 31836 net.cpp:399] inception_4a/pool -> inception_4a/pool
I0403 15:26:26.911273 31836 net.cpp:141] Setting up inception_4a/pool
I0403 15:26:26.911303 31836 net.cpp:148] Top shape: 24 480 14 14 (2257920)
I0403 15:26:26.911319 31836 net.cpp:156] Memory required for data: 884503584
I0403 15:26:26.911335 31836 layer_factory.hpp:77] Creating layer inception_4a/pool_proj
I0403 15:26:26.911358 31836 net.cpp:91] Creating Layer inception_4a/pool_proj
I0403 15:26:26.911376 31836 net.cpp:425] inception_4a/pool_proj <- inception_4a/pool
I0403 15:26:26.911401 31836 net.cpp:399] inception_4a/pool_proj -> inception_4a/pool_proj
I0403 15:26:26.912569 31836 net.cpp:141] Setting up inception_4a/pool_proj
I0403 15:26:26.912596 31836 net.cpp:148] Top shape: 24 64 14 14 (301056)
I0403 15:26:26.912628 31836 net.cpp:156] Memory required for data: 885707808
I0403 15:26:26.912649 31836 layer_factory.hpp:77] Creating layer inception_4a/relu_pool_proj
I0403 15:26:26.912668 31836 net.cpp:91] Creating Layer inception_4a/relu_pool_proj
I0403 15:26:26.912684 31836 net.cpp:425] inception_4a/relu_pool_proj <- inception_4a/pool_proj
I0403 15:26:26.912705 31836 net.cpp:386] inception_4a/relu_pool_proj -> inception_4a/pool_proj (in-place)
I0403 15:26:26.912993 31836 net.cpp:141] Setting up inception_4a/relu_pool_proj
I0403 15:26:26.913020 31836 net.cpp:148] Top shape: 24 64 14 14 (301056)
I0403 15:26:26.913035 31836 net.cpp:156] Memory required for data: 886912032
I0403 15:26:26.913051 31836 layer_factory.hpp:77] Creating layer inception_4a/output
I0403 15:26:26.913069 31836 net.cpp:91] Creating Layer inception_4a/output
I0403 15:26:26.913084 31836 net.cpp:425] inception_4a/output <- inception_4a/1x1
I0403 15:26:26.913100 31836 net.cpp:425] inception_4a/output <- inception_4a/3x3
I0403 15:26:26.913115 31836 net.cpp:425] inception_4a/output <- inception_4a/5x5
I0403 15:26:26.913132 31836 net.cpp:425] inception_4a/output <- inception_4a/pool_proj
I0403 15:26:26.913151 31836 net.cpp:399] inception_4a/output -> inception_4a/output
I0403 15:26:26.913195 31836 net.cpp:141] Setting up inception_4a/output
I0403 15:26:26.913223 31836 net.cpp:148] Top shape: 24 512 14 14 (2408448)
I0403 15:26:26.913238 31836 net.cpp:156] Memory required for data: 896545824
I0403 15:26:26.913254 31836 layer_factory.hpp:77] Creating layer inception_4a/output_inception_4a/output_0_split
I0403 15:26:26.913270 31836 net.cpp:91] Creating Layer inception_4a/output_inception_4a/output_0_split
I0403 15:26:26.913305 31836 net.cpp:425] inception_4a/output_inception_4a/output_0_split <- inception_4a/output
I0403 15:26:26.913327 31836 net.cpp:399] inception_4a/output_inception_4a/output_0_split -> inception_4a/output_inception_4a/output_0_split_0
I0403 15:26:26.913360 31836 net.cpp:399] inception_4a/output_inception_4a/output_0_split -> inception_4a/output_inception_4a/output_0_split_1
I0403 15:26:26.913384 31836 net.cpp:399] inception_4a/output_inception_4a/output_0_split -> inception_4a/output_inception_4a/output_0_split_2
I0403 15:26:26.913408 31836 net.cpp:399] inception_4a/output_inception_4a/output_0_split -> inception_4a/output_inception_4a/output_0_split_3
I0403 15:26:26.913429 31836 net.cpp:399] inception_4a/output_inception_4a/output_0_split -> inception_4a/output_inception_4a/output_0_split_4
I0403 15:26:26.913524 31836 net.cpp:141] Setting up inception_4a/output_inception_4a/output_0_split
I0403 15:26:26.913550 31836 net.cpp:148] Top shape: 24 512 14 14 (2408448)
I0403 15:26:26.913570 31836 net.cpp:148] Top shape: 24 512 14 14 (2408448)
I0403 15:26:26.913599 31836 net.cpp:148] Top shape: 24 512 14 14 (2408448)
I0403 15:26:26.913615 31836 net.cpp:148] Top shape: 24 512 14 14 (2408448)
I0403 15:26:26.913633 31836 net.cpp:148] Top shape: 24 512 14 14 (2408448)
I0403 15:26:26.913648 31836 net.cpp:156] Memory required for data: 944714784
I0403 15:26:26.913663 31836 layer_factory.hpp:77] Creating layer loss1/ave_pool
I0403 15:26:26.913681 31836 net.cpp:91] Creating Layer loss1/ave_pool
I0403 15:26:26.913697 31836 net.cpp:425] loss1/ave_pool <- inception_4a/output_inception_4a/output_0_split_0
I0403 15:26:26.913714 31836 net.cpp:399] loss1/ave_pool -> loss1/ave_pool
I0403 15:26:26.913924 31836 net.cpp:141] Setting up loss1/ave_pool
I0403 15:26:26.913951 31836 net.cpp:148] Top shape: 24 512 4 4 (196608)
I0403 15:26:26.913967 31836 net.cpp:156] Memory required for data: 945501216
I0403 15:26:26.913983 31836 layer_factory.hpp:77] Creating layer loss1/conv
I0403 15:26:26.914005 31836 net.cpp:91] Creating Layer loss1/conv
I0403 15:26:26.914023 31836 net.cpp:425] loss1/conv <- loss1/ave_pool
I0403 15:26:26.914046 31836 net.cpp:399] loss1/conv -> loss1/conv
I0403 15:26:26.915504 31836 net.cpp:141] Setting up loss1/conv
I0403 15:26:26.915534 31836 net.cpp:148] Top shape: 24 128 4 4 (49152)
I0403 15:26:26.915552 31836 net.cpp:156] Memory required for data: 945697824
I0403 15:26:26.915599 31836 layer_factory.hpp:77] Creating layer loss1/relu_conv
I0403 15:26:26.915622 31836 net.cpp:91] Creating Layer loss1/relu_conv
I0403 15:26:26.915640 31836 net.cpp:425] loss1/relu_conv <- loss1/conv
I0403 15:26:26.915657 31836 net.cpp:386] loss1/relu_conv -> loss1/conv (in-place)
I0403 15:26:26.915940 31836 net.cpp:141] Setting up loss1/relu_conv
I0403 15:26:26.915966 31836 net.cpp:148] Top shape: 24 128 4 4 (49152)
I0403 15:26:26.915982 31836 net.cpp:156] Memory required for data: 945894432
I0403 15:26:26.915997 31836 layer_factory.hpp:77] Creating layer loss1/fc
I0403 15:26:26.916023 31836 net.cpp:91] Creating Layer loss1/fc
I0403 15:26:26.916043 31836 net.cpp:425] loss1/fc <- loss1/conv
I0403 15:26:26.916062 31836 net.cpp:399] loss1/fc -> loss1/fc
I0403 15:26:26.934376 31836 net.cpp:141] Setting up loss1/fc
I0403 15:26:26.934412 31836 net.cpp:148] Top shape: 24 1024 (24576)
I0403 15:26:26.934428 31836 net.cpp:156] Memory required for data: 945992736
I0403 15:26:26.934447 31836 layer_factory.hpp:77] Creating layer loss1/relu_fc
I0403 15:26:26.934466 31836 net.cpp:91] Creating Layer loss1/relu_fc
I0403 15:26:26.934483 31836 net.cpp:425] loss1/relu_fc <- loss1/fc
I0403 15:26:26.934502 31836 net.cpp:386] loss1/relu_fc -> loss1/fc (in-place)
I0403 15:26:26.934705 31836 net.cpp:141] Setting up loss1/relu_fc
I0403 15:26:26.934731 31836 net.cpp:148] Top shape: 24 1024 (24576)
I0403 15:26:26.934746 31836 net.cpp:156] Memory required for data: 946091040
I0403 15:26:26.934759 31836 layer_factory.hpp:77] Creating layer loss1/drop_fc
I0403 15:26:26.934792 31836 net.cpp:91] Creating Layer loss1/drop_fc
I0403 15:26:26.934810 31836 net.cpp:425] loss1/drop_fc <- loss1/fc
I0403 15:26:26.934829 31836 net.cpp:386] loss1/drop_fc -> loss1/fc (in-place)
I0403 15:26:26.934890 31836 net.cpp:141] Setting up loss1/drop_fc
I0403 15:26:26.934918 31836 net.cpp:148] Top shape: 24 1024 (24576)
I0403 15:26:26.934934 31836 net.cpp:156] Memory required for data: 946189344
I0403 15:26:26.934950 31836 layer_factory.hpp:77] Creating layer loss1/classifier_plantvillage
I0403 15:26:26.934968 31836 net.cpp:91] Creating Layer loss1/classifier_plantvillage
I0403 15:26:26.934984 31836 net.cpp:425] loss1/classifier_plantvillage <- loss1/fc
I0403 15:26:26.935005 31836 net.cpp:399] loss1/classifier_plantvillage -> loss1/classifier_plantvillage
I0403 15:26:26.935894 31836 net.cpp:141] Setting up loss1/classifier_plantvillage
I0403 15:26:26.935922 31836 net.cpp:148] Top shape: 24 38 (912)
I0403 15:26:26.935937 31836 net.cpp:156] Memory required for data: 946192992
I0403 15:26:26.935956 31836 layer_factory.hpp:77] Creating layer loss1/classifier_plantvillage_loss1/classifier_plantvillage_0_split
I0403 15:26:26.935976 31836 net.cpp:91] Creating Layer loss1/classifier_plantvillage_loss1/classifier_plantvillage_0_split
I0403 15:26:26.935994 31836 net.cpp:425] loss1/classifier_plantvillage_loss1/classifier_plantvillage_0_split <- loss1/classifier_plantvillage
I0403 15:26:26.936012 31836 net.cpp:399] loss1/classifier_plantvillage_loss1/classifier_plantvillage_0_split -> loss1/classifier_plantvillage_loss1/classifier_plantvillage_0_split_0
I0403 15:26:26.936031 31836 net.cpp:399] loss1/classifier_plantvillage_loss1/classifier_plantvillage_0_split -> loss1/classifier_plantvillage_loss1/classifier_plantvillage_0_split_1
I0403 15:26:26.936051 31836 net.cpp:399] loss1/classifier_plantvillage_loss1/classifier_plantvillage_0_split -> loss1/classifier_plantvillage_loss1/classifier_plantvillage_0_split_2
I0403 15:26:26.936116 31836 net.cpp:141] Setting up loss1/classifier_plantvillage_loss1/classifier_plantvillage_0_split
I0403 15:26:26.936142 31836 net.cpp:148] Top shape: 24 38 (912)
I0403 15:26:26.936161 31836 net.cpp:148] Top shape: 24 38 (912)
I0403 15:26:26.936175 31836 net.cpp:148] Top shape: 24 38 (912)
I0403 15:26:26.936189 31836 net.cpp:156] Memory required for data: 946203936
I0403 15:26:26.936203 31836 layer_factory.hpp:77] Creating layer inception_4b/1x1
I0403 15:26:26.936224 31836 net.cpp:91] Creating Layer inception_4b/1x1
I0403 15:26:26.936259 31836 net.cpp:425] inception_4b/1x1 <- inception_4a/output_inception_4a/output_0_split_1
I0403 15:26:26.936280 31836 net.cpp:399] inception_4b/1x1 -> inception_4b/1x1
I0403 15:26:26.937980 31836 net.cpp:141] Setting up inception_4b/1x1
I0403 15:26:26.938014 31836 net.cpp:148] Top shape: 24 160 14 14 (752640)
I0403 15:26:26.938037 31836 net.cpp:156] Memory required for data: 949214496
I0403 15:26:26.938063 31836 layer_factory.hpp:77] Creating layer inception_4b/relu_1x1
I0403 15:26:26.938092 31836 net.cpp:91] Creating Layer inception_4b/relu_1x1
I0403 15:26:26.938112 31836 net.cpp:425] inception_4b/relu_1x1 <- inception_4b/1x1
I0403 15:26:26.938134 31836 net.cpp:386] inception_4b/relu_1x1 -> inception_4b/1x1 (in-place)
I0403 15:26:26.938319 31836 net.cpp:141] Setting up inception_4b/relu_1x1
I0403 15:26:26.938347 31836 net.cpp:148] Top shape: 24 160 14 14 (752640)
I0403 15:26:26.938364 31836 net.cpp:156] Memory required for data: 952225056
I0403 15:26:26.938391 31836 layer_factory.hpp:77] Creating layer inception_4b/3x3_reduce
I0403 15:26:26.938421 31836 net.cpp:91] Creating Layer inception_4b/3x3_reduce
I0403 15:26:26.938438 31836 net.cpp:425] inception_4b/3x3_reduce <- inception_4a/output_inception_4a/output_0_split_2
I0403 15:26:26.938458 31836 net.cpp:399] inception_4b/3x3_reduce -> inception_4b/3x3_reduce
I0403 15:26:26.939815 31836 net.cpp:141] Setting up inception_4b/3x3_reduce
I0403 15:26:26.939846 31836 net.cpp:148] Top shape: 24 112 14 14 (526848)
I0403 15:26:26.939863 31836 net.cpp:156] Memory required for data: 954332448
I0403 15:26:26.939882 31836 layer_factory.hpp:77] Creating layer inception_4b/relu_3x3_reduce
I0403 15:26:26.939901 31836 net.cpp:91] Creating Layer inception_4b/relu_3x3_reduce
I0403 15:26:26.939918 31836 net.cpp:425] inception_4b/relu_3x3_reduce <- inception_4b/3x3_reduce
I0403 15:26:26.939936 31836 net.cpp:386] inception_4b/relu_3x3_reduce -> inception_4b/3x3_reduce (in-place)
I0403 15:26:26.940223 31836 net.cpp:141] Setting up inception_4b/relu_3x3_reduce
I0403 15:26:26.940253 31836 net.cpp:148] Top shape: 24 112 14 14 (526848)
I0403 15:26:26.940269 31836 net.cpp:156] Memory required for data: 956439840
I0403 15:26:26.940304 31836 layer_factory.hpp:77] Creating layer inception_4b/3x3
I0403 15:26:26.940331 31836 net.cpp:91] Creating Layer inception_4b/3x3
I0403 15:26:26.940351 31836 net.cpp:425] inception_4b/3x3 <- inception_4b/3x3_reduce
I0403 15:26:26.940371 31836 net.cpp:399] inception_4b/3x3 -> inception_4b/3x3
I0403 15:26:26.943473 31836 net.cpp:141] Setting up inception_4b/3x3
I0403 15:26:26.943505 31836 net.cpp:148] Top shape: 24 224 14 14 (1053696)
I0403 15:26:26.943521 31836 net.cpp:156] Memory required for data: 960654624
I0403 15:26:26.943539 31836 layer_factory.hpp:77] Creating layer inception_4b/relu_3x3
I0403 15:26:26.943562 31836 net.cpp:91] Creating Layer inception_4b/relu_3x3
I0403 15:26:26.943580 31836 net.cpp:425] inception_4b/relu_3x3 <- inception_4b/3x3
I0403 15:26:26.943598 31836 net.cpp:386] inception_4b/relu_3x3 -> inception_4b/3x3 (in-place)
I0403 15:26:26.943781 31836 net.cpp:141] Setting up inception_4b/relu_3x3
I0403 15:26:26.943807 31836 net.cpp:148] Top shape: 24 224 14 14 (1053696)
I0403 15:26:26.943824 31836 net.cpp:156] Memory required for data: 964869408
I0403 15:26:26.943838 31836 layer_factory.hpp:77] Creating layer inception_4b/5x5_reduce
I0403 15:26:26.943874 31836 net.cpp:91] Creating Layer inception_4b/5x5_reduce
I0403 15:26:26.943897 31836 net.cpp:425] inception_4b/5x5_reduce <- inception_4a/output_inception_4a/output_0_split_3
I0403 15:26:26.943918 31836 net.cpp:399] inception_4b/5x5_reduce -> inception_4b/5x5_reduce
I0403 15:26:26.945070 31836 net.cpp:141] Setting up inception_4b/5x5_reduce
I0403 15:26:26.945101 31836 net.cpp:148] Top shape: 24 24 14 14 (112896)
I0403 15:26:26.945117 31836 net.cpp:156] Memory required for data: 965320992
I0403 15:26:26.945135 31836 layer_factory.hpp:77] Creating layer inception_4b/relu_5x5_reduce
I0403 15:26:26.945157 31836 net.cpp:91] Creating Layer inception_4b/relu_5x5_reduce
I0403 15:26:26.945189 31836 net.cpp:425] inception_4b/relu_5x5_reduce <- inception_4b/5x5_reduce
I0403 15:26:26.945209 31836 net.cpp:386] inception_4b/relu_5x5_reduce -> inception_4b/5x5_reduce (in-place)
I0403 15:26:26.945400 31836 net.cpp:141] Setting up inception_4b/relu_5x5_reduce
I0403 15:26:26.945426 31836 net.cpp:148] Top shape: 24 24 14 14 (112896)
I0403 15:26:26.945441 31836 net.cpp:156] Memory required for data: 965772576
I0403 15:26:26.945457 31836 layer_factory.hpp:77] Creating layer inception_4b/5x5
I0403 15:26:26.945482 31836 net.cpp:91] Creating Layer inception_4b/5x5
I0403 15:26:26.945499 31836 net.cpp:425] inception_4b/5x5 <- inception_4b/5x5_reduce
I0403 15:26:26.945520 31836 net.cpp:399] inception_4b/5x5 -> inception_4b/5x5
I0403 15:26:26.946861 31836 net.cpp:141] Setting up inception_4b/5x5
I0403 15:26:26.946892 31836 net.cpp:148] Top shape: 24 64 14 14 (301056)
I0403 15:26:26.946907 31836 net.cpp:156] Memory required for data: 966976800
I0403 15:26:26.946926 31836 layer_factory.hpp:77] Creating layer inception_4b/relu_5x5
I0403 15:26:26.946946 31836 net.cpp:91] Creating Layer inception_4b/relu_5x5
I0403 15:26:26.946965 31836 net.cpp:425] inception_4b/relu_5x5 <- inception_4b/5x5
I0403 15:26:26.946984 31836 net.cpp:386] inception_4b/relu_5x5 -> inception_4b/5x5 (in-place)
I0403 15:26:26.947304 31836 net.cpp:141] Setting up inception_4b/relu_5x5
I0403 15:26:26.947332 31836 net.cpp:148] Top shape: 24 64 14 14 (301056)
I0403 15:26:26.947360 31836 net.cpp:156] Memory required for data: 968181024
I0403 15:26:26.947376 31836 layer_factory.hpp:77] Creating layer inception_4b/pool
I0403 15:26:26.947396 31836 net.cpp:91] Creating Layer inception_4b/pool
I0403 15:26:26.947414 31836 net.cpp:425] inception_4b/pool <- inception_4a/output_inception_4a/output_0_split_4
I0403 15:26:26.947434 31836 net.cpp:399] inception_4b/pool -> inception_4b/pool
I0403 15:26:26.947500 31836 net.cpp:141] Setting up inception_4b/pool
I0403 15:26:26.947525 31836 net.cpp:148] Top shape: 24 512 14 14 (2408448)
I0403 15:26:26.947540 31836 net.cpp:156] Memory required for data: 977814816
I0403 15:26:26.947556 31836 layer_factory.hpp:77] Creating layer inception_4b/pool_proj
I0403 15:26:26.947592 31836 net.cpp:91] Creating Layer inception_4b/pool_proj
I0403 15:26:26.947613 31836 net.cpp:425] inception_4b/pool_proj <- inception_4b/pool
I0403 15:26:26.947634 31836 net.cpp:399] inception_4b/pool_proj -> inception_4b/pool_proj
I0403 15:26:26.948966 31836 net.cpp:141] Setting up inception_4b/pool_proj
I0403 15:26:26.948998 31836 net.cpp:148] Top shape: 24 64 14 14 (301056)
I0403 15:26:26.949017 31836 net.cpp:156] Memory required for data: 979019040
I0403 15:26:26.949048 31836 layer_factory.hpp:77] Creating layer inception_4b/relu_pool_proj
I0403 15:26:26.949066 31836 net.cpp:91] Creating Layer inception_4b/relu_pool_proj
I0403 15:26:26.949084 31836 net.cpp:425] inception_4b/relu_pool_proj <- inception_4b/pool_proj
I0403 15:26:26.949101 31836 net.cpp:386] inception_4b/relu_pool_proj -> inception_4b/pool_proj (in-place)
I0403 15:26:26.949290 31836 net.cpp:141] Setting up inception_4b/relu_pool_proj
I0403 15:26:26.949318 31836 net.cpp:148] Top shape: 24 64 14 14 (301056)
I0403 15:26:26.949334 31836 net.cpp:156] Memory required for data: 980223264
I0403 15:26:26.949350 31836 layer_factory.hpp:77] Creating layer inception_4b/output
I0403 15:26:26.949369 31836 net.cpp:91] Creating Layer inception_4b/output
I0403 15:26:26.949385 31836 net.cpp:425] inception_4b/output <- inception_4b/1x1
I0403 15:26:26.949404 31836 net.cpp:425] inception_4b/output <- inception_4b/3x3
I0403 15:26:26.949419 31836 net.cpp:425] inception_4b/output <- inception_4b/5x5
I0403 15:26:26.949436 31836 net.cpp:425] inception_4b/output <- inception_4b/pool_proj
I0403 15:26:26.949456 31836 net.cpp:399] inception_4b/output -> inception_4b/output
I0403 15:26:26.949504 31836 net.cpp:141] Setting up inception_4b/output
I0403 15:26:26.949529 31836 net.cpp:148] Top shape: 24 512 14 14 (2408448)
I0403 15:26:26.949544 31836 net.cpp:156] Memory required for data: 989857056
I0403 15:26:26.949575 31836 layer_factory.hpp:77] Creating layer inception_4b/output_inception_4b/output_0_split
I0403 15:26:26.949597 31836 net.cpp:91] Creating Layer inception_4b/output_inception_4b/output_0_split
I0403 15:26:26.949620 31836 net.cpp:425] inception_4b/output_inception_4b/output_0_split <- inception_4b/output
I0403 15:26:26.949641 31836 net.cpp:399] inception_4b/output_inception_4b/output_0_split -> inception_4b/output_inception_4b/output_0_split_0
I0403 15:26:26.949662 31836 net.cpp:399] inception_4b/output_inception_4b/output_0_split -> inception_4b/output_inception_4b/output_0_split_1
I0403 15:26:26.949687 31836 net.cpp:399] inception_4b/output_inception_4b/output_0_split -> inception_4b/output_inception_4b/output_0_split_2
I0403 15:26:26.949708 31836 net.cpp:399] inception_4b/output_inception_4b/output_0_split -> inception_4b/output_inception_4b/output_0_split_3
I0403 15:26:26.949793 31836 net.cpp:141] Setting up inception_4b/output_inception_4b/output_0_split
I0403 15:26:26.949817 31836 net.cpp:148] Top shape: 24 512 14 14 (2408448)
I0403 15:26:26.949834 31836 net.cpp:148] Top shape: 24 512 14 14 (2408448)
I0403 15:26:26.949851 31836 net.cpp:148] Top shape: 24 512 14 14 (2408448)
I0403 15:26:26.949867 31836 net.cpp:148] Top shape: 24 512 14 14 (2408448)
I0403 15:26:26.949882 31836 net.cpp:156] Memory required for data: 1028392224
I0403 15:26:26.949897 31836 layer_factory.hpp:77] Creating layer inception_4c/1x1
I0403 15:26:26.949919 31836 net.cpp:91] Creating Layer inception_4c/1x1
I0403 15:26:26.949939 31836 net.cpp:425] inception_4c/1x1 <- inception_4b/output_inception_4b/output_0_split_0
I0403 15:26:26.949960 31836 net.cpp:399] inception_4c/1x1 -> inception_4c/1x1
I0403 15:26:26.951506 31836 net.cpp:141] Setting up inception_4c/1x1
I0403 15:26:26.951536 31836 net.cpp:148] Top shape: 24 128 14 14 (602112)
I0403 15:26:26.951553 31836 net.cpp:156] Memory required for data: 1030800672
I0403 15:26:26.951575 31836 layer_factory.hpp:77] Creating layer inception_4c/relu_1x1
I0403 15:26:26.951606 31836 net.cpp:91] Creating Layer inception_4c/relu_1x1
I0403 15:26:26.951622 31836 net.cpp:425] inception_4c/relu_1x1 <- inception_4c/1x1
I0403 15:26:26.951642 31836 net.cpp:386] inception_4c/relu_1x1 -> inception_4c/1x1 (in-place)
I0403 15:26:26.951827 31836 net.cpp:141] Setting up inception_4c/relu_1x1
I0403 15:26:26.951853 31836 net.cpp:148] Top shape: 24 128 14 14 (602112)
I0403 15:26:26.951867 31836 net.cpp:156] Memory required for data: 1033209120
I0403 15:26:26.951884 31836 layer_factory.hpp:77] Creating layer inception_4c/3x3_reduce
I0403 15:26:26.951906 31836 net.cpp:91] Creating Layer inception_4c/3x3_reduce
I0403 15:26:26.951925 31836 net.cpp:425] inception_4c/3x3_reduce <- inception_4b/output_inception_4b/output_0_split_1
I0403 15:26:26.951948 31836 net.cpp:399] inception_4c/3x3_reduce -> inception_4c/3x3_reduce
I0403 15:26:26.954052 31836 net.cpp:141] Setting up inception_4c/3x3_reduce
I0403 15:26:26.954082 31836 net.cpp:148] Top shape: 24 128 14 14 (602112)
I0403 15:26:26.954097 31836 net.cpp:156] Memory required for data: 1035617568
I0403 15:26:26.954118 31836 layer_factory.hpp:77] Creating layer inception_4c/relu_3x3_reduce
I0403 15:26:26.954138 31836 net.cpp:91] Creating Layer inception_4c/relu_3x3_reduce
I0403 15:26:26.954156 31836 net.cpp:425] inception_4c/relu_3x3_reduce <- inception_4c/3x3_reduce
I0403 15:26:26.954174 31836 net.cpp:386] inception_4c/relu_3x3_reduce -> inception_4c/3x3_reduce (in-place)
I0403 15:26:26.954483 31836 net.cpp:141] Setting up inception_4c/relu_3x3_reduce
I0403 15:26:26.954511 31836 net.cpp:148] Top shape: 24 128 14 14 (602112)
I0403 15:26:26.954527 31836 net.cpp:156] Memory required for data: 1038026016
I0403 15:26:26.954543 31836 layer_factory.hpp:77] Creating layer inception_4c/3x3
I0403 15:26:26.954568 31836 net.cpp:91] Creating Layer inception_4c/3x3
I0403 15:26:26.954589 31836 net.cpp:425] inception_4c/3x3 <- inception_4c/3x3_reduce
I0403 15:26:26.954612 31836 net.cpp:399] inception_4c/3x3 -> inception_4c/3x3
I0403 15:26:26.958398 31836 net.cpp:141] Setting up inception_4c/3x3
I0403 15:26:26.958441 31836 net.cpp:148] Top shape: 24 256 14 14 (1204224)
I0403 15:26:26.958461 31836 net.cpp:156] Memory required for data: 1042842912
I0403 15:26:26.958494 31836 layer_factory.hpp:77] Creating layer inception_4c/relu_3x3
I0403 15:26:26.958516 31836 net.cpp:91] Creating Layer inception_4c/relu_3x3
I0403 15:26:26.958534 31836 net.cpp:425] inception_4c/relu_3x3 <- inception_4c/3x3
I0403 15:26:26.958551 31836 net.cpp:386] inception_4c/relu_3x3 -> inception_4c/3x3 (in-place)
I0403 15:26:26.958734 31836 net.cpp:141] Setting up inception_4c/relu_3x3
I0403 15:26:26.958761 31836 net.cpp:148] Top shape: 24 256 14 14 (1204224)
I0403 15:26:26.958776 31836 net.cpp:156] Memory required for data: 1047659808
I0403 15:26:26.958791 31836 layer_factory.hpp:77] Creating layer inception_4c/5x5_reduce
I0403 15:26:26.958820 31836 net.cpp:91] Creating Layer inception_4c/5x5_reduce
I0403 15:26:26.958838 31836 net.cpp:425] inception_4c/5x5_reduce <- inception_4b/output_inception_4b/output_0_split_2
I0403 15:26:26.958858 31836 net.cpp:399] inception_4c/5x5_reduce -> inception_4c/5x5_reduce
I0403 15:26:26.959960 31836 net.cpp:141] Setting up inception_4c/5x5_reduce
I0403 15:26:26.959990 31836 net.cpp:148] Top shape: 24 24 14 14 (112896)
I0403 15:26:26.960005 31836 net.cpp:156] Memory required for data: 1048111392
I0403 15:26:26.960024 31836 layer_factory.hpp:77] Creating layer inception_4c/relu_5x5_reduce
I0403 15:26:26.960047 31836 net.cpp:91] Creating Layer inception_4c/relu_5x5_reduce
I0403 15:26:26.960063 31836 net.cpp:425] inception_4c/relu_5x5_reduce <- inception_4c/5x5_reduce
I0403 15:26:26.960083 31836 net.cpp:386] inception_4c/relu_5x5_reduce -> inception_4c/5x5_reduce (in-place)
I0403 15:26:26.960269 31836 net.cpp:141] Setting up inception_4c/relu_5x5_reduce
I0403 15:26:26.960310 31836 net.cpp:148] Top shape: 24 24 14 14 (112896)
I0403 15:26:26.960330 31836 net.cpp:156] Memory required for data: 1048562976
I0403 15:26:26.960345 31836 layer_factory.hpp:77] Creating layer inception_4c/5x5
I0403 15:26:26.960369 31836 net.cpp:91] Creating Layer inception_4c/5x5
I0403 15:26:26.960387 31836 net.cpp:425] inception_4c/5x5 <- inception_4c/5x5_reduce
I0403 15:26:26.960409 31836 net.cpp:399] inception_4c/5x5 -> inception_4c/5x5
I0403 15:26:26.961714 31836 net.cpp:141] Setting up inception_4c/5x5
I0403 15:26:26.961747 31836 net.cpp:148] Top shape: 24 64 14 14 (301056)
I0403 15:26:26.961766 31836 net.cpp:156] Memory required for data: 1049767200
I0403 15:26:26.961786 31836 layer_factory.hpp:77] Creating layer inception_4c/relu_5x5
I0403 15:26:26.961818 31836 net.cpp:91] Creating Layer inception_4c/relu_5x5
I0403 15:26:26.961835 31836 net.cpp:425] inception_4c/relu_5x5 <- inception_4c/5x5
I0403 15:26:26.961856 31836 net.cpp:386] inception_4c/relu_5x5 -> inception_4c/5x5 (in-place)
I0403 15:26:26.962178 31836 net.cpp:141] Setting up inception_4c/relu_5x5
I0403 15:26:26.962208 31836 net.cpp:148] Top shape: 24 64 14 14 (301056)
I0403 15:26:26.962225 31836 net.cpp:156] Memory required for data: 1050971424
I0403 15:26:26.962242 31836 layer_factory.hpp:77] Creating layer inception_4c/pool
I0403 15:26:26.962262 31836 net.cpp:91] Creating Layer inception_4c/pool
I0403 15:26:26.962278 31836 net.cpp:425] inception_4c/pool <- inception_4b/output_inception_4b/output_0_split_3
I0403 15:26:26.962304 31836 net.cpp:399] inception_4c/pool -> inception_4c/pool
I0403 15:26:26.962373 31836 net.cpp:141] Setting up inception_4c/pool
I0403 15:26:26.962402 31836 net.cpp:148] Top shape: 24 512 14 14 (2408448)
I0403 15:26:26.962419 31836 net.cpp:156] Memory required for data: 1060605216
I0403 15:26:26.962436 31836 layer_factory.hpp:77] Creating layer inception_4c/pool_proj
I0403 15:26:26.962476 31836 net.cpp:91] Creating Layer inception_4c/pool_proj
I0403 15:26:26.962494 31836 net.cpp:425] inception_4c/pool_proj <- inception_4c/pool
I0403 15:26:26.962514 31836 net.cpp:399] inception_4c/pool_proj -> inception_4c/pool_proj
I0403 15:26:26.963814 31836 net.cpp:141] Setting up inception_4c/pool_proj
I0403 15:26:26.963843 31836 net.cpp:148] Top shape: 24 64 14 14 (301056)
I0403 15:26:26.963878 31836 net.cpp:156] Memory required for data: 1061809440
I0403 15:26:26.963899 31836 layer_factory.hpp:77] Creating layer inception_4c/relu_pool_proj
I0403 15:26:26.963919 31836 net.cpp:91] Creating Layer inception_4c/relu_pool_proj
I0403 15:26:26.963937 31836 net.cpp:425] inception_4c/relu_pool_proj <- inception_4c/pool_proj
I0403 15:26:26.963954 31836 net.cpp:386] inception_4c/relu_pool_proj -> inception_4c/pool_proj (in-place)
I0403 15:26:26.964145 31836 net.cpp:141] Setting up inception_4c/relu_pool_proj
I0403 15:26:26.964174 31836 net.cpp:148] Top shape: 24 64 14 14 (301056)
I0403 15:26:26.964190 31836 net.cpp:156] Memory required for data: 1063013664
I0403 15:26:26.964207 31836 layer_factory.hpp:77] Creating layer inception_4c/output
I0403 15:26:26.964226 31836 net.cpp:91] Creating Layer inception_4c/output
I0403 15:26:26.964242 31836 net.cpp:425] inception_4c/output <- inception_4c/1x1
I0403 15:26:26.964260 31836 net.cpp:425] inception_4c/output <- inception_4c/3x3
I0403 15:26:26.964278 31836 net.cpp:425] inception_4c/output <- inception_4c/5x5
I0403 15:26:26.964308 31836 net.cpp:425] inception_4c/output <- inception_4c/pool_proj
I0403 15:26:26.964331 31836 net.cpp:399] inception_4c/output -> inception_4c/output
I0403 15:26:26.964382 31836 net.cpp:141] Setting up inception_4c/output
I0403 15:26:26.964407 31836 net.cpp:148] Top shape: 24 512 14 14 (2408448)
I0403 15:26:26.964423 31836 net.cpp:156] Memory required for data: 1072647456
I0403 15:26:26.964438 31836 layer_factory.hpp:77] Creating layer inception_4c/output_inception_4c/output_0_split
I0403 15:26:26.964458 31836 net.cpp:91] Creating Layer inception_4c/output_inception_4c/output_0_split
I0403 15:26:26.964475 31836 net.cpp:425] inception_4c/output_inception_4c/output_0_split <- inception_4c/output
I0403 15:26:26.964495 31836 net.cpp:399] inception_4c/output_inception_4c/output_0_split -> inception_4c/output_inception_4c/output_0_split_0
I0403 15:26:26.964515 31836 net.cpp:399] inception_4c/output_inception_4c/output_0_split -> inception_4c/output_inception_4c/output_0_split_1
I0403 15:26:26.964541 31836 net.cpp:399] inception_4c/output_inception_4c/output_0_split -> inception_4c/output_inception_4c/output_0_split_2
I0403 15:26:26.964572 31836 net.cpp:399] inception_4c/output_inception_4c/output_0_split -> inception_4c/output_inception_4c/output_0_split_3
I0403 15:26:26.964665 31836 net.cpp:141] Setting up inception_4c/output_inception_4c/output_0_split
I0403 15:26:26.964691 31836 net.cpp:148] Top shape: 24 512 14 14 (2408448)
I0403 15:26:26.964709 31836 net.cpp:148] Top shape: 24 512 14 14 (2408448)
I0403 15:26:26.964725 31836 net.cpp:148] Top shape: 24 512 14 14 (2408448)
I0403 15:26:26.964742 31836 net.cpp:148] Top shape: 24 512 14 14 (2408448)
I0403 15:26:26.964757 31836 net.cpp:156] Memory required for data: 1111182624
I0403 15:26:26.964772 31836 layer_factory.hpp:77] Creating layer inception_4d/1x1
I0403 15:26:26.964795 31836 net.cpp:91] Creating Layer inception_4d/1x1
I0403 15:26:26.964814 31836 net.cpp:425] inception_4d/1x1 <- inception_4c/output_inception_4c/output_0_split_0
I0403 15:26:26.964838 31836 net.cpp:399] inception_4d/1x1 -> inception_4d/1x1
I0403 15:26:26.966274 31836 net.cpp:141] Setting up inception_4d/1x1
I0403 15:26:26.966307 31836 net.cpp:148] Top shape: 24 112 14 14 (526848)
I0403 15:26:26.966325 31836 net.cpp:156] Memory required for data: 1113290016
I0403 15:26:26.966343 31836 layer_factory.hpp:77] Creating layer inception_4d/relu_1x1
I0403 15:26:26.966367 31836 net.cpp:91] Creating Layer inception_4d/relu_1x1
I0403 15:26:26.966384 31836 net.cpp:425] inception_4d/relu_1x1 <- inception_4d/1x1
I0403 15:26:26.966404 31836 net.cpp:386] inception_4d/relu_1x1 -> inception_4d/1x1 (in-place)
I0403 15:26:26.966594 31836 net.cpp:141] Setting up inception_4d/relu_1x1
I0403 15:26:26.966620 31836 net.cpp:148] Top shape: 24 112 14 14 (526848)
I0403 15:26:26.966639 31836 net.cpp:156] Memory required for data: 1115397408
I0403 15:26:26.966655 31836 layer_factory.hpp:77] Creating layer inception_4d/3x3_reduce
I0403 15:26:26.966698 31836 net.cpp:91] Creating Layer inception_4d/3x3_reduce
I0403 15:26:26.966718 31836 net.cpp:425] inception_4d/3x3_reduce <- inception_4c/output_inception_4c/output_0_split_1
I0403 15:26:26.966740 31836 net.cpp:399] inception_4d/3x3_reduce -> inception_4d/3x3_reduce
I0403 15:26:26.968345 31836 net.cpp:141] Setting up inception_4d/3x3_reduce
I0403 15:26:26.968374 31836 net.cpp:148] Top shape: 24 144 14 14 (677376)
I0403 15:26:26.968390 31836 net.cpp:156] Memory required for data: 1118106912
I0403 15:26:26.968410 31836 layer_factory.hpp:77] Creating layer inception_4d/relu_3x3_reduce
I0403 15:26:26.968430 31836 net.cpp:91] Creating Layer inception_4d/relu_3x3_reduce
I0403 15:26:26.968446 31836 net.cpp:425] inception_4d/relu_3x3_reduce <- inception_4d/3x3_reduce
I0403 15:26:26.968466 31836 net.cpp:386] inception_4d/relu_3x3_reduce -> inception_4d/3x3_reduce (in-place)
I0403 15:26:26.968765 31836 net.cpp:141] Setting up inception_4d/relu_3x3_reduce
I0403 15:26:26.968794 31836 net.cpp:148] Top shape: 24 144 14 14 (677376)
I0403 15:26:26.968811 31836 net.cpp:156] Memory required for data: 1120816416
I0403 15:26:26.968827 31836 layer_factory.hpp:77] Creating layer inception_4d/3x3
I0403 15:26:26.968850 31836 net.cpp:91] Creating Layer inception_4d/3x3
I0403 15:26:26.968869 31836 net.cpp:425] inception_4d/3x3 <- inception_4d/3x3_reduce
I0403 15:26:26.968893 31836 net.cpp:399] inception_4d/3x3 -> inception_4d/3x3
I0403 15:26:26.973383 31836 net.cpp:141] Setting up inception_4d/3x3
I0403 15:26:26.973428 31836 net.cpp:148] Top shape: 24 288 14 14 (1354752)
I0403 15:26:26.973444 31836 net.cpp:156] Memory required for data: 1126235424
I0403 15:26:26.973465 31836 layer_factory.hpp:77] Creating layer inception_4d/relu_3x3
I0403 15:26:26.973487 31836 net.cpp:91] Creating Layer inception_4d/relu_3x3
I0403 15:26:26.973506 31836 net.cpp:425] inception_4d/relu_3x3 <- inception_4d/3x3
I0403 15:26:26.973526 31836 net.cpp:386] inception_4d/relu_3x3 -> inception_4d/3x3 (in-place)
I0403 15:26:26.973734 31836 net.cpp:141] Setting up inception_4d/relu_3x3
I0403 15:26:26.973764 31836 net.cpp:148] Top shape: 24 288 14 14 (1354752)
I0403 15:26:26.973781 31836 net.cpp:156] Memory required for data: 1131654432
I0403 15:26:26.973798 31836 layer_factory.hpp:77] Creating layer inception_4d/5x5_reduce
I0403 15:26:26.973821 31836 net.cpp:91] Creating Layer inception_4d/5x5_reduce
I0403 15:26:26.973841 31836 net.cpp:425] inception_4d/5x5_reduce <- inception_4c/output_inception_4c/output_0_split_2
I0403 15:26:26.973861 31836 net.cpp:399] inception_4d/5x5_reduce -> inception_4d/5x5_reduce
I0403 15:26:26.975069 31836 net.cpp:141] Setting up inception_4d/5x5_reduce
I0403 15:26:26.975098 31836 net.cpp:148] Top shape: 24 32 14 14 (150528)
I0403 15:26:26.975114 31836 net.cpp:156] Memory required for data: 1132256544
I0403 15:26:26.975134 31836 layer_factory.hpp:77] Creating layer inception_4d/relu_5x5_reduce
I0403 15:26:26.975155 31836 net.cpp:91] Creating Layer inception_4d/relu_5x5_reduce
I0403 15:26:26.975174 31836 net.cpp:425] inception_4d/relu_5x5_reduce <- inception_4d/5x5_reduce
I0403 15:26:26.975191 31836 net.cpp:386] inception_4d/relu_5x5_reduce -> inception_4d/5x5_reduce (in-place)
I0403 15:26:26.975399 31836 net.cpp:141] Setting up inception_4d/relu_5x5_reduce
I0403 15:26:26.975425 31836 net.cpp:148] Top shape: 24 32 14 14 (150528)
I0403 15:26:26.975442 31836 net.cpp:156] Memory required for data: 1132858656
I0403 15:26:26.975458 31836 layer_factory.hpp:77] Creating layer inception_4d/5x5
I0403 15:26:26.975483 31836 net.cpp:91] Creating Layer inception_4d/5x5
I0403 15:26:26.975502 31836 net.cpp:425] inception_4d/5x5 <- inception_4d/5x5_reduce
I0403 15:26:26.975523 31836 net.cpp:399] inception_4d/5x5 -> inception_4d/5x5
I0403 15:26:26.977124 31836 net.cpp:141] Setting up inception_4d/5x5
I0403 15:26:26.977155 31836 net.cpp:148] Top shape: 24 64 14 14 (301056)
I0403 15:26:26.977174 31836 net.cpp:156] Memory required for data: 1134062880
I0403 15:26:26.977193 31836 layer_factory.hpp:77] Creating layer inception_4d/relu_5x5
I0403 15:26:26.977229 31836 net.cpp:91] Creating Layer inception_4d/relu_5x5
I0403 15:26:26.977248 31836 net.cpp:425] inception_4d/relu_5x5 <- inception_4d/5x5
I0403 15:26:26.977269 31836 net.cpp:386] inception_4d/relu_5x5 -> inception_4d/5x5 (in-place)
I0403 15:26:26.977586 31836 net.cpp:141] Setting up inception_4d/relu_5x5
I0403 15:26:26.977615 31836 net.cpp:148] Top shape: 24 64 14 14 (301056)
I0403 15:26:26.977632 31836 net.cpp:156] Memory required for data: 1135267104
I0403 15:26:26.977648 31836 layer_factory.hpp:77] Creating layer inception_4d/pool
I0403 15:26:26.977669 31836 net.cpp:91] Creating Layer inception_4d/pool
I0403 15:26:26.977685 31836 net.cpp:425] inception_4d/pool <- inception_4c/output_inception_4c/output_0_split_3
I0403 15:26:26.977708 31836 net.cpp:399] inception_4d/pool -> inception_4d/pool
I0403 15:26:26.977777 31836 net.cpp:141] Setting up inception_4d/pool
I0403 15:26:26.977803 31836 net.cpp:148] Top shape: 24 512 14 14 (2408448)
I0403 15:26:26.977819 31836 net.cpp:156] Memory required for data: 1144900896
I0403 15:26:26.977834 31836 layer_factory.hpp:77] Creating layer inception_4d/pool_proj
I0403 15:26:26.977857 31836 net.cpp:91] Creating Layer inception_4d/pool_proj
I0403 15:26:26.977875 31836 net.cpp:425] inception_4d/pool_proj <- inception_4d/pool
I0403 15:26:26.977900 31836 net.cpp:399] inception_4d/pool_proj -> inception_4d/pool_proj
I0403 15:26:26.979791 31836 net.cpp:141] Setting up inception_4d/pool_proj
I0403 15:26:26.979821 31836 net.cpp:148] Top shape: 24 64 14 14 (301056)
I0403 15:26:26.979838 31836 net.cpp:156] Memory required for data: 1146105120
I0403 15:26:26.979857 31836 layer_factory.hpp:77] Creating layer inception_4d/relu_pool_proj
I0403 15:26:26.979878 31836 net.cpp:91] Creating Layer inception_4d/relu_pool_proj
I0403 15:26:26.979897 31836 net.cpp:425] inception_4d/relu_pool_proj <- inception_4d/pool_proj
I0403 15:26:26.979917 31836 net.cpp:386] inception_4d/relu_pool_proj -> inception_4d/pool_proj (in-place)
I0403 15:26:26.980108 31836 net.cpp:141] Setting up inception_4d/relu_pool_proj
I0403 15:26:26.980137 31836 net.cpp:148] Top shape: 24 64 14 14 (301056)
I0403 15:26:26.980154 31836 net.cpp:156] Memory required for data: 1147309344
I0403 15:26:26.980171 31836 layer_factory.hpp:77] Creating layer inception_4d/output
I0403 15:26:26.980190 31836 net.cpp:91] Creating Layer inception_4d/output
I0403 15:26:26.980206 31836 net.cpp:425] inception_4d/output <- inception_4d/1x1
I0403 15:26:26.980224 31836 net.cpp:425] inception_4d/output <- inception_4d/3x3
I0403 15:26:26.980242 31836 net.cpp:425] inception_4d/output <- inception_4d/5x5
I0403 15:26:26.980259 31836 net.cpp:425] inception_4d/output <- inception_4d/pool_proj
I0403 15:26:26.980278 31836 net.cpp:399] inception_4d/output -> inception_4d/output
I0403 15:26:26.980336 31836 net.cpp:141] Setting up inception_4d/output
I0403 15:26:26.980362 31836 net.cpp:148] Top shape: 24 528 14 14 (2483712)
I0403 15:26:26.980379 31836 net.cpp:156] Memory required for data: 1157244192
I0403 15:26:26.980394 31836 layer_factory.hpp:77] Creating layer inception_4d/output_inception_4d/output_0_split
I0403 15:26:26.980417 31836 net.cpp:91] Creating Layer inception_4d/output_inception_4d/output_0_split
I0403 15:26:26.980435 31836 net.cpp:425] inception_4d/output_inception_4d/output_0_split <- inception_4d/output
I0403 15:26:26.980454 31836 net.cpp:399] inception_4d/output_inception_4d/output_0_split -> inception_4d/output_inception_4d/output_0_split_0
I0403 15:26:26.980476 31836 net.cpp:399] inception_4d/output_inception_4d/output_0_split -> inception_4d/output_inception_4d/output_0_split_1
I0403 15:26:26.980499 31836 net.cpp:399] inception_4d/output_inception_4d/output_0_split -> inception_4d/output_inception_4d/output_0_split_2
I0403 15:26:26.980521 31836 net.cpp:399] inception_4d/output_inception_4d/output_0_split -> inception_4d/output_inception_4d/output_0_split_3
I0403 15:26:26.980545 31836 net.cpp:399] inception_4d/output_inception_4d/output_0_split -> inception_4d/output_inception_4d/output_0_split_4
I0403 15:26:26.980656 31836 net.cpp:141] Setting up inception_4d/output_inception_4d/output_0_split
I0403 15:26:26.980695 31836 net.cpp:148] Top shape: 24 528 14 14 (2483712)
I0403 15:26:26.980713 31836 net.cpp:148] Top shape: 24 528 14 14 (2483712)
I0403 15:26:26.980731 31836 net.cpp:148] Top shape: 24 528 14 14 (2483712)
I0403 15:26:26.980747 31836 net.cpp:148] Top shape: 24 528 14 14 (2483712)
I0403 15:26:26.980763 31836 net.cpp:148] Top shape: 24 528 14 14 (2483712)
I0403 15:26:26.980779 31836 net.cpp:156] Memory required for data: 1206918432
I0403 15:26:26.980795 31836 layer_factory.hpp:77] Creating layer loss2/ave_pool
I0403 15:26:26.980814 31836 net.cpp:91] Creating Layer loss2/ave_pool
I0403 15:26:26.980837 31836 net.cpp:425] loss2/ave_pool <- inception_4d/output_inception_4d/output_0_split_0
I0403 15:26:26.980857 31836 net.cpp:399] loss2/ave_pool -> loss2/ave_pool
I0403 15:26:26.981178 31836 net.cpp:141] Setting up loss2/ave_pool
I0403 15:26:26.981206 31836 net.cpp:148] Top shape: 24 528 4 4 (202752)
I0403 15:26:26.981222 31836 net.cpp:156] Memory required for data: 1207729440
I0403 15:26:26.981238 31836 layer_factory.hpp:77] Creating layer loss2/conv
I0403 15:26:26.981261 31836 net.cpp:91] Creating Layer loss2/conv
I0403 15:26:26.981281 31836 net.cpp:425] loss2/conv <- loss2/ave_pool
I0403 15:26:26.981310 31836 net.cpp:399] loss2/conv -> loss2/conv
I0403 15:26:26.983351 31836 net.cpp:141] Setting up loss2/conv
I0403 15:26:26.983383 31836 net.cpp:148] Top shape: 24 128 4 4 (49152)
I0403 15:26:26.983400 31836 net.cpp:156] Memory required for data: 1207926048
I0403 15:26:26.983419 31836 layer_factory.hpp:77] Creating layer loss2/relu_conv
I0403 15:26:26.983438 31836 net.cpp:91] Creating Layer loss2/relu_conv
I0403 15:26:26.983469 31836 net.cpp:425] loss2/relu_conv <- loss2/conv
I0403 15:26:26.983489 31836 net.cpp:386] loss2/relu_conv -> loss2/conv (in-place)
I0403 15:26:26.983785 31836 net.cpp:141] Setting up loss2/relu_conv
I0403 15:26:26.983815 31836 net.cpp:148] Top shape: 24 128 4 4 (49152)
I0403 15:26:26.983831 31836 net.cpp:156] Memory required for data: 1208122656
I0403 15:26:26.983847 31836 layer_factory.hpp:77] Creating layer loss2/fc
I0403 15:26:26.983867 31836 net.cpp:91] Creating Layer loss2/fc
I0403 15:26:26.983882 31836 net.cpp:425] loss2/fc <- loss2/conv
I0403 15:26:26.983903 31836 net.cpp:399] loss2/fc -> loss2/fc
I0403 15:26:27.001785 31836 net.cpp:141] Setting up loss2/fc
I0403 15:26:27.001822 31836 net.cpp:148] Top shape: 24 1024 (24576)
I0403 15:26:27.001838 31836 net.cpp:156] Memory required for data: 1208220960
I0403 15:26:27.001857 31836 layer_factory.hpp:77] Creating layer loss2/relu_fc
I0403 15:26:27.001876 31836 net.cpp:91] Creating Layer loss2/relu_fc
I0403 15:26:27.001893 31836 net.cpp:425] loss2/relu_fc <- loss2/fc
I0403 15:26:27.001910 31836 net.cpp:386] loss2/relu_fc -> loss2/fc (in-place)
I0403 15:26:27.002243 31836 net.cpp:141] Setting up loss2/relu_fc
I0403 15:26:27.002270 31836 net.cpp:148] Top shape: 24 1024 (24576)
I0403 15:26:27.002302 31836 net.cpp:156] Memory required for data: 1208319264
I0403 15:26:27.002321 31836 layer_factory.hpp:77] Creating layer loss2/drop_fc
I0403 15:26:27.002342 31836 net.cpp:91] Creating Layer loss2/drop_fc
I0403 15:26:27.002359 31836 net.cpp:425] loss2/drop_fc <- loss2/fc
I0403 15:26:27.002377 31836 net.cpp:386] loss2/drop_fc -> loss2/fc (in-place)
I0403 15:26:27.002429 31836 net.cpp:141] Setting up loss2/drop_fc
I0403 15:26:27.002454 31836 net.cpp:148] Top shape: 24 1024 (24576)
I0403 15:26:27.002470 31836 net.cpp:156] Memory required for data: 1208417568
I0403 15:26:27.002485 31836 layer_factory.hpp:77] Creating layer loss2/classifier_plantvillage
I0403 15:26:27.002506 31836 net.cpp:91] Creating Layer loss2/classifier_plantvillage
I0403 15:26:27.002524 31836 net.cpp:425] loss2/classifier_plantvillage <- loss2/fc
I0403 15:26:27.002543 31836 net.cpp:399] loss2/classifier_plantvillage -> loss2/classifier_plantvillage
I0403 15:26:27.002990 31836 net.cpp:141] Setting up loss2/classifier_plantvillage
I0403 15:26:27.003017 31836 net.cpp:148] Top shape: 24 38 (912)
I0403 15:26:27.003033 31836 net.cpp:156] Memory required for data: 1208421216
I0403 15:26:27.003070 31836 layer_factory.hpp:77] Creating layer loss2/classifier_plantvillage_loss2/classifier_plantvillage_0_split
I0403 15:26:27.003090 31836 net.cpp:91] Creating Layer loss2/classifier_plantvillage_loss2/classifier_plantvillage_0_split
I0403 15:26:27.003108 31836 net.cpp:425] loss2/classifier_plantvillage_loss2/classifier_plantvillage_0_split <- loss2/classifier_plantvillage
I0403 15:26:27.003128 31836 net.cpp:399] loss2/classifier_plantvillage_loss2/classifier_plantvillage_0_split -> loss2/classifier_plantvillage_loss2/classifier_plantvillage_0_split_0
I0403 15:26:27.003149 31836 net.cpp:399] loss2/classifier_plantvillage_loss2/classifier_plantvillage_0_split -> loss2/classifier_plantvillage_loss2/classifier_plantvillage_0_split_1
I0403 15:26:27.003173 31836 net.cpp:399] loss2/classifier_plantvillage_loss2/classifier_plantvillage_0_split -> loss2/classifier_plantvillage_loss2/classifier_plantvillage_0_split_2
I0403 15:26:27.003260 31836 net.cpp:141] Setting up loss2/classifier_plantvillage_loss2/classifier_plantvillage_0_split
I0403 15:26:27.003309 31836 net.cpp:148] Top shape: 24 38 (912)
I0403 15:26:27.003331 31836 net.cpp:148] Top shape: 24 38 (912)
I0403 15:26:27.003348 31836 net.cpp:148] Top shape: 24 38 (912)
I0403 15:26:27.003362 31836 net.cpp:156] Memory required for data: 1208432160
I0403 15:26:27.003378 31836 layer_factory.hpp:77] Creating layer inception_4e/1x1
I0403 15:26:27.003401 31836 net.cpp:91] Creating Layer inception_4e/1x1
I0403 15:26:27.003422 31836 net.cpp:425] inception_4e/1x1 <- inception_4d/output_inception_4d/output_0_split_1
I0403 15:26:27.003443 31836 net.cpp:399] inception_4e/1x1 -> inception_4e/1x1
I0403 15:26:27.005349 31836 net.cpp:141] Setting up inception_4e/1x1
I0403 15:26:27.005380 31836 net.cpp:148] Top shape: 24 256 14 14 (1204224)
I0403 15:26:27.005398 31836 net.cpp:156] Memory required for data: 1213249056
I0403 15:26:27.005416 31836 layer_factory.hpp:77] Creating layer inception_4e/relu_1x1
I0403 15:26:27.005434 31836 net.cpp:91] Creating Layer inception_4e/relu_1x1
I0403 15:26:27.005451 31836 net.cpp:425] inception_4e/relu_1x1 <- inception_4e/1x1
I0403 15:26:27.005472 31836 net.cpp:386] inception_4e/relu_1x1 -> inception_4e/1x1 (in-place)
I0403 15:26:27.005775 31836 net.cpp:141] Setting up inception_4e/relu_1x1
I0403 15:26:27.005803 31836 net.cpp:148] Top shape: 24 256 14 14 (1204224)
I0403 15:26:27.005820 31836 net.cpp:156] Memory required for data: 1218065952
I0403 15:26:27.005836 31836 layer_factory.hpp:77] Creating layer inception_4e/3x3_reduce
I0403 15:26:27.005857 31836 net.cpp:91] Creating Layer inception_4e/3x3_reduce
I0403 15:26:27.005875 31836 net.cpp:425] inception_4e/3x3_reduce <- inception_4d/output_inception_4d/output_0_split_2
I0403 15:26:27.005894 31836 net.cpp:399] inception_4e/3x3_reduce -> inception_4e/3x3_reduce
I0403 15:26:27.008076 31836 net.cpp:141] Setting up inception_4e/3x3_reduce
I0403 15:26:27.008107 31836 net.cpp:148] Top shape: 24 160 14 14 (752640)
I0403 15:26:27.008124 31836 net.cpp:156] Memory required for data: 1221076512
I0403 15:26:27.008142 31836 layer_factory.hpp:77] Creating layer inception_4e/relu_3x3_reduce
I0403 15:26:27.008162 31836 net.cpp:91] Creating Layer inception_4e/relu_3x3_reduce
I0403 15:26:27.008177 31836 net.cpp:425] inception_4e/relu_3x3_reduce <- inception_4e/3x3_reduce
I0403 15:26:27.008195 31836 net.cpp:386] inception_4e/relu_3x3_reduce -> inception_4e/3x3_reduce (in-place)
I0403 15:26:27.008383 31836 net.cpp:141] Setting up inception_4e/relu_3x3_reduce
I0403 15:26:27.008417 31836 net.cpp:148] Top shape: 24 160 14 14 (752640)
I0403 15:26:27.008433 31836 net.cpp:156] Memory required for data: 1224087072
I0403 15:26:27.008450 31836 layer_factory.hpp:77] Creating layer inception_4e/3x3
I0403 15:26:27.008472 31836 net.cpp:91] Creating Layer inception_4e/3x3
I0403 15:26:27.008491 31836 net.cpp:425] inception_4e/3x3 <- inception_4e/3x3_reduce
I0403 15:26:27.008513 31836 net.cpp:399] inception_4e/3x3 -> inception_4e/3x3
I0403 15:26:27.013552 31836 net.cpp:141] Setting up inception_4e/3x3
I0403 15:26:27.013592 31836 net.cpp:148] Top shape: 24 320 14 14 (1505280)
I0403 15:26:27.013609 31836 net.cpp:156] Memory required for data: 1230108192
I0403 15:26:27.013629 31836 layer_factory.hpp:77] Creating layer inception_4e/relu_3x3
I0403 15:26:27.013646 31836 net.cpp:91] Creating Layer inception_4e/relu_3x3
I0403 15:26:27.013662 31836 net.cpp:425] inception_4e/relu_3x3 <- inception_4e/3x3
I0403 15:26:27.013684 31836 net.cpp:386] inception_4e/relu_3x3 -> inception_4e/3x3 (in-place)
I0403 15:26:27.013978 31836 net.cpp:141] Setting up inception_4e/relu_3x3
I0403 15:26:27.014004 31836 net.cpp:148] Top shape: 24 320 14 14 (1505280)
I0403 15:26:27.014019 31836 net.cpp:156] Memory required for data: 1236129312
I0403 15:26:27.014035 31836 layer_factory.hpp:77] Creating layer inception_4e/5x5_reduce
I0403 15:26:27.014057 31836 net.cpp:91] Creating Layer inception_4e/5x5_reduce
I0403 15:26:27.014076 31836 net.cpp:425] inception_4e/5x5_reduce <- inception_4d/output_inception_4d/output_0_split_3
I0403 15:26:27.014098 31836 net.cpp:399] inception_4e/5x5_reduce -> inception_4e/5x5_reduce
I0403 15:26:27.015195 31836 net.cpp:141] Setting up inception_4e/5x5_reduce
I0403 15:26:27.015226 31836 net.cpp:148] Top shape: 24 32 14 14 (150528)
I0403 15:26:27.015242 31836 net.cpp:156] Memory required for data: 1236731424
I0403 15:26:27.015261 31836 layer_factory.hpp:77] Creating layer inception_4e/relu_5x5_reduce
I0403 15:26:27.015280 31836 net.cpp:91] Creating Layer inception_4e/relu_5x5_reduce
I0403 15:26:27.015301 31836 net.cpp:425] inception_4e/relu_5x5_reduce <- inception_4e/5x5_reduce
I0403 15:26:27.015322 31836 net.cpp:386] inception_4e/relu_5x5_reduce -> inception_4e/5x5_reduce (in-place)
I0403 15:26:27.015616 31836 net.cpp:141] Setting up inception_4e/relu_5x5_reduce
I0403 15:26:27.015645 31836 net.cpp:148] Top shape: 24 32 14 14 (150528)
I0403 15:26:27.015662 31836 net.cpp:156] Memory required for data: 1237333536
I0403 15:26:27.015677 31836 layer_factory.hpp:77] Creating layer inception_4e/5x5
I0403 15:26:27.015719 31836 net.cpp:91] Creating Layer inception_4e/5x5
I0403 15:26:27.015738 31836 net.cpp:425] inception_4e/5x5 <- inception_4e/5x5_reduce
I0403 15:26:27.015758 31836 net.cpp:399] inception_4e/5x5 -> inception_4e/5x5
I0403 15:26:27.017622 31836 net.cpp:141] Setting up inception_4e/5x5
I0403 15:26:27.017649 31836 net.cpp:148] Top shape: 24 128 14 14 (602112)
I0403 15:26:27.017665 31836 net.cpp:156] Memory required for data: 1239741984
I0403 15:26:27.017684 31836 layer_factory.hpp:77] Creating layer inception_4e/relu_5x5
I0403 15:26:27.017705 31836 net.cpp:91] Creating Layer inception_4e/relu_5x5
I0403 15:26:27.017722 31836 net.cpp:425] inception_4e/relu_5x5 <- inception_4e/5x5
I0403 15:26:27.017740 31836 net.cpp:386] inception_4e/relu_5x5 -> inception_4e/5x5 (in-place)
I0403 15:26:27.017948 31836 net.cpp:141] Setting up inception_4e/relu_5x5
I0403 15:26:27.017976 31836 net.cpp:148] Top shape: 24 128 14 14 (602112)
I0403 15:26:27.017992 31836 net.cpp:156] Memory required for data: 1242150432
I0403 15:26:27.018008 31836 layer_factory.hpp:77] Creating layer inception_4e/pool
I0403 15:26:27.018026 31836 net.cpp:91] Creating Layer inception_4e/pool
I0403 15:26:27.018052 31836 net.cpp:425] inception_4e/pool <- inception_4d/output_inception_4d/output_0_split_4
I0403 15:26:27.018076 31836 net.cpp:399] inception_4e/pool -> inception_4e/pool
I0403 15:26:27.018158 31836 net.cpp:141] Setting up inception_4e/pool
I0403 15:26:27.018183 31836 net.cpp:148] Top shape: 24 528 14 14 (2483712)
I0403 15:26:27.018198 31836 net.cpp:156] Memory required for data: 1252085280
I0403 15:26:27.018213 31836 layer_factory.hpp:77] Creating layer inception_4e/pool_proj
I0403 15:26:27.018234 31836 net.cpp:91] Creating Layer inception_4e/pool_proj
I0403 15:26:27.018254 31836 net.cpp:425] inception_4e/pool_proj <- inception_4e/pool
I0403 15:26:27.018273 31836 net.cpp:399] inception_4e/pool_proj -> inception_4e/pool_proj
I0403 15:26:27.019860 31836 net.cpp:141] Setting up inception_4e/pool_proj
I0403 15:26:27.019888 31836 net.cpp:148] Top shape: 24 128 14 14 (602112)
I0403 15:26:27.019918 31836 net.cpp:156] Memory required for data: 1254493728
I0403 15:26:27.019938 31836 layer_factory.hpp:77] Creating layer inception_4e/relu_pool_proj
I0403 15:26:27.019959 31836 net.cpp:91] Creating Layer inception_4e/relu_pool_proj
I0403 15:26:27.019978 31836 net.cpp:425] inception_4e/relu_pool_proj <- inception_4e/pool_proj
I0403 15:26:27.019995 31836 net.cpp:386] inception_4e/relu_pool_proj -> inception_4e/pool_proj (in-place)
I0403 15:26:27.020287 31836 net.cpp:141] Setting up inception_4e/relu_pool_proj
I0403 15:26:27.020315 31836 net.cpp:148] Top shape: 24 128 14 14 (602112)
I0403 15:26:27.020331 31836 net.cpp:156] Memory required for data: 1256902176
I0403 15:26:27.020346 31836 layer_factory.hpp:77] Creating layer inception_4e/output
I0403 15:26:27.020364 31836 net.cpp:91] Creating Layer inception_4e/output
I0403 15:26:27.020380 31836 net.cpp:425] inception_4e/output <- inception_4e/1x1
I0403 15:26:27.020398 31836 net.cpp:425] inception_4e/output <- inception_4e/3x3
I0403 15:26:27.020416 31836 net.cpp:425] inception_4e/output <- inception_4e/5x5
I0403 15:26:27.020432 31836 net.cpp:425] inception_4e/output <- inception_4e/pool_proj
I0403 15:26:27.020450 31836 net.cpp:399] inception_4e/output -> inception_4e/output
I0403 15:26:27.020500 31836 net.cpp:141] Setting up inception_4e/output
I0403 15:26:27.020525 31836 net.cpp:148] Top shape: 24 832 14 14 (3913728)
I0403 15:26:27.020539 31836 net.cpp:156] Memory required for data: 1272557088
I0403 15:26:27.020553 31836 layer_factory.hpp:77] Creating layer pool4/3x3_s2
I0403 15:26:27.020572 31836 net.cpp:91] Creating Layer pool4/3x3_s2
I0403 15:26:27.020588 31836 net.cpp:425] pool4/3x3_s2 <- inception_4e/output
I0403 15:26:27.020612 31836 net.cpp:399] pool4/3x3_s2 -> pool4/3x3_s2
I0403 15:26:27.020678 31836 net.cpp:141] Setting up pool4/3x3_s2
I0403 15:26:27.020702 31836 net.cpp:148] Top shape: 24 832 7 7 (978432)
I0403 15:26:27.020719 31836 net.cpp:156] Memory required for data: 1276470816
I0403 15:26:27.020733 31836 layer_factory.hpp:77] Creating layer pool4/3x3_s2_pool4/3x3_s2_0_split
I0403 15:26:27.020753 31836 net.cpp:91] Creating Layer pool4/3x3_s2_pool4/3x3_s2_0_split
I0403 15:26:27.020769 31836 net.cpp:425] pool4/3x3_s2_pool4/3x3_s2_0_split <- pool4/3x3_s2
I0403 15:26:27.020788 31836 net.cpp:399] pool4/3x3_s2_pool4/3x3_s2_0_split -> pool4/3x3_s2_pool4/3x3_s2_0_split_0
I0403 15:26:27.020812 31836 net.cpp:399] pool4/3x3_s2_pool4/3x3_s2_0_split -> pool4/3x3_s2_pool4/3x3_s2_0_split_1
I0403 15:26:27.020833 31836 net.cpp:399] pool4/3x3_s2_pool4/3x3_s2_0_split -> pool4/3x3_s2_pool4/3x3_s2_0_split_2
I0403 15:26:27.020853 31836 net.cpp:399] pool4/3x3_s2_pool4/3x3_s2_0_split -> pool4/3x3_s2_pool4/3x3_s2_0_split_3
I0403 15:26:27.020941 31836 net.cpp:141] Setting up pool4/3x3_s2_pool4/3x3_s2_0_split
I0403 15:26:27.020967 31836 net.cpp:148] Top shape: 24 832 7 7 (978432)
I0403 15:26:27.020982 31836 net.cpp:148] Top shape: 24 832 7 7 (978432)
I0403 15:26:27.020998 31836 net.cpp:148] Top shape: 24 832 7 7 (978432)
I0403 15:26:27.021013 31836 net.cpp:148] Top shape: 24 832 7 7 (978432)
I0403 15:26:27.021026 31836 net.cpp:156] Memory required for data: 1292125728
I0403 15:26:27.021041 31836 layer_factory.hpp:77] Creating layer inception_5a/1x1
I0403 15:26:27.021064 31836 net.cpp:91] Creating Layer inception_5a/1x1
I0403 15:26:27.021080 31836 net.cpp:425] inception_5a/1x1 <- pool4/3x3_s2_pool4/3x3_s2_0_split_0
I0403 15:26:27.021102 31836 net.cpp:399] inception_5a/1x1 -> inception_5a/1x1
I0403 15:26:27.024076 31836 net.cpp:141] Setting up inception_5a/1x1
I0403 15:26:27.024108 31836 net.cpp:148] Top shape: 24 256 7 7 (301056)
I0403 15:26:27.024127 31836 net.cpp:156] Memory required for data: 1293329952
I0403 15:26:27.024145 31836 layer_factory.hpp:77] Creating layer inception_5a/relu_1x1
I0403 15:26:27.024163 31836 net.cpp:91] Creating Layer inception_5a/relu_1x1
I0403 15:26:27.024180 31836 net.cpp:425] inception_5a/relu_1x1 <- inception_5a/1x1
I0403 15:26:27.024197 31836 net.cpp:386] inception_5a/relu_1x1 -> inception_5a/1x1 (in-place)
I0403 15:26:27.024539 31836 net.cpp:141] Setting up inception_5a/relu_1x1
I0403 15:26:27.024570 31836 net.cpp:148] Top shape: 24 256 7 7 (301056)
I0403 15:26:27.024587 31836 net.cpp:156] Memory required for data: 1294534176
I0403 15:26:27.024605 31836 layer_factory.hpp:77] Creating layer inception_5a/3x3_reduce
I0403 15:26:27.024626 31836 net.cpp:91] Creating Layer inception_5a/3x3_reduce
I0403 15:26:27.024643 31836 net.cpp:425] inception_5a/3x3_reduce <- pool4/3x3_s2_pool4/3x3_s2_0_split_1
I0403 15:26:27.024667 31836 net.cpp:399] inception_5a/3x3_reduce -> inception_5a/3x3_reduce
I0403 15:26:27.027248 31836 net.cpp:141] Setting up inception_5a/3x3_reduce
I0403 15:26:27.027281 31836 net.cpp:148] Top shape: 24 160 7 7 (188160)
I0403 15:26:27.027318 31836 net.cpp:156] Memory required for data: 1295286816
I0403 15:26:27.027338 31836 layer_factory.hpp:77] Creating layer inception_5a/relu_3x3_reduce
I0403 15:26:27.027359 31836 net.cpp:91] Creating Layer inception_5a/relu_3x3_reduce
I0403 15:26:27.027376 31836 net.cpp:425] inception_5a/relu_3x3_reduce <- inception_5a/3x3_reduce
I0403 15:26:27.027397 31836 net.cpp:386] inception_5a/relu_3x3_reduce -> inception_5a/3x3_reduce (in-place)
I0403 15:26:27.027614 31836 net.cpp:141] Setting up inception_5a/relu_3x3_reduce
I0403 15:26:27.027642 31836 net.cpp:148] Top shape: 24 160 7 7 (188160)
I0403 15:26:27.027658 31836 net.cpp:156] Memory required for data: 1296039456
I0403 15:26:27.027674 31836 layer_factory.hpp:77] Creating layer inception_5a/3x3
I0403 15:26:27.027698 31836 net.cpp:91] Creating Layer inception_5a/3x3
I0403 15:26:27.027716 31836 net.cpp:425] inception_5a/3x3 <- inception_5a/3x3_reduce
I0403 15:26:27.027740 31836 net.cpp:399] inception_5a/3x3 -> inception_5a/3x3
I0403 15:26:27.033036 31836 net.cpp:141] Setting up inception_5a/3x3
I0403 15:26:27.033068 31836 net.cpp:148] Top shape: 24 320 7 7 (376320)
I0403 15:26:27.033085 31836 net.cpp:156] Memory required for data: 1297544736
I0403 15:26:27.033105 31836 layer_factory.hpp:77] Creating layer inception_5a/relu_3x3
I0403 15:26:27.033128 31836 net.cpp:91] Creating Layer inception_5a/relu_3x3
I0403 15:26:27.033145 31836 net.cpp:425] inception_5a/relu_3x3 <- inception_5a/3x3
I0403 15:26:27.033164 31836 net.cpp:386] inception_5a/relu_3x3 -> inception_5a/3x3 (in-place)
I0403 15:26:27.033495 31836 net.cpp:141] Setting up inception_5a/relu_3x3
I0403 15:26:27.033524 31836 net.cpp:148] Top shape: 24 320 7 7 (376320)
I0403 15:26:27.033540 31836 net.cpp:156] Memory required for data: 1299050016
I0403 15:26:27.033557 31836 layer_factory.hpp:77] Creating layer inception_5a/5x5_reduce
I0403 15:26:27.033586 31836 net.cpp:91] Creating Layer inception_5a/5x5_reduce
I0403 15:26:27.033607 31836 net.cpp:425] inception_5a/5x5_reduce <- pool4/3x3_s2_pool4/3x3_s2_0_split_2
I0403 15:26:27.033628 31836 net.cpp:399] inception_5a/5x5_reduce -> inception_5a/5x5_reduce
I0403 15:26:27.034875 31836 net.cpp:141] Setting up inception_5a/5x5_reduce
I0403 15:26:27.034909 31836 net.cpp:148] Top shape: 24 32 7 7 (37632)
I0403 15:26:27.034926 31836 net.cpp:156] Memory required for data: 1299200544
I0403 15:26:27.034946 31836 layer_factory.hpp:77] Creating layer inception_5a/relu_5x5_reduce
I0403 15:26:27.034965 31836 net.cpp:91] Creating Layer inception_5a/relu_5x5_reduce
I0403 15:26:27.034983 31836 net.cpp:425] inception_5a/relu_5x5_reduce <- inception_5a/5x5_reduce
I0403 15:26:27.035001 31836 net.cpp:386] inception_5a/relu_5x5_reduce -> inception_5a/5x5_reduce (in-place)
I0403 15:26:27.035334 31836 net.cpp:141] Setting up inception_5a/relu_5x5_reduce
I0403 15:26:27.035368 31836 net.cpp:148] Top shape: 24 32 7 7 (37632)
I0403 15:26:27.035387 31836 net.cpp:156] Memory required for data: 1299351072
I0403 15:26:27.035403 31836 layer_factory.hpp:77] Creating layer inception_5a/5x5
I0403 15:26:27.035429 31836 net.cpp:91] Creating Layer inception_5a/5x5
I0403 15:26:27.035449 31836 net.cpp:425] inception_5a/5x5 <- inception_5a/5x5_reduce
I0403 15:26:27.035470 31836 net.cpp:399] inception_5a/5x5 -> inception_5a/5x5
I0403 15:26:27.037302 31836 net.cpp:141] Setting up inception_5a/5x5
I0403 15:26:27.037344 31836 net.cpp:148] Top shape: 24 128 7 7 (150528)
I0403 15:26:27.037361 31836 net.cpp:156] Memory required for data: 1299953184
I0403 15:26:27.037380 31836 layer_factory.hpp:77] Creating layer inception_5a/relu_5x5
I0403 15:26:27.037402 31836 net.cpp:91] Creating Layer inception_5a/relu_5x5
I0403 15:26:27.037420 31836 net.cpp:425] inception_5a/relu_5x5 <- inception_5a/5x5
I0403 15:26:27.037439 31836 net.cpp:386] inception_5a/relu_5x5 -> inception_5a/5x5 (in-place)
I0403 15:26:27.037637 31836 net.cpp:141] Setting up inception_5a/relu_5x5
I0403 15:26:27.037665 31836 net.cpp:148] Top shape: 24 128 7 7 (150528)
I0403 15:26:27.037681 31836 net.cpp:156] Memory required for data: 1300555296
I0403 15:26:27.037698 31836 layer_factory.hpp:77] Creating layer inception_5a/pool
I0403 15:26:27.037716 31836 net.cpp:91] Creating Layer inception_5a/pool
I0403 15:26:27.037734 31836 net.cpp:425] inception_5a/pool <- pool4/3x3_s2_pool4/3x3_s2_0_split_3
I0403 15:26:27.037755 31836 net.cpp:399] inception_5a/pool -> inception_5a/pool
I0403 15:26:27.037840 31836 net.cpp:141] Setting up inception_5a/pool
I0403 15:26:27.037868 31836 net.cpp:148] Top shape: 24 832 7 7 (978432)
I0403 15:26:27.037884 31836 net.cpp:156] Memory required for data: 1304469024
I0403 15:26:27.037901 31836 layer_factory.hpp:77] Creating layer inception_5a/pool_proj
I0403 15:26:27.037926 31836 net.cpp:91] Creating Layer inception_5a/pool_proj
I0403 15:26:27.037946 31836 net.cpp:425] inception_5a/pool_proj <- inception_5a/pool
I0403 15:26:27.037967 31836 net.cpp:399] inception_5a/pool_proj -> inception_5a/pool_proj
I0403 15:26:27.040472 31836 net.cpp:141] Setting up inception_5a/pool_proj
I0403 15:26:27.040503 31836 net.cpp:148] Top shape: 24 128 7 7 (150528)
I0403 15:26:27.040520 31836 net.cpp:156] Memory required for data: 1305071136
I0403 15:26:27.040539 31836 layer_factory.hpp:77] Creating layer inception_5a/relu_pool_proj
I0403 15:26:27.040560 31836 net.cpp:91] Creating Layer inception_5a/relu_pool_proj
I0403 15:26:27.040580 31836 net.cpp:425] inception_5a/relu_pool_proj <- inception_5a/pool_proj
I0403 15:26:27.040598 31836 net.cpp:386] inception_5a/relu_pool_proj -> inception_5a/pool_proj (in-place)
I0403 15:26:27.040900 31836 net.cpp:141] Setting up inception_5a/relu_pool_proj
I0403 15:26:27.040928 31836 net.cpp:148] Top shape: 24 128 7 7 (150528)
I0403 15:26:27.040946 31836 net.cpp:156] Memory required for data: 1305673248
I0403 15:26:27.040961 31836 layer_factory.hpp:77] Creating layer inception_5a/output
I0403 15:26:27.040982 31836 net.cpp:91] Creating Layer inception_5a/output
I0403 15:26:27.040998 31836 net.cpp:425] inception_5a/output <- inception_5a/1x1
I0403 15:26:27.041016 31836 net.cpp:425] inception_5a/output <- inception_5a/3x3
I0403 15:26:27.041033 31836 net.cpp:425] inception_5a/output <- inception_5a/5x5
I0403 15:26:27.041050 31836 net.cpp:425] inception_5a/output <- inception_5a/pool_proj
I0403 15:26:27.041069 31836 net.cpp:399] inception_5a/output -> inception_5a/output
I0403 15:26:27.041122 31836 net.cpp:141] Setting up inception_5a/output
I0403 15:26:27.041148 31836 net.cpp:148] Top shape: 24 832 7 7 (978432)
I0403 15:26:27.041163 31836 net.cpp:156] Memory required for data: 1309586976
I0403 15:26:27.041178 31836 layer_factory.hpp:77] Creating layer inception_5a/output_inception_5a/output_0_split
I0403 15:26:27.041196 31836 net.cpp:91] Creating Layer inception_5a/output_inception_5a/output_0_split
I0403 15:26:27.041213 31836 net.cpp:425] inception_5a/output_inception_5a/output_0_split <- inception_5a/output
I0403 15:26:27.041232 31836 net.cpp:399] inception_5a/output_inception_5a/output_0_split -> inception_5a/output_inception_5a/output_0_split_0
I0403 15:26:27.041255 31836 net.cpp:399] inception_5a/output_inception_5a/output_0_split -> inception_5a/output_inception_5a/output_0_split_1
I0403 15:26:27.041276 31836 net.cpp:399] inception_5a/output_inception_5a/output_0_split -> inception_5a/output_inception_5a/output_0_split_2
I0403 15:26:27.041304 31836 net.cpp:399] inception_5a/output_inception_5a/output_0_split -> inception_5a/output_inception_5a/output_0_split_3
I0403 15:26:27.041420 31836 net.cpp:141] Setting up inception_5a/output_inception_5a/output_0_split
I0403 15:26:27.041447 31836 net.cpp:148] Top shape: 24 832 7 7 (978432)
I0403 15:26:27.041465 31836 net.cpp:148] Top shape: 24 832 7 7 (978432)
I0403 15:26:27.041482 31836 net.cpp:148] Top shape: 24 832 7 7 (978432)
I0403 15:26:27.041499 31836 net.cpp:148] Top shape: 24 832 7 7 (978432)
I0403 15:26:27.041513 31836 net.cpp:156] Memory required for data: 1325241888
I0403 15:26:27.041528 31836 layer_factory.hpp:77] Creating layer inception_5b/1x1
I0403 15:26:27.041551 31836 net.cpp:91] Creating Layer inception_5b/1x1
I0403 15:26:27.041573 31836 net.cpp:425] inception_5b/1x1 <- inception_5a/output_inception_5a/output_0_split_0
I0403 15:26:27.041592 31836 net.cpp:399] inception_5b/1x1 -> inception_5b/1x1
I0403 15:26:27.045467 31836 net.cpp:141] Setting up inception_5b/1x1
I0403 15:26:27.045498 31836 net.cpp:148] Top shape: 24 384 7 7 (451584)
I0403 15:26:27.045516 31836 net.cpp:156] Memory required for data: 1327048224
I0403 15:26:27.045536 31836 layer_factory.hpp:77] Creating layer inception_5b/relu_1x1
I0403 15:26:27.045557 31836 net.cpp:91] Creating Layer inception_5b/relu_1x1
I0403 15:26:27.045578 31836 net.cpp:425] inception_5b/relu_1x1 <- inception_5b/1x1
I0403 15:26:27.045595 31836 net.cpp:386] inception_5b/relu_1x1 -> inception_5b/1x1 (in-place)
I0403 15:26:27.045929 31836 net.cpp:141] Setting up inception_5b/relu_1x1
I0403 15:26:27.045958 31836 net.cpp:148] Top shape: 24 384 7 7 (451584)
I0403 15:26:27.045974 31836 net.cpp:156] Memory required for data: 1328854560
I0403 15:26:27.045989 31836 layer_factory.hpp:77] Creating layer inception_5b/3x3_reduce
I0403 15:26:27.046011 31836 net.cpp:91] Creating Layer inception_5b/3x3_reduce
I0403 15:26:27.046030 31836 net.cpp:425] inception_5b/3x3_reduce <- inception_5a/output_inception_5a/output_0_split_1
I0403 15:26:27.046056 31836 net.cpp:399] inception_5b/3x3_reduce -> inception_5b/3x3_reduce
I0403 15:26:27.048826 31836 net.cpp:141] Setting up inception_5b/3x3_reduce
I0403 15:26:27.048857 31836 net.cpp:148] Top shape: 24 192 7 7 (225792)
I0403 15:26:27.048876 31836 net.cpp:156] Memory required for data: 1329757728
I0403 15:26:27.048894 31836 layer_factory.hpp:77] Creating layer inception_5b/relu_3x3_reduce
I0403 15:26:27.048915 31836 net.cpp:91] Creating Layer inception_5b/relu_3x3_reduce
I0403 15:26:27.048934 31836 net.cpp:425] inception_5b/relu_3x3_reduce <- inception_5b/3x3_reduce
I0403 15:26:27.048952 31836 net.cpp:386] inception_5b/relu_3x3_reduce -> inception_5b/3x3_reduce (in-place)
I0403 15:26:27.049160 31836 net.cpp:141] Setting up inception_5b/relu_3x3_reduce
I0403 15:26:27.049186 31836 net.cpp:148] Top shape: 24 192 7 7 (225792)
I0403 15:26:27.049201 31836 net.cpp:156] Memory required for data: 1330660896
I0403 15:26:27.049217 31836 layer_factory.hpp:77] Creating layer inception_5b/3x3
I0403 15:26:27.049242 31836 net.cpp:91] Creating Layer inception_5b/3x3
I0403 15:26:27.049263 31836 net.cpp:425] inception_5b/3x3 <- inception_5b/3x3_reduce
I0403 15:26:27.049288 31836 net.cpp:399] inception_5b/3x3 -> inception_5b/3x3
I0403 15:26:27.056287 31836 net.cpp:141] Setting up inception_5b/3x3
I0403 15:26:27.056316 31836 net.cpp:148] Top shape: 24 384 7 7 (451584)
I0403 15:26:27.056334 31836 net.cpp:156] Memory required for data: 1332467232
I0403 15:26:27.056354 31836 layer_factory.hpp:77] Creating layer inception_5b/relu_3x3
I0403 15:26:27.056375 31836 net.cpp:91] Creating Layer inception_5b/relu_3x3
I0403 15:26:27.056392 31836 net.cpp:425] inception_5b/relu_3x3 <- inception_5b/3x3
I0403 15:26:27.056411 31836 net.cpp:386] inception_5b/relu_3x3 -> inception_5b/3x3 (in-place)
I0403 15:26:27.056717 31836 net.cpp:141] Setting up inception_5b/relu_3x3
I0403 15:26:27.056746 31836 net.cpp:148] Top shape: 24 384 7 7 (451584)
I0403 15:26:27.056761 31836 net.cpp:156] Memory required for data: 1334273568
I0403 15:26:27.056777 31836 layer_factory.hpp:77] Creating layer inception_5b/5x5_reduce
I0403 15:26:27.056818 31836 net.cpp:91] Creating Layer inception_5b/5x5_reduce
I0403 15:26:27.056840 31836 net.cpp:425] inception_5b/5x5_reduce <- inception_5a/output_inception_5a/output_0_split_2
I0403 15:26:27.056862 31836 net.cpp:399] inception_5b/5x5_reduce -> inception_5b/5x5_reduce
I0403 15:26:27.058184 31836 net.cpp:141] Setting up inception_5b/5x5_reduce
I0403 15:26:27.058214 31836 net.cpp:148] Top shape: 24 48 7 7 (56448)
I0403 15:26:27.058231 31836 net.cpp:156] Memory required for data: 1334499360
I0403 15:26:27.058251 31836 layer_factory.hpp:77] Creating layer inception_5b/relu_5x5_reduce
I0403 15:26:27.058272 31836 net.cpp:91] Creating Layer inception_5b/relu_5x5_reduce
I0403 15:26:27.058295 31836 net.cpp:425] inception_5b/relu_5x5_reduce <- inception_5b/5x5_reduce
I0403 15:26:27.058315 31836 net.cpp:386] inception_5b/relu_5x5_reduce -> inception_5b/5x5_reduce (in-place)
I0403 15:26:27.058709 31836 net.cpp:141] Setting up inception_5b/relu_5x5_reduce
I0403 15:26:27.058737 31836 net.cpp:148] Top shape: 24 48 7 7 (56448)
I0403 15:26:27.058753 31836 net.cpp:156] Memory required for data: 1334725152
I0403 15:26:27.058768 31836 layer_factory.hpp:77] Creating layer inception_5b/5x5
I0403 15:26:27.058789 31836 net.cpp:91] Creating Layer inception_5b/5x5
I0403 15:26:27.058809 31836 net.cpp:425] inception_5b/5x5 <- inception_5b/5x5_reduce
I0403 15:26:27.058828 31836 net.cpp:399] inception_5b/5x5 -> inception_5b/5x5
I0403 15:26:27.061053 31836 net.cpp:141] Setting up inception_5b/5x5
I0403 15:26:27.061084 31836 net.cpp:148] Top shape: 24 128 7 7 (150528)
I0403 15:26:27.061102 31836 net.cpp:156] Memory required for data: 1335327264
I0403 15:26:27.061122 31836 layer_factory.hpp:77] Creating layer inception_5b/relu_5x5
I0403 15:26:27.061154 31836 net.cpp:91] Creating Layer inception_5b/relu_5x5
I0403 15:26:27.061172 31836 net.cpp:425] inception_5b/relu_5x5 <- inception_5b/5x5
I0403 15:26:27.061189 31836 net.cpp:386] inception_5b/relu_5x5 -> inception_5b/5x5 (in-place)
I0403 15:26:27.061393 31836 net.cpp:141] Setting up inception_5b/relu_5x5
I0403 15:26:27.061421 31836 net.cpp:148] Top shape: 24 128 7 7 (150528)
I0403 15:26:27.061450 31836 net.cpp:156] Memory required for data: 1335929376
I0403 15:26:27.061470 31836 layer_factory.hpp:77] Creating layer inception_5b/pool
I0403 15:26:27.061488 31836 net.cpp:91] Creating Layer inception_5b/pool
I0403 15:26:27.061506 31836 net.cpp:425] inception_5b/pool <- inception_5a/output_inception_5a/output_0_split_3
I0403 15:26:27.061527 31836 net.cpp:399] inception_5b/pool -> inception_5b/pool
I0403 15:26:27.061605 31836 net.cpp:141] Setting up inception_5b/pool
I0403 15:26:27.061635 31836 net.cpp:148] Top shape: 24 832 7 7 (978432)
I0403 15:26:27.061650 31836 net.cpp:156] Memory required for data: 1339843104
I0403 15:26:27.061666 31836 layer_factory.hpp:77] Creating layer inception_5b/pool_proj
I0403 15:26:27.061687 31836 net.cpp:91] Creating Layer inception_5b/pool_proj
I0403 15:26:27.061707 31836 net.cpp:425] inception_5b/pool_proj <- inception_5b/pool
I0403 15:26:27.061743 31836 net.cpp:399] inception_5b/pool_proj -> inception_5b/pool_proj
I0403 15:26:27.064103 31836 net.cpp:141] Setting up inception_5b/pool_proj
I0403 15:26:27.064133 31836 net.cpp:148] Top shape: 24 128 7 7 (150528)
I0403 15:26:27.064149 31836 net.cpp:156] Memory required for data: 1340445216
I0403 15:26:27.064168 31836 layer_factory.hpp:77] Creating layer inception_5b/relu_pool_proj
I0403 15:26:27.064190 31836 net.cpp:91] Creating Layer inception_5b/relu_pool_proj
I0403 15:26:27.064221 31836 net.cpp:425] inception_5b/relu_pool_proj <- inception_5b/pool_proj
I0403 15:26:27.064240 31836 net.cpp:386] inception_5b/relu_pool_proj -> inception_5b/pool_proj (in-place)
I0403 15:26:27.064579 31836 net.cpp:141] Setting up inception_5b/relu_pool_proj
I0403 15:26:27.064606 31836 net.cpp:148] Top shape: 24 128 7 7 (150528)
I0403 15:26:27.064622 31836 net.cpp:156] Memory required for data: 1341047328
I0403 15:26:27.064638 31836 layer_factory.hpp:77] Creating layer inception_5b/output
I0403 15:26:27.064659 31836 net.cpp:91] Creating Layer inception_5b/output
I0403 15:26:27.064692 31836 net.cpp:425] inception_5b/output <- inception_5b/1x1
I0403 15:26:27.064710 31836 net.cpp:425] inception_5b/output <- inception_5b/3x3
I0403 15:26:27.064728 31836 net.cpp:425] inception_5b/output <- inception_5b/5x5
I0403 15:26:27.064744 31836 net.cpp:425] inception_5b/output <- inception_5b/pool_proj
I0403 15:26:27.064762 31836 net.cpp:399] inception_5b/output -> inception_5b/output
I0403 15:26:27.064818 31836 net.cpp:141] Setting up inception_5b/output
I0403 15:26:27.064843 31836 net.cpp:148] Top shape: 24 1024 7 7 (1204224)
I0403 15:26:27.064858 31836 net.cpp:156] Memory required for data: 1345864224
I0403 15:26:27.064874 31836 layer_factory.hpp:77] Creating layer pool5/7x7_s1
I0403 15:26:27.064891 31836 net.cpp:91] Creating Layer pool5/7x7_s1
I0403 15:26:27.064908 31836 net.cpp:425] pool5/7x7_s1 <- inception_5b/output
I0403 15:26:27.064927 31836 net.cpp:399] pool5/7x7_s1 -> pool5/7x7_s1
I0403 15:26:27.065156 31836 net.cpp:141] Setting up pool5/7x7_s1
I0403 15:26:27.065183 31836 net.cpp:148] Top shape: 24 1024 1 1 (24576)
I0403 15:26:27.065199 31836 net.cpp:156] Memory required for data: 1345962528
I0403 15:26:27.065215 31836 layer_factory.hpp:77] Creating layer pool5/drop_7x7_s1
I0403 15:26:27.065237 31836 net.cpp:91] Creating Layer pool5/drop_7x7_s1
I0403 15:26:27.065254 31836 net.cpp:425] pool5/drop_7x7_s1 <- pool5/7x7_s1
I0403 15:26:27.065273 31836 net.cpp:386] pool5/drop_7x7_s1 -> pool5/7x7_s1 (in-place)
I0403 15:26:27.065330 31836 net.cpp:141] Setting up pool5/drop_7x7_s1
I0403 15:26:27.065356 31836 net.cpp:148] Top shape: 24 1024 1 1 (24576)
I0403 15:26:27.065371 31836 net.cpp:156] Memory required for data: 1346060832
I0403 15:26:27.065385 31836 layer_factory.hpp:77] Creating layer loss3/classifier_plantvillage
I0403 15:26:27.065407 31836 net.cpp:91] Creating Layer loss3/classifier_plantvillage
I0403 15:26:27.065424 31836 net.cpp:425] loss3/classifier_plantvillage <- pool5/7x7_s1
I0403 15:26:27.065443 31836 net.cpp:399] loss3/classifier_plantvillage -> loss3/classifier_plantvillage
I0403 15:26:27.065912 31836 net.cpp:141] Setting up loss3/classifier_plantvillage
I0403 15:26:27.065938 31836 net.cpp:148] Top shape: 24 38 (912)
I0403 15:26:27.065954 31836 net.cpp:156] Memory required for data: 1346064480
I0403 15:26:27.065974 31836 layer_factory.hpp:77] Creating layer loss3/classifier_plantvillage_loss3/classifier_plantvillage_0_split
I0403 15:26:27.066002 31836 net.cpp:91] Creating Layer loss3/classifier_plantvillage_loss3/classifier_plantvillage_0_split
I0403 15:26:27.066020 31836 net.cpp:425] loss3/classifier_plantvillage_loss3/classifier_plantvillage_0_split <- loss3/classifier_plantvillage
I0403 15:26:27.066041 31836 net.cpp:399] loss3/classifier_plantvillage_loss3/classifier_plantvillage_0_split -> loss3/classifier_plantvillage_loss3/classifier_plantvillage_0_split_0
I0403 15:26:27.066064 31836 net.cpp:399] loss3/classifier_plantvillage_loss3/classifier_plantvillage_0_split -> loss3/classifier_plantvillage_loss3/classifier_plantvillage_0_split_1
I0403 15:26:27.066087 31836 net.cpp:399] loss3/classifier_plantvillage_loss3/classifier_plantvillage_0_split -> loss3/classifier_plantvillage_loss3/classifier_plantvillage_0_split_2
I0403 15:26:27.066110 31836 net.cpp:399] loss3/classifier_plantvillage_loss3/classifier_plantvillage_0_split -> loss3/classifier_plantvillage_loss3/classifier_plantvillage_0_split_3
I0403 15:26:27.066226 31836 net.cpp:141] Setting up loss3/classifier_plantvillage_loss3/classifier_plantvillage_0_split
I0403 15:26:27.066252 31836 net.cpp:148] Top shape: 24 38 (912)
I0403 15:26:27.066269 31836 net.cpp:148] Top shape: 24 38 (912)
I0403 15:26:27.066290 31836 net.cpp:148] Top shape: 24 38 (912)
I0403 15:26:27.066308 31836 net.cpp:148] Top shape: 24 38 (912)
I0403 15:26:27.066323 31836 net.cpp:156] Memory required for data: 1346079072
I0403 15:26:27.066339 31836 layer_factory.hpp:77] Creating layer loss1/loss
I0403 15:26:27.066360 31836 net.cpp:91] Creating Layer loss1/loss
I0403 15:26:27.066378 31836 net.cpp:425] loss1/loss <- loss1/classifier_plantvillage_loss1/classifier_plantvillage_0_split_0
I0403 15:26:27.066411 31836 net.cpp:425] loss1/loss <- label_data_1_split_0
…
