…
I0403 15:46:26.635110   678 net.cpp:313] The NetState phase (1) differed from the phase (0) specified by a rule in layer data
I0403 15:46:26.636297   678 net.cpp:49] Initializing net from parameters: 
state {
  phase: TEST
}
layer {
  name: "data"
  type: "Data"
  top: "data"
  top: "label"
  include {
    phase: TEST
  }
  transform_param {
    mirror: false
    crop_size: 224
    mean_file: "/home/mohanty/data/final_dataset/lmdb/color-60-40/mean.binaryproto"
  }
  data_param {
    source: "/home/mohanty/data/final_dataset/lmdb/color-60-40/test_db"
    batch_size: 24
    backend: LMDB
  }
}
layer {
  name: "conv1/7x7_s2"
  type: "Convolution"
  bottom: "data"
  top: "conv1/7x7_s2"
  param {
    lr_mult: 1
    decay_mult: 1
  }
  param {
    lr_mult: 2
    decay_mult: 0
  }
  convolution_param {
    num_output: 64
    pad: 3
    kernel_size: 7
    stride: 2
    weight_filler {
      type: "xavier"
      std: 0.1
    }
    bias_filler {
      type: "constant"
      value: 0.2
    }
  }
}
layer {
  name: "conv1/relu_7x7"
  type: "ReLU"
  bottom: "conv1/7x7_s2"
  top: "conv1/7x7_s2"
}
layer {
  name: "pool1/3x3_s2"
  type: "Pooling"
  bottom: "conv1/7x7_s2"
  top: "pool1/3x3_s2"
  pooling_param {
    pool: MAX
    kernel_size: 3
    stride: 2
  }
}
layer {
  name: "pool1/norm1"
  type: "LRN"
  bottom: "pool1/3x3_s2"
  top: "pool1/norm1"
  lrn_param {
    local_size: 5
    alpha: 0.0001
    beta: 0.75
  }
}
layer {
  name: "conv2/3x3_reduce"
  type: "Convolution"
  bottom: "pool1/norm1"
  top: "conv2/3x3_reduce"
  param {
    lr_mult: 1
    decay_mult: 1
  }
  param {
    lr_mult: 2
    decay_mult: 0
  }
  convolution_param {
    num_output: 64
    kernel_size: 1
    weight_filler {
      type: "xavier"
      std: 0.1
    }
    bias_filler {
      type: "constant"
      value: 0.2
    }
  }
}
layer {
  name: "conv2/relu_3x3_reduce"
  type: "ReLU"
  bottom: "conv2/3x3_reduce"
  top: "conv2/3x3_reduce"
}
layer {
  name: "conv2/3x3"
  type: "Convolution"
  bottom: "conv2/3x3_reduce"
  top: "conv2/3x3"
  param {
    lr_mult: 1
    decay_mult: 1
  }
  param {
    lr_mult: 2
    decay_mult: 0
  }
  convolution_param {
    num_output: 192
    pad: 1
    kernel_size: 3
    weight_filler {
      type: "xavier"
      std: 0.03
    }
    bias_filler {
      type: "constant"
      value: 0.2
    }
  }
}
layer {
  name: "conv2/relu_3x3"
  type: "ReLU"
  bottom: "conv2/3x3"
  top: "conv2/3x3"
}
layer {
  name: "conv2/norm2"
  type: "LRN"
  bottom: "conv2/3x3"
  top: "conv2/norm2"
  lrn_param {
    local_size: 5
    alpha: 0.0001
    beta: 0.75
  }
}
layer {
  name: "pool2/3x3_s2"
  type: "Pooling"
  bottom: "conv2/norm2"
  top: "pool2/3x3_s2"
  pooling_param {
    pool: MAX
    kernel_size: 3
    stride: 2
  }
}
layer {
  name: "inception_3a/1x1"
  type: "Convolution"
  bottom: "pool2/3x3_s2"
  top: "inception_3a/1x1"
  param {
    lr_mult: 1
    decay_mult: 1
  }
  param {
    lr_mult: 2
    decay_mult: 0
  }
  convolution_param {
    num_output: 64
    kernel_size: 1
    weight_filler {
      type: "xavier"
      std: 0.03
    }
    bias_filler {
      type: "constant"
      value: 0.2
    }
  }
}
layer {
  name: "inception_3a/relu_1x1"
  type: "ReLU"
  bottom: "inception_3a/1x1"
  top: "inception_3a/1x1"
}
layer {
  name: "inception_3a/3x3_reduce"
  type: "Convolution"
  bottom: "pool2/3x3_s2"
  top: "inception_3a/3x3_reduce"
  param {
    lr_mult: 1
    decay_mult: 1
  }
  param {
    lr_mult: 2
    decay_mult: 0
  }
  convolution_param {
    num_output: 96
    kernel_size: 1
    weight_filler {
      type: "xavier"
      std: 0.09
    }
    bias_filler {
      type: "constant"
      value: 0.2
    }
  }
}
layer {
  name: "inception_3a/relu_3x3_reduce"
  type: "ReLU"
  bottom: "inception_3a/3x3_reduce"
  top: "inception_3a/3x3_reduce"
}
layer {
  name: "inception_3a/3x3"
  type: "Convolution"
  bottom: "inception_3a/3x3_reduce"
  top: "inception_3a/3x3"
  param {
    lr_mult: 1
    decay_mult: 1
  }
  param {
    lr_mult: 2
    decay_mult: 0
  }
  convolution_param {
    num_output: 128
    pad: 1
    kernel_size: 3
    weight_filler {
      type: "xavier"
      std: 0.03
    }
    bias_filler {
      type: "constant"
      value: 0.2
    }
  }
}
layer {
  name: "inception_3a/relu_3x3"
  type: "ReLU"
  bottom: "inception_3a/3x3"
  top: "inception_3a/3x3"
}
layer {
  name: "inception_3a/5x5_reduce"
  type: "Convolution"
  bottom: "pool2/3x3_s2"
  top: "inception_3a/5x5_reduce"
  param {
    lr_mult: 1
    decay_mult: 1
  }
  param {
    lr_mult: 2
    decay_mult: 0
  }
  convolution_param {
    num_output: 16
    kernel_size: 1
    weight_filler {
      type: "xavier"
      std: 0.2
    }
    bias_filler {
      type: "constant"
      value: 0.2
    }
  }
}
layer {
  name: "inception_3a/relu_5x5_reduce"
  type: "ReLU"
  bottom: "inception_3a/5x5_reduce"
  top: "inception_3a/5x5_reduce"
}
layer {
  name: "inception_3a/5x5"
  type: "Convolution"
  bottom: "inception_3a/5x5_reduce"
  top: "inception_3a/5x5"
  param {
    lr_mult: 1
    decay_mult: 1
  }
  param {
    lr_mult: 2
    decay_mult: 0
  }
  convolution_param {
    num_output: 32
    pad: 2
    kernel_size: 5
    weight_filler {
      type: "xavier"
      std: 0.03
    }
    bias_filler {
      type: "constant"
      value: 0.2
    }
  }
}
layer {
  name: "inception_3a/relu_5x5"
  type: "ReLU"
  bottom: "inception_3a/5x5"
  top: "inception_3a/5x5"
}
layer {
  name: "inception_3a/pool"
  type: "Pooling"
  bottom: "pool2/3x3_s2"
  top: "inception_3a/pool"
  pooling_param {
    pool: MAX
    kernel_size: 3
    stride: 1
    pad: 1
  }
}
layer {
  name: "inception_3a/pool_proj"
  type: "Convolution"
  bottom: "inception_3a/pool"
  top: "inception_3a/pool_proj"
  param {
    lr_mult: 1
    decay_mult: 1
  }
  param {
    lr_mult: 2
    decay_mult: 0
  }
  convolution_param {
    num_output: 32
    kernel_size: 1
    weight_filler {
      type: "xavier"
      std: 0.1
    }
    bias_filler {
      type: "constant"
      value: 0.2
    }
  }
}
layer {
  name: "inception_3a/relu_pool_proj"
  type: "ReLU"
  bottom: "inception_3a/pool_proj"
  top: "inception_3a/pool_proj"
}
layer {
  name: "inception_3a/output"
  type: "Concat"
  bottom: "inception_3a/1x1"
  bottom: "inception_3a/3x3"
  bottom: "inception_3a/5x5"
  bottom: "inception_3a/pool_proj"
  top: "inception_3a/output"
}
layer {
  name: "inception_3b/1x1"
  type: "Convolution"
  bottom: "inception_3a/output"
  top: "inception_3b/1x1"
  param {
    lr_mult: 1
    decay_mult: 1
  }
  param {
    lr_mult: 2
    decay_mult: 0
  }
  convolution_param {
    num_output: 128
    kernel_size: 1
    weight_filler {
      type: "xavier"
      std: 0.03
    }
    bias_filler {
      type: "constant"
      value: 0.2
    }
  }
}
layer {
  name: "inception_3b/relu_1x1"
  type: "ReLU"
  bottom: "inception_3b/1x1"
  top: "inception_3b/1x1"
}
layer {
  name: "inception_3b/3x3_reduce"
  type: "Convolution"
  bottom: "inception_3a/output"
  top: "inception_3b/3x3_reduce"
  param {
    lr_mult: 1
    decay_mult: 1
  }
  param {
    lr_mult: 2
    decay_mult: 0
  }
  convolution_param {
    num_output: 128
    kernel_size: 1
    weight_filler {
      type: "xavier"
      std: 0.09
    }
    bias_filler {
      type: "constant"
      value: 0.2
    }
  }
}
layer {
  name: "inception_3b/relu_3x3_reduce"
  type: "ReLU"
  bottom: "inception_3b/3x3_reduce"
  top: "inception_3b/3x3_reduce"
}
layer {
  name: "inception_3b/3x3"
  type: "Convolution"
  bottom: "inception_3b/3x3_reduce"
  top: "inception_3b/3x3"
  param {
    lr_mult: 1
    decay_mult: 1
  }
  param {
    lr_mult: 2
    decay_mult: 0
  }
  convolution_param {
    num_output: 192
    pad: 1
    kernel_size: 3
    weight_filler {
      type: "xavier"
      std: 0.03
    }
    bias_filler {
      type: "constant"
      value: 0.2
    }
  }
}
layer {
  name: "inception_3b/relu_3x3"
  type: "ReLU"
  bottom: "inception_3b/3x3"
  top: "inception_3b/3x3"
}
layer {
  name: "inception_3b/5x5_reduce"
  type: "Convolution"
  bottom: "inception_3a/output"
  top: "inception_3b/5x5_reduce"
  param {
    lr_mult: 1
    decay_mult: 1
  }
  param {
    lr_mult: 2
    decay_mult: 0
  }
  convolution_param {
    num_output: 32
    kernel_size: 1
    weight_filler {
      type: "xavier"
      std: 0.2
    }
    bias_filler {
      type: "constant"
      value: 0.2
    }
  }
}
layer {
  name: "inception_3b/relu_5x5_reduce"
  type: "ReLU"
  bottom: "inception_3b/5x5_reduce"
  top: "inception_3b/5x5_reduce"
}
layer {
  name: "inception_3b/5x5"
  type: "Convolution"
  bottom: "inception_3b/5x5_reduce"
  top: "inception_3b/5x5"
  param {
    lr_mult: 1
    decay_mult: 1
  }
  param {
    lr_mult: 2
    decay_mult: 0
  }
  convolution_param {
    num_output: 96
    pad: 2
    kernel_size: 5
    weight_filler {
      type: "xavier"
      std: 0.03
    }
    bias_filler {
      type: "constant"
      value: 0.2
    }
  }
}
layer {
  name: "inception_3b/relu_5x5"
  type: "ReLU"
  bottom: "inception_3b/5x5"
  top: "inception_3b/5x5"
}
layer {
  name: "inception_3b/pool"
  type: "Pooling"
  bottom: "inception_3a/output"
  top: "inception_3b/pool"
  pooling_param {
    pool: MAX
    kernel_size: 3
    stride: 1
    pad: 1
  }
}
layer {
  name: "inception_3b/pool_proj"
  type: "Convolution"
  bottom: "inception_3b/pool"
  top: "inception_3b/pool_proj"
  param {
    lr_mult: 1
    decay_mult: 1
  }
  param {
    lr_mult: 2
    decay_mult: 0
  }
  convolution_param {
    num_output: 64
    kernel_size: 1
    weight_filler {
      type: "xavier"
      std: 0.1
    }
    bias_filler {
      type: "constant"
      value: 0.2
    }
  }
}
layer {
  name: "inception_3b/relu_pool_proj"
  type: "ReLU"
  bottom: "inception_3b/pool_proj"
  top: "inception_3b/pool_proj"
}
layer {
  name: "inception_3b/output"
  type: "Concat"
  bottom: "inception_3b/1x1"
  bottom: "inception_3b/3x3"
  bottom: "inception_3b/5x5"
  bottom: "inception_3b/pool_proj"
  top: "inception_3b/output"
}
layer {
  name: "pool3/3x3_s2"
  type: "Pooling"
  bottom: "inception_3b/output"
  top: "pool3/3x3_s2"
  pooling_param {
    pool: MAX
    kernel_size: 3
    stride: 2
  }
}
layer {
  name: "inception_4a/1x1"
  type: "Convolution"
  bottom: "pool3/3x3_s2"
  top: "inception_4a/1x1"
  param {
    lr_mult: 1
    decay_mult: 1
  }
  param {
    lr_mult: 2
    decay_mult: 0
  }
  convolution_param {
    num_output: 192
    kernel_size: 1
    weight_filler {
      type: "xavier"
      std: 0.03
    }
    bias_filler {
      type: "constant"
      value: 0.2
    }
  }
}
layer {
  name: "inception_4a/relu_1x1"
  type: "ReLU"
  bottom: "inception_4a/1x1"
  top: "inception_4a/1x1"
}
layer {
  name: "inception_4a/3x3_reduce"
  type: "Convolution"
  bottom: "pool3/3x3_s2"
  top: "inception_4a/3x3_reduce"
  param {
    lr_mult: 1
    decay_mult: 1
  }
  param {
    lr_mult: 2
    decay_mult: 0
  }
  convolution_param {
    num_output: 96
    kernel_size: 1
    weight_filler {
      type: "xavier"
      std: 0.09
    }
    bias_filler {
      type: "constant"
      value: 0.2
    }
  }
}
layer {
  name: "inception_4a/relu_3x3_reduce"
  type: "ReLU"
  bottom: "inception_4a/3x3_reduce"
  top: "inception_4a/3x3_reduce"
}
layer {
  name: "inception_4a/3x3"
  type: "Convolution"
  bottom: "inception_4a/3x3_reduce"
  top: "inception_4a/3x3"
  param {
    lr_mult: 1
    decay_mult: 1
  }
  param {
    lr_mult: 2
    decay_mult: 0
  }
  convolution_param {
    num_output: 208
    pad: 1
    kernel_size: 3
    weight_filler {
      type: "xavier"
      std: 0.03
    }
    bias_filler {
      type: "constant"
      value: 0.2
    }
  }
}
layer {
  name: "inception_4a/relu_3x3"
  type: "ReLU"
  bottom: "inception_4a/3x3"
  top: "inception_4a/3x3"
}
layer {
  name: "inception_4a/5x5_reduce"
  type: "Convolution"
  bottom: "pool3/3x3_s2"
  top: "inception_4a/5x5_reduce"
  param {
    lr_mult: 1
    decay_mult: 1
  }
  param {
    lr_mult: 2
    decay_mult: 0
  }
  convolution_param {
    num_output: 16
    kernel_size: 1
    weight_filler {
      type: "xavier"
      std: 0.2
    }
    bias_filler {
      type: "constant"
      value: 0.2
    }
  }
}
layer {
  name: "inception_4a/relu_5x5_reduce"
  type: "ReLU"
  bottom: "inception_4a/5x5_reduce"
  top: "inception_4a/5x5_reduce"
}
layer {
  name: "inception_4a/5x5"
  type: "Convolution"
  bottom: "inception_4a/5x5_reduce"
  top: "inception_4a/5x5"
  param {
    lr_mult: 1
    decay_mult: 1
  }
  param {
    lr_mult: 2
    decay_mult: 0
  }
  convolution_param {
    num_output: 48
    pad: 2
    kernel_size: 5
    weight_filler {
      type: "xavier"
      std: 0.03
    }
    bias_filler {
      type: "constant"
      value: 0.2
    }
  }
}
layer {
  name: "inception_4a/relu_5x5"
  type: "ReLU"
  bottom: "inception_4a/5x5"
  top: "inception_4a/5x5"
}
layer {
  name: "inception_4a/pool"
  type: "Pooling"
  bottom: "pool3/3x3_s2"
  top: "inception_4a/pool"
  pooling_param {
    pool: MAX
    kernel_size: 3
    stride: 1
    pad: 1
  }
}
layer {
  name: "inception_4a/pool_proj"
  type: "Convolution"
  bottom: "inception_4a/pool"
  top: "inception_4a/pool_proj"
  param {
    lr_mult: 1
    decay_mult: 1
  }
  param {
    lr_mult: 2
    decay_mult: 0
  }
  convolution_param {
    num_output: 64
    kernel_size: 1
    weight_filler {
      type: "xavier"
      std: 0.1
    }
    bias_filler {
      type: "constant"
      value: 0.2
    }
  }
}
layer {
  name: "inception_4a/relu_pool_proj"
  type: "ReLU"
  bottom: "inception_4a/pool_proj"
  top: "inception_4a/pool_proj"
}
layer {
  name: "inception_4a/output"
  type: "Concat"
  bottom: "inception_4a/1x1"
  bottom: "inception_4a/3x3"
  bottom: "inception_4a/5x5"
  bottom: "inception_4a/pool_proj"
  top: "inception_4a/output"
}
layer {
  name: "loss1/ave_pool"
  type: "Pooling"
  bottom: "inception_4a/output"
  top: "loss1/ave_pool"
  pooling_param {
    pool: AVE
    kernel_size: 5
    stride: 3
  }
}
layer {
  name: "loss1/conv"
  type: "Convolution"
  bottom: "loss1/ave_pool"
  top: "loss1/conv"
  param {
    lr_mult: 1
    decay_mult: 1
  }
  param {
    lr_mult: 2
    decay_mult: 0
  }
  convolution_param {
    num_output: 128
    kernel_size: 1
    weight_filler {
      type: "xavier"
      std: 0.08
    }
    bias_filler {
      type: "constant"
      value: 0.2
    }
  }
}
layer {
  name: "loss1/relu_conv"
  type: "ReLU"
  bottom: "loss1/conv"
  top: "loss1/conv"
}
layer {
  name: "loss1/fc"
  type: "InnerProduct"
  bottom: "loss1/conv"
  top: "loss1/fc"
  param {
    lr_mult: 1
    decay_mult: 1
  }
  param {
    lr_mult: 2
    decay_mult: 0
  }
  inner_product_param {
    num_output: 1024
    weight_filler {
      type: "xavier"
      std: 0.02
    }
    bias_filler {
      type: "constant"
      value: 0.2
    }
  }
}
layer {
  name: "loss1/relu_fc"
  type: "ReLU"
  bottom: "loss1/fc"
  top: "loss1/fc"
}
layer {
  name: "loss1/drop_fc"
  type: "Dropout"
  bottom: "loss1/fc"
  top: "loss1/fc"
  dropout_param {
    dropout_ratio: 0.7
  }
}
layer {
  name: "loss1/classifier_plantvillage"
  type: "InnerProduct"
  bottom: "loss1/fc"
  top: "loss1/classifier_plantvillage"
  param {
    lr_mult: 1
    decay_mult: 1
  }
  param {
    lr_mult: 2
    decay_mult: 0
  }
  inner_product_param {
    num_output: 38
    weight_filler {
      type: "xavier"
      std: 0.0009765625
    }
    bias_filler {
      type: "constant"
      value: 0
    }
  }
}
layer {
  name: "inception_4b/1x1"
  type: "Convolution"
  bottom: "inception_4a/output"
  top: "inception_4b/1x1"
  param {
    lr_mult: 1
    decay_mult: 1
  }
  param {
    lr_mult: 2
    decay_mult: 0
  }
  convolution_param {
    num_output: 160
    kernel_size: 1
    weight_filler {
      type: "xavier"
      std: 0.03
    }
    bias_filler {
      type: "constant"
      value: 0.2
    }
  }
}
layer {
  name: "inception_4b/relu_1x1"
  type: "ReLU"
  bottom: "inception_4b/1x1"
  top: "inception_4b/1x1"
}
layer {
  name: "inception_4b/3x3_reduce"
  type: "Convolution"
  bottom: "inception_4a/output"
  top: "inception_4b/3x3_reduce"
  param {
    lr_mult: 1
    decay_mult: 1
  }
  param {
    lr_mult: 2
    decay_mult: 0
  }
  convolution_param {
    num_output: 112
    kernel_size: 1
    weight_filler {
      type: "xavier"
      std: 0.09
    }
    bias_filler {
      type: "constant"
      value: 0.2
    }
  }
}
layer {
  name: "inception_4b/relu_3x3_reduce"
  type: "ReLU"
  bottom: "inception_4b/3x3_reduce"
  top: "inception_4b/3x3_reduce"
}
layer {
  name: "inception_4b/3x3"
  type: "Convolution"
  bottom: "inception_4b/3x3_reduce"
  top: "inception_4b/3x3"
  param {
    lr_mult: 1
    decay_mult: 1
  }
  param {
    lr_mult: 2
    decay_mult: 0
  }
  convolution_param {
    num_output: 224
    pad: 1
    kernel_size: 3
    weight_filler {
      type: "xavier"
      std: 0.03
    }
    bias_filler {
      type: "constant"
      value: 0.2
    }
  }
}
layer {
  name: "inception_4b/relu_3x3"
  type: "ReLU"
  bottom: "inception_4b/3x3"
  top: "inception_4b/3x3"
}
layer {
  name: "inception_4b/5x5_reduce"
  type: "Convolution"
  bottom: "inception_4a/output"
  top: "inception_4b/5x5_reduce"
  param {
    lr_mult: 1
    decay_mult: 1
  }
  param {
    lr_mult: 2
    decay_mult: 0
  }
  convolution_param {
    num_output: 24
    kernel_size: 1
    weight_filler {
      type: "xavier"
      std: 0.2
    }
    bias_filler {
      type: "constant"
      value: 0.2
    }
  }
}
layer {
  name: "inception_4b/relu_5x5_reduce"
  type: "ReLU"
  bottom: "inception_4b/5x5_reduce"
  top: "inception_4b/5x5_reduce"
}
layer {
  name: "inception_4b/5x5"
  type: "Convolution"
  bottom: "inception_4b/5x5_reduce"
  top: "inception_4b/5x5"
  param {
    lr_mult: 1
    decay_mult: 1
  }
  param {
    lr_mult: 2
    decay_mult: 0
  }
  convolution_param {
    num_output: 64
    pad: 2
    kernel_size: 5
    weight_filler {
      type: "xavier"
      std: 0.03
    }
    bias_filler {
      type: "constant"
      value: 0.2
    }
  }
}
layer {
  name: "inception_4b/relu_5x5"
  type: "ReLU"
  bottom: "inception_4b/5x5"
  top: "inception_4b/5x5"
}
layer {
  name: "inception_4b/pool"
  type: "Pooling"
  bottom: "inception_4a/output"
  top: "inception_4b/pool"
  pooling_param {
    pool: MAX
    kernel_size: 3
    stride: 1
    pad: 1
  }
}
layer {
  name: "inception_4b/pool_proj"
  type: "Convolution"
  bottom: "inception_4b/pool"
  top: "inception_4b/pool_proj"
  param {
    lr_mult: 1
    decay_mult: 1
  }
  param {
    lr_mult: 2
    decay_mult: 0
  }
  convolution_param {
    num_output: 64
    kernel_size: 1
    weight_filler {
      type: "xavier"
      std: 0.1
    }
    bias_filler {
      type: "constant"
      value: 0.2
    }
  }
}
layer {
  name: "inception_4b/relu_pool_proj"
  type: "ReLU"
  bottom: "inception_4b/pool_proj"
  top: "inception_4b/pool_proj"
}
layer {
  name: "inception_4b/output"
  type: "Concat"
  bottom: "inception_4b/1x1"
  bottom: "inception_4b/3x3"
  bottom: "inception_4b/5x5"
  bottom: "inception_4b/pool_proj"
  top: "inception_4b/output"
}
layer {
  name: "inception_4c/1x1"
  type: "Convolution"
  bottom: "inception_4b/output"
  top: "inception_4c/1x1"
  param {
    lr_mult: 1
    decay_mult: 1
  }
  param {
    lr_mult: 2
    decay_mult: 0
  }
  convolution_param {
    num_output: 128
    kernel_size: 1
    weight_filler {
      type: "xavier"
      std: 0.03
    }
    bias_filler {
      type: "constant"
      value: 0.2
    }
  }
}
layer {
  name: "inception_4c/relu_1x1"
  type: "ReLU"
  bottom: "inception_4c/1x1"
  top: "inception_4c/1x1"
}
layer {
  name: "inception_4c/3x3_reduce"
  type: "Convolution"
  bottom: "inception_4b/output"
  top: "inception_4c/3x3_reduce"
  param {
    lr_mult: 1
    decay_mult: 1
  }
  param {
    lr_mult: 2
    decay_mult: 0
  }
  convolution_param {
    num_output: 128
    kernel_size: 1
    weight_filler {
      type: "xavier"
      std: 0.09
    }
    bias_filler {
      type: "constant"
      value: 0.2
    }
  }
}
layer {
  name: "inception_4c/relu_3x3_reduce"
  type: "ReLU"
  bottom: "inception_4c/3x3_reduce"
  top: "inception_4c/3x3_reduce"
}
layer {
  name: "inception_4c/3x3"
  type: "Convolution"
  bottom: "inception_4c/3x3_reduce"
  top: "inception_4c/3x3"
  param {
    lr_mult: 1
    decay_mult: 1
  }
  param {
    lr_mult: 2
    decay_mult: 0
  }
  convolution_param {
    num_output: 256
    pad: 1
    kernel_size: 3
    weight_filler {
      type: "xavier"
      std: 0.03
    }
    bias_filler {
      type: "constant"
      value: 0.2
    }
  }
}
layer {
  name: "inception_4c/relu_3x3"
  type: "ReLU"
  bottom: "inception_4c/3x3"
  top: "inception_4c/3x3"
}
layer {
  name: "inception_4c/5x5_reduce"
  type: "Convolution"
  bottom: "inception_4b/output"
  top: "inception_4c/5x5_reduce"
  param {
    lr_mult: 1
    decay_mult: 1
  }
  param {
    lr_mult: 2
    decay_mult: 0
  }
  convolution_param {
    num_output: 24
    kernel_size: 1
    weight_filler {
      type: "xavier"
      std: 0.2
    }
    bias_filler {
      type: "constant"
      value: 0.2
    }
  }
}
layer {
  name: "inception_4c/relu_5x5_reduce"
  type: "ReLU"
  bottom: "inception_4c/5x5_reduce"
  top: "inception_4c/5x5_reduce"
}
layer {
  name: "inception_4c/5x5"
  type: "Convolution"
  bottom: "inception_4c/5x5_reduce"
  top: "inception_4c/5x5"
  param {
    lr_mult: 1
    decay_mult: 1
  }
  param {
    lr_mult: 2
    decay_mult: 0
  }
  convolution_param {
    num_output: 64
    pad: 2
    kernel_size: 5
    weight_filler {
      type: "xavier"
      std: 0.03
    }
    bias_filler {
      type: "constant"
      value: 0.2
    }
  }
}
layer {
  name: "inception_4c/relu_5x5"
  type: "ReLU"
  bottom: "inception_4c/5x5"
  top: "inception_4c/5x5"
}
layer {
  name: "inception_4c/pool"
  type: "Pooling"
  bottom: "inception_4b/output"
  top: "inception_4c/pool"
  pooling_param {
    pool: MAX
    kernel_size: 3
    stride: 1
    pad: 1
  }
}
layer {
  name: "inception_4c/pool_proj"
  type: "Convolution"
  bottom: "inception_4c/pool"
  top: "inception_4c/pool_proj"
  param {
    lr_mult: 1
    decay_mult: 1
  }
  param {
    lr_mult: 2
    decay_mult: 0
  }
  convolution_param {
    num_output: 64
    kernel_size: 1
    weight_filler {
      type: "xavier"
      std: 0.1
    }
    bias_filler {
      type: "constant"
      value: 0.2
    }
  }
}
layer {
  name: "inception_4c/relu_pool_proj"
  type: "ReLU"
  bottom: "inception_4c/pool_proj"
  top: "inception_4c/pool_proj"
}
layer {
  name: "inception_4c/output"
  type: "Concat"
  bottom: "inception_4c/1x1"
  bottom: "inception_4c/3x3"
  bottom: "inception_4c/5x5"
  bottom: "inception_4c/pool_proj"
  top: "inception_4c/output"
}
layer {
  name: "inception_4d/1x1"
  type: "Convolution"
  bottom: "inception_4c/output"
  top: "inception_4d/1x1"
  param {
    lr_mult: 1
    decay_mult: 1
  }
  param {
    lr_mult: 2
    decay_mult: 0
  }
  convolution_param {
    num_output: 112
    kernel_size: 1
    weight_filler {
      type: "xavier"
      std: 0.03
    }
    bias_filler {
      type: "constant"
      value: 0.2
    }
  }
}
layer {
  name: "inception_4d/relu_1x1"
  type: "ReLU"
  bottom: "inception_4d/1x1"
  top: "inception_4d/1x1"
}
layer {
  name: "inception_4d/3x3_reduce"
  type: "Convolution"
  bottom: "inception_4c/output"
  top: "inception_4d/3x3_reduce"
  param {
    lr_mult: 1
    decay_mult: 1
  }
  param {
    lr_mult: 2
    decay_mult: 0
  }
  convolution_param {
    num_output: 144
    kernel_size: 1
    weight_filler {
      type: "xavier"
      std: 0.09
    }
    bias_filler {
      type: "constant"
      value: 0.2
    }
  }
}
layer {
  name: "inception_4d/relu_3x3_reduce"
  type: "ReLU"
  bottom: "inception_4d/3x3_reduce"
  top: "inception_4d/3x3_reduce"
}
layer {
  name: "inception_4d/3x3"
  type: "Convolution"
  bottom: "inception_4d/3x3_reduce"
  top: "inception_4d/3x3"
  param {
    lr_mult: 1
    decay_mult: 1
  }
  param {
    lr_mult: 2
    decay_mult: 0
  }
  convolution_param {
    num_output: 288
    pad: 1
    kernel_size: 3
    weight_filler {
      type: "xavier"
      std: 0.03
    }
    bias_filler {
      type: "constant"
      value: 0.2
    }
  }
}
layer {
  name: "inception_4d/relu_3x3"
  type: "ReLU"
  bottom: "inception_4d/3x3"
  top: "inception_4d/3x3"
}
layer {
  name: "inception_4d/5x5_reduce"
  type: "Convolution"
  bottom: "inception_4c/output"
  top: "inception_4d/5x5_reduce"
  param {
    lr_mult: 1
    decay_mult: 1
  }
  param {
    lr_mult: 2
    decay_mult: 0
  }
  convolution_param {
    num_output: 32
    kernel_size: 1
    weight_filler {
      type: "xavier"
      std: 0.2
    }
    bias_filler {
      type: "constant"
      value: 0.2
    }
  }
}
layer {
  name: "inception_4d/relu_5x5_reduce"
  type: "ReLU"
  bottom: "inception_4d/5x5_reduce"
  top: "inception_4d/5x5_reduce"
}
layer {
  name: "inception_4d/5x5"
  type: "Convolution"
  bottom: "inception_4d/5x5_reduce"
  top: "inception_4d/5x5"
  param {
    lr_mult: 1
    decay_mult: 1
  }
  param {
    lr_mult: 2
    decay_mult: 0
  }
  convolution_param {
    num_output: 64
    pad: 2
    kernel_size: 5
    weight_filler {
      type: "xavier"
      std: 0.03
    }
    bias_filler {
      type: "constant"
      value: 0.2
    }
  }
}
layer {
  name: "inception_4d/relu_5x5"
  type: "ReLU"
  bottom: "inception_4d/5x5"
  top: "inception_4d/5x5"
}
layer {
  name: "inception_4d/pool"
  type: "Pooling"
  bottom: "inception_4c/output"
  top: "inception_4d/pool"
  pooling_param {
    pool: MAX
    kernel_size: 3
    stride: 1
    pad: 1
  }
}
layer {
  name: "inception_4d/pool_proj"
  type: "Convolution"
  bottom: "inception_4d/pool"
  top: "inception_4d/pool_proj"
  param {
    lr_mult: 1
    decay_mult: 1
  }
  param {
    lr_mult: 2
    decay_mult: 0
  }
  convolution_param {
    num_output: 64
    kernel_size: 1
    weight_filler {
      type: "xavier"
      std: 0.1
    }
    bias_filler {
      type: "constant"
      value: 0.2
    }
  }
}
layer {
  name: "inception_4d/relu_pool_proj"
  type: "ReLU"
  bottom: "inception_4d/pool_proj"
  top: "inception_4d/pool_proj"
}
layer {
  name: "inception_4d/output"
  type: "Concat"
  bottom: "inception_4d/1x1"
  bottom: "inception_4d/3x3"
  bottom: "inception_4d/5x5"
  bottom: "inception_4d/pool_proj"
  top: "inception_4d/output"
}
layer {
  name: "loss2/ave_pool"
  type: "Pooling"
  bottom: "inception_4d/output"
  top: "loss2/ave_pool"
  pooling_param {
    pool: AVE
    kernel_size: 5
    stride: 3
  }
}
layer {
  name: "loss2/conv"
  type: "Convolution"
  bottom: "loss2/ave_pool"
  top: "loss2/conv"
  param {
    lr_mult: 1
    decay_mult: 1
  }
  param {
    lr_mult: 2
    decay_mult: 0
  }
  convolution_param {
    num_output: 128
    kernel_size: 1
    weight_filler {
      type: "xavier"
      std: 0.08
    }
    bias_filler {
      type: "constant"
      value: 0.2
    }
  }
}
layer {
  name: "loss2/relu_conv"
  type: "ReLU"
  bottom: "loss2/conv"
  top: "loss2/conv"
}
layer {
  name: "loss2/fc"
  type: "InnerProduct"
  bottom: "loss2/conv"
  top: "loss2/fc"
  param {
    lr_mult: 1
    decay_mult: 1
  }
  param {
    lr_mult: 2
    decay_mult: 0
  }
  inner_product_param {
    num_output: 1024
    weight_filler {
      type: "xavier"
      std: 0.02
    }
    bias_filler {
      type: "constant"
      value: 0.2
    }
  }
}
layer {
  name: "loss2/relu_fc"
  type: "ReLU"
  bottom: "loss2/fc"
  top: "loss2/fc"
}
layer {
  name: "loss2/drop_fc"
  type: "Dropout"
  bottom: "loss2/fc"
  top: "loss2/fc"
  dropout_param {
    dropout_ratio: 0.7
  }
}
layer {
  name: "loss2/classifier_plantvillage"
  type: "InnerProduct"
  bottom: "loss2/fc"
  top: "loss2/classifier_plantvillage"
  param {
    lr_mult: 1
    decay_mult: 1
  }
  param {
    lr_mult: 2
    decay_mult: 0
  }
  inner_product_param {
    num_output: 38
    weight_filler {
      type: "xavier"
      std: 0.0009765625
    }
    bias_filler {
      type: "constant"
      value: 0
    }
  }
}
layer {
  name: "inception_4e/1x1"
  type: "Convolution"
  bottom: "inception_4d/output"
  top: "inception_4e/1x1"
  param {
    lr_mult: 1
    decay_mult: 1
  }
  param {
    lr_mult: 2
    decay_mult: 0
  }
  convolution_param {
    num_output: 256
    kernel_size: 1
    weight_filler {
      type: "xavier"
      std: 0.03
    }
    bias_filler {
      type: "constant"
      value: 0.2
    }
  }
}
layer {
  name: "inception_4e/relu_1x1"
  type: "ReLU"
  bottom: "inception_4e/1x1"
  top: "inception_4e/1x1"
}
layer {
  name: "inception_4e/3x3_reduce"
  type: "Convolution"
  bottom: "inception_4d/output"
  top: "inception_4e/3x3_reduce"
  param {
    lr_mult: 1
    decay_mult: 1
  }
  param {
    lr_mult: 2
    decay_mult: 0
  }
  convolution_param {
    num_output: 160
    kernel_size: 1
    weight_filler {
      type: "xavier"
      std: 0.09
    }
    bias_filler {
      type: "constant"
      value: 0.2
    }
  }
}
layer {
  name: "inception_4e/relu_3x3_reduce"
  type: "ReLU"
  bottom: "inception_4e/3x3_reduce"
  top: "inception_4e/3x3_reduce"
}
layer {
  name: "inception_4e/3x3"
  type: "Convolution"
  bottom: "inception_4e/3x3_reduce"
  top: "inception_4e/3x3"
  param {
    lr_mult: 1
    decay_mult: 1
  }
  param {
    lr_mult: 2
    decay_mult: 0
  }
  convolution_param {
    num_output: 320
    pad: 1
    kernel_size: 3
    weight_filler {
      type: "xavier"
      std: 0.03
    }
    bias_filler {
      type: "constant"
      value: 0.2
    }
  }
}
layer {
  name: "inception_4e/relu_3x3"
  type: "ReLU"
  bottom: "inception_4e/3x3"
  top: "inception_4e/3x3"
}
layer {
  name: "inception_4e/5x5_reduce"
  type: "Convolution"
  bottom: "inception_4d/output"
  top: "inception_4e/5x5_reduce"
  param {
    lr_mult: 1
    decay_mult: 1
  }
  param {
    lr_mult: 2
    decay_mult: 0
  }
  convolution_param {
    num_output: 32
    kernel_size: 1
    weight_filler {
      type: "xavier"
      std: 0.2
    }
    bias_filler {
      type: "constant"
      value: 0.2
    }
  }
}
layer {
  name: "inception_4e/relu_5x5_reduce"
  type: "ReLU"
  bottom: "inception_4e/5x5_reduce"
  top: "inception_4e/5x5_reduce"
}
layer {
  name: "inception_4e/5x5"
  type: "Convolution"
  bottom: "inception_4e/5x5_reduce"
  top: "inception_4e/5x5"
  p
I0403 15:46:26.638838   678 layer_factory.hpp:77] Creating layer data
I0403 15:46:26.639470   678 net.cpp:91] Creating Layer data
I0403 15:46:26.639503   678 net.cpp:399] data -> data
I0403 15:46:26.639557   678 net.cpp:399] data -> label
I0403 15:46:26.639600   678 data_transformer.cpp:25] Loading mean file from: /home/mohanty/data/final_dataset/lmdb/color-60-40/mean.binaryproto
I0403 15:46:26.642189   680 db_lmdb.cpp:38] Opened lmdb /home/mohanty/data/final_dataset/lmdb/color-60-40/test_db
I0403 15:46:26.653761   678 data_layer.cpp:41] output data size: 24,3,224,224
I0403 15:46:26.684402   678 net.cpp:141] Setting up data
I0403 15:46:26.684478   678 net.cpp:148] Top shape: 24 3 224 224 (3612672)
I0403 15:46:26.684501   678 net.cpp:148] Top shape: 24 (24)
I0403 15:46:26.684520   678 net.cpp:156] Memory required for data: 14450784
I0403 15:46:26.684547   678 layer_factory.hpp:77] Creating layer label_data_1_split
I0403 15:46:26.684574   678 net.cpp:91] Creating Layer label_data_1_split
I0403 15:46:26.684593   678 net.cpp:425] label_data_1_split <- label
I0403 15:46:26.684626   678 net.cpp:399] label_data_1_split -> label_data_1_split_0
I0403 15:46:26.684656   678 net.cpp:399] label_data_1_split -> label_data_1_split_1
I0403 15:46:26.684679   678 net.cpp:399] label_data_1_split -> label_data_1_split_2
I0403 15:46:26.684702   678 net.cpp:399] label_data_1_split -> label_data_1_split_3
I0403 15:46:26.684723   678 net.cpp:399] label_data_1_split -> label_data_1_split_4
I0403 15:46:26.684744   678 net.cpp:399] label_data_1_split -> label_data_1_split_5
I0403 15:46:26.684765   678 net.cpp:399] label_data_1_split -> label_data_1_split_6
I0403 15:46:26.684787   678 net.cpp:399] label_data_1_split -> label_data_1_split_7
I0403 15:46:26.684809   678 net.cpp:399] label_data_1_split -> label_data_1_split_8
I0403 15:46:26.684831   678 net.cpp:399] label_data_1_split -> label_data_1_split_9
I0403 15:46:26.684952   678 net.cpp:141] Setting up label_data_1_split
I0403 15:46:26.684978   678 net.cpp:148] Top shape: 24 (24)
I0403 15:46:26.684996   678 net.cpp:148] Top shape: 24 (24)
I0403 15:46:26.685014   678 net.cpp:148] Top shape: 24 (24)
I0403 15:46:26.685032   678 net.cpp:148] Top shape: 24 (24)
I0403 15:46:26.685050   678 net.cpp:148] Top shape: 24 (24)
I0403 15:46:26.685066   678 net.cpp:148] Top shape: 24 (24)
I0403 15:46:26.685083   678 net.cpp:148] Top shape: 24 (24)
I0403 15:46:26.685101   678 net.cpp:148] Top shape: 24 (24)
I0403 15:46:26.685117   678 net.cpp:148] Top shape: 24 (24)
I0403 15:46:26.685135   678 net.cpp:148] Top shape: 24 (24)
I0403 15:46:26.685181   678 net.cpp:156] Memory required for data: 14451744
I0403 15:46:26.685199   678 layer_factory.hpp:77] Creating layer conv1/7x7_s2
I0403 15:46:26.685233   678 net.cpp:91] Creating Layer conv1/7x7_s2
I0403 15:46:26.685257   678 net.cpp:425] conv1/7x7_s2 <- data
I0403 15:46:26.685283   678 net.cpp:399] conv1/7x7_s2 -> conv1/7x7_s2
I0403 15:46:26.837597   678 net.cpp:141] Setting up conv1/7x7_s2
I0403 15:46:26.837671   678 net.cpp:148] Top shape: 24 64 112 112 (19267584)
I0403 15:46:26.837692   678 net.cpp:156] Memory required for data: 91522080
I0403 15:46:26.837723   678 layer_factory.hpp:77] Creating layer conv1/relu_7x7
I0403 15:46:26.837754   678 net.cpp:91] Creating Layer conv1/relu_7x7
I0403 15:46:26.837772   678 net.cpp:425] conv1/relu_7x7 <- conv1/7x7_s2
I0403 15:46:26.837793   678 net.cpp:386] conv1/relu_7x7 -> conv1/7x7_s2 (in-place)
I0403 15:46:26.838055   678 net.cpp:141] Setting up conv1/relu_7x7
I0403 15:46:26.838084   678 net.cpp:148] Top shape: 24 64 112 112 (19267584)
I0403 15:46:26.838101   678 net.cpp:156] Memory required for data: 168592416
I0403 15:46:26.838117   678 layer_factory.hpp:77] Creating layer pool1/3x3_s2
I0403 15:46:26.838145   678 net.cpp:91] Creating Layer pool1/3x3_s2
I0403 15:46:26.838165   678 net.cpp:425] pool1/3x3_s2 <- conv1/7x7_s2
I0403 15:46:26.838184   678 net.cpp:399] pool1/3x3_s2 -> pool1/3x3_s2
I0403 15:46:26.838279   678 net.cpp:141] Setting up pool1/3x3_s2
I0403 15:46:26.838305   678 net.cpp:148] Top shape: 24 64 56 56 (4816896)
I0403 15:46:26.838322   678 net.cpp:156] Memory required for data: 187860000
I0403 15:46:26.838338   678 layer_factory.hpp:77] Creating layer pool1/norm1
I0403 15:46:26.838366   678 net.cpp:91] Creating Layer pool1/norm1
I0403 15:46:26.838384   678 net.cpp:425] pool1/norm1 <- pool1/3x3_s2
I0403 15:46:26.838404   678 net.cpp:399] pool1/norm1 -> pool1/norm1
I0403 15:46:26.838711   678 net.cpp:141] Setting up pool1/norm1
I0403 15:46:26.838740   678 net.cpp:148] Top shape: 24 64 56 56 (4816896)
I0403 15:46:26.838757   678 net.cpp:156] Memory required for data: 207127584
I0403 15:46:26.838774   678 layer_factory.hpp:77] Creating layer conv2/3x3_reduce
I0403 15:46:26.838800   678 net.cpp:91] Creating Layer conv2/3x3_reduce
I0403 15:46:26.838819   678 net.cpp:425] conv2/3x3_reduce <- pool1/norm1
I0403 15:46:26.838887   678 net.cpp:399] conv2/3x3_reduce -> conv2/3x3_reduce
I0403 15:46:26.840217   678 net.cpp:141] Setting up conv2/3x3_reduce
I0403 15:46:26.840250   678 net.cpp:148] Top shape: 24 64 56 56 (4816896)
I0403 15:46:26.840272   678 net.cpp:156] Memory required for data: 226395168
I0403 15:46:26.840296   678 layer_factory.hpp:77] Creating layer conv2/relu_3x3_reduce
I0403 15:46:26.840315   678 net.cpp:91] Creating Layer conv2/relu_3x3_reduce
I0403 15:46:26.840332   678 net.cpp:425] conv2/relu_3x3_reduce <- conv2/3x3_reduce
I0403 15:46:26.840351   678 net.cpp:386] conv2/relu_3x3_reduce -> conv2/3x3_reduce (in-place)
I0403 15:46:26.840611   678 net.cpp:141] Setting up conv2/relu_3x3_reduce
I0403 15:46:26.840665   678 net.cpp:148] Top shape: 24 64 56 56 (4816896)
I0403 15:46:26.840687   678 net.cpp:156] Memory required for data: 245662752
I0403 15:46:26.840703   678 layer_factory.hpp:77] Creating layer conv2/3x3
I0403 15:46:26.840726   678 net.cpp:91] Creating Layer conv2/3x3
I0403 15:46:26.840744   678 net.cpp:425] conv2/3x3 <- conv2/3x3_reduce
I0403 15:46:26.840765   678 net.cpp:399] conv2/3x3 -> conv2/3x3
I0403 15:46:26.843072   678 net.cpp:141] Setting up conv2/3x3
I0403 15:46:26.843106   678 net.cpp:148] Top shape: 24 192 56 56 (14450688)
I0403 15:46:26.843123   678 net.cpp:156] Memory required for data: 303465504
I0403 15:46:26.843145   678 layer_factory.hpp:77] Creating layer conv2/relu_3x3
I0403 15:46:26.843165   678 net.cpp:91] Creating Layer conv2/relu_3x3
I0403 15:46:26.843183   678 net.cpp:425] conv2/relu_3x3 <- conv2/3x3
I0403 15:46:26.843200   678 net.cpp:386] conv2/relu_3x3 -> conv2/3x3 (in-place)
I0403 15:46:26.843372   678 net.cpp:141] Setting up conv2/relu_3x3
I0403 15:46:26.843400   678 net.cpp:148] Top shape: 24 192 56 56 (14450688)
I0403 15:46:26.843446   678 net.cpp:156] Memory required for data: 361268256
I0403 15:46:26.843464   678 layer_factory.hpp:77] Creating layer conv2/norm2
I0403 15:46:26.843484   678 net.cpp:91] Creating Layer conv2/norm2
I0403 15:46:26.843500   678 net.cpp:425] conv2/norm2 <- conv2/3x3
I0403 15:46:26.843520   678 net.cpp:399] conv2/norm2 -> conv2/norm2
I0403 15:46:26.843824   678 net.cpp:141] Setting up conv2/norm2
I0403 15:46:26.843853   678 net.cpp:148] Top shape: 24 192 56 56 (14450688)
I0403 15:46:26.843870   678 net.cpp:156] Memory required for data: 419071008
I0403 15:46:26.843888   678 layer_factory.hpp:77] Creating layer pool2/3x3_s2
I0403 15:46:26.843906   678 net.cpp:91] Creating Layer pool2/3x3_s2
I0403 15:46:26.843924   678 net.cpp:425] pool2/3x3_s2 <- conv2/norm2
I0403 15:46:26.843943   678 net.cpp:399] pool2/3x3_s2 -> pool2/3x3_s2
I0403 15:46:26.843994   678 net.cpp:141] Setting up pool2/3x3_s2
I0403 15:46:26.844019   678 net.cpp:148] Top shape: 24 192 28 28 (3612672)
I0403 15:46:26.844036   678 net.cpp:156] Memory required for data: 433521696
I0403 15:46:26.844051   678 layer_factory.hpp:77] Creating layer pool2/3x3_s2_pool2/3x3_s2_0_split
I0403 15:46:26.844070   678 net.cpp:91] Creating Layer pool2/3x3_s2_pool2/3x3_s2_0_split
I0403 15:46:26.844087   678 net.cpp:425] pool2/3x3_s2_pool2/3x3_s2_0_split <- pool2/3x3_s2
I0403 15:46:26.844156   678 net.cpp:399] pool2/3x3_s2_pool2/3x3_s2_0_split -> pool2/3x3_s2_pool2/3x3_s2_0_split_0
I0403 15:46:26.844183   678 net.cpp:399] pool2/3x3_s2_pool2/3x3_s2_0_split -> pool2/3x3_s2_pool2/3x3_s2_0_split_1
I0403 15:46:26.844205   678 net.cpp:399] pool2/3x3_s2_pool2/3x3_s2_0_split -> pool2/3x3_s2_pool2/3x3_s2_0_split_2
I0403 15:46:26.844228   678 net.cpp:399] pool2/3x3_s2_pool2/3x3_s2_0_split -> pool2/3x3_s2_pool2/3x3_s2_0_split_3
I0403 15:46:26.844307   678 net.cpp:141] Setting up pool2/3x3_s2_pool2/3x3_s2_0_split
I0403 15:46:26.844333   678 net.cpp:148] Top shape: 24 192 28 28 (3612672)
I0403 15:46:26.844352   678 net.cpp:148] Top shape: 24 192 28 28 (3612672)
I0403 15:46:26.844368   678 net.cpp:148] Top shape: 24 192 28 28 (3612672)
I0403 15:46:26.844385   678 net.cpp:148] Top shape: 24 192 28 28 (3612672)
I0403 15:46:26.844400   678 net.cpp:156] Memory required for data: 491324448
I0403 15:46:26.844418   678 layer_factory.hpp:77] Creating layer inception_3a/1x1
I0403 15:46:26.844439   678 net.cpp:91] Creating Layer inception_3a/1x1
I0403 15:46:26.844455   678 net.cpp:425] inception_3a/1x1 <- pool2/3x3_s2_pool2/3x3_s2_0_split_0
I0403 15:46:26.844476   678 net.cpp:399] inception_3a/1x1 -> inception_3a/1x1
I0403 15:46:26.846056   678 net.cpp:141] Setting up inception_3a/1x1
I0403 15:46:26.846087   678 net.cpp:148] Top shape: 24 64 28 28 (1204224)
I0403 15:46:26.846104   678 net.cpp:156] Memory required for data: 496141344
I0403 15:46:26.846124   678 layer_factory.hpp:77] Creating layer inception_3a/relu_1x1
I0403 15:46:26.846146   678 net.cpp:91] Creating Layer inception_3a/relu_1x1
I0403 15:46:26.846163   678 net.cpp:425] inception_3a/relu_1x1 <- inception_3a/1x1
I0403 15:46:26.846180   678 net.cpp:386] inception_3a/relu_1x1 -> inception_3a/1x1 (in-place)
I0403 15:46:26.846369   678 net.cpp:141] Setting up inception_3a/relu_1x1
I0403 15:46:26.846397   678 net.cpp:148] Top shape: 24 64 28 28 (1204224)
I0403 15:46:26.846415   678 net.cpp:156] Memory required for data: 500958240
I0403 15:46:26.846431   678 layer_factory.hpp:77] Creating layer inception_3a/3x3_reduce
I0403 15:46:26.846454   678 net.cpp:91] Creating Layer inception_3a/3x3_reduce
I0403 15:46:26.846472   678 net.cpp:425] inception_3a/3x3_reduce <- pool2/3x3_s2_pool2/3x3_s2_0_split_1
I0403 15:46:26.846492   678 net.cpp:399] inception_3a/3x3_reduce -> inception_3a/3x3_reduce
I0403 15:46:26.848242   678 net.cpp:141] Setting up inception_3a/3x3_reduce
I0403 15:46:26.848276   678 net.cpp:148] Top shape: 24 96 28 28 (1806336)
I0403 15:46:26.848294   678 net.cpp:156] Memory required for data: 508183584
I0403 15:46:26.848316   678 layer_factory.hpp:77] Creating layer inception_3a/relu_3x3_reduce
I0403 15:46:26.848354   678 net.cpp:91] Creating Layer inception_3a/relu_3x3_reduce
I0403 15:46:26.848373   678 net.cpp:425] inception_3a/relu_3x3_reduce <- inception_3a/3x3_reduce
I0403 15:46:26.848394   678 net.cpp:386] inception_3a/relu_3x3_reduce -> inception_3a/3x3_reduce (in-place)
I0403 15:46:26.848578   678 net.cpp:141] Setting up inception_3a/relu_3x3_reduce
I0403 15:46:26.848605   678 net.cpp:148] Top shape: 24 96 28 28 (1806336)
I0403 15:46:26.848620   678 net.cpp:156] Memory required for data: 515408928
I0403 15:46:26.848636   678 layer_factory.hpp:77] Creating layer inception_3a/3x3
I0403 15:46:26.848660   678 net.cpp:91] Creating Layer inception_3a/3x3
I0403 15:46:26.848680   678 net.cpp:425] inception_3a/3x3 <- inception_3a/3x3_reduce
I0403 15:46:26.848703   678 net.cpp:399] inception_3a/3x3 -> inception_3a/3x3
I0403 15:46:26.850352   678 net.cpp:141] Setting up inception_3a/3x3
I0403 15:46:26.850383   678 net.cpp:148] Top shape: 24 128 28 28 (2408448)
I0403 15:46:26.850401   678 net.cpp:156] Memory required for data: 525042720
I0403 15:46:26.850421   678 layer_factory.hpp:77] Creating layer inception_3a/relu_3x3
I0403 15:46:26.850440   678 net.cpp:91] Creating Layer inception_3a/relu_3x3
I0403 15:46:26.850456   678 net.cpp:425] inception_3a/relu_3x3 <- inception_3a/3x3
I0403 15:46:26.850474   678 net.cpp:386] inception_3a/relu_3x3 -> inception_3a/3x3 (in-place)
I0403 15:46:26.850760   678 net.cpp:141] Setting up inception_3a/relu_3x3
I0403 15:46:26.850790   678 net.cpp:148] Top shape: 24 128 28 28 (2408448)
I0403 15:46:26.850805   678 net.cpp:156] Memory required for data: 534676512
I0403 15:46:26.850821   678 layer_factory.hpp:77] Creating layer inception_3a/5x5_reduce
I0403 15:46:26.850843   678 net.cpp:91] Creating Layer inception_3a/5x5_reduce
I0403 15:46:26.850862   678 net.cpp:425] inception_3a/5x5_reduce <- pool2/3x3_s2_pool2/3x3_s2_0_split_2
I0403 15:46:26.850880   678 net.cpp:399] inception_3a/5x5_reduce -> inception_3a/5x5_reduce
I0403 15:46:26.851822   678 net.cpp:141] Setting up inception_3a/5x5_reduce
I0403 15:46:26.851850   678 net.cpp:148] Top shape: 24 16 28 28 (301056)
I0403 15:46:26.851867   678 net.cpp:156] Memory required for data: 535880736
I0403 15:46:26.851886   678 layer_factory.hpp:77] Creating layer inception_3a/relu_5x5_reduce
I0403 15:46:26.851904   678 net.cpp:91] Creating Layer inception_3a/relu_5x5_reduce
I0403 15:46:26.851922   678 net.cpp:425] inception_3a/relu_5x5_reduce <- inception_3a/5x5_reduce
I0403 15:46:26.851941   678 net.cpp:386] inception_3a/relu_5x5_reduce -> inception_3a/5x5_reduce (in-place)
I0403 15:46:26.852218   678 net.cpp:141] Setting up inception_3a/relu_5x5_reduce
I0403 15:46:26.852246   678 net.cpp:148] Top shape: 24 16 28 28 (301056)
I0403 15:46:26.852267   678 net.cpp:156] Memory required for data: 537084960
I0403 15:46:26.852283   678 layer_factory.hpp:77] Creating layer inception_3a/5x5
I0403 15:46:26.852308   678 net.cpp:91] Creating Layer inception_3a/5x5
I0403 15:46:26.852326   678 net.cpp:425] inception_3a/5x5 <- inception_3a/5x5_reduce
I0403 15:46:26.852347   678 net.cpp:399] inception_3a/5x5 -> inception_3a/5x5
I0403 15:46:26.853338   678 net.cpp:141] Setting up inception_3a/5x5
I0403 15:46:26.853368   678 net.cpp:148] Top shape: 24 32 28 28 (602112)
I0403 15:46:26.853384   678 net.cpp:156] Memory required for data: 539493408
I0403 15:46:26.853404   678 layer_factory.hpp:77] Creating layer inception_3a/relu_5x5
I0403 15:46:26.853420   678 net.cpp:91] Creating Layer inception_3a/relu_5x5
I0403 15:46:26.853436   678 net.cpp:425] inception_3a/relu_5x5 <- inception_3a/5x5
I0403 15:46:26.853453   678 net.cpp:386] inception_3a/relu_5x5 -> inception_3a/5x5 (in-place)
I0403 15:46:26.853627   678 net.cpp:141] Setting up inception_3a/relu_5x5
I0403 15:46:26.853654   678 net.cpp:148] Top shape: 24 32 28 28 (602112)
I0403 15:46:26.853672   678 net.cpp:156] Memory required for data: 541901856
I0403 15:46:26.853687   678 layer_factory.hpp:77] Creating layer inception_3a/pool
I0403 15:46:26.853705   678 net.cpp:91] Creating Layer inception_3a/pool
I0403 15:46:26.853721   678 net.cpp:425] inception_3a/pool <- pool2/3x3_s2_pool2/3x3_s2_0_split_3
I0403 15:46:26.853755   678 net.cpp:399] inception_3a/pool -> inception_3a/pool
I0403 15:46:26.853813   678 net.cpp:141] Setting up inception_3a/pool
I0403 15:46:26.853839   678 net.cpp:148] Top shape: 24 192 28 28 (3612672)
I0403 15:46:26.853855   678 net.cpp:156] Memory required for data: 556352544
I0403 15:46:26.853871   678 layer_factory.hpp:77] Creating layer inception_3a/pool_proj
I0403 15:46:26.853894   678 net.cpp:91] Creating Layer inception_3a/pool_proj
I0403 15:46:26.853912   678 net.cpp:425] inception_3a/pool_proj <- inception_3a/pool
I0403 15:46:26.853931   678 net.cpp:399] inception_3a/pool_proj -> inception_3a/pool_proj
I0403 15:46:26.854885   678 net.cpp:141] Setting up inception_3a/pool_proj
I0403 15:46:26.854914   678 net.cpp:148] Top shape: 24 32 28 28 (602112)
I0403 15:46:26.854930   678 net.cpp:156] Memory required for data: 558760992
I0403 15:46:26.854954   678 layer_factory.hpp:77] Creating layer inception_3a/relu_pool_proj
I0403 15:46:26.854974   678 net.cpp:91] Creating Layer inception_3a/relu_pool_proj
I0403 15:46:26.854990   678 net.cpp:425] inception_3a/relu_pool_proj <- inception_3a/pool_proj
I0403 15:46:26.855010   678 net.cpp:386] inception_3a/relu_pool_proj -> inception_3a/pool_proj (in-place)
I0403 15:46:26.855283   678 net.cpp:141] Setting up inception_3a/relu_pool_proj
I0403 15:46:26.855312   678 net.cpp:148] Top shape: 24 32 28 28 (602112)
I0403 15:46:26.855329   678 net.cpp:156] Memory required for data: 561169440
I0403 15:46:26.855345   678 layer_factory.hpp:77] Creating layer inception_3a/output
I0403 15:46:26.855363   678 net.cpp:91] Creating Layer inception_3a/output
I0403 15:46:26.855378   678 net.cpp:425] inception_3a/output <- inception_3a/1x1
I0403 15:46:26.855396   678 net.cpp:425] inception_3a/output <- inception_3a/3x3
I0403 15:46:26.855412   678 net.cpp:425] inception_3a/output <- inception_3a/5x5
I0403 15:46:26.855428   678 net.cpp:425] inception_3a/output <- inception_3a/pool_proj
I0403 15:46:26.855445   678 net.cpp:399] inception_3a/output -> inception_3a/output
I0403 15:46:26.855497   678 net.cpp:141] Setting up inception_3a/output
I0403 15:46:26.855521   678 net.cpp:148] Top shape: 24 256 28 28 (4816896)
I0403 15:46:26.855536   678 net.cpp:156] Memory required for data: 580437024
I0403 15:46:26.855552   678 layer_factory.hpp:77] Creating layer inception_3a/output_inception_3a/output_0_split
I0403 15:46:26.855571   678 net.cpp:91] Creating Layer inception_3a/output_inception_3a/output_0_split
I0403 15:46:26.855587   678 net.cpp:425] inception_3a/output_inception_3a/output_0_split <- inception_3a/output
I0403 15:46:26.855607   678 net.cpp:399] inception_3a/output_inception_3a/output_0_split -> inception_3a/output_inception_3a/output_0_split_0
I0403 15:46:26.855626   678 net.cpp:399] inception_3a/output_inception_3a/output_0_split -> inception_3a/output_inception_3a/output_0_split_1
I0403 15:46:26.855650   678 net.cpp:399] inception_3a/output_inception_3a/output_0_split -> inception_3a/output_inception_3a/output_0_split_2
I0403 15:46:26.855674   678 net.cpp:399] inception_3a/output_inception_3a/output_0_split -> inception_3a/output_inception_3a/output_0_split_3
I0403 15:46:26.855747   678 net.cpp:141] Setting up inception_3a/output_inception_3a/output_0_split
I0403 15:46:26.855772   678 net.cpp:148] Top shape: 24 256 28 28 (4816896)
I0403 15:46:26.855788   678 net.cpp:148] Top shape: 24 256 28 28 (4816896)
I0403 15:46:26.855805   678 net.cpp:148] Top shape: 24 256 28 28 (4816896)
I0403 15:46:26.855823   678 net.cpp:148] Top shape: 24 256 28 28 (4816896)
I0403 15:46:26.855836   678 net.cpp:156] Memory required for data: 657507360
I0403 15:46:26.855851   678 layer_factory.hpp:77] Creating layer inception_3b/1x1
I0403 15:46:26.855875   678 net.cpp:91] Creating Layer inception_3b/1x1
I0403 15:46:26.855892   678 net.cpp:425] inception_3b/1x1 <- inception_3a/output_inception_3a/output_0_split_0
I0403 15:46:26.855911   678 net.cpp:399] inception_3b/1x1 -> inception_3b/1x1
I0403 15:46:26.857023   678 net.cpp:141] Setting up inception_3b/1x1
I0403 15:46:26.857061   678 net.cpp:148] Top shape: 24 128 28 28 (2408448)
I0403 15:46:26.857079   678 net.cpp:156] Memory required for data: 667141152
I0403 15:46:26.857097   678 layer_factory.hpp:77] Creating layer inception_3b/relu_1x1
I0403 15:46:26.857120   678 net.cpp:91] Creating Layer inception_3b/relu_1x1
I0403 15:46:26.857137   678 net.cpp:425] inception_3b/relu_1x1 <- inception_3b/1x1
I0403 15:46:26.857154   678 net.cpp:386] inception_3b/relu_1x1 -> inception_3b/1x1 (in-place)
I0403 15:46:26.857331   678 net.cpp:141] Setting up inception_3b/relu_1x1
I0403 15:46:26.857360   678 net.cpp:148] Top shape: 24 128 28 28 (2408448)
I0403 15:46:26.857375   678 net.cpp:156] Memory required for data: 676774944
I0403 15:46:26.857391   678 layer_factory.hpp:77] Creating layer inception_3b/3x3_reduce
I0403 15:46:26.857414   678 net.cpp:91] Creating Layer inception_3b/3x3_reduce
I0403 15:46:26.857431   678 net.cpp:425] inception_3b/3x3_reduce <- inception_3a/output_inception_3a/output_0_split_1
I0403 15:46:26.857452   678 net.cpp:399] inception_3b/3x3_reduce -> inception_3b/3x3_reduce
I0403 15:46:26.858572   678 net.cpp:141] Setting up inception_3b/3x3_reduce
I0403 15:46:26.858602   678 net.cpp:148] Top shape: 24 128 28 28 (2408448)
I0403 15:46:26.858618   678 net.cpp:156] Memory required for data: 686408736
I0403 15:46:26.858636   678 layer_factory.hpp:77] Creating layer inception_3b/relu_3x3_reduce
I0403 15:46:26.858657   678 net.cpp:91] Creating Layer inception_3b/relu_3x3_reduce
I0403 15:46:26.858675   678 net.cpp:425] inception_3b/relu_3x3_reduce <- inception_3b/3x3_reduce
I0403 15:46:26.858691   678 net.cpp:386] inception_3b/relu_3x3_reduce -> inception_3b/3x3_reduce (in-place)
I0403 15:46:26.858866   678 net.cpp:141] Setting up inception_3b/relu_3x3_reduce
I0403 15:46:26.858896   678 net.cpp:148] Top shape: 24 128 28 28 (2408448)
I0403 15:46:26.858912   678 net.cpp:156] Memory required for data: 696042528
I0403 15:46:26.858928   678 layer_factory.hpp:77] Creating layer inception_3b/3x3
I0403 15:46:26.858953   678 net.cpp:91] Creating Layer inception_3b/3x3
I0403 15:46:26.858973   678 net.cpp:425] inception_3b/3x3 <- inception_3b/3x3_reduce
I0403 15:46:26.858994   678 net.cpp:399] inception_3b/3x3 -> inception_3b/3x3
I0403 15:46:26.861802   678 net.cpp:141] Setting up inception_3b/3x3
I0403 15:46:26.861834   678 net.cpp:148] Top shape: 24 192 28 28 (3612672)
I0403 15:46:26.861851   678 net.cpp:156] Memory required for data: 710493216
I0403 15:46:26.861871   678 layer_factory.hpp:77] Creating layer inception_3b/relu_3x3
I0403 15:46:26.861889   678 net.cpp:91] Creating Layer inception_3b/relu_3x3
I0403 15:46:26.861906   678 net.cpp:425] inception_3b/relu_3x3 <- inception_3b/3x3
I0403 15:46:26.861923   678 net.cpp:386] inception_3b/relu_3x3 -> inception_3b/3x3 (in-place)
I0403 15:46:26.862196   678 net.cpp:141] Setting up inception_3b/relu_3x3
I0403 15:46:26.862226   678 net.cpp:148] Top shape: 24 192 28 28 (3612672)
I0403 15:46:26.862242   678 net.cpp:156] Memory required for data: 724943904
I0403 15:46:26.862263   678 layer_factory.hpp:77] Creating layer inception_3b/5x5_reduce
I0403 15:46:26.862287   678 net.cpp:91] Creating Layer inception_3b/5x5_reduce
I0403 15:46:26.862305   678 net.cpp:425] inception_3b/5x5_reduce <- inception_3a/output_inception_3a/output_0_split_2
I0403 15:46:26.862325   678 net.cpp:399] inception_3b/5x5_reduce -> inception_3b/5x5_reduce
I0403 15:46:26.863306   678 net.cpp:141] Setting up inception_3b/5x5_reduce
I0403 15:46:26.863335   678 net.cpp:148] Top shape: 24 32 28 28 (602112)
I0403 15:46:26.863353   678 net.cpp:156] Memory required for data: 727352352
I0403 15:46:26.863371   678 layer_factory.hpp:77] Creating layer inception_3b/relu_5x5_reduce
I0403 15:46:26.863389   678 net.cpp:91] Creating Layer inception_3b/relu_5x5_reduce
I0403 15:46:26.863405   678 net.cpp:425] inception_3b/relu_5x5_reduce <- inception_3b/5x5_reduce
I0403 15:46:26.863423   678 net.cpp:386] inception_3b/relu_5x5_reduce -> inception_3b/5x5_reduce (in-place)
I0403 15:46:26.863600   678 net.cpp:141] Setting up inception_3b/relu_5x5_reduce
I0403 15:46:26.863637   678 net.cpp:148] Top shape: 24 32 28 28 (602112)
I0403 15:46:26.863653   678 net.cpp:156] Memory required for data: 729760800
I0403 15:46:26.863668   678 layer_factory.hpp:77] Creating layer inception_3b/5x5
I0403 15:46:26.863692   678 net.cpp:91] Creating Layer inception_3b/5x5
I0403 15:46:26.863708   678 net.cpp:425] inception_3b/5x5 <- inception_3b/5x5_reduce
I0403 15:46:26.863730   678 net.cpp:399] inception_3b/5x5 -> inception_3b/5x5
I0403 15:46:26.865638   678 net.cpp:141] Setting up inception_3b/5x5
I0403 15:46:26.865667   678 net.cpp:148] Top shape: 24 96 28 28 (1806336)
I0403 15:46:26.865684   678 net.cpp:156] Memory required for data: 736986144
I0403 15:46:26.865703   678 layer_factory.hpp:77] Creating layer inception_3b/relu_5x5
I0403 15:46:26.865723   678 net.cpp:91] Creating Layer inception_3b/relu_5x5
I0403 15:46:26.865741   678 net.cpp:425] inception_3b/relu_5x5 <- inception_3b/5x5
I0403 15:46:26.865758   678 net.cpp:386] inception_3b/relu_5x5 -> inception_3b/5x5 (in-place)
I0403 15:46:26.865949   678 net.cpp:141] Setting up inception_3b/relu_5x5
I0403 15:46:26.865975   678 net.cpp:148] Top shape: 24 96 28 28 (1806336)
I0403 15:46:26.865990   678 net.cpp:156] Memory required for data: 744211488
I0403 15:46:26.866006   678 layer_factory.hpp:77] Creating layer inception_3b/pool
I0403 15:46:26.866025   678 net.cpp:91] Creating Layer inception_3b/pool
I0403 15:46:26.866040   678 net.cpp:425] inception_3b/pool <- inception_3a/output_inception_3a/output_0_split_3
I0403 15:46:26.866058   678 net.cpp:399] inception_3b/pool -> inception_3b/pool
I0403 15:46:26.866114   678 net.cpp:141] Setting up inception_3b/pool
I0403 15:46:26.866137   678 net.cpp:148] Top shape: 24 256 28 28 (4816896)
I0403 15:46:26.866153   678 net.cpp:156] Memory required for data: 763479072
I0403 15:46:26.866168   678 layer_factory.hpp:77] Creating layer inception_3b/pool_proj
I0403 15:46:26.866192   678 net.cpp:91] Creating Layer inception_3b/pool_proj
I0403 15:46:26.866210   678 net.cpp:425] inception_3b/pool_proj <- inception_3b/pool
I0403 15:46:26.866231   678 net.cpp:399] inception_3b/pool_proj -> inception_3b/pool_proj
I0403 15:46:26.867262   678 net.cpp:141] Setting up inception_3b/pool_proj
I0403 15:46:26.867297   678 net.cpp:148] Top shape: 24 64 28 28 (1204224)
I0403 15:46:26.867313   678 net.cpp:156] Memory required for data: 768295968
I0403 15:46:26.867339   678 layer_factory.hpp:77] Creating layer inception_3b/relu_pool_proj
I0403 15:46:26.867359   678 net.cpp:91] Creating Layer inception_3b/relu_pool_proj
I0403 15:46:26.867377   678 net.cpp:425] inception_3b/relu_pool_proj <- inception_3b/pool_proj
I0403 15:46:26.867394   678 net.cpp:386] inception_3b/relu_pool_proj -> inception_3b/pool_proj (in-place)
I0403 15:46:26.867768   678 net.cpp:141] Setting up inception_3b/relu_pool_proj
I0403 15:46:26.867794   678 net.cpp:148] Top shape: 24 64 28 28 (1204224)
I0403 15:46:26.867808   678 net.cpp:156] Memory required for data: 773112864
I0403 15:46:26.867823   678 layer_factory.hpp:77] Creating layer inception_3b/output
I0403 15:46:26.867841   678 net.cpp:91] Creating Layer inception_3b/output
I0403 15:46:26.867857   678 net.cpp:425] inception_3b/output <- inception_3b/1x1
I0403 15:46:26.867874   678 net.cpp:425] inception_3b/output <- inception_3b/3x3
I0403 15:46:26.867890   678 net.cpp:425] inception_3b/output <- inception_3b/5x5
I0403 15:46:26.867907   678 net.cpp:425] inception_3b/output <- inception_3b/pool_proj
I0403 15:46:26.867925   678 net.cpp:399] inception_3b/output -> inception_3b/output
I0403 15:46:26.867969   678 net.cpp:141] Setting up inception_3b/output
I0403 15:46:26.867995   678 net.cpp:148] Top shape: 24 480 28 28 (9031680)
I0403 15:46:26.868011   678 net.cpp:156] Memory required for data: 809239584
I0403 15:46:26.868027   678 layer_factory.hpp:77] Creating layer pool3/3x3_s2
I0403 15:46:26.868046   678 net.cpp:91] Creating Layer pool3/3x3_s2
I0403 15:46:26.868062   678 net.cpp:425] pool3/3x3_s2 <- inception_3b/output
I0403 15:46:26.868079   678 net.cpp:399] pool3/3x3_s2 -> pool3/3x3_s2
I0403 15:46:26.868151   678 net.cpp:141] Setting up pool3/3x3_s2
I0403 15:46:26.868175   678 net.cpp:148] Top shape: 24 480 14 14 (2257920)
I0403 15:46:26.868191   678 net.cpp:156] Memory required for data: 818271264
I0403 15:46:26.868206   678 layer_factory.hpp:77] Creating layer pool3/3x3_s2_pool3/3x3_s2_0_split
I0403 15:46:26.868222   678 net.cpp:91] Creating Layer pool3/3x3_s2_pool3/3x3_s2_0_split
I0403 15:46:26.868238   678 net.cpp:425] pool3/3x3_s2_pool3/3x3_s2_0_split <- pool3/3x3_s2
I0403 15:46:26.868262   678 net.cpp:399] pool3/3x3_s2_pool3/3x3_s2_0_split -> pool3/3x3_s2_pool3/3x3_s2_0_split_0
I0403 15:46:26.868283   678 net.cpp:399] pool3/3x3_s2_pool3/3x3_s2_0_split -> pool3/3x3_s2_pool3/3x3_s2_0_split_1
I0403 15:46:26.868304   678 net.cpp:399] pool3/3x3_s2_pool3/3x3_s2_0_split -> pool3/3x3_s2_pool3/3x3_s2_0_split_2
I0403 15:46:26.868324   678 net.cpp:399] pool3/3x3_s2_pool3/3x3_s2_0_split -> pool3/3x3_s2_pool3/3x3_s2_0_split_3
I0403 15:46:26.868402   678 net.cpp:141] Setting up pool3/3x3_s2_pool3/3x3_s2_0_split
I0403 15:46:26.868425   678 net.cpp:148] Top shape: 24 480 14 14 (2257920)
I0403 15:46:26.868443   678 net.cpp:148] Top shape: 24 480 14 14 (2257920)
I0403 15:46:26.868459   678 net.cpp:148] Top shape: 24 480 14 14 (2257920)
I0403 15:46:26.868475   678 net.cpp:148] Top shape: 24 480 14 14 (2257920)
I0403 15:46:26.868490   678 net.cpp:156] Memory required for data: 854397984
I0403 15:46:26.868505   678 layer_factory.hpp:77] Creating layer inception_4a/1x1
I0403 15:46:26.868528   678 net.cpp:91] Creating Layer inception_4a/1x1
I0403 15:46:26.868546   678 net.cpp:425] inception_4a/1x1 <- pool3/3x3_s2_pool3/3x3_s2_0_split_0
I0403 15:46:26.868567   678 net.cpp:399] inception_4a/1x1 -> inception_4a/1x1
I0403 15:46:26.870086   678 net.cpp:141] Setting up inception_4a/1x1
I0403 15:46:26.870115   678 net.cpp:148] Top shape: 24 192 14 14 (903168)
I0403 15:46:26.870131   678 net.cpp:156] Memory required for data: 858010656
I0403 15:46:26.870151   678 layer_factory.hpp:77] Creating layer inception_4a/relu_1x1
I0403 15:46:26.870170   678 net.cpp:91] Creating Layer inception_4a/relu_1x1
I0403 15:46:26.870187   678 net.cpp:425] inception_4a/relu_1x1 <- inception_4a/1x1
I0403 15:46:26.870204   678 net.cpp:386] inception_4a/relu_1x1 -> inception_4a/1x1 (in-place)
I0403 15:46:26.870384   678 net.cpp:141] Setting up inception_4a/relu_1x1
I0403 15:46:26.870410   678 net.cpp:148] Top shape: 24 192 14 14 (903168)
I0403 15:46:26.870426   678 net.cpp:156] Memory required for data: 861623328
I0403 15:46:26.870441   678 layer_factory.hpp:77] Creating layer inception_4a/3x3_reduce
I0403 15:46:26.870466   678 net.cpp:91] Creating Layer inception_4a/3x3_reduce
I0403 15:46:26.870486   678 net.cpp:425] inception_4a/3x3_reduce <- pool3/3x3_s2_pool3/3x3_s2_0_split_1
I0403 15:46:26.870504   678 net.cpp:399] inception_4a/3x3_reduce -> inception_4a/3x3_reduce
I0403 15:46:26.871749   678 net.cpp:141] Setting up inception_4a/3x3_reduce
I0403 15:46:26.871778   678 net.cpp:148] Top shape: 24 96 14 14 (451584)
I0403 15:46:26.871793   678 net.cpp:156] Memory required for data: 863429664
I0403 15:46:26.871819   678 layer_factory.hpp:77] Creating layer inception_4a/relu_3x3_reduce
I0403 15:46:26.871839   678 net.cpp:91] Creating Layer inception_4a/relu_3x3_reduce
I0403 15:46:26.871855   678 net.cpp:425] inception_4a/relu_3x3_reduce <- inception_4a/3x3_reduce
I0403 15:46:26.871875   678 net.cpp:386] inception_4a/relu_3x3_reduce -> inception_4a/3x3_reduce (in-place)
I0403 15:46:26.872051   678 net.cpp:141] Setting up inception_4a/relu_3x3_reduce
I0403 15:46:26.872079   678 net.cpp:148] Top shape: 24 96 14 14 (451584)
I0403 15:46:26.872095   678 net.cpp:156] Memory required for data: 865236000
I0403 15:46:26.872110   678 layer_factory.hpp:77] Creating layer inception_4a/3x3
I0403 15:46:26.872133   678 net.cpp:91] Creating Layer inception_4a/3x3
I0403 15:46:26.872151   678 net.cpp:425] inception_4a/3x3 <- inception_4a/3x3_reduce
I0403 15:46:26.872172   678 net.cpp:399] inception_4a/3x3 -> inception_4a/3x3
I0403 15:46:26.874784   678 net.cpp:141] Setting up inception_4a/3x3
I0403 15:46:26.874812   678 net.cpp:148] Top shape: 24 208 14 14 (978432)
I0403 15:46:26.874830   678 net.cpp:156] Memory required for data: 869149728
I0403 15:46:26.874848   678 layer_factory.hpp:77] Creating layer inception_4a/relu_3x3
I0403 15:46:26.874868   678 net.cpp:91] Creating Layer inception_4a/relu_3x3
I0403 15:46:26.874886   678 net.cpp:425] inception_4a/relu_3x3 <- inception_4a/3x3
I0403 15:46:26.874903   678 net.cpp:386] inception_4a/relu_3x3 -> inception_4a/3x3 (in-place)
I0403 15:46:26.875180   678 net.cpp:141] Setting up inception_4a/relu_3x3
I0403 15:46:26.875206   678 net.cpp:148] Top shape: 24 208 14 14 (978432)
I0403 15:46:26.875222   678 net.cpp:156] Memory required for data: 873063456
I0403 15:46:26.875237   678 layer_factory.hpp:77] Creating layer inception_4a/5x5_reduce
I0403 15:46:26.875264   678 net.cpp:91] Creating Layer inception_4a/5x5_reduce
I0403 15:46:26.875284   678 net.cpp:425] inception_4a/5x5_reduce <- pool3/3x3_s2_pool3/3x3_s2_0_split_2
I0403 15:46:26.875305   678 net.cpp:399] inception_4a/5x5_reduce -> inception_4a/5x5_reduce
I0403 15:46:26.876317   678 net.cpp:141] Setting up inception_4a/5x5_reduce
I0403 15:46:26.876346   678 net.cpp:148] Top shape: 24 16 14 14 (75264)
I0403 15:46:26.876364   678 net.cpp:156] Memory required for data: 873364512
I0403 15:46:26.876382   678 layer_factory.hpp:77] Creating layer inception_4a/relu_5x5_reduce
I0403 15:46:26.876401   678 net.cpp:91] Creating Layer inception_4a/relu_5x5_reduce
I0403 15:46:26.876417   678 net.cpp:425] inception_4a/relu_5x5_reduce <- inception_4a/5x5_reduce
I0403 15:46:26.876436   678 net.cpp:386] inception_4a/relu_5x5_reduce -> inception_4a/5x5_reduce (in-place)
I0403 15:46:26.876613   678 net.cpp:141] Setting up inception_4a/relu_5x5_reduce
I0403 15:46:26.876641   678 net.cpp:148] Top shape: 24 16 14 14 (75264)
I0403 15:46:26.876657   678 net.cpp:156] Memory required for data: 873665568
I0403 15:46:26.876672   678 layer_factory.hpp:77] Creating layer inception_4a/5x5
I0403 15:46:26.876695   678 net.cpp:91] Creating Layer inception_4a/5x5
I0403 15:46:26.876713   678 net.cpp:425] inception_4a/5x5 <- inception_4a/5x5_reduce
I0403 15:46:26.876734   678 net.cpp:399] inception_4a/5x5 -> inception_4a/5x5
I0403 15:46:26.877809   678 net.cpp:141] Setting up inception_4a/5x5
I0403 15:46:26.877835   678 net.cpp:148] Top shape: 24 48 14 14 (225792)
I0403 15:46:26.877851   678 net.cpp:156] Memory required for data: 874568736
I0403 15:46:26.877868   678 layer_factory.hpp:77] Creating layer inception_4a/relu_5x5
I0403 15:46:26.877887   678 net.cpp:91] Creating Layer inception_4a/relu_5x5
I0403 15:46:26.877903   678 net.cpp:425] inception_4a/relu_5x5 <- inception_4a/5x5
I0403 15:46:26.877923   678 net.cpp:386] inception_4a/relu_5x5 -> inception_4a/5x5 (in-place)
I0403 15:46:26.878103   678 net.cpp:141] Setting up inception_4a/relu_5x5
I0403 15:46:26.878129   678 net.cpp:148] Top shape: 24 48 14 14 (225792)
I0403 15:46:26.878144   678 net.cpp:156] Memory required for data: 875471904
I0403 15:46:26.878159   678 layer_factory.hpp:77] Creating layer inception_4a/pool
I0403 15:46:26.878180   678 net.cpp:91] Creating Layer inception_4a/pool
I0403 15:46:26.878196   678 net.cpp:425] inception_4a/pool <- pool3/3x3_s2_pool3/3x3_s2_0_split_3
I0403 15:46:26.878216   678 net.cpp:399] inception_4a/pool -> inception_4a/pool
I0403 15:46:26.878280   678 net.cpp:141] Setting up inception_4a/pool
I0403 15:46:26.878304   678 net.cpp:148] Top shape: 24 480 14 14 (2257920)
I0403 15:46:26.878319   678 net.cpp:156] Memory required for data: 884503584
I0403 15:46:26.878334   678 layer_factory.hpp:77] Creating layer inception_4a/pool_proj
I0403 15:46:26.878356   678 net.cpp:91] Creating Layer inception_4a/pool_proj
I0403 15:46:26.878373   678 net.cpp:425] inception_4a/pool_proj <- inception_4a/pool
I0403 15:46:26.878394   678 net.cpp:399] inception_4a/pool_proj -> inception_4a/pool_proj
I0403 15:46:26.879534   678 net.cpp:141] Setting up inception_4a/pool_proj
I0403 15:46:26.879564   678 net.cpp:148] Top shape: 24 64 14 14 (301056)
I0403 15:46:26.879595   678 net.cpp:156] Memory required for data: 885707808
I0403 15:46:26.879614   678 layer_factory.hpp:77] Creating layer inception_4a/relu_pool_proj
I0403 15:46:26.879633   678 net.cpp:91] Creating Layer inception_4a/relu_pool_proj
I0403 15:46:26.879650   678 net.cpp:425] inception_4a/relu_pool_proj <- inception_4a/pool_proj
I0403 15:46:26.879670   678 net.cpp:386] inception_4a/relu_pool_proj -> inception_4a/pool_proj (in-place)
I0403 15:46:26.879947   678 net.cpp:141] Setting up inception_4a/relu_pool_proj
I0403 15:46:26.879974   678 net.cpp:148] Top shape: 24 64 14 14 (301056)
I0403 15:46:26.879989   678 net.cpp:156] Memory required for data: 886912032
I0403 15:46:26.880005   678 layer_factory.hpp:77] Creating layer inception_4a/output
I0403 15:46:26.880023   678 net.cpp:91] Creating Layer inception_4a/output
I0403 15:46:26.880038   678 net.cpp:425] inception_4a/output <- inception_4a/1x1
I0403 15:46:26.880053   678 net.cpp:425] inception_4a/output <- inception_4a/3x3
I0403 15:46:26.880069   678 net.cpp:425] inception_4a/output <- inception_4a/5x5
I0403 15:46:26.880085   678 net.cpp:425] inception_4a/output <- inception_4a/pool_proj
I0403 15:46:26.880105   678 net.cpp:399] inception_4a/output -> inception_4a/output
I0403 15:46:26.880149   678 net.cpp:141] Setting up inception_4a/output
I0403 15:46:26.880175   678 net.cpp:148] Top shape: 24 512 14 14 (2408448)
I0403 15:46:26.880192   678 net.cpp:156] Memory required for data: 896545824
I0403 15:46:26.880208   678 layer_factory.hpp:77] Creating layer inception_4a/output_inception_4a/output_0_split
I0403 15:46:26.880225   678 net.cpp:91] Creating Layer inception_4a/output_inception_4a/output_0_split
I0403 15:46:26.880240   678 net.cpp:425] inception_4a/output_inception_4a/output_0_split <- inception_4a/output
I0403 15:46:26.880266   678 net.cpp:399] inception_4a/output_inception_4a/output_0_split -> inception_4a/output_inception_4a/output_0_split_0
I0403 15:46:26.880292   678 net.cpp:399] inception_4a/output_inception_4a/output_0_split -> inception_4a/output_inception_4a/output_0_split_1
I0403 15:46:26.880314   678 net.cpp:399] inception_4a/output_inception_4a/output_0_split -> inception_4a/output_inception_4a/output_0_split_2
I0403 15:46:26.880336   678 net.cpp:399] inception_4a/output_inception_4a/output_0_split -> inception_4a/output_inception_4a/output_0_split_3
I0403 15:46:26.880355   678 net.cpp:399] inception_4a/output_inception_4a/output_0_split -> inception_4a/output_inception_4a/output_0_split_4
I0403 15:46:26.880448   678 net.cpp:141] Setting up inception_4a/output_inception_4a/output_0_split
I0403 15:46:26.880475   678 net.cpp:148] Top shape: 24 512 14 14 (2408448)
I0403 15:46:26.880492   678 net.cpp:148] Top shape: 24 512 14 14 (2408448)
I0403 15:46:26.880509   678 net.cpp:148] Top shape: 24 512 14 14 (2408448)
I0403 15:46:26.880524   678 net.cpp:148] Top shape: 24 512 14 14 (2408448)
I0403 15:46:26.880539   678 net.cpp:148] Top shape: 24 512 14 14 (2408448)
I0403 15:46:26.880554   678 net.cpp:156] Memory required for data: 944714784
I0403 15:46:26.880574   678 layer_factory.hpp:77] Creating layer loss1/ave_pool
I0403 15:46:26.880592   678 net.cpp:91] Creating Layer loss1/ave_pool
I0403 15:46:26.880607   678 net.cpp:425] loss1/ave_pool <- inception_4a/output_inception_4a/output_0_split_0
I0403 15:46:26.880625   678 net.cpp:399] loss1/ave_pool -> loss1/ave_pool
I0403 15:46:26.880828   678 net.cpp:141] Setting up loss1/ave_pool
I0403 15:46:26.880854   678 net.cpp:148] Top shape: 24 512 4 4 (196608)
I0403 15:46:26.880870   678 net.cpp:156] Memory required for data: 945501216
I0403 15:46:26.880885   678 layer_factory.hpp:77] Creating layer loss1/conv
I0403 15:46:26.880908   678 net.cpp:91] Creating Layer loss1/conv
I0403 15:46:26.880925   678 net.cpp:425] loss1/conv <- loss1/ave_pool
I0403 15:46:26.880946   678 net.cpp:399] loss1/conv -> loss1/conv
I0403 15:46:26.882321   678 net.cpp:141] Setting up loss1/conv
I0403 15:46:26.882349   678 net.cpp:148] Top shape: 24 128 4 4 (49152)
I0403 15:46:26.882369   678 net.cpp:156] Memory required for data: 945697824
I0403 15:46:26.882401   678 layer_factory.hpp:77] Creating layer loss1/relu_conv
I0403 15:46:26.882421   678 net.cpp:91] Creating Layer loss1/relu_conv
I0403 15:46:26.882437   678 net.cpp:425] loss1/relu_conv <- loss1/conv
I0403 15:46:26.882455   678 net.cpp:386] loss1/relu_conv -> loss1/conv (in-place)
I0403 15:46:26.882731   678 net.cpp:141] Setting up loss1/relu_conv
I0403 15:46:26.882757   678 net.cpp:148] Top shape: 24 128 4 4 (49152)
I0403 15:46:26.882776   678 net.cpp:156] Memory required for data: 945894432
I0403 15:46:26.882792   678 layer_factory.hpp:77] Creating layer loss1/fc
I0403 15:46:26.882815   678 net.cpp:91] Creating Layer loss1/fc
I0403 15:46:26.882833   678 net.cpp:425] loss1/fc <- loss1/conv
I0403 15:46:26.882854   678 net.cpp:399] loss1/fc -> loss1/fc
I0403 15:46:26.900691   678 net.cpp:141] Setting up loss1/fc
I0403 15:46:26.900724   678 net.cpp:148] Top shape: 24 1024 (24576)
I0403 15:46:26.900740   678 net.cpp:156] Memory required for data: 945992736
I0403 15:46:26.900760   678 layer_factory.hpp:77] Creating layer loss1/relu_fc
I0403 15:46:26.900779   678 net.cpp:91] Creating Layer loss1/relu_fc
I0403 15:46:26.900799   678 net.cpp:425] loss1/relu_fc <- loss1/fc
I0403 15:46:26.900816   678 net.cpp:386] loss1/relu_fc -> loss1/fc (in-place)
I0403 15:46:26.901005   678 net.cpp:141] Setting up loss1/relu_fc
I0403 15:46:26.901029   678 net.cpp:148] Top shape: 24 1024 (24576)
I0403 15:46:26.901046   678 net.cpp:156] Memory required for data: 946091040
I0403 15:46:26.901060   678 layer_factory.hpp:77] Creating layer loss1/drop_fc
I0403 15:46:26.901087   678 net.cpp:91] Creating Layer loss1/drop_fc
I0403 15:46:26.901104   678 net.cpp:425] loss1/drop_fc <- loss1/fc
I0403 15:46:26.901123   678 net.cpp:386] loss1/drop_fc -> loss1/fc (in-place)
I0403 15:46:26.901172   678 net.cpp:141] Setting up loss1/drop_fc
I0403 15:46:26.901198   678 net.cpp:148] Top shape: 24 1024 (24576)
I0403 15:46:26.901214   678 net.cpp:156] Memory required for data: 946189344
I0403 15:46:26.901232   678 layer_factory.hpp:77] Creating layer loss1/classifier_plantvillage
I0403 15:46:26.901249   678 net.cpp:91] Creating Layer loss1/classifier_plantvillage
I0403 15:46:26.901270   678 net.cpp:425] loss1/classifier_plantvillage <- loss1/fc
I0403 15:46:26.901293   678 net.cpp:399] loss1/classifier_plantvillage -> loss1/classifier_plantvillage
I0403 15:46:26.902205   678 net.cpp:141] Setting up loss1/classifier_plantvillage
I0403 15:46:26.902235   678 net.cpp:148] Top shape: 24 38 (912)
I0403 15:46:26.902250   678 net.cpp:156] Memory required for data: 946192992
I0403 15:46:26.902274   678 layer_factory.hpp:77] Creating layer loss1/classifier_plantvillage_loss1/classifier_plantvillage_0_split
I0403 15:46:26.902295   678 net.cpp:91] Creating Layer loss1/classifier_plantvillage_loss1/classifier_plantvillage_0_split
I0403 15:46:26.902312   678 net.cpp:425] loss1/classifier_plantvillage_loss1/classifier_plantvillage_0_split <- loss1/classifier_plantvillage
I0403 15:46:26.902330   678 net.cpp:399] loss1/classifier_plantvillage_loss1/classifier_plantvillage_0_split -> loss1/classifier_plantvillage_loss1/classifier_plantvillage_0_split_0
I0403 15:46:26.902350   678 net.cpp:399] loss1/classifier_plantvillage_loss1/classifier_plantvillage_0_split -> loss1/classifier_plantvillage_loss1/classifier_plantvillage_0_split_1
I0403 15:46:26.902371   678 net.cpp:399] loss1/classifier_plantvillage_loss1/classifier_plantvillage_0_split -> loss1/classifier_plantvillage_loss1/classifier_plantvillage_0_split_2
I0403 15:46:26.902437   678 net.cpp:141] Setting up loss1/classifier_plantvillage_loss1/classifier_plantvillage_0_split
I0403 15:46:26.902462   678 net.cpp:148] Top shape: 24 38 (912)
I0403 15:46:26.902477   678 net.cpp:148] Top shape: 24 38 (912)
I0403 15:46:26.902493   678 net.cpp:148] Top shape: 24 38 (912)
I0403 15:46:26.902520   678 net.cpp:156] Memory required for data: 946203936
I0403 15:46:26.902536   678 layer_factory.hpp:77] Creating layer inception_4b/1x1
I0403 15:46:26.902556   678 net.cpp:91] Creating Layer inception_4b/1x1
I0403 15:46:26.902590   678 net.cpp:425] inception_4b/1x1 <- inception_4a/output_inception_4a/output_0_split_1
I0403 15:46:26.902614   678 net.cpp:399] inception_4b/1x1 -> inception_4b/1x1
I0403 15:46:26.904388   678 net.cpp:141] Setting up inception_4b/1x1
I0403 15:46:26.904422   678 net.cpp:148] Top shape: 24 160 14 14 (752640)
I0403 15:46:26.904438   678 net.cpp:156] Memory required for data: 949214496
I0403 15:46:26.904470   678 layer_factory.hpp:77] Creating layer inception_4b/relu_1x1
I0403 15:46:26.904490   678 net.cpp:91] Creating Layer inception_4b/relu_1x1
I0403 15:46:26.904507   678 net.cpp:425] inception_4b/relu_1x1 <- inception_4b/1x1
I0403 15:46:26.904525   678 net.cpp:386] inception_4b/relu_1x1 -> inception_4b/1x1 (in-place)
I0403 15:46:26.904711   678 net.cpp:141] Setting up inception_4b/relu_1x1
I0403 15:46:26.904737   678 net.cpp:148] Top shape: 24 160 14 14 (752640)
I0403 15:46:26.904754   678 net.cpp:156] Memory required for data: 952225056
I0403 15:46:26.904770   678 layer_factory.hpp:77] Creating layer inception_4b/3x3_reduce
I0403 15:46:26.904793   678 net.cpp:91] Creating Layer inception_4b/3x3_reduce
I0403 15:46:26.904809   678 net.cpp:425] inception_4b/3x3_reduce <- inception_4a/output_inception_4a/output_0_split_2
I0403 15:46:26.904832   678 net.cpp:399] inception_4b/3x3_reduce -> inception_4b/3x3_reduce
I0403 15:46:26.906275   678 net.cpp:141] Setting up inception_4b/3x3_reduce
I0403 15:46:26.906319   678 net.cpp:148] Top shape: 24 112 14 14 (526848)
I0403 15:46:26.906339   678 net.cpp:156] Memory required for data: 954332448
I0403 15:46:26.906359   678 layer_factory.hpp:77] Creating layer inception_4b/relu_3x3_reduce
I0403 15:46:26.906378   678 net.cpp:91] Creating Layer inception_4b/relu_3x3_reduce
I0403 15:46:26.906396   678 net.cpp:425] inception_4b/relu_3x3_reduce <- inception_4b/3x3_reduce
I0403 15:46:26.906419   678 net.cpp:386] inception_4b/relu_3x3_reduce -> inception_4b/3x3_reduce (in-place)
I0403 15:46:26.906756   678 net.cpp:141] Setting up inception_4b/relu_3x3_reduce
I0403 15:46:26.906785   678 net.cpp:148] Top shape: 24 112 14 14 (526848)
I0403 15:46:26.906802   678 net.cpp:156] Memory required for data: 956439840
I0403 15:46:26.906818   678 layer_factory.hpp:77] Creating layer inception_4b/3x3
I0403 15:46:26.906849   678 net.cpp:91] Creating Layer inception_4b/3x3
I0403 15:46:26.906867   678 net.cpp:425] inception_4b/3x3 <- inception_4b/3x3_reduce
I0403 15:46:26.906899   678 net.cpp:399] inception_4b/3x3 -> inception_4b/3x3
I0403 15:46:26.909956   678 net.cpp:141] Setting up inception_4b/3x3
I0403 15:46:26.909986   678 net.cpp:148] Top shape: 24 224 14 14 (1053696)
I0403 15:46:26.910002   678 net.cpp:156] Memory required for data: 960654624
I0403 15:46:26.910022   678 layer_factory.hpp:77] Creating layer inception_4b/relu_3x3
I0403 15:46:26.910042   678 net.cpp:91] Creating Layer inception_4b/relu_3x3
I0403 15:46:26.910060   678 net.cpp:425] inception_4b/relu_3x3 <- inception_4b/3x3
I0403 15:46:26.910079   678 net.cpp:386] inception_4b/relu_3x3 -> inception_4b/3x3 (in-place)
I0403 15:46:26.910265   678 net.cpp:141] Setting up inception_4b/relu_3x3
I0403 15:46:26.910291   678 net.cpp:148] Top shape: 24 224 14 14 (1053696)
I0403 15:46:26.910306   678 net.cpp:156] Memory required for data: 964869408
I0403 15:46:26.910322   678 layer_factory.hpp:77] Creating layer inception_4b/5x5_reduce
I0403 15:46:26.910347   678 net.cpp:91] Creating Layer inception_4b/5x5_reduce
I0403 15:46:26.910365   678 net.cpp:425] inception_4b/5x5_reduce <- inception_4a/output_inception_4a/output_0_split_3
I0403 15:46:26.910384   678 net.cpp:399] inception_4b/5x5_reduce -> inception_4b/5x5_reduce
I0403 15:46:26.911447   678 net.cpp:141] Setting up inception_4b/5x5_reduce
I0403 15:46:26.911476   678 net.cpp:148] Top shape: 24 24 14 14 (112896)
I0403 15:46:26.911494   678 net.cpp:156] Memory required for data: 965320992
I0403 15:46:26.911514   678 layer_factory.hpp:77] Creating layer inception_4b/relu_5x5_reduce
I0403 15:46:26.911531   678 net.cpp:91] Creating Layer inception_4b/relu_5x5_reduce
I0403 15:46:26.911561   678 net.cpp:425] inception_4b/relu_5x5_reduce <- inception_4b/5x5_reduce
I0403 15:46:26.911583   678 net.cpp:386] inception_4b/relu_5x5_reduce -> inception_4b/5x5_reduce (in-place)
I0403 15:46:26.911785   678 net.cpp:141] Setting up inception_4b/relu_5x5_reduce
I0403 15:46:26.911813   678 net.cpp:148] Top shape: 24 24 14 14 (112896)
I0403 15:46:26.911829   678 net.cpp:156] Memory required for data: 965772576
I0403 15:46:26.911845   678 layer_factory.hpp:77] Creating layer inception_4b/5x5
I0403 15:46:26.911869   678 net.cpp:91] Creating Layer inception_4b/5x5
I0403 15:46:26.911886   678 net.cpp:425] inception_4b/5x5 <- inception_4b/5x5_reduce
I0403 15:46:26.911921   678 net.cpp:399] inception_4b/5x5 -> inception_4b/5x5
I0403 15:46:26.913137   678 net.cpp:141] Setting up inception_4b/5x5
I0403 15:46:26.913167   678 net.cpp:148] Top shape: 24 64 14 14 (301056)
I0403 15:46:26.913184   678 net.cpp:156] Memory required for data: 966976800
I0403 15:46:26.913203   678 layer_factory.hpp:77] Creating layer inception_4b/relu_5x5
I0403 15:46:26.913223   678 net.cpp:91] Creating Layer inception_4b/relu_5x5
I0403 15:46:26.913239   678 net.cpp:425] inception_4b/relu_5x5 <- inception_4b/5x5
I0403 15:46:26.913261   678 net.cpp:386] inception_4b/relu_5x5 -> inception_4b/5x5 (in-place)
I0403 15:46:26.913545   678 net.cpp:141] Setting up inception_4b/relu_5x5
I0403 15:46:26.913575   678 net.cpp:148] Top shape: 24 64 14 14 (301056)
I0403 15:46:26.913592   678 net.cpp:156] Memory required for data: 968181024
I0403 15:46:26.913609   678 layer_factory.hpp:77] Creating layer inception_4b/pool
I0403 15:46:26.913626   678 net.cpp:91] Creating Layer inception_4b/pool
I0403 15:46:26.913642   678 net.cpp:425] inception_4b/pool <- inception_4a/output_inception_4a/output_0_split_4
I0403 15:46:26.913661   678 net.cpp:399] inception_4b/pool -> inception_4b/pool
I0403 15:46:26.913724   678 net.cpp:141] Setting up inception_4b/pool
I0403 15:46:26.913748   678 net.cpp:148] Top shape: 24 512 14 14 (2408448)
I0403 15:46:26.913763   678 net.cpp:156] Memory required for data: 977814816
I0403 15:46:26.913777   678 layer_factory.hpp:77] Creating layer inception_4b/pool_proj
I0403 15:46:26.913800   678 net.cpp:91] Creating Layer inception_4b/pool_proj
I0403 15:46:26.913816   678 net.cpp:425] inception_4b/pool_proj <- inception_4b/pool
I0403 15:46:26.913836   678 net.cpp:399] inception_4b/pool_proj -> inception_4b/pool_proj
I0403 15:46:26.915056   678 net.cpp:141] Setting up inception_4b/pool_proj
I0403 15:46:26.915087   678 net.cpp:148] Top shape: 24 64 14 14 (301056)
I0403 15:46:26.915103   678 net.cpp:156] Memory required for data: 979019040
I0403 15:46:26.915122   678 layer_factory.hpp:77] Creating layer inception_4b/relu_pool_proj
I0403 15:46:26.915138   678 net.cpp:91] Creating Layer inception_4b/relu_pool_proj
I0403 15:46:26.915154   678 net.cpp:425] inception_4b/relu_pool_proj <- inception_4b/pool_proj
I0403 15:46:26.915171   678 net.cpp:386] inception_4b/relu_pool_proj -> inception_4b/pool_proj (in-place)
I0403 15:46:26.915372   678 net.cpp:141] Setting up inception_4b/relu_pool_proj
I0403 15:46:26.915397   678 net.cpp:148] Top shape: 24 64 14 14 (301056)
I0403 15:46:26.915412   678 net.cpp:156] Memory required for data: 980223264
I0403 15:46:26.915427   678 layer_factory.hpp:77] Creating layer inception_4b/output
I0403 15:46:26.915444   678 net.cpp:91] Creating Layer inception_4b/output
I0403 15:46:26.915460   678 net.cpp:425] inception_4b/output <- inception_4b/1x1
I0403 15:46:26.915477   678 net.cpp:425] inception_4b/output <- inception_4b/3x3
I0403 15:46:26.915493   678 net.cpp:425] inception_4b/output <- inception_4b/5x5
I0403 15:46:26.915508   678 net.cpp:425] inception_4b/output <- inception_4b/pool_proj
I0403 15:46:26.915527   678 net.cpp:399] inception_4b/output -> inception_4b/output
I0403 15:46:26.915571   678 net.cpp:141] Setting up inception_4b/output
I0403 15:46:26.915597   678 net.cpp:148] Top shape: 24 512 14 14 (2408448)
I0403 15:46:26.915621   678 net.cpp:156] Memory required for data: 989857056
I0403 15:46:26.915649   678 layer_factory.hpp:77] Creating layer inception_4b/output_inception_4b/output_0_split
I0403 15:46:26.915668   678 net.cpp:91] Creating Layer inception_4b/output_inception_4b/output_0_split
I0403 15:46:26.915683   678 net.cpp:425] inception_4b/output_inception_4b/output_0_split <- inception_4b/output
I0403 15:46:26.915701   678 net.cpp:399] inception_4b/output_inception_4b/output_0_split -> inception_4b/output_inception_4b/output_0_split_0
I0403 15:46:26.915726   678 net.cpp:399] inception_4b/output_inception_4b/output_0_split -> inception_4b/output_inception_4b/output_0_split_1
I0403 15:46:26.915747   678 net.cpp:399] inception_4b/output_inception_4b/output_0_split -> inception_4b/output_inception_4b/output_0_split_2
I0403 15:46:26.915766   678 net.cpp:399] inception_4b/output_inception_4b/output_0_split -> inception_4b/output_inception_4b/output_0_split_3
I0403 15:46:26.915845   678 net.cpp:141] Setting up inception_4b/output_inception_4b/output_0_split
I0403 15:46:26.915869   678 net.cpp:148] Top shape: 24 512 14 14 (2408448)
I0403 15:46:26.915885   678 net.cpp:148] Top shape: 24 512 14 14 (2408448)
I0403 15:46:26.915900   678 net.cpp:148] Top shape: 24 512 14 14 (2408448)
I0403 15:46:26.915915   678 net.cpp:148] Top shape: 24 512 14 14 (2408448)
I0403 15:46:26.915930   678 net.cpp:156] Memory required for data: 1028392224
I0403 15:46:26.915945   678 layer_factory.hpp:77] Creating layer inception_4c/1x1
I0403 15:46:26.915966   678 net.cpp:91] Creating Layer inception_4c/1x1
I0403 15:46:26.915983   678 net.cpp:425] inception_4c/1x1 <- inception_4b/output_inception_4b/output_0_split_0
I0403 15:46:26.916003   678 net.cpp:399] inception_4c/1x1 -> inception_4c/1x1
I0403 15:46:26.917413   678 net.cpp:141] Setting up inception_4c/1x1
I0403 15:46:26.917441   678 net.cpp:148] Top shape: 24 128 14 14 (602112)
I0403 15:46:26.917456   678 net.cpp:156] Memory required for data: 1030800672
I0403 15:46:26.917475   678 layer_factory.hpp:77] Creating layer inception_4c/relu_1x1
I0403 15:46:26.917495   678 net.cpp:91] Creating Layer inception_4c/relu_1x1
I0403 15:46:26.917511   678 net.cpp:425] inception_4c/relu_1x1 <- inception_4c/1x1
I0403 15:46:26.917528   678 net.cpp:386] inception_4c/relu_1x1 -> inception_4c/1x1 (in-place)
I0403 15:46:26.917726   678 net.cpp:141] Setting up inception_4c/relu_1x1
I0403 15:46:26.917752   678 net.cpp:148] Top shape: 24 128 14 14 (602112)
I0403 15:46:26.917767   678 net.cpp:156] Memory required for data: 1033209120
I0403 15:46:26.917783   678 layer_factory.hpp:77] Creating layer inception_4c/3x3_reduce
I0403 15:46:26.917804   678 net.cpp:91] Creating Layer inception_4c/3x3_reduce
I0403 15:46:26.917822   678 net.cpp:425] inception_4c/3x3_reduce <- inception_4b/output_inception_4b/output_0_split_1
I0403 15:46:26.917843   678 net.cpp:399] inception_4c/3x3_reduce -> inception_4c/3x3_reduce
I0403 15:46:26.919864   678 net.cpp:141] Setting up inception_4c/3x3_reduce
I0403 15:46:26.919893   678 net.cpp:148] Top shape: 24 128 14 14 (602112)
I0403 15:46:26.919909   678 net.cpp:156] Memory required for data: 1035617568
I0403 15:46:26.919927   678 layer_factory.hpp:77] Creating layer inception_4c/relu_3x3_reduce
I0403 15:46:26.919947   678 net.cpp:91] Creating Layer inception_4c/relu_3x3_reduce
I0403 15:46:26.919963   678 net.cpp:425] inception_4c/relu_3x3_reduce <- inception_4c/3x3_reduce
I0403 15:46:26.919981   678 net.cpp:386] inception_4c/relu_3x3_reduce -> inception_4c/3x3_reduce (in-place)
I0403 15:46:26.920275   678 net.cpp:141] Setting up inception_4c/relu_3x3_reduce
I0403 15:46:26.920301   678 net.cpp:148] Top shape: 24 128 14 14 (602112)
I0403 15:46:26.920316   678 net.cpp:156] Memory required for data: 1038026016
I0403 15:46:26.920331   678 layer_factory.hpp:77] Creating layer inception_4c/3x3
I0403 15:46:26.920356   678 net.cpp:91] Creating Layer inception_4c/3x3
I0403 15:46:26.920374   678 net.cpp:425] inception_4c/3x3 <- inception_4c/3x3_reduce
I0403 15:46:26.920393   678 net.cpp:399] inception_4c/3x3 -> inception_4c/3x3
I0403 15:46:26.924096   678 net.cpp:141] Setting up inception_4c/3x3
I0403 15:46:26.924139   678 net.cpp:148] Top shape: 24 256 14 14 (1204224)
I0403 15:46:26.924155   678 net.cpp:156] Memory required for data: 1042842912
I0403 15:46:26.924190   678 layer_factory.hpp:77] Creating layer inception_4c/relu_3x3
I0403 15:46:26.924209   678 net.cpp:91] Creating Layer inception_4c/relu_3x3
I0403 15:46:26.924226   678 net.cpp:425] inception_4c/relu_3x3 <- inception_4c/3x3
I0403 15:46:26.924242   678 net.cpp:386] inception_4c/relu_3x3 -> inception_4c/3x3 (in-place)
I0403 15:46:26.924438   678 net.cpp:141] Setting up inception_4c/relu_3x3
I0403 15:46:26.924465   678 net.cpp:148] Top shape: 24 256 14 14 (1204224)
I0403 15:46:26.924481   678 net.cpp:156] Memory required for data: 1047659808
I0403 15:46:26.924496   678 layer_factory.hpp:77] Creating layer inception_4c/5x5_reduce
I0403 15:46:26.924520   678 net.cpp:91] Creating Layer inception_4c/5x5_reduce
I0403 15:46:26.924536   678 net.cpp:425] inception_4c/5x5_reduce <- inception_4b/output_inception_4b/output_0_split_2
I0403 15:46:26.924556   678 net.cpp:399] inception_4c/5x5_reduce -> inception_4c/5x5_reduce
I0403 15:46:26.925696   678 net.cpp:141] Setting up inception_4c/5x5_reduce
I0403 15:46:26.925726   678 net.cpp:148] Top shape: 24 24 14 14 (112896)
I0403 15:46:26.925743   678 net.cpp:156] Memory required for data: 1048111392
I0403 15:46:26.925762   678 layer_factory.hpp:77] Creating layer inception_4c/relu_5x5_reduce
I0403 15:46:26.925781   678 net.cpp:91] Creating Layer inception_4c/relu_5x5_reduce
I0403 15:46:26.925796   678 net.cpp:425] inception_4c/relu_5x5_reduce <- inception_4c/5x5_reduce
I0403 15:46:26.925817   678 net.cpp:386] inception_4c/relu_5x5_reduce -> inception_4c/5x5_reduce (in-place)
I0403 15:46:26.926010   678 net.cpp:141] Setting up inception_4c/relu_5x5_reduce
I0403 15:46:26.926035   678 net.cpp:148] Top shape: 24 24 14 14 (112896)
I0403 15:46:26.926050   678 net.cpp:156] Memory required for data: 1048562976
I0403 15:46:26.926065   678 layer_factory.hpp:77] Creating layer inception_4c/5x5
I0403 15:46:26.926086   678 net.cpp:91] Creating Layer inception_4c/5x5
I0403 15:46:26.926105   678 net.cpp:425] inception_4c/5x5 <- inception_4c/5x5_reduce
I0403 15:46:26.926126   678 net.cpp:399] inception_4c/5x5 -> inception_4c/5x5
I0403 15:46:26.927361   678 net.cpp:141] Setting up inception_4c/5x5
I0403 15:46:26.927387   678 net.cpp:148] Top shape: 24 64 14 14 (301056)
I0403 15:46:26.927402   678 net.cpp:156] Memory required for data: 1049767200
I0403 15:46:26.927422   678 layer_factory.hpp:77] Creating layer inception_4c/relu_5x5
I0403 15:46:26.927439   678 net.cpp:91] Creating Layer inception_4c/relu_5x5
I0403 15:46:26.927455   678 net.cpp:425] inception_4c/relu_5x5 <- inception_4c/5x5
I0403 15:46:26.927474   678 net.cpp:386] inception_4c/relu_5x5 -> inception_4c/5x5 (in-place)
I0403 15:46:26.927775   678 net.cpp:141] Setting up inception_4c/relu_5x5
I0403 15:46:26.927803   678 net.cpp:148] Top shape: 24 64 14 14 (301056)
I0403 15:46:26.927817   678 net.cpp:156] Memory required for data: 1050971424
I0403 15:46:26.927834   678 layer_factory.hpp:77] Creating layer inception_4c/pool
I0403 15:46:26.927851   678 net.cpp:91] Creating Layer inception_4c/pool
I0403 15:46:26.927867   678 net.cpp:425] inception_4c/pool <- inception_4b/output_inception_4b/output_0_split_3
I0403 15:46:26.927889   678 net.cpp:399] inception_4c/pool -> inception_4c/pool
I0403 15:46:26.927968   678 net.cpp:141] Setting up inception_4c/pool
I0403 15:46:26.927992   678 net.cpp:148] Top shape: 24 512 14 14 (2408448)
I0403 15:46:26.928009   678 net.cpp:156] Memory required for data: 1060605216
I0403 15:46:26.928023   678 layer_factory.hpp:77] Creating layer inception_4c/pool_proj
I0403 15:46:26.928045   678 net.cpp:91] Creating Layer inception_4c/pool_proj
I0403 15:46:26.928062   678 net.cpp:425] inception_4c/pool_proj <- inception_4c/pool
I0403 15:46:26.928081   678 net.cpp:399] inception_4c/pool_proj -> inception_4c/pool_proj
I0403 15:46:26.929322   678 net.cpp:141] Setting up inception_4c/pool_proj
I0403 15:46:26.929354   678 net.cpp:148] Top shape: 24 64 14 14 (301056)
I0403 15:46:26.929383   678 net.cpp:156] Memory required for data: 1061809440
I0403 15:46:26.929404   678 layer_factory.hpp:77] Creating layer inception_4c/relu_pool_proj
I0403 15:46:26.929420   678 net.cpp:91] Creating Layer inception_4c/relu_pool_proj
I0403 15:46:26.929437   678 net.cpp:425] inception_4c/relu_pool_proj <- inception_4c/pool_proj
I0403 15:46:26.929455   678 net.cpp:386] inception_4c/relu_pool_proj -> inception_4c/pool_proj (in-place)
I0403 15:46:26.929638   678 net.cpp:141] Setting up inception_4c/relu_pool_proj
I0403 15:46:26.929663   678 net.cpp:148] Top shape: 24 64 14 14 (301056)
I0403 15:46:26.929679   678 net.cpp:156] Memory required for data: 1063013664
I0403 15:46:26.929694   678 layer_factory.hpp:77] Creating layer inception_4c/output
I0403 15:46:26.929711   678 net.cpp:91] Creating Layer inception_4c/output
I0403 15:46:26.929726   678 net.cpp:425] inception_4c/output <- inception_4c/1x1
I0403 15:46:26.929744   678 net.cpp:425] inception_4c/output <- inception_4c/3x3
I0403 15:46:26.929759   678 net.cpp:425] inception_4c/output <- inception_4c/5x5
I0403 15:46:26.929775   678 net.cpp:425] inception_4c/output <- inception_4c/pool_proj
I0403 15:46:26.929795   678 net.cpp:399] inception_4c/output -> inception_4c/output
I0403 15:46:26.929852   678 net.cpp:141] Setting up inception_4c/output
I0403 15:46:26.929877   678 net.cpp:148] Top shape: 24 512 14 14 (2408448)
I0403 15:46:26.929891   678 net.cpp:156] Memory required for data: 1072647456
I0403 15:46:26.929908   678 layer_factory.hpp:77] Creating layer inception_4c/output_inception_4c/output_0_split
I0403 15:46:26.929927   678 net.cpp:91] Creating Layer inception_4c/output_inception_4c/output_0_split
I0403 15:46:26.929944   678 net.cpp:425] inception_4c/output_inception_4c/output_0_split <- inception_4c/output
I0403 15:46:26.929962   678 net.cpp:399] inception_4c/output_inception_4c/output_0_split -> inception_4c/output_inception_4c/output_0_split_0
I0403 15:46:26.929986   678 net.cpp:399] inception_4c/output_inception_4c/output_0_split -> inception_4c/output_inception_4c/output_0_split_1
I0403 15:46:26.930007   678 net.cpp:399] inception_4c/output_inception_4c/output_0_split -> inception_4c/output_inception_4c/output_0_split_2
I0403 15:46:26.930028   678 net.cpp:399] inception_4c/output_inception_4c/output_0_split -> inception_4c/output_inception_4c/output_0_split_3
I0403 15:46:26.930119   678 net.cpp:141] Setting up inception_4c/output_inception_4c/output_0_split
I0403 15:46:26.930153   678 net.cpp:148] Top shape: 24 512 14 14 (2408448)
I0403 15:46:26.930171   678 net.cpp:148] Top shape: 24 512 14 14 (2408448)
I0403 15:46:26.930186   678 net.cpp:148] Top shape: 24 512 14 14 (2408448)
I0403 15:46:26.930202   678 net.cpp:148] Top shape: 24 512 14 14 (2408448)
I0403 15:46:26.930215   678 net.cpp:156] Memory required for data: 1111182624
I0403 15:46:26.930229   678 layer_factory.hpp:77] Creating layer inception_4d/1x1
I0403 15:46:26.930255   678 net.cpp:91] Creating Layer inception_4d/1x1
I0403 15:46:26.930274   678 net.cpp:425] inception_4d/1x1 <- inception_4c/output_inception_4c/output_0_split_0
I0403 15:46:26.930294   678 net.cpp:399] inception_4d/1x1 -> inception_4d/1x1
I0403 15:46:26.931671   678 net.cpp:141] Setting up inception_4d/1x1
I0403 15:46:26.931699   678 net.cpp:148] Top shape: 24 112 14 14 (526848)
I0403 15:46:26.931715   678 net.cpp:156] Memory required for data: 1113290016
I0403 15:46:26.931733   678 layer_factory.hpp:77] Creating layer inception_4d/relu_1x1
I0403 15:46:26.931756   678 net.cpp:91] Creating Layer inception_4d/relu_1x1
I0403 15:46:26.931772   678 net.cpp:425] inception_4d/relu_1x1 <- inception_4d/1x1
I0403 15:46:26.931790   678 net.cpp:386] inception_4d/relu_1x1 -> inception_4d/1x1 (in-place)
I0403 15:46:26.931994   678 net.cpp:141] Setting up inception_4d/relu_1x1
I0403 15:46:26.932018   678 net.cpp:148] Top shape: 24 112 14 14 (526848)
I0403 15:46:26.932034   678 net.cpp:156] Memory required for data: 1115397408
I0403 15:46:26.932049   678 layer_factory.hpp:77] Creating layer inception_4d/3x3_reduce
I0403 15:46:26.932085   678 net.cpp:91] Creating Layer inception_4d/3x3_reduce
I0403 15:46:26.932102   678 net.cpp:425] inception_4d/3x3_reduce <- inception_4c/output_inception_4c/output_0_split_1
I0403 15:46:26.932122   678 net.cpp:399] inception_4d/3x3_reduce -> inception_4d/3x3_reduce
I0403 15:46:26.933650   678 net.cpp:141] Setting up inception_4d/3x3_reduce
I0403 15:46:26.933691   678 net.cpp:148] Top shape: 24 144 14 14 (677376)
I0403 15:46:26.933706   678 net.cpp:156] Memory required for data: 1118106912
I0403 15:46:26.933724   678 layer_factory.hpp:77] Creating layer inception_4d/relu_3x3_reduce
I0403 15:46:26.933743   678 net.cpp:91] Creating Layer inception_4d/relu_3x3_reduce
I0403 15:46:26.933758   678 net.cpp:425] inception_4d/relu_3x3_reduce <- inception_4d/3x3_reduce
I0403 15:46:26.933789   678 net.cpp:386] inception_4d/relu_3x3_reduce -> inception_4d/3x3_reduce (in-place)
I0403 15:46:26.934074   678 net.cpp:141] Setting up inception_4d/relu_3x3_reduce
I0403 15:46:26.934100   678 net.cpp:148] Top shape: 24 144 14 14 (677376)
I0403 15:46:26.934115   678 net.cpp:156] Memory required for data: 1120816416
I0403 15:46:26.934130   678 layer_factory.hpp:77] Creating layer inception_4d/3x3
I0403 15:46:26.934152   678 net.cpp:91] Creating Layer inception_4d/3x3
I0403 15:46:26.934170   678 net.cpp:425] inception_4d/3x3 <- inception_4d/3x3_reduce
I0403 15:46:26.934190   678 net.cpp:399] inception_4d/3x3 -> inception_4d/3x3
I0403 15:46:26.938518   678 net.cpp:141] Setting up inception_4d/3x3
I0403 15:46:26.938546   678 net.cpp:148] Top shape: 24 288 14 14 (1354752)
I0403 15:46:26.938561   678 net.cpp:156] Memory required for data: 1126235424
I0403 15:46:26.938580   678 layer_factory.hpp:77] Creating layer inception_4d/relu_3x3
I0403 15:46:26.938601   678 net.cpp:91] Creating Layer inception_4d/relu_3x3
I0403 15:46:26.938616   678 net.cpp:425] inception_4d/relu_3x3 <- inception_4d/3x3
I0403 15:46:26.938634   678 net.cpp:386] inception_4d/relu_3x3 -> inception_4d/3x3 (in-place)
I0403 15:46:26.938817   678 net.cpp:141] Setting up inception_4d/relu_3x3
I0403 15:46:26.938844   678 net.cpp:148] Top shape: 24 288 14 14 (1354752)
I0403 15:46:26.938859   678 net.cpp:156] Memory required for data: 1131654432
I0403 15:46:26.938874   678 layer_factory.hpp:77] Creating layer inception_4d/5x5_reduce
I0403 15:46:26.938896   678 net.cpp:91] Creating Layer inception_4d/5x5_reduce
I0403 15:46:26.938913   678 net.cpp:425] inception_4d/5x5_reduce <- inception_4c/output_inception_4c/output_0_split_2
I0403 15:46:26.938933   678 net.cpp:399] inception_4d/5x5_reduce -> inception_4d/5x5_reduce
I0403 15:46:26.940070   678 net.cpp:141] Setting up inception_4d/5x5_reduce
I0403 15:46:26.940098   678 net.cpp:148] Top shape: 24 32 14 14 (150528)
I0403 15:46:26.940114   678 net.cpp:156] Memory required for data: 1132256544
I0403 15:46:26.940131   678 layer_factory.hpp:77] Creating layer inception_4d/relu_5x5_reduce
I0403 15:46:26.940151   678 net.cpp:91] Creating Layer inception_4d/relu_5x5_reduce
I0403 15:46:26.940168   678 net.cpp:425] inception_4d/relu_5x5_reduce <- inception_4d/5x5_reduce
I0403 15:46:26.940186   678 net.cpp:386] inception_4d/relu_5x5_reduce -> inception_4d/5x5_reduce (in-place)
I0403 15:46:26.940377   678 net.cpp:141] Setting up inception_4d/relu_5x5_reduce
I0403 15:46:26.940404   678 net.cpp:148] Top shape: 24 32 14 14 (150528)
I0403 15:46:26.940419   678 net.cpp:156] Memory required for data: 1132858656
I0403 15:46:26.940434   678 layer_factory.hpp:77] Creating layer inception_4d/5x5
I0403 15:46:26.940457   678 net.cpp:91] Creating Layer inception_4d/5x5
I0403 15:46:26.940474   678 net.cpp:425] inception_4d/5x5 <- inception_4d/5x5_reduce
I0403 15:46:26.940492   678 net.cpp:399] inception_4d/5x5 -> inception_4d/5x5
I0403 15:46:26.941921   678 net.cpp:141] Setting up inception_4d/5x5
I0403 15:46:26.941951   678 net.cpp:148] Top shape: 24 64 14 14 (301056)
I0403 15:46:26.941967   678 net.cpp:156] Memory required for data: 1134062880
I0403 15:46:26.941985   678 layer_factory.hpp:77] Creating layer inception_4d/relu_5x5
I0403 15:46:26.942018   678 net.cpp:91] Creating Layer inception_4d/relu_5x5
I0403 15:46:26.942046   678 net.cpp:425] inception_4d/relu_5x5 <- inception_4d/5x5
I0403 15:46:26.942067   678 net.cpp:386] inception_4d/relu_5x5 -> inception_4d/5x5 (in-place)
I0403 15:46:26.942384   678 net.cpp:141] Setting up inception_4d/relu_5x5
I0403 15:46:26.942412   678 net.cpp:148] Top shape: 24 64 14 14 (301056)
I0403 15:46:26.942428   678 net.cpp:156] Memory required for data: 1135267104
I0403 15:46:26.942442   678 layer_factory.hpp:77] Creating layer inception_4d/pool
I0403 15:46:26.942461   678 net.cpp:91] Creating Layer inception_4d/pool
I0403 15:46:26.942476   678 net.cpp:425] inception_4d/pool <- inception_4c/output_inception_4c/output_0_split_3
I0403 15:46:26.942497   678 net.cpp:399] inception_4d/pool -> inception_4d/pool
I0403 15:46:26.942562   678 net.cpp:141] Setting up inception_4d/pool
I0403 15:46:26.942585   678 net.cpp:148] Top shape: 24 512 14 14 (2408448)
I0403 15:46:26.942600   678 net.cpp:156] Memory required for data: 1144900896
I0403 15:46:26.942615   678 layer_factory.hpp:77] Creating layer inception_4d/pool_proj
I0403 15:46:26.942638   678 net.cpp:91] Creating Layer inception_4d/pool_proj
I0403 15:46:26.942656   678 net.cpp:425] inception_4d/pool_proj <- inception_4d/pool
I0403 15:46:26.942677   678 net.cpp:399] inception_4d/pool_proj -> inception_4d/pool_proj
I0403 15:46:26.944428   678 net.cpp:141] Setting up inception_4d/pool_proj
I0403 15:46:26.944471   678 net.cpp:148] Top shape: 24 64 14 14 (301056)
I0403 15:46:26.944488   678 net.cpp:156] Memory required for data: 1146105120
I0403 15:46:26.944506   678 layer_factory.hpp:77] Creating layer inception_4d/relu_pool_proj
I0403 15:46:26.944527   678 net.cpp:91] Creating Layer inception_4d/relu_pool_proj
I0403 15:46:26.944545   678 net.cpp:425] inception_4d/relu_pool_proj <- inception_4d/pool_proj
I0403 15:46:26.944561   678 net.cpp:386] inception_4d/relu_pool_proj -> inception_4d/pool_proj (in-place)
I0403 15:46:26.944761   678 net.cpp:141] Setting up inception_4d/relu_pool_proj
I0403 15:46:26.944788   678 net.cpp:148] Top shape: 24 64 14 14 (301056)
I0403 15:46:26.944804   678 net.cpp:156] Memory required for data: 1147309344
I0403 15:46:26.944819   678 layer_factory.hpp:77] Creating layer inception_4d/output
I0403 15:46:26.944838   678 net.cpp:91] Creating Layer inception_4d/output
I0403 15:46:26.944852   678 net.cpp:425] inception_4d/output <- inception_4d/1x1
I0403 15:46:26.944869   678 net.cpp:425] inception_4d/output <- inception_4d/3x3
I0403 15:46:26.944885   678 net.cpp:425] inception_4d/output <- inception_4d/5x5
I0403 15:46:26.944900   678 net.cpp:425] inception_4d/output <- inception_4d/pool_proj
I0403 15:46:26.944926   678 net.cpp:399] inception_4d/output -> inception_4d/output
I0403 15:46:26.944977   678 net.cpp:141] Setting up inception_4d/output
I0403 15:46:26.944999   678 net.cpp:148] Top shape: 24 528 14 14 (2483712)
I0403 15:46:26.945013   678 net.cpp:156] Memory required for data: 1157244192
I0403 15:46:26.945029   678 layer_factory.hpp:77] Creating layer inception_4d/output_inception_4d/output_0_split
I0403 15:46:26.945049   678 net.cpp:91] Creating Layer inception_4d/output_inception_4d/output_0_split
I0403 15:46:26.945065   678 net.cpp:425] inception_4d/output_inception_4d/output_0_split <- inception_4d/output
I0403 15:46:26.945082   678 net.cpp:399] inception_4d/output_inception_4d/output_0_split -> inception_4d/output_inception_4d/output_0_split_0
I0403 15:46:26.945102   678 net.cpp:399] inception_4d/output_inception_4d/output_0_split -> inception_4d/output_inception_4d/output_0_split_1
I0403 15:46:26.945125   678 net.cpp:399] inception_4d/output_inception_4d/output_0_split -> inception_4d/output_inception_4d/output_0_split_2
I0403 15:46:26.945148   678 net.cpp:399] inception_4d/output_inception_4d/output_0_split -> inception_4d/output_inception_4d/output_0_split_3
I0403 15:46:26.945168   678 net.cpp:399] inception_4d/output_inception_4d/output_0_split -> inception_4d/output_inception_4d/output_0_split_4
I0403 15:46:26.945273   678 net.cpp:141] Setting up inception_4d/output_inception_4d/output_0_split
I0403 15:46:26.945308   678 net.cpp:148] Top shape: 24 528 14 14 (2483712)
I0403 15:46:26.945327   678 net.cpp:148] Top shape: 24 528 14 14 (2483712)
I0403 15:46:26.945343   678 net.cpp:148] Top shape: 24 528 14 14 (2483712)
I0403 15:46:26.945358   678 net.cpp:148] Top shape: 24 528 14 14 (2483712)
I0403 15:46:26.945374   678 net.cpp:148] Top shape: 24 528 14 14 (2483712)
I0403 15:46:26.945390   678 net.cpp:156] Memory required for data: 1206918432
I0403 15:46:26.945405   678 layer_factory.hpp:77] Creating layer loss2/ave_pool
I0403 15:46:26.945425   678 net.cpp:91] Creating Layer loss2/ave_pool
I0403 15:46:26.945441   678 net.cpp:425] loss2/ave_pool <- inception_4d/output_inception_4d/output_0_split_0
I0403 15:46:26.945458   678 net.cpp:399] loss2/ave_pool -> loss2/ave_pool
I0403 15:46:26.945770   678 net.cpp:141] Setting up loss2/ave_pool
I0403 15:46:26.945796   678 net.cpp:148] Top shape: 24 528 4 4 (202752)
I0403 15:46:26.945811   678 net.cpp:156] Memory required for data: 1207729440
I0403 15:46:26.945825   678 layer_factory.hpp:77] Creating layer loss2/conv
I0403 15:46:26.945847   678 net.cpp:91] Creating Layer loss2/conv
I0403 15:46:26.945864   678 net.cpp:425] loss2/conv <- loss2/ave_pool
I0403 15:46:26.945886   678 net.cpp:399] loss2/conv -> loss2/conv
I0403 15:46:26.947846   678 net.cpp:141] Setting up loss2/conv
I0403 15:46:26.947887   678 net.cpp:148] Top shape: 24 128 4 4 (49152)
I0403 15:46:26.947903   678 net.cpp:156] Memory required for data: 1207926048
I0403 15:46:26.947921   678 layer_factory.hpp:77] Creating layer loss2/relu_conv
I0403 15:46:26.947939   678 net.cpp:91] Creating Layer loss2/relu_conv
I0403 15:46:26.947957   678 net.cpp:425] loss2/relu_conv <- loss2/conv
I0403 15:46:26.947975   678 net.cpp:386] loss2/relu_conv -> loss2/conv (in-place)
I0403 15:46:26.948276   678 net.cpp:141] Setting up loss2/relu_conv
I0403 15:46:26.948302   678 net.cpp:148] Top shape: 24 128 4 4 (49152)
I0403 15:46:26.948318   678 net.cpp:156] Memory required for data: 1208122656
I0403 15:46:26.948333   678 layer_factory.hpp:77] Creating layer loss2/fc
I0403 15:46:26.948351   678 net.cpp:91] Creating Layer loss2/fc
I0403 15:46:26.948369   678 net.cpp:425] loss2/fc <- loss2/conv
I0403 15:46:26.948390   678 net.cpp:399] loss2/fc -> loss2/fc
I0403 15:46:26.965975   678 net.cpp:141] Setting up loss2/fc
I0403 15:46:26.966007   678 net.cpp:148] Top shape: 24 1024 (24576)
I0403 15:46:26.966023   678 net.cpp:156] Memory required for data: 1208220960
I0403 15:46:26.966042   678 layer_factory.hpp:77] Creating layer loss2/relu_fc
I0403 15:46:26.966073   678 net.cpp:91] Creating Layer loss2/relu_fc
I0403 15:46:26.966089   678 net.cpp:425] loss2/relu_fc <- loss2/fc
I0403 15:46:26.966107   678 net.cpp:386] loss2/relu_fc -> loss2/fc (in-place)
I0403 15:46:26.966428   678 net.cpp:141] Setting up loss2/relu_fc
I0403 15:46:26.966456   678 net.cpp:148] Top shape: 24 1024 (24576)
I0403 15:46:26.966472   678 net.cpp:156] Memory required for data: 1208319264
I0403 15:46:26.966487   678 layer_factory.hpp:77] Creating layer loss2/drop_fc
I0403 15:46:26.966506   678 net.cpp:91] Creating Layer loss2/drop_fc
I0403 15:46:26.966521   678 net.cpp:425] loss2/drop_fc <- loss2/fc
I0403 15:46:26.966537   678 net.cpp:386] loss2/drop_fc -> loss2/fc (in-place)
I0403 15:46:26.966588   678 net.cpp:141] Setting up loss2/drop_fc
I0403 15:46:26.966610   678 net.cpp:148] Top shape: 24 1024 (24576)
I0403 15:46:26.966625   678 net.cpp:156] Memory required for data: 1208417568
I0403 15:46:26.966640   678 layer_factory.hpp:77] Creating layer loss2/classifier_plantvillage
I0403 15:46:26.966660   678 net.cpp:91] Creating Layer loss2/classifier_plantvillage
I0403 15:46:26.966677   678 net.cpp:425] loss2/classifier_plantvillage <- loss2/fc
I0403 15:46:26.966696   678 net.cpp:399] loss2/classifier_plantvillage -> loss2/classifier_plantvillage
I0403 15:46:26.967088   678 net.cpp:141] Setting up loss2/classifier_plantvillage
I0403 15:46:26.967113   678 net.cpp:148] Top shape: 24 38 (912)
I0403 15:46:26.967126   678 net.cpp:156] Memory required for data: 1208421216
I0403 15:46:26.967160   678 layer_factory.hpp:77] Creating layer loss2/classifier_plantvillage_loss2/classifier_plantvillage_0_split
I0403 15:46:26.967180   678 net.cpp:91] Creating Layer loss2/classifier_plantvillage_loss2/classifier_plantvillage_0_split
I0403 15:46:26.967195   678 net.cpp:425] loss2/classifier_plantvillage_loss2/classifier_plantvillage_0_split <- loss2/classifier_plantvillage
I0403 15:46:26.967214   678 net.cpp:399] loss2/classifier_plantvillage_loss2/classifier_plantvillage_0_split -> loss2/classifier_plantvillage_loss2/classifier_plantvillage_0_split_0
I0403 15:46:26.967236   678 net.cpp:399] loss2/classifier_plantvillage_loss2/classifier_plantvillage_0_split -> loss2/classifier_plantvillage_loss2/classifier_plantvillage_0_split_1
I0403 15:46:26.967286   678 net.cpp:399] loss2/classifier_plantvillage_loss2/classifier_plantvillage_0_split -> loss2/classifier_plantvillage_loss2/classifier_plantvillage_0_split_2
I0403 15:46:26.967371   678 net.cpp:141] Setting up loss2/classifier_plantvillage_loss2/classifier_plantvillage_0_split
I0403 15:46:26.967398   678 net.cpp:148] Top shape: 24 38 (912)
I0403 15:46:26.967416   678 net.cpp:148] Top shape: 24 38 (912)
I0403 15:46:26.967432   678 net.cpp:148] Top shape: 24 38 (912)
I0403 15:46:26.967447   678 net.cpp:156] Memory required for data: 1208432160
I0403 15:46:26.967463   678 layer_factory.hpp:77] Creating layer inception_4e/1x1
I0403 15:46:26.967485   678 net.cpp:91] Creating Layer inception_4e/1x1
I0403 15:46:26.967502   678 net.cpp:425] inception_4e/1x1 <- inception_4d/output_inception_4d/output_0_split_1
I0403 15:46:26.967521   678 net.cpp:399] inception_4e/1x1 -> inception_4e/1x1
I0403 15:46:26.969478   678 net.cpp:141] Setting up inception_4e/1x1
I0403 15:46:26.969509   678 net.cpp:148] Top shape: 24 256 14 14 (1204224)
I0403 15:46:26.969526   678 net.cpp:156] Memory required for data: 1213249056
I0403 15:46:26.969543   678 layer_factory.hpp:77] Creating layer inception_4e/relu_1x1
I0403 15:46:26.969561   678 net.cpp:91] Creating Layer inception_4e/relu_1x1
I0403 15:46:26.969578   678 net.cpp:425] inception_4e/relu_1x1 <- inception_4e/1x1
I0403 15:46:26.969596   678 net.cpp:386] inception_4e/relu_1x1 -> inception_4e/1x1 (in-place)
I0403 15:46:26.969887   678 net.cpp:141] Setting up inception_4e/relu_1x1
I0403 15:46:26.969916   678 net.cpp:148] Top shape: 24 256 14 14 (1204224)
I0403 15:46:26.969933   678 net.cpp:156] Memory required for data: 1218065952
I0403 15:46:26.969949   678 layer_factory.hpp:77] Creating layer inception_4e/3x3_reduce
I0403 15:46:26.969970   678 net.cpp:91] Creating Layer inception_4e/3x3_reduce
I0403 15:46:26.969987   678 net.cpp:425] inception_4e/3x3_reduce <- inception_4d/output_inception_4d/output_0_split_2
I0403 15:46:26.970008   678 net.cpp:399] inception_4e/3x3_reduce -> inception_4e/3x3_reduce
I0403 15:46:26.972105   678 net.cpp:141] Setting up inception_4e/3x3_reduce
I0403 15:46:26.972136   678 net.cpp:148] Top shape: 24 160 14 14 (752640)
I0403 15:46:26.972152   678 net.cpp:156] Memory required for data: 1221076512
I0403 15:46:26.972172   678 layer_factory.hpp:77] Creating layer inception_4e/relu_3x3_reduce
I0403 15:46:26.972189   678 net.cpp:91] Creating Layer inception_4e/relu_3x3_reduce
I0403 15:46:26.972205   678 net.cpp:425] inception_4e/relu_3x3_reduce <- inception_4e/3x3_reduce
I0403 15:46:26.972223   678 net.cpp:386] inception_4e/relu_3x3_reduce -> inception_4e/3x3_reduce (in-place)
I0403 15:46:26.972414   678 net.cpp:141] Setting up inception_4e/relu_3x3_reduce
I0403 15:46:26.972439   678 net.cpp:148] Top shape: 24 160 14 14 (752640)
I0403 15:46:26.972455   678 net.cpp:156] Memory required for data: 1224087072
I0403 15:46:26.972470   678 layer_factory.hpp:77] Creating layer inception_4e/3x3
I0403 15:46:26.972491   678 net.cpp:91] Creating Layer inception_4e/3x3
I0403 15:46:26.972509   678 net.cpp:425] inception_4e/3x3 <- inception_4e/3x3_reduce
I0403 15:46:26.972530   678 net.cpp:399] inception_4e/3x3 -> inception_4e/3x3
I0403 15:46:26.977496   678 net.cpp:141] Setting up inception_4e/3x3
I0403 15:46:26.977536   678 net.cpp:148] Top shape: 24 320 14 14 (1505280)
I0403 15:46:26.977553   678 net.cpp:156] Memory required for data: 1230108192
I0403 15:46:26.977576   678 layer_factory.hpp:77] Creating layer inception_4e/relu_3x3
I0403 15:46:26.977597   678 net.cpp:91] Creating Layer inception_4e/relu_3x3
I0403 15:46:26.977614   678 net.cpp:425] inception_4e/relu_3x3 <- inception_4e/3x3
I0403 15:46:26.977632   678 net.cpp:386] inception_4e/relu_3x3 -> inception_4e/3x3 (in-place)
I0403 15:46:26.977926   678 net.cpp:141] Setting up inception_4e/relu_3x3
I0403 15:46:26.977953   678 net.cpp:148] Top shape: 24 320 14 14 (1505280)
I0403 15:46:26.977968   678 net.cpp:156] Memory required for data: 1236129312
I0403 15:46:26.977983   678 layer_factory.hpp:77] Creating layer inception_4e/5x5_reduce
I0403 15:46:26.978005   678 net.cpp:91] Creating Layer inception_4e/5x5_reduce
I0403 15:46:26.978023   678 net.cpp:425] inception_4e/5x5_reduce <- inception_4d/output_inception_4d/output_0_split_3
I0403 15:46:26.978044   678 net.cpp:399] inception_4e/5x5_reduce -> inception_4e/5x5_reduce
I0403 15:46:26.979171   678 net.cpp:141] Setting up inception_4e/5x5_reduce
I0403 15:46:26.979199   678 net.cpp:148] Top shape: 24 32 14 14 (150528)
I0403 15:46:26.979217   678 net.cpp:156] Memory required for data: 1236731424
I0403 15:46:26.979234   678 layer_factory.hpp:77] Creating layer inception_4e/relu_5x5_reduce
I0403 15:46:26.979255   678 net.cpp:91] Creating Layer inception_4e/relu_5x5_reduce
I0403 15:46:26.979274   678 net.cpp:425] inception_4e/relu_5x5_reduce <- inception_4e/5x5_reduce
I0403 15:46:26.979295   678 net.cpp:386] inception_4e/relu_5x5_reduce -> inception_4e/5x5_reduce (in-place)
I0403 15:46:26.979590   678 net.cpp:141] Setting up inception_4e/relu_5x5_reduce
I0403 15:46:26.979619   678 net.cpp:148] Top shape: 24 32 14 14 (150528)
I0403 15:46:26.979635   678 net.cpp:156] Memory required for data: 1237333536
I0403 15:46:26.979650   678 layer_factory.hpp:77] Creating layer inception_4e/5x5
I0403 15:46:26.979688   678 net.cpp:91] Creating Layer inception_4e/5x5
I0403 15:46:26.979707   678 net.cpp:425] inception_4e/5x5 <- inception_4e/5x5_reduce
I0403 15:46:26.979727   678 net.cpp:399] inception_4e/5x5 -> inception_4e/5x5
I0403 15:46:26.981539   678 net.cpp:141] Setting up inception_4e/5x5
I0403 15:46:26.981567   678 net.cpp:148] Top shape: 24 128 14 14 (602112)
I0403 15:46:26.981582   678 net.cpp:156] Memory required for data: 1239741984
I0403 15:46:26.981601   678 layer_factory.hpp:77] Creating layer inception_4e/relu_5x5
I0403 15:46:26.981623   678 net.cpp:91] Creating Layer inception_4e/relu_5x5
I0403 15:46:26.981640   678 net.cpp:425] inception_4e/relu_5x5 <- inception_4e/5x5
I0403 15:46:26.981658   678 net.cpp:386] inception_4e/relu_5x5 -> inception_4e/5x5 (in-place)
I0403 15:46:26.981854   678 net.cpp:141] Setting up inception_4e/relu_5x5
I0403 15:46:26.981879   678 net.cpp:148] Top shape: 24 128 14 14 (602112)
I0403 15:46:26.981894   678 net.cpp:156] Memory required for data: 1242150432
I0403 15:46:26.981909   678 layer_factory.hpp:77] Creating layer inception_4e/pool
I0403 15:46:26.981927   678 net.cpp:91] Creating Layer inception_4e/pool
I0403 15:46:26.981942   678 net.cpp:425] inception_4e/pool <- inception_4d/output_inception_4d/output_0_split_4
I0403 15:46:26.981963   678 net.cpp:399] inception_4e/pool -> inception_4e/pool
I0403 15:46:26.982031   678 net.cpp:141] Setting up inception_4e/pool
I0403 15:46:26.982055   678 net.cpp:148] Top shape: 24 528 14 14 (2483712)
I0403 15:46:26.982070   678 net.cpp:156] Memory required for data: 1252085280
I0403 15:46:26.982085   678 layer_factory.hpp:77] Creating layer inception_4e/pool_proj
I0403 15:46:26.982108   678 net.cpp:91] Creating Layer inception_4e/pool_proj
I0403 15:46:26.982125   678 net.cpp:425] inception_4e/pool_proj <- inception_4e/pool
I0403 15:46:26.982144   678 net.cpp:399] inception_4e/pool_proj -> inception_4e/pool_proj
I0403 15:46:26.983669   678 net.cpp:141] Setting up inception_4e/pool_proj
I0403 15:46:26.983697   678 net.cpp:148] Top shape: 24 128 14 14 (602112)
I0403 15:46:26.983726   678 net.cpp:156] Memory required for data: 1254493728
I0403 15:46:26.983747   678 layer_factory.hpp:77] Creating layer inception_4e/relu_pool_proj
I0403 15:46:26.983767   678 net.cpp:91] Creating Layer inception_4e/relu_pool_proj
I0403 15:46:26.983784   678 net.cpp:425] inception_4e/relu_pool_proj <- inception_4e/pool_proj
I0403 15:46:26.983803   678 net.cpp:386] inception_4e/relu_pool_proj -> inception_4e/pool_proj (in-place)
I0403 15:46:26.984112   678 net.cpp:141] Setting up inception_4e/relu_pool_proj
I0403 15:46:26.984139   678 net.cpp:148] Top shape: 24 128 14 14 (602112)
I0403 15:46:26.984155   678 net.cpp:156] Memory required for data: 1256902176
I0403 15:46:26.984170   678 layer_factory.hpp:77] Creating layer inception_4e/output
I0403 15:46:26.984191   678 net.cpp:91] Creating Layer inception_4e/output
I0403 15:46:26.984208   678 net.cpp:425] inception_4e/output <- inception_4e/1x1
I0403 15:46:26.984226   678 net.cpp:425] inception_4e/output <- inception_4e/3x3
I0403 15:46:26.984242   678 net.cpp:425] inception_4e/output <- inception_4e/5x5
I0403 15:46:26.984271   678 net.cpp:425] inception_4e/output <- inception_4e/pool_proj
I0403 15:46:26.984302   678 net.cpp:399] inception_4e/output -> inception_4e/output
I0403 15:46:26.984354   678 net.cpp:141] Setting up inception_4e/output
I0403 15:46:26.984377   678 net.cpp:148] Top shape: 24 832 14 14 (3913728)
I0403 15:46:26.984391   678 net.cpp:156] Memory required for data: 1272557088
I0403 15:46:26.984407   678 layer_factory.hpp:77] Creating layer pool4/3x3_s2
I0403 15:46:26.984426   678 net.cpp:91] Creating Layer pool4/3x3_s2
I0403 15:46:26.984441   678 net.cpp:425] pool4/3x3_s2 <- inception_4e/output
I0403 15:46:26.984462   678 net.cpp:399] pool4/3x3_s2 -> pool4/3x3_s2
I0403 15:46:26.984527   678 net.cpp:141] Setting up pool4/3x3_s2
I0403 15:46:26.984550   678 net.cpp:148] Top shape: 24 832 7 7 (978432)
I0403 15:46:26.984565   678 net.cpp:156] Memory required for data: 1276470816
I0403 15:46:26.984580   678 layer_factory.hpp:77] Creating layer pool4/3x3_s2_pool4/3x3_s2_0_split
I0403 15:46:26.984601   678 net.cpp:91] Creating Layer pool4/3x3_s2_pool4/3x3_s2_0_split
I0403 15:46:26.984627   678 net.cpp:425] pool4/3x3_s2_pool4/3x3_s2_0_split <- pool4/3x3_s2
I0403 15:46:26.984648   678 net.cpp:399] pool4/3x3_s2_pool4/3x3_s2_0_split -> pool4/3x3_s2_pool4/3x3_s2_0_split_0
I0403 15:46:26.984669   678 net.cpp:399] pool4/3x3_s2_pool4/3x3_s2_0_split -> pool4/3x3_s2_pool4/3x3_s2_0_split_1
I0403 15:46:26.984689   678 net.cpp:399] pool4/3x3_s2_pool4/3x3_s2_0_split -> pool4/3x3_s2_pool4/3x3_s2_0_split_2
I0403 15:46:26.984709   678 net.cpp:399] pool4/3x3_s2_pool4/3x3_s2_0_split -> pool4/3x3_s2_pool4/3x3_s2_0_split_3
I0403 15:46:26.984797   678 net.cpp:141] Setting up pool4/3x3_s2_pool4/3x3_s2_0_split
I0403 15:46:26.984822   678 net.cpp:148] Top shape: 24 832 7 7 (978432)
I0403 15:46:26.984841   678 net.cpp:148] Top shape: 24 832 7 7 (978432)
I0403 15:46:26.984856   678 net.cpp:148] Top shape: 24 832 7 7 (978432)
I0403 15:46:26.984872   678 net.cpp:148] Top shape: 24 832 7 7 (978432)
I0403 15:46:26.984906   678 net.cpp:156] Memory required for data: 1292125728
I0403 15:46:26.984921   678 layer_factory.hpp:77] Creating layer inception_5a/1x1
I0403 15:46:26.984941   678 net.cpp:91] Creating Layer inception_5a/1x1
I0403 15:46:26.984957   678 net.cpp:425] inception_5a/1x1 <- pool4/3x3_s2_pool4/3x3_s2_0_split_0
I0403 15:46:26.984979   678 net.cpp:399] inception_5a/1x1 -> inception_5a/1x1
I0403 15:46:26.987851   678 net.cpp:141] Setting up inception_5a/1x1
I0403 15:46:26.987882   678 net.cpp:148] Top shape: 24 256 7 7 (301056)
I0403 15:46:26.987898   678 net.cpp:156] Memory required for data: 1293329952
I0403 15:46:26.987917   678 layer_factory.hpp:77] Creating layer inception_5a/relu_1x1
I0403 15:46:26.987936   678 net.cpp:91] Creating Layer inception_5a/relu_1x1
I0403 15:46:26.987951   678 net.cpp:425] inception_5a/relu_1x1 <- inception_5a/1x1
I0403 15:46:26.987968   678 net.cpp:386] inception_5a/relu_1x1 -> inception_5a/1x1 (in-place)
I0403 15:46:26.988286   678 net.cpp:141] Setting up inception_5a/relu_1x1
I0403 15:46:26.988314   678 net.cpp:148] Top shape: 24 256 7 7 (301056)
I0403 15:46:26.988330   678 net.cpp:156] Memory required for data: 1294534176
I0403 15:46:26.988345   678 layer_factory.hpp:77] Creating layer inception_5a/3x3_reduce
I0403 15:46:26.988368   678 net.cpp:91] Creating Layer inception_5a/3x3_reduce
I0403 15:46:26.988384   678 net.cpp:425] inception_5a/3x3_reduce <- pool4/3x3_s2_pool4/3x3_s2_0_split_1
I0403 15:46:26.988402   678 net.cpp:399] inception_5a/3x3_reduce -> inception_5a/3x3_reduce
I0403 15:46:26.990885   678 net.cpp:141] Setting up inception_5a/3x3_reduce
I0403 15:46:26.990913   678 net.cpp:148] Top shape: 24 160 7 7 (188160)
I0403 15:46:26.990929   678 net.cpp:156] Memory required for data: 1295286816
I0403 15:46:26.990948   678 layer_factory.hpp:77] Creating layer inception_5a/relu_3x3_reduce
I0403 15:46:26.990968   678 net.cpp:91] Creating Layer inception_5a/relu_3x3_reduce
I0403 15:46:26.990985   678 net.cpp:425] inception_5a/relu_3x3_reduce <- inception_5a/3x3_reduce
I0403 15:46:26.991003   678 net.cpp:386] inception_5a/relu_3x3_reduce -> inception_5a/3x3_reduce (in-place)
I0403 15:46:26.991189   678 net.cpp:141] Setting up inception_5a/relu_3x3_reduce
I0403 15:46:26.991216   678 net.cpp:148] Top shape: 24 160 7 7 (188160)
I0403 15:46:26.991231   678 net.cpp:156] Memory required for data: 1296039456
I0403 15:46:26.991246   678 layer_factory.hpp:77] Creating layer inception_5a/3x3
I0403 15:46:26.991274   678 net.cpp:91] Creating Layer inception_5a/3x3
I0403 15:46:26.991292   678 net.cpp:425] inception_5a/3x3 <- inception_5a/3x3_reduce
I0403 15:46:26.991312   678 net.cpp:399] inception_5a/3x3 -> inception_5a/3x3
I0403 15:46:26.996469   678 net.cpp:141] Setting up inception_5a/3x3
I0403 15:46:26.996500   678 net.cpp:148] Top shape: 24 320 7 7 (376320)
I0403 15:46:26.996515   678 net.cpp:156] Memory required for data: 1297544736
I0403 15:46:26.996532   678 layer_factory.hpp:77] Creating layer inception_5a/relu_3x3
I0403 15:46:26.996552   678 net.cpp:91] Creating Layer inception_5a/relu_3x3
I0403 15:46:26.996570   678 net.cpp:425] inception_5a/relu_3x3 <- inception_5a/3x3
I0403 15:46:26.996588   678 net.cpp:386] inception_5a/relu_3x3 -> inception_5a/3x3 (in-place)
I0403 15:46:26.996886   678 net.cpp:141] Setting up inception_5a/relu_3x3
I0403 15:46:26.996912   678 net.cpp:148] Top shape: 24 320 7 7 (376320)
I0403 15:46:26.996939   678 net.cpp:156] Memory required for data: 1299050016
I0403 15:46:26.996954   678 layer_factory.hpp:77] Creating layer inception_5a/5x5_reduce
I0403 15:46:26.996979   678 net.cpp:91] Creating Layer inception_5a/5x5_reduce
I0403 15:46:26.996997   678 net.cpp:425] inception_5a/5x5_reduce <- pool4/3x3_s2_pool4/3x3_s2_0_split_2
I0403 15:46:26.997017   678 net.cpp:399] inception_5a/5x5_reduce -> inception_5a/5x5_reduce
I0403 15:46:26.998248   678 net.cpp:141] Setting up inception_5a/5x5_reduce
I0403 15:46:26.998286   678 net.cpp:148] Top shape: 24 32 7 7 (37632)
I0403 15:46:26.998316   678 net.cpp:156] Memory required for data: 1299200544
I0403 15:46:26.998334   678 layer_factory.hpp:77] Creating layer inception_5a/relu_5x5_reduce
I0403 15:46:26.998353   678 net.cpp:91] Creating Layer inception_5a/relu_5x5_reduce
I0403 15:46:26.998368   678 net.cpp:425] inception_5a/relu_5x5_reduce <- inception_5a/5x5_reduce
I0403 15:46:26.998388   678 net.cpp:386] inception_5a/relu_5x5_reduce -> inception_5a/5x5_reduce (in-place)
I0403 15:46:26.998690   678 net.cpp:141] Setting up inception_5a/relu_5x5_reduce
I0403 15:46:26.998716   678 net.cpp:148] Top shape: 24 32 7 7 (37632)
I0403 15:46:26.998731   678 net.cpp:156] Memory required for data: 1299351072
I0403 15:46:26.998746   678 layer_factory.hpp:77] Creating layer inception_5a/5x5
I0403 15:46:26.998769   678 net.cpp:91] Creating Layer inception_5a/5x5
I0403 15:46:26.998785   678 net.cpp:425] inception_5a/5x5 <- inception_5a/5x5_reduce
I0403 15:46:26.998806   678 net.cpp:399] inception_5a/5x5 -> inception_5a/5x5
I0403 15:46:27.000565   678 net.cpp:141] Setting up inception_5a/5x5
I0403 15:46:27.000602   678 net.cpp:148] Top shape: 24 128 7 7 (150528)
I0403 15:46:27.000619   678 net.cpp:156] Memory required for data: 1299953184
I0403 15:46:27.000638   678 layer_factory.hpp:77] Creating layer inception_5a/relu_5x5
I0403 15:46:27.000658   678 net.cpp:91] Creating Layer inception_5a/relu_5x5
I0403 15:46:27.000674   678 net.cpp:425] inception_5a/relu_5x5 <- inception_5a/5x5
I0403 15:46:27.000690   678 net.cpp:386] inception_5a/relu_5x5 -> inception_5a/5x5 (in-place)
I0403 15:46:27.000881   678 net.cpp:141] Setting up inception_5a/relu_5x5
I0403 15:46:27.000906   678 net.cpp:148] Top shape: 24 128 7 7 (150528)
I0403 15:46:27.000921   678 net.cpp:156] Memory required for data: 1300555296
I0403 15:46:27.000936   678 layer_factory.hpp:77] Creating layer inception_5a/pool
I0403 15:46:27.000953   678 net.cpp:91] Creating Layer inception_5a/pool
I0403 15:46:27.000969   678 net.cpp:425] inception_5a/pool <- pool4/3x3_s2_pool4/3x3_s2_0_split_3
I0403 15:46:27.000989   678 net.cpp:399] inception_5a/pool -> inception_5a/pool
I0403 15:46:27.001060   678 net.cpp:141] Setting up inception_5a/pool
I0403 15:46:27.001083   678 net.cpp:148] Top shape: 24 832 7 7 (978432)
I0403 15:46:27.001097   678 net.cpp:156] Memory required for data: 1304469024
I0403 15:46:27.001112   678 layer_factory.hpp:77] Creating layer inception_5a/pool_proj
I0403 15:46:27.001135   678 net.cpp:91] Creating Layer inception_5a/pool_proj
I0403 15:46:27.001153   678 net.cpp:425] inception_5a/pool_proj <- inception_5a/pool
I0403 15:46:27.001173   678 net.cpp:399] inception_5a/pool_proj -> inception_5a/pool_proj
I0403 15:46:27.003409   678 net.cpp:141] Setting up inception_5a/pool_proj
I0403 15:46:27.003438   678 net.cpp:148] Top shape: 24 128 7 7 (150528)
I0403 15:46:27.003454   678 net.cpp:156] Memory required for data: 1305071136
I0403 15:46:27.003473   678 layer_factory.hpp:77] Creating layer inception_5a/relu_pool_proj
I0403 15:46:27.003492   678 net.cpp:91] Creating Layer inception_5a/relu_pool_proj
I0403 15:46:27.003509   678 net.cpp:425] inception_5a/relu_pool_proj <- inception_5a/pool_proj
I0403 15:46:27.003526   678 net.cpp:386] inception_5a/relu_pool_proj -> inception_5a/pool_proj (in-place)
I0403 15:46:27.003851   678 net.cpp:141] Setting up inception_5a/relu_pool_proj
I0403 15:46:27.003880   678 net.cpp:148] Top shape: 24 128 7 7 (150528)
I0403 15:46:27.003895   678 net.cpp:156] Memory required for data: 1305673248
I0403 15:46:27.003911   678 layer_factory.hpp:77] Creating layer inception_5a/output
I0403 15:46:27.003931   678 net.cpp:91] Creating Layer inception_5a/output
I0403 15:46:27.003948   678 net.cpp:425] inception_5a/output <- inception_5a/1x1
I0403 15:46:27.003978   678 net.cpp:425] inception_5a/output <- inception_5a/3x3
I0403 15:46:27.003994   678 net.cpp:425] inception_5a/output <- inception_5a/5x5
I0403 15:46:27.004011   678 net.cpp:425] inception_5a/output <- inception_5a/pool_proj
I0403 15:46:27.004040   678 net.cpp:399] inception_5a/output -> inception_5a/output
I0403 15:46:27.004091   678 net.cpp:141] Setting up inception_5a/output
I0403 15:46:27.004114   678 net.cpp:148] Top shape: 24 832 7 7 (978432)
I0403 15:46:27.004128   678 net.cpp:156] Memory required for data: 1309586976
I0403 15:46:27.004143   678 layer_factory.hpp:77] Creating layer inception_5a/output_inception_5a/output_0_split
I0403 15:46:27.004160   678 net.cpp:91] Creating Layer inception_5a/output_inception_5a/output_0_split
I0403 15:46:27.004175   678 net.cpp:425] inception_5a/output_inception_5a/output_0_split <- inception_5a/output
I0403 15:46:27.004195   678 net.cpp:399] inception_5a/output_inception_5a/output_0_split -> inception_5a/output_inception_5a/output_0_split_0
I0403 15:46:27.004215   678 net.cpp:399] inception_5a/output_inception_5a/output_0_split -> inception_5a/output_inception_5a/output_0_split_1
I0403 15:46:27.004236   678 net.cpp:399] inception_5a/output_inception_5a/output_0_split -> inception_5a/output_inception_5a/output_0_split_2
I0403 15:46:27.004266   678 net.cpp:399] inception_5a/output_inception_5a/output_0_split -> inception_5a/output_inception_5a/output_0_split_3
I0403 15:46:27.004377   678 net.cpp:141] Setting up inception_5a/output_inception_5a/output_0_split
I0403 15:46:27.004402   678 net.cpp:148] Top shape: 24 832 7 7 (978432)
I0403 15:46:27.004431   678 net.cpp:148] Top shape: 24 832 7 7 (978432)
I0403 15:46:27.004447   678 net.cpp:148] Top shape: 24 832 7 7 (978432)
I0403 15:46:27.004463   678 net.cpp:148] Top shape: 24 832 7 7 (978432)
I0403 15:46:27.004478   678 net.cpp:156] Memory required for data: 1325241888
I0403 15:46:27.004493   678 layer_factory.hpp:77] Creating layer inception_5b/1x1
I0403 15:46:27.004515   678 net.cpp:91] Creating Layer inception_5b/1x1
I0403 15:46:27.004534   678 net.cpp:425] inception_5b/1x1 <- inception_5a/output_inception_5a/output_0_split_0
I0403 15:46:27.004555   678 net.cpp:399] inception_5b/1x1 -> inception_5b/1x1
I0403 15:46:27.008442   678 net.cpp:141] Setting up inception_5b/1x1
I0403 15:46:27.008472   678 net.cpp:148] Top shape: 24 384 7 7 (451584)
I0403 15:46:27.008488   678 net.cpp:156] Memory required for data: 1327048224
I0403 15:46:27.008507   678 layer_factory.hpp:77] Creating layer inception_5b/relu_1x1
I0403 15:46:27.008528   678 net.cpp:91] Creating Layer inception_5b/relu_1x1
I0403 15:46:27.008546   678 net.cpp:425] inception_5b/relu_1x1 <- inception_5b/1x1
I0403 15:46:27.008563   678 net.cpp:386] inception_5b/relu_1x1 -> inception_5b/1x1 (in-place)
I0403 15:46:27.008909   678 net.cpp:141] Setting up inception_5b/relu_1x1
I0403 15:46:27.008936   678 net.cpp:148] Top shape: 24 384 7 7 (451584)
I0403 15:46:27.008951   678 net.cpp:156] Memory required for data: 1328854560
I0403 15:46:27.008966   678 layer_factory.hpp:77] Creating layer inception_5b/3x3_reduce
I0403 15:46:27.008990   678 net.cpp:91] Creating Layer inception_5b/3x3_reduce
I0403 15:46:27.009007   678 net.cpp:425] inception_5b/3x3_reduce <- inception_5a/output_inception_5a/output_0_split_1
I0403 15:46:27.009030   678 net.cpp:399] inception_5b/3x3_reduce -> inception_5b/3x3_reduce
I0403 15:46:27.011670   678 net.cpp:141] Setting up inception_5b/3x3_reduce
I0403 15:46:27.011700   678 net.cpp:148] Top shape: 24 192 7 7 (225792)
I0403 15:46:27.011715   678 net.cpp:156] Memory required for data: 1329757728
I0403 15:46:27.011734   678 layer_factory.hpp:77] Creating layer inception_5b/relu_3x3_reduce
I0403 15:46:27.011754   678 net.cpp:91] Creating Layer inception_5b/relu_3x3_reduce
I0403 15:46:27.011770   678 net.cpp:425] inception_5b/relu_3x3_reduce <- inception_5b/3x3_reduce
I0403 15:46:27.011788   678 net.cpp:386] inception_5b/relu_3x3_reduce -> inception_5b/3x3_reduce (in-place)
I0403 15:46:27.011993   678 net.cpp:141] Setting up inception_5b/relu_3x3_reduce
I0403 15:46:27.012022   678 net.cpp:148] Top shape: 24 192 7 7 (225792)
I0403 15:46:27.012037   678 net.cpp:156] Memory required for data: 1330660896
I0403 15:46:27.012053   678 layer_factory.hpp:77] Creating layer inception_5b/3x3
I0403 15:46:27.012076   678 net.cpp:91] Creating Layer inception_5b/3x3
I0403 15:46:27.012094   678 net.cpp:425] inception_5b/3x3 <- inception_5b/3x3_reduce
I0403 15:46:27.012115   678 net.cpp:399] inception_5b/3x3 -> inception_5b/3x3
I0403 15:46:27.018964   678 net.cpp:141] Setting up inception_5b/3x3
I0403 15:46:27.018992   678 net.cpp:148] Top shape: 24 384 7 7 (451584)
I0403 15:46:27.019008   678 net.cpp:156] Memory required for data: 1332467232
I0403 15:46:27.019039   678 layer_factory.hpp:77] Creating layer inception_5b/relu_3x3
I0403 15:46:27.019062   678 net.cpp:91] Creating Layer inception_5b/relu_3x3
I0403 15:46:27.019079   678 net.cpp:425] inception_5b/relu_3x3 <- inception_5b/3x3
I0403 15:46:27.019098   678 net.cpp:386] inception_5b/relu_3x3 -> inception_5b/3x3 (in-place)
I0403 15:46:27.019418   678 net.cpp:141] Setting up inception_5b/relu_3x3
I0403 15:46:27.019443   678 net.cpp:148] Top shape: 24 384 7 7 (451584)
I0403 15:46:27.019459   678 net.cpp:156] Memory required for data: 1334273568
I0403 15:46:27.019474   678 layer_factory.hpp:77] Creating layer inception_5b/5x5_reduce
I0403 15:46:27.019510   678 net.cpp:91] Creating Layer inception_5b/5x5_reduce
I0403 15:46:27.019529   678 net.cpp:425] inception_5b/5x5_reduce <- inception_5a/output_inception_5a/output_0_split_2
I0403 15:46:27.019553   678 net.cpp:399] inception_5b/5x5_reduce -> inception_5b/5x5_reduce
I0403 15:46:27.020866   678 net.cpp:141] Setting up inception_5b/5x5_reduce
I0403 15:46:27.020895   678 net.cpp:148] Top shape: 24 48 7 7 (56448)
I0403 15:46:27.020910   678 net.cpp:156] Memory required for data: 1334499360
I0403 15:46:27.020928   678 layer_factory.hpp:77] Creating layer inception_5b/relu_5x5_reduce
I0403 15:46:27.020948   678 net.cpp:91] Creating Layer inception_5b/relu_5x5_reduce
I0403 15:46:27.020966   678 net.cpp:425] inception_5b/relu_5x5_reduce <- inception_5b/5x5_reduce
I0403 15:46:27.020982   678 net.cpp:386] inception_5b/relu_5x5_reduce -> inception_5b/5x5_reduce (in-place)
I0403 15:46:27.021358   678 net.cpp:141] Setting up inception_5b/relu_5x5_reduce
I0403 15:46:27.021384   678 net.cpp:148] Top shape: 24 48 7 7 (56448)
I0403 15:46:27.021399   678 net.cpp:156] Memory required for data: 1334725152
I0403 15:46:27.021414   678 layer_factory.hpp:77] Creating layer inception_5b/5x5
I0403 15:46:27.021433   678 net.cpp:91] Creating Layer inception_5b/5x5
I0403 15:46:27.021450   678 net.cpp:425] inception_5b/5x5 <- inception_5b/5x5_reduce
I0403 15:46:27.021468   678 net.cpp:399] inception_5b/5x5 -> inception_5b/5x5
I0403 15:46:27.023566   678 net.cpp:141] Setting up inception_5b/5x5
I0403 15:46:27.023597   678 net.cpp:148] Top shape: 24 128 7 7 (150528)
I0403 15:46:27.023613   678 net.cpp:156] Memory required for data: 1335327264
I0403 15:46:27.023633   678 layer_factory.hpp:77] Creating layer inception_5b/relu_5x5
I0403 15:46:27.023653   678 net.cpp:91] Creating Layer inception_5b/relu_5x5
I0403 15:46:27.023669   678 net.cpp:425] inception_5b/relu_5x5 <- inception_5b/5x5
I0403 15:46:27.023686   678 net.cpp:386] inception_5b/relu_5x5 -> inception_5b/5x5 (in-place)
I0403 15:46:27.023886   678 net.cpp:141] Setting up inception_5b/relu_5x5
I0403 15:46:27.023912   678 net.cpp:148] Top shape: 24 128 7 7 (150528)
I0403 15:46:27.023927   678 net.cpp:156] Memory required for data: 1335929376
I0403 15:46:27.023942   678 layer_factory.hpp:77] Creating layer inception_5b/pool
I0403 15:46:27.023960   678 net.cpp:91] Creating Layer inception_5b/pool
I0403 15:46:27.023975   678 net.cpp:425] inception_5b/pool <- inception_5a/output_inception_5a/output_0_split_3
I0403 15:46:27.023996   678 net.cpp:399] inception_5b/pool -> inception_5b/pool
I0403 15:46:27.024067   678 net.cpp:141] Setting up inception_5b/pool
I0403 15:46:27.024093   678 net.cpp:148] Top shape: 24 832 7 7 (978432)
I0403 15:46:27.024108   678 net.cpp:156] Memory required for data: 1339843104
I0403 15:46:27.024123   678 layer_factory.hpp:77] Creating layer inception_5b/pool_proj
I0403 15:46:27.024147   678 net.cpp:91] Creating Layer inception_5b/pool_proj
I0403 15:46:27.024163   678 net.cpp:425] inception_5b/pool_proj <- inception_5b/pool
I0403 15:46:27.024181   678 net.cpp:399] inception_5b/pool_proj -> inception_5b/pool_proj
I0403 15:46:27.026569   678 net.cpp:141] Setting up inception_5b/pool_proj
I0403 15:46:27.026599   678 net.cpp:148] Top shape: 24 128 7 7 (150528)
I0403 15:46:27.026615   678 net.cpp:156] Memory required for data: 1340445216
I0403 15:46:27.026633   678 layer_factory.hpp:77] Creating layer inception_5b/relu_pool_proj
I0403 15:46:27.026654   678 net.cpp:91] Creating Layer inception_5b/relu_pool_proj
I0403 15:46:27.026670   678 net.cpp:425] inception_5b/relu_pool_proj <- inception_5b/pool_proj
I0403 15:46:27.026689   678 net.cpp:386] inception_5b/relu_pool_proj -> inception_5b/pool_proj (in-place)
I0403 15:46:27.026991   678 net.cpp:141] Setting up inception_5b/relu_pool_proj
I0403 15:46:27.027017   678 net.cpp:148] Top shape: 24 128 7 7 (150528)
I0403 15:46:27.027032   678 net.cpp:156] Memory required for data: 1341047328
I0403 15:46:27.027047   678 layer_factory.hpp:77] Creating layer inception_5b/output
I0403 15:46:27.027068   678 net.cpp:91] Creating Layer inception_5b/output
I0403 15:46:27.027098   678 net.cpp:425] inception_5b/output <- inception_5b/1x1
I0403 15:46:27.027117   678 net.cpp:425] inception_5b/output <- inception_5b/3x3
I0403 15:46:27.027132   678 net.cpp:425] inception_5b/output <- inception_5b/5x5
I0403 15:46:27.027148   678 net.cpp:425] inception_5b/output <- inception_5b/pool_proj
I0403 15:46:27.027165   678 net.cpp:399] inception_5b/output -> inception_5b/output
I0403 15:46:27.027218   678 net.cpp:141] Setting up inception_5b/output
I0403 15:46:27.027242   678 net.cpp:148] Top shape: 24 1024 7 7 (1204224)
I0403 15:46:27.027262   678 net.cpp:156] Memory required for data: 1345864224
I0403 15:46:27.027277   678 layer_factory.hpp:77] Creating layer pool5/7x7_s1
I0403 15:46:27.027294   678 net.cpp:91] Creating Layer pool5/7x7_s1
I0403 15:46:27.027310   678 net.cpp:425] pool5/7x7_s1 <- inception_5b/output
I0403 15:46:27.027330   678 net.cpp:399] pool5/7x7_s1 -> pool5/7x7_s1
I0403 15:46:27.027557   678 net.cpp:141] Setting up pool5/7x7_s1
I0403 15:46:27.027597   678 net.cpp:148] Top shape: 24 1024 1 1 (24576)
I0403 15:46:27.027614   678 net.cpp:156] Memory required for data: 1345962528
I0403 15:46:27.027629   678 layer_factory.hpp:77] Creating layer pool5/drop_7x7_s1
I0403 15:46:27.027647   678 net.cpp:91] Creating Layer pool5/drop_7x7_s1
I0403 15:46:27.027664   678 net.cpp:425] pool5/drop_7x7_s1 <- pool5/7x7_s1
I0403 15:46:27.027681   678 net.cpp:386] pool5/drop_7x7_s1 -> pool5/7x7_s1 (in-place)
I0403 15:46:27.027735   678 net.cpp:141] Setting up pool5/drop_7x7_s1
I0403 15:46:27.027758   678 net.cpp:148] Top shape: 24 1024 1 1 (24576)
I0403 15:46:27.027775   678 net.cpp:156] Memory required for data: 1346060832
I0403 15:46:27.027788   678 layer_factory.hpp:77] Creating layer loss3/classifier_plantvillage
I0403 15:46:27.027811   678 net.cpp:91] Creating Layer loss3/classifier_plantvillage
I0403 15:46:27.027827   678 net.cpp:425] loss3/classifier_plantvillage <- pool5/7x7_s1
I0403 15:46:27.027858   678 net.cpp:399] loss3/classifier_plantvillage -> loss3/classifier_plantvillage
I0403 15:46:27.028297   678 net.cpp:141] Setting up loss3/classifier_plantvillage
I0403 15:46:27.028322   678 net.cpp:148] Top shape: 24 38 (912)
I0403 15:46:27.028337   678 net.cpp:156] Memory required for data: 1346064480
I0403 15:46:27.028355   678 layer_factory.hpp:77] Creating layer loss3/classifier_plantvillage_loss3/classifier_plantvillage_0_split
I0403 15:46:27.028373   678 net.cpp:91] Creating Layer loss3/classifier_plantvillage_loss3/classifier_plantvillage_0_split
I0403 15:46:27.028388   678 net.cpp:425] loss3/classifier_plantvillage_loss3/classifier_plantvillage_0_split <- loss3/classifier_plantvillage
I0403 15:46:27.028409   678 net.cpp:399] loss3/classifier_plantvillage_loss3/classifier_plantvillage_0_split -> loss3/classifier_plantvillage_loss3/classifier_plantvillage_0_split_0
I0403 15:46:27.028430   678 net.cpp:399] loss3/classifier_plantvillage_loss3/classifier_plantvillage_0_split -> loss3/classifier_plantvillage_loss3/classifier_plantvillage_0_split_1
I0403 15:46:27.028463   678 net.cpp:399] loss3/classifier_plantvillage_loss3/classifier_plantvillage_0_split -> loss3/classifier_plantvillage_loss3/classifier_plantvillage_0_split_2
I0403 15:46:27.028483   678 net.cpp:399] loss3/classifier_plantvillage_loss3/classifier_plantvillage_0_split -> loss3/classifier_plantvillage_loss3/classifier_plantvillage_0_split_3
I0403 15:46:27.028590   678 net.cpp:141] Setting up loss3/classifier_plantvillage_loss3/classifier_plantvillage_0_split
I0403 15:46:27.028614   678 net.cpp:148] Top shape: 24 38 (912)
I0403 15:46:27.028631   678 net.cpp:148] Top shape: 24 38 (912)
I0403 15:46:27.028648   678 net.cpp:148] Top shape: 24 38 (912)
I0403 15:46:27.028663   678 net.cpp:148] Top shape: 24 38 (912)
I0403 15:46:27.028678   678 net.cpp:156] Memory required for data: 1346079072
I0403 15:46:27.028692   678 layer_factory.hpp:77] Creating layer loss1/loss
I0403 15:46:27.028714   678 net.cpp:91] Creating Layer loss1/loss
I0403 15:46:27.028744   678 net.cpp:425] loss1/loss <- loss1/classifier_plantvillage_loss1/classifier_plantvillage_0_split_0
I0403 15:46:27.028776   678 net.cpp:425] loss1/loss <- label_data_1_split_0
…
