…
I0403 15:20:42.292927 31502 net.cpp:313] The NetState phase (1) differed from the phase (0) specified by a rule in layer data
I0403 15:20:42.294095 31502 net.cpp:49] Initializing net from parameters: 
state {
  phase: TEST
}
layer {
  name: "data"
  type: "Data"
  top: "data"
  top: "label"
  include {
    phase: TEST
  }
  transform_param {
    mirror: false
    crop_size: 224
    mean_file: "/home/mohanty/data/final_dataset/lmdb/color-60-40/mean.binaryproto"
  }
  data_param {
    source: "/home/mohanty/data/final_dataset/lmdb/color-60-40/test_db"
    batch_size: 24
    backend: LMDB
  }
}
layer {
  name: "conv1/7x7_s2"
  type: "Convolution"
  bottom: "data"
  top: "conv1/7x7_s2"
  param {
    lr_mult: 1
    decay_mult: 1
  }
  param {
    lr_mult: 2
    decay_mult: 0
  }
  convolution_param {
    num_output: 64
    pad: 3
    kernel_size: 7
    stride: 2
    weight_filler {
      type: "xavier"
      std: 0.1
    }
    bias_filler {
      type: "constant"
      value: 0.2
    }
  }
}
layer {
  name: "conv1/relu_7x7"
  type: "ReLU"
  bottom: "conv1/7x7_s2"
  top: "conv1/7x7_s2"
}
layer {
  name: "pool1/3x3_s2"
  type: "Pooling"
  bottom: "conv1/7x7_s2"
  top: "pool1/3x3_s2"
  pooling_param {
    pool: MAX
    kernel_size: 3
    stride: 2
  }
}
layer {
  name: "pool1/norm1"
  type: "LRN"
  bottom: "pool1/3x3_s2"
  top: "pool1/norm1"
  lrn_param {
    local_size: 5
    alpha: 0.0001
    beta: 0.75
  }
}
layer {
  name: "conv2/3x3_reduce"
  type: "Convolution"
  bottom: "pool1/norm1"
  top: "conv2/3x3_reduce"
  param {
    lr_mult: 1
    decay_mult: 1
  }
  param {
    lr_mult: 2
    decay_mult: 0
  }
  convolution_param {
    num_output: 64
    kernel_size: 1
    weight_filler {
      type: "xavier"
      std: 0.1
    }
    bias_filler {
      type: "constant"
      value: 0.2
    }
  }
}
layer {
  name: "conv2/relu_3x3_reduce"
  type: "ReLU"
  bottom: "conv2/3x3_reduce"
  top: "conv2/3x3_reduce"
}
layer {
  name: "conv2/3x3"
  type: "Convolution"
  bottom: "conv2/3x3_reduce"
  top: "conv2/3x3"
  param {
    lr_mult: 1
    decay_mult: 1
  }
  param {
    lr_mult: 2
    decay_mult: 0
  }
  convolution_param {
    num_output: 192
    pad: 1
    kernel_size: 3
    weight_filler {
      type: "xavier"
      std: 0.03
    }
    bias_filler {
      type: "constant"
      value: 0.2
    }
  }
}
layer {
  name: "conv2/relu_3x3"
  type: "ReLU"
  bottom: "conv2/3x3"
  top: "conv2/3x3"
}
layer {
  name: "conv2/norm2"
  type: "LRN"
  bottom: "conv2/3x3"
  top: "conv2/norm2"
  lrn_param {
    local_size: 5
    alpha: 0.0001
    beta: 0.75
  }
}
layer {
  name: "pool2/3x3_s2"
  type: "Pooling"
  bottom: "conv2/norm2"
  top: "pool2/3x3_s2"
  pooling_param {
    pool: MAX
    kernel_size: 3
    stride: 2
  }
}
layer {
  name: "inception_3a/1x1"
  type: "Convolution"
  bottom: "pool2/3x3_s2"
  top: "inception_3a/1x1"
  param {
    lr_mult: 1
    decay_mult: 1
  }
  param {
    lr_mult: 2
    decay_mult: 0
  }
  convolution_param {
    num_output: 64
    kernel_size: 1
    weight_filler {
      type: "xavier"
      std: 0.03
    }
    bias_filler {
      type: "constant"
      value: 0.2
    }
  }
}
layer {
  name: "inception_3a/relu_1x1"
  type: "ReLU"
  bottom: "inception_3a/1x1"
  top: "inception_3a/1x1"
}
layer {
  name: "inception_3a/3x3_reduce"
  type: "Convolution"
  bottom: "pool2/3x3_s2"
  top: "inception_3a/3x3_reduce"
  param {
    lr_mult: 1
    decay_mult: 1
  }
  param {
    lr_mult: 2
    decay_mult: 0
  }
  convolution_param {
    num_output: 96
    kernel_size: 1
    weight_filler {
      type: "xavier"
      std: 0.09
    }
    bias_filler {
      type: "constant"
      value: 0.2
    }
  }
}
layer {
  name: "inception_3a/relu_3x3_reduce"
  type: "ReLU"
  bottom: "inception_3a/3x3_reduce"
  top: "inception_3a/3x3_reduce"
}
layer {
  name: "inception_3a/3x3"
  type: "Convolution"
  bottom: "inception_3a/3x3_reduce"
  top: "inception_3a/3x3"
  param {
    lr_mult: 1
    decay_mult: 1
  }
  param {
    lr_mult: 2
    decay_mult: 0
  }
  convolution_param {
    num_output: 128
    pad: 1
    kernel_size: 3
    weight_filler {
      type: "xavier"
      std: 0.03
    }
    bias_filler {
      type: "constant"
      value: 0.2
    }
  }
}
layer {
  name: "inception_3a/relu_3x3"
  type: "ReLU"
  bottom: "inception_3a/3x3"
  top: "inception_3a/3x3"
}
layer {
  name: "inception_3a/5x5_reduce"
  type: "Convolution"
  bottom: "pool2/3x3_s2"
  top: "inception_3a/5x5_reduce"
  param {
    lr_mult: 1
    decay_mult: 1
  }
  param {
    lr_mult: 2
    decay_mult: 0
  }
  convolution_param {
    num_output: 16
    kernel_size: 1
    weight_filler {
      type: "xavier"
      std: 0.2
    }
    bias_filler {
      type: "constant"
      value: 0.2
    }
  }
}
layer {
  name: "inception_3a/relu_5x5_reduce"
  type: "ReLU"
  bottom: "inception_3a/5x5_reduce"
  top: "inception_3a/5x5_reduce"
}
layer {
  name: "inception_3a/5x5"
  type: "Convolution"
  bottom: "inception_3a/5x5_reduce"
  top: "inception_3a/5x5"
  param {
    lr_mult: 1
    decay_mult: 1
  }
  param {
    lr_mult: 2
    decay_mult: 0
  }
  convolution_param {
    num_output: 32
    pad: 2
    kernel_size: 5
    weight_filler {
      type: "xavier"
      std: 0.03
    }
    bias_filler {
      type: "constant"
      value: 0.2
    }
  }
}
layer {
  name: "inception_3a/relu_5x5"
  type: "ReLU"
  bottom: "inception_3a/5x5"
  top: "inception_3a/5x5"
}
layer {
  name: "inception_3a/pool"
  type: "Pooling"
  bottom: "pool2/3x3_s2"
  top: "inception_3a/pool"
  pooling_param {
    pool: MAX
    kernel_size: 3
    stride: 1
    pad: 1
  }
}
layer {
  name: "inception_3a/pool_proj"
  type: "Convolution"
  bottom: "inception_3a/pool"
  top: "inception_3a/pool_proj"
  param {
    lr_mult: 1
    decay_mult: 1
  }
  param {
    lr_mult: 2
    decay_mult: 0
  }
  convolution_param {
    num_output: 32
    kernel_size: 1
    weight_filler {
      type: "xavier"
      std: 0.1
    }
    bias_filler {
      type: "constant"
      value: 0.2
    }
  }
}
layer {
  name: "inception_3a/relu_pool_proj"
  type: "ReLU"
  bottom: "inception_3a/pool_proj"
  top: "inception_3a/pool_proj"
}
layer {
  name: "inception_3a/output"
  type: "Concat"
  bottom: "inception_3a/1x1"
  bottom: "inception_3a/3x3"
  bottom: "inception_3a/5x5"
  bottom: "inception_3a/pool_proj"
  top: "inception_3a/output"
}
layer {
  name: "inception_3b/1x1"
  type: "Convolution"
  bottom: "inception_3a/output"
  top: "inception_3b/1x1"
  param {
    lr_mult: 1
    decay_mult: 1
  }
  param {
    lr_mult: 2
    decay_mult: 0
  }
  convolution_param {
    num_output: 128
    kernel_size: 1
    weight_filler {
      type: "xavier"
      std: 0.03
    }
    bias_filler {
      type: "constant"
      value: 0.2
    }
  }
}
layer {
  name: "inception_3b/relu_1x1"
  type: "ReLU"
  bottom: "inception_3b/1x1"
  top: "inception_3b/1x1"
}
layer {
  name: "inception_3b/3x3_reduce"
  type: "Convolution"
  bottom: "inception_3a/output"
  top: "inception_3b/3x3_reduce"
  param {
    lr_mult: 1
    decay_mult: 1
  }
  param {
    lr_mult: 2
    decay_mult: 0
  }
  convolution_param {
    num_output: 128
    kernel_size: 1
    weight_filler {
      type: "xavier"
      std: 0.09
    }
    bias_filler {
      type: "constant"
      value: 0.2
    }
  }
}
layer {
  name: "inception_3b/relu_3x3_reduce"
  type: "ReLU"
  bottom: "inception_3b/3x3_reduce"
  top: "inception_3b/3x3_reduce"
}
layer {
  name: "inception_3b/3x3"
  type: "Convolution"
  bottom: "inception_3b/3x3_reduce"
  top: "inception_3b/3x3"
  param {
    lr_mult: 1
    decay_mult: 1
  }
  param {
    lr_mult: 2
    decay_mult: 0
  }
  convolution_param {
    num_output: 192
    pad: 1
    kernel_size: 3
    weight_filler {
      type: "xavier"
      std: 0.03
    }
    bias_filler {
      type: "constant"
      value: 0.2
    }
  }
}
layer {
  name: "inception_3b/relu_3x3"
  type: "ReLU"
  bottom: "inception_3b/3x3"
  top: "inception_3b/3x3"
}
layer {
  name: "inception_3b/5x5_reduce"
  type: "Convolution"
  bottom: "inception_3a/output"
  top: "inception_3b/5x5_reduce"
  param {
    lr_mult: 1
    decay_mult: 1
  }
  param {
    lr_mult: 2
    decay_mult: 0
  }
  convolution_param {
    num_output: 32
    kernel_size: 1
    weight_filler {
      type: "xavier"
      std: 0.2
    }
    bias_filler {
      type: "constant"
      value: 0.2
    }
  }
}
layer {
  name: "inception_3b/relu_5x5_reduce"
  type: "ReLU"
  bottom: "inception_3b/5x5_reduce"
  top: "inception_3b/5x5_reduce"
}
layer {
  name: "inception_3b/5x5"
  type: "Convolution"
  bottom: "inception_3b/5x5_reduce"
  top: "inception_3b/5x5"
  param {
    lr_mult: 1
    decay_mult: 1
  }
  param {
    lr_mult: 2
    decay_mult: 0
  }
  convolution_param {
    num_output: 96
    pad: 2
    kernel_size: 5
    weight_filler {
      type: "xavier"
      std: 0.03
    }
    bias_filler {
      type: "constant"
      value: 0.2
    }
  }
}
layer {
  name: "inception_3b/relu_5x5"
  type: "ReLU"
  bottom: "inception_3b/5x5"
  top: "inception_3b/5x5"
}
layer {
  name: "inception_3b/pool"
  type: "Pooling"
  bottom: "inception_3a/output"
  top: "inception_3b/pool"
  pooling_param {
    pool: MAX
    kernel_size: 3
    stride: 1
    pad: 1
  }
}
layer {
  name: "inception_3b/pool_proj"
  type: "Convolution"
  bottom: "inception_3b/pool"
  top: "inception_3b/pool_proj"
  param {
    lr_mult: 1
    decay_mult: 1
  }
  param {
    lr_mult: 2
    decay_mult: 0
  }
  convolution_param {
    num_output: 64
    kernel_size: 1
    weight_filler {
      type: "xavier"
      std: 0.1
    }
    bias_filler {
      type: "constant"
      value: 0.2
    }
  }
}
layer {
  name: "inception_3b/relu_pool_proj"
  type: "ReLU"
  bottom: "inception_3b/pool_proj"
  top: "inception_3b/pool_proj"
}
layer {
  name: "inception_3b/output"
  type: "Concat"
  bottom: "inception_3b/1x1"
  bottom: "inception_3b/3x3"
  bottom: "inception_3b/5x5"
  bottom: "inception_3b/pool_proj"
  top: "inception_3b/output"
}
layer {
  name: "pool3/3x3_s2"
  type: "Pooling"
  bottom: "inception_3b/output"
  top: "pool3/3x3_s2"
  pooling_param {
    pool: MAX
    kernel_size: 3
    stride: 2
  }
}
layer {
  name: "inception_4a/1x1"
  type: "Convolution"
  bottom: "pool3/3x3_s2"
  top: "inception_4a/1x1"
  param {
    lr_mult: 1
    decay_mult: 1
  }
  param {
    lr_mult: 2
    decay_mult: 0
  }
  convolution_param {
    num_output: 192
    kernel_size: 1
    weight_filler {
      type: "xavier"
      std: 0.03
    }
    bias_filler {
      type: "constant"
      value: 0.2
    }
  }
}
layer {
  name: "inception_4a/relu_1x1"
  type: "ReLU"
  bottom: "inception_4a/1x1"
  top: "inception_4a/1x1"
}
layer {
  name: "inception_4a/3x3_reduce"
  type: "Convolution"
  bottom: "pool3/3x3_s2"
  top: "inception_4a/3x3_reduce"
  param {
    lr_mult: 1
    decay_mult: 1
  }
  param {
    lr_mult: 2
    decay_mult: 0
  }
  convolution_param {
    num_output: 96
    kernel_size: 1
    weight_filler {
      type: "xavier"
      std: 0.09
    }
    bias_filler {
      type: "constant"
      value: 0.2
    }
  }
}
layer {
  name: "inception_4a/relu_3x3_reduce"
  type: "ReLU"
  bottom: "inception_4a/3x3_reduce"
  top: "inception_4a/3x3_reduce"
}
layer {
  name: "inception_4a/3x3"
  type: "Convolution"
  bottom: "inception_4a/3x3_reduce"
  top: "inception_4a/3x3"
  param {
    lr_mult: 1
    decay_mult: 1
  }
  param {
    lr_mult: 2
    decay_mult: 0
  }
  convolution_param {
    num_output: 208
    pad: 1
    kernel_size: 3
    weight_filler {
      type: "xavier"
      std: 0.03
    }
    bias_filler {
      type: "constant"
      value: 0.2
    }
  }
}
layer {
  name: "inception_4a/relu_3x3"
  type: "ReLU"
  bottom: "inception_4a/3x3"
  top: "inception_4a/3x3"
}
layer {
  name: "inception_4a/5x5_reduce"
  type: "Convolution"
  bottom: "pool3/3x3_s2"
  top: "inception_4a/5x5_reduce"
  param {
    lr_mult: 1
    decay_mult: 1
  }
  param {
    lr_mult: 2
    decay_mult: 0
  }
  convolution_param {
    num_output: 16
    kernel_size: 1
    weight_filler {
      type: "xavier"
      std: 0.2
    }
    bias_filler {
      type: "constant"
      value: 0.2
    }
  }
}
layer {
  name: "inception_4a/relu_5x5_reduce"
  type: "ReLU"
  bottom: "inception_4a/5x5_reduce"
  top: "inception_4a/5x5_reduce"
}
layer {
  name: "inception_4a/5x5"
  type: "Convolution"
  bottom: "inception_4a/5x5_reduce"
  top: "inception_4a/5x5"
  param {
    lr_mult: 1
    decay_mult: 1
  }
  param {
    lr_mult: 2
    decay_mult: 0
  }
  convolution_param {
    num_output: 48
    pad: 2
    kernel_size: 5
    weight_filler {
      type: "xavier"
      std: 0.03
    }
    bias_filler {
      type: "constant"
      value: 0.2
    }
  }
}
layer {
  name: "inception_4a/relu_5x5"
  type: "ReLU"
  bottom: "inception_4a/5x5"
  top: "inception_4a/5x5"
}
layer {
  name: "inception_4a/pool"
  type: "Pooling"
  bottom: "pool3/3x3_s2"
  top: "inception_4a/pool"
  pooling_param {
    pool: MAX
    kernel_size: 3
    stride: 1
    pad: 1
  }
}
layer {
  name: "inception_4a/pool_proj"
  type: "Convolution"
  bottom: "inception_4a/pool"
  top: "inception_4a/pool_proj"
  param {
    lr_mult: 1
    decay_mult: 1
  }
  param {
    lr_mult: 2
    decay_mult: 0
  }
  convolution_param {
    num_output: 64
    kernel_size: 1
    weight_filler {
      type: "xavier"
      std: 0.1
    }
    bias_filler {
      type: "constant"
      value: 0.2
    }
  }
}
layer {
  name: "inception_4a/relu_pool_proj"
  type: "ReLU"
  bottom: "inception_4a/pool_proj"
  top: "inception_4a/pool_proj"
}
layer {
  name: "inception_4a/output"
  type: "Concat"
  bottom: "inception_4a/1x1"
  bottom: "inception_4a/3x3"
  bottom: "inception_4a/5x5"
  bottom: "inception_4a/pool_proj"
  top: "inception_4a/output"
}
layer {
  name: "loss1/ave_pool"
  type: "Pooling"
  bottom: "inception_4a/output"
  top: "loss1/ave_pool"
  pooling_param {
    pool: AVE
    kernel_size: 5
    stride: 3
  }
}
layer {
  name: "loss1/conv"
  type: "Convolution"
  bottom: "loss1/ave_pool"
  top: "loss1/conv"
  param {
    lr_mult: 1
    decay_mult: 1
  }
  param {
    lr_mult: 2
    decay_mult: 0
  }
  convolution_param {
    num_output: 128
    kernel_size: 1
    weight_filler {
      type: "xavier"
      std: 0.08
    }
    bias_filler {
      type: "constant"
      value: 0.2
    }
  }
}
layer {
  name: "loss1/relu_conv"
  type: "ReLU"
  bottom: "loss1/conv"
  top: "loss1/conv"
}
layer {
  name: "loss1/fc"
  type: "InnerProduct"
  bottom: "loss1/conv"
  top: "loss1/fc"
  param {
    lr_mult: 1
    decay_mult: 1
  }
  param {
    lr_mult: 2
    decay_mult: 0
  }
  inner_product_param {
    num_output: 1024
    weight_filler {
      type: "xavier"
      std: 0.02
    }
    bias_filler {
      type: "constant"
      value: 0.2
    }
  }
}
layer {
  name: "loss1/relu_fc"
  type: "ReLU"
  bottom: "loss1/fc"
  top: "loss1/fc"
}
layer {
  name: "loss1/drop_fc"
  type: "Dropout"
  bottom: "loss1/fc"
  top: "loss1/fc"
  dropout_param {
    dropout_ratio: 0.7
  }
}
layer {
  name: "loss1/classifier_plantvillage"
  type: "InnerProduct"
  bottom: "loss1/fc"
  top: "loss1/classifier_plantvillage"
  param {
    lr_mult: 1
    decay_mult: 1
  }
  param {
    lr_mult: 2
    decay_mult: 0
  }
  inner_product_param {
    num_output: 38
    weight_filler {
      type: "xavier"
      std: 0.0009765625
    }
    bias_filler {
      type: "constant"
      value: 0
    }
  }
}
layer {
  name: "inception_4b/1x1"
  type: "Convolution"
  bottom: "inception_4a/output"
  top: "inception_4b/1x1"
  param {
    lr_mult: 1
    decay_mult: 1
  }
  param {
    lr_mult: 2
    decay_mult: 0
  }
  convolution_param {
    num_output: 160
    kernel_size: 1
    weight_filler {
      type: "xavier"
      std: 0.03
    }
    bias_filler {
      type: "constant"
      value: 0.2
    }
  }
}
layer {
  name: "inception_4b/relu_1x1"
  type: "ReLU"
  bottom: "inception_4b/1x1"
  top: "inception_4b/1x1"
}
layer {
  name: "inception_4b/3x3_reduce"
  type: "Convolution"
  bottom: "inception_4a/output"
  top: "inception_4b/3x3_reduce"
  param {
    lr_mult: 1
    decay_mult: 1
  }
  param {
    lr_mult: 2
    decay_mult: 0
  }
  convolution_param {
    num_output: 112
    kernel_size: 1
    weight_filler {
      type: "xavier"
      std: 0.09
    }
    bias_filler {
      type: "constant"
      value: 0.2
    }
  }
}
layer {
  name: "inception_4b/relu_3x3_reduce"
  type: "ReLU"
  bottom: "inception_4b/3x3_reduce"
  top: "inception_4b/3x3_reduce"
}
layer {
  name: "inception_4b/3x3"
  type: "Convolution"
  bottom: "inception_4b/3x3_reduce"
  top: "inception_4b/3x3"
  param {
    lr_mult: 1
    decay_mult: 1
  }
  param {
    lr_mult: 2
    decay_mult: 0
  }
  convolution_param {
    num_output: 224
    pad: 1
    kernel_size: 3
    weight_filler {
      type: "xavier"
      std: 0.03
    }
    bias_filler {
      type: "constant"
      value: 0.2
    }
  }
}
layer {
  name: "inception_4b/relu_3x3"
  type: "ReLU"
  bottom: "inception_4b/3x3"
  top: "inception_4b/3x3"
}
layer {
  name: "inception_4b/5x5_reduce"
  type: "Convolution"
  bottom: "inception_4a/output"
  top: "inception_4b/5x5_reduce"
  param {
    lr_mult: 1
    decay_mult: 1
  }
  param {
    lr_mult: 2
    decay_mult: 0
  }
  convolution_param {
    num_output: 24
    kernel_size: 1
    weight_filler {
      type: "xavier"
      std: 0.2
    }
    bias_filler {
      type: "constant"
      value: 0.2
    }
  }
}
layer {
  name: "inception_4b/relu_5x5_reduce"
  type: "ReLU"
  bottom: "inception_4b/5x5_reduce"
  top: "inception_4b/5x5_reduce"
}
layer {
  name: "inception_4b/5x5"
  type: "Convolution"
  bottom: "inception_4b/5x5_reduce"
  top: "inception_4b/5x5"
  param {
    lr_mult: 1
    decay_mult: 1
  }
  param {
    lr_mult: 2
    decay_mult: 0
  }
  convolution_param {
    num_output: 64
    pad: 2
    kernel_size: 5
    weight_filler {
      type: "xavier"
      std: 0.03
    }
    bias_filler {
      type: "constant"
      value: 0.2
    }
  }
}
layer {
  name: "inception_4b/relu_5x5"
  type: "ReLU"
  bottom: "inception_4b/5x5"
  top: "inception_4b/5x5"
}
layer {
  name: "inception_4b/pool"
  type: "Pooling"
  bottom: "inception_4a/output"
  top: "inception_4b/pool"
  pooling_param {
    pool: MAX
    kernel_size: 3
    stride: 1
    pad: 1
  }
}
layer {
  name: "inception_4b/pool_proj"
  type: "Convolution"
  bottom: "inception_4b/pool"
  top: "inception_4b/pool_proj"
  param {
    lr_mult: 1
    decay_mult: 1
  }
  param {
    lr_mult: 2
    decay_mult: 0
  }
  convolution_param {
    num_output: 64
    kernel_size: 1
    weight_filler {
      type: "xavier"
      std: 0.1
    }
    bias_filler {
      type: "constant"
      value: 0.2
    }
  }
}
layer {
  name: "inception_4b/relu_pool_proj"
  type: "ReLU"
  bottom: "inception_4b/pool_proj"
  top: "inception_4b/pool_proj"
}
layer {
  name: "inception_4b/output"
  type: "Concat"
  bottom: "inception_4b/1x1"
  bottom: "inception_4b/3x3"
  bottom: "inception_4b/5x5"
  bottom: "inception_4b/pool_proj"
  top: "inception_4b/output"
}
layer {
  name: "inception_4c/1x1"
  type: "Convolution"
  bottom: "inception_4b/output"
  top: "inception_4c/1x1"
  param {
    lr_mult: 1
    decay_mult: 1
  }
  param {
    lr_mult: 2
    decay_mult: 0
  }
  convolution_param {
    num_output: 128
    kernel_size: 1
    weight_filler {
      type: "xavier"
      std: 0.03
    }
    bias_filler {
      type: "constant"
      value: 0.2
    }
  }
}
layer {
  name: "inception_4c/relu_1x1"
  type: "ReLU"
  bottom: "inception_4c/1x1"
  top: "inception_4c/1x1"
}
layer {
  name: "inception_4c/3x3_reduce"
  type: "Convolution"
  bottom: "inception_4b/output"
  top: "inception_4c/3x3_reduce"
  param {
    lr_mult: 1
    decay_mult: 1
  }
  param {
    lr_mult: 2
    decay_mult: 0
  }
  convolution_param {
    num_output: 128
    kernel_size: 1
    weight_filler {
      type: "xavier"
      std: 0.09
    }
    bias_filler {
      type: "constant"
      value: 0.2
    }
  }
}
layer {
  name: "inception_4c/relu_3x3_reduce"
  type: "ReLU"
  bottom: "inception_4c/3x3_reduce"
  top: "inception_4c/3x3_reduce"
}
layer {
  name: "inception_4c/3x3"
  type: "Convolution"
  bottom: "inception_4c/3x3_reduce"
  top: "inception_4c/3x3"
  param {
    lr_mult: 1
    decay_mult: 1
  }
  param {
    lr_mult: 2
    decay_mult: 0
  }
  convolution_param {
    num_output: 256
    pad: 1
    kernel_size: 3
    weight_filler {
      type: "xavier"
      std: 0.03
    }
    bias_filler {
      type: "constant"
      value: 0.2
    }
  }
}
layer {
  name: "inception_4c/relu_3x3"
  type: "ReLU"
  bottom: "inception_4c/3x3"
  top: "inception_4c/3x3"
}
layer {
  name: "inception_4c/5x5_reduce"
  type: "Convolution"
  bottom: "inception_4b/output"
  top: "inception_4c/5x5_reduce"
  param {
    lr_mult: 1
    decay_mult: 1
  }
  param {
    lr_mult: 2
    decay_mult: 0
  }
  convolution_param {
    num_output: 24
    kernel_size: 1
    weight_filler {
      type: "xavier"
      std: 0.2
    }
    bias_filler {
      type: "constant"
      value: 0.2
    }
  }
}
layer {
  name: "inception_4c/relu_5x5_reduce"
  type: "ReLU"
  bottom: "inception_4c/5x5_reduce"
  top: "inception_4c/5x5_reduce"
}
layer {
  name: "inception_4c/5x5"
  type: "Convolution"
  bottom: "inception_4c/5x5_reduce"
  top: "inception_4c/5x5"
  param {
    lr_mult: 1
    decay_mult: 1
  }
  param {
    lr_mult: 2
    decay_mult: 0
  }
  convolution_param {
    num_output: 64
    pad: 2
    kernel_size: 5
    weight_filler {
      type: "xavier"
      std: 0.03
    }
    bias_filler {
      type: "constant"
      value: 0.2
    }
  }
}
layer {
  name: "inception_4c/relu_5x5"
  type: "ReLU"
  bottom: "inception_4c/5x5"
  top: "inception_4c/5x5"
}
layer {
  name: "inception_4c/pool"
  type: "Pooling"
  bottom: "inception_4b/output"
  top: "inception_4c/pool"
  pooling_param {
    pool: MAX
    kernel_size: 3
    stride: 1
    pad: 1
  }
}
layer {
  name: "inception_4c/pool_proj"
  type: "Convolution"
  bottom: "inception_4c/pool"
  top: "inception_4c/pool_proj"
  param {
    lr_mult: 1
    decay_mult: 1
  }
  param {
    lr_mult: 2
    decay_mult: 0
  }
  convolution_param {
    num_output: 64
    kernel_size: 1
    weight_filler {
      type: "xavier"
      std: 0.1
    }
    bias_filler {
      type: "constant"
      value: 0.2
    }
  }
}
layer {
  name: "inception_4c/relu_pool_proj"
  type: "ReLU"
  bottom: "inception_4c/pool_proj"
  top: "inception_4c/pool_proj"
}
layer {
  name: "inception_4c/output"
  type: "Concat"
  bottom: "inception_4c/1x1"
  bottom: "inception_4c/3x3"
  bottom: "inception_4c/5x5"
  bottom: "inception_4c/pool_proj"
  top: "inception_4c/output"
}
layer {
  name: "inception_4d/1x1"
  type: "Convolution"
  bottom: "inception_4c/output"
  top: "inception_4d/1x1"
  param {
    lr_mult: 1
    decay_mult: 1
  }
  param {
    lr_mult: 2
    decay_mult: 0
  }
  convolution_param {
    num_output: 112
    kernel_size: 1
    weight_filler {
      type: "xavier"
      std: 0.03
    }
    bias_filler {
      type: "constant"
      value: 0.2
    }
  }
}
layer {
  name: "inception_4d/relu_1x1"
  type: "ReLU"
  bottom: "inception_4d/1x1"
  top: "inception_4d/1x1"
}
layer {
  name: "inception_4d/3x3_reduce"
  type: "Convolution"
  bottom: "inception_4c/output"
  top: "inception_4d/3x3_reduce"
  param {
    lr_mult: 1
    decay_mult: 1
  }
  param {
    lr_mult: 2
    decay_mult: 0
  }
  convolution_param {
    num_output: 144
    kernel_size: 1
    weight_filler {
      type: "xavier"
      std: 0.09
    }
    bias_filler {
      type: "constant"
      value: 0.2
    }
  }
}
layer {
  name: "inception_4d/relu_3x3_reduce"
  type: "ReLU"
  bottom: "inception_4d/3x3_reduce"
  top: "inception_4d/3x3_reduce"
}
layer {
  name: "inception_4d/3x3"
  type: "Convolution"
  bottom: "inception_4d/3x3_reduce"
  top: "inception_4d/3x3"
  param {
    lr_mult: 1
    decay_mult: 1
  }
  param {
    lr_mult: 2
    decay_mult: 0
  }
  convolution_param {
    num_output: 288
    pad: 1
    kernel_size: 3
    weight_filler {
      type: "xavier"
      std: 0.03
    }
    bias_filler {
      type: "constant"
      value: 0.2
    }
  }
}
layer {
  name: "inception_4d/relu_3x3"
  type: "ReLU"
  bottom: "inception_4d/3x3"
  top: "inception_4d/3x3"
}
layer {
  name: "inception_4d/5x5_reduce"
  type: "Convolution"
  bottom: "inception_4c/output"
  top: "inception_4d/5x5_reduce"
  param {
    lr_mult: 1
    decay_mult: 1
  }
  param {
    lr_mult: 2
    decay_mult: 0
  }
  convolution_param {
    num_output: 32
    kernel_size: 1
    weight_filler {
      type: "xavier"
      std: 0.2
    }
    bias_filler {
      type: "constant"
      value: 0.2
    }
  }
}
layer {
  name: "inception_4d/relu_5x5_reduce"
  type: "ReLU"
  bottom: "inception_4d/5x5_reduce"
  top: "inception_4d/5x5_reduce"
}
layer {
  name: "inception_4d/5x5"
  type: "Convolution"
  bottom: "inception_4d/5x5_reduce"
  top: "inception_4d/5x5"
  param {
    lr_mult: 1
    decay_mult: 1
  }
  param {
    lr_mult: 2
    decay_mult: 0
  }
  convolution_param {
    num_output: 64
    pad: 2
    kernel_size: 5
    weight_filler {
      type: "xavier"
      std: 0.03
    }
    bias_filler {
      type: "constant"
      value: 0.2
    }
  }
}
layer {
  name: "inception_4d/relu_5x5"
  type: "ReLU"
  bottom: "inception_4d/5x5"
  top: "inception_4d/5x5"
}
layer {
  name: "inception_4d/pool"
  type: "Pooling"
  bottom: "inception_4c/output"
  top: "inception_4d/pool"
  pooling_param {
    pool: MAX
    kernel_size: 3
    stride: 1
    pad: 1
  }
}
layer {
  name: "inception_4d/pool_proj"
  type: "Convolution"
  bottom: "inception_4d/pool"
  top: "inception_4d/pool_proj"
  param {
    lr_mult: 1
    decay_mult: 1
  }
  param {
    lr_mult: 2
    decay_mult: 0
  }
  convolution_param {
    num_output: 64
    kernel_size: 1
    weight_filler {
      type: "xavier"
      std: 0.1
    }
    bias_filler {
      type: "constant"
      value: 0.2
    }
  }
}
layer {
  name: "inception_4d/relu_pool_proj"
  type: "ReLU"
  bottom: "inception_4d/pool_proj"
  top: "inception_4d/pool_proj"
}
layer {
  name: "inception_4d/output"
  type: "Concat"
  bottom: "inception_4d/1x1"
  bottom: "inception_4d/3x3"
  bottom: "inception_4d/5x5"
  bottom: "inception_4d/pool_proj"
  top: "inception_4d/output"
}
layer {
  name: "loss2/ave_pool"
  type: "Pooling"
  bottom: "inception_4d/output"
  top: "loss2/ave_pool"
  pooling_param {
    pool: AVE
    kernel_size: 5
    stride: 3
  }
}
layer {
  name: "loss2/conv"
  type: "Convolution"
  bottom: "loss2/ave_pool"
  top: "loss2/conv"
  param {
    lr_mult: 1
    decay_mult: 1
  }
  param {
    lr_mult: 2
    decay_mult: 0
  }
  convolution_param {
    num_output: 128
    kernel_size: 1
    weight_filler {
      type: "xavier"
      std: 0.08
    }
    bias_filler {
      type: "constant"
      value: 0.2
    }
  }
}
layer {
  name: "loss2/relu_conv"
  type: "ReLU"
  bottom: "loss2/conv"
  top: "loss2/conv"
}
layer {
  name: "loss2/fc"
  type: "InnerProduct"
  bottom: "loss2/conv"
  top: "loss2/fc"
  param {
    lr_mult: 1
    decay_mult: 1
  }
  param {
    lr_mult: 2
    decay_mult: 0
  }
  inner_product_param {
    num_output: 1024
    weight_filler {
      type: "xavier"
      std: 0.02
    }
    bias_filler {
      type: "constant"
      value: 0.2
    }
  }
}
layer {
  name: "loss2/relu_fc"
  type: "ReLU"
  bottom: "loss2/fc"
  top: "loss2/fc"
}
layer {
  name: "loss2/drop_fc"
  type: "Dropout"
  bottom: "loss2/fc"
  top: "loss2/fc"
  dropout_param {
    dropout_ratio: 0.7
  }
}
layer {
  name: "loss2/classifier_plantvillage"
  type: "InnerProduct"
  bottom: "loss2/fc"
  top: "loss2/classifier_plantvillage"
  param {
    lr_mult: 1
    decay_mult: 1
  }
  param {
    lr_mult: 2
    decay_mult: 0
  }
  inner_product_param {
    num_output: 38
    weight_filler {
      type: "xavier"
      std: 0.0009765625
    }
    bias_filler {
      type: "constant"
      value: 0
    }
  }
}
layer {
  name: "inception_4e/1x1"
  type: "Convolution"
  bottom: "inception_4d/output"
  top: "inception_4e/1x1"
  param {
    lr_mult: 1
    decay_mult: 1
  }
  param {
    lr_mult: 2
    decay_mult: 0
  }
  convolution_param {
    num_output: 256
    kernel_size: 1
    weight_filler {
      type: "xavier"
      std: 0.03
    }
    bias_filler {
      type: "constant"
      value: 0.2
    }
  }
}
layer {
  name: "inception_4e/relu_1x1"
  type: "ReLU"
  bottom: "inception_4e/1x1"
  top: "inception_4e/1x1"
}
layer {
  name: "inception_4e/3x3_reduce"
  type: "Convolution"
  bottom: "inception_4d/output"
  top: "inception_4e/3x3_reduce"
  param {
    lr_mult: 1
    decay_mult: 1
  }
  param {
    lr_mult: 2
    decay_mult: 0
  }
  convolution_param {
    num_output: 160
    kernel_size: 1
    weight_filler {
      type: "xavier"
      std: 0.09
    }
    bias_filler {
      type: "constant"
      value: 0.2
    }
  }
}
layer {
  name: "inception_4e/relu_3x3_reduce"
  type: "ReLU"
  bottom: "inception_4e/3x3_reduce"
  top: "inception_4e/3x3_reduce"
}
layer {
  name: "inception_4e/3x3"
  type: "Convolution"
  bottom: "inception_4e/3x3_reduce"
  top: "inception_4e/3x3"
  param {
    lr_mult: 1
    decay_mult: 1
  }
  param {
    lr_mult: 2
    decay_mult: 0
  }
  convolution_param {
    num_output: 320
    pad: 1
    kernel_size: 3
    weight_filler {
      type: "xavier"
      std: 0.03
    }
    bias_filler {
      type: "constant"
      value: 0.2
    }
  }
}
layer {
  name: "inception_4e/relu_3x3"
  type: "ReLU"
  bottom: "inception_4e/3x3"
  top: "inception_4e/3x3"
}
layer {
  name: "inception_4e/5x5_reduce"
  type: "Convolution"
  bottom: "inception_4d/output"
  top: "inception_4e/5x5_reduce"
  param {
    lr_mult: 1
    decay_mult: 1
  }
  param {
    lr_mult: 2
    decay_mult: 0
  }
  convolution_param {
    num_output: 32
    kernel_size: 1
    weight_filler {
      type: "xavier"
      std: 0.2
    }
    bias_filler {
      type: "constant"
      value: 0.2
    }
  }
}
layer {
  name: "inception_4e/relu_5x5_reduce"
  type: "ReLU"
  bottom: "inception_4e/5x5_reduce"
  top: "inception_4e/5x5_reduce"
}
layer {
  name: "inception_4e/5x5"
  type: "Convolution"
  bottom: "inception_4e/5x5_reduce"
  top: "inception_4e/5x5"
  p
I0403 15:20:42.295485 31502 layer_factory.hpp:77] Creating layer data
I0403 15:20:42.296140 31502 net.cpp:91] Creating Layer data
I0403 15:20:42.296181 31502 net.cpp:399] data -> data
I0403 15:20:42.296236 31502 net.cpp:399] data -> label
I0403 15:20:42.296280 31502 data_transformer.cpp:25] Loading mean file from: /home/mohanty/data/final_dataset/lmdb/color-60-40/mean.binaryproto
I0403 15:20:42.298993 31508 db_lmdb.cpp:38] Opened lmdb /home/mohanty/data/final_dataset/lmdb/color-60-40/test_db
I0403 15:20:42.310621 31502 data_layer.cpp:41] output data size: 24,3,224,224
I0403 15:20:42.342353 31502 net.cpp:141] Setting up data
I0403 15:20:42.342440 31502 net.cpp:148] Top shape: 24 3 224 224 (3612672)
I0403 15:20:42.342464 31502 net.cpp:148] Top shape: 24 (24)
I0403 15:20:42.342480 31502 net.cpp:156] Memory required for data: 14450784
I0403 15:20:42.342509 31502 layer_factory.hpp:77] Creating layer label_data_1_split
I0403 15:20:42.342536 31502 net.cpp:91] Creating Layer label_data_1_split
I0403 15:20:42.342555 31502 net.cpp:425] label_data_1_split <- label
I0403 15:20:42.342587 31502 net.cpp:399] label_data_1_split -> label_data_1_split_0
I0403 15:20:42.342617 31502 net.cpp:399] label_data_1_split -> label_data_1_split_1
I0403 15:20:42.342639 31502 net.cpp:399] label_data_1_split -> label_data_1_split_2
I0403 15:20:42.342660 31502 net.cpp:399] label_data_1_split -> label_data_1_split_3
I0403 15:20:42.342680 31502 net.cpp:399] label_data_1_split -> label_data_1_split_4
I0403 15:20:42.342702 31502 net.cpp:399] label_data_1_split -> label_data_1_split_5
I0403 15:20:42.342725 31502 net.cpp:399] label_data_1_split -> label_data_1_split_6
I0403 15:20:42.342746 31502 net.cpp:399] label_data_1_split -> label_data_1_split_7
I0403 15:20:42.342767 31502 net.cpp:399] label_data_1_split -> label_data_1_split_8
I0403 15:20:42.342787 31502 net.cpp:399] label_data_1_split -> label_data_1_split_9
I0403 15:20:42.342905 31502 net.cpp:141] Setting up label_data_1_split
I0403 15:20:42.342931 31502 net.cpp:148] Top shape: 24 (24)
I0403 15:20:42.342947 31502 net.cpp:148] Top shape: 24 (24)
I0403 15:20:42.342965 31502 net.cpp:148] Top shape: 24 (24)
I0403 15:20:42.342983 31502 net.cpp:148] Top shape: 24 (24)
I0403 15:20:42.342998 31502 net.cpp:148] Top shape: 24 (24)
I0403 15:20:42.343014 31502 net.cpp:148] Top shape: 24 (24)
I0403 15:20:42.343030 31502 net.cpp:148] Top shape: 24 (24)
I0403 15:20:42.343046 31502 net.cpp:148] Top shape: 24 (24)
I0403 15:20:42.343062 31502 net.cpp:148] Top shape: 24 (24)
I0403 15:20:42.343080 31502 net.cpp:148] Top shape: 24 (24)
I0403 15:20:42.343127 31502 net.cpp:156] Memory required for data: 14451744
I0403 15:20:42.343143 31502 layer_factory.hpp:77] Creating layer conv1/7x7_s2
I0403 15:20:42.343176 31502 net.cpp:91] Creating Layer conv1/7x7_s2
I0403 15:20:42.343196 31502 net.cpp:425] conv1/7x7_s2 <- data
I0403 15:20:42.343216 31502 net.cpp:399] conv1/7x7_s2 -> conv1/7x7_s2
I0403 15:20:42.499078 31502 net.cpp:141] Setting up conv1/7x7_s2
I0403 15:20:42.499155 31502 net.cpp:148] Top shape: 24 64 112 112 (19267584)
I0403 15:20:42.499174 31502 net.cpp:156] Memory required for data: 91522080
I0403 15:20:42.499207 31502 layer_factory.hpp:77] Creating layer conv1/relu_7x7
I0403 15:20:42.499235 31502 net.cpp:91] Creating Layer conv1/relu_7x7
I0403 15:20:42.499255 31502 net.cpp:425] conv1/relu_7x7 <- conv1/7x7_s2
I0403 15:20:42.499276 31502 net.cpp:386] conv1/relu_7x7 -> conv1/7x7_s2 (in-place)
I0403 15:20:42.499572 31502 net.cpp:141] Setting up conv1/relu_7x7
I0403 15:20:42.499603 31502 net.cpp:148] Top shape: 24 64 112 112 (19267584)
I0403 15:20:42.499619 31502 net.cpp:156] Memory required for data: 168592416
I0403 15:20:42.499636 31502 layer_factory.hpp:77] Creating layer pool1/3x3_s2
I0403 15:20:42.499663 31502 net.cpp:91] Creating Layer pool1/3x3_s2
I0403 15:20:42.499682 31502 net.cpp:425] pool1/3x3_s2 <- conv1/7x7_s2
I0403 15:20:42.499706 31502 net.cpp:399] pool1/3x3_s2 -> pool1/3x3_s2
I0403 15:20:42.499791 31502 net.cpp:141] Setting up pool1/3x3_s2
I0403 15:20:42.499819 31502 net.cpp:148] Top shape: 24 64 56 56 (4816896)
I0403 15:20:42.499835 31502 net.cpp:156] Memory required for data: 187860000
I0403 15:20:42.499850 31502 layer_factory.hpp:77] Creating layer pool1/norm1
I0403 15:20:42.499879 31502 net.cpp:91] Creating Layer pool1/norm1
I0403 15:20:42.499900 31502 net.cpp:425] pool1/norm1 <- pool1/3x3_s2
I0403 15:20:42.499923 31502 net.cpp:399] pool1/norm1 -> pool1/norm1
I0403 15:20:42.500248 31502 net.cpp:141] Setting up pool1/norm1
I0403 15:20:42.500279 31502 net.cpp:148] Top shape: 24 64 56 56 (4816896)
I0403 15:20:42.500303 31502 net.cpp:156] Memory required for data: 207127584
I0403 15:20:42.500319 31502 layer_factory.hpp:77] Creating layer conv2/3x3_reduce
I0403 15:20:42.500349 31502 net.cpp:91] Creating Layer conv2/3x3_reduce
I0403 15:20:42.500366 31502 net.cpp:425] conv2/3x3_reduce <- pool1/norm1
I0403 15:20:42.500391 31502 net.cpp:399] conv2/3x3_reduce -> conv2/3x3_reduce
I0403 15:20:42.501884 31502 net.cpp:141] Setting up conv2/3x3_reduce
I0403 15:20:42.501919 31502 net.cpp:148] Top shape: 24 64 56 56 (4816896)
I0403 15:20:42.501937 31502 net.cpp:156] Memory required for data: 226395168
I0403 15:20:42.501961 31502 layer_factory.hpp:77] Creating layer conv2/relu_3x3_reduce
I0403 15:20:42.501982 31502 net.cpp:91] Creating Layer conv2/relu_3x3_reduce
I0403 15:20:42.501999 31502 net.cpp:425] conv2/relu_3x3_reduce <- conv2/3x3_reduce
I0403 15:20:42.502018 31502 net.cpp:386] conv2/relu_3x3_reduce -> conv2/3x3_reduce (in-place)
I0403 15:20:42.502307 31502 net.cpp:141] Setting up conv2/relu_3x3_reduce
I0403 15:20:42.502343 31502 net.cpp:148] Top shape: 24 64 56 56 (4816896)
I0403 15:20:42.502362 31502 net.cpp:156] Memory required for data: 245662752
I0403 15:20:42.502377 31502 layer_factory.hpp:77] Creating layer conv2/3x3
I0403 15:20:42.502403 31502 net.cpp:91] Creating Layer conv2/3x3
I0403 15:20:42.502435 31502 net.cpp:425] conv2/3x3 <- conv2/3x3_reduce
I0403 15:20:42.502481 31502 net.cpp:399] conv2/3x3 -> conv2/3x3
I0403 15:20:42.504952 31502 net.cpp:141] Setting up conv2/3x3
I0403 15:20:42.504987 31502 net.cpp:148] Top shape: 24 192 56 56 (14450688)
I0403 15:20:42.505005 31502 net.cpp:156] Memory required for data: 303465504
I0403 15:20:42.505028 31502 layer_factory.hpp:77] Creating layer conv2/relu_3x3
I0403 15:20:42.505049 31502 net.cpp:91] Creating Layer conv2/relu_3x3
I0403 15:20:42.505066 31502 net.cpp:425] conv2/relu_3x3 <- conv2/3x3
I0403 15:20:42.505084 31502 net.cpp:386] conv2/relu_3x3 -> conv2/3x3 (in-place)
I0403 15:20:42.505264 31502 net.cpp:141] Setting up conv2/relu_3x3
I0403 15:20:42.505296 31502 net.cpp:148] Top shape: 24 192 56 56 (14450688)
I0403 15:20:42.505342 31502 net.cpp:156] Memory required for data: 361268256
I0403 15:20:42.505360 31502 layer_factory.hpp:77] Creating layer conv2/norm2
I0403 15:20:42.505383 31502 net.cpp:91] Creating Layer conv2/norm2
I0403 15:20:42.505403 31502 net.cpp:425] conv2/norm2 <- conv2/3x3
I0403 15:20:42.505421 31502 net.cpp:399] conv2/norm2 -> conv2/norm2
I0403 15:20:42.505812 31502 net.cpp:141] Setting up conv2/norm2
I0403 15:20:42.505841 31502 net.cpp:148] Top shape: 24 192 56 56 (14450688)
I0403 15:20:42.505857 31502 net.cpp:156] Memory required for data: 419071008
I0403 15:20:42.505873 31502 layer_factory.hpp:77] Creating layer pool2/3x3_s2
I0403 15:20:42.505895 31502 net.cpp:91] Creating Layer pool2/3x3_s2
I0403 15:20:42.505914 31502 net.cpp:425] pool2/3x3_s2 <- conv2/norm2
I0403 15:20:42.505933 31502 net.cpp:399] pool2/3x3_s2 -> pool2/3x3_s2
I0403 15:20:42.505990 31502 net.cpp:141] Setting up pool2/3x3_s2
I0403 15:20:42.506013 31502 net.cpp:148] Top shape: 24 192 28 28 (3612672)
I0403 15:20:42.506031 31502 net.cpp:156] Memory required for data: 433521696
I0403 15:20:42.506047 31502 layer_factory.hpp:77] Creating layer pool2/3x3_s2_pool2/3x3_s2_0_split
I0403 15:20:42.506063 31502 net.cpp:91] Creating Layer pool2/3x3_s2_pool2/3x3_s2_0_split
I0403 15:20:42.506079 31502 net.cpp:425] pool2/3x3_s2_pool2/3x3_s2_0_split <- pool2/3x3_s2
I0403 15:20:42.506100 31502 net.cpp:399] pool2/3x3_s2_pool2/3x3_s2_0_split -> pool2/3x3_s2_pool2/3x3_s2_0_split_0
I0403 15:20:42.506121 31502 net.cpp:399] pool2/3x3_s2_pool2/3x3_s2_0_split -> pool2/3x3_s2_pool2/3x3_s2_0_split_1
I0403 15:20:42.506144 31502 net.cpp:399] pool2/3x3_s2_pool2/3x3_s2_0_split -> pool2/3x3_s2_pool2/3x3_s2_0_split_2
I0403 15:20:42.506168 31502 net.cpp:399] pool2/3x3_s2_pool2/3x3_s2_0_split -> pool2/3x3_s2_pool2/3x3_s2_0_split_3
I0403 15:20:42.506244 31502 net.cpp:141] Setting up pool2/3x3_s2_pool2/3x3_s2_0_split
I0403 15:20:42.506291 31502 net.cpp:148] Top shape: 24 192 28 28 (3612672)
I0403 15:20:42.506338 31502 net.cpp:148] Top shape: 24 192 28 28 (3612672)
I0403 15:20:42.506356 31502 net.cpp:148] Top shape: 24 192 28 28 (3612672)
I0403 15:20:42.506374 31502 net.cpp:148] Top shape: 24 192 28 28 (3612672)
I0403 15:20:42.506388 31502 net.cpp:156] Memory required for data: 491324448
I0403 15:20:42.506403 31502 layer_factory.hpp:77] Creating layer inception_3a/1x1
I0403 15:20:42.506427 31502 net.cpp:91] Creating Layer inception_3a/1x1
I0403 15:20:42.506444 31502 net.cpp:425] inception_3a/1x1 <- pool2/3x3_s2_pool2/3x3_s2_0_split_0
I0403 15:20:42.506464 31502 net.cpp:399] inception_3a/1x1 -> inception_3a/1x1
I0403 15:20:42.508064 31502 net.cpp:141] Setting up inception_3a/1x1
I0403 15:20:42.508096 31502 net.cpp:148] Top shape: 24 64 28 28 (1204224)
I0403 15:20:42.508114 31502 net.cpp:156] Memory required for data: 496141344
I0403 15:20:42.508136 31502 layer_factory.hpp:77] Creating layer inception_3a/relu_1x1
I0403 15:20:42.508157 31502 net.cpp:91] Creating Layer inception_3a/relu_1x1
I0403 15:20:42.508196 31502 net.cpp:425] inception_3a/relu_1x1 <- inception_3a/1x1
I0403 15:20:42.508239 31502 net.cpp:386] inception_3a/relu_1x1 -> inception_3a/1x1 (in-place)
I0403 15:20:42.508458 31502 net.cpp:141] Setting up inception_3a/relu_1x1
I0403 15:20:42.508486 31502 net.cpp:148] Top shape: 24 64 28 28 (1204224)
I0403 15:20:42.508502 31502 net.cpp:156] Memory required for data: 500958240
I0403 15:20:42.508517 31502 layer_factory.hpp:77] Creating layer inception_3a/3x3_reduce
I0403 15:20:42.508543 31502 net.cpp:91] Creating Layer inception_3a/3x3_reduce
I0403 15:20:42.508563 31502 net.cpp:425] inception_3a/3x3_reduce <- pool2/3x3_s2_pool2/3x3_s2_0_split_1
I0403 15:20:42.508586 31502 net.cpp:399] inception_3a/3x3_reduce -> inception_3a/3x3_reduce
I0403 15:20:42.510298 31502 net.cpp:141] Setting up inception_3a/3x3_reduce
I0403 15:20:42.510337 31502 net.cpp:148] Top shape: 24 96 28 28 (1806336)
I0403 15:20:42.510355 31502 net.cpp:156] Memory required for data: 508183584
I0403 15:20:42.510377 31502 layer_factory.hpp:77] Creating layer inception_3a/relu_3x3_reduce
I0403 15:20:42.510418 31502 net.cpp:91] Creating Layer inception_3a/relu_3x3_reduce
I0403 15:20:42.510438 31502 net.cpp:425] inception_3a/relu_3x3_reduce <- inception_3a/3x3_reduce
I0403 15:20:42.510458 31502 net.cpp:386] inception_3a/relu_3x3_reduce -> inception_3a/3x3_reduce (in-place)
I0403 15:20:42.510655 31502 net.cpp:141] Setting up inception_3a/relu_3x3_reduce
I0403 15:20:42.510692 31502 net.cpp:148] Top shape: 24 96 28 28 (1806336)
I0403 15:20:42.510710 31502 net.cpp:156] Memory required for data: 515408928
I0403 15:20:42.510725 31502 layer_factory.hpp:77] Creating layer inception_3a/3x3
I0403 15:20:42.510748 31502 net.cpp:91] Creating Layer inception_3a/3x3
I0403 15:20:42.510766 31502 net.cpp:425] inception_3a/3x3 <- inception_3a/3x3_reduce
I0403 15:20:42.510788 31502 net.cpp:399] inception_3a/3x3 -> inception_3a/3x3
I0403 15:20:42.512480 31502 net.cpp:141] Setting up inception_3a/3x3
I0403 15:20:42.512516 31502 net.cpp:148] Top shape: 24 128 28 28 (2408448)
I0403 15:20:42.512545 31502 net.cpp:156] Memory required for data: 525042720
I0403 15:20:42.512564 31502 layer_factory.hpp:77] Creating layer inception_3a/relu_3x3
I0403 15:20:42.512589 31502 net.cpp:91] Creating Layer inception_3a/relu_3x3
I0403 15:20:42.512606 31502 net.cpp:425] inception_3a/relu_3x3 <- inception_3a/3x3
I0403 15:20:42.512627 31502 net.cpp:386] inception_3a/relu_3x3 -> inception_3a/3x3 (in-place)
I0403 15:20:42.512954 31502 net.cpp:141] Setting up inception_3a/relu_3x3
I0403 15:20:42.512984 31502 net.cpp:148] Top shape: 24 128 28 28 (2408448)
I0403 15:20:42.513025 31502 net.cpp:156] Memory required for data: 534676512
I0403 15:20:42.513046 31502 layer_factory.hpp:77] Creating layer inception_3a/5x5_reduce
I0403 15:20:42.513079 31502 net.cpp:91] Creating Layer inception_3a/5x5_reduce
I0403 15:20:42.513123 31502 net.cpp:425] inception_3a/5x5_reduce <- pool2/3x3_s2_pool2/3x3_s2_0_split_2
I0403 15:20:42.513169 31502 net.cpp:399] inception_3a/5x5_reduce -> inception_3a/5x5_reduce
I0403 15:20:42.514142 31502 net.cpp:141] Setting up inception_3a/5x5_reduce
I0403 15:20:42.514174 31502 net.cpp:148] Top shape: 24 16 28 28 (301056)
I0403 15:20:42.514190 31502 net.cpp:156] Memory required for data: 535880736
I0403 15:20:42.514209 31502 layer_factory.hpp:77] Creating layer inception_3a/relu_5x5_reduce
I0403 15:20:42.514228 31502 net.cpp:91] Creating Layer inception_3a/relu_5x5_reduce
I0403 15:20:42.514245 31502 net.cpp:425] inception_3a/relu_5x5_reduce <- inception_3a/5x5_reduce
I0403 15:20:42.514266 31502 net.cpp:386] inception_3a/relu_5x5_reduce -> inception_3a/5x5_reduce (in-place)
I0403 15:20:42.514575 31502 net.cpp:141] Setting up inception_3a/relu_5x5_reduce
I0403 15:20:42.514602 31502 net.cpp:148] Top shape: 24 16 28 28 (301056)
I0403 15:20:42.514618 31502 net.cpp:156] Memory required for data: 537084960
I0403 15:20:42.514634 31502 layer_factory.hpp:77] Creating layer inception_3a/5x5
I0403 15:20:42.514657 31502 net.cpp:91] Creating Layer inception_3a/5x5
I0403 15:20:42.514673 31502 net.cpp:425] inception_3a/5x5 <- inception_3a/5x5_reduce
I0403 15:20:42.514695 31502 net.cpp:399] inception_3a/5x5 -> inception_3a/5x5
I0403 15:20:42.515751 31502 net.cpp:141] Setting up inception_3a/5x5
I0403 15:20:42.515784 31502 net.cpp:148] Top shape: 24 32 28 28 (602112)
I0403 15:20:42.515801 31502 net.cpp:156] Memory required for data: 539493408
I0403 15:20:42.515820 31502 layer_factory.hpp:77] Creating layer inception_3a/relu_5x5
I0403 15:20:42.515849 31502 net.cpp:91] Creating Layer inception_3a/relu_5x5
I0403 15:20:42.515877 31502 net.cpp:425] inception_3a/relu_5x5 <- inception_3a/5x5
I0403 15:20:42.515920 31502 net.cpp:386] inception_3a/relu_5x5 -> inception_3a/5x5 (in-place)
I0403 15:20:42.516115 31502 net.cpp:141] Setting up inception_3a/relu_5x5
I0403 15:20:42.516166 31502 net.cpp:148] Top shape: 24 32 28 28 (602112)
I0403 15:20:42.516209 31502 net.cpp:156] Memory required for data: 541901856
I0403 15:20:42.516252 31502 layer_factory.hpp:77] Creating layer inception_3a/pool
I0403 15:20:42.516271 31502 net.cpp:91] Creating Layer inception_3a/pool
I0403 15:20:42.516294 31502 net.cpp:425] inception_3a/pool <- pool2/3x3_s2_pool2/3x3_s2_0_split_3
I0403 15:20:42.516332 31502 net.cpp:399] inception_3a/pool -> inception_3a/pool
I0403 15:20:42.516392 31502 net.cpp:141] Setting up inception_3a/pool
I0403 15:20:42.516417 31502 net.cpp:148] Top shape: 24 192 28 28 (3612672)
I0403 15:20:42.516433 31502 net.cpp:156] Memory required for data: 556352544
I0403 15:20:42.516448 31502 layer_factory.hpp:77] Creating layer inception_3a/pool_proj
I0403 15:20:42.516474 31502 net.cpp:91] Creating Layer inception_3a/pool_proj
I0403 15:20:42.516494 31502 net.cpp:425] inception_3a/pool_proj <- inception_3a/pool
I0403 15:20:42.516512 31502 net.cpp:399] inception_3a/pool_proj -> inception_3a/pool_proj
I0403 15:20:42.517473 31502 net.cpp:141] Setting up inception_3a/pool_proj
I0403 15:20:42.517501 31502 net.cpp:148] Top shape: 24 32 28 28 (602112)
I0403 15:20:42.517518 31502 net.cpp:156] Memory required for data: 558760992
I0403 15:20:42.517540 31502 layer_factory.hpp:77] Creating layer inception_3a/relu_pool_proj
I0403 15:20:42.517561 31502 net.cpp:91] Creating Layer inception_3a/relu_pool_proj
I0403 15:20:42.517578 31502 net.cpp:425] inception_3a/relu_pool_proj <- inception_3a/pool_proj
I0403 15:20:42.517597 31502 net.cpp:386] inception_3a/relu_pool_proj -> inception_3a/pool_proj (in-place)
I0403 15:20:42.517912 31502 net.cpp:141] Setting up inception_3a/relu_pool_proj
I0403 15:20:42.517948 31502 net.cpp:148] Top shape: 24 32 28 28 (602112)
I0403 15:20:42.517982 31502 net.cpp:156] Memory required for data: 561169440
I0403 15:20:42.518015 31502 layer_factory.hpp:77] Creating layer inception_3a/output
I0403 15:20:42.518043 31502 net.cpp:91] Creating Layer inception_3a/output
I0403 15:20:42.518085 31502 net.cpp:425] inception_3a/output <- inception_3a/1x1
I0403 15:20:42.518124 31502 net.cpp:425] inception_3a/output <- inception_3a/3x3
I0403 15:20:42.518167 31502 net.cpp:425] inception_3a/output <- inception_3a/5x5
I0403 15:20:42.518208 31502 net.cpp:425] inception_3a/output <- inception_3a/pool_proj
I0403 15:20:42.518241 31502 net.cpp:399] inception_3a/output -> inception_3a/output
I0403 15:20:42.518292 31502 net.cpp:141] Setting up inception_3a/output
I0403 15:20:42.518342 31502 net.cpp:148] Top shape: 24 256 28 28 (4816896)
I0403 15:20:42.518376 31502 net.cpp:156] Memory required for data: 580437024
I0403 15:20:42.518419 31502 layer_factory.hpp:77] Creating layer inception_3a/output_inception_3a/output_0_split
I0403 15:20:42.518463 31502 net.cpp:91] Creating Layer inception_3a/output_inception_3a/output_0_split
I0403 15:20:42.518484 31502 net.cpp:425] inception_3a/output_inception_3a/output_0_split <- inception_3a/output
I0403 15:20:42.518508 31502 net.cpp:399] inception_3a/output_inception_3a/output_0_split -> inception_3a/output_inception_3a/output_0_split_0
I0403 15:20:42.518544 31502 net.cpp:399] inception_3a/output_inception_3a/output_0_split -> inception_3a/output_inception_3a/output_0_split_1
I0403 15:20:42.518569 31502 net.cpp:399] inception_3a/output_inception_3a/output_0_split -> inception_3a/output_inception_3a/output_0_split_2
I0403 15:20:42.518591 31502 net.cpp:399] inception_3a/output_inception_3a/output_0_split -> inception_3a/output_inception_3a/output_0_split_3
I0403 15:20:42.518685 31502 net.cpp:141] Setting up inception_3a/output_inception_3a/output_0_split
I0403 15:20:42.518723 31502 net.cpp:148] Top shape: 24 256 28 28 (4816896)
I0403 15:20:42.518759 31502 net.cpp:148] Top shape: 24 256 28 28 (4816896)
I0403 15:20:42.518786 31502 net.cpp:148] Top shape: 24 256 28 28 (4816896)
I0403 15:20:42.518805 31502 net.cpp:148] Top shape: 24 256 28 28 (4816896)
I0403 15:20:42.518823 31502 net.cpp:156] Memory required for data: 657507360
I0403 15:20:42.518863 31502 layer_factory.hpp:77] Creating layer inception_3b/1x1
I0403 15:20:42.518887 31502 net.cpp:91] Creating Layer inception_3b/1x1
I0403 15:20:42.518905 31502 net.cpp:425] inception_3b/1x1 <- inception_3a/output_inception_3a/output_0_split_0
I0403 15:20:42.518924 31502 net.cpp:399] inception_3b/1x1 -> inception_3b/1x1
I0403 15:20:42.520033 31502 net.cpp:141] Setting up inception_3b/1x1
I0403 15:20:42.520076 31502 net.cpp:148] Top shape: 24 128 28 28 (2408448)
I0403 15:20:42.520092 31502 net.cpp:156] Memory required for data: 667141152
I0403 15:20:42.520110 31502 layer_factory.hpp:77] Creating layer inception_3b/relu_1x1
I0403 15:20:42.520133 31502 net.cpp:91] Creating Layer inception_3b/relu_1x1
I0403 15:20:42.520149 31502 net.cpp:425] inception_3b/relu_1x1 <- inception_3b/1x1
I0403 15:20:42.520167 31502 net.cpp:386] inception_3b/relu_1x1 -> inception_3b/1x1 (in-place)
I0403 15:20:42.520340 31502 net.cpp:141] Setting up inception_3b/relu_1x1
I0403 15:20:42.520367 31502 net.cpp:148] Top shape: 24 128 28 28 (2408448)
I0403 15:20:42.520382 31502 net.cpp:156] Memory required for data: 676774944
I0403 15:20:42.520398 31502 layer_factory.hpp:77] Creating layer inception_3b/3x3_reduce
I0403 15:20:42.520421 31502 net.cpp:91] Creating Layer inception_3b/3x3_reduce
I0403 15:20:42.520438 31502 net.cpp:425] inception_3b/3x3_reduce <- inception_3a/output_inception_3a/output_0_split_1
I0403 15:20:42.520458 31502 net.cpp:399] inception_3b/3x3_reduce -> inception_3b/3x3_reduce
I0403 15:20:42.521625 31502 net.cpp:141] Setting up inception_3b/3x3_reduce
I0403 15:20:42.521653 31502 net.cpp:148] Top shape: 24 128 28 28 (2408448)
I0403 15:20:42.521669 31502 net.cpp:156] Memory required for data: 686408736
I0403 15:20:42.521687 31502 layer_factory.hpp:77] Creating layer inception_3b/relu_3x3_reduce
I0403 15:20:42.521708 31502 net.cpp:91] Creating Layer inception_3b/relu_3x3_reduce
I0403 15:20:42.521724 31502 net.cpp:425] inception_3b/relu_3x3_reduce <- inception_3b/3x3_reduce
I0403 15:20:42.521740 31502 net.cpp:386] inception_3b/relu_3x3_reduce -> inception_3b/3x3_reduce (in-place)
I0403 15:20:42.521906 31502 net.cpp:141] Setting up inception_3b/relu_3x3_reduce
I0403 15:20:42.521932 31502 net.cpp:148] Top shape: 24 128 28 28 (2408448)
I0403 15:20:42.521949 31502 net.cpp:156] Memory required for data: 696042528
I0403 15:20:42.521963 31502 layer_factory.hpp:77] Creating layer inception_3b/3x3
I0403 15:20:42.521987 31502 net.cpp:91] Creating Layer inception_3b/3x3
I0403 15:20:42.522006 31502 net.cpp:425] inception_3b/3x3 <- inception_3b/3x3_reduce
I0403 15:20:42.522027 31502 net.cpp:399] inception_3b/3x3 -> inception_3b/3x3
I0403 15:20:42.524911 31502 net.cpp:141] Setting up inception_3b/3x3
I0403 15:20:42.524942 31502 net.cpp:148] Top shape: 24 192 28 28 (3612672)
I0403 15:20:42.524960 31502 net.cpp:156] Memory required for data: 710493216
I0403 15:20:42.524978 31502 layer_factory.hpp:77] Creating layer inception_3b/relu_3x3
I0403 15:20:42.524996 31502 net.cpp:91] Creating Layer inception_3b/relu_3x3
I0403 15:20:42.525012 31502 net.cpp:425] inception_3b/relu_3x3 <- inception_3b/3x3
I0403 15:20:42.525032 31502 net.cpp:386] inception_3b/relu_3x3 -> inception_3b/3x3 (in-place)
I0403 15:20:42.525306 31502 net.cpp:141] Setting up inception_3b/relu_3x3
I0403 15:20:42.525336 31502 net.cpp:148] Top shape: 24 192 28 28 (3612672)
I0403 15:20:42.525352 31502 net.cpp:156] Memory required for data: 724943904
I0403 15:20:42.525367 31502 layer_factory.hpp:77] Creating layer inception_3b/5x5_reduce
I0403 15:20:42.525390 31502 net.cpp:91] Creating Layer inception_3b/5x5_reduce
I0403 15:20:42.525409 31502 net.cpp:425] inception_3b/5x5_reduce <- inception_3a/output_inception_3a/output_0_split_2
I0403 15:20:42.525429 31502 net.cpp:399] inception_3b/5x5_reduce -> inception_3b/5x5_reduce
I0403 15:20:42.526435 31502 net.cpp:141] Setting up inception_3b/5x5_reduce
I0403 15:20:42.526466 31502 net.cpp:148] Top shape: 24 32 28 28 (602112)
I0403 15:20:42.526481 31502 net.cpp:156] Memory required for data: 727352352
I0403 15:20:42.526500 31502 layer_factory.hpp:77] Creating layer inception_3b/relu_5x5_reduce
I0403 15:20:42.526520 31502 net.cpp:91] Creating Layer inception_3b/relu_5x5_reduce
I0403 15:20:42.526535 31502 net.cpp:425] inception_3b/relu_5x5_reduce <- inception_3b/5x5_reduce
I0403 15:20:42.526554 31502 net.cpp:386] inception_3b/relu_5x5_reduce -> inception_3b/5x5_reduce (in-place)
I0403 15:20:42.526731 31502 net.cpp:141] Setting up inception_3b/relu_5x5_reduce
I0403 15:20:42.526769 31502 net.cpp:148] Top shape: 24 32 28 28 (602112)
I0403 15:20:42.526784 31502 net.cpp:156] Memory required for data: 729760800
I0403 15:20:42.526800 31502 layer_factory.hpp:77] Creating layer inception_3b/5x5
I0403 15:20:42.526824 31502 net.cpp:91] Creating Layer inception_3b/5x5
I0403 15:20:42.526842 31502 net.cpp:425] inception_3b/5x5 <- inception_3b/5x5_reduce
I0403 15:20:42.526864 31502 net.cpp:399] inception_3b/5x5 -> inception_3b/5x5
I0403 15:20:42.528998 31502 net.cpp:141] Setting up inception_3b/5x5
I0403 15:20:42.529028 31502 net.cpp:148] Top shape: 24 96 28 28 (1806336)
I0403 15:20:42.529047 31502 net.cpp:156] Memory required for data: 736986144
I0403 15:20:42.529065 31502 layer_factory.hpp:77] Creating layer inception_3b/relu_5x5
I0403 15:20:42.529103 31502 net.cpp:91] Creating Layer inception_3b/relu_5x5
I0403 15:20:42.529139 31502 net.cpp:425] inception_3b/relu_5x5 <- inception_3b/5x5
I0403 15:20:42.529170 31502 net.cpp:386] inception_3b/relu_5x5 -> inception_3b/5x5 (in-place)
I0403 15:20:42.529381 31502 net.cpp:141] Setting up inception_3b/relu_5x5
I0403 15:20:42.529407 31502 net.cpp:148] Top shape: 24 96 28 28 (1806336)
I0403 15:20:42.529422 31502 net.cpp:156] Memory required for data: 744211488
I0403 15:20:42.529438 31502 layer_factory.hpp:77] Creating layer inception_3b/pool
I0403 15:20:42.529482 31502 net.cpp:91] Creating Layer inception_3b/pool
I0403 15:20:42.529531 31502 net.cpp:425] inception_3b/pool <- inception_3a/output_inception_3a/output_0_split_3
I0403 15:20:42.529569 31502 net.cpp:399] inception_3b/pool -> inception_3b/pool
I0403 15:20:42.529652 31502 net.cpp:141] Setting up inception_3b/pool
I0403 15:20:42.529700 31502 net.cpp:148] Top shape: 24 256 28 28 (4816896)
I0403 15:20:42.529716 31502 net.cpp:156] Memory required for data: 763479072
I0403 15:20:42.529731 31502 layer_factory.hpp:77] Creating layer inception_3b/pool_proj
I0403 15:20:42.529753 31502 net.cpp:91] Creating Layer inception_3b/pool_proj
I0403 15:20:42.529788 31502 net.cpp:425] inception_3b/pool_proj <- inception_3b/pool
I0403 15:20:42.529826 31502 net.cpp:399] inception_3b/pool_proj -> inception_3b/pool_proj
I0403 15:20:42.530866 31502 net.cpp:141] Setting up inception_3b/pool_proj
I0403 15:20:42.530895 31502 net.cpp:148] Top shape: 24 64 28 28 (1204224)
I0403 15:20:42.530910 31502 net.cpp:156] Memory required for data: 768295968
I0403 15:20:42.530930 31502 layer_factory.hpp:77] Creating layer inception_3b/relu_pool_proj
I0403 15:20:42.530948 31502 net.cpp:91] Creating Layer inception_3b/relu_pool_proj
I0403 15:20:42.530966 31502 net.cpp:425] inception_3b/relu_pool_proj <- inception_3b/pool_proj
I0403 15:20:42.530984 31502 net.cpp:386] inception_3b/relu_pool_proj -> inception_3b/pool_proj (in-place)
I0403 15:20:42.531375 31502 net.cpp:141] Setting up inception_3b/relu_pool_proj
I0403 15:20:42.531402 31502 net.cpp:148] Top shape: 24 64 28 28 (1204224)
I0403 15:20:42.531419 31502 net.cpp:156] Memory required for data: 773112864
I0403 15:20:42.531433 31502 layer_factory.hpp:77] Creating layer inception_3b/output
I0403 15:20:42.531450 31502 net.cpp:91] Creating Layer inception_3b/output
I0403 15:20:42.531466 31502 net.cpp:425] inception_3b/output <- inception_3b/1x1
I0403 15:20:42.531482 31502 net.cpp:425] inception_3b/output <- inception_3b/3x3
I0403 15:20:42.531499 31502 net.cpp:425] inception_3b/output <- inception_3b/5x5
I0403 15:20:42.531515 31502 net.cpp:425] inception_3b/output <- inception_3b/pool_proj
I0403 15:20:42.531535 31502 net.cpp:399] inception_3b/output -> inception_3b/output
I0403 15:20:42.531577 31502 net.cpp:141] Setting up inception_3b/output
I0403 15:20:42.531633 31502 net.cpp:148] Top shape: 24 480 28 28 (9031680)
I0403 15:20:42.531658 31502 net.cpp:156] Memory required for data: 809239584
I0403 15:20:42.531680 31502 layer_factory.hpp:77] Creating layer pool3/3x3_s2
I0403 15:20:42.531723 31502 net.cpp:91] Creating Layer pool3/3x3_s2
I0403 15:20:42.531760 31502 net.cpp:425] pool3/3x3_s2 <- inception_3b/output
I0403 15:20:42.531806 31502 net.cpp:399] pool3/3x3_s2 -> pool3/3x3_s2
I0403 15:20:42.531906 31502 net.cpp:141] Setting up pool3/3x3_s2
I0403 15:20:42.531955 31502 net.cpp:148] Top shape: 24 480 14 14 (2257920)
I0403 15:20:42.531997 31502 net.cpp:156] Memory required for data: 818271264
I0403 15:20:42.532044 31502 layer_factory.hpp:77] Creating layer pool3/3x3_s2_pool3/3x3_s2_0_split
I0403 15:20:42.532094 31502 net.cpp:91] Creating Layer pool3/3x3_s2_pool3/3x3_s2_0_split
I0403 15:20:42.532130 31502 net.cpp:425] pool3/3x3_s2_pool3/3x3_s2_0_split <- pool3/3x3_s2
I0403 15:20:42.532171 31502 net.cpp:399] pool3/3x3_s2_pool3/3x3_s2_0_split -> pool3/3x3_s2_pool3/3x3_s2_0_split_0
I0403 15:20:42.532212 31502 net.cpp:399] pool3/3x3_s2_pool3/3x3_s2_0_split -> pool3/3x3_s2_pool3/3x3_s2_0_split_1
I0403 15:20:42.532254 31502 net.cpp:399] pool3/3x3_s2_pool3/3x3_s2_0_split -> pool3/3x3_s2_pool3/3x3_s2_0_split_2
I0403 15:20:42.532299 31502 net.cpp:399] pool3/3x3_s2_pool3/3x3_s2_0_split -> pool3/3x3_s2_pool3/3x3_s2_0_split_3
I0403 15:20:42.532400 31502 net.cpp:141] Setting up pool3/3x3_s2_pool3/3x3_s2_0_split
I0403 15:20:42.532424 31502 net.cpp:148] Top shape: 24 480 14 14 (2257920)
I0403 15:20:42.532440 31502 net.cpp:148] Top shape: 24 480 14 14 (2257920)
I0403 15:20:42.532479 31502 net.cpp:148] Top shape: 24 480 14 14 (2257920)
I0403 15:20:42.532516 31502 net.cpp:148] Top shape: 24 480 14 14 (2257920)
I0403 15:20:42.532542 31502 net.cpp:156] Memory required for data: 854397984
I0403 15:20:42.532559 31502 layer_factory.hpp:77] Creating layer inception_4a/1x1
I0403 15:20:42.532596 31502 net.cpp:91] Creating Layer inception_4a/1x1
I0403 15:20:42.532635 31502 net.cpp:425] inception_4a/1x1 <- pool3/3x3_s2_pool3/3x3_s2_0_split_0
I0403 15:20:42.532683 31502 net.cpp:399] inception_4a/1x1 -> inception_4a/1x1
I0403 15:20:42.534200 31502 net.cpp:141] Setting up inception_4a/1x1
I0403 15:20:42.534229 31502 net.cpp:148] Top shape: 24 192 14 14 (903168)
I0403 15:20:42.534245 31502 net.cpp:156] Memory required for data: 858010656
I0403 15:20:42.534265 31502 layer_factory.hpp:77] Creating layer inception_4a/relu_1x1
I0403 15:20:42.534294 31502 net.cpp:91] Creating Layer inception_4a/relu_1x1
I0403 15:20:42.534315 31502 net.cpp:425] inception_4a/relu_1x1 <- inception_4a/1x1
I0403 15:20:42.534333 31502 net.cpp:386] inception_4a/relu_1x1 -> inception_4a/1x1 (in-place)
I0403 15:20:42.534502 31502 net.cpp:141] Setting up inception_4a/relu_1x1
I0403 15:20:42.534539 31502 net.cpp:148] Top shape: 24 192 14 14 (903168)
I0403 15:20:42.534561 31502 net.cpp:156] Memory required for data: 861623328
I0403 15:20:42.534606 31502 layer_factory.hpp:77] Creating layer inception_4a/3x3_reduce
I0403 15:20:42.534649 31502 net.cpp:91] Creating Layer inception_4a/3x3_reduce
I0403 15:20:42.534694 31502 net.cpp:425] inception_4a/3x3_reduce <- pool3/3x3_s2_pool3/3x3_s2_0_split_1
I0403 15:20:42.534747 31502 net.cpp:399] inception_4a/3x3_reduce -> inception_4a/3x3_reduce
I0403 15:20:42.536041 31502 net.cpp:141] Setting up inception_4a/3x3_reduce
I0403 15:20:42.536070 31502 net.cpp:148] Top shape: 24 96 14 14 (451584)
I0403 15:20:42.536087 31502 net.cpp:156] Memory required for data: 863429664
I0403 15:20:42.536113 31502 layer_factory.hpp:77] Creating layer inception_4a/relu_3x3_reduce
I0403 15:20:42.536133 31502 net.cpp:91] Creating Layer inception_4a/relu_3x3_reduce
I0403 15:20:42.536149 31502 net.cpp:425] inception_4a/relu_3x3_reduce <- inception_4a/3x3_reduce
I0403 15:20:42.536170 31502 net.cpp:386] inception_4a/relu_3x3_reduce -> inception_4a/3x3_reduce (in-place)
I0403 15:20:42.536345 31502 net.cpp:141] Setting up inception_4a/relu_3x3_reduce
I0403 15:20:42.536370 31502 net.cpp:148] Top shape: 24 96 14 14 (451584)
I0403 15:20:42.536384 31502 net.cpp:156] Memory required for data: 865236000
I0403 15:20:42.536401 31502 layer_factory.hpp:77] Creating layer inception_4a/3x3
I0403 15:20:42.536422 31502 net.cpp:91] Creating Layer inception_4a/3x3
I0403 15:20:42.536440 31502 net.cpp:425] inception_4a/3x3 <- inception_4a/3x3_reduce
I0403 15:20:42.536463 31502 net.cpp:399] inception_4a/3x3 -> inception_4a/3x3
I0403 15:20:42.539304 31502 net.cpp:141] Setting up inception_4a/3x3
I0403 15:20:42.539333 31502 net.cpp:148] Top shape: 24 208 14 14 (978432)
I0403 15:20:42.539350 31502 net.cpp:156] Memory required for data: 869149728
I0403 15:20:42.539369 31502 layer_factory.hpp:77] Creating layer inception_4a/relu_3x3
I0403 15:20:42.539391 31502 net.cpp:91] Creating Layer inception_4a/relu_3x3
I0403 15:20:42.539409 31502 net.cpp:425] inception_4a/relu_3x3 <- inception_4a/3x3
I0403 15:20:42.539427 31502 net.cpp:386] inception_4a/relu_3x3 -> inception_4a/3x3 (in-place)
I0403 15:20:42.539712 31502 net.cpp:141] Setting up inception_4a/relu_3x3
I0403 15:20:42.539741 31502 net.cpp:148] Top shape: 24 208 14 14 (978432)
I0403 15:20:42.539757 31502 net.cpp:156] Memory required for data: 873063456
I0403 15:20:42.539772 31502 layer_factory.hpp:77] Creating layer inception_4a/5x5_reduce
I0403 15:20:42.539798 31502 net.cpp:91] Creating Layer inception_4a/5x5_reduce
I0403 15:20:42.539816 31502 net.cpp:425] inception_4a/5x5_reduce <- pool3/3x3_s2_pool3/3x3_s2_0_split_2
I0403 15:20:42.539836 31502 net.cpp:399] inception_4a/5x5_reduce -> inception_4a/5x5_reduce
I0403 15:20:42.540834 31502 net.cpp:141] Setting up inception_4a/5x5_reduce
I0403 15:20:42.540864 31502 net.cpp:148] Top shape: 24 16 14 14 (75264)
I0403 15:20:42.540880 31502 net.cpp:156] Memory required for data: 873364512
I0403 15:20:42.540899 31502 layer_factory.hpp:77] Creating layer inception_4a/relu_5x5_reduce
I0403 15:20:42.540918 31502 net.cpp:91] Creating Layer inception_4a/relu_5x5_reduce
I0403 15:20:42.540935 31502 net.cpp:425] inception_4a/relu_5x5_reduce <- inception_4a/5x5_reduce
I0403 15:20:42.540954 31502 net.cpp:386] inception_4a/relu_5x5_reduce -> inception_4a/5x5_reduce (in-place)
I0403 15:20:42.541123 31502 net.cpp:141] Setting up inception_4a/relu_5x5_reduce
I0403 15:20:42.541148 31502 net.cpp:148] Top shape: 24 16 14 14 (75264)
I0403 15:20:42.541164 31502 net.cpp:156] Memory required for data: 873665568
I0403 15:20:42.541179 31502 layer_factory.hpp:77] Creating layer inception_4a/5x5
I0403 15:20:42.541201 31502 net.cpp:91] Creating Layer inception_4a/5x5
I0403 15:20:42.541218 31502 net.cpp:425] inception_4a/5x5 <- inception_4a/5x5_reduce
I0403 15:20:42.541239 31502 net.cpp:399] inception_4a/5x5 -> inception_4a/5x5
I0403 15:20:42.542286 31502 net.cpp:141] Setting up inception_4a/5x5
I0403 15:20:42.542315 31502 net.cpp:148] Top shape: 24 48 14 14 (225792)
I0403 15:20:42.542330 31502 net.cpp:156] Memory required for data: 874568736
I0403 15:20:42.542349 31502 layer_factory.hpp:77] Creating layer inception_4a/relu_5x5
I0403 15:20:42.542367 31502 net.cpp:91] Creating Layer inception_4a/relu_5x5
I0403 15:20:42.542387 31502 net.cpp:425] inception_4a/relu_5x5 <- inception_4a/5x5
I0403 15:20:42.542404 31502 net.cpp:386] inception_4a/relu_5x5 -> inception_4a/5x5 (in-place)
I0403 15:20:42.542577 31502 net.cpp:141] Setting up inception_4a/relu_5x5
I0403 15:20:42.542603 31502 net.cpp:148] Top shape: 24 48 14 14 (225792)
I0403 15:20:42.542630 31502 net.cpp:156] Memory required for data: 875471904
I0403 15:20:42.542646 31502 layer_factory.hpp:77] Creating layer inception_4a/pool
I0403 15:20:42.542667 31502 net.cpp:91] Creating Layer inception_4a/pool
I0403 15:20:42.542683 31502 net.cpp:425] inception_4a/pool <- pool3/3x3_s2_pool3/3x3_s2_0_split_3
I0403 15:20:42.542702 31502 net.cpp:399] inception_4a/pool -> inception_4a/pool
I0403 15:20:42.542765 31502 net.cpp:141] Setting up inception_4a/pool
I0403 15:20:42.542790 31502 net.cpp:148] Top shape: 24 480 14 14 (2257920)
I0403 15:20:42.542805 31502 net.cpp:156] Memory required for data: 884503584
I0403 15:20:42.542821 31502 layer_factory.hpp:77] Creating layer inception_4a/pool_proj
I0403 15:20:42.542845 31502 net.cpp:91] Creating Layer inception_4a/pool_proj
I0403 15:20:42.542862 31502 net.cpp:425] inception_4a/pool_proj <- inception_4a/pool
I0403 15:20:42.542883 31502 net.cpp:399] inception_4a/pool_proj -> inception_4a/pool_proj
I0403 15:20:42.544049 31502 net.cpp:141] Setting up inception_4a/pool_proj
I0403 15:20:42.544076 31502 net.cpp:148] Top shape: 24 64 14 14 (301056)
I0403 15:20:42.544106 31502 net.cpp:156] Memory required for data: 885707808
I0403 15:20:42.544126 31502 layer_factory.hpp:77] Creating layer inception_4a/relu_pool_proj
I0403 15:20:42.544147 31502 net.cpp:91] Creating Layer inception_4a/relu_pool_proj
I0403 15:20:42.544165 31502 net.cpp:425] inception_4a/relu_pool_proj <- inception_4a/pool_proj
I0403 15:20:42.544183 31502 net.cpp:386] inception_4a/relu_pool_proj -> inception_4a/pool_proj (in-place)
I0403 15:20:42.544466 31502 net.cpp:141] Setting up inception_4a/relu_pool_proj
I0403 15:20:42.544492 31502 net.cpp:148] Top shape: 24 64 14 14 (301056)
I0403 15:20:42.544507 31502 net.cpp:156] Memory required for data: 886912032
I0403 15:20:42.544523 31502 layer_factory.hpp:77] Creating layer inception_4a/output
I0403 15:20:42.544539 31502 net.cpp:91] Creating Layer inception_4a/output
I0403 15:20:42.544556 31502 net.cpp:425] inception_4a/output <- inception_4a/1x1
I0403 15:20:42.544579 31502 net.cpp:425] inception_4a/output <- inception_4a/3x3
I0403 15:20:42.544595 31502 net.cpp:425] inception_4a/output <- inception_4a/5x5
I0403 15:20:42.544611 31502 net.cpp:425] inception_4a/output <- inception_4a/pool_proj
I0403 15:20:42.544627 31502 net.cpp:399] inception_4a/output -> inception_4a/output
I0403 15:20:42.544670 31502 net.cpp:141] Setting up inception_4a/output
I0403 15:20:42.544695 31502 net.cpp:148] Top shape: 24 512 14 14 (2408448)
I0403 15:20:42.544711 31502 net.cpp:156] Memory required for data: 896545824
I0403 15:20:42.544726 31502 layer_factory.hpp:77] Creating layer inception_4a/output_inception_4a/output_0_split
I0403 15:20:42.544744 31502 net.cpp:91] Creating Layer inception_4a/output_inception_4a/output_0_split
I0403 15:20:42.544759 31502 net.cpp:425] inception_4a/output_inception_4a/output_0_split <- inception_4a/output
I0403 15:20:42.544780 31502 net.cpp:399] inception_4a/output_inception_4a/output_0_split -> inception_4a/output_inception_4a/output_0_split_0
I0403 15:20:42.544800 31502 net.cpp:399] inception_4a/output_inception_4a/output_0_split -> inception_4a/output_inception_4a/output_0_split_1
I0403 15:20:42.544822 31502 net.cpp:399] inception_4a/output_inception_4a/output_0_split -> inception_4a/output_inception_4a/output_0_split_2
I0403 15:20:42.544843 31502 net.cpp:399] inception_4a/output_inception_4a/output_0_split -> inception_4a/output_inception_4a/output_0_split_3
I0403 15:20:42.544863 31502 net.cpp:399] inception_4a/output_inception_4a/output_0_split -> inception_4a/output_inception_4a/output_0_split_4
I0403 15:20:42.544952 31502 net.cpp:141] Setting up inception_4a/output_inception_4a/output_0_split
I0403 15:20:42.544975 31502 net.cpp:148] Top shape: 24 512 14 14 (2408448)
I0403 15:20:42.544994 31502 net.cpp:148] Top shape: 24 512 14 14 (2408448)
I0403 15:20:42.545011 31502 net.cpp:148] Top shape: 24 512 14 14 (2408448)
I0403 15:20:42.545028 31502 net.cpp:148] Top shape: 24 512 14 14 (2408448)
I0403 15:20:42.545044 31502 net.cpp:148] Top shape: 24 512 14 14 (2408448)
I0403 15:20:42.545058 31502 net.cpp:156] Memory required for data: 944714784
I0403 15:20:42.545073 31502 layer_factory.hpp:77] Creating layer loss1/ave_pool
I0403 15:20:42.545089 31502 net.cpp:91] Creating Layer loss1/ave_pool
I0403 15:20:42.545105 31502 net.cpp:425] loss1/ave_pool <- inception_4a/output_inception_4a/output_0_split_0
I0403 15:20:42.545126 31502 net.cpp:399] loss1/ave_pool -> loss1/ave_pool
I0403 15:20:42.545331 31502 net.cpp:141] Setting up loss1/ave_pool
I0403 15:20:42.545357 31502 net.cpp:148] Top shape: 24 512 4 4 (196608)
I0403 15:20:42.545372 31502 net.cpp:156] Memory required for data: 945501216
I0403 15:20:42.545387 31502 layer_factory.hpp:77] Creating layer loss1/conv
I0403 15:20:42.545409 31502 net.cpp:91] Creating Layer loss1/conv
I0403 15:20:42.545428 31502 net.cpp:425] loss1/conv <- loss1/ave_pool
I0403 15:20:42.545449 31502 net.cpp:399] loss1/conv -> loss1/conv
I0403 15:20:42.546809 31502 net.cpp:141] Setting up loss1/conv
I0403 15:20:42.546838 31502 net.cpp:148] Top shape: 24 128 4 4 (49152)
I0403 15:20:42.546852 31502 net.cpp:156] Memory required for data: 945697824
I0403 15:20:42.546885 31502 layer_factory.hpp:77] Creating layer loss1/relu_conv
I0403 15:20:42.546907 31502 net.cpp:91] Creating Layer loss1/relu_conv
I0403 15:20:42.546924 31502 net.cpp:425] loss1/relu_conv <- loss1/conv
I0403 15:20:42.546942 31502 net.cpp:386] loss1/relu_conv -> loss1/conv (in-place)
I0403 15:20:42.547220 31502 net.cpp:141] Setting up loss1/relu_conv
I0403 15:20:42.547247 31502 net.cpp:148] Top shape: 24 128 4 4 (49152)
I0403 15:20:42.547261 31502 net.cpp:156] Memory required for data: 945894432
I0403 15:20:42.547277 31502 layer_factory.hpp:77] Creating layer loss1/fc
I0403 15:20:42.547307 31502 net.cpp:91] Creating Layer loss1/fc
I0403 15:20:42.547327 31502 net.cpp:425] loss1/fc <- loss1/conv
I0403 15:20:42.547348 31502 net.cpp:399] loss1/fc -> loss1/fc
I0403 15:20:42.565167 31502 net.cpp:141] Setting up loss1/fc
I0403 15:20:42.565220 31502 net.cpp:148] Top shape: 24 1024 (24576)
I0403 15:20:42.565259 31502 net.cpp:156] Memory required for data: 945992736
I0403 15:20:42.565310 31502 layer_factory.hpp:77] Creating layer loss1/relu_fc
I0403 15:20:42.565351 31502 net.cpp:91] Creating Layer loss1/relu_fc
I0403 15:20:42.565376 31502 net.cpp:425] loss1/relu_fc <- loss1/fc
I0403 15:20:42.565404 31502 net.cpp:386] loss1/relu_fc -> loss1/fc (in-place)
I0403 15:20:42.565613 31502 net.cpp:141] Setting up loss1/relu_fc
I0403 15:20:42.565641 31502 net.cpp:148] Top shape: 24 1024 (24576)
I0403 15:20:42.565659 31502 net.cpp:156] Memory required for data: 946091040
I0403 15:20:42.565673 31502 layer_factory.hpp:77] Creating layer loss1/drop_fc
I0403 15:20:42.565702 31502 net.cpp:91] Creating Layer loss1/drop_fc
I0403 15:20:42.565727 31502 net.cpp:425] loss1/drop_fc <- loss1/fc
I0403 15:20:42.565774 31502 net.cpp:386] loss1/drop_fc -> loss1/fc (in-place)
I0403 15:20:42.565848 31502 net.cpp:141] Setting up loss1/drop_fc
I0403 15:20:42.565877 31502 net.cpp:148] Top shape: 24 1024 (24576)
I0403 15:20:42.565893 31502 net.cpp:156] Memory required for data: 946189344
I0403 15:20:42.565908 31502 layer_factory.hpp:77] Creating layer loss1/classifier_plantvillage
I0403 15:20:42.565928 31502 net.cpp:91] Creating Layer loss1/classifier_plantvillage
I0403 15:20:42.565961 31502 net.cpp:425] loss1/classifier_plantvillage <- loss1/fc
I0403 15:20:42.565999 31502 net.cpp:399] loss1/classifier_plantvillage -> loss1/classifier_plantvillage
I0403 15:20:42.566985 31502 net.cpp:141] Setting up loss1/classifier_plantvillage
I0403 15:20:42.567015 31502 net.cpp:148] Top shape: 24 38 (912)
I0403 15:20:42.567044 31502 net.cpp:156] Memory required for data: 946192992
I0403 15:20:42.567061 31502 layer_factory.hpp:77] Creating layer loss1/classifier_plantvillage_loss1/classifier_plantvillage_0_split
I0403 15:20:42.567082 31502 net.cpp:91] Creating Layer loss1/classifier_plantvillage_loss1/classifier_plantvillage_0_split
I0403 15:20:42.567100 31502 net.cpp:425] loss1/classifier_plantvillage_loss1/classifier_plantvillage_0_split <- loss1/classifier_plantvillage
I0403 15:20:42.567118 31502 net.cpp:399] loss1/classifier_plantvillage_loss1/classifier_plantvillage_0_split -> loss1/classifier_plantvillage_loss1/classifier_plantvillage_0_split_0
I0403 15:20:42.567139 31502 net.cpp:399] loss1/classifier_plantvillage_loss1/classifier_plantvillage_0_split -> loss1/classifier_plantvillage_loss1/classifier_plantvillage_0_split_1
I0403 15:20:42.567159 31502 net.cpp:399] loss1/classifier_plantvillage_loss1/classifier_plantvillage_0_split -> loss1/classifier_plantvillage_loss1/classifier_plantvillage_0_split_2
I0403 15:20:42.567229 31502 net.cpp:141] Setting up loss1/classifier_plantvillage_loss1/classifier_plantvillage_0_split
I0403 15:20:42.567252 31502 net.cpp:148] Top shape: 24 38 (912)
I0403 15:20:42.567270 31502 net.cpp:148] Top shape: 24 38 (912)
I0403 15:20:42.567291 31502 net.cpp:148] Top shape: 24 38 (912)
I0403 15:20:42.567306 31502 net.cpp:156] Memory required for data: 946203936
I0403 15:20:42.567322 31502 layer_factory.hpp:77] Creating layer inception_4b/1x1
I0403 15:20:42.567347 31502 net.cpp:91] Creating Layer inception_4b/1x1
I0403 15:20:42.567406 31502 net.cpp:425] inception_4b/1x1 <- inception_4a/output_inception_4a/output_0_split_1
I0403 15:20:42.567450 31502 net.cpp:399] inception_4b/1x1 -> inception_4b/1x1
I0403 15:20:42.569224 31502 net.cpp:141] Setting up inception_4b/1x1
I0403 15:20:42.569254 31502 net.cpp:148] Top shape: 24 160 14 14 (752640)
I0403 15:20:42.569270 31502 net.cpp:156] Memory required for data: 949214496
I0403 15:20:42.569294 31502 layer_factory.hpp:77] Creating layer inception_4b/relu_1x1
I0403 15:20:42.569319 31502 net.cpp:91] Creating Layer inception_4b/relu_1x1
I0403 15:20:42.569335 31502 net.cpp:425] inception_4b/relu_1x1 <- inception_4b/1x1
I0403 15:20:42.569355 31502 net.cpp:386] inception_4b/relu_1x1 -> inception_4b/1x1 (in-place)
I0403 15:20:42.569536 31502 net.cpp:141] Setting up inception_4b/relu_1x1
I0403 15:20:42.569563 31502 net.cpp:148] Top shape: 24 160 14 14 (752640)
I0403 15:20:42.569578 31502 net.cpp:156] Memory required for data: 952225056
I0403 15:20:42.569594 31502 layer_factory.hpp:77] Creating layer inception_4b/3x3_reduce
I0403 15:20:42.569619 31502 net.cpp:91] Creating Layer inception_4b/3x3_reduce
I0403 15:20:42.569638 31502 net.cpp:425] inception_4b/3x3_reduce <- inception_4a/output_inception_4a/output_0_split_2
I0403 15:20:42.569659 31502 net.cpp:399] inception_4b/3x3_reduce -> inception_4b/3x3_reduce
I0403 15:20:42.571008 31502 net.cpp:141] Setting up inception_4b/3x3_reduce
I0403 15:20:42.571038 31502 net.cpp:148] Top shape: 24 112 14 14 (526848)
I0403 15:20:42.571053 31502 net.cpp:156] Memory required for data: 954332448
I0403 15:20:42.571074 31502 layer_factory.hpp:77] Creating layer inception_4b/relu_3x3_reduce
I0403 15:20:42.571092 31502 net.cpp:91] Creating Layer inception_4b/relu_3x3_reduce
I0403 15:20:42.571111 31502 net.cpp:425] inception_4b/relu_3x3_reduce <- inception_4b/3x3_reduce
I0403 15:20:42.571131 31502 net.cpp:386] inception_4b/relu_3x3_reduce -> inception_4b/3x3_reduce (in-place)
I0403 15:20:42.571418 31502 net.cpp:141] Setting up inception_4b/relu_3x3_reduce
I0403 15:20:42.571444 31502 net.cpp:148] Top shape: 24 112 14 14 (526848)
I0403 15:20:42.571460 31502 net.cpp:156] Memory required for data: 956439840
I0403 15:20:42.571475 31502 layer_factory.hpp:77] Creating layer inception_4b/3x3
I0403 15:20:42.571497 31502 net.cpp:91] Creating Layer inception_4b/3x3
I0403 15:20:42.571516 31502 net.cpp:425] inception_4b/3x3 <- inception_4b/3x3_reduce
I0403 15:20:42.571538 31502 net.cpp:399] inception_4b/3x3 -> inception_4b/3x3
I0403 15:20:42.574553 31502 net.cpp:141] Setting up inception_4b/3x3
I0403 15:20:42.574585 31502 net.cpp:148] Top shape: 24 224 14 14 (1053696)
I0403 15:20:42.574602 31502 net.cpp:156] Memory required for data: 960654624
I0403 15:20:42.574622 31502 layer_factory.hpp:77] Creating layer inception_4b/relu_3x3
I0403 15:20:42.574643 31502 net.cpp:91] Creating Layer inception_4b/relu_3x3
I0403 15:20:42.574663 31502 net.cpp:425] inception_4b/relu_3x3 <- inception_4b/3x3
I0403 15:20:42.574681 31502 net.cpp:386] inception_4b/relu_3x3 -> inception_4b/3x3 (in-place)
I0403 15:20:42.574864 31502 net.cpp:141] Setting up inception_4b/relu_3x3
I0403 15:20:42.574892 31502 net.cpp:148] Top shape: 24 224 14 14 (1053696)
I0403 15:20:42.574908 31502 net.cpp:156] Memory required for data: 964869408
I0403 15:20:42.574925 31502 layer_factory.hpp:77] Creating layer inception_4b/5x5_reduce
I0403 15:20:42.574949 31502 net.cpp:91] Creating Layer inception_4b/5x5_reduce
I0403 15:20:42.574966 31502 net.cpp:425] inception_4b/5x5_reduce <- inception_4a/output_inception_4a/output_0_split_3
I0403 15:20:42.574988 31502 net.cpp:399] inception_4b/5x5_reduce -> inception_4b/5x5_reduce
I0403 15:20:42.576187 31502 net.cpp:141] Setting up inception_4b/5x5_reduce
I0403 15:20:42.576220 31502 net.cpp:148] Top shape: 24 24 14 14 (112896)
I0403 15:20:42.576236 31502 net.cpp:156] Memory required for data: 965320992
I0403 15:20:42.576256 31502 layer_factory.hpp:77] Creating layer inception_4b/relu_5x5_reduce
I0403 15:20:42.576275 31502 net.cpp:91] Creating Layer inception_4b/relu_5x5_reduce
I0403 15:20:42.576313 31502 net.cpp:425] inception_4b/relu_5x5_reduce <- inception_4b/5x5_reduce
I0403 15:20:42.576354 31502 net.cpp:386] inception_4b/relu_5x5_reduce -> inception_4b/5x5_reduce (in-place)
I0403 15:20:42.576565 31502 net.cpp:141] Setting up inception_4b/relu_5x5_reduce
I0403 15:20:42.576591 31502 net.cpp:148] Top shape: 24 24 14 14 (112896)
I0403 15:20:42.576607 31502 net.cpp:156] Memory required for data: 965772576
I0403 15:20:42.576623 31502 layer_factory.hpp:77] Creating layer inception_4b/5x5
I0403 15:20:42.576647 31502 net.cpp:91] Creating Layer inception_4b/5x5
I0403 15:20:42.576664 31502 net.cpp:425] inception_4b/5x5 <- inception_4b/5x5_reduce
I0403 15:20:42.576688 31502 net.cpp:399] inception_4b/5x5 -> inception_4b/5x5
I0403 15:20:42.578016 31502 net.cpp:141] Setting up inception_4b/5x5
I0403 15:20:42.578050 31502 net.cpp:148] Top shape: 24 64 14 14 (301056)
I0403 15:20:42.578068 31502 net.cpp:156] Memory required for data: 966976800
I0403 15:20:42.578100 31502 layer_factory.hpp:77] Creating layer inception_4b/relu_5x5
I0403 15:20:42.578125 31502 net.cpp:91] Creating Layer inception_4b/relu_5x5
I0403 15:20:42.578150 31502 net.cpp:425] inception_4b/relu_5x5 <- inception_4b/5x5
I0403 15:20:42.578181 31502 net.cpp:386] inception_4b/relu_5x5 -> inception_4b/5x5 (in-place)
I0403 15:20:42.578490 31502 net.cpp:141] Setting up inception_4b/relu_5x5
I0403 15:20:42.578528 31502 net.cpp:148] Top shape: 24 64 14 14 (301056)
I0403 15:20:42.578564 31502 net.cpp:156] Memory required for data: 968181024
I0403 15:20:42.578579 31502 layer_factory.hpp:77] Creating layer inception_4b/pool
I0403 15:20:42.578601 31502 net.cpp:91] Creating Layer inception_4b/pool
I0403 15:20:42.578619 31502 net.cpp:425] inception_4b/pool <- inception_4a/output_inception_4a/output_0_split_4
I0403 15:20:42.578641 31502 net.cpp:399] inception_4b/pool -> inception_4b/pool
I0403 15:20:42.578706 31502 net.cpp:141] Setting up inception_4b/pool
I0403 15:20:42.578730 31502 net.cpp:148] Top shape: 24 512 14 14 (2408448)
I0403 15:20:42.578747 31502 net.cpp:156] Memory required for data: 977814816
I0403 15:20:42.578761 31502 layer_factory.hpp:77] Creating layer inception_4b/pool_proj
I0403 15:20:42.578784 31502 net.cpp:91] Creating Layer inception_4b/pool_proj
I0403 15:20:42.578802 31502 net.cpp:425] inception_4b/pool_proj <- inception_4b/pool
I0403 15:20:42.578824 31502 net.cpp:399] inception_4b/pool_proj -> inception_4b/pool_proj
I0403 15:20:42.580070 31502 net.cpp:141] Setting up inception_4b/pool_proj
I0403 15:20:42.580101 31502 net.cpp:148] Top shape: 24 64 14 14 (301056)
I0403 15:20:42.580118 31502 net.cpp:156] Memory required for data: 979019040
I0403 15:20:42.580137 31502 layer_factory.hpp:77] Creating layer inception_4b/relu_pool_proj
I0403 15:20:42.580157 31502 net.cpp:91] Creating Layer inception_4b/relu_pool_proj
I0403 15:20:42.580174 31502 net.cpp:425] inception_4b/relu_pool_proj <- inception_4b/pool_proj
I0403 15:20:42.580195 31502 net.cpp:386] inception_4b/relu_pool_proj -> inception_4b/pool_proj (in-place)
I0403 15:20:42.580379 31502 net.cpp:141] Setting up inception_4b/relu_pool_proj
I0403 15:20:42.580405 31502 net.cpp:148] Top shape: 24 64 14 14 (301056)
I0403 15:20:42.580451 31502 net.cpp:156] Memory required for data: 980223264
I0403 15:20:42.580485 31502 layer_factory.hpp:77] Creating layer inception_4b/output
I0403 15:20:42.580533 31502 net.cpp:91] Creating Layer inception_4b/output
I0403 15:20:42.580577 31502 net.cpp:425] inception_4b/output <- inception_4b/1x1
I0403 15:20:42.580596 31502 net.cpp:425] inception_4b/output <- inception_4b/3x3
I0403 15:20:42.580617 31502 net.cpp:425] inception_4b/output <- inception_4b/5x5
I0403 15:20:42.580636 31502 net.cpp:425] inception_4b/output <- inception_4b/pool_proj
I0403 15:20:42.580680 31502 net.cpp:399] inception_4b/output -> inception_4b/output
I0403 15:20:42.580726 31502 net.cpp:141] Setting up inception_4b/output
I0403 15:20:42.580752 31502 net.cpp:148] Top shape: 24 512 14 14 (2408448)
I0403 15:20:42.580768 31502 net.cpp:156] Memory required for data: 989857056
I0403 15:20:42.580798 31502 layer_factory.hpp:77] Creating layer inception_4b/output_inception_4b/output_0_split
I0403 15:20:42.580817 31502 net.cpp:91] Creating Layer inception_4b/output_inception_4b/output_0_split
I0403 15:20:42.580834 31502 net.cpp:425] inception_4b/output_inception_4b/output_0_split <- inception_4b/output
I0403 15:20:42.580852 31502 net.cpp:399] inception_4b/output_inception_4b/output_0_split -> inception_4b/output_inception_4b/output_0_split_0
I0403 15:20:42.580875 31502 net.cpp:399] inception_4b/output_inception_4b/output_0_split -> inception_4b/output_inception_4b/output_0_split_1
I0403 15:20:42.580898 31502 net.cpp:399] inception_4b/output_inception_4b/output_0_split -> inception_4b/output_inception_4b/output_0_split_2
I0403 15:20:42.580917 31502 net.cpp:399] inception_4b/output_inception_4b/output_0_split -> inception_4b/output_inception_4b/output_0_split_3
I0403 15:20:42.581002 31502 net.cpp:141] Setting up inception_4b/output_inception_4b/output_0_split
I0403 15:20:42.581027 31502 net.cpp:148] Top shape: 24 512 14 14 (2408448)
I0403 15:20:42.581044 31502 net.cpp:148] Top shape: 24 512 14 14 (2408448)
I0403 15:20:42.581060 31502 net.cpp:148] Top shape: 24 512 14 14 (2408448)
I0403 15:20:42.581076 31502 net.cpp:148] Top shape: 24 512 14 14 (2408448)
I0403 15:20:42.581090 31502 net.cpp:156] Memory required for data: 1028392224
I0403 15:20:42.581105 31502 layer_factory.hpp:77] Creating layer inception_4c/1x1
I0403 15:20:42.581130 31502 net.cpp:91] Creating Layer inception_4c/1x1
I0403 15:20:42.581147 31502 net.cpp:425] inception_4c/1x1 <- inception_4b/output_inception_4b/output_0_split_0
I0403 15:20:42.581166 31502 net.cpp:399] inception_4c/1x1 -> inception_4c/1x1
I0403 15:20:42.582665 31502 net.cpp:141] Setting up inception_4c/1x1
I0403 15:20:42.582695 31502 net.cpp:148] Top shape: 24 128 14 14 (602112)
I0403 15:20:42.582710 31502 net.cpp:156] Memory required for data: 1030800672
I0403 15:20:42.582752 31502 layer_factory.hpp:77] Creating layer inception_4c/relu_1x1
I0403 15:20:42.582790 31502 net.cpp:91] Creating Layer inception_4c/relu_1x1
I0403 15:20:42.582824 31502 net.cpp:425] inception_4c/relu_1x1 <- inception_4c/1x1
I0403 15:20:42.582864 31502 net.cpp:386] inception_4c/relu_1x1 -> inception_4c/1x1 (in-place)
I0403 15:20:42.583061 31502 net.cpp:141] Setting up inception_4c/relu_1x1
I0403 15:20:42.583088 31502 net.cpp:148] Top shape: 24 128 14 14 (602112)
I0403 15:20:42.583103 31502 net.cpp:156] Memory required for data: 1033209120
I0403 15:20:42.583119 31502 layer_factory.hpp:77] Creating layer inception_4c/3x3_reduce
I0403 15:20:42.583142 31502 net.cpp:91] Creating Layer inception_4c/3x3_reduce
I0403 15:20:42.583160 31502 net.cpp:425] inception_4c/3x3_reduce <- inception_4b/output_inception_4b/output_0_split_1
I0403 15:20:42.583181 31502 net.cpp:399] inception_4c/3x3_reduce -> inception_4c/3x3_reduce
I0403 15:20:42.585137 31502 net.cpp:141] Setting up inception_4c/3x3_reduce
I0403 15:20:42.585170 31502 net.cpp:148] Top shape: 24 128 14 14 (602112)
I0403 15:20:42.585186 31502 net.cpp:156] Memory required for data: 1035617568
I0403 15:20:42.585206 31502 layer_factory.hpp:77] Creating layer inception_4c/relu_3x3_reduce
I0403 15:20:42.585224 31502 net.cpp:91] Creating Layer inception_4c/relu_3x3_reduce
I0403 15:20:42.585242 31502 net.cpp:425] inception_4c/relu_3x3_reduce <- inception_4c/3x3_reduce
I0403 15:20:42.585261 31502 net.cpp:386] inception_4c/relu_3x3_reduce -> inception_4c/3x3_reduce (in-place)
I0403 15:20:42.585551 31502 net.cpp:141] Setting up inception_4c/relu_3x3_reduce
I0403 15:20:42.585582 31502 net.cpp:148] Top shape: 24 128 14 14 (602112)
I0403 15:20:42.585598 31502 net.cpp:156] Memory required for data: 1038026016
I0403 15:20:42.585614 31502 layer_factory.hpp:77] Creating layer inception_4c/3x3
I0403 15:20:42.585634 31502 net.cpp:91] Creating Layer inception_4c/3x3
I0403 15:20:42.585651 31502 net.cpp:425] inception_4c/3x3 <- inception_4c/3x3_reduce
I0403 15:20:42.585675 31502 net.cpp:399] inception_4c/3x3 -> inception_4c/3x3
I0403 15:20:42.589367 31502 net.cpp:141] Setting up inception_4c/3x3
I0403 15:20:42.589414 31502 net.cpp:148] Top shape: 24 256 14 14 (1204224)
I0403 15:20:42.589432 31502 net.cpp:156] Memory required for data: 1042842912
I0403 15:20:42.589468 31502 layer_factory.hpp:77] Creating layer inception_4c/relu_3x3
I0403 15:20:42.589489 31502 net.cpp:91] Creating Layer inception_4c/relu_3x3
I0403 15:20:42.589507 31502 net.cpp:425] inception_4c/relu_3x3 <- inception_4c/3x3
I0403 15:20:42.589527 31502 net.cpp:386] inception_4c/relu_3x3 -> inception_4c/3x3 (in-place)
I0403 15:20:42.589736 31502 net.cpp:141] Setting up inception_4c/relu_3x3
I0403 15:20:42.589768 31502 net.cpp:148] Top shape: 24 256 14 14 (1204224)
I0403 15:20:42.589784 31502 net.cpp:156] Memory required for data: 1047659808
I0403 15:20:42.589800 31502 layer_factory.hpp:77] Creating layer inception_4c/5x5_reduce
I0403 15:20:42.589824 31502 net.cpp:91] Creating Layer inception_4c/5x5_reduce
I0403 15:20:42.589843 31502 net.cpp:425] inception_4c/5x5_reduce <- inception_4b/output_inception_4b/output_0_split_2
I0403 15:20:42.589864 31502 net.cpp:399] inception_4c/5x5_reduce -> inception_4c/5x5_reduce
I0403 15:20:42.590975 31502 net.cpp:141] Setting up inception_4c/5x5_reduce
I0403 15:20:42.591006 31502 net.cpp:148] Top shape: 24 24 14 14 (112896)
I0403 15:20:42.591024 31502 net.cpp:156] Memory required for data: 1048111392
I0403 15:20:42.591042 31502 layer_factory.hpp:77] Creating layer inception_4c/relu_5x5_reduce
I0403 15:20:42.591061 31502 net.cpp:91] Creating Layer inception_4c/relu_5x5_reduce
I0403 15:20:42.591076 31502 net.cpp:425] inception_4c/relu_5x5_reduce <- inception_4c/5x5_reduce
I0403 15:20:42.591094 31502 net.cpp:386] inception_4c/relu_5x5_reduce -> inception_4c/5x5_reduce (in-place)
I0403 15:20:42.591279 31502 net.cpp:141] Setting up inception_4c/relu_5x5_reduce
I0403 15:20:42.591331 31502 net.cpp:148] Top shape: 24 24 14 14 (112896)
I0403 15:20:42.591347 31502 net.cpp:156] Memory required for data: 1048562976
I0403 15:20:42.591362 31502 layer_factory.hpp:77] Creating layer inception_4c/5x5
I0403 15:20:42.591385 31502 net.cpp:91] Creating Layer inception_4c/5x5
I0403 15:20:42.591403 31502 net.cpp:425] inception_4c/5x5 <- inception_4c/5x5_reduce
I0403 15:20:42.591425 31502 net.cpp:399] inception_4c/5x5 -> inception_4c/5x5
I0403 15:20:42.592710 31502 net.cpp:141] Setting up inception_4c/5x5
I0403 15:20:42.592738 31502 net.cpp:148] Top shape: 24 64 14 14 (301056)
I0403 15:20:42.592754 31502 net.cpp:156] Memory required for data: 1049767200
I0403 15:20:42.592773 31502 layer_factory.hpp:77] Creating layer inception_4c/relu_5x5
I0403 15:20:42.592792 31502 net.cpp:91] Creating Layer inception_4c/relu_5x5
I0403 15:20:42.592833 31502 net.cpp:425] inception_4c/relu_5x5 <- inception_4c/5x5
I0403 15:20:42.592875 31502 net.cpp:386] inception_4c/relu_5x5 -> inception_4c/5x5 (in-place)
I0403 15:20:42.593183 31502 net.cpp:141] Setting up inception_4c/relu_5x5
I0403 15:20:42.593230 31502 net.cpp:148] Top shape: 24 64 14 14 (301056)
I0403 15:20:42.593267 31502 net.cpp:156] Memory required for data: 1050971424
I0403 15:20:42.593293 31502 layer_factory.hpp:77] Creating layer inception_4c/pool
I0403 15:20:42.593322 31502 net.cpp:91] Creating Layer inception_4c/pool
I0403 15:20:42.593343 31502 net.cpp:425] inception_4c/pool <- inception_4b/output_inception_4b/output_0_split_3
I0403 15:20:42.593367 31502 net.cpp:399] inception_4c/pool -> inception_4c/pool
I0403 15:20:42.593432 31502 net.cpp:141] Setting up inception_4c/pool
I0403 15:20:42.593457 31502 net.cpp:148] Top shape: 24 512 14 14 (2408448)
I0403 15:20:42.593472 31502 net.cpp:156] Memory required for data: 1060605216
I0403 15:20:42.593487 31502 layer_factory.hpp:77] Creating layer inception_4c/pool_proj
I0403 15:20:42.593513 31502 net.cpp:91] Creating Layer inception_4c/pool_proj
I0403 15:20:42.593533 31502 net.cpp:425] inception_4c/pool_proj <- inception_4c/pool
I0403 15:20:42.593551 31502 net.cpp:399] inception_4c/pool_proj -> inception_4c/pool_proj
I0403 15:20:42.594825 31502 net.cpp:141] Setting up inception_4c/pool_proj
I0403 15:20:42.594856 31502 net.cpp:148] Top shape: 24 64 14 14 (301056)
I0403 15:20:42.594910 31502 net.cpp:156] Memory required for data: 1061809440
I0403 15:20:42.594959 31502 layer_factory.hpp:77] Creating layer inception_4c/relu_pool_proj
I0403 15:20:42.595016 31502 net.cpp:91] Creating Layer inception_4c/relu_pool_proj
I0403 15:20:42.595033 31502 net.cpp:425] inception_4c/relu_pool_proj <- inception_4c/pool_proj
I0403 15:20:42.595082 31502 net.cpp:386] inception_4c/relu_pool_proj -> inception_4c/pool_proj (in-place)
I0403 15:20:42.595311 31502 net.cpp:141] Setting up inception_4c/relu_pool_proj
I0403 15:20:42.595337 31502 net.cpp:148] Top shape: 24 64 14 14 (301056)
I0403 15:20:42.595352 31502 net.cpp:156] Memory required for data: 1063013664
I0403 15:20:42.595367 31502 layer_factory.hpp:77] Creating layer inception_4c/output
I0403 15:20:42.595384 31502 net.cpp:91] Creating Layer inception_4c/output
I0403 15:20:42.595399 31502 net.cpp:425] inception_4c/output <- inception_4c/1x1
I0403 15:20:42.595415 31502 net.cpp:425] inception_4c/output <- inception_4c/3x3
I0403 15:20:42.595432 31502 net.cpp:425] inception_4c/output <- inception_4c/5x5
I0403 15:20:42.595448 31502 net.cpp:425] inception_4c/output <- inception_4c/pool_proj
I0403 15:20:42.595466 31502 net.cpp:399] inception_4c/output -> inception_4c/output
I0403 15:20:42.595532 31502 net.cpp:141] Setting up inception_4c/output
I0403 15:20:42.595566 31502 net.cpp:148] Top shape: 24 512 14 14 (2408448)
I0403 15:20:42.595605 31502 net.cpp:156] Memory required for data: 1072647456
I0403 15:20:42.595643 31502 layer_factory.hpp:77] Creating layer inception_4c/output_inception_4c/output_0_split
I0403 15:20:42.595662 31502 net.cpp:91] Creating Layer inception_4c/output_inception_4c/output_0_split
I0403 15:20:42.595680 31502 net.cpp:425] inception_4c/output_inception_4c/output_0_split <- inception_4c/output
I0403 15:20:42.595698 31502 net.cpp:399] inception_4c/output_inception_4c/output_0_split -> inception_4c/output_inception_4c/output_0_split_0
I0403 15:20:42.595721 31502 net.cpp:399] inception_4c/output_inception_4c/output_0_split -> inception_4c/output_inception_4c/output_0_split_1
I0403 15:20:42.595762 31502 net.cpp:399] inception_4c/output_inception_4c/output_0_split -> inception_4c/output_inception_4c/output_0_split_2
I0403 15:20:42.595809 31502 net.cpp:399] inception_4c/output_inception_4c/output_0_split -> inception_4c/output_inception_4c/output_0_split_3
I0403 15:20:42.595903 31502 net.cpp:141] Setting up inception_4c/output_inception_4c/output_0_split
I0403 15:20:42.595927 31502 net.cpp:148] Top shape: 24 512 14 14 (2408448)
I0403 15:20:42.595943 31502 net.cpp:148] Top shape: 24 512 14 14 (2408448)
I0403 15:20:42.595958 31502 net.cpp:148] Top shape: 24 512 14 14 (2408448)
I0403 15:20:42.595973 31502 net.cpp:148] Top shape: 24 512 14 14 (2408448)
I0403 15:20:42.595988 31502 net.cpp:156] Memory required for data: 1111182624
I0403 15:20:42.596001 31502 layer_factory.hpp:77] Creating layer inception_4d/1x1
I0403 15:20:42.596024 31502 net.cpp:91] Creating Layer inception_4d/1x1
I0403 15:20:42.596040 31502 net.cpp:425] inception_4d/1x1 <- inception_4c/output_inception_4c/output_0_split_0
I0403 15:20:42.596061 31502 net.cpp:399] inception_4d/1x1 -> inception_4d/1x1
I0403 15:20:42.597486 31502 net.cpp:141] Setting up inception_4d/1x1
I0403 15:20:42.597513 31502 net.cpp:148] Top shape: 24 112 14 14 (526848)
I0403 15:20:42.597530 31502 net.cpp:156] Memory required for data: 1113290016
I0403 15:20:42.597549 31502 layer_factory.hpp:77] Creating layer inception_4d/relu_1x1
I0403 15:20:42.597569 31502 net.cpp:91] Creating Layer inception_4d/relu_1x1
I0403 15:20:42.597585 31502 net.cpp:425] inception_4d/relu_1x1 <- inception_4d/1x1
I0403 15:20:42.597602 31502 net.cpp:386] inception_4d/relu_1x1 -> inception_4d/1x1 (in-place)
I0403 15:20:42.597779 31502 net.cpp:141] Setting up inception_4d/relu_1x1
I0403 15:20:42.597815 31502 net.cpp:148] Top shape: 24 112 14 14 (526848)
I0403 15:20:42.597849 31502 net.cpp:156] Memory required for data: 1115397408
I0403 15:20:42.597875 31502 layer_factory.hpp:77] Creating layer inception_4d/3x3_reduce
I0403 15:20:42.597916 31502 net.cpp:91] Creating Layer inception_4d/3x3_reduce
I0403 15:20:42.597935 31502 net.cpp:425] inception_4d/3x3_reduce <- inception_4c/output_inception_4c/output_0_split_1
I0403 15:20:42.597954 31502 net.cpp:399] inception_4d/3x3_reduce -> inception_4d/3x3_reduce
I0403 15:20:42.599467 31502 net.cpp:141] Setting up inception_4d/3x3_reduce
I0403 15:20:42.599495 31502 net.cpp:148] Top shape: 24 144 14 14 (677376)
I0403 15:20:42.599510 31502 net.cpp:156] Memory required for data: 1118106912
I0403 15:20:42.599529 31502 layer_factory.hpp:77] Creating layer inception_4d/relu_3x3_reduce
I0403 15:20:42.599550 31502 net.cpp:91] Creating Layer inception_4d/relu_3x3_reduce
I0403 15:20:42.599567 31502 net.cpp:425] inception_4d/relu_3x3_reduce <- inception_4d/3x3_reduce
I0403 15:20:42.599586 31502 net.cpp:386] inception_4d/relu_3x3_reduce -> inception_4d/3x3_reduce (in-place)
I0403 15:20:42.599870 31502 net.cpp:141] Setting up inception_4d/relu_3x3_reduce
I0403 15:20:42.599896 31502 net.cpp:148] Top shape: 24 144 14 14 (677376)
I0403 15:20:42.599911 31502 net.cpp:156] Memory required for data: 1120816416
I0403 15:20:42.599926 31502 layer_factory.hpp:77] Creating layer inception_4d/3x3
I0403 15:20:42.599948 31502 net.cpp:91] Creating Layer inception_4d/3x3
I0403 15:20:42.599967 31502 net.cpp:425] inception_4d/3x3 <- inception_4d/3x3_reduce
I0403 15:20:42.599987 31502 net.cpp:399] inception_4d/3x3 -> inception_4d/3x3
I0403 15:20:42.604218 31502 net.cpp:141] Setting up inception_4d/3x3
I0403 15:20:42.604249 31502 net.cpp:148] Top shape: 24 288 14 14 (1354752)
I0403 15:20:42.604266 31502 net.cpp:156] Memory required for data: 1126235424
I0403 15:20:42.604295 31502 layer_factory.hpp:77] Creating layer inception_4d/relu_3x3
I0403 15:20:42.604320 31502 net.cpp:91] Creating Layer inception_4d/relu_3x3
I0403 15:20:42.604337 31502 net.cpp:425] inception_4d/relu_3x3 <- inception_4d/3x3
I0403 15:20:42.604356 31502 net.cpp:386] inception_4d/relu_3x3 -> inception_4d/3x3 (in-place)
I0403 15:20:42.604540 31502 net.cpp:141] Setting up inception_4d/relu_3x3
I0403 15:20:42.604569 31502 net.cpp:148] Top shape: 24 288 14 14 (1354752)
I0403 15:20:42.604586 31502 net.cpp:156] Memory required for data: 1131654432
I0403 15:20:42.604601 31502 layer_factory.hpp:77] Creating layer inception_4d/5x5_reduce
I0403 15:20:42.604624 31502 net.cpp:91] Creating Layer inception_4d/5x5_reduce
I0403 15:20:42.604640 31502 net.cpp:425] inception_4d/5x5_reduce <- inception_4c/output_inception_4c/output_0_split_2
I0403 15:20:42.604660 31502 net.cpp:399] inception_4d/5x5_reduce -> inception_4d/5x5_reduce
I0403 15:20:42.605811 31502 net.cpp:141] Setting up inception_4d/5x5_reduce
I0403 15:20:42.605839 31502 net.cpp:148] Top shape: 24 32 14 14 (150528)
I0403 15:20:42.605856 31502 net.cpp:156] Memory required for data: 1132256544
I0403 15:20:42.605875 31502 layer_factory.hpp:77] Creating layer inception_4d/relu_5x5_reduce
I0403 15:20:42.605895 31502 net.cpp:91] Creating Layer inception_4d/relu_5x5_reduce
I0403 15:20:42.605912 31502 net.cpp:425] inception_4d/relu_5x5_reduce <- inception_4d/5x5_reduce
I0403 15:20:42.605931 31502 net.cpp:386] inception_4d/relu_5x5_reduce -> inception_4d/5x5_reduce (in-place)
I0403 15:20:42.606112 31502 net.cpp:141] Setting up inception_4d/relu_5x5_reduce
I0403 15:20:42.606140 31502 net.cpp:148] Top shape: 24 32 14 14 (150528)
I0403 15:20:42.606156 31502 net.cpp:156] Memory required for data: 1132858656
I0403 15:20:42.606170 31502 layer_factory.hpp:77] Creating layer inception_4d/5x5
I0403 15:20:42.606192 31502 net.cpp:91] Creating Layer inception_4d/5x5
I0403 15:20:42.606209 31502 net.cpp:425] inception_4d/5x5 <- inception_4d/5x5_reduce
I0403 15:20:42.606227 31502 net.cpp:399] inception_4d/5x5 -> inception_4d/5x5
I0403 15:20:42.607708 31502 net.cpp:141] Setting up inception_4d/5x5
I0403 15:20:42.607735 31502 net.cpp:148] Top shape: 24 64 14 14 (301056)
I0403 15:20:42.607751 31502 net.cpp:156] Memory required for data: 1134062880
I0403 15:20:42.607770 31502 layer_factory.hpp:77] Creating layer inception_4d/relu_5x5
I0403 15:20:42.607803 31502 net.cpp:91] Creating Layer inception_4d/relu_5x5
I0403 15:20:42.607821 31502 net.cpp:425] inception_4d/relu_5x5 <- inception_4d/5x5
I0403 15:20:42.607841 31502 net.cpp:386] inception_4d/relu_5x5 -> inception_4d/5x5 (in-place)
I0403 15:20:42.608137 31502 net.cpp:141] Setting up inception_4d/relu_5x5
I0403 15:20:42.608163 31502 net.cpp:148] Top shape: 24 64 14 14 (301056)
I0403 15:20:42.608178 31502 net.cpp:156] Memory required for data: 1135267104
I0403 15:20:42.608193 31502 layer_factory.hpp:77] Creating layer inception_4d/pool
I0403 15:20:42.608211 31502 net.cpp:91] Creating Layer inception_4d/pool
I0403 15:20:42.608228 31502 net.cpp:425] inception_4d/pool <- inception_4c/output_inception_4c/output_0_split_3
I0403 15:20:42.608249 31502 net.cpp:399] inception_4d/pool -> inception_4d/pool
I0403 15:20:42.608320 31502 net.cpp:141] Setting up inception_4d/pool
I0403 15:20:42.608345 31502 net.cpp:148] Top shape: 24 512 14 14 (2408448)
I0403 15:20:42.608360 31502 net.cpp:156] Memory required for data: 1144900896
I0403 15:20:42.608374 31502 layer_factory.hpp:77] Creating layer inception_4d/pool_proj
I0403 15:20:42.608397 31502 net.cpp:91] Creating Layer inception_4d/pool_proj
I0403 15:20:42.608414 31502 net.cpp:425] inception_4d/pool_proj <- inception_4d/pool
I0403 15:20:42.608433 31502 net.cpp:399] inception_4d/pool_proj -> inception_4d/pool_proj
I0403 15:20:42.610183 31502 net.cpp:141] Setting up inception_4d/pool_proj
I0403 15:20:42.610211 31502 net.cpp:148] Top shape: 24 64 14 14 (301056)
I0403 15:20:42.610227 31502 net.cpp:156] Memory required for data: 1146105120
I0403 15:20:42.610246 31502 layer_factory.hpp:77] Creating layer inception_4d/relu_pool_proj
I0403 15:20:42.610267 31502 net.cpp:91] Creating Layer inception_4d/relu_pool_proj
I0403 15:20:42.610288 31502 net.cpp:425] inception_4d/relu_pool_proj <- inception_4d/pool_proj
I0403 15:20:42.610306 31502 net.cpp:386] inception_4d/relu_pool_proj -> inception_4d/pool_proj (in-place)
I0403 15:20:42.610486 31502 net.cpp:141] Setting up inception_4d/relu_pool_proj
I0403 15:20:42.610513 31502 net.cpp:148] Top shape: 24 64 14 14 (301056)
I0403 15:20:42.610528 31502 net.cpp:156] Memory required for data: 1147309344
I0403 15:20:42.610544 31502 layer_factory.hpp:77] Creating layer inception_4d/output
I0403 15:20:42.610560 31502 net.cpp:91] Creating Layer inception_4d/output
I0403 15:20:42.610577 31502 net.cpp:425] inception_4d/output <- inception_4d/1x1
I0403 15:20:42.610594 31502 net.cpp:425] inception_4d/output <- inception_4d/3x3
I0403 15:20:42.610610 31502 net.cpp:425] inception_4d/output <- inception_4d/5x5
I0403 15:20:42.610627 31502 net.cpp:425] inception_4d/output <- inception_4d/pool_proj
I0403 15:20:42.610646 31502 net.cpp:399] inception_4d/output -> inception_4d/output
I0403 15:20:42.610693 31502 net.cpp:141] Setting up inception_4d/output
I0403 15:20:42.610718 31502 net.cpp:148] Top shape: 24 528 14 14 (2483712)
I0403 15:20:42.610733 31502 net.cpp:156] Memory required for data: 1157244192
I0403 15:20:42.610746 31502 layer_factory.hpp:77] Creating layer inception_4d/output_inception_4d/output_0_split
I0403 15:20:42.610766 31502 net.cpp:91] Creating Layer inception_4d/output_inception_4d/output_0_split
I0403 15:20:42.610783 31502 net.cpp:425] inception_4d/output_inception_4d/output_0_split <- inception_4d/output
I0403 15:20:42.610802 31502 net.cpp:399] inception_4d/output_inception_4d/output_0_split -> inception_4d/output_inception_4d/output_0_split_0
I0403 15:20:42.610823 31502 net.cpp:399] inception_4d/output_inception_4d/output_0_split -> inception_4d/output_inception_4d/output_0_split_1
I0403 15:20:42.610849 31502 net.cpp:399] inception_4d/output_inception_4d/output_0_split -> inception_4d/output_inception_4d/output_0_split_2
I0403 15:20:42.610869 31502 net.cpp:399] inception_4d/output_inception_4d/output_0_split -> inception_4d/output_inception_4d/output_0_split_3
I0403 15:20:42.610889 31502 net.cpp:399] inception_4d/output_inception_4d/output_0_split -> inception_4d/output_inception_4d/output_0_split_4
I0403 15:20:42.610988 31502 net.cpp:141] Setting up inception_4d/output_inception_4d/output_0_split
I0403 15:20:42.611023 31502 net.cpp:148] Top shape: 24 528 14 14 (2483712)
I0403 15:20:42.611042 31502 net.cpp:148] Top shape: 24 528 14 14 (2483712)
I0403 15:20:42.611057 31502 net.cpp:148] Top shape: 24 528 14 14 (2483712)
I0403 15:20:42.611071 31502 net.cpp:148] Top shape: 24 528 14 14 (2483712)
I0403 15:20:42.611088 31502 net.cpp:148] Top shape: 24 528 14 14 (2483712)
I0403 15:20:42.611100 31502 net.cpp:156] Memory required for data: 1206918432
I0403 15:20:42.611115 31502 layer_factory.hpp:77] Creating layer loss2/ave_pool
I0403 15:20:42.611135 31502 net.cpp:91] Creating Layer loss2/ave_pool
I0403 15:20:42.611152 31502 net.cpp:425] loss2/ave_pool <- inception_4d/output_inception_4d/output_0_split_0
I0403 15:20:42.611171 31502 net.cpp:399] loss2/ave_pool -> loss2/ave_pool
I0403 15:20:42.611481 31502 net.cpp:141] Setting up loss2/ave_pool
I0403 15:20:42.611507 31502 net.cpp:148] Top shape: 24 528 4 4 (202752)
I0403 15:20:42.611523 31502 net.cpp:156] Memory required for data: 1207729440
I0403 15:20:42.611539 31502 layer_factory.hpp:77] Creating layer loss2/conv
I0403 15:20:42.611575 31502 net.cpp:91] Creating Layer loss2/conv
I0403 15:20:42.611593 31502 net.cpp:425] loss2/conv <- loss2/ave_pool
I0403 15:20:42.611615 31502 net.cpp:399] loss2/conv -> loss2/conv
I0403 15:20:42.613481 31502 net.cpp:141] Setting up loss2/conv
I0403 15:20:42.613512 31502 net.cpp:148] Top shape: 24 128 4 4 (49152)
I0403 15:20:42.613529 31502 net.cpp:156] Memory required for data: 1207926048
I0403 15:20:42.613548 31502 layer_factory.hpp:77] Creating layer loss2/relu_conv
I0403 15:20:42.613565 31502 net.cpp:91] Creating Layer loss2/relu_conv
I0403 15:20:42.613582 31502 net.cpp:425] loss2/relu_conv <- loss2/conv
I0403 15:20:42.613601 31502 net.cpp:386] loss2/relu_conv -> loss2/conv (in-place)
I0403 15:20:42.613880 31502 net.cpp:141] Setting up loss2/relu_conv
I0403 15:20:42.613909 31502 net.cpp:148] Top shape: 24 128 4 4 (49152)
I0403 15:20:42.613925 31502 net.cpp:156] Memory required for data: 1208122656
I0403 15:20:42.613941 31502 layer_factory.hpp:77] Creating layer loss2/fc
I0403 15:20:42.613961 31502 net.cpp:91] Creating Layer loss2/fc
I0403 15:20:42.613977 31502 net.cpp:425] loss2/fc <- loss2/conv
I0403 15:20:42.613999 31502 net.cpp:399] loss2/fc -> loss2/fc
I0403 15:20:42.631359 31502 net.cpp:141] Setting up loss2/fc
I0403 15:20:42.631412 31502 net.cpp:148] Top shape: 24 1024 (24576)
I0403 15:20:42.631439 31502 net.cpp:156] Memory required for data: 1208220960
I0403 15:20:42.631460 31502 layer_factory.hpp:77] Creating layer loss2/relu_fc
I0403 15:20:42.631481 31502 net.cpp:91] Creating Layer loss2/relu_fc
I0403 15:20:42.631500 31502 net.cpp:425] loss2/relu_fc <- loss2/fc
I0403 15:20:42.631517 31502 net.cpp:386] loss2/relu_fc -> loss2/fc (in-place)
I0403 15:20:42.631809 31502 net.cpp:141] Setting up loss2/relu_fc
I0403 15:20:42.631836 31502 net.cpp:148] Top shape: 24 1024 (24576)
I0403 15:20:42.631851 31502 net.cpp:156] Memory required for data: 1208319264
I0403 15:20:42.631866 31502 layer_factory.hpp:77] Creating layer loss2/drop_fc
I0403 15:20:42.631886 31502 net.cpp:91] Creating Layer loss2/drop_fc
I0403 15:20:42.631902 31502 net.cpp:425] loss2/drop_fc <- loss2/fc
I0403 15:20:42.631919 31502 net.cpp:386] loss2/drop_fc -> loss2/fc (in-place)
I0403 15:20:42.631981 31502 net.cpp:141] Setting up loss2/drop_fc
I0403 15:20:42.632005 31502 net.cpp:148] Top shape: 24 1024 (24576)
I0403 15:20:42.632021 31502 net.cpp:156] Memory required for data: 1208417568
I0403 15:20:42.632036 31502 layer_factory.hpp:77] Creating layer loss2/classifier_plantvillage
I0403 15:20:42.632057 31502 net.cpp:91] Creating Layer loss2/classifier_plantvillage
I0403 15:20:42.632076 31502 net.cpp:425] loss2/classifier_plantvillage <- loss2/fc
I0403 15:20:42.632096 31502 net.cpp:399] loss2/classifier_plantvillage -> loss2/classifier_plantvillage
I0403 15:20:42.632508 31502 net.cpp:141] Setting up loss2/classifier_plantvillage
I0403 15:20:42.632532 31502 net.cpp:148] Top shape: 24 38 (912)
I0403 15:20:42.632556 31502 net.cpp:156] Memory required for data: 1208421216
I0403 15:20:42.632616 31502 layer_factory.hpp:77] Creating layer loss2/classifier_plantvillage_loss2/classifier_plantvillage_0_split
I0403 15:20:42.632645 31502 net.cpp:91] Creating Layer loss2/classifier_plantvillage_loss2/classifier_plantvillage_0_split
I0403 15:20:42.632679 31502 net.cpp:425] loss2/classifier_plantvillage_loss2/classifier_plantvillage_0_split <- loss2/classifier_plantvillage
I0403 15:20:42.632725 31502 net.cpp:399] loss2/classifier_plantvillage_loss2/classifier_plantvillage_0_split -> loss2/classifier_plantvillage_loss2/classifier_plantvillage_0_split_0
I0403 15:20:42.632753 31502 net.cpp:399] loss2/classifier_plantvillage_loss2/classifier_plantvillage_0_split -> loss2/classifier_plantvillage_loss2/classifier_plantvillage_0_split_1
I0403 15:20:42.632782 31502 net.cpp:399] loss2/classifier_plantvillage_loss2/classifier_plantvillage_0_split -> loss2/classifier_plantvillage_loss2/classifier_plantvillage_0_split_2
I0403 15:20:42.632859 31502 net.cpp:141] Setting up loss2/classifier_plantvillage_loss2/classifier_plantvillage_0_split
I0403 15:20:42.632884 31502 net.cpp:148] Top shape: 24 38 (912)
I0403 15:20:42.632902 31502 net.cpp:148] Top shape: 24 38 (912)
I0403 15:20:42.632920 31502 net.cpp:148] Top shape: 24 38 (912)
I0403 15:20:42.632933 31502 net.cpp:156] Memory required for data: 1208432160
I0403 15:20:42.632947 31502 layer_factory.hpp:77] Creating layer inception_4e/1x1
I0403 15:20:42.632966 31502 net.cpp:91] Creating Layer inception_4e/1x1
I0403 15:20:42.632983 31502 net.cpp:425] inception_4e/1x1 <- inception_4d/output_inception_4d/output_0_split_1
I0403 15:20:42.633002 31502 net.cpp:399] inception_4e/1x1 -> inception_4e/1x1
I0403 15:20:42.634825 31502 net.cpp:141] Setting up inception_4e/1x1
I0403 15:20:42.634855 31502 net.cpp:148] Top shape: 24 256 14 14 (1204224)
I0403 15:20:42.634871 31502 net.cpp:156] Memory required for data: 1213249056
I0403 15:20:42.634888 31502 layer_factory.hpp:77] Creating layer inception_4e/relu_1x1
I0403 15:20:42.634908 31502 net.cpp:91] Creating Layer inception_4e/relu_1x1
I0403 15:20:42.634925 31502 net.cpp:425] inception_4e/relu_1x1 <- inception_4e/1x1
I0403 15:20:42.634945 31502 net.cpp:386] inception_4e/relu_1x1 -> inception_4e/1x1 (in-place)
I0403 15:20:42.635238 31502 net.cpp:141] Setting up inception_4e/relu_1x1
I0403 15:20:42.635265 31502 net.cpp:148] Top shape: 24 256 14 14 (1204224)
I0403 15:20:42.635280 31502 net.cpp:156] Memory required for data: 1218065952
I0403 15:20:42.635300 31502 layer_factory.hpp:77] Creating layer inception_4e/3x3_reduce
I0403 15:20:42.635323 31502 net.cpp:91] Creating Layer inception_4e/3x3_reduce
I0403 15:20:42.635340 31502 net.cpp:425] inception_4e/3x3_reduce <- inception_4d/output_inception_4d/output_0_split_2
I0403 15:20:42.635362 31502 net.cpp:399] inception_4e/3x3_reduce -> inception_4e/3x3_reduce
I0403 15:20:42.637578 31502 net.cpp:141] Setting up inception_4e/3x3_reduce
I0403 15:20:42.637622 31502 net.cpp:148] Top shape: 24 160 14 14 (752640)
I0403 15:20:42.637639 31502 net.cpp:156] Memory required for data: 1221076512
I0403 15:20:42.637658 31502 layer_factory.hpp:77] Creating layer inception_4e/relu_3x3_reduce
I0403 15:20:42.637676 31502 net.cpp:91] Creating Layer inception_4e/relu_3x3_reduce
I0403 15:20:42.637693 31502 net.cpp:425] inception_4e/relu_3x3_reduce <- inception_4e/3x3_reduce
I0403 15:20:42.637714 31502 net.cpp:386] inception_4e/relu_3x3_reduce -> inception_4e/3x3_reduce (in-place)
I0403 15:20:42.637913 31502 net.cpp:141] Setting up inception_4e/relu_3x3_reduce
I0403 15:20:42.637946 31502 net.cpp:148] Top shape: 24 160 14 14 (752640)
I0403 15:20:42.637964 31502 net.cpp:156] Memory required for data: 1224087072
I0403 15:20:42.637994 31502 layer_factory.hpp:77] Creating layer inception_4e/3x3
I0403 15:20:42.638015 31502 net.cpp:91] Creating Layer inception_4e/3x3
I0403 15:20:42.638031 31502 net.cpp:425] inception_4e/3x3 <- inception_4e/3x3_reduce
I0403 15:20:42.638072 31502 net.cpp:399] inception_4e/3x3 -> inception_4e/3x3
I0403 15:20:42.643162 31502 net.cpp:141] Setting up inception_4e/3x3
I0403 15:20:42.643208 31502 net.cpp:148] Top shape: 24 320 14 14 (1505280)
I0403 15:20:42.643224 31502 net.cpp:156] Memory required for data: 1230108192
I0403 15:20:42.643242 31502 layer_factory.hpp:77] Creating layer inception_4e/relu_3x3
I0403 15:20:42.643263 31502 net.cpp:91] Creating Layer inception_4e/relu_3x3
I0403 15:20:42.643282 31502 net.cpp:425] inception_4e/relu_3x3 <- inception_4e/3x3
I0403 15:20:42.643307 31502 net.cpp:386] inception_4e/relu_3x3 -> inception_4e/3x3 (in-place)
I0403 15:20:42.643621 31502 net.cpp:141] Setting up inception_4e/relu_3x3
I0403 15:20:42.643648 31502 net.cpp:148] Top shape: 24 320 14 14 (1505280)
I0403 15:20:42.643666 31502 net.cpp:156] Memory required for data: 1236129312
I0403 15:20:42.643682 31502 layer_factory.hpp:77] Creating layer inception_4e/5x5_reduce
I0403 15:20:42.643707 31502 net.cpp:91] Creating Layer inception_4e/5x5_reduce
I0403 15:20:42.643728 31502 net.cpp:425] inception_4e/5x5_reduce <- inception_4d/output_inception_4d/output_0_split_3
I0403 15:20:42.643750 31502 net.cpp:399] inception_4e/5x5_reduce -> inception_4e/5x5_reduce
I0403 15:20:42.644852 31502 net.cpp:141] Setting up inception_4e/5x5_reduce
I0403 15:20:42.644881 31502 net.cpp:148] Top shape: 24 32 14 14 (150528)
I0403 15:20:42.644897 31502 net.cpp:156] Memory required for data: 1236731424
I0403 15:20:42.644917 31502 layer_factory.hpp:77] Creating layer inception_4e/relu_5x5_reduce
I0403 15:20:42.644937 31502 net.cpp:91] Creating Layer inception_4e/relu_5x5_reduce
I0403 15:20:42.644953 31502 net.cpp:425] inception_4e/relu_5x5_reduce <- inception_4e/5x5_reduce
I0403 15:20:42.644994 31502 net.cpp:386] inception_4e/relu_5x5_reduce -> inception_4e/5x5_reduce (in-place)
I0403 15:20:42.645341 31502 net.cpp:141] Setting up inception_4e/relu_5x5_reduce
I0403 15:20:42.645370 31502 net.cpp:148] Top shape: 24 32 14 14 (150528)
I0403 15:20:42.645406 31502 net.cpp:156] Memory required for data: 1237333536
I0403 15:20:42.645422 31502 layer_factory.hpp:77] Creating layer inception_4e/5x5
I0403 15:20:42.645463 31502 net.cpp:91] Creating Layer inception_4e/5x5
I0403 15:20:42.645483 31502 net.cpp:425] inception_4e/5x5 <- inception_4e/5x5_reduce
I0403 15:20:42.645503 31502 net.cpp:399] inception_4e/5x5 -> inception_4e/5x5
I0403 15:20:42.647397 31502 net.cpp:141] Setting up inception_4e/5x5
I0403 15:20:42.647428 31502 net.cpp:148] Top shape: 24 128 14 14 (602112)
I0403 15:20:42.647445 31502 net.cpp:156] Memory required for data: 1239741984
I0403 15:20:42.647465 31502 layer_factory.hpp:77] Creating layer inception_4e/relu_5x5
I0403 15:20:42.647486 31502 net.cpp:91] Creating Layer inception_4e/relu_5x5
I0403 15:20:42.647505 31502 net.cpp:425] inception_4e/relu_5x5 <- inception_4e/5x5
I0403 15:20:42.647522 31502 net.cpp:386] inception_4e/relu_5x5 -> inception_4e/5x5 (in-place)
I0403 15:20:42.647729 31502 net.cpp:141] Setting up inception_4e/relu_5x5
I0403 15:20:42.647754 31502 net.cpp:148] Top shape: 24 128 14 14 (602112)
I0403 15:20:42.647769 31502 net.cpp:156] Memory required for data: 1242150432
I0403 15:20:42.647785 31502 layer_factory.hpp:77] Creating layer inception_4e/pool
I0403 15:20:42.647804 31502 net.cpp:91] Creating Layer inception_4e/pool
I0403 15:20:42.647822 31502 net.cpp:425] inception_4e/pool <- inception_4d/output_inception_4d/output_0_split_4
I0403 15:20:42.647842 31502 net.cpp:399] inception_4e/pool -> inception_4e/pool
I0403 15:20:42.647910 31502 net.cpp:141] Setting up inception_4e/pool
I0403 15:20:42.647938 31502 net.cpp:148] Top shape: 24 528 14 14 (2483712)
I0403 15:20:42.647953 31502 net.cpp:156] Memory required for data: 1252085280
I0403 15:20:42.647969 31502 layer_factory.hpp:77] Creating layer inception_4e/pool_proj
I0403 15:20:42.647990 31502 net.cpp:91] Creating Layer inception_4e/pool_proj
I0403 15:20:42.648010 31502 net.cpp:425] inception_4e/pool_proj <- inception_4e/pool
I0403 15:20:42.648038 31502 net.cpp:399] inception_4e/pool_proj -> inception_4e/pool_proj
I0403 15:20:42.649547 31502 net.cpp:141] Setting up inception_4e/pool_proj
I0403 15:20:42.649579 31502 net.cpp:148] Top shape: 24 128 14 14 (602112)
I0403 15:20:42.649611 31502 net.cpp:156] Memory required for data: 1254493728
I0403 15:20:42.649631 31502 layer_factory.hpp:77] Creating layer inception_4e/relu_pool_proj
I0403 15:20:42.649652 31502 net.cpp:91] Creating Layer inception_4e/relu_pool_proj
I0403 15:20:42.649668 31502 net.cpp:425] inception_4e/relu_pool_proj <- inception_4e/pool_proj
I0403 15:20:42.649687 31502 net.cpp:386] inception_4e/relu_pool_proj -> inception_4e/pool_proj (in-place)
I0403 15:20:42.650012 31502 net.cpp:141] Setting up inception_4e/relu_pool_proj
I0403 15:20:42.650041 31502 net.cpp:148] Top shape: 24 128 14 14 (602112)
I0403 15:20:42.650060 31502 net.cpp:156] Memory required for data: 1256902176
I0403 15:20:42.650075 31502 layer_factory.hpp:77] Creating layer inception_4e/output
I0403 15:20:42.650094 31502 net.cpp:91] Creating Layer inception_4e/output
I0403 15:20:42.650111 31502 net.cpp:425] inception_4e/output <- inception_4e/1x1
I0403 15:20:42.650128 31502 net.cpp:425] inception_4e/output <- inception_4e/3x3
I0403 15:20:42.650146 31502 net.cpp:425] inception_4e/output <- inception_4e/5x5
I0403 15:20:42.650182 31502 net.cpp:425] inception_4e/output <- inception_4e/pool_proj
I0403 15:20:42.650210 31502 net.cpp:399] inception_4e/output -> inception_4e/output
I0403 15:20:42.650288 31502 net.cpp:141] Setting up inception_4e/output
I0403 15:20:42.650328 31502 net.cpp:148] Top shape: 24 832 14 14 (3913728)
I0403 15:20:42.650347 31502 net.cpp:156] Memory required for data: 1272557088
I0403 15:20:42.650362 31502 layer_factory.hpp:77] Creating layer pool4/3x3_s2
I0403 15:20:42.650380 31502 net.cpp:91] Creating Layer pool4/3x3_s2
I0403 15:20:42.650400 31502 net.cpp:425] pool4/3x3_s2 <- inception_4e/output
I0403 15:20:42.650419 31502 net.cpp:399] pool4/3x3_s2 -> pool4/3x3_s2
I0403 15:20:42.650490 31502 net.cpp:141] Setting up pool4/3x3_s2
I0403 15:20:42.650516 31502 net.cpp:148] Top shape: 24 832 7 7 (978432)
I0403 15:20:42.650530 31502 net.cpp:156] Memory required for data: 1276470816
I0403 15:20:42.650545 31502 layer_factory.hpp:77] Creating layer pool4/3x3_s2_pool4/3x3_s2_0_split
I0403 15:20:42.650563 31502 net.cpp:91] Creating Layer pool4/3x3_s2_pool4/3x3_s2_0_split
I0403 15:20:42.650580 31502 net.cpp:425] pool4/3x3_s2_pool4/3x3_s2_0_split <- pool4/3x3_s2
I0403 15:20:42.650614 31502 net.cpp:399] pool4/3x3_s2_pool4/3x3_s2_0_split -> pool4/3x3_s2_pool4/3x3_s2_0_split_0
I0403 15:20:42.650636 31502 net.cpp:399] pool4/3x3_s2_pool4/3x3_s2_0_split -> pool4/3x3_s2_pool4/3x3_s2_0_split_1
I0403 15:20:42.650661 31502 net.cpp:399] pool4/3x3_s2_pool4/3x3_s2_0_split -> pool4/3x3_s2_pool4/3x3_s2_0_split_2
I0403 15:20:42.650694 31502 net.cpp:399] pool4/3x3_s2_pool4/3x3_s2_0_split -> pool4/3x3_s2_pool4/3x3_s2_0_split_3
I0403 15:20:42.650815 31502 net.cpp:141] Setting up pool4/3x3_s2_pool4/3x3_s2_0_split
I0403 15:20:42.650840 31502 net.cpp:148] Top shape: 24 832 7 7 (978432)
I0403 15:20:42.650857 31502 net.cpp:148] Top shape: 24 832 7 7 (978432)
I0403 15:20:42.650874 31502 net.cpp:148] Top shape: 24 832 7 7 (978432)
I0403 15:20:42.650889 31502 net.cpp:148] Top shape: 24 832 7 7 (978432)
I0403 15:20:42.650903 31502 net.cpp:156] Memory required for data: 1292125728
I0403 15:20:42.650918 31502 layer_factory.hpp:77] Creating layer inception_5a/1x1
I0403 15:20:42.650943 31502 net.cpp:91] Creating Layer inception_5a/1x1
I0403 15:20:42.650960 31502 net.cpp:425] inception_5a/1x1 <- pool4/3x3_s2_pool4/3x3_s2_0_split_0
I0403 15:20:42.650980 31502 net.cpp:399] inception_5a/1x1 -> inception_5a/1x1
I0403 15:20:42.653913 31502 net.cpp:141] Setting up inception_5a/1x1
I0403 15:20:42.653946 31502 net.cpp:148] Top shape: 24 256 7 7 (301056)
I0403 15:20:42.653964 31502 net.cpp:156] Memory required for data: 1293329952
I0403 15:20:42.653983 31502 layer_factory.hpp:77] Creating layer inception_5a/relu_1x1
I0403 15:20:42.654001 31502 net.cpp:91] Creating Layer inception_5a/relu_1x1
I0403 15:20:42.654019 31502 net.cpp:425] inception_5a/relu_1x1 <- inception_5a/1x1
I0403 15:20:42.654041 31502 net.cpp:386] inception_5a/relu_1x1 -> inception_5a/1x1 (in-place)
I0403 15:20:42.654397 31502 net.cpp:141] Setting up inception_5a/relu_1x1
I0403 15:20:42.654433 31502 net.cpp:148] Top shape: 24 256 7 7 (301056)
I0403 15:20:42.654449 31502 net.cpp:156] Memory required for data: 1294534176
I0403 15:20:42.654466 31502 layer_factory.hpp:77] Creating layer inception_5a/3x3_reduce
I0403 15:20:42.654490 31502 net.cpp:91] Creating Layer inception_5a/3x3_reduce
I0403 15:20:42.654510 31502 net.cpp:425] inception_5a/3x3_reduce <- pool4/3x3_s2_pool4/3x3_s2_0_split_1
I0403 15:20:42.654531 31502 net.cpp:399] inception_5a/3x3_reduce -> inception_5a/3x3_reduce
I0403 15:20:42.657032 31502 net.cpp:141] Setting up inception_5a/3x3_reduce
I0403 15:20:42.657061 31502 net.cpp:148] Top shape: 24 160 7 7 (188160)
I0403 15:20:42.657078 31502 net.cpp:156] Memory required for data: 1295286816
I0403 15:20:42.657097 31502 layer_factory.hpp:77] Creating layer inception_5a/relu_3x3_reduce
I0403 15:20:42.657119 31502 net.cpp:91] Creating Layer inception_5a/relu_3x3_reduce
I0403 15:20:42.657137 31502 net.cpp:425] inception_5a/relu_3x3_reduce <- inception_5a/3x3_reduce
I0403 15:20:42.657155 31502 net.cpp:386] inception_5a/relu_3x3_reduce -> inception_5a/3x3_reduce (in-place)
I0403 15:20:42.657346 31502 net.cpp:141] Setting up inception_5a/relu_3x3_reduce
I0403 15:20:42.657402 31502 net.cpp:148] Top shape: 24 160 7 7 (188160)
I0403 15:20:42.657444 31502 net.cpp:156] Memory required for data: 1296039456
I0403 15:20:42.657460 31502 layer_factory.hpp:77] Creating layer inception_5a/3x3
I0403 15:20:42.657483 31502 net.cpp:91] Creating Layer inception_5a/3x3
I0403 15:20:42.657501 31502 net.cpp:425] inception_5a/3x3 <- inception_5a/3x3_reduce
I0403 15:20:42.657521 31502 net.cpp:399] inception_5a/3x3 -> inception_5a/3x3
I0403 15:20:42.662647 31502 net.cpp:141] Setting up inception_5a/3x3
I0403 15:20:42.662698 31502 net.cpp:148] Top shape: 24 320 7 7 (376320)
I0403 15:20:42.662732 31502 net.cpp:156] Memory required for data: 1297544736
I0403 15:20:42.662770 31502 layer_factory.hpp:77] Creating layer inception_5a/relu_3x3
I0403 15:20:42.662796 31502 net.cpp:91] Creating Layer inception_5a/relu_3x3
I0403 15:20:42.662829 31502 net.cpp:425] inception_5a/relu_3x3 <- inception_5a/3x3
I0403 15:20:42.662868 31502 net.cpp:386] inception_5a/relu_3x3 -> inception_5a/3x3 (in-place)
I0403 15:20:42.663192 31502 net.cpp:141] Setting up inception_5a/relu_3x3
I0403 15:20:42.663223 31502 net.cpp:148] Top shape: 24 320 7 7 (376320)
I0403 15:20:42.663239 31502 net.cpp:156] Memory required for data: 1299050016
I0403 15:20:42.663255 31502 layer_factory.hpp:77] Creating layer inception_5a/5x5_reduce
I0403 15:20:42.663278 31502 net.cpp:91] Creating Layer inception_5a/5x5_reduce
I0403 15:20:42.663301 31502 net.cpp:425] inception_5a/5x5_reduce <- pool4/3x3_s2_pool4/3x3_s2_0_split_2
I0403 15:20:42.663323 31502 net.cpp:399] inception_5a/5x5_reduce -> inception_5a/5x5_reduce
I0403 15:20:42.664527 31502 net.cpp:141] Setting up inception_5a/5x5_reduce
I0403 15:20:42.664561 31502 net.cpp:148] Top shape: 24 32 7 7 (37632)
I0403 15:20:42.664579 31502 net.cpp:156] Memory required for data: 1299200544
I0403 15:20:42.664609 31502 layer_factory.hpp:77] Creating layer inception_5a/relu_5x5_reduce
I0403 15:20:42.664628 31502 net.cpp:91] Creating Layer inception_5a/relu_5x5_reduce
I0403 15:20:42.664645 31502 net.cpp:425] inception_5a/relu_5x5_reduce <- inception_5a/5x5_reduce
I0403 15:20:42.664665 31502 net.cpp:386] inception_5a/relu_5x5_reduce -> inception_5a/5x5_reduce (in-place)
I0403 15:20:42.664969 31502 net.cpp:141] Setting up inception_5a/relu_5x5_reduce
I0403 15:20:42.664999 31502 net.cpp:148] Top shape: 24 32 7 7 (37632)
I0403 15:20:42.665015 31502 net.cpp:156] Memory required for data: 1299351072
I0403 15:20:42.665032 31502 layer_factory.hpp:77] Creating layer inception_5a/5x5
I0403 15:20:42.665056 31502 net.cpp:91] Creating Layer inception_5a/5x5
I0403 15:20:42.665074 31502 net.cpp:425] inception_5a/5x5 <- inception_5a/5x5_reduce
I0403 15:20:42.665096 31502 net.cpp:399] inception_5a/5x5 -> inception_5a/5x5
I0403 15:20:42.666837 31502 net.cpp:141] Setting up inception_5a/5x5
I0403 15:20:42.666882 31502 net.cpp:148] Top shape: 24 128 7 7 (150528)
I0403 15:20:42.666900 31502 net.cpp:156] Memory required for data: 1299953184
I0403 15:20:42.666918 31502 layer_factory.hpp:77] Creating layer inception_5a/relu_5x5
I0403 15:20:42.666939 31502 net.cpp:91] Creating Layer inception_5a/relu_5x5
I0403 15:20:42.666957 31502 net.cpp:425] inception_5a/relu_5x5 <- inception_5a/5x5
I0403 15:20:42.666975 31502 net.cpp:386] inception_5a/relu_5x5 -> inception_5a/5x5 (in-place)
I0403 15:20:42.667172 31502 net.cpp:141] Setting up inception_5a/relu_5x5
I0403 15:20:42.667198 31502 net.cpp:148] Top shape: 24 128 7 7 (150528)
I0403 15:20:42.667213 31502 net.cpp:156] Memory required for data: 1300555296
I0403 15:20:42.667229 31502 layer_factory.hpp:77] Creating layer inception_5a/pool
I0403 15:20:42.667248 31502 net.cpp:91] Creating Layer inception_5a/pool
I0403 15:20:42.667264 31502 net.cpp:425] inception_5a/pool <- pool4/3x3_s2_pool4/3x3_s2_0_split_3
I0403 15:20:42.667289 31502 net.cpp:399] inception_5a/pool -> inception_5a/pool
I0403 15:20:42.667362 31502 net.cpp:141] Setting up inception_5a/pool
I0403 15:20:42.667389 31502 net.cpp:148] Top shape: 24 832 7 7 (978432)
I0403 15:20:42.667405 31502 net.cpp:156] Memory required for data: 1304469024
I0403 15:20:42.667420 31502 layer_factory.hpp:77] Creating layer inception_5a/pool_proj
I0403 15:20:42.667443 31502 net.cpp:91] Creating Layer inception_5a/pool_proj
I0403 15:20:42.667461 31502 net.cpp:425] inception_5a/pool_proj <- inception_5a/pool
I0403 15:20:42.667481 31502 net.cpp:399] inception_5a/pool_proj -> inception_5a/pool_proj
I0403 15:20:42.669821 31502 net.cpp:141] Setting up inception_5a/pool_proj
I0403 15:20:42.669852 31502 net.cpp:148] Top shape: 24 128 7 7 (150528)
I0403 15:20:42.669868 31502 net.cpp:156] Memory required for data: 1305071136
I0403 15:20:42.669888 31502 layer_factory.hpp:77] Creating layer inception_5a/relu_pool_proj
I0403 15:20:42.669908 31502 net.cpp:91] Creating Layer inception_5a/relu_pool_proj
I0403 15:20:42.669925 31502 net.cpp:425] inception_5a/relu_pool_proj <- inception_5a/pool_proj
I0403 15:20:42.669945 31502 net.cpp:386] inception_5a/relu_pool_proj -> inception_5a/pool_proj (in-place)
I0403 15:20:42.670243 31502 net.cpp:141] Setting up inception_5a/relu_pool_proj
I0403 15:20:42.670269 31502 net.cpp:148] Top shape: 24 128 7 7 (150528)
I0403 15:20:42.670289 31502 net.cpp:156] Memory required for data: 1305673248
I0403 15:20:42.670306 31502 layer_factory.hpp:77] Creating layer inception_5a/output
I0403 15:20:42.670327 31502 net.cpp:91] Creating Layer inception_5a/output
I0403 15:20:42.670343 31502 net.cpp:425] inception_5a/output <- inception_5a/1x1
I0403 15:20:42.670361 31502 net.cpp:425] inception_5a/output <- inception_5a/3x3
I0403 15:20:42.670379 31502 net.cpp:425] inception_5a/output <- inception_5a/5x5
I0403 15:20:42.670397 31502 net.cpp:425] inception_5a/output <- inception_5a/pool_proj
I0403 15:20:42.670415 31502 net.cpp:399] inception_5a/output -> inception_5a/output
I0403 15:20:42.670469 31502 net.cpp:141] Setting up inception_5a/output
I0403 15:20:42.670492 31502 net.cpp:148] Top shape: 24 832 7 7 (978432)
I0403 15:20:42.670507 31502 net.cpp:156] Memory required for data: 1309586976
I0403 15:20:42.670523 31502 layer_factory.hpp:77] Creating layer inception_5a/output_inception_5a/output_0_split
I0403 15:20:42.670541 31502 net.cpp:91] Creating Layer inception_5a/output_inception_5a/output_0_split
I0403 15:20:42.670557 31502 net.cpp:425] inception_5a/output_inception_5a/output_0_split <- inception_5a/output
I0403 15:20:42.670578 31502 net.cpp:399] inception_5a/output_inception_5a/output_0_split -> inception_5a/output_inception_5a/output_0_split_0
I0403 15:20:42.670598 31502 net.cpp:399] inception_5a/output_inception_5a/output_0_split -> inception_5a/output_inception_5a/output_0_split_1
I0403 15:20:42.670619 31502 net.cpp:399] inception_5a/output_inception_5a/output_0_split -> inception_5a/output_inception_5a/output_0_split_2
I0403 15:20:42.670639 31502 net.cpp:399] inception_5a/output_inception_5a/output_0_split -> inception_5a/output_inception_5a/output_0_split_3
I0403 15:20:42.670754 31502 net.cpp:141] Setting up inception_5a/output_inception_5a/output_0_split
I0403 15:20:42.670781 31502 net.cpp:148] Top shape: 24 832 7 7 (978432)
I0403 15:20:42.670799 31502 net.cpp:148] Top shape: 24 832 7 7 (978432)
I0403 15:20:42.670814 31502 net.cpp:148] Top shape: 24 832 7 7 (978432)
I0403 15:20:42.670830 31502 net.cpp:148] Top shape: 24 832 7 7 (978432)
I0403 15:20:42.670843 31502 net.cpp:156] Memory required for data: 1325241888
I0403 15:20:42.670858 31502 layer_factory.hpp:77] Creating layer inception_5b/1x1
I0403 15:20:42.670881 31502 net.cpp:91] Creating Layer inception_5b/1x1
I0403 15:20:42.670900 31502 net.cpp:425] inception_5b/1x1 <- inception_5a/output_inception_5a/output_0_split_0
I0403 15:20:42.670920 31502 net.cpp:399] inception_5b/1x1 -> inception_5b/1x1
I0403 15:20:42.674849 31502 net.cpp:141] Setting up inception_5b/1x1
I0403 15:20:42.674899 31502 net.cpp:148] Top shape: 24 384 7 7 (451584)
I0403 15:20:42.674917 31502 net.cpp:156] Memory required for data: 1327048224
I0403 15:20:42.674937 31502 layer_factory.hpp:77] Creating layer inception_5b/relu_1x1
I0403 15:20:42.674957 31502 net.cpp:91] Creating Layer inception_5b/relu_1x1
I0403 15:20:42.674976 31502 net.cpp:425] inception_5b/relu_1x1 <- inception_5b/1x1
I0403 15:20:42.674994 31502 net.cpp:386] inception_5b/relu_1x1 -> inception_5b/1x1 (in-place)
I0403 15:20:42.675304 31502 net.cpp:141] Setting up inception_5b/relu_1x1
I0403 15:20:42.675353 31502 net.cpp:148] Top shape: 24 384 7 7 (451584)
I0403 15:20:42.675396 31502 net.cpp:156] Memory required for data: 1328854560
I0403 15:20:42.675449 31502 layer_factory.hpp:77] Creating layer inception_5b/3x3_reduce
I0403 15:20:42.675496 31502 net.cpp:91] Creating Layer inception_5b/3x3_reduce
I0403 15:20:42.675518 31502 net.cpp:425] inception_5b/3x3_reduce <- inception_5a/output_inception_5a/output_0_split_1
I0403 15:20:42.675539 31502 net.cpp:399] inception_5b/3x3_reduce -> inception_5b/3x3_reduce
I0403 15:20:42.678288 31502 net.cpp:141] Setting up inception_5b/3x3_reduce
I0403 15:20:42.678319 31502 net.cpp:148] Top shape: 24 192 7 7 (225792)
I0403 15:20:42.678339 31502 net.cpp:156] Memory required for data: 1329757728
I0403 15:20:42.678357 31502 layer_factory.hpp:77] Creating layer inception_5b/relu_3x3_reduce
I0403 15:20:42.678378 31502 net.cpp:91] Creating Layer inception_5b/relu_3x3_reduce
I0403 15:20:42.678396 31502 net.cpp:425] inception_5b/relu_3x3_reduce <- inception_5b/3x3_reduce
I0403 15:20:42.678414 31502 net.cpp:386] inception_5b/relu_3x3_reduce -> inception_5b/3x3_reduce (in-place)
I0403 15:20:42.678606 31502 net.cpp:141] Setting up inception_5b/relu_3x3_reduce
I0403 15:20:42.678634 31502 net.cpp:148] Top shape: 24 192 7 7 (225792)
I0403 15:20:42.678653 31502 net.cpp:156] Memory required for data: 1330660896
I0403 15:20:42.678668 31502 layer_factory.hpp:77] Creating layer inception_5b/3x3
I0403 15:20:42.678690 31502 net.cpp:91] Creating Layer inception_5b/3x3
I0403 15:20:42.678709 31502 net.cpp:425] inception_5b/3x3 <- inception_5b/3x3_reduce
I0403 15:20:42.678730 31502 net.cpp:399] inception_5b/3x3 -> inception_5b/3x3
I0403 15:20:42.685451 31502 net.cpp:141] Setting up inception_5b/3x3
I0403 15:20:42.685483 31502 net.cpp:148] Top shape: 24 384 7 7 (451584)
I0403 15:20:42.685502 31502 net.cpp:156] Memory required for data: 1332467232
I0403 15:20:42.685523 31502 layer_factory.hpp:77] Creating layer inception_5b/relu_3x3
I0403 15:20:42.685551 31502 net.cpp:91] Creating Layer inception_5b/relu_3x3
I0403 15:20:42.685577 31502 net.cpp:425] inception_5b/relu_3x3 <- inception_5b/3x3
I0403 15:20:42.685598 31502 net.cpp:386] inception_5b/relu_3x3 -> inception_5b/3x3 (in-place)
I0403 15:20:42.685930 31502 net.cpp:141] Setting up inception_5b/relu_3x3
I0403 15:20:42.685962 31502 net.cpp:148] Top shape: 24 384 7 7 (451584)
I0403 15:20:42.685986 31502 net.cpp:156] Memory required for data: 1334273568
I0403 15:20:42.686004 31502 layer_factory.hpp:77] Creating layer inception_5b/5x5_reduce
I0403 15:20:42.686046 31502 net.cpp:91] Creating Layer inception_5b/5x5_reduce
I0403 15:20:42.686079 31502 net.cpp:425] inception_5b/5x5_reduce <- inception_5a/output_inception_5a/output_0_split_2
I0403 15:20:42.686099 31502 net.cpp:399] inception_5b/5x5_reduce -> inception_5b/5x5_reduce
I0403 15:20:42.687501 31502 net.cpp:141] Setting up inception_5b/5x5_reduce
I0403 15:20:42.687539 31502 net.cpp:148] Top shape: 24 48 7 7 (56448)
I0403 15:20:42.687556 31502 net.cpp:156] Memory required for data: 1334499360
I0403 15:20:42.687578 31502 layer_factory.hpp:77] Creating layer inception_5b/relu_5x5_reduce
I0403 15:20:42.687599 31502 net.cpp:91] Creating Layer inception_5b/relu_5x5_reduce
I0403 15:20:42.687615 31502 net.cpp:425] inception_5b/relu_5x5_reduce <- inception_5b/5x5_reduce
I0403 15:20:42.687633 31502 net.cpp:386] inception_5b/relu_5x5_reduce -> inception_5b/5x5_reduce (in-place)
I0403 15:20:42.688020 31502 net.cpp:141] Setting up inception_5b/relu_5x5_reduce
I0403 15:20:42.688047 31502 net.cpp:148] Top shape: 24 48 7 7 (56448)
I0403 15:20:42.688063 31502 net.cpp:156] Memory required for data: 1334725152
I0403 15:20:42.688078 31502 layer_factory.hpp:77] Creating layer inception_5b/5x5
I0403 15:20:42.688099 31502 net.cpp:91] Creating Layer inception_5b/5x5
I0403 15:20:42.688117 31502 net.cpp:425] inception_5b/5x5 <- inception_5b/5x5_reduce
I0403 15:20:42.688136 31502 net.cpp:399] inception_5b/5x5 -> inception_5b/5x5
I0403 15:20:42.690217 31502 net.cpp:141] Setting up inception_5b/5x5
I0403 15:20:42.690248 31502 net.cpp:148] Top shape: 24 128 7 7 (150528)
I0403 15:20:42.690266 31502 net.cpp:156] Memory required for data: 1335327264
I0403 15:20:42.690289 31502 layer_factory.hpp:77] Creating layer inception_5b/relu_5x5
I0403 15:20:42.690310 31502 net.cpp:91] Creating Layer inception_5b/relu_5x5
I0403 15:20:42.690326 31502 net.cpp:425] inception_5b/relu_5x5 <- inception_5b/5x5
I0403 15:20:42.690346 31502 net.cpp:386] inception_5b/relu_5x5 -> inception_5b/5x5 (in-place)
I0403 15:20:42.690543 31502 net.cpp:141] Setting up inception_5b/relu_5x5
I0403 15:20:42.690569 31502 net.cpp:148] Top shape: 24 128 7 7 (150528)
I0403 15:20:42.690585 31502 net.cpp:156] Memory required for data: 1335929376
I0403 15:20:42.690601 31502 layer_factory.hpp:77] Creating layer inception_5b/pool
I0403 15:20:42.690629 31502 net.cpp:91] Creating Layer inception_5b/pool
I0403 15:20:42.690645 31502 net.cpp:425] inception_5b/pool <- inception_5a/output_inception_5a/output_0_split_3
I0403 15:20:42.690667 31502 net.cpp:399] inception_5b/pool -> inception_5b/pool
I0403 15:20:42.690742 31502 net.cpp:141] Setting up inception_5b/pool
I0403 15:20:42.690768 31502 net.cpp:148] Top shape: 24 832 7 7 (978432)
I0403 15:20:42.690783 31502 net.cpp:156] Memory required for data: 1339843104
I0403 15:20:42.690798 31502 layer_factory.hpp:77] Creating layer inception_5b/pool_proj
I0403 15:20:42.690832 31502 net.cpp:91] Creating Layer inception_5b/pool_proj
I0403 15:20:42.690850 31502 net.cpp:425] inception_5b/pool_proj <- inception_5b/pool
I0403 15:20:42.690871 31502 net.cpp:399] inception_5b/pool_proj -> inception_5b/pool_proj
I0403 15:20:42.693264 31502 net.cpp:141] Setting up inception_5b/pool_proj
I0403 15:20:42.693302 31502 net.cpp:148] Top shape: 24 128 7 7 (150528)
I0403 15:20:42.693321 31502 net.cpp:156] Memory required for data: 1340445216
I0403 15:20:42.693341 31502 layer_factory.hpp:77] Creating layer inception_5b/relu_pool_proj
I0403 15:20:42.693361 31502 net.cpp:91] Creating Layer inception_5b/relu_pool_proj
I0403 15:20:42.693380 31502 net.cpp:425] inception_5b/relu_pool_proj <- inception_5b/pool_proj
I0403 15:20:42.693400 31502 net.cpp:386] inception_5b/relu_pool_proj -> inception_5b/pool_proj (in-place)
I0403 15:20:42.693724 31502 net.cpp:141] Setting up inception_5b/relu_pool_proj
I0403 15:20:42.693753 31502 net.cpp:148] Top shape: 24 128 7 7 (150528)
I0403 15:20:42.693769 31502 net.cpp:156] Memory required for data: 1341047328
I0403 15:20:42.693785 31502 layer_factory.hpp:77] Creating layer inception_5b/output
I0403 15:20:42.693804 31502 net.cpp:91] Creating Layer inception_5b/output
I0403 15:20:42.693835 31502 net.cpp:425] inception_5b/output <- inception_5b/1x1
I0403 15:20:42.693853 31502 net.cpp:425] inception_5b/output <- inception_5b/3x3
I0403 15:20:42.693869 31502 net.cpp:425] inception_5b/output <- inception_5b/5x5
I0403 15:20:42.693886 31502 net.cpp:425] inception_5b/output <- inception_5b/pool_proj
I0403 15:20:42.693904 31502 net.cpp:399] inception_5b/output -> inception_5b/output
I0403 15:20:42.693965 31502 net.cpp:141] Setting up inception_5b/output
I0403 15:20:42.693990 31502 net.cpp:148] Top shape: 24 1024 7 7 (1204224)
I0403 15:20:42.694005 31502 net.cpp:156] Memory required for data: 1345864224
I0403 15:20:42.694020 31502 layer_factory.hpp:77] Creating layer pool5/7x7_s1
I0403 15:20:42.694039 31502 net.cpp:91] Creating Layer pool5/7x7_s1
I0403 15:20:42.694056 31502 net.cpp:425] pool5/7x7_s1 <- inception_5b/output
I0403 15:20:42.694075 31502 net.cpp:399] pool5/7x7_s1 -> pool5/7x7_s1
I0403 15:20:42.694304 31502 net.cpp:141] Setting up pool5/7x7_s1
I0403 15:20:42.694334 31502 net.cpp:148] Top shape: 24 1024 1 1 (24576)
I0403 15:20:42.694351 31502 net.cpp:156] Memory required for data: 1345962528
I0403 15:20:42.694367 31502 layer_factory.hpp:77] Creating layer pool5/drop_7x7_s1
I0403 15:20:42.694386 31502 net.cpp:91] Creating Layer pool5/drop_7x7_s1
I0403 15:20:42.694401 31502 net.cpp:425] pool5/drop_7x7_s1 <- pool5/7x7_s1
I0403 15:20:42.694421 31502 net.cpp:386] pool5/drop_7x7_s1 -> pool5/7x7_s1 (in-place)
I0403 15:20:42.694473 31502 net.cpp:141] Setting up pool5/drop_7x7_s1
I0403 15:20:42.694497 31502 net.cpp:148] Top shape: 24 1024 1 1 (24576)
I0403 15:20:42.694512 31502 net.cpp:156] Memory required for data: 1346060832
I0403 15:20:42.694526 31502 layer_factory.hpp:77] Creating layer loss3/classifier_plantvillage
I0403 15:20:42.694548 31502 net.cpp:91] Creating Layer loss3/classifier_plantvillage
I0403 15:20:42.694566 31502 net.cpp:425] loss3/classifier_plantvillage <- pool5/7x7_s1
I0403 15:20:42.694586 31502 net.cpp:399] loss3/classifier_plantvillage -> loss3/classifier_plantvillage
I0403 15:20:42.695013 31502 net.cpp:141] Setting up loss3/classifier_plantvillage
I0403 15:20:42.695039 31502 net.cpp:148] Top shape: 24 38 (912)
I0403 15:20:42.695055 31502 net.cpp:156] Memory required for data: 1346064480
I0403 15:20:42.695073 31502 layer_factory.hpp:77] Creating layer loss3/classifier_plantvillage_loss3/classifier_plantvillage_0_split
I0403 15:20:42.695093 31502 net.cpp:91] Creating Layer loss3/classifier_plantvillage_loss3/classifier_plantvillage_0_split
I0403 15:20:42.695111 31502 net.cpp:425] loss3/classifier_plantvillage_loss3/classifier_plantvillage_0_split <- loss3/classifier_plantvillage
I0403 15:20:42.695132 31502 net.cpp:399] loss3/classifier_plantvillage_loss3/classifier_plantvillage_0_split -> loss3/classifier_plantvillage_loss3/classifier_plantvillage_0_split_0
I0403 15:20:42.695152 31502 net.cpp:399] loss3/classifier_plantvillage_loss3/classifier_plantvillage_0_split -> loss3/classifier_plantvillage_loss3/classifier_plantvillage_0_split_1
I0403 15:20:42.695174 31502 net.cpp:399] loss3/classifier_plantvillage_loss3/classifier_plantvillage_0_split -> loss3/classifier_plantvillage_loss3/classifier_plantvillage_0_split_2
I0403 15:20:42.695194 31502 net.cpp:399] loss3/classifier_plantvillage_loss3/classifier_plantvillage_0_split -> loss3/classifier_plantvillage_loss3/classifier_plantvillage_0_split_3
I0403 15:20:42.695308 31502 net.cpp:141] Setting up loss3/classifier_plantvillage_loss3/classifier_plantvillage_0_split
I0403 15:20:42.695333 31502 net.cpp:148] Top shape: 24 38 (912)
I0403 15:20:42.695349 31502 net.cpp:148] Top shape: 24 38 (912)
I0403 15:20:42.695364 31502 net.cpp:148] Top shape: 24 38 (912)
I0403 15:20:42.695380 31502 net.cpp:148] Top shape: 24 38 (912)
I0403 15:20:42.695395 31502 net.cpp:156] Memory required for data: 1346079072
I0403 15:20:42.695410 31502 layer_factory.hpp:77] Creating layer loss1/loss
I0403 15:20:42.695432 31502 net.cpp:91] Creating Layer loss1/loss
I0403 15:20:42.695451 31502 net.cpp:425] loss1/loss <- loss1/classifier_plantvillage_loss1/classifier_plantvillage_0_split_0
I0403 15:20:42.695483 31502 net.cpp:425] loss1/loss <- label_data_1_split_0
…
