…
I0403 15:45:01.219511   652 net.cpp:313] The NetState phase (1) differed from the phase (0) specified by a rule in layer data
I0403 15:45:01.220692   652 net.cpp:49] Initializing net from parameters: 
state {
  phase: TEST
}
layer {
  name: "data"
  type: "Data"
  top: "data"
  top: "label"
  include {
    phase: TEST
  }
  transform_param {
    mirror: false
    crop_size: 224
    mean_file: "/home/mohanty/data/final_dataset/lmdb/color-60-40/mean.binaryproto"
  }
  data_param {
    source: "/home/mohanty/data/final_dataset/lmdb/color-60-40/test_db"
    batch_size: 24
    backend: LMDB
  }
}
layer {
  name: "conv1/7x7_s2"
  type: "Convolution"
  bottom: "data"
  top: "conv1/7x7_s2"
  param {
    lr_mult: 1
    decay_mult: 1
  }
  param {
    lr_mult: 2
    decay_mult: 0
  }
  convolution_param {
    num_output: 64
    pad: 3
    kernel_size: 7
    stride: 2
    weight_filler {
      type: "xavier"
      std: 0.1
    }
    bias_filler {
      type: "constant"
      value: 0.2
    }
  }
}
layer {
  name: "conv1/relu_7x7"
  type: "ReLU"
  bottom: "conv1/7x7_s2"
  top: "conv1/7x7_s2"
}
layer {
  name: "pool1/3x3_s2"
  type: "Pooling"
  bottom: "conv1/7x7_s2"
  top: "pool1/3x3_s2"
  pooling_param {
    pool: MAX
    kernel_size: 3
    stride: 2
  }
}
layer {
  name: "pool1/norm1"
  type: "LRN"
  bottom: "pool1/3x3_s2"
  top: "pool1/norm1"
  lrn_param {
    local_size: 5
    alpha: 0.0001
    beta: 0.75
  }
}
layer {
  name: "conv2/3x3_reduce"
  type: "Convolution"
  bottom: "pool1/norm1"
  top: "conv2/3x3_reduce"
  param {
    lr_mult: 1
    decay_mult: 1
  }
  param {
    lr_mult: 2
    decay_mult: 0
  }
  convolution_param {
    num_output: 64
    kernel_size: 1
    weight_filler {
      type: "xavier"
      std: 0.1
    }
    bias_filler {
      type: "constant"
      value: 0.2
    }
  }
}
layer {
  name: "conv2/relu_3x3_reduce"
  type: "ReLU"
  bottom: "conv2/3x3_reduce"
  top: "conv2/3x3_reduce"
}
layer {
  name: "conv2/3x3"
  type: "Convolution"
  bottom: "conv2/3x3_reduce"
  top: "conv2/3x3"
  param {
    lr_mult: 1
    decay_mult: 1
  }
  param {
    lr_mult: 2
    decay_mult: 0
  }
  convolution_param {
    num_output: 192
    pad: 1
    kernel_size: 3
    weight_filler {
      type: "xavier"
      std: 0.03
    }
    bias_filler {
      type: "constant"
      value: 0.2
    }
  }
}
layer {
  name: "conv2/relu_3x3"
  type: "ReLU"
  bottom: "conv2/3x3"
  top: "conv2/3x3"
}
layer {
  name: "conv2/norm2"
  type: "LRN"
  bottom: "conv2/3x3"
  top: "conv2/norm2"
  lrn_param {
    local_size: 5
    alpha: 0.0001
    beta: 0.75
  }
}
layer {
  name: "pool2/3x3_s2"
  type: "Pooling"
  bottom: "conv2/norm2"
  top: "pool2/3x3_s2"
  pooling_param {
    pool: MAX
    kernel_size: 3
    stride: 2
  }
}
layer {
  name: "inception_3a/1x1"
  type: "Convolution"
  bottom: "pool2/3x3_s2"
  top: "inception_3a/1x1"
  param {
    lr_mult: 1
    decay_mult: 1
  }
  param {
    lr_mult: 2
    decay_mult: 0
  }
  convolution_param {
    num_output: 64
    kernel_size: 1
    weight_filler {
      type: "xavier"
      std: 0.03
    }
    bias_filler {
      type: "constant"
      value: 0.2
    }
  }
}
layer {
  name: "inception_3a/relu_1x1"
  type: "ReLU"
  bottom: "inception_3a/1x1"
  top: "inception_3a/1x1"
}
layer {
  name: "inception_3a/3x3_reduce"
  type: "Convolution"
  bottom: "pool2/3x3_s2"
  top: "inception_3a/3x3_reduce"
  param {
    lr_mult: 1
    decay_mult: 1
  }
  param {
    lr_mult: 2
    decay_mult: 0
  }
  convolution_param {
    num_output: 96
    kernel_size: 1
    weight_filler {
      type: "xavier"
      std: 0.09
    }
    bias_filler {
      type: "constant"
      value: 0.2
    }
  }
}
layer {
  name: "inception_3a/relu_3x3_reduce"
  type: "ReLU"
  bottom: "inception_3a/3x3_reduce"
  top: "inception_3a/3x3_reduce"
}
layer {
  name: "inception_3a/3x3"
  type: "Convolution"
  bottom: "inception_3a/3x3_reduce"
  top: "inception_3a/3x3"
  param {
    lr_mult: 1
    decay_mult: 1
  }
  param {
    lr_mult: 2
    decay_mult: 0
  }
  convolution_param {
    num_output: 128
    pad: 1
    kernel_size: 3
    weight_filler {
      type: "xavier"
      std: 0.03
    }
    bias_filler {
      type: "constant"
      value: 0.2
    }
  }
}
layer {
  name: "inception_3a/relu_3x3"
  type: "ReLU"
  bottom: "inception_3a/3x3"
  top: "inception_3a/3x3"
}
layer {
  name: "inception_3a/5x5_reduce"
  type: "Convolution"
  bottom: "pool2/3x3_s2"
  top: "inception_3a/5x5_reduce"
  param {
    lr_mult: 1
    decay_mult: 1
  }
  param {
    lr_mult: 2
    decay_mult: 0
  }
  convolution_param {
    num_output: 16
    kernel_size: 1
    weight_filler {
      type: "xavier"
      std: 0.2
    }
    bias_filler {
      type: "constant"
      value: 0.2
    }
  }
}
layer {
  name: "inception_3a/relu_5x5_reduce"
  type: "ReLU"
  bottom: "inception_3a/5x5_reduce"
  top: "inception_3a/5x5_reduce"
}
layer {
  name: "inception_3a/5x5"
  type: "Convolution"
  bottom: "inception_3a/5x5_reduce"
  top: "inception_3a/5x5"
  param {
    lr_mult: 1
    decay_mult: 1
  }
  param {
    lr_mult: 2
    decay_mult: 0
  }
  convolution_param {
    num_output: 32
    pad: 2
    kernel_size: 5
    weight_filler {
      type: "xavier"
      std: 0.03
    }
    bias_filler {
      type: "constant"
      value: 0.2
    }
  }
}
layer {
  name: "inception_3a/relu_5x5"
  type: "ReLU"
  bottom: "inception_3a/5x5"
  top: "inception_3a/5x5"
}
layer {
  name: "inception_3a/pool"
  type: "Pooling"
  bottom: "pool2/3x3_s2"
  top: "inception_3a/pool"
  pooling_param {
    pool: MAX
    kernel_size: 3
    stride: 1
    pad: 1
  }
}
layer {
  name: "inception_3a/pool_proj"
  type: "Convolution"
  bottom: "inception_3a/pool"
  top: "inception_3a/pool_proj"
  param {
    lr_mult: 1
    decay_mult: 1
  }
  param {
    lr_mult: 2
    decay_mult: 0
  }
  convolution_param {
    num_output: 32
    kernel_size: 1
    weight_filler {
      type: "xavier"
      std: 0.1
    }
    bias_filler {
      type: "constant"
      value: 0.2
    }
  }
}
layer {
  name: "inception_3a/relu_pool_proj"
  type: "ReLU"
  bottom: "inception_3a/pool_proj"
  top: "inception_3a/pool_proj"
}
layer {
  name: "inception_3a/output"
  type: "Concat"
  bottom: "inception_3a/1x1"
  bottom: "inception_3a/3x3"
  bottom: "inception_3a/5x5"
  bottom: "inception_3a/pool_proj"
  top: "inception_3a/output"
}
layer {
  name: "inception_3b/1x1"
  type: "Convolution"
  bottom: "inception_3a/output"
  top: "inception_3b/1x1"
  param {
    lr_mult: 1
    decay_mult: 1
  }
  param {
    lr_mult: 2
    decay_mult: 0
  }
  convolution_param {
    num_output: 128
    kernel_size: 1
    weight_filler {
      type: "xavier"
      std: 0.03
    }
    bias_filler {
      type: "constant"
      value: 0.2
    }
  }
}
layer {
  name: "inception_3b/relu_1x1"
  type: "ReLU"
  bottom: "inception_3b/1x1"
  top: "inception_3b/1x1"
}
layer {
  name: "inception_3b/3x3_reduce"
  type: "Convolution"
  bottom: "inception_3a/output"
  top: "inception_3b/3x3_reduce"
  param {
    lr_mult: 1
    decay_mult: 1
  }
  param {
    lr_mult: 2
    decay_mult: 0
  }
  convolution_param {
    num_output: 128
    kernel_size: 1
    weight_filler {
      type: "xavier"
      std: 0.09
    }
    bias_filler {
      type: "constant"
      value: 0.2
    }
  }
}
layer {
  name: "inception_3b/relu_3x3_reduce"
  type: "ReLU"
  bottom: "inception_3b/3x3_reduce"
  top: "inception_3b/3x3_reduce"
}
layer {
  name: "inception_3b/3x3"
  type: "Convolution"
  bottom: "inception_3b/3x3_reduce"
  top: "inception_3b/3x3"
  param {
    lr_mult: 1
    decay_mult: 1
  }
  param {
    lr_mult: 2
    decay_mult: 0
  }
  convolution_param {
    num_output: 192
    pad: 1
    kernel_size: 3
    weight_filler {
      type: "xavier"
      std: 0.03
    }
    bias_filler {
      type: "constant"
      value: 0.2
    }
  }
}
layer {
  name: "inception_3b/relu_3x3"
  type: "ReLU"
  bottom: "inception_3b/3x3"
  top: "inception_3b/3x3"
}
layer {
  name: "inception_3b/5x5_reduce"
  type: "Convolution"
  bottom: "inception_3a/output"
  top: "inception_3b/5x5_reduce"
  param {
    lr_mult: 1
    decay_mult: 1
  }
  param {
    lr_mult: 2
    decay_mult: 0
  }
  convolution_param {
    num_output: 32
    kernel_size: 1
    weight_filler {
      type: "xavier"
      std: 0.2
    }
    bias_filler {
      type: "constant"
      value: 0.2
    }
  }
}
layer {
  name: "inception_3b/relu_5x5_reduce"
  type: "ReLU"
  bottom: "inception_3b/5x5_reduce"
  top: "inception_3b/5x5_reduce"
}
layer {
  name: "inception_3b/5x5"
  type: "Convolution"
  bottom: "inception_3b/5x5_reduce"
  top: "inception_3b/5x5"
  param {
    lr_mult: 1
    decay_mult: 1
  }
  param {
    lr_mult: 2
    decay_mult: 0
  }
  convolution_param {
    num_output: 96
    pad: 2
    kernel_size: 5
    weight_filler {
      type: "xavier"
      std: 0.03
    }
    bias_filler {
      type: "constant"
      value: 0.2
    }
  }
}
layer {
  name: "inception_3b/relu_5x5"
  type: "ReLU"
  bottom: "inception_3b/5x5"
  top: "inception_3b/5x5"
}
layer {
  name: "inception_3b/pool"
  type: "Pooling"
  bottom: "inception_3a/output"
  top: "inception_3b/pool"
  pooling_param {
    pool: MAX
    kernel_size: 3
    stride: 1
    pad: 1
  }
}
layer {
  name: "inception_3b/pool_proj"
  type: "Convolution"
  bottom: "inception_3b/pool"
  top: "inception_3b/pool_proj"
  param {
    lr_mult: 1
    decay_mult: 1
  }
  param {
    lr_mult: 2
    decay_mult: 0
  }
  convolution_param {
    num_output: 64
    kernel_size: 1
    weight_filler {
      type: "xavier"
      std: 0.1
    }
    bias_filler {
      type: "constant"
      value: 0.2
    }
  }
}
layer {
  name: "inception_3b/relu_pool_proj"
  type: "ReLU"
  bottom: "inception_3b/pool_proj"
  top: "inception_3b/pool_proj"
}
layer {
  name: "inception_3b/output"
  type: "Concat"
  bottom: "inception_3b/1x1"
  bottom: "inception_3b/3x3"
  bottom: "inception_3b/5x5"
  bottom: "inception_3b/pool_proj"
  top: "inception_3b/output"
}
layer {
  name: "pool3/3x3_s2"
  type: "Pooling"
  bottom: "inception_3b/output"
  top: "pool3/3x3_s2"
  pooling_param {
    pool: MAX
    kernel_size: 3
    stride: 2
  }
}
layer {
  name: "inception_4a/1x1"
  type: "Convolution"
  bottom: "pool3/3x3_s2"
  top: "inception_4a/1x1"
  param {
    lr_mult: 1
    decay_mult: 1
  }
  param {
    lr_mult: 2
    decay_mult: 0
  }
  convolution_param {
    num_output: 192
    kernel_size: 1
    weight_filler {
      type: "xavier"
      std: 0.03
    }
    bias_filler {
      type: "constant"
      value: 0.2
    }
  }
}
layer {
  name: "inception_4a/relu_1x1"
  type: "ReLU"
  bottom: "inception_4a/1x1"
  top: "inception_4a/1x1"
}
layer {
  name: "inception_4a/3x3_reduce"
  type: "Convolution"
  bottom: "pool3/3x3_s2"
  top: "inception_4a/3x3_reduce"
  param {
    lr_mult: 1
    decay_mult: 1
  }
  param {
    lr_mult: 2
    decay_mult: 0
  }
  convolution_param {
    num_output: 96
    kernel_size: 1
    weight_filler {
      type: "xavier"
      std: 0.09
    }
    bias_filler {
      type: "constant"
      value: 0.2
    }
  }
}
layer {
  name: "inception_4a/relu_3x3_reduce"
  type: "ReLU"
  bottom: "inception_4a/3x3_reduce"
  top: "inception_4a/3x3_reduce"
}
layer {
  name: "inception_4a/3x3"
  type: "Convolution"
  bottom: "inception_4a/3x3_reduce"
  top: "inception_4a/3x3"
  param {
    lr_mult: 1
    decay_mult: 1
  }
  param {
    lr_mult: 2
    decay_mult: 0
  }
  convolution_param {
    num_output: 208
    pad: 1
    kernel_size: 3
    weight_filler {
      type: "xavier"
      std: 0.03
    }
    bias_filler {
      type: "constant"
      value: 0.2
    }
  }
}
layer {
  name: "inception_4a/relu_3x3"
  type: "ReLU"
  bottom: "inception_4a/3x3"
  top: "inception_4a/3x3"
}
layer {
  name: "inception_4a/5x5_reduce"
  type: "Convolution"
  bottom: "pool3/3x3_s2"
  top: "inception_4a/5x5_reduce"
  param {
    lr_mult: 1
    decay_mult: 1
  }
  param {
    lr_mult: 2
    decay_mult: 0
  }
  convolution_param {
    num_output: 16
    kernel_size: 1
    weight_filler {
      type: "xavier"
      std: 0.2
    }
    bias_filler {
      type: "constant"
      value: 0.2
    }
  }
}
layer {
  name: "inception_4a/relu_5x5_reduce"
  type: "ReLU"
  bottom: "inception_4a/5x5_reduce"
  top: "inception_4a/5x5_reduce"
}
layer {
  name: "inception_4a/5x5"
  type: "Convolution"
  bottom: "inception_4a/5x5_reduce"
  top: "inception_4a/5x5"
  param {
    lr_mult: 1
    decay_mult: 1
  }
  param {
    lr_mult: 2
    decay_mult: 0
  }
  convolution_param {
    num_output: 48
    pad: 2
    kernel_size: 5
    weight_filler {
      type: "xavier"
      std: 0.03
    }
    bias_filler {
      type: "constant"
      value: 0.2
    }
  }
}
layer {
  name: "inception_4a/relu_5x5"
  type: "ReLU"
  bottom: "inception_4a/5x5"
  top: "inception_4a/5x5"
}
layer {
  name: "inception_4a/pool"
  type: "Pooling"
  bottom: "pool3/3x3_s2"
  top: "inception_4a/pool"
  pooling_param {
    pool: MAX
    kernel_size: 3
    stride: 1
    pad: 1
  }
}
layer {
  name: "inception_4a/pool_proj"
  type: "Convolution"
  bottom: "inception_4a/pool"
  top: "inception_4a/pool_proj"
  param {
    lr_mult: 1
    decay_mult: 1
  }
  param {
    lr_mult: 2
    decay_mult: 0
  }
  convolution_param {
    num_output: 64
    kernel_size: 1
    weight_filler {
      type: "xavier"
      std: 0.1
    }
    bias_filler {
      type: "constant"
      value: 0.2
    }
  }
}
layer {
  name: "inception_4a/relu_pool_proj"
  type: "ReLU"
  bottom: "inception_4a/pool_proj"
  top: "inception_4a/pool_proj"
}
layer {
  name: "inception_4a/output"
  type: "Concat"
  bottom: "inception_4a/1x1"
  bottom: "inception_4a/3x3"
  bottom: "inception_4a/5x5"
  bottom: "inception_4a/pool_proj"
  top: "inception_4a/output"
}
layer {
  name: "loss1/ave_pool"
  type: "Pooling"
  bottom: "inception_4a/output"
  top: "loss1/ave_pool"
  pooling_param {
    pool: AVE
    kernel_size: 5
    stride: 3
  }
}
layer {
  name: "loss1/conv"
  type: "Convolution"
  bottom: "loss1/ave_pool"
  top: "loss1/conv"
  param {
    lr_mult: 1
    decay_mult: 1
  }
  param {
    lr_mult: 2
    decay_mult: 0
  }
  convolution_param {
    num_output: 128
    kernel_size: 1
    weight_filler {
      type: "xavier"
      std: 0.08
    }
    bias_filler {
      type: "constant"
      value: 0.2
    }
  }
}
layer {
  name: "loss1/relu_conv"
  type: "ReLU"
  bottom: "loss1/conv"
  top: "loss1/conv"
}
layer {
  name: "loss1/fc"
  type: "InnerProduct"
  bottom: "loss1/conv"
  top: "loss1/fc"
  param {
    lr_mult: 1
    decay_mult: 1
  }
  param {
    lr_mult: 2
    decay_mult: 0
  }
  inner_product_param {
    num_output: 1024
    weight_filler {
      type: "xavier"
      std: 0.02
    }
    bias_filler {
      type: "constant"
      value: 0.2
    }
  }
}
layer {
  name: "loss1/relu_fc"
  type: "ReLU"
  bottom: "loss1/fc"
  top: "loss1/fc"
}
layer {
  name: "loss1/drop_fc"
  type: "Dropout"
  bottom: "loss1/fc"
  top: "loss1/fc"
  dropout_param {
    dropout_ratio: 0.7
  }
}
layer {
  name: "loss1/classifier_plantvillage"
  type: "InnerProduct"
  bottom: "loss1/fc"
  top: "loss1/classifier_plantvillage"
  param {
    lr_mult: 1
    decay_mult: 1
  }
  param {
    lr_mult: 2
    decay_mult: 0
  }
  inner_product_param {
    num_output: 38
    weight_filler {
      type: "xavier"
      std: 0.0009765625
    }
    bias_filler {
      type: "constant"
      value: 0
    }
  }
}
layer {
  name: "inception_4b/1x1"
  type: "Convolution"
  bottom: "inception_4a/output"
  top: "inception_4b/1x1"
  param {
    lr_mult: 1
    decay_mult: 1
  }
  param {
    lr_mult: 2
    decay_mult: 0
  }
  convolution_param {
    num_output: 160
    kernel_size: 1
    weight_filler {
      type: "xavier"
      std: 0.03
    }
    bias_filler {
      type: "constant"
      value: 0.2
    }
  }
}
layer {
  name: "inception_4b/relu_1x1"
  type: "ReLU"
  bottom: "inception_4b/1x1"
  top: "inception_4b/1x1"
}
layer {
  name: "inception_4b/3x3_reduce"
  type: "Convolution"
  bottom: "inception_4a/output"
  top: "inception_4b/3x3_reduce"
  param {
    lr_mult: 1
    decay_mult: 1
  }
  param {
    lr_mult: 2
    decay_mult: 0
  }
  convolution_param {
    num_output: 112
    kernel_size: 1
    weight_filler {
      type: "xavier"
      std: 0.09
    }
    bias_filler {
      type: "constant"
      value: 0.2
    }
  }
}
layer {
  name: "inception_4b/relu_3x3_reduce"
  type: "ReLU"
  bottom: "inception_4b/3x3_reduce"
  top: "inception_4b/3x3_reduce"
}
layer {
  name: "inception_4b/3x3"
  type: "Convolution"
  bottom: "inception_4b/3x3_reduce"
  top: "inception_4b/3x3"
  param {
    lr_mult: 1
    decay_mult: 1
  }
  param {
    lr_mult: 2
    decay_mult: 0
  }
  convolution_param {
    num_output: 224
    pad: 1
    kernel_size: 3
    weight_filler {
      type: "xavier"
      std: 0.03
    }
    bias_filler {
      type: "constant"
      value: 0.2
    }
  }
}
layer {
  name: "inception_4b/relu_3x3"
  type: "ReLU"
  bottom: "inception_4b/3x3"
  top: "inception_4b/3x3"
}
layer {
  name: "inception_4b/5x5_reduce"
  type: "Convolution"
  bottom: "inception_4a/output"
  top: "inception_4b/5x5_reduce"
  param {
    lr_mult: 1
    decay_mult: 1
  }
  param {
    lr_mult: 2
    decay_mult: 0
  }
  convolution_param {
    num_output: 24
    kernel_size: 1
    weight_filler {
      type: "xavier"
      std: 0.2
    }
    bias_filler {
      type: "constant"
      value: 0.2
    }
  }
}
layer {
  name: "inception_4b/relu_5x5_reduce"
  type: "ReLU"
  bottom: "inception_4b/5x5_reduce"
  top: "inception_4b/5x5_reduce"
}
layer {
  name: "inception_4b/5x5"
  type: "Convolution"
  bottom: "inception_4b/5x5_reduce"
  top: "inception_4b/5x5"
  param {
    lr_mult: 1
    decay_mult: 1
  }
  param {
    lr_mult: 2
    decay_mult: 0
  }
  convolution_param {
    num_output: 64
    pad: 2
    kernel_size: 5
    weight_filler {
      type: "xavier"
      std: 0.03
    }
    bias_filler {
      type: "constant"
      value: 0.2
    }
  }
}
layer {
  name: "inception_4b/relu_5x5"
  type: "ReLU"
  bottom: "inception_4b/5x5"
  top: "inception_4b/5x5"
}
layer {
  name: "inception_4b/pool"
  type: "Pooling"
  bottom: "inception_4a/output"
  top: "inception_4b/pool"
  pooling_param {
    pool: MAX
    kernel_size: 3
    stride: 1
    pad: 1
  }
}
layer {
  name: "inception_4b/pool_proj"
  type: "Convolution"
  bottom: "inception_4b/pool"
  top: "inception_4b/pool_proj"
  param {
    lr_mult: 1
    decay_mult: 1
  }
  param {
    lr_mult: 2
    decay_mult: 0
  }
  convolution_param {
    num_output: 64
    kernel_size: 1
    weight_filler {
      type: "xavier"
      std: 0.1
    }
    bias_filler {
      type: "constant"
      value: 0.2
    }
  }
}
layer {
  name: "inception_4b/relu_pool_proj"
  type: "ReLU"
  bottom: "inception_4b/pool_proj"
  top: "inception_4b/pool_proj"
}
layer {
  name: "inception_4b/output"
  type: "Concat"
  bottom: "inception_4b/1x1"
  bottom: "inception_4b/3x3"
  bottom: "inception_4b/5x5"
  bottom: "inception_4b/pool_proj"
  top: "inception_4b/output"
}
layer {
  name: "inception_4c/1x1"
  type: "Convolution"
  bottom: "inception_4b/output"
  top: "inception_4c/1x1"
  param {
    lr_mult: 1
    decay_mult: 1
  }
  param {
    lr_mult: 2
    decay_mult: 0
  }
  convolution_param {
    num_output: 128
    kernel_size: 1
    weight_filler {
      type: "xavier"
      std: 0.03
    }
    bias_filler {
      type: "constant"
      value: 0.2
    }
  }
}
layer {
  name: "inception_4c/relu_1x1"
  type: "ReLU"
  bottom: "inception_4c/1x1"
  top: "inception_4c/1x1"
}
layer {
  name: "inception_4c/3x3_reduce"
  type: "Convolution"
  bottom: "inception_4b/output"
  top: "inception_4c/3x3_reduce"
  param {
    lr_mult: 1
    decay_mult: 1
  }
  param {
    lr_mult: 2
    decay_mult: 0
  }
  convolution_param {
    num_output: 128
    kernel_size: 1
    weight_filler {
      type: "xavier"
      std: 0.09
    }
    bias_filler {
      type: "constant"
      value: 0.2
    }
  }
}
layer {
  name: "inception_4c/relu_3x3_reduce"
  type: "ReLU"
  bottom: "inception_4c/3x3_reduce"
  top: "inception_4c/3x3_reduce"
}
layer {
  name: "inception_4c/3x3"
  type: "Convolution"
  bottom: "inception_4c/3x3_reduce"
  top: "inception_4c/3x3"
  param {
    lr_mult: 1
    decay_mult: 1
  }
  param {
    lr_mult: 2
    decay_mult: 0
  }
  convolution_param {
    num_output: 256
    pad: 1
    kernel_size: 3
    weight_filler {
      type: "xavier"
      std: 0.03
    }
    bias_filler {
      type: "constant"
      value: 0.2
    }
  }
}
layer {
  name: "inception_4c/relu_3x3"
  type: "ReLU"
  bottom: "inception_4c/3x3"
  top: "inception_4c/3x3"
}
layer {
  name: "inception_4c/5x5_reduce"
  type: "Convolution"
  bottom: "inception_4b/output"
  top: "inception_4c/5x5_reduce"
  param {
    lr_mult: 1
    decay_mult: 1
  }
  param {
    lr_mult: 2
    decay_mult: 0
  }
  convolution_param {
    num_output: 24
    kernel_size: 1
    weight_filler {
      type: "xavier"
      std: 0.2
    }
    bias_filler {
      type: "constant"
      value: 0.2
    }
  }
}
layer {
  name: "inception_4c/relu_5x5_reduce"
  type: "ReLU"
  bottom: "inception_4c/5x5_reduce"
  top: "inception_4c/5x5_reduce"
}
layer {
  name: "inception_4c/5x5"
  type: "Convolution"
  bottom: "inception_4c/5x5_reduce"
  top: "inception_4c/5x5"
  param {
    lr_mult: 1
    decay_mult: 1
  }
  param {
    lr_mult: 2
    decay_mult: 0
  }
  convolution_param {
    num_output: 64
    pad: 2
    kernel_size: 5
    weight_filler {
      type: "xavier"
      std: 0.03
    }
    bias_filler {
      type: "constant"
      value: 0.2
    }
  }
}
layer {
  name: "inception_4c/relu_5x5"
  type: "ReLU"
  bottom: "inception_4c/5x5"
  top: "inception_4c/5x5"
}
layer {
  name: "inception_4c/pool"
  type: "Pooling"
  bottom: "inception_4b/output"
  top: "inception_4c/pool"
  pooling_param {
    pool: MAX
    kernel_size: 3
    stride: 1
    pad: 1
  }
}
layer {
  name: "inception_4c/pool_proj"
  type: "Convolution"
  bottom: "inception_4c/pool"
  top: "inception_4c/pool_proj"
  param {
    lr_mult: 1
    decay_mult: 1
  }
  param {
    lr_mult: 2
    decay_mult: 0
  }
  convolution_param {
    num_output: 64
    kernel_size: 1
    weight_filler {
      type: "xavier"
      std: 0.1
    }
    bias_filler {
      type: "constant"
      value: 0.2
    }
  }
}
layer {
  name: "inception_4c/relu_pool_proj"
  type: "ReLU"
  bottom: "inception_4c/pool_proj"
  top: "inception_4c/pool_proj"
}
layer {
  name: "inception_4c/output"
  type: "Concat"
  bottom: "inception_4c/1x1"
  bottom: "inception_4c/3x3"
  bottom: "inception_4c/5x5"
  bottom: "inception_4c/pool_proj"
  top: "inception_4c/output"
}
layer {
  name: "inception_4d/1x1"
  type: "Convolution"
  bottom: "inception_4c/output"
  top: "inception_4d/1x1"
  param {
    lr_mult: 1
    decay_mult: 1
  }
  param {
    lr_mult: 2
    decay_mult: 0
  }
  convolution_param {
    num_output: 112
    kernel_size: 1
    weight_filler {
      type: "xavier"
      std: 0.03
    }
    bias_filler {
      type: "constant"
      value: 0.2
    }
  }
}
layer {
  name: "inception_4d/relu_1x1"
  type: "ReLU"
  bottom: "inception_4d/1x1"
  top: "inception_4d/1x1"
}
layer {
  name: "inception_4d/3x3_reduce"
  type: "Convolution"
  bottom: "inception_4c/output"
  top: "inception_4d/3x3_reduce"
  param {
    lr_mult: 1
    decay_mult: 1
  }
  param {
    lr_mult: 2
    decay_mult: 0
  }
  convolution_param {
    num_output: 144
    kernel_size: 1
    weight_filler {
      type: "xavier"
      std: 0.09
    }
    bias_filler {
      type: "constant"
      value: 0.2
    }
  }
}
layer {
  name: "inception_4d/relu_3x3_reduce"
  type: "ReLU"
  bottom: "inception_4d/3x3_reduce"
  top: "inception_4d/3x3_reduce"
}
layer {
  name: "inception_4d/3x3"
  type: "Convolution"
  bottom: "inception_4d/3x3_reduce"
  top: "inception_4d/3x3"
  param {
    lr_mult: 1
    decay_mult: 1
  }
  param {
    lr_mult: 2
    decay_mult: 0
  }
  convolution_param {
    num_output: 288
    pad: 1
    kernel_size: 3
    weight_filler {
      type: "xavier"
      std: 0.03
    }
    bias_filler {
      type: "constant"
      value: 0.2
    }
  }
}
layer {
  name: "inception_4d/relu_3x3"
  type: "ReLU"
  bottom: "inception_4d/3x3"
  top: "inception_4d/3x3"
}
layer {
  name: "inception_4d/5x5_reduce"
  type: "Convolution"
  bottom: "inception_4c/output"
  top: "inception_4d/5x5_reduce"
  param {
    lr_mult: 1
    decay_mult: 1
  }
  param {
    lr_mult: 2
    decay_mult: 0
  }
  convolution_param {
    num_output: 32
    kernel_size: 1
    weight_filler {
      type: "xavier"
      std: 0.2
    }
    bias_filler {
      type: "constant"
      value: 0.2
    }
  }
}
layer {
  name: "inception_4d/relu_5x5_reduce"
  type: "ReLU"
  bottom: "inception_4d/5x5_reduce"
  top: "inception_4d/5x5_reduce"
}
layer {
  name: "inception_4d/5x5"
  type: "Convolution"
  bottom: "inception_4d/5x5_reduce"
  top: "inception_4d/5x5"
  param {
    lr_mult: 1
    decay_mult: 1
  }
  param {
    lr_mult: 2
    decay_mult: 0
  }
  convolution_param {
    num_output: 64
    pad: 2
    kernel_size: 5
    weight_filler {
      type: "xavier"
      std: 0.03
    }
    bias_filler {
      type: "constant"
      value: 0.2
    }
  }
}
layer {
  name: "inception_4d/relu_5x5"
  type: "ReLU"
  bottom: "inception_4d/5x5"
  top: "inception_4d/5x5"
}
layer {
  name: "inception_4d/pool"
  type: "Pooling"
  bottom: "inception_4c/output"
  top: "inception_4d/pool"
  pooling_param {
    pool: MAX
    kernel_size: 3
    stride: 1
    pad: 1
  }
}
layer {
  name: "inception_4d/pool_proj"
  type: "Convolution"
  bottom: "inception_4d/pool"
  top: "inception_4d/pool_proj"
  param {
    lr_mult: 1
    decay_mult: 1
  }
  param {
    lr_mult: 2
    decay_mult: 0
  }
  convolution_param {
    num_output: 64
    kernel_size: 1
    weight_filler {
      type: "xavier"
      std: 0.1
    }
    bias_filler {
      type: "constant"
      value: 0.2
    }
  }
}
layer {
  name: "inception_4d/relu_pool_proj"
  type: "ReLU"
  bottom: "inception_4d/pool_proj"
  top: "inception_4d/pool_proj"
}
layer {
  name: "inception_4d/output"
  type: "Concat"
  bottom: "inception_4d/1x1"
  bottom: "inception_4d/3x3"
  bottom: "inception_4d/5x5"
  bottom: "inception_4d/pool_proj"
  top: "inception_4d/output"
}
layer {
  name: "loss2/ave_pool"
  type: "Pooling"
  bottom: "inception_4d/output"
  top: "loss2/ave_pool"
  pooling_param {
    pool: AVE
    kernel_size: 5
    stride: 3
  }
}
layer {
  name: "loss2/conv"
  type: "Convolution"
  bottom: "loss2/ave_pool"
  top: "loss2/conv"
  param {
    lr_mult: 1
    decay_mult: 1
  }
  param {
    lr_mult: 2
    decay_mult: 0
  }
  convolution_param {
    num_output: 128
    kernel_size: 1
    weight_filler {
      type: "xavier"
      std: 0.08
    }
    bias_filler {
      type: "constant"
      value: 0.2
    }
  }
}
layer {
  name: "loss2/relu_conv"
  type: "ReLU"
  bottom: "loss2/conv"
  top: "loss2/conv"
}
layer {
  name: "loss2/fc"
  type: "InnerProduct"
  bottom: "loss2/conv"
  top: "loss2/fc"
  param {
    lr_mult: 1
    decay_mult: 1
  }
  param {
    lr_mult: 2
    decay_mult: 0
  }
  inner_product_param {
    num_output: 1024
    weight_filler {
      type: "xavier"
      std: 0.02
    }
    bias_filler {
      type: "constant"
      value: 0.2
    }
  }
}
layer {
  name: "loss2/relu_fc"
  type: "ReLU"
  bottom: "loss2/fc"
  top: "loss2/fc"
}
layer {
  name: "loss2/drop_fc"
  type: "Dropout"
  bottom: "loss2/fc"
  top: "loss2/fc"
  dropout_param {
    dropout_ratio: 0.7
  }
}
layer {
  name: "loss2/classifier_plantvillage"
  type: "InnerProduct"
  bottom: "loss2/fc"
  top: "loss2/classifier_plantvillage"
  param {
    lr_mult: 1
    decay_mult: 1
  }
  param {
    lr_mult: 2
    decay_mult: 0
  }
  inner_product_param {
    num_output: 38
    weight_filler {
      type: "xavier"
      std: 0.0009765625
    }
    bias_filler {
      type: "constant"
      value: 0
    }
  }
}
layer {
  name: "inception_4e/1x1"
  type: "Convolution"
  bottom: "inception_4d/output"
  top: "inception_4e/1x1"
  param {
    lr_mult: 1
    decay_mult: 1
  }
  param {
    lr_mult: 2
    decay_mult: 0
  }
  convolution_param {
    num_output: 256
    kernel_size: 1
    weight_filler {
      type: "xavier"
      std: 0.03
    }
    bias_filler {
      type: "constant"
      value: 0.2
    }
  }
}
layer {
  name: "inception_4e/relu_1x1"
  type: "ReLU"
  bottom: "inception_4e/1x1"
  top: "inception_4e/1x1"
}
layer {
  name: "inception_4e/3x3_reduce"
  type: "Convolution"
  bottom: "inception_4d/output"
  top: "inception_4e/3x3_reduce"
  param {
    lr_mult: 1
    decay_mult: 1
  }
  param {
    lr_mult: 2
    decay_mult: 0
  }
  convolution_param {
    num_output: 160
    kernel_size: 1
    weight_filler {
      type: "xavier"
      std: 0.09
    }
    bias_filler {
      type: "constant"
      value: 0.2
    }
  }
}
layer {
  name: "inception_4e/relu_3x3_reduce"
  type: "ReLU"
  bottom: "inception_4e/3x3_reduce"
  top: "inception_4e/3x3_reduce"
}
layer {
  name: "inception_4e/3x3"
  type: "Convolution"
  bottom: "inception_4e/3x3_reduce"
  top: "inception_4e/3x3"
  param {
    lr_mult: 1
    decay_mult: 1
  }
  param {
    lr_mult: 2
    decay_mult: 0
  }
  convolution_param {
    num_output: 320
    pad: 1
    kernel_size: 3
    weight_filler {
      type: "xavier"
      std: 0.03
    }
    bias_filler {
      type: "constant"
      value: 0.2
    }
  }
}
layer {
  name: "inception_4e/relu_3x3"
  type: "ReLU"
  bottom: "inception_4e/3x3"
  top: "inception_4e/3x3"
}
layer {
  name: "inception_4e/5x5_reduce"
  type: "Convolution"
  bottom: "inception_4d/output"
  top: "inception_4e/5x5_reduce"
  param {
    lr_mult: 1
    decay_mult: 1
  }
  param {
    lr_mult: 2
    decay_mult: 0
  }
  convolution_param {
    num_output: 32
    kernel_size: 1
    weight_filler {
      type: "xavier"
      std: 0.2
    }
    bias_filler {
      type: "constant"
      value: 0.2
    }
  }
}
layer {
  name: "inception_4e/relu_5x5_reduce"
  type: "ReLU"
  bottom: "inception_4e/5x5_reduce"
  top: "inception_4e/5x5_reduce"
}
layer {
  name: "inception_4e/5x5"
  type: "Convolution"
  bottom: "inception_4e/5x5_reduce"
  top: "inception_4e/5x5"
  p
I0403 15:45:01.221878   652 layer_factory.hpp:77] Creating layer data
I0403 15:45:01.222473   652 net.cpp:91] Creating Layer data
I0403 15:45:01.222506   652 net.cpp:399] data -> data
I0403 15:45:01.222558   652 net.cpp:399] data -> label
I0403 15:45:01.222594   652 data_transformer.cpp:25] Loading mean file from: /home/mohanty/data/final_dataset/lmdb/color-60-40/mean.binaryproto
I0403 15:45:01.225173   657 db_lmdb.cpp:38] Opened lmdb /home/mohanty/data/final_dataset/lmdb/color-60-40/test_db
I0403 15:45:01.236096   652 data_layer.cpp:41] output data size: 24,3,224,224
I0403 15:45:01.266785   652 net.cpp:141] Setting up data
I0403 15:45:01.266872   652 net.cpp:148] Top shape: 24 3 224 224 (3612672)
I0403 15:45:01.266896   652 net.cpp:148] Top shape: 24 (24)
I0403 15:45:01.266912   652 net.cpp:156] Memory required for data: 14450784
I0403 15:45:01.266940   652 layer_factory.hpp:77] Creating layer label_data_1_split
I0403 15:45:01.266969   652 net.cpp:91] Creating Layer label_data_1_split
I0403 15:45:01.266989   652 net.cpp:425] label_data_1_split <- label
I0403 15:45:01.267024   652 net.cpp:399] label_data_1_split -> label_data_1_split_0
I0403 15:45:01.267055   652 net.cpp:399] label_data_1_split -> label_data_1_split_1
I0403 15:45:01.267076   652 net.cpp:399] label_data_1_split -> label_data_1_split_2
I0403 15:45:01.267098   652 net.cpp:399] label_data_1_split -> label_data_1_split_3
I0403 15:45:01.267119   652 net.cpp:399] label_data_1_split -> label_data_1_split_4
I0403 15:45:01.267141   652 net.cpp:399] label_data_1_split -> label_data_1_split_5
I0403 15:45:01.267161   652 net.cpp:399] label_data_1_split -> label_data_1_split_6
I0403 15:45:01.267182   652 net.cpp:399] label_data_1_split -> label_data_1_split_7
I0403 15:45:01.267202   652 net.cpp:399] label_data_1_split -> label_data_1_split_8
I0403 15:45:01.267225   652 net.cpp:399] label_data_1_split -> label_data_1_split_9
I0403 15:45:01.267345   652 net.cpp:141] Setting up label_data_1_split
I0403 15:45:01.267371   652 net.cpp:148] Top shape: 24 (24)
I0403 15:45:01.267390   652 net.cpp:148] Top shape: 24 (24)
I0403 15:45:01.267408   652 net.cpp:148] Top shape: 24 (24)
I0403 15:45:01.267446   652 net.cpp:148] Top shape: 24 (24)
I0403 15:45:01.267470   652 net.cpp:148] Top shape: 24 (24)
I0403 15:45:01.267495   652 net.cpp:148] Top shape: 24 (24)
I0403 15:45:01.267518   652 net.cpp:148] Top shape: 24 (24)
I0403 15:45:01.267537   652 net.cpp:148] Top shape: 24 (24)
I0403 15:45:01.267568   652 net.cpp:148] Top shape: 24 (24)
I0403 15:45:01.267585   652 net.cpp:148] Top shape: 24 (24)
I0403 15:45:01.267633   652 net.cpp:156] Memory required for data: 14451744
I0403 15:45:01.267652   652 layer_factory.hpp:77] Creating layer conv1/7x7_s2
I0403 15:45:01.267686   652 net.cpp:91] Creating Layer conv1/7x7_s2
I0403 15:45:01.267706   652 net.cpp:425] conv1/7x7_s2 <- data
I0403 15:45:01.267729   652 net.cpp:399] conv1/7x7_s2 -> conv1/7x7_s2
I0403 15:45:01.419710   652 net.cpp:141] Setting up conv1/7x7_s2
I0403 15:45:01.419788   652 net.cpp:148] Top shape: 24 64 112 112 (19267584)
I0403 15:45:01.419806   652 net.cpp:156] Memory required for data: 91522080
I0403 15:45:01.419841   652 layer_factory.hpp:77] Creating layer conv1/relu_7x7
I0403 15:45:01.419898   652 net.cpp:91] Creating Layer conv1/relu_7x7
I0403 15:45:01.419921   652 net.cpp:425] conv1/relu_7x7 <- conv1/7x7_s2
I0403 15:45:01.419945   652 net.cpp:386] conv1/relu_7x7 -> conv1/7x7_s2 (in-place)
I0403 15:45:01.420234   652 net.cpp:141] Setting up conv1/relu_7x7
I0403 15:45:01.420267   652 net.cpp:148] Top shape: 24 64 112 112 (19267584)
I0403 15:45:01.420290   652 net.cpp:156] Memory required for data: 168592416
I0403 15:45:01.420310   652 layer_factory.hpp:77] Creating layer pool1/3x3_s2
I0403 15:45:01.420336   652 net.cpp:91] Creating Layer pool1/3x3_s2
I0403 15:45:01.420356   652 net.cpp:425] pool1/3x3_s2 <- conv1/7x7_s2
I0403 15:45:01.420380   652 net.cpp:399] pool1/3x3_s2 -> pool1/3x3_s2
I0403 15:45:01.420461   652 net.cpp:141] Setting up pool1/3x3_s2
I0403 15:45:01.420488   652 net.cpp:148] Top shape: 24 64 56 56 (4816896)
I0403 15:45:01.420505   652 net.cpp:156] Memory required for data: 187860000
I0403 15:45:01.420521   652 layer_factory.hpp:77] Creating layer pool1/norm1
I0403 15:45:01.420558   652 net.cpp:91] Creating Layer pool1/norm1
I0403 15:45:01.420579   652 net.cpp:425] pool1/norm1 <- pool1/3x3_s2
I0403 15:45:01.420603   652 net.cpp:399] pool1/norm1 -> pool1/norm1
I0403 15:45:01.420913   652 net.cpp:141] Setting up pool1/norm1
I0403 15:45:01.420944   652 net.cpp:148] Top shape: 24 64 56 56 (4816896)
I0403 15:45:01.420961   652 net.cpp:156] Memory required for data: 207127584
I0403 15:45:01.420979   652 layer_factory.hpp:77] Creating layer conv2/3x3_reduce
I0403 15:45:01.421006   652 net.cpp:91] Creating Layer conv2/3x3_reduce
I0403 15:45:01.421026   652 net.cpp:425] conv2/3x3_reduce <- pool1/norm1
I0403 15:45:01.421051   652 net.cpp:399] conv2/3x3_reduce -> conv2/3x3_reduce
I0403 15:45:01.422520   652 net.cpp:141] Setting up conv2/3x3_reduce
I0403 15:45:01.422552   652 net.cpp:148] Top shape: 24 64 56 56 (4816896)
I0403 15:45:01.422571   652 net.cpp:156] Memory required for data: 226395168
I0403 15:45:01.422595   652 layer_factory.hpp:77] Creating layer conv2/relu_3x3_reduce
I0403 15:45:01.422618   652 net.cpp:91] Creating Layer conv2/relu_3x3_reduce
I0403 15:45:01.422636   652 net.cpp:425] conv2/relu_3x3_reduce <- conv2/3x3_reduce
I0403 15:45:01.422657   652 net.cpp:386] conv2/relu_3x3_reduce -> conv2/3x3_reduce (in-place)
I0403 15:45:01.422936   652 net.cpp:141] Setting up conv2/relu_3x3_reduce
I0403 15:45:01.422966   652 net.cpp:148] Top shape: 24 64 56 56 (4816896)
I0403 15:45:01.422983   652 net.cpp:156] Memory required for data: 245662752
I0403 15:45:01.423001   652 layer_factory.hpp:77] Creating layer conv2/3x3
I0403 15:45:01.423029   652 net.cpp:91] Creating Layer conv2/3x3
I0403 15:45:01.423050   652 net.cpp:425] conv2/3x3 <- conv2/3x3_reduce
I0403 15:45:01.423071   652 net.cpp:399] conv2/3x3 -> conv2/3x3
I0403 15:45:01.425561   652 net.cpp:141] Setting up conv2/3x3
I0403 15:45:01.425595   652 net.cpp:148] Top shape: 24 192 56 56 (14450688)
I0403 15:45:01.425614   652 net.cpp:156] Memory required for data: 303465504
I0403 15:45:01.425638   652 layer_factory.hpp:77] Creating layer conv2/relu_3x3
I0403 15:45:01.425662   652 net.cpp:91] Creating Layer conv2/relu_3x3
I0403 15:45:01.425680   652 net.cpp:425] conv2/relu_3x3 <- conv2/3x3
I0403 15:45:01.425701   652 net.cpp:386] conv2/relu_3x3 -> conv2/3x3 (in-place)
I0403 15:45:01.425894   652 net.cpp:141] Setting up conv2/relu_3x3
I0403 15:45:01.425921   652 net.cpp:148] Top shape: 24 192 56 56 (14450688)
I0403 15:45:01.425962   652 net.cpp:156] Memory required for data: 361268256
I0403 15:45:01.425981   652 layer_factory.hpp:77] Creating layer conv2/norm2
I0403 15:45:01.426002   652 net.cpp:91] Creating Layer conv2/norm2
I0403 15:45:01.426019   652 net.cpp:425] conv2/norm2 <- conv2/3x3
I0403 15:45:01.426041   652 net.cpp:399] conv2/norm2 -> conv2/norm2
I0403 15:45:01.426367   652 net.cpp:141] Setting up conv2/norm2
I0403 15:45:01.426396   652 net.cpp:148] Top shape: 24 192 56 56 (14450688)
I0403 15:45:01.426414   652 net.cpp:156] Memory required for data: 419071008
I0403 15:45:01.426429   652 layer_factory.hpp:77] Creating layer pool2/3x3_s2
I0403 15:45:01.426450   652 net.cpp:91] Creating Layer pool2/3x3_s2
I0403 15:45:01.426467   652 net.cpp:425] pool2/3x3_s2 <- conv2/norm2
I0403 15:45:01.426489   652 net.cpp:399] pool2/3x3_s2 -> pool2/3x3_s2
I0403 15:45:01.426547   652 net.cpp:141] Setting up pool2/3x3_s2
I0403 15:45:01.426573   652 net.cpp:148] Top shape: 24 192 28 28 (3612672)
I0403 15:45:01.426589   652 net.cpp:156] Memory required for data: 433521696
I0403 15:45:01.426606   652 layer_factory.hpp:77] Creating layer pool2/3x3_s2_pool2/3x3_s2_0_split
I0403 15:45:01.426627   652 net.cpp:91] Creating Layer pool2/3x3_s2_pool2/3x3_s2_0_split
I0403 15:45:01.426645   652 net.cpp:425] pool2/3x3_s2_pool2/3x3_s2_0_split <- pool2/3x3_s2
I0403 15:45:01.426666   652 net.cpp:399] pool2/3x3_s2_pool2/3x3_s2_0_split -> pool2/3x3_s2_pool2/3x3_s2_0_split_0
I0403 15:45:01.426688   652 net.cpp:399] pool2/3x3_s2_pool2/3x3_s2_0_split -> pool2/3x3_s2_pool2/3x3_s2_0_split_1
I0403 15:45:01.426710   652 net.cpp:399] pool2/3x3_s2_pool2/3x3_s2_0_split -> pool2/3x3_s2_pool2/3x3_s2_0_split_2
I0403 15:45:01.426731   652 net.cpp:399] pool2/3x3_s2_pool2/3x3_s2_0_split -> pool2/3x3_s2_pool2/3x3_s2_0_split_3
I0403 15:45:01.426805   652 net.cpp:141] Setting up pool2/3x3_s2_pool2/3x3_s2_0_split
I0403 15:45:01.426831   652 net.cpp:148] Top shape: 24 192 28 28 (3612672)
I0403 15:45:01.426851   652 net.cpp:148] Top shape: 24 192 28 28 (3612672)
I0403 15:45:01.426867   652 net.cpp:148] Top shape: 24 192 28 28 (3612672)
I0403 15:45:01.426884   652 net.cpp:148] Top shape: 24 192 28 28 (3612672)
I0403 15:45:01.426899   652 net.cpp:156] Memory required for data: 491324448
I0403 15:45:01.426916   652 layer_factory.hpp:77] Creating layer inception_3a/1x1
I0403 15:45:01.426941   652 net.cpp:91] Creating Layer inception_3a/1x1
I0403 15:45:01.426960   652 net.cpp:425] inception_3a/1x1 <- pool2/3x3_s2_pool2/3x3_s2_0_split_0
I0403 15:45:01.426981   652 net.cpp:399] inception_3a/1x1 -> inception_3a/1x1
I0403 15:45:01.428612   652 net.cpp:141] Setting up inception_3a/1x1
I0403 15:45:01.428647   652 net.cpp:148] Top shape: 24 64 28 28 (1204224)
I0403 15:45:01.428664   652 net.cpp:156] Memory required for data: 496141344
I0403 15:45:01.428686   652 layer_factory.hpp:77] Creating layer inception_3a/relu_1x1
I0403 15:45:01.428709   652 net.cpp:91] Creating Layer inception_3a/relu_1x1
I0403 15:45:01.428727   652 net.cpp:425] inception_3a/relu_1x1 <- inception_3a/1x1
I0403 15:45:01.428746   652 net.cpp:386] inception_3a/relu_1x1 -> inception_3a/1x1 (in-place)
I0403 15:45:01.428930   652 net.cpp:141] Setting up inception_3a/relu_1x1
I0403 15:45:01.428961   652 net.cpp:148] Top shape: 24 64 28 28 (1204224)
I0403 15:45:01.429031   652 net.cpp:156] Memory required for data: 500958240
I0403 15:45:01.429054   652 layer_factory.hpp:77] Creating layer inception_3a/3x3_reduce
I0403 15:45:01.429080   652 net.cpp:91] Creating Layer inception_3a/3x3_reduce
I0403 15:45:01.429100   652 net.cpp:425] inception_3a/3x3_reduce <- pool2/3x3_s2_pool2/3x3_s2_0_split_1
I0403 15:45:01.429121   652 net.cpp:399] inception_3a/3x3_reduce -> inception_3a/3x3_reduce
I0403 15:45:01.430920   652 net.cpp:141] Setting up inception_3a/3x3_reduce
I0403 15:45:01.430953   652 net.cpp:148] Top shape: 24 96 28 28 (1806336)
I0403 15:45:01.430968   652 net.cpp:156] Memory required for data: 508183584
I0403 15:45:01.430991   652 layer_factory.hpp:77] Creating layer inception_3a/relu_3x3_reduce
I0403 15:45:01.431035   652 net.cpp:91] Creating Layer inception_3a/relu_3x3_reduce
I0403 15:45:01.431054   652 net.cpp:425] inception_3a/relu_3x3_reduce <- inception_3a/3x3_reduce
I0403 15:45:01.431077   652 net.cpp:386] inception_3a/relu_3x3_reduce -> inception_3a/3x3_reduce (in-place)
I0403 15:45:01.431270   652 net.cpp:141] Setting up inception_3a/relu_3x3_reduce
I0403 15:45:01.431303   652 net.cpp:148] Top shape: 24 96 28 28 (1806336)
I0403 15:45:01.431321   652 net.cpp:156] Memory required for data: 515408928
I0403 15:45:01.431337   652 layer_factory.hpp:77] Creating layer inception_3a/3x3
I0403 15:45:01.431362   652 net.cpp:91] Creating Layer inception_3a/3x3
I0403 15:45:01.431383   652 net.cpp:425] inception_3a/3x3 <- inception_3a/3x3_reduce
I0403 15:45:01.431408   652 net.cpp:399] inception_3a/3x3 -> inception_3a/3x3
I0403 15:45:01.433156   652 net.cpp:141] Setting up inception_3a/3x3
I0403 15:45:01.433189   652 net.cpp:148] Top shape: 24 128 28 28 (2408448)
I0403 15:45:01.433207   652 net.cpp:156] Memory required for data: 525042720
I0403 15:45:01.433228   652 layer_factory.hpp:77] Creating layer inception_3a/relu_3x3
I0403 15:45:01.433249   652 net.cpp:91] Creating Layer inception_3a/relu_3x3
I0403 15:45:01.433269   652 net.cpp:425] inception_3a/relu_3x3 <- inception_3a/3x3
I0403 15:45:01.433298   652 net.cpp:386] inception_3a/relu_3x3 -> inception_3a/3x3 (in-place)
I0403 15:45:01.433589   652 net.cpp:141] Setting up inception_3a/relu_3x3
I0403 15:45:01.433621   652 net.cpp:148] Top shape: 24 128 28 28 (2408448)
I0403 15:45:01.433640   652 net.cpp:156] Memory required for data: 534676512
I0403 15:45:01.433655   652 layer_factory.hpp:77] Creating layer inception_3a/5x5_reduce
I0403 15:45:01.433677   652 net.cpp:91] Creating Layer inception_3a/5x5_reduce
I0403 15:45:01.433696   652 net.cpp:425] inception_3a/5x5_reduce <- pool2/3x3_s2_pool2/3x3_s2_0_split_2
I0403 15:45:01.433720   652 net.cpp:399] inception_3a/5x5_reduce -> inception_3a/5x5_reduce
I0403 15:45:01.434720   652 net.cpp:141] Setting up inception_3a/5x5_reduce
I0403 15:45:01.434753   652 net.cpp:148] Top shape: 24 16 28 28 (301056)
I0403 15:45:01.434772   652 net.cpp:156] Memory required for data: 535880736
I0403 15:45:01.434792   652 layer_factory.hpp:77] Creating layer inception_3a/relu_5x5_reduce
I0403 15:45:01.434811   652 net.cpp:91] Creating Layer inception_3a/relu_5x5_reduce
I0403 15:45:01.434829   652 net.cpp:425] inception_3a/relu_5x5_reduce <- inception_3a/5x5_reduce
I0403 15:45:01.434850   652 net.cpp:386] inception_3a/relu_5x5_reduce -> inception_3a/5x5_reduce (in-place)
I0403 15:45:01.435148   652 net.cpp:141] Setting up inception_3a/relu_5x5_reduce
I0403 15:45:01.435176   652 net.cpp:148] Top shape: 24 16 28 28 (301056)
I0403 15:45:01.435192   652 net.cpp:156] Memory required for data: 537084960
I0403 15:45:01.435209   652 layer_factory.hpp:77] Creating layer inception_3a/5x5
I0403 15:45:01.435235   652 net.cpp:91] Creating Layer inception_3a/5x5
I0403 15:45:01.435253   652 net.cpp:425] inception_3a/5x5 <- inception_3a/5x5_reduce
I0403 15:45:01.435277   652 net.cpp:399] inception_3a/5x5 -> inception_3a/5x5
I0403 15:45:01.436334   652 net.cpp:141] Setting up inception_3a/5x5
I0403 15:45:01.436363   652 net.cpp:148] Top shape: 24 32 28 28 (602112)
I0403 15:45:01.436380   652 net.cpp:156] Memory required for data: 539493408
I0403 15:45:01.436401   652 layer_factory.hpp:77] Creating layer inception_3a/relu_5x5
I0403 15:45:01.436425   652 net.cpp:91] Creating Layer inception_3a/relu_5x5
I0403 15:45:01.436445   652 net.cpp:425] inception_3a/relu_5x5 <- inception_3a/5x5
I0403 15:45:01.436466   652 net.cpp:386] inception_3a/relu_5x5 -> inception_3a/5x5 (in-place)
I0403 15:45:01.436650   652 net.cpp:141] Setting up inception_3a/relu_5x5
I0403 15:45:01.436681   652 net.cpp:148] Top shape: 24 32 28 28 (602112)
I0403 15:45:01.436698   652 net.cpp:156] Memory required for data: 541901856
I0403 15:45:01.436715   652 layer_factory.hpp:77] Creating layer inception_3a/pool
I0403 15:45:01.436734   652 net.cpp:91] Creating Layer inception_3a/pool
I0403 15:45:01.436751   652 net.cpp:425] inception_3a/pool <- pool2/3x3_s2_pool2/3x3_s2_0_split_3
I0403 15:45:01.436789   652 net.cpp:399] inception_3a/pool -> inception_3a/pool
I0403 15:45:01.436854   652 net.cpp:141] Setting up inception_3a/pool
I0403 15:45:01.436882   652 net.cpp:148] Top shape: 24 192 28 28 (3612672)
I0403 15:45:01.436898   652 net.cpp:156] Memory required for data: 556352544
I0403 15:45:01.436915   652 layer_factory.hpp:77] Creating layer inception_3a/pool_proj
I0403 15:45:01.436940   652 net.cpp:91] Creating Layer inception_3a/pool_proj
I0403 15:45:01.436959   652 net.cpp:425] inception_3a/pool_proj <- inception_3a/pool
I0403 15:45:01.436983   652 net.cpp:399] inception_3a/pool_proj -> inception_3a/pool_proj
I0403 15:45:01.437988   652 net.cpp:141] Setting up inception_3a/pool_proj
I0403 15:45:01.438017   652 net.cpp:148] Top shape: 24 32 28 28 (602112)
I0403 15:45:01.438035   652 net.cpp:156] Memory required for data: 558760992
I0403 15:45:01.438061   652 layer_factory.hpp:77] Creating layer inception_3a/relu_pool_proj
I0403 15:45:01.438083   652 net.cpp:91] Creating Layer inception_3a/relu_pool_proj
I0403 15:45:01.438102   652 net.cpp:425] inception_3a/relu_pool_proj <- inception_3a/pool_proj
I0403 15:45:01.438122   652 net.cpp:386] inception_3a/relu_pool_proj -> inception_3a/pool_proj (in-place)
I0403 15:45:01.438410   652 net.cpp:141] Setting up inception_3a/relu_pool_proj
I0403 15:45:01.438441   652 net.cpp:148] Top shape: 24 32 28 28 (602112)
I0403 15:45:01.438458   652 net.cpp:156] Memory required for data: 561169440
I0403 15:45:01.438475   652 layer_factory.hpp:77] Creating layer inception_3a/output
I0403 15:45:01.438494   652 net.cpp:91] Creating Layer inception_3a/output
I0403 15:45:01.438511   652 net.cpp:425] inception_3a/output <- inception_3a/1x1
I0403 15:45:01.438529   652 net.cpp:425] inception_3a/output <- inception_3a/3x3
I0403 15:45:01.438547   652 net.cpp:425] inception_3a/output <- inception_3a/5x5
I0403 15:45:01.438565   652 net.cpp:425] inception_3a/output <- inception_3a/pool_proj
I0403 15:45:01.438585   652 net.cpp:399] inception_3a/output -> inception_3a/output
I0403 15:45:01.438638   652 net.cpp:141] Setting up inception_3a/output
I0403 15:45:01.438664   652 net.cpp:148] Top shape: 24 256 28 28 (4816896)
I0403 15:45:01.438681   652 net.cpp:156] Memory required for data: 580437024
I0403 15:45:01.438699   652 layer_factory.hpp:77] Creating layer inception_3a/output_inception_3a/output_0_split
I0403 15:45:01.438719   652 net.cpp:91] Creating Layer inception_3a/output_inception_3a/output_0_split
I0403 15:45:01.438737   652 net.cpp:425] inception_3a/output_inception_3a/output_0_split <- inception_3a/output
I0403 15:45:01.438758   652 net.cpp:399] inception_3a/output_inception_3a/output_0_split -> inception_3a/output_inception_3a/output_0_split_0
I0403 15:45:01.438782   652 net.cpp:399] inception_3a/output_inception_3a/output_0_split -> inception_3a/output_inception_3a/output_0_split_1
I0403 15:45:01.438809   652 net.cpp:399] inception_3a/output_inception_3a/output_0_split -> inception_3a/output_inception_3a/output_0_split_2
I0403 15:45:01.438832   652 net.cpp:399] inception_3a/output_inception_3a/output_0_split -> inception_3a/output_inception_3a/output_0_split_3
I0403 15:45:01.438910   652 net.cpp:141] Setting up inception_3a/output_inception_3a/output_0_split
I0403 15:45:01.438936   652 net.cpp:148] Top shape: 24 256 28 28 (4816896)
I0403 15:45:01.438954   652 net.cpp:148] Top shape: 24 256 28 28 (4816896)
I0403 15:45:01.438971   652 net.cpp:148] Top shape: 24 256 28 28 (4816896)
I0403 15:45:01.438987   652 net.cpp:148] Top shape: 24 256 28 28 (4816896)
I0403 15:45:01.439003   652 net.cpp:156] Memory required for data: 657507360
I0403 15:45:01.439019   652 layer_factory.hpp:77] Creating layer inception_3b/1x1
I0403 15:45:01.439044   652 net.cpp:91] Creating Layer inception_3b/1x1
I0403 15:45:01.439064   652 net.cpp:425] inception_3b/1x1 <- inception_3a/output_inception_3a/output_0_split_0
I0403 15:45:01.439088   652 net.cpp:399] inception_3b/1x1 -> inception_3b/1x1
I0403 15:45:01.440275   652 net.cpp:141] Setting up inception_3b/1x1
I0403 15:45:01.440322   652 net.cpp:148] Top shape: 24 128 28 28 (2408448)
I0403 15:45:01.440340   652 net.cpp:156] Memory required for data: 667141152
I0403 15:45:01.440362   652 layer_factory.hpp:77] Creating layer inception_3b/relu_1x1
I0403 15:45:01.440384   652 net.cpp:91] Creating Layer inception_3b/relu_1x1
I0403 15:45:01.440403   652 net.cpp:425] inception_3b/relu_1x1 <- inception_3b/1x1
I0403 15:45:01.440423   652 net.cpp:386] inception_3b/relu_1x1 -> inception_3b/1x1 (in-place)
I0403 15:45:01.440609   652 net.cpp:141] Setting up inception_3b/relu_1x1
I0403 15:45:01.440639   652 net.cpp:148] Top shape: 24 128 28 28 (2408448)
I0403 15:45:01.440657   652 net.cpp:156] Memory required for data: 676774944
I0403 15:45:01.440675   652 layer_factory.hpp:77] Creating layer inception_3b/3x3_reduce
I0403 15:45:01.440696   652 net.cpp:91] Creating Layer inception_3b/3x3_reduce
I0403 15:45:01.440714   652 net.cpp:425] inception_3b/3x3_reduce <- inception_3a/output_inception_3a/output_0_split_1
I0403 15:45:01.440738   652 net.cpp:399] inception_3b/3x3_reduce -> inception_3b/3x3_reduce
I0403 15:45:01.441926   652 net.cpp:141] Setting up inception_3b/3x3_reduce
I0403 15:45:01.441956   652 net.cpp:148] Top shape: 24 128 28 28 (2408448)
I0403 15:45:01.441973   652 net.cpp:156] Memory required for data: 686408736
I0403 15:45:01.441993   652 layer_factory.hpp:77] Creating layer inception_3b/relu_3x3_reduce
I0403 15:45:01.442015   652 net.cpp:91] Creating Layer inception_3b/relu_3x3_reduce
I0403 15:45:01.442035   652 net.cpp:425] inception_3b/relu_3x3_reduce <- inception_3b/3x3_reduce
I0403 15:45:01.442055   652 net.cpp:386] inception_3b/relu_3x3_reduce -> inception_3b/3x3_reduce (in-place)
I0403 15:45:01.442236   652 net.cpp:141] Setting up inception_3b/relu_3x3_reduce
I0403 15:45:01.442263   652 net.cpp:148] Top shape: 24 128 28 28 (2408448)
I0403 15:45:01.442279   652 net.cpp:156] Memory required for data: 696042528
I0403 15:45:01.442304   652 layer_factory.hpp:77] Creating layer inception_3b/3x3
I0403 15:45:01.442335   652 net.cpp:91] Creating Layer inception_3b/3x3
I0403 15:45:01.442356   652 net.cpp:425] inception_3b/3x3 <- inception_3b/3x3_reduce
I0403 15:45:01.442381   652 net.cpp:399] inception_3b/3x3 -> inception_3b/3x3
I0403 15:45:01.445442   652 net.cpp:141] Setting up inception_3b/3x3
I0403 15:45:01.445473   652 net.cpp:148] Top shape: 24 192 28 28 (3612672)
I0403 15:45:01.445495   652 net.cpp:156] Memory required for data: 710493216
I0403 15:45:01.445516   652 layer_factory.hpp:77] Creating layer inception_3b/relu_3x3
I0403 15:45:01.445536   652 net.cpp:91] Creating Layer inception_3b/relu_3x3
I0403 15:45:01.445554   652 net.cpp:425] inception_3b/relu_3x3 <- inception_3b/3x3
I0403 15:45:01.445576   652 net.cpp:386] inception_3b/relu_3x3 -> inception_3b/3x3 (in-place)
I0403 15:45:01.445868   652 net.cpp:141] Setting up inception_3b/relu_3x3
I0403 15:45:01.445900   652 net.cpp:148] Top shape: 24 192 28 28 (3612672)
I0403 15:45:01.445917   652 net.cpp:156] Memory required for data: 724943904
I0403 15:45:01.445935   652 layer_factory.hpp:77] Creating layer inception_3b/5x5_reduce
I0403 15:45:01.445955   652 net.cpp:91] Creating Layer inception_3b/5x5_reduce
I0403 15:45:01.445976   652 net.cpp:425] inception_3b/5x5_reduce <- inception_3a/output_inception_3a/output_0_split_2
I0403 15:45:01.445999   652 net.cpp:399] inception_3b/5x5_reduce -> inception_3b/5x5_reduce
I0403 15:45:01.447031   652 net.cpp:141] Setting up inception_3b/5x5_reduce
I0403 15:45:01.447060   652 net.cpp:148] Top shape: 24 32 28 28 (602112)
I0403 15:45:01.447077   652 net.cpp:156] Memory required for data: 727352352
I0403 15:45:01.447098   652 layer_factory.hpp:77] Creating layer inception_3b/relu_5x5_reduce
I0403 15:45:01.447119   652 net.cpp:91] Creating Layer inception_3b/relu_5x5_reduce
I0403 15:45:01.447137   652 net.cpp:425] inception_3b/relu_5x5_reduce <- inception_3b/5x5_reduce
I0403 15:45:01.447157   652 net.cpp:386] inception_3b/relu_5x5_reduce -> inception_3b/5x5_reduce (in-place)
I0403 15:45:01.447348   652 net.cpp:141] Setting up inception_3b/relu_5x5_reduce
I0403 15:45:01.447391   652 net.cpp:148] Top shape: 24 32 28 28 (602112)
I0403 15:45:01.447412   652 net.cpp:156] Memory required for data: 729760800
I0403 15:45:01.447429   652 layer_factory.hpp:77] Creating layer inception_3b/5x5
I0403 15:45:01.447454   652 net.cpp:91] Creating Layer inception_3b/5x5
I0403 15:45:01.447475   652 net.cpp:425] inception_3b/5x5 <- inception_3b/5x5_reduce
I0403 15:45:01.447496   652 net.cpp:399] inception_3b/5x5 -> inception_3b/5x5
I0403 15:45:01.449551   652 net.cpp:141] Setting up inception_3b/5x5
I0403 15:45:01.449584   652 net.cpp:148] Top shape: 24 96 28 28 (1806336)
I0403 15:45:01.449601   652 net.cpp:156] Memory required for data: 736986144
I0403 15:45:01.449622   652 layer_factory.hpp:77] Creating layer inception_3b/relu_5x5
I0403 15:45:01.449645   652 net.cpp:91] Creating Layer inception_3b/relu_5x5
I0403 15:45:01.449662   652 net.cpp:425] inception_3b/relu_5x5 <- inception_3b/5x5
I0403 15:45:01.449682   652 net.cpp:386] inception_3b/relu_5x5 -> inception_3b/5x5 (in-place)
I0403 15:45:01.449882   652 net.cpp:141] Setting up inception_3b/relu_5x5
I0403 15:45:01.449909   652 net.cpp:148] Top shape: 24 96 28 28 (1806336)
I0403 15:45:01.449926   652 net.cpp:156] Memory required for data: 744211488
I0403 15:45:01.449942   652 layer_factory.hpp:77] Creating layer inception_3b/pool
I0403 15:45:01.449961   652 net.cpp:91] Creating Layer inception_3b/pool
I0403 15:45:01.449980   652 net.cpp:425] inception_3b/pool <- inception_3a/output_inception_3a/output_0_split_3
I0403 15:45:01.450000   652 net.cpp:399] inception_3b/pool -> inception_3b/pool
I0403 15:45:01.450058   652 net.cpp:141] Setting up inception_3b/pool
I0403 15:45:01.450083   652 net.cpp:148] Top shape: 24 256 28 28 (4816896)
I0403 15:45:01.450099   652 net.cpp:156] Memory required for data: 763479072
I0403 15:45:01.450115   652 layer_factory.hpp:77] Creating layer inception_3b/pool_proj
I0403 15:45:01.450140   652 net.cpp:91] Creating Layer inception_3b/pool_proj
I0403 15:45:01.450160   652 net.cpp:425] inception_3b/pool_proj <- inception_3b/pool
I0403 15:45:01.450182   652 net.cpp:399] inception_3b/pool_proj -> inception_3b/pool_proj
I0403 15:45:01.451287   652 net.cpp:141] Setting up inception_3b/pool_proj
I0403 15:45:01.451320   652 net.cpp:148] Top shape: 24 64 28 28 (1204224)
I0403 15:45:01.451341   652 net.cpp:156] Memory required for data: 768295968
I0403 15:45:01.451364   652 layer_factory.hpp:77] Creating layer inception_3b/relu_pool_proj
I0403 15:45:01.451390   652 net.cpp:91] Creating Layer inception_3b/relu_pool_proj
I0403 15:45:01.451407   652 net.cpp:425] inception_3b/relu_pool_proj <- inception_3b/pool_proj
I0403 15:45:01.451429   652 net.cpp:386] inception_3b/relu_pool_proj -> inception_3b/pool_proj (in-place)
I0403 15:45:01.451828   652 net.cpp:141] Setting up inception_3b/relu_pool_proj
I0403 15:45:01.451860   652 net.cpp:148] Top shape: 24 64 28 28 (1204224)
I0403 15:45:01.451879   652 net.cpp:156] Memory required for data: 773112864
I0403 15:45:01.451895   652 layer_factory.hpp:77] Creating layer inception_3b/output
I0403 15:45:01.451915   652 net.cpp:91] Creating Layer inception_3b/output
I0403 15:45:01.451931   652 net.cpp:425] inception_3b/output <- inception_3b/1x1
I0403 15:45:01.451951   652 net.cpp:425] inception_3b/output <- inception_3b/3x3
I0403 15:45:01.451967   652 net.cpp:425] inception_3b/output <- inception_3b/5x5
I0403 15:45:01.451984   652 net.cpp:425] inception_3b/output <- inception_3b/pool_proj
I0403 15:45:01.452003   652 net.cpp:399] inception_3b/output -> inception_3b/output
I0403 15:45:01.452051   652 net.cpp:141] Setting up inception_3b/output
I0403 15:45:01.452080   652 net.cpp:148] Top shape: 24 480 28 28 (9031680)
I0403 15:45:01.452096   652 net.cpp:156] Memory required for data: 809239584
I0403 15:45:01.452112   652 layer_factory.hpp:77] Creating layer pool3/3x3_s2
I0403 15:45:01.452134   652 net.cpp:91] Creating Layer pool3/3x3_s2
I0403 15:45:01.452153   652 net.cpp:425] pool3/3x3_s2 <- inception_3b/output
I0403 15:45:01.452173   652 net.cpp:399] pool3/3x3_s2 -> pool3/3x3_s2
I0403 15:45:01.452252   652 net.cpp:141] Setting up pool3/3x3_s2
I0403 15:45:01.452280   652 net.cpp:148] Top shape: 24 480 14 14 (2257920)
I0403 15:45:01.452301   652 net.cpp:156] Memory required for data: 818271264
I0403 15:45:01.452316   652 layer_factory.hpp:77] Creating layer pool3/3x3_s2_pool3/3x3_s2_0_split
I0403 15:45:01.452337   652 net.cpp:91] Creating Layer pool3/3x3_s2_pool3/3x3_s2_0_split
I0403 15:45:01.452353   652 net.cpp:425] pool3/3x3_s2_pool3/3x3_s2_0_split <- pool3/3x3_s2
I0403 15:45:01.452375   652 net.cpp:399] pool3/3x3_s2_pool3/3x3_s2_0_split -> pool3/3x3_s2_pool3/3x3_s2_0_split_0
I0403 15:45:01.452397   652 net.cpp:399] pool3/3x3_s2_pool3/3x3_s2_0_split -> pool3/3x3_s2_pool3/3x3_s2_0_split_1
I0403 15:45:01.452419   652 net.cpp:399] pool3/3x3_s2_pool3/3x3_s2_0_split -> pool3/3x3_s2_pool3/3x3_s2_0_split_2
I0403 15:45:01.452440   652 net.cpp:399] pool3/3x3_s2_pool3/3x3_s2_0_split -> pool3/3x3_s2_pool3/3x3_s2_0_split_3
I0403 15:45:01.452520   652 net.cpp:141] Setting up pool3/3x3_s2_pool3/3x3_s2_0_split
I0403 15:45:01.452549   652 net.cpp:148] Top shape: 24 480 14 14 (2257920)
I0403 15:45:01.452569   652 net.cpp:148] Top shape: 24 480 14 14 (2257920)
I0403 15:45:01.452586   652 net.cpp:148] Top shape: 24 480 14 14 (2257920)
I0403 15:45:01.452602   652 net.cpp:148] Top shape: 24 480 14 14 (2257920)
I0403 15:45:01.452617   652 net.cpp:156] Memory required for data: 854397984
I0403 15:45:01.452633   652 layer_factory.hpp:77] Creating layer inception_4a/1x1
I0403 15:45:01.452657   652 net.cpp:91] Creating Layer inception_4a/1x1
I0403 15:45:01.452677   652 net.cpp:425] inception_4a/1x1 <- pool3/3x3_s2_pool3/3x3_s2_0_split_0
I0403 15:45:01.452698   652 net.cpp:399] inception_4a/1x1 -> inception_4a/1x1
I0403 15:45:01.454358   652 net.cpp:141] Setting up inception_4a/1x1
I0403 15:45:01.454388   652 net.cpp:148] Top shape: 24 192 14 14 (903168)
I0403 15:45:01.454406   652 net.cpp:156] Memory required for data: 858010656
I0403 15:45:01.454427   652 layer_factory.hpp:77] Creating layer inception_4a/relu_1x1
I0403 15:45:01.454447   652 net.cpp:91] Creating Layer inception_4a/relu_1x1
I0403 15:45:01.454464   652 net.cpp:425] inception_4a/relu_1x1 <- inception_4a/1x1
I0403 15:45:01.454486   652 net.cpp:386] inception_4a/relu_1x1 -> inception_4a/1x1 (in-place)
I0403 15:45:01.454671   652 net.cpp:141] Setting up inception_4a/relu_1x1
I0403 15:45:01.454699   652 net.cpp:148] Top shape: 24 192 14 14 (903168)
I0403 15:45:01.454715   652 net.cpp:156] Memory required for data: 861623328
I0403 15:45:01.454732   652 layer_factory.hpp:77] Creating layer inception_4a/3x3_reduce
I0403 15:45:01.454758   652 net.cpp:91] Creating Layer inception_4a/3x3_reduce
I0403 15:45:01.454778   652 net.cpp:425] inception_4a/3x3_reduce <- pool3/3x3_s2_pool3/3x3_s2_0_split_1
I0403 15:45:01.454802   652 net.cpp:399] inception_4a/3x3_reduce -> inception_4a/3x3_reduce
I0403 15:45:01.456135   652 net.cpp:141] Setting up inception_4a/3x3_reduce
I0403 15:45:01.456164   652 net.cpp:148] Top shape: 24 96 14 14 (451584)
I0403 15:45:01.456181   652 net.cpp:156] Memory required for data: 863429664
I0403 15:45:01.456208   652 layer_factory.hpp:77] Creating layer inception_4a/relu_3x3_reduce
I0403 15:45:01.456230   652 net.cpp:91] Creating Layer inception_4a/relu_3x3_reduce
I0403 15:45:01.456248   652 net.cpp:425] inception_4a/relu_3x3_reduce <- inception_4a/3x3_reduce
I0403 15:45:01.456269   652 net.cpp:386] inception_4a/relu_3x3_reduce -> inception_4a/3x3_reduce (in-place)
I0403 15:45:01.456459   652 net.cpp:141] Setting up inception_4a/relu_3x3_reduce
I0403 15:45:01.456487   652 net.cpp:148] Top shape: 24 96 14 14 (451584)
I0403 15:45:01.456503   652 net.cpp:156] Memory required for data: 865236000
I0403 15:45:01.456521   652 layer_factory.hpp:77] Creating layer inception_4a/3x3
I0403 15:45:01.456545   652 net.cpp:91] Creating Layer inception_4a/3x3
I0403 15:45:01.456564   652 net.cpp:425] inception_4a/3x3 <- inception_4a/3x3_reduce
I0403 15:45:01.456588   652 net.cpp:399] inception_4a/3x3 -> inception_4a/3x3
I0403 15:45:01.459421   652 net.cpp:141] Setting up inception_4a/3x3
I0403 15:45:01.459455   652 net.cpp:148] Top shape: 24 208 14 14 (978432)
I0403 15:45:01.459471   652 net.cpp:156] Memory required for data: 869149728
I0403 15:45:01.459491   652 layer_factory.hpp:77] Creating layer inception_4a/relu_3x3
I0403 15:45:01.459513   652 net.cpp:91] Creating Layer inception_4a/relu_3x3
I0403 15:45:01.459533   652 net.cpp:425] inception_4a/relu_3x3 <- inception_4a/3x3
I0403 15:45:01.459553   652 net.cpp:386] inception_4a/relu_3x3 -> inception_4a/3x3 (in-place)
I0403 15:45:01.459851   652 net.cpp:141] Setting up inception_4a/relu_3x3
I0403 15:45:01.459879   652 net.cpp:148] Top shape: 24 208 14 14 (978432)
I0403 15:45:01.459895   652 net.cpp:156] Memory required for data: 873063456
I0403 15:45:01.459913   652 layer_factory.hpp:77] Creating layer inception_4a/5x5_reduce
I0403 15:45:01.459938   652 net.cpp:91] Creating Layer inception_4a/5x5_reduce
I0403 15:45:01.459956   652 net.cpp:425] inception_4a/5x5_reduce <- pool3/3x3_s2_pool3/3x3_s2_0_split_2
I0403 15:45:01.459980   652 net.cpp:399] inception_4a/5x5_reduce -> inception_4a/5x5_reduce
I0403 15:45:01.461051   652 net.cpp:141] Setting up inception_4a/5x5_reduce
I0403 15:45:01.461081   652 net.cpp:148] Top shape: 24 16 14 14 (75264)
I0403 15:45:01.461098   652 net.cpp:156] Memory required for data: 873364512
I0403 15:45:01.461119   652 layer_factory.hpp:77] Creating layer inception_4a/relu_5x5_reduce
I0403 15:45:01.461141   652 net.cpp:91] Creating Layer inception_4a/relu_5x5_reduce
I0403 15:45:01.461160   652 net.cpp:425] inception_4a/relu_5x5_reduce <- inception_4a/5x5_reduce
I0403 15:45:01.461179   652 net.cpp:386] inception_4a/relu_5x5_reduce -> inception_4a/5x5_reduce (in-place)
I0403 15:45:01.461372   652 net.cpp:141] Setting up inception_4a/relu_5x5_reduce
I0403 15:45:01.461402   652 net.cpp:148] Top shape: 24 16 14 14 (75264)
I0403 15:45:01.461419   652 net.cpp:156] Memory required for data: 873665568
I0403 15:45:01.461437   652 layer_factory.hpp:77] Creating layer inception_4a/5x5
I0403 15:45:01.461463   652 net.cpp:91] Creating Layer inception_4a/5x5
I0403 15:45:01.461484   652 net.cpp:425] inception_4a/5x5 <- inception_4a/5x5_reduce
I0403 15:45:01.461505   652 net.cpp:399] inception_4a/5x5 -> inception_4a/5x5
I0403 15:45:01.462631   652 net.cpp:141] Setting up inception_4a/5x5
I0403 15:45:01.462664   652 net.cpp:148] Top shape: 24 48 14 14 (225792)
I0403 15:45:01.462682   652 net.cpp:156] Memory required for data: 874568736
I0403 15:45:01.462702   652 layer_factory.hpp:77] Creating layer inception_4a/relu_5x5
I0403 15:45:01.462723   652 net.cpp:91] Creating Layer inception_4a/relu_5x5
I0403 15:45:01.462740   652 net.cpp:425] inception_4a/relu_5x5 <- inception_4a/5x5
I0403 15:45:01.462762   652 net.cpp:386] inception_4a/relu_5x5 -> inception_4a/5x5 (in-place)
I0403 15:45:01.462950   652 net.cpp:141] Setting up inception_4a/relu_5x5
I0403 15:45:01.462978   652 net.cpp:148] Top shape: 24 48 14 14 (225792)
I0403 15:45:01.462996   652 net.cpp:156] Memory required for data: 875471904
I0403 15:45:01.463011   652 layer_factory.hpp:77] Creating layer inception_4a/pool
I0403 15:45:01.463032   652 net.cpp:91] Creating Layer inception_4a/pool
I0403 15:45:01.463049   652 net.cpp:425] inception_4a/pool <- pool3/3x3_s2_pool3/3x3_s2_0_split_3
I0403 15:45:01.463071   652 net.cpp:399] inception_4a/pool -> inception_4a/pool
I0403 15:45:01.463137   652 net.cpp:141] Setting up inception_4a/pool
I0403 15:45:01.463163   652 net.cpp:148] Top shape: 24 480 14 14 (2257920)
I0403 15:45:01.463179   652 net.cpp:156] Memory required for data: 884503584
I0403 15:45:01.463196   652 layer_factory.hpp:77] Creating layer inception_4a/pool_proj
I0403 15:45:01.463220   652 net.cpp:91] Creating Layer inception_4a/pool_proj
I0403 15:45:01.463239   652 net.cpp:425] inception_4a/pool_proj <- inception_4a/pool
I0403 15:45:01.463266   652 net.cpp:399] inception_4a/pool_proj -> inception_4a/pool_proj
I0403 15:45:01.464490   652 net.cpp:141] Setting up inception_4a/pool_proj
I0403 15:45:01.464522   652 net.cpp:148] Top shape: 24 64 14 14 (301056)
I0403 15:45:01.464556   652 net.cpp:156] Memory required for data: 885707808
I0403 15:45:01.464579   652 layer_factory.hpp:77] Creating layer inception_4a/relu_pool_proj
I0403 15:45:01.464599   652 net.cpp:91] Creating Layer inception_4a/relu_pool_proj
I0403 15:45:01.464617   652 net.cpp:425] inception_4a/relu_pool_proj <- inception_4a/pool_proj
I0403 15:45:01.464639   652 net.cpp:386] inception_4a/relu_pool_proj -> inception_4a/pool_proj (in-place)
I0403 15:45:01.464936   652 net.cpp:141] Setting up inception_4a/relu_pool_proj
I0403 15:45:01.464965   652 net.cpp:148] Top shape: 24 64 14 14 (301056)
I0403 15:45:01.464983   652 net.cpp:156] Memory required for data: 886912032
I0403 15:45:01.464999   652 layer_factory.hpp:77] Creating layer inception_4a/output
I0403 15:45:01.465018   652 net.cpp:91] Creating Layer inception_4a/output
I0403 15:45:01.465035   652 net.cpp:425] inception_4a/output <- inception_4a/1x1
I0403 15:45:01.465054   652 net.cpp:425] inception_4a/output <- inception_4a/3x3
I0403 15:45:01.465072   652 net.cpp:425] inception_4a/output <- inception_4a/5x5
I0403 15:45:01.465090   652 net.cpp:425] inception_4a/output <- inception_4a/pool_proj
I0403 15:45:01.465111   652 net.cpp:399] inception_4a/output -> inception_4a/output
I0403 15:45:01.465158   652 net.cpp:141] Setting up inception_4a/output
I0403 15:45:01.465186   652 net.cpp:148] Top shape: 24 512 14 14 (2408448)
I0403 15:45:01.465204   652 net.cpp:156] Memory required for data: 896545824
I0403 15:45:01.465221   652 layer_factory.hpp:77] Creating layer inception_4a/output_inception_4a/output_0_split
I0403 15:45:01.465241   652 net.cpp:91] Creating Layer inception_4a/output_inception_4a/output_0_split
I0403 15:45:01.465260   652 net.cpp:425] inception_4a/output_inception_4a/output_0_split <- inception_4a/output
I0403 15:45:01.465279   652 net.cpp:399] inception_4a/output_inception_4a/output_0_split -> inception_4a/output_inception_4a/output_0_split_0
I0403 15:45:01.465311   652 net.cpp:399] inception_4a/output_inception_4a/output_0_split -> inception_4a/output_inception_4a/output_0_split_1
I0403 15:45:01.465335   652 net.cpp:399] inception_4a/output_inception_4a/output_0_split -> inception_4a/output_inception_4a/output_0_split_2
I0403 15:45:01.465358   652 net.cpp:399] inception_4a/output_inception_4a/output_0_split -> inception_4a/output_inception_4a/output_0_split_3
I0403 15:45:01.465379   652 net.cpp:399] inception_4a/output_inception_4a/output_0_split -> inception_4a/output_inception_4a/output_0_split_4
I0403 15:45:01.465478   652 net.cpp:141] Setting up inception_4a/output_inception_4a/output_0_split
I0403 15:45:01.465504   652 net.cpp:148] Top shape: 24 512 14 14 (2408448)
I0403 15:45:01.465522   652 net.cpp:148] Top shape: 24 512 14 14 (2408448)
I0403 15:45:01.465538   652 net.cpp:148] Top shape: 24 512 14 14 (2408448)
I0403 15:45:01.465555   652 net.cpp:148] Top shape: 24 512 14 14 (2408448)
I0403 15:45:01.465574   652 net.cpp:148] Top shape: 24 512 14 14 (2408448)
I0403 15:45:01.465597   652 net.cpp:156] Memory required for data: 944714784
I0403 15:45:01.465613   652 layer_factory.hpp:77] Creating layer loss1/ave_pool
I0403 15:45:01.465636   652 net.cpp:91] Creating Layer loss1/ave_pool
I0403 15:45:01.465653   652 net.cpp:425] loss1/ave_pool <- inception_4a/output_inception_4a/output_0_split_0
I0403 15:45:01.465673   652 net.cpp:399] loss1/ave_pool -> loss1/ave_pool
I0403 15:45:01.465893   652 net.cpp:141] Setting up loss1/ave_pool
I0403 15:45:01.465921   652 net.cpp:148] Top shape: 24 512 4 4 (196608)
I0403 15:45:01.465937   652 net.cpp:156] Memory required for data: 945501216
I0403 15:45:01.465953   652 layer_factory.hpp:77] Creating layer loss1/conv
I0403 15:45:01.465978   652 net.cpp:91] Creating Layer loss1/conv
I0403 15:45:01.465997   652 net.cpp:425] loss1/conv <- loss1/ave_pool
I0403 15:45:01.466022   652 net.cpp:399] loss1/conv -> loss1/conv
I0403 15:45:01.467519   652 net.cpp:141] Setting up loss1/conv
I0403 15:45:01.467548   652 net.cpp:148] Top shape: 24 128 4 4 (49152)
I0403 15:45:01.467566   652 net.cpp:156] Memory required for data: 945697824
I0403 15:45:01.467602   652 layer_factory.hpp:77] Creating layer loss1/relu_conv
I0403 15:45:01.467628   652 net.cpp:91] Creating Layer loss1/relu_conv
I0403 15:45:01.467649   652 net.cpp:425] loss1/relu_conv <- loss1/conv
I0403 15:45:01.467669   652 net.cpp:386] loss1/relu_conv -> loss1/conv (in-place)
I0403 15:45:01.467962   652 net.cpp:141] Setting up loss1/relu_conv
I0403 15:45:01.467990   652 net.cpp:148] Top shape: 24 128 4 4 (49152)
I0403 15:45:01.468008   652 net.cpp:156] Memory required for data: 945894432
I0403 15:45:01.468024   652 layer_factory.hpp:77] Creating layer loss1/fc
I0403 15:45:01.468052   652 net.cpp:91] Creating Layer loss1/fc
I0403 15:45:01.468073   652 net.cpp:425] loss1/fc <- loss1/conv
I0403 15:45:01.468094   652 net.cpp:399] loss1/fc -> loss1/fc
I0403 15:45:01.486865   652 net.cpp:141] Setting up loss1/fc
I0403 15:45:01.486902   652 net.cpp:148] Top shape: 24 1024 (24576)
I0403 15:45:01.486919   652 net.cpp:156] Memory required for data: 945992736
I0403 15:45:01.486942   652 layer_factory.hpp:77] Creating layer loss1/relu_fc
I0403 15:45:01.486961   652 net.cpp:91] Creating Layer loss1/relu_fc
I0403 15:45:01.486980   652 net.cpp:425] loss1/relu_fc <- loss1/fc
I0403 15:45:01.487002   652 net.cpp:386] loss1/relu_fc -> loss1/fc (in-place)
I0403 15:45:01.487207   652 net.cpp:141] Setting up loss1/relu_fc
I0403 15:45:01.487236   652 net.cpp:148] Top shape: 24 1024 (24576)
I0403 15:45:01.487252   652 net.cpp:156] Memory required for data: 946091040
I0403 15:45:01.487268   652 layer_factory.hpp:77] Creating layer loss1/drop_fc
I0403 15:45:01.487304   652 net.cpp:91] Creating Layer loss1/drop_fc
I0403 15:45:01.487325   652 net.cpp:425] loss1/drop_fc <- loss1/fc
I0403 15:45:01.487344   652 net.cpp:386] loss1/drop_fc -> loss1/fc (in-place)
I0403 15:45:01.487399   652 net.cpp:141] Setting up loss1/drop_fc
I0403 15:45:01.487428   652 net.cpp:148] Top shape: 24 1024 (24576)
I0403 15:45:01.487450   652 net.cpp:156] Memory required for data: 946189344
I0403 15:45:01.487468   652 layer_factory.hpp:77] Creating layer loss1/classifier_plantvillage
I0403 15:45:01.487489   652 net.cpp:91] Creating Layer loss1/classifier_plantvillage
I0403 15:45:01.487506   652 net.cpp:425] loss1/classifier_plantvillage <- loss1/fc
I0403 15:45:01.487529   652 net.cpp:399] loss1/classifier_plantvillage -> loss1/classifier_plantvillage
I0403 15:45:01.488482   652 net.cpp:141] Setting up loss1/classifier_plantvillage
I0403 15:45:01.488512   652 net.cpp:148] Top shape: 24 38 (912)
I0403 15:45:01.488529   652 net.cpp:156] Memory required for data: 946192992
I0403 15:45:01.488557   652 layer_factory.hpp:77] Creating layer loss1/classifier_plantvillage_loss1/classifier_plantvillage_0_split
I0403 15:45:01.488579   652 net.cpp:91] Creating Layer loss1/classifier_plantvillage_loss1/classifier_plantvillage_0_split
I0403 15:45:01.488597   652 net.cpp:425] loss1/classifier_plantvillage_loss1/classifier_plantvillage_0_split <- loss1/classifier_plantvillage
I0403 15:45:01.488617   652 net.cpp:399] loss1/classifier_plantvillage_loss1/classifier_plantvillage_0_split -> loss1/classifier_plantvillage_loss1/classifier_plantvillage_0_split_0
I0403 15:45:01.488639   652 net.cpp:399] loss1/classifier_plantvillage_loss1/classifier_plantvillage_0_split -> loss1/classifier_plantvillage_loss1/classifier_plantvillage_0_split_1
I0403 15:45:01.488661   652 net.cpp:399] loss1/classifier_plantvillage_loss1/classifier_plantvillage_0_split -> loss1/classifier_plantvillage_loss1/classifier_plantvillage_0_split_2
I0403 15:45:01.488729   652 net.cpp:141] Setting up loss1/classifier_plantvillage_loss1/classifier_plantvillage_0_split
I0403 15:45:01.488757   652 net.cpp:148] Top shape: 24 38 (912)
I0403 15:45:01.488776   652 net.cpp:148] Top shape: 24 38 (912)
I0403 15:45:01.488793   652 net.cpp:148] Top shape: 24 38 (912)
I0403 15:45:01.488809   652 net.cpp:156] Memory required for data: 946203936
I0403 15:45:01.488826   652 layer_factory.hpp:77] Creating layer inception_4b/1x1
I0403 15:45:01.488848   652 net.cpp:91] Creating Layer inception_4b/1x1
I0403 15:45:01.488888   652 net.cpp:425] inception_4b/1x1 <- inception_4a/output_inception_4a/output_0_split_1
I0403 15:45:01.488910   652 net.cpp:399] inception_4b/1x1 -> inception_4b/1x1
I0403 15:45:01.490651   652 net.cpp:141] Setting up inception_4b/1x1
I0403 15:45:01.490682   652 net.cpp:148] Top shape: 24 160 14 14 (752640)
I0403 15:45:01.490699   652 net.cpp:156] Memory required for data: 949214496
I0403 15:45:01.490720   652 layer_factory.hpp:77] Creating layer inception_4b/relu_1x1
I0403 15:45:01.490742   652 net.cpp:91] Creating Layer inception_4b/relu_1x1
I0403 15:45:01.490761   652 net.cpp:425] inception_4b/relu_1x1 <- inception_4b/1x1
I0403 15:45:01.490780   652 net.cpp:386] inception_4b/relu_1x1 -> inception_4b/1x1 (in-place)
I0403 15:45:01.490969   652 net.cpp:141] Setting up inception_4b/relu_1x1
I0403 15:45:01.491000   652 net.cpp:148] Top shape: 24 160 14 14 (752640)
I0403 15:45:01.491017   652 net.cpp:156] Memory required for data: 952225056
I0403 15:45:01.491034   652 layer_factory.hpp:77] Creating layer inception_4b/3x3_reduce
I0403 15:45:01.491057   652 net.cpp:91] Creating Layer inception_4b/3x3_reduce
I0403 15:45:01.491077   652 net.cpp:425] inception_4b/3x3_reduce <- inception_4a/output_inception_4a/output_0_split_2
I0403 15:45:01.491101   652 net.cpp:399] inception_4b/3x3_reduce -> inception_4b/3x3_reduce
I0403 15:45:01.492527   652 net.cpp:141] Setting up inception_4b/3x3_reduce
I0403 15:45:01.492563   652 net.cpp:148] Top shape: 24 112 14 14 (526848)
I0403 15:45:01.492583   652 net.cpp:156] Memory required for data: 954332448
I0403 15:45:01.492604   652 layer_factory.hpp:77] Creating layer inception_4b/relu_3x3_reduce
I0403 15:45:01.492624   652 net.cpp:91] Creating Layer inception_4b/relu_3x3_reduce
I0403 15:45:01.492642   652 net.cpp:425] inception_4b/relu_3x3_reduce <- inception_4b/3x3_reduce
I0403 15:45:01.492665   652 net.cpp:386] inception_4b/relu_3x3_reduce -> inception_4b/3x3_reduce (in-place)
I0403 15:45:01.492960   652 net.cpp:141] Setting up inception_4b/relu_3x3_reduce
I0403 15:45:01.492991   652 net.cpp:148] Top shape: 24 112 14 14 (526848)
I0403 15:45:01.493010   652 net.cpp:156] Memory required for data: 956439840
I0403 15:45:01.493028   652 layer_factory.hpp:77] Creating layer inception_4b/3x3
I0403 15:45:01.493053   652 net.cpp:91] Creating Layer inception_4b/3x3
I0403 15:45:01.493073   652 net.cpp:425] inception_4b/3x3 <- inception_4b/3x3_reduce
I0403 15:45:01.493094   652 net.cpp:399] inception_4b/3x3 -> inception_4b/3x3
I0403 15:45:01.496233   652 net.cpp:141] Setting up inception_4b/3x3
I0403 15:45:01.496264   652 net.cpp:148] Top shape: 24 224 14 14 (1053696)
I0403 15:45:01.496281   652 net.cpp:156] Memory required for data: 960654624
I0403 15:45:01.496309   652 layer_factory.hpp:77] Creating layer inception_4b/relu_3x3
I0403 15:45:01.496331   652 net.cpp:91] Creating Layer inception_4b/relu_3x3
I0403 15:45:01.496350   652 net.cpp:425] inception_4b/relu_3x3 <- inception_4b/3x3
I0403 15:45:01.496368   652 net.cpp:386] inception_4b/relu_3x3 -> inception_4b/3x3 (in-place)
I0403 15:45:01.496557   652 net.cpp:141] Setting up inception_4b/relu_3x3
I0403 15:45:01.496587   652 net.cpp:148] Top shape: 24 224 14 14 (1053696)
I0403 15:45:01.496603   652 net.cpp:156] Memory required for data: 964869408
I0403 15:45:01.496618   652 layer_factory.hpp:77] Creating layer inception_4b/5x5_reduce
I0403 15:45:01.496644   652 net.cpp:91] Creating Layer inception_4b/5x5_reduce
I0403 15:45:01.496665   652 net.cpp:425] inception_4b/5x5_reduce <- inception_4a/output_inception_4a/output_0_split_3
I0403 15:45:01.496690   652 net.cpp:399] inception_4b/5x5_reduce -> inception_4b/5x5_reduce
I0403 15:45:01.497841   652 net.cpp:141] Setting up inception_4b/5x5_reduce
I0403 15:45:01.497870   652 net.cpp:148] Top shape: 24 24 14 14 (112896)
I0403 15:45:01.497889   652 net.cpp:156] Memory required for data: 965320992
I0403 15:45:01.497907   652 layer_factory.hpp:77] Creating layer inception_4b/relu_5x5_reduce
I0403 15:45:01.497931   652 net.cpp:91] Creating Layer inception_4b/relu_5x5_reduce
I0403 15:45:01.497964   652 net.cpp:425] inception_4b/relu_5x5_reduce <- inception_4b/5x5_reduce
I0403 15:45:01.497985   652 net.cpp:386] inception_4b/relu_5x5_reduce -> inception_4b/5x5_reduce (in-place)
I0403 15:45:01.498178   652 net.cpp:141] Setting up inception_4b/relu_5x5_reduce
I0403 15:45:01.498206   652 net.cpp:148] Top shape: 24 24 14 14 (112896)
I0403 15:45:01.498222   652 net.cpp:156] Memory required for data: 965772576
I0403 15:45:01.498239   652 layer_factory.hpp:77] Creating layer inception_4b/5x5
I0403 15:45:01.498263   652 net.cpp:91] Creating Layer inception_4b/5x5
I0403 15:45:01.498288   652 net.cpp:425] inception_4b/5x5 <- inception_4b/5x5_reduce
I0403 15:45:01.498314   652 net.cpp:399] inception_4b/5x5 -> inception_4b/5x5
I0403 15:45:01.499598   652 net.cpp:141] Setting up inception_4b/5x5
I0403 15:45:01.499629   652 net.cpp:148] Top shape: 24 64 14 14 (301056)
I0403 15:45:01.499644   652 net.cpp:156] Memory required for data: 966976800
I0403 15:45:01.499665   652 layer_factory.hpp:77] Creating layer inception_4b/relu_5x5
I0403 15:45:01.499687   652 net.cpp:91] Creating Layer inception_4b/relu_5x5
I0403 15:45:01.499706   652 net.cpp:425] inception_4b/relu_5x5 <- inception_4b/5x5
I0403 15:45:01.499727   652 net.cpp:386] inception_4b/relu_5x5 -> inception_4b/5x5 (in-place)
I0403 15:45:01.500023   652 net.cpp:141] Setting up inception_4b/relu_5x5
I0403 15:45:01.500052   652 net.cpp:148] Top shape: 24 64 14 14 (301056)
I0403 15:45:01.500069   652 net.cpp:156] Memory required for data: 968181024
I0403 15:45:01.500085   652 layer_factory.hpp:77] Creating layer inception_4b/pool
I0403 15:45:01.500108   652 net.cpp:91] Creating Layer inception_4b/pool
I0403 15:45:01.500128   652 net.cpp:425] inception_4b/pool <- inception_4a/output_inception_4a/output_0_split_4
I0403 15:45:01.500149   652 net.cpp:399] inception_4b/pool -> inception_4b/pool
I0403 15:45:01.500221   652 net.cpp:141] Setting up inception_4b/pool
I0403 15:45:01.500247   652 net.cpp:148] Top shape: 24 512 14 14 (2408448)
I0403 15:45:01.500263   652 net.cpp:156] Memory required for data: 977814816
I0403 15:45:01.500280   652 layer_factory.hpp:77] Creating layer inception_4b/pool_proj
I0403 15:45:01.500310   652 net.cpp:91] Creating Layer inception_4b/pool_proj
I0403 15:45:01.500332   652 net.cpp:425] inception_4b/pool_proj <- inception_4b/pool
I0403 15:45:01.500355   652 net.cpp:399] inception_4b/pool_proj -> inception_4b/pool_proj
I0403 15:45:01.501616   652 net.cpp:141] Setting up inception_4b/pool_proj
I0403 15:45:01.501646   652 net.cpp:148] Top shape: 24 64 14 14 (301056)
I0403 15:45:01.501668   652 net.cpp:156] Memory required for data: 979019040
I0403 15:45:01.501689   652 layer_factory.hpp:77] Creating layer inception_4b/relu_pool_proj
I0403 15:45:01.501709   652 net.cpp:91] Creating Layer inception_4b/relu_pool_proj
I0403 15:45:01.501729   652 net.cpp:425] inception_4b/relu_pool_proj <- inception_4b/pool_proj
I0403 15:45:01.501747   652 net.cpp:386] inception_4b/relu_pool_proj -> inception_4b/pool_proj (in-place)
I0403 15:45:01.501936   652 net.cpp:141] Setting up inception_4b/relu_pool_proj
I0403 15:45:01.501967   652 net.cpp:148] Top shape: 24 64 14 14 (301056)
I0403 15:45:01.501984   652 net.cpp:156] Memory required for data: 980223264
I0403 15:45:01.502001   652 layer_factory.hpp:77] Creating layer inception_4b/output
I0403 15:45:01.502019   652 net.cpp:91] Creating Layer inception_4b/output
I0403 15:45:01.502037   652 net.cpp:425] inception_4b/output <- inception_4b/1x1
I0403 15:45:01.502055   652 net.cpp:425] inception_4b/output <- inception_4b/3x3
I0403 15:45:01.502074   652 net.cpp:425] inception_4b/output <- inception_4b/5x5
I0403 15:45:01.502092   652 net.cpp:425] inception_4b/output <- inception_4b/pool_proj
I0403 15:45:01.502113   652 net.cpp:399] inception_4b/output -> inception_4b/output
I0403 15:45:01.502163   652 net.cpp:141] Setting up inception_4b/output
I0403 15:45:01.502189   652 net.cpp:148] Top shape: 24 512 14 14 (2408448)
I0403 15:45:01.502205   652 net.cpp:156] Memory required for data: 989857056
I0403 15:45:01.502240   652 layer_factory.hpp:77] Creating layer inception_4b/output_inception_4b/output_0_split
I0403 15:45:01.502262   652 net.cpp:91] Creating Layer inception_4b/output_inception_4b/output_0_split
I0403 15:45:01.502281   652 net.cpp:425] inception_4b/output_inception_4b/output_0_split <- inception_4b/output
I0403 15:45:01.502307   652 net.cpp:399] inception_4b/output_inception_4b/output_0_split -> inception_4b/output_inception_4b/output_0_split_0
I0403 15:45:01.502331   652 net.cpp:399] inception_4b/output_inception_4b/output_0_split -> inception_4b/output_inception_4b/output_0_split_1
I0403 15:45:01.502358   652 net.cpp:399] inception_4b/output_inception_4b/output_0_split -> inception_4b/output_inception_4b/output_0_split_2
I0403 15:45:01.502382   652 net.cpp:399] inception_4b/output_inception_4b/output_0_split -> inception_4b/output_inception_4b/output_0_split_3
I0403 15:45:01.502468   652 net.cpp:141] Setting up inception_4b/output_inception_4b/output_0_split
I0403 15:45:01.502496   652 net.cpp:148] Top shape: 24 512 14 14 (2408448)
I0403 15:45:01.502513   652 net.cpp:148] Top shape: 24 512 14 14 (2408448)
I0403 15:45:01.502532   652 net.cpp:148] Top shape: 24 512 14 14 (2408448)
I0403 15:45:01.502548   652 net.cpp:148] Top shape: 24 512 14 14 (2408448)
I0403 15:45:01.502563   652 net.cpp:156] Memory required for data: 1028392224
I0403 15:45:01.502579   652 layer_factory.hpp:77] Creating layer inception_4c/1x1
I0403 15:45:01.502604   652 net.cpp:91] Creating Layer inception_4c/1x1
I0403 15:45:01.502624   652 net.cpp:425] inception_4c/1x1 <- inception_4b/output_inception_4b/output_0_split_0
I0403 15:45:01.502650   652 net.cpp:399] inception_4c/1x1 -> inception_4c/1x1
I0403 15:45:01.504168   652 net.cpp:141] Setting up inception_4c/1x1
I0403 15:45:01.504202   652 net.cpp:148] Top shape: 24 128 14 14 (602112)
I0403 15:45:01.504221   652 net.cpp:156] Memory required for data: 1030800672
I0403 15:45:01.504243   652 layer_factory.hpp:77] Creating layer inception_4c/relu_1x1
I0403 15:45:01.504264   652 net.cpp:91] Creating Layer inception_4c/relu_1x1
I0403 15:45:01.504281   652 net.cpp:425] inception_4c/relu_1x1 <- inception_4c/1x1
I0403 15:45:01.504319   652 net.cpp:386] inception_4c/relu_1x1 -> inception_4c/1x1 (in-place)
I0403 15:45:01.504513   652 net.cpp:141] Setting up inception_4c/relu_1x1
I0403 15:45:01.504540   652 net.cpp:148] Top shape: 24 128 14 14 (602112)
I0403 15:45:01.504557   652 net.cpp:156] Memory required for data: 1033209120
I0403 15:45:01.504575   652 layer_factory.hpp:77] Creating layer inception_4c/3x3_reduce
I0403 15:45:01.504601   652 net.cpp:91] Creating Layer inception_4c/3x3_reduce
I0403 15:45:01.504621   652 net.cpp:425] inception_4c/3x3_reduce <- inception_4b/output_inception_4b/output_0_split_1
I0403 15:45:01.504644   652 net.cpp:399] inception_4c/3x3_reduce -> inception_4c/3x3_reduce
I0403 15:45:01.506680   652 net.cpp:141] Setting up inception_4c/3x3_reduce
I0403 15:45:01.506711   652 net.cpp:148] Top shape: 24 128 14 14 (602112)
I0403 15:45:01.506728   652 net.cpp:156] Memory required for data: 1035617568
I0403 15:45:01.506749   652 layer_factory.hpp:77] Creating layer inception_4c/relu_3x3_reduce
I0403 15:45:01.506775   652 net.cpp:91] Creating Layer inception_4c/relu_3x3_reduce
I0403 15:45:01.506795   652 net.cpp:425] inception_4c/relu_3x3_reduce <- inception_4c/3x3_reduce
I0403 15:45:01.506814   652 net.cpp:386] inception_4c/relu_3x3_reduce -> inception_4c/3x3_reduce (in-place)
I0403 15:45:01.507115   652 net.cpp:141] Setting up inception_4c/relu_3x3_reduce
I0403 15:45:01.507145   652 net.cpp:148] Top shape: 24 128 14 14 (602112)
I0403 15:45:01.507161   652 net.cpp:156] Memory required for data: 1038026016
I0403 15:45:01.507177   652 layer_factory.hpp:77] Creating layer inception_4c/3x3
I0403 15:45:01.507202   652 net.cpp:91] Creating Layer inception_4c/3x3
I0403 15:45:01.507222   652 net.cpp:425] inception_4c/3x3 <- inception_4c/3x3_reduce
I0403 15:45:01.507247   652 net.cpp:399] inception_4c/3x3 -> inception_4c/3x3
I0403 15:45:01.511028   652 net.cpp:141] Setting up inception_4c/3x3
I0403 15:45:01.511070   652 net.cpp:148] Top shape: 24 256 14 14 (1204224)
I0403 15:45:01.511087   652 net.cpp:156] Memory required for data: 1042842912
I0403 15:45:01.511121   652 layer_factory.hpp:77] Creating layer inception_4c/relu_3x3
I0403 15:45:01.511144   652 net.cpp:91] Creating Layer inception_4c/relu_3x3
I0403 15:45:01.511162   652 net.cpp:425] inception_4c/relu_3x3 <- inception_4c/3x3
I0403 15:45:01.511180   652 net.cpp:386] inception_4c/relu_3x3 -> inception_4c/3x3 (in-place)
I0403 15:45:01.511371   652 net.cpp:141] Setting up inception_4c/relu_3x3
I0403 15:45:01.511399   652 net.cpp:148] Top shape: 24 256 14 14 (1204224)
I0403 15:45:01.511415   652 net.cpp:156] Memory required for data: 1047659808
I0403 15:45:01.511431   652 layer_factory.hpp:77] Creating layer inception_4c/5x5_reduce
I0403 15:45:01.511457   652 net.cpp:91] Creating Layer inception_4c/5x5_reduce
I0403 15:45:01.511476   652 net.cpp:425] inception_4c/5x5_reduce <- inception_4b/output_inception_4b/output_0_split_2
I0403 15:45:01.511497   652 net.cpp:399] inception_4c/5x5_reduce -> inception_4c/5x5_reduce
I0403 15:45:01.512610   652 net.cpp:141] Setting up inception_4c/5x5_reduce
I0403 15:45:01.512640   652 net.cpp:148] Top shape: 24 24 14 14 (112896)
I0403 15:45:01.512656   652 net.cpp:156] Memory required for data: 1048111392
I0403 15:45:01.512676   652 layer_factory.hpp:77] Creating layer inception_4c/relu_5x5_reduce
I0403 15:45:01.512699   652 net.cpp:91] Creating Layer inception_4c/relu_5x5_reduce
I0403 15:45:01.512718   652 net.cpp:425] inception_4c/relu_5x5_reduce <- inception_4c/5x5_reduce
I0403 15:45:01.512738   652 net.cpp:386] inception_4c/relu_5x5_reduce -> inception_4c/5x5_reduce (in-place)
I0403 15:45:01.512928   652 net.cpp:141] Setting up inception_4c/relu_5x5_reduce
I0403 15:45:01.512958   652 net.cpp:148] Top shape: 24 24 14 14 (112896)
I0403 15:45:01.512974   652 net.cpp:156] Memory required for data: 1048562976
I0403 15:45:01.512989   652 layer_factory.hpp:77] Creating layer inception_4c/5x5
I0403 15:45:01.513011   652 net.cpp:91] Creating Layer inception_4c/5x5
I0403 15:45:01.513031   652 net.cpp:425] inception_4c/5x5 <- inception_4c/5x5_reduce
I0403 15:45:01.513054   652 net.cpp:399] inception_4c/5x5 -> inception_4c/5x5
I0403 15:45:01.514338   652 net.cpp:141] Setting up inception_4c/5x5
I0403 15:45:01.514370   652 net.cpp:148] Top shape: 24 64 14 14 (301056)
I0403 15:45:01.514389   652 net.cpp:156] Memory required for data: 1049767200
I0403 15:45:01.514410   652 layer_factory.hpp:77] Creating layer inception_4c/relu_5x5
I0403 15:45:01.514428   652 net.cpp:91] Creating Layer inception_4c/relu_5x5
I0403 15:45:01.514446   652 net.cpp:425] inception_4c/relu_5x5 <- inception_4c/5x5
I0403 15:45:01.514467   652 net.cpp:386] inception_4c/relu_5x5 -> inception_4c/5x5 (in-place)
I0403 15:45:01.514758   652 net.cpp:141] Setting up inception_4c/relu_5x5
I0403 15:45:01.514789   652 net.cpp:148] Top shape: 24 64 14 14 (301056)
I0403 15:45:01.514806   652 net.cpp:156] Memory required for data: 1050971424
I0403 15:45:01.514823   652 layer_factory.hpp:77] Creating layer inception_4c/pool
I0403 15:45:01.514843   652 net.cpp:91] Creating Layer inception_4c/pool
I0403 15:45:01.514860   652 net.cpp:425] inception_4c/pool <- inception_4b/output_inception_4b/output_0_split_3
I0403 15:45:01.514883   652 net.cpp:399] inception_4c/pool -> inception_4c/pool
I0403 15:45:01.514952   652 net.cpp:141] Setting up inception_4c/pool
I0403 15:45:01.514981   652 net.cpp:148] Top shape: 24 512 14 14 (2408448)
I0403 15:45:01.514998   652 net.cpp:156] Memory required for data: 1060605216
I0403 15:45:01.515014   652 layer_factory.hpp:77] Creating layer inception_4c/pool_proj
I0403 15:45:01.515035   652 net.cpp:91] Creating Layer inception_4c/pool_proj
I0403 15:45:01.515053   652 net.cpp:425] inception_4c/pool_proj <- inception_4c/pool
I0403 15:45:01.515075   652 net.cpp:399] inception_4c/pool_proj -> inception_4c/pool_proj
I0403 15:45:01.516345   652 net.cpp:141] Setting up inception_4c/pool_proj
I0403 15:45:01.516376   652 net.cpp:148] Top shape: 24 64 14 14 (301056)
I0403 15:45:01.516407   652 net.cpp:156] Memory required for data: 1061809440
I0403 15:45:01.516429   652 layer_factory.hpp:77] Creating layer inception_4c/relu_pool_proj
I0403 15:45:01.516453   652 net.cpp:91] Creating Layer inception_4c/relu_pool_proj
I0403 15:45:01.516471   652 net.cpp:425] inception_4c/relu_pool_proj <- inception_4c/pool_proj
I0403 15:45:01.516491   652 net.cpp:386] inception_4c/relu_pool_proj -> inception_4c/pool_proj (in-place)
I0403 15:45:01.516686   652 net.cpp:141] Setting up inception_4c/relu_pool_proj
I0403 15:45:01.516716   652 net.cpp:148] Top shape: 24 64 14 14 (301056)
I0403 15:45:01.516733   652 net.cpp:156] Memory required for data: 1063013664
I0403 15:45:01.516749   652 layer_factory.hpp:77] Creating layer inception_4c/output
I0403 15:45:01.516769   652 net.cpp:91] Creating Layer inception_4c/output
I0403 15:45:01.516787   652 net.cpp:425] inception_4c/output <- inception_4c/1x1
I0403 15:45:01.516805   652 net.cpp:425] inception_4c/output <- inception_4c/3x3
I0403 15:45:01.516824   652 net.cpp:425] inception_4c/output <- inception_4c/5x5
I0403 15:45:01.516840   652 net.cpp:425] inception_4c/output <- inception_4c/pool_proj
I0403 15:45:01.516861   652 net.cpp:399] inception_4c/output -> inception_4c/output
I0403 15:45:01.516913   652 net.cpp:141] Setting up inception_4c/output
I0403 15:45:01.516939   652 net.cpp:148] Top shape: 24 512 14 14 (2408448)
I0403 15:45:01.516955   652 net.cpp:156] Memory required for data: 1072647456
I0403 15:45:01.516970   652 layer_factory.hpp:77] Creating layer inception_4c/output_inception_4c/output_0_split
I0403 15:45:01.516994   652 net.cpp:91] Creating Layer inception_4c/output_inception_4c/output_0_split
I0403 15:45:01.517014   652 net.cpp:425] inception_4c/output_inception_4c/output_0_split <- inception_4c/output
I0403 15:45:01.517033   652 net.cpp:399] inception_4c/output_inception_4c/output_0_split -> inception_4c/output_inception_4c/output_0_split_0
I0403 15:45:01.517055   652 net.cpp:399] inception_4c/output_inception_4c/output_0_split -> inception_4c/output_inception_4c/output_0_split_1
I0403 15:45:01.517081   652 net.cpp:399] inception_4c/output_inception_4c/output_0_split -> inception_4c/output_inception_4c/output_0_split_2
I0403 15:45:01.517103   652 net.cpp:399] inception_4c/output_inception_4c/output_0_split -> inception_4c/output_inception_4c/output_0_split_3
I0403 15:45:01.517195   652 net.cpp:141] Setting up inception_4c/output_inception_4c/output_0_split
I0403 15:45:01.517222   652 net.cpp:148] Top shape: 24 512 14 14 (2408448)
I0403 15:45:01.517242   652 net.cpp:148] Top shape: 24 512 14 14 (2408448)
I0403 15:45:01.517261   652 net.cpp:148] Top shape: 24 512 14 14 (2408448)
I0403 15:45:01.517278   652 net.cpp:148] Top shape: 24 512 14 14 (2408448)
I0403 15:45:01.517300   652 net.cpp:156] Memory required for data: 1111182624
I0403 15:45:01.517320   652 layer_factory.hpp:77] Creating layer inception_4d/1x1
I0403 15:45:01.517346   652 net.cpp:91] Creating Layer inception_4d/1x1
I0403 15:45:01.517366   652 net.cpp:425] inception_4d/1x1 <- inception_4c/output_inception_4c/output_0_split_0
I0403 15:45:01.517390   652 net.cpp:399] inception_4d/1x1 -> inception_4d/1x1
I0403 15:45:01.518862   652 net.cpp:141] Setting up inception_4d/1x1
I0403 15:45:01.518893   652 net.cpp:148] Top shape: 24 112 14 14 (526848)
I0403 15:45:01.518910   652 net.cpp:156] Memory required for data: 1113290016
I0403 15:45:01.518931   652 layer_factory.hpp:77] Creating layer inception_4d/relu_1x1
I0403 15:45:01.518954   652 net.cpp:91] Creating Layer inception_4d/relu_1x1
I0403 15:45:01.518972   652 net.cpp:425] inception_4d/relu_1x1 <- inception_4d/1x1
I0403 15:45:01.518992   652 net.cpp:386] inception_4d/relu_1x1 -> inception_4d/1x1 (in-place)
I0403 15:45:01.519187   652 net.cpp:141] Setting up inception_4d/relu_1x1
I0403 15:45:01.519214   652 net.cpp:148] Top shape: 24 112 14 14 (526848)
I0403 15:45:01.519232   652 net.cpp:156] Memory required for data: 1115397408
I0403 15:45:01.519248   652 layer_factory.hpp:77] Creating layer inception_4d/3x3_reduce
I0403 15:45:01.519294   652 net.cpp:91] Creating Layer inception_4d/3x3_reduce
I0403 15:45:01.519316   652 net.cpp:425] inception_4d/3x3_reduce <- inception_4c/output_inception_4c/output_0_split_1
I0403 15:45:01.519337   652 net.cpp:399] inception_4d/3x3_reduce -> inception_4d/3x3_reduce
I0403 15:45:01.520936   652 net.cpp:141] Setting up inception_4d/3x3_reduce
I0403 15:45:01.520966   652 net.cpp:148] Top shape: 24 144 14 14 (677376)
I0403 15:45:01.520982   652 net.cpp:156] Memory required for data: 1118106912
I0403 15:45:01.521003   652 layer_factory.hpp:77] Creating layer inception_4d/relu_3x3_reduce
I0403 15:45:01.521021   652 net.cpp:91] Creating Layer inception_4d/relu_3x3_reduce
I0403 15:45:01.521039   652 net.cpp:425] inception_4d/relu_3x3_reduce <- inception_4d/3x3_reduce
I0403 15:45:01.521061   652 net.cpp:386] inception_4d/relu_3x3_reduce -> inception_4d/3x3_reduce (in-place)
I0403 15:45:01.521378   652 net.cpp:141] Setting up inception_4d/relu_3x3_reduce
I0403 15:45:01.521407   652 net.cpp:148] Top shape: 24 144 14 14 (677376)
I0403 15:45:01.521423   652 net.cpp:156] Memory required for data: 1120816416
I0403 15:45:01.521441   652 layer_factory.hpp:77] Creating layer inception_4d/3x3
I0403 15:45:01.521466   652 net.cpp:91] Creating Layer inception_4d/3x3
I0403 15:45:01.521487   652 net.cpp:425] inception_4d/3x3 <- inception_4d/3x3_reduce
I0403 15:45:01.521512   652 net.cpp:399] inception_4d/3x3 -> inception_4d/3x3
I0403 15:45:01.526003   652 net.cpp:141] Setting up inception_4d/3x3
I0403 15:45:01.526036   652 net.cpp:148] Top shape: 24 288 14 14 (1354752)
I0403 15:45:01.526053   652 net.cpp:156] Memory required for data: 1126235424
I0403 15:45:01.526074   652 layer_factory.hpp:77] Creating layer inception_4d/relu_3x3
I0403 15:45:01.526098   652 net.cpp:91] Creating Layer inception_4d/relu_3x3
I0403 15:45:01.526118   652 net.cpp:425] inception_4d/relu_3x3 <- inception_4d/3x3
I0403 15:45:01.526139   652 net.cpp:386] inception_4d/relu_3x3 -> inception_4d/3x3 (in-place)
I0403 15:45:01.526338   652 net.cpp:141] Setting up inception_4d/relu_3x3
I0403 15:45:01.526370   652 net.cpp:148] Top shape: 24 288 14 14 (1354752)
I0403 15:45:01.526391   652 net.cpp:156] Memory required for data: 1131654432
I0403 15:45:01.526409   652 layer_factory.hpp:77] Creating layer inception_4d/5x5_reduce
I0403 15:45:01.526432   652 net.cpp:91] Creating Layer inception_4d/5x5_reduce
I0403 15:45:01.526450   652 net.cpp:425] inception_4d/5x5_reduce <- inception_4c/output_inception_4c/output_0_split_2
I0403 15:45:01.526474   652 net.cpp:399] inception_4d/5x5_reduce -> inception_4d/5x5_reduce
I0403 15:45:01.527683   652 net.cpp:141] Setting up inception_4d/5x5_reduce
I0403 15:45:01.527714   652 net.cpp:148] Top shape: 24 32 14 14 (150528)
I0403 15:45:01.527732   652 net.cpp:156] Memory required for data: 1132256544
I0403 15:45:01.527753   652 layer_factory.hpp:77] Creating layer inception_4d/relu_5x5_reduce
I0403 15:45:01.527776   652 net.cpp:91] Creating Layer inception_4d/relu_5x5_reduce
I0403 15:45:01.527797   652 net.cpp:425] inception_4d/relu_5x5_reduce <- inception_4d/5x5_reduce
I0403 15:45:01.527817   652 net.cpp:386] inception_4d/relu_5x5_reduce -> inception_4d/5x5_reduce (in-place)
I0403 15:45:01.528017   652 net.cpp:141] Setting up inception_4d/relu_5x5_reduce
I0403 15:45:01.528044   652 net.cpp:148] Top shape: 24 32 14 14 (150528)
I0403 15:45:01.528060   652 net.cpp:156] Memory required for data: 1132858656
I0403 15:45:01.528079   652 layer_factory.hpp:77] Creating layer inception_4d/5x5
I0403 15:45:01.528103   652 net.cpp:91] Creating Layer inception_4d/5x5
I0403 15:45:01.528125   652 net.cpp:425] inception_4d/5x5 <- inception_4d/5x5_reduce
I0403 15:45:01.528146   652 net.cpp:399] inception_4d/5x5 -> inception_4d/5x5
I0403 15:45:01.529700   652 net.cpp:141] Setting up inception_4d/5x5
I0403 15:45:01.529732   652 net.cpp:148] Top shape: 24 64 14 14 (301056)
I0403 15:45:01.529750   652 net.cpp:156] Memory required for data: 1134062880
I0403 15:45:01.529772   652 layer_factory.hpp:77] Creating layer inception_4d/relu_5x5
I0403 15:45:01.529808   652 net.cpp:91] Creating Layer inception_4d/relu_5x5
I0403 15:45:01.529829   652 net.cpp:425] inception_4d/relu_5x5 <- inception_4d/5x5
I0403 15:45:01.529852   652 net.cpp:386] inception_4d/relu_5x5 -> inception_4d/5x5 (in-place)
I0403 15:45:01.530167   652 net.cpp:141] Setting up inception_4d/relu_5x5
I0403 15:45:01.530200   652 net.cpp:148] Top shape: 24 64 14 14 (301056)
I0403 15:45:01.530220   652 net.cpp:156] Memory required for data: 1135267104
I0403 15:45:01.530241   652 layer_factory.hpp:77] Creating layer inception_4d/pool
I0403 15:45:01.530262   652 net.cpp:91] Creating Layer inception_4d/pool
I0403 15:45:01.530279   652 net.cpp:425] inception_4d/pool <- inception_4c/output_inception_4c/output_0_split_3
I0403 15:45:01.530308   652 net.cpp:399] inception_4d/pool -> inception_4d/pool
I0403 15:45:01.530380   652 net.cpp:141] Setting up inception_4d/pool
I0403 15:45:01.530406   652 net.cpp:148] Top shape: 24 512 14 14 (2408448)
I0403 15:45:01.530422   652 net.cpp:156] Memory required for data: 1144900896
I0403 15:45:01.530439   652 layer_factory.hpp:77] Creating layer inception_4d/pool_proj
I0403 15:45:01.530464   652 net.cpp:91] Creating Layer inception_4d/pool_proj
I0403 15:45:01.530484   652 net.cpp:425] inception_4d/pool_proj <- inception_4d/pool
I0403 15:45:01.530508   652 net.cpp:399] inception_4d/pool_proj -> inception_4d/pool_proj
I0403 15:45:01.532361   652 net.cpp:141] Setting up inception_4d/pool_proj
I0403 15:45:01.532393   652 net.cpp:148] Top shape: 24 64 14 14 (301056)
I0403 15:45:01.532410   652 net.cpp:156] Memory required for data: 1146105120
I0403 15:45:01.532429   652 layer_factory.hpp:77] Creating layer inception_4d/relu_pool_proj
I0403 15:45:01.532452   652 net.cpp:91] Creating Layer inception_4d/relu_pool_proj
I0403 15:45:01.532472   652 net.cpp:425] inception_4d/relu_pool_proj <- inception_4d/pool_proj
I0403 15:45:01.532493   652 net.cpp:386] inception_4d/relu_pool_proj -> inception_4d/pool_proj (in-place)
I0403 15:45:01.532692   652 net.cpp:141] Setting up inception_4d/relu_pool_proj
I0403 15:45:01.532723   652 net.cpp:148] Top shape: 24 64 14 14 (301056)
I0403 15:45:01.532742   652 net.cpp:156] Memory required for data: 1147309344
I0403 15:45:01.532758   652 layer_factory.hpp:77] Creating layer inception_4d/output
I0403 15:45:01.532778   652 net.cpp:91] Creating Layer inception_4d/output
I0403 15:45:01.532794   652 net.cpp:425] inception_4d/output <- inception_4d/1x1
I0403 15:45:01.532814   652 net.cpp:425] inception_4d/output <- inception_4d/3x3
I0403 15:45:01.532830   652 net.cpp:425] inception_4d/output <- inception_4d/5x5
I0403 15:45:01.532850   652 net.cpp:425] inception_4d/output <- inception_4d/pool_proj
I0403 15:45:01.532867   652 net.cpp:399] inception_4d/output -> inception_4d/output
I0403 15:45:01.532920   652 net.cpp:141] Setting up inception_4d/output
I0403 15:45:01.532946   652 net.cpp:148] Top shape: 24 528 14 14 (2483712)
I0403 15:45:01.532963   652 net.cpp:156] Memory required for data: 1157244192
I0403 15:45:01.532979   652 layer_factory.hpp:77] Creating layer inception_4d/output_inception_4d/output_0_split
I0403 15:45:01.533001   652 net.cpp:91] Creating Layer inception_4d/output_inception_4d/output_0_split
I0403 15:45:01.533022   652 net.cpp:425] inception_4d/output_inception_4d/output_0_split <- inception_4d/output
I0403 15:45:01.533042   652 net.cpp:399] inception_4d/output_inception_4d/output_0_split -> inception_4d/output_inception_4d/output_0_split_0
I0403 15:45:01.533064   652 net.cpp:399] inception_4d/output_inception_4d/output_0_split -> inception_4d/output_inception_4d/output_0_split_1
I0403 15:45:01.533087   652 net.cpp:399] inception_4d/output_inception_4d/output_0_split -> inception_4d/output_inception_4d/output_0_split_2
I0403 15:45:01.533109   652 net.cpp:399] inception_4d/output_inception_4d/output_0_split -> inception_4d/output_inception_4d/output_0_split_3
I0403 15:45:01.533133   652 net.cpp:399] inception_4d/output_inception_4d/output_0_split -> inception_4d/output_inception_4d/output_0_split_4
I0403 15:45:01.533244   652 net.cpp:141] Setting up inception_4d/output_inception_4d/output_0_split
I0403 15:45:01.533288   652 net.cpp:148] Top shape: 24 528 14 14 (2483712)
I0403 15:45:01.533313   652 net.cpp:148] Top shape: 24 528 14 14 (2483712)
I0403 15:45:01.533330   652 net.cpp:148] Top shape: 24 528 14 14 (2483712)
I0403 15:45:01.533347   652 net.cpp:148] Top shape: 24 528 14 14 (2483712)
I0403 15:45:01.533365   652 net.cpp:148] Top shape: 24 528 14 14 (2483712)
I0403 15:45:01.533380   652 net.cpp:156] Memory required for data: 1206918432
I0403 15:45:01.533396   652 layer_factory.hpp:77] Creating layer loss2/ave_pool
I0403 15:45:01.533416   652 net.cpp:91] Creating Layer loss2/ave_pool
I0403 15:45:01.533433   652 net.cpp:425] loss2/ave_pool <- inception_4d/output_inception_4d/output_0_split_0
I0403 15:45:01.533457   652 net.cpp:399] loss2/ave_pool -> loss2/ave_pool
I0403 15:45:01.533788   652 net.cpp:141] Setting up loss2/ave_pool
I0403 15:45:01.533818   652 net.cpp:148] Top shape: 24 528 4 4 (202752)
I0403 15:45:01.533835   652 net.cpp:156] Memory required for data: 1207729440
I0403 15:45:01.533852   652 layer_factory.hpp:77] Creating layer loss2/conv
I0403 15:45:01.533877   652 net.cpp:91] Creating Layer loss2/conv
I0403 15:45:01.533900   652 net.cpp:425] loss2/conv <- loss2/ave_pool
I0403 15:45:01.533924   652 net.cpp:399] loss2/conv -> loss2/conv
I0403 15:45:01.535917   652 net.cpp:141] Setting up loss2/conv
I0403 15:45:01.535949   652 net.cpp:148] Top shape: 24 128 4 4 (49152)
I0403 15:45:01.535967   652 net.cpp:156] Memory required for data: 1207926048
I0403 15:45:01.535989   652 layer_factory.hpp:77] Creating layer loss2/relu_conv
I0403 15:45:01.536010   652 net.cpp:91] Creating Layer loss2/relu_conv
I0403 15:45:01.536028   652 net.cpp:425] loss2/relu_conv <- loss2/conv
I0403 15:45:01.536047   652 net.cpp:386] loss2/relu_conv -> loss2/conv (in-place)
I0403 15:45:01.536350   652 net.cpp:141] Setting up loss2/relu_conv
I0403 15:45:01.536381   652 net.cpp:148] Top shape: 24 128 4 4 (49152)
I0403 15:45:01.536401   652 net.cpp:156] Memory required for data: 1208122656
I0403 15:45:01.536418   652 layer_factory.hpp:77] Creating layer loss2/fc
I0403 15:45:01.536439   652 net.cpp:91] Creating Layer loss2/fc
I0403 15:45:01.536456   652 net.cpp:425] loss2/fc <- loss2/conv
I0403 15:45:01.536480   652 net.cpp:399] loss2/fc -> loss2/fc
I0403 15:45:01.554627   652 net.cpp:141] Setting up loss2/fc
I0403 15:45:01.554664   652 net.cpp:148] Top shape: 24 1024 (24576)
I0403 15:45:01.554682   652 net.cpp:156] Memory required for data: 1208220960
I0403 15:45:01.554703   652 layer_factory.hpp:77] Creating layer loss2/relu_fc
I0403 15:45:01.554725   652 net.cpp:91] Creating Layer loss2/relu_fc
I0403 15:45:01.554746   652 net.cpp:425] loss2/relu_fc <- loss2/fc
I0403 15:45:01.554765   652 net.cpp:386] loss2/relu_fc -> loss2/fc (in-place)
I0403 15:45:01.555075   652 net.cpp:141] Setting up loss2/relu_fc
I0403 15:45:01.555104   652 net.cpp:148] Top shape: 24 1024 (24576)
I0403 15:45:01.555120   652 net.cpp:156] Memory required for data: 1208319264
I0403 15:45:01.555136   652 layer_factory.hpp:77] Creating layer loss2/drop_fc
I0403 15:45:01.555160   652 net.cpp:91] Creating Layer loss2/drop_fc
I0403 15:45:01.555177   652 net.cpp:425] loss2/drop_fc <- loss2/fc
I0403 15:45:01.555196   652 net.cpp:386] loss2/drop_fc -> loss2/fc (in-place)
I0403 15:45:01.555249   652 net.cpp:141] Setting up loss2/drop_fc
I0403 15:45:01.555274   652 net.cpp:148] Top shape: 24 1024 (24576)
I0403 15:45:01.555296   652 net.cpp:156] Memory required for data: 1208417568
I0403 15:45:01.555313   652 layer_factory.hpp:77] Creating layer loss2/classifier_plantvillage
I0403 15:45:01.555332   652 net.cpp:91] Creating Layer loss2/classifier_plantvillage
I0403 15:45:01.555353   652 net.cpp:425] loss2/classifier_plantvillage <- loss2/fc
I0403 15:45:01.555374   652 net.cpp:399] loss2/classifier_plantvillage -> loss2/classifier_plantvillage
I0403 15:45:01.555795   652 net.cpp:141] Setting up loss2/classifier_plantvillage
I0403 15:45:01.555822   652 net.cpp:148] Top shape: 24 38 (912)
I0403 15:45:01.555838   652 net.cpp:156] Memory required for data: 1208421216
I0403 15:45:01.555876   652 layer_factory.hpp:77] Creating layer loss2/classifier_plantvillage_loss2/classifier_plantvillage_0_split
I0403 15:45:01.555896   652 net.cpp:91] Creating Layer loss2/classifier_plantvillage_loss2/classifier_plantvillage_0_split
I0403 15:45:01.555913   652 net.cpp:425] loss2/classifier_plantvillage_loss2/classifier_plantvillage_0_split <- loss2/classifier_plantvillage
I0403 15:45:01.555934   652 net.cpp:399] loss2/classifier_plantvillage_loss2/classifier_plantvillage_0_split -> loss2/classifier_plantvillage_loss2/classifier_plantvillage_0_split_0
I0403 15:45:01.555958   652 net.cpp:399] loss2/classifier_plantvillage_loss2/classifier_plantvillage_0_split -> loss2/classifier_plantvillage_loss2/classifier_plantvillage_0_split_1
I0403 15:45:01.555980   652 net.cpp:399] loss2/classifier_plantvillage_loss2/classifier_plantvillage_0_split -> loss2/classifier_plantvillage_loss2/classifier_plantvillage_0_split_2
I0403 15:45:01.556061   652 net.cpp:141] Setting up loss2/classifier_plantvillage_loss2/classifier_plantvillage_0_split
I0403 15:45:01.556088   652 net.cpp:148] Top shape: 24 38 (912)
I0403 15:45:01.556107   652 net.cpp:148] Top shape: 24 38 (912)
I0403 15:45:01.556124   652 net.cpp:148] Top shape: 24 38 (912)
I0403 15:45:01.556139   652 net.cpp:156] Memory required for data: 1208432160
I0403 15:45:01.556154   652 layer_factory.hpp:77] Creating layer inception_4e/1x1
I0403 15:45:01.556179   652 net.cpp:91] Creating Layer inception_4e/1x1
I0403 15:45:01.556197   652 net.cpp:425] inception_4e/1x1 <- inception_4d/output_inception_4d/output_0_split_1
I0403 15:45:01.556219   652 net.cpp:399] inception_4e/1x1 -> inception_4e/1x1
I0403 15:45:01.558181   652 net.cpp:141] Setting up inception_4e/1x1
I0403 15:45:01.558217   652 net.cpp:148] Top shape: 24 256 14 14 (1204224)
I0403 15:45:01.558235   652 net.cpp:156] Memory required for data: 1213249056
I0403 15:45:01.558259   652 layer_factory.hpp:77] Creating layer inception_4e/relu_1x1
I0403 15:45:01.558281   652 net.cpp:91] Creating Layer inception_4e/relu_1x1
I0403 15:45:01.558316   652 net.cpp:425] inception_4e/relu_1x1 <- inception_4e/1x1
I0403 15:45:01.558337   652 net.cpp:386] inception_4e/relu_1x1 -> inception_4e/1x1 (in-place)
I0403 15:45:01.558662   652 net.cpp:141] Setting up inception_4e/relu_1x1
I0403 15:45:01.558693   652 net.cpp:148] Top shape: 24 256 14 14 (1204224)
I0403 15:45:01.558712   652 net.cpp:156] Memory required for data: 1218065952
I0403 15:45:01.558728   652 layer_factory.hpp:77] Creating layer inception_4e/3x3_reduce
I0403 15:45:01.558753   652 net.cpp:91] Creating Layer inception_4e/3x3_reduce
I0403 15:45:01.558773   652 net.cpp:425] inception_4e/3x3_reduce <- inception_4d/output_inception_4d/output_0_split_2
I0403 15:45:01.558796   652 net.cpp:399] inception_4e/3x3_reduce -> inception_4e/3x3_reduce
I0403 15:45:01.561063   652 net.cpp:141] Setting up inception_4e/3x3_reduce
I0403 15:45:01.561096   652 net.cpp:148] Top shape: 24 160 14 14 (752640)
I0403 15:45:01.561115   652 net.cpp:156] Memory required for data: 1221076512
I0403 15:45:01.561136   652 layer_factory.hpp:77] Creating layer inception_4e/relu_3x3_reduce
I0403 15:45:01.561156   652 net.cpp:91] Creating Layer inception_4e/relu_3x3_reduce
I0403 15:45:01.561173   652 net.cpp:425] inception_4e/relu_3x3_reduce <- inception_4e/3x3_reduce
I0403 15:45:01.561192   652 net.cpp:386] inception_4e/relu_3x3_reduce -> inception_4e/3x3_reduce (in-place)
I0403 15:45:01.561398   652 net.cpp:141] Setting up inception_4e/relu_3x3_reduce
I0403 15:45:01.561429   652 net.cpp:148] Top shape: 24 160 14 14 (752640)
I0403 15:45:01.561445   652 net.cpp:156] Memory required for data: 1224087072
I0403 15:45:01.561461   652 layer_factory.hpp:77] Creating layer inception_4e/3x3
I0403 15:45:01.561486   652 net.cpp:91] Creating Layer inception_4e/3x3
I0403 15:45:01.561506   652 net.cpp:425] inception_4e/3x3 <- inception_4e/3x3_reduce
I0403 15:45:01.561530   652 net.cpp:399] inception_4e/3x3 -> inception_4e/3x3
I0403 15:45:01.566851   652 net.cpp:141] Setting up inception_4e/3x3
I0403 15:45:01.566897   652 net.cpp:148] Top shape: 24 320 14 14 (1505280)
I0403 15:45:01.566916   652 net.cpp:156] Memory required for data: 1230108192
I0403 15:45:01.566936   652 layer_factory.hpp:77] Creating layer inception_4e/relu_3x3
I0403 15:45:01.566956   652 net.cpp:91] Creating Layer inception_4e/relu_3x3
I0403 15:45:01.566974   652 net.cpp:425] inception_4e/relu_3x3 <- inception_4e/3x3
I0403 15:45:01.566997   652 net.cpp:386] inception_4e/relu_3x3 -> inception_4e/3x3 (in-place)
I0403 15:45:01.567320   652 net.cpp:141] Setting up inception_4e/relu_3x3
I0403 15:45:01.567349   652 net.cpp:148] Top shape: 24 320 14 14 (1505280)
I0403 15:45:01.567366   652 net.cpp:156] Memory required for data: 1236129312
I0403 15:45:01.567384   652 layer_factory.hpp:77] Creating layer inception_4e/5x5_reduce
I0403 15:45:01.567407   652 net.cpp:91] Creating Layer inception_4e/5x5_reduce
I0403 15:45:01.567426   652 net.cpp:425] inception_4e/5x5_reduce <- inception_4d/output_inception_4d/output_0_split_3
I0403 15:45:01.567451   652 net.cpp:399] inception_4e/5x5_reduce -> inception_4e/5x5_reduce
I0403 15:45:01.568588   652 net.cpp:141] Setting up inception_4e/5x5_reduce
I0403 15:45:01.568621   652 net.cpp:148] Top shape: 24 32 14 14 (150528)
I0403 15:45:01.568639   652 net.cpp:156] Memory required for data: 1236731424
I0403 15:45:01.568661   652 layer_factory.hpp:77] Creating layer inception_4e/relu_5x5_reduce
I0403 15:45:01.568681   652 net.cpp:91] Creating Layer inception_4e/relu_5x5_reduce
I0403 15:45:01.568698   652 net.cpp:425] inception_4e/relu_5x5_reduce <- inception_4e/5x5_reduce
I0403 15:45:01.568720   652 net.cpp:386] inception_4e/relu_5x5_reduce -> inception_4e/5x5_reduce (in-place)
I0403 15:45:01.569033   652 net.cpp:141] Setting up inception_4e/relu_5x5_reduce
I0403 15:45:01.569066   652 net.cpp:148] Top shape: 24 32 14 14 (150528)
I0403 15:45:01.569083   652 net.cpp:156] Memory required for data: 1237333536
I0403 15:45:01.569102   652 layer_factory.hpp:77] Creating layer inception_4e/5x5
I0403 15:45:01.569144   652 net.cpp:91] Creating Layer inception_4e/5x5
I0403 15:45:01.569164   652 net.cpp:425] inception_4e/5x5 <- inception_4e/5x5_reduce
I0403 15:45:01.569186   652 net.cpp:399] inception_4e/5x5 -> inception_4e/5x5
I0403 15:45:01.571130   652 net.cpp:141] Setting up inception_4e/5x5
I0403 15:45:01.571161   652 net.cpp:148] Top shape: 24 128 14 14 (602112)
I0403 15:45:01.571178   652 net.cpp:156] Memory required for data: 1239741984
I0403 15:45:01.571199   652 layer_factory.hpp:77] Creating layer inception_4e/relu_5x5
I0403 15:45:01.571221   652 net.cpp:91] Creating Layer inception_4e/relu_5x5
I0403 15:45:01.571240   652 net.cpp:425] inception_4e/relu_5x5 <- inception_4e/5x5
I0403 15:45:01.571260   652 net.cpp:386] inception_4e/relu_5x5 -> inception_4e/5x5 (in-place)
I0403 15:45:01.571475   652 net.cpp:141] Setting up inception_4e/relu_5x5
I0403 15:45:01.571506   652 net.cpp:148] Top shape: 24 128 14 14 (602112)
I0403 15:45:01.571523   652 net.cpp:156] Memory required for data: 1242150432
I0403 15:45:01.571539   652 layer_factory.hpp:77] Creating layer inception_4e/pool
I0403 15:45:01.571559   652 net.cpp:91] Creating Layer inception_4e/pool
I0403 15:45:01.571578   652 net.cpp:425] inception_4e/pool <- inception_4d/output_inception_4d/output_0_split_4
I0403 15:45:01.571601   652 net.cpp:399] inception_4e/pool -> inception_4e/pool
I0403 15:45:01.571677   652 net.cpp:141] Setting up inception_4e/pool
I0403 15:45:01.571704   652 net.cpp:148] Top shape: 24 528 14 14 (2483712)
I0403 15:45:01.571720   652 net.cpp:156] Memory required for data: 1252085280
I0403 15:45:01.571738   652 layer_factory.hpp:77] Creating layer inception_4e/pool_proj
I0403 15:45:01.571761   652 net.cpp:91] Creating Layer inception_4e/pool_proj
I0403 15:45:01.571781   652 net.cpp:425] inception_4e/pool_proj <- inception_4e/pool
I0403 15:45:01.571806   652 net.cpp:399] inception_4e/pool_proj -> inception_4e/pool_proj
I0403 15:45:01.573400   652 net.cpp:141] Setting up inception_4e/pool_proj
I0403 15:45:01.573431   652 net.cpp:148] Top shape: 24 128 14 14 (602112)
I0403 15:45:01.573462   652 net.cpp:156] Memory required for data: 1254493728
I0403 15:45:01.573484   652 layer_factory.hpp:77] Creating layer inception_4e/relu_pool_proj
I0403 15:45:01.573506   652 net.cpp:91] Creating Layer inception_4e/relu_pool_proj
I0403 15:45:01.573526   652 net.cpp:425] inception_4e/relu_pool_proj <- inception_4e/pool_proj
I0403 15:45:01.573545   652 net.cpp:386] inception_4e/relu_pool_proj -> inception_4e/pool_proj (in-place)
I0403 15:45:01.573853   652 net.cpp:141] Setting up inception_4e/relu_pool_proj
I0403 15:45:01.573882   652 net.cpp:148] Top shape: 24 128 14 14 (602112)
I0403 15:45:01.573899   652 net.cpp:156] Memory required for data: 1256902176
I0403 15:45:01.573915   652 layer_factory.hpp:77] Creating layer inception_4e/output
I0403 15:45:01.573935   652 net.cpp:91] Creating Layer inception_4e/output
I0403 15:45:01.573952   652 net.cpp:425] inception_4e/output <- inception_4e/1x1
I0403 15:45:01.573971   652 net.cpp:425] inception_4e/output <- inception_4e/3x3
I0403 15:45:01.573988   652 net.cpp:425] inception_4e/output <- inception_4e/5x5
I0403 15:45:01.574007   652 net.cpp:425] inception_4e/output <- inception_4e/pool_proj
I0403 15:45:01.574029   652 net.cpp:399] inception_4e/output -> inception_4e/output
I0403 15:45:01.574086   652 net.cpp:141] Setting up inception_4e/output
I0403 15:45:01.574112   652 net.cpp:148] Top shape: 24 832 14 14 (3913728)
I0403 15:45:01.574128   652 net.cpp:156] Memory required for data: 1272557088
I0403 15:45:01.574143   652 layer_factory.hpp:77] Creating layer pool4/3x3_s2
I0403 15:45:01.574163   652 net.cpp:91] Creating Layer pool4/3x3_s2
I0403 15:45:01.574180   652 net.cpp:425] pool4/3x3_s2 <- inception_4e/output
I0403 15:45:01.574203   652 net.cpp:399] pool4/3x3_s2 -> pool4/3x3_s2
I0403 15:45:01.574276   652 net.cpp:141] Setting up pool4/3x3_s2
I0403 15:45:01.574314   652 net.cpp:148] Top shape: 24 832 7 7 (978432)
I0403 15:45:01.574332   652 net.cpp:156] Memory required for data: 1276470816
I0403 15:45:01.574348   652 layer_factory.hpp:77] Creating layer pool4/3x3_s2_pool4/3x3_s2_0_split
I0403 15:45:01.574370   652 net.cpp:91] Creating Layer pool4/3x3_s2_pool4/3x3_s2_0_split
I0403 15:45:01.574389   652 net.cpp:425] pool4/3x3_s2_pool4/3x3_s2_0_split <- pool4/3x3_s2
I0403 15:45:01.574409   652 net.cpp:399] pool4/3x3_s2_pool4/3x3_s2_0_split -> pool4/3x3_s2_pool4/3x3_s2_0_split_0
I0403 15:45:01.574434   652 net.cpp:399] pool4/3x3_s2_pool4/3x3_s2_0_split -> pool4/3x3_s2_pool4/3x3_s2_0_split_1
I0403 15:45:01.574455   652 net.cpp:399] pool4/3x3_s2_pool4/3x3_s2_0_split -> pool4/3x3_s2_pool4/3x3_s2_0_split_2
I0403 15:45:01.574477   652 net.cpp:399] pool4/3x3_s2_pool4/3x3_s2_0_split -> pool4/3x3_s2_pool4/3x3_s2_0_split_3
I0403 15:45:01.574573   652 net.cpp:141] Setting up pool4/3x3_s2_pool4/3x3_s2_0_split
I0403 15:45:01.574599   652 net.cpp:148] Top shape: 24 832 7 7 (978432)
I0403 15:45:01.574617   652 net.cpp:148] Top shape: 24 832 7 7 (978432)
I0403 15:45:01.574635   652 net.cpp:148] Top shape: 24 832 7 7 (978432)
I0403 15:45:01.574652   652 net.cpp:148] Top shape: 24 832 7 7 (978432)
I0403 15:45:01.574667   652 net.cpp:156] Memory required for data: 1292125728
I0403 15:45:01.574684   652 layer_factory.hpp:77] Creating layer inception_5a/1x1
I0403 15:45:01.574708   652 net.cpp:91] Creating Layer inception_5a/1x1
I0403 15:45:01.574729   652 net.cpp:425] inception_5a/1x1 <- pool4/3x3_s2_pool4/3x3_s2_0_split_0
I0403 15:45:01.574755   652 net.cpp:399] inception_5a/1x1 -> inception_5a/1x1
I0403 15:45:01.577746   652 net.cpp:141] Setting up inception_5a/1x1
I0403 15:45:01.577777   652 net.cpp:148] Top shape: 24 256 7 7 (301056)
I0403 15:45:01.577798   652 net.cpp:156] Memory required for data: 1293329952
I0403 15:45:01.577818   652 layer_factory.hpp:77] Creating layer inception_5a/relu_1x1
I0403 15:45:01.577838   652 net.cpp:91] Creating Layer inception_5a/relu_1x1
I0403 15:45:01.577857   652 net.cpp:425] inception_5a/relu_1x1 <- inception_5a/1x1
I0403 15:45:01.577877   652 net.cpp:386] inception_5a/relu_1x1 -> inception_5a/1x1 (in-place)
I0403 15:45:01.578198   652 net.cpp:141] Setting up inception_5a/relu_1x1
I0403 15:45:01.578227   652 net.cpp:148] Top shape: 24 256 7 7 (301056)
I0403 15:45:01.578248   652 net.cpp:156] Memory required for data: 1294534176
I0403 15:45:01.578263   652 layer_factory.hpp:77] Creating layer inception_5a/3x3_reduce
I0403 15:45:01.578289   652 net.cpp:91] Creating Layer inception_5a/3x3_reduce
I0403 15:45:01.578310   652 net.cpp:425] inception_5a/3x3_reduce <- pool4/3x3_s2_pool4/3x3_s2_0_split_1
I0403 15:45:01.578333   652 net.cpp:399] inception_5a/3x3_reduce -> inception_5a/3x3_reduce
I0403 15:45:01.580894   652 net.cpp:141] Setting up inception_5a/3x3_reduce
I0403 15:45:01.580938   652 net.cpp:148] Top shape: 24 160 7 7 (188160)
I0403 15:45:01.580955   652 net.cpp:156] Memory required for data: 1295286816
I0403 15:45:01.580976   652 layer_factory.hpp:77] Creating layer inception_5a/relu_3x3_reduce
I0403 15:45:01.580994   652 net.cpp:91] Creating Layer inception_5a/relu_3x3_reduce
I0403 15:45:01.581012   652 net.cpp:425] inception_5a/relu_3x3_reduce <- inception_5a/3x3_reduce
I0403 15:45:01.581034   652 net.cpp:386] inception_5a/relu_3x3_reduce -> inception_5a/3x3_reduce (in-place)
I0403 15:45:01.581229   652 net.cpp:141] Setting up inception_5a/relu_3x3_reduce
I0403 15:45:01.581256   652 net.cpp:148] Top shape: 24 160 7 7 (188160)
I0403 15:45:01.581272   652 net.cpp:156] Memory required for data: 1296039456
I0403 15:45:01.581293   652 layer_factory.hpp:77] Creating layer inception_5a/3x3
I0403 15:45:01.581318   652 net.cpp:91] Creating Layer inception_5a/3x3
I0403 15:45:01.581338   652 net.cpp:425] inception_5a/3x3 <- inception_5a/3x3_reduce
I0403 15:45:01.581362   652 net.cpp:399] inception_5a/3x3 -> inception_5a/3x3
I0403 15:45:01.586557   652 net.cpp:141] Setting up inception_5a/3x3
I0403 15:45:01.586590   652 net.cpp:148] Top shape: 24 320 7 7 (376320)
I0403 15:45:01.586606   652 net.cpp:156] Memory required for data: 1297544736
I0403 15:45:01.586627   652 layer_factory.hpp:77] Creating layer inception_5a/relu_3x3
I0403 15:45:01.586647   652 net.cpp:91] Creating Layer inception_5a/relu_3x3
I0403 15:45:01.586666   652 net.cpp:425] inception_5a/relu_3x3 <- inception_5a/3x3
I0403 15:45:01.586686   652 net.cpp:386] inception_5a/relu_3x3 -> inception_5a/3x3 (in-place)
I0403 15:45:01.586987   652 net.cpp:141] Setting up inception_5a/relu_3x3
I0403 15:45:01.587014   652 net.cpp:148] Top shape: 24 320 7 7 (376320)
I0403 15:45:01.587030   652 net.cpp:156] Memory required for data: 1299050016
I0403 15:45:01.587047   652 layer_factory.hpp:77] Creating layer inception_5a/5x5_reduce
I0403 15:45:01.587074   652 net.cpp:91] Creating Layer inception_5a/5x5_reduce
I0403 15:45:01.587092   652 net.cpp:425] inception_5a/5x5_reduce <- pool4/3x3_s2_pool4/3x3_s2_0_split_2
I0403 15:45:01.587113   652 net.cpp:399] inception_5a/5x5_reduce -> inception_5a/5x5_reduce
I0403 15:45:01.588330   652 net.cpp:141] Setting up inception_5a/5x5_reduce
I0403 15:45:01.588362   652 net.cpp:148] Top shape: 24 32 7 7 (37632)
I0403 15:45:01.588379   652 net.cpp:156] Memory required for data: 1299200544
I0403 15:45:01.588399   652 layer_factory.hpp:77] Creating layer inception_5a/relu_5x5_reduce
I0403 15:45:01.588419   652 net.cpp:91] Creating Layer inception_5a/relu_5x5_reduce
I0403 15:45:01.588438   652 net.cpp:425] inception_5a/relu_5x5_reduce <- inception_5a/5x5_reduce
I0403 15:45:01.588456   652 net.cpp:386] inception_5a/relu_5x5_reduce -> inception_5a/5x5_reduce (in-place)
I0403 15:45:01.588762   652 net.cpp:141] Setting up inception_5a/relu_5x5_reduce
I0403 15:45:01.588793   652 net.cpp:148] Top shape: 24 32 7 7 (37632)
I0403 15:45:01.588811   652 net.cpp:156] Memory required for data: 1299351072
I0403 15:45:01.588829   652 layer_factory.hpp:77] Creating layer inception_5a/5x5
I0403 15:45:01.588851   652 net.cpp:91] Creating Layer inception_5a/5x5
I0403 15:45:01.588871   652 net.cpp:425] inception_5a/5x5 <- inception_5a/5x5_reduce
I0403 15:45:01.588892   652 net.cpp:399] inception_5a/5x5 -> inception_5a/5x5
I0403 15:45:01.590669   652 net.cpp:141] Setting up inception_5a/5x5
I0403 15:45:01.590710   652 net.cpp:148] Top shape: 24 128 7 7 (150528)
I0403 15:45:01.590728   652 net.cpp:156] Memory required for data: 1299953184
I0403 15:45:01.590749   652 layer_factory.hpp:77] Creating layer inception_5a/relu_5x5
I0403 15:45:01.590773   652 net.cpp:91] Creating Layer inception_5a/relu_5x5
I0403 15:45:01.590793   652 net.cpp:425] inception_5a/relu_5x5 <- inception_5a/5x5
I0403 15:45:01.590811   652 net.cpp:386] inception_5a/relu_5x5 -> inception_5a/5x5 (in-place)
I0403 15:45:01.591008   652 net.cpp:141] Setting up inception_5a/relu_5x5
I0403 15:45:01.591037   652 net.cpp:148] Top shape: 24 128 7 7 (150528)
I0403 15:45:01.591054   652 net.cpp:156] Memory required for data: 1300555296
I0403 15:45:01.591069   652 layer_factory.hpp:77] Creating layer inception_5a/pool
I0403 15:45:01.591089   652 net.cpp:91] Creating Layer inception_5a/pool
I0403 15:45:01.591105   652 net.cpp:425] inception_5a/pool <- pool4/3x3_s2_pool4/3x3_s2_0_split_3
I0403 15:45:01.591126   652 net.cpp:399] inception_5a/pool -> inception_5a/pool
I0403 15:45:01.591200   652 net.cpp:141] Setting up inception_5a/pool
I0403 15:45:01.591226   652 net.cpp:148] Top shape: 24 832 7 7 (978432)
I0403 15:45:01.591243   652 net.cpp:156] Memory required for data: 1304469024
I0403 15:45:01.591258   652 layer_factory.hpp:77] Creating layer inception_5a/pool_proj
I0403 15:45:01.591286   652 net.cpp:91] Creating Layer inception_5a/pool_proj
I0403 15:45:01.591307   652 net.cpp:425] inception_5a/pool_proj <- inception_5a/pool
I0403 15:45:01.591327   652 net.cpp:399] inception_5a/pool_proj -> inception_5a/pool_proj
I0403 15:45:01.593679   652 net.cpp:141] Setting up inception_5a/pool_proj
I0403 15:45:01.593711   652 net.cpp:148] Top shape: 24 128 7 7 (150528)
I0403 15:45:01.593729   652 net.cpp:156] Memory required for data: 1305071136
I0403 15:45:01.593747   652 layer_factory.hpp:77] Creating layer inception_5a/relu_pool_proj
I0403 15:45:01.593770   652 net.cpp:91] Creating Layer inception_5a/relu_pool_proj
I0403 15:45:01.593788   652 net.cpp:425] inception_5a/relu_pool_proj <- inception_5a/pool_proj
I0403 15:45:01.593808   652 net.cpp:386] inception_5a/relu_pool_proj -> inception_5a/pool_proj (in-place)
I0403 15:45:01.594118   652 net.cpp:141] Setting up inception_5a/relu_pool_proj
I0403 15:45:01.594146   652 net.cpp:148] Top shape: 24 128 7 7 (150528)
I0403 15:45:01.594163   652 net.cpp:156] Memory required for data: 1305673248
I0403 15:45:01.594178   652 layer_factory.hpp:77] Creating layer inception_5a/output
I0403 15:45:01.594200   652 net.cpp:91] Creating Layer inception_5a/output
I0403 15:45:01.594218   652 net.cpp:425] inception_5a/output <- inception_5a/1x1
I0403 15:45:01.594238   652 net.cpp:425] inception_5a/output <- inception_5a/3x3
I0403 15:45:01.594254   652 net.cpp:425] inception_5a/output <- inception_5a/5x5
I0403 15:45:01.594271   652 net.cpp:425] inception_5a/output <- inception_5a/pool_proj
I0403 15:45:01.594303   652 net.cpp:399] inception_5a/output -> inception_5a/output
I0403 15:45:01.594362   652 net.cpp:141] Setting up inception_5a/output
I0403 15:45:01.594388   652 net.cpp:148] Top shape: 24 832 7 7 (978432)
I0403 15:45:01.594403   652 net.cpp:156] Memory required for data: 1309586976
I0403 15:45:01.594419   652 layer_factory.hpp:77] Creating layer inception_5a/output_inception_5a/output_0_split
I0403 15:45:01.594436   652 net.cpp:91] Creating Layer inception_5a/output_inception_5a/output_0_split
I0403 15:45:01.594452   652 net.cpp:425] inception_5a/output_inception_5a/output_0_split <- inception_5a/output
I0403 15:45:01.594475   652 net.cpp:399] inception_5a/output_inception_5a/output_0_split -> inception_5a/output_inception_5a/output_0_split_0
I0403 15:45:01.594497   652 net.cpp:399] inception_5a/output_inception_5a/output_0_split -> inception_5a/output_inception_5a/output_0_split_1
I0403 15:45:01.594519   652 net.cpp:399] inception_5a/output_inception_5a/output_0_split -> inception_5a/output_inception_5a/output_0_split_2
I0403 15:45:01.594540   652 net.cpp:399] inception_5a/output_inception_5a/output_0_split -> inception_5a/output_inception_5a/output_0_split_3
I0403 15:45:01.594657   652 net.cpp:141] Setting up inception_5a/output_inception_5a/output_0_split
I0403 15:45:01.594686   652 net.cpp:148] Top shape: 24 832 7 7 (978432)
I0403 15:45:01.594703   652 net.cpp:148] Top shape: 24 832 7 7 (978432)
I0403 15:45:01.594720   652 net.cpp:148] Top shape: 24 832 7 7 (978432)
I0403 15:45:01.594738   652 net.cpp:148] Top shape: 24 832 7 7 (978432)
I0403 15:45:01.594751   652 net.cpp:156] Memory required for data: 1325241888
I0403 15:45:01.594768   652 layer_factory.hpp:77] Creating layer inception_5b/1x1
I0403 15:45:01.594790   652 net.cpp:91] Creating Layer inception_5b/1x1
I0403 15:45:01.594810   652 net.cpp:425] inception_5b/1x1 <- inception_5a/output_inception_5a/output_0_split_0
I0403 15:45:01.594830   652 net.cpp:399] inception_5b/1x1 -> inception_5b/1x1
I0403 15:45:01.598709   652 net.cpp:141] Setting up inception_5b/1x1
I0403 15:45:01.598743   652 net.cpp:148] Top shape: 24 384 7 7 (451584)
I0403 15:45:01.598760   652 net.cpp:156] Memory required for data: 1327048224
I0403 15:45:01.598781   652 layer_factory.hpp:77] Creating layer inception_5b/relu_1x1
I0403 15:45:01.598800   652 net.cpp:91] Creating Layer inception_5b/relu_1x1
I0403 15:45:01.598819   652 net.cpp:425] inception_5b/relu_1x1 <- inception_5b/1x1
I0403 15:45:01.598839   652 net.cpp:386] inception_5b/relu_1x1 -> inception_5b/1x1 (in-place)
I0403 15:45:01.599155   652 net.cpp:141] Setting up inception_5b/relu_1x1
I0403 15:45:01.599184   652 net.cpp:148] Top shape: 24 384 7 7 (451584)
I0403 15:45:01.599200   652 net.cpp:156] Memory required for data: 1328854560
I0403 15:45:01.599216   652 layer_factory.hpp:77] Creating layer inception_5b/3x3_reduce
I0403 15:45:01.599241   652 net.cpp:91] Creating Layer inception_5b/3x3_reduce
I0403 15:45:01.599261   652 net.cpp:425] inception_5b/3x3_reduce <- inception_5a/output_inception_5a/output_0_split_1
I0403 15:45:01.599289   652 net.cpp:399] inception_5b/3x3_reduce -> inception_5b/3x3_reduce
I0403 15:45:01.602018   652 net.cpp:141] Setting up inception_5b/3x3_reduce
I0403 15:45:01.602051   652 net.cpp:148] Top shape: 24 192 7 7 (225792)
I0403 15:45:01.602067   652 net.cpp:156] Memory required for data: 1329757728
I0403 15:45:01.602088   652 layer_factory.hpp:77] Creating layer inception_5b/relu_3x3_reduce
I0403 15:45:01.602109   652 net.cpp:91] Creating Layer inception_5b/relu_3x3_reduce
I0403 15:45:01.602128   652 net.cpp:425] inception_5b/relu_3x3_reduce <- inception_5b/3x3_reduce
I0403 15:45:01.602146   652 net.cpp:386] inception_5b/relu_3x3_reduce -> inception_5b/3x3_reduce (in-place)
I0403 15:45:01.602349   652 net.cpp:141] Setting up inception_5b/relu_3x3_reduce
I0403 15:45:01.602375   652 net.cpp:148] Top shape: 24 192 7 7 (225792)
I0403 15:45:01.602392   652 net.cpp:156] Memory required for data: 1330660896
I0403 15:45:01.602408   652 layer_factory.hpp:77] Creating layer inception_5b/3x3
I0403 15:45:01.602435   652 net.cpp:91] Creating Layer inception_5b/3x3
I0403 15:45:01.602457   652 net.cpp:425] inception_5b/3x3 <- inception_5b/3x3_reduce
I0403 15:45:01.602478   652 net.cpp:399] inception_5b/3x3 -> inception_5b/3x3
I0403 15:45:01.609406   652 net.cpp:141] Setting up inception_5b/3x3
I0403 15:45:01.609436   652 net.cpp:148] Top shape: 24 384 7 7 (451584)
I0403 15:45:01.609453   652 net.cpp:156] Memory required for data: 1332467232
I0403 15:45:01.609472   652 layer_factory.hpp:77] Creating layer inception_5b/relu_3x3
I0403 15:45:01.609495   652 net.cpp:91] Creating Layer inception_5b/relu_3x3
I0403 15:45:01.609513   652 net.cpp:425] inception_5b/relu_3x3 <- inception_5b/3x3
I0403 15:45:01.609531   652 net.cpp:386] inception_5b/relu_3x3 -> inception_5b/3x3 (in-place)
I0403 15:45:01.609846   652 net.cpp:141] Setting up inception_5b/relu_3x3
I0403 15:45:01.609874   652 net.cpp:148] Top shape: 24 384 7 7 (451584)
I0403 15:45:01.609889   652 net.cpp:156] Memory required for data: 1334273568
I0403 15:45:01.609905   652 layer_factory.hpp:77] Creating layer inception_5b/5x5_reduce
I0403 15:45:01.609946   652 net.cpp:91] Creating Layer inception_5b/5x5_reduce
I0403 15:45:01.609966   652 net.cpp:425] inception_5b/5x5_reduce <- inception_5a/output_inception_5a/output_0_split_2
I0403 15:45:01.609990   652 net.cpp:399] inception_5b/5x5_reduce -> inception_5b/5x5_reduce
I0403 15:45:01.611325   652 net.cpp:141] Setting up inception_5b/5x5_reduce
I0403 15:45:01.611356   652 net.cpp:148] Top shape: 24 48 7 7 (56448)
I0403 15:45:01.611371   652 net.cpp:156] Memory required for data: 1334499360
I0403 15:45:01.611392   652 layer_factory.hpp:77] Creating layer inception_5b/relu_5x5_reduce
I0403 15:45:01.611415   652 net.cpp:91] Creating Layer inception_5b/relu_5x5_reduce
I0403 15:45:01.611434   652 net.cpp:425] inception_5b/relu_5x5_reduce <- inception_5b/5x5_reduce
I0403 15:45:01.611454   652 net.cpp:386] inception_5b/relu_5x5_reduce -> inception_5b/5x5_reduce (in-place)
I0403 15:45:01.611842   652 net.cpp:141] Setting up inception_5b/relu_5x5_reduce
I0403 15:45:01.611871   652 net.cpp:148] Top shape: 24 48 7 7 (56448)
I0403 15:45:01.611886   652 net.cpp:156] Memory required for data: 1334725152
I0403 15:45:01.611902   652 layer_factory.hpp:77] Creating layer inception_5b/5x5
I0403 15:45:01.611924   652 net.cpp:91] Creating Layer inception_5b/5x5
I0403 15:45:01.611943   652 net.cpp:425] inception_5b/5x5 <- inception_5b/5x5_reduce
I0403 15:45:01.611961   652 net.cpp:399] inception_5b/5x5 -> inception_5b/5x5
I0403 15:45:01.614151   652 net.cpp:141] Setting up inception_5b/5x5
I0403 15:45:01.614181   652 net.cpp:148] Top shape: 24 128 7 7 (150528)
I0403 15:45:01.614200   652 net.cpp:156] Memory required for data: 1335327264
I0403 15:45:01.614220   652 layer_factory.hpp:77] Creating layer inception_5b/relu_5x5
I0403 15:45:01.614241   652 net.cpp:91] Creating Layer inception_5b/relu_5x5
I0403 15:45:01.614259   652 net.cpp:425] inception_5b/relu_5x5 <- inception_5b/5x5
I0403 15:45:01.614279   652 net.cpp:386] inception_5b/relu_5x5 -> inception_5b/5x5 (in-place)
I0403 15:45:01.614503   652 net.cpp:141] Setting up inception_5b/relu_5x5
I0403 15:45:01.614534   652 net.cpp:148] Top shape: 24 128 7 7 (150528)
I0403 15:45:01.614552   652 net.cpp:156] Memory required for data: 1335929376
I0403 15:45:01.614570   652 layer_factory.hpp:77] Creating layer inception_5b/pool
I0403 15:45:01.614589   652 net.cpp:91] Creating Layer inception_5b/pool
I0403 15:45:01.614608   652 net.cpp:425] inception_5b/pool <- inception_5a/output_inception_5a/output_0_split_3
I0403 15:45:01.614629   652 net.cpp:399] inception_5b/pool -> inception_5b/pool
I0403 15:45:01.614707   652 net.cpp:141] Setting up inception_5b/pool
I0403 15:45:01.614735   652 net.cpp:148] Top shape: 24 832 7 7 (978432)
I0403 15:45:01.614753   652 net.cpp:156] Memory required for data: 1339843104
I0403 15:45:01.614770   652 layer_factory.hpp:77] Creating layer inception_5b/pool_proj
I0403 15:45:01.614792   652 net.cpp:91] Creating Layer inception_5b/pool_proj
I0403 15:45:01.614810   652 net.cpp:425] inception_5b/pool_proj <- inception_5b/pool
I0403 15:45:01.614833   652 net.cpp:399] inception_5b/pool_proj -> inception_5b/pool_proj
I0403 15:45:01.617274   652 net.cpp:141] Setting up inception_5b/pool_proj
I0403 15:45:01.617312   652 net.cpp:148] Top shape: 24 128 7 7 (150528)
I0403 15:45:01.617331   652 net.cpp:156] Memory required for data: 1340445216
I0403 15:45:01.617352   652 layer_factory.hpp:77] Creating layer inception_5b/relu_pool_proj
I0403 15:45:01.617374   652 net.cpp:91] Creating Layer inception_5b/relu_pool_proj
I0403 15:45:01.617394   652 net.cpp:425] inception_5b/relu_pool_proj <- inception_5b/pool_proj
I0403 15:45:01.617414   652 net.cpp:386] inception_5b/relu_pool_proj -> inception_5b/pool_proj (in-place)
I0403 15:45:01.617733   652 net.cpp:141] Setting up inception_5b/relu_pool_proj
I0403 15:45:01.617763   652 net.cpp:148] Top shape: 24 128 7 7 (150528)
I0403 15:45:01.617779   652 net.cpp:156] Memory required for data: 1341047328
I0403 15:45:01.617796   652 layer_factory.hpp:77] Creating layer inception_5b/output
I0403 15:45:01.617817   652 net.cpp:91] Creating Layer inception_5b/output
I0403 15:45:01.617851   652 net.cpp:425] inception_5b/output <- inception_5b/1x1
I0403 15:45:01.617871   652 net.cpp:425] inception_5b/output <- inception_5b/3x3
I0403 15:45:01.617890   652 net.cpp:425] inception_5b/output <- inception_5b/5x5
I0403 15:45:01.617908   652 net.cpp:425] inception_5b/output <- inception_5b/pool_proj
I0403 15:45:01.617928   652 net.cpp:399] inception_5b/output -> inception_5b/output
I0403 15:45:01.617988   652 net.cpp:141] Setting up inception_5b/output
I0403 15:45:01.618016   652 net.cpp:148] Top shape: 24 1024 7 7 (1204224)
I0403 15:45:01.618031   652 net.cpp:156] Memory required for data: 1345864224
I0403 15:45:01.618047   652 layer_factory.hpp:77] Creating layer pool5/7x7_s1
I0403 15:45:01.618067   652 net.cpp:91] Creating Layer pool5/7x7_s1
I0403 15:45:01.618084   652 net.cpp:425] pool5/7x7_s1 <- inception_5b/output
I0403 15:45:01.618108   652 net.cpp:399] pool5/7x7_s1 -> pool5/7x7_s1
I0403 15:45:01.618345   652 net.cpp:141] Setting up pool5/7x7_s1
I0403 15:45:01.618373   652 net.cpp:148] Top shape: 24 1024 1 1 (24576)
I0403 15:45:01.618391   652 net.cpp:156] Memory required for data: 1345962528
I0403 15:45:01.618407   652 layer_factory.hpp:77] Creating layer pool5/drop_7x7_s1
I0403 15:45:01.618427   652 net.cpp:91] Creating Layer pool5/drop_7x7_s1
I0403 15:45:01.618446   652 net.cpp:425] pool5/drop_7x7_s1 <- pool5/7x7_s1
I0403 15:45:01.618466   652 net.cpp:386] pool5/drop_7x7_s1 -> pool5/7x7_s1 (in-place)
I0403 15:45:01.618522   652 net.cpp:141] Setting up pool5/drop_7x7_s1
I0403 15:45:01.618547   652 net.cpp:148] Top shape: 24 1024 1 1 (24576)
I0403 15:45:01.618563   652 net.cpp:156] Memory required for data: 1346060832
I0403 15:45:01.618580   652 layer_factory.hpp:77] Creating layer loss3/classifier_plantvillage
I0403 15:45:01.618602   652 net.cpp:91] Creating Layer loss3/classifier_plantvillage
I0403 15:45:01.618620   652 net.cpp:425] loss3/classifier_plantvillage <- pool5/7x7_s1
I0403 15:45:01.618644   652 net.cpp:399] loss3/classifier_plantvillage -> loss3/classifier_plantvillage
I0403 15:45:01.619105   652 net.cpp:141] Setting up loss3/classifier_plantvillage
I0403 15:45:01.619132   652 net.cpp:148] Top shape: 24 38 (912)
I0403 15:45:01.619149   652 net.cpp:156] Memory required for data: 1346064480
I0403 15:45:01.619169   652 layer_factory.hpp:77] Creating layer loss3/classifier_plantvillage_loss3/classifier_plantvillage_0_split
I0403 15:45:01.619189   652 net.cpp:91] Creating Layer loss3/classifier_plantvillage_loss3/classifier_plantvillage_0_split
I0403 15:45:01.619207   652 net.cpp:425] loss3/classifier_plantvillage_loss3/classifier_plantvillage_0_split <- loss3/classifier_plantvillage
I0403 15:45:01.619230   652 net.cpp:399] loss3/classifier_plantvillage_loss3/classifier_plantvillage_0_split -> loss3/classifier_plantvillage_loss3/classifier_plantvillage_0_split_0
I0403 15:45:01.619252   652 net.cpp:399] loss3/classifier_plantvillage_loss3/classifier_plantvillage_0_split -> loss3/classifier_plantvillage_loss3/classifier_plantvillage_0_split_1
I0403 15:45:01.619274   652 net.cpp:399] loss3/classifier_plantvillage_loss3/classifier_plantvillage_0_split -> loss3/classifier_plantvillage_loss3/classifier_plantvillage_0_split_2
I0403 15:45:01.619302   652 net.cpp:399] loss3/classifier_plantvillage_loss3/classifier_plantvillage_0_split -> loss3/classifier_plantvillage_loss3/classifier_plantvillage_0_split_3
I0403 15:45:01.619412   652 net.cpp:141] Setting up loss3/classifier_plantvillage_loss3/classifier_plantvillage_0_split
I0403 15:45:01.619439   652 net.cpp:148] Top shape: 24 38 (912)
I0403 15:45:01.619457   652 net.cpp:148] Top shape: 24 38 (912)
I0403 15:45:01.619473   652 net.cpp:148] Top shape: 24 38 (912)
I0403 15:45:01.619489   652 net.cpp:148] Top shape: 24 38 (912)
I0403 15:45:01.619505   652 net.cpp:156] Memory required for data: 1346079072
I0403 15:45:01.619521   652 layer_factory.hpp:77] Creating layer loss1/loss
I0403 15:45:01.619545   652 net.cpp:91] Creating Layer loss1/loss
I0403 15:45:01.619565   652 net.cpp:425] loss1/loss <- loss1/classifier_plantvillage_loss1/classifier_plantvillage_0_split_0
I0403 15:45:01.619599   652 net.cpp:425] loss1/loss <- label_data_1_split_0
…
