…
I0403 15:42:10.034358   398 net.cpp:313] The NetState phase (1) differed from the phase (0) specified by a rule in layer data
I0403 15:42:10.035532   398 net.cpp:49] Initializing net from parameters: 
state {
  phase: TEST
}
layer {
  name: "data"
  type: "Data"
  top: "data"
  top: "label"
  include {
    phase: TEST
  }
  transform_param {
    mirror: false
    crop_size: 224
    mean_file: "/home/mohanty/data/final_dataset/lmdb/color-60-40/mean.binaryproto"
  }
  data_param {
    source: "/home/mohanty/data/final_dataset/lmdb/color-60-40/test_db"
    batch_size: 24
    backend: LMDB
  }
}
layer {
  name: "conv1/7x7_s2"
  type: "Convolution"
  bottom: "data"
  top: "conv1/7x7_s2"
  param {
    lr_mult: 1
    decay_mult: 1
  }
  param {
    lr_mult: 2
    decay_mult: 0
  }
  convolution_param {
    num_output: 64
    pad: 3
    kernel_size: 7
    stride: 2
    weight_filler {
      type: "xavier"
      std: 0.1
    }
    bias_filler {
      type: "constant"
      value: 0.2
    }
  }
}
layer {
  name: "conv1/relu_7x7"
  type: "ReLU"
  bottom: "conv1/7x7_s2"
  top: "conv1/7x7_s2"
}
layer {
  name: "pool1/3x3_s2"
  type: "Pooling"
  bottom: "conv1/7x7_s2"
  top: "pool1/3x3_s2"
  pooling_param {
    pool: MAX
    kernel_size: 3
    stride: 2
  }
}
layer {
  name: "pool1/norm1"
  type: "LRN"
  bottom: "pool1/3x3_s2"
  top: "pool1/norm1"
  lrn_param {
    local_size: 5
    alpha: 0.0001
    beta: 0.75
  }
}
layer {
  name: "conv2/3x3_reduce"
  type: "Convolution"
  bottom: "pool1/norm1"
  top: "conv2/3x3_reduce"
  param {
    lr_mult: 1
    decay_mult: 1
  }
  param {
    lr_mult: 2
    decay_mult: 0
  }
  convolution_param {
    num_output: 64
    kernel_size: 1
    weight_filler {
      type: "xavier"
      std: 0.1
    }
    bias_filler {
      type: "constant"
      value: 0.2
    }
  }
}
layer {
  name: "conv2/relu_3x3_reduce"
  type: "ReLU"
  bottom: "conv2/3x3_reduce"
  top: "conv2/3x3_reduce"
}
layer {
  name: "conv2/3x3"
  type: "Convolution"
  bottom: "conv2/3x3_reduce"
  top: "conv2/3x3"
  param {
    lr_mult: 1
    decay_mult: 1
  }
  param {
    lr_mult: 2
    decay_mult: 0
  }
  convolution_param {
    num_output: 192
    pad: 1
    kernel_size: 3
    weight_filler {
      type: "xavier"
      std: 0.03
    }
    bias_filler {
      type: "constant"
      value: 0.2
    }
  }
}
layer {
  name: "conv2/relu_3x3"
  type: "ReLU"
  bottom: "conv2/3x3"
  top: "conv2/3x3"
}
layer {
  name: "conv2/norm2"
  type: "LRN"
  bottom: "conv2/3x3"
  top: "conv2/norm2"
  lrn_param {
    local_size: 5
    alpha: 0.0001
    beta: 0.75
  }
}
layer {
  name: "pool2/3x3_s2"
  type: "Pooling"
  bottom: "conv2/norm2"
  top: "pool2/3x3_s2"
  pooling_param {
    pool: MAX
    kernel_size: 3
    stride: 2
  }
}
layer {
  name: "inception_3a/1x1"
  type: "Convolution"
  bottom: "pool2/3x3_s2"
  top: "inception_3a/1x1"
  param {
    lr_mult: 1
    decay_mult: 1
  }
  param {
    lr_mult: 2
    decay_mult: 0
  }
  convolution_param {
    num_output: 64
    kernel_size: 1
    weight_filler {
      type: "xavier"
      std: 0.03
    }
    bias_filler {
      type: "constant"
      value: 0.2
    }
  }
}
layer {
  name: "inception_3a/relu_1x1"
  type: "ReLU"
  bottom: "inception_3a/1x1"
  top: "inception_3a/1x1"
}
layer {
  name: "inception_3a/3x3_reduce"
  type: "Convolution"
  bottom: "pool2/3x3_s2"
  top: "inception_3a/3x3_reduce"
  param {
    lr_mult: 1
    decay_mult: 1
  }
  param {
    lr_mult: 2
    decay_mult: 0
  }
  convolution_param {
    num_output: 96
    kernel_size: 1
    weight_filler {
      type: "xavier"
      std: 0.09
    }
    bias_filler {
      type: "constant"
      value: 0.2
    }
  }
}
layer {
  name: "inception_3a/relu_3x3_reduce"
  type: "ReLU"
  bottom: "inception_3a/3x3_reduce"
  top: "inception_3a/3x3_reduce"
}
layer {
  name: "inception_3a/3x3"
  type: "Convolution"
  bottom: "inception_3a/3x3_reduce"
  top: "inception_3a/3x3"
  param {
    lr_mult: 1
    decay_mult: 1
  }
  param {
    lr_mult: 2
    decay_mult: 0
  }
  convolution_param {
    num_output: 128
    pad: 1
    kernel_size: 3
    weight_filler {
      type: "xavier"
      std: 0.03
    }
    bias_filler {
      type: "constant"
      value: 0.2
    }
  }
}
layer {
  name: "inception_3a/relu_3x3"
  type: "ReLU"
  bottom: "inception_3a/3x3"
  top: "inception_3a/3x3"
}
layer {
  name: "inception_3a/5x5_reduce"
  type: "Convolution"
  bottom: "pool2/3x3_s2"
  top: "inception_3a/5x5_reduce"
  param {
    lr_mult: 1
    decay_mult: 1
  }
  param {
    lr_mult: 2
    decay_mult: 0
  }
  convolution_param {
    num_output: 16
    kernel_size: 1
    weight_filler {
      type: "xavier"
      std: 0.2
    }
    bias_filler {
      type: "constant"
      value: 0.2
    }
  }
}
layer {
  name: "inception_3a/relu_5x5_reduce"
  type: "ReLU"
  bottom: "inception_3a/5x5_reduce"
  top: "inception_3a/5x5_reduce"
}
layer {
  name: "inception_3a/5x5"
  type: "Convolution"
  bottom: "inception_3a/5x5_reduce"
  top: "inception_3a/5x5"
  param {
    lr_mult: 1
    decay_mult: 1
  }
  param {
    lr_mult: 2
    decay_mult: 0
  }
  convolution_param {
    num_output: 32
    pad: 2
    kernel_size: 5
    weight_filler {
      type: "xavier"
      std: 0.03
    }
    bias_filler {
      type: "constant"
      value: 0.2
    }
  }
}
layer {
  name: "inception_3a/relu_5x5"
  type: "ReLU"
  bottom: "inception_3a/5x5"
  top: "inception_3a/5x5"
}
layer {
  name: "inception_3a/pool"
  type: "Pooling"
  bottom: "pool2/3x3_s2"
  top: "inception_3a/pool"
  pooling_param {
    pool: MAX
    kernel_size: 3
    stride: 1
    pad: 1
  }
}
layer {
  name: "inception_3a/pool_proj"
  type: "Convolution"
  bottom: "inception_3a/pool"
  top: "inception_3a/pool_proj"
  param {
    lr_mult: 1
    decay_mult: 1
  }
  param {
    lr_mult: 2
    decay_mult: 0
  }
  convolution_param {
    num_output: 32
    kernel_size: 1
    weight_filler {
      type: "xavier"
      std: 0.1
    }
    bias_filler {
      type: "constant"
      value: 0.2
    }
  }
}
layer {
  name: "inception_3a/relu_pool_proj"
  type: "ReLU"
  bottom: "inception_3a/pool_proj"
  top: "inception_3a/pool_proj"
}
layer {
  name: "inception_3a/output"
  type: "Concat"
  bottom: "inception_3a/1x1"
  bottom: "inception_3a/3x3"
  bottom: "inception_3a/5x5"
  bottom: "inception_3a/pool_proj"
  top: "inception_3a/output"
}
layer {
  name: "inception_3b/1x1"
  type: "Convolution"
  bottom: "inception_3a/output"
  top: "inception_3b/1x1"
  param {
    lr_mult: 1
    decay_mult: 1
  }
  param {
    lr_mult: 2
    decay_mult: 0
  }
  convolution_param {
    num_output: 128
    kernel_size: 1
    weight_filler {
      type: "xavier"
      std: 0.03
    }
    bias_filler {
      type: "constant"
      value: 0.2
    }
  }
}
layer {
  name: "inception_3b/relu_1x1"
  type: "ReLU"
  bottom: "inception_3b/1x1"
  top: "inception_3b/1x1"
}
layer {
  name: "inception_3b/3x3_reduce"
  type: "Convolution"
  bottom: "inception_3a/output"
  top: "inception_3b/3x3_reduce"
  param {
    lr_mult: 1
    decay_mult: 1
  }
  param {
    lr_mult: 2
    decay_mult: 0
  }
  convolution_param {
    num_output: 128
    kernel_size: 1
    weight_filler {
      type: "xavier"
      std: 0.09
    }
    bias_filler {
      type: "constant"
      value: 0.2
    }
  }
}
layer {
  name: "inception_3b/relu_3x3_reduce"
  type: "ReLU"
  bottom: "inception_3b/3x3_reduce"
  top: "inception_3b/3x3_reduce"
}
layer {
  name: "inception_3b/3x3"
  type: "Convolution"
  bottom: "inception_3b/3x3_reduce"
  top: "inception_3b/3x3"
  param {
    lr_mult: 1
    decay_mult: 1
  }
  param {
    lr_mult: 2
    decay_mult: 0
  }
  convolution_param {
    num_output: 192
    pad: 1
    kernel_size: 3
    weight_filler {
      type: "xavier"
      std: 0.03
    }
    bias_filler {
      type: "constant"
      value: 0.2
    }
  }
}
layer {
  name: "inception_3b/relu_3x3"
  type: "ReLU"
  bottom: "inception_3b/3x3"
  top: "inception_3b/3x3"
}
layer {
  name: "inception_3b/5x5_reduce"
  type: "Convolution"
  bottom: "inception_3a/output"
  top: "inception_3b/5x5_reduce"
  param {
    lr_mult: 1
    decay_mult: 1
  }
  param {
    lr_mult: 2
    decay_mult: 0
  }
  convolution_param {
    num_output: 32
    kernel_size: 1
    weight_filler {
      type: "xavier"
      std: 0.2
    }
    bias_filler {
      type: "constant"
      value: 0.2
    }
  }
}
layer {
  name: "inception_3b/relu_5x5_reduce"
  type: "ReLU"
  bottom: "inception_3b/5x5_reduce"
  top: "inception_3b/5x5_reduce"
}
layer {
  name: "inception_3b/5x5"
  type: "Convolution"
  bottom: "inception_3b/5x5_reduce"
  top: "inception_3b/5x5"
  param {
    lr_mult: 1
    decay_mult: 1
  }
  param {
    lr_mult: 2
    decay_mult: 0
  }
  convolution_param {
    num_output: 96
    pad: 2
    kernel_size: 5
    weight_filler {
      type: "xavier"
      std: 0.03
    }
    bias_filler {
      type: "constant"
      value: 0.2
    }
  }
}
layer {
  name: "inception_3b/relu_5x5"
  type: "ReLU"
  bottom: "inception_3b/5x5"
  top: "inception_3b/5x5"
}
layer {
  name: "inception_3b/pool"
  type: "Pooling"
  bottom: "inception_3a/output"
  top: "inception_3b/pool"
  pooling_param {
    pool: MAX
    kernel_size: 3
    stride: 1
    pad: 1
  }
}
layer {
  name: "inception_3b/pool_proj"
  type: "Convolution"
  bottom: "inception_3b/pool"
  top: "inception_3b/pool_proj"
  param {
    lr_mult: 1
    decay_mult: 1
  }
  param {
    lr_mult: 2
    decay_mult: 0
  }
  convolution_param {
    num_output: 64
    kernel_size: 1
    weight_filler {
      type: "xavier"
      std: 0.1
    }
    bias_filler {
      type: "constant"
      value: 0.2
    }
  }
}
layer {
  name: "inception_3b/relu_pool_proj"
  type: "ReLU"
  bottom: "inception_3b/pool_proj"
  top: "inception_3b/pool_proj"
}
layer {
  name: "inception_3b/output"
  type: "Concat"
  bottom: "inception_3b/1x1"
  bottom: "inception_3b/3x3"
  bottom: "inception_3b/5x5"
  bottom: "inception_3b/pool_proj"
  top: "inception_3b/output"
}
layer {
  name: "pool3/3x3_s2"
  type: "Pooling"
  bottom: "inception_3b/output"
  top: "pool3/3x3_s2"
  pooling_param {
    pool: MAX
    kernel_size: 3
    stride: 2
  }
}
layer {
  name: "inception_4a/1x1"
  type: "Convolution"
  bottom: "pool3/3x3_s2"
  top: "inception_4a/1x1"
  param {
    lr_mult: 1
    decay_mult: 1
  }
  param {
    lr_mult: 2
    decay_mult: 0
  }
  convolution_param {
    num_output: 192
    kernel_size: 1
    weight_filler {
      type: "xavier"
      std: 0.03
    }
    bias_filler {
      type: "constant"
      value: 0.2
    }
  }
}
layer {
  name: "inception_4a/relu_1x1"
  type: "ReLU"
  bottom: "inception_4a/1x1"
  top: "inception_4a/1x1"
}
layer {
  name: "inception_4a/3x3_reduce"
  type: "Convolution"
  bottom: "pool3/3x3_s2"
  top: "inception_4a/3x3_reduce"
  param {
    lr_mult: 1
    decay_mult: 1
  }
  param {
    lr_mult: 2
    decay_mult: 0
  }
  convolution_param {
    num_output: 96
    kernel_size: 1
    weight_filler {
      type: "xavier"
      std: 0.09
    }
    bias_filler {
      type: "constant"
      value: 0.2
    }
  }
}
layer {
  name: "inception_4a/relu_3x3_reduce"
  type: "ReLU"
  bottom: "inception_4a/3x3_reduce"
  top: "inception_4a/3x3_reduce"
}
layer {
  name: "inception_4a/3x3"
  type: "Convolution"
  bottom: "inception_4a/3x3_reduce"
  top: "inception_4a/3x3"
  param {
    lr_mult: 1
    decay_mult: 1
  }
  param {
    lr_mult: 2
    decay_mult: 0
  }
  convolution_param {
    num_output: 208
    pad: 1
    kernel_size: 3
    weight_filler {
      type: "xavier"
      std: 0.03
    }
    bias_filler {
      type: "constant"
      value: 0.2
    }
  }
}
layer {
  name: "inception_4a/relu_3x3"
  type: "ReLU"
  bottom: "inception_4a/3x3"
  top: "inception_4a/3x3"
}
layer {
  name: "inception_4a/5x5_reduce"
  type: "Convolution"
  bottom: "pool3/3x3_s2"
  top: "inception_4a/5x5_reduce"
  param {
    lr_mult: 1
    decay_mult: 1
  }
  param {
    lr_mult: 2
    decay_mult: 0
  }
  convolution_param {
    num_output: 16
    kernel_size: 1
    weight_filler {
      type: "xavier"
      std: 0.2
    }
    bias_filler {
      type: "constant"
      value: 0.2
    }
  }
}
layer {
  name: "inception_4a/relu_5x5_reduce"
  type: "ReLU"
  bottom: "inception_4a/5x5_reduce"
  top: "inception_4a/5x5_reduce"
}
layer {
  name: "inception_4a/5x5"
  type: "Convolution"
  bottom: "inception_4a/5x5_reduce"
  top: "inception_4a/5x5"
  param {
    lr_mult: 1
    decay_mult: 1
  }
  param {
    lr_mult: 2
    decay_mult: 0
  }
  convolution_param {
    num_output: 48
    pad: 2
    kernel_size: 5
    weight_filler {
      type: "xavier"
      std: 0.03
    }
    bias_filler {
      type: "constant"
      value: 0.2
    }
  }
}
layer {
  name: "inception_4a/relu_5x5"
  type: "ReLU"
  bottom: "inception_4a/5x5"
  top: "inception_4a/5x5"
}
layer {
  name: "inception_4a/pool"
  type: "Pooling"
  bottom: "pool3/3x3_s2"
  top: "inception_4a/pool"
  pooling_param {
    pool: MAX
    kernel_size: 3
    stride: 1
    pad: 1
  }
}
layer {
  name: "inception_4a/pool_proj"
  type: "Convolution"
  bottom: "inception_4a/pool"
  top: "inception_4a/pool_proj"
  param {
    lr_mult: 1
    decay_mult: 1
  }
  param {
    lr_mult: 2
    decay_mult: 0
  }
  convolution_param {
    num_output: 64
    kernel_size: 1
    weight_filler {
      type: "xavier"
      std: 0.1
    }
    bias_filler {
      type: "constant"
      value: 0.2
    }
  }
}
layer {
  name: "inception_4a/relu_pool_proj"
  type: "ReLU"
  bottom: "inception_4a/pool_proj"
  top: "inception_4a/pool_proj"
}
layer {
  name: "inception_4a/output"
  type: "Concat"
  bottom: "inception_4a/1x1"
  bottom: "inception_4a/3x3"
  bottom: "inception_4a/5x5"
  bottom: "inception_4a/pool_proj"
  top: "inception_4a/output"
}
layer {
  name: "loss1/ave_pool"
  type: "Pooling"
  bottom: "inception_4a/output"
  top: "loss1/ave_pool"
  pooling_param {
    pool: AVE
    kernel_size: 5
    stride: 3
  }
}
layer {
  name: "loss1/conv"
  type: "Convolution"
  bottom: "loss1/ave_pool"
  top: "loss1/conv"
  param {
    lr_mult: 1
    decay_mult: 1
  }
  param {
    lr_mult: 2
    decay_mult: 0
  }
  convolution_param {
    num_output: 128
    kernel_size: 1
    weight_filler {
      type: "xavier"
      std: 0.08
    }
    bias_filler {
      type: "constant"
      value: 0.2
    }
  }
}
layer {
  name: "loss1/relu_conv"
  type: "ReLU"
  bottom: "loss1/conv"
  top: "loss1/conv"
}
layer {
  name: "loss1/fc"
  type: "InnerProduct"
  bottom: "loss1/conv"
  top: "loss1/fc"
  param {
    lr_mult: 1
    decay_mult: 1
  }
  param {
    lr_mult: 2
    decay_mult: 0
  }
  inner_product_param {
    num_output: 1024
    weight_filler {
      type: "xavier"
      std: 0.02
    }
    bias_filler {
      type: "constant"
      value: 0.2
    }
  }
}
layer {
  name: "loss1/relu_fc"
  type: "ReLU"
  bottom: "loss1/fc"
  top: "loss1/fc"
}
layer {
  name: "loss1/drop_fc"
  type: "Dropout"
  bottom: "loss1/fc"
  top: "loss1/fc"
  dropout_param {
    dropout_ratio: 0.7
  }
}
layer {
  name: "loss1/classifier_plantvillage"
  type: "InnerProduct"
  bottom: "loss1/fc"
  top: "loss1/classifier_plantvillage"
  param {
    lr_mult: 1
    decay_mult: 1
  }
  param {
    lr_mult: 2
    decay_mult: 0
  }
  inner_product_param {
    num_output: 38
    weight_filler {
      type: "xavier"
      std: 0.0009765625
    }
    bias_filler {
      type: "constant"
      value: 0
    }
  }
}
layer {
  name: "inception_4b/1x1"
  type: "Convolution"
  bottom: "inception_4a/output"
  top: "inception_4b/1x1"
  param {
    lr_mult: 1
    decay_mult: 1
  }
  param {
    lr_mult: 2
    decay_mult: 0
  }
  convolution_param {
    num_output: 160
    kernel_size: 1
    weight_filler {
      type: "xavier"
      std: 0.03
    }
    bias_filler {
      type: "constant"
      value: 0.2
    }
  }
}
layer {
  name: "inception_4b/relu_1x1"
  type: "ReLU"
  bottom: "inception_4b/1x1"
  top: "inception_4b/1x1"
}
layer {
  name: "inception_4b/3x3_reduce"
  type: "Convolution"
  bottom: "inception_4a/output"
  top: "inception_4b/3x3_reduce"
  param {
    lr_mult: 1
    decay_mult: 1
  }
  param {
    lr_mult: 2
    decay_mult: 0
  }
  convolution_param {
    num_output: 112
    kernel_size: 1
    weight_filler {
      type: "xavier"
      std: 0.09
    }
    bias_filler {
      type: "constant"
      value: 0.2
    }
  }
}
layer {
  name: "inception_4b/relu_3x3_reduce"
  type: "ReLU"
  bottom: "inception_4b/3x3_reduce"
  top: "inception_4b/3x3_reduce"
}
layer {
  name: "inception_4b/3x3"
  type: "Convolution"
  bottom: "inception_4b/3x3_reduce"
  top: "inception_4b/3x3"
  param {
    lr_mult: 1
    decay_mult: 1
  }
  param {
    lr_mult: 2
    decay_mult: 0
  }
  convolution_param {
    num_output: 224
    pad: 1
    kernel_size: 3
    weight_filler {
      type: "xavier"
      std: 0.03
    }
    bias_filler {
      type: "constant"
      value: 0.2
    }
  }
}
layer {
  name: "inception_4b/relu_3x3"
  type: "ReLU"
  bottom: "inception_4b/3x3"
  top: "inception_4b/3x3"
}
layer {
  name: "inception_4b/5x5_reduce"
  type: "Convolution"
  bottom: "inception_4a/output"
  top: "inception_4b/5x5_reduce"
  param {
    lr_mult: 1
    decay_mult: 1
  }
  param {
    lr_mult: 2
    decay_mult: 0
  }
  convolution_param {
    num_output: 24
    kernel_size: 1
    weight_filler {
      type: "xavier"
      std: 0.2
    }
    bias_filler {
      type: "constant"
      value: 0.2
    }
  }
}
layer {
  name: "inception_4b/relu_5x5_reduce"
  type: "ReLU"
  bottom: "inception_4b/5x5_reduce"
  top: "inception_4b/5x5_reduce"
}
layer {
  name: "inception_4b/5x5"
  type: "Convolution"
  bottom: "inception_4b/5x5_reduce"
  top: "inception_4b/5x5"
  param {
    lr_mult: 1
    decay_mult: 1
  }
  param {
    lr_mult: 2
    decay_mult: 0
  }
  convolution_param {
    num_output: 64
    pad: 2
    kernel_size: 5
    weight_filler {
      type: "xavier"
      std: 0.03
    }
    bias_filler {
      type: "constant"
      value: 0.2
    }
  }
}
layer {
  name: "inception_4b/relu_5x5"
  type: "ReLU"
  bottom: "inception_4b/5x5"
  top: "inception_4b/5x5"
}
layer {
  name: "inception_4b/pool"
  type: "Pooling"
  bottom: "inception_4a/output"
  top: "inception_4b/pool"
  pooling_param {
    pool: MAX
    kernel_size: 3
    stride: 1
    pad: 1
  }
}
layer {
  name: "inception_4b/pool_proj"
  type: "Convolution"
  bottom: "inception_4b/pool"
  top: "inception_4b/pool_proj"
  param {
    lr_mult: 1
    decay_mult: 1
  }
  param {
    lr_mult: 2
    decay_mult: 0
  }
  convolution_param {
    num_output: 64
    kernel_size: 1
    weight_filler {
      type: "xavier"
      std: 0.1
    }
    bias_filler {
      type: "constant"
      value: 0.2
    }
  }
}
layer {
  name: "inception_4b/relu_pool_proj"
  type: "ReLU"
  bottom: "inception_4b/pool_proj"
  top: "inception_4b/pool_proj"
}
layer {
  name: "inception_4b/output"
  type: "Concat"
  bottom: "inception_4b/1x1"
  bottom: "inception_4b/3x3"
  bottom: "inception_4b/5x5"
  bottom: "inception_4b/pool_proj"
  top: "inception_4b/output"
}
layer {
  name: "inception_4c/1x1"
  type: "Convolution"
  bottom: "inception_4b/output"
  top: "inception_4c/1x1"
  param {
    lr_mult: 1
    decay_mult: 1
  }
  param {
    lr_mult: 2
    decay_mult: 0
  }
  convolution_param {
    num_output: 128
    kernel_size: 1
    weight_filler {
      type: "xavier"
      std: 0.03
    }
    bias_filler {
      type: "constant"
      value: 0.2
    }
  }
}
layer {
  name: "inception_4c/relu_1x1"
  type: "ReLU"
  bottom: "inception_4c/1x1"
  top: "inception_4c/1x1"
}
layer {
  name: "inception_4c/3x3_reduce"
  type: "Convolution"
  bottom: "inception_4b/output"
  top: "inception_4c/3x3_reduce"
  param {
    lr_mult: 1
    decay_mult: 1
  }
  param {
    lr_mult: 2
    decay_mult: 0
  }
  convolution_param {
    num_output: 128
    kernel_size: 1
    weight_filler {
      type: "xavier"
      std: 0.09
    }
    bias_filler {
      type: "constant"
      value: 0.2
    }
  }
}
layer {
  name: "inception_4c/relu_3x3_reduce"
  type: "ReLU"
  bottom: "inception_4c/3x3_reduce"
  top: "inception_4c/3x3_reduce"
}
layer {
  name: "inception_4c/3x3"
  type: "Convolution"
  bottom: "inception_4c/3x3_reduce"
  top: "inception_4c/3x3"
  param {
    lr_mult: 1
    decay_mult: 1
  }
  param {
    lr_mult: 2
    decay_mult: 0
  }
  convolution_param {
    num_output: 256
    pad: 1
    kernel_size: 3
    weight_filler {
      type: "xavier"
      std: 0.03
    }
    bias_filler {
      type: "constant"
      value: 0.2
    }
  }
}
layer {
  name: "inception_4c/relu_3x3"
  type: "ReLU"
  bottom: "inception_4c/3x3"
  top: "inception_4c/3x3"
}
layer {
  name: "inception_4c/5x5_reduce"
  type: "Convolution"
  bottom: "inception_4b/output"
  top: "inception_4c/5x5_reduce"
  param {
    lr_mult: 1
    decay_mult: 1
  }
  param {
    lr_mult: 2
    decay_mult: 0
  }
  convolution_param {
    num_output: 24
    kernel_size: 1
    weight_filler {
      type: "xavier"
      std: 0.2
    }
    bias_filler {
      type: "constant"
      value: 0.2
    }
  }
}
layer {
  name: "inception_4c/relu_5x5_reduce"
  type: "ReLU"
  bottom: "inception_4c/5x5_reduce"
  top: "inception_4c/5x5_reduce"
}
layer {
  name: "inception_4c/5x5"
  type: "Convolution"
  bottom: "inception_4c/5x5_reduce"
  top: "inception_4c/5x5"
  param {
    lr_mult: 1
    decay_mult: 1
  }
  param {
    lr_mult: 2
    decay_mult: 0
  }
  convolution_param {
    num_output: 64
    pad: 2
    kernel_size: 5
    weight_filler {
      type: "xavier"
      std: 0.03
    }
    bias_filler {
      type: "constant"
      value: 0.2
    }
  }
}
layer {
  name: "inception_4c/relu_5x5"
  type: "ReLU"
  bottom: "inception_4c/5x5"
  top: "inception_4c/5x5"
}
layer {
  name: "inception_4c/pool"
  type: "Pooling"
  bottom: "inception_4b/output"
  top: "inception_4c/pool"
  pooling_param {
    pool: MAX
    kernel_size: 3
    stride: 1
    pad: 1
  }
}
layer {
  name: "inception_4c/pool_proj"
  type: "Convolution"
  bottom: "inception_4c/pool"
  top: "inception_4c/pool_proj"
  param {
    lr_mult: 1
    decay_mult: 1
  }
  param {
    lr_mult: 2
    decay_mult: 0
  }
  convolution_param {
    num_output: 64
    kernel_size: 1
    weight_filler {
      type: "xavier"
      std: 0.1
    }
    bias_filler {
      type: "constant"
      value: 0.2
    }
  }
}
layer {
  name: "inception_4c/relu_pool_proj"
  type: "ReLU"
  bottom: "inception_4c/pool_proj"
  top: "inception_4c/pool_proj"
}
layer {
  name: "inception_4c/output"
  type: "Concat"
  bottom: "inception_4c/1x1"
  bottom: "inception_4c/3x3"
  bottom: "inception_4c/5x5"
  bottom: "inception_4c/pool_proj"
  top: "inception_4c/output"
}
layer {
  name: "inception_4d/1x1"
  type: "Convolution"
  bottom: "inception_4c/output"
  top: "inception_4d/1x1"
  param {
    lr_mult: 1
    decay_mult: 1
  }
  param {
    lr_mult: 2
    decay_mult: 0
  }
  convolution_param {
    num_output: 112
    kernel_size: 1
    weight_filler {
      type: "xavier"
      std: 0.03
    }
    bias_filler {
      type: "constant"
      value: 0.2
    }
  }
}
layer {
  name: "inception_4d/relu_1x1"
  type: "ReLU"
  bottom: "inception_4d/1x1"
  top: "inception_4d/1x1"
}
layer {
  name: "inception_4d/3x3_reduce"
  type: "Convolution"
  bottom: "inception_4c/output"
  top: "inception_4d/3x3_reduce"
  param {
    lr_mult: 1
    decay_mult: 1
  }
  param {
    lr_mult: 2
    decay_mult: 0
  }
  convolution_param {
    num_output: 144
    kernel_size: 1
    weight_filler {
      type: "xavier"
      std: 0.09
    }
    bias_filler {
      type: "constant"
      value: 0.2
    }
  }
}
layer {
  name: "inception_4d/relu_3x3_reduce"
  type: "ReLU"
  bottom: "inception_4d/3x3_reduce"
  top: "inception_4d/3x3_reduce"
}
layer {
  name: "inception_4d/3x3"
  type: "Convolution"
  bottom: "inception_4d/3x3_reduce"
  top: "inception_4d/3x3"
  param {
    lr_mult: 1
    decay_mult: 1
  }
  param {
    lr_mult: 2
    decay_mult: 0
  }
  convolution_param {
    num_output: 288
    pad: 1
    kernel_size: 3
    weight_filler {
      type: "xavier"
      std: 0.03
    }
    bias_filler {
      type: "constant"
      value: 0.2
    }
  }
}
layer {
  name: "inception_4d/relu_3x3"
  type: "ReLU"
  bottom: "inception_4d/3x3"
  top: "inception_4d/3x3"
}
layer {
  name: "inception_4d/5x5_reduce"
  type: "Convolution"
  bottom: "inception_4c/output"
  top: "inception_4d/5x5_reduce"
  param {
    lr_mult: 1
    decay_mult: 1
  }
  param {
    lr_mult: 2
    decay_mult: 0
  }
  convolution_param {
    num_output: 32
    kernel_size: 1
    weight_filler {
      type: "xavier"
      std: 0.2
    }
    bias_filler {
      type: "constant"
      value: 0.2
    }
  }
}
layer {
  name: "inception_4d/relu_5x5_reduce"
  type: "ReLU"
  bottom: "inception_4d/5x5_reduce"
  top: "inception_4d/5x5_reduce"
}
layer {
  name: "inception_4d/5x5"
  type: "Convolution"
  bottom: "inception_4d/5x5_reduce"
  top: "inception_4d/5x5"
  param {
    lr_mult: 1
    decay_mult: 1
  }
  param {
    lr_mult: 2
    decay_mult: 0
  }
  convolution_param {
    num_output: 64
    pad: 2
    kernel_size: 5
    weight_filler {
      type: "xavier"
      std: 0.03
    }
    bias_filler {
      type: "constant"
      value: 0.2
    }
  }
}
layer {
  name: "inception_4d/relu_5x5"
  type: "ReLU"
  bottom: "inception_4d/5x5"
  top: "inception_4d/5x5"
}
layer {
  name: "inception_4d/pool"
  type: "Pooling"
  bottom: "inception_4c/output"
  top: "inception_4d/pool"
  pooling_param {
    pool: MAX
    kernel_size: 3
    stride: 1
    pad: 1
  }
}
layer {
  name: "inception_4d/pool_proj"
  type: "Convolution"
  bottom: "inception_4d/pool"
  top: "inception_4d/pool_proj"
  param {
    lr_mult: 1
    decay_mult: 1
  }
  param {
    lr_mult: 2
    decay_mult: 0
  }
  convolution_param {
    num_output: 64
    kernel_size: 1
    weight_filler {
      type: "xavier"
      std: 0.1
    }
    bias_filler {
      type: "constant"
      value: 0.2
    }
  }
}
layer {
  name: "inception_4d/relu_pool_proj"
  type: "ReLU"
  bottom: "inception_4d/pool_proj"
  top: "inception_4d/pool_proj"
}
layer {
  name: "inception_4d/output"
  type: "Concat"
  bottom: "inception_4d/1x1"
  bottom: "inception_4d/3x3"
  bottom: "inception_4d/5x5"
  bottom: "inception_4d/pool_proj"
  top: "inception_4d/output"
}
layer {
  name: "loss2/ave_pool"
  type: "Pooling"
  bottom: "inception_4d/output"
  top: "loss2/ave_pool"
  pooling_param {
    pool: AVE
    kernel_size: 5
    stride: 3
  }
}
layer {
  name: "loss2/conv"
  type: "Convolution"
  bottom: "loss2/ave_pool"
  top: "loss2/conv"
  param {
    lr_mult: 1
    decay_mult: 1
  }
  param {
    lr_mult: 2
    decay_mult: 0
  }
  convolution_param {
    num_output: 128
    kernel_size: 1
    weight_filler {
      type: "xavier"
      std: 0.08
    }
    bias_filler {
      type: "constant"
      value: 0.2
    }
  }
}
layer {
  name: "loss2/relu_conv"
  type: "ReLU"
  bottom: "loss2/conv"
  top: "loss2/conv"
}
layer {
  name: "loss2/fc"
  type: "InnerProduct"
  bottom: "loss2/conv"
  top: "loss2/fc"
  param {
    lr_mult: 1
    decay_mult: 1
  }
  param {
    lr_mult: 2
    decay_mult: 0
  }
  inner_product_param {
    num_output: 1024
    weight_filler {
      type: "xavier"
      std: 0.02
    }
    bias_filler {
      type: "constant"
      value: 0.2
    }
  }
}
layer {
  name: "loss2/relu_fc"
  type: "ReLU"
  bottom: "loss2/fc"
  top: "loss2/fc"
}
layer {
  name: "loss2/drop_fc"
  type: "Dropout"
  bottom: "loss2/fc"
  top: "loss2/fc"
  dropout_param {
    dropout_ratio: 0.7
  }
}
layer {
  name: "loss2/classifier_plantvillage"
  type: "InnerProduct"
  bottom: "loss2/fc"
  top: "loss2/classifier_plantvillage"
  param {
    lr_mult: 1
    decay_mult: 1
  }
  param {
    lr_mult: 2
    decay_mult: 0
  }
  inner_product_param {
    num_output: 38
    weight_filler {
      type: "xavier"
      std: 0.0009765625
    }
    bias_filler {
      type: "constant"
      value: 0
    }
  }
}
layer {
  name: "inception_4e/1x1"
  type: "Convolution"
  bottom: "inception_4d/output"
  top: "inception_4e/1x1"
  param {
    lr_mult: 1
    decay_mult: 1
  }
  param {
    lr_mult: 2
    decay_mult: 0
  }
  convolution_param {
    num_output: 256
    kernel_size: 1
    weight_filler {
      type: "xavier"
      std: 0.03
    }
    bias_filler {
      type: "constant"
      value: 0.2
    }
  }
}
layer {
  name: "inception_4e/relu_1x1"
  type: "ReLU"
  bottom: "inception_4e/1x1"
  top: "inception_4e/1x1"
}
layer {
  name: "inception_4e/3x3_reduce"
  type: "Convolution"
  bottom: "inception_4d/output"
  top: "inception_4e/3x3_reduce"
  param {
    lr_mult: 1
    decay_mult: 1
  }
  param {
    lr_mult: 2
    decay_mult: 0
  }
  convolution_param {
    num_output: 160
    kernel_size: 1
    weight_filler {
      type: "xavier"
      std: 0.09
    }
    bias_filler {
      type: "constant"
      value: 0.2
    }
  }
}
layer {
  name: "inception_4e/relu_3x3_reduce"
  type: "ReLU"
  bottom: "inception_4e/3x3_reduce"
  top: "inception_4e/3x3_reduce"
}
layer {
  name: "inception_4e/3x3"
  type: "Convolution"
  bottom: "inception_4e/3x3_reduce"
  top: "inception_4e/3x3"
  param {
    lr_mult: 1
    decay_mult: 1
  }
  param {
    lr_mult: 2
    decay_mult: 0
  }
  convolution_param {
    num_output: 320
    pad: 1
    kernel_size: 3
    weight_filler {
      type: "xavier"
      std: 0.03
    }
    bias_filler {
      type: "constant"
      value: 0.2
    }
  }
}
layer {
  name: "inception_4e/relu_3x3"
  type: "ReLU"
  bottom: "inception_4e/3x3"
  top: "inception_4e/3x3"
}
layer {
  name: "inception_4e/5x5_reduce"
  type: "Convolution"
  bottom: "inception_4d/output"
  top: "inception_4e/5x5_reduce"
  param {
    lr_mult: 1
    decay_mult: 1
  }
  param {
    lr_mult: 2
    decay_mult: 0
  }
  convolution_param {
    num_output: 32
    kernel_size: 1
    weight_filler {
      type: "xavier"
      std: 0.2
    }
    bias_filler {
      type: "constant"
      value: 0.2
    }
  }
}
layer {
  name: "inception_4e/relu_5x5_reduce"
  type: "ReLU"
  bottom: "inception_4e/5x5_reduce"
  top: "inception_4e/5x5_reduce"
}
layer {
  name: "inception_4e/5x5"
  type: "Convolution"
  bottom: "inception_4e/5x5_reduce"
  top: "inception_4e/5x5"
  p
I0403 15:42:10.036845   398 layer_factory.hpp:77] Creating layer data
I0403 15:42:10.037448   398 net.cpp:91] Creating Layer data
I0403 15:42:10.037485   398 net.cpp:399] data -> data
I0403 15:42:10.037540   398 net.cpp:399] data -> label
I0403 15:42:10.037580   398 data_transformer.cpp:25] Loading mean file from: /home/mohanty/data/final_dataset/lmdb/color-60-40/mean.binaryproto
I0403 15:42:10.039862   400 db_lmdb.cpp:38] Opened lmdb /home/mohanty/data/final_dataset/lmdb/color-60-40/test_db
I0403 15:42:10.051475   398 data_layer.cpp:41] output data size: 24,3,224,224
I0403 15:42:10.081871   398 net.cpp:141] Setting up data
I0403 15:42:10.081955   398 net.cpp:148] Top shape: 24 3 224 224 (3612672)
I0403 15:42:10.081979   398 net.cpp:148] Top shape: 24 (24)
I0403 15:42:10.081995   398 net.cpp:156] Memory required for data: 14450784
I0403 15:42:10.082022   398 layer_factory.hpp:77] Creating layer label_data_1_split
I0403 15:42:10.082048   398 net.cpp:91] Creating Layer label_data_1_split
I0403 15:42:10.082067   398 net.cpp:425] label_data_1_split <- label
I0403 15:42:10.082100   398 net.cpp:399] label_data_1_split -> label_data_1_split_0
I0403 15:42:10.082129   398 net.cpp:399] label_data_1_split -> label_data_1_split_1
I0403 15:42:10.082151   398 net.cpp:399] label_data_1_split -> label_data_1_split_2
I0403 15:42:10.082173   398 net.cpp:399] label_data_1_split -> label_data_1_split_3
I0403 15:42:10.082193   398 net.cpp:399] label_data_1_split -> label_data_1_split_4
I0403 15:42:10.082213   398 net.cpp:399] label_data_1_split -> label_data_1_split_5
I0403 15:42:10.082233   398 net.cpp:399] label_data_1_split -> label_data_1_split_6
I0403 15:42:10.082259   398 net.cpp:399] label_data_1_split -> label_data_1_split_7
I0403 15:42:10.082286   398 net.cpp:399] label_data_1_split -> label_data_1_split_8
I0403 15:42:10.082309   398 net.cpp:399] label_data_1_split -> label_data_1_split_9
I0403 15:42:10.082428   398 net.cpp:141] Setting up label_data_1_split
I0403 15:42:10.082458   398 net.cpp:148] Top shape: 24 (24)
I0403 15:42:10.082479   398 net.cpp:148] Top shape: 24 (24)
I0403 15:42:10.082500   398 net.cpp:148] Top shape: 24 (24)
I0403 15:42:10.082526   398 net.cpp:148] Top shape: 24 (24)
I0403 15:42:10.082542   398 net.cpp:148] Top shape: 24 (24)
I0403 15:42:10.082562   398 net.cpp:148] Top shape: 24 (24)
I0403 15:42:10.082579   398 net.cpp:148] Top shape: 24 (24)
I0403 15:42:10.082595   398 net.cpp:148] Top shape: 24 (24)
I0403 15:42:10.082612   398 net.cpp:148] Top shape: 24 (24)
I0403 15:42:10.082626   398 net.cpp:148] Top shape: 24 (24)
I0403 15:42:10.082671   398 net.cpp:156] Memory required for data: 14451744
I0403 15:42:10.082689   398 layer_factory.hpp:77] Creating layer conv1/7x7_s2
I0403 15:42:10.082720   398 net.cpp:91] Creating Layer conv1/7x7_s2
I0403 15:42:10.082741   398 net.cpp:425] conv1/7x7_s2 <- data
I0403 15:42:10.082762   398 net.cpp:399] conv1/7x7_s2 -> conv1/7x7_s2
I0403 15:42:10.229598   398 net.cpp:141] Setting up conv1/7x7_s2
I0403 15:42:10.229701   398 net.cpp:148] Top shape: 24 64 112 112 (19267584)
I0403 15:42:10.229722   398 net.cpp:156] Memory required for data: 91522080
I0403 15:42:10.229754   398 layer_factory.hpp:77] Creating layer conv1/relu_7x7
I0403 15:42:10.229784   398 net.cpp:91] Creating Layer conv1/relu_7x7
I0403 15:42:10.229801   398 net.cpp:425] conv1/relu_7x7 <- conv1/7x7_s2
I0403 15:42:10.229820   398 net.cpp:386] conv1/relu_7x7 -> conv1/7x7_s2 (in-place)
I0403 15:42:10.230072   398 net.cpp:141] Setting up conv1/relu_7x7
I0403 15:42:10.230099   398 net.cpp:148] Top shape: 24 64 112 112 (19267584)
I0403 15:42:10.230115   398 net.cpp:156] Memory required for data: 168592416
I0403 15:42:10.230130   398 layer_factory.hpp:77] Creating layer pool1/3x3_s2
I0403 15:42:10.230155   398 net.cpp:91] Creating Layer pool1/3x3_s2
I0403 15:42:10.230173   398 net.cpp:425] pool1/3x3_s2 <- conv1/7x7_s2
I0403 15:42:10.230192   398 net.cpp:399] pool1/3x3_s2 -> pool1/3x3_s2
I0403 15:42:10.230268   398 net.cpp:141] Setting up pool1/3x3_s2
I0403 15:42:10.230293   398 net.cpp:148] Top shape: 24 64 56 56 (4816896)
I0403 15:42:10.230309   398 net.cpp:156] Memory required for data: 187860000
I0403 15:42:10.230324   398 layer_factory.hpp:77] Creating layer pool1/norm1
I0403 15:42:10.230350   398 net.cpp:91] Creating Layer pool1/norm1
I0403 15:42:10.230366   398 net.cpp:425] pool1/norm1 <- pool1/3x3_s2
I0403 15:42:10.230386   398 net.cpp:399] pool1/norm1 -> pool1/norm1
I0403 15:42:10.230669   398 net.cpp:141] Setting up pool1/norm1
I0403 15:42:10.230697   398 net.cpp:148] Top shape: 24 64 56 56 (4816896)
I0403 15:42:10.230715   398 net.cpp:156] Memory required for data: 207127584
I0403 15:42:10.230731   398 layer_factory.hpp:77] Creating layer conv2/3x3_reduce
I0403 15:42:10.230756   398 net.cpp:91] Creating Layer conv2/3x3_reduce
I0403 15:42:10.230772   398 net.cpp:425] conv2/3x3_reduce <- pool1/norm1
I0403 15:42:10.230792   398 net.cpp:399] conv2/3x3_reduce -> conv2/3x3_reduce
I0403 15:42:10.232141   398 net.cpp:141] Setting up conv2/3x3_reduce
I0403 15:42:10.232178   398 net.cpp:148] Top shape: 24 64 56 56 (4816896)
I0403 15:42:10.232199   398 net.cpp:156] Memory required for data: 226395168
I0403 15:42:10.232223   398 layer_factory.hpp:77] Creating layer conv2/relu_3x3_reduce
I0403 15:42:10.232244   398 net.cpp:91] Creating Layer conv2/relu_3x3_reduce
I0403 15:42:10.232265   398 net.cpp:425] conv2/relu_3x3_reduce <- conv2/3x3_reduce
I0403 15:42:10.232283   398 net.cpp:386] conv2/relu_3x3_reduce -> conv2/3x3_reduce (in-place)
I0403 15:42:10.232535   398 net.cpp:141] Setting up conv2/relu_3x3_reduce
I0403 15:42:10.232563   398 net.cpp:148] Top shape: 24 64 56 56 (4816896)
I0403 15:42:10.232578   398 net.cpp:156] Memory required for data: 245662752
I0403 15:42:10.232599   398 layer_factory.hpp:77] Creating layer conv2/3x3
I0403 15:42:10.232620   398 net.cpp:91] Creating Layer conv2/3x3
I0403 15:42:10.232637   398 net.cpp:425] conv2/3x3 <- conv2/3x3_reduce
I0403 15:42:10.232661   398 net.cpp:399] conv2/3x3 -> conv2/3x3
I0403 15:42:10.235023   398 net.cpp:141] Setting up conv2/3x3
I0403 15:42:10.235054   398 net.cpp:148] Top shape: 24 192 56 56 (14450688)
I0403 15:42:10.235070   398 net.cpp:156] Memory required for data: 303465504
I0403 15:42:10.235091   398 layer_factory.hpp:77] Creating layer conv2/relu_3x3
I0403 15:42:10.235110   398 net.cpp:91] Creating Layer conv2/relu_3x3
I0403 15:42:10.235127   398 net.cpp:425] conv2/relu_3x3 <- conv2/3x3
I0403 15:42:10.235146   398 net.cpp:386] conv2/relu_3x3 -> conv2/3x3 (in-place)
I0403 15:42:10.235311   398 net.cpp:141] Setting up conv2/relu_3x3
I0403 15:42:10.235337   398 net.cpp:148] Top shape: 24 192 56 56 (14450688)
I0403 15:42:10.235388   398 net.cpp:156] Memory required for data: 361268256
I0403 15:42:10.235410   398 layer_factory.hpp:77] Creating layer conv2/norm2
I0403 15:42:10.235431   398 net.cpp:91] Creating Layer conv2/norm2
I0403 15:42:10.235453   398 net.cpp:425] conv2/norm2 <- conv2/3x3
I0403 15:42:10.235476   398 net.cpp:399] conv2/norm2 -> conv2/norm2
I0403 15:42:10.235788   398 net.cpp:141] Setting up conv2/norm2
I0403 15:42:10.235817   398 net.cpp:148] Top shape: 24 192 56 56 (14450688)
I0403 15:42:10.235833   398 net.cpp:156] Memory required for data: 419071008
I0403 15:42:10.235849   398 layer_factory.hpp:77] Creating layer pool2/3x3_s2
I0403 15:42:10.235868   398 net.cpp:91] Creating Layer pool2/3x3_s2
I0403 15:42:10.235888   398 net.cpp:425] pool2/3x3_s2 <- conv2/norm2
I0403 15:42:10.235909   398 net.cpp:399] pool2/3x3_s2 -> pool2/3x3_s2
I0403 15:42:10.235960   398 net.cpp:141] Setting up pool2/3x3_s2
I0403 15:42:10.235986   398 net.cpp:148] Top shape: 24 192 28 28 (3612672)
I0403 15:42:10.236009   398 net.cpp:156] Memory required for data: 433521696
I0403 15:42:10.236033   398 layer_factory.hpp:77] Creating layer pool2/3x3_s2_pool2/3x3_s2_0_split
I0403 15:42:10.236052   398 net.cpp:91] Creating Layer pool2/3x3_s2_pool2/3x3_s2_0_split
I0403 15:42:10.236075   398 net.cpp:425] pool2/3x3_s2_pool2/3x3_s2_0_split <- pool2/3x3_s2
I0403 15:42:10.236098   398 net.cpp:399] pool2/3x3_s2_pool2/3x3_s2_0_split -> pool2/3x3_s2_pool2/3x3_s2_0_split_0
I0403 15:42:10.236122   398 net.cpp:399] pool2/3x3_s2_pool2/3x3_s2_0_split -> pool2/3x3_s2_pool2/3x3_s2_0_split_1
I0403 15:42:10.236142   398 net.cpp:399] pool2/3x3_s2_pool2/3x3_s2_0_split -> pool2/3x3_s2_pool2/3x3_s2_0_split_2
I0403 15:42:10.236162   398 net.cpp:399] pool2/3x3_s2_pool2/3x3_s2_0_split -> pool2/3x3_s2_pool2/3x3_s2_0_split_3
I0403 15:42:10.236228   398 net.cpp:141] Setting up pool2/3x3_s2_pool2/3x3_s2_0_split
I0403 15:42:10.236255   398 net.cpp:148] Top shape: 24 192 28 28 (3612672)
I0403 15:42:10.236274   398 net.cpp:148] Top shape: 24 192 28 28 (3612672)
I0403 15:42:10.236291   398 net.cpp:148] Top shape: 24 192 28 28 (3612672)
I0403 15:42:10.236307   398 net.cpp:148] Top shape: 24 192 28 28 (3612672)
I0403 15:42:10.236321   398 net.cpp:156] Memory required for data: 491324448
I0403 15:42:10.236336   398 layer_factory.hpp:77] Creating layer inception_3a/1x1
I0403 15:42:10.236357   398 net.cpp:91] Creating Layer inception_3a/1x1
I0403 15:42:10.236377   398 net.cpp:425] inception_3a/1x1 <- pool2/3x3_s2_pool2/3x3_s2_0_split_0
I0403 15:42:10.236397   398 net.cpp:399] inception_3a/1x1 -> inception_3a/1x1
I0403 15:42:10.237926   398 net.cpp:141] Setting up inception_3a/1x1
I0403 15:42:10.237958   398 net.cpp:148] Top shape: 24 64 28 28 (1204224)
I0403 15:42:10.237977   398 net.cpp:156] Memory required for data: 496141344
I0403 15:42:10.237995   398 layer_factory.hpp:77] Creating layer inception_3a/relu_1x1
I0403 15:42:10.238013   398 net.cpp:91] Creating Layer inception_3a/relu_1x1
I0403 15:42:10.238029   398 net.cpp:425] inception_3a/relu_1x1 <- inception_3a/1x1
I0403 15:42:10.238049   398 net.cpp:386] inception_3a/relu_1x1 -> inception_3a/1x1 (in-place)
I0403 15:42:10.238222   398 net.cpp:141] Setting up inception_3a/relu_1x1
I0403 15:42:10.238257   398 net.cpp:148] Top shape: 24 64 28 28 (1204224)
I0403 15:42:10.238279   398 net.cpp:156] Memory required for data: 500958240
I0403 15:42:10.238297   398 layer_factory.hpp:77] Creating layer inception_3a/3x3_reduce
I0403 15:42:10.238328   398 net.cpp:91] Creating Layer inception_3a/3x3_reduce
I0403 15:42:10.238365   398 net.cpp:425] inception_3a/3x3_reduce <- pool2/3x3_s2_pool2/3x3_s2_0_split_1
I0403 15:42:10.238389   398 net.cpp:399] inception_3a/3x3_reduce -> inception_3a/3x3_reduce
I0403 15:42:10.240159   398 net.cpp:141] Setting up inception_3a/3x3_reduce
I0403 15:42:10.240195   398 net.cpp:148] Top shape: 24 96 28 28 (1806336)
I0403 15:42:10.240216   398 net.cpp:156] Memory required for data: 508183584
I0403 15:42:10.240252   398 layer_factory.hpp:77] Creating layer inception_3a/relu_3x3_reduce
I0403 15:42:10.240296   398 net.cpp:91] Creating Layer inception_3a/relu_3x3_reduce
I0403 15:42:10.240320   398 net.cpp:425] inception_3a/relu_3x3_reduce <- inception_3a/3x3_reduce
I0403 15:42:10.240341   398 net.cpp:386] inception_3a/relu_3x3_reduce -> inception_3a/3x3_reduce (in-place)
I0403 15:42:10.240520   398 net.cpp:141] Setting up inception_3a/relu_3x3_reduce
I0403 15:42:10.240551   398 net.cpp:148] Top shape: 24 96 28 28 (1806336)
I0403 15:42:10.240566   398 net.cpp:156] Memory required for data: 515408928
I0403 15:42:10.240581   398 layer_factory.hpp:77] Creating layer inception_3a/3x3
I0403 15:42:10.240604   398 net.cpp:91] Creating Layer inception_3a/3x3
I0403 15:42:10.240622   398 net.cpp:425] inception_3a/3x3 <- inception_3a/3x3_reduce
I0403 15:42:10.240640   398 net.cpp:399] inception_3a/3x3 -> inception_3a/3x3
I0403 15:42:10.242280   398 net.cpp:141] Setting up inception_3a/3x3
I0403 15:42:10.242308   398 net.cpp:148] Top shape: 24 128 28 28 (2408448)
I0403 15:42:10.242324   398 net.cpp:156] Memory required for data: 525042720
I0403 15:42:10.242343   398 layer_factory.hpp:77] Creating layer inception_3a/relu_3x3
I0403 15:42:10.242362   398 net.cpp:91] Creating Layer inception_3a/relu_3x3
I0403 15:42:10.242382   398 net.cpp:425] inception_3a/relu_3x3 <- inception_3a/3x3
I0403 15:42:10.242403   398 net.cpp:386] inception_3a/relu_3x3 -> inception_3a/3x3 (in-place)
I0403 15:42:10.242673   398 net.cpp:141] Setting up inception_3a/relu_3x3
I0403 15:42:10.242700   398 net.cpp:148] Top shape: 24 128 28 28 (2408448)
I0403 15:42:10.242717   398 net.cpp:156] Memory required for data: 534676512
I0403 15:42:10.242733   398 layer_factory.hpp:77] Creating layer inception_3a/5x5_reduce
I0403 15:42:10.242754   398 net.cpp:91] Creating Layer inception_3a/5x5_reduce
I0403 15:42:10.242772   398 net.cpp:425] inception_3a/5x5_reduce <- pool2/3x3_s2_pool2/3x3_s2_0_split_2
I0403 15:42:10.242794   398 net.cpp:399] inception_3a/5x5_reduce -> inception_3a/5x5_reduce
I0403 15:42:10.243801   398 net.cpp:141] Setting up inception_3a/5x5_reduce
I0403 15:42:10.243837   398 net.cpp:148] Top shape: 24 16 28 28 (301056)
I0403 15:42:10.243860   398 net.cpp:156] Memory required for data: 535880736
I0403 15:42:10.243885   398 layer_factory.hpp:77] Creating layer inception_3a/relu_5x5_reduce
I0403 15:42:10.243911   398 net.cpp:91] Creating Layer inception_3a/relu_5x5_reduce
I0403 15:42:10.243937   398 net.cpp:425] inception_3a/relu_5x5_reduce <- inception_3a/5x5_reduce
I0403 15:42:10.243954   398 net.cpp:386] inception_3a/relu_5x5_reduce -> inception_3a/5x5_reduce (in-place)
I0403 15:42:10.244241   398 net.cpp:141] Setting up inception_3a/relu_5x5_reduce
I0403 15:42:10.244278   398 net.cpp:148] Top shape: 24 16 28 28 (301056)
I0403 15:42:10.244297   398 net.cpp:156] Memory required for data: 537084960
I0403 15:42:10.244313   398 layer_factory.hpp:77] Creating layer inception_3a/5x5
I0403 15:42:10.244334   398 net.cpp:91] Creating Layer inception_3a/5x5
I0403 15:42:10.244352   398 net.cpp:425] inception_3a/5x5 <- inception_3a/5x5_reduce
I0403 15:42:10.244374   398 net.cpp:399] inception_3a/5x5 -> inception_3a/5x5
I0403 15:42:10.245371   398 net.cpp:141] Setting up inception_3a/5x5
I0403 15:42:10.245409   398 net.cpp:148] Top shape: 24 32 28 28 (602112)
I0403 15:42:10.245429   398 net.cpp:156] Memory required for data: 539493408
I0403 15:42:10.245453   398 layer_factory.hpp:77] Creating layer inception_3a/relu_5x5
I0403 15:42:10.245472   398 net.cpp:91] Creating Layer inception_3a/relu_5x5
I0403 15:42:10.245488   398 net.cpp:425] inception_3a/relu_5x5 <- inception_3a/5x5
I0403 15:42:10.245512   398 net.cpp:386] inception_3a/relu_5x5 -> inception_3a/5x5 (in-place)
I0403 15:42:10.245682   398 net.cpp:141] Setting up inception_3a/relu_5x5
I0403 15:42:10.245707   398 net.cpp:148] Top shape: 24 32 28 28 (602112)
I0403 15:42:10.245723   398 net.cpp:156] Memory required for data: 541901856
I0403 15:42:10.245738   398 layer_factory.hpp:77] Creating layer inception_3a/pool
I0403 15:42:10.245755   398 net.cpp:91] Creating Layer inception_3a/pool
I0403 15:42:10.245771   398 net.cpp:425] inception_3a/pool <- pool2/3x3_s2_pool2/3x3_s2_0_split_3
I0403 15:42:10.245807   398 net.cpp:399] inception_3a/pool -> inception_3a/pool
I0403 15:42:10.245869   398 net.cpp:141] Setting up inception_3a/pool
I0403 15:42:10.245898   398 net.cpp:148] Top shape: 24 192 28 28 (3612672)
I0403 15:42:10.245918   398 net.cpp:156] Memory required for data: 556352544
I0403 15:42:10.245939   398 layer_factory.hpp:77] Creating layer inception_3a/pool_proj
I0403 15:42:10.245965   398 net.cpp:91] Creating Layer inception_3a/pool_proj
I0403 15:42:10.245987   398 net.cpp:425] inception_3a/pool_proj <- inception_3a/pool
I0403 15:42:10.246016   398 net.cpp:399] inception_3a/pool_proj -> inception_3a/pool_proj
I0403 15:42:10.246975   398 net.cpp:141] Setting up inception_3a/pool_proj
I0403 15:42:10.247009   398 net.cpp:148] Top shape: 24 32 28 28 (602112)
I0403 15:42:10.247026   398 net.cpp:156] Memory required for data: 558760992
I0403 15:42:10.247056   398 layer_factory.hpp:77] Creating layer inception_3a/relu_pool_proj
I0403 15:42:10.247082   398 net.cpp:91] Creating Layer inception_3a/relu_pool_proj
I0403 15:42:10.247099   398 net.cpp:425] inception_3a/relu_pool_proj <- inception_3a/pool_proj
I0403 15:42:10.247117   398 net.cpp:386] inception_3a/relu_pool_proj -> inception_3a/pool_proj (in-place)
I0403 15:42:10.247398   398 net.cpp:141] Setting up inception_3a/relu_pool_proj
I0403 15:42:10.247431   398 net.cpp:148] Top shape: 24 32 28 28 (602112)
I0403 15:42:10.247447   398 net.cpp:156] Memory required for data: 561169440
I0403 15:42:10.247462   398 layer_factory.hpp:77] Creating layer inception_3a/output
I0403 15:42:10.247479   398 net.cpp:91] Creating Layer inception_3a/output
I0403 15:42:10.247501   398 net.cpp:425] inception_3a/output <- inception_3a/1x1
I0403 15:42:10.247524   398 net.cpp:425] inception_3a/output <- inception_3a/3x3
I0403 15:42:10.247542   398 net.cpp:425] inception_3a/output <- inception_3a/5x5
I0403 15:42:10.247565   398 net.cpp:425] inception_3a/output <- inception_3a/pool_proj
I0403 15:42:10.247591   398 net.cpp:399] inception_3a/output -> inception_3a/output
I0403 15:42:10.247647   398 net.cpp:141] Setting up inception_3a/output
I0403 15:42:10.247673   398 net.cpp:148] Top shape: 24 256 28 28 (4816896)
I0403 15:42:10.247687   398 net.cpp:156] Memory required for data: 580437024
I0403 15:42:10.247704   398 layer_factory.hpp:77] Creating layer inception_3a/output_inception_3a/output_0_split
I0403 15:42:10.247720   398 net.cpp:91] Creating Layer inception_3a/output_inception_3a/output_0_split
I0403 15:42:10.247735   398 net.cpp:425] inception_3a/output_inception_3a/output_0_split <- inception_3a/output
I0403 15:42:10.247751   398 net.cpp:399] inception_3a/output_inception_3a/output_0_split -> inception_3a/output_inception_3a/output_0_split_0
I0403 15:42:10.247774   398 net.cpp:399] inception_3a/output_inception_3a/output_0_split -> inception_3a/output_inception_3a/output_0_split_1
I0403 15:42:10.247797   398 net.cpp:399] inception_3a/output_inception_3a/output_0_split -> inception_3a/output_inception_3a/output_0_split_2
I0403 15:42:10.247818   398 net.cpp:399] inception_3a/output_inception_3a/output_0_split -> inception_3a/output_inception_3a/output_0_split_3
I0403 15:42:10.247891   398 net.cpp:141] Setting up inception_3a/output_inception_3a/output_0_split
I0403 15:42:10.247920   398 net.cpp:148] Top shape: 24 256 28 28 (4816896)
I0403 15:42:10.247937   398 net.cpp:148] Top shape: 24 256 28 28 (4816896)
I0403 15:42:10.247953   398 net.cpp:148] Top shape: 24 256 28 28 (4816896)
I0403 15:42:10.247970   398 net.cpp:148] Top shape: 24 256 28 28 (4816896)
I0403 15:42:10.247989   398 net.cpp:156] Memory required for data: 657507360
I0403 15:42:10.248004   398 layer_factory.hpp:77] Creating layer inception_3b/1x1
I0403 15:42:10.248026   398 net.cpp:91] Creating Layer inception_3b/1x1
I0403 15:42:10.248049   398 net.cpp:425] inception_3b/1x1 <- inception_3a/output_inception_3a/output_0_split_0
I0403 15:42:10.248080   398 net.cpp:399] inception_3b/1x1 -> inception_3b/1x1
I0403 15:42:10.249248   398 net.cpp:141] Setting up inception_3b/1x1
I0403 15:42:10.249295   398 net.cpp:148] Top shape: 24 128 28 28 (2408448)
I0403 15:42:10.249313   398 net.cpp:156] Memory required for data: 667141152
I0403 15:42:10.249332   398 layer_factory.hpp:77] Creating layer inception_3b/relu_1x1
I0403 15:42:10.249351   398 net.cpp:91] Creating Layer inception_3b/relu_1x1
I0403 15:42:10.249368   398 net.cpp:425] inception_3b/relu_1x1 <- inception_3b/1x1
I0403 15:42:10.249387   398 net.cpp:386] inception_3b/relu_1x1 -> inception_3b/1x1 (in-place)
I0403 15:42:10.249562   398 net.cpp:141] Setting up inception_3b/relu_1x1
I0403 15:42:10.249586   398 net.cpp:148] Top shape: 24 128 28 28 (2408448)
I0403 15:42:10.249601   398 net.cpp:156] Memory required for data: 676774944
I0403 15:42:10.249617   398 layer_factory.hpp:77] Creating layer inception_3b/3x3_reduce
I0403 15:42:10.249640   398 net.cpp:91] Creating Layer inception_3b/3x3_reduce
I0403 15:42:10.249657   398 net.cpp:425] inception_3b/3x3_reduce <- inception_3a/output_inception_3a/output_0_split_1
I0403 15:42:10.249678   398 net.cpp:399] inception_3b/3x3_reduce -> inception_3b/3x3_reduce
I0403 15:42:10.250798   398 net.cpp:141] Setting up inception_3b/3x3_reduce
I0403 15:42:10.250829   398 net.cpp:148] Top shape: 24 128 28 28 (2408448)
I0403 15:42:10.250846   398 net.cpp:156] Memory required for data: 686408736
I0403 15:42:10.250864   398 layer_factory.hpp:77] Creating layer inception_3b/relu_3x3_reduce
I0403 15:42:10.250883   398 net.cpp:91] Creating Layer inception_3b/relu_3x3_reduce
I0403 15:42:10.250900   398 net.cpp:425] inception_3b/relu_3x3_reduce <- inception_3b/3x3_reduce
I0403 15:42:10.250921   398 net.cpp:386] inception_3b/relu_3x3_reduce -> inception_3b/3x3_reduce (in-place)
I0403 15:42:10.251091   398 net.cpp:141] Setting up inception_3b/relu_3x3_reduce
I0403 15:42:10.251126   398 net.cpp:148] Top shape: 24 128 28 28 (2408448)
I0403 15:42:10.251140   398 net.cpp:156] Memory required for data: 696042528
I0403 15:42:10.251155   398 layer_factory.hpp:77] Creating layer inception_3b/3x3
I0403 15:42:10.251181   398 net.cpp:91] Creating Layer inception_3b/3x3
I0403 15:42:10.251211   398 net.cpp:425] inception_3b/3x3 <- inception_3b/3x3_reduce
I0403 15:42:10.251231   398 net.cpp:399] inception_3b/3x3 -> inception_3b/3x3
I0403 15:42:10.254081   398 net.cpp:141] Setting up inception_3b/3x3
I0403 15:42:10.254111   398 net.cpp:148] Top shape: 24 192 28 28 (3612672)
I0403 15:42:10.254127   398 net.cpp:156] Memory required for data: 710493216
I0403 15:42:10.254144   398 layer_factory.hpp:77] Creating layer inception_3b/relu_3x3
I0403 15:42:10.254163   398 net.cpp:91] Creating Layer inception_3b/relu_3x3
I0403 15:42:10.254179   398 net.cpp:425] inception_3b/relu_3x3 <- inception_3b/3x3
I0403 15:42:10.254199   398 net.cpp:386] inception_3b/relu_3x3 -> inception_3b/3x3 (in-place)
I0403 15:42:10.254472   398 net.cpp:141] Setting up inception_3b/relu_3x3
I0403 15:42:10.254499   398 net.cpp:148] Top shape: 24 192 28 28 (3612672)
I0403 15:42:10.254514   398 net.cpp:156] Memory required for data: 724943904
I0403 15:42:10.254529   398 layer_factory.hpp:77] Creating layer inception_3b/5x5_reduce
I0403 15:42:10.254552   398 net.cpp:91] Creating Layer inception_3b/5x5_reduce
I0403 15:42:10.254571   398 net.cpp:425] inception_3b/5x5_reduce <- inception_3a/output_inception_3a/output_0_split_2
I0403 15:42:10.254592   398 net.cpp:399] inception_3b/5x5_reduce -> inception_3b/5x5_reduce
I0403 15:42:10.255545   398 net.cpp:141] Setting up inception_3b/5x5_reduce
I0403 15:42:10.255578   398 net.cpp:148] Top shape: 24 32 28 28 (602112)
I0403 15:42:10.255592   398 net.cpp:156] Memory required for data: 727352352
I0403 15:42:10.255611   398 layer_factory.hpp:77] Creating layer inception_3b/relu_5x5_reduce
I0403 15:42:10.255630   398 net.cpp:91] Creating Layer inception_3b/relu_5x5_reduce
I0403 15:42:10.255645   398 net.cpp:425] inception_3b/relu_5x5_reduce <- inception_3b/5x5_reduce
I0403 15:42:10.255664   398 net.cpp:386] inception_3b/relu_5x5_reduce -> inception_3b/5x5_reduce (in-place)
I0403 15:42:10.255834   398 net.cpp:141] Setting up inception_3b/relu_5x5_reduce
I0403 15:42:10.255872   398 net.cpp:148] Top shape: 24 32 28 28 (602112)
I0403 15:42:10.255887   398 net.cpp:156] Memory required for data: 729760800
I0403 15:42:10.255903   398 layer_factory.hpp:77] Creating layer inception_3b/5x5
I0403 15:42:10.255924   398 net.cpp:91] Creating Layer inception_3b/5x5
I0403 15:42:10.255941   398 net.cpp:425] inception_3b/5x5 <- inception_3b/5x5_reduce
I0403 15:42:10.255962   398 net.cpp:399] inception_3b/5x5 -> inception_3b/5x5
I0403 15:42:10.257875   398 net.cpp:141] Setting up inception_3b/5x5
I0403 15:42:10.257905   398 net.cpp:148] Top shape: 24 96 28 28 (1806336)
I0403 15:42:10.257920   398 net.cpp:156] Memory required for data: 736986144
I0403 15:42:10.257939   398 layer_factory.hpp:77] Creating layer inception_3b/relu_5x5
I0403 15:42:10.257959   398 net.cpp:91] Creating Layer inception_3b/relu_5x5
I0403 15:42:10.257975   398 net.cpp:425] inception_3b/relu_5x5 <- inception_3b/5x5
I0403 15:42:10.257993   398 net.cpp:386] inception_3b/relu_5x5 -> inception_3b/5x5 (in-place)
I0403 15:42:10.258177   398 net.cpp:141] Setting up inception_3b/relu_5x5
I0403 15:42:10.258203   398 net.cpp:148] Top shape: 24 96 28 28 (1806336)
I0403 15:42:10.258216   398 net.cpp:156] Memory required for data: 744211488
I0403 15:42:10.258232   398 layer_factory.hpp:77] Creating layer inception_3b/pool
I0403 15:42:10.258249   398 net.cpp:91] Creating Layer inception_3b/pool
I0403 15:42:10.258271   398 net.cpp:425] inception_3b/pool <- inception_3a/output_inception_3a/output_0_split_3
I0403 15:42:10.258290   398 net.cpp:399] inception_3b/pool -> inception_3b/pool
I0403 15:42:10.258343   398 net.cpp:141] Setting up inception_3b/pool
I0403 15:42:10.258381   398 net.cpp:148] Top shape: 24 256 28 28 (4816896)
I0403 15:42:10.258395   398 net.cpp:156] Memory required for data: 763479072
I0403 15:42:10.258410   398 layer_factory.hpp:77] Creating layer inception_3b/pool_proj
I0403 15:42:10.258436   398 net.cpp:91] Creating Layer inception_3b/pool_proj
I0403 15:42:10.258453   398 net.cpp:425] inception_3b/pool_proj <- inception_3b/pool
I0403 15:42:10.258472   398 net.cpp:399] inception_3b/pool_proj -> inception_3b/pool_proj
I0403 15:42:10.259524   398 net.cpp:141] Setting up inception_3b/pool_proj
I0403 15:42:10.259553   398 net.cpp:148] Top shape: 24 64 28 28 (1204224)
I0403 15:42:10.259569   398 net.cpp:156] Memory required for data: 768295968
I0403 15:42:10.259588   398 layer_factory.hpp:77] Creating layer inception_3b/relu_pool_proj
I0403 15:42:10.259608   398 net.cpp:91] Creating Layer inception_3b/relu_pool_proj
I0403 15:42:10.259626   398 net.cpp:425] inception_3b/relu_pool_proj <- inception_3b/pool_proj
I0403 15:42:10.259644   398 net.cpp:386] inception_3b/relu_pool_proj -> inception_3b/pool_proj (in-place)
I0403 15:42:10.260023   398 net.cpp:141] Setting up inception_3b/relu_pool_proj
I0403 15:42:10.260051   398 net.cpp:148] Top shape: 24 64 28 28 (1204224)
I0403 15:42:10.260066   398 net.cpp:156] Memory required for data: 773112864
I0403 15:42:10.260081   398 layer_factory.hpp:77] Creating layer inception_3b/output
I0403 15:42:10.260098   398 net.cpp:91] Creating Layer inception_3b/output
I0403 15:42:10.260114   398 net.cpp:425] inception_3b/output <- inception_3b/1x1
I0403 15:42:10.260135   398 net.cpp:425] inception_3b/output <- inception_3b/3x3
I0403 15:42:10.260152   398 net.cpp:425] inception_3b/output <- inception_3b/5x5
I0403 15:42:10.260169   398 net.cpp:425] inception_3b/output <- inception_3b/pool_proj
I0403 15:42:10.260185   398 net.cpp:399] inception_3b/output -> inception_3b/output
I0403 15:42:10.260228   398 net.cpp:141] Setting up inception_3b/output
I0403 15:42:10.260257   398 net.cpp:148] Top shape: 24 480 28 28 (9031680)
I0403 15:42:10.260275   398 net.cpp:156] Memory required for data: 809239584
I0403 15:42:10.260290   398 layer_factory.hpp:77] Creating layer pool3/3x3_s2
I0403 15:42:10.260308   398 net.cpp:91] Creating Layer pool3/3x3_s2
I0403 15:42:10.260324   398 net.cpp:425] pool3/3x3_s2 <- inception_3b/output
I0403 15:42:10.260344   398 net.cpp:399] pool3/3x3_s2 -> pool3/3x3_s2
I0403 15:42:10.260416   398 net.cpp:141] Setting up pool3/3x3_s2
I0403 15:42:10.260442   398 net.cpp:148] Top shape: 24 480 14 14 (2257920)
I0403 15:42:10.260458   398 net.cpp:156] Memory required for data: 818271264
I0403 15:42:10.260473   398 layer_factory.hpp:77] Creating layer pool3/3x3_s2_pool3/3x3_s2_0_split
I0403 15:42:10.260491   398 net.cpp:91] Creating Layer pool3/3x3_s2_pool3/3x3_s2_0_split
I0403 15:42:10.260506   398 net.cpp:425] pool3/3x3_s2_pool3/3x3_s2_0_split <- pool3/3x3_s2
I0403 15:42:10.260524   398 net.cpp:399] pool3/3x3_s2_pool3/3x3_s2_0_split -> pool3/3x3_s2_pool3/3x3_s2_0_split_0
I0403 15:42:10.260558   398 net.cpp:399] pool3/3x3_s2_pool3/3x3_s2_0_split -> pool3/3x3_s2_pool3/3x3_s2_0_split_1
I0403 15:42:10.260582   398 net.cpp:399] pool3/3x3_s2_pool3/3x3_s2_0_split -> pool3/3x3_s2_pool3/3x3_s2_0_split_2
I0403 15:42:10.260603   398 net.cpp:399] pool3/3x3_s2_pool3/3x3_s2_0_split -> pool3/3x3_s2_pool3/3x3_s2_0_split_3
I0403 15:42:10.260681   398 net.cpp:141] Setting up pool3/3x3_s2_pool3/3x3_s2_0_split
I0403 15:42:10.260705   398 net.cpp:148] Top shape: 24 480 14 14 (2257920)
I0403 15:42:10.260722   398 net.cpp:148] Top shape: 24 480 14 14 (2257920)
I0403 15:42:10.260737   398 net.cpp:148] Top shape: 24 480 14 14 (2257920)
I0403 15:42:10.260753   398 net.cpp:148] Top shape: 24 480 14 14 (2257920)
I0403 15:42:10.260768   398 net.cpp:156] Memory required for data: 854397984
I0403 15:42:10.260783   398 layer_factory.hpp:77] Creating layer inception_4a/1x1
I0403 15:42:10.260807   398 net.cpp:91] Creating Layer inception_4a/1x1
I0403 15:42:10.260838   398 net.cpp:425] inception_4a/1x1 <- pool3/3x3_s2_pool3/3x3_s2_0_split_0
I0403 15:42:10.260859   398 net.cpp:399] inception_4a/1x1 -> inception_4a/1x1
I0403 15:42:10.262430   398 net.cpp:141] Setting up inception_4a/1x1
I0403 15:42:10.262459   398 net.cpp:148] Top shape: 24 192 14 14 (903168)
I0403 15:42:10.262475   398 net.cpp:156] Memory required for data: 858010656
I0403 15:42:10.262492   398 layer_factory.hpp:77] Creating layer inception_4a/relu_1x1
I0403 15:42:10.262512   398 net.cpp:91] Creating Layer inception_4a/relu_1x1
I0403 15:42:10.262529   398 net.cpp:425] inception_4a/relu_1x1 <- inception_4a/1x1
I0403 15:42:10.262547   398 net.cpp:386] inception_4a/relu_1x1 -> inception_4a/1x1 (in-place)
I0403 15:42:10.262724   398 net.cpp:141] Setting up inception_4a/relu_1x1
I0403 15:42:10.262754   398 net.cpp:148] Top shape: 24 192 14 14 (903168)
I0403 15:42:10.262770   398 net.cpp:156] Memory required for data: 861623328
I0403 15:42:10.262785   398 layer_factory.hpp:77] Creating layer inception_4a/3x3_reduce
I0403 15:42:10.262807   398 net.cpp:91] Creating Layer inception_4a/3x3_reduce
I0403 15:42:10.262825   398 net.cpp:425] inception_4a/3x3_reduce <- pool3/3x3_s2_pool3/3x3_s2_0_split_1
I0403 15:42:10.262845   398 net.cpp:399] inception_4a/3x3_reduce -> inception_4a/3x3_reduce
I0403 15:42:10.264142   398 net.cpp:141] Setting up inception_4a/3x3_reduce
I0403 15:42:10.264169   398 net.cpp:148] Top shape: 24 96 14 14 (451584)
I0403 15:42:10.264185   398 net.cpp:156] Memory required for data: 863429664
I0403 15:42:10.264211   398 layer_factory.hpp:77] Creating layer inception_4a/relu_3x3_reduce
I0403 15:42:10.264235   398 net.cpp:91] Creating Layer inception_4a/relu_3x3_reduce
I0403 15:42:10.264262   398 net.cpp:425] inception_4a/relu_3x3_reduce <- inception_4a/3x3_reduce
I0403 15:42:10.264284   398 net.cpp:386] inception_4a/relu_3x3_reduce -> inception_4a/3x3_reduce (in-place)
I0403 15:42:10.264459   398 net.cpp:141] Setting up inception_4a/relu_3x3_reduce
I0403 15:42:10.264487   398 net.cpp:148] Top shape: 24 96 14 14 (451584)
I0403 15:42:10.264503   398 net.cpp:156] Memory required for data: 865236000
I0403 15:42:10.264518   398 layer_factory.hpp:77] Creating layer inception_4a/3x3
I0403 15:42:10.264540   398 net.cpp:91] Creating Layer inception_4a/3x3
I0403 15:42:10.264559   398 net.cpp:425] inception_4a/3x3 <- inception_4a/3x3_reduce
I0403 15:42:10.264580   398 net.cpp:399] inception_4a/3x3 -> inception_4a/3x3
I0403 15:42:10.267225   398 net.cpp:141] Setting up inception_4a/3x3
I0403 15:42:10.267262   398 net.cpp:148] Top shape: 24 208 14 14 (978432)
I0403 15:42:10.267282   398 net.cpp:156] Memory required for data: 869149728
I0403 15:42:10.267299   398 layer_factory.hpp:77] Creating layer inception_4a/relu_3x3
I0403 15:42:10.267318   398 net.cpp:91] Creating Layer inception_4a/relu_3x3
I0403 15:42:10.267334   398 net.cpp:425] inception_4a/relu_3x3 <- inception_4a/3x3
I0403 15:42:10.267354   398 net.cpp:386] inception_4a/relu_3x3 -> inception_4a/3x3 (in-place)
I0403 15:42:10.267632   398 net.cpp:141] Setting up inception_4a/relu_3x3
I0403 15:42:10.267662   398 net.cpp:148] Top shape: 24 208 14 14 (978432)
I0403 15:42:10.267678   398 net.cpp:156] Memory required for data: 873063456
I0403 15:42:10.267693   398 layer_factory.hpp:77] Creating layer inception_4a/5x5_reduce
I0403 15:42:10.267716   398 net.cpp:91] Creating Layer inception_4a/5x5_reduce
I0403 15:42:10.267735   398 net.cpp:425] inception_4a/5x5_reduce <- pool3/3x3_s2_pool3/3x3_s2_0_split_2
I0403 15:42:10.267755   398 net.cpp:399] inception_4a/5x5_reduce -> inception_4a/5x5_reduce
I0403 15:42:10.268797   398 net.cpp:141] Setting up inception_4a/5x5_reduce
I0403 15:42:10.268827   398 net.cpp:148] Top shape: 24 16 14 14 (75264)
I0403 15:42:10.268846   398 net.cpp:156] Memory required for data: 873364512
I0403 15:42:10.268864   398 layer_factory.hpp:77] Creating layer inception_4a/relu_5x5_reduce
I0403 15:42:10.268882   398 net.cpp:91] Creating Layer inception_4a/relu_5x5_reduce
I0403 15:42:10.268898   398 net.cpp:425] inception_4a/relu_5x5_reduce <- inception_4a/5x5_reduce
I0403 15:42:10.268918   398 net.cpp:386] inception_4a/relu_5x5_reduce -> inception_4a/5x5_reduce (in-place)
I0403 15:42:10.269098   398 net.cpp:141] Setting up inception_4a/relu_5x5_reduce
I0403 15:42:10.269124   398 net.cpp:148] Top shape: 24 16 14 14 (75264)
I0403 15:42:10.269139   398 net.cpp:156] Memory required for data: 873665568
I0403 15:42:10.269153   398 layer_factory.hpp:77] Creating layer inception_4a/5x5
I0403 15:42:10.269176   398 net.cpp:91] Creating Layer inception_4a/5x5
I0403 15:42:10.269193   398 net.cpp:425] inception_4a/5x5 <- inception_4a/5x5_reduce
I0403 15:42:10.269217   398 net.cpp:399] inception_4a/5x5 -> inception_4a/5x5
I0403 15:42:10.270300   398 net.cpp:141] Setting up inception_4a/5x5
I0403 15:42:10.270329   398 net.cpp:148] Top shape: 24 48 14 14 (225792)
I0403 15:42:10.270345   398 net.cpp:156] Memory required for data: 874568736
I0403 15:42:10.270364   398 layer_factory.hpp:77] Creating layer inception_4a/relu_5x5
I0403 15:42:10.270385   398 net.cpp:91] Creating Layer inception_4a/relu_5x5
I0403 15:42:10.270402   398 net.cpp:425] inception_4a/relu_5x5 <- inception_4a/5x5
I0403 15:42:10.270419   398 net.cpp:386] inception_4a/relu_5x5 -> inception_4a/5x5 (in-place)
I0403 15:42:10.270599   398 net.cpp:141] Setting up inception_4a/relu_5x5
I0403 15:42:10.270624   398 net.cpp:148] Top shape: 24 48 14 14 (225792)
I0403 15:42:10.270639   398 net.cpp:156] Memory required for data: 875471904
I0403 15:42:10.270654   398 layer_factory.hpp:77] Creating layer inception_4a/pool
I0403 15:42:10.270674   398 net.cpp:91] Creating Layer inception_4a/pool
I0403 15:42:10.270692   398 net.cpp:425] inception_4a/pool <- pool3/3x3_s2_pool3/3x3_s2_0_split_3
I0403 15:42:10.270710   398 net.cpp:399] inception_4a/pool -> inception_4a/pool
I0403 15:42:10.270771   398 net.cpp:141] Setting up inception_4a/pool
I0403 15:42:10.270795   398 net.cpp:148] Top shape: 24 480 14 14 (2257920)
I0403 15:42:10.270810   398 net.cpp:156] Memory required for data: 884503584
I0403 15:42:10.270825   398 layer_factory.hpp:77] Creating layer inception_4a/pool_proj
I0403 15:42:10.270848   398 net.cpp:91] Creating Layer inception_4a/pool_proj
I0403 15:42:10.270865   398 net.cpp:425] inception_4a/pool_proj <- inception_4a/pool
I0403 15:42:10.270886   398 net.cpp:399] inception_4a/pool_proj -> inception_4a/pool_proj
I0403 15:42:10.272073   398 net.cpp:141] Setting up inception_4a/pool_proj
I0403 15:42:10.272102   398 net.cpp:148] Top shape: 24 64 14 14 (301056)
I0403 15:42:10.272133   398 net.cpp:156] Memory required for data: 885707808
I0403 15:42:10.272153   398 layer_factory.hpp:77] Creating layer inception_4a/relu_pool_proj
I0403 15:42:10.272176   398 net.cpp:91] Creating Layer inception_4a/relu_pool_proj
I0403 15:42:10.272193   398 net.cpp:425] inception_4a/relu_pool_proj <- inception_4a/pool_proj
I0403 15:42:10.272212   398 net.cpp:386] inception_4a/relu_pool_proj -> inception_4a/pool_proj (in-place)
I0403 15:42:10.272495   398 net.cpp:141] Setting up inception_4a/relu_pool_proj
I0403 15:42:10.272522   398 net.cpp:148] Top shape: 24 64 14 14 (301056)
I0403 15:42:10.272537   398 net.cpp:156] Memory required for data: 886912032
I0403 15:42:10.272553   398 layer_factory.hpp:77] Creating layer inception_4a/output
I0403 15:42:10.272575   398 net.cpp:91] Creating Layer inception_4a/output
I0403 15:42:10.272591   398 net.cpp:425] inception_4a/output <- inception_4a/1x1
I0403 15:42:10.272608   398 net.cpp:425] inception_4a/output <- inception_4a/3x3
I0403 15:42:10.272624   398 net.cpp:425] inception_4a/output <- inception_4a/5x5
I0403 15:42:10.272641   398 net.cpp:425] inception_4a/output <- inception_4a/pool_proj
I0403 15:42:10.272658   398 net.cpp:399] inception_4a/output -> inception_4a/output
I0403 15:42:10.272704   398 net.cpp:141] Setting up inception_4a/output
I0403 15:42:10.272728   398 net.cpp:148] Top shape: 24 512 14 14 (2408448)
I0403 15:42:10.272743   398 net.cpp:156] Memory required for data: 896545824
I0403 15:42:10.272758   398 layer_factory.hpp:77] Creating layer inception_4a/output_inception_4a/output_0_split
I0403 15:42:10.272776   398 net.cpp:91] Creating Layer inception_4a/output_inception_4a/output_0_split
I0403 15:42:10.272792   398 net.cpp:425] inception_4a/output_inception_4a/output_0_split <- inception_4a/output
I0403 15:42:10.272812   398 net.cpp:399] inception_4a/output_inception_4a/output_0_split -> inception_4a/output_inception_4a/output_0_split_0
I0403 15:42:10.272835   398 net.cpp:399] inception_4a/output_inception_4a/output_0_split -> inception_4a/output_inception_4a/output_0_split_1
I0403 15:42:10.272855   398 net.cpp:399] inception_4a/output_inception_4a/output_0_split -> inception_4a/output_inception_4a/output_0_split_2
I0403 15:42:10.272874   398 net.cpp:399] inception_4a/output_inception_4a/output_0_split -> inception_4a/output_inception_4a/output_0_split_3
I0403 15:42:10.272896   398 net.cpp:399] inception_4a/output_inception_4a/output_0_split -> inception_4a/output_inception_4a/output_0_split_4
I0403 15:42:10.272987   398 net.cpp:141] Setting up inception_4a/output_inception_4a/output_0_split
I0403 15:42:10.273011   398 net.cpp:148] Top shape: 24 512 14 14 (2408448)
I0403 15:42:10.273030   398 net.cpp:148] Top shape: 24 512 14 14 (2408448)
I0403 15:42:10.273046   398 net.cpp:148] Top shape: 24 512 14 14 (2408448)
I0403 15:42:10.273061   398 net.cpp:148] Top shape: 24 512 14 14 (2408448)
I0403 15:42:10.273077   398 net.cpp:148] Top shape: 24 512 14 14 (2408448)
I0403 15:42:10.273092   398 net.cpp:156] Memory required for data: 944714784
I0403 15:42:10.273108   398 layer_factory.hpp:77] Creating layer loss1/ave_pool
I0403 15:42:10.273124   398 net.cpp:91] Creating Layer loss1/ave_pool
I0403 15:42:10.273140   398 net.cpp:425] loss1/ave_pool <- inception_4a/output_inception_4a/output_0_split_0
I0403 15:42:10.273160   398 net.cpp:399] loss1/ave_pool -> loss1/ave_pool
I0403 15:42:10.273385   398 net.cpp:141] Setting up loss1/ave_pool
I0403 15:42:10.273411   398 net.cpp:148] Top shape: 24 512 4 4 (196608)
I0403 15:42:10.273427   398 net.cpp:156] Memory required for data: 945501216
I0403 15:42:10.273442   398 layer_factory.hpp:77] Creating layer loss1/conv
I0403 15:42:10.273465   398 net.cpp:91] Creating Layer loss1/conv
I0403 15:42:10.273483   398 net.cpp:425] loss1/conv <- loss1/ave_pool
I0403 15:42:10.273505   398 net.cpp:399] loss1/conv -> loss1/conv
I0403 15:42:10.274919   398 net.cpp:141] Setting up loss1/conv
I0403 15:42:10.274950   398 net.cpp:148] Top shape: 24 128 4 4 (49152)
I0403 15:42:10.274969   398 net.cpp:156] Memory required for data: 945697824
I0403 15:42:10.275002   398 layer_factory.hpp:77] Creating layer loss1/relu_conv
I0403 15:42:10.275022   398 net.cpp:91] Creating Layer loss1/relu_conv
I0403 15:42:10.275039   398 net.cpp:425] loss1/relu_conv <- loss1/conv
I0403 15:42:10.275059   398 net.cpp:386] loss1/relu_conv -> loss1/conv (in-place)
I0403 15:42:10.275344   398 net.cpp:141] Setting up loss1/relu_conv
I0403 15:42:10.275373   398 net.cpp:148] Top shape: 24 128 4 4 (49152)
I0403 15:42:10.275390   398 net.cpp:156] Memory required for data: 945894432
I0403 15:42:10.275405   398 layer_factory.hpp:77] Creating layer loss1/fc
I0403 15:42:10.275430   398 net.cpp:91] Creating Layer loss1/fc
I0403 15:42:10.275449   398 net.cpp:425] loss1/fc <- loss1/conv
I0403 15:42:10.275470   398 net.cpp:399] loss1/fc -> loss1/fc
I0403 15:42:10.292886   398 net.cpp:141] Setting up loss1/fc
I0403 15:42:10.292919   398 net.cpp:148] Top shape: 24 1024 (24576)
I0403 15:42:10.292934   398 net.cpp:156] Memory required for data: 945992736
I0403 15:42:10.292953   398 layer_factory.hpp:77] Creating layer loss1/relu_fc
I0403 15:42:10.292975   398 net.cpp:91] Creating Layer loss1/relu_fc
I0403 15:42:10.292992   398 net.cpp:425] loss1/relu_fc <- loss1/fc
I0403 15:42:10.293009   398 net.cpp:386] loss1/relu_fc -> loss1/fc (in-place)
I0403 15:42:10.293193   398 net.cpp:141] Setting up loss1/relu_fc
I0403 15:42:10.293220   398 net.cpp:148] Top shape: 24 1024 (24576)
I0403 15:42:10.293236   398 net.cpp:156] Memory required for data: 946091040
I0403 15:42:10.293251   398 layer_factory.hpp:77] Creating layer loss1/drop_fc
I0403 15:42:10.293282   398 net.cpp:91] Creating Layer loss1/drop_fc
I0403 15:42:10.293300   398 net.cpp:425] loss1/drop_fc <- loss1/fc
I0403 15:42:10.293319   398 net.cpp:386] loss1/drop_fc -> loss1/fc (in-place)
I0403 15:42:10.293385   398 net.cpp:141] Setting up loss1/drop_fc
I0403 15:42:10.293407   398 net.cpp:148] Top shape: 24 1024 (24576)
I0403 15:42:10.293422   398 net.cpp:156] Memory required for data: 946189344
I0403 15:42:10.293438   398 layer_factory.hpp:77] Creating layer loss1/classifier_plantvillage
I0403 15:42:10.293460   398 net.cpp:91] Creating Layer loss1/classifier_plantvillage
I0403 15:42:10.293478   398 net.cpp:425] loss1/classifier_plantvillage <- loss1/fc
I0403 15:42:10.293496   398 net.cpp:399] loss1/classifier_plantvillage -> loss1/classifier_plantvillage
I0403 15:42:10.294425   398 net.cpp:141] Setting up loss1/classifier_plantvillage
I0403 15:42:10.294452   398 net.cpp:148] Top shape: 24 38 (912)
I0403 15:42:10.294468   398 net.cpp:156] Memory required for data: 946192992
I0403 15:42:10.294486   398 layer_factory.hpp:77] Creating layer loss1/classifier_plantvillage_loss1/classifier_plantvillage_0_split
I0403 15:42:10.294507   398 net.cpp:91] Creating Layer loss1/classifier_plantvillage_loss1/classifier_plantvillage_0_split
I0403 15:42:10.294523   398 net.cpp:425] loss1/classifier_plantvillage_loss1/classifier_plantvillage_0_split <- loss1/classifier_plantvillage
I0403 15:42:10.294541   398 net.cpp:399] loss1/classifier_plantvillage_loss1/classifier_plantvillage_0_split -> loss1/classifier_plantvillage_loss1/classifier_plantvillage_0_split_0
I0403 15:42:10.294564   398 net.cpp:399] loss1/classifier_plantvillage_loss1/classifier_plantvillage_0_split -> loss1/classifier_plantvillage_loss1/classifier_plantvillage_0_split_1
I0403 15:42:10.294585   398 net.cpp:399] loss1/classifier_plantvillage_loss1/classifier_plantvillage_0_split -> loss1/classifier_plantvillage_loss1/classifier_plantvillage_0_split_2
I0403 15:42:10.294651   398 net.cpp:141] Setting up loss1/classifier_plantvillage_loss1/classifier_plantvillage_0_split
I0403 15:42:10.294675   398 net.cpp:148] Top shape: 24 38 (912)
I0403 15:42:10.294692   398 net.cpp:148] Top shape: 24 38 (912)
I0403 15:42:10.294706   398 net.cpp:148] Top shape: 24 38 (912)
I0403 15:42:10.294720   398 net.cpp:156] Memory required for data: 946203936
I0403 15:42:10.294735   398 layer_factory.hpp:77] Creating layer inception_4b/1x1
I0403 15:42:10.294757   398 net.cpp:91] Creating Layer inception_4b/1x1
I0403 15:42:10.294790   398 net.cpp:425] inception_4b/1x1 <- inception_4a/output_inception_4a/output_0_split_1
I0403 15:42:10.294809   398 net.cpp:399] inception_4b/1x1 -> inception_4b/1x1
I0403 15:42:10.296392   398 net.cpp:141] Setting up inception_4b/1x1
I0403 15:42:10.296422   398 net.cpp:148] Top shape: 24 160 14 14 (752640)
I0403 15:42:10.296440   398 net.cpp:156] Memory required for data: 949214496
I0403 15:42:10.296460   398 layer_factory.hpp:77] Creating layer inception_4b/relu_1x1
I0403 15:42:10.296478   398 net.cpp:91] Creating Layer inception_4b/relu_1x1
I0403 15:42:10.296494   398 net.cpp:425] inception_4b/relu_1x1 <- inception_4b/1x1
I0403 15:42:10.296512   398 net.cpp:386] inception_4b/relu_1x1 -> inception_4b/1x1 (in-place)
I0403 15:42:10.296689   398 net.cpp:141] Setting up inception_4b/relu_1x1
I0403 15:42:10.296715   398 net.cpp:148] Top shape: 24 160 14 14 (752640)
I0403 15:42:10.296728   398 net.cpp:156] Memory required for data: 952225056
I0403 15:42:10.296744   398 layer_factory.hpp:77] Creating layer inception_4b/3x3_reduce
I0403 15:42:10.296766   398 net.cpp:91] Creating Layer inception_4b/3x3_reduce
I0403 15:42:10.296782   398 net.cpp:425] inception_4b/3x3_reduce <- inception_4a/output_inception_4a/output_0_split_2
I0403 15:42:10.296803   398 net.cpp:399] inception_4b/3x3_reduce -> inception_4b/3x3_reduce
I0403 15:42:10.298108   398 net.cpp:141] Setting up inception_4b/3x3_reduce
I0403 15:42:10.298137   398 net.cpp:148] Top shape: 24 112 14 14 (526848)
I0403 15:42:10.298153   398 net.cpp:156] Memory required for data: 954332448
I0403 15:42:10.298172   398 layer_factory.hpp:77] Creating layer inception_4b/relu_3x3_reduce
I0403 15:42:10.298189   398 net.cpp:91] Creating Layer inception_4b/relu_3x3_reduce
I0403 15:42:10.298205   398 net.cpp:425] inception_4b/relu_3x3_reduce <- inception_4b/3x3_reduce
I0403 15:42:10.298224   398 net.cpp:386] inception_4b/relu_3x3_reduce -> inception_4b/3x3_reduce (in-place)
I0403 15:42:10.298519   398 net.cpp:141] Setting up inception_4b/relu_3x3_reduce
I0403 15:42:10.298547   398 net.cpp:148] Top shape: 24 112 14 14 (526848)
I0403 15:42:10.298563   398 net.cpp:156] Memory required for data: 956439840
I0403 15:42:10.298578   398 layer_factory.hpp:77] Creating layer inception_4b/3x3
I0403 15:42:10.298600   398 net.cpp:91] Creating Layer inception_4b/3x3
I0403 15:42:10.298619   398 net.cpp:425] inception_4b/3x3 <- inception_4b/3x3_reduce
I0403 15:42:10.298640   398 net.cpp:399] inception_4b/3x3 -> inception_4b/3x3
I0403 15:42:10.301520   398 net.cpp:141] Setting up inception_4b/3x3
I0403 15:42:10.301549   398 net.cpp:148] Top shape: 24 224 14 14 (1053696)
I0403 15:42:10.301565   398 net.cpp:156] Memory required for data: 960654624
I0403 15:42:10.301584   398 layer_factory.hpp:77] Creating layer inception_4b/relu_3x3
I0403 15:42:10.301606   398 net.cpp:91] Creating Layer inception_4b/relu_3x3
I0403 15:42:10.301625   398 net.cpp:425] inception_4b/relu_3x3 <- inception_4b/3x3
I0403 15:42:10.301642   398 net.cpp:386] inception_4b/relu_3x3 -> inception_4b/3x3 (in-place)
I0403 15:42:10.301818   398 net.cpp:141] Setting up inception_4b/relu_3x3
I0403 15:42:10.301843   398 net.cpp:148] Top shape: 24 224 14 14 (1053696)
I0403 15:42:10.301859   398 net.cpp:156] Memory required for data: 964869408
I0403 15:42:10.301875   398 layer_factory.hpp:77] Creating layer inception_4b/5x5_reduce
I0403 15:42:10.301898   398 net.cpp:91] Creating Layer inception_4b/5x5_reduce
I0403 15:42:10.301914   398 net.cpp:425] inception_4b/5x5_reduce <- inception_4a/output_inception_4a/output_0_split_3
I0403 15:42:10.301937   398 net.cpp:399] inception_4b/5x5_reduce -> inception_4b/5x5_reduce
I0403 15:42:10.302981   398 net.cpp:141] Setting up inception_4b/5x5_reduce
I0403 15:42:10.303009   398 net.cpp:148] Top shape: 24 24 14 14 (112896)
I0403 15:42:10.303025   398 net.cpp:156] Memory required for data: 965320992
I0403 15:42:10.303043   398 layer_factory.hpp:77] Creating layer inception_4b/relu_5x5_reduce
I0403 15:42:10.303061   398 net.cpp:91] Creating Layer inception_4b/relu_5x5_reduce
I0403 15:42:10.303093   398 net.cpp:425] inception_4b/relu_5x5_reduce <- inception_4b/5x5_reduce
I0403 15:42:10.303114   398 net.cpp:386] inception_4b/relu_5x5_reduce -> inception_4b/5x5_reduce (in-place)
I0403 15:42:10.303297   398 net.cpp:141] Setting up inception_4b/relu_5x5_reduce
I0403 15:42:10.303323   398 net.cpp:148] Top shape: 24 24 14 14 (112896)
I0403 15:42:10.303338   398 net.cpp:156] Memory required for data: 965772576
I0403 15:42:10.303365   398 layer_factory.hpp:77] Creating layer inception_4b/5x5
I0403 15:42:10.303390   398 net.cpp:91] Creating Layer inception_4b/5x5
I0403 15:42:10.303407   398 net.cpp:425] inception_4b/5x5 <- inception_4b/5x5_reduce
I0403 15:42:10.303428   398 net.cpp:399] inception_4b/5x5 -> inception_4b/5x5
I0403 15:42:10.304803   398 net.cpp:141] Setting up inception_4b/5x5
I0403 15:42:10.304834   398 net.cpp:148] Top shape: 24 64 14 14 (301056)
I0403 15:42:10.304852   398 net.cpp:156] Memory required for data: 966976800
I0403 15:42:10.304869   398 layer_factory.hpp:77] Creating layer inception_4b/relu_5x5
I0403 15:42:10.304886   398 net.cpp:91] Creating Layer inception_4b/relu_5x5
I0403 15:42:10.304903   398 net.cpp:425] inception_4b/relu_5x5 <- inception_4b/5x5
I0403 15:42:10.304922   398 net.cpp:386] inception_4b/relu_5x5 -> inception_4b/5x5 (in-place)
I0403 15:42:10.305200   398 net.cpp:141] Setting up inception_4b/relu_5x5
I0403 15:42:10.305230   398 net.cpp:148] Top shape: 24 64 14 14 (301056)
I0403 15:42:10.305248   398 net.cpp:156] Memory required for data: 968181024
I0403 15:42:10.305269   398 layer_factory.hpp:77] Creating layer inception_4b/pool
I0403 15:42:10.305287   398 net.cpp:91] Creating Layer inception_4b/pool
I0403 15:42:10.305304   398 net.cpp:425] inception_4b/pool <- inception_4a/output_inception_4a/output_0_split_4
I0403 15:42:10.305325   398 net.cpp:399] inception_4b/pool -> inception_4b/pool
I0403 15:42:10.305387   398 net.cpp:141] Setting up inception_4b/pool
I0403 15:42:10.305414   398 net.cpp:148] Top shape: 24 512 14 14 (2408448)
I0403 15:42:10.305430   398 net.cpp:156] Memory required for data: 977814816
I0403 15:42:10.305445   398 layer_factory.hpp:77] Creating layer inception_4b/pool_proj
I0403 15:42:10.305464   398 net.cpp:91] Creating Layer inception_4b/pool_proj
I0403 15:42:10.305482   398 net.cpp:425] inception_4b/pool_proj <- inception_4b/pool
I0403 15:42:10.305503   398 net.cpp:399] inception_4b/pool_proj -> inception_4b/pool_proj
I0403 15:42:10.306700   398 net.cpp:141] Setting up inception_4b/pool_proj
I0403 15:42:10.306730   398 net.cpp:148] Top shape: 24 64 14 14 (301056)
I0403 15:42:10.306746   398 net.cpp:156] Memory required for data: 979019040
I0403 15:42:10.306763   398 layer_factory.hpp:77] Creating layer inception_4b/relu_pool_proj
I0403 15:42:10.306782   398 net.cpp:91] Creating Layer inception_4b/relu_pool_proj
I0403 15:42:10.306800   398 net.cpp:425] inception_4b/relu_pool_proj <- inception_4b/pool_proj
I0403 15:42:10.306820   398 net.cpp:386] inception_4b/relu_pool_proj -> inception_4b/pool_proj (in-place)
I0403 15:42:10.306998   398 net.cpp:141] Setting up inception_4b/relu_pool_proj
I0403 15:42:10.307024   398 net.cpp:148] Top shape: 24 64 14 14 (301056)
I0403 15:42:10.307039   398 net.cpp:156] Memory required for data: 980223264
I0403 15:42:10.307054   398 layer_factory.hpp:77] Creating layer inception_4b/output
I0403 15:42:10.307072   398 net.cpp:91] Creating Layer inception_4b/output
I0403 15:42:10.307088   398 net.cpp:425] inception_4b/output <- inception_4b/1x1
I0403 15:42:10.307107   398 net.cpp:425] inception_4b/output <- inception_4b/3x3
I0403 15:42:10.307123   398 net.cpp:425] inception_4b/output <- inception_4b/5x5
I0403 15:42:10.307140   398 net.cpp:425] inception_4b/output <- inception_4b/pool_proj
I0403 15:42:10.307157   398 net.cpp:399] inception_4b/output -> inception_4b/output
I0403 15:42:10.307205   398 net.cpp:141] Setting up inception_4b/output
I0403 15:42:10.307229   398 net.cpp:148] Top shape: 24 512 14 14 (2408448)
I0403 15:42:10.307243   398 net.cpp:156] Memory required for data: 989857056
I0403 15:42:10.307276   398 layer_factory.hpp:77] Creating layer inception_4b/output_inception_4b/output_0_split
I0403 15:42:10.307296   398 net.cpp:91] Creating Layer inception_4b/output_inception_4b/output_0_split
I0403 15:42:10.307312   398 net.cpp:425] inception_4b/output_inception_4b/output_0_split <- inception_4b/output
I0403 15:42:10.307332   398 net.cpp:399] inception_4b/output_inception_4b/output_0_split -> inception_4b/output_inception_4b/output_0_split_0
I0403 15:42:10.307354   398 net.cpp:399] inception_4b/output_inception_4b/output_0_split -> inception_4b/output_inception_4b/output_0_split_1
I0403 15:42:10.307375   398 net.cpp:399] inception_4b/output_inception_4b/output_0_split -> inception_4b/output_inception_4b/output_0_split_2
I0403 15:42:10.307395   398 net.cpp:399] inception_4b/output_inception_4b/output_0_split -> inception_4b/output_inception_4b/output_0_split_3
I0403 15:42:10.307479   398 net.cpp:141] Setting up inception_4b/output_inception_4b/output_0_split
I0403 15:42:10.307507   398 net.cpp:148] Top shape: 24 512 14 14 (2408448)
I0403 15:42:10.307524   398 net.cpp:148] Top shape: 24 512 14 14 (2408448)
I0403 15:42:10.307541   398 net.cpp:148] Top shape: 24 512 14 14 (2408448)
I0403 15:42:10.307556   398 net.cpp:148] Top shape: 24 512 14 14 (2408448)
I0403 15:42:10.307570   398 net.cpp:156] Memory required for data: 1028392224
I0403 15:42:10.307585   398 layer_factory.hpp:77] Creating layer inception_4c/1x1
I0403 15:42:10.307607   398 net.cpp:91] Creating Layer inception_4c/1x1
I0403 15:42:10.307626   398 net.cpp:425] inception_4c/1x1 <- inception_4b/output_inception_4b/output_0_split_0
I0403 15:42:10.307646   398 net.cpp:399] inception_4c/1x1 -> inception_4c/1x1
I0403 15:42:10.309119   398 net.cpp:141] Setting up inception_4c/1x1
I0403 15:42:10.309147   398 net.cpp:148] Top shape: 24 128 14 14 (602112)
I0403 15:42:10.309165   398 net.cpp:156] Memory required for data: 1030800672
I0403 15:42:10.309185   398 layer_factory.hpp:77] Creating layer inception_4c/relu_1x1
I0403 15:42:10.309206   398 net.cpp:91] Creating Layer inception_4c/relu_1x1
I0403 15:42:10.309223   398 net.cpp:425] inception_4c/relu_1x1 <- inception_4c/1x1
I0403 15:42:10.309242   398 net.cpp:386] inception_4c/relu_1x1 -> inception_4c/1x1 (in-place)
I0403 15:42:10.309427   398 net.cpp:141] Setting up inception_4c/relu_1x1
I0403 15:42:10.309455   398 net.cpp:148] Top shape: 24 128 14 14 (602112)
I0403 15:42:10.309471   398 net.cpp:156] Memory required for data: 1033209120
I0403 15:42:10.309485   398 layer_factory.hpp:77] Creating layer inception_4c/3x3_reduce
I0403 15:42:10.309507   398 net.cpp:91] Creating Layer inception_4c/3x3_reduce
I0403 15:42:10.309525   398 net.cpp:425] inception_4c/3x3_reduce <- inception_4b/output_inception_4b/output_0_split_1
I0403 15:42:10.309545   398 net.cpp:399] inception_4c/3x3_reduce -> inception_4c/3x3_reduce
I0403 15:42:10.311489   398 net.cpp:141] Setting up inception_4c/3x3_reduce
I0403 15:42:10.311522   398 net.cpp:148] Top shape: 24 128 14 14 (602112)
I0403 15:42:10.311547   398 net.cpp:156] Memory required for data: 1035617568
I0403 15:42:10.311578   398 layer_factory.hpp:77] Creating layer inception_4c/relu_3x3_reduce
I0403 15:42:10.311596   398 net.cpp:91] Creating Layer inception_4c/relu_3x3_reduce
I0403 15:42:10.311619   398 net.cpp:425] inception_4c/relu_3x3_reduce <- inception_4c/3x3_reduce
I0403 15:42:10.311650   398 net.cpp:386] inception_4c/relu_3x3_reduce -> inception_4c/3x3_reduce (in-place)
I0403 15:42:10.311942   398 net.cpp:141] Setting up inception_4c/relu_3x3_reduce
I0403 15:42:10.311971   398 net.cpp:148] Top shape: 24 128 14 14 (602112)
I0403 15:42:10.311986   398 net.cpp:156] Memory required for data: 1038026016
I0403 15:42:10.312002   398 layer_factory.hpp:77] Creating layer inception_4c/3x3
I0403 15:42:10.312026   398 net.cpp:91] Creating Layer inception_4c/3x3
I0403 15:42:10.312044   398 net.cpp:425] inception_4c/3x3 <- inception_4c/3x3_reduce
I0403 15:42:10.312072   398 net.cpp:399] inception_4c/3x3 -> inception_4c/3x3
I0403 15:42:10.315744   398 net.cpp:141] Setting up inception_4c/3x3
I0403 15:42:10.315789   398 net.cpp:148] Top shape: 24 256 14 14 (1204224)
I0403 15:42:10.315807   398 net.cpp:156] Memory required for data: 1042842912
I0403 15:42:10.315840   398 layer_factory.hpp:77] Creating layer inception_4c/relu_3x3
I0403 15:42:10.315860   398 net.cpp:91] Creating Layer inception_4c/relu_3x3
I0403 15:42:10.315877   398 net.cpp:425] inception_4c/relu_3x3 <- inception_4c/3x3
I0403 15:42:10.315896   398 net.cpp:386] inception_4c/relu_3x3 -> inception_4c/3x3 (in-place)
I0403 15:42:10.316081   398 net.cpp:141] Setting up inception_4c/relu_3x3
I0403 15:42:10.316109   398 net.cpp:148] Top shape: 24 256 14 14 (1204224)
I0403 15:42:10.316133   398 net.cpp:156] Memory required for data: 1047659808
I0403 15:42:10.316151   398 layer_factory.hpp:77] Creating layer inception_4c/5x5_reduce
I0403 15:42:10.316185   398 net.cpp:91] Creating Layer inception_4c/5x5_reduce
I0403 15:42:10.316215   398 net.cpp:425] inception_4c/5x5_reduce <- inception_4b/output_inception_4b/output_0_split_2
I0403 15:42:10.316241   398 net.cpp:399] inception_4c/5x5_reduce -> inception_4c/5x5_reduce
I0403 15:42:10.317340   398 net.cpp:141] Setting up inception_4c/5x5_reduce
I0403 15:42:10.317379   398 net.cpp:148] Top shape: 24 24 14 14 (112896)
I0403 15:42:10.317400   398 net.cpp:156] Memory required for data: 1048111392
I0403 15:42:10.317420   398 layer_factory.hpp:77] Creating layer inception_4c/relu_5x5_reduce
I0403 15:42:10.317443   398 net.cpp:91] Creating Layer inception_4c/relu_5x5_reduce
I0403 15:42:10.317459   398 net.cpp:425] inception_4c/relu_5x5_reduce <- inception_4c/5x5_reduce
I0403 15:42:10.317479   398 net.cpp:386] inception_4c/relu_5x5_reduce -> inception_4c/5x5_reduce (in-place)
I0403 15:42:10.317664   398 net.cpp:141] Setting up inception_4c/relu_5x5_reduce
I0403 15:42:10.317690   398 net.cpp:148] Top shape: 24 24 14 14 (112896)
I0403 15:42:10.317704   398 net.cpp:156] Memory required for data: 1048562976
I0403 15:42:10.317720   398 layer_factory.hpp:77] Creating layer inception_4c/5x5
I0403 15:42:10.317742   398 net.cpp:91] Creating Layer inception_4c/5x5
I0403 15:42:10.317759   398 net.cpp:425] inception_4c/5x5 <- inception_4c/5x5_reduce
I0403 15:42:10.317780   398 net.cpp:399] inception_4c/5x5 -> inception_4c/5x5
I0403 15:42:10.319056   398 net.cpp:141] Setting up inception_4c/5x5
I0403 15:42:10.319085   398 net.cpp:148] Top shape: 24 64 14 14 (301056)
I0403 15:42:10.319100   398 net.cpp:156] Memory required for data: 1049767200
I0403 15:42:10.319123   398 layer_factory.hpp:77] Creating layer inception_4c/relu_5x5
I0403 15:42:10.319149   398 net.cpp:91] Creating Layer inception_4c/relu_5x5
I0403 15:42:10.319172   398 net.cpp:425] inception_4c/relu_5x5 <- inception_4c/5x5
I0403 15:42:10.319200   398 net.cpp:386] inception_4c/relu_5x5 -> inception_4c/5x5 (in-place)
I0403 15:42:10.319496   398 net.cpp:141] Setting up inception_4c/relu_5x5
I0403 15:42:10.319525   398 net.cpp:148] Top shape: 24 64 14 14 (301056)
I0403 15:42:10.319540   398 net.cpp:156] Memory required for data: 1050971424
I0403 15:42:10.319555   398 layer_factory.hpp:77] Creating layer inception_4c/pool
I0403 15:42:10.319578   398 net.cpp:91] Creating Layer inception_4c/pool
I0403 15:42:10.319596   398 net.cpp:425] inception_4c/pool <- inception_4b/output_inception_4b/output_0_split_3
I0403 15:42:10.319614   398 net.cpp:399] inception_4c/pool -> inception_4c/pool
I0403 15:42:10.319682   398 net.cpp:141] Setting up inception_4c/pool
I0403 15:42:10.319720   398 net.cpp:148] Top shape: 24 512 14 14 (2408448)
I0403 15:42:10.319735   398 net.cpp:156] Memory required for data: 1060605216
I0403 15:42:10.319749   398 layer_factory.hpp:77] Creating layer inception_4c/pool_proj
I0403 15:42:10.319772   398 net.cpp:91] Creating Layer inception_4c/pool_proj
I0403 15:42:10.319790   398 net.cpp:425] inception_4c/pool_proj <- inception_4c/pool
I0403 15:42:10.319814   398 net.cpp:399] inception_4c/pool_proj -> inception_4c/pool_proj
I0403 15:42:10.321053   398 net.cpp:141] Setting up inception_4c/pool_proj
I0403 15:42:10.321087   398 net.cpp:148] Top shape: 24 64 14 14 (301056)
I0403 15:42:10.321125   398 net.cpp:156] Memory required for data: 1061809440
I0403 15:42:10.321147   398 layer_factory.hpp:77] Creating layer inception_4c/relu_pool_proj
I0403 15:42:10.321166   398 net.cpp:91] Creating Layer inception_4c/relu_pool_proj
I0403 15:42:10.321183   398 net.cpp:425] inception_4c/relu_pool_proj <- inception_4c/pool_proj
I0403 15:42:10.321202   398 net.cpp:386] inception_4c/relu_pool_proj -> inception_4c/pool_proj (in-place)
I0403 15:42:10.321391   398 net.cpp:141] Setting up inception_4c/relu_pool_proj
I0403 15:42:10.321418   398 net.cpp:148] Top shape: 24 64 14 14 (301056)
I0403 15:42:10.321432   398 net.cpp:156] Memory required for data: 1063013664
I0403 15:42:10.321449   398 layer_factory.hpp:77] Creating layer inception_4c/output
I0403 15:42:10.321466   398 net.cpp:91] Creating Layer inception_4c/output
I0403 15:42:10.321481   398 net.cpp:425] inception_4c/output <- inception_4c/1x1
I0403 15:42:10.321499   398 net.cpp:425] inception_4c/output <- inception_4c/3x3
I0403 15:42:10.321521   398 net.cpp:425] inception_4c/output <- inception_4c/5x5
I0403 15:42:10.321537   398 net.cpp:425] inception_4c/output <- inception_4c/pool_proj
I0403 15:42:10.321557   398 net.cpp:399] inception_4c/output -> inception_4c/output
I0403 15:42:10.321610   398 net.cpp:141] Setting up inception_4c/output
I0403 15:42:10.321638   398 net.cpp:148] Top shape: 24 512 14 14 (2408448)
I0403 15:42:10.321657   398 net.cpp:156] Memory required for data: 1072647456
I0403 15:42:10.321682   398 layer_factory.hpp:77] Creating layer inception_4c/output_inception_4c/output_0_split
I0403 15:42:10.321702   398 net.cpp:91] Creating Layer inception_4c/output_inception_4c/output_0_split
I0403 15:42:10.321722   398 net.cpp:425] inception_4c/output_inception_4c/output_0_split <- inception_4c/output
I0403 15:42:10.321745   398 net.cpp:399] inception_4c/output_inception_4c/output_0_split -> inception_4c/output_inception_4c/output_0_split_0
I0403 15:42:10.321768   398 net.cpp:399] inception_4c/output_inception_4c/output_0_split -> inception_4c/output_inception_4c/output_0_split_1
I0403 15:42:10.321789   398 net.cpp:399] inception_4c/output_inception_4c/output_0_split -> inception_4c/output_inception_4c/output_0_split_2
I0403 15:42:10.321810   398 net.cpp:399] inception_4c/output_inception_4c/output_0_split -> inception_4c/output_inception_4c/output_0_split_3
I0403 15:42:10.321898   398 net.cpp:141] Setting up inception_4c/output_inception_4c/output_0_split
I0403 15:42:10.321925   398 net.cpp:148] Top shape: 24 512 14 14 (2408448)
I0403 15:42:10.321941   398 net.cpp:148] Top shape: 24 512 14 14 (2408448)
I0403 15:42:10.321959   398 net.cpp:148] Top shape: 24 512 14 14 (2408448)
I0403 15:42:10.321974   398 net.cpp:148] Top shape: 24 512 14 14 (2408448)
I0403 15:42:10.321986   398 net.cpp:156] Memory required for data: 1111182624
I0403 15:42:10.322001   398 layer_factory.hpp:77] Creating layer inception_4d/1x1
I0403 15:42:10.322024   398 net.cpp:91] Creating Layer inception_4d/1x1
I0403 15:42:10.322042   398 net.cpp:425] inception_4d/1x1 <- inception_4c/output_inception_4c/output_0_split_0
I0403 15:42:10.322062   398 net.cpp:399] inception_4d/1x1 -> inception_4d/1x1
I0403 15:42:10.323464   398 net.cpp:141] Setting up inception_4d/1x1
I0403 15:42:10.323495   398 net.cpp:148] Top shape: 24 112 14 14 (526848)
I0403 15:42:10.323513   398 net.cpp:156] Memory required for data: 1113290016
I0403 15:42:10.323531   398 layer_factory.hpp:77] Creating layer inception_4d/relu_1x1
I0403 15:42:10.323554   398 net.cpp:91] Creating Layer inception_4d/relu_1x1
I0403 15:42:10.323571   398 net.cpp:425] inception_4d/relu_1x1 <- inception_4d/1x1
I0403 15:42:10.323590   398 net.cpp:386] inception_4d/relu_1x1 -> inception_4d/1x1 (in-place)
I0403 15:42:10.323793   398 net.cpp:141] Setting up inception_4d/relu_1x1
I0403 15:42:10.323823   398 net.cpp:148] Top shape: 24 112 14 14 (526848)
I0403 15:42:10.323846   398 net.cpp:156] Memory required for data: 1115397408
I0403 15:42:10.323868   398 layer_factory.hpp:77] Creating layer inception_4d/3x3_reduce
I0403 15:42:10.323915   398 net.cpp:91] Creating Layer inception_4d/3x3_reduce
I0403 15:42:10.323933   398 net.cpp:425] inception_4d/3x3_reduce <- inception_4c/output_inception_4c/output_0_split_1
I0403 15:42:10.323956   398 net.cpp:399] inception_4d/3x3_reduce -> inception_4d/3x3_reduce
I0403 15:42:10.325484   398 net.cpp:141] Setting up inception_4d/3x3_reduce
I0403 15:42:10.325518   398 net.cpp:148] Top shape: 24 144 14 14 (677376)
I0403 15:42:10.325543   398 net.cpp:156] Memory required for data: 1118106912
I0403 15:42:10.325567   398 layer_factory.hpp:77] Creating layer inception_4d/relu_3x3_reduce
I0403 15:42:10.325592   398 net.cpp:91] Creating Layer inception_4d/relu_3x3_reduce
I0403 15:42:10.325609   398 net.cpp:425] inception_4d/relu_3x3_reduce <- inception_4d/3x3_reduce
I0403 15:42:10.325628   398 net.cpp:386] inception_4d/relu_3x3_reduce -> inception_4d/3x3_reduce (in-place)
I0403 15:42:10.325913   398 net.cpp:141] Setting up inception_4d/relu_3x3_reduce
I0403 15:42:10.325944   398 net.cpp:148] Top shape: 24 144 14 14 (677376)
I0403 15:42:10.325960   398 net.cpp:156] Memory required for data: 1120816416
I0403 15:42:10.325975   398 layer_factory.hpp:77] Creating layer inception_4d/3x3
I0403 15:42:10.325997   398 net.cpp:91] Creating Layer inception_4d/3x3
I0403 15:42:10.326019   398 net.cpp:425] inception_4d/3x3 <- inception_4d/3x3_reduce
I0403 15:42:10.326041   398 net.cpp:399] inception_4d/3x3 -> inception_4d/3x3
I0403 15:42:10.330313   398 net.cpp:141] Setting up inception_4d/3x3
I0403 15:42:10.330346   398 net.cpp:148] Top shape: 24 288 14 14 (1354752)
I0403 15:42:10.330363   398 net.cpp:156] Memory required for data: 1126235424
I0403 15:42:10.330384   398 layer_factory.hpp:77] Creating layer inception_4d/relu_3x3
I0403 15:42:10.330401   398 net.cpp:91] Creating Layer inception_4d/relu_3x3
I0403 15:42:10.330417   398 net.cpp:425] inception_4d/relu_3x3 <- inception_4d/3x3
I0403 15:42:10.330435   398 net.cpp:386] inception_4d/relu_3x3 -> inception_4d/3x3 (in-place)
I0403 15:42:10.330622   398 net.cpp:141] Setting up inception_4d/relu_3x3
I0403 15:42:10.330656   398 net.cpp:148] Top shape: 24 288 14 14 (1354752)
I0403 15:42:10.330677   398 net.cpp:156] Memory required for data: 1131654432
I0403 15:42:10.330698   398 layer_factory.hpp:77] Creating layer inception_4d/5x5_reduce
I0403 15:42:10.330726   398 net.cpp:91] Creating Layer inception_4d/5x5_reduce
I0403 15:42:10.330749   398 net.cpp:425] inception_4d/5x5_reduce <- inception_4c/output_inception_4c/output_0_split_2
I0403 15:42:10.330775   398 net.cpp:399] inception_4d/5x5_reduce -> inception_4d/5x5_reduce
I0403 15:42:10.331928   398 net.cpp:141] Setting up inception_4d/5x5_reduce
I0403 15:42:10.331965   398 net.cpp:148] Top shape: 24 32 14 14 (150528)
I0403 15:42:10.331987   398 net.cpp:156] Memory required for data: 1132256544
I0403 15:42:10.332012   398 layer_factory.hpp:77] Creating layer inception_4d/relu_5x5_reduce
I0403 15:42:10.332039   398 net.cpp:91] Creating Layer inception_4d/relu_5x5_reduce
I0403 15:42:10.332062   398 net.cpp:425] inception_4d/relu_5x5_reduce <- inception_4d/5x5_reduce
I0403 15:42:10.332087   398 net.cpp:386] inception_4d/relu_5x5_reduce -> inception_4d/5x5_reduce (in-place)
I0403 15:42:10.332280   398 net.cpp:141] Setting up inception_4d/relu_5x5_reduce
I0403 15:42:10.332306   398 net.cpp:148] Top shape: 24 32 14 14 (150528)
I0403 15:42:10.332321   398 net.cpp:156] Memory required for data: 1132858656
I0403 15:42:10.332337   398 layer_factory.hpp:77] Creating layer inception_4d/5x5
I0403 15:42:10.332360   398 net.cpp:91] Creating Layer inception_4d/5x5
I0403 15:42:10.332378   398 net.cpp:425] inception_4d/5x5 <- inception_4d/5x5_reduce
I0403 15:42:10.332401   398 net.cpp:399] inception_4d/5x5 -> inception_4d/5x5
I0403 15:42:10.333900   398 net.cpp:141] Setting up inception_4d/5x5
I0403 15:42:10.333930   398 net.cpp:148] Top shape: 24 64 14 14 (301056)
I0403 15:42:10.333946   398 net.cpp:156] Memory required for data: 1134062880
I0403 15:42:10.333966   398 layer_factory.hpp:77] Creating layer inception_4d/relu_5x5
I0403 15:42:10.333998   398 net.cpp:91] Creating Layer inception_4d/relu_5x5
I0403 15:42:10.334017   398 net.cpp:425] inception_4d/relu_5x5 <- inception_4d/5x5
I0403 15:42:10.334036   398 net.cpp:386] inception_4d/relu_5x5 -> inception_4d/5x5 (in-place)
I0403 15:42:10.334348   398 net.cpp:141] Setting up inception_4d/relu_5x5
I0403 15:42:10.334375   398 net.cpp:148] Top shape: 24 64 14 14 (301056)
I0403 15:42:10.334391   398 net.cpp:156] Memory required for data: 1135267104
I0403 15:42:10.334406   398 layer_factory.hpp:77] Creating layer inception_4d/pool
I0403 15:42:10.334424   398 net.cpp:91] Creating Layer inception_4d/pool
I0403 15:42:10.334439   398 net.cpp:425] inception_4d/pool <- inception_4c/output_inception_4c/output_0_split_3
I0403 15:42:10.334460   398 net.cpp:399] inception_4d/pool -> inception_4d/pool
I0403 15:42:10.334529   398 net.cpp:141] Setting up inception_4d/pool
I0403 15:42:10.334554   398 net.cpp:148] Top shape: 24 512 14 14 (2408448)
I0403 15:42:10.334570   398 net.cpp:156] Memory required for data: 1144900896
I0403 15:42:10.334585   398 layer_factory.hpp:77] Creating layer inception_4d/pool_proj
I0403 15:42:10.334610   398 net.cpp:91] Creating Layer inception_4d/pool_proj
I0403 15:42:10.334627   398 net.cpp:425] inception_4d/pool_proj <- inception_4d/pool
I0403 15:42:10.334646   398 net.cpp:399] inception_4d/pool_proj -> inception_4d/pool_proj
I0403 15:42:10.336426   398 net.cpp:141] Setting up inception_4d/pool_proj
I0403 15:42:10.336459   398 net.cpp:148] Top shape: 24 64 14 14 (301056)
I0403 15:42:10.336477   398 net.cpp:156] Memory required for data: 1146105120
I0403 15:42:10.336498   398 layer_factory.hpp:77] Creating layer inception_4d/relu_pool_proj
I0403 15:42:10.336516   398 net.cpp:91] Creating Layer inception_4d/relu_pool_proj
I0403 15:42:10.336534   398 net.cpp:425] inception_4d/relu_pool_proj <- inception_4d/pool_proj
I0403 15:42:10.336551   398 net.cpp:386] inception_4d/relu_pool_proj -> inception_4d/pool_proj (in-place)
I0403 15:42:10.336755   398 net.cpp:141] Setting up inception_4d/relu_pool_proj
I0403 15:42:10.336779   398 net.cpp:148] Top shape: 24 64 14 14 (301056)
I0403 15:42:10.336796   398 net.cpp:156] Memory required for data: 1147309344
I0403 15:42:10.336812   398 layer_factory.hpp:77] Creating layer inception_4d/output
I0403 15:42:10.336828   398 net.cpp:91] Creating Layer inception_4d/output
I0403 15:42:10.336844   398 net.cpp:425] inception_4d/output <- inception_4d/1x1
I0403 15:42:10.336861   398 net.cpp:425] inception_4d/output <- inception_4d/3x3
I0403 15:42:10.336877   398 net.cpp:425] inception_4d/output <- inception_4d/5x5
I0403 15:42:10.336894   398 net.cpp:425] inception_4d/output <- inception_4d/pool_proj
I0403 15:42:10.336913   398 net.cpp:399] inception_4d/output -> inception_4d/output
I0403 15:42:10.336961   398 net.cpp:141] Setting up inception_4d/output
I0403 15:42:10.336987   398 net.cpp:148] Top shape: 24 528 14 14 (2483712)
I0403 15:42:10.337002   398 net.cpp:156] Memory required for data: 1157244192
I0403 15:42:10.337018   398 layer_factory.hpp:77] Creating layer inception_4d/output_inception_4d/output_0_split
I0403 15:42:10.337035   398 net.cpp:91] Creating Layer inception_4d/output_inception_4d/output_0_split
I0403 15:42:10.337051   398 net.cpp:425] inception_4d/output_inception_4d/output_0_split <- inception_4d/output
I0403 15:42:10.337072   398 net.cpp:399] inception_4d/output_inception_4d/output_0_split -> inception_4d/output_inception_4d/output_0_split_0
I0403 15:42:10.337093   398 net.cpp:399] inception_4d/output_inception_4d/output_0_split -> inception_4d/output_inception_4d/output_0_split_1
I0403 15:42:10.337117   398 net.cpp:399] inception_4d/output_inception_4d/output_0_split -> inception_4d/output_inception_4d/output_0_split_2
I0403 15:42:10.337138   398 net.cpp:399] inception_4d/output_inception_4d/output_0_split -> inception_4d/output_inception_4d/output_0_split_3
I0403 15:42:10.337163   398 net.cpp:399] inception_4d/output_inception_4d/output_0_split -> inception_4d/output_inception_4d/output_0_split_4
I0403 15:42:10.337276   398 net.cpp:141] Setting up inception_4d/output_inception_4d/output_0_split
I0403 15:42:10.337313   398 net.cpp:148] Top shape: 24 528 14 14 (2483712)
I0403 15:42:10.337330   398 net.cpp:148] Top shape: 24 528 14 14 (2483712)
I0403 15:42:10.337347   398 net.cpp:148] Top shape: 24 528 14 14 (2483712)
I0403 15:42:10.337362   398 net.cpp:148] Top shape: 24 528 14 14 (2483712)
I0403 15:42:10.337376   398 net.cpp:148] Top shape: 24 528 14 14 (2483712)
I0403 15:42:10.337391   398 net.cpp:156] Memory required for data: 1206918432
I0403 15:42:10.337406   398 layer_factory.hpp:77] Creating layer loss2/ave_pool
I0403 15:42:10.337429   398 net.cpp:91] Creating Layer loss2/ave_pool
I0403 15:42:10.337445   398 net.cpp:425] loss2/ave_pool <- inception_4d/output_inception_4d/output_0_split_0
I0403 15:42:10.337463   398 net.cpp:399] loss2/ave_pool -> loss2/ave_pool
I0403 15:42:10.337779   398 net.cpp:141] Setting up loss2/ave_pool
I0403 15:42:10.337808   398 net.cpp:148] Top shape: 24 528 4 4 (202752)
I0403 15:42:10.337828   398 net.cpp:156] Memory required for data: 1207729440
I0403 15:42:10.337848   398 layer_factory.hpp:77] Creating layer loss2/conv
I0403 15:42:10.337875   398 net.cpp:91] Creating Layer loss2/conv
I0403 15:42:10.337906   398 net.cpp:425] loss2/conv <- loss2/ave_pool
I0403 15:42:10.337932   398 net.cpp:399] loss2/conv -> loss2/conv
I0403 15:42:10.339871   398 net.cpp:141] Setting up loss2/conv
I0403 15:42:10.339908   398 net.cpp:148] Top shape: 24 128 4 4 (49152)
I0403 15:42:10.339926   398 net.cpp:156] Memory required for data: 1207926048
I0403 15:42:10.339956   398 layer_factory.hpp:77] Creating layer loss2/relu_conv
I0403 15:42:10.339979   398 net.cpp:91] Creating Layer loss2/relu_conv
I0403 15:42:10.340001   398 net.cpp:425] loss2/relu_conv <- loss2/conv
I0403 15:42:10.340023   398 net.cpp:386] loss2/relu_conv -> loss2/conv (in-place)
I0403 15:42:10.340325   398 net.cpp:141] Setting up loss2/relu_conv
I0403 15:42:10.340353   398 net.cpp:148] Top shape: 24 128 4 4 (49152)
I0403 15:42:10.340369   398 net.cpp:156] Memory required for data: 1208122656
I0403 15:42:10.340385   398 layer_factory.hpp:77] Creating layer loss2/fc
I0403 15:42:10.340414   398 net.cpp:91] Creating Layer loss2/fc
I0403 15:42:10.340431   398 net.cpp:425] loss2/fc <- loss2/conv
I0403 15:42:10.340451   398 net.cpp:399] loss2/fc -> loss2/fc
I0403 15:42:10.357981   398 net.cpp:141] Setting up loss2/fc
I0403 15:42:10.358016   398 net.cpp:148] Top shape: 24 1024 (24576)
I0403 15:42:10.358031   398 net.cpp:156] Memory required for data: 1208220960
I0403 15:42:10.358050   398 layer_factory.hpp:77] Creating layer loss2/relu_fc
I0403 15:42:10.358069   398 net.cpp:91] Creating Layer loss2/relu_fc
I0403 15:42:10.358086   398 net.cpp:425] loss2/relu_fc <- loss2/fc
I0403 15:42:10.358105   398 net.cpp:386] loss2/relu_fc -> loss2/fc (in-place)
I0403 15:42:10.358419   398 net.cpp:141] Setting up loss2/relu_fc
I0403 15:42:10.358449   398 net.cpp:148] Top shape: 24 1024 (24576)
I0403 15:42:10.358464   398 net.cpp:156] Memory required for data: 1208319264
I0403 15:42:10.358480   398 layer_factory.hpp:77] Creating layer loss2/drop_fc
I0403 15:42:10.358500   398 net.cpp:91] Creating Layer loss2/drop_fc
I0403 15:42:10.358515   398 net.cpp:425] loss2/drop_fc <- loss2/fc
I0403 15:42:10.358536   398 net.cpp:386] loss2/drop_fc -> loss2/fc (in-place)
I0403 15:42:10.358585   398 net.cpp:141] Setting up loss2/drop_fc
I0403 15:42:10.358609   398 net.cpp:148] Top shape: 24 1024 (24576)
I0403 15:42:10.358624   398 net.cpp:156] Memory required for data: 1208417568
I0403 15:42:10.358640   398 layer_factory.hpp:77] Creating layer loss2/classifier_plantvillage
I0403 15:42:10.358675   398 net.cpp:91] Creating Layer loss2/classifier_plantvillage
I0403 15:42:10.358692   398 net.cpp:425] loss2/classifier_plantvillage <- loss2/fc
I0403 15:42:10.358713   398 net.cpp:399] loss2/classifier_plantvillage -> loss2/classifier_plantvillage
I0403 15:42:10.359102   398 net.cpp:141] Setting up loss2/classifier_plantvillage
I0403 15:42:10.359127   398 net.cpp:148] Top shape: 24 38 (912)
I0403 15:42:10.359143   398 net.cpp:156] Memory required for data: 1208421216
I0403 15:42:10.359179   398 layer_factory.hpp:77] Creating layer loss2/classifier_plantvillage_loss2/classifier_plantvillage_0_split
I0403 15:42:10.359201   398 net.cpp:91] Creating Layer loss2/classifier_plantvillage_loss2/classifier_plantvillage_0_split
I0403 15:42:10.359220   398 net.cpp:425] loss2/classifier_plantvillage_loss2/classifier_plantvillage_0_split <- loss2/classifier_plantvillage
I0403 15:42:10.359237   398 net.cpp:399] loss2/classifier_plantvillage_loss2/classifier_plantvillage_0_split -> loss2/classifier_plantvillage_loss2/classifier_plantvillage_0_split_0
I0403 15:42:10.359261   398 net.cpp:399] loss2/classifier_plantvillage_loss2/classifier_plantvillage_0_split -> loss2/classifier_plantvillage_loss2/classifier_plantvillage_0_split_1
I0403 15:42:10.359282   398 net.cpp:399] loss2/classifier_plantvillage_loss2/classifier_plantvillage_0_split -> loss2/classifier_plantvillage_loss2/classifier_plantvillage_0_split_2
I0403 15:42:10.359360   398 net.cpp:141] Setting up loss2/classifier_plantvillage_loss2/classifier_plantvillage_0_split
I0403 15:42:10.359385   398 net.cpp:148] Top shape: 24 38 (912)
I0403 15:42:10.359401   398 net.cpp:148] Top shape: 24 38 (912)
I0403 15:42:10.359416   398 net.cpp:148] Top shape: 24 38 (912)
I0403 15:42:10.359429   398 net.cpp:156] Memory required for data: 1208432160
I0403 15:42:10.359443   398 layer_factory.hpp:77] Creating layer inception_4e/1x1
I0403 15:42:10.359462   398 net.cpp:91] Creating Layer inception_4e/1x1
I0403 15:42:10.359479   398 net.cpp:425] inception_4e/1x1 <- inception_4d/output_inception_4d/output_0_split_1
I0403 15:42:10.359501   398 net.cpp:399] inception_4e/1x1 -> inception_4e/1x1
I0403 15:42:10.361327   398 net.cpp:141] Setting up inception_4e/1x1
I0403 15:42:10.361356   398 net.cpp:148] Top shape: 24 256 14 14 (1204224)
I0403 15:42:10.361372   398 net.cpp:156] Memory required for data: 1213249056
I0403 15:42:10.361390   398 layer_factory.hpp:77] Creating layer inception_4e/relu_1x1
I0403 15:42:10.361413   398 net.cpp:91] Creating Layer inception_4e/relu_1x1
I0403 15:42:10.361429   398 net.cpp:425] inception_4e/relu_1x1 <- inception_4e/1x1
I0403 15:42:10.361449   398 net.cpp:386] inception_4e/relu_1x1 -> inception_4e/1x1 (in-place)
I0403 15:42:10.361744   398 net.cpp:141] Setting up inception_4e/relu_1x1
I0403 15:42:10.361771   398 net.cpp:148] Top shape: 24 256 14 14 (1204224)
I0403 15:42:10.361788   398 net.cpp:156] Memory required for data: 1218065952
I0403 15:42:10.361804   398 layer_factory.hpp:77] Creating layer inception_4e/3x3_reduce
I0403 15:42:10.361825   398 net.cpp:91] Creating Layer inception_4e/3x3_reduce
I0403 15:42:10.361843   398 net.cpp:425] inception_4e/3x3_reduce <- inception_4d/output_inception_4d/output_0_split_2
I0403 15:42:10.361865   398 net.cpp:399] inception_4e/3x3_reduce -> inception_4e/3x3_reduce
I0403 15:42:10.364009   398 net.cpp:141] Setting up inception_4e/3x3_reduce
I0403 15:42:10.364038   398 net.cpp:148] Top shape: 24 160 14 14 (752640)
I0403 15:42:10.364056   398 net.cpp:156] Memory required for data: 1221076512
I0403 15:42:10.364075   398 layer_factory.hpp:77] Creating layer inception_4e/relu_3x3_reduce
I0403 15:42:10.364100   398 net.cpp:91] Creating Layer inception_4e/relu_3x3_reduce
I0403 15:42:10.364119   398 net.cpp:425] inception_4e/relu_3x3_reduce <- inception_4e/3x3_reduce
I0403 15:42:10.364136   398 net.cpp:386] inception_4e/relu_3x3_reduce -> inception_4e/3x3_reduce (in-place)
I0403 15:42:10.364334   398 net.cpp:141] Setting up inception_4e/relu_3x3_reduce
I0403 15:42:10.364362   398 net.cpp:148] Top shape: 24 160 14 14 (752640)
I0403 15:42:10.364377   398 net.cpp:156] Memory required for data: 1224087072
I0403 15:42:10.364393   398 layer_factory.hpp:77] Creating layer inception_4e/3x3
I0403 15:42:10.364415   398 net.cpp:91] Creating Layer inception_4e/3x3
I0403 15:42:10.364434   398 net.cpp:425] inception_4e/3x3 <- inception_4e/3x3_reduce
I0403 15:42:10.364454   398 net.cpp:399] inception_4e/3x3 -> inception_4e/3x3
I0403 15:42:10.369505   398 net.cpp:141] Setting up inception_4e/3x3
I0403 15:42:10.369549   398 net.cpp:148] Top shape: 24 320 14 14 (1505280)
I0403 15:42:10.369566   398 net.cpp:156] Memory required for data: 1230108192
I0403 15:42:10.369585   398 layer_factory.hpp:77] Creating layer inception_4e/relu_3x3
I0403 15:42:10.369607   398 net.cpp:91] Creating Layer inception_4e/relu_3x3
I0403 15:42:10.369626   398 net.cpp:425] inception_4e/relu_3x3 <- inception_4e/3x3
I0403 15:42:10.369657   398 net.cpp:386] inception_4e/relu_3x3 -> inception_4e/3x3 (in-place)
I0403 15:42:10.369959   398 net.cpp:141] Setting up inception_4e/relu_3x3
I0403 15:42:10.369985   398 net.cpp:148] Top shape: 24 320 14 14 (1505280)
I0403 15:42:10.370002   398 net.cpp:156] Memory required for data: 1236129312
I0403 15:42:10.370017   398 layer_factory.hpp:77] Creating layer inception_4e/5x5_reduce
I0403 15:42:10.370043   398 net.cpp:91] Creating Layer inception_4e/5x5_reduce
I0403 15:42:10.370061   398 net.cpp:425] inception_4e/5x5_reduce <- inception_4d/output_inception_4d/output_0_split_3
I0403 15:42:10.370081   398 net.cpp:399] inception_4e/5x5_reduce -> inception_4e/5x5_reduce
I0403 15:42:10.371165   398 net.cpp:141] Setting up inception_4e/5x5_reduce
I0403 15:42:10.371192   398 net.cpp:148] Top shape: 24 32 14 14 (150528)
I0403 15:42:10.371209   398 net.cpp:156] Memory required for data: 1236731424
I0403 15:42:10.371227   398 layer_factory.hpp:77] Creating layer inception_4e/relu_5x5_reduce
I0403 15:42:10.371245   398 net.cpp:91] Creating Layer inception_4e/relu_5x5_reduce
I0403 15:42:10.371268   398 net.cpp:425] inception_4e/relu_5x5_reduce <- inception_4e/5x5_reduce
I0403 15:42:10.371289   398 net.cpp:386] inception_4e/relu_5x5_reduce -> inception_4e/5x5_reduce (in-place)
I0403 15:42:10.371589   398 net.cpp:141] Setting up inception_4e/relu_5x5_reduce
I0403 15:42:10.371616   398 net.cpp:148] Top shape: 24 32 14 14 (150528)
I0403 15:42:10.371631   398 net.cpp:156] Memory required for data: 1237333536
I0403 15:42:10.371647   398 layer_factory.hpp:77] Creating layer inception_4e/5x5
I0403 15:42:10.371685   398 net.cpp:91] Creating Layer inception_4e/5x5
I0403 15:42:10.371706   398 net.cpp:425] inception_4e/5x5 <- inception_4e/5x5_reduce
I0403 15:42:10.371726   398 net.cpp:399] inception_4e/5x5 -> inception_4e/5x5
I0403 15:42:10.373597   398 net.cpp:141] Setting up inception_4e/5x5
I0403 15:42:10.373626   398 net.cpp:148] Top shape: 24 128 14 14 (602112)
I0403 15:42:10.373647   398 net.cpp:156] Memory required for data: 1239741984
I0403 15:42:10.373669   398 layer_factory.hpp:77] Creating layer inception_4e/relu_5x5
I0403 15:42:10.373695   398 net.cpp:91] Creating Layer inception_4e/relu_5x5
I0403 15:42:10.373714   398 net.cpp:425] inception_4e/relu_5x5 <- inception_4e/5x5
I0403 15:42:10.373744   398 net.cpp:386] inception_4e/relu_5x5 -> inception_4e/5x5 (in-place)
I0403 15:42:10.373951   398 net.cpp:141] Setting up inception_4e/relu_5x5
I0403 15:42:10.373978   398 net.cpp:148] Top shape: 24 128 14 14 (602112)
I0403 15:42:10.373993   398 net.cpp:156] Memory required for data: 1242150432
I0403 15:42:10.374009   398 layer_factory.hpp:77] Creating layer inception_4e/pool
I0403 15:42:10.374029   398 net.cpp:91] Creating Layer inception_4e/pool
I0403 15:42:10.374047   398 net.cpp:425] inception_4e/pool <- inception_4d/output_inception_4d/output_0_split_4
I0403 15:42:10.374064   398 net.cpp:399] inception_4e/pool -> inception_4e/pool
I0403 15:42:10.374135   398 net.cpp:141] Setting up inception_4e/pool
I0403 15:42:10.374166   398 net.cpp:148] Top shape: 24 528 14 14 (2483712)
I0403 15:42:10.374181   398 net.cpp:156] Memory required for data: 1252085280
I0403 15:42:10.374196   398 layer_factory.hpp:77] Creating layer inception_4e/pool_proj
I0403 15:42:10.374223   398 net.cpp:91] Creating Layer inception_4e/pool_proj
I0403 15:42:10.374246   398 net.cpp:425] inception_4e/pool_proj <- inception_4e/pool
I0403 15:42:10.374289   398 net.cpp:399] inception_4e/pool_proj -> inception_4e/pool_proj
I0403 15:42:10.375839   398 net.cpp:141] Setting up inception_4e/pool_proj
I0403 15:42:10.375876   398 net.cpp:148] Top shape: 24 128 14 14 (602112)
I0403 15:42:10.375915   398 net.cpp:156] Memory required for data: 1254493728
I0403 15:42:10.375938   398 layer_factory.hpp:77] Creating layer inception_4e/relu_pool_proj
I0403 15:42:10.375960   398 net.cpp:91] Creating Layer inception_4e/relu_pool_proj
I0403 15:42:10.375983   398 net.cpp:425] inception_4e/relu_pool_proj <- inception_4e/pool_proj
I0403 15:42:10.376000   398 net.cpp:386] inception_4e/relu_pool_proj -> inception_4e/pool_proj (in-place)
I0403 15:42:10.376317   398 net.cpp:141] Setting up inception_4e/relu_pool_proj
I0403 15:42:10.376346   398 net.cpp:148] Top shape: 24 128 14 14 (602112)
I0403 15:42:10.376368   398 net.cpp:156] Memory required for data: 1256902176
I0403 15:42:10.376384   398 layer_factory.hpp:77] Creating layer inception_4e/output
I0403 15:42:10.376400   398 net.cpp:91] Creating Layer inception_4e/output
I0403 15:42:10.376421   398 net.cpp:425] inception_4e/output <- inception_4e/1x1
I0403 15:42:10.376442   398 net.cpp:425] inception_4e/output <- inception_4e/3x3
I0403 15:42:10.376464   398 net.cpp:425] inception_4e/output <- inception_4e/5x5
I0403 15:42:10.376483   398 net.cpp:425] inception_4e/output <- inception_4e/pool_proj
I0403 15:42:10.376507   398 net.cpp:399] inception_4e/output -> inception_4e/output
I0403 15:42:10.376561   398 net.cpp:141] Setting up inception_4e/output
I0403 15:42:10.376588   398 net.cpp:148] Top shape: 24 832 14 14 (3913728)
I0403 15:42:10.376606   398 net.cpp:156] Memory required for data: 1272557088
I0403 15:42:10.376626   398 layer_factory.hpp:77] Creating layer pool4/3x3_s2
I0403 15:42:10.376649   398 net.cpp:91] Creating Layer pool4/3x3_s2
I0403 15:42:10.376667   398 net.cpp:425] pool4/3x3_s2 <- inception_4e/output
I0403 15:42:10.376684   398 net.cpp:399] pool4/3x3_s2 -> pool4/3x3_s2
I0403 15:42:10.376751   398 net.cpp:141] Setting up pool4/3x3_s2
I0403 15:42:10.376775   398 net.cpp:148] Top shape: 24 832 7 7 (978432)
I0403 15:42:10.376791   398 net.cpp:156] Memory required for data: 1276470816
I0403 15:42:10.376806   398 layer_factory.hpp:77] Creating layer pool4/3x3_s2_pool4/3x3_s2_0_split
I0403 15:42:10.376821   398 net.cpp:91] Creating Layer pool4/3x3_s2_pool4/3x3_s2_0_split
I0403 15:42:10.376837   398 net.cpp:425] pool4/3x3_s2_pool4/3x3_s2_0_split <- pool4/3x3_s2
I0403 15:42:10.376857   398 net.cpp:399] pool4/3x3_s2_pool4/3x3_s2_0_split -> pool4/3x3_s2_pool4/3x3_s2_0_split_0
I0403 15:42:10.376876   398 net.cpp:399] pool4/3x3_s2_pool4/3x3_s2_0_split -> pool4/3x3_s2_pool4/3x3_s2_0_split_1
I0403 15:42:10.376898   398 net.cpp:399] pool4/3x3_s2_pool4/3x3_s2_0_split -> pool4/3x3_s2_pool4/3x3_s2_0_split_2
I0403 15:42:10.376916   398 net.cpp:399] pool4/3x3_s2_pool4/3x3_s2_0_split -> pool4/3x3_s2_pool4/3x3_s2_0_split_3
I0403 15:42:10.377004   398 net.cpp:141] Setting up pool4/3x3_s2_pool4/3x3_s2_0_split
I0403 15:42:10.377030   398 net.cpp:148] Top shape: 24 832 7 7 (978432)
I0403 15:42:10.377048   398 net.cpp:148] Top shape: 24 832 7 7 (978432)
I0403 15:42:10.377063   398 net.cpp:148] Top shape: 24 832 7 7 (978432)
I0403 15:42:10.377084   398 net.cpp:148] Top shape: 24 832 7 7 (978432)
I0403 15:42:10.377107   398 net.cpp:156] Memory required for data: 1292125728
I0403 15:42:10.377121   398 layer_factory.hpp:77] Creating layer inception_5a/1x1
I0403 15:42:10.377146   398 net.cpp:91] Creating Layer inception_5a/1x1
I0403 15:42:10.377171   398 net.cpp:425] inception_5a/1x1 <- pool4/3x3_s2_pool4/3x3_s2_0_split_0
I0403 15:42:10.377197   398 net.cpp:399] inception_5a/1x1 -> inception_5a/1x1
I0403 15:42:10.380034   398 net.cpp:141] Setting up inception_5a/1x1
I0403 15:42:10.380062   398 net.cpp:148] Top shape: 24 256 7 7 (301056)
I0403 15:42:10.380079   398 net.cpp:156] Memory required for data: 1293329952
I0403 15:42:10.380097   398 layer_factory.hpp:77] Creating layer inception_5a/relu_1x1
I0403 15:42:10.380120   398 net.cpp:91] Creating Layer inception_5a/relu_1x1
I0403 15:42:10.380136   398 net.cpp:425] inception_5a/relu_1x1 <- inception_5a/1x1
I0403 15:42:10.380157   398 net.cpp:386] inception_5a/relu_1x1 -> inception_5a/1x1 (in-place)
I0403 15:42:10.380476   398 net.cpp:141] Setting up inception_5a/relu_1x1
I0403 15:42:10.380502   398 net.cpp:148] Top shape: 24 256 7 7 (301056)
I0403 15:42:10.380517   398 net.cpp:156] Memory required for data: 1294534176
I0403 15:42:10.380533   398 layer_factory.hpp:77] Creating layer inception_5a/3x3_reduce
I0403 15:42:10.380555   398 net.cpp:91] Creating Layer inception_5a/3x3_reduce
I0403 15:42:10.380574   398 net.cpp:425] inception_5a/3x3_reduce <- pool4/3x3_s2_pool4/3x3_s2_0_split_1
I0403 15:42:10.380599   398 net.cpp:399] inception_5a/3x3_reduce -> inception_5a/3x3_reduce
I0403 15:42:10.383018   398 net.cpp:141] Setting up inception_5a/3x3_reduce
I0403 15:42:10.383050   398 net.cpp:148] Top shape: 24 160 7 7 (188160)
I0403 15:42:10.383069   398 net.cpp:156] Memory required for data: 1295286816
I0403 15:42:10.383093   398 layer_factory.hpp:77] Creating layer inception_5a/relu_3x3_reduce
I0403 15:42:10.383118   398 net.cpp:91] Creating Layer inception_5a/relu_3x3_reduce
I0403 15:42:10.383142   398 net.cpp:425] inception_5a/relu_3x3_reduce <- inception_5a/3x3_reduce
I0403 15:42:10.383163   398 net.cpp:386] inception_5a/relu_3x3_reduce -> inception_5a/3x3_reduce (in-place)
I0403 15:42:10.383363   398 net.cpp:141] Setting up inception_5a/relu_3x3_reduce
I0403 15:42:10.383390   398 net.cpp:148] Top shape: 24 160 7 7 (188160)
I0403 15:42:10.383406   398 net.cpp:156] Memory required for data: 1296039456
I0403 15:42:10.383421   398 layer_factory.hpp:77] Creating layer inception_5a/3x3
I0403 15:42:10.383443   398 net.cpp:91] Creating Layer inception_5a/3x3
I0403 15:42:10.383460   398 net.cpp:425] inception_5a/3x3 <- inception_5a/3x3_reduce
I0403 15:42:10.383482   398 net.cpp:399] inception_5a/3x3 -> inception_5a/3x3
I0403 15:42:10.388407   398 net.cpp:141] Setting up inception_5a/3x3
I0403 15:42:10.388437   398 net.cpp:148] Top shape: 24 320 7 7 (376320)
I0403 15:42:10.388453   398 net.cpp:156] Memory required for data: 1297544736
I0403 15:42:10.388471   398 layer_factory.hpp:77] Creating layer inception_5a/relu_3x3
I0403 15:42:10.388494   398 net.cpp:91] Creating Layer inception_5a/relu_3x3
I0403 15:42:10.388511   398 net.cpp:425] inception_5a/relu_3x3 <- inception_5a/3x3
I0403 15:42:10.388530   398 net.cpp:386] inception_5a/relu_3x3 -> inception_5a/3x3 (in-place)
I0403 15:42:10.388818   398 net.cpp:141] Setting up inception_5a/relu_3x3
I0403 15:42:10.388844   398 net.cpp:148] Top shape: 24 320 7 7 (376320)
I0403 15:42:10.388859   398 net.cpp:156] Memory required for data: 1299050016
I0403 15:42:10.388875   398 layer_factory.hpp:77] Creating layer inception_5a/5x5_reduce
I0403 15:42:10.388897   398 net.cpp:91] Creating Layer inception_5a/5x5_reduce
I0403 15:42:10.388916   398 net.cpp:425] inception_5a/5x5_reduce <- pool4/3x3_s2_pool4/3x3_s2_0_split_2
I0403 15:42:10.388937   398 net.cpp:399] inception_5a/5x5_reduce -> inception_5a/5x5_reduce
I0403 15:42:10.390074   398 net.cpp:141] Setting up inception_5a/5x5_reduce
I0403 15:42:10.390110   398 net.cpp:148] Top shape: 24 32 7 7 (37632)
I0403 15:42:10.390126   398 net.cpp:156] Memory required for data: 1299200544
I0403 15:42:10.390144   398 layer_factory.hpp:77] Creating layer inception_5a/relu_5x5_reduce
I0403 15:42:10.390166   398 net.cpp:91] Creating Layer inception_5a/relu_5x5_reduce
I0403 15:42:10.390187   398 net.cpp:425] inception_5a/relu_5x5_reduce <- inception_5a/5x5_reduce
I0403 15:42:10.390208   398 net.cpp:386] inception_5a/relu_5x5_reduce -> inception_5a/5x5_reduce (in-place)
I0403 15:42:10.390511   398 net.cpp:141] Setting up inception_5a/relu_5x5_reduce
I0403 15:42:10.390537   398 net.cpp:148] Top shape: 24 32 7 7 (37632)
I0403 15:42:10.390564   398 net.cpp:156] Memory required for data: 1299351072
I0403 15:42:10.390580   398 layer_factory.hpp:77] Creating layer inception_5a/5x5
I0403 15:42:10.390604   398 net.cpp:91] Creating Layer inception_5a/5x5
I0403 15:42:10.390621   398 net.cpp:425] inception_5a/5x5 <- inception_5a/5x5_reduce
I0403 15:42:10.390642   398 net.cpp:399] inception_5a/5x5 -> inception_5a/5x5
I0403 15:42:10.392402   398 net.cpp:141] Setting up inception_5a/5x5
I0403 15:42:10.392442   398 net.cpp:148] Top shape: 24 128 7 7 (150528)
I0403 15:42:10.392459   398 net.cpp:156] Memory required for data: 1299953184
I0403 15:42:10.392478   398 layer_factory.hpp:77] Creating layer inception_5a/relu_5x5
I0403 15:42:10.392496   398 net.cpp:91] Creating Layer inception_5a/relu_5x5
I0403 15:42:10.392513   398 net.cpp:425] inception_5a/relu_5x5 <- inception_5a/5x5
I0403 15:42:10.392534   398 net.cpp:386] inception_5a/relu_5x5 -> inception_5a/5x5 (in-place)
I0403 15:42:10.392726   398 net.cpp:141] Setting up inception_5a/relu_5x5
I0403 15:42:10.392753   398 net.cpp:148] Top shape: 24 128 7 7 (150528)
I0403 15:42:10.392774   398 net.cpp:156] Memory required for data: 1300555296
I0403 15:42:10.392792   398 layer_factory.hpp:77] Creating layer inception_5a/pool
I0403 15:42:10.392819   398 net.cpp:91] Creating Layer inception_5a/pool
I0403 15:42:10.392843   398 net.cpp:425] inception_5a/pool <- pool4/3x3_s2_pool4/3x3_s2_0_split_3
I0403 15:42:10.392868   398 net.cpp:399] inception_5a/pool -> inception_5a/pool
I0403 15:42:10.392942   398 net.cpp:141] Setting up inception_5a/pool
I0403 15:42:10.392972   398 net.cpp:148] Top shape: 24 832 7 7 (978432)
I0403 15:42:10.392992   398 net.cpp:156] Memory required for data: 1304469024
I0403 15:42:10.393007   398 layer_factory.hpp:77] Creating layer inception_5a/pool_proj
I0403 15:42:10.393028   398 net.cpp:91] Creating Layer inception_5a/pool_proj
I0403 15:42:10.393048   398 net.cpp:425] inception_5a/pool_proj <- inception_5a/pool
I0403 15:42:10.393069   398 net.cpp:399] inception_5a/pool_proj -> inception_5a/pool_proj
I0403 15:42:10.395390   398 net.cpp:141] Setting up inception_5a/pool_proj
I0403 15:42:10.395422   398 net.cpp:148] Top shape: 24 128 7 7 (150528)
I0403 15:42:10.395439   398 net.cpp:156] Memory required for data: 1305071136
I0403 15:42:10.395459   398 layer_factory.hpp:77] Creating layer inception_5a/relu_pool_proj
I0403 15:42:10.395478   398 net.cpp:91] Creating Layer inception_5a/relu_pool_proj
I0403 15:42:10.395494   398 net.cpp:425] inception_5a/relu_pool_proj <- inception_5a/pool_proj
I0403 15:42:10.395515   398 net.cpp:386] inception_5a/relu_pool_proj -> inception_5a/pool_proj (in-place)
I0403 15:42:10.395809   398 net.cpp:141] Setting up inception_5a/relu_pool_proj
I0403 15:42:10.395838   398 net.cpp:148] Top shape: 24 128 7 7 (150528)
I0403 15:42:10.395855   398 net.cpp:156] Memory required for data: 1305673248
I0403 15:42:10.395870   398 layer_factory.hpp:77] Creating layer inception_5a/output
I0403 15:42:10.395887   398 net.cpp:91] Creating Layer inception_5a/output
I0403 15:42:10.395905   398 net.cpp:425] inception_5a/output <- inception_5a/1x1
I0403 15:42:10.395921   398 net.cpp:425] inception_5a/output <- inception_5a/3x3
I0403 15:42:10.395937   398 net.cpp:425] inception_5a/output <- inception_5a/5x5
I0403 15:42:10.395953   398 net.cpp:425] inception_5a/output <- inception_5a/pool_proj
I0403 15:42:10.395973   398 net.cpp:399] inception_5a/output -> inception_5a/output
I0403 15:42:10.396023   398 net.cpp:141] Setting up inception_5a/output
I0403 15:42:10.396047   398 net.cpp:148] Top shape: 24 832 7 7 (978432)
I0403 15:42:10.396064   398 net.cpp:156] Memory required for data: 1309586976
I0403 15:42:10.396078   398 layer_factory.hpp:77] Creating layer inception_5a/output_inception_5a/output_0_split
I0403 15:42:10.396101   398 net.cpp:91] Creating Layer inception_5a/output_inception_5a/output_0_split
I0403 15:42:10.396126   398 net.cpp:425] inception_5a/output_inception_5a/output_0_split <- inception_5a/output
I0403 15:42:10.396150   398 net.cpp:399] inception_5a/output_inception_5a/output_0_split -> inception_5a/output_inception_5a/output_0_split_0
I0403 15:42:10.396173   398 net.cpp:399] inception_5a/output_inception_5a/output_0_split -> inception_5a/output_inception_5a/output_0_split_1
I0403 15:42:10.396198   398 net.cpp:399] inception_5a/output_inception_5a/output_0_split -> inception_5a/output_inception_5a/output_0_split_2
I0403 15:42:10.396232   398 net.cpp:399] inception_5a/output_inception_5a/output_0_split -> inception_5a/output_inception_5a/output_0_split_3
I0403 15:42:10.396368   398 net.cpp:141] Setting up inception_5a/output_inception_5a/output_0_split
I0403 15:42:10.396394   398 net.cpp:148] Top shape: 24 832 7 7 (978432)
I0403 15:42:10.396411   398 net.cpp:148] Top shape: 24 832 7 7 (978432)
I0403 15:42:10.396430   398 net.cpp:148] Top shape: 24 832 7 7 (978432)
I0403 15:42:10.396445   398 net.cpp:148] Top shape: 24 832 7 7 (978432)
I0403 15:42:10.396461   398 net.cpp:156] Memory required for data: 1325241888
I0403 15:42:10.396476   398 layer_factory.hpp:77] Creating layer inception_5b/1x1
I0403 15:42:10.396498   398 net.cpp:91] Creating Layer inception_5b/1x1
I0403 15:42:10.396517   398 net.cpp:425] inception_5b/1x1 <- inception_5a/output_inception_5a/output_0_split_0
I0403 15:42:10.396539   398 net.cpp:399] inception_5b/1x1 -> inception_5b/1x1
I0403 15:42:10.400326   398 net.cpp:141] Setting up inception_5b/1x1
I0403 15:42:10.400367   398 net.cpp:148] Top shape: 24 384 7 7 (451584)
I0403 15:42:10.400393   398 net.cpp:156] Memory required for data: 1327048224
I0403 15:42:10.400416   398 layer_factory.hpp:77] Creating layer inception_5b/relu_1x1
I0403 15:42:10.400435   398 net.cpp:91] Creating Layer inception_5b/relu_1x1
I0403 15:42:10.400457   398 net.cpp:425] inception_5b/relu_1x1 <- inception_5b/1x1
I0403 15:42:10.400477   398 net.cpp:386] inception_5b/relu_1x1 -> inception_5b/1x1 (in-place)
I0403 15:42:10.400795   398 net.cpp:141] Setting up inception_5b/relu_1x1
I0403 15:42:10.400825   398 net.cpp:148] Top shape: 24 384 7 7 (451584)
I0403 15:42:10.400842   398 net.cpp:156] Memory required for data: 1328854560
I0403 15:42:10.400858   398 layer_factory.hpp:77] Creating layer inception_5b/3x3_reduce
I0403 15:42:10.400882   398 net.cpp:91] Creating Layer inception_5b/3x3_reduce
I0403 15:42:10.400898   398 net.cpp:425] inception_5b/3x3_reduce <- inception_5a/output_inception_5a/output_0_split_1
I0403 15:42:10.400919   398 net.cpp:399] inception_5b/3x3_reduce -> inception_5b/3x3_reduce
I0403 15:42:10.403611   398 net.cpp:141] Setting up inception_5b/3x3_reduce
I0403 15:42:10.403645   398 net.cpp:148] Top shape: 24 192 7 7 (225792)
I0403 15:42:10.403662   398 net.cpp:156] Memory required for data: 1329757728
I0403 15:42:10.403681   398 layer_factory.hpp:77] Creating layer inception_5b/relu_3x3_reduce
I0403 15:42:10.403700   398 net.cpp:91] Creating Layer inception_5b/relu_3x3_reduce
I0403 15:42:10.403717   398 net.cpp:425] inception_5b/relu_3x3_reduce <- inception_5b/3x3_reduce
I0403 15:42:10.403738   398 net.cpp:386] inception_5b/relu_3x3_reduce -> inception_5b/3x3_reduce (in-place)
I0403 15:42:10.403928   398 net.cpp:141] Setting up inception_5b/relu_3x3_reduce
I0403 15:42:10.403954   398 net.cpp:148] Top shape: 24 192 7 7 (225792)
I0403 15:42:10.403969   398 net.cpp:156] Memory required for data: 1330660896
I0403 15:42:10.403983   398 layer_factory.hpp:77] Creating layer inception_5b/3x3
I0403 15:42:10.404006   398 net.cpp:91] Creating Layer inception_5b/3x3
I0403 15:42:10.404023   398 net.cpp:425] inception_5b/3x3 <- inception_5b/3x3_reduce
I0403 15:42:10.404045   398 net.cpp:399] inception_5b/3x3 -> inception_5b/3x3
I0403 15:42:10.410784   398 net.cpp:141] Setting up inception_5b/3x3
I0403 15:42:10.410818   398 net.cpp:148] Top shape: 24 384 7 7 (451584)
I0403 15:42:10.410840   398 net.cpp:156] Memory required for data: 1332467232
I0403 15:42:10.410866   398 layer_factory.hpp:77] Creating layer inception_5b/relu_3x3
I0403 15:42:10.410889   398 net.cpp:91] Creating Layer inception_5b/relu_3x3
I0403 15:42:10.410909   398 net.cpp:425] inception_5b/relu_3x3 <- inception_5b/3x3
I0403 15:42:10.410933   398 net.cpp:386] inception_5b/relu_3x3 -> inception_5b/3x3 (in-place)
I0403 15:42:10.411226   398 net.cpp:141] Setting up inception_5b/relu_3x3
I0403 15:42:10.411257   398 net.cpp:148] Top shape: 24 384 7 7 (451584)
I0403 15:42:10.411274   398 net.cpp:156] Memory required for data: 1334273568
I0403 15:42:10.411290   398 layer_factory.hpp:77] Creating layer inception_5b/5x5_reduce
I0403 15:42:10.411330   398 net.cpp:91] Creating Layer inception_5b/5x5_reduce
I0403 15:42:10.411350   398 net.cpp:425] inception_5b/5x5_reduce <- inception_5a/output_inception_5a/output_0_split_2
I0403 15:42:10.411381   398 net.cpp:399] inception_5b/5x5_reduce -> inception_5b/5x5_reduce
I0403 15:42:10.412634   398 net.cpp:141] Setting up inception_5b/5x5_reduce
I0403 15:42:10.412664   398 net.cpp:148] Top shape: 24 48 7 7 (56448)
I0403 15:42:10.412680   398 net.cpp:156] Memory required for data: 1334499360
I0403 15:42:10.412699   398 layer_factory.hpp:77] Creating layer inception_5b/relu_5x5_reduce
I0403 15:42:10.412717   398 net.cpp:91] Creating Layer inception_5b/relu_5x5_reduce
I0403 15:42:10.412734   398 net.cpp:425] inception_5b/relu_5x5_reduce <- inception_5b/5x5_reduce
I0403 15:42:10.412751   398 net.cpp:386] inception_5b/relu_5x5_reduce -> inception_5b/5x5_reduce (in-place)
I0403 15:42:10.413120   398 net.cpp:141] Setting up inception_5b/relu_5x5_reduce
I0403 15:42:10.413148   398 net.cpp:148] Top shape: 24 48 7 7 (56448)
I0403 15:42:10.413167   398 net.cpp:156] Memory required for data: 1334725152
I0403 15:42:10.413188   398 layer_factory.hpp:77] Creating layer inception_5b/5x5
I0403 15:42:10.413208   398 net.cpp:91] Creating Layer inception_5b/5x5
I0403 15:42:10.413225   398 net.cpp:425] inception_5b/5x5 <- inception_5b/5x5_reduce
I0403 15:42:10.413244   398 net.cpp:399] inception_5b/5x5 -> inception_5b/5x5
I0403 15:42:10.415302   398 net.cpp:141] Setting up inception_5b/5x5
I0403 15:42:10.415328   398 net.cpp:148] Top shape: 24 128 7 7 (150528)
I0403 15:42:10.415344   398 net.cpp:156] Memory required for data: 1335327264
I0403 15:42:10.415362   398 layer_factory.hpp:77] Creating layer inception_5b/relu_5x5
I0403 15:42:10.415381   398 net.cpp:91] Creating Layer inception_5b/relu_5x5
I0403 15:42:10.415397   398 net.cpp:425] inception_5b/relu_5x5 <- inception_5b/5x5
I0403 15:42:10.415416   398 net.cpp:386] inception_5b/relu_5x5 -> inception_5b/5x5 (in-place)
I0403 15:42:10.415606   398 net.cpp:141] Setting up inception_5b/relu_5x5
I0403 15:42:10.415630   398 net.cpp:148] Top shape: 24 128 7 7 (150528)
I0403 15:42:10.415645   398 net.cpp:156] Memory required for data: 1335929376
I0403 15:42:10.415660   398 layer_factory.hpp:77] Creating layer inception_5b/pool
I0403 15:42:10.415680   398 net.cpp:91] Creating Layer inception_5b/pool
I0403 15:42:10.415696   398 net.cpp:425] inception_5b/pool <- inception_5a/output_inception_5a/output_0_split_3
I0403 15:42:10.415715   398 net.cpp:399] inception_5b/pool -> inception_5b/pool
I0403 15:42:10.415788   398 net.cpp:141] Setting up inception_5b/pool
I0403 15:42:10.415813   398 net.cpp:148] Top shape: 24 832 7 7 (978432)
I0403 15:42:10.415828   398 net.cpp:156] Memory required for data: 1339843104
I0403 15:42:10.415843   398 layer_factory.hpp:77] Creating layer inception_5b/pool_proj
I0403 15:42:10.415865   398 net.cpp:91] Creating Layer inception_5b/pool_proj
I0403 15:42:10.415882   398 net.cpp:425] inception_5b/pool_proj <- inception_5b/pool
I0403 15:42:10.415904   398 net.cpp:399] inception_5b/pool_proj -> inception_5b/pool_proj
I0403 15:42:10.418172   398 net.cpp:141] Setting up inception_5b/pool_proj
I0403 15:42:10.418205   398 net.cpp:148] Top shape: 24 128 7 7 (150528)
I0403 15:42:10.418222   398 net.cpp:156] Memory required for data: 1340445216
I0403 15:42:10.418241   398 layer_factory.hpp:77] Creating layer inception_5b/relu_pool_proj
I0403 15:42:10.418262   398 net.cpp:91] Creating Layer inception_5b/relu_pool_proj
I0403 15:42:10.418279   398 net.cpp:425] inception_5b/relu_pool_proj <- inception_5b/pool_proj
I0403 15:42:10.418299   398 net.cpp:386] inception_5b/relu_pool_proj -> inception_5b/pool_proj (in-place)
I0403 15:42:10.418591   398 net.cpp:141] Setting up inception_5b/relu_pool_proj
I0403 15:42:10.418619   398 net.cpp:148] Top shape: 24 128 7 7 (150528)
I0403 15:42:10.418634   398 net.cpp:156] Memory required for data: 1341047328
I0403 15:42:10.418649   398 layer_factory.hpp:77] Creating layer inception_5b/output
I0403 15:42:10.418666   398 net.cpp:91] Creating Layer inception_5b/output
I0403 15:42:10.418697   398 net.cpp:425] inception_5b/output <- inception_5b/1x1
I0403 15:42:10.418715   398 net.cpp:425] inception_5b/output <- inception_5b/3x3
I0403 15:42:10.418735   398 net.cpp:425] inception_5b/output <- inception_5b/5x5
I0403 15:42:10.418757   398 net.cpp:425] inception_5b/output <- inception_5b/pool_proj
I0403 15:42:10.418779   398 net.cpp:399] inception_5b/output -> inception_5b/output
I0403 15:42:10.418835   398 net.cpp:141] Setting up inception_5b/output
I0403 15:42:10.418866   398 net.cpp:148] Top shape: 24 1024 7 7 (1204224)
I0403 15:42:10.418886   398 net.cpp:156] Memory required for data: 1345864224
I0403 15:42:10.418908   398 layer_factory.hpp:77] Creating layer pool5/7x7_s1
I0403 15:42:10.418931   398 net.cpp:91] Creating Layer pool5/7x7_s1
I0403 15:42:10.418947   398 net.cpp:425] pool5/7x7_s1 <- inception_5b/output
I0403 15:42:10.418967   398 net.cpp:399] pool5/7x7_s1 -> pool5/7x7_s1
I0403 15:42:10.419178   398 net.cpp:141] Setting up pool5/7x7_s1
I0403 15:42:10.419204   398 net.cpp:148] Top shape: 24 1024 1 1 (24576)
I0403 15:42:10.419219   398 net.cpp:156] Memory required for data: 1345962528
I0403 15:42:10.419234   398 layer_factory.hpp:77] Creating layer pool5/drop_7x7_s1
I0403 15:42:10.419255   398 net.cpp:91] Creating Layer pool5/drop_7x7_s1
I0403 15:42:10.419273   398 net.cpp:425] pool5/drop_7x7_s1 <- pool5/7x7_s1
I0403 15:42:10.419293   398 net.cpp:386] pool5/drop_7x7_s1 -> pool5/7x7_s1 (in-place)
I0403 15:42:10.419342   398 net.cpp:141] Setting up pool5/drop_7x7_s1
I0403 15:42:10.419368   398 net.cpp:148] Top shape: 24 1024 1 1 (24576)
I0403 15:42:10.419384   398 net.cpp:156] Memory required for data: 1346060832
I0403 15:42:10.419399   398 layer_factory.hpp:77] Creating layer loss3/classifier_plantvillage
I0403 15:42:10.419420   398 net.cpp:91] Creating Layer loss3/classifier_plantvillage
I0403 15:42:10.419436   398 net.cpp:425] loss3/classifier_plantvillage <- pool5/7x7_s1
I0403 15:42:10.419456   398 net.cpp:399] loss3/classifier_plantvillage -> loss3/classifier_plantvillage
I0403 15:42:10.419870   398 net.cpp:141] Setting up loss3/classifier_plantvillage
I0403 15:42:10.419895   398 net.cpp:148] Top shape: 24 38 (912)
I0403 15:42:10.419910   398 net.cpp:156] Memory required for data: 1346064480
I0403 15:42:10.419929   398 layer_factory.hpp:77] Creating layer loss3/classifier_plantvillage_loss3/classifier_plantvillage_0_split
I0403 15:42:10.419950   398 net.cpp:91] Creating Layer loss3/classifier_plantvillage_loss3/classifier_plantvillage_0_split
I0403 15:42:10.419967   398 net.cpp:425] loss3/classifier_plantvillage_loss3/classifier_plantvillage_0_split <- loss3/classifier_plantvillage
I0403 15:42:10.419983   398 net.cpp:399] loss3/classifier_plantvillage_loss3/classifier_plantvillage_0_split -> loss3/classifier_plantvillage_loss3/classifier_plantvillage_0_split_0
I0403 15:42:10.420003   398 net.cpp:399] loss3/classifier_plantvillage_loss3/classifier_plantvillage_0_split -> loss3/classifier_plantvillage_loss3/classifier_plantvillage_0_split_1
I0403 15:42:10.420028   398 net.cpp:399] loss3/classifier_plantvillage_loss3/classifier_plantvillage_0_split -> loss3/classifier_plantvillage_loss3/classifier_plantvillage_0_split_2
I0403 15:42:10.420049   398 net.cpp:399] loss3/classifier_plantvillage_loss3/classifier_plantvillage_0_split -> loss3/classifier_plantvillage_loss3/classifier_plantvillage_0_split_3
I0403 15:42:10.420150   398 net.cpp:141] Setting up loss3/classifier_plantvillage_loss3/classifier_plantvillage_0_split
I0403 15:42:10.420173   398 net.cpp:148] Top shape: 24 38 (912)
I0403 15:42:10.420189   398 net.cpp:148] Top shape: 24 38 (912)
I0403 15:42:10.420203   398 net.cpp:148] Top shape: 24 38 (912)
I0403 15:42:10.420218   398 net.cpp:148] Top shape: 24 38 (912)
I0403 15:42:10.420231   398 net.cpp:156] Memory required for data: 1346079072
I0403 15:42:10.420245   398 layer_factory.hpp:77] Creating layer loss1/loss
I0403 15:42:10.420272   398 net.cpp:91] Creating Layer loss1/loss
I0403 15:42:10.420290   398 net.cpp:425] loss1/loss <- loss1/classifier_plantvillage_loss1/classifier_plantvillage_0_split_0
I0403 15:42:10.420322   398 net.cpp:425] loss1/loss <- label_data_1_split_0
…
