…
I0403 15:16:16.350617 31382 net.cpp:313] The NetState phase (1) differed from the phase (0) specified by a rule in layer data
I0403 15:16:16.351819 31382 net.cpp:49] Initializing net from parameters: 
state {
  phase: TEST
}
layer {
  name: "data"
  type: "Data"
  top: "data"
  top: "label"
  include {
    phase: TEST
  }
  transform_param {
    mirror: false
    crop_size: 224
    mean_file: "/home/mohanty/data/final_dataset/lmdb/color-60-40/mean.binaryproto"
  }
  data_param {
    source: "/home/mohanty/data/final_dataset/lmdb/color-60-40/test_db"
    batch_size: 24
    backend: LMDB
  }
}
layer {
  name: "conv1/7x7_s2"
  type: "Convolution"
  bottom: "data"
  top: "conv1/7x7_s2"
  param {
    lr_mult: 1
    decay_mult: 1
  }
  param {
    lr_mult: 2
    decay_mult: 0
  }
  convolution_param {
    num_output: 64
    pad: 3
    kernel_size: 7
    stride: 2
    weight_filler {
      type: "xavier"
      std: 0.1
    }
    bias_filler {
      type: "constant"
      value: 0.2
    }
  }
}
layer {
  name: "conv1/relu_7x7"
  type: "ReLU"
  bottom: "conv1/7x7_s2"
  top: "conv1/7x7_s2"
}
layer {
  name: "pool1/3x3_s2"
  type: "Pooling"
  bottom: "conv1/7x7_s2"
  top: "pool1/3x3_s2"
  pooling_param {
    pool: MAX
    kernel_size: 3
    stride: 2
  }
}
layer {
  name: "pool1/norm1"
  type: "LRN"
  bottom: "pool1/3x3_s2"
  top: "pool1/norm1"
  lrn_param {
    local_size: 5
    alpha: 0.0001
    beta: 0.75
  }
}
layer {
  name: "conv2/3x3_reduce"
  type: "Convolution"
  bottom: "pool1/norm1"
  top: "conv2/3x3_reduce"
  param {
    lr_mult: 1
    decay_mult: 1
  }
  param {
    lr_mult: 2
    decay_mult: 0
  }
  convolution_param {
    num_output: 64
    kernel_size: 1
    weight_filler {
      type: "xavier"
      std: 0.1
    }
    bias_filler {
      type: "constant"
      value: 0.2
    }
  }
}
layer {
  name: "conv2/relu_3x3_reduce"
  type: "ReLU"
  bottom: "conv2/3x3_reduce"
  top: "conv2/3x3_reduce"
}
layer {
  name: "conv2/3x3"
  type: "Convolution"
  bottom: "conv2/3x3_reduce"
  top: "conv2/3x3"
  param {
    lr_mult: 1
    decay_mult: 1
  }
  param {
    lr_mult: 2
    decay_mult: 0
  }
  convolution_param {
    num_output: 192
    pad: 1
    kernel_size: 3
    weight_filler {
      type: "xavier"
      std: 0.03
    }
    bias_filler {
      type: "constant"
      value: 0.2
    }
  }
}
layer {
  name: "conv2/relu_3x3"
  type: "ReLU"
  bottom: "conv2/3x3"
  top: "conv2/3x3"
}
layer {
  name: "conv2/norm2"
  type: "LRN"
  bottom: "conv2/3x3"
  top: "conv2/norm2"
  lrn_param {
    local_size: 5
    alpha: 0.0001
    beta: 0.75
  }
}
layer {
  name: "pool2/3x3_s2"
  type: "Pooling"
  bottom: "conv2/norm2"
  top: "pool2/3x3_s2"
  pooling_param {
    pool: MAX
    kernel_size: 3
    stride: 2
  }
}
layer {
  name: "inception_3a/1x1"
  type: "Convolution"
  bottom: "pool2/3x3_s2"
  top: "inception_3a/1x1"
  param {
    lr_mult: 1
    decay_mult: 1
  }
  param {
    lr_mult: 2
    decay_mult: 0
  }
  convolution_param {
    num_output: 64
    kernel_size: 1
    weight_filler {
      type: "xavier"
      std: 0.03
    }
    bias_filler {
      type: "constant"
      value: 0.2
    }
  }
}
layer {
  name: "inception_3a/relu_1x1"
  type: "ReLU"
  bottom: "inception_3a/1x1"
  top: "inception_3a/1x1"
}
layer {
  name: "inception_3a/3x3_reduce"
  type: "Convolution"
  bottom: "pool2/3x3_s2"
  top: "inception_3a/3x3_reduce"
  param {
    lr_mult: 1
    decay_mult: 1
  }
  param {
    lr_mult: 2
    decay_mult: 0
  }
  convolution_param {
    num_output: 96
    kernel_size: 1
    weight_filler {
      type: "xavier"
      std: 0.09
    }
    bias_filler {
      type: "constant"
      value: 0.2
    }
  }
}
layer {
  name: "inception_3a/relu_3x3_reduce"
  type: "ReLU"
  bottom: "inception_3a/3x3_reduce"
  top: "inception_3a/3x3_reduce"
}
layer {
  name: "inception_3a/3x3"
  type: "Convolution"
  bottom: "inception_3a/3x3_reduce"
  top: "inception_3a/3x3"
  param {
    lr_mult: 1
    decay_mult: 1
  }
  param {
    lr_mult: 2
    decay_mult: 0
  }
  convolution_param {
    num_output: 128
    pad: 1
    kernel_size: 3
    weight_filler {
      type: "xavier"
      std: 0.03
    }
    bias_filler {
      type: "constant"
      value: 0.2
    }
  }
}
layer {
  name: "inception_3a/relu_3x3"
  type: "ReLU"
  bottom: "inception_3a/3x3"
  top: "inception_3a/3x3"
}
layer {
  name: "inception_3a/5x5_reduce"
  type: "Convolution"
  bottom: "pool2/3x3_s2"
  top: "inception_3a/5x5_reduce"
  param {
    lr_mult: 1
    decay_mult: 1
  }
  param {
    lr_mult: 2
    decay_mult: 0
  }
  convolution_param {
    num_output: 16
    kernel_size: 1
    weight_filler {
      type: "xavier"
      std: 0.2
    }
    bias_filler {
      type: "constant"
      value: 0.2
    }
  }
}
layer {
  name: "inception_3a/relu_5x5_reduce"
  type: "ReLU"
  bottom: "inception_3a/5x5_reduce"
  top: "inception_3a/5x5_reduce"
}
layer {
  name: "inception_3a/5x5"
  type: "Convolution"
  bottom: "inception_3a/5x5_reduce"
  top: "inception_3a/5x5"
  param {
    lr_mult: 1
    decay_mult: 1
  }
  param {
    lr_mult: 2
    decay_mult: 0
  }
  convolution_param {
    num_output: 32
    pad: 2
    kernel_size: 5
    weight_filler {
      type: "xavier"
      std: 0.03
    }
    bias_filler {
      type: "constant"
      value: 0.2
    }
  }
}
layer {
  name: "inception_3a/relu_5x5"
  type: "ReLU"
  bottom: "inception_3a/5x5"
  top: "inception_3a/5x5"
}
layer {
  name: "inception_3a/pool"
  type: "Pooling"
  bottom: "pool2/3x3_s2"
  top: "inception_3a/pool"
  pooling_param {
    pool: MAX
    kernel_size: 3
    stride: 1
    pad: 1
  }
}
layer {
  name: "inception_3a/pool_proj"
  type: "Convolution"
  bottom: "inception_3a/pool"
  top: "inception_3a/pool_proj"
  param {
    lr_mult: 1
    decay_mult: 1
  }
  param {
    lr_mult: 2
    decay_mult: 0
  }
  convolution_param {
    num_output: 32
    kernel_size: 1
    weight_filler {
      type: "xavier"
      std: 0.1
    }
    bias_filler {
      type: "constant"
      value: 0.2
    }
  }
}
layer {
  name: "inception_3a/relu_pool_proj"
  type: "ReLU"
  bottom: "inception_3a/pool_proj"
  top: "inception_3a/pool_proj"
}
layer {
  name: "inception_3a/output"
  type: "Concat"
  bottom: "inception_3a/1x1"
  bottom: "inception_3a/3x3"
  bottom: "inception_3a/5x5"
  bottom: "inception_3a/pool_proj"
  top: "inception_3a/output"
}
layer {
  name: "inception_3b/1x1"
  type: "Convolution"
  bottom: "inception_3a/output"
  top: "inception_3b/1x1"
  param {
    lr_mult: 1
    decay_mult: 1
  }
  param {
    lr_mult: 2
    decay_mult: 0
  }
  convolution_param {
    num_output: 128
    kernel_size: 1
    weight_filler {
      type: "xavier"
      std: 0.03
    }
    bias_filler {
      type: "constant"
      value: 0.2
    }
  }
}
layer {
  name: "inception_3b/relu_1x1"
  type: "ReLU"
  bottom: "inception_3b/1x1"
  top: "inception_3b/1x1"
}
layer {
  name: "inception_3b/3x3_reduce"
  type: "Convolution"
  bottom: "inception_3a/output"
  top: "inception_3b/3x3_reduce"
  param {
    lr_mult: 1
    decay_mult: 1
  }
  param {
    lr_mult: 2
    decay_mult: 0
  }
  convolution_param {
    num_output: 128
    kernel_size: 1
    weight_filler {
      type: "xavier"
      std: 0.09
    }
    bias_filler {
      type: "constant"
      value: 0.2
    }
  }
}
layer {
  name: "inception_3b/relu_3x3_reduce"
  type: "ReLU"
  bottom: "inception_3b/3x3_reduce"
  top: "inception_3b/3x3_reduce"
}
layer {
  name: "inception_3b/3x3"
  type: "Convolution"
  bottom: "inception_3b/3x3_reduce"
  top: "inception_3b/3x3"
  param {
    lr_mult: 1
    decay_mult: 1
  }
  param {
    lr_mult: 2
    decay_mult: 0
  }
  convolution_param {
    num_output: 192
    pad: 1
    kernel_size: 3
    weight_filler {
      type: "xavier"
      std: 0.03
    }
    bias_filler {
      type: "constant"
      value: 0.2
    }
  }
}
layer {
  name: "inception_3b/relu_3x3"
  type: "ReLU"
  bottom: "inception_3b/3x3"
  top: "inception_3b/3x3"
}
layer {
  name: "inception_3b/5x5_reduce"
  type: "Convolution"
  bottom: "inception_3a/output"
  top: "inception_3b/5x5_reduce"
  param {
    lr_mult: 1
    decay_mult: 1
  }
  param {
    lr_mult: 2
    decay_mult: 0
  }
  convolution_param {
    num_output: 32
    kernel_size: 1
    weight_filler {
      type: "xavier"
      std: 0.2
    }
    bias_filler {
      type: "constant"
      value: 0.2
    }
  }
}
layer {
  name: "inception_3b/relu_5x5_reduce"
  type: "ReLU"
  bottom: "inception_3b/5x5_reduce"
  top: "inception_3b/5x5_reduce"
}
layer {
  name: "inception_3b/5x5"
  type: "Convolution"
  bottom: "inception_3b/5x5_reduce"
  top: "inception_3b/5x5"
  param {
    lr_mult: 1
    decay_mult: 1
  }
  param {
    lr_mult: 2
    decay_mult: 0
  }
  convolution_param {
    num_output: 96
    pad: 2
    kernel_size: 5
    weight_filler {
      type: "xavier"
      std: 0.03
    }
    bias_filler {
      type: "constant"
      value: 0.2
    }
  }
}
layer {
  name: "inception_3b/relu_5x5"
  type: "ReLU"
  bottom: "inception_3b/5x5"
  top: "inception_3b/5x5"
}
layer {
  name: "inception_3b/pool"
  type: "Pooling"
  bottom: "inception_3a/output"
  top: "inception_3b/pool"
  pooling_param {
    pool: MAX
    kernel_size: 3
    stride: 1
    pad: 1
  }
}
layer {
  name: "inception_3b/pool_proj"
  type: "Convolution"
  bottom: "inception_3b/pool"
  top: "inception_3b/pool_proj"
  param {
    lr_mult: 1
    decay_mult: 1
  }
  param {
    lr_mult: 2
    decay_mult: 0
  }
  convolution_param {
    num_output: 64
    kernel_size: 1
    weight_filler {
      type: "xavier"
      std: 0.1
    }
    bias_filler {
      type: "constant"
      value: 0.2
    }
  }
}
layer {
  name: "inception_3b/relu_pool_proj"
  type: "ReLU"
  bottom: "inception_3b/pool_proj"
  top: "inception_3b/pool_proj"
}
layer {
  name: "inception_3b/output"
  type: "Concat"
  bottom: "inception_3b/1x1"
  bottom: "inception_3b/3x3"
  bottom: "inception_3b/5x5"
  bottom: "inception_3b/pool_proj"
  top: "inception_3b/output"
}
layer {
  name: "pool3/3x3_s2"
  type: "Pooling"
  bottom: "inception_3b/output"
  top: "pool3/3x3_s2"
  pooling_param {
    pool: MAX
    kernel_size: 3
    stride: 2
  }
}
layer {
  name: "inception_4a/1x1"
  type: "Convolution"
  bottom: "pool3/3x3_s2"
  top: "inception_4a/1x1"
  param {
    lr_mult: 1
    decay_mult: 1
  }
  param {
    lr_mult: 2
    decay_mult: 0
  }
  convolution_param {
    num_output: 192
    kernel_size: 1
    weight_filler {
      type: "xavier"
      std: 0.03
    }
    bias_filler {
      type: "constant"
      value: 0.2
    }
  }
}
layer {
  name: "inception_4a/relu_1x1"
  type: "ReLU"
  bottom: "inception_4a/1x1"
  top: "inception_4a/1x1"
}
layer {
  name: "inception_4a/3x3_reduce"
  type: "Convolution"
  bottom: "pool3/3x3_s2"
  top: "inception_4a/3x3_reduce"
  param {
    lr_mult: 1
    decay_mult: 1
  }
  param {
    lr_mult: 2
    decay_mult: 0
  }
  convolution_param {
    num_output: 96
    kernel_size: 1
    weight_filler {
      type: "xavier"
      std: 0.09
    }
    bias_filler {
      type: "constant"
      value: 0.2
    }
  }
}
layer {
  name: "inception_4a/relu_3x3_reduce"
  type: "ReLU"
  bottom: "inception_4a/3x3_reduce"
  top: "inception_4a/3x3_reduce"
}
layer {
  name: "inception_4a/3x3"
  type: "Convolution"
  bottom: "inception_4a/3x3_reduce"
  top: "inception_4a/3x3"
  param {
    lr_mult: 1
    decay_mult: 1
  }
  param {
    lr_mult: 2
    decay_mult: 0
  }
  convolution_param {
    num_output: 208
    pad: 1
    kernel_size: 3
    weight_filler {
      type: "xavier"
      std: 0.03
    }
    bias_filler {
      type: "constant"
      value: 0.2
    }
  }
}
layer {
  name: "inception_4a/relu_3x3"
  type: "ReLU"
  bottom: "inception_4a/3x3"
  top: "inception_4a/3x3"
}
layer {
  name: "inception_4a/5x5_reduce"
  type: "Convolution"
  bottom: "pool3/3x3_s2"
  top: "inception_4a/5x5_reduce"
  param {
    lr_mult: 1
    decay_mult: 1
  }
  param {
    lr_mult: 2
    decay_mult: 0
  }
  convolution_param {
    num_output: 16
    kernel_size: 1
    weight_filler {
      type: "xavier"
      std: 0.2
    }
    bias_filler {
      type: "constant"
      value: 0.2
    }
  }
}
layer {
  name: "inception_4a/relu_5x5_reduce"
  type: "ReLU"
  bottom: "inception_4a/5x5_reduce"
  top: "inception_4a/5x5_reduce"
}
layer {
  name: "inception_4a/5x5"
  type: "Convolution"
  bottom: "inception_4a/5x5_reduce"
  top: "inception_4a/5x5"
  param {
    lr_mult: 1
    decay_mult: 1
  }
  param {
    lr_mult: 2
    decay_mult: 0
  }
  convolution_param {
    num_output: 48
    pad: 2
    kernel_size: 5
    weight_filler {
      type: "xavier"
      std: 0.03
    }
    bias_filler {
      type: "constant"
      value: 0.2
    }
  }
}
layer {
  name: "inception_4a/relu_5x5"
  type: "ReLU"
  bottom: "inception_4a/5x5"
  top: "inception_4a/5x5"
}
layer {
  name: "inception_4a/pool"
  type: "Pooling"
  bottom: "pool3/3x3_s2"
  top: "inception_4a/pool"
  pooling_param {
    pool: MAX
    kernel_size: 3
    stride: 1
    pad: 1
  }
}
layer {
  name: "inception_4a/pool_proj"
  type: "Convolution"
  bottom: "inception_4a/pool"
  top: "inception_4a/pool_proj"
  param {
    lr_mult: 1
    decay_mult: 1
  }
  param {
    lr_mult: 2
    decay_mult: 0
  }
  convolution_param {
    num_output: 64
    kernel_size: 1
    weight_filler {
      type: "xavier"
      std: 0.1
    }
    bias_filler {
      type: "constant"
      value: 0.2
    }
  }
}
layer {
  name: "inception_4a/relu_pool_proj"
  type: "ReLU"
  bottom: "inception_4a/pool_proj"
  top: "inception_4a/pool_proj"
}
layer {
  name: "inception_4a/output"
  type: "Concat"
  bottom: "inception_4a/1x1"
  bottom: "inception_4a/3x3"
  bottom: "inception_4a/5x5"
  bottom: "inception_4a/pool_proj"
  top: "inception_4a/output"
}
layer {
  name: "loss1/ave_pool"
  type: "Pooling"
  bottom: "inception_4a/output"
  top: "loss1/ave_pool"
  pooling_param {
    pool: AVE
    kernel_size: 5
    stride: 3
  }
}
layer {
  name: "loss1/conv"
  type: "Convolution"
  bottom: "loss1/ave_pool"
  top: "loss1/conv"
  param {
    lr_mult: 1
    decay_mult: 1
  }
  param {
    lr_mult: 2
    decay_mult: 0
  }
  convolution_param {
    num_output: 128
    kernel_size: 1
    weight_filler {
      type: "xavier"
      std: 0.08
    }
    bias_filler {
      type: "constant"
      value: 0.2
    }
  }
}
layer {
  name: "loss1/relu_conv"
  type: "ReLU"
  bottom: "loss1/conv"
  top: "loss1/conv"
}
layer {
  name: "loss1/fc"
  type: "InnerProduct"
  bottom: "loss1/conv"
  top: "loss1/fc"
  param {
    lr_mult: 1
    decay_mult: 1
  }
  param {
    lr_mult: 2
    decay_mult: 0
  }
  inner_product_param {
    num_output: 1024
    weight_filler {
      type: "xavier"
      std: 0.02
    }
    bias_filler {
      type: "constant"
      value: 0.2
    }
  }
}
layer {
  name: "loss1/relu_fc"
  type: "ReLU"
  bottom: "loss1/fc"
  top: "loss1/fc"
}
layer {
  name: "loss1/drop_fc"
  type: "Dropout"
  bottom: "loss1/fc"
  top: "loss1/fc"
  dropout_param {
    dropout_ratio: 0.7
  }
}
layer {
  name: "loss1/classifier_plantvillage"
  type: "InnerProduct"
  bottom: "loss1/fc"
  top: "loss1/classifier_plantvillage"
  param {
    lr_mult: 1
    decay_mult: 1
  }
  param {
    lr_mult: 2
    decay_mult: 0
  }
  inner_product_param {
    num_output: 38
    weight_filler {
      type: "xavier"
      std: 0.0009765625
    }
    bias_filler {
      type: "constant"
      value: 0
    }
  }
}
layer {
  name: "inception_4b/1x1"
  type: "Convolution"
  bottom: "inception_4a/output"
  top: "inception_4b/1x1"
  param {
    lr_mult: 1
    decay_mult: 1
  }
  param {
    lr_mult: 2
    decay_mult: 0
  }
  convolution_param {
    num_output: 160
    kernel_size: 1
    weight_filler {
      type: "xavier"
      std: 0.03
    }
    bias_filler {
      type: "constant"
      value: 0.2
    }
  }
}
layer {
  name: "inception_4b/relu_1x1"
  type: "ReLU"
  bottom: "inception_4b/1x1"
  top: "inception_4b/1x1"
}
layer {
  name: "inception_4b/3x3_reduce"
  type: "Convolution"
  bottom: "inception_4a/output"
  top: "inception_4b/3x3_reduce"
  param {
    lr_mult: 1
    decay_mult: 1
  }
  param {
    lr_mult: 2
    decay_mult: 0
  }
  convolution_param {
    num_output: 112
    kernel_size: 1
    weight_filler {
      type: "xavier"
      std: 0.09
    }
    bias_filler {
      type: "constant"
      value: 0.2
    }
  }
}
layer {
  name: "inception_4b/relu_3x3_reduce"
  type: "ReLU"
  bottom: "inception_4b/3x3_reduce"
  top: "inception_4b/3x3_reduce"
}
layer {
  name: "inception_4b/3x3"
  type: "Convolution"
  bottom: "inception_4b/3x3_reduce"
  top: "inception_4b/3x3"
  param {
    lr_mult: 1
    decay_mult: 1
  }
  param {
    lr_mult: 2
    decay_mult: 0
  }
  convolution_param {
    num_output: 224
    pad: 1
    kernel_size: 3
    weight_filler {
      type: "xavier"
      std: 0.03
    }
    bias_filler {
      type: "constant"
      value: 0.2
    }
  }
}
layer {
  name: "inception_4b/relu_3x3"
  type: "ReLU"
  bottom: "inception_4b/3x3"
  top: "inception_4b/3x3"
}
layer {
  name: "inception_4b/5x5_reduce"
  type: "Convolution"
  bottom: "inception_4a/output"
  top: "inception_4b/5x5_reduce"
  param {
    lr_mult: 1
    decay_mult: 1
  }
  param {
    lr_mult: 2
    decay_mult: 0
  }
  convolution_param {
    num_output: 24
    kernel_size: 1
    weight_filler {
      type: "xavier"
      std: 0.2
    }
    bias_filler {
      type: "constant"
      value: 0.2
    }
  }
}
layer {
  name: "inception_4b/relu_5x5_reduce"
  type: "ReLU"
  bottom: "inception_4b/5x5_reduce"
  top: "inception_4b/5x5_reduce"
}
layer {
  name: "inception_4b/5x5"
  type: "Convolution"
  bottom: "inception_4b/5x5_reduce"
  top: "inception_4b/5x5"
  param {
    lr_mult: 1
    decay_mult: 1
  }
  param {
    lr_mult: 2
    decay_mult: 0
  }
  convolution_param {
    num_output: 64
    pad: 2
    kernel_size: 5
    weight_filler {
      type: "xavier"
      std: 0.03
    }
    bias_filler {
      type: "constant"
      value: 0.2
    }
  }
}
layer {
  name: "inception_4b/relu_5x5"
  type: "ReLU"
  bottom: "inception_4b/5x5"
  top: "inception_4b/5x5"
}
layer {
  name: "inception_4b/pool"
  type: "Pooling"
  bottom: "inception_4a/output"
  top: "inception_4b/pool"
  pooling_param {
    pool: MAX
    kernel_size: 3
    stride: 1
    pad: 1
  }
}
layer {
  name: "inception_4b/pool_proj"
  type: "Convolution"
  bottom: "inception_4b/pool"
  top: "inception_4b/pool_proj"
  param {
    lr_mult: 1
    decay_mult: 1
  }
  param {
    lr_mult: 2
    decay_mult: 0
  }
  convolution_param {
    num_output: 64
    kernel_size: 1
    weight_filler {
      type: "xavier"
      std: 0.1
    }
    bias_filler {
      type: "constant"
      value: 0.2
    }
  }
}
layer {
  name: "inception_4b/relu_pool_proj"
  type: "ReLU"
  bottom: "inception_4b/pool_proj"
  top: "inception_4b/pool_proj"
}
layer {
  name: "inception_4b/output"
  type: "Concat"
  bottom: "inception_4b/1x1"
  bottom: "inception_4b/3x3"
  bottom: "inception_4b/5x5"
  bottom: "inception_4b/pool_proj"
  top: "inception_4b/output"
}
layer {
  name: "inception_4c/1x1"
  type: "Convolution"
  bottom: "inception_4b/output"
  top: "inception_4c/1x1"
  param {
    lr_mult: 1
    decay_mult: 1
  }
  param {
    lr_mult: 2
    decay_mult: 0
  }
  convolution_param {
    num_output: 128
    kernel_size: 1
    weight_filler {
      type: "xavier"
      std: 0.03
    }
    bias_filler {
      type: "constant"
      value: 0.2
    }
  }
}
layer {
  name: "inception_4c/relu_1x1"
  type: "ReLU"
  bottom: "inception_4c/1x1"
  top: "inception_4c/1x1"
}
layer {
  name: "inception_4c/3x3_reduce"
  type: "Convolution"
  bottom: "inception_4b/output"
  top: "inception_4c/3x3_reduce"
  param {
    lr_mult: 1
    decay_mult: 1
  }
  param {
    lr_mult: 2
    decay_mult: 0
  }
  convolution_param {
    num_output: 128
    kernel_size: 1
    weight_filler {
      type: "xavier"
      std: 0.09
    }
    bias_filler {
      type: "constant"
      value: 0.2
    }
  }
}
layer {
  name: "inception_4c/relu_3x3_reduce"
  type: "ReLU"
  bottom: "inception_4c/3x3_reduce"
  top: "inception_4c/3x3_reduce"
}
layer {
  name: "inception_4c/3x3"
  type: "Convolution"
  bottom: "inception_4c/3x3_reduce"
  top: "inception_4c/3x3"
  param {
    lr_mult: 1
    decay_mult: 1
  }
  param {
    lr_mult: 2
    decay_mult: 0
  }
  convolution_param {
    num_output: 256
    pad: 1
    kernel_size: 3
    weight_filler {
      type: "xavier"
      std: 0.03
    }
    bias_filler {
      type: "constant"
      value: 0.2
    }
  }
}
layer {
  name: "inception_4c/relu_3x3"
  type: "ReLU"
  bottom: "inception_4c/3x3"
  top: "inception_4c/3x3"
}
layer {
  name: "inception_4c/5x5_reduce"
  type: "Convolution"
  bottom: "inception_4b/output"
  top: "inception_4c/5x5_reduce"
  param {
    lr_mult: 1
    decay_mult: 1
  }
  param {
    lr_mult: 2
    decay_mult: 0
  }
  convolution_param {
    num_output: 24
    kernel_size: 1
    weight_filler {
      type: "xavier"
      std: 0.2
    }
    bias_filler {
      type: "constant"
      value: 0.2
    }
  }
}
layer {
  name: "inception_4c/relu_5x5_reduce"
  type: "ReLU"
  bottom: "inception_4c/5x5_reduce"
  top: "inception_4c/5x5_reduce"
}
layer {
  name: "inception_4c/5x5"
  type: "Convolution"
  bottom: "inception_4c/5x5_reduce"
  top: "inception_4c/5x5"
  param {
    lr_mult: 1
    decay_mult: 1
  }
  param {
    lr_mult: 2
    decay_mult: 0
  }
  convolution_param {
    num_output: 64
    pad: 2
    kernel_size: 5
    weight_filler {
      type: "xavier"
      std: 0.03
    }
    bias_filler {
      type: "constant"
      value: 0.2
    }
  }
}
layer {
  name: "inception_4c/relu_5x5"
  type: "ReLU"
  bottom: "inception_4c/5x5"
  top: "inception_4c/5x5"
}
layer {
  name: "inception_4c/pool"
  type: "Pooling"
  bottom: "inception_4b/output"
  top: "inception_4c/pool"
  pooling_param {
    pool: MAX
    kernel_size: 3
    stride: 1
    pad: 1
  }
}
layer {
  name: "inception_4c/pool_proj"
  type: "Convolution"
  bottom: "inception_4c/pool"
  top: "inception_4c/pool_proj"
  param {
    lr_mult: 1
    decay_mult: 1
  }
  param {
    lr_mult: 2
    decay_mult: 0
  }
  convolution_param {
    num_output: 64
    kernel_size: 1
    weight_filler {
      type: "xavier"
      std: 0.1
    }
    bias_filler {
      type: "constant"
      value: 0.2
    }
  }
}
layer {
  name: "inception_4c/relu_pool_proj"
  type: "ReLU"
  bottom: "inception_4c/pool_proj"
  top: "inception_4c/pool_proj"
}
layer {
  name: "inception_4c/output"
  type: "Concat"
  bottom: "inception_4c/1x1"
  bottom: "inception_4c/3x3"
  bottom: "inception_4c/5x5"
  bottom: "inception_4c/pool_proj"
  top: "inception_4c/output"
}
layer {
  name: "inception_4d/1x1"
  type: "Convolution"
  bottom: "inception_4c/output"
  top: "inception_4d/1x1"
  param {
    lr_mult: 1
    decay_mult: 1
  }
  param {
    lr_mult: 2
    decay_mult: 0
  }
  convolution_param {
    num_output: 112
    kernel_size: 1
    weight_filler {
      type: "xavier"
      std: 0.03
    }
    bias_filler {
      type: "constant"
      value: 0.2
    }
  }
}
layer {
  name: "inception_4d/relu_1x1"
  type: "ReLU"
  bottom: "inception_4d/1x1"
  top: "inception_4d/1x1"
}
layer {
  name: "inception_4d/3x3_reduce"
  type: "Convolution"
  bottom: "inception_4c/output"
  top: "inception_4d/3x3_reduce"
  param {
    lr_mult: 1
    decay_mult: 1
  }
  param {
    lr_mult: 2
    decay_mult: 0
  }
  convolution_param {
    num_output: 144
    kernel_size: 1
    weight_filler {
      type: "xavier"
      std: 0.09
    }
    bias_filler {
      type: "constant"
      value: 0.2
    }
  }
}
layer {
  name: "inception_4d/relu_3x3_reduce"
  type: "ReLU"
  bottom: "inception_4d/3x3_reduce"
  top: "inception_4d/3x3_reduce"
}
layer {
  name: "inception_4d/3x3"
  type: "Convolution"
  bottom: "inception_4d/3x3_reduce"
  top: "inception_4d/3x3"
  param {
    lr_mult: 1
    decay_mult: 1
  }
  param {
    lr_mult: 2
    decay_mult: 0
  }
  convolution_param {
    num_output: 288
    pad: 1
    kernel_size: 3
    weight_filler {
      type: "xavier"
      std: 0.03
    }
    bias_filler {
      type: "constant"
      value: 0.2
    }
  }
}
layer {
  name: "inception_4d/relu_3x3"
  type: "ReLU"
  bottom: "inception_4d/3x3"
  top: "inception_4d/3x3"
}
layer {
  name: "inception_4d/5x5_reduce"
  type: "Convolution"
  bottom: "inception_4c/output"
  top: "inception_4d/5x5_reduce"
  param {
    lr_mult: 1
    decay_mult: 1
  }
  param {
    lr_mult: 2
    decay_mult: 0
  }
  convolution_param {
    num_output: 32
    kernel_size: 1
    weight_filler {
      type: "xavier"
      std: 0.2
    }
    bias_filler {
      type: "constant"
      value: 0.2
    }
  }
}
layer {
  name: "inception_4d/relu_5x5_reduce"
  type: "ReLU"
  bottom: "inception_4d/5x5_reduce"
  top: "inception_4d/5x5_reduce"
}
layer {
  name: "inception_4d/5x5"
  type: "Convolution"
  bottom: "inception_4d/5x5_reduce"
  top: "inception_4d/5x5"
  param {
    lr_mult: 1
    decay_mult: 1
  }
  param {
    lr_mult: 2
    decay_mult: 0
  }
  convolution_param {
    num_output: 64
    pad: 2
    kernel_size: 5
    weight_filler {
      type: "xavier"
      std: 0.03
    }
    bias_filler {
      type: "constant"
      value: 0.2
    }
  }
}
layer {
  name: "inception_4d/relu_5x5"
  type: "ReLU"
  bottom: "inception_4d/5x5"
  top: "inception_4d/5x5"
}
layer {
  name: "inception_4d/pool"
  type: "Pooling"
  bottom: "inception_4c/output"
  top: "inception_4d/pool"
  pooling_param {
    pool: MAX
    kernel_size: 3
    stride: 1
    pad: 1
  }
}
layer {
  name: "inception_4d/pool_proj"
  type: "Convolution"
  bottom: "inception_4d/pool"
  top: "inception_4d/pool_proj"
  param {
    lr_mult: 1
    decay_mult: 1
  }
  param {
    lr_mult: 2
    decay_mult: 0
  }
  convolution_param {
    num_output: 64
    kernel_size: 1
    weight_filler {
      type: "xavier"
      std: 0.1
    }
    bias_filler {
      type: "constant"
      value: 0.2
    }
  }
}
layer {
  name: "inception_4d/relu_pool_proj"
  type: "ReLU"
  bottom: "inception_4d/pool_proj"
  top: "inception_4d/pool_proj"
}
layer {
  name: "inception_4d/output"
  type: "Concat"
  bottom: "inception_4d/1x1"
  bottom: "inception_4d/3x3"
  bottom: "inception_4d/5x5"
  bottom: "inception_4d/pool_proj"
  top: "inception_4d/output"
}
layer {
  name: "loss2/ave_pool"
  type: "Pooling"
  bottom: "inception_4d/output"
  top: "loss2/ave_pool"
  pooling_param {
    pool: AVE
    kernel_size: 5
    stride: 3
  }
}
layer {
  name: "loss2/conv"
  type: "Convolution"
  bottom: "loss2/ave_pool"
  top: "loss2/conv"
  param {
    lr_mult: 1
    decay_mult: 1
  }
  param {
    lr_mult: 2
    decay_mult: 0
  }
  convolution_param {
    num_output: 128
    kernel_size: 1
    weight_filler {
      type: "xavier"
      std: 0.08
    }
    bias_filler {
      type: "constant"
      value: 0.2
    }
  }
}
layer {
  name: "loss2/relu_conv"
  type: "ReLU"
  bottom: "loss2/conv"
  top: "loss2/conv"
}
layer {
  name: "loss2/fc"
  type: "InnerProduct"
  bottom: "loss2/conv"
  top: "loss2/fc"
  param {
    lr_mult: 1
    decay_mult: 1
  }
  param {
    lr_mult: 2
    decay_mult: 0
  }
  inner_product_param {
    num_output: 1024
    weight_filler {
      type: "xavier"
      std: 0.02
    }
    bias_filler {
      type: "constant"
      value: 0.2
    }
  }
}
layer {
  name: "loss2/relu_fc"
  type: "ReLU"
  bottom: "loss2/fc"
  top: "loss2/fc"
}
layer {
  name: "loss2/drop_fc"
  type: "Dropout"
  bottom: "loss2/fc"
  top: "loss2/fc"
  dropout_param {
    dropout_ratio: 0.7
  }
}
layer {
  name: "loss2/classifier_plantvillage"
  type: "InnerProduct"
  bottom: "loss2/fc"
  top: "loss2/classifier_plantvillage"
  param {
    lr_mult: 1
    decay_mult: 1
  }
  param {
    lr_mult: 2
    decay_mult: 0
  }
  inner_product_param {
    num_output: 38
    weight_filler {
      type: "xavier"
      std: 0.0009765625
    }
    bias_filler {
      type: "constant"
      value: 0
    }
  }
}
layer {
  name: "inception_4e/1x1"
  type: "Convolution"
  bottom: "inception_4d/output"
  top: "inception_4e/1x1"
  param {
    lr_mult: 1
    decay_mult: 1
  }
  param {
    lr_mult: 2
    decay_mult: 0
  }
  convolution_param {
    num_output: 256
    kernel_size: 1
    weight_filler {
      type: "xavier"
      std: 0.03
    }
    bias_filler {
      type: "constant"
      value: 0.2
    }
  }
}
layer {
  name: "inception_4e/relu_1x1"
  type: "ReLU"
  bottom: "inception_4e/1x1"
  top: "inception_4e/1x1"
}
layer {
  name: "inception_4e/3x3_reduce"
  type: "Convolution"
  bottom: "inception_4d/output"
  top: "inception_4e/3x3_reduce"
  param {
    lr_mult: 1
    decay_mult: 1
  }
  param {
    lr_mult: 2
    decay_mult: 0
  }
  convolution_param {
    num_output: 160
    kernel_size: 1
    weight_filler {
      type: "xavier"
      std: 0.09
    }
    bias_filler {
      type: "constant"
      value: 0.2
    }
  }
}
layer {
  name: "inception_4e/relu_3x3_reduce"
  type: "ReLU"
  bottom: "inception_4e/3x3_reduce"
  top: "inception_4e/3x3_reduce"
}
layer {
  name: "inception_4e/3x3"
  type: "Convolution"
  bottom: "inception_4e/3x3_reduce"
  top: "inception_4e/3x3"
  param {
    lr_mult: 1
    decay_mult: 1
  }
  param {
    lr_mult: 2
    decay_mult: 0
  }
  convolution_param {
    num_output: 320
    pad: 1
    kernel_size: 3
    weight_filler {
      type: "xavier"
      std: 0.03
    }
    bias_filler {
      type: "constant"
      value: 0.2
    }
  }
}
layer {
  name: "inception_4e/relu_3x3"
  type: "ReLU"
  bottom: "inception_4e/3x3"
  top: "inception_4e/3x3"
}
layer {
  name: "inception_4e/5x5_reduce"
  type: "Convolution"
  bottom: "inception_4d/output"
  top: "inception_4e/5x5_reduce"
  param {
    lr_mult: 1
    decay_mult: 1
  }
  param {
    lr_mult: 2
    decay_mult: 0
  }
  convolution_param {
    num_output: 32
    kernel_size: 1
    weight_filler {
      type: "xavier"
      std: 0.2
    }
    bias_filler {
      type: "constant"
      value: 0.2
    }
  }
}
layer {
  name: "inception_4e/relu_5x5_reduce"
  type: "ReLU"
  bottom: "inception_4e/5x5_reduce"
  top: "inception_4e/5x5_reduce"
}
layer {
  name: "inception_4e/5x5"
  type: "Convolution"
  bottom: "inception_4e/5x5_reduce"
  top: "inception_4e/5x5"
  p
I0403 15:16:16.353117 31382 layer_factory.hpp:77] Creating layer data
I0403 15:16:16.353746 31382 net.cpp:91] Creating Layer data
I0403 15:16:16.353780 31382 net.cpp:399] data -> data
I0403 15:16:16.353837 31382 net.cpp:399] data -> label
I0403 15:16:16.353874 31382 data_transformer.cpp:25] Loading mean file from: /home/mohanty/data/final_dataset/lmdb/color-60-40/mean.binaryproto
I0403 15:16:16.357386 31388 db_lmdb.cpp:38] Opened lmdb /home/mohanty/data/final_dataset/lmdb/color-60-40/test_db
I0403 15:16:16.367764 31382 data_layer.cpp:41] output data size: 24,3,224,224
I0403 15:16:16.397924 31382 net.cpp:141] Setting up data
I0403 15:16:16.397980 31382 net.cpp:148] Top shape: 24 3 224 224 (3612672)
I0403 15:16:16.398005 31382 net.cpp:148] Top shape: 24 (24)
I0403 15:16:16.398020 31382 net.cpp:156] Memory required for data: 14450784
I0403 15:16:16.398047 31382 layer_factory.hpp:77] Creating layer label_data_1_split
I0403 15:16:16.398074 31382 net.cpp:91] Creating Layer label_data_1_split
I0403 15:16:16.398094 31382 net.cpp:425] label_data_1_split <- label
I0403 15:16:16.398128 31382 net.cpp:399] label_data_1_split -> label_data_1_split_0
I0403 15:16:16.398159 31382 net.cpp:399] label_data_1_split -> label_data_1_split_1
I0403 15:16:16.398180 31382 net.cpp:399] label_data_1_split -> label_data_1_split_2
I0403 15:16:16.398202 31382 net.cpp:399] label_data_1_split -> label_data_1_split_3
I0403 15:16:16.398222 31382 net.cpp:399] label_data_1_split -> label_data_1_split_4
I0403 15:16:16.398244 31382 net.cpp:399] label_data_1_split -> label_data_1_split_5
I0403 15:16:16.398288 31382 net.cpp:399] label_data_1_split -> label_data_1_split_6
I0403 15:16:16.398313 31382 net.cpp:399] label_data_1_split -> label_data_1_split_7
I0403 15:16:16.398335 31382 net.cpp:399] label_data_1_split -> label_data_1_split_8
I0403 15:16:16.398356 31382 net.cpp:399] label_data_1_split -> label_data_1_split_9
I0403 15:16:16.398473 31382 net.cpp:141] Setting up label_data_1_split
I0403 15:16:16.398499 31382 net.cpp:148] Top shape: 24 (24)
I0403 15:16:16.398517 31382 net.cpp:148] Top shape: 24 (24)
I0403 15:16:16.398535 31382 net.cpp:148] Top shape: 24 (24)
I0403 15:16:16.398552 31382 net.cpp:148] Top shape: 24 (24)
I0403 15:16:16.398569 31382 net.cpp:148] Top shape: 24 (24)
I0403 15:16:16.398586 31382 net.cpp:148] Top shape: 24 (24)
I0403 15:16:16.398602 31382 net.cpp:148] Top shape: 24 (24)
I0403 15:16:16.398617 31382 net.cpp:148] Top shape: 24 (24)
I0403 15:16:16.398635 31382 net.cpp:148] Top shape: 24 (24)
I0403 15:16:16.398651 31382 net.cpp:148] Top shape: 24 (24)
I0403 15:16:16.398695 31382 net.cpp:156] Memory required for data: 14451744
I0403 15:16:16.398713 31382 layer_factory.hpp:77] Creating layer conv1/7x7_s2
I0403 15:16:16.398746 31382 net.cpp:91] Creating Layer conv1/7x7_s2
I0403 15:16:16.398766 31382 net.cpp:425] conv1/7x7_s2 <- data
I0403 15:16:16.398787 31382 net.cpp:399] conv1/7x7_s2 -> conv1/7x7_s2
I0403 15:16:18.642704 31382 net.cpp:141] Setting up conv1/7x7_s2
I0403 15:16:18.642779 31382 net.cpp:148] Top shape: 24 64 112 112 (19267584)
I0403 15:16:18.642796 31382 net.cpp:156] Memory required for data: 91522080
I0403 15:16:18.642827 31382 layer_factory.hpp:77] Creating layer conv1/relu_7x7
I0403 15:16:18.642853 31382 net.cpp:91] Creating Layer conv1/relu_7x7
I0403 15:16:18.642873 31382 net.cpp:425] conv1/relu_7x7 <- conv1/7x7_s2
I0403 15:16:18.642892 31382 net.cpp:386] conv1/relu_7x7 -> conv1/7x7_s2 (in-place)
I0403 15:16:18.643147 31382 net.cpp:141] Setting up conv1/relu_7x7
I0403 15:16:18.643175 31382 net.cpp:148] Top shape: 24 64 112 112 (19267584)
I0403 15:16:18.643196 31382 net.cpp:156] Memory required for data: 168592416
I0403 15:16:18.643213 31382 layer_factory.hpp:77] Creating layer pool1/3x3_s2
I0403 15:16:18.643239 31382 net.cpp:91] Creating Layer pool1/3x3_s2
I0403 15:16:18.643263 31382 net.cpp:425] pool1/3x3_s2 <- conv1/7x7_s2
I0403 15:16:18.643286 31382 net.cpp:399] pool1/3x3_s2 -> pool1/3x3_s2
I0403 15:16:18.643362 31382 net.cpp:141] Setting up pool1/3x3_s2
I0403 15:16:18.643386 31382 net.cpp:148] Top shape: 24 64 56 56 (4816896)
I0403 15:16:18.643401 31382 net.cpp:156] Memory required for data: 187860000
I0403 15:16:18.643416 31382 layer_factory.hpp:77] Creating layer pool1/norm1
I0403 15:16:18.643443 31382 net.cpp:91] Creating Layer pool1/norm1
I0403 15:16:18.643462 31382 net.cpp:425] pool1/norm1 <- pool1/3x3_s2
I0403 15:16:18.643481 31382 net.cpp:399] pool1/norm1 -> pool1/norm1
I0403 15:16:18.643766 31382 net.cpp:141] Setting up pool1/norm1
I0403 15:16:18.643793 31382 net.cpp:148] Top shape: 24 64 56 56 (4816896)
I0403 15:16:18.643808 31382 net.cpp:156] Memory required for data: 207127584
I0403 15:16:18.643823 31382 layer_factory.hpp:77] Creating layer conv2/3x3_reduce
I0403 15:16:18.643849 31382 net.cpp:91] Creating Layer conv2/3x3_reduce
I0403 15:16:18.643867 31382 net.cpp:425] conv2/3x3_reduce <- pool1/norm1
I0403 15:16:18.643888 31382 net.cpp:399] conv2/3x3_reduce -> conv2/3x3_reduce
I0403 15:16:18.645259 31382 net.cpp:141] Setting up conv2/3x3_reduce
I0403 15:16:18.645292 31382 net.cpp:148] Top shape: 24 64 56 56 (4816896)
I0403 15:16:18.645310 31382 net.cpp:156] Memory required for data: 226395168
I0403 15:16:18.645331 31382 layer_factory.hpp:77] Creating layer conv2/relu_3x3_reduce
I0403 15:16:18.645351 31382 net.cpp:91] Creating Layer conv2/relu_3x3_reduce
I0403 15:16:18.645367 31382 net.cpp:425] conv2/relu_3x3_reduce <- conv2/3x3_reduce
I0403 15:16:18.645385 31382 net.cpp:386] conv2/relu_3x3_reduce -> conv2/3x3_reduce (in-place)
I0403 15:16:18.645655 31382 net.cpp:141] Setting up conv2/relu_3x3_reduce
I0403 15:16:18.645684 31382 net.cpp:148] Top shape: 24 64 56 56 (4816896)
I0403 15:16:18.645701 31382 net.cpp:156] Memory required for data: 245662752
I0403 15:16:18.645717 31382 layer_factory.hpp:77] Creating layer conv2/3x3
I0403 15:16:18.645741 31382 net.cpp:91] Creating Layer conv2/3x3
I0403 15:16:18.645759 31382 net.cpp:425] conv2/3x3 <- conv2/3x3_reduce
I0403 15:16:18.645781 31382 net.cpp:399] conv2/3x3 -> conv2/3x3
I0403 15:16:18.648007 31382 net.cpp:141] Setting up conv2/3x3
I0403 15:16:18.648039 31382 net.cpp:148] Top shape: 24 192 56 56 (14450688)
I0403 15:16:18.648057 31382 net.cpp:156] Memory required for data: 303465504
I0403 15:16:18.648078 31382 layer_factory.hpp:77] Creating layer conv2/relu_3x3
I0403 15:16:18.648097 31382 net.cpp:91] Creating Layer conv2/relu_3x3
I0403 15:16:18.648113 31382 net.cpp:425] conv2/relu_3x3 <- conv2/3x3
I0403 15:16:18.648133 31382 net.cpp:386] conv2/relu_3x3 -> conv2/3x3 (in-place)
I0403 15:16:18.648308 31382 net.cpp:141] Setting up conv2/relu_3x3
I0403 15:16:18.648332 31382 net.cpp:148] Top shape: 24 192 56 56 (14450688)
I0403 15:16:18.648378 31382 net.cpp:156] Memory required for data: 361268256
I0403 15:16:18.648396 31382 layer_factory.hpp:77] Creating layer conv2/norm2
I0403 15:16:18.648422 31382 net.cpp:91] Creating Layer conv2/norm2
I0403 15:16:18.648450 31382 net.cpp:425] conv2/norm2 <- conv2/3x3
I0403 15:16:18.648473 31382 net.cpp:399] conv2/norm2 -> conv2/norm2
I0403 15:16:18.648768 31382 net.cpp:141] Setting up conv2/norm2
I0403 15:16:18.648799 31382 net.cpp:148] Top shape: 24 192 56 56 (14450688)
I0403 15:16:18.648818 31382 net.cpp:156] Memory required for data: 419071008
I0403 15:16:18.648835 31382 layer_factory.hpp:77] Creating layer pool2/3x3_s2
I0403 15:16:18.648852 31382 net.cpp:91] Creating Layer pool2/3x3_s2
I0403 15:16:18.648866 31382 net.cpp:425] pool2/3x3_s2 <- conv2/norm2
I0403 15:16:18.648883 31382 net.cpp:399] pool2/3x3_s2 -> pool2/3x3_s2
I0403 15:16:18.648936 31382 net.cpp:141] Setting up pool2/3x3_s2
I0403 15:16:18.648958 31382 net.cpp:148] Top shape: 24 192 28 28 (3612672)
I0403 15:16:18.648973 31382 net.cpp:156] Memory required for data: 433521696
I0403 15:16:18.648988 31382 layer_factory.hpp:77] Creating layer pool2/3x3_s2_pool2/3x3_s2_0_split
I0403 15:16:18.649006 31382 net.cpp:91] Creating Layer pool2/3x3_s2_pool2/3x3_s2_0_split
I0403 15:16:18.649021 31382 net.cpp:425] pool2/3x3_s2_pool2/3x3_s2_0_split <- pool2/3x3_s2
I0403 15:16:18.649054 31382 net.cpp:399] pool2/3x3_s2_pool2/3x3_s2_0_split -> pool2/3x3_s2_pool2/3x3_s2_0_split_0
I0403 15:16:18.649075 31382 net.cpp:399] pool2/3x3_s2_pool2/3x3_s2_0_split -> pool2/3x3_s2_pool2/3x3_s2_0_split_1
I0403 15:16:18.649096 31382 net.cpp:399] pool2/3x3_s2_pool2/3x3_s2_0_split -> pool2/3x3_s2_pool2/3x3_s2_0_split_2
I0403 15:16:18.649116 31382 net.cpp:399] pool2/3x3_s2_pool2/3x3_s2_0_split -> pool2/3x3_s2_pool2/3x3_s2_0_split_3
I0403 15:16:18.649189 31382 net.cpp:141] Setting up pool2/3x3_s2_pool2/3x3_s2_0_split
I0403 15:16:18.649214 31382 net.cpp:148] Top shape: 24 192 28 28 (3612672)
I0403 15:16:18.649230 31382 net.cpp:148] Top shape: 24 192 28 28 (3612672)
I0403 15:16:18.649245 31382 net.cpp:148] Top shape: 24 192 28 28 (3612672)
I0403 15:16:18.649266 31382 net.cpp:148] Top shape: 24 192 28 28 (3612672)
I0403 15:16:18.649281 31382 net.cpp:156] Memory required for data: 491324448
I0403 15:16:18.649296 31382 layer_factory.hpp:77] Creating layer inception_3a/1x1
I0403 15:16:18.649319 31382 net.cpp:91] Creating Layer inception_3a/1x1
I0403 15:16:18.649336 31382 net.cpp:425] inception_3a/1x1 <- pool2/3x3_s2_pool2/3x3_s2_0_split_0
I0403 15:16:18.649356 31382 net.cpp:399] inception_3a/1x1 -> inception_3a/1x1
I0403 15:16:18.650862 31382 net.cpp:141] Setting up inception_3a/1x1
I0403 15:16:18.650894 31382 net.cpp:148] Top shape: 24 64 28 28 (1204224)
I0403 15:16:18.650912 31382 net.cpp:156] Memory required for data: 496141344
I0403 15:16:18.650931 31382 layer_factory.hpp:77] Creating layer inception_3a/relu_1x1
I0403 15:16:18.650949 31382 net.cpp:91] Creating Layer inception_3a/relu_1x1
I0403 15:16:18.650966 31382 net.cpp:425] inception_3a/relu_1x1 <- inception_3a/1x1
I0403 15:16:18.650986 31382 net.cpp:386] inception_3a/relu_1x1 -> inception_3a/1x1 (in-place)
I0403 15:16:18.651157 31382 net.cpp:141] Setting up inception_3a/relu_1x1
I0403 15:16:18.651182 31382 net.cpp:148] Top shape: 24 64 28 28 (1204224)
I0403 15:16:18.651198 31382 net.cpp:156] Memory required for data: 500958240
I0403 15:16:18.651213 31382 layer_factory.hpp:77] Creating layer inception_3a/3x3_reduce
I0403 15:16:18.651237 31382 net.cpp:91] Creating Layer inception_3a/3x3_reduce
I0403 15:16:18.651260 31382 net.cpp:425] inception_3a/3x3_reduce <- pool2/3x3_s2_pool2/3x3_s2_0_split_1
I0403 15:16:18.651284 31382 net.cpp:399] inception_3a/3x3_reduce -> inception_3a/3x3_reduce
I0403 15:16:18.652947 31382 net.cpp:141] Setting up inception_3a/3x3_reduce
I0403 15:16:18.652981 31382 net.cpp:148] Top shape: 24 96 28 28 (1806336)
I0403 15:16:18.652998 31382 net.cpp:156] Memory required for data: 508183584
I0403 15:16:18.653025 31382 layer_factory.hpp:77] Creating layer inception_3a/relu_3x3_reduce
I0403 15:16:18.653064 31382 net.cpp:91] Creating Layer inception_3a/relu_3x3_reduce
I0403 15:16:18.653082 31382 net.cpp:425] inception_3a/relu_3x3_reduce <- inception_3a/3x3_reduce
I0403 15:16:18.653102 31382 net.cpp:386] inception_3a/relu_3x3_reduce -> inception_3a/3x3_reduce (in-place)
I0403 15:16:18.653290 31382 net.cpp:141] Setting up inception_3a/relu_3x3_reduce
I0403 15:16:18.653321 31382 net.cpp:148] Top shape: 24 96 28 28 (1806336)
I0403 15:16:18.653337 31382 net.cpp:156] Memory required for data: 515408928
I0403 15:16:18.653353 31382 layer_factory.hpp:77] Creating layer inception_3a/3x3
I0403 15:16:18.653374 31382 net.cpp:91] Creating Layer inception_3a/3x3
I0403 15:16:18.653391 31382 net.cpp:425] inception_3a/3x3 <- inception_3a/3x3_reduce
I0403 15:16:18.653415 31382 net.cpp:399] inception_3a/3x3 -> inception_3a/3x3
I0403 15:16:18.655050 31382 net.cpp:141] Setting up inception_3a/3x3
I0403 15:16:18.655084 31382 net.cpp:148] Top shape: 24 128 28 28 (2408448)
I0403 15:16:18.655102 31382 net.cpp:156] Memory required for data: 525042720
I0403 15:16:18.655122 31382 layer_factory.hpp:77] Creating layer inception_3a/relu_3x3
I0403 15:16:18.655140 31382 net.cpp:91] Creating Layer inception_3a/relu_3x3
I0403 15:16:18.655158 31382 net.cpp:425] inception_3a/relu_3x3 <- inception_3a/3x3
I0403 15:16:18.655177 31382 net.cpp:386] inception_3a/relu_3x3 -> inception_3a/3x3 (in-place)
I0403 15:16:18.655452 31382 net.cpp:141] Setting up inception_3a/relu_3x3
I0403 15:16:18.655480 31382 net.cpp:148] Top shape: 24 128 28 28 (2408448)
I0403 15:16:18.655498 31382 net.cpp:156] Memory required for data: 534676512
I0403 15:16:18.655514 31382 layer_factory.hpp:77] Creating layer inception_3a/5x5_reduce
I0403 15:16:18.655537 31382 net.cpp:91] Creating Layer inception_3a/5x5_reduce
I0403 15:16:18.655556 31382 net.cpp:425] inception_3a/5x5_reduce <- pool2/3x3_s2_pool2/3x3_s2_0_split_2
I0403 15:16:18.655580 31382 net.cpp:399] inception_3a/5x5_reduce -> inception_3a/5x5_reduce
I0403 15:16:18.656525 31382 net.cpp:141] Setting up inception_3a/5x5_reduce
I0403 15:16:18.656555 31382 net.cpp:148] Top shape: 24 16 28 28 (301056)
I0403 15:16:18.656575 31382 net.cpp:156] Memory required for data: 535880736
I0403 15:16:18.656595 31382 layer_factory.hpp:77] Creating layer inception_3a/relu_5x5_reduce
I0403 15:16:18.656618 31382 net.cpp:91] Creating Layer inception_3a/relu_5x5_reduce
I0403 15:16:18.656637 31382 net.cpp:425] inception_3a/relu_5x5_reduce <- inception_3a/5x5_reduce
I0403 15:16:18.656657 31382 net.cpp:386] inception_3a/relu_5x5_reduce -> inception_3a/5x5_reduce (in-place)
I0403 15:16:18.656951 31382 net.cpp:141] Setting up inception_3a/relu_5x5_reduce
I0403 15:16:18.656981 31382 net.cpp:148] Top shape: 24 16 28 28 (301056)
I0403 15:16:18.656997 31382 net.cpp:156] Memory required for data: 537084960
I0403 15:16:18.657013 31382 layer_factory.hpp:77] Creating layer inception_3a/5x5
I0403 15:16:18.657037 31382 net.cpp:91] Creating Layer inception_3a/5x5
I0403 15:16:18.657054 31382 net.cpp:425] inception_3a/5x5 <- inception_3a/5x5_reduce
I0403 15:16:18.657076 31382 net.cpp:399] inception_3a/5x5 -> inception_3a/5x5
I0403 15:16:18.658077 31382 net.cpp:141] Setting up inception_3a/5x5
I0403 15:16:18.658107 31382 net.cpp:148] Top shape: 24 32 28 28 (602112)
I0403 15:16:18.658123 31382 net.cpp:156] Memory required for data: 539493408
I0403 15:16:18.658143 31382 layer_factory.hpp:77] Creating layer inception_3a/relu_5x5
I0403 15:16:18.658161 31382 net.cpp:91] Creating Layer inception_3a/relu_5x5
I0403 15:16:18.658179 31382 net.cpp:425] inception_3a/relu_5x5 <- inception_3a/5x5
I0403 15:16:18.658200 31382 net.cpp:386] inception_3a/relu_5x5 -> inception_3a/5x5 (in-place)
I0403 15:16:18.658376 31382 net.cpp:141] Setting up inception_3a/relu_5x5
I0403 15:16:18.658403 31382 net.cpp:148] Top shape: 24 32 28 28 (602112)
I0403 15:16:18.658419 31382 net.cpp:156] Memory required for data: 541901856
I0403 15:16:18.658434 31382 layer_factory.hpp:77] Creating layer inception_3a/pool
I0403 15:16:18.658452 31382 net.cpp:91] Creating Layer inception_3a/pool
I0403 15:16:18.658468 31382 net.cpp:425] inception_3a/pool <- pool2/3x3_s2_pool2/3x3_s2_0_split_3
I0403 15:16:18.658504 31382 net.cpp:399] inception_3a/pool -> inception_3a/pool
I0403 15:16:18.658563 31382 net.cpp:141] Setting up inception_3a/pool
I0403 15:16:18.658588 31382 net.cpp:148] Top shape: 24 192 28 28 (3612672)
I0403 15:16:18.658603 31382 net.cpp:156] Memory required for data: 556352544
I0403 15:16:18.658617 31382 layer_factory.hpp:77] Creating layer inception_3a/pool_proj
I0403 15:16:18.658643 31382 net.cpp:91] Creating Layer inception_3a/pool_proj
I0403 15:16:18.658661 31382 net.cpp:425] inception_3a/pool_proj <- inception_3a/pool
I0403 15:16:18.658680 31382 net.cpp:399] inception_3a/pool_proj -> inception_3a/pool_proj
I0403 15:16:18.659631 31382 net.cpp:141] Setting up inception_3a/pool_proj
I0403 15:16:18.659658 31382 net.cpp:148] Top shape: 24 32 28 28 (602112)
I0403 15:16:18.659674 31382 net.cpp:156] Memory required for data: 558760992
I0403 15:16:18.659698 31382 layer_factory.hpp:77] Creating layer inception_3a/relu_pool_proj
I0403 15:16:18.659721 31382 net.cpp:91] Creating Layer inception_3a/relu_pool_proj
I0403 15:16:18.659739 31382 net.cpp:425] inception_3a/relu_pool_proj <- inception_3a/pool_proj
I0403 15:16:18.659756 31382 net.cpp:386] inception_3a/relu_pool_proj -> inception_3a/pool_proj (in-place)
I0403 15:16:18.660032 31382 net.cpp:141] Setting up inception_3a/relu_pool_proj
I0403 15:16:18.660060 31382 net.cpp:148] Top shape: 24 32 28 28 (602112)
I0403 15:16:18.660078 31382 net.cpp:156] Memory required for data: 561169440
I0403 15:16:18.660094 31382 layer_factory.hpp:77] Creating layer inception_3a/output
I0403 15:16:18.660111 31382 net.cpp:91] Creating Layer inception_3a/output
I0403 15:16:18.660130 31382 net.cpp:425] inception_3a/output <- inception_3a/1x1
I0403 15:16:18.660147 31382 net.cpp:425] inception_3a/output <- inception_3a/3x3
I0403 15:16:18.660164 31382 net.cpp:425] inception_3a/output <- inception_3a/5x5
I0403 15:16:18.660181 31382 net.cpp:425] inception_3a/output <- inception_3a/pool_proj
I0403 15:16:18.660198 31382 net.cpp:399] inception_3a/output -> inception_3a/output
I0403 15:16:18.660244 31382 net.cpp:141] Setting up inception_3a/output
I0403 15:16:18.660272 31382 net.cpp:148] Top shape: 24 256 28 28 (4816896)
I0403 15:16:18.660289 31382 net.cpp:156] Memory required for data: 580437024
I0403 15:16:18.660305 31382 layer_factory.hpp:77] Creating layer inception_3a/output_inception_3a/output_0_split
I0403 15:16:18.660325 31382 net.cpp:91] Creating Layer inception_3a/output_inception_3a/output_0_split
I0403 15:16:18.660341 31382 net.cpp:425] inception_3a/output_inception_3a/output_0_split <- inception_3a/output
I0403 15:16:18.660359 31382 net.cpp:399] inception_3a/output_inception_3a/output_0_split -> inception_3a/output_inception_3a/output_0_split_0
I0403 15:16:18.660379 31382 net.cpp:399] inception_3a/output_inception_3a/output_0_split -> inception_3a/output_inception_3a/output_0_split_1
I0403 15:16:18.660405 31382 net.cpp:399] inception_3a/output_inception_3a/output_0_split -> inception_3a/output_inception_3a/output_0_split_2
I0403 15:16:18.660429 31382 net.cpp:399] inception_3a/output_inception_3a/output_0_split -> inception_3a/output_inception_3a/output_0_split_3
I0403 15:16:18.660501 31382 net.cpp:141] Setting up inception_3a/output_inception_3a/output_0_split
I0403 15:16:18.660534 31382 net.cpp:148] Top shape: 24 256 28 28 (4816896)
I0403 15:16:18.660552 31382 net.cpp:148] Top shape: 24 256 28 28 (4816896)
I0403 15:16:18.660568 31382 net.cpp:148] Top shape: 24 256 28 28 (4816896)
I0403 15:16:18.660585 31382 net.cpp:148] Top shape: 24 256 28 28 (4816896)
I0403 15:16:18.660600 31382 net.cpp:156] Memory required for data: 657507360
I0403 15:16:18.660616 31382 layer_factory.hpp:77] Creating layer inception_3b/1x1
I0403 15:16:18.660640 31382 net.cpp:91] Creating Layer inception_3b/1x1
I0403 15:16:18.660661 31382 net.cpp:425] inception_3b/1x1 <- inception_3a/output_inception_3a/output_0_split_0
I0403 15:16:18.660681 31382 net.cpp:399] inception_3b/1x1 -> inception_3b/1x1
I0403 15:16:18.661813 31382 net.cpp:141] Setting up inception_3b/1x1
I0403 15:16:18.661856 31382 net.cpp:148] Top shape: 24 128 28 28 (2408448)
I0403 15:16:18.661875 31382 net.cpp:156] Memory required for data: 667141152
I0403 15:16:18.661895 31382 layer_factory.hpp:77] Creating layer inception_3b/relu_1x1
I0403 15:16:18.661912 31382 net.cpp:91] Creating Layer inception_3b/relu_1x1
I0403 15:16:18.661929 31382 net.cpp:425] inception_3b/relu_1x1 <- inception_3b/1x1
I0403 15:16:18.661947 31382 net.cpp:386] inception_3b/relu_1x1 -> inception_3b/1x1 (in-place)
I0403 15:16:18.662122 31382 net.cpp:141] Setting up inception_3b/relu_1x1
I0403 15:16:18.662149 31382 net.cpp:148] Top shape: 24 128 28 28 (2408448)
I0403 15:16:18.662166 31382 net.cpp:156] Memory required for data: 676774944
I0403 15:16:18.662183 31382 layer_factory.hpp:77] Creating layer inception_3b/3x3_reduce
I0403 15:16:18.662204 31382 net.cpp:91] Creating Layer inception_3b/3x3_reduce
I0403 15:16:18.662221 31382 net.cpp:425] inception_3b/3x3_reduce <- inception_3a/output_inception_3a/output_0_split_1
I0403 15:16:18.662243 31382 net.cpp:399] inception_3b/3x3_reduce -> inception_3b/3x3_reduce
I0403 15:16:18.663378 31382 net.cpp:141] Setting up inception_3b/3x3_reduce
I0403 15:16:18.663405 31382 net.cpp:148] Top shape: 24 128 28 28 (2408448)
I0403 15:16:18.663422 31382 net.cpp:156] Memory required for data: 686408736
I0403 15:16:18.663441 31382 layer_factory.hpp:77] Creating layer inception_3b/relu_3x3_reduce
I0403 15:16:18.663462 31382 net.cpp:91] Creating Layer inception_3b/relu_3x3_reduce
I0403 15:16:18.663480 31382 net.cpp:425] inception_3b/relu_3x3_reduce <- inception_3b/3x3_reduce
I0403 15:16:18.663498 31382 net.cpp:386] inception_3b/relu_3x3_reduce -> inception_3b/3x3_reduce (in-place)
I0403 15:16:18.663674 31382 net.cpp:141] Setting up inception_3b/relu_3x3_reduce
I0403 15:16:18.663700 31382 net.cpp:148] Top shape: 24 128 28 28 (2408448)
I0403 15:16:18.663717 31382 net.cpp:156] Memory required for data: 696042528
I0403 15:16:18.663733 31382 layer_factory.hpp:77] Creating layer inception_3b/3x3
I0403 15:16:18.663758 31382 net.cpp:91] Creating Layer inception_3b/3x3
I0403 15:16:18.663776 31382 net.cpp:425] inception_3b/3x3 <- inception_3b/3x3_reduce
I0403 15:16:18.663797 31382 net.cpp:399] inception_3b/3x3 -> inception_3b/3x3
I0403 15:16:18.666688 31382 net.cpp:141] Setting up inception_3b/3x3
I0403 15:16:18.666719 31382 net.cpp:148] Top shape: 24 192 28 28 (3612672)
I0403 15:16:18.666738 31382 net.cpp:156] Memory required for data: 710493216
I0403 15:16:18.666759 31382 layer_factory.hpp:77] Creating layer inception_3b/relu_3x3
I0403 15:16:18.666776 31382 net.cpp:91] Creating Layer inception_3b/relu_3x3
I0403 15:16:18.666792 31382 net.cpp:425] inception_3b/relu_3x3 <- inception_3b/3x3
I0403 15:16:18.666812 31382 net.cpp:386] inception_3b/relu_3x3 -> inception_3b/3x3 (in-place)
I0403 15:16:18.667084 31382 net.cpp:141] Setting up inception_3b/relu_3x3
I0403 15:16:18.667115 31382 net.cpp:148] Top shape: 24 192 28 28 (3612672)
I0403 15:16:18.667132 31382 net.cpp:156] Memory required for data: 724943904
I0403 15:16:18.667155 31382 layer_factory.hpp:77] Creating layer inception_3b/5x5_reduce
I0403 15:16:18.667181 31382 net.cpp:91] Creating Layer inception_3b/5x5_reduce
I0403 15:16:18.667201 31382 net.cpp:425] inception_3b/5x5_reduce <- inception_3a/output_inception_3a/output_0_split_2
I0403 15:16:18.667224 31382 net.cpp:399] inception_3b/5x5_reduce -> inception_3b/5x5_reduce
I0403 15:16:18.668200 31382 net.cpp:141] Setting up inception_3b/5x5_reduce
I0403 15:16:18.668231 31382 net.cpp:148] Top shape: 24 32 28 28 (602112)
I0403 15:16:18.668248 31382 net.cpp:156] Memory required for data: 727352352
I0403 15:16:18.668272 31382 layer_factory.hpp:77] Creating layer inception_3b/relu_5x5_reduce
I0403 15:16:18.668293 31382 net.cpp:91] Creating Layer inception_3b/relu_5x5_reduce
I0403 15:16:18.668310 31382 net.cpp:425] inception_3b/relu_5x5_reduce <- inception_3b/5x5_reduce
I0403 15:16:18.668330 31382 net.cpp:386] inception_3b/relu_5x5_reduce -> inception_3b/5x5_reduce (in-place)
I0403 15:16:18.668505 31382 net.cpp:141] Setting up inception_3b/relu_5x5_reduce
I0403 15:16:18.668542 31382 net.cpp:148] Top shape: 24 32 28 28 (602112)
I0403 15:16:18.668557 31382 net.cpp:156] Memory required for data: 729760800
I0403 15:16:18.668575 31382 layer_factory.hpp:77] Creating layer inception_3b/5x5
I0403 15:16:18.668596 31382 net.cpp:91] Creating Layer inception_3b/5x5
I0403 15:16:18.668615 31382 net.cpp:425] inception_3b/5x5 <- inception_3b/5x5_reduce
I0403 15:16:18.668637 31382 net.cpp:399] inception_3b/5x5 -> inception_3b/5x5
I0403 15:16:18.670619 31382 net.cpp:141] Setting up inception_3b/5x5
I0403 15:16:18.670657 31382 net.cpp:148] Top shape: 24 96 28 28 (1806336)
I0403 15:16:18.670673 31382 net.cpp:156] Memory required for data: 736986144
I0403 15:16:18.670692 31382 layer_factory.hpp:77] Creating layer inception_3b/relu_5x5
I0403 15:16:18.670713 31382 net.cpp:91] Creating Layer inception_3b/relu_5x5
I0403 15:16:18.670732 31382 net.cpp:425] inception_3b/relu_5x5 <- inception_3b/5x5
I0403 15:16:18.670748 31382 net.cpp:386] inception_3b/relu_5x5 -> inception_3b/5x5 (in-place)
I0403 15:16:18.670948 31382 net.cpp:141] Setting up inception_3b/relu_5x5
I0403 15:16:18.670974 31382 net.cpp:148] Top shape: 24 96 28 28 (1806336)
I0403 15:16:18.670992 31382 net.cpp:156] Memory required for data: 744211488
I0403 15:16:18.671007 31382 layer_factory.hpp:77] Creating layer inception_3b/pool
I0403 15:16:18.671027 31382 net.cpp:91] Creating Layer inception_3b/pool
I0403 15:16:18.671044 31382 net.cpp:425] inception_3b/pool <- inception_3a/output_inception_3a/output_0_split_3
I0403 15:16:18.671064 31382 net.cpp:399] inception_3b/pool -> inception_3b/pool
I0403 15:16:18.671118 31382 net.cpp:141] Setting up inception_3b/pool
I0403 15:16:18.671144 31382 net.cpp:148] Top shape: 24 256 28 28 (4816896)
I0403 15:16:18.671160 31382 net.cpp:156] Memory required for data: 763479072
I0403 15:16:18.671175 31382 layer_factory.hpp:77] Creating layer inception_3b/pool_proj
I0403 15:16:18.671200 31382 net.cpp:91] Creating Layer inception_3b/pool_proj
I0403 15:16:18.671218 31382 net.cpp:425] inception_3b/pool_proj <- inception_3b/pool
I0403 15:16:18.671241 31382 net.cpp:399] inception_3b/pool_proj -> inception_3b/pool_proj
I0403 15:16:18.672289 31382 net.cpp:141] Setting up inception_3b/pool_proj
I0403 15:16:18.672318 31382 net.cpp:148] Top shape: 24 64 28 28 (1204224)
I0403 15:16:18.672335 31382 net.cpp:156] Memory required for data: 768295968
I0403 15:16:18.672355 31382 layer_factory.hpp:77] Creating layer inception_3b/relu_pool_proj
I0403 15:16:18.672375 31382 net.cpp:91] Creating Layer inception_3b/relu_pool_proj
I0403 15:16:18.672392 31382 net.cpp:425] inception_3b/relu_pool_proj <- inception_3b/pool_proj
I0403 15:16:18.672410 31382 net.cpp:386] inception_3b/relu_pool_proj -> inception_3b/pool_proj (in-place)
I0403 15:16:18.672802 31382 net.cpp:141] Setting up inception_3b/relu_pool_proj
I0403 15:16:18.672829 31382 net.cpp:148] Top shape: 24 64 28 28 (1204224)
I0403 15:16:18.672845 31382 net.cpp:156] Memory required for data: 773112864
I0403 15:16:18.672860 31382 layer_factory.hpp:77] Creating layer inception_3b/output
I0403 15:16:18.672878 31382 net.cpp:91] Creating Layer inception_3b/output
I0403 15:16:18.672894 31382 net.cpp:425] inception_3b/output <- inception_3b/1x1
I0403 15:16:18.672911 31382 net.cpp:425] inception_3b/output <- inception_3b/3x3
I0403 15:16:18.672927 31382 net.cpp:425] inception_3b/output <- inception_3b/5x5
I0403 15:16:18.672945 31382 net.cpp:425] inception_3b/output <- inception_3b/pool_proj
I0403 15:16:18.672965 31382 net.cpp:399] inception_3b/output -> inception_3b/output
I0403 15:16:18.673007 31382 net.cpp:141] Setting up inception_3b/output
I0403 15:16:18.673033 31382 net.cpp:148] Top shape: 24 480 28 28 (9031680)
I0403 15:16:18.673049 31382 net.cpp:156] Memory required for data: 809239584
I0403 15:16:18.673065 31382 layer_factory.hpp:77] Creating layer pool3/3x3_s2
I0403 15:16:18.673082 31382 net.cpp:91] Creating Layer pool3/3x3_s2
I0403 15:16:18.673099 31382 net.cpp:425] pool3/3x3_s2 <- inception_3b/output
I0403 15:16:18.673118 31382 net.cpp:399] pool3/3x3_s2 -> pool3/3x3_s2
I0403 15:16:18.673189 31382 net.cpp:141] Setting up pool3/3x3_s2
I0403 15:16:18.673213 31382 net.cpp:148] Top shape: 24 480 14 14 (2257920)
I0403 15:16:18.673228 31382 net.cpp:156] Memory required for data: 818271264
I0403 15:16:18.673244 31382 layer_factory.hpp:77] Creating layer pool3/3x3_s2_pool3/3x3_s2_0_split
I0403 15:16:18.673269 31382 net.cpp:91] Creating Layer pool3/3x3_s2_pool3/3x3_s2_0_split
I0403 15:16:18.673287 31382 net.cpp:425] pool3/3x3_s2_pool3/3x3_s2_0_split <- pool3/3x3_s2
I0403 15:16:18.673305 31382 net.cpp:399] pool3/3x3_s2_pool3/3x3_s2_0_split -> pool3/3x3_s2_pool3/3x3_s2_0_split_0
I0403 15:16:18.673326 31382 net.cpp:399] pool3/3x3_s2_pool3/3x3_s2_0_split -> pool3/3x3_s2_pool3/3x3_s2_0_split_1
I0403 15:16:18.673358 31382 net.cpp:399] pool3/3x3_s2_pool3/3x3_s2_0_split -> pool3/3x3_s2_pool3/3x3_s2_0_split_2
I0403 15:16:18.673384 31382 net.cpp:399] pool3/3x3_s2_pool3/3x3_s2_0_split -> pool3/3x3_s2_pool3/3x3_s2_0_split_3
I0403 15:16:18.673468 31382 net.cpp:141] Setting up pool3/3x3_s2_pool3/3x3_s2_0_split
I0403 15:16:18.673493 31382 net.cpp:148] Top shape: 24 480 14 14 (2257920)
I0403 15:16:18.673512 31382 net.cpp:148] Top shape: 24 480 14 14 (2257920)
I0403 15:16:18.673528 31382 net.cpp:148] Top shape: 24 480 14 14 (2257920)
I0403 15:16:18.673544 31382 net.cpp:148] Top shape: 24 480 14 14 (2257920)
I0403 15:16:18.673560 31382 net.cpp:156] Memory required for data: 854397984
I0403 15:16:18.673576 31382 layer_factory.hpp:77] Creating layer inception_4a/1x1
I0403 15:16:18.673599 31382 net.cpp:91] Creating Layer inception_4a/1x1
I0403 15:16:18.673617 31382 net.cpp:425] inception_4a/1x1 <- pool3/3x3_s2_pool3/3x3_s2_0_split_0
I0403 15:16:18.673648 31382 net.cpp:399] inception_4a/1x1 -> inception_4a/1x1
I0403 15:16:18.675290 31382 net.cpp:141] Setting up inception_4a/1x1
I0403 15:16:18.675320 31382 net.cpp:148] Top shape: 24 192 14 14 (903168)
I0403 15:16:18.675339 31382 net.cpp:156] Memory required for data: 858010656
I0403 15:16:18.675359 31382 layer_factory.hpp:77] Creating layer inception_4a/relu_1x1
I0403 15:16:18.675379 31382 net.cpp:91] Creating Layer inception_4a/relu_1x1
I0403 15:16:18.675397 31382 net.cpp:425] inception_4a/relu_1x1 <- inception_4a/1x1
I0403 15:16:18.675415 31382 net.cpp:386] inception_4a/relu_1x1 -> inception_4a/1x1 (in-place)
I0403 15:16:18.675588 31382 net.cpp:141] Setting up inception_4a/relu_1x1
I0403 15:16:18.675617 31382 net.cpp:148] Top shape: 24 192 14 14 (903168)
I0403 15:16:18.675633 31382 net.cpp:156] Memory required for data: 861623328
I0403 15:16:18.675649 31382 layer_factory.hpp:77] Creating layer inception_4a/3x3_reduce
I0403 15:16:18.675671 31382 net.cpp:91] Creating Layer inception_4a/3x3_reduce
I0403 15:16:18.675694 31382 net.cpp:425] inception_4a/3x3_reduce <- pool3/3x3_s2_pool3/3x3_s2_0_split_1
I0403 15:16:18.675714 31382 net.cpp:399] inception_4a/3x3_reduce -> inception_4a/3x3_reduce
I0403 15:16:18.676982 31382 net.cpp:141] Setting up inception_4a/3x3_reduce
I0403 15:16:18.677011 31382 net.cpp:148] Top shape: 24 96 14 14 (451584)
I0403 15:16:18.677027 31382 net.cpp:156] Memory required for data: 863429664
I0403 15:16:18.677052 31382 layer_factory.hpp:77] Creating layer inception_4a/relu_3x3_reduce
I0403 15:16:18.677072 31382 net.cpp:91] Creating Layer inception_4a/relu_3x3_reduce
I0403 15:16:18.677088 31382 net.cpp:425] inception_4a/relu_3x3_reduce <- inception_4a/3x3_reduce
I0403 15:16:18.677109 31382 net.cpp:386] inception_4a/relu_3x3_reduce -> inception_4a/3x3_reduce (in-place)
I0403 15:16:18.677286 31382 net.cpp:141] Setting up inception_4a/relu_3x3_reduce
I0403 15:16:18.677314 31382 net.cpp:148] Top shape: 24 96 14 14 (451584)
I0403 15:16:18.677330 31382 net.cpp:156] Memory required for data: 865236000
I0403 15:16:18.677345 31382 layer_factory.hpp:77] Creating layer inception_4a/3x3
I0403 15:16:18.677366 31382 net.cpp:91] Creating Layer inception_4a/3x3
I0403 15:16:18.677382 31382 net.cpp:425] inception_4a/3x3 <- inception_4a/3x3_reduce
I0403 15:16:18.677405 31382 net.cpp:399] inception_4a/3x3 -> inception_4a/3x3
I0403 15:16:18.680060 31382 net.cpp:141] Setting up inception_4a/3x3
I0403 15:16:18.680089 31382 net.cpp:148] Top shape: 24 208 14 14 (978432)
I0403 15:16:18.680105 31382 net.cpp:156] Memory required for data: 869149728
I0403 15:16:18.680127 31382 layer_factory.hpp:77] Creating layer inception_4a/relu_3x3
I0403 15:16:18.680147 31382 net.cpp:91] Creating Layer inception_4a/relu_3x3
I0403 15:16:18.680167 31382 net.cpp:425] inception_4a/relu_3x3 <- inception_4a/3x3
I0403 15:16:18.680189 31382 net.cpp:386] inception_4a/relu_3x3 -> inception_4a/3x3 (in-place)
I0403 15:16:18.680474 31382 net.cpp:141] Setting up inception_4a/relu_3x3
I0403 15:16:18.680500 31382 net.cpp:148] Top shape: 24 208 14 14 (978432)
I0403 15:16:18.680516 31382 net.cpp:156] Memory required for data: 873063456
I0403 15:16:18.680532 31382 layer_factory.hpp:77] Creating layer inception_4a/5x5_reduce
I0403 15:16:18.680562 31382 net.cpp:91] Creating Layer inception_4a/5x5_reduce
I0403 15:16:18.680583 31382 net.cpp:425] inception_4a/5x5_reduce <- pool3/3x3_s2_pool3/3x3_s2_0_split_2
I0403 15:16:18.680603 31382 net.cpp:399] inception_4a/5x5_reduce -> inception_4a/5x5_reduce
I0403 15:16:18.681733 31382 net.cpp:141] Setting up inception_4a/5x5_reduce
I0403 15:16:18.681763 31382 net.cpp:148] Top shape: 24 16 14 14 (75264)
I0403 15:16:18.681780 31382 net.cpp:156] Memory required for data: 873364512
I0403 15:16:18.681800 31382 layer_factory.hpp:77] Creating layer inception_4a/relu_5x5_reduce
I0403 15:16:18.681818 31382 net.cpp:91] Creating Layer inception_4a/relu_5x5_reduce
I0403 15:16:18.681840 31382 net.cpp:425] inception_4a/relu_5x5_reduce <- inception_4a/5x5_reduce
I0403 15:16:18.681864 31382 net.cpp:386] inception_4a/relu_5x5_reduce -> inception_4a/5x5_reduce (in-place)
I0403 15:16:18.682044 31382 net.cpp:141] Setting up inception_4a/relu_5x5_reduce
I0403 15:16:18.682070 31382 net.cpp:148] Top shape: 24 16 14 14 (75264)
I0403 15:16:18.682091 31382 net.cpp:156] Memory required for data: 873665568
I0403 15:16:18.682106 31382 layer_factory.hpp:77] Creating layer inception_4a/5x5
I0403 15:16:18.682131 31382 net.cpp:91] Creating Layer inception_4a/5x5
I0403 15:16:18.682149 31382 net.cpp:425] inception_4a/5x5 <- inception_4a/5x5_reduce
I0403 15:16:18.682171 31382 net.cpp:399] inception_4a/5x5 -> inception_4a/5x5
I0403 15:16:18.683250 31382 net.cpp:141] Setting up inception_4a/5x5
I0403 15:16:18.683281 31382 net.cpp:148] Top shape: 24 48 14 14 (225792)
I0403 15:16:18.683298 31382 net.cpp:156] Memory required for data: 874568736
I0403 15:16:18.683318 31382 layer_factory.hpp:77] Creating layer inception_4a/relu_5x5
I0403 15:16:18.683339 31382 net.cpp:91] Creating Layer inception_4a/relu_5x5
I0403 15:16:18.683357 31382 net.cpp:425] inception_4a/relu_5x5 <- inception_4a/5x5
I0403 15:16:18.683375 31382 net.cpp:386] inception_4a/relu_5x5 -> inception_4a/5x5 (in-place)
I0403 15:16:18.683552 31382 net.cpp:141] Setting up inception_4a/relu_5x5
I0403 15:16:18.683579 31382 net.cpp:148] Top shape: 24 48 14 14 (225792)
I0403 15:16:18.683595 31382 net.cpp:156] Memory required for data: 875471904
I0403 15:16:18.683610 31382 layer_factory.hpp:77] Creating layer inception_4a/pool
I0403 15:16:18.683630 31382 net.cpp:91] Creating Layer inception_4a/pool
I0403 15:16:18.683647 31382 net.cpp:425] inception_4a/pool <- pool3/3x3_s2_pool3/3x3_s2_0_split_3
I0403 15:16:18.683666 31382 net.cpp:399] inception_4a/pool -> inception_4a/pool
I0403 15:16:18.683728 31382 net.cpp:141] Setting up inception_4a/pool
I0403 15:16:18.683753 31382 net.cpp:148] Top shape: 24 480 14 14 (2257920)
I0403 15:16:18.683769 31382 net.cpp:156] Memory required for data: 884503584
I0403 15:16:18.683784 31382 layer_factory.hpp:77] Creating layer inception_4a/pool_proj
I0403 15:16:18.683807 31382 net.cpp:91] Creating Layer inception_4a/pool_proj
I0403 15:16:18.683830 31382 net.cpp:425] inception_4a/pool_proj <- inception_4a/pool
I0403 15:16:18.683852 31382 net.cpp:399] inception_4a/pool_proj -> inception_4a/pool_proj
I0403 15:16:18.685051 31382 net.cpp:141] Setting up inception_4a/pool_proj
I0403 15:16:18.685081 31382 net.cpp:148] Top shape: 24 64 14 14 (301056)
I0403 15:16:18.685112 31382 net.cpp:156] Memory required for data: 885707808
I0403 15:16:18.685132 31382 layer_factory.hpp:77] Creating layer inception_4a/relu_pool_proj
I0403 15:16:18.685155 31382 net.cpp:91] Creating Layer inception_4a/relu_pool_proj
I0403 15:16:18.685173 31382 net.cpp:425] inception_4a/relu_pool_proj <- inception_4a/pool_proj
I0403 15:16:18.685191 31382 net.cpp:386] inception_4a/relu_pool_proj -> inception_4a/pool_proj (in-place)
I0403 15:16:18.685477 31382 net.cpp:141] Setting up inception_4a/relu_pool_proj
I0403 15:16:18.685504 31382 net.cpp:148] Top shape: 24 64 14 14 (301056)
I0403 15:16:18.685521 31382 net.cpp:156] Memory required for data: 886912032
I0403 15:16:18.685535 31382 layer_factory.hpp:77] Creating layer inception_4a/output
I0403 15:16:18.685555 31382 net.cpp:91] Creating Layer inception_4a/output
I0403 15:16:18.685575 31382 net.cpp:425] inception_4a/output <- inception_4a/1x1
I0403 15:16:18.685592 31382 net.cpp:425] inception_4a/output <- inception_4a/3x3
I0403 15:16:18.685609 31382 net.cpp:425] inception_4a/output <- inception_4a/5x5
I0403 15:16:18.685626 31382 net.cpp:425] inception_4a/output <- inception_4a/pool_proj
I0403 15:16:18.685642 31382 net.cpp:399] inception_4a/output -> inception_4a/output
I0403 15:16:18.685689 31382 net.cpp:141] Setting up inception_4a/output
I0403 15:16:18.685714 31382 net.cpp:148] Top shape: 24 512 14 14 (2408448)
I0403 15:16:18.685729 31382 net.cpp:156] Memory required for data: 896545824
I0403 15:16:18.685745 31382 layer_factory.hpp:77] Creating layer inception_4a/output_inception_4a/output_0_split
I0403 15:16:18.685763 31382 net.cpp:91] Creating Layer inception_4a/output_inception_4a/output_0_split
I0403 15:16:18.685778 31382 net.cpp:425] inception_4a/output_inception_4a/output_0_split <- inception_4a/output
I0403 15:16:18.685798 31382 net.cpp:399] inception_4a/output_inception_4a/output_0_split -> inception_4a/output_inception_4a/output_0_split_0
I0403 15:16:18.685820 31382 net.cpp:399] inception_4a/output_inception_4a/output_0_split -> inception_4a/output_inception_4a/output_0_split_1
I0403 15:16:18.685842 31382 net.cpp:399] inception_4a/output_inception_4a/output_0_split -> inception_4a/output_inception_4a/output_0_split_2
I0403 15:16:18.685863 31382 net.cpp:399] inception_4a/output_inception_4a/output_0_split -> inception_4a/output_inception_4a/output_0_split_3
I0403 15:16:18.685883 31382 net.cpp:399] inception_4a/output_inception_4a/output_0_split -> inception_4a/output_inception_4a/output_0_split_4
I0403 15:16:18.685976 31382 net.cpp:141] Setting up inception_4a/output_inception_4a/output_0_split
I0403 15:16:18.686000 31382 net.cpp:148] Top shape: 24 512 14 14 (2408448)
I0403 15:16:18.686020 31382 net.cpp:148] Top shape: 24 512 14 14 (2408448)
I0403 15:16:18.686038 31382 net.cpp:148] Top shape: 24 512 14 14 (2408448)
I0403 15:16:18.686053 31382 net.cpp:148] Top shape: 24 512 14 14 (2408448)
I0403 15:16:18.686069 31382 net.cpp:148] Top shape: 24 512 14 14 (2408448)
I0403 15:16:18.686084 31382 net.cpp:156] Memory required for data: 944714784
I0403 15:16:18.686101 31382 layer_factory.hpp:77] Creating layer loss1/ave_pool
I0403 15:16:18.686118 31382 net.cpp:91] Creating Layer loss1/ave_pool
I0403 15:16:18.686136 31382 net.cpp:425] loss1/ave_pool <- inception_4a/output_inception_4a/output_0_split_0
I0403 15:16:18.686157 31382 net.cpp:399] loss1/ave_pool -> loss1/ave_pool
I0403 15:16:18.686372 31382 net.cpp:141] Setting up loss1/ave_pool
I0403 15:16:18.686398 31382 net.cpp:148] Top shape: 24 512 4 4 (196608)
I0403 15:16:18.686414 31382 net.cpp:156] Memory required for data: 945501216
I0403 15:16:18.686429 31382 layer_factory.hpp:77] Creating layer loss1/conv
I0403 15:16:18.686452 31382 net.cpp:91] Creating Layer loss1/conv
I0403 15:16:18.686470 31382 net.cpp:425] loss1/conv <- loss1/ave_pool
I0403 15:16:18.686491 31382 net.cpp:399] loss1/conv -> loss1/conv
I0403 15:16:18.687904 31382 net.cpp:141] Setting up loss1/conv
I0403 15:16:18.687935 31382 net.cpp:148] Top shape: 24 128 4 4 (49152)
I0403 15:16:18.687952 31382 net.cpp:156] Memory required for data: 945697824
I0403 15:16:18.687988 31382 layer_factory.hpp:77] Creating layer loss1/relu_conv
I0403 15:16:18.688007 31382 net.cpp:91] Creating Layer loss1/relu_conv
I0403 15:16:18.688024 31382 net.cpp:425] loss1/relu_conv <- loss1/conv
I0403 15:16:18.688045 31382 net.cpp:386] loss1/relu_conv -> loss1/conv (in-place)
I0403 15:16:18.688330 31382 net.cpp:141] Setting up loss1/relu_conv
I0403 15:16:18.688360 31382 net.cpp:148] Top shape: 24 128 4 4 (49152)
I0403 15:16:18.688376 31382 net.cpp:156] Memory required for data: 945894432
I0403 15:16:18.688392 31382 layer_factory.hpp:77] Creating layer loss1/fc
I0403 15:16:18.688416 31382 net.cpp:91] Creating Layer loss1/fc
I0403 15:16:18.688436 31382 net.cpp:425] loss1/fc <- loss1/conv
I0403 15:16:18.688459 31382 net.cpp:399] loss1/fc -> loss1/fc
I0403 15:16:18.705894 31382 net.cpp:141] Setting up loss1/fc
I0403 15:16:18.705930 31382 net.cpp:148] Top shape: 24 1024 (24576)
I0403 15:16:18.705946 31382 net.cpp:156] Memory required for data: 945992736
I0403 15:16:18.705965 31382 layer_factory.hpp:77] Creating layer loss1/relu_fc
I0403 15:16:18.705986 31382 net.cpp:91] Creating Layer loss1/relu_fc
I0403 15:16:18.706003 31382 net.cpp:425] loss1/relu_fc <- loss1/fc
I0403 15:16:18.706022 31382 net.cpp:386] loss1/relu_fc -> loss1/fc (in-place)
I0403 15:16:18.706208 31382 net.cpp:141] Setting up loss1/relu_fc
I0403 15:16:18.706236 31382 net.cpp:148] Top shape: 24 1024 (24576)
I0403 15:16:18.706255 31382 net.cpp:156] Memory required for data: 946091040
I0403 15:16:18.706271 31382 layer_factory.hpp:77] Creating layer loss1/drop_fc
I0403 15:16:18.706300 31382 net.cpp:91] Creating Layer loss1/drop_fc
I0403 15:16:18.706317 31382 net.cpp:425] loss1/drop_fc <- loss1/fc
I0403 15:16:18.706334 31382 net.cpp:386] loss1/drop_fc -> loss1/fc (in-place)
I0403 15:16:18.706387 31382 net.cpp:141] Setting up loss1/drop_fc
I0403 15:16:18.706410 31382 net.cpp:148] Top shape: 24 1024 (24576)
I0403 15:16:18.706425 31382 net.cpp:156] Memory required for data: 946189344
I0403 15:16:18.706440 31382 layer_factory.hpp:77] Creating layer loss1/classifier_plantvillage
I0403 15:16:18.706459 31382 net.cpp:91] Creating Layer loss1/classifier_plantvillage
I0403 15:16:18.706475 31382 net.cpp:425] loss1/classifier_plantvillage <- loss1/fc
I0403 15:16:18.706496 31382 net.cpp:399] loss1/classifier_plantvillage -> loss1/classifier_plantvillage
I0403 15:16:18.707393 31382 net.cpp:141] Setting up loss1/classifier_plantvillage
I0403 15:16:18.707424 31382 net.cpp:148] Top shape: 24 38 (912)
I0403 15:16:18.707443 31382 net.cpp:156] Memory required for data: 946192992
I0403 15:16:18.707461 31382 layer_factory.hpp:77] Creating layer loss1/classifier_plantvillage_loss1/classifier_plantvillage_0_split
I0403 15:16:18.707482 31382 net.cpp:91] Creating Layer loss1/classifier_plantvillage_loss1/classifier_plantvillage_0_split
I0403 15:16:18.707499 31382 net.cpp:425] loss1/classifier_plantvillage_loss1/classifier_plantvillage_0_split <- loss1/classifier_plantvillage
I0403 15:16:18.707518 31382 net.cpp:399] loss1/classifier_plantvillage_loss1/classifier_plantvillage_0_split -> loss1/classifier_plantvillage_loss1/classifier_plantvillage_0_split_0
I0403 15:16:18.707540 31382 net.cpp:399] loss1/classifier_plantvillage_loss1/classifier_plantvillage_0_split -> loss1/classifier_plantvillage_loss1/classifier_plantvillage_0_split_1
I0403 15:16:18.707563 31382 net.cpp:399] loss1/classifier_plantvillage_loss1/classifier_plantvillage_0_split -> loss1/classifier_plantvillage_loss1/classifier_plantvillage_0_split_2
I0403 15:16:18.707630 31382 net.cpp:141] Setting up loss1/classifier_plantvillage_loss1/classifier_plantvillage_0_split
I0403 15:16:18.707654 31382 net.cpp:148] Top shape: 24 38 (912)
I0403 15:16:18.707670 31382 net.cpp:148] Top shape: 24 38 (912)
I0403 15:16:18.707685 31382 net.cpp:148] Top shape: 24 38 (912)
I0403 15:16:18.707700 31382 net.cpp:156] Memory required for data: 946203936
I0403 15:16:18.707715 31382 layer_factory.hpp:77] Creating layer inception_4b/1x1
I0403 15:16:18.707736 31382 net.cpp:91] Creating Layer inception_4b/1x1
I0403 15:16:18.707769 31382 net.cpp:425] inception_4b/1x1 <- inception_4a/output_inception_4a/output_0_split_1
I0403 15:16:18.707790 31382 net.cpp:399] inception_4b/1x1 -> inception_4b/1x1
I0403 15:16:18.709414 31382 net.cpp:141] Setting up inception_4b/1x1
I0403 15:16:18.709446 31382 net.cpp:148] Top shape: 24 160 14 14 (752640)
I0403 15:16:18.709466 31382 net.cpp:156] Memory required for data: 949214496
I0403 15:16:18.709486 31382 layer_factory.hpp:77] Creating layer inception_4b/relu_1x1
I0403 15:16:18.709506 31382 net.cpp:91] Creating Layer inception_4b/relu_1x1
I0403 15:16:18.709522 31382 net.cpp:425] inception_4b/relu_1x1 <- inception_4b/1x1
I0403 15:16:18.709542 31382 net.cpp:386] inception_4b/relu_1x1 -> inception_4b/1x1 (in-place)
I0403 15:16:18.709723 31382 net.cpp:141] Setting up inception_4b/relu_1x1
I0403 15:16:18.709749 31382 net.cpp:148] Top shape: 24 160 14 14 (752640)
I0403 15:16:18.709764 31382 net.cpp:156] Memory required for data: 952225056
I0403 15:16:18.709777 31382 layer_factory.hpp:77] Creating layer inception_4b/3x3_reduce
I0403 15:16:18.709800 31382 net.cpp:91] Creating Layer inception_4b/3x3_reduce
I0403 15:16:18.709817 31382 net.cpp:425] inception_4b/3x3_reduce <- inception_4a/output_inception_4a/output_0_split_2
I0403 15:16:18.709839 31382 net.cpp:399] inception_4b/3x3_reduce -> inception_4b/3x3_reduce
I0403 15:16:18.711149 31382 net.cpp:141] Setting up inception_4b/3x3_reduce
I0403 15:16:18.711179 31382 net.cpp:148] Top shape: 24 112 14 14 (526848)
I0403 15:16:18.711194 31382 net.cpp:156] Memory required for data: 954332448
I0403 15:16:18.711210 31382 layer_factory.hpp:77] Creating layer inception_4b/relu_3x3_reduce
I0403 15:16:18.711228 31382 net.cpp:91] Creating Layer inception_4b/relu_3x3_reduce
I0403 15:16:18.711246 31382 net.cpp:425] inception_4b/relu_3x3_reduce <- inception_4b/3x3_reduce
I0403 15:16:18.711272 31382 net.cpp:386] inception_4b/relu_3x3_reduce -> inception_4b/3x3_reduce (in-place)
I0403 15:16:18.711549 31382 net.cpp:141] Setting up inception_4b/relu_3x3_reduce
I0403 15:16:18.711575 31382 net.cpp:148] Top shape: 24 112 14 14 (526848)
I0403 15:16:18.711591 31382 net.cpp:156] Memory required for data: 956439840
I0403 15:16:18.711606 31382 layer_factory.hpp:77] Creating layer inception_4b/3x3
I0403 15:16:18.711627 31382 net.cpp:91] Creating Layer inception_4b/3x3
I0403 15:16:18.711645 31382 net.cpp:425] inception_4b/3x3 <- inception_4b/3x3_reduce
I0403 15:16:18.711668 31382 net.cpp:399] inception_4b/3x3 -> inception_4b/3x3
I0403 15:16:18.714571 31382 net.cpp:141] Setting up inception_4b/3x3
I0403 15:16:18.714601 31382 net.cpp:148] Top shape: 24 224 14 14 (1053696)
I0403 15:16:18.714617 31382 net.cpp:156] Memory required for data: 960654624
I0403 15:16:18.714635 31382 layer_factory.hpp:77] Creating layer inception_4b/relu_3x3
I0403 15:16:18.714658 31382 net.cpp:91] Creating Layer inception_4b/relu_3x3
I0403 15:16:18.714675 31382 net.cpp:425] inception_4b/relu_3x3 <- inception_4b/3x3
I0403 15:16:18.714694 31382 net.cpp:386] inception_4b/relu_3x3 -> inception_4b/3x3 (in-place)
I0403 15:16:18.714876 31382 net.cpp:141] Setting up inception_4b/relu_3x3
I0403 15:16:18.714905 31382 net.cpp:148] Top shape: 24 224 14 14 (1053696)
I0403 15:16:18.714920 31382 net.cpp:156] Memory required for data: 964869408
I0403 15:16:18.714937 31382 layer_factory.hpp:77] Creating layer inception_4b/5x5_reduce
I0403 15:16:18.714961 31382 net.cpp:91] Creating Layer inception_4b/5x5_reduce
I0403 15:16:18.714978 31382 net.cpp:425] inception_4b/5x5_reduce <- inception_4a/output_inception_4a/output_0_split_3
I0403 15:16:18.714998 31382 net.cpp:399] inception_4b/5x5_reduce -> inception_4b/5x5_reduce
I0403 15:16:18.716060 31382 net.cpp:141] Setting up inception_4b/5x5_reduce
I0403 15:16:18.716089 31382 net.cpp:148] Top shape: 24 24 14 14 (112896)
I0403 15:16:18.716105 31382 net.cpp:156] Memory required for data: 965320992
I0403 15:16:18.716125 31382 layer_factory.hpp:77] Creating layer inception_4b/relu_5x5_reduce
I0403 15:16:18.716142 31382 net.cpp:91] Creating Layer inception_4b/relu_5x5_reduce
I0403 15:16:18.716173 31382 net.cpp:425] inception_4b/relu_5x5_reduce <- inception_4b/5x5_reduce
I0403 15:16:18.716195 31382 net.cpp:386] inception_4b/relu_5x5_reduce -> inception_4b/5x5_reduce (in-place)
I0403 15:16:18.716380 31382 net.cpp:141] Setting up inception_4b/relu_5x5_reduce
I0403 15:16:18.716406 31382 net.cpp:148] Top shape: 24 24 14 14 (112896)
I0403 15:16:18.716421 31382 net.cpp:156] Memory required for data: 965772576
I0403 15:16:18.716435 31382 layer_factory.hpp:77] Creating layer inception_4b/5x5
I0403 15:16:18.716457 31382 net.cpp:91] Creating Layer inception_4b/5x5
I0403 15:16:18.716476 31382 net.cpp:425] inception_4b/5x5 <- inception_4b/5x5_reduce
I0403 15:16:18.716497 31382 net.cpp:399] inception_4b/5x5 -> inception_4b/5x5
I0403 15:16:18.717689 31382 net.cpp:141] Setting up inception_4b/5x5
I0403 15:16:18.717720 31382 net.cpp:148] Top shape: 24 64 14 14 (301056)
I0403 15:16:18.717737 31382 net.cpp:156] Memory required for data: 966976800
I0403 15:16:18.717756 31382 layer_factory.hpp:77] Creating layer inception_4b/relu_5x5
I0403 15:16:18.717774 31382 net.cpp:91] Creating Layer inception_4b/relu_5x5
I0403 15:16:18.717792 31382 net.cpp:425] inception_4b/relu_5x5 <- inception_4b/5x5
I0403 15:16:18.717810 31382 net.cpp:386] inception_4b/relu_5x5 -> inception_4b/5x5 (in-place)
I0403 15:16:18.718091 31382 net.cpp:141] Setting up inception_4b/relu_5x5
I0403 15:16:18.718127 31382 net.cpp:148] Top shape: 24 64 14 14 (301056)
I0403 15:16:18.718145 31382 net.cpp:156] Memory required for data: 968181024
I0403 15:16:18.718163 31382 layer_factory.hpp:77] Creating layer inception_4b/pool
I0403 15:16:18.718181 31382 net.cpp:91] Creating Layer inception_4b/pool
I0403 15:16:18.718199 31382 net.cpp:425] inception_4b/pool <- inception_4a/output_inception_4a/output_0_split_4
I0403 15:16:18.718219 31382 net.cpp:399] inception_4b/pool -> inception_4b/pool
I0403 15:16:18.718286 31382 net.cpp:141] Setting up inception_4b/pool
I0403 15:16:18.718309 31382 net.cpp:148] Top shape: 24 512 14 14 (2408448)
I0403 15:16:18.718324 31382 net.cpp:156] Memory required for data: 977814816
I0403 15:16:18.718339 31382 layer_factory.hpp:77] Creating layer inception_4b/pool_proj
I0403 15:16:18.718360 31382 net.cpp:91] Creating Layer inception_4b/pool_proj
I0403 15:16:18.718377 31382 net.cpp:425] inception_4b/pool_proj <- inception_4b/pool
I0403 15:16:18.718397 31382 net.cpp:399] inception_4b/pool_proj -> inception_4b/pool_proj
I0403 15:16:18.719630 31382 net.cpp:141] Setting up inception_4b/pool_proj
I0403 15:16:18.719660 31382 net.cpp:148] Top shape: 24 64 14 14 (301056)
I0403 15:16:18.719677 31382 net.cpp:156] Memory required for data: 979019040
I0403 15:16:18.719696 31382 layer_factory.hpp:77] Creating layer inception_4b/relu_pool_proj
I0403 15:16:18.719714 31382 net.cpp:91] Creating Layer inception_4b/relu_pool_proj
I0403 15:16:18.719730 31382 net.cpp:425] inception_4b/relu_pool_proj <- inception_4b/pool_proj
I0403 15:16:18.719750 31382 net.cpp:386] inception_4b/relu_pool_proj -> inception_4b/pool_proj (in-place)
I0403 15:16:18.719926 31382 net.cpp:141] Setting up inception_4b/relu_pool_proj
I0403 15:16:18.719952 31382 net.cpp:148] Top shape: 24 64 14 14 (301056)
I0403 15:16:18.719966 31382 net.cpp:156] Memory required for data: 980223264
I0403 15:16:18.719980 31382 layer_factory.hpp:77] Creating layer inception_4b/output
I0403 15:16:18.719997 31382 net.cpp:91] Creating Layer inception_4b/output
I0403 15:16:18.720013 31382 net.cpp:425] inception_4b/output <- inception_4b/1x1
I0403 15:16:18.720029 31382 net.cpp:425] inception_4b/output <- inception_4b/3x3
I0403 15:16:18.720046 31382 net.cpp:425] inception_4b/output <- inception_4b/5x5
I0403 15:16:18.720062 31382 net.cpp:425] inception_4b/output <- inception_4b/pool_proj
I0403 15:16:18.720082 31382 net.cpp:399] inception_4b/output -> inception_4b/output
I0403 15:16:18.720130 31382 net.cpp:141] Setting up inception_4b/output
I0403 15:16:18.720154 31382 net.cpp:148] Top shape: 24 512 14 14 (2408448)
I0403 15:16:18.720168 31382 net.cpp:156] Memory required for data: 989857056
I0403 15:16:18.720197 31382 layer_factory.hpp:77] Creating layer inception_4b/output_inception_4b/output_0_split
I0403 15:16:18.720216 31382 net.cpp:91] Creating Layer inception_4b/output_inception_4b/output_0_split
I0403 15:16:18.720234 31382 net.cpp:425] inception_4b/output_inception_4b/output_0_split <- inception_4b/output
I0403 15:16:18.720258 31382 net.cpp:399] inception_4b/output_inception_4b/output_0_split -> inception_4b/output_inception_4b/output_0_split_0
I0403 15:16:18.720286 31382 net.cpp:399] inception_4b/output_inception_4b/output_0_split -> inception_4b/output_inception_4b/output_0_split_1
I0403 15:16:18.720307 31382 net.cpp:399] inception_4b/output_inception_4b/output_0_split -> inception_4b/output_inception_4b/output_0_split_2
I0403 15:16:18.720334 31382 net.cpp:399] inception_4b/output_inception_4b/output_0_split -> inception_4b/output_inception_4b/output_0_split_3
I0403 15:16:18.720419 31382 net.cpp:141] Setting up inception_4b/output_inception_4b/output_0_split
I0403 15:16:18.720446 31382 net.cpp:148] Top shape: 24 512 14 14 (2408448)
I0403 15:16:18.720468 31382 net.cpp:148] Top shape: 24 512 14 14 (2408448)
I0403 15:16:18.720485 31382 net.cpp:148] Top shape: 24 512 14 14 (2408448)
I0403 15:16:18.720504 31382 net.cpp:148] Top shape: 24 512 14 14 (2408448)
I0403 15:16:18.720522 31382 net.cpp:156] Memory required for data: 1028392224
I0403 15:16:18.720541 31382 layer_factory.hpp:77] Creating layer inception_4c/1x1
I0403 15:16:18.720571 31382 net.cpp:91] Creating Layer inception_4c/1x1
I0403 15:16:18.720592 31382 net.cpp:425] inception_4c/1x1 <- inception_4b/output_inception_4b/output_0_split_0
I0403 15:16:18.720614 31382 net.cpp:399] inception_4c/1x1 -> inception_4c/1x1
I0403 15:16:18.722019 31382 net.cpp:141] Setting up inception_4c/1x1
I0403 15:16:18.722046 31382 net.cpp:148] Top shape: 24 128 14 14 (602112)
I0403 15:16:18.722062 31382 net.cpp:156] Memory required for data: 1030800672
I0403 15:16:18.722081 31382 layer_factory.hpp:77] Creating layer inception_4c/relu_1x1
I0403 15:16:18.722101 31382 net.cpp:91] Creating Layer inception_4c/relu_1x1
I0403 15:16:18.722117 31382 net.cpp:425] inception_4c/relu_1x1 <- inception_4c/1x1
I0403 15:16:18.722136 31382 net.cpp:386] inception_4c/relu_1x1 -> inception_4c/1x1 (in-place)
I0403 15:16:18.722314 31382 net.cpp:141] Setting up inception_4c/relu_1x1
I0403 15:16:18.722342 31382 net.cpp:148] Top shape: 24 128 14 14 (602112)
I0403 15:16:18.722358 31382 net.cpp:156] Memory required for data: 1033209120
I0403 15:16:18.722373 31382 layer_factory.hpp:77] Creating layer inception_4c/3x3_reduce
I0403 15:16:18.722396 31382 net.cpp:91] Creating Layer inception_4c/3x3_reduce
I0403 15:16:18.722414 31382 net.cpp:425] inception_4c/3x3_reduce <- inception_4b/output_inception_4b/output_0_split_1
I0403 15:16:18.722432 31382 net.cpp:399] inception_4c/3x3_reduce -> inception_4c/3x3_reduce
I0403 15:16:18.724413 31382 net.cpp:141] Setting up inception_4c/3x3_reduce
I0403 15:16:18.724445 31382 net.cpp:148] Top shape: 24 128 14 14 (602112)
I0403 15:16:18.724463 31382 net.cpp:156] Memory required for data: 1035617568
I0403 15:16:18.724483 31382 layer_factory.hpp:77] Creating layer inception_4c/relu_3x3_reduce
I0403 15:16:18.724501 31382 net.cpp:91] Creating Layer inception_4c/relu_3x3_reduce
I0403 15:16:18.724517 31382 net.cpp:425] inception_4c/relu_3x3_reduce <- inception_4c/3x3_reduce
I0403 15:16:18.724535 31382 net.cpp:386] inception_4c/relu_3x3_reduce -> inception_4c/3x3_reduce (in-place)
I0403 15:16:18.724817 31382 net.cpp:141] Setting up inception_4c/relu_3x3_reduce
I0403 15:16:18.724845 31382 net.cpp:148] Top shape: 24 128 14 14 (602112)
I0403 15:16:18.724860 31382 net.cpp:156] Memory required for data: 1038026016
I0403 15:16:18.724875 31382 layer_factory.hpp:77] Creating layer inception_4c/3x3
I0403 15:16:18.724900 31382 net.cpp:91] Creating Layer inception_4c/3x3
I0403 15:16:18.724918 31382 net.cpp:425] inception_4c/3x3 <- inception_4c/3x3_reduce
I0403 15:16:18.724937 31382 net.cpp:399] inception_4c/3x3 -> inception_4c/3x3
I0403 15:16:18.728600 31382 net.cpp:141] Setting up inception_4c/3x3
I0403 15:16:18.728658 31382 net.cpp:148] Top shape: 24 256 14 14 (1204224)
I0403 15:16:18.728677 31382 net.cpp:156] Memory required for data: 1042842912
I0403 15:16:18.728723 31382 layer_factory.hpp:77] Creating layer inception_4c/relu_3x3
I0403 15:16:18.728751 31382 net.cpp:91] Creating Layer inception_4c/relu_3x3
I0403 15:16:18.728782 31382 net.cpp:425] inception_4c/relu_3x3 <- inception_4c/3x3
I0403 15:16:18.728813 31382 net.cpp:386] inception_4c/relu_3x3 -> inception_4c/3x3 (in-place)
I0403 15:16:18.729008 31382 net.cpp:141] Setting up inception_4c/relu_3x3
I0403 15:16:18.729050 31382 net.cpp:148] Top shape: 24 256 14 14 (1204224)
I0403 15:16:18.729087 31382 net.cpp:156] Memory required for data: 1047659808
I0403 15:16:18.729106 31382 layer_factory.hpp:77] Creating layer inception_4c/5x5_reduce
I0403 15:16:18.729133 31382 net.cpp:91] Creating Layer inception_4c/5x5_reduce
I0403 15:16:18.729163 31382 net.cpp:425] inception_4c/5x5_reduce <- inception_4b/output_inception_4b/output_0_split_2
I0403 15:16:18.729185 31382 net.cpp:399] inception_4c/5x5_reduce -> inception_4c/5x5_reduce
I0403 15:16:18.730422 31382 net.cpp:141] Setting up inception_4c/5x5_reduce
I0403 15:16:18.730454 31382 net.cpp:148] Top shape: 24 24 14 14 (112896)
I0403 15:16:18.730473 31382 net.cpp:156] Memory required for data: 1048111392
I0403 15:16:18.730499 31382 layer_factory.hpp:77] Creating layer inception_4c/relu_5x5_reduce
I0403 15:16:18.730531 31382 net.cpp:91] Creating Layer inception_4c/relu_5x5_reduce
I0403 15:16:18.730548 31382 net.cpp:425] inception_4c/relu_5x5_reduce <- inception_4c/5x5_reduce
I0403 15:16:18.730568 31382 net.cpp:386] inception_4c/relu_5x5_reduce -> inception_4c/5x5_reduce (in-place)
I0403 15:16:18.730792 31382 net.cpp:141] Setting up inception_4c/relu_5x5_reduce
I0403 15:16:18.730819 31382 net.cpp:148] Top shape: 24 24 14 14 (112896)
I0403 15:16:18.730835 31382 net.cpp:156] Memory required for data: 1048562976
I0403 15:16:18.730850 31382 layer_factory.hpp:77] Creating layer inception_4c/5x5
I0403 15:16:18.730875 31382 net.cpp:91] Creating Layer inception_4c/5x5
I0403 15:16:18.730892 31382 net.cpp:425] inception_4c/5x5 <- inception_4c/5x5_reduce
I0403 15:16:18.730926 31382 net.cpp:399] inception_4c/5x5 -> inception_4c/5x5
I0403 15:16:18.732192 31382 net.cpp:141] Setting up inception_4c/5x5
I0403 15:16:18.732219 31382 net.cpp:148] Top shape: 24 64 14 14 (301056)
I0403 15:16:18.732236 31382 net.cpp:156] Memory required for data: 1049767200
I0403 15:16:18.732259 31382 layer_factory.hpp:77] Creating layer inception_4c/relu_5x5
I0403 15:16:18.732281 31382 net.cpp:91] Creating Layer inception_4c/relu_5x5
I0403 15:16:18.732298 31382 net.cpp:425] inception_4c/relu_5x5 <- inception_4c/5x5
I0403 15:16:18.732316 31382 net.cpp:386] inception_4c/relu_5x5 -> inception_4c/5x5 (in-place)
I0403 15:16:18.732648 31382 net.cpp:141] Setting up inception_4c/relu_5x5
I0403 15:16:18.732676 31382 net.cpp:148] Top shape: 24 64 14 14 (301056)
I0403 15:16:18.732691 31382 net.cpp:156] Memory required for data: 1050971424
I0403 15:16:18.732707 31382 layer_factory.hpp:77] Creating layer inception_4c/pool
I0403 15:16:18.732725 31382 net.cpp:91] Creating Layer inception_4c/pool
I0403 15:16:18.732743 31382 net.cpp:425] inception_4c/pool <- inception_4b/output_inception_4b/output_0_split_3
I0403 15:16:18.732763 31382 net.cpp:399] inception_4c/pool -> inception_4c/pool
I0403 15:16:18.732856 31382 net.cpp:141] Setting up inception_4c/pool
I0403 15:16:18.732889 31382 net.cpp:148] Top shape: 24 512 14 14 (2408448)
I0403 15:16:18.732904 31382 net.cpp:156] Memory required for data: 1060605216
I0403 15:16:18.732919 31382 layer_factory.hpp:77] Creating layer inception_4c/pool_proj
I0403 15:16:18.732944 31382 net.cpp:91] Creating Layer inception_4c/pool_proj
I0403 15:16:18.732962 31382 net.cpp:425] inception_4c/pool_proj <- inception_4c/pool
I0403 15:16:18.732981 31382 net.cpp:399] inception_4c/pool_proj -> inception_4c/pool_proj
I0403 15:16:18.734237 31382 net.cpp:141] Setting up inception_4c/pool_proj
I0403 15:16:18.734278 31382 net.cpp:148] Top shape: 24 64 14 14 (301056)
I0403 15:16:18.734308 31382 net.cpp:156] Memory required for data: 1061809440
I0403 15:16:18.734340 31382 layer_factory.hpp:77] Creating layer inception_4c/relu_pool_proj
I0403 15:16:18.734359 31382 net.cpp:91] Creating Layer inception_4c/relu_pool_proj
I0403 15:16:18.734376 31382 net.cpp:425] inception_4c/relu_pool_proj <- inception_4c/pool_proj
I0403 15:16:18.734396 31382 net.cpp:386] inception_4c/relu_pool_proj -> inception_4c/pool_proj (in-place)
I0403 15:16:18.734589 31382 net.cpp:141] Setting up inception_4c/relu_pool_proj
I0403 15:16:18.734614 31382 net.cpp:148] Top shape: 24 64 14 14 (301056)
I0403 15:16:18.734642 31382 net.cpp:156] Memory required for data: 1063013664
I0403 15:16:18.734657 31382 layer_factory.hpp:77] Creating layer inception_4c/output
I0403 15:16:18.734674 31382 net.cpp:91] Creating Layer inception_4c/output
I0403 15:16:18.734689 31382 net.cpp:425] inception_4c/output <- inception_4c/1x1
I0403 15:16:18.734705 31382 net.cpp:425] inception_4c/output <- inception_4c/3x3
I0403 15:16:18.734722 31382 net.cpp:425] inception_4c/output <- inception_4c/5x5
I0403 15:16:18.734738 31382 net.cpp:425] inception_4c/output <- inception_4c/pool_proj
I0403 15:16:18.734757 31382 net.cpp:399] inception_4c/output -> inception_4c/output
I0403 15:16:18.734803 31382 net.cpp:141] Setting up inception_4c/output
I0403 15:16:18.734829 31382 net.cpp:148] Top shape: 24 512 14 14 (2408448)
I0403 15:16:18.734844 31382 net.cpp:156] Memory required for data: 1072647456
I0403 15:16:18.734859 31382 layer_factory.hpp:77] Creating layer inception_4c/output_inception_4c/output_0_split
I0403 15:16:18.734886 31382 net.cpp:91] Creating Layer inception_4c/output_inception_4c/output_0_split
I0403 15:16:18.734902 31382 net.cpp:425] inception_4c/output_inception_4c/output_0_split <- inception_4c/output
I0403 15:16:18.734920 31382 net.cpp:399] inception_4c/output_inception_4c/output_0_split -> inception_4c/output_inception_4c/output_0_split_0
I0403 15:16:18.734942 31382 net.cpp:399] inception_4c/output_inception_4c/output_0_split -> inception_4c/output_inception_4c/output_0_split_1
I0403 15:16:18.734966 31382 net.cpp:399] inception_4c/output_inception_4c/output_0_split -> inception_4c/output_inception_4c/output_0_split_2
I0403 15:16:18.734984 31382 net.cpp:399] inception_4c/output_inception_4c/output_0_split -> inception_4c/output_inception_4c/output_0_split_3
I0403 15:16:18.735071 31382 net.cpp:141] Setting up inception_4c/output_inception_4c/output_0_split
I0403 15:16:18.735095 31382 net.cpp:148] Top shape: 24 512 14 14 (2408448)
I0403 15:16:18.735110 31382 net.cpp:148] Top shape: 24 512 14 14 (2408448)
I0403 15:16:18.735126 31382 net.cpp:148] Top shape: 24 512 14 14 (2408448)
I0403 15:16:18.735142 31382 net.cpp:148] Top shape: 24 512 14 14 (2408448)
I0403 15:16:18.735157 31382 net.cpp:156] Memory required for data: 1111182624
I0403 15:16:18.735170 31382 layer_factory.hpp:77] Creating layer inception_4d/1x1
I0403 15:16:18.735194 31382 net.cpp:91] Creating Layer inception_4d/1x1
I0403 15:16:18.735213 31382 net.cpp:425] inception_4d/1x1 <- inception_4c/output_inception_4c/output_0_split_0
I0403 15:16:18.735231 31382 net.cpp:399] inception_4d/1x1 -> inception_4d/1x1
I0403 15:16:18.736647 31382 net.cpp:141] Setting up inception_4d/1x1
I0403 15:16:18.736675 31382 net.cpp:148] Top shape: 24 112 14 14 (526848)
I0403 15:16:18.736690 31382 net.cpp:156] Memory required for data: 1113290016
I0403 15:16:18.736708 31382 layer_factory.hpp:77] Creating layer inception_4d/relu_1x1
I0403 15:16:18.736732 31382 net.cpp:91] Creating Layer inception_4d/relu_1x1
I0403 15:16:18.736748 31382 net.cpp:425] inception_4d/relu_1x1 <- inception_4d/1x1
I0403 15:16:18.736768 31382 net.cpp:386] inception_4d/relu_1x1 -> inception_4d/1x1 (in-place)
I0403 15:16:18.736945 31382 net.cpp:141] Setting up inception_4d/relu_1x1
I0403 15:16:18.736974 31382 net.cpp:148] Top shape: 24 112 14 14 (526848)
I0403 15:16:18.736989 31382 net.cpp:156] Memory required for data: 1115397408
I0403 15:16:18.737004 31382 layer_factory.hpp:77] Creating layer inception_4d/3x3_reduce
I0403 15:16:18.737041 31382 net.cpp:91] Creating Layer inception_4d/3x3_reduce
I0403 15:16:18.737059 31382 net.cpp:425] inception_4d/3x3_reduce <- inception_4c/output_inception_4c/output_0_split_1
I0403 15:16:18.737082 31382 net.cpp:399] inception_4d/3x3_reduce -> inception_4d/3x3_reduce
I0403 15:16:18.738612 31382 net.cpp:141] Setting up inception_4d/3x3_reduce
I0403 15:16:18.738641 31382 net.cpp:148] Top shape: 24 144 14 14 (677376)
I0403 15:16:18.738656 31382 net.cpp:156] Memory required for data: 1118106912
I0403 15:16:18.738675 31382 layer_factory.hpp:77] Creating layer inception_4d/relu_3x3_reduce
I0403 15:16:18.738697 31382 net.cpp:91] Creating Layer inception_4d/relu_3x3_reduce
I0403 15:16:18.738713 31382 net.cpp:425] inception_4d/relu_3x3_reduce <- inception_4d/3x3_reduce
I0403 15:16:18.738732 31382 net.cpp:386] inception_4d/relu_3x3_reduce -> inception_4d/3x3_reduce (in-place)
I0403 15:16:18.739025 31382 net.cpp:141] Setting up inception_4d/relu_3x3_reduce
I0403 15:16:18.739053 31382 net.cpp:148] Top shape: 24 144 14 14 (677376)
I0403 15:16:18.739068 31382 net.cpp:156] Memory required for data: 1120816416
I0403 15:16:18.739084 31382 layer_factory.hpp:77] Creating layer inception_4d/3x3
I0403 15:16:18.739109 31382 net.cpp:91] Creating Layer inception_4d/3x3
I0403 15:16:18.739126 31382 net.cpp:425] inception_4d/3x3 <- inception_4d/3x3_reduce
I0403 15:16:18.739147 31382 net.cpp:399] inception_4d/3x3 -> inception_4d/3x3
I0403 15:16:18.743405 31382 net.cpp:141] Setting up inception_4d/3x3
I0403 15:16:18.743437 31382 net.cpp:148] Top shape: 24 288 14 14 (1354752)
I0403 15:16:18.743454 31382 net.cpp:156] Memory required for data: 1126235424
I0403 15:16:18.743474 31382 layer_factory.hpp:77] Creating layer inception_4d/relu_3x3
I0403 15:16:18.743492 31382 net.cpp:91] Creating Layer inception_4d/relu_3x3
I0403 15:16:18.743510 31382 net.cpp:425] inception_4d/relu_3x3 <- inception_4d/3x3
I0403 15:16:18.743526 31382 net.cpp:386] inception_4d/relu_3x3 -> inception_4d/3x3 (in-place)
I0403 15:16:18.743713 31382 net.cpp:141] Setting up inception_4d/relu_3x3
I0403 15:16:18.743741 31382 net.cpp:148] Top shape: 24 288 14 14 (1354752)
I0403 15:16:18.743757 31382 net.cpp:156] Memory required for data: 1131654432
I0403 15:16:18.743772 31382 layer_factory.hpp:77] Creating layer inception_4d/5x5_reduce
I0403 15:16:18.743794 31382 net.cpp:91] Creating Layer inception_4d/5x5_reduce
I0403 15:16:18.743813 31382 net.cpp:425] inception_4d/5x5_reduce <- inception_4c/output_inception_4c/output_0_split_2
I0403 15:16:18.743835 31382 net.cpp:399] inception_4d/5x5_reduce -> inception_4d/5x5_reduce
I0403 15:16:18.745009 31382 net.cpp:141] Setting up inception_4d/5x5_reduce
I0403 15:16:18.745039 31382 net.cpp:148] Top shape: 24 32 14 14 (150528)
I0403 15:16:18.745056 31382 net.cpp:156] Memory required for data: 1132256544
I0403 15:16:18.745075 31382 layer_factory.hpp:77] Creating layer inception_4d/relu_5x5_reduce
I0403 15:16:18.745124 31382 net.cpp:91] Creating Layer inception_4d/relu_5x5_reduce
I0403 15:16:18.745146 31382 net.cpp:425] inception_4d/relu_5x5_reduce <- inception_4d/5x5_reduce
I0403 15:16:18.745165 31382 net.cpp:386] inception_4d/relu_5x5_reduce -> inception_4d/5x5_reduce (in-place)
I0403 15:16:18.745365 31382 net.cpp:141] Setting up inception_4d/relu_5x5_reduce
I0403 15:16:18.745404 31382 net.cpp:148] Top shape: 24 32 14 14 (150528)
I0403 15:16:18.745421 31382 net.cpp:156] Memory required for data: 1132858656
I0403 15:16:18.745437 31382 layer_factory.hpp:77] Creating layer inception_4d/5x5
I0403 15:16:18.745460 31382 net.cpp:91] Creating Layer inception_4d/5x5
I0403 15:16:18.745478 31382 net.cpp:425] inception_4d/5x5 <- inception_4d/5x5_reduce
I0403 15:16:18.745501 31382 net.cpp:399] inception_4d/5x5 -> inception_4d/5x5
I0403 15:16:18.746978 31382 net.cpp:141] Setting up inception_4d/5x5
I0403 15:16:18.747009 31382 net.cpp:148] Top shape: 24 64 14 14 (301056)
I0403 15:16:18.747026 31382 net.cpp:156] Memory required for data: 1134062880
I0403 15:16:18.747046 31382 layer_factory.hpp:77] Creating layer inception_4d/relu_5x5
I0403 15:16:18.747081 31382 net.cpp:91] Creating Layer inception_4d/relu_5x5
I0403 15:16:18.747099 31382 net.cpp:425] inception_4d/relu_5x5 <- inception_4d/5x5
I0403 15:16:18.747120 31382 net.cpp:386] inception_4d/relu_5x5 -> inception_4d/5x5 (in-place)
I0403 15:16:18.747431 31382 net.cpp:141] Setting up inception_4d/relu_5x5
I0403 15:16:18.747458 31382 net.cpp:148] Top shape: 24 64 14 14 (301056)
I0403 15:16:18.747475 31382 net.cpp:156] Memory required for data: 1135267104
I0403 15:16:18.747491 31382 layer_factory.hpp:77] Creating layer inception_4d/pool
I0403 15:16:18.747510 31382 net.cpp:91] Creating Layer inception_4d/pool
I0403 15:16:18.747527 31382 net.cpp:425] inception_4d/pool <- inception_4c/output_inception_4c/output_0_split_3
I0403 15:16:18.747548 31382 net.cpp:399] inception_4d/pool -> inception_4d/pool
I0403 15:16:18.747624 31382 net.cpp:141] Setting up inception_4d/pool
I0403 15:16:18.747650 31382 net.cpp:148] Top shape: 24 512 14 14 (2408448)
I0403 15:16:18.747665 31382 net.cpp:156] Memory required for data: 1144900896
I0403 15:16:18.747680 31382 layer_factory.hpp:77] Creating layer inception_4d/pool_proj
I0403 15:16:18.747704 31382 net.cpp:91] Creating Layer inception_4d/pool_proj
I0403 15:16:18.747723 31382 net.cpp:425] inception_4d/pool_proj <- inception_4d/pool
I0403 15:16:18.747742 31382 net.cpp:399] inception_4d/pool_proj -> inception_4d/pool_proj
I0403 15:16:18.749507 31382 net.cpp:141] Setting up inception_4d/pool_proj
I0403 15:16:18.749539 31382 net.cpp:148] Top shape: 24 64 14 14 (301056)
I0403 15:16:18.749557 31382 net.cpp:156] Memory required for data: 1146105120
I0403 15:16:18.749578 31382 layer_factory.hpp:77] Creating layer inception_4d/relu_pool_proj
I0403 15:16:18.749598 31382 net.cpp:91] Creating Layer inception_4d/relu_pool_proj
I0403 15:16:18.749614 31382 net.cpp:425] inception_4d/relu_pool_proj <- inception_4d/pool_proj
I0403 15:16:18.749631 31382 net.cpp:386] inception_4d/relu_pool_proj -> inception_4d/pool_proj (in-place)
I0403 15:16:18.749819 31382 net.cpp:141] Setting up inception_4d/relu_pool_proj
I0403 15:16:18.749846 31382 net.cpp:148] Top shape: 24 64 14 14 (301056)
I0403 15:16:18.749862 31382 net.cpp:156] Memory required for data: 1147309344
I0403 15:16:18.749877 31382 layer_factory.hpp:77] Creating layer inception_4d/output
I0403 15:16:18.749896 31382 net.cpp:91] Creating Layer inception_4d/output
I0403 15:16:18.749912 31382 net.cpp:425] inception_4d/output <- inception_4d/1x1
I0403 15:16:18.749929 31382 net.cpp:425] inception_4d/output <- inception_4d/3x3
I0403 15:16:18.749945 31382 net.cpp:425] inception_4d/output <- inception_4d/5x5
I0403 15:16:18.749961 31382 net.cpp:425] inception_4d/output <- inception_4d/pool_proj
I0403 15:16:18.749981 31382 net.cpp:399] inception_4d/output -> inception_4d/output
I0403 15:16:18.750030 31382 net.cpp:141] Setting up inception_4d/output
I0403 15:16:18.750054 31382 net.cpp:148] Top shape: 24 528 14 14 (2483712)
I0403 15:16:18.750069 31382 net.cpp:156] Memory required for data: 1157244192
I0403 15:16:18.750087 31382 layer_factory.hpp:77] Creating layer inception_4d/output_inception_4d/output_0_split
I0403 15:16:18.750107 31382 net.cpp:91] Creating Layer inception_4d/output_inception_4d/output_0_split
I0403 15:16:18.750124 31382 net.cpp:425] inception_4d/output_inception_4d/output_0_split <- inception_4d/output
I0403 15:16:18.750144 31382 net.cpp:399] inception_4d/output_inception_4d/output_0_split -> inception_4d/output_inception_4d/output_0_split_0
I0403 15:16:18.750169 31382 net.cpp:399] inception_4d/output_inception_4d/output_0_split -> inception_4d/output_inception_4d/output_0_split_1
I0403 15:16:18.750190 31382 net.cpp:399] inception_4d/output_inception_4d/output_0_split -> inception_4d/output_inception_4d/output_0_split_2
I0403 15:16:18.750213 31382 net.cpp:399] inception_4d/output_inception_4d/output_0_split -> inception_4d/output_inception_4d/output_0_split_3
I0403 15:16:18.750234 31382 net.cpp:399] inception_4d/output_inception_4d/output_0_split -> inception_4d/output_inception_4d/output_0_split_4
I0403 15:16:18.750345 31382 net.cpp:141] Setting up inception_4d/output_inception_4d/output_0_split
I0403 15:16:18.750381 31382 net.cpp:148] Top shape: 24 528 14 14 (2483712)
I0403 15:16:18.750399 31382 net.cpp:148] Top shape: 24 528 14 14 (2483712)
I0403 15:16:18.750416 31382 net.cpp:148] Top shape: 24 528 14 14 (2483712)
I0403 15:16:18.750432 31382 net.cpp:148] Top shape: 24 528 14 14 (2483712)
I0403 15:16:18.750447 31382 net.cpp:148] Top shape: 24 528 14 14 (2483712)
I0403 15:16:18.750463 31382 net.cpp:156] Memory required for data: 1206918432
I0403 15:16:18.750478 31382 layer_factory.hpp:77] Creating layer loss2/ave_pool
I0403 15:16:18.750499 31382 net.cpp:91] Creating Layer loss2/ave_pool
I0403 15:16:18.750515 31382 net.cpp:425] loss2/ave_pool <- inception_4d/output_inception_4d/output_0_split_0
I0403 15:16:18.750535 31382 net.cpp:399] loss2/ave_pool -> loss2/ave_pool
I0403 15:16:18.750847 31382 net.cpp:141] Setting up loss2/ave_pool
I0403 15:16:18.750877 31382 net.cpp:148] Top shape: 24 528 4 4 (202752)
I0403 15:16:18.750895 31382 net.cpp:156] Memory required for data: 1207729440
I0403 15:16:18.750910 31382 layer_factory.hpp:77] Creating layer loss2/conv
I0403 15:16:18.750931 31382 net.cpp:91] Creating Layer loss2/conv
I0403 15:16:18.750951 31382 net.cpp:425] loss2/conv <- loss2/ave_pool
I0403 15:16:18.750970 31382 net.cpp:399] loss2/conv -> loss2/conv
I0403 15:16:18.752890 31382 net.cpp:141] Setting up loss2/conv
I0403 15:16:18.752919 31382 net.cpp:148] Top shape: 24 128 4 4 (49152)
I0403 15:16:18.752936 31382 net.cpp:156] Memory required for data: 1207926048
I0403 15:16:18.752956 31382 layer_factory.hpp:77] Creating layer loss2/relu_conv
I0403 15:16:18.752975 31382 net.cpp:91] Creating Layer loss2/relu_conv
I0403 15:16:18.752995 31382 net.cpp:425] loss2/relu_conv <- loss2/conv
I0403 15:16:18.753012 31382 net.cpp:386] loss2/relu_conv -> loss2/conv (in-place)
I0403 15:16:18.753309 31382 net.cpp:141] Setting up loss2/relu_conv
I0403 15:16:18.753337 31382 net.cpp:148] Top shape: 24 128 4 4 (49152)
I0403 15:16:18.753353 31382 net.cpp:156] Memory required for data: 1208122656
I0403 15:16:18.753370 31382 layer_factory.hpp:77] Creating layer loss2/fc
I0403 15:16:18.753389 31382 net.cpp:91] Creating Layer loss2/fc
I0403 15:16:18.753410 31382 net.cpp:425] loss2/fc <- loss2/conv
I0403 15:16:18.753430 31382 net.cpp:399] loss2/fc -> loss2/fc
I0403 15:16:18.772038 31382 net.cpp:141] Setting up loss2/fc
I0403 15:16:18.772091 31382 net.cpp:148] Top shape: 24 1024 (24576)
I0403 15:16:18.772109 31382 net.cpp:156] Memory required for data: 1208220960
I0403 15:16:18.772130 31382 layer_factory.hpp:77] Creating layer loss2/relu_fc
I0403 15:16:18.772155 31382 net.cpp:91] Creating Layer loss2/relu_fc
I0403 15:16:18.772174 31382 net.cpp:425] loss2/relu_fc <- loss2/fc
I0403 15:16:18.772195 31382 net.cpp:386] loss2/relu_fc -> loss2/fc (in-place)
I0403 15:16:18.772552 31382 net.cpp:141] Setting up loss2/relu_fc
I0403 15:16:18.772591 31382 net.cpp:148] Top shape: 24 1024 (24576)
I0403 15:16:18.772608 31382 net.cpp:156] Memory required for data: 1208319264
I0403 15:16:18.772625 31382 layer_factory.hpp:77] Creating layer loss2/drop_fc
I0403 15:16:18.772646 31382 net.cpp:91] Creating Layer loss2/drop_fc
I0403 15:16:18.772662 31382 net.cpp:425] loss2/drop_fc <- loss2/fc
I0403 15:16:18.772689 31382 net.cpp:386] loss2/drop_fc -> loss2/fc (in-place)
I0403 15:16:18.772742 31382 net.cpp:141] Setting up loss2/drop_fc
I0403 15:16:18.772768 31382 net.cpp:148] Top shape: 24 1024 (24576)
I0403 15:16:18.772783 31382 net.cpp:156] Memory required for data: 1208417568
I0403 15:16:18.772800 31382 layer_factory.hpp:77] Creating layer loss2/classifier_plantvillage
I0403 15:16:18.772825 31382 net.cpp:91] Creating Layer loss2/classifier_plantvillage
I0403 15:16:18.772847 31382 net.cpp:425] loss2/classifier_plantvillage <- loss2/fc
I0403 15:16:18.772873 31382 net.cpp:399] loss2/classifier_plantvillage -> loss2/classifier_plantvillage
I0403 15:16:18.773308 31382 net.cpp:141] Setting up loss2/classifier_plantvillage
I0403 15:16:18.773334 31382 net.cpp:148] Top shape: 24 38 (912)
I0403 15:16:18.773350 31382 net.cpp:156] Memory required for data: 1208421216
I0403 15:16:18.773393 31382 layer_factory.hpp:77] Creating layer loss2/classifier_plantvillage_loss2/classifier_plantvillage_0_split
I0403 15:16:18.773416 31382 net.cpp:91] Creating Layer loss2/classifier_plantvillage_loss2/classifier_plantvillage_0_split
I0403 15:16:18.773437 31382 net.cpp:425] loss2/classifier_plantvillage_loss2/classifier_plantvillage_0_split <- loss2/classifier_plantvillage
I0403 15:16:18.773455 31382 net.cpp:399] loss2/classifier_plantvillage_loss2/classifier_plantvillage_0_split -> loss2/classifier_plantvillage_loss2/classifier_plantvillage_0_split_0
I0403 15:16:18.773476 31382 net.cpp:399] loss2/classifier_plantvillage_loss2/classifier_plantvillage_0_split -> loss2/classifier_plantvillage_loss2/classifier_plantvillage_0_split_1
I0403 15:16:18.773499 31382 net.cpp:399] loss2/classifier_plantvillage_loss2/classifier_plantvillage_0_split -> loss2/classifier_plantvillage_loss2/classifier_plantvillage_0_split_2
I0403 15:16:18.773579 31382 net.cpp:141] Setting up loss2/classifier_plantvillage_loss2/classifier_plantvillage_0_split
I0403 15:16:18.773607 31382 net.cpp:148] Top shape: 24 38 (912)
I0403 15:16:18.773625 31382 net.cpp:148] Top shape: 24 38 (912)
I0403 15:16:18.773641 31382 net.cpp:148] Top shape: 24 38 (912)
I0403 15:16:18.773656 31382 net.cpp:156] Memory required for data: 1208432160
I0403 15:16:18.773671 31382 layer_factory.hpp:77] Creating layer inception_4e/1x1
I0403 15:16:18.773694 31382 net.cpp:91] Creating Layer inception_4e/1x1
I0403 15:16:18.773713 31382 net.cpp:425] inception_4e/1x1 <- inception_4d/output_inception_4d/output_0_split_1
I0403 15:16:18.773736 31382 net.cpp:399] inception_4e/1x1 -> inception_4e/1x1
I0403 15:16:18.775671 31382 net.cpp:141] Setting up inception_4e/1x1
I0403 15:16:18.775701 31382 net.cpp:148] Top shape: 24 256 14 14 (1204224)
I0403 15:16:18.775717 31382 net.cpp:156] Memory required for data: 1213249056
I0403 15:16:18.775738 31382 layer_factory.hpp:77] Creating layer inception_4e/relu_1x1
I0403 15:16:18.775756 31382 net.cpp:91] Creating Layer inception_4e/relu_1x1
I0403 15:16:18.775774 31382 net.cpp:425] inception_4e/relu_1x1 <- inception_4e/1x1
I0403 15:16:18.775794 31382 net.cpp:386] inception_4e/relu_1x1 -> inception_4e/1x1 (in-place)
I0403 15:16:18.776103 31382 net.cpp:141] Setting up inception_4e/relu_1x1
I0403 15:16:18.776131 31382 net.cpp:148] Top shape: 24 256 14 14 (1204224)
I0403 15:16:18.776147 31382 net.cpp:156] Memory required for data: 1218065952
I0403 15:16:18.776165 31382 layer_factory.hpp:77] Creating layer inception_4e/3x3_reduce
I0403 15:16:18.776188 31382 net.cpp:91] Creating Layer inception_4e/3x3_reduce
I0403 15:16:18.776211 31382 net.cpp:425] inception_4e/3x3_reduce <- inception_4d/output_inception_4d/output_0_split_2
I0403 15:16:18.776234 31382 net.cpp:399] inception_4e/3x3_reduce -> inception_4e/3x3_reduce
I0403 15:16:18.778450 31382 net.cpp:141] Setting up inception_4e/3x3_reduce
I0403 15:16:18.778483 31382 net.cpp:148] Top shape: 24 160 14 14 (752640)
I0403 15:16:18.778502 31382 net.cpp:156] Memory required for data: 1221076512
I0403 15:16:18.778522 31382 layer_factory.hpp:77] Creating layer inception_4e/relu_3x3_reduce
I0403 15:16:18.778542 31382 net.cpp:91] Creating Layer inception_4e/relu_3x3_reduce
I0403 15:16:18.778558 31382 net.cpp:425] inception_4e/relu_3x3_reduce <- inception_4e/3x3_reduce
I0403 15:16:18.778580 31382 net.cpp:386] inception_4e/relu_3x3_reduce -> inception_4e/3x3_reduce (in-place)
I0403 15:16:18.778774 31382 net.cpp:141] Setting up inception_4e/relu_3x3_reduce
I0403 15:16:18.778800 31382 net.cpp:148] Top shape: 24 160 14 14 (752640)
I0403 15:16:18.778815 31382 net.cpp:156] Memory required for data: 1224087072
I0403 15:16:18.778831 31382 layer_factory.hpp:77] Creating layer inception_4e/3x3
I0403 15:16:18.778854 31382 net.cpp:91] Creating Layer inception_4e/3x3
I0403 15:16:18.778872 31382 net.cpp:425] inception_4e/3x3 <- inception_4e/3x3_reduce
I0403 15:16:18.778895 31382 net.cpp:399] inception_4e/3x3 -> inception_4e/3x3
I0403 15:16:18.784039 31382 net.cpp:141] Setting up inception_4e/3x3
I0403 15:16:18.784081 31382 net.cpp:148] Top shape: 24 320 14 14 (1505280)
I0403 15:16:18.784098 31382 net.cpp:156] Memory required for data: 1230108192
I0403 15:16:18.784117 31382 layer_factory.hpp:77] Creating layer inception_4e/relu_3x3
I0403 15:16:18.784138 31382 net.cpp:91] Creating Layer inception_4e/relu_3x3
I0403 15:16:18.784157 31382 net.cpp:425] inception_4e/relu_3x3 <- inception_4e/3x3
I0403 15:16:18.784174 31382 net.cpp:386] inception_4e/relu_3x3 -> inception_4e/3x3 (in-place)
I0403 15:16:18.784489 31382 net.cpp:141] Setting up inception_4e/relu_3x3
I0403 15:16:18.784518 31382 net.cpp:148] Top shape: 24 320 14 14 (1505280)
I0403 15:16:18.784533 31382 net.cpp:156] Memory required for data: 1236129312
I0403 15:16:18.784550 31382 layer_factory.hpp:77] Creating layer inception_4e/5x5_reduce
I0403 15:16:18.784575 31382 net.cpp:91] Creating Layer inception_4e/5x5_reduce
I0403 15:16:18.784592 31382 net.cpp:425] inception_4e/5x5_reduce <- inception_4d/output_inception_4d/output_0_split_3
I0403 15:16:18.784613 31382 net.cpp:399] inception_4e/5x5_reduce -> inception_4e/5x5_reduce
I0403 15:16:18.785715 31382 net.cpp:141] Setting up inception_4e/5x5_reduce
I0403 15:16:18.785745 31382 net.cpp:148] Top shape: 24 32 14 14 (150528)
I0403 15:16:18.785761 31382 net.cpp:156] Memory required for data: 1236731424
I0403 15:16:18.785791 31382 layer_factory.hpp:77] Creating layer inception_4e/relu_5x5_reduce
I0403 15:16:18.785811 31382 net.cpp:91] Creating Layer inception_4e/relu_5x5_reduce
I0403 15:16:18.785867 31382 net.cpp:425] inception_4e/relu_5x5_reduce <- inception_4e/5x5_reduce
I0403 15:16:18.785892 31382 net.cpp:386] inception_4e/relu_5x5_reduce -> inception_4e/5x5_reduce (in-place)
I0403 15:16:18.786227 31382 net.cpp:141] Setting up inception_4e/relu_5x5_reduce
I0403 15:16:18.786258 31382 net.cpp:148] Top shape: 24 32 14 14 (150528)
I0403 15:16:18.786275 31382 net.cpp:156] Memory required for data: 1237333536
I0403 15:16:18.786291 31382 layer_factory.hpp:77] Creating layer inception_4e/5x5
I0403 15:16:18.786330 31382 net.cpp:91] Creating Layer inception_4e/5x5
I0403 15:16:18.786350 31382 net.cpp:425] inception_4e/5x5 <- inception_4e/5x5_reduce
I0403 15:16:18.786370 31382 net.cpp:399] inception_4e/5x5 -> inception_4e/5x5
I0403 15:16:18.788417 31382 net.cpp:141] Setting up inception_4e/5x5
I0403 15:16:18.788465 31382 net.cpp:148] Top shape: 24 128 14 14 (602112)
I0403 15:16:18.788486 31382 net.cpp:156] Memory required for data: 1239741984
I0403 15:16:18.788508 31382 layer_factory.hpp:77] Creating layer inception_4e/relu_5x5
I0403 15:16:18.788530 31382 net.cpp:91] Creating Layer inception_4e/relu_5x5
I0403 15:16:18.788552 31382 net.cpp:425] inception_4e/relu_5x5 <- inception_4e/5x5
I0403 15:16:18.788573 31382 net.cpp:386] inception_4e/relu_5x5 -> inception_4e/5x5 (in-place)
I0403 15:16:18.788785 31382 net.cpp:141] Setting up inception_4e/relu_5x5
I0403 15:16:18.788812 31382 net.cpp:148] Top shape: 24 128 14 14 (602112)
I0403 15:16:18.788828 31382 net.cpp:156] Memory required for data: 1242150432
I0403 15:16:18.788846 31382 layer_factory.hpp:77] Creating layer inception_4e/pool
I0403 15:16:18.788877 31382 net.cpp:91] Creating Layer inception_4e/pool
I0403 15:16:18.788893 31382 net.cpp:425] inception_4e/pool <- inception_4d/output_inception_4d/output_0_split_4
I0403 15:16:18.788913 31382 net.cpp:399] inception_4e/pool -> inception_4e/pool
I0403 15:16:18.789012 31382 net.cpp:141] Setting up inception_4e/pool
I0403 15:16:18.789041 31382 net.cpp:148] Top shape: 24 528 14 14 (2483712)
I0403 15:16:18.789057 31382 net.cpp:156] Memory required for data: 1252085280
I0403 15:16:18.789073 31382 layer_factory.hpp:77] Creating layer inception_4e/pool_proj
I0403 15:16:18.789098 31382 net.cpp:91] Creating Layer inception_4e/pool_proj
I0403 15:16:18.789116 31382 net.cpp:425] inception_4e/pool_proj <- inception_4e/pool
I0403 15:16:18.789136 31382 net.cpp:399] inception_4e/pool_proj -> inception_4e/pool_proj
I0403 15:16:18.790798 31382 net.cpp:141] Setting up inception_4e/pool_proj
I0403 15:16:18.790832 31382 net.cpp:148] Top shape: 24 128 14 14 (602112)
I0403 15:16:18.790865 31382 net.cpp:156] Memory required for data: 1254493728
I0403 15:16:18.790887 31382 layer_factory.hpp:77] Creating layer inception_4e/relu_pool_proj
I0403 15:16:18.790909 31382 net.cpp:91] Creating Layer inception_4e/relu_pool_proj
I0403 15:16:18.790927 31382 net.cpp:425] inception_4e/relu_pool_proj <- inception_4e/pool_proj
I0403 15:16:18.790947 31382 net.cpp:386] inception_4e/relu_pool_proj -> inception_4e/pool_proj (in-place)
I0403 15:16:18.791265 31382 net.cpp:141] Setting up inception_4e/relu_pool_proj
I0403 15:16:18.791296 31382 net.cpp:148] Top shape: 24 128 14 14 (602112)
I0403 15:16:18.791314 31382 net.cpp:156] Memory required for data: 1256902176
I0403 15:16:18.791331 31382 layer_factory.hpp:77] Creating layer inception_4e/output
I0403 15:16:18.791350 31382 net.cpp:91] Creating Layer inception_4e/output
I0403 15:16:18.791368 31382 net.cpp:425] inception_4e/output <- inception_4e/1x1
I0403 15:16:18.791390 31382 net.cpp:425] inception_4e/output <- inception_4e/3x3
I0403 15:16:18.791411 31382 net.cpp:425] inception_4e/output <- inception_4e/5x5
I0403 15:16:18.791429 31382 net.cpp:425] inception_4e/output <- inception_4e/pool_proj
I0403 15:16:18.791448 31382 net.cpp:399] inception_4e/output -> inception_4e/output
I0403 15:16:18.791502 31382 net.cpp:141] Setting up inception_4e/output
I0403 15:16:18.791527 31382 net.cpp:148] Top shape: 24 832 14 14 (3913728)
I0403 15:16:18.791543 31382 net.cpp:156] Memory required for data: 1272557088
I0403 15:16:18.791559 31382 layer_factory.hpp:77] Creating layer pool4/3x3_s2
I0403 15:16:18.791580 31382 net.cpp:91] Creating Layer pool4/3x3_s2
I0403 15:16:18.791599 31382 net.cpp:425] pool4/3x3_s2 <- inception_4e/output
I0403 15:16:18.791618 31382 net.cpp:399] pool4/3x3_s2 -> pool4/3x3_s2
I0403 15:16:18.791693 31382 net.cpp:141] Setting up pool4/3x3_s2
I0403 15:16:18.791719 31382 net.cpp:148] Top shape: 24 832 7 7 (978432)
I0403 15:16:18.791735 31382 net.cpp:156] Memory required for data: 1276470816
I0403 15:16:18.791751 31382 layer_factory.hpp:77] Creating layer pool4/3x3_s2_pool4/3x3_s2_0_split
I0403 15:16:18.791769 31382 net.cpp:91] Creating Layer pool4/3x3_s2_pool4/3x3_s2_0_split
I0403 15:16:18.791785 31382 net.cpp:425] pool4/3x3_s2_pool4/3x3_s2_0_split <- pool4/3x3_s2
I0403 15:16:18.791807 31382 net.cpp:399] pool4/3x3_s2_pool4/3x3_s2_0_split -> pool4/3x3_s2_pool4/3x3_s2_0_split_0
I0403 15:16:18.791829 31382 net.cpp:399] pool4/3x3_s2_pool4/3x3_s2_0_split -> pool4/3x3_s2_pool4/3x3_s2_0_split_1
I0403 15:16:18.791851 31382 net.cpp:399] pool4/3x3_s2_pool4/3x3_s2_0_split -> pool4/3x3_s2_pool4/3x3_s2_0_split_2
I0403 15:16:18.791872 31382 net.cpp:399] pool4/3x3_s2_pool4/3x3_s2_0_split -> pool4/3x3_s2_pool4/3x3_s2_0_split_3
I0403 15:16:18.791971 31382 net.cpp:141] Setting up pool4/3x3_s2_pool4/3x3_s2_0_split
I0403 15:16:18.791999 31382 net.cpp:148] Top shape: 24 832 7 7 (978432)
I0403 15:16:18.792017 31382 net.cpp:148] Top shape: 24 832 7 7 (978432)
I0403 15:16:18.792034 31382 net.cpp:148] Top shape: 24 832 7 7 (978432)
I0403 15:16:18.792052 31382 net.cpp:148] Top shape: 24 832 7 7 (978432)
I0403 15:16:18.792067 31382 net.cpp:156] Memory required for data: 1292125728
I0403 15:16:18.792083 31382 layer_factory.hpp:77] Creating layer inception_5a/1x1
I0403 15:16:18.792107 31382 net.cpp:91] Creating Layer inception_5a/1x1
I0403 15:16:18.792126 31382 net.cpp:425] inception_5a/1x1 <- pool4/3x3_s2_pool4/3x3_s2_0_split_0
I0403 15:16:18.792146 31382 net.cpp:399] inception_5a/1x1 -> inception_5a/1x1
I0403 15:16:18.795200 31382 net.cpp:141] Setting up inception_5a/1x1
I0403 15:16:18.795245 31382 net.cpp:148] Top shape: 24 256 7 7 (301056)
I0403 15:16:18.795276 31382 net.cpp:156] Memory required for data: 1293329952
I0403 15:16:18.795298 31382 layer_factory.hpp:77] Creating layer inception_5a/relu_1x1
I0403 15:16:18.795320 31382 net.cpp:91] Creating Layer inception_5a/relu_1x1
I0403 15:16:18.795339 31382 net.cpp:425] inception_5a/relu_1x1 <- inception_5a/1x1
I0403 15:16:18.795361 31382 net.cpp:386] inception_5a/relu_1x1 -> inception_5a/1x1 (in-place)
I0403 15:16:18.795703 31382 net.cpp:141] Setting up inception_5a/relu_1x1
I0403 15:16:18.795734 31382 net.cpp:148] Top shape: 24 256 7 7 (301056)
I0403 15:16:18.795752 31382 net.cpp:156] Memory required for data: 1294534176
I0403 15:16:18.795769 31382 layer_factory.hpp:77] Creating layer inception_5a/3x3_reduce
I0403 15:16:18.795794 31382 net.cpp:91] Creating Layer inception_5a/3x3_reduce
I0403 15:16:18.795812 31382 net.cpp:425] inception_5a/3x3_reduce <- pool4/3x3_s2_pool4/3x3_s2_0_split_1
I0403 15:16:18.795833 31382 net.cpp:399] inception_5a/3x3_reduce -> inception_5a/3x3_reduce
I0403 15:16:18.798521 31382 net.cpp:141] Setting up inception_5a/3x3_reduce
I0403 15:16:18.798552 31382 net.cpp:148] Top shape: 24 160 7 7 (188160)
I0403 15:16:18.798571 31382 net.cpp:156] Memory required for data: 1295286816
I0403 15:16:18.798591 31382 layer_factory.hpp:77] Creating layer inception_5a/relu_3x3_reduce
I0403 15:16:18.798614 31382 net.cpp:91] Creating Layer inception_5a/relu_3x3_reduce
I0403 15:16:18.798631 31382 net.cpp:425] inception_5a/relu_3x3_reduce <- inception_5a/3x3_reduce
I0403 15:16:18.798650 31382 net.cpp:386] inception_5a/relu_3x3_reduce -> inception_5a/3x3_reduce (in-place)
I0403 15:16:18.798846 31382 net.cpp:141] Setting up inception_5a/relu_3x3_reduce
I0403 15:16:18.798878 31382 net.cpp:148] Top shape: 24 160 7 7 (188160)
I0403 15:16:18.798897 31382 net.cpp:156] Memory required for data: 1296039456
I0403 15:16:18.798912 31382 layer_factory.hpp:77] Creating layer inception_5a/3x3
I0403 15:16:18.798935 31382 net.cpp:91] Creating Layer inception_5a/3x3
I0403 15:16:18.798954 31382 net.cpp:425] inception_5a/3x3 <- inception_5a/3x3_reduce
I0403 15:16:18.798974 31382 net.cpp:399] inception_5a/3x3 -> inception_5a/3x3
I0403 15:16:18.804288 31382 net.cpp:141] Setting up inception_5a/3x3
I0403 15:16:18.804322 31382 net.cpp:148] Top shape: 24 320 7 7 (376320)
I0403 15:16:18.804342 31382 net.cpp:156] Memory required for data: 1297544736
I0403 15:16:18.804363 31382 layer_factory.hpp:77] Creating layer inception_5a/relu_3x3
I0403 15:16:18.804381 31382 net.cpp:91] Creating Layer inception_5a/relu_3x3
I0403 15:16:18.804399 31382 net.cpp:425] inception_5a/relu_3x3 <- inception_5a/3x3
I0403 15:16:18.804420 31382 net.cpp:386] inception_5a/relu_3x3 -> inception_5a/3x3 (in-place)
I0403 15:16:18.804831 31382 net.cpp:141] Setting up inception_5a/relu_3x3
I0403 15:16:18.804862 31382 net.cpp:148] Top shape: 24 320 7 7 (376320)
I0403 15:16:18.804877 31382 net.cpp:156] Memory required for data: 1299050016
I0403 15:16:18.804894 31382 layer_factory.hpp:77] Creating layer inception_5a/5x5_reduce
I0403 15:16:18.804921 31382 net.cpp:91] Creating Layer inception_5a/5x5_reduce
I0403 15:16:18.804942 31382 net.cpp:425] inception_5a/5x5_reduce <- pool4/3x3_s2_pool4/3x3_s2_0_split_2
I0403 15:16:18.804966 31382 net.cpp:399] inception_5a/5x5_reduce -> inception_5a/5x5_reduce
I0403 15:16:18.806181 31382 net.cpp:141] Setting up inception_5a/5x5_reduce
I0403 15:16:18.806213 31382 net.cpp:148] Top shape: 24 32 7 7 (37632)
I0403 15:16:18.806231 31382 net.cpp:156] Memory required for data: 1299200544
I0403 15:16:18.806251 31382 layer_factory.hpp:77] Creating layer inception_5a/relu_5x5_reduce
I0403 15:16:18.806274 31382 net.cpp:91] Creating Layer inception_5a/relu_5x5_reduce
I0403 15:16:18.806293 31382 net.cpp:425] inception_5a/relu_5x5_reduce <- inception_5a/5x5_reduce
I0403 15:16:18.806313 31382 net.cpp:386] inception_5a/relu_5x5_reduce -> inception_5a/5x5_reduce (in-place)
I0403 15:16:18.806623 31382 net.cpp:141] Setting up inception_5a/relu_5x5_reduce
I0403 15:16:18.806650 31382 net.cpp:148] Top shape: 24 32 7 7 (37632)
I0403 15:16:18.806668 31382 net.cpp:156] Memory required for data: 1299351072
I0403 15:16:18.806690 31382 layer_factory.hpp:77] Creating layer inception_5a/5x5
I0403 15:16:18.806713 31382 net.cpp:91] Creating Layer inception_5a/5x5
I0403 15:16:18.806732 31382 net.cpp:425] inception_5a/5x5 <- inception_5a/5x5_reduce
I0403 15:16:18.806754 31382 net.cpp:399] inception_5a/5x5 -> inception_5a/5x5
I0403 15:16:18.808539 31382 net.cpp:141] Setting up inception_5a/5x5
I0403 15:16:18.808586 31382 net.cpp:148] Top shape: 24 128 7 7 (150528)
I0403 15:16:18.808606 31382 net.cpp:156] Memory required for data: 1299953184
I0403 15:16:18.808634 31382 layer_factory.hpp:77] Creating layer inception_5a/relu_5x5
I0403 15:16:18.808656 31382 net.cpp:91] Creating Layer inception_5a/relu_5x5
I0403 15:16:18.808676 31382 net.cpp:425] inception_5a/relu_5x5 <- inception_5a/5x5
I0403 15:16:18.808698 31382 net.cpp:386] inception_5a/relu_5x5 -> inception_5a/5x5 (in-place)
I0403 15:16:18.808899 31382 net.cpp:141] Setting up inception_5a/relu_5x5
I0403 15:16:18.808926 31382 net.cpp:148] Top shape: 24 128 7 7 (150528)
I0403 15:16:18.808944 31382 net.cpp:156] Memory required for data: 1300555296
I0403 15:16:18.808960 31382 layer_factory.hpp:77] Creating layer inception_5a/pool
I0403 15:16:18.808980 31382 net.cpp:91] Creating Layer inception_5a/pool
I0403 15:16:18.809000 31382 net.cpp:425] inception_5a/pool <- pool4/3x3_s2_pool4/3x3_s2_0_split_3
I0403 15:16:18.809026 31382 net.cpp:399] inception_5a/pool -> inception_5a/pool
I0403 15:16:18.809103 31382 net.cpp:141] Setting up inception_5a/pool
I0403 15:16:18.809128 31382 net.cpp:148] Top shape: 24 832 7 7 (978432)
I0403 15:16:18.809144 31382 net.cpp:156] Memory required for data: 1304469024
I0403 15:16:18.809160 31382 layer_factory.hpp:77] Creating layer inception_5a/pool_proj
I0403 15:16:18.809182 31382 net.cpp:91] Creating Layer inception_5a/pool_proj
I0403 15:16:18.809202 31382 net.cpp:425] inception_5a/pool_proj <- inception_5a/pool
I0403 15:16:18.809224 31382 net.cpp:399] inception_5a/pool_proj -> inception_5a/pool_proj
I0403 15:16:18.811583 31382 net.cpp:141] Setting up inception_5a/pool_proj
I0403 15:16:18.811624 31382 net.cpp:148] Top shape: 24 128 7 7 (150528)
I0403 15:16:18.811640 31382 net.cpp:156] Memory required for data: 1305071136
I0403 15:16:18.811660 31382 layer_factory.hpp:77] Creating layer inception_5a/relu_pool_proj
I0403 15:16:18.811681 31382 net.cpp:91] Creating Layer inception_5a/relu_pool_proj
I0403 15:16:18.811698 31382 net.cpp:425] inception_5a/relu_pool_proj <- inception_5a/pool_proj
I0403 15:16:18.811718 31382 net.cpp:386] inception_5a/relu_pool_proj -> inception_5a/pool_proj (in-place)
I0403 15:16:18.812027 31382 net.cpp:141] Setting up inception_5a/relu_pool_proj
I0403 15:16:18.812057 31382 net.cpp:148] Top shape: 24 128 7 7 (150528)
I0403 15:16:18.812072 31382 net.cpp:156] Memory required for data: 1305673248
I0403 15:16:18.812088 31382 layer_factory.hpp:77] Creating layer inception_5a/output
I0403 15:16:18.812108 31382 net.cpp:91] Creating Layer inception_5a/output
I0403 15:16:18.812125 31382 net.cpp:425] inception_5a/output <- inception_5a/1x1
I0403 15:16:18.812142 31382 net.cpp:425] inception_5a/output <- inception_5a/3x3
I0403 15:16:18.812160 31382 net.cpp:425] inception_5a/output <- inception_5a/5x5
I0403 15:16:18.812177 31382 net.cpp:425] inception_5a/output <- inception_5a/pool_proj
I0403 15:16:18.812194 31382 net.cpp:399] inception_5a/output -> inception_5a/output
I0403 15:16:18.812247 31382 net.cpp:141] Setting up inception_5a/output
I0403 15:16:18.812278 31382 net.cpp:148] Top shape: 24 832 7 7 (978432)
I0403 15:16:18.812294 31382 net.cpp:156] Memory required for data: 1309586976
I0403 15:16:18.812309 31382 layer_factory.hpp:77] Creating layer inception_5a/output_inception_5a/output_0_split
I0403 15:16:18.812328 31382 net.cpp:91] Creating Layer inception_5a/output_inception_5a/output_0_split
I0403 15:16:18.812345 31382 net.cpp:425] inception_5a/output_inception_5a/output_0_split <- inception_5a/output
I0403 15:16:18.812366 31382 net.cpp:399] inception_5a/output_inception_5a/output_0_split -> inception_5a/output_inception_5a/output_0_split_0
I0403 15:16:18.812388 31382 net.cpp:399] inception_5a/output_inception_5a/output_0_split -> inception_5a/output_inception_5a/output_0_split_1
I0403 15:16:18.812410 31382 net.cpp:399] inception_5a/output_inception_5a/output_0_split -> inception_5a/output_inception_5a/output_0_split_2
I0403 15:16:18.812433 31382 net.cpp:399] inception_5a/output_inception_5a/output_0_split -> inception_5a/output_inception_5a/output_0_split_3
I0403 15:16:18.812551 31382 net.cpp:141] Setting up inception_5a/output_inception_5a/output_0_split
I0403 15:16:18.812578 31382 net.cpp:148] Top shape: 24 832 7 7 (978432)
I0403 15:16:18.812597 31382 net.cpp:148] Top shape: 24 832 7 7 (978432)
I0403 15:16:18.812613 31382 net.cpp:148] Top shape: 24 832 7 7 (978432)
I0403 15:16:18.812629 31382 net.cpp:148] Top shape: 24 832 7 7 (978432)
I0403 15:16:18.812644 31382 net.cpp:156] Memory required for data: 1325241888
I0403 15:16:18.812661 31382 layer_factory.hpp:77] Creating layer inception_5b/1x1
I0403 15:16:18.812685 31382 net.cpp:91] Creating Layer inception_5b/1x1
I0403 15:16:18.812703 31382 net.cpp:425] inception_5b/1x1 <- inception_5a/output_inception_5a/output_0_split_0
I0403 15:16:18.812728 31382 net.cpp:399] inception_5b/1x1 -> inception_5b/1x1
I0403 15:16:18.816640 31382 net.cpp:141] Setting up inception_5b/1x1
I0403 15:16:18.816671 31382 net.cpp:148] Top shape: 24 384 7 7 (451584)
I0403 15:16:18.816687 31382 net.cpp:156] Memory required for data: 1327048224
I0403 15:16:18.816707 31382 layer_factory.hpp:77] Creating layer inception_5b/relu_1x1
I0403 15:16:18.816733 31382 net.cpp:91] Creating Layer inception_5b/relu_1x1
I0403 15:16:18.816751 31382 net.cpp:425] inception_5b/relu_1x1 <- inception_5b/1x1
I0403 15:16:18.816771 31382 net.cpp:386] inception_5b/relu_1x1 -> inception_5b/1x1 (in-place)
I0403 15:16:18.817087 31382 net.cpp:141] Setting up inception_5b/relu_1x1
I0403 15:16:18.817116 31382 net.cpp:148] Top shape: 24 384 7 7 (451584)
I0403 15:16:18.817133 31382 net.cpp:156] Memory required for data: 1328854560
I0403 15:16:18.817150 31382 layer_factory.hpp:77] Creating layer inception_5b/3x3_reduce
I0403 15:16:18.817173 31382 net.cpp:91] Creating Layer inception_5b/3x3_reduce
I0403 15:16:18.817194 31382 net.cpp:425] inception_5b/3x3_reduce <- inception_5a/output_inception_5a/output_0_split_1
I0403 15:16:18.817219 31382 net.cpp:399] inception_5b/3x3_reduce -> inception_5b/3x3_reduce
I0403 15:16:18.819991 31382 net.cpp:141] Setting up inception_5b/3x3_reduce
I0403 15:16:18.820024 31382 net.cpp:148] Top shape: 24 192 7 7 (225792)
I0403 15:16:18.820040 31382 net.cpp:156] Memory required for data: 1329757728
I0403 15:16:18.820060 31382 layer_factory.hpp:77] Creating layer inception_5b/relu_3x3_reduce
I0403 15:16:18.820081 31382 net.cpp:91] Creating Layer inception_5b/relu_3x3_reduce
I0403 15:16:18.820101 31382 net.cpp:425] inception_5b/relu_3x3_reduce <- inception_5b/3x3_reduce
I0403 15:16:18.820119 31382 net.cpp:386] inception_5b/relu_3x3_reduce -> inception_5b/3x3_reduce (in-place)
I0403 15:16:18.820322 31382 net.cpp:141] Setting up inception_5b/relu_3x3_reduce
I0403 15:16:18.820349 31382 net.cpp:148] Top shape: 24 192 7 7 (225792)
I0403 15:16:18.820366 31382 net.cpp:156] Memory required for data: 1330660896
I0403 15:16:18.820382 31382 layer_factory.hpp:77] Creating layer inception_5b/3x3
I0403 15:16:18.820405 31382 net.cpp:91] Creating Layer inception_5b/3x3
I0403 15:16:18.820425 31382 net.cpp:425] inception_5b/3x3 <- inception_5b/3x3_reduce
I0403 15:16:18.820448 31382 net.cpp:399] inception_5b/3x3 -> inception_5b/3x3
I0403 15:16:18.827610 31382 net.cpp:141] Setting up inception_5b/3x3
I0403 15:16:18.827643 31382 net.cpp:148] Top shape: 24 384 7 7 (451584)
I0403 15:16:18.827661 31382 net.cpp:156] Memory required for data: 1332467232
I0403 15:16:18.827683 31382 layer_factory.hpp:77] Creating layer inception_5b/relu_3x3
I0403 15:16:18.827705 31382 net.cpp:91] Creating Layer inception_5b/relu_3x3
I0403 15:16:18.827723 31382 net.cpp:425] inception_5b/relu_3x3 <- inception_5b/3x3
I0403 15:16:18.827744 31382 net.cpp:386] inception_5b/relu_3x3 -> inception_5b/3x3 (in-place)
I0403 15:16:18.828063 31382 net.cpp:141] Setting up inception_5b/relu_3x3
I0403 15:16:18.828091 31382 net.cpp:148] Top shape: 24 384 7 7 (451584)
I0403 15:16:18.828109 31382 net.cpp:156] Memory required for data: 1334273568
I0403 15:16:18.828125 31382 layer_factory.hpp:77] Creating layer inception_5b/5x5_reduce
I0403 15:16:18.828169 31382 net.cpp:91] Creating Layer inception_5b/5x5_reduce
I0403 15:16:18.828196 31382 net.cpp:425] inception_5b/5x5_reduce <- inception_5a/output_inception_5a/output_0_split_2
I0403 15:16:18.828218 31382 net.cpp:399] inception_5b/5x5_reduce -> inception_5b/5x5_reduce
I0403 15:16:18.829648 31382 net.cpp:141] Setting up inception_5b/5x5_reduce
I0403 15:16:18.829681 31382 net.cpp:148] Top shape: 24 48 7 7 (56448)
I0403 15:16:18.829706 31382 net.cpp:156] Memory required for data: 1334499360
I0403 15:16:18.829727 31382 layer_factory.hpp:77] Creating layer inception_5b/relu_5x5_reduce
I0403 15:16:18.829747 31382 net.cpp:91] Creating Layer inception_5b/relu_5x5_reduce
I0403 15:16:18.829767 31382 net.cpp:425] inception_5b/relu_5x5_reduce <- inception_5b/5x5_reduce
I0403 15:16:18.829787 31382 net.cpp:386] inception_5b/relu_5x5_reduce -> inception_5b/5x5_reduce (in-place)
I0403 15:16:18.830188 31382 net.cpp:141] Setting up inception_5b/relu_5x5_reduce
I0403 15:16:18.830217 31382 net.cpp:148] Top shape: 24 48 7 7 (56448)
I0403 15:16:18.830236 31382 net.cpp:156] Memory required for data: 1334725152
I0403 15:16:18.830265 31382 layer_factory.hpp:77] Creating layer inception_5b/5x5
I0403 15:16:18.830296 31382 net.cpp:91] Creating Layer inception_5b/5x5
I0403 15:16:18.830315 31382 net.cpp:425] inception_5b/5x5 <- inception_5b/5x5_reduce
I0403 15:16:18.830337 31382 net.cpp:399] inception_5b/5x5 -> inception_5b/5x5
I0403 15:16:18.832547 31382 net.cpp:141] Setting up inception_5b/5x5
I0403 15:16:18.832583 31382 net.cpp:148] Top shape: 24 128 7 7 (150528)
I0403 15:16:18.832600 31382 net.cpp:156] Memory required for data: 1335327264
I0403 15:16:18.832622 31382 layer_factory.hpp:77] Creating layer inception_5b/relu_5x5
I0403 15:16:18.832644 31382 net.cpp:91] Creating Layer inception_5b/relu_5x5
I0403 15:16:18.832664 31382 net.cpp:425] inception_5b/relu_5x5 <- inception_5b/5x5
I0403 15:16:18.832689 31382 net.cpp:386] inception_5b/relu_5x5 -> inception_5b/5x5 (in-place)
I0403 15:16:18.832898 31382 net.cpp:141] Setting up inception_5b/relu_5x5
I0403 15:16:18.832926 31382 net.cpp:148] Top shape: 24 128 7 7 (150528)
I0403 15:16:18.832942 31382 net.cpp:156] Memory required for data: 1335929376
I0403 15:16:18.832958 31382 layer_factory.hpp:77] Creating layer inception_5b/pool
I0403 15:16:18.832978 31382 net.cpp:91] Creating Layer inception_5b/pool
I0403 15:16:18.832995 31382 net.cpp:425] inception_5b/pool <- inception_5a/output_inception_5a/output_0_split_3
I0403 15:16:18.833017 31382 net.cpp:399] inception_5b/pool -> inception_5b/pool
I0403 15:16:18.833096 31382 net.cpp:141] Setting up inception_5b/pool
I0403 15:16:18.833122 31382 net.cpp:148] Top shape: 24 832 7 7 (978432)
I0403 15:16:18.833138 31382 net.cpp:156] Memory required for data: 1339843104
I0403 15:16:18.833154 31382 layer_factory.hpp:77] Creating layer inception_5b/pool_proj
I0403 15:16:18.833183 31382 net.cpp:91] Creating Layer inception_5b/pool_proj
I0403 15:16:18.833202 31382 net.cpp:425] inception_5b/pool_proj <- inception_5b/pool
I0403 15:16:18.833222 31382 net.cpp:399] inception_5b/pool_proj -> inception_5b/pool_proj
I0403 15:16:18.835742 31382 net.cpp:141] Setting up inception_5b/pool_proj
I0403 15:16:18.835775 31382 net.cpp:148] Top shape: 24 128 7 7 (150528)
I0403 15:16:18.835794 31382 net.cpp:156] Memory required for data: 1340445216
I0403 15:16:18.835814 31382 layer_factory.hpp:77] Creating layer inception_5b/relu_pool_proj
I0403 15:16:18.835835 31382 net.cpp:91] Creating Layer inception_5b/relu_pool_proj
I0403 15:16:18.835852 31382 net.cpp:425] inception_5b/relu_pool_proj <- inception_5b/pool_proj
I0403 15:16:18.835870 31382 net.cpp:386] inception_5b/relu_pool_proj -> inception_5b/pool_proj (in-place)
I0403 15:16:18.836174 31382 net.cpp:141] Setting up inception_5b/relu_pool_proj
I0403 15:16:18.836205 31382 net.cpp:148] Top shape: 24 128 7 7 (150528)
I0403 15:16:18.836222 31382 net.cpp:156] Memory required for data: 1341047328
I0403 15:16:18.836238 31382 layer_factory.hpp:77] Creating layer inception_5b/output
I0403 15:16:18.836261 31382 net.cpp:91] Creating Layer inception_5b/output
I0403 15:16:18.836294 31382 net.cpp:425] inception_5b/output <- inception_5b/1x1
I0403 15:16:18.836313 31382 net.cpp:425] inception_5b/output <- inception_5b/3x3
I0403 15:16:18.836329 31382 net.cpp:425] inception_5b/output <- inception_5b/5x5
I0403 15:16:18.836347 31382 net.cpp:425] inception_5b/output <- inception_5b/pool_proj
I0403 15:16:18.836366 31382 net.cpp:399] inception_5b/output -> inception_5b/output
I0403 15:16:18.836424 31382 net.cpp:141] Setting up inception_5b/output
I0403 15:16:18.836450 31382 net.cpp:148] Top shape: 24 1024 7 7 (1204224)
I0403 15:16:18.836467 31382 net.cpp:156] Memory required for data: 1345864224
I0403 15:16:18.836482 31382 layer_factory.hpp:77] Creating layer pool5/7x7_s1
I0403 15:16:18.836503 31382 net.cpp:91] Creating Layer pool5/7x7_s1
I0403 15:16:18.836521 31382 net.cpp:425] pool5/7x7_s1 <- inception_5b/output
I0403 15:16:18.836541 31382 net.cpp:399] pool5/7x7_s1 -> pool5/7x7_s1
I0403 15:16:18.836767 31382 net.cpp:141] Setting up pool5/7x7_s1
I0403 15:16:18.836799 31382 net.cpp:148] Top shape: 24 1024 1 1 (24576)
I0403 15:16:18.836815 31382 net.cpp:156] Memory required for data: 1345962528
I0403 15:16:18.836832 31382 layer_factory.hpp:77] Creating layer pool5/drop_7x7_s1
I0403 15:16:18.836850 31382 net.cpp:91] Creating Layer pool5/drop_7x7_s1
I0403 15:16:18.836868 31382 net.cpp:425] pool5/drop_7x7_s1 <- pool5/7x7_s1
I0403 15:16:18.836889 31382 net.cpp:386] pool5/drop_7x7_s1 -> pool5/7x7_s1 (in-place)
I0403 15:16:18.836941 31382 net.cpp:141] Setting up pool5/drop_7x7_s1
I0403 15:16:18.836967 31382 net.cpp:148] Top shape: 24 1024 1 1 (24576)
I0403 15:16:18.836982 31382 net.cpp:156] Memory required for data: 1346060832
I0403 15:16:18.836997 31382 layer_factory.hpp:77] Creating layer loss3/classifier_plantvillage
I0403 15:16:18.837020 31382 net.cpp:91] Creating Layer loss3/classifier_plantvillage
I0403 15:16:18.837039 31382 net.cpp:425] loss3/classifier_plantvillage <- pool5/7x7_s1
I0403 15:16:18.837061 31382 net.cpp:399] loss3/classifier_plantvillage -> loss3/classifier_plantvillage
I0403 15:16:18.837512 31382 net.cpp:141] Setting up loss3/classifier_plantvillage
I0403 15:16:18.837538 31382 net.cpp:148] Top shape: 24 38 (912)
I0403 15:16:18.837553 31382 net.cpp:156] Memory required for data: 1346064480
I0403 15:16:18.837574 31382 layer_factory.hpp:77] Creating layer loss3/classifier_plantvillage_loss3/classifier_plantvillage_0_split
I0403 15:16:18.837594 31382 net.cpp:91] Creating Layer loss3/classifier_plantvillage_loss3/classifier_plantvillage_0_split
I0403 15:16:18.837611 31382 net.cpp:425] loss3/classifier_plantvillage_loss3/classifier_plantvillage_0_split <- loss3/classifier_plantvillage
I0403 15:16:18.837633 31382 net.cpp:399] loss3/classifier_plantvillage_loss3/classifier_plantvillage_0_split -> loss3/classifier_plantvillage_loss3/classifier_plantvillage_0_split_0
I0403 15:16:18.837656 31382 net.cpp:399] loss3/classifier_plantvillage_loss3/classifier_plantvillage_0_split -> loss3/classifier_plantvillage_loss3/classifier_plantvillage_0_split_1
I0403 15:16:18.837678 31382 net.cpp:399] loss3/classifier_plantvillage_loss3/classifier_plantvillage_0_split -> loss3/classifier_plantvillage_loss3/classifier_plantvillage_0_split_2
I0403 15:16:18.837702 31382 net.cpp:399] loss3/classifier_plantvillage_loss3/classifier_plantvillage_0_split -> loss3/classifier_plantvillage_loss3/classifier_plantvillage_0_split_3
I0403 15:16:18.837810 31382 net.cpp:141] Setting up loss3/classifier_plantvillage_loss3/classifier_plantvillage_0_split
I0403 15:16:18.837836 31382 net.cpp:148] Top shape: 24 38 (912)
I0403 15:16:18.837852 31382 net.cpp:148] Top shape: 24 38 (912)
I0403 15:16:18.837869 31382 net.cpp:148] Top shape: 24 38 (912)
I0403 15:16:18.837885 31382 net.cpp:148] Top shape: 24 38 (912)
I0403 15:16:18.837899 31382 net.cpp:156] Memory required for data: 1346079072
I0403 15:16:18.837914 31382 layer_factory.hpp:77] Creating layer loss1/loss
I0403 15:16:18.837936 31382 net.cpp:91] Creating Layer loss1/loss
I0403 15:16:18.837955 31382 net.cpp:425] loss1/loss <- loss1/classifier_plantvillage_loss1/classifier_plantvillage_0_split_0
I0403 15:16:18.837987 31382 net.cpp:425] loss1/loss <- label_data_1_split_0
…
