…
I0403 15:35:01.228384 32367 net.cpp:313] The NetState phase (1) differed from the phase (0) specified by a rule in layer data
I0403 15:35:01.229518 32367 net.cpp:49] Initializing net from parameters: 
state {
  phase: TEST
}
layer {
  name: "data"
  type: "Data"
  top: "data"
  top: "label"
  include {
    phase: TEST
  }
  transform_param {
    mirror: false
    crop_size: 224
    mean_file: "/home/mohanty/data/final_dataset/lmdb/color-60-40/mean.binaryproto"
  }
  data_param {
    source: "/home/mohanty/data/final_dataset/lmdb/color-60-40/test_db"
    batch_size: 24
    backend: LMDB
  }
}
layer {
  name: "conv1/7x7_s2"
  type: "Convolution"
  bottom: "data"
  top: "conv1/7x7_s2"
  param {
    lr_mult: 1
    decay_mult: 1
  }
  param {
    lr_mult: 2
    decay_mult: 0
  }
  convolution_param {
    num_output: 64
    pad: 3
    kernel_size: 7
    stride: 2
    weight_filler {
      type: "xavier"
      std: 0.1
    }
    bias_filler {
      type: "constant"
      value: 0.2
    }
  }
}
layer {
  name: "conv1/relu_7x7"
  type: "ReLU"
  bottom: "conv1/7x7_s2"
  top: "conv1/7x7_s2"
}
layer {
  name: "pool1/3x3_s2"
  type: "Pooling"
  bottom: "conv1/7x7_s2"
  top: "pool1/3x3_s2"
  pooling_param {
    pool: MAX
    kernel_size: 3
    stride: 2
  }
}
layer {
  name: "pool1/norm1"
  type: "LRN"
  bottom: "pool1/3x3_s2"
  top: "pool1/norm1"
  lrn_param {
    local_size: 5
    alpha: 0.0001
    beta: 0.75
  }
}
layer {
  name: "conv2/3x3_reduce"
  type: "Convolution"
  bottom: "pool1/norm1"
  top: "conv2/3x3_reduce"
  param {
    lr_mult: 1
    decay_mult: 1
  }
  param {
    lr_mult: 2
    decay_mult: 0
  }
  convolution_param {
    num_output: 64
    kernel_size: 1
    weight_filler {
      type: "xavier"
      std: 0.1
    }
    bias_filler {
      type: "constant"
      value: 0.2
    }
  }
}
layer {
  name: "conv2/relu_3x3_reduce"
  type: "ReLU"
  bottom: "conv2/3x3_reduce"
  top: "conv2/3x3_reduce"
}
layer {
  name: "conv2/3x3"
  type: "Convolution"
  bottom: "conv2/3x3_reduce"
  top: "conv2/3x3"
  param {
    lr_mult: 1
    decay_mult: 1
  }
  param {
    lr_mult: 2
    decay_mult: 0
  }
  convolution_param {
    num_output: 192
    pad: 1
    kernel_size: 3
    weight_filler {
      type: "xavier"
      std: 0.03
    }
    bias_filler {
      type: "constant"
      value: 0.2
    }
  }
}
layer {
  name: "conv2/relu_3x3"
  type: "ReLU"
  bottom: "conv2/3x3"
  top: "conv2/3x3"
}
layer {
  name: "conv2/norm2"
  type: "LRN"
  bottom: "conv2/3x3"
  top: "conv2/norm2"
  lrn_param {
    local_size: 5
    alpha: 0.0001
    beta: 0.75
  }
}
layer {
  name: "pool2/3x3_s2"
  type: "Pooling"
  bottom: "conv2/norm2"
  top: "pool2/3x3_s2"
  pooling_param {
    pool: MAX
    kernel_size: 3
    stride: 2
  }
}
layer {
  name: "inception_3a/1x1"
  type: "Convolution"
  bottom: "pool2/3x3_s2"
  top: "inception_3a/1x1"
  param {
    lr_mult: 1
    decay_mult: 1
  }
  param {
    lr_mult: 2
    decay_mult: 0
  }
  convolution_param {
    num_output: 64
    kernel_size: 1
    weight_filler {
      type: "xavier"
      std: 0.03
    }
    bias_filler {
      type: "constant"
      value: 0.2
    }
  }
}
layer {
  name: "inception_3a/relu_1x1"
  type: "ReLU"
  bottom: "inception_3a/1x1"
  top: "inception_3a/1x1"
}
layer {
  name: "inception_3a/3x3_reduce"
  type: "Convolution"
  bottom: "pool2/3x3_s2"
  top: "inception_3a/3x3_reduce"
  param {
    lr_mult: 1
    decay_mult: 1
  }
  param {
    lr_mult: 2
    decay_mult: 0
  }
  convolution_param {
    num_output: 96
    kernel_size: 1
    weight_filler {
      type: "xavier"
      std: 0.09
    }
    bias_filler {
      type: "constant"
      value: 0.2
    }
  }
}
layer {
  name: "inception_3a/relu_3x3_reduce"
  type: "ReLU"
  bottom: "inception_3a/3x3_reduce"
  top: "inception_3a/3x3_reduce"
}
layer {
  name: "inception_3a/3x3"
  type: "Convolution"
  bottom: "inception_3a/3x3_reduce"
  top: "inception_3a/3x3"
  param {
    lr_mult: 1
    decay_mult: 1
  }
  param {
    lr_mult: 2
    decay_mult: 0
  }
  convolution_param {
    num_output: 128
    pad: 1
    kernel_size: 3
    weight_filler {
      type: "xavier"
      std: 0.03
    }
    bias_filler {
      type: "constant"
      value: 0.2
    }
  }
}
layer {
  name: "inception_3a/relu_3x3"
  type: "ReLU"
  bottom: "inception_3a/3x3"
  top: "inception_3a/3x3"
}
layer {
  name: "inception_3a/5x5_reduce"
  type: "Convolution"
  bottom: "pool2/3x3_s2"
  top: "inception_3a/5x5_reduce"
  param {
    lr_mult: 1
    decay_mult: 1
  }
  param {
    lr_mult: 2
    decay_mult: 0
  }
  convolution_param {
    num_output: 16
    kernel_size: 1
    weight_filler {
      type: "xavier"
      std: 0.2
    }
    bias_filler {
      type: "constant"
      value: 0.2
    }
  }
}
layer {
  name: "inception_3a/relu_5x5_reduce"
  type: "ReLU"
  bottom: "inception_3a/5x5_reduce"
  top: "inception_3a/5x5_reduce"
}
layer {
  name: "inception_3a/5x5"
  type: "Convolution"
  bottom: "inception_3a/5x5_reduce"
  top: "inception_3a/5x5"
  param {
    lr_mult: 1
    decay_mult: 1
  }
  param {
    lr_mult: 2
    decay_mult: 0
  }
  convolution_param {
    num_output: 32
    pad: 2
    kernel_size: 5
    weight_filler {
      type: "xavier"
      std: 0.03
    }
    bias_filler {
      type: "constant"
      value: 0.2
    }
  }
}
layer {
  name: "inception_3a/relu_5x5"
  type: "ReLU"
  bottom: "inception_3a/5x5"
  top: "inception_3a/5x5"
}
layer {
  name: "inception_3a/pool"
  type: "Pooling"
  bottom: "pool2/3x3_s2"
  top: "inception_3a/pool"
  pooling_param {
    pool: MAX
    kernel_size: 3
    stride: 1
    pad: 1
  }
}
layer {
  name: "inception_3a/pool_proj"
  type: "Convolution"
  bottom: "inception_3a/pool"
  top: "inception_3a/pool_proj"
  param {
    lr_mult: 1
    decay_mult: 1
  }
  param {
    lr_mult: 2
    decay_mult: 0
  }
  convolution_param {
    num_output: 32
    kernel_size: 1
    weight_filler {
      type: "xavier"
      std: 0.1
    }
    bias_filler {
      type: "constant"
      value: 0.2
    }
  }
}
layer {
  name: "inception_3a/relu_pool_proj"
  type: "ReLU"
  bottom: "inception_3a/pool_proj"
  top: "inception_3a/pool_proj"
}
layer {
  name: "inception_3a/output"
  type: "Concat"
  bottom: "inception_3a/1x1"
  bottom: "inception_3a/3x3"
  bottom: "inception_3a/5x5"
  bottom: "inception_3a/pool_proj"
  top: "inception_3a/output"
}
layer {
  name: "inception_3b/1x1"
  type: "Convolution"
  bottom: "inception_3a/output"
  top: "inception_3b/1x1"
  param {
    lr_mult: 1
    decay_mult: 1
  }
  param {
    lr_mult: 2
    decay_mult: 0
  }
  convolution_param {
    num_output: 128
    kernel_size: 1
    weight_filler {
      type: "xavier"
      std: 0.03
    }
    bias_filler {
      type: "constant"
      value: 0.2
    }
  }
}
layer {
  name: "inception_3b/relu_1x1"
  type: "ReLU"
  bottom: "inception_3b/1x1"
  top: "inception_3b/1x1"
}
layer {
  name: "inception_3b/3x3_reduce"
  type: "Convolution"
  bottom: "inception_3a/output"
  top: "inception_3b/3x3_reduce"
  param {
    lr_mult: 1
    decay_mult: 1
  }
  param {
    lr_mult: 2
    decay_mult: 0
  }
  convolution_param {
    num_output: 128
    kernel_size: 1
    weight_filler {
      type: "xavier"
      std: 0.09
    }
    bias_filler {
      type: "constant"
      value: 0.2
    }
  }
}
layer {
  name: "inception_3b/relu_3x3_reduce"
  type: "ReLU"
  bottom: "inception_3b/3x3_reduce"
  top: "inception_3b/3x3_reduce"
}
layer {
  name: "inception_3b/3x3"
  type: "Convolution"
  bottom: "inception_3b/3x3_reduce"
  top: "inception_3b/3x3"
  param {
    lr_mult: 1
    decay_mult: 1
  }
  param {
    lr_mult: 2
    decay_mult: 0
  }
  convolution_param {
    num_output: 192
    pad: 1
    kernel_size: 3
    weight_filler {
      type: "xavier"
      std: 0.03
    }
    bias_filler {
      type: "constant"
      value: 0.2
    }
  }
}
layer {
  name: "inception_3b/relu_3x3"
  type: "ReLU"
  bottom: "inception_3b/3x3"
  top: "inception_3b/3x3"
}
layer {
  name: "inception_3b/5x5_reduce"
  type: "Convolution"
  bottom: "inception_3a/output"
  top: "inception_3b/5x5_reduce"
  param {
    lr_mult: 1
    decay_mult: 1
  }
  param {
    lr_mult: 2
    decay_mult: 0
  }
  convolution_param {
    num_output: 32
    kernel_size: 1
    weight_filler {
      type: "xavier"
      std: 0.2
    }
    bias_filler {
      type: "constant"
      value: 0.2
    }
  }
}
layer {
  name: "inception_3b/relu_5x5_reduce"
  type: "ReLU"
  bottom: "inception_3b/5x5_reduce"
  top: "inception_3b/5x5_reduce"
}
layer {
  name: "inception_3b/5x5"
  type: "Convolution"
  bottom: "inception_3b/5x5_reduce"
  top: "inception_3b/5x5"
  param {
    lr_mult: 1
    decay_mult: 1
  }
  param {
    lr_mult: 2
    decay_mult: 0
  }
  convolution_param {
    num_output: 96
    pad: 2
    kernel_size: 5
    weight_filler {
      type: "xavier"
      std: 0.03
    }
    bias_filler {
      type: "constant"
      value: 0.2
    }
  }
}
layer {
  name: "inception_3b/relu_5x5"
  type: "ReLU"
  bottom: "inception_3b/5x5"
  top: "inception_3b/5x5"
}
layer {
  name: "inception_3b/pool"
  type: "Pooling"
  bottom: "inception_3a/output"
  top: "inception_3b/pool"
  pooling_param {
    pool: MAX
    kernel_size: 3
    stride: 1
    pad: 1
  }
}
layer {
  name: "inception_3b/pool_proj"
  type: "Convolution"
  bottom: "inception_3b/pool"
  top: "inception_3b/pool_proj"
  param {
    lr_mult: 1
    decay_mult: 1
  }
  param {
    lr_mult: 2
    decay_mult: 0
  }
  convolution_param {
    num_output: 64
    kernel_size: 1
    weight_filler {
      type: "xavier"
      std: 0.1
    }
    bias_filler {
      type: "constant"
      value: 0.2
    }
  }
}
layer {
  name: "inception_3b/relu_pool_proj"
  type: "ReLU"
  bottom: "inception_3b/pool_proj"
  top: "inception_3b/pool_proj"
}
layer {
  name: "inception_3b/output"
  type: "Concat"
  bottom: "inception_3b/1x1"
  bottom: "inception_3b/3x3"
  bottom: "inception_3b/5x5"
  bottom: "inception_3b/pool_proj"
  top: "inception_3b/output"
}
layer {
  name: "pool3/3x3_s2"
  type: "Pooling"
  bottom: "inception_3b/output"
  top: "pool3/3x3_s2"
  pooling_param {
    pool: MAX
    kernel_size: 3
    stride: 2
  }
}
layer {
  name: "inception_4a/1x1"
  type: "Convolution"
  bottom: "pool3/3x3_s2"
  top: "inception_4a/1x1"
  param {
    lr_mult: 1
    decay_mult: 1
  }
  param {
    lr_mult: 2
    decay_mult: 0
  }
  convolution_param {
    num_output: 192
    kernel_size: 1
    weight_filler {
      type: "xavier"
      std: 0.03
    }
    bias_filler {
      type: "constant"
      value: 0.2
    }
  }
}
layer {
  name: "inception_4a/relu_1x1"
  type: "ReLU"
  bottom: "inception_4a/1x1"
  top: "inception_4a/1x1"
}
layer {
  name: "inception_4a/3x3_reduce"
  type: "Convolution"
  bottom: "pool3/3x3_s2"
  top: "inception_4a/3x3_reduce"
  param {
    lr_mult: 1
    decay_mult: 1
  }
  param {
    lr_mult: 2
    decay_mult: 0
  }
  convolution_param {
    num_output: 96
    kernel_size: 1
    weight_filler {
      type: "xavier"
      std: 0.09
    }
    bias_filler {
      type: "constant"
      value: 0.2
    }
  }
}
layer {
  name: "inception_4a/relu_3x3_reduce"
  type: "ReLU"
  bottom: "inception_4a/3x3_reduce"
  top: "inception_4a/3x3_reduce"
}
layer {
  name: "inception_4a/3x3"
  type: "Convolution"
  bottom: "inception_4a/3x3_reduce"
  top: "inception_4a/3x3"
  param {
    lr_mult: 1
    decay_mult: 1
  }
  param {
    lr_mult: 2
    decay_mult: 0
  }
  convolution_param {
    num_output: 208
    pad: 1
    kernel_size: 3
    weight_filler {
      type: "xavier"
      std: 0.03
    }
    bias_filler {
      type: "constant"
      value: 0.2
    }
  }
}
layer {
  name: "inception_4a/relu_3x3"
  type: "ReLU"
  bottom: "inception_4a/3x3"
  top: "inception_4a/3x3"
}
layer {
  name: "inception_4a/5x5_reduce"
  type: "Convolution"
  bottom: "pool3/3x3_s2"
  top: "inception_4a/5x5_reduce"
  param {
    lr_mult: 1
    decay_mult: 1
  }
  param {
    lr_mult: 2
    decay_mult: 0
  }
  convolution_param {
    num_output: 16
    kernel_size: 1
    weight_filler {
      type: "xavier"
      std: 0.2
    }
    bias_filler {
      type: "constant"
      value: 0.2
    }
  }
}
layer {
  name: "inception_4a/relu_5x5_reduce"
  type: "ReLU"
  bottom: "inception_4a/5x5_reduce"
  top: "inception_4a/5x5_reduce"
}
layer {
  name: "inception_4a/5x5"
  type: "Convolution"
  bottom: "inception_4a/5x5_reduce"
  top: "inception_4a/5x5"
  param {
    lr_mult: 1
    decay_mult: 1
  }
  param {
    lr_mult: 2
    decay_mult: 0
  }
  convolution_param {
    num_output: 48
    pad: 2
    kernel_size: 5
    weight_filler {
      type: "xavier"
      std: 0.03
    }
    bias_filler {
      type: "constant"
      value: 0.2
    }
  }
}
layer {
  name: "inception_4a/relu_5x5"
  type: "ReLU"
  bottom: "inception_4a/5x5"
  top: "inception_4a/5x5"
}
layer {
  name: "inception_4a/pool"
  type: "Pooling"
  bottom: "pool3/3x3_s2"
  top: "inception_4a/pool"
  pooling_param {
    pool: MAX
    kernel_size: 3
    stride: 1
    pad: 1
  }
}
layer {
  name: "inception_4a/pool_proj"
  type: "Convolution"
  bottom: "inception_4a/pool"
  top: "inception_4a/pool_proj"
  param {
    lr_mult: 1
    decay_mult: 1
  }
  param {
    lr_mult: 2
    decay_mult: 0
  }
  convolution_param {
    num_output: 64
    kernel_size: 1
    weight_filler {
      type: "xavier"
      std: 0.1
    }
    bias_filler {
      type: "constant"
      value: 0.2
    }
  }
}
layer {
  name: "inception_4a/relu_pool_proj"
  type: "ReLU"
  bottom: "inception_4a/pool_proj"
  top: "inception_4a/pool_proj"
}
layer {
  name: "inception_4a/output"
  type: "Concat"
  bottom: "inception_4a/1x1"
  bottom: "inception_4a/3x3"
  bottom: "inception_4a/5x5"
  bottom: "inception_4a/pool_proj"
  top: "inception_4a/output"
}
layer {
  name: "loss1/ave_pool"
  type: "Pooling"
  bottom: "inception_4a/output"
  top: "loss1/ave_pool"
  pooling_param {
    pool: AVE
    kernel_size: 5
    stride: 3
  }
}
layer {
  name: "loss1/conv"
  type: "Convolution"
  bottom: "loss1/ave_pool"
  top: "loss1/conv"
  param {
    lr_mult: 1
    decay_mult: 1
  }
  param {
    lr_mult: 2
    decay_mult: 0
  }
  convolution_param {
    num_output: 128
    kernel_size: 1
    weight_filler {
      type: "xavier"
      std: 0.08
    }
    bias_filler {
      type: "constant"
      value: 0.2
    }
  }
}
layer {
  name: "loss1/relu_conv"
  type: "ReLU"
  bottom: "loss1/conv"
  top: "loss1/conv"
}
layer {
  name: "loss1/fc"
  type: "InnerProduct"
  bottom: "loss1/conv"
  top: "loss1/fc"
  param {
    lr_mult: 1
    decay_mult: 1
  }
  param {
    lr_mult: 2
    decay_mult: 0
  }
  inner_product_param {
    num_output: 1024
    weight_filler {
      type: "xavier"
      std: 0.02
    }
    bias_filler {
      type: "constant"
      value: 0.2
    }
  }
}
layer {
  name: "loss1/relu_fc"
  type: "ReLU"
  bottom: "loss1/fc"
  top: "loss1/fc"
}
layer {
  name: "loss1/drop_fc"
  type: "Dropout"
  bottom: "loss1/fc"
  top: "loss1/fc"
  dropout_param {
    dropout_ratio: 0.7
  }
}
layer {
  name: "loss1/classifier_plantvillage"
  type: "InnerProduct"
  bottom: "loss1/fc"
  top: "loss1/classifier_plantvillage"
  param {
    lr_mult: 1
    decay_mult: 1
  }
  param {
    lr_mult: 2
    decay_mult: 0
  }
  inner_product_param {
    num_output: 38
    weight_filler {
      type: "xavier"
      std: 0.0009765625
    }
    bias_filler {
      type: "constant"
      value: 0
    }
  }
}
layer {
  name: "inception_4b/1x1"
  type: "Convolution"
  bottom: "inception_4a/output"
  top: "inception_4b/1x1"
  param {
    lr_mult: 1
    decay_mult: 1
  }
  param {
    lr_mult: 2
    decay_mult: 0
  }
  convolution_param {
    num_output: 160
    kernel_size: 1
    weight_filler {
      type: "xavier"
      std: 0.03
    }
    bias_filler {
      type: "constant"
      value: 0.2
    }
  }
}
layer {
  name: "inception_4b/relu_1x1"
  type: "ReLU"
  bottom: "inception_4b/1x1"
  top: "inception_4b/1x1"
}
layer {
  name: "inception_4b/3x3_reduce"
  type: "Convolution"
  bottom: "inception_4a/output"
  top: "inception_4b/3x3_reduce"
  param {
    lr_mult: 1
    decay_mult: 1
  }
  param {
    lr_mult: 2
    decay_mult: 0
  }
  convolution_param {
    num_output: 112
    kernel_size: 1
    weight_filler {
      type: "xavier"
      std: 0.09
    }
    bias_filler {
      type: "constant"
      value: 0.2
    }
  }
}
layer {
  name: "inception_4b/relu_3x3_reduce"
  type: "ReLU"
  bottom: "inception_4b/3x3_reduce"
  top: "inception_4b/3x3_reduce"
}
layer {
  name: "inception_4b/3x3"
  type: "Convolution"
  bottom: "inception_4b/3x3_reduce"
  top: "inception_4b/3x3"
  param {
    lr_mult: 1
    decay_mult: 1
  }
  param {
    lr_mult: 2
    decay_mult: 0
  }
  convolution_param {
    num_output: 224
    pad: 1
    kernel_size: 3
    weight_filler {
      type: "xavier"
      std: 0.03
    }
    bias_filler {
      type: "constant"
      value: 0.2
    }
  }
}
layer {
  name: "inception_4b/relu_3x3"
  type: "ReLU"
  bottom: "inception_4b/3x3"
  top: "inception_4b/3x3"
}
layer {
  name: "inception_4b/5x5_reduce"
  type: "Convolution"
  bottom: "inception_4a/output"
  top: "inception_4b/5x5_reduce"
  param {
    lr_mult: 1
    decay_mult: 1
  }
  param {
    lr_mult: 2
    decay_mult: 0
  }
  convolution_param {
    num_output: 24
    kernel_size: 1
    weight_filler {
      type: "xavier"
      std: 0.2
    }
    bias_filler {
      type: "constant"
      value: 0.2
    }
  }
}
layer {
  name: "inception_4b/relu_5x5_reduce"
  type: "ReLU"
  bottom: "inception_4b/5x5_reduce"
  top: "inception_4b/5x5_reduce"
}
layer {
  name: "inception_4b/5x5"
  type: "Convolution"
  bottom: "inception_4b/5x5_reduce"
  top: "inception_4b/5x5"
  param {
    lr_mult: 1
    decay_mult: 1
  }
  param {
    lr_mult: 2
    decay_mult: 0
  }
  convolution_param {
    num_output: 64
    pad: 2
    kernel_size: 5
    weight_filler {
      type: "xavier"
      std: 0.03
    }
    bias_filler {
      type: "constant"
      value: 0.2
    }
  }
}
layer {
  name: "inception_4b/relu_5x5"
  type: "ReLU"
  bottom: "inception_4b/5x5"
  top: "inception_4b/5x5"
}
layer {
  name: "inception_4b/pool"
  type: "Pooling"
  bottom: "inception_4a/output"
  top: "inception_4b/pool"
  pooling_param {
    pool: MAX
    kernel_size: 3
    stride: 1
    pad: 1
  }
}
layer {
  name: "inception_4b/pool_proj"
  type: "Convolution"
  bottom: "inception_4b/pool"
  top: "inception_4b/pool_proj"
  param {
    lr_mult: 1
    decay_mult: 1
  }
  param {
    lr_mult: 2
    decay_mult: 0
  }
  convolution_param {
    num_output: 64
    kernel_size: 1
    weight_filler {
      type: "xavier"
      std: 0.1
    }
    bias_filler {
      type: "constant"
      value: 0.2
    }
  }
}
layer {
  name: "inception_4b/relu_pool_proj"
  type: "ReLU"
  bottom: "inception_4b/pool_proj"
  top: "inception_4b/pool_proj"
}
layer {
  name: "inception_4b/output"
  type: "Concat"
  bottom: "inception_4b/1x1"
  bottom: "inception_4b/3x3"
  bottom: "inception_4b/5x5"
  bottom: "inception_4b/pool_proj"
  top: "inception_4b/output"
}
layer {
  name: "inception_4c/1x1"
  type: "Convolution"
  bottom: "inception_4b/output"
  top: "inception_4c/1x1"
  param {
    lr_mult: 1
    decay_mult: 1
  }
  param {
    lr_mult: 2
    decay_mult: 0
  }
  convolution_param {
    num_output: 128
    kernel_size: 1
    weight_filler {
      type: "xavier"
      std: 0.03
    }
    bias_filler {
      type: "constant"
      value: 0.2
    }
  }
}
layer {
  name: "inception_4c/relu_1x1"
  type: "ReLU"
  bottom: "inception_4c/1x1"
  top: "inception_4c/1x1"
}
layer {
  name: "inception_4c/3x3_reduce"
  type: "Convolution"
  bottom: "inception_4b/output"
  top: "inception_4c/3x3_reduce"
  param {
    lr_mult: 1
    decay_mult: 1
  }
  param {
    lr_mult: 2
    decay_mult: 0
  }
  convolution_param {
    num_output: 128
    kernel_size: 1
    weight_filler {
      type: "xavier"
      std: 0.09
    }
    bias_filler {
      type: "constant"
      value: 0.2
    }
  }
}
layer {
  name: "inception_4c/relu_3x3_reduce"
  type: "ReLU"
  bottom: "inception_4c/3x3_reduce"
  top: "inception_4c/3x3_reduce"
}
layer {
  name: "inception_4c/3x3"
  type: "Convolution"
  bottom: "inception_4c/3x3_reduce"
  top: "inception_4c/3x3"
  param {
    lr_mult: 1
    decay_mult: 1
  }
  param {
    lr_mult: 2
    decay_mult: 0
  }
  convolution_param {
    num_output: 256
    pad: 1
    kernel_size: 3
    weight_filler {
      type: "xavier"
      std: 0.03
    }
    bias_filler {
      type: "constant"
      value: 0.2
    }
  }
}
layer {
  name: "inception_4c/relu_3x3"
  type: "ReLU"
  bottom: "inception_4c/3x3"
  top: "inception_4c/3x3"
}
layer {
  name: "inception_4c/5x5_reduce"
  type: "Convolution"
  bottom: "inception_4b/output"
  top: "inception_4c/5x5_reduce"
  param {
    lr_mult: 1
    decay_mult: 1
  }
  param {
    lr_mult: 2
    decay_mult: 0
  }
  convolution_param {
    num_output: 24
    kernel_size: 1
    weight_filler {
      type: "xavier"
      std: 0.2
    }
    bias_filler {
      type: "constant"
      value: 0.2
    }
  }
}
layer {
  name: "inception_4c/relu_5x5_reduce"
  type: "ReLU"
  bottom: "inception_4c/5x5_reduce"
  top: "inception_4c/5x5_reduce"
}
layer {
  name: "inception_4c/5x5"
  type: "Convolution"
  bottom: "inception_4c/5x5_reduce"
  top: "inception_4c/5x5"
  param {
    lr_mult: 1
    decay_mult: 1
  }
  param {
    lr_mult: 2
    decay_mult: 0
  }
  convolution_param {
    num_output: 64
    pad: 2
    kernel_size: 5
    weight_filler {
      type: "xavier"
      std: 0.03
    }
    bias_filler {
      type: "constant"
      value: 0.2
    }
  }
}
layer {
  name: "inception_4c/relu_5x5"
  type: "ReLU"
  bottom: "inception_4c/5x5"
  top: "inception_4c/5x5"
}
layer {
  name: "inception_4c/pool"
  type: "Pooling"
  bottom: "inception_4b/output"
  top: "inception_4c/pool"
  pooling_param {
    pool: MAX
    kernel_size: 3
    stride: 1
    pad: 1
  }
}
layer {
  name: "inception_4c/pool_proj"
  type: "Convolution"
  bottom: "inception_4c/pool"
  top: "inception_4c/pool_proj"
  param {
    lr_mult: 1
    decay_mult: 1
  }
  param {
    lr_mult: 2
    decay_mult: 0
  }
  convolution_param {
    num_output: 64
    kernel_size: 1
    weight_filler {
      type: "xavier"
      std: 0.1
    }
    bias_filler {
      type: "constant"
      value: 0.2
    }
  }
}
layer {
  name: "inception_4c/relu_pool_proj"
  type: "ReLU"
  bottom: "inception_4c/pool_proj"
  top: "inception_4c/pool_proj"
}
layer {
  name: "inception_4c/output"
  type: "Concat"
  bottom: "inception_4c/1x1"
  bottom: "inception_4c/3x3"
  bottom: "inception_4c/5x5"
  bottom: "inception_4c/pool_proj"
  top: "inception_4c/output"
}
layer {
  name: "inception_4d/1x1"
  type: "Convolution"
  bottom: "inception_4c/output"
  top: "inception_4d/1x1"
  param {
    lr_mult: 1
    decay_mult: 1
  }
  param {
    lr_mult: 2
    decay_mult: 0
  }
  convolution_param {
    num_output: 112
    kernel_size: 1
    weight_filler {
      type: "xavier"
      std: 0.03
    }
    bias_filler {
      type: "constant"
      value: 0.2
    }
  }
}
layer {
  name: "inception_4d/relu_1x1"
  type: "ReLU"
  bottom: "inception_4d/1x1"
  top: "inception_4d/1x1"
}
layer {
  name: "inception_4d/3x3_reduce"
  type: "Convolution"
  bottom: "inception_4c/output"
  top: "inception_4d/3x3_reduce"
  param {
    lr_mult: 1
    decay_mult: 1
  }
  param {
    lr_mult: 2
    decay_mult: 0
  }
  convolution_param {
    num_output: 144
    kernel_size: 1
    weight_filler {
      type: "xavier"
      std: 0.09
    }
    bias_filler {
      type: "constant"
      value: 0.2
    }
  }
}
layer {
  name: "inception_4d/relu_3x3_reduce"
  type: "ReLU"
  bottom: "inception_4d/3x3_reduce"
  top: "inception_4d/3x3_reduce"
}
layer {
  name: "inception_4d/3x3"
  type: "Convolution"
  bottom: "inception_4d/3x3_reduce"
  top: "inception_4d/3x3"
  param {
    lr_mult: 1
    decay_mult: 1
  }
  param {
    lr_mult: 2
    decay_mult: 0
  }
  convolution_param {
    num_output: 288
    pad: 1
    kernel_size: 3
    weight_filler {
      type: "xavier"
      std: 0.03
    }
    bias_filler {
      type: "constant"
      value: 0.2
    }
  }
}
layer {
  name: "inception_4d/relu_3x3"
  type: "ReLU"
  bottom: "inception_4d/3x3"
  top: "inception_4d/3x3"
}
layer {
  name: "inception_4d/5x5_reduce"
  type: "Convolution"
  bottom: "inception_4c/output"
  top: "inception_4d/5x5_reduce"
  param {
    lr_mult: 1
    decay_mult: 1
  }
  param {
    lr_mult: 2
    decay_mult: 0
  }
  convolution_param {
    num_output: 32
    kernel_size: 1
    weight_filler {
      type: "xavier"
      std: 0.2
    }
    bias_filler {
      type: "constant"
      value: 0.2
    }
  }
}
layer {
  name: "inception_4d/relu_5x5_reduce"
  type: "ReLU"
  bottom: "inception_4d/5x5_reduce"
  top: "inception_4d/5x5_reduce"
}
layer {
  name: "inception_4d/5x5"
  type: "Convolution"
  bottom: "inception_4d/5x5_reduce"
  top: "inception_4d/5x5"
  param {
    lr_mult: 1
    decay_mult: 1
  }
  param {
    lr_mult: 2
    decay_mult: 0
  }
  convolution_param {
    num_output: 64
    pad: 2
    kernel_size: 5
    weight_filler {
      type: "xavier"
      std: 0.03
    }
    bias_filler {
      type: "constant"
      value: 0.2
    }
  }
}
layer {
  name: "inception_4d/relu_5x5"
  type: "ReLU"
  bottom: "inception_4d/5x5"
  top: "inception_4d/5x5"
}
layer {
  name: "inception_4d/pool"
  type: "Pooling"
  bottom: "inception_4c/output"
  top: "inception_4d/pool"
  pooling_param {
    pool: MAX
    kernel_size: 3
    stride: 1
    pad: 1
  }
}
layer {
  name: "inception_4d/pool_proj"
  type: "Convolution"
  bottom: "inception_4d/pool"
  top: "inception_4d/pool_proj"
  param {
    lr_mult: 1
    decay_mult: 1
  }
  param {
    lr_mult: 2
    decay_mult: 0
  }
  convolution_param {
    num_output: 64
    kernel_size: 1
    weight_filler {
      type: "xavier"
      std: 0.1
    }
    bias_filler {
      type: "constant"
      value: 0.2
    }
  }
}
layer {
  name: "inception_4d/relu_pool_proj"
  type: "ReLU"
  bottom: "inception_4d/pool_proj"
  top: "inception_4d/pool_proj"
}
layer {
  name: "inception_4d/output"
  type: "Concat"
  bottom: "inception_4d/1x1"
  bottom: "inception_4d/3x3"
  bottom: "inception_4d/5x5"
  bottom: "inception_4d/pool_proj"
  top: "inception_4d/output"
}
layer {
  name: "loss2/ave_pool"
  type: "Pooling"
  bottom: "inception_4d/output"
  top: "loss2/ave_pool"
  pooling_param {
    pool: AVE
    kernel_size: 5
    stride: 3
  }
}
layer {
  name: "loss2/conv"
  type: "Convolution"
  bottom: "loss2/ave_pool"
  top: "loss2/conv"
  param {
    lr_mult: 1
    decay_mult: 1
  }
  param {
    lr_mult: 2
    decay_mult: 0
  }
  convolution_param {
    num_output: 128
    kernel_size: 1
    weight_filler {
      type: "xavier"
      std: 0.08
    }
    bias_filler {
      type: "constant"
      value: 0.2
    }
  }
}
layer {
  name: "loss2/relu_conv"
  type: "ReLU"
  bottom: "loss2/conv"
  top: "loss2/conv"
}
layer {
  name: "loss2/fc"
  type: "InnerProduct"
  bottom: "loss2/conv"
  top: "loss2/fc"
  param {
    lr_mult: 1
    decay_mult: 1
  }
  param {
    lr_mult: 2
    decay_mult: 0
  }
  inner_product_param {
    num_output: 1024
    weight_filler {
      type: "xavier"
      std: 0.02
    }
    bias_filler {
      type: "constant"
      value: 0.2
    }
  }
}
layer {
  name: "loss2/relu_fc"
  type: "ReLU"
  bottom: "loss2/fc"
  top: "loss2/fc"
}
layer {
  name: "loss2/drop_fc"
  type: "Dropout"
  bottom: "loss2/fc"
  top: "loss2/fc"
  dropout_param {
    dropout_ratio: 0.7
  }
}
layer {
  name: "loss2/classifier_plantvillage"
  type: "InnerProduct"
  bottom: "loss2/fc"
  top: "loss2/classifier_plantvillage"
  param {
    lr_mult: 1
    decay_mult: 1
  }
  param {
    lr_mult: 2
    decay_mult: 0
  }
  inner_product_param {
    num_output: 38
    weight_filler {
      type: "xavier"
      std: 0.0009765625
    }
    bias_filler {
      type: "constant"
      value: 0
    }
  }
}
layer {
  name: "inception_4e/1x1"
  type: "Convolution"
  bottom: "inception_4d/output"
  top: "inception_4e/1x1"
  param {
    lr_mult: 1
    decay_mult: 1
  }
  param {
    lr_mult: 2
    decay_mult: 0
  }
  convolution_param {
    num_output: 256
    kernel_size: 1
    weight_filler {
      type: "xavier"
      std: 0.03
    }
    bias_filler {
      type: "constant"
      value: 0.2
    }
  }
}
layer {
  name: "inception_4e/relu_1x1"
  type: "ReLU"
  bottom: "inception_4e/1x1"
  top: "inception_4e/1x1"
}
layer {
  name: "inception_4e/3x3_reduce"
  type: "Convolution"
  bottom: "inception_4d/output"
  top: "inception_4e/3x3_reduce"
  param {
    lr_mult: 1
    decay_mult: 1
  }
  param {
    lr_mult: 2
    decay_mult: 0
  }
  convolution_param {
    num_output: 160
    kernel_size: 1
    weight_filler {
      type: "xavier"
      std: 0.09
    }
    bias_filler {
      type: "constant"
      value: 0.2
    }
  }
}
layer {
  name: "inception_4e/relu_3x3_reduce"
  type: "ReLU"
  bottom: "inception_4e/3x3_reduce"
  top: "inception_4e/3x3_reduce"
}
layer {
  name: "inception_4e/3x3"
  type: "Convolution"
  bottom: "inception_4e/3x3_reduce"
  top: "inception_4e/3x3"
  param {
    lr_mult: 1
    decay_mult: 1
  }
  param {
    lr_mult: 2
    decay_mult: 0
  }
  convolution_param {
    num_output: 320
    pad: 1
    kernel_size: 3
    weight_filler {
      type: "xavier"
      std: 0.03
    }
    bias_filler {
      type: "constant"
      value: 0.2
    }
  }
}
layer {
  name: "inception_4e/relu_3x3"
  type: "ReLU"
  bottom: "inception_4e/3x3"
  top: "inception_4e/3x3"
}
layer {
  name: "inception_4e/5x5_reduce"
  type: "Convolution"
  bottom: "inception_4d/output"
  top: "inception_4e/5x5_reduce"
  param {
    lr_mult: 1
    decay_mult: 1
  }
  param {
    lr_mult: 2
    decay_mult: 0
  }
  convolution_param {
    num_output: 32
    kernel_size: 1
    weight_filler {
      type: "xavier"
      std: 0.2
    }
    bias_filler {
      type: "constant"
      value: 0.2
    }
  }
}
layer {
  name: "inception_4e/relu_5x5_reduce"
  type: "ReLU"
  bottom: "inception_4e/5x5_reduce"
  top: "inception_4e/5x5_reduce"
}
layer {
  name: "inception_4e/5x5"
  type: "Convolution"
  bottom: "inception_4e/5x5_reduce"
  top: "inception_4e/5x5"
  p
I0403 15:35:01.230787 32367 layer_factory.hpp:77] Creating layer data
I0403 15:35:01.231395 32367 net.cpp:91] Creating Layer data
I0403 15:35:01.231426 32367 net.cpp:399] data -> data
I0403 15:35:01.231478 32367 net.cpp:399] data -> label
I0403 15:35:01.231519 32367 data_transformer.cpp:25] Loading mean file from: /home/mohanty/data/final_dataset/lmdb/color-60-40/mean.binaryproto
I0403 15:35:01.234247 32373 db_lmdb.cpp:38] Opened lmdb /home/mohanty/data/final_dataset/lmdb/color-60-40/test_db
I0403 15:35:01.245095 32367 data_layer.cpp:41] output data size: 24,3,224,224
I0403 15:35:01.275538 32367 net.cpp:141] Setting up data
I0403 15:35:01.275612 32367 net.cpp:148] Top shape: 24 3 224 224 (3612672)
I0403 15:35:01.275636 32367 net.cpp:148] Top shape: 24 (24)
I0403 15:35:01.275652 32367 net.cpp:156] Memory required for data: 14450784
I0403 15:35:01.275681 32367 layer_factory.hpp:77] Creating layer label_data_1_split
I0403 15:35:01.275710 32367 net.cpp:91] Creating Layer label_data_1_split
I0403 15:35:01.275729 32367 net.cpp:425] label_data_1_split <- label
I0403 15:35:01.275764 32367 net.cpp:399] label_data_1_split -> label_data_1_split_0
I0403 15:35:01.275794 32367 net.cpp:399] label_data_1_split -> label_data_1_split_1
I0403 15:35:01.275817 32367 net.cpp:399] label_data_1_split -> label_data_1_split_2
I0403 15:35:01.275840 32367 net.cpp:399] label_data_1_split -> label_data_1_split_3
I0403 15:35:01.275861 32367 net.cpp:399] label_data_1_split -> label_data_1_split_4
I0403 15:35:01.275882 32367 net.cpp:399] label_data_1_split -> label_data_1_split_5
I0403 15:35:01.275902 32367 net.cpp:399] label_data_1_split -> label_data_1_split_6
I0403 15:35:01.275923 32367 net.cpp:399] label_data_1_split -> label_data_1_split_7
I0403 15:35:01.275943 32367 net.cpp:399] label_data_1_split -> label_data_1_split_8
I0403 15:35:01.275964 32367 net.cpp:399] label_data_1_split -> label_data_1_split_9
I0403 15:35:01.276080 32367 net.cpp:141] Setting up label_data_1_split
I0403 15:35:01.276106 32367 net.cpp:148] Top shape: 24 (24)
I0403 15:35:01.276124 32367 net.cpp:148] Top shape: 24 (24)
I0403 15:35:01.276141 32367 net.cpp:148] Top shape: 24 (24)
I0403 15:35:01.276157 32367 net.cpp:148] Top shape: 24 (24)
I0403 15:35:01.276173 32367 net.cpp:148] Top shape: 24 (24)
I0403 15:35:01.276190 32367 net.cpp:148] Top shape: 24 (24)
I0403 15:35:01.276206 32367 net.cpp:148] Top shape: 24 (24)
I0403 15:35:01.276222 32367 net.cpp:148] Top shape: 24 (24)
I0403 15:35:01.276239 32367 net.cpp:148] Top shape: 24 (24)
I0403 15:35:01.276262 32367 net.cpp:148] Top shape: 24 (24)
I0403 15:35:01.276309 32367 net.cpp:156] Memory required for data: 14451744
I0403 15:35:01.276325 32367 layer_factory.hpp:77] Creating layer conv1/7x7_s2
I0403 15:35:01.276358 32367 net.cpp:91] Creating Layer conv1/7x7_s2
I0403 15:35:01.276381 32367 net.cpp:425] conv1/7x7_s2 <- data
I0403 15:35:01.276401 32367 net.cpp:399] conv1/7x7_s2 -> conv1/7x7_s2
I0403 15:35:01.422683 32367 net.cpp:141] Setting up conv1/7x7_s2
I0403 15:35:01.422750 32367 net.cpp:148] Top shape: 24 64 112 112 (19267584)
I0403 15:35:01.422770 32367 net.cpp:156] Memory required for data: 91522080
I0403 15:35:01.422803 32367 layer_factory.hpp:77] Creating layer conv1/relu_7x7
I0403 15:35:01.422844 32367 net.cpp:91] Creating Layer conv1/relu_7x7
I0403 15:35:01.422866 32367 net.cpp:425] conv1/relu_7x7 <- conv1/7x7_s2
I0403 15:35:01.422888 32367 net.cpp:386] conv1/relu_7x7 -> conv1/7x7_s2 (in-place)
I0403 15:35:01.423187 32367 net.cpp:141] Setting up conv1/relu_7x7
I0403 15:35:01.423215 32367 net.cpp:148] Top shape: 24 64 112 112 (19267584)
I0403 15:35:01.423231 32367 net.cpp:156] Memory required for data: 168592416
I0403 15:35:01.423248 32367 layer_factory.hpp:77] Creating layer pool1/3x3_s2
I0403 15:35:01.423280 32367 net.cpp:91] Creating Layer pool1/3x3_s2
I0403 15:35:01.423300 32367 net.cpp:425] pool1/3x3_s2 <- conv1/7x7_s2
I0403 15:35:01.423319 32367 net.cpp:399] pool1/3x3_s2 -> pool1/3x3_s2
I0403 15:35:01.423403 32367 net.cpp:141] Setting up pool1/3x3_s2
I0403 15:35:01.423429 32367 net.cpp:148] Top shape: 24 64 56 56 (4816896)
I0403 15:35:01.423444 32367 net.cpp:156] Memory required for data: 187860000
I0403 15:35:01.423460 32367 layer_factory.hpp:77] Creating layer pool1/norm1
I0403 15:35:01.423486 32367 net.cpp:91] Creating Layer pool1/norm1
I0403 15:35:01.423504 32367 net.cpp:425] pool1/norm1 <- pool1/3x3_s2
I0403 15:35:01.423524 32367 net.cpp:399] pool1/norm1 -> pool1/norm1
I0403 15:35:01.423836 32367 net.cpp:141] Setting up pool1/norm1
I0403 15:35:01.423866 32367 net.cpp:148] Top shape: 24 64 56 56 (4816896)
I0403 15:35:01.423882 32367 net.cpp:156] Memory required for data: 207127584
I0403 15:35:01.423897 32367 layer_factory.hpp:77] Creating layer conv2/3x3_reduce
I0403 15:35:01.423924 32367 net.cpp:91] Creating Layer conv2/3x3_reduce
I0403 15:35:01.423943 32367 net.cpp:425] conv2/3x3_reduce <- pool1/norm1
I0403 15:35:01.423964 32367 net.cpp:399] conv2/3x3_reduce -> conv2/3x3_reduce
I0403 15:35:01.425345 32367 net.cpp:141] Setting up conv2/3x3_reduce
I0403 15:35:01.425379 32367 net.cpp:148] Top shape: 24 64 56 56 (4816896)
I0403 15:35:01.425396 32367 net.cpp:156] Memory required for data: 226395168
I0403 15:35:01.425420 32367 layer_factory.hpp:77] Creating layer conv2/relu_3x3_reduce
I0403 15:35:01.425439 32367 net.cpp:91] Creating Layer conv2/relu_3x3_reduce
I0403 15:35:01.425457 32367 net.cpp:425] conv2/relu_3x3_reduce <- conv2/3x3_reduce
I0403 15:35:01.425477 32367 net.cpp:386] conv2/relu_3x3_reduce -> conv2/3x3_reduce (in-place)
I0403 15:35:01.425750 32367 net.cpp:141] Setting up conv2/relu_3x3_reduce
I0403 15:35:01.425781 32367 net.cpp:148] Top shape: 24 64 56 56 (4816896)
I0403 15:35:01.425797 32367 net.cpp:156] Memory required for data: 245662752
I0403 15:35:01.425827 32367 layer_factory.hpp:77] Creating layer conv2/3x3
I0403 15:35:01.425850 32367 net.cpp:91] Creating Layer conv2/3x3
I0403 15:35:01.425868 32367 net.cpp:425] conv2/3x3 <- conv2/3x3_reduce
I0403 15:35:01.425894 32367 net.cpp:399] conv2/3x3 -> conv2/3x3
I0403 15:35:01.428200 32367 net.cpp:141] Setting up conv2/3x3
I0403 15:35:01.428233 32367 net.cpp:148] Top shape: 24 192 56 56 (14450688)
I0403 15:35:01.428254 32367 net.cpp:156] Memory required for data: 303465504
I0403 15:35:01.428278 32367 layer_factory.hpp:77] Creating layer conv2/relu_3x3
I0403 15:35:01.428298 32367 net.cpp:91] Creating Layer conv2/relu_3x3
I0403 15:35:01.428315 32367 net.cpp:425] conv2/relu_3x3 <- conv2/3x3
I0403 15:35:01.428335 32367 net.cpp:386] conv2/relu_3x3 -> conv2/3x3 (in-place)
I0403 15:35:01.428511 32367 net.cpp:141] Setting up conv2/relu_3x3
I0403 15:35:01.428536 32367 net.cpp:148] Top shape: 24 192 56 56 (14450688)
I0403 15:35:01.428583 32367 net.cpp:156] Memory required for data: 361268256
I0403 15:35:01.428599 32367 layer_factory.hpp:77] Creating layer conv2/norm2
I0403 15:35:01.428622 32367 net.cpp:91] Creating Layer conv2/norm2
I0403 15:35:01.428638 32367 net.cpp:425] conv2/norm2 <- conv2/3x3
I0403 15:35:01.428658 32367 net.cpp:399] conv2/norm2 -> conv2/norm2
I0403 15:35:01.428973 32367 net.cpp:141] Setting up conv2/norm2
I0403 15:35:01.429000 32367 net.cpp:148] Top shape: 24 192 56 56 (14450688)
I0403 15:35:01.429016 32367 net.cpp:156] Memory required for data: 419071008
I0403 15:35:01.429031 32367 layer_factory.hpp:77] Creating layer pool2/3x3_s2
I0403 15:35:01.429052 32367 net.cpp:91] Creating Layer pool2/3x3_s2
I0403 15:35:01.429069 32367 net.cpp:425] pool2/3x3_s2 <- conv2/norm2
I0403 15:35:01.429090 32367 net.cpp:399] pool2/3x3_s2 -> pool2/3x3_s2
I0403 15:35:01.429141 32367 net.cpp:141] Setting up pool2/3x3_s2
I0403 15:35:01.429165 32367 net.cpp:148] Top shape: 24 192 28 28 (3612672)
I0403 15:35:01.429180 32367 net.cpp:156] Memory required for data: 433521696
I0403 15:35:01.429195 32367 layer_factory.hpp:77] Creating layer pool2/3x3_s2_pool2/3x3_s2_0_split
I0403 15:35:01.429215 32367 net.cpp:91] Creating Layer pool2/3x3_s2_pool2/3x3_s2_0_split
I0403 15:35:01.429232 32367 net.cpp:425] pool2/3x3_s2_pool2/3x3_s2_0_split <- pool2/3x3_s2
I0403 15:35:01.429250 32367 net.cpp:399] pool2/3x3_s2_pool2/3x3_s2_0_split -> pool2/3x3_s2_pool2/3x3_s2_0_split_0
I0403 15:35:01.429275 32367 net.cpp:399] pool2/3x3_s2_pool2/3x3_s2_0_split -> pool2/3x3_s2_pool2/3x3_s2_0_split_1
I0403 15:35:01.429296 32367 net.cpp:399] pool2/3x3_s2_pool2/3x3_s2_0_split -> pool2/3x3_s2_pool2/3x3_s2_0_split_2
I0403 15:35:01.429316 32367 net.cpp:399] pool2/3x3_s2_pool2/3x3_s2_0_split -> pool2/3x3_s2_pool2/3x3_s2_0_split_3
I0403 15:35:01.429388 32367 net.cpp:141] Setting up pool2/3x3_s2_pool2/3x3_s2_0_split
I0403 15:35:01.429411 32367 net.cpp:148] Top shape: 24 192 28 28 (3612672)
I0403 15:35:01.429428 32367 net.cpp:148] Top shape: 24 192 28 28 (3612672)
I0403 15:35:01.429443 32367 net.cpp:148] Top shape: 24 192 28 28 (3612672)
I0403 15:35:01.429460 32367 net.cpp:148] Top shape: 24 192 28 28 (3612672)
I0403 15:35:01.429474 32367 net.cpp:156] Memory required for data: 491324448
I0403 15:35:01.429489 32367 layer_factory.hpp:77] Creating layer inception_3a/1x1
I0403 15:35:01.429512 32367 net.cpp:91] Creating Layer inception_3a/1x1
I0403 15:35:01.429530 32367 net.cpp:425] inception_3a/1x1 <- pool2/3x3_s2_pool2/3x3_s2_0_split_0
I0403 15:35:01.429551 32367 net.cpp:399] inception_3a/1x1 -> inception_3a/1x1
I0403 15:35:01.431083 32367 net.cpp:141] Setting up inception_3a/1x1
I0403 15:35:01.431116 32367 net.cpp:148] Top shape: 24 64 28 28 (1204224)
I0403 15:35:01.431134 32367 net.cpp:156] Memory required for data: 496141344
I0403 15:35:01.431154 32367 layer_factory.hpp:77] Creating layer inception_3a/relu_1x1
I0403 15:35:01.431172 32367 net.cpp:91] Creating Layer inception_3a/relu_1x1
I0403 15:35:01.431187 32367 net.cpp:425] inception_3a/relu_1x1 <- inception_3a/1x1
I0403 15:35:01.431206 32367 net.cpp:386] inception_3a/relu_1x1 -> inception_3a/1x1 (in-place)
I0403 15:35:01.431386 32367 net.cpp:141] Setting up inception_3a/relu_1x1
I0403 15:35:01.431412 32367 net.cpp:148] Top shape: 24 64 28 28 (1204224)
I0403 15:35:01.431427 32367 net.cpp:156] Memory required for data: 500958240
I0403 15:35:01.431443 32367 layer_factory.hpp:77] Creating layer inception_3a/3x3_reduce
I0403 15:35:01.431466 32367 net.cpp:91] Creating Layer inception_3a/3x3_reduce
I0403 15:35:01.431484 32367 net.cpp:425] inception_3a/3x3_reduce <- pool2/3x3_s2_pool2/3x3_s2_0_split_1
I0403 15:35:01.431505 32367 net.cpp:399] inception_3a/3x3_reduce -> inception_3a/3x3_reduce
I0403 15:35:01.433202 32367 net.cpp:141] Setting up inception_3a/3x3_reduce
I0403 15:35:01.433234 32367 net.cpp:148] Top shape: 24 96 28 28 (1806336)
I0403 15:35:01.433255 32367 net.cpp:156] Memory required for data: 508183584
I0403 15:35:01.433279 32367 layer_factory.hpp:77] Creating layer inception_3a/relu_3x3_reduce
I0403 15:35:01.433317 32367 net.cpp:91] Creating Layer inception_3a/relu_3x3_reduce
I0403 15:35:01.433336 32367 net.cpp:425] inception_3a/relu_3x3_reduce <- inception_3a/3x3_reduce
I0403 15:35:01.433354 32367 net.cpp:386] inception_3a/relu_3x3_reduce -> inception_3a/3x3_reduce (in-place)
I0403 15:35:01.433540 32367 net.cpp:141] Setting up inception_3a/relu_3x3_reduce
I0403 15:35:01.433567 32367 net.cpp:148] Top shape: 24 96 28 28 (1806336)
I0403 15:35:01.433581 32367 net.cpp:156] Memory required for data: 515408928
I0403 15:35:01.433596 32367 layer_factory.hpp:77] Creating layer inception_3a/3x3
I0403 15:35:01.433620 32367 net.cpp:91] Creating Layer inception_3a/3x3
I0403 15:35:01.433639 32367 net.cpp:425] inception_3a/3x3 <- inception_3a/3x3_reduce
I0403 15:35:01.433657 32367 net.cpp:399] inception_3a/3x3 -> inception_3a/3x3
I0403 15:35:01.435313 32367 net.cpp:141] Setting up inception_3a/3x3
I0403 15:35:01.435343 32367 net.cpp:148] Top shape: 24 128 28 28 (2408448)
I0403 15:35:01.435359 32367 net.cpp:156] Memory required for data: 525042720
I0403 15:35:01.435376 32367 layer_factory.hpp:77] Creating layer inception_3a/relu_3x3
I0403 15:35:01.435395 32367 net.cpp:91] Creating Layer inception_3a/relu_3x3
I0403 15:35:01.435412 32367 net.cpp:425] inception_3a/relu_3x3 <- inception_3a/3x3
I0403 15:35:01.435432 32367 net.cpp:386] inception_3a/relu_3x3 -> inception_3a/3x3 (in-place)
I0403 15:35:01.435729 32367 net.cpp:141] Setting up inception_3a/relu_3x3
I0403 15:35:01.435757 32367 net.cpp:148] Top shape: 24 128 28 28 (2408448)
I0403 15:35:01.435773 32367 net.cpp:156] Memory required for data: 534676512
I0403 15:35:01.435789 32367 layer_factory.hpp:77] Creating layer inception_3a/5x5_reduce
I0403 15:35:01.435825 32367 net.cpp:91] Creating Layer inception_3a/5x5_reduce
I0403 15:35:01.435843 32367 net.cpp:425] inception_3a/5x5_reduce <- pool2/3x3_s2_pool2/3x3_s2_0_split_2
I0403 15:35:01.435865 32367 net.cpp:399] inception_3a/5x5_reduce -> inception_3a/5x5_reduce
I0403 15:35:01.436830 32367 net.cpp:141] Setting up inception_3a/5x5_reduce
I0403 15:35:01.436859 32367 net.cpp:148] Top shape: 24 16 28 28 (301056)
I0403 15:35:01.436875 32367 net.cpp:156] Memory required for data: 535880736
I0403 15:35:01.436894 32367 layer_factory.hpp:77] Creating layer inception_3a/relu_5x5_reduce
I0403 15:35:01.436913 32367 net.cpp:91] Creating Layer inception_3a/relu_5x5_reduce
I0403 15:35:01.436929 32367 net.cpp:425] inception_3a/relu_5x5_reduce <- inception_3a/5x5_reduce
I0403 15:35:01.436950 32367 net.cpp:386] inception_3a/relu_5x5_reduce -> inception_3a/5x5_reduce (in-place)
I0403 15:35:01.437237 32367 net.cpp:141] Setting up inception_3a/relu_5x5_reduce
I0403 15:35:01.437266 32367 net.cpp:148] Top shape: 24 16 28 28 (301056)
I0403 15:35:01.437283 32367 net.cpp:156] Memory required for data: 537084960
I0403 15:35:01.437299 32367 layer_factory.hpp:77] Creating layer inception_3a/5x5
I0403 15:35:01.437321 32367 net.cpp:91] Creating Layer inception_3a/5x5
I0403 15:35:01.437340 32367 net.cpp:425] inception_3a/5x5 <- inception_3a/5x5_reduce
I0403 15:35:01.437361 32367 net.cpp:399] inception_3a/5x5 -> inception_3a/5x5
I0403 15:35:01.438400 32367 net.cpp:141] Setting up inception_3a/5x5
I0403 15:35:01.438428 32367 net.cpp:148] Top shape: 24 32 28 28 (602112)
I0403 15:35:01.438443 32367 net.cpp:156] Memory required for data: 539493408
I0403 15:35:01.438463 32367 layer_factory.hpp:77] Creating layer inception_3a/relu_5x5
I0403 15:35:01.438482 32367 net.cpp:91] Creating Layer inception_3a/relu_5x5
I0403 15:35:01.438498 32367 net.cpp:425] inception_3a/relu_5x5 <- inception_3a/5x5
I0403 15:35:01.438519 32367 net.cpp:386] inception_3a/relu_5x5 -> inception_3a/5x5 (in-place)
I0403 15:35:01.438695 32367 net.cpp:141] Setting up inception_3a/relu_5x5
I0403 15:35:01.438720 32367 net.cpp:148] Top shape: 24 32 28 28 (602112)
I0403 15:35:01.438736 32367 net.cpp:156] Memory required for data: 541901856
I0403 15:35:01.438751 32367 layer_factory.hpp:77] Creating layer inception_3a/pool
I0403 15:35:01.438772 32367 net.cpp:91] Creating Layer inception_3a/pool
I0403 15:35:01.438789 32367 net.cpp:425] inception_3a/pool <- pool2/3x3_s2_pool2/3x3_s2_0_split_3
I0403 15:35:01.438824 32367 net.cpp:399] inception_3a/pool -> inception_3a/pool
I0403 15:35:01.438884 32367 net.cpp:141] Setting up inception_3a/pool
I0403 15:35:01.438908 32367 net.cpp:148] Top shape: 24 192 28 28 (3612672)
I0403 15:35:01.438923 32367 net.cpp:156] Memory required for data: 556352544
I0403 15:35:01.438940 32367 layer_factory.hpp:77] Creating layer inception_3a/pool_proj
I0403 15:35:01.438961 32367 net.cpp:91] Creating Layer inception_3a/pool_proj
I0403 15:35:01.438978 32367 net.cpp:425] inception_3a/pool_proj <- inception_3a/pool
I0403 15:35:01.438999 32367 net.cpp:399] inception_3a/pool_proj -> inception_3a/pool_proj
I0403 15:35:01.439957 32367 net.cpp:141] Setting up inception_3a/pool_proj
I0403 15:35:01.439986 32367 net.cpp:148] Top shape: 24 32 28 28 (602112)
I0403 15:35:01.440006 32367 net.cpp:156] Memory required for data: 558760992
I0403 15:35:01.440028 32367 layer_factory.hpp:77] Creating layer inception_3a/relu_pool_proj
I0403 15:35:01.440048 32367 net.cpp:91] Creating Layer inception_3a/relu_pool_proj
I0403 15:35:01.440065 32367 net.cpp:425] inception_3a/relu_pool_proj <- inception_3a/pool_proj
I0403 15:35:01.440085 32367 net.cpp:386] inception_3a/relu_pool_proj -> inception_3a/pool_proj (in-place)
I0403 15:35:01.440362 32367 net.cpp:141] Setting up inception_3a/relu_pool_proj
I0403 15:35:01.440390 32367 net.cpp:148] Top shape: 24 32 28 28 (602112)
I0403 15:35:01.440405 32367 net.cpp:156] Memory required for data: 561169440
I0403 15:35:01.440420 32367 layer_factory.hpp:77] Creating layer inception_3a/output
I0403 15:35:01.440438 32367 net.cpp:91] Creating Layer inception_3a/output
I0403 15:35:01.440454 32367 net.cpp:425] inception_3a/output <- inception_3a/1x1
I0403 15:35:01.440471 32367 net.cpp:425] inception_3a/output <- inception_3a/3x3
I0403 15:35:01.440488 32367 net.cpp:425] inception_3a/output <- inception_3a/5x5
I0403 15:35:01.440505 32367 net.cpp:425] inception_3a/output <- inception_3a/pool_proj
I0403 15:35:01.440524 32367 net.cpp:399] inception_3a/output -> inception_3a/output
I0403 15:35:01.440570 32367 net.cpp:141] Setting up inception_3a/output
I0403 15:35:01.440598 32367 net.cpp:148] Top shape: 24 256 28 28 (4816896)
I0403 15:35:01.440613 32367 net.cpp:156] Memory required for data: 580437024
I0403 15:35:01.440629 32367 layer_factory.hpp:77] Creating layer inception_3a/output_inception_3a/output_0_split
I0403 15:35:01.440645 32367 net.cpp:91] Creating Layer inception_3a/output_inception_3a/output_0_split
I0403 15:35:01.440660 32367 net.cpp:425] inception_3a/output_inception_3a/output_0_split <- inception_3a/output
I0403 15:35:01.440678 32367 net.cpp:399] inception_3a/output_inception_3a/output_0_split -> inception_3a/output_inception_3a/output_0_split_0
I0403 15:35:01.440698 32367 net.cpp:399] inception_3a/output_inception_3a/output_0_split -> inception_3a/output_inception_3a/output_0_split_1
I0403 15:35:01.440722 32367 net.cpp:399] inception_3a/output_inception_3a/output_0_split -> inception_3a/output_inception_3a/output_0_split_2
I0403 15:35:01.440745 32367 net.cpp:399] inception_3a/output_inception_3a/output_0_split -> inception_3a/output_inception_3a/output_0_split_3
I0403 15:35:01.440820 32367 net.cpp:141] Setting up inception_3a/output_inception_3a/output_0_split
I0403 15:35:01.440846 32367 net.cpp:148] Top shape: 24 256 28 28 (4816896)
I0403 15:35:01.440865 32367 net.cpp:148] Top shape: 24 256 28 28 (4816896)
I0403 15:35:01.440881 32367 net.cpp:148] Top shape: 24 256 28 28 (4816896)
I0403 15:35:01.440896 32367 net.cpp:148] Top shape: 24 256 28 28 (4816896)
I0403 15:35:01.440912 32367 net.cpp:156] Memory required for data: 657507360
I0403 15:35:01.440927 32367 layer_factory.hpp:77] Creating layer inception_3b/1x1
I0403 15:35:01.440949 32367 net.cpp:91] Creating Layer inception_3b/1x1
I0403 15:35:01.440968 32367 net.cpp:425] inception_3b/1x1 <- inception_3a/output_inception_3a/output_0_split_0
I0403 15:35:01.440986 32367 net.cpp:399] inception_3b/1x1 -> inception_3b/1x1
I0403 15:35:01.442116 32367 net.cpp:141] Setting up inception_3b/1x1
I0403 15:35:01.442157 32367 net.cpp:148] Top shape: 24 128 28 28 (2408448)
I0403 15:35:01.442176 32367 net.cpp:156] Memory required for data: 667141152
I0403 15:35:01.442196 32367 layer_factory.hpp:77] Creating layer inception_3b/relu_1x1
I0403 15:35:01.442215 32367 net.cpp:91] Creating Layer inception_3b/relu_1x1
I0403 15:35:01.442231 32367 net.cpp:425] inception_3b/relu_1x1 <- inception_3b/1x1
I0403 15:35:01.442258 32367 net.cpp:386] inception_3b/relu_1x1 -> inception_3b/1x1 (in-place)
I0403 15:35:01.442438 32367 net.cpp:141] Setting up inception_3b/relu_1x1
I0403 15:35:01.442463 32367 net.cpp:148] Top shape: 24 128 28 28 (2408448)
I0403 15:35:01.442479 32367 net.cpp:156] Memory required for data: 676774944
I0403 15:35:01.442494 32367 layer_factory.hpp:77] Creating layer inception_3b/3x3_reduce
I0403 15:35:01.442529 32367 net.cpp:91] Creating Layer inception_3b/3x3_reduce
I0403 15:35:01.442548 32367 net.cpp:425] inception_3b/3x3_reduce <- inception_3a/output_inception_3a/output_0_split_1
I0403 15:35:01.442570 32367 net.cpp:399] inception_3b/3x3_reduce -> inception_3b/3x3_reduce
I0403 15:35:01.443722 32367 net.cpp:141] Setting up inception_3b/3x3_reduce
I0403 15:35:01.443755 32367 net.cpp:148] Top shape: 24 128 28 28 (2408448)
I0403 15:35:01.443773 32367 net.cpp:156] Memory required for data: 686408736
I0403 15:35:01.443791 32367 layer_factory.hpp:77] Creating layer inception_3b/relu_3x3_reduce
I0403 15:35:01.443809 32367 net.cpp:91] Creating Layer inception_3b/relu_3x3_reduce
I0403 15:35:01.443825 32367 net.cpp:425] inception_3b/relu_3x3_reduce <- inception_3b/3x3_reduce
I0403 15:35:01.443842 32367 net.cpp:386] inception_3b/relu_3x3_reduce -> inception_3b/3x3_reduce (in-place)
I0403 15:35:01.444020 32367 net.cpp:141] Setting up inception_3b/relu_3x3_reduce
I0403 15:35:01.444044 32367 net.cpp:148] Top shape: 24 128 28 28 (2408448)
I0403 15:35:01.444059 32367 net.cpp:156] Memory required for data: 696042528
I0403 15:35:01.444074 32367 layer_factory.hpp:77] Creating layer inception_3b/3x3
I0403 15:35:01.444099 32367 net.cpp:91] Creating Layer inception_3b/3x3
I0403 15:35:01.444118 32367 net.cpp:425] inception_3b/3x3 <- inception_3b/3x3_reduce
I0403 15:35:01.444139 32367 net.cpp:399] inception_3b/3x3 -> inception_3b/3x3
I0403 15:35:01.447053 32367 net.cpp:141] Setting up inception_3b/3x3
I0403 15:35:01.447083 32367 net.cpp:148] Top shape: 24 192 28 28 (3612672)
I0403 15:35:01.447099 32367 net.cpp:156] Memory required for data: 710493216
I0403 15:35:01.447118 32367 layer_factory.hpp:77] Creating layer inception_3b/relu_3x3
I0403 15:35:01.447136 32367 net.cpp:91] Creating Layer inception_3b/relu_3x3
I0403 15:35:01.447154 32367 net.cpp:425] inception_3b/relu_3x3 <- inception_3b/3x3
I0403 15:35:01.447173 32367 net.cpp:386] inception_3b/relu_3x3 -> inception_3b/3x3 (in-place)
I0403 15:35:01.447453 32367 net.cpp:141] Setting up inception_3b/relu_3x3
I0403 15:35:01.447480 32367 net.cpp:148] Top shape: 24 192 28 28 (3612672)
I0403 15:35:01.447496 32367 net.cpp:156] Memory required for data: 724943904
I0403 15:35:01.447523 32367 layer_factory.hpp:77] Creating layer inception_3b/5x5_reduce
I0403 15:35:01.447549 32367 net.cpp:91] Creating Layer inception_3b/5x5_reduce
I0403 15:35:01.447567 32367 net.cpp:425] inception_3b/5x5_reduce <- inception_3a/output_inception_3a/output_0_split_2
I0403 15:35:01.447592 32367 net.cpp:399] inception_3b/5x5_reduce -> inception_3b/5x5_reduce
I0403 15:35:01.448599 32367 net.cpp:141] Setting up inception_3b/5x5_reduce
I0403 15:35:01.448632 32367 net.cpp:148] Top shape: 24 32 28 28 (602112)
I0403 15:35:01.448648 32367 net.cpp:156] Memory required for data: 727352352
I0403 15:35:01.448668 32367 layer_factory.hpp:77] Creating layer inception_3b/relu_5x5_reduce
I0403 15:35:01.448688 32367 net.cpp:91] Creating Layer inception_3b/relu_5x5_reduce
I0403 15:35:01.448704 32367 net.cpp:425] inception_3b/relu_5x5_reduce <- inception_3b/5x5_reduce
I0403 15:35:01.448724 32367 net.cpp:386] inception_3b/relu_5x5_reduce -> inception_3b/5x5_reduce (in-place)
I0403 15:35:01.448912 32367 net.cpp:141] Setting up inception_3b/relu_5x5_reduce
I0403 15:35:01.448950 32367 net.cpp:148] Top shape: 24 32 28 28 (602112)
I0403 15:35:01.448966 32367 net.cpp:156] Memory required for data: 729760800
I0403 15:35:01.448982 32367 layer_factory.hpp:77] Creating layer inception_3b/5x5
I0403 15:35:01.449005 32367 net.cpp:91] Creating Layer inception_3b/5x5
I0403 15:35:01.449023 32367 net.cpp:425] inception_3b/5x5 <- inception_3b/5x5_reduce
I0403 15:35:01.449045 32367 net.cpp:399] inception_3b/5x5 -> inception_3b/5x5
I0403 15:35:01.451005 32367 net.cpp:141] Setting up inception_3b/5x5
I0403 15:35:01.451037 32367 net.cpp:148] Top shape: 24 96 28 28 (1806336)
I0403 15:35:01.451055 32367 net.cpp:156] Memory required for data: 736986144
I0403 15:35:01.451074 32367 layer_factory.hpp:77] Creating layer inception_3b/relu_5x5
I0403 15:35:01.451093 32367 net.cpp:91] Creating Layer inception_3b/relu_5x5
I0403 15:35:01.451109 32367 net.cpp:425] inception_3b/relu_5x5 <- inception_3b/5x5
I0403 15:35:01.451128 32367 net.cpp:386] inception_3b/relu_5x5 -> inception_3b/5x5 (in-place)
I0403 15:35:01.451324 32367 net.cpp:141] Setting up inception_3b/relu_5x5
I0403 15:35:01.451350 32367 net.cpp:148] Top shape: 24 96 28 28 (1806336)
I0403 15:35:01.451365 32367 net.cpp:156] Memory required for data: 744211488
I0403 15:35:01.451380 32367 layer_factory.hpp:77] Creating layer inception_3b/pool
I0403 15:35:01.451400 32367 net.cpp:91] Creating Layer inception_3b/pool
I0403 15:35:01.451416 32367 net.cpp:425] inception_3b/pool <- inception_3a/output_inception_3a/output_0_split_3
I0403 15:35:01.451434 32367 net.cpp:399] inception_3b/pool -> inception_3b/pool
I0403 15:35:01.451489 32367 net.cpp:141] Setting up inception_3b/pool
I0403 15:35:01.451517 32367 net.cpp:148] Top shape: 24 256 28 28 (4816896)
I0403 15:35:01.451532 32367 net.cpp:156] Memory required for data: 763479072
I0403 15:35:01.451547 32367 layer_factory.hpp:77] Creating layer inception_3b/pool_proj
I0403 15:35:01.451570 32367 net.cpp:91] Creating Layer inception_3b/pool_proj
I0403 15:35:01.451587 32367 net.cpp:425] inception_3b/pool_proj <- inception_3b/pool
I0403 15:35:01.451607 32367 net.cpp:399] inception_3b/pool_proj -> inception_3b/pool_proj
I0403 15:35:01.452682 32367 net.cpp:141] Setting up inception_3b/pool_proj
I0403 15:35:01.452711 32367 net.cpp:148] Top shape: 24 64 28 28 (1204224)
I0403 15:35:01.452728 32367 net.cpp:156] Memory required for data: 768295968
I0403 15:35:01.452747 32367 layer_factory.hpp:77] Creating layer inception_3b/relu_pool_proj
I0403 15:35:01.452769 32367 net.cpp:91] Creating Layer inception_3b/relu_pool_proj
I0403 15:35:01.452786 32367 net.cpp:425] inception_3b/relu_pool_proj <- inception_3b/pool_proj
I0403 15:35:01.452817 32367 net.cpp:386] inception_3b/relu_pool_proj -> inception_3b/pool_proj (in-place)
I0403 15:35:01.453202 32367 net.cpp:141] Setting up inception_3b/relu_pool_proj
I0403 15:35:01.453228 32367 net.cpp:148] Top shape: 24 64 28 28 (1204224)
I0403 15:35:01.453244 32367 net.cpp:156] Memory required for data: 773112864
I0403 15:35:01.453265 32367 layer_factory.hpp:77] Creating layer inception_3b/output
I0403 15:35:01.453284 32367 net.cpp:91] Creating Layer inception_3b/output
I0403 15:35:01.453301 32367 net.cpp:425] inception_3b/output <- inception_3b/1x1
I0403 15:35:01.453318 32367 net.cpp:425] inception_3b/output <- inception_3b/3x3
I0403 15:35:01.453335 32367 net.cpp:425] inception_3b/output <- inception_3b/5x5
I0403 15:35:01.453351 32367 net.cpp:425] inception_3b/output <- inception_3b/pool_proj
I0403 15:35:01.453371 32367 net.cpp:399] inception_3b/output -> inception_3b/output
I0403 15:35:01.453418 32367 net.cpp:141] Setting up inception_3b/output
I0403 15:35:01.453443 32367 net.cpp:148] Top shape: 24 480 28 28 (9031680)
I0403 15:35:01.453457 32367 net.cpp:156] Memory required for data: 809239584
I0403 15:35:01.453472 32367 layer_factory.hpp:77] Creating layer pool3/3x3_s2
I0403 15:35:01.453490 32367 net.cpp:91] Creating Layer pool3/3x3_s2
I0403 15:35:01.453505 32367 net.cpp:425] pool3/3x3_s2 <- inception_3b/output
I0403 15:35:01.453526 32367 net.cpp:399] pool3/3x3_s2 -> pool3/3x3_s2
I0403 15:35:01.453598 32367 net.cpp:141] Setting up pool3/3x3_s2
I0403 15:35:01.453624 32367 net.cpp:148] Top shape: 24 480 14 14 (2257920)
I0403 15:35:01.453639 32367 net.cpp:156] Memory required for data: 818271264
I0403 15:35:01.453654 32367 layer_factory.hpp:77] Creating layer pool3/3x3_s2_pool3/3x3_s2_0_split
I0403 15:35:01.453673 32367 net.cpp:91] Creating Layer pool3/3x3_s2_pool3/3x3_s2_0_split
I0403 15:35:01.453690 32367 net.cpp:425] pool3/3x3_s2_pool3/3x3_s2_0_split <- pool3/3x3_s2
I0403 15:35:01.453707 32367 net.cpp:399] pool3/3x3_s2_pool3/3x3_s2_0_split -> pool3/3x3_s2_pool3/3x3_s2_0_split_0
I0403 15:35:01.453727 32367 net.cpp:399] pool3/3x3_s2_pool3/3x3_s2_0_split -> pool3/3x3_s2_pool3/3x3_s2_0_split_1
I0403 15:35:01.453749 32367 net.cpp:399] pool3/3x3_s2_pool3/3x3_s2_0_split -> pool3/3x3_s2_pool3/3x3_s2_0_split_2
I0403 15:35:01.453770 32367 net.cpp:399] pool3/3x3_s2_pool3/3x3_s2_0_split -> pool3/3x3_s2_pool3/3x3_s2_0_split_3
I0403 15:35:01.453845 32367 net.cpp:141] Setting up pool3/3x3_s2_pool3/3x3_s2_0_split
I0403 15:35:01.453871 32367 net.cpp:148] Top shape: 24 480 14 14 (2257920)
I0403 15:35:01.453886 32367 net.cpp:148] Top shape: 24 480 14 14 (2257920)
I0403 15:35:01.453903 32367 net.cpp:148] Top shape: 24 480 14 14 (2257920)
I0403 15:35:01.453919 32367 net.cpp:148] Top shape: 24 480 14 14 (2257920)
I0403 15:35:01.453933 32367 net.cpp:156] Memory required for data: 854397984
I0403 15:35:01.453948 32367 layer_factory.hpp:77] Creating layer inception_4a/1x1
I0403 15:35:01.453972 32367 net.cpp:91] Creating Layer inception_4a/1x1
I0403 15:35:01.453990 32367 net.cpp:425] inception_4a/1x1 <- pool3/3x3_s2_pool3/3x3_s2_0_split_0
I0403 15:35:01.454011 32367 net.cpp:399] inception_4a/1x1 -> inception_4a/1x1
I0403 15:35:01.455605 32367 net.cpp:141] Setting up inception_4a/1x1
I0403 15:35:01.455633 32367 net.cpp:148] Top shape: 24 192 14 14 (903168)
I0403 15:35:01.455651 32367 net.cpp:156] Memory required for data: 858010656
I0403 15:35:01.455669 32367 layer_factory.hpp:77] Creating layer inception_4a/relu_1x1
I0403 15:35:01.455690 32367 net.cpp:91] Creating Layer inception_4a/relu_1x1
I0403 15:35:01.455708 32367 net.cpp:425] inception_4a/relu_1x1 <- inception_4a/1x1
I0403 15:35:01.455726 32367 net.cpp:386] inception_4a/relu_1x1 -> inception_4a/1x1 (in-place)
I0403 15:35:01.455919 32367 net.cpp:141] Setting up inception_4a/relu_1x1
I0403 15:35:01.455947 32367 net.cpp:148] Top shape: 24 192 14 14 (903168)
I0403 15:35:01.455963 32367 net.cpp:156] Memory required for data: 861623328
I0403 15:35:01.455979 32367 layer_factory.hpp:77] Creating layer inception_4a/3x3_reduce
I0403 15:35:01.456001 32367 net.cpp:91] Creating Layer inception_4a/3x3_reduce
I0403 15:35:01.456020 32367 net.cpp:425] inception_4a/3x3_reduce <- pool3/3x3_s2_pool3/3x3_s2_0_split_1
I0403 15:35:01.456040 32367 net.cpp:399] inception_4a/3x3_reduce -> inception_4a/3x3_reduce
I0403 15:35:01.457320 32367 net.cpp:141] Setting up inception_4a/3x3_reduce
I0403 15:35:01.457348 32367 net.cpp:148] Top shape: 24 96 14 14 (451584)
I0403 15:35:01.457365 32367 net.cpp:156] Memory required for data: 863429664
I0403 15:35:01.457391 32367 layer_factory.hpp:77] Creating layer inception_4a/relu_3x3_reduce
I0403 15:35:01.457413 32367 net.cpp:91] Creating Layer inception_4a/relu_3x3_reduce
I0403 15:35:01.457432 32367 net.cpp:425] inception_4a/relu_3x3_reduce <- inception_4a/3x3_reduce
I0403 15:35:01.457449 32367 net.cpp:386] inception_4a/relu_3x3_reduce -> inception_4a/3x3_reduce (in-place)
I0403 15:35:01.457643 32367 net.cpp:141] Setting up inception_4a/relu_3x3_reduce
I0403 15:35:01.457669 32367 net.cpp:148] Top shape: 24 96 14 14 (451584)
I0403 15:35:01.457685 32367 net.cpp:156] Memory required for data: 865236000
I0403 15:35:01.457701 32367 layer_factory.hpp:77] Creating layer inception_4a/3x3
I0403 15:35:01.457727 32367 net.cpp:91] Creating Layer inception_4a/3x3
I0403 15:35:01.457746 32367 net.cpp:425] inception_4a/3x3 <- inception_4a/3x3_reduce
I0403 15:35:01.457764 32367 net.cpp:399] inception_4a/3x3 -> inception_4a/3x3
I0403 15:35:01.460491 32367 net.cpp:141] Setting up inception_4a/3x3
I0403 15:35:01.460539 32367 net.cpp:148] Top shape: 24 208 14 14 (978432)
I0403 15:35:01.460557 32367 net.cpp:156] Memory required for data: 869149728
I0403 15:35:01.460577 32367 layer_factory.hpp:77] Creating layer inception_4a/relu_3x3
I0403 15:35:01.460597 32367 net.cpp:91] Creating Layer inception_4a/relu_3x3
I0403 15:35:01.460614 32367 net.cpp:425] inception_4a/relu_3x3 <- inception_4a/3x3
I0403 15:35:01.460631 32367 net.cpp:386] inception_4a/relu_3x3 -> inception_4a/3x3 (in-place)
I0403 15:35:01.460937 32367 net.cpp:141] Setting up inception_4a/relu_3x3
I0403 15:35:01.460968 32367 net.cpp:148] Top shape: 24 208 14 14 (978432)
I0403 15:35:01.460983 32367 net.cpp:156] Memory required for data: 873063456
I0403 15:35:01.460999 32367 layer_factory.hpp:77] Creating layer inception_4a/5x5_reduce
I0403 15:35:01.461022 32367 net.cpp:91] Creating Layer inception_4a/5x5_reduce
I0403 15:35:01.461040 32367 net.cpp:425] inception_4a/5x5_reduce <- pool3/3x3_s2_pool3/3x3_s2_0_split_2
I0403 15:35:01.461058 32367 net.cpp:399] inception_4a/5x5_reduce -> inception_4a/5x5_reduce
I0403 15:35:01.462095 32367 net.cpp:141] Setting up inception_4a/5x5_reduce
I0403 15:35:01.462123 32367 net.cpp:148] Top shape: 24 16 14 14 (75264)
I0403 15:35:01.462139 32367 net.cpp:156] Memory required for data: 873364512
I0403 15:35:01.462158 32367 layer_factory.hpp:77] Creating layer inception_4a/relu_5x5_reduce
I0403 15:35:01.462177 32367 net.cpp:91] Creating Layer inception_4a/relu_5x5_reduce
I0403 15:35:01.462193 32367 net.cpp:425] inception_4a/relu_5x5_reduce <- inception_4a/5x5_reduce
I0403 15:35:01.462213 32367 net.cpp:386] inception_4a/relu_5x5_reduce -> inception_4a/5x5_reduce (in-place)
I0403 15:35:01.462429 32367 net.cpp:141] Setting up inception_4a/relu_5x5_reduce
I0403 15:35:01.462455 32367 net.cpp:148] Top shape: 24 16 14 14 (75264)
I0403 15:35:01.462472 32367 net.cpp:156] Memory required for data: 873665568
I0403 15:35:01.462487 32367 layer_factory.hpp:77] Creating layer inception_4a/5x5
I0403 15:35:01.462522 32367 net.cpp:91] Creating Layer inception_4a/5x5
I0403 15:35:01.462540 32367 net.cpp:425] inception_4a/5x5 <- inception_4a/5x5_reduce
I0403 15:35:01.462563 32367 net.cpp:399] inception_4a/5x5 -> inception_4a/5x5
I0403 15:35:01.463671 32367 net.cpp:141] Setting up inception_4a/5x5
I0403 15:35:01.463701 32367 net.cpp:148] Top shape: 24 48 14 14 (225792)
I0403 15:35:01.463716 32367 net.cpp:156] Memory required for data: 874568736
I0403 15:35:01.463735 32367 layer_factory.hpp:77] Creating layer inception_4a/relu_5x5
I0403 15:35:01.463757 32367 net.cpp:91] Creating Layer inception_4a/relu_5x5
I0403 15:35:01.463774 32367 net.cpp:425] inception_4a/relu_5x5 <- inception_4a/5x5
I0403 15:35:01.463793 32367 net.cpp:386] inception_4a/relu_5x5 -> inception_4a/5x5 (in-place)
I0403 15:35:01.463976 32367 net.cpp:141] Setting up inception_4a/relu_5x5
I0403 15:35:01.464004 32367 net.cpp:148] Top shape: 24 48 14 14 (225792)
I0403 15:35:01.464020 32367 net.cpp:156] Memory required for data: 875471904
I0403 15:35:01.464035 32367 layer_factory.hpp:77] Creating layer inception_4a/pool
I0403 15:35:01.464052 32367 net.cpp:91] Creating Layer inception_4a/pool
I0403 15:35:01.464068 32367 net.cpp:425] inception_4a/pool <- pool3/3x3_s2_pool3/3x3_s2_0_split_3
I0403 15:35:01.464087 32367 net.cpp:399] inception_4a/pool -> inception_4a/pool
I0403 15:35:01.464148 32367 net.cpp:141] Setting up inception_4a/pool
I0403 15:35:01.464172 32367 net.cpp:148] Top shape: 24 480 14 14 (2257920)
I0403 15:35:01.464187 32367 net.cpp:156] Memory required for data: 884503584
I0403 15:35:01.464202 32367 layer_factory.hpp:77] Creating layer inception_4a/pool_proj
I0403 15:35:01.464224 32367 net.cpp:91] Creating Layer inception_4a/pool_proj
I0403 15:35:01.464242 32367 net.cpp:425] inception_4a/pool_proj <- inception_4a/pool
I0403 15:35:01.464277 32367 net.cpp:399] inception_4a/pool_proj -> inception_4a/pool_proj
I0403 15:35:01.465451 32367 net.cpp:141] Setting up inception_4a/pool_proj
I0403 15:35:01.465481 32367 net.cpp:148] Top shape: 24 64 14 14 (301056)
I0403 15:35:01.465512 32367 net.cpp:156] Memory required for data: 885707808
I0403 15:35:01.465533 32367 layer_factory.hpp:77] Creating layer inception_4a/relu_pool_proj
I0403 15:35:01.465554 32367 net.cpp:91] Creating Layer inception_4a/relu_pool_proj
I0403 15:35:01.465571 32367 net.cpp:425] inception_4a/relu_pool_proj <- inception_4a/pool_proj
I0403 15:35:01.465590 32367 net.cpp:386] inception_4a/relu_pool_proj -> inception_4a/pool_proj (in-place)
I0403 15:35:01.465873 32367 net.cpp:141] Setting up inception_4a/relu_pool_proj
I0403 15:35:01.465900 32367 net.cpp:148] Top shape: 24 64 14 14 (301056)
I0403 15:35:01.465916 32367 net.cpp:156] Memory required for data: 886912032
I0403 15:35:01.465931 32367 layer_factory.hpp:77] Creating layer inception_4a/output
I0403 15:35:01.465951 32367 net.cpp:91] Creating Layer inception_4a/output
I0403 15:35:01.465968 32367 net.cpp:425] inception_4a/output <- inception_4a/1x1
I0403 15:35:01.465984 32367 net.cpp:425] inception_4a/output <- inception_4a/3x3
I0403 15:35:01.466001 32367 net.cpp:425] inception_4a/output <- inception_4a/5x5
I0403 15:35:01.466019 32367 net.cpp:425] inception_4a/output <- inception_4a/pool_proj
I0403 15:35:01.466037 32367 net.cpp:399] inception_4a/output -> inception_4a/output
I0403 15:35:01.466084 32367 net.cpp:141] Setting up inception_4a/output
I0403 15:35:01.466106 32367 net.cpp:148] Top shape: 24 512 14 14 (2408448)
I0403 15:35:01.466121 32367 net.cpp:156] Memory required for data: 896545824
I0403 15:35:01.466136 32367 layer_factory.hpp:77] Creating layer inception_4a/output_inception_4a/output_0_split
I0403 15:35:01.466156 32367 net.cpp:91] Creating Layer inception_4a/output_inception_4a/output_0_split
I0403 15:35:01.466171 32367 net.cpp:425] inception_4a/output_inception_4a/output_0_split <- inception_4a/output
I0403 15:35:01.466190 32367 net.cpp:399] inception_4a/output_inception_4a/output_0_split -> inception_4a/output_inception_4a/output_0_split_0
I0403 15:35:01.466212 32367 net.cpp:399] inception_4a/output_inception_4a/output_0_split -> inception_4a/output_inception_4a/output_0_split_1
I0403 15:35:01.466233 32367 net.cpp:399] inception_4a/output_inception_4a/output_0_split -> inception_4a/output_inception_4a/output_0_split_2
I0403 15:35:01.466259 32367 net.cpp:399] inception_4a/output_inception_4a/output_0_split -> inception_4a/output_inception_4a/output_0_split_3
I0403 15:35:01.466281 32367 net.cpp:399] inception_4a/output_inception_4a/output_0_split -> inception_4a/output_inception_4a/output_0_split_4
I0403 15:35:01.466382 32367 net.cpp:141] Setting up inception_4a/output_inception_4a/output_0_split
I0403 15:35:01.466406 32367 net.cpp:148] Top shape: 24 512 14 14 (2408448)
I0403 15:35:01.466423 32367 net.cpp:148] Top shape: 24 512 14 14 (2408448)
I0403 15:35:01.466439 32367 net.cpp:148] Top shape: 24 512 14 14 (2408448)
I0403 15:35:01.466456 32367 net.cpp:148] Top shape: 24 512 14 14 (2408448)
I0403 15:35:01.466472 32367 net.cpp:148] Top shape: 24 512 14 14 (2408448)
I0403 15:35:01.466486 32367 net.cpp:156] Memory required for data: 944714784
I0403 15:35:01.466501 32367 layer_factory.hpp:77] Creating layer loss1/ave_pool
I0403 15:35:01.466521 32367 net.cpp:91] Creating Layer loss1/ave_pool
I0403 15:35:01.466536 32367 net.cpp:425] loss1/ave_pool <- inception_4a/output_inception_4a/output_0_split_0
I0403 15:35:01.466557 32367 net.cpp:399] loss1/ave_pool -> loss1/ave_pool
I0403 15:35:01.466764 32367 net.cpp:141] Setting up loss1/ave_pool
I0403 15:35:01.466791 32367 net.cpp:148] Top shape: 24 512 4 4 (196608)
I0403 15:35:01.466807 32367 net.cpp:156] Memory required for data: 945501216
I0403 15:35:01.466823 32367 layer_factory.hpp:77] Creating layer loss1/conv
I0403 15:35:01.466850 32367 net.cpp:91] Creating Layer loss1/conv
I0403 15:35:01.466867 32367 net.cpp:425] loss1/conv <- loss1/ave_pool
I0403 15:35:01.466888 32367 net.cpp:399] loss1/conv -> loss1/conv
I0403 15:35:01.468332 32367 net.cpp:141] Setting up loss1/conv
I0403 15:35:01.468364 32367 net.cpp:148] Top shape: 24 128 4 4 (49152)
I0403 15:35:01.468381 32367 net.cpp:156] Memory required for data: 945697824
I0403 15:35:01.468415 32367 layer_factory.hpp:77] Creating layer loss1/relu_conv
I0403 15:35:01.468435 32367 net.cpp:91] Creating Layer loss1/relu_conv
I0403 15:35:01.468451 32367 net.cpp:425] loss1/relu_conv <- loss1/conv
I0403 15:35:01.468471 32367 net.cpp:386] loss1/relu_conv -> loss1/conv (in-place)
I0403 15:35:01.468754 32367 net.cpp:141] Setting up loss1/relu_conv
I0403 15:35:01.468783 32367 net.cpp:148] Top shape: 24 128 4 4 (49152)
I0403 15:35:01.468801 32367 net.cpp:156] Memory required for data: 945894432
I0403 15:35:01.468816 32367 layer_factory.hpp:77] Creating layer loss1/fc
I0403 15:35:01.468839 32367 net.cpp:91] Creating Layer loss1/fc
I0403 15:35:01.468858 32367 net.cpp:425] loss1/fc <- loss1/conv
I0403 15:35:01.468880 32367 net.cpp:399] loss1/fc -> loss1/fc
I0403 15:35:01.486716 32367 net.cpp:141] Setting up loss1/fc
I0403 15:35:01.486750 32367 net.cpp:148] Top shape: 24 1024 (24576)
I0403 15:35:01.486766 32367 net.cpp:156] Memory required for data: 945992736
I0403 15:35:01.486786 32367 layer_factory.hpp:77] Creating layer loss1/relu_fc
I0403 15:35:01.486805 32367 net.cpp:91] Creating Layer loss1/relu_fc
I0403 15:35:01.486822 32367 net.cpp:425] loss1/relu_fc <- loss1/fc
I0403 15:35:01.486841 32367 net.cpp:386] loss1/relu_fc -> loss1/fc (in-place)
I0403 15:35:01.487036 32367 net.cpp:141] Setting up loss1/relu_fc
I0403 15:35:01.487064 32367 net.cpp:148] Top shape: 24 1024 (24576)
I0403 15:35:01.487081 32367 net.cpp:156] Memory required for data: 946091040
I0403 15:35:01.487095 32367 layer_factory.hpp:77] Creating layer loss1/drop_fc
I0403 15:35:01.487125 32367 net.cpp:91] Creating Layer loss1/drop_fc
I0403 15:35:01.487145 32367 net.cpp:425] loss1/drop_fc <- loss1/fc
I0403 15:35:01.487162 32367 net.cpp:386] loss1/drop_fc -> loss1/fc (in-place)
I0403 15:35:01.487217 32367 net.cpp:141] Setting up loss1/drop_fc
I0403 15:35:01.487242 32367 net.cpp:148] Top shape: 24 1024 (24576)
I0403 15:35:01.487262 32367 net.cpp:156] Memory required for data: 946189344
I0403 15:35:01.487279 32367 layer_factory.hpp:77] Creating layer loss1/classifier_plantvillage
I0403 15:35:01.487303 32367 net.cpp:91] Creating Layer loss1/classifier_plantvillage
I0403 15:35:01.487320 32367 net.cpp:425] loss1/classifier_plantvillage <- loss1/fc
I0403 15:35:01.487339 32367 net.cpp:399] loss1/classifier_plantvillage -> loss1/classifier_plantvillage
I0403 15:35:01.488278 32367 net.cpp:141] Setting up loss1/classifier_plantvillage
I0403 15:35:01.488309 32367 net.cpp:148] Top shape: 24 38 (912)
I0403 15:35:01.488327 32367 net.cpp:156] Memory required for data: 946192992
I0403 15:35:01.488344 32367 layer_factory.hpp:77] Creating layer loss1/classifier_plantvillage_loss1/classifier_plantvillage_0_split
I0403 15:35:01.488363 32367 net.cpp:91] Creating Layer loss1/classifier_plantvillage_loss1/classifier_plantvillage_0_split
I0403 15:35:01.488379 32367 net.cpp:425] loss1/classifier_plantvillage_loss1/classifier_plantvillage_0_split <- loss1/classifier_plantvillage
I0403 15:35:01.488397 32367 net.cpp:399] loss1/classifier_plantvillage_loss1/classifier_plantvillage_0_split -> loss1/classifier_plantvillage_loss1/classifier_plantvillage_0_split_0
I0403 15:35:01.488417 32367 net.cpp:399] loss1/classifier_plantvillage_loss1/classifier_plantvillage_0_split -> loss1/classifier_plantvillage_loss1/classifier_plantvillage_0_split_1
I0403 15:35:01.488440 32367 net.cpp:399] loss1/classifier_plantvillage_loss1/classifier_plantvillage_0_split -> loss1/classifier_plantvillage_loss1/classifier_plantvillage_0_split_2
I0403 15:35:01.488507 32367 net.cpp:141] Setting up loss1/classifier_plantvillage_loss1/classifier_plantvillage_0_split
I0403 15:35:01.488531 32367 net.cpp:148] Top shape: 24 38 (912)
I0403 15:35:01.488548 32367 net.cpp:148] Top shape: 24 38 (912)
I0403 15:35:01.488564 32367 net.cpp:148] Top shape: 24 38 (912)
I0403 15:35:01.488579 32367 net.cpp:156] Memory required for data: 946203936
I0403 15:35:01.488593 32367 layer_factory.hpp:77] Creating layer inception_4b/1x1
I0403 15:35:01.488615 32367 net.cpp:91] Creating Layer inception_4b/1x1
I0403 15:35:01.488647 32367 net.cpp:425] inception_4b/1x1 <- inception_4a/output_inception_4a/output_0_split_1
I0403 15:35:01.488670 32367 net.cpp:399] inception_4b/1x1 -> inception_4b/1x1
I0403 15:35:01.490324 32367 net.cpp:141] Setting up inception_4b/1x1
I0403 15:35:01.490356 32367 net.cpp:148] Top shape: 24 160 14 14 (752640)
I0403 15:35:01.490372 32367 net.cpp:156] Memory required for data: 949214496
I0403 15:35:01.490391 32367 layer_factory.hpp:77] Creating layer inception_4b/relu_1x1
I0403 15:35:01.490411 32367 net.cpp:91] Creating Layer inception_4b/relu_1x1
I0403 15:35:01.490427 32367 net.cpp:425] inception_4b/relu_1x1 <- inception_4b/1x1
I0403 15:35:01.490447 32367 net.cpp:386] inception_4b/relu_1x1 -> inception_4b/1x1 (in-place)
I0403 15:35:01.490630 32367 net.cpp:141] Setting up inception_4b/relu_1x1
I0403 15:35:01.490655 32367 net.cpp:148] Top shape: 24 160 14 14 (752640)
I0403 15:35:01.490669 32367 net.cpp:156] Memory required for data: 952225056
I0403 15:35:01.490684 32367 layer_factory.hpp:77] Creating layer inception_4b/3x3_reduce
I0403 15:35:01.490706 32367 net.cpp:91] Creating Layer inception_4b/3x3_reduce
I0403 15:35:01.490723 32367 net.cpp:425] inception_4b/3x3_reduce <- inception_4a/output_inception_4a/output_0_split_2
I0403 15:35:01.490747 32367 net.cpp:399] inception_4b/3x3_reduce -> inception_4b/3x3_reduce
I0403 15:35:01.492146 32367 net.cpp:141] Setting up inception_4b/3x3_reduce
I0403 15:35:01.492174 32367 net.cpp:148] Top shape: 24 112 14 14 (526848)
I0403 15:35:01.492190 32367 net.cpp:156] Memory required for data: 954332448
I0403 15:35:01.492208 32367 layer_factory.hpp:77] Creating layer inception_4b/relu_3x3_reduce
I0403 15:35:01.492228 32367 net.cpp:91] Creating Layer inception_4b/relu_3x3_reduce
I0403 15:35:01.492245 32367 net.cpp:425] inception_4b/relu_3x3_reduce <- inception_4b/3x3_reduce
I0403 15:35:01.492267 32367 net.cpp:386] inception_4b/relu_3x3_reduce -> inception_4b/3x3_reduce (in-place)
I0403 15:35:01.492558 32367 net.cpp:141] Setting up inception_4b/relu_3x3_reduce
I0403 15:35:01.492585 32367 net.cpp:148] Top shape: 24 112 14 14 (526848)
I0403 15:35:01.492600 32367 net.cpp:156] Memory required for data: 956439840
I0403 15:35:01.492616 32367 layer_factory.hpp:77] Creating layer inception_4b/3x3
I0403 15:35:01.492638 32367 net.cpp:91] Creating Layer inception_4b/3x3
I0403 15:35:01.492656 32367 net.cpp:425] inception_4b/3x3 <- inception_4b/3x3_reduce
I0403 15:35:01.492679 32367 net.cpp:399] inception_4b/3x3 -> inception_4b/3x3
I0403 15:35:01.495735 32367 net.cpp:141] Setting up inception_4b/3x3
I0403 15:35:01.495764 32367 net.cpp:148] Top shape: 24 224 14 14 (1053696)
I0403 15:35:01.495780 32367 net.cpp:156] Memory required for data: 960654624
I0403 15:35:01.495800 32367 layer_factory.hpp:77] Creating layer inception_4b/relu_3x3
I0403 15:35:01.495820 32367 net.cpp:91] Creating Layer inception_4b/relu_3x3
I0403 15:35:01.495837 32367 net.cpp:425] inception_4b/relu_3x3 <- inception_4b/3x3
I0403 15:35:01.495856 32367 net.cpp:386] inception_4b/relu_3x3 -> inception_4b/3x3 (in-place)
I0403 15:35:01.496045 32367 net.cpp:141] Setting up inception_4b/relu_3x3
I0403 15:35:01.496073 32367 net.cpp:148] Top shape: 24 224 14 14 (1053696)
I0403 15:35:01.496089 32367 net.cpp:156] Memory required for data: 964869408
I0403 15:35:01.496104 32367 layer_factory.hpp:77] Creating layer inception_4b/5x5_reduce
I0403 15:35:01.496126 32367 net.cpp:91] Creating Layer inception_4b/5x5_reduce
I0403 15:35:01.496143 32367 net.cpp:425] inception_4b/5x5_reduce <- inception_4a/output_inception_4a/output_0_split_3
I0403 15:35:01.496162 32367 net.cpp:399] inception_4b/5x5_reduce -> inception_4b/5x5_reduce
I0403 15:35:01.497331 32367 net.cpp:141] Setting up inception_4b/5x5_reduce
I0403 15:35:01.497360 32367 net.cpp:148] Top shape: 24 24 14 14 (112896)
I0403 15:35:01.497375 32367 net.cpp:156] Memory required for data: 965320992
I0403 15:35:01.497395 32367 layer_factory.hpp:77] Creating layer inception_4b/relu_5x5_reduce
I0403 15:35:01.497412 32367 net.cpp:91] Creating Layer inception_4b/relu_5x5_reduce
I0403 15:35:01.497442 32367 net.cpp:425] inception_4b/relu_5x5_reduce <- inception_4b/5x5_reduce
I0403 15:35:01.497463 32367 net.cpp:386] inception_4b/relu_5x5_reduce -> inception_4b/5x5_reduce (in-place)
I0403 15:35:01.497648 32367 net.cpp:141] Setting up inception_4b/relu_5x5_reduce
I0403 15:35:01.497673 32367 net.cpp:148] Top shape: 24 24 14 14 (112896)
I0403 15:35:01.497689 32367 net.cpp:156] Memory required for data: 965772576
I0403 15:35:01.497704 32367 layer_factory.hpp:77] Creating layer inception_4b/5x5
I0403 15:35:01.497726 32367 net.cpp:91] Creating Layer inception_4b/5x5
I0403 15:35:01.497743 32367 net.cpp:425] inception_4b/5x5 <- inception_4b/5x5_reduce
I0403 15:35:01.497764 32367 net.cpp:399] inception_4b/5x5 -> inception_4b/5x5
I0403 15:35:01.498999 32367 net.cpp:141] Setting up inception_4b/5x5
I0403 15:35:01.499029 32367 net.cpp:148] Top shape: 24 64 14 14 (301056)
I0403 15:35:01.499045 32367 net.cpp:156] Memory required for data: 966976800
I0403 15:35:01.499063 32367 layer_factory.hpp:77] Creating layer inception_4b/relu_5x5
I0403 15:35:01.499080 32367 net.cpp:91] Creating Layer inception_4b/relu_5x5
I0403 15:35:01.499096 32367 net.cpp:425] inception_4b/relu_5x5 <- inception_4b/5x5
I0403 15:35:01.499115 32367 net.cpp:386] inception_4b/relu_5x5 -> inception_4b/5x5 (in-place)
I0403 15:35:01.499408 32367 net.cpp:141] Setting up inception_4b/relu_5x5
I0403 15:35:01.499438 32367 net.cpp:148] Top shape: 24 64 14 14 (301056)
I0403 15:35:01.499452 32367 net.cpp:156] Memory required for data: 968181024
I0403 15:35:01.499467 32367 layer_factory.hpp:77] Creating layer inception_4b/pool
I0403 15:35:01.499485 32367 net.cpp:91] Creating Layer inception_4b/pool
I0403 15:35:01.499501 32367 net.cpp:425] inception_4b/pool <- inception_4a/output_inception_4a/output_0_split_4
I0403 15:35:01.499524 32367 net.cpp:399] inception_4b/pool -> inception_4b/pool
I0403 15:35:01.499589 32367 net.cpp:141] Setting up inception_4b/pool
I0403 15:35:01.499614 32367 net.cpp:148] Top shape: 24 512 14 14 (2408448)
I0403 15:35:01.499627 32367 net.cpp:156] Memory required for data: 977814816
I0403 15:35:01.499642 32367 layer_factory.hpp:77] Creating layer inception_4b/pool_proj
I0403 15:35:01.499667 32367 net.cpp:91] Creating Layer inception_4b/pool_proj
I0403 15:35:01.499685 32367 net.cpp:425] inception_4b/pool_proj <- inception_4b/pool
I0403 15:35:01.499703 32367 net.cpp:399] inception_4b/pool_proj -> inception_4b/pool_proj
I0403 15:35:01.500913 32367 net.cpp:141] Setting up inception_4b/pool_proj
I0403 15:35:01.500941 32367 net.cpp:148] Top shape: 24 64 14 14 (301056)
I0403 15:35:01.500957 32367 net.cpp:156] Memory required for data: 979019040
I0403 15:35:01.500977 32367 layer_factory.hpp:77] Creating layer inception_4b/relu_pool_proj
I0403 15:35:01.500994 32367 net.cpp:91] Creating Layer inception_4b/relu_pool_proj
I0403 15:35:01.501009 32367 net.cpp:425] inception_4b/relu_pool_proj <- inception_4b/pool_proj
I0403 15:35:01.501030 32367 net.cpp:386] inception_4b/relu_pool_proj -> inception_4b/pool_proj (in-place)
I0403 15:35:01.501214 32367 net.cpp:141] Setting up inception_4b/relu_pool_proj
I0403 15:35:01.501240 32367 net.cpp:148] Top shape: 24 64 14 14 (301056)
I0403 15:35:01.501257 32367 net.cpp:156] Memory required for data: 980223264
I0403 15:35:01.501273 32367 layer_factory.hpp:77] Creating layer inception_4b/output
I0403 15:35:01.501293 32367 net.cpp:91] Creating Layer inception_4b/output
I0403 15:35:01.501310 32367 net.cpp:425] inception_4b/output <- inception_4b/1x1
I0403 15:35:01.501327 32367 net.cpp:425] inception_4b/output <- inception_4b/3x3
I0403 15:35:01.501343 32367 net.cpp:425] inception_4b/output <- inception_4b/5x5
I0403 15:35:01.501359 32367 net.cpp:425] inception_4b/output <- inception_4b/pool_proj
I0403 15:35:01.501376 32367 net.cpp:399] inception_4b/output -> inception_4b/output
I0403 15:35:01.501423 32367 net.cpp:141] Setting up inception_4b/output
I0403 15:35:01.501446 32367 net.cpp:148] Top shape: 24 512 14 14 (2408448)
I0403 15:35:01.501461 32367 net.cpp:156] Memory required for data: 989857056
I0403 15:35:01.501489 32367 layer_factory.hpp:77] Creating layer inception_4b/output_inception_4b/output_0_split
I0403 15:35:01.501508 32367 net.cpp:91] Creating Layer inception_4b/output_inception_4b/output_0_split
I0403 15:35:01.501538 32367 net.cpp:425] inception_4b/output_inception_4b/output_0_split <- inception_4b/output
I0403 15:35:01.501557 32367 net.cpp:399] inception_4b/output_inception_4b/output_0_split -> inception_4b/output_inception_4b/output_0_split_0
I0403 15:35:01.501579 32367 net.cpp:399] inception_4b/output_inception_4b/output_0_split -> inception_4b/output_inception_4b/output_0_split_1
I0403 15:35:01.501600 32367 net.cpp:399] inception_4b/output_inception_4b/output_0_split -> inception_4b/output_inception_4b/output_0_split_2
I0403 15:35:01.501621 32367 net.cpp:399] inception_4b/output_inception_4b/output_0_split -> inception_4b/output_inception_4b/output_0_split_3
I0403 15:35:01.501705 32367 net.cpp:141] Setting up inception_4b/output_inception_4b/output_0_split
I0403 15:35:01.501732 32367 net.cpp:148] Top shape: 24 512 14 14 (2408448)
I0403 15:35:01.501749 32367 net.cpp:148] Top shape: 24 512 14 14 (2408448)
I0403 15:35:01.501766 32367 net.cpp:148] Top shape: 24 512 14 14 (2408448)
I0403 15:35:01.501781 32367 net.cpp:148] Top shape: 24 512 14 14 (2408448)
I0403 15:35:01.501796 32367 net.cpp:156] Memory required for data: 1028392224
I0403 15:35:01.501822 32367 layer_factory.hpp:77] Creating layer inception_4c/1x1
I0403 15:35:01.501845 32367 net.cpp:91] Creating Layer inception_4c/1x1
I0403 15:35:01.501863 32367 net.cpp:425] inception_4c/1x1 <- inception_4b/output_inception_4b/output_0_split_0
I0403 15:35:01.501881 32367 net.cpp:399] inception_4c/1x1 -> inception_4c/1x1
I0403 15:35:01.503331 32367 net.cpp:141] Setting up inception_4c/1x1
I0403 15:35:01.503360 32367 net.cpp:148] Top shape: 24 128 14 14 (602112)
I0403 15:35:01.503376 32367 net.cpp:156] Memory required for data: 1030800672
I0403 15:35:01.503394 32367 layer_factory.hpp:77] Creating layer inception_4c/relu_1x1
I0403 15:35:01.503414 32367 net.cpp:91] Creating Layer inception_4c/relu_1x1
I0403 15:35:01.503432 32367 net.cpp:425] inception_4c/relu_1x1 <- inception_4c/1x1
I0403 15:35:01.503448 32367 net.cpp:386] inception_4c/relu_1x1 -> inception_4c/1x1 (in-place)
I0403 15:35:01.503633 32367 net.cpp:141] Setting up inception_4c/relu_1x1
I0403 15:35:01.503660 32367 net.cpp:148] Top shape: 24 128 14 14 (602112)
I0403 15:35:01.503675 32367 net.cpp:156] Memory required for data: 1033209120
I0403 15:35:01.503691 32367 layer_factory.hpp:77] Creating layer inception_4c/3x3_reduce
I0403 15:35:01.503713 32367 net.cpp:91] Creating Layer inception_4c/3x3_reduce
I0403 15:35:01.503731 32367 net.cpp:425] inception_4c/3x3_reduce <- inception_4b/output_inception_4b/output_0_split_1
I0403 15:35:01.503748 32367 net.cpp:399] inception_4c/3x3_reduce -> inception_4c/3x3_reduce
I0403 15:35:01.505774 32367 net.cpp:141] Setting up inception_4c/3x3_reduce
I0403 15:35:01.505821 32367 net.cpp:148] Top shape: 24 128 14 14 (602112)
I0403 15:35:01.505838 32367 net.cpp:156] Memory required for data: 1035617568
I0403 15:35:01.505857 32367 layer_factory.hpp:77] Creating layer inception_4c/relu_3x3_reduce
I0403 15:35:01.505875 32367 net.cpp:91] Creating Layer inception_4c/relu_3x3_reduce
I0403 15:35:01.505892 32367 net.cpp:425] inception_4c/relu_3x3_reduce <- inception_4c/3x3_reduce
I0403 15:35:01.505913 32367 net.cpp:386] inception_4c/relu_3x3_reduce -> inception_4c/3x3_reduce (in-place)
I0403 15:35:01.506216 32367 net.cpp:141] Setting up inception_4c/relu_3x3_reduce
I0403 15:35:01.506244 32367 net.cpp:148] Top shape: 24 128 14 14 (602112)
I0403 15:35:01.506266 32367 net.cpp:156] Memory required for data: 1038026016
I0403 15:35:01.506283 32367 layer_factory.hpp:77] Creating layer inception_4c/3x3
I0403 15:35:01.506307 32367 net.cpp:91] Creating Layer inception_4c/3x3
I0403 15:35:01.506325 32367 net.cpp:425] inception_4c/3x3 <- inception_4c/3x3_reduce
I0403 15:35:01.506345 32367 net.cpp:399] inception_4c/3x3 -> inception_4c/3x3
I0403 15:35:01.510084 32367 net.cpp:141] Setting up inception_4c/3x3
I0403 15:35:01.510128 32367 net.cpp:148] Top shape: 24 256 14 14 (1204224)
I0403 15:35:01.510145 32367 net.cpp:156] Memory required for data: 1042842912
I0403 15:35:01.510177 32367 layer_factory.hpp:77] Creating layer inception_4c/relu_3x3
I0403 15:35:01.510200 32367 net.cpp:91] Creating Layer inception_4c/relu_3x3
I0403 15:35:01.510216 32367 net.cpp:425] inception_4c/relu_3x3 <- inception_4c/3x3
I0403 15:35:01.510248 32367 net.cpp:386] inception_4c/relu_3x3 -> inception_4c/3x3 (in-place)
I0403 15:35:01.510454 32367 net.cpp:141] Setting up inception_4c/relu_3x3
I0403 15:35:01.510480 32367 net.cpp:148] Top shape: 24 256 14 14 (1204224)
I0403 15:35:01.510495 32367 net.cpp:156] Memory required for data: 1047659808
I0403 15:35:01.510511 32367 layer_factory.hpp:77] Creating layer inception_4c/5x5_reduce
I0403 15:35:01.510536 32367 net.cpp:91] Creating Layer inception_4c/5x5_reduce
I0403 15:35:01.510555 32367 net.cpp:425] inception_4c/5x5_reduce <- inception_4b/output_inception_4b/output_0_split_2
I0403 15:35:01.510581 32367 net.cpp:399] inception_4c/5x5_reduce -> inception_4c/5x5_reduce
I0403 15:35:01.511734 32367 net.cpp:141] Setting up inception_4c/5x5_reduce
I0403 15:35:01.511766 32367 net.cpp:148] Top shape: 24 24 14 14 (112896)
I0403 15:35:01.511782 32367 net.cpp:156] Memory required for data: 1048111392
I0403 15:35:01.511801 32367 layer_factory.hpp:77] Creating layer inception_4c/relu_5x5_reduce
I0403 15:35:01.511821 32367 net.cpp:91] Creating Layer inception_4c/relu_5x5_reduce
I0403 15:35:01.511837 32367 net.cpp:425] inception_4c/relu_5x5_reduce <- inception_4c/5x5_reduce
I0403 15:35:01.511857 32367 net.cpp:386] inception_4c/relu_5x5_reduce -> inception_4c/5x5_reduce (in-place)
I0403 15:35:01.512051 32367 net.cpp:141] Setting up inception_4c/relu_5x5_reduce
I0403 15:35:01.512076 32367 net.cpp:148] Top shape: 24 24 14 14 (112896)
I0403 15:35:01.512091 32367 net.cpp:156] Memory required for data: 1048562976
I0403 15:35:01.512106 32367 layer_factory.hpp:77] Creating layer inception_4c/5x5
I0403 15:35:01.512130 32367 net.cpp:91] Creating Layer inception_4c/5x5
I0403 15:35:01.512147 32367 net.cpp:425] inception_4c/5x5 <- inception_4c/5x5_reduce
I0403 15:35:01.512168 32367 net.cpp:399] inception_4c/5x5 -> inception_4c/5x5
I0403 15:35:01.513465 32367 net.cpp:141] Setting up inception_4c/5x5
I0403 15:35:01.513494 32367 net.cpp:148] Top shape: 24 64 14 14 (301056)
I0403 15:35:01.513509 32367 net.cpp:156] Memory required for data: 1049767200
I0403 15:35:01.513528 32367 layer_factory.hpp:77] Creating layer inception_4c/relu_5x5
I0403 15:35:01.513550 32367 net.cpp:91] Creating Layer inception_4c/relu_5x5
I0403 15:35:01.513566 32367 net.cpp:425] inception_4c/relu_5x5 <- inception_4c/5x5
I0403 15:35:01.513584 32367 net.cpp:386] inception_4c/relu_5x5 -> inception_4c/5x5 (in-place)
I0403 15:35:01.513882 32367 net.cpp:141] Setting up inception_4c/relu_5x5
I0403 15:35:01.513909 32367 net.cpp:148] Top shape: 24 64 14 14 (301056)
I0403 15:35:01.513924 32367 net.cpp:156] Memory required for data: 1050971424
I0403 15:35:01.513939 32367 layer_factory.hpp:77] Creating layer inception_4c/pool
I0403 15:35:01.513960 32367 net.cpp:91] Creating Layer inception_4c/pool
I0403 15:35:01.513978 32367 net.cpp:425] inception_4c/pool <- inception_4b/output_inception_4b/output_0_split_3
I0403 15:35:01.513996 32367 net.cpp:399] inception_4c/pool -> inception_4c/pool
I0403 15:35:01.514065 32367 net.cpp:141] Setting up inception_4c/pool
I0403 15:35:01.514089 32367 net.cpp:148] Top shape: 24 512 14 14 (2408448)
I0403 15:35:01.514104 32367 net.cpp:156] Memory required for data: 1060605216
I0403 15:35:01.514118 32367 layer_factory.hpp:77] Creating layer inception_4c/pool_proj
I0403 15:35:01.514142 32367 net.cpp:91] Creating Layer inception_4c/pool_proj
I0403 15:35:01.514159 32367 net.cpp:425] inception_4c/pool_proj <- inception_4c/pool
I0403 15:35:01.514180 32367 net.cpp:399] inception_4c/pool_proj -> inception_4c/pool_proj
I0403 15:35:01.515475 32367 net.cpp:141] Setting up inception_4c/pool_proj
I0403 15:35:01.515504 32367 net.cpp:148] Top shape: 24 64 14 14 (301056)
I0403 15:35:01.515547 32367 net.cpp:156] Memory required for data: 1061809440
I0403 15:35:01.515566 32367 layer_factory.hpp:77] Creating layer inception_4c/relu_pool_proj
I0403 15:35:01.515586 32367 net.cpp:91] Creating Layer inception_4c/relu_pool_proj
I0403 15:35:01.515602 32367 net.cpp:425] inception_4c/relu_pool_proj <- inception_4c/pool_proj
I0403 15:35:01.515622 32367 net.cpp:386] inception_4c/relu_pool_proj -> inception_4c/pool_proj (in-place)
I0403 15:35:01.515830 32367 net.cpp:141] Setting up inception_4c/relu_pool_proj
I0403 15:35:01.515854 32367 net.cpp:148] Top shape: 24 64 14 14 (301056)
I0403 15:35:01.515869 32367 net.cpp:156] Memory required for data: 1063013664
I0403 15:35:01.515884 32367 layer_factory.hpp:77] Creating layer inception_4c/output
I0403 15:35:01.515903 32367 net.cpp:91] Creating Layer inception_4c/output
I0403 15:35:01.515919 32367 net.cpp:425] inception_4c/output <- inception_4c/1x1
I0403 15:35:01.515936 32367 net.cpp:425] inception_4c/output <- inception_4c/3x3
I0403 15:35:01.515952 32367 net.cpp:425] inception_4c/output <- inception_4c/5x5
I0403 15:35:01.515969 32367 net.cpp:425] inception_4c/output <- inception_4c/pool_proj
I0403 15:35:01.515985 32367 net.cpp:399] inception_4c/output -> inception_4c/output
I0403 15:35:01.516031 32367 net.cpp:141] Setting up inception_4c/output
I0403 15:35:01.516057 32367 net.cpp:148] Top shape: 24 512 14 14 (2408448)
I0403 15:35:01.516072 32367 net.cpp:156] Memory required for data: 1072647456
I0403 15:35:01.516086 32367 layer_factory.hpp:77] Creating layer inception_4c/output_inception_4c/output_0_split
I0403 15:35:01.516103 32367 net.cpp:91] Creating Layer inception_4c/output_inception_4c/output_0_split
I0403 15:35:01.516119 32367 net.cpp:425] inception_4c/output_inception_4c/output_0_split <- inception_4c/output
I0403 15:35:01.516139 32367 net.cpp:399] inception_4c/output_inception_4c/output_0_split -> inception_4c/output_inception_4c/output_0_split_0
I0403 15:35:01.516158 32367 net.cpp:399] inception_4c/output_inception_4c/output_0_split -> inception_4c/output_inception_4c/output_0_split_1
I0403 15:35:01.516178 32367 net.cpp:399] inception_4c/output_inception_4c/output_0_split -> inception_4c/output_inception_4c/output_0_split_2
I0403 15:35:01.516198 32367 net.cpp:399] inception_4c/output_inception_4c/output_0_split -> inception_4c/output_inception_4c/output_0_split_3
I0403 15:35:01.516288 32367 net.cpp:141] Setting up inception_4c/output_inception_4c/output_0_split
I0403 15:35:01.516315 32367 net.cpp:148] Top shape: 24 512 14 14 (2408448)
I0403 15:35:01.516332 32367 net.cpp:148] Top shape: 24 512 14 14 (2408448)
I0403 15:35:01.516348 32367 net.cpp:148] Top shape: 24 512 14 14 (2408448)
I0403 15:35:01.516363 32367 net.cpp:148] Top shape: 24 512 14 14 (2408448)
I0403 15:35:01.516376 32367 net.cpp:156] Memory required for data: 1111182624
I0403 15:35:01.516391 32367 layer_factory.hpp:77] Creating layer inception_4d/1x1
I0403 15:35:01.516413 32367 net.cpp:91] Creating Layer inception_4d/1x1
I0403 15:35:01.516430 32367 net.cpp:425] inception_4d/1x1 <- inception_4c/output_inception_4c/output_0_split_0
I0403 15:35:01.516449 32367 net.cpp:399] inception_4d/1x1 -> inception_4d/1x1
I0403 15:35:01.517850 32367 net.cpp:141] Setting up inception_4d/1x1
I0403 15:35:01.517881 32367 net.cpp:148] Top shape: 24 112 14 14 (526848)
I0403 15:35:01.517897 32367 net.cpp:156] Memory required for data: 1113290016
I0403 15:35:01.517915 32367 layer_factory.hpp:77] Creating layer inception_4d/relu_1x1
I0403 15:35:01.517935 32367 net.cpp:91] Creating Layer inception_4d/relu_1x1
I0403 15:35:01.517951 32367 net.cpp:425] inception_4d/relu_1x1 <- inception_4d/1x1
I0403 15:35:01.517966 32367 net.cpp:386] inception_4d/relu_1x1 -> inception_4d/1x1 (in-place)
I0403 15:35:01.518152 32367 net.cpp:141] Setting up inception_4d/relu_1x1
I0403 15:35:01.518179 32367 net.cpp:148] Top shape: 24 112 14 14 (526848)
I0403 15:35:01.518194 32367 net.cpp:156] Memory required for data: 1115397408
I0403 15:35:01.518209 32367 layer_factory.hpp:77] Creating layer inception_4d/3x3_reduce
I0403 15:35:01.518245 32367 net.cpp:91] Creating Layer inception_4d/3x3_reduce
I0403 15:35:01.518268 32367 net.cpp:425] inception_4d/3x3_reduce <- inception_4c/output_inception_4c/output_0_split_1
I0403 15:35:01.518293 32367 net.cpp:399] inception_4d/3x3_reduce -> inception_4d/3x3_reduce
I0403 15:35:01.519821 32367 net.cpp:141] Setting up inception_4d/3x3_reduce
I0403 15:35:01.519850 32367 net.cpp:148] Top shape: 24 144 14 14 (677376)
I0403 15:35:01.519865 32367 net.cpp:156] Memory required for data: 1118106912
I0403 15:35:01.519882 32367 layer_factory.hpp:77] Creating layer inception_4d/relu_3x3_reduce
I0403 15:35:01.519903 32367 net.cpp:91] Creating Layer inception_4d/relu_3x3_reduce
I0403 15:35:01.519919 32367 net.cpp:425] inception_4d/relu_3x3_reduce <- inception_4d/3x3_reduce
I0403 15:35:01.519937 32367 net.cpp:386] inception_4d/relu_3x3_reduce -> inception_4d/3x3_reduce (in-place)
I0403 15:35:01.520231 32367 net.cpp:141] Setting up inception_4d/relu_3x3_reduce
I0403 15:35:01.520262 32367 net.cpp:148] Top shape: 24 144 14 14 (677376)
I0403 15:35:01.520277 32367 net.cpp:156] Memory required for data: 1120816416
I0403 15:35:01.520292 32367 layer_factory.hpp:77] Creating layer inception_4d/3x3
I0403 15:35:01.520314 32367 net.cpp:91] Creating Layer inception_4d/3x3
I0403 15:35:01.520331 32367 net.cpp:425] inception_4d/3x3 <- inception_4d/3x3_reduce
I0403 15:35:01.520352 32367 net.cpp:399] inception_4d/3x3 -> inception_4d/3x3
I0403 15:35:01.524806 32367 net.cpp:141] Setting up inception_4d/3x3
I0403 15:35:01.524850 32367 net.cpp:148] Top shape: 24 288 14 14 (1354752)
I0403 15:35:01.524868 32367 net.cpp:156] Memory required for data: 1126235424
I0403 15:35:01.524888 32367 layer_factory.hpp:77] Creating layer inception_4d/relu_3x3
I0403 15:35:01.524906 32367 net.cpp:91] Creating Layer inception_4d/relu_3x3
I0403 15:35:01.524922 32367 net.cpp:425] inception_4d/relu_3x3 <- inception_4d/3x3
I0403 15:35:01.524941 32367 net.cpp:386] inception_4d/relu_3x3 -> inception_4d/3x3 (in-place)
I0403 15:35:01.525132 32367 net.cpp:141] Setting up inception_4d/relu_3x3
I0403 15:35:01.525157 32367 net.cpp:148] Top shape: 24 288 14 14 (1354752)
I0403 15:35:01.525171 32367 net.cpp:156] Memory required for data: 1131654432
I0403 15:35:01.525187 32367 layer_factory.hpp:77] Creating layer inception_4d/5x5_reduce
I0403 15:35:01.525208 32367 net.cpp:91] Creating Layer inception_4d/5x5_reduce
I0403 15:35:01.525226 32367 net.cpp:425] inception_4d/5x5_reduce <- inception_4c/output_inception_4c/output_0_split_2
I0403 15:35:01.525249 32367 net.cpp:399] inception_4d/5x5_reduce -> inception_4d/5x5_reduce
I0403 15:35:01.526456 32367 net.cpp:141] Setting up inception_4d/5x5_reduce
I0403 15:35:01.526486 32367 net.cpp:148] Top shape: 24 32 14 14 (150528)
I0403 15:35:01.526502 32367 net.cpp:156] Memory required for data: 1132256544
I0403 15:35:01.526520 32367 layer_factory.hpp:77] Creating layer inception_4d/relu_5x5_reduce
I0403 15:35:01.526538 32367 net.cpp:91] Creating Layer inception_4d/relu_5x5_reduce
I0403 15:35:01.526554 32367 net.cpp:425] inception_4d/relu_5x5_reduce <- inception_4d/5x5_reduce
I0403 15:35:01.526574 32367 net.cpp:386] inception_4d/relu_5x5_reduce -> inception_4d/5x5_reduce (in-place)
I0403 15:35:01.526772 32367 net.cpp:141] Setting up inception_4d/relu_5x5_reduce
I0403 15:35:01.526796 32367 net.cpp:148] Top shape: 24 32 14 14 (150528)
I0403 15:35:01.526811 32367 net.cpp:156] Memory required for data: 1132858656
I0403 15:35:01.526826 32367 layer_factory.hpp:77] Creating layer inception_4d/5x5
I0403 15:35:01.526849 32367 net.cpp:91] Creating Layer inception_4d/5x5
I0403 15:35:01.526865 32367 net.cpp:425] inception_4d/5x5 <- inception_4d/5x5_reduce
I0403 15:35:01.526886 32367 net.cpp:399] inception_4d/5x5 -> inception_4d/5x5
I0403 15:35:01.528380 32367 net.cpp:141] Setting up inception_4d/5x5
I0403 15:35:01.528408 32367 net.cpp:148] Top shape: 24 64 14 14 (301056)
I0403 15:35:01.528424 32367 net.cpp:156] Memory required for data: 1134062880
I0403 15:35:01.528442 32367 layer_factory.hpp:77] Creating layer inception_4d/relu_5x5
I0403 15:35:01.528492 32367 net.cpp:91] Creating Layer inception_4d/relu_5x5
I0403 15:35:01.528511 32367 net.cpp:425] inception_4d/relu_5x5 <- inception_4d/5x5
I0403 15:35:01.528527 32367 net.cpp:386] inception_4d/relu_5x5 -> inception_4d/5x5 (in-place)
I0403 15:35:01.528832 32367 net.cpp:141] Setting up inception_4d/relu_5x5
I0403 15:35:01.528858 32367 net.cpp:148] Top shape: 24 64 14 14 (301056)
I0403 15:35:01.528873 32367 net.cpp:156] Memory required for data: 1135267104
I0403 15:35:01.528888 32367 layer_factory.hpp:77] Creating layer inception_4d/pool
I0403 15:35:01.528906 32367 net.cpp:91] Creating Layer inception_4d/pool
I0403 15:35:01.528923 32367 net.cpp:425] inception_4d/pool <- inception_4c/output_inception_4c/output_0_split_3
I0403 15:35:01.528942 32367 net.cpp:399] inception_4d/pool -> inception_4d/pool
I0403 15:35:01.529011 32367 net.cpp:141] Setting up inception_4d/pool
I0403 15:35:01.529034 32367 net.cpp:148] Top shape: 24 512 14 14 (2408448)
I0403 15:35:01.529048 32367 net.cpp:156] Memory required for data: 1144900896
I0403 15:35:01.529063 32367 layer_factory.hpp:77] Creating layer inception_4d/pool_proj
I0403 15:35:01.529085 32367 net.cpp:91] Creating Layer inception_4d/pool_proj
I0403 15:35:01.529103 32367 net.cpp:425] inception_4d/pool_proj <- inception_4d/pool
I0403 15:35:01.529124 32367 net.cpp:399] inception_4d/pool_proj -> inception_4d/pool_proj
I0403 15:35:01.530972 32367 net.cpp:141] Setting up inception_4d/pool_proj
I0403 15:35:01.531004 32367 net.cpp:148] Top shape: 24 64 14 14 (301056)
I0403 15:35:01.531021 32367 net.cpp:156] Memory required for data: 1146105120
I0403 15:35:01.531040 32367 layer_factory.hpp:77] Creating layer inception_4d/relu_pool_proj
I0403 15:35:01.531059 32367 net.cpp:91] Creating Layer inception_4d/relu_pool_proj
I0403 15:35:01.531075 32367 net.cpp:425] inception_4d/relu_pool_proj <- inception_4d/pool_proj
I0403 15:35:01.531095 32367 net.cpp:386] inception_4d/relu_pool_proj -> inception_4d/pool_proj (in-place)
I0403 15:35:01.531289 32367 net.cpp:141] Setting up inception_4d/relu_pool_proj
I0403 15:35:01.531316 32367 net.cpp:148] Top shape: 24 64 14 14 (301056)
I0403 15:35:01.531330 32367 net.cpp:156] Memory required for data: 1147309344
I0403 15:35:01.531344 32367 layer_factory.hpp:77] Creating layer inception_4d/output
I0403 15:35:01.531363 32367 net.cpp:91] Creating Layer inception_4d/output
I0403 15:35:01.531379 32367 net.cpp:425] inception_4d/output <- inception_4d/1x1
I0403 15:35:01.531397 32367 net.cpp:425] inception_4d/output <- inception_4d/3x3
I0403 15:35:01.531414 32367 net.cpp:425] inception_4d/output <- inception_4d/5x5
I0403 15:35:01.531430 32367 net.cpp:425] inception_4d/output <- inception_4d/pool_proj
I0403 15:35:01.531448 32367 net.cpp:399] inception_4d/output -> inception_4d/output
I0403 15:35:01.531497 32367 net.cpp:141] Setting up inception_4d/output
I0403 15:35:01.531522 32367 net.cpp:148] Top shape: 24 528 14 14 (2483712)
I0403 15:35:01.531538 32367 net.cpp:156] Memory required for data: 1157244192
I0403 15:35:01.531553 32367 layer_factory.hpp:77] Creating layer inception_4d/output_inception_4d/output_0_split
I0403 15:35:01.531574 32367 net.cpp:91] Creating Layer inception_4d/output_inception_4d/output_0_split
I0403 15:35:01.531589 32367 net.cpp:425] inception_4d/output_inception_4d/output_0_split <- inception_4d/output
I0403 15:35:01.531606 32367 net.cpp:399] inception_4d/output_inception_4d/output_0_split -> inception_4d/output_inception_4d/output_0_split_0
I0403 15:35:01.531630 32367 net.cpp:399] inception_4d/output_inception_4d/output_0_split -> inception_4d/output_inception_4d/output_0_split_1
I0403 15:35:01.531651 32367 net.cpp:399] inception_4d/output_inception_4d/output_0_split -> inception_4d/output_inception_4d/output_0_split_2
I0403 15:35:01.531672 32367 net.cpp:399] inception_4d/output_inception_4d/output_0_split -> inception_4d/output_inception_4d/output_0_split_3
I0403 15:35:01.531692 32367 net.cpp:399] inception_4d/output_inception_4d/output_0_split -> inception_4d/output_inception_4d/output_0_split_4
I0403 15:35:01.531796 32367 net.cpp:141] Setting up inception_4d/output_inception_4d/output_0_split
I0403 15:35:01.531833 32367 net.cpp:148] Top shape: 24 528 14 14 (2483712)
I0403 15:35:01.531853 32367 net.cpp:148] Top shape: 24 528 14 14 (2483712)
I0403 15:35:01.531870 32367 net.cpp:148] Top shape: 24 528 14 14 (2483712)
I0403 15:35:01.531886 32367 net.cpp:148] Top shape: 24 528 14 14 (2483712)
I0403 15:35:01.531901 32367 net.cpp:148] Top shape: 24 528 14 14 (2483712)
I0403 15:35:01.531916 32367 net.cpp:156] Memory required for data: 1206918432
I0403 15:35:01.531930 32367 layer_factory.hpp:77] Creating layer loss2/ave_pool
I0403 15:35:01.531949 32367 net.cpp:91] Creating Layer loss2/ave_pool
I0403 15:35:01.531965 32367 net.cpp:425] loss2/ave_pool <- inception_4d/output_inception_4d/output_0_split_0
I0403 15:35:01.531985 32367 net.cpp:399] loss2/ave_pool -> loss2/ave_pool
I0403 15:35:01.532305 32367 net.cpp:141] Setting up loss2/ave_pool
I0403 15:35:01.532335 32367 net.cpp:148] Top shape: 24 528 4 4 (202752)
I0403 15:35:01.532351 32367 net.cpp:156] Memory required for data: 1207729440
I0403 15:35:01.532366 32367 layer_factory.hpp:77] Creating layer loss2/conv
I0403 15:35:01.532388 32367 net.cpp:91] Creating Layer loss2/conv
I0403 15:35:01.532405 32367 net.cpp:425] loss2/conv <- loss2/ave_pool
I0403 15:35:01.532425 32367 net.cpp:399] loss2/conv -> loss2/conv
I0403 15:35:01.534384 32367 net.cpp:141] Setting up loss2/conv
I0403 15:35:01.534415 32367 net.cpp:148] Top shape: 24 128 4 4 (49152)
I0403 15:35:01.534430 32367 net.cpp:156] Memory required for data: 1207926048
I0403 15:35:01.534451 32367 layer_factory.hpp:77] Creating layer loss2/relu_conv
I0403 15:35:01.534468 32367 net.cpp:91] Creating Layer loss2/relu_conv
I0403 15:35:01.534484 32367 net.cpp:425] loss2/relu_conv <- loss2/conv
I0403 15:35:01.534503 32367 net.cpp:386] loss2/relu_conv -> loss2/conv (in-place)
I0403 15:35:01.534796 32367 net.cpp:141] Setting up loss2/relu_conv
I0403 15:35:01.534822 32367 net.cpp:148] Top shape: 24 128 4 4 (49152)
I0403 15:35:01.534837 32367 net.cpp:156] Memory required for data: 1208122656
I0403 15:35:01.534853 32367 layer_factory.hpp:77] Creating layer loss2/fc
I0403 15:35:01.534873 32367 net.cpp:91] Creating Layer loss2/fc
I0403 15:35:01.534888 32367 net.cpp:425] loss2/fc <- loss2/conv
I0403 15:35:01.534909 32367 net.cpp:399] loss2/fc -> loss2/fc
I0403 15:35:01.553179 32367 net.cpp:141] Setting up loss2/fc
I0403 15:35:01.553239 32367 net.cpp:148] Top shape: 24 1024 (24576)
I0403 15:35:01.553258 32367 net.cpp:156] Memory required for data: 1208220960
I0403 15:35:01.553282 32367 layer_factory.hpp:77] Creating layer loss2/relu_fc
I0403 15:35:01.553304 32367 net.cpp:91] Creating Layer loss2/relu_fc
I0403 15:35:01.553323 32367 net.cpp:425] loss2/relu_fc <- loss2/fc
I0403 15:35:01.553341 32367 net.cpp:386] loss2/relu_fc -> loss2/fc (in-place)
I0403 15:35:01.553771 32367 net.cpp:141] Setting up loss2/relu_fc
I0403 15:35:01.553803 32367 net.cpp:148] Top shape: 24 1024 (24576)
I0403 15:35:01.553818 32367 net.cpp:156] Memory required for data: 1208319264
I0403 15:35:01.553833 32367 layer_factory.hpp:77] Creating layer loss2/drop_fc
I0403 15:35:01.553853 32367 net.cpp:91] Creating Layer loss2/drop_fc
I0403 15:35:01.553869 32367 net.cpp:425] loss2/drop_fc <- loss2/fc
I0403 15:35:01.553887 32367 net.cpp:386] loss2/drop_fc -> loss2/fc (in-place)
I0403 15:35:01.553939 32367 net.cpp:141] Setting up loss2/drop_fc
I0403 15:35:01.553962 32367 net.cpp:148] Top shape: 24 1024 (24576)
I0403 15:35:01.553977 32367 net.cpp:156] Memory required for data: 1208417568
I0403 15:35:01.553990 32367 layer_factory.hpp:77] Creating layer loss2/classifier_plantvillage
I0403 15:35:01.554013 32367 net.cpp:91] Creating Layer loss2/classifier_plantvillage
I0403 15:35:01.554029 32367 net.cpp:425] loss2/classifier_plantvillage <- loss2/fc
I0403 15:35:01.554051 32367 net.cpp:399] loss2/classifier_plantvillage -> loss2/classifier_plantvillage
I0403 15:35:01.554479 32367 net.cpp:141] Setting up loss2/classifier_plantvillage
I0403 15:35:01.554505 32367 net.cpp:148] Top shape: 24 38 (912)
I0403 15:35:01.554533 32367 net.cpp:156] Memory required for data: 1208421216
I0403 15:35:01.554576 32367 layer_factory.hpp:77] Creating layer loss2/classifier_plantvillage_loss2/classifier_plantvillage_0_split
I0403 15:35:01.554596 32367 net.cpp:91] Creating Layer loss2/classifier_plantvillage_loss2/classifier_plantvillage_0_split
I0403 15:35:01.554613 32367 net.cpp:425] loss2/classifier_plantvillage_loss2/classifier_plantvillage_0_split <- loss2/classifier_plantvillage
I0403 15:35:01.554635 32367 net.cpp:399] loss2/classifier_plantvillage_loss2/classifier_plantvillage_0_split -> loss2/classifier_plantvillage_loss2/classifier_plantvillage_0_split_0
I0403 15:35:01.554656 32367 net.cpp:399] loss2/classifier_plantvillage_loss2/classifier_plantvillage_0_split -> loss2/classifier_plantvillage_loss2/classifier_plantvillage_0_split_1
I0403 15:35:01.554677 32367 net.cpp:399] loss2/classifier_plantvillage_loss2/classifier_plantvillage_0_split -> loss2/classifier_plantvillage_loss2/classifier_plantvillage_0_split_2
I0403 15:35:01.554759 32367 net.cpp:141] Setting up loss2/classifier_plantvillage_loss2/classifier_plantvillage_0_split
I0403 15:35:01.554782 32367 net.cpp:148] Top shape: 24 38 (912)
I0403 15:35:01.554800 32367 net.cpp:148] Top shape: 24 38 (912)
I0403 15:35:01.554827 32367 net.cpp:148] Top shape: 24 38 (912)
I0403 15:35:01.554841 32367 net.cpp:156] Memory required for data: 1208432160
I0403 15:35:01.554857 32367 layer_factory.hpp:77] Creating layer inception_4e/1x1
I0403 15:35:01.554882 32367 net.cpp:91] Creating Layer inception_4e/1x1
I0403 15:35:01.554899 32367 net.cpp:425] inception_4e/1x1 <- inception_4d/output_inception_4d/output_0_split_1
I0403 15:35:01.554919 32367 net.cpp:399] inception_4e/1x1 -> inception_4e/1x1
I0403 15:35:01.556812 32367 net.cpp:141] Setting up inception_4e/1x1
I0403 15:35:01.556839 32367 net.cpp:148] Top shape: 24 256 14 14 (1204224)
I0403 15:35:01.556855 32367 net.cpp:156] Memory required for data: 1213249056
I0403 15:35:01.556872 32367 layer_factory.hpp:77] Creating layer inception_4e/relu_1x1
I0403 15:35:01.556893 32367 net.cpp:91] Creating Layer inception_4e/relu_1x1
I0403 15:35:01.556910 32367 net.cpp:425] inception_4e/relu_1x1 <- inception_4e/1x1
I0403 15:35:01.556927 32367 net.cpp:386] inception_4e/relu_1x1 -> inception_4e/1x1 (in-place)
I0403 15:35:01.557227 32367 net.cpp:141] Setting up inception_4e/relu_1x1
I0403 15:35:01.557260 32367 net.cpp:148] Top shape: 24 256 14 14 (1204224)
I0403 15:35:01.557276 32367 net.cpp:156] Memory required for data: 1218065952
I0403 15:35:01.557291 32367 layer_factory.hpp:77] Creating layer inception_4e/3x3_reduce
I0403 15:35:01.557312 32367 net.cpp:91] Creating Layer inception_4e/3x3_reduce
I0403 15:35:01.557330 32367 net.cpp:425] inception_4e/3x3_reduce <- inception_4d/output_inception_4d/output_0_split_2
I0403 15:35:01.557351 32367 net.cpp:399] inception_4e/3x3_reduce -> inception_4e/3x3_reduce
I0403 15:35:01.559538 32367 net.cpp:141] Setting up inception_4e/3x3_reduce
I0403 15:35:01.559567 32367 net.cpp:148] Top shape: 24 160 14 14 (752640)
I0403 15:35:01.559583 32367 net.cpp:156] Memory required for data: 1221076512
I0403 15:35:01.559602 32367 layer_factory.hpp:77] Creating layer inception_4e/relu_3x3_reduce
I0403 15:35:01.559620 32367 net.cpp:91] Creating Layer inception_4e/relu_3x3_reduce
I0403 15:35:01.559636 32367 net.cpp:425] inception_4e/relu_3x3_reduce <- inception_4e/3x3_reduce
I0403 15:35:01.559656 32367 net.cpp:386] inception_4e/relu_3x3_reduce -> inception_4e/3x3_reduce (in-place)
I0403 15:35:01.559857 32367 net.cpp:141] Setting up inception_4e/relu_3x3_reduce
I0403 15:35:01.559881 32367 net.cpp:148] Top shape: 24 160 14 14 (752640)
I0403 15:35:01.559895 32367 net.cpp:156] Memory required for data: 1224087072
I0403 15:35:01.559911 32367 layer_factory.hpp:77] Creating layer inception_4e/3x3
I0403 15:35:01.559932 32367 net.cpp:91] Creating Layer inception_4e/3x3
I0403 15:35:01.559949 32367 net.cpp:425] inception_4e/3x3 <- inception_4e/3x3_reduce
I0403 15:35:01.559969 32367 net.cpp:399] inception_4e/3x3 -> inception_4e/3x3
I0403 15:35:01.564921 32367 net.cpp:141] Setting up inception_4e/3x3
I0403 15:35:01.564961 32367 net.cpp:148] Top shape: 24 320 14 14 (1505280)
I0403 15:35:01.564978 32367 net.cpp:156] Memory required for data: 1230108192
I0403 15:35:01.564996 32367 layer_factory.hpp:77] Creating layer inception_4e/relu_3x3
I0403 15:35:01.565016 32367 net.cpp:91] Creating Layer inception_4e/relu_3x3
I0403 15:35:01.565033 32367 net.cpp:425] inception_4e/relu_3x3 <- inception_4e/3x3
I0403 15:35:01.565050 32367 net.cpp:386] inception_4e/relu_3x3 -> inception_4e/3x3 (in-place)
I0403 15:35:01.565351 32367 net.cpp:141] Setting up inception_4e/relu_3x3
I0403 15:35:01.565379 32367 net.cpp:148] Top shape: 24 320 14 14 (1505280)
I0403 15:35:01.565395 32367 net.cpp:156] Memory required for data: 1236129312
I0403 15:35:01.565410 32367 layer_factory.hpp:77] Creating layer inception_4e/5x5_reduce
I0403 15:35:01.565433 32367 net.cpp:91] Creating Layer inception_4e/5x5_reduce
I0403 15:35:01.565450 32367 net.cpp:425] inception_4e/5x5_reduce <- inception_4d/output_inception_4d/output_0_split_3
I0403 15:35:01.565469 32367 net.cpp:399] inception_4e/5x5_reduce -> inception_4e/5x5_reduce
I0403 15:35:01.566539 32367 net.cpp:141] Setting up inception_4e/5x5_reduce
I0403 15:35:01.566565 32367 net.cpp:148] Top shape: 24 32 14 14 (150528)
I0403 15:35:01.566581 32367 net.cpp:156] Memory required for data: 1236731424
I0403 15:35:01.566598 32367 layer_factory.hpp:77] Creating layer inception_4e/relu_5x5_reduce
I0403 15:35:01.566619 32367 net.cpp:91] Creating Layer inception_4e/relu_5x5_reduce
I0403 15:35:01.566635 32367 net.cpp:425] inception_4e/relu_5x5_reduce <- inception_4e/5x5_reduce
I0403 15:35:01.566653 32367 net.cpp:386] inception_4e/relu_5x5_reduce -> inception_4e/5x5_reduce (in-place)
I0403 15:35:01.566951 32367 net.cpp:141] Setting up inception_4e/relu_5x5_reduce
I0403 15:35:01.566977 32367 net.cpp:148] Top shape: 24 32 14 14 (150528)
I0403 15:35:01.566992 32367 net.cpp:156] Memory required for data: 1237333536
I0403 15:35:01.567005 32367 layer_factory.hpp:77] Creating layer inception_4e/5x5
I0403 15:35:01.567044 32367 net.cpp:91] Creating Layer inception_4e/5x5
I0403 15:35:01.567064 32367 net.cpp:425] inception_4e/5x5 <- inception_4e/5x5_reduce
I0403 15:35:01.567081 32367 net.cpp:399] inception_4e/5x5 -> inception_4e/5x5
I0403 15:35:01.568892 32367 net.cpp:141] Setting up inception_4e/5x5
I0403 15:35:01.568922 32367 net.cpp:148] Top shape: 24 128 14 14 (602112)
I0403 15:35:01.568938 32367 net.cpp:156] Memory required for data: 1239741984
I0403 15:35:01.568956 32367 layer_factory.hpp:77] Creating layer inception_4e/relu_5x5
I0403 15:35:01.568974 32367 net.cpp:91] Creating Layer inception_4e/relu_5x5
I0403 15:35:01.568989 32367 net.cpp:425] inception_4e/relu_5x5 <- inception_4e/5x5
I0403 15:35:01.569010 32367 net.cpp:386] inception_4e/relu_5x5 -> inception_4e/5x5 (in-place)
I0403 15:35:01.569202 32367 net.cpp:141] Setting up inception_4e/relu_5x5
I0403 15:35:01.569226 32367 net.cpp:148] Top shape: 24 128 14 14 (602112)
I0403 15:35:01.569241 32367 net.cpp:156] Memory required for data: 1242150432
I0403 15:35:01.569258 32367 layer_factory.hpp:77] Creating layer inception_4e/pool
I0403 15:35:01.569278 32367 net.cpp:91] Creating Layer inception_4e/pool
I0403 15:35:01.569294 32367 net.cpp:425] inception_4e/pool <- inception_4d/output_inception_4d/output_0_split_4
I0403 15:35:01.569314 32367 net.cpp:399] inception_4e/pool -> inception_4e/pool
I0403 15:35:01.569383 32367 net.cpp:141] Setting up inception_4e/pool
I0403 15:35:01.569406 32367 net.cpp:148] Top shape: 24 528 14 14 (2483712)
I0403 15:35:01.569421 32367 net.cpp:156] Memory required for data: 1252085280
I0403 15:35:01.569433 32367 layer_factory.hpp:77] Creating layer inception_4e/pool_proj
I0403 15:35:01.569458 32367 net.cpp:91] Creating Layer inception_4e/pool_proj
I0403 15:35:01.569474 32367 net.cpp:425] inception_4e/pool_proj <- inception_4e/pool
I0403 15:35:01.569491 32367 net.cpp:399] inception_4e/pool_proj -> inception_4e/pool_proj
I0403 15:35:01.570996 32367 net.cpp:141] Setting up inception_4e/pool_proj
I0403 15:35:01.571025 32367 net.cpp:148] Top shape: 24 128 14 14 (602112)
I0403 15:35:01.571054 32367 net.cpp:156] Memory required for data: 1254493728
I0403 15:35:01.571074 32367 layer_factory.hpp:77] Creating layer inception_4e/relu_pool_proj
I0403 15:35:01.571091 32367 net.cpp:91] Creating Layer inception_4e/relu_pool_proj
I0403 15:35:01.571107 32367 net.cpp:425] inception_4e/relu_pool_proj <- inception_4e/pool_proj
I0403 15:35:01.571126 32367 net.cpp:386] inception_4e/relu_pool_proj -> inception_4e/pool_proj (in-place)
I0403 15:35:01.571418 32367 net.cpp:141] Setting up inception_4e/relu_pool_proj
I0403 15:35:01.571444 32367 net.cpp:148] Top shape: 24 128 14 14 (602112)
I0403 15:35:01.571460 32367 net.cpp:156] Memory required for data: 1256902176
I0403 15:35:01.571475 32367 layer_factory.hpp:77] Creating layer inception_4e/output
I0403 15:35:01.571493 32367 net.cpp:91] Creating Layer inception_4e/output
I0403 15:35:01.571508 32367 net.cpp:425] inception_4e/output <- inception_4e/1x1
I0403 15:35:01.571524 32367 net.cpp:425] inception_4e/output <- inception_4e/3x3
I0403 15:35:01.571539 32367 net.cpp:425] inception_4e/output <- inception_4e/5x5
I0403 15:35:01.571555 32367 net.cpp:425] inception_4e/output <- inception_4e/pool_proj
I0403 15:35:01.571571 32367 net.cpp:399] inception_4e/output -> inception_4e/output
I0403 15:35:01.571622 32367 net.cpp:141] Setting up inception_4e/output
I0403 15:35:01.571645 32367 net.cpp:148] Top shape: 24 832 14 14 (3913728)
I0403 15:35:01.571658 32367 net.cpp:156] Memory required for data: 1272557088
I0403 15:35:01.571672 32367 layer_factory.hpp:77] Creating layer pool4/3x3_s2
I0403 15:35:01.571692 32367 net.cpp:91] Creating Layer pool4/3x3_s2
I0403 15:35:01.571709 32367 net.cpp:425] pool4/3x3_s2 <- inception_4e/output
I0403 15:35:01.571727 32367 net.cpp:399] pool4/3x3_s2 -> pool4/3x3_s2
I0403 15:35:01.571797 32367 net.cpp:141] Setting up pool4/3x3_s2
I0403 15:35:01.571820 32367 net.cpp:148] Top shape: 24 832 7 7 (978432)
I0403 15:35:01.571835 32367 net.cpp:156] Memory required for data: 1276470816
I0403 15:35:01.571848 32367 layer_factory.hpp:77] Creating layer pool4/3x3_s2_pool4/3x3_s2_0_split
I0403 15:35:01.571864 32367 net.cpp:91] Creating Layer pool4/3x3_s2_pool4/3x3_s2_0_split
I0403 15:35:01.571879 32367 net.cpp:425] pool4/3x3_s2_pool4/3x3_s2_0_split <- pool4/3x3_s2
I0403 15:35:01.571898 32367 net.cpp:399] pool4/3x3_s2_pool4/3x3_s2_0_split -> pool4/3x3_s2_pool4/3x3_s2_0_split_0
I0403 15:35:01.571918 32367 net.cpp:399] pool4/3x3_s2_pool4/3x3_s2_0_split -> pool4/3x3_s2_pool4/3x3_s2_0_split_1
I0403 15:35:01.571938 32367 net.cpp:399] pool4/3x3_s2_pool4/3x3_s2_0_split -> pool4/3x3_s2_pool4/3x3_s2_0_split_2
I0403 15:35:01.571957 32367 net.cpp:399] pool4/3x3_s2_pool4/3x3_s2_0_split -> pool4/3x3_s2_pool4/3x3_s2_0_split_3
I0403 15:35:01.572042 32367 net.cpp:141] Setting up pool4/3x3_s2_pool4/3x3_s2_0_split
I0403 15:35:01.572067 32367 net.cpp:148] Top shape: 24 832 7 7 (978432)
I0403 15:35:01.572082 32367 net.cpp:148] Top shape: 24 832 7 7 (978432)
I0403 15:35:01.572096 32367 net.cpp:148] Top shape: 24 832 7 7 (978432)
I0403 15:35:01.572111 32367 net.cpp:148] Top shape: 24 832 7 7 (978432)
I0403 15:35:01.572124 32367 net.cpp:156] Memory required for data: 1292125728
I0403 15:35:01.572139 32367 layer_factory.hpp:77] Creating layer inception_5a/1x1
I0403 15:35:01.572160 32367 net.cpp:91] Creating Layer inception_5a/1x1
I0403 15:35:01.572178 32367 net.cpp:425] inception_5a/1x1 <- pool4/3x3_s2_pool4/3x3_s2_0_split_0
I0403 15:35:01.572198 32367 net.cpp:399] inception_5a/1x1 -> inception_5a/1x1
I0403 15:35:01.575040 32367 net.cpp:141] Setting up inception_5a/1x1
I0403 15:35:01.575069 32367 net.cpp:148] Top shape: 24 256 7 7 (301056)
I0403 15:35:01.575084 32367 net.cpp:156] Memory required for data: 1293329952
I0403 15:35:01.575103 32367 layer_factory.hpp:77] Creating layer inception_5a/relu_1x1
I0403 15:35:01.575120 32367 net.cpp:91] Creating Layer inception_5a/relu_1x1
I0403 15:35:01.575135 32367 net.cpp:425] inception_5a/relu_1x1 <- inception_5a/1x1
I0403 15:35:01.575155 32367 net.cpp:386] inception_5a/relu_1x1 -> inception_5a/1x1 (in-place)
I0403 15:35:01.575466 32367 net.cpp:141] Setting up inception_5a/relu_1x1
I0403 15:35:01.575492 32367 net.cpp:148] Top shape: 24 256 7 7 (301056)
I0403 15:35:01.575506 32367 net.cpp:156] Memory required for data: 1294534176
I0403 15:35:01.575521 32367 layer_factory.hpp:77] Creating layer inception_5a/3x3_reduce
I0403 15:35:01.575543 32367 net.cpp:91] Creating Layer inception_5a/3x3_reduce
I0403 15:35:01.575561 32367 net.cpp:425] inception_5a/3x3_reduce <- pool4/3x3_s2_pool4/3x3_s2_0_split_1
I0403 15:35:01.575582 32367 net.cpp:399] inception_5a/3x3_reduce -> inception_5a/3x3_reduce
I0403 15:35:01.577996 32367 net.cpp:141] Setting up inception_5a/3x3_reduce
I0403 15:35:01.578027 32367 net.cpp:148] Top shape: 24 160 7 7 (188160)
I0403 15:35:01.578042 32367 net.cpp:156] Memory required for data: 1295286816
I0403 15:35:01.578060 32367 layer_factory.hpp:77] Creating layer inception_5a/relu_3x3_reduce
I0403 15:35:01.578080 32367 net.cpp:91] Creating Layer inception_5a/relu_3x3_reduce
I0403 15:35:01.578096 32367 net.cpp:425] inception_5a/relu_3x3_reduce <- inception_5a/3x3_reduce
I0403 15:35:01.578114 32367 net.cpp:386] inception_5a/relu_3x3_reduce -> inception_5a/3x3_reduce (in-place)
I0403 15:35:01.578305 32367 net.cpp:141] Setting up inception_5a/relu_3x3_reduce
I0403 15:35:01.578330 32367 net.cpp:148] Top shape: 24 160 7 7 (188160)
I0403 15:35:01.578343 32367 net.cpp:156] Memory required for data: 1296039456
I0403 15:35:01.578357 32367 layer_factory.hpp:77] Creating layer inception_5a/3x3
I0403 15:35:01.578380 32367 net.cpp:91] Creating Layer inception_5a/3x3
I0403 15:35:01.578398 32367 net.cpp:425] inception_5a/3x3 <- inception_5a/3x3_reduce
I0403 15:35:01.578419 32367 net.cpp:399] inception_5a/3x3 -> inception_5a/3x3
I0403 15:35:01.583392 32367 net.cpp:141] Setting up inception_5a/3x3
I0403 15:35:01.583423 32367 net.cpp:148] Top shape: 24 320 7 7 (376320)
I0403 15:35:01.583441 32367 net.cpp:156] Memory required for data: 1297544736
I0403 15:35:01.583458 32367 layer_factory.hpp:77] Creating layer inception_5a/relu_3x3
I0403 15:35:01.583477 32367 net.cpp:91] Creating Layer inception_5a/relu_3x3
I0403 15:35:01.583492 32367 net.cpp:425] inception_5a/relu_3x3 <- inception_5a/3x3
I0403 15:35:01.583511 32367 net.cpp:386] inception_5a/relu_3x3 -> inception_5a/3x3 (in-place)
I0403 15:35:01.583799 32367 net.cpp:141] Setting up inception_5a/relu_3x3
I0403 15:35:01.583827 32367 net.cpp:148] Top shape: 24 320 7 7 (376320)
I0403 15:35:01.583842 32367 net.cpp:156] Memory required for data: 1299050016
I0403 15:35:01.583856 32367 layer_factory.hpp:77] Creating layer inception_5a/5x5_reduce
I0403 15:35:01.583879 32367 net.cpp:91] Creating Layer inception_5a/5x5_reduce
I0403 15:35:01.583896 32367 net.cpp:425] inception_5a/5x5_reduce <- pool4/3x3_s2_pool4/3x3_s2_0_split_2
I0403 15:35:01.583917 32367 net.cpp:399] inception_5a/5x5_reduce -> inception_5a/5x5_reduce
I0403 15:35:01.585116 32367 net.cpp:141] Setting up inception_5a/5x5_reduce
I0403 15:35:01.585144 32367 net.cpp:148] Top shape: 24 32 7 7 (37632)
I0403 15:35:01.585160 32367 net.cpp:156] Memory required for data: 1299200544
I0403 15:35:01.585177 32367 layer_factory.hpp:77] Creating layer inception_5a/relu_5x5_reduce
I0403 15:35:01.585196 32367 net.cpp:91] Creating Layer inception_5a/relu_5x5_reduce
I0403 15:35:01.585211 32367 net.cpp:425] inception_5a/relu_5x5_reduce <- inception_5a/5x5_reduce
I0403 15:35:01.585229 32367 net.cpp:386] inception_5a/relu_5x5_reduce -> inception_5a/5x5_reduce (in-place)
I0403 15:35:01.585530 32367 net.cpp:141] Setting up inception_5a/relu_5x5_reduce
I0403 15:35:01.585554 32367 net.cpp:148] Top shape: 24 32 7 7 (37632)
I0403 15:35:01.585569 32367 net.cpp:156] Memory required for data: 1299351072
I0403 15:35:01.585584 32367 layer_factory.hpp:77] Creating layer inception_5a/5x5
I0403 15:35:01.585609 32367 net.cpp:91] Creating Layer inception_5a/5x5
I0403 15:35:01.585626 32367 net.cpp:425] inception_5a/5x5 <- inception_5a/5x5_reduce
I0403 15:35:01.585646 32367 net.cpp:399] inception_5a/5x5 -> inception_5a/5x5
I0403 15:35:01.587339 32367 net.cpp:141] Setting up inception_5a/5x5
I0403 15:35:01.587380 32367 net.cpp:148] Top shape: 24 128 7 7 (150528)
I0403 15:35:01.587398 32367 net.cpp:156] Memory required for data: 1299953184
I0403 15:35:01.587415 32367 layer_factory.hpp:77] Creating layer inception_5a/relu_5x5
I0403 15:35:01.587432 32367 net.cpp:91] Creating Layer inception_5a/relu_5x5
I0403 15:35:01.587448 32367 net.cpp:425] inception_5a/relu_5x5 <- inception_5a/5x5
I0403 15:35:01.587467 32367 net.cpp:386] inception_5a/relu_5x5 -> inception_5a/5x5 (in-place)
I0403 15:35:01.587658 32367 net.cpp:141] Setting up inception_5a/relu_5x5
I0403 15:35:01.587682 32367 net.cpp:148] Top shape: 24 128 7 7 (150528)
I0403 15:35:01.587697 32367 net.cpp:156] Memory required for data: 1300555296
I0403 15:35:01.587710 32367 layer_factory.hpp:77] Creating layer inception_5a/pool
I0403 15:35:01.587728 32367 net.cpp:91] Creating Layer inception_5a/pool
I0403 15:35:01.587743 32367 net.cpp:425] inception_5a/pool <- pool4/3x3_s2_pool4/3x3_s2_0_split_3
I0403 15:35:01.587761 32367 net.cpp:399] inception_5a/pool -> inception_5a/pool
I0403 15:35:01.587833 32367 net.cpp:141] Setting up inception_5a/pool
I0403 15:35:01.587855 32367 net.cpp:148] Top shape: 24 832 7 7 (978432)
I0403 15:35:01.587869 32367 net.cpp:156] Memory required for data: 1304469024
I0403 15:35:01.587882 32367 layer_factory.hpp:77] Creating layer inception_5a/pool_proj
I0403 15:35:01.587904 32367 net.cpp:91] Creating Layer inception_5a/pool_proj
I0403 15:35:01.587920 32367 net.cpp:425] inception_5a/pool_proj <- inception_5a/pool
I0403 15:35:01.587940 32367 net.cpp:399] inception_5a/pool_proj -> inception_5a/pool_proj
I0403 15:35:01.590201 32367 net.cpp:141] Setting up inception_5a/pool_proj
I0403 15:35:01.590234 32367 net.cpp:148] Top shape: 24 128 7 7 (150528)
I0403 15:35:01.590250 32367 net.cpp:156] Memory required for data: 1305071136
I0403 15:35:01.590272 32367 layer_factory.hpp:77] Creating layer inception_5a/relu_pool_proj
I0403 15:35:01.590291 32367 net.cpp:91] Creating Layer inception_5a/relu_pool_proj
I0403 15:35:01.590306 32367 net.cpp:425] inception_5a/relu_pool_proj <- inception_5a/pool_proj
I0403 15:35:01.590323 32367 net.cpp:386] inception_5a/relu_pool_proj -> inception_5a/pool_proj (in-place)
I0403 15:35:01.590618 32367 net.cpp:141] Setting up inception_5a/relu_pool_proj
I0403 15:35:01.590646 32367 net.cpp:148] Top shape: 24 128 7 7 (150528)
I0403 15:35:01.590662 32367 net.cpp:156] Memory required for data: 1305673248
I0403 15:35:01.590677 32367 layer_factory.hpp:77] Creating layer inception_5a/output
I0403 15:35:01.590692 32367 net.cpp:91] Creating Layer inception_5a/output
I0403 15:35:01.590708 32367 net.cpp:425] inception_5a/output <- inception_5a/1x1
I0403 15:35:01.590724 32367 net.cpp:425] inception_5a/output <- inception_5a/3x3
I0403 15:35:01.590740 32367 net.cpp:425] inception_5a/output <- inception_5a/5x5
I0403 15:35:01.590755 32367 net.cpp:425] inception_5a/output <- inception_5a/pool_proj
I0403 15:35:01.590771 32367 net.cpp:399] inception_5a/output -> inception_5a/output
I0403 15:35:01.590822 32367 net.cpp:141] Setting up inception_5a/output
I0403 15:35:01.590844 32367 net.cpp:148] Top shape: 24 832 7 7 (978432)
I0403 15:35:01.590858 32367 net.cpp:156] Memory required for data: 1309586976
I0403 15:35:01.590873 32367 layer_factory.hpp:77] Creating layer inception_5a/output_inception_5a/output_0_split
I0403 15:35:01.590891 32367 net.cpp:91] Creating Layer inception_5a/output_inception_5a/output_0_split
I0403 15:35:01.590906 32367 net.cpp:425] inception_5a/output_inception_5a/output_0_split <- inception_5a/output
I0403 15:35:01.590924 32367 net.cpp:399] inception_5a/output_inception_5a/output_0_split -> inception_5a/output_inception_5a/output_0_split_0
I0403 15:35:01.590942 32367 net.cpp:399] inception_5a/output_inception_5a/output_0_split -> inception_5a/output_inception_5a/output_0_split_1
I0403 15:35:01.590962 32367 net.cpp:399] inception_5a/output_inception_5a/output_0_split -> inception_5a/output_inception_5a/output_0_split_2
I0403 15:35:01.590982 32367 net.cpp:399] inception_5a/output_inception_5a/output_0_split -> inception_5a/output_inception_5a/output_0_split_3
I0403 15:35:01.591092 32367 net.cpp:141] Setting up inception_5a/output_inception_5a/output_0_split
I0403 15:35:01.591115 32367 net.cpp:148] Top shape: 24 832 7 7 (978432)
I0403 15:35:01.591131 32367 net.cpp:148] Top shape: 24 832 7 7 (978432)
I0403 15:35:01.591146 32367 net.cpp:148] Top shape: 24 832 7 7 (978432)
I0403 15:35:01.591162 32367 net.cpp:148] Top shape: 24 832 7 7 (978432)
I0403 15:35:01.591176 32367 net.cpp:156] Memory required for data: 1325241888
I0403 15:35:01.591190 32367 layer_factory.hpp:77] Creating layer inception_5b/1x1
I0403 15:35:01.591212 32367 net.cpp:91] Creating Layer inception_5b/1x1
I0403 15:35:01.591229 32367 net.cpp:425] inception_5b/1x1 <- inception_5a/output_inception_5a/output_0_split_0
I0403 15:35:01.591249 32367 net.cpp:399] inception_5b/1x1 -> inception_5b/1x1
I0403 15:35:01.595008 32367 net.cpp:141] Setting up inception_5b/1x1
I0403 15:35:01.595038 32367 net.cpp:148] Top shape: 24 384 7 7 (451584)
I0403 15:35:01.595054 32367 net.cpp:156] Memory required for data: 1327048224
I0403 15:35:01.595073 32367 layer_factory.hpp:77] Creating layer inception_5b/relu_1x1
I0403 15:35:01.595093 32367 net.cpp:91] Creating Layer inception_5b/relu_1x1
I0403 15:35:01.595110 32367 net.cpp:425] inception_5b/relu_1x1 <- inception_5b/1x1
I0403 15:35:01.595129 32367 net.cpp:386] inception_5b/relu_1x1 -> inception_5b/1x1 (in-place)
I0403 15:35:01.595437 32367 net.cpp:141] Setting up inception_5b/relu_1x1
I0403 15:35:01.595461 32367 net.cpp:148] Top shape: 24 384 7 7 (451584)
I0403 15:35:01.595475 32367 net.cpp:156] Memory required for data: 1328854560
I0403 15:35:01.595491 32367 layer_factory.hpp:77] Creating layer inception_5b/3x3_reduce
I0403 15:35:01.595515 32367 net.cpp:91] Creating Layer inception_5b/3x3_reduce
I0403 15:35:01.595533 32367 net.cpp:425] inception_5b/3x3_reduce <- inception_5a/output_inception_5a/output_0_split_1
I0403 15:35:01.595552 32367 net.cpp:399] inception_5b/3x3_reduce -> inception_5b/3x3_reduce
I0403 15:35:01.598206 32367 net.cpp:141] Setting up inception_5b/3x3_reduce
I0403 15:35:01.598237 32367 net.cpp:148] Top shape: 24 192 7 7 (225792)
I0403 15:35:01.598258 32367 net.cpp:156] Memory required for data: 1329757728
I0403 15:35:01.598276 32367 layer_factory.hpp:77] Creating layer inception_5b/relu_3x3_reduce
I0403 15:35:01.598295 32367 net.cpp:91] Creating Layer inception_5b/relu_3x3_reduce
I0403 15:35:01.598311 32367 net.cpp:425] inception_5b/relu_3x3_reduce <- inception_5b/3x3_reduce
I0403 15:35:01.598327 32367 net.cpp:386] inception_5b/relu_3x3_reduce -> inception_5b/3x3_reduce (in-place)
I0403 15:35:01.598520 32367 net.cpp:141] Setting up inception_5b/relu_3x3_reduce
I0403 15:35:01.598544 32367 net.cpp:148] Top shape: 24 192 7 7 (225792)
I0403 15:35:01.598559 32367 net.cpp:156] Memory required for data: 1330660896
I0403 15:35:01.598575 32367 layer_factory.hpp:77] Creating layer inception_5b/3x3
I0403 15:35:01.598597 32367 net.cpp:91] Creating Layer inception_5b/3x3
I0403 15:35:01.598613 32367 net.cpp:425] inception_5b/3x3 <- inception_5b/3x3_reduce
I0403 15:35:01.598635 32367 net.cpp:399] inception_5b/3x3 -> inception_5b/3x3
I0403 15:35:01.605237 32367 net.cpp:141] Setting up inception_5b/3x3
I0403 15:35:01.605271 32367 net.cpp:148] Top shape: 24 384 7 7 (451584)
I0403 15:35:01.605289 32367 net.cpp:156] Memory required for data: 1332467232
I0403 15:35:01.605307 32367 layer_factory.hpp:77] Creating layer inception_5b/relu_3x3
I0403 15:35:01.605325 32367 net.cpp:91] Creating Layer inception_5b/relu_3x3
I0403 15:35:01.605341 32367 net.cpp:425] inception_5b/relu_3x3 <- inception_5b/3x3
I0403 15:35:01.605358 32367 net.cpp:386] inception_5b/relu_3x3 -> inception_5b/3x3 (in-place)
I0403 15:35:01.605654 32367 net.cpp:141] Setting up inception_5b/relu_3x3
I0403 15:35:01.605684 32367 net.cpp:148] Top shape: 24 384 7 7 (451584)
I0403 15:35:01.605700 32367 net.cpp:156] Memory required for data: 1334273568
I0403 15:35:01.605715 32367 layer_factory.hpp:77] Creating layer inception_5b/5x5_reduce
I0403 15:35:01.605751 32367 net.cpp:91] Creating Layer inception_5b/5x5_reduce
I0403 15:35:01.605769 32367 net.cpp:425] inception_5b/5x5_reduce <- inception_5a/output_inception_5a/output_0_split_2
I0403 15:35:01.605787 32367 net.cpp:399] inception_5b/5x5_reduce -> inception_5b/5x5_reduce
I0403 15:35:01.607053 32367 net.cpp:141] Setting up inception_5b/5x5_reduce
I0403 15:35:01.607081 32367 net.cpp:148] Top shape: 24 48 7 7 (56448)
I0403 15:35:01.607097 32367 net.cpp:156] Memory required for data: 1334499360
I0403 15:35:01.607115 32367 layer_factory.hpp:77] Creating layer inception_5b/relu_5x5_reduce
I0403 15:35:01.607132 32367 net.cpp:91] Creating Layer inception_5b/relu_5x5_reduce
I0403 15:35:01.607149 32367 net.cpp:425] inception_5b/relu_5x5_reduce <- inception_5b/5x5_reduce
I0403 15:35:01.607168 32367 net.cpp:386] inception_5b/relu_5x5_reduce -> inception_5b/5x5_reduce (in-place)
I0403 15:35:01.607542 32367 net.cpp:141] Setting up inception_5b/relu_5x5_reduce
I0403 15:35:01.607568 32367 net.cpp:148] Top shape: 24 48 7 7 (56448)
I0403 15:35:01.607583 32367 net.cpp:156] Memory required for data: 1334725152
I0403 15:35:01.607596 32367 layer_factory.hpp:77] Creating layer inception_5b/5x5
I0403 15:35:01.607616 32367 net.cpp:91] Creating Layer inception_5b/5x5
I0403 15:35:01.607633 32367 net.cpp:425] inception_5b/5x5 <- inception_5b/5x5_reduce
I0403 15:35:01.607652 32367 net.cpp:399] inception_5b/5x5 -> inception_5b/5x5
I0403 15:35:01.609761 32367 net.cpp:141] Setting up inception_5b/5x5
I0403 15:35:01.609791 32367 net.cpp:148] Top shape: 24 128 7 7 (150528)
I0403 15:35:01.609817 32367 net.cpp:156] Memory required for data: 1335327264
I0403 15:35:01.609835 32367 layer_factory.hpp:77] Creating layer inception_5b/relu_5x5
I0403 15:35:01.609853 32367 net.cpp:91] Creating Layer inception_5b/relu_5x5
I0403 15:35:01.609869 32367 net.cpp:425] inception_5b/relu_5x5 <- inception_5b/5x5
I0403 15:35:01.609889 32367 net.cpp:386] inception_5b/relu_5x5 -> inception_5b/5x5 (in-place)
I0403 15:35:01.610082 32367 net.cpp:141] Setting up inception_5b/relu_5x5
I0403 15:35:01.610106 32367 net.cpp:148] Top shape: 24 128 7 7 (150528)
I0403 15:35:01.610121 32367 net.cpp:156] Memory required for data: 1335929376
I0403 15:35:01.610136 32367 layer_factory.hpp:77] Creating layer inception_5b/pool
I0403 15:35:01.610154 32367 net.cpp:91] Creating Layer inception_5b/pool
I0403 15:35:01.610172 32367 net.cpp:425] inception_5b/pool <- inception_5a/output_inception_5a/output_0_split_3
I0403 15:35:01.610188 32367 net.cpp:399] inception_5b/pool -> inception_5b/pool
I0403 15:35:01.610265 32367 net.cpp:141] Setting up inception_5b/pool
I0403 15:35:01.610287 32367 net.cpp:148] Top shape: 24 832 7 7 (978432)
I0403 15:35:01.610301 32367 net.cpp:156] Memory required for data: 1339843104
I0403 15:35:01.610316 32367 layer_factory.hpp:77] Creating layer inception_5b/pool_proj
I0403 15:35:01.610337 32367 net.cpp:91] Creating Layer inception_5b/pool_proj
I0403 15:35:01.610355 32367 net.cpp:425] inception_5b/pool_proj <- inception_5b/pool
I0403 15:35:01.610374 32367 net.cpp:399] inception_5b/pool_proj -> inception_5b/pool_proj
I0403 15:35:01.612643 32367 net.cpp:141] Setting up inception_5b/pool_proj
I0403 15:35:01.612674 32367 net.cpp:148] Top shape: 24 128 7 7 (150528)
I0403 15:35:01.612690 32367 net.cpp:156] Memory required for data: 1340445216
I0403 15:35:01.612709 32367 layer_factory.hpp:77] Creating layer inception_5b/relu_pool_proj
I0403 15:35:01.612725 32367 net.cpp:91] Creating Layer inception_5b/relu_pool_proj
I0403 15:35:01.612741 32367 net.cpp:425] inception_5b/relu_pool_proj <- inception_5b/pool_proj
I0403 15:35:01.612761 32367 net.cpp:386] inception_5b/relu_pool_proj -> inception_5b/pool_proj (in-place)
I0403 15:35:01.613126 32367 net.cpp:141] Setting up inception_5b/relu_pool_proj
I0403 15:35:01.613154 32367 net.cpp:148] Top shape: 24 128 7 7 (150528)
I0403 15:35:01.613169 32367 net.cpp:156] Memory required for data: 1341047328
I0403 15:35:01.613183 32367 layer_factory.hpp:77] Creating layer inception_5b/output
I0403 15:35:01.613200 32367 net.cpp:91] Creating Layer inception_5b/output
I0403 15:35:01.613229 32367 net.cpp:425] inception_5b/output <- inception_5b/1x1
I0403 15:35:01.613246 32367 net.cpp:425] inception_5b/output <- inception_5b/3x3
I0403 15:35:01.613267 32367 net.cpp:425] inception_5b/output <- inception_5b/5x5
I0403 15:35:01.613283 32367 net.cpp:425] inception_5b/output <- inception_5b/pool_proj
I0403 15:35:01.613302 32367 net.cpp:399] inception_5b/output -> inception_5b/output
I0403 15:35:01.613353 32367 net.cpp:141] Setting up inception_5b/output
I0403 15:35:01.613375 32367 net.cpp:148] Top shape: 24 1024 7 7 (1204224)
I0403 15:35:01.613390 32367 net.cpp:156] Memory required for data: 1345864224
I0403 15:35:01.613405 32367 layer_factory.hpp:77] Creating layer pool5/7x7_s1
I0403 15:35:01.613425 32367 net.cpp:91] Creating Layer pool5/7x7_s1
I0403 15:35:01.613441 32367 net.cpp:425] pool5/7x7_s1 <- inception_5b/output
I0403 15:35:01.613459 32367 net.cpp:399] pool5/7x7_s1 -> pool5/7x7_s1
I0403 15:35:01.613673 32367 net.cpp:141] Setting up pool5/7x7_s1
I0403 15:35:01.613698 32367 net.cpp:148] Top shape: 24 1024 1 1 (24576)
I0403 15:35:01.613713 32367 net.cpp:156] Memory required for data: 1345962528
I0403 15:35:01.613726 32367 layer_factory.hpp:77] Creating layer pool5/drop_7x7_s1
I0403 15:35:01.613744 32367 net.cpp:91] Creating Layer pool5/drop_7x7_s1
I0403 15:35:01.613759 32367 net.cpp:425] pool5/drop_7x7_s1 <- pool5/7x7_s1
I0403 15:35:01.613777 32367 net.cpp:386] pool5/drop_7x7_s1 -> pool5/7x7_s1 (in-place)
I0403 15:35:01.613826 32367 net.cpp:141] Setting up pool5/drop_7x7_s1
I0403 15:35:01.613848 32367 net.cpp:148] Top shape: 24 1024 1 1 (24576)
I0403 15:35:01.613862 32367 net.cpp:156] Memory required for data: 1346060832
I0403 15:35:01.613876 32367 layer_factory.hpp:77] Creating layer loss3/classifier_plantvillage
I0403 15:35:01.613896 32367 net.cpp:91] Creating Layer loss3/classifier_plantvillage
I0403 15:35:01.613914 32367 net.cpp:425] loss3/classifier_plantvillage <- pool5/7x7_s1
I0403 15:35:01.613934 32367 net.cpp:399] loss3/classifier_plantvillage -> loss3/classifier_plantvillage
I0403 15:35:01.614378 32367 net.cpp:141] Setting up loss3/classifier_plantvillage
I0403 15:35:01.614403 32367 net.cpp:148] Top shape: 24 38 (912)
I0403 15:35:01.614418 32367 net.cpp:156] Memory required for data: 1346064480
I0403 15:35:01.614436 32367 layer_factory.hpp:77] Creating layer loss3/classifier_plantvillage_loss3/classifier_plantvillage_0_split
I0403 15:35:01.614457 32367 net.cpp:91] Creating Layer loss3/classifier_plantvillage_loss3/classifier_plantvillage_0_split
I0403 15:35:01.614473 32367 net.cpp:425] loss3/classifier_plantvillage_loss3/classifier_plantvillage_0_split <- loss3/classifier_plantvillage
I0403 15:35:01.614491 32367 net.cpp:399] loss3/classifier_plantvillage_loss3/classifier_plantvillage_0_split -> loss3/classifier_plantvillage_loss3/classifier_plantvillage_0_split_0
I0403 15:35:01.614522 32367 net.cpp:399] loss3/classifier_plantvillage_loss3/classifier_plantvillage_0_split -> loss3/classifier_plantvillage_loss3/classifier_plantvillage_0_split_1
I0403 15:35:01.614543 32367 net.cpp:399] loss3/classifier_plantvillage_loss3/classifier_plantvillage_0_split -> loss3/classifier_plantvillage_loss3/classifier_plantvillage_0_split_2
I0403 15:35:01.614565 32367 net.cpp:399] loss3/classifier_plantvillage_loss3/classifier_plantvillage_0_split -> loss3/classifier_plantvillage_loss3/classifier_plantvillage_0_split_3
I0403 15:35:01.614683 32367 net.cpp:141] Setting up loss3/classifier_plantvillage_loss3/classifier_plantvillage_0_split
I0403 15:35:01.614706 32367 net.cpp:148] Top shape: 24 38 (912)
I0403 15:35:01.614722 32367 net.cpp:148] Top shape: 24 38 (912)
I0403 15:35:01.614738 32367 net.cpp:148] Top shape: 24 38 (912)
I0403 15:35:01.614753 32367 net.cpp:148] Top shape: 24 38 (912)
I0403 15:35:01.614768 32367 net.cpp:156] Memory required for data: 1346079072
I0403 15:35:01.614781 32367 layer_factory.hpp:77] Creating layer loss1/loss
I0403 15:35:01.614814 32367 net.cpp:91] Creating Layer loss1/loss
I0403 15:35:01.614830 32367 net.cpp:425] loss1/loss <- loss1/classifier_plantvillage_loss1/classifier_plantvillage_0_split_0
I0403 15:35:01.614861 32367 net.cpp:425] loss1/loss <- label_data_1_split_0
…
