…
I0403 15:04:33.654377 31099 net.cpp:313] The NetState phase (1) differed from the phase (0) specified by a rule in layer data
I0403 15:04:33.655568 31099 net.cpp:49] Initializing net from parameters: 
state {
  phase: TEST
}
layer {
  name: "data"
  type: "Data"
  top: "data"
  top: "label"
  include {
    phase: TEST
  }
  transform_param {
    mirror: false
    crop_size: 224
    mean_file: "/home/mohanty/data/final_dataset/lmdb/color-60-40/mean.binaryproto"
  }
  data_param {
    source: "/home/mohanty/data/final_dataset/lmdb/color-60-40/test_db"
    batch_size: 24
    backend: LMDB
  }
}
layer {
  name: "conv1/7x7_s2"
  type: "Convolution"
  bottom: "data"
  top: "conv1/7x7_s2"
  param {
    lr_mult: 1
    decay_mult: 1
  }
  param {
    lr_mult: 2
    decay_mult: 0
  }
  convolution_param {
    num_output: 64
    pad: 3
    kernel_size: 7
    stride: 2
    weight_filler {
      type: "xavier"
      std: 0.1
    }
    bias_filler {
      type: "constant"
      value: 0.2
    }
  }
}
layer {
  name: "conv1/relu_7x7"
  type: "ReLU"
  bottom: "conv1/7x7_s2"
  top: "conv1/7x7_s2"
}
layer {
  name: "pool1/3x3_s2"
  type: "Pooling"
  bottom: "conv1/7x7_s2"
  top: "pool1/3x3_s2"
  pooling_param {
    pool: MAX
    kernel_size: 3
    stride: 2
  }
}
layer {
  name: "pool1/norm1"
  type: "LRN"
  bottom: "pool1/3x3_s2"
  top: "pool1/norm1"
  lrn_param {
    local_size: 5
    alpha: 0.0001
    beta: 0.75
  }
}
layer {
  name: "conv2/3x3_reduce"
  type: "Convolution"
  bottom: "pool1/norm1"
  top: "conv2/3x3_reduce"
  param {
    lr_mult: 1
    decay_mult: 1
  }
  param {
    lr_mult: 2
    decay_mult: 0
  }
  convolution_param {
    num_output: 64
    kernel_size: 1
    weight_filler {
      type: "xavier"
      std: 0.1
    }
    bias_filler {
      type: "constant"
      value: 0.2
    }
  }
}
layer {
  name: "conv2/relu_3x3_reduce"
  type: "ReLU"
  bottom: "conv2/3x3_reduce"
  top: "conv2/3x3_reduce"
}
layer {
  name: "conv2/3x3"
  type: "Convolution"
  bottom: "conv2/3x3_reduce"
  top: "conv2/3x3"
  param {
    lr_mult: 1
    decay_mult: 1
  }
  param {
    lr_mult: 2
    decay_mult: 0
  }
  convolution_param {
    num_output: 192
    pad: 1
    kernel_size: 3
    weight_filler {
      type: "xavier"
      std: 0.03
    }
    bias_filler {
      type: "constant"
      value: 0.2
    }
  }
}
layer {
  name: "conv2/relu_3x3"
  type: "ReLU"
  bottom: "conv2/3x3"
  top: "conv2/3x3"
}
layer {
  name: "conv2/norm2"
  type: "LRN"
  bottom: "conv2/3x3"
  top: "conv2/norm2"
  lrn_param {
    local_size: 5
    alpha: 0.0001
    beta: 0.75
  }
}
layer {
  name: "pool2/3x3_s2"
  type: "Pooling"
  bottom: "conv2/norm2"
  top: "pool2/3x3_s2"
  pooling_param {
    pool: MAX
    kernel_size: 3
    stride: 2
  }
}
layer {
  name: "inception_3a/1x1"
  type: "Convolution"
  bottom: "pool2/3x3_s2"
  top: "inception_3a/1x1"
  param {
    lr_mult: 1
    decay_mult: 1
  }
  param {
    lr_mult: 2
    decay_mult: 0
  }
  convolution_param {
    num_output: 64
    kernel_size: 1
    weight_filler {
      type: "xavier"
      std: 0.03
    }
    bias_filler {
      type: "constant"
      value: 0.2
    }
  }
}
layer {
  name: "inception_3a/relu_1x1"
  type: "ReLU"
  bottom: "inception_3a/1x1"
  top: "inception_3a/1x1"
}
layer {
  name: "inception_3a/3x3_reduce"
  type: "Convolution"
  bottom: "pool2/3x3_s2"
  top: "inception_3a/3x3_reduce"
  param {
    lr_mult: 1
    decay_mult: 1
  }
  param {
    lr_mult: 2
    decay_mult: 0
  }
  convolution_param {
    num_output: 96
    kernel_size: 1
    weight_filler {
      type: "xavier"
      std: 0.09
    }
    bias_filler {
      type: "constant"
      value: 0.2
    }
  }
}
layer {
  name: "inception_3a/relu_3x3_reduce"
  type: "ReLU"
  bottom: "inception_3a/3x3_reduce"
  top: "inception_3a/3x3_reduce"
}
layer {
  name: "inception_3a/3x3"
  type: "Convolution"
  bottom: "inception_3a/3x3_reduce"
  top: "inception_3a/3x3"
  param {
    lr_mult: 1
    decay_mult: 1
  }
  param {
    lr_mult: 2
    decay_mult: 0
  }
  convolution_param {
    num_output: 128
    pad: 1
    kernel_size: 3
    weight_filler {
      type: "xavier"
      std: 0.03
    }
    bias_filler {
      type: "constant"
      value: 0.2
    }
  }
}
layer {
  name: "inception_3a/relu_3x3"
  type: "ReLU"
  bottom: "inception_3a/3x3"
  top: "inception_3a/3x3"
}
layer {
  name: "inception_3a/5x5_reduce"
  type: "Convolution"
  bottom: "pool2/3x3_s2"
  top: "inception_3a/5x5_reduce"
  param {
    lr_mult: 1
    decay_mult: 1
  }
  param {
    lr_mult: 2
    decay_mult: 0
  }
  convolution_param {
    num_output: 16
    kernel_size: 1
    weight_filler {
      type: "xavier"
      std: 0.2
    }
    bias_filler {
      type: "constant"
      value: 0.2
    }
  }
}
layer {
  name: "inception_3a/relu_5x5_reduce"
  type: "ReLU"
  bottom: "inception_3a/5x5_reduce"
  top: "inception_3a/5x5_reduce"
}
layer {
  name: "inception_3a/5x5"
  type: "Convolution"
  bottom: "inception_3a/5x5_reduce"
  top: "inception_3a/5x5"
  param {
    lr_mult: 1
    decay_mult: 1
  }
  param {
    lr_mult: 2
    decay_mult: 0
  }
  convolution_param {
    num_output: 32
    pad: 2
    kernel_size: 5
    weight_filler {
      type: "xavier"
      std: 0.03
    }
    bias_filler {
      type: "constant"
      value: 0.2
    }
  }
}
layer {
  name: "inception_3a/relu_5x5"
  type: "ReLU"
  bottom: "inception_3a/5x5"
  top: "inception_3a/5x5"
}
layer {
  name: "inception_3a/pool"
  type: "Pooling"
  bottom: "pool2/3x3_s2"
  top: "inception_3a/pool"
  pooling_param {
    pool: MAX
    kernel_size: 3
    stride: 1
    pad: 1
  }
}
layer {
  name: "inception_3a/pool_proj"
  type: "Convolution"
  bottom: "inception_3a/pool"
  top: "inception_3a/pool_proj"
  param {
    lr_mult: 1
    decay_mult: 1
  }
  param {
    lr_mult: 2
    decay_mult: 0
  }
  convolution_param {
    num_output: 32
    kernel_size: 1
    weight_filler {
      type: "xavier"
      std: 0.1
    }
    bias_filler {
      type: "constant"
      value: 0.2
    }
  }
}
layer {
  name: "inception_3a/relu_pool_proj"
  type: "ReLU"
  bottom: "inception_3a/pool_proj"
  top: "inception_3a/pool_proj"
}
layer {
  name: "inception_3a/output"
  type: "Concat"
  bottom: "inception_3a/1x1"
  bottom: "inception_3a/3x3"
  bottom: "inception_3a/5x5"
  bottom: "inception_3a/pool_proj"
  top: "inception_3a/output"
}
layer {
  name: "inception_3b/1x1"
  type: "Convolution"
  bottom: "inception_3a/output"
  top: "inception_3b/1x1"
  param {
    lr_mult: 1
    decay_mult: 1
  }
  param {
    lr_mult: 2
    decay_mult: 0
  }
  convolution_param {
    num_output: 128
    kernel_size: 1
    weight_filler {
      type: "xavier"
      std: 0.03
    }
    bias_filler {
      type: "constant"
      value: 0.2
    }
  }
}
layer {
  name: "inception_3b/relu_1x1"
  type: "ReLU"
  bottom: "inception_3b/1x1"
  top: "inception_3b/1x1"
}
layer {
  name: "inception_3b/3x3_reduce"
  type: "Convolution"
  bottom: "inception_3a/output"
  top: "inception_3b/3x3_reduce"
  param {
    lr_mult: 1
    decay_mult: 1
  }
  param {
    lr_mult: 2
    decay_mult: 0
  }
  convolution_param {
    num_output: 128
    kernel_size: 1
    weight_filler {
      type: "xavier"
      std: 0.09
    }
    bias_filler {
      type: "constant"
      value: 0.2
    }
  }
}
layer {
  name: "inception_3b/relu_3x3_reduce"
  type: "ReLU"
  bottom: "inception_3b/3x3_reduce"
  top: "inception_3b/3x3_reduce"
}
layer {
  name: "inception_3b/3x3"
  type: "Convolution"
  bottom: "inception_3b/3x3_reduce"
  top: "inception_3b/3x3"
  param {
    lr_mult: 1
    decay_mult: 1
  }
  param {
    lr_mult: 2
    decay_mult: 0
  }
  convolution_param {
    num_output: 192
    pad: 1
    kernel_size: 3
    weight_filler {
      type: "xavier"
      std: 0.03
    }
    bias_filler {
      type: "constant"
      value: 0.2
    }
  }
}
layer {
  name: "inception_3b/relu_3x3"
  type: "ReLU"
  bottom: "inception_3b/3x3"
  top: "inception_3b/3x3"
}
layer {
  name: "inception_3b/5x5_reduce"
  type: "Convolution"
  bottom: "inception_3a/output"
  top: "inception_3b/5x5_reduce"
  param {
    lr_mult: 1
    decay_mult: 1
  }
  param {
    lr_mult: 2
    decay_mult: 0
  }
  convolution_param {
    num_output: 32
    kernel_size: 1
    weight_filler {
      type: "xavier"
      std: 0.2
    }
    bias_filler {
      type: "constant"
      value: 0.2
    }
  }
}
layer {
  name: "inception_3b/relu_5x5_reduce"
  type: "ReLU"
  bottom: "inception_3b/5x5_reduce"
  top: "inception_3b/5x5_reduce"
}
layer {
  name: "inception_3b/5x5"
  type: "Convolution"
  bottom: "inception_3b/5x5_reduce"
  top: "inception_3b/5x5"
  param {
    lr_mult: 1
    decay_mult: 1
  }
  param {
    lr_mult: 2
    decay_mult: 0
  }
  convolution_param {
    num_output: 96
    pad: 2
    kernel_size: 5
    weight_filler {
      type: "xavier"
      std: 0.03
    }
    bias_filler {
      type: "constant"
      value: 0.2
    }
  }
}
layer {
  name: "inception_3b/relu_5x5"
  type: "ReLU"
  bottom: "inception_3b/5x5"
  top: "inception_3b/5x5"
}
layer {
  name: "inception_3b/pool"
  type: "Pooling"
  bottom: "inception_3a/output"
  top: "inception_3b/pool"
  pooling_param {
    pool: MAX
    kernel_size: 3
    stride: 1
    pad: 1
  }
}
layer {
  name: "inception_3b/pool_proj"
  type: "Convolution"
  bottom: "inception_3b/pool"
  top: "inception_3b/pool_proj"
  param {
    lr_mult: 1
    decay_mult: 1
  }
  param {
    lr_mult: 2
    decay_mult: 0
  }
  convolution_param {
    num_output: 64
    kernel_size: 1
    weight_filler {
      type: "xavier"
      std: 0.1
    }
    bias_filler {
      type: "constant"
      value: 0.2
    }
  }
}
layer {
  name: "inception_3b/relu_pool_proj"
  type: "ReLU"
  bottom: "inception_3b/pool_proj"
  top: "inception_3b/pool_proj"
}
layer {
  name: "inception_3b/output"
  type: "Concat"
  bottom: "inception_3b/1x1"
  bottom: "inception_3b/3x3"
  bottom: "inception_3b/5x5"
  bottom: "inception_3b/pool_proj"
  top: "inception_3b/output"
}
layer {
  name: "pool3/3x3_s2"
  type: "Pooling"
  bottom: "inception_3b/output"
  top: "pool3/3x3_s2"
  pooling_param {
    pool: MAX
    kernel_size: 3
    stride: 2
  }
}
layer {
  name: "inception_4a/1x1"
  type: "Convolution"
  bottom: "pool3/3x3_s2"
  top: "inception_4a/1x1"
  param {
    lr_mult: 1
    decay_mult: 1
  }
  param {
    lr_mult: 2
    decay_mult: 0
  }
  convolution_param {
    num_output: 192
    kernel_size: 1
    weight_filler {
      type: "xavier"
      std: 0.03
    }
    bias_filler {
      type: "constant"
      value: 0.2
    }
  }
}
layer {
  name: "inception_4a/relu_1x1"
  type: "ReLU"
  bottom: "inception_4a/1x1"
  top: "inception_4a/1x1"
}
layer {
  name: "inception_4a/3x3_reduce"
  type: "Convolution"
  bottom: "pool3/3x3_s2"
  top: "inception_4a/3x3_reduce"
  param {
    lr_mult: 1
    decay_mult: 1
  }
  param {
    lr_mult: 2
    decay_mult: 0
  }
  convolution_param {
    num_output: 96
    kernel_size: 1
    weight_filler {
      type: "xavier"
      std: 0.09
    }
    bias_filler {
      type: "constant"
      value: 0.2
    }
  }
}
layer {
  name: "inception_4a/relu_3x3_reduce"
  type: "ReLU"
  bottom: "inception_4a/3x3_reduce"
  top: "inception_4a/3x3_reduce"
}
layer {
  name: "inception_4a/3x3"
  type: "Convolution"
  bottom: "inception_4a/3x3_reduce"
  top: "inception_4a/3x3"
  param {
    lr_mult: 1
    decay_mult: 1
  }
  param {
    lr_mult: 2
    decay_mult: 0
  }
  convolution_param {
    num_output: 208
    pad: 1
    kernel_size: 3
    weight_filler {
      type: "xavier"
      std: 0.03
    }
    bias_filler {
      type: "constant"
      value: 0.2
    }
  }
}
layer {
  name: "inception_4a/relu_3x3"
  type: "ReLU"
  bottom: "inception_4a/3x3"
  top: "inception_4a/3x3"
}
layer {
  name: "inception_4a/5x5_reduce"
  type: "Convolution"
  bottom: "pool3/3x3_s2"
  top: "inception_4a/5x5_reduce"
  param {
    lr_mult: 1
    decay_mult: 1
  }
  param {
    lr_mult: 2
    decay_mult: 0
  }
  convolution_param {
    num_output: 16
    kernel_size: 1
    weight_filler {
      type: "xavier"
      std: 0.2
    }
    bias_filler {
      type: "constant"
      value: 0.2
    }
  }
}
layer {
  name: "inception_4a/relu_5x5_reduce"
  type: "ReLU"
  bottom: "inception_4a/5x5_reduce"
  top: "inception_4a/5x5_reduce"
}
layer {
  name: "inception_4a/5x5"
  type: "Convolution"
  bottom: "inception_4a/5x5_reduce"
  top: "inception_4a/5x5"
  param {
    lr_mult: 1
    decay_mult: 1
  }
  param {
    lr_mult: 2
    decay_mult: 0
  }
  convolution_param {
    num_output: 48
    pad: 2
    kernel_size: 5
    weight_filler {
      type: "xavier"
      std: 0.03
    }
    bias_filler {
      type: "constant"
      value: 0.2
    }
  }
}
layer {
  name: "inception_4a/relu_5x5"
  type: "ReLU"
  bottom: "inception_4a/5x5"
  top: "inception_4a/5x5"
}
layer {
  name: "inception_4a/pool"
  type: "Pooling"
  bottom: "pool3/3x3_s2"
  top: "inception_4a/pool"
  pooling_param {
    pool: MAX
    kernel_size: 3
    stride: 1
    pad: 1
  }
}
layer {
  name: "inception_4a/pool_proj"
  type: "Convolution"
  bottom: "inception_4a/pool"
  top: "inception_4a/pool_proj"
  param {
    lr_mult: 1
    decay_mult: 1
  }
  param {
    lr_mult: 2
    decay_mult: 0
  }
  convolution_param {
    num_output: 64
    kernel_size: 1
    weight_filler {
      type: "xavier"
      std: 0.1
    }
    bias_filler {
      type: "constant"
      value: 0.2
    }
  }
}
layer {
  name: "inception_4a/relu_pool_proj"
  type: "ReLU"
  bottom: "inception_4a/pool_proj"
  top: "inception_4a/pool_proj"
}
layer {
  name: "inception_4a/output"
  type: "Concat"
  bottom: "inception_4a/1x1"
  bottom: "inception_4a/3x3"
  bottom: "inception_4a/5x5"
  bottom: "inception_4a/pool_proj"
  top: "inception_4a/output"
}
layer {
  name: "loss1/ave_pool"
  type: "Pooling"
  bottom: "inception_4a/output"
  top: "loss1/ave_pool"
  pooling_param {
    pool: AVE
    kernel_size: 5
    stride: 3
  }
}
layer {
  name: "loss1/conv"
  type: "Convolution"
  bottom: "loss1/ave_pool"
  top: "loss1/conv"
  param {
    lr_mult: 1
    decay_mult: 1
  }
  param {
    lr_mult: 2
    decay_mult: 0
  }
  convolution_param {
    num_output: 128
    kernel_size: 1
    weight_filler {
      type: "xavier"
      std: 0.08
    }
    bias_filler {
      type: "constant"
      value: 0.2
    }
  }
}
layer {
  name: "loss1/relu_conv"
  type: "ReLU"
  bottom: "loss1/conv"
  top: "loss1/conv"
}
layer {
  name: "loss1/fc"
  type: "InnerProduct"
  bottom: "loss1/conv"
  top: "loss1/fc"
  param {
    lr_mult: 1
    decay_mult: 1
  }
  param {
    lr_mult: 2
    decay_mult: 0
  }
  inner_product_param {
    num_output: 1024
    weight_filler {
      type: "xavier"
      std: 0.02
    }
    bias_filler {
      type: "constant"
      value: 0.2
    }
  }
}
layer {
  name: "loss1/relu_fc"
  type: "ReLU"
  bottom: "loss1/fc"
  top: "loss1/fc"
}
layer {
  name: "loss1/drop_fc"
  type: "Dropout"
  bottom: "loss1/fc"
  top: "loss1/fc"
  dropout_param {
    dropout_ratio: 0.7
  }
}
layer {
  name: "loss1/classifier_plantvillage"
  type: "InnerProduct"
  bottom: "loss1/fc"
  top: "loss1/classifier_plantvillage"
  param {
    lr_mult: 1
    decay_mult: 1
  }
  param {
    lr_mult: 2
    decay_mult: 0
  }
  inner_product_param {
    num_output: 38
    weight_filler {
      type: "xavier"
      std: 0.0009765625
    }
    bias_filler {
      type: "constant"
      value: 0
    }
  }
}
layer {
  name: "inception_4b/1x1"
  type: "Convolution"
  bottom: "inception_4a/output"
  top: "inception_4b/1x1"
  param {
    lr_mult: 1
    decay_mult: 1
  }
  param {
    lr_mult: 2
    decay_mult: 0
  }
  convolution_param {
    num_output: 160
    kernel_size: 1
    weight_filler {
      type: "xavier"
      std: 0.03
    }
    bias_filler {
      type: "constant"
      value: 0.2
    }
  }
}
layer {
  name: "inception_4b/relu_1x1"
  type: "ReLU"
  bottom: "inception_4b/1x1"
  top: "inception_4b/1x1"
}
layer {
  name: "inception_4b/3x3_reduce"
  type: "Convolution"
  bottom: "inception_4a/output"
  top: "inception_4b/3x3_reduce"
  param {
    lr_mult: 1
    decay_mult: 1
  }
  param {
    lr_mult: 2
    decay_mult: 0
  }
  convolution_param {
    num_output: 112
    kernel_size: 1
    weight_filler {
      type: "xavier"
      std: 0.09
    }
    bias_filler {
      type: "constant"
      value: 0.2
    }
  }
}
layer {
  name: "inception_4b/relu_3x3_reduce"
  type: "ReLU"
  bottom: "inception_4b/3x3_reduce"
  top: "inception_4b/3x3_reduce"
}
layer {
  name: "inception_4b/3x3"
  type: "Convolution"
  bottom: "inception_4b/3x3_reduce"
  top: "inception_4b/3x3"
  param {
    lr_mult: 1
    decay_mult: 1
  }
  param {
    lr_mult: 2
    decay_mult: 0
  }
  convolution_param {
    num_output: 224
    pad: 1
    kernel_size: 3
    weight_filler {
      type: "xavier"
      std: 0.03
    }
    bias_filler {
      type: "constant"
      value: 0.2
    }
  }
}
layer {
  name: "inception_4b/relu_3x3"
  type: "ReLU"
  bottom: "inception_4b/3x3"
  top: "inception_4b/3x3"
}
layer {
  name: "inception_4b/5x5_reduce"
  type: "Convolution"
  bottom: "inception_4a/output"
  top: "inception_4b/5x5_reduce"
  param {
    lr_mult: 1
    decay_mult: 1
  }
  param {
    lr_mult: 2
    decay_mult: 0
  }
  convolution_param {
    num_output: 24
    kernel_size: 1
    weight_filler {
      type: "xavier"
      std: 0.2
    }
    bias_filler {
      type: "constant"
      value: 0.2
    }
  }
}
layer {
  name: "inception_4b/relu_5x5_reduce"
  type: "ReLU"
  bottom: "inception_4b/5x5_reduce"
  top: "inception_4b/5x5_reduce"
}
layer {
  name: "inception_4b/5x5"
  type: "Convolution"
  bottom: "inception_4b/5x5_reduce"
  top: "inception_4b/5x5"
  param {
    lr_mult: 1
    decay_mult: 1
  }
  param {
    lr_mult: 2
    decay_mult: 0
  }
  convolution_param {
    num_output: 64
    pad: 2
    kernel_size: 5
    weight_filler {
      type: "xavier"
      std: 0.03
    }
    bias_filler {
      type: "constant"
      value: 0.2
    }
  }
}
layer {
  name: "inception_4b/relu_5x5"
  type: "ReLU"
  bottom: "inception_4b/5x5"
  top: "inception_4b/5x5"
}
layer {
  name: "inception_4b/pool"
  type: "Pooling"
  bottom: "inception_4a/output"
  top: "inception_4b/pool"
  pooling_param {
    pool: MAX
    kernel_size: 3
    stride: 1
    pad: 1
  }
}
layer {
  name: "inception_4b/pool_proj"
  type: "Convolution"
  bottom: "inception_4b/pool"
  top: "inception_4b/pool_proj"
  param {
    lr_mult: 1
    decay_mult: 1
  }
  param {
    lr_mult: 2
    decay_mult: 0
  }
  convolution_param {
    num_output: 64
    kernel_size: 1
    weight_filler {
      type: "xavier"
      std: 0.1
    }
    bias_filler {
      type: "constant"
      value: 0.2
    }
  }
}
layer {
  name: "inception_4b/relu_pool_proj"
  type: "ReLU"
  bottom: "inception_4b/pool_proj"
  top: "inception_4b/pool_proj"
}
layer {
  name: "inception_4b/output"
  type: "Concat"
  bottom: "inception_4b/1x1"
  bottom: "inception_4b/3x3"
  bottom: "inception_4b/5x5"
  bottom: "inception_4b/pool_proj"
  top: "inception_4b/output"
}
layer {
  name: "inception_4c/1x1"
  type: "Convolution"
  bottom: "inception_4b/output"
  top: "inception_4c/1x1"
  param {
    lr_mult: 1
    decay_mult: 1
  }
  param {
    lr_mult: 2
    decay_mult: 0
  }
  convolution_param {
    num_output: 128
    kernel_size: 1
    weight_filler {
      type: "xavier"
      std: 0.03
    }
    bias_filler {
      type: "constant"
      value: 0.2
    }
  }
}
layer {
  name: "inception_4c/relu_1x1"
  type: "ReLU"
  bottom: "inception_4c/1x1"
  top: "inception_4c/1x1"
}
layer {
  name: "inception_4c/3x3_reduce"
  type: "Convolution"
  bottom: "inception_4b/output"
  top: "inception_4c/3x3_reduce"
  param {
    lr_mult: 1
    decay_mult: 1
  }
  param {
    lr_mult: 2
    decay_mult: 0
  }
  convolution_param {
    num_output: 128
    kernel_size: 1
    weight_filler {
      type: "xavier"
      std: 0.09
    }
    bias_filler {
      type: "constant"
      value: 0.2
    }
  }
}
layer {
  name: "inception_4c/relu_3x3_reduce"
  type: "ReLU"
  bottom: "inception_4c/3x3_reduce"
  top: "inception_4c/3x3_reduce"
}
layer {
  name: "inception_4c/3x3"
  type: "Convolution"
  bottom: "inception_4c/3x3_reduce"
  top: "inception_4c/3x3"
  param {
    lr_mult: 1
    decay_mult: 1
  }
  param {
    lr_mult: 2
    decay_mult: 0
  }
  convolution_param {
    num_output: 256
    pad: 1
    kernel_size: 3
    weight_filler {
      type: "xavier"
      std: 0.03
    }
    bias_filler {
      type: "constant"
      value: 0.2
    }
  }
}
layer {
  name: "inception_4c/relu_3x3"
  type: "ReLU"
  bottom: "inception_4c/3x3"
  top: "inception_4c/3x3"
}
layer {
  name: "inception_4c/5x5_reduce"
  type: "Convolution"
  bottom: "inception_4b/output"
  top: "inception_4c/5x5_reduce"
  param {
    lr_mult: 1
    decay_mult: 1
  }
  param {
    lr_mult: 2
    decay_mult: 0
  }
  convolution_param {
    num_output: 24
    kernel_size: 1
    weight_filler {
      type: "xavier"
      std: 0.2
    }
    bias_filler {
      type: "constant"
      value: 0.2
    }
  }
}
layer {
  name: "inception_4c/relu_5x5_reduce"
  type: "ReLU"
  bottom: "inception_4c/5x5_reduce"
  top: "inception_4c/5x5_reduce"
}
layer {
  name: "inception_4c/5x5"
  type: "Convolution"
  bottom: "inception_4c/5x5_reduce"
  top: "inception_4c/5x5"
  param {
    lr_mult: 1
    decay_mult: 1
  }
  param {
    lr_mult: 2
    decay_mult: 0
  }
  convolution_param {
    num_output: 64
    pad: 2
    kernel_size: 5
    weight_filler {
      type: "xavier"
      std: 0.03
    }
    bias_filler {
      type: "constant"
      value: 0.2
    }
  }
}
layer {
  name: "inception_4c/relu_5x5"
  type: "ReLU"
  bottom: "inception_4c/5x5"
  top: "inception_4c/5x5"
}
layer {
  name: "inception_4c/pool"
  type: "Pooling"
  bottom: "inception_4b/output"
  top: "inception_4c/pool"
  pooling_param {
    pool: MAX
    kernel_size: 3
    stride: 1
    pad: 1
  }
}
layer {
  name: "inception_4c/pool_proj"
  type: "Convolution"
  bottom: "inception_4c/pool"
  top: "inception_4c/pool_proj"
  param {
    lr_mult: 1
    decay_mult: 1
  }
  param {
    lr_mult: 2
    decay_mult: 0
  }
  convolution_param {
    num_output: 64
    kernel_size: 1
    weight_filler {
      type: "xavier"
      std: 0.1
    }
    bias_filler {
      type: "constant"
      value: 0.2
    }
  }
}
layer {
  name: "inception_4c/relu_pool_proj"
  type: "ReLU"
  bottom: "inception_4c/pool_proj"
  top: "inception_4c/pool_proj"
}
layer {
  name: "inception_4c/output"
  type: "Concat"
  bottom: "inception_4c/1x1"
  bottom: "inception_4c/3x3"
  bottom: "inception_4c/5x5"
  bottom: "inception_4c/pool_proj"
  top: "inception_4c/output"
}
layer {
  name: "inception_4d/1x1"
  type: "Convolution"
  bottom: "inception_4c/output"
  top: "inception_4d/1x1"
  param {
    lr_mult: 1
    decay_mult: 1
  }
  param {
    lr_mult: 2
    decay_mult: 0
  }
  convolution_param {
    num_output: 112
    kernel_size: 1
    weight_filler {
      type: "xavier"
      std: 0.03
    }
    bias_filler {
      type: "constant"
      value: 0.2
    }
  }
}
layer {
  name: "inception_4d/relu_1x1"
  type: "ReLU"
  bottom: "inception_4d/1x1"
  top: "inception_4d/1x1"
}
layer {
  name: "inception_4d/3x3_reduce"
  type: "Convolution"
  bottom: "inception_4c/output"
  top: "inception_4d/3x3_reduce"
  param {
    lr_mult: 1
    decay_mult: 1
  }
  param {
    lr_mult: 2
    decay_mult: 0
  }
  convolution_param {
    num_output: 144
    kernel_size: 1
    weight_filler {
      type: "xavier"
      std: 0.09
    }
    bias_filler {
      type: "constant"
      value: 0.2
    }
  }
}
layer {
  name: "inception_4d/relu_3x3_reduce"
  type: "ReLU"
  bottom: "inception_4d/3x3_reduce"
  top: "inception_4d/3x3_reduce"
}
layer {
  name: "inception_4d/3x3"
  type: "Convolution"
  bottom: "inception_4d/3x3_reduce"
  top: "inception_4d/3x3"
  param {
    lr_mult: 1
    decay_mult: 1
  }
  param {
    lr_mult: 2
    decay_mult: 0
  }
  convolution_param {
    num_output: 288
    pad: 1
    kernel_size: 3
    weight_filler {
      type: "xavier"
      std: 0.03
    }
    bias_filler {
      type: "constant"
      value: 0.2
    }
  }
}
layer {
  name: "inception_4d/relu_3x3"
  type: "ReLU"
  bottom: "inception_4d/3x3"
  top: "inception_4d/3x3"
}
layer {
  name: "inception_4d/5x5_reduce"
  type: "Convolution"
  bottom: "inception_4c/output"
  top: "inception_4d/5x5_reduce"
  param {
    lr_mult: 1
    decay_mult: 1
  }
  param {
    lr_mult: 2
    decay_mult: 0
  }
  convolution_param {
    num_output: 32
    kernel_size: 1
    weight_filler {
      type: "xavier"
      std: 0.2
    }
    bias_filler {
      type: "constant"
      value: 0.2
    }
  }
}
layer {
  name: "inception_4d/relu_5x5_reduce"
  type: "ReLU"
  bottom: "inception_4d/5x5_reduce"
  top: "inception_4d/5x5_reduce"
}
layer {
  name: "inception_4d/5x5"
  type: "Convolution"
  bottom: "inception_4d/5x5_reduce"
  top: "inception_4d/5x5"
  param {
    lr_mult: 1
    decay_mult: 1
  }
  param {
    lr_mult: 2
    decay_mult: 0
  }
  convolution_param {
    num_output: 64
    pad: 2
    kernel_size: 5
    weight_filler {
      type: "xavier"
      std: 0.03
    }
    bias_filler {
      type: "constant"
      value: 0.2
    }
  }
}
layer {
  name: "inception_4d/relu_5x5"
  type: "ReLU"
  bottom: "inception_4d/5x5"
  top: "inception_4d/5x5"
}
layer {
  name: "inception_4d/pool"
  type: "Pooling"
  bottom: "inception_4c/output"
  top: "inception_4d/pool"
  pooling_param {
    pool: MAX
    kernel_size: 3
    stride: 1
    pad: 1
  }
}
layer {
  name: "inception_4d/pool_proj"
  type: "Convolution"
  bottom: "inception_4d/pool"
  top: "inception_4d/pool_proj"
  param {
    lr_mult: 1
    decay_mult: 1
  }
  param {
    lr_mult: 2
    decay_mult: 0
  }
  convolution_param {
    num_output: 64
    kernel_size: 1
    weight_filler {
      type: "xavier"
      std: 0.1
    }
    bias_filler {
      type: "constant"
      value: 0.2
    }
  }
}
layer {
  name: "inception_4d/relu_pool_proj"
  type: "ReLU"
  bottom: "inception_4d/pool_proj"
  top: "inception_4d/pool_proj"
}
layer {
  name: "inception_4d/output"
  type: "Concat"
  bottom: "inception_4d/1x1"
  bottom: "inception_4d/3x3"
  bottom: "inception_4d/5x5"
  bottom: "inception_4d/pool_proj"
  top: "inception_4d/output"
}
layer {
  name: "loss2/ave_pool"
  type: "Pooling"
  bottom: "inception_4d/output"
  top: "loss2/ave_pool"
  pooling_param {
    pool: AVE
    kernel_size: 5
    stride: 3
  }
}
layer {
  name: "loss2/conv"
  type: "Convolution"
  bottom: "loss2/ave_pool"
  top: "loss2/conv"
  param {
    lr_mult: 1
    decay_mult: 1
  }
  param {
    lr_mult: 2
    decay_mult: 0
  }
  convolution_param {
    num_output: 128
    kernel_size: 1
    weight_filler {
      type: "xavier"
      std: 0.08
    }
    bias_filler {
      type: "constant"
      value: 0.2
    }
  }
}
layer {
  name: "loss2/relu_conv"
  type: "ReLU"
  bottom: "loss2/conv"
  top: "loss2/conv"
}
layer {
  name: "loss2/fc"
  type: "InnerProduct"
  bottom: "loss2/conv"
  top: "loss2/fc"
  param {
    lr_mult: 1
    decay_mult: 1
  }
  param {
    lr_mult: 2
    decay_mult: 0
  }
  inner_product_param {
    num_output: 1024
    weight_filler {
      type: "xavier"
      std: 0.02
    }
    bias_filler {
      type: "constant"
      value: 0.2
    }
  }
}
layer {
  name: "loss2/relu_fc"
  type: "ReLU"
  bottom: "loss2/fc"
  top: "loss2/fc"
}
layer {
  name: "loss2/drop_fc"
  type: "Dropout"
  bottom: "loss2/fc"
  top: "loss2/fc"
  dropout_param {
    dropout_ratio: 0.7
  }
}
layer {
  name: "loss2/classifier_plantvillage"
  type: "InnerProduct"
  bottom: "loss2/fc"
  top: "loss2/classifier_plantvillage"
  param {
    lr_mult: 1
    decay_mult: 1
  }
  param {
    lr_mult: 2
    decay_mult: 0
  }
  inner_product_param {
    num_output: 38
    weight_filler {
      type: "xavier"
      std: 0.0009765625
    }
    bias_filler {
      type: "constant"
      value: 0
    }
  }
}
layer {
  name: "inception_4e/1x1"
  type: "Convolution"
  bottom: "inception_4d/output"
  top: "inception_4e/1x1"
  param {
    lr_mult: 1
    decay_mult: 1
  }
  param {
    lr_mult: 2
    decay_mult: 0
  }
  convolution_param {
    num_output: 256
    kernel_size: 1
    weight_filler {
      type: "xavier"
      std: 0.03
    }
    bias_filler {
      type: "constant"
      value: 0.2
    }
  }
}
layer {
  name: "inception_4e/relu_1x1"
  type: "ReLU"
  bottom: "inception_4e/1x1"
  top: "inception_4e/1x1"
}
layer {
  name: "inception_4e/3x3_reduce"
  type: "Convolution"
  bottom: "inception_4d/output"
  top: "inception_4e/3x3_reduce"
  param {
    lr_mult: 1
    decay_mult: 1
  }
  param {
    lr_mult: 2
    decay_mult: 0
  }
  convolution_param {
    num_output: 160
    kernel_size: 1
    weight_filler {
      type: "xavier"
      std: 0.09
    }
    bias_filler {
      type: "constant"
      value: 0.2
    }
  }
}
layer {
  name: "inception_4e/relu_3x3_reduce"
  type: "ReLU"
  bottom: "inception_4e/3x3_reduce"
  top: "inception_4e/3x3_reduce"
}
layer {
  name: "inception_4e/3x3"
  type: "Convolution"
  bottom: "inception_4e/3x3_reduce"
  top: "inception_4e/3x3"
  param {
    lr_mult: 1
    decay_mult: 1
  }
  param {
    lr_mult: 2
    decay_mult: 0
  }
  convolution_param {
    num_output: 320
    pad: 1
    kernel_size: 3
    weight_filler {
      type: "xavier"
      std: 0.03
    }
    bias_filler {
      type: "constant"
      value: 0.2
    }
  }
}
layer {
  name: "inception_4e/relu_3x3"
  type: "ReLU"
  bottom: "inception_4e/3x3"
  top: "inception_4e/3x3"
}
layer {
  name: "inception_4e/5x5_reduce"
  type: "Convolution"
  bottom: "inception_4d/output"
  top: "inception_4e/5x5_reduce"
  param {
    lr_mult: 1
    decay_mult: 1
  }
  param {
    lr_mult: 2
    decay_mult: 0
  }
  convolution_param {
    num_output: 32
    kernel_size: 1
    weight_filler {
      type: "xavier"
      std: 0.2
    }
    bias_filler {
      type: "constant"
      value: 0.2
    }
  }
}
layer {
  name: "inception_4e/relu_5x5_reduce"
  type: "ReLU"
  bottom: "inception_4e/5x5_reduce"
  top: "inception_4e/5x5_reduce"
}
layer {
  name: "inception_4e/5x5"
  type: "Convolution"
  bottom: "inception_4e/5x5_reduce"
  top: "inception_4e/5x5"
  p
I0403 15:04:33.656860 31099 layer_factory.hpp:77] Creating layer data
I0403 15:04:33.657480 31099 net.cpp:91] Creating Layer data
I0403 15:04:33.657512 31099 net.cpp:399] data -> data
I0403 15:04:33.657563 31099 net.cpp:399] data -> label
I0403 15:04:33.657603 31099 data_transformer.cpp:25] Loading mean file from: /home/mohanty/data/final_dataset/lmdb/color-60-40/mean.binaryproto
I0403 15:04:33.683789 31103 db_lmdb.cpp:38] Opened lmdb /home/mohanty/data/final_dataset/lmdb/color-60-40/test_db
I0403 15:04:33.695515 31099 data_layer.cpp:41] output data size: 24,3,224,224
I0403 15:04:33.726477 31099 net.cpp:141] Setting up data
I0403 15:04:33.726568 31099 net.cpp:148] Top shape: 24 3 224 224 (3612672)
I0403 15:04:33.726593 31099 net.cpp:148] Top shape: 24 (24)
I0403 15:04:33.726609 31099 net.cpp:156] Memory required for data: 14450784
I0403 15:04:33.726639 31099 layer_factory.hpp:77] Creating layer label_data_1_split
I0403 15:04:33.726667 31099 net.cpp:91] Creating Layer label_data_1_split
I0403 15:04:33.726686 31099 net.cpp:425] label_data_1_split <- label
I0403 15:04:33.726721 31099 net.cpp:399] label_data_1_split -> label_data_1_split_0
I0403 15:04:33.726750 31099 net.cpp:399] label_data_1_split -> label_data_1_split_1
I0403 15:04:33.726773 31099 net.cpp:399] label_data_1_split -> label_data_1_split_2
I0403 15:04:33.726796 31099 net.cpp:399] label_data_1_split -> label_data_1_split_3
I0403 15:04:33.726819 31099 net.cpp:399] label_data_1_split -> label_data_1_split_4
I0403 15:04:33.726841 31099 net.cpp:399] label_data_1_split -> label_data_1_split_5
I0403 15:04:33.726862 31099 net.cpp:399] label_data_1_split -> label_data_1_split_6
I0403 15:04:33.726884 31099 net.cpp:399] label_data_1_split -> label_data_1_split_7
I0403 15:04:33.726905 31099 net.cpp:399] label_data_1_split -> label_data_1_split_8
I0403 15:04:33.726927 31099 net.cpp:399] label_data_1_split -> label_data_1_split_9
I0403 15:04:33.727051 31099 net.cpp:141] Setting up label_data_1_split
I0403 15:04:33.727077 31099 net.cpp:148] Top shape: 24 (24)
I0403 15:04:33.727094 31099 net.cpp:148] Top shape: 24 (24)
I0403 15:04:33.727113 31099 net.cpp:148] Top shape: 24 (24)
I0403 15:04:33.727129 31099 net.cpp:148] Top shape: 24 (24)
I0403 15:04:33.727146 31099 net.cpp:148] Top shape: 24 (24)
I0403 15:04:33.727164 31099 net.cpp:148] Top shape: 24 (24)
I0403 15:04:33.727181 31099 net.cpp:148] Top shape: 24 (24)
I0403 15:04:33.727198 31099 net.cpp:148] Top shape: 24 (24)
I0403 15:04:33.727215 31099 net.cpp:148] Top shape: 24 (24)
I0403 15:04:33.727232 31099 net.cpp:148] Top shape: 24 (24)
I0403 15:04:33.727289 31099 net.cpp:156] Memory required for data: 14451744
I0403 15:04:33.727308 31099 layer_factory.hpp:77] Creating layer conv1/7x7_s2
I0403 15:04:33.727341 31099 net.cpp:91] Creating Layer conv1/7x7_s2
I0403 15:04:33.727361 31099 net.cpp:425] conv1/7x7_s2 <- data
I0403 15:04:33.727381 31099 net.cpp:399] conv1/7x7_s2 -> conv1/7x7_s2
I0403 15:04:35.961573 31099 net.cpp:141] Setting up conv1/7x7_s2
I0403 15:04:35.961658 31099 net.cpp:148] Top shape: 24 64 112 112 (19267584)
I0403 15:04:35.961675 31099 net.cpp:156] Memory required for data: 91522080
I0403 15:04:35.961707 31099 layer_factory.hpp:77] Creating layer conv1/relu_7x7
I0403 15:04:35.961735 31099 net.cpp:91] Creating Layer conv1/relu_7x7
I0403 15:04:35.961753 31099 net.cpp:425] conv1/relu_7x7 <- conv1/7x7_s2
I0403 15:04:35.961776 31099 net.cpp:386] conv1/relu_7x7 -> conv1/7x7_s2 (in-place)
I0403 15:04:35.962030 31099 net.cpp:141] Setting up conv1/relu_7x7
I0403 15:04:35.962057 31099 net.cpp:148] Top shape: 24 64 112 112 (19267584)
I0403 15:04:35.962074 31099 net.cpp:156] Memory required for data: 168592416
I0403 15:04:35.962090 31099 layer_factory.hpp:77] Creating layer pool1/3x3_s2
I0403 15:04:35.962116 31099 net.cpp:91] Creating Layer pool1/3x3_s2
I0403 15:04:35.962133 31099 net.cpp:425] pool1/3x3_s2 <- conv1/7x7_s2
I0403 15:04:35.962152 31099 net.cpp:399] pool1/3x3_s2 -> pool1/3x3_s2
I0403 15:04:35.962226 31099 net.cpp:141] Setting up pool1/3x3_s2
I0403 15:04:35.962251 31099 net.cpp:148] Top shape: 24 64 56 56 (4816896)
I0403 15:04:35.962271 31099 net.cpp:156] Memory required for data: 187860000
I0403 15:04:35.962287 31099 layer_factory.hpp:77] Creating layer pool1/norm1
I0403 15:04:35.962312 31099 net.cpp:91] Creating Layer pool1/norm1
I0403 15:04:35.962330 31099 net.cpp:425] pool1/norm1 <- pool1/3x3_s2
I0403 15:04:35.962348 31099 net.cpp:399] pool1/norm1 -> pool1/norm1
I0403 15:04:35.962630 31099 net.cpp:141] Setting up pool1/norm1
I0403 15:04:35.962658 31099 net.cpp:148] Top shape: 24 64 56 56 (4816896)
I0403 15:04:35.962674 31099 net.cpp:156] Memory required for data: 207127584
I0403 15:04:35.962692 31099 layer_factory.hpp:77] Creating layer conv2/3x3_reduce
I0403 15:04:35.962718 31099 net.cpp:91] Creating Layer conv2/3x3_reduce
I0403 15:04:35.962733 31099 net.cpp:425] conv2/3x3_reduce <- pool1/norm1
I0403 15:04:35.962751 31099 net.cpp:399] conv2/3x3_reduce -> conv2/3x3_reduce
I0403 15:04:35.964056 31099 net.cpp:141] Setting up conv2/3x3_reduce
I0403 15:04:35.964087 31099 net.cpp:148] Top shape: 24 64 56 56 (4816896)
I0403 15:04:35.964108 31099 net.cpp:156] Memory required for data: 226395168
I0403 15:04:35.964139 31099 layer_factory.hpp:77] Creating layer conv2/relu_3x3_reduce
I0403 15:04:35.964160 31099 net.cpp:91] Creating Layer conv2/relu_3x3_reduce
I0403 15:04:35.964179 31099 net.cpp:425] conv2/relu_3x3_reduce <- conv2/3x3_reduce
I0403 15:04:35.964197 31099 net.cpp:386] conv2/relu_3x3_reduce -> conv2/3x3_reduce (in-place)
I0403 15:04:35.964465 31099 net.cpp:141] Setting up conv2/relu_3x3_reduce
I0403 15:04:35.964493 31099 net.cpp:148] Top shape: 24 64 56 56 (4816896)
I0403 15:04:35.964521 31099 net.cpp:156] Memory required for data: 245662752
I0403 15:04:35.964539 31099 layer_factory.hpp:77] Creating layer conv2/3x3
I0403 15:04:35.964562 31099 net.cpp:91] Creating Layer conv2/3x3
I0403 15:04:35.964581 31099 net.cpp:425] conv2/3x3 <- conv2/3x3_reduce
I0403 15:04:35.964601 31099 net.cpp:399] conv2/3x3 -> conv2/3x3
I0403 15:04:35.966936 31099 net.cpp:141] Setting up conv2/3x3
I0403 15:04:35.966969 31099 net.cpp:148] Top shape: 24 192 56 56 (14450688)
I0403 15:04:35.966985 31099 net.cpp:156] Memory required for data: 303465504
I0403 15:04:35.967008 31099 layer_factory.hpp:77] Creating layer conv2/relu_3x3
I0403 15:04:35.967030 31099 net.cpp:91] Creating Layer conv2/relu_3x3
I0403 15:04:35.967046 31099 net.cpp:425] conv2/relu_3x3 <- conv2/3x3
I0403 15:04:35.967067 31099 net.cpp:386] conv2/relu_3x3 -> conv2/3x3 (in-place)
I0403 15:04:35.967245 31099 net.cpp:141] Setting up conv2/relu_3x3
I0403 15:04:35.967279 31099 net.cpp:148] Top shape: 24 192 56 56 (14450688)
I0403 15:04:35.967316 31099 net.cpp:156] Memory required for data: 361268256
I0403 15:04:35.967336 31099 layer_factory.hpp:77] Creating layer conv2/norm2
I0403 15:04:35.967360 31099 net.cpp:91] Creating Layer conv2/norm2
I0403 15:04:35.967380 31099 net.cpp:425] conv2/norm2 <- conv2/3x3
I0403 15:04:35.967401 31099 net.cpp:399] conv2/norm2 -> conv2/norm2
I0403 15:04:35.967718 31099 net.cpp:141] Setting up conv2/norm2
I0403 15:04:35.967751 31099 net.cpp:148] Top shape: 24 192 56 56 (14450688)
I0403 15:04:35.967767 31099 net.cpp:156] Memory required for data: 419071008
I0403 15:04:35.967782 31099 layer_factory.hpp:77] Creating layer pool2/3x3_s2
I0403 15:04:35.967802 31099 net.cpp:91] Creating Layer pool2/3x3_s2
I0403 15:04:35.967818 31099 net.cpp:425] pool2/3x3_s2 <- conv2/norm2
I0403 15:04:35.967836 31099 net.cpp:399] pool2/3x3_s2 -> pool2/3x3_s2
I0403 15:04:35.967892 31099 net.cpp:141] Setting up pool2/3x3_s2
I0403 15:04:35.967917 31099 net.cpp:148] Top shape: 24 192 28 28 (3612672)
I0403 15:04:35.967934 31099 net.cpp:156] Memory required for data: 433521696
I0403 15:04:35.967950 31099 layer_factory.hpp:77] Creating layer pool2/3x3_s2_pool2/3x3_s2_0_split
I0403 15:04:35.967970 31099 net.cpp:91] Creating Layer pool2/3x3_s2_pool2/3x3_s2_0_split
I0403 15:04:35.967988 31099 net.cpp:425] pool2/3x3_s2_pool2/3x3_s2_0_split <- pool2/3x3_s2
I0403 15:04:35.968005 31099 net.cpp:399] pool2/3x3_s2_pool2/3x3_s2_0_split -> pool2/3x3_s2_pool2/3x3_s2_0_split_0
I0403 15:04:35.968026 31099 net.cpp:399] pool2/3x3_s2_pool2/3x3_s2_0_split -> pool2/3x3_s2_pool2/3x3_s2_0_split_1
I0403 15:04:35.968047 31099 net.cpp:399] pool2/3x3_s2_pool2/3x3_s2_0_split -> pool2/3x3_s2_pool2/3x3_s2_0_split_2
I0403 15:04:35.968071 31099 net.cpp:399] pool2/3x3_s2_pool2/3x3_s2_0_split -> pool2/3x3_s2_pool2/3x3_s2_0_split_3
I0403 15:04:35.968147 31099 net.cpp:141] Setting up pool2/3x3_s2_pool2/3x3_s2_0_split
I0403 15:04:35.968170 31099 net.cpp:148] Top shape: 24 192 28 28 (3612672)
I0403 15:04:35.968189 31099 net.cpp:148] Top shape: 24 192 28 28 (3612672)
I0403 15:04:35.968205 31099 net.cpp:148] Top shape: 24 192 28 28 (3612672)
I0403 15:04:35.968221 31099 net.cpp:148] Top shape: 24 192 28 28 (3612672)
I0403 15:04:35.968236 31099 net.cpp:156] Memory required for data: 491324448
I0403 15:04:35.968251 31099 layer_factory.hpp:77] Creating layer inception_3a/1x1
I0403 15:04:35.968297 31099 net.cpp:91] Creating Layer inception_3a/1x1
I0403 15:04:35.968317 31099 net.cpp:425] inception_3a/1x1 <- pool2/3x3_s2_pool2/3x3_s2_0_split_0
I0403 15:04:35.968340 31099 net.cpp:399] inception_3a/1x1 -> inception_3a/1x1
I0403 15:04:35.969949 31099 net.cpp:141] Setting up inception_3a/1x1
I0403 15:04:35.969985 31099 net.cpp:148] Top shape: 24 64 28 28 (1204224)
I0403 15:04:35.970005 31099 net.cpp:156] Memory required for data: 496141344
I0403 15:04:35.970026 31099 layer_factory.hpp:77] Creating layer inception_3a/relu_1x1
I0403 15:04:35.970046 31099 net.cpp:91] Creating Layer inception_3a/relu_1x1
I0403 15:04:35.970062 31099 net.cpp:425] inception_3a/relu_1x1 <- inception_3a/1x1
I0403 15:04:35.970082 31099 net.cpp:386] inception_3a/relu_1x1 -> inception_3a/1x1 (in-place)
I0403 15:04:35.970273 31099 net.cpp:141] Setting up inception_3a/relu_1x1
I0403 15:04:35.970301 31099 net.cpp:148] Top shape: 24 64 28 28 (1204224)
I0403 15:04:35.970319 31099 net.cpp:156] Memory required for data: 500958240
I0403 15:04:35.970336 31099 layer_factory.hpp:77] Creating layer inception_3a/3x3_reduce
I0403 15:04:35.970360 31099 net.cpp:91] Creating Layer inception_3a/3x3_reduce
I0403 15:04:35.970379 31099 net.cpp:425] inception_3a/3x3_reduce <- pool2/3x3_s2_pool2/3x3_s2_0_split_1
I0403 15:04:35.970402 31099 net.cpp:399] inception_3a/3x3_reduce -> inception_3a/3x3_reduce
I0403 15:04:35.972192 31099 net.cpp:141] Setting up inception_3a/3x3_reduce
I0403 15:04:35.972223 31099 net.cpp:148] Top shape: 24 96 28 28 (1806336)
I0403 15:04:35.972242 31099 net.cpp:156] Memory required for data: 508183584
I0403 15:04:35.972275 31099 layer_factory.hpp:77] Creating layer inception_3a/relu_3x3_reduce
I0403 15:04:35.972321 31099 net.cpp:91] Creating Layer inception_3a/relu_3x3_reduce
I0403 15:04:35.972342 31099 net.cpp:425] inception_3a/relu_3x3_reduce <- inception_3a/3x3_reduce
I0403 15:04:35.972362 31099 net.cpp:386] inception_3a/relu_3x3_reduce -> inception_3a/3x3_reduce (in-place)
I0403 15:04:35.972553 31099 net.cpp:141] Setting up inception_3a/relu_3x3_reduce
I0403 15:04:35.972584 31099 net.cpp:148] Top shape: 24 96 28 28 (1806336)
I0403 15:04:35.972604 31099 net.cpp:156] Memory required for data: 515408928
I0403 15:04:35.972620 31099 layer_factory.hpp:77] Creating layer inception_3a/3x3
I0403 15:04:35.972645 31099 net.cpp:91] Creating Layer inception_3a/3x3
I0403 15:04:35.972664 31099 net.cpp:425] inception_3a/3x3 <- inception_3a/3x3_reduce
I0403 15:04:35.972688 31099 net.cpp:399] inception_3a/3x3 -> inception_3a/3x3
I0403 15:04:35.974594 31099 net.cpp:141] Setting up inception_3a/3x3
I0403 15:04:35.974627 31099 net.cpp:148] Top shape: 24 128 28 28 (2408448)
I0403 15:04:35.974644 31099 net.cpp:156] Memory required for data: 525042720
I0403 15:04:35.974666 31099 layer_factory.hpp:77] Creating layer inception_3a/relu_3x3
I0403 15:04:35.974686 31099 net.cpp:91] Creating Layer inception_3a/relu_3x3
I0403 15:04:35.974706 31099 net.cpp:425] inception_3a/relu_3x3 <- inception_3a/3x3
I0403 15:04:35.974725 31099 net.cpp:386] inception_3a/relu_3x3 -> inception_3a/3x3 (in-place)
I0403 15:04:35.975020 31099 net.cpp:141] Setting up inception_3a/relu_3x3
I0403 15:04:35.975049 31099 net.cpp:148] Top shape: 24 128 28 28 (2408448)
I0403 15:04:35.975067 31099 net.cpp:156] Memory required for data: 534676512
I0403 15:04:35.975085 31099 layer_factory.hpp:77] Creating layer inception_3a/5x5_reduce
I0403 15:04:35.975109 31099 net.cpp:91] Creating Layer inception_3a/5x5_reduce
I0403 15:04:35.975128 31099 net.cpp:425] inception_3a/5x5_reduce <- pool2/3x3_s2_pool2/3x3_s2_0_split_2
I0403 15:04:35.975152 31099 net.cpp:399] inception_3a/5x5_reduce -> inception_3a/5x5_reduce
I0403 15:04:35.976167 31099 net.cpp:141] Setting up inception_3a/5x5_reduce
I0403 15:04:35.976198 31099 net.cpp:148] Top shape: 24 16 28 28 (301056)
I0403 15:04:35.976217 31099 net.cpp:156] Memory required for data: 535880736
I0403 15:04:35.976238 31099 layer_factory.hpp:77] Creating layer inception_3a/relu_5x5_reduce
I0403 15:04:35.976263 31099 net.cpp:91] Creating Layer inception_3a/relu_5x5_reduce
I0403 15:04:35.976282 31099 net.cpp:425] inception_3a/relu_5x5_reduce <- inception_3a/5x5_reduce
I0403 15:04:35.976302 31099 net.cpp:386] inception_3a/relu_5x5_reduce -> inception_3a/5x5_reduce (in-place)
I0403 15:04:35.976616 31099 net.cpp:141] Setting up inception_3a/relu_5x5_reduce
I0403 15:04:35.976644 31099 net.cpp:148] Top shape: 24 16 28 28 (301056)
I0403 15:04:35.976661 31099 net.cpp:156] Memory required for data: 537084960
I0403 15:04:35.976680 31099 layer_factory.hpp:77] Creating layer inception_3a/5x5
I0403 15:04:35.976704 31099 net.cpp:91] Creating Layer inception_3a/5x5
I0403 15:04:35.976722 31099 net.cpp:425] inception_3a/5x5 <- inception_3a/5x5_reduce
I0403 15:04:35.976747 31099 net.cpp:399] inception_3a/5x5 -> inception_3a/5x5
I0403 15:04:35.977812 31099 net.cpp:141] Setting up inception_3a/5x5
I0403 15:04:35.977844 31099 net.cpp:148] Top shape: 24 32 28 28 (602112)
I0403 15:04:35.977862 31099 net.cpp:156] Memory required for data: 539493408
I0403 15:04:35.977882 31099 layer_factory.hpp:77] Creating layer inception_3a/relu_5x5
I0403 15:04:35.977902 31099 net.cpp:91] Creating Layer inception_3a/relu_5x5
I0403 15:04:35.977921 31099 net.cpp:425] inception_3a/relu_5x5 <- inception_3a/5x5
I0403 15:04:35.977941 31099 net.cpp:386] inception_3a/relu_5x5 -> inception_3a/5x5 (in-place)
I0403 15:04:35.978124 31099 net.cpp:141] Setting up inception_3a/relu_5x5
I0403 15:04:35.978152 31099 net.cpp:148] Top shape: 24 32 28 28 (602112)
I0403 15:04:35.978168 31099 net.cpp:156] Memory required for data: 541901856
I0403 15:04:35.978185 31099 layer_factory.hpp:77] Creating layer inception_3a/pool
I0403 15:04:35.978205 31099 net.cpp:91] Creating Layer inception_3a/pool
I0403 15:04:35.978222 31099 net.cpp:425] inception_3a/pool <- pool2/3x3_s2_pool2/3x3_s2_0_split_3
I0403 15:04:35.978263 31099 net.cpp:399] inception_3a/pool -> inception_3a/pool
I0403 15:04:35.978329 31099 net.cpp:141] Setting up inception_3a/pool
I0403 15:04:35.978355 31099 net.cpp:148] Top shape: 24 192 28 28 (3612672)
I0403 15:04:35.978373 31099 net.cpp:156] Memory required for data: 556352544
I0403 15:04:35.978389 31099 layer_factory.hpp:77] Creating layer inception_3a/pool_proj
I0403 15:04:35.978415 31099 net.cpp:91] Creating Layer inception_3a/pool_proj
I0403 15:04:35.978433 31099 net.cpp:425] inception_3a/pool_proj <- inception_3a/pool
I0403 15:04:35.978458 31099 net.cpp:399] inception_3a/pool_proj -> inception_3a/pool_proj
I0403 15:04:35.979472 31099 net.cpp:141] Setting up inception_3a/pool_proj
I0403 15:04:35.979503 31099 net.cpp:148] Top shape: 24 32 28 28 (602112)
I0403 15:04:35.979521 31099 net.cpp:156] Memory required for data: 558760992
I0403 15:04:35.979547 31099 layer_factory.hpp:77] Creating layer inception_3a/relu_pool_proj
I0403 15:04:35.979570 31099 net.cpp:91] Creating Layer inception_3a/relu_pool_proj
I0403 15:04:35.979590 31099 net.cpp:425] inception_3a/relu_pool_proj <- inception_3a/pool_proj
I0403 15:04:35.979614 31099 net.cpp:386] inception_3a/relu_pool_proj -> inception_3a/pool_proj (in-place)
I0403 15:04:35.979905 31099 net.cpp:141] Setting up inception_3a/relu_pool_proj
I0403 15:04:35.979934 31099 net.cpp:148] Top shape: 24 32 28 28 (602112)
I0403 15:04:35.979950 31099 net.cpp:156] Memory required for data: 561169440
I0403 15:04:35.979967 31099 layer_factory.hpp:77] Creating layer inception_3a/output
I0403 15:04:35.979987 31099 net.cpp:91] Creating Layer inception_3a/output
I0403 15:04:35.980003 31099 net.cpp:425] inception_3a/output <- inception_3a/1x1
I0403 15:04:35.980022 31099 net.cpp:425] inception_3a/output <- inception_3a/3x3
I0403 15:04:35.980041 31099 net.cpp:425] inception_3a/output <- inception_3a/5x5
I0403 15:04:35.980059 31099 net.cpp:425] inception_3a/output <- inception_3a/pool_proj
I0403 15:04:35.980085 31099 net.cpp:399] inception_3a/output -> inception_3a/output
I0403 15:04:35.980134 31099 net.cpp:141] Setting up inception_3a/output
I0403 15:04:35.980162 31099 net.cpp:148] Top shape: 24 256 28 28 (4816896)
I0403 15:04:35.980180 31099 net.cpp:156] Memory required for data: 580437024
I0403 15:04:35.980195 31099 layer_factory.hpp:77] Creating layer inception_3a/output_inception_3a/output_0_split
I0403 15:04:35.980214 31099 net.cpp:91] Creating Layer inception_3a/output_inception_3a/output_0_split
I0403 15:04:35.980232 31099 net.cpp:425] inception_3a/output_inception_3a/output_0_split <- inception_3a/output
I0403 15:04:35.980250 31099 net.cpp:399] inception_3a/output_inception_3a/output_0_split -> inception_3a/output_inception_3a/output_0_split_0
I0403 15:04:35.980281 31099 net.cpp:399] inception_3a/output_inception_3a/output_0_split -> inception_3a/output_inception_3a/output_0_split_1
I0403 15:04:35.980307 31099 net.cpp:399] inception_3a/output_inception_3a/output_0_split -> inception_3a/output_inception_3a/output_0_split_2
I0403 15:04:35.980331 31099 net.cpp:399] inception_3a/output_inception_3a/output_0_split -> inception_3a/output_inception_3a/output_0_split_3
I0403 15:04:35.980412 31099 net.cpp:141] Setting up inception_3a/output_inception_3a/output_0_split
I0403 15:04:35.980439 31099 net.cpp:148] Top shape: 24 256 28 28 (4816896)
I0403 15:04:35.980458 31099 net.cpp:148] Top shape: 24 256 28 28 (4816896)
I0403 15:04:35.980475 31099 net.cpp:148] Top shape: 24 256 28 28 (4816896)
I0403 15:04:35.980494 31099 net.cpp:148] Top shape: 24 256 28 28 (4816896)
I0403 15:04:35.980509 31099 net.cpp:156] Memory required for data: 657507360
I0403 15:04:35.980525 31099 layer_factory.hpp:77] Creating layer inception_3b/1x1
I0403 15:04:35.980550 31099 net.cpp:91] Creating Layer inception_3b/1x1
I0403 15:04:35.980571 31099 net.cpp:425] inception_3b/1x1 <- inception_3a/output_inception_3a/output_0_split_0
I0403 15:04:35.980594 31099 net.cpp:399] inception_3b/1x1 -> inception_3b/1x1
I0403 15:04:35.981792 31099 net.cpp:141] Setting up inception_3b/1x1
I0403 15:04:35.981838 31099 net.cpp:148] Top shape: 24 128 28 28 (2408448)
I0403 15:04:35.981856 31099 net.cpp:156] Memory required for data: 667141152
I0403 15:04:35.981878 31099 layer_factory.hpp:77] Creating layer inception_3b/relu_1x1
I0403 15:04:35.981899 31099 net.cpp:91] Creating Layer inception_3b/relu_1x1
I0403 15:04:35.981915 31099 net.cpp:425] inception_3b/relu_1x1 <- inception_3b/1x1
I0403 15:04:35.981935 31099 net.cpp:386] inception_3b/relu_1x1 -> inception_3b/1x1 (in-place)
I0403 15:04:35.982125 31099 net.cpp:141] Setting up inception_3b/relu_1x1
I0403 15:04:35.982152 31099 net.cpp:148] Top shape: 24 128 28 28 (2408448)
I0403 15:04:35.982169 31099 net.cpp:156] Memory required for data: 676774944
I0403 15:04:35.982187 31099 layer_factory.hpp:77] Creating layer inception_3b/3x3_reduce
I0403 15:04:35.982211 31099 net.cpp:91] Creating Layer inception_3b/3x3_reduce
I0403 15:04:35.982230 31099 net.cpp:425] inception_3b/3x3_reduce <- inception_3a/output_inception_3a/output_0_split_1
I0403 15:04:35.982259 31099 net.cpp:399] inception_3b/3x3_reduce -> inception_3b/3x3_reduce
I0403 15:04:35.983463 31099 net.cpp:141] Setting up inception_3b/3x3_reduce
I0403 15:04:35.983497 31099 net.cpp:148] Top shape: 24 128 28 28 (2408448)
I0403 15:04:35.983520 31099 net.cpp:156] Memory required for data: 686408736
I0403 15:04:35.983541 31099 layer_factory.hpp:77] Creating layer inception_3b/relu_3x3_reduce
I0403 15:04:35.983561 31099 net.cpp:91] Creating Layer inception_3b/relu_3x3_reduce
I0403 15:04:35.983579 31099 net.cpp:425] inception_3b/relu_3x3_reduce <- inception_3b/3x3_reduce
I0403 15:04:35.983602 31099 net.cpp:386] inception_3b/relu_3x3_reduce -> inception_3b/3x3_reduce (in-place)
I0403 15:04:35.983783 31099 net.cpp:141] Setting up inception_3b/relu_3x3_reduce
I0403 15:04:35.983810 31099 net.cpp:148] Top shape: 24 128 28 28 (2408448)
I0403 15:04:35.983825 31099 net.cpp:156] Memory required for data: 696042528
I0403 15:04:35.983842 31099 layer_factory.hpp:77] Creating layer inception_3b/3x3
I0403 15:04:35.983870 31099 net.cpp:91] Creating Layer inception_3b/3x3
I0403 15:04:35.983889 31099 net.cpp:425] inception_3b/3x3 <- inception_3b/3x3_reduce
I0403 15:04:35.983911 31099 net.cpp:399] inception_3b/3x3 -> inception_3b/3x3
I0403 15:04:35.986995 31099 net.cpp:141] Setting up inception_3b/3x3
I0403 15:04:35.987027 31099 net.cpp:148] Top shape: 24 192 28 28 (3612672)
I0403 15:04:35.987046 31099 net.cpp:156] Memory required for data: 710493216
I0403 15:04:35.987066 31099 layer_factory.hpp:77] Creating layer inception_3b/relu_3x3
I0403 15:04:35.987087 31099 net.cpp:91] Creating Layer inception_3b/relu_3x3
I0403 15:04:35.987107 31099 net.cpp:425] inception_3b/relu_3x3 <- inception_3b/3x3
I0403 15:04:35.987128 31099 net.cpp:386] inception_3b/relu_3x3 -> inception_3b/3x3 (in-place)
I0403 15:04:35.987431 31099 net.cpp:141] Setting up inception_3b/relu_3x3
I0403 15:04:35.987459 31099 net.cpp:148] Top shape: 24 192 28 28 (3612672)
I0403 15:04:35.987476 31099 net.cpp:156] Memory required for data: 724943904
I0403 15:04:35.987496 31099 layer_factory.hpp:77] Creating layer inception_3b/5x5_reduce
I0403 15:04:35.987526 31099 net.cpp:91] Creating Layer inception_3b/5x5_reduce
I0403 15:04:35.987550 31099 net.cpp:425] inception_3b/5x5_reduce <- inception_3a/output_inception_3a/output_0_split_2
I0403 15:04:35.987577 31099 net.cpp:399] inception_3b/5x5_reduce -> inception_3b/5x5_reduce
I0403 15:04:35.988626 31099 net.cpp:141] Setting up inception_3b/5x5_reduce
I0403 15:04:35.988656 31099 net.cpp:148] Top shape: 24 32 28 28 (602112)
I0403 15:04:35.988673 31099 net.cpp:156] Memory required for data: 727352352
I0403 15:04:35.988694 31099 layer_factory.hpp:77] Creating layer inception_3b/relu_5x5_reduce
I0403 15:04:35.988714 31099 net.cpp:91] Creating Layer inception_3b/relu_5x5_reduce
I0403 15:04:35.988732 31099 net.cpp:425] inception_3b/relu_5x5_reduce <- inception_3b/5x5_reduce
I0403 15:04:35.988754 31099 net.cpp:386] inception_3b/relu_5x5_reduce -> inception_3b/5x5_reduce (in-place)
I0403 15:04:35.988942 31099 net.cpp:141] Setting up inception_3b/relu_5x5_reduce
I0403 15:04:35.988982 31099 net.cpp:148] Top shape: 24 32 28 28 (602112)
I0403 15:04:35.988999 31099 net.cpp:156] Memory required for data: 729760800
I0403 15:04:35.989015 31099 layer_factory.hpp:77] Creating layer inception_3b/5x5
I0403 15:04:35.989048 31099 net.cpp:91] Creating Layer inception_3b/5x5
I0403 15:04:35.989068 31099 net.cpp:425] inception_3b/5x5 <- inception_3b/5x5_reduce
I0403 15:04:35.989092 31099 net.cpp:399] inception_3b/5x5 -> inception_3b/5x5
I0403 15:04:35.991199 31099 net.cpp:141] Setting up inception_3b/5x5
I0403 15:04:35.991233 31099 net.cpp:148] Top shape: 24 96 28 28 (1806336)
I0403 15:04:35.991255 31099 net.cpp:156] Memory required for data: 736986144
I0403 15:04:35.991276 31099 layer_factory.hpp:77] Creating layer inception_3b/relu_5x5
I0403 15:04:35.991297 31099 net.cpp:91] Creating Layer inception_3b/relu_5x5
I0403 15:04:35.991314 31099 net.cpp:425] inception_3b/relu_5x5 <- inception_3b/5x5
I0403 15:04:35.991336 31099 net.cpp:386] inception_3b/relu_5x5 -> inception_3b/5x5 (in-place)
I0403 15:04:35.991535 31099 net.cpp:141] Setting up inception_3b/relu_5x5
I0403 15:04:35.991564 31099 net.cpp:148] Top shape: 24 96 28 28 (1806336)
I0403 15:04:35.991580 31099 net.cpp:156] Memory required for data: 744211488
I0403 15:04:35.991596 31099 layer_factory.hpp:77] Creating layer inception_3b/pool
I0403 15:04:35.991616 31099 net.cpp:91] Creating Layer inception_3b/pool
I0403 15:04:35.991633 31099 net.cpp:425] inception_3b/pool <- inception_3a/output_inception_3a/output_0_split_3
I0403 15:04:35.991652 31099 net.cpp:399] inception_3b/pool -> inception_3b/pool
I0403 15:04:35.991713 31099 net.cpp:141] Setting up inception_3b/pool
I0403 15:04:35.991737 31099 net.cpp:148] Top shape: 24 256 28 28 (4816896)
I0403 15:04:35.991753 31099 net.cpp:156] Memory required for data: 763479072
I0403 15:04:35.991768 31099 layer_factory.hpp:77] Creating layer inception_3b/pool_proj
I0403 15:04:35.991792 31099 net.cpp:91] Creating Layer inception_3b/pool_proj
I0403 15:04:35.991811 31099 net.cpp:425] inception_3b/pool_proj <- inception_3b/pool
I0403 15:04:35.991832 31099 net.cpp:399] inception_3b/pool_proj -> inception_3b/pool_proj
I0403 15:04:35.992918 31099 net.cpp:141] Setting up inception_3b/pool_proj
I0403 15:04:35.992949 31099 net.cpp:148] Top shape: 24 64 28 28 (1204224)
I0403 15:04:35.992965 31099 net.cpp:156] Memory required for data: 768295968
I0403 15:04:35.992985 31099 layer_factory.hpp:77] Creating layer inception_3b/relu_pool_proj
I0403 15:04:35.993006 31099 net.cpp:91] Creating Layer inception_3b/relu_pool_proj
I0403 15:04:35.993023 31099 net.cpp:425] inception_3b/relu_pool_proj <- inception_3b/pool_proj
I0403 15:04:35.993042 31099 net.cpp:386] inception_3b/relu_pool_proj -> inception_3b/pool_proj (in-place)
I0403 15:04:35.993454 31099 net.cpp:141] Setting up inception_3b/relu_pool_proj
I0403 15:04:35.993482 31099 net.cpp:148] Top shape: 24 64 28 28 (1204224)
I0403 15:04:35.993499 31099 net.cpp:156] Memory required for data: 773112864
I0403 15:04:35.993515 31099 layer_factory.hpp:77] Creating layer inception_3b/output
I0403 15:04:35.993537 31099 net.cpp:91] Creating Layer inception_3b/output
I0403 15:04:35.993554 31099 net.cpp:425] inception_3b/output <- inception_3b/1x1
I0403 15:04:35.993573 31099 net.cpp:425] inception_3b/output <- inception_3b/3x3
I0403 15:04:35.993590 31099 net.cpp:425] inception_3b/output <- inception_3b/5x5
I0403 15:04:35.993609 31099 net.cpp:425] inception_3b/output <- inception_3b/pool_proj
I0403 15:04:35.993626 31099 net.cpp:399] inception_3b/output -> inception_3b/output
I0403 15:04:35.993670 31099 net.cpp:141] Setting up inception_3b/output
I0403 15:04:35.993697 31099 net.cpp:148] Top shape: 24 480 28 28 (9031680)
I0403 15:04:35.993713 31099 net.cpp:156] Memory required for data: 809239584
I0403 15:04:35.993731 31099 layer_factory.hpp:77] Creating layer pool3/3x3_s2
I0403 15:04:35.993749 31099 net.cpp:91] Creating Layer pool3/3x3_s2
I0403 15:04:35.993765 31099 net.cpp:425] pool3/3x3_s2 <- inception_3b/output
I0403 15:04:35.993785 31099 net.cpp:399] pool3/3x3_s2 -> pool3/3x3_s2
I0403 15:04:35.993860 31099 net.cpp:141] Setting up pool3/3x3_s2
I0403 15:04:35.993888 31099 net.cpp:148] Top shape: 24 480 14 14 (2257920)
I0403 15:04:35.993906 31099 net.cpp:156] Memory required for data: 818271264
I0403 15:04:35.993922 31099 layer_factory.hpp:77] Creating layer pool3/3x3_s2_pool3/3x3_s2_0_split
I0403 15:04:35.993940 31099 net.cpp:91] Creating Layer pool3/3x3_s2_pool3/3x3_s2_0_split
I0403 15:04:35.993957 31099 net.cpp:425] pool3/3x3_s2_pool3/3x3_s2_0_split <- pool3/3x3_s2
I0403 15:04:35.993974 31099 net.cpp:399] pool3/3x3_s2_pool3/3x3_s2_0_split -> pool3/3x3_s2_pool3/3x3_s2_0_split_0
I0403 15:04:35.993994 31099 net.cpp:399] pool3/3x3_s2_pool3/3x3_s2_0_split -> pool3/3x3_s2_pool3/3x3_s2_0_split_1
I0403 15:04:35.994017 31099 net.cpp:399] pool3/3x3_s2_pool3/3x3_s2_0_split -> pool3/3x3_s2_pool3/3x3_s2_0_split_2
I0403 15:04:35.994041 31099 net.cpp:399] pool3/3x3_s2_pool3/3x3_s2_0_split -> pool3/3x3_s2_pool3/3x3_s2_0_split_3
I0403 15:04:35.994120 31099 net.cpp:141] Setting up pool3/3x3_s2_pool3/3x3_s2_0_split
I0403 15:04:35.994149 31099 net.cpp:148] Top shape: 24 480 14 14 (2257920)
I0403 15:04:35.994169 31099 net.cpp:148] Top shape: 24 480 14 14 (2257920)
I0403 15:04:35.994189 31099 net.cpp:148] Top shape: 24 480 14 14 (2257920)
I0403 15:04:35.994206 31099 net.cpp:148] Top shape: 24 480 14 14 (2257920)
I0403 15:04:35.994223 31099 net.cpp:156] Memory required for data: 854397984
I0403 15:04:35.994238 31099 layer_factory.hpp:77] Creating layer inception_4a/1x1
I0403 15:04:35.994273 31099 net.cpp:91] Creating Layer inception_4a/1x1
I0403 15:04:35.994294 31099 net.cpp:425] inception_4a/1x1 <- pool3/3x3_s2_pool3/3x3_s2_0_split_0
I0403 15:04:35.994318 31099 net.cpp:399] inception_4a/1x1 -> inception_4a/1x1
I0403 15:04:35.995931 31099 net.cpp:141] Setting up inception_4a/1x1
I0403 15:04:35.995961 31099 net.cpp:148] Top shape: 24 192 14 14 (903168)
I0403 15:04:35.995978 31099 net.cpp:156] Memory required for data: 858010656
I0403 15:04:35.995998 31099 layer_factory.hpp:77] Creating layer inception_4a/relu_1x1
I0403 15:04:35.996022 31099 net.cpp:91] Creating Layer inception_4a/relu_1x1
I0403 15:04:35.996042 31099 net.cpp:425] inception_4a/relu_1x1 <- inception_4a/1x1
I0403 15:04:35.996060 31099 net.cpp:386] inception_4a/relu_1x1 -> inception_4a/1x1 (in-place)
I0403 15:04:35.996239 31099 net.cpp:141] Setting up inception_4a/relu_1x1
I0403 15:04:35.996273 31099 net.cpp:148] Top shape: 24 192 14 14 (903168)
I0403 15:04:35.996291 31099 net.cpp:156] Memory required for data: 861623328
I0403 15:04:35.996309 31099 layer_factory.hpp:77] Creating layer inception_4a/3x3_reduce
I0403 15:04:35.996332 31099 net.cpp:91] Creating Layer inception_4a/3x3_reduce
I0403 15:04:35.996352 31099 net.cpp:425] inception_4a/3x3_reduce <- pool3/3x3_s2_pool3/3x3_s2_0_split_1
I0403 15:04:35.996374 31099 net.cpp:399] inception_4a/3x3_reduce -> inception_4a/3x3_reduce
I0403 15:04:35.997722 31099 net.cpp:141] Setting up inception_4a/3x3_reduce
I0403 15:04:35.997752 31099 net.cpp:148] Top shape: 24 96 14 14 (451584)
I0403 15:04:35.997771 31099 net.cpp:156] Memory required for data: 863429664
I0403 15:04:35.997797 31099 layer_factory.hpp:77] Creating layer inception_4a/relu_3x3_reduce
I0403 15:04:35.997822 31099 net.cpp:91] Creating Layer inception_4a/relu_3x3_reduce
I0403 15:04:35.997841 31099 net.cpp:425] inception_4a/relu_3x3_reduce <- inception_4a/3x3_reduce
I0403 15:04:35.997860 31099 net.cpp:386] inception_4a/relu_3x3_reduce -> inception_4a/3x3_reduce (in-place)
I0403 15:04:35.998049 31099 net.cpp:141] Setting up inception_4a/relu_3x3_reduce
I0403 15:04:35.998078 31099 net.cpp:148] Top shape: 24 96 14 14 (451584)
I0403 15:04:35.998095 31099 net.cpp:156] Memory required for data: 865236000
I0403 15:04:35.998112 31099 layer_factory.hpp:77] Creating layer inception_4a/3x3
I0403 15:04:35.998137 31099 net.cpp:91] Creating Layer inception_4a/3x3
I0403 15:04:35.998157 31099 net.cpp:425] inception_4a/3x3 <- inception_4a/3x3_reduce
I0403 15:04:35.998177 31099 net.cpp:399] inception_4a/3x3 -> inception_4a/3x3
I0403 15:04:36.001014 31099 net.cpp:141] Setting up inception_4a/3x3
I0403 15:04:36.001049 31099 net.cpp:148] Top shape: 24 208 14 14 (978432)
I0403 15:04:36.001068 31099 net.cpp:156] Memory required for data: 869149728
I0403 15:04:36.001103 31099 layer_factory.hpp:77] Creating layer inception_4a/relu_3x3
I0403 15:04:36.001124 31099 net.cpp:91] Creating Layer inception_4a/relu_3x3
I0403 15:04:36.001142 31099 net.cpp:425] inception_4a/relu_3x3 <- inception_4a/3x3
I0403 15:04:36.001164 31099 net.cpp:386] inception_4a/relu_3x3 -> inception_4a/3x3 (in-place)
I0403 15:04:36.001468 31099 net.cpp:141] Setting up inception_4a/relu_3x3
I0403 15:04:36.001499 31099 net.cpp:148] Top shape: 24 208 14 14 (978432)
I0403 15:04:36.001516 31099 net.cpp:156] Memory required for data: 873063456
I0403 15:04:36.001533 31099 layer_factory.hpp:77] Creating layer inception_4a/5x5_reduce
I0403 15:04:36.001560 31099 net.cpp:91] Creating Layer inception_4a/5x5_reduce
I0403 15:04:36.001579 31099 net.cpp:425] inception_4a/5x5_reduce <- pool3/3x3_s2_pool3/3x3_s2_0_split_2
I0403 15:04:36.001601 31099 net.cpp:399] inception_4a/5x5_reduce -> inception_4a/5x5_reduce
I0403 15:04:36.002696 31099 net.cpp:141] Setting up inception_4a/5x5_reduce
I0403 15:04:36.002728 31099 net.cpp:148] Top shape: 24 16 14 14 (75264)
I0403 15:04:36.002748 31099 net.cpp:156] Memory required for data: 873364512
I0403 15:04:36.002768 31099 layer_factory.hpp:77] Creating layer inception_4a/relu_5x5_reduce
I0403 15:04:36.002787 31099 net.cpp:91] Creating Layer inception_4a/relu_5x5_reduce
I0403 15:04:36.002804 31099 net.cpp:425] inception_4a/relu_5x5_reduce <- inception_4a/5x5_reduce
I0403 15:04:36.002826 31099 net.cpp:386] inception_4a/relu_5x5_reduce -> inception_4a/5x5_reduce (in-place)
I0403 15:04:36.003016 31099 net.cpp:141] Setting up inception_4a/relu_5x5_reduce
I0403 15:04:36.003044 31099 net.cpp:148] Top shape: 24 16 14 14 (75264)
I0403 15:04:36.003060 31099 net.cpp:156] Memory required for data: 873665568
I0403 15:04:36.003077 31099 layer_factory.hpp:77] Creating layer inception_4a/5x5
I0403 15:04:36.003100 31099 net.cpp:91] Creating Layer inception_4a/5x5
I0403 15:04:36.003119 31099 net.cpp:425] inception_4a/5x5 <- inception_4a/5x5_reduce
I0403 15:04:36.003142 31099 net.cpp:399] inception_4a/5x5 -> inception_4a/5x5
I0403 15:04:36.004338 31099 net.cpp:141] Setting up inception_4a/5x5
I0403 15:04:36.004369 31099 net.cpp:148] Top shape: 24 48 14 14 (225792)
I0403 15:04:36.004389 31099 net.cpp:156] Memory required for data: 874568736
I0403 15:04:36.004412 31099 layer_factory.hpp:77] Creating layer inception_4a/relu_5x5
I0403 15:04:36.004436 31099 net.cpp:91] Creating Layer inception_4a/relu_5x5
I0403 15:04:36.004454 31099 net.cpp:425] inception_4a/relu_5x5 <- inception_4a/5x5
I0403 15:04:36.004474 31099 net.cpp:386] inception_4a/relu_5x5 -> inception_4a/5x5 (in-place)
I0403 15:04:36.004664 31099 net.cpp:141] Setting up inception_4a/relu_5x5
I0403 15:04:36.004691 31099 net.cpp:148] Top shape: 24 48 14 14 (225792)
I0403 15:04:36.004709 31099 net.cpp:156] Memory required for data: 875471904
I0403 15:04:36.004726 31099 layer_factory.hpp:77] Creating layer inception_4a/pool
I0403 15:04:36.004752 31099 net.cpp:91] Creating Layer inception_4a/pool
I0403 15:04:36.004772 31099 net.cpp:425] inception_4a/pool <- pool3/3x3_s2_pool3/3x3_s2_0_split_3
I0403 15:04:36.004792 31099 net.cpp:399] inception_4a/pool -> inception_4a/pool
I0403 15:04:36.004865 31099 net.cpp:141] Setting up inception_4a/pool
I0403 15:04:36.004892 31099 net.cpp:148] Top shape: 24 480 14 14 (2257920)
I0403 15:04:36.004915 31099 net.cpp:156] Memory required for data: 884503584
I0403 15:04:36.004932 31099 layer_factory.hpp:77] Creating layer inception_4a/pool_proj
I0403 15:04:36.004956 31099 net.cpp:91] Creating Layer inception_4a/pool_proj
I0403 15:04:36.004973 31099 net.cpp:425] inception_4a/pool_proj <- inception_4a/pool
I0403 15:04:36.004997 31099 net.cpp:399] inception_4a/pool_proj -> inception_4a/pool_proj
I0403 15:04:36.006240 31099 net.cpp:141] Setting up inception_4a/pool_proj
I0403 15:04:36.006276 31099 net.cpp:148] Top shape: 24 64 14 14 (301056)
I0403 15:04:36.006314 31099 net.cpp:156] Memory required for data: 885707808
I0403 15:04:36.006336 31099 layer_factory.hpp:77] Creating layer inception_4a/relu_pool_proj
I0403 15:04:36.006359 31099 net.cpp:91] Creating Layer inception_4a/relu_pool_proj
I0403 15:04:36.006379 31099 net.cpp:425] inception_4a/relu_pool_proj <- inception_4a/pool_proj
I0403 15:04:36.006398 31099 net.cpp:386] inception_4a/relu_pool_proj -> inception_4a/pool_proj (in-place)
I0403 15:04:36.006705 31099 net.cpp:141] Setting up inception_4a/relu_pool_proj
I0403 15:04:36.006734 31099 net.cpp:148] Top shape: 24 64 14 14 (301056)
I0403 15:04:36.006752 31099 net.cpp:156] Memory required for data: 886912032
I0403 15:04:36.006768 31099 layer_factory.hpp:77] Creating layer inception_4a/output
I0403 15:04:36.006791 31099 net.cpp:91] Creating Layer inception_4a/output
I0403 15:04:36.006809 31099 net.cpp:425] inception_4a/output <- inception_4a/1x1
I0403 15:04:36.006829 31099 net.cpp:425] inception_4a/output <- inception_4a/3x3
I0403 15:04:36.006847 31099 net.cpp:425] inception_4a/output <- inception_4a/5x5
I0403 15:04:36.006865 31099 net.cpp:425] inception_4a/output <- inception_4a/pool_proj
I0403 15:04:36.006883 31099 net.cpp:399] inception_4a/output -> inception_4a/output
I0403 15:04:36.006932 31099 net.cpp:141] Setting up inception_4a/output
I0403 15:04:36.006958 31099 net.cpp:148] Top shape: 24 512 14 14 (2408448)
I0403 15:04:36.006978 31099 net.cpp:156] Memory required for data: 896545824
I0403 15:04:36.006994 31099 layer_factory.hpp:77] Creating layer inception_4a/output_inception_4a/output_0_split
I0403 15:04:36.007012 31099 net.cpp:91] Creating Layer inception_4a/output_inception_4a/output_0_split
I0403 15:04:36.007030 31099 net.cpp:425] inception_4a/output_inception_4a/output_0_split <- inception_4a/output
I0403 15:04:36.007053 31099 net.cpp:399] inception_4a/output_inception_4a/output_0_split -> inception_4a/output_inception_4a/output_0_split_0
I0403 15:04:36.007077 31099 net.cpp:399] inception_4a/output_inception_4a/output_0_split -> inception_4a/output_inception_4a/output_0_split_1
I0403 15:04:36.007102 31099 net.cpp:399] inception_4a/output_inception_4a/output_0_split -> inception_4a/output_inception_4a/output_0_split_2
I0403 15:04:36.007125 31099 net.cpp:399] inception_4a/output_inception_4a/output_0_split -> inception_4a/output_inception_4a/output_0_split_3
I0403 15:04:36.007148 31099 net.cpp:399] inception_4a/output_inception_4a/output_0_split -> inception_4a/output_inception_4a/output_0_split_4
I0403 15:04:36.007249 31099 net.cpp:141] Setting up inception_4a/output_inception_4a/output_0_split
I0403 15:04:36.007279 31099 net.cpp:148] Top shape: 24 512 14 14 (2408448)
I0403 15:04:36.007298 31099 net.cpp:148] Top shape: 24 512 14 14 (2408448)
I0403 15:04:36.007316 31099 net.cpp:148] Top shape: 24 512 14 14 (2408448)
I0403 15:04:36.007333 31099 net.cpp:148] Top shape: 24 512 14 14 (2408448)
I0403 15:04:36.007350 31099 net.cpp:148] Top shape: 24 512 14 14 (2408448)
I0403 15:04:36.007366 31099 net.cpp:156] Memory required for data: 944714784
I0403 15:04:36.007382 31099 layer_factory.hpp:77] Creating layer loss1/ave_pool
I0403 15:04:36.007402 31099 net.cpp:91] Creating Layer loss1/ave_pool
I0403 15:04:36.007421 31099 net.cpp:425] loss1/ave_pool <- inception_4a/output_inception_4a/output_0_split_0
I0403 15:04:36.007442 31099 net.cpp:399] loss1/ave_pool -> loss1/ave_pool
I0403 15:04:36.007665 31099 net.cpp:141] Setting up loss1/ave_pool
I0403 15:04:36.007694 31099 net.cpp:148] Top shape: 24 512 4 4 (196608)
I0403 15:04:36.007710 31099 net.cpp:156] Memory required for data: 945501216
I0403 15:04:36.007728 31099 layer_factory.hpp:77] Creating layer loss1/conv
I0403 15:04:36.007752 31099 net.cpp:91] Creating Layer loss1/conv
I0403 15:04:36.007771 31099 net.cpp:425] loss1/conv <- loss1/ave_pool
I0403 15:04:36.007793 31099 net.cpp:399] loss1/conv -> loss1/conv
I0403 15:04:36.009301 31099 net.cpp:141] Setting up loss1/conv
I0403 15:04:36.009336 31099 net.cpp:148] Top shape: 24 128 4 4 (49152)
I0403 15:04:36.009358 31099 net.cpp:156] Memory required for data: 945697824
I0403 15:04:36.009395 31099 layer_factory.hpp:77] Creating layer loss1/relu_conv
I0403 15:04:36.009416 31099 net.cpp:91] Creating Layer loss1/relu_conv
I0403 15:04:36.009435 31099 net.cpp:425] loss1/relu_conv <- loss1/conv
I0403 15:04:36.009462 31099 net.cpp:386] loss1/relu_conv -> loss1/conv (in-place)
I0403 15:04:36.009757 31099 net.cpp:141] Setting up loss1/relu_conv
I0403 15:04:36.009789 31099 net.cpp:148] Top shape: 24 128 4 4 (49152)
I0403 15:04:36.009806 31099 net.cpp:156] Memory required for data: 945894432
I0403 15:04:36.009824 31099 layer_factory.hpp:77] Creating layer loss1/fc
I0403 15:04:36.009850 31099 net.cpp:91] Creating Layer loss1/fc
I0403 15:04:36.009870 31099 net.cpp:425] loss1/fc <- loss1/conv
I0403 15:04:36.009892 31099 net.cpp:399] loss1/fc -> loss1/fc
I0403 15:04:36.028640 31099 net.cpp:141] Setting up loss1/fc
I0403 15:04:36.028677 31099 net.cpp:148] Top shape: 24 1024 (24576)
I0403 15:04:36.028695 31099 net.cpp:156] Memory required for data: 945992736
I0403 15:04:36.028717 31099 layer_factory.hpp:77] Creating layer loss1/relu_fc
I0403 15:04:36.028740 31099 net.cpp:91] Creating Layer loss1/relu_fc
I0403 15:04:36.028759 31099 net.cpp:425] loss1/relu_fc <- loss1/fc
I0403 15:04:36.028779 31099 net.cpp:386] loss1/relu_fc -> loss1/fc (in-place)
I0403 15:04:36.028988 31099 net.cpp:141] Setting up loss1/relu_fc
I0403 15:04:36.029016 31099 net.cpp:148] Top shape: 24 1024 (24576)
I0403 15:04:36.029033 31099 net.cpp:156] Memory required for data: 946091040
I0403 15:04:36.029050 31099 layer_factory.hpp:77] Creating layer loss1/drop_fc
I0403 15:04:36.029081 31099 net.cpp:91] Creating Layer loss1/drop_fc
I0403 15:04:36.029100 31099 net.cpp:425] loss1/drop_fc <- loss1/fc
I0403 15:04:36.029122 31099 net.cpp:386] loss1/drop_fc -> loss1/fc (in-place)
I0403 15:04:36.029177 31099 net.cpp:141] Setting up loss1/drop_fc
I0403 15:04:36.029203 31099 net.cpp:148] Top shape: 24 1024 (24576)
I0403 15:04:36.029232 31099 net.cpp:156] Memory required for data: 946189344
I0403 15:04:36.029247 31099 layer_factory.hpp:77] Creating layer loss1/classifier_plantvillage
I0403 15:04:36.029291 31099 net.cpp:91] Creating Layer loss1/classifier_plantvillage
I0403 15:04:36.029314 31099 net.cpp:425] loss1/classifier_plantvillage <- loss1/fc
I0403 15:04:36.029335 31099 net.cpp:399] loss1/classifier_plantvillage -> loss1/classifier_plantvillage
I0403 15:04:36.030359 31099 net.cpp:141] Setting up loss1/classifier_plantvillage
I0403 15:04:36.030390 31099 net.cpp:148] Top shape: 24 38 (912)
I0403 15:04:36.030407 31099 net.cpp:156] Memory required for data: 946192992
I0403 15:04:36.030428 31099 layer_factory.hpp:77] Creating layer loss1/classifier_plantvillage_loss1/classifier_plantvillage_0_split
I0403 15:04:36.030452 31099 net.cpp:91] Creating Layer loss1/classifier_plantvillage_loss1/classifier_plantvillage_0_split
I0403 15:04:36.030470 31099 net.cpp:425] loss1/classifier_plantvillage_loss1/classifier_plantvillage_0_split <- loss1/classifier_plantvillage
I0403 15:04:36.030490 31099 net.cpp:399] loss1/classifier_plantvillage_loss1/classifier_plantvillage_0_split -> loss1/classifier_plantvillage_loss1/classifier_plantvillage_0_split_0
I0403 15:04:36.030517 31099 net.cpp:399] loss1/classifier_plantvillage_loss1/classifier_plantvillage_0_split -> loss1/classifier_plantvillage_loss1/classifier_plantvillage_0_split_1
I0403 15:04:36.030550 31099 net.cpp:399] loss1/classifier_plantvillage_loss1/classifier_plantvillage_0_split -> loss1/classifier_plantvillage_loss1/classifier_plantvillage_0_split_2
I0403 15:04:36.030647 31099 net.cpp:141] Setting up loss1/classifier_plantvillage_loss1/classifier_plantvillage_0_split
I0403 15:04:36.030673 31099 net.cpp:148] Top shape: 24 38 (912)
I0403 15:04:36.030689 31099 net.cpp:148] Top shape: 24 38 (912)
I0403 15:04:36.030719 31099 net.cpp:148] Top shape: 24 38 (912)
I0403 15:04:36.030735 31099 net.cpp:156] Memory required for data: 946203936
I0403 15:04:36.030751 31099 layer_factory.hpp:77] Creating layer inception_4b/1x1
I0403 15:04:36.030776 31099 net.cpp:91] Creating Layer inception_4b/1x1
I0403 15:04:36.030812 31099 net.cpp:425] inception_4b/1x1 <- inception_4a/output_inception_4a/output_0_split_1
I0403 15:04:36.030833 31099 net.cpp:399] inception_4b/1x1 -> inception_4b/1x1
I0403 15:04:36.032567 31099 net.cpp:141] Setting up inception_4b/1x1
I0403 15:04:36.032599 31099 net.cpp:148] Top shape: 24 160 14 14 (752640)
I0403 15:04:36.032618 31099 net.cpp:156] Memory required for data: 949214496
I0403 15:04:36.032637 31099 layer_factory.hpp:77] Creating layer inception_4b/relu_1x1
I0403 15:04:36.032658 31099 net.cpp:91] Creating Layer inception_4b/relu_1x1
I0403 15:04:36.032675 31099 net.cpp:425] inception_4b/relu_1x1 <- inception_4b/1x1
I0403 15:04:36.032696 31099 net.cpp:386] inception_4b/relu_1x1 -> inception_4b/1x1 (in-place)
I0403 15:04:36.032877 31099 net.cpp:141] Setting up inception_4b/relu_1x1
I0403 15:04:36.032904 31099 net.cpp:148] Top shape: 24 160 14 14 (752640)
I0403 15:04:36.032919 31099 net.cpp:156] Memory required for data: 952225056
I0403 15:04:36.032938 31099 layer_factory.hpp:77] Creating layer inception_4b/3x3_reduce
I0403 15:04:36.032963 31099 net.cpp:91] Creating Layer inception_4b/3x3_reduce
I0403 15:04:36.032980 31099 net.cpp:425] inception_4b/3x3_reduce <- inception_4a/output_inception_4a/output_0_split_2
I0403 15:04:36.033002 31099 net.cpp:399] inception_4b/3x3_reduce -> inception_4b/3x3_reduce
I0403 15:04:36.034404 31099 net.cpp:141] Setting up inception_4b/3x3_reduce
I0403 15:04:36.034432 31099 net.cpp:148] Top shape: 24 112 14 14 (526848)
I0403 15:04:36.034449 31099 net.cpp:156] Memory required for data: 954332448
I0403 15:04:36.034469 31099 layer_factory.hpp:77] Creating layer inception_4b/relu_3x3_reduce
I0403 15:04:36.034490 31099 net.cpp:91] Creating Layer inception_4b/relu_3x3_reduce
I0403 15:04:36.034509 31099 net.cpp:425] inception_4b/relu_3x3_reduce <- inception_4b/3x3_reduce
I0403 15:04:36.034529 31099 net.cpp:386] inception_4b/relu_3x3_reduce -> inception_4b/3x3_reduce (in-place)
I0403 15:04:36.034826 31099 net.cpp:141] Setting up inception_4b/relu_3x3_reduce
I0403 15:04:36.034853 31099 net.cpp:148] Top shape: 24 112 14 14 (526848)
I0403 15:04:36.034870 31099 net.cpp:156] Memory required for data: 956439840
I0403 15:04:36.034888 31099 layer_factory.hpp:77] Creating layer inception_4b/3x3
I0403 15:04:36.034911 31099 net.cpp:91] Creating Layer inception_4b/3x3
I0403 15:04:36.034930 31099 net.cpp:425] inception_4b/3x3 <- inception_4b/3x3_reduce
I0403 15:04:36.034953 31099 net.cpp:399] inception_4b/3x3 -> inception_4b/3x3
I0403 15:04:36.038019 31099 net.cpp:141] Setting up inception_4b/3x3
I0403 15:04:36.038051 31099 net.cpp:148] Top shape: 24 224 14 14 (1053696)
I0403 15:04:36.038069 31099 net.cpp:156] Memory required for data: 960654624
I0403 15:04:36.038089 31099 layer_factory.hpp:77] Creating layer inception_4b/relu_3x3
I0403 15:04:36.038110 31099 net.cpp:91] Creating Layer inception_4b/relu_3x3
I0403 15:04:36.038130 31099 net.cpp:425] inception_4b/relu_3x3 <- inception_4b/3x3
I0403 15:04:36.038147 31099 net.cpp:386] inception_4b/relu_3x3 -> inception_4b/3x3 (in-place)
I0403 15:04:36.038341 31099 net.cpp:141] Setting up inception_4b/relu_3x3
I0403 15:04:36.038369 31099 net.cpp:148] Top shape: 24 224 14 14 (1053696)
I0403 15:04:36.038385 31099 net.cpp:156] Memory required for data: 964869408
I0403 15:04:36.038401 31099 layer_factory.hpp:77] Creating layer inception_4b/5x5_reduce
I0403 15:04:36.038424 31099 net.cpp:91] Creating Layer inception_4b/5x5_reduce
I0403 15:04:36.038444 31099 net.cpp:425] inception_4b/5x5_reduce <- inception_4a/output_inception_4a/output_0_split_3
I0403 15:04:36.038467 31099 net.cpp:399] inception_4b/5x5_reduce -> inception_4b/5x5_reduce
I0403 15:04:36.039587 31099 net.cpp:141] Setting up inception_4b/5x5_reduce
I0403 15:04:36.039618 31099 net.cpp:148] Top shape: 24 24 14 14 (112896)
I0403 15:04:36.039634 31099 net.cpp:156] Memory required for data: 965320992
I0403 15:04:36.039654 31099 layer_factory.hpp:77] Creating layer inception_4b/relu_5x5_reduce
I0403 15:04:36.039674 31099 net.cpp:91] Creating Layer inception_4b/relu_5x5_reduce
I0403 15:04:36.039705 31099 net.cpp:425] inception_4b/relu_5x5_reduce <- inception_4b/5x5_reduce
I0403 15:04:36.039728 31099 net.cpp:386] inception_4b/relu_5x5_reduce -> inception_4b/5x5_reduce (in-place)
I0403 15:04:36.039919 31099 net.cpp:141] Setting up inception_4b/relu_5x5_reduce
I0403 15:04:36.039947 31099 net.cpp:148] Top shape: 24 24 14 14 (112896)
I0403 15:04:36.039963 31099 net.cpp:156] Memory required for data: 965772576
I0403 15:04:36.039978 31099 layer_factory.hpp:77] Creating layer inception_4b/5x5
I0403 15:04:36.040001 31099 net.cpp:91] Creating Layer inception_4b/5x5
I0403 15:04:36.040020 31099 net.cpp:425] inception_4b/5x5 <- inception_4b/5x5_reduce
I0403 15:04:36.040043 31099 net.cpp:399] inception_4b/5x5 -> inception_4b/5x5
I0403 15:04:36.041316 31099 net.cpp:141] Setting up inception_4b/5x5
I0403 15:04:36.041347 31099 net.cpp:148] Top shape: 24 64 14 14 (301056)
I0403 15:04:36.041366 31099 net.cpp:156] Memory required for data: 966976800
I0403 15:04:36.041386 31099 layer_factory.hpp:77] Creating layer inception_4b/relu_5x5
I0403 15:04:36.041406 31099 net.cpp:91] Creating Layer inception_4b/relu_5x5
I0403 15:04:36.041424 31099 net.cpp:425] inception_4b/relu_5x5 <- inception_4b/5x5
I0403 15:04:36.041445 31099 net.cpp:386] inception_4b/relu_5x5 -> inception_4b/5x5 (in-place)
I0403 15:04:36.041736 31099 net.cpp:141] Setting up inception_4b/relu_5x5
I0403 15:04:36.041767 31099 net.cpp:148] Top shape: 24 64 14 14 (301056)
I0403 15:04:36.041785 31099 net.cpp:156] Memory required for data: 968181024
I0403 15:04:36.041802 31099 layer_factory.hpp:77] Creating layer inception_4b/pool
I0403 15:04:36.041822 31099 net.cpp:91] Creating Layer inception_4b/pool
I0403 15:04:36.041839 31099 net.cpp:425] inception_4b/pool <- inception_4a/output_inception_4a/output_0_split_4
I0403 15:04:36.041860 31099 net.cpp:399] inception_4b/pool -> inception_4b/pool
I0403 15:04:36.041925 31099 net.cpp:141] Setting up inception_4b/pool
I0403 15:04:36.041954 31099 net.cpp:148] Top shape: 24 512 14 14 (2408448)
I0403 15:04:36.041970 31099 net.cpp:156] Memory required for data: 977814816
I0403 15:04:36.041985 31099 layer_factory.hpp:77] Creating layer inception_4b/pool_proj
I0403 15:04:36.042009 31099 net.cpp:91] Creating Layer inception_4b/pool_proj
I0403 15:04:36.042027 31099 net.cpp:425] inception_4b/pool_proj <- inception_4b/pool
I0403 15:04:36.042047 31099 net.cpp:399] inception_4b/pool_proj -> inception_4b/pool_proj
I0403 15:04:36.043306 31099 net.cpp:141] Setting up inception_4b/pool_proj
I0403 15:04:36.043336 31099 net.cpp:148] Top shape: 24 64 14 14 (301056)
I0403 15:04:36.043354 31099 net.cpp:156] Memory required for data: 979019040
I0403 15:04:36.043375 31099 layer_factory.hpp:77] Creating layer inception_4b/relu_pool_proj
I0403 15:04:36.043393 31099 net.cpp:91] Creating Layer inception_4b/relu_pool_proj
I0403 15:04:36.043414 31099 net.cpp:425] inception_4b/relu_pool_proj <- inception_4b/pool_proj
I0403 15:04:36.043434 31099 net.cpp:386] inception_4b/relu_pool_proj -> inception_4b/pool_proj (in-place)
I0403 15:04:36.043624 31099 net.cpp:141] Setting up inception_4b/relu_pool_proj
I0403 15:04:36.043651 31099 net.cpp:148] Top shape: 24 64 14 14 (301056)
I0403 15:04:36.043668 31099 net.cpp:156] Memory required for data: 980223264
I0403 15:04:36.043684 31099 layer_factory.hpp:77] Creating layer inception_4b/output
I0403 15:04:36.043705 31099 net.cpp:91] Creating Layer inception_4b/output
I0403 15:04:36.043725 31099 net.cpp:425] inception_4b/output <- inception_4b/1x1
I0403 15:04:36.043743 31099 net.cpp:425] inception_4b/output <- inception_4b/3x3
I0403 15:04:36.043761 31099 net.cpp:425] inception_4b/output <- inception_4b/5x5
I0403 15:04:36.043779 31099 net.cpp:425] inception_4b/output <- inception_4b/pool_proj
I0403 15:04:36.043799 31099 net.cpp:399] inception_4b/output -> inception_4b/output
I0403 15:04:36.043850 31099 net.cpp:141] Setting up inception_4b/output
I0403 15:04:36.043875 31099 net.cpp:148] Top shape: 24 512 14 14 (2408448)
I0403 15:04:36.043892 31099 net.cpp:156] Memory required for data: 989857056
I0403 15:04:36.043925 31099 layer_factory.hpp:77] Creating layer inception_4b/output_inception_4b/output_0_split
I0403 15:04:36.043944 31099 net.cpp:91] Creating Layer inception_4b/output_inception_4b/output_0_split
I0403 15:04:36.043962 31099 net.cpp:425] inception_4b/output_inception_4b/output_0_split <- inception_4b/output
I0403 15:04:36.043985 31099 net.cpp:399] inception_4b/output_inception_4b/output_0_split -> inception_4b/output_inception_4b/output_0_split_0
I0403 15:04:36.044009 31099 net.cpp:399] inception_4b/output_inception_4b/output_0_split -> inception_4b/output_inception_4b/output_0_split_1
I0403 15:04:36.044033 31099 net.cpp:399] inception_4b/output_inception_4b/output_0_split -> inception_4b/output_inception_4b/output_0_split_2
I0403 15:04:36.044054 31099 net.cpp:399] inception_4b/output_inception_4b/output_0_split -> inception_4b/output_inception_4b/output_0_split_3
I0403 15:04:36.044147 31099 net.cpp:141] Setting up inception_4b/output_inception_4b/output_0_split
I0403 15:04:36.044174 31099 net.cpp:148] Top shape: 24 512 14 14 (2408448)
I0403 15:04:36.044194 31099 net.cpp:148] Top shape: 24 512 14 14 (2408448)
I0403 15:04:36.044211 31099 net.cpp:148] Top shape: 24 512 14 14 (2408448)
I0403 15:04:36.044229 31099 net.cpp:148] Top shape: 24 512 14 14 (2408448)
I0403 15:04:36.044244 31099 net.cpp:156] Memory required for data: 1028392224
I0403 15:04:36.044272 31099 layer_factory.hpp:77] Creating layer inception_4c/1x1
I0403 15:04:36.044301 31099 net.cpp:91] Creating Layer inception_4c/1x1
I0403 15:04:36.044322 31099 net.cpp:425] inception_4c/1x1 <- inception_4b/output_inception_4b/output_0_split_0
I0403 15:04:36.044342 31099 net.cpp:399] inception_4c/1x1 -> inception_4c/1x1
I0403 15:04:36.045863 31099 net.cpp:141] Setting up inception_4c/1x1
I0403 15:04:36.045895 31099 net.cpp:148] Top shape: 24 128 14 14 (602112)
I0403 15:04:36.045912 31099 net.cpp:156] Memory required for data: 1030800672
I0403 15:04:36.045933 31099 layer_factory.hpp:77] Creating layer inception_4c/relu_1x1
I0403 15:04:36.045956 31099 net.cpp:91] Creating Layer inception_4c/relu_1x1
I0403 15:04:36.045976 31099 net.cpp:425] inception_4c/relu_1x1 <- inception_4c/1x1
I0403 15:04:36.045995 31099 net.cpp:386] inception_4c/relu_1x1 -> inception_4c/1x1 (in-place)
I0403 15:04:36.046187 31099 net.cpp:141] Setting up inception_4c/relu_1x1
I0403 15:04:36.046216 31099 net.cpp:148] Top shape: 24 128 14 14 (602112)
I0403 15:04:36.046233 31099 net.cpp:156] Memory required for data: 1033209120
I0403 15:04:36.046250 31099 layer_factory.hpp:77] Creating layer inception_4c/3x3_reduce
I0403 15:04:36.046279 31099 net.cpp:91] Creating Layer inception_4c/3x3_reduce
I0403 15:04:36.046298 31099 net.cpp:425] inception_4c/3x3_reduce <- inception_4b/output_inception_4b/output_0_split_1
I0403 15:04:36.046319 31099 net.cpp:399] inception_4c/3x3_reduce -> inception_4c/3x3_reduce
I0403 15:04:36.048382 31099 net.cpp:141] Setting up inception_4c/3x3_reduce
I0403 15:04:36.048413 31099 net.cpp:148] Top shape: 24 128 14 14 (602112)
I0403 15:04:36.048431 31099 net.cpp:156] Memory required for data: 1035617568
I0403 15:04:36.048451 31099 layer_factory.hpp:77] Creating layer inception_4c/relu_3x3_reduce
I0403 15:04:36.048471 31099 net.cpp:91] Creating Layer inception_4c/relu_3x3_reduce
I0403 15:04:36.048490 31099 net.cpp:425] inception_4c/relu_3x3_reduce <- inception_4c/3x3_reduce
I0403 15:04:36.048511 31099 net.cpp:386] inception_4c/relu_3x3_reduce -> inception_4c/3x3_reduce (in-place)
I0403 15:04:36.048816 31099 net.cpp:141] Setting up inception_4c/relu_3x3_reduce
I0403 15:04:36.048846 31099 net.cpp:148] Top shape: 24 128 14 14 (602112)
I0403 15:04:36.048862 31099 net.cpp:156] Memory required for data: 1038026016
I0403 15:04:36.048880 31099 layer_factory.hpp:77] Creating layer inception_4c/3x3
I0403 15:04:36.048907 31099 net.cpp:91] Creating Layer inception_4c/3x3
I0403 15:04:36.048925 31099 net.cpp:425] inception_4c/3x3 <- inception_4c/3x3_reduce
I0403 15:04:36.048949 31099 net.cpp:399] inception_4c/3x3 -> inception_4c/3x3
I0403 15:04:36.052804 31099 net.cpp:141] Setting up inception_4c/3x3
I0403 15:04:36.052852 31099 net.cpp:148] Top shape: 24 256 14 14 (1204224)
I0403 15:04:36.052871 31099 net.cpp:156] Memory required for data: 1042842912
I0403 15:04:36.052907 31099 layer_factory.hpp:77] Creating layer inception_4c/relu_3x3
I0403 15:04:36.052932 31099 net.cpp:91] Creating Layer inception_4c/relu_3x3
I0403 15:04:36.052949 31099 net.cpp:425] inception_4c/relu_3x3 <- inception_4c/3x3
I0403 15:04:36.052970 31099 net.cpp:386] inception_4c/relu_3x3 -> inception_4c/3x3 (in-place)
I0403 15:04:36.053164 31099 net.cpp:141] Setting up inception_4c/relu_3x3
I0403 15:04:36.053192 31099 net.cpp:148] Top shape: 24 256 14 14 (1204224)
I0403 15:04:36.053210 31099 net.cpp:156] Memory required for data: 1047659808
I0403 15:04:36.053226 31099 layer_factory.hpp:77] Creating layer inception_4c/5x5_reduce
I0403 15:04:36.053256 31099 net.cpp:91] Creating Layer inception_4c/5x5_reduce
I0403 15:04:36.053279 31099 net.cpp:425] inception_4c/5x5_reduce <- inception_4b/output_inception_4b/output_0_split_2
I0403 15:04:36.053303 31099 net.cpp:399] inception_4c/5x5_reduce -> inception_4c/5x5_reduce
I0403 15:04:36.054471 31099 net.cpp:141] Setting up inception_4c/5x5_reduce
I0403 15:04:36.054502 31099 net.cpp:148] Top shape: 24 24 14 14 (112896)
I0403 15:04:36.054520 31099 net.cpp:156] Memory required for data: 1048111392
I0403 15:04:36.054540 31099 layer_factory.hpp:77] Creating layer inception_4c/relu_5x5_reduce
I0403 15:04:36.054561 31099 net.cpp:91] Creating Layer inception_4c/relu_5x5_reduce
I0403 15:04:36.054581 31099 net.cpp:425] inception_4c/relu_5x5_reduce <- inception_4c/5x5_reduce
I0403 15:04:36.054602 31099 net.cpp:386] inception_4c/relu_5x5_reduce -> inception_4c/5x5_reduce (in-place)
I0403 15:04:36.054801 31099 net.cpp:141] Setting up inception_4c/relu_5x5_reduce
I0403 15:04:36.054829 31099 net.cpp:148] Top shape: 24 24 14 14 (112896)
I0403 15:04:36.054846 31099 net.cpp:156] Memory required for data: 1048562976
I0403 15:04:36.054862 31099 layer_factory.hpp:77] Creating layer inception_4c/5x5
I0403 15:04:36.054888 31099 net.cpp:91] Creating Layer inception_4c/5x5
I0403 15:04:36.054908 31099 net.cpp:425] inception_4c/5x5 <- inception_4c/5x5_reduce
I0403 15:04:36.054937 31099 net.cpp:399] inception_4c/5x5 -> inception_4c/5x5
I0403 15:04:36.056272 31099 net.cpp:141] Setting up inception_4c/5x5
I0403 15:04:36.056303 31099 net.cpp:148] Top shape: 24 64 14 14 (301056)
I0403 15:04:36.056319 31099 net.cpp:156] Memory required for data: 1049767200
I0403 15:04:36.056339 31099 layer_factory.hpp:77] Creating layer inception_4c/relu_5x5
I0403 15:04:36.056362 31099 net.cpp:91] Creating Layer inception_4c/relu_5x5
I0403 15:04:36.056382 31099 net.cpp:425] inception_4c/relu_5x5 <- inception_4c/5x5
I0403 15:04:36.056401 31099 net.cpp:386] inception_4c/relu_5x5 -> inception_4c/5x5 (in-place)
I0403 15:04:36.056707 31099 net.cpp:141] Setting up inception_4c/relu_5x5
I0403 15:04:36.056736 31099 net.cpp:148] Top shape: 24 64 14 14 (301056)
I0403 15:04:36.056752 31099 net.cpp:156] Memory required for data: 1050971424
I0403 15:04:36.056769 31099 layer_factory.hpp:77] Creating layer inception_4c/pool
I0403 15:04:36.056792 31099 net.cpp:91] Creating Layer inception_4c/pool
I0403 15:04:36.056812 31099 net.cpp:425] inception_4c/pool <- inception_4b/output_inception_4b/output_0_split_3
I0403 15:04:36.056831 31099 net.cpp:399] inception_4c/pool -> inception_4c/pool
I0403 15:04:36.056905 31099 net.cpp:141] Setting up inception_4c/pool
I0403 15:04:36.056931 31099 net.cpp:148] Top shape: 24 512 14 14 (2408448)
I0403 15:04:36.056947 31099 net.cpp:156] Memory required for data: 1060605216
I0403 15:04:36.056963 31099 layer_factory.hpp:77] Creating layer inception_4c/pool_proj
I0403 15:04:36.056988 31099 net.cpp:91] Creating Layer inception_4c/pool_proj
I0403 15:04:36.057006 31099 net.cpp:425] inception_4c/pool_proj <- inception_4c/pool
I0403 15:04:36.057029 31099 net.cpp:399] inception_4c/pool_proj -> inception_4c/pool_proj
I0403 15:04:36.058341 31099 net.cpp:141] Setting up inception_4c/pool_proj
I0403 15:04:36.058372 31099 net.cpp:148] Top shape: 24 64 14 14 (301056)
I0403 15:04:36.058408 31099 net.cpp:156] Memory required for data: 1061809440
I0403 15:04:36.058431 31099 layer_factory.hpp:77] Creating layer inception_4c/relu_pool_proj
I0403 15:04:36.058451 31099 net.cpp:91] Creating Layer inception_4c/relu_pool_proj
I0403 15:04:36.058487 31099 net.cpp:425] inception_4c/relu_pool_proj <- inception_4c/pool_proj
I0403 15:04:36.058511 31099 net.cpp:386] inception_4c/relu_pool_proj -> inception_4c/pool_proj (in-place)
I0403 15:04:36.058707 31099 net.cpp:141] Setting up inception_4c/relu_pool_proj
I0403 15:04:36.058735 31099 net.cpp:148] Top shape: 24 64 14 14 (301056)
I0403 15:04:36.058753 31099 net.cpp:156] Memory required for data: 1063013664
I0403 15:04:36.058770 31099 layer_factory.hpp:77] Creating layer inception_4c/output
I0403 15:04:36.058789 31099 net.cpp:91] Creating Layer inception_4c/output
I0403 15:04:36.058805 31099 net.cpp:425] inception_4c/output <- inception_4c/1x1
I0403 15:04:36.058827 31099 net.cpp:425] inception_4c/output <- inception_4c/3x3
I0403 15:04:36.058846 31099 net.cpp:425] inception_4c/output <- inception_4c/5x5
I0403 15:04:36.058866 31099 net.cpp:425] inception_4c/output <- inception_4c/pool_proj
I0403 15:04:36.058884 31099 net.cpp:399] inception_4c/output -> inception_4c/output
I0403 15:04:36.058936 31099 net.cpp:141] Setting up inception_4c/output
I0403 15:04:36.058961 31099 net.cpp:148] Top shape: 24 512 14 14 (2408448)
I0403 15:04:36.058979 31099 net.cpp:156] Memory required for data: 1072647456
I0403 15:04:36.058995 31099 layer_factory.hpp:77] Creating layer inception_4c/output_inception_4c/output_0_split
I0403 15:04:36.059013 31099 net.cpp:91] Creating Layer inception_4c/output_inception_4c/output_0_split
I0403 15:04:36.059032 31099 net.cpp:425] inception_4c/output_inception_4c/output_0_split <- inception_4c/output
I0403 15:04:36.059053 31099 net.cpp:399] inception_4c/output_inception_4c/output_0_split -> inception_4c/output_inception_4c/output_0_split_0
I0403 15:04:36.059087 31099 net.cpp:399] inception_4c/output_inception_4c/output_0_split -> inception_4c/output_inception_4c/output_0_split_1
I0403 15:04:36.059123 31099 net.cpp:399] inception_4c/output_inception_4c/output_0_split -> inception_4c/output_inception_4c/output_0_split_2
I0403 15:04:36.059173 31099 net.cpp:399] inception_4c/output_inception_4c/output_0_split -> inception_4c/output_inception_4c/output_0_split_3
I0403 15:04:36.059279 31099 net.cpp:141] Setting up inception_4c/output_inception_4c/output_0_split
I0403 15:04:36.059314 31099 net.cpp:148] Top shape: 24 512 14 14 (2408448)
I0403 15:04:36.059334 31099 net.cpp:148] Top shape: 24 512 14 14 (2408448)
I0403 15:04:36.059357 31099 net.cpp:148] Top shape: 24 512 14 14 (2408448)
I0403 15:04:36.059379 31099 net.cpp:148] Top shape: 24 512 14 14 (2408448)
I0403 15:04:36.059396 31099 net.cpp:156] Memory required for data: 1111182624
I0403 15:04:36.059412 31099 layer_factory.hpp:77] Creating layer inception_4d/1x1
I0403 15:04:36.059437 31099 net.cpp:91] Creating Layer inception_4d/1x1
I0403 15:04:36.059463 31099 net.cpp:425] inception_4d/1x1 <- inception_4c/output_inception_4c/output_0_split_0
I0403 15:04:36.059489 31099 net.cpp:399] inception_4d/1x1 -> inception_4d/1x1
I0403 15:04:36.060966 31099 net.cpp:141] Setting up inception_4d/1x1
I0403 15:04:36.061005 31099 net.cpp:148] Top shape: 24 112 14 14 (526848)
I0403 15:04:36.061036 31099 net.cpp:156] Memory required for data: 1113290016
I0403 15:04:36.061058 31099 layer_factory.hpp:77] Creating layer inception_4d/relu_1x1
I0403 15:04:36.061085 31099 net.cpp:91] Creating Layer inception_4d/relu_1x1
I0403 15:04:36.061105 31099 net.cpp:425] inception_4d/relu_1x1 <- inception_4d/1x1
I0403 15:04:36.061132 31099 net.cpp:386] inception_4d/relu_1x1 -> inception_4d/1x1 (in-place)
I0403 15:04:36.061342 31099 net.cpp:141] Setting up inception_4d/relu_1x1
I0403 15:04:36.061386 31099 net.cpp:148] Top shape: 24 112 14 14 (526848)
I0403 15:04:36.061410 31099 net.cpp:156] Memory required for data: 1115397408
I0403 15:04:36.061429 31099 layer_factory.hpp:77] Creating layer inception_4d/3x3_reduce
I0403 15:04:36.061475 31099 net.cpp:91] Creating Layer inception_4d/3x3_reduce
I0403 15:04:36.061512 31099 net.cpp:425] inception_4d/3x3_reduce <- inception_4c/output_inception_4c/output_0_split_1
I0403 15:04:36.061537 31099 net.cpp:399] inception_4d/3x3_reduce -> inception_4d/3x3_reduce
I0403 15:04:36.063172 31099 net.cpp:141] Setting up inception_4d/3x3_reduce
I0403 15:04:36.063204 31099 net.cpp:148] Top shape: 24 144 14 14 (677376)
I0403 15:04:36.063222 31099 net.cpp:156] Memory required for data: 1118106912
I0403 15:04:36.063244 31099 layer_factory.hpp:77] Creating layer inception_4d/relu_3x3_reduce
I0403 15:04:36.063276 31099 net.cpp:91] Creating Layer inception_4d/relu_3x3_reduce
I0403 15:04:36.063300 31099 net.cpp:425] inception_4d/relu_3x3_reduce <- inception_4d/3x3_reduce
I0403 15:04:36.063329 31099 net.cpp:386] inception_4d/relu_3x3_reduce -> inception_4d/3x3_reduce (in-place)
I0403 15:04:36.063657 31099 net.cpp:141] Setting up inception_4d/relu_3x3_reduce
I0403 15:04:36.063688 31099 net.cpp:148] Top shape: 24 144 14 14 (677376)
I0403 15:04:36.063709 31099 net.cpp:156] Memory required for data: 1120816416
I0403 15:04:36.063729 31099 layer_factory.hpp:77] Creating layer inception_4d/3x3
I0403 15:04:36.063753 31099 net.cpp:91] Creating Layer inception_4d/3x3
I0403 15:04:36.063774 31099 net.cpp:425] inception_4d/3x3 <- inception_4d/3x3_reduce
I0403 15:04:36.063808 31099 net.cpp:399] inception_4d/3x3 -> inception_4d/3x3
I0403 15:04:36.068372 31099 net.cpp:141] Setting up inception_4d/3x3
I0403 15:04:36.068408 31099 net.cpp:148] Top shape: 24 288 14 14 (1354752)
I0403 15:04:36.068424 31099 net.cpp:156] Memory required for data: 1126235424
I0403 15:04:36.068445 31099 layer_factory.hpp:77] Creating layer inception_4d/relu_3x3
I0403 15:04:36.068465 31099 net.cpp:91] Creating Layer inception_4d/relu_3x3
I0403 15:04:36.068490 31099 net.cpp:425] inception_4d/relu_3x3 <- inception_4d/3x3
I0403 15:04:36.068511 31099 net.cpp:386] inception_4d/relu_3x3 -> inception_4d/3x3 (in-place)
I0403 15:04:36.068722 31099 net.cpp:141] Setting up inception_4d/relu_3x3
I0403 15:04:36.068749 31099 net.cpp:148] Top shape: 24 288 14 14 (1354752)
I0403 15:04:36.068765 31099 net.cpp:156] Memory required for data: 1131654432
I0403 15:04:36.068781 31099 layer_factory.hpp:77] Creating layer inception_4d/5x5_reduce
I0403 15:04:36.068806 31099 net.cpp:91] Creating Layer inception_4d/5x5_reduce
I0403 15:04:36.068825 31099 net.cpp:425] inception_4d/5x5_reduce <- inception_4c/output_inception_4c/output_0_split_2
I0403 15:04:36.068850 31099 net.cpp:399] inception_4d/5x5_reduce -> inception_4d/5x5_reduce
I0403 15:04:36.070072 31099 net.cpp:141] Setting up inception_4d/5x5_reduce
I0403 15:04:36.070106 31099 net.cpp:148] Top shape: 24 32 14 14 (150528)
I0403 15:04:36.070123 31099 net.cpp:156] Memory required for data: 1132256544
I0403 15:04:36.070143 31099 layer_factory.hpp:77] Creating layer inception_4d/relu_5x5_reduce
I0403 15:04:36.070164 31099 net.cpp:91] Creating Layer inception_4d/relu_5x5_reduce
I0403 15:04:36.070184 31099 net.cpp:425] inception_4d/relu_5x5_reduce <- inception_4d/5x5_reduce
I0403 15:04:36.070205 31099 net.cpp:386] inception_4d/relu_5x5_reduce -> inception_4d/5x5_reduce (in-place)
I0403 15:04:36.070411 31099 net.cpp:141] Setting up inception_4d/relu_5x5_reduce
I0403 15:04:36.070439 31099 net.cpp:148] Top shape: 24 32 14 14 (150528)
I0403 15:04:36.070456 31099 net.cpp:156] Memory required for data: 1132858656
I0403 15:04:36.070474 31099 layer_factory.hpp:77] Creating layer inception_4d/5x5
I0403 15:04:36.070498 31099 net.cpp:91] Creating Layer inception_4d/5x5
I0403 15:04:36.070519 31099 net.cpp:425] inception_4d/5x5 <- inception_4d/5x5_reduce
I0403 15:04:36.070544 31099 net.cpp:399] inception_4d/5x5 -> inception_4d/5x5
I0403 15:04:36.072160 31099 net.cpp:141] Setting up inception_4d/5x5
I0403 15:04:36.072191 31099 net.cpp:148] Top shape: 24 64 14 14 (301056)
I0403 15:04:36.072208 31099 net.cpp:156] Memory required for data: 1134062880
I0403 15:04:36.072230 31099 layer_factory.hpp:77] Creating layer inception_4d/relu_5x5
I0403 15:04:36.072273 31099 net.cpp:91] Creating Layer inception_4d/relu_5x5
I0403 15:04:36.072294 31099 net.cpp:425] inception_4d/relu_5x5 <- inception_4d/5x5
I0403 15:04:36.072314 31099 net.cpp:386] inception_4d/relu_5x5 -> inception_4d/5x5 (in-place)
I0403 15:04:36.072634 31099 net.cpp:141] Setting up inception_4d/relu_5x5
I0403 15:04:36.072664 31099 net.cpp:148] Top shape: 24 64 14 14 (301056)
I0403 15:04:36.072680 31099 net.cpp:156] Memory required for data: 1135267104
I0403 15:04:36.072700 31099 layer_factory.hpp:77] Creating layer inception_4d/pool
I0403 15:04:36.072721 31099 net.cpp:91] Creating Layer inception_4d/pool
I0403 15:04:36.072737 31099 net.cpp:425] inception_4d/pool <- inception_4c/output_inception_4c/output_0_split_3
I0403 15:04:36.072762 31099 net.cpp:399] inception_4d/pool -> inception_4d/pool
I0403 15:04:36.072834 31099 net.cpp:141] Setting up inception_4d/pool
I0403 15:04:36.072860 31099 net.cpp:148] Top shape: 24 512 14 14 (2408448)
I0403 15:04:36.072877 31099 net.cpp:156] Memory required for data: 1144900896
I0403 15:04:36.072896 31099 layer_factory.hpp:77] Creating layer inception_4d/pool_proj
I0403 15:04:36.072921 31099 net.cpp:91] Creating Layer inception_4d/pool_proj
I0403 15:04:36.072940 31099 net.cpp:425] inception_4d/pool_proj <- inception_4d/pool
I0403 15:04:36.072962 31099 net.cpp:399] inception_4d/pool_proj -> inception_4d/pool_proj
I0403 15:04:36.074865 31099 net.cpp:141] Setting up inception_4d/pool_proj
I0403 15:04:36.074901 31099 net.cpp:148] Top shape: 24 64 14 14 (301056)
I0403 15:04:36.074919 31099 net.cpp:156] Memory required for data: 1146105120
I0403 15:04:36.074940 31099 layer_factory.hpp:77] Creating layer inception_4d/relu_pool_proj
I0403 15:04:36.074960 31099 net.cpp:91] Creating Layer inception_4d/relu_pool_proj
I0403 15:04:36.074980 31099 net.cpp:425] inception_4d/relu_pool_proj <- inception_4d/pool_proj
I0403 15:04:36.074997 31099 net.cpp:386] inception_4d/relu_pool_proj -> inception_4d/pool_proj (in-place)
I0403 15:04:36.075199 31099 net.cpp:141] Setting up inception_4d/relu_pool_proj
I0403 15:04:36.075228 31099 net.cpp:148] Top shape: 24 64 14 14 (301056)
I0403 15:04:36.075245 31099 net.cpp:156] Memory required for data: 1147309344
I0403 15:04:36.075268 31099 layer_factory.hpp:77] Creating layer inception_4d/output
I0403 15:04:36.075289 31099 net.cpp:91] Creating Layer inception_4d/output
I0403 15:04:36.075305 31099 net.cpp:425] inception_4d/output <- inception_4d/1x1
I0403 15:04:36.075323 31099 net.cpp:425] inception_4d/output <- inception_4d/3x3
I0403 15:04:36.075341 31099 net.cpp:425] inception_4d/output <- inception_4d/5x5
I0403 15:04:36.075359 31099 net.cpp:425] inception_4d/output <- inception_4d/pool_proj
I0403 15:04:36.075381 31099 net.cpp:399] inception_4d/output -> inception_4d/output
I0403 15:04:36.075433 31099 net.cpp:141] Setting up inception_4d/output
I0403 15:04:36.075461 31099 net.cpp:148] Top shape: 24 528 14 14 (2483712)
I0403 15:04:36.075479 31099 net.cpp:156] Memory required for data: 1157244192
I0403 15:04:36.075495 31099 layer_factory.hpp:77] Creating layer inception_4d/output_inception_4d/output_0_split
I0403 15:04:36.075515 31099 net.cpp:91] Creating Layer inception_4d/output_inception_4d/output_0_split
I0403 15:04:36.075532 31099 net.cpp:425] inception_4d/output_inception_4d/output_0_split <- inception_4d/output
I0403 15:04:36.075556 31099 net.cpp:399] inception_4d/output_inception_4d/output_0_split -> inception_4d/output_inception_4d/output_0_split_0
I0403 15:04:36.075580 31099 net.cpp:399] inception_4d/output_inception_4d/output_0_split -> inception_4d/output_inception_4d/output_0_split_1
I0403 15:04:36.075604 31099 net.cpp:399] inception_4d/output_inception_4d/output_0_split -> inception_4d/output_inception_4d/output_0_split_2
I0403 15:04:36.075626 31099 net.cpp:399] inception_4d/output_inception_4d/output_0_split -> inception_4d/output_inception_4d/output_0_split_3
I0403 15:04:36.075649 31099 net.cpp:399] inception_4d/output_inception_4d/output_0_split -> inception_4d/output_inception_4d/output_0_split_4
I0403 15:04:36.075758 31099 net.cpp:141] Setting up inception_4d/output_inception_4d/output_0_split
I0403 15:04:36.075798 31099 net.cpp:148] Top shape: 24 528 14 14 (2483712)
I0403 15:04:36.075816 31099 net.cpp:148] Top shape: 24 528 14 14 (2483712)
I0403 15:04:36.075834 31099 net.cpp:148] Top shape: 24 528 14 14 (2483712)
I0403 15:04:36.075850 31099 net.cpp:148] Top shape: 24 528 14 14 (2483712)
I0403 15:04:36.075867 31099 net.cpp:148] Top shape: 24 528 14 14 (2483712)
I0403 15:04:36.075883 31099 net.cpp:156] Memory required for data: 1206918432
I0403 15:04:36.075901 31099 layer_factory.hpp:77] Creating layer loss2/ave_pool
I0403 15:04:36.075923 31099 net.cpp:91] Creating Layer loss2/ave_pool
I0403 15:04:36.075942 31099 net.cpp:425] loss2/ave_pool <- inception_4d/output_inception_4d/output_0_split_0
I0403 15:04:36.075963 31099 net.cpp:399] loss2/ave_pool -> loss2/ave_pool
I0403 15:04:36.076300 31099 net.cpp:141] Setting up loss2/ave_pool
I0403 15:04:36.076333 31099 net.cpp:148] Top shape: 24 528 4 4 (202752)
I0403 15:04:36.076351 31099 net.cpp:156] Memory required for data: 1207729440
I0403 15:04:36.076369 31099 layer_factory.hpp:77] Creating layer loss2/conv
I0403 15:04:36.076395 31099 net.cpp:91] Creating Layer loss2/conv
I0403 15:04:36.076413 31099 net.cpp:425] loss2/conv <- loss2/ave_pool
I0403 15:04:36.076434 31099 net.cpp:399] loss2/conv -> loss2/conv
I0403 15:04:36.078465 31099 net.cpp:141] Setting up loss2/conv
I0403 15:04:36.078497 31099 net.cpp:148] Top shape: 24 128 4 4 (49152)
I0403 15:04:36.078516 31099 net.cpp:156] Memory required for data: 1207926048
I0403 15:04:36.078539 31099 layer_factory.hpp:77] Creating layer loss2/relu_conv
I0403 15:04:36.078564 31099 net.cpp:91] Creating Layer loss2/relu_conv
I0403 15:04:36.078585 31099 net.cpp:425] loss2/relu_conv <- loss2/conv
I0403 15:04:36.078604 31099 net.cpp:386] loss2/relu_conv -> loss2/conv (in-place)
I0403 15:04:36.078913 31099 net.cpp:141] Setting up loss2/relu_conv
I0403 15:04:36.078944 31099 net.cpp:148] Top shape: 24 128 4 4 (49152)
I0403 15:04:36.078960 31099 net.cpp:156] Memory required for data: 1208122656
I0403 15:04:36.078977 31099 layer_factory.hpp:77] Creating layer loss2/fc
I0403 15:04:36.079001 31099 net.cpp:91] Creating Layer loss2/fc
I0403 15:04:36.079020 31099 net.cpp:425] loss2/fc <- loss2/conv
I0403 15:04:36.079041 31099 net.cpp:399] loss2/fc -> loss2/fc
I0403 15:04:36.097831 31099 net.cpp:141] Setting up loss2/fc
I0403 15:04:36.097885 31099 net.cpp:148] Top shape: 24 1024 (24576)
I0403 15:04:36.097903 31099 net.cpp:156] Memory required for data: 1208220960
I0403 15:04:36.097923 31099 layer_factory.hpp:77] Creating layer loss2/relu_fc
I0403 15:04:36.097944 31099 net.cpp:91] Creating Layer loss2/relu_fc
I0403 15:04:36.097964 31099 net.cpp:425] loss2/relu_fc <- loss2/fc
I0403 15:04:36.097986 31099 net.cpp:386] loss2/relu_fc -> loss2/fc (in-place)
I0403 15:04:36.098351 31099 net.cpp:141] Setting up loss2/relu_fc
I0403 15:04:36.098381 31099 net.cpp:148] Top shape: 24 1024 (24576)
I0403 15:04:36.098399 31099 net.cpp:156] Memory required for data: 1208319264
I0403 15:04:36.098415 31099 layer_factory.hpp:77] Creating layer loss2/drop_fc
I0403 15:04:36.098435 31099 net.cpp:91] Creating Layer loss2/drop_fc
I0403 15:04:36.098453 31099 net.cpp:425] loss2/drop_fc <- loss2/fc
I0403 15:04:36.098475 31099 net.cpp:386] loss2/drop_fc -> loss2/fc (in-place)
I0403 15:04:36.098529 31099 net.cpp:141] Setting up loss2/drop_fc
I0403 15:04:36.098554 31099 net.cpp:148] Top shape: 24 1024 (24576)
I0403 15:04:36.098572 31099 net.cpp:156] Memory required for data: 1208417568
I0403 15:04:36.098587 31099 layer_factory.hpp:77] Creating layer loss2/classifier_plantvillage
I0403 15:04:36.098610 31099 net.cpp:91] Creating Layer loss2/classifier_plantvillage
I0403 15:04:36.098630 31099 net.cpp:425] loss2/classifier_plantvillage <- loss2/fc
I0403 15:04:36.098654 31099 net.cpp:399] loss2/classifier_plantvillage -> loss2/classifier_plantvillage
I0403 15:04:36.099084 31099 net.cpp:141] Setting up loss2/classifier_plantvillage
I0403 15:04:36.099110 31099 net.cpp:148] Top shape: 24 38 (912)
I0403 15:04:36.099126 31099 net.cpp:156] Memory required for data: 1208421216
I0403 15:04:36.099169 31099 layer_factory.hpp:77] Creating layer loss2/classifier_plantvillage_loss2/classifier_plantvillage_0_split
I0403 15:04:36.099191 31099 net.cpp:91] Creating Layer loss2/classifier_plantvillage_loss2/classifier_plantvillage_0_split
I0403 15:04:36.099210 31099 net.cpp:425] loss2/classifier_plantvillage_loss2/classifier_plantvillage_0_split <- loss2/classifier_plantvillage
I0403 15:04:36.099231 31099 net.cpp:399] loss2/classifier_plantvillage_loss2/classifier_plantvillage_0_split -> loss2/classifier_plantvillage_loss2/classifier_plantvillage_0_split_0
I0403 15:04:36.099251 31099 net.cpp:399] loss2/classifier_plantvillage_loss2/classifier_plantvillage_0_split -> loss2/classifier_plantvillage_loss2/classifier_plantvillage_0_split_1
I0403 15:04:36.099277 31099 net.cpp:399] loss2/classifier_plantvillage_loss2/classifier_plantvillage_0_split -> loss2/classifier_plantvillage_loss2/classifier_plantvillage_0_split_2
I0403 15:04:36.099359 31099 net.cpp:141] Setting up loss2/classifier_plantvillage_loss2/classifier_plantvillage_0_split
I0403 15:04:36.099383 31099 net.cpp:148] Top shape: 24 38 (912)
I0403 15:04:36.099400 31099 net.cpp:148] Top shape: 24 38 (912)
I0403 15:04:36.099416 31099 net.cpp:148] Top shape: 24 38 (912)
I0403 15:04:36.099431 31099 net.cpp:156] Memory required for data: 1208432160
I0403 15:04:36.099447 31099 layer_factory.hpp:77] Creating layer inception_4e/1x1
I0403 15:04:36.099468 31099 net.cpp:91] Creating Layer inception_4e/1x1
I0403 15:04:36.099486 31099 net.cpp:425] inception_4e/1x1 <- inception_4d/output_inception_4d/output_0_split_1
I0403 15:04:36.099509 31099 net.cpp:399] inception_4e/1x1 -> inception_4e/1x1
I0403 15:04:36.101392 31099 net.cpp:141] Setting up inception_4e/1x1
I0403 15:04:36.101423 31099 net.cpp:148] Top shape: 24 256 14 14 (1204224)
I0403 15:04:36.101440 31099 net.cpp:156] Memory required for data: 1213249056
I0403 15:04:36.101460 31099 layer_factory.hpp:77] Creating layer inception_4e/relu_1x1
I0403 15:04:36.101482 31099 net.cpp:91] Creating Layer inception_4e/relu_1x1
I0403 15:04:36.101501 31099 net.cpp:425] inception_4e/relu_1x1 <- inception_4e/1x1
I0403 15:04:36.101519 31099 net.cpp:386] inception_4e/relu_1x1 -> inception_4e/1x1 (in-place)
I0403 15:04:36.101894 31099 net.cpp:141] Setting up inception_4e/relu_1x1
I0403 15:04:36.101922 31099 net.cpp:148] Top shape: 24 256 14 14 (1204224)
I0403 15:04:36.101938 31099 net.cpp:156] Memory required for data: 1218065952
I0403 15:04:36.101953 31099 layer_factory.hpp:77] Creating layer inception_4e/3x3_reduce
I0403 15:04:36.101979 31099 net.cpp:91] Creating Layer inception_4e/3x3_reduce
I0403 15:04:36.101996 31099 net.cpp:425] inception_4e/3x3_reduce <- inception_4d/output_inception_4d/output_0_split_2
I0403 15:04:36.102018 31099 net.cpp:399] inception_4e/3x3_reduce -> inception_4e/3x3_reduce
I0403 15:04:36.104202 31099 net.cpp:141] Setting up inception_4e/3x3_reduce
I0403 15:04:36.104231 31099 net.cpp:148] Top shape: 24 160 14 14 (752640)
I0403 15:04:36.104249 31099 net.cpp:156] Memory required for data: 1221076512
I0403 15:04:36.104303 31099 layer_factory.hpp:77] Creating layer inception_4e/relu_3x3_reduce
I0403 15:04:36.104327 31099 net.cpp:91] Creating Layer inception_4e/relu_3x3_reduce
I0403 15:04:36.104346 31099 net.cpp:425] inception_4e/relu_3x3_reduce <- inception_4e/3x3_reduce
I0403 15:04:36.104364 31099 net.cpp:386] inception_4e/relu_3x3_reduce -> inception_4e/3x3_reduce (in-place)
I0403 15:04:36.104574 31099 net.cpp:141] Setting up inception_4e/relu_3x3_reduce
I0403 15:04:36.104614 31099 net.cpp:148] Top shape: 24 160 14 14 (752640)
I0403 15:04:36.104631 31099 net.cpp:156] Memory required for data: 1224087072
I0403 15:04:36.104647 31099 layer_factory.hpp:77] Creating layer inception_4e/3x3
I0403 15:04:36.104671 31099 net.cpp:91] Creating Layer inception_4e/3x3
I0403 15:04:36.104689 31099 net.cpp:425] inception_4e/3x3 <- inception_4e/3x3_reduce
I0403 15:04:36.104712 31099 net.cpp:399] inception_4e/3x3 -> inception_4e/3x3
I0403 15:04:36.109809 31099 net.cpp:141] Setting up inception_4e/3x3
I0403 15:04:36.109853 31099 net.cpp:148] Top shape: 24 320 14 14 (1505280)
I0403 15:04:36.109871 31099 net.cpp:156] Memory required for data: 1230108192
I0403 15:04:36.109891 31099 layer_factory.hpp:77] Creating layer inception_4e/relu_3x3
I0403 15:04:36.109912 31099 net.cpp:91] Creating Layer inception_4e/relu_3x3
I0403 15:04:36.109930 31099 net.cpp:425] inception_4e/relu_3x3 <- inception_4e/3x3
I0403 15:04:36.109949 31099 net.cpp:386] inception_4e/relu_3x3 -> inception_4e/3x3 (in-place)
I0403 15:04:36.110265 31099 net.cpp:141] Setting up inception_4e/relu_3x3
I0403 15:04:36.110296 31099 net.cpp:148] Top shape: 24 320 14 14 (1505280)
I0403 15:04:36.110312 31099 net.cpp:156] Memory required for data: 1236129312
I0403 15:04:36.110327 31099 layer_factory.hpp:77] Creating layer inception_4e/5x5_reduce
I0403 15:04:36.110352 31099 net.cpp:91] Creating Layer inception_4e/5x5_reduce
I0403 15:04:36.110371 31099 net.cpp:425] inception_4e/5x5_reduce <- inception_4d/output_inception_4d/output_0_split_3
I0403 15:04:36.110391 31099 net.cpp:399] inception_4e/5x5_reduce -> inception_4e/5x5_reduce
I0403 15:04:36.111477 31099 net.cpp:141] Setting up inception_4e/5x5_reduce
I0403 15:04:36.111506 31099 net.cpp:148] Top shape: 24 32 14 14 (150528)
I0403 15:04:36.111522 31099 net.cpp:156] Memory required for data: 1236731424
I0403 15:04:36.111542 31099 layer_factory.hpp:77] Creating layer inception_4e/relu_5x5_reduce
I0403 15:04:36.111563 31099 net.cpp:91] Creating Layer inception_4e/relu_5x5_reduce
I0403 15:04:36.111579 31099 net.cpp:425] inception_4e/relu_5x5_reduce <- inception_4e/5x5_reduce
I0403 15:04:36.111598 31099 net.cpp:386] inception_4e/relu_5x5_reduce -> inception_4e/5x5_reduce (in-place)
I0403 15:04:36.111896 31099 net.cpp:141] Setting up inception_4e/relu_5x5_reduce
I0403 15:04:36.111922 31099 net.cpp:148] Top shape: 24 32 14 14 (150528)
I0403 15:04:36.111939 31099 net.cpp:156] Memory required for data: 1237333536
I0403 15:04:36.111955 31099 layer_factory.hpp:77] Creating layer inception_4e/5x5
I0403 15:04:36.111994 31099 net.cpp:91] Creating Layer inception_4e/5x5
I0403 15:04:36.112015 31099 net.cpp:425] inception_4e/5x5 <- inception_4e/5x5_reduce
I0403 15:04:36.112035 31099 net.cpp:399] inception_4e/5x5 -> inception_4e/5x5
I0403 15:04:36.113899 31099 net.cpp:141] Setting up inception_4e/5x5
I0403 15:04:36.113929 31099 net.cpp:148] Top shape: 24 128 14 14 (602112)
I0403 15:04:36.113945 31099 net.cpp:156] Memory required for data: 1239741984
I0403 15:04:36.113963 31099 layer_factory.hpp:77] Creating layer inception_4e/relu_5x5
I0403 15:04:36.113982 31099 net.cpp:91] Creating Layer inception_4e/relu_5x5
I0403 15:04:36.113999 31099 net.cpp:425] inception_4e/relu_5x5 <- inception_4e/5x5
I0403 15:04:36.114019 31099 net.cpp:386] inception_4e/relu_5x5 -> inception_4e/5x5 (in-place)
I0403 15:04:36.114224 31099 net.cpp:141] Setting up inception_4e/relu_5x5
I0403 15:04:36.114250 31099 net.cpp:148] Top shape: 24 128 14 14 (602112)
I0403 15:04:36.114279 31099 net.cpp:156] Memory required for data: 1242150432
I0403 15:04:36.114295 31099 layer_factory.hpp:77] Creating layer inception_4e/pool
I0403 15:04:36.114317 31099 net.cpp:91] Creating Layer inception_4e/pool
I0403 15:04:36.114336 31099 net.cpp:425] inception_4e/pool <- inception_4d/output_inception_4d/output_0_split_4
I0403 15:04:36.114356 31099 net.cpp:399] inception_4e/pool -> inception_4e/pool
I0403 15:04:36.114428 31099 net.cpp:141] Setting up inception_4e/pool
I0403 15:04:36.114454 31099 net.cpp:148] Top shape: 24 528 14 14 (2483712)
I0403 15:04:36.114469 31099 net.cpp:156] Memory required for data: 1252085280
I0403 15:04:36.114483 31099 layer_factory.hpp:77] Creating layer inception_4e/pool_proj
I0403 15:04:36.114507 31099 net.cpp:91] Creating Layer inception_4e/pool_proj
I0403 15:04:36.114526 31099 net.cpp:425] inception_4e/pool_proj <- inception_4e/pool
I0403 15:04:36.114547 31099 net.cpp:399] inception_4e/pool_proj -> inception_4e/pool_proj
I0403 15:04:36.116060 31099 net.cpp:141] Setting up inception_4e/pool_proj
I0403 15:04:36.116091 31099 net.cpp:148] Top shape: 24 128 14 14 (602112)
I0403 15:04:36.116122 31099 net.cpp:156] Memory required for data: 1254493728
I0403 15:04:36.116142 31099 layer_factory.hpp:77] Creating layer inception_4e/relu_pool_proj
I0403 15:04:36.116161 31099 net.cpp:91] Creating Layer inception_4e/relu_pool_proj
I0403 15:04:36.116179 31099 net.cpp:425] inception_4e/relu_pool_proj <- inception_4e/pool_proj
I0403 15:04:36.116199 31099 net.cpp:386] inception_4e/relu_pool_proj -> inception_4e/pool_proj (in-place)
I0403 15:04:36.116497 31099 net.cpp:141] Setting up inception_4e/relu_pool_proj
I0403 15:04:36.116528 31099 net.cpp:148] Top shape: 24 128 14 14 (602112)
I0403 15:04:36.116544 31099 net.cpp:156] Memory required for data: 1256902176
I0403 15:04:36.116560 31099 layer_factory.hpp:77] Creating layer inception_4e/output
I0403 15:04:36.116580 31099 net.cpp:91] Creating Layer inception_4e/output
I0403 15:04:36.116598 31099 net.cpp:425] inception_4e/output <- inception_4e/1x1
I0403 15:04:36.116616 31099 net.cpp:425] inception_4e/output <- inception_4e/3x3
I0403 15:04:36.116632 31099 net.cpp:425] inception_4e/output <- inception_4e/5x5
I0403 15:04:36.116649 31099 net.cpp:425] inception_4e/output <- inception_4e/pool_proj
I0403 15:04:36.116667 31099 net.cpp:399] inception_4e/output -> inception_4e/output
I0403 15:04:36.116717 31099 net.cpp:141] Setting up inception_4e/output
I0403 15:04:36.116742 31099 net.cpp:148] Top shape: 24 832 14 14 (3913728)
I0403 15:04:36.116760 31099 net.cpp:156] Memory required for data: 1272557088
I0403 15:04:36.116776 31099 layer_factory.hpp:77] Creating layer pool4/3x3_s2
I0403 15:04:36.116801 31099 net.cpp:91] Creating Layer pool4/3x3_s2
I0403 15:04:36.116817 31099 net.cpp:425] pool4/3x3_s2 <- inception_4e/output
I0403 15:04:36.116838 31099 net.cpp:399] pool4/3x3_s2 -> pool4/3x3_s2
I0403 15:04:36.116909 31099 net.cpp:141] Setting up pool4/3x3_s2
I0403 15:04:36.116933 31099 net.cpp:148] Top shape: 24 832 7 7 (978432)
I0403 15:04:36.116951 31099 net.cpp:156] Memory required for data: 1276470816
I0403 15:04:36.116967 31099 layer_factory.hpp:77] Creating layer pool4/3x3_s2_pool4/3x3_s2_0_split
I0403 15:04:36.116987 31099 net.cpp:91] Creating Layer pool4/3x3_s2_pool4/3x3_s2_0_split
I0403 15:04:36.117004 31099 net.cpp:425] pool4/3x3_s2_pool4/3x3_s2_0_split <- pool4/3x3_s2
I0403 15:04:36.117027 31099 net.cpp:399] pool4/3x3_s2_pool4/3x3_s2_0_split -> pool4/3x3_s2_pool4/3x3_s2_0_split_0
I0403 15:04:36.117051 31099 net.cpp:399] pool4/3x3_s2_pool4/3x3_s2_0_split -> pool4/3x3_s2_pool4/3x3_s2_0_split_1
I0403 15:04:36.117074 31099 net.cpp:399] pool4/3x3_s2_pool4/3x3_s2_0_split -> pool4/3x3_s2_pool4/3x3_s2_0_split_2
I0403 15:04:36.117097 31099 net.cpp:399] pool4/3x3_s2_pool4/3x3_s2_0_split -> pool4/3x3_s2_pool4/3x3_s2_0_split_3
I0403 15:04:36.117193 31099 net.cpp:141] Setting up pool4/3x3_s2_pool4/3x3_s2_0_split
I0403 15:04:36.117219 31099 net.cpp:148] Top shape: 24 832 7 7 (978432)
I0403 15:04:36.117238 31099 net.cpp:148] Top shape: 24 832 7 7 (978432)
I0403 15:04:36.117257 31099 net.cpp:148] Top shape: 24 832 7 7 (978432)
I0403 15:04:36.117274 31099 net.cpp:148] Top shape: 24 832 7 7 (978432)
I0403 15:04:36.117290 31099 net.cpp:156] Memory required for data: 1292125728
I0403 15:04:36.117305 31099 layer_factory.hpp:77] Creating layer inception_5a/1x1
I0403 15:04:36.117328 31099 net.cpp:91] Creating Layer inception_5a/1x1
I0403 15:04:36.117347 31099 net.cpp:425] inception_5a/1x1 <- pool4/3x3_s2_pool4/3x3_s2_0_split_0
I0403 15:04:36.117365 31099 net.cpp:399] inception_5a/1x1 -> inception_5a/1x1
I0403 15:04:36.120360 31099 net.cpp:141] Setting up inception_5a/1x1
I0403 15:04:36.120393 31099 net.cpp:148] Top shape: 24 256 7 7 (301056)
I0403 15:04:36.120409 31099 net.cpp:156] Memory required for data: 1293329952
I0403 15:04:36.120430 31099 layer_factory.hpp:77] Creating layer inception_5a/relu_1x1
I0403 15:04:36.120450 31099 net.cpp:91] Creating Layer inception_5a/relu_1x1
I0403 15:04:36.120471 31099 net.cpp:425] inception_5a/relu_1x1 <- inception_5a/1x1
I0403 15:04:36.120491 31099 net.cpp:386] inception_5a/relu_1x1 -> inception_5a/1x1 (in-place)
I0403 15:04:36.120815 31099 net.cpp:141] Setting up inception_5a/relu_1x1
I0403 15:04:36.120843 31099 net.cpp:148] Top shape: 24 256 7 7 (301056)
I0403 15:04:36.120859 31099 net.cpp:156] Memory required for data: 1294534176
I0403 15:04:36.120880 31099 layer_factory.hpp:77] Creating layer inception_5a/3x3_reduce
I0403 15:04:36.120909 31099 net.cpp:91] Creating Layer inception_5a/3x3_reduce
I0403 15:04:36.120929 31099 net.cpp:425] inception_5a/3x3_reduce <- pool4/3x3_s2_pool4/3x3_s2_0_split_1
I0403 15:04:36.120954 31099 net.cpp:399] inception_5a/3x3_reduce -> inception_5a/3x3_reduce
I0403 15:04:36.123524 31099 net.cpp:141] Setting up inception_5a/3x3_reduce
I0403 15:04:36.123560 31099 net.cpp:148] Top shape: 24 160 7 7 (188160)
I0403 15:04:36.123580 31099 net.cpp:156] Memory required for data: 1295286816
I0403 15:04:36.123602 31099 layer_factory.hpp:77] Creating layer inception_5a/relu_3x3_reduce
I0403 15:04:36.123628 31099 net.cpp:91] Creating Layer inception_5a/relu_3x3_reduce
I0403 15:04:36.123649 31099 net.cpp:425] inception_5a/relu_3x3_reduce <- inception_5a/3x3_reduce
I0403 15:04:36.123672 31099 net.cpp:386] inception_5a/relu_3x3_reduce -> inception_5a/3x3_reduce (in-place)
I0403 15:04:36.123874 31099 net.cpp:141] Setting up inception_5a/relu_3x3_reduce
I0403 15:04:36.123901 31099 net.cpp:148] Top shape: 24 160 7 7 (188160)
I0403 15:04:36.123917 31099 net.cpp:156] Memory required for data: 1296039456
I0403 15:04:36.123934 31099 layer_factory.hpp:77] Creating layer inception_5a/3x3
I0403 15:04:36.123957 31099 net.cpp:91] Creating Layer inception_5a/3x3
I0403 15:04:36.123976 31099 net.cpp:425] inception_5a/3x3 <- inception_5a/3x3_reduce
I0403 15:04:36.124001 31099 net.cpp:399] inception_5a/3x3 -> inception_5a/3x3
I0403 15:04:36.129221 31099 net.cpp:141] Setting up inception_5a/3x3
I0403 15:04:36.129257 31099 net.cpp:148] Top shape: 24 320 7 7 (376320)
I0403 15:04:36.129276 31099 net.cpp:156] Memory required for data: 1297544736
I0403 15:04:36.129295 31099 layer_factory.hpp:77] Creating layer inception_5a/relu_3x3
I0403 15:04:36.129317 31099 net.cpp:91] Creating Layer inception_5a/relu_3x3
I0403 15:04:36.129334 31099 net.cpp:425] inception_5a/relu_3x3 <- inception_5a/3x3
I0403 15:04:36.129357 31099 net.cpp:386] inception_5a/relu_3x3 -> inception_5a/3x3 (in-place)
I0403 15:04:36.129667 31099 net.cpp:141] Setting up inception_5a/relu_3x3
I0403 15:04:36.129695 31099 net.cpp:148] Top shape: 24 320 7 7 (376320)
I0403 15:04:36.129714 31099 net.cpp:156] Memory required for data: 1299050016
I0403 15:04:36.129731 31099 layer_factory.hpp:77] Creating layer inception_5a/5x5_reduce
I0403 15:04:36.129755 31099 net.cpp:91] Creating Layer inception_5a/5x5_reduce
I0403 15:04:36.129772 31099 net.cpp:425] inception_5a/5x5_reduce <- pool4/3x3_s2_pool4/3x3_s2_0_split_2
I0403 15:04:36.129796 31099 net.cpp:399] inception_5a/5x5_reduce -> inception_5a/5x5_reduce
I0403 15:04:36.131017 31099 net.cpp:141] Setting up inception_5a/5x5_reduce
I0403 15:04:36.131049 31099 net.cpp:148] Top shape: 24 32 7 7 (37632)
I0403 15:04:36.131069 31099 net.cpp:156] Memory required for data: 1299200544
I0403 15:04:36.131093 31099 layer_factory.hpp:77] Creating layer inception_5a/relu_5x5_reduce
I0403 15:04:36.131116 31099 net.cpp:91] Creating Layer inception_5a/relu_5x5_reduce
I0403 15:04:36.131136 31099 net.cpp:425] inception_5a/relu_5x5_reduce <- inception_5a/5x5_reduce
I0403 15:04:36.131157 31099 net.cpp:386] inception_5a/relu_5x5_reduce -> inception_5a/5x5_reduce (in-place)
I0403 15:04:36.131470 31099 net.cpp:141] Setting up inception_5a/relu_5x5_reduce
I0403 15:04:36.131500 31099 net.cpp:148] Top shape: 24 32 7 7 (37632)
I0403 15:04:36.131515 31099 net.cpp:156] Memory required for data: 1299351072
I0403 15:04:36.131532 31099 layer_factory.hpp:77] Creating layer inception_5a/5x5
I0403 15:04:36.131556 31099 net.cpp:91] Creating Layer inception_5a/5x5
I0403 15:04:36.131577 31099 net.cpp:425] inception_5a/5x5 <- inception_5a/5x5_reduce
I0403 15:04:36.131599 31099 net.cpp:399] inception_5a/5x5 -> inception_5a/5x5
I0403 15:04:36.133391 31099 net.cpp:141] Setting up inception_5a/5x5
I0403 15:04:36.133435 31099 net.cpp:148] Top shape: 24 128 7 7 (150528)
I0403 15:04:36.133451 31099 net.cpp:156] Memory required for data: 1299953184
I0403 15:04:36.133471 31099 layer_factory.hpp:77] Creating layer inception_5a/relu_5x5
I0403 15:04:36.133491 31099 net.cpp:91] Creating Layer inception_5a/relu_5x5
I0403 15:04:36.133508 31099 net.cpp:425] inception_5a/relu_5x5 <- inception_5a/5x5
I0403 15:04:36.133530 31099 net.cpp:386] inception_5a/relu_5x5 -> inception_5a/5x5 (in-place)
I0403 15:04:36.133734 31099 net.cpp:141] Setting up inception_5a/relu_5x5
I0403 15:04:36.133760 31099 net.cpp:148] Top shape: 24 128 7 7 (150528)
I0403 15:04:36.133776 31099 net.cpp:156] Memory required for data: 1300555296
I0403 15:04:36.133793 31099 layer_factory.hpp:77] Creating layer inception_5a/pool
I0403 15:04:36.133815 31099 net.cpp:91] Creating Layer inception_5a/pool
I0403 15:04:36.133833 31099 net.cpp:425] inception_5a/pool <- pool4/3x3_s2_pool4/3x3_s2_0_split_3
I0403 15:04:36.133853 31099 net.cpp:399] inception_5a/pool -> inception_5a/pool
I0403 15:04:36.133929 31099 net.cpp:141] Setting up inception_5a/pool
I0403 15:04:36.133955 31099 net.cpp:148] Top shape: 24 832 7 7 (978432)
I0403 15:04:36.133970 31099 net.cpp:156] Memory required for data: 1304469024
I0403 15:04:36.133985 31099 layer_factory.hpp:77] Creating layer inception_5a/pool_proj
I0403 15:04:36.134009 31099 net.cpp:91] Creating Layer inception_5a/pool_proj
I0403 15:04:36.134028 31099 net.cpp:425] inception_5a/pool_proj <- inception_5a/pool
I0403 15:04:36.134052 31099 net.cpp:399] inception_5a/pool_proj -> inception_5a/pool_proj
I0403 15:04:36.136453 31099 net.cpp:141] Setting up inception_5a/pool_proj
I0403 15:04:36.136490 31099 net.cpp:148] Top shape: 24 128 7 7 (150528)
I0403 15:04:36.136509 31099 net.cpp:156] Memory required for data: 1305071136
I0403 15:04:36.136529 31099 layer_factory.hpp:77] Creating layer inception_5a/relu_pool_proj
I0403 15:04:36.136551 31099 net.cpp:91] Creating Layer inception_5a/relu_pool_proj
I0403 15:04:36.136571 31099 net.cpp:425] inception_5a/relu_pool_proj <- inception_5a/pool_proj
I0403 15:04:36.136596 31099 net.cpp:386] inception_5a/relu_pool_proj -> inception_5a/pool_proj (in-place)
I0403 15:04:36.136904 31099 net.cpp:141] Setting up inception_5a/relu_pool_proj
I0403 15:04:36.136937 31099 net.cpp:148] Top shape: 24 128 7 7 (150528)
I0403 15:04:36.136955 31099 net.cpp:156] Memory required for data: 1305673248
I0403 15:04:36.136972 31099 layer_factory.hpp:77] Creating layer inception_5a/output
I0403 15:04:36.136991 31099 net.cpp:91] Creating Layer inception_5a/output
I0403 15:04:36.137009 31099 net.cpp:425] inception_5a/output <- inception_5a/1x1
I0403 15:04:36.137028 31099 net.cpp:425] inception_5a/output <- inception_5a/3x3
I0403 15:04:36.137045 31099 net.cpp:425] inception_5a/output <- inception_5a/5x5
I0403 15:04:36.137063 31099 net.cpp:425] inception_5a/output <- inception_5a/pool_proj
I0403 15:04:36.137084 31099 net.cpp:399] inception_5a/output -> inception_5a/output
I0403 15:04:36.137136 31099 net.cpp:141] Setting up inception_5a/output
I0403 15:04:36.137162 31099 net.cpp:148] Top shape: 24 832 7 7 (978432)
I0403 15:04:36.137178 31099 net.cpp:156] Memory required for data: 1309586976
I0403 15:04:36.137195 31099 layer_factory.hpp:77] Creating layer inception_5a/output_inception_5a/output_0_split
I0403 15:04:36.137230 31099 net.cpp:91] Creating Layer inception_5a/output_inception_5a/output_0_split
I0403 15:04:36.137249 31099 net.cpp:425] inception_5a/output_inception_5a/output_0_split <- inception_5a/output
I0403 15:04:36.137274 31099 net.cpp:399] inception_5a/output_inception_5a/output_0_split -> inception_5a/output_inception_5a/output_0_split_0
I0403 15:04:36.137298 31099 net.cpp:399] inception_5a/output_inception_5a/output_0_split -> inception_5a/output_inception_5a/output_0_split_1
I0403 15:04:36.137326 31099 net.cpp:399] inception_5a/output_inception_5a/output_0_split -> inception_5a/output_inception_5a/output_0_split_2
I0403 15:04:36.137351 31099 net.cpp:399] inception_5a/output_inception_5a/output_0_split -> inception_5a/output_inception_5a/output_0_split_3
I0403 15:04:36.137471 31099 net.cpp:141] Setting up inception_5a/output_inception_5a/output_0_split
I0403 15:04:36.137531 31099 net.cpp:148] Top shape: 24 832 7 7 (978432)
I0403 15:04:36.137553 31099 net.cpp:148] Top shape: 24 832 7 7 (978432)
I0403 15:04:36.137570 31099 net.cpp:148] Top shape: 24 832 7 7 (978432)
I0403 15:04:36.137588 31099 net.cpp:148] Top shape: 24 832 7 7 (978432)
I0403 15:04:36.137604 31099 net.cpp:156] Memory required for data: 1325241888
I0403 15:04:36.137620 31099 layer_factory.hpp:77] Creating layer inception_5b/1x1
I0403 15:04:36.137645 31099 net.cpp:91] Creating Layer inception_5b/1x1
I0403 15:04:36.137663 31099 net.cpp:425] inception_5b/1x1 <- inception_5a/output_inception_5a/output_0_split_0
I0403 15:04:36.137686 31099 net.cpp:399] inception_5b/1x1 -> inception_5b/1x1
I0403 15:04:36.141537 31099 net.cpp:141] Setting up inception_5b/1x1
I0403 15:04:36.141576 31099 net.cpp:148] Top shape: 24 384 7 7 (451584)
I0403 15:04:36.141595 31099 net.cpp:156] Memory required for data: 1327048224
I0403 15:04:36.141615 31099 layer_factory.hpp:77] Creating layer inception_5b/relu_1x1
I0403 15:04:36.141636 31099 net.cpp:91] Creating Layer inception_5b/relu_1x1
I0403 15:04:36.141656 31099 net.cpp:425] inception_5b/relu_1x1 <- inception_5b/1x1
I0403 15:04:36.141676 31099 net.cpp:386] inception_5b/relu_1x1 -> inception_5b/1x1 (in-place)
I0403 15:04:36.141996 31099 net.cpp:141] Setting up inception_5b/relu_1x1
I0403 15:04:36.142026 31099 net.cpp:148] Top shape: 24 384 7 7 (451584)
I0403 15:04:36.142043 31099 net.cpp:156] Memory required for data: 1328854560
I0403 15:04:36.142060 31099 layer_factory.hpp:77] Creating layer inception_5b/3x3_reduce
I0403 15:04:36.142083 31099 net.cpp:91] Creating Layer inception_5b/3x3_reduce
I0403 15:04:36.142103 31099 net.cpp:425] inception_5b/3x3_reduce <- inception_5a/output_inception_5a/output_0_split_1
I0403 15:04:36.142123 31099 net.cpp:399] inception_5b/3x3_reduce -> inception_5b/3x3_reduce
I0403 15:04:36.144915 31099 net.cpp:141] Setting up inception_5b/3x3_reduce
I0403 15:04:36.144951 31099 net.cpp:148] Top shape: 24 192 7 7 (225792)
I0403 15:04:36.144970 31099 net.cpp:156] Memory required for data: 1329757728
I0403 15:04:36.144990 31099 layer_factory.hpp:77] Creating layer inception_5b/relu_3x3_reduce
I0403 15:04:36.145010 31099 net.cpp:91] Creating Layer inception_5b/relu_3x3_reduce
I0403 15:04:36.145028 31099 net.cpp:425] inception_5b/relu_3x3_reduce <- inception_5b/3x3_reduce
I0403 15:04:36.145051 31099 net.cpp:386] inception_5b/relu_3x3_reduce -> inception_5b/3x3_reduce (in-place)
I0403 15:04:36.145249 31099 net.cpp:141] Setting up inception_5b/relu_3x3_reduce
I0403 15:04:36.145282 31099 net.cpp:148] Top shape: 24 192 7 7 (225792)
I0403 15:04:36.145298 31099 net.cpp:156] Memory required for data: 1330660896
I0403 15:04:36.145314 31099 layer_factory.hpp:77] Creating layer inception_5b/3x3
I0403 15:04:36.145337 31099 net.cpp:91] Creating Layer inception_5b/3x3
I0403 15:04:36.145357 31099 net.cpp:425] inception_5b/3x3 <- inception_5b/3x3_reduce
I0403 15:04:36.145382 31099 net.cpp:399] inception_5b/3x3 -> inception_5b/3x3
I0403 15:04:36.152353 31099 net.cpp:141] Setting up inception_5b/3x3
I0403 15:04:36.152386 31099 net.cpp:148] Top shape: 24 384 7 7 (451584)
I0403 15:04:36.152406 31099 net.cpp:156] Memory required for data: 1332467232
I0403 15:04:36.152426 31099 layer_factory.hpp:77] Creating layer inception_5b/relu_3x3
I0403 15:04:36.152446 31099 net.cpp:91] Creating Layer inception_5b/relu_3x3
I0403 15:04:36.152463 31099 net.cpp:425] inception_5b/relu_3x3 <- inception_5b/3x3
I0403 15:04:36.152484 31099 net.cpp:386] inception_5b/relu_3x3 -> inception_5b/3x3 (in-place)
I0403 15:04:36.152792 31099 net.cpp:141] Setting up inception_5b/relu_3x3
I0403 15:04:36.152822 31099 net.cpp:148] Top shape: 24 384 7 7 (451584)
I0403 15:04:36.152840 31099 net.cpp:156] Memory required for data: 1334273568
I0403 15:04:36.152856 31099 layer_factory.hpp:77] Creating layer inception_5b/5x5_reduce
I0403 15:04:36.152904 31099 net.cpp:91] Creating Layer inception_5b/5x5_reduce
I0403 15:04:36.152925 31099 net.cpp:425] inception_5b/5x5_reduce <- inception_5a/output_inception_5a/output_0_split_2
I0403 15:04:36.152946 31099 net.cpp:399] inception_5b/5x5_reduce -> inception_5b/5x5_reduce
I0403 15:04:36.154302 31099 net.cpp:141] Setting up inception_5b/5x5_reduce
I0403 15:04:36.154335 31099 net.cpp:148] Top shape: 24 48 7 7 (56448)
I0403 15:04:36.154353 31099 net.cpp:156] Memory required for data: 1334499360
I0403 15:04:36.154373 31099 layer_factory.hpp:77] Creating layer inception_5b/relu_5x5_reduce
I0403 15:04:36.154392 31099 net.cpp:91] Creating Layer inception_5b/relu_5x5_reduce
I0403 15:04:36.154409 31099 net.cpp:425] inception_5b/relu_5x5_reduce <- inception_5b/5x5_reduce
I0403 15:04:36.154433 31099 net.cpp:386] inception_5b/relu_5x5_reduce -> inception_5b/5x5_reduce (in-place)
I0403 15:04:36.154824 31099 net.cpp:141] Setting up inception_5b/relu_5x5_reduce
I0403 15:04:36.154852 31099 net.cpp:148] Top shape: 24 48 7 7 (56448)
I0403 15:04:36.154875 31099 net.cpp:156] Memory required for data: 1334725152
I0403 15:04:36.154892 31099 layer_factory.hpp:77] Creating layer inception_5b/5x5
I0403 15:04:36.154916 31099 net.cpp:91] Creating Layer inception_5b/5x5
I0403 15:04:36.154937 31099 net.cpp:425] inception_5b/5x5 <- inception_5b/5x5_reduce
I0403 15:04:36.154956 31099 net.cpp:399] inception_5b/5x5 -> inception_5b/5x5
I0403 15:04:36.157122 31099 net.cpp:141] Setting up inception_5b/5x5
I0403 15:04:36.157156 31099 net.cpp:148] Top shape: 24 128 7 7 (150528)
I0403 15:04:36.157173 31099 net.cpp:156] Memory required for data: 1335327264
I0403 15:04:36.157194 31099 layer_factory.hpp:77] Creating layer inception_5b/relu_5x5
I0403 15:04:36.157214 31099 net.cpp:91] Creating Layer inception_5b/relu_5x5
I0403 15:04:36.157237 31099 net.cpp:425] inception_5b/relu_5x5 <- inception_5b/5x5
I0403 15:04:36.157264 31099 net.cpp:386] inception_5b/relu_5x5 -> inception_5b/5x5 (in-place)
I0403 15:04:36.157470 31099 net.cpp:141] Setting up inception_5b/relu_5x5
I0403 15:04:36.157500 31099 net.cpp:148] Top shape: 24 128 7 7 (150528)
I0403 15:04:36.157518 31099 net.cpp:156] Memory required for data: 1335929376
I0403 15:04:36.157536 31099 layer_factory.hpp:77] Creating layer inception_5b/pool
I0403 15:04:36.157557 31099 net.cpp:91] Creating Layer inception_5b/pool
I0403 15:04:36.157578 31099 net.cpp:425] inception_5b/pool <- inception_5a/output_inception_5a/output_0_split_3
I0403 15:04:36.157598 31099 net.cpp:399] inception_5b/pool -> inception_5b/pool
I0403 15:04:36.157676 31099 net.cpp:141] Setting up inception_5b/pool
I0403 15:04:36.157702 31099 net.cpp:148] Top shape: 24 832 7 7 (978432)
I0403 15:04:36.157718 31099 net.cpp:156] Memory required for data: 1339843104
I0403 15:04:36.157734 31099 layer_factory.hpp:77] Creating layer inception_5b/pool_proj
I0403 15:04:36.157758 31099 net.cpp:91] Creating Layer inception_5b/pool_proj
I0403 15:04:36.157778 31099 net.cpp:425] inception_5b/pool_proj <- inception_5b/pool
I0403 15:04:36.157799 31099 net.cpp:399] inception_5b/pool_proj -> inception_5b/pool_proj
I0403 15:04:36.160217 31099 net.cpp:141] Setting up inception_5b/pool_proj
I0403 15:04:36.160248 31099 net.cpp:148] Top shape: 24 128 7 7 (150528)
I0403 15:04:36.160271 31099 net.cpp:156] Memory required for data: 1340445216
I0403 15:04:36.160292 31099 layer_factory.hpp:77] Creating layer inception_5b/relu_pool_proj
I0403 15:04:36.160311 31099 net.cpp:91] Creating Layer inception_5b/relu_pool_proj
I0403 15:04:36.160331 31099 net.cpp:425] inception_5b/relu_pool_proj <- inception_5b/pool_proj
I0403 15:04:36.160352 31099 net.cpp:386] inception_5b/relu_pool_proj -> inception_5b/pool_proj (in-place)
I0403 15:04:36.160665 31099 net.cpp:141] Setting up inception_5b/relu_pool_proj
I0403 15:04:36.160692 31099 net.cpp:148] Top shape: 24 128 7 7 (150528)
I0403 15:04:36.160709 31099 net.cpp:156] Memory required for data: 1341047328
I0403 15:04:36.160725 31099 layer_factory.hpp:77] Creating layer inception_5b/output
I0403 15:04:36.160744 31099 net.cpp:91] Creating Layer inception_5b/output
I0403 15:04:36.160779 31099 net.cpp:425] inception_5b/output <- inception_5b/1x1
I0403 15:04:36.160799 31099 net.cpp:425] inception_5b/output <- inception_5b/3x3
I0403 15:04:36.160818 31099 net.cpp:425] inception_5b/output <- inception_5b/5x5
I0403 15:04:36.160835 31099 net.cpp:425] inception_5b/output <- inception_5b/pool_proj
I0403 15:04:36.160857 31099 net.cpp:399] inception_5b/output -> inception_5b/output
I0403 15:04:36.160912 31099 net.cpp:141] Setting up inception_5b/output
I0403 15:04:36.160938 31099 net.cpp:148] Top shape: 24 1024 7 7 (1204224)
I0403 15:04:36.160956 31099 net.cpp:156] Memory required for data: 1345864224
I0403 15:04:36.160974 31099 layer_factory.hpp:77] Creating layer pool5/7x7_s1
I0403 15:04:36.160994 31099 net.cpp:91] Creating Layer pool5/7x7_s1
I0403 15:04:36.161010 31099 net.cpp:425] pool5/7x7_s1 <- inception_5b/output
I0403 15:04:36.161029 31099 net.cpp:399] pool5/7x7_s1 -> pool5/7x7_s1
I0403 15:04:36.161263 31099 net.cpp:141] Setting up pool5/7x7_s1
I0403 15:04:36.161291 31099 net.cpp:148] Top shape: 24 1024 1 1 (24576)
I0403 15:04:36.161308 31099 net.cpp:156] Memory required for data: 1345962528
I0403 15:04:36.161322 31099 layer_factory.hpp:77] Creating layer pool5/drop_7x7_s1
I0403 15:04:36.161341 31099 net.cpp:91] Creating Layer pool5/drop_7x7_s1
I0403 15:04:36.161358 31099 net.cpp:425] pool5/drop_7x7_s1 <- pool5/7x7_s1
I0403 15:04:36.161380 31099 net.cpp:386] pool5/drop_7x7_s1 -> pool5/7x7_s1 (in-place)
I0403 15:04:36.161434 31099 net.cpp:141] Setting up pool5/drop_7x7_s1
I0403 15:04:36.161464 31099 net.cpp:148] Top shape: 24 1024 1 1 (24576)
I0403 15:04:36.161481 31099 net.cpp:156] Memory required for data: 1346060832
I0403 15:04:36.161499 31099 layer_factory.hpp:77] Creating layer loss3/classifier_plantvillage
I0403 15:04:36.161519 31099 net.cpp:91] Creating Layer loss3/classifier_plantvillage
I0403 15:04:36.161535 31099 net.cpp:425] loss3/classifier_plantvillage <- pool5/7x7_s1
I0403 15:04:36.161561 31099 net.cpp:399] loss3/classifier_plantvillage -> loss3/classifier_plantvillage
I0403 15:04:36.162003 31099 net.cpp:141] Setting up loss3/classifier_plantvillage
I0403 15:04:36.162032 31099 net.cpp:148] Top shape: 24 38 (912)
I0403 15:04:36.162050 31099 net.cpp:156] Memory required for data: 1346064480
I0403 15:04:36.162072 31099 layer_factory.hpp:77] Creating layer loss3/classifier_plantvillage_loss3/classifier_plantvillage_0_split
I0403 15:04:36.162098 31099 net.cpp:91] Creating Layer loss3/classifier_plantvillage_loss3/classifier_plantvillage_0_split
I0403 15:04:36.162117 31099 net.cpp:425] loss3/classifier_plantvillage_loss3/classifier_plantvillage_0_split <- loss3/classifier_plantvillage
I0403 15:04:36.162137 31099 net.cpp:399] loss3/classifier_plantvillage_loss3/classifier_plantvillage_0_split -> loss3/classifier_plantvillage_loss3/classifier_plantvillage_0_split_0
I0403 15:04:36.162159 31099 net.cpp:399] loss3/classifier_plantvillage_loss3/classifier_plantvillage_0_split -> loss3/classifier_plantvillage_loss3/classifier_plantvillage_0_split_1
I0403 15:04:36.162186 31099 net.cpp:399] loss3/classifier_plantvillage_loss3/classifier_plantvillage_0_split -> loss3/classifier_plantvillage_loss3/classifier_plantvillage_0_split_2
I0403 15:04:36.162209 31099 net.cpp:399] loss3/classifier_plantvillage_loss3/classifier_plantvillage_0_split -> loss3/classifier_plantvillage_loss3/classifier_plantvillage_0_split_3
I0403 15:04:36.162340 31099 net.cpp:141] Setting up loss3/classifier_plantvillage_loss3/classifier_plantvillage_0_split
I0403 15:04:36.162367 31099 net.cpp:148] Top shape: 24 38 (912)
I0403 15:04:36.162386 31099 net.cpp:148] Top shape: 24 38 (912)
I0403 15:04:36.162403 31099 net.cpp:148] Top shape: 24 38 (912)
I0403 15:04:36.162421 31099 net.cpp:148] Top shape: 24 38 (912)
I0403 15:04:36.162437 31099 net.cpp:156] Memory required for data: 1346079072
I0403 15:04:36.162454 31099 layer_factory.hpp:77] Creating layer loss1/loss
I0403 15:04:36.162478 31099 net.cpp:91] Creating Layer loss1/loss
I0403 15:04:36.162497 31099 net.cpp:425] loss1/loss <- loss1/classifier_plantvillage_loss1/classifier_plantvillage_0_split_0
I0403 15:04:36.162531 31099 net.cpp:425] loss1/loss <- label_data_1_split_0
…
