…
I0403 15:25:00.751056 31741 net.cpp:313] The NetState phase (1) differed from the phase (0) specified by a rule in layer data
I0403 15:25:00.752249 31741 net.cpp:49] Initializing net from parameters: 
state {
  phase: TEST
}
layer {
  name: "data"
  type: "Data"
  top: "data"
  top: "label"
  include {
    phase: TEST
  }
  transform_param {
    mirror: false
    crop_size: 224
    mean_file: "/home/mohanty/data/final_dataset/lmdb/color-60-40/mean.binaryproto"
  }
  data_param {
    source: "/home/mohanty/data/final_dataset/lmdb/color-60-40/test_db"
    batch_size: 24
    backend: LMDB
  }
}
layer {
  name: "conv1/7x7_s2"
  type: "Convolution"
  bottom: "data"
  top: "conv1/7x7_s2"
  param {
    lr_mult: 1
    decay_mult: 1
  }
  param {
    lr_mult: 2
    decay_mult: 0
  }
  convolution_param {
    num_output: 64
    pad: 3
    kernel_size: 7
    stride: 2
    weight_filler {
      type: "xavier"
      std: 0.1
    }
    bias_filler {
      type: "constant"
      value: 0.2
    }
  }
}
layer {
  name: "conv1/relu_7x7"
  type: "ReLU"
  bottom: "conv1/7x7_s2"
  top: "conv1/7x7_s2"
}
layer {
  name: "pool1/3x3_s2"
  type: "Pooling"
  bottom: "conv1/7x7_s2"
  top: "pool1/3x3_s2"
  pooling_param {
    pool: MAX
    kernel_size: 3
    stride: 2
  }
}
layer {
  name: "pool1/norm1"
  type: "LRN"
  bottom: "pool1/3x3_s2"
  top: "pool1/norm1"
  lrn_param {
    local_size: 5
    alpha: 0.0001
    beta: 0.75
  }
}
layer {
  name: "conv2/3x3_reduce"
  type: "Convolution"
  bottom: "pool1/norm1"
  top: "conv2/3x3_reduce"
  param {
    lr_mult: 1
    decay_mult: 1
  }
  param {
    lr_mult: 2
    decay_mult: 0
  }
  convolution_param {
    num_output: 64
    kernel_size: 1
    weight_filler {
      type: "xavier"
      std: 0.1
    }
    bias_filler {
      type: "constant"
      value: 0.2
    }
  }
}
layer {
  name: "conv2/relu_3x3_reduce"
  type: "ReLU"
  bottom: "conv2/3x3_reduce"
  top: "conv2/3x3_reduce"
}
layer {
  name: "conv2/3x3"
  type: "Convolution"
  bottom: "conv2/3x3_reduce"
  top: "conv2/3x3"
  param {
    lr_mult: 1
    decay_mult: 1
  }
  param {
    lr_mult: 2
    decay_mult: 0
  }
  convolution_param {
    num_output: 192
    pad: 1
    kernel_size: 3
    weight_filler {
      type: "xavier"
      std: 0.03
    }
    bias_filler {
      type: "constant"
      value: 0.2
    }
  }
}
layer {
  name: "conv2/relu_3x3"
  type: "ReLU"
  bottom: "conv2/3x3"
  top: "conv2/3x3"
}
layer {
  name: "conv2/norm2"
  type: "LRN"
  bottom: "conv2/3x3"
  top: "conv2/norm2"
  lrn_param {
    local_size: 5
    alpha: 0.0001
    beta: 0.75
  }
}
layer {
  name: "pool2/3x3_s2"
  type: "Pooling"
  bottom: "conv2/norm2"
  top: "pool2/3x3_s2"
  pooling_param {
    pool: MAX
    kernel_size: 3
    stride: 2
  }
}
layer {
  name: "inception_3a/1x1"
  type: "Convolution"
  bottom: "pool2/3x3_s2"
  top: "inception_3a/1x1"
  param {
    lr_mult: 1
    decay_mult: 1
  }
  param {
    lr_mult: 2
    decay_mult: 0
  }
  convolution_param {
    num_output: 64
    kernel_size: 1
    weight_filler {
      type: "xavier"
      std: 0.03
    }
    bias_filler {
      type: "constant"
      value: 0.2
    }
  }
}
layer {
  name: "inception_3a/relu_1x1"
  type: "ReLU"
  bottom: "inception_3a/1x1"
  top: "inception_3a/1x1"
}
layer {
  name: "inception_3a/3x3_reduce"
  type: "Convolution"
  bottom: "pool2/3x3_s2"
  top: "inception_3a/3x3_reduce"
  param {
    lr_mult: 1
    decay_mult: 1
  }
  param {
    lr_mult: 2
    decay_mult: 0
  }
  convolution_param {
    num_output: 96
    kernel_size: 1
    weight_filler {
      type: "xavier"
      std: 0.09
    }
    bias_filler {
      type: "constant"
      value: 0.2
    }
  }
}
layer {
  name: "inception_3a/relu_3x3_reduce"
  type: "ReLU"
  bottom: "inception_3a/3x3_reduce"
  top: "inception_3a/3x3_reduce"
}
layer {
  name: "inception_3a/3x3"
  type: "Convolution"
  bottom: "inception_3a/3x3_reduce"
  top: "inception_3a/3x3"
  param {
    lr_mult: 1
    decay_mult: 1
  }
  param {
    lr_mult: 2
    decay_mult: 0
  }
  convolution_param {
    num_output: 128
    pad: 1
    kernel_size: 3
    weight_filler {
      type: "xavier"
      std: 0.03
    }
    bias_filler {
      type: "constant"
      value: 0.2
    }
  }
}
layer {
  name: "inception_3a/relu_3x3"
  type: "ReLU"
  bottom: "inception_3a/3x3"
  top: "inception_3a/3x3"
}
layer {
  name: "inception_3a/5x5_reduce"
  type: "Convolution"
  bottom: "pool2/3x3_s2"
  top: "inception_3a/5x5_reduce"
  param {
    lr_mult: 1
    decay_mult: 1
  }
  param {
    lr_mult: 2
    decay_mult: 0
  }
  convolution_param {
    num_output: 16
    kernel_size: 1
    weight_filler {
      type: "xavier"
      std: 0.2
    }
    bias_filler {
      type: "constant"
      value: 0.2
    }
  }
}
layer {
  name: "inception_3a/relu_5x5_reduce"
  type: "ReLU"
  bottom: "inception_3a/5x5_reduce"
  top: "inception_3a/5x5_reduce"
}
layer {
  name: "inception_3a/5x5"
  type: "Convolution"
  bottom: "inception_3a/5x5_reduce"
  top: "inception_3a/5x5"
  param {
    lr_mult: 1
    decay_mult: 1
  }
  param {
    lr_mult: 2
    decay_mult: 0
  }
  convolution_param {
    num_output: 32
    pad: 2
    kernel_size: 5
    weight_filler {
      type: "xavier"
      std: 0.03
    }
    bias_filler {
      type: "constant"
      value: 0.2
    }
  }
}
layer {
  name: "inception_3a/relu_5x5"
  type: "ReLU"
  bottom: "inception_3a/5x5"
  top: "inception_3a/5x5"
}
layer {
  name: "inception_3a/pool"
  type: "Pooling"
  bottom: "pool2/3x3_s2"
  top: "inception_3a/pool"
  pooling_param {
    pool: MAX
    kernel_size: 3
    stride: 1
    pad: 1
  }
}
layer {
  name: "inception_3a/pool_proj"
  type: "Convolution"
  bottom: "inception_3a/pool"
  top: "inception_3a/pool_proj"
  param {
    lr_mult: 1
    decay_mult: 1
  }
  param {
    lr_mult: 2
    decay_mult: 0
  }
  convolution_param {
    num_output: 32
    kernel_size: 1
    weight_filler {
      type: "xavier"
      std: 0.1
    }
    bias_filler {
      type: "constant"
      value: 0.2
    }
  }
}
layer {
  name: "inception_3a/relu_pool_proj"
  type: "ReLU"
  bottom: "inception_3a/pool_proj"
  top: "inception_3a/pool_proj"
}
layer {
  name: "inception_3a/output"
  type: "Concat"
  bottom: "inception_3a/1x1"
  bottom: "inception_3a/3x3"
  bottom: "inception_3a/5x5"
  bottom: "inception_3a/pool_proj"
  top: "inception_3a/output"
}
layer {
  name: "inception_3b/1x1"
  type: "Convolution"
  bottom: "inception_3a/output"
  top: "inception_3b/1x1"
  param {
    lr_mult: 1
    decay_mult: 1
  }
  param {
    lr_mult: 2
    decay_mult: 0
  }
  convolution_param {
    num_output: 128
    kernel_size: 1
    weight_filler {
      type: "xavier"
      std: 0.03
    }
    bias_filler {
      type: "constant"
      value: 0.2
    }
  }
}
layer {
  name: "inception_3b/relu_1x1"
  type: "ReLU"
  bottom: "inception_3b/1x1"
  top: "inception_3b/1x1"
}
layer {
  name: "inception_3b/3x3_reduce"
  type: "Convolution"
  bottom: "inception_3a/output"
  top: "inception_3b/3x3_reduce"
  param {
    lr_mult: 1
    decay_mult: 1
  }
  param {
    lr_mult: 2
    decay_mult: 0
  }
  convolution_param {
    num_output: 128
    kernel_size: 1
    weight_filler {
      type: "xavier"
      std: 0.09
    }
    bias_filler {
      type: "constant"
      value: 0.2
    }
  }
}
layer {
  name: "inception_3b/relu_3x3_reduce"
  type: "ReLU"
  bottom: "inception_3b/3x3_reduce"
  top: "inception_3b/3x3_reduce"
}
layer {
  name: "inception_3b/3x3"
  type: "Convolution"
  bottom: "inception_3b/3x3_reduce"
  top: "inception_3b/3x3"
  param {
    lr_mult: 1
    decay_mult: 1
  }
  param {
    lr_mult: 2
    decay_mult: 0
  }
  convolution_param {
    num_output: 192
    pad: 1
    kernel_size: 3
    weight_filler {
      type: "xavier"
      std: 0.03
    }
    bias_filler {
      type: "constant"
      value: 0.2
    }
  }
}
layer {
  name: "inception_3b/relu_3x3"
  type: "ReLU"
  bottom: "inception_3b/3x3"
  top: "inception_3b/3x3"
}
layer {
  name: "inception_3b/5x5_reduce"
  type: "Convolution"
  bottom: "inception_3a/output"
  top: "inception_3b/5x5_reduce"
  param {
    lr_mult: 1
    decay_mult: 1
  }
  param {
    lr_mult: 2
    decay_mult: 0
  }
  convolution_param {
    num_output: 32
    kernel_size: 1
    weight_filler {
      type: "xavier"
      std: 0.2
    }
    bias_filler {
      type: "constant"
      value: 0.2
    }
  }
}
layer {
  name: "inception_3b/relu_5x5_reduce"
  type: "ReLU"
  bottom: "inception_3b/5x5_reduce"
  top: "inception_3b/5x5_reduce"
}
layer {
  name: "inception_3b/5x5"
  type: "Convolution"
  bottom: "inception_3b/5x5_reduce"
  top: "inception_3b/5x5"
  param {
    lr_mult: 1
    decay_mult: 1
  }
  param {
    lr_mult: 2
    decay_mult: 0
  }
  convolution_param {
    num_output: 96
    pad: 2
    kernel_size: 5
    weight_filler {
      type: "xavier"
      std: 0.03
    }
    bias_filler {
      type: "constant"
      value: 0.2
    }
  }
}
layer {
  name: "inception_3b/relu_5x5"
  type: "ReLU"
  bottom: "inception_3b/5x5"
  top: "inception_3b/5x5"
}
layer {
  name: "inception_3b/pool"
  type: "Pooling"
  bottom: "inception_3a/output"
  top: "inception_3b/pool"
  pooling_param {
    pool: MAX
    kernel_size: 3
    stride: 1
    pad: 1
  }
}
layer {
  name: "inception_3b/pool_proj"
  type: "Convolution"
  bottom: "inception_3b/pool"
  top: "inception_3b/pool_proj"
  param {
    lr_mult: 1
    decay_mult: 1
  }
  param {
    lr_mult: 2
    decay_mult: 0
  }
  convolution_param {
    num_output: 64
    kernel_size: 1
    weight_filler {
      type: "xavier"
      std: 0.1
    }
    bias_filler {
      type: "constant"
      value: 0.2
    }
  }
}
layer {
  name: "inception_3b/relu_pool_proj"
  type: "ReLU"
  bottom: "inception_3b/pool_proj"
  top: "inception_3b/pool_proj"
}
layer {
  name: "inception_3b/output"
  type: "Concat"
  bottom: "inception_3b/1x1"
  bottom: "inception_3b/3x3"
  bottom: "inception_3b/5x5"
  bottom: "inception_3b/pool_proj"
  top: "inception_3b/output"
}
layer {
  name: "pool3/3x3_s2"
  type: "Pooling"
  bottom: "inception_3b/output"
  top: "pool3/3x3_s2"
  pooling_param {
    pool: MAX
    kernel_size: 3
    stride: 2
  }
}
layer {
  name: "inception_4a/1x1"
  type: "Convolution"
  bottom: "pool3/3x3_s2"
  top: "inception_4a/1x1"
  param {
    lr_mult: 1
    decay_mult: 1
  }
  param {
    lr_mult: 2
    decay_mult: 0
  }
  convolution_param {
    num_output: 192
    kernel_size: 1
    weight_filler {
      type: "xavier"
      std: 0.03
    }
    bias_filler {
      type: "constant"
      value: 0.2
    }
  }
}
layer {
  name: "inception_4a/relu_1x1"
  type: "ReLU"
  bottom: "inception_4a/1x1"
  top: "inception_4a/1x1"
}
layer {
  name: "inception_4a/3x3_reduce"
  type: "Convolution"
  bottom: "pool3/3x3_s2"
  top: "inception_4a/3x3_reduce"
  param {
    lr_mult: 1
    decay_mult: 1
  }
  param {
    lr_mult: 2
    decay_mult: 0
  }
  convolution_param {
    num_output: 96
    kernel_size: 1
    weight_filler {
      type: "xavier"
      std: 0.09
    }
    bias_filler {
      type: "constant"
      value: 0.2
    }
  }
}
layer {
  name: "inception_4a/relu_3x3_reduce"
  type: "ReLU"
  bottom: "inception_4a/3x3_reduce"
  top: "inception_4a/3x3_reduce"
}
layer {
  name: "inception_4a/3x3"
  type: "Convolution"
  bottom: "inception_4a/3x3_reduce"
  top: "inception_4a/3x3"
  param {
    lr_mult: 1
    decay_mult: 1
  }
  param {
    lr_mult: 2
    decay_mult: 0
  }
  convolution_param {
    num_output: 208
    pad: 1
    kernel_size: 3
    weight_filler {
      type: "xavier"
      std: 0.03
    }
    bias_filler {
      type: "constant"
      value: 0.2
    }
  }
}
layer {
  name: "inception_4a/relu_3x3"
  type: "ReLU"
  bottom: "inception_4a/3x3"
  top: "inception_4a/3x3"
}
layer {
  name: "inception_4a/5x5_reduce"
  type: "Convolution"
  bottom: "pool3/3x3_s2"
  top: "inception_4a/5x5_reduce"
  param {
    lr_mult: 1
    decay_mult: 1
  }
  param {
    lr_mult: 2
    decay_mult: 0
  }
  convolution_param {
    num_output: 16
    kernel_size: 1
    weight_filler {
      type: "xavier"
      std: 0.2
    }
    bias_filler {
      type: "constant"
      value: 0.2
    }
  }
}
layer {
  name: "inception_4a/relu_5x5_reduce"
  type: "ReLU"
  bottom: "inception_4a/5x5_reduce"
  top: "inception_4a/5x5_reduce"
}
layer {
  name: "inception_4a/5x5"
  type: "Convolution"
  bottom: "inception_4a/5x5_reduce"
  top: "inception_4a/5x5"
  param {
    lr_mult: 1
    decay_mult: 1
  }
  param {
    lr_mult: 2
    decay_mult: 0
  }
  convolution_param {
    num_output: 48
    pad: 2
    kernel_size: 5
    weight_filler {
      type: "xavier"
      std: 0.03
    }
    bias_filler {
      type: "constant"
      value: 0.2
    }
  }
}
layer {
  name: "inception_4a/relu_5x5"
  type: "ReLU"
  bottom: "inception_4a/5x5"
  top: "inception_4a/5x5"
}
layer {
  name: "inception_4a/pool"
  type: "Pooling"
  bottom: "pool3/3x3_s2"
  top: "inception_4a/pool"
  pooling_param {
    pool: MAX
    kernel_size: 3
    stride: 1
    pad: 1
  }
}
layer {
  name: "inception_4a/pool_proj"
  type: "Convolution"
  bottom: "inception_4a/pool"
  top: "inception_4a/pool_proj"
  param {
    lr_mult: 1
    decay_mult: 1
  }
  param {
    lr_mult: 2
    decay_mult: 0
  }
  convolution_param {
    num_output: 64
    kernel_size: 1
    weight_filler {
      type: "xavier"
      std: 0.1
    }
    bias_filler {
      type: "constant"
      value: 0.2
    }
  }
}
layer {
  name: "inception_4a/relu_pool_proj"
  type: "ReLU"
  bottom: "inception_4a/pool_proj"
  top: "inception_4a/pool_proj"
}
layer {
  name: "inception_4a/output"
  type: "Concat"
  bottom: "inception_4a/1x1"
  bottom: "inception_4a/3x3"
  bottom: "inception_4a/5x5"
  bottom: "inception_4a/pool_proj"
  top: "inception_4a/output"
}
layer {
  name: "loss1/ave_pool"
  type: "Pooling"
  bottom: "inception_4a/output"
  top: "loss1/ave_pool"
  pooling_param {
    pool: AVE
    kernel_size: 5
    stride: 3
  }
}
layer {
  name: "loss1/conv"
  type: "Convolution"
  bottom: "loss1/ave_pool"
  top: "loss1/conv"
  param {
    lr_mult: 1
    decay_mult: 1
  }
  param {
    lr_mult: 2
    decay_mult: 0
  }
  convolution_param {
    num_output: 128
    kernel_size: 1
    weight_filler {
      type: "xavier"
      std: 0.08
    }
    bias_filler {
      type: "constant"
      value: 0.2
    }
  }
}
layer {
  name: "loss1/relu_conv"
  type: "ReLU"
  bottom: "loss1/conv"
  top: "loss1/conv"
}
layer {
  name: "loss1/fc"
  type: "InnerProduct"
  bottom: "loss1/conv"
  top: "loss1/fc"
  param {
    lr_mult: 1
    decay_mult: 1
  }
  param {
    lr_mult: 2
    decay_mult: 0
  }
  inner_product_param {
    num_output: 1024
    weight_filler {
      type: "xavier"
      std: 0.02
    }
    bias_filler {
      type: "constant"
      value: 0.2
    }
  }
}
layer {
  name: "loss1/relu_fc"
  type: "ReLU"
  bottom: "loss1/fc"
  top: "loss1/fc"
}
layer {
  name: "loss1/drop_fc"
  type: "Dropout"
  bottom: "loss1/fc"
  top: "loss1/fc"
  dropout_param {
    dropout_ratio: 0.7
  }
}
layer {
  name: "loss1/classifier_plantvillage"
  type: "InnerProduct"
  bottom: "loss1/fc"
  top: "loss1/classifier_plantvillage"
  param {
    lr_mult: 1
    decay_mult: 1
  }
  param {
    lr_mult: 2
    decay_mult: 0
  }
  inner_product_param {
    num_output: 38
    weight_filler {
      type: "xavier"
      std: 0.0009765625
    }
    bias_filler {
      type: "constant"
      value: 0
    }
  }
}
layer {
  name: "inception_4b/1x1"
  type: "Convolution"
  bottom: "inception_4a/output"
  top: "inception_4b/1x1"
  param {
    lr_mult: 1
    decay_mult: 1
  }
  param {
    lr_mult: 2
    decay_mult: 0
  }
  convolution_param {
    num_output: 160
    kernel_size: 1
    weight_filler {
      type: "xavier"
      std: 0.03
    }
    bias_filler {
      type: "constant"
      value: 0.2
    }
  }
}
layer {
  name: "inception_4b/relu_1x1"
  type: "ReLU"
  bottom: "inception_4b/1x1"
  top: "inception_4b/1x1"
}
layer {
  name: "inception_4b/3x3_reduce"
  type: "Convolution"
  bottom: "inception_4a/output"
  top: "inception_4b/3x3_reduce"
  param {
    lr_mult: 1
    decay_mult: 1
  }
  param {
    lr_mult: 2
    decay_mult: 0
  }
  convolution_param {
    num_output: 112
    kernel_size: 1
    weight_filler {
      type: "xavier"
      std: 0.09
    }
    bias_filler {
      type: "constant"
      value: 0.2
    }
  }
}
layer {
  name: "inception_4b/relu_3x3_reduce"
  type: "ReLU"
  bottom: "inception_4b/3x3_reduce"
  top: "inception_4b/3x3_reduce"
}
layer {
  name: "inception_4b/3x3"
  type: "Convolution"
  bottom: "inception_4b/3x3_reduce"
  top: "inception_4b/3x3"
  param {
    lr_mult: 1
    decay_mult: 1
  }
  param {
    lr_mult: 2
    decay_mult: 0
  }
  convolution_param {
    num_output: 224
    pad: 1
    kernel_size: 3
    weight_filler {
      type: "xavier"
      std: 0.03
    }
    bias_filler {
      type: "constant"
      value: 0.2
    }
  }
}
layer {
  name: "inception_4b/relu_3x3"
  type: "ReLU"
  bottom: "inception_4b/3x3"
  top: "inception_4b/3x3"
}
layer {
  name: "inception_4b/5x5_reduce"
  type: "Convolution"
  bottom: "inception_4a/output"
  top: "inception_4b/5x5_reduce"
  param {
    lr_mult: 1
    decay_mult: 1
  }
  param {
    lr_mult: 2
    decay_mult: 0
  }
  convolution_param {
    num_output: 24
    kernel_size: 1
    weight_filler {
      type: "xavier"
      std: 0.2
    }
    bias_filler {
      type: "constant"
      value: 0.2
    }
  }
}
layer {
  name: "inception_4b/relu_5x5_reduce"
  type: "ReLU"
  bottom: "inception_4b/5x5_reduce"
  top: "inception_4b/5x5_reduce"
}
layer {
  name: "inception_4b/5x5"
  type: "Convolution"
  bottom: "inception_4b/5x5_reduce"
  top: "inception_4b/5x5"
  param {
    lr_mult: 1
    decay_mult: 1
  }
  param {
    lr_mult: 2
    decay_mult: 0
  }
  convolution_param {
    num_output: 64
    pad: 2
    kernel_size: 5
    weight_filler {
      type: "xavier"
      std: 0.03
    }
    bias_filler {
      type: "constant"
      value: 0.2
    }
  }
}
layer {
  name: "inception_4b/relu_5x5"
  type: "ReLU"
  bottom: "inception_4b/5x5"
  top: "inception_4b/5x5"
}
layer {
  name: "inception_4b/pool"
  type: "Pooling"
  bottom: "inception_4a/output"
  top: "inception_4b/pool"
  pooling_param {
    pool: MAX
    kernel_size: 3
    stride: 1
    pad: 1
  }
}
layer {
  name: "inception_4b/pool_proj"
  type: "Convolution"
  bottom: "inception_4b/pool"
  top: "inception_4b/pool_proj"
  param {
    lr_mult: 1
    decay_mult: 1
  }
  param {
    lr_mult: 2
    decay_mult: 0
  }
  convolution_param {
    num_output: 64
    kernel_size: 1
    weight_filler {
      type: "xavier"
      std: 0.1
    }
    bias_filler {
      type: "constant"
      value: 0.2
    }
  }
}
layer {
  name: "inception_4b/relu_pool_proj"
  type: "ReLU"
  bottom: "inception_4b/pool_proj"
  top: "inception_4b/pool_proj"
}
layer {
  name: "inception_4b/output"
  type: "Concat"
  bottom: "inception_4b/1x1"
  bottom: "inception_4b/3x3"
  bottom: "inception_4b/5x5"
  bottom: "inception_4b/pool_proj"
  top: "inception_4b/output"
}
layer {
  name: "inception_4c/1x1"
  type: "Convolution"
  bottom: "inception_4b/output"
  top: "inception_4c/1x1"
  param {
    lr_mult: 1
    decay_mult: 1
  }
  param {
    lr_mult: 2
    decay_mult: 0
  }
  convolution_param {
    num_output: 128
    kernel_size: 1
    weight_filler {
      type: "xavier"
      std: 0.03
    }
    bias_filler {
      type: "constant"
      value: 0.2
    }
  }
}
layer {
  name: "inception_4c/relu_1x1"
  type: "ReLU"
  bottom: "inception_4c/1x1"
  top: "inception_4c/1x1"
}
layer {
  name: "inception_4c/3x3_reduce"
  type: "Convolution"
  bottom: "inception_4b/output"
  top: "inception_4c/3x3_reduce"
  param {
    lr_mult: 1
    decay_mult: 1
  }
  param {
    lr_mult: 2
    decay_mult: 0
  }
  convolution_param {
    num_output: 128
    kernel_size: 1
    weight_filler {
      type: "xavier"
      std: 0.09
    }
    bias_filler {
      type: "constant"
      value: 0.2
    }
  }
}
layer {
  name: "inception_4c/relu_3x3_reduce"
  type: "ReLU"
  bottom: "inception_4c/3x3_reduce"
  top: "inception_4c/3x3_reduce"
}
layer {
  name: "inception_4c/3x3"
  type: "Convolution"
  bottom: "inception_4c/3x3_reduce"
  top: "inception_4c/3x3"
  param {
    lr_mult: 1
    decay_mult: 1
  }
  param {
    lr_mult: 2
    decay_mult: 0
  }
  convolution_param {
    num_output: 256
    pad: 1
    kernel_size: 3
    weight_filler {
      type: "xavier"
      std: 0.03
    }
    bias_filler {
      type: "constant"
      value: 0.2
    }
  }
}
layer {
  name: "inception_4c/relu_3x3"
  type: "ReLU"
  bottom: "inception_4c/3x3"
  top: "inception_4c/3x3"
}
layer {
  name: "inception_4c/5x5_reduce"
  type: "Convolution"
  bottom: "inception_4b/output"
  top: "inception_4c/5x5_reduce"
  param {
    lr_mult: 1
    decay_mult: 1
  }
  param {
    lr_mult: 2
    decay_mult: 0
  }
  convolution_param {
    num_output: 24
    kernel_size: 1
    weight_filler {
      type: "xavier"
      std: 0.2
    }
    bias_filler {
      type: "constant"
      value: 0.2
    }
  }
}
layer {
  name: "inception_4c/relu_5x5_reduce"
  type: "ReLU"
  bottom: "inception_4c/5x5_reduce"
  top: "inception_4c/5x5_reduce"
}
layer {
  name: "inception_4c/5x5"
  type: "Convolution"
  bottom: "inception_4c/5x5_reduce"
  top: "inception_4c/5x5"
  param {
    lr_mult: 1
    decay_mult: 1
  }
  param {
    lr_mult: 2
    decay_mult: 0
  }
  convolution_param {
    num_output: 64
    pad: 2
    kernel_size: 5
    weight_filler {
      type: "xavier"
      std: 0.03
    }
    bias_filler {
      type: "constant"
      value: 0.2
    }
  }
}
layer {
  name: "inception_4c/relu_5x5"
  type: "ReLU"
  bottom: "inception_4c/5x5"
  top: "inception_4c/5x5"
}
layer {
  name: "inception_4c/pool"
  type: "Pooling"
  bottom: "inception_4b/output"
  top: "inception_4c/pool"
  pooling_param {
    pool: MAX
    kernel_size: 3
    stride: 1
    pad: 1
  }
}
layer {
  name: "inception_4c/pool_proj"
  type: "Convolution"
  bottom: "inception_4c/pool"
  top: "inception_4c/pool_proj"
  param {
    lr_mult: 1
    decay_mult: 1
  }
  param {
    lr_mult: 2
    decay_mult: 0
  }
  convolution_param {
    num_output: 64
    kernel_size: 1
    weight_filler {
      type: "xavier"
      std: 0.1
    }
    bias_filler {
      type: "constant"
      value: 0.2
    }
  }
}
layer {
  name: "inception_4c/relu_pool_proj"
  type: "ReLU"
  bottom: "inception_4c/pool_proj"
  top: "inception_4c/pool_proj"
}
layer {
  name: "inception_4c/output"
  type: "Concat"
  bottom: "inception_4c/1x1"
  bottom: "inception_4c/3x3"
  bottom: "inception_4c/5x5"
  bottom: "inception_4c/pool_proj"
  top: "inception_4c/output"
}
layer {
  name: "inception_4d/1x1"
  type: "Convolution"
  bottom: "inception_4c/output"
  top: "inception_4d/1x1"
  param {
    lr_mult: 1
    decay_mult: 1
  }
  param {
    lr_mult: 2
    decay_mult: 0
  }
  convolution_param {
    num_output: 112
    kernel_size: 1
    weight_filler {
      type: "xavier"
      std: 0.03
    }
    bias_filler {
      type: "constant"
      value: 0.2
    }
  }
}
layer {
  name: "inception_4d/relu_1x1"
  type: "ReLU"
  bottom: "inception_4d/1x1"
  top: "inception_4d/1x1"
}
layer {
  name: "inception_4d/3x3_reduce"
  type: "Convolution"
  bottom: "inception_4c/output"
  top: "inception_4d/3x3_reduce"
  param {
    lr_mult: 1
    decay_mult: 1
  }
  param {
    lr_mult: 2
    decay_mult: 0
  }
  convolution_param {
    num_output: 144
    kernel_size: 1
    weight_filler {
      type: "xavier"
      std: 0.09
    }
    bias_filler {
      type: "constant"
      value: 0.2
    }
  }
}
layer {
  name: "inception_4d/relu_3x3_reduce"
  type: "ReLU"
  bottom: "inception_4d/3x3_reduce"
  top: "inception_4d/3x3_reduce"
}
layer {
  name: "inception_4d/3x3"
  type: "Convolution"
  bottom: "inception_4d/3x3_reduce"
  top: "inception_4d/3x3"
  param {
    lr_mult: 1
    decay_mult: 1
  }
  param {
    lr_mult: 2
    decay_mult: 0
  }
  convolution_param {
    num_output: 288
    pad: 1
    kernel_size: 3
    weight_filler {
      type: "xavier"
      std: 0.03
    }
    bias_filler {
      type: "constant"
      value: 0.2
    }
  }
}
layer {
  name: "inception_4d/relu_3x3"
  type: "ReLU"
  bottom: "inception_4d/3x3"
  top: "inception_4d/3x3"
}
layer {
  name: "inception_4d/5x5_reduce"
  type: "Convolution"
  bottom: "inception_4c/output"
  top: "inception_4d/5x5_reduce"
  param {
    lr_mult: 1
    decay_mult: 1
  }
  param {
    lr_mult: 2
    decay_mult: 0
  }
  convolution_param {
    num_output: 32
    kernel_size: 1
    weight_filler {
      type: "xavier"
      std: 0.2
    }
    bias_filler {
      type: "constant"
      value: 0.2
    }
  }
}
layer {
  name: "inception_4d/relu_5x5_reduce"
  type: "ReLU"
  bottom: "inception_4d/5x5_reduce"
  top: "inception_4d/5x5_reduce"
}
layer {
  name: "inception_4d/5x5"
  type: "Convolution"
  bottom: "inception_4d/5x5_reduce"
  top: "inception_4d/5x5"
  param {
    lr_mult: 1
    decay_mult: 1
  }
  param {
    lr_mult: 2
    decay_mult: 0
  }
  convolution_param {
    num_output: 64
    pad: 2
    kernel_size: 5
    weight_filler {
      type: "xavier"
      std: 0.03
    }
    bias_filler {
      type: "constant"
      value: 0.2
    }
  }
}
layer {
  name: "inception_4d/relu_5x5"
  type: "ReLU"
  bottom: "inception_4d/5x5"
  top: "inception_4d/5x5"
}
layer {
  name: "inception_4d/pool"
  type: "Pooling"
  bottom: "inception_4c/output"
  top: "inception_4d/pool"
  pooling_param {
    pool: MAX
    kernel_size: 3
    stride: 1
    pad: 1
  }
}
layer {
  name: "inception_4d/pool_proj"
  type: "Convolution"
  bottom: "inception_4d/pool"
  top: "inception_4d/pool_proj"
  param {
    lr_mult: 1
    decay_mult: 1
  }
  param {
    lr_mult: 2
    decay_mult: 0
  }
  convolution_param {
    num_output: 64
    kernel_size: 1
    weight_filler {
      type: "xavier"
      std: 0.1
    }
    bias_filler {
      type: "constant"
      value: 0.2
    }
  }
}
layer {
  name: "inception_4d/relu_pool_proj"
  type: "ReLU"
  bottom: "inception_4d/pool_proj"
  top: "inception_4d/pool_proj"
}
layer {
  name: "inception_4d/output"
  type: "Concat"
  bottom: "inception_4d/1x1"
  bottom: "inception_4d/3x3"
  bottom: "inception_4d/5x5"
  bottom: "inception_4d/pool_proj"
  top: "inception_4d/output"
}
layer {
  name: "loss2/ave_pool"
  type: "Pooling"
  bottom: "inception_4d/output"
  top: "loss2/ave_pool"
  pooling_param {
    pool: AVE
    kernel_size: 5
    stride: 3
  }
}
layer {
  name: "loss2/conv"
  type: "Convolution"
  bottom: "loss2/ave_pool"
  top: "loss2/conv"
  param {
    lr_mult: 1
    decay_mult: 1
  }
  param {
    lr_mult: 2
    decay_mult: 0
  }
  convolution_param {
    num_output: 128
    kernel_size: 1
    weight_filler {
      type: "xavier"
      std: 0.08
    }
    bias_filler {
      type: "constant"
      value: 0.2
    }
  }
}
layer {
  name: "loss2/relu_conv"
  type: "ReLU"
  bottom: "loss2/conv"
  top: "loss2/conv"
}
layer {
  name: "loss2/fc"
  type: "InnerProduct"
  bottom: "loss2/conv"
  top: "loss2/fc"
  param {
    lr_mult: 1
    decay_mult: 1
  }
  param {
    lr_mult: 2
    decay_mult: 0
  }
  inner_product_param {
    num_output: 1024
    weight_filler {
      type: "xavier"
      std: 0.02
    }
    bias_filler {
      type: "constant"
      value: 0.2
    }
  }
}
layer {
  name: "loss2/relu_fc"
  type: "ReLU"
  bottom: "loss2/fc"
  top: "loss2/fc"
}
layer {
  name: "loss2/drop_fc"
  type: "Dropout"
  bottom: "loss2/fc"
  top: "loss2/fc"
  dropout_param {
    dropout_ratio: 0.7
  }
}
layer {
  name: "loss2/classifier_plantvillage"
  type: "InnerProduct"
  bottom: "loss2/fc"
  top: "loss2/classifier_plantvillage"
  param {
    lr_mult: 1
    decay_mult: 1
  }
  param {
    lr_mult: 2
    decay_mult: 0
  }
  inner_product_param {
    num_output: 38
    weight_filler {
      type: "xavier"
      std: 0.0009765625
    }
    bias_filler {
      type: "constant"
      value: 0
    }
  }
}
layer {
  name: "inception_4e/1x1"
  type: "Convolution"
  bottom: "inception_4d/output"
  top: "inception_4e/1x1"
  param {
    lr_mult: 1
    decay_mult: 1
  }
  param {
    lr_mult: 2
    decay_mult: 0
  }
  convolution_param {
    num_output: 256
    kernel_size: 1
    weight_filler {
      type: "xavier"
      std: 0.03
    }
    bias_filler {
      type: "constant"
      value: 0.2
    }
  }
}
layer {
  name: "inception_4e/relu_1x1"
  type: "ReLU"
  bottom: "inception_4e/1x1"
  top: "inception_4e/1x1"
}
layer {
  name: "inception_4e/3x3_reduce"
  type: "Convolution"
  bottom: "inception_4d/output"
  top: "inception_4e/3x3_reduce"
  param {
    lr_mult: 1
    decay_mult: 1
  }
  param {
    lr_mult: 2
    decay_mult: 0
  }
  convolution_param {
    num_output: 160
    kernel_size: 1
    weight_filler {
      type: "xavier"
      std: 0.09
    }
    bias_filler {
      type: "constant"
      value: 0.2
    }
  }
}
layer {
  name: "inception_4e/relu_3x3_reduce"
  type: "ReLU"
  bottom: "inception_4e/3x3_reduce"
  top: "inception_4e/3x3_reduce"
}
layer {
  name: "inception_4e/3x3"
  type: "Convolution"
  bottom: "inception_4e/3x3_reduce"
  top: "inception_4e/3x3"
  param {
    lr_mult: 1
    decay_mult: 1
  }
  param {
    lr_mult: 2
    decay_mult: 0
  }
  convolution_param {
    num_output: 320
    pad: 1
    kernel_size: 3
    weight_filler {
      type: "xavier"
      std: 0.03
    }
    bias_filler {
      type: "constant"
      value: 0.2
    }
  }
}
layer {
  name: "inception_4e/relu_3x3"
  type: "ReLU"
  bottom: "inception_4e/3x3"
  top: "inception_4e/3x3"
}
layer {
  name: "inception_4e/5x5_reduce"
  type: "Convolution"
  bottom: "inception_4d/output"
  top: "inception_4e/5x5_reduce"
  param {
    lr_mult: 1
    decay_mult: 1
  }
  param {
    lr_mult: 2
    decay_mult: 0
  }
  convolution_param {
    num_output: 32
    kernel_size: 1
    weight_filler {
      type: "xavier"
      std: 0.2
    }
    bias_filler {
      type: "constant"
      value: 0.2
    }
  }
}
layer {
  name: "inception_4e/relu_5x5_reduce"
  type: "ReLU"
  bottom: "inception_4e/5x5_reduce"
  top: "inception_4e/5x5_reduce"
}
layer {
  name: "inception_4e/5x5"
  type: "Convolution"
  bottom: "inception_4e/5x5_reduce"
  top: "inception_4e/5x5"
  p
I0403 15:25:00.753566 31741 layer_factory.hpp:77] Creating layer data
I0403 15:25:00.754191 31741 net.cpp:91] Creating Layer data
I0403 15:25:00.754225 31741 net.cpp:399] data -> data
I0403 15:25:00.754292 31741 net.cpp:399] data -> label
I0403 15:25:00.754335 31741 data_transformer.cpp:25] Loading mean file from: /home/mohanty/data/final_dataset/lmdb/color-60-40/mean.binaryproto
I0403 15:25:00.756968 31743 db_lmdb.cpp:38] Opened lmdb /home/mohanty/data/final_dataset/lmdb/color-60-40/test_db
I0403 15:25:00.767951 31741 data_layer.cpp:41] output data size: 24,3,224,224
I0403 15:25:00.798763 31741 net.cpp:141] Setting up data
I0403 15:25:00.798849 31741 net.cpp:148] Top shape: 24 3 224 224 (3612672)
I0403 15:25:00.798873 31741 net.cpp:148] Top shape: 24 (24)
I0403 15:25:00.798889 31741 net.cpp:156] Memory required for data: 14450784
I0403 15:25:00.798918 31741 layer_factory.hpp:77] Creating layer label_data_1_split
I0403 15:25:00.798944 31741 net.cpp:91] Creating Layer label_data_1_split
I0403 15:25:00.798964 31741 net.cpp:425] label_data_1_split <- label
I0403 15:25:00.798995 31741 net.cpp:399] label_data_1_split -> label_data_1_split_0
I0403 15:25:00.799024 31741 net.cpp:399] label_data_1_split -> label_data_1_split_1
I0403 15:25:00.799046 31741 net.cpp:399] label_data_1_split -> label_data_1_split_2
I0403 15:25:00.799069 31741 net.cpp:399] label_data_1_split -> label_data_1_split_3
I0403 15:25:00.799090 31741 net.cpp:399] label_data_1_split -> label_data_1_split_4
I0403 15:25:00.799111 31741 net.cpp:399] label_data_1_split -> label_data_1_split_5
I0403 15:25:00.799131 31741 net.cpp:399] label_data_1_split -> label_data_1_split_6
I0403 15:25:00.799152 31741 net.cpp:399] label_data_1_split -> label_data_1_split_7
I0403 15:25:00.799172 31741 net.cpp:399] label_data_1_split -> label_data_1_split_8
I0403 15:25:00.799195 31741 net.cpp:399] label_data_1_split -> label_data_1_split_9
I0403 15:25:00.799316 31741 net.cpp:141] Setting up label_data_1_split
I0403 15:25:00.799341 31741 net.cpp:148] Top shape: 24 (24)
I0403 15:25:00.799360 31741 net.cpp:148] Top shape: 24 (24)
I0403 15:25:00.799376 31741 net.cpp:148] Top shape: 24 (24)
I0403 15:25:00.799392 31741 net.cpp:148] Top shape: 24 (24)
I0403 15:25:00.799409 31741 net.cpp:148] Top shape: 24 (24)
I0403 15:25:00.799427 31741 net.cpp:148] Top shape: 24 (24)
I0403 15:25:00.799443 31741 net.cpp:148] Top shape: 24 (24)
I0403 15:25:00.799458 31741 net.cpp:148] Top shape: 24 (24)
I0403 15:25:00.799474 31741 net.cpp:148] Top shape: 24 (24)
I0403 15:25:00.799491 31741 net.cpp:148] Top shape: 24 (24)
I0403 15:25:00.799536 31741 net.cpp:156] Memory required for data: 14451744
I0403 15:25:00.799554 31741 layer_factory.hpp:77] Creating layer conv1/7x7_s2
I0403 15:25:00.799588 31741 net.cpp:91] Creating Layer conv1/7x7_s2
I0403 15:25:00.799608 31741 net.cpp:425] conv1/7x7_s2 <- data
I0403 15:25:00.799629 31741 net.cpp:399] conv1/7x7_s2 -> conv1/7x7_s2
I0403 15:25:00.942136 31741 net.cpp:141] Setting up conv1/7x7_s2
I0403 15:25:00.942214 31741 net.cpp:148] Top shape: 24 64 112 112 (19267584)
I0403 15:25:00.942246 31741 net.cpp:156] Memory required for data: 91522080
I0403 15:25:00.942281 31741 layer_factory.hpp:77] Creating layer conv1/relu_7x7
I0403 15:25:00.942317 31741 net.cpp:91] Creating Layer conv1/relu_7x7
I0403 15:25:00.942337 31741 net.cpp:425] conv1/relu_7x7 <- conv1/7x7_s2
I0403 15:25:00.942359 31741 net.cpp:386] conv1/relu_7x7 -> conv1/7x7_s2 (in-place)
I0403 15:25:00.942636 31741 net.cpp:141] Setting up conv1/relu_7x7
I0403 15:25:00.942665 31741 net.cpp:148] Top shape: 24 64 112 112 (19267584)
I0403 15:25:00.942682 31741 net.cpp:156] Memory required for data: 168592416
I0403 15:25:00.942698 31741 layer_factory.hpp:77] Creating layer pool1/3x3_s2
I0403 15:25:00.942723 31741 net.cpp:91] Creating Layer pool1/3x3_s2
I0403 15:25:00.942741 31741 net.cpp:425] pool1/3x3_s2 <- conv1/7x7_s2
I0403 15:25:00.942760 31741 net.cpp:399] pool1/3x3_s2 -> pool1/3x3_s2
I0403 15:25:00.942836 31741 net.cpp:141] Setting up pool1/3x3_s2
I0403 15:25:00.942862 31741 net.cpp:148] Top shape: 24 64 56 56 (4816896)
I0403 15:25:00.942878 31741 net.cpp:156] Memory required for data: 187860000
I0403 15:25:00.942893 31741 layer_factory.hpp:77] Creating layer pool1/norm1
I0403 15:25:00.942919 31741 net.cpp:91] Creating Layer pool1/norm1
I0403 15:25:00.942936 31741 net.cpp:425] pool1/norm1 <- pool1/3x3_s2
I0403 15:25:00.942955 31741 net.cpp:399] pool1/norm1 -> pool1/norm1
I0403 15:25:00.943243 31741 net.cpp:141] Setting up pool1/norm1
I0403 15:25:00.943271 31741 net.cpp:148] Top shape: 24 64 56 56 (4816896)
I0403 15:25:00.943291 31741 net.cpp:156] Memory required for data: 207127584
I0403 15:25:00.943310 31741 layer_factory.hpp:77] Creating layer conv2/3x3_reduce
I0403 15:25:00.943336 31741 net.cpp:91] Creating Layer conv2/3x3_reduce
I0403 15:25:00.943353 31741 net.cpp:425] conv2/3x3_reduce <- pool1/norm1
I0403 15:25:00.943374 31741 net.cpp:399] conv2/3x3_reduce -> conv2/3x3_reduce
I0403 15:25:00.944738 31741 net.cpp:141] Setting up conv2/3x3_reduce
I0403 15:25:00.944769 31741 net.cpp:148] Top shape: 24 64 56 56 (4816896)
I0403 15:25:00.944787 31741 net.cpp:156] Memory required for data: 226395168
I0403 15:25:00.944808 31741 layer_factory.hpp:77] Creating layer conv2/relu_3x3_reduce
I0403 15:25:00.944828 31741 net.cpp:91] Creating Layer conv2/relu_3x3_reduce
I0403 15:25:00.944845 31741 net.cpp:425] conv2/relu_3x3_reduce <- conv2/3x3_reduce
I0403 15:25:00.944864 31741 net.cpp:386] conv2/relu_3x3_reduce -> conv2/3x3_reduce (in-place)
I0403 15:25:00.945121 31741 net.cpp:141] Setting up conv2/relu_3x3_reduce
I0403 15:25:00.945148 31741 net.cpp:148] Top shape: 24 64 56 56 (4816896)
I0403 15:25:00.945164 31741 net.cpp:156] Memory required for data: 245662752
I0403 15:25:00.945181 31741 layer_factory.hpp:77] Creating layer conv2/3x3
I0403 15:25:00.945204 31741 net.cpp:91] Creating Layer conv2/3x3
I0403 15:25:00.945221 31741 net.cpp:425] conv2/3x3 <- conv2/3x3_reduce
I0403 15:25:00.945241 31741 net.cpp:399] conv2/3x3 -> conv2/3x3
I0403 15:25:00.947536 31741 net.cpp:141] Setting up conv2/3x3
I0403 15:25:00.947569 31741 net.cpp:148] Top shape: 24 192 56 56 (14450688)
I0403 15:25:00.947587 31741 net.cpp:156] Memory required for data: 303465504
I0403 15:25:00.947612 31741 layer_factory.hpp:77] Creating layer conv2/relu_3x3
I0403 15:25:00.947633 31741 net.cpp:91] Creating Layer conv2/relu_3x3
I0403 15:25:00.947650 31741 net.cpp:425] conv2/relu_3x3 <- conv2/3x3
I0403 15:25:00.947679 31741 net.cpp:386] conv2/relu_3x3 -> conv2/3x3 (in-place)
I0403 15:25:00.947850 31741 net.cpp:141] Setting up conv2/relu_3x3
I0403 15:25:00.947878 31741 net.cpp:148] Top shape: 24 192 56 56 (14450688)
I0403 15:25:00.947927 31741 net.cpp:156] Memory required for data: 361268256
I0403 15:25:00.947945 31741 layer_factory.hpp:77] Creating layer conv2/norm2
I0403 15:25:00.947968 31741 net.cpp:91] Creating Layer conv2/norm2
I0403 15:25:00.947985 31741 net.cpp:425] conv2/norm2 <- conv2/3x3
I0403 15:25:00.948004 31741 net.cpp:399] conv2/norm2 -> conv2/norm2
I0403 15:25:00.948318 31741 net.cpp:141] Setting up conv2/norm2
I0403 15:25:00.948346 31741 net.cpp:148] Top shape: 24 192 56 56 (14450688)
I0403 15:25:00.948362 31741 net.cpp:156] Memory required for data: 419071008
I0403 15:25:00.948379 31741 layer_factory.hpp:77] Creating layer pool2/3x3_s2
I0403 15:25:00.948398 31741 net.cpp:91] Creating Layer pool2/3x3_s2
I0403 15:25:00.948415 31741 net.cpp:425] pool2/3x3_s2 <- conv2/norm2
I0403 15:25:00.948433 31741 net.cpp:399] pool2/3x3_s2 -> pool2/3x3_s2
I0403 15:25:00.948484 31741 net.cpp:141] Setting up pool2/3x3_s2
I0403 15:25:00.948508 31741 net.cpp:148] Top shape: 24 192 28 28 (3612672)
I0403 15:25:00.948524 31741 net.cpp:156] Memory required for data: 433521696
I0403 15:25:00.948542 31741 layer_factory.hpp:77] Creating layer pool2/3x3_s2_pool2/3x3_s2_0_split
I0403 15:25:00.948561 31741 net.cpp:91] Creating Layer pool2/3x3_s2_pool2/3x3_s2_0_split
I0403 15:25:00.948578 31741 net.cpp:425] pool2/3x3_s2_pool2/3x3_s2_0_split <- pool2/3x3_s2
I0403 15:25:00.948596 31741 net.cpp:399] pool2/3x3_s2_pool2/3x3_s2_0_split -> pool2/3x3_s2_pool2/3x3_s2_0_split_0
I0403 15:25:00.948617 31741 net.cpp:399] pool2/3x3_s2_pool2/3x3_s2_0_split -> pool2/3x3_s2_pool2/3x3_s2_0_split_1
I0403 15:25:00.948637 31741 net.cpp:399] pool2/3x3_s2_pool2/3x3_s2_0_split -> pool2/3x3_s2_pool2/3x3_s2_0_split_2
I0403 15:25:00.948659 31741 net.cpp:399] pool2/3x3_s2_pool2/3x3_s2_0_split -> pool2/3x3_s2_pool2/3x3_s2_0_split_3
I0403 15:25:00.948726 31741 net.cpp:141] Setting up pool2/3x3_s2_pool2/3x3_s2_0_split
I0403 15:25:00.948750 31741 net.cpp:148] Top shape: 24 192 28 28 (3612672)
I0403 15:25:00.948767 31741 net.cpp:148] Top shape: 24 192 28 28 (3612672)
I0403 15:25:00.948784 31741 net.cpp:148] Top shape: 24 192 28 28 (3612672)
I0403 15:25:00.948801 31741 net.cpp:148] Top shape: 24 192 28 28 (3612672)
I0403 15:25:00.948817 31741 net.cpp:156] Memory required for data: 491324448
I0403 15:25:00.948832 31741 layer_factory.hpp:77] Creating layer inception_3a/1x1
I0403 15:25:00.948854 31741 net.cpp:91] Creating Layer inception_3a/1x1
I0403 15:25:00.948873 31741 net.cpp:425] inception_3a/1x1 <- pool2/3x3_s2_pool2/3x3_s2_0_split_0
I0403 15:25:00.948892 31741 net.cpp:399] inception_3a/1x1 -> inception_3a/1x1
I0403 15:25:00.950388 31741 net.cpp:141] Setting up inception_3a/1x1
I0403 15:25:00.950422 31741 net.cpp:148] Top shape: 24 64 28 28 (1204224)
I0403 15:25:00.950439 31741 net.cpp:156] Memory required for data: 496141344
I0403 15:25:00.950460 31741 layer_factory.hpp:77] Creating layer inception_3a/relu_1x1
I0403 15:25:00.950479 31741 net.cpp:91] Creating Layer inception_3a/relu_1x1
I0403 15:25:00.950496 31741 net.cpp:425] inception_3a/relu_1x1 <- inception_3a/1x1
I0403 15:25:00.950515 31741 net.cpp:386] inception_3a/relu_1x1 -> inception_3a/1x1 (in-place)
I0403 15:25:00.950696 31741 net.cpp:141] Setting up inception_3a/relu_1x1
I0403 15:25:00.950722 31741 net.cpp:148] Top shape: 24 64 28 28 (1204224)
I0403 15:25:00.950738 31741 net.cpp:156] Memory required for data: 500958240
I0403 15:25:00.950754 31741 layer_factory.hpp:77] Creating layer inception_3a/3x3_reduce
I0403 15:25:00.950778 31741 net.cpp:91] Creating Layer inception_3a/3x3_reduce
I0403 15:25:00.950798 31741 net.cpp:425] inception_3a/3x3_reduce <- pool2/3x3_s2_pool2/3x3_s2_0_split_1
I0403 15:25:00.950819 31741 net.cpp:399] inception_3a/3x3_reduce -> inception_3a/3x3_reduce
I0403 15:25:00.952555 31741 net.cpp:141] Setting up inception_3a/3x3_reduce
I0403 15:25:00.952589 31741 net.cpp:148] Top shape: 24 96 28 28 (1806336)
I0403 15:25:00.952607 31741 net.cpp:156] Memory required for data: 508183584
I0403 15:25:00.952630 31741 layer_factory.hpp:77] Creating layer inception_3a/relu_3x3_reduce
I0403 15:25:00.952667 31741 net.cpp:91] Creating Layer inception_3a/relu_3x3_reduce
I0403 15:25:00.952685 31741 net.cpp:425] inception_3a/relu_3x3_reduce <- inception_3a/3x3_reduce
I0403 15:25:00.952708 31741 net.cpp:386] inception_3a/relu_3x3_reduce -> inception_3a/3x3_reduce (in-place)
I0403 15:25:00.952896 31741 net.cpp:141] Setting up inception_3a/relu_3x3_reduce
I0403 15:25:00.952924 31741 net.cpp:148] Top shape: 24 96 28 28 (1806336)
I0403 15:25:00.952939 31741 net.cpp:156] Memory required for data: 515408928
I0403 15:25:00.952955 31741 layer_factory.hpp:77] Creating layer inception_3a/3x3
I0403 15:25:00.952980 31741 net.cpp:91] Creating Layer inception_3a/3x3
I0403 15:25:00.952999 31741 net.cpp:425] inception_3a/3x3 <- inception_3a/3x3_reduce
I0403 15:25:00.953021 31741 net.cpp:399] inception_3a/3x3 -> inception_3a/3x3
I0403 15:25:00.954766 31741 net.cpp:141] Setting up inception_3a/3x3
I0403 15:25:00.954795 31741 net.cpp:148] Top shape: 24 128 28 28 (2408448)
I0403 15:25:00.954813 31741 net.cpp:156] Memory required for data: 525042720
I0403 15:25:00.954833 31741 layer_factory.hpp:77] Creating layer inception_3a/relu_3x3
I0403 15:25:00.954851 31741 net.cpp:91] Creating Layer inception_3a/relu_3x3
I0403 15:25:00.954869 31741 net.cpp:425] inception_3a/relu_3x3 <- inception_3a/3x3
I0403 15:25:00.954890 31741 net.cpp:386] inception_3a/relu_3x3 -> inception_3a/3x3 (in-place)
I0403 15:25:00.955200 31741 net.cpp:141] Setting up inception_3a/relu_3x3
I0403 15:25:00.955229 31741 net.cpp:148] Top shape: 24 128 28 28 (2408448)
I0403 15:25:00.955246 31741 net.cpp:156] Memory required for data: 534676512
I0403 15:25:00.955262 31741 layer_factory.hpp:77] Creating layer inception_3a/5x5_reduce
I0403 15:25:00.955291 31741 net.cpp:91] Creating Layer inception_3a/5x5_reduce
I0403 15:25:00.955312 31741 net.cpp:425] inception_3a/5x5_reduce <- pool2/3x3_s2_pool2/3x3_s2_0_split_2
I0403 15:25:00.955337 31741 net.cpp:399] inception_3a/5x5_reduce -> inception_3a/5x5_reduce
I0403 15:25:00.956367 31741 net.cpp:141] Setting up inception_3a/5x5_reduce
I0403 15:25:00.956398 31741 net.cpp:148] Top shape: 24 16 28 28 (301056)
I0403 15:25:00.956415 31741 net.cpp:156] Memory required for data: 535880736
I0403 15:25:00.956435 31741 layer_factory.hpp:77] Creating layer inception_3a/relu_5x5_reduce
I0403 15:25:00.956455 31741 net.cpp:91] Creating Layer inception_3a/relu_5x5_reduce
I0403 15:25:00.956473 31741 net.cpp:425] inception_3a/relu_5x5_reduce <- inception_3a/5x5_reduce
I0403 15:25:00.956496 31741 net.cpp:386] inception_3a/relu_5x5_reduce -> inception_3a/5x5_reduce (in-place)
I0403 15:25:00.956812 31741 net.cpp:141] Setting up inception_3a/relu_5x5_reduce
I0403 15:25:00.956840 31741 net.cpp:148] Top shape: 24 16 28 28 (301056)
I0403 15:25:00.956856 31741 net.cpp:156] Memory required for data: 537084960
I0403 15:25:00.956873 31741 layer_factory.hpp:77] Creating layer inception_3a/5x5
I0403 15:25:00.956897 31741 net.cpp:91] Creating Layer inception_3a/5x5
I0403 15:25:00.956918 31741 net.cpp:425] inception_3a/5x5 <- inception_3a/5x5_reduce
I0403 15:25:00.956939 31741 net.cpp:399] inception_3a/5x5 -> inception_3a/5x5
I0403 15:25:00.957970 31741 net.cpp:141] Setting up inception_3a/5x5
I0403 15:25:00.958008 31741 net.cpp:148] Top shape: 24 32 28 28 (602112)
I0403 15:25:00.958024 31741 net.cpp:156] Memory required for data: 539493408
I0403 15:25:00.958045 31741 layer_factory.hpp:77] Creating layer inception_3a/relu_5x5
I0403 15:25:00.958065 31741 net.cpp:91] Creating Layer inception_3a/relu_5x5
I0403 15:25:00.958082 31741 net.cpp:425] inception_3a/relu_5x5 <- inception_3a/5x5
I0403 15:25:00.958101 31741 net.cpp:386] inception_3a/relu_5x5 -> inception_3a/5x5 (in-place)
I0403 15:25:00.958281 31741 net.cpp:141] Setting up inception_3a/relu_5x5
I0403 15:25:00.958312 31741 net.cpp:148] Top shape: 24 32 28 28 (602112)
I0403 15:25:00.958326 31741 net.cpp:156] Memory required for data: 541901856
I0403 15:25:00.958343 31741 layer_factory.hpp:77] Creating layer inception_3a/pool
I0403 15:25:00.958361 31741 net.cpp:91] Creating Layer inception_3a/pool
I0403 15:25:00.958377 31741 net.cpp:425] inception_3a/pool <- pool2/3x3_s2_pool2/3x3_s2_0_split_3
I0403 15:25:00.958413 31741 net.cpp:399] inception_3a/pool -> inception_3a/pool
I0403 15:25:00.958473 31741 net.cpp:141] Setting up inception_3a/pool
I0403 15:25:00.958500 31741 net.cpp:148] Top shape: 24 192 28 28 (3612672)
I0403 15:25:00.958518 31741 net.cpp:156] Memory required for data: 556352544
I0403 15:25:00.958534 31741 layer_factory.hpp:77] Creating layer inception_3a/pool_proj
I0403 15:25:00.958557 31741 net.cpp:91] Creating Layer inception_3a/pool_proj
I0403 15:25:00.958577 31741 net.cpp:425] inception_3a/pool_proj <- inception_3a/pool
I0403 15:25:00.958597 31741 net.cpp:399] inception_3a/pool_proj -> inception_3a/pool_proj
I0403 15:25:00.959589 31741 net.cpp:141] Setting up inception_3a/pool_proj
I0403 15:25:00.959619 31741 net.cpp:148] Top shape: 24 32 28 28 (602112)
I0403 15:25:00.959637 31741 net.cpp:156] Memory required for data: 558760992
I0403 15:25:00.959662 31741 layer_factory.hpp:77] Creating layer inception_3a/relu_pool_proj
I0403 15:25:00.959684 31741 net.cpp:91] Creating Layer inception_3a/relu_pool_proj
I0403 15:25:00.959702 31741 net.cpp:425] inception_3a/relu_pool_proj <- inception_3a/pool_proj
I0403 15:25:00.959722 31741 net.cpp:386] inception_3a/relu_pool_proj -> inception_3a/pool_proj (in-place)
I0403 15:25:00.960003 31741 net.cpp:141] Setting up inception_3a/relu_pool_proj
I0403 15:25:00.960031 31741 net.cpp:148] Top shape: 24 32 28 28 (602112)
I0403 15:25:00.960047 31741 net.cpp:156] Memory required for data: 561169440
I0403 15:25:00.960064 31741 layer_factory.hpp:77] Creating layer inception_3a/output
I0403 15:25:00.960083 31741 net.cpp:91] Creating Layer inception_3a/output
I0403 15:25:00.960099 31741 net.cpp:425] inception_3a/output <- inception_3a/1x1
I0403 15:25:00.960117 31741 net.cpp:425] inception_3a/output <- inception_3a/3x3
I0403 15:25:00.960135 31741 net.cpp:425] inception_3a/output <- inception_3a/5x5
I0403 15:25:00.960153 31741 net.cpp:425] inception_3a/output <- inception_3a/pool_proj
I0403 15:25:00.960172 31741 net.cpp:399] inception_3a/output -> inception_3a/output
I0403 15:25:00.960221 31741 net.cpp:141] Setting up inception_3a/output
I0403 15:25:00.960253 31741 net.cpp:148] Top shape: 24 256 28 28 (4816896)
I0403 15:25:00.960271 31741 net.cpp:156] Memory required for data: 580437024
I0403 15:25:00.960294 31741 layer_factory.hpp:77] Creating layer inception_3a/output_inception_3a/output_0_split
I0403 15:25:00.960316 31741 net.cpp:91] Creating Layer inception_3a/output_inception_3a/output_0_split
I0403 15:25:00.960335 31741 net.cpp:425] inception_3a/output_inception_3a/output_0_split <- inception_3a/output
I0403 15:25:00.960355 31741 net.cpp:399] inception_3a/output_inception_3a/output_0_split -> inception_3a/output_inception_3a/output_0_split_0
I0403 15:25:00.960378 31741 net.cpp:399] inception_3a/output_inception_3a/output_0_split -> inception_3a/output_inception_3a/output_0_split_1
I0403 15:25:00.960403 31741 net.cpp:399] inception_3a/output_inception_3a/output_0_split -> inception_3a/output_inception_3a/output_0_split_2
I0403 15:25:00.960427 31741 net.cpp:399] inception_3a/output_inception_3a/output_0_split -> inception_3a/output_inception_3a/output_0_split_3
I0403 15:25:00.960507 31741 net.cpp:141] Setting up inception_3a/output_inception_3a/output_0_split
I0403 15:25:00.960532 31741 net.cpp:148] Top shape: 24 256 28 28 (4816896)
I0403 15:25:00.960549 31741 net.cpp:148] Top shape: 24 256 28 28 (4816896)
I0403 15:25:00.960567 31741 net.cpp:148] Top shape: 24 256 28 28 (4816896)
I0403 15:25:00.960583 31741 net.cpp:148] Top shape: 24 256 28 28 (4816896)
I0403 15:25:00.960598 31741 net.cpp:156] Memory required for data: 657507360
I0403 15:25:00.960614 31741 layer_factory.hpp:77] Creating layer inception_3b/1x1
I0403 15:25:00.960639 31741 net.cpp:91] Creating Layer inception_3b/1x1
I0403 15:25:00.960659 31741 net.cpp:425] inception_3b/1x1 <- inception_3a/output_inception_3a/output_0_split_0
I0403 15:25:00.960678 31741 net.cpp:399] inception_3b/1x1 -> inception_3b/1x1
I0403 15:25:00.961833 31741 net.cpp:141] Setting up inception_3b/1x1
I0403 15:25:00.961876 31741 net.cpp:148] Top shape: 24 128 28 28 (2408448)
I0403 15:25:00.961894 31741 net.cpp:156] Memory required for data: 667141152
I0403 15:25:00.961915 31741 layer_factory.hpp:77] Creating layer inception_3b/relu_1x1
I0403 15:25:00.961935 31741 net.cpp:91] Creating Layer inception_3b/relu_1x1
I0403 15:25:00.961953 31741 net.cpp:425] inception_3b/relu_1x1 <- inception_3b/1x1
I0403 15:25:00.961971 31741 net.cpp:386] inception_3b/relu_1x1 -> inception_3b/1x1 (in-place)
I0403 15:25:00.962153 31741 net.cpp:141] Setting up inception_3b/relu_1x1
I0403 15:25:00.962179 31741 net.cpp:148] Top shape: 24 128 28 28 (2408448)
I0403 15:25:00.962195 31741 net.cpp:156] Memory required for data: 676774944
I0403 15:25:00.962211 31741 layer_factory.hpp:77] Creating layer inception_3b/3x3_reduce
I0403 15:25:00.962234 31741 net.cpp:91] Creating Layer inception_3b/3x3_reduce
I0403 15:25:00.962252 31741 net.cpp:425] inception_3b/3x3_reduce <- inception_3a/output_inception_3a/output_0_split_1
I0403 15:25:00.962275 31741 net.cpp:399] inception_3b/3x3_reduce -> inception_3b/3x3_reduce
I0403 15:25:00.963438 31741 net.cpp:141] Setting up inception_3b/3x3_reduce
I0403 15:25:00.963466 31741 net.cpp:148] Top shape: 24 128 28 28 (2408448)
I0403 15:25:00.963488 31741 net.cpp:156] Memory required for data: 686408736
I0403 15:25:00.963508 31741 layer_factory.hpp:77] Creating layer inception_3b/relu_3x3_reduce
I0403 15:25:00.963527 31741 net.cpp:91] Creating Layer inception_3b/relu_3x3_reduce
I0403 15:25:00.963544 31741 net.cpp:425] inception_3b/relu_3x3_reduce <- inception_3b/3x3_reduce
I0403 15:25:00.963562 31741 net.cpp:386] inception_3b/relu_3x3_reduce -> inception_3b/3x3_reduce (in-place)
I0403 15:25:00.963742 31741 net.cpp:141] Setting up inception_3b/relu_3x3_reduce
I0403 15:25:00.963771 31741 net.cpp:148] Top shape: 24 128 28 28 (2408448)
I0403 15:25:00.963788 31741 net.cpp:156] Memory required for data: 696042528
I0403 15:25:00.963804 31741 layer_factory.hpp:77] Creating layer inception_3b/3x3
I0403 15:25:00.963829 31741 net.cpp:91] Creating Layer inception_3b/3x3
I0403 15:25:00.963850 31741 net.cpp:425] inception_3b/3x3 <- inception_3b/3x3_reduce
I0403 15:25:00.963872 31741 net.cpp:399] inception_3b/3x3 -> inception_3b/3x3
I0403 15:25:00.966853 31741 net.cpp:141] Setting up inception_3b/3x3
I0403 15:25:00.966886 31741 net.cpp:148] Top shape: 24 192 28 28 (3612672)
I0403 15:25:00.966903 31741 net.cpp:156] Memory required for data: 710493216
I0403 15:25:00.966922 31741 layer_factory.hpp:77] Creating layer inception_3b/relu_3x3
I0403 15:25:00.966941 31741 net.cpp:91] Creating Layer inception_3b/relu_3x3
I0403 15:25:00.966958 31741 net.cpp:425] inception_3b/relu_3x3 <- inception_3b/3x3
I0403 15:25:00.966980 31741 net.cpp:386] inception_3b/relu_3x3 -> inception_3b/3x3 (in-place)
I0403 15:25:00.967262 31741 net.cpp:141] Setting up inception_3b/relu_3x3
I0403 15:25:00.967295 31741 net.cpp:148] Top shape: 24 192 28 28 (3612672)
I0403 15:25:00.967314 31741 net.cpp:156] Memory required for data: 724943904
I0403 15:25:00.967330 31741 layer_factory.hpp:77] Creating layer inception_3b/5x5_reduce
I0403 15:25:00.967353 31741 net.cpp:91] Creating Layer inception_3b/5x5_reduce
I0403 15:25:00.967372 31741 net.cpp:425] inception_3b/5x5_reduce <- inception_3a/output_inception_3a/output_0_split_2
I0403 15:25:00.967397 31741 net.cpp:399] inception_3b/5x5_reduce -> inception_3b/5x5_reduce
I0403 15:25:00.968428 31741 net.cpp:141] Setting up inception_3b/5x5_reduce
I0403 15:25:00.968472 31741 net.cpp:148] Top shape: 24 32 28 28 (602112)
I0403 15:25:00.968489 31741 net.cpp:156] Memory required for data: 727352352
I0403 15:25:00.968508 31741 layer_factory.hpp:77] Creating layer inception_3b/relu_5x5_reduce
I0403 15:25:00.968526 31741 net.cpp:91] Creating Layer inception_3b/relu_5x5_reduce
I0403 15:25:00.968544 31741 net.cpp:425] inception_3b/relu_5x5_reduce <- inception_3b/5x5_reduce
I0403 15:25:00.968575 31741 net.cpp:386] inception_3b/relu_5x5_reduce -> inception_3b/5x5_reduce (in-place)
I0403 15:25:00.968749 31741 net.cpp:141] Setting up inception_3b/relu_5x5_reduce
I0403 15:25:00.968785 31741 net.cpp:148] Top shape: 24 32 28 28 (602112)
I0403 15:25:00.968801 31741 net.cpp:156] Memory required for data: 729760800
I0403 15:25:00.968816 31741 layer_factory.hpp:77] Creating layer inception_3b/5x5
I0403 15:25:00.968838 31741 net.cpp:91] Creating Layer inception_3b/5x5
I0403 15:25:00.968858 31741 net.cpp:425] inception_3b/5x5 <- inception_3b/5x5_reduce
I0403 15:25:00.968879 31741 net.cpp:399] inception_3b/5x5 -> inception_3b/5x5
I0403 15:25:00.970798 31741 net.cpp:141] Setting up inception_3b/5x5
I0403 15:25:00.970829 31741 net.cpp:148] Top shape: 24 96 28 28 (1806336)
I0403 15:25:00.970844 31741 net.cpp:156] Memory required for data: 736986144
I0403 15:25:00.970863 31741 layer_factory.hpp:77] Creating layer inception_3b/relu_5x5
I0403 15:25:00.970885 31741 net.cpp:91] Creating Layer inception_3b/relu_5x5
I0403 15:25:00.970901 31741 net.cpp:425] inception_3b/relu_5x5 <- inception_3b/5x5
I0403 15:25:00.970918 31741 net.cpp:386] inception_3b/relu_5x5 -> inception_3b/5x5 (in-place)
I0403 15:25:00.971104 31741 net.cpp:141] Setting up inception_3b/relu_5x5
I0403 15:25:00.971129 31741 net.cpp:148] Top shape: 24 96 28 28 (1806336)
I0403 15:25:00.971144 31741 net.cpp:156] Memory required for data: 744211488
I0403 15:25:00.971159 31741 layer_factory.hpp:77] Creating layer inception_3b/pool
I0403 15:25:00.971177 31741 net.cpp:91] Creating Layer inception_3b/pool
I0403 15:25:00.971194 31741 net.cpp:425] inception_3b/pool <- inception_3a/output_inception_3a/output_0_split_3
I0403 15:25:00.971211 31741 net.cpp:399] inception_3b/pool -> inception_3b/pool
I0403 15:25:00.971266 31741 net.cpp:141] Setting up inception_3b/pool
I0403 15:25:00.971293 31741 net.cpp:148] Top shape: 24 256 28 28 (4816896)
I0403 15:25:00.971310 31741 net.cpp:156] Memory required for data: 763479072
I0403 15:25:00.971326 31741 layer_factory.hpp:77] Creating layer inception_3b/pool_proj
I0403 15:25:00.971352 31741 net.cpp:91] Creating Layer inception_3b/pool_proj
I0403 15:25:00.971370 31741 net.cpp:425] inception_3b/pool_proj <- inception_3b/pool
I0403 15:25:00.971390 31741 net.cpp:399] inception_3b/pool_proj -> inception_3b/pool_proj
I0403 15:25:00.972414 31741 net.cpp:141] Setting up inception_3b/pool_proj
I0403 15:25:00.972443 31741 net.cpp:148] Top shape: 24 64 28 28 (1204224)
I0403 15:25:00.972460 31741 net.cpp:156] Memory required for data: 768295968
I0403 15:25:00.972478 31741 layer_factory.hpp:77] Creating layer inception_3b/relu_pool_proj
I0403 15:25:00.972498 31741 net.cpp:91] Creating Layer inception_3b/relu_pool_proj
I0403 15:25:00.972515 31741 net.cpp:425] inception_3b/relu_pool_proj <- inception_3b/pool_proj
I0403 15:25:00.972533 31741 net.cpp:386] inception_3b/relu_pool_proj -> inception_3b/pool_proj (in-place)
I0403 15:25:00.972909 31741 net.cpp:141] Setting up inception_3b/relu_pool_proj
I0403 15:25:00.972936 31741 net.cpp:148] Top shape: 24 64 28 28 (1204224)
I0403 15:25:00.972952 31741 net.cpp:156] Memory required for data: 773112864
I0403 15:25:00.972967 31741 layer_factory.hpp:77] Creating layer inception_3b/output
I0403 15:25:00.972985 31741 net.cpp:91] Creating Layer inception_3b/output
I0403 15:25:00.973001 31741 net.cpp:425] inception_3b/output <- inception_3b/1x1
I0403 15:25:00.973018 31741 net.cpp:425] inception_3b/output <- inception_3b/3x3
I0403 15:25:00.973034 31741 net.cpp:425] inception_3b/output <- inception_3b/5x5
I0403 15:25:00.973052 31741 net.cpp:425] inception_3b/output <- inception_3b/pool_proj
I0403 15:25:00.973070 31741 net.cpp:399] inception_3b/output -> inception_3b/output
I0403 15:25:00.973114 31741 net.cpp:141] Setting up inception_3b/output
I0403 15:25:00.973140 31741 net.cpp:148] Top shape: 24 480 28 28 (9031680)
I0403 15:25:00.973155 31741 net.cpp:156] Memory required for data: 809239584
I0403 15:25:00.973170 31741 layer_factory.hpp:77] Creating layer pool3/3x3_s2
I0403 15:25:00.973188 31741 net.cpp:91] Creating Layer pool3/3x3_s2
I0403 15:25:00.973203 31741 net.cpp:425] pool3/3x3_s2 <- inception_3b/output
I0403 15:25:00.973222 31741 net.cpp:399] pool3/3x3_s2 -> pool3/3x3_s2
I0403 15:25:00.973297 31741 net.cpp:141] Setting up pool3/3x3_s2
I0403 15:25:00.973322 31741 net.cpp:148] Top shape: 24 480 14 14 (2257920)
I0403 15:25:00.973337 31741 net.cpp:156] Memory required for data: 818271264
I0403 15:25:00.973353 31741 layer_factory.hpp:77] Creating layer pool3/3x3_s2_pool3/3x3_s2_0_split
I0403 15:25:00.973372 31741 net.cpp:91] Creating Layer pool3/3x3_s2_pool3/3x3_s2_0_split
I0403 15:25:00.973388 31741 net.cpp:425] pool3/3x3_s2_pool3/3x3_s2_0_split <- pool3/3x3_s2
I0403 15:25:00.973405 31741 net.cpp:399] pool3/3x3_s2_pool3/3x3_s2_0_split -> pool3/3x3_s2_pool3/3x3_s2_0_split_0
I0403 15:25:00.973425 31741 net.cpp:399] pool3/3x3_s2_pool3/3x3_s2_0_split -> pool3/3x3_s2_pool3/3x3_s2_0_split_1
I0403 15:25:00.973446 31741 net.cpp:399] pool3/3x3_s2_pool3/3x3_s2_0_split -> pool3/3x3_s2_pool3/3x3_s2_0_split_2
I0403 15:25:00.973470 31741 net.cpp:399] pool3/3x3_s2_pool3/3x3_s2_0_split -> pool3/3x3_s2_pool3/3x3_s2_0_split_3
I0403 15:25:00.973546 31741 net.cpp:141] Setting up pool3/3x3_s2_pool3/3x3_s2_0_split
I0403 15:25:00.973568 31741 net.cpp:148] Top shape: 24 480 14 14 (2257920)
I0403 15:25:00.973584 31741 net.cpp:148] Top shape: 24 480 14 14 (2257920)
I0403 15:25:00.973600 31741 net.cpp:148] Top shape: 24 480 14 14 (2257920)
I0403 15:25:00.973618 31741 net.cpp:148] Top shape: 24 480 14 14 (2257920)
I0403 15:25:00.973631 31741 net.cpp:156] Memory required for data: 854397984
I0403 15:25:00.973646 31741 layer_factory.hpp:77] Creating layer inception_4a/1x1
I0403 15:25:00.973669 31741 net.cpp:91] Creating Layer inception_4a/1x1
I0403 15:25:00.973686 31741 net.cpp:425] inception_4a/1x1 <- pool3/3x3_s2_pool3/3x3_s2_0_split_0
I0403 15:25:00.973708 31741 net.cpp:399] inception_4a/1x1 -> inception_4a/1x1
I0403 15:25:00.975245 31741 net.cpp:141] Setting up inception_4a/1x1
I0403 15:25:00.975277 31741 net.cpp:148] Top shape: 24 192 14 14 (903168)
I0403 15:25:00.975299 31741 net.cpp:156] Memory required for data: 858010656
I0403 15:25:00.975318 31741 layer_factory.hpp:77] Creating layer inception_4a/relu_1x1
I0403 15:25:00.975340 31741 net.cpp:91] Creating Layer inception_4a/relu_1x1
I0403 15:25:00.975358 31741 net.cpp:425] inception_4a/relu_1x1 <- inception_4a/1x1
I0403 15:25:00.975375 31741 net.cpp:386] inception_4a/relu_1x1 -> inception_4a/1x1 (in-place)
I0403 15:25:00.975565 31741 net.cpp:141] Setting up inception_4a/relu_1x1
I0403 15:25:00.975591 31741 net.cpp:148] Top shape: 24 192 14 14 (903168)
I0403 15:25:00.975606 31741 net.cpp:156] Memory required for data: 861623328
I0403 15:25:00.975622 31741 layer_factory.hpp:77] Creating layer inception_4a/3x3_reduce
I0403 15:25:00.975646 31741 net.cpp:91] Creating Layer inception_4a/3x3_reduce
I0403 15:25:00.975664 31741 net.cpp:425] inception_4a/3x3_reduce <- pool3/3x3_s2_pool3/3x3_s2_0_split_1
I0403 15:25:00.975683 31741 net.cpp:399] inception_4a/3x3_reduce -> inception_4a/3x3_reduce
I0403 15:25:00.976912 31741 net.cpp:141] Setting up inception_4a/3x3_reduce
I0403 15:25:00.976939 31741 net.cpp:148] Top shape: 24 96 14 14 (451584)
I0403 15:25:00.976955 31741 net.cpp:156] Memory required for data: 863429664
I0403 15:25:00.976979 31741 layer_factory.hpp:77] Creating layer inception_4a/relu_3x3_reduce
I0403 15:25:00.977000 31741 net.cpp:91] Creating Layer inception_4a/relu_3x3_reduce
I0403 15:25:00.977018 31741 net.cpp:425] inception_4a/relu_3x3_reduce <- inception_4a/3x3_reduce
I0403 15:25:00.977037 31741 net.cpp:386] inception_4a/relu_3x3_reduce -> inception_4a/3x3_reduce (in-place)
I0403 15:25:00.977208 31741 net.cpp:141] Setting up inception_4a/relu_3x3_reduce
I0403 15:25:00.977233 31741 net.cpp:148] Top shape: 24 96 14 14 (451584)
I0403 15:25:00.977248 31741 net.cpp:156] Memory required for data: 865236000
I0403 15:25:00.977262 31741 layer_factory.hpp:77] Creating layer inception_4a/3x3
I0403 15:25:00.977290 31741 net.cpp:91] Creating Layer inception_4a/3x3
I0403 15:25:00.977310 31741 net.cpp:425] inception_4a/3x3 <- inception_4a/3x3_reduce
I0403 15:25:00.977330 31741 net.cpp:399] inception_4a/3x3 -> inception_4a/3x3
I0403 15:25:00.979986 31741 net.cpp:141] Setting up inception_4a/3x3
I0403 15:25:00.980018 31741 net.cpp:148] Top shape: 24 208 14 14 (978432)
I0403 15:25:00.980036 31741 net.cpp:156] Memory required for data: 869149728
I0403 15:25:00.980057 31741 layer_factory.hpp:77] Creating layer inception_4a/relu_3x3
I0403 15:25:00.980075 31741 net.cpp:91] Creating Layer inception_4a/relu_3x3
I0403 15:25:00.980093 31741 net.cpp:425] inception_4a/relu_3x3 <- inception_4a/3x3
I0403 15:25:00.980111 31741 net.cpp:386] inception_4a/relu_3x3 -> inception_4a/3x3 (in-place)
I0403 15:25:00.980392 31741 net.cpp:141] Setting up inception_4a/relu_3x3
I0403 15:25:00.980422 31741 net.cpp:148] Top shape: 24 208 14 14 (978432)
I0403 15:25:00.980437 31741 net.cpp:156] Memory required for data: 873063456
I0403 15:25:00.980454 31741 layer_factory.hpp:77] Creating layer inception_4a/5x5_reduce
I0403 15:25:00.980474 31741 net.cpp:91] Creating Layer inception_4a/5x5_reduce
I0403 15:25:00.980494 31741 net.cpp:425] inception_4a/5x5_reduce <- pool3/3x3_s2_pool3/3x3_s2_0_split_2
I0403 15:25:00.980515 31741 net.cpp:399] inception_4a/5x5_reduce -> inception_4a/5x5_reduce
I0403 15:25:00.981528 31741 net.cpp:141] Setting up inception_4a/5x5_reduce
I0403 15:25:00.981559 31741 net.cpp:148] Top shape: 24 16 14 14 (75264)
I0403 15:25:00.981577 31741 net.cpp:156] Memory required for data: 873364512
I0403 15:25:00.981597 31741 layer_factory.hpp:77] Creating layer inception_4a/relu_5x5_reduce
I0403 15:25:00.981617 31741 net.cpp:91] Creating Layer inception_4a/relu_5x5_reduce
I0403 15:25:00.981634 31741 net.cpp:425] inception_4a/relu_5x5_reduce <- inception_4a/5x5_reduce
I0403 15:25:00.981652 31741 net.cpp:386] inception_4a/relu_5x5_reduce -> inception_4a/5x5_reduce (in-place)
I0403 15:25:00.981830 31741 net.cpp:141] Setting up inception_4a/relu_5x5_reduce
I0403 15:25:00.981856 31741 net.cpp:148] Top shape: 24 16 14 14 (75264)
I0403 15:25:00.981871 31741 net.cpp:156] Memory required for data: 873665568
I0403 15:25:00.981886 31741 layer_factory.hpp:77] Creating layer inception_4a/5x5
I0403 15:25:00.981909 31741 net.cpp:91] Creating Layer inception_4a/5x5
I0403 15:25:00.981928 31741 net.cpp:425] inception_4a/5x5 <- inception_4a/5x5_reduce
I0403 15:25:00.981950 31741 net.cpp:399] inception_4a/5x5 -> inception_4a/5x5
I0403 15:25:00.983026 31741 net.cpp:141] Setting up inception_4a/5x5
I0403 15:25:00.983053 31741 net.cpp:148] Top shape: 24 48 14 14 (225792)
I0403 15:25:00.983069 31741 net.cpp:156] Memory required for data: 874568736
I0403 15:25:00.983089 31741 layer_factory.hpp:77] Creating layer inception_4a/relu_5x5
I0403 15:25:00.983108 31741 net.cpp:91] Creating Layer inception_4a/relu_5x5
I0403 15:25:00.983124 31741 net.cpp:425] inception_4a/relu_5x5 <- inception_4a/5x5
I0403 15:25:00.983144 31741 net.cpp:386] inception_4a/relu_5x5 -> inception_4a/5x5 (in-place)
I0403 15:25:00.983330 31741 net.cpp:141] Setting up inception_4a/relu_5x5
I0403 15:25:00.983355 31741 net.cpp:148] Top shape: 24 48 14 14 (225792)
I0403 15:25:00.983371 31741 net.cpp:156] Memory required for data: 875471904
I0403 15:25:00.983388 31741 layer_factory.hpp:77] Creating layer inception_4a/pool
I0403 15:25:00.983408 31741 net.cpp:91] Creating Layer inception_4a/pool
I0403 15:25:00.983425 31741 net.cpp:425] inception_4a/pool <- pool3/3x3_s2_pool3/3x3_s2_0_split_3
I0403 15:25:00.983443 31741 net.cpp:399] inception_4a/pool -> inception_4a/pool
I0403 15:25:00.983506 31741 net.cpp:141] Setting up inception_4a/pool
I0403 15:25:00.983530 31741 net.cpp:148] Top shape: 24 480 14 14 (2257920)
I0403 15:25:00.983546 31741 net.cpp:156] Memory required for data: 884503584
I0403 15:25:00.983562 31741 layer_factory.hpp:77] Creating layer inception_4a/pool_proj
I0403 15:25:00.983585 31741 net.cpp:91] Creating Layer inception_4a/pool_proj
I0403 15:25:00.983603 31741 net.cpp:425] inception_4a/pool_proj <- inception_4a/pool
I0403 15:25:00.983623 31741 net.cpp:399] inception_4a/pool_proj -> inception_4a/pool_proj
I0403 15:25:00.984791 31741 net.cpp:141] Setting up inception_4a/pool_proj
I0403 15:25:00.984822 31741 net.cpp:148] Top shape: 24 64 14 14 (301056)
I0403 15:25:00.984853 31741 net.cpp:156] Memory required for data: 885707808
I0403 15:25:00.984872 31741 layer_factory.hpp:77] Creating layer inception_4a/relu_pool_proj
I0403 15:25:00.984894 31741 net.cpp:91] Creating Layer inception_4a/relu_pool_proj
I0403 15:25:00.984913 31741 net.cpp:425] inception_4a/relu_pool_proj <- inception_4a/pool_proj
I0403 15:25:00.984931 31741 net.cpp:386] inception_4a/relu_pool_proj -> inception_4a/pool_proj (in-place)
I0403 15:25:00.985214 31741 net.cpp:141] Setting up inception_4a/relu_pool_proj
I0403 15:25:00.985241 31741 net.cpp:148] Top shape: 24 64 14 14 (301056)
I0403 15:25:00.985257 31741 net.cpp:156] Memory required for data: 886912032
I0403 15:25:00.985273 31741 layer_factory.hpp:77] Creating layer inception_4a/output
I0403 15:25:00.985296 31741 net.cpp:91] Creating Layer inception_4a/output
I0403 15:25:00.985313 31741 net.cpp:425] inception_4a/output <- inception_4a/1x1
I0403 15:25:00.985332 31741 net.cpp:425] inception_4a/output <- inception_4a/3x3
I0403 15:25:00.985348 31741 net.cpp:425] inception_4a/output <- inception_4a/5x5
I0403 15:25:00.985365 31741 net.cpp:425] inception_4a/output <- inception_4a/pool_proj
I0403 15:25:00.985385 31741 net.cpp:399] inception_4a/output -> inception_4a/output
I0403 15:25:00.985433 31741 net.cpp:141] Setting up inception_4a/output
I0403 15:25:00.985457 31741 net.cpp:148] Top shape: 24 512 14 14 (2408448)
I0403 15:25:00.985473 31741 net.cpp:156] Memory required for data: 896545824
I0403 15:25:00.985488 31741 layer_factory.hpp:77] Creating layer inception_4a/output_inception_4a/output_0_split
I0403 15:25:00.985507 31741 net.cpp:91] Creating Layer inception_4a/output_inception_4a/output_0_split
I0403 15:25:00.985522 31741 net.cpp:425] inception_4a/output_inception_4a/output_0_split <- inception_4a/output
I0403 15:25:00.985543 31741 net.cpp:399] inception_4a/output_inception_4a/output_0_split -> inception_4a/output_inception_4a/output_0_split_0
I0403 15:25:00.985565 31741 net.cpp:399] inception_4a/output_inception_4a/output_0_split -> inception_4a/output_inception_4a/output_0_split_1
I0403 15:25:00.985587 31741 net.cpp:399] inception_4a/output_inception_4a/output_0_split -> inception_4a/output_inception_4a/output_0_split_2
I0403 15:25:00.985610 31741 net.cpp:399] inception_4a/output_inception_4a/output_0_split -> inception_4a/output_inception_4a/output_0_split_3
I0403 15:25:00.985630 31741 net.cpp:399] inception_4a/output_inception_4a/output_0_split -> inception_4a/output_inception_4a/output_0_split_4
I0403 15:25:00.985723 31741 net.cpp:141] Setting up inception_4a/output_inception_4a/output_0_split
I0403 15:25:00.985749 31741 net.cpp:148] Top shape: 24 512 14 14 (2408448)
I0403 15:25:00.985767 31741 net.cpp:148] Top shape: 24 512 14 14 (2408448)
I0403 15:25:00.985785 31741 net.cpp:148] Top shape: 24 512 14 14 (2408448)
I0403 15:25:00.985801 31741 net.cpp:148] Top shape: 24 512 14 14 (2408448)
I0403 15:25:00.985818 31741 net.cpp:148] Top shape: 24 512 14 14 (2408448)
I0403 15:25:00.985832 31741 net.cpp:156] Memory required for data: 944714784
I0403 15:25:00.985847 31741 layer_factory.hpp:77] Creating layer loss1/ave_pool
I0403 15:25:00.985865 31741 net.cpp:91] Creating Layer loss1/ave_pool
I0403 15:25:00.985882 31741 net.cpp:425] loss1/ave_pool <- inception_4a/output_inception_4a/output_0_split_0
I0403 15:25:00.985904 31741 net.cpp:399] loss1/ave_pool -> loss1/ave_pool
I0403 15:25:00.986109 31741 net.cpp:141] Setting up loss1/ave_pool
I0403 15:25:00.986135 31741 net.cpp:148] Top shape: 24 512 4 4 (196608)
I0403 15:25:00.986150 31741 net.cpp:156] Memory required for data: 945501216
I0403 15:25:00.986166 31741 layer_factory.hpp:77] Creating layer loss1/conv
I0403 15:25:00.986188 31741 net.cpp:91] Creating Layer loss1/conv
I0403 15:25:00.986207 31741 net.cpp:425] loss1/conv <- loss1/ave_pool
I0403 15:25:00.986228 31741 net.cpp:399] loss1/conv -> loss1/conv
I0403 15:25:00.987632 31741 net.cpp:141] Setting up loss1/conv
I0403 15:25:00.987663 31741 net.cpp:148] Top shape: 24 128 4 4 (49152)
I0403 15:25:00.987679 31741 net.cpp:156] Memory required for data: 945697824
I0403 15:25:00.987715 31741 layer_factory.hpp:77] Creating layer loss1/relu_conv
I0403 15:25:00.987735 31741 net.cpp:91] Creating Layer loss1/relu_conv
I0403 15:25:00.987751 31741 net.cpp:425] loss1/relu_conv <- loss1/conv
I0403 15:25:00.987769 31741 net.cpp:386] loss1/relu_conv -> loss1/conv (in-place)
I0403 15:25:00.988049 31741 net.cpp:141] Setting up loss1/relu_conv
I0403 15:25:00.988078 31741 net.cpp:148] Top shape: 24 128 4 4 (49152)
I0403 15:25:00.988095 31741 net.cpp:156] Memory required for data: 945894432
I0403 15:25:00.988111 31741 layer_factory.hpp:77] Creating layer loss1/fc
I0403 15:25:00.988133 31741 net.cpp:91] Creating Layer loss1/fc
I0403 15:25:00.988152 31741 net.cpp:425] loss1/fc <- loss1/conv
I0403 15:25:00.988174 31741 net.cpp:399] loss1/fc -> loss1/fc
I0403 15:25:01.006294 31741 net.cpp:141] Setting up loss1/fc
I0403 15:25:01.006332 31741 net.cpp:148] Top shape: 24 1024 (24576)
I0403 15:25:01.006350 31741 net.cpp:156] Memory required for data: 945992736
I0403 15:25:01.006371 31741 layer_factory.hpp:77] Creating layer loss1/relu_fc
I0403 15:25:01.006393 31741 net.cpp:91] Creating Layer loss1/relu_fc
I0403 15:25:01.006413 31741 net.cpp:425] loss1/relu_fc <- loss1/fc
I0403 15:25:01.006433 31741 net.cpp:386] loss1/relu_fc -> loss1/fc (in-place)
I0403 15:25:01.006645 31741 net.cpp:141] Setting up loss1/relu_fc
I0403 15:25:01.006675 31741 net.cpp:148] Top shape: 24 1024 (24576)
I0403 15:25:01.006690 31741 net.cpp:156] Memory required for data: 946091040
I0403 15:25:01.006707 31741 layer_factory.hpp:77] Creating layer loss1/drop_fc
I0403 15:25:01.006737 31741 net.cpp:91] Creating Layer loss1/drop_fc
I0403 15:25:01.006757 31741 net.cpp:425] loss1/drop_fc <- loss1/fc
I0403 15:25:01.006777 31741 net.cpp:386] loss1/drop_fc -> loss1/fc (in-place)
I0403 15:25:01.006832 31741 net.cpp:141] Setting up loss1/drop_fc
I0403 15:25:01.006857 31741 net.cpp:148] Top shape: 24 1024 (24576)
I0403 15:25:01.006873 31741 net.cpp:156] Memory required for data: 946189344
I0403 15:25:01.006891 31741 layer_factory.hpp:77] Creating layer loss1/classifier_plantvillage
I0403 15:25:01.006911 31741 net.cpp:91] Creating Layer loss1/classifier_plantvillage
I0403 15:25:01.006933 31741 net.cpp:425] loss1/classifier_plantvillage <- loss1/fc
I0403 15:25:01.006953 31741 net.cpp:399] loss1/classifier_plantvillage -> loss1/classifier_plantvillage
I0403 15:25:01.007910 31741 net.cpp:141] Setting up loss1/classifier_plantvillage
I0403 15:25:01.007942 31741 net.cpp:148] Top shape: 24 38 (912)
I0403 15:25:01.007961 31741 net.cpp:156] Memory required for data: 946192992
I0403 15:25:01.007980 31741 layer_factory.hpp:77] Creating layer loss1/classifier_plantvillage_loss1/classifier_plantvillage_0_split
I0403 15:25:01.008000 31741 net.cpp:91] Creating Layer loss1/classifier_plantvillage_loss1/classifier_plantvillage_0_split
I0403 15:25:01.008018 31741 net.cpp:425] loss1/classifier_plantvillage_loss1/classifier_plantvillage_0_split <- loss1/classifier_plantvillage
I0403 15:25:01.008036 31741 net.cpp:399] loss1/classifier_plantvillage_loss1/classifier_plantvillage_0_split -> loss1/classifier_plantvillage_loss1/classifier_plantvillage_0_split_0
I0403 15:25:01.008057 31741 net.cpp:399] loss1/classifier_plantvillage_loss1/classifier_plantvillage_0_split -> loss1/classifier_plantvillage_loss1/classifier_plantvillage_0_split_1
I0403 15:25:01.008079 31741 net.cpp:399] loss1/classifier_plantvillage_loss1/classifier_plantvillage_0_split -> loss1/classifier_plantvillage_loss1/classifier_plantvillage_0_split_2
I0403 15:25:01.008149 31741 net.cpp:141] Setting up loss1/classifier_plantvillage_loss1/classifier_plantvillage_0_split
I0403 15:25:01.008173 31741 net.cpp:148] Top shape: 24 38 (912)
I0403 15:25:01.008191 31741 net.cpp:148] Top shape: 24 38 (912)
I0403 15:25:01.008208 31741 net.cpp:148] Top shape: 24 38 (912)
I0403 15:25:01.008224 31741 net.cpp:156] Memory required for data: 946203936
I0403 15:25:01.008239 31741 layer_factory.hpp:77] Creating layer inception_4b/1x1
I0403 15:25:01.008268 31741 net.cpp:91] Creating Layer inception_4b/1x1
I0403 15:25:01.008311 31741 net.cpp:425] inception_4b/1x1 <- inception_4a/output_inception_4a/output_0_split_1
I0403 15:25:01.008337 31741 net.cpp:399] inception_4b/1x1 -> inception_4b/1x1
I0403 15:25:01.010107 31741 net.cpp:141] Setting up inception_4b/1x1
I0403 15:25:01.010139 31741 net.cpp:148] Top shape: 24 160 14 14 (752640)
I0403 15:25:01.010159 31741 net.cpp:156] Memory required for data: 949214496
I0403 15:25:01.010179 31741 layer_factory.hpp:77] Creating layer inception_4b/relu_1x1
I0403 15:25:01.010198 31741 net.cpp:91] Creating Layer inception_4b/relu_1x1
I0403 15:25:01.010215 31741 net.cpp:425] inception_4b/relu_1x1 <- inception_4b/1x1
I0403 15:25:01.010233 31741 net.cpp:386] inception_4b/relu_1x1 -> inception_4b/1x1 (in-place)
I0403 15:25:01.010428 31741 net.cpp:141] Setting up inception_4b/relu_1x1
I0403 15:25:01.010455 31741 net.cpp:148] Top shape: 24 160 14 14 (752640)
I0403 15:25:01.010470 31741 net.cpp:156] Memory required for data: 952225056
I0403 15:25:01.010486 31741 layer_factory.hpp:77] Creating layer inception_4b/3x3_reduce
I0403 15:25:01.010510 31741 net.cpp:91] Creating Layer inception_4b/3x3_reduce
I0403 15:25:01.010529 31741 net.cpp:425] inception_4b/3x3_reduce <- inception_4a/output_inception_4a/output_0_split_2
I0403 15:25:01.010553 31741 net.cpp:399] inception_4b/3x3_reduce -> inception_4b/3x3_reduce
I0403 15:25:01.011982 31741 net.cpp:141] Setting up inception_4b/3x3_reduce
I0403 15:25:01.012012 31741 net.cpp:148] Top shape: 24 112 14 14 (526848)
I0403 15:25:01.012028 31741 net.cpp:156] Memory required for data: 954332448
I0403 15:25:01.012048 31741 layer_factory.hpp:77] Creating layer inception_4b/relu_3x3_reduce
I0403 15:25:01.012068 31741 net.cpp:91] Creating Layer inception_4b/relu_3x3_reduce
I0403 15:25:01.012084 31741 net.cpp:425] inception_4b/relu_3x3_reduce <- inception_4b/3x3_reduce
I0403 15:25:01.012105 31741 net.cpp:386] inception_4b/relu_3x3_reduce -> inception_4b/3x3_reduce (in-place)
I0403 15:25:01.012399 31741 net.cpp:141] Setting up inception_4b/relu_3x3_reduce
I0403 15:25:01.012428 31741 net.cpp:148] Top shape: 24 112 14 14 (526848)
I0403 15:25:01.012444 31741 net.cpp:156] Memory required for data: 956439840
I0403 15:25:01.012459 31741 layer_factory.hpp:77] Creating layer inception_4b/3x3
I0403 15:25:01.012482 31741 net.cpp:91] Creating Layer inception_4b/3x3
I0403 15:25:01.012502 31741 net.cpp:425] inception_4b/3x3 <- inception_4b/3x3_reduce
I0403 15:25:01.012524 31741 net.cpp:399] inception_4b/3x3 -> inception_4b/3x3
I0403 15:25:01.015549 31741 net.cpp:141] Setting up inception_4b/3x3
I0403 15:25:01.015581 31741 net.cpp:148] Top shape: 24 224 14 14 (1053696)
I0403 15:25:01.015599 31741 net.cpp:156] Memory required for data: 960654624
I0403 15:25:01.015619 31741 layer_factory.hpp:77] Creating layer inception_4b/relu_3x3
I0403 15:25:01.015638 31741 net.cpp:91] Creating Layer inception_4b/relu_3x3
I0403 15:25:01.015656 31741 net.cpp:425] inception_4b/relu_3x3 <- inception_4b/3x3
I0403 15:25:01.015673 31741 net.cpp:386] inception_4b/relu_3x3 -> inception_4b/3x3 (in-place)
I0403 15:25:01.015854 31741 net.cpp:141] Setting up inception_4b/relu_3x3
I0403 15:25:01.015884 31741 net.cpp:148] Top shape: 24 224 14 14 (1053696)
I0403 15:25:01.015902 31741 net.cpp:156] Memory required for data: 964869408
I0403 15:25:01.015918 31741 layer_factory.hpp:77] Creating layer inception_4b/5x5_reduce
I0403 15:25:01.015940 31741 net.cpp:91] Creating Layer inception_4b/5x5_reduce
I0403 15:25:01.015959 31741 net.cpp:425] inception_4b/5x5_reduce <- inception_4a/output_inception_4a/output_0_split_3
I0403 15:25:01.015979 31741 net.cpp:399] inception_4b/5x5_reduce -> inception_4b/5x5_reduce
I0403 15:25:01.017071 31741 net.cpp:141] Setting up inception_4b/5x5_reduce
I0403 15:25:01.017102 31741 net.cpp:148] Top shape: 24 24 14 14 (112896)
I0403 15:25:01.017118 31741 net.cpp:156] Memory required for data: 965320992
I0403 15:25:01.017138 31741 layer_factory.hpp:77] Creating layer inception_4b/relu_5x5_reduce
I0403 15:25:01.017156 31741 net.cpp:91] Creating Layer inception_4b/relu_5x5_reduce
I0403 15:25:01.017189 31741 net.cpp:425] inception_4b/relu_5x5_reduce <- inception_4b/5x5_reduce
I0403 15:25:01.017210 31741 net.cpp:386] inception_4b/relu_5x5_reduce -> inception_4b/5x5_reduce (in-place)
I0403 15:25:01.017397 31741 net.cpp:141] Setting up inception_4b/relu_5x5_reduce
I0403 15:25:01.017424 31741 net.cpp:148] Top shape: 24 24 14 14 (112896)
I0403 15:25:01.017439 31741 net.cpp:156] Memory required for data: 965772576
I0403 15:25:01.017455 31741 layer_factory.hpp:77] Creating layer inception_4b/5x5
I0403 15:25:01.017478 31741 net.cpp:91] Creating Layer inception_4b/5x5
I0403 15:25:01.017496 31741 net.cpp:425] inception_4b/5x5 <- inception_4b/5x5_reduce
I0403 15:25:01.017518 31741 net.cpp:399] inception_4b/5x5 -> inception_4b/5x5
I0403 15:25:01.018739 31741 net.cpp:141] Setting up inception_4b/5x5
I0403 15:25:01.018770 31741 net.cpp:148] Top shape: 24 64 14 14 (301056)
I0403 15:25:01.018786 31741 net.cpp:156] Memory required for data: 966976800
I0403 15:25:01.018805 31741 layer_factory.hpp:77] Creating layer inception_4b/relu_5x5
I0403 15:25:01.018824 31741 net.cpp:91] Creating Layer inception_4b/relu_5x5
I0403 15:25:01.018841 31741 net.cpp:425] inception_4b/relu_5x5 <- inception_4b/5x5
I0403 15:25:01.018858 31741 net.cpp:386] inception_4b/relu_5x5 -> inception_4b/5x5 (in-place)
I0403 15:25:01.019145 31741 net.cpp:141] Setting up inception_4b/relu_5x5
I0403 15:25:01.019176 31741 net.cpp:148] Top shape: 24 64 14 14 (301056)
I0403 15:25:01.019193 31741 net.cpp:156] Memory required for data: 968181024
I0403 15:25:01.019210 31741 layer_factory.hpp:77] Creating layer inception_4b/pool
I0403 15:25:01.019229 31741 net.cpp:91] Creating Layer inception_4b/pool
I0403 15:25:01.019246 31741 net.cpp:425] inception_4b/pool <- inception_4a/output_inception_4a/output_0_split_4
I0403 15:25:01.019265 31741 net.cpp:399] inception_4b/pool -> inception_4b/pool
I0403 15:25:01.019335 31741 net.cpp:141] Setting up inception_4b/pool
I0403 15:25:01.019361 31741 net.cpp:148] Top shape: 24 512 14 14 (2408448)
I0403 15:25:01.019376 31741 net.cpp:156] Memory required for data: 977814816
I0403 15:25:01.019392 31741 layer_factory.hpp:77] Creating layer inception_4b/pool_proj
I0403 15:25:01.019414 31741 net.cpp:91] Creating Layer inception_4b/pool_proj
I0403 15:25:01.019433 31741 net.cpp:425] inception_4b/pool_proj <- inception_4b/pool
I0403 15:25:01.019454 31741 net.cpp:399] inception_4b/pool_proj -> inception_4b/pool_proj
I0403 15:25:01.020673 31741 net.cpp:141] Setting up inception_4b/pool_proj
I0403 15:25:01.020702 31741 net.cpp:148] Top shape: 24 64 14 14 (301056)
I0403 15:25:01.020719 31741 net.cpp:156] Memory required for data: 979019040
I0403 15:25:01.020737 31741 layer_factory.hpp:77] Creating layer inception_4b/relu_pool_proj
I0403 15:25:01.020756 31741 net.cpp:91] Creating Layer inception_4b/relu_pool_proj
I0403 15:25:01.020771 31741 net.cpp:425] inception_4b/relu_pool_proj <- inception_4b/pool_proj
I0403 15:25:01.020792 31741 net.cpp:386] inception_4b/relu_pool_proj -> inception_4b/pool_proj (in-place)
I0403 15:25:01.020977 31741 net.cpp:141] Setting up inception_4b/relu_pool_proj
I0403 15:25:01.021003 31741 net.cpp:148] Top shape: 24 64 14 14 (301056)
I0403 15:25:01.021018 31741 net.cpp:156] Memory required for data: 980223264
I0403 15:25:01.021034 31741 layer_factory.hpp:77] Creating layer inception_4b/output
I0403 15:25:01.021051 31741 net.cpp:91] Creating Layer inception_4b/output
I0403 15:25:01.021067 31741 net.cpp:425] inception_4b/output <- inception_4b/1x1
I0403 15:25:01.021085 31741 net.cpp:425] inception_4b/output <- inception_4b/3x3
I0403 15:25:01.021103 31741 net.cpp:425] inception_4b/output <- inception_4b/5x5
I0403 15:25:01.021121 31741 net.cpp:425] inception_4b/output <- inception_4b/pool_proj
I0403 15:25:01.021142 31741 net.cpp:399] inception_4b/output -> inception_4b/output
I0403 15:25:01.021188 31741 net.cpp:141] Setting up inception_4b/output
I0403 15:25:01.021214 31741 net.cpp:148] Top shape: 24 512 14 14 (2408448)
I0403 15:25:01.021229 31741 net.cpp:156] Memory required for data: 989857056
I0403 15:25:01.021260 31741 layer_factory.hpp:77] Creating layer inception_4b/output_inception_4b/output_0_split
I0403 15:25:01.021280 31741 net.cpp:91] Creating Layer inception_4b/output_inception_4b/output_0_split
I0403 15:25:01.021302 31741 net.cpp:425] inception_4b/output_inception_4b/output_0_split <- inception_4b/output
I0403 15:25:01.021322 31741 net.cpp:399] inception_4b/output_inception_4b/output_0_split -> inception_4b/output_inception_4b/output_0_split_0
I0403 15:25:01.021344 31741 net.cpp:399] inception_4b/output_inception_4b/output_0_split -> inception_4b/output_inception_4b/output_0_split_1
I0403 15:25:01.021366 31741 net.cpp:399] inception_4b/output_inception_4b/output_0_split -> inception_4b/output_inception_4b/output_0_split_2
I0403 15:25:01.021389 31741 net.cpp:399] inception_4b/output_inception_4b/output_0_split -> inception_4b/output_inception_4b/output_0_split_3
I0403 15:25:01.021471 31741 net.cpp:141] Setting up inception_4b/output_inception_4b/output_0_split
I0403 15:25:01.021499 31741 net.cpp:148] Top shape: 24 512 14 14 (2408448)
I0403 15:25:01.021518 31741 net.cpp:148] Top shape: 24 512 14 14 (2408448)
I0403 15:25:01.021534 31741 net.cpp:148] Top shape: 24 512 14 14 (2408448)
I0403 15:25:01.021550 31741 net.cpp:148] Top shape: 24 512 14 14 (2408448)
I0403 15:25:01.021565 31741 net.cpp:156] Memory required for data: 1028392224
I0403 15:25:01.021581 31741 layer_factory.hpp:77] Creating layer inception_4c/1x1
I0403 15:25:01.021601 31741 net.cpp:91] Creating Layer inception_4c/1x1
I0403 15:25:01.021620 31741 net.cpp:425] inception_4c/1x1 <- inception_4b/output_inception_4b/output_0_split_0
I0403 15:25:01.021646 31741 net.cpp:399] inception_4c/1x1 -> inception_4c/1x1
I0403 15:25:01.023074 31741 net.cpp:141] Setting up inception_4c/1x1
I0403 15:25:01.023104 31741 net.cpp:148] Top shape: 24 128 14 14 (602112)
I0403 15:25:01.023120 31741 net.cpp:156] Memory required for data: 1030800672
I0403 15:25:01.023139 31741 layer_factory.hpp:77] Creating layer inception_4c/relu_1x1
I0403 15:25:01.023160 31741 net.cpp:91] Creating Layer inception_4c/relu_1x1
I0403 15:25:01.023178 31741 net.cpp:425] inception_4c/relu_1x1 <- inception_4c/1x1
I0403 15:25:01.023197 31741 net.cpp:386] inception_4c/relu_1x1 -> inception_4c/1x1 (in-place)
I0403 15:25:01.023386 31741 net.cpp:141] Setting up inception_4c/relu_1x1
I0403 15:25:01.023411 31741 net.cpp:148] Top shape: 24 128 14 14 (602112)
I0403 15:25:01.023425 31741 net.cpp:156] Memory required for data: 1033209120
I0403 15:25:01.023442 31741 layer_factory.hpp:77] Creating layer inception_4c/3x3_reduce
I0403 15:25:01.023464 31741 net.cpp:91] Creating Layer inception_4c/3x3_reduce
I0403 15:25:01.023483 31741 net.cpp:425] inception_4c/3x3_reduce <- inception_4b/output_inception_4b/output_0_split_1
I0403 15:25:01.023504 31741 net.cpp:399] inception_4c/3x3_reduce -> inception_4c/3x3_reduce
I0403 15:25:01.025456 31741 net.cpp:141] Setting up inception_4c/3x3_reduce
I0403 15:25:01.025485 31741 net.cpp:148] Top shape: 24 128 14 14 (602112)
I0403 15:25:01.025502 31741 net.cpp:156] Memory required for data: 1035617568
I0403 15:25:01.025522 31741 layer_factory.hpp:77] Creating layer inception_4c/relu_3x3_reduce
I0403 15:25:01.025543 31741 net.cpp:91] Creating Layer inception_4c/relu_3x3_reduce
I0403 15:25:01.025560 31741 net.cpp:425] inception_4c/relu_3x3_reduce <- inception_4c/3x3_reduce
I0403 15:25:01.025580 31741 net.cpp:386] inception_4c/relu_3x3_reduce -> inception_4c/3x3_reduce (in-place)
I0403 15:25:01.025867 31741 net.cpp:141] Setting up inception_4c/relu_3x3_reduce
I0403 15:25:01.025897 31741 net.cpp:148] Top shape: 24 128 14 14 (602112)
I0403 15:25:01.025913 31741 net.cpp:156] Memory required for data: 1038026016
I0403 15:25:01.025928 31741 layer_factory.hpp:77] Creating layer inception_4c/3x3
I0403 15:25:01.025954 31741 net.cpp:91] Creating Layer inception_4c/3x3
I0403 15:25:01.025974 31741 net.cpp:425] inception_4c/3x3 <- inception_4c/3x3_reduce
I0403 15:25:01.025995 31741 net.cpp:399] inception_4c/3x3 -> inception_4c/3x3
I0403 15:25:01.029700 31741 net.cpp:141] Setting up inception_4c/3x3
I0403 15:25:01.029744 31741 net.cpp:148] Top shape: 24 256 14 14 (1204224)
I0403 15:25:01.029764 31741 net.cpp:156] Memory required for data: 1042842912
I0403 15:25:01.029798 31741 layer_factory.hpp:77] Creating layer inception_4c/relu_3x3
I0403 15:25:01.029819 31741 net.cpp:91] Creating Layer inception_4c/relu_3x3
I0403 15:25:01.029840 31741 net.cpp:425] inception_4c/relu_3x3 <- inception_4c/3x3
I0403 15:25:01.029861 31741 net.cpp:386] inception_4c/relu_3x3 -> inception_4c/3x3 (in-place)
I0403 15:25:01.030053 31741 net.cpp:141] Setting up inception_4c/relu_3x3
I0403 15:25:01.030082 31741 net.cpp:148] Top shape: 24 256 14 14 (1204224)
I0403 15:25:01.030099 31741 net.cpp:156] Memory required for data: 1047659808
I0403 15:25:01.030117 31741 layer_factory.hpp:77] Creating layer inception_4c/5x5_reduce
I0403 15:25:01.030143 31741 net.cpp:91] Creating Layer inception_4c/5x5_reduce
I0403 15:25:01.030163 31741 net.cpp:425] inception_4c/5x5_reduce <- inception_4b/output_inception_4b/output_0_split_2
I0403 15:25:01.030182 31741 net.cpp:399] inception_4c/5x5_reduce -> inception_4c/5x5_reduce
I0403 15:25:01.031319 31741 net.cpp:141] Setting up inception_4c/5x5_reduce
I0403 15:25:01.031352 31741 net.cpp:148] Top shape: 24 24 14 14 (112896)
I0403 15:25:01.031369 31741 net.cpp:156] Memory required for data: 1048111392
I0403 15:25:01.031390 31741 layer_factory.hpp:77] Creating layer inception_4c/relu_5x5_reduce
I0403 15:25:01.031409 31741 net.cpp:91] Creating Layer inception_4c/relu_5x5_reduce
I0403 15:25:01.031426 31741 net.cpp:425] inception_4c/relu_5x5_reduce <- inception_4c/5x5_reduce
I0403 15:25:01.031446 31741 net.cpp:386] inception_4c/relu_5x5_reduce -> inception_4c/5x5_reduce (in-place)
I0403 15:25:01.031638 31741 net.cpp:141] Setting up inception_4c/relu_5x5_reduce
I0403 15:25:01.031666 31741 net.cpp:148] Top shape: 24 24 14 14 (112896)
I0403 15:25:01.031682 31741 net.cpp:156] Memory required for data: 1048562976
I0403 15:25:01.031697 31741 layer_factory.hpp:77] Creating layer inception_4c/5x5
I0403 15:25:01.031720 31741 net.cpp:91] Creating Layer inception_4c/5x5
I0403 15:25:01.031741 31741 net.cpp:425] inception_4c/5x5 <- inception_4c/5x5_reduce
I0403 15:25:01.031764 31741 net.cpp:399] inception_4c/5x5 -> inception_4c/5x5
I0403 15:25:01.033052 31741 net.cpp:141] Setting up inception_4c/5x5
I0403 15:25:01.033082 31741 net.cpp:148] Top shape: 24 64 14 14 (301056)
I0403 15:25:01.033098 31741 net.cpp:156] Memory required for data: 1049767200
I0403 15:25:01.033118 31741 layer_factory.hpp:77] Creating layer inception_4c/relu_5x5
I0403 15:25:01.033140 31741 net.cpp:91] Creating Layer inception_4c/relu_5x5
I0403 15:25:01.033159 31741 net.cpp:425] inception_4c/relu_5x5 <- inception_4c/5x5
I0403 15:25:01.033179 31741 net.cpp:386] inception_4c/relu_5x5 -> inception_4c/5x5 (in-place)
I0403 15:25:01.033488 31741 net.cpp:141] Setting up inception_4c/relu_5x5
I0403 15:25:01.033515 31741 net.cpp:148] Top shape: 24 64 14 14 (301056)
I0403 15:25:01.033531 31741 net.cpp:156] Memory required for data: 1050971424
I0403 15:25:01.033548 31741 layer_factory.hpp:77] Creating layer inception_4c/pool
I0403 15:25:01.033567 31741 net.cpp:91] Creating Layer inception_4c/pool
I0403 15:25:01.033589 31741 net.cpp:425] inception_4c/pool <- inception_4b/output_inception_4b/output_0_split_3
I0403 15:25:01.033609 31741 net.cpp:399] inception_4c/pool -> inception_4c/pool
I0403 15:25:01.033677 31741 net.cpp:141] Setting up inception_4c/pool
I0403 15:25:01.033702 31741 net.cpp:148] Top shape: 24 512 14 14 (2408448)
I0403 15:25:01.033718 31741 net.cpp:156] Memory required for data: 1060605216
I0403 15:25:01.033735 31741 layer_factory.hpp:77] Creating layer inception_4c/pool_proj
I0403 15:25:01.033758 31741 net.cpp:91] Creating Layer inception_4c/pool_proj
I0403 15:25:01.033777 31741 net.cpp:425] inception_4c/pool_proj <- inception_4c/pool
I0403 15:25:01.033798 31741 net.cpp:399] inception_4c/pool_proj -> inception_4c/pool_proj
I0403 15:25:01.035079 31741 net.cpp:141] Setting up inception_4c/pool_proj
I0403 15:25:01.035112 31741 net.cpp:148] Top shape: 24 64 14 14 (301056)
I0403 15:25:01.035143 31741 net.cpp:156] Memory required for data: 1061809440
I0403 15:25:01.035166 31741 layer_factory.hpp:77] Creating layer inception_4c/relu_pool_proj
I0403 15:25:01.035183 31741 net.cpp:91] Creating Layer inception_4c/relu_pool_proj
I0403 15:25:01.035199 31741 net.cpp:425] inception_4c/relu_pool_proj <- inception_4c/pool_proj
I0403 15:25:01.035220 31741 net.cpp:386] inception_4c/relu_pool_proj -> inception_4c/pool_proj (in-place)
I0403 15:25:01.035425 31741 net.cpp:141] Setting up inception_4c/relu_pool_proj
I0403 15:25:01.035452 31741 net.cpp:148] Top shape: 24 64 14 14 (301056)
I0403 15:25:01.035468 31741 net.cpp:156] Memory required for data: 1063013664
I0403 15:25:01.035485 31741 layer_factory.hpp:77] Creating layer inception_4c/output
I0403 15:25:01.035502 31741 net.cpp:91] Creating Layer inception_4c/output
I0403 15:25:01.035519 31741 net.cpp:425] inception_4c/output <- inception_4c/1x1
I0403 15:25:01.035537 31741 net.cpp:425] inception_4c/output <- inception_4c/3x3
I0403 15:25:01.035554 31741 net.cpp:425] inception_4c/output <- inception_4c/5x5
I0403 15:25:01.035574 31741 net.cpp:425] inception_4c/output <- inception_4c/pool_proj
I0403 15:25:01.035595 31741 net.cpp:399] inception_4c/output -> inception_4c/output
I0403 15:25:01.035641 31741 net.cpp:141] Setting up inception_4c/output
I0403 15:25:01.035668 31741 net.cpp:148] Top shape: 24 512 14 14 (2408448)
I0403 15:25:01.035684 31741 net.cpp:156] Memory required for data: 1072647456
I0403 15:25:01.035699 31741 layer_factory.hpp:77] Creating layer inception_4c/output_inception_4c/output_0_split
I0403 15:25:01.035717 31741 net.cpp:91] Creating Layer inception_4c/output_inception_4c/output_0_split
I0403 15:25:01.035734 31741 net.cpp:425] inception_4c/output_inception_4c/output_0_split <- inception_4c/output
I0403 15:25:01.035754 31741 net.cpp:399] inception_4c/output_inception_4c/output_0_split -> inception_4c/output_inception_4c/output_0_split_0
I0403 15:25:01.035775 31741 net.cpp:399] inception_4c/output_inception_4c/output_0_split -> inception_4c/output_inception_4c/output_0_split_1
I0403 15:25:01.035797 31741 net.cpp:399] inception_4c/output_inception_4c/output_0_split -> inception_4c/output_inception_4c/output_0_split_2
I0403 15:25:01.035818 31741 net.cpp:399] inception_4c/output_inception_4c/output_0_split -> inception_4c/output_inception_4c/output_0_split_3
I0403 15:25:01.035903 31741 net.cpp:141] Setting up inception_4c/output_inception_4c/output_0_split
I0403 15:25:01.035928 31741 net.cpp:148] Top shape: 24 512 14 14 (2408448)
I0403 15:25:01.035944 31741 net.cpp:148] Top shape: 24 512 14 14 (2408448)
I0403 15:25:01.035960 31741 net.cpp:148] Top shape: 24 512 14 14 (2408448)
I0403 15:25:01.035976 31741 net.cpp:148] Top shape: 24 512 14 14 (2408448)
I0403 15:25:01.035990 31741 net.cpp:156] Memory required for data: 1111182624
I0403 15:25:01.036005 31741 layer_factory.hpp:77] Creating layer inception_4d/1x1
I0403 15:25:01.036028 31741 net.cpp:91] Creating Layer inception_4d/1x1
I0403 15:25:01.036047 31741 net.cpp:425] inception_4d/1x1 <- inception_4c/output_inception_4c/output_0_split_0
I0403 15:25:01.036069 31741 net.cpp:399] inception_4d/1x1 -> inception_4d/1x1
I0403 15:25:01.037456 31741 net.cpp:141] Setting up inception_4d/1x1
I0403 15:25:01.037484 31741 net.cpp:148] Top shape: 24 112 14 14 (526848)
I0403 15:25:01.037500 31741 net.cpp:156] Memory required for data: 1113290016
I0403 15:25:01.037520 31741 layer_factory.hpp:77] Creating layer inception_4d/relu_1x1
I0403 15:25:01.037540 31741 net.cpp:91] Creating Layer inception_4d/relu_1x1
I0403 15:25:01.037557 31741 net.cpp:425] inception_4d/relu_1x1 <- inception_4d/1x1
I0403 15:25:01.037577 31741 net.cpp:386] inception_4d/relu_1x1 -> inception_4d/1x1 (in-place)
I0403 15:25:01.037765 31741 net.cpp:141] Setting up inception_4d/relu_1x1
I0403 15:25:01.037794 31741 net.cpp:148] Top shape: 24 112 14 14 (526848)
I0403 15:25:01.037811 31741 net.cpp:156] Memory required for data: 1115397408
I0403 15:25:01.037827 31741 layer_factory.hpp:77] Creating layer inception_4d/3x3_reduce
I0403 15:25:01.037864 31741 net.cpp:91] Creating Layer inception_4d/3x3_reduce
I0403 15:25:01.037884 31741 net.cpp:425] inception_4d/3x3_reduce <- inception_4c/output_inception_4c/output_0_split_1
I0403 15:25:01.037904 31741 net.cpp:399] inception_4d/3x3_reduce -> inception_4d/3x3_reduce
I0403 15:25:01.039410 31741 net.cpp:141] Setting up inception_4d/3x3_reduce
I0403 15:25:01.039439 31741 net.cpp:148] Top shape: 24 144 14 14 (677376)
I0403 15:25:01.039456 31741 net.cpp:156] Memory required for data: 1118106912
I0403 15:25:01.039476 31741 layer_factory.hpp:77] Creating layer inception_4d/relu_3x3_reduce
I0403 15:25:01.039496 31741 net.cpp:91] Creating Layer inception_4d/relu_3x3_reduce
I0403 15:25:01.039515 31741 net.cpp:425] inception_4d/relu_3x3_reduce <- inception_4d/3x3_reduce
I0403 15:25:01.039533 31741 net.cpp:386] inception_4d/relu_3x3_reduce -> inception_4d/3x3_reduce (in-place)
I0403 15:25:01.039822 31741 net.cpp:141] Setting up inception_4d/relu_3x3_reduce
I0403 15:25:01.039849 31741 net.cpp:148] Top shape: 24 144 14 14 (677376)
I0403 15:25:01.039865 31741 net.cpp:156] Memory required for data: 1120816416
I0403 15:25:01.039880 31741 layer_factory.hpp:77] Creating layer inception_4d/3x3
I0403 15:25:01.039903 31741 net.cpp:91] Creating Layer inception_4d/3x3
I0403 15:25:01.039922 31741 net.cpp:425] inception_4d/3x3 <- inception_4d/3x3_reduce
I0403 15:25:01.039944 31741 net.cpp:399] inception_4d/3x3 -> inception_4d/3x3
I0403 15:25:01.044276 31741 net.cpp:141] Setting up inception_4d/3x3
I0403 15:25:01.044317 31741 net.cpp:148] Top shape: 24 288 14 14 (1354752)
I0403 15:25:01.044337 31741 net.cpp:156] Memory required for data: 1126235424
I0403 15:25:01.044355 31741 layer_factory.hpp:77] Creating layer inception_4d/relu_3x3
I0403 15:25:01.044378 31741 net.cpp:91] Creating Layer inception_4d/relu_3x3
I0403 15:25:01.044397 31741 net.cpp:425] inception_4d/relu_3x3 <- inception_4d/3x3
I0403 15:25:01.044417 31741 net.cpp:386] inception_4d/relu_3x3 -> inception_4d/3x3 (in-place)
I0403 15:25:01.044610 31741 net.cpp:141] Setting up inception_4d/relu_3x3
I0403 15:25:01.044637 31741 net.cpp:148] Top shape: 24 288 14 14 (1354752)
I0403 15:25:01.044653 31741 net.cpp:156] Memory required for data: 1131654432
I0403 15:25:01.044668 31741 layer_factory.hpp:77] Creating layer inception_4d/5x5_reduce
I0403 15:25:01.044692 31741 net.cpp:91] Creating Layer inception_4d/5x5_reduce
I0403 15:25:01.044711 31741 net.cpp:425] inception_4d/5x5_reduce <- inception_4c/output_inception_4c/output_0_split_2
I0403 15:25:01.044735 31741 net.cpp:399] inception_4d/5x5_reduce -> inception_4d/5x5_reduce
I0403 15:25:01.045927 31741 net.cpp:141] Setting up inception_4d/5x5_reduce
I0403 15:25:01.045956 31741 net.cpp:148] Top shape: 24 32 14 14 (150528)
I0403 15:25:01.045972 31741 net.cpp:156] Memory required for data: 1132256544
I0403 15:25:01.045991 31741 layer_factory.hpp:77] Creating layer inception_4d/relu_5x5_reduce
I0403 15:25:01.046016 31741 net.cpp:91] Creating Layer inception_4d/relu_5x5_reduce
I0403 15:25:01.046035 31741 net.cpp:425] inception_4d/relu_5x5_reduce <- inception_4d/5x5_reduce
I0403 15:25:01.046052 31741 net.cpp:386] inception_4d/relu_5x5_reduce -> inception_4d/5x5_reduce (in-place)
I0403 15:25:01.046258 31741 net.cpp:141] Setting up inception_4d/relu_5x5_reduce
I0403 15:25:01.046288 31741 net.cpp:148] Top shape: 24 32 14 14 (150528)
I0403 15:25:01.046305 31741 net.cpp:156] Memory required for data: 1132858656
I0403 15:25:01.046321 31741 layer_factory.hpp:77] Creating layer inception_4d/5x5
I0403 15:25:01.046344 31741 net.cpp:91] Creating Layer inception_4d/5x5
I0403 15:25:01.046363 31741 net.cpp:425] inception_4d/5x5 <- inception_4d/5x5_reduce
I0403 15:25:01.046381 31741 net.cpp:399] inception_4d/5x5 -> inception_4d/5x5
I0403 15:25:01.047819 31741 net.cpp:141] Setting up inception_4d/5x5
I0403 15:25:01.047849 31741 net.cpp:148] Top shape: 24 64 14 14 (301056)
I0403 15:25:01.047868 31741 net.cpp:156] Memory required for data: 1134062880
I0403 15:25:01.047886 31741 layer_factory.hpp:77] Creating layer inception_4d/relu_5x5
I0403 15:25:01.047920 31741 net.cpp:91] Creating Layer inception_4d/relu_5x5
I0403 15:25:01.047937 31741 net.cpp:425] inception_4d/relu_5x5 <- inception_4d/5x5
I0403 15:25:01.047957 31741 net.cpp:386] inception_4d/relu_5x5 -> inception_4d/5x5 (in-place)
I0403 15:25:01.048251 31741 net.cpp:141] Setting up inception_4d/relu_5x5
I0403 15:25:01.048280 31741 net.cpp:148] Top shape: 24 64 14 14 (301056)
I0403 15:25:01.048302 31741 net.cpp:156] Memory required for data: 1135267104
I0403 15:25:01.048319 31741 layer_factory.hpp:77] Creating layer inception_4d/pool
I0403 15:25:01.048337 31741 net.cpp:91] Creating Layer inception_4d/pool
I0403 15:25:01.048353 31741 net.cpp:425] inception_4d/pool <- inception_4c/output_inception_4c/output_0_split_3
I0403 15:25:01.048374 31741 net.cpp:399] inception_4d/pool -> inception_4d/pool
I0403 15:25:01.048441 31741 net.cpp:141] Setting up inception_4d/pool
I0403 15:25:01.048467 31741 net.cpp:148] Top shape: 24 512 14 14 (2408448)
I0403 15:25:01.048485 31741 net.cpp:156] Memory required for data: 1144900896
I0403 15:25:01.048501 31741 layer_factory.hpp:77] Creating layer inception_4d/pool_proj
I0403 15:25:01.048523 31741 net.cpp:91] Creating Layer inception_4d/pool_proj
I0403 15:25:01.048542 31741 net.cpp:425] inception_4d/pool_proj <- inception_4d/pool
I0403 15:25:01.048560 31741 net.cpp:399] inception_4d/pool_proj -> inception_4d/pool_proj
I0403 15:25:01.050282 31741 net.cpp:141] Setting up inception_4d/pool_proj
I0403 15:25:01.050314 31741 net.cpp:148] Top shape: 24 64 14 14 (301056)
I0403 15:25:01.050331 31741 net.cpp:156] Memory required for data: 1146105120
I0403 15:25:01.050350 31741 layer_factory.hpp:77] Creating layer inception_4d/relu_pool_proj
I0403 15:25:01.050370 31741 net.cpp:91] Creating Layer inception_4d/relu_pool_proj
I0403 15:25:01.050389 31741 net.cpp:425] inception_4d/relu_pool_proj <- inception_4d/pool_proj
I0403 15:25:01.050405 31741 net.cpp:386] inception_4d/relu_pool_proj -> inception_4d/pool_proj (in-place)
I0403 15:25:01.050585 31741 net.cpp:141] Setting up inception_4d/relu_pool_proj
I0403 15:25:01.050611 31741 net.cpp:148] Top shape: 24 64 14 14 (301056)
I0403 15:25:01.050626 31741 net.cpp:156] Memory required for data: 1147309344
I0403 15:25:01.050642 31741 layer_factory.hpp:77] Creating layer inception_4d/output
I0403 15:25:01.050658 31741 net.cpp:91] Creating Layer inception_4d/output
I0403 15:25:01.050674 31741 net.cpp:425] inception_4d/output <- inception_4d/1x1
I0403 15:25:01.050691 31741 net.cpp:425] inception_4d/output <- inception_4d/3x3
I0403 15:25:01.050709 31741 net.cpp:425] inception_4d/output <- inception_4d/5x5
I0403 15:25:01.050725 31741 net.cpp:425] inception_4d/output <- inception_4d/pool_proj
I0403 15:25:01.050745 31741 net.cpp:399] inception_4d/output -> inception_4d/output
I0403 15:25:01.050791 31741 net.cpp:141] Setting up inception_4d/output
I0403 15:25:01.050815 31741 net.cpp:148] Top shape: 24 528 14 14 (2483712)
I0403 15:25:01.050833 31741 net.cpp:156] Memory required for data: 1157244192
I0403 15:25:01.050849 31741 layer_factory.hpp:77] Creating layer inception_4d/output_inception_4d/output_0_split
I0403 15:25:01.050868 31741 net.cpp:91] Creating Layer inception_4d/output_inception_4d/output_0_split
I0403 15:25:01.050884 31741 net.cpp:425] inception_4d/output_inception_4d/output_0_split <- inception_4d/output
I0403 15:25:01.050900 31741 net.cpp:399] inception_4d/output_inception_4d/output_0_split -> inception_4d/output_inception_4d/output_0_split_0
I0403 15:25:01.050920 31741 net.cpp:399] inception_4d/output_inception_4d/output_0_split -> inception_4d/output_inception_4d/output_0_split_1
I0403 15:25:01.050943 31741 net.cpp:399] inception_4d/output_inception_4d/output_0_split -> inception_4d/output_inception_4d/output_0_split_2
I0403 15:25:01.050966 31741 net.cpp:399] inception_4d/output_inception_4d/output_0_split -> inception_4d/output_inception_4d/output_0_split_3
I0403 15:25:01.050988 31741 net.cpp:399] inception_4d/output_inception_4d/output_0_split -> inception_4d/output_inception_4d/output_0_split_4
I0403 15:25:01.051089 31741 net.cpp:141] Setting up inception_4d/output_inception_4d/output_0_split
I0403 15:25:01.051123 31741 net.cpp:148] Top shape: 24 528 14 14 (2483712)
I0403 15:25:01.051141 31741 net.cpp:148] Top shape: 24 528 14 14 (2483712)
I0403 15:25:01.051156 31741 net.cpp:148] Top shape: 24 528 14 14 (2483712)
I0403 15:25:01.051172 31741 net.cpp:148] Top shape: 24 528 14 14 (2483712)
I0403 15:25:01.051189 31741 net.cpp:148] Top shape: 24 528 14 14 (2483712)
I0403 15:25:01.051203 31741 net.cpp:156] Memory required for data: 1206918432
I0403 15:25:01.051218 31741 layer_factory.hpp:77] Creating layer loss2/ave_pool
I0403 15:25:01.051239 31741 net.cpp:91] Creating Layer loss2/ave_pool
I0403 15:25:01.051255 31741 net.cpp:425] loss2/ave_pool <- inception_4d/output_inception_4d/output_0_split_0
I0403 15:25:01.051275 31741 net.cpp:399] loss2/ave_pool -> loss2/ave_pool
I0403 15:25:01.051585 31741 net.cpp:141] Setting up loss2/ave_pool
I0403 15:25:01.051611 31741 net.cpp:148] Top shape: 24 528 4 4 (202752)
I0403 15:25:01.051626 31741 net.cpp:156] Memory required for data: 1207729440
I0403 15:25:01.051641 31741 layer_factory.hpp:77] Creating layer loss2/conv
I0403 15:25:01.051669 31741 net.cpp:91] Creating Layer loss2/conv
I0403 15:25:01.051688 31741 net.cpp:425] loss2/conv <- loss2/ave_pool
I0403 15:25:01.051708 31741 net.cpp:399] loss2/conv -> loss2/conv
I0403 15:25:01.053555 31741 net.cpp:141] Setting up loss2/conv
I0403 15:25:01.053586 31741 net.cpp:148] Top shape: 24 128 4 4 (49152)
I0403 15:25:01.053601 31741 net.cpp:156] Memory required for data: 1207926048
I0403 15:25:01.053619 31741 layer_factory.hpp:77] Creating layer loss2/relu_conv
I0403 15:25:01.053638 31741 net.cpp:91] Creating Layer loss2/relu_conv
I0403 15:25:01.053655 31741 net.cpp:425] loss2/relu_conv <- loss2/conv
I0403 15:25:01.053675 31741 net.cpp:386] loss2/relu_conv -> loss2/conv (in-place)
I0403 15:25:01.053956 31741 net.cpp:141] Setting up loss2/relu_conv
I0403 15:25:01.053982 31741 net.cpp:148] Top shape: 24 128 4 4 (49152)
I0403 15:25:01.053997 31741 net.cpp:156] Memory required for data: 1208122656
I0403 15:25:01.054011 31741 layer_factory.hpp:77] Creating layer loss2/fc
I0403 15:25:01.054031 31741 net.cpp:91] Creating Layer loss2/fc
I0403 15:25:01.054049 31741 net.cpp:425] loss2/fc <- loss2/conv
I0403 15:25:01.054069 31741 net.cpp:399] loss2/fc -> loss2/fc
I0403 15:25:01.071353 31741 net.cpp:141] Setting up loss2/fc
I0403 15:25:01.071388 31741 net.cpp:148] Top shape: 24 1024 (24576)
I0403 15:25:01.071415 31741 net.cpp:156] Memory required for data: 1208220960
I0403 15:25:01.071434 31741 layer_factory.hpp:77] Creating layer loss2/relu_fc
I0403 15:25:01.071454 31741 net.cpp:91] Creating Layer loss2/relu_fc
I0403 15:25:01.071470 31741 net.cpp:425] loss2/relu_fc <- loss2/fc
I0403 15:25:01.071487 31741 net.cpp:386] loss2/relu_fc -> loss2/fc (in-place)
I0403 15:25:01.071779 31741 net.cpp:141] Setting up loss2/relu_fc
I0403 15:25:01.071807 31741 net.cpp:148] Top shape: 24 1024 (24576)
I0403 15:25:01.071823 31741 net.cpp:156] Memory required for data: 1208319264
I0403 15:25:01.071838 31741 layer_factory.hpp:77] Creating layer loss2/drop_fc
I0403 15:25:01.071858 31741 net.cpp:91] Creating Layer loss2/drop_fc
I0403 15:25:01.071874 31741 net.cpp:425] loss2/drop_fc <- loss2/fc
I0403 15:25:01.071892 31741 net.cpp:386] loss2/drop_fc -> loss2/fc (in-place)
I0403 15:25:01.071941 31741 net.cpp:141] Setting up loss2/drop_fc
I0403 15:25:01.071964 31741 net.cpp:148] Top shape: 24 1024 (24576)
I0403 15:25:01.071979 31741 net.cpp:156] Memory required for data: 1208417568
I0403 15:25:01.071995 31741 layer_factory.hpp:77] Creating layer loss2/classifier_plantvillage
I0403 15:25:01.072016 31741 net.cpp:91] Creating Layer loss2/classifier_plantvillage
I0403 15:25:01.072031 31741 net.cpp:425] loss2/classifier_plantvillage <- loss2/fc
I0403 15:25:01.072049 31741 net.cpp:399] loss2/classifier_plantvillage -> loss2/classifier_plantvillage
I0403 15:25:01.072443 31741 net.cpp:141] Setting up loss2/classifier_plantvillage
I0403 15:25:01.072468 31741 net.cpp:148] Top shape: 24 38 (912)
I0403 15:25:01.072484 31741 net.cpp:156] Memory required for data: 1208421216
I0403 15:25:01.072517 31741 layer_factory.hpp:77] Creating layer loss2/classifier_plantvillage_loss2/classifier_plantvillage_0_split
I0403 15:25:01.072537 31741 net.cpp:91] Creating Layer loss2/classifier_plantvillage_loss2/classifier_plantvillage_0_split
I0403 15:25:01.072553 31741 net.cpp:425] loss2/classifier_plantvillage_loss2/classifier_plantvillage_0_split <- loss2/classifier_plantvillage
I0403 15:25:01.072576 31741 net.cpp:399] loss2/classifier_plantvillage_loss2/classifier_plantvillage_0_split -> loss2/classifier_plantvillage_loss2/classifier_plantvillage_0_split_0
I0403 15:25:01.072597 31741 net.cpp:399] loss2/classifier_plantvillage_loss2/classifier_plantvillage_0_split -> loss2/classifier_plantvillage_loss2/classifier_plantvillage_0_split_1
I0403 15:25:01.072619 31741 net.cpp:399] loss2/classifier_plantvillage_loss2/classifier_plantvillage_0_split -> loss2/classifier_plantvillage_loss2/classifier_plantvillage_0_split_2
I0403 15:25:01.072695 31741 net.cpp:141] Setting up loss2/classifier_plantvillage_loss2/classifier_plantvillage_0_split
I0403 15:25:01.072720 31741 net.cpp:148] Top shape: 24 38 (912)
I0403 15:25:01.072736 31741 net.cpp:148] Top shape: 24 38 (912)
I0403 15:25:01.072751 31741 net.cpp:148] Top shape: 24 38 (912)
I0403 15:25:01.072764 31741 net.cpp:156] Memory required for data: 1208432160
I0403 15:25:01.072779 31741 layer_factory.hpp:77] Creating layer inception_4e/1x1
I0403 15:25:01.072801 31741 net.cpp:91] Creating Layer inception_4e/1x1
I0403 15:25:01.072819 31741 net.cpp:425] inception_4e/1x1 <- inception_4d/output_inception_4d/output_0_split_1
I0403 15:25:01.072837 31741 net.cpp:399] inception_4e/1x1 -> inception_4e/1x1
I0403 15:25:01.074611 31741 net.cpp:141] Setting up inception_4e/1x1
I0403 15:25:01.074640 31741 net.cpp:148] Top shape: 24 256 14 14 (1204224)
I0403 15:25:01.074656 31741 net.cpp:156] Memory required for data: 1213249056
I0403 15:25:01.074674 31741 layer_factory.hpp:77] Creating layer inception_4e/relu_1x1
I0403 15:25:01.074694 31741 net.cpp:91] Creating Layer inception_4e/relu_1x1
I0403 15:25:01.074712 31741 net.cpp:425] inception_4e/relu_1x1 <- inception_4e/1x1
I0403 15:25:01.074729 31741 net.cpp:386] inception_4e/relu_1x1 -> inception_4e/1x1 (in-place)
I0403 15:25:01.075021 31741 net.cpp:141] Setting up inception_4e/relu_1x1
I0403 15:25:01.075048 31741 net.cpp:148] Top shape: 24 256 14 14 (1204224)
I0403 15:25:01.075064 31741 net.cpp:156] Memory required for data: 1218065952
I0403 15:25:01.075080 31741 layer_factory.hpp:77] Creating layer inception_4e/3x3_reduce
I0403 15:25:01.075103 31741 net.cpp:91] Creating Layer inception_4e/3x3_reduce
I0403 15:25:01.075119 31741 net.cpp:425] inception_4e/3x3_reduce <- inception_4d/output_inception_4d/output_0_split_2
I0403 15:25:01.075141 31741 net.cpp:399] inception_4e/3x3_reduce -> inception_4e/3x3_reduce
I0403 15:25:01.077265 31741 net.cpp:141] Setting up inception_4e/3x3_reduce
I0403 15:25:01.077297 31741 net.cpp:148] Top shape: 24 160 14 14 (752640)
I0403 15:25:01.077316 31741 net.cpp:156] Memory required for data: 1221076512
I0403 15:25:01.077333 31741 layer_factory.hpp:77] Creating layer inception_4e/relu_3x3_reduce
I0403 15:25:01.077352 31741 net.cpp:91] Creating Layer inception_4e/relu_3x3_reduce
I0403 15:25:01.077368 31741 net.cpp:425] inception_4e/relu_3x3_reduce <- inception_4e/3x3_reduce
I0403 15:25:01.077386 31741 net.cpp:386] inception_4e/relu_3x3_reduce -> inception_4e/3x3_reduce (in-place)
I0403 15:25:01.077569 31741 net.cpp:141] Setting up inception_4e/relu_3x3_reduce
I0403 15:25:01.077594 31741 net.cpp:148] Top shape: 24 160 14 14 (752640)
I0403 15:25:01.077610 31741 net.cpp:156] Memory required for data: 1224087072
I0403 15:25:01.077625 31741 layer_factory.hpp:77] Creating layer inception_4e/3x3
I0403 15:25:01.077646 31741 net.cpp:91] Creating Layer inception_4e/3x3
I0403 15:25:01.077666 31741 net.cpp:425] inception_4e/3x3 <- inception_4e/3x3_reduce
I0403 15:25:01.077687 31741 net.cpp:399] inception_4e/3x3 -> inception_4e/3x3
I0403 15:25:01.082844 31741 net.cpp:141] Setting up inception_4e/3x3
I0403 15:25:01.082887 31741 net.cpp:148] Top shape: 24 320 14 14 (1505280)
I0403 15:25:01.082906 31741 net.cpp:156] Memory required for data: 1230108192
I0403 15:25:01.082926 31741 layer_factory.hpp:77] Creating layer inception_4e/relu_3x3
I0403 15:25:01.082948 31741 net.cpp:91] Creating Layer inception_4e/relu_3x3
I0403 15:25:01.082967 31741 net.cpp:425] inception_4e/relu_3x3 <- inception_4e/3x3
I0403 15:25:01.082986 31741 net.cpp:386] inception_4e/relu_3x3 -> inception_4e/3x3 (in-place)
I0403 15:25:01.083299 31741 net.cpp:141] Setting up inception_4e/relu_3x3
I0403 15:25:01.083328 31741 net.cpp:148] Top shape: 24 320 14 14 (1505280)
I0403 15:25:01.083344 31741 net.cpp:156] Memory required for data: 1236129312
I0403 15:25:01.083360 31741 layer_factory.hpp:77] Creating layer inception_4e/5x5_reduce
I0403 15:25:01.083384 31741 net.cpp:91] Creating Layer inception_4e/5x5_reduce
I0403 15:25:01.083405 31741 net.cpp:425] inception_4e/5x5_reduce <- inception_4d/output_inception_4d/output_0_split_3
I0403 15:25:01.083427 31741 net.cpp:399] inception_4e/5x5_reduce -> inception_4e/5x5_reduce
I0403 15:25:01.084543 31741 net.cpp:141] Setting up inception_4e/5x5_reduce
I0403 15:25:01.084578 31741 net.cpp:148] Top shape: 24 32 14 14 (150528)
I0403 15:25:01.084595 31741 net.cpp:156] Memory required for data: 1236731424
I0403 15:25:01.084615 31741 layer_factory.hpp:77] Creating layer inception_4e/relu_5x5_reduce
I0403 15:25:01.084635 31741 net.cpp:91] Creating Layer inception_4e/relu_5x5_reduce
I0403 15:25:01.084652 31741 net.cpp:425] inception_4e/relu_5x5_reduce <- inception_4e/5x5_reduce
I0403 15:25:01.084672 31741 net.cpp:386] inception_4e/relu_5x5_reduce -> inception_4e/5x5_reduce (in-place)
I0403 15:25:01.084985 31741 net.cpp:141] Setting up inception_4e/relu_5x5_reduce
I0403 15:25:01.085014 31741 net.cpp:148] Top shape: 24 32 14 14 (150528)
I0403 15:25:01.085036 31741 net.cpp:156] Memory required for data: 1237333536
I0403 15:25:01.085052 31741 layer_factory.hpp:77] Creating layer inception_4e/5x5
I0403 15:25:01.085093 31741 net.cpp:91] Creating Layer inception_4e/5x5
I0403 15:25:01.085114 31741 net.cpp:425] inception_4e/5x5 <- inception_4e/5x5_reduce
I0403 15:25:01.085134 31741 net.cpp:399] inception_4e/5x5 -> inception_4e/5x5
I0403 15:25:01.087033 31741 net.cpp:141] Setting up inception_4e/5x5
I0403 15:25:01.087065 31741 net.cpp:148] Top shape: 24 128 14 14 (602112)
I0403 15:25:01.087082 31741 net.cpp:156] Memory required for data: 1239741984
I0403 15:25:01.087103 31741 layer_factory.hpp:77] Creating layer inception_4e/relu_5x5
I0403 15:25:01.087124 31741 net.cpp:91] Creating Layer inception_4e/relu_5x5
I0403 15:25:01.087141 31741 net.cpp:425] inception_4e/relu_5x5 <- inception_4e/5x5
I0403 15:25:01.087162 31741 net.cpp:386] inception_4e/relu_5x5 -> inception_4e/5x5 (in-place)
I0403 15:25:01.087371 31741 net.cpp:141] Setting up inception_4e/relu_5x5
I0403 15:25:01.087399 31741 net.cpp:148] Top shape: 24 128 14 14 (602112)
I0403 15:25:01.087414 31741 net.cpp:156] Memory required for data: 1242150432
I0403 15:25:01.087431 31741 layer_factory.hpp:77] Creating layer inception_4e/pool
I0403 15:25:01.087451 31741 net.cpp:91] Creating Layer inception_4e/pool
I0403 15:25:01.087469 31741 net.cpp:425] inception_4e/pool <- inception_4d/output_inception_4d/output_0_split_4
I0403 15:25:01.087491 31741 net.cpp:399] inception_4e/pool -> inception_4e/pool
I0403 15:25:01.087563 31741 net.cpp:141] Setting up inception_4e/pool
I0403 15:25:01.087589 31741 net.cpp:148] Top shape: 24 528 14 14 (2483712)
I0403 15:25:01.087605 31741 net.cpp:156] Memory required for data: 1252085280
I0403 15:25:01.087622 31741 layer_factory.hpp:77] Creating layer inception_4e/pool_proj
I0403 15:25:01.087647 31741 net.cpp:91] Creating Layer inception_4e/pool_proj
I0403 15:25:01.087666 31741 net.cpp:425] inception_4e/pool_proj <- inception_4e/pool
I0403 15:25:01.087687 31741 net.cpp:399] inception_4e/pool_proj -> inception_4e/pool_proj
I0403 15:25:01.089239 31741 net.cpp:141] Setting up inception_4e/pool_proj
I0403 15:25:01.089269 31741 net.cpp:148] Top shape: 24 128 14 14 (602112)
I0403 15:25:01.089311 31741 net.cpp:156] Memory required for data: 1254493728
I0403 15:25:01.089334 31741 layer_factory.hpp:77] Creating layer inception_4e/relu_pool_proj
I0403 15:25:01.089356 31741 net.cpp:91] Creating Layer inception_4e/relu_pool_proj
I0403 15:25:01.089375 31741 net.cpp:425] inception_4e/relu_pool_proj <- inception_4e/pool_proj
I0403 15:25:01.089393 31741 net.cpp:386] inception_4e/relu_pool_proj -> inception_4e/pool_proj (in-place)
I0403 15:25:01.089706 31741 net.cpp:141] Setting up inception_4e/relu_pool_proj
I0403 15:25:01.089735 31741 net.cpp:148] Top shape: 24 128 14 14 (602112)
I0403 15:25:01.089751 31741 net.cpp:156] Memory required for data: 1256902176
I0403 15:25:01.089767 31741 layer_factory.hpp:77] Creating layer inception_4e/output
I0403 15:25:01.089788 31741 net.cpp:91] Creating Layer inception_4e/output
I0403 15:25:01.089812 31741 net.cpp:425] inception_4e/output <- inception_4e/1x1
I0403 15:25:01.089830 31741 net.cpp:425] inception_4e/output <- inception_4e/3x3
I0403 15:25:01.089856 31741 net.cpp:425] inception_4e/output <- inception_4e/5x5
I0403 15:25:01.089874 31741 net.cpp:425] inception_4e/output <- inception_4e/pool_proj
I0403 15:25:01.089891 31741 net.cpp:399] inception_4e/output -> inception_4e/output
I0403 15:25:01.089946 31741 net.cpp:141] Setting up inception_4e/output
I0403 15:25:01.089980 31741 net.cpp:148] Top shape: 24 832 14 14 (3913728)
I0403 15:25:01.089997 31741 net.cpp:156] Memory required for data: 1272557088
I0403 15:25:01.090011 31741 layer_factory.hpp:77] Creating layer pool4/3x3_s2
I0403 15:25:01.090054 31741 net.cpp:91] Creating Layer pool4/3x3_s2
I0403 15:25:01.090077 31741 net.cpp:425] pool4/3x3_s2 <- inception_4e/output
I0403 15:25:01.090113 31741 net.cpp:399] pool4/3x3_s2 -> pool4/3x3_s2
I0403 15:25:01.090198 31741 net.cpp:141] Setting up pool4/3x3_s2
I0403 15:25:01.090224 31741 net.cpp:148] Top shape: 24 832 7 7 (978432)
I0403 15:25:01.090240 31741 net.cpp:156] Memory required for data: 1276470816
I0403 15:25:01.090257 31741 layer_factory.hpp:77] Creating layer pool4/3x3_s2_pool4/3x3_s2_0_split
I0403 15:25:01.090276 31741 net.cpp:91] Creating Layer pool4/3x3_s2_pool4/3x3_s2_0_split
I0403 15:25:01.090297 31741 net.cpp:425] pool4/3x3_s2_pool4/3x3_s2_0_split <- pool4/3x3_s2
I0403 15:25:01.090320 31741 net.cpp:399] pool4/3x3_s2_pool4/3x3_s2_0_split -> pool4/3x3_s2_pool4/3x3_s2_0_split_0
I0403 15:25:01.090344 31741 net.cpp:399] pool4/3x3_s2_pool4/3x3_s2_0_split -> pool4/3x3_s2_pool4/3x3_s2_0_split_1
I0403 15:25:01.090366 31741 net.cpp:399] pool4/3x3_s2_pool4/3x3_s2_0_split -> pool4/3x3_s2_pool4/3x3_s2_0_split_2
I0403 15:25:01.090389 31741 net.cpp:399] pool4/3x3_s2_pool4/3x3_s2_0_split -> pool4/3x3_s2_pool4/3x3_s2_0_split_3
I0403 15:25:01.090481 31741 net.cpp:141] Setting up pool4/3x3_s2_pool4/3x3_s2_0_split
I0403 15:25:01.090508 31741 net.cpp:148] Top shape: 24 832 7 7 (978432)
I0403 15:25:01.090528 31741 net.cpp:148] Top shape: 24 832 7 7 (978432)
I0403 15:25:01.090544 31741 net.cpp:148] Top shape: 24 832 7 7 (978432)
I0403 15:25:01.090561 31741 net.cpp:148] Top shape: 24 832 7 7 (978432)
I0403 15:25:01.090590 31741 net.cpp:156] Memory required for data: 1292125728
I0403 15:25:01.090607 31741 layer_factory.hpp:77] Creating layer inception_5a/1x1
I0403 15:25:01.090631 31741 net.cpp:91] Creating Layer inception_5a/1x1
I0403 15:25:01.090651 31741 net.cpp:425] inception_5a/1x1 <- pool4/3x3_s2_pool4/3x3_s2_0_split_0
I0403 15:25:01.090673 31741 net.cpp:399] inception_5a/1x1 -> inception_5a/1x1
I0403 15:25:01.093933 31741 net.cpp:141] Setting up inception_5a/1x1
I0403 15:25:01.093967 31741 net.cpp:148] Top shape: 24 256 7 7 (301056)
I0403 15:25:01.093989 31741 net.cpp:156] Memory required for data: 1293329952
I0403 15:25:01.094009 31741 layer_factory.hpp:77] Creating layer inception_5a/relu_1x1
I0403 15:25:01.094030 31741 net.cpp:91] Creating Layer inception_5a/relu_1x1
I0403 15:25:01.094048 31741 net.cpp:425] inception_5a/relu_1x1 <- inception_5a/1x1
I0403 15:25:01.094069 31741 net.cpp:386] inception_5a/relu_1x1 -> inception_5a/1x1 (in-place)
I0403 15:25:01.094427 31741 net.cpp:141] Setting up inception_5a/relu_1x1
I0403 15:25:01.094460 31741 net.cpp:148] Top shape: 24 256 7 7 (301056)
I0403 15:25:01.094478 31741 net.cpp:156] Memory required for data: 1294534176
I0403 15:25:01.094506 31741 layer_factory.hpp:77] Creating layer inception_5a/3x3_reduce
I0403 15:25:01.094558 31741 net.cpp:91] Creating Layer inception_5a/3x3_reduce
I0403 15:25:01.094585 31741 net.cpp:425] inception_5a/3x3_reduce <- pool4/3x3_s2_pool4/3x3_s2_0_split_1
I0403 15:25:01.094616 31741 net.cpp:399] inception_5a/3x3_reduce -> inception_5a/3x3_reduce
I0403 15:25:01.097411 31741 net.cpp:141] Setting up inception_5a/3x3_reduce
I0403 15:25:01.097443 31741 net.cpp:148] Top shape: 24 160 7 7 (188160)
I0403 15:25:01.097460 31741 net.cpp:156] Memory required for data: 1295286816
I0403 15:25:01.097481 31741 layer_factory.hpp:77] Creating layer inception_5a/relu_3x3_reduce
I0403 15:25:01.097506 31741 net.cpp:91] Creating Layer inception_5a/relu_3x3_reduce
I0403 15:25:01.097524 31741 net.cpp:425] inception_5a/relu_3x3_reduce <- inception_5a/3x3_reduce
I0403 15:25:01.097544 31741 net.cpp:386] inception_5a/relu_3x3_reduce -> inception_5a/3x3_reduce (in-place)
I0403 15:25:01.097746 31741 net.cpp:141] Setting up inception_5a/relu_3x3_reduce
I0403 15:25:01.097784 31741 net.cpp:148] Top shape: 24 160 7 7 (188160)
I0403 15:25:01.097802 31741 net.cpp:156] Memory required for data: 1296039456
I0403 15:25:01.097818 31741 layer_factory.hpp:77] Creating layer inception_5a/3x3
I0403 15:25:01.097846 31741 net.cpp:91] Creating Layer inception_5a/3x3
I0403 15:25:01.097864 31741 net.cpp:425] inception_5a/3x3 <- inception_5a/3x3_reduce
I0403 15:25:01.097885 31741 net.cpp:399] inception_5a/3x3 -> inception_5a/3x3
I0403 15:25:01.103122 31741 net.cpp:141] Setting up inception_5a/3x3
I0403 15:25:01.103155 31741 net.cpp:148] Top shape: 24 320 7 7 (376320)
I0403 15:25:01.103173 31741 net.cpp:156] Memory required for data: 1297544736
I0403 15:25:01.103193 31741 layer_factory.hpp:77] Creating layer inception_5a/relu_3x3
I0403 15:25:01.103212 31741 net.cpp:91] Creating Layer inception_5a/relu_3x3
I0403 15:25:01.103232 31741 net.cpp:425] inception_5a/relu_3x3 <- inception_5a/3x3
I0403 15:25:01.103252 31741 net.cpp:386] inception_5a/relu_3x3 -> inception_5a/3x3 (in-place)
I0403 15:25:01.103554 31741 net.cpp:141] Setting up inception_5a/relu_3x3
I0403 15:25:01.103585 31741 net.cpp:148] Top shape: 24 320 7 7 (376320)
I0403 15:25:01.103601 31741 net.cpp:156] Memory required for data: 1299050016
I0403 15:25:01.103617 31741 layer_factory.hpp:77] Creating layer inception_5a/5x5_reduce
I0403 15:25:01.103642 31741 net.cpp:91] Creating Layer inception_5a/5x5_reduce
I0403 15:25:01.103662 31741 net.cpp:425] inception_5a/5x5_reduce <- pool4/3x3_s2_pool4/3x3_s2_0_split_2
I0403 15:25:01.103682 31741 net.cpp:399] inception_5a/5x5_reduce -> inception_5a/5x5_reduce
I0403 15:25:01.104869 31741 net.cpp:141] Setting up inception_5a/5x5_reduce
I0403 15:25:01.104902 31741 net.cpp:148] Top shape: 24 32 7 7 (37632)
I0403 15:25:01.104919 31741 net.cpp:156] Memory required for data: 1299200544
I0403 15:25:01.104938 31741 layer_factory.hpp:77] Creating layer inception_5a/relu_5x5_reduce
I0403 15:25:01.104959 31741 net.cpp:91] Creating Layer inception_5a/relu_5x5_reduce
I0403 15:25:01.104976 31741 net.cpp:425] inception_5a/relu_5x5_reduce <- inception_5a/5x5_reduce
I0403 15:25:01.104997 31741 net.cpp:386] inception_5a/relu_5x5_reduce -> inception_5a/5x5_reduce (in-place)
I0403 15:25:01.105309 31741 net.cpp:141] Setting up inception_5a/relu_5x5_reduce
I0403 15:25:01.105336 31741 net.cpp:148] Top shape: 24 32 7 7 (37632)
I0403 15:25:01.105352 31741 net.cpp:156] Memory required for data: 1299351072
I0403 15:25:01.105368 31741 layer_factory.hpp:77] Creating layer inception_5a/5x5
I0403 15:25:01.105391 31741 net.cpp:91] Creating Layer inception_5a/5x5
I0403 15:25:01.105412 31741 net.cpp:425] inception_5a/5x5 <- inception_5a/5x5_reduce
I0403 15:25:01.105433 31741 net.cpp:399] inception_5a/5x5 -> inception_5a/5x5
I0403 15:25:01.107163 31741 net.cpp:141] Setting up inception_5a/5x5
I0403 15:25:01.107208 31741 net.cpp:148] Top shape: 24 128 7 7 (150528)
I0403 15:25:01.107225 31741 net.cpp:156] Memory required for data: 1299953184
I0403 15:25:01.107244 31741 layer_factory.hpp:77] Creating layer inception_5a/relu_5x5
I0403 15:25:01.107264 31741 net.cpp:91] Creating Layer inception_5a/relu_5x5
I0403 15:25:01.107280 31741 net.cpp:425] inception_5a/relu_5x5 <- inception_5a/5x5
I0403 15:25:01.107306 31741 net.cpp:386] inception_5a/relu_5x5 -> inception_5a/5x5 (in-place)
I0403 15:25:01.107502 31741 net.cpp:141] Setting up inception_5a/relu_5x5
I0403 15:25:01.107528 31741 net.cpp:148] Top shape: 24 128 7 7 (150528)
I0403 15:25:01.107544 31741 net.cpp:156] Memory required for data: 1300555296
I0403 15:25:01.107560 31741 layer_factory.hpp:77] Creating layer inception_5a/pool
I0403 15:25:01.107580 31741 net.cpp:91] Creating Layer inception_5a/pool
I0403 15:25:01.107597 31741 net.cpp:425] inception_5a/pool <- pool4/3x3_s2_pool4/3x3_s2_0_split_3
I0403 15:25:01.107619 31741 net.cpp:399] inception_5a/pool -> inception_5a/pool
I0403 15:25:01.107691 31741 net.cpp:141] Setting up inception_5a/pool
I0403 15:25:01.107715 31741 net.cpp:148] Top shape: 24 832 7 7 (978432)
I0403 15:25:01.107731 31741 net.cpp:156] Memory required for data: 1304469024
I0403 15:25:01.107746 31741 layer_factory.hpp:77] Creating layer inception_5a/pool_proj
I0403 15:25:01.107771 31741 net.cpp:91] Creating Layer inception_5a/pool_proj
I0403 15:25:01.107790 31741 net.cpp:425] inception_5a/pool_proj <- inception_5a/pool
I0403 15:25:01.107810 31741 net.cpp:399] inception_5a/pool_proj -> inception_5a/pool_proj
I0403 15:25:01.110115 31741 net.cpp:141] Setting up inception_5a/pool_proj
I0403 15:25:01.110147 31741 net.cpp:148] Top shape: 24 128 7 7 (150528)
I0403 15:25:01.110167 31741 net.cpp:156] Memory required for data: 1305071136
I0403 15:25:01.110184 31741 layer_factory.hpp:77] Creating layer inception_5a/relu_pool_proj
I0403 15:25:01.110203 31741 net.cpp:91] Creating Layer inception_5a/relu_pool_proj
I0403 15:25:01.110220 31741 net.cpp:425] inception_5a/relu_pool_proj <- inception_5a/pool_proj
I0403 15:25:01.110239 31741 net.cpp:386] inception_5a/relu_pool_proj -> inception_5a/pool_proj (in-place)
I0403 15:25:01.110574 31741 net.cpp:141] Setting up inception_5a/relu_pool_proj
I0403 15:25:01.110606 31741 net.cpp:148] Top shape: 24 128 7 7 (150528)
I0403 15:25:01.110625 31741 net.cpp:156] Memory required for data: 1305673248
I0403 15:25:01.110641 31741 layer_factory.hpp:77] Creating layer inception_5a/output
I0403 15:25:01.110661 31741 net.cpp:91] Creating Layer inception_5a/output
I0403 15:25:01.110677 31741 net.cpp:425] inception_5a/output <- inception_5a/1x1
I0403 15:25:01.110695 31741 net.cpp:425] inception_5a/output <- inception_5a/3x3
I0403 15:25:01.110713 31741 net.cpp:425] inception_5a/output <- inception_5a/5x5
I0403 15:25:01.110733 31741 net.cpp:425] inception_5a/output <- inception_5a/pool_proj
I0403 15:25:01.110752 31741 net.cpp:399] inception_5a/output -> inception_5a/output
I0403 15:25:01.110810 31741 net.cpp:141] Setting up inception_5a/output
I0403 15:25:01.110836 31741 net.cpp:148] Top shape: 24 832 7 7 (978432)
I0403 15:25:01.110852 31741 net.cpp:156] Memory required for data: 1309586976
I0403 15:25:01.110869 31741 layer_factory.hpp:77] Creating layer inception_5a/output_inception_5a/output_0_split
I0403 15:25:01.110888 31741 net.cpp:91] Creating Layer inception_5a/output_inception_5a/output_0_split
I0403 15:25:01.110908 31741 net.cpp:425] inception_5a/output_inception_5a/output_0_split <- inception_5a/output
I0403 15:25:01.110929 31741 net.cpp:399] inception_5a/output_inception_5a/output_0_split -> inception_5a/output_inception_5a/output_0_split_0
I0403 15:25:01.110951 31741 net.cpp:399] inception_5a/output_inception_5a/output_0_split -> inception_5a/output_inception_5a/output_0_split_1
I0403 15:25:01.110975 31741 net.cpp:399] inception_5a/output_inception_5a/output_0_split -> inception_5a/output_inception_5a/output_0_split_2
I0403 15:25:01.110998 31741 net.cpp:399] inception_5a/output_inception_5a/output_0_split -> inception_5a/output_inception_5a/output_0_split_3
I0403 15:25:01.111119 31741 net.cpp:141] Setting up inception_5a/output_inception_5a/output_0_split
I0403 15:25:01.111145 31741 net.cpp:148] Top shape: 24 832 7 7 (978432)
I0403 15:25:01.111163 31741 net.cpp:148] Top shape: 24 832 7 7 (978432)
I0403 15:25:01.111181 31741 net.cpp:148] Top shape: 24 832 7 7 (978432)
I0403 15:25:01.111199 31741 net.cpp:148] Top shape: 24 832 7 7 (978432)
I0403 15:25:01.111214 31741 net.cpp:156] Memory required for data: 1325241888
I0403 15:25:01.111230 31741 layer_factory.hpp:77] Creating layer inception_5b/1x1
I0403 15:25:01.111254 31741 net.cpp:91] Creating Layer inception_5b/1x1
I0403 15:25:01.111274 31741 net.cpp:425] inception_5b/1x1 <- inception_5a/output_inception_5a/output_0_split_0
I0403 15:25:01.111304 31741 net.cpp:399] inception_5b/1x1 -> inception_5b/1x1
I0403 15:25:01.115365 31741 net.cpp:141] Setting up inception_5b/1x1
I0403 15:25:01.115401 31741 net.cpp:148] Top shape: 24 384 7 7 (451584)
I0403 15:25:01.115418 31741 net.cpp:156] Memory required for data: 1327048224
I0403 15:25:01.115440 31741 layer_factory.hpp:77] Creating layer inception_5b/relu_1x1
I0403 15:25:01.115463 31741 net.cpp:91] Creating Layer inception_5b/relu_1x1
I0403 15:25:01.115481 31741 net.cpp:425] inception_5b/relu_1x1 <- inception_5b/1x1
I0403 15:25:01.115501 31741 net.cpp:386] inception_5b/relu_1x1 -> inception_5b/1x1 (in-place)
I0403 15:25:01.115833 31741 net.cpp:141] Setting up inception_5b/relu_1x1
I0403 15:25:01.115862 31741 net.cpp:148] Top shape: 24 384 7 7 (451584)
I0403 15:25:01.115880 31741 net.cpp:156] Memory required for data: 1328854560
I0403 15:25:01.115896 31741 layer_factory.hpp:77] Creating layer inception_5b/3x3_reduce
I0403 15:25:01.115921 31741 net.cpp:91] Creating Layer inception_5b/3x3_reduce
I0403 15:25:01.115941 31741 net.cpp:425] inception_5b/3x3_reduce <- inception_5a/output_inception_5a/output_0_split_1
I0403 15:25:01.115965 31741 net.cpp:399] inception_5b/3x3_reduce -> inception_5b/3x3_reduce
I0403 15:25:01.118810 31741 net.cpp:141] Setting up inception_5b/3x3_reduce
I0403 15:25:01.118842 31741 net.cpp:148] Top shape: 24 192 7 7 (225792)
I0403 15:25:01.118861 31741 net.cpp:156] Memory required for data: 1329757728
I0403 15:25:01.118882 31741 layer_factory.hpp:77] Creating layer inception_5b/relu_3x3_reduce
I0403 15:25:01.118906 31741 net.cpp:91] Creating Layer inception_5b/relu_3x3_reduce
I0403 15:25:01.118924 31741 net.cpp:425] inception_5b/relu_3x3_reduce <- inception_5b/3x3_reduce
I0403 15:25:01.118944 31741 net.cpp:386] inception_5b/relu_3x3_reduce -> inception_5b/3x3_reduce (in-place)
I0403 15:25:01.119153 31741 net.cpp:141] Setting up inception_5b/relu_3x3_reduce
I0403 15:25:01.119182 31741 net.cpp:148] Top shape: 24 192 7 7 (225792)
I0403 15:25:01.119199 31741 net.cpp:156] Memory required for data: 1330660896
I0403 15:25:01.119216 31741 layer_factory.hpp:77] Creating layer inception_5b/3x3
I0403 15:25:01.119240 31741 net.cpp:91] Creating Layer inception_5b/3x3
I0403 15:25:01.119258 31741 net.cpp:425] inception_5b/3x3 <- inception_5b/3x3_reduce
I0403 15:25:01.119278 31741 net.cpp:399] inception_5b/3x3 -> inception_5b/3x3
I0403 15:25:01.126477 31741 net.cpp:141] Setting up inception_5b/3x3
I0403 15:25:01.126513 31741 net.cpp:148] Top shape: 24 384 7 7 (451584)
I0403 15:25:01.126531 31741 net.cpp:156] Memory required for data: 1332467232
I0403 15:25:01.126551 31741 layer_factory.hpp:77] Creating layer inception_5b/relu_3x3
I0403 15:25:01.126574 31741 net.cpp:91] Creating Layer inception_5b/relu_3x3
I0403 15:25:01.126592 31741 net.cpp:425] inception_5b/relu_3x3 <- inception_5b/3x3
I0403 15:25:01.126611 31741 net.cpp:386] inception_5b/relu_3x3 -> inception_5b/3x3 (in-place)
I0403 15:25:01.126935 31741 net.cpp:141] Setting up inception_5b/relu_3x3
I0403 15:25:01.126966 31741 net.cpp:148] Top shape: 24 384 7 7 (451584)
I0403 15:25:01.126984 31741 net.cpp:156] Memory required for data: 1334273568
I0403 15:25:01.127002 31741 layer_factory.hpp:77] Creating layer inception_5b/5x5_reduce
I0403 15:25:01.127044 31741 net.cpp:91] Creating Layer inception_5b/5x5_reduce
I0403 15:25:01.127065 31741 net.cpp:425] inception_5b/5x5_reduce <- inception_5a/output_inception_5a/output_0_split_2
I0403 15:25:01.127089 31741 net.cpp:399] inception_5b/5x5_reduce -> inception_5b/5x5_reduce
I0403 15:25:01.128458 31741 net.cpp:141] Setting up inception_5b/5x5_reduce
I0403 15:25:01.128489 31741 net.cpp:148] Top shape: 24 48 7 7 (56448)
I0403 15:25:01.128505 31741 net.cpp:156] Memory required for data: 1334499360
I0403 15:25:01.128526 31741 layer_factory.hpp:77] Creating layer inception_5b/relu_5x5_reduce
I0403 15:25:01.128551 31741 net.cpp:91] Creating Layer inception_5b/relu_5x5_reduce
I0403 15:25:01.128571 31741 net.cpp:425] inception_5b/relu_5x5_reduce <- inception_5b/5x5_reduce
I0403 15:25:01.128590 31741 net.cpp:386] inception_5b/relu_5x5_reduce -> inception_5b/5x5_reduce (in-place)
I0403 15:25:01.128986 31741 net.cpp:141] Setting up inception_5b/relu_5x5_reduce
I0403 15:25:01.129016 31741 net.cpp:148] Top shape: 24 48 7 7 (56448)
I0403 15:25:01.129034 31741 net.cpp:156] Memory required for data: 1334725152
I0403 15:25:01.129050 31741 layer_factory.hpp:77] Creating layer inception_5b/5x5
I0403 15:25:01.129072 31741 net.cpp:91] Creating Layer inception_5b/5x5
I0403 15:25:01.129091 31741 net.cpp:425] inception_5b/5x5 <- inception_5b/5x5_reduce
I0403 15:25:01.129112 31741 net.cpp:399] inception_5b/5x5 -> inception_5b/5x5
I0403 15:25:01.131332 31741 net.cpp:141] Setting up inception_5b/5x5
I0403 15:25:01.131366 31741 net.cpp:148] Top shape: 24 128 7 7 (150528)
I0403 15:25:01.131384 31741 net.cpp:156] Memory required for data: 1335327264
I0403 15:25:01.131407 31741 layer_factory.hpp:77] Creating layer inception_5b/relu_5x5
I0403 15:25:01.131427 31741 net.cpp:91] Creating Layer inception_5b/relu_5x5
I0403 15:25:01.131445 31741 net.cpp:425] inception_5b/relu_5x5 <- inception_5b/5x5
I0403 15:25:01.131467 31741 net.cpp:386] inception_5b/relu_5x5 -> inception_5b/5x5 (in-place)
I0403 15:25:01.131677 31741 net.cpp:141] Setting up inception_5b/relu_5x5
I0403 15:25:01.131705 31741 net.cpp:148] Top shape: 24 128 7 7 (150528)
I0403 15:25:01.131722 31741 net.cpp:156] Memory required for data: 1335929376
I0403 15:25:01.131739 31741 layer_factory.hpp:77] Creating layer inception_5b/pool
I0403 15:25:01.131759 31741 net.cpp:91] Creating Layer inception_5b/pool
I0403 15:25:01.131778 31741 net.cpp:425] inception_5b/pool <- inception_5a/output_inception_5a/output_0_split_3
I0403 15:25:01.131800 31741 net.cpp:399] inception_5b/pool -> inception_5b/pool
I0403 15:25:01.131880 31741 net.cpp:141] Setting up inception_5b/pool
I0403 15:25:01.131907 31741 net.cpp:148] Top shape: 24 832 7 7 (978432)
I0403 15:25:01.131923 31741 net.cpp:156] Memory required for data: 1339843104
I0403 15:25:01.131940 31741 layer_factory.hpp:77] Creating layer inception_5b/pool_proj
I0403 15:25:01.131963 31741 net.cpp:91] Creating Layer inception_5b/pool_proj
I0403 15:25:01.131984 31741 net.cpp:425] inception_5b/pool_proj <- inception_5b/pool
I0403 15:25:01.132007 31741 net.cpp:399] inception_5b/pool_proj -> inception_5b/pool_proj
I0403 15:25:01.134487 31741 net.cpp:141] Setting up inception_5b/pool_proj
I0403 15:25:01.134518 31741 net.cpp:148] Top shape: 24 128 7 7 (150528)
I0403 15:25:01.134536 31741 net.cpp:156] Memory required for data: 1340445216
I0403 15:25:01.134557 31741 layer_factory.hpp:77] Creating layer inception_5b/relu_pool_proj
I0403 15:25:01.134582 31741 net.cpp:91] Creating Layer inception_5b/relu_pool_proj
I0403 15:25:01.134600 31741 net.cpp:425] inception_5b/relu_pool_proj <- inception_5b/pool_proj
I0403 15:25:01.134620 31741 net.cpp:386] inception_5b/relu_pool_proj -> inception_5b/pool_proj (in-place)
I0403 15:25:01.134948 31741 net.cpp:141] Setting up inception_5b/relu_pool_proj
I0403 15:25:01.134976 31741 net.cpp:148] Top shape: 24 128 7 7 (150528)
I0403 15:25:01.134992 31741 net.cpp:156] Memory required for data: 1341047328
I0403 15:25:01.135010 31741 layer_factory.hpp:77] Creating layer inception_5b/output
I0403 15:25:01.135030 31741 net.cpp:91] Creating Layer inception_5b/output
I0403 15:25:01.135063 31741 net.cpp:425] inception_5b/output <- inception_5b/1x1
I0403 15:25:01.135083 31741 net.cpp:425] inception_5b/output <- inception_5b/3x3
I0403 15:25:01.135103 31741 net.cpp:425] inception_5b/output <- inception_5b/5x5
I0403 15:25:01.135120 31741 net.cpp:425] inception_5b/output <- inception_5b/pool_proj
I0403 15:25:01.135139 31741 net.cpp:399] inception_5b/output -> inception_5b/output
I0403 15:25:01.135195 31741 net.cpp:141] Setting up inception_5b/output
I0403 15:25:01.135221 31741 net.cpp:148] Top shape: 24 1024 7 7 (1204224)
I0403 15:25:01.135237 31741 net.cpp:156] Memory required for data: 1345864224
I0403 15:25:01.135253 31741 layer_factory.hpp:77] Creating layer pool5/7x7_s1
I0403 15:25:01.135274 31741 net.cpp:91] Creating Layer pool5/7x7_s1
I0403 15:25:01.135304 31741 net.cpp:425] pool5/7x7_s1 <- inception_5b/output
I0403 15:25:01.135340 31741 net.cpp:399] pool5/7x7_s1 -> pool5/7x7_s1
I0403 15:25:01.135577 31741 net.cpp:141] Setting up pool5/7x7_s1
I0403 15:25:01.135620 31741 net.cpp:148] Top shape: 24 1024 1 1 (24576)
I0403 15:25:01.135637 31741 net.cpp:156] Memory required for data: 1345962528
I0403 15:25:01.135655 31741 layer_factory.hpp:77] Creating layer pool5/drop_7x7_s1
I0403 15:25:01.135674 31741 net.cpp:91] Creating Layer pool5/drop_7x7_s1
I0403 15:25:01.135692 31741 net.cpp:425] pool5/drop_7x7_s1 <- pool5/7x7_s1
I0403 15:25:01.135712 31741 net.cpp:386] pool5/drop_7x7_s1 -> pool5/7x7_s1 (in-place)
I0403 15:25:01.135766 31741 net.cpp:141] Setting up pool5/drop_7x7_s1
I0403 15:25:01.135792 31741 net.cpp:148] Top shape: 24 1024 1 1 (24576)
I0403 15:25:01.135807 31741 net.cpp:156] Memory required for data: 1346060832
I0403 15:25:01.135823 31741 layer_factory.hpp:77] Creating layer loss3/classifier_plantvillage
I0403 15:25:01.135846 31741 net.cpp:91] Creating Layer loss3/classifier_plantvillage
I0403 15:25:01.135864 31741 net.cpp:425] loss3/classifier_plantvillage <- pool5/7x7_s1
I0403 15:25:01.135887 31741 net.cpp:399] loss3/classifier_plantvillage -> loss3/classifier_plantvillage
I0403 15:25:01.136355 31741 net.cpp:141] Setting up loss3/classifier_plantvillage
I0403 15:25:01.136384 31741 net.cpp:148] Top shape: 24 38 (912)
I0403 15:25:01.136399 31741 net.cpp:156] Memory required for data: 1346064480
I0403 15:25:01.136418 31741 layer_factory.hpp:77] Creating layer loss3/classifier_plantvillage_loss3/classifier_plantvillage_0_split
I0403 15:25:01.136445 31741 net.cpp:91] Creating Layer loss3/classifier_plantvillage_loss3/classifier_plantvillage_0_split
I0403 15:25:01.136464 31741 net.cpp:425] loss3/classifier_plantvillage_loss3/classifier_plantvillage_0_split <- loss3/classifier_plantvillage
I0403 15:25:01.136484 31741 net.cpp:399] loss3/classifier_plantvillage_loss3/classifier_plantvillage_0_split -> loss3/classifier_plantvillage_loss3/classifier_plantvillage_0_split_0
I0403 15:25:01.136507 31741 net.cpp:399] loss3/classifier_plantvillage_loss3/classifier_plantvillage_0_split -> loss3/classifier_plantvillage_loss3/classifier_plantvillage_0_split_1
I0403 15:25:01.136529 31741 net.cpp:399] loss3/classifier_plantvillage_loss3/classifier_plantvillage_0_split -> loss3/classifier_plantvillage_loss3/classifier_plantvillage_0_split_2
I0403 15:25:01.136551 31741 net.cpp:399] loss3/classifier_plantvillage_loss3/classifier_plantvillage_0_split -> loss3/classifier_plantvillage_loss3/classifier_plantvillage_0_split_3
I0403 15:25:01.136669 31741 net.cpp:141] Setting up loss3/classifier_plantvillage_loss3/classifier_plantvillage_0_split
I0403 15:25:01.136695 31741 net.cpp:148] Top shape: 24 38 (912)
I0403 15:25:01.136713 31741 net.cpp:148] Top shape: 24 38 (912)
I0403 15:25:01.136730 31741 net.cpp:148] Top shape: 24 38 (912)
I0403 15:25:01.136746 31741 net.cpp:148] Top shape: 24 38 (912)
I0403 15:25:01.136762 31741 net.cpp:156] Memory required for data: 1346079072
I0403 15:25:01.136778 31741 layer_factory.hpp:77] Creating layer loss1/loss
I0403 15:25:01.136801 31741 net.cpp:91] Creating Layer loss1/loss
I0403 15:25:01.136819 31741 net.cpp:425] loss1/loss <- loss1/classifier_plantvillage_loss1/classifier_plantvillage_0_split_0
I0403 15:25:01.136852 31741 net.cpp:425] loss1/loss <- label_data_1_split_0
…
