…
I0403 15:17:44.288481 31417 net.cpp:313] The NetState phase (1) differed from the phase (0) specified by a rule in layer data
I0403 15:17:44.289625 31417 net.cpp:49] Initializing net from parameters: 
state {
  phase: TEST
}
layer {
  name: "data"
  type: "Data"
  top: "data"
  top: "label"
  include {
    phase: TEST
  }
  transform_param {
    mirror: false
    crop_size: 224
    mean_file: "/home/mohanty/data/final_dataset/lmdb/color-60-40/mean.binaryproto"
  }
  data_param {
    source: "/home/mohanty/data/final_dataset/lmdb/color-60-40/test_db"
    batch_size: 24
    backend: LMDB
  }
}
layer {
  name: "conv1/7x7_s2"
  type: "Convolution"
  bottom: "data"
  top: "conv1/7x7_s2"
  param {
    lr_mult: 1
    decay_mult: 1
  }
  param {
    lr_mult: 2
    decay_mult: 0
  }
  convolution_param {
    num_output: 64
    pad: 3
    kernel_size: 7
    stride: 2
    weight_filler {
      type: "xavier"
      std: 0.1
    }
    bias_filler {
      type: "constant"
      value: 0.2
    }
  }
}
layer {
  name: "conv1/relu_7x7"
  type: "ReLU"
  bottom: "conv1/7x7_s2"
  top: "conv1/7x7_s2"
}
layer {
  name: "pool1/3x3_s2"
  type: "Pooling"
  bottom: "conv1/7x7_s2"
  top: "pool1/3x3_s2"
  pooling_param {
    pool: MAX
    kernel_size: 3
    stride: 2
  }
}
layer {
  name: "pool1/norm1"
  type: "LRN"
  bottom: "pool1/3x3_s2"
  top: "pool1/norm1"
  lrn_param {
    local_size: 5
    alpha: 0.0001
    beta: 0.75
  }
}
layer {
  name: "conv2/3x3_reduce"
  type: "Convolution"
  bottom: "pool1/norm1"
  top: "conv2/3x3_reduce"
  param {
    lr_mult: 1
    decay_mult: 1
  }
  param {
    lr_mult: 2
    decay_mult: 0
  }
  convolution_param {
    num_output: 64
    kernel_size: 1
    weight_filler {
      type: "xavier"
      std: 0.1
    }
    bias_filler {
      type: "constant"
      value: 0.2
    }
  }
}
layer {
  name: "conv2/relu_3x3_reduce"
  type: "ReLU"
  bottom: "conv2/3x3_reduce"
  top: "conv2/3x3_reduce"
}
layer {
  name: "conv2/3x3"
  type: "Convolution"
  bottom: "conv2/3x3_reduce"
  top: "conv2/3x3"
  param {
    lr_mult: 1
    decay_mult: 1
  }
  param {
    lr_mult: 2
    decay_mult: 0
  }
  convolution_param {
    num_output: 192
    pad: 1
    kernel_size: 3
    weight_filler {
      type: "xavier"
      std: 0.03
    }
    bias_filler {
      type: "constant"
      value: 0.2
    }
  }
}
layer {
  name: "conv2/relu_3x3"
  type: "ReLU"
  bottom: "conv2/3x3"
  top: "conv2/3x3"
}
layer {
  name: "conv2/norm2"
  type: "LRN"
  bottom: "conv2/3x3"
  top: "conv2/norm2"
  lrn_param {
    local_size: 5
    alpha: 0.0001
    beta: 0.75
  }
}
layer {
  name: "pool2/3x3_s2"
  type: "Pooling"
  bottom: "conv2/norm2"
  top: "pool2/3x3_s2"
  pooling_param {
    pool: MAX
    kernel_size: 3
    stride: 2
  }
}
layer {
  name: "inception_3a/1x1"
  type: "Convolution"
  bottom: "pool2/3x3_s2"
  top: "inception_3a/1x1"
  param {
    lr_mult: 1
    decay_mult: 1
  }
  param {
    lr_mult: 2
    decay_mult: 0
  }
  convolution_param {
    num_output: 64
    kernel_size: 1
    weight_filler {
      type: "xavier"
      std: 0.03
    }
    bias_filler {
      type: "constant"
      value: 0.2
    }
  }
}
layer {
  name: "inception_3a/relu_1x1"
  type: "ReLU"
  bottom: "inception_3a/1x1"
  top: "inception_3a/1x1"
}
layer {
  name: "inception_3a/3x3_reduce"
  type: "Convolution"
  bottom: "pool2/3x3_s2"
  top: "inception_3a/3x3_reduce"
  param {
    lr_mult: 1
    decay_mult: 1
  }
  param {
    lr_mult: 2
    decay_mult: 0
  }
  convolution_param {
    num_output: 96
    kernel_size: 1
    weight_filler {
      type: "xavier"
      std: 0.09
    }
    bias_filler {
      type: "constant"
      value: 0.2
    }
  }
}
layer {
  name: "inception_3a/relu_3x3_reduce"
  type: "ReLU"
  bottom: "inception_3a/3x3_reduce"
  top: "inception_3a/3x3_reduce"
}
layer {
  name: "inception_3a/3x3"
  type: "Convolution"
  bottom: "inception_3a/3x3_reduce"
  top: "inception_3a/3x3"
  param {
    lr_mult: 1
    decay_mult: 1
  }
  param {
    lr_mult: 2
    decay_mult: 0
  }
  convolution_param {
    num_output: 128
    pad: 1
    kernel_size: 3
    weight_filler {
      type: "xavier"
      std: 0.03
    }
    bias_filler {
      type: "constant"
      value: 0.2
    }
  }
}
layer {
  name: "inception_3a/relu_3x3"
  type: "ReLU"
  bottom: "inception_3a/3x3"
  top: "inception_3a/3x3"
}
layer {
  name: "inception_3a/5x5_reduce"
  type: "Convolution"
  bottom: "pool2/3x3_s2"
  top: "inception_3a/5x5_reduce"
  param {
    lr_mult: 1
    decay_mult: 1
  }
  param {
    lr_mult: 2
    decay_mult: 0
  }
  convolution_param {
    num_output: 16
    kernel_size: 1
    weight_filler {
      type: "xavier"
      std: 0.2
    }
    bias_filler {
      type: "constant"
      value: 0.2
    }
  }
}
layer {
  name: "inception_3a/relu_5x5_reduce"
  type: "ReLU"
  bottom: "inception_3a/5x5_reduce"
  top: "inception_3a/5x5_reduce"
}
layer {
  name: "inception_3a/5x5"
  type: "Convolution"
  bottom: "inception_3a/5x5_reduce"
  top: "inception_3a/5x5"
  param {
    lr_mult: 1
    decay_mult: 1
  }
  param {
    lr_mult: 2
    decay_mult: 0
  }
  convolution_param {
    num_output: 32
    pad: 2
    kernel_size: 5
    weight_filler {
      type: "xavier"
      std: 0.03
    }
    bias_filler {
      type: "constant"
      value: 0.2
    }
  }
}
layer {
  name: "inception_3a/relu_5x5"
  type: "ReLU"
  bottom: "inception_3a/5x5"
  top: "inception_3a/5x5"
}
layer {
  name: "inception_3a/pool"
  type: "Pooling"
  bottom: "pool2/3x3_s2"
  top: "inception_3a/pool"
  pooling_param {
    pool: MAX
    kernel_size: 3
    stride: 1
    pad: 1
  }
}
layer {
  name: "inception_3a/pool_proj"
  type: "Convolution"
  bottom: "inception_3a/pool"
  top: "inception_3a/pool_proj"
  param {
    lr_mult: 1
    decay_mult: 1
  }
  param {
    lr_mult: 2
    decay_mult: 0
  }
  convolution_param {
    num_output: 32
    kernel_size: 1
    weight_filler {
      type: "xavier"
      std: 0.1
    }
    bias_filler {
      type: "constant"
      value: 0.2
    }
  }
}
layer {
  name: "inception_3a/relu_pool_proj"
  type: "ReLU"
  bottom: "inception_3a/pool_proj"
  top: "inception_3a/pool_proj"
}
layer {
  name: "inception_3a/output"
  type: "Concat"
  bottom: "inception_3a/1x1"
  bottom: "inception_3a/3x3"
  bottom: "inception_3a/5x5"
  bottom: "inception_3a/pool_proj"
  top: "inception_3a/output"
}
layer {
  name: "inception_3b/1x1"
  type: "Convolution"
  bottom: "inception_3a/output"
  top: "inception_3b/1x1"
  param {
    lr_mult: 1
    decay_mult: 1
  }
  param {
    lr_mult: 2
    decay_mult: 0
  }
  convolution_param {
    num_output: 128
    kernel_size: 1
    weight_filler {
      type: "xavier"
      std: 0.03
    }
    bias_filler {
      type: "constant"
      value: 0.2
    }
  }
}
layer {
  name: "inception_3b/relu_1x1"
  type: "ReLU"
  bottom: "inception_3b/1x1"
  top: "inception_3b/1x1"
}
layer {
  name: "inception_3b/3x3_reduce"
  type: "Convolution"
  bottom: "inception_3a/output"
  top: "inception_3b/3x3_reduce"
  param {
    lr_mult: 1
    decay_mult: 1
  }
  param {
    lr_mult: 2
    decay_mult: 0
  }
  convolution_param {
    num_output: 128
    kernel_size: 1
    weight_filler {
      type: "xavier"
      std: 0.09
    }
    bias_filler {
      type: "constant"
      value: 0.2
    }
  }
}
layer {
  name: "inception_3b/relu_3x3_reduce"
  type: "ReLU"
  bottom: "inception_3b/3x3_reduce"
  top: "inception_3b/3x3_reduce"
}
layer {
  name: "inception_3b/3x3"
  type: "Convolution"
  bottom: "inception_3b/3x3_reduce"
  top: "inception_3b/3x3"
  param {
    lr_mult: 1
    decay_mult: 1
  }
  param {
    lr_mult: 2
    decay_mult: 0
  }
  convolution_param {
    num_output: 192
    pad: 1
    kernel_size: 3
    weight_filler {
      type: "xavier"
      std: 0.03
    }
    bias_filler {
      type: "constant"
      value: 0.2
    }
  }
}
layer {
  name: "inception_3b/relu_3x3"
  type: "ReLU"
  bottom: "inception_3b/3x3"
  top: "inception_3b/3x3"
}
layer {
  name: "inception_3b/5x5_reduce"
  type: "Convolution"
  bottom: "inception_3a/output"
  top: "inception_3b/5x5_reduce"
  param {
    lr_mult: 1
    decay_mult: 1
  }
  param {
    lr_mult: 2
    decay_mult: 0
  }
  convolution_param {
    num_output: 32
    kernel_size: 1
    weight_filler {
      type: "xavier"
      std: 0.2
    }
    bias_filler {
      type: "constant"
      value: 0.2
    }
  }
}
layer {
  name: "inception_3b/relu_5x5_reduce"
  type: "ReLU"
  bottom: "inception_3b/5x5_reduce"
  top: "inception_3b/5x5_reduce"
}
layer {
  name: "inception_3b/5x5"
  type: "Convolution"
  bottom: "inception_3b/5x5_reduce"
  top: "inception_3b/5x5"
  param {
    lr_mult: 1
    decay_mult: 1
  }
  param {
    lr_mult: 2
    decay_mult: 0
  }
  convolution_param {
    num_output: 96
    pad: 2
    kernel_size: 5
    weight_filler {
      type: "xavier"
      std: 0.03
    }
    bias_filler {
      type: "constant"
      value: 0.2
    }
  }
}
layer {
  name: "inception_3b/relu_5x5"
  type: "ReLU"
  bottom: "inception_3b/5x5"
  top: "inception_3b/5x5"
}
layer {
  name: "inception_3b/pool"
  type: "Pooling"
  bottom: "inception_3a/output"
  top: "inception_3b/pool"
  pooling_param {
    pool: MAX
    kernel_size: 3
    stride: 1
    pad: 1
  }
}
layer {
  name: "inception_3b/pool_proj"
  type: "Convolution"
  bottom: "inception_3b/pool"
  top: "inception_3b/pool_proj"
  param {
    lr_mult: 1
    decay_mult: 1
  }
  param {
    lr_mult: 2
    decay_mult: 0
  }
  convolution_param {
    num_output: 64
    kernel_size: 1
    weight_filler {
      type: "xavier"
      std: 0.1
    }
    bias_filler {
      type: "constant"
      value: 0.2
    }
  }
}
layer {
  name: "inception_3b/relu_pool_proj"
  type: "ReLU"
  bottom: "inception_3b/pool_proj"
  top: "inception_3b/pool_proj"
}
layer {
  name: "inception_3b/output"
  type: "Concat"
  bottom: "inception_3b/1x1"
  bottom: "inception_3b/3x3"
  bottom: "inception_3b/5x5"
  bottom: "inception_3b/pool_proj"
  top: "inception_3b/output"
}
layer {
  name: "pool3/3x3_s2"
  type: "Pooling"
  bottom: "inception_3b/output"
  top: "pool3/3x3_s2"
  pooling_param {
    pool: MAX
    kernel_size: 3
    stride: 2
  }
}
layer {
  name: "inception_4a/1x1"
  type: "Convolution"
  bottom: "pool3/3x3_s2"
  top: "inception_4a/1x1"
  param {
    lr_mult: 1
    decay_mult: 1
  }
  param {
    lr_mult: 2
    decay_mult: 0
  }
  convolution_param {
    num_output: 192
    kernel_size: 1
    weight_filler {
      type: "xavier"
      std: 0.03
    }
    bias_filler {
      type: "constant"
      value: 0.2
    }
  }
}
layer {
  name: "inception_4a/relu_1x1"
  type: "ReLU"
  bottom: "inception_4a/1x1"
  top: "inception_4a/1x1"
}
layer {
  name: "inception_4a/3x3_reduce"
  type: "Convolution"
  bottom: "pool3/3x3_s2"
  top: "inception_4a/3x3_reduce"
  param {
    lr_mult: 1
    decay_mult: 1
  }
  param {
    lr_mult: 2
    decay_mult: 0
  }
  convolution_param {
    num_output: 96
    kernel_size: 1
    weight_filler {
      type: "xavier"
      std: 0.09
    }
    bias_filler {
      type: "constant"
      value: 0.2
    }
  }
}
layer {
  name: "inception_4a/relu_3x3_reduce"
  type: "ReLU"
  bottom: "inception_4a/3x3_reduce"
  top: "inception_4a/3x3_reduce"
}
layer {
  name: "inception_4a/3x3"
  type: "Convolution"
  bottom: "inception_4a/3x3_reduce"
  top: "inception_4a/3x3"
  param {
    lr_mult: 1
    decay_mult: 1
  }
  param {
    lr_mult: 2
    decay_mult: 0
  }
  convolution_param {
    num_output: 208
    pad: 1
    kernel_size: 3
    weight_filler {
      type: "xavier"
      std: 0.03
    }
    bias_filler {
      type: "constant"
      value: 0.2
    }
  }
}
layer {
  name: "inception_4a/relu_3x3"
  type: "ReLU"
  bottom: "inception_4a/3x3"
  top: "inception_4a/3x3"
}
layer {
  name: "inception_4a/5x5_reduce"
  type: "Convolution"
  bottom: "pool3/3x3_s2"
  top: "inception_4a/5x5_reduce"
  param {
    lr_mult: 1
    decay_mult: 1
  }
  param {
    lr_mult: 2
    decay_mult: 0
  }
  convolution_param {
    num_output: 16
    kernel_size: 1
    weight_filler {
      type: "xavier"
      std: 0.2
    }
    bias_filler {
      type: "constant"
      value: 0.2
    }
  }
}
layer {
  name: "inception_4a/relu_5x5_reduce"
  type: "ReLU"
  bottom: "inception_4a/5x5_reduce"
  top: "inception_4a/5x5_reduce"
}
layer {
  name: "inception_4a/5x5"
  type: "Convolution"
  bottom: "inception_4a/5x5_reduce"
  top: "inception_4a/5x5"
  param {
    lr_mult: 1
    decay_mult: 1
  }
  param {
    lr_mult: 2
    decay_mult: 0
  }
  convolution_param {
    num_output: 48
    pad: 2
    kernel_size: 5
    weight_filler {
      type: "xavier"
      std: 0.03
    }
    bias_filler {
      type: "constant"
      value: 0.2
    }
  }
}
layer {
  name: "inception_4a/relu_5x5"
  type: "ReLU"
  bottom: "inception_4a/5x5"
  top: "inception_4a/5x5"
}
layer {
  name: "inception_4a/pool"
  type: "Pooling"
  bottom: "pool3/3x3_s2"
  top: "inception_4a/pool"
  pooling_param {
    pool: MAX
    kernel_size: 3
    stride: 1
    pad: 1
  }
}
layer {
  name: "inception_4a/pool_proj"
  type: "Convolution"
  bottom: "inception_4a/pool"
  top: "inception_4a/pool_proj"
  param {
    lr_mult: 1
    decay_mult: 1
  }
  param {
    lr_mult: 2
    decay_mult: 0
  }
  convolution_param {
    num_output: 64
    kernel_size: 1
    weight_filler {
      type: "xavier"
      std: 0.1
    }
    bias_filler {
      type: "constant"
      value: 0.2
    }
  }
}
layer {
  name: "inception_4a/relu_pool_proj"
  type: "ReLU"
  bottom: "inception_4a/pool_proj"
  top: "inception_4a/pool_proj"
}
layer {
  name: "inception_4a/output"
  type: "Concat"
  bottom: "inception_4a/1x1"
  bottom: "inception_4a/3x3"
  bottom: "inception_4a/5x5"
  bottom: "inception_4a/pool_proj"
  top: "inception_4a/output"
}
layer {
  name: "loss1/ave_pool"
  type: "Pooling"
  bottom: "inception_4a/output"
  top: "loss1/ave_pool"
  pooling_param {
    pool: AVE
    kernel_size: 5
    stride: 3
  }
}
layer {
  name: "loss1/conv"
  type: "Convolution"
  bottom: "loss1/ave_pool"
  top: "loss1/conv"
  param {
    lr_mult: 1
    decay_mult: 1
  }
  param {
    lr_mult: 2
    decay_mult: 0
  }
  convolution_param {
    num_output: 128
    kernel_size: 1
    weight_filler {
      type: "xavier"
      std: 0.08
    }
    bias_filler {
      type: "constant"
      value: 0.2
    }
  }
}
layer {
  name: "loss1/relu_conv"
  type: "ReLU"
  bottom: "loss1/conv"
  top: "loss1/conv"
}
layer {
  name: "loss1/fc"
  type: "InnerProduct"
  bottom: "loss1/conv"
  top: "loss1/fc"
  param {
    lr_mult: 1
    decay_mult: 1
  }
  param {
    lr_mult: 2
    decay_mult: 0
  }
  inner_product_param {
    num_output: 1024
    weight_filler {
      type: "xavier"
      std: 0.02
    }
    bias_filler {
      type: "constant"
      value: 0.2
    }
  }
}
layer {
  name: "loss1/relu_fc"
  type: "ReLU"
  bottom: "loss1/fc"
  top: "loss1/fc"
}
layer {
  name: "loss1/drop_fc"
  type: "Dropout"
  bottom: "loss1/fc"
  top: "loss1/fc"
  dropout_param {
    dropout_ratio: 0.7
  }
}
layer {
  name: "loss1/classifier_plantvillage"
  type: "InnerProduct"
  bottom: "loss1/fc"
  top: "loss1/classifier_plantvillage"
  param {
    lr_mult: 1
    decay_mult: 1
  }
  param {
    lr_mult: 2
    decay_mult: 0
  }
  inner_product_param {
    num_output: 38
    weight_filler {
      type: "xavier"
      std: 0.0009765625
    }
    bias_filler {
      type: "constant"
      value: 0
    }
  }
}
layer {
  name: "inception_4b/1x1"
  type: "Convolution"
  bottom: "inception_4a/output"
  top: "inception_4b/1x1"
  param {
    lr_mult: 1
    decay_mult: 1
  }
  param {
    lr_mult: 2
    decay_mult: 0
  }
  convolution_param {
    num_output: 160
    kernel_size: 1
    weight_filler {
      type: "xavier"
      std: 0.03
    }
    bias_filler {
      type: "constant"
      value: 0.2
    }
  }
}
layer {
  name: "inception_4b/relu_1x1"
  type: "ReLU"
  bottom: "inception_4b/1x1"
  top: "inception_4b/1x1"
}
layer {
  name: "inception_4b/3x3_reduce"
  type: "Convolution"
  bottom: "inception_4a/output"
  top: "inception_4b/3x3_reduce"
  param {
    lr_mult: 1
    decay_mult: 1
  }
  param {
    lr_mult: 2
    decay_mult: 0
  }
  convolution_param {
    num_output: 112
    kernel_size: 1
    weight_filler {
      type: "xavier"
      std: 0.09
    }
    bias_filler {
      type: "constant"
      value: 0.2
    }
  }
}
layer {
  name: "inception_4b/relu_3x3_reduce"
  type: "ReLU"
  bottom: "inception_4b/3x3_reduce"
  top: "inception_4b/3x3_reduce"
}
layer {
  name: "inception_4b/3x3"
  type: "Convolution"
  bottom: "inception_4b/3x3_reduce"
  top: "inception_4b/3x3"
  param {
    lr_mult: 1
    decay_mult: 1
  }
  param {
    lr_mult: 2
    decay_mult: 0
  }
  convolution_param {
    num_output: 224
    pad: 1
    kernel_size: 3
    weight_filler {
      type: "xavier"
      std: 0.03
    }
    bias_filler {
      type: "constant"
      value: 0.2
    }
  }
}
layer {
  name: "inception_4b/relu_3x3"
  type: "ReLU"
  bottom: "inception_4b/3x3"
  top: "inception_4b/3x3"
}
layer {
  name: "inception_4b/5x5_reduce"
  type: "Convolution"
  bottom: "inception_4a/output"
  top: "inception_4b/5x5_reduce"
  param {
    lr_mult: 1
    decay_mult: 1
  }
  param {
    lr_mult: 2
    decay_mult: 0
  }
  convolution_param {
    num_output: 24
    kernel_size: 1
    weight_filler {
      type: "xavier"
      std: 0.2
    }
    bias_filler {
      type: "constant"
      value: 0.2
    }
  }
}
layer {
  name: "inception_4b/relu_5x5_reduce"
  type: "ReLU"
  bottom: "inception_4b/5x5_reduce"
  top: "inception_4b/5x5_reduce"
}
layer {
  name: "inception_4b/5x5"
  type: "Convolution"
  bottom: "inception_4b/5x5_reduce"
  top: "inception_4b/5x5"
  param {
    lr_mult: 1
    decay_mult: 1
  }
  param {
    lr_mult: 2
    decay_mult: 0
  }
  convolution_param {
    num_output: 64
    pad: 2
    kernel_size: 5
    weight_filler {
      type: "xavier"
      std: 0.03
    }
    bias_filler {
      type: "constant"
      value: 0.2
    }
  }
}
layer {
  name: "inception_4b/relu_5x5"
  type: "ReLU"
  bottom: "inception_4b/5x5"
  top: "inception_4b/5x5"
}
layer {
  name: "inception_4b/pool"
  type: "Pooling"
  bottom: "inception_4a/output"
  top: "inception_4b/pool"
  pooling_param {
    pool: MAX
    kernel_size: 3
    stride: 1
    pad: 1
  }
}
layer {
  name: "inception_4b/pool_proj"
  type: "Convolution"
  bottom: "inception_4b/pool"
  top: "inception_4b/pool_proj"
  param {
    lr_mult: 1
    decay_mult: 1
  }
  param {
    lr_mult: 2
    decay_mult: 0
  }
  convolution_param {
    num_output: 64
    kernel_size: 1
    weight_filler {
      type: "xavier"
      std: 0.1
    }
    bias_filler {
      type: "constant"
      value: 0.2
    }
  }
}
layer {
  name: "inception_4b/relu_pool_proj"
  type: "ReLU"
  bottom: "inception_4b/pool_proj"
  top: "inception_4b/pool_proj"
}
layer {
  name: "inception_4b/output"
  type: "Concat"
  bottom: "inception_4b/1x1"
  bottom: "inception_4b/3x3"
  bottom: "inception_4b/5x5"
  bottom: "inception_4b/pool_proj"
  top: "inception_4b/output"
}
layer {
  name: "inception_4c/1x1"
  type: "Convolution"
  bottom: "inception_4b/output"
  top: "inception_4c/1x1"
  param {
    lr_mult: 1
    decay_mult: 1
  }
  param {
    lr_mult: 2
    decay_mult: 0
  }
  convolution_param {
    num_output: 128
    kernel_size: 1
    weight_filler {
      type: "xavier"
      std: 0.03
    }
    bias_filler {
      type: "constant"
      value: 0.2
    }
  }
}
layer {
  name: "inception_4c/relu_1x1"
  type: "ReLU"
  bottom: "inception_4c/1x1"
  top: "inception_4c/1x1"
}
layer {
  name: "inception_4c/3x3_reduce"
  type: "Convolution"
  bottom: "inception_4b/output"
  top: "inception_4c/3x3_reduce"
  param {
    lr_mult: 1
    decay_mult: 1
  }
  param {
    lr_mult: 2
    decay_mult: 0
  }
  convolution_param {
    num_output: 128
    kernel_size: 1
    weight_filler {
      type: "xavier"
      std: 0.09
    }
    bias_filler {
      type: "constant"
      value: 0.2
    }
  }
}
layer {
  name: "inception_4c/relu_3x3_reduce"
  type: "ReLU"
  bottom: "inception_4c/3x3_reduce"
  top: "inception_4c/3x3_reduce"
}
layer {
  name: "inception_4c/3x3"
  type: "Convolution"
  bottom: "inception_4c/3x3_reduce"
  top: "inception_4c/3x3"
  param {
    lr_mult: 1
    decay_mult: 1
  }
  param {
    lr_mult: 2
    decay_mult: 0
  }
  convolution_param {
    num_output: 256
    pad: 1
    kernel_size: 3
    weight_filler {
      type: "xavier"
      std: 0.03
    }
    bias_filler {
      type: "constant"
      value: 0.2
    }
  }
}
layer {
  name: "inception_4c/relu_3x3"
  type: "ReLU"
  bottom: "inception_4c/3x3"
  top: "inception_4c/3x3"
}
layer {
  name: "inception_4c/5x5_reduce"
  type: "Convolution"
  bottom: "inception_4b/output"
  top: "inception_4c/5x5_reduce"
  param {
    lr_mult: 1
    decay_mult: 1
  }
  param {
    lr_mult: 2
    decay_mult: 0
  }
  convolution_param {
    num_output: 24
    kernel_size: 1
    weight_filler {
      type: "xavier"
      std: 0.2
    }
    bias_filler {
      type: "constant"
      value: 0.2
    }
  }
}
layer {
  name: "inception_4c/relu_5x5_reduce"
  type: "ReLU"
  bottom: "inception_4c/5x5_reduce"
  top: "inception_4c/5x5_reduce"
}
layer {
  name: "inception_4c/5x5"
  type: "Convolution"
  bottom: "inception_4c/5x5_reduce"
  top: "inception_4c/5x5"
  param {
    lr_mult: 1
    decay_mult: 1
  }
  param {
    lr_mult: 2
    decay_mult: 0
  }
  convolution_param {
    num_output: 64
    pad: 2
    kernel_size: 5
    weight_filler {
      type: "xavier"
      std: 0.03
    }
    bias_filler {
      type: "constant"
      value: 0.2
    }
  }
}
layer {
  name: "inception_4c/relu_5x5"
  type: "ReLU"
  bottom: "inception_4c/5x5"
  top: "inception_4c/5x5"
}
layer {
  name: "inception_4c/pool"
  type: "Pooling"
  bottom: "inception_4b/output"
  top: "inception_4c/pool"
  pooling_param {
    pool: MAX
    kernel_size: 3
    stride: 1
    pad: 1
  }
}
layer {
  name: "inception_4c/pool_proj"
  type: "Convolution"
  bottom: "inception_4c/pool"
  top: "inception_4c/pool_proj"
  param {
    lr_mult: 1
    decay_mult: 1
  }
  param {
    lr_mult: 2
    decay_mult: 0
  }
  convolution_param {
    num_output: 64
    kernel_size: 1
    weight_filler {
      type: "xavier"
      std: 0.1
    }
    bias_filler {
      type: "constant"
      value: 0.2
    }
  }
}
layer {
  name: "inception_4c/relu_pool_proj"
  type: "ReLU"
  bottom: "inception_4c/pool_proj"
  top: "inception_4c/pool_proj"
}
layer {
  name: "inception_4c/output"
  type: "Concat"
  bottom: "inception_4c/1x1"
  bottom: "inception_4c/3x3"
  bottom: "inception_4c/5x5"
  bottom: "inception_4c/pool_proj"
  top: "inception_4c/output"
}
layer {
  name: "inception_4d/1x1"
  type: "Convolution"
  bottom: "inception_4c/output"
  top: "inception_4d/1x1"
  param {
    lr_mult: 1
    decay_mult: 1
  }
  param {
    lr_mult: 2
    decay_mult: 0
  }
  convolution_param {
    num_output: 112
    kernel_size: 1
    weight_filler {
      type: "xavier"
      std: 0.03
    }
    bias_filler {
      type: "constant"
      value: 0.2
    }
  }
}
layer {
  name: "inception_4d/relu_1x1"
  type: "ReLU"
  bottom: "inception_4d/1x1"
  top: "inception_4d/1x1"
}
layer {
  name: "inception_4d/3x3_reduce"
  type: "Convolution"
  bottom: "inception_4c/output"
  top: "inception_4d/3x3_reduce"
  param {
    lr_mult: 1
    decay_mult: 1
  }
  param {
    lr_mult: 2
    decay_mult: 0
  }
  convolution_param {
    num_output: 144
    kernel_size: 1
    weight_filler {
      type: "xavier"
      std: 0.09
    }
    bias_filler {
      type: "constant"
      value: 0.2
    }
  }
}
layer {
  name: "inception_4d/relu_3x3_reduce"
  type: "ReLU"
  bottom: "inception_4d/3x3_reduce"
  top: "inception_4d/3x3_reduce"
}
layer {
  name: "inception_4d/3x3"
  type: "Convolution"
  bottom: "inception_4d/3x3_reduce"
  top: "inception_4d/3x3"
  param {
    lr_mult: 1
    decay_mult: 1
  }
  param {
    lr_mult: 2
    decay_mult: 0
  }
  convolution_param {
    num_output: 288
    pad: 1
    kernel_size: 3
    weight_filler {
      type: "xavier"
      std: 0.03
    }
    bias_filler {
      type: "constant"
      value: 0.2
    }
  }
}
layer {
  name: "inception_4d/relu_3x3"
  type: "ReLU"
  bottom: "inception_4d/3x3"
  top: "inception_4d/3x3"
}
layer {
  name: "inception_4d/5x5_reduce"
  type: "Convolution"
  bottom: "inception_4c/output"
  top: "inception_4d/5x5_reduce"
  param {
    lr_mult: 1
    decay_mult: 1
  }
  param {
    lr_mult: 2
    decay_mult: 0
  }
  convolution_param {
    num_output: 32
    kernel_size: 1
    weight_filler {
      type: "xavier"
      std: 0.2
    }
    bias_filler {
      type: "constant"
      value: 0.2
    }
  }
}
layer {
  name: "inception_4d/relu_5x5_reduce"
  type: "ReLU"
  bottom: "inception_4d/5x5_reduce"
  top: "inception_4d/5x5_reduce"
}
layer {
  name: "inception_4d/5x5"
  type: "Convolution"
  bottom: "inception_4d/5x5_reduce"
  top: "inception_4d/5x5"
  param {
    lr_mult: 1
    decay_mult: 1
  }
  param {
    lr_mult: 2
    decay_mult: 0
  }
  convolution_param {
    num_output: 64
    pad: 2
    kernel_size: 5
    weight_filler {
      type: "xavier"
      std: 0.03
    }
    bias_filler {
      type: "constant"
      value: 0.2
    }
  }
}
layer {
  name: "inception_4d/relu_5x5"
  type: "ReLU"
  bottom: "inception_4d/5x5"
  top: "inception_4d/5x5"
}
layer {
  name: "inception_4d/pool"
  type: "Pooling"
  bottom: "inception_4c/output"
  top: "inception_4d/pool"
  pooling_param {
    pool: MAX
    kernel_size: 3
    stride: 1
    pad: 1
  }
}
layer {
  name: "inception_4d/pool_proj"
  type: "Convolution"
  bottom: "inception_4d/pool"
  top: "inception_4d/pool_proj"
  param {
    lr_mult: 1
    decay_mult: 1
  }
  param {
    lr_mult: 2
    decay_mult: 0
  }
  convolution_param {
    num_output: 64
    kernel_size: 1
    weight_filler {
      type: "xavier"
      std: 0.1
    }
    bias_filler {
      type: "constant"
      value: 0.2
    }
  }
}
layer {
  name: "inception_4d/relu_pool_proj"
  type: "ReLU"
  bottom: "inception_4d/pool_proj"
  top: "inception_4d/pool_proj"
}
layer {
  name: "inception_4d/output"
  type: "Concat"
  bottom: "inception_4d/1x1"
  bottom: "inception_4d/3x3"
  bottom: "inception_4d/5x5"
  bottom: "inception_4d/pool_proj"
  top: "inception_4d/output"
}
layer {
  name: "loss2/ave_pool"
  type: "Pooling"
  bottom: "inception_4d/output"
  top: "loss2/ave_pool"
  pooling_param {
    pool: AVE
    kernel_size: 5
    stride: 3
  }
}
layer {
  name: "loss2/conv"
  type: "Convolution"
  bottom: "loss2/ave_pool"
  top: "loss2/conv"
  param {
    lr_mult: 1
    decay_mult: 1
  }
  param {
    lr_mult: 2
    decay_mult: 0
  }
  convolution_param {
    num_output: 128
    kernel_size: 1
    weight_filler {
      type: "xavier"
      std: 0.08
    }
    bias_filler {
      type: "constant"
      value: 0.2
    }
  }
}
layer {
  name: "loss2/relu_conv"
  type: "ReLU"
  bottom: "loss2/conv"
  top: "loss2/conv"
}
layer {
  name: "loss2/fc"
  type: "InnerProduct"
  bottom: "loss2/conv"
  top: "loss2/fc"
  param {
    lr_mult: 1
    decay_mult: 1
  }
  param {
    lr_mult: 2
    decay_mult: 0
  }
  inner_product_param {
    num_output: 1024
    weight_filler {
      type: "xavier"
      std: 0.02
    }
    bias_filler {
      type: "constant"
      value: 0.2
    }
  }
}
layer {
  name: "loss2/relu_fc"
  type: "ReLU"
  bottom: "loss2/fc"
  top: "loss2/fc"
}
layer {
  name: "loss2/drop_fc"
  type: "Dropout"
  bottom: "loss2/fc"
  top: "loss2/fc"
  dropout_param {
    dropout_ratio: 0.7
  }
}
layer {
  name: "loss2/classifier_plantvillage"
  type: "InnerProduct"
  bottom: "loss2/fc"
  top: "loss2/classifier_plantvillage"
  param {
    lr_mult: 1
    decay_mult: 1
  }
  param {
    lr_mult: 2
    decay_mult: 0
  }
  inner_product_param {
    num_output: 38
    weight_filler {
      type: "xavier"
      std: 0.0009765625
    }
    bias_filler {
      type: "constant"
      value: 0
    }
  }
}
layer {
  name: "inception_4e/1x1"
  type: "Convolution"
  bottom: "inception_4d/output"
  top: "inception_4e/1x1"
  param {
    lr_mult: 1
    decay_mult: 1
  }
  param {
    lr_mult: 2
    decay_mult: 0
  }
  convolution_param {
    num_output: 256
    kernel_size: 1
    weight_filler {
      type: "xavier"
      std: 0.03
    }
    bias_filler {
      type: "constant"
      value: 0.2
    }
  }
}
layer {
  name: "inception_4e/relu_1x1"
  type: "ReLU"
  bottom: "inception_4e/1x1"
  top: "inception_4e/1x1"
}
layer {
  name: "inception_4e/3x3_reduce"
  type: "Convolution"
  bottom: "inception_4d/output"
  top: "inception_4e/3x3_reduce"
  param {
    lr_mult: 1
    decay_mult: 1
  }
  param {
    lr_mult: 2
    decay_mult: 0
  }
  convolution_param {
    num_output: 160
    kernel_size: 1
    weight_filler {
      type: "xavier"
      std: 0.09
    }
    bias_filler {
      type: "constant"
      value: 0.2
    }
  }
}
layer {
  name: "inception_4e/relu_3x3_reduce"
  type: "ReLU"
  bottom: "inception_4e/3x3_reduce"
  top: "inception_4e/3x3_reduce"
}
layer {
  name: "inception_4e/3x3"
  type: "Convolution"
  bottom: "inception_4e/3x3_reduce"
  top: "inception_4e/3x3"
  param {
    lr_mult: 1
    decay_mult: 1
  }
  param {
    lr_mult: 2
    decay_mult: 0
  }
  convolution_param {
    num_output: 320
    pad: 1
    kernel_size: 3
    weight_filler {
      type: "xavier"
      std: 0.03
    }
    bias_filler {
      type: "constant"
      value: 0.2
    }
  }
}
layer {
  name: "inception_4e/relu_3x3"
  type: "ReLU"
  bottom: "inception_4e/3x3"
  top: "inception_4e/3x3"
}
layer {
  name: "inception_4e/5x5_reduce"
  type: "Convolution"
  bottom: "inception_4d/output"
  top: "inception_4e/5x5_reduce"
  param {
    lr_mult: 1
    decay_mult: 1
  }
  param {
    lr_mult: 2
    decay_mult: 0
  }
  convolution_param {
    num_output: 32
    kernel_size: 1
    weight_filler {
      type: "xavier"
      std: 0.2
    }
    bias_filler {
      type: "constant"
      value: 0.2
    }
  }
}
layer {
  name: "inception_4e/relu_5x5_reduce"
  type: "ReLU"
  bottom: "inception_4e/5x5_reduce"
  top: "inception_4e/5x5_reduce"
}
layer {
  name: "inception_4e/5x5"
  type: "Convolution"
  bottom: "inception_4e/5x5_reduce"
  top: "inception_4e/5x5"
  p
I0403 15:17:44.290853 31417 layer_factory.hpp:77] Creating layer data
I0403 15:17:44.291460 31417 net.cpp:91] Creating Layer data
I0403 15:17:44.291494 31417 net.cpp:399] data -> data
I0403 15:17:44.291548 31417 net.cpp:399] data -> label
I0403 15:17:44.291585 31417 data_transformer.cpp:25] Loading mean file from: /home/mohanty/data/final_dataset/lmdb/color-60-40/mean.binaryproto
I0403 15:17:44.298952 31424 db_lmdb.cpp:38] Opened lmdb /home/mohanty/data/final_dataset/lmdb/color-60-40/test_db
I0403 15:17:44.307399 31417 data_layer.cpp:41] output data size: 24,3,224,224
I0403 15:17:46.396435 31417 net.cpp:141] Setting up data
I0403 15:17:46.396550 31417 net.cpp:148] Top shape: 24 3 224 224 (3612672)
I0403 15:17:46.396576 31417 net.cpp:148] Top shape: 24 (24)
I0403 15:17:46.396592 31417 net.cpp:156] Memory required for data: 14450784
I0403 15:17:46.396622 31417 layer_factory.hpp:77] Creating layer label_data_1_split
I0403 15:17:46.396653 31417 net.cpp:91] Creating Layer label_data_1_split
I0403 15:17:46.396684 31417 net.cpp:425] label_data_1_split <- label
I0403 15:17:46.396718 31417 net.cpp:399] label_data_1_split -> label_data_1_split_0
I0403 15:17:46.396746 31417 net.cpp:399] label_data_1_split -> label_data_1_split_1
I0403 15:17:46.396769 31417 net.cpp:399] label_data_1_split -> label_data_1_split_2
I0403 15:17:46.396790 31417 net.cpp:399] label_data_1_split -> label_data_1_split_3
I0403 15:17:46.396812 31417 net.cpp:399] label_data_1_split -> label_data_1_split_4
I0403 15:17:46.396833 31417 net.cpp:399] label_data_1_split -> label_data_1_split_5
I0403 15:17:46.396854 31417 net.cpp:399] label_data_1_split -> label_data_1_split_6
I0403 15:17:46.396888 31417 net.cpp:399] label_data_1_split -> label_data_1_split_7
I0403 15:17:46.396908 31417 net.cpp:399] label_data_1_split -> label_data_1_split_8
I0403 15:17:46.396927 31417 net.cpp:399] label_data_1_split -> label_data_1_split_9
I0403 15:17:46.397675 31417 net.cpp:141] Setting up label_data_1_split
I0403 15:17:46.397758 31417 net.cpp:148] Top shape: 24 (24)
I0403 15:17:46.397776 31417 net.cpp:148] Top shape: 24 (24)
I0403 15:17:46.397794 31417 net.cpp:148] Top shape: 24 (24)
I0403 15:17:46.397810 31417 net.cpp:148] Top shape: 24 (24)
I0403 15:17:46.397828 31417 net.cpp:148] Top shape: 24 (24)
I0403 15:17:46.397846 31417 net.cpp:148] Top shape: 24 (24)
I0403 15:17:46.397863 31417 net.cpp:148] Top shape: 24 (24)
I0403 15:17:46.397881 31417 net.cpp:148] Top shape: 24 (24)
I0403 15:17:46.397897 31417 net.cpp:148] Top shape: 24 (24)
I0403 15:17:46.397914 31417 net.cpp:148] Top shape: 24 (24)
I0403 15:17:46.397977 31417 net.cpp:156] Memory required for data: 14451744
I0403 15:17:46.398016 31417 layer_factory.hpp:77] Creating layer conv1/7x7_s2
I0403 15:17:46.398097 31417 net.cpp:91] Creating Layer conv1/7x7_s2
I0403 15:17:46.398167 31417 net.cpp:425] conv1/7x7_s2 <- data
I0403 15:17:46.398197 31417 net.cpp:399] conv1/7x7_s2 -> conv1/7x7_s2
I0403 15:17:46.584213 31417 net.cpp:141] Setting up conv1/7x7_s2
I0403 15:17:46.584307 31417 net.cpp:148] Top shape: 24 64 112 112 (19267584)
I0403 15:17:46.584348 31417 net.cpp:156] Memory required for data: 91522080
I0403 15:17:46.584386 31417 layer_factory.hpp:77] Creating layer conv1/relu_7x7
I0403 15:17:46.584420 31417 net.cpp:91] Creating Layer conv1/relu_7x7
I0403 15:17:46.584441 31417 net.cpp:425] conv1/relu_7x7 <- conv1/7x7_s2
I0403 15:17:46.584468 31417 net.cpp:386] conv1/relu_7x7 -> conv1/7x7_s2 (in-place)
I0403 15:17:46.584760 31417 net.cpp:141] Setting up conv1/relu_7x7
I0403 15:17:46.584794 31417 net.cpp:148] Top shape: 24 64 112 112 (19267584)
I0403 15:17:46.584815 31417 net.cpp:156] Memory required for data: 168592416
I0403 15:17:46.584833 31417 layer_factory.hpp:77] Creating layer pool1/3x3_s2
I0403 15:17:46.584872 31417 net.cpp:91] Creating Layer pool1/3x3_s2
I0403 15:17:46.584898 31417 net.cpp:425] pool1/3x3_s2 <- conv1/7x7_s2
I0403 15:17:46.584923 31417 net.cpp:399] pool1/3x3_s2 -> pool1/3x3_s2
I0403 15:17:46.585005 31417 net.cpp:141] Setting up pool1/3x3_s2
I0403 15:17:46.585034 31417 net.cpp:148] Top shape: 24 64 56 56 (4816896)
I0403 15:17:46.585052 31417 net.cpp:156] Memory required for data: 187860000
I0403 15:17:46.585067 31417 layer_factory.hpp:77] Creating layer pool1/norm1
I0403 15:17:46.585094 31417 net.cpp:91] Creating Layer pool1/norm1
I0403 15:17:46.585114 31417 net.cpp:425] pool1/norm1 <- pool1/3x3_s2
I0403 15:17:46.585134 31417 net.cpp:399] pool1/norm1 -> pool1/norm1
I0403 15:17:46.585500 31417 net.cpp:141] Setting up pool1/norm1
I0403 15:17:46.585531 31417 net.cpp:148] Top shape: 24 64 56 56 (4816896)
I0403 15:17:46.585548 31417 net.cpp:156] Memory required for data: 207127584
I0403 15:17:46.585564 31417 layer_factory.hpp:77] Creating layer conv2/3x3_reduce
I0403 15:17:46.585592 31417 net.cpp:91] Creating Layer conv2/3x3_reduce
I0403 15:17:46.585610 31417 net.cpp:425] conv2/3x3_reduce <- pool1/norm1
I0403 15:17:46.585631 31417 net.cpp:399] conv2/3x3_reduce -> conv2/3x3_reduce
I0403 15:17:46.587043 31417 net.cpp:141] Setting up conv2/3x3_reduce
I0403 15:17:46.587074 31417 net.cpp:148] Top shape: 24 64 56 56 (4816896)
I0403 15:17:46.587091 31417 net.cpp:156] Memory required for data: 226395168
I0403 15:17:46.587112 31417 layer_factory.hpp:77] Creating layer conv2/relu_3x3_reduce
I0403 15:17:46.587134 31417 net.cpp:91] Creating Layer conv2/relu_3x3_reduce
I0403 15:17:46.587152 31417 net.cpp:425] conv2/relu_3x3_reduce <- conv2/3x3_reduce
I0403 15:17:46.587172 31417 net.cpp:386] conv2/relu_3x3_reduce -> conv2/3x3_reduce (in-place)
I0403 15:17:46.587471 31417 net.cpp:141] Setting up conv2/relu_3x3_reduce
I0403 15:17:46.587501 31417 net.cpp:148] Top shape: 24 64 56 56 (4816896)
I0403 15:17:46.587517 31417 net.cpp:156] Memory required for data: 245662752
I0403 15:17:46.587534 31417 layer_factory.hpp:77] Creating layer conv2/3x3
I0403 15:17:46.587559 31417 net.cpp:91] Creating Layer conv2/3x3
I0403 15:17:46.587579 31417 net.cpp:425] conv2/3x3 <- conv2/3x3_reduce
I0403 15:17:46.587604 31417 net.cpp:399] conv2/3x3 -> conv2/3x3
I0403 15:17:46.589998 31417 net.cpp:141] Setting up conv2/3x3
I0403 15:17:46.590031 31417 net.cpp:148] Top shape: 24 192 56 56 (14450688)
I0403 15:17:46.590049 31417 net.cpp:156] Memory required for data: 303465504
I0403 15:17:46.590072 31417 layer_factory.hpp:77] Creating layer conv2/relu_3x3
I0403 15:17:46.590095 31417 net.cpp:91] Creating Layer conv2/relu_3x3
I0403 15:17:46.590112 31417 net.cpp:425] conv2/relu_3x3 <- conv2/3x3
I0403 15:17:46.590131 31417 net.cpp:386] conv2/relu_3x3 -> conv2/3x3 (in-place)
I0403 15:17:46.590317 31417 net.cpp:141] Setting up conv2/relu_3x3
I0403 15:17:46.590348 31417 net.cpp:148] Top shape: 24 192 56 56 (14450688)
I0403 15:17:46.590394 31417 net.cpp:156] Memory required for data: 361268256
I0403 15:17:46.590411 31417 layer_factory.hpp:77] Creating layer conv2/norm2
I0403 15:17:46.590430 31417 net.cpp:91] Creating Layer conv2/norm2
I0403 15:17:46.590448 31417 net.cpp:425] conv2/norm2 <- conv2/3x3
I0403 15:17:46.590471 31417 net.cpp:399] conv2/norm2 -> conv2/norm2
I0403 15:17:46.590785 31417 net.cpp:141] Setting up conv2/norm2
I0403 15:17:46.590813 31417 net.cpp:148] Top shape: 24 192 56 56 (14450688)
I0403 15:17:46.590829 31417 net.cpp:156] Memory required for data: 419071008
I0403 15:17:46.590845 31417 layer_factory.hpp:77] Creating layer pool2/3x3_s2
I0403 15:17:46.590864 31417 net.cpp:91] Creating Layer pool2/3x3_s2
I0403 15:17:46.590881 31417 net.cpp:425] pool2/3x3_s2 <- conv2/norm2
I0403 15:17:46.590903 31417 net.cpp:399] pool2/3x3_s2 -> pool2/3x3_s2
I0403 15:17:46.590955 31417 net.cpp:141] Setting up pool2/3x3_s2
I0403 15:17:46.590981 31417 net.cpp:148] Top shape: 24 192 28 28 (3612672)
I0403 15:17:46.590997 31417 net.cpp:156] Memory required for data: 433521696
I0403 15:17:46.591012 31417 layer_factory.hpp:77] Creating layer pool2/3x3_s2_pool2/3x3_s2_0_split
I0403 15:17:46.591034 31417 net.cpp:91] Creating Layer pool2/3x3_s2_pool2/3x3_s2_0_split
I0403 15:17:46.591053 31417 net.cpp:425] pool2/3x3_s2_pool2/3x3_s2_0_split <- pool2/3x3_s2
I0403 15:17:46.591074 31417 net.cpp:399] pool2/3x3_s2_pool2/3x3_s2_0_split -> pool2/3x3_s2_pool2/3x3_s2_0_split_0
I0403 15:17:46.591095 31417 net.cpp:399] pool2/3x3_s2_pool2/3x3_s2_0_split -> pool2/3x3_s2_pool2/3x3_s2_0_split_1
I0403 15:17:46.591116 31417 net.cpp:399] pool2/3x3_s2_pool2/3x3_s2_0_split -> pool2/3x3_s2_pool2/3x3_s2_0_split_2
I0403 15:17:46.591137 31417 net.cpp:399] pool2/3x3_s2_pool2/3x3_s2_0_split -> pool2/3x3_s2_pool2/3x3_s2_0_split_3
I0403 15:17:46.591207 31417 net.cpp:141] Setting up pool2/3x3_s2_pool2/3x3_s2_0_split
I0403 15:17:46.591238 31417 net.cpp:148] Top shape: 24 192 28 28 (3612672)
I0403 15:17:46.591255 31417 net.cpp:148] Top shape: 24 192 28 28 (3612672)
I0403 15:17:46.591272 31417 net.cpp:148] Top shape: 24 192 28 28 (3612672)
I0403 15:17:46.591294 31417 net.cpp:148] Top shape: 24 192 28 28 (3612672)
I0403 15:17:46.591310 31417 net.cpp:156] Memory required for data: 491324448
I0403 15:17:46.591326 31417 layer_factory.hpp:77] Creating layer inception_3a/1x1
I0403 15:17:46.591347 31417 net.cpp:91] Creating Layer inception_3a/1x1
I0403 15:17:46.591364 31417 net.cpp:425] inception_3a/1x1 <- pool2/3x3_s2_pool2/3x3_s2_0_split_0
I0403 15:17:46.591387 31417 net.cpp:399] inception_3a/1x1 -> inception_3a/1x1
I0403 15:17:46.593060 31417 net.cpp:141] Setting up inception_3a/1x1
I0403 15:17:46.593092 31417 net.cpp:148] Top shape: 24 64 28 28 (1204224)
I0403 15:17:46.593109 31417 net.cpp:156] Memory required for data: 496141344
I0403 15:17:46.593130 31417 layer_factory.hpp:77] Creating layer inception_3a/relu_1x1
I0403 15:17:46.593152 31417 net.cpp:91] Creating Layer inception_3a/relu_1x1
I0403 15:17:46.593168 31417 net.cpp:425] inception_3a/relu_1x1 <- inception_3a/1x1
I0403 15:17:46.593189 31417 net.cpp:386] inception_3a/relu_1x1 -> inception_3a/1x1 (in-place)
I0403 15:17:46.593415 31417 net.cpp:141] Setting up inception_3a/relu_1x1
I0403 15:17:46.593442 31417 net.cpp:148] Top shape: 24 64 28 28 (1204224)
I0403 15:17:46.593461 31417 net.cpp:156] Memory required for data: 500958240
I0403 15:17:46.593482 31417 layer_factory.hpp:77] Creating layer inception_3a/3x3_reduce
I0403 15:17:46.593509 31417 net.cpp:91] Creating Layer inception_3a/3x3_reduce
I0403 15:17:46.593538 31417 net.cpp:425] inception_3a/3x3_reduce <- pool2/3x3_s2_pool2/3x3_s2_0_split_1
I0403 15:17:46.593559 31417 net.cpp:399] inception_3a/3x3_reduce -> inception_3a/3x3_reduce
I0403 15:17:46.595458 31417 net.cpp:141] Setting up inception_3a/3x3_reduce
I0403 15:17:46.595489 31417 net.cpp:148] Top shape: 24 96 28 28 (1806336)
I0403 15:17:46.595505 31417 net.cpp:156] Memory required for data: 508183584
I0403 15:17:46.595528 31417 layer_factory.hpp:77] Creating layer inception_3a/relu_3x3_reduce
I0403 15:17:46.595564 31417 net.cpp:91] Creating Layer inception_3a/relu_3x3_reduce
I0403 15:17:46.595584 31417 net.cpp:425] inception_3a/relu_3x3_reduce <- inception_3a/3x3_reduce
I0403 15:17:46.595605 31417 net.cpp:386] inception_3a/relu_3x3_reduce -> inception_3a/3x3_reduce (in-place)
I0403 15:17:46.595787 31417 net.cpp:141] Setting up inception_3a/relu_3x3_reduce
I0403 15:17:46.595811 31417 net.cpp:148] Top shape: 24 96 28 28 (1806336)
I0403 15:17:46.595829 31417 net.cpp:156] Memory required for data: 515408928
I0403 15:17:46.595844 31417 layer_factory.hpp:77] Creating layer inception_3a/3x3
I0403 15:17:46.595868 31417 net.cpp:91] Creating Layer inception_3a/3x3
I0403 15:17:46.595886 31417 net.cpp:425] inception_3a/3x3 <- inception_3a/3x3_reduce
I0403 15:17:46.595911 31417 net.cpp:399] inception_3a/3x3 -> inception_3a/3x3
I0403 15:17:46.597568 31417 net.cpp:141] Setting up inception_3a/3x3
I0403 15:17:46.597599 31417 net.cpp:148] Top shape: 24 128 28 28 (2408448)
I0403 15:17:46.597615 31417 net.cpp:156] Memory required for data: 525042720
I0403 15:17:46.597633 31417 layer_factory.hpp:77] Creating layer inception_3a/relu_3x3
I0403 15:17:46.597658 31417 net.cpp:91] Creating Layer inception_3a/relu_3x3
I0403 15:17:46.597676 31417 net.cpp:425] inception_3a/relu_3x3 <- inception_3a/3x3
I0403 15:17:46.597695 31417 net.cpp:386] inception_3a/relu_3x3 -> inception_3a/3x3 (in-place)
I0403 15:17:46.597965 31417 net.cpp:141] Setting up inception_3a/relu_3x3
I0403 15:17:46.597991 31417 net.cpp:148] Top shape: 24 128 28 28 (2408448)
I0403 15:17:46.598007 31417 net.cpp:156] Memory required for data: 534676512
I0403 15:17:46.598022 31417 layer_factory.hpp:77] Creating layer inception_3a/5x5_reduce
I0403 15:17:46.598045 31417 net.cpp:91] Creating Layer inception_3a/5x5_reduce
I0403 15:17:46.598062 31417 net.cpp:425] inception_3a/5x5_reduce <- pool2/3x3_s2_pool2/3x3_s2_0_split_2
I0403 15:17:46.598084 31417 net.cpp:399] inception_3a/5x5_reduce -> inception_3a/5x5_reduce
I0403 15:17:46.599067 31417 net.cpp:141] Setting up inception_3a/5x5_reduce
I0403 15:17:46.599099 31417 net.cpp:148] Top shape: 24 16 28 28 (301056)
I0403 15:17:46.599117 31417 net.cpp:156] Memory required for data: 535880736
I0403 15:17:46.599134 31417 layer_factory.hpp:77] Creating layer inception_3a/relu_5x5_reduce
I0403 15:17:46.599154 31417 net.cpp:91] Creating Layer inception_3a/relu_5x5_reduce
I0403 15:17:46.599171 31417 net.cpp:425] inception_3a/relu_5x5_reduce <- inception_3a/5x5_reduce
I0403 15:17:46.599189 31417 net.cpp:386] inception_3a/relu_5x5_reduce -> inception_3a/5x5_reduce (in-place)
I0403 15:17:46.599489 31417 net.cpp:141] Setting up inception_3a/relu_5x5_reduce
I0403 15:17:46.599516 31417 net.cpp:148] Top shape: 24 16 28 28 (301056)
I0403 15:17:46.599532 31417 net.cpp:156] Memory required for data: 537084960
I0403 15:17:46.599547 31417 layer_factory.hpp:77] Creating layer inception_3a/5x5
I0403 15:17:46.599571 31417 net.cpp:91] Creating Layer inception_3a/5x5
I0403 15:17:46.599589 31417 net.cpp:425] inception_3a/5x5 <- inception_3a/5x5_reduce
I0403 15:17:46.599612 31417 net.cpp:399] inception_3a/5x5 -> inception_3a/5x5
I0403 15:17:46.600606 31417 net.cpp:141] Setting up inception_3a/5x5
I0403 15:17:46.600635 31417 net.cpp:148] Top shape: 24 32 28 28 (602112)
I0403 15:17:46.600651 31417 net.cpp:156] Memory required for data: 539493408
I0403 15:17:46.600671 31417 layer_factory.hpp:77] Creating layer inception_3a/relu_5x5
I0403 15:17:46.600690 31417 net.cpp:91] Creating Layer inception_3a/relu_5x5
I0403 15:17:46.600708 31417 net.cpp:425] inception_3a/relu_5x5 <- inception_3a/5x5
I0403 15:17:46.600725 31417 net.cpp:386] inception_3a/relu_5x5 -> inception_3a/5x5 (in-place)
I0403 15:17:46.600900 31417 net.cpp:141] Setting up inception_3a/relu_5x5
I0403 15:17:46.600929 31417 net.cpp:148] Top shape: 24 32 28 28 (602112)
I0403 15:17:46.600944 31417 net.cpp:156] Memory required for data: 541901856
I0403 15:17:46.600960 31417 layer_factory.hpp:77] Creating layer inception_3a/pool
I0403 15:17:46.600978 31417 net.cpp:91] Creating Layer inception_3a/pool
I0403 15:17:46.600996 31417 net.cpp:425] inception_3a/pool <- pool2/3x3_s2_pool2/3x3_s2_0_split_3
I0403 15:17:46.601030 31417 net.cpp:399] inception_3a/pool -> inception_3a/pool
I0403 15:17:46.601090 31417 net.cpp:141] Setting up inception_3a/pool
I0403 15:17:46.601114 31417 net.cpp:148] Top shape: 24 192 28 28 (3612672)
I0403 15:17:46.601130 31417 net.cpp:156] Memory required for data: 556352544
I0403 15:17:46.601145 31417 layer_factory.hpp:77] Creating layer inception_3a/pool_proj
I0403 15:17:46.601167 31417 net.cpp:91] Creating Layer inception_3a/pool_proj
I0403 15:17:46.601184 31417 net.cpp:425] inception_3a/pool_proj <- inception_3a/pool
I0403 15:17:46.601208 31417 net.cpp:399] inception_3a/pool_proj -> inception_3a/pool_proj
I0403 15:17:46.602160 31417 net.cpp:141] Setting up inception_3a/pool_proj
I0403 15:17:46.602190 31417 net.cpp:148] Top shape: 24 32 28 28 (602112)
I0403 15:17:46.602206 31417 net.cpp:156] Memory required for data: 558760992
I0403 15:17:46.602231 31417 layer_factory.hpp:77] Creating layer inception_3a/relu_pool_proj
I0403 15:17:46.602252 31417 net.cpp:91] Creating Layer inception_3a/relu_pool_proj
I0403 15:17:46.602267 31417 net.cpp:425] inception_3a/relu_pool_proj <- inception_3a/pool_proj
I0403 15:17:46.602290 31417 net.cpp:386] inception_3a/relu_pool_proj -> inception_3a/pool_proj (in-place)
I0403 15:17:46.602565 31417 net.cpp:141] Setting up inception_3a/relu_pool_proj
I0403 15:17:46.602592 31417 net.cpp:148] Top shape: 24 32 28 28 (602112)
I0403 15:17:46.602607 31417 net.cpp:156] Memory required for data: 561169440
I0403 15:17:46.602622 31417 layer_factory.hpp:77] Creating layer inception_3a/output
I0403 15:17:46.602643 31417 net.cpp:91] Creating Layer inception_3a/output
I0403 15:17:46.602660 31417 net.cpp:425] inception_3a/output <- inception_3a/1x1
I0403 15:17:46.602679 31417 net.cpp:425] inception_3a/output <- inception_3a/3x3
I0403 15:17:46.602696 31417 net.cpp:425] inception_3a/output <- inception_3a/5x5
I0403 15:17:46.602713 31417 net.cpp:425] inception_3a/output <- inception_3a/pool_proj
I0403 15:17:46.602731 31417 net.cpp:399] inception_3a/output -> inception_3a/output
I0403 15:17:46.602778 31417 net.cpp:141] Setting up inception_3a/output
I0403 15:17:46.602802 31417 net.cpp:148] Top shape: 24 256 28 28 (4816896)
I0403 15:17:46.602818 31417 net.cpp:156] Memory required for data: 580437024
I0403 15:17:46.602834 31417 layer_factory.hpp:77] Creating layer inception_3a/output_inception_3a/output_0_split
I0403 15:17:46.602851 31417 net.cpp:91] Creating Layer inception_3a/output_inception_3a/output_0_split
I0403 15:17:46.602867 31417 net.cpp:425] inception_3a/output_inception_3a/output_0_split <- inception_3a/output
I0403 15:17:46.602886 31417 net.cpp:399] inception_3a/output_inception_3a/output_0_split -> inception_3a/output_inception_3a/output_0_split_0
I0403 15:17:46.602908 31417 net.cpp:399] inception_3a/output_inception_3a/output_0_split -> inception_3a/output_inception_3a/output_0_split_1
I0403 15:17:46.602931 31417 net.cpp:399] inception_3a/output_inception_3a/output_0_split -> inception_3a/output_inception_3a/output_0_split_2
I0403 15:17:46.602955 31417 net.cpp:399] inception_3a/output_inception_3a/output_0_split -> inception_3a/output_inception_3a/output_0_split_3
I0403 15:17:46.603034 31417 net.cpp:141] Setting up inception_3a/output_inception_3a/output_0_split
I0403 15:17:46.603057 31417 net.cpp:148] Top shape: 24 256 28 28 (4816896)
I0403 15:17:46.603075 31417 net.cpp:148] Top shape: 24 256 28 28 (4816896)
I0403 15:17:46.603091 31417 net.cpp:148] Top shape: 24 256 28 28 (4816896)
I0403 15:17:46.603106 31417 net.cpp:148] Top shape: 24 256 28 28 (4816896)
I0403 15:17:46.603121 31417 net.cpp:156] Memory required for data: 657507360
I0403 15:17:46.603137 31417 layer_factory.hpp:77] Creating layer inception_3b/1x1
I0403 15:17:46.603160 31417 net.cpp:91] Creating Layer inception_3b/1x1
I0403 15:17:46.603178 31417 net.cpp:425] inception_3b/1x1 <- inception_3a/output_inception_3a/output_0_split_0
I0403 15:17:46.603199 31417 net.cpp:399] inception_3b/1x1 -> inception_3b/1x1
I0403 15:17:46.604348 31417 net.cpp:141] Setting up inception_3b/1x1
I0403 15:17:46.604390 31417 net.cpp:148] Top shape: 24 128 28 28 (2408448)
I0403 15:17:46.604406 31417 net.cpp:156] Memory required for data: 667141152
I0403 15:17:46.604426 31417 layer_factory.hpp:77] Creating layer inception_3b/relu_1x1
I0403 15:17:46.604449 31417 net.cpp:91] Creating Layer inception_3b/relu_1x1
I0403 15:17:46.604467 31417 net.cpp:425] inception_3b/relu_1x1 <- inception_3b/1x1
I0403 15:17:46.604485 31417 net.cpp:386] inception_3b/relu_1x1 -> inception_3b/1x1 (in-place)
I0403 15:17:46.604665 31417 net.cpp:141] Setting up inception_3b/relu_1x1
I0403 15:17:46.604691 31417 net.cpp:148] Top shape: 24 128 28 28 (2408448)
I0403 15:17:46.604707 31417 net.cpp:156] Memory required for data: 676774944
I0403 15:17:46.604722 31417 layer_factory.hpp:77] Creating layer inception_3b/3x3_reduce
I0403 15:17:46.604746 31417 net.cpp:91] Creating Layer inception_3b/3x3_reduce
I0403 15:17:46.604764 31417 net.cpp:425] inception_3b/3x3_reduce <- inception_3a/output_inception_3a/output_0_split_1
I0403 15:17:46.604787 31417 net.cpp:399] inception_3b/3x3_reduce -> inception_3b/3x3_reduce
I0403 15:17:46.605943 31417 net.cpp:141] Setting up inception_3b/3x3_reduce
I0403 15:17:46.605973 31417 net.cpp:148] Top shape: 24 128 28 28 (2408448)
I0403 15:17:46.605989 31417 net.cpp:156] Memory required for data: 686408736
I0403 15:17:46.606010 31417 layer_factory.hpp:77] Creating layer inception_3b/relu_3x3_reduce
I0403 15:17:46.606032 31417 net.cpp:91] Creating Layer inception_3b/relu_3x3_reduce
I0403 15:17:46.606050 31417 net.cpp:425] inception_3b/relu_3x3_reduce <- inception_3b/3x3_reduce
I0403 15:17:46.606070 31417 net.cpp:386] inception_3b/relu_3x3_reduce -> inception_3b/3x3_reduce (in-place)
I0403 15:17:46.606245 31417 net.cpp:141] Setting up inception_3b/relu_3x3_reduce
I0403 15:17:46.606272 31417 net.cpp:148] Top shape: 24 128 28 28 (2408448)
I0403 15:17:46.606294 31417 net.cpp:156] Memory required for data: 696042528
I0403 15:17:46.606312 31417 layer_factory.hpp:77] Creating layer inception_3b/3x3
I0403 15:17:46.606339 31417 net.cpp:91] Creating Layer inception_3b/3x3
I0403 15:17:46.606360 31417 net.cpp:425] inception_3b/3x3 <- inception_3b/3x3_reduce
I0403 15:17:46.606380 31417 net.cpp:399] inception_3b/3x3 -> inception_3b/3x3
I0403 15:17:46.609349 31417 net.cpp:141] Setting up inception_3b/3x3
I0403 15:17:46.609377 31417 net.cpp:148] Top shape: 24 192 28 28 (3612672)
I0403 15:17:46.609395 31417 net.cpp:156] Memory required for data: 710493216
I0403 15:17:46.609413 31417 layer_factory.hpp:77] Creating layer inception_3b/relu_3x3
I0403 15:17:46.609436 31417 net.cpp:91] Creating Layer inception_3b/relu_3x3
I0403 15:17:46.609453 31417 net.cpp:425] inception_3b/relu_3x3 <- inception_3b/3x3
I0403 15:17:46.609472 31417 net.cpp:386] inception_3b/relu_3x3 -> inception_3b/3x3 (in-place)
I0403 15:17:46.609752 31417 net.cpp:141] Setting up inception_3b/relu_3x3
I0403 15:17:46.609779 31417 net.cpp:148] Top shape: 24 192 28 28 (3612672)
I0403 15:17:46.609796 31417 net.cpp:156] Memory required for data: 724943904
I0403 15:17:46.609812 31417 layer_factory.hpp:77] Creating layer inception_3b/5x5_reduce
I0403 15:17:46.609834 31417 net.cpp:91] Creating Layer inception_3b/5x5_reduce
I0403 15:17:46.609853 31417 net.cpp:425] inception_3b/5x5_reduce <- inception_3a/output_inception_3a/output_0_split_2
I0403 15:17:46.609875 31417 net.cpp:399] inception_3b/5x5_reduce -> inception_3b/5x5_reduce
I0403 15:17:46.610857 31417 net.cpp:141] Setting up inception_3b/5x5_reduce
I0403 15:17:46.610885 31417 net.cpp:148] Top shape: 24 32 28 28 (602112)
I0403 15:17:46.610901 31417 net.cpp:156] Memory required for data: 727352352
I0403 15:17:46.610920 31417 layer_factory.hpp:77] Creating layer inception_3b/relu_5x5_reduce
I0403 15:17:46.610942 31417 net.cpp:91] Creating Layer inception_3b/relu_5x5_reduce
I0403 15:17:46.610960 31417 net.cpp:425] inception_3b/relu_5x5_reduce <- inception_3b/5x5_reduce
I0403 15:17:46.610977 31417 net.cpp:386] inception_3b/relu_5x5_reduce -> inception_3b/5x5_reduce (in-place)
I0403 15:17:46.611156 31417 net.cpp:141] Setting up inception_3b/relu_5x5_reduce
I0403 15:17:46.611197 31417 net.cpp:148] Top shape: 24 32 28 28 (602112)
I0403 15:17:46.611214 31417 net.cpp:156] Memory required for data: 729760800
I0403 15:17:46.611230 31417 layer_factory.hpp:77] Creating layer inception_3b/5x5
I0403 15:17:46.611253 31417 net.cpp:91] Creating Layer inception_3b/5x5
I0403 15:17:46.611271 31417 net.cpp:425] inception_3b/5x5 <- inception_3b/5x5_reduce
I0403 15:17:46.611295 31417 net.cpp:399] inception_3b/5x5 -> inception_3b/5x5
I0403 15:17:46.613242 31417 net.cpp:141] Setting up inception_3b/5x5
I0403 15:17:46.613271 31417 net.cpp:148] Top shape: 24 96 28 28 (1806336)
I0403 15:17:46.613293 31417 net.cpp:156] Memory required for data: 736986144
I0403 15:17:46.613313 31417 layer_factory.hpp:77] Creating layer inception_3b/relu_5x5
I0403 15:17:46.613337 31417 net.cpp:91] Creating Layer inception_3b/relu_5x5
I0403 15:17:46.613354 31417 net.cpp:425] inception_3b/relu_5x5 <- inception_3b/5x5
I0403 15:17:46.613373 31417 net.cpp:386] inception_3b/relu_5x5 -> inception_3b/5x5 (in-place)
I0403 15:17:46.613564 31417 net.cpp:141] Setting up inception_3b/relu_5x5
I0403 15:17:46.613591 31417 net.cpp:148] Top shape: 24 96 28 28 (1806336)
I0403 15:17:46.613607 31417 net.cpp:156] Memory required for data: 744211488
I0403 15:17:46.613623 31417 layer_factory.hpp:77] Creating layer inception_3b/pool
I0403 15:17:46.613641 31417 net.cpp:91] Creating Layer inception_3b/pool
I0403 15:17:46.613657 31417 net.cpp:425] inception_3b/pool <- inception_3a/output_inception_3a/output_0_split_3
I0403 15:17:46.613677 31417 net.cpp:399] inception_3b/pool -> inception_3b/pool
I0403 15:17:46.613731 31417 net.cpp:141] Setting up inception_3b/pool
I0403 15:17:46.613755 31417 net.cpp:148] Top shape: 24 256 28 28 (4816896)
I0403 15:17:46.613770 31417 net.cpp:156] Memory required for data: 763479072
I0403 15:17:46.613785 31417 layer_factory.hpp:77] Creating layer inception_3b/pool_proj
I0403 15:17:46.613811 31417 net.cpp:91] Creating Layer inception_3b/pool_proj
I0403 15:17:46.613829 31417 net.cpp:425] inception_3b/pool_proj <- inception_3b/pool
I0403 15:17:46.613850 31417 net.cpp:399] inception_3b/pool_proj -> inception_3b/pool_proj
I0403 15:17:46.614900 31417 net.cpp:141] Setting up inception_3b/pool_proj
I0403 15:17:46.614931 31417 net.cpp:148] Top shape: 24 64 28 28 (1204224)
I0403 15:17:46.614948 31417 net.cpp:156] Memory required for data: 768295968
I0403 15:17:46.614967 31417 layer_factory.hpp:77] Creating layer inception_3b/relu_pool_proj
I0403 15:17:46.614986 31417 net.cpp:91] Creating Layer inception_3b/relu_pool_proj
I0403 15:17:46.615003 31417 net.cpp:425] inception_3b/relu_pool_proj <- inception_3b/pool_proj
I0403 15:17:46.615025 31417 net.cpp:386] inception_3b/relu_pool_proj -> inception_3b/pool_proj (in-place)
I0403 15:17:46.615453 31417 net.cpp:141] Setting up inception_3b/relu_pool_proj
I0403 15:17:46.615483 31417 net.cpp:148] Top shape: 24 64 28 28 (1204224)
I0403 15:17:46.615500 31417 net.cpp:156] Memory required for data: 773112864
I0403 15:17:46.615517 31417 layer_factory.hpp:77] Creating layer inception_3b/output
I0403 15:17:46.615535 31417 net.cpp:91] Creating Layer inception_3b/output
I0403 15:17:46.615551 31417 net.cpp:425] inception_3b/output <- inception_3b/1x1
I0403 15:17:46.615572 31417 net.cpp:425] inception_3b/output <- inception_3b/3x3
I0403 15:17:46.615589 31417 net.cpp:425] inception_3b/output <- inception_3b/5x5
I0403 15:17:46.615605 31417 net.cpp:425] inception_3b/output <- inception_3b/pool_proj
I0403 15:17:46.615622 31417 net.cpp:399] inception_3b/output -> inception_3b/output
I0403 15:17:46.615669 31417 net.cpp:141] Setting up inception_3b/output
I0403 15:17:46.615692 31417 net.cpp:148] Top shape: 24 480 28 28 (9031680)
I0403 15:17:46.615707 31417 net.cpp:156] Memory required for data: 809239584
I0403 15:17:46.615723 31417 layer_factory.hpp:77] Creating layer pool3/3x3_s2
I0403 15:17:46.615743 31417 net.cpp:91] Creating Layer pool3/3x3_s2
I0403 15:17:46.615759 31417 net.cpp:425] pool3/3x3_s2 <- inception_3b/output
I0403 15:17:46.615778 31417 net.cpp:399] pool3/3x3_s2 -> pool3/3x3_s2
I0403 15:17:46.615864 31417 net.cpp:141] Setting up pool3/3x3_s2
I0403 15:17:46.615890 31417 net.cpp:148] Top shape: 24 480 14 14 (2257920)
I0403 15:17:46.615907 31417 net.cpp:156] Memory required for data: 818271264
I0403 15:17:46.615923 31417 layer_factory.hpp:77] Creating layer pool3/3x3_s2_pool3/3x3_s2_0_split
I0403 15:17:46.615942 31417 net.cpp:91] Creating Layer pool3/3x3_s2_pool3/3x3_s2_0_split
I0403 15:17:46.615957 31417 net.cpp:425] pool3/3x3_s2_pool3/3x3_s2_0_split <- pool3/3x3_s2
I0403 15:17:46.615978 31417 net.cpp:399] pool3/3x3_s2_pool3/3x3_s2_0_split -> pool3/3x3_s2_pool3/3x3_s2_0_split_0
I0403 15:17:46.615999 31417 net.cpp:399] pool3/3x3_s2_pool3/3x3_s2_0_split -> pool3/3x3_s2_pool3/3x3_s2_0_split_1
I0403 15:17:46.616021 31417 net.cpp:399] pool3/3x3_s2_pool3/3x3_s2_0_split -> pool3/3x3_s2_pool3/3x3_s2_0_split_2
I0403 15:17:46.616040 31417 net.cpp:399] pool3/3x3_s2_pool3/3x3_s2_0_split -> pool3/3x3_s2_pool3/3x3_s2_0_split_3
I0403 15:17:46.616118 31417 net.cpp:141] Setting up pool3/3x3_s2_pool3/3x3_s2_0_split
I0403 15:17:46.616144 31417 net.cpp:148] Top shape: 24 480 14 14 (2257920)
I0403 15:17:46.616163 31417 net.cpp:148] Top shape: 24 480 14 14 (2257920)
I0403 15:17:46.616180 31417 net.cpp:148] Top shape: 24 480 14 14 (2257920)
I0403 15:17:46.616196 31417 net.cpp:148] Top shape: 24 480 14 14 (2257920)
I0403 15:17:46.616211 31417 net.cpp:156] Memory required for data: 854397984
I0403 15:17:46.616227 31417 layer_factory.hpp:77] Creating layer inception_4a/1x1
I0403 15:17:46.616251 31417 net.cpp:91] Creating Layer inception_4a/1x1
I0403 15:17:46.616269 31417 net.cpp:425] inception_4a/1x1 <- pool3/3x3_s2_pool3/3x3_s2_0_split_0
I0403 15:17:46.616296 31417 net.cpp:399] inception_4a/1x1 -> inception_4a/1x1
I0403 15:17:46.617899 31417 net.cpp:141] Setting up inception_4a/1x1
I0403 15:17:46.617930 31417 net.cpp:148] Top shape: 24 192 14 14 (903168)
I0403 15:17:46.617946 31417 net.cpp:156] Memory required for data: 858010656
I0403 15:17:46.617966 31417 layer_factory.hpp:77] Creating layer inception_4a/relu_1x1
I0403 15:17:46.617985 31417 net.cpp:91] Creating Layer inception_4a/relu_1x1
I0403 15:17:46.618001 31417 net.cpp:425] inception_4a/relu_1x1 <- inception_4a/1x1
I0403 15:17:46.618022 31417 net.cpp:386] inception_4a/relu_1x1 -> inception_4a/1x1 (in-place)
I0403 15:17:46.618202 31417 net.cpp:141] Setting up inception_4a/relu_1x1
I0403 15:17:46.618229 31417 net.cpp:148] Top shape: 24 192 14 14 (903168)
I0403 15:17:46.618244 31417 net.cpp:156] Memory required for data: 861623328
I0403 15:17:46.618259 31417 layer_factory.hpp:77] Creating layer inception_4a/3x3_reduce
I0403 15:17:46.618286 31417 net.cpp:91] Creating Layer inception_4a/3x3_reduce
I0403 15:17:46.618305 31417 net.cpp:425] inception_4a/3x3_reduce <- pool3/3x3_s2_pool3/3x3_s2_0_split_1
I0403 15:17:46.618329 31417 net.cpp:399] inception_4a/3x3_reduce -> inception_4a/3x3_reduce
I0403 15:17:46.619599 31417 net.cpp:141] Setting up inception_4a/3x3_reduce
I0403 15:17:46.619628 31417 net.cpp:148] Top shape: 24 96 14 14 (451584)
I0403 15:17:46.619644 31417 net.cpp:156] Memory required for data: 863429664
I0403 15:17:46.619668 31417 layer_factory.hpp:77] Creating layer inception_4a/relu_3x3_reduce
I0403 15:17:46.619691 31417 net.cpp:91] Creating Layer inception_4a/relu_3x3_reduce
I0403 15:17:46.619709 31417 net.cpp:425] inception_4a/relu_3x3_reduce <- inception_4a/3x3_reduce
I0403 15:17:46.619731 31417 net.cpp:386] inception_4a/relu_3x3_reduce -> inception_4a/3x3_reduce (in-place)
I0403 15:17:46.619907 31417 net.cpp:141] Setting up inception_4a/relu_3x3_reduce
I0403 15:17:46.619933 31417 net.cpp:148] Top shape: 24 96 14 14 (451584)
I0403 15:17:46.619949 31417 net.cpp:156] Memory required for data: 865236000
I0403 15:17:46.619964 31417 layer_factory.hpp:77] Creating layer inception_4a/3x3
I0403 15:17:46.619987 31417 net.cpp:91] Creating Layer inception_4a/3x3
I0403 15:17:46.620005 31417 net.cpp:425] inception_4a/3x3 <- inception_4a/3x3_reduce
I0403 15:17:46.620028 31417 net.cpp:399] inception_4a/3x3 -> inception_4a/3x3
I0403 15:17:46.622706 31417 net.cpp:141] Setting up inception_4a/3x3
I0403 15:17:46.622736 31417 net.cpp:148] Top shape: 24 208 14 14 (978432)
I0403 15:17:46.622752 31417 net.cpp:156] Memory required for data: 869149728
I0403 15:17:46.622772 31417 layer_factory.hpp:77] Creating layer inception_4a/relu_3x3
I0403 15:17:46.622794 31417 net.cpp:91] Creating Layer inception_4a/relu_3x3
I0403 15:17:46.622813 31417 net.cpp:425] inception_4a/relu_3x3 <- inception_4a/3x3
I0403 15:17:46.622831 31417 net.cpp:386] inception_4a/relu_3x3 -> inception_4a/3x3 (in-place)
I0403 15:17:46.623113 31417 net.cpp:141] Setting up inception_4a/relu_3x3
I0403 15:17:46.623141 31417 net.cpp:148] Top shape: 24 208 14 14 (978432)
I0403 15:17:46.623155 31417 net.cpp:156] Memory required for data: 873063456
I0403 15:17:46.623172 31417 layer_factory.hpp:77] Creating layer inception_4a/5x5_reduce
I0403 15:17:46.623195 31417 net.cpp:91] Creating Layer inception_4a/5x5_reduce
I0403 15:17:46.623214 31417 net.cpp:425] inception_4a/5x5_reduce <- pool3/3x3_s2_pool3/3x3_s2_0_split_2
I0403 15:17:46.623236 31417 net.cpp:399] inception_4a/5x5_reduce -> inception_4a/5x5_reduce
I0403 15:17:46.624258 31417 net.cpp:141] Setting up inception_4a/5x5_reduce
I0403 15:17:46.624296 31417 net.cpp:148] Top shape: 24 16 14 14 (75264)
I0403 15:17:46.624315 31417 net.cpp:156] Memory required for data: 873364512
I0403 15:17:46.624335 31417 layer_factory.hpp:77] Creating layer inception_4a/relu_5x5_reduce
I0403 15:17:46.624356 31417 net.cpp:91] Creating Layer inception_4a/relu_5x5_reduce
I0403 15:17:46.624374 31417 net.cpp:425] inception_4a/relu_5x5_reduce <- inception_4a/5x5_reduce
I0403 15:17:46.624392 31417 net.cpp:386] inception_4a/relu_5x5_reduce -> inception_4a/5x5_reduce (in-place)
I0403 15:17:46.624573 31417 net.cpp:141] Setting up inception_4a/relu_5x5_reduce
I0403 15:17:46.624601 31417 net.cpp:148] Top shape: 24 16 14 14 (75264)
I0403 15:17:46.624617 31417 net.cpp:156] Memory required for data: 873665568
I0403 15:17:46.624634 31417 layer_factory.hpp:77] Creating layer inception_4a/5x5
I0403 15:17:46.624656 31417 net.cpp:91] Creating Layer inception_4a/5x5
I0403 15:17:46.624675 31417 net.cpp:425] inception_4a/5x5 <- inception_4a/5x5_reduce
I0403 15:17:46.624694 31417 net.cpp:399] inception_4a/5x5 -> inception_4a/5x5
I0403 15:17:46.625818 31417 net.cpp:141] Setting up inception_4a/5x5
I0403 15:17:46.625849 31417 net.cpp:148] Top shape: 24 48 14 14 (225792)
I0403 15:17:46.625866 31417 net.cpp:156] Memory required for data: 874568736
I0403 15:17:46.625885 31417 layer_factory.hpp:77] Creating layer inception_4a/relu_5x5
I0403 15:17:46.625903 31417 net.cpp:91] Creating Layer inception_4a/relu_5x5
I0403 15:17:46.625921 31417 net.cpp:425] inception_4a/relu_5x5 <- inception_4a/5x5
I0403 15:17:46.625938 31417 net.cpp:386] inception_4a/relu_5x5 -> inception_4a/5x5 (in-place)
I0403 15:17:46.626111 31417 net.cpp:141] Setting up inception_4a/relu_5x5
I0403 15:17:46.626137 31417 net.cpp:148] Top shape: 24 48 14 14 (225792)
I0403 15:17:46.626152 31417 net.cpp:156] Memory required for data: 875471904
I0403 15:17:46.626168 31417 layer_factory.hpp:77] Creating layer inception_4a/pool
I0403 15:17:46.626185 31417 net.cpp:91] Creating Layer inception_4a/pool
I0403 15:17:46.626200 31417 net.cpp:425] inception_4a/pool <- pool3/3x3_s2_pool3/3x3_s2_0_split_3
I0403 15:17:46.626221 31417 net.cpp:399] inception_4a/pool -> inception_4a/pool
I0403 15:17:46.626281 31417 net.cpp:141] Setting up inception_4a/pool
I0403 15:17:46.626312 31417 net.cpp:148] Top shape: 24 480 14 14 (2257920)
I0403 15:17:46.626328 31417 net.cpp:156] Memory required for data: 884503584
I0403 15:17:46.626343 31417 layer_factory.hpp:77] Creating layer inception_4a/pool_proj
I0403 15:17:46.626364 31417 net.cpp:91] Creating Layer inception_4a/pool_proj
I0403 15:17:46.626381 31417 net.cpp:425] inception_4a/pool_proj <- inception_4a/pool
I0403 15:17:46.626400 31417 net.cpp:399] inception_4a/pool_proj -> inception_4a/pool_proj
I0403 15:17:46.627526 31417 net.cpp:141] Setting up inception_4a/pool_proj
I0403 15:17:46.627554 31417 net.cpp:148] Top shape: 24 64 14 14 (301056)
I0403 15:17:46.627584 31417 net.cpp:156] Memory required for data: 885707808
I0403 15:17:46.627604 31417 layer_factory.hpp:77] Creating layer inception_4a/relu_pool_proj
I0403 15:17:46.627624 31417 net.cpp:91] Creating Layer inception_4a/relu_pool_proj
I0403 15:17:46.627640 31417 net.cpp:425] inception_4a/relu_pool_proj <- inception_4a/pool_proj
I0403 15:17:46.627662 31417 net.cpp:386] inception_4a/relu_pool_proj -> inception_4a/pool_proj (in-place)
I0403 15:17:46.627938 31417 net.cpp:141] Setting up inception_4a/relu_pool_proj
I0403 15:17:46.627974 31417 net.cpp:148] Top shape: 24 64 14 14 (301056)
I0403 15:17:46.627990 31417 net.cpp:156] Memory required for data: 886912032
I0403 15:17:46.628005 31417 layer_factory.hpp:77] Creating layer inception_4a/output
I0403 15:17:46.628022 31417 net.cpp:91] Creating Layer inception_4a/output
I0403 15:17:46.628037 31417 net.cpp:425] inception_4a/output <- inception_4a/1x1
I0403 15:17:46.628054 31417 net.cpp:425] inception_4a/output <- inception_4a/3x3
I0403 15:17:46.628070 31417 net.cpp:425] inception_4a/output <- inception_4a/5x5
I0403 15:17:46.628085 31417 net.cpp:425] inception_4a/output <- inception_4a/pool_proj
I0403 15:17:46.628105 31417 net.cpp:399] inception_4a/output -> inception_4a/output
I0403 15:17:46.628149 31417 net.cpp:141] Setting up inception_4a/output
I0403 15:17:46.628172 31417 net.cpp:148] Top shape: 24 512 14 14 (2408448)
I0403 15:17:46.628191 31417 net.cpp:156] Memory required for data: 896545824
I0403 15:17:46.628207 31417 layer_factory.hpp:77] Creating layer inception_4a/output_inception_4a/output_0_split
I0403 15:17:46.628224 31417 net.cpp:91] Creating Layer inception_4a/output_inception_4a/output_0_split
I0403 15:17:46.628239 31417 net.cpp:425] inception_4a/output_inception_4a/output_0_split <- inception_4a/output
I0403 15:17:46.628257 31417 net.cpp:399] inception_4a/output_inception_4a/output_0_split -> inception_4a/output_inception_4a/output_0_split_0
I0403 15:17:46.628278 31417 net.cpp:399] inception_4a/output_inception_4a/output_0_split -> inception_4a/output_inception_4a/output_0_split_1
I0403 15:17:46.628306 31417 net.cpp:399] inception_4a/output_inception_4a/output_0_split -> inception_4a/output_inception_4a/output_0_split_2
I0403 15:17:46.628329 31417 net.cpp:399] inception_4a/output_inception_4a/output_0_split -> inception_4a/output_inception_4a/output_0_split_3
I0403 15:17:46.628348 31417 net.cpp:399] inception_4a/output_inception_4a/output_0_split -> inception_4a/output_inception_4a/output_0_split_4
I0403 15:17:46.628437 31417 net.cpp:141] Setting up inception_4a/output_inception_4a/output_0_split
I0403 15:17:46.628460 31417 net.cpp:148] Top shape: 24 512 14 14 (2408448)
I0403 15:17:46.628478 31417 net.cpp:148] Top shape: 24 512 14 14 (2408448)
I0403 15:17:46.628494 31417 net.cpp:148] Top shape: 24 512 14 14 (2408448)
I0403 15:17:46.628509 31417 net.cpp:148] Top shape: 24 512 14 14 (2408448)
I0403 15:17:46.628525 31417 net.cpp:148] Top shape: 24 512 14 14 (2408448)
I0403 15:17:46.628538 31417 net.cpp:156] Memory required for data: 944714784
I0403 15:17:46.628553 31417 layer_factory.hpp:77] Creating layer loss1/ave_pool
I0403 15:17:46.628574 31417 net.cpp:91] Creating Layer loss1/ave_pool
I0403 15:17:46.628592 31417 net.cpp:425] loss1/ave_pool <- inception_4a/output_inception_4a/output_0_split_0
I0403 15:17:46.628610 31417 net.cpp:399] loss1/ave_pool -> loss1/ave_pool
I0403 15:17:46.628814 31417 net.cpp:141] Setting up loss1/ave_pool
I0403 15:17:46.628839 31417 net.cpp:148] Top shape: 24 512 4 4 (196608)
I0403 15:17:46.628854 31417 net.cpp:156] Memory required for data: 945501216
I0403 15:17:46.628870 31417 layer_factory.hpp:77] Creating layer loss1/conv
I0403 15:17:46.628892 31417 net.cpp:91] Creating Layer loss1/conv
I0403 15:17:46.628911 31417 net.cpp:425] loss1/conv <- loss1/ave_pool
I0403 15:17:46.628932 31417 net.cpp:399] loss1/conv -> loss1/conv
I0403 15:17:46.630417 31417 net.cpp:141] Setting up loss1/conv
I0403 15:17:46.630445 31417 net.cpp:148] Top shape: 24 128 4 4 (49152)
I0403 15:17:46.630475 31417 net.cpp:156] Memory required for data: 945697824
I0403 15:17:46.630508 31417 layer_factory.hpp:77] Creating layer loss1/relu_conv
I0403 15:17:46.630532 31417 net.cpp:91] Creating Layer loss1/relu_conv
I0403 15:17:46.630549 31417 net.cpp:425] loss1/relu_conv <- loss1/conv
I0403 15:17:46.630568 31417 net.cpp:386] loss1/relu_conv -> loss1/conv (in-place)
I0403 15:17:46.630873 31417 net.cpp:141] Setting up loss1/relu_conv
I0403 15:17:46.630902 31417 net.cpp:148] Top shape: 24 128 4 4 (49152)
I0403 15:17:46.630918 31417 net.cpp:156] Memory required for data: 945894432
I0403 15:17:46.630935 31417 layer_factory.hpp:77] Creating layer loss1/fc
I0403 15:17:46.630965 31417 net.cpp:91] Creating Layer loss1/fc
I0403 15:17:46.630990 31417 net.cpp:425] loss1/fc <- loss1/conv
I0403 15:17:46.631021 31417 net.cpp:399] loss1/fc -> loss1/fc
I0403 15:17:46.649371 31417 net.cpp:141] Setting up loss1/fc
I0403 15:17:46.649416 31417 net.cpp:148] Top shape: 24 1024 (24576)
I0403 15:17:46.649432 31417 net.cpp:156] Memory required for data: 945992736
I0403 15:17:46.649451 31417 layer_factory.hpp:77] Creating layer loss1/relu_fc
I0403 15:17:46.649471 31417 net.cpp:91] Creating Layer loss1/relu_fc
I0403 15:17:46.649488 31417 net.cpp:425] loss1/relu_fc <- loss1/fc
I0403 15:17:46.649509 31417 net.cpp:386] loss1/relu_fc -> loss1/fc (in-place)
I0403 15:17:46.649705 31417 net.cpp:141] Setting up loss1/relu_fc
I0403 15:17:46.649732 31417 net.cpp:148] Top shape: 24 1024 (24576)
I0403 15:17:46.649747 31417 net.cpp:156] Memory required for data: 946091040
I0403 15:17:46.649763 31417 layer_factory.hpp:77] Creating layer loss1/drop_fc
I0403 15:17:46.649793 31417 net.cpp:91] Creating Layer loss1/drop_fc
I0403 15:17:46.649811 31417 net.cpp:425] loss1/drop_fc <- loss1/fc
I0403 15:17:46.649829 31417 net.cpp:386] loss1/drop_fc -> loss1/fc (in-place)
I0403 15:17:46.649879 31417 net.cpp:141] Setting up loss1/drop_fc
I0403 15:17:46.649906 31417 net.cpp:148] Top shape: 24 1024 (24576)
I0403 15:17:46.649922 31417 net.cpp:156] Memory required for data: 946189344
I0403 15:17:46.649940 31417 layer_factory.hpp:77] Creating layer loss1/classifier_plantvillage
I0403 15:17:46.649957 31417 net.cpp:91] Creating Layer loss1/classifier_plantvillage
I0403 15:17:46.649974 31417 net.cpp:425] loss1/classifier_plantvillage <- loss1/fc
I0403 15:17:46.649994 31417 net.cpp:399] loss1/classifier_plantvillage -> loss1/classifier_plantvillage
I0403 15:17:46.650902 31417 net.cpp:141] Setting up loss1/classifier_plantvillage
I0403 15:17:46.650933 31417 net.cpp:148] Top shape: 24 38 (912)
I0403 15:17:46.650949 31417 net.cpp:156] Memory required for data: 946192992
I0403 15:17:46.650969 31417 layer_factory.hpp:77] Creating layer loss1/classifier_plantvillage_loss1/classifier_plantvillage_0_split
I0403 15:17:46.650988 31417 net.cpp:91] Creating Layer loss1/classifier_plantvillage_loss1/classifier_plantvillage_0_split
I0403 15:17:46.651005 31417 net.cpp:425] loss1/classifier_plantvillage_loss1/classifier_plantvillage_0_split <- loss1/classifier_plantvillage
I0403 15:17:46.651026 31417 net.cpp:399] loss1/classifier_plantvillage_loss1/classifier_plantvillage_0_split -> loss1/classifier_plantvillage_loss1/classifier_plantvillage_0_split_0
I0403 15:17:46.651047 31417 net.cpp:399] loss1/classifier_plantvillage_loss1/classifier_plantvillage_0_split -> loss1/classifier_plantvillage_loss1/classifier_plantvillage_0_split_1
I0403 15:17:46.651068 31417 net.cpp:399] loss1/classifier_plantvillage_loss1/classifier_plantvillage_0_split -> loss1/classifier_plantvillage_loss1/classifier_plantvillage_0_split_2
I0403 15:17:46.651134 31417 net.cpp:141] Setting up loss1/classifier_plantvillage_loss1/classifier_plantvillage_0_split
I0403 15:17:46.651160 31417 net.cpp:148] Top shape: 24 38 (912)
I0403 15:17:46.651178 31417 net.cpp:148] Top shape: 24 38 (912)
I0403 15:17:46.651196 31417 net.cpp:148] Top shape: 24 38 (912)
I0403 15:17:46.651209 31417 net.cpp:156] Memory required for data: 946203936
I0403 15:17:46.651226 31417 layer_factory.hpp:77] Creating layer inception_4b/1x1
I0403 15:17:46.651245 31417 net.cpp:91] Creating Layer inception_4b/1x1
I0403 15:17:46.651279 31417 net.cpp:425] inception_4b/1x1 <- inception_4a/output_inception_4a/output_0_split_1
I0403 15:17:46.651305 31417 net.cpp:399] inception_4b/1x1 -> inception_4b/1x1
I0403 15:17:46.652983 31417 net.cpp:141] Setting up inception_4b/1x1
I0403 15:17:46.653014 31417 net.cpp:148] Top shape: 24 160 14 14 (752640)
I0403 15:17:46.653031 31417 net.cpp:156] Memory required for data: 949214496
I0403 15:17:46.653053 31417 layer_factory.hpp:77] Creating layer inception_4b/relu_1x1
I0403 15:17:46.653074 31417 net.cpp:91] Creating Layer inception_4b/relu_1x1
I0403 15:17:46.653090 31417 net.cpp:425] inception_4b/relu_1x1 <- inception_4b/1x1
I0403 15:17:46.653110 31417 net.cpp:386] inception_4b/relu_1x1 -> inception_4b/1x1 (in-place)
I0403 15:17:46.653303 31417 net.cpp:141] Setting up inception_4b/relu_1x1
I0403 15:17:46.653333 31417 net.cpp:148] Top shape: 24 160 14 14 (752640)
I0403 15:17:46.653352 31417 net.cpp:156] Memory required for data: 952225056
I0403 15:17:46.653368 31417 layer_factory.hpp:77] Creating layer inception_4b/3x3_reduce
I0403 15:17:46.653391 31417 net.cpp:91] Creating Layer inception_4b/3x3_reduce
I0403 15:17:46.653409 31417 net.cpp:425] inception_4b/3x3_reduce <- inception_4a/output_inception_4a/output_0_split_2
I0403 15:17:46.653430 31417 net.cpp:399] inception_4b/3x3_reduce -> inception_4b/3x3_reduce
I0403 15:17:46.654840 31417 net.cpp:141] Setting up inception_4b/3x3_reduce
I0403 15:17:46.654870 31417 net.cpp:148] Top shape: 24 112 14 14 (526848)
I0403 15:17:46.654887 31417 net.cpp:156] Memory required for data: 954332448
I0403 15:17:46.654906 31417 layer_factory.hpp:77] Creating layer inception_4b/relu_3x3_reduce
I0403 15:17:46.654928 31417 net.cpp:91] Creating Layer inception_4b/relu_3x3_reduce
I0403 15:17:46.654947 31417 net.cpp:425] inception_4b/relu_3x3_reduce <- inception_4b/3x3_reduce
I0403 15:17:46.654966 31417 net.cpp:386] inception_4b/relu_3x3_reduce -> inception_4b/3x3_reduce (in-place)
I0403 15:17:46.655261 31417 net.cpp:141] Setting up inception_4b/relu_3x3_reduce
I0403 15:17:46.655294 31417 net.cpp:148] Top shape: 24 112 14 14 (526848)
I0403 15:17:46.655313 31417 net.cpp:156] Memory required for data: 956439840
I0403 15:17:46.655329 31417 layer_factory.hpp:77] Creating layer inception_4b/3x3
I0403 15:17:46.655354 31417 net.cpp:91] Creating Layer inception_4b/3x3
I0403 15:17:46.655374 31417 net.cpp:425] inception_4b/3x3 <- inception_4b/3x3_reduce
I0403 15:17:46.655395 31417 net.cpp:399] inception_4b/3x3 -> inception_4b/3x3
I0403 15:17:46.658658 31417 net.cpp:141] Setting up inception_4b/3x3
I0403 15:17:46.658701 31417 net.cpp:148] Top shape: 24 224 14 14 (1053696)
I0403 15:17:46.658720 31417 net.cpp:156] Memory required for data: 960654624
I0403 15:17:46.658740 31417 layer_factory.hpp:77] Creating layer inception_4b/relu_3x3
I0403 15:17:46.658759 31417 net.cpp:91] Creating Layer inception_4b/relu_3x3
I0403 15:17:46.658777 31417 net.cpp:425] inception_4b/relu_3x3 <- inception_4b/3x3
I0403 15:17:46.658797 31417 net.cpp:386] inception_4b/relu_3x3 -> inception_4b/3x3 (in-place)
I0403 15:17:46.658995 31417 net.cpp:141] Setting up inception_4b/relu_3x3
I0403 15:17:46.659021 31417 net.cpp:148] Top shape: 24 224 14 14 (1053696)
I0403 15:17:46.659037 31417 net.cpp:156] Memory required for data: 964869408
I0403 15:17:46.659054 31417 layer_factory.hpp:77] Creating layer inception_4b/5x5_reduce
I0403 15:17:46.659075 31417 net.cpp:91] Creating Layer inception_4b/5x5_reduce
I0403 15:17:46.659093 31417 net.cpp:425] inception_4b/5x5_reduce <- inception_4a/output_inception_4a/output_0_split_3
I0403 15:17:46.659117 31417 net.cpp:399] inception_4b/5x5_reduce -> inception_4b/5x5_reduce
I0403 15:17:46.660193 31417 net.cpp:141] Setting up inception_4b/5x5_reduce
I0403 15:17:46.660223 31417 net.cpp:148] Top shape: 24 24 14 14 (112896)
I0403 15:17:46.660238 31417 net.cpp:156] Memory required for data: 965320992
I0403 15:17:46.660266 31417 layer_factory.hpp:77] Creating layer inception_4b/relu_5x5_reduce
I0403 15:17:46.660293 31417 net.cpp:91] Creating Layer inception_4b/relu_5x5_reduce
I0403 15:17:46.660326 31417 net.cpp:425] inception_4b/relu_5x5_reduce <- inception_4b/5x5_reduce
I0403 15:17:46.660346 31417 net.cpp:386] inception_4b/relu_5x5_reduce -> inception_4b/5x5_reduce (in-place)
I0403 15:17:46.660526 31417 net.cpp:141] Setting up inception_4b/relu_5x5_reduce
I0403 15:17:46.660555 31417 net.cpp:148] Top shape: 24 24 14 14 (112896)
I0403 15:17:46.660581 31417 net.cpp:156] Memory required for data: 965772576
I0403 15:17:46.660598 31417 layer_factory.hpp:77] Creating layer inception_4b/5x5
I0403 15:17:46.660620 31417 net.cpp:91] Creating Layer inception_4b/5x5
I0403 15:17:46.660639 31417 net.cpp:425] inception_4b/5x5 <- inception_4b/5x5_reduce
I0403 15:17:46.660661 31417 net.cpp:399] inception_4b/5x5 -> inception_4b/5x5
I0403 15:17:46.661880 31417 net.cpp:141] Setting up inception_4b/5x5
I0403 15:17:46.661908 31417 net.cpp:148] Top shape: 24 64 14 14 (301056)
I0403 15:17:46.661924 31417 net.cpp:156] Memory required for data: 966976800
I0403 15:17:46.661943 31417 layer_factory.hpp:77] Creating layer inception_4b/relu_5x5
I0403 15:17:46.661967 31417 net.cpp:91] Creating Layer inception_4b/relu_5x5
I0403 15:17:46.661984 31417 net.cpp:425] inception_4b/relu_5x5 <- inception_4b/5x5
I0403 15:17:46.662003 31417 net.cpp:386] inception_4b/relu_5x5 -> inception_4b/5x5 (in-place)
I0403 15:17:46.662292 31417 net.cpp:141] Setting up inception_4b/relu_5x5
I0403 15:17:46.662319 31417 net.cpp:148] Top shape: 24 64 14 14 (301056)
I0403 15:17:46.662335 31417 net.cpp:156] Memory required for data: 968181024
I0403 15:17:46.662351 31417 layer_factory.hpp:77] Creating layer inception_4b/pool
I0403 15:17:46.662374 31417 net.cpp:91] Creating Layer inception_4b/pool
I0403 15:17:46.662391 31417 net.cpp:425] inception_4b/pool <- inception_4a/output_inception_4a/output_0_split_4
I0403 15:17:46.662411 31417 net.cpp:399] inception_4b/pool -> inception_4b/pool
I0403 15:17:46.662477 31417 net.cpp:141] Setting up inception_4b/pool
I0403 15:17:46.662503 31417 net.cpp:148] Top shape: 24 512 14 14 (2408448)
I0403 15:17:46.662518 31417 net.cpp:156] Memory required for data: 977814816
I0403 15:17:46.662534 31417 layer_factory.hpp:77] Creating layer inception_4b/pool_proj
I0403 15:17:46.662556 31417 net.cpp:91] Creating Layer inception_4b/pool_proj
I0403 15:17:46.662576 31417 net.cpp:425] inception_4b/pool_proj <- inception_4b/pool
I0403 15:17:46.662600 31417 net.cpp:399] inception_4b/pool_proj -> inception_4b/pool_proj
I0403 15:17:46.664186 31417 net.cpp:141] Setting up inception_4b/pool_proj
I0403 15:17:46.664219 31417 net.cpp:148] Top shape: 24 64 14 14 (301056)
I0403 15:17:46.664237 31417 net.cpp:156] Memory required for data: 979019040
I0403 15:17:46.664257 31417 layer_factory.hpp:77] Creating layer inception_4b/relu_pool_proj
I0403 15:17:46.664280 31417 net.cpp:91] Creating Layer inception_4b/relu_pool_proj
I0403 15:17:46.664314 31417 net.cpp:425] inception_4b/relu_pool_proj <- inception_4b/pool_proj
I0403 15:17:46.664332 31417 net.cpp:386] inception_4b/relu_pool_proj -> inception_4b/pool_proj (in-place)
I0403 15:17:46.664518 31417 net.cpp:141] Setting up inception_4b/relu_pool_proj
I0403 15:17:46.664547 31417 net.cpp:148] Top shape: 24 64 14 14 (301056)
I0403 15:17:46.664566 31417 net.cpp:156] Memory required for data: 980223264
I0403 15:17:46.664582 31417 layer_factory.hpp:77] Creating layer inception_4b/output
I0403 15:17:46.664602 31417 net.cpp:91] Creating Layer inception_4b/output
I0403 15:17:46.664618 31417 net.cpp:425] inception_4b/output <- inception_4b/1x1
I0403 15:17:46.664634 31417 net.cpp:425] inception_4b/output <- inception_4b/3x3
I0403 15:17:46.664651 31417 net.cpp:425] inception_4b/output <- inception_4b/5x5
I0403 15:17:46.664667 31417 net.cpp:425] inception_4b/output <- inception_4b/pool_proj
I0403 15:17:46.664687 31417 net.cpp:399] inception_4b/output -> inception_4b/output
I0403 15:17:46.664734 31417 net.cpp:141] Setting up inception_4b/output
I0403 15:17:46.664759 31417 net.cpp:148] Top shape: 24 512 14 14 (2408448)
I0403 15:17:46.664775 31417 net.cpp:156] Memory required for data: 989857056
I0403 15:17:46.664805 31417 layer_factory.hpp:77] Creating layer inception_4b/output_inception_4b/output_0_split
I0403 15:17:46.664829 31417 net.cpp:91] Creating Layer inception_4b/output_inception_4b/output_0_split
I0403 15:17:46.664845 31417 net.cpp:425] inception_4b/output_inception_4b/output_0_split <- inception_4b/output
I0403 15:17:46.664865 31417 net.cpp:399] inception_4b/output_inception_4b/output_0_split -> inception_4b/output_inception_4b/output_0_split_0
I0403 15:17:46.664885 31417 net.cpp:399] inception_4b/output_inception_4b/output_0_split -> inception_4b/output_inception_4b/output_0_split_1
I0403 15:17:46.664906 31417 net.cpp:399] inception_4b/output_inception_4b/output_0_split -> inception_4b/output_inception_4b/output_0_split_2
I0403 15:17:46.664932 31417 net.cpp:399] inception_4b/output_inception_4b/output_0_split -> inception_4b/output_inception_4b/output_0_split_3
I0403 15:17:46.665016 31417 net.cpp:141] Setting up inception_4b/output_inception_4b/output_0_split
I0403 15:17:46.665041 31417 net.cpp:148] Top shape: 24 512 14 14 (2408448)
I0403 15:17:46.665057 31417 net.cpp:148] Top shape: 24 512 14 14 (2408448)
I0403 15:17:46.665076 31417 net.cpp:148] Top shape: 24 512 14 14 (2408448)
I0403 15:17:46.665091 31417 net.cpp:148] Top shape: 24 512 14 14 (2408448)
I0403 15:17:46.665107 31417 net.cpp:156] Memory required for data: 1028392224
I0403 15:17:46.665120 31417 layer_factory.hpp:77] Creating layer inception_4c/1x1
I0403 15:17:46.665143 31417 net.cpp:91] Creating Layer inception_4c/1x1
I0403 15:17:46.665163 31417 net.cpp:425] inception_4c/1x1 <- inception_4b/output_inception_4b/output_0_split_0
I0403 15:17:46.665187 31417 net.cpp:399] inception_4c/1x1 -> inception_4c/1x1
I0403 15:17:46.666671 31417 net.cpp:141] Setting up inception_4c/1x1
I0403 15:17:46.666703 31417 net.cpp:148] Top shape: 24 128 14 14 (602112)
I0403 15:17:46.666721 31417 net.cpp:156] Memory required for data: 1030800672
I0403 15:17:46.666740 31417 layer_factory.hpp:77] Creating layer inception_4c/relu_1x1
I0403 15:17:46.666759 31417 net.cpp:91] Creating Layer inception_4c/relu_1x1
I0403 15:17:46.666775 31417 net.cpp:425] inception_4c/relu_1x1 <- inception_4c/1x1
I0403 15:17:46.666795 31417 net.cpp:386] inception_4c/relu_1x1 -> inception_4c/1x1 (in-place)
I0403 15:17:46.666977 31417 net.cpp:141] Setting up inception_4c/relu_1x1
I0403 15:17:46.667003 31417 net.cpp:148] Top shape: 24 128 14 14 (602112)
I0403 15:17:46.667018 31417 net.cpp:156] Memory required for data: 1033209120
I0403 15:17:46.667033 31417 layer_factory.hpp:77] Creating layer inception_4c/3x3_reduce
I0403 15:17:46.667057 31417 net.cpp:91] Creating Layer inception_4c/3x3_reduce
I0403 15:17:46.667074 31417 net.cpp:425] inception_4c/3x3_reduce <- inception_4b/output_inception_4b/output_0_split_1
I0403 15:17:46.667098 31417 net.cpp:399] inception_4c/3x3_reduce -> inception_4c/3x3_reduce
I0403 15:17:46.669069 31417 net.cpp:141] Setting up inception_4c/3x3_reduce
I0403 15:17:46.669100 31417 net.cpp:148] Top shape: 24 128 14 14 (602112)
I0403 15:17:46.669116 31417 net.cpp:156] Memory required for data: 1035617568
I0403 15:17:46.669137 31417 layer_factory.hpp:77] Creating layer inception_4c/relu_3x3_reduce
I0403 15:17:46.669160 31417 net.cpp:91] Creating Layer inception_4c/relu_3x3_reduce
I0403 15:17:46.669178 31417 net.cpp:425] inception_4c/relu_3x3_reduce <- inception_4c/3x3_reduce
I0403 15:17:46.669198 31417 net.cpp:386] inception_4c/relu_3x3_reduce -> inception_4c/3x3_reduce (in-place)
I0403 15:17:46.669497 31417 net.cpp:141] Setting up inception_4c/relu_3x3_reduce
I0403 15:17:46.669525 31417 net.cpp:148] Top shape: 24 128 14 14 (602112)
I0403 15:17:46.669540 31417 net.cpp:156] Memory required for data: 1038026016
I0403 15:17:46.669555 31417 layer_factory.hpp:77] Creating layer inception_4c/3x3
I0403 15:17:46.669580 31417 net.cpp:91] Creating Layer inception_4c/3x3
I0403 15:17:46.669600 31417 net.cpp:425] inception_4c/3x3 <- inception_4c/3x3_reduce
I0403 15:17:46.669625 31417 net.cpp:399] inception_4c/3x3 -> inception_4c/3x3
I0403 15:17:46.673296 31417 net.cpp:141] Setting up inception_4c/3x3
I0403 15:17:46.673339 31417 net.cpp:148] Top shape: 24 256 14 14 (1204224)
I0403 15:17:46.673357 31417 net.cpp:156] Memory required for data: 1042842912
I0403 15:17:46.673390 31417 layer_factory.hpp:77] Creating layer inception_4c/relu_3x3
I0403 15:17:46.673413 31417 net.cpp:91] Creating Layer inception_4c/relu_3x3
I0403 15:17:46.673431 31417 net.cpp:425] inception_4c/relu_3x3 <- inception_4c/3x3
I0403 15:17:46.673450 31417 net.cpp:386] inception_4c/relu_3x3 -> inception_4c/3x3 (in-place)
I0403 15:17:46.673637 31417 net.cpp:141] Setting up inception_4c/relu_3x3
I0403 15:17:46.673665 31417 net.cpp:148] Top shape: 24 256 14 14 (1204224)
I0403 15:17:46.673681 31417 net.cpp:156] Memory required for data: 1047659808
I0403 15:17:46.673696 31417 layer_factory.hpp:77] Creating layer inception_4c/5x5_reduce
I0403 15:17:46.673722 31417 net.cpp:91] Creating Layer inception_4c/5x5_reduce
I0403 15:17:46.673740 31417 net.cpp:425] inception_4c/5x5_reduce <- inception_4b/output_inception_4b/output_0_split_2
I0403 15:17:46.673761 31417 net.cpp:399] inception_4c/5x5_reduce -> inception_4c/5x5_reduce
I0403 15:17:46.674867 31417 net.cpp:141] Setting up inception_4c/5x5_reduce
I0403 15:17:46.674897 31417 net.cpp:148] Top shape: 24 24 14 14 (112896)
I0403 15:17:46.674916 31417 net.cpp:156] Memory required for data: 1048111392
I0403 15:17:46.674935 31417 layer_factory.hpp:77] Creating layer inception_4c/relu_5x5_reduce
I0403 15:17:46.674955 31417 net.cpp:91] Creating Layer inception_4c/relu_5x5_reduce
I0403 15:17:46.674975 31417 net.cpp:425] inception_4c/relu_5x5_reduce <- inception_4c/5x5_reduce
I0403 15:17:46.674993 31417 net.cpp:386] inception_4c/relu_5x5_reduce -> inception_4c/5x5_reduce (in-place)
I0403 15:17:46.675178 31417 net.cpp:141] Setting up inception_4c/relu_5x5_reduce
I0403 15:17:46.675204 31417 net.cpp:148] Top shape: 24 24 14 14 (112896)
I0403 15:17:46.675220 31417 net.cpp:156] Memory required for data: 1048562976
I0403 15:17:46.675236 31417 layer_factory.hpp:77] Creating layer inception_4c/5x5
I0403 15:17:46.675259 31417 net.cpp:91] Creating Layer inception_4c/5x5
I0403 15:17:46.675277 31417 net.cpp:425] inception_4c/5x5 <- inception_4c/5x5_reduce
I0403 15:17:46.675303 31417 net.cpp:399] inception_4c/5x5 -> inception_4c/5x5
I0403 15:17:46.676674 31417 net.cpp:141] Setting up inception_4c/5x5
I0403 15:17:46.676707 31417 net.cpp:148] Top shape: 24 64 14 14 (301056)
I0403 15:17:46.676726 31417 net.cpp:156] Memory required for data: 1049767200
I0403 15:17:46.676746 31417 layer_factory.hpp:77] Creating layer inception_4c/relu_5x5
I0403 15:17:46.676765 31417 net.cpp:91] Creating Layer inception_4c/relu_5x5
I0403 15:17:46.676784 31417 net.cpp:425] inception_4c/relu_5x5 <- inception_4c/5x5
I0403 15:17:46.676807 31417 net.cpp:386] inception_4c/relu_5x5 -> inception_4c/5x5 (in-place)
I0403 15:17:46.677104 31417 net.cpp:141] Setting up inception_4c/relu_5x5
I0403 15:17:46.677137 31417 net.cpp:148] Top shape: 24 64 14 14 (301056)
I0403 15:17:46.677155 31417 net.cpp:156] Memory required for data: 1050971424
I0403 15:17:46.677171 31417 layer_factory.hpp:77] Creating layer inception_4c/pool
I0403 15:17:46.677189 31417 net.cpp:91] Creating Layer inception_4c/pool
I0403 15:17:46.677207 31417 net.cpp:425] inception_4c/pool <- inception_4b/output_inception_4b/output_0_split_3
I0403 15:17:46.677230 31417 net.cpp:399] inception_4c/pool -> inception_4c/pool
I0403 15:17:46.677304 31417 net.cpp:141] Setting up inception_4c/pool
I0403 15:17:46.677330 31417 net.cpp:148] Top shape: 24 512 14 14 (2408448)
I0403 15:17:46.677345 31417 net.cpp:156] Memory required for data: 1060605216
I0403 15:17:46.677359 31417 layer_factory.hpp:77] Creating layer inception_4c/pool_proj
I0403 15:17:46.677383 31417 net.cpp:91] Creating Layer inception_4c/pool_proj
I0403 15:17:46.677402 31417 net.cpp:425] inception_4c/pool_proj <- inception_4c/pool
I0403 15:17:46.677435 31417 net.cpp:399] inception_4c/pool_proj -> inception_4c/pool_proj
I0403 15:17:46.678699 31417 net.cpp:141] Setting up inception_4c/pool_proj
I0403 15:17:46.678728 31417 net.cpp:148] Top shape: 24 64 14 14 (301056)
I0403 15:17:46.678761 31417 net.cpp:156] Memory required for data: 1061809440
I0403 15:17:46.678782 31417 layer_factory.hpp:77] Creating layer inception_4c/relu_pool_proj
I0403 15:17:46.678805 31417 net.cpp:91] Creating Layer inception_4c/relu_pool_proj
I0403 15:17:46.678825 31417 net.cpp:425] inception_4c/relu_pool_proj <- inception_4c/pool_proj
I0403 15:17:46.678844 31417 net.cpp:386] inception_4c/relu_pool_proj -> inception_4c/pool_proj (in-place)
I0403 15:17:46.679036 31417 net.cpp:141] Setting up inception_4c/relu_pool_proj
I0403 15:17:46.679065 31417 net.cpp:148] Top shape: 24 64 14 14 (301056)
I0403 15:17:46.679082 31417 net.cpp:156] Memory required for data: 1063013664
I0403 15:17:46.679103 31417 layer_factory.hpp:77] Creating layer inception_4c/output
I0403 15:17:46.679122 31417 net.cpp:91] Creating Layer inception_4c/output
I0403 15:17:46.679141 31417 net.cpp:425] inception_4c/output <- inception_4c/1x1
I0403 15:17:46.679162 31417 net.cpp:425] inception_4c/output <- inception_4c/3x3
I0403 15:17:46.679179 31417 net.cpp:425] inception_4c/output <- inception_4c/5x5
I0403 15:17:46.679198 31417 net.cpp:425] inception_4c/output <- inception_4c/pool_proj
I0403 15:17:46.679221 31417 net.cpp:399] inception_4c/output -> inception_4c/output
I0403 15:17:46.679270 31417 net.cpp:141] Setting up inception_4c/output
I0403 15:17:46.679298 31417 net.cpp:148] Top shape: 24 512 14 14 (2408448)
I0403 15:17:46.679316 31417 net.cpp:156] Memory required for data: 1072647456
I0403 15:17:46.679330 31417 layer_factory.hpp:77] Creating layer inception_4c/output_inception_4c/output_0_split
I0403 15:17:46.679352 31417 net.cpp:91] Creating Layer inception_4c/output_inception_4c/output_0_split
I0403 15:17:46.679369 31417 net.cpp:425] inception_4c/output_inception_4c/output_0_split <- inception_4c/output
I0403 15:17:46.679388 31417 net.cpp:399] inception_4c/output_inception_4c/output_0_split -> inception_4c/output_inception_4c/output_0_split_0
I0403 15:17:46.679410 31417 net.cpp:399] inception_4c/output_inception_4c/output_0_split -> inception_4c/output_inception_4c/output_0_split_1
I0403 15:17:46.679432 31417 net.cpp:399] inception_4c/output_inception_4c/output_0_split -> inception_4c/output_inception_4c/output_0_split_2
I0403 15:17:46.679456 31417 net.cpp:399] inception_4c/output_inception_4c/output_0_split -> inception_4c/output_inception_4c/output_0_split_3
I0403 15:17:46.679545 31417 net.cpp:141] Setting up inception_4c/output_inception_4c/output_0_split
I0403 15:17:46.679572 31417 net.cpp:148] Top shape: 24 512 14 14 (2408448)
I0403 15:17:46.679590 31417 net.cpp:148] Top shape: 24 512 14 14 (2408448)
I0403 15:17:46.679610 31417 net.cpp:148] Top shape: 24 512 14 14 (2408448)
I0403 15:17:46.679625 31417 net.cpp:148] Top shape: 24 512 14 14 (2408448)
I0403 15:17:46.679641 31417 net.cpp:156] Memory required for data: 1111182624
I0403 15:17:46.679656 31417 layer_factory.hpp:77] Creating layer inception_4d/1x1
I0403 15:17:46.679680 31417 net.cpp:91] Creating Layer inception_4d/1x1
I0403 15:17:46.679699 31417 net.cpp:425] inception_4d/1x1 <- inception_4c/output_inception_4c/output_0_split_0
I0403 15:17:46.679723 31417 net.cpp:399] inception_4d/1x1 -> inception_4d/1x1
I0403 15:17:46.681149 31417 net.cpp:141] Setting up inception_4d/1x1
I0403 15:17:46.681179 31417 net.cpp:148] Top shape: 24 112 14 14 (526848)
I0403 15:17:46.681196 31417 net.cpp:156] Memory required for data: 1113290016
I0403 15:17:46.681216 31417 layer_factory.hpp:77] Creating layer inception_4d/relu_1x1
I0403 15:17:46.681237 31417 net.cpp:91] Creating Layer inception_4d/relu_1x1
I0403 15:17:46.681257 31417 net.cpp:425] inception_4d/relu_1x1 <- inception_4d/1x1
I0403 15:17:46.681275 31417 net.cpp:386] inception_4d/relu_1x1 -> inception_4d/1x1 (in-place)
I0403 15:17:46.681475 31417 net.cpp:141] Setting up inception_4d/relu_1x1
I0403 15:17:46.681502 31417 net.cpp:148] Top shape: 24 112 14 14 (526848)
I0403 15:17:46.681517 31417 net.cpp:156] Memory required for data: 1115397408
I0403 15:17:46.681534 31417 layer_factory.hpp:77] Creating layer inception_4d/3x3_reduce
I0403 15:17:46.681571 31417 net.cpp:91] Creating Layer inception_4d/3x3_reduce
I0403 15:17:46.681591 31417 net.cpp:425] inception_4d/3x3_reduce <- inception_4c/output_inception_4c/output_0_split_1
I0403 15:17:46.681615 31417 net.cpp:399] inception_4d/3x3_reduce -> inception_4d/3x3_reduce
I0403 15:17:46.683179 31417 net.cpp:141] Setting up inception_4d/3x3_reduce
I0403 15:17:46.683210 31417 net.cpp:148] Top shape: 24 144 14 14 (677376)
I0403 15:17:46.683226 31417 net.cpp:156] Memory required for data: 1118106912
I0403 15:17:46.683246 31417 layer_factory.hpp:77] Creating layer inception_4d/relu_3x3_reduce
I0403 15:17:46.683265 31417 net.cpp:91] Creating Layer inception_4d/relu_3x3_reduce
I0403 15:17:46.683287 31417 net.cpp:425] inception_4d/relu_3x3_reduce <- inception_4d/3x3_reduce
I0403 15:17:46.683310 31417 net.cpp:386] inception_4d/relu_3x3_reduce -> inception_4d/3x3_reduce (in-place)
I0403 15:17:46.683635 31417 net.cpp:141] Setting up inception_4d/relu_3x3_reduce
I0403 15:17:46.683676 31417 net.cpp:148] Top shape: 24 144 14 14 (677376)
I0403 15:17:46.683692 31417 net.cpp:156] Memory required for data: 1120816416
I0403 15:17:46.683708 31417 layer_factory.hpp:77] Creating layer inception_4d/3x3
I0403 15:17:46.683732 31417 net.cpp:91] Creating Layer inception_4d/3x3
I0403 15:17:46.683753 31417 net.cpp:425] inception_4d/3x3 <- inception_4d/3x3_reduce
I0403 15:17:46.683775 31417 net.cpp:399] inception_4d/3x3 -> inception_4d/3x3
I0403 15:17:46.688194 31417 net.cpp:141] Setting up inception_4d/3x3
I0403 15:17:46.688226 31417 net.cpp:148] Top shape: 24 288 14 14 (1354752)
I0403 15:17:46.688246 31417 net.cpp:156] Memory required for data: 1126235424
I0403 15:17:46.688268 31417 layer_factory.hpp:77] Creating layer inception_4d/relu_3x3
I0403 15:17:46.688297 31417 net.cpp:91] Creating Layer inception_4d/relu_3x3
I0403 15:17:46.688318 31417 net.cpp:425] inception_4d/relu_3x3 <- inception_4d/3x3
I0403 15:17:46.688338 31417 net.cpp:386] inception_4d/relu_3x3 -> inception_4d/3x3 (in-place)
I0403 15:17:46.688530 31417 net.cpp:141] Setting up inception_4d/relu_3x3
I0403 15:17:46.688557 31417 net.cpp:148] Top shape: 24 288 14 14 (1354752)
I0403 15:17:46.688576 31417 net.cpp:156] Memory required for data: 1131654432
I0403 15:17:46.688593 31417 layer_factory.hpp:77] Creating layer inception_4d/5x5_reduce
I0403 15:17:46.688616 31417 net.cpp:91] Creating Layer inception_4d/5x5_reduce
I0403 15:17:46.688637 31417 net.cpp:425] inception_4d/5x5_reduce <- inception_4c/output_inception_4c/output_0_split_2
I0403 15:17:46.688658 31417 net.cpp:399] inception_4d/5x5_reduce -> inception_4d/5x5_reduce
I0403 15:17:46.689843 31417 net.cpp:141] Setting up inception_4d/5x5_reduce
I0403 15:17:46.689873 31417 net.cpp:148] Top shape: 24 32 14 14 (150528)
I0403 15:17:46.689893 31417 net.cpp:156] Memory required for data: 1132256544
I0403 15:17:46.689913 31417 layer_factory.hpp:77] Creating layer inception_4d/relu_5x5_reduce
I0403 15:17:46.689939 31417 net.cpp:91] Creating Layer inception_4d/relu_5x5_reduce
I0403 15:17:46.689959 31417 net.cpp:425] inception_4d/relu_5x5_reduce <- inception_4d/5x5_reduce
I0403 15:17:46.689980 31417 net.cpp:386] inception_4d/relu_5x5_reduce -> inception_4d/5x5_reduce (in-place)
I0403 15:17:46.690172 31417 net.cpp:141] Setting up inception_4d/relu_5x5_reduce
I0403 15:17:46.690199 31417 net.cpp:148] Top shape: 24 32 14 14 (150528)
I0403 15:17:46.690217 31417 net.cpp:156] Memory required for data: 1132858656
I0403 15:17:46.690233 31417 layer_factory.hpp:77] Creating layer inception_4d/5x5
I0403 15:17:46.690261 31417 net.cpp:91] Creating Layer inception_4d/5x5
I0403 15:17:46.690287 31417 net.cpp:425] inception_4d/5x5 <- inception_4d/5x5_reduce
I0403 15:17:46.690310 31417 net.cpp:399] inception_4d/5x5 -> inception_4d/5x5
I0403 15:17:46.691866 31417 net.cpp:141] Setting up inception_4d/5x5
I0403 15:17:46.691896 31417 net.cpp:148] Top shape: 24 64 14 14 (301056)
I0403 15:17:46.691913 31417 net.cpp:156] Memory required for data: 1134062880
I0403 15:17:46.691934 31417 layer_factory.hpp:77] Creating layer inception_4d/relu_5x5
I0403 15:17:46.691970 31417 net.cpp:91] Creating Layer inception_4d/relu_5x5
I0403 15:17:46.691989 31417 net.cpp:425] inception_4d/relu_5x5 <- inception_4d/5x5
I0403 15:17:46.692009 31417 net.cpp:386] inception_4d/relu_5x5 -> inception_4d/5x5 (in-place)
I0403 15:17:46.692325 31417 net.cpp:141] Setting up inception_4d/relu_5x5
I0403 15:17:46.692354 31417 net.cpp:148] Top shape: 24 64 14 14 (301056)
I0403 15:17:46.692371 31417 net.cpp:156] Memory required for data: 1135267104
I0403 15:17:46.692387 31417 layer_factory.hpp:77] Creating layer inception_4d/pool
I0403 15:17:46.692409 31417 net.cpp:91] Creating Layer inception_4d/pool
I0403 15:17:46.692427 31417 net.cpp:425] inception_4d/pool <- inception_4c/output_inception_4c/output_0_split_3
I0403 15:17:46.692448 31417 net.cpp:399] inception_4d/pool -> inception_4d/pool
I0403 15:17:46.692518 31417 net.cpp:141] Setting up inception_4d/pool
I0403 15:17:46.692544 31417 net.cpp:148] Top shape: 24 512 14 14 (2408448)
I0403 15:17:46.692565 31417 net.cpp:156] Memory required for data: 1144900896
I0403 15:17:46.692582 31417 layer_factory.hpp:77] Creating layer inception_4d/pool_proj
I0403 15:17:46.692605 31417 net.cpp:91] Creating Layer inception_4d/pool_proj
I0403 15:17:46.692625 31417 net.cpp:425] inception_4d/pool_proj <- inception_4d/pool
I0403 15:17:46.692646 31417 net.cpp:399] inception_4d/pool_proj -> inception_4d/pool_proj
I0403 15:17:46.694474 31417 net.cpp:141] Setting up inception_4d/pool_proj
I0403 15:17:46.694506 31417 net.cpp:148] Top shape: 24 64 14 14 (301056)
I0403 15:17:46.694522 31417 net.cpp:156] Memory required for data: 1146105120
I0403 15:17:46.694543 31417 layer_factory.hpp:77] Creating layer inception_4d/relu_pool_proj
I0403 15:17:46.694564 31417 net.cpp:91] Creating Layer inception_4d/relu_pool_proj
I0403 15:17:46.694583 31417 net.cpp:425] inception_4d/relu_pool_proj <- inception_4d/pool_proj
I0403 15:17:46.694602 31417 net.cpp:386] inception_4d/relu_pool_proj -> inception_4d/pool_proj (in-place)
I0403 15:17:46.694795 31417 net.cpp:141] Setting up inception_4d/relu_pool_proj
I0403 15:17:46.694823 31417 net.cpp:148] Top shape: 24 64 14 14 (301056)
I0403 15:17:46.694841 31417 net.cpp:156] Memory required for data: 1147309344
I0403 15:17:46.694859 31417 layer_factory.hpp:77] Creating layer inception_4d/output
I0403 15:17:46.694877 31417 net.cpp:91] Creating Layer inception_4d/output
I0403 15:17:46.694893 31417 net.cpp:425] inception_4d/output <- inception_4d/1x1
I0403 15:17:46.694911 31417 net.cpp:425] inception_4d/output <- inception_4d/3x3
I0403 15:17:46.694928 31417 net.cpp:425] inception_4d/output <- inception_4d/5x5
I0403 15:17:46.694947 31417 net.cpp:425] inception_4d/output <- inception_4d/pool_proj
I0403 15:17:46.694965 31417 net.cpp:399] inception_4d/output -> inception_4d/output
I0403 15:17:46.695018 31417 net.cpp:141] Setting up inception_4d/output
I0403 15:17:46.695047 31417 net.cpp:148] Top shape: 24 528 14 14 (2483712)
I0403 15:17:46.695063 31417 net.cpp:156] Memory required for data: 1157244192
I0403 15:17:46.695078 31417 layer_factory.hpp:77] Creating layer inception_4d/output_inception_4d/output_0_split
I0403 15:17:46.695098 31417 net.cpp:91] Creating Layer inception_4d/output_inception_4d/output_0_split
I0403 15:17:46.695116 31417 net.cpp:425] inception_4d/output_inception_4d/output_0_split <- inception_4d/output
I0403 15:17:46.695137 31417 net.cpp:399] inception_4d/output_inception_4d/output_0_split -> inception_4d/output_inception_4d/output_0_split_0
I0403 15:17:46.695163 31417 net.cpp:399] inception_4d/output_inception_4d/output_0_split -> inception_4d/output_inception_4d/output_0_split_1
I0403 15:17:46.695186 31417 net.cpp:399] inception_4d/output_inception_4d/output_0_split -> inception_4d/output_inception_4d/output_0_split_2
I0403 15:17:46.695211 31417 net.cpp:399] inception_4d/output_inception_4d/output_0_split -> inception_4d/output_inception_4d/output_0_split_3
I0403 15:17:46.695248 31417 net.cpp:399] inception_4d/output_inception_4d/output_0_split -> inception_4d/output_inception_4d/output_0_split_4
I0403 15:17:46.695368 31417 net.cpp:141] Setting up inception_4d/output_inception_4d/output_0_split
I0403 15:17:46.695410 31417 net.cpp:148] Top shape: 24 528 14 14 (2483712)
I0403 15:17:46.695430 31417 net.cpp:148] Top shape: 24 528 14 14 (2483712)
I0403 15:17:46.695451 31417 net.cpp:148] Top shape: 24 528 14 14 (2483712)
I0403 15:17:46.695471 31417 net.cpp:148] Top shape: 24 528 14 14 (2483712)
I0403 15:17:46.695490 31417 net.cpp:148] Top shape: 24 528 14 14 (2483712)
I0403 15:17:46.695519 31417 net.cpp:156] Memory required for data: 1206918432
I0403 15:17:46.695538 31417 layer_factory.hpp:77] Creating layer loss2/ave_pool
I0403 15:17:46.695559 31417 net.cpp:91] Creating Layer loss2/ave_pool
I0403 15:17:46.695579 31417 net.cpp:425] loss2/ave_pool <- inception_4d/output_inception_4d/output_0_split_0
I0403 15:17:46.695602 31417 net.cpp:399] loss2/ave_pool -> loss2/ave_pool
I0403 15:17:46.695937 31417 net.cpp:141] Setting up loss2/ave_pool
I0403 15:17:46.695966 31417 net.cpp:148] Top shape: 24 528 4 4 (202752)
I0403 15:17:46.695986 31417 net.cpp:156] Memory required for data: 1207729440
I0403 15:17:46.696002 31417 layer_factory.hpp:77] Creating layer loss2/conv
I0403 15:17:46.696027 31417 net.cpp:91] Creating Layer loss2/conv
I0403 15:17:46.696046 31417 net.cpp:425] loss2/conv <- loss2/ave_pool
I0403 15:17:46.696071 31417 net.cpp:399] loss2/conv -> loss2/conv
I0403 15:17:46.697955 31417 net.cpp:141] Setting up loss2/conv
I0403 15:17:46.697985 31417 net.cpp:148] Top shape: 24 128 4 4 (49152)
I0403 15:17:46.698004 31417 net.cpp:156] Memory required for data: 1207926048
I0403 15:17:46.698021 31417 layer_factory.hpp:77] Creating layer loss2/relu_conv
I0403 15:17:46.698040 31417 net.cpp:91] Creating Layer loss2/relu_conv
I0403 15:17:46.698057 31417 net.cpp:425] loss2/relu_conv <- loss2/conv
I0403 15:17:46.698076 31417 net.cpp:386] loss2/relu_conv -> loss2/conv (in-place)
I0403 15:17:46.698365 31417 net.cpp:141] Setting up loss2/relu_conv
I0403 15:17:46.698395 31417 net.cpp:148] Top shape: 24 128 4 4 (49152)
I0403 15:17:46.698410 31417 net.cpp:156] Memory required for data: 1208122656
I0403 15:17:46.698426 31417 layer_factory.hpp:77] Creating layer loss2/fc
I0403 15:17:46.698446 31417 net.cpp:91] Creating Layer loss2/fc
I0403 15:17:46.698462 31417 net.cpp:425] loss2/fc <- loss2/conv
I0403 15:17:46.698483 31417 net.cpp:399] loss2/fc -> loss2/fc
I0403 15:17:46.715814 31417 net.cpp:141] Setting up loss2/fc
I0403 15:17:46.715847 31417 net.cpp:148] Top shape: 24 1024 (24576)
I0403 15:17:46.715863 31417 net.cpp:156] Memory required for data: 1208220960
I0403 15:17:46.715883 31417 layer_factory.hpp:77] Creating layer loss2/relu_fc
I0403 15:17:46.715903 31417 net.cpp:91] Creating Layer loss2/relu_fc
I0403 15:17:46.715934 31417 net.cpp:425] loss2/relu_fc <- loss2/fc
I0403 15:17:46.715952 31417 net.cpp:386] loss2/relu_fc -> loss2/fc (in-place)
I0403 15:17:46.716286 31417 net.cpp:141] Setting up loss2/relu_fc
I0403 15:17:46.716315 31417 net.cpp:148] Top shape: 24 1024 (24576)
I0403 15:17:46.716331 31417 net.cpp:156] Memory required for data: 1208319264
I0403 15:17:46.716346 31417 layer_factory.hpp:77] Creating layer loss2/drop_fc
I0403 15:17:46.716367 31417 net.cpp:91] Creating Layer loss2/drop_fc
I0403 15:17:46.716384 31417 net.cpp:425] loss2/drop_fc <- loss2/fc
I0403 15:17:46.716404 31417 net.cpp:386] loss2/drop_fc -> loss2/fc (in-place)
I0403 15:17:46.716454 31417 net.cpp:141] Setting up loss2/drop_fc
I0403 15:17:46.716480 31417 net.cpp:148] Top shape: 24 1024 (24576)
I0403 15:17:46.716496 31417 net.cpp:156] Memory required for data: 1208417568
I0403 15:17:46.716512 31417 layer_factory.hpp:77] Creating layer loss2/classifier_plantvillage
I0403 15:17:46.716531 31417 net.cpp:91] Creating Layer loss2/classifier_plantvillage
I0403 15:17:46.716560 31417 net.cpp:425] loss2/classifier_plantvillage <- loss2/fc
I0403 15:17:46.716581 31417 net.cpp:399] loss2/classifier_plantvillage -> loss2/classifier_plantvillage
I0403 15:17:46.716976 31417 net.cpp:141] Setting up loss2/classifier_plantvillage
I0403 15:17:46.717001 31417 net.cpp:148] Top shape: 24 38 (912)
I0403 15:17:46.717017 31417 net.cpp:156] Memory required for data: 1208421216
I0403 15:17:46.717052 31417 layer_factory.hpp:77] Creating layer loss2/classifier_plantvillage_loss2/classifier_plantvillage_0_split
I0403 15:17:46.717072 31417 net.cpp:91] Creating Layer loss2/classifier_plantvillage_loss2/classifier_plantvillage_0_split
I0403 15:17:46.717090 31417 net.cpp:425] loss2/classifier_plantvillage_loss2/classifier_plantvillage_0_split <- loss2/classifier_plantvillage
I0403 15:17:46.717108 31417 net.cpp:399] loss2/classifier_plantvillage_loss2/classifier_plantvillage_0_split -> loss2/classifier_plantvillage_loss2/classifier_plantvillage_0_split_0
I0403 15:17:46.717130 31417 net.cpp:399] loss2/classifier_plantvillage_loss2/classifier_plantvillage_0_split -> loss2/classifier_plantvillage_loss2/classifier_plantvillage_0_split_1
I0403 15:17:46.717159 31417 net.cpp:399] loss2/classifier_plantvillage_loss2/classifier_plantvillage_0_split -> loss2/classifier_plantvillage_loss2/classifier_plantvillage_0_split_2
I0403 15:17:46.717233 31417 net.cpp:141] Setting up loss2/classifier_plantvillage_loss2/classifier_plantvillage_0_split
I0403 15:17:46.717257 31417 net.cpp:148] Top shape: 24 38 (912)
I0403 15:17:46.717277 31417 net.cpp:148] Top shape: 24 38 (912)
I0403 15:17:46.717296 31417 net.cpp:148] Top shape: 24 38 (912)
I0403 15:17:46.717313 31417 net.cpp:156] Memory required for data: 1208432160
I0403 15:17:46.717327 31417 layer_factory.hpp:77] Creating layer inception_4e/1x1
I0403 15:17:46.717347 31417 net.cpp:91] Creating Layer inception_4e/1x1
I0403 15:17:46.717365 31417 net.cpp:425] inception_4e/1x1 <- inception_4d/output_inception_4d/output_0_split_1
I0403 15:17:46.717386 31417 net.cpp:399] inception_4e/1x1 -> inception_4e/1x1
I0403 15:17:46.719197 31417 net.cpp:141] Setting up inception_4e/1x1
I0403 15:17:46.719229 31417 net.cpp:148] Top shape: 24 256 14 14 (1204224)
I0403 15:17:46.719249 31417 net.cpp:156] Memory required for data: 1213249056
I0403 15:17:46.719269 31417 layer_factory.hpp:77] Creating layer inception_4e/relu_1x1
I0403 15:17:46.719293 31417 net.cpp:91] Creating Layer inception_4e/relu_1x1
I0403 15:17:46.719312 31417 net.cpp:425] inception_4e/relu_1x1 <- inception_4e/1x1
I0403 15:17:46.719332 31417 net.cpp:386] inception_4e/relu_1x1 -> inception_4e/1x1 (in-place)
I0403 15:17:46.719630 31417 net.cpp:141] Setting up inception_4e/relu_1x1
I0403 15:17:46.719658 31417 net.cpp:148] Top shape: 24 256 14 14 (1204224)
I0403 15:17:46.719676 31417 net.cpp:156] Memory required for data: 1218065952
I0403 15:17:46.719691 31417 layer_factory.hpp:77] Creating layer inception_4e/3x3_reduce
I0403 15:17:46.719714 31417 net.cpp:91] Creating Layer inception_4e/3x3_reduce
I0403 15:17:46.719734 31417 net.cpp:425] inception_4e/3x3_reduce <- inception_4d/output_inception_4d/output_0_split_2
I0403 15:17:46.719754 31417 net.cpp:399] inception_4e/3x3_reduce -> inception_4e/3x3_reduce
I0403 15:17:46.721881 31417 net.cpp:141] Setting up inception_4e/3x3_reduce
I0403 15:17:46.721911 31417 net.cpp:148] Top shape: 24 160 14 14 (752640)
I0403 15:17:46.721931 31417 net.cpp:156] Memory required for data: 1221076512
I0403 15:17:46.721951 31417 layer_factory.hpp:77] Creating layer inception_4e/relu_3x3_reduce
I0403 15:17:46.721969 31417 net.cpp:91] Creating Layer inception_4e/relu_3x3_reduce
I0403 15:17:46.721987 31417 net.cpp:425] inception_4e/relu_3x3_reduce <- inception_4e/3x3_reduce
I0403 15:17:46.722004 31417 net.cpp:386] inception_4e/relu_3x3_reduce -> inception_4e/3x3_reduce (in-place)
I0403 15:17:46.722194 31417 net.cpp:141] Setting up inception_4e/relu_3x3_reduce
I0403 15:17:46.722223 31417 net.cpp:148] Top shape: 24 160 14 14 (752640)
I0403 15:17:46.722239 31417 net.cpp:156] Memory required for data: 1224087072
I0403 15:17:46.722254 31417 layer_factory.hpp:77] Creating layer inception_4e/3x3
I0403 15:17:46.722276 31417 net.cpp:91] Creating Layer inception_4e/3x3
I0403 15:17:46.722300 31417 net.cpp:425] inception_4e/3x3 <- inception_4e/3x3_reduce
I0403 15:17:46.722321 31417 net.cpp:399] inception_4e/3x3 -> inception_4e/3x3
I0403 15:17:46.727360 31417 net.cpp:141] Setting up inception_4e/3x3
I0403 15:17:46.727404 31417 net.cpp:148] Top shape: 24 320 14 14 (1505280)
I0403 15:17:46.727422 31417 net.cpp:156] Memory required for data: 1230108192
I0403 15:17:46.727442 31417 layer_factory.hpp:77] Creating layer inception_4e/relu_3x3
I0403 15:17:46.727469 31417 net.cpp:91] Creating Layer inception_4e/relu_3x3
I0403 15:17:46.727488 31417 net.cpp:425] inception_4e/relu_3x3 <- inception_4e/3x3
I0403 15:17:46.727510 31417 net.cpp:386] inception_4e/relu_3x3 -> inception_4e/3x3 (in-place)
I0403 15:17:46.727818 31417 net.cpp:141] Setting up inception_4e/relu_3x3
I0403 15:17:46.727846 31417 net.cpp:148] Top shape: 24 320 14 14 (1505280)
I0403 15:17:46.727862 31417 net.cpp:156] Memory required for data: 1236129312
I0403 15:17:46.727877 31417 layer_factory.hpp:77] Creating layer inception_4e/5x5_reduce
I0403 15:17:46.727900 31417 net.cpp:91] Creating Layer inception_4e/5x5_reduce
I0403 15:17:46.727919 31417 net.cpp:425] inception_4e/5x5_reduce <- inception_4d/output_inception_4d/output_0_split_3
I0403 15:17:46.727941 31417 net.cpp:399] inception_4e/5x5_reduce -> inception_4e/5x5_reduce
I0403 15:17:46.729019 31417 net.cpp:141] Setting up inception_4e/5x5_reduce
I0403 15:17:46.729048 31417 net.cpp:148] Top shape: 24 32 14 14 (150528)
I0403 15:17:46.729065 31417 net.cpp:156] Memory required for data: 1236731424
I0403 15:17:46.729084 31417 layer_factory.hpp:77] Creating layer inception_4e/relu_5x5_reduce
I0403 15:17:46.729106 31417 net.cpp:91] Creating Layer inception_4e/relu_5x5_reduce
I0403 15:17:46.729125 31417 net.cpp:425] inception_4e/relu_5x5_reduce <- inception_4e/5x5_reduce
I0403 15:17:46.729143 31417 net.cpp:386] inception_4e/relu_5x5_reduce -> inception_4e/5x5_reduce (in-place)
I0403 15:17:46.729457 31417 net.cpp:141] Setting up inception_4e/relu_5x5_reduce
I0403 15:17:46.729485 31417 net.cpp:148] Top shape: 24 32 14 14 (150528)
I0403 15:17:46.729502 31417 net.cpp:156] Memory required for data: 1237333536
I0403 15:17:46.729518 31417 layer_factory.hpp:77] Creating layer inception_4e/5x5
I0403 15:17:46.729557 31417 net.cpp:91] Creating Layer inception_4e/5x5
I0403 15:17:46.729579 31417 net.cpp:425] inception_4e/5x5 <- inception_4e/5x5_reduce
I0403 15:17:46.729601 31417 net.cpp:399] inception_4e/5x5 -> inception_4e/5x5
I0403 15:17:46.731467 31417 net.cpp:141] Setting up inception_4e/5x5
I0403 15:17:46.731497 31417 net.cpp:148] Top shape: 24 128 14 14 (602112)
I0403 15:17:46.731516 31417 net.cpp:156] Memory required for data: 1239741984
I0403 15:17:46.731537 31417 layer_factory.hpp:77] Creating layer inception_4e/relu_5x5
I0403 15:17:46.731560 31417 net.cpp:91] Creating Layer inception_4e/relu_5x5
I0403 15:17:46.731580 31417 net.cpp:425] inception_4e/relu_5x5 <- inception_4e/5x5
I0403 15:17:46.731600 31417 net.cpp:386] inception_4e/relu_5x5 -> inception_4e/5x5 (in-place)
I0403 15:17:46.731801 31417 net.cpp:141] Setting up inception_4e/relu_5x5
I0403 15:17:46.731829 31417 net.cpp:148] Top shape: 24 128 14 14 (602112)
I0403 15:17:46.731848 31417 net.cpp:156] Memory required for data: 1242150432
I0403 15:17:46.731865 31417 layer_factory.hpp:77] Creating layer inception_4e/pool
I0403 15:17:46.731887 31417 net.cpp:91] Creating Layer inception_4e/pool
I0403 15:17:46.731907 31417 net.cpp:425] inception_4e/pool <- inception_4d/output_inception_4d/output_0_split_4
I0403 15:17:46.731928 31417 net.cpp:399] inception_4e/pool -> inception_4e/pool
I0403 15:17:46.732000 31417 net.cpp:141] Setting up inception_4e/pool
I0403 15:17:46.732028 31417 net.cpp:148] Top shape: 24 528 14 14 (2483712)
I0403 15:17:46.732043 31417 net.cpp:156] Memory required for data: 1252085280
I0403 15:17:46.732060 31417 layer_factory.hpp:77] Creating layer inception_4e/pool_proj
I0403 15:17:46.732082 31417 net.cpp:91] Creating Layer inception_4e/pool_proj
I0403 15:17:46.732100 31417 net.cpp:425] inception_4e/pool_proj <- inception_4e/pool
I0403 15:17:46.732122 31417 net.cpp:399] inception_4e/pool_proj -> inception_4e/pool_proj
I0403 15:17:46.733628 31417 net.cpp:141] Setting up inception_4e/pool_proj
I0403 15:17:46.733656 31417 net.cpp:148] Top shape: 24 128 14 14 (602112)
I0403 15:17:46.733686 31417 net.cpp:156] Memory required for data: 1254493728
I0403 15:17:46.733708 31417 layer_factory.hpp:77] Creating layer inception_4e/relu_pool_proj
I0403 15:17:46.733728 31417 net.cpp:91] Creating Layer inception_4e/relu_pool_proj
I0403 15:17:46.733747 31417 net.cpp:425] inception_4e/relu_pool_proj <- inception_4e/pool_proj
I0403 15:17:46.733765 31417 net.cpp:386] inception_4e/relu_pool_proj -> inception_4e/pool_proj (in-place)
I0403 15:17:46.734066 31417 net.cpp:141] Setting up inception_4e/relu_pool_proj
I0403 15:17:46.734093 31417 net.cpp:148] Top shape: 24 128 14 14 (602112)
I0403 15:17:46.734109 31417 net.cpp:156] Memory required for data: 1256902176
I0403 15:17:46.734124 31417 layer_factory.hpp:77] Creating layer inception_4e/output
I0403 15:17:46.734143 31417 net.cpp:91] Creating Layer inception_4e/output
I0403 15:17:46.734158 31417 net.cpp:425] inception_4e/output <- inception_4e/1x1
I0403 15:17:46.734175 31417 net.cpp:425] inception_4e/output <- inception_4e/3x3
I0403 15:17:46.734192 31417 net.cpp:425] inception_4e/output <- inception_4e/5x5
I0403 15:17:46.734210 31417 net.cpp:425] inception_4e/output <- inception_4e/pool_proj
I0403 15:17:46.734232 31417 net.cpp:399] inception_4e/output -> inception_4e/output
I0403 15:17:46.734293 31417 net.cpp:141] Setting up inception_4e/output
I0403 15:17:46.734319 31417 net.cpp:148] Top shape: 24 832 14 14 (3913728)
I0403 15:17:46.734335 31417 net.cpp:156] Memory required for data: 1272557088
I0403 15:17:46.734351 31417 layer_factory.hpp:77] Creating layer pool4/3x3_s2
I0403 15:17:46.734369 31417 net.cpp:91] Creating Layer pool4/3x3_s2
I0403 15:17:46.734386 31417 net.cpp:425] pool4/3x3_s2 <- inception_4e/output
I0403 15:17:46.734411 31417 net.cpp:399] pool4/3x3_s2 -> pool4/3x3_s2
I0403 15:17:46.734488 31417 net.cpp:141] Setting up pool4/3x3_s2
I0403 15:17:46.734515 31417 net.cpp:148] Top shape: 24 832 7 7 (978432)
I0403 15:17:46.734541 31417 net.cpp:156] Memory required for data: 1276470816
I0403 15:17:46.734558 31417 layer_factory.hpp:77] Creating layer pool4/3x3_s2_pool4/3x3_s2_0_split
I0403 15:17:46.734585 31417 net.cpp:91] Creating Layer pool4/3x3_s2_pool4/3x3_s2_0_split
I0403 15:17:46.734606 31417 net.cpp:425] pool4/3x3_s2_pool4/3x3_s2_0_split <- pool4/3x3_s2
I0403 15:17:46.734638 31417 net.cpp:399] pool4/3x3_s2_pool4/3x3_s2_0_split -> pool4/3x3_s2_pool4/3x3_s2_0_split_0
I0403 15:17:46.734663 31417 net.cpp:399] pool4/3x3_s2_pool4/3x3_s2_0_split -> pool4/3x3_s2_pool4/3x3_s2_0_split_1
I0403 15:17:46.734688 31417 net.cpp:399] pool4/3x3_s2_pool4/3x3_s2_0_split -> pool4/3x3_s2_pool4/3x3_s2_0_split_2
I0403 15:17:46.734710 31417 net.cpp:399] pool4/3x3_s2_pool4/3x3_s2_0_split -> pool4/3x3_s2_pool4/3x3_s2_0_split_3
I0403 15:17:46.734802 31417 net.cpp:141] Setting up pool4/3x3_s2_pool4/3x3_s2_0_split
I0403 15:17:46.734855 31417 net.cpp:148] Top shape: 24 832 7 7 (978432)
I0403 15:17:46.734876 31417 net.cpp:148] Top shape: 24 832 7 7 (978432)
I0403 15:17:46.734894 31417 net.cpp:148] Top shape: 24 832 7 7 (978432)
I0403 15:17:46.734911 31417 net.cpp:148] Top shape: 24 832 7 7 (978432)
I0403 15:17:46.734925 31417 net.cpp:156] Memory required for data: 1292125728
I0403 15:17:46.734954 31417 layer_factory.hpp:77] Creating layer inception_5a/1x1
I0403 15:17:46.734977 31417 net.cpp:91] Creating Layer inception_5a/1x1
I0403 15:17:46.734995 31417 net.cpp:425] inception_5a/1x1 <- pool4/3x3_s2_pool4/3x3_s2_0_split_0
I0403 15:17:46.735018 31417 net.cpp:399] inception_5a/1x1 -> inception_5a/1x1
I0403 15:17:46.737901 31417 net.cpp:141] Setting up inception_5a/1x1
I0403 15:17:46.737931 31417 net.cpp:148] Top shape: 24 256 7 7 (301056)
I0403 15:17:46.737946 31417 net.cpp:156] Memory required for data: 1293329952
I0403 15:17:46.737964 31417 layer_factory.hpp:77] Creating layer inception_5a/relu_1x1
I0403 15:17:46.737985 31417 net.cpp:91] Creating Layer inception_5a/relu_1x1
I0403 15:17:46.738003 31417 net.cpp:425] inception_5a/relu_1x1 <- inception_5a/1x1
I0403 15:17:46.738020 31417 net.cpp:386] inception_5a/relu_1x1 -> inception_5a/1x1 (in-place)
I0403 15:17:46.738332 31417 net.cpp:141] Setting up inception_5a/relu_1x1
I0403 15:17:46.738358 31417 net.cpp:148] Top shape: 24 256 7 7 (301056)
I0403 15:17:46.738374 31417 net.cpp:156] Memory required for data: 1294534176
I0403 15:17:46.738390 31417 layer_factory.hpp:77] Creating layer inception_5a/3x3_reduce
I0403 15:17:46.738414 31417 net.cpp:91] Creating Layer inception_5a/3x3_reduce
I0403 15:17:46.738435 31417 net.cpp:425] inception_5a/3x3_reduce <- pool4/3x3_s2_pool4/3x3_s2_0_split_1
I0403 15:17:46.738458 31417 net.cpp:399] inception_5a/3x3_reduce -> inception_5a/3x3_reduce
I0403 15:17:46.740854 31417 net.cpp:141] Setting up inception_5a/3x3_reduce
I0403 15:17:46.740883 31417 net.cpp:148] Top shape: 24 160 7 7 (188160)
I0403 15:17:46.740900 31417 net.cpp:156] Memory required for data: 1295286816
I0403 15:17:46.740919 31417 layer_factory.hpp:77] Creating layer inception_5a/relu_3x3_reduce
I0403 15:17:46.740936 31417 net.cpp:91] Creating Layer inception_5a/relu_3x3_reduce
I0403 15:17:46.740953 31417 net.cpp:425] inception_5a/relu_3x3_reduce <- inception_5a/3x3_reduce
I0403 15:17:46.740972 31417 net.cpp:386] inception_5a/relu_3x3_reduce -> inception_5a/3x3_reduce (in-place)
I0403 15:17:46.741176 31417 net.cpp:141] Setting up inception_5a/relu_3x3_reduce
I0403 15:17:46.741204 31417 net.cpp:148] Top shape: 24 160 7 7 (188160)
I0403 15:17:46.741219 31417 net.cpp:156] Memory required for data: 1296039456
I0403 15:17:46.741236 31417 layer_factory.hpp:77] Creating layer inception_5a/3x3
I0403 15:17:46.741260 31417 net.cpp:91] Creating Layer inception_5a/3x3
I0403 15:17:46.741276 31417 net.cpp:425] inception_5a/3x3 <- inception_5a/3x3_reduce
I0403 15:17:46.741307 31417 net.cpp:399] inception_5a/3x3 -> inception_5a/3x3
I0403 15:17:46.746414 31417 net.cpp:141] Setting up inception_5a/3x3
I0403 15:17:46.746445 31417 net.cpp:148] Top shape: 24 320 7 7 (376320)
I0403 15:17:46.746462 31417 net.cpp:156] Memory required for data: 1297544736
I0403 15:17:46.746482 31417 layer_factory.hpp:77] Creating layer inception_5a/relu_3x3
I0403 15:17:46.746503 31417 net.cpp:91] Creating Layer inception_5a/relu_3x3
I0403 15:17:46.746522 31417 net.cpp:425] inception_5a/relu_3x3 <- inception_5a/3x3
I0403 15:17:46.746542 31417 net.cpp:386] inception_5a/relu_3x3 -> inception_5a/3x3 (in-place)
I0403 15:17:46.746840 31417 net.cpp:141] Setting up inception_5a/relu_3x3
I0403 15:17:46.746870 31417 net.cpp:148] Top shape: 24 320 7 7 (376320)
I0403 15:17:46.746887 31417 net.cpp:156] Memory required for data: 1299050016
I0403 15:17:46.746904 31417 layer_factory.hpp:77] Creating layer inception_5a/5x5_reduce
I0403 15:17:46.746930 31417 net.cpp:91] Creating Layer inception_5a/5x5_reduce
I0403 15:17:46.746953 31417 net.cpp:425] inception_5a/5x5_reduce <- pool4/3x3_s2_pool4/3x3_s2_0_split_2
I0403 15:17:46.746976 31417 net.cpp:399] inception_5a/5x5_reduce -> inception_5a/5x5_reduce
I0403 15:17:46.748200 31417 net.cpp:141] Setting up inception_5a/5x5_reduce
I0403 15:17:46.748232 31417 net.cpp:148] Top shape: 24 32 7 7 (37632)
I0403 15:17:46.748250 31417 net.cpp:156] Memory required for data: 1299200544
I0403 15:17:46.748270 31417 layer_factory.hpp:77] Creating layer inception_5a/relu_5x5_reduce
I0403 15:17:46.748294 31417 net.cpp:91] Creating Layer inception_5a/relu_5x5_reduce
I0403 15:17:46.748313 31417 net.cpp:425] inception_5a/relu_5x5_reduce <- inception_5a/5x5_reduce
I0403 15:17:46.748332 31417 net.cpp:386] inception_5a/relu_5x5_reduce -> inception_5a/5x5_reduce (in-place)
I0403 15:17:46.748636 31417 net.cpp:141] Setting up inception_5a/relu_5x5_reduce
I0403 15:17:46.748666 31417 net.cpp:148] Top shape: 24 32 7 7 (37632)
I0403 15:17:46.748682 31417 net.cpp:156] Memory required for data: 1299351072
I0403 15:17:46.748698 31417 layer_factory.hpp:77] Creating layer inception_5a/5x5
I0403 15:17:46.748721 31417 net.cpp:91] Creating Layer inception_5a/5x5
I0403 15:17:46.748739 31417 net.cpp:425] inception_5a/5x5 <- inception_5a/5x5_reduce
I0403 15:17:46.748759 31417 net.cpp:399] inception_5a/5x5 -> inception_5a/5x5
I0403 15:17:46.750489 31417 net.cpp:141] Setting up inception_5a/5x5
I0403 15:17:46.750532 31417 net.cpp:148] Top shape: 24 128 7 7 (150528)
I0403 15:17:46.750551 31417 net.cpp:156] Memory required for data: 1299953184
I0403 15:17:46.750571 31417 layer_factory.hpp:77] Creating layer inception_5a/relu_5x5
I0403 15:17:46.750594 31417 net.cpp:91] Creating Layer inception_5a/relu_5x5
I0403 15:17:46.750613 31417 net.cpp:425] inception_5a/relu_5x5 <- inception_5a/5x5
I0403 15:17:46.750634 31417 net.cpp:386] inception_5a/relu_5x5 -> inception_5a/5x5 (in-place)
I0403 15:17:46.750829 31417 net.cpp:141] Setting up inception_5a/relu_5x5
I0403 15:17:46.750860 31417 net.cpp:148] Top shape: 24 128 7 7 (150528)
I0403 15:17:46.750880 31417 net.cpp:156] Memory required for data: 1300555296
I0403 15:17:46.750896 31417 layer_factory.hpp:77] Creating layer inception_5a/pool
I0403 15:17:46.750915 31417 net.cpp:91] Creating Layer inception_5a/pool
I0403 15:17:46.750932 31417 net.cpp:425] inception_5a/pool <- pool4/3x3_s2_pool4/3x3_s2_0_split_3
I0403 15:17:46.750953 31417 net.cpp:399] inception_5a/pool -> inception_5a/pool
I0403 15:17:46.751024 31417 net.cpp:141] Setting up inception_5a/pool
I0403 15:17:46.751049 31417 net.cpp:148] Top shape: 24 832 7 7 (978432)
I0403 15:17:46.751065 31417 net.cpp:156] Memory required for data: 1304469024
I0403 15:17:46.751080 31417 layer_factory.hpp:77] Creating layer inception_5a/pool_proj
I0403 15:17:46.751103 31417 net.cpp:91] Creating Layer inception_5a/pool_proj
I0403 15:17:46.751121 31417 net.cpp:425] inception_5a/pool_proj <- inception_5a/pool
I0403 15:17:46.751142 31417 net.cpp:399] inception_5a/pool_proj -> inception_5a/pool_proj
I0403 15:17:46.753451 31417 net.cpp:141] Setting up inception_5a/pool_proj
I0403 15:17:46.753482 31417 net.cpp:148] Top shape: 24 128 7 7 (150528)
I0403 15:17:46.753499 31417 net.cpp:156] Memory required for data: 1305071136
I0403 15:17:46.753518 31417 layer_factory.hpp:77] Creating layer inception_5a/relu_pool_proj
I0403 15:17:46.753541 31417 net.cpp:91] Creating Layer inception_5a/relu_pool_proj
I0403 15:17:46.753563 31417 net.cpp:425] inception_5a/relu_pool_proj <- inception_5a/pool_proj
I0403 15:17:46.753582 31417 net.cpp:386] inception_5a/relu_pool_proj -> inception_5a/pool_proj (in-place)
I0403 15:17:46.753880 31417 net.cpp:141] Setting up inception_5a/relu_pool_proj
I0403 15:17:46.753907 31417 net.cpp:148] Top shape: 24 128 7 7 (150528)
I0403 15:17:46.753923 31417 net.cpp:156] Memory required for data: 1305673248
I0403 15:17:46.753938 31417 layer_factory.hpp:77] Creating layer inception_5a/output
I0403 15:17:46.753957 31417 net.cpp:91] Creating Layer inception_5a/output
I0403 15:17:46.753976 31417 net.cpp:425] inception_5a/output <- inception_5a/1x1
I0403 15:17:46.753994 31417 net.cpp:425] inception_5a/output <- inception_5a/3x3
I0403 15:17:46.754012 31417 net.cpp:425] inception_5a/output <- inception_5a/5x5
I0403 15:17:46.754029 31417 net.cpp:425] inception_5a/output <- inception_5a/pool_proj
I0403 15:17:46.754046 31417 net.cpp:399] inception_5a/output -> inception_5a/output
I0403 15:17:46.754096 31417 net.cpp:141] Setting up inception_5a/output
I0403 15:17:46.754123 31417 net.cpp:148] Top shape: 24 832 7 7 (978432)
I0403 15:17:46.754138 31417 net.cpp:156] Memory required for data: 1309586976
I0403 15:17:46.754154 31417 layer_factory.hpp:77] Creating layer inception_5a/output_inception_5a/output_0_split
I0403 15:17:46.754173 31417 net.cpp:91] Creating Layer inception_5a/output_inception_5a/output_0_split
I0403 15:17:46.754189 31417 net.cpp:425] inception_5a/output_inception_5a/output_0_split <- inception_5a/output
I0403 15:17:46.754209 31417 net.cpp:399] inception_5a/output_inception_5a/output_0_split -> inception_5a/output_inception_5a/output_0_split_0
I0403 15:17:46.754230 31417 net.cpp:399] inception_5a/output_inception_5a/output_0_split -> inception_5a/output_inception_5a/output_0_split_1
I0403 15:17:46.754251 31417 net.cpp:399] inception_5a/output_inception_5a/output_0_split -> inception_5a/output_inception_5a/output_0_split_2
I0403 15:17:46.754272 31417 net.cpp:399] inception_5a/output_inception_5a/output_0_split -> inception_5a/output_inception_5a/output_0_split_3
I0403 15:17:46.754396 31417 net.cpp:141] Setting up inception_5a/output_inception_5a/output_0_split
I0403 15:17:46.754425 31417 net.cpp:148] Top shape: 24 832 7 7 (978432)
I0403 15:17:46.754444 31417 net.cpp:148] Top shape: 24 832 7 7 (978432)
I0403 15:17:46.754462 31417 net.cpp:148] Top shape: 24 832 7 7 (978432)
I0403 15:17:46.754478 31417 net.cpp:148] Top shape: 24 832 7 7 (978432)
I0403 15:17:46.754492 31417 net.cpp:156] Memory required for data: 1325241888
I0403 15:17:46.754508 31417 layer_factory.hpp:77] Creating layer inception_5b/1x1
I0403 15:17:46.754529 31417 net.cpp:91] Creating Layer inception_5b/1x1
I0403 15:17:46.754549 31417 net.cpp:425] inception_5b/1x1 <- inception_5a/output_inception_5a/output_0_split_0
I0403 15:17:46.754575 31417 net.cpp:399] inception_5b/1x1 -> inception_5b/1x1
I0403 15:17:46.758525 31417 net.cpp:141] Setting up inception_5b/1x1
I0403 15:17:46.758558 31417 net.cpp:148] Top shape: 24 384 7 7 (451584)
I0403 15:17:46.758575 31417 net.cpp:156] Memory required for data: 1327048224
I0403 15:17:46.758596 31417 layer_factory.hpp:77] Creating layer inception_5b/relu_1x1
I0403 15:17:46.758617 31417 net.cpp:91] Creating Layer inception_5b/relu_1x1
I0403 15:17:46.758635 31417 net.cpp:425] inception_5b/relu_1x1 <- inception_5b/1x1
I0403 15:17:46.758656 31417 net.cpp:386] inception_5b/relu_1x1 -> inception_5b/1x1 (in-place)
I0403 15:17:46.758982 31417 net.cpp:141] Setting up inception_5b/relu_1x1
I0403 15:17:46.759011 31417 net.cpp:148] Top shape: 24 384 7 7 (451584)
I0403 15:17:46.759028 31417 net.cpp:156] Memory required for data: 1328854560
I0403 15:17:46.759044 31417 layer_factory.hpp:77] Creating layer inception_5b/3x3_reduce
I0403 15:17:46.759068 31417 net.cpp:91] Creating Layer inception_5b/3x3_reduce
I0403 15:17:46.759088 31417 net.cpp:425] inception_5b/3x3_reduce <- inception_5a/output_inception_5a/output_0_split_1
I0403 15:17:46.759114 31417 net.cpp:399] inception_5b/3x3_reduce -> inception_5b/3x3_reduce
I0403 15:17:46.761888 31417 net.cpp:141] Setting up inception_5b/3x3_reduce
I0403 15:17:46.761919 31417 net.cpp:148] Top shape: 24 192 7 7 (225792)
I0403 15:17:46.761937 31417 net.cpp:156] Memory required for data: 1329757728
I0403 15:17:46.761958 31417 layer_factory.hpp:77] Creating layer inception_5b/relu_3x3_reduce
I0403 15:17:46.761981 31417 net.cpp:91] Creating Layer inception_5b/relu_3x3_reduce
I0403 15:17:46.761998 31417 net.cpp:425] inception_5b/relu_3x3_reduce <- inception_5b/3x3_reduce
I0403 15:17:46.762018 31417 net.cpp:386] inception_5b/relu_3x3_reduce -> inception_5b/3x3_reduce (in-place)
I0403 15:17:46.762214 31417 net.cpp:141] Setting up inception_5b/relu_3x3_reduce
I0403 15:17:46.762241 31417 net.cpp:148] Top shape: 24 192 7 7 (225792)
I0403 15:17:46.762258 31417 net.cpp:156] Memory required for data: 1330660896
I0403 15:17:46.762274 31417 layer_factory.hpp:77] Creating layer inception_5b/3x3
I0403 15:17:46.762307 31417 net.cpp:91] Creating Layer inception_5b/3x3
I0403 15:17:46.762327 31417 net.cpp:425] inception_5b/3x3 <- inception_5b/3x3_reduce
I0403 15:17:46.762348 31417 net.cpp:399] inception_5b/3x3 -> inception_5b/3x3
I0403 15:17:46.769392 31417 net.cpp:141] Setting up inception_5b/3x3
I0403 15:17:46.769423 31417 net.cpp:148] Top shape: 24 384 7 7 (451584)
I0403 15:17:46.769440 31417 net.cpp:156] Memory required for data: 1332467232
I0403 15:17:46.769461 31417 layer_factory.hpp:77] Creating layer inception_5b/relu_3x3
I0403 15:17:46.769484 31417 net.cpp:91] Creating Layer inception_5b/relu_3x3
I0403 15:17:46.769503 31417 net.cpp:425] inception_5b/relu_3x3 <- inception_5b/3x3
I0403 15:17:46.769522 31417 net.cpp:386] inception_5b/relu_3x3 -> inception_5b/3x3 (in-place)
I0403 15:17:46.769832 31417 net.cpp:141] Setting up inception_5b/relu_3x3
I0403 15:17:46.769860 31417 net.cpp:148] Top shape: 24 384 7 7 (451584)
I0403 15:17:46.769877 31417 net.cpp:156] Memory required for data: 1334273568
I0403 15:17:46.769894 31417 layer_factory.hpp:77] Creating layer inception_5b/5x5_reduce
I0403 15:17:46.769938 31417 net.cpp:91] Creating Layer inception_5b/5x5_reduce
I0403 15:17:46.769960 31417 net.cpp:425] inception_5b/5x5_reduce <- inception_5a/output_inception_5a/output_0_split_2
I0403 15:17:46.769984 31417 net.cpp:399] inception_5b/5x5_reduce -> inception_5b/5x5_reduce
I0403 15:17:46.771306 31417 net.cpp:141] Setting up inception_5b/5x5_reduce
I0403 15:17:46.771337 31417 net.cpp:148] Top shape: 24 48 7 7 (56448)
I0403 15:17:46.771354 31417 net.cpp:156] Memory required for data: 1334499360
I0403 15:17:46.771374 31417 layer_factory.hpp:77] Creating layer inception_5b/relu_5x5_reduce
I0403 15:17:46.771396 31417 net.cpp:91] Creating Layer inception_5b/relu_5x5_reduce
I0403 15:17:46.771416 31417 net.cpp:425] inception_5b/relu_5x5_reduce <- inception_5b/5x5_reduce
I0403 15:17:46.771435 31417 net.cpp:386] inception_5b/relu_5x5_reduce -> inception_5b/5x5_reduce (in-place)
I0403 15:17:46.771821 31417 net.cpp:141] Setting up inception_5b/relu_5x5_reduce
I0403 15:17:46.771849 31417 net.cpp:148] Top shape: 24 48 7 7 (56448)
I0403 15:17:46.771867 31417 net.cpp:156] Memory required for data: 1334725152
I0403 15:17:46.771883 31417 layer_factory.hpp:77] Creating layer inception_5b/5x5
I0403 15:17:46.771906 31417 net.cpp:91] Creating Layer inception_5b/5x5
I0403 15:17:46.771924 31417 net.cpp:425] inception_5b/5x5 <- inception_5b/5x5_reduce
I0403 15:17:46.771945 31417 net.cpp:399] inception_5b/5x5 -> inception_5b/5x5
I0403 15:17:46.774149 31417 net.cpp:141] Setting up inception_5b/5x5
I0403 15:17:46.774179 31417 net.cpp:148] Top shape: 24 128 7 7 (150528)
I0403 15:17:46.774200 31417 net.cpp:156] Memory required for data: 1335327264
I0403 15:17:46.774220 31417 layer_factory.hpp:77] Creating layer inception_5b/relu_5x5
I0403 15:17:46.774241 31417 net.cpp:91] Creating Layer inception_5b/relu_5x5
I0403 15:17:46.774261 31417 net.cpp:425] inception_5b/relu_5x5 <- inception_5b/5x5
I0403 15:17:46.774281 31417 net.cpp:386] inception_5b/relu_5x5 -> inception_5b/5x5 (in-place)
I0403 15:17:46.774515 31417 net.cpp:141] Setting up inception_5b/relu_5x5
I0403 15:17:46.774545 31417 net.cpp:148] Top shape: 24 128 7 7 (150528)
I0403 15:17:46.774564 31417 net.cpp:156] Memory required for data: 1335929376
I0403 15:17:46.774581 31417 layer_factory.hpp:77] Creating layer inception_5b/pool
I0403 15:17:46.774601 31417 net.cpp:91] Creating Layer inception_5b/pool
I0403 15:17:46.774618 31417 net.cpp:425] inception_5b/pool <- inception_5a/output_inception_5a/output_0_split_3
I0403 15:17:46.774642 31417 net.cpp:399] inception_5b/pool -> inception_5b/pool
I0403 15:17:46.774719 31417 net.cpp:141] Setting up inception_5b/pool
I0403 15:17:46.774747 31417 net.cpp:148] Top shape: 24 832 7 7 (978432)
I0403 15:17:46.774762 31417 net.cpp:156] Memory required for data: 1339843104
I0403 15:17:46.774778 31417 layer_factory.hpp:77] Creating layer inception_5b/pool_proj
I0403 15:17:46.774803 31417 net.cpp:91] Creating Layer inception_5b/pool_proj
I0403 15:17:46.774823 31417 net.cpp:425] inception_5b/pool_proj <- inception_5b/pool
I0403 15:17:46.774847 31417 net.cpp:399] inception_5b/pool_proj -> inception_5b/pool_proj
I0403 15:17:46.777217 31417 net.cpp:141] Setting up inception_5b/pool_proj
I0403 15:17:46.777248 31417 net.cpp:148] Top shape: 24 128 7 7 (150528)
I0403 15:17:46.777266 31417 net.cpp:156] Memory required for data: 1340445216
I0403 15:17:46.777292 31417 layer_factory.hpp:77] Creating layer inception_5b/relu_pool_proj
I0403 15:17:46.777314 31417 net.cpp:91] Creating Layer inception_5b/relu_pool_proj
I0403 15:17:46.777333 31417 net.cpp:425] inception_5b/relu_pool_proj <- inception_5b/pool_proj
I0403 15:17:46.777353 31417 net.cpp:386] inception_5b/relu_pool_proj -> inception_5b/pool_proj (in-place)
I0403 15:17:46.777668 31417 net.cpp:141] Setting up inception_5b/relu_pool_proj
I0403 15:17:46.777695 31417 net.cpp:148] Top shape: 24 128 7 7 (150528)
I0403 15:17:46.777712 31417 net.cpp:156] Memory required for data: 1341047328
I0403 15:17:46.777740 31417 layer_factory.hpp:77] Creating layer inception_5b/output
I0403 15:17:46.777760 31417 net.cpp:91] Creating Layer inception_5b/output
I0403 15:17:46.777794 31417 net.cpp:425] inception_5b/output <- inception_5b/1x1
I0403 15:17:46.777813 31417 net.cpp:425] inception_5b/output <- inception_5b/3x3
I0403 15:17:46.777832 31417 net.cpp:425] inception_5b/output <- inception_5b/5x5
I0403 15:17:46.777850 31417 net.cpp:425] inception_5b/output <- inception_5b/pool_proj
I0403 15:17:46.777871 31417 net.cpp:399] inception_5b/output -> inception_5b/output
I0403 15:17:46.777928 31417 net.cpp:141] Setting up inception_5b/output
I0403 15:17:46.777954 31417 net.cpp:148] Top shape: 24 1024 7 7 (1204224)
I0403 15:17:46.777971 31417 net.cpp:156] Memory required for data: 1345864224
I0403 15:17:46.777987 31417 layer_factory.hpp:77] Creating layer pool5/7x7_s1
I0403 15:17:46.778007 31417 net.cpp:91] Creating Layer pool5/7x7_s1
I0403 15:17:46.778036 31417 net.cpp:425] pool5/7x7_s1 <- inception_5b/output
I0403 15:17:46.778058 31417 net.cpp:399] pool5/7x7_s1 -> pool5/7x7_s1
I0403 15:17:46.778275 31417 net.cpp:141] Setting up pool5/7x7_s1
I0403 15:17:46.778306 31417 net.cpp:148] Top shape: 24 1024 1 1 (24576)
I0403 15:17:46.778322 31417 net.cpp:156] Memory required for data: 1345962528
I0403 15:17:46.778337 31417 layer_factory.hpp:77] Creating layer pool5/drop_7x7_s1
I0403 15:17:46.778372 31417 net.cpp:91] Creating Layer pool5/drop_7x7_s1
I0403 15:17:46.778389 31417 net.cpp:425] pool5/drop_7x7_s1 <- pool5/7x7_s1
I0403 15:17:46.778409 31417 net.cpp:386] pool5/drop_7x7_s1 -> pool5/7x7_s1 (in-place)
I0403 15:17:46.778460 31417 net.cpp:141] Setting up pool5/drop_7x7_s1
I0403 15:17:46.778486 31417 net.cpp:148] Top shape: 24 1024 1 1 (24576)
I0403 15:17:46.778501 31417 net.cpp:156] Memory required for data: 1346060832
I0403 15:17:46.778517 31417 layer_factory.hpp:77] Creating layer loss3/classifier_plantvillage
I0403 15:17:46.778537 31417 net.cpp:91] Creating Layer loss3/classifier_plantvillage
I0403 15:17:46.778553 31417 net.cpp:425] loss3/classifier_plantvillage <- pool5/7x7_s1
I0403 15:17:46.778574 31417 net.cpp:399] loss3/classifier_plantvillage -> loss3/classifier_plantvillage
I0403 15:17:46.779006 31417 net.cpp:141] Setting up loss3/classifier_plantvillage
I0403 15:17:46.779032 31417 net.cpp:148] Top shape: 24 38 (912)
I0403 15:17:46.779062 31417 net.cpp:156] Memory required for data: 1346064480
I0403 15:17:46.779083 31417 layer_factory.hpp:77] Creating layer loss3/classifier_plantvillage_loss3/classifier_plantvillage_0_split
I0403 15:17:46.779103 31417 net.cpp:91] Creating Layer loss3/classifier_plantvillage_loss3/classifier_plantvillage_0_split
I0403 15:17:46.779119 31417 net.cpp:425] loss3/classifier_plantvillage_loss3/classifier_plantvillage_0_split <- loss3/classifier_plantvillage
I0403 15:17:46.779142 31417 net.cpp:399] loss3/classifier_plantvillage_loss3/classifier_plantvillage_0_split -> loss3/classifier_plantvillage_loss3/classifier_plantvillage_0_split_0
I0403 15:17:46.779166 31417 net.cpp:399] loss3/classifier_plantvillage_loss3/classifier_plantvillage_0_split -> loss3/classifier_plantvillage_loss3/classifier_plantvillage_0_split_1
I0403 15:17:46.779187 31417 net.cpp:399] loss3/classifier_plantvillage_loss3/classifier_plantvillage_0_split -> loss3/classifier_plantvillage_loss3/classifier_plantvillage_0_split_2
I0403 15:17:46.779211 31417 net.cpp:399] loss3/classifier_plantvillage_loss3/classifier_plantvillage_0_split -> loss3/classifier_plantvillage_loss3/classifier_plantvillage_0_split_3
I0403 15:17:46.779320 31417 net.cpp:141] Setting up loss3/classifier_plantvillage_loss3/classifier_plantvillage_0_split
I0403 15:17:46.779357 31417 net.cpp:148] Top shape: 24 38 (912)
I0403 15:17:46.779376 31417 net.cpp:148] Top shape: 24 38 (912)
I0403 15:17:46.779391 31417 net.cpp:148] Top shape: 24 38 (912)
I0403 15:17:46.779407 31417 net.cpp:148] Top shape: 24 38 (912)
I0403 15:17:46.779422 31417 net.cpp:156] Memory required for data: 1346079072
I0403 15:17:46.779438 31417 layer_factory.hpp:77] Creating layer loss1/loss
I0403 15:17:46.779460 31417 net.cpp:91] Creating Layer loss1/loss
I0403 15:17:46.779479 31417 net.cpp:425] loss1/loss <- loss1/classifier_plantvillage_loss1/classifier_plantvillage_0_split_0
I0403 15:17:46.779512 31417 net.cpp:425] loss1/loss <- label_data_1_split_0
…
