…
I0403 15:32:09.919172 32079 net.cpp:313] The NetState phase (1) differed from the phase (0) specified by a rule in layer data
I0403 15:32:09.920354 32079 net.cpp:49] Initializing net from parameters: 
state {
  phase: TEST
}
layer {
  name: "data"
  type: "Data"
  top: "data"
  top: "label"
  include {
    phase: TEST
  }
  transform_param {
    mirror: false
    crop_size: 224
    mean_file: "/home/mohanty/data/final_dataset/lmdb/color-60-40/mean.binaryproto"
  }
  data_param {
    source: "/home/mohanty/data/final_dataset/lmdb/color-60-40/test_db"
    batch_size: 24
    backend: LMDB
  }
}
layer {
  name: "conv1/7x7_s2"
  type: "Convolution"
  bottom: "data"
  top: "conv1/7x7_s2"
  param {
    lr_mult: 1
    decay_mult: 1
  }
  param {
    lr_mult: 2
    decay_mult: 0
  }
  convolution_param {
    num_output: 64
    pad: 3
    kernel_size: 7
    stride: 2
    weight_filler {
      type: "xavier"
      std: 0.1
    }
    bias_filler {
      type: "constant"
      value: 0.2
    }
  }
}
layer {
  name: "conv1/relu_7x7"
  type: "ReLU"
  bottom: "conv1/7x7_s2"
  top: "conv1/7x7_s2"
}
layer {
  name: "pool1/3x3_s2"
  type: "Pooling"
  bottom: "conv1/7x7_s2"
  top: "pool1/3x3_s2"
  pooling_param {
    pool: MAX
    kernel_size: 3
    stride: 2
  }
}
layer {
  name: "pool1/norm1"
  type: "LRN"
  bottom: "pool1/3x3_s2"
  top: "pool1/norm1"
  lrn_param {
    local_size: 5
    alpha: 0.0001
    beta: 0.75
  }
}
layer {
  name: "conv2/3x3_reduce"
  type: "Convolution"
  bottom: "pool1/norm1"
  top: "conv2/3x3_reduce"
  param {
    lr_mult: 1
    decay_mult: 1
  }
  param {
    lr_mult: 2
    decay_mult: 0
  }
  convolution_param {
    num_output: 64
    kernel_size: 1
    weight_filler {
      type: "xavier"
      std: 0.1
    }
    bias_filler {
      type: "constant"
      value: 0.2
    }
  }
}
layer {
  name: "conv2/relu_3x3_reduce"
  type: "ReLU"
  bottom: "conv2/3x3_reduce"
  top: "conv2/3x3_reduce"
}
layer {
  name: "conv2/3x3"
  type: "Convolution"
  bottom: "conv2/3x3_reduce"
  top: "conv2/3x3"
  param {
    lr_mult: 1
    decay_mult: 1
  }
  param {
    lr_mult: 2
    decay_mult: 0
  }
  convolution_param {
    num_output: 192
    pad: 1
    kernel_size: 3
    weight_filler {
      type: "xavier"
      std: 0.03
    }
    bias_filler {
      type: "constant"
      value: 0.2
    }
  }
}
layer {
  name: "conv2/relu_3x3"
  type: "ReLU"
  bottom: "conv2/3x3"
  top: "conv2/3x3"
}
layer {
  name: "conv2/norm2"
  type: "LRN"
  bottom: "conv2/3x3"
  top: "conv2/norm2"
  lrn_param {
    local_size: 5
    alpha: 0.0001
    beta: 0.75
  }
}
layer {
  name: "pool2/3x3_s2"
  type: "Pooling"
  bottom: "conv2/norm2"
  top: "pool2/3x3_s2"
  pooling_param {
    pool: MAX
    kernel_size: 3
    stride: 2
  }
}
layer {
  name: "inception_3a/1x1"
  type: "Convolution"
  bottom: "pool2/3x3_s2"
  top: "inception_3a/1x1"
  param {
    lr_mult: 1
    decay_mult: 1
  }
  param {
    lr_mult: 2
    decay_mult: 0
  }
  convolution_param {
    num_output: 64
    kernel_size: 1
    weight_filler {
      type: "xavier"
      std: 0.03
    }
    bias_filler {
      type: "constant"
      value: 0.2
    }
  }
}
layer {
  name: "inception_3a/relu_1x1"
  type: "ReLU"
  bottom: "inception_3a/1x1"
  top: "inception_3a/1x1"
}
layer {
  name: "inception_3a/3x3_reduce"
  type: "Convolution"
  bottom: "pool2/3x3_s2"
  top: "inception_3a/3x3_reduce"
  param {
    lr_mult: 1
    decay_mult: 1
  }
  param {
    lr_mult: 2
    decay_mult: 0
  }
  convolution_param {
    num_output: 96
    kernel_size: 1
    weight_filler {
      type: "xavier"
      std: 0.09
    }
    bias_filler {
      type: "constant"
      value: 0.2
    }
  }
}
layer {
  name: "inception_3a/relu_3x3_reduce"
  type: "ReLU"
  bottom: "inception_3a/3x3_reduce"
  top: "inception_3a/3x3_reduce"
}
layer {
  name: "inception_3a/3x3"
  type: "Convolution"
  bottom: "inception_3a/3x3_reduce"
  top: "inception_3a/3x3"
  param {
    lr_mult: 1
    decay_mult: 1
  }
  param {
    lr_mult: 2
    decay_mult: 0
  }
  convolution_param {
    num_output: 128
    pad: 1
    kernel_size: 3
    weight_filler {
      type: "xavier"
      std: 0.03
    }
    bias_filler {
      type: "constant"
      value: 0.2
    }
  }
}
layer {
  name: "inception_3a/relu_3x3"
  type: "ReLU"
  bottom: "inception_3a/3x3"
  top: "inception_3a/3x3"
}
layer {
  name: "inception_3a/5x5_reduce"
  type: "Convolution"
  bottom: "pool2/3x3_s2"
  top: "inception_3a/5x5_reduce"
  param {
    lr_mult: 1
    decay_mult: 1
  }
  param {
    lr_mult: 2
    decay_mult: 0
  }
  convolution_param {
    num_output: 16
    kernel_size: 1
    weight_filler {
      type: "xavier"
      std: 0.2
    }
    bias_filler {
      type: "constant"
      value: 0.2
    }
  }
}
layer {
  name: "inception_3a/relu_5x5_reduce"
  type: "ReLU"
  bottom: "inception_3a/5x5_reduce"
  top: "inception_3a/5x5_reduce"
}
layer {
  name: "inception_3a/5x5"
  type: "Convolution"
  bottom: "inception_3a/5x5_reduce"
  top: "inception_3a/5x5"
  param {
    lr_mult: 1
    decay_mult: 1
  }
  param {
    lr_mult: 2
    decay_mult: 0
  }
  convolution_param {
    num_output: 32
    pad: 2
    kernel_size: 5
    weight_filler {
      type: "xavier"
      std: 0.03
    }
    bias_filler {
      type: "constant"
      value: 0.2
    }
  }
}
layer {
  name: "inception_3a/relu_5x5"
  type: "ReLU"
  bottom: "inception_3a/5x5"
  top: "inception_3a/5x5"
}
layer {
  name: "inception_3a/pool"
  type: "Pooling"
  bottom: "pool2/3x3_s2"
  top: "inception_3a/pool"
  pooling_param {
    pool: MAX
    kernel_size: 3
    stride: 1
    pad: 1
  }
}
layer {
  name: "inception_3a/pool_proj"
  type: "Convolution"
  bottom: "inception_3a/pool"
  top: "inception_3a/pool_proj"
  param {
    lr_mult: 1
    decay_mult: 1
  }
  param {
    lr_mult: 2
    decay_mult: 0
  }
  convolution_param {
    num_output: 32
    kernel_size: 1
    weight_filler {
      type: "xavier"
      std: 0.1
    }
    bias_filler {
      type: "constant"
      value: 0.2
    }
  }
}
layer {
  name: "inception_3a/relu_pool_proj"
  type: "ReLU"
  bottom: "inception_3a/pool_proj"
  top: "inception_3a/pool_proj"
}
layer {
  name: "inception_3a/output"
  type: "Concat"
  bottom: "inception_3a/1x1"
  bottom: "inception_3a/3x3"
  bottom: "inception_3a/5x5"
  bottom: "inception_3a/pool_proj"
  top: "inception_3a/output"
}
layer {
  name: "inception_3b/1x1"
  type: "Convolution"
  bottom: "inception_3a/output"
  top: "inception_3b/1x1"
  param {
    lr_mult: 1
    decay_mult: 1
  }
  param {
    lr_mult: 2
    decay_mult: 0
  }
  convolution_param {
    num_output: 128
    kernel_size: 1
    weight_filler {
      type: "xavier"
      std: 0.03
    }
    bias_filler {
      type: "constant"
      value: 0.2
    }
  }
}
layer {
  name: "inception_3b/relu_1x1"
  type: "ReLU"
  bottom: "inception_3b/1x1"
  top: "inception_3b/1x1"
}
layer {
  name: "inception_3b/3x3_reduce"
  type: "Convolution"
  bottom: "inception_3a/output"
  top: "inception_3b/3x3_reduce"
  param {
    lr_mult: 1
    decay_mult: 1
  }
  param {
    lr_mult: 2
    decay_mult: 0
  }
  convolution_param {
    num_output: 128
    kernel_size: 1
    weight_filler {
      type: "xavier"
      std: 0.09
    }
    bias_filler {
      type: "constant"
      value: 0.2
    }
  }
}
layer {
  name: "inception_3b/relu_3x3_reduce"
  type: "ReLU"
  bottom: "inception_3b/3x3_reduce"
  top: "inception_3b/3x3_reduce"
}
layer {
  name: "inception_3b/3x3"
  type: "Convolution"
  bottom: "inception_3b/3x3_reduce"
  top: "inception_3b/3x3"
  param {
    lr_mult: 1
    decay_mult: 1
  }
  param {
    lr_mult: 2
    decay_mult: 0
  }
  convolution_param {
    num_output: 192
    pad: 1
    kernel_size: 3
    weight_filler {
      type: "xavier"
      std: 0.03
    }
    bias_filler {
      type: "constant"
      value: 0.2
    }
  }
}
layer {
  name: "inception_3b/relu_3x3"
  type: "ReLU"
  bottom: "inception_3b/3x3"
  top: "inception_3b/3x3"
}
layer {
  name: "inception_3b/5x5_reduce"
  type: "Convolution"
  bottom: "inception_3a/output"
  top: "inception_3b/5x5_reduce"
  param {
    lr_mult: 1
    decay_mult: 1
  }
  param {
    lr_mult: 2
    decay_mult: 0
  }
  convolution_param {
    num_output: 32
    kernel_size: 1
    weight_filler {
      type: "xavier"
      std: 0.2
    }
    bias_filler {
      type: "constant"
      value: 0.2
    }
  }
}
layer {
  name: "inception_3b/relu_5x5_reduce"
  type: "ReLU"
  bottom: "inception_3b/5x5_reduce"
  top: "inception_3b/5x5_reduce"
}
layer {
  name: "inception_3b/5x5"
  type: "Convolution"
  bottom: "inception_3b/5x5_reduce"
  top: "inception_3b/5x5"
  param {
    lr_mult: 1
    decay_mult: 1
  }
  param {
    lr_mult: 2
    decay_mult: 0
  }
  convolution_param {
    num_output: 96
    pad: 2
    kernel_size: 5
    weight_filler {
      type: "xavier"
      std: 0.03
    }
    bias_filler {
      type: "constant"
      value: 0.2
    }
  }
}
layer {
  name: "inception_3b/relu_5x5"
  type: "ReLU"
  bottom: "inception_3b/5x5"
  top: "inception_3b/5x5"
}
layer {
  name: "inception_3b/pool"
  type: "Pooling"
  bottom: "inception_3a/output"
  top: "inception_3b/pool"
  pooling_param {
    pool: MAX
    kernel_size: 3
    stride: 1
    pad: 1
  }
}
layer {
  name: "inception_3b/pool_proj"
  type: "Convolution"
  bottom: "inception_3b/pool"
  top: "inception_3b/pool_proj"
  param {
    lr_mult: 1
    decay_mult: 1
  }
  param {
    lr_mult: 2
    decay_mult: 0
  }
  convolution_param {
    num_output: 64
    kernel_size: 1
    weight_filler {
      type: "xavier"
      std: 0.1
    }
    bias_filler {
      type: "constant"
      value: 0.2
    }
  }
}
layer {
  name: "inception_3b/relu_pool_proj"
  type: "ReLU"
  bottom: "inception_3b/pool_proj"
  top: "inception_3b/pool_proj"
}
layer {
  name: "inception_3b/output"
  type: "Concat"
  bottom: "inception_3b/1x1"
  bottom: "inception_3b/3x3"
  bottom: "inception_3b/5x5"
  bottom: "inception_3b/pool_proj"
  top: "inception_3b/output"
}
layer {
  name: "pool3/3x3_s2"
  type: "Pooling"
  bottom: "inception_3b/output"
  top: "pool3/3x3_s2"
  pooling_param {
    pool: MAX
    kernel_size: 3
    stride: 2
  }
}
layer {
  name: "inception_4a/1x1"
  type: "Convolution"
  bottom: "pool3/3x3_s2"
  top: "inception_4a/1x1"
  param {
    lr_mult: 1
    decay_mult: 1
  }
  param {
    lr_mult: 2
    decay_mult: 0
  }
  convolution_param {
    num_output: 192
    kernel_size: 1
    weight_filler {
      type: "xavier"
      std: 0.03
    }
    bias_filler {
      type: "constant"
      value: 0.2
    }
  }
}
layer {
  name: "inception_4a/relu_1x1"
  type: "ReLU"
  bottom: "inception_4a/1x1"
  top: "inception_4a/1x1"
}
layer {
  name: "inception_4a/3x3_reduce"
  type: "Convolution"
  bottom: "pool3/3x3_s2"
  top: "inception_4a/3x3_reduce"
  param {
    lr_mult: 1
    decay_mult: 1
  }
  param {
    lr_mult: 2
    decay_mult: 0
  }
  convolution_param {
    num_output: 96
    kernel_size: 1
    weight_filler {
      type: "xavier"
      std: 0.09
    }
    bias_filler {
      type: "constant"
      value: 0.2
    }
  }
}
layer {
  name: "inception_4a/relu_3x3_reduce"
  type: "ReLU"
  bottom: "inception_4a/3x3_reduce"
  top: "inception_4a/3x3_reduce"
}
layer {
  name: "inception_4a/3x3"
  type: "Convolution"
  bottom: "inception_4a/3x3_reduce"
  top: "inception_4a/3x3"
  param {
    lr_mult: 1
    decay_mult: 1
  }
  param {
    lr_mult: 2
    decay_mult: 0
  }
  convolution_param {
    num_output: 208
    pad: 1
    kernel_size: 3
    weight_filler {
      type: "xavier"
      std: 0.03
    }
    bias_filler {
      type: "constant"
      value: 0.2
    }
  }
}
layer {
  name: "inception_4a/relu_3x3"
  type: "ReLU"
  bottom: "inception_4a/3x3"
  top: "inception_4a/3x3"
}
layer {
  name: "inception_4a/5x5_reduce"
  type: "Convolution"
  bottom: "pool3/3x3_s2"
  top: "inception_4a/5x5_reduce"
  param {
    lr_mult: 1
    decay_mult: 1
  }
  param {
    lr_mult: 2
    decay_mult: 0
  }
  convolution_param {
    num_output: 16
    kernel_size: 1
    weight_filler {
      type: "xavier"
      std: 0.2
    }
    bias_filler {
      type: "constant"
      value: 0.2
    }
  }
}
layer {
  name: "inception_4a/relu_5x5_reduce"
  type: "ReLU"
  bottom: "inception_4a/5x5_reduce"
  top: "inception_4a/5x5_reduce"
}
layer {
  name: "inception_4a/5x5"
  type: "Convolution"
  bottom: "inception_4a/5x5_reduce"
  top: "inception_4a/5x5"
  param {
    lr_mult: 1
    decay_mult: 1
  }
  param {
    lr_mult: 2
    decay_mult: 0
  }
  convolution_param {
    num_output: 48
    pad: 2
    kernel_size: 5
    weight_filler {
      type: "xavier"
      std: 0.03
    }
    bias_filler {
      type: "constant"
      value: 0.2
    }
  }
}
layer {
  name: "inception_4a/relu_5x5"
  type: "ReLU"
  bottom: "inception_4a/5x5"
  top: "inception_4a/5x5"
}
layer {
  name: "inception_4a/pool"
  type: "Pooling"
  bottom: "pool3/3x3_s2"
  top: "inception_4a/pool"
  pooling_param {
    pool: MAX
    kernel_size: 3
    stride: 1
    pad: 1
  }
}
layer {
  name: "inception_4a/pool_proj"
  type: "Convolution"
  bottom: "inception_4a/pool"
  top: "inception_4a/pool_proj"
  param {
    lr_mult: 1
    decay_mult: 1
  }
  param {
    lr_mult: 2
    decay_mult: 0
  }
  convolution_param {
    num_output: 64
    kernel_size: 1
    weight_filler {
      type: "xavier"
      std: 0.1
    }
    bias_filler {
      type: "constant"
      value: 0.2
    }
  }
}
layer {
  name: "inception_4a/relu_pool_proj"
  type: "ReLU"
  bottom: "inception_4a/pool_proj"
  top: "inception_4a/pool_proj"
}
layer {
  name: "inception_4a/output"
  type: "Concat"
  bottom: "inception_4a/1x1"
  bottom: "inception_4a/3x3"
  bottom: "inception_4a/5x5"
  bottom: "inception_4a/pool_proj"
  top: "inception_4a/output"
}
layer {
  name: "loss1/ave_pool"
  type: "Pooling"
  bottom: "inception_4a/output"
  top: "loss1/ave_pool"
  pooling_param {
    pool: AVE
    kernel_size: 5
    stride: 3
  }
}
layer {
  name: "loss1/conv"
  type: "Convolution"
  bottom: "loss1/ave_pool"
  top: "loss1/conv"
  param {
    lr_mult: 1
    decay_mult: 1
  }
  param {
    lr_mult: 2
    decay_mult: 0
  }
  convolution_param {
    num_output: 128
    kernel_size: 1
    weight_filler {
      type: "xavier"
      std: 0.08
    }
    bias_filler {
      type: "constant"
      value: 0.2
    }
  }
}
layer {
  name: "loss1/relu_conv"
  type: "ReLU"
  bottom: "loss1/conv"
  top: "loss1/conv"
}
layer {
  name: "loss1/fc"
  type: "InnerProduct"
  bottom: "loss1/conv"
  top: "loss1/fc"
  param {
    lr_mult: 1
    decay_mult: 1
  }
  param {
    lr_mult: 2
    decay_mult: 0
  }
  inner_product_param {
    num_output: 1024
    weight_filler {
      type: "xavier"
      std: 0.02
    }
    bias_filler {
      type: "constant"
      value: 0.2
    }
  }
}
layer {
  name: "loss1/relu_fc"
  type: "ReLU"
  bottom: "loss1/fc"
  top: "loss1/fc"
}
layer {
  name: "loss1/drop_fc"
  type: "Dropout"
  bottom: "loss1/fc"
  top: "loss1/fc"
  dropout_param {
    dropout_ratio: 0.7
  }
}
layer {
  name: "loss1/classifier_plantvillage"
  type: "InnerProduct"
  bottom: "loss1/fc"
  top: "loss1/classifier_plantvillage"
  param {
    lr_mult: 1
    decay_mult: 1
  }
  param {
    lr_mult: 2
    decay_mult: 0
  }
  inner_product_param {
    num_output: 38
    weight_filler {
      type: "xavier"
      std: 0.0009765625
    }
    bias_filler {
      type: "constant"
      value: 0
    }
  }
}
layer {
  name: "inception_4b/1x1"
  type: "Convolution"
  bottom: "inception_4a/output"
  top: "inception_4b/1x1"
  param {
    lr_mult: 1
    decay_mult: 1
  }
  param {
    lr_mult: 2
    decay_mult: 0
  }
  convolution_param {
    num_output: 160
    kernel_size: 1
    weight_filler {
      type: "xavier"
      std: 0.03
    }
    bias_filler {
      type: "constant"
      value: 0.2
    }
  }
}
layer {
  name: "inception_4b/relu_1x1"
  type: "ReLU"
  bottom: "inception_4b/1x1"
  top: "inception_4b/1x1"
}
layer {
  name: "inception_4b/3x3_reduce"
  type: "Convolution"
  bottom: "inception_4a/output"
  top: "inception_4b/3x3_reduce"
  param {
    lr_mult: 1
    decay_mult: 1
  }
  param {
    lr_mult: 2
    decay_mult: 0
  }
  convolution_param {
    num_output: 112
    kernel_size: 1
    weight_filler {
      type: "xavier"
      std: 0.09
    }
    bias_filler {
      type: "constant"
      value: 0.2
    }
  }
}
layer {
  name: "inception_4b/relu_3x3_reduce"
  type: "ReLU"
  bottom: "inception_4b/3x3_reduce"
  top: "inception_4b/3x3_reduce"
}
layer {
  name: "inception_4b/3x3"
  type: "Convolution"
  bottom: "inception_4b/3x3_reduce"
  top: "inception_4b/3x3"
  param {
    lr_mult: 1
    decay_mult: 1
  }
  param {
    lr_mult: 2
    decay_mult: 0
  }
  convolution_param {
    num_output: 224
    pad: 1
    kernel_size: 3
    weight_filler {
      type: "xavier"
      std: 0.03
    }
    bias_filler {
      type: "constant"
      value: 0.2
    }
  }
}
layer {
  name: "inception_4b/relu_3x3"
  type: "ReLU"
  bottom: "inception_4b/3x3"
  top: "inception_4b/3x3"
}
layer {
  name: "inception_4b/5x5_reduce"
  type: "Convolution"
  bottom: "inception_4a/output"
  top: "inception_4b/5x5_reduce"
  param {
    lr_mult: 1
    decay_mult: 1
  }
  param {
    lr_mult: 2
    decay_mult: 0
  }
  convolution_param {
    num_output: 24
    kernel_size: 1
    weight_filler {
      type: "xavier"
      std: 0.2
    }
    bias_filler {
      type: "constant"
      value: 0.2
    }
  }
}
layer {
  name: "inception_4b/relu_5x5_reduce"
  type: "ReLU"
  bottom: "inception_4b/5x5_reduce"
  top: "inception_4b/5x5_reduce"
}
layer {
  name: "inception_4b/5x5"
  type: "Convolution"
  bottom: "inception_4b/5x5_reduce"
  top: "inception_4b/5x5"
  param {
    lr_mult: 1
    decay_mult: 1
  }
  param {
    lr_mult: 2
    decay_mult: 0
  }
  convolution_param {
    num_output: 64
    pad: 2
    kernel_size: 5
    weight_filler {
      type: "xavier"
      std: 0.03
    }
    bias_filler {
      type: "constant"
      value: 0.2
    }
  }
}
layer {
  name: "inception_4b/relu_5x5"
  type: "ReLU"
  bottom: "inception_4b/5x5"
  top: "inception_4b/5x5"
}
layer {
  name: "inception_4b/pool"
  type: "Pooling"
  bottom: "inception_4a/output"
  top: "inception_4b/pool"
  pooling_param {
    pool: MAX
    kernel_size: 3
    stride: 1
    pad: 1
  }
}
layer {
  name: "inception_4b/pool_proj"
  type: "Convolution"
  bottom: "inception_4b/pool"
  top: "inception_4b/pool_proj"
  param {
    lr_mult: 1
    decay_mult: 1
  }
  param {
    lr_mult: 2
    decay_mult: 0
  }
  convolution_param {
    num_output: 64
    kernel_size: 1
    weight_filler {
      type: "xavier"
      std: 0.1
    }
    bias_filler {
      type: "constant"
      value: 0.2
    }
  }
}
layer {
  name: "inception_4b/relu_pool_proj"
  type: "ReLU"
  bottom: "inception_4b/pool_proj"
  top: "inception_4b/pool_proj"
}
layer {
  name: "inception_4b/output"
  type: "Concat"
  bottom: "inception_4b/1x1"
  bottom: "inception_4b/3x3"
  bottom: "inception_4b/5x5"
  bottom: "inception_4b/pool_proj"
  top: "inception_4b/output"
}
layer {
  name: "inception_4c/1x1"
  type: "Convolution"
  bottom: "inception_4b/output"
  top: "inception_4c/1x1"
  param {
    lr_mult: 1
    decay_mult: 1
  }
  param {
    lr_mult: 2
    decay_mult: 0
  }
  convolution_param {
    num_output: 128
    kernel_size: 1
    weight_filler {
      type: "xavier"
      std: 0.03
    }
    bias_filler {
      type: "constant"
      value: 0.2
    }
  }
}
layer {
  name: "inception_4c/relu_1x1"
  type: "ReLU"
  bottom: "inception_4c/1x1"
  top: "inception_4c/1x1"
}
layer {
  name: "inception_4c/3x3_reduce"
  type: "Convolution"
  bottom: "inception_4b/output"
  top: "inception_4c/3x3_reduce"
  param {
    lr_mult: 1
    decay_mult: 1
  }
  param {
    lr_mult: 2
    decay_mult: 0
  }
  convolution_param {
    num_output: 128
    kernel_size: 1
    weight_filler {
      type: "xavier"
      std: 0.09
    }
    bias_filler {
      type: "constant"
      value: 0.2
    }
  }
}
layer {
  name: "inception_4c/relu_3x3_reduce"
  type: "ReLU"
  bottom: "inception_4c/3x3_reduce"
  top: "inception_4c/3x3_reduce"
}
layer {
  name: "inception_4c/3x3"
  type: "Convolution"
  bottom: "inception_4c/3x3_reduce"
  top: "inception_4c/3x3"
  param {
    lr_mult: 1
    decay_mult: 1
  }
  param {
    lr_mult: 2
    decay_mult: 0
  }
  convolution_param {
    num_output: 256
    pad: 1
    kernel_size: 3
    weight_filler {
      type: "xavier"
      std: 0.03
    }
    bias_filler {
      type: "constant"
      value: 0.2
    }
  }
}
layer {
  name: "inception_4c/relu_3x3"
  type: "ReLU"
  bottom: "inception_4c/3x3"
  top: "inception_4c/3x3"
}
layer {
  name: "inception_4c/5x5_reduce"
  type: "Convolution"
  bottom: "inception_4b/output"
  top: "inception_4c/5x5_reduce"
  param {
    lr_mult: 1
    decay_mult: 1
  }
  param {
    lr_mult: 2
    decay_mult: 0
  }
  convolution_param {
    num_output: 24
    kernel_size: 1
    weight_filler {
      type: "xavier"
      std: 0.2
    }
    bias_filler {
      type: "constant"
      value: 0.2
    }
  }
}
layer {
  name: "inception_4c/relu_5x5_reduce"
  type: "ReLU"
  bottom: "inception_4c/5x5_reduce"
  top: "inception_4c/5x5_reduce"
}
layer {
  name: "inception_4c/5x5"
  type: "Convolution"
  bottom: "inception_4c/5x5_reduce"
  top: "inception_4c/5x5"
  param {
    lr_mult: 1
    decay_mult: 1
  }
  param {
    lr_mult: 2
    decay_mult: 0
  }
  convolution_param {
    num_output: 64
    pad: 2
    kernel_size: 5
    weight_filler {
      type: "xavier"
      std: 0.03
    }
    bias_filler {
      type: "constant"
      value: 0.2
    }
  }
}
layer {
  name: "inception_4c/relu_5x5"
  type: "ReLU"
  bottom: "inception_4c/5x5"
  top: "inception_4c/5x5"
}
layer {
  name: "inception_4c/pool"
  type: "Pooling"
  bottom: "inception_4b/output"
  top: "inception_4c/pool"
  pooling_param {
    pool: MAX
    kernel_size: 3
    stride: 1
    pad: 1
  }
}
layer {
  name: "inception_4c/pool_proj"
  type: "Convolution"
  bottom: "inception_4c/pool"
  top: "inception_4c/pool_proj"
  param {
    lr_mult: 1
    decay_mult: 1
  }
  param {
    lr_mult: 2
    decay_mult: 0
  }
  convolution_param {
    num_output: 64
    kernel_size: 1
    weight_filler {
      type: "xavier"
      std: 0.1
    }
    bias_filler {
      type: "constant"
      value: 0.2
    }
  }
}
layer {
  name: "inception_4c/relu_pool_proj"
  type: "ReLU"
  bottom: "inception_4c/pool_proj"
  top: "inception_4c/pool_proj"
}
layer {
  name: "inception_4c/output"
  type: "Concat"
  bottom: "inception_4c/1x1"
  bottom: "inception_4c/3x3"
  bottom: "inception_4c/5x5"
  bottom: "inception_4c/pool_proj"
  top: "inception_4c/output"
}
layer {
  name: "inception_4d/1x1"
  type: "Convolution"
  bottom: "inception_4c/output"
  top: "inception_4d/1x1"
  param {
    lr_mult: 1
    decay_mult: 1
  }
  param {
    lr_mult: 2
    decay_mult: 0
  }
  convolution_param {
    num_output: 112
    kernel_size: 1
    weight_filler {
      type: "xavier"
      std: 0.03
    }
    bias_filler {
      type: "constant"
      value: 0.2
    }
  }
}
layer {
  name: "inception_4d/relu_1x1"
  type: "ReLU"
  bottom: "inception_4d/1x1"
  top: "inception_4d/1x1"
}
layer {
  name: "inception_4d/3x3_reduce"
  type: "Convolution"
  bottom: "inception_4c/output"
  top: "inception_4d/3x3_reduce"
  param {
    lr_mult: 1
    decay_mult: 1
  }
  param {
    lr_mult: 2
    decay_mult: 0
  }
  convolution_param {
    num_output: 144
    kernel_size: 1
    weight_filler {
      type: "xavier"
      std: 0.09
    }
    bias_filler {
      type: "constant"
      value: 0.2
    }
  }
}
layer {
  name: "inception_4d/relu_3x3_reduce"
  type: "ReLU"
  bottom: "inception_4d/3x3_reduce"
  top: "inception_4d/3x3_reduce"
}
layer {
  name: "inception_4d/3x3"
  type: "Convolution"
  bottom: "inception_4d/3x3_reduce"
  top: "inception_4d/3x3"
  param {
    lr_mult: 1
    decay_mult: 1
  }
  param {
    lr_mult: 2
    decay_mult: 0
  }
  convolution_param {
    num_output: 288
    pad: 1
    kernel_size: 3
    weight_filler {
      type: "xavier"
      std: 0.03
    }
    bias_filler {
      type: "constant"
      value: 0.2
    }
  }
}
layer {
  name: "inception_4d/relu_3x3"
  type: "ReLU"
  bottom: "inception_4d/3x3"
  top: "inception_4d/3x3"
}
layer {
  name: "inception_4d/5x5_reduce"
  type: "Convolution"
  bottom: "inception_4c/output"
  top: "inception_4d/5x5_reduce"
  param {
    lr_mult: 1
    decay_mult: 1
  }
  param {
    lr_mult: 2
    decay_mult: 0
  }
  convolution_param {
    num_output: 32
    kernel_size: 1
    weight_filler {
      type: "xavier"
      std: 0.2
    }
    bias_filler {
      type: "constant"
      value: 0.2
    }
  }
}
layer {
  name: "inception_4d/relu_5x5_reduce"
  type: "ReLU"
  bottom: "inception_4d/5x5_reduce"
  top: "inception_4d/5x5_reduce"
}
layer {
  name: "inception_4d/5x5"
  type: "Convolution"
  bottom: "inception_4d/5x5_reduce"
  top: "inception_4d/5x5"
  param {
    lr_mult: 1
    decay_mult: 1
  }
  param {
    lr_mult: 2
    decay_mult: 0
  }
  convolution_param {
    num_output: 64
    pad: 2
    kernel_size: 5
    weight_filler {
      type: "xavier"
      std: 0.03
    }
    bias_filler {
      type: "constant"
      value: 0.2
    }
  }
}
layer {
  name: "inception_4d/relu_5x5"
  type: "ReLU"
  bottom: "inception_4d/5x5"
  top: "inception_4d/5x5"
}
layer {
  name: "inception_4d/pool"
  type: "Pooling"
  bottom: "inception_4c/output"
  top: "inception_4d/pool"
  pooling_param {
    pool: MAX
    kernel_size: 3
    stride: 1
    pad: 1
  }
}
layer {
  name: "inception_4d/pool_proj"
  type: "Convolution"
  bottom: "inception_4d/pool"
  top: "inception_4d/pool_proj"
  param {
    lr_mult: 1
    decay_mult: 1
  }
  param {
    lr_mult: 2
    decay_mult: 0
  }
  convolution_param {
    num_output: 64
    kernel_size: 1
    weight_filler {
      type: "xavier"
      std: 0.1
    }
    bias_filler {
      type: "constant"
      value: 0.2
    }
  }
}
layer {
  name: "inception_4d/relu_pool_proj"
  type: "ReLU"
  bottom: "inception_4d/pool_proj"
  top: "inception_4d/pool_proj"
}
layer {
  name: "inception_4d/output"
  type: "Concat"
  bottom: "inception_4d/1x1"
  bottom: "inception_4d/3x3"
  bottom: "inception_4d/5x5"
  bottom: "inception_4d/pool_proj"
  top: "inception_4d/output"
}
layer {
  name: "loss2/ave_pool"
  type: "Pooling"
  bottom: "inception_4d/output"
  top: "loss2/ave_pool"
  pooling_param {
    pool: AVE
    kernel_size: 5
    stride: 3
  }
}
layer {
  name: "loss2/conv"
  type: "Convolution"
  bottom: "loss2/ave_pool"
  top: "loss2/conv"
  param {
    lr_mult: 1
    decay_mult: 1
  }
  param {
    lr_mult: 2
    decay_mult: 0
  }
  convolution_param {
    num_output: 128
    kernel_size: 1
    weight_filler {
      type: "xavier"
      std: 0.08
    }
    bias_filler {
      type: "constant"
      value: 0.2
    }
  }
}
layer {
  name: "loss2/relu_conv"
  type: "ReLU"
  bottom: "loss2/conv"
  top: "loss2/conv"
}
layer {
  name: "loss2/fc"
  type: "InnerProduct"
  bottom: "loss2/conv"
  top: "loss2/fc"
  param {
    lr_mult: 1
    decay_mult: 1
  }
  param {
    lr_mult: 2
    decay_mult: 0
  }
  inner_product_param {
    num_output: 1024
    weight_filler {
      type: "xavier"
      std: 0.02
    }
    bias_filler {
      type: "constant"
      value: 0.2
    }
  }
}
layer {
  name: "loss2/relu_fc"
  type: "ReLU"
  bottom: "loss2/fc"
  top: "loss2/fc"
}
layer {
  name: "loss2/drop_fc"
  type: "Dropout"
  bottom: "loss2/fc"
  top: "loss2/fc"
  dropout_param {
    dropout_ratio: 0.7
  }
}
layer {
  name: "loss2/classifier_plantvillage"
  type: "InnerProduct"
  bottom: "loss2/fc"
  top: "loss2/classifier_plantvillage"
  param {
    lr_mult: 1
    decay_mult: 1
  }
  param {
    lr_mult: 2
    decay_mult: 0
  }
  inner_product_param {
    num_output: 38
    weight_filler {
      type: "xavier"
      std: 0.0009765625
    }
    bias_filler {
      type: "constant"
      value: 0
    }
  }
}
layer {
  name: "inception_4e/1x1"
  type: "Convolution"
  bottom: "inception_4d/output"
  top: "inception_4e/1x1"
  param {
    lr_mult: 1
    decay_mult: 1
  }
  param {
    lr_mult: 2
    decay_mult: 0
  }
  convolution_param {
    num_output: 256
    kernel_size: 1
    weight_filler {
      type: "xavier"
      std: 0.03
    }
    bias_filler {
      type: "constant"
      value: 0.2
    }
  }
}
layer {
  name: "inception_4e/relu_1x1"
  type: "ReLU"
  bottom: "inception_4e/1x1"
  top: "inception_4e/1x1"
}
layer {
  name: "inception_4e/3x3_reduce"
  type: "Convolution"
  bottom: "inception_4d/output"
  top: "inception_4e/3x3_reduce"
  param {
    lr_mult: 1
    decay_mult: 1
  }
  param {
    lr_mult: 2
    decay_mult: 0
  }
  convolution_param {
    num_output: 160
    kernel_size: 1
    weight_filler {
      type: "xavier"
      std: 0.09
    }
    bias_filler {
      type: "constant"
      value: 0.2
    }
  }
}
layer {
  name: "inception_4e/relu_3x3_reduce"
  type: "ReLU"
  bottom: "inception_4e/3x3_reduce"
  top: "inception_4e/3x3_reduce"
}
layer {
  name: "inception_4e/3x3"
  type: "Convolution"
  bottom: "inception_4e/3x3_reduce"
  top: "inception_4e/3x3"
  param {
    lr_mult: 1
    decay_mult: 1
  }
  param {
    lr_mult: 2
    decay_mult: 0
  }
  convolution_param {
    num_output: 320
    pad: 1
    kernel_size: 3
    weight_filler {
      type: "xavier"
      std: 0.03
    }
    bias_filler {
      type: "constant"
      value: 0.2
    }
  }
}
layer {
  name: "inception_4e/relu_3x3"
  type: "ReLU"
  bottom: "inception_4e/3x3"
  top: "inception_4e/3x3"
}
layer {
  name: "inception_4e/5x5_reduce"
  type: "Convolution"
  bottom: "inception_4d/output"
  top: "inception_4e/5x5_reduce"
  param {
    lr_mult: 1
    decay_mult: 1
  }
  param {
    lr_mult: 2
    decay_mult: 0
  }
  convolution_param {
    num_output: 32
    kernel_size: 1
    weight_filler {
      type: "xavier"
      std: 0.2
    }
    bias_filler {
      type: "constant"
      value: 0.2
    }
  }
}
layer {
  name: "inception_4e/relu_5x5_reduce"
  type: "ReLU"
  bottom: "inception_4e/5x5_reduce"
  top: "inception_4e/5x5_reduce"
}
layer {
  name: "inception_4e/5x5"
  type: "Convolution"
  bottom: "inception_4e/5x5_reduce"
  top: "inception_4e/5x5"
  p
I0403 15:32:09.921675 32079 layer_factory.hpp:77] Creating layer data
I0403 15:32:09.922303 32079 net.cpp:91] Creating Layer data
I0403 15:32:09.922346 32079 net.cpp:399] data -> data
I0403 15:32:09.922404 32079 net.cpp:399] data -> label
I0403 15:32:09.922441 32079 data_transformer.cpp:25] Loading mean file from: /home/mohanty/data/final_dataset/lmdb/color-60-40/mean.binaryproto
I0403 15:32:09.925536 32083 db_lmdb.cpp:38] Opened lmdb /home/mohanty/data/final_dataset/lmdb/color-60-40/test_db
I0403 15:32:09.935943 32079 data_layer.cpp:41] output data size: 24,3,224,224
I0403 15:32:09.966063 32079 net.cpp:141] Setting up data
I0403 15:32:09.966142 32079 net.cpp:148] Top shape: 24 3 224 224 (3612672)
I0403 15:32:09.966166 32079 net.cpp:148] Top shape: 24 (24)
I0403 15:32:09.966181 32079 net.cpp:156] Memory required for data: 14450784
I0403 15:32:09.966209 32079 layer_factory.hpp:77] Creating layer label_data_1_split
I0403 15:32:09.966236 32079 net.cpp:91] Creating Layer label_data_1_split
I0403 15:32:09.966259 32079 net.cpp:425] label_data_1_split <- label
I0403 15:32:09.966294 32079 net.cpp:399] label_data_1_split -> label_data_1_split_0
I0403 15:32:09.966323 32079 net.cpp:399] label_data_1_split -> label_data_1_split_1
I0403 15:32:09.966346 32079 net.cpp:399] label_data_1_split -> label_data_1_split_2
I0403 15:32:09.966367 32079 net.cpp:399] label_data_1_split -> label_data_1_split_3
I0403 15:32:09.966387 32079 net.cpp:399] label_data_1_split -> label_data_1_split_4
I0403 15:32:09.966408 32079 net.cpp:399] label_data_1_split -> label_data_1_split_5
I0403 15:32:09.966429 32079 net.cpp:399] label_data_1_split -> label_data_1_split_6
I0403 15:32:09.966451 32079 net.cpp:399] label_data_1_split -> label_data_1_split_7
I0403 15:32:09.966473 32079 net.cpp:399] label_data_1_split -> label_data_1_split_8
I0403 15:32:09.966495 32079 net.cpp:399] label_data_1_split -> label_data_1_split_9
I0403 15:32:09.966610 32079 net.cpp:141] Setting up label_data_1_split
I0403 15:32:09.966635 32079 net.cpp:148] Top shape: 24 (24)
I0403 15:32:09.966653 32079 net.cpp:148] Top shape: 24 (24)
I0403 15:32:09.966670 32079 net.cpp:148] Top shape: 24 (24)
I0403 15:32:09.966686 32079 net.cpp:148] Top shape: 24 (24)
I0403 15:32:09.966702 32079 net.cpp:148] Top shape: 24 (24)
I0403 15:32:09.966717 32079 net.cpp:148] Top shape: 24 (24)
I0403 15:32:09.966734 32079 net.cpp:148] Top shape: 24 (24)
I0403 15:32:09.966749 32079 net.cpp:148] Top shape: 24 (24)
I0403 15:32:09.966765 32079 net.cpp:148] Top shape: 24 (24)
I0403 15:32:09.966783 32079 net.cpp:148] Top shape: 24 (24)
I0403 15:32:09.966827 32079 net.cpp:156] Memory required for data: 14451744
I0403 15:32:09.966845 32079 layer_factory.hpp:77] Creating layer conv1/7x7_s2
I0403 15:32:09.966876 32079 net.cpp:91] Creating Layer conv1/7x7_s2
I0403 15:32:09.966897 32079 net.cpp:425] conv1/7x7_s2 <- data
I0403 15:32:09.966915 32079 net.cpp:399] conv1/7x7_s2 -> conv1/7x7_s2
I0403 15:32:10.112988 32079 net.cpp:141] Setting up conv1/7x7_s2
I0403 15:32:10.113065 32079 net.cpp:148] Top shape: 24 64 112 112 (19267584)
I0403 15:32:10.113083 32079 net.cpp:156] Memory required for data: 91522080
I0403 15:32:10.113116 32079 layer_factory.hpp:77] Creating layer conv1/relu_7x7
I0403 15:32:10.113143 32079 net.cpp:91] Creating Layer conv1/relu_7x7
I0403 15:32:10.113162 32079 net.cpp:425] conv1/relu_7x7 <- conv1/7x7_s2
I0403 15:32:10.113183 32079 net.cpp:386] conv1/relu_7x7 -> conv1/7x7_s2 (in-place)
I0403 15:32:10.113466 32079 net.cpp:141] Setting up conv1/relu_7x7
I0403 15:32:10.113494 32079 net.cpp:148] Top shape: 24 64 112 112 (19267584)
I0403 15:32:10.113512 32079 net.cpp:156] Memory required for data: 168592416
I0403 15:32:10.113528 32079 layer_factory.hpp:77] Creating layer pool1/3x3_s2
I0403 15:32:10.113554 32079 net.cpp:91] Creating Layer pool1/3x3_s2
I0403 15:32:10.113572 32079 net.cpp:425] pool1/3x3_s2 <- conv1/7x7_s2
I0403 15:32:10.113601 32079 net.cpp:399] pool1/3x3_s2 -> pool1/3x3_s2
I0403 15:32:10.113677 32079 net.cpp:141] Setting up pool1/3x3_s2
I0403 15:32:10.113703 32079 net.cpp:148] Top shape: 24 64 56 56 (4816896)
I0403 15:32:10.113719 32079 net.cpp:156] Memory required for data: 187860000
I0403 15:32:10.113734 32079 layer_factory.hpp:77] Creating layer pool1/norm1
I0403 15:32:10.113787 32079 net.cpp:91] Creating Layer pool1/norm1
I0403 15:32:10.113809 32079 net.cpp:425] pool1/norm1 <- pool1/3x3_s2
I0403 15:32:10.113828 32079 net.cpp:399] pool1/norm1 -> pool1/norm1
I0403 15:32:10.114119 32079 net.cpp:141] Setting up pool1/norm1
I0403 15:32:10.114147 32079 net.cpp:148] Top shape: 24 64 56 56 (4816896)
I0403 15:32:10.114164 32079 net.cpp:156] Memory required for data: 207127584
I0403 15:32:10.114181 32079 layer_factory.hpp:77] Creating layer conv2/3x3_reduce
I0403 15:32:10.114207 32079 net.cpp:91] Creating Layer conv2/3x3_reduce
I0403 15:32:10.114224 32079 net.cpp:425] conv2/3x3_reduce <- pool1/norm1
I0403 15:32:10.114244 32079 net.cpp:399] conv2/3x3_reduce -> conv2/3x3_reduce
I0403 15:32:10.115663 32079 net.cpp:141] Setting up conv2/3x3_reduce
I0403 15:32:10.115692 32079 net.cpp:148] Top shape: 24 64 56 56 (4816896)
I0403 15:32:10.115710 32079 net.cpp:156] Memory required for data: 226395168
I0403 15:32:10.115731 32079 layer_factory.hpp:77] Creating layer conv2/relu_3x3_reduce
I0403 15:32:10.115751 32079 net.cpp:91] Creating Layer conv2/relu_3x3_reduce
I0403 15:32:10.115767 32079 net.cpp:425] conv2/relu_3x3_reduce <- conv2/3x3_reduce
I0403 15:32:10.115787 32079 net.cpp:386] conv2/relu_3x3_reduce -> conv2/3x3_reduce (in-place)
I0403 15:32:10.116039 32079 net.cpp:141] Setting up conv2/relu_3x3_reduce
I0403 15:32:10.116065 32079 net.cpp:148] Top shape: 24 64 56 56 (4816896)
I0403 15:32:10.116081 32079 net.cpp:156] Memory required for data: 245662752
I0403 15:32:10.116097 32079 layer_factory.hpp:77] Creating layer conv2/3x3
I0403 15:32:10.116119 32079 net.cpp:91] Creating Layer conv2/3x3
I0403 15:32:10.116138 32079 net.cpp:425] conv2/3x3 <- conv2/3x3_reduce
I0403 15:32:10.116156 32079 net.cpp:399] conv2/3x3 -> conv2/3x3
I0403 15:32:10.118432 32079 net.cpp:141] Setting up conv2/3x3
I0403 15:32:10.118463 32079 net.cpp:148] Top shape: 24 192 56 56 (14450688)
I0403 15:32:10.118479 32079 net.cpp:156] Memory required for data: 303465504
I0403 15:32:10.118500 32079 layer_factory.hpp:77] Creating layer conv2/relu_3x3
I0403 15:32:10.118522 32079 net.cpp:91] Creating Layer conv2/relu_3x3
I0403 15:32:10.118540 32079 net.cpp:425] conv2/relu_3x3 <- conv2/3x3
I0403 15:32:10.118557 32079 net.cpp:386] conv2/relu_3x3 -> conv2/3x3 (in-place)
I0403 15:32:10.118736 32079 net.cpp:141] Setting up conv2/relu_3x3
I0403 15:32:10.118762 32079 net.cpp:148] Top shape: 24 192 56 56 (14450688)
I0403 15:32:10.118809 32079 net.cpp:156] Memory required for data: 361268256
I0403 15:32:10.118825 32079 layer_factory.hpp:77] Creating layer conv2/norm2
I0403 15:32:10.118844 32079 net.cpp:91] Creating Layer conv2/norm2
I0403 15:32:10.118860 32079 net.cpp:425] conv2/norm2 <- conv2/3x3
I0403 15:32:10.118881 32079 net.cpp:399] conv2/norm2 -> conv2/norm2
I0403 15:32:10.119213 32079 net.cpp:141] Setting up conv2/norm2
I0403 15:32:10.119241 32079 net.cpp:148] Top shape: 24 192 56 56 (14450688)
I0403 15:32:10.119261 32079 net.cpp:156] Memory required for data: 419071008
I0403 15:32:10.119277 32079 layer_factory.hpp:77] Creating layer pool2/3x3_s2
I0403 15:32:10.119297 32079 net.cpp:91] Creating Layer pool2/3x3_s2
I0403 15:32:10.119313 32079 net.cpp:425] pool2/3x3_s2 <- conv2/norm2
I0403 15:32:10.119333 32079 net.cpp:399] pool2/3x3_s2 -> pool2/3x3_s2
I0403 15:32:10.119388 32079 net.cpp:141] Setting up pool2/3x3_s2
I0403 15:32:10.119412 32079 net.cpp:148] Top shape: 24 192 28 28 (3612672)
I0403 15:32:10.119427 32079 net.cpp:156] Memory required for data: 433521696
I0403 15:32:10.119441 32079 layer_factory.hpp:77] Creating layer pool2/3x3_s2_pool2/3x3_s2_0_split
I0403 15:32:10.119459 32079 net.cpp:91] Creating Layer pool2/3x3_s2_pool2/3x3_s2_0_split
I0403 15:32:10.119474 32079 net.cpp:425] pool2/3x3_s2_pool2/3x3_s2_0_split <- pool2/3x3_s2
I0403 15:32:10.119494 32079 net.cpp:399] pool2/3x3_s2_pool2/3x3_s2_0_split -> pool2/3x3_s2_pool2/3x3_s2_0_split_0
I0403 15:32:10.119516 32079 net.cpp:399] pool2/3x3_s2_pool2/3x3_s2_0_split -> pool2/3x3_s2_pool2/3x3_s2_0_split_1
I0403 15:32:10.119537 32079 net.cpp:399] pool2/3x3_s2_pool2/3x3_s2_0_split -> pool2/3x3_s2_pool2/3x3_s2_0_split_2
I0403 15:32:10.119556 32079 net.cpp:399] pool2/3x3_s2_pool2/3x3_s2_0_split -> pool2/3x3_s2_pool2/3x3_s2_0_split_3
I0403 15:32:10.119629 32079 net.cpp:141] Setting up pool2/3x3_s2_pool2/3x3_s2_0_split
I0403 15:32:10.119655 32079 net.cpp:148] Top shape: 24 192 28 28 (3612672)
I0403 15:32:10.119673 32079 net.cpp:148] Top shape: 24 192 28 28 (3612672)
I0403 15:32:10.119689 32079 net.cpp:148] Top shape: 24 192 28 28 (3612672)
I0403 15:32:10.119705 32079 net.cpp:148] Top shape: 24 192 28 28 (3612672)
I0403 15:32:10.119719 32079 net.cpp:156] Memory required for data: 491324448
I0403 15:32:10.119734 32079 layer_factory.hpp:77] Creating layer inception_3a/1x1
I0403 15:32:10.119756 32079 net.cpp:91] Creating Layer inception_3a/1x1
I0403 15:32:10.119774 32079 net.cpp:425] inception_3a/1x1 <- pool2/3x3_s2_pool2/3x3_s2_0_split_0
I0403 15:32:10.119793 32079 net.cpp:399] inception_3a/1x1 -> inception_3a/1x1
I0403 15:32:10.121366 32079 net.cpp:141] Setting up inception_3a/1x1
I0403 15:32:10.121395 32079 net.cpp:148] Top shape: 24 64 28 28 (1204224)
I0403 15:32:10.121412 32079 net.cpp:156] Memory required for data: 496141344
I0403 15:32:10.121433 32079 layer_factory.hpp:77] Creating layer inception_3a/relu_1x1
I0403 15:32:10.121454 32079 net.cpp:91] Creating Layer inception_3a/relu_1x1
I0403 15:32:10.121470 32079 net.cpp:425] inception_3a/relu_1x1 <- inception_3a/1x1
I0403 15:32:10.121489 32079 net.cpp:386] inception_3a/relu_1x1 -> inception_3a/1x1 (in-place)
I0403 15:32:10.121661 32079 net.cpp:141] Setting up inception_3a/relu_1x1
I0403 15:32:10.121693 32079 net.cpp:148] Top shape: 24 64 28 28 (1204224)
I0403 15:32:10.121711 32079 net.cpp:156] Memory required for data: 500958240
I0403 15:32:10.121726 32079 layer_factory.hpp:77] Creating layer inception_3a/3x3_reduce
I0403 15:32:10.121748 32079 net.cpp:91] Creating Layer inception_3a/3x3_reduce
I0403 15:32:10.121767 32079 net.cpp:425] inception_3a/3x3_reduce <- pool2/3x3_s2_pool2/3x3_s2_0_split_1
I0403 15:32:10.121786 32079 net.cpp:399] inception_3a/3x3_reduce -> inception_3a/3x3_reduce
I0403 15:32:10.123519 32079 net.cpp:141] Setting up inception_3a/3x3_reduce
I0403 15:32:10.123550 32079 net.cpp:148] Top shape: 24 96 28 28 (1806336)
I0403 15:32:10.123566 32079 net.cpp:156] Memory required for data: 508183584
I0403 15:32:10.123589 32079 layer_factory.hpp:77] Creating layer inception_3a/relu_3x3_reduce
I0403 15:32:10.123627 32079 net.cpp:91] Creating Layer inception_3a/relu_3x3_reduce
I0403 15:32:10.123646 32079 net.cpp:425] inception_3a/relu_3x3_reduce <- inception_3a/3x3_reduce
I0403 15:32:10.123667 32079 net.cpp:386] inception_3a/relu_3x3_reduce -> inception_3a/3x3_reduce (in-place)
I0403 15:32:10.123849 32079 net.cpp:141] Setting up inception_3a/relu_3x3_reduce
I0403 15:32:10.123875 32079 net.cpp:148] Top shape: 24 96 28 28 (1806336)
I0403 15:32:10.123890 32079 net.cpp:156] Memory required for data: 515408928
I0403 15:32:10.123906 32079 layer_factory.hpp:77] Creating layer inception_3a/3x3
I0403 15:32:10.123929 32079 net.cpp:91] Creating Layer inception_3a/3x3
I0403 15:32:10.123946 32079 net.cpp:425] inception_3a/3x3 <- inception_3a/3x3_reduce
I0403 15:32:10.123968 32079 net.cpp:399] inception_3a/3x3 -> inception_3a/3x3
I0403 15:32:10.125608 32079 net.cpp:141] Setting up inception_3a/3x3
I0403 15:32:10.125638 32079 net.cpp:148] Top shape: 24 128 28 28 (2408448)
I0403 15:32:10.125656 32079 net.cpp:156] Memory required for data: 525042720
I0403 15:32:10.125675 32079 layer_factory.hpp:77] Creating layer inception_3a/relu_3x3
I0403 15:32:10.125694 32079 net.cpp:91] Creating Layer inception_3a/relu_3x3
I0403 15:32:10.125710 32079 net.cpp:425] inception_3a/relu_3x3 <- inception_3a/3x3
I0403 15:32:10.125726 32079 net.cpp:386] inception_3a/relu_3x3 -> inception_3a/3x3 (in-place)
I0403 15:32:10.125995 32079 net.cpp:141] Setting up inception_3a/relu_3x3
I0403 15:32:10.126024 32079 net.cpp:148] Top shape: 24 128 28 28 (2408448)
I0403 15:32:10.126039 32079 net.cpp:156] Memory required for data: 534676512
I0403 15:32:10.126055 32079 layer_factory.hpp:77] Creating layer inception_3a/5x5_reduce
I0403 15:32:10.126075 32079 net.cpp:91] Creating Layer inception_3a/5x5_reduce
I0403 15:32:10.126092 32079 net.cpp:425] inception_3a/5x5_reduce <- pool2/3x3_s2_pool2/3x3_s2_0_split_2
I0403 15:32:10.126113 32079 net.cpp:399] inception_3a/5x5_reduce -> inception_3a/5x5_reduce
I0403 15:32:10.127041 32079 net.cpp:141] Setting up inception_3a/5x5_reduce
I0403 15:32:10.127071 32079 net.cpp:148] Top shape: 24 16 28 28 (301056)
I0403 15:32:10.127089 32079 net.cpp:156] Memory required for data: 535880736
I0403 15:32:10.127106 32079 layer_factory.hpp:77] Creating layer inception_3a/relu_5x5_reduce
I0403 15:32:10.127123 32079 net.cpp:91] Creating Layer inception_3a/relu_5x5_reduce
I0403 15:32:10.127140 32079 net.cpp:425] inception_3a/relu_5x5_reduce <- inception_3a/5x5_reduce
I0403 15:32:10.127157 32079 net.cpp:386] inception_3a/relu_5x5_reduce -> inception_3a/5x5_reduce (in-place)
I0403 15:32:10.127456 32079 net.cpp:141] Setting up inception_3a/relu_5x5_reduce
I0403 15:32:10.127482 32079 net.cpp:148] Top shape: 24 16 28 28 (301056)
I0403 15:32:10.127497 32079 net.cpp:156] Memory required for data: 537084960
I0403 15:32:10.127511 32079 layer_factory.hpp:77] Creating layer inception_3a/5x5
I0403 15:32:10.127533 32079 net.cpp:91] Creating Layer inception_3a/5x5
I0403 15:32:10.127552 32079 net.cpp:425] inception_3a/5x5 <- inception_3a/5x5_reduce
I0403 15:32:10.127578 32079 net.cpp:399] inception_3a/5x5 -> inception_3a/5x5
I0403 15:32:10.128553 32079 net.cpp:141] Setting up inception_3a/5x5
I0403 15:32:10.128582 32079 net.cpp:148] Top shape: 24 32 28 28 (602112)
I0403 15:32:10.128598 32079 net.cpp:156] Memory required for data: 539493408
I0403 15:32:10.128617 32079 layer_factory.hpp:77] Creating layer inception_3a/relu_5x5
I0403 15:32:10.128636 32079 net.cpp:91] Creating Layer inception_3a/relu_5x5
I0403 15:32:10.128654 32079 net.cpp:425] inception_3a/relu_5x5 <- inception_3a/5x5
I0403 15:32:10.128672 32079 net.cpp:386] inception_3a/relu_5x5 -> inception_3a/5x5 (in-place)
I0403 15:32:10.128841 32079 net.cpp:141] Setting up inception_3a/relu_5x5
I0403 15:32:10.128867 32079 net.cpp:148] Top shape: 24 32 28 28 (602112)
I0403 15:32:10.128883 32079 net.cpp:156] Memory required for data: 541901856
I0403 15:32:10.128898 32079 layer_factory.hpp:77] Creating layer inception_3a/pool
I0403 15:32:10.128916 32079 net.cpp:91] Creating Layer inception_3a/pool
I0403 15:32:10.128932 32079 net.cpp:425] inception_3a/pool <- pool2/3x3_s2_pool2/3x3_s2_0_split_3
I0403 15:32:10.128967 32079 net.cpp:399] inception_3a/pool -> inception_3a/pool
I0403 15:32:10.129024 32079 net.cpp:141] Setting up inception_3a/pool
I0403 15:32:10.129046 32079 net.cpp:148] Top shape: 24 192 28 28 (3612672)
I0403 15:32:10.129061 32079 net.cpp:156] Memory required for data: 556352544
I0403 15:32:10.129076 32079 layer_factory.hpp:77] Creating layer inception_3a/pool_proj
I0403 15:32:10.129098 32079 net.cpp:91] Creating Layer inception_3a/pool_proj
I0403 15:32:10.129117 32079 net.cpp:425] inception_3a/pool_proj <- inception_3a/pool
I0403 15:32:10.129139 32079 net.cpp:399] inception_3a/pool_proj -> inception_3a/pool_proj
I0403 15:32:10.130096 32079 net.cpp:141] Setting up inception_3a/pool_proj
I0403 15:32:10.130125 32079 net.cpp:148] Top shape: 24 32 28 28 (602112)
I0403 15:32:10.130139 32079 net.cpp:156] Memory required for data: 558760992
I0403 15:32:10.130163 32079 layer_factory.hpp:77] Creating layer inception_3a/relu_pool_proj
I0403 15:32:10.130184 32079 net.cpp:91] Creating Layer inception_3a/relu_pool_proj
I0403 15:32:10.130200 32079 net.cpp:425] inception_3a/relu_pool_proj <- inception_3a/pool_proj
I0403 15:32:10.130218 32079 net.cpp:386] inception_3a/relu_pool_proj -> inception_3a/pool_proj (in-place)
I0403 15:32:10.130496 32079 net.cpp:141] Setting up inception_3a/relu_pool_proj
I0403 15:32:10.130525 32079 net.cpp:148] Top shape: 24 32 28 28 (602112)
I0403 15:32:10.130542 32079 net.cpp:156] Memory required for data: 561169440
I0403 15:32:10.130558 32079 layer_factory.hpp:77] Creating layer inception_3a/output
I0403 15:32:10.130574 32079 net.cpp:91] Creating Layer inception_3a/output
I0403 15:32:10.130589 32079 net.cpp:425] inception_3a/output <- inception_3a/1x1
I0403 15:32:10.130606 32079 net.cpp:425] inception_3a/output <- inception_3a/3x3
I0403 15:32:10.130627 32079 net.cpp:425] inception_3a/output <- inception_3a/5x5
I0403 15:32:10.130645 32079 net.cpp:425] inception_3a/output <- inception_3a/pool_proj
I0403 15:32:10.130661 32079 net.cpp:399] inception_3a/output -> inception_3a/output
I0403 15:32:10.130707 32079 net.cpp:141] Setting up inception_3a/output
I0403 15:32:10.130730 32079 net.cpp:148] Top shape: 24 256 28 28 (4816896)
I0403 15:32:10.130744 32079 net.cpp:156] Memory required for data: 580437024
I0403 15:32:10.130759 32079 layer_factory.hpp:77] Creating layer inception_3a/output_inception_3a/output_0_split
I0403 15:32:10.130776 32079 net.cpp:91] Creating Layer inception_3a/output_inception_3a/output_0_split
I0403 15:32:10.130795 32079 net.cpp:425] inception_3a/output_inception_3a/output_0_split <- inception_3a/output
I0403 15:32:10.130813 32079 net.cpp:399] inception_3a/output_inception_3a/output_0_split -> inception_3a/output_inception_3a/output_0_split_0
I0403 15:32:10.130832 32079 net.cpp:399] inception_3a/output_inception_3a/output_0_split -> inception_3a/output_inception_3a/output_0_split_1
I0403 15:32:10.130856 32079 net.cpp:399] inception_3a/output_inception_3a/output_0_split -> inception_3a/output_inception_3a/output_0_split_2
I0403 15:32:10.130878 32079 net.cpp:399] inception_3a/output_inception_3a/output_0_split -> inception_3a/output_inception_3a/output_0_split_3
I0403 15:32:10.130952 32079 net.cpp:141] Setting up inception_3a/output_inception_3a/output_0_split
I0403 15:32:10.130975 32079 net.cpp:148] Top shape: 24 256 28 28 (4816896)
I0403 15:32:10.130991 32079 net.cpp:148] Top shape: 24 256 28 28 (4816896)
I0403 15:32:10.131007 32079 net.cpp:148] Top shape: 24 256 28 28 (4816896)
I0403 15:32:10.131022 32079 net.cpp:148] Top shape: 24 256 28 28 (4816896)
I0403 15:32:10.131036 32079 net.cpp:156] Memory required for data: 657507360
I0403 15:32:10.131049 32079 layer_factory.hpp:77] Creating layer inception_3b/1x1
I0403 15:32:10.131072 32079 net.cpp:91] Creating Layer inception_3b/1x1
I0403 15:32:10.131090 32079 net.cpp:425] inception_3b/1x1 <- inception_3a/output_inception_3a/output_0_split_0
I0403 15:32:10.131114 32079 net.cpp:399] inception_3b/1x1 -> inception_3b/1x1
I0403 15:32:10.132218 32079 net.cpp:141] Setting up inception_3b/1x1
I0403 15:32:10.132284 32079 net.cpp:148] Top shape: 24 128 28 28 (2408448)
I0403 15:32:10.132302 32079 net.cpp:156] Memory required for data: 667141152
I0403 15:32:10.132321 32079 layer_factory.hpp:77] Creating layer inception_3b/relu_1x1
I0403 15:32:10.132344 32079 net.cpp:91] Creating Layer inception_3b/relu_1x1
I0403 15:32:10.132362 32079 net.cpp:425] inception_3b/relu_1x1 <- inception_3b/1x1
I0403 15:32:10.132380 32079 net.cpp:386] inception_3b/relu_1x1 -> inception_3b/1x1 (in-place)
I0403 15:32:10.132565 32079 net.cpp:141] Setting up inception_3b/relu_1x1
I0403 15:32:10.132593 32079 net.cpp:148] Top shape: 24 128 28 28 (2408448)
I0403 15:32:10.132608 32079 net.cpp:156] Memory required for data: 676774944
I0403 15:32:10.132624 32079 layer_factory.hpp:77] Creating layer inception_3b/3x3_reduce
I0403 15:32:10.132647 32079 net.cpp:91] Creating Layer inception_3b/3x3_reduce
I0403 15:32:10.132665 32079 net.cpp:425] inception_3b/3x3_reduce <- inception_3a/output_inception_3a/output_0_split_1
I0403 15:32:10.132684 32079 net.cpp:399] inception_3b/3x3_reduce -> inception_3b/3x3_reduce
I0403 15:32:10.133780 32079 net.cpp:141] Setting up inception_3b/3x3_reduce
I0403 15:32:10.133807 32079 net.cpp:148] Top shape: 24 128 28 28 (2408448)
I0403 15:32:10.133823 32079 net.cpp:156] Memory required for data: 686408736
I0403 15:32:10.133841 32079 layer_factory.hpp:77] Creating layer inception_3b/relu_3x3_reduce
I0403 15:32:10.133862 32079 net.cpp:91] Creating Layer inception_3b/relu_3x3_reduce
I0403 15:32:10.133878 32079 net.cpp:425] inception_3b/relu_3x3_reduce <- inception_3b/3x3_reduce
I0403 15:32:10.133895 32079 net.cpp:386] inception_3b/relu_3x3_reduce -> inception_3b/3x3_reduce (in-place)
I0403 15:32:10.134062 32079 net.cpp:141] Setting up inception_3b/relu_3x3_reduce
I0403 15:32:10.134086 32079 net.cpp:148] Top shape: 24 128 28 28 (2408448)
I0403 15:32:10.134101 32079 net.cpp:156] Memory required for data: 696042528
I0403 15:32:10.134116 32079 layer_factory.hpp:77] Creating layer inception_3b/3x3
I0403 15:32:10.134141 32079 net.cpp:91] Creating Layer inception_3b/3x3
I0403 15:32:10.134158 32079 net.cpp:425] inception_3b/3x3 <- inception_3b/3x3_reduce
I0403 15:32:10.134179 32079 net.cpp:399] inception_3b/3x3 -> inception_3b/3x3
I0403 15:32:10.137107 32079 net.cpp:141] Setting up inception_3b/3x3
I0403 15:32:10.137140 32079 net.cpp:148] Top shape: 24 192 28 28 (3612672)
I0403 15:32:10.137157 32079 net.cpp:156] Memory required for data: 710493216
I0403 15:32:10.137176 32079 layer_factory.hpp:77] Creating layer inception_3b/relu_3x3
I0403 15:32:10.137193 32079 net.cpp:91] Creating Layer inception_3b/relu_3x3
I0403 15:32:10.137209 32079 net.cpp:425] inception_3b/relu_3x3 <- inception_3b/3x3
I0403 15:32:10.137226 32079 net.cpp:386] inception_3b/relu_3x3 -> inception_3b/3x3 (in-place)
I0403 15:32:10.137498 32079 net.cpp:141] Setting up inception_3b/relu_3x3
I0403 15:32:10.137527 32079 net.cpp:148] Top shape: 24 192 28 28 (3612672)
I0403 15:32:10.137542 32079 net.cpp:156] Memory required for data: 724943904
I0403 15:32:10.137557 32079 layer_factory.hpp:77] Creating layer inception_3b/5x5_reduce
I0403 15:32:10.137578 32079 net.cpp:91] Creating Layer inception_3b/5x5_reduce
I0403 15:32:10.137596 32079 net.cpp:425] inception_3b/5x5_reduce <- inception_3a/output_inception_3a/output_0_split_2
I0403 15:32:10.137617 32079 net.cpp:399] inception_3b/5x5_reduce -> inception_3b/5x5_reduce
I0403 15:32:10.138576 32079 net.cpp:141] Setting up inception_3b/5x5_reduce
I0403 15:32:10.138603 32079 net.cpp:148] Top shape: 24 32 28 28 (602112)
I0403 15:32:10.138619 32079 net.cpp:156] Memory required for data: 727352352
I0403 15:32:10.138636 32079 layer_factory.hpp:77] Creating layer inception_3b/relu_5x5_reduce
I0403 15:32:10.138659 32079 net.cpp:91] Creating Layer inception_3b/relu_5x5_reduce
I0403 15:32:10.138674 32079 net.cpp:425] inception_3b/relu_5x5_reduce <- inception_3b/5x5_reduce
I0403 15:32:10.138692 32079 net.cpp:386] inception_3b/relu_5x5_reduce -> inception_3b/5x5_reduce (in-place)
I0403 15:32:10.138864 32079 net.cpp:141] Setting up inception_3b/relu_5x5_reduce
I0403 15:32:10.138906 32079 net.cpp:148] Top shape: 24 32 28 28 (602112)
I0403 15:32:10.138922 32079 net.cpp:156] Memory required for data: 729760800
I0403 15:32:10.138937 32079 layer_factory.hpp:77] Creating layer inception_3b/5x5
I0403 15:32:10.138959 32079 net.cpp:91] Creating Layer inception_3b/5x5
I0403 15:32:10.138978 32079 net.cpp:425] inception_3b/5x5 <- inception_3b/5x5_reduce
I0403 15:32:10.138998 32079 net.cpp:399] inception_3b/5x5 -> inception_3b/5x5
I0403 15:32:10.140916 32079 net.cpp:141] Setting up inception_3b/5x5
I0403 15:32:10.140944 32079 net.cpp:148] Top shape: 24 96 28 28 (1806336)
I0403 15:32:10.140960 32079 net.cpp:156] Memory required for data: 736986144
I0403 15:32:10.140980 32079 layer_factory.hpp:77] Creating layer inception_3b/relu_5x5
I0403 15:32:10.141000 32079 net.cpp:91] Creating Layer inception_3b/relu_5x5
I0403 15:32:10.141018 32079 net.cpp:425] inception_3b/relu_5x5 <- inception_3b/5x5
I0403 15:32:10.141036 32079 net.cpp:386] inception_3b/relu_5x5 -> inception_3b/5x5 (in-place)
I0403 15:32:10.141222 32079 net.cpp:141] Setting up inception_3b/relu_5x5
I0403 15:32:10.141247 32079 net.cpp:148] Top shape: 24 96 28 28 (1806336)
I0403 15:32:10.141268 32079 net.cpp:156] Memory required for data: 744211488
I0403 15:32:10.141283 32079 layer_factory.hpp:77] Creating layer inception_3b/pool
I0403 15:32:10.141299 32079 net.cpp:91] Creating Layer inception_3b/pool
I0403 15:32:10.141314 32079 net.cpp:425] inception_3b/pool <- inception_3a/output_inception_3a/output_0_split_3
I0403 15:32:10.141332 32079 net.cpp:399] inception_3b/pool -> inception_3b/pool
I0403 15:32:10.141386 32079 net.cpp:141] Setting up inception_3b/pool
I0403 15:32:10.141409 32079 net.cpp:148] Top shape: 24 256 28 28 (4816896)
I0403 15:32:10.141424 32079 net.cpp:156] Memory required for data: 763479072
I0403 15:32:10.141438 32079 layer_factory.hpp:77] Creating layer inception_3b/pool_proj
I0403 15:32:10.141461 32079 net.cpp:91] Creating Layer inception_3b/pool_proj
I0403 15:32:10.141479 32079 net.cpp:425] inception_3b/pool_proj <- inception_3b/pool
I0403 15:32:10.141500 32079 net.cpp:399] inception_3b/pool_proj -> inception_3b/pool_proj
I0403 15:32:10.142518 32079 net.cpp:141] Setting up inception_3b/pool_proj
I0403 15:32:10.142549 32079 net.cpp:148] Top shape: 24 64 28 28 (1204224)
I0403 15:32:10.142565 32079 net.cpp:156] Memory required for data: 768295968
I0403 15:32:10.142585 32079 layer_factory.hpp:77] Creating layer inception_3b/relu_pool_proj
I0403 15:32:10.142602 32079 net.cpp:91] Creating Layer inception_3b/relu_pool_proj
I0403 15:32:10.142618 32079 net.cpp:425] inception_3b/relu_pool_proj <- inception_3b/pool_proj
I0403 15:32:10.142638 32079 net.cpp:386] inception_3b/relu_pool_proj -> inception_3b/pool_proj (in-place)
I0403 15:32:10.143009 32079 net.cpp:141] Setting up inception_3b/relu_pool_proj
I0403 15:32:10.143038 32079 net.cpp:148] Top shape: 24 64 28 28 (1204224)
I0403 15:32:10.143054 32079 net.cpp:156] Memory required for data: 773112864
I0403 15:32:10.143069 32079 layer_factory.hpp:77] Creating layer inception_3b/output
I0403 15:32:10.143086 32079 net.cpp:91] Creating Layer inception_3b/output
I0403 15:32:10.143102 32079 net.cpp:425] inception_3b/output <- inception_3b/1x1
I0403 15:32:10.143120 32079 net.cpp:425] inception_3b/output <- inception_3b/3x3
I0403 15:32:10.143136 32079 net.cpp:425] inception_3b/output <- inception_3b/5x5
I0403 15:32:10.143152 32079 net.cpp:425] inception_3b/output <- inception_3b/pool_proj
I0403 15:32:10.143169 32079 net.cpp:399] inception_3b/output -> inception_3b/output
I0403 15:32:10.143213 32079 net.cpp:141] Setting up inception_3b/output
I0403 15:32:10.143236 32079 net.cpp:148] Top shape: 24 480 28 28 (9031680)
I0403 15:32:10.143251 32079 net.cpp:156] Memory required for data: 809239584
I0403 15:32:10.143270 32079 layer_factory.hpp:77] Creating layer pool3/3x3_s2
I0403 15:32:10.143291 32079 net.cpp:91] Creating Layer pool3/3x3_s2
I0403 15:32:10.143308 32079 net.cpp:425] pool3/3x3_s2 <- inception_3b/output
I0403 15:32:10.143326 32079 net.cpp:399] pool3/3x3_s2 -> pool3/3x3_s2
I0403 15:32:10.143399 32079 net.cpp:141] Setting up pool3/3x3_s2
I0403 15:32:10.143422 32079 net.cpp:148] Top shape: 24 480 14 14 (2257920)
I0403 15:32:10.143436 32079 net.cpp:156] Memory required for data: 818271264
I0403 15:32:10.143451 32079 layer_factory.hpp:77] Creating layer pool3/3x3_s2_pool3/3x3_s2_0_split
I0403 15:32:10.143468 32079 net.cpp:91] Creating Layer pool3/3x3_s2_pool3/3x3_s2_0_split
I0403 15:32:10.143483 32079 net.cpp:425] pool3/3x3_s2_pool3/3x3_s2_0_split <- pool3/3x3_s2
I0403 15:32:10.143501 32079 net.cpp:399] pool3/3x3_s2_pool3/3x3_s2_0_split -> pool3/3x3_s2_pool3/3x3_s2_0_split_0
I0403 15:32:10.143522 32079 net.cpp:399] pool3/3x3_s2_pool3/3x3_s2_0_split -> pool3/3x3_s2_pool3/3x3_s2_0_split_1
I0403 15:32:10.143542 32079 net.cpp:399] pool3/3x3_s2_pool3/3x3_s2_0_split -> pool3/3x3_s2_pool3/3x3_s2_0_split_2
I0403 15:32:10.143560 32079 net.cpp:399] pool3/3x3_s2_pool3/3x3_s2_0_split -> pool3/3x3_s2_pool3/3x3_s2_0_split_3
I0403 15:32:10.143637 32079 net.cpp:141] Setting up pool3/3x3_s2_pool3/3x3_s2_0_split
I0403 15:32:10.143663 32079 net.cpp:148] Top shape: 24 480 14 14 (2257920)
I0403 15:32:10.143681 32079 net.cpp:148] Top shape: 24 480 14 14 (2257920)
I0403 15:32:10.143697 32079 net.cpp:148] Top shape: 24 480 14 14 (2257920)
I0403 15:32:10.143712 32079 net.cpp:148] Top shape: 24 480 14 14 (2257920)
I0403 15:32:10.143725 32079 net.cpp:156] Memory required for data: 854397984
I0403 15:32:10.143740 32079 layer_factory.hpp:77] Creating layer inception_4a/1x1
I0403 15:32:10.143762 32079 net.cpp:91] Creating Layer inception_4a/1x1
I0403 15:32:10.143779 32079 net.cpp:425] inception_4a/1x1 <- pool3/3x3_s2_pool3/3x3_s2_0_split_0
I0403 15:32:10.143798 32079 net.cpp:399] inception_4a/1x1 -> inception_4a/1x1
I0403 15:32:10.145313 32079 net.cpp:141] Setting up inception_4a/1x1
I0403 15:32:10.145341 32079 net.cpp:148] Top shape: 24 192 14 14 (903168)
I0403 15:32:10.145356 32079 net.cpp:156] Memory required for data: 858010656
I0403 15:32:10.145376 32079 layer_factory.hpp:77] Creating layer inception_4a/relu_1x1
I0403 15:32:10.145395 32079 net.cpp:91] Creating Layer inception_4a/relu_1x1
I0403 15:32:10.145444 32079 net.cpp:425] inception_4a/relu_1x1 <- inception_4a/1x1
I0403 15:32:10.145462 32079 net.cpp:386] inception_4a/relu_1x1 -> inception_4a/1x1 (in-place)
I0403 15:32:10.145634 32079 net.cpp:141] Setting up inception_4a/relu_1x1
I0403 15:32:10.145660 32079 net.cpp:148] Top shape: 24 192 14 14 (903168)
I0403 15:32:10.145675 32079 net.cpp:156] Memory required for data: 861623328
I0403 15:32:10.145702 32079 layer_factory.hpp:77] Creating layer inception_4a/3x3_reduce
I0403 15:32:10.145727 32079 net.cpp:91] Creating Layer inception_4a/3x3_reduce
I0403 15:32:10.145745 32079 net.cpp:425] inception_4a/3x3_reduce <- pool3/3x3_s2_pool3/3x3_s2_0_split_1
I0403 15:32:10.145766 32079 net.cpp:399] inception_4a/3x3_reduce -> inception_4a/3x3_reduce
I0403 15:32:10.146999 32079 net.cpp:141] Setting up inception_4a/3x3_reduce
I0403 15:32:10.147027 32079 net.cpp:148] Top shape: 24 96 14 14 (451584)
I0403 15:32:10.147042 32079 net.cpp:156] Memory required for data: 863429664
I0403 15:32:10.147066 32079 layer_factory.hpp:77] Creating layer inception_4a/relu_3x3_reduce
I0403 15:32:10.147088 32079 net.cpp:91] Creating Layer inception_4a/relu_3x3_reduce
I0403 15:32:10.147104 32079 net.cpp:425] inception_4a/relu_3x3_reduce <- inception_4a/3x3_reduce
I0403 15:32:10.147124 32079 net.cpp:386] inception_4a/relu_3x3_reduce -> inception_4a/3x3_reduce (in-place)
I0403 15:32:10.147295 32079 net.cpp:141] Setting up inception_4a/relu_3x3_reduce
I0403 15:32:10.147321 32079 net.cpp:148] Top shape: 24 96 14 14 (451584)
I0403 15:32:10.147336 32079 net.cpp:156] Memory required for data: 865236000
I0403 15:32:10.147351 32079 layer_factory.hpp:77] Creating layer inception_4a/3x3
I0403 15:32:10.147372 32079 net.cpp:91] Creating Layer inception_4a/3x3
I0403 15:32:10.147390 32079 net.cpp:425] inception_4a/3x3 <- inception_4a/3x3_reduce
I0403 15:32:10.147411 32079 net.cpp:399] inception_4a/3x3 -> inception_4a/3x3
I0403 15:32:10.150030 32079 net.cpp:141] Setting up inception_4a/3x3
I0403 15:32:10.150058 32079 net.cpp:148] Top shape: 24 208 14 14 (978432)
I0403 15:32:10.150074 32079 net.cpp:156] Memory required for data: 869149728
I0403 15:32:10.150092 32079 layer_factory.hpp:77] Creating layer inception_4a/relu_3x3
I0403 15:32:10.150125 32079 net.cpp:91] Creating Layer inception_4a/relu_3x3
I0403 15:32:10.150141 32079 net.cpp:425] inception_4a/relu_3x3 <- inception_4a/3x3
I0403 15:32:10.150159 32079 net.cpp:386] inception_4a/relu_3x3 -> inception_4a/3x3 (in-place)
I0403 15:32:10.150444 32079 net.cpp:141] Setting up inception_4a/relu_3x3
I0403 15:32:10.150471 32079 net.cpp:148] Top shape: 24 208 14 14 (978432)
I0403 15:32:10.150487 32079 net.cpp:156] Memory required for data: 873063456
I0403 15:32:10.150502 32079 layer_factory.hpp:77] Creating layer inception_4a/5x5_reduce
I0403 15:32:10.150526 32079 net.cpp:91] Creating Layer inception_4a/5x5_reduce
I0403 15:32:10.150544 32079 net.cpp:425] inception_4a/5x5_reduce <- pool3/3x3_s2_pool3/3x3_s2_0_split_2
I0403 15:32:10.150566 32079 net.cpp:399] inception_4a/5x5_reduce -> inception_4a/5x5_reduce
I0403 15:32:10.151579 32079 net.cpp:141] Setting up inception_4a/5x5_reduce
I0403 15:32:10.151608 32079 net.cpp:148] Top shape: 24 16 14 14 (75264)
I0403 15:32:10.151624 32079 net.cpp:156] Memory required for data: 873364512
I0403 15:32:10.151643 32079 layer_factory.hpp:77] Creating layer inception_4a/relu_5x5_reduce
I0403 15:32:10.151664 32079 net.cpp:91] Creating Layer inception_4a/relu_5x5_reduce
I0403 15:32:10.151681 32079 net.cpp:425] inception_4a/relu_5x5_reduce <- inception_4a/5x5_reduce
I0403 15:32:10.151700 32079 net.cpp:386] inception_4a/relu_5x5_reduce -> inception_4a/5x5_reduce (in-place)
I0403 15:32:10.151878 32079 net.cpp:141] Setting up inception_4a/relu_5x5_reduce
I0403 15:32:10.151906 32079 net.cpp:148] Top shape: 24 16 14 14 (75264)
I0403 15:32:10.151921 32079 net.cpp:156] Memory required for data: 873665568
I0403 15:32:10.151937 32079 layer_factory.hpp:77] Creating layer inception_4a/5x5
I0403 15:32:10.151959 32079 net.cpp:91] Creating Layer inception_4a/5x5
I0403 15:32:10.151978 32079 net.cpp:425] inception_4a/5x5 <- inception_4a/5x5_reduce
I0403 15:32:10.151998 32079 net.cpp:399] inception_4a/5x5 -> inception_4a/5x5
I0403 15:32:10.153074 32079 net.cpp:141] Setting up inception_4a/5x5
I0403 15:32:10.153105 32079 net.cpp:148] Top shape: 24 48 14 14 (225792)
I0403 15:32:10.153121 32079 net.cpp:156] Memory required for data: 874568736
I0403 15:32:10.153141 32079 layer_factory.hpp:77] Creating layer inception_4a/relu_5x5
I0403 15:32:10.153161 32079 net.cpp:91] Creating Layer inception_4a/relu_5x5
I0403 15:32:10.153177 32079 net.cpp:425] inception_4a/relu_5x5 <- inception_4a/5x5
I0403 15:32:10.153197 32079 net.cpp:386] inception_4a/relu_5x5 -> inception_4a/5x5 (in-place)
I0403 15:32:10.153391 32079 net.cpp:141] Setting up inception_4a/relu_5x5
I0403 15:32:10.153417 32079 net.cpp:148] Top shape: 24 48 14 14 (225792)
I0403 15:32:10.153432 32079 net.cpp:156] Memory required for data: 875471904
I0403 15:32:10.153447 32079 layer_factory.hpp:77] Creating layer inception_4a/pool
I0403 15:32:10.153465 32079 net.cpp:91] Creating Layer inception_4a/pool
I0403 15:32:10.153486 32079 net.cpp:425] inception_4a/pool <- pool3/3x3_s2_pool3/3x3_s2_0_split_3
I0403 15:32:10.153506 32079 net.cpp:399] inception_4a/pool -> inception_4a/pool
I0403 15:32:10.153568 32079 net.cpp:141] Setting up inception_4a/pool
I0403 15:32:10.153591 32079 net.cpp:148] Top shape: 24 480 14 14 (2257920)
I0403 15:32:10.153606 32079 net.cpp:156] Memory required for data: 884503584
I0403 15:32:10.153621 32079 layer_factory.hpp:77] Creating layer inception_4a/pool_proj
I0403 15:32:10.153645 32079 net.cpp:91] Creating Layer inception_4a/pool_proj
I0403 15:32:10.153663 32079 net.cpp:425] inception_4a/pool_proj <- inception_4a/pool
I0403 15:32:10.153684 32079 net.cpp:399] inception_4a/pool_proj -> inception_4a/pool_proj
I0403 15:32:10.154844 32079 net.cpp:141] Setting up inception_4a/pool_proj
I0403 15:32:10.154873 32079 net.cpp:148] Top shape: 24 64 14 14 (301056)
I0403 15:32:10.154906 32079 net.cpp:156] Memory required for data: 885707808
I0403 15:32:10.154925 32079 layer_factory.hpp:77] Creating layer inception_4a/relu_pool_proj
I0403 15:32:10.154945 32079 net.cpp:91] Creating Layer inception_4a/relu_pool_proj
I0403 15:32:10.154963 32079 net.cpp:425] inception_4a/relu_pool_proj <- inception_4a/pool_proj
I0403 15:32:10.154984 32079 net.cpp:386] inception_4a/relu_pool_proj -> inception_4a/pool_proj (in-place)
I0403 15:32:10.155278 32079 net.cpp:141] Setting up inception_4a/relu_pool_proj
I0403 15:32:10.155306 32079 net.cpp:148] Top shape: 24 64 14 14 (301056)
I0403 15:32:10.155321 32079 net.cpp:156] Memory required for data: 886912032
I0403 15:32:10.155339 32079 layer_factory.hpp:77] Creating layer inception_4a/output
I0403 15:32:10.155356 32079 net.cpp:91] Creating Layer inception_4a/output
I0403 15:32:10.155375 32079 net.cpp:425] inception_4a/output <- inception_4a/1x1
I0403 15:32:10.155391 32079 net.cpp:425] inception_4a/output <- inception_4a/3x3
I0403 15:32:10.155408 32079 net.cpp:425] inception_4a/output <- inception_4a/5x5
I0403 15:32:10.155426 32079 net.cpp:425] inception_4a/output <- inception_4a/pool_proj
I0403 15:32:10.155446 32079 net.cpp:399] inception_4a/output -> inception_4a/output
I0403 15:32:10.155491 32079 net.cpp:141] Setting up inception_4a/output
I0403 15:32:10.155519 32079 net.cpp:148] Top shape: 24 512 14 14 (2408448)
I0403 15:32:10.155535 32079 net.cpp:156] Memory required for data: 896545824
I0403 15:32:10.155557 32079 layer_factory.hpp:77] Creating layer inception_4a/output_inception_4a/output_0_split
I0403 15:32:10.155575 32079 net.cpp:91] Creating Layer inception_4a/output_inception_4a/output_0_split
I0403 15:32:10.155591 32079 net.cpp:425] inception_4a/output_inception_4a/output_0_split <- inception_4a/output
I0403 15:32:10.155609 32079 net.cpp:399] inception_4a/output_inception_4a/output_0_split -> inception_4a/output_inception_4a/output_0_split_0
I0403 15:32:10.155633 32079 net.cpp:399] inception_4a/output_inception_4a/output_0_split -> inception_4a/output_inception_4a/output_0_split_1
I0403 15:32:10.155657 32079 net.cpp:399] inception_4a/output_inception_4a/output_0_split -> inception_4a/output_inception_4a/output_0_split_2
I0403 15:32:10.155676 32079 net.cpp:399] inception_4a/output_inception_4a/output_0_split -> inception_4a/output_inception_4a/output_0_split_3
I0403 15:32:10.155697 32079 net.cpp:399] inception_4a/output_inception_4a/output_0_split -> inception_4a/output_inception_4a/output_0_split_4
I0403 15:32:10.155789 32079 net.cpp:141] Setting up inception_4a/output_inception_4a/output_0_split
I0403 15:32:10.155814 32079 net.cpp:148] Top shape: 24 512 14 14 (2408448)
I0403 15:32:10.155832 32079 net.cpp:148] Top shape: 24 512 14 14 (2408448)
I0403 15:32:10.155848 32079 net.cpp:148] Top shape: 24 512 14 14 (2408448)
I0403 15:32:10.155861 32079 net.cpp:148] Top shape: 24 512 14 14 (2408448)
I0403 15:32:10.155877 32079 net.cpp:148] Top shape: 24 512 14 14 (2408448)
I0403 15:32:10.155891 32079 net.cpp:156] Memory required for data: 944714784
I0403 15:32:10.155906 32079 layer_factory.hpp:77] Creating layer loss1/ave_pool
I0403 15:32:10.155927 32079 net.cpp:91] Creating Layer loss1/ave_pool
I0403 15:32:10.155946 32079 net.cpp:425] loss1/ave_pool <- inception_4a/output_inception_4a/output_0_split_0
I0403 15:32:10.155964 32079 net.cpp:399] loss1/ave_pool -> loss1/ave_pool
I0403 15:32:10.156172 32079 net.cpp:141] Setting up loss1/ave_pool
I0403 15:32:10.156199 32079 net.cpp:148] Top shape: 24 512 4 4 (196608)
I0403 15:32:10.156214 32079 net.cpp:156] Memory required for data: 945501216
I0403 15:32:10.156229 32079 layer_factory.hpp:77] Creating layer loss1/conv
I0403 15:32:10.156255 32079 net.cpp:91] Creating Layer loss1/conv
I0403 15:32:10.156276 32079 net.cpp:425] loss1/conv <- loss1/ave_pool
I0403 15:32:10.156298 32079 net.cpp:399] loss1/conv -> loss1/conv
I0403 15:32:10.157696 32079 net.cpp:141] Setting up loss1/conv
I0403 15:32:10.157724 32079 net.cpp:148] Top shape: 24 128 4 4 (49152)
I0403 15:32:10.157740 32079 net.cpp:156] Memory required for data: 945697824
I0403 15:32:10.157773 32079 layer_factory.hpp:77] Creating layer loss1/relu_conv
I0403 15:32:10.157796 32079 net.cpp:91] Creating Layer loss1/relu_conv
I0403 15:32:10.157814 32079 net.cpp:425] loss1/relu_conv <- loss1/conv
I0403 15:32:10.157831 32079 net.cpp:386] loss1/relu_conv -> loss1/conv (in-place)
I0403 15:32:10.158108 32079 net.cpp:141] Setting up loss1/relu_conv
I0403 15:32:10.158134 32079 net.cpp:148] Top shape: 24 128 4 4 (49152)
I0403 15:32:10.158149 32079 net.cpp:156] Memory required for data: 945894432
I0403 15:32:10.158164 32079 layer_factory.hpp:77] Creating layer loss1/fc
I0403 15:32:10.158190 32079 net.cpp:91] Creating Layer loss1/fc
I0403 15:32:10.158206 32079 net.cpp:425] loss1/fc <- loss1/conv
I0403 15:32:10.158226 32079 net.cpp:399] loss1/fc -> loss1/fc
I0403 15:32:10.176126 32079 net.cpp:141] Setting up loss1/fc
I0403 15:32:10.176177 32079 net.cpp:148] Top shape: 24 1024 (24576)
I0403 15:32:10.176192 32079 net.cpp:156] Memory required for data: 945992736
I0403 15:32:10.176211 32079 layer_factory.hpp:77] Creating layer loss1/relu_fc
I0403 15:32:10.176231 32079 net.cpp:91] Creating Layer loss1/relu_fc
I0403 15:32:10.176249 32079 net.cpp:425] loss1/relu_fc <- loss1/fc
I0403 15:32:10.176275 32079 net.cpp:386] loss1/relu_fc -> loss1/fc (in-place)
I0403 15:32:10.176492 32079 net.cpp:141] Setting up loss1/relu_fc
I0403 15:32:10.176517 32079 net.cpp:148] Top shape: 24 1024 (24576)
I0403 15:32:10.176532 32079 net.cpp:156] Memory required for data: 946091040
I0403 15:32:10.176547 32079 layer_factory.hpp:77] Creating layer loss1/drop_fc
I0403 15:32:10.176578 32079 net.cpp:91] Creating Layer loss1/drop_fc
I0403 15:32:10.176595 32079 net.cpp:425] loss1/drop_fc <- loss1/fc
I0403 15:32:10.176614 32079 net.cpp:386] loss1/drop_fc -> loss1/fc (in-place)
I0403 15:32:10.176666 32079 net.cpp:141] Setting up loss1/drop_fc
I0403 15:32:10.176692 32079 net.cpp:148] Top shape: 24 1024 (24576)
I0403 15:32:10.176708 32079 net.cpp:156] Memory required for data: 946189344
I0403 15:32:10.176723 32079 layer_factory.hpp:77] Creating layer loss1/classifier_plantvillage
I0403 15:32:10.176743 32079 net.cpp:91] Creating Layer loss1/classifier_plantvillage
I0403 15:32:10.176759 32079 net.cpp:425] loss1/classifier_plantvillage <- loss1/fc
I0403 15:32:10.176780 32079 net.cpp:399] loss1/classifier_plantvillage -> loss1/classifier_plantvillage
I0403 15:32:10.177762 32079 net.cpp:141] Setting up loss1/classifier_plantvillage
I0403 15:32:10.177789 32079 net.cpp:148] Top shape: 24 38 (912)
I0403 15:32:10.177804 32079 net.cpp:156] Memory required for data: 946192992
I0403 15:32:10.177822 32079 layer_factory.hpp:77] Creating layer loss1/classifier_plantvillage_loss1/classifier_plantvillage_0_split
I0403 15:32:10.177844 32079 net.cpp:91] Creating Layer loss1/classifier_plantvillage_loss1/classifier_plantvillage_0_split
I0403 15:32:10.177860 32079 net.cpp:425] loss1/classifier_plantvillage_loss1/classifier_plantvillage_0_split <- loss1/classifier_plantvillage
I0403 15:32:10.177877 32079 net.cpp:399] loss1/classifier_plantvillage_loss1/classifier_plantvillage_0_split -> loss1/classifier_plantvillage_loss1/classifier_plantvillage_0_split_0
I0403 15:32:10.177897 32079 net.cpp:399] loss1/classifier_plantvillage_loss1/classifier_plantvillage_0_split -> loss1/classifier_plantvillage_loss1/classifier_plantvillage_0_split_1
I0403 15:32:10.177918 32079 net.cpp:399] loss1/classifier_plantvillage_loss1/classifier_plantvillage_0_split -> loss1/classifier_plantvillage_loss1/classifier_plantvillage_0_split_2
I0403 15:32:10.177984 32079 net.cpp:141] Setting up loss1/classifier_plantvillage_loss1/classifier_plantvillage_0_split
I0403 15:32:10.178009 32079 net.cpp:148] Top shape: 24 38 (912)
I0403 15:32:10.178026 32079 net.cpp:148] Top shape: 24 38 (912)
I0403 15:32:10.178042 32079 net.cpp:148] Top shape: 24 38 (912)
I0403 15:32:10.178056 32079 net.cpp:156] Memory required for data: 946203936
I0403 15:32:10.178071 32079 layer_factory.hpp:77] Creating layer inception_4b/1x1
I0403 15:32:10.178093 32079 net.cpp:91] Creating Layer inception_4b/1x1
I0403 15:32:10.178131 32079 net.cpp:425] inception_4b/1x1 <- inception_4a/output_inception_4a/output_0_split_1
I0403 15:32:10.178151 32079 net.cpp:399] inception_4b/1x1 -> inception_4b/1x1
I0403 15:32:10.179885 32079 net.cpp:141] Setting up inception_4b/1x1
I0403 15:32:10.179914 32079 net.cpp:148] Top shape: 24 160 14 14 (752640)
I0403 15:32:10.179929 32079 net.cpp:156] Memory required for data: 949214496
I0403 15:32:10.179949 32079 layer_factory.hpp:77] Creating layer inception_4b/relu_1x1
I0403 15:32:10.179968 32079 net.cpp:91] Creating Layer inception_4b/relu_1x1
I0403 15:32:10.179986 32079 net.cpp:425] inception_4b/relu_1x1 <- inception_4b/1x1
I0403 15:32:10.180002 32079 net.cpp:386] inception_4b/relu_1x1 -> inception_4b/1x1 (in-place)
I0403 15:32:10.180183 32079 net.cpp:141] Setting up inception_4b/relu_1x1
I0403 15:32:10.180210 32079 net.cpp:148] Top shape: 24 160 14 14 (752640)
I0403 15:32:10.180227 32079 net.cpp:156] Memory required for data: 952225056
I0403 15:32:10.180241 32079 layer_factory.hpp:77] Creating layer inception_4b/3x3_reduce
I0403 15:32:10.180268 32079 net.cpp:91] Creating Layer inception_4b/3x3_reduce
I0403 15:32:10.180286 32079 net.cpp:425] inception_4b/3x3_reduce <- inception_4a/output_inception_4a/output_0_split_2
I0403 15:32:10.180305 32079 net.cpp:399] inception_4b/3x3_reduce -> inception_4b/3x3_reduce
I0403 15:32:10.181653 32079 net.cpp:141] Setting up inception_4b/3x3_reduce
I0403 15:32:10.181684 32079 net.cpp:148] Top shape: 24 112 14 14 (526848)
I0403 15:32:10.181701 32079 net.cpp:156] Memory required for data: 954332448
I0403 15:32:10.181720 32079 layer_factory.hpp:77] Creating layer inception_4b/relu_3x3_reduce
I0403 15:32:10.181737 32079 net.cpp:91] Creating Layer inception_4b/relu_3x3_reduce
I0403 15:32:10.181753 32079 net.cpp:425] inception_4b/relu_3x3_reduce <- inception_4b/3x3_reduce
I0403 15:32:10.181772 32079 net.cpp:386] inception_4b/relu_3x3_reduce -> inception_4b/3x3_reduce (in-place)
I0403 15:32:10.182051 32079 net.cpp:141] Setting up inception_4b/relu_3x3_reduce
I0403 15:32:10.182080 32079 net.cpp:148] Top shape: 24 112 14 14 (526848)
I0403 15:32:10.182096 32079 net.cpp:156] Memory required for data: 956439840
I0403 15:32:10.182111 32079 layer_factory.hpp:77] Creating layer inception_4b/3x3
I0403 15:32:10.182132 32079 net.cpp:91] Creating Layer inception_4b/3x3
I0403 15:32:10.182150 32079 net.cpp:425] inception_4b/3x3 <- inception_4b/3x3_reduce
I0403 15:32:10.182168 32079 net.cpp:399] inception_4b/3x3 -> inception_4b/3x3
I0403 15:32:10.185158 32079 net.cpp:141] Setting up inception_4b/3x3
I0403 15:32:10.185186 32079 net.cpp:148] Top shape: 24 224 14 14 (1053696)
I0403 15:32:10.185201 32079 net.cpp:156] Memory required for data: 960654624
I0403 15:32:10.185220 32079 layer_factory.hpp:77] Creating layer inception_4b/relu_3x3
I0403 15:32:10.185240 32079 net.cpp:91] Creating Layer inception_4b/relu_3x3
I0403 15:32:10.185262 32079 net.cpp:425] inception_4b/relu_3x3 <- inception_4b/3x3
I0403 15:32:10.185281 32079 net.cpp:386] inception_4b/relu_3x3 -> inception_4b/3x3 (in-place)
I0403 15:32:10.185463 32079 net.cpp:141] Setting up inception_4b/relu_3x3
I0403 15:32:10.185488 32079 net.cpp:148] Top shape: 24 224 14 14 (1053696)
I0403 15:32:10.185503 32079 net.cpp:156] Memory required for data: 964869408
I0403 15:32:10.185518 32079 layer_factory.hpp:77] Creating layer inception_4b/5x5_reduce
I0403 15:32:10.185539 32079 net.cpp:91] Creating Layer inception_4b/5x5_reduce
I0403 15:32:10.185556 32079 net.cpp:425] inception_4b/5x5_reduce <- inception_4a/output_inception_4a/output_0_split_3
I0403 15:32:10.185580 32079 net.cpp:399] inception_4b/5x5_reduce -> inception_4b/5x5_reduce
I0403 15:32:10.186671 32079 net.cpp:141] Setting up inception_4b/5x5_reduce
I0403 15:32:10.186697 32079 net.cpp:148] Top shape: 24 24 14 14 (112896)
I0403 15:32:10.186713 32079 net.cpp:156] Memory required for data: 965320992
I0403 15:32:10.186731 32079 layer_factory.hpp:77] Creating layer inception_4b/relu_5x5_reduce
I0403 15:32:10.186753 32079 net.cpp:91] Creating Layer inception_4b/relu_5x5_reduce
I0403 15:32:10.186784 32079 net.cpp:425] inception_4b/relu_5x5_reduce <- inception_4b/5x5_reduce
I0403 15:32:10.186802 32079 net.cpp:386] inception_4b/relu_5x5_reduce -> inception_4b/5x5_reduce (in-place)
I0403 15:32:10.186983 32079 net.cpp:141] Setting up inception_4b/relu_5x5_reduce
I0403 15:32:10.187008 32079 net.cpp:148] Top shape: 24 24 14 14 (112896)
I0403 15:32:10.187022 32079 net.cpp:156] Memory required for data: 965772576
I0403 15:32:10.187036 32079 layer_factory.hpp:77] Creating layer inception_4b/5x5
I0403 15:32:10.187058 32079 net.cpp:91] Creating Layer inception_4b/5x5
I0403 15:32:10.187077 32079 net.cpp:425] inception_4b/5x5 <- inception_4b/5x5_reduce
I0403 15:32:10.187098 32079 net.cpp:399] inception_4b/5x5 -> inception_4b/5x5
I0403 15:32:10.188325 32079 net.cpp:141] Setting up inception_4b/5x5
I0403 15:32:10.188352 32079 net.cpp:148] Top shape: 24 64 14 14 (301056)
I0403 15:32:10.188369 32079 net.cpp:156] Memory required for data: 966976800
I0403 15:32:10.188386 32079 layer_factory.hpp:77] Creating layer inception_4b/relu_5x5
I0403 15:32:10.188406 32079 net.cpp:91] Creating Layer inception_4b/relu_5x5
I0403 15:32:10.188423 32079 net.cpp:425] inception_4b/relu_5x5 <- inception_4b/5x5
I0403 15:32:10.188441 32079 net.cpp:386] inception_4b/relu_5x5 -> inception_4b/5x5 (in-place)
I0403 15:32:10.188735 32079 net.cpp:141] Setting up inception_4b/relu_5x5
I0403 15:32:10.188760 32079 net.cpp:148] Top shape: 24 64 14 14 (301056)
I0403 15:32:10.188776 32079 net.cpp:156] Memory required for data: 968181024
I0403 15:32:10.188791 32079 layer_factory.hpp:77] Creating layer inception_4b/pool
I0403 15:32:10.188812 32079 net.cpp:91] Creating Layer inception_4b/pool
I0403 15:32:10.188828 32079 net.cpp:425] inception_4b/pool <- inception_4a/output_inception_4a/output_0_split_4
I0403 15:32:10.188848 32079 net.cpp:399] inception_4b/pool -> inception_4b/pool
I0403 15:32:10.188915 32079 net.cpp:141] Setting up inception_4b/pool
I0403 15:32:10.188937 32079 net.cpp:148] Top shape: 24 512 14 14 (2408448)
I0403 15:32:10.188952 32079 net.cpp:156] Memory required for data: 977814816
I0403 15:32:10.188967 32079 layer_factory.hpp:77] Creating layer inception_4b/pool_proj
I0403 15:32:10.188989 32079 net.cpp:91] Creating Layer inception_4b/pool_proj
I0403 15:32:10.189007 32079 net.cpp:425] inception_4b/pool_proj <- inception_4b/pool
I0403 15:32:10.189026 32079 net.cpp:399] inception_4b/pool_proj -> inception_4b/pool_proj
I0403 15:32:10.190228 32079 net.cpp:141] Setting up inception_4b/pool_proj
I0403 15:32:10.190263 32079 net.cpp:148] Top shape: 24 64 14 14 (301056)
I0403 15:32:10.190280 32079 net.cpp:156] Memory required for data: 979019040
I0403 15:32:10.190299 32079 layer_factory.hpp:77] Creating layer inception_4b/relu_pool_proj
I0403 15:32:10.190317 32079 net.cpp:91] Creating Layer inception_4b/relu_pool_proj
I0403 15:32:10.190333 32079 net.cpp:425] inception_4b/relu_pool_proj <- inception_4b/pool_proj
I0403 15:32:10.190351 32079 net.cpp:386] inception_4b/relu_pool_proj -> inception_4b/pool_proj (in-place)
I0403 15:32:10.190531 32079 net.cpp:141] Setting up inception_4b/relu_pool_proj
I0403 15:32:10.190558 32079 net.cpp:148] Top shape: 24 64 14 14 (301056)
I0403 15:32:10.190575 32079 net.cpp:156] Memory required for data: 980223264
I0403 15:32:10.190590 32079 layer_factory.hpp:77] Creating layer inception_4b/output
I0403 15:32:10.190608 32079 net.cpp:91] Creating Layer inception_4b/output
I0403 15:32:10.190624 32079 net.cpp:425] inception_4b/output <- inception_4b/1x1
I0403 15:32:10.190640 32079 net.cpp:425] inception_4b/output <- inception_4b/3x3
I0403 15:32:10.190656 32079 net.cpp:425] inception_4b/output <- inception_4b/5x5
I0403 15:32:10.190672 32079 net.cpp:425] inception_4b/output <- inception_4b/pool_proj
I0403 15:32:10.190692 32079 net.cpp:399] inception_4b/output -> inception_4b/output
I0403 15:32:10.190738 32079 net.cpp:141] Setting up inception_4b/output
I0403 15:32:10.190762 32079 net.cpp:148] Top shape: 24 512 14 14 (2408448)
I0403 15:32:10.190775 32079 net.cpp:156] Memory required for data: 989857056
I0403 15:32:10.190804 32079 layer_factory.hpp:77] Creating layer inception_4b/output_inception_4b/output_0_split
I0403 15:32:10.190825 32079 net.cpp:91] Creating Layer inception_4b/output_inception_4b/output_0_split
I0403 15:32:10.190842 32079 net.cpp:425] inception_4b/output_inception_4b/output_0_split <- inception_4b/output
I0403 15:32:10.190860 32079 net.cpp:399] inception_4b/output_inception_4b/output_0_split -> inception_4b/output_inception_4b/output_0_split_0
I0403 15:32:10.190879 32079 net.cpp:399] inception_4b/output_inception_4b/output_0_split -> inception_4b/output_inception_4b/output_0_split_1
I0403 15:32:10.190903 32079 net.cpp:399] inception_4b/output_inception_4b/output_0_split -> inception_4b/output_inception_4b/output_0_split_2
I0403 15:32:10.190924 32079 net.cpp:399] inception_4b/output_inception_4b/output_0_split -> inception_4b/output_inception_4b/output_0_split_3
I0403 15:32:10.191009 32079 net.cpp:141] Setting up inception_4b/output_inception_4b/output_0_split
I0403 15:32:10.191031 32079 net.cpp:148] Top shape: 24 512 14 14 (2408448)
I0403 15:32:10.191047 32079 net.cpp:148] Top shape: 24 512 14 14 (2408448)
I0403 15:32:10.191063 32079 net.cpp:148] Top shape: 24 512 14 14 (2408448)
I0403 15:32:10.191078 32079 net.cpp:148] Top shape: 24 512 14 14 (2408448)
I0403 15:32:10.191092 32079 net.cpp:156] Memory required for data: 1028392224
I0403 15:32:10.191105 32079 layer_factory.hpp:77] Creating layer inception_4c/1x1
I0403 15:32:10.191128 32079 net.cpp:91] Creating Layer inception_4c/1x1
I0403 15:32:10.191145 32079 net.cpp:425] inception_4c/1x1 <- inception_4b/output_inception_4b/output_0_split_0
I0403 15:32:10.191165 32079 net.cpp:399] inception_4c/1x1 -> inception_4c/1x1
I0403 15:32:10.192618 32079 net.cpp:141] Setting up inception_4c/1x1
I0403 15:32:10.192649 32079 net.cpp:148] Top shape: 24 128 14 14 (602112)
I0403 15:32:10.192665 32079 net.cpp:156] Memory required for data: 1030800672
I0403 15:32:10.192684 32079 layer_factory.hpp:77] Creating layer inception_4c/relu_1x1
I0403 15:32:10.192703 32079 net.cpp:91] Creating Layer inception_4c/relu_1x1
I0403 15:32:10.192718 32079 net.cpp:425] inception_4c/relu_1x1 <- inception_4c/1x1
I0403 15:32:10.192737 32079 net.cpp:386] inception_4c/relu_1x1 -> inception_4c/1x1 (in-place)
I0403 15:32:10.192917 32079 net.cpp:141] Setting up inception_4c/relu_1x1
I0403 15:32:10.192942 32079 net.cpp:148] Top shape: 24 128 14 14 (602112)
I0403 15:32:10.192956 32079 net.cpp:156] Memory required for data: 1033209120
I0403 15:32:10.192971 32079 layer_factory.hpp:77] Creating layer inception_4c/3x3_reduce
I0403 15:32:10.192993 32079 net.cpp:91] Creating Layer inception_4c/3x3_reduce
I0403 15:32:10.193011 32079 net.cpp:425] inception_4c/3x3_reduce <- inception_4b/output_inception_4b/output_0_split_1
I0403 15:32:10.193032 32079 net.cpp:399] inception_4c/3x3_reduce -> inception_4c/3x3_reduce
I0403 15:32:10.194967 32079 net.cpp:141] Setting up inception_4c/3x3_reduce
I0403 15:32:10.194993 32079 net.cpp:148] Top shape: 24 128 14 14 (602112)
I0403 15:32:10.195009 32079 net.cpp:156] Memory required for data: 1035617568
I0403 15:32:10.195027 32079 layer_factory.hpp:77] Creating layer inception_4c/relu_3x3_reduce
I0403 15:32:10.195046 32079 net.cpp:91] Creating Layer inception_4c/relu_3x3_reduce
I0403 15:32:10.195062 32079 net.cpp:425] inception_4c/relu_3x3_reduce <- inception_4c/3x3_reduce
I0403 15:32:10.195080 32079 net.cpp:386] inception_4c/relu_3x3_reduce -> inception_4c/3x3_reduce (in-place)
I0403 15:32:10.195370 32079 net.cpp:141] Setting up inception_4c/relu_3x3_reduce
I0403 15:32:10.195396 32079 net.cpp:148] Top shape: 24 128 14 14 (602112)
I0403 15:32:10.195411 32079 net.cpp:156] Memory required for data: 1038026016
I0403 15:32:10.195425 32079 layer_factory.hpp:77] Creating layer inception_4c/3x3
I0403 15:32:10.195446 32079 net.cpp:91] Creating Layer inception_4c/3x3
I0403 15:32:10.195464 32079 net.cpp:425] inception_4c/3x3 <- inception_4c/3x3_reduce
I0403 15:32:10.195487 32079 net.cpp:399] inception_4c/3x3 -> inception_4c/3x3
I0403 15:32:10.201539 32079 net.cpp:141] Setting up inception_4c/3x3
I0403 15:32:10.201586 32079 net.cpp:148] Top shape: 24 256 14 14 (1204224)
I0403 15:32:10.201606 32079 net.cpp:156] Memory required for data: 1042842912
I0403 15:32:10.201637 32079 layer_factory.hpp:77] Creating layer inception_4c/relu_3x3
I0403 15:32:10.201658 32079 net.cpp:91] Creating Layer inception_4c/relu_3x3
I0403 15:32:10.201674 32079 net.cpp:425] inception_4c/relu_3x3 <- inception_4c/3x3
I0403 15:32:10.201691 32079 net.cpp:386] inception_4c/relu_3x3 -> inception_4c/3x3 (in-place)
I0403 15:32:10.201885 32079 net.cpp:141] Setting up inception_4c/relu_3x3
I0403 15:32:10.201910 32079 net.cpp:148] Top shape: 24 256 14 14 (1204224)
I0403 15:32:10.201925 32079 net.cpp:156] Memory required for data: 1047659808
I0403 15:32:10.201941 32079 layer_factory.hpp:77] Creating layer inception_4c/5x5_reduce
I0403 15:32:10.201966 32079 net.cpp:91] Creating Layer inception_4c/5x5_reduce
I0403 15:32:10.201983 32079 net.cpp:425] inception_4c/5x5_reduce <- inception_4b/output_inception_4b/output_0_split_2
I0403 15:32:10.202003 32079 net.cpp:399] inception_4c/5x5_reduce -> inception_4c/5x5_reduce
I0403 15:32:10.203099 32079 net.cpp:141] Setting up inception_4c/5x5_reduce
I0403 15:32:10.203127 32079 net.cpp:148] Top shape: 24 24 14 14 (112896)
I0403 15:32:10.203143 32079 net.cpp:156] Memory required for data: 1048111392
I0403 15:32:10.203161 32079 layer_factory.hpp:77] Creating layer inception_4c/relu_5x5_reduce
I0403 15:32:10.203182 32079 net.cpp:91] Creating Layer inception_4c/relu_5x5_reduce
I0403 15:32:10.203199 32079 net.cpp:425] inception_4c/relu_5x5_reduce <- inception_4c/5x5_reduce
I0403 15:32:10.203217 32079 net.cpp:386] inception_4c/relu_5x5_reduce -> inception_4c/5x5_reduce (in-place)
I0403 15:32:10.203407 32079 net.cpp:141] Setting up inception_4c/relu_5x5_reduce
I0403 15:32:10.203431 32079 net.cpp:148] Top shape: 24 24 14 14 (112896)
I0403 15:32:10.203445 32079 net.cpp:156] Memory required for data: 1048562976
I0403 15:32:10.203460 32079 layer_factory.hpp:77] Creating layer inception_4c/5x5
I0403 15:32:10.203483 32079 net.cpp:91] Creating Layer inception_4c/5x5
I0403 15:32:10.203501 32079 net.cpp:425] inception_4c/5x5 <- inception_4c/5x5_reduce
I0403 15:32:10.203522 32079 net.cpp:399] inception_4c/5x5 -> inception_4c/5x5
I0403 15:32:10.204767 32079 net.cpp:141] Setting up inception_4c/5x5
I0403 15:32:10.204797 32079 net.cpp:148] Top shape: 24 64 14 14 (301056)
I0403 15:32:10.204813 32079 net.cpp:156] Memory required for data: 1049767200
I0403 15:32:10.204831 32079 layer_factory.hpp:77] Creating layer inception_4c/relu_5x5
I0403 15:32:10.204849 32079 net.cpp:91] Creating Layer inception_4c/relu_5x5
I0403 15:32:10.204865 32079 net.cpp:425] inception_4c/relu_5x5 <- inception_4c/5x5
I0403 15:32:10.204885 32079 net.cpp:386] inception_4c/relu_5x5 -> inception_4c/5x5 (in-place)
I0403 15:32:10.205165 32079 net.cpp:141] Setting up inception_4c/relu_5x5
I0403 15:32:10.205193 32079 net.cpp:148] Top shape: 24 64 14 14 (301056)
I0403 15:32:10.205207 32079 net.cpp:156] Memory required for data: 1050971424
I0403 15:32:10.205222 32079 layer_factory.hpp:77] Creating layer inception_4c/pool
I0403 15:32:10.205240 32079 net.cpp:91] Creating Layer inception_4c/pool
I0403 15:32:10.205258 32079 net.cpp:425] inception_4c/pool <- inception_4b/output_inception_4b/output_0_split_3
I0403 15:32:10.205281 32079 net.cpp:399] inception_4c/pool -> inception_4c/pool
I0403 15:32:10.205348 32079 net.cpp:141] Setting up inception_4c/pool
I0403 15:32:10.205373 32079 net.cpp:148] Top shape: 24 512 14 14 (2408448)
I0403 15:32:10.205387 32079 net.cpp:156] Memory required for data: 1060605216
I0403 15:32:10.205401 32079 layer_factory.hpp:77] Creating layer inception_4c/pool_proj
I0403 15:32:10.205420 32079 net.cpp:91] Creating Layer inception_4c/pool_proj
I0403 15:32:10.205436 32079 net.cpp:425] inception_4c/pool_proj <- inception_4c/pool
I0403 15:32:10.205457 32079 net.cpp:399] inception_4c/pool_proj -> inception_4c/pool_proj
I0403 15:32:10.206648 32079 net.cpp:141] Setting up inception_4c/pool_proj
I0403 15:32:10.206676 32079 net.cpp:148] Top shape: 24 64 14 14 (301056)
I0403 15:32:10.206708 32079 net.cpp:156] Memory required for data: 1061809440
I0403 15:32:10.206727 32079 layer_factory.hpp:77] Creating layer inception_4c/relu_pool_proj
I0403 15:32:10.206744 32079 net.cpp:91] Creating Layer inception_4c/relu_pool_proj
I0403 15:32:10.206760 32079 net.cpp:425] inception_4c/relu_pool_proj <- inception_4c/pool_proj
I0403 15:32:10.206778 32079 net.cpp:386] inception_4c/relu_pool_proj -> inception_4c/pool_proj (in-place)
I0403 15:32:10.206956 32079 net.cpp:141] Setting up inception_4c/relu_pool_proj
I0403 15:32:10.206982 32079 net.cpp:148] Top shape: 24 64 14 14 (301056)
I0403 15:32:10.206996 32079 net.cpp:156] Memory required for data: 1063013664
I0403 15:32:10.207011 32079 layer_factory.hpp:77] Creating layer inception_4c/output
I0403 15:32:10.207027 32079 net.cpp:91] Creating Layer inception_4c/output
I0403 15:32:10.207043 32079 net.cpp:425] inception_4c/output <- inception_4c/1x1
I0403 15:32:10.207059 32079 net.cpp:425] inception_4c/output <- inception_4c/3x3
I0403 15:32:10.207075 32079 net.cpp:425] inception_4c/output <- inception_4c/5x5
I0403 15:32:10.207090 32079 net.cpp:425] inception_4c/output <- inception_4c/pool_proj
I0403 15:32:10.207108 32079 net.cpp:399] inception_4c/output -> inception_4c/output
I0403 15:32:10.207154 32079 net.cpp:141] Setting up inception_4c/output
I0403 15:32:10.207176 32079 net.cpp:148] Top shape: 24 512 14 14 (2408448)
I0403 15:32:10.207190 32079 net.cpp:156] Memory required for data: 1072647456
I0403 15:32:10.207204 32079 layer_factory.hpp:77] Creating layer inception_4c/output_inception_4c/output_0_split
I0403 15:32:10.207223 32079 net.cpp:91] Creating Layer inception_4c/output_inception_4c/output_0_split
I0403 15:32:10.207238 32079 net.cpp:425] inception_4c/output_inception_4c/output_0_split <- inception_4c/output
I0403 15:32:10.207259 32079 net.cpp:399] inception_4c/output_inception_4c/output_0_split -> inception_4c/output_inception_4c/output_0_split_0
I0403 15:32:10.207281 32079 net.cpp:399] inception_4c/output_inception_4c/output_0_split -> inception_4c/output_inception_4c/output_0_split_1
I0403 15:32:10.207304 32079 net.cpp:399] inception_4c/output_inception_4c/output_0_split -> inception_4c/output_inception_4c/output_0_split_2
I0403 15:32:10.207324 32079 net.cpp:399] inception_4c/output_inception_4c/output_0_split -> inception_4c/output_inception_4c/output_0_split_3
I0403 15:32:10.207407 32079 net.cpp:141] Setting up inception_4c/output_inception_4c/output_0_split
I0403 15:32:10.207430 32079 net.cpp:148] Top shape: 24 512 14 14 (2408448)
I0403 15:32:10.207447 32079 net.cpp:148] Top shape: 24 512 14 14 (2408448)
I0403 15:32:10.207461 32079 net.cpp:148] Top shape: 24 512 14 14 (2408448)
I0403 15:32:10.207476 32079 net.cpp:148] Top shape: 24 512 14 14 (2408448)
I0403 15:32:10.207489 32079 net.cpp:156] Memory required for data: 1111182624
I0403 15:32:10.207504 32079 layer_factory.hpp:77] Creating layer inception_4d/1x1
I0403 15:32:10.207525 32079 net.cpp:91] Creating Layer inception_4d/1x1
I0403 15:32:10.207542 32079 net.cpp:425] inception_4d/1x1 <- inception_4c/output_inception_4c/output_0_split_0
I0403 15:32:10.207563 32079 net.cpp:399] inception_4d/1x1 -> inception_4d/1x1
I0403 15:32:10.208916 32079 net.cpp:141] Setting up inception_4d/1x1
I0403 15:32:10.208943 32079 net.cpp:148] Top shape: 24 112 14 14 (526848)
I0403 15:32:10.208958 32079 net.cpp:156] Memory required for data: 1113290016
I0403 15:32:10.208976 32079 layer_factory.hpp:77] Creating layer inception_4d/relu_1x1
I0403 15:32:10.208997 32079 net.cpp:91] Creating Layer inception_4d/relu_1x1
I0403 15:32:10.209012 32079 net.cpp:425] inception_4d/relu_1x1 <- inception_4d/1x1
I0403 15:32:10.209029 32079 net.cpp:386] inception_4d/relu_1x1 -> inception_4d/1x1 (in-place)
I0403 15:32:10.209208 32079 net.cpp:141] Setting up inception_4d/relu_1x1
I0403 15:32:10.209233 32079 net.cpp:148] Top shape: 24 112 14 14 (526848)
I0403 15:32:10.209246 32079 net.cpp:156] Memory required for data: 1115397408
I0403 15:32:10.209275 32079 layer_factory.hpp:77] Creating layer inception_4d/3x3_reduce
I0403 15:32:10.209316 32079 net.cpp:91] Creating Layer inception_4d/3x3_reduce
I0403 15:32:10.209334 32079 net.cpp:425] inception_4d/3x3_reduce <- inception_4c/output_inception_4c/output_0_split_1
I0403 15:32:10.209353 32079 net.cpp:399] inception_4d/3x3_reduce -> inception_4d/3x3_reduce
I0403 15:32:10.210836 32079 net.cpp:141] Setting up inception_4d/3x3_reduce
I0403 15:32:10.210862 32079 net.cpp:148] Top shape: 24 144 14 14 (677376)
I0403 15:32:10.210878 32079 net.cpp:156] Memory required for data: 1118106912
I0403 15:32:10.210908 32079 layer_factory.hpp:77] Creating layer inception_4d/relu_3x3_reduce
I0403 15:32:10.210927 32079 net.cpp:91] Creating Layer inception_4d/relu_3x3_reduce
I0403 15:32:10.210942 32079 net.cpp:425] inception_4d/relu_3x3_reduce <- inception_4d/3x3_reduce
I0403 15:32:10.210961 32079 net.cpp:386] inception_4d/relu_3x3_reduce -> inception_4d/3x3_reduce (in-place)
I0403 15:32:10.211267 32079 net.cpp:141] Setting up inception_4d/relu_3x3_reduce
I0403 15:32:10.211292 32079 net.cpp:148] Top shape: 24 144 14 14 (677376)
I0403 15:32:10.211308 32079 net.cpp:156] Memory required for data: 1120816416
I0403 15:32:10.211323 32079 layer_factory.hpp:77] Creating layer inception_4d/3x3
I0403 15:32:10.211345 32079 net.cpp:91] Creating Layer inception_4d/3x3
I0403 15:32:10.211362 32079 net.cpp:425] inception_4d/3x3 <- inception_4d/3x3_reduce
I0403 15:32:10.211385 32079 net.cpp:399] inception_4d/3x3 -> inception_4d/3x3
I0403 15:32:10.215595 32079 net.cpp:141] Setting up inception_4d/3x3
I0403 15:32:10.215625 32079 net.cpp:148] Top shape: 24 288 14 14 (1354752)
I0403 15:32:10.215641 32079 net.cpp:156] Memory required for data: 1126235424
I0403 15:32:10.215658 32079 layer_factory.hpp:77] Creating layer inception_4d/relu_3x3
I0403 15:32:10.215679 32079 net.cpp:91] Creating Layer inception_4d/relu_3x3
I0403 15:32:10.215697 32079 net.cpp:425] inception_4d/relu_3x3 <- inception_4d/3x3
I0403 15:32:10.215713 32079 net.cpp:386] inception_4d/relu_3x3 -> inception_4d/3x3 (in-place)
I0403 15:32:10.215891 32079 net.cpp:141] Setting up inception_4d/relu_3x3
I0403 15:32:10.215919 32079 net.cpp:148] Top shape: 24 288 14 14 (1354752)
I0403 15:32:10.215934 32079 net.cpp:156] Memory required for data: 1131654432
I0403 15:32:10.215948 32079 layer_factory.hpp:77] Creating layer inception_4d/5x5_reduce
I0403 15:32:10.215970 32079 net.cpp:91] Creating Layer inception_4d/5x5_reduce
I0403 15:32:10.215988 32079 net.cpp:425] inception_4d/5x5_reduce <- inception_4c/output_inception_4c/output_0_split_2
I0403 15:32:10.216006 32079 net.cpp:399] inception_4d/5x5_reduce -> inception_4d/5x5_reduce
I0403 15:32:10.217129 32079 net.cpp:141] Setting up inception_4d/5x5_reduce
I0403 15:32:10.217157 32079 net.cpp:148] Top shape: 24 32 14 14 (150528)
I0403 15:32:10.217171 32079 net.cpp:156] Memory required for data: 1132256544
I0403 15:32:10.217190 32079 layer_factory.hpp:77] Creating layer inception_4d/relu_5x5_reduce
I0403 15:32:10.217211 32079 net.cpp:91] Creating Layer inception_4d/relu_5x5_reduce
I0403 15:32:10.217226 32079 net.cpp:425] inception_4d/relu_5x5_reduce <- inception_4d/5x5_reduce
I0403 15:32:10.217243 32079 net.cpp:386] inception_4d/relu_5x5_reduce -> inception_4d/5x5_reduce (in-place)
I0403 15:32:10.217434 32079 net.cpp:141] Setting up inception_4d/relu_5x5_reduce
I0403 15:32:10.217458 32079 net.cpp:148] Top shape: 24 32 14 14 (150528)
I0403 15:32:10.217473 32079 net.cpp:156] Memory required for data: 1132858656
I0403 15:32:10.217488 32079 layer_factory.hpp:77] Creating layer inception_4d/5x5
I0403 15:32:10.217510 32079 net.cpp:91] Creating Layer inception_4d/5x5
I0403 15:32:10.217528 32079 net.cpp:425] inception_4d/5x5 <- inception_4d/5x5_reduce
I0403 15:32:10.217547 32079 net.cpp:399] inception_4d/5x5 -> inception_4d/5x5
I0403 15:32:10.218972 32079 net.cpp:141] Setting up inception_4d/5x5
I0403 15:32:10.219002 32079 net.cpp:148] Top shape: 24 64 14 14 (301056)
I0403 15:32:10.219018 32079 net.cpp:156] Memory required for data: 1134062880
I0403 15:32:10.219038 32079 layer_factory.hpp:77] Creating layer inception_4d/relu_5x5
I0403 15:32:10.219069 32079 net.cpp:91] Creating Layer inception_4d/relu_5x5
I0403 15:32:10.219086 32079 net.cpp:425] inception_4d/relu_5x5 <- inception_4d/5x5
I0403 15:32:10.219106 32079 net.cpp:386] inception_4d/relu_5x5 -> inception_4d/5x5 (in-place)
I0403 15:32:10.219401 32079 net.cpp:141] Setting up inception_4d/relu_5x5
I0403 15:32:10.219429 32079 net.cpp:148] Top shape: 24 64 14 14 (301056)
I0403 15:32:10.219444 32079 net.cpp:156] Memory required for data: 1135267104
I0403 15:32:10.219460 32079 layer_factory.hpp:77] Creating layer inception_4d/pool
I0403 15:32:10.219476 32079 net.cpp:91] Creating Layer inception_4d/pool
I0403 15:32:10.219492 32079 net.cpp:425] inception_4d/pool <- inception_4c/output_inception_4c/output_0_split_3
I0403 15:32:10.219511 32079 net.cpp:399] inception_4d/pool -> inception_4d/pool
I0403 15:32:10.219576 32079 net.cpp:141] Setting up inception_4d/pool
I0403 15:32:10.219600 32079 net.cpp:148] Top shape: 24 512 14 14 (2408448)
I0403 15:32:10.219614 32079 net.cpp:156] Memory required for data: 1144900896
I0403 15:32:10.219630 32079 layer_factory.hpp:77] Creating layer inception_4d/pool_proj
I0403 15:32:10.219650 32079 net.cpp:91] Creating Layer inception_4d/pool_proj
I0403 15:32:10.219667 32079 net.cpp:425] inception_4d/pool_proj <- inception_4d/pool
I0403 15:32:10.219688 32079 net.cpp:399] inception_4d/pool_proj -> inception_4d/pool_proj
I0403 15:32:10.221421 32079 net.cpp:141] Setting up inception_4d/pool_proj
I0403 15:32:10.221448 32079 net.cpp:148] Top shape: 24 64 14 14 (301056)
I0403 15:32:10.221463 32079 net.cpp:156] Memory required for data: 1146105120
I0403 15:32:10.221480 32079 layer_factory.hpp:77] Creating layer inception_4d/relu_pool_proj
I0403 15:32:10.221501 32079 net.cpp:91] Creating Layer inception_4d/relu_pool_proj
I0403 15:32:10.221518 32079 net.cpp:425] inception_4d/relu_pool_proj <- inception_4d/pool_proj
I0403 15:32:10.221535 32079 net.cpp:386] inception_4d/relu_pool_proj -> inception_4d/pool_proj (in-place)
I0403 15:32:10.221721 32079 net.cpp:141] Setting up inception_4d/relu_pool_proj
I0403 15:32:10.221748 32079 net.cpp:148] Top shape: 24 64 14 14 (301056)
I0403 15:32:10.221763 32079 net.cpp:156] Memory required for data: 1147309344
I0403 15:32:10.221777 32079 layer_factory.hpp:77] Creating layer inception_4d/output
I0403 15:32:10.221793 32079 net.cpp:91] Creating Layer inception_4d/output
I0403 15:32:10.221809 32079 net.cpp:425] inception_4d/output <- inception_4d/1x1
I0403 15:32:10.221825 32079 net.cpp:425] inception_4d/output <- inception_4d/3x3
I0403 15:32:10.221842 32079 net.cpp:425] inception_4d/output <- inception_4d/5x5
I0403 15:32:10.221858 32079 net.cpp:425] inception_4d/output <- inception_4d/pool_proj
I0403 15:32:10.221873 32079 net.cpp:399] inception_4d/output -> inception_4d/output
I0403 15:32:10.221920 32079 net.cpp:141] Setting up inception_4d/output
I0403 15:32:10.221943 32079 net.cpp:148] Top shape: 24 528 14 14 (2483712)
I0403 15:32:10.221958 32079 net.cpp:156] Memory required for data: 1157244192
I0403 15:32:10.221973 32079 layer_factory.hpp:77] Creating layer inception_4d/output_inception_4d/output_0_split
I0403 15:32:10.221992 32079 net.cpp:91] Creating Layer inception_4d/output_inception_4d/output_0_split
I0403 15:32:10.222007 32079 net.cpp:425] inception_4d/output_inception_4d/output_0_split <- inception_4d/output
I0403 15:32:10.222025 32079 net.cpp:399] inception_4d/output_inception_4d/output_0_split -> inception_4d/output_inception_4d/output_0_split_0
I0403 15:32:10.222045 32079 net.cpp:399] inception_4d/output_inception_4d/output_0_split -> inception_4d/output_inception_4d/output_0_split_1
I0403 15:32:10.222065 32079 net.cpp:399] inception_4d/output_inception_4d/output_0_split -> inception_4d/output_inception_4d/output_0_split_2
I0403 15:32:10.222085 32079 net.cpp:399] inception_4d/output_inception_4d/output_0_split -> inception_4d/output_inception_4d/output_0_split_3
I0403 15:32:10.222107 32079 net.cpp:399] inception_4d/output_inception_4d/output_0_split -> inception_4d/output_inception_4d/output_0_split_4
I0403 15:32:10.222210 32079 net.cpp:141] Setting up inception_4d/output_inception_4d/output_0_split
I0403 15:32:10.222245 32079 net.cpp:148] Top shape: 24 528 14 14 (2483712)
I0403 15:32:10.222266 32079 net.cpp:148] Top shape: 24 528 14 14 (2483712)
I0403 15:32:10.222282 32079 net.cpp:148] Top shape: 24 528 14 14 (2483712)
I0403 15:32:10.222298 32079 net.cpp:148] Top shape: 24 528 14 14 (2483712)
I0403 15:32:10.222313 32079 net.cpp:148] Top shape: 24 528 14 14 (2483712)
I0403 15:32:10.222326 32079 net.cpp:156] Memory required for data: 1206918432
I0403 15:32:10.222340 32079 layer_factory.hpp:77] Creating layer loss2/ave_pool
I0403 15:32:10.222357 32079 net.cpp:91] Creating Layer loss2/ave_pool
I0403 15:32:10.222376 32079 net.cpp:425] loss2/ave_pool <- inception_4d/output_inception_4d/output_0_split_0
I0403 15:32:10.222395 32079 net.cpp:399] loss2/ave_pool -> loss2/ave_pool
I0403 15:32:10.222703 32079 net.cpp:141] Setting up loss2/ave_pool
I0403 15:32:10.222729 32079 net.cpp:148] Top shape: 24 528 4 4 (202752)
I0403 15:32:10.222743 32079 net.cpp:156] Memory required for data: 1207729440
I0403 15:32:10.222757 32079 layer_factory.hpp:77] Creating layer loss2/conv
I0403 15:32:10.222780 32079 net.cpp:91] Creating Layer loss2/conv
I0403 15:32:10.222798 32079 net.cpp:425] loss2/conv <- loss2/ave_pool
I0403 15:32:10.222818 32079 net.cpp:399] loss2/conv -> loss2/conv
I0403 15:32:10.224688 32079 net.cpp:141] Setting up loss2/conv
I0403 15:32:10.224717 32079 net.cpp:148] Top shape: 24 128 4 4 (49152)
I0403 15:32:10.224735 32079 net.cpp:156] Memory required for data: 1207926048
I0403 15:32:10.224753 32079 layer_factory.hpp:77] Creating layer loss2/relu_conv
I0403 15:32:10.224771 32079 net.cpp:91] Creating Layer loss2/relu_conv
I0403 15:32:10.224787 32079 net.cpp:425] loss2/relu_conv <- loss2/conv
I0403 15:32:10.224803 32079 net.cpp:386] loss2/relu_conv -> loss2/conv (in-place)
I0403 15:32:10.225087 32079 net.cpp:141] Setting up loss2/relu_conv
I0403 15:32:10.225116 32079 net.cpp:148] Top shape: 24 128 4 4 (49152)
I0403 15:32:10.225131 32079 net.cpp:156] Memory required for data: 1208122656
I0403 15:32:10.225147 32079 layer_factory.hpp:77] Creating layer loss2/fc
I0403 15:32:10.225165 32079 net.cpp:91] Creating Layer loss2/fc
I0403 15:32:10.225181 32079 net.cpp:425] loss2/fc <- loss2/conv
I0403 15:32:10.225201 32079 net.cpp:399] loss2/fc -> loss2/fc
I0403 15:32:10.242710 32079 net.cpp:141] Setting up loss2/fc
I0403 15:32:10.242743 32079 net.cpp:148] Top shape: 24 1024 (24576)
I0403 15:32:10.242759 32079 net.cpp:156] Memory required for data: 1208220960
I0403 15:32:10.242779 32079 layer_factory.hpp:77] Creating layer loss2/relu_fc
I0403 15:32:10.242797 32079 net.cpp:91] Creating Layer loss2/relu_fc
I0403 15:32:10.242815 32079 net.cpp:425] loss2/relu_fc <- loss2/fc
I0403 15:32:10.242831 32079 net.cpp:386] loss2/relu_fc -> loss2/fc (in-place)
I0403 15:32:10.243145 32079 net.cpp:141] Setting up loss2/relu_fc
I0403 15:32:10.243172 32079 net.cpp:148] Top shape: 24 1024 (24576)
I0403 15:32:10.243187 32079 net.cpp:156] Memory required for data: 1208319264
I0403 15:32:10.243202 32079 layer_factory.hpp:77] Creating layer loss2/drop_fc
I0403 15:32:10.243222 32079 net.cpp:91] Creating Layer loss2/drop_fc
I0403 15:32:10.243240 32079 net.cpp:425] loss2/drop_fc <- loss2/fc
I0403 15:32:10.243263 32079 net.cpp:386] loss2/drop_fc -> loss2/fc (in-place)
I0403 15:32:10.243315 32079 net.cpp:141] Setting up loss2/drop_fc
I0403 15:32:10.243338 32079 net.cpp:148] Top shape: 24 1024 (24576)
I0403 15:32:10.243352 32079 net.cpp:156] Memory required for data: 1208417568
I0403 15:32:10.243367 32079 layer_factory.hpp:77] Creating layer loss2/classifier_plantvillage
I0403 15:32:10.243387 32079 net.cpp:91] Creating Layer loss2/classifier_plantvillage
I0403 15:32:10.243404 32079 net.cpp:425] loss2/classifier_plantvillage <- loss2/fc
I0403 15:32:10.243422 32079 net.cpp:399] loss2/classifier_plantvillage -> loss2/classifier_plantvillage
I0403 15:32:10.243829 32079 net.cpp:141] Setting up loss2/classifier_plantvillage
I0403 15:32:10.243852 32079 net.cpp:148] Top shape: 24 38 (912)
I0403 15:32:10.243867 32079 net.cpp:156] Memory required for data: 1208421216
I0403 15:32:10.243903 32079 layer_factory.hpp:77] Creating layer loss2/classifier_plantvillage_loss2/classifier_plantvillage_0_split
I0403 15:32:10.243922 32079 net.cpp:91] Creating Layer loss2/classifier_plantvillage_loss2/classifier_plantvillage_0_split
I0403 15:32:10.243938 32079 net.cpp:425] loss2/classifier_plantvillage_loss2/classifier_plantvillage_0_split <- loss2/classifier_plantvillage
I0403 15:32:10.243958 32079 net.cpp:399] loss2/classifier_plantvillage_loss2/classifier_plantvillage_0_split -> loss2/classifier_plantvillage_loss2/classifier_plantvillage_0_split_0
I0403 15:32:10.243979 32079 net.cpp:399] loss2/classifier_plantvillage_loss2/classifier_plantvillage_0_split -> loss2/classifier_plantvillage_loss2/classifier_plantvillage_0_split_1
I0403 15:32:10.244000 32079 net.cpp:399] loss2/classifier_plantvillage_loss2/classifier_plantvillage_0_split -> loss2/classifier_plantvillage_loss2/classifier_plantvillage_0_split_2
I0403 15:32:10.244078 32079 net.cpp:141] Setting up loss2/classifier_plantvillage_loss2/classifier_plantvillage_0_split
I0403 15:32:10.244103 32079 net.cpp:148] Top shape: 24 38 (912)
I0403 15:32:10.244120 32079 net.cpp:148] Top shape: 24 38 (912)
I0403 15:32:10.244135 32079 net.cpp:148] Top shape: 24 38 (912)
I0403 15:32:10.244149 32079 net.cpp:156] Memory required for data: 1208432160
I0403 15:32:10.244164 32079 layer_factory.hpp:77] Creating layer inception_4e/1x1
I0403 15:32:10.244185 32079 net.cpp:91] Creating Layer inception_4e/1x1
I0403 15:32:10.244202 32079 net.cpp:425] inception_4e/1x1 <- inception_4d/output_inception_4d/output_0_split_1
I0403 15:32:10.244221 32079 net.cpp:399] inception_4e/1x1 -> inception_4e/1x1
I0403 15:32:10.246080 32079 net.cpp:141] Setting up inception_4e/1x1
I0403 15:32:10.246110 32079 net.cpp:148] Top shape: 24 256 14 14 (1204224)
I0403 15:32:10.246127 32079 net.cpp:156] Memory required for data: 1213249056
I0403 15:32:10.246145 32079 layer_factory.hpp:77] Creating layer inception_4e/relu_1x1
I0403 15:32:10.246163 32079 net.cpp:91] Creating Layer inception_4e/relu_1x1
I0403 15:32:10.246179 32079 net.cpp:425] inception_4e/relu_1x1 <- inception_4e/1x1
I0403 15:32:10.246199 32079 net.cpp:386] inception_4e/relu_1x1 -> inception_4e/1x1 (in-place)
I0403 15:32:10.246500 32079 net.cpp:141] Setting up inception_4e/relu_1x1
I0403 15:32:10.246528 32079 net.cpp:148] Top shape: 24 256 14 14 (1204224)
I0403 15:32:10.246543 32079 net.cpp:156] Memory required for data: 1218065952
I0403 15:32:10.246558 32079 layer_factory.hpp:77] Creating layer inception_4e/3x3_reduce
I0403 15:32:10.246582 32079 net.cpp:91] Creating Layer inception_4e/3x3_reduce
I0403 15:32:10.246600 32079 net.cpp:425] inception_4e/3x3_reduce <- inception_4d/output_inception_4d/output_0_split_2
I0403 15:32:10.246619 32079 net.cpp:399] inception_4e/3x3_reduce -> inception_4e/3x3_reduce
I0403 15:32:10.248831 32079 net.cpp:141] Setting up inception_4e/3x3_reduce
I0403 15:32:10.248862 32079 net.cpp:148] Top shape: 24 160 14 14 (752640)
I0403 15:32:10.248879 32079 net.cpp:156] Memory required for data: 1221076512
I0403 15:32:10.248898 32079 layer_factory.hpp:77] Creating layer inception_4e/relu_3x3_reduce
I0403 15:32:10.248915 32079 net.cpp:91] Creating Layer inception_4e/relu_3x3_reduce
I0403 15:32:10.248931 32079 net.cpp:425] inception_4e/relu_3x3_reduce <- inception_4e/3x3_reduce
I0403 15:32:10.248949 32079 net.cpp:386] inception_4e/relu_3x3_reduce -> inception_4e/3x3_reduce (in-place)
I0403 15:32:10.249138 32079 net.cpp:141] Setting up inception_4e/relu_3x3_reduce
I0403 15:32:10.249163 32079 net.cpp:148] Top shape: 24 160 14 14 (752640)
I0403 15:32:10.249178 32079 net.cpp:156] Memory required for data: 1224087072
I0403 15:32:10.249193 32079 layer_factory.hpp:77] Creating layer inception_4e/3x3
I0403 15:32:10.249215 32079 net.cpp:91] Creating Layer inception_4e/3x3
I0403 15:32:10.249233 32079 net.cpp:425] inception_4e/3x3 <- inception_4e/3x3_reduce
I0403 15:32:10.249258 32079 net.cpp:399] inception_4e/3x3 -> inception_4e/3x3
I0403 15:32:10.254310 32079 net.cpp:141] Setting up inception_4e/3x3
I0403 15:32:10.254353 32079 net.cpp:148] Top shape: 24 320 14 14 (1505280)
I0403 15:32:10.254369 32079 net.cpp:156] Memory required for data: 1230108192
I0403 15:32:10.254386 32079 layer_factory.hpp:77] Creating layer inception_4e/relu_3x3
I0403 15:32:10.254405 32079 net.cpp:91] Creating Layer inception_4e/relu_3x3
I0403 15:32:10.254421 32079 net.cpp:425] inception_4e/relu_3x3 <- inception_4e/3x3
I0403 15:32:10.254441 32079 net.cpp:386] inception_4e/relu_3x3 -> inception_4e/3x3 (in-place)
I0403 15:32:10.254744 32079 net.cpp:141] Setting up inception_4e/relu_3x3
I0403 15:32:10.254770 32079 net.cpp:148] Top shape: 24 320 14 14 (1505280)
I0403 15:32:10.254786 32079 net.cpp:156] Memory required for data: 1236129312
I0403 15:32:10.254801 32079 layer_factory.hpp:77] Creating layer inception_4e/5x5_reduce
I0403 15:32:10.254823 32079 net.cpp:91] Creating Layer inception_4e/5x5_reduce
I0403 15:32:10.254840 32079 net.cpp:425] inception_4e/5x5_reduce <- inception_4d/output_inception_4d/output_0_split_3
I0403 15:32:10.254861 32079 net.cpp:399] inception_4e/5x5_reduce -> inception_4e/5x5_reduce
I0403 15:32:10.255947 32079 net.cpp:141] Setting up inception_4e/5x5_reduce
I0403 15:32:10.255977 32079 net.cpp:148] Top shape: 24 32 14 14 (150528)
I0403 15:32:10.255993 32079 net.cpp:156] Memory required for data: 1236731424
I0403 15:32:10.256011 32079 layer_factory.hpp:77] Creating layer inception_4e/relu_5x5_reduce
I0403 15:32:10.256031 32079 net.cpp:91] Creating Layer inception_4e/relu_5x5_reduce
I0403 15:32:10.256047 32079 net.cpp:425] inception_4e/relu_5x5_reduce <- inception_4e/5x5_reduce
I0403 15:32:10.256065 32079 net.cpp:386] inception_4e/relu_5x5_reduce -> inception_4e/5x5_reduce (in-place)
I0403 15:32:10.256373 32079 net.cpp:141] Setting up inception_4e/relu_5x5_reduce
I0403 15:32:10.256402 32079 net.cpp:148] Top shape: 24 32 14 14 (150528)
I0403 15:32:10.256417 32079 net.cpp:156] Memory required for data: 1237333536
I0403 15:32:10.256433 32079 layer_factory.hpp:77] Creating layer inception_4e/5x5
I0403 15:32:10.256475 32079 net.cpp:91] Creating Layer inception_4e/5x5
I0403 15:32:10.256495 32079 net.cpp:425] inception_4e/5x5 <- inception_4e/5x5_reduce
I0403 15:32:10.256515 32079 net.cpp:399] inception_4e/5x5 -> inception_4e/5x5
I0403 15:32:10.258376 32079 net.cpp:141] Setting up inception_4e/5x5
I0403 15:32:10.258405 32079 net.cpp:148] Top shape: 24 128 14 14 (602112)
I0403 15:32:10.258421 32079 net.cpp:156] Memory required for data: 1239741984
I0403 15:32:10.258440 32079 layer_factory.hpp:77] Creating layer inception_4e/relu_5x5
I0403 15:32:10.258461 32079 net.cpp:91] Creating Layer inception_4e/relu_5x5
I0403 15:32:10.258479 32079 net.cpp:425] inception_4e/relu_5x5 <- inception_4e/5x5
I0403 15:32:10.258496 32079 net.cpp:386] inception_4e/relu_5x5 -> inception_4e/5x5 (in-place)
I0403 15:32:10.258697 32079 net.cpp:141] Setting up inception_4e/relu_5x5
I0403 15:32:10.258725 32079 net.cpp:148] Top shape: 24 128 14 14 (602112)
I0403 15:32:10.258740 32079 net.cpp:156] Memory required for data: 1242150432
I0403 15:32:10.258756 32079 layer_factory.hpp:77] Creating layer inception_4e/pool
I0403 15:32:10.258774 32079 net.cpp:91] Creating Layer inception_4e/pool
I0403 15:32:10.258801 32079 net.cpp:425] inception_4e/pool <- inception_4d/output_inception_4d/output_0_split_4
I0403 15:32:10.258821 32079 net.cpp:399] inception_4e/pool -> inception_4e/pool
I0403 15:32:10.258905 32079 net.cpp:141] Setting up inception_4e/pool
I0403 15:32:10.258930 32079 net.cpp:148] Top shape: 24 528 14 14 (2483712)
I0403 15:32:10.258945 32079 net.cpp:156] Memory required for data: 1252085280
I0403 15:32:10.258960 32079 layer_factory.hpp:77] Creating layer inception_4e/pool_proj
I0403 15:32:10.258982 32079 net.cpp:91] Creating Layer inception_4e/pool_proj
I0403 15:32:10.259002 32079 net.cpp:425] inception_4e/pool_proj <- inception_4e/pool
I0403 15:32:10.259021 32079 net.cpp:399] inception_4e/pool_proj -> inception_4e/pool_proj
I0403 15:32:10.260552 32079 net.cpp:141] Setting up inception_4e/pool_proj
I0403 15:32:10.260593 32079 net.cpp:148] Top shape: 24 128 14 14 (602112)
I0403 15:32:10.260623 32079 net.cpp:156] Memory required for data: 1254493728
I0403 15:32:10.260643 32079 layer_factory.hpp:77] Creating layer inception_4e/relu_pool_proj
I0403 15:32:10.260663 32079 net.cpp:91] Creating Layer inception_4e/relu_pool_proj
I0403 15:32:10.260680 32079 net.cpp:425] inception_4e/relu_pool_proj <- inception_4e/pool_proj
I0403 15:32:10.260699 32079 net.cpp:386] inception_4e/relu_pool_proj -> inception_4e/pool_proj (in-place)
I0403 15:32:10.261009 32079 net.cpp:141] Setting up inception_4e/relu_pool_proj
I0403 15:32:10.261035 32079 net.cpp:148] Top shape: 24 128 14 14 (602112)
I0403 15:32:10.261050 32079 net.cpp:156] Memory required for data: 1256902176
I0403 15:32:10.261065 32079 layer_factory.hpp:77] Creating layer inception_4e/output
I0403 15:32:10.261083 32079 net.cpp:91] Creating Layer inception_4e/output
I0403 15:32:10.261098 32079 net.cpp:425] inception_4e/output <- inception_4e/1x1
I0403 15:32:10.261121 32079 net.cpp:425] inception_4e/output <- inception_4e/3x3
I0403 15:32:10.261138 32079 net.cpp:425] inception_4e/output <- inception_4e/5x5
I0403 15:32:10.261154 32079 net.cpp:425] inception_4e/output <- inception_4e/pool_proj
I0403 15:32:10.261171 32079 net.cpp:399] inception_4e/output -> inception_4e/output
I0403 15:32:10.261224 32079 net.cpp:141] Setting up inception_4e/output
I0403 15:32:10.261246 32079 net.cpp:148] Top shape: 24 832 14 14 (3913728)
I0403 15:32:10.261276 32079 net.cpp:156] Memory required for data: 1272557088
I0403 15:32:10.261293 32079 layer_factory.hpp:77] Creating layer pool4/3x3_s2
I0403 15:32:10.261310 32079 net.cpp:91] Creating Layer pool4/3x3_s2
I0403 15:32:10.261327 32079 net.cpp:425] pool4/3x3_s2 <- inception_4e/output
I0403 15:32:10.261348 32079 net.cpp:399] pool4/3x3_s2 -> pool4/3x3_s2
I0403 15:32:10.261415 32079 net.cpp:141] Setting up pool4/3x3_s2
I0403 15:32:10.261438 32079 net.cpp:148] Top shape: 24 832 7 7 (978432)
I0403 15:32:10.261452 32079 net.cpp:156] Memory required for data: 1276470816
I0403 15:32:10.261467 32079 layer_factory.hpp:77] Creating layer pool4/3x3_s2_pool4/3x3_s2_0_split
I0403 15:32:10.261488 32079 net.cpp:91] Creating Layer pool4/3x3_s2_pool4/3x3_s2_0_split
I0403 15:32:10.261505 32079 net.cpp:425] pool4/3x3_s2_pool4/3x3_s2_0_split <- pool4/3x3_s2
I0403 15:32:10.261523 32079 net.cpp:399] pool4/3x3_s2_pool4/3x3_s2_0_split -> pool4/3x3_s2_pool4/3x3_s2_0_split_0
I0403 15:32:10.261546 32079 net.cpp:399] pool4/3x3_s2_pool4/3x3_s2_0_split -> pool4/3x3_s2_pool4/3x3_s2_0_split_1
I0403 15:32:10.261576 32079 net.cpp:399] pool4/3x3_s2_pool4/3x3_s2_0_split -> pool4/3x3_s2_pool4/3x3_s2_0_split_2
I0403 15:32:10.261596 32079 net.cpp:399] pool4/3x3_s2_pool4/3x3_s2_0_split -> pool4/3x3_s2_pool4/3x3_s2_0_split_3
I0403 15:32:10.261685 32079 net.cpp:141] Setting up pool4/3x3_s2_pool4/3x3_s2_0_split
I0403 15:32:10.261708 32079 net.cpp:148] Top shape: 24 832 7 7 (978432)
I0403 15:32:10.261724 32079 net.cpp:148] Top shape: 24 832 7 7 (978432)
I0403 15:32:10.261739 32079 net.cpp:148] Top shape: 24 832 7 7 (978432)
I0403 15:32:10.261754 32079 net.cpp:148] Top shape: 24 832 7 7 (978432)
I0403 15:32:10.261768 32079 net.cpp:156] Memory required for data: 1292125728
I0403 15:32:10.261782 32079 layer_factory.hpp:77] Creating layer inception_5a/1x1
I0403 15:32:10.261804 32079 net.cpp:91] Creating Layer inception_5a/1x1
I0403 15:32:10.261822 32079 net.cpp:425] inception_5a/1x1 <- pool4/3x3_s2_pool4/3x3_s2_0_split_0
I0403 15:32:10.261843 32079 net.cpp:399] inception_5a/1x1 -> inception_5a/1x1
I0403 15:32:10.264760 32079 net.cpp:141] Setting up inception_5a/1x1
I0403 15:32:10.264792 32079 net.cpp:148] Top shape: 24 256 7 7 (301056)
I0403 15:32:10.264808 32079 net.cpp:156] Memory required for data: 1293329952
I0403 15:32:10.264827 32079 layer_factory.hpp:77] Creating layer inception_5a/relu_1x1
I0403 15:32:10.264845 32079 net.cpp:91] Creating Layer inception_5a/relu_1x1
I0403 15:32:10.264861 32079 net.cpp:425] inception_5a/relu_1x1 <- inception_5a/1x1
I0403 15:32:10.264878 32079 net.cpp:386] inception_5a/relu_1x1 -> inception_5a/1x1 (in-place)
I0403 15:32:10.265192 32079 net.cpp:141] Setting up inception_5a/relu_1x1
I0403 15:32:10.265220 32079 net.cpp:148] Top shape: 24 256 7 7 (301056)
I0403 15:32:10.265236 32079 net.cpp:156] Memory required for data: 1294534176
I0403 15:32:10.265250 32079 layer_factory.hpp:77] Creating layer inception_5a/3x3_reduce
I0403 15:32:10.265276 32079 net.cpp:91] Creating Layer inception_5a/3x3_reduce
I0403 15:32:10.265293 32079 net.cpp:425] inception_5a/3x3_reduce <- pool4/3x3_s2_pool4/3x3_s2_0_split_1
I0403 15:32:10.265314 32079 net.cpp:399] inception_5a/3x3_reduce -> inception_5a/3x3_reduce
I0403 15:32:10.267801 32079 net.cpp:141] Setting up inception_5a/3x3_reduce
I0403 15:32:10.267832 32079 net.cpp:148] Top shape: 24 160 7 7 (188160)
I0403 15:32:10.267846 32079 net.cpp:156] Memory required for data: 1295286816
I0403 15:32:10.267865 32079 layer_factory.hpp:77] Creating layer inception_5a/relu_3x3_reduce
I0403 15:32:10.267884 32079 net.cpp:91] Creating Layer inception_5a/relu_3x3_reduce
I0403 15:32:10.267899 32079 net.cpp:425] inception_5a/relu_3x3_reduce <- inception_5a/3x3_reduce
I0403 15:32:10.267920 32079 net.cpp:386] inception_5a/relu_3x3_reduce -> inception_5a/3x3_reduce (in-place)
I0403 15:32:10.268110 32079 net.cpp:141] Setting up inception_5a/relu_3x3_reduce
I0403 15:32:10.268133 32079 net.cpp:148] Top shape: 24 160 7 7 (188160)
I0403 15:32:10.268148 32079 net.cpp:156] Memory required for data: 1296039456
I0403 15:32:10.268162 32079 layer_factory.hpp:77] Creating layer inception_5a/3x3
I0403 15:32:10.268184 32079 net.cpp:91] Creating Layer inception_5a/3x3
I0403 15:32:10.268203 32079 net.cpp:425] inception_5a/3x3 <- inception_5a/3x3_reduce
I0403 15:32:10.268224 32079 net.cpp:399] inception_5a/3x3 -> inception_5a/3x3
I0403 15:32:10.273334 32079 net.cpp:141] Setting up inception_5a/3x3
I0403 15:32:10.273365 32079 net.cpp:148] Top shape: 24 320 7 7 (376320)
I0403 15:32:10.273380 32079 net.cpp:156] Memory required for data: 1297544736
I0403 15:32:10.273398 32079 layer_factory.hpp:77] Creating layer inception_5a/relu_3x3
I0403 15:32:10.273418 32079 net.cpp:91] Creating Layer inception_5a/relu_3x3
I0403 15:32:10.273437 32079 net.cpp:425] inception_5a/relu_3x3 <- inception_5a/3x3
I0403 15:32:10.273454 32079 net.cpp:386] inception_5a/relu_3x3 -> inception_5a/3x3 (in-place)
I0403 15:32:10.273752 32079 net.cpp:141] Setting up inception_5a/relu_3x3
I0403 15:32:10.273779 32079 net.cpp:148] Top shape: 24 320 7 7 (376320)
I0403 15:32:10.273794 32079 net.cpp:156] Memory required for data: 1299050016
I0403 15:32:10.273808 32079 layer_factory.hpp:77] Creating layer inception_5a/5x5_reduce
I0403 15:32:10.273834 32079 net.cpp:91] Creating Layer inception_5a/5x5_reduce
I0403 15:32:10.273851 32079 net.cpp:425] inception_5a/5x5_reduce <- pool4/3x3_s2_pool4/3x3_s2_0_split_2
I0403 15:32:10.273871 32079 net.cpp:399] inception_5a/5x5_reduce -> inception_5a/5x5_reduce
I0403 15:32:10.275070 32079 net.cpp:141] Setting up inception_5a/5x5_reduce
I0403 15:32:10.275101 32079 net.cpp:148] Top shape: 24 32 7 7 (37632)
I0403 15:32:10.275117 32079 net.cpp:156] Memory required for data: 1299200544
I0403 15:32:10.275136 32079 layer_factory.hpp:77] Creating layer inception_5a/relu_5x5_reduce
I0403 15:32:10.275154 32079 net.cpp:91] Creating Layer inception_5a/relu_5x5_reduce
I0403 15:32:10.275171 32079 net.cpp:425] inception_5a/relu_5x5_reduce <- inception_5a/5x5_reduce
I0403 15:32:10.275188 32079 net.cpp:386] inception_5a/relu_5x5_reduce -> inception_5a/5x5_reduce (in-place)
I0403 15:32:10.275499 32079 net.cpp:141] Setting up inception_5a/relu_5x5_reduce
I0403 15:32:10.275528 32079 net.cpp:148] Top shape: 24 32 7 7 (37632)
I0403 15:32:10.275544 32079 net.cpp:156] Memory required for data: 1299351072
I0403 15:32:10.275559 32079 layer_factory.hpp:77] Creating layer inception_5a/5x5
I0403 15:32:10.275584 32079 net.cpp:91] Creating Layer inception_5a/5x5
I0403 15:32:10.275604 32079 net.cpp:425] inception_5a/5x5 <- inception_5a/5x5_reduce
I0403 15:32:10.275622 32079 net.cpp:399] inception_5a/5x5 -> inception_5a/5x5
I0403 15:32:10.277366 32079 net.cpp:141] Setting up inception_5a/5x5
I0403 15:32:10.277406 32079 net.cpp:148] Top shape: 24 128 7 7 (150528)
I0403 15:32:10.277422 32079 net.cpp:156] Memory required for data: 1299953184
I0403 15:32:10.277441 32079 layer_factory.hpp:77] Creating layer inception_5a/relu_5x5
I0403 15:32:10.277462 32079 net.cpp:91] Creating Layer inception_5a/relu_5x5
I0403 15:32:10.277479 32079 net.cpp:425] inception_5a/relu_5x5 <- inception_5a/5x5
I0403 15:32:10.277497 32079 net.cpp:386] inception_5a/relu_5x5 -> inception_5a/5x5 (in-place)
I0403 15:32:10.277689 32079 net.cpp:141] Setting up inception_5a/relu_5x5
I0403 15:32:10.277716 32079 net.cpp:148] Top shape: 24 128 7 7 (150528)
I0403 15:32:10.277731 32079 net.cpp:156] Memory required for data: 1300555296
I0403 15:32:10.277746 32079 layer_factory.hpp:77] Creating layer inception_5a/pool
I0403 15:32:10.277763 32079 net.cpp:91] Creating Layer inception_5a/pool
I0403 15:32:10.277779 32079 net.cpp:425] inception_5a/pool <- pool4/3x3_s2_pool4/3x3_s2_0_split_3
I0403 15:32:10.277801 32079 net.cpp:399] inception_5a/pool -> inception_5a/pool
I0403 15:32:10.277873 32079 net.cpp:141] Setting up inception_5a/pool
I0403 15:32:10.277896 32079 net.cpp:148] Top shape: 24 832 7 7 (978432)
I0403 15:32:10.277911 32079 net.cpp:156] Memory required for data: 1304469024
I0403 15:32:10.277925 32079 layer_factory.hpp:77] Creating layer inception_5a/pool_proj
I0403 15:32:10.277950 32079 net.cpp:91] Creating Layer inception_5a/pool_proj
I0403 15:32:10.277967 32079 net.cpp:425] inception_5a/pool_proj <- inception_5a/pool
I0403 15:32:10.277987 32079 net.cpp:399] inception_5a/pool_proj -> inception_5a/pool_proj
I0403 15:32:10.280326 32079 net.cpp:141] Setting up inception_5a/pool_proj
I0403 15:32:10.280355 32079 net.cpp:148] Top shape: 24 128 7 7 (150528)
I0403 15:32:10.280371 32079 net.cpp:156] Memory required for data: 1305071136
I0403 15:32:10.280390 32079 layer_factory.hpp:77] Creating layer inception_5a/relu_pool_proj
I0403 15:32:10.280411 32079 net.cpp:91] Creating Layer inception_5a/relu_pool_proj
I0403 15:32:10.280428 32079 net.cpp:425] inception_5a/relu_pool_proj <- inception_5a/pool_proj
I0403 15:32:10.280446 32079 net.cpp:386] inception_5a/relu_pool_proj -> inception_5a/pool_proj (in-place)
I0403 15:32:10.280747 32079 net.cpp:141] Setting up inception_5a/relu_pool_proj
I0403 15:32:10.280773 32079 net.cpp:148] Top shape: 24 128 7 7 (150528)
I0403 15:32:10.280788 32079 net.cpp:156] Memory required for data: 1305673248
I0403 15:32:10.280803 32079 layer_factory.hpp:77] Creating layer inception_5a/output
I0403 15:32:10.280822 32079 net.cpp:91] Creating Layer inception_5a/output
I0403 15:32:10.280839 32079 net.cpp:425] inception_5a/output <- inception_5a/1x1
I0403 15:32:10.280856 32079 net.cpp:425] inception_5a/output <- inception_5a/3x3
I0403 15:32:10.280874 32079 net.cpp:425] inception_5a/output <- inception_5a/5x5
I0403 15:32:10.280889 32079 net.cpp:425] inception_5a/output <- inception_5a/pool_proj
I0403 15:32:10.280907 32079 net.cpp:399] inception_5a/output -> inception_5a/output
I0403 15:32:10.280959 32079 net.cpp:141] Setting up inception_5a/output
I0403 15:32:10.280983 32079 net.cpp:148] Top shape: 24 832 7 7 (978432)
I0403 15:32:10.280997 32079 net.cpp:156] Memory required for data: 1309586976
I0403 15:32:10.281013 32079 layer_factory.hpp:77] Creating layer inception_5a/output_inception_5a/output_0_split
I0403 15:32:10.281029 32079 net.cpp:91] Creating Layer inception_5a/output_inception_5a/output_0_split
I0403 15:32:10.281045 32079 net.cpp:425] inception_5a/output_inception_5a/output_0_split <- inception_5a/output
I0403 15:32:10.281064 32079 net.cpp:399] inception_5a/output_inception_5a/output_0_split -> inception_5a/output_inception_5a/output_0_split_0
I0403 15:32:10.281085 32079 net.cpp:399] inception_5a/output_inception_5a/output_0_split -> inception_5a/output_inception_5a/output_0_split_1
I0403 15:32:10.281105 32079 net.cpp:399] inception_5a/output_inception_5a/output_0_split -> inception_5a/output_inception_5a/output_0_split_2
I0403 15:32:10.281126 32079 net.cpp:399] inception_5a/output_inception_5a/output_0_split -> inception_5a/output_inception_5a/output_0_split_3
I0403 15:32:10.281240 32079 net.cpp:141] Setting up inception_5a/output_inception_5a/output_0_split
I0403 15:32:10.281271 32079 net.cpp:148] Top shape: 24 832 7 7 (978432)
I0403 15:32:10.281289 32079 net.cpp:148] Top shape: 24 832 7 7 (978432)
I0403 15:32:10.281306 32079 net.cpp:148] Top shape: 24 832 7 7 (978432)
I0403 15:32:10.281321 32079 net.cpp:148] Top shape: 24 832 7 7 (978432)
I0403 15:32:10.281335 32079 net.cpp:156] Memory required for data: 1325241888
I0403 15:32:10.281349 32079 layer_factory.hpp:77] Creating layer inception_5b/1x1
I0403 15:32:10.281373 32079 net.cpp:91] Creating Layer inception_5b/1x1
I0403 15:32:10.281390 32079 net.cpp:425] inception_5b/1x1 <- inception_5a/output_inception_5a/output_0_split_0
I0403 15:32:10.281409 32079 net.cpp:399] inception_5b/1x1 -> inception_5b/1x1
I0403 15:32:10.285167 32079 net.cpp:141] Setting up inception_5b/1x1
I0403 15:32:10.285195 32079 net.cpp:148] Top shape: 24 384 7 7 (451584)
I0403 15:32:10.285210 32079 net.cpp:156] Memory required for data: 1327048224
I0403 15:32:10.285228 32079 layer_factory.hpp:77] Creating layer inception_5b/relu_1x1
I0403 15:32:10.285250 32079 net.cpp:91] Creating Layer inception_5b/relu_1x1
I0403 15:32:10.285272 32079 net.cpp:425] inception_5b/relu_1x1 <- inception_5b/1x1
I0403 15:32:10.285290 32079 net.cpp:386] inception_5b/relu_1x1 -> inception_5b/1x1 (in-place)
I0403 15:32:10.285795 32079 net.cpp:141] Setting up inception_5b/relu_1x1
I0403 15:32:10.285821 32079 net.cpp:148] Top shape: 24 384 7 7 (451584)
I0403 15:32:10.285836 32079 net.cpp:156] Memory required for data: 1328854560
I0403 15:32:10.285851 32079 layer_factory.hpp:77] Creating layer inception_5b/3x3_reduce
I0403 15:32:10.285872 32079 net.cpp:91] Creating Layer inception_5b/3x3_reduce
I0403 15:32:10.285890 32079 net.cpp:425] inception_5b/3x3_reduce <- inception_5a/output_inception_5a/output_0_split_1
I0403 15:32:10.285912 32079 net.cpp:399] inception_5b/3x3_reduce -> inception_5b/3x3_reduce
I0403 15:32:10.288568 32079 net.cpp:141] Setting up inception_5b/3x3_reduce
I0403 15:32:10.288595 32079 net.cpp:148] Top shape: 24 192 7 7 (225792)
I0403 15:32:10.288611 32079 net.cpp:156] Memory required for data: 1329757728
I0403 15:32:10.288628 32079 layer_factory.hpp:77] Creating layer inception_5b/relu_3x3_reduce
I0403 15:32:10.288648 32079 net.cpp:91] Creating Layer inception_5b/relu_3x3_reduce
I0403 15:32:10.288666 32079 net.cpp:425] inception_5b/relu_3x3_reduce <- inception_5b/3x3_reduce
I0403 15:32:10.288681 32079 net.cpp:386] inception_5b/relu_3x3_reduce -> inception_5b/3x3_reduce (in-place)
I0403 15:32:10.288868 32079 net.cpp:141] Setting up inception_5b/relu_3x3_reduce
I0403 15:32:10.288892 32079 net.cpp:148] Top shape: 24 192 7 7 (225792)
I0403 15:32:10.288907 32079 net.cpp:156] Memory required for data: 1330660896
I0403 15:32:10.288921 32079 layer_factory.hpp:77] Creating layer inception_5b/3x3
I0403 15:32:10.288944 32079 net.cpp:91] Creating Layer inception_5b/3x3
I0403 15:32:10.288961 32079 net.cpp:425] inception_5b/3x3 <- inception_5b/3x3_reduce
I0403 15:32:10.288980 32079 net.cpp:399] inception_5b/3x3 -> inception_5b/3x3
I0403 15:32:10.295655 32079 net.cpp:141] Setting up inception_5b/3x3
I0403 15:32:10.295682 32079 net.cpp:148] Top shape: 24 384 7 7 (451584)
I0403 15:32:10.295697 32079 net.cpp:156] Memory required for data: 1332467232
I0403 15:32:10.295716 32079 layer_factory.hpp:77] Creating layer inception_5b/relu_3x3
I0403 15:32:10.295737 32079 net.cpp:91] Creating Layer inception_5b/relu_3x3
I0403 15:32:10.295753 32079 net.cpp:425] inception_5b/relu_3x3 <- inception_5b/3x3
I0403 15:32:10.295770 32079 net.cpp:386] inception_5b/relu_3x3 -> inception_5b/3x3 (in-place)
I0403 15:32:10.296067 32079 net.cpp:141] Setting up inception_5b/relu_3x3
I0403 15:32:10.296093 32079 net.cpp:148] Top shape: 24 384 7 7 (451584)
I0403 15:32:10.296108 32079 net.cpp:156] Memory required for data: 1334273568
I0403 15:32:10.296123 32079 layer_factory.hpp:77] Creating layer inception_5b/5x5_reduce
I0403 15:32:10.296160 32079 net.cpp:91] Creating Layer inception_5b/5x5_reduce
I0403 15:32:10.296178 32079 net.cpp:425] inception_5b/5x5_reduce <- inception_5a/output_inception_5a/output_0_split_2
I0403 15:32:10.296200 32079 net.cpp:399] inception_5b/5x5_reduce -> inception_5b/5x5_reduce
I0403 15:32:10.297457 32079 net.cpp:141] Setting up inception_5b/5x5_reduce
I0403 15:32:10.297484 32079 net.cpp:148] Top shape: 24 48 7 7 (56448)
I0403 15:32:10.297498 32079 net.cpp:156] Memory required for data: 1334499360
I0403 15:32:10.297516 32079 layer_factory.hpp:77] Creating layer inception_5b/relu_5x5_reduce
I0403 15:32:10.297536 32079 net.cpp:91] Creating Layer inception_5b/relu_5x5_reduce
I0403 15:32:10.297561 32079 net.cpp:425] inception_5b/relu_5x5_reduce <- inception_5b/5x5_reduce
I0403 15:32:10.297579 32079 net.cpp:386] inception_5b/relu_5x5_reduce -> inception_5b/5x5_reduce (in-place)
I0403 15:32:10.297952 32079 net.cpp:141] Setting up inception_5b/relu_5x5_reduce
I0403 15:32:10.297977 32079 net.cpp:148] Top shape: 24 48 7 7 (56448)
I0403 15:32:10.297992 32079 net.cpp:156] Memory required for data: 1334725152
I0403 15:32:10.298007 32079 layer_factory.hpp:77] Creating layer inception_5b/5x5
I0403 15:32:10.298027 32079 net.cpp:91] Creating Layer inception_5b/5x5
I0403 15:32:10.298044 32079 net.cpp:425] inception_5b/5x5 <- inception_5b/5x5_reduce
I0403 15:32:10.298063 32079 net.cpp:399] inception_5b/5x5 -> inception_5b/5x5
I0403 15:32:10.300088 32079 net.cpp:141] Setting up inception_5b/5x5
I0403 15:32:10.300117 32079 net.cpp:148] Top shape: 24 128 7 7 (150528)
I0403 15:32:10.300133 32079 net.cpp:156] Memory required for data: 1335327264
I0403 15:32:10.300151 32079 layer_factory.hpp:77] Creating layer inception_5b/relu_5x5
I0403 15:32:10.300169 32079 net.cpp:91] Creating Layer inception_5b/relu_5x5
I0403 15:32:10.300186 32079 net.cpp:425] inception_5b/relu_5x5 <- inception_5b/5x5
I0403 15:32:10.300204 32079 net.cpp:386] inception_5b/relu_5x5 -> inception_5b/5x5 (in-place)
I0403 15:32:10.300398 32079 net.cpp:141] Setting up inception_5b/relu_5x5
I0403 15:32:10.300425 32079 net.cpp:148] Top shape: 24 128 7 7 (150528)
I0403 15:32:10.300439 32079 net.cpp:156] Memory required for data: 1335929376
I0403 15:32:10.300453 32079 layer_factory.hpp:77] Creating layer inception_5b/pool
I0403 15:32:10.300472 32079 net.cpp:91] Creating Layer inception_5b/pool
I0403 15:32:10.300487 32079 net.cpp:425] inception_5b/pool <- inception_5a/output_inception_5a/output_0_split_3
I0403 15:32:10.300506 32079 net.cpp:399] inception_5b/pool -> inception_5b/pool
I0403 15:32:10.300576 32079 net.cpp:141] Setting up inception_5b/pool
I0403 15:32:10.300601 32079 net.cpp:148] Top shape: 24 832 7 7 (978432)
I0403 15:32:10.300616 32079 net.cpp:156] Memory required for data: 1339843104
I0403 15:32:10.300631 32079 layer_factory.hpp:77] Creating layer inception_5b/pool_proj
I0403 15:32:10.300649 32079 net.cpp:91] Creating Layer inception_5b/pool_proj
I0403 15:32:10.300667 32079 net.cpp:425] inception_5b/pool_proj <- inception_5b/pool
I0403 15:32:10.300686 32079 net.cpp:399] inception_5b/pool_proj -> inception_5b/pool_proj
I0403 15:32:10.302973 32079 net.cpp:141] Setting up inception_5b/pool_proj
I0403 15:32:10.303001 32079 net.cpp:148] Top shape: 24 128 7 7 (150528)
I0403 15:32:10.303016 32079 net.cpp:156] Memory required for data: 1340445216
I0403 15:32:10.303035 32079 layer_factory.hpp:77] Creating layer inception_5b/relu_pool_proj
I0403 15:32:10.303055 32079 net.cpp:91] Creating Layer inception_5b/relu_pool_proj
I0403 15:32:10.303071 32079 net.cpp:425] inception_5b/relu_pool_proj <- inception_5b/pool_proj
I0403 15:32:10.303088 32079 net.cpp:386] inception_5b/relu_pool_proj -> inception_5b/pool_proj (in-place)
I0403 15:32:10.303383 32079 net.cpp:141] Setting up inception_5b/relu_pool_proj
I0403 15:32:10.303409 32079 net.cpp:148] Top shape: 24 128 7 7 (150528)
I0403 15:32:10.303423 32079 net.cpp:156] Memory required for data: 1341047328
I0403 15:32:10.303438 32079 layer_factory.hpp:77] Creating layer inception_5b/output
I0403 15:32:10.303457 32079 net.cpp:91] Creating Layer inception_5b/output
I0403 15:32:10.303486 32079 net.cpp:425] inception_5b/output <- inception_5b/1x1
I0403 15:32:10.303504 32079 net.cpp:425] inception_5b/output <- inception_5b/3x3
I0403 15:32:10.303521 32079 net.cpp:425] inception_5b/output <- inception_5b/5x5
I0403 15:32:10.303537 32079 net.cpp:425] inception_5b/output <- inception_5b/pool_proj
I0403 15:32:10.303555 32079 net.cpp:399] inception_5b/output -> inception_5b/output
I0403 15:32:10.303607 32079 net.cpp:141] Setting up inception_5b/output
I0403 15:32:10.303630 32079 net.cpp:148] Top shape: 24 1024 7 7 (1204224)
I0403 15:32:10.303644 32079 net.cpp:156] Memory required for data: 1345864224
I0403 15:32:10.303659 32079 layer_factory.hpp:77] Creating layer pool5/7x7_s1
I0403 15:32:10.303676 32079 net.cpp:91] Creating Layer pool5/7x7_s1
I0403 15:32:10.303691 32079 net.cpp:425] pool5/7x7_s1 <- inception_5b/output
I0403 15:32:10.303710 32079 net.cpp:399] pool5/7x7_s1 -> pool5/7x7_s1
I0403 15:32:10.303920 32079 net.cpp:141] Setting up pool5/7x7_s1
I0403 15:32:10.303944 32079 net.cpp:148] Top shape: 24 1024 1 1 (24576)
I0403 15:32:10.303958 32079 net.cpp:156] Memory required for data: 1345962528
I0403 15:32:10.303972 32079 layer_factory.hpp:77] Creating layer pool5/drop_7x7_s1
I0403 15:32:10.303992 32079 net.cpp:91] Creating Layer pool5/drop_7x7_s1
I0403 15:32:10.304009 32079 net.cpp:425] pool5/drop_7x7_s1 <- pool5/7x7_s1
I0403 15:32:10.304026 32079 net.cpp:386] pool5/drop_7x7_s1 -> pool5/7x7_s1 (in-place)
I0403 15:32:10.304076 32079 net.cpp:141] Setting up pool5/drop_7x7_s1
I0403 15:32:10.304098 32079 net.cpp:148] Top shape: 24 1024 1 1 (24576)
I0403 15:32:10.304112 32079 net.cpp:156] Memory required for data: 1346060832
I0403 15:32:10.304127 32079 layer_factory.hpp:77] Creating layer loss3/classifier_plantvillage
I0403 15:32:10.304147 32079 net.cpp:91] Creating Layer loss3/classifier_plantvillage
I0403 15:32:10.304163 32079 net.cpp:425] loss3/classifier_plantvillage <- pool5/7x7_s1
I0403 15:32:10.304182 32079 net.cpp:399] loss3/classifier_plantvillage -> loss3/classifier_plantvillage
I0403 15:32:10.304620 32079 net.cpp:141] Setting up loss3/classifier_plantvillage
I0403 15:32:10.304646 32079 net.cpp:148] Top shape: 24 38 (912)
I0403 15:32:10.304659 32079 net.cpp:156] Memory required for data: 1346064480
I0403 15:32:10.304677 32079 layer_factory.hpp:77] Creating layer loss3/classifier_plantvillage_loss3/classifier_plantvillage_0_split
I0403 15:32:10.304695 32079 net.cpp:91] Creating Layer loss3/classifier_plantvillage_loss3/classifier_plantvillage_0_split
I0403 15:32:10.304710 32079 net.cpp:425] loss3/classifier_plantvillage_loss3/classifier_plantvillage_0_split <- loss3/classifier_plantvillage
I0403 15:32:10.304730 32079 net.cpp:399] loss3/classifier_plantvillage_loss3/classifier_plantvillage_0_split -> loss3/classifier_plantvillage_loss3/classifier_plantvillage_0_split_0
I0403 15:32:10.304750 32079 net.cpp:399] loss3/classifier_plantvillage_loss3/classifier_plantvillage_0_split -> loss3/classifier_plantvillage_loss3/classifier_plantvillage_0_split_1
I0403 15:32:10.304770 32079 net.cpp:399] loss3/classifier_plantvillage_loss3/classifier_plantvillage_0_split -> loss3/classifier_plantvillage_loss3/classifier_plantvillage_0_split_2
I0403 15:32:10.304790 32079 net.cpp:399] loss3/classifier_plantvillage_loss3/classifier_plantvillage_0_split -> loss3/classifier_plantvillage_loss3/classifier_plantvillage_0_split_3
I0403 15:32:10.304893 32079 net.cpp:141] Setting up loss3/classifier_plantvillage_loss3/classifier_plantvillage_0_split
I0403 15:32:10.304915 32079 net.cpp:148] Top shape: 24 38 (912)
I0403 15:32:10.304931 32079 net.cpp:148] Top shape: 24 38 (912)
I0403 15:32:10.304945 32079 net.cpp:148] Top shape: 24 38 (912)
I0403 15:32:10.304960 32079 net.cpp:148] Top shape: 24 38 (912)
I0403 15:32:10.304975 32079 net.cpp:156] Memory required for data: 1346079072
I0403 15:32:10.304988 32079 layer_factory.hpp:77] Creating layer loss1/loss
I0403 15:32:10.305008 32079 net.cpp:91] Creating Layer loss1/loss
I0403 15:32:10.305024 32079 net.cpp:425] loss1/loss <- loss1/classifier_plantvillage_loss1/classifier_plantvillage_0_split_0
I0403 15:32:10.305053 32079 net.cpp:425] loss1/loss <- label_data_1_split_0
…
