…
I0403 15:22:08.011829 31529 net.cpp:313] The NetState phase (1) differed from the phase (0) specified by a rule in layer data
I0403 15:22:08.012946 31529 net.cpp:49] Initializing net from parameters: 
state {
  phase: TEST
}
layer {
  name: "data"
  type: "Data"
  top: "data"
  top: "label"
  include {
    phase: TEST
  }
  transform_param {
    mirror: false
    crop_size: 224
    mean_file: "/home/mohanty/data/final_dataset/lmdb/color-60-40/mean.binaryproto"
  }
  data_param {
    source: "/home/mohanty/data/final_dataset/lmdb/color-60-40/test_db"
    batch_size: 24
    backend: LMDB
  }
}
layer {
  name: "conv1/7x7_s2"
  type: "Convolution"
  bottom: "data"
  top: "conv1/7x7_s2"
  param {
    lr_mult: 1
    decay_mult: 1
  }
  param {
    lr_mult: 2
    decay_mult: 0
  }
  convolution_param {
    num_output: 64
    pad: 3
    kernel_size: 7
    stride: 2
    weight_filler {
      type: "xavier"
      std: 0.1
    }
    bias_filler {
      type: "constant"
      value: 0.2
    }
  }
}
layer {
  name: "conv1/relu_7x7"
  type: "ReLU"
  bottom: "conv1/7x7_s2"
  top: "conv1/7x7_s2"
}
layer {
  name: "pool1/3x3_s2"
  type: "Pooling"
  bottom: "conv1/7x7_s2"
  top: "pool1/3x3_s2"
  pooling_param {
    pool: MAX
    kernel_size: 3
    stride: 2
  }
}
layer {
  name: "pool1/norm1"
  type: "LRN"
  bottom: "pool1/3x3_s2"
  top: "pool1/norm1"
  lrn_param {
    local_size: 5
    alpha: 0.0001
    beta: 0.75
  }
}
layer {
  name: "conv2/3x3_reduce"
  type: "Convolution"
  bottom: "pool1/norm1"
  top: "conv2/3x3_reduce"
  param {
    lr_mult: 1
    decay_mult: 1
  }
  param {
    lr_mult: 2
    decay_mult: 0
  }
  convolution_param {
    num_output: 64
    kernel_size: 1
    weight_filler {
      type: "xavier"
      std: 0.1
    }
    bias_filler {
      type: "constant"
      value: 0.2
    }
  }
}
layer {
  name: "conv2/relu_3x3_reduce"
  type: "ReLU"
  bottom: "conv2/3x3_reduce"
  top: "conv2/3x3_reduce"
}
layer {
  name: "conv2/3x3"
  type: "Convolution"
  bottom: "conv2/3x3_reduce"
  top: "conv2/3x3"
  param {
    lr_mult: 1
    decay_mult: 1
  }
  param {
    lr_mult: 2
    decay_mult: 0
  }
  convolution_param {
    num_output: 192
    pad: 1
    kernel_size: 3
    weight_filler {
      type: "xavier"
      std: 0.03
    }
    bias_filler {
      type: "constant"
      value: 0.2
    }
  }
}
layer {
  name: "conv2/relu_3x3"
  type: "ReLU"
  bottom: "conv2/3x3"
  top: "conv2/3x3"
}
layer {
  name: "conv2/norm2"
  type: "LRN"
  bottom: "conv2/3x3"
  top: "conv2/norm2"
  lrn_param {
    local_size: 5
    alpha: 0.0001
    beta: 0.75
  }
}
layer {
  name: "pool2/3x3_s2"
  type: "Pooling"
  bottom: "conv2/norm2"
  top: "pool2/3x3_s2"
  pooling_param {
    pool: MAX
    kernel_size: 3
    stride: 2
  }
}
layer {
  name: "inception_3a/1x1"
  type: "Convolution"
  bottom: "pool2/3x3_s2"
  top: "inception_3a/1x1"
  param {
    lr_mult: 1
    decay_mult: 1
  }
  param {
    lr_mult: 2
    decay_mult: 0
  }
  convolution_param {
    num_output: 64
    kernel_size: 1
    weight_filler {
      type: "xavier"
      std: 0.03
    }
    bias_filler {
      type: "constant"
      value: 0.2
    }
  }
}
layer {
  name: "inception_3a/relu_1x1"
  type: "ReLU"
  bottom: "inception_3a/1x1"
  top: "inception_3a/1x1"
}
layer {
  name: "inception_3a/3x3_reduce"
  type: "Convolution"
  bottom: "pool2/3x3_s2"
  top: "inception_3a/3x3_reduce"
  param {
    lr_mult: 1
    decay_mult: 1
  }
  param {
    lr_mult: 2
    decay_mult: 0
  }
  convolution_param {
    num_output: 96
    kernel_size: 1
    weight_filler {
      type: "xavier"
      std: 0.09
    }
    bias_filler {
      type: "constant"
      value: 0.2
    }
  }
}
layer {
  name: "inception_3a/relu_3x3_reduce"
  type: "ReLU"
  bottom: "inception_3a/3x3_reduce"
  top: "inception_3a/3x3_reduce"
}
layer {
  name: "inception_3a/3x3"
  type: "Convolution"
  bottom: "inception_3a/3x3_reduce"
  top: "inception_3a/3x3"
  param {
    lr_mult: 1
    decay_mult: 1
  }
  param {
    lr_mult: 2
    decay_mult: 0
  }
  convolution_param {
    num_output: 128
    pad: 1
    kernel_size: 3
    weight_filler {
      type: "xavier"
      std: 0.03
    }
    bias_filler {
      type: "constant"
      value: 0.2
    }
  }
}
layer {
  name: "inception_3a/relu_3x3"
  type: "ReLU"
  bottom: "inception_3a/3x3"
  top: "inception_3a/3x3"
}
layer {
  name: "inception_3a/5x5_reduce"
  type: "Convolution"
  bottom: "pool2/3x3_s2"
  top: "inception_3a/5x5_reduce"
  param {
    lr_mult: 1
    decay_mult: 1
  }
  param {
    lr_mult: 2
    decay_mult: 0
  }
  convolution_param {
    num_output: 16
    kernel_size: 1
    weight_filler {
      type: "xavier"
      std: 0.2
    }
    bias_filler {
      type: "constant"
      value: 0.2
    }
  }
}
layer {
  name: "inception_3a/relu_5x5_reduce"
  type: "ReLU"
  bottom: "inception_3a/5x5_reduce"
  top: "inception_3a/5x5_reduce"
}
layer {
  name: "inception_3a/5x5"
  type: "Convolution"
  bottom: "inception_3a/5x5_reduce"
  top: "inception_3a/5x5"
  param {
    lr_mult: 1
    decay_mult: 1
  }
  param {
    lr_mult: 2
    decay_mult: 0
  }
  convolution_param {
    num_output: 32
    pad: 2
    kernel_size: 5
    weight_filler {
      type: "xavier"
      std: 0.03
    }
    bias_filler {
      type: "constant"
      value: 0.2
    }
  }
}
layer {
  name: "inception_3a/relu_5x5"
  type: "ReLU"
  bottom: "inception_3a/5x5"
  top: "inception_3a/5x5"
}
layer {
  name: "inception_3a/pool"
  type: "Pooling"
  bottom: "pool2/3x3_s2"
  top: "inception_3a/pool"
  pooling_param {
    pool: MAX
    kernel_size: 3
    stride: 1
    pad: 1
  }
}
layer {
  name: "inception_3a/pool_proj"
  type: "Convolution"
  bottom: "inception_3a/pool"
  top: "inception_3a/pool_proj"
  param {
    lr_mult: 1
    decay_mult: 1
  }
  param {
    lr_mult: 2
    decay_mult: 0
  }
  convolution_param {
    num_output: 32
    kernel_size: 1
    weight_filler {
      type: "xavier"
      std: 0.1
    }
    bias_filler {
      type: "constant"
      value: 0.2
    }
  }
}
layer {
  name: "inception_3a/relu_pool_proj"
  type: "ReLU"
  bottom: "inception_3a/pool_proj"
  top: "inception_3a/pool_proj"
}
layer {
  name: "inception_3a/output"
  type: "Concat"
  bottom: "inception_3a/1x1"
  bottom: "inception_3a/3x3"
  bottom: "inception_3a/5x5"
  bottom: "inception_3a/pool_proj"
  top: "inception_3a/output"
}
layer {
  name: "inception_3b/1x1"
  type: "Convolution"
  bottom: "inception_3a/output"
  top: "inception_3b/1x1"
  param {
    lr_mult: 1
    decay_mult: 1
  }
  param {
    lr_mult: 2
    decay_mult: 0
  }
  convolution_param {
    num_output: 128
    kernel_size: 1
    weight_filler {
      type: "xavier"
      std: 0.03
    }
    bias_filler {
      type: "constant"
      value: 0.2
    }
  }
}
layer {
  name: "inception_3b/relu_1x1"
  type: "ReLU"
  bottom: "inception_3b/1x1"
  top: "inception_3b/1x1"
}
layer {
  name: "inception_3b/3x3_reduce"
  type: "Convolution"
  bottom: "inception_3a/output"
  top: "inception_3b/3x3_reduce"
  param {
    lr_mult: 1
    decay_mult: 1
  }
  param {
    lr_mult: 2
    decay_mult: 0
  }
  convolution_param {
    num_output: 128
    kernel_size: 1
    weight_filler {
      type: "xavier"
      std: 0.09
    }
    bias_filler {
      type: "constant"
      value: 0.2
    }
  }
}
layer {
  name: "inception_3b/relu_3x3_reduce"
  type: "ReLU"
  bottom: "inception_3b/3x3_reduce"
  top: "inception_3b/3x3_reduce"
}
layer {
  name: "inception_3b/3x3"
  type: "Convolution"
  bottom: "inception_3b/3x3_reduce"
  top: "inception_3b/3x3"
  param {
    lr_mult: 1
    decay_mult: 1
  }
  param {
    lr_mult: 2
    decay_mult: 0
  }
  convolution_param {
    num_output: 192
    pad: 1
    kernel_size: 3
    weight_filler {
      type: "xavier"
      std: 0.03
    }
    bias_filler {
      type: "constant"
      value: 0.2
    }
  }
}
layer {
  name: "inception_3b/relu_3x3"
  type: "ReLU"
  bottom: "inception_3b/3x3"
  top: "inception_3b/3x3"
}
layer {
  name: "inception_3b/5x5_reduce"
  type: "Convolution"
  bottom: "inception_3a/output"
  top: "inception_3b/5x5_reduce"
  param {
    lr_mult: 1
    decay_mult: 1
  }
  param {
    lr_mult: 2
    decay_mult: 0
  }
  convolution_param {
    num_output: 32
    kernel_size: 1
    weight_filler {
      type: "xavier"
      std: 0.2
    }
    bias_filler {
      type: "constant"
      value: 0.2
    }
  }
}
layer {
  name: "inception_3b/relu_5x5_reduce"
  type: "ReLU"
  bottom: "inception_3b/5x5_reduce"
  top: "inception_3b/5x5_reduce"
}
layer {
  name: "inception_3b/5x5"
  type: "Convolution"
  bottom: "inception_3b/5x5_reduce"
  top: "inception_3b/5x5"
  param {
    lr_mult: 1
    decay_mult: 1
  }
  param {
    lr_mult: 2
    decay_mult: 0
  }
  convolution_param {
    num_output: 96
    pad: 2
    kernel_size: 5
    weight_filler {
      type: "xavier"
      std: 0.03
    }
    bias_filler {
      type: "constant"
      value: 0.2
    }
  }
}
layer {
  name: "inception_3b/relu_5x5"
  type: "ReLU"
  bottom: "inception_3b/5x5"
  top: "inception_3b/5x5"
}
layer {
  name: "inception_3b/pool"
  type: "Pooling"
  bottom: "inception_3a/output"
  top: "inception_3b/pool"
  pooling_param {
    pool: MAX
    kernel_size: 3
    stride: 1
    pad: 1
  }
}
layer {
  name: "inception_3b/pool_proj"
  type: "Convolution"
  bottom: "inception_3b/pool"
  top: "inception_3b/pool_proj"
  param {
    lr_mult: 1
    decay_mult: 1
  }
  param {
    lr_mult: 2
    decay_mult: 0
  }
  convolution_param {
    num_output: 64
    kernel_size: 1
    weight_filler {
      type: "xavier"
      std: 0.1
    }
    bias_filler {
      type: "constant"
      value: 0.2
    }
  }
}
layer {
  name: "inception_3b/relu_pool_proj"
  type: "ReLU"
  bottom: "inception_3b/pool_proj"
  top: "inception_3b/pool_proj"
}
layer {
  name: "inception_3b/output"
  type: "Concat"
  bottom: "inception_3b/1x1"
  bottom: "inception_3b/3x3"
  bottom: "inception_3b/5x5"
  bottom: "inception_3b/pool_proj"
  top: "inception_3b/output"
}
layer {
  name: "pool3/3x3_s2"
  type: "Pooling"
  bottom: "inception_3b/output"
  top: "pool3/3x3_s2"
  pooling_param {
    pool: MAX
    kernel_size: 3
    stride: 2
  }
}
layer {
  name: "inception_4a/1x1"
  type: "Convolution"
  bottom: "pool3/3x3_s2"
  top: "inception_4a/1x1"
  param {
    lr_mult: 1
    decay_mult: 1
  }
  param {
    lr_mult: 2
    decay_mult: 0
  }
  convolution_param {
    num_output: 192
    kernel_size: 1
    weight_filler {
      type: "xavier"
      std: 0.03
    }
    bias_filler {
      type: "constant"
      value: 0.2
    }
  }
}
layer {
  name: "inception_4a/relu_1x1"
  type: "ReLU"
  bottom: "inception_4a/1x1"
  top: "inception_4a/1x1"
}
layer {
  name: "inception_4a/3x3_reduce"
  type: "Convolution"
  bottom: "pool3/3x3_s2"
  top: "inception_4a/3x3_reduce"
  param {
    lr_mult: 1
    decay_mult: 1
  }
  param {
    lr_mult: 2
    decay_mult: 0
  }
  convolution_param {
    num_output: 96
    kernel_size: 1
    weight_filler {
      type: "xavier"
      std: 0.09
    }
    bias_filler {
      type: "constant"
      value: 0.2
    }
  }
}
layer {
  name: "inception_4a/relu_3x3_reduce"
  type: "ReLU"
  bottom: "inception_4a/3x3_reduce"
  top: "inception_4a/3x3_reduce"
}
layer {
  name: "inception_4a/3x3"
  type: "Convolution"
  bottom: "inception_4a/3x3_reduce"
  top: "inception_4a/3x3"
  param {
    lr_mult: 1
    decay_mult: 1
  }
  param {
    lr_mult: 2
    decay_mult: 0
  }
  convolution_param {
    num_output: 208
    pad: 1
    kernel_size: 3
    weight_filler {
      type: "xavier"
      std: 0.03
    }
    bias_filler {
      type: "constant"
      value: 0.2
    }
  }
}
layer {
  name: "inception_4a/relu_3x3"
  type: "ReLU"
  bottom: "inception_4a/3x3"
  top: "inception_4a/3x3"
}
layer {
  name: "inception_4a/5x5_reduce"
  type: "Convolution"
  bottom: "pool3/3x3_s2"
  top: "inception_4a/5x5_reduce"
  param {
    lr_mult: 1
    decay_mult: 1
  }
  param {
    lr_mult: 2
    decay_mult: 0
  }
  convolution_param {
    num_output: 16
    kernel_size: 1
    weight_filler {
      type: "xavier"
      std: 0.2
    }
    bias_filler {
      type: "constant"
      value: 0.2
    }
  }
}
layer {
  name: "inception_4a/relu_5x5_reduce"
  type: "ReLU"
  bottom: "inception_4a/5x5_reduce"
  top: "inception_4a/5x5_reduce"
}
layer {
  name: "inception_4a/5x5"
  type: "Convolution"
  bottom: "inception_4a/5x5_reduce"
  top: "inception_4a/5x5"
  param {
    lr_mult: 1
    decay_mult: 1
  }
  param {
    lr_mult: 2
    decay_mult: 0
  }
  convolution_param {
    num_output: 48
    pad: 2
    kernel_size: 5
    weight_filler {
      type: "xavier"
      std: 0.03
    }
    bias_filler {
      type: "constant"
      value: 0.2
    }
  }
}
layer {
  name: "inception_4a/relu_5x5"
  type: "ReLU"
  bottom: "inception_4a/5x5"
  top: "inception_4a/5x5"
}
layer {
  name: "inception_4a/pool"
  type: "Pooling"
  bottom: "pool3/3x3_s2"
  top: "inception_4a/pool"
  pooling_param {
    pool: MAX
    kernel_size: 3
    stride: 1
    pad: 1
  }
}
layer {
  name: "inception_4a/pool_proj"
  type: "Convolution"
  bottom: "inception_4a/pool"
  top: "inception_4a/pool_proj"
  param {
    lr_mult: 1
    decay_mult: 1
  }
  param {
    lr_mult: 2
    decay_mult: 0
  }
  convolution_param {
    num_output: 64
    kernel_size: 1
    weight_filler {
      type: "xavier"
      std: 0.1
    }
    bias_filler {
      type: "constant"
      value: 0.2
    }
  }
}
layer {
  name: "inception_4a/relu_pool_proj"
  type: "ReLU"
  bottom: "inception_4a/pool_proj"
  top: "inception_4a/pool_proj"
}
layer {
  name: "inception_4a/output"
  type: "Concat"
  bottom: "inception_4a/1x1"
  bottom: "inception_4a/3x3"
  bottom: "inception_4a/5x5"
  bottom: "inception_4a/pool_proj"
  top: "inception_4a/output"
}
layer {
  name: "loss1/ave_pool"
  type: "Pooling"
  bottom: "inception_4a/output"
  top: "loss1/ave_pool"
  pooling_param {
    pool: AVE
    kernel_size: 5
    stride: 3
  }
}
layer {
  name: "loss1/conv"
  type: "Convolution"
  bottom: "loss1/ave_pool"
  top: "loss1/conv"
  param {
    lr_mult: 1
    decay_mult: 1
  }
  param {
    lr_mult: 2
    decay_mult: 0
  }
  convolution_param {
    num_output: 128
    kernel_size: 1
    weight_filler {
      type: "xavier"
      std: 0.08
    }
    bias_filler {
      type: "constant"
      value: 0.2
    }
  }
}
layer {
  name: "loss1/relu_conv"
  type: "ReLU"
  bottom: "loss1/conv"
  top: "loss1/conv"
}
layer {
  name: "loss1/fc"
  type: "InnerProduct"
  bottom: "loss1/conv"
  top: "loss1/fc"
  param {
    lr_mult: 1
    decay_mult: 1
  }
  param {
    lr_mult: 2
    decay_mult: 0
  }
  inner_product_param {
    num_output: 1024
    weight_filler {
      type: "xavier"
      std: 0.02
    }
    bias_filler {
      type: "constant"
      value: 0.2
    }
  }
}
layer {
  name: "loss1/relu_fc"
  type: "ReLU"
  bottom: "loss1/fc"
  top: "loss1/fc"
}
layer {
  name: "loss1/drop_fc"
  type: "Dropout"
  bottom: "loss1/fc"
  top: "loss1/fc"
  dropout_param {
    dropout_ratio: 0.7
  }
}
layer {
  name: "loss1/classifier_plantvillage"
  type: "InnerProduct"
  bottom: "loss1/fc"
  top: "loss1/classifier_plantvillage"
  param {
    lr_mult: 1
    decay_mult: 1
  }
  param {
    lr_mult: 2
    decay_mult: 0
  }
  inner_product_param {
    num_output: 38
    weight_filler {
      type: "xavier"
      std: 0.0009765625
    }
    bias_filler {
      type: "constant"
      value: 0
    }
  }
}
layer {
  name: "inception_4b/1x1"
  type: "Convolution"
  bottom: "inception_4a/output"
  top: "inception_4b/1x1"
  param {
    lr_mult: 1
    decay_mult: 1
  }
  param {
    lr_mult: 2
    decay_mult: 0
  }
  convolution_param {
    num_output: 160
    kernel_size: 1
    weight_filler {
      type: "xavier"
      std: 0.03
    }
    bias_filler {
      type: "constant"
      value: 0.2
    }
  }
}
layer {
  name: "inception_4b/relu_1x1"
  type: "ReLU"
  bottom: "inception_4b/1x1"
  top: "inception_4b/1x1"
}
layer {
  name: "inception_4b/3x3_reduce"
  type: "Convolution"
  bottom: "inception_4a/output"
  top: "inception_4b/3x3_reduce"
  param {
    lr_mult: 1
    decay_mult: 1
  }
  param {
    lr_mult: 2
    decay_mult: 0
  }
  convolution_param {
    num_output: 112
    kernel_size: 1
    weight_filler {
      type: "xavier"
      std: 0.09
    }
    bias_filler {
      type: "constant"
      value: 0.2
    }
  }
}
layer {
  name: "inception_4b/relu_3x3_reduce"
  type: "ReLU"
  bottom: "inception_4b/3x3_reduce"
  top: "inception_4b/3x3_reduce"
}
layer {
  name: "inception_4b/3x3"
  type: "Convolution"
  bottom: "inception_4b/3x3_reduce"
  top: "inception_4b/3x3"
  param {
    lr_mult: 1
    decay_mult: 1
  }
  param {
    lr_mult: 2
    decay_mult: 0
  }
  convolution_param {
    num_output: 224
    pad: 1
    kernel_size: 3
    weight_filler {
      type: "xavier"
      std: 0.03
    }
    bias_filler {
      type: "constant"
      value: 0.2
    }
  }
}
layer {
  name: "inception_4b/relu_3x3"
  type: "ReLU"
  bottom: "inception_4b/3x3"
  top: "inception_4b/3x3"
}
layer {
  name: "inception_4b/5x5_reduce"
  type: "Convolution"
  bottom: "inception_4a/output"
  top: "inception_4b/5x5_reduce"
  param {
    lr_mult: 1
    decay_mult: 1
  }
  param {
    lr_mult: 2
    decay_mult: 0
  }
  convolution_param {
    num_output: 24
    kernel_size: 1
    weight_filler {
      type: "xavier"
      std: 0.2
    }
    bias_filler {
      type: "constant"
      value: 0.2
    }
  }
}
layer {
  name: "inception_4b/relu_5x5_reduce"
  type: "ReLU"
  bottom: "inception_4b/5x5_reduce"
  top: "inception_4b/5x5_reduce"
}
layer {
  name: "inception_4b/5x5"
  type: "Convolution"
  bottom: "inception_4b/5x5_reduce"
  top: "inception_4b/5x5"
  param {
    lr_mult: 1
    decay_mult: 1
  }
  param {
    lr_mult: 2
    decay_mult: 0
  }
  convolution_param {
    num_output: 64
    pad: 2
    kernel_size: 5
    weight_filler {
      type: "xavier"
      std: 0.03
    }
    bias_filler {
      type: "constant"
      value: 0.2
    }
  }
}
layer {
  name: "inception_4b/relu_5x5"
  type: "ReLU"
  bottom: "inception_4b/5x5"
  top: "inception_4b/5x5"
}
layer {
  name: "inception_4b/pool"
  type: "Pooling"
  bottom: "inception_4a/output"
  top: "inception_4b/pool"
  pooling_param {
    pool: MAX
    kernel_size: 3
    stride: 1
    pad: 1
  }
}
layer {
  name: "inception_4b/pool_proj"
  type: "Convolution"
  bottom: "inception_4b/pool"
  top: "inception_4b/pool_proj"
  param {
    lr_mult: 1
    decay_mult: 1
  }
  param {
    lr_mult: 2
    decay_mult: 0
  }
  convolution_param {
    num_output: 64
    kernel_size: 1
    weight_filler {
      type: "xavier"
      std: 0.1
    }
    bias_filler {
      type: "constant"
      value: 0.2
    }
  }
}
layer {
  name: "inception_4b/relu_pool_proj"
  type: "ReLU"
  bottom: "inception_4b/pool_proj"
  top: "inception_4b/pool_proj"
}
layer {
  name: "inception_4b/output"
  type: "Concat"
  bottom: "inception_4b/1x1"
  bottom: "inception_4b/3x3"
  bottom: "inception_4b/5x5"
  bottom: "inception_4b/pool_proj"
  top: "inception_4b/output"
}
layer {
  name: "inception_4c/1x1"
  type: "Convolution"
  bottom: "inception_4b/output"
  top: "inception_4c/1x1"
  param {
    lr_mult: 1
    decay_mult: 1
  }
  param {
    lr_mult: 2
    decay_mult: 0
  }
  convolution_param {
    num_output: 128
    kernel_size: 1
    weight_filler {
      type: "xavier"
      std: 0.03
    }
    bias_filler {
      type: "constant"
      value: 0.2
    }
  }
}
layer {
  name: "inception_4c/relu_1x1"
  type: "ReLU"
  bottom: "inception_4c/1x1"
  top: "inception_4c/1x1"
}
layer {
  name: "inception_4c/3x3_reduce"
  type: "Convolution"
  bottom: "inception_4b/output"
  top: "inception_4c/3x3_reduce"
  param {
    lr_mult: 1
    decay_mult: 1
  }
  param {
    lr_mult: 2
    decay_mult: 0
  }
  convolution_param {
    num_output: 128
    kernel_size: 1
    weight_filler {
      type: "xavier"
      std: 0.09
    }
    bias_filler {
      type: "constant"
      value: 0.2
    }
  }
}
layer {
  name: "inception_4c/relu_3x3_reduce"
  type: "ReLU"
  bottom: "inception_4c/3x3_reduce"
  top: "inception_4c/3x3_reduce"
}
layer {
  name: "inception_4c/3x3"
  type: "Convolution"
  bottom: "inception_4c/3x3_reduce"
  top: "inception_4c/3x3"
  param {
    lr_mult: 1
    decay_mult: 1
  }
  param {
    lr_mult: 2
    decay_mult: 0
  }
  convolution_param {
    num_output: 256
    pad: 1
    kernel_size: 3
    weight_filler {
      type: "xavier"
      std: 0.03
    }
    bias_filler {
      type: "constant"
      value: 0.2
    }
  }
}
layer {
  name: "inception_4c/relu_3x3"
  type: "ReLU"
  bottom: "inception_4c/3x3"
  top: "inception_4c/3x3"
}
layer {
  name: "inception_4c/5x5_reduce"
  type: "Convolution"
  bottom: "inception_4b/output"
  top: "inception_4c/5x5_reduce"
  param {
    lr_mult: 1
    decay_mult: 1
  }
  param {
    lr_mult: 2
    decay_mult: 0
  }
  convolution_param {
    num_output: 24
    kernel_size: 1
    weight_filler {
      type: "xavier"
      std: 0.2
    }
    bias_filler {
      type: "constant"
      value: 0.2
    }
  }
}
layer {
  name: "inception_4c/relu_5x5_reduce"
  type: "ReLU"
  bottom: "inception_4c/5x5_reduce"
  top: "inception_4c/5x5_reduce"
}
layer {
  name: "inception_4c/5x5"
  type: "Convolution"
  bottom: "inception_4c/5x5_reduce"
  top: "inception_4c/5x5"
  param {
    lr_mult: 1
    decay_mult: 1
  }
  param {
    lr_mult: 2
    decay_mult: 0
  }
  convolution_param {
    num_output: 64
    pad: 2
    kernel_size: 5
    weight_filler {
      type: "xavier"
      std: 0.03
    }
    bias_filler {
      type: "constant"
      value: 0.2
    }
  }
}
layer {
  name: "inception_4c/relu_5x5"
  type: "ReLU"
  bottom: "inception_4c/5x5"
  top: "inception_4c/5x5"
}
layer {
  name: "inception_4c/pool"
  type: "Pooling"
  bottom: "inception_4b/output"
  top: "inception_4c/pool"
  pooling_param {
    pool: MAX
    kernel_size: 3
    stride: 1
    pad: 1
  }
}
layer {
  name: "inception_4c/pool_proj"
  type: "Convolution"
  bottom: "inception_4c/pool"
  top: "inception_4c/pool_proj"
  param {
    lr_mult: 1
    decay_mult: 1
  }
  param {
    lr_mult: 2
    decay_mult: 0
  }
  convolution_param {
    num_output: 64
    kernel_size: 1
    weight_filler {
      type: "xavier"
      std: 0.1
    }
    bias_filler {
      type: "constant"
      value: 0.2
    }
  }
}
layer {
  name: "inception_4c/relu_pool_proj"
  type: "ReLU"
  bottom: "inception_4c/pool_proj"
  top: "inception_4c/pool_proj"
}
layer {
  name: "inception_4c/output"
  type: "Concat"
  bottom: "inception_4c/1x1"
  bottom: "inception_4c/3x3"
  bottom: "inception_4c/5x5"
  bottom: "inception_4c/pool_proj"
  top: "inception_4c/output"
}
layer {
  name: "inception_4d/1x1"
  type: "Convolution"
  bottom: "inception_4c/output"
  top: "inception_4d/1x1"
  param {
    lr_mult: 1
    decay_mult: 1
  }
  param {
    lr_mult: 2
    decay_mult: 0
  }
  convolution_param {
    num_output: 112
    kernel_size: 1
    weight_filler {
      type: "xavier"
      std: 0.03
    }
    bias_filler {
      type: "constant"
      value: 0.2
    }
  }
}
layer {
  name: "inception_4d/relu_1x1"
  type: "ReLU"
  bottom: "inception_4d/1x1"
  top: "inception_4d/1x1"
}
layer {
  name: "inception_4d/3x3_reduce"
  type: "Convolution"
  bottom: "inception_4c/output"
  top: "inception_4d/3x3_reduce"
  param {
    lr_mult: 1
    decay_mult: 1
  }
  param {
    lr_mult: 2
    decay_mult: 0
  }
  convolution_param {
    num_output: 144
    kernel_size: 1
    weight_filler {
      type: "xavier"
      std: 0.09
    }
    bias_filler {
      type: "constant"
      value: 0.2
    }
  }
}
layer {
  name: "inception_4d/relu_3x3_reduce"
  type: "ReLU"
  bottom: "inception_4d/3x3_reduce"
  top: "inception_4d/3x3_reduce"
}
layer {
  name: "inception_4d/3x3"
  type: "Convolution"
  bottom: "inception_4d/3x3_reduce"
  top: "inception_4d/3x3"
  param {
    lr_mult: 1
    decay_mult: 1
  }
  param {
    lr_mult: 2
    decay_mult: 0
  }
  convolution_param {
    num_output: 288
    pad: 1
    kernel_size: 3
    weight_filler {
      type: "xavier"
      std: 0.03
    }
    bias_filler {
      type: "constant"
      value: 0.2
    }
  }
}
layer {
  name: "inception_4d/relu_3x3"
  type: "ReLU"
  bottom: "inception_4d/3x3"
  top: "inception_4d/3x3"
}
layer {
  name: "inception_4d/5x5_reduce"
  type: "Convolution"
  bottom: "inception_4c/output"
  top: "inception_4d/5x5_reduce"
  param {
    lr_mult: 1
    decay_mult: 1
  }
  param {
    lr_mult: 2
    decay_mult: 0
  }
  convolution_param {
    num_output: 32
    kernel_size: 1
    weight_filler {
      type: "xavier"
      std: 0.2
    }
    bias_filler {
      type: "constant"
      value: 0.2
    }
  }
}
layer {
  name: "inception_4d/relu_5x5_reduce"
  type: "ReLU"
  bottom: "inception_4d/5x5_reduce"
  top: "inception_4d/5x5_reduce"
}
layer {
  name: "inception_4d/5x5"
  type: "Convolution"
  bottom: "inception_4d/5x5_reduce"
  top: "inception_4d/5x5"
  param {
    lr_mult: 1
    decay_mult: 1
  }
  param {
    lr_mult: 2
    decay_mult: 0
  }
  convolution_param {
    num_output: 64
    pad: 2
    kernel_size: 5
    weight_filler {
      type: "xavier"
      std: 0.03
    }
    bias_filler {
      type: "constant"
      value: 0.2
    }
  }
}
layer {
  name: "inception_4d/relu_5x5"
  type: "ReLU"
  bottom: "inception_4d/5x5"
  top: "inception_4d/5x5"
}
layer {
  name: "inception_4d/pool"
  type: "Pooling"
  bottom: "inception_4c/output"
  top: "inception_4d/pool"
  pooling_param {
    pool: MAX
    kernel_size: 3
    stride: 1
    pad: 1
  }
}
layer {
  name: "inception_4d/pool_proj"
  type: "Convolution"
  bottom: "inception_4d/pool"
  top: "inception_4d/pool_proj"
  param {
    lr_mult: 1
    decay_mult: 1
  }
  param {
    lr_mult: 2
    decay_mult: 0
  }
  convolution_param {
    num_output: 64
    kernel_size: 1
    weight_filler {
      type: "xavier"
      std: 0.1
    }
    bias_filler {
      type: "constant"
      value: 0.2
    }
  }
}
layer {
  name: "inception_4d/relu_pool_proj"
  type: "ReLU"
  bottom: "inception_4d/pool_proj"
  top: "inception_4d/pool_proj"
}
layer {
  name: "inception_4d/output"
  type: "Concat"
  bottom: "inception_4d/1x1"
  bottom: "inception_4d/3x3"
  bottom: "inception_4d/5x5"
  bottom: "inception_4d/pool_proj"
  top: "inception_4d/output"
}
layer {
  name: "loss2/ave_pool"
  type: "Pooling"
  bottom: "inception_4d/output"
  top: "loss2/ave_pool"
  pooling_param {
    pool: AVE
    kernel_size: 5
    stride: 3
  }
}
layer {
  name: "loss2/conv"
  type: "Convolution"
  bottom: "loss2/ave_pool"
  top: "loss2/conv"
  param {
    lr_mult: 1
    decay_mult: 1
  }
  param {
    lr_mult: 2
    decay_mult: 0
  }
  convolution_param {
    num_output: 128
    kernel_size: 1
    weight_filler {
      type: "xavier"
      std: 0.08
    }
    bias_filler {
      type: "constant"
      value: 0.2
    }
  }
}
layer {
  name: "loss2/relu_conv"
  type: "ReLU"
  bottom: "loss2/conv"
  top: "loss2/conv"
}
layer {
  name: "loss2/fc"
  type: "InnerProduct"
  bottom: "loss2/conv"
  top: "loss2/fc"
  param {
    lr_mult: 1
    decay_mult: 1
  }
  param {
    lr_mult: 2
    decay_mult: 0
  }
  inner_product_param {
    num_output: 1024
    weight_filler {
      type: "xavier"
      std: 0.02
    }
    bias_filler {
      type: "constant"
      value: 0.2
    }
  }
}
layer {
  name: "loss2/relu_fc"
  type: "ReLU"
  bottom: "loss2/fc"
  top: "loss2/fc"
}
layer {
  name: "loss2/drop_fc"
  type: "Dropout"
  bottom: "loss2/fc"
  top: "loss2/fc"
  dropout_param {
    dropout_ratio: 0.7
  }
}
layer {
  name: "loss2/classifier_plantvillage"
  type: "InnerProduct"
  bottom: "loss2/fc"
  top: "loss2/classifier_plantvillage"
  param {
    lr_mult: 1
    decay_mult: 1
  }
  param {
    lr_mult: 2
    decay_mult: 0
  }
  inner_product_param {
    num_output: 38
    weight_filler {
      type: "xavier"
      std: 0.0009765625
    }
    bias_filler {
      type: "constant"
      value: 0
    }
  }
}
layer {
  name: "inception_4e/1x1"
  type: "Convolution"
  bottom: "inception_4d/output"
  top: "inception_4e/1x1"
  param {
    lr_mult: 1
    decay_mult: 1
  }
  param {
    lr_mult: 2
    decay_mult: 0
  }
  convolution_param {
    num_output: 256
    kernel_size: 1
    weight_filler {
      type: "xavier"
      std: 0.03
    }
    bias_filler {
      type: "constant"
      value: 0.2
    }
  }
}
layer {
  name: "inception_4e/relu_1x1"
  type: "ReLU"
  bottom: "inception_4e/1x1"
  top: "inception_4e/1x1"
}
layer {
  name: "inception_4e/3x3_reduce"
  type: "Convolution"
  bottom: "inception_4d/output"
  top: "inception_4e/3x3_reduce"
  param {
    lr_mult: 1
    decay_mult: 1
  }
  param {
    lr_mult: 2
    decay_mult: 0
  }
  convolution_param {
    num_output: 160
    kernel_size: 1
    weight_filler {
      type: "xavier"
      std: 0.09
    }
    bias_filler {
      type: "constant"
      value: 0.2
    }
  }
}
layer {
  name: "inception_4e/relu_3x3_reduce"
  type: "ReLU"
  bottom: "inception_4e/3x3_reduce"
  top: "inception_4e/3x3_reduce"
}
layer {
  name: "inception_4e/3x3"
  type: "Convolution"
  bottom: "inception_4e/3x3_reduce"
  top: "inception_4e/3x3"
  param {
    lr_mult: 1
    decay_mult: 1
  }
  param {
    lr_mult: 2
    decay_mult: 0
  }
  convolution_param {
    num_output: 320
    pad: 1
    kernel_size: 3
    weight_filler {
      type: "xavier"
      std: 0.03
    }
    bias_filler {
      type: "constant"
      value: 0.2
    }
  }
}
layer {
  name: "inception_4e/relu_3x3"
  type: "ReLU"
  bottom: "inception_4e/3x3"
  top: "inception_4e/3x3"
}
layer {
  name: "inception_4e/5x5_reduce"
  type: "Convolution"
  bottom: "inception_4d/output"
  top: "inception_4e/5x5_reduce"
  param {
    lr_mult: 1
    decay_mult: 1
  }
  param {
    lr_mult: 2
    decay_mult: 0
  }
  convolution_param {
    num_output: 32
    kernel_size: 1
    weight_filler {
      type: "xavier"
      std: 0.2
    }
    bias_filler {
      type: "constant"
      value: 0.2
    }
  }
}
layer {
  name: "inception_4e/relu_5x5_reduce"
  type: "ReLU"
  bottom: "inception_4e/5x5_reduce"
  top: "inception_4e/5x5_reduce"
}
layer {
  name: "inception_4e/5x5"
  type: "Convolution"
  bottom: "inception_4e/5x5_reduce"
  top: "inception_4e/5x5"
  p
I0403 15:22:08.014458 31529 layer_factory.hpp:77] Creating layer data
I0403 15:22:08.015065 31529 net.cpp:91] Creating Layer data
I0403 15:22:08.015096 31529 net.cpp:399] data -> data
I0403 15:22:08.015151 31529 net.cpp:399] data -> label
I0403 15:22:08.015190 31529 data_transformer.cpp:25] Loading mean file from: /home/mohanty/data/final_dataset/lmdb/color-60-40/mean.binaryproto
I0403 15:22:08.017995 31611 db_lmdb.cpp:38] Opened lmdb /home/mohanty/data/final_dataset/lmdb/color-60-40/test_db
I0403 15:22:08.028620 31529 data_layer.cpp:41] output data size: 24,3,224,224
I0403 15:22:08.058257 31529 net.cpp:141] Setting up data
I0403 15:22:08.058342 31529 net.cpp:148] Top shape: 24 3 224 224 (3612672)
I0403 15:22:08.058367 31529 net.cpp:148] Top shape: 24 (24)
I0403 15:22:08.058383 31529 net.cpp:156] Memory required for data: 14450784
I0403 15:22:08.058410 31529 layer_factory.hpp:77] Creating layer label_data_1_split
I0403 15:22:08.058439 31529 net.cpp:91] Creating Layer label_data_1_split
I0403 15:22:08.058456 31529 net.cpp:425] label_data_1_split <- label
I0403 15:22:08.058490 31529 net.cpp:399] label_data_1_split -> label_data_1_split_0
I0403 15:22:08.058517 31529 net.cpp:399] label_data_1_split -> label_data_1_split_1
I0403 15:22:08.058540 31529 net.cpp:399] label_data_1_split -> label_data_1_split_2
I0403 15:22:08.058570 31529 net.cpp:399] label_data_1_split -> label_data_1_split_3
I0403 15:22:08.058588 31529 net.cpp:399] label_data_1_split -> label_data_1_split_4
I0403 15:22:08.058609 31529 net.cpp:399] label_data_1_split -> label_data_1_split_5
I0403 15:22:08.058629 31529 net.cpp:399] label_data_1_split -> label_data_1_split_6
I0403 15:22:08.058648 31529 net.cpp:399] label_data_1_split -> label_data_1_split_7
I0403 15:22:08.058670 31529 net.cpp:399] label_data_1_split -> label_data_1_split_8
I0403 15:22:08.058689 31529 net.cpp:399] label_data_1_split -> label_data_1_split_9
I0403 15:22:08.058801 31529 net.cpp:141] Setting up label_data_1_split
I0403 15:22:08.058825 31529 net.cpp:148] Top shape: 24 (24)
I0403 15:22:08.058841 31529 net.cpp:148] Top shape: 24 (24)
I0403 15:22:08.058857 31529 net.cpp:148] Top shape: 24 (24)
I0403 15:22:08.058873 31529 net.cpp:148] Top shape: 24 (24)
I0403 15:22:08.058890 31529 net.cpp:148] Top shape: 24 (24)
I0403 15:22:08.058907 31529 net.cpp:148] Top shape: 24 (24)
I0403 15:22:08.058923 31529 net.cpp:148] Top shape: 24 (24)
I0403 15:22:08.058938 31529 net.cpp:148] Top shape: 24 (24)
I0403 15:22:08.058954 31529 net.cpp:148] Top shape: 24 (24)
I0403 15:22:08.058972 31529 net.cpp:148] Top shape: 24 (24)
I0403 15:22:08.059021 31529 net.cpp:156] Memory required for data: 14451744
I0403 15:22:08.059036 31529 layer_factory.hpp:77] Creating layer conv1/7x7_s2
I0403 15:22:08.059067 31529 net.cpp:91] Creating Layer conv1/7x7_s2
I0403 15:22:08.059087 31529 net.cpp:425] conv1/7x7_s2 <- data
I0403 15:22:08.059106 31529 net.cpp:399] conv1/7x7_s2 -> conv1/7x7_s2
I0403 15:22:08.206629 31529 net.cpp:141] Setting up conv1/7x7_s2
I0403 15:22:08.206710 31529 net.cpp:148] Top shape: 24 64 112 112 (19267584)
I0403 15:22:08.206729 31529 net.cpp:156] Memory required for data: 91522080
I0403 15:22:08.206763 31529 layer_factory.hpp:77] Creating layer conv1/relu_7x7
I0403 15:22:08.206789 31529 net.cpp:91] Creating Layer conv1/relu_7x7
I0403 15:22:08.206809 31529 net.cpp:425] conv1/relu_7x7 <- conv1/7x7_s2
I0403 15:22:08.206833 31529 net.cpp:386] conv1/relu_7x7 -> conv1/7x7_s2 (in-place)
I0403 15:22:08.207140 31529 net.cpp:141] Setting up conv1/relu_7x7
I0403 15:22:08.207172 31529 net.cpp:148] Top shape: 24 64 112 112 (19267584)
I0403 15:22:08.207190 31529 net.cpp:156] Memory required for data: 168592416
I0403 15:22:08.207206 31529 layer_factory.hpp:77] Creating layer pool1/3x3_s2
I0403 15:22:08.207232 31529 net.cpp:91] Creating Layer pool1/3x3_s2
I0403 15:22:08.207250 31529 net.cpp:425] pool1/3x3_s2 <- conv1/7x7_s2
I0403 15:22:08.207278 31529 net.cpp:399] pool1/3x3_s2 -> pool1/3x3_s2
I0403 15:22:08.207360 31529 net.cpp:141] Setting up pool1/3x3_s2
I0403 15:22:08.207386 31529 net.cpp:148] Top shape: 24 64 56 56 (4816896)
I0403 15:22:08.207401 31529 net.cpp:156] Memory required for data: 187860000
I0403 15:22:08.207417 31529 layer_factory.hpp:77] Creating layer pool1/norm1
I0403 15:22:08.207445 31529 net.cpp:91] Creating Layer pool1/norm1
I0403 15:22:08.207464 31529 net.cpp:425] pool1/norm1 <- pool1/3x3_s2
I0403 15:22:08.207484 31529 net.cpp:399] pool1/norm1 -> pool1/norm1
I0403 15:22:08.207798 31529 net.cpp:141] Setting up pool1/norm1
I0403 15:22:08.207829 31529 net.cpp:148] Top shape: 24 64 56 56 (4816896)
I0403 15:22:08.207846 31529 net.cpp:156] Memory required for data: 207127584
I0403 15:22:08.207862 31529 layer_factory.hpp:77] Creating layer conv2/3x3_reduce
I0403 15:22:08.207890 31529 net.cpp:91] Creating Layer conv2/3x3_reduce
I0403 15:22:08.207907 31529 net.cpp:425] conv2/3x3_reduce <- pool1/norm1
I0403 15:22:08.207926 31529 net.cpp:399] conv2/3x3_reduce -> conv2/3x3_reduce
I0403 15:22:08.209381 31529 net.cpp:141] Setting up conv2/3x3_reduce
I0403 15:22:08.209411 31529 net.cpp:148] Top shape: 24 64 56 56 (4816896)
I0403 15:22:08.209429 31529 net.cpp:156] Memory required for data: 226395168
I0403 15:22:08.209452 31529 layer_factory.hpp:77] Creating layer conv2/relu_3x3_reduce
I0403 15:22:08.209472 31529 net.cpp:91] Creating Layer conv2/relu_3x3_reduce
I0403 15:22:08.209488 31529 net.cpp:425] conv2/relu_3x3_reduce <- conv2/3x3_reduce
I0403 15:22:08.209507 31529 net.cpp:386] conv2/relu_3x3_reduce -> conv2/3x3_reduce (in-place)
I0403 15:22:08.209776 31529 net.cpp:141] Setting up conv2/relu_3x3_reduce
I0403 15:22:08.209805 31529 net.cpp:148] Top shape: 24 64 56 56 (4816896)
I0403 15:22:08.209820 31529 net.cpp:156] Memory required for data: 245662752
I0403 15:22:08.209835 31529 layer_factory.hpp:77] Creating layer conv2/3x3
I0403 15:22:08.209858 31529 net.cpp:91] Creating Layer conv2/3x3
I0403 15:22:08.209877 31529 net.cpp:425] conv2/3x3 <- conv2/3x3_reduce
I0403 15:22:08.209899 31529 net.cpp:399] conv2/3x3 -> conv2/3x3
I0403 15:22:08.212232 31529 net.cpp:141] Setting up conv2/3x3
I0403 15:22:08.212267 31529 net.cpp:148] Top shape: 24 192 56 56 (14450688)
I0403 15:22:08.212285 31529 net.cpp:156] Memory required for data: 303465504
I0403 15:22:08.212311 31529 layer_factory.hpp:77] Creating layer conv2/relu_3x3
I0403 15:22:08.212332 31529 net.cpp:91] Creating Layer conv2/relu_3x3
I0403 15:22:08.212347 31529 net.cpp:425] conv2/relu_3x3 <- conv2/3x3
I0403 15:22:08.212363 31529 net.cpp:386] conv2/relu_3x3 -> conv2/3x3 (in-place)
I0403 15:22:08.212539 31529 net.cpp:141] Setting up conv2/relu_3x3
I0403 15:22:08.212568 31529 net.cpp:148] Top shape: 24 192 56 56 (14450688)
I0403 15:22:08.212615 31529 net.cpp:156] Memory required for data: 361268256
I0403 15:22:08.212631 31529 layer_factory.hpp:77] Creating layer conv2/norm2
I0403 15:22:08.212653 31529 net.cpp:91] Creating Layer conv2/norm2
I0403 15:22:08.212671 31529 net.cpp:425] conv2/norm2 <- conv2/3x3
I0403 15:22:08.212688 31529 net.cpp:399] conv2/norm2 -> conv2/norm2
I0403 15:22:08.212996 31529 net.cpp:141] Setting up conv2/norm2
I0403 15:22:08.213023 31529 net.cpp:148] Top shape: 24 192 56 56 (14450688)
I0403 15:22:08.213040 31529 net.cpp:156] Memory required for data: 419071008
I0403 15:22:08.213057 31529 layer_factory.hpp:77] Creating layer pool2/3x3_s2
I0403 15:22:08.213078 31529 net.cpp:91] Creating Layer pool2/3x3_s2
I0403 15:22:08.213109 31529 net.cpp:425] pool2/3x3_s2 <- conv2/norm2
I0403 15:22:08.213127 31529 net.cpp:399] pool2/3x3_s2 -> pool2/3x3_s2
I0403 15:22:08.213184 31529 net.cpp:141] Setting up pool2/3x3_s2
I0403 15:22:08.213208 31529 net.cpp:148] Top shape: 24 192 28 28 (3612672)
I0403 15:22:08.213223 31529 net.cpp:156] Memory required for data: 433521696
I0403 15:22:08.213239 31529 layer_factory.hpp:77] Creating layer pool2/3x3_s2_pool2/3x3_s2_0_split
I0403 15:22:08.213274 31529 net.cpp:91] Creating Layer pool2/3x3_s2_pool2/3x3_s2_0_split
I0403 15:22:08.213290 31529 net.cpp:425] pool2/3x3_s2_pool2/3x3_s2_0_split <- pool2/3x3_s2
I0403 15:22:08.213310 31529 net.cpp:399] pool2/3x3_s2_pool2/3x3_s2_0_split -> pool2/3x3_s2_pool2/3x3_s2_0_split_0
I0403 15:22:08.213331 31529 net.cpp:399] pool2/3x3_s2_pool2/3x3_s2_0_split -> pool2/3x3_s2_pool2/3x3_s2_0_split_1
I0403 15:22:08.213351 31529 net.cpp:399] pool2/3x3_s2_pool2/3x3_s2_0_split -> pool2/3x3_s2_pool2/3x3_s2_0_split_2
I0403 15:22:08.213371 31529 net.cpp:399] pool2/3x3_s2_pool2/3x3_s2_0_split -> pool2/3x3_s2_pool2/3x3_s2_0_split_3
I0403 15:22:08.213451 31529 net.cpp:141] Setting up pool2/3x3_s2_pool2/3x3_s2_0_split
I0403 15:22:08.213476 31529 net.cpp:148] Top shape: 24 192 28 28 (3612672)
I0403 15:22:08.213493 31529 net.cpp:148] Top shape: 24 192 28 28 (3612672)
I0403 15:22:08.213510 31529 net.cpp:148] Top shape: 24 192 28 28 (3612672)
I0403 15:22:08.213526 31529 net.cpp:148] Top shape: 24 192 28 28 (3612672)
I0403 15:22:08.213539 31529 net.cpp:156] Memory required for data: 491324448
I0403 15:22:08.213553 31529 layer_factory.hpp:77] Creating layer inception_3a/1x1
I0403 15:22:08.213577 31529 net.cpp:91] Creating Layer inception_3a/1x1
I0403 15:22:08.213594 31529 net.cpp:425] inception_3a/1x1 <- pool2/3x3_s2_pool2/3x3_s2_0_split_0
I0403 15:22:08.213613 31529 net.cpp:399] inception_3a/1x1 -> inception_3a/1x1
I0403 15:22:08.215078 31529 net.cpp:141] Setting up inception_3a/1x1
I0403 15:22:08.215108 31529 net.cpp:148] Top shape: 24 64 28 28 (1204224)
I0403 15:22:08.215124 31529 net.cpp:156] Memory required for data: 496141344
I0403 15:22:08.215142 31529 layer_factory.hpp:77] Creating layer inception_3a/relu_1x1
I0403 15:22:08.215163 31529 net.cpp:91] Creating Layer inception_3a/relu_1x1
I0403 15:22:08.215179 31529 net.cpp:425] inception_3a/relu_1x1 <- inception_3a/1x1
I0403 15:22:08.215198 31529 net.cpp:386] inception_3a/relu_1x1 -> inception_3a/1x1 (in-place)
I0403 15:22:08.215366 31529 net.cpp:141] Setting up inception_3a/relu_1x1
I0403 15:22:08.215394 31529 net.cpp:148] Top shape: 24 64 28 28 (1204224)
I0403 15:22:08.215409 31529 net.cpp:156] Memory required for data: 500958240
I0403 15:22:08.215425 31529 layer_factory.hpp:77] Creating layer inception_3a/3x3_reduce
I0403 15:22:08.215447 31529 net.cpp:91] Creating Layer inception_3a/3x3_reduce
I0403 15:22:08.215466 31529 net.cpp:425] inception_3a/3x3_reduce <- pool2/3x3_s2_pool2/3x3_s2_0_split_1
I0403 15:22:08.215486 31529 net.cpp:399] inception_3a/3x3_reduce -> inception_3a/3x3_reduce
I0403 15:22:08.217106 31529 net.cpp:141] Setting up inception_3a/3x3_reduce
I0403 15:22:08.217136 31529 net.cpp:148] Top shape: 24 96 28 28 (1806336)
I0403 15:22:08.217152 31529 net.cpp:156] Memory required for data: 508183584
I0403 15:22:08.217176 31529 layer_factory.hpp:77] Creating layer inception_3a/relu_3x3_reduce
I0403 15:22:08.217211 31529 net.cpp:91] Creating Layer inception_3a/relu_3x3_reduce
I0403 15:22:08.217228 31529 net.cpp:425] inception_3a/relu_3x3_reduce <- inception_3a/3x3_reduce
I0403 15:22:08.217248 31529 net.cpp:386] inception_3a/relu_3x3_reduce -> inception_3a/3x3_reduce (in-place)
I0403 15:22:08.217443 31529 net.cpp:141] Setting up inception_3a/relu_3x3_reduce
I0403 15:22:08.217470 31529 net.cpp:148] Top shape: 24 96 28 28 (1806336)
I0403 15:22:08.217485 31529 net.cpp:156] Memory required for data: 515408928
I0403 15:22:08.217501 31529 layer_factory.hpp:77] Creating layer inception_3a/3x3
I0403 15:22:08.217524 31529 net.cpp:91] Creating Layer inception_3a/3x3
I0403 15:22:08.217541 31529 net.cpp:425] inception_3a/3x3 <- inception_3a/3x3_reduce
I0403 15:22:08.217566 31529 net.cpp:399] inception_3a/3x3 -> inception_3a/3x3
I0403 15:22:08.219147 31529 net.cpp:141] Setting up inception_3a/3x3
I0403 15:22:08.219177 31529 net.cpp:148] Top shape: 24 128 28 28 (2408448)
I0403 15:22:08.219192 31529 net.cpp:156] Memory required for data: 525042720
I0403 15:22:08.219211 31529 layer_factory.hpp:77] Creating layer inception_3a/relu_3x3
I0403 15:22:08.219235 31529 net.cpp:91] Creating Layer inception_3a/relu_3x3
I0403 15:22:08.219257 31529 net.cpp:425] inception_3a/relu_3x3 <- inception_3a/3x3
I0403 15:22:08.219276 31529 net.cpp:386] inception_3a/relu_3x3 -> inception_3a/3x3 (in-place)
I0403 15:22:08.219539 31529 net.cpp:141] Setting up inception_3a/relu_3x3
I0403 15:22:08.219565 31529 net.cpp:148] Top shape: 24 128 28 28 (2408448)
I0403 15:22:08.219580 31529 net.cpp:156] Memory required for data: 534676512
I0403 15:22:08.219595 31529 layer_factory.hpp:77] Creating layer inception_3a/5x5_reduce
I0403 15:22:08.219619 31529 net.cpp:91] Creating Layer inception_3a/5x5_reduce
I0403 15:22:08.219635 31529 net.cpp:425] inception_3a/5x5_reduce <- pool2/3x3_s2_pool2/3x3_s2_0_split_2
I0403 15:22:08.219655 31529 net.cpp:399] inception_3a/5x5_reduce -> inception_3a/5x5_reduce
I0403 15:22:08.220572 31529 net.cpp:141] Setting up inception_3a/5x5_reduce
I0403 15:22:08.220602 31529 net.cpp:148] Top shape: 24 16 28 28 (301056)
I0403 15:22:08.220619 31529 net.cpp:156] Memory required for data: 535880736
I0403 15:22:08.220638 31529 layer_factory.hpp:77] Creating layer inception_3a/relu_5x5_reduce
I0403 15:22:08.220656 31529 net.cpp:91] Creating Layer inception_3a/relu_5x5_reduce
I0403 15:22:08.220672 31529 net.cpp:425] inception_3a/relu_5x5_reduce <- inception_3a/5x5_reduce
I0403 15:22:08.220692 31529 net.cpp:386] inception_3a/relu_5x5_reduce -> inception_3a/5x5_reduce (in-place)
I0403 15:22:08.220969 31529 net.cpp:141] Setting up inception_3a/relu_5x5_reduce
I0403 15:22:08.220999 31529 net.cpp:148] Top shape: 24 16 28 28 (301056)
I0403 15:22:08.221014 31529 net.cpp:156] Memory required for data: 537084960
I0403 15:22:08.221030 31529 layer_factory.hpp:77] Creating layer inception_3a/5x5
I0403 15:22:08.221053 31529 net.cpp:91] Creating Layer inception_3a/5x5
I0403 15:22:08.221071 31529 net.cpp:425] inception_3a/5x5 <- inception_3a/5x5_reduce
I0403 15:22:08.221092 31529 net.cpp:399] inception_3a/5x5 -> inception_3a/5x5
I0403 15:22:08.222105 31529 net.cpp:141] Setting up inception_3a/5x5
I0403 15:22:08.222133 31529 net.cpp:148] Top shape: 24 32 28 28 (602112)
I0403 15:22:08.222149 31529 net.cpp:156] Memory required for data: 539493408
I0403 15:22:08.222168 31529 layer_factory.hpp:77] Creating layer inception_3a/relu_5x5
I0403 15:22:08.222188 31529 net.cpp:91] Creating Layer inception_3a/relu_5x5
I0403 15:22:08.222204 31529 net.cpp:425] inception_3a/relu_5x5 <- inception_3a/5x5
I0403 15:22:08.222223 31529 net.cpp:386] inception_3a/relu_5x5 -> inception_3a/5x5 (in-place)
I0403 15:22:08.222411 31529 net.cpp:141] Setting up inception_3a/relu_5x5
I0403 15:22:08.222440 31529 net.cpp:148] Top shape: 24 32 28 28 (602112)
I0403 15:22:08.222456 31529 net.cpp:156] Memory required for data: 541901856
I0403 15:22:08.222472 31529 layer_factory.hpp:77] Creating layer inception_3a/pool
I0403 15:22:08.222491 31529 net.cpp:91] Creating Layer inception_3a/pool
I0403 15:22:08.222507 31529 net.cpp:425] inception_3a/pool <- pool2/3x3_s2_pool2/3x3_s2_0_split_3
I0403 15:22:08.222542 31529 net.cpp:399] inception_3a/pool -> inception_3a/pool
I0403 15:22:08.222612 31529 net.cpp:141] Setting up inception_3a/pool
I0403 15:22:08.222636 31529 net.cpp:148] Top shape: 24 192 28 28 (3612672)
I0403 15:22:08.222651 31529 net.cpp:156] Memory required for data: 556352544
I0403 15:22:08.222666 31529 layer_factory.hpp:77] Creating layer inception_3a/pool_proj
I0403 15:22:08.222687 31529 net.cpp:91] Creating Layer inception_3a/pool_proj
I0403 15:22:08.222707 31529 net.cpp:425] inception_3a/pool_proj <- inception_3a/pool
I0403 15:22:08.222726 31529 net.cpp:399] inception_3a/pool_proj -> inception_3a/pool_proj
I0403 15:22:08.223681 31529 net.cpp:141] Setting up inception_3a/pool_proj
I0403 15:22:08.223709 31529 net.cpp:148] Top shape: 24 32 28 28 (602112)
I0403 15:22:08.223724 31529 net.cpp:156] Memory required for data: 558760992
I0403 15:22:08.223747 31529 layer_factory.hpp:77] Creating layer inception_3a/relu_pool_proj
I0403 15:22:08.223768 31529 net.cpp:91] Creating Layer inception_3a/relu_pool_proj
I0403 15:22:08.223783 31529 net.cpp:425] inception_3a/relu_pool_proj <- inception_3a/pool_proj
I0403 15:22:08.223803 31529 net.cpp:386] inception_3a/relu_pool_proj -> inception_3a/pool_proj (in-place)
I0403 15:22:08.224069 31529 net.cpp:141] Setting up inception_3a/relu_pool_proj
I0403 15:22:08.224097 31529 net.cpp:148] Top shape: 24 32 28 28 (602112)
I0403 15:22:08.224112 31529 net.cpp:156] Memory required for data: 561169440
I0403 15:22:08.224126 31529 layer_factory.hpp:77] Creating layer inception_3a/output
I0403 15:22:08.224146 31529 net.cpp:91] Creating Layer inception_3a/output
I0403 15:22:08.224164 31529 net.cpp:425] inception_3a/output <- inception_3a/1x1
I0403 15:22:08.224181 31529 net.cpp:425] inception_3a/output <- inception_3a/3x3
I0403 15:22:08.224198 31529 net.cpp:425] inception_3a/output <- inception_3a/5x5
I0403 15:22:08.224213 31529 net.cpp:425] inception_3a/output <- inception_3a/pool_proj
I0403 15:22:08.224231 31529 net.cpp:399] inception_3a/output -> inception_3a/output
I0403 15:22:08.224303 31529 net.cpp:141] Setting up inception_3a/output
I0403 15:22:08.224340 31529 net.cpp:148] Top shape: 24 256 28 28 (4816896)
I0403 15:22:08.224356 31529 net.cpp:156] Memory required for data: 580437024
I0403 15:22:08.224375 31529 layer_factory.hpp:77] Creating layer inception_3a/output_inception_3a/output_0_split
I0403 15:22:08.224391 31529 net.cpp:91] Creating Layer inception_3a/output_inception_3a/output_0_split
I0403 15:22:08.224407 31529 net.cpp:425] inception_3a/output_inception_3a/output_0_split <- inception_3a/output
I0403 15:22:08.224428 31529 net.cpp:399] inception_3a/output_inception_3a/output_0_split -> inception_3a/output_inception_3a/output_0_split_0
I0403 15:22:08.224449 31529 net.cpp:399] inception_3a/output_inception_3a/output_0_split -> inception_3a/output_inception_3a/output_0_split_1
I0403 15:22:08.224475 31529 net.cpp:399] inception_3a/output_inception_3a/output_0_split -> inception_3a/output_inception_3a/output_0_split_2
I0403 15:22:08.224499 31529 net.cpp:399] inception_3a/output_inception_3a/output_0_split -> inception_3a/output_inception_3a/output_0_split_3
I0403 15:22:08.224575 31529 net.cpp:141] Setting up inception_3a/output_inception_3a/output_0_split
I0403 15:22:08.224601 31529 net.cpp:148] Top shape: 24 256 28 28 (4816896)
I0403 15:22:08.224632 31529 net.cpp:148] Top shape: 24 256 28 28 (4816896)
I0403 15:22:08.224650 31529 net.cpp:148] Top shape: 24 256 28 28 (4816896)
I0403 15:22:08.224666 31529 net.cpp:148] Top shape: 24 256 28 28 (4816896)
I0403 15:22:08.224681 31529 net.cpp:156] Memory required for data: 657507360
I0403 15:22:08.224697 31529 layer_factory.hpp:77] Creating layer inception_3b/1x1
I0403 15:22:08.224719 31529 net.cpp:91] Creating Layer inception_3b/1x1
I0403 15:22:08.224735 31529 net.cpp:425] inception_3b/1x1 <- inception_3a/output_inception_3a/output_0_split_0
I0403 15:22:08.224756 31529 net.cpp:399] inception_3b/1x1 -> inception_3b/1x1
I0403 15:22:08.225881 31529 net.cpp:141] Setting up inception_3b/1x1
I0403 15:22:08.225920 31529 net.cpp:148] Top shape: 24 128 28 28 (2408448)
I0403 15:22:08.225937 31529 net.cpp:156] Memory required for data: 667141152
I0403 15:22:08.225956 31529 layer_factory.hpp:77] Creating layer inception_3b/relu_1x1
I0403 15:22:08.225977 31529 net.cpp:91] Creating Layer inception_3b/relu_1x1
I0403 15:22:08.225994 31529 net.cpp:425] inception_3b/relu_1x1 <- inception_3b/1x1
I0403 15:22:08.226013 31529 net.cpp:386] inception_3b/relu_1x1 -> inception_3b/1x1 (in-place)
I0403 15:22:08.226188 31529 net.cpp:141] Setting up inception_3b/relu_1x1
I0403 15:22:08.226214 31529 net.cpp:148] Top shape: 24 128 28 28 (2408448)
I0403 15:22:08.226229 31529 net.cpp:156] Memory required for data: 676774944
I0403 15:22:08.226244 31529 layer_factory.hpp:77] Creating layer inception_3b/3x3_reduce
I0403 15:22:08.226284 31529 net.cpp:91] Creating Layer inception_3b/3x3_reduce
I0403 15:22:08.226302 31529 net.cpp:425] inception_3b/3x3_reduce <- inception_3a/output_inception_3a/output_0_split_1
I0403 15:22:08.226322 31529 net.cpp:399] inception_3b/3x3_reduce -> inception_3b/3x3_reduce
I0403 15:22:08.227443 31529 net.cpp:141] Setting up inception_3b/3x3_reduce
I0403 15:22:08.227473 31529 net.cpp:148] Top shape: 24 128 28 28 (2408448)
I0403 15:22:08.227488 31529 net.cpp:156] Memory required for data: 686408736
I0403 15:22:08.227507 31529 layer_factory.hpp:77] Creating layer inception_3b/relu_3x3_reduce
I0403 15:22:08.227527 31529 net.cpp:91] Creating Layer inception_3b/relu_3x3_reduce
I0403 15:22:08.227545 31529 net.cpp:425] inception_3b/relu_3x3_reduce <- inception_3b/3x3_reduce
I0403 15:22:08.227563 31529 net.cpp:386] inception_3b/relu_3x3_reduce -> inception_3b/3x3_reduce (in-place)
I0403 15:22:08.227732 31529 net.cpp:141] Setting up inception_3b/relu_3x3_reduce
I0403 15:22:08.227759 31529 net.cpp:148] Top shape: 24 128 28 28 (2408448)
I0403 15:22:08.227777 31529 net.cpp:156] Memory required for data: 696042528
I0403 15:22:08.227792 31529 layer_factory.hpp:77] Creating layer inception_3b/3x3
I0403 15:22:08.227818 31529 net.cpp:91] Creating Layer inception_3b/3x3
I0403 15:22:08.227836 31529 net.cpp:425] inception_3b/3x3 <- inception_3b/3x3_reduce
I0403 15:22:08.227859 31529 net.cpp:399] inception_3b/3x3 -> inception_3b/3x3
I0403 15:22:08.230720 31529 net.cpp:141] Setting up inception_3b/3x3
I0403 15:22:08.230749 31529 net.cpp:148] Top shape: 24 192 28 28 (3612672)
I0403 15:22:08.230767 31529 net.cpp:156] Memory required for data: 710493216
I0403 15:22:08.230785 31529 layer_factory.hpp:77] Creating layer inception_3b/relu_3x3
I0403 15:22:08.230806 31529 net.cpp:91] Creating Layer inception_3b/relu_3x3
I0403 15:22:08.230825 31529 net.cpp:425] inception_3b/relu_3x3 <- inception_3b/3x3
I0403 15:22:08.230844 31529 net.cpp:386] inception_3b/relu_3x3 -> inception_3b/3x3 (in-place)
I0403 15:22:08.231117 31529 net.cpp:141] Setting up inception_3b/relu_3x3
I0403 15:22:08.231143 31529 net.cpp:148] Top shape: 24 192 28 28 (3612672)
I0403 15:22:08.231158 31529 net.cpp:156] Memory required for data: 724943904
I0403 15:22:08.231174 31529 layer_factory.hpp:77] Creating layer inception_3b/5x5_reduce
I0403 15:22:08.231200 31529 net.cpp:91] Creating Layer inception_3b/5x5_reduce
I0403 15:22:08.231218 31529 net.cpp:425] inception_3b/5x5_reduce <- inception_3a/output_inception_3a/output_0_split_2
I0403 15:22:08.231237 31529 net.cpp:399] inception_3b/5x5_reduce -> inception_3b/5x5_reduce
I0403 15:22:08.232210 31529 net.cpp:141] Setting up inception_3b/5x5_reduce
I0403 15:22:08.232239 31529 net.cpp:148] Top shape: 24 32 28 28 (602112)
I0403 15:22:08.232259 31529 net.cpp:156] Memory required for data: 727352352
I0403 15:22:08.232280 31529 layer_factory.hpp:77] Creating layer inception_3b/relu_5x5_reduce
I0403 15:22:08.232301 31529 net.cpp:91] Creating Layer inception_3b/relu_5x5_reduce
I0403 15:22:08.232317 31529 net.cpp:425] inception_3b/relu_5x5_reduce <- inception_3b/5x5_reduce
I0403 15:22:08.232336 31529 net.cpp:386] inception_3b/relu_5x5_reduce -> inception_3b/5x5_reduce (in-place)
I0403 15:22:08.232506 31529 net.cpp:141] Setting up inception_3b/relu_5x5_reduce
I0403 15:22:08.232545 31529 net.cpp:148] Top shape: 24 32 28 28 (602112)
I0403 15:22:08.232563 31529 net.cpp:156] Memory required for data: 729760800
I0403 15:22:08.232579 31529 layer_factory.hpp:77] Creating layer inception_3b/5x5
I0403 15:22:08.232601 31529 net.cpp:91] Creating Layer inception_3b/5x5
I0403 15:22:08.232620 31529 net.cpp:425] inception_3b/5x5 <- inception_3b/5x5_reduce
I0403 15:22:08.232641 31529 net.cpp:399] inception_3b/5x5 -> inception_3b/5x5
I0403 15:22:08.234587 31529 net.cpp:141] Setting up inception_3b/5x5
I0403 15:22:08.234618 31529 net.cpp:148] Top shape: 24 96 28 28 (1806336)
I0403 15:22:08.234634 31529 net.cpp:156] Memory required for data: 736986144
I0403 15:22:08.234654 31529 layer_factory.hpp:77] Creating layer inception_3b/relu_5x5
I0403 15:22:08.234675 31529 net.cpp:91] Creating Layer inception_3b/relu_5x5
I0403 15:22:08.234693 31529 net.cpp:425] inception_3b/relu_5x5 <- inception_3b/5x5
I0403 15:22:08.234710 31529 net.cpp:386] inception_3b/relu_5x5 -> inception_3b/5x5 (in-place)
I0403 15:22:08.234902 31529 net.cpp:141] Setting up inception_3b/relu_5x5
I0403 15:22:08.234928 31529 net.cpp:148] Top shape: 24 96 28 28 (1806336)
I0403 15:22:08.234943 31529 net.cpp:156] Memory required for data: 744211488
I0403 15:22:08.234959 31529 layer_factory.hpp:77] Creating layer inception_3b/pool
I0403 15:22:08.234977 31529 net.cpp:91] Creating Layer inception_3b/pool
I0403 15:22:08.234993 31529 net.cpp:425] inception_3b/pool <- inception_3a/output_inception_3a/output_0_split_3
I0403 15:22:08.235013 31529 net.cpp:399] inception_3b/pool -> inception_3b/pool
I0403 15:22:08.235069 31529 net.cpp:141] Setting up inception_3b/pool
I0403 15:22:08.235092 31529 net.cpp:148] Top shape: 24 256 28 28 (4816896)
I0403 15:22:08.235108 31529 net.cpp:156] Memory required for data: 763479072
I0403 15:22:08.235123 31529 layer_factory.hpp:77] Creating layer inception_3b/pool_proj
I0403 15:22:08.235146 31529 net.cpp:91] Creating Layer inception_3b/pool_proj
I0403 15:22:08.235164 31529 net.cpp:425] inception_3b/pool_proj <- inception_3b/pool
I0403 15:22:08.235186 31529 net.cpp:399] inception_3b/pool_proj -> inception_3b/pool_proj
I0403 15:22:08.236223 31529 net.cpp:141] Setting up inception_3b/pool_proj
I0403 15:22:08.236251 31529 net.cpp:148] Top shape: 24 64 28 28 (1204224)
I0403 15:22:08.236282 31529 net.cpp:156] Memory required for data: 768295968
I0403 15:22:08.236302 31529 layer_factory.hpp:77] Creating layer inception_3b/relu_pool_proj
I0403 15:22:08.236320 31529 net.cpp:91] Creating Layer inception_3b/relu_pool_proj
I0403 15:22:08.236337 31529 net.cpp:425] inception_3b/relu_pool_proj <- inception_3b/pool_proj
I0403 15:22:08.236361 31529 net.cpp:386] inception_3b/relu_pool_proj -> inception_3b/pool_proj (in-place)
I0403 15:22:08.236747 31529 net.cpp:141] Setting up inception_3b/relu_pool_proj
I0403 15:22:08.236775 31529 net.cpp:148] Top shape: 24 64 28 28 (1204224)
I0403 15:22:08.236793 31529 net.cpp:156] Memory required for data: 773112864
I0403 15:22:08.236807 31529 layer_factory.hpp:77] Creating layer inception_3b/output
I0403 15:22:08.236825 31529 net.cpp:91] Creating Layer inception_3b/output
I0403 15:22:08.236841 31529 net.cpp:425] inception_3b/output <- inception_3b/1x1
I0403 15:22:08.236857 31529 net.cpp:425] inception_3b/output <- inception_3b/3x3
I0403 15:22:08.236874 31529 net.cpp:425] inception_3b/output <- inception_3b/5x5
I0403 15:22:08.236889 31529 net.cpp:425] inception_3b/output <- inception_3b/pool_proj
I0403 15:22:08.236910 31529 net.cpp:399] inception_3b/output -> inception_3b/output
I0403 15:22:08.236953 31529 net.cpp:141] Setting up inception_3b/output
I0403 15:22:08.236979 31529 net.cpp:148] Top shape: 24 480 28 28 (9031680)
I0403 15:22:08.236994 31529 net.cpp:156] Memory required for data: 809239584
I0403 15:22:08.237010 31529 layer_factory.hpp:77] Creating layer pool3/3x3_s2
I0403 15:22:08.237030 31529 net.cpp:91] Creating Layer pool3/3x3_s2
I0403 15:22:08.237047 31529 net.cpp:425] pool3/3x3_s2 <- inception_3b/output
I0403 15:22:08.237066 31529 net.cpp:399] pool3/3x3_s2 -> pool3/3x3_s2
I0403 15:22:08.237138 31529 net.cpp:141] Setting up pool3/3x3_s2
I0403 15:22:08.237164 31529 net.cpp:148] Top shape: 24 480 14 14 (2257920)
I0403 15:22:08.237179 31529 net.cpp:156] Memory required for data: 818271264
I0403 15:22:08.237195 31529 layer_factory.hpp:77] Creating layer pool3/3x3_s2_pool3/3x3_s2_0_split
I0403 15:22:08.237211 31529 net.cpp:91] Creating Layer pool3/3x3_s2_pool3/3x3_s2_0_split
I0403 15:22:08.237227 31529 net.cpp:425] pool3/3x3_s2_pool3/3x3_s2_0_split <- pool3/3x3_s2
I0403 15:22:08.237247 31529 net.cpp:399] pool3/3x3_s2_pool3/3x3_s2_0_split -> pool3/3x3_s2_pool3/3x3_s2_0_split_0
I0403 15:22:08.237273 31529 net.cpp:399] pool3/3x3_s2_pool3/3x3_s2_0_split -> pool3/3x3_s2_pool3/3x3_s2_0_split_1
I0403 15:22:08.237293 31529 net.cpp:399] pool3/3x3_s2_pool3/3x3_s2_0_split -> pool3/3x3_s2_pool3/3x3_s2_0_split_2
I0403 15:22:08.237313 31529 net.cpp:399] pool3/3x3_s2_pool3/3x3_s2_0_split -> pool3/3x3_s2_pool3/3x3_s2_0_split_3
I0403 15:22:08.237390 31529 net.cpp:141] Setting up pool3/3x3_s2_pool3/3x3_s2_0_split
I0403 15:22:08.237413 31529 net.cpp:148] Top shape: 24 480 14 14 (2257920)
I0403 15:22:08.237431 31529 net.cpp:148] Top shape: 24 480 14 14 (2257920)
I0403 15:22:08.237447 31529 net.cpp:148] Top shape: 24 480 14 14 (2257920)
I0403 15:22:08.237465 31529 net.cpp:148] Top shape: 24 480 14 14 (2257920)
I0403 15:22:08.237479 31529 net.cpp:156] Memory required for data: 854397984
I0403 15:22:08.237494 31529 layer_factory.hpp:77] Creating layer inception_4a/1x1
I0403 15:22:08.237517 31529 net.cpp:91] Creating Layer inception_4a/1x1
I0403 15:22:08.237534 31529 net.cpp:425] inception_4a/1x1 <- pool3/3x3_s2_pool3/3x3_s2_0_split_0
I0403 15:22:08.237556 31529 net.cpp:399] inception_4a/1x1 -> inception_4a/1x1
I0403 15:22:08.239111 31529 net.cpp:141] Setting up inception_4a/1x1
I0403 15:22:08.239140 31529 net.cpp:148] Top shape: 24 192 14 14 (903168)
I0403 15:22:08.239156 31529 net.cpp:156] Memory required for data: 858010656
I0403 15:22:08.239176 31529 layer_factory.hpp:77] Creating layer inception_4a/relu_1x1
I0403 15:22:08.239193 31529 net.cpp:91] Creating Layer inception_4a/relu_1x1
I0403 15:22:08.239209 31529 net.cpp:425] inception_4a/relu_1x1 <- inception_4a/1x1
I0403 15:22:08.239230 31529 net.cpp:386] inception_4a/relu_1x1 -> inception_4a/1x1 (in-place)
I0403 15:22:08.239410 31529 net.cpp:141] Setting up inception_4a/relu_1x1
I0403 15:22:08.239436 31529 net.cpp:148] Top shape: 24 192 14 14 (903168)
I0403 15:22:08.239452 31529 net.cpp:156] Memory required for data: 861623328
I0403 15:22:08.239467 31529 layer_factory.hpp:77] Creating layer inception_4a/3x3_reduce
I0403 15:22:08.239490 31529 net.cpp:91] Creating Layer inception_4a/3x3_reduce
I0403 15:22:08.239509 31529 net.cpp:425] inception_4a/3x3_reduce <- pool3/3x3_s2_pool3/3x3_s2_0_split_1
I0403 15:22:08.239532 31529 net.cpp:399] inception_4a/3x3_reduce -> inception_4a/3x3_reduce
I0403 15:22:08.240798 31529 net.cpp:141] Setting up inception_4a/3x3_reduce
I0403 15:22:08.240826 31529 net.cpp:148] Top shape: 24 96 14 14 (451584)
I0403 15:22:08.240842 31529 net.cpp:156] Memory required for data: 863429664
I0403 15:22:08.240869 31529 layer_factory.hpp:77] Creating layer inception_4a/relu_3x3_reduce
I0403 15:22:08.240888 31529 net.cpp:91] Creating Layer inception_4a/relu_3x3_reduce
I0403 15:22:08.240906 31529 net.cpp:425] inception_4a/relu_3x3_reduce <- inception_4a/3x3_reduce
I0403 15:22:08.240926 31529 net.cpp:386] inception_4a/relu_3x3_reduce -> inception_4a/3x3_reduce (in-place)
I0403 15:22:08.241101 31529 net.cpp:141] Setting up inception_4a/relu_3x3_reduce
I0403 15:22:08.241127 31529 net.cpp:148] Top shape: 24 96 14 14 (451584)
I0403 15:22:08.241142 31529 net.cpp:156] Memory required for data: 865236000
I0403 15:22:08.241158 31529 layer_factory.hpp:77] Creating layer inception_4a/3x3
I0403 15:22:08.241179 31529 net.cpp:91] Creating Layer inception_4a/3x3
I0403 15:22:08.241197 31529 net.cpp:425] inception_4a/3x3 <- inception_4a/3x3_reduce
I0403 15:22:08.241219 31529 net.cpp:399] inception_4a/3x3 -> inception_4a/3x3
I0403 15:22:08.243953 31529 net.cpp:141] Setting up inception_4a/3x3
I0403 15:22:08.243983 31529 net.cpp:148] Top shape: 24 208 14 14 (978432)
I0403 15:22:08.243999 31529 net.cpp:156] Memory required for data: 869149728
I0403 15:22:08.244019 31529 layer_factory.hpp:77] Creating layer inception_4a/relu_3x3
I0403 15:22:08.244040 31529 net.cpp:91] Creating Layer inception_4a/relu_3x3
I0403 15:22:08.244057 31529 net.cpp:425] inception_4a/relu_3x3 <- inception_4a/3x3
I0403 15:22:08.244076 31529 net.cpp:386] inception_4a/relu_3x3 -> inception_4a/3x3 (in-place)
I0403 15:22:08.244370 31529 net.cpp:141] Setting up inception_4a/relu_3x3
I0403 15:22:08.244398 31529 net.cpp:148] Top shape: 24 208 14 14 (978432)
I0403 15:22:08.244415 31529 net.cpp:156] Memory required for data: 873063456
I0403 15:22:08.244431 31529 layer_factory.hpp:77] Creating layer inception_4a/5x5_reduce
I0403 15:22:08.244454 31529 net.cpp:91] Creating Layer inception_4a/5x5_reduce
I0403 15:22:08.244472 31529 net.cpp:425] inception_4a/5x5_reduce <- pool3/3x3_s2_pool3/3x3_s2_0_split_2
I0403 15:22:08.244496 31529 net.cpp:399] inception_4a/5x5_reduce -> inception_4a/5x5_reduce
I0403 15:22:08.245512 31529 net.cpp:141] Setting up inception_4a/5x5_reduce
I0403 15:22:08.245542 31529 net.cpp:148] Top shape: 24 16 14 14 (75264)
I0403 15:22:08.245558 31529 net.cpp:156] Memory required for data: 873364512
I0403 15:22:08.245579 31529 layer_factory.hpp:77] Creating layer inception_4a/relu_5x5_reduce
I0403 15:22:08.245599 31529 net.cpp:91] Creating Layer inception_4a/relu_5x5_reduce
I0403 15:22:08.245615 31529 net.cpp:425] inception_4a/relu_5x5_reduce <- inception_4a/5x5_reduce
I0403 15:22:08.245632 31529 net.cpp:386] inception_4a/relu_5x5_reduce -> inception_4a/5x5_reduce (in-place)
I0403 15:22:08.245808 31529 net.cpp:141] Setting up inception_4a/relu_5x5_reduce
I0403 15:22:08.245837 31529 net.cpp:148] Top shape: 24 16 14 14 (75264)
I0403 15:22:08.245853 31529 net.cpp:156] Memory required for data: 873665568
I0403 15:22:08.245868 31529 layer_factory.hpp:77] Creating layer inception_4a/5x5
I0403 15:22:08.245892 31529 net.cpp:91] Creating Layer inception_4a/5x5
I0403 15:22:08.245909 31529 net.cpp:425] inception_4a/5x5 <- inception_4a/5x5_reduce
I0403 15:22:08.245929 31529 net.cpp:399] inception_4a/5x5 -> inception_4a/5x5
I0403 15:22:08.247012 31529 net.cpp:141] Setting up inception_4a/5x5
I0403 15:22:08.247043 31529 net.cpp:148] Top shape: 24 48 14 14 (225792)
I0403 15:22:08.247061 31529 net.cpp:156] Memory required for data: 874568736
I0403 15:22:08.247079 31529 layer_factory.hpp:77] Creating layer inception_4a/relu_5x5
I0403 15:22:08.247097 31529 net.cpp:91] Creating Layer inception_4a/relu_5x5
I0403 15:22:08.247114 31529 net.cpp:425] inception_4a/relu_5x5 <- inception_4a/5x5
I0403 15:22:08.247133 31529 net.cpp:386] inception_4a/relu_5x5 -> inception_4a/5x5 (in-place)
I0403 15:22:08.247318 31529 net.cpp:141] Setting up inception_4a/relu_5x5
I0403 15:22:08.247344 31529 net.cpp:148] Top shape: 24 48 14 14 (225792)
I0403 15:22:08.247360 31529 net.cpp:156] Memory required for data: 875471904
I0403 15:22:08.247375 31529 layer_factory.hpp:77] Creating layer inception_4a/pool
I0403 15:22:08.247393 31529 net.cpp:91] Creating Layer inception_4a/pool
I0403 15:22:08.247411 31529 net.cpp:425] inception_4a/pool <- pool3/3x3_s2_pool3/3x3_s2_0_split_3
I0403 15:22:08.247431 31529 net.cpp:399] inception_4a/pool -> inception_4a/pool
I0403 15:22:08.247493 31529 net.cpp:141] Setting up inception_4a/pool
I0403 15:22:08.247519 31529 net.cpp:148] Top shape: 24 480 14 14 (2257920)
I0403 15:22:08.247534 31529 net.cpp:156] Memory required for data: 884503584
I0403 15:22:08.247550 31529 layer_factory.hpp:77] Creating layer inception_4a/pool_proj
I0403 15:22:08.247575 31529 net.cpp:91] Creating Layer inception_4a/pool_proj
I0403 15:22:08.247593 31529 net.cpp:425] inception_4a/pool_proj <- inception_4a/pool
I0403 15:22:08.247613 31529 net.cpp:399] inception_4a/pool_proj -> inception_4a/pool_proj
I0403 15:22:08.248769 31529 net.cpp:141] Setting up inception_4a/pool_proj
I0403 15:22:08.248797 31529 net.cpp:148] Top shape: 24 64 14 14 (301056)
I0403 15:22:08.248828 31529 net.cpp:156] Memory required for data: 885707808
I0403 15:22:08.248848 31529 layer_factory.hpp:77] Creating layer inception_4a/relu_pool_proj
I0403 15:22:08.248868 31529 net.cpp:91] Creating Layer inception_4a/relu_pool_proj
I0403 15:22:08.248885 31529 net.cpp:425] inception_4a/relu_pool_proj <- inception_4a/pool_proj
I0403 15:22:08.248906 31529 net.cpp:386] inception_4a/relu_pool_proj -> inception_4a/pool_proj (in-place)
I0403 15:22:08.249183 31529 net.cpp:141] Setting up inception_4a/relu_pool_proj
I0403 15:22:08.249210 31529 net.cpp:148] Top shape: 24 64 14 14 (301056)
I0403 15:22:08.249227 31529 net.cpp:156] Memory required for data: 886912032
I0403 15:22:08.249241 31529 layer_factory.hpp:77] Creating layer inception_4a/output
I0403 15:22:08.249265 31529 net.cpp:91] Creating Layer inception_4a/output
I0403 15:22:08.249284 31529 net.cpp:425] inception_4a/output <- inception_4a/1x1
I0403 15:22:08.249302 31529 net.cpp:425] inception_4a/output <- inception_4a/3x3
I0403 15:22:08.249320 31529 net.cpp:425] inception_4a/output <- inception_4a/5x5
I0403 15:22:08.249336 31529 net.cpp:425] inception_4a/output <- inception_4a/pool_proj
I0403 15:22:08.249356 31529 net.cpp:399] inception_4a/output -> inception_4a/output
I0403 15:22:08.249402 31529 net.cpp:141] Setting up inception_4a/output
I0403 15:22:08.249425 31529 net.cpp:148] Top shape: 24 512 14 14 (2408448)
I0403 15:22:08.249440 31529 net.cpp:156] Memory required for data: 896545824
I0403 15:22:08.249454 31529 layer_factory.hpp:77] Creating layer inception_4a/output_inception_4a/output_0_split
I0403 15:22:08.249475 31529 net.cpp:91] Creating Layer inception_4a/output_inception_4a/output_0_split
I0403 15:22:08.249492 31529 net.cpp:425] inception_4a/output_inception_4a/output_0_split <- inception_4a/output
I0403 15:22:08.249512 31529 net.cpp:399] inception_4a/output_inception_4a/output_0_split -> inception_4a/output_inception_4a/output_0_split_0
I0403 15:22:08.249534 31529 net.cpp:399] inception_4a/output_inception_4a/output_0_split -> inception_4a/output_inception_4a/output_0_split_1
I0403 15:22:08.249555 31529 net.cpp:399] inception_4a/output_inception_4a/output_0_split -> inception_4a/output_inception_4a/output_0_split_2
I0403 15:22:08.249575 31529 net.cpp:399] inception_4a/output_inception_4a/output_0_split -> inception_4a/output_inception_4a/output_0_split_3
I0403 15:22:08.249595 31529 net.cpp:399] inception_4a/output_inception_4a/output_0_split -> inception_4a/output_inception_4a/output_0_split_4
I0403 15:22:08.249687 31529 net.cpp:141] Setting up inception_4a/output_inception_4a/output_0_split
I0403 15:22:08.249711 31529 net.cpp:148] Top shape: 24 512 14 14 (2408448)
I0403 15:22:08.249728 31529 net.cpp:148] Top shape: 24 512 14 14 (2408448)
I0403 15:22:08.249745 31529 net.cpp:148] Top shape: 24 512 14 14 (2408448)
I0403 15:22:08.249761 31529 net.cpp:148] Top shape: 24 512 14 14 (2408448)
I0403 15:22:08.249778 31529 net.cpp:148] Top shape: 24 512 14 14 (2408448)
I0403 15:22:08.249791 31529 net.cpp:156] Memory required for data: 944714784
I0403 15:22:08.249807 31529 layer_factory.hpp:77] Creating layer loss1/ave_pool
I0403 15:22:08.249828 31529 net.cpp:91] Creating Layer loss1/ave_pool
I0403 15:22:08.249845 31529 net.cpp:425] loss1/ave_pool <- inception_4a/output_inception_4a/output_0_split_0
I0403 15:22:08.249863 31529 net.cpp:399] loss1/ave_pool -> loss1/ave_pool
I0403 15:22:08.250073 31529 net.cpp:141] Setting up loss1/ave_pool
I0403 15:22:08.250100 31529 net.cpp:148] Top shape: 24 512 4 4 (196608)
I0403 15:22:08.250116 31529 net.cpp:156] Memory required for data: 945501216
I0403 15:22:08.250133 31529 layer_factory.hpp:77] Creating layer loss1/conv
I0403 15:22:08.250154 31529 net.cpp:91] Creating Layer loss1/conv
I0403 15:22:08.250172 31529 net.cpp:425] loss1/conv <- loss1/ave_pool
I0403 15:22:08.250195 31529 net.cpp:399] loss1/conv -> loss1/conv
I0403 15:22:08.251598 31529 net.cpp:141] Setting up loss1/conv
I0403 15:22:08.251627 31529 net.cpp:148] Top shape: 24 128 4 4 (49152)
I0403 15:22:08.251643 31529 net.cpp:156] Memory required for data: 945697824
I0403 15:22:08.251677 31529 layer_factory.hpp:77] Creating layer loss1/relu_conv
I0403 15:22:08.251698 31529 net.cpp:91] Creating Layer loss1/relu_conv
I0403 15:22:08.251715 31529 net.cpp:425] loss1/relu_conv <- loss1/conv
I0403 15:22:08.251734 31529 net.cpp:386] loss1/relu_conv -> loss1/conv (in-place)
I0403 15:22:08.252014 31529 net.cpp:141] Setting up loss1/relu_conv
I0403 15:22:08.252040 31529 net.cpp:148] Top shape: 24 128 4 4 (49152)
I0403 15:22:08.252056 31529 net.cpp:156] Memory required for data: 945894432
I0403 15:22:08.252073 31529 layer_factory.hpp:77] Creating layer loss1/fc
I0403 15:22:08.252099 31529 net.cpp:91] Creating Layer loss1/fc
I0403 15:22:08.252116 31529 net.cpp:425] loss1/fc <- loss1/conv
I0403 15:22:08.252138 31529 net.cpp:399] loss1/fc -> loss1/fc
I0403 15:22:08.270558 31529 net.cpp:141] Setting up loss1/fc
I0403 15:22:08.270614 31529 net.cpp:148] Top shape: 24 1024 (24576)
I0403 15:22:08.270632 31529 net.cpp:156] Memory required for data: 945992736
I0403 15:22:08.270653 31529 layer_factory.hpp:77] Creating layer loss1/relu_fc
I0403 15:22:08.270674 31529 net.cpp:91] Creating Layer loss1/relu_fc
I0403 15:22:08.270691 31529 net.cpp:425] loss1/relu_fc <- loss1/fc
I0403 15:22:08.270714 31529 net.cpp:386] loss1/relu_fc -> loss1/fc (in-place)
I0403 15:22:08.270932 31529 net.cpp:141] Setting up loss1/relu_fc
I0403 15:22:08.270959 31529 net.cpp:148] Top shape: 24 1024 (24576)
I0403 15:22:08.270977 31529 net.cpp:156] Memory required for data: 946091040
I0403 15:22:08.270992 31529 layer_factory.hpp:77] Creating layer loss1/drop_fc
I0403 15:22:08.271026 31529 net.cpp:91] Creating Layer loss1/drop_fc
I0403 15:22:08.271046 31529 net.cpp:425] loss1/drop_fc <- loss1/fc
I0403 15:22:08.271064 31529 net.cpp:386] loss1/drop_fc -> loss1/fc (in-place)
I0403 15:22:08.271119 31529 net.cpp:141] Setting up loss1/drop_fc
I0403 15:22:08.271148 31529 net.cpp:148] Top shape: 24 1024 (24576)
I0403 15:22:08.271165 31529 net.cpp:156] Memory required for data: 946189344
I0403 15:22:08.271181 31529 layer_factory.hpp:77] Creating layer loss1/classifier_plantvillage
I0403 15:22:08.271203 31529 net.cpp:91] Creating Layer loss1/classifier_plantvillage
I0403 15:22:08.271219 31529 net.cpp:425] loss1/classifier_plantvillage <- loss1/fc
I0403 15:22:08.271242 31529 net.cpp:399] loss1/classifier_plantvillage -> loss1/classifier_plantvillage
I0403 15:22:08.272277 31529 net.cpp:141] Setting up loss1/classifier_plantvillage
I0403 15:22:08.272307 31529 net.cpp:148] Top shape: 24 38 (912)
I0403 15:22:08.272325 31529 net.cpp:156] Memory required for data: 946192992
I0403 15:22:08.272343 31529 layer_factory.hpp:77] Creating layer loss1/classifier_plantvillage_loss1/classifier_plantvillage_0_split
I0403 15:22:08.272363 31529 net.cpp:91] Creating Layer loss1/classifier_plantvillage_loss1/classifier_plantvillage_0_split
I0403 15:22:08.272380 31529 net.cpp:425] loss1/classifier_plantvillage_loss1/classifier_plantvillage_0_split <- loss1/classifier_plantvillage
I0403 15:22:08.272403 31529 net.cpp:399] loss1/classifier_plantvillage_loss1/classifier_plantvillage_0_split -> loss1/classifier_plantvillage_loss1/classifier_plantvillage_0_split_0
I0403 15:22:08.272424 31529 net.cpp:399] loss1/classifier_plantvillage_loss1/classifier_plantvillage_0_split -> loss1/classifier_plantvillage_loss1/classifier_plantvillage_0_split_1
I0403 15:22:08.272446 31529 net.cpp:399] loss1/classifier_plantvillage_loss1/classifier_plantvillage_0_split -> loss1/classifier_plantvillage_loss1/classifier_plantvillage_0_split_2
I0403 15:22:08.272518 31529 net.cpp:141] Setting up loss1/classifier_plantvillage_loss1/classifier_plantvillage_0_split
I0403 15:22:08.272554 31529 net.cpp:148] Top shape: 24 38 (912)
I0403 15:22:08.272572 31529 net.cpp:148] Top shape: 24 38 (912)
I0403 15:22:08.272589 31529 net.cpp:148] Top shape: 24 38 (912)
I0403 15:22:08.272604 31529 net.cpp:156] Memory required for data: 946203936
I0403 15:22:08.272619 31529 layer_factory.hpp:77] Creating layer inception_4b/1x1
I0403 15:22:08.272644 31529 net.cpp:91] Creating Layer inception_4b/1x1
I0403 15:22:08.272681 31529 net.cpp:425] inception_4b/1x1 <- inception_4a/output_inception_4a/output_0_split_1
I0403 15:22:08.272702 31529 net.cpp:399] inception_4b/1x1 -> inception_4b/1x1
I0403 15:22:08.274390 31529 net.cpp:141] Setting up inception_4b/1x1
I0403 15:22:08.274420 31529 net.cpp:148] Top shape: 24 160 14 14 (752640)
I0403 15:22:08.274435 31529 net.cpp:156] Memory required for data: 949214496
I0403 15:22:08.274454 31529 layer_factory.hpp:77] Creating layer inception_4b/relu_1x1
I0403 15:22:08.274476 31529 net.cpp:91] Creating Layer inception_4b/relu_1x1
I0403 15:22:08.274492 31529 net.cpp:425] inception_4b/relu_1x1 <- inception_4b/1x1
I0403 15:22:08.274510 31529 net.cpp:386] inception_4b/relu_1x1 -> inception_4b/1x1 (in-place)
I0403 15:22:08.274687 31529 net.cpp:141] Setting up inception_4b/relu_1x1
I0403 15:22:08.274715 31529 net.cpp:148] Top shape: 24 160 14 14 (752640)
I0403 15:22:08.274731 31529 net.cpp:156] Memory required for data: 952225056
I0403 15:22:08.274747 31529 layer_factory.hpp:77] Creating layer inception_4b/3x3_reduce
I0403 15:22:08.274771 31529 net.cpp:91] Creating Layer inception_4b/3x3_reduce
I0403 15:22:08.274791 31529 net.cpp:425] inception_4b/3x3_reduce <- inception_4a/output_inception_4a/output_0_split_2
I0403 15:22:08.274811 31529 net.cpp:399] inception_4b/3x3_reduce -> inception_4b/3x3_reduce
I0403 15:22:08.276159 31529 net.cpp:141] Setting up inception_4b/3x3_reduce
I0403 15:22:08.276190 31529 net.cpp:148] Top shape: 24 112 14 14 (526848)
I0403 15:22:08.276208 31529 net.cpp:156] Memory required for data: 954332448
I0403 15:22:08.276228 31529 layer_factory.hpp:77] Creating layer inception_4b/relu_3x3_reduce
I0403 15:22:08.276247 31529 net.cpp:91] Creating Layer inception_4b/relu_3x3_reduce
I0403 15:22:08.276278 31529 net.cpp:425] inception_4b/relu_3x3_reduce <- inception_4b/3x3_reduce
I0403 15:22:08.276299 31529 net.cpp:386] inception_4b/relu_3x3_reduce -> inception_4b/3x3_reduce (in-place)
I0403 15:22:08.276577 31529 net.cpp:141] Setting up inception_4b/relu_3x3_reduce
I0403 15:22:08.276607 31529 net.cpp:148] Top shape: 24 112 14 14 (526848)
I0403 15:22:08.276623 31529 net.cpp:156] Memory required for data: 956439840
I0403 15:22:08.276638 31529 layer_factory.hpp:77] Creating layer inception_4b/3x3
I0403 15:22:08.276661 31529 net.cpp:91] Creating Layer inception_4b/3x3
I0403 15:22:08.276679 31529 net.cpp:425] inception_4b/3x3 <- inception_4b/3x3_reduce
I0403 15:22:08.276698 31529 net.cpp:399] inception_4b/3x3 -> inception_4b/3x3
I0403 15:22:08.279662 31529 net.cpp:141] Setting up inception_4b/3x3
I0403 15:22:08.279692 31529 net.cpp:148] Top shape: 24 224 14 14 (1053696)
I0403 15:22:08.279708 31529 net.cpp:156] Memory required for data: 960654624
I0403 15:22:08.279727 31529 layer_factory.hpp:77] Creating layer inception_4b/relu_3x3
I0403 15:22:08.279747 31529 net.cpp:91] Creating Layer inception_4b/relu_3x3
I0403 15:22:08.279763 31529 net.cpp:425] inception_4b/relu_3x3 <- inception_4b/3x3
I0403 15:22:08.279783 31529 net.cpp:386] inception_4b/relu_3x3 -> inception_4b/3x3 (in-place)
I0403 15:22:08.279963 31529 net.cpp:141] Setting up inception_4b/relu_3x3
I0403 15:22:08.279989 31529 net.cpp:148] Top shape: 24 224 14 14 (1053696)
I0403 15:22:08.280004 31529 net.cpp:156] Memory required for data: 964869408
I0403 15:22:08.280021 31529 layer_factory.hpp:77] Creating layer inception_4b/5x5_reduce
I0403 15:22:08.280043 31529 net.cpp:91] Creating Layer inception_4b/5x5_reduce
I0403 15:22:08.280062 31529 net.cpp:425] inception_4b/5x5_reduce <- inception_4a/output_inception_4a/output_0_split_3
I0403 15:22:08.280084 31529 net.cpp:399] inception_4b/5x5_reduce -> inception_4b/5x5_reduce
I0403 15:22:08.281168 31529 net.cpp:141] Setting up inception_4b/5x5_reduce
I0403 15:22:08.281199 31529 net.cpp:148] Top shape: 24 24 14 14 (112896)
I0403 15:22:08.281216 31529 net.cpp:156] Memory required for data: 965320992
I0403 15:22:08.281236 31529 layer_factory.hpp:77] Creating layer inception_4b/relu_5x5_reduce
I0403 15:22:08.281258 31529 net.cpp:91] Creating Layer inception_4b/relu_5x5_reduce
I0403 15:22:08.281291 31529 net.cpp:425] inception_4b/relu_5x5_reduce <- inception_4b/5x5_reduce
I0403 15:22:08.281311 31529 net.cpp:386] inception_4b/relu_5x5_reduce -> inception_4b/5x5_reduce (in-place)
I0403 15:22:08.281496 31529 net.cpp:141] Setting up inception_4b/relu_5x5_reduce
I0403 15:22:08.281522 31529 net.cpp:148] Top shape: 24 24 14 14 (112896)
I0403 15:22:08.281539 31529 net.cpp:156] Memory required for data: 965772576
I0403 15:22:08.281564 31529 layer_factory.hpp:77] Creating layer inception_4b/5x5
I0403 15:22:08.281587 31529 net.cpp:91] Creating Layer inception_4b/5x5
I0403 15:22:08.281605 31529 net.cpp:425] inception_4b/5x5 <- inception_4b/5x5_reduce
I0403 15:22:08.281625 31529 net.cpp:399] inception_4b/5x5 -> inception_4b/5x5
I0403 15:22:08.282848 31529 net.cpp:141] Setting up inception_4b/5x5
I0403 15:22:08.282877 31529 net.cpp:148] Top shape: 24 64 14 14 (301056)
I0403 15:22:08.282893 31529 net.cpp:156] Memory required for data: 966976800
I0403 15:22:08.282912 31529 layer_factory.hpp:77] Creating layer inception_4b/relu_5x5
I0403 15:22:08.282933 31529 net.cpp:91] Creating Layer inception_4b/relu_5x5
I0403 15:22:08.282950 31529 net.cpp:425] inception_4b/relu_5x5 <- inception_4b/5x5
I0403 15:22:08.282968 31529 net.cpp:386] inception_4b/relu_5x5 -> inception_4b/5x5 (in-place)
I0403 15:22:08.283277 31529 net.cpp:141] Setting up inception_4b/relu_5x5
I0403 15:22:08.283304 31529 net.cpp:148] Top shape: 24 64 14 14 (301056)
I0403 15:22:08.283321 31529 net.cpp:156] Memory required for data: 968181024
I0403 15:22:08.283337 31529 layer_factory.hpp:77] Creating layer inception_4b/pool
I0403 15:22:08.283360 31529 net.cpp:91] Creating Layer inception_4b/pool
I0403 15:22:08.283377 31529 net.cpp:425] inception_4b/pool <- inception_4a/output_inception_4a/output_0_split_4
I0403 15:22:08.283396 31529 net.cpp:399] inception_4b/pool -> inception_4b/pool
I0403 15:22:08.283465 31529 net.cpp:141] Setting up inception_4b/pool
I0403 15:22:08.283490 31529 net.cpp:148] Top shape: 24 512 14 14 (2408448)
I0403 15:22:08.283505 31529 net.cpp:156] Memory required for data: 977814816
I0403 15:22:08.283521 31529 layer_factory.hpp:77] Creating layer inception_4b/pool_proj
I0403 15:22:08.283557 31529 net.cpp:91] Creating Layer inception_4b/pool_proj
I0403 15:22:08.283576 31529 net.cpp:425] inception_4b/pool_proj <- inception_4b/pool
I0403 15:22:08.283597 31529 net.cpp:399] inception_4b/pool_proj -> inception_4b/pool_proj
I0403 15:22:08.284878 31529 net.cpp:141] Setting up inception_4b/pool_proj
I0403 15:22:08.284906 31529 net.cpp:148] Top shape: 24 64 14 14 (301056)
I0403 15:22:08.284922 31529 net.cpp:156] Memory required for data: 979019040
I0403 15:22:08.284941 31529 layer_factory.hpp:77] Creating layer inception_4b/relu_pool_proj
I0403 15:22:08.284962 31529 net.cpp:91] Creating Layer inception_4b/relu_pool_proj
I0403 15:22:08.284981 31529 net.cpp:425] inception_4b/relu_pool_proj <- inception_4b/pool_proj
I0403 15:22:08.285001 31529 net.cpp:386] inception_4b/relu_pool_proj -> inception_4b/pool_proj (in-place)
I0403 15:22:08.285181 31529 net.cpp:141] Setting up inception_4b/relu_pool_proj
I0403 15:22:08.285207 31529 net.cpp:148] Top shape: 24 64 14 14 (301056)
I0403 15:22:08.285221 31529 net.cpp:156] Memory required for data: 980223264
I0403 15:22:08.285238 31529 layer_factory.hpp:77] Creating layer inception_4b/output
I0403 15:22:08.285259 31529 net.cpp:91] Creating Layer inception_4b/output
I0403 15:22:08.285286 31529 net.cpp:425] inception_4b/output <- inception_4b/1x1
I0403 15:22:08.285305 31529 net.cpp:425] inception_4b/output <- inception_4b/3x3
I0403 15:22:08.285321 31529 net.cpp:425] inception_4b/output <- inception_4b/5x5
I0403 15:22:08.285336 31529 net.cpp:425] inception_4b/output <- inception_4b/pool_proj
I0403 15:22:08.285356 31529 net.cpp:399] inception_4b/output -> inception_4b/output
I0403 15:22:08.285403 31529 net.cpp:141] Setting up inception_4b/output
I0403 15:22:08.285428 31529 net.cpp:148] Top shape: 24 512 14 14 (2408448)
I0403 15:22:08.285446 31529 net.cpp:156] Memory required for data: 989857056
I0403 15:22:08.285475 31529 layer_factory.hpp:77] Creating layer inception_4b/output_inception_4b/output_0_split
I0403 15:22:08.285492 31529 net.cpp:91] Creating Layer inception_4b/output_inception_4b/output_0_split
I0403 15:22:08.285509 31529 net.cpp:425] inception_4b/output_inception_4b/output_0_split <- inception_4b/output
I0403 15:22:08.285527 31529 net.cpp:399] inception_4b/output_inception_4b/output_0_split -> inception_4b/output_inception_4b/output_0_split_0
I0403 15:22:08.285547 31529 net.cpp:399] inception_4b/output_inception_4b/output_0_split -> inception_4b/output_inception_4b/output_0_split_1
I0403 15:22:08.285569 31529 net.cpp:399] inception_4b/output_inception_4b/output_0_split -> inception_4b/output_inception_4b/output_0_split_2
I0403 15:22:08.285593 31529 net.cpp:399] inception_4b/output_inception_4b/output_0_split -> inception_4b/output_inception_4b/output_0_split_3
I0403 15:22:08.285677 31529 net.cpp:141] Setting up inception_4b/output_inception_4b/output_0_split
I0403 15:22:08.285712 31529 net.cpp:148] Top shape: 24 512 14 14 (2408448)
I0403 15:22:08.285729 31529 net.cpp:148] Top shape: 24 512 14 14 (2408448)
I0403 15:22:08.285747 31529 net.cpp:148] Top shape: 24 512 14 14 (2408448)
I0403 15:22:08.285764 31529 net.cpp:148] Top shape: 24 512 14 14 (2408448)
I0403 15:22:08.285779 31529 net.cpp:156] Memory required for data: 1028392224
I0403 15:22:08.285794 31529 layer_factory.hpp:77] Creating layer inception_4c/1x1
I0403 15:22:08.285815 31529 net.cpp:91] Creating Layer inception_4c/1x1
I0403 15:22:08.285835 31529 net.cpp:425] inception_4c/1x1 <- inception_4b/output_inception_4b/output_0_split_0
I0403 15:22:08.285856 31529 net.cpp:399] inception_4c/1x1 -> inception_4c/1x1
I0403 15:22:08.287288 31529 net.cpp:141] Setting up inception_4c/1x1
I0403 15:22:08.287317 31529 net.cpp:148] Top shape: 24 128 14 14 (602112)
I0403 15:22:08.287333 31529 net.cpp:156] Memory required for data: 1030800672
I0403 15:22:08.287351 31529 layer_factory.hpp:77] Creating layer inception_4c/relu_1x1
I0403 15:22:08.287369 31529 net.cpp:91] Creating Layer inception_4c/relu_1x1
I0403 15:22:08.287385 31529 net.cpp:425] inception_4c/relu_1x1 <- inception_4c/1x1
I0403 15:22:08.287405 31529 net.cpp:386] inception_4c/relu_1x1 -> inception_4c/1x1 (in-place)
I0403 15:22:08.287580 31529 net.cpp:141] Setting up inception_4c/relu_1x1
I0403 15:22:08.287603 31529 net.cpp:148] Top shape: 24 128 14 14 (602112)
I0403 15:22:08.287619 31529 net.cpp:156] Memory required for data: 1033209120
I0403 15:22:08.287636 31529 layer_factory.hpp:77] Creating layer inception_4c/3x3_reduce
I0403 15:22:08.287657 31529 net.cpp:91] Creating Layer inception_4c/3x3_reduce
I0403 15:22:08.287673 31529 net.cpp:425] inception_4c/3x3_reduce <- inception_4b/output_inception_4b/output_0_split_1
I0403 15:22:08.287694 31529 net.cpp:399] inception_4c/3x3_reduce -> inception_4c/3x3_reduce
I0403 15:22:08.289593 31529 net.cpp:141] Setting up inception_4c/3x3_reduce
I0403 15:22:08.289623 31529 net.cpp:148] Top shape: 24 128 14 14 (602112)
I0403 15:22:08.289639 31529 net.cpp:156] Memory required for data: 1035617568
I0403 15:22:08.289659 31529 layer_factory.hpp:77] Creating layer inception_4c/relu_3x3_reduce
I0403 15:22:08.289680 31529 net.cpp:91] Creating Layer inception_4c/relu_3x3_reduce
I0403 15:22:08.289695 31529 net.cpp:425] inception_4c/relu_3x3_reduce <- inception_4c/3x3_reduce
I0403 15:22:08.289713 31529 net.cpp:386] inception_4c/relu_3x3_reduce -> inception_4c/3x3_reduce (in-place)
I0403 15:22:08.289995 31529 net.cpp:141] Setting up inception_4c/relu_3x3_reduce
I0403 15:22:08.290021 31529 net.cpp:148] Top shape: 24 128 14 14 (602112)
I0403 15:22:08.290036 31529 net.cpp:156] Memory required for data: 1038026016
I0403 15:22:08.290051 31529 layer_factory.hpp:77] Creating layer inception_4c/3x3
I0403 15:22:08.290074 31529 net.cpp:91] Creating Layer inception_4c/3x3
I0403 15:22:08.290092 31529 net.cpp:425] inception_4c/3x3 <- inception_4c/3x3_reduce
I0403 15:22:08.290113 31529 net.cpp:399] inception_4c/3x3 -> inception_4c/3x3
I0403 15:22:08.293607 31529 net.cpp:141] Setting up inception_4c/3x3
I0403 15:22:08.293647 31529 net.cpp:148] Top shape: 24 256 14 14 (1204224)
I0403 15:22:08.293663 31529 net.cpp:156] Memory required for data: 1042842912
I0403 15:22:08.293696 31529 layer_factory.hpp:77] Creating layer inception_4c/relu_3x3
I0403 15:22:08.293720 31529 net.cpp:91] Creating Layer inception_4c/relu_3x3
I0403 15:22:08.293735 31529 net.cpp:425] inception_4c/relu_3x3 <- inception_4c/3x3
I0403 15:22:08.293751 31529 net.cpp:386] inception_4c/relu_3x3 -> inception_4c/3x3 (in-place)
I0403 15:22:08.293926 31529 net.cpp:141] Setting up inception_4c/relu_3x3
I0403 15:22:08.293953 31529 net.cpp:148] Top shape: 24 256 14 14 (1204224)
I0403 15:22:08.293968 31529 net.cpp:156] Memory required for data: 1047659808
I0403 15:22:08.293984 31529 layer_factory.hpp:77] Creating layer inception_4c/5x5_reduce
I0403 15:22:08.294003 31529 net.cpp:91] Creating Layer inception_4c/5x5_reduce
I0403 15:22:08.294020 31529 net.cpp:425] inception_4c/5x5_reduce <- inception_4b/output_inception_4b/output_0_split_2
I0403 15:22:08.294042 31529 net.cpp:399] inception_4c/5x5_reduce -> inception_4c/5x5_reduce
I0403 15:22:08.295114 31529 net.cpp:141] Setting up inception_4c/5x5_reduce
I0403 15:22:08.295155 31529 net.cpp:148] Top shape: 24 24 14 14 (112896)
I0403 15:22:08.295171 31529 net.cpp:156] Memory required for data: 1048111392
I0403 15:22:08.295192 31529 layer_factory.hpp:77] Creating layer inception_4c/relu_5x5_reduce
I0403 15:22:08.295213 31529 net.cpp:91] Creating Layer inception_4c/relu_5x5_reduce
I0403 15:22:08.295230 31529 net.cpp:425] inception_4c/relu_5x5_reduce <- inception_4c/5x5_reduce
I0403 15:22:08.295248 31529 net.cpp:386] inception_4c/relu_5x5_reduce -> inception_4c/5x5_reduce (in-place)
I0403 15:22:08.295435 31529 net.cpp:141] Setting up inception_4c/relu_5x5_reduce
I0403 15:22:08.295464 31529 net.cpp:148] Top shape: 24 24 14 14 (112896)
I0403 15:22:08.295480 31529 net.cpp:156] Memory required for data: 1048562976
I0403 15:22:08.295495 31529 layer_factory.hpp:77] Creating layer inception_4c/5x5
I0403 15:22:08.295517 31529 net.cpp:91] Creating Layer inception_4c/5x5
I0403 15:22:08.295536 31529 net.cpp:425] inception_4c/5x5 <- inception_4c/5x5_reduce
I0403 15:22:08.295555 31529 net.cpp:399] inception_4c/5x5 -> inception_4c/5x5
I0403 15:22:08.296845 31529 net.cpp:141] Setting up inception_4c/5x5
I0403 15:22:08.296886 31529 net.cpp:148] Top shape: 24 64 14 14 (301056)
I0403 15:22:08.296902 31529 net.cpp:156] Memory required for data: 1049767200
I0403 15:22:08.296921 31529 layer_factory.hpp:77] Creating layer inception_4c/relu_5x5
I0403 15:22:08.296939 31529 net.cpp:91] Creating Layer inception_4c/relu_5x5
I0403 15:22:08.296957 31529 net.cpp:425] inception_4c/relu_5x5 <- inception_4c/5x5
I0403 15:22:08.296977 31529 net.cpp:386] inception_4c/relu_5x5 -> inception_4c/5x5 (in-place)
I0403 15:22:08.297276 31529 net.cpp:141] Setting up inception_4c/relu_5x5
I0403 15:22:08.297302 31529 net.cpp:148] Top shape: 24 64 14 14 (301056)
I0403 15:22:08.297317 31529 net.cpp:156] Memory required for data: 1050971424
I0403 15:22:08.297333 31529 layer_factory.hpp:77] Creating layer inception_4c/pool
I0403 15:22:08.297350 31529 net.cpp:91] Creating Layer inception_4c/pool
I0403 15:22:08.297368 31529 net.cpp:425] inception_4c/pool <- inception_4b/output_inception_4b/output_0_split_3
I0403 15:22:08.297389 31529 net.cpp:399] inception_4c/pool -> inception_4c/pool
I0403 15:22:08.297453 31529 net.cpp:141] Setting up inception_4c/pool
I0403 15:22:08.297477 31529 net.cpp:148] Top shape: 24 512 14 14 (2408448)
I0403 15:22:08.297492 31529 net.cpp:156] Memory required for data: 1060605216
I0403 15:22:08.297508 31529 layer_factory.hpp:77] Creating layer inception_4c/pool_proj
I0403 15:22:08.297531 31529 net.cpp:91] Creating Layer inception_4c/pool_proj
I0403 15:22:08.297549 31529 net.cpp:425] inception_4c/pool_proj <- inception_4c/pool
I0403 15:22:08.297567 31529 net.cpp:399] inception_4c/pool_proj -> inception_4c/pool_proj
I0403 15:22:08.298761 31529 net.cpp:141] Setting up inception_4c/pool_proj
I0403 15:22:08.298789 31529 net.cpp:148] Top shape: 24 64 14 14 (301056)
I0403 15:22:08.298817 31529 net.cpp:156] Memory required for data: 1061809440
I0403 15:22:08.298837 31529 layer_factory.hpp:77] Creating layer inception_4c/relu_pool_proj
I0403 15:22:08.298857 31529 net.cpp:91] Creating Layer inception_4c/relu_pool_proj
I0403 15:22:08.298873 31529 net.cpp:425] inception_4c/relu_pool_proj <- inception_4c/pool_proj
I0403 15:22:08.298890 31529 net.cpp:386] inception_4c/relu_pool_proj -> inception_4c/pool_proj (in-place)
I0403 15:22:08.299065 31529 net.cpp:141] Setting up inception_4c/relu_pool_proj
I0403 15:22:08.299093 31529 net.cpp:148] Top shape: 24 64 14 14 (301056)
I0403 15:22:08.299108 31529 net.cpp:156] Memory required for data: 1063013664
I0403 15:22:08.299123 31529 layer_factory.hpp:77] Creating layer inception_4c/output
I0403 15:22:08.299139 31529 net.cpp:91] Creating Layer inception_4c/output
I0403 15:22:08.299154 31529 net.cpp:425] inception_4c/output <- inception_4c/1x1
I0403 15:22:08.299170 31529 net.cpp:425] inception_4c/output <- inception_4c/3x3
I0403 15:22:08.299187 31529 net.cpp:425] inception_4c/output <- inception_4c/5x5
I0403 15:22:08.299203 31529 net.cpp:425] inception_4c/output <- inception_4c/pool_proj
I0403 15:22:08.299219 31529 net.cpp:399] inception_4c/output -> inception_4c/output
I0403 15:22:08.299271 31529 net.cpp:141] Setting up inception_4c/output
I0403 15:22:08.299294 31529 net.cpp:148] Top shape: 24 512 14 14 (2408448)
I0403 15:22:08.299309 31529 net.cpp:156] Memory required for data: 1072647456
I0403 15:22:08.299325 31529 layer_factory.hpp:77] Creating layer inception_4c/output_inception_4c/output_0_split
I0403 15:22:08.299343 31529 net.cpp:91] Creating Layer inception_4c/output_inception_4c/output_0_split
I0403 15:22:08.299360 31529 net.cpp:425] inception_4c/output_inception_4c/output_0_split <- inception_4c/output
I0403 15:22:08.299378 31529 net.cpp:399] inception_4c/output_inception_4c/output_0_split -> inception_4c/output_inception_4c/output_0_split_0
I0403 15:22:08.299398 31529 net.cpp:399] inception_4c/output_inception_4c/output_0_split -> inception_4c/output_inception_4c/output_0_split_1
I0403 15:22:08.299417 31529 net.cpp:399] inception_4c/output_inception_4c/output_0_split -> inception_4c/output_inception_4c/output_0_split_2
I0403 15:22:08.299439 31529 net.cpp:399] inception_4c/output_inception_4c/output_0_split -> inception_4c/output_inception_4c/output_0_split_3
I0403 15:22:08.299525 31529 net.cpp:141] Setting up inception_4c/output_inception_4c/output_0_split
I0403 15:22:08.299548 31529 net.cpp:148] Top shape: 24 512 14 14 (2408448)
I0403 15:22:08.299566 31529 net.cpp:148] Top shape: 24 512 14 14 (2408448)
I0403 15:22:08.299582 31529 net.cpp:148] Top shape: 24 512 14 14 (2408448)
I0403 15:22:08.299597 31529 net.cpp:148] Top shape: 24 512 14 14 (2408448)
I0403 15:22:08.299612 31529 net.cpp:156] Memory required for data: 1111182624
I0403 15:22:08.299626 31529 layer_factory.hpp:77] Creating layer inception_4d/1x1
I0403 15:22:08.299649 31529 net.cpp:91] Creating Layer inception_4d/1x1
I0403 15:22:08.299666 31529 net.cpp:425] inception_4d/1x1 <- inception_4c/output_inception_4c/output_0_split_0
I0403 15:22:08.299687 31529 net.cpp:399] inception_4d/1x1 -> inception_4d/1x1
I0403 15:22:08.301026 31529 net.cpp:141] Setting up inception_4d/1x1
I0403 15:22:08.301054 31529 net.cpp:148] Top shape: 24 112 14 14 (526848)
I0403 15:22:08.301070 31529 net.cpp:156] Memory required for data: 1113290016
I0403 15:22:08.301090 31529 layer_factory.hpp:77] Creating layer inception_4d/relu_1x1
I0403 15:22:08.301107 31529 net.cpp:91] Creating Layer inception_4d/relu_1x1
I0403 15:22:08.301123 31529 net.cpp:425] inception_4d/relu_1x1 <- inception_4d/1x1
I0403 15:22:08.301143 31529 net.cpp:386] inception_4d/relu_1x1 -> inception_4d/1x1 (in-place)
I0403 15:22:08.301333 31529 net.cpp:141] Setting up inception_4d/relu_1x1
I0403 15:22:08.301359 31529 net.cpp:148] Top shape: 24 112 14 14 (526848)
I0403 15:22:08.301373 31529 net.cpp:156] Memory required for data: 1115397408
I0403 15:22:08.301389 31529 layer_factory.hpp:77] Creating layer inception_4d/3x3_reduce
I0403 15:22:08.301424 31529 net.cpp:91] Creating Layer inception_4d/3x3_reduce
I0403 15:22:08.301442 31529 net.cpp:425] inception_4d/3x3_reduce <- inception_4c/output_inception_4c/output_0_split_1
I0403 15:22:08.301463 31529 net.cpp:399] inception_4d/3x3_reduce -> inception_4d/3x3_reduce
I0403 15:22:08.302927 31529 net.cpp:141] Setting up inception_4d/3x3_reduce
I0403 15:22:08.302958 31529 net.cpp:148] Top shape: 24 144 14 14 (677376)
I0403 15:22:08.302974 31529 net.cpp:156] Memory required for data: 1118106912
I0403 15:22:08.302994 31529 layer_factory.hpp:77] Creating layer inception_4d/relu_3x3_reduce
I0403 15:22:08.303010 31529 net.cpp:91] Creating Layer inception_4d/relu_3x3_reduce
I0403 15:22:08.303025 31529 net.cpp:425] inception_4d/relu_3x3_reduce <- inception_4d/3x3_reduce
I0403 15:22:08.303043 31529 net.cpp:386] inception_4d/relu_3x3_reduce -> inception_4d/3x3_reduce (in-place)
I0403 15:22:08.303328 31529 net.cpp:141] Setting up inception_4d/relu_3x3_reduce
I0403 15:22:08.303355 31529 net.cpp:148] Top shape: 24 144 14 14 (677376)
I0403 15:22:08.303372 31529 net.cpp:156] Memory required for data: 1120816416
I0403 15:22:08.303387 31529 layer_factory.hpp:77] Creating layer inception_4d/3x3
I0403 15:22:08.303409 31529 net.cpp:91] Creating Layer inception_4d/3x3
I0403 15:22:08.303427 31529 net.cpp:425] inception_4d/3x3 <- inception_4d/3x3_reduce
I0403 15:22:08.303448 31529 net.cpp:399] inception_4d/3x3 -> inception_4d/3x3
I0403 15:22:08.307582 31529 net.cpp:141] Setting up inception_4d/3x3
I0403 15:22:08.307613 31529 net.cpp:148] Top shape: 24 288 14 14 (1354752)
I0403 15:22:08.307631 31529 net.cpp:156] Memory required for data: 1126235424
I0403 15:22:08.307648 31529 layer_factory.hpp:77] Creating layer inception_4d/relu_3x3
I0403 15:22:08.307668 31529 net.cpp:91] Creating Layer inception_4d/relu_3x3
I0403 15:22:08.307685 31529 net.cpp:425] inception_4d/relu_3x3 <- inception_4d/3x3
I0403 15:22:08.307703 31529 net.cpp:386] inception_4d/relu_3x3 -> inception_4d/3x3 (in-place)
I0403 15:22:08.307881 31529 net.cpp:141] Setting up inception_4d/relu_3x3
I0403 15:22:08.307906 31529 net.cpp:148] Top shape: 24 288 14 14 (1354752)
I0403 15:22:08.307921 31529 net.cpp:156] Memory required for data: 1131654432
I0403 15:22:08.307936 31529 layer_factory.hpp:77] Creating layer inception_4d/5x5_reduce
I0403 15:22:08.307960 31529 net.cpp:91] Creating Layer inception_4d/5x5_reduce
I0403 15:22:08.307977 31529 net.cpp:425] inception_4d/5x5_reduce <- inception_4c/output_inception_4c/output_0_split_2
I0403 15:22:08.307997 31529 net.cpp:399] inception_4d/5x5_reduce -> inception_4d/5x5_reduce
I0403 15:22:08.309108 31529 net.cpp:141] Setting up inception_4d/5x5_reduce
I0403 15:22:08.309136 31529 net.cpp:148] Top shape: 24 32 14 14 (150528)
I0403 15:22:08.309152 31529 net.cpp:156] Memory required for data: 1132256544
I0403 15:22:08.309170 31529 layer_factory.hpp:77] Creating layer inception_4d/relu_5x5_reduce
I0403 15:22:08.309190 31529 net.cpp:91] Creating Layer inception_4d/relu_5x5_reduce
I0403 15:22:08.309207 31529 net.cpp:425] inception_4d/relu_5x5_reduce <- inception_4d/5x5_reduce
I0403 15:22:08.309226 31529 net.cpp:386] inception_4d/relu_5x5_reduce -> inception_4d/5x5_reduce (in-place)
I0403 15:22:08.309449 31529 net.cpp:141] Setting up inception_4d/relu_5x5_reduce
I0403 15:22:08.309479 31529 net.cpp:148] Top shape: 24 32 14 14 (150528)
I0403 15:22:08.309496 31529 net.cpp:156] Memory required for data: 1132858656
I0403 15:22:08.309514 31529 layer_factory.hpp:77] Creating layer inception_4d/5x5
I0403 15:22:08.309533 31529 net.cpp:91] Creating Layer inception_4d/5x5
I0403 15:22:08.309561 31529 net.cpp:425] inception_4d/5x5 <- inception_4d/5x5_reduce
I0403 15:22:08.309584 31529 net.cpp:399] inception_4d/5x5 -> inception_4d/5x5
I0403 15:22:08.311066 31529 net.cpp:141] Setting up inception_4d/5x5
I0403 15:22:08.311097 31529 net.cpp:148] Top shape: 24 64 14 14 (301056)
I0403 15:22:08.311115 31529 net.cpp:156] Memory required for data: 1134062880
I0403 15:22:08.311136 31529 layer_factory.hpp:77] Creating layer inception_4d/relu_5x5
I0403 15:22:08.311169 31529 net.cpp:91] Creating Layer inception_4d/relu_5x5
I0403 15:22:08.311187 31529 net.cpp:425] inception_4d/relu_5x5 <- inception_4d/5x5
I0403 15:22:08.311206 31529 net.cpp:386] inception_4d/relu_5x5 -> inception_4d/5x5 (in-place)
I0403 15:22:08.311512 31529 net.cpp:141] Setting up inception_4d/relu_5x5
I0403 15:22:08.311542 31529 net.cpp:148] Top shape: 24 64 14 14 (301056)
I0403 15:22:08.311568 31529 net.cpp:156] Memory required for data: 1135267104
I0403 15:22:08.311584 31529 layer_factory.hpp:77] Creating layer inception_4d/pool
I0403 15:22:08.311602 31529 net.cpp:91] Creating Layer inception_4d/pool
I0403 15:22:08.311619 31529 net.cpp:425] inception_4d/pool <- inception_4c/output_inception_4c/output_0_split_3
I0403 15:22:08.311637 31529 net.cpp:399] inception_4d/pool -> inception_4d/pool
I0403 15:22:08.311704 31529 net.cpp:141] Setting up inception_4d/pool
I0403 15:22:08.311730 31529 net.cpp:148] Top shape: 24 512 14 14 (2408448)
I0403 15:22:08.311745 31529 net.cpp:156] Memory required for data: 1144900896
I0403 15:22:08.311763 31529 layer_factory.hpp:77] Creating layer inception_4d/pool_proj
I0403 15:22:08.311784 31529 net.cpp:91] Creating Layer inception_4d/pool_proj
I0403 15:22:08.311802 31529 net.cpp:425] inception_4d/pool_proj <- inception_4d/pool
I0403 15:22:08.311825 31529 net.cpp:399] inception_4d/pool_proj -> inception_4d/pool_proj
I0403 15:22:08.313590 31529 net.cpp:141] Setting up inception_4d/pool_proj
I0403 15:22:08.313619 31529 net.cpp:148] Top shape: 24 64 14 14 (301056)
I0403 15:22:08.313637 31529 net.cpp:156] Memory required for data: 1146105120
I0403 15:22:08.313655 31529 layer_factory.hpp:77] Creating layer inception_4d/relu_pool_proj
I0403 15:22:08.313676 31529 net.cpp:91] Creating Layer inception_4d/relu_pool_proj
I0403 15:22:08.313693 31529 net.cpp:425] inception_4d/relu_pool_proj <- inception_4d/pool_proj
I0403 15:22:08.313710 31529 net.cpp:386] inception_4d/relu_pool_proj -> inception_4d/pool_proj (in-place)
I0403 15:22:08.313897 31529 net.cpp:141] Setting up inception_4d/relu_pool_proj
I0403 15:22:08.313923 31529 net.cpp:148] Top shape: 24 64 14 14 (301056)
I0403 15:22:08.313938 31529 net.cpp:156] Memory required for data: 1147309344
I0403 15:22:08.313954 31529 layer_factory.hpp:77] Creating layer inception_4d/output
I0403 15:22:08.313974 31529 net.cpp:91] Creating Layer inception_4d/output
I0403 15:22:08.313992 31529 net.cpp:425] inception_4d/output <- inception_4d/1x1
I0403 15:22:08.314008 31529 net.cpp:425] inception_4d/output <- inception_4d/3x3
I0403 15:22:08.314025 31529 net.cpp:425] inception_4d/output <- inception_4d/5x5
I0403 15:22:08.314043 31529 net.cpp:425] inception_4d/output <- inception_4d/pool_proj
I0403 15:22:08.314059 31529 net.cpp:399] inception_4d/output -> inception_4d/output
I0403 15:22:08.314110 31529 net.cpp:141] Setting up inception_4d/output
I0403 15:22:08.314132 31529 net.cpp:148] Top shape: 24 528 14 14 (2483712)
I0403 15:22:08.314148 31529 net.cpp:156] Memory required for data: 1157244192
I0403 15:22:08.314164 31529 layer_factory.hpp:77] Creating layer inception_4d/output_inception_4d/output_0_split
I0403 15:22:08.314182 31529 net.cpp:91] Creating Layer inception_4d/output_inception_4d/output_0_split
I0403 15:22:08.314198 31529 net.cpp:425] inception_4d/output_inception_4d/output_0_split <- inception_4d/output
I0403 15:22:08.314218 31529 net.cpp:399] inception_4d/output_inception_4d/output_0_split -> inception_4d/output_inception_4d/output_0_split_0
I0403 15:22:08.314239 31529 net.cpp:399] inception_4d/output_inception_4d/output_0_split -> inception_4d/output_inception_4d/output_0_split_1
I0403 15:22:08.314282 31529 net.cpp:399] inception_4d/output_inception_4d/output_0_split -> inception_4d/output_inception_4d/output_0_split_2
I0403 15:22:08.314311 31529 net.cpp:399] inception_4d/output_inception_4d/output_0_split -> inception_4d/output_inception_4d/output_0_split_3
I0403 15:22:08.314333 31529 net.cpp:399] inception_4d/output_inception_4d/output_0_split -> inception_4d/output_inception_4d/output_0_split_4
I0403 15:22:08.314438 31529 net.cpp:141] Setting up inception_4d/output_inception_4d/output_0_split
I0403 15:22:08.314474 31529 net.cpp:148] Top shape: 24 528 14 14 (2483712)
I0403 15:22:08.314492 31529 net.cpp:148] Top shape: 24 528 14 14 (2483712)
I0403 15:22:08.314508 31529 net.cpp:148] Top shape: 24 528 14 14 (2483712)
I0403 15:22:08.314525 31529 net.cpp:148] Top shape: 24 528 14 14 (2483712)
I0403 15:22:08.314543 31529 net.cpp:148] Top shape: 24 528 14 14 (2483712)
I0403 15:22:08.314566 31529 net.cpp:156] Memory required for data: 1206918432
I0403 15:22:08.314581 31529 layer_factory.hpp:77] Creating layer loss2/ave_pool
I0403 15:22:08.314599 31529 net.cpp:91] Creating Layer loss2/ave_pool
I0403 15:22:08.314616 31529 net.cpp:425] loss2/ave_pool <- inception_4d/output_inception_4d/output_0_split_0
I0403 15:22:08.314637 31529 net.cpp:399] loss2/ave_pool -> loss2/ave_pool
I0403 15:22:08.314952 31529 net.cpp:141] Setting up loss2/ave_pool
I0403 15:22:08.314980 31529 net.cpp:148] Top shape: 24 528 4 4 (202752)
I0403 15:22:08.314996 31529 net.cpp:156] Memory required for data: 1207729440
I0403 15:22:08.315013 31529 layer_factory.hpp:77] Creating layer loss2/conv
I0403 15:22:08.315037 31529 net.cpp:91] Creating Layer loss2/conv
I0403 15:22:08.315055 31529 net.cpp:425] loss2/conv <- loss2/ave_pool
I0403 15:22:08.315078 31529 net.cpp:399] loss2/conv -> loss2/conv
I0403 15:22:08.316995 31529 net.cpp:141] Setting up loss2/conv
I0403 15:22:08.317028 31529 net.cpp:148] Top shape: 24 128 4 4 (49152)
I0403 15:22:08.317044 31529 net.cpp:156] Memory required for data: 1207926048
I0403 15:22:08.317064 31529 layer_factory.hpp:77] Creating layer loss2/relu_conv
I0403 15:22:08.317082 31529 net.cpp:91] Creating Layer loss2/relu_conv
I0403 15:22:08.317100 31529 net.cpp:425] loss2/relu_conv <- loss2/conv
I0403 15:22:08.317119 31529 net.cpp:386] loss2/relu_conv -> loss2/conv (in-place)
I0403 15:22:08.317409 31529 net.cpp:141] Setting up loss2/relu_conv
I0403 15:22:08.317438 31529 net.cpp:148] Top shape: 24 128 4 4 (49152)
I0403 15:22:08.317456 31529 net.cpp:156] Memory required for data: 1208122656
I0403 15:22:08.317471 31529 layer_factory.hpp:77] Creating layer loss2/fc
I0403 15:22:08.317490 31529 net.cpp:91] Creating Layer loss2/fc
I0403 15:22:08.317507 31529 net.cpp:425] loss2/fc <- loss2/conv
I0403 15:22:08.317531 31529 net.cpp:399] loss2/fc -> loss2/fc
I0403 15:22:08.335304 31529 net.cpp:141] Setting up loss2/fc
I0403 15:22:08.335335 31529 net.cpp:148] Top shape: 24 1024 (24576)
I0403 15:22:08.335351 31529 net.cpp:156] Memory required for data: 1208220960
I0403 15:22:08.335371 31529 layer_factory.hpp:77] Creating layer loss2/relu_fc
I0403 15:22:08.335394 31529 net.cpp:91] Creating Layer loss2/relu_fc
I0403 15:22:08.335413 31529 net.cpp:425] loss2/relu_fc <- loss2/fc
I0403 15:22:08.335432 31529 net.cpp:386] loss2/relu_fc -> loss2/fc (in-place)
I0403 15:22:08.335746 31529 net.cpp:141] Setting up loss2/relu_fc
I0403 15:22:08.335772 31529 net.cpp:148] Top shape: 24 1024 (24576)
I0403 15:22:08.335789 31529 net.cpp:156] Memory required for data: 1208319264
I0403 15:22:08.335805 31529 layer_factory.hpp:77] Creating layer loss2/drop_fc
I0403 15:22:08.335825 31529 net.cpp:91] Creating Layer loss2/drop_fc
I0403 15:22:08.335844 31529 net.cpp:425] loss2/drop_fc <- loss2/fc
I0403 15:22:08.335862 31529 net.cpp:386] loss2/drop_fc -> loss2/fc (in-place)
I0403 15:22:08.335918 31529 net.cpp:141] Setting up loss2/drop_fc
I0403 15:22:08.335942 31529 net.cpp:148] Top shape: 24 1024 (24576)
I0403 15:22:08.335958 31529 net.cpp:156] Memory required for data: 1208417568
I0403 15:22:08.335973 31529 layer_factory.hpp:77] Creating layer loss2/classifier_plantvillage
I0403 15:22:08.335991 31529 net.cpp:91] Creating Layer loss2/classifier_plantvillage
I0403 15:22:08.336007 31529 net.cpp:425] loss2/classifier_plantvillage <- loss2/fc
I0403 15:22:08.336030 31529 net.cpp:399] loss2/classifier_plantvillage -> loss2/classifier_plantvillage
I0403 15:22:08.336447 31529 net.cpp:141] Setting up loss2/classifier_plantvillage
I0403 15:22:08.336473 31529 net.cpp:148] Top shape: 24 38 (912)
I0403 15:22:08.336489 31529 net.cpp:156] Memory required for data: 1208421216
I0403 15:22:08.336524 31529 layer_factory.hpp:77] Creating layer loss2/classifier_plantvillage_loss2/classifier_plantvillage_0_split
I0403 15:22:08.336545 31529 net.cpp:91] Creating Layer loss2/classifier_plantvillage_loss2/classifier_plantvillage_0_split
I0403 15:22:08.336570 31529 net.cpp:425] loss2/classifier_plantvillage_loss2/classifier_plantvillage_0_split <- loss2/classifier_plantvillage
I0403 15:22:08.336591 31529 net.cpp:399] loss2/classifier_plantvillage_loss2/classifier_plantvillage_0_split -> loss2/classifier_plantvillage_loss2/classifier_plantvillage_0_split_0
I0403 15:22:08.336612 31529 net.cpp:399] loss2/classifier_plantvillage_loss2/classifier_plantvillage_0_split -> loss2/classifier_plantvillage_loss2/classifier_plantvillage_0_split_1
I0403 15:22:08.336637 31529 net.cpp:399] loss2/classifier_plantvillage_loss2/classifier_plantvillage_0_split -> loss2/classifier_plantvillage_loss2/classifier_plantvillage_0_split_2
I0403 15:22:08.336714 31529 net.cpp:141] Setting up loss2/classifier_plantvillage_loss2/classifier_plantvillage_0_split
I0403 15:22:08.336738 31529 net.cpp:148] Top shape: 24 38 (912)
I0403 15:22:08.336756 31529 net.cpp:148] Top shape: 24 38 (912)
I0403 15:22:08.336772 31529 net.cpp:148] Top shape: 24 38 (912)
I0403 15:22:08.336787 31529 net.cpp:156] Memory required for data: 1208432160
I0403 15:22:08.336802 31529 layer_factory.hpp:77] Creating layer inception_4e/1x1
I0403 15:22:08.336825 31529 net.cpp:91] Creating Layer inception_4e/1x1
I0403 15:22:08.336843 31529 net.cpp:425] inception_4e/1x1 <- inception_4d/output_inception_4d/output_0_split_1
I0403 15:22:08.336863 31529 net.cpp:399] inception_4e/1x1 -> inception_4e/1x1
I0403 15:22:08.338701 31529 net.cpp:141] Setting up inception_4e/1x1
I0403 15:22:08.338732 31529 net.cpp:148] Top shape: 24 256 14 14 (1204224)
I0403 15:22:08.338749 31529 net.cpp:156] Memory required for data: 1213249056
I0403 15:22:08.338770 31529 layer_factory.hpp:77] Creating layer inception_4e/relu_1x1
I0403 15:22:08.338788 31529 net.cpp:91] Creating Layer inception_4e/relu_1x1
I0403 15:22:08.338805 31529 net.cpp:425] inception_4e/relu_1x1 <- inception_4e/1x1
I0403 15:22:08.338826 31529 net.cpp:386] inception_4e/relu_1x1 -> inception_4e/1x1 (in-place)
I0403 15:22:08.339128 31529 net.cpp:141] Setting up inception_4e/relu_1x1
I0403 15:22:08.339157 31529 net.cpp:148] Top shape: 24 256 14 14 (1204224)
I0403 15:22:08.339174 31529 net.cpp:156] Memory required for data: 1218065952
I0403 15:22:08.339191 31529 layer_factory.hpp:77] Creating layer inception_4e/3x3_reduce
I0403 15:22:08.339215 31529 net.cpp:91] Creating Layer inception_4e/3x3_reduce
I0403 15:22:08.339232 31529 net.cpp:425] inception_4e/3x3_reduce <- inception_4d/output_inception_4d/output_0_split_2
I0403 15:22:08.339257 31529 net.cpp:399] inception_4e/3x3_reduce -> inception_4e/3x3_reduce
I0403 15:22:08.341414 31529 net.cpp:141] Setting up inception_4e/3x3_reduce
I0403 15:22:08.341444 31529 net.cpp:148] Top shape: 24 160 14 14 (752640)
I0403 15:22:08.341461 31529 net.cpp:156] Memory required for data: 1221076512
I0403 15:22:08.341480 31529 layer_factory.hpp:77] Creating layer inception_4e/relu_3x3_reduce
I0403 15:22:08.341501 31529 net.cpp:91] Creating Layer inception_4e/relu_3x3_reduce
I0403 15:22:08.341517 31529 net.cpp:425] inception_4e/relu_3x3_reduce <- inception_4e/3x3_reduce
I0403 15:22:08.341536 31529 net.cpp:386] inception_4e/relu_3x3_reduce -> inception_4e/3x3_reduce (in-place)
I0403 15:22:08.341727 31529 net.cpp:141] Setting up inception_4e/relu_3x3_reduce
I0403 15:22:08.341753 31529 net.cpp:148] Top shape: 24 160 14 14 (752640)
I0403 15:22:08.341768 31529 net.cpp:156] Memory required for data: 1224087072
I0403 15:22:08.341785 31529 layer_factory.hpp:77] Creating layer inception_4e/3x3
I0403 15:22:08.341820 31529 net.cpp:91] Creating Layer inception_4e/3x3
I0403 15:22:08.341840 31529 net.cpp:425] inception_4e/3x3 <- inception_4e/3x3_reduce
I0403 15:22:08.341862 31529 net.cpp:399] inception_4e/3x3 -> inception_4e/3x3
I0403 15:22:08.346907 31529 net.cpp:141] Setting up inception_4e/3x3
I0403 15:22:08.346951 31529 net.cpp:148] Top shape: 24 320 14 14 (1505280)
I0403 15:22:08.346967 31529 net.cpp:156] Memory required for data: 1230108192
I0403 15:22:08.346987 31529 layer_factory.hpp:77] Creating layer inception_4e/relu_3x3
I0403 15:22:08.347005 31529 net.cpp:91] Creating Layer inception_4e/relu_3x3
I0403 15:22:08.347023 31529 net.cpp:425] inception_4e/relu_3x3 <- inception_4e/3x3
I0403 15:22:08.347043 31529 net.cpp:386] inception_4e/relu_3x3 -> inception_4e/3x3 (in-place)
I0403 15:22:08.347354 31529 net.cpp:141] Setting up inception_4e/relu_3x3
I0403 15:22:08.347383 31529 net.cpp:148] Top shape: 24 320 14 14 (1505280)
I0403 15:22:08.347398 31529 net.cpp:156] Memory required for data: 1236129312
I0403 15:22:08.347412 31529 layer_factory.hpp:77] Creating layer inception_4e/5x5_reduce
I0403 15:22:08.347435 31529 net.cpp:91] Creating Layer inception_4e/5x5_reduce
I0403 15:22:08.347455 31529 net.cpp:425] inception_4e/5x5_reduce <- inception_4d/output_inception_4d/output_0_split_3
I0403 15:22:08.347478 31529 net.cpp:399] inception_4e/5x5_reduce -> inception_4e/5x5_reduce
I0403 15:22:08.348552 31529 net.cpp:141] Setting up inception_4e/5x5_reduce
I0403 15:22:08.348584 31529 net.cpp:148] Top shape: 24 32 14 14 (150528)
I0403 15:22:08.348603 31529 net.cpp:156] Memory required for data: 1236731424
I0403 15:22:08.348621 31529 layer_factory.hpp:77] Creating layer inception_4e/relu_5x5_reduce
I0403 15:22:08.348640 31529 net.cpp:91] Creating Layer inception_4e/relu_5x5_reduce
I0403 15:22:08.348656 31529 net.cpp:425] inception_4e/relu_5x5_reduce <- inception_4e/5x5_reduce
I0403 15:22:08.348675 31529 net.cpp:386] inception_4e/relu_5x5_reduce -> inception_4e/5x5_reduce (in-place)
I0403 15:22:08.348978 31529 net.cpp:141] Setting up inception_4e/relu_5x5_reduce
I0403 15:22:08.349006 31529 net.cpp:148] Top shape: 24 32 14 14 (150528)
I0403 15:22:08.349023 31529 net.cpp:156] Memory required for data: 1237333536
I0403 15:22:08.349040 31529 layer_factory.hpp:77] Creating layer inception_4e/5x5
I0403 15:22:08.349081 31529 net.cpp:91] Creating Layer inception_4e/5x5
I0403 15:22:08.349102 31529 net.cpp:425] inception_4e/5x5 <- inception_4e/5x5_reduce
I0403 15:22:08.349122 31529 net.cpp:399] inception_4e/5x5 -> inception_4e/5x5
I0403 15:22:08.350968 31529 net.cpp:141] Setting up inception_4e/5x5
I0403 15:22:08.350997 31529 net.cpp:148] Top shape: 24 128 14 14 (602112)
I0403 15:22:08.351014 31529 net.cpp:156] Memory required for data: 1239741984
I0403 15:22:08.351034 31529 layer_factory.hpp:77] Creating layer inception_4e/relu_5x5
I0403 15:22:08.351054 31529 net.cpp:91] Creating Layer inception_4e/relu_5x5
I0403 15:22:08.351073 31529 net.cpp:425] inception_4e/relu_5x5 <- inception_4e/5x5
I0403 15:22:08.351089 31529 net.cpp:386] inception_4e/relu_5x5 -> inception_4e/5x5 (in-place)
I0403 15:22:08.351294 31529 net.cpp:141] Setting up inception_4e/relu_5x5
I0403 15:22:08.351322 31529 net.cpp:148] Top shape: 24 128 14 14 (602112)
I0403 15:22:08.351339 31529 net.cpp:156] Memory required for data: 1242150432
I0403 15:22:08.351354 31529 layer_factory.hpp:77] Creating layer inception_4e/pool
I0403 15:22:08.351373 31529 net.cpp:91] Creating Layer inception_4e/pool
I0403 15:22:08.351390 31529 net.cpp:425] inception_4e/pool <- inception_4d/output_inception_4d/output_0_split_4
I0403 15:22:08.351410 31529 net.cpp:399] inception_4e/pool -> inception_4e/pool
I0403 15:22:08.351481 31529 net.cpp:141] Setting up inception_4e/pool
I0403 15:22:08.351506 31529 net.cpp:148] Top shape: 24 528 14 14 (2483712)
I0403 15:22:08.351522 31529 net.cpp:156] Memory required for data: 1252085280
I0403 15:22:08.351539 31529 layer_factory.hpp:77] Creating layer inception_4e/pool_proj
I0403 15:22:08.351572 31529 net.cpp:91] Creating Layer inception_4e/pool_proj
I0403 15:22:08.351588 31529 net.cpp:425] inception_4e/pool_proj <- inception_4e/pool
I0403 15:22:08.351609 31529 net.cpp:399] inception_4e/pool_proj -> inception_4e/pool_proj
I0403 15:22:08.353112 31529 net.cpp:141] Setting up inception_4e/pool_proj
I0403 15:22:08.353142 31529 net.cpp:148] Top shape: 24 128 14 14 (602112)
I0403 15:22:08.353173 31529 net.cpp:156] Memory required for data: 1254493728
I0403 15:22:08.353193 31529 layer_factory.hpp:77] Creating layer inception_4e/relu_pool_proj
I0403 15:22:08.353214 31529 net.cpp:91] Creating Layer inception_4e/relu_pool_proj
I0403 15:22:08.353231 31529 net.cpp:425] inception_4e/relu_pool_proj <- inception_4e/pool_proj
I0403 15:22:08.353250 31529 net.cpp:386] inception_4e/relu_pool_proj -> inception_4e/pool_proj (in-place)
I0403 15:22:08.353546 31529 net.cpp:141] Setting up inception_4e/relu_pool_proj
I0403 15:22:08.353575 31529 net.cpp:148] Top shape: 24 128 14 14 (602112)
I0403 15:22:08.353591 31529 net.cpp:156] Memory required for data: 1256902176
I0403 15:22:08.353607 31529 layer_factory.hpp:77] Creating layer inception_4e/output
I0403 15:22:08.353627 31529 net.cpp:91] Creating Layer inception_4e/output
I0403 15:22:08.353646 31529 net.cpp:425] inception_4e/output <- inception_4e/1x1
I0403 15:22:08.353662 31529 net.cpp:425] inception_4e/output <- inception_4e/3x3
I0403 15:22:08.353680 31529 net.cpp:425] inception_4e/output <- inception_4e/5x5
I0403 15:22:08.353698 31529 net.cpp:425] inception_4e/output <- inception_4e/pool_proj
I0403 15:22:08.353715 31529 net.cpp:399] inception_4e/output -> inception_4e/output
I0403 15:22:08.353765 31529 net.cpp:141] Setting up inception_4e/output
I0403 15:22:08.353791 31529 net.cpp:148] Top shape: 24 832 14 14 (3913728)
I0403 15:22:08.353807 31529 net.cpp:156] Memory required for data: 1272557088
I0403 15:22:08.353822 31529 layer_factory.hpp:77] Creating layer pool4/3x3_s2
I0403 15:22:08.353840 31529 net.cpp:91] Creating Layer pool4/3x3_s2
I0403 15:22:08.353857 31529 net.cpp:425] pool4/3x3_s2 <- inception_4e/output
I0403 15:22:08.353876 31529 net.cpp:399] pool4/3x3_s2 -> pool4/3x3_s2
I0403 15:22:08.353947 31529 net.cpp:141] Setting up pool4/3x3_s2
I0403 15:22:08.353976 31529 net.cpp:148] Top shape: 24 832 7 7 (978432)
I0403 15:22:08.353992 31529 net.cpp:156] Memory required for data: 1276470816
I0403 15:22:08.354008 31529 layer_factory.hpp:77] Creating layer pool4/3x3_s2_pool4/3x3_s2_0_split
I0403 15:22:08.354027 31529 net.cpp:91] Creating Layer pool4/3x3_s2_pool4/3x3_s2_0_split
I0403 15:22:08.354043 31529 net.cpp:425] pool4/3x3_s2_pool4/3x3_s2_0_split <- pool4/3x3_s2
I0403 15:22:08.354059 31529 net.cpp:399] pool4/3x3_s2_pool4/3x3_s2_0_split -> pool4/3x3_s2_pool4/3x3_s2_0_split_0
I0403 15:22:08.354080 31529 net.cpp:399] pool4/3x3_s2_pool4/3x3_s2_0_split -> pool4/3x3_s2_pool4/3x3_s2_0_split_1
I0403 15:22:08.354104 31529 net.cpp:399] pool4/3x3_s2_pool4/3x3_s2_0_split -> pool4/3x3_s2_pool4/3x3_s2_0_split_2
I0403 15:22:08.354125 31529 net.cpp:399] pool4/3x3_s2_pool4/3x3_s2_0_split -> pool4/3x3_s2_pool4/3x3_s2_0_split_3
I0403 15:22:08.354221 31529 net.cpp:141] Setting up pool4/3x3_s2_pool4/3x3_s2_0_split
I0403 15:22:08.354246 31529 net.cpp:148] Top shape: 24 832 7 7 (978432)
I0403 15:22:08.354276 31529 net.cpp:148] Top shape: 24 832 7 7 (978432)
I0403 15:22:08.354295 31529 net.cpp:148] Top shape: 24 832 7 7 (978432)
I0403 15:22:08.354311 31529 net.cpp:148] Top shape: 24 832 7 7 (978432)
I0403 15:22:08.354326 31529 net.cpp:156] Memory required for data: 1292125728
I0403 15:22:08.354341 31529 layer_factory.hpp:77] Creating layer inception_5a/1x1
I0403 15:22:08.354364 31529 net.cpp:91] Creating Layer inception_5a/1x1
I0403 15:22:08.354382 31529 net.cpp:425] inception_5a/1x1 <- pool4/3x3_s2_pool4/3x3_s2_0_split_0
I0403 15:22:08.354404 31529 net.cpp:399] inception_5a/1x1 -> inception_5a/1x1
I0403 15:22:08.357295 31529 net.cpp:141] Setting up inception_5a/1x1
I0403 15:22:08.357326 31529 net.cpp:148] Top shape: 24 256 7 7 (301056)
I0403 15:22:08.357342 31529 net.cpp:156] Memory required for data: 1293329952
I0403 15:22:08.357362 31529 layer_factory.hpp:77] Creating layer inception_5a/relu_1x1
I0403 15:22:08.357383 31529 net.cpp:91] Creating Layer inception_5a/relu_1x1
I0403 15:22:08.357401 31529 net.cpp:425] inception_5a/relu_1x1 <- inception_5a/1x1
I0403 15:22:08.357420 31529 net.cpp:386] inception_5a/relu_1x1 -> inception_5a/1x1 (in-place)
I0403 15:22:08.357733 31529 net.cpp:141] Setting up inception_5a/relu_1x1
I0403 15:22:08.357760 31529 net.cpp:148] Top shape: 24 256 7 7 (301056)
I0403 15:22:08.357776 31529 net.cpp:156] Memory required for data: 1294534176
I0403 15:22:08.357792 31529 layer_factory.hpp:77] Creating layer inception_5a/3x3_reduce
I0403 15:22:08.357816 31529 net.cpp:91] Creating Layer inception_5a/3x3_reduce
I0403 15:22:08.357836 31529 net.cpp:425] inception_5a/3x3_reduce <- pool4/3x3_s2_pool4/3x3_s2_0_split_1
I0403 15:22:08.357856 31529 net.cpp:399] inception_5a/3x3_reduce -> inception_5a/3x3_reduce
I0403 15:22:08.360334 31529 net.cpp:141] Setting up inception_5a/3x3_reduce
I0403 15:22:08.360364 31529 net.cpp:148] Top shape: 24 160 7 7 (188160)
I0403 15:22:08.360381 31529 net.cpp:156] Memory required for data: 1295286816
I0403 15:22:08.360400 31529 layer_factory.hpp:77] Creating layer inception_5a/relu_3x3_reduce
I0403 15:22:08.360420 31529 net.cpp:91] Creating Layer inception_5a/relu_3x3_reduce
I0403 15:22:08.360438 31529 net.cpp:425] inception_5a/relu_3x3_reduce <- inception_5a/3x3_reduce
I0403 15:22:08.360456 31529 net.cpp:386] inception_5a/relu_3x3_reduce -> inception_5a/3x3_reduce (in-place)
I0403 15:22:08.360643 31529 net.cpp:141] Setting up inception_5a/relu_3x3_reduce
I0403 15:22:08.360668 31529 net.cpp:148] Top shape: 24 160 7 7 (188160)
I0403 15:22:08.360684 31529 net.cpp:156] Memory required for data: 1296039456
I0403 15:22:08.360699 31529 layer_factory.hpp:77] Creating layer inception_5a/3x3
I0403 15:22:08.360723 31529 net.cpp:91] Creating Layer inception_5a/3x3
I0403 15:22:08.360744 31529 net.cpp:425] inception_5a/3x3 <- inception_5a/3x3_reduce
I0403 15:22:08.360765 31529 net.cpp:399] inception_5a/3x3 -> inception_5a/3x3
I0403 15:22:08.365995 31529 net.cpp:141] Setting up inception_5a/3x3
I0403 15:22:08.366026 31529 net.cpp:148] Top shape: 24 320 7 7 (376320)
I0403 15:22:08.366044 31529 net.cpp:156] Memory required for data: 1297544736
I0403 15:22:08.366065 31529 layer_factory.hpp:77] Creating layer inception_5a/relu_3x3
I0403 15:22:08.366086 31529 net.cpp:91] Creating Layer inception_5a/relu_3x3
I0403 15:22:08.366106 31529 net.cpp:425] inception_5a/relu_3x3 <- inception_5a/3x3
I0403 15:22:08.366125 31529 net.cpp:386] inception_5a/relu_3x3 -> inception_5a/3x3 (in-place)
I0403 15:22:08.366441 31529 net.cpp:141] Setting up inception_5a/relu_3x3
I0403 15:22:08.366468 31529 net.cpp:148] Top shape: 24 320 7 7 (376320)
I0403 15:22:08.366484 31529 net.cpp:156] Memory required for data: 1299050016
I0403 15:22:08.366500 31529 layer_factory.hpp:77] Creating layer inception_5a/5x5_reduce
I0403 15:22:08.366525 31529 net.cpp:91] Creating Layer inception_5a/5x5_reduce
I0403 15:22:08.366544 31529 net.cpp:425] inception_5a/5x5_reduce <- pool4/3x3_s2_pool4/3x3_s2_0_split_2
I0403 15:22:08.366575 31529 net.cpp:399] inception_5a/5x5_reduce -> inception_5a/5x5_reduce
I0403 15:22:08.367786 31529 net.cpp:141] Setting up inception_5a/5x5_reduce
I0403 15:22:08.367820 31529 net.cpp:148] Top shape: 24 32 7 7 (37632)
I0403 15:22:08.367837 31529 net.cpp:156] Memory required for data: 1299200544
I0403 15:22:08.367857 31529 layer_factory.hpp:77] Creating layer inception_5a/relu_5x5_reduce
I0403 15:22:08.367877 31529 net.cpp:91] Creating Layer inception_5a/relu_5x5_reduce
I0403 15:22:08.367894 31529 net.cpp:425] inception_5a/relu_5x5_reduce <- inception_5a/5x5_reduce
I0403 15:22:08.367915 31529 net.cpp:386] inception_5a/relu_5x5_reduce -> inception_5a/5x5_reduce (in-place)
I0403 15:22:08.368227 31529 net.cpp:141] Setting up inception_5a/relu_5x5_reduce
I0403 15:22:08.368263 31529 net.cpp:148] Top shape: 24 32 7 7 (37632)
I0403 15:22:08.368283 31529 net.cpp:156] Memory required for data: 1299351072
I0403 15:22:08.368299 31529 layer_factory.hpp:77] Creating layer inception_5a/5x5
I0403 15:22:08.368322 31529 net.cpp:91] Creating Layer inception_5a/5x5
I0403 15:22:08.368341 31529 net.cpp:425] inception_5a/5x5 <- inception_5a/5x5_reduce
I0403 15:22:08.368362 31529 net.cpp:399] inception_5a/5x5 -> inception_5a/5x5
I0403 15:22:08.370139 31529 net.cpp:141] Setting up inception_5a/5x5
I0403 15:22:08.370182 31529 net.cpp:148] Top shape: 24 128 7 7 (150528)
I0403 15:22:08.370199 31529 net.cpp:156] Memory required for data: 1299953184
I0403 15:22:08.370219 31529 layer_factory.hpp:77] Creating layer inception_5a/relu_5x5
I0403 15:22:08.370241 31529 net.cpp:91] Creating Layer inception_5a/relu_5x5
I0403 15:22:08.370263 31529 net.cpp:425] inception_5a/relu_5x5 <- inception_5a/5x5
I0403 15:22:08.370282 31529 net.cpp:386] inception_5a/relu_5x5 -> inception_5a/5x5 (in-place)
I0403 15:22:08.370483 31529 net.cpp:141] Setting up inception_5a/relu_5x5
I0403 15:22:08.370512 31529 net.cpp:148] Top shape: 24 128 7 7 (150528)
I0403 15:22:08.370529 31529 net.cpp:156] Memory required for data: 1300555296
I0403 15:22:08.370544 31529 layer_factory.hpp:77] Creating layer inception_5a/pool
I0403 15:22:08.370563 31529 net.cpp:91] Creating Layer inception_5a/pool
I0403 15:22:08.370580 31529 net.cpp:425] inception_5a/pool <- pool4/3x3_s2_pool4/3x3_s2_0_split_3
I0403 15:22:08.370601 31529 net.cpp:399] inception_5a/pool -> inception_5a/pool
I0403 15:22:08.370676 31529 net.cpp:141] Setting up inception_5a/pool
I0403 15:22:08.370702 31529 net.cpp:148] Top shape: 24 832 7 7 (978432)
I0403 15:22:08.370718 31529 net.cpp:156] Memory required for data: 1304469024
I0403 15:22:08.370733 31529 layer_factory.hpp:77] Creating layer inception_5a/pool_proj
I0403 15:22:08.370755 31529 net.cpp:91] Creating Layer inception_5a/pool_proj
I0403 15:22:08.370774 31529 net.cpp:425] inception_5a/pool_proj <- inception_5a/pool
I0403 15:22:08.370797 31529 net.cpp:399] inception_5a/pool_proj -> inception_5a/pool_proj
I0403 15:22:08.373168 31529 net.cpp:141] Setting up inception_5a/pool_proj
I0403 15:22:08.373200 31529 net.cpp:148] Top shape: 24 128 7 7 (150528)
I0403 15:22:08.373219 31529 net.cpp:156] Memory required for data: 1305071136
I0403 15:22:08.373239 31529 layer_factory.hpp:77] Creating layer inception_5a/relu_pool_proj
I0403 15:22:08.373265 31529 net.cpp:91] Creating Layer inception_5a/relu_pool_proj
I0403 15:22:08.373282 31529 net.cpp:425] inception_5a/relu_pool_proj <- inception_5a/pool_proj
I0403 15:22:08.373301 31529 net.cpp:386] inception_5a/relu_pool_proj -> inception_5a/pool_proj (in-place)
I0403 15:22:08.373616 31529 net.cpp:141] Setting up inception_5a/relu_pool_proj
I0403 15:22:08.373644 31529 net.cpp:148] Top shape: 24 128 7 7 (150528)
I0403 15:22:08.373661 31529 net.cpp:156] Memory required for data: 1305673248
I0403 15:22:08.373675 31529 layer_factory.hpp:77] Creating layer inception_5a/output
I0403 15:22:08.373694 31529 net.cpp:91] Creating Layer inception_5a/output
I0403 15:22:08.373711 31529 net.cpp:425] inception_5a/output <- inception_5a/1x1
I0403 15:22:08.373729 31529 net.cpp:425] inception_5a/output <- inception_5a/3x3
I0403 15:22:08.373746 31529 net.cpp:425] inception_5a/output <- inception_5a/5x5
I0403 15:22:08.373762 31529 net.cpp:425] inception_5a/output <- inception_5a/pool_proj
I0403 15:22:08.373783 31529 net.cpp:399] inception_5a/output -> inception_5a/output
I0403 15:22:08.373839 31529 net.cpp:141] Setting up inception_5a/output
I0403 15:22:08.373865 31529 net.cpp:148] Top shape: 24 832 7 7 (978432)
I0403 15:22:08.373881 31529 net.cpp:156] Memory required for data: 1309586976
I0403 15:22:08.373898 31529 layer_factory.hpp:77] Creating layer inception_5a/output_inception_5a/output_0_split
I0403 15:22:08.373916 31529 net.cpp:91] Creating Layer inception_5a/output_inception_5a/output_0_split
I0403 15:22:08.373932 31529 net.cpp:425] inception_5a/output_inception_5a/output_0_split <- inception_5a/output
I0403 15:22:08.373953 31529 net.cpp:399] inception_5a/output_inception_5a/output_0_split -> inception_5a/output_inception_5a/output_0_split_0
I0403 15:22:08.373976 31529 net.cpp:399] inception_5a/output_inception_5a/output_0_split -> inception_5a/output_inception_5a/output_0_split_1
I0403 15:22:08.373998 31529 net.cpp:399] inception_5a/output_inception_5a/output_0_split -> inception_5a/output_inception_5a/output_0_split_2
I0403 15:22:08.374019 31529 net.cpp:399] inception_5a/output_inception_5a/output_0_split -> inception_5a/output_inception_5a/output_0_split_3
I0403 15:22:08.374138 31529 net.cpp:141] Setting up inception_5a/output_inception_5a/output_0_split
I0403 15:22:08.374166 31529 net.cpp:148] Top shape: 24 832 7 7 (978432)
I0403 15:22:08.374186 31529 net.cpp:148] Top shape: 24 832 7 7 (978432)
I0403 15:22:08.374202 31529 net.cpp:148] Top shape: 24 832 7 7 (978432)
I0403 15:22:08.374219 31529 net.cpp:148] Top shape: 24 832 7 7 (978432)
I0403 15:22:08.374234 31529 net.cpp:156] Memory required for data: 1325241888
I0403 15:22:08.374250 31529 layer_factory.hpp:77] Creating layer inception_5b/1x1
I0403 15:22:08.374291 31529 net.cpp:91] Creating Layer inception_5b/1x1
I0403 15:22:08.374312 31529 net.cpp:425] inception_5b/1x1 <- inception_5a/output_inception_5a/output_0_split_0
I0403 15:22:08.374332 31529 net.cpp:399] inception_5b/1x1 -> inception_5b/1x1
I0403 15:22:08.378167 31529 net.cpp:141] Setting up inception_5b/1x1
I0403 15:22:08.378198 31529 net.cpp:148] Top shape: 24 384 7 7 (451584)
I0403 15:22:08.378214 31529 net.cpp:156] Memory required for data: 1327048224
I0403 15:22:08.378233 31529 layer_factory.hpp:77] Creating layer inception_5b/relu_1x1
I0403 15:22:08.378258 31529 net.cpp:91] Creating Layer inception_5b/relu_1x1
I0403 15:22:08.378278 31529 net.cpp:425] inception_5b/relu_1x1 <- inception_5b/1x1
I0403 15:22:08.378296 31529 net.cpp:386] inception_5b/relu_1x1 -> inception_5b/1x1 (in-place)
I0403 15:22:08.378603 31529 net.cpp:141] Setting up inception_5b/relu_1x1
I0403 15:22:08.378630 31529 net.cpp:148] Top shape: 24 384 7 7 (451584)
I0403 15:22:08.378646 31529 net.cpp:156] Memory required for data: 1328854560
I0403 15:22:08.378661 31529 layer_factory.hpp:77] Creating layer inception_5b/3x3_reduce
I0403 15:22:08.378684 31529 net.cpp:91] Creating Layer inception_5b/3x3_reduce
I0403 15:22:08.378703 31529 net.cpp:425] inception_5b/3x3_reduce <- inception_5a/output_inception_5a/output_0_split_1
I0403 15:22:08.378731 31529 net.cpp:399] inception_5b/3x3_reduce -> inception_5b/3x3_reduce
I0403 15:22:08.381471 31529 net.cpp:141] Setting up inception_5b/3x3_reduce
I0403 15:22:08.381501 31529 net.cpp:148] Top shape: 24 192 7 7 (225792)
I0403 15:22:08.381517 31529 net.cpp:156] Memory required for data: 1329757728
I0403 15:22:08.381536 31529 layer_factory.hpp:77] Creating layer inception_5b/relu_3x3_reduce
I0403 15:22:08.381559 31529 net.cpp:91] Creating Layer inception_5b/relu_3x3_reduce
I0403 15:22:08.381577 31529 net.cpp:425] inception_5b/relu_3x3_reduce <- inception_5b/3x3_reduce
I0403 15:22:08.381597 31529 net.cpp:386] inception_5b/relu_3x3_reduce -> inception_5b/3x3_reduce (in-place)
I0403 15:22:08.381778 31529 net.cpp:141] Setting up inception_5b/relu_3x3_reduce
I0403 15:22:08.381806 31529 net.cpp:148] Top shape: 24 192 7 7 (225792)
I0403 15:22:08.381821 31529 net.cpp:156] Memory required for data: 1330660896
I0403 15:22:08.381836 31529 layer_factory.hpp:77] Creating layer inception_5b/3x3
I0403 15:22:08.381856 31529 net.cpp:91] Creating Layer inception_5b/3x3
I0403 15:22:08.381873 31529 net.cpp:425] inception_5b/3x3 <- inception_5b/3x3_reduce
I0403 15:22:08.381896 31529 net.cpp:399] inception_5b/3x3 -> inception_5b/3x3
I0403 15:22:08.388573 31529 net.cpp:141] Setting up inception_5b/3x3
I0403 15:22:08.388602 31529 net.cpp:148] Top shape: 24 384 7 7 (451584)
I0403 15:22:08.388617 31529 net.cpp:156] Memory required for data: 1332467232
I0403 15:22:08.388636 31529 layer_factory.hpp:77] Creating layer inception_5b/relu_3x3
I0403 15:22:08.388658 31529 net.cpp:91] Creating Layer inception_5b/relu_3x3
I0403 15:22:08.388674 31529 net.cpp:425] inception_5b/relu_3x3 <- inception_5b/3x3
I0403 15:22:08.388691 31529 net.cpp:386] inception_5b/relu_3x3 -> inception_5b/3x3 (in-place)
I0403 15:22:08.388988 31529 net.cpp:141] Setting up inception_5b/relu_3x3
I0403 15:22:08.389014 31529 net.cpp:148] Top shape: 24 384 7 7 (451584)
I0403 15:22:08.389029 31529 net.cpp:156] Memory required for data: 1334273568
I0403 15:22:08.389046 31529 layer_factory.hpp:77] Creating layer inception_5b/5x5_reduce
I0403 15:22:08.389083 31529 net.cpp:91] Creating Layer inception_5b/5x5_reduce
I0403 15:22:08.389102 31529 net.cpp:425] inception_5b/5x5_reduce <- inception_5a/output_inception_5a/output_0_split_2
I0403 15:22:08.389125 31529 net.cpp:399] inception_5b/5x5_reduce -> inception_5b/5x5_reduce
I0403 15:22:08.390378 31529 net.cpp:141] Setting up inception_5b/5x5_reduce
I0403 15:22:08.390408 31529 net.cpp:148] Top shape: 24 48 7 7 (56448)
I0403 15:22:08.390424 31529 net.cpp:156] Memory required for data: 1334499360
I0403 15:22:08.390444 31529 layer_factory.hpp:77] Creating layer inception_5b/relu_5x5_reduce
I0403 15:22:08.390463 31529 net.cpp:91] Creating Layer inception_5b/relu_5x5_reduce
I0403 15:22:08.390480 31529 net.cpp:425] inception_5b/relu_5x5_reduce <- inception_5b/5x5_reduce
I0403 15:22:08.390497 31529 net.cpp:386] inception_5b/relu_5x5_reduce -> inception_5b/5x5_reduce (in-place)
I0403 15:22:08.390868 31529 net.cpp:141] Setting up inception_5b/relu_5x5_reduce
I0403 15:22:08.390895 31529 net.cpp:148] Top shape: 24 48 7 7 (56448)
I0403 15:22:08.390911 31529 net.cpp:156] Memory required for data: 1334725152
I0403 15:22:08.390928 31529 layer_factory.hpp:77] Creating layer inception_5b/5x5
I0403 15:22:08.390947 31529 net.cpp:91] Creating Layer inception_5b/5x5
I0403 15:22:08.390965 31529 net.cpp:425] inception_5b/5x5 <- inception_5b/5x5_reduce
I0403 15:22:08.390985 31529 net.cpp:399] inception_5b/5x5 -> inception_5b/5x5
I0403 15:22:08.393000 31529 net.cpp:141] Setting up inception_5b/5x5
I0403 15:22:08.393028 31529 net.cpp:148] Top shape: 24 128 7 7 (150528)
I0403 15:22:08.393044 31529 net.cpp:156] Memory required for data: 1335327264
I0403 15:22:08.393062 31529 layer_factory.hpp:77] Creating layer inception_5b/relu_5x5
I0403 15:22:08.393082 31529 net.cpp:91] Creating Layer inception_5b/relu_5x5
I0403 15:22:08.393100 31529 net.cpp:425] inception_5b/relu_5x5 <- inception_5b/5x5
I0403 15:22:08.393117 31529 net.cpp:386] inception_5b/relu_5x5 -> inception_5b/5x5 (in-place)
I0403 15:22:08.393332 31529 net.cpp:141] Setting up inception_5b/relu_5x5
I0403 15:22:08.393357 31529 net.cpp:148] Top shape: 24 128 7 7 (150528)
I0403 15:22:08.393373 31529 net.cpp:156] Memory required for data: 1335929376
I0403 15:22:08.393388 31529 layer_factory.hpp:77] Creating layer inception_5b/pool
I0403 15:22:08.393405 31529 net.cpp:91] Creating Layer inception_5b/pool
I0403 15:22:08.393422 31529 net.cpp:425] inception_5b/pool <- inception_5a/output_inception_5a/output_0_split_3
I0403 15:22:08.393445 31529 net.cpp:399] inception_5b/pool -> inception_5b/pool
I0403 15:22:08.393518 31529 net.cpp:141] Setting up inception_5b/pool
I0403 15:22:08.393544 31529 net.cpp:148] Top shape: 24 832 7 7 (978432)
I0403 15:22:08.393560 31529 net.cpp:156] Memory required for data: 1339843104
I0403 15:22:08.393576 31529 layer_factory.hpp:77] Creating layer inception_5b/pool_proj
I0403 15:22:08.393600 31529 net.cpp:91] Creating Layer inception_5b/pool_proj
I0403 15:22:08.393620 31529 net.cpp:425] inception_5b/pool_proj <- inception_5b/pool
I0403 15:22:08.393640 31529 net.cpp:399] inception_5b/pool_proj -> inception_5b/pool_proj
I0403 15:22:08.395947 31529 net.cpp:141] Setting up inception_5b/pool_proj
I0403 15:22:08.395977 31529 net.cpp:148] Top shape: 24 128 7 7 (150528)
I0403 15:22:08.395993 31529 net.cpp:156] Memory required for data: 1340445216
I0403 15:22:08.396013 31529 layer_factory.hpp:77] Creating layer inception_5b/relu_pool_proj
I0403 15:22:08.396034 31529 net.cpp:91] Creating Layer inception_5b/relu_pool_proj
I0403 15:22:08.396052 31529 net.cpp:425] inception_5b/relu_pool_proj <- inception_5b/pool_proj
I0403 15:22:08.396070 31529 net.cpp:386] inception_5b/relu_pool_proj -> inception_5b/pool_proj (in-place)
I0403 15:22:08.396368 31529 net.cpp:141] Setting up inception_5b/relu_pool_proj
I0403 15:22:08.396395 31529 net.cpp:148] Top shape: 24 128 7 7 (150528)
I0403 15:22:08.396410 31529 net.cpp:156] Memory required for data: 1341047328
I0403 15:22:08.396425 31529 layer_factory.hpp:77] Creating layer inception_5b/output
I0403 15:22:08.396445 31529 net.cpp:91] Creating Layer inception_5b/output
I0403 15:22:08.396474 31529 net.cpp:425] inception_5b/output <- inception_5b/1x1
I0403 15:22:08.396492 31529 net.cpp:425] inception_5b/output <- inception_5b/3x3
I0403 15:22:08.396507 31529 net.cpp:425] inception_5b/output <- inception_5b/5x5
I0403 15:22:08.396523 31529 net.cpp:425] inception_5b/output <- inception_5b/pool_proj
I0403 15:22:08.396541 31529 net.cpp:399] inception_5b/output -> inception_5b/output
I0403 15:22:08.396595 31529 net.cpp:141] Setting up inception_5b/output
I0403 15:22:08.396620 31529 net.cpp:148] Top shape: 24 1024 7 7 (1204224)
I0403 15:22:08.396634 31529 net.cpp:156] Memory required for data: 1345864224
I0403 15:22:08.396648 31529 layer_factory.hpp:77] Creating layer pool5/7x7_s1
I0403 15:22:08.396667 31529 net.cpp:91] Creating Layer pool5/7x7_s1
I0403 15:22:08.396682 31529 net.cpp:425] pool5/7x7_s1 <- inception_5b/output
I0403 15:22:08.396703 31529 net.cpp:399] pool5/7x7_s1 -> pool5/7x7_s1
I0403 15:22:08.396914 31529 net.cpp:141] Setting up pool5/7x7_s1
I0403 15:22:08.396940 31529 net.cpp:148] Top shape: 24 1024 1 1 (24576)
I0403 15:22:08.396958 31529 net.cpp:156] Memory required for data: 1345962528
I0403 15:22:08.396975 31529 layer_factory.hpp:77] Creating layer pool5/drop_7x7_s1
I0403 15:22:08.396992 31529 net.cpp:91] Creating Layer pool5/drop_7x7_s1
I0403 15:22:08.397008 31529 net.cpp:425] pool5/drop_7x7_s1 <- pool5/7x7_s1
I0403 15:22:08.397027 31529 net.cpp:386] pool5/drop_7x7_s1 -> pool5/7x7_s1 (in-place)
I0403 15:22:08.397076 31529 net.cpp:141] Setting up pool5/drop_7x7_s1
I0403 15:22:08.397099 31529 net.cpp:148] Top shape: 24 1024 1 1 (24576)
I0403 15:22:08.397114 31529 net.cpp:156] Memory required for data: 1346060832
I0403 15:22:08.397130 31529 layer_factory.hpp:77] Creating layer loss3/classifier_plantvillage
I0403 15:22:08.397150 31529 net.cpp:91] Creating Layer loss3/classifier_plantvillage
I0403 15:22:08.397167 31529 net.cpp:425] loss3/classifier_plantvillage <- pool5/7x7_s1
I0403 15:22:08.397187 31529 net.cpp:399] loss3/classifier_plantvillage -> loss3/classifier_plantvillage
I0403 15:22:08.397609 31529 net.cpp:141] Setting up loss3/classifier_plantvillage
I0403 15:22:08.397634 31529 net.cpp:148] Top shape: 24 38 (912)
I0403 15:22:08.397650 31529 net.cpp:156] Memory required for data: 1346064480
I0403 15:22:08.397668 31529 layer_factory.hpp:77] Creating layer loss3/classifier_plantvillage_loss3/classifier_plantvillage_0_split
I0403 15:22:08.397686 31529 net.cpp:91] Creating Layer loss3/classifier_plantvillage_loss3/classifier_plantvillage_0_split
I0403 15:22:08.397702 31529 net.cpp:425] loss3/classifier_plantvillage_loss3/classifier_plantvillage_0_split <- loss3/classifier_plantvillage
I0403 15:22:08.397723 31529 net.cpp:399] loss3/classifier_plantvillage_loss3/classifier_plantvillage_0_split -> loss3/classifier_plantvillage_loss3/classifier_plantvillage_0_split_0
I0403 15:22:08.397744 31529 net.cpp:399] loss3/classifier_plantvillage_loss3/classifier_plantvillage_0_split -> loss3/classifier_plantvillage_loss3/classifier_plantvillage_0_split_1
I0403 15:22:08.397765 31529 net.cpp:399] loss3/classifier_plantvillage_loss3/classifier_plantvillage_0_split -> loss3/classifier_plantvillage_loss3/classifier_plantvillage_0_split_2
I0403 15:22:08.397785 31529 net.cpp:399] loss3/classifier_plantvillage_loss3/classifier_plantvillage_0_split -> loss3/classifier_plantvillage_loss3/classifier_plantvillage_0_split_3
I0403 15:22:08.397888 31529 net.cpp:141] Setting up loss3/classifier_plantvillage_loss3/classifier_plantvillage_0_split
I0403 15:22:08.397914 31529 net.cpp:148] Top shape: 24 38 (912)
I0403 15:22:08.397933 31529 net.cpp:148] Top shape: 24 38 (912)
I0403 15:22:08.397948 31529 net.cpp:148] Top shape: 24 38 (912)
I0403 15:22:08.397963 31529 net.cpp:148] Top shape: 24 38 (912)
I0403 15:22:08.397976 31529 net.cpp:156] Memory required for data: 1346079072
I0403 15:22:08.397990 31529 layer_factory.hpp:77] Creating layer loss1/loss
I0403 15:22:08.398012 31529 net.cpp:91] Creating Layer loss1/loss
I0403 15:22:08.398030 31529 net.cpp:425] loss1/loss <- loss1/classifier_plantvillage_loss1/classifier_plantvillage_0_split_0
I0403 15:22:08.398061 31529 net.cpp:425] loss1/loss <- label_data_1_split_0
…
