…
I0403 15:19:12.124799 31446 net.cpp:313] The NetState phase (1) differed from the phase (0) specified by a rule in layer data
I0403 15:19:12.125949 31446 net.cpp:49] Initializing net from parameters: 
state {
  phase: TEST
}
layer {
  name: "data"
  type: "Data"
  top: "data"
  top: "label"
  include {
    phase: TEST
  }
  transform_param {
    mirror: false
    crop_size: 224
    mean_file: "/home/mohanty/data/final_dataset/lmdb/color-60-40/mean.binaryproto"
  }
  data_param {
    source: "/home/mohanty/data/final_dataset/lmdb/color-60-40/test_db"
    batch_size: 24
    backend: LMDB
  }
}
layer {
  name: "conv1/7x7_s2"
  type: "Convolution"
  bottom: "data"
  top: "conv1/7x7_s2"
  param {
    lr_mult: 1
    decay_mult: 1
  }
  param {
    lr_mult: 2
    decay_mult: 0
  }
  convolution_param {
    num_output: 64
    pad: 3
    kernel_size: 7
    stride: 2
    weight_filler {
      type: "xavier"
      std: 0.1
    }
    bias_filler {
      type: "constant"
      value: 0.2
    }
  }
}
layer {
  name: "conv1/relu_7x7"
  type: "ReLU"
  bottom: "conv1/7x7_s2"
  top: "conv1/7x7_s2"
}
layer {
  name: "pool1/3x3_s2"
  type: "Pooling"
  bottom: "conv1/7x7_s2"
  top: "pool1/3x3_s2"
  pooling_param {
    pool: MAX
    kernel_size: 3
    stride: 2
  }
}
layer {
  name: "pool1/norm1"
  type: "LRN"
  bottom: "pool1/3x3_s2"
  top: "pool1/norm1"
  lrn_param {
    local_size: 5
    alpha: 0.0001
    beta: 0.75
  }
}
layer {
  name: "conv2/3x3_reduce"
  type: "Convolution"
  bottom: "pool1/norm1"
  top: "conv2/3x3_reduce"
  param {
    lr_mult: 1
    decay_mult: 1
  }
  param {
    lr_mult: 2
    decay_mult: 0
  }
  convolution_param {
    num_output: 64
    kernel_size: 1
    weight_filler {
      type: "xavier"
      std: 0.1
    }
    bias_filler {
      type: "constant"
      value: 0.2
    }
  }
}
layer {
  name: "conv2/relu_3x3_reduce"
  type: "ReLU"
  bottom: "conv2/3x3_reduce"
  top: "conv2/3x3_reduce"
}
layer {
  name: "conv2/3x3"
  type: "Convolution"
  bottom: "conv2/3x3_reduce"
  top: "conv2/3x3"
  param {
    lr_mult: 1
    decay_mult: 1
  }
  param {
    lr_mult: 2
    decay_mult: 0
  }
  convolution_param {
    num_output: 192
    pad: 1
    kernel_size: 3
    weight_filler {
      type: "xavier"
      std: 0.03
    }
    bias_filler {
      type: "constant"
      value: 0.2
    }
  }
}
layer {
  name: "conv2/relu_3x3"
  type: "ReLU"
  bottom: "conv2/3x3"
  top: "conv2/3x3"
}
layer {
  name: "conv2/norm2"
  type: "LRN"
  bottom: "conv2/3x3"
  top: "conv2/norm2"
  lrn_param {
    local_size: 5
    alpha: 0.0001
    beta: 0.75
  }
}
layer {
  name: "pool2/3x3_s2"
  type: "Pooling"
  bottom: "conv2/norm2"
  top: "pool2/3x3_s2"
  pooling_param {
    pool: MAX
    kernel_size: 3
    stride: 2
  }
}
layer {
  name: "inception_3a/1x1"
  type: "Convolution"
  bottom: "pool2/3x3_s2"
  top: "inception_3a/1x1"
  param {
    lr_mult: 1
    decay_mult: 1
  }
  param {
    lr_mult: 2
    decay_mult: 0
  }
  convolution_param {
    num_output: 64
    kernel_size: 1
    weight_filler {
      type: "xavier"
      std: 0.03
    }
    bias_filler {
      type: "constant"
      value: 0.2
    }
  }
}
layer {
  name: "inception_3a/relu_1x1"
  type: "ReLU"
  bottom: "inception_3a/1x1"
  top: "inception_3a/1x1"
}
layer {
  name: "inception_3a/3x3_reduce"
  type: "Convolution"
  bottom: "pool2/3x3_s2"
  top: "inception_3a/3x3_reduce"
  param {
    lr_mult: 1
    decay_mult: 1
  }
  param {
    lr_mult: 2
    decay_mult: 0
  }
  convolution_param {
    num_output: 96
    kernel_size: 1
    weight_filler {
      type: "xavier"
      std: 0.09
    }
    bias_filler {
      type: "constant"
      value: 0.2
    }
  }
}
layer {
  name: "inception_3a/relu_3x3_reduce"
  type: "ReLU"
  bottom: "inception_3a/3x3_reduce"
  top: "inception_3a/3x3_reduce"
}
layer {
  name: "inception_3a/3x3"
  type: "Convolution"
  bottom: "inception_3a/3x3_reduce"
  top: "inception_3a/3x3"
  param {
    lr_mult: 1
    decay_mult: 1
  }
  param {
    lr_mult: 2
    decay_mult: 0
  }
  convolution_param {
    num_output: 128
    pad: 1
    kernel_size: 3
    weight_filler {
      type: "xavier"
      std: 0.03
    }
    bias_filler {
      type: "constant"
      value: 0.2
    }
  }
}
layer {
  name: "inception_3a/relu_3x3"
  type: "ReLU"
  bottom: "inception_3a/3x3"
  top: "inception_3a/3x3"
}
layer {
  name: "inception_3a/5x5_reduce"
  type: "Convolution"
  bottom: "pool2/3x3_s2"
  top: "inception_3a/5x5_reduce"
  param {
    lr_mult: 1
    decay_mult: 1
  }
  param {
    lr_mult: 2
    decay_mult: 0
  }
  convolution_param {
    num_output: 16
    kernel_size: 1
    weight_filler {
      type: "xavier"
      std: 0.2
    }
    bias_filler {
      type: "constant"
      value: 0.2
    }
  }
}
layer {
  name: "inception_3a/relu_5x5_reduce"
  type: "ReLU"
  bottom: "inception_3a/5x5_reduce"
  top: "inception_3a/5x5_reduce"
}
layer {
  name: "inception_3a/5x5"
  type: "Convolution"
  bottom: "inception_3a/5x5_reduce"
  top: "inception_3a/5x5"
  param {
    lr_mult: 1
    decay_mult: 1
  }
  param {
    lr_mult: 2
    decay_mult: 0
  }
  convolution_param {
    num_output: 32
    pad: 2
    kernel_size: 5
    weight_filler {
      type: "xavier"
      std: 0.03
    }
    bias_filler {
      type: "constant"
      value: 0.2
    }
  }
}
layer {
  name: "inception_3a/relu_5x5"
  type: "ReLU"
  bottom: "inception_3a/5x5"
  top: "inception_3a/5x5"
}
layer {
  name: "inception_3a/pool"
  type: "Pooling"
  bottom: "pool2/3x3_s2"
  top: "inception_3a/pool"
  pooling_param {
    pool: MAX
    kernel_size: 3
    stride: 1
    pad: 1
  }
}
layer {
  name: "inception_3a/pool_proj"
  type: "Convolution"
  bottom: "inception_3a/pool"
  top: "inception_3a/pool_proj"
  param {
    lr_mult: 1
    decay_mult: 1
  }
  param {
    lr_mult: 2
    decay_mult: 0
  }
  convolution_param {
    num_output: 32
    kernel_size: 1
    weight_filler {
      type: "xavier"
      std: 0.1
    }
    bias_filler {
      type: "constant"
      value: 0.2
    }
  }
}
layer {
  name: "inception_3a/relu_pool_proj"
  type: "ReLU"
  bottom: "inception_3a/pool_proj"
  top: "inception_3a/pool_proj"
}
layer {
  name: "inception_3a/output"
  type: "Concat"
  bottom: "inception_3a/1x1"
  bottom: "inception_3a/3x3"
  bottom: "inception_3a/5x5"
  bottom: "inception_3a/pool_proj"
  top: "inception_3a/output"
}
layer {
  name: "inception_3b/1x1"
  type: "Convolution"
  bottom: "inception_3a/output"
  top: "inception_3b/1x1"
  param {
    lr_mult: 1
    decay_mult: 1
  }
  param {
    lr_mult: 2
    decay_mult: 0
  }
  convolution_param {
    num_output: 128
    kernel_size: 1
    weight_filler {
      type: "xavier"
      std: 0.03
    }
    bias_filler {
      type: "constant"
      value: 0.2
    }
  }
}
layer {
  name: "inception_3b/relu_1x1"
  type: "ReLU"
  bottom: "inception_3b/1x1"
  top: "inception_3b/1x1"
}
layer {
  name: "inception_3b/3x3_reduce"
  type: "Convolution"
  bottom: "inception_3a/output"
  top: "inception_3b/3x3_reduce"
  param {
    lr_mult: 1
    decay_mult: 1
  }
  param {
    lr_mult: 2
    decay_mult: 0
  }
  convolution_param {
    num_output: 128
    kernel_size: 1
    weight_filler {
      type: "xavier"
      std: 0.09
    }
    bias_filler {
      type: "constant"
      value: 0.2
    }
  }
}
layer {
  name: "inception_3b/relu_3x3_reduce"
  type: "ReLU"
  bottom: "inception_3b/3x3_reduce"
  top: "inception_3b/3x3_reduce"
}
layer {
  name: "inception_3b/3x3"
  type: "Convolution"
  bottom: "inception_3b/3x3_reduce"
  top: "inception_3b/3x3"
  param {
    lr_mult: 1
    decay_mult: 1
  }
  param {
    lr_mult: 2
    decay_mult: 0
  }
  convolution_param {
    num_output: 192
    pad: 1
    kernel_size: 3
    weight_filler {
      type: "xavier"
      std: 0.03
    }
    bias_filler {
      type: "constant"
      value: 0.2
    }
  }
}
layer {
  name: "inception_3b/relu_3x3"
  type: "ReLU"
  bottom: "inception_3b/3x3"
  top: "inception_3b/3x3"
}
layer {
  name: "inception_3b/5x5_reduce"
  type: "Convolution"
  bottom: "inception_3a/output"
  top: "inception_3b/5x5_reduce"
  param {
    lr_mult: 1
    decay_mult: 1
  }
  param {
    lr_mult: 2
    decay_mult: 0
  }
  convolution_param {
    num_output: 32
    kernel_size: 1
    weight_filler {
      type: "xavier"
      std: 0.2
    }
    bias_filler {
      type: "constant"
      value: 0.2
    }
  }
}
layer {
  name: "inception_3b/relu_5x5_reduce"
  type: "ReLU"
  bottom: "inception_3b/5x5_reduce"
  top: "inception_3b/5x5_reduce"
}
layer {
  name: "inception_3b/5x5"
  type: "Convolution"
  bottom: "inception_3b/5x5_reduce"
  top: "inception_3b/5x5"
  param {
    lr_mult: 1
    decay_mult: 1
  }
  param {
    lr_mult: 2
    decay_mult: 0
  }
  convolution_param {
    num_output: 96
    pad: 2
    kernel_size: 5
    weight_filler {
      type: "xavier"
      std: 0.03
    }
    bias_filler {
      type: "constant"
      value: 0.2
    }
  }
}
layer {
  name: "inception_3b/relu_5x5"
  type: "ReLU"
  bottom: "inception_3b/5x5"
  top: "inception_3b/5x5"
}
layer {
  name: "inception_3b/pool"
  type: "Pooling"
  bottom: "inception_3a/output"
  top: "inception_3b/pool"
  pooling_param {
    pool: MAX
    kernel_size: 3
    stride: 1
    pad: 1
  }
}
layer {
  name: "inception_3b/pool_proj"
  type: "Convolution"
  bottom: "inception_3b/pool"
  top: "inception_3b/pool_proj"
  param {
    lr_mult: 1
    decay_mult: 1
  }
  param {
    lr_mult: 2
    decay_mult: 0
  }
  convolution_param {
    num_output: 64
    kernel_size: 1
    weight_filler {
      type: "xavier"
      std: 0.1
    }
    bias_filler {
      type: "constant"
      value: 0.2
    }
  }
}
layer {
  name: "inception_3b/relu_pool_proj"
  type: "ReLU"
  bottom: "inception_3b/pool_proj"
  top: "inception_3b/pool_proj"
}
layer {
  name: "inception_3b/output"
  type: "Concat"
  bottom: "inception_3b/1x1"
  bottom: "inception_3b/3x3"
  bottom: "inception_3b/5x5"
  bottom: "inception_3b/pool_proj"
  top: "inception_3b/output"
}
layer {
  name: "pool3/3x3_s2"
  type: "Pooling"
  bottom: "inception_3b/output"
  top: "pool3/3x3_s2"
  pooling_param {
    pool: MAX
    kernel_size: 3
    stride: 2
  }
}
layer {
  name: "inception_4a/1x1"
  type: "Convolution"
  bottom: "pool3/3x3_s2"
  top: "inception_4a/1x1"
  param {
    lr_mult: 1
    decay_mult: 1
  }
  param {
    lr_mult: 2
    decay_mult: 0
  }
  convolution_param {
    num_output: 192
    kernel_size: 1
    weight_filler {
      type: "xavier"
      std: 0.03
    }
    bias_filler {
      type: "constant"
      value: 0.2
    }
  }
}
layer {
  name: "inception_4a/relu_1x1"
  type: "ReLU"
  bottom: "inception_4a/1x1"
  top: "inception_4a/1x1"
}
layer {
  name: "inception_4a/3x3_reduce"
  type: "Convolution"
  bottom: "pool3/3x3_s2"
  top: "inception_4a/3x3_reduce"
  param {
    lr_mult: 1
    decay_mult: 1
  }
  param {
    lr_mult: 2
    decay_mult: 0
  }
  convolution_param {
    num_output: 96
    kernel_size: 1
    weight_filler {
      type: "xavier"
      std: 0.09
    }
    bias_filler {
      type: "constant"
      value: 0.2
    }
  }
}
layer {
  name: "inception_4a/relu_3x3_reduce"
  type: "ReLU"
  bottom: "inception_4a/3x3_reduce"
  top: "inception_4a/3x3_reduce"
}
layer {
  name: "inception_4a/3x3"
  type: "Convolution"
  bottom: "inception_4a/3x3_reduce"
  top: "inception_4a/3x3"
  param {
    lr_mult: 1
    decay_mult: 1
  }
  param {
    lr_mult: 2
    decay_mult: 0
  }
  convolution_param {
    num_output: 208
    pad: 1
    kernel_size: 3
    weight_filler {
      type: "xavier"
      std: 0.03
    }
    bias_filler {
      type: "constant"
      value: 0.2
    }
  }
}
layer {
  name: "inception_4a/relu_3x3"
  type: "ReLU"
  bottom: "inception_4a/3x3"
  top: "inception_4a/3x3"
}
layer {
  name: "inception_4a/5x5_reduce"
  type: "Convolution"
  bottom: "pool3/3x3_s2"
  top: "inception_4a/5x5_reduce"
  param {
    lr_mult: 1
    decay_mult: 1
  }
  param {
    lr_mult: 2
    decay_mult: 0
  }
  convolution_param {
    num_output: 16
    kernel_size: 1
    weight_filler {
      type: "xavier"
      std: 0.2
    }
    bias_filler {
      type: "constant"
      value: 0.2
    }
  }
}
layer {
  name: "inception_4a/relu_5x5_reduce"
  type: "ReLU"
  bottom: "inception_4a/5x5_reduce"
  top: "inception_4a/5x5_reduce"
}
layer {
  name: "inception_4a/5x5"
  type: "Convolution"
  bottom: "inception_4a/5x5_reduce"
  top: "inception_4a/5x5"
  param {
    lr_mult: 1
    decay_mult: 1
  }
  param {
    lr_mult: 2
    decay_mult: 0
  }
  convolution_param {
    num_output: 48
    pad: 2
    kernel_size: 5
    weight_filler {
      type: "xavier"
      std: 0.03
    }
    bias_filler {
      type: "constant"
      value: 0.2
    }
  }
}
layer {
  name: "inception_4a/relu_5x5"
  type: "ReLU"
  bottom: "inception_4a/5x5"
  top: "inception_4a/5x5"
}
layer {
  name: "inception_4a/pool"
  type: "Pooling"
  bottom: "pool3/3x3_s2"
  top: "inception_4a/pool"
  pooling_param {
    pool: MAX
    kernel_size: 3
    stride: 1
    pad: 1
  }
}
layer {
  name: "inception_4a/pool_proj"
  type: "Convolution"
  bottom: "inception_4a/pool"
  top: "inception_4a/pool_proj"
  param {
    lr_mult: 1
    decay_mult: 1
  }
  param {
    lr_mult: 2
    decay_mult: 0
  }
  convolution_param {
    num_output: 64
    kernel_size: 1
    weight_filler {
      type: "xavier"
      std: 0.1
    }
    bias_filler {
      type: "constant"
      value: 0.2
    }
  }
}
layer {
  name: "inception_4a/relu_pool_proj"
  type: "ReLU"
  bottom: "inception_4a/pool_proj"
  top: "inception_4a/pool_proj"
}
layer {
  name: "inception_4a/output"
  type: "Concat"
  bottom: "inception_4a/1x1"
  bottom: "inception_4a/3x3"
  bottom: "inception_4a/5x5"
  bottom: "inception_4a/pool_proj"
  top: "inception_4a/output"
}
layer {
  name: "loss1/ave_pool"
  type: "Pooling"
  bottom: "inception_4a/output"
  top: "loss1/ave_pool"
  pooling_param {
    pool: AVE
    kernel_size: 5
    stride: 3
  }
}
layer {
  name: "loss1/conv"
  type: "Convolution"
  bottom: "loss1/ave_pool"
  top: "loss1/conv"
  param {
    lr_mult: 1
    decay_mult: 1
  }
  param {
    lr_mult: 2
    decay_mult: 0
  }
  convolution_param {
    num_output: 128
    kernel_size: 1
    weight_filler {
      type: "xavier"
      std: 0.08
    }
    bias_filler {
      type: "constant"
      value: 0.2
    }
  }
}
layer {
  name: "loss1/relu_conv"
  type: "ReLU"
  bottom: "loss1/conv"
  top: "loss1/conv"
}
layer {
  name: "loss1/fc"
  type: "InnerProduct"
  bottom: "loss1/conv"
  top: "loss1/fc"
  param {
    lr_mult: 1
    decay_mult: 1
  }
  param {
    lr_mult: 2
    decay_mult: 0
  }
  inner_product_param {
    num_output: 1024
    weight_filler {
      type: "xavier"
      std: 0.02
    }
    bias_filler {
      type: "constant"
      value: 0.2
    }
  }
}
layer {
  name: "loss1/relu_fc"
  type: "ReLU"
  bottom: "loss1/fc"
  top: "loss1/fc"
}
layer {
  name: "loss1/drop_fc"
  type: "Dropout"
  bottom: "loss1/fc"
  top: "loss1/fc"
  dropout_param {
    dropout_ratio: 0.7
  }
}
layer {
  name: "loss1/classifier_plantvillage"
  type: "InnerProduct"
  bottom: "loss1/fc"
  top: "loss1/classifier_plantvillage"
  param {
    lr_mult: 1
    decay_mult: 1
  }
  param {
    lr_mult: 2
    decay_mult: 0
  }
  inner_product_param {
    num_output: 38
    weight_filler {
      type: "xavier"
      std: 0.0009765625
    }
    bias_filler {
      type: "constant"
      value: 0
    }
  }
}
layer {
  name: "inception_4b/1x1"
  type: "Convolution"
  bottom: "inception_4a/output"
  top: "inception_4b/1x1"
  param {
    lr_mult: 1
    decay_mult: 1
  }
  param {
    lr_mult: 2
    decay_mult: 0
  }
  convolution_param {
    num_output: 160
    kernel_size: 1
    weight_filler {
      type: "xavier"
      std: 0.03
    }
    bias_filler {
      type: "constant"
      value: 0.2
    }
  }
}
layer {
  name: "inception_4b/relu_1x1"
  type: "ReLU"
  bottom: "inception_4b/1x1"
  top: "inception_4b/1x1"
}
layer {
  name: "inception_4b/3x3_reduce"
  type: "Convolution"
  bottom: "inception_4a/output"
  top: "inception_4b/3x3_reduce"
  param {
    lr_mult: 1
    decay_mult: 1
  }
  param {
    lr_mult: 2
    decay_mult: 0
  }
  convolution_param {
    num_output: 112
    kernel_size: 1
    weight_filler {
      type: "xavier"
      std: 0.09
    }
    bias_filler {
      type: "constant"
      value: 0.2
    }
  }
}
layer {
  name: "inception_4b/relu_3x3_reduce"
  type: "ReLU"
  bottom: "inception_4b/3x3_reduce"
  top: "inception_4b/3x3_reduce"
}
layer {
  name: "inception_4b/3x3"
  type: "Convolution"
  bottom: "inception_4b/3x3_reduce"
  top: "inception_4b/3x3"
  param {
    lr_mult: 1
    decay_mult: 1
  }
  param {
    lr_mult: 2
    decay_mult: 0
  }
  convolution_param {
    num_output: 224
    pad: 1
    kernel_size: 3
    weight_filler {
      type: "xavier"
      std: 0.03
    }
    bias_filler {
      type: "constant"
      value: 0.2
    }
  }
}
layer {
  name: "inception_4b/relu_3x3"
  type: "ReLU"
  bottom: "inception_4b/3x3"
  top: "inception_4b/3x3"
}
layer {
  name: "inception_4b/5x5_reduce"
  type: "Convolution"
  bottom: "inception_4a/output"
  top: "inception_4b/5x5_reduce"
  param {
    lr_mult: 1
    decay_mult: 1
  }
  param {
    lr_mult: 2
    decay_mult: 0
  }
  convolution_param {
    num_output: 24
    kernel_size: 1
    weight_filler {
      type: "xavier"
      std: 0.2
    }
    bias_filler {
      type: "constant"
      value: 0.2
    }
  }
}
layer {
  name: "inception_4b/relu_5x5_reduce"
  type: "ReLU"
  bottom: "inception_4b/5x5_reduce"
  top: "inception_4b/5x5_reduce"
}
layer {
  name: "inception_4b/5x5"
  type: "Convolution"
  bottom: "inception_4b/5x5_reduce"
  top: "inception_4b/5x5"
  param {
    lr_mult: 1
    decay_mult: 1
  }
  param {
    lr_mult: 2
    decay_mult: 0
  }
  convolution_param {
    num_output: 64
    pad: 2
    kernel_size: 5
    weight_filler {
      type: "xavier"
      std: 0.03
    }
    bias_filler {
      type: "constant"
      value: 0.2
    }
  }
}
layer {
  name: "inception_4b/relu_5x5"
  type: "ReLU"
  bottom: "inception_4b/5x5"
  top: "inception_4b/5x5"
}
layer {
  name: "inception_4b/pool"
  type: "Pooling"
  bottom: "inception_4a/output"
  top: "inception_4b/pool"
  pooling_param {
    pool: MAX
    kernel_size: 3
    stride: 1
    pad: 1
  }
}
layer {
  name: "inception_4b/pool_proj"
  type: "Convolution"
  bottom: "inception_4b/pool"
  top: "inception_4b/pool_proj"
  param {
    lr_mult: 1
    decay_mult: 1
  }
  param {
    lr_mult: 2
    decay_mult: 0
  }
  convolution_param {
    num_output: 64
    kernel_size: 1
    weight_filler {
      type: "xavier"
      std: 0.1
    }
    bias_filler {
      type: "constant"
      value: 0.2
    }
  }
}
layer {
  name: "inception_4b/relu_pool_proj"
  type: "ReLU"
  bottom: "inception_4b/pool_proj"
  top: "inception_4b/pool_proj"
}
layer {
  name: "inception_4b/output"
  type: "Concat"
  bottom: "inception_4b/1x1"
  bottom: "inception_4b/3x3"
  bottom: "inception_4b/5x5"
  bottom: "inception_4b/pool_proj"
  top: "inception_4b/output"
}
layer {
  name: "inception_4c/1x1"
  type: "Convolution"
  bottom: "inception_4b/output"
  top: "inception_4c/1x1"
  param {
    lr_mult: 1
    decay_mult: 1
  }
  param {
    lr_mult: 2
    decay_mult: 0
  }
  convolution_param {
    num_output: 128
    kernel_size: 1
    weight_filler {
      type: "xavier"
      std: 0.03
    }
    bias_filler {
      type: "constant"
      value: 0.2
    }
  }
}
layer {
  name: "inception_4c/relu_1x1"
  type: "ReLU"
  bottom: "inception_4c/1x1"
  top: "inception_4c/1x1"
}
layer {
  name: "inception_4c/3x3_reduce"
  type: "Convolution"
  bottom: "inception_4b/output"
  top: "inception_4c/3x3_reduce"
  param {
    lr_mult: 1
    decay_mult: 1
  }
  param {
    lr_mult: 2
    decay_mult: 0
  }
  convolution_param {
    num_output: 128
    kernel_size: 1
    weight_filler {
      type: "xavier"
      std: 0.09
    }
    bias_filler {
      type: "constant"
      value: 0.2
    }
  }
}
layer {
  name: "inception_4c/relu_3x3_reduce"
  type: "ReLU"
  bottom: "inception_4c/3x3_reduce"
  top: "inception_4c/3x3_reduce"
}
layer {
  name: "inception_4c/3x3"
  type: "Convolution"
  bottom: "inception_4c/3x3_reduce"
  top: "inception_4c/3x3"
  param {
    lr_mult: 1
    decay_mult: 1
  }
  param {
    lr_mult: 2
    decay_mult: 0
  }
  convolution_param {
    num_output: 256
    pad: 1
    kernel_size: 3
    weight_filler {
      type: "xavier"
      std: 0.03
    }
    bias_filler {
      type: "constant"
      value: 0.2
    }
  }
}
layer {
  name: "inception_4c/relu_3x3"
  type: "ReLU"
  bottom: "inception_4c/3x3"
  top: "inception_4c/3x3"
}
layer {
  name: "inception_4c/5x5_reduce"
  type: "Convolution"
  bottom: "inception_4b/output"
  top: "inception_4c/5x5_reduce"
  param {
    lr_mult: 1
    decay_mult: 1
  }
  param {
    lr_mult: 2
    decay_mult: 0
  }
  convolution_param {
    num_output: 24
    kernel_size: 1
    weight_filler {
      type: "xavier"
      std: 0.2
    }
    bias_filler {
      type: "constant"
      value: 0.2
    }
  }
}
layer {
  name: "inception_4c/relu_5x5_reduce"
  type: "ReLU"
  bottom: "inception_4c/5x5_reduce"
  top: "inception_4c/5x5_reduce"
}
layer {
  name: "inception_4c/5x5"
  type: "Convolution"
  bottom: "inception_4c/5x5_reduce"
  top: "inception_4c/5x5"
  param {
    lr_mult: 1
    decay_mult: 1
  }
  param {
    lr_mult: 2
    decay_mult: 0
  }
  convolution_param {
    num_output: 64
    pad: 2
    kernel_size: 5
    weight_filler {
      type: "xavier"
      std: 0.03
    }
    bias_filler {
      type: "constant"
      value: 0.2
    }
  }
}
layer {
  name: "inception_4c/relu_5x5"
  type: "ReLU"
  bottom: "inception_4c/5x5"
  top: "inception_4c/5x5"
}
layer {
  name: "inception_4c/pool"
  type: "Pooling"
  bottom: "inception_4b/output"
  top: "inception_4c/pool"
  pooling_param {
    pool: MAX
    kernel_size: 3
    stride: 1
    pad: 1
  }
}
layer {
  name: "inception_4c/pool_proj"
  type: "Convolution"
  bottom: "inception_4c/pool"
  top: "inception_4c/pool_proj"
  param {
    lr_mult: 1
    decay_mult: 1
  }
  param {
    lr_mult: 2
    decay_mult: 0
  }
  convolution_param {
    num_output: 64
    kernel_size: 1
    weight_filler {
      type: "xavier"
      std: 0.1
    }
    bias_filler {
      type: "constant"
      value: 0.2
    }
  }
}
layer {
  name: "inception_4c/relu_pool_proj"
  type: "ReLU"
  bottom: "inception_4c/pool_proj"
  top: "inception_4c/pool_proj"
}
layer {
  name: "inception_4c/output"
  type: "Concat"
  bottom: "inception_4c/1x1"
  bottom: "inception_4c/3x3"
  bottom: "inception_4c/5x5"
  bottom: "inception_4c/pool_proj"
  top: "inception_4c/output"
}
layer {
  name: "inception_4d/1x1"
  type: "Convolution"
  bottom: "inception_4c/output"
  top: "inception_4d/1x1"
  param {
    lr_mult: 1
    decay_mult: 1
  }
  param {
    lr_mult: 2
    decay_mult: 0
  }
  convolution_param {
    num_output: 112
    kernel_size: 1
    weight_filler {
      type: "xavier"
      std: 0.03
    }
    bias_filler {
      type: "constant"
      value: 0.2
    }
  }
}
layer {
  name: "inception_4d/relu_1x1"
  type: "ReLU"
  bottom: "inception_4d/1x1"
  top: "inception_4d/1x1"
}
layer {
  name: "inception_4d/3x3_reduce"
  type: "Convolution"
  bottom: "inception_4c/output"
  top: "inception_4d/3x3_reduce"
  param {
    lr_mult: 1
    decay_mult: 1
  }
  param {
    lr_mult: 2
    decay_mult: 0
  }
  convolution_param {
    num_output: 144
    kernel_size: 1
    weight_filler {
      type: "xavier"
      std: 0.09
    }
    bias_filler {
      type: "constant"
      value: 0.2
    }
  }
}
layer {
  name: "inception_4d/relu_3x3_reduce"
  type: "ReLU"
  bottom: "inception_4d/3x3_reduce"
  top: "inception_4d/3x3_reduce"
}
layer {
  name: "inception_4d/3x3"
  type: "Convolution"
  bottom: "inception_4d/3x3_reduce"
  top: "inception_4d/3x3"
  param {
    lr_mult: 1
    decay_mult: 1
  }
  param {
    lr_mult: 2
    decay_mult: 0
  }
  convolution_param {
    num_output: 288
    pad: 1
    kernel_size: 3
    weight_filler {
      type: "xavier"
      std: 0.03
    }
    bias_filler {
      type: "constant"
      value: 0.2
    }
  }
}
layer {
  name: "inception_4d/relu_3x3"
  type: "ReLU"
  bottom: "inception_4d/3x3"
  top: "inception_4d/3x3"
}
layer {
  name: "inception_4d/5x5_reduce"
  type: "Convolution"
  bottom: "inception_4c/output"
  top: "inception_4d/5x5_reduce"
  param {
    lr_mult: 1
    decay_mult: 1
  }
  param {
    lr_mult: 2
    decay_mult: 0
  }
  convolution_param {
    num_output: 32
    kernel_size: 1
    weight_filler {
      type: "xavier"
      std: 0.2
    }
    bias_filler {
      type: "constant"
      value: 0.2
    }
  }
}
layer {
  name: "inception_4d/relu_5x5_reduce"
  type: "ReLU"
  bottom: "inception_4d/5x5_reduce"
  top: "inception_4d/5x5_reduce"
}
layer {
  name: "inception_4d/5x5"
  type: "Convolution"
  bottom: "inception_4d/5x5_reduce"
  top: "inception_4d/5x5"
  param {
    lr_mult: 1
    decay_mult: 1
  }
  param {
    lr_mult: 2
    decay_mult: 0
  }
  convolution_param {
    num_output: 64
    pad: 2
    kernel_size: 5
    weight_filler {
      type: "xavier"
      std: 0.03
    }
    bias_filler {
      type: "constant"
      value: 0.2
    }
  }
}
layer {
  name: "inception_4d/relu_5x5"
  type: "ReLU"
  bottom: "inception_4d/5x5"
  top: "inception_4d/5x5"
}
layer {
  name: "inception_4d/pool"
  type: "Pooling"
  bottom: "inception_4c/output"
  top: "inception_4d/pool"
  pooling_param {
    pool: MAX
    kernel_size: 3
    stride: 1
    pad: 1
  }
}
layer {
  name: "inception_4d/pool_proj"
  type: "Convolution"
  bottom: "inception_4d/pool"
  top: "inception_4d/pool_proj"
  param {
    lr_mult: 1
    decay_mult: 1
  }
  param {
    lr_mult: 2
    decay_mult: 0
  }
  convolution_param {
    num_output: 64
    kernel_size: 1
    weight_filler {
      type: "xavier"
      std: 0.1
    }
    bias_filler {
      type: "constant"
      value: 0.2
    }
  }
}
layer {
  name: "inception_4d/relu_pool_proj"
  type: "ReLU"
  bottom: "inception_4d/pool_proj"
  top: "inception_4d/pool_proj"
}
layer {
  name: "inception_4d/output"
  type: "Concat"
  bottom: "inception_4d/1x1"
  bottom: "inception_4d/3x3"
  bottom: "inception_4d/5x5"
  bottom: "inception_4d/pool_proj"
  top: "inception_4d/output"
}
layer {
  name: "loss2/ave_pool"
  type: "Pooling"
  bottom: "inception_4d/output"
  top: "loss2/ave_pool"
  pooling_param {
    pool: AVE
    kernel_size: 5
    stride: 3
  }
}
layer {
  name: "loss2/conv"
  type: "Convolution"
  bottom: "loss2/ave_pool"
  top: "loss2/conv"
  param {
    lr_mult: 1
    decay_mult: 1
  }
  param {
    lr_mult: 2
    decay_mult: 0
  }
  convolution_param {
    num_output: 128
    kernel_size: 1
    weight_filler {
      type: "xavier"
      std: 0.08
    }
    bias_filler {
      type: "constant"
      value: 0.2
    }
  }
}
layer {
  name: "loss2/relu_conv"
  type: "ReLU"
  bottom: "loss2/conv"
  top: "loss2/conv"
}
layer {
  name: "loss2/fc"
  type: "InnerProduct"
  bottom: "loss2/conv"
  top: "loss2/fc"
  param {
    lr_mult: 1
    decay_mult: 1
  }
  param {
    lr_mult: 2
    decay_mult: 0
  }
  inner_product_param {
    num_output: 1024
    weight_filler {
      type: "xavier"
      std: 0.02
    }
    bias_filler {
      type: "constant"
      value: 0.2
    }
  }
}
layer {
  name: "loss2/relu_fc"
  type: "ReLU"
  bottom: "loss2/fc"
  top: "loss2/fc"
}
layer {
  name: "loss2/drop_fc"
  type: "Dropout"
  bottom: "loss2/fc"
  top: "loss2/fc"
  dropout_param {
    dropout_ratio: 0.7
  }
}
layer {
  name: "loss2/classifier_plantvillage"
  type: "InnerProduct"
  bottom: "loss2/fc"
  top: "loss2/classifier_plantvillage"
  param {
    lr_mult: 1
    decay_mult: 1
  }
  param {
    lr_mult: 2
    decay_mult: 0
  }
  inner_product_param {
    num_output: 38
    weight_filler {
      type: "xavier"
      std: 0.0009765625
    }
    bias_filler {
      type: "constant"
      value: 0
    }
  }
}
layer {
  name: "inception_4e/1x1"
  type: "Convolution"
  bottom: "inception_4d/output"
  top: "inception_4e/1x1"
  param {
    lr_mult: 1
    decay_mult: 1
  }
  param {
    lr_mult: 2
    decay_mult: 0
  }
  convolution_param {
    num_output: 256
    kernel_size: 1
    weight_filler {
      type: "xavier"
      std: 0.03
    }
    bias_filler {
      type: "constant"
      value: 0.2
    }
  }
}
layer {
  name: "inception_4e/relu_1x1"
  type: "ReLU"
  bottom: "inception_4e/1x1"
  top: "inception_4e/1x1"
}
layer {
  name: "inception_4e/3x3_reduce"
  type: "Convolution"
  bottom: "inception_4d/output"
  top: "inception_4e/3x3_reduce"
  param {
    lr_mult: 1
    decay_mult: 1
  }
  param {
    lr_mult: 2
    decay_mult: 0
  }
  convolution_param {
    num_output: 160
    kernel_size: 1
    weight_filler {
      type: "xavier"
      std: 0.09
    }
    bias_filler {
      type: "constant"
      value: 0.2
    }
  }
}
layer {
  name: "inception_4e/relu_3x3_reduce"
  type: "ReLU"
  bottom: "inception_4e/3x3_reduce"
  top: "inception_4e/3x3_reduce"
}
layer {
  name: "inception_4e/3x3"
  type: "Convolution"
  bottom: "inception_4e/3x3_reduce"
  top: "inception_4e/3x3"
  param {
    lr_mult: 1
    decay_mult: 1
  }
  param {
    lr_mult: 2
    decay_mult: 0
  }
  convolution_param {
    num_output: 320
    pad: 1
    kernel_size: 3
    weight_filler {
      type: "xavier"
      std: 0.03
    }
    bias_filler {
      type: "constant"
      value: 0.2
    }
  }
}
layer {
  name: "inception_4e/relu_3x3"
  type: "ReLU"
  bottom: "inception_4e/3x3"
  top: "inception_4e/3x3"
}
layer {
  name: "inception_4e/5x5_reduce"
  type: "Convolution"
  bottom: "inception_4d/output"
  top: "inception_4e/5x5_reduce"
  param {
    lr_mult: 1
    decay_mult: 1
  }
  param {
    lr_mult: 2
    decay_mult: 0
  }
  convolution_param {
    num_output: 32
    kernel_size: 1
    weight_filler {
      type: "xavier"
      std: 0.2
    }
    bias_filler {
      type: "constant"
      value: 0.2
    }
  }
}
layer {
  name: "inception_4e/relu_5x5_reduce"
  type: "ReLU"
  bottom: "inception_4e/5x5_reduce"
  top: "inception_4e/5x5_reduce"
}
layer {
  name: "inception_4e/5x5"
  type: "Convolution"
  bottom: "inception_4e/5x5_reduce"
  top: "inception_4e/5x5"
  p
I0403 15:19:12.127254 31446 layer_factory.hpp:77] Creating layer data
I0403 15:19:12.127889 31446 net.cpp:91] Creating Layer data
I0403 15:19:12.127923 31446 net.cpp:399] data -> data
I0403 15:19:12.127977 31446 net.cpp:399] data -> label
I0403 15:19:12.128017 31446 data_transformer.cpp:25] Loading mean file from: /home/mohanty/data/final_dataset/lmdb/color-60-40/mean.binaryproto
I0403 15:19:12.130822 31449 db_lmdb.cpp:38] Opened lmdb /home/mohanty/data/final_dataset/lmdb/color-60-40/test_db
I0403 15:19:12.141829 31446 data_layer.cpp:41] output data size: 24,3,224,224
I0403 15:19:14.248684 31446 net.cpp:141] Setting up data
I0403 15:19:14.248786 31446 net.cpp:148] Top shape: 24 3 224 224 (3612672)
I0403 15:19:14.248811 31446 net.cpp:148] Top shape: 24 (24)
I0403 15:19:14.248826 31446 net.cpp:156] Memory required for data: 14450784
I0403 15:19:14.248865 31446 layer_factory.hpp:77] Creating layer label_data_1_split
I0403 15:19:14.248894 31446 net.cpp:91] Creating Layer label_data_1_split
I0403 15:19:14.248914 31446 net.cpp:425] label_data_1_split <- label
I0403 15:19:14.248949 31446 net.cpp:399] label_data_1_split -> label_data_1_split_0
I0403 15:19:14.248976 31446 net.cpp:399] label_data_1_split -> label_data_1_split_1
I0403 15:19:14.248998 31446 net.cpp:399] label_data_1_split -> label_data_1_split_2
I0403 15:19:14.249020 31446 net.cpp:399] label_data_1_split -> label_data_1_split_3
I0403 15:19:14.249040 31446 net.cpp:399] label_data_1_split -> label_data_1_split_4
I0403 15:19:14.249061 31446 net.cpp:399] label_data_1_split -> label_data_1_split_5
I0403 15:19:14.249094 31446 net.cpp:399] label_data_1_split -> label_data_1_split_6
I0403 15:19:14.249114 31446 net.cpp:399] label_data_1_split -> label_data_1_split_7
I0403 15:19:14.249133 31446 net.cpp:399] label_data_1_split -> label_data_1_split_8
I0403 15:19:14.249155 31446 net.cpp:399] label_data_1_split -> label_data_1_split_9
I0403 15:19:14.249274 31446 net.cpp:141] Setting up label_data_1_split
I0403 15:19:14.250046 31446 net.cpp:148] Top shape: 24 (24)
I0403 15:19:14.250083 31446 net.cpp:148] Top shape: 24 (24)
I0403 15:19:14.250111 31446 net.cpp:148] Top shape: 24 (24)
I0403 15:19:14.250129 31446 net.cpp:148] Top shape: 24 (24)
I0403 15:19:14.250146 31446 net.cpp:148] Top shape: 24 (24)
I0403 15:19:14.250162 31446 net.cpp:148] Top shape: 24 (24)
I0403 15:19:14.250179 31446 net.cpp:148] Top shape: 24 (24)
I0403 15:19:14.250195 31446 net.cpp:148] Top shape: 24 (24)
I0403 15:19:14.250212 31446 net.cpp:148] Top shape: 24 (24)
I0403 15:19:14.250231 31446 net.cpp:148] Top shape: 24 (24)
I0403 15:19:14.250293 31446 net.cpp:156] Memory required for data: 14451744
I0403 15:19:14.250314 31446 layer_factory.hpp:77] Creating layer conv1/7x7_s2
I0403 15:19:14.250360 31446 net.cpp:91] Creating Layer conv1/7x7_s2
I0403 15:19:14.250383 31446 net.cpp:425] conv1/7x7_s2 <- data
I0403 15:19:14.250407 31446 net.cpp:399] conv1/7x7_s2 -> conv1/7x7_s2
I0403 15:19:14.442611 31446 net.cpp:141] Setting up conv1/7x7_s2
I0403 15:19:14.442694 31446 net.cpp:148] Top shape: 24 64 112 112 (19267584)
I0403 15:19:14.442713 31446 net.cpp:156] Memory required for data: 91522080
I0403 15:19:14.442751 31446 layer_factory.hpp:77] Creating layer conv1/relu_7x7
I0403 15:19:14.442780 31446 net.cpp:91] Creating Layer conv1/relu_7x7
I0403 15:19:14.442801 31446 net.cpp:425] conv1/relu_7x7 <- conv1/7x7_s2
I0403 15:19:14.442823 31446 net.cpp:386] conv1/relu_7x7 -> conv1/7x7_s2 (in-place)
I0403 15:19:14.443132 31446 net.cpp:141] Setting up conv1/relu_7x7
I0403 15:19:14.443166 31446 net.cpp:148] Top shape: 24 64 112 112 (19267584)
I0403 15:19:14.443186 31446 net.cpp:156] Memory required for data: 168592416
I0403 15:19:14.443204 31446 layer_factory.hpp:77] Creating layer pool1/3x3_s2
I0403 15:19:14.443230 31446 net.cpp:91] Creating Layer pool1/3x3_s2
I0403 15:19:14.443249 31446 net.cpp:425] pool1/3x3_s2 <- conv1/7x7_s2
I0403 15:19:14.443269 31446 net.cpp:399] pool1/3x3_s2 -> pool1/3x3_s2
I0403 15:19:14.443359 31446 net.cpp:141] Setting up pool1/3x3_s2
I0403 15:19:14.443387 31446 net.cpp:148] Top shape: 24 64 56 56 (4816896)
I0403 15:19:14.443403 31446 net.cpp:156] Memory required for data: 187860000
I0403 15:19:14.443420 31446 layer_factory.hpp:77] Creating layer pool1/norm1
I0403 15:19:14.443449 31446 net.cpp:91] Creating Layer pool1/norm1
I0403 15:19:14.443467 31446 net.cpp:425] pool1/norm1 <- pool1/3x3_s2
I0403 15:19:14.443486 31446 net.cpp:399] pool1/norm1 -> pool1/norm1
I0403 15:19:14.443814 31446 net.cpp:141] Setting up pool1/norm1
I0403 15:19:14.443843 31446 net.cpp:148] Top shape: 24 64 56 56 (4816896)
I0403 15:19:14.443861 31446 net.cpp:156] Memory required for data: 207127584
I0403 15:19:14.443877 31446 layer_factory.hpp:77] Creating layer conv2/3x3_reduce
I0403 15:19:14.443907 31446 net.cpp:91] Creating Layer conv2/3x3_reduce
I0403 15:19:14.443927 31446 net.cpp:425] conv2/3x3_reduce <- pool1/norm1
I0403 15:19:14.443946 31446 net.cpp:399] conv2/3x3_reduce -> conv2/3x3_reduce
I0403 15:19:14.445430 31446 net.cpp:141] Setting up conv2/3x3_reduce
I0403 15:19:14.445462 31446 net.cpp:148] Top shape: 24 64 56 56 (4816896)
I0403 15:19:14.445479 31446 net.cpp:156] Memory required for data: 226395168
I0403 15:19:14.445504 31446 layer_factory.hpp:77] Creating layer conv2/relu_3x3_reduce
I0403 15:19:14.445531 31446 net.cpp:91] Creating Layer conv2/relu_3x3_reduce
I0403 15:19:14.445551 31446 net.cpp:425] conv2/relu_3x3_reduce <- conv2/3x3_reduce
I0403 15:19:14.445574 31446 net.cpp:386] conv2/relu_3x3_reduce -> conv2/3x3_reduce (in-place)
I0403 15:19:14.445858 31446 net.cpp:141] Setting up conv2/relu_3x3_reduce
I0403 15:19:14.445886 31446 net.cpp:148] Top shape: 24 64 56 56 (4816896)
I0403 15:19:14.445902 31446 net.cpp:156] Memory required for data: 245662752
I0403 15:19:14.445919 31446 layer_factory.hpp:77] Creating layer conv2/3x3
I0403 15:19:14.445945 31446 net.cpp:91] Creating Layer conv2/3x3
I0403 15:19:14.445965 31446 net.cpp:425] conv2/3x3 <- conv2/3x3_reduce
I0403 15:19:14.445988 31446 net.cpp:399] conv2/3x3 -> conv2/3x3
I0403 15:19:14.448413 31446 net.cpp:141] Setting up conv2/3x3
I0403 15:19:14.448451 31446 net.cpp:148] Top shape: 24 192 56 56 (14450688)
I0403 15:19:14.448472 31446 net.cpp:156] Memory required for data: 303465504
I0403 15:19:14.448495 31446 layer_factory.hpp:77] Creating layer conv2/relu_3x3
I0403 15:19:14.448519 31446 net.cpp:91] Creating Layer conv2/relu_3x3
I0403 15:19:14.448539 31446 net.cpp:425] conv2/relu_3x3 <- conv2/3x3
I0403 15:19:14.448557 31446 net.cpp:386] conv2/relu_3x3 -> conv2/3x3 (in-place)
I0403 15:19:14.448740 31446 net.cpp:141] Setting up conv2/relu_3x3
I0403 15:19:14.448770 31446 net.cpp:148] Top shape: 24 192 56 56 (14450688)
I0403 15:19:14.448819 31446 net.cpp:156] Memory required for data: 361268256
I0403 15:19:14.448837 31446 layer_factory.hpp:77] Creating layer conv2/norm2
I0403 15:19:14.448860 31446 net.cpp:91] Creating Layer conv2/norm2
I0403 15:19:14.448879 31446 net.cpp:425] conv2/norm2 <- conv2/3x3
I0403 15:19:14.448900 31446 net.cpp:399] conv2/norm2 -> conv2/norm2
I0403 15:19:14.449221 31446 net.cpp:141] Setting up conv2/norm2
I0403 15:19:14.449254 31446 net.cpp:148] Top shape: 24 192 56 56 (14450688)
I0403 15:19:14.449273 31446 net.cpp:156] Memory required for data: 419071008
I0403 15:19:14.449297 31446 layer_factory.hpp:77] Creating layer pool2/3x3_s2
I0403 15:19:14.449321 31446 net.cpp:91] Creating Layer pool2/3x3_s2
I0403 15:19:14.449340 31446 net.cpp:425] pool2/3x3_s2 <- conv2/norm2
I0403 15:19:14.449365 31446 net.cpp:399] pool2/3x3_s2 -> pool2/3x3_s2
I0403 15:19:14.449422 31446 net.cpp:141] Setting up pool2/3x3_s2
I0403 15:19:14.449450 31446 net.cpp:148] Top shape: 24 192 28 28 (3612672)
I0403 15:19:14.449468 31446 net.cpp:156] Memory required for data: 433521696
I0403 15:19:14.449486 31446 layer_factory.hpp:77] Creating layer pool2/3x3_s2_pool2/3x3_s2_0_split
I0403 15:19:14.449504 31446 net.cpp:91] Creating Layer pool2/3x3_s2_pool2/3x3_s2_0_split
I0403 15:19:14.449520 31446 net.cpp:425] pool2/3x3_s2_pool2/3x3_s2_0_split <- pool2/3x3_s2
I0403 15:19:14.449539 31446 net.cpp:399] pool2/3x3_s2_pool2/3x3_s2_0_split -> pool2/3x3_s2_pool2/3x3_s2_0_split_0
I0403 15:19:14.449559 31446 net.cpp:399] pool2/3x3_s2_pool2/3x3_s2_0_split -> pool2/3x3_s2_pool2/3x3_s2_0_split_1
I0403 15:19:14.449585 31446 net.cpp:399] pool2/3x3_s2_pool2/3x3_s2_0_split -> pool2/3x3_s2_pool2/3x3_s2_0_split_2
I0403 15:19:14.449609 31446 net.cpp:399] pool2/3x3_s2_pool2/3x3_s2_0_split -> pool2/3x3_s2_pool2/3x3_s2_0_split_3
I0403 15:19:14.449684 31446 net.cpp:141] Setting up pool2/3x3_s2_pool2/3x3_s2_0_split
I0403 15:19:14.449708 31446 net.cpp:148] Top shape: 24 192 28 28 (3612672)
I0403 15:19:14.449725 31446 net.cpp:148] Top shape: 24 192 28 28 (3612672)
I0403 15:19:14.449743 31446 net.cpp:148] Top shape: 24 192 28 28 (3612672)
I0403 15:19:14.449760 31446 net.cpp:148] Top shape: 24 192 28 28 (3612672)
I0403 15:19:14.449776 31446 net.cpp:156] Memory required for data: 491324448
I0403 15:19:14.449792 31446 layer_factory.hpp:77] Creating layer inception_3a/1x1
I0403 15:19:14.449816 31446 net.cpp:91] Creating Layer inception_3a/1x1
I0403 15:19:14.449836 31446 net.cpp:425] inception_3a/1x1 <- pool2/3x3_s2_pool2/3x3_s2_0_split_0
I0403 15:19:14.449857 31446 net.cpp:399] inception_3a/1x1 -> inception_3a/1x1
I0403 15:19:14.451458 31446 net.cpp:141] Setting up inception_3a/1x1
I0403 15:19:14.451493 31446 net.cpp:148] Top shape: 24 64 28 28 (1204224)
I0403 15:19:14.451513 31446 net.cpp:156] Memory required for data: 496141344
I0403 15:19:14.451532 31446 layer_factory.hpp:77] Creating layer inception_3a/relu_1x1
I0403 15:19:14.451551 31446 net.cpp:91] Creating Layer inception_3a/relu_1x1
I0403 15:19:14.451571 31446 net.cpp:425] inception_3a/relu_1x1 <- inception_3a/1x1
I0403 15:19:14.451596 31446 net.cpp:386] inception_3a/relu_1x1 -> inception_3a/1x1 (in-place)
I0403 15:19:14.451777 31446 net.cpp:141] Setting up inception_3a/relu_1x1
I0403 15:19:14.451805 31446 net.cpp:148] Top shape: 24 64 28 28 (1204224)
I0403 15:19:14.451822 31446 net.cpp:156] Memory required for data: 500958240
I0403 15:19:14.451839 31446 layer_factory.hpp:77] Creating layer inception_3a/3x3_reduce
I0403 15:19:14.451864 31446 net.cpp:91] Creating Layer inception_3a/3x3_reduce
I0403 15:19:14.451884 31446 net.cpp:425] inception_3a/3x3_reduce <- pool2/3x3_s2_pool2/3x3_s2_0_split_1
I0403 15:19:14.451907 31446 net.cpp:399] inception_3a/3x3_reduce -> inception_3a/3x3_reduce
I0403 15:19:14.453645 31446 net.cpp:141] Setting up inception_3a/3x3_reduce
I0403 15:19:14.453677 31446 net.cpp:148] Top shape: 24 96 28 28 (1806336)
I0403 15:19:14.453696 31446 net.cpp:156] Memory required for data: 508183584
I0403 15:19:14.453718 31446 layer_factory.hpp:77] Creating layer inception_3a/relu_3x3_reduce
I0403 15:19:14.453758 31446 net.cpp:91] Creating Layer inception_3a/relu_3x3_reduce
I0403 15:19:14.453778 31446 net.cpp:425] inception_3a/relu_3x3_reduce <- inception_3a/3x3_reduce
I0403 15:19:14.453795 31446 net.cpp:386] inception_3a/relu_3x3_reduce -> inception_3a/3x3_reduce (in-place)
I0403 15:19:14.453980 31446 net.cpp:141] Setting up inception_3a/relu_3x3_reduce
I0403 15:19:14.454007 31446 net.cpp:148] Top shape: 24 96 28 28 (1806336)
I0403 15:19:14.454023 31446 net.cpp:156] Memory required for data: 515408928
I0403 15:19:14.454040 31446 layer_factory.hpp:77] Creating layer inception_3a/3x3
I0403 15:19:14.454063 31446 net.cpp:91] Creating Layer inception_3a/3x3
I0403 15:19:14.454082 31446 net.cpp:425] inception_3a/3x3 <- inception_3a/3x3_reduce
I0403 15:19:14.454103 31446 net.cpp:399] inception_3a/3x3 -> inception_3a/3x3
I0403 15:19:14.455807 31446 net.cpp:141] Setting up inception_3a/3x3
I0403 15:19:14.455837 31446 net.cpp:148] Top shape: 24 128 28 28 (2408448)
I0403 15:19:14.455855 31446 net.cpp:156] Memory required for data: 525042720
I0403 15:19:14.455875 31446 layer_factory.hpp:77] Creating layer inception_3a/relu_3x3
I0403 15:19:14.455896 31446 net.cpp:91] Creating Layer inception_3a/relu_3x3
I0403 15:19:14.455914 31446 net.cpp:425] inception_3a/relu_3x3 <- inception_3a/3x3
I0403 15:19:14.455931 31446 net.cpp:386] inception_3a/relu_3x3 -> inception_3a/3x3 (in-place)
I0403 15:19:14.456230 31446 net.cpp:141] Setting up inception_3a/relu_3x3
I0403 15:19:14.456257 31446 net.cpp:148] Top shape: 24 128 28 28 (2408448)
I0403 15:19:14.456275 31446 net.cpp:156] Memory required for data: 534676512
I0403 15:19:14.456297 31446 layer_factory.hpp:77] Creating layer inception_3a/5x5_reduce
I0403 15:19:14.456321 31446 net.cpp:91] Creating Layer inception_3a/5x5_reduce
I0403 15:19:14.456341 31446 net.cpp:425] inception_3a/5x5_reduce <- pool2/3x3_s2_pool2/3x3_s2_0_split_2
I0403 15:19:14.456362 31446 net.cpp:399] inception_3a/5x5_reduce -> inception_3a/5x5_reduce
I0403 15:19:14.457319 31446 net.cpp:141] Setting up inception_3a/5x5_reduce
I0403 15:19:14.457347 31446 net.cpp:148] Top shape: 24 16 28 28 (301056)
I0403 15:19:14.457365 31446 net.cpp:156] Memory required for data: 535880736
I0403 15:19:14.457383 31446 layer_factory.hpp:77] Creating layer inception_3a/relu_5x5_reduce
I0403 15:19:14.457404 31446 net.cpp:91] Creating Layer inception_3a/relu_5x5_reduce
I0403 15:19:14.457420 31446 net.cpp:425] inception_3a/relu_5x5_reduce <- inception_3a/5x5_reduce
I0403 15:19:14.457439 31446 net.cpp:386] inception_3a/relu_5x5_reduce -> inception_3a/5x5_reduce (in-place)
I0403 15:19:14.457736 31446 net.cpp:141] Setting up inception_3a/relu_5x5_reduce
I0403 15:19:14.457767 31446 net.cpp:148] Top shape: 24 16 28 28 (301056)
I0403 15:19:14.457785 31446 net.cpp:156] Memory required for data: 537084960
I0403 15:19:14.457803 31446 layer_factory.hpp:77] Creating layer inception_3a/5x5
I0403 15:19:14.457825 31446 net.cpp:91] Creating Layer inception_3a/5x5
I0403 15:19:14.457844 31446 net.cpp:425] inception_3a/5x5 <- inception_3a/5x5_reduce
I0403 15:19:14.457862 31446 net.cpp:399] inception_3a/5x5 -> inception_3a/5x5
I0403 15:19:14.458863 31446 net.cpp:141] Setting up inception_3a/5x5
I0403 15:19:14.458890 31446 net.cpp:148] Top shape: 24 32 28 28 (602112)
I0403 15:19:14.458906 31446 net.cpp:156] Memory required for data: 539493408
I0403 15:19:14.458926 31446 layer_factory.hpp:77] Creating layer inception_3a/relu_5x5
I0403 15:19:14.458948 31446 net.cpp:91] Creating Layer inception_3a/relu_5x5
I0403 15:19:14.458966 31446 net.cpp:425] inception_3a/relu_5x5 <- inception_3a/5x5
I0403 15:19:14.458984 31446 net.cpp:386] inception_3a/relu_5x5 -> inception_3a/5x5 (in-place)
I0403 15:19:14.459152 31446 net.cpp:141] Setting up inception_3a/relu_5x5
I0403 15:19:14.459187 31446 net.cpp:148] Top shape: 24 32 28 28 (602112)
I0403 15:19:14.459203 31446 net.cpp:156] Memory required for data: 541901856
I0403 15:19:14.459218 31446 layer_factory.hpp:77] Creating layer inception_3a/pool
I0403 15:19:14.459236 31446 net.cpp:91] Creating Layer inception_3a/pool
I0403 15:19:14.459252 31446 net.cpp:425] inception_3a/pool <- pool2/3x3_s2_pool2/3x3_s2_0_split_3
I0403 15:19:14.459291 31446 net.cpp:399] inception_3a/pool -> inception_3a/pool
I0403 15:19:14.459352 31446 net.cpp:141] Setting up inception_3a/pool
I0403 15:19:14.459377 31446 net.cpp:148] Top shape: 24 192 28 28 (3612672)
I0403 15:19:14.459393 31446 net.cpp:156] Memory required for data: 556352544
I0403 15:19:14.459408 31446 layer_factory.hpp:77] Creating layer inception_3a/pool_proj
I0403 15:19:14.459432 31446 net.cpp:91] Creating Layer inception_3a/pool_proj
I0403 15:19:14.459453 31446 net.cpp:425] inception_3a/pool_proj <- inception_3a/pool
I0403 15:19:14.459476 31446 net.cpp:399] inception_3a/pool_proj -> inception_3a/pool_proj
I0403 15:19:14.460460 31446 net.cpp:141] Setting up inception_3a/pool_proj
I0403 15:19:14.460495 31446 net.cpp:148] Top shape: 24 32 28 28 (602112)
I0403 15:19:14.460515 31446 net.cpp:156] Memory required for data: 558760992
I0403 15:19:14.460537 31446 layer_factory.hpp:77] Creating layer inception_3a/relu_pool_proj
I0403 15:19:14.460562 31446 net.cpp:91] Creating Layer inception_3a/relu_pool_proj
I0403 15:19:14.460583 31446 net.cpp:425] inception_3a/relu_pool_proj <- inception_3a/pool_proj
I0403 15:19:14.460605 31446 net.cpp:386] inception_3a/relu_pool_proj -> inception_3a/pool_proj (in-place)
I0403 15:19:14.460885 31446 net.cpp:141] Setting up inception_3a/relu_pool_proj
I0403 15:19:14.460911 31446 net.cpp:148] Top shape: 24 32 28 28 (602112)
I0403 15:19:14.460925 31446 net.cpp:156] Memory required for data: 561169440
I0403 15:19:14.460942 31446 layer_factory.hpp:77] Creating layer inception_3a/output
I0403 15:19:14.460959 31446 net.cpp:91] Creating Layer inception_3a/output
I0403 15:19:14.460975 31446 net.cpp:425] inception_3a/output <- inception_3a/1x1
I0403 15:19:14.460994 31446 net.cpp:425] inception_3a/output <- inception_3a/3x3
I0403 15:19:14.461011 31446 net.cpp:425] inception_3a/output <- inception_3a/5x5
I0403 15:19:14.461029 31446 net.cpp:425] inception_3a/output <- inception_3a/pool_proj
I0403 15:19:14.461046 31446 net.cpp:399] inception_3a/output -> inception_3a/output
I0403 15:19:14.461093 31446 net.cpp:141] Setting up inception_3a/output
I0403 15:19:14.461120 31446 net.cpp:148] Top shape: 24 256 28 28 (4816896)
I0403 15:19:14.461136 31446 net.cpp:156] Memory required for data: 580437024
I0403 15:19:14.461151 31446 layer_factory.hpp:77] Creating layer inception_3a/output_inception_3a/output_0_split
I0403 15:19:14.461169 31446 net.cpp:91] Creating Layer inception_3a/output_inception_3a/output_0_split
I0403 15:19:14.461184 31446 net.cpp:425] inception_3a/output_inception_3a/output_0_split <- inception_3a/output
I0403 15:19:14.461205 31446 net.cpp:399] inception_3a/output_inception_3a/output_0_split -> inception_3a/output_inception_3a/output_0_split_0
I0403 15:19:14.461225 31446 net.cpp:399] inception_3a/output_inception_3a/output_0_split -> inception_3a/output_inception_3a/output_0_split_1
I0403 15:19:14.461246 31446 net.cpp:399] inception_3a/output_inception_3a/output_0_split -> inception_3a/output_inception_3a/output_0_split_2
I0403 15:19:14.461272 31446 net.cpp:399] inception_3a/output_inception_3a/output_0_split -> inception_3a/output_inception_3a/output_0_split_3
I0403 15:19:14.461356 31446 net.cpp:141] Setting up inception_3a/output_inception_3a/output_0_split
I0403 15:19:14.461380 31446 net.cpp:148] Top shape: 24 256 28 28 (4816896)
I0403 15:19:14.461397 31446 net.cpp:148] Top shape: 24 256 28 28 (4816896)
I0403 15:19:14.461415 31446 net.cpp:148] Top shape: 24 256 28 28 (4816896)
I0403 15:19:14.461433 31446 net.cpp:148] Top shape: 24 256 28 28 (4816896)
I0403 15:19:14.461450 31446 net.cpp:156] Memory required for data: 657507360
I0403 15:19:14.461464 31446 layer_factory.hpp:77] Creating layer inception_3b/1x1
I0403 15:19:14.461486 31446 net.cpp:91] Creating Layer inception_3b/1x1
I0403 15:19:14.461508 31446 net.cpp:425] inception_3b/1x1 <- inception_3a/output_inception_3a/output_0_split_0
I0403 15:19:14.461531 31446 net.cpp:399] inception_3b/1x1 -> inception_3b/1x1
I0403 15:19:14.462680 31446 net.cpp:141] Setting up inception_3b/1x1
I0403 15:19:14.462720 31446 net.cpp:148] Top shape: 24 128 28 28 (2408448)
I0403 15:19:14.462738 31446 net.cpp:156] Memory required for data: 667141152
I0403 15:19:14.462755 31446 layer_factory.hpp:77] Creating layer inception_3b/relu_1x1
I0403 15:19:14.462774 31446 net.cpp:91] Creating Layer inception_3b/relu_1x1
I0403 15:19:14.462796 31446 net.cpp:425] inception_3b/relu_1x1 <- inception_3b/1x1
I0403 15:19:14.462817 31446 net.cpp:386] inception_3b/relu_1x1 -> inception_3b/1x1 (in-place)
I0403 15:19:14.462985 31446 net.cpp:141] Setting up inception_3b/relu_1x1
I0403 15:19:14.463009 31446 net.cpp:148] Top shape: 24 128 28 28 (2408448)
I0403 15:19:14.463024 31446 net.cpp:156] Memory required for data: 676774944
I0403 15:19:14.463040 31446 layer_factory.hpp:77] Creating layer inception_3b/3x3_reduce
I0403 15:19:14.463063 31446 net.cpp:91] Creating Layer inception_3b/3x3_reduce
I0403 15:19:14.463080 31446 net.cpp:425] inception_3b/3x3_reduce <- inception_3a/output_inception_3a/output_0_split_1
I0403 15:19:14.463101 31446 net.cpp:399] inception_3b/3x3_reduce -> inception_3b/3x3_reduce
I0403 15:19:14.464246 31446 net.cpp:141] Setting up inception_3b/3x3_reduce
I0403 15:19:14.464273 31446 net.cpp:148] Top shape: 24 128 28 28 (2408448)
I0403 15:19:14.464309 31446 net.cpp:156] Memory required for data: 686408736
I0403 15:19:14.464332 31446 layer_factory.hpp:77] Creating layer inception_3b/relu_3x3_reduce
I0403 15:19:14.464352 31446 net.cpp:91] Creating Layer inception_3b/relu_3x3_reduce
I0403 15:19:14.464368 31446 net.cpp:425] inception_3b/relu_3x3_reduce <- inception_3b/3x3_reduce
I0403 15:19:14.464390 31446 net.cpp:386] inception_3b/relu_3x3_reduce -> inception_3b/3x3_reduce (in-place)
I0403 15:19:14.464555 31446 net.cpp:141] Setting up inception_3b/relu_3x3_reduce
I0403 15:19:14.464581 31446 net.cpp:148] Top shape: 24 128 28 28 (2408448)
I0403 15:19:14.464604 31446 net.cpp:156] Memory required for data: 696042528
I0403 15:19:14.464620 31446 layer_factory.hpp:77] Creating layer inception_3b/3x3
I0403 15:19:14.464646 31446 net.cpp:91] Creating Layer inception_3b/3x3
I0403 15:19:14.464665 31446 net.cpp:425] inception_3b/3x3 <- inception_3b/3x3_reduce
I0403 15:19:14.464685 31446 net.cpp:399] inception_3b/3x3 -> inception_3b/3x3
I0403 15:19:14.467623 31446 net.cpp:141] Setting up inception_3b/3x3
I0403 15:19:14.467653 31446 net.cpp:148] Top shape: 24 192 28 28 (3612672)
I0403 15:19:14.467671 31446 net.cpp:156] Memory required for data: 710493216
I0403 15:19:14.467691 31446 layer_factory.hpp:77] Creating layer inception_3b/relu_3x3
I0403 15:19:14.467712 31446 net.cpp:91] Creating Layer inception_3b/relu_3x3
I0403 15:19:14.467730 31446 net.cpp:425] inception_3b/relu_3x3 <- inception_3b/3x3
I0403 15:19:14.467749 31446 net.cpp:386] inception_3b/relu_3x3 -> inception_3b/3x3 (in-place)
I0403 15:19:14.468034 31446 net.cpp:141] Setting up inception_3b/relu_3x3
I0403 15:19:14.468060 31446 net.cpp:148] Top shape: 24 192 28 28 (3612672)
I0403 15:19:14.468073 31446 net.cpp:156] Memory required for data: 724943904
I0403 15:19:14.468088 31446 layer_factory.hpp:77] Creating layer inception_3b/5x5_reduce
I0403 15:19:14.468111 31446 net.cpp:91] Creating Layer inception_3b/5x5_reduce
I0403 15:19:14.468129 31446 net.cpp:425] inception_3b/5x5_reduce <- inception_3a/output_inception_3a/output_0_split_2
I0403 15:19:14.468152 31446 net.cpp:399] inception_3b/5x5_reduce -> inception_3b/5x5_reduce
I0403 15:19:14.469115 31446 net.cpp:141] Setting up inception_3b/5x5_reduce
I0403 15:19:14.469144 31446 net.cpp:148] Top shape: 24 32 28 28 (602112)
I0403 15:19:14.469161 31446 net.cpp:156] Memory required for data: 727352352
I0403 15:19:14.469178 31446 layer_factory.hpp:77] Creating layer inception_3b/relu_5x5_reduce
I0403 15:19:14.469200 31446 net.cpp:91] Creating Layer inception_3b/relu_5x5_reduce
I0403 15:19:14.469218 31446 net.cpp:425] inception_3b/relu_5x5_reduce <- inception_3b/5x5_reduce
I0403 15:19:14.469238 31446 net.cpp:386] inception_3b/relu_5x5_reduce -> inception_3b/5x5_reduce (in-place)
I0403 15:19:14.469413 31446 net.cpp:141] Setting up inception_3b/relu_5x5_reduce
I0403 15:19:14.469451 31446 net.cpp:148] Top shape: 24 32 28 28 (602112)
I0403 15:19:14.469467 31446 net.cpp:156] Memory required for data: 729760800
I0403 15:19:14.469482 31446 layer_factory.hpp:77] Creating layer inception_3b/5x5
I0403 15:19:14.469506 31446 net.cpp:91] Creating Layer inception_3b/5x5
I0403 15:19:14.469524 31446 net.cpp:425] inception_3b/5x5 <- inception_3b/5x5_reduce
I0403 15:19:14.469543 31446 net.cpp:399] inception_3b/5x5 -> inception_3b/5x5
I0403 15:19:14.471483 31446 net.cpp:141] Setting up inception_3b/5x5
I0403 15:19:14.471513 31446 net.cpp:148] Top shape: 24 96 28 28 (1806336)
I0403 15:19:14.471529 31446 net.cpp:156] Memory required for data: 736986144
I0403 15:19:14.471547 31446 layer_factory.hpp:77] Creating layer inception_3b/relu_5x5
I0403 15:19:14.471566 31446 net.cpp:91] Creating Layer inception_3b/relu_5x5
I0403 15:19:14.471582 31446 net.cpp:425] inception_3b/relu_5x5 <- inception_3b/5x5
I0403 15:19:14.471604 31446 net.cpp:386] inception_3b/relu_5x5 -> inception_3b/5x5 (in-place)
I0403 15:19:14.471787 31446 net.cpp:141] Setting up inception_3b/relu_5x5
I0403 15:19:14.471837 31446 net.cpp:148] Top shape: 24 96 28 28 (1806336)
I0403 15:19:14.471866 31446 net.cpp:156] Memory required for data: 744211488
I0403 15:19:14.471882 31446 layer_factory.hpp:77] Creating layer inception_3b/pool
I0403 15:19:14.471901 31446 net.cpp:91] Creating Layer inception_3b/pool
I0403 15:19:14.471931 31446 net.cpp:425] inception_3b/pool <- inception_3a/output_inception_3a/output_0_split_3
I0403 15:19:14.471951 31446 net.cpp:399] inception_3b/pool -> inception_3b/pool
I0403 15:19:14.472010 31446 net.cpp:141] Setting up inception_3b/pool
I0403 15:19:14.472034 31446 net.cpp:148] Top shape: 24 256 28 28 (4816896)
I0403 15:19:14.472050 31446 net.cpp:156] Memory required for data: 763479072
I0403 15:19:14.472066 31446 layer_factory.hpp:77] Creating layer inception_3b/pool_proj
I0403 15:19:14.472090 31446 net.cpp:91] Creating Layer inception_3b/pool_proj
I0403 15:19:14.472107 31446 net.cpp:425] inception_3b/pool_proj <- inception_3b/pool
I0403 15:19:14.472129 31446 net.cpp:399] inception_3b/pool_proj -> inception_3b/pool_proj
I0403 15:19:14.473271 31446 net.cpp:141] Setting up inception_3b/pool_proj
I0403 15:19:14.473305 31446 net.cpp:148] Top shape: 24 64 28 28 (1204224)
I0403 15:19:14.473323 31446 net.cpp:156] Memory required for data: 768295968
I0403 15:19:14.473342 31446 layer_factory.hpp:77] Creating layer inception_3b/relu_pool_proj
I0403 15:19:14.473361 31446 net.cpp:91] Creating Layer inception_3b/relu_pool_proj
I0403 15:19:14.473376 31446 net.cpp:425] inception_3b/relu_pool_proj <- inception_3b/pool_proj
I0403 15:19:14.473393 31446 net.cpp:386] inception_3b/relu_pool_proj -> inception_3b/pool_proj (in-place)
I0403 15:19:14.473790 31446 net.cpp:141] Setting up inception_3b/relu_pool_proj
I0403 15:19:14.473827 31446 net.cpp:148] Top shape: 24 64 28 28 (1204224)
I0403 15:19:14.473844 31446 net.cpp:156] Memory required for data: 773112864
I0403 15:19:14.473860 31446 layer_factory.hpp:77] Creating layer inception_3b/output
I0403 15:19:14.473880 31446 net.cpp:91] Creating Layer inception_3b/output
I0403 15:19:14.473897 31446 net.cpp:425] inception_3b/output <- inception_3b/1x1
I0403 15:19:14.473914 31446 net.cpp:425] inception_3b/output <- inception_3b/3x3
I0403 15:19:14.473932 31446 net.cpp:425] inception_3b/output <- inception_3b/5x5
I0403 15:19:14.473948 31446 net.cpp:425] inception_3b/output <- inception_3b/pool_proj
I0403 15:19:14.473965 31446 net.cpp:399] inception_3b/output -> inception_3b/output
I0403 15:19:14.474022 31446 net.cpp:141] Setting up inception_3b/output
I0403 15:19:14.474045 31446 net.cpp:148] Top shape: 24 480 28 28 (9031680)
I0403 15:19:14.474059 31446 net.cpp:156] Memory required for data: 809239584
I0403 15:19:14.474073 31446 layer_factory.hpp:77] Creating layer pool3/3x3_s2
I0403 15:19:14.474091 31446 net.cpp:91] Creating Layer pool3/3x3_s2
I0403 15:19:14.474105 31446 net.cpp:425] pool3/3x3_s2 <- inception_3b/output
I0403 15:19:14.474126 31446 net.cpp:399] pool3/3x3_s2 -> pool3/3x3_s2
I0403 15:19:14.474196 31446 net.cpp:141] Setting up pool3/3x3_s2
I0403 15:19:14.474221 31446 net.cpp:148] Top shape: 24 480 14 14 (2257920)
I0403 15:19:14.474236 31446 net.cpp:156] Memory required for data: 818271264
I0403 15:19:14.474251 31446 layer_factory.hpp:77] Creating layer pool3/3x3_s2_pool3/3x3_s2_0_split
I0403 15:19:14.474269 31446 net.cpp:91] Creating Layer pool3/3x3_s2_pool3/3x3_s2_0_split
I0403 15:19:14.474295 31446 net.cpp:425] pool3/3x3_s2_pool3/3x3_s2_0_split <- pool3/3x3_s2
I0403 15:19:14.474319 31446 net.cpp:399] pool3/3x3_s2_pool3/3x3_s2_0_split -> pool3/3x3_s2_pool3/3x3_s2_0_split_0
I0403 15:19:14.474340 31446 net.cpp:399] pool3/3x3_s2_pool3/3x3_s2_0_split -> pool3/3x3_s2_pool3/3x3_s2_0_split_1
I0403 15:19:14.474360 31446 net.cpp:399] pool3/3x3_s2_pool3/3x3_s2_0_split -> pool3/3x3_s2_pool3/3x3_s2_0_split_2
I0403 15:19:14.474380 31446 net.cpp:399] pool3/3x3_s2_pool3/3x3_s2_0_split -> pool3/3x3_s2_pool3/3x3_s2_0_split_3
I0403 15:19:14.474454 31446 net.cpp:141] Setting up pool3/3x3_s2_pool3/3x3_s2_0_split
I0403 15:19:14.474480 31446 net.cpp:148] Top shape: 24 480 14 14 (2257920)
I0403 15:19:14.474498 31446 net.cpp:148] Top shape: 24 480 14 14 (2257920)
I0403 15:19:14.474514 31446 net.cpp:148] Top shape: 24 480 14 14 (2257920)
I0403 15:19:14.474532 31446 net.cpp:148] Top shape: 24 480 14 14 (2257920)
I0403 15:19:14.474546 31446 net.cpp:156] Memory required for data: 854397984
I0403 15:19:14.474561 31446 layer_factory.hpp:77] Creating layer inception_4a/1x1
I0403 15:19:14.474584 31446 net.cpp:91] Creating Layer inception_4a/1x1
I0403 15:19:14.474601 31446 net.cpp:425] inception_4a/1x1 <- pool3/3x3_s2_pool3/3x3_s2_0_split_0
I0403 15:19:14.474620 31446 net.cpp:399] inception_4a/1x1 -> inception_4a/1x1
I0403 15:19:14.476148 31446 net.cpp:141] Setting up inception_4a/1x1
I0403 15:19:14.476178 31446 net.cpp:148] Top shape: 24 192 14 14 (903168)
I0403 15:19:14.476197 31446 net.cpp:156] Memory required for data: 858010656
I0403 15:19:14.476217 31446 layer_factory.hpp:77] Creating layer inception_4a/relu_1x1
I0403 15:19:14.476246 31446 net.cpp:91] Creating Layer inception_4a/relu_1x1
I0403 15:19:14.476263 31446 net.cpp:425] inception_4a/relu_1x1 <- inception_4a/1x1
I0403 15:19:14.476281 31446 net.cpp:386] inception_4a/relu_1x1 -> inception_4a/1x1 (in-place)
I0403 15:19:14.476474 31446 net.cpp:141] Setting up inception_4a/relu_1x1
I0403 15:19:14.476500 31446 net.cpp:148] Top shape: 24 192 14 14 (903168)
I0403 15:19:14.476516 31446 net.cpp:156] Memory required for data: 861623328
I0403 15:19:14.476531 31446 layer_factory.hpp:77] Creating layer inception_4a/3x3_reduce
I0403 15:19:14.476553 31446 net.cpp:91] Creating Layer inception_4a/3x3_reduce
I0403 15:19:14.476572 31446 net.cpp:425] inception_4a/3x3_reduce <- pool3/3x3_s2_pool3/3x3_s2_0_split_1
I0403 15:19:14.476593 31446 net.cpp:399] inception_4a/3x3_reduce -> inception_4a/3x3_reduce
I0403 15:19:14.477829 31446 net.cpp:141] Setting up inception_4a/3x3_reduce
I0403 15:19:14.477859 31446 net.cpp:148] Top shape: 24 96 14 14 (451584)
I0403 15:19:14.477876 31446 net.cpp:156] Memory required for data: 863429664
I0403 15:19:14.477901 31446 layer_factory.hpp:77] Creating layer inception_4a/relu_3x3_reduce
I0403 15:19:14.477922 31446 net.cpp:91] Creating Layer inception_4a/relu_3x3_reduce
I0403 15:19:14.477938 31446 net.cpp:425] inception_4a/relu_3x3_reduce <- inception_4a/3x3_reduce
I0403 15:19:14.477955 31446 net.cpp:386] inception_4a/relu_3x3_reduce -> inception_4a/3x3_reduce (in-place)
I0403 15:19:14.478126 31446 net.cpp:141] Setting up inception_4a/relu_3x3_reduce
I0403 15:19:14.478150 31446 net.cpp:148] Top shape: 24 96 14 14 (451584)
I0403 15:19:14.478164 31446 net.cpp:156] Memory required for data: 865236000
I0403 15:19:14.478179 31446 layer_factory.hpp:77] Creating layer inception_4a/3x3
I0403 15:19:14.478201 31446 net.cpp:91] Creating Layer inception_4a/3x3
I0403 15:19:14.478219 31446 net.cpp:425] inception_4a/3x3 <- inception_4a/3x3_reduce
I0403 15:19:14.478240 31446 net.cpp:399] inception_4a/3x3 -> inception_4a/3x3
I0403 15:19:14.480820 31446 net.cpp:141] Setting up inception_4a/3x3
I0403 15:19:14.480851 31446 net.cpp:148] Top shape: 24 208 14 14 (978432)
I0403 15:19:14.480867 31446 net.cpp:156] Memory required for data: 869149728
I0403 15:19:14.480885 31446 layer_factory.hpp:77] Creating layer inception_4a/relu_3x3
I0403 15:19:14.480902 31446 net.cpp:91] Creating Layer inception_4a/relu_3x3
I0403 15:19:14.480917 31446 net.cpp:425] inception_4a/relu_3x3 <- inception_4a/3x3
I0403 15:19:14.480937 31446 net.cpp:386] inception_4a/relu_3x3 -> inception_4a/3x3 (in-place)
I0403 15:19:14.481206 31446 net.cpp:141] Setting up inception_4a/relu_3x3
I0403 15:19:14.481232 31446 net.cpp:148] Top shape: 24 208 14 14 (978432)
I0403 15:19:14.481248 31446 net.cpp:156] Memory required for data: 873063456
I0403 15:19:14.481263 31446 layer_factory.hpp:77] Creating layer inception_4a/5x5_reduce
I0403 15:19:14.481289 31446 net.cpp:91] Creating Layer inception_4a/5x5_reduce
I0403 15:19:14.481308 31446 net.cpp:425] inception_4a/5x5_reduce <- pool3/3x3_s2_pool3/3x3_s2_0_split_2
I0403 15:19:14.481330 31446 net.cpp:399] inception_4a/5x5_reduce -> inception_4a/5x5_reduce
I0403 15:19:14.482309 31446 net.cpp:141] Setting up inception_4a/5x5_reduce
I0403 15:19:14.482336 31446 net.cpp:148] Top shape: 24 16 14 14 (75264)
I0403 15:19:14.482352 31446 net.cpp:156] Memory required for data: 873364512
I0403 15:19:14.482370 31446 layer_factory.hpp:77] Creating layer inception_4a/relu_5x5_reduce
I0403 15:19:14.482391 31446 net.cpp:91] Creating Layer inception_4a/relu_5x5_reduce
I0403 15:19:14.482409 31446 net.cpp:425] inception_4a/relu_5x5_reduce <- inception_4a/5x5_reduce
I0403 15:19:14.482426 31446 net.cpp:386] inception_4a/relu_5x5_reduce -> inception_4a/5x5_reduce (in-place)
I0403 15:19:14.482594 31446 net.cpp:141] Setting up inception_4a/relu_5x5_reduce
I0403 15:19:14.482620 31446 net.cpp:148] Top shape: 24 16 14 14 (75264)
I0403 15:19:14.482640 31446 net.cpp:156] Memory required for data: 873665568
I0403 15:19:14.482656 31446 layer_factory.hpp:77] Creating layer inception_4a/5x5
I0403 15:19:14.482676 31446 net.cpp:91] Creating Layer inception_4a/5x5
I0403 15:19:14.482692 31446 net.cpp:425] inception_4a/5x5 <- inception_4a/5x5_reduce
I0403 15:19:14.482713 31446 net.cpp:399] inception_4a/5x5 -> inception_4a/5x5
I0403 15:19:14.483795 31446 net.cpp:141] Setting up inception_4a/5x5
I0403 15:19:14.483824 31446 net.cpp:148] Top shape: 24 48 14 14 (225792)
I0403 15:19:14.483839 31446 net.cpp:156] Memory required for data: 874568736
I0403 15:19:14.483858 31446 layer_factory.hpp:77] Creating layer inception_4a/relu_5x5
I0403 15:19:14.483880 31446 net.cpp:91] Creating Layer inception_4a/relu_5x5
I0403 15:19:14.483896 31446 net.cpp:425] inception_4a/relu_5x5 <- inception_4a/5x5
I0403 15:19:14.483914 31446 net.cpp:386] inception_4a/relu_5x5 -> inception_4a/5x5 (in-place)
I0403 15:19:14.484086 31446 net.cpp:141] Setting up inception_4a/relu_5x5
I0403 15:19:14.484112 31446 net.cpp:148] Top shape: 24 48 14 14 (225792)
I0403 15:19:14.484127 31446 net.cpp:156] Memory required for data: 875471904
I0403 15:19:14.484143 31446 layer_factory.hpp:77] Creating layer inception_4a/pool
I0403 15:19:14.484160 31446 net.cpp:91] Creating Layer inception_4a/pool
I0403 15:19:14.484177 31446 net.cpp:425] inception_4a/pool <- pool3/3x3_s2_pool3/3x3_s2_0_split_3
I0403 15:19:14.484197 31446 net.cpp:399] inception_4a/pool -> inception_4a/pool
I0403 15:19:14.484256 31446 net.cpp:141] Setting up inception_4a/pool
I0403 15:19:14.484279 31446 net.cpp:148] Top shape: 24 480 14 14 (2257920)
I0403 15:19:14.484307 31446 net.cpp:156] Memory required for data: 884503584
I0403 15:19:14.484323 31446 layer_factory.hpp:77] Creating layer inception_4a/pool_proj
I0403 15:19:14.484346 31446 net.cpp:91] Creating Layer inception_4a/pool_proj
I0403 15:19:14.484364 31446 net.cpp:425] inception_4a/pool_proj <- inception_4a/pool
I0403 15:19:14.484382 31446 net.cpp:399] inception_4a/pool_proj -> inception_4a/pool_proj
I0403 15:19:14.485510 31446 net.cpp:141] Setting up inception_4a/pool_proj
I0403 15:19:14.485540 31446 net.cpp:148] Top shape: 24 64 14 14 (301056)
I0403 15:19:14.485571 31446 net.cpp:156] Memory required for data: 885707808
I0403 15:19:14.485591 31446 layer_factory.hpp:77] Creating layer inception_4a/relu_pool_proj
I0403 15:19:14.485610 31446 net.cpp:91] Creating Layer inception_4a/relu_pool_proj
I0403 15:19:14.485626 31446 net.cpp:425] inception_4a/relu_pool_proj <- inception_4a/pool_proj
I0403 15:19:14.485656 31446 net.cpp:386] inception_4a/relu_pool_proj -> inception_4a/pool_proj (in-place)
I0403 15:19:14.485934 31446 net.cpp:141] Setting up inception_4a/relu_pool_proj
I0403 15:19:14.485963 31446 net.cpp:148] Top shape: 24 64 14 14 (301056)
I0403 15:19:14.485981 31446 net.cpp:156] Memory required for data: 886912032
I0403 15:19:14.485996 31446 layer_factory.hpp:77] Creating layer inception_4a/output
I0403 15:19:14.486014 31446 net.cpp:91] Creating Layer inception_4a/output
I0403 15:19:14.486030 31446 net.cpp:425] inception_4a/output <- inception_4a/1x1
I0403 15:19:14.486047 31446 net.cpp:425] inception_4a/output <- inception_4a/3x3
I0403 15:19:14.486063 31446 net.cpp:425] inception_4a/output <- inception_4a/5x5
I0403 15:19:14.486079 31446 net.cpp:425] inception_4a/output <- inception_4a/pool_proj
I0403 15:19:14.486096 31446 net.cpp:399] inception_4a/output -> inception_4a/output
I0403 15:19:14.486141 31446 net.cpp:141] Setting up inception_4a/output
I0403 15:19:14.486165 31446 net.cpp:148] Top shape: 24 512 14 14 (2408448)
I0403 15:19:14.486178 31446 net.cpp:156] Memory required for data: 896545824
I0403 15:19:14.486194 31446 layer_factory.hpp:77] Creating layer inception_4a/output_inception_4a/output_0_split
I0403 15:19:14.486214 31446 net.cpp:91] Creating Layer inception_4a/output_inception_4a/output_0_split
I0403 15:19:14.486232 31446 net.cpp:425] inception_4a/output_inception_4a/output_0_split <- inception_4a/output
I0403 15:19:14.486248 31446 net.cpp:399] inception_4a/output_inception_4a/output_0_split -> inception_4a/output_inception_4a/output_0_split_0
I0403 15:19:14.486269 31446 net.cpp:399] inception_4a/output_inception_4a/output_0_split -> inception_4a/output_inception_4a/output_0_split_1
I0403 15:19:14.486295 31446 net.cpp:399] inception_4a/output_inception_4a/output_0_split -> inception_4a/output_inception_4a/output_0_split_2
I0403 15:19:14.486318 31446 net.cpp:399] inception_4a/output_inception_4a/output_0_split -> inception_4a/output_inception_4a/output_0_split_3
I0403 15:19:14.486340 31446 net.cpp:399] inception_4a/output_inception_4a/output_0_split -> inception_4a/output_inception_4a/output_0_split_4
I0403 15:19:14.486429 31446 net.cpp:141] Setting up inception_4a/output_inception_4a/output_0_split
I0403 15:19:14.486452 31446 net.cpp:148] Top shape: 24 512 14 14 (2408448)
I0403 15:19:14.486469 31446 net.cpp:148] Top shape: 24 512 14 14 (2408448)
I0403 15:19:14.486485 31446 net.cpp:148] Top shape: 24 512 14 14 (2408448)
I0403 15:19:14.486500 31446 net.cpp:148] Top shape: 24 512 14 14 (2408448)
I0403 15:19:14.486516 31446 net.cpp:148] Top shape: 24 512 14 14 (2408448)
I0403 15:19:14.486531 31446 net.cpp:156] Memory required for data: 944714784
I0403 15:19:14.486546 31446 layer_factory.hpp:77] Creating layer loss1/ave_pool
I0403 15:19:14.486563 31446 net.cpp:91] Creating Layer loss1/ave_pool
I0403 15:19:14.486580 31446 net.cpp:425] loss1/ave_pool <- inception_4a/output_inception_4a/output_0_split_0
I0403 15:19:14.486603 31446 net.cpp:399] loss1/ave_pool -> loss1/ave_pool
I0403 15:19:14.486799 31446 net.cpp:141] Setting up loss1/ave_pool
I0403 15:19:14.486829 31446 net.cpp:148] Top shape: 24 512 4 4 (196608)
I0403 15:19:14.486845 31446 net.cpp:156] Memory required for data: 945501216
I0403 15:19:14.486860 31446 layer_factory.hpp:77] Creating layer loss1/conv
I0403 15:19:14.486881 31446 net.cpp:91] Creating Layer loss1/conv
I0403 15:19:14.486899 31446 net.cpp:425] loss1/conv <- loss1/ave_pool
I0403 15:19:14.486918 31446 net.cpp:399] loss1/conv -> loss1/conv
I0403 15:19:14.488268 31446 net.cpp:141] Setting up loss1/conv
I0403 15:19:14.488301 31446 net.cpp:148] Top shape: 24 128 4 4 (49152)
I0403 15:19:14.488317 31446 net.cpp:156] Memory required for data: 945697824
I0403 15:19:14.488351 31446 layer_factory.hpp:77] Creating layer loss1/relu_conv
I0403 15:19:14.488370 31446 net.cpp:91] Creating Layer loss1/relu_conv
I0403 15:19:14.488386 31446 net.cpp:425] loss1/relu_conv <- loss1/conv
I0403 15:19:14.488406 31446 net.cpp:386] loss1/relu_conv -> loss1/conv (in-place)
I0403 15:19:14.488677 31446 net.cpp:141] Setting up loss1/relu_conv
I0403 15:19:14.488703 31446 net.cpp:148] Top shape: 24 128 4 4 (49152)
I0403 15:19:14.488718 31446 net.cpp:156] Memory required for data: 945894432
I0403 15:19:14.488734 31446 layer_factory.hpp:77] Creating layer loss1/fc
I0403 15:19:14.488759 31446 net.cpp:91] Creating Layer loss1/fc
I0403 15:19:14.488776 31446 net.cpp:425] loss1/fc <- loss1/conv
I0403 15:19:14.488798 31446 net.cpp:399] loss1/fc -> loss1/fc
I0403 15:19:14.506825 31446 net.cpp:141] Setting up loss1/fc
I0403 15:19:14.506857 31446 net.cpp:148] Top shape: 24 1024 (24576)
I0403 15:19:14.506875 31446 net.cpp:156] Memory required for data: 945992736
I0403 15:19:14.506894 31446 layer_factory.hpp:77] Creating layer loss1/relu_fc
I0403 15:19:14.506916 31446 net.cpp:91] Creating Layer loss1/relu_fc
I0403 15:19:14.506932 31446 net.cpp:425] loss1/relu_fc <- loss1/fc
I0403 15:19:14.506950 31446 net.cpp:386] loss1/relu_fc -> loss1/fc (in-place)
I0403 15:19:14.507150 31446 net.cpp:141] Setting up loss1/relu_fc
I0403 15:19:14.507176 31446 net.cpp:148] Top shape: 24 1024 (24576)
I0403 15:19:14.507194 31446 net.cpp:156] Memory required for data: 946091040
I0403 15:19:14.507210 31446 layer_factory.hpp:77] Creating layer loss1/drop_fc
I0403 15:19:14.507238 31446 net.cpp:91] Creating Layer loss1/drop_fc
I0403 15:19:14.507257 31446 net.cpp:425] loss1/drop_fc <- loss1/fc
I0403 15:19:14.507278 31446 net.cpp:386] loss1/drop_fc -> loss1/fc (in-place)
I0403 15:19:14.507338 31446 net.cpp:141] Setting up loss1/drop_fc
I0403 15:19:14.507362 31446 net.cpp:148] Top shape: 24 1024 (24576)
I0403 15:19:14.507383 31446 net.cpp:156] Memory required for data: 946189344
I0403 15:19:14.507400 31446 layer_factory.hpp:77] Creating layer loss1/classifier_plantvillage
I0403 15:19:14.507419 31446 net.cpp:91] Creating Layer loss1/classifier_plantvillage
I0403 15:19:14.507436 31446 net.cpp:425] loss1/classifier_plantvillage <- loss1/fc
I0403 15:19:14.507457 31446 net.cpp:399] loss1/classifier_plantvillage -> loss1/classifier_plantvillage
I0403 15:19:14.508390 31446 net.cpp:141] Setting up loss1/classifier_plantvillage
I0403 15:19:14.508419 31446 net.cpp:148] Top shape: 24 38 (912)
I0403 15:19:14.508436 31446 net.cpp:156] Memory required for data: 946192992
I0403 15:19:14.508456 31446 layer_factory.hpp:77] Creating layer loss1/classifier_plantvillage_loss1/classifier_plantvillage_0_split
I0403 15:19:14.508476 31446 net.cpp:91] Creating Layer loss1/classifier_plantvillage_loss1/classifier_plantvillage_0_split
I0403 15:19:14.508491 31446 net.cpp:425] loss1/classifier_plantvillage_loss1/classifier_plantvillage_0_split <- loss1/classifier_plantvillage
I0403 15:19:14.508512 31446 net.cpp:399] loss1/classifier_plantvillage_loss1/classifier_plantvillage_0_split -> loss1/classifier_plantvillage_loss1/classifier_plantvillage_0_split_0
I0403 15:19:14.508535 31446 net.cpp:399] loss1/classifier_plantvillage_loss1/classifier_plantvillage_0_split -> loss1/classifier_plantvillage_loss1/classifier_plantvillage_0_split_1
I0403 15:19:14.508558 31446 net.cpp:399] loss1/classifier_plantvillage_loss1/classifier_plantvillage_0_split -> loss1/classifier_plantvillage_loss1/classifier_plantvillage_0_split_2
I0403 15:19:14.508628 31446 net.cpp:141] Setting up loss1/classifier_plantvillage_loss1/classifier_plantvillage_0_split
I0403 15:19:14.508652 31446 net.cpp:148] Top shape: 24 38 (912)
I0403 15:19:14.508668 31446 net.cpp:148] Top shape: 24 38 (912)
I0403 15:19:14.508684 31446 net.cpp:148] Top shape: 24 38 (912)
I0403 15:19:14.508700 31446 net.cpp:156] Memory required for data: 946203936
I0403 15:19:14.508715 31446 layer_factory.hpp:77] Creating layer inception_4b/1x1
I0403 15:19:14.508738 31446 net.cpp:91] Creating Layer inception_4b/1x1
I0403 15:19:14.508772 31446 net.cpp:425] inception_4b/1x1 <- inception_4a/output_inception_4a/output_0_split_1
I0403 15:19:14.508793 31446 net.cpp:399] inception_4b/1x1 -> inception_4b/1x1
I0403 15:19:14.510512 31446 net.cpp:141] Setting up inception_4b/1x1
I0403 15:19:14.510542 31446 net.cpp:148] Top shape: 24 160 14 14 (752640)
I0403 15:19:14.510560 31446 net.cpp:156] Memory required for data: 949214496
I0403 15:19:14.510591 31446 layer_factory.hpp:77] Creating layer inception_4b/relu_1x1
I0403 15:19:14.510612 31446 net.cpp:91] Creating Layer inception_4b/relu_1x1
I0403 15:19:14.510630 31446 net.cpp:425] inception_4b/relu_1x1 <- inception_4b/1x1
I0403 15:19:14.510653 31446 net.cpp:386] inception_4b/relu_1x1 -> inception_4b/1x1 (in-place)
I0403 15:19:14.510838 31446 net.cpp:141] Setting up inception_4b/relu_1x1
I0403 15:19:14.510864 31446 net.cpp:148] Top shape: 24 160 14 14 (752640)
I0403 15:19:14.510884 31446 net.cpp:156] Memory required for data: 952225056
I0403 15:19:14.510900 31446 layer_factory.hpp:77] Creating layer inception_4b/3x3_reduce
I0403 15:19:14.510921 31446 net.cpp:91] Creating Layer inception_4b/3x3_reduce
I0403 15:19:14.510938 31446 net.cpp:425] inception_4b/3x3_reduce <- inception_4a/output_inception_4a/output_0_split_2
I0403 15:19:14.510962 31446 net.cpp:399] inception_4b/3x3_reduce -> inception_4b/3x3_reduce
I0403 15:19:14.512377 31446 net.cpp:141] Setting up inception_4b/3x3_reduce
I0403 15:19:14.512405 31446 net.cpp:148] Top shape: 24 112 14 14 (526848)
I0403 15:19:14.512423 31446 net.cpp:156] Memory required for data: 954332448
I0403 15:19:14.512444 31446 layer_factory.hpp:77] Creating layer inception_4b/relu_3x3_reduce
I0403 15:19:14.512467 31446 net.cpp:91] Creating Layer inception_4b/relu_3x3_reduce
I0403 15:19:14.512485 31446 net.cpp:425] inception_4b/relu_3x3_reduce <- inception_4b/3x3_reduce
I0403 15:19:14.512503 31446 net.cpp:386] inception_4b/relu_3x3_reduce -> inception_4b/3x3_reduce (in-place)
I0403 15:19:14.512799 31446 net.cpp:141] Setting up inception_4b/relu_3x3_reduce
I0403 15:19:14.512842 31446 net.cpp:148] Top shape: 24 112 14 14 (526848)
I0403 15:19:14.512861 31446 net.cpp:156] Memory required for data: 956439840
I0403 15:19:14.512878 31446 layer_factory.hpp:77] Creating layer inception_4b/3x3
I0403 15:19:14.512908 31446 net.cpp:91] Creating Layer inception_4b/3x3
I0403 15:19:14.512940 31446 net.cpp:425] inception_4b/3x3 <- inception_4b/3x3_reduce
I0403 15:19:14.512964 31446 net.cpp:399] inception_4b/3x3 -> inception_4b/3x3
I0403 15:19:14.516065 31446 net.cpp:141] Setting up inception_4b/3x3
I0403 15:19:14.516098 31446 net.cpp:148] Top shape: 24 224 14 14 (1053696)
I0403 15:19:14.516116 31446 net.cpp:156] Memory required for data: 960654624
I0403 15:19:14.516136 31446 layer_factory.hpp:77] Creating layer inception_4b/relu_3x3
I0403 15:19:14.516157 31446 net.cpp:91] Creating Layer inception_4b/relu_3x3
I0403 15:19:14.516178 31446 net.cpp:425] inception_4b/relu_3x3 <- inception_4b/3x3
I0403 15:19:14.516202 31446 net.cpp:386] inception_4b/relu_3x3 -> inception_4b/3x3 (in-place)
I0403 15:19:14.516396 31446 net.cpp:141] Setting up inception_4b/relu_3x3
I0403 15:19:14.516422 31446 net.cpp:148] Top shape: 24 224 14 14 (1053696)
I0403 15:19:14.516440 31446 net.cpp:156] Memory required for data: 964869408
I0403 15:19:14.516456 31446 layer_factory.hpp:77] Creating layer inception_4b/5x5_reduce
I0403 15:19:14.516484 31446 net.cpp:91] Creating Layer inception_4b/5x5_reduce
I0403 15:19:14.516502 31446 net.cpp:425] inception_4b/5x5_reduce <- inception_4a/output_inception_4a/output_0_split_3
I0403 15:19:14.516525 31446 net.cpp:399] inception_4b/5x5_reduce -> inception_4b/5x5_reduce
I0403 15:19:14.517645 31446 net.cpp:141] Setting up inception_4b/5x5_reduce
I0403 15:19:14.517676 31446 net.cpp:148] Top shape: 24 24 14 14 (112896)
I0403 15:19:14.517695 31446 net.cpp:156] Memory required for data: 965320992
I0403 15:19:14.517719 31446 layer_factory.hpp:77] Creating layer inception_4b/relu_5x5_reduce
I0403 15:19:14.517745 31446 net.cpp:91] Creating Layer inception_4b/relu_5x5_reduce
I0403 15:19:14.517781 31446 net.cpp:425] inception_4b/relu_5x5_reduce <- inception_4b/5x5_reduce
I0403 15:19:14.517803 31446 net.cpp:386] inception_4b/relu_5x5_reduce -> inception_4b/5x5_reduce (in-place)
I0403 15:19:14.518005 31446 net.cpp:141] Setting up inception_4b/relu_5x5_reduce
I0403 15:19:14.518039 31446 net.cpp:148] Top shape: 24 24 14 14 (112896)
I0403 15:19:14.518057 31446 net.cpp:156] Memory required for data: 965772576
I0403 15:19:14.518074 31446 layer_factory.hpp:77] Creating layer inception_4b/5x5
I0403 15:19:14.518098 31446 net.cpp:91] Creating Layer inception_4b/5x5
I0403 15:19:14.518118 31446 net.cpp:425] inception_4b/5x5 <- inception_4b/5x5_reduce
I0403 15:19:14.518138 31446 net.cpp:399] inception_4b/5x5 -> inception_4b/5x5
I0403 15:19:14.519415 31446 net.cpp:141] Setting up inception_4b/5x5
I0403 15:19:14.519448 31446 net.cpp:148] Top shape: 24 64 14 14 (301056)
I0403 15:19:14.519464 31446 net.cpp:156] Memory required for data: 966976800
I0403 15:19:14.519484 31446 layer_factory.hpp:77] Creating layer inception_4b/relu_5x5
I0403 15:19:14.519517 31446 net.cpp:91] Creating Layer inception_4b/relu_5x5
I0403 15:19:14.519544 31446 net.cpp:425] inception_4b/relu_5x5 <- inception_4b/5x5
I0403 15:19:14.519564 31446 net.cpp:386] inception_4b/relu_5x5 -> inception_4b/5x5 (in-place)
I0403 15:19:14.519959 31446 net.cpp:141] Setting up inception_4b/relu_5x5
I0403 15:19:14.519996 31446 net.cpp:148] Top shape: 24 64 14 14 (301056)
I0403 15:19:14.520021 31446 net.cpp:156] Memory required for data: 968181024
I0403 15:19:14.520046 31446 layer_factory.hpp:77] Creating layer inception_4b/pool
I0403 15:19:14.520071 31446 net.cpp:91] Creating Layer inception_4b/pool
I0403 15:19:14.520097 31446 net.cpp:425] inception_4b/pool <- inception_4a/output_inception_4a/output_0_split_4
I0403 15:19:14.520120 31446 net.cpp:399] inception_4b/pool -> inception_4b/pool
I0403 15:19:14.520190 31446 net.cpp:141] Setting up inception_4b/pool
I0403 15:19:14.520217 31446 net.cpp:148] Top shape: 24 512 14 14 (2408448)
I0403 15:19:14.520241 31446 net.cpp:156] Memory required for data: 977814816
I0403 15:19:14.520267 31446 layer_factory.hpp:77] Creating layer inception_4b/pool_proj
I0403 15:19:14.520301 31446 net.cpp:91] Creating Layer inception_4b/pool_proj
I0403 15:19:14.520325 31446 net.cpp:425] inception_4b/pool_proj <- inception_4b/pool
I0403 15:19:14.520351 31446 net.cpp:399] inception_4b/pool_proj -> inception_4b/pool_proj
I0403 15:19:14.521654 31446 net.cpp:141] Setting up inception_4b/pool_proj
I0403 15:19:14.521692 31446 net.cpp:148] Top shape: 24 64 14 14 (301056)
I0403 15:19:14.521710 31446 net.cpp:156] Memory required for data: 979019040
I0403 15:19:14.521746 31446 layer_factory.hpp:77] Creating layer inception_4b/relu_pool_proj
I0403 15:19:14.521771 31446 net.cpp:91] Creating Layer inception_4b/relu_pool_proj
I0403 15:19:14.521814 31446 net.cpp:425] inception_4b/relu_pool_proj <- inception_4b/pool_proj
I0403 15:19:14.521845 31446 net.cpp:386] inception_4b/relu_pool_proj -> inception_4b/pool_proj (in-place)
I0403 15:19:14.522050 31446 net.cpp:141] Setting up inception_4b/relu_pool_proj
I0403 15:19:14.522083 31446 net.cpp:148] Top shape: 24 64 14 14 (301056)
I0403 15:19:14.522101 31446 net.cpp:156] Memory required for data: 980223264
I0403 15:19:14.522119 31446 layer_factory.hpp:77] Creating layer inception_4b/output
I0403 15:19:14.522137 31446 net.cpp:91] Creating Layer inception_4b/output
I0403 15:19:14.522157 31446 net.cpp:425] inception_4b/output <- inception_4b/1x1
I0403 15:19:14.522176 31446 net.cpp:425] inception_4b/output <- inception_4b/3x3
I0403 15:19:14.522197 31446 net.cpp:425] inception_4b/output <- inception_4b/5x5
I0403 15:19:14.522217 31446 net.cpp:425] inception_4b/output <- inception_4b/pool_proj
I0403 15:19:14.522238 31446 net.cpp:399] inception_4b/output -> inception_4b/output
I0403 15:19:14.522297 31446 net.cpp:141] Setting up inception_4b/output
I0403 15:19:14.522328 31446 net.cpp:148] Top shape: 24 512 14 14 (2408448)
I0403 15:19:14.522352 31446 net.cpp:156] Memory required for data: 989857056
I0403 15:19:14.522398 31446 layer_factory.hpp:77] Creating layer inception_4b/output_inception_4b/output_0_split
I0403 15:19:14.522450 31446 net.cpp:91] Creating Layer inception_4b/output_inception_4b/output_0_split
I0403 15:19:14.522475 31446 net.cpp:425] inception_4b/output_inception_4b/output_0_split <- inception_4b/output
I0403 15:19:14.522507 31446 net.cpp:399] inception_4b/output_inception_4b/output_0_split -> inception_4b/output_inception_4b/output_0_split_0
I0403 15:19:14.522534 31446 net.cpp:399] inception_4b/output_inception_4b/output_0_split -> inception_4b/output_inception_4b/output_0_split_1
I0403 15:19:14.522560 31446 net.cpp:399] inception_4b/output_inception_4b/output_0_split -> inception_4b/output_inception_4b/output_0_split_2
I0403 15:19:14.522610 31446 net.cpp:399] inception_4b/output_inception_4b/output_0_split -> inception_4b/output_inception_4b/output_0_split_3
I0403 15:19:14.522714 31446 net.cpp:141] Setting up inception_4b/output_inception_4b/output_0_split
I0403 15:19:14.522742 31446 net.cpp:148] Top shape: 24 512 14 14 (2408448)
I0403 15:19:14.522759 31446 net.cpp:148] Top shape: 24 512 14 14 (2408448)
I0403 15:19:14.522776 31446 net.cpp:148] Top shape: 24 512 14 14 (2408448)
I0403 15:19:14.522794 31446 net.cpp:148] Top shape: 24 512 14 14 (2408448)
I0403 15:19:14.522809 31446 net.cpp:156] Memory required for data: 1028392224
I0403 15:19:14.522825 31446 layer_factory.hpp:77] Creating layer inception_4c/1x1
I0403 15:19:14.522848 31446 net.cpp:91] Creating Layer inception_4c/1x1
I0403 15:19:14.522869 31446 net.cpp:425] inception_4c/1x1 <- inception_4b/output_inception_4b/output_0_split_0
I0403 15:19:14.522894 31446 net.cpp:399] inception_4c/1x1 -> inception_4c/1x1
I0403 15:19:14.524477 31446 net.cpp:141] Setting up inception_4c/1x1
I0403 15:19:14.524524 31446 net.cpp:148] Top shape: 24 128 14 14 (602112)
I0403 15:19:14.524551 31446 net.cpp:156] Memory required for data: 1030800672
I0403 15:19:14.524574 31446 layer_factory.hpp:77] Creating layer inception_4c/relu_1x1
I0403 15:19:14.524595 31446 net.cpp:91] Creating Layer inception_4c/relu_1x1
I0403 15:19:14.524616 31446 net.cpp:425] inception_4c/relu_1x1 <- inception_4c/1x1
I0403 15:19:14.524636 31446 net.cpp:386] inception_4c/relu_1x1 -> inception_4c/1x1 (in-place)
I0403 15:19:14.524847 31446 net.cpp:141] Setting up inception_4c/relu_1x1
I0403 15:19:14.524876 31446 net.cpp:148] Top shape: 24 128 14 14 (602112)
I0403 15:19:14.524895 31446 net.cpp:156] Memory required for data: 1033209120
I0403 15:19:14.524914 31446 layer_factory.hpp:77] Creating layer inception_4c/3x3_reduce
I0403 15:19:14.524940 31446 net.cpp:91] Creating Layer inception_4c/3x3_reduce
I0403 15:19:14.524962 31446 net.cpp:425] inception_4c/3x3_reduce <- inception_4b/output_inception_4b/output_0_split_1
I0403 15:19:14.524992 31446 net.cpp:399] inception_4c/3x3_reduce -> inception_4c/3x3_reduce
I0403 15:19:14.527004 31446 net.cpp:141] Setting up inception_4c/3x3_reduce
I0403 15:19:14.527035 31446 net.cpp:148] Top shape: 24 128 14 14 (602112)
I0403 15:19:14.527057 31446 net.cpp:156] Memory required for data: 1035617568
I0403 15:19:14.527082 31446 layer_factory.hpp:77] Creating layer inception_4c/relu_3x3_reduce
I0403 15:19:14.527107 31446 net.cpp:91] Creating Layer inception_4c/relu_3x3_reduce
I0403 15:19:14.527127 31446 net.cpp:425] inception_4c/relu_3x3_reduce <- inception_4c/3x3_reduce
I0403 15:19:14.527154 31446 net.cpp:386] inception_4c/relu_3x3_reduce -> inception_4c/3x3_reduce (in-place)
I0403 15:19:14.527454 31446 net.cpp:141] Setting up inception_4c/relu_3x3_reduce
I0403 15:19:14.527487 31446 net.cpp:148] Top shape: 24 128 14 14 (602112)
I0403 15:19:14.527508 31446 net.cpp:156] Memory required for data: 1038026016
I0403 15:19:14.527529 31446 layer_factory.hpp:77] Creating layer inception_4c/3x3
I0403 15:19:14.527552 31446 net.cpp:91] Creating Layer inception_4c/3x3
I0403 15:19:14.527576 31446 net.cpp:425] inception_4c/3x3 <- inception_4c/3x3_reduce
I0403 15:19:14.527603 31446 net.cpp:399] inception_4c/3x3 -> inception_4c/3x3
I0403 15:19:14.531481 31446 net.cpp:141] Setting up inception_4c/3x3
I0403 15:19:14.531527 31446 net.cpp:148] Top shape: 24 256 14 14 (1204224)
I0403 15:19:14.531545 31446 net.cpp:156] Memory required for data: 1042842912
I0403 15:19:14.531579 31446 layer_factory.hpp:77] Creating layer inception_4c/relu_3x3
I0403 15:19:14.531605 31446 net.cpp:91] Creating Layer inception_4c/relu_3x3
I0403 15:19:14.531623 31446 net.cpp:425] inception_4c/relu_3x3 <- inception_4c/3x3
I0403 15:19:14.531641 31446 net.cpp:386] inception_4c/relu_3x3 -> inception_4c/3x3 (in-place)
I0403 15:19:14.531832 31446 net.cpp:141] Setting up inception_4c/relu_3x3
I0403 15:19:14.531860 31446 net.cpp:148] Top shape: 24 256 14 14 (1204224)
I0403 15:19:14.531875 31446 net.cpp:156] Memory required for data: 1047659808
I0403 15:19:14.531890 31446 layer_factory.hpp:77] Creating layer inception_4c/5x5_reduce
I0403 15:19:14.531913 31446 net.cpp:91] Creating Layer inception_4c/5x5_reduce
I0403 15:19:14.531934 31446 net.cpp:425] inception_4c/5x5_reduce <- inception_4b/output_inception_4b/output_0_split_2
I0403 15:19:14.531955 31446 net.cpp:399] inception_4c/5x5_reduce -> inception_4c/5x5_reduce
I0403 15:19:14.533083 31446 net.cpp:141] Setting up inception_4c/5x5_reduce
I0403 15:19:14.533113 31446 net.cpp:148] Top shape: 24 24 14 14 (112896)
I0403 15:19:14.533129 31446 net.cpp:156] Memory required for data: 1048111392
I0403 15:19:14.533149 31446 layer_factory.hpp:77] Creating layer inception_4c/relu_5x5_reduce
I0403 15:19:14.533171 31446 net.cpp:91] Creating Layer inception_4c/relu_5x5_reduce
I0403 15:19:14.533190 31446 net.cpp:425] inception_4c/relu_5x5_reduce <- inception_4c/5x5_reduce
I0403 15:19:14.533210 31446 net.cpp:386] inception_4c/relu_5x5_reduce -> inception_4c/5x5_reduce (in-place)
I0403 15:19:14.533406 31446 net.cpp:141] Setting up inception_4c/relu_5x5_reduce
I0403 15:19:14.533437 31446 net.cpp:148] Top shape: 24 24 14 14 (112896)
I0403 15:19:14.533452 31446 net.cpp:156] Memory required for data: 1048562976
I0403 15:19:14.533468 31446 layer_factory.hpp:77] Creating layer inception_4c/5x5
I0403 15:19:14.533494 31446 net.cpp:91] Creating Layer inception_4c/5x5
I0403 15:19:14.533529 31446 net.cpp:425] inception_4c/5x5 <- inception_4c/5x5_reduce
I0403 15:19:14.533552 31446 net.cpp:399] inception_4c/5x5 -> inception_4c/5x5
I0403 15:19:14.534848 31446 net.cpp:141] Setting up inception_4c/5x5
I0403 15:19:14.534880 31446 net.cpp:148] Top shape: 24 64 14 14 (301056)
I0403 15:19:14.534898 31446 net.cpp:156] Memory required for data: 1049767200
I0403 15:19:14.534919 31446 layer_factory.hpp:77] Creating layer inception_4c/relu_5x5
I0403 15:19:14.534939 31446 net.cpp:91] Creating Layer inception_4c/relu_5x5
I0403 15:19:14.534955 31446 net.cpp:425] inception_4c/relu_5x5 <- inception_4c/5x5
I0403 15:19:14.534973 31446 net.cpp:386] inception_4c/relu_5x5 -> inception_4c/5x5 (in-place)
I0403 15:19:14.535279 31446 net.cpp:141] Setting up inception_4c/relu_5x5
I0403 15:19:14.535313 31446 net.cpp:148] Top shape: 24 64 14 14 (301056)
I0403 15:19:14.535331 31446 net.cpp:156] Memory required for data: 1050971424
I0403 15:19:14.535348 31446 layer_factory.hpp:77] Creating layer inception_4c/pool
I0403 15:19:14.535367 31446 net.cpp:91] Creating Layer inception_4c/pool
I0403 15:19:14.535385 31446 net.cpp:425] inception_4c/pool <- inception_4b/output_inception_4b/output_0_split_3
I0403 15:19:14.535403 31446 net.cpp:399] inception_4c/pool -> inception_4c/pool
I0403 15:19:14.535471 31446 net.cpp:141] Setting up inception_4c/pool
I0403 15:19:14.535496 31446 net.cpp:148] Top shape: 24 512 14 14 (2408448)
I0403 15:19:14.535511 31446 net.cpp:156] Memory required for data: 1060605216
I0403 15:19:14.535527 31446 layer_factory.hpp:77] Creating layer inception_4c/pool_proj
I0403 15:19:14.535550 31446 net.cpp:91] Creating Layer inception_4c/pool_proj
I0403 15:19:14.535572 31446 net.cpp:425] inception_4c/pool_proj <- inception_4c/pool
I0403 15:19:14.535593 31446 net.cpp:399] inception_4c/pool_proj -> inception_4c/pool_proj
I0403 15:19:14.536846 31446 net.cpp:141] Setting up inception_4c/pool_proj
I0403 15:19:14.536875 31446 net.cpp:148] Top shape: 24 64 14 14 (301056)
I0403 15:19:14.536908 31446 net.cpp:156] Memory required for data: 1061809440
I0403 15:19:14.536931 31446 layer_factory.hpp:77] Creating layer inception_4c/relu_pool_proj
I0403 15:19:14.536953 31446 net.cpp:91] Creating Layer inception_4c/relu_pool_proj
I0403 15:19:14.536973 31446 net.cpp:425] inception_4c/relu_pool_proj <- inception_4c/pool_proj
I0403 15:19:14.536991 31446 net.cpp:386] inception_4c/relu_pool_proj -> inception_4c/pool_proj (in-place)
I0403 15:19:14.537176 31446 net.cpp:141] Setting up inception_4c/relu_pool_proj
I0403 15:19:14.537205 31446 net.cpp:148] Top shape: 24 64 14 14 (301056)
I0403 15:19:14.537222 31446 net.cpp:156] Memory required for data: 1063013664
I0403 15:19:14.537238 31446 layer_factory.hpp:77] Creating layer inception_4c/output
I0403 15:19:14.537256 31446 net.cpp:91] Creating Layer inception_4c/output
I0403 15:19:14.537273 31446 net.cpp:425] inception_4c/output <- inception_4c/1x1
I0403 15:19:14.537297 31446 net.cpp:425] inception_4c/output <- inception_4c/3x3
I0403 15:19:14.537314 31446 net.cpp:425] inception_4c/output <- inception_4c/5x5
I0403 15:19:14.537333 31446 net.cpp:425] inception_4c/output <- inception_4c/pool_proj
I0403 15:19:14.537350 31446 net.cpp:399] inception_4c/output -> inception_4c/output
I0403 15:19:14.537400 31446 net.cpp:141] Setting up inception_4c/output
I0403 15:19:14.537425 31446 net.cpp:148] Top shape: 24 512 14 14 (2408448)
I0403 15:19:14.537441 31446 net.cpp:156] Memory required for data: 1072647456
I0403 15:19:14.537456 31446 layer_factory.hpp:77] Creating layer inception_4c/output_inception_4c/output_0_split
I0403 15:19:14.537474 31446 net.cpp:91] Creating Layer inception_4c/output_inception_4c/output_0_split
I0403 15:19:14.537495 31446 net.cpp:425] inception_4c/output_inception_4c/output_0_split <- inception_4c/output
I0403 15:19:14.537514 31446 net.cpp:399] inception_4c/output_inception_4c/output_0_split -> inception_4c/output_inception_4c/output_0_split_0
I0403 15:19:14.537535 31446 net.cpp:399] inception_4c/output_inception_4c/output_0_split -> inception_4c/output_inception_4c/output_0_split_1
I0403 15:19:14.537557 31446 net.cpp:399] inception_4c/output_inception_4c/output_0_split -> inception_4c/output_inception_4c/output_0_split_2
I0403 15:19:14.537578 31446 net.cpp:399] inception_4c/output_inception_4c/output_0_split -> inception_4c/output_inception_4c/output_0_split_3
I0403 15:19:14.537667 31446 net.cpp:141] Setting up inception_4c/output_inception_4c/output_0_split
I0403 15:19:14.537693 31446 net.cpp:148] Top shape: 24 512 14 14 (2408448)
I0403 15:19:14.537710 31446 net.cpp:148] Top shape: 24 512 14 14 (2408448)
I0403 15:19:14.537727 31446 net.cpp:148] Top shape: 24 512 14 14 (2408448)
I0403 15:19:14.537744 31446 net.cpp:148] Top shape: 24 512 14 14 (2408448)
I0403 15:19:14.537757 31446 net.cpp:156] Memory required for data: 1111182624
I0403 15:19:14.537773 31446 layer_factory.hpp:77] Creating layer inception_4d/1x1
I0403 15:19:14.537797 31446 net.cpp:91] Creating Layer inception_4d/1x1
I0403 15:19:14.537817 31446 net.cpp:425] inception_4d/1x1 <- inception_4c/output_inception_4c/output_0_split_0
I0403 15:19:14.537840 31446 net.cpp:399] inception_4d/1x1 -> inception_4d/1x1
I0403 15:19:14.539619 31446 net.cpp:141] Setting up inception_4d/1x1
I0403 15:19:14.539649 31446 net.cpp:148] Top shape: 24 112 14 14 (526848)
I0403 15:19:14.539667 31446 net.cpp:156] Memory required for data: 1113290016
I0403 15:19:14.539686 31446 layer_factory.hpp:77] Creating layer inception_4d/relu_1x1
I0403 15:19:14.539705 31446 net.cpp:91] Creating Layer inception_4d/relu_1x1
I0403 15:19:14.539722 31446 net.cpp:425] inception_4d/relu_1x1 <- inception_4d/1x1
I0403 15:19:14.539744 31446 net.cpp:386] inception_4d/relu_1x1 -> inception_4d/1x1 (in-place)
I0403 15:19:14.539937 31446 net.cpp:141] Setting up inception_4d/relu_1x1
I0403 15:19:14.539963 31446 net.cpp:148] Top shape: 24 112 14 14 (526848)
I0403 15:19:14.539979 31446 net.cpp:156] Memory required for data: 1115397408
I0403 15:19:14.539995 31446 layer_factory.hpp:77] Creating layer inception_4d/3x3_reduce
I0403 15:19:14.540035 31446 net.cpp:91] Creating Layer inception_4d/3x3_reduce
I0403 15:19:14.540055 31446 net.cpp:425] inception_4d/3x3_reduce <- inception_4c/output_inception_4c/output_0_split_1
I0403 15:19:14.540078 31446 net.cpp:399] inception_4d/3x3_reduce -> inception_4d/3x3_reduce
I0403 15:19:14.541643 31446 net.cpp:141] Setting up inception_4d/3x3_reduce
I0403 15:19:14.541674 31446 net.cpp:148] Top shape: 24 144 14 14 (677376)
I0403 15:19:14.541692 31446 net.cpp:156] Memory required for data: 1118106912
I0403 15:19:14.541712 31446 layer_factory.hpp:77] Creating layer inception_4d/relu_3x3_reduce
I0403 15:19:14.541731 31446 net.cpp:91] Creating Layer inception_4d/relu_3x3_reduce
I0403 15:19:14.541749 31446 net.cpp:425] inception_4d/relu_3x3_reduce <- inception_4d/3x3_reduce
I0403 15:19:14.541770 31446 net.cpp:386] inception_4d/relu_3x3_reduce -> inception_4d/3x3_reduce (in-place)
I0403 15:19:14.542067 31446 net.cpp:141] Setting up inception_4d/relu_3x3_reduce
I0403 15:19:14.542096 31446 net.cpp:148] Top shape: 24 144 14 14 (677376)
I0403 15:19:14.542114 31446 net.cpp:156] Memory required for data: 1120816416
I0403 15:19:14.542131 31446 layer_factory.hpp:77] Creating layer inception_4d/3x3
I0403 15:19:14.542156 31446 net.cpp:91] Creating Layer inception_4d/3x3
I0403 15:19:14.542176 31446 net.cpp:425] inception_4d/3x3 <- inception_4d/3x3_reduce
I0403 15:19:14.542196 31446 net.cpp:399] inception_4d/3x3 -> inception_4d/3x3
I0403 15:19:14.546622 31446 net.cpp:141] Setting up inception_4d/3x3
I0403 15:19:14.546653 31446 net.cpp:148] Top shape: 24 288 14 14 (1354752)
I0403 15:19:14.546670 31446 net.cpp:156] Memory required for data: 1126235424
I0403 15:19:14.546689 31446 layer_factory.hpp:77] Creating layer inception_4d/relu_3x3
I0403 15:19:14.546710 31446 net.cpp:91] Creating Layer inception_4d/relu_3x3
I0403 15:19:14.546728 31446 net.cpp:425] inception_4d/relu_3x3 <- inception_4d/3x3
I0403 15:19:14.546749 31446 net.cpp:386] inception_4d/relu_3x3 -> inception_4d/3x3 (in-place)
I0403 15:19:14.546941 31446 net.cpp:141] Setting up inception_4d/relu_3x3
I0403 15:19:14.546967 31446 net.cpp:148] Top shape: 24 288 14 14 (1354752)
I0403 15:19:14.546983 31446 net.cpp:156] Memory required for data: 1131654432
I0403 15:19:14.546998 31446 layer_factory.hpp:77] Creating layer inception_4d/5x5_reduce
I0403 15:19:14.547021 31446 net.cpp:91] Creating Layer inception_4d/5x5_reduce
I0403 15:19:14.547040 31446 net.cpp:425] inception_4d/5x5_reduce <- inception_4c/output_inception_4c/output_0_split_2
I0403 15:19:14.547063 31446 net.cpp:399] inception_4d/5x5_reduce -> inception_4d/5x5_reduce
I0403 15:19:14.548246 31446 net.cpp:141] Setting up inception_4d/5x5_reduce
I0403 15:19:14.548275 31446 net.cpp:148] Top shape: 24 32 14 14 (150528)
I0403 15:19:14.548297 31446 net.cpp:156] Memory required for data: 1132256544
I0403 15:19:14.548317 31446 layer_factory.hpp:77] Creating layer inception_4d/relu_5x5_reduce
I0403 15:19:14.548337 31446 net.cpp:91] Creating Layer inception_4d/relu_5x5_reduce
I0403 15:19:14.548355 31446 net.cpp:425] inception_4d/relu_5x5_reduce <- inception_4d/5x5_reduce
I0403 15:19:14.548375 31446 net.cpp:386] inception_4d/relu_5x5_reduce -> inception_4d/5x5_reduce (in-place)
I0403 15:19:14.548568 31446 net.cpp:141] Setting up inception_4d/relu_5x5_reduce
I0403 15:19:14.548593 31446 net.cpp:148] Top shape: 24 32 14 14 (150528)
I0403 15:19:14.548609 31446 net.cpp:156] Memory required for data: 1132858656
I0403 15:19:14.548625 31446 layer_factory.hpp:77] Creating layer inception_4d/5x5
I0403 15:19:14.548648 31446 net.cpp:91] Creating Layer inception_4d/5x5
I0403 15:19:14.548667 31446 net.cpp:425] inception_4d/5x5 <- inception_4d/5x5_reduce
I0403 15:19:14.548688 31446 net.cpp:399] inception_4d/5x5 -> inception_4d/5x5
I0403 15:19:14.550180 31446 net.cpp:141] Setting up inception_4d/5x5
I0403 15:19:14.550209 31446 net.cpp:148] Top shape: 24 64 14 14 (301056)
I0403 15:19:14.550225 31446 net.cpp:156] Memory required for data: 1134062880
I0403 15:19:14.550261 31446 layer_factory.hpp:77] Creating layer inception_4d/relu_5x5
I0403 15:19:14.550302 31446 net.cpp:91] Creating Layer inception_4d/relu_5x5
I0403 15:19:14.550321 31446 net.cpp:425] inception_4d/relu_5x5 <- inception_4d/5x5
I0403 15:19:14.550339 31446 net.cpp:386] inception_4d/relu_5x5 -> inception_4d/5x5 (in-place)
I0403 15:19:14.550662 31446 net.cpp:141] Setting up inception_4d/relu_5x5
I0403 15:19:14.550689 31446 net.cpp:148] Top shape: 24 64 14 14 (301056)
I0403 15:19:14.550705 31446 net.cpp:156] Memory required for data: 1135267104
I0403 15:19:14.550721 31446 layer_factory.hpp:77] Creating layer inception_4d/pool
I0403 15:19:14.550742 31446 net.cpp:91] Creating Layer inception_4d/pool
I0403 15:19:14.550760 31446 net.cpp:425] inception_4d/pool <- inception_4c/output_inception_4c/output_0_split_3
I0403 15:19:14.550779 31446 net.cpp:399] inception_4d/pool -> inception_4d/pool
I0403 15:19:14.550846 31446 net.cpp:141] Setting up inception_4d/pool
I0403 15:19:14.550871 31446 net.cpp:148] Top shape: 24 512 14 14 (2408448)
I0403 15:19:14.550887 31446 net.cpp:156] Memory required for data: 1144900896
I0403 15:19:14.550904 31446 layer_factory.hpp:77] Creating layer inception_4d/pool_proj
I0403 15:19:14.550925 31446 net.cpp:91] Creating Layer inception_4d/pool_proj
I0403 15:19:14.550943 31446 net.cpp:425] inception_4d/pool_proj <- inception_4d/pool
I0403 15:19:14.550964 31446 net.cpp:399] inception_4d/pool_proj -> inception_4d/pool_proj
I0403 15:19:14.552745 31446 net.cpp:141] Setting up inception_4d/pool_proj
I0403 15:19:14.552775 31446 net.cpp:148] Top shape: 24 64 14 14 (301056)
I0403 15:19:14.552796 31446 net.cpp:156] Memory required for data: 1146105120
I0403 15:19:14.552816 31446 layer_factory.hpp:77] Creating layer inception_4d/relu_pool_proj
I0403 15:19:14.552834 31446 net.cpp:91] Creating Layer inception_4d/relu_pool_proj
I0403 15:19:14.552855 31446 net.cpp:425] inception_4d/relu_pool_proj <- inception_4d/pool_proj
I0403 15:19:14.552873 31446 net.cpp:386] inception_4d/relu_pool_proj -> inception_4d/pool_proj (in-place)
I0403 15:19:14.553061 31446 net.cpp:141] Setting up inception_4d/relu_pool_proj
I0403 15:19:14.553086 31446 net.cpp:148] Top shape: 24 64 14 14 (301056)
I0403 15:19:14.553102 31446 net.cpp:156] Memory required for data: 1147309344
I0403 15:19:14.553115 31446 layer_factory.hpp:77] Creating layer inception_4d/output
I0403 15:19:14.553133 31446 net.cpp:91] Creating Layer inception_4d/output
I0403 15:19:14.553149 31446 net.cpp:425] inception_4d/output <- inception_4d/1x1
I0403 15:19:14.553169 31446 net.cpp:425] inception_4d/output <- inception_4d/3x3
I0403 15:19:14.553189 31446 net.cpp:425] inception_4d/output <- inception_4d/5x5
I0403 15:19:14.553215 31446 net.cpp:425] inception_4d/output <- inception_4d/pool_proj
I0403 15:19:14.553232 31446 net.cpp:399] inception_4d/output -> inception_4d/output
I0403 15:19:14.553282 31446 net.cpp:141] Setting up inception_4d/output
I0403 15:19:14.553310 31446 net.cpp:148] Top shape: 24 528 14 14 (2483712)
I0403 15:19:14.553326 31446 net.cpp:156] Memory required for data: 1157244192
I0403 15:19:14.553342 31446 layer_factory.hpp:77] Creating layer inception_4d/output_inception_4d/output_0_split
I0403 15:19:14.553360 31446 net.cpp:91] Creating Layer inception_4d/output_inception_4d/output_0_split
I0403 15:19:14.553375 31446 net.cpp:425] inception_4d/output_inception_4d/output_0_split <- inception_4d/output
I0403 15:19:14.553396 31446 net.cpp:399] inception_4d/output_inception_4d/output_0_split -> inception_4d/output_inception_4d/output_0_split_0
I0403 15:19:14.553419 31446 net.cpp:399] inception_4d/output_inception_4d/output_0_split -> inception_4d/output_inception_4d/output_0_split_1
I0403 15:19:14.553442 31446 net.cpp:399] inception_4d/output_inception_4d/output_0_split -> inception_4d/output_inception_4d/output_0_split_2
I0403 15:19:14.553463 31446 net.cpp:399] inception_4d/output_inception_4d/output_0_split -> inception_4d/output_inception_4d/output_0_split_3
I0403 15:19:14.553483 31446 net.cpp:399] inception_4d/output_inception_4d/output_0_split -> inception_4d/output_inception_4d/output_0_split_4
I0403 15:19:14.553588 31446 net.cpp:141] Setting up inception_4d/output_inception_4d/output_0_split
I0403 15:19:14.553624 31446 net.cpp:148] Top shape: 24 528 14 14 (2483712)
I0403 15:19:14.553643 31446 net.cpp:148] Top shape: 24 528 14 14 (2483712)
I0403 15:19:14.553659 31446 net.cpp:148] Top shape: 24 528 14 14 (2483712)
I0403 15:19:14.553676 31446 net.cpp:148] Top shape: 24 528 14 14 (2483712)
I0403 15:19:14.553694 31446 net.cpp:148] Top shape: 24 528 14 14 (2483712)
I0403 15:19:14.553707 31446 net.cpp:156] Memory required for data: 1206918432
I0403 15:19:14.553722 31446 layer_factory.hpp:77] Creating layer loss2/ave_pool
I0403 15:19:14.553741 31446 net.cpp:91] Creating Layer loss2/ave_pool
I0403 15:19:14.553757 31446 net.cpp:425] loss2/ave_pool <- inception_4d/output_inception_4d/output_0_split_0
I0403 15:19:14.553779 31446 net.cpp:399] loss2/ave_pool -> loss2/ave_pool
I0403 15:19:14.554096 31446 net.cpp:141] Setting up loss2/ave_pool
I0403 15:19:14.554123 31446 net.cpp:148] Top shape: 24 528 4 4 (202752)
I0403 15:19:14.554139 31446 net.cpp:156] Memory required for data: 1207729440
I0403 15:19:14.554154 31446 layer_factory.hpp:77] Creating layer loss2/conv
I0403 15:19:14.554177 31446 net.cpp:91] Creating Layer loss2/conv
I0403 15:19:14.554198 31446 net.cpp:425] loss2/conv <- loss2/ave_pool
I0403 15:19:14.554220 31446 net.cpp:399] loss2/conv -> loss2/conv
I0403 15:19:14.556252 31446 net.cpp:141] Setting up loss2/conv
I0403 15:19:14.556287 31446 net.cpp:148] Top shape: 24 128 4 4 (49152)
I0403 15:19:14.556306 31446 net.cpp:156] Memory required for data: 1207926048
I0403 15:19:14.556327 31446 layer_factory.hpp:77] Creating layer loss2/relu_conv
I0403 15:19:14.556349 31446 net.cpp:91] Creating Layer loss2/relu_conv
I0403 15:19:14.556370 31446 net.cpp:425] loss2/relu_conv <- loss2/conv
I0403 15:19:14.556399 31446 net.cpp:386] loss2/relu_conv -> loss2/conv (in-place)
I0403 15:19:14.556685 31446 net.cpp:141] Setting up loss2/relu_conv
I0403 15:19:14.556712 31446 net.cpp:148] Top shape: 24 128 4 4 (49152)
I0403 15:19:14.556728 31446 net.cpp:156] Memory required for data: 1208122656
I0403 15:19:14.556745 31446 layer_factory.hpp:77] Creating layer loss2/fc
I0403 15:19:14.556767 31446 net.cpp:91] Creating Layer loss2/fc
I0403 15:19:14.556787 31446 net.cpp:425] loss2/fc <- loss2/conv
I0403 15:19:14.556807 31446 net.cpp:399] loss2/fc -> loss2/fc
I0403 15:19:14.574759 31446 net.cpp:141] Setting up loss2/fc
I0403 15:19:14.574792 31446 net.cpp:148] Top shape: 24 1024 (24576)
I0403 15:19:14.574811 31446 net.cpp:156] Memory required for data: 1208220960
I0403 15:19:14.574832 31446 layer_factory.hpp:77] Creating layer loss2/relu_fc
I0403 15:19:14.574852 31446 net.cpp:91] Creating Layer loss2/relu_fc
I0403 15:19:14.574872 31446 net.cpp:425] loss2/relu_fc <- loss2/fc
I0403 15:19:14.574895 31446 net.cpp:386] loss2/relu_fc -> loss2/fc (in-place)
I0403 15:19:14.575204 31446 net.cpp:141] Setting up loss2/relu_fc
I0403 15:19:14.575232 31446 net.cpp:148] Top shape: 24 1024 (24576)
I0403 15:19:14.575248 31446 net.cpp:156] Memory required for data: 1208319264
I0403 15:19:14.575263 31446 layer_factory.hpp:77] Creating layer loss2/drop_fc
I0403 15:19:14.575283 31446 net.cpp:91] Creating Layer loss2/drop_fc
I0403 15:19:14.575305 31446 net.cpp:425] loss2/drop_fc <- loss2/fc
I0403 15:19:14.575326 31446 net.cpp:386] loss2/drop_fc -> loss2/fc (in-place)
I0403 15:19:14.575383 31446 net.cpp:141] Setting up loss2/drop_fc
I0403 15:19:14.575409 31446 net.cpp:148] Top shape: 24 1024 (24576)
I0403 15:19:14.575425 31446 net.cpp:156] Memory required for data: 1208417568
I0403 15:19:14.575441 31446 layer_factory.hpp:77] Creating layer loss2/classifier_plantvillage
I0403 15:19:14.575460 31446 net.cpp:91] Creating Layer loss2/classifier_plantvillage
I0403 15:19:14.575477 31446 net.cpp:425] loss2/classifier_plantvillage <- loss2/fc
I0403 15:19:14.575500 31446 net.cpp:399] loss2/classifier_plantvillage -> loss2/classifier_plantvillage
I0403 15:19:14.575903 31446 net.cpp:141] Setting up loss2/classifier_plantvillage
I0403 15:19:14.575929 31446 net.cpp:148] Top shape: 24 38 (912)
I0403 15:19:14.575945 31446 net.cpp:156] Memory required for data: 1208421216
I0403 15:19:14.575983 31446 layer_factory.hpp:77] Creating layer loss2/classifier_plantvillage_loss2/classifier_plantvillage_0_split
I0403 15:19:14.576005 31446 net.cpp:91] Creating Layer loss2/classifier_plantvillage_loss2/classifier_plantvillage_0_split
I0403 15:19:14.576023 31446 net.cpp:425] loss2/classifier_plantvillage_loss2/classifier_plantvillage_0_split <- loss2/classifier_plantvillage
I0403 15:19:14.576041 31446 net.cpp:399] loss2/classifier_plantvillage_loss2/classifier_plantvillage_0_split -> loss2/classifier_plantvillage_loss2/classifier_plantvillage_0_split_0
I0403 15:19:14.576063 31446 net.cpp:399] loss2/classifier_plantvillage_loss2/classifier_plantvillage_0_split -> loss2/classifier_plantvillage_loss2/classifier_plantvillage_0_split_1
I0403 15:19:14.576086 31446 net.cpp:399] loss2/classifier_plantvillage_loss2/classifier_plantvillage_0_split -> loss2/classifier_plantvillage_loss2/classifier_plantvillage_0_split_2
I0403 15:19:14.576164 31446 net.cpp:141] Setting up loss2/classifier_plantvillage_loss2/classifier_plantvillage_0_split
I0403 15:19:14.576189 31446 net.cpp:148] Top shape: 24 38 (912)
I0403 15:19:14.576205 31446 net.cpp:148] Top shape: 24 38 (912)
I0403 15:19:14.576220 31446 net.cpp:148] Top shape: 24 38 (912)
I0403 15:19:14.576234 31446 net.cpp:156] Memory required for data: 1208432160
I0403 15:19:14.576249 31446 layer_factory.hpp:77] Creating layer inception_4e/1x1
I0403 15:19:14.576273 31446 net.cpp:91] Creating Layer inception_4e/1x1
I0403 15:19:14.576297 31446 net.cpp:425] inception_4e/1x1 <- inception_4d/output_inception_4d/output_0_split_1
I0403 15:19:14.576318 31446 net.cpp:399] inception_4e/1x1 -> inception_4e/1x1
I0403 15:19:14.578136 31446 net.cpp:141] Setting up inception_4e/1x1
I0403 15:19:14.578167 31446 net.cpp:148] Top shape: 24 256 14 14 (1204224)
I0403 15:19:14.578186 31446 net.cpp:156] Memory required for data: 1213249056
I0403 15:19:14.578204 31446 layer_factory.hpp:77] Creating layer inception_4e/relu_1x1
I0403 15:19:14.578223 31446 net.cpp:91] Creating Layer inception_4e/relu_1x1
I0403 15:19:14.578241 31446 net.cpp:425] inception_4e/relu_1x1 <- inception_4e/1x1
I0403 15:19:14.578258 31446 net.cpp:386] inception_4e/relu_1x1 -> inception_4e/1x1 (in-place)
I0403 15:19:14.578560 31446 net.cpp:141] Setting up inception_4e/relu_1x1
I0403 15:19:14.578590 31446 net.cpp:148] Top shape: 24 256 14 14 (1204224)
I0403 15:19:14.578608 31446 net.cpp:156] Memory required for data: 1218065952
I0403 15:19:14.578624 31446 layer_factory.hpp:77] Creating layer inception_4e/3x3_reduce
I0403 15:19:14.578644 31446 net.cpp:91] Creating Layer inception_4e/3x3_reduce
I0403 15:19:14.578661 31446 net.cpp:425] inception_4e/3x3_reduce <- inception_4d/output_inception_4d/output_0_split_2
I0403 15:19:14.578682 31446 net.cpp:399] inception_4e/3x3_reduce -> inception_4e/3x3_reduce
I0403 15:19:14.580865 31446 net.cpp:141] Setting up inception_4e/3x3_reduce
I0403 15:19:14.580896 31446 net.cpp:148] Top shape: 24 160 14 14 (752640)
I0403 15:19:14.580914 31446 net.cpp:156] Memory required for data: 1221076512
I0403 15:19:14.580934 31446 layer_factory.hpp:77] Creating layer inception_4e/relu_3x3_reduce
I0403 15:19:14.580955 31446 net.cpp:91] Creating Layer inception_4e/relu_3x3_reduce
I0403 15:19:14.580973 31446 net.cpp:425] inception_4e/relu_3x3_reduce <- inception_4e/3x3_reduce
I0403 15:19:14.580991 31446 net.cpp:386] inception_4e/relu_3x3_reduce -> inception_4e/3x3_reduce (in-place)
I0403 15:19:14.581177 31446 net.cpp:141] Setting up inception_4e/relu_3x3_reduce
I0403 15:19:14.581205 31446 net.cpp:148] Top shape: 24 160 14 14 (752640)
I0403 15:19:14.581223 31446 net.cpp:156] Memory required for data: 1224087072
I0403 15:19:14.581239 31446 layer_factory.hpp:77] Creating layer inception_4e/3x3
I0403 15:19:14.581261 31446 net.cpp:91] Creating Layer inception_4e/3x3
I0403 15:19:14.581279 31446 net.cpp:425] inception_4e/3x3 <- inception_4e/3x3_reduce
I0403 15:19:14.581305 31446 net.cpp:399] inception_4e/3x3 -> inception_4e/3x3
I0403 15:19:14.586321 31446 net.cpp:141] Setting up inception_4e/3x3
I0403 15:19:14.586366 31446 net.cpp:148] Top shape: 24 320 14 14 (1505280)
I0403 15:19:14.586385 31446 net.cpp:156] Memory required for data: 1230108192
I0403 15:19:14.586403 31446 layer_factory.hpp:77] Creating layer inception_4e/relu_3x3
I0403 15:19:14.586421 31446 net.cpp:91] Creating Layer inception_4e/relu_3x3
I0403 15:19:14.586439 31446 net.cpp:425] inception_4e/relu_3x3 <- inception_4e/3x3
I0403 15:19:14.586457 31446 net.cpp:386] inception_4e/relu_3x3 -> inception_4e/3x3 (in-place)
I0403 15:19:14.586761 31446 net.cpp:141] Setting up inception_4e/relu_3x3
I0403 15:19:14.586787 31446 net.cpp:148] Top shape: 24 320 14 14 (1505280)
I0403 15:19:14.586803 31446 net.cpp:156] Memory required for data: 1236129312
I0403 15:19:14.586820 31446 layer_factory.hpp:77] Creating layer inception_4e/5x5_reduce
I0403 15:19:14.586844 31446 net.cpp:91] Creating Layer inception_4e/5x5_reduce
I0403 15:19:14.586864 31446 net.cpp:425] inception_4e/5x5_reduce <- inception_4d/output_inception_4d/output_0_split_3
I0403 15:19:14.586886 31446 net.cpp:399] inception_4e/5x5_reduce -> inception_4e/5x5_reduce
I0403 15:19:14.587962 31446 net.cpp:141] Setting up inception_4e/5x5_reduce
I0403 15:19:14.587991 31446 net.cpp:148] Top shape: 24 32 14 14 (150528)
I0403 15:19:14.588007 31446 net.cpp:156] Memory required for data: 1236731424
I0403 15:19:14.588027 31446 layer_factory.hpp:77] Creating layer inception_4e/relu_5x5_reduce
I0403 15:19:14.588048 31446 net.cpp:91] Creating Layer inception_4e/relu_5x5_reduce
I0403 15:19:14.588068 31446 net.cpp:425] inception_4e/relu_5x5_reduce <- inception_4e/5x5_reduce
I0403 15:19:14.588086 31446 net.cpp:386] inception_4e/relu_5x5_reduce -> inception_4e/5x5_reduce (in-place)
I0403 15:19:14.588395 31446 net.cpp:141] Setting up inception_4e/relu_5x5_reduce
I0403 15:19:14.588421 31446 net.cpp:148] Top shape: 24 32 14 14 (150528)
I0403 15:19:14.588438 31446 net.cpp:156] Memory required for data: 1237333536
I0403 15:19:14.588454 31446 layer_factory.hpp:77] Creating layer inception_4e/5x5
I0403 15:19:14.588493 31446 net.cpp:91] Creating Layer inception_4e/5x5
I0403 15:19:14.588513 31446 net.cpp:425] inception_4e/5x5 <- inception_4e/5x5_reduce
I0403 15:19:14.588536 31446 net.cpp:399] inception_4e/5x5 -> inception_4e/5x5
I0403 15:19:14.590396 31446 net.cpp:141] Setting up inception_4e/5x5
I0403 15:19:14.590425 31446 net.cpp:148] Top shape: 24 128 14 14 (602112)
I0403 15:19:14.590442 31446 net.cpp:156] Memory required for data: 1239741984
I0403 15:19:14.590462 31446 layer_factory.hpp:77] Creating layer inception_4e/relu_5x5
I0403 15:19:14.590483 31446 net.cpp:91] Creating Layer inception_4e/relu_5x5
I0403 15:19:14.590502 31446 net.cpp:425] inception_4e/relu_5x5 <- inception_4e/5x5
I0403 15:19:14.590520 31446 net.cpp:386] inception_4e/relu_5x5 -> inception_4e/5x5 (in-place)
I0403 15:19:14.590716 31446 net.cpp:141] Setting up inception_4e/relu_5x5
I0403 15:19:14.590742 31446 net.cpp:148] Top shape: 24 128 14 14 (602112)
I0403 15:19:14.590759 31446 net.cpp:156] Memory required for data: 1242150432
I0403 15:19:14.590775 31446 layer_factory.hpp:77] Creating layer inception_4e/pool
I0403 15:19:14.590803 31446 net.cpp:91] Creating Layer inception_4e/pool
I0403 15:19:14.590823 31446 net.cpp:425] inception_4e/pool <- inception_4d/output_inception_4d/output_0_split_4
I0403 15:19:14.590842 31446 net.cpp:399] inception_4e/pool -> inception_4e/pool
I0403 15:19:14.590914 31446 net.cpp:141] Setting up inception_4e/pool
I0403 15:19:14.590946 31446 net.cpp:148] Top shape: 24 528 14 14 (2483712)
I0403 15:19:14.590961 31446 net.cpp:156] Memory required for data: 1252085280
I0403 15:19:14.590976 31446 layer_factory.hpp:77] Creating layer inception_4e/pool_proj
I0403 15:19:14.590999 31446 net.cpp:91] Creating Layer inception_4e/pool_proj
I0403 15:19:14.591020 31446 net.cpp:425] inception_4e/pool_proj <- inception_4e/pool
I0403 15:19:14.591050 31446 net.cpp:399] inception_4e/pool_proj -> inception_4e/pool_proj
I0403 15:19:14.592603 31446 net.cpp:141] Setting up inception_4e/pool_proj
I0403 15:19:14.592633 31446 net.cpp:148] Top shape: 24 128 14 14 (602112)
I0403 15:19:14.592665 31446 net.cpp:156] Memory required for data: 1254493728
I0403 15:19:14.592689 31446 layer_factory.hpp:77] Creating layer inception_4e/relu_pool_proj
I0403 15:19:14.592711 31446 net.cpp:91] Creating Layer inception_4e/relu_pool_proj
I0403 15:19:14.592730 31446 net.cpp:425] inception_4e/relu_pool_proj <- inception_4e/pool_proj
I0403 15:19:14.592748 31446 net.cpp:386] inception_4e/relu_pool_proj -> inception_4e/pool_proj (in-place)
I0403 15:19:14.593050 31446 net.cpp:141] Setting up inception_4e/relu_pool_proj
I0403 15:19:14.593086 31446 net.cpp:148] Top shape: 24 128 14 14 (602112)
I0403 15:19:14.593101 31446 net.cpp:156] Memory required for data: 1256902176
I0403 15:19:14.593118 31446 layer_factory.hpp:77] Creating layer inception_4e/output
I0403 15:19:14.593138 31446 net.cpp:91] Creating Layer inception_4e/output
I0403 15:19:14.593158 31446 net.cpp:425] inception_4e/output <- inception_4e/1x1
I0403 15:19:14.593178 31446 net.cpp:425] inception_4e/output <- inception_4e/3x3
I0403 15:19:14.593197 31446 net.cpp:425] inception_4e/output <- inception_4e/5x5
I0403 15:19:14.593217 31446 net.cpp:425] inception_4e/output <- inception_4e/pool_proj
I0403 15:19:14.593240 31446 net.cpp:399] inception_4e/output -> inception_4e/output
I0403 15:19:14.593297 31446 net.cpp:141] Setting up inception_4e/output
I0403 15:19:14.593324 31446 net.cpp:148] Top shape: 24 832 14 14 (3913728)
I0403 15:19:14.593343 31446 net.cpp:156] Memory required for data: 1272557088
I0403 15:19:14.593358 31446 layer_factory.hpp:77] Creating layer pool4/3x3_s2
I0403 15:19:14.593376 31446 net.cpp:91] Creating Layer pool4/3x3_s2
I0403 15:19:14.593394 31446 net.cpp:425] pool4/3x3_s2 <- inception_4e/output
I0403 15:19:14.593417 31446 net.cpp:399] pool4/3x3_s2 -> pool4/3x3_s2
I0403 15:19:14.593487 31446 net.cpp:141] Setting up pool4/3x3_s2
I0403 15:19:14.593511 31446 net.cpp:148] Top shape: 24 832 7 7 (978432)
I0403 15:19:14.593526 31446 net.cpp:156] Memory required for data: 1276470816
I0403 15:19:14.593544 31446 layer_factory.hpp:77] Creating layer pool4/3x3_s2_pool4/3x3_s2_0_split
I0403 15:19:14.593564 31446 net.cpp:91] Creating Layer pool4/3x3_s2_pool4/3x3_s2_0_split
I0403 15:19:14.593583 31446 net.cpp:425] pool4/3x3_s2_pool4/3x3_s2_0_split <- pool4/3x3_s2
I0403 15:19:14.593601 31446 net.cpp:399] pool4/3x3_s2_pool4/3x3_s2_0_split -> pool4/3x3_s2_pool4/3x3_s2_0_split_0
I0403 15:19:14.593622 31446 net.cpp:399] pool4/3x3_s2_pool4/3x3_s2_0_split -> pool4/3x3_s2_pool4/3x3_s2_0_split_1
I0403 15:19:14.593644 31446 net.cpp:399] pool4/3x3_s2_pool4/3x3_s2_0_split -> pool4/3x3_s2_pool4/3x3_s2_0_split_2
I0403 15:19:14.593667 31446 net.cpp:399] pool4/3x3_s2_pool4/3x3_s2_0_split -> pool4/3x3_s2_pool4/3x3_s2_0_split_3
I0403 15:19:14.593763 31446 net.cpp:141] Setting up pool4/3x3_s2_pool4/3x3_s2_0_split
I0403 15:19:14.593787 31446 net.cpp:148] Top shape: 24 832 7 7 (978432)
I0403 15:19:14.593806 31446 net.cpp:148] Top shape: 24 832 7 7 (978432)
I0403 15:19:14.593822 31446 net.cpp:148] Top shape: 24 832 7 7 (978432)
I0403 15:19:14.593839 31446 net.cpp:148] Top shape: 24 832 7 7 (978432)
I0403 15:19:14.593854 31446 net.cpp:156] Memory required for data: 1292125728
I0403 15:19:14.593870 31446 layer_factory.hpp:77] Creating layer inception_5a/1x1
I0403 15:19:14.593894 31446 net.cpp:91] Creating Layer inception_5a/1x1
I0403 15:19:14.593911 31446 net.cpp:425] inception_5a/1x1 <- pool4/3x3_s2_pool4/3x3_s2_0_split_0
I0403 15:19:14.593933 31446 net.cpp:399] inception_5a/1x1 -> inception_5a/1x1
I0403 15:19:14.596894 31446 net.cpp:141] Setting up inception_5a/1x1
I0403 15:19:14.596926 31446 net.cpp:148] Top shape: 24 256 7 7 (301056)
I0403 15:19:14.596943 31446 net.cpp:156] Memory required for data: 1293329952
I0403 15:19:14.596963 31446 layer_factory.hpp:77] Creating layer inception_5a/relu_1x1
I0403 15:19:14.596987 31446 net.cpp:91] Creating Layer inception_5a/relu_1x1
I0403 15:19:14.597004 31446 net.cpp:425] inception_5a/relu_1x1 <- inception_5a/1x1
I0403 15:19:14.597024 31446 net.cpp:386] inception_5a/relu_1x1 -> inception_5a/1x1 (in-place)
I0403 15:19:14.597352 31446 net.cpp:141] Setting up inception_5a/relu_1x1
I0403 15:19:14.597380 31446 net.cpp:148] Top shape: 24 256 7 7 (301056)
I0403 15:19:14.597398 31446 net.cpp:156] Memory required for data: 1294534176
I0403 15:19:14.597414 31446 layer_factory.hpp:77] Creating layer inception_5a/3x3_reduce
I0403 15:19:14.597440 31446 net.cpp:91] Creating Layer inception_5a/3x3_reduce
I0403 15:19:14.597460 31446 net.cpp:425] inception_5a/3x3_reduce <- pool4/3x3_s2_pool4/3x3_s2_0_split_1
I0403 15:19:14.597484 31446 net.cpp:399] inception_5a/3x3_reduce -> inception_5a/3x3_reduce
I0403 15:19:14.600054 31446 net.cpp:141] Setting up inception_5a/3x3_reduce
I0403 15:19:14.600086 31446 net.cpp:148] Top shape: 24 160 7 7 (188160)
I0403 15:19:14.600106 31446 net.cpp:156] Memory required for data: 1295286816
I0403 15:19:14.600124 31446 layer_factory.hpp:77] Creating layer inception_5a/relu_3x3_reduce
I0403 15:19:14.600144 31446 net.cpp:91] Creating Layer inception_5a/relu_3x3_reduce
I0403 15:19:14.600162 31446 net.cpp:425] inception_5a/relu_3x3_reduce <- inception_5a/3x3_reduce
I0403 15:19:14.600184 31446 net.cpp:386] inception_5a/relu_3x3_reduce -> inception_5a/3x3_reduce (in-place)
I0403 15:19:14.600388 31446 net.cpp:141] Setting up inception_5a/relu_3x3_reduce
I0403 15:19:14.600414 31446 net.cpp:148] Top shape: 24 160 7 7 (188160)
I0403 15:19:14.600430 31446 net.cpp:156] Memory required for data: 1296039456
I0403 15:19:14.600445 31446 layer_factory.hpp:77] Creating layer inception_5a/3x3
I0403 15:19:14.600469 31446 net.cpp:91] Creating Layer inception_5a/3x3
I0403 15:19:14.600489 31446 net.cpp:425] inception_5a/3x3 <- inception_5a/3x3_reduce
I0403 15:19:14.600512 31446 net.cpp:399] inception_5a/3x3 -> inception_5a/3x3
I0403 15:19:14.605756 31446 net.cpp:141] Setting up inception_5a/3x3
I0403 15:19:14.605788 31446 net.cpp:148] Top shape: 24 320 7 7 (376320)
I0403 15:19:14.605805 31446 net.cpp:156] Memory required for data: 1297544736
I0403 15:19:14.605826 31446 layer_factory.hpp:77] Creating layer inception_5a/relu_3x3
I0403 15:19:14.605850 31446 net.cpp:91] Creating Layer inception_5a/relu_3x3
I0403 15:19:14.605871 31446 net.cpp:425] inception_5a/relu_3x3 <- inception_5a/3x3
I0403 15:19:14.605893 31446 net.cpp:386] inception_5a/relu_3x3 -> inception_5a/3x3 (in-place)
I0403 15:19:14.606200 31446 net.cpp:141] Setting up inception_5a/relu_3x3
I0403 15:19:14.606231 31446 net.cpp:148] Top shape: 24 320 7 7 (376320)
I0403 15:19:14.606248 31446 net.cpp:156] Memory required for data: 1299050016
I0403 15:19:14.606266 31446 layer_factory.hpp:77] Creating layer inception_5a/5x5_reduce
I0403 15:19:14.606293 31446 net.cpp:91] Creating Layer inception_5a/5x5_reduce
I0403 15:19:14.606314 31446 net.cpp:425] inception_5a/5x5_reduce <- pool4/3x3_s2_pool4/3x3_s2_0_split_2
I0403 15:19:14.606338 31446 net.cpp:399] inception_5a/5x5_reduce -> inception_5a/5x5_reduce
I0403 15:19:14.607552 31446 net.cpp:141] Setting up inception_5a/5x5_reduce
I0403 15:19:14.607583 31446 net.cpp:148] Top shape: 24 32 7 7 (37632)
I0403 15:19:14.607600 31446 net.cpp:156] Memory required for data: 1299200544
I0403 15:19:14.607621 31446 layer_factory.hpp:77] Creating layer inception_5a/relu_5x5_reduce
I0403 15:19:14.607642 31446 net.cpp:91] Creating Layer inception_5a/relu_5x5_reduce
I0403 15:19:14.607666 31446 net.cpp:425] inception_5a/relu_5x5_reduce <- inception_5a/5x5_reduce
I0403 15:19:14.607686 31446 net.cpp:386] inception_5a/relu_5x5_reduce -> inception_5a/5x5_reduce (in-place)
I0403 15:19:14.607998 31446 net.cpp:141] Setting up inception_5a/relu_5x5_reduce
I0403 15:19:14.608026 31446 net.cpp:148] Top shape: 24 32 7 7 (37632)
I0403 15:19:14.608042 31446 net.cpp:156] Memory required for data: 1299351072
I0403 15:19:14.608059 31446 layer_factory.hpp:77] Creating layer inception_5a/5x5
I0403 15:19:14.608083 31446 net.cpp:91] Creating Layer inception_5a/5x5
I0403 15:19:14.608103 31446 net.cpp:425] inception_5a/5x5 <- inception_5a/5x5_reduce
I0403 15:19:14.608124 31446 net.cpp:399] inception_5a/5x5 -> inception_5a/5x5
I0403 15:19:14.609910 31446 net.cpp:141] Setting up inception_5a/5x5
I0403 15:19:14.609951 31446 net.cpp:148] Top shape: 24 128 7 7 (150528)
I0403 15:19:14.609969 31446 net.cpp:156] Memory required for data: 1299953184
I0403 15:19:14.609989 31446 layer_factory.hpp:77] Creating layer inception_5a/relu_5x5
I0403 15:19:14.610011 31446 net.cpp:91] Creating Layer inception_5a/relu_5x5
I0403 15:19:14.610028 31446 net.cpp:425] inception_5a/relu_5x5 <- inception_5a/5x5
I0403 15:19:14.610047 31446 net.cpp:386] inception_5a/relu_5x5 -> inception_5a/5x5 (in-place)
I0403 15:19:14.610244 31446 net.cpp:141] Setting up inception_5a/relu_5x5
I0403 15:19:14.610270 31446 net.cpp:148] Top shape: 24 128 7 7 (150528)
I0403 15:19:14.610291 31446 net.cpp:156] Memory required for data: 1300555296
I0403 15:19:14.610309 31446 layer_factory.hpp:77] Creating layer inception_5a/pool
I0403 15:19:14.610332 31446 net.cpp:91] Creating Layer inception_5a/pool
I0403 15:19:14.610349 31446 net.cpp:425] inception_5a/pool <- pool4/3x3_s2_pool4/3x3_s2_0_split_3
I0403 15:19:14.610368 31446 net.cpp:399] inception_5a/pool -> inception_5a/pool
I0403 15:19:14.610442 31446 net.cpp:141] Setting up inception_5a/pool
I0403 15:19:14.610467 31446 net.cpp:148] Top shape: 24 832 7 7 (978432)
I0403 15:19:14.610483 31446 net.cpp:156] Memory required for data: 1304469024
I0403 15:19:14.610499 31446 layer_factory.hpp:77] Creating layer inception_5a/pool_proj
I0403 15:19:14.610522 31446 net.cpp:91] Creating Layer inception_5a/pool_proj
I0403 15:19:14.610540 31446 net.cpp:425] inception_5a/pool_proj <- inception_5a/pool
I0403 15:19:14.610563 31446 net.cpp:399] inception_5a/pool_proj -> inception_5a/pool_proj
I0403 15:19:14.612921 31446 net.cpp:141] Setting up inception_5a/pool_proj
I0403 15:19:14.612952 31446 net.cpp:148] Top shape: 24 128 7 7 (150528)
I0403 15:19:14.612969 31446 net.cpp:156] Memory required for data: 1305071136
I0403 15:19:14.612990 31446 layer_factory.hpp:77] Creating layer inception_5a/relu_pool_proj
I0403 15:19:14.613010 31446 net.cpp:91] Creating Layer inception_5a/relu_pool_proj
I0403 15:19:14.613029 31446 net.cpp:425] inception_5a/relu_pool_proj <- inception_5a/pool_proj
I0403 15:19:14.613049 31446 net.cpp:386] inception_5a/relu_pool_proj -> inception_5a/pool_proj (in-place)
I0403 15:19:14.613384 31446 net.cpp:141] Setting up inception_5a/relu_pool_proj
I0403 15:19:14.613414 31446 net.cpp:148] Top shape: 24 128 7 7 (150528)
I0403 15:19:14.613431 31446 net.cpp:156] Memory required for data: 1305673248
I0403 15:19:14.613447 31446 layer_factory.hpp:77] Creating layer inception_5a/output
I0403 15:19:14.613466 31446 net.cpp:91] Creating Layer inception_5a/output
I0403 15:19:14.613483 31446 net.cpp:425] inception_5a/output <- inception_5a/1x1
I0403 15:19:14.613502 31446 net.cpp:425] inception_5a/output <- inception_5a/3x3
I0403 15:19:14.613519 31446 net.cpp:425] inception_5a/output <- inception_5a/5x5
I0403 15:19:14.613538 31446 net.cpp:425] inception_5a/output <- inception_5a/pool_proj
I0403 15:19:14.613571 31446 net.cpp:399] inception_5a/output -> inception_5a/output
I0403 15:19:14.613643 31446 net.cpp:141] Setting up inception_5a/output
I0403 15:19:14.613672 31446 net.cpp:148] Top shape: 24 832 7 7 (978432)
I0403 15:19:14.613690 31446 net.cpp:156] Memory required for data: 1309586976
I0403 15:19:14.613706 31446 layer_factory.hpp:77] Creating layer inception_5a/output_inception_5a/output_0_split
I0403 15:19:14.613725 31446 net.cpp:91] Creating Layer inception_5a/output_inception_5a/output_0_split
I0403 15:19:14.613744 31446 net.cpp:425] inception_5a/output_inception_5a/output_0_split <- inception_5a/output
I0403 15:19:14.613764 31446 net.cpp:399] inception_5a/output_inception_5a/output_0_split -> inception_5a/output_inception_5a/output_0_split_0
I0403 15:19:14.613790 31446 net.cpp:399] inception_5a/output_inception_5a/output_0_split -> inception_5a/output_inception_5a/output_0_split_1
I0403 15:19:14.613813 31446 net.cpp:399] inception_5a/output_inception_5a/output_0_split -> inception_5a/output_inception_5a/output_0_split_2
I0403 15:19:14.613836 31446 net.cpp:399] inception_5a/output_inception_5a/output_0_split -> inception_5a/output_inception_5a/output_0_split_3
I0403 15:19:14.613984 31446 net.cpp:141] Setting up inception_5a/output_inception_5a/output_0_split
I0403 15:19:14.614012 31446 net.cpp:148] Top shape: 24 832 7 7 (978432)
I0403 15:19:14.614029 31446 net.cpp:148] Top shape: 24 832 7 7 (978432)
I0403 15:19:14.614048 31446 net.cpp:148] Top shape: 24 832 7 7 (978432)
I0403 15:19:14.614065 31446 net.cpp:148] Top shape: 24 832 7 7 (978432)
I0403 15:19:14.614080 31446 net.cpp:156] Memory required for data: 1325241888
I0403 15:19:14.614096 31446 layer_factory.hpp:77] Creating layer inception_5b/1x1
I0403 15:19:14.614120 31446 net.cpp:91] Creating Layer inception_5b/1x1
I0403 15:19:14.614146 31446 net.cpp:425] inception_5b/1x1 <- inception_5a/output_inception_5a/output_0_split_0
I0403 15:19:14.614168 31446 net.cpp:399] inception_5b/1x1 -> inception_5b/1x1
I0403 15:19:14.618051 31446 net.cpp:141] Setting up inception_5b/1x1
I0403 15:19:14.618084 31446 net.cpp:148] Top shape: 24 384 7 7 (451584)
I0403 15:19:14.618103 31446 net.cpp:156] Memory required for data: 1327048224
I0403 15:19:14.618121 31446 layer_factory.hpp:77] Creating layer inception_5b/relu_1x1
I0403 15:19:14.618140 31446 net.cpp:91] Creating Layer inception_5b/relu_1x1
I0403 15:19:14.618157 31446 net.cpp:425] inception_5b/relu_1x1 <- inception_5b/1x1
I0403 15:19:14.618178 31446 net.cpp:386] inception_5b/relu_1x1 -> inception_5b/1x1 (in-place)
I0403 15:19:14.618494 31446 net.cpp:141] Setting up inception_5b/relu_1x1
I0403 15:19:14.618523 31446 net.cpp:148] Top shape: 24 384 7 7 (451584)
I0403 15:19:14.618541 31446 net.cpp:156] Memory required for data: 1328854560
I0403 15:19:14.618558 31446 layer_factory.hpp:77] Creating layer inception_5b/3x3_reduce
I0403 15:19:14.618582 31446 net.cpp:91] Creating Layer inception_5b/3x3_reduce
I0403 15:19:14.618602 31446 net.cpp:425] inception_5b/3x3_reduce <- inception_5a/output_inception_5a/output_0_split_1
I0403 15:19:14.618621 31446 net.cpp:399] inception_5b/3x3_reduce -> inception_5b/3x3_reduce
I0403 15:19:14.621311 31446 net.cpp:141] Setting up inception_5b/3x3_reduce
I0403 15:19:14.621342 31446 net.cpp:148] Top shape: 24 192 7 7 (225792)
I0403 15:19:14.621359 31446 net.cpp:156] Memory required for data: 1329757728
I0403 15:19:14.621379 31446 layer_factory.hpp:77] Creating layer inception_5b/relu_3x3_reduce
I0403 15:19:14.621398 31446 net.cpp:91] Creating Layer inception_5b/relu_3x3_reduce
I0403 15:19:14.621414 31446 net.cpp:425] inception_5b/relu_3x3_reduce <- inception_5b/3x3_reduce
I0403 15:19:14.621434 31446 net.cpp:386] inception_5b/relu_3x3_reduce -> inception_5b/3x3_reduce (in-place)
I0403 15:19:14.621628 31446 net.cpp:141] Setting up inception_5b/relu_3x3_reduce
I0403 15:19:14.621654 31446 net.cpp:148] Top shape: 24 192 7 7 (225792)
I0403 15:19:14.621670 31446 net.cpp:156] Memory required for data: 1330660896
I0403 15:19:14.621685 31446 layer_factory.hpp:77] Creating layer inception_5b/3x3
I0403 15:19:14.621707 31446 net.cpp:91] Creating Layer inception_5b/3x3
I0403 15:19:14.621726 31446 net.cpp:425] inception_5b/3x3 <- inception_5b/3x3_reduce
I0403 15:19:14.621748 31446 net.cpp:399] inception_5b/3x3 -> inception_5b/3x3
I0403 15:19:14.628499 31446 net.cpp:141] Setting up inception_5b/3x3
I0403 15:19:14.628528 31446 net.cpp:148] Top shape: 24 384 7 7 (451584)
I0403 15:19:14.628545 31446 net.cpp:156] Memory required for data: 1332467232
I0403 15:19:14.628564 31446 layer_factory.hpp:77] Creating layer inception_5b/relu_3x3
I0403 15:19:14.628587 31446 net.cpp:91] Creating Layer inception_5b/relu_3x3
I0403 15:19:14.628602 31446 net.cpp:425] inception_5b/relu_3x3 <- inception_5b/3x3
I0403 15:19:14.628623 31446 net.cpp:386] inception_5b/relu_3x3 -> inception_5b/3x3 (in-place)
I0403 15:19:14.628926 31446 net.cpp:141] Setting up inception_5b/relu_3x3
I0403 15:19:14.628954 31446 net.cpp:148] Top shape: 24 384 7 7 (451584)
I0403 15:19:14.628970 31446 net.cpp:156] Memory required for data: 1334273568
I0403 15:19:14.628986 31446 layer_factory.hpp:77] Creating layer inception_5b/5x5_reduce
I0403 15:19:14.629026 31446 net.cpp:91] Creating Layer inception_5b/5x5_reduce
I0403 15:19:14.629047 31446 net.cpp:425] inception_5b/5x5_reduce <- inception_5a/output_inception_5a/output_0_split_2
I0403 15:19:14.629071 31446 net.cpp:399] inception_5b/5x5_reduce -> inception_5b/5x5_reduce
I0403 15:19:14.630360 31446 net.cpp:141] Setting up inception_5b/5x5_reduce
I0403 15:19:14.630388 31446 net.cpp:148] Top shape: 24 48 7 7 (56448)
I0403 15:19:14.630406 31446 net.cpp:156] Memory required for data: 1334499360
I0403 15:19:14.630429 31446 layer_factory.hpp:77] Creating layer inception_5b/relu_5x5_reduce
I0403 15:19:14.630450 31446 net.cpp:91] Creating Layer inception_5b/relu_5x5_reduce
I0403 15:19:14.630468 31446 net.cpp:425] inception_5b/relu_5x5_reduce <- inception_5b/5x5_reduce
I0403 15:19:14.630489 31446 net.cpp:386] inception_5b/relu_5x5_reduce -> inception_5b/5x5_reduce (in-place)
I0403 15:19:14.630863 31446 net.cpp:141] Setting up inception_5b/relu_5x5_reduce
I0403 15:19:14.630892 31446 net.cpp:148] Top shape: 24 48 7 7 (56448)
I0403 15:19:14.630908 31446 net.cpp:156] Memory required for data: 1334725152
I0403 15:19:14.630924 31446 layer_factory.hpp:77] Creating layer inception_5b/5x5
I0403 15:19:14.630944 31446 net.cpp:91] Creating Layer inception_5b/5x5
I0403 15:19:14.630961 31446 net.cpp:425] inception_5b/5x5 <- inception_5b/5x5_reduce
I0403 15:19:14.630981 31446 net.cpp:399] inception_5b/5x5 -> inception_5b/5x5
I0403 15:19:14.633107 31446 net.cpp:141] Setting up inception_5b/5x5
I0403 15:19:14.633136 31446 net.cpp:148] Top shape: 24 128 7 7 (150528)
I0403 15:19:14.633153 31446 net.cpp:156] Memory required for data: 1335327264
I0403 15:19:14.633173 31446 layer_factory.hpp:77] Creating layer inception_5b/relu_5x5
I0403 15:19:14.633194 31446 net.cpp:91] Creating Layer inception_5b/relu_5x5
I0403 15:19:14.633213 31446 net.cpp:425] inception_5b/relu_5x5 <- inception_5b/5x5
I0403 15:19:14.633231 31446 net.cpp:386] inception_5b/relu_5x5 -> inception_5b/5x5 (in-place)
I0403 15:19:14.633433 31446 net.cpp:141] Setting up inception_5b/relu_5x5
I0403 15:19:14.633462 31446 net.cpp:148] Top shape: 24 128 7 7 (150528)
I0403 15:19:14.633479 31446 net.cpp:156] Memory required for data: 1335929376
I0403 15:19:14.633496 31446 layer_factory.hpp:77] Creating layer inception_5b/pool
I0403 15:19:14.633514 31446 net.cpp:91] Creating Layer inception_5b/pool
I0403 15:19:14.633533 31446 net.cpp:425] inception_5b/pool <- inception_5a/output_inception_5a/output_0_split_3
I0403 15:19:14.633553 31446 net.cpp:399] inception_5b/pool -> inception_5b/pool
I0403 15:19:14.633628 31446 net.cpp:141] Setting up inception_5b/pool
I0403 15:19:14.633653 31446 net.cpp:148] Top shape: 24 832 7 7 (978432)
I0403 15:19:14.633669 31446 net.cpp:156] Memory required for data: 1339843104
I0403 15:19:14.633685 31446 layer_factory.hpp:77] Creating layer inception_5b/pool_proj
I0403 15:19:14.633708 31446 net.cpp:91] Creating Layer inception_5b/pool_proj
I0403 15:19:14.633728 31446 net.cpp:425] inception_5b/pool_proj <- inception_5b/pool
I0403 15:19:14.633754 31446 net.cpp:399] inception_5b/pool_proj -> inception_5b/pool_proj
I0403 15:19:14.636186 31446 net.cpp:141] Setting up inception_5b/pool_proj
I0403 15:19:14.636219 31446 net.cpp:148] Top shape: 24 128 7 7 (150528)
I0403 15:19:14.636236 31446 net.cpp:156] Memory required for data: 1340445216
I0403 15:19:14.636256 31446 layer_factory.hpp:77] Creating layer inception_5b/relu_pool_proj
I0403 15:19:14.636276 31446 net.cpp:91] Creating Layer inception_5b/relu_pool_proj
I0403 15:19:14.636299 31446 net.cpp:425] inception_5b/relu_pool_proj <- inception_5b/pool_proj
I0403 15:19:14.636318 31446 net.cpp:386] inception_5b/relu_pool_proj -> inception_5b/pool_proj (in-place)
I0403 15:19:14.636616 31446 net.cpp:141] Setting up inception_5b/relu_pool_proj
I0403 15:19:14.636643 31446 net.cpp:148] Top shape: 24 128 7 7 (150528)
I0403 15:19:14.636661 31446 net.cpp:156] Memory required for data: 1341047328
I0403 15:19:14.636675 31446 layer_factory.hpp:77] Creating layer inception_5b/output
I0403 15:19:14.636695 31446 net.cpp:91] Creating Layer inception_5b/output
I0403 15:19:14.636728 31446 net.cpp:425] inception_5b/output <- inception_5b/1x1
I0403 15:19:14.636747 31446 net.cpp:425] inception_5b/output <- inception_5b/3x3
I0403 15:19:14.636765 31446 net.cpp:425] inception_5b/output <- inception_5b/5x5
I0403 15:19:14.636782 31446 net.cpp:425] inception_5b/output <- inception_5b/pool_proj
I0403 15:19:14.636803 31446 net.cpp:399] inception_5b/output -> inception_5b/output
I0403 15:19:14.636855 31446 net.cpp:141] Setting up inception_5b/output
I0403 15:19:14.636885 31446 net.cpp:148] Top shape: 24 1024 7 7 (1204224)
I0403 15:19:14.636904 31446 net.cpp:156] Memory required for data: 1345864224
I0403 15:19:14.636920 31446 layer_factory.hpp:77] Creating layer pool5/7x7_s1
I0403 15:19:14.636939 31446 net.cpp:91] Creating Layer pool5/7x7_s1
I0403 15:19:14.636956 31446 net.cpp:425] pool5/7x7_s1 <- inception_5b/output
I0403 15:19:14.636979 31446 net.cpp:399] pool5/7x7_s1 -> pool5/7x7_s1
I0403 15:19:14.637192 31446 net.cpp:141] Setting up pool5/7x7_s1
I0403 15:19:14.637217 31446 net.cpp:148] Top shape: 24 1024 1 1 (24576)
I0403 15:19:14.637233 31446 net.cpp:156] Memory required for data: 1345962528
I0403 15:19:14.637246 31446 layer_factory.hpp:77] Creating layer pool5/drop_7x7_s1
I0403 15:19:14.637267 31446 net.cpp:91] Creating Layer pool5/drop_7x7_s1
I0403 15:19:14.637289 31446 net.cpp:425] pool5/drop_7x7_s1 <- pool5/7x7_s1
I0403 15:19:14.637308 31446 net.cpp:386] pool5/drop_7x7_s1 -> pool5/7x7_s1 (in-place)
I0403 15:19:14.637357 31446 net.cpp:141] Setting up pool5/drop_7x7_s1
I0403 15:19:14.637382 31446 net.cpp:148] Top shape: 24 1024 1 1 (24576)
I0403 15:19:14.637399 31446 net.cpp:156] Memory required for data: 1346060832
I0403 15:19:14.637414 31446 layer_factory.hpp:77] Creating layer loss3/classifier_plantvillage
I0403 15:19:14.637434 31446 net.cpp:91] Creating Layer loss3/classifier_plantvillage
I0403 15:19:14.637457 31446 net.cpp:425] loss3/classifier_plantvillage <- pool5/7x7_s1
I0403 15:19:14.637480 31446 net.cpp:399] loss3/classifier_plantvillage -> loss3/classifier_plantvillage
I0403 15:19:14.637895 31446 net.cpp:141] Setting up loss3/classifier_plantvillage
I0403 15:19:14.637920 31446 net.cpp:148] Top shape: 24 38 (912)
I0403 15:19:14.637934 31446 net.cpp:156] Memory required for data: 1346064480
I0403 15:19:14.637953 31446 layer_factory.hpp:77] Creating layer loss3/classifier_plantvillage_loss3/classifier_plantvillage_0_split
I0403 15:19:14.637971 31446 net.cpp:91] Creating Layer loss3/classifier_plantvillage_loss3/classifier_plantvillage_0_split
I0403 15:19:14.637987 31446 net.cpp:425] loss3/classifier_plantvillage_loss3/classifier_plantvillage_0_split <- loss3/classifier_plantvillage
I0403 15:19:14.638007 31446 net.cpp:399] loss3/classifier_plantvillage_loss3/classifier_plantvillage_0_split -> loss3/classifier_plantvillage_loss3/classifier_plantvillage_0_split_0
I0403 15:19:14.638034 31446 net.cpp:399] loss3/classifier_plantvillage_loss3/classifier_plantvillage_0_split -> loss3/classifier_plantvillage_loss3/classifier_plantvillage_0_split_1
I0403 15:19:14.638056 31446 net.cpp:399] loss3/classifier_plantvillage_loss3/classifier_plantvillage_0_split -> loss3/classifier_plantvillage_loss3/classifier_plantvillage_0_split_2
I0403 15:19:14.638077 31446 net.cpp:399] loss3/classifier_plantvillage_loss3/classifier_plantvillage_0_split -> loss3/classifier_plantvillage_loss3/classifier_plantvillage_0_split_3
I0403 15:19:14.638178 31446 net.cpp:141] Setting up loss3/classifier_plantvillage_loss3/classifier_plantvillage_0_split
I0403 15:19:14.638201 31446 net.cpp:148] Top shape: 24 38 (912)
I0403 15:19:14.638219 31446 net.cpp:148] Top shape: 24 38 (912)
I0403 15:19:14.638236 31446 net.cpp:148] Top shape: 24 38 (912)
I0403 15:19:14.638249 31446 net.cpp:148] Top shape: 24 38 (912)
I0403 15:19:14.638263 31446 net.cpp:156] Memory required for data: 1346079072
I0403 15:19:14.638279 31446 layer_factory.hpp:77] Creating layer loss1/loss
I0403 15:19:14.638308 31446 net.cpp:91] Creating Layer loss1/loss
I0403 15:19:14.638327 31446 net.cpp:425] loss1/loss <- loss1/classifier_plantvillage_loss1/classifier_plantvillage_0_split_0
I0403 15:19:14.638358 31446 net.cpp:425] loss1/loss <- label_data_1_split_0
…
