…
I0403 15:33:35.606639 32262 net.cpp:313] The NetState phase (1) differed from the phase (0) specified by a rule in layer data
I0403 15:33:35.607743 32262 net.cpp:49] Initializing net from parameters: 
state {
  phase: TEST
}
layer {
  name: "data"
  type: "Data"
  top: "data"
  top: "label"
  include {
    phase: TEST
  }
  transform_param {
    mirror: false
    crop_size: 224
    mean_file: "/home/mohanty/data/final_dataset/lmdb/color-60-40/mean.binaryproto"
  }
  data_param {
    source: "/home/mohanty/data/final_dataset/lmdb/color-60-40/test_db"
    batch_size: 24
    backend: LMDB
  }
}
layer {
  name: "conv1/7x7_s2"
  type: "Convolution"
  bottom: "data"
  top: "conv1/7x7_s2"
  param {
    lr_mult: 1
    decay_mult: 1
  }
  param {
    lr_mult: 2
    decay_mult: 0
  }
  convolution_param {
    num_output: 64
    pad: 3
    kernel_size: 7
    stride: 2
    weight_filler {
      type: "xavier"
      std: 0.1
    }
    bias_filler {
      type: "constant"
      value: 0.2
    }
  }
}
layer {
  name: "conv1/relu_7x7"
  type: "ReLU"
  bottom: "conv1/7x7_s2"
  top: "conv1/7x7_s2"
}
layer {
  name: "pool1/3x3_s2"
  type: "Pooling"
  bottom: "conv1/7x7_s2"
  top: "pool1/3x3_s2"
  pooling_param {
    pool: MAX
    kernel_size: 3
    stride: 2
  }
}
layer {
  name: "pool1/norm1"
  type: "LRN"
  bottom: "pool1/3x3_s2"
  top: "pool1/norm1"
  lrn_param {
    local_size: 5
    alpha: 0.0001
    beta: 0.75
  }
}
layer {
  name: "conv2/3x3_reduce"
  type: "Convolution"
  bottom: "pool1/norm1"
  top: "conv2/3x3_reduce"
  param {
    lr_mult: 1
    decay_mult: 1
  }
  param {
    lr_mult: 2
    decay_mult: 0
  }
  convolution_param {
    num_output: 64
    kernel_size: 1
    weight_filler {
      type: "xavier"
      std: 0.1
    }
    bias_filler {
      type: "constant"
      value: 0.2
    }
  }
}
layer {
  name: "conv2/relu_3x3_reduce"
  type: "ReLU"
  bottom: "conv2/3x3_reduce"
  top: "conv2/3x3_reduce"
}
layer {
  name: "conv2/3x3"
  type: "Convolution"
  bottom: "conv2/3x3_reduce"
  top: "conv2/3x3"
  param {
    lr_mult: 1
    decay_mult: 1
  }
  param {
    lr_mult: 2
    decay_mult: 0
  }
  convolution_param {
    num_output: 192
    pad: 1
    kernel_size: 3
    weight_filler {
      type: "xavier"
      std: 0.03
    }
    bias_filler {
      type: "constant"
      value: 0.2
    }
  }
}
layer {
  name: "conv2/relu_3x3"
  type: "ReLU"
  bottom: "conv2/3x3"
  top: "conv2/3x3"
}
layer {
  name: "conv2/norm2"
  type: "LRN"
  bottom: "conv2/3x3"
  top: "conv2/norm2"
  lrn_param {
    local_size: 5
    alpha: 0.0001
    beta: 0.75
  }
}
layer {
  name: "pool2/3x3_s2"
  type: "Pooling"
  bottom: "conv2/norm2"
  top: "pool2/3x3_s2"
  pooling_param {
    pool: MAX
    kernel_size: 3
    stride: 2
  }
}
layer {
  name: "inception_3a/1x1"
  type: "Convolution"
  bottom: "pool2/3x3_s2"
  top: "inception_3a/1x1"
  param {
    lr_mult: 1
    decay_mult: 1
  }
  param {
    lr_mult: 2
    decay_mult: 0
  }
  convolution_param {
    num_output: 64
    kernel_size: 1
    weight_filler {
      type: "xavier"
      std: 0.03
    }
    bias_filler {
      type: "constant"
      value: 0.2
    }
  }
}
layer {
  name: "inception_3a/relu_1x1"
  type: "ReLU"
  bottom: "inception_3a/1x1"
  top: "inception_3a/1x1"
}
layer {
  name: "inception_3a/3x3_reduce"
  type: "Convolution"
  bottom: "pool2/3x3_s2"
  top: "inception_3a/3x3_reduce"
  param {
    lr_mult: 1
    decay_mult: 1
  }
  param {
    lr_mult: 2
    decay_mult: 0
  }
  convolution_param {
    num_output: 96
    kernel_size: 1
    weight_filler {
      type: "xavier"
      std: 0.09
    }
    bias_filler {
      type: "constant"
      value: 0.2
    }
  }
}
layer {
  name: "inception_3a/relu_3x3_reduce"
  type: "ReLU"
  bottom: "inception_3a/3x3_reduce"
  top: "inception_3a/3x3_reduce"
}
layer {
  name: "inception_3a/3x3"
  type: "Convolution"
  bottom: "inception_3a/3x3_reduce"
  top: "inception_3a/3x3"
  param {
    lr_mult: 1
    decay_mult: 1
  }
  param {
    lr_mult: 2
    decay_mult: 0
  }
  convolution_param {
    num_output: 128
    pad: 1
    kernel_size: 3
    weight_filler {
      type: "xavier"
      std: 0.03
    }
    bias_filler {
      type: "constant"
      value: 0.2
    }
  }
}
layer {
  name: "inception_3a/relu_3x3"
  type: "ReLU"
  bottom: "inception_3a/3x3"
  top: "inception_3a/3x3"
}
layer {
  name: "inception_3a/5x5_reduce"
  type: "Convolution"
  bottom: "pool2/3x3_s2"
  top: "inception_3a/5x5_reduce"
  param {
    lr_mult: 1
    decay_mult: 1
  }
  param {
    lr_mult: 2
    decay_mult: 0
  }
  convolution_param {
    num_output: 16
    kernel_size: 1
    weight_filler {
      type: "xavier"
      std: 0.2
    }
    bias_filler {
      type: "constant"
      value: 0.2
    }
  }
}
layer {
  name: "inception_3a/relu_5x5_reduce"
  type: "ReLU"
  bottom: "inception_3a/5x5_reduce"
  top: "inception_3a/5x5_reduce"
}
layer {
  name: "inception_3a/5x5"
  type: "Convolution"
  bottom: "inception_3a/5x5_reduce"
  top: "inception_3a/5x5"
  param {
    lr_mult: 1
    decay_mult: 1
  }
  param {
    lr_mult: 2
    decay_mult: 0
  }
  convolution_param {
    num_output: 32
    pad: 2
    kernel_size: 5
    weight_filler {
      type: "xavier"
      std: 0.03
    }
    bias_filler {
      type: "constant"
      value: 0.2
    }
  }
}
layer {
  name: "inception_3a/relu_5x5"
  type: "ReLU"
  bottom: "inception_3a/5x5"
  top: "inception_3a/5x5"
}
layer {
  name: "inception_3a/pool"
  type: "Pooling"
  bottom: "pool2/3x3_s2"
  top: "inception_3a/pool"
  pooling_param {
    pool: MAX
    kernel_size: 3
    stride: 1
    pad: 1
  }
}
layer {
  name: "inception_3a/pool_proj"
  type: "Convolution"
  bottom: "inception_3a/pool"
  top: "inception_3a/pool_proj"
  param {
    lr_mult: 1
    decay_mult: 1
  }
  param {
    lr_mult: 2
    decay_mult: 0
  }
  convolution_param {
    num_output: 32
    kernel_size: 1
    weight_filler {
      type: "xavier"
      std: 0.1
    }
    bias_filler {
      type: "constant"
      value: 0.2
    }
  }
}
layer {
  name: "inception_3a/relu_pool_proj"
  type: "ReLU"
  bottom: "inception_3a/pool_proj"
  top: "inception_3a/pool_proj"
}
layer {
  name: "inception_3a/output"
  type: "Concat"
  bottom: "inception_3a/1x1"
  bottom: "inception_3a/3x3"
  bottom: "inception_3a/5x5"
  bottom: "inception_3a/pool_proj"
  top: "inception_3a/output"
}
layer {
  name: "inception_3b/1x1"
  type: "Convolution"
  bottom: "inception_3a/output"
  top: "inception_3b/1x1"
  param {
    lr_mult: 1
    decay_mult: 1
  }
  param {
    lr_mult: 2
    decay_mult: 0
  }
  convolution_param {
    num_output: 128
    kernel_size: 1
    weight_filler {
      type: "xavier"
      std: 0.03
    }
    bias_filler {
      type: "constant"
      value: 0.2
    }
  }
}
layer {
  name: "inception_3b/relu_1x1"
  type: "ReLU"
  bottom: "inception_3b/1x1"
  top: "inception_3b/1x1"
}
layer {
  name: "inception_3b/3x3_reduce"
  type: "Convolution"
  bottom: "inception_3a/output"
  top: "inception_3b/3x3_reduce"
  param {
    lr_mult: 1
    decay_mult: 1
  }
  param {
    lr_mult: 2
    decay_mult: 0
  }
  convolution_param {
    num_output: 128
    kernel_size: 1
    weight_filler {
      type: "xavier"
      std: 0.09
    }
    bias_filler {
      type: "constant"
      value: 0.2
    }
  }
}
layer {
  name: "inception_3b/relu_3x3_reduce"
  type: "ReLU"
  bottom: "inception_3b/3x3_reduce"
  top: "inception_3b/3x3_reduce"
}
layer {
  name: "inception_3b/3x3"
  type: "Convolution"
  bottom: "inception_3b/3x3_reduce"
  top: "inception_3b/3x3"
  param {
    lr_mult: 1
    decay_mult: 1
  }
  param {
    lr_mult: 2
    decay_mult: 0
  }
  convolution_param {
    num_output: 192
    pad: 1
    kernel_size: 3
    weight_filler {
      type: "xavier"
      std: 0.03
    }
    bias_filler {
      type: "constant"
      value: 0.2
    }
  }
}
layer {
  name: "inception_3b/relu_3x3"
  type: "ReLU"
  bottom: "inception_3b/3x3"
  top: "inception_3b/3x3"
}
layer {
  name: "inception_3b/5x5_reduce"
  type: "Convolution"
  bottom: "inception_3a/output"
  top: "inception_3b/5x5_reduce"
  param {
    lr_mult: 1
    decay_mult: 1
  }
  param {
    lr_mult: 2
    decay_mult: 0
  }
  convolution_param {
    num_output: 32
    kernel_size: 1
    weight_filler {
      type: "xavier"
      std: 0.2
    }
    bias_filler {
      type: "constant"
      value: 0.2
    }
  }
}
layer {
  name: "inception_3b/relu_5x5_reduce"
  type: "ReLU"
  bottom: "inception_3b/5x5_reduce"
  top: "inception_3b/5x5_reduce"
}
layer {
  name: "inception_3b/5x5"
  type: "Convolution"
  bottom: "inception_3b/5x5_reduce"
  top: "inception_3b/5x5"
  param {
    lr_mult: 1
    decay_mult: 1
  }
  param {
    lr_mult: 2
    decay_mult: 0
  }
  convolution_param {
    num_output: 96
    pad: 2
    kernel_size: 5
    weight_filler {
      type: "xavier"
      std: 0.03
    }
    bias_filler {
      type: "constant"
      value: 0.2
    }
  }
}
layer {
  name: "inception_3b/relu_5x5"
  type: "ReLU"
  bottom: "inception_3b/5x5"
  top: "inception_3b/5x5"
}
layer {
  name: "inception_3b/pool"
  type: "Pooling"
  bottom: "inception_3a/output"
  top: "inception_3b/pool"
  pooling_param {
    pool: MAX
    kernel_size: 3
    stride: 1
    pad: 1
  }
}
layer {
  name: "inception_3b/pool_proj"
  type: "Convolution"
  bottom: "inception_3b/pool"
  top: "inception_3b/pool_proj"
  param {
    lr_mult: 1
    decay_mult: 1
  }
  param {
    lr_mult: 2
    decay_mult: 0
  }
  convolution_param {
    num_output: 64
    kernel_size: 1
    weight_filler {
      type: "xavier"
      std: 0.1
    }
    bias_filler {
      type: "constant"
      value: 0.2
    }
  }
}
layer {
  name: "inception_3b/relu_pool_proj"
  type: "ReLU"
  bottom: "inception_3b/pool_proj"
  top: "inception_3b/pool_proj"
}
layer {
  name: "inception_3b/output"
  type: "Concat"
  bottom: "inception_3b/1x1"
  bottom: "inception_3b/3x3"
  bottom: "inception_3b/5x5"
  bottom: "inception_3b/pool_proj"
  top: "inception_3b/output"
}
layer {
  name: "pool3/3x3_s2"
  type: "Pooling"
  bottom: "inception_3b/output"
  top: "pool3/3x3_s2"
  pooling_param {
    pool: MAX
    kernel_size: 3
    stride: 2
  }
}
layer {
  name: "inception_4a/1x1"
  type: "Convolution"
  bottom: "pool3/3x3_s2"
  top: "inception_4a/1x1"
  param {
    lr_mult: 1
    decay_mult: 1
  }
  param {
    lr_mult: 2
    decay_mult: 0
  }
  convolution_param {
    num_output: 192
    kernel_size: 1
    weight_filler {
      type: "xavier"
      std: 0.03
    }
    bias_filler {
      type: "constant"
      value: 0.2
    }
  }
}
layer {
  name: "inception_4a/relu_1x1"
  type: "ReLU"
  bottom: "inception_4a/1x1"
  top: "inception_4a/1x1"
}
layer {
  name: "inception_4a/3x3_reduce"
  type: "Convolution"
  bottom: "pool3/3x3_s2"
  top: "inception_4a/3x3_reduce"
  param {
    lr_mult: 1
    decay_mult: 1
  }
  param {
    lr_mult: 2
    decay_mult: 0
  }
  convolution_param {
    num_output: 96
    kernel_size: 1
    weight_filler {
      type: "xavier"
      std: 0.09
    }
    bias_filler {
      type: "constant"
      value: 0.2
    }
  }
}
layer {
  name: "inception_4a/relu_3x3_reduce"
  type: "ReLU"
  bottom: "inception_4a/3x3_reduce"
  top: "inception_4a/3x3_reduce"
}
layer {
  name: "inception_4a/3x3"
  type: "Convolution"
  bottom: "inception_4a/3x3_reduce"
  top: "inception_4a/3x3"
  param {
    lr_mult: 1
    decay_mult: 1
  }
  param {
    lr_mult: 2
    decay_mult: 0
  }
  convolution_param {
    num_output: 208
    pad: 1
    kernel_size: 3
    weight_filler {
      type: "xavier"
      std: 0.03
    }
    bias_filler {
      type: "constant"
      value: 0.2
    }
  }
}
layer {
  name: "inception_4a/relu_3x3"
  type: "ReLU"
  bottom: "inception_4a/3x3"
  top: "inception_4a/3x3"
}
layer {
  name: "inception_4a/5x5_reduce"
  type: "Convolution"
  bottom: "pool3/3x3_s2"
  top: "inception_4a/5x5_reduce"
  param {
    lr_mult: 1
    decay_mult: 1
  }
  param {
    lr_mult: 2
    decay_mult: 0
  }
  convolution_param {
    num_output: 16
    kernel_size: 1
    weight_filler {
      type: "xavier"
      std: 0.2
    }
    bias_filler {
      type: "constant"
      value: 0.2
    }
  }
}
layer {
  name: "inception_4a/relu_5x5_reduce"
  type: "ReLU"
  bottom: "inception_4a/5x5_reduce"
  top: "inception_4a/5x5_reduce"
}
layer {
  name: "inception_4a/5x5"
  type: "Convolution"
  bottom: "inception_4a/5x5_reduce"
  top: "inception_4a/5x5"
  param {
    lr_mult: 1
    decay_mult: 1
  }
  param {
    lr_mult: 2
    decay_mult: 0
  }
  convolution_param {
    num_output: 48
    pad: 2
    kernel_size: 5
    weight_filler {
      type: "xavier"
      std: 0.03
    }
    bias_filler {
      type: "constant"
      value: 0.2
    }
  }
}
layer {
  name: "inception_4a/relu_5x5"
  type: "ReLU"
  bottom: "inception_4a/5x5"
  top: "inception_4a/5x5"
}
layer {
  name: "inception_4a/pool"
  type: "Pooling"
  bottom: "pool3/3x3_s2"
  top: "inception_4a/pool"
  pooling_param {
    pool: MAX
    kernel_size: 3
    stride: 1
    pad: 1
  }
}
layer {
  name: "inception_4a/pool_proj"
  type: "Convolution"
  bottom: "inception_4a/pool"
  top: "inception_4a/pool_proj"
  param {
    lr_mult: 1
    decay_mult: 1
  }
  param {
    lr_mult: 2
    decay_mult: 0
  }
  convolution_param {
    num_output: 64
    kernel_size: 1
    weight_filler {
      type: "xavier"
      std: 0.1
    }
    bias_filler {
      type: "constant"
      value: 0.2
    }
  }
}
layer {
  name: "inception_4a/relu_pool_proj"
  type: "ReLU"
  bottom: "inception_4a/pool_proj"
  top: "inception_4a/pool_proj"
}
layer {
  name: "inception_4a/output"
  type: "Concat"
  bottom: "inception_4a/1x1"
  bottom: "inception_4a/3x3"
  bottom: "inception_4a/5x5"
  bottom: "inception_4a/pool_proj"
  top: "inception_4a/output"
}
layer {
  name: "loss1/ave_pool"
  type: "Pooling"
  bottom: "inception_4a/output"
  top: "loss1/ave_pool"
  pooling_param {
    pool: AVE
    kernel_size: 5
    stride: 3
  }
}
layer {
  name: "loss1/conv"
  type: "Convolution"
  bottom: "loss1/ave_pool"
  top: "loss1/conv"
  param {
    lr_mult: 1
    decay_mult: 1
  }
  param {
    lr_mult: 2
    decay_mult: 0
  }
  convolution_param {
    num_output: 128
    kernel_size: 1
    weight_filler {
      type: "xavier"
      std: 0.08
    }
    bias_filler {
      type: "constant"
      value: 0.2
    }
  }
}
layer {
  name: "loss1/relu_conv"
  type: "ReLU"
  bottom: "loss1/conv"
  top: "loss1/conv"
}
layer {
  name: "loss1/fc"
  type: "InnerProduct"
  bottom: "loss1/conv"
  top: "loss1/fc"
  param {
    lr_mult: 1
    decay_mult: 1
  }
  param {
    lr_mult: 2
    decay_mult: 0
  }
  inner_product_param {
    num_output: 1024
    weight_filler {
      type: "xavier"
      std: 0.02
    }
    bias_filler {
      type: "constant"
      value: 0.2
    }
  }
}
layer {
  name: "loss1/relu_fc"
  type: "ReLU"
  bottom: "loss1/fc"
  top: "loss1/fc"
}
layer {
  name: "loss1/drop_fc"
  type: "Dropout"
  bottom: "loss1/fc"
  top: "loss1/fc"
  dropout_param {
    dropout_ratio: 0.7
  }
}
layer {
  name: "loss1/classifier_plantvillage"
  type: "InnerProduct"
  bottom: "loss1/fc"
  top: "loss1/classifier_plantvillage"
  param {
    lr_mult: 1
    decay_mult: 1
  }
  param {
    lr_mult: 2
    decay_mult: 0
  }
  inner_product_param {
    num_output: 38
    weight_filler {
      type: "xavier"
      std: 0.0009765625
    }
    bias_filler {
      type: "constant"
      value: 0
    }
  }
}
layer {
  name: "inception_4b/1x1"
  type: "Convolution"
  bottom: "inception_4a/output"
  top: "inception_4b/1x1"
  param {
    lr_mult: 1
    decay_mult: 1
  }
  param {
    lr_mult: 2
    decay_mult: 0
  }
  convolution_param {
    num_output: 160
    kernel_size: 1
    weight_filler {
      type: "xavier"
      std: 0.03
    }
    bias_filler {
      type: "constant"
      value: 0.2
    }
  }
}
layer {
  name: "inception_4b/relu_1x1"
  type: "ReLU"
  bottom: "inception_4b/1x1"
  top: "inception_4b/1x1"
}
layer {
  name: "inception_4b/3x3_reduce"
  type: "Convolution"
  bottom: "inception_4a/output"
  top: "inception_4b/3x3_reduce"
  param {
    lr_mult: 1
    decay_mult: 1
  }
  param {
    lr_mult: 2
    decay_mult: 0
  }
  convolution_param {
    num_output: 112
    kernel_size: 1
    weight_filler {
      type: "xavier"
      std: 0.09
    }
    bias_filler {
      type: "constant"
      value: 0.2
    }
  }
}
layer {
  name: "inception_4b/relu_3x3_reduce"
  type: "ReLU"
  bottom: "inception_4b/3x3_reduce"
  top: "inception_4b/3x3_reduce"
}
layer {
  name: "inception_4b/3x3"
  type: "Convolution"
  bottom: "inception_4b/3x3_reduce"
  top: "inception_4b/3x3"
  param {
    lr_mult: 1
    decay_mult: 1
  }
  param {
    lr_mult: 2
    decay_mult: 0
  }
  convolution_param {
    num_output: 224
    pad: 1
    kernel_size: 3
    weight_filler {
      type: "xavier"
      std: 0.03
    }
    bias_filler {
      type: "constant"
      value: 0.2
    }
  }
}
layer {
  name: "inception_4b/relu_3x3"
  type: "ReLU"
  bottom: "inception_4b/3x3"
  top: "inception_4b/3x3"
}
layer {
  name: "inception_4b/5x5_reduce"
  type: "Convolution"
  bottom: "inception_4a/output"
  top: "inception_4b/5x5_reduce"
  param {
    lr_mult: 1
    decay_mult: 1
  }
  param {
    lr_mult: 2
    decay_mult: 0
  }
  convolution_param {
    num_output: 24
    kernel_size: 1
    weight_filler {
      type: "xavier"
      std: 0.2
    }
    bias_filler {
      type: "constant"
      value: 0.2
    }
  }
}
layer {
  name: "inception_4b/relu_5x5_reduce"
  type: "ReLU"
  bottom: "inception_4b/5x5_reduce"
  top: "inception_4b/5x5_reduce"
}
layer {
  name: "inception_4b/5x5"
  type: "Convolution"
  bottom: "inception_4b/5x5_reduce"
  top: "inception_4b/5x5"
  param {
    lr_mult: 1
    decay_mult: 1
  }
  param {
    lr_mult: 2
    decay_mult: 0
  }
  convolution_param {
    num_output: 64
    pad: 2
    kernel_size: 5
    weight_filler {
      type: "xavier"
      std: 0.03
    }
    bias_filler {
      type: "constant"
      value: 0.2
    }
  }
}
layer {
  name: "inception_4b/relu_5x5"
  type: "ReLU"
  bottom: "inception_4b/5x5"
  top: "inception_4b/5x5"
}
layer {
  name: "inception_4b/pool"
  type: "Pooling"
  bottom: "inception_4a/output"
  top: "inception_4b/pool"
  pooling_param {
    pool: MAX
    kernel_size: 3
    stride: 1
    pad: 1
  }
}
layer {
  name: "inception_4b/pool_proj"
  type: "Convolution"
  bottom: "inception_4b/pool"
  top: "inception_4b/pool_proj"
  param {
    lr_mult: 1
    decay_mult: 1
  }
  param {
    lr_mult: 2
    decay_mult: 0
  }
  convolution_param {
    num_output: 64
    kernel_size: 1
    weight_filler {
      type: "xavier"
      std: 0.1
    }
    bias_filler {
      type: "constant"
      value: 0.2
    }
  }
}
layer {
  name: "inception_4b/relu_pool_proj"
  type: "ReLU"
  bottom: "inception_4b/pool_proj"
  top: "inception_4b/pool_proj"
}
layer {
  name: "inception_4b/output"
  type: "Concat"
  bottom: "inception_4b/1x1"
  bottom: "inception_4b/3x3"
  bottom: "inception_4b/5x5"
  bottom: "inception_4b/pool_proj"
  top: "inception_4b/output"
}
layer {
  name: "inception_4c/1x1"
  type: "Convolution"
  bottom: "inception_4b/output"
  top: "inception_4c/1x1"
  param {
    lr_mult: 1
    decay_mult: 1
  }
  param {
    lr_mult: 2
    decay_mult: 0
  }
  convolution_param {
    num_output: 128
    kernel_size: 1
    weight_filler {
      type: "xavier"
      std: 0.03
    }
    bias_filler {
      type: "constant"
      value: 0.2
    }
  }
}
layer {
  name: "inception_4c/relu_1x1"
  type: "ReLU"
  bottom: "inception_4c/1x1"
  top: "inception_4c/1x1"
}
layer {
  name: "inception_4c/3x3_reduce"
  type: "Convolution"
  bottom: "inception_4b/output"
  top: "inception_4c/3x3_reduce"
  param {
    lr_mult: 1
    decay_mult: 1
  }
  param {
    lr_mult: 2
    decay_mult: 0
  }
  convolution_param {
    num_output: 128
    kernel_size: 1
    weight_filler {
      type: "xavier"
      std: 0.09
    }
    bias_filler {
      type: "constant"
      value: 0.2
    }
  }
}
layer {
  name: "inception_4c/relu_3x3_reduce"
  type: "ReLU"
  bottom: "inception_4c/3x3_reduce"
  top: "inception_4c/3x3_reduce"
}
layer {
  name: "inception_4c/3x3"
  type: "Convolution"
  bottom: "inception_4c/3x3_reduce"
  top: "inception_4c/3x3"
  param {
    lr_mult: 1
    decay_mult: 1
  }
  param {
    lr_mult: 2
    decay_mult: 0
  }
  convolution_param {
    num_output: 256
    pad: 1
    kernel_size: 3
    weight_filler {
      type: "xavier"
      std: 0.03
    }
    bias_filler {
      type: "constant"
      value: 0.2
    }
  }
}
layer {
  name: "inception_4c/relu_3x3"
  type: "ReLU"
  bottom: "inception_4c/3x3"
  top: "inception_4c/3x3"
}
layer {
  name: "inception_4c/5x5_reduce"
  type: "Convolution"
  bottom: "inception_4b/output"
  top: "inception_4c/5x5_reduce"
  param {
    lr_mult: 1
    decay_mult: 1
  }
  param {
    lr_mult: 2
    decay_mult: 0
  }
  convolution_param {
    num_output: 24
    kernel_size: 1
    weight_filler {
      type: "xavier"
      std: 0.2
    }
    bias_filler {
      type: "constant"
      value: 0.2
    }
  }
}
layer {
  name: "inception_4c/relu_5x5_reduce"
  type: "ReLU"
  bottom: "inception_4c/5x5_reduce"
  top: "inception_4c/5x5_reduce"
}
layer {
  name: "inception_4c/5x5"
  type: "Convolution"
  bottom: "inception_4c/5x5_reduce"
  top: "inception_4c/5x5"
  param {
    lr_mult: 1
    decay_mult: 1
  }
  param {
    lr_mult: 2
    decay_mult: 0
  }
  convolution_param {
    num_output: 64
    pad: 2
    kernel_size: 5
    weight_filler {
      type: "xavier"
      std: 0.03
    }
    bias_filler {
      type: "constant"
      value: 0.2
    }
  }
}
layer {
  name: "inception_4c/relu_5x5"
  type: "ReLU"
  bottom: "inception_4c/5x5"
  top: "inception_4c/5x5"
}
layer {
  name: "inception_4c/pool"
  type: "Pooling"
  bottom: "inception_4b/output"
  top: "inception_4c/pool"
  pooling_param {
    pool: MAX
    kernel_size: 3
    stride: 1
    pad: 1
  }
}
layer {
  name: "inception_4c/pool_proj"
  type: "Convolution"
  bottom: "inception_4c/pool"
  top: "inception_4c/pool_proj"
  param {
    lr_mult: 1
    decay_mult: 1
  }
  param {
    lr_mult: 2
    decay_mult: 0
  }
  convolution_param {
    num_output: 64
    kernel_size: 1
    weight_filler {
      type: "xavier"
      std: 0.1
    }
    bias_filler {
      type: "constant"
      value: 0.2
    }
  }
}
layer {
  name: "inception_4c/relu_pool_proj"
  type: "ReLU"
  bottom: "inception_4c/pool_proj"
  top: "inception_4c/pool_proj"
}
layer {
  name: "inception_4c/output"
  type: "Concat"
  bottom: "inception_4c/1x1"
  bottom: "inception_4c/3x3"
  bottom: "inception_4c/5x5"
  bottom: "inception_4c/pool_proj"
  top: "inception_4c/output"
}
layer {
  name: "inception_4d/1x1"
  type: "Convolution"
  bottom: "inception_4c/output"
  top: "inception_4d/1x1"
  param {
    lr_mult: 1
    decay_mult: 1
  }
  param {
    lr_mult: 2
    decay_mult: 0
  }
  convolution_param {
    num_output: 112
    kernel_size: 1
    weight_filler {
      type: "xavier"
      std: 0.03
    }
    bias_filler {
      type: "constant"
      value: 0.2
    }
  }
}
layer {
  name: "inception_4d/relu_1x1"
  type: "ReLU"
  bottom: "inception_4d/1x1"
  top: "inception_4d/1x1"
}
layer {
  name: "inception_4d/3x3_reduce"
  type: "Convolution"
  bottom: "inception_4c/output"
  top: "inception_4d/3x3_reduce"
  param {
    lr_mult: 1
    decay_mult: 1
  }
  param {
    lr_mult: 2
    decay_mult: 0
  }
  convolution_param {
    num_output: 144
    kernel_size: 1
    weight_filler {
      type: "xavier"
      std: 0.09
    }
    bias_filler {
      type: "constant"
      value: 0.2
    }
  }
}
layer {
  name: "inception_4d/relu_3x3_reduce"
  type: "ReLU"
  bottom: "inception_4d/3x3_reduce"
  top: "inception_4d/3x3_reduce"
}
layer {
  name: "inception_4d/3x3"
  type: "Convolution"
  bottom: "inception_4d/3x3_reduce"
  top: "inception_4d/3x3"
  param {
    lr_mult: 1
    decay_mult: 1
  }
  param {
    lr_mult: 2
    decay_mult: 0
  }
  convolution_param {
    num_output: 288
    pad: 1
    kernel_size: 3
    weight_filler {
      type: "xavier"
      std: 0.03
    }
    bias_filler {
      type: "constant"
      value: 0.2
    }
  }
}
layer {
  name: "inception_4d/relu_3x3"
  type: "ReLU"
  bottom: "inception_4d/3x3"
  top: "inception_4d/3x3"
}
layer {
  name: "inception_4d/5x5_reduce"
  type: "Convolution"
  bottom: "inception_4c/output"
  top: "inception_4d/5x5_reduce"
  param {
    lr_mult: 1
    decay_mult: 1
  }
  param {
    lr_mult: 2
    decay_mult: 0
  }
  convolution_param {
    num_output: 32
    kernel_size: 1
    weight_filler {
      type: "xavier"
      std: 0.2
    }
    bias_filler {
      type: "constant"
      value: 0.2
    }
  }
}
layer {
  name: "inception_4d/relu_5x5_reduce"
  type: "ReLU"
  bottom: "inception_4d/5x5_reduce"
  top: "inception_4d/5x5_reduce"
}
layer {
  name: "inception_4d/5x5"
  type: "Convolution"
  bottom: "inception_4d/5x5_reduce"
  top: "inception_4d/5x5"
  param {
    lr_mult: 1
    decay_mult: 1
  }
  param {
    lr_mult: 2
    decay_mult: 0
  }
  convolution_param {
    num_output: 64
    pad: 2
    kernel_size: 5
    weight_filler {
      type: "xavier"
      std: 0.03
    }
    bias_filler {
      type: "constant"
      value: 0.2
    }
  }
}
layer {
  name: "inception_4d/relu_5x5"
  type: "ReLU"
  bottom: "inception_4d/5x5"
  top: "inception_4d/5x5"
}
layer {
  name: "inception_4d/pool"
  type: "Pooling"
  bottom: "inception_4c/output"
  top: "inception_4d/pool"
  pooling_param {
    pool: MAX
    kernel_size: 3
    stride: 1
    pad: 1
  }
}
layer {
  name: "inception_4d/pool_proj"
  type: "Convolution"
  bottom: "inception_4d/pool"
  top: "inception_4d/pool_proj"
  param {
    lr_mult: 1
    decay_mult: 1
  }
  param {
    lr_mult: 2
    decay_mult: 0
  }
  convolution_param {
    num_output: 64
    kernel_size: 1
    weight_filler {
      type: "xavier"
      std: 0.1
    }
    bias_filler {
      type: "constant"
      value: 0.2
    }
  }
}
layer {
  name: "inception_4d/relu_pool_proj"
  type: "ReLU"
  bottom: "inception_4d/pool_proj"
  top: "inception_4d/pool_proj"
}
layer {
  name: "inception_4d/output"
  type: "Concat"
  bottom: "inception_4d/1x1"
  bottom: "inception_4d/3x3"
  bottom: "inception_4d/5x5"
  bottom: "inception_4d/pool_proj"
  top: "inception_4d/output"
}
layer {
  name: "loss2/ave_pool"
  type: "Pooling"
  bottom: "inception_4d/output"
  top: "loss2/ave_pool"
  pooling_param {
    pool: AVE
    kernel_size: 5
    stride: 3
  }
}
layer {
  name: "loss2/conv"
  type: "Convolution"
  bottom: "loss2/ave_pool"
  top: "loss2/conv"
  param {
    lr_mult: 1
    decay_mult: 1
  }
  param {
    lr_mult: 2
    decay_mult: 0
  }
  convolution_param {
    num_output: 128
    kernel_size: 1
    weight_filler {
      type: "xavier"
      std: 0.08
    }
    bias_filler {
      type: "constant"
      value: 0.2
    }
  }
}
layer {
  name: "loss2/relu_conv"
  type: "ReLU"
  bottom: "loss2/conv"
  top: "loss2/conv"
}
layer {
  name: "loss2/fc"
  type: "InnerProduct"
  bottom: "loss2/conv"
  top: "loss2/fc"
  param {
    lr_mult: 1
    decay_mult: 1
  }
  param {
    lr_mult: 2
    decay_mult: 0
  }
  inner_product_param {
    num_output: 1024
    weight_filler {
      type: "xavier"
      std: 0.02
    }
    bias_filler {
      type: "constant"
      value: 0.2
    }
  }
}
layer {
  name: "loss2/relu_fc"
  type: "ReLU"
  bottom: "loss2/fc"
  top: "loss2/fc"
}
layer {
  name: "loss2/drop_fc"
  type: "Dropout"
  bottom: "loss2/fc"
  top: "loss2/fc"
  dropout_param {
    dropout_ratio: 0.7
  }
}
layer {
  name: "loss2/classifier_plantvillage"
  type: "InnerProduct"
  bottom: "loss2/fc"
  top: "loss2/classifier_plantvillage"
  param {
    lr_mult: 1
    decay_mult: 1
  }
  param {
    lr_mult: 2
    decay_mult: 0
  }
  inner_product_param {
    num_output: 38
    weight_filler {
      type: "xavier"
      std: 0.0009765625
    }
    bias_filler {
      type: "constant"
      value: 0
    }
  }
}
layer {
  name: "inception_4e/1x1"
  type: "Convolution"
  bottom: "inception_4d/output"
  top: "inception_4e/1x1"
  param {
    lr_mult: 1
    decay_mult: 1
  }
  param {
    lr_mult: 2
    decay_mult: 0
  }
  convolution_param {
    num_output: 256
    kernel_size: 1
    weight_filler {
      type: "xavier"
      std: 0.03
    }
    bias_filler {
      type: "constant"
      value: 0.2
    }
  }
}
layer {
  name: "inception_4e/relu_1x1"
  type: "ReLU"
  bottom: "inception_4e/1x1"
  top: "inception_4e/1x1"
}
layer {
  name: "inception_4e/3x3_reduce"
  type: "Convolution"
  bottom: "inception_4d/output"
  top: "inception_4e/3x3_reduce"
  param {
    lr_mult: 1
    decay_mult: 1
  }
  param {
    lr_mult: 2
    decay_mult: 0
  }
  convolution_param {
    num_output: 160
    kernel_size: 1
    weight_filler {
      type: "xavier"
      std: 0.09
    }
    bias_filler {
      type: "constant"
      value: 0.2
    }
  }
}
layer {
  name: "inception_4e/relu_3x3_reduce"
  type: "ReLU"
  bottom: "inception_4e/3x3_reduce"
  top: "inception_4e/3x3_reduce"
}
layer {
  name: "inception_4e/3x3"
  type: "Convolution"
  bottom: "inception_4e/3x3_reduce"
  top: "inception_4e/3x3"
  param {
    lr_mult: 1
    decay_mult: 1
  }
  param {
    lr_mult: 2
    decay_mult: 0
  }
  convolution_param {
    num_output: 320
    pad: 1
    kernel_size: 3
    weight_filler {
      type: "xavier"
      std: 0.03
    }
    bias_filler {
      type: "constant"
      value: 0.2
    }
  }
}
layer {
  name: "inception_4e/relu_3x3"
  type: "ReLU"
  bottom: "inception_4e/3x3"
  top: "inception_4e/3x3"
}
layer {
  name: "inception_4e/5x5_reduce"
  type: "Convolution"
  bottom: "inception_4d/output"
  top: "inception_4e/5x5_reduce"
  param {
    lr_mult: 1
    decay_mult: 1
  }
  param {
    lr_mult: 2
    decay_mult: 0
  }
  convolution_param {
    num_output: 32
    kernel_size: 1
    weight_filler {
      type: "xavier"
      std: 0.2
    }
    bias_filler {
      type: "constant"
      value: 0.2
    }
  }
}
layer {
  name: "inception_4e/relu_5x5_reduce"
  type: "ReLU"
  bottom: "inception_4e/5x5_reduce"
  top: "inception_4e/5x5_reduce"
}
layer {
  name: "inception_4e/5x5"
  type: "Convolution"
  bottom: "inception_4e/5x5_reduce"
  top: "inception_4e/5x5"
  p
I0403 15:33:35.609009 32262 layer_factory.hpp:77] Creating layer data
I0403 15:33:35.609593 32262 net.cpp:91] Creating Layer data
I0403 15:33:35.609627 32262 net.cpp:399] data -> data
I0403 15:33:35.609678 32262 net.cpp:399] data -> label
I0403 15:33:35.609715 32262 data_transformer.cpp:25] Loading mean file from: /home/mohanty/data/final_dataset/lmdb/color-60-40/mean.binaryproto
I0403 15:33:35.613363 32265 db_lmdb.cpp:38] Opened lmdb /home/mohanty/data/final_dataset/lmdb/color-60-40/test_db
I0403 15:33:35.623685 32262 data_layer.cpp:41] output data size: 24,3,224,224
I0403 15:33:35.653661 32262 net.cpp:141] Setting up data
I0403 15:33:35.653738 32262 net.cpp:148] Top shape: 24 3 224 224 (3612672)
I0403 15:33:35.653761 32262 net.cpp:148] Top shape: 24 (24)
I0403 15:33:35.653777 32262 net.cpp:156] Memory required for data: 14450784
I0403 15:33:35.653805 32262 layer_factory.hpp:77] Creating layer label_data_1_split
I0403 15:33:35.653831 32262 net.cpp:91] Creating Layer label_data_1_split
I0403 15:33:35.653851 32262 net.cpp:425] label_data_1_split <- label
I0403 15:33:35.653882 32262 net.cpp:399] label_data_1_split -> label_data_1_split_0
I0403 15:33:35.653910 32262 net.cpp:399] label_data_1_split -> label_data_1_split_1
I0403 15:33:35.653933 32262 net.cpp:399] label_data_1_split -> label_data_1_split_2
I0403 15:33:35.653954 32262 net.cpp:399] label_data_1_split -> label_data_1_split_3
I0403 15:33:35.653975 32262 net.cpp:399] label_data_1_split -> label_data_1_split_4
I0403 15:33:35.653996 32262 net.cpp:399] label_data_1_split -> label_data_1_split_5
I0403 15:33:35.654016 32262 net.cpp:399] label_data_1_split -> label_data_1_split_6
I0403 15:33:35.654036 32262 net.cpp:399] label_data_1_split -> label_data_1_split_7
I0403 15:33:35.654057 32262 net.cpp:399] label_data_1_split -> label_data_1_split_8
I0403 15:33:35.654077 32262 net.cpp:399] label_data_1_split -> label_data_1_split_9
I0403 15:33:35.654189 32262 net.cpp:141] Setting up label_data_1_split
I0403 15:33:35.654216 32262 net.cpp:148] Top shape: 24 (24)
I0403 15:33:35.654232 32262 net.cpp:148] Top shape: 24 (24)
I0403 15:33:35.654249 32262 net.cpp:148] Top shape: 24 (24)
I0403 15:33:35.654264 32262 net.cpp:148] Top shape: 24 (24)
I0403 15:33:35.654280 32262 net.cpp:148] Top shape: 24 (24)
I0403 15:33:35.654323 32262 net.cpp:148] Top shape: 24 (24)
I0403 15:33:35.654341 32262 net.cpp:148] Top shape: 24 (24)
I0403 15:33:35.654357 32262 net.cpp:148] Top shape: 24 (24)
I0403 15:33:35.654373 32262 net.cpp:148] Top shape: 24 (24)
I0403 15:33:35.654389 32262 net.cpp:148] Top shape: 24 (24)
I0403 15:33:35.654434 32262 net.cpp:156] Memory required for data: 14451744
I0403 15:33:35.654451 32262 layer_factory.hpp:77] Creating layer conv1/7x7_s2
I0403 15:33:35.654484 32262 net.cpp:91] Creating Layer conv1/7x7_s2
I0403 15:33:35.654502 32262 net.cpp:425] conv1/7x7_s2 <- data
I0403 15:33:35.654523 32262 net.cpp:399] conv1/7x7_s2 -> conv1/7x7_s2
I0403 15:33:35.796092 32262 net.cpp:141] Setting up conv1/7x7_s2
I0403 15:33:35.796164 32262 net.cpp:148] Top shape: 24 64 112 112 (19267584)
I0403 15:33:35.796182 32262 net.cpp:156] Memory required for data: 91522080
I0403 15:33:35.796212 32262 layer_factory.hpp:77] Creating layer conv1/relu_7x7
I0403 15:33:35.796237 32262 net.cpp:91] Creating Layer conv1/relu_7x7
I0403 15:33:35.796254 32262 net.cpp:425] conv1/relu_7x7 <- conv1/7x7_s2
I0403 15:33:35.796272 32262 net.cpp:386] conv1/relu_7x7 -> conv1/7x7_s2 (in-place)
I0403 15:33:35.796533 32262 net.cpp:141] Setting up conv1/relu_7x7
I0403 15:33:35.796561 32262 net.cpp:148] Top shape: 24 64 112 112 (19267584)
I0403 15:33:35.796576 32262 net.cpp:156] Memory required for data: 168592416
I0403 15:33:35.796592 32262 layer_factory.hpp:77] Creating layer pool1/3x3_s2
I0403 15:33:35.796617 32262 net.cpp:91] Creating Layer pool1/3x3_s2
I0403 15:33:35.796634 32262 net.cpp:425] pool1/3x3_s2 <- conv1/7x7_s2
I0403 15:33:35.796655 32262 net.cpp:399] pool1/3x3_s2 -> pool1/3x3_s2
I0403 15:33:35.796730 32262 net.cpp:141] Setting up pool1/3x3_s2
I0403 15:33:35.796757 32262 net.cpp:148] Top shape: 24 64 56 56 (4816896)
I0403 15:33:35.796772 32262 net.cpp:156] Memory required for data: 187860000
I0403 15:33:35.796787 32262 layer_factory.hpp:77] Creating layer pool1/norm1
I0403 15:33:35.796810 32262 net.cpp:91] Creating Layer pool1/norm1
I0403 15:33:35.796828 32262 net.cpp:425] pool1/norm1 <- pool1/3x3_s2
I0403 15:33:35.796846 32262 net.cpp:399] pool1/norm1 -> pool1/norm1
I0403 15:33:35.797135 32262 net.cpp:141] Setting up pool1/norm1
I0403 15:33:35.797163 32262 net.cpp:148] Top shape: 24 64 56 56 (4816896)
I0403 15:33:35.797178 32262 net.cpp:156] Memory required for data: 207127584
I0403 15:33:35.797194 32262 layer_factory.hpp:77] Creating layer conv2/3x3_reduce
I0403 15:33:35.797219 32262 net.cpp:91] Creating Layer conv2/3x3_reduce
I0403 15:33:35.797235 32262 net.cpp:425] conv2/3x3_reduce <- pool1/norm1
I0403 15:33:35.797255 32262 net.cpp:399] conv2/3x3_reduce -> conv2/3x3_reduce
I0403 15:33:35.798629 32262 net.cpp:141] Setting up conv2/3x3_reduce
I0403 15:33:35.798658 32262 net.cpp:148] Top shape: 24 64 56 56 (4816896)
I0403 15:33:35.798674 32262 net.cpp:156] Memory required for data: 226395168
I0403 15:33:35.798696 32262 layer_factory.hpp:77] Creating layer conv2/relu_3x3_reduce
I0403 15:33:35.798715 32262 net.cpp:91] Creating Layer conv2/relu_3x3_reduce
I0403 15:33:35.798732 32262 net.cpp:425] conv2/relu_3x3_reduce <- conv2/3x3_reduce
I0403 15:33:35.798750 32262 net.cpp:386] conv2/relu_3x3_reduce -> conv2/3x3_reduce (in-place)
I0403 15:33:35.799054 32262 net.cpp:141] Setting up conv2/relu_3x3_reduce
I0403 15:33:35.799082 32262 net.cpp:148] Top shape: 24 64 56 56 (4816896)
I0403 15:33:35.799095 32262 net.cpp:156] Memory required for data: 245662752
I0403 15:33:35.799110 32262 layer_factory.hpp:77] Creating layer conv2/3x3
I0403 15:33:35.799134 32262 net.cpp:91] Creating Layer conv2/3x3
I0403 15:33:35.799152 32262 net.cpp:425] conv2/3x3 <- conv2/3x3_reduce
I0403 15:33:35.799171 32262 net.cpp:399] conv2/3x3 -> conv2/3x3
I0403 15:33:35.801409 32262 net.cpp:141] Setting up conv2/3x3
I0403 15:33:35.801442 32262 net.cpp:148] Top shape: 24 192 56 56 (14450688)
I0403 15:33:35.801460 32262 net.cpp:156] Memory required for data: 303465504
I0403 15:33:35.801481 32262 layer_factory.hpp:77] Creating layer conv2/relu_3x3
I0403 15:33:35.801499 32262 net.cpp:91] Creating Layer conv2/relu_3x3
I0403 15:33:35.801513 32262 net.cpp:425] conv2/relu_3x3 <- conv2/3x3
I0403 15:33:35.801532 32262 net.cpp:386] conv2/relu_3x3 -> conv2/3x3 (in-place)
I0403 15:33:35.801700 32262 net.cpp:141] Setting up conv2/relu_3x3
I0403 15:33:35.801725 32262 net.cpp:148] Top shape: 24 192 56 56 (14450688)
I0403 15:33:35.801771 32262 net.cpp:156] Memory required for data: 361268256
I0403 15:33:35.801787 32262 layer_factory.hpp:77] Creating layer conv2/norm2
I0403 15:33:35.801807 32262 net.cpp:91] Creating Layer conv2/norm2
I0403 15:33:35.801825 32262 net.cpp:425] conv2/norm2 <- conv2/3x3
I0403 15:33:35.801841 32262 net.cpp:399] conv2/norm2 -> conv2/norm2
I0403 15:33:35.802135 32262 net.cpp:141] Setting up conv2/norm2
I0403 15:33:35.802162 32262 net.cpp:148] Top shape: 24 192 56 56 (14450688)
I0403 15:33:35.802177 32262 net.cpp:156] Memory required for data: 419071008
I0403 15:33:35.802192 32262 layer_factory.hpp:77] Creating layer pool2/3x3_s2
I0403 15:33:35.802213 32262 net.cpp:91] Creating Layer pool2/3x3_s2
I0403 15:33:35.802232 32262 net.cpp:425] pool2/3x3_s2 <- conv2/norm2
I0403 15:33:35.802249 32262 net.cpp:399] pool2/3x3_s2 -> pool2/3x3_s2
I0403 15:33:35.802331 32262 net.cpp:141] Setting up pool2/3x3_s2
I0403 15:33:35.802356 32262 net.cpp:148] Top shape: 24 192 28 28 (3612672)
I0403 15:33:35.802369 32262 net.cpp:156] Memory required for data: 433521696
I0403 15:33:35.802384 32262 layer_factory.hpp:77] Creating layer pool2/3x3_s2_pool2/3x3_s2_0_split
I0403 15:33:35.802402 32262 net.cpp:91] Creating Layer pool2/3x3_s2_pool2/3x3_s2_0_split
I0403 15:33:35.802417 32262 net.cpp:425] pool2/3x3_s2_pool2/3x3_s2_0_split <- pool2/3x3_s2
I0403 15:33:35.802436 32262 net.cpp:399] pool2/3x3_s2_pool2/3x3_s2_0_split -> pool2/3x3_s2_pool2/3x3_s2_0_split_0
I0403 15:33:35.802458 32262 net.cpp:399] pool2/3x3_s2_pool2/3x3_s2_0_split -> pool2/3x3_s2_pool2/3x3_s2_0_split_1
I0403 15:33:35.802477 32262 net.cpp:399] pool2/3x3_s2_pool2/3x3_s2_0_split -> pool2/3x3_s2_pool2/3x3_s2_0_split_2
I0403 15:33:35.802496 32262 net.cpp:399] pool2/3x3_s2_pool2/3x3_s2_0_split -> pool2/3x3_s2_pool2/3x3_s2_0_split_3
I0403 15:33:35.802562 32262 net.cpp:141] Setting up pool2/3x3_s2_pool2/3x3_s2_0_split
I0403 15:33:35.802587 32262 net.cpp:148] Top shape: 24 192 28 28 (3612672)
I0403 15:33:35.802603 32262 net.cpp:148] Top shape: 24 192 28 28 (3612672)
I0403 15:33:35.802618 32262 net.cpp:148] Top shape: 24 192 28 28 (3612672)
I0403 15:33:35.802634 32262 net.cpp:148] Top shape: 24 192 28 28 (3612672)
I0403 15:33:35.802649 32262 net.cpp:156] Memory required for data: 491324448
I0403 15:33:35.802664 32262 layer_factory.hpp:77] Creating layer inception_3a/1x1
I0403 15:33:35.802685 32262 net.cpp:91] Creating Layer inception_3a/1x1
I0403 15:33:35.802702 32262 net.cpp:425] inception_3a/1x1 <- pool2/3x3_s2_pool2/3x3_s2_0_split_0
I0403 15:33:35.802722 32262 net.cpp:399] inception_3a/1x1 -> inception_3a/1x1
I0403 15:33:35.804255 32262 net.cpp:141] Setting up inception_3a/1x1
I0403 15:33:35.804294 32262 net.cpp:148] Top shape: 24 64 28 28 (1204224)
I0403 15:33:35.804316 32262 net.cpp:156] Memory required for data: 496141344
I0403 15:33:35.804337 32262 layer_factory.hpp:77] Creating layer inception_3a/relu_1x1
I0403 15:33:35.804354 32262 net.cpp:91] Creating Layer inception_3a/relu_1x1
I0403 15:33:35.804370 32262 net.cpp:425] inception_3a/relu_1x1 <- inception_3a/1x1
I0403 15:33:35.804386 32262 net.cpp:386] inception_3a/relu_1x1 -> inception_3a/1x1 (in-place)
I0403 15:33:35.804554 32262 net.cpp:141] Setting up inception_3a/relu_1x1
I0403 15:33:35.804581 32262 net.cpp:148] Top shape: 24 64 28 28 (1204224)
I0403 15:33:35.804597 32262 net.cpp:156] Memory required for data: 500958240
I0403 15:33:35.804612 32262 layer_factory.hpp:77] Creating layer inception_3a/3x3_reduce
I0403 15:33:35.804635 32262 net.cpp:91] Creating Layer inception_3a/3x3_reduce
I0403 15:33:35.804651 32262 net.cpp:425] inception_3a/3x3_reduce <- pool2/3x3_s2_pool2/3x3_s2_0_split_1
I0403 15:33:35.804669 32262 net.cpp:399] inception_3a/3x3_reduce -> inception_3a/3x3_reduce
I0403 15:33:35.806359 32262 net.cpp:141] Setting up inception_3a/3x3_reduce
I0403 15:33:35.806387 32262 net.cpp:148] Top shape: 24 96 28 28 (1806336)
I0403 15:33:35.806403 32262 net.cpp:156] Memory required for data: 508183584
I0403 15:33:35.806426 32262 layer_factory.hpp:77] Creating layer inception_3a/relu_3x3_reduce
I0403 15:33:35.806463 32262 net.cpp:91] Creating Layer inception_3a/relu_3x3_reduce
I0403 15:33:35.806481 32262 net.cpp:425] inception_3a/relu_3x3_reduce <- inception_3a/3x3_reduce
I0403 15:33:35.806501 32262 net.cpp:386] inception_3a/relu_3x3_reduce -> inception_3a/3x3_reduce (in-place)
I0403 15:33:35.806674 32262 net.cpp:141] Setting up inception_3a/relu_3x3_reduce
I0403 15:33:35.806699 32262 net.cpp:148] Top shape: 24 96 28 28 (1806336)
I0403 15:33:35.806713 32262 net.cpp:156] Memory required for data: 515408928
I0403 15:33:35.806728 32262 layer_factory.hpp:77] Creating layer inception_3a/3x3
I0403 15:33:35.806751 32262 net.cpp:91] Creating Layer inception_3a/3x3
I0403 15:33:35.806768 32262 net.cpp:425] inception_3a/3x3 <- inception_3a/3x3_reduce
I0403 15:33:35.806788 32262 net.cpp:399] inception_3a/3x3 -> inception_3a/3x3
I0403 15:33:35.808377 32262 net.cpp:141] Setting up inception_3a/3x3
I0403 15:33:35.808408 32262 net.cpp:148] Top shape: 24 128 28 28 (2408448)
I0403 15:33:35.808424 32262 net.cpp:156] Memory required for data: 525042720
I0403 15:33:35.808444 32262 layer_factory.hpp:77] Creating layer inception_3a/relu_3x3
I0403 15:33:35.808464 32262 net.cpp:91] Creating Layer inception_3a/relu_3x3
I0403 15:33:35.808480 32262 net.cpp:425] inception_3a/relu_3x3 <- inception_3a/3x3
I0403 15:33:35.808496 32262 net.cpp:386] inception_3a/relu_3x3 -> inception_3a/3x3 (in-place)
I0403 15:33:35.808761 32262 net.cpp:141] Setting up inception_3a/relu_3x3
I0403 15:33:35.808789 32262 net.cpp:148] Top shape: 24 128 28 28 (2408448)
I0403 15:33:35.808806 32262 net.cpp:156] Memory required for data: 534676512
I0403 15:33:35.808821 32262 layer_factory.hpp:77] Creating layer inception_3a/5x5_reduce
I0403 15:33:35.808843 32262 net.cpp:91] Creating Layer inception_3a/5x5_reduce
I0403 15:33:35.808861 32262 net.cpp:425] inception_3a/5x5_reduce <- pool2/3x3_s2_pool2/3x3_s2_0_split_2
I0403 15:33:35.808881 32262 net.cpp:399] inception_3a/5x5_reduce -> inception_3a/5x5_reduce
I0403 15:33:35.809799 32262 net.cpp:141] Setting up inception_3a/5x5_reduce
I0403 15:33:35.809828 32262 net.cpp:148] Top shape: 24 16 28 28 (301056)
I0403 15:33:35.809844 32262 net.cpp:156] Memory required for data: 535880736
I0403 15:33:35.809861 32262 layer_factory.hpp:77] Creating layer inception_3a/relu_5x5_reduce
I0403 15:33:35.809880 32262 net.cpp:91] Creating Layer inception_3a/relu_5x5_reduce
I0403 15:33:35.809896 32262 net.cpp:425] inception_3a/relu_5x5_reduce <- inception_3a/5x5_reduce
I0403 15:33:35.809916 32262 net.cpp:386] inception_3a/relu_5x5_reduce -> inception_3a/5x5_reduce (in-place)
I0403 15:33:35.810190 32262 net.cpp:141] Setting up inception_3a/relu_5x5_reduce
I0403 15:33:35.810217 32262 net.cpp:148] Top shape: 24 16 28 28 (301056)
I0403 15:33:35.810233 32262 net.cpp:156] Memory required for data: 537084960
I0403 15:33:35.810248 32262 layer_factory.hpp:77] Creating layer inception_3a/5x5
I0403 15:33:35.810269 32262 net.cpp:91] Creating Layer inception_3a/5x5
I0403 15:33:35.810291 32262 net.cpp:425] inception_3a/5x5 <- inception_3a/5x5_reduce
I0403 15:33:35.810314 32262 net.cpp:399] inception_3a/5x5 -> inception_3a/5x5
I0403 15:33:35.811274 32262 net.cpp:141] Setting up inception_3a/5x5
I0403 15:33:35.811307 32262 net.cpp:148] Top shape: 24 32 28 28 (602112)
I0403 15:33:35.811324 32262 net.cpp:156] Memory required for data: 539493408
I0403 15:33:35.811342 32262 layer_factory.hpp:77] Creating layer inception_3a/relu_5x5
I0403 15:33:35.811360 32262 net.cpp:91] Creating Layer inception_3a/relu_5x5
I0403 15:33:35.811377 32262 net.cpp:425] inception_3a/relu_5x5 <- inception_3a/5x5
I0403 15:33:35.811393 32262 net.cpp:386] inception_3a/relu_5x5 -> inception_3a/5x5 (in-place)
I0403 15:33:35.811563 32262 net.cpp:141] Setting up inception_3a/relu_5x5
I0403 15:33:35.811588 32262 net.cpp:148] Top shape: 24 32 28 28 (602112)
I0403 15:33:35.811602 32262 net.cpp:156] Memory required for data: 541901856
I0403 15:33:35.811617 32262 layer_factory.hpp:77] Creating layer inception_3a/pool
I0403 15:33:35.811635 32262 net.cpp:91] Creating Layer inception_3a/pool
I0403 15:33:35.811650 32262 net.cpp:425] inception_3a/pool <- pool2/3x3_s2_pool2/3x3_s2_0_split_3
I0403 15:33:35.811683 32262 net.cpp:399] inception_3a/pool -> inception_3a/pool
I0403 15:33:35.811739 32262 net.cpp:141] Setting up inception_3a/pool
I0403 15:33:35.811765 32262 net.cpp:148] Top shape: 24 192 28 28 (3612672)
I0403 15:33:35.811782 32262 net.cpp:156] Memory required for data: 556352544
I0403 15:33:35.811797 32262 layer_factory.hpp:77] Creating layer inception_3a/pool_proj
I0403 15:33:35.811818 32262 net.cpp:91] Creating Layer inception_3a/pool_proj
I0403 15:33:35.811836 32262 net.cpp:425] inception_3a/pool_proj <- inception_3a/pool
I0403 15:33:35.811854 32262 net.cpp:399] inception_3a/pool_proj -> inception_3a/pool_proj
I0403 15:33:35.812773 32262 net.cpp:141] Setting up inception_3a/pool_proj
I0403 15:33:35.812800 32262 net.cpp:148] Top shape: 24 32 28 28 (602112)
I0403 15:33:35.812816 32262 net.cpp:156] Memory required for data: 558760992
I0403 15:33:35.812840 32262 layer_factory.hpp:77] Creating layer inception_3a/relu_pool_proj
I0403 15:33:35.812860 32262 net.cpp:91] Creating Layer inception_3a/relu_pool_proj
I0403 15:33:35.812875 32262 net.cpp:425] inception_3a/relu_pool_proj <- inception_3a/pool_proj
I0403 15:33:35.812893 32262 net.cpp:386] inception_3a/relu_pool_proj -> inception_3a/pool_proj (in-place)
I0403 15:33:35.813149 32262 net.cpp:141] Setting up inception_3a/relu_pool_proj
I0403 15:33:35.813177 32262 net.cpp:148] Top shape: 24 32 28 28 (602112)
I0403 15:33:35.813192 32262 net.cpp:156] Memory required for data: 561169440
I0403 15:33:35.813208 32262 layer_factory.hpp:77] Creating layer inception_3a/output
I0403 15:33:35.813225 32262 net.cpp:91] Creating Layer inception_3a/output
I0403 15:33:35.813241 32262 net.cpp:425] inception_3a/output <- inception_3a/1x1
I0403 15:33:35.813256 32262 net.cpp:425] inception_3a/output <- inception_3a/3x3
I0403 15:33:35.813271 32262 net.cpp:425] inception_3a/output <- inception_3a/5x5
I0403 15:33:35.813292 32262 net.cpp:425] inception_3a/output <- inception_3a/pool_proj
I0403 15:33:35.813310 32262 net.cpp:399] inception_3a/output -> inception_3a/output
I0403 15:33:35.813355 32262 net.cpp:141] Setting up inception_3a/output
I0403 15:33:35.813379 32262 net.cpp:148] Top shape: 24 256 28 28 (4816896)
I0403 15:33:35.813392 32262 net.cpp:156] Memory required for data: 580437024
I0403 15:33:35.813406 32262 layer_factory.hpp:77] Creating layer inception_3a/output_inception_3a/output_0_split
I0403 15:33:35.813424 32262 net.cpp:91] Creating Layer inception_3a/output_inception_3a/output_0_split
I0403 15:33:35.813439 32262 net.cpp:425] inception_3a/output_inception_3a/output_0_split <- inception_3a/output
I0403 15:33:35.813457 32262 net.cpp:399] inception_3a/output_inception_3a/output_0_split -> inception_3a/output_inception_3a/output_0_split_0
I0403 15:33:35.813474 32262 net.cpp:399] inception_3a/output_inception_3a/output_0_split -> inception_3a/output_inception_3a/output_0_split_1
I0403 15:33:35.813498 32262 net.cpp:399] inception_3a/output_inception_3a/output_0_split -> inception_3a/output_inception_3a/output_0_split_2
I0403 15:33:35.813519 32262 net.cpp:399] inception_3a/output_inception_3a/output_0_split -> inception_3a/output_inception_3a/output_0_split_3
I0403 15:33:35.813591 32262 net.cpp:141] Setting up inception_3a/output_inception_3a/output_0_split
I0403 15:33:35.813612 32262 net.cpp:148] Top shape: 24 256 28 28 (4816896)
I0403 15:33:35.813629 32262 net.cpp:148] Top shape: 24 256 28 28 (4816896)
I0403 15:33:35.813644 32262 net.cpp:148] Top shape: 24 256 28 28 (4816896)
I0403 15:33:35.813659 32262 net.cpp:148] Top shape: 24 256 28 28 (4816896)
I0403 15:33:35.813673 32262 net.cpp:156] Memory required for data: 657507360
I0403 15:33:35.813688 32262 layer_factory.hpp:77] Creating layer inception_3b/1x1
I0403 15:33:35.813710 32262 net.cpp:91] Creating Layer inception_3b/1x1
I0403 15:33:35.813727 32262 net.cpp:425] inception_3b/1x1 <- inception_3a/output_inception_3a/output_0_split_0
I0403 15:33:35.813745 32262 net.cpp:399] inception_3b/1x1 -> inception_3b/1x1
I0403 15:33:35.814808 32262 net.cpp:141] Setting up inception_3b/1x1
I0403 15:33:35.814846 32262 net.cpp:148] Top shape: 24 128 28 28 (2408448)
I0403 15:33:35.814862 32262 net.cpp:156] Memory required for data: 667141152
I0403 15:33:35.814882 32262 layer_factory.hpp:77] Creating layer inception_3b/relu_1x1
I0403 15:33:35.814900 32262 net.cpp:91] Creating Layer inception_3b/relu_1x1
I0403 15:33:35.814915 32262 net.cpp:425] inception_3b/relu_1x1 <- inception_3b/1x1
I0403 15:33:35.814932 32262 net.cpp:386] inception_3b/relu_1x1 -> inception_3b/1x1 (in-place)
I0403 15:33:35.815096 32262 net.cpp:141] Setting up inception_3b/relu_1x1
I0403 15:33:35.815122 32262 net.cpp:148] Top shape: 24 128 28 28 (2408448)
I0403 15:33:35.815138 32262 net.cpp:156] Memory required for data: 676774944
I0403 15:33:35.815153 32262 layer_factory.hpp:77] Creating layer inception_3b/3x3_reduce
I0403 15:33:35.815174 32262 net.cpp:91] Creating Layer inception_3b/3x3_reduce
I0403 15:33:35.815192 32262 net.cpp:425] inception_3b/3x3_reduce <- inception_3a/output_inception_3a/output_0_split_1
I0403 15:33:35.815212 32262 net.cpp:399] inception_3b/3x3_reduce -> inception_3b/3x3_reduce
I0403 15:33:35.816267 32262 net.cpp:141] Setting up inception_3b/3x3_reduce
I0403 15:33:35.816299 32262 net.cpp:148] Top shape: 24 128 28 28 (2408448)
I0403 15:33:35.816315 32262 net.cpp:156] Memory required for data: 686408736
I0403 15:33:35.816334 32262 layer_factory.hpp:77] Creating layer inception_3b/relu_3x3_reduce
I0403 15:33:35.816352 32262 net.cpp:91] Creating Layer inception_3b/relu_3x3_reduce
I0403 15:33:35.816370 32262 net.cpp:425] inception_3b/relu_3x3_reduce <- inception_3b/3x3_reduce
I0403 15:33:35.816387 32262 net.cpp:386] inception_3b/relu_3x3_reduce -> inception_3b/3x3_reduce (in-place)
I0403 15:33:35.816550 32262 net.cpp:141] Setting up inception_3b/relu_3x3_reduce
I0403 15:33:35.816577 32262 net.cpp:148] Top shape: 24 128 28 28 (2408448)
I0403 15:33:35.816591 32262 net.cpp:156] Memory required for data: 696042528
I0403 15:33:35.816606 32262 layer_factory.hpp:77] Creating layer inception_3b/3x3
I0403 15:33:35.816629 32262 net.cpp:91] Creating Layer inception_3b/3x3
I0403 15:33:35.816647 32262 net.cpp:425] inception_3b/3x3 <- inception_3b/3x3_reduce
I0403 15:33:35.816666 32262 net.cpp:399] inception_3b/3x3 -> inception_3b/3x3
I0403 15:33:35.819517 32262 net.cpp:141] Setting up inception_3b/3x3
I0403 15:33:35.819561 32262 net.cpp:148] Top shape: 24 192 28 28 (3612672)
I0403 15:33:35.819576 32262 net.cpp:156] Memory required for data: 710493216
I0403 15:33:35.819594 32262 layer_factory.hpp:77] Creating layer inception_3b/relu_3x3
I0403 15:33:35.819612 32262 net.cpp:91] Creating Layer inception_3b/relu_3x3
I0403 15:33:35.819628 32262 net.cpp:425] inception_3b/relu_3x3 <- inception_3b/3x3
I0403 15:33:35.819645 32262 net.cpp:386] inception_3b/relu_3x3 -> inception_3b/3x3 (in-place)
I0403 15:33:35.819906 32262 net.cpp:141] Setting up inception_3b/relu_3x3
I0403 15:33:35.819933 32262 net.cpp:148] Top shape: 24 192 28 28 (3612672)
I0403 15:33:35.819949 32262 net.cpp:156] Memory required for data: 724943904
I0403 15:33:35.819964 32262 layer_factory.hpp:77] Creating layer inception_3b/5x5_reduce
I0403 15:33:35.819985 32262 net.cpp:91] Creating Layer inception_3b/5x5_reduce
I0403 15:33:35.820003 32262 net.cpp:425] inception_3b/5x5_reduce <- inception_3a/output_inception_3a/output_0_split_2
I0403 15:33:35.820022 32262 net.cpp:399] inception_3b/5x5_reduce -> inception_3b/5x5_reduce
I0403 15:33:35.820946 32262 net.cpp:141] Setting up inception_3b/5x5_reduce
I0403 15:33:35.820976 32262 net.cpp:148] Top shape: 24 32 28 28 (602112)
I0403 15:33:35.820991 32262 net.cpp:156] Memory required for data: 727352352
I0403 15:33:35.821008 32262 layer_factory.hpp:77] Creating layer inception_3b/relu_5x5_reduce
I0403 15:33:35.821027 32262 net.cpp:91] Creating Layer inception_3b/relu_5x5_reduce
I0403 15:33:35.821043 32262 net.cpp:425] inception_3b/relu_5x5_reduce <- inception_3b/5x5_reduce
I0403 15:33:35.821060 32262 net.cpp:386] inception_3b/relu_5x5_reduce -> inception_3b/5x5_reduce (in-place)
I0403 15:33:35.821223 32262 net.cpp:141] Setting up inception_3b/relu_5x5_reduce
I0403 15:33:35.821259 32262 net.cpp:148] Top shape: 24 32 28 28 (602112)
I0403 15:33:35.821274 32262 net.cpp:156] Memory required for data: 729760800
I0403 15:33:35.821295 32262 layer_factory.hpp:77] Creating layer inception_3b/5x5
I0403 15:33:35.821317 32262 net.cpp:91] Creating Layer inception_3b/5x5
I0403 15:33:35.821334 32262 net.cpp:425] inception_3b/5x5 <- inception_3b/5x5_reduce
I0403 15:33:35.821353 32262 net.cpp:399] inception_3b/5x5 -> inception_3b/5x5
I0403 15:33:35.823192 32262 net.cpp:141] Setting up inception_3b/5x5
I0403 15:33:35.823221 32262 net.cpp:148] Top shape: 24 96 28 28 (1806336)
I0403 15:33:35.823236 32262 net.cpp:156] Memory required for data: 736986144
I0403 15:33:35.823256 32262 layer_factory.hpp:77] Creating layer inception_3b/relu_5x5
I0403 15:33:35.823276 32262 net.cpp:91] Creating Layer inception_3b/relu_5x5
I0403 15:33:35.823297 32262 net.cpp:425] inception_3b/relu_5x5 <- inception_3b/5x5
I0403 15:33:35.823315 32262 net.cpp:386] inception_3b/relu_5x5 -> inception_3b/5x5 (in-place)
I0403 15:33:35.823494 32262 net.cpp:141] Setting up inception_3b/relu_5x5
I0403 15:33:35.823518 32262 net.cpp:148] Top shape: 24 96 28 28 (1806336)
I0403 15:33:35.823534 32262 net.cpp:156] Memory required for data: 744211488
I0403 15:33:35.823549 32262 layer_factory.hpp:77] Creating layer inception_3b/pool
I0403 15:33:35.823565 32262 net.cpp:91] Creating Layer inception_3b/pool
I0403 15:33:35.823580 32262 net.cpp:425] inception_3b/pool <- inception_3a/output_inception_3a/output_0_split_3
I0403 15:33:35.823596 32262 net.cpp:399] inception_3b/pool -> inception_3b/pool
I0403 15:33:35.823649 32262 net.cpp:141] Setting up inception_3b/pool
I0403 15:33:35.823671 32262 net.cpp:148] Top shape: 24 256 28 28 (4816896)
I0403 15:33:35.823686 32262 net.cpp:156] Memory required for data: 763479072
I0403 15:33:35.823700 32262 layer_factory.hpp:77] Creating layer inception_3b/pool_proj
I0403 15:33:35.823721 32262 net.cpp:91] Creating Layer inception_3b/pool_proj
I0403 15:33:35.823739 32262 net.cpp:425] inception_3b/pool_proj <- inception_3b/pool
I0403 15:33:35.823758 32262 net.cpp:399] inception_3b/pool_proj -> inception_3b/pool_proj
I0403 15:33:35.824751 32262 net.cpp:141] Setting up inception_3b/pool_proj
I0403 15:33:35.824779 32262 net.cpp:148] Top shape: 24 64 28 28 (1204224)
I0403 15:33:35.824795 32262 net.cpp:156] Memory required for data: 768295968
I0403 15:33:35.824813 32262 layer_factory.hpp:77] Creating layer inception_3b/relu_pool_proj
I0403 15:33:35.824832 32262 net.cpp:91] Creating Layer inception_3b/relu_pool_proj
I0403 15:33:35.824849 32262 net.cpp:425] inception_3b/relu_pool_proj <- inception_3b/pool_proj
I0403 15:33:35.824867 32262 net.cpp:386] inception_3b/relu_pool_proj -> inception_3b/pool_proj (in-place)
I0403 15:33:35.825230 32262 net.cpp:141] Setting up inception_3b/relu_pool_proj
I0403 15:33:35.825256 32262 net.cpp:148] Top shape: 24 64 28 28 (1204224)
I0403 15:33:35.825271 32262 net.cpp:156] Memory required for data: 773112864
I0403 15:33:35.825289 32262 layer_factory.hpp:77] Creating layer inception_3b/output
I0403 15:33:35.825309 32262 net.cpp:91] Creating Layer inception_3b/output
I0403 15:33:35.825323 32262 net.cpp:425] inception_3b/output <- inception_3b/1x1
I0403 15:33:35.825340 32262 net.cpp:425] inception_3b/output <- inception_3b/3x3
I0403 15:33:35.825356 32262 net.cpp:425] inception_3b/output <- inception_3b/5x5
I0403 15:33:35.825372 32262 net.cpp:425] inception_3b/output <- inception_3b/pool_proj
I0403 15:33:35.825392 32262 net.cpp:399] inception_3b/output -> inception_3b/output
I0403 15:33:35.825433 32262 net.cpp:141] Setting up inception_3b/output
I0403 15:33:35.825459 32262 net.cpp:148] Top shape: 24 480 28 28 (9031680)
I0403 15:33:35.825474 32262 net.cpp:156] Memory required for data: 809239584
I0403 15:33:35.825489 32262 layer_factory.hpp:77] Creating layer pool3/3x3_s2
I0403 15:33:35.825505 32262 net.cpp:91] Creating Layer pool3/3x3_s2
I0403 15:33:35.825520 32262 net.cpp:425] pool3/3x3_s2 <- inception_3b/output
I0403 15:33:35.825536 32262 net.cpp:399] pool3/3x3_s2 -> pool3/3x3_s2
I0403 15:33:35.825606 32262 net.cpp:141] Setting up pool3/3x3_s2
I0403 15:33:35.825629 32262 net.cpp:148] Top shape: 24 480 14 14 (2257920)
I0403 15:33:35.825644 32262 net.cpp:156] Memory required for data: 818271264
I0403 15:33:35.825659 32262 layer_factory.hpp:77] Creating layer pool3/3x3_s2_pool3/3x3_s2_0_split
I0403 15:33:35.825675 32262 net.cpp:91] Creating Layer pool3/3x3_s2_pool3/3x3_s2_0_split
I0403 15:33:35.825690 32262 net.cpp:425] pool3/3x3_s2_pool3/3x3_s2_0_split <- pool3/3x3_s2
I0403 15:33:35.825708 32262 net.cpp:399] pool3/3x3_s2_pool3/3x3_s2_0_split -> pool3/3x3_s2_pool3/3x3_s2_0_split_0
I0403 15:33:35.825726 32262 net.cpp:399] pool3/3x3_s2_pool3/3x3_s2_0_split -> pool3/3x3_s2_pool3/3x3_s2_0_split_1
I0403 15:33:35.825747 32262 net.cpp:399] pool3/3x3_s2_pool3/3x3_s2_0_split -> pool3/3x3_s2_pool3/3x3_s2_0_split_2
I0403 15:33:35.825767 32262 net.cpp:399] pool3/3x3_s2_pool3/3x3_s2_0_split -> pool3/3x3_s2_pool3/3x3_s2_0_split_3
I0403 15:33:35.825841 32262 net.cpp:141] Setting up pool3/3x3_s2_pool3/3x3_s2_0_split
I0403 15:33:35.825863 32262 net.cpp:148] Top shape: 24 480 14 14 (2257920)
I0403 15:33:35.825880 32262 net.cpp:148] Top shape: 24 480 14 14 (2257920)
I0403 15:33:35.825894 32262 net.cpp:148] Top shape: 24 480 14 14 (2257920)
I0403 15:33:35.825909 32262 net.cpp:148] Top shape: 24 480 14 14 (2257920)
I0403 15:33:35.825922 32262 net.cpp:156] Memory required for data: 854397984
I0403 15:33:35.825937 32262 layer_factory.hpp:77] Creating layer inception_4a/1x1
I0403 15:33:35.825958 32262 net.cpp:91] Creating Layer inception_4a/1x1
I0403 15:33:35.825974 32262 net.cpp:425] inception_4a/1x1 <- pool3/3x3_s2_pool3/3x3_s2_0_split_0
I0403 15:33:35.825994 32262 net.cpp:399] inception_4a/1x1 -> inception_4a/1x1
I0403 15:33:35.827467 32262 net.cpp:141] Setting up inception_4a/1x1
I0403 15:33:35.827496 32262 net.cpp:148] Top shape: 24 192 14 14 (903168)
I0403 15:33:35.827510 32262 net.cpp:156] Memory required for data: 858010656
I0403 15:33:35.827528 32262 layer_factory.hpp:77] Creating layer inception_4a/relu_1x1
I0403 15:33:35.827548 32262 net.cpp:91] Creating Layer inception_4a/relu_1x1
I0403 15:33:35.827564 32262 net.cpp:425] inception_4a/relu_1x1 <- inception_4a/1x1
I0403 15:33:35.827582 32262 net.cpp:386] inception_4a/relu_1x1 -> inception_4a/1x1 (in-place)
I0403 15:33:35.827745 32262 net.cpp:141] Setting up inception_4a/relu_1x1
I0403 15:33:35.827769 32262 net.cpp:148] Top shape: 24 192 14 14 (903168)
I0403 15:33:35.827782 32262 net.cpp:156] Memory required for data: 861623328
I0403 15:33:35.827797 32262 layer_factory.hpp:77] Creating layer inception_4a/3x3_reduce
I0403 15:33:35.827832 32262 net.cpp:91] Creating Layer inception_4a/3x3_reduce
I0403 15:33:35.827850 32262 net.cpp:425] inception_4a/3x3_reduce <- pool3/3x3_s2_pool3/3x3_s2_0_split_1
I0403 15:33:35.827869 32262 net.cpp:399] inception_4a/3x3_reduce -> inception_4a/3x3_reduce
I0403 15:33:35.829119 32262 net.cpp:141] Setting up inception_4a/3x3_reduce
I0403 15:33:35.829146 32262 net.cpp:148] Top shape: 24 96 14 14 (451584)
I0403 15:33:35.829161 32262 net.cpp:156] Memory required for data: 863429664
I0403 15:33:35.829185 32262 layer_factory.hpp:77] Creating layer inception_4a/relu_3x3_reduce
I0403 15:33:35.829205 32262 net.cpp:91] Creating Layer inception_4a/relu_3x3_reduce
I0403 15:33:35.829221 32262 net.cpp:425] inception_4a/relu_3x3_reduce <- inception_4a/3x3_reduce
I0403 15:33:35.829241 32262 net.cpp:386] inception_4a/relu_3x3_reduce -> inception_4a/3x3_reduce (in-place)
I0403 15:33:35.829416 32262 net.cpp:141] Setting up inception_4a/relu_3x3_reduce
I0403 15:33:35.829440 32262 net.cpp:148] Top shape: 24 96 14 14 (451584)
I0403 15:33:35.829455 32262 net.cpp:156] Memory required for data: 865236000
I0403 15:33:35.829470 32262 layer_factory.hpp:77] Creating layer inception_4a/3x3
I0403 15:33:35.829493 32262 net.cpp:91] Creating Layer inception_4a/3x3
I0403 15:33:35.829509 32262 net.cpp:425] inception_4a/3x3 <- inception_4a/3x3_reduce
I0403 15:33:35.829530 32262 net.cpp:399] inception_4a/3x3 -> inception_4a/3x3
I0403 15:33:35.832113 32262 net.cpp:141] Setting up inception_4a/3x3
I0403 15:33:35.832141 32262 net.cpp:148] Top shape: 24 208 14 14 (978432)
I0403 15:33:35.832159 32262 net.cpp:156] Memory required for data: 869149728
I0403 15:33:35.832176 32262 layer_factory.hpp:77] Creating layer inception_4a/relu_3x3
I0403 15:33:35.832196 32262 net.cpp:91] Creating Layer inception_4a/relu_3x3
I0403 15:33:35.832213 32262 net.cpp:425] inception_4a/relu_3x3 <- inception_4a/3x3
I0403 15:33:35.832231 32262 net.cpp:386] inception_4a/relu_3x3 -> inception_4a/3x3 (in-place)
I0403 15:33:35.832505 32262 net.cpp:141] Setting up inception_4a/relu_3x3
I0403 15:33:35.832531 32262 net.cpp:148] Top shape: 24 208 14 14 (978432)
I0403 15:33:35.832546 32262 net.cpp:156] Memory required for data: 873063456
I0403 15:33:35.832562 32262 layer_factory.hpp:77] Creating layer inception_4a/5x5_reduce
I0403 15:33:35.832584 32262 net.cpp:91] Creating Layer inception_4a/5x5_reduce
I0403 15:33:35.832602 32262 net.cpp:425] inception_4a/5x5_reduce <- pool3/3x3_s2_pool3/3x3_s2_0_split_2
I0403 15:33:35.832623 32262 net.cpp:399] inception_4a/5x5_reduce -> inception_4a/5x5_reduce
I0403 15:33:35.833597 32262 net.cpp:141] Setting up inception_4a/5x5_reduce
I0403 15:33:35.833626 32262 net.cpp:148] Top shape: 24 16 14 14 (75264)
I0403 15:33:35.833643 32262 net.cpp:156] Memory required for data: 873364512
I0403 15:33:35.833662 32262 layer_factory.hpp:77] Creating layer inception_4a/relu_5x5_reduce
I0403 15:33:35.833681 32262 net.cpp:91] Creating Layer inception_4a/relu_5x5_reduce
I0403 15:33:35.833696 32262 net.cpp:425] inception_4a/relu_5x5_reduce <- inception_4a/5x5_reduce
I0403 15:33:35.833714 32262 net.cpp:386] inception_4a/relu_5x5_reduce -> inception_4a/5x5_reduce (in-place)
I0403 15:33:35.833885 32262 net.cpp:141] Setting up inception_4a/relu_5x5_reduce
I0403 15:33:35.833910 32262 net.cpp:148] Top shape: 24 16 14 14 (75264)
I0403 15:33:35.833925 32262 net.cpp:156] Memory required for data: 873665568
I0403 15:33:35.833940 32262 layer_factory.hpp:77] Creating layer inception_4a/5x5
I0403 15:33:35.833962 32262 net.cpp:91] Creating Layer inception_4a/5x5
I0403 15:33:35.833981 32262 net.cpp:425] inception_4a/5x5 <- inception_4a/5x5_reduce
I0403 15:33:35.834002 32262 net.cpp:399] inception_4a/5x5 -> inception_4a/5x5
I0403 15:33:35.835058 32262 net.cpp:141] Setting up inception_4a/5x5
I0403 15:33:35.835085 32262 net.cpp:148] Top shape: 24 48 14 14 (225792)
I0403 15:33:35.835101 32262 net.cpp:156] Memory required for data: 874568736
I0403 15:33:35.835119 32262 layer_factory.hpp:77] Creating layer inception_4a/relu_5x5
I0403 15:33:35.835137 32262 net.cpp:91] Creating Layer inception_4a/relu_5x5
I0403 15:33:35.835153 32262 net.cpp:425] inception_4a/relu_5x5 <- inception_4a/5x5
I0403 15:33:35.835172 32262 net.cpp:386] inception_4a/relu_5x5 -> inception_4a/5x5 (in-place)
I0403 15:33:35.835347 32262 net.cpp:141] Setting up inception_4a/relu_5x5
I0403 15:33:35.835372 32262 net.cpp:148] Top shape: 24 48 14 14 (225792)
I0403 15:33:35.835387 32262 net.cpp:156] Memory required for data: 875471904
I0403 15:33:35.835402 32262 layer_factory.hpp:77] Creating layer inception_4a/pool
I0403 15:33:35.835424 32262 net.cpp:91] Creating Layer inception_4a/pool
I0403 15:33:35.835441 32262 net.cpp:425] inception_4a/pool <- pool3/3x3_s2_pool3/3x3_s2_0_split_3
I0403 15:33:35.835460 32262 net.cpp:399] inception_4a/pool -> inception_4a/pool
I0403 15:33:35.835520 32262 net.cpp:141] Setting up inception_4a/pool
I0403 15:33:35.835543 32262 net.cpp:148] Top shape: 24 480 14 14 (2257920)
I0403 15:33:35.835558 32262 net.cpp:156] Memory required for data: 884503584
I0403 15:33:35.835574 32262 layer_factory.hpp:77] Creating layer inception_4a/pool_proj
I0403 15:33:35.835597 32262 net.cpp:91] Creating Layer inception_4a/pool_proj
I0403 15:33:35.835615 32262 net.cpp:425] inception_4a/pool_proj <- inception_4a/pool
I0403 15:33:35.835635 32262 net.cpp:399] inception_4a/pool_proj -> inception_4a/pool_proj
I0403 15:33:35.836743 32262 net.cpp:141] Setting up inception_4a/pool_proj
I0403 15:33:35.836772 32262 net.cpp:148] Top shape: 24 64 14 14 (301056)
I0403 15:33:35.836802 32262 net.cpp:156] Memory required for data: 885707808
I0403 15:33:35.836822 32262 layer_factory.hpp:77] Creating layer inception_4a/relu_pool_proj
I0403 15:33:35.836843 32262 net.cpp:91] Creating Layer inception_4a/relu_pool_proj
I0403 15:33:35.836861 32262 net.cpp:425] inception_4a/relu_pool_proj <- inception_4a/pool_proj
I0403 15:33:35.836879 32262 net.cpp:386] inception_4a/relu_pool_proj -> inception_4a/pool_proj (in-place)
I0403 15:33:35.837149 32262 net.cpp:141] Setting up inception_4a/relu_pool_proj
I0403 15:33:35.837175 32262 net.cpp:148] Top shape: 24 64 14 14 (301056)
I0403 15:33:35.837190 32262 net.cpp:156] Memory required for data: 886912032
I0403 15:33:35.837204 32262 layer_factory.hpp:77] Creating layer inception_4a/output
I0403 15:33:35.837221 32262 net.cpp:91] Creating Layer inception_4a/output
I0403 15:33:35.837236 32262 net.cpp:425] inception_4a/output <- inception_4a/1x1
I0403 15:33:35.837251 32262 net.cpp:425] inception_4a/output <- inception_4a/3x3
I0403 15:33:35.837267 32262 net.cpp:425] inception_4a/output <- inception_4a/5x5
I0403 15:33:35.837286 32262 net.cpp:425] inception_4a/output <- inception_4a/pool_proj
I0403 15:33:35.837308 32262 net.cpp:399] inception_4a/output -> inception_4a/output
I0403 15:33:35.837352 32262 net.cpp:141] Setting up inception_4a/output
I0403 15:33:35.837378 32262 net.cpp:148] Top shape: 24 512 14 14 (2408448)
I0403 15:33:35.837393 32262 net.cpp:156] Memory required for data: 896545824
I0403 15:33:35.837407 32262 layer_factory.hpp:77] Creating layer inception_4a/output_inception_4a/output_0_split
I0403 15:33:35.837424 32262 net.cpp:91] Creating Layer inception_4a/output_inception_4a/output_0_split
I0403 15:33:35.837440 32262 net.cpp:425] inception_4a/output_inception_4a/output_0_split <- inception_4a/output
I0403 15:33:35.837460 32262 net.cpp:399] inception_4a/output_inception_4a/output_0_split -> inception_4a/output_inception_4a/output_0_split_0
I0403 15:33:35.837481 32262 net.cpp:399] inception_4a/output_inception_4a/output_0_split -> inception_4a/output_inception_4a/output_0_split_1
I0403 15:33:35.837502 32262 net.cpp:399] inception_4a/output_inception_4a/output_0_split -> inception_4a/output_inception_4a/output_0_split_2
I0403 15:33:35.837522 32262 net.cpp:399] inception_4a/output_inception_4a/output_0_split -> inception_4a/output_inception_4a/output_0_split_3
I0403 15:33:35.837543 32262 net.cpp:399] inception_4a/output_inception_4a/output_0_split -> inception_4a/output_inception_4a/output_0_split_4
I0403 15:33:35.837631 32262 net.cpp:141] Setting up inception_4a/output_inception_4a/output_0_split
I0403 15:33:35.837658 32262 net.cpp:148] Top shape: 24 512 14 14 (2408448)
I0403 15:33:35.837676 32262 net.cpp:148] Top shape: 24 512 14 14 (2408448)
I0403 15:33:35.837692 32262 net.cpp:148] Top shape: 24 512 14 14 (2408448)
I0403 15:33:35.837707 32262 net.cpp:148] Top shape: 24 512 14 14 (2408448)
I0403 15:33:35.837721 32262 net.cpp:148] Top shape: 24 512 14 14 (2408448)
I0403 15:33:35.837735 32262 net.cpp:156] Memory required for data: 944714784
I0403 15:33:35.837750 32262 layer_factory.hpp:77] Creating layer loss1/ave_pool
I0403 15:33:35.837767 32262 net.cpp:91] Creating Layer loss1/ave_pool
I0403 15:33:35.837782 32262 net.cpp:425] loss1/ave_pool <- inception_4a/output_inception_4a/output_0_split_0
I0403 15:33:35.837800 32262 net.cpp:399] loss1/ave_pool -> loss1/ave_pool
I0403 15:33:35.837995 32262 net.cpp:141] Setting up loss1/ave_pool
I0403 15:33:35.838021 32262 net.cpp:148] Top shape: 24 512 4 4 (196608)
I0403 15:33:35.838035 32262 net.cpp:156] Memory required for data: 945501216
I0403 15:33:35.838050 32262 layer_factory.hpp:77] Creating layer loss1/conv
I0403 15:33:35.838071 32262 net.cpp:91] Creating Layer loss1/conv
I0403 15:33:35.838088 32262 net.cpp:425] loss1/conv <- loss1/ave_pool
I0403 15:33:35.838112 32262 net.cpp:399] loss1/conv -> loss1/conv
I0403 15:33:35.839486 32262 net.cpp:141] Setting up loss1/conv
I0403 15:33:35.839514 32262 net.cpp:148] Top shape: 24 128 4 4 (49152)
I0403 15:33:35.839531 32262 net.cpp:156] Memory required for data: 945697824
I0403 15:33:35.839565 32262 layer_factory.hpp:77] Creating layer loss1/relu_conv
I0403 15:33:35.839584 32262 net.cpp:91] Creating Layer loss1/relu_conv
I0403 15:33:35.839601 32262 net.cpp:425] loss1/relu_conv <- loss1/conv
I0403 15:33:35.839617 32262 net.cpp:386] loss1/relu_conv -> loss1/conv (in-place)
I0403 15:33:35.839881 32262 net.cpp:141] Setting up loss1/relu_conv
I0403 15:33:35.839906 32262 net.cpp:148] Top shape: 24 128 4 4 (49152)
I0403 15:33:35.839926 32262 net.cpp:156] Memory required for data: 945894432
I0403 15:33:35.839941 32262 layer_factory.hpp:77] Creating layer loss1/fc
I0403 15:33:35.839962 32262 net.cpp:91] Creating Layer loss1/fc
I0403 15:33:35.839980 32262 net.cpp:425] loss1/fc <- loss1/conv
I0403 15:33:35.840000 32262 net.cpp:399] loss1/fc -> loss1/fc
I0403 15:33:35.856819 32262 net.cpp:141] Setting up loss1/fc
I0403 15:33:35.856863 32262 net.cpp:148] Top shape: 24 1024 (24576)
I0403 15:33:35.856878 32262 net.cpp:156] Memory required for data: 945992736
I0403 15:33:35.856895 32262 layer_factory.hpp:77] Creating layer loss1/relu_fc
I0403 15:33:35.856916 32262 net.cpp:91] Creating Layer loss1/relu_fc
I0403 15:33:35.856933 32262 net.cpp:425] loss1/relu_fc <- loss1/fc
I0403 15:33:35.856950 32262 net.cpp:386] loss1/relu_fc -> loss1/fc (in-place)
I0403 15:33:35.857123 32262 net.cpp:141] Setting up loss1/relu_fc
I0403 15:33:35.857147 32262 net.cpp:148] Top shape: 24 1024 (24576)
I0403 15:33:35.857161 32262 net.cpp:156] Memory required for data: 946091040
I0403 15:33:35.857177 32262 layer_factory.hpp:77] Creating layer loss1/drop_fc
I0403 15:33:35.857202 32262 net.cpp:91] Creating Layer loss1/drop_fc
I0403 15:33:35.857219 32262 net.cpp:425] loss1/drop_fc <- loss1/fc
I0403 15:33:35.857236 32262 net.cpp:386] loss1/drop_fc -> loss1/fc (in-place)
I0403 15:33:35.857286 32262 net.cpp:141] Setting up loss1/drop_fc
I0403 15:33:35.857316 32262 net.cpp:148] Top shape: 24 1024 (24576)
I0403 15:33:35.857331 32262 net.cpp:156] Memory required for data: 946189344
I0403 15:33:35.857345 32262 layer_factory.hpp:77] Creating layer loss1/classifier_plantvillage
I0403 15:33:35.857363 32262 net.cpp:91] Creating Layer loss1/classifier_plantvillage
I0403 15:33:35.857378 32262 net.cpp:425] loss1/classifier_plantvillage <- loss1/fc
I0403 15:33:35.857398 32262 net.cpp:399] loss1/classifier_plantvillage -> loss1/classifier_plantvillage
I0403 15:33:35.858250 32262 net.cpp:141] Setting up loss1/classifier_plantvillage
I0403 15:33:35.858279 32262 net.cpp:148] Top shape: 24 38 (912)
I0403 15:33:35.858300 32262 net.cpp:156] Memory required for data: 946192992
I0403 15:33:35.858319 32262 layer_factory.hpp:77] Creating layer loss1/classifier_plantvillage_loss1/classifier_plantvillage_0_split
I0403 15:33:35.858335 32262 net.cpp:91] Creating Layer loss1/classifier_plantvillage_loss1/classifier_plantvillage_0_split
I0403 15:33:35.858350 32262 net.cpp:425] loss1/classifier_plantvillage_loss1/classifier_plantvillage_0_split <- loss1/classifier_plantvillage
I0403 15:33:35.858366 32262 net.cpp:399] loss1/classifier_plantvillage_loss1/classifier_plantvillage_0_split -> loss1/classifier_plantvillage_loss1/classifier_plantvillage_0_split_0
I0403 15:33:35.858386 32262 net.cpp:399] loss1/classifier_plantvillage_loss1/classifier_plantvillage_0_split -> loss1/classifier_plantvillage_loss1/classifier_plantvillage_0_split_1
I0403 15:33:35.858404 32262 net.cpp:399] loss1/classifier_plantvillage_loss1/classifier_plantvillage_0_split -> loss1/classifier_plantvillage_loss1/classifier_plantvillage_0_split_2
I0403 15:33:35.858467 32262 net.cpp:141] Setting up loss1/classifier_plantvillage_loss1/classifier_plantvillage_0_split
I0403 15:33:35.858490 32262 net.cpp:148] Top shape: 24 38 (912)
I0403 15:33:35.858506 32262 net.cpp:148] Top shape: 24 38 (912)
I0403 15:33:35.858521 32262 net.cpp:148] Top shape: 24 38 (912)
I0403 15:33:35.858535 32262 net.cpp:156] Memory required for data: 946203936
I0403 15:33:35.858549 32262 layer_factory.hpp:77] Creating layer inception_4b/1x1
I0403 15:33:35.858568 32262 net.cpp:91] Creating Layer inception_4b/1x1
I0403 15:33:35.858600 32262 net.cpp:425] inception_4b/1x1 <- inception_4a/output_inception_4a/output_0_split_1
I0403 15:33:35.858621 32262 net.cpp:399] inception_4b/1x1 -> inception_4b/1x1
I0403 15:33:35.860158 32262 net.cpp:141] Setting up inception_4b/1x1
I0403 15:33:35.860189 32262 net.cpp:148] Top shape: 24 160 14 14 (752640)
I0403 15:33:35.860206 32262 net.cpp:156] Memory required for data: 949214496
I0403 15:33:35.860224 32262 layer_factory.hpp:77] Creating layer inception_4b/relu_1x1
I0403 15:33:35.860242 32262 net.cpp:91] Creating Layer inception_4b/relu_1x1
I0403 15:33:35.860260 32262 net.cpp:425] inception_4b/relu_1x1 <- inception_4b/1x1
I0403 15:33:35.860276 32262 net.cpp:386] inception_4b/relu_1x1 -> inception_4b/1x1 (in-place)
I0403 15:33:35.860460 32262 net.cpp:141] Setting up inception_4b/relu_1x1
I0403 15:33:35.860486 32262 net.cpp:148] Top shape: 24 160 14 14 (752640)
I0403 15:33:35.860502 32262 net.cpp:156] Memory required for data: 952225056
I0403 15:33:35.860517 32262 layer_factory.hpp:77] Creating layer inception_4b/3x3_reduce
I0403 15:33:35.860538 32262 net.cpp:91] Creating Layer inception_4b/3x3_reduce
I0403 15:33:35.860555 32262 net.cpp:425] inception_4b/3x3_reduce <- inception_4a/output_inception_4a/output_0_split_2
I0403 15:33:35.860579 32262 net.cpp:399] inception_4b/3x3_reduce -> inception_4b/3x3_reduce
I0403 15:33:35.861836 32262 net.cpp:141] Setting up inception_4b/3x3_reduce
I0403 15:33:35.861866 32262 net.cpp:148] Top shape: 24 112 14 14 (526848)
I0403 15:33:35.861882 32262 net.cpp:156] Memory required for data: 954332448
I0403 15:33:35.861901 32262 layer_factory.hpp:77] Creating layer inception_4b/relu_3x3_reduce
I0403 15:33:35.861918 32262 net.cpp:91] Creating Layer inception_4b/relu_3x3_reduce
I0403 15:33:35.861933 32262 net.cpp:425] inception_4b/relu_3x3_reduce <- inception_4b/3x3_reduce
I0403 15:33:35.861953 32262 net.cpp:386] inception_4b/relu_3x3_reduce -> inception_4b/3x3_reduce (in-place)
I0403 15:33:35.862221 32262 net.cpp:141] Setting up inception_4b/relu_3x3_reduce
I0403 15:33:35.862247 32262 net.cpp:148] Top shape: 24 112 14 14 (526848)
I0403 15:33:35.862263 32262 net.cpp:156] Memory required for data: 956439840
I0403 15:33:35.862277 32262 layer_factory.hpp:77] Creating layer inception_4b/3x3
I0403 15:33:35.862303 32262 net.cpp:91] Creating Layer inception_4b/3x3
I0403 15:33:35.862323 32262 net.cpp:425] inception_4b/3x3 <- inception_4b/3x3_reduce
I0403 15:33:35.862340 32262 net.cpp:399] inception_4b/3x3 -> inception_4b/3x3
I0403 15:33:35.865151 32262 net.cpp:141] Setting up inception_4b/3x3
I0403 15:33:35.865180 32262 net.cpp:148] Top shape: 24 224 14 14 (1053696)
I0403 15:33:35.865195 32262 net.cpp:156] Memory required for data: 960654624
I0403 15:33:35.865212 32262 layer_factory.hpp:77] Creating layer inception_4b/relu_3x3
I0403 15:33:35.865232 32262 net.cpp:91] Creating Layer inception_4b/relu_3x3
I0403 15:33:35.865249 32262 net.cpp:425] inception_4b/relu_3x3 <- inception_4b/3x3
I0403 15:33:35.865267 32262 net.cpp:386] inception_4b/relu_3x3 -> inception_4b/3x3 (in-place)
I0403 15:33:35.865442 32262 net.cpp:141] Setting up inception_4b/relu_3x3
I0403 15:33:35.865466 32262 net.cpp:148] Top shape: 24 224 14 14 (1053696)
I0403 15:33:35.865480 32262 net.cpp:156] Memory required for data: 964869408
I0403 15:33:35.865495 32262 layer_factory.hpp:77] Creating layer inception_4b/5x5_reduce
I0403 15:33:35.865519 32262 net.cpp:91] Creating Layer inception_4b/5x5_reduce
I0403 15:33:35.865535 32262 net.cpp:425] inception_4b/5x5_reduce <- inception_4a/output_inception_4a/output_0_split_3
I0403 15:33:35.865553 32262 net.cpp:399] inception_4b/5x5_reduce -> inception_4b/5x5_reduce
I0403 15:33:35.866569 32262 net.cpp:141] Setting up inception_4b/5x5_reduce
I0403 15:33:35.866597 32262 net.cpp:148] Top shape: 24 24 14 14 (112896)
I0403 15:33:35.866613 32262 net.cpp:156] Memory required for data: 965320992
I0403 15:33:35.866632 32262 layer_factory.hpp:77] Creating layer inception_4b/relu_5x5_reduce
I0403 15:33:35.866649 32262 net.cpp:91] Creating Layer inception_4b/relu_5x5_reduce
I0403 15:33:35.866680 32262 net.cpp:425] inception_4b/relu_5x5_reduce <- inception_4b/5x5_reduce
I0403 15:33:35.866700 32262 net.cpp:386] inception_4b/relu_5x5_reduce -> inception_4b/5x5_reduce (in-place)
I0403 15:33:35.866873 32262 net.cpp:141] Setting up inception_4b/relu_5x5_reduce
I0403 15:33:35.866897 32262 net.cpp:148] Top shape: 24 24 14 14 (112896)
I0403 15:33:35.866912 32262 net.cpp:156] Memory required for data: 965772576
I0403 15:33:35.866927 32262 layer_factory.hpp:77] Creating layer inception_4b/5x5
I0403 15:33:35.866948 32262 net.cpp:91] Creating Layer inception_4b/5x5
I0403 15:33:35.866966 32262 net.cpp:425] inception_4b/5x5 <- inception_4b/5x5_reduce
I0403 15:33:35.866986 32262 net.cpp:399] inception_4b/5x5 -> inception_4b/5x5
I0403 15:33:35.868131 32262 net.cpp:141] Setting up inception_4b/5x5
I0403 15:33:35.868160 32262 net.cpp:148] Top shape: 24 64 14 14 (301056)
I0403 15:33:35.868176 32262 net.cpp:156] Memory required for data: 966976800
I0403 15:33:35.868194 32262 layer_factory.hpp:77] Creating layer inception_4b/relu_5x5
I0403 15:33:35.868212 32262 net.cpp:91] Creating Layer inception_4b/relu_5x5
I0403 15:33:35.868227 32262 net.cpp:425] inception_4b/relu_5x5 <- inception_4b/5x5
I0403 15:33:35.868243 32262 net.cpp:386] inception_4b/relu_5x5 -> inception_4b/5x5 (in-place)
I0403 15:33:35.868513 32262 net.cpp:141] Setting up inception_4b/relu_5x5
I0403 15:33:35.868544 32262 net.cpp:148] Top shape: 24 64 14 14 (301056)
I0403 15:33:35.868561 32262 net.cpp:156] Memory required for data: 968181024
I0403 15:33:35.868576 32262 layer_factory.hpp:77] Creating layer inception_4b/pool
I0403 15:33:35.868593 32262 net.cpp:91] Creating Layer inception_4b/pool
I0403 15:33:35.868609 32262 net.cpp:425] inception_4b/pool <- inception_4a/output_inception_4a/output_0_split_4
I0403 15:33:35.868626 32262 net.cpp:399] inception_4b/pool -> inception_4b/pool
I0403 15:33:35.868687 32262 net.cpp:141] Setting up inception_4b/pool
I0403 15:33:35.868710 32262 net.cpp:148] Top shape: 24 512 14 14 (2408448)
I0403 15:33:35.868724 32262 net.cpp:156] Memory required for data: 977814816
I0403 15:33:35.868737 32262 layer_factory.hpp:77] Creating layer inception_4b/pool_proj
I0403 15:33:35.868758 32262 net.cpp:91] Creating Layer inception_4b/pool_proj
I0403 15:33:35.868777 32262 net.cpp:425] inception_4b/pool_proj <- inception_4b/pool
I0403 15:33:35.868795 32262 net.cpp:399] inception_4b/pool_proj -> inception_4b/pool_proj
I0403 15:33:35.869917 32262 net.cpp:141] Setting up inception_4b/pool_proj
I0403 15:33:35.869947 32262 net.cpp:148] Top shape: 24 64 14 14 (301056)
I0403 15:33:35.869963 32262 net.cpp:156] Memory required for data: 979019040
I0403 15:33:35.869981 32262 layer_factory.hpp:77] Creating layer inception_4b/relu_pool_proj
I0403 15:33:35.869998 32262 net.cpp:91] Creating Layer inception_4b/relu_pool_proj
I0403 15:33:35.870013 32262 net.cpp:425] inception_4b/relu_pool_proj <- inception_4b/pool_proj
I0403 15:33:35.870030 32262 net.cpp:386] inception_4b/relu_pool_proj -> inception_4b/pool_proj (in-place)
I0403 15:33:35.870199 32262 net.cpp:141] Setting up inception_4b/relu_pool_proj
I0403 15:33:35.870223 32262 net.cpp:148] Top shape: 24 64 14 14 (301056)
I0403 15:33:35.870237 32262 net.cpp:156] Memory required for data: 980223264
I0403 15:33:35.870251 32262 layer_factory.hpp:77] Creating layer inception_4b/output
I0403 15:33:35.870268 32262 net.cpp:91] Creating Layer inception_4b/output
I0403 15:33:35.870286 32262 net.cpp:425] inception_4b/output <- inception_4b/1x1
I0403 15:33:35.870304 32262 net.cpp:425] inception_4b/output <- inception_4b/3x3
I0403 15:33:35.870321 32262 net.cpp:425] inception_4b/output <- inception_4b/5x5
I0403 15:33:35.870335 32262 net.cpp:425] inception_4b/output <- inception_4b/pool_proj
I0403 15:33:35.870354 32262 net.cpp:399] inception_4b/output -> inception_4b/output
I0403 15:33:35.870398 32262 net.cpp:141] Setting up inception_4b/output
I0403 15:33:35.870424 32262 net.cpp:148] Top shape: 24 512 14 14 (2408448)
I0403 15:33:35.870440 32262 net.cpp:156] Memory required for data: 989857056
I0403 15:33:35.870468 32262 layer_factory.hpp:77] Creating layer inception_4b/output_inception_4b/output_0_split
I0403 15:33:35.870486 32262 net.cpp:91] Creating Layer inception_4b/output_inception_4b/output_0_split
I0403 15:33:35.870501 32262 net.cpp:425] inception_4b/output_inception_4b/output_0_split <- inception_4b/output
I0403 15:33:35.870518 32262 net.cpp:399] inception_4b/output_inception_4b/output_0_split -> inception_4b/output_inception_4b/output_0_split_0
I0403 15:33:35.870543 32262 net.cpp:399] inception_4b/output_inception_4b/output_0_split -> inception_4b/output_inception_4b/output_0_split_1
I0403 15:33:35.870563 32262 net.cpp:399] inception_4b/output_inception_4b/output_0_split -> inception_4b/output_inception_4b/output_0_split_2
I0403 15:33:35.870582 32262 net.cpp:399] inception_4b/output_inception_4b/output_0_split -> inception_4b/output_inception_4b/output_0_split_3
I0403 15:33:35.870659 32262 net.cpp:141] Setting up inception_4b/output_inception_4b/output_0_split
I0403 15:33:35.870682 32262 net.cpp:148] Top shape: 24 512 14 14 (2408448)
I0403 15:33:35.870698 32262 net.cpp:148] Top shape: 24 512 14 14 (2408448)
I0403 15:33:35.870713 32262 net.cpp:148] Top shape: 24 512 14 14 (2408448)
I0403 15:33:35.870728 32262 net.cpp:148] Top shape: 24 512 14 14 (2408448)
I0403 15:33:35.870741 32262 net.cpp:156] Memory required for data: 1028392224
I0403 15:33:35.870755 32262 layer_factory.hpp:77] Creating layer inception_4c/1x1
I0403 15:33:35.870776 32262 net.cpp:91] Creating Layer inception_4c/1x1
I0403 15:33:35.870793 32262 net.cpp:425] inception_4c/1x1 <- inception_4b/output_inception_4b/output_0_split_0
I0403 15:33:35.870815 32262 net.cpp:399] inception_4c/1x1 -> inception_4c/1x1
I0403 15:33:35.872156 32262 net.cpp:141] Setting up inception_4c/1x1
I0403 15:33:35.872184 32262 net.cpp:148] Top shape: 24 128 14 14 (602112)
I0403 15:33:35.872200 32262 net.cpp:156] Memory required for data: 1030800672
I0403 15:33:35.872216 32262 layer_factory.hpp:77] Creating layer inception_4c/relu_1x1
I0403 15:33:35.872236 32262 net.cpp:91] Creating Layer inception_4c/relu_1x1
I0403 15:33:35.872252 32262 net.cpp:425] inception_4c/relu_1x1 <- inception_4c/1x1
I0403 15:33:35.872269 32262 net.cpp:386] inception_4c/relu_1x1 -> inception_4c/1x1 (in-place)
I0403 15:33:35.872439 32262 net.cpp:141] Setting up inception_4c/relu_1x1
I0403 15:33:35.872463 32262 net.cpp:148] Top shape: 24 128 14 14 (602112)
I0403 15:33:35.872478 32262 net.cpp:156] Memory required for data: 1033209120
I0403 15:33:35.872493 32262 layer_factory.hpp:77] Creating layer inception_4c/3x3_reduce
I0403 15:33:35.872514 32262 net.cpp:91] Creating Layer inception_4c/3x3_reduce
I0403 15:33:35.872530 32262 net.cpp:425] inception_4c/3x3_reduce <- inception_4b/output_inception_4b/output_0_split_1
I0403 15:33:35.872551 32262 net.cpp:399] inception_4c/3x3_reduce -> inception_4c/3x3_reduce
I0403 15:33:35.874380 32262 net.cpp:141] Setting up inception_4c/3x3_reduce
I0403 15:33:35.874408 32262 net.cpp:148] Top shape: 24 128 14 14 (602112)
I0403 15:33:35.874423 32262 net.cpp:156] Memory required for data: 1035617568
I0403 15:33:35.874441 32262 layer_factory.hpp:77] Creating layer inception_4c/relu_3x3_reduce
I0403 15:33:35.874460 32262 net.cpp:91] Creating Layer inception_4c/relu_3x3_reduce
I0403 15:33:35.874478 32262 net.cpp:425] inception_4c/relu_3x3_reduce <- inception_4c/3x3_reduce
I0403 15:33:35.874496 32262 net.cpp:386] inception_4c/relu_3x3_reduce -> inception_4c/3x3_reduce (in-place)
I0403 15:33:35.874768 32262 net.cpp:141] Setting up inception_4c/relu_3x3_reduce
I0403 15:33:35.874794 32262 net.cpp:148] Top shape: 24 128 14 14 (602112)
I0403 15:33:35.874807 32262 net.cpp:156] Memory required for data: 1038026016
I0403 15:33:35.874822 32262 layer_factory.hpp:77] Creating layer inception_4c/3x3
I0403 15:33:35.874846 32262 net.cpp:91] Creating Layer inception_4c/3x3
I0403 15:33:35.874863 32262 net.cpp:425] inception_4c/3x3 <- inception_4c/3x3_reduce
I0403 15:33:35.874881 32262 net.cpp:399] inception_4c/3x3 -> inception_4c/3x3
I0403 15:33:35.878271 32262 net.cpp:141] Setting up inception_4c/3x3
I0403 15:33:35.878317 32262 net.cpp:148] Top shape: 24 256 14 14 (1204224)
I0403 15:33:35.878335 32262 net.cpp:156] Memory required for data: 1042842912
I0403 15:33:35.878366 32262 layer_factory.hpp:77] Creating layer inception_4c/relu_3x3
I0403 15:33:35.878387 32262 net.cpp:91] Creating Layer inception_4c/relu_3x3
I0403 15:33:35.878402 32262 net.cpp:425] inception_4c/relu_3x3 <- inception_4c/3x3
I0403 15:33:35.878419 32262 net.cpp:386] inception_4c/relu_3x3 -> inception_4c/3x3 (in-place)
I0403 15:33:35.878590 32262 net.cpp:141] Setting up inception_4c/relu_3x3
I0403 15:33:35.878618 32262 net.cpp:148] Top shape: 24 256 14 14 (1204224)
I0403 15:33:35.878633 32262 net.cpp:156] Memory required for data: 1047659808
I0403 15:33:35.878648 32262 layer_factory.hpp:77] Creating layer inception_4c/5x5_reduce
I0403 15:33:35.878669 32262 net.cpp:91] Creating Layer inception_4c/5x5_reduce
I0403 15:33:35.878689 32262 net.cpp:425] inception_4c/5x5_reduce <- inception_4b/output_inception_4b/output_0_split_2
I0403 15:33:35.878707 32262 net.cpp:399] inception_4c/5x5_reduce -> inception_4c/5x5_reduce
I0403 15:33:35.879734 32262 net.cpp:141] Setting up inception_4c/5x5_reduce
I0403 15:33:35.879763 32262 net.cpp:148] Top shape: 24 24 14 14 (112896)
I0403 15:33:35.879779 32262 net.cpp:156] Memory required for data: 1048111392
I0403 15:33:35.879796 32262 layer_factory.hpp:77] Creating layer inception_4c/relu_5x5_reduce
I0403 15:33:35.879814 32262 net.cpp:91] Creating Layer inception_4c/relu_5x5_reduce
I0403 15:33:35.879832 32262 net.cpp:425] inception_4c/relu_5x5_reduce <- inception_4c/5x5_reduce
I0403 15:33:35.879851 32262 net.cpp:386] inception_4c/relu_5x5_reduce -> inception_4c/5x5_reduce (in-place)
I0403 15:33:35.880023 32262 net.cpp:141] Setting up inception_4c/relu_5x5_reduce
I0403 15:33:35.880046 32262 net.cpp:148] Top shape: 24 24 14 14 (112896)
I0403 15:33:35.880061 32262 net.cpp:156] Memory required for data: 1048562976
I0403 15:33:35.880075 32262 layer_factory.hpp:77] Creating layer inception_4c/5x5
I0403 15:33:35.880096 32262 net.cpp:91] Creating Layer inception_4c/5x5
I0403 15:33:35.880112 32262 net.cpp:425] inception_4c/5x5 <- inception_4c/5x5_reduce
I0403 15:33:35.880133 32262 net.cpp:399] inception_4c/5x5 -> inception_4c/5x5
I0403 15:33:35.881304 32262 net.cpp:141] Setting up inception_4c/5x5
I0403 15:33:35.881331 32262 net.cpp:148] Top shape: 24 64 14 14 (301056)
I0403 15:33:35.881346 32262 net.cpp:156] Memory required for data: 1049767200
I0403 15:33:35.881366 32262 layer_factory.hpp:77] Creating layer inception_4c/relu_5x5
I0403 15:33:35.881383 32262 net.cpp:91] Creating Layer inception_4c/relu_5x5
I0403 15:33:35.881402 32262 net.cpp:425] inception_4c/relu_5x5 <- inception_4c/5x5
I0403 15:33:35.881418 32262 net.cpp:386] inception_4c/relu_5x5 -> inception_4c/5x5 (in-place)
I0403 15:33:35.881687 32262 net.cpp:141] Setting up inception_4c/relu_5x5
I0403 15:33:35.881712 32262 net.cpp:148] Top shape: 24 64 14 14 (301056)
I0403 15:33:35.881727 32262 net.cpp:156] Memory required for data: 1050971424
I0403 15:33:35.881742 32262 layer_factory.hpp:77] Creating layer inception_4c/pool
I0403 15:33:35.881758 32262 net.cpp:91] Creating Layer inception_4c/pool
I0403 15:33:35.881773 32262 net.cpp:425] inception_4c/pool <- inception_4b/output_inception_4b/output_0_split_3
I0403 15:33:35.881793 32262 net.cpp:399] inception_4c/pool -> inception_4c/pool
I0403 15:33:35.881855 32262 net.cpp:141] Setting up inception_4c/pool
I0403 15:33:35.881880 32262 net.cpp:148] Top shape: 24 512 14 14 (2408448)
I0403 15:33:35.881896 32262 net.cpp:156] Memory required for data: 1060605216
I0403 15:33:35.881911 32262 layer_factory.hpp:77] Creating layer inception_4c/pool_proj
I0403 15:33:35.881932 32262 net.cpp:91] Creating Layer inception_4c/pool_proj
I0403 15:33:35.881948 32262 net.cpp:425] inception_4c/pool_proj <- inception_4c/pool
I0403 15:33:35.881968 32262 net.cpp:399] inception_4c/pool_proj -> inception_4c/pool_proj
I0403 15:33:35.883106 32262 net.cpp:141] Setting up inception_4c/pool_proj
I0403 15:33:35.883139 32262 net.cpp:148] Top shape: 24 64 14 14 (301056)
I0403 15:33:35.883168 32262 net.cpp:156] Memory required for data: 1061809440
I0403 15:33:35.883188 32262 layer_factory.hpp:77] Creating layer inception_4c/relu_pool_proj
I0403 15:33:35.883203 32262 net.cpp:91] Creating Layer inception_4c/relu_pool_proj
I0403 15:33:35.883220 32262 net.cpp:425] inception_4c/relu_pool_proj <- inception_4c/pool_proj
I0403 15:33:35.883237 32262 net.cpp:386] inception_4c/relu_pool_proj -> inception_4c/pool_proj (in-place)
I0403 15:33:35.883414 32262 net.cpp:141] Setting up inception_4c/relu_pool_proj
I0403 15:33:35.883440 32262 net.cpp:148] Top shape: 24 64 14 14 (301056)
I0403 15:33:35.883453 32262 net.cpp:156] Memory required for data: 1063013664
I0403 15:33:35.883467 32262 layer_factory.hpp:77] Creating layer inception_4c/output
I0403 15:33:35.883483 32262 net.cpp:91] Creating Layer inception_4c/output
I0403 15:33:35.883498 32262 net.cpp:425] inception_4c/output <- inception_4c/1x1
I0403 15:33:35.883515 32262 net.cpp:425] inception_4c/output <- inception_4c/3x3
I0403 15:33:35.883532 32262 net.cpp:425] inception_4c/output <- inception_4c/5x5
I0403 15:33:35.883546 32262 net.cpp:425] inception_4c/output <- inception_4c/pool_proj
I0403 15:33:35.883564 32262 net.cpp:399] inception_4c/output -> inception_4c/output
I0403 15:33:35.883608 32262 net.cpp:141] Setting up inception_4c/output
I0403 15:33:35.883633 32262 net.cpp:148] Top shape: 24 512 14 14 (2408448)
I0403 15:33:35.883649 32262 net.cpp:156] Memory required for data: 1072647456
I0403 15:33:35.883663 32262 layer_factory.hpp:77] Creating layer inception_4c/output_inception_4c/output_0_split
I0403 15:33:35.883680 32262 net.cpp:91] Creating Layer inception_4c/output_inception_4c/output_0_split
I0403 15:33:35.883695 32262 net.cpp:425] inception_4c/output_inception_4c/output_0_split <- inception_4c/output
I0403 15:33:35.883713 32262 net.cpp:399] inception_4c/output_inception_4c/output_0_split -> inception_4c/output_inception_4c/output_0_split_0
I0403 15:33:35.883734 32262 net.cpp:399] inception_4c/output_inception_4c/output_0_split -> inception_4c/output_inception_4c/output_0_split_1
I0403 15:33:35.883754 32262 net.cpp:399] inception_4c/output_inception_4c/output_0_split -> inception_4c/output_inception_4c/output_0_split_2
I0403 15:33:35.883774 32262 net.cpp:399] inception_4c/output_inception_4c/output_0_split -> inception_4c/output_inception_4c/output_0_split_3
I0403 15:33:35.883855 32262 net.cpp:141] Setting up inception_4c/output_inception_4c/output_0_split
I0403 15:33:35.883877 32262 net.cpp:148] Top shape: 24 512 14 14 (2408448)
I0403 15:33:35.883893 32262 net.cpp:148] Top shape: 24 512 14 14 (2408448)
I0403 15:33:35.883908 32262 net.cpp:148] Top shape: 24 512 14 14 (2408448)
I0403 15:33:35.883924 32262 net.cpp:148] Top shape: 24 512 14 14 (2408448)
I0403 15:33:35.883936 32262 net.cpp:156] Memory required for data: 1111182624
I0403 15:33:35.883951 32262 layer_factory.hpp:77] Creating layer inception_4d/1x1
I0403 15:33:35.883972 32262 net.cpp:91] Creating Layer inception_4d/1x1
I0403 15:33:35.883990 32262 net.cpp:425] inception_4d/1x1 <- inception_4c/output_inception_4c/output_0_split_0
I0403 15:33:35.884009 32262 net.cpp:399] inception_4d/1x1 -> inception_4d/1x1
I0403 15:33:35.885324 32262 net.cpp:141] Setting up inception_4d/1x1
I0403 15:33:35.885350 32262 net.cpp:148] Top shape: 24 112 14 14 (526848)
I0403 15:33:35.885365 32262 net.cpp:156] Memory required for data: 1113290016
I0403 15:33:35.885383 32262 layer_factory.hpp:77] Creating layer inception_4d/relu_1x1
I0403 15:33:35.885401 32262 net.cpp:91] Creating Layer inception_4d/relu_1x1
I0403 15:33:35.885417 32262 net.cpp:425] inception_4d/relu_1x1 <- inception_4d/1x1
I0403 15:33:35.885433 32262 net.cpp:386] inception_4d/relu_1x1 -> inception_4d/1x1 (in-place)
I0403 15:33:35.885607 32262 net.cpp:141] Setting up inception_4d/relu_1x1
I0403 15:33:35.885632 32262 net.cpp:148] Top shape: 24 112 14 14 (526848)
I0403 15:33:35.885645 32262 net.cpp:156] Memory required for data: 1115397408
I0403 15:33:35.885660 32262 layer_factory.hpp:77] Creating layer inception_4d/3x3_reduce
I0403 15:33:35.885694 32262 net.cpp:91] Creating Layer inception_4d/3x3_reduce
I0403 15:33:35.885711 32262 net.cpp:425] inception_4d/3x3_reduce <- inception_4c/output_inception_4c/output_0_split_1
I0403 15:33:35.885730 32262 net.cpp:399] inception_4d/3x3_reduce -> inception_4d/3x3_reduce
I0403 15:33:35.887146 32262 net.cpp:141] Setting up inception_4d/3x3_reduce
I0403 15:33:35.887172 32262 net.cpp:148] Top shape: 24 144 14 14 (677376)
I0403 15:33:35.887187 32262 net.cpp:156] Memory required for data: 1118106912
I0403 15:33:35.887204 32262 layer_factory.hpp:77] Creating layer inception_4d/relu_3x3_reduce
I0403 15:33:35.887222 32262 net.cpp:91] Creating Layer inception_4d/relu_3x3_reduce
I0403 15:33:35.887238 32262 net.cpp:425] inception_4d/relu_3x3_reduce <- inception_4d/3x3_reduce
I0403 15:33:35.887255 32262 net.cpp:386] inception_4d/relu_3x3_reduce -> inception_4d/3x3_reduce (in-place)
I0403 15:33:35.887529 32262 net.cpp:141] Setting up inception_4d/relu_3x3_reduce
I0403 15:33:35.887554 32262 net.cpp:148] Top shape: 24 144 14 14 (677376)
I0403 15:33:35.887570 32262 net.cpp:156] Memory required for data: 1120816416
I0403 15:33:35.887584 32262 layer_factory.hpp:77] Creating layer inception_4d/3x3
I0403 15:33:35.887604 32262 net.cpp:91] Creating Layer inception_4d/3x3
I0403 15:33:35.887621 32262 net.cpp:425] inception_4d/3x3 <- inception_4d/3x3_reduce
I0403 15:33:35.887642 32262 net.cpp:399] inception_4d/3x3 -> inception_4d/3x3
I0403 15:33:35.891661 32262 net.cpp:141] Setting up inception_4d/3x3
I0403 15:33:35.891690 32262 net.cpp:148] Top shape: 24 288 14 14 (1354752)
I0403 15:33:35.891703 32262 net.cpp:156] Memory required for data: 1126235424
I0403 15:33:35.891721 32262 layer_factory.hpp:77] Creating layer inception_4d/relu_3x3
I0403 15:33:35.891741 32262 net.cpp:91] Creating Layer inception_4d/relu_3x3
I0403 15:33:35.891757 32262 net.cpp:425] inception_4d/relu_3x3 <- inception_4d/3x3
I0403 15:33:35.891773 32262 net.cpp:386] inception_4d/relu_3x3 -> inception_4d/3x3 (in-place)
I0403 15:33:35.891943 32262 net.cpp:141] Setting up inception_4d/relu_3x3
I0403 15:33:35.891968 32262 net.cpp:148] Top shape: 24 288 14 14 (1354752)
I0403 15:33:35.891983 32262 net.cpp:156] Memory required for data: 1131654432
I0403 15:33:35.891998 32262 layer_factory.hpp:77] Creating layer inception_4d/5x5_reduce
I0403 15:33:35.892017 32262 net.cpp:91] Creating Layer inception_4d/5x5_reduce
I0403 15:33:35.892035 32262 net.cpp:425] inception_4d/5x5_reduce <- inception_4c/output_inception_4c/output_0_split_2
I0403 15:33:35.892052 32262 net.cpp:399] inception_4d/5x5_reduce -> inception_4d/5x5_reduce
I0403 15:33:35.893141 32262 net.cpp:141] Setting up inception_4d/5x5_reduce
I0403 15:33:35.893168 32262 net.cpp:148] Top shape: 24 32 14 14 (150528)
I0403 15:33:35.893182 32262 net.cpp:156] Memory required for data: 1132256544
I0403 15:33:35.893200 32262 layer_factory.hpp:77] Creating layer inception_4d/relu_5x5_reduce
I0403 15:33:35.893219 32262 net.cpp:91] Creating Layer inception_4d/relu_5x5_reduce
I0403 15:33:35.893235 32262 net.cpp:425] inception_4d/relu_5x5_reduce <- inception_4d/5x5_reduce
I0403 15:33:35.893252 32262 net.cpp:386] inception_4d/relu_5x5_reduce -> inception_4d/5x5_reduce (in-place)
I0403 15:33:35.893437 32262 net.cpp:141] Setting up inception_4d/relu_5x5_reduce
I0403 15:33:35.893463 32262 net.cpp:148] Top shape: 24 32 14 14 (150528)
I0403 15:33:35.893478 32262 net.cpp:156] Memory required for data: 1132858656
I0403 15:33:35.893491 32262 layer_factory.hpp:77] Creating layer inception_4d/5x5
I0403 15:33:35.893512 32262 net.cpp:91] Creating Layer inception_4d/5x5
I0403 15:33:35.893529 32262 net.cpp:425] inception_4d/5x5 <- inception_4d/5x5_reduce
I0403 15:33:35.893548 32262 net.cpp:399] inception_4d/5x5 -> inception_4d/5x5
I0403 15:33:35.894937 32262 net.cpp:141] Setting up inception_4d/5x5
I0403 15:33:35.894966 32262 net.cpp:148] Top shape: 24 64 14 14 (301056)
I0403 15:33:35.894981 32262 net.cpp:156] Memory required for data: 1134062880
I0403 15:33:35.894999 32262 layer_factory.hpp:77] Creating layer inception_4d/relu_5x5
I0403 15:33:35.895030 32262 net.cpp:91] Creating Layer inception_4d/relu_5x5
I0403 15:33:35.895046 32262 net.cpp:425] inception_4d/relu_5x5 <- inception_4d/5x5
I0403 15:33:35.895066 32262 net.cpp:386] inception_4d/relu_5x5 -> inception_4d/5x5 (in-place)
I0403 15:33:35.895357 32262 net.cpp:141] Setting up inception_4d/relu_5x5
I0403 15:33:35.895383 32262 net.cpp:148] Top shape: 24 64 14 14 (301056)
I0403 15:33:35.895398 32262 net.cpp:156] Memory required for data: 1135267104
I0403 15:33:35.895413 32262 layer_factory.hpp:77] Creating layer inception_4d/pool
I0403 15:33:35.895431 32262 net.cpp:91] Creating Layer inception_4d/pool
I0403 15:33:35.895447 32262 net.cpp:425] inception_4d/pool <- inception_4c/output_inception_4c/output_0_split_3
I0403 15:33:35.895465 32262 net.cpp:399] inception_4d/pool -> inception_4d/pool
I0403 15:33:35.895527 32262 net.cpp:141] Setting up inception_4d/pool
I0403 15:33:35.895552 32262 net.cpp:148] Top shape: 24 512 14 14 (2408448)
I0403 15:33:35.895567 32262 net.cpp:156] Memory required for data: 1144900896
I0403 15:33:35.895581 32262 layer_factory.hpp:77] Creating layer inception_4d/pool_proj
I0403 15:33:35.895599 32262 net.cpp:91] Creating Layer inception_4d/pool_proj
I0403 15:33:35.895615 32262 net.cpp:425] inception_4d/pool_proj <- inception_4d/pool
I0403 15:33:35.895634 32262 net.cpp:399] inception_4d/pool_proj -> inception_4d/pool_proj
I0403 15:33:35.897308 32262 net.cpp:141] Setting up inception_4d/pool_proj
I0403 15:33:35.897336 32262 net.cpp:148] Top shape: 24 64 14 14 (301056)
I0403 15:33:35.897351 32262 net.cpp:156] Memory required for data: 1146105120
I0403 15:33:35.897367 32262 layer_factory.hpp:77] Creating layer inception_4d/relu_pool_proj
I0403 15:33:35.897387 32262 net.cpp:91] Creating Layer inception_4d/relu_pool_proj
I0403 15:33:35.897403 32262 net.cpp:425] inception_4d/relu_pool_proj <- inception_4d/pool_proj
I0403 15:33:35.897418 32262 net.cpp:386] inception_4d/relu_pool_proj -> inception_4d/pool_proj (in-place)
I0403 15:33:35.897591 32262 net.cpp:141] Setting up inception_4d/relu_pool_proj
I0403 15:33:35.897616 32262 net.cpp:148] Top shape: 24 64 14 14 (301056)
I0403 15:33:35.897631 32262 net.cpp:156] Memory required for data: 1147309344
I0403 15:33:35.897645 32262 layer_factory.hpp:77] Creating layer inception_4d/output
I0403 15:33:35.897661 32262 net.cpp:91] Creating Layer inception_4d/output
I0403 15:33:35.897675 32262 net.cpp:425] inception_4d/output <- inception_4d/1x1
I0403 15:33:35.897691 32262 net.cpp:425] inception_4d/output <- inception_4d/3x3
I0403 15:33:35.897706 32262 net.cpp:425] inception_4d/output <- inception_4d/5x5
I0403 15:33:35.897721 32262 net.cpp:425] inception_4d/output <- inception_4d/pool_proj
I0403 15:33:35.897737 32262 net.cpp:399] inception_4d/output -> inception_4d/output
I0403 15:33:35.897783 32262 net.cpp:141] Setting up inception_4d/output
I0403 15:33:35.897805 32262 net.cpp:148] Top shape: 24 528 14 14 (2483712)
I0403 15:33:35.897819 32262 net.cpp:156] Memory required for data: 1157244192
I0403 15:33:35.897833 32262 layer_factory.hpp:77] Creating layer inception_4d/output_inception_4d/output_0_split
I0403 15:33:35.897852 32262 net.cpp:91] Creating Layer inception_4d/output_inception_4d/output_0_split
I0403 15:33:35.897868 32262 net.cpp:425] inception_4d/output_inception_4d/output_0_split <- inception_4d/output
I0403 15:33:35.897886 32262 net.cpp:399] inception_4d/output_inception_4d/output_0_split -> inception_4d/output_inception_4d/output_0_split_0
I0403 15:33:35.897904 32262 net.cpp:399] inception_4d/output_inception_4d/output_0_split -> inception_4d/output_inception_4d/output_0_split_1
I0403 15:33:35.897923 32262 net.cpp:399] inception_4d/output_inception_4d/output_0_split -> inception_4d/output_inception_4d/output_0_split_2
I0403 15:33:35.897945 32262 net.cpp:399] inception_4d/output_inception_4d/output_0_split -> inception_4d/output_inception_4d/output_0_split_3
I0403 15:33:35.897964 32262 net.cpp:399] inception_4d/output_inception_4d/output_0_split -> inception_4d/output_inception_4d/output_0_split_4
I0403 15:33:35.898063 32262 net.cpp:141] Setting up inception_4d/output_inception_4d/output_0_split
I0403 15:33:35.898097 32262 net.cpp:148] Top shape: 24 528 14 14 (2483712)
I0403 15:33:35.898113 32262 net.cpp:148] Top shape: 24 528 14 14 (2483712)
I0403 15:33:35.898128 32262 net.cpp:148] Top shape: 24 528 14 14 (2483712)
I0403 15:33:35.898143 32262 net.cpp:148] Top shape: 24 528 14 14 (2483712)
I0403 15:33:35.898157 32262 net.cpp:148] Top shape: 24 528 14 14 (2483712)
I0403 15:33:35.898170 32262 net.cpp:156] Memory required for data: 1206918432
I0403 15:33:35.898185 32262 layer_factory.hpp:77] Creating layer loss2/ave_pool
I0403 15:33:35.898205 32262 net.cpp:91] Creating Layer loss2/ave_pool
I0403 15:33:35.898219 32262 net.cpp:425] loss2/ave_pool <- inception_4d/output_inception_4d/output_0_split_0
I0403 15:33:35.898237 32262 net.cpp:399] loss2/ave_pool -> loss2/ave_pool
I0403 15:33:35.898535 32262 net.cpp:141] Setting up loss2/ave_pool
I0403 15:33:35.898561 32262 net.cpp:148] Top shape: 24 528 4 4 (202752)
I0403 15:33:35.898576 32262 net.cpp:156] Memory required for data: 1207729440
I0403 15:33:35.898589 32262 layer_factory.hpp:77] Creating layer loss2/conv
I0403 15:33:35.898610 32262 net.cpp:91] Creating Layer loss2/conv
I0403 15:33:35.898627 32262 net.cpp:425] loss2/conv <- loss2/ave_pool
I0403 15:33:35.898648 32262 net.cpp:399] loss2/conv -> loss2/conv
I0403 15:33:35.900456 32262 net.cpp:141] Setting up loss2/conv
I0403 15:33:35.900483 32262 net.cpp:148] Top shape: 24 128 4 4 (49152)
I0403 15:33:35.900498 32262 net.cpp:156] Memory required for data: 1207926048
I0403 15:33:35.900516 32262 layer_factory.hpp:77] Creating layer loss2/relu_conv
I0403 15:33:35.900532 32262 net.cpp:91] Creating Layer loss2/relu_conv
I0403 15:33:35.900555 32262 net.cpp:425] loss2/relu_conv <- loss2/conv
I0403 15:33:35.900573 32262 net.cpp:386] loss2/relu_conv -> loss2/conv (in-place)
I0403 15:33:35.900842 32262 net.cpp:141] Setting up loss2/relu_conv
I0403 15:33:35.900867 32262 net.cpp:148] Top shape: 24 128 4 4 (49152)
I0403 15:33:35.900889 32262 net.cpp:156] Memory required for data: 1208122656
I0403 15:33:35.900903 32262 layer_factory.hpp:77] Creating layer loss2/fc
I0403 15:33:35.900920 32262 net.cpp:91] Creating Layer loss2/fc
I0403 15:33:35.900936 32262 net.cpp:425] loss2/fc <- loss2/conv
I0403 15:33:35.900955 32262 net.cpp:399] loss2/fc -> loss2/fc
I0403 15:33:35.917830 32262 net.cpp:141] Setting up loss2/fc
I0403 15:33:35.917865 32262 net.cpp:148] Top shape: 24 1024 (24576)
I0403 15:33:35.917879 32262 net.cpp:156] Memory required for data: 1208220960
I0403 15:33:35.917896 32262 layer_factory.hpp:77] Creating layer loss2/relu_fc
I0403 15:33:35.917913 32262 net.cpp:91] Creating Layer loss2/relu_fc
I0403 15:33:35.917929 32262 net.cpp:425] loss2/relu_fc <- loss2/fc
I0403 15:33:35.917945 32262 net.cpp:386] loss2/relu_fc -> loss2/fc (in-place)
I0403 15:33:35.918226 32262 net.cpp:141] Setting up loss2/relu_fc
I0403 15:33:35.918251 32262 net.cpp:148] Top shape: 24 1024 (24576)
I0403 15:33:35.918267 32262 net.cpp:156] Memory required for data: 1208319264
I0403 15:33:35.918280 32262 layer_factory.hpp:77] Creating layer loss2/drop_fc
I0403 15:33:35.918303 32262 net.cpp:91] Creating Layer loss2/drop_fc
I0403 15:33:35.918318 32262 net.cpp:425] loss2/drop_fc <- loss2/fc
I0403 15:33:35.918334 32262 net.cpp:386] loss2/drop_fc -> loss2/fc (in-place)
I0403 15:33:35.918385 32262 net.cpp:141] Setting up loss2/drop_fc
I0403 15:33:35.918406 32262 net.cpp:148] Top shape: 24 1024 (24576)
I0403 15:33:35.918421 32262 net.cpp:156] Memory required for data: 1208417568
I0403 15:33:35.918433 32262 layer_factory.hpp:77] Creating layer loss2/classifier_plantvillage
I0403 15:33:35.918452 32262 net.cpp:91] Creating Layer loss2/classifier_plantvillage
I0403 15:33:35.918468 32262 net.cpp:425] loss2/classifier_plantvillage <- loss2/fc
I0403 15:33:35.918485 32262 net.cpp:399] loss2/classifier_plantvillage -> loss2/classifier_plantvillage
I0403 15:33:35.918866 32262 net.cpp:141] Setting up loss2/classifier_plantvillage
I0403 15:33:35.918890 32262 net.cpp:148] Top shape: 24 38 (912)
I0403 15:33:35.918905 32262 net.cpp:156] Memory required for data: 1208421216
I0403 15:33:35.918936 32262 layer_factory.hpp:77] Creating layer loss2/classifier_plantvillage_loss2/classifier_plantvillage_0_split
I0403 15:33:35.918954 32262 net.cpp:91] Creating Layer loss2/classifier_plantvillage_loss2/classifier_plantvillage_0_split
I0403 15:33:35.918969 32262 net.cpp:425] loss2/classifier_plantvillage_loss2/classifier_plantvillage_0_split <- loss2/classifier_plantvillage
I0403 15:33:35.918988 32262 net.cpp:399] loss2/classifier_plantvillage_loss2/classifier_plantvillage_0_split -> loss2/classifier_plantvillage_loss2/classifier_plantvillage_0_split_0
I0403 15:33:35.919008 32262 net.cpp:399] loss2/classifier_plantvillage_loss2/classifier_plantvillage_0_split -> loss2/classifier_plantvillage_loss2/classifier_plantvillage_0_split_1
I0403 15:33:35.919026 32262 net.cpp:399] loss2/classifier_plantvillage_loss2/classifier_plantvillage_0_split -> loss2/classifier_plantvillage_loss2/classifier_plantvillage_0_split_2
I0403 15:33:35.919100 32262 net.cpp:141] Setting up loss2/classifier_plantvillage_loss2/classifier_plantvillage_0_split
I0403 15:33:35.919124 32262 net.cpp:148] Top shape: 24 38 (912)
I0403 15:33:35.919139 32262 net.cpp:148] Top shape: 24 38 (912)
I0403 15:33:35.919154 32262 net.cpp:148] Top shape: 24 38 (912)
I0403 15:33:35.919167 32262 net.cpp:156] Memory required for data: 1208432160
I0403 15:33:35.919181 32262 layer_factory.hpp:77] Creating layer inception_4e/1x1
I0403 15:33:35.919201 32262 net.cpp:91] Creating Layer inception_4e/1x1
I0403 15:33:35.919217 32262 net.cpp:425] inception_4e/1x1 <- inception_4d/output_inception_4d/output_0_split_1
I0403 15:33:35.919236 32262 net.cpp:399] inception_4e/1x1 -> inception_4e/1x1
I0403 15:33:35.921000 32262 net.cpp:141] Setting up inception_4e/1x1
I0403 15:33:35.921025 32262 net.cpp:148] Top shape: 24 256 14 14 (1204224)
I0403 15:33:35.921041 32262 net.cpp:156] Memory required for data: 1213249056
I0403 15:33:35.921057 32262 layer_factory.hpp:77] Creating layer inception_4e/relu_1x1
I0403 15:33:35.921074 32262 net.cpp:91] Creating Layer inception_4e/relu_1x1
I0403 15:33:35.921089 32262 net.cpp:425] inception_4e/relu_1x1 <- inception_4e/1x1
I0403 15:33:35.921108 32262 net.cpp:386] inception_4e/relu_1x1 -> inception_4e/1x1 (in-place)
I0403 15:33:35.921391 32262 net.cpp:141] Setting up inception_4e/relu_1x1
I0403 15:33:35.921416 32262 net.cpp:148] Top shape: 24 256 14 14 (1204224)
I0403 15:33:35.921429 32262 net.cpp:156] Memory required for data: 1218065952
I0403 15:33:35.921443 32262 layer_factory.hpp:77] Creating layer inception_4e/3x3_reduce
I0403 15:33:35.921464 32262 net.cpp:91] Creating Layer inception_4e/3x3_reduce
I0403 15:33:35.921480 32262 net.cpp:425] inception_4e/3x3_reduce <- inception_4d/output_inception_4d/output_0_split_2
I0403 15:33:35.921500 32262 net.cpp:399] inception_4e/3x3_reduce -> inception_4e/3x3_reduce
I0403 15:33:35.923524 32262 net.cpp:141] Setting up inception_4e/3x3_reduce
I0403 15:33:35.923553 32262 net.cpp:148] Top shape: 24 160 14 14 (752640)
I0403 15:33:35.923570 32262 net.cpp:156] Memory required for data: 1221076512
I0403 15:33:35.923588 32262 layer_factory.hpp:77] Creating layer inception_4e/relu_3x3_reduce
I0403 15:33:35.923605 32262 net.cpp:91] Creating Layer inception_4e/relu_3x3_reduce
I0403 15:33:35.923620 32262 net.cpp:425] inception_4e/relu_3x3_reduce <- inception_4e/3x3_reduce
I0403 15:33:35.923638 32262 net.cpp:386] inception_4e/relu_3x3_reduce -> inception_4e/3x3_reduce (in-place)
I0403 15:33:35.923816 32262 net.cpp:141] Setting up inception_4e/relu_3x3_reduce
I0403 15:33:35.923840 32262 net.cpp:148] Top shape: 24 160 14 14 (752640)
I0403 15:33:35.923854 32262 net.cpp:156] Memory required for data: 1224087072
I0403 15:33:35.923867 32262 layer_factory.hpp:77] Creating layer inception_4e/3x3
I0403 15:33:35.923888 32262 net.cpp:91] Creating Layer inception_4e/3x3
I0403 15:33:35.923905 32262 net.cpp:425] inception_4e/3x3 <- inception_4e/3x3_reduce
I0403 15:33:35.923924 32262 net.cpp:399] inception_4e/3x3 -> inception_4e/3x3
I0403 15:33:35.928670 32262 net.cpp:141] Setting up inception_4e/3x3
I0403 15:33:35.928709 32262 net.cpp:148] Top shape: 24 320 14 14 (1505280)
I0403 15:33:35.928725 32262 net.cpp:156] Memory required for data: 1230108192
I0403 15:33:35.928743 32262 layer_factory.hpp:77] Creating layer inception_4e/relu_3x3
I0403 15:33:35.928763 32262 net.cpp:91] Creating Layer inception_4e/relu_3x3
I0403 15:33:35.928779 32262 net.cpp:425] inception_4e/relu_3x3 <- inception_4e/3x3
I0403 15:33:35.928796 32262 net.cpp:386] inception_4e/relu_3x3 -> inception_4e/3x3 (in-place)
I0403 15:33:35.929077 32262 net.cpp:141] Setting up inception_4e/relu_3x3
I0403 15:33:35.929102 32262 net.cpp:148] Top shape: 24 320 14 14 (1505280)
I0403 15:33:35.929116 32262 net.cpp:156] Memory required for data: 1236129312
I0403 15:33:35.929131 32262 layer_factory.hpp:77] Creating layer inception_4e/5x5_reduce
I0403 15:33:35.929152 32262 net.cpp:91] Creating Layer inception_4e/5x5_reduce
I0403 15:33:35.929167 32262 net.cpp:425] inception_4e/5x5_reduce <- inception_4d/output_inception_4d/output_0_split_3
I0403 15:33:35.929188 32262 net.cpp:399] inception_4e/5x5_reduce -> inception_4e/5x5_reduce
I0403 15:33:35.930203 32262 net.cpp:141] Setting up inception_4e/5x5_reduce
I0403 15:33:35.930232 32262 net.cpp:148] Top shape: 24 32 14 14 (150528)
I0403 15:33:35.930246 32262 net.cpp:156] Memory required for data: 1236731424
I0403 15:33:35.930263 32262 layer_factory.hpp:77] Creating layer inception_4e/relu_5x5_reduce
I0403 15:33:35.930280 32262 net.cpp:91] Creating Layer inception_4e/relu_5x5_reduce
I0403 15:33:35.930299 32262 net.cpp:425] inception_4e/relu_5x5_reduce <- inception_4e/5x5_reduce
I0403 15:33:35.930318 32262 net.cpp:386] inception_4e/relu_5x5_reduce -> inception_4e/5x5_reduce (in-place)
I0403 15:33:35.930599 32262 net.cpp:141] Setting up inception_4e/relu_5x5_reduce
I0403 15:33:35.930625 32262 net.cpp:148] Top shape: 24 32 14 14 (150528)
I0403 15:33:35.930641 32262 net.cpp:156] Memory required for data: 1237333536
I0403 15:33:35.930655 32262 layer_factory.hpp:77] Creating layer inception_4e/5x5
I0403 15:33:35.930691 32262 net.cpp:91] Creating Layer inception_4e/5x5
I0403 15:33:35.930708 32262 net.cpp:425] inception_4e/5x5 <- inception_4e/5x5_reduce
I0403 15:33:35.930727 32262 net.cpp:399] inception_4e/5x5 -> inception_4e/5x5
I0403 15:33:35.932462 32262 net.cpp:141] Setting up inception_4e/5x5
I0403 15:33:35.932488 32262 net.cpp:148] Top shape: 24 128 14 14 (602112)
I0403 15:33:35.932502 32262 net.cpp:156] Memory required for data: 1239741984
I0403 15:33:35.932520 32262 layer_factory.hpp:77] Creating layer inception_4e/relu_5x5
I0403 15:33:35.932539 32262 net.cpp:91] Creating Layer inception_4e/relu_5x5
I0403 15:33:35.932555 32262 net.cpp:425] inception_4e/relu_5x5 <- inception_4e/5x5
I0403 15:33:35.932572 32262 net.cpp:386] inception_4e/relu_5x5 -> inception_4e/5x5 (in-place)
I0403 15:33:35.932759 32262 net.cpp:141] Setting up inception_4e/relu_5x5
I0403 15:33:35.932781 32262 net.cpp:148] Top shape: 24 128 14 14 (602112)
I0403 15:33:35.932796 32262 net.cpp:156] Memory required for data: 1242150432
I0403 15:33:35.932808 32262 layer_factory.hpp:77] Creating layer inception_4e/pool
I0403 15:33:35.932826 32262 net.cpp:91] Creating Layer inception_4e/pool
I0403 15:33:35.932840 32262 net.cpp:425] inception_4e/pool <- inception_4d/output_inception_4d/output_0_split_4
I0403 15:33:35.932859 32262 net.cpp:399] inception_4e/pool -> inception_4e/pool
I0403 15:33:35.932924 32262 net.cpp:141] Setting up inception_4e/pool
I0403 15:33:35.932946 32262 net.cpp:148] Top shape: 24 528 14 14 (2483712)
I0403 15:33:35.932960 32262 net.cpp:156] Memory required for data: 1252085280
I0403 15:33:35.932974 32262 layer_factory.hpp:77] Creating layer inception_4e/pool_proj
I0403 15:33:35.932996 32262 net.cpp:91] Creating Layer inception_4e/pool_proj
I0403 15:33:35.933012 32262 net.cpp:425] inception_4e/pool_proj <- inception_4e/pool
I0403 15:33:35.933029 32262 net.cpp:399] inception_4e/pool_proj -> inception_4e/pool_proj
I0403 15:33:35.934456 32262 net.cpp:141] Setting up inception_4e/pool_proj
I0403 15:33:35.934484 32262 net.cpp:148] Top shape: 24 128 14 14 (602112)
I0403 15:33:35.934510 32262 net.cpp:156] Memory required for data: 1254493728
I0403 15:33:35.934530 32262 layer_factory.hpp:77] Creating layer inception_4e/relu_pool_proj
I0403 15:33:35.934548 32262 net.cpp:91] Creating Layer inception_4e/relu_pool_proj
I0403 15:33:35.934566 32262 net.cpp:425] inception_4e/relu_pool_proj <- inception_4e/pool_proj
I0403 15:33:35.934582 32262 net.cpp:386] inception_4e/relu_pool_proj -> inception_4e/pool_proj (in-place)
I0403 15:33:35.934857 32262 net.cpp:141] Setting up inception_4e/relu_pool_proj
I0403 15:33:35.934882 32262 net.cpp:148] Top shape: 24 128 14 14 (602112)
I0403 15:33:35.934896 32262 net.cpp:156] Memory required for data: 1256902176
I0403 15:33:35.934911 32262 layer_factory.hpp:77] Creating layer inception_4e/output
I0403 15:33:35.934928 32262 net.cpp:91] Creating Layer inception_4e/output
I0403 15:33:35.934943 32262 net.cpp:425] inception_4e/output <- inception_4e/1x1
I0403 15:33:35.934958 32262 net.cpp:425] inception_4e/output <- inception_4e/3x3
I0403 15:33:35.934973 32262 net.cpp:425] inception_4e/output <- inception_4e/5x5
I0403 15:33:35.934989 32262 net.cpp:425] inception_4e/output <- inception_4e/pool_proj
I0403 15:33:35.935004 32262 net.cpp:399] inception_4e/output -> inception_4e/output
I0403 15:33:35.935052 32262 net.cpp:141] Setting up inception_4e/output
I0403 15:33:35.935075 32262 net.cpp:148] Top shape: 24 832 14 14 (3913728)
I0403 15:33:35.935088 32262 net.cpp:156] Memory required for data: 1272557088
I0403 15:33:35.935102 32262 layer_factory.hpp:77] Creating layer pool4/3x3_s2
I0403 15:33:35.935118 32262 net.cpp:91] Creating Layer pool4/3x3_s2
I0403 15:33:35.935133 32262 net.cpp:425] pool4/3x3_s2 <- inception_4e/output
I0403 15:33:35.935153 32262 net.cpp:399] pool4/3x3_s2 -> pool4/3x3_s2
I0403 15:33:35.935215 32262 net.cpp:141] Setting up pool4/3x3_s2
I0403 15:33:35.935237 32262 net.cpp:148] Top shape: 24 832 7 7 (978432)
I0403 15:33:35.935250 32262 net.cpp:156] Memory required for data: 1276470816
I0403 15:33:35.935263 32262 layer_factory.hpp:77] Creating layer pool4/3x3_s2_pool4/3x3_s2_0_split
I0403 15:33:35.935289 32262 net.cpp:91] Creating Layer pool4/3x3_s2_pool4/3x3_s2_0_split
I0403 15:33:35.935307 32262 net.cpp:425] pool4/3x3_s2_pool4/3x3_s2_0_split <- pool4/3x3_s2
I0403 15:33:35.935327 32262 net.cpp:399] pool4/3x3_s2_pool4/3x3_s2_0_split -> pool4/3x3_s2_pool4/3x3_s2_0_split_0
I0403 15:33:35.935345 32262 net.cpp:399] pool4/3x3_s2_pool4/3x3_s2_0_split -> pool4/3x3_s2_pool4/3x3_s2_0_split_1
I0403 15:33:35.935364 32262 net.cpp:399] pool4/3x3_s2_pool4/3x3_s2_0_split -> pool4/3x3_s2_pool4/3x3_s2_0_split_2
I0403 15:33:35.935382 32262 net.cpp:399] pool4/3x3_s2_pool4/3x3_s2_0_split -> pool4/3x3_s2_pool4/3x3_s2_0_split_3
I0403 15:33:35.935467 32262 net.cpp:141] Setting up pool4/3x3_s2_pool4/3x3_s2_0_split
I0403 15:33:35.935489 32262 net.cpp:148] Top shape: 24 832 7 7 (978432)
I0403 15:33:35.935506 32262 net.cpp:148] Top shape: 24 832 7 7 (978432)
I0403 15:33:35.935520 32262 net.cpp:148] Top shape: 24 832 7 7 (978432)
I0403 15:33:35.935534 32262 net.cpp:148] Top shape: 24 832 7 7 (978432)
I0403 15:33:35.935549 32262 net.cpp:156] Memory required for data: 1292125728
I0403 15:33:35.935561 32262 layer_factory.hpp:77] Creating layer inception_5a/1x1
I0403 15:33:35.935580 32262 net.cpp:91] Creating Layer inception_5a/1x1
I0403 15:33:35.935596 32262 net.cpp:425] inception_5a/1x1 <- pool4/3x3_s2_pool4/3x3_s2_0_split_0
I0403 15:33:35.935617 32262 net.cpp:399] inception_5a/1x1 -> inception_5a/1x1
I0403 15:33:35.938314 32262 net.cpp:141] Setting up inception_5a/1x1
I0403 15:33:35.938344 32262 net.cpp:148] Top shape: 24 256 7 7 (301056)
I0403 15:33:35.938359 32262 net.cpp:156] Memory required for data: 1293329952
I0403 15:33:35.938376 32262 layer_factory.hpp:77] Creating layer inception_5a/relu_1x1
I0403 15:33:35.938395 32262 net.cpp:91] Creating Layer inception_5a/relu_1x1
I0403 15:33:35.938410 32262 net.cpp:425] inception_5a/relu_1x1 <- inception_5a/1x1
I0403 15:33:35.938426 32262 net.cpp:386] inception_5a/relu_1x1 -> inception_5a/1x1 (in-place)
I0403 15:33:35.938722 32262 net.cpp:141] Setting up inception_5a/relu_1x1
I0403 15:33:35.938750 32262 net.cpp:148] Top shape: 24 256 7 7 (301056)
I0403 15:33:35.938765 32262 net.cpp:156] Memory required for data: 1294534176
I0403 15:33:35.938778 32262 layer_factory.hpp:77] Creating layer inception_5a/3x3_reduce
I0403 15:33:35.938799 32262 net.cpp:91] Creating Layer inception_5a/3x3_reduce
I0403 15:33:35.938817 32262 net.cpp:425] inception_5a/3x3_reduce <- pool4/3x3_s2_pool4/3x3_s2_0_split_1
I0403 15:33:35.938834 32262 net.cpp:399] inception_5a/3x3_reduce -> inception_5a/3x3_reduce
I0403 15:33:35.941208 32262 net.cpp:141] Setting up inception_5a/3x3_reduce
I0403 15:33:35.941236 32262 net.cpp:148] Top shape: 24 160 7 7 (188160)
I0403 15:33:35.941251 32262 net.cpp:156] Memory required for data: 1295286816
I0403 15:33:35.941268 32262 layer_factory.hpp:77] Creating layer inception_5a/relu_3x3_reduce
I0403 15:33:35.941292 32262 net.cpp:91] Creating Layer inception_5a/relu_3x3_reduce
I0403 15:33:35.941308 32262 net.cpp:425] inception_5a/relu_3x3_reduce <- inception_5a/3x3_reduce
I0403 15:33:35.941325 32262 net.cpp:386] inception_5a/relu_3x3_reduce -> inception_5a/3x3_reduce (in-place)
I0403 15:33:35.941501 32262 net.cpp:141] Setting up inception_5a/relu_3x3_reduce
I0403 15:33:35.941527 32262 net.cpp:148] Top shape: 24 160 7 7 (188160)
I0403 15:33:35.941542 32262 net.cpp:156] Memory required for data: 1296039456
I0403 15:33:35.941556 32262 layer_factory.hpp:77] Creating layer inception_5a/3x3
I0403 15:33:35.941579 32262 net.cpp:91] Creating Layer inception_5a/3x3
I0403 15:33:35.941596 32262 net.cpp:425] inception_5a/3x3 <- inception_5a/3x3_reduce
I0403 15:33:35.941614 32262 net.cpp:399] inception_5a/3x3 -> inception_5a/3x3
I0403 15:33:35.946404 32262 net.cpp:141] Setting up inception_5a/3x3
I0403 15:33:35.946432 32262 net.cpp:148] Top shape: 24 320 7 7 (376320)
I0403 15:33:35.946447 32262 net.cpp:156] Memory required for data: 1297544736
I0403 15:33:35.946467 32262 layer_factory.hpp:77] Creating layer inception_5a/relu_3x3
I0403 15:33:35.946485 32262 net.cpp:91] Creating Layer inception_5a/relu_3x3
I0403 15:33:35.946501 32262 net.cpp:425] inception_5a/relu_3x3 <- inception_5a/3x3
I0403 15:33:35.946517 32262 net.cpp:386] inception_5a/relu_3x3 -> inception_5a/3x3 (in-place)
I0403 15:33:35.946797 32262 net.cpp:141] Setting up inception_5a/relu_3x3
I0403 15:33:35.946822 32262 net.cpp:148] Top shape: 24 320 7 7 (376320)
I0403 15:33:35.946836 32262 net.cpp:156] Memory required for data: 1299050016
I0403 15:33:35.946851 32262 layer_factory.hpp:77] Creating layer inception_5a/5x5_reduce
I0403 15:33:35.946874 32262 net.cpp:91] Creating Layer inception_5a/5x5_reduce
I0403 15:33:35.946890 32262 net.cpp:425] inception_5a/5x5_reduce <- pool4/3x3_s2_pool4/3x3_s2_0_split_2
I0403 15:33:35.946909 32262 net.cpp:399] inception_5a/5x5_reduce -> inception_5a/5x5_reduce
I0403 15:33:35.948014 32262 net.cpp:141] Setting up inception_5a/5x5_reduce
I0403 15:33:35.948041 32262 net.cpp:148] Top shape: 24 32 7 7 (37632)
I0403 15:33:35.948057 32262 net.cpp:156] Memory required for data: 1299200544
I0403 15:33:35.948076 32262 layer_factory.hpp:77] Creating layer inception_5a/relu_5x5_reduce
I0403 15:33:35.948091 32262 net.cpp:91] Creating Layer inception_5a/relu_5x5_reduce
I0403 15:33:35.948107 32262 net.cpp:425] inception_5a/relu_5x5_reduce <- inception_5a/5x5_reduce
I0403 15:33:35.948125 32262 net.cpp:386] inception_5a/relu_5x5_reduce -> inception_5a/5x5_reduce (in-place)
I0403 15:33:35.948412 32262 net.cpp:141] Setting up inception_5a/relu_5x5_reduce
I0403 15:33:35.948436 32262 net.cpp:148] Top shape: 24 32 7 7 (37632)
I0403 15:33:35.948451 32262 net.cpp:156] Memory required for data: 1299351072
I0403 15:33:35.948465 32262 layer_factory.hpp:77] Creating layer inception_5a/5x5
I0403 15:33:35.948487 32262 net.cpp:91] Creating Layer inception_5a/5x5
I0403 15:33:35.948503 32262 net.cpp:425] inception_5a/5x5 <- inception_5a/5x5_reduce
I0403 15:33:35.948525 32262 net.cpp:399] inception_5a/5x5 -> inception_5a/5x5
I0403 15:33:35.950176 32262 net.cpp:141] Setting up inception_5a/5x5
I0403 15:33:35.950213 32262 net.cpp:148] Top shape: 24 128 7 7 (150528)
I0403 15:33:35.950228 32262 net.cpp:156] Memory required for data: 1299953184
I0403 15:33:35.950247 32262 layer_factory.hpp:77] Creating layer inception_5a/relu_5x5
I0403 15:33:35.950264 32262 net.cpp:91] Creating Layer inception_5a/relu_5x5
I0403 15:33:35.950280 32262 net.cpp:425] inception_5a/relu_5x5 <- inception_5a/5x5
I0403 15:33:35.950301 32262 net.cpp:386] inception_5a/relu_5x5 -> inception_5a/5x5 (in-place)
I0403 15:33:35.950481 32262 net.cpp:141] Setting up inception_5a/relu_5x5
I0403 15:33:35.950505 32262 net.cpp:148] Top shape: 24 128 7 7 (150528)
I0403 15:33:35.950520 32262 net.cpp:156] Memory required for data: 1300555296
I0403 15:33:35.950534 32262 layer_factory.hpp:77] Creating layer inception_5a/pool
I0403 15:33:35.950551 32262 net.cpp:91] Creating Layer inception_5a/pool
I0403 15:33:35.950567 32262 net.cpp:425] inception_5a/pool <- pool4/3x3_s2_pool4/3x3_s2_0_split_3
I0403 15:33:35.950585 32262 net.cpp:399] inception_5a/pool -> inception_5a/pool
I0403 15:33:35.950652 32262 net.cpp:141] Setting up inception_5a/pool
I0403 15:33:35.950675 32262 net.cpp:148] Top shape: 24 832 7 7 (978432)
I0403 15:33:35.950690 32262 net.cpp:156] Memory required for data: 1304469024
I0403 15:33:35.950703 32262 layer_factory.hpp:77] Creating layer inception_5a/pool_proj
I0403 15:33:35.950726 32262 net.cpp:91] Creating Layer inception_5a/pool_proj
I0403 15:33:35.950742 32262 net.cpp:425] inception_5a/pool_proj <- inception_5a/pool
I0403 15:33:35.950760 32262 net.cpp:399] inception_5a/pool_proj -> inception_5a/pool_proj
I0403 15:33:35.952909 32262 net.cpp:141] Setting up inception_5a/pool_proj
I0403 15:33:35.952936 32262 net.cpp:148] Top shape: 24 128 7 7 (150528)
I0403 15:33:35.952950 32262 net.cpp:156] Memory required for data: 1305071136
I0403 15:33:35.952967 32262 layer_factory.hpp:77] Creating layer inception_5a/relu_pool_proj
I0403 15:33:35.952986 32262 net.cpp:91] Creating Layer inception_5a/relu_pool_proj
I0403 15:33:35.953003 32262 net.cpp:425] inception_5a/relu_pool_proj <- inception_5a/pool_proj
I0403 15:33:35.953019 32262 net.cpp:386] inception_5a/relu_pool_proj -> inception_5a/pool_proj (in-place)
I0403 15:33:35.953310 32262 net.cpp:141] Setting up inception_5a/relu_pool_proj
I0403 15:33:35.953335 32262 net.cpp:148] Top shape: 24 128 7 7 (150528)
I0403 15:33:35.953348 32262 net.cpp:156] Memory required for data: 1305673248
I0403 15:33:35.953363 32262 layer_factory.hpp:77] Creating layer inception_5a/output
I0403 15:33:35.953382 32262 net.cpp:91] Creating Layer inception_5a/output
I0403 15:33:35.953397 32262 net.cpp:425] inception_5a/output <- inception_5a/1x1
I0403 15:33:35.953414 32262 net.cpp:425] inception_5a/output <- inception_5a/3x3
I0403 15:33:35.953429 32262 net.cpp:425] inception_5a/output <- inception_5a/5x5
I0403 15:33:35.953444 32262 net.cpp:425] inception_5a/output <- inception_5a/pool_proj
I0403 15:33:35.953460 32262 net.cpp:399] inception_5a/output -> inception_5a/output
I0403 15:33:35.953510 32262 net.cpp:141] Setting up inception_5a/output
I0403 15:33:35.953531 32262 net.cpp:148] Top shape: 24 832 7 7 (978432)
I0403 15:33:35.953547 32262 net.cpp:156] Memory required for data: 1309586976
I0403 15:33:35.953560 32262 layer_factory.hpp:77] Creating layer inception_5a/output_inception_5a/output_0_split
I0403 15:33:35.953577 32262 net.cpp:91] Creating Layer inception_5a/output_inception_5a/output_0_split
I0403 15:33:35.953593 32262 net.cpp:425] inception_5a/output_inception_5a/output_0_split <- inception_5a/output
I0403 15:33:35.953611 32262 net.cpp:399] inception_5a/output_inception_5a/output_0_split -> inception_5a/output_inception_5a/output_0_split_0
I0403 15:33:35.953631 32262 net.cpp:399] inception_5a/output_inception_5a/output_0_split -> inception_5a/output_inception_5a/output_0_split_1
I0403 15:33:35.953651 32262 net.cpp:399] inception_5a/output_inception_5a/output_0_split -> inception_5a/output_inception_5a/output_0_split_2
I0403 15:33:35.953670 32262 net.cpp:399] inception_5a/output_inception_5a/output_0_split -> inception_5a/output_inception_5a/output_0_split_3
I0403 15:33:35.953778 32262 net.cpp:141] Setting up inception_5a/output_inception_5a/output_0_split
I0403 15:33:35.953800 32262 net.cpp:148] Top shape: 24 832 7 7 (978432)
I0403 15:33:35.953815 32262 net.cpp:148] Top shape: 24 832 7 7 (978432)
I0403 15:33:35.953830 32262 net.cpp:148] Top shape: 24 832 7 7 (978432)
I0403 15:33:35.953845 32262 net.cpp:148] Top shape: 24 832 7 7 (978432)
I0403 15:33:35.953858 32262 net.cpp:156] Memory required for data: 1325241888
I0403 15:33:35.953871 32262 layer_factory.hpp:77] Creating layer inception_5b/1x1
I0403 15:33:35.953892 32262 net.cpp:91] Creating Layer inception_5b/1x1
I0403 15:33:35.953909 32262 net.cpp:425] inception_5b/1x1 <- inception_5a/output_inception_5a/output_0_split_0
I0403 15:33:35.953929 32262 net.cpp:399] inception_5b/1x1 -> inception_5b/1x1
I0403 15:33:35.957520 32262 net.cpp:141] Setting up inception_5b/1x1
I0403 15:33:35.957547 32262 net.cpp:148] Top shape: 24 384 7 7 (451584)
I0403 15:33:35.957562 32262 net.cpp:156] Memory required for data: 1327048224
I0403 15:33:35.957579 32262 layer_factory.hpp:77] Creating layer inception_5b/relu_1x1
I0403 15:33:35.957599 32262 net.cpp:91] Creating Layer inception_5b/relu_1x1
I0403 15:33:35.957615 32262 net.cpp:425] inception_5b/relu_1x1 <- inception_5b/1x1
I0403 15:33:35.957631 32262 net.cpp:386] inception_5b/relu_1x1 -> inception_5b/1x1 (in-place)
I0403 15:33:35.957918 32262 net.cpp:141] Setting up inception_5b/relu_1x1
I0403 15:33:35.957943 32262 net.cpp:148] Top shape: 24 384 7 7 (451584)
I0403 15:33:35.957957 32262 net.cpp:156] Memory required for data: 1328854560
I0403 15:33:35.957972 32262 layer_factory.hpp:77] Creating layer inception_5b/3x3_reduce
I0403 15:33:35.957991 32262 net.cpp:91] Creating Layer inception_5b/3x3_reduce
I0403 15:33:35.958009 32262 net.cpp:425] inception_5b/3x3_reduce <- inception_5a/output_inception_5a/output_0_split_1
I0403 15:33:35.958029 32262 net.cpp:399] inception_5b/3x3_reduce -> inception_5b/3x3_reduce
I0403 15:33:35.960572 32262 net.cpp:141] Setting up inception_5b/3x3_reduce
I0403 15:33:35.960599 32262 net.cpp:148] Top shape: 24 192 7 7 (225792)
I0403 15:33:35.960614 32262 net.cpp:156] Memory required for data: 1329757728
I0403 15:33:35.960633 32262 layer_factory.hpp:77] Creating layer inception_5b/relu_3x3_reduce
I0403 15:33:35.960651 32262 net.cpp:91] Creating Layer inception_5b/relu_3x3_reduce
I0403 15:33:35.960667 32262 net.cpp:425] inception_5b/relu_3x3_reduce <- inception_5b/3x3_reduce
I0403 15:33:35.960683 32262 net.cpp:386] inception_5b/relu_3x3_reduce -> inception_5b/3x3_reduce (in-place)
I0403 15:33:35.960863 32262 net.cpp:141] Setting up inception_5b/relu_3x3_reduce
I0403 15:33:35.960888 32262 net.cpp:148] Top shape: 24 192 7 7 (225792)
I0403 15:33:35.960903 32262 net.cpp:156] Memory required for data: 1330660896
I0403 15:33:35.960917 32262 layer_factory.hpp:77] Creating layer inception_5b/3x3
I0403 15:33:35.960938 32262 net.cpp:91] Creating Layer inception_5b/3x3
I0403 15:33:35.960954 32262 net.cpp:425] inception_5b/3x3 <- inception_5b/3x3_reduce
I0403 15:33:35.960971 32262 net.cpp:399] inception_5b/3x3 -> inception_5b/3x3
I0403 15:33:35.967332 32262 net.cpp:141] Setting up inception_5b/3x3
I0403 15:33:35.967360 32262 net.cpp:148] Top shape: 24 384 7 7 (451584)
I0403 15:33:35.967375 32262 net.cpp:156] Memory required for data: 1332467232
I0403 15:33:35.967392 32262 layer_factory.hpp:77] Creating layer inception_5b/relu_3x3
I0403 15:33:35.967411 32262 net.cpp:91] Creating Layer inception_5b/relu_3x3
I0403 15:33:35.967427 32262 net.cpp:425] inception_5b/relu_3x3 <- inception_5b/3x3
I0403 15:33:35.967443 32262 net.cpp:386] inception_5b/relu_3x3 -> inception_5b/3x3 (in-place)
I0403 15:33:35.967728 32262 net.cpp:141] Setting up inception_5b/relu_3x3
I0403 15:33:35.967752 32262 net.cpp:148] Top shape: 24 384 7 7 (451584)
I0403 15:33:35.967767 32262 net.cpp:156] Memory required for data: 1334273568
I0403 15:33:35.967780 32262 layer_factory.hpp:77] Creating layer inception_5b/5x5_reduce
I0403 15:33:35.967818 32262 net.cpp:91] Creating Layer inception_5b/5x5_reduce
I0403 15:33:35.967836 32262 net.cpp:425] inception_5b/5x5_reduce <- inception_5a/output_inception_5a/output_0_split_2
I0403 15:33:35.967857 32262 net.cpp:399] inception_5b/5x5_reduce -> inception_5b/5x5_reduce
I0403 15:33:35.969070 32262 net.cpp:141] Setting up inception_5b/5x5_reduce
I0403 15:33:35.969096 32262 net.cpp:148] Top shape: 24 48 7 7 (56448)
I0403 15:33:35.969111 32262 net.cpp:156] Memory required for data: 1334499360
I0403 15:33:35.969128 32262 layer_factory.hpp:77] Creating layer inception_5b/relu_5x5_reduce
I0403 15:33:35.969147 32262 net.cpp:91] Creating Layer inception_5b/relu_5x5_reduce
I0403 15:33:35.969163 32262 net.cpp:425] inception_5b/relu_5x5_reduce <- inception_5b/5x5_reduce
I0403 15:33:35.969180 32262 net.cpp:386] inception_5b/relu_5x5_reduce -> inception_5b/5x5_reduce (in-place)
I0403 15:33:35.969540 32262 net.cpp:141] Setting up inception_5b/relu_5x5_reduce
I0403 15:33:35.969565 32262 net.cpp:148] Top shape: 24 48 7 7 (56448)
I0403 15:33:35.969579 32262 net.cpp:156] Memory required for data: 1334725152
I0403 15:33:35.969594 32262 layer_factory.hpp:77] Creating layer inception_5b/5x5
I0403 15:33:35.969614 32262 net.cpp:91] Creating Layer inception_5b/5x5
I0403 15:33:35.969630 32262 net.cpp:425] inception_5b/5x5 <- inception_5b/5x5_reduce
I0403 15:33:35.969647 32262 net.cpp:399] inception_5b/5x5 -> inception_5b/5x5
I0403 15:33:35.971604 32262 net.cpp:141] Setting up inception_5b/5x5
I0403 15:33:35.971632 32262 net.cpp:148] Top shape: 24 128 7 7 (150528)
I0403 15:33:35.971647 32262 net.cpp:156] Memory required for data: 1335327264
I0403 15:33:35.971665 32262 layer_factory.hpp:77] Creating layer inception_5b/relu_5x5
I0403 15:33:35.971683 32262 net.cpp:91] Creating Layer inception_5b/relu_5x5
I0403 15:33:35.971698 32262 net.cpp:425] inception_5b/relu_5x5 <- inception_5b/5x5
I0403 15:33:35.971714 32262 net.cpp:386] inception_5b/relu_5x5 -> inception_5b/5x5 (in-place)
I0403 15:33:35.971899 32262 net.cpp:141] Setting up inception_5b/relu_5x5
I0403 15:33:35.971921 32262 net.cpp:148] Top shape: 24 128 7 7 (150528)
I0403 15:33:35.971935 32262 net.cpp:156] Memory required for data: 1335929376
I0403 15:33:35.971949 32262 layer_factory.hpp:77] Creating layer inception_5b/pool
I0403 15:33:35.971966 32262 net.cpp:91] Creating Layer inception_5b/pool
I0403 15:33:35.971981 32262 net.cpp:425] inception_5b/pool <- inception_5a/output_inception_5a/output_0_split_3
I0403 15:33:35.972000 32262 net.cpp:399] inception_5b/pool -> inception_5b/pool
I0403 15:33:35.972069 32262 net.cpp:141] Setting up inception_5b/pool
I0403 15:33:35.972092 32262 net.cpp:148] Top shape: 24 832 7 7 (978432)
I0403 15:33:35.972106 32262 net.cpp:156] Memory required for data: 1339843104
I0403 15:33:35.972121 32262 layer_factory.hpp:77] Creating layer inception_5b/pool_proj
I0403 15:33:35.972141 32262 net.cpp:91] Creating Layer inception_5b/pool_proj
I0403 15:33:35.972157 32262 net.cpp:425] inception_5b/pool_proj <- inception_5b/pool
I0403 15:33:35.972175 32262 net.cpp:399] inception_5b/pool_proj -> inception_5b/pool_proj
I0403 15:33:35.974367 32262 net.cpp:141] Setting up inception_5b/pool_proj
I0403 15:33:35.974395 32262 net.cpp:148] Top shape: 24 128 7 7 (150528)
I0403 15:33:35.974411 32262 net.cpp:156] Memory required for data: 1340445216
I0403 15:33:35.974428 32262 layer_factory.hpp:77] Creating layer inception_5b/relu_pool_proj
I0403 15:33:35.974447 32262 net.cpp:91] Creating Layer inception_5b/relu_pool_proj
I0403 15:33:35.974463 32262 net.cpp:425] inception_5b/relu_pool_proj <- inception_5b/pool_proj
I0403 15:33:35.974479 32262 net.cpp:386] inception_5b/relu_pool_proj -> inception_5b/pool_proj (in-place)
I0403 15:33:35.974766 32262 net.cpp:141] Setting up inception_5b/relu_pool_proj
I0403 15:33:35.974789 32262 net.cpp:148] Top shape: 24 128 7 7 (150528)
I0403 15:33:35.974803 32262 net.cpp:156] Memory required for data: 1341047328
I0403 15:33:35.974817 32262 layer_factory.hpp:77] Creating layer inception_5b/output
I0403 15:33:35.974836 32262 net.cpp:91] Creating Layer inception_5b/output
I0403 15:33:35.974865 32262 net.cpp:425] inception_5b/output <- inception_5b/1x1
I0403 15:33:35.974882 32262 net.cpp:425] inception_5b/output <- inception_5b/3x3
I0403 15:33:35.974898 32262 net.cpp:425] inception_5b/output <- inception_5b/5x5
I0403 15:33:35.974913 32262 net.cpp:425] inception_5b/output <- inception_5b/pool_proj
I0403 15:33:35.974931 32262 net.cpp:399] inception_5b/output -> inception_5b/output
I0403 15:33:35.974980 32262 net.cpp:141] Setting up inception_5b/output
I0403 15:33:35.975003 32262 net.cpp:148] Top shape: 24 1024 7 7 (1204224)
I0403 15:33:35.975018 32262 net.cpp:156] Memory required for data: 1345864224
I0403 15:33:35.975030 32262 layer_factory.hpp:77] Creating layer pool5/7x7_s1
I0403 15:33:35.975047 32262 net.cpp:91] Creating Layer pool5/7x7_s1
I0403 15:33:35.975061 32262 net.cpp:425] pool5/7x7_s1 <- inception_5b/output
I0403 15:33:35.975080 32262 net.cpp:399] pool5/7x7_s1 -> pool5/7x7_s1
I0403 15:33:35.975289 32262 net.cpp:141] Setting up pool5/7x7_s1
I0403 15:33:35.975316 32262 net.cpp:148] Top shape: 24 1024 1 1 (24576)
I0403 15:33:35.975330 32262 net.cpp:156] Memory required for data: 1345962528
I0403 15:33:35.975344 32262 layer_factory.hpp:77] Creating layer pool5/drop_7x7_s1
I0403 15:33:35.975361 32262 net.cpp:91] Creating Layer pool5/drop_7x7_s1
I0403 15:33:35.975375 32262 net.cpp:425] pool5/drop_7x7_s1 <- pool5/7x7_s1
I0403 15:33:35.975391 32262 net.cpp:386] pool5/drop_7x7_s1 -> pool5/7x7_s1 (in-place)
I0403 15:33:35.975440 32262 net.cpp:141] Setting up pool5/drop_7x7_s1
I0403 15:33:35.975461 32262 net.cpp:148] Top shape: 24 1024 1 1 (24576)
I0403 15:33:35.975476 32262 net.cpp:156] Memory required for data: 1346060832
I0403 15:33:35.975489 32262 layer_factory.hpp:77] Creating layer loss3/classifier_plantvillage
I0403 15:33:35.975509 32262 net.cpp:91] Creating Layer loss3/classifier_plantvillage
I0403 15:33:35.975524 32262 net.cpp:425] loss3/classifier_plantvillage <- pool5/7x7_s1
I0403 15:33:35.975541 32262 net.cpp:399] loss3/classifier_plantvillage -> loss3/classifier_plantvillage
I0403 15:33:35.975942 32262 net.cpp:141] Setting up loss3/classifier_plantvillage
I0403 15:33:35.975965 32262 net.cpp:148] Top shape: 24 38 (912)
I0403 15:33:35.975980 32262 net.cpp:156] Memory required for data: 1346064480
I0403 15:33:35.975996 32262 layer_factory.hpp:77] Creating layer loss3/classifier_plantvillage_loss3/classifier_plantvillage_0_split
I0403 15:33:35.976016 32262 net.cpp:91] Creating Layer loss3/classifier_plantvillage_loss3/classifier_plantvillage_0_split
I0403 15:33:35.976032 32262 net.cpp:425] loss3/classifier_plantvillage_loss3/classifier_plantvillage_0_split <- loss3/classifier_plantvillage
I0403 15:33:35.976052 32262 net.cpp:399] loss3/classifier_plantvillage_loss3/classifier_plantvillage_0_split -> loss3/classifier_plantvillage_loss3/classifier_plantvillage_0_split_0
I0403 15:33:35.976071 32262 net.cpp:399] loss3/classifier_plantvillage_loss3/classifier_plantvillage_0_split -> loss3/classifier_plantvillage_loss3/classifier_plantvillage_0_split_1
I0403 15:33:35.976090 32262 net.cpp:399] loss3/classifier_plantvillage_loss3/classifier_plantvillage_0_split -> loss3/classifier_plantvillage_loss3/classifier_plantvillage_0_split_2
I0403 15:33:35.976109 32262 net.cpp:399] loss3/classifier_plantvillage_loss3/classifier_plantvillage_0_split -> loss3/classifier_plantvillage_loss3/classifier_plantvillage_0_split_3
I0403 15:33:35.976203 32262 net.cpp:141] Setting up loss3/classifier_plantvillage_loss3/classifier_plantvillage_0_split
I0403 15:33:35.976225 32262 net.cpp:148] Top shape: 24 38 (912)
I0403 15:33:35.976239 32262 net.cpp:148] Top shape: 24 38 (912)
I0403 15:33:35.976254 32262 net.cpp:148] Top shape: 24 38 (912)
I0403 15:33:35.976269 32262 net.cpp:148] Top shape: 24 38 (912)
I0403 15:33:35.976281 32262 net.cpp:156] Memory required for data: 1346079072
I0403 15:33:35.976300 32262 layer_factory.hpp:77] Creating layer loss1/loss
I0403 15:33:35.976320 32262 net.cpp:91] Creating Layer loss1/loss
I0403 15:33:35.976336 32262 net.cpp:425] loss1/loss <- loss1/classifier_plantvillage_loss1/classifier_plantvillage_0_split_0
I0403 15:33:35.976364 32262 net.cpp:425] loss1/loss <- label_data_1_split_0
…
