…
I0403 15:43:35.733132   435 net.cpp:313] The NetState phase (1) differed from the phase (0) specified by a rule in layer data
I0403 15:43:35.734408   435 net.cpp:49] Initializing net from parameters: 
state {
  phase: TEST
}
layer {
  name: "data"
  type: "Data"
  top: "data"
  top: "label"
  include {
    phase: TEST
  }
  transform_param {
    mirror: false
    crop_size: 224
    mean_file: "/home/mohanty/data/final_dataset/lmdb/color-60-40/mean.binaryproto"
  }
  data_param {
    source: "/home/mohanty/data/final_dataset/lmdb/color-60-40/test_db"
    batch_size: 24
    backend: LMDB
  }
}
layer {
  name: "conv1/7x7_s2"
  type: "Convolution"
  bottom: "data"
  top: "conv1/7x7_s2"
  param {
    lr_mult: 1
    decay_mult: 1
  }
  param {
    lr_mult: 2
    decay_mult: 0
  }
  convolution_param {
    num_output: 64
    pad: 3
    kernel_size: 7
    stride: 2
    weight_filler {
      type: "xavier"
      std: 0.1
    }
    bias_filler {
      type: "constant"
      value: 0.2
    }
  }
}
layer {
  name: "conv1/relu_7x7"
  type: "ReLU"
  bottom: "conv1/7x7_s2"
  top: "conv1/7x7_s2"
}
layer {
  name: "pool1/3x3_s2"
  type: "Pooling"
  bottom: "conv1/7x7_s2"
  top: "pool1/3x3_s2"
  pooling_param {
    pool: MAX
    kernel_size: 3
    stride: 2
  }
}
layer {
  name: "pool1/norm1"
  type: "LRN"
  bottom: "pool1/3x3_s2"
  top: "pool1/norm1"
  lrn_param {
    local_size: 5
    alpha: 0.0001
    beta: 0.75
  }
}
layer {
  name: "conv2/3x3_reduce"
  type: "Convolution"
  bottom: "pool1/norm1"
  top: "conv2/3x3_reduce"
  param {
    lr_mult: 1
    decay_mult: 1
  }
  param {
    lr_mult: 2
    decay_mult: 0
  }
  convolution_param {
    num_output: 64
    kernel_size: 1
    weight_filler {
      type: "xavier"
      std: 0.1
    }
    bias_filler {
      type: "constant"
      value: 0.2
    }
  }
}
layer {
  name: "conv2/relu_3x3_reduce"
  type: "ReLU"
  bottom: "conv2/3x3_reduce"
  top: "conv2/3x3_reduce"
}
layer {
  name: "conv2/3x3"
  type: "Convolution"
  bottom: "conv2/3x3_reduce"
  top: "conv2/3x3"
  param {
    lr_mult: 1
    decay_mult: 1
  }
  param {
    lr_mult: 2
    decay_mult: 0
  }
  convolution_param {
    num_output: 192
    pad: 1
    kernel_size: 3
    weight_filler {
      type: "xavier"
      std: 0.03
    }
    bias_filler {
      type: "constant"
      value: 0.2
    }
  }
}
layer {
  name: "conv2/relu_3x3"
  type: "ReLU"
  bottom: "conv2/3x3"
  top: "conv2/3x3"
}
layer {
  name: "conv2/norm2"
  type: "LRN"
  bottom: "conv2/3x3"
  top: "conv2/norm2"
  lrn_param {
    local_size: 5
    alpha: 0.0001
    beta: 0.75
  }
}
layer {
  name: "pool2/3x3_s2"
  type: "Pooling"
  bottom: "conv2/norm2"
  top: "pool2/3x3_s2"
  pooling_param {
    pool: MAX
    kernel_size: 3
    stride: 2
  }
}
layer {
  name: "inception_3a/1x1"
  type: "Convolution"
  bottom: "pool2/3x3_s2"
  top: "inception_3a/1x1"
  param {
    lr_mult: 1
    decay_mult: 1
  }
  param {
    lr_mult: 2
    decay_mult: 0
  }
  convolution_param {
    num_output: 64
    kernel_size: 1
    weight_filler {
      type: "xavier"
      std: 0.03
    }
    bias_filler {
      type: "constant"
      value: 0.2
    }
  }
}
layer {
  name: "inception_3a/relu_1x1"
  type: "ReLU"
  bottom: "inception_3a/1x1"
  top: "inception_3a/1x1"
}
layer {
  name: "inception_3a/3x3_reduce"
  type: "Convolution"
  bottom: "pool2/3x3_s2"
  top: "inception_3a/3x3_reduce"
  param {
    lr_mult: 1
    decay_mult: 1
  }
  param {
    lr_mult: 2
    decay_mult: 0
  }
  convolution_param {
    num_output: 96
    kernel_size: 1
    weight_filler {
      type: "xavier"
      std: 0.09
    }
    bias_filler {
      type: "constant"
      value: 0.2
    }
  }
}
layer {
  name: "inception_3a/relu_3x3_reduce"
  type: "ReLU"
  bottom: "inception_3a/3x3_reduce"
  top: "inception_3a/3x3_reduce"
}
layer {
  name: "inception_3a/3x3"
  type: "Convolution"
  bottom: "inception_3a/3x3_reduce"
  top: "inception_3a/3x3"
  param {
    lr_mult: 1
    decay_mult: 1
  }
  param {
    lr_mult: 2
    decay_mult: 0
  }
  convolution_param {
    num_output: 128
    pad: 1
    kernel_size: 3
    weight_filler {
      type: "xavier"
      std: 0.03
    }
    bias_filler {
      type: "constant"
      value: 0.2
    }
  }
}
layer {
  name: "inception_3a/relu_3x3"
  type: "ReLU"
  bottom: "inception_3a/3x3"
  top: "inception_3a/3x3"
}
layer {
  name: "inception_3a/5x5_reduce"
  type: "Convolution"
  bottom: "pool2/3x3_s2"
  top: "inception_3a/5x5_reduce"
  param {
    lr_mult: 1
    decay_mult: 1
  }
  param {
    lr_mult: 2
    decay_mult: 0
  }
  convolution_param {
    num_output: 16
    kernel_size: 1
    weight_filler {
      type: "xavier"
      std: 0.2
    }
    bias_filler {
      type: "constant"
      value: 0.2
    }
  }
}
layer {
  name: "inception_3a/relu_5x5_reduce"
  type: "ReLU"
  bottom: "inception_3a/5x5_reduce"
  top: "inception_3a/5x5_reduce"
}
layer {
  name: "inception_3a/5x5"
  type: "Convolution"
  bottom: "inception_3a/5x5_reduce"
  top: "inception_3a/5x5"
  param {
    lr_mult: 1
    decay_mult: 1
  }
  param {
    lr_mult: 2
    decay_mult: 0
  }
  convolution_param {
    num_output: 32
    pad: 2
    kernel_size: 5
    weight_filler {
      type: "xavier"
      std: 0.03
    }
    bias_filler {
      type: "constant"
      value: 0.2
    }
  }
}
layer {
  name: "inception_3a/relu_5x5"
  type: "ReLU"
  bottom: "inception_3a/5x5"
  top: "inception_3a/5x5"
}
layer {
  name: "inception_3a/pool"
  type: "Pooling"
  bottom: "pool2/3x3_s2"
  top: "inception_3a/pool"
  pooling_param {
    pool: MAX
    kernel_size: 3
    stride: 1
    pad: 1
  }
}
layer {
  name: "inception_3a/pool_proj"
  type: "Convolution"
  bottom: "inception_3a/pool"
  top: "inception_3a/pool_proj"
  param {
    lr_mult: 1
    decay_mult: 1
  }
  param {
    lr_mult: 2
    decay_mult: 0
  }
  convolution_param {
    num_output: 32
    kernel_size: 1
    weight_filler {
      type: "xavier"
      std: 0.1
    }
    bias_filler {
      type: "constant"
      value: 0.2
    }
  }
}
layer {
  name: "inception_3a/relu_pool_proj"
  type: "ReLU"
  bottom: "inception_3a/pool_proj"
  top: "inception_3a/pool_proj"
}
layer {
  name: "inception_3a/output"
  type: "Concat"
  bottom: "inception_3a/1x1"
  bottom: "inception_3a/3x3"
  bottom: "inception_3a/5x5"
  bottom: "inception_3a/pool_proj"
  top: "inception_3a/output"
}
layer {
  name: "inception_3b/1x1"
  type: "Convolution"
  bottom: "inception_3a/output"
  top: "inception_3b/1x1"
  param {
    lr_mult: 1
    decay_mult: 1
  }
  param {
    lr_mult: 2
    decay_mult: 0
  }
  convolution_param {
    num_output: 128
    kernel_size: 1
    weight_filler {
      type: "xavier"
      std: 0.03
    }
    bias_filler {
      type: "constant"
      value: 0.2
    }
  }
}
layer {
  name: "inception_3b/relu_1x1"
  type: "ReLU"
  bottom: "inception_3b/1x1"
  top: "inception_3b/1x1"
}
layer {
  name: "inception_3b/3x3_reduce"
  type: "Convolution"
  bottom: "inception_3a/output"
  top: "inception_3b/3x3_reduce"
  param {
    lr_mult: 1
    decay_mult: 1
  }
  param {
    lr_mult: 2
    decay_mult: 0
  }
  convolution_param {
    num_output: 128
    kernel_size: 1
    weight_filler {
      type: "xavier"
      std: 0.09
    }
    bias_filler {
      type: "constant"
      value: 0.2
    }
  }
}
layer {
  name: "inception_3b/relu_3x3_reduce"
  type: "ReLU"
  bottom: "inception_3b/3x3_reduce"
  top: "inception_3b/3x3_reduce"
}
layer {
  name: "inception_3b/3x3"
  type: "Convolution"
  bottom: "inception_3b/3x3_reduce"
  top: "inception_3b/3x3"
  param {
    lr_mult: 1
    decay_mult: 1
  }
  param {
    lr_mult: 2
    decay_mult: 0
  }
  convolution_param {
    num_output: 192
    pad: 1
    kernel_size: 3
    weight_filler {
      type: "xavier"
      std: 0.03
    }
    bias_filler {
      type: "constant"
      value: 0.2
    }
  }
}
layer {
  name: "inception_3b/relu_3x3"
  type: "ReLU"
  bottom: "inception_3b/3x3"
  top: "inception_3b/3x3"
}
layer {
  name: "inception_3b/5x5_reduce"
  type: "Convolution"
  bottom: "inception_3a/output"
  top: "inception_3b/5x5_reduce"
  param {
    lr_mult: 1
    decay_mult: 1
  }
  param {
    lr_mult: 2
    decay_mult: 0
  }
  convolution_param {
    num_output: 32
    kernel_size: 1
    weight_filler {
      type: "xavier"
      std: 0.2
    }
    bias_filler {
      type: "constant"
      value: 0.2
    }
  }
}
layer {
  name: "inception_3b/relu_5x5_reduce"
  type: "ReLU"
  bottom: "inception_3b/5x5_reduce"
  top: "inception_3b/5x5_reduce"
}
layer {
  name: "inception_3b/5x5"
  type: "Convolution"
  bottom: "inception_3b/5x5_reduce"
  top: "inception_3b/5x5"
  param {
    lr_mult: 1
    decay_mult: 1
  }
  param {
    lr_mult: 2
    decay_mult: 0
  }
  convolution_param {
    num_output: 96
    pad: 2
    kernel_size: 5
    weight_filler {
      type: "xavier"
      std: 0.03
    }
    bias_filler {
      type: "constant"
      value: 0.2
    }
  }
}
layer {
  name: "inception_3b/relu_5x5"
  type: "ReLU"
  bottom: "inception_3b/5x5"
  top: "inception_3b/5x5"
}
layer {
  name: "inception_3b/pool"
  type: "Pooling"
  bottom: "inception_3a/output"
  top: "inception_3b/pool"
  pooling_param {
    pool: MAX
    kernel_size: 3
    stride: 1
    pad: 1
  }
}
layer {
  name: "inception_3b/pool_proj"
  type: "Convolution"
  bottom: "inception_3b/pool"
  top: "inception_3b/pool_proj"
  param {
    lr_mult: 1
    decay_mult: 1
  }
  param {
    lr_mult: 2
    decay_mult: 0
  }
  convolution_param {
    num_output: 64
    kernel_size: 1
    weight_filler {
      type: "xavier"
      std: 0.1
    }
    bias_filler {
      type: "constant"
      value: 0.2
    }
  }
}
layer {
  name: "inception_3b/relu_pool_proj"
  type: "ReLU"
  bottom: "inception_3b/pool_proj"
  top: "inception_3b/pool_proj"
}
layer {
  name: "inception_3b/output"
  type: "Concat"
  bottom: "inception_3b/1x1"
  bottom: "inception_3b/3x3"
  bottom: "inception_3b/5x5"
  bottom: "inception_3b/pool_proj"
  top: "inception_3b/output"
}
layer {
  name: "pool3/3x3_s2"
  type: "Pooling"
  bottom: "inception_3b/output"
  top: "pool3/3x3_s2"
  pooling_param {
    pool: MAX
    kernel_size: 3
    stride: 2
  }
}
layer {
  name: "inception_4a/1x1"
  type: "Convolution"
  bottom: "pool3/3x3_s2"
  top: "inception_4a/1x1"
  param {
    lr_mult: 1
    decay_mult: 1
  }
  param {
    lr_mult: 2
    decay_mult: 0
  }
  convolution_param {
    num_output: 192
    kernel_size: 1
    weight_filler {
      type: "xavier"
      std: 0.03
    }
    bias_filler {
      type: "constant"
      value: 0.2
    }
  }
}
layer {
  name: "inception_4a/relu_1x1"
  type: "ReLU"
  bottom: "inception_4a/1x1"
  top: "inception_4a/1x1"
}
layer {
  name: "inception_4a/3x3_reduce"
  type: "Convolution"
  bottom: "pool3/3x3_s2"
  top: "inception_4a/3x3_reduce"
  param {
    lr_mult: 1
    decay_mult: 1
  }
  param {
    lr_mult: 2
    decay_mult: 0
  }
  convolution_param {
    num_output: 96
    kernel_size: 1
    weight_filler {
      type: "xavier"
      std: 0.09
    }
    bias_filler {
      type: "constant"
      value: 0.2
    }
  }
}
layer {
  name: "inception_4a/relu_3x3_reduce"
  type: "ReLU"
  bottom: "inception_4a/3x3_reduce"
  top: "inception_4a/3x3_reduce"
}
layer {
  name: "inception_4a/3x3"
  type: "Convolution"
  bottom: "inception_4a/3x3_reduce"
  top: "inception_4a/3x3"
  param {
    lr_mult: 1
    decay_mult: 1
  }
  param {
    lr_mult: 2
    decay_mult: 0
  }
  convolution_param {
    num_output: 208
    pad: 1
    kernel_size: 3
    weight_filler {
      type: "xavier"
      std: 0.03
    }
    bias_filler {
      type: "constant"
      value: 0.2
    }
  }
}
layer {
  name: "inception_4a/relu_3x3"
  type: "ReLU"
  bottom: "inception_4a/3x3"
  top: "inception_4a/3x3"
}
layer {
  name: "inception_4a/5x5_reduce"
  type: "Convolution"
  bottom: "pool3/3x3_s2"
  top: "inception_4a/5x5_reduce"
  param {
    lr_mult: 1
    decay_mult: 1
  }
  param {
    lr_mult: 2
    decay_mult: 0
  }
  convolution_param {
    num_output: 16
    kernel_size: 1
    weight_filler {
      type: "xavier"
      std: 0.2
    }
    bias_filler {
      type: "constant"
      value: 0.2
    }
  }
}
layer {
  name: "inception_4a/relu_5x5_reduce"
  type: "ReLU"
  bottom: "inception_4a/5x5_reduce"
  top: "inception_4a/5x5_reduce"
}
layer {
  name: "inception_4a/5x5"
  type: "Convolution"
  bottom: "inception_4a/5x5_reduce"
  top: "inception_4a/5x5"
  param {
    lr_mult: 1
    decay_mult: 1
  }
  param {
    lr_mult: 2
    decay_mult: 0
  }
  convolution_param {
    num_output: 48
    pad: 2
    kernel_size: 5
    weight_filler {
      type: "xavier"
      std: 0.03
    }
    bias_filler {
      type: "constant"
      value: 0.2
    }
  }
}
layer {
  name: "inception_4a/relu_5x5"
  type: "ReLU"
  bottom: "inception_4a/5x5"
  top: "inception_4a/5x5"
}
layer {
  name: "inception_4a/pool"
  type: "Pooling"
  bottom: "pool3/3x3_s2"
  top: "inception_4a/pool"
  pooling_param {
    pool: MAX
    kernel_size: 3
    stride: 1
    pad: 1
  }
}
layer {
  name: "inception_4a/pool_proj"
  type: "Convolution"
  bottom: "inception_4a/pool"
  top: "inception_4a/pool_proj"
  param {
    lr_mult: 1
    decay_mult: 1
  }
  param {
    lr_mult: 2
    decay_mult: 0
  }
  convolution_param {
    num_output: 64
    kernel_size: 1
    weight_filler {
      type: "xavier"
      std: 0.1
    }
    bias_filler {
      type: "constant"
      value: 0.2
    }
  }
}
layer {
  name: "inception_4a/relu_pool_proj"
  type: "ReLU"
  bottom: "inception_4a/pool_proj"
  top: "inception_4a/pool_proj"
}
layer {
  name: "inception_4a/output"
  type: "Concat"
  bottom: "inception_4a/1x1"
  bottom: "inception_4a/3x3"
  bottom: "inception_4a/5x5"
  bottom: "inception_4a/pool_proj"
  top: "inception_4a/output"
}
layer {
  name: "loss1/ave_pool"
  type: "Pooling"
  bottom: "inception_4a/output"
  top: "loss1/ave_pool"
  pooling_param {
    pool: AVE
    kernel_size: 5
    stride: 3
  }
}
layer {
  name: "loss1/conv"
  type: "Convolution"
  bottom: "loss1/ave_pool"
  top: "loss1/conv"
  param {
    lr_mult: 1
    decay_mult: 1
  }
  param {
    lr_mult: 2
    decay_mult: 0
  }
  convolution_param {
    num_output: 128
    kernel_size: 1
    weight_filler {
      type: "xavier"
      std: 0.08
    }
    bias_filler {
      type: "constant"
      value: 0.2
    }
  }
}
layer {
  name: "loss1/relu_conv"
  type: "ReLU"
  bottom: "loss1/conv"
  top: "loss1/conv"
}
layer {
  name: "loss1/fc"
  type: "InnerProduct"
  bottom: "loss1/conv"
  top: "loss1/fc"
  param {
    lr_mult: 1
    decay_mult: 1
  }
  param {
    lr_mult: 2
    decay_mult: 0
  }
  inner_product_param {
    num_output: 1024
    weight_filler {
      type: "xavier"
      std: 0.02
    }
    bias_filler {
      type: "constant"
      value: 0.2
    }
  }
}
layer {
  name: "loss1/relu_fc"
  type: "ReLU"
  bottom: "loss1/fc"
  top: "loss1/fc"
}
layer {
  name: "loss1/drop_fc"
  type: "Dropout"
  bottom: "loss1/fc"
  top: "loss1/fc"
  dropout_param {
    dropout_ratio: 0.7
  }
}
layer {
  name: "loss1/classifier_plantvillage"
  type: "InnerProduct"
  bottom: "loss1/fc"
  top: "loss1/classifier_plantvillage"
  param {
    lr_mult: 1
    decay_mult: 1
  }
  param {
    lr_mult: 2
    decay_mult: 0
  }
  inner_product_param {
    num_output: 38
    weight_filler {
      type: "xavier"
      std: 0.0009765625
    }
    bias_filler {
      type: "constant"
      value: 0
    }
  }
}
layer {
  name: "inception_4b/1x1"
  type: "Convolution"
  bottom: "inception_4a/output"
  top: "inception_4b/1x1"
  param {
    lr_mult: 1
    decay_mult: 1
  }
  param {
    lr_mult: 2
    decay_mult: 0
  }
  convolution_param {
    num_output: 160
    kernel_size: 1
    weight_filler {
      type: "xavier"
      std: 0.03
    }
    bias_filler {
      type: "constant"
      value: 0.2
    }
  }
}
layer {
  name: "inception_4b/relu_1x1"
  type: "ReLU"
  bottom: "inception_4b/1x1"
  top: "inception_4b/1x1"
}
layer {
  name: "inception_4b/3x3_reduce"
  type: "Convolution"
  bottom: "inception_4a/output"
  top: "inception_4b/3x3_reduce"
  param {
    lr_mult: 1
    decay_mult: 1
  }
  param {
    lr_mult: 2
    decay_mult: 0
  }
  convolution_param {
    num_output: 112
    kernel_size: 1
    weight_filler {
      type: "xavier"
      std: 0.09
    }
    bias_filler {
      type: "constant"
      value: 0.2
    }
  }
}
layer {
  name: "inception_4b/relu_3x3_reduce"
  type: "ReLU"
  bottom: "inception_4b/3x3_reduce"
  top: "inception_4b/3x3_reduce"
}
layer {
  name: "inception_4b/3x3"
  type: "Convolution"
  bottom: "inception_4b/3x3_reduce"
  top: "inception_4b/3x3"
  param {
    lr_mult: 1
    decay_mult: 1
  }
  param {
    lr_mult: 2
    decay_mult: 0
  }
  convolution_param {
    num_output: 224
    pad: 1
    kernel_size: 3
    weight_filler {
      type: "xavier"
      std: 0.03
    }
    bias_filler {
      type: "constant"
      value: 0.2
    }
  }
}
layer {
  name: "inception_4b/relu_3x3"
  type: "ReLU"
  bottom: "inception_4b/3x3"
  top: "inception_4b/3x3"
}
layer {
  name: "inception_4b/5x5_reduce"
  type: "Convolution"
  bottom: "inception_4a/output"
  top: "inception_4b/5x5_reduce"
  param {
    lr_mult: 1
    decay_mult: 1
  }
  param {
    lr_mult: 2
    decay_mult: 0
  }
  convolution_param {
    num_output: 24
    kernel_size: 1
    weight_filler {
      type: "xavier"
      std: 0.2
    }
    bias_filler {
      type: "constant"
      value: 0.2
    }
  }
}
layer {
  name: "inception_4b/relu_5x5_reduce"
  type: "ReLU"
  bottom: "inception_4b/5x5_reduce"
  top: "inception_4b/5x5_reduce"
}
layer {
  name: "inception_4b/5x5"
  type: "Convolution"
  bottom: "inception_4b/5x5_reduce"
  top: "inception_4b/5x5"
  param {
    lr_mult: 1
    decay_mult: 1
  }
  param {
    lr_mult: 2
    decay_mult: 0
  }
  convolution_param {
    num_output: 64
    pad: 2
    kernel_size: 5
    weight_filler {
      type: "xavier"
      std: 0.03
    }
    bias_filler {
      type: "constant"
      value: 0.2
    }
  }
}
layer {
  name: "inception_4b/relu_5x5"
  type: "ReLU"
  bottom: "inception_4b/5x5"
  top: "inception_4b/5x5"
}
layer {
  name: "inception_4b/pool"
  type: "Pooling"
  bottom: "inception_4a/output"
  top: "inception_4b/pool"
  pooling_param {
    pool: MAX
    kernel_size: 3
    stride: 1
    pad: 1
  }
}
layer {
  name: "inception_4b/pool_proj"
  type: "Convolution"
  bottom: "inception_4b/pool"
  top: "inception_4b/pool_proj"
  param {
    lr_mult: 1
    decay_mult: 1
  }
  param {
    lr_mult: 2
    decay_mult: 0
  }
  convolution_param {
    num_output: 64
    kernel_size: 1
    weight_filler {
      type: "xavier"
      std: 0.1
    }
    bias_filler {
      type: "constant"
      value: 0.2
    }
  }
}
layer {
  name: "inception_4b/relu_pool_proj"
  type: "ReLU"
  bottom: "inception_4b/pool_proj"
  top: "inception_4b/pool_proj"
}
layer {
  name: "inception_4b/output"
  type: "Concat"
  bottom: "inception_4b/1x1"
  bottom: "inception_4b/3x3"
  bottom: "inception_4b/5x5"
  bottom: "inception_4b/pool_proj"
  top: "inception_4b/output"
}
layer {
  name: "inception_4c/1x1"
  type: "Convolution"
  bottom: "inception_4b/output"
  top: "inception_4c/1x1"
  param {
    lr_mult: 1
    decay_mult: 1
  }
  param {
    lr_mult: 2
    decay_mult: 0
  }
  convolution_param {
    num_output: 128
    kernel_size: 1
    weight_filler {
      type: "xavier"
      std: 0.03
    }
    bias_filler {
      type: "constant"
      value: 0.2
    }
  }
}
layer {
  name: "inception_4c/relu_1x1"
  type: "ReLU"
  bottom: "inception_4c/1x1"
  top: "inception_4c/1x1"
}
layer {
  name: "inception_4c/3x3_reduce"
  type: "Convolution"
  bottom: "inception_4b/output"
  top: "inception_4c/3x3_reduce"
  param {
    lr_mult: 1
    decay_mult: 1
  }
  param {
    lr_mult: 2
    decay_mult: 0
  }
  convolution_param {
    num_output: 128
    kernel_size: 1
    weight_filler {
      type: "xavier"
      std: 0.09
    }
    bias_filler {
      type: "constant"
      value: 0.2
    }
  }
}
layer {
  name: "inception_4c/relu_3x3_reduce"
  type: "ReLU"
  bottom: "inception_4c/3x3_reduce"
  top: "inception_4c/3x3_reduce"
}
layer {
  name: "inception_4c/3x3"
  type: "Convolution"
  bottom: "inception_4c/3x3_reduce"
  top: "inception_4c/3x3"
  param {
    lr_mult: 1
    decay_mult: 1
  }
  param {
    lr_mult: 2
    decay_mult: 0
  }
  convolution_param {
    num_output: 256
    pad: 1
    kernel_size: 3
    weight_filler {
      type: "xavier"
      std: 0.03
    }
    bias_filler {
      type: "constant"
      value: 0.2
    }
  }
}
layer {
  name: "inception_4c/relu_3x3"
  type: "ReLU"
  bottom: "inception_4c/3x3"
  top: "inception_4c/3x3"
}
layer {
  name: "inception_4c/5x5_reduce"
  type: "Convolution"
  bottom: "inception_4b/output"
  top: "inception_4c/5x5_reduce"
  param {
    lr_mult: 1
    decay_mult: 1
  }
  param {
    lr_mult: 2
    decay_mult: 0
  }
  convolution_param {
    num_output: 24
    kernel_size: 1
    weight_filler {
      type: "xavier"
      std: 0.2
    }
    bias_filler {
      type: "constant"
      value: 0.2
    }
  }
}
layer {
  name: "inception_4c/relu_5x5_reduce"
  type: "ReLU"
  bottom: "inception_4c/5x5_reduce"
  top: "inception_4c/5x5_reduce"
}
layer {
  name: "inception_4c/5x5"
  type: "Convolution"
  bottom: "inception_4c/5x5_reduce"
  top: "inception_4c/5x5"
  param {
    lr_mult: 1
    decay_mult: 1
  }
  param {
    lr_mult: 2
    decay_mult: 0
  }
  convolution_param {
    num_output: 64
    pad: 2
    kernel_size: 5
    weight_filler {
      type: "xavier"
      std: 0.03
    }
    bias_filler {
      type: "constant"
      value: 0.2
    }
  }
}
layer {
  name: "inception_4c/relu_5x5"
  type: "ReLU"
  bottom: "inception_4c/5x5"
  top: "inception_4c/5x5"
}
layer {
  name: "inception_4c/pool"
  type: "Pooling"
  bottom: "inception_4b/output"
  top: "inception_4c/pool"
  pooling_param {
    pool: MAX
    kernel_size: 3
    stride: 1
    pad: 1
  }
}
layer {
  name: "inception_4c/pool_proj"
  type: "Convolution"
  bottom: "inception_4c/pool"
  top: "inception_4c/pool_proj"
  param {
    lr_mult: 1
    decay_mult: 1
  }
  param {
    lr_mult: 2
    decay_mult: 0
  }
  convolution_param {
    num_output: 64
    kernel_size: 1
    weight_filler {
      type: "xavier"
      std: 0.1
    }
    bias_filler {
      type: "constant"
      value: 0.2
    }
  }
}
layer {
  name: "inception_4c/relu_pool_proj"
  type: "ReLU"
  bottom: "inception_4c/pool_proj"
  top: "inception_4c/pool_proj"
}
layer {
  name: "inception_4c/output"
  type: "Concat"
  bottom: "inception_4c/1x1"
  bottom: "inception_4c/3x3"
  bottom: "inception_4c/5x5"
  bottom: "inception_4c/pool_proj"
  top: "inception_4c/output"
}
layer {
  name: "inception_4d/1x1"
  type: "Convolution"
  bottom: "inception_4c/output"
  top: "inception_4d/1x1"
  param {
    lr_mult: 1
    decay_mult: 1
  }
  param {
    lr_mult: 2
    decay_mult: 0
  }
  convolution_param {
    num_output: 112
    kernel_size: 1
    weight_filler {
      type: "xavier"
      std: 0.03
    }
    bias_filler {
      type: "constant"
      value: 0.2
    }
  }
}
layer {
  name: "inception_4d/relu_1x1"
  type: "ReLU"
  bottom: "inception_4d/1x1"
  top: "inception_4d/1x1"
}
layer {
  name: "inception_4d/3x3_reduce"
  type: "Convolution"
  bottom: "inception_4c/output"
  top: "inception_4d/3x3_reduce"
  param {
    lr_mult: 1
    decay_mult: 1
  }
  param {
    lr_mult: 2
    decay_mult: 0
  }
  convolution_param {
    num_output: 144
    kernel_size: 1
    weight_filler {
      type: "xavier"
      std: 0.09
    }
    bias_filler {
      type: "constant"
      value: 0.2
    }
  }
}
layer {
  name: "inception_4d/relu_3x3_reduce"
  type: "ReLU"
  bottom: "inception_4d/3x3_reduce"
  top: "inception_4d/3x3_reduce"
}
layer {
  name: "inception_4d/3x3"
  type: "Convolution"
  bottom: "inception_4d/3x3_reduce"
  top: "inception_4d/3x3"
  param {
    lr_mult: 1
    decay_mult: 1
  }
  param {
    lr_mult: 2
    decay_mult: 0
  }
  convolution_param {
    num_output: 288
    pad: 1
    kernel_size: 3
    weight_filler {
      type: "xavier"
      std: 0.03
    }
    bias_filler {
      type: "constant"
      value: 0.2
    }
  }
}
layer {
  name: "inception_4d/relu_3x3"
  type: "ReLU"
  bottom: "inception_4d/3x3"
  top: "inception_4d/3x3"
}
layer {
  name: "inception_4d/5x5_reduce"
  type: "Convolution"
  bottom: "inception_4c/output"
  top: "inception_4d/5x5_reduce"
  param {
    lr_mult: 1
    decay_mult: 1
  }
  param {
    lr_mult: 2
    decay_mult: 0
  }
  convolution_param {
    num_output: 32
    kernel_size: 1
    weight_filler {
      type: "xavier"
      std: 0.2
    }
    bias_filler {
      type: "constant"
      value: 0.2
    }
  }
}
layer {
  name: "inception_4d/relu_5x5_reduce"
  type: "ReLU"
  bottom: "inception_4d/5x5_reduce"
  top: "inception_4d/5x5_reduce"
}
layer {
  name: "inception_4d/5x5"
  type: "Convolution"
  bottom: "inception_4d/5x5_reduce"
  top: "inception_4d/5x5"
  param {
    lr_mult: 1
    decay_mult: 1
  }
  param {
    lr_mult: 2
    decay_mult: 0
  }
  convolution_param {
    num_output: 64
    pad: 2
    kernel_size: 5
    weight_filler {
      type: "xavier"
      std: 0.03
    }
    bias_filler {
      type: "constant"
      value: 0.2
    }
  }
}
layer {
  name: "inception_4d/relu_5x5"
  type: "ReLU"
  bottom: "inception_4d/5x5"
  top: "inception_4d/5x5"
}
layer {
  name: "inception_4d/pool"
  type: "Pooling"
  bottom: "inception_4c/output"
  top: "inception_4d/pool"
  pooling_param {
    pool: MAX
    kernel_size: 3
    stride: 1
    pad: 1
  }
}
layer {
  name: "inception_4d/pool_proj"
  type: "Convolution"
  bottom: "inception_4d/pool"
  top: "inception_4d/pool_proj"
  param {
    lr_mult: 1
    decay_mult: 1
  }
  param {
    lr_mult: 2
    decay_mult: 0
  }
  convolution_param {
    num_output: 64
    kernel_size: 1
    weight_filler {
      type: "xavier"
      std: 0.1
    }
    bias_filler {
      type: "constant"
      value: 0.2
    }
  }
}
layer {
  name: "inception_4d/relu_pool_proj"
  type: "ReLU"
  bottom: "inception_4d/pool_proj"
  top: "inception_4d/pool_proj"
}
layer {
  name: "inception_4d/output"
  type: "Concat"
  bottom: "inception_4d/1x1"
  bottom: "inception_4d/3x3"
  bottom: "inception_4d/5x5"
  bottom: "inception_4d/pool_proj"
  top: "inception_4d/output"
}
layer {
  name: "loss2/ave_pool"
  type: "Pooling"
  bottom: "inception_4d/output"
  top: "loss2/ave_pool"
  pooling_param {
    pool: AVE
    kernel_size: 5
    stride: 3
  }
}
layer {
  name: "loss2/conv"
  type: "Convolution"
  bottom: "loss2/ave_pool"
  top: "loss2/conv"
  param {
    lr_mult: 1
    decay_mult: 1
  }
  param {
    lr_mult: 2
    decay_mult: 0
  }
  convolution_param {
    num_output: 128
    kernel_size: 1
    weight_filler {
      type: "xavier"
      std: 0.08
    }
    bias_filler {
      type: "constant"
      value: 0.2
    }
  }
}
layer {
  name: "loss2/relu_conv"
  type: "ReLU"
  bottom: "loss2/conv"
  top: "loss2/conv"
}
layer {
  name: "loss2/fc"
  type: "InnerProduct"
  bottom: "loss2/conv"
  top: "loss2/fc"
  param {
    lr_mult: 1
    decay_mult: 1
  }
  param {
    lr_mult: 2
    decay_mult: 0
  }
  inner_product_param {
    num_output: 1024
    weight_filler {
      type: "xavier"
      std: 0.02
    }
    bias_filler {
      type: "constant"
      value: 0.2
    }
  }
}
layer {
  name: "loss2/relu_fc"
  type: "ReLU"
  bottom: "loss2/fc"
  top: "loss2/fc"
}
layer {
  name: "loss2/drop_fc"
  type: "Dropout"
  bottom: "loss2/fc"
  top: "loss2/fc"
  dropout_param {
    dropout_ratio: 0.7
  }
}
layer {
  name: "loss2/classifier_plantvillage"
  type: "InnerProduct"
  bottom: "loss2/fc"
  top: "loss2/classifier_plantvillage"
  param {
    lr_mult: 1
    decay_mult: 1
  }
  param {
    lr_mult: 2
    decay_mult: 0
  }
  inner_product_param {
    num_output: 38
    weight_filler {
      type: "xavier"
      std: 0.0009765625
    }
    bias_filler {
      type: "constant"
      value: 0
    }
  }
}
layer {
  name: "inception_4e/1x1"
  type: "Convolution"
  bottom: "inception_4d/output"
  top: "inception_4e/1x1"
  param {
    lr_mult: 1
    decay_mult: 1
  }
  param {
    lr_mult: 2
    decay_mult: 0
  }
  convolution_param {
    num_output: 256
    kernel_size: 1
    weight_filler {
      type: "xavier"
      std: 0.03
    }
    bias_filler {
      type: "constant"
      value: 0.2
    }
  }
}
layer {
  name: "inception_4e/relu_1x1"
  type: "ReLU"
  bottom: "inception_4e/1x1"
  top: "inception_4e/1x1"
}
layer {
  name: "inception_4e/3x3_reduce"
  type: "Convolution"
  bottom: "inception_4d/output"
  top: "inception_4e/3x3_reduce"
  param {
    lr_mult: 1
    decay_mult: 1
  }
  param {
    lr_mult: 2
    decay_mult: 0
  }
  convolution_param {
    num_output: 160
    kernel_size: 1
    weight_filler {
      type: "xavier"
      std: 0.09
    }
    bias_filler {
      type: "constant"
      value: 0.2
    }
  }
}
layer {
  name: "inception_4e/relu_3x3_reduce"
  type: "ReLU"
  bottom: "inception_4e/3x3_reduce"
  top: "inception_4e/3x3_reduce"
}
layer {
  name: "inception_4e/3x3"
  type: "Convolution"
  bottom: "inception_4e/3x3_reduce"
  top: "inception_4e/3x3"
  param {
    lr_mult: 1
    decay_mult: 1
  }
  param {
    lr_mult: 2
    decay_mult: 0
  }
  convolution_param {
    num_output: 320
    pad: 1
    kernel_size: 3
    weight_filler {
      type: "xavier"
      std: 0.03
    }
    bias_filler {
      type: "constant"
      value: 0.2
    }
  }
}
layer {
  name: "inception_4e/relu_3x3"
  type: "ReLU"
  bottom: "inception_4e/3x3"
  top: "inception_4e/3x3"
}
layer {
  name: "inception_4e/5x5_reduce"
  type: "Convolution"
  bottom: "inception_4d/output"
  top: "inception_4e/5x5_reduce"
  param {
    lr_mult: 1
    decay_mult: 1
  }
  param {
    lr_mult: 2
    decay_mult: 0
  }
  convolution_param {
    num_output: 32
    kernel_size: 1
    weight_filler {
      type: "xavier"
      std: 0.2
    }
    bias_filler {
      type: "constant"
      value: 0.2
    }
  }
}
layer {
  name: "inception_4e/relu_5x5_reduce"
  type: "ReLU"
  bottom: "inception_4e/5x5_reduce"
  top: "inception_4e/5x5_reduce"
}
layer {
  name: "inception_4e/5x5"
  type: "Convolution"
  bottom: "inception_4e/5x5_reduce"
  top: "inception_4e/5x5"
  p
I0403 15:43:35.735692   435 layer_factory.hpp:77] Creating layer data
I0403 15:43:35.736340   435 net.cpp:91] Creating Layer data
I0403 15:43:35.736374   435 net.cpp:399] data -> data
I0403 15:43:35.736428   435 net.cpp:399] data -> label
I0403 15:43:35.736467   435 data_transformer.cpp:25] Loading mean file from: /home/mohanty/data/final_dataset/lmdb/color-60-40/mean.binaryproto
I0403 15:43:35.739265   438 db_lmdb.cpp:38] Opened lmdb /home/mohanty/data/final_dataset/lmdb/color-60-40/test_db
I0403 15:43:35.750288   435 data_layer.cpp:41] output data size: 24,3,224,224
I0403 15:43:35.781632   435 net.cpp:141] Setting up data
I0403 15:43:35.781709   435 net.cpp:148] Top shape: 24 3 224 224 (3612672)
I0403 15:43:35.781733   435 net.cpp:148] Top shape: 24 (24)
I0403 15:43:35.781749   435 net.cpp:156] Memory required for data: 14450784
I0403 15:43:35.781780   435 layer_factory.hpp:77] Creating layer label_data_1_split
I0403 15:43:35.781808   435 net.cpp:91] Creating Layer label_data_1_split
I0403 15:43:35.781828   435 net.cpp:425] label_data_1_split <- label
I0403 15:43:35.781862   435 net.cpp:399] label_data_1_split -> label_data_1_split_0
I0403 15:43:35.781890   435 net.cpp:399] label_data_1_split -> label_data_1_split_1
I0403 15:43:35.781913   435 net.cpp:399] label_data_1_split -> label_data_1_split_2
I0403 15:43:35.781936   435 net.cpp:399] label_data_1_split -> label_data_1_split_3
I0403 15:43:35.781960   435 net.cpp:399] label_data_1_split -> label_data_1_split_4
I0403 15:43:35.781981   435 net.cpp:399] label_data_1_split -> label_data_1_split_5
I0403 15:43:35.782002   435 net.cpp:399] label_data_1_split -> label_data_1_split_6
I0403 15:43:35.782023   435 net.cpp:399] label_data_1_split -> label_data_1_split_7
I0403 15:43:35.782044   435 net.cpp:399] label_data_1_split -> label_data_1_split_8
I0403 15:43:35.782068   435 net.cpp:399] label_data_1_split -> label_data_1_split_9
I0403 15:43:35.782188   435 net.cpp:141] Setting up label_data_1_split
I0403 15:43:35.782214   435 net.cpp:148] Top shape: 24 (24)
I0403 15:43:35.782232   435 net.cpp:148] Top shape: 24 (24)
I0403 15:43:35.782249   435 net.cpp:148] Top shape: 24 (24)
I0403 15:43:35.782271   435 net.cpp:148] Top shape: 24 (24)
I0403 15:43:35.782289   435 net.cpp:148] Top shape: 24 (24)
I0403 15:43:35.782306   435 net.cpp:148] Top shape: 24 (24)
I0403 15:43:35.782322   435 net.cpp:148] Top shape: 24 (24)
I0403 15:43:35.782341   435 net.cpp:148] Top shape: 24 (24)
I0403 15:43:35.782356   435 net.cpp:148] Top shape: 24 (24)
I0403 15:43:35.782372   435 net.cpp:148] Top shape: 24 (24)
I0403 15:43:35.782419   435 net.cpp:156] Memory required for data: 14451744
I0403 15:43:35.782438   435 layer_factory.hpp:77] Creating layer conv1/7x7_s2
I0403 15:43:35.782471   435 net.cpp:91] Creating Layer conv1/7x7_s2
I0403 15:43:35.782490   435 net.cpp:425] conv1/7x7_s2 <- data
I0403 15:43:35.782511   435 net.cpp:399] conv1/7x7_s2 -> conv1/7x7_s2
I0403 15:43:35.932569   435 net.cpp:141] Setting up conv1/7x7_s2
I0403 15:43:35.932634   435 net.cpp:148] Top shape: 24 64 112 112 (19267584)
I0403 15:43:35.932653   435 net.cpp:156] Memory required for data: 91522080
I0403 15:43:35.932687   435 layer_factory.hpp:77] Creating layer conv1/relu_7x7
I0403 15:43:35.932715   435 net.cpp:91] Creating Layer conv1/relu_7x7
I0403 15:43:35.932735   435 net.cpp:425] conv1/relu_7x7 <- conv1/7x7_s2
I0403 15:43:35.932755   435 net.cpp:386] conv1/relu_7x7 -> conv1/7x7_s2 (in-place)
I0403 15:43:35.933029   435 net.cpp:141] Setting up conv1/relu_7x7
I0403 15:43:35.933059   435 net.cpp:148] Top shape: 24 64 112 112 (19267584)
I0403 15:43:35.933076   435 net.cpp:156] Memory required for data: 168592416
I0403 15:43:35.933094   435 layer_factory.hpp:77] Creating layer pool1/3x3_s2
I0403 15:43:35.933120   435 net.cpp:91] Creating Layer pool1/3x3_s2
I0403 15:43:35.933140   435 net.cpp:425] pool1/3x3_s2 <- conv1/7x7_s2
I0403 15:43:35.933181   435 net.cpp:399] pool1/3x3_s2 -> pool1/3x3_s2
I0403 15:43:35.933267   435 net.cpp:141] Setting up pool1/3x3_s2
I0403 15:43:35.933295   435 net.cpp:148] Top shape: 24 64 56 56 (4816896)
I0403 15:43:35.933311   435 net.cpp:156] Memory required for data: 187860000
I0403 15:43:35.933327   435 layer_factory.hpp:77] Creating layer pool1/norm1
I0403 15:43:35.933353   435 net.cpp:91] Creating Layer pool1/norm1
I0403 15:43:35.933372   435 net.cpp:425] pool1/norm1 <- pool1/3x3_s2
I0403 15:43:35.933393   435 net.cpp:399] pool1/norm1 -> pool1/norm1
I0403 15:43:35.933697   435 net.cpp:141] Setting up pool1/norm1
I0403 15:43:35.933727   435 net.cpp:148] Top shape: 24 64 56 56 (4816896)
I0403 15:43:35.933743   435 net.cpp:156] Memory required for data: 207127584
I0403 15:43:35.933760   435 layer_factory.hpp:77] Creating layer conv2/3x3_reduce
I0403 15:43:35.933787   435 net.cpp:91] Creating Layer conv2/3x3_reduce
I0403 15:43:35.933805   435 net.cpp:425] conv2/3x3_reduce <- pool1/norm1
I0403 15:43:35.933825   435 net.cpp:399] conv2/3x3_reduce -> conv2/3x3_reduce
I0403 15:43:35.935288   435 net.cpp:141] Setting up conv2/3x3_reduce
I0403 15:43:35.935322   435 net.cpp:148] Top shape: 24 64 56 56 (4816896)
I0403 15:43:35.935339   435 net.cpp:156] Memory required for data: 226395168
I0403 15:43:35.935364   435 layer_factory.hpp:77] Creating layer conv2/relu_3x3_reduce
I0403 15:43:35.935387   435 net.cpp:91] Creating Layer conv2/relu_3x3_reduce
I0403 15:43:35.935405   435 net.cpp:425] conv2/relu_3x3_reduce <- conv2/3x3_reduce
I0403 15:43:35.935425   435 net.cpp:386] conv2/relu_3x3_reduce -> conv2/3x3_reduce (in-place)
I0403 15:43:35.935717   435 net.cpp:141] Setting up conv2/relu_3x3_reduce
I0403 15:43:35.935746   435 net.cpp:148] Top shape: 24 64 56 56 (4816896)
I0403 15:43:35.935763   435 net.cpp:156] Memory required for data: 245662752
I0403 15:43:35.935780   435 layer_factory.hpp:77] Creating layer conv2/3x3
I0403 15:43:35.935806   435 net.cpp:91] Creating Layer conv2/3x3
I0403 15:43:35.935824   435 net.cpp:425] conv2/3x3 <- conv2/3x3_reduce
I0403 15:43:35.935848   435 net.cpp:399] conv2/3x3 -> conv2/3x3
I0403 15:43:35.938283   435 net.cpp:141] Setting up conv2/3x3
I0403 15:43:35.938316   435 net.cpp:148] Top shape: 24 192 56 56 (14450688)
I0403 15:43:35.938334   435 net.cpp:156] Memory required for data: 303465504
I0403 15:43:35.938360   435 layer_factory.hpp:77] Creating layer conv2/relu_3x3
I0403 15:43:35.938382   435 net.cpp:91] Creating Layer conv2/relu_3x3
I0403 15:43:35.938398   435 net.cpp:425] conv2/relu_3x3 <- conv2/3x3
I0403 15:43:35.938417   435 net.cpp:386] conv2/relu_3x3 -> conv2/3x3 (in-place)
I0403 15:43:35.938609   435 net.cpp:141] Setting up conv2/relu_3x3
I0403 15:43:35.938668   435 net.cpp:148] Top shape: 24 192 56 56 (14450688)
I0403 15:43:35.938719   435 net.cpp:156] Memory required for data: 361268256
I0403 15:43:35.938736   435 layer_factory.hpp:77] Creating layer conv2/norm2
I0403 15:43:35.938756   435 net.cpp:91] Creating Layer conv2/norm2
I0403 15:43:35.938773   435 net.cpp:425] conv2/norm2 <- conv2/3x3
I0403 15:43:35.938796   435 net.cpp:399] conv2/norm2 -> conv2/norm2
I0403 15:43:35.939124   435 net.cpp:141] Setting up conv2/norm2
I0403 15:43:35.939154   435 net.cpp:148] Top shape: 24 192 56 56 (14450688)
I0403 15:43:35.939170   435 net.cpp:156] Memory required for data: 419071008
I0403 15:43:35.939185   435 layer_factory.hpp:77] Creating layer pool2/3x3_s2
I0403 15:43:35.939204   435 net.cpp:91] Creating Layer pool2/3x3_s2
I0403 15:43:35.939224   435 net.cpp:425] pool2/3x3_s2 <- conv2/norm2
I0403 15:43:35.939246   435 net.cpp:399] pool2/3x3_s2 -> pool2/3x3_s2
I0403 15:43:35.939309   435 net.cpp:141] Setting up pool2/3x3_s2
I0403 15:43:35.939335   435 net.cpp:148] Top shape: 24 192 28 28 (3612672)
I0403 15:43:35.939352   435 net.cpp:156] Memory required for data: 433521696
I0403 15:43:35.939368   435 layer_factory.hpp:77] Creating layer pool2/3x3_s2_pool2/3x3_s2_0_split
I0403 15:43:35.939388   435 net.cpp:91] Creating Layer pool2/3x3_s2_pool2/3x3_s2_0_split
I0403 15:43:35.939404   435 net.cpp:425] pool2/3x3_s2_pool2/3x3_s2_0_split <- pool2/3x3_s2
I0403 15:43:35.939424   435 net.cpp:399] pool2/3x3_s2_pool2/3x3_s2_0_split -> pool2/3x3_s2_pool2/3x3_s2_0_split_0
I0403 15:43:35.939446   435 net.cpp:399] pool2/3x3_s2_pool2/3x3_s2_0_split -> pool2/3x3_s2_pool2/3x3_s2_0_split_1
I0403 15:43:35.939470   435 net.cpp:399] pool2/3x3_s2_pool2/3x3_s2_0_split -> pool2/3x3_s2_pool2/3x3_s2_0_split_2
I0403 15:43:35.939491   435 net.cpp:399] pool2/3x3_s2_pool2/3x3_s2_0_split -> pool2/3x3_s2_pool2/3x3_s2_0_split_3
I0403 15:43:35.939566   435 net.cpp:141] Setting up pool2/3x3_s2_pool2/3x3_s2_0_split
I0403 15:43:35.939591   435 net.cpp:148] Top shape: 24 192 28 28 (3612672)
I0403 15:43:35.939610   435 net.cpp:148] Top shape: 24 192 28 28 (3612672)
I0403 15:43:35.939627   435 net.cpp:148] Top shape: 24 192 28 28 (3612672)
I0403 15:43:35.939645   435 net.cpp:148] Top shape: 24 192 28 28 (3612672)
I0403 15:43:35.939659   435 net.cpp:156] Memory required for data: 491324448
I0403 15:43:35.939676   435 layer_factory.hpp:77] Creating layer inception_3a/1x1
I0403 15:43:35.939700   435 net.cpp:91] Creating Layer inception_3a/1x1
I0403 15:43:35.939719   435 net.cpp:425] inception_3a/1x1 <- pool2/3x3_s2_pool2/3x3_s2_0_split_0
I0403 15:43:35.939741   435 net.cpp:399] inception_3a/1x1 -> inception_3a/1x1
I0403 15:43:35.941416   435 net.cpp:141] Setting up inception_3a/1x1
I0403 15:43:35.941447   435 net.cpp:148] Top shape: 24 64 28 28 (1204224)
I0403 15:43:35.941465   435 net.cpp:156] Memory required for data: 496141344
I0403 15:43:35.941486   435 layer_factory.hpp:77] Creating layer inception_3a/relu_1x1
I0403 15:43:35.941509   435 net.cpp:91] Creating Layer inception_3a/relu_1x1
I0403 15:43:35.941527   435 net.cpp:425] inception_3a/relu_1x1 <- inception_3a/1x1
I0403 15:43:35.941556   435 net.cpp:386] inception_3a/relu_1x1 -> inception_3a/1x1 (in-place)
I0403 15:43:35.941742   435 net.cpp:141] Setting up inception_3a/relu_1x1
I0403 15:43:35.941772   435 net.cpp:148] Top shape: 24 64 28 28 (1204224)
I0403 15:43:35.941790   435 net.cpp:156] Memory required for data: 500958240
I0403 15:43:35.941808   435 layer_factory.hpp:77] Creating layer inception_3a/3x3_reduce
I0403 15:43:35.941834   435 net.cpp:91] Creating Layer inception_3a/3x3_reduce
I0403 15:43:35.941854   435 net.cpp:425] inception_3a/3x3_reduce <- pool2/3x3_s2_pool2/3x3_s2_0_split_1
I0403 15:43:35.941874   435 net.cpp:399] inception_3a/3x3_reduce -> inception_3a/3x3_reduce
I0403 15:43:35.943733   435 net.cpp:141] Setting up inception_3a/3x3_reduce
I0403 15:43:35.943765   435 net.cpp:148] Top shape: 24 96 28 28 (1806336)
I0403 15:43:35.943783   435 net.cpp:156] Memory required for data: 508183584
I0403 15:43:35.943807   435 layer_factory.hpp:77] Creating layer inception_3a/relu_3x3_reduce
I0403 15:43:35.943846   435 net.cpp:91] Creating Layer inception_3a/relu_3x3_reduce
I0403 15:43:35.943866   435 net.cpp:425] inception_3a/relu_3x3_reduce <- inception_3a/3x3_reduce
I0403 15:43:35.943886   435 net.cpp:386] inception_3a/relu_3x3_reduce -> inception_3a/3x3_reduce (in-place)
I0403 15:43:35.944113   435 net.cpp:141] Setting up inception_3a/relu_3x3_reduce
I0403 15:43:35.944140   435 net.cpp:148] Top shape: 24 96 28 28 (1806336)
I0403 15:43:35.944156   435 net.cpp:156] Memory required for data: 515408928
I0403 15:43:35.944172   435 layer_factory.hpp:77] Creating layer inception_3a/3x3
I0403 15:43:35.944197   435 net.cpp:91] Creating Layer inception_3a/3x3
I0403 15:43:35.944217   435 net.cpp:425] inception_3a/3x3 <- inception_3a/3x3_reduce
I0403 15:43:35.944241   435 net.cpp:399] inception_3a/3x3 -> inception_3a/3x3
I0403 15:43:35.946065   435 net.cpp:141] Setting up inception_3a/3x3
I0403 15:43:35.946096   435 net.cpp:148] Top shape: 24 128 28 28 (2408448)
I0403 15:43:35.946113   435 net.cpp:156] Memory required for data: 525042720
I0403 15:43:35.946133   435 layer_factory.hpp:77] Creating layer inception_3a/relu_3x3
I0403 15:43:35.946156   435 net.cpp:91] Creating Layer inception_3a/relu_3x3
I0403 15:43:35.946177   435 net.cpp:425] inception_3a/relu_3x3 <- inception_3a/3x3
I0403 15:43:35.946197   435 net.cpp:386] inception_3a/relu_3x3 -> inception_3a/3x3 (in-place)
I0403 15:43:35.946493   435 net.cpp:141] Setting up inception_3a/relu_3x3
I0403 15:43:35.946521   435 net.cpp:148] Top shape: 24 128 28 28 (2408448)
I0403 15:43:35.946538   435 net.cpp:156] Memory required for data: 534676512
I0403 15:43:35.946555   435 layer_factory.hpp:77] Creating layer inception_3a/5x5_reduce
I0403 15:43:35.946583   435 net.cpp:91] Creating Layer inception_3a/5x5_reduce
I0403 15:43:35.946601   435 net.cpp:425] inception_3a/5x5_reduce <- pool2/3x3_s2_pool2/3x3_s2_0_split_2
I0403 15:43:35.946624   435 net.cpp:399] inception_3a/5x5_reduce -> inception_3a/5x5_reduce
I0403 15:43:35.947713   435 net.cpp:141] Setting up inception_3a/5x5_reduce
I0403 15:43:35.947746   435 net.cpp:148] Top shape: 24 16 28 28 (301056)
I0403 15:43:35.947762   435 net.cpp:156] Memory required for data: 535880736
I0403 15:43:35.947785   435 layer_factory.hpp:77] Creating layer inception_3a/relu_5x5_reduce
I0403 15:43:35.947806   435 net.cpp:91] Creating Layer inception_3a/relu_5x5_reduce
I0403 15:43:35.947824   435 net.cpp:425] inception_3a/relu_5x5_reduce <- inception_3a/5x5_reduce
I0403 15:43:35.947844   435 net.cpp:386] inception_3a/relu_5x5_reduce -> inception_3a/5x5_reduce (in-place)
I0403 15:43:35.948163   435 net.cpp:141] Setting up inception_3a/relu_5x5_reduce
I0403 15:43:35.948194   435 net.cpp:148] Top shape: 24 16 28 28 (301056)
I0403 15:43:35.948211   435 net.cpp:156] Memory required for data: 537084960
I0403 15:43:35.948228   435 layer_factory.hpp:77] Creating layer inception_3a/5x5
I0403 15:43:35.948256   435 net.cpp:91] Creating Layer inception_3a/5x5
I0403 15:43:35.948277   435 net.cpp:425] inception_3a/5x5 <- inception_3a/5x5_reduce
I0403 15:43:35.948298   435 net.cpp:399] inception_3a/5x5 -> inception_3a/5x5
I0403 15:43:35.949390   435 net.cpp:141] Setting up inception_3a/5x5
I0403 15:43:35.949420   435 net.cpp:148] Top shape: 24 32 28 28 (602112)
I0403 15:43:35.949437   435 net.cpp:156] Memory required for data: 539493408
I0403 15:43:35.949458   435 layer_factory.hpp:77] Creating layer inception_3a/relu_5x5
I0403 15:43:35.949481   435 net.cpp:91] Creating Layer inception_3a/relu_5x5
I0403 15:43:35.949501   435 net.cpp:425] inception_3a/relu_5x5 <- inception_3a/5x5
I0403 15:43:35.949519   435 net.cpp:386] inception_3a/relu_5x5 -> inception_3a/5x5 (in-place)
I0403 15:43:35.949704   435 net.cpp:141] Setting up inception_3a/relu_5x5
I0403 15:43:35.949734   435 net.cpp:148] Top shape: 24 32 28 28 (602112)
I0403 15:43:35.949751   435 net.cpp:156] Memory required for data: 541901856
I0403 15:43:35.949769   435 layer_factory.hpp:77] Creating layer inception_3a/pool
I0403 15:43:35.949787   435 net.cpp:91] Creating Layer inception_3a/pool
I0403 15:43:35.949803   435 net.cpp:425] inception_3a/pool <- pool2/3x3_s2_pool2/3x3_s2_0_split_3
I0403 15:43:35.949838   435 net.cpp:399] inception_3a/pool -> inception_3a/pool
I0403 15:43:35.949901   435 net.cpp:141] Setting up inception_3a/pool
I0403 15:43:35.949928   435 net.cpp:148] Top shape: 24 192 28 28 (3612672)
I0403 15:43:35.949944   435 net.cpp:156] Memory required for data: 556352544
I0403 15:43:35.949961   435 layer_factory.hpp:77] Creating layer inception_3a/pool_proj
I0403 15:43:35.949985   435 net.cpp:91] Creating Layer inception_3a/pool_proj
I0403 15:43:35.950003   435 net.cpp:425] inception_3a/pool_proj <- inception_3a/pool
I0403 15:43:35.950026   435 net.cpp:399] inception_3a/pool_proj -> inception_3a/pool_proj
I0403 15:43:35.951045   435 net.cpp:141] Setting up inception_3a/pool_proj
I0403 15:43:35.951076   435 net.cpp:148] Top shape: 24 32 28 28 (602112)
I0403 15:43:35.951092   435 net.cpp:156] Memory required for data: 558760992
I0403 15:43:35.951118   435 layer_factory.hpp:77] Creating layer inception_3a/relu_pool_proj
I0403 15:43:35.951139   435 net.cpp:91] Creating Layer inception_3a/relu_pool_proj
I0403 15:43:35.951158   435 net.cpp:425] inception_3a/relu_pool_proj <- inception_3a/pool_proj
I0403 15:43:35.951177   435 net.cpp:386] inception_3a/relu_pool_proj -> inception_3a/pool_proj (in-place)
I0403 15:43:35.951463   435 net.cpp:141] Setting up inception_3a/relu_pool_proj
I0403 15:43:35.951491   435 net.cpp:148] Top shape: 24 32 28 28 (602112)
I0403 15:43:35.951508   435 net.cpp:156] Memory required for data: 561169440
I0403 15:43:35.951524   435 layer_factory.hpp:77] Creating layer inception_3a/output
I0403 15:43:35.951545   435 net.cpp:91] Creating Layer inception_3a/output
I0403 15:43:35.951562   435 net.cpp:425] inception_3a/output <- inception_3a/1x1
I0403 15:43:35.951581   435 net.cpp:425] inception_3a/output <- inception_3a/3x3
I0403 15:43:35.951598   435 net.cpp:425] inception_3a/output <- inception_3a/5x5
I0403 15:43:35.951614   435 net.cpp:425] inception_3a/output <- inception_3a/pool_proj
I0403 15:43:35.951632   435 net.cpp:399] inception_3a/output -> inception_3a/output
I0403 15:43:35.951681   435 net.cpp:141] Setting up inception_3a/output
I0403 15:43:35.951706   435 net.cpp:148] Top shape: 24 256 28 28 (4816896)
I0403 15:43:35.951721   435 net.cpp:156] Memory required for data: 580437024
I0403 15:43:35.951737   435 layer_factory.hpp:77] Creating layer inception_3a/output_inception_3a/output_0_split
I0403 15:43:35.951756   435 net.cpp:91] Creating Layer inception_3a/output_inception_3a/output_0_split
I0403 15:43:35.951771   435 net.cpp:425] inception_3a/output_inception_3a/output_0_split <- inception_3a/output
I0403 15:43:35.951792   435 net.cpp:399] inception_3a/output_inception_3a/output_0_split -> inception_3a/output_inception_3a/output_0_split_0
I0403 15:43:35.951814   435 net.cpp:399] inception_3a/output_inception_3a/output_0_split -> inception_3a/output_inception_3a/output_0_split_1
I0403 15:43:35.951843   435 net.cpp:399] inception_3a/output_inception_3a/output_0_split -> inception_3a/output_inception_3a/output_0_split_2
I0403 15:43:35.951865   435 net.cpp:399] inception_3a/output_inception_3a/output_0_split -> inception_3a/output_inception_3a/output_0_split_3
I0403 15:43:35.951939   435 net.cpp:141] Setting up inception_3a/output_inception_3a/output_0_split
I0403 15:43:35.951964   435 net.cpp:148] Top shape: 24 256 28 28 (4816896)
I0403 15:43:35.951982   435 net.cpp:148] Top shape: 24 256 28 28 (4816896)
I0403 15:43:35.951998   435 net.cpp:148] Top shape: 24 256 28 28 (4816896)
I0403 15:43:35.952014   435 net.cpp:148] Top shape: 24 256 28 28 (4816896)
I0403 15:43:35.952029   435 net.cpp:156] Memory required for data: 657507360
I0403 15:43:35.952044   435 layer_factory.hpp:77] Creating layer inception_3b/1x1
I0403 15:43:35.952069   435 net.cpp:91] Creating Layer inception_3b/1x1
I0403 15:43:35.952085   435 net.cpp:425] inception_3b/1x1 <- inception_3a/output_inception_3a/output_0_split_0
I0403 15:43:35.952107   435 net.cpp:399] inception_3b/1x1 -> inception_3b/1x1
I0403 15:43:35.953282   435 net.cpp:141] Setting up inception_3b/1x1
I0403 15:43:35.953323   435 net.cpp:148] Top shape: 24 128 28 28 (2408448)
I0403 15:43:35.953341   435 net.cpp:156] Memory required for data: 667141152
I0403 15:43:35.953361   435 layer_factory.hpp:77] Creating layer inception_3b/relu_1x1
I0403 15:43:35.953382   435 net.cpp:91] Creating Layer inception_3b/relu_1x1
I0403 15:43:35.953399   435 net.cpp:425] inception_3b/relu_1x1 <- inception_3b/1x1
I0403 15:43:35.953418   435 net.cpp:386] inception_3b/relu_1x1 -> inception_3b/1x1 (in-place)
I0403 15:43:35.953600   435 net.cpp:141] Setting up inception_3b/relu_1x1
I0403 15:43:35.953627   435 net.cpp:148] Top shape: 24 128 28 28 (2408448)
I0403 15:43:35.953644   435 net.cpp:156] Memory required for data: 676774944
I0403 15:43:35.953660   435 layer_factory.hpp:77] Creating layer inception_3b/3x3_reduce
I0403 15:43:35.953685   435 net.cpp:91] Creating Layer inception_3b/3x3_reduce
I0403 15:43:35.953702   435 net.cpp:425] inception_3b/3x3_reduce <- inception_3a/output_inception_3a/output_0_split_1
I0403 15:43:35.953722   435 net.cpp:399] inception_3b/3x3_reduce -> inception_3b/3x3_reduce
I0403 15:43:35.954905   435 net.cpp:141] Setting up inception_3b/3x3_reduce
I0403 15:43:35.954933   435 net.cpp:148] Top shape: 24 128 28 28 (2408448)
I0403 15:43:35.954951   435 net.cpp:156] Memory required for data: 686408736
I0403 15:43:35.954969   435 layer_factory.hpp:77] Creating layer inception_3b/relu_3x3_reduce
I0403 15:43:35.954990   435 net.cpp:91] Creating Layer inception_3b/relu_3x3_reduce
I0403 15:43:35.955008   435 net.cpp:425] inception_3b/relu_3x3_reduce <- inception_3b/3x3_reduce
I0403 15:43:35.955027   435 net.cpp:386] inception_3b/relu_3x3_reduce -> inception_3b/3x3_reduce (in-place)
I0403 15:43:35.955210   435 net.cpp:141] Setting up inception_3b/relu_3x3_reduce
I0403 15:43:35.955236   435 net.cpp:148] Top shape: 24 128 28 28 (2408448)
I0403 15:43:35.955260   435 net.cpp:156] Memory required for data: 696042528
I0403 15:43:35.955277   435 layer_factory.hpp:77] Creating layer inception_3b/3x3
I0403 15:43:35.955303   435 net.cpp:91] Creating Layer inception_3b/3x3
I0403 15:43:35.955322   435 net.cpp:425] inception_3b/3x3 <- inception_3b/3x3_reduce
I0403 15:43:35.955345   435 net.cpp:399] inception_3b/3x3 -> inception_3b/3x3
I0403 15:43:35.958374   435 net.cpp:141] Setting up inception_3b/3x3
I0403 15:43:35.958405   435 net.cpp:148] Top shape: 24 192 28 28 (3612672)
I0403 15:43:35.958422   435 net.cpp:156] Memory required for data: 710493216
I0403 15:43:35.958442   435 layer_factory.hpp:77] Creating layer inception_3b/relu_3x3
I0403 15:43:35.958463   435 net.cpp:91] Creating Layer inception_3b/relu_3x3
I0403 15:43:35.958482   435 net.cpp:425] inception_3b/relu_3x3 <- inception_3b/3x3
I0403 15:43:35.958499   435 net.cpp:386] inception_3b/relu_3x3 -> inception_3b/3x3 (in-place)
I0403 15:43:35.958787   435 net.cpp:141] Setting up inception_3b/relu_3x3
I0403 15:43:35.958817   435 net.cpp:148] Top shape: 24 192 28 28 (3612672)
I0403 15:43:35.958832   435 net.cpp:156] Memory required for data: 724943904
I0403 15:43:35.958849   435 layer_factory.hpp:77] Creating layer inception_3b/5x5_reduce
I0403 15:43:35.958875   435 net.cpp:91] Creating Layer inception_3b/5x5_reduce
I0403 15:43:35.958894   435 net.cpp:425] inception_3b/5x5_reduce <- inception_3a/output_inception_3a/output_0_split_2
I0403 15:43:35.958914   435 net.cpp:399] inception_3b/5x5_reduce -> inception_3b/5x5_reduce
I0403 15:43:35.959941   435 net.cpp:141] Setting up inception_3b/5x5_reduce
I0403 15:43:35.959970   435 net.cpp:148] Top shape: 24 32 28 28 (602112)
I0403 15:43:35.959987   435 net.cpp:156] Memory required for data: 727352352
I0403 15:43:35.960019   435 layer_factory.hpp:77] Creating layer inception_3b/relu_5x5_reduce
I0403 15:43:35.960049   435 net.cpp:91] Creating Layer inception_3b/relu_5x5_reduce
I0403 15:43:35.960069   435 net.cpp:425] inception_3b/relu_5x5_reduce <- inception_3b/5x5_reduce
I0403 15:43:35.960086   435 net.cpp:386] inception_3b/relu_5x5_reduce -> inception_3b/5x5_reduce (in-place)
I0403 15:43:35.960271   435 net.cpp:141] Setting up inception_3b/relu_5x5_reduce
I0403 15:43:35.960312   435 net.cpp:148] Top shape: 24 32 28 28 (602112)
I0403 15:43:35.960337   435 net.cpp:156] Memory required for data: 729760800
I0403 15:43:35.960352   435 layer_factory.hpp:77] Creating layer inception_3b/5x5
I0403 15:43:35.960376   435 net.cpp:91] Creating Layer inception_3b/5x5
I0403 15:43:35.960393   435 net.cpp:425] inception_3b/5x5 <- inception_3b/5x5_reduce
I0403 15:43:35.960413   435 net.cpp:399] inception_3b/5x5 -> inception_3b/5x5
I0403 15:43:35.962412   435 net.cpp:141] Setting up inception_3b/5x5
I0403 15:43:35.962442   435 net.cpp:148] Top shape: 24 96 28 28 (1806336)
I0403 15:43:35.962460   435 net.cpp:156] Memory required for data: 736986144
I0403 15:43:35.962478   435 layer_factory.hpp:77] Creating layer inception_3b/relu_5x5
I0403 15:43:35.962498   435 net.cpp:91] Creating Layer inception_3b/relu_5x5
I0403 15:43:35.962515   435 net.cpp:425] inception_3b/relu_5x5 <- inception_3b/5x5
I0403 15:43:35.962553   435 net.cpp:386] inception_3b/relu_5x5 -> inception_3b/5x5 (in-place)
I0403 15:43:35.962759   435 net.cpp:141] Setting up inception_3b/relu_5x5
I0403 15:43:35.962785   435 net.cpp:148] Top shape: 24 96 28 28 (1806336)
I0403 15:43:35.962801   435 net.cpp:156] Memory required for data: 744211488
I0403 15:43:35.962817   435 layer_factory.hpp:77] Creating layer inception_3b/pool
I0403 15:43:35.962837   435 net.cpp:91] Creating Layer inception_3b/pool
I0403 15:43:35.962854   435 net.cpp:425] inception_3b/pool <- inception_3a/output_inception_3a/output_0_split_3
I0403 15:43:35.962872   435 net.cpp:399] inception_3b/pool -> inception_3b/pool
I0403 15:43:35.962929   435 net.cpp:141] Setting up inception_3b/pool
I0403 15:43:35.962952   435 net.cpp:148] Top shape: 24 256 28 28 (4816896)
I0403 15:43:35.962968   435 net.cpp:156] Memory required for data: 763479072
I0403 15:43:35.962985   435 layer_factory.hpp:77] Creating layer inception_3b/pool_proj
I0403 15:43:35.963007   435 net.cpp:91] Creating Layer inception_3b/pool_proj
I0403 15:43:35.963026   435 net.cpp:425] inception_3b/pool_proj <- inception_3b/pool
I0403 15:43:35.963048   435 net.cpp:399] inception_3b/pool_proj -> inception_3b/pool_proj
I0403 15:43:35.964118   435 net.cpp:141] Setting up inception_3b/pool_proj
I0403 15:43:35.964148   435 net.cpp:148] Top shape: 24 64 28 28 (1204224)
I0403 15:43:35.964165   435 net.cpp:156] Memory required for data: 768295968
I0403 15:43:35.964184   435 layer_factory.hpp:77] Creating layer inception_3b/relu_pool_proj
I0403 15:43:35.964202   435 net.cpp:91] Creating Layer inception_3b/relu_pool_proj
I0403 15:43:35.964218   435 net.cpp:425] inception_3b/relu_pool_proj <- inception_3b/pool_proj
I0403 15:43:35.964239   435 net.cpp:386] inception_3b/relu_pool_proj -> inception_3b/pool_proj (in-place)
I0403 15:43:35.964644   435 net.cpp:141] Setting up inception_3b/relu_pool_proj
I0403 15:43:35.964674   435 net.cpp:148] Top shape: 24 64 28 28 (1204224)
I0403 15:43:35.964691   435 net.cpp:156] Memory required for data: 773112864
I0403 15:43:35.964707   435 layer_factory.hpp:77] Creating layer inception_3b/output
I0403 15:43:35.964726   435 net.cpp:91] Creating Layer inception_3b/output
I0403 15:43:35.964742   435 net.cpp:425] inception_3b/output <- inception_3b/1x1
I0403 15:43:35.964761   435 net.cpp:425] inception_3b/output <- inception_3b/3x3
I0403 15:43:35.964777   435 net.cpp:425] inception_3b/output <- inception_3b/5x5
I0403 15:43:35.964793   435 net.cpp:425] inception_3b/output <- inception_3b/pool_proj
I0403 15:43:35.964810   435 net.cpp:399] inception_3b/output -> inception_3b/output
I0403 15:43:35.964859   435 net.cpp:141] Setting up inception_3b/output
I0403 15:43:35.964892   435 net.cpp:148] Top shape: 24 480 28 28 (9031680)
I0403 15:43:35.964907   435 net.cpp:156] Memory required for data: 809239584
I0403 15:43:35.964923   435 layer_factory.hpp:77] Creating layer pool3/3x3_s2
I0403 15:43:35.964943   435 net.cpp:91] Creating Layer pool3/3x3_s2
I0403 15:43:35.964961   435 net.cpp:425] pool3/3x3_s2 <- inception_3b/output
I0403 15:43:35.964978   435 net.cpp:399] pool3/3x3_s2 -> pool3/3x3_s2
I0403 15:43:35.965051   435 net.cpp:141] Setting up pool3/3x3_s2
I0403 15:43:35.965075   435 net.cpp:148] Top shape: 24 480 14 14 (2257920)
I0403 15:43:35.965091   435 net.cpp:156] Memory required for data: 818271264
I0403 15:43:35.965106   435 layer_factory.hpp:77] Creating layer pool3/3x3_s2_pool3/3x3_s2_0_split
I0403 15:43:35.965124   435 net.cpp:91] Creating Layer pool3/3x3_s2_pool3/3x3_s2_0_split
I0403 15:43:35.965139   435 net.cpp:425] pool3/3x3_s2_pool3/3x3_s2_0_split <- pool3/3x3_s2
I0403 15:43:35.965158   435 net.cpp:399] pool3/3x3_s2_pool3/3x3_s2_0_split -> pool3/3x3_s2_pool3/3x3_s2_0_split_0
I0403 15:43:35.965179   435 net.cpp:399] pool3/3x3_s2_pool3/3x3_s2_0_split -> pool3/3x3_s2_pool3/3x3_s2_0_split_1
I0403 15:43:35.965200   435 net.cpp:399] pool3/3x3_s2_pool3/3x3_s2_0_split -> pool3/3x3_s2_pool3/3x3_s2_0_split_2
I0403 15:43:35.965221   435 net.cpp:399] pool3/3x3_s2_pool3/3x3_s2_0_split -> pool3/3x3_s2_pool3/3x3_s2_0_split_3
I0403 15:43:35.965301   435 net.cpp:141] Setting up pool3/3x3_s2_pool3/3x3_s2_0_split
I0403 15:43:35.965327   435 net.cpp:148] Top shape: 24 480 14 14 (2257920)
I0403 15:43:35.965347   435 net.cpp:148] Top shape: 24 480 14 14 (2257920)
I0403 15:43:35.965361   435 net.cpp:148] Top shape: 24 480 14 14 (2257920)
I0403 15:43:35.965378   435 net.cpp:148] Top shape: 24 480 14 14 (2257920)
I0403 15:43:35.965391   435 net.cpp:156] Memory required for data: 854397984
I0403 15:43:35.965406   435 layer_factory.hpp:77] Creating layer inception_4a/1x1
I0403 15:43:35.965430   435 net.cpp:91] Creating Layer inception_4a/1x1
I0403 15:43:35.965448   435 net.cpp:425] inception_4a/1x1 <- pool3/3x3_s2_pool3/3x3_s2_0_split_0
I0403 15:43:35.965468   435 net.cpp:399] inception_4a/1x1 -> inception_4a/1x1
I0403 15:43:35.967090   435 net.cpp:141] Setting up inception_4a/1x1
I0403 15:43:35.967119   435 net.cpp:148] Top shape: 24 192 14 14 (903168)
I0403 15:43:35.967135   435 net.cpp:156] Memory required for data: 858010656
I0403 15:43:35.967154   435 layer_factory.hpp:77] Creating layer inception_4a/relu_1x1
I0403 15:43:35.967171   435 net.cpp:91] Creating Layer inception_4a/relu_1x1
I0403 15:43:35.967187   435 net.cpp:425] inception_4a/relu_1x1 <- inception_4a/1x1
I0403 15:43:35.967207   435 net.cpp:386] inception_4a/relu_1x1 -> inception_4a/1x1 (in-place)
I0403 15:43:35.967392   435 net.cpp:141] Setting up inception_4a/relu_1x1
I0403 15:43:35.967419   435 net.cpp:148] Top shape: 24 192 14 14 (903168)
I0403 15:43:35.967434   435 net.cpp:156] Memory required for data: 861623328
I0403 15:43:35.967450   435 layer_factory.hpp:77] Creating layer inception_4a/3x3_reduce
I0403 15:43:35.967473   435 net.cpp:91] Creating Layer inception_4a/3x3_reduce
I0403 15:43:35.967491   435 net.cpp:425] inception_4a/3x3_reduce <- pool3/3x3_s2_pool3/3x3_s2_0_split_1
I0403 15:43:35.967512   435 net.cpp:399] inception_4a/3x3_reduce -> inception_4a/3x3_reduce
I0403 15:43:35.968803   435 net.cpp:141] Setting up inception_4a/3x3_reduce
I0403 15:43:35.968834   435 net.cpp:148] Top shape: 24 96 14 14 (451584)
I0403 15:43:35.968850   435 net.cpp:156] Memory required for data: 863429664
I0403 15:43:35.968880   435 layer_factory.hpp:77] Creating layer inception_4a/relu_3x3_reduce
I0403 15:43:35.968900   435 net.cpp:91] Creating Layer inception_4a/relu_3x3_reduce
I0403 15:43:35.968917   435 net.cpp:425] inception_4a/relu_3x3_reduce <- inception_4a/3x3_reduce
I0403 15:43:35.968935   435 net.cpp:386] inception_4a/relu_3x3_reduce -> inception_4a/3x3_reduce (in-place)
I0403 15:43:35.969116   435 net.cpp:141] Setting up inception_4a/relu_3x3_reduce
I0403 15:43:35.969141   435 net.cpp:148] Top shape: 24 96 14 14 (451584)
I0403 15:43:35.969156   435 net.cpp:156] Memory required for data: 865236000
I0403 15:43:35.969171   435 layer_factory.hpp:77] Creating layer inception_4a/3x3
I0403 15:43:35.969194   435 net.cpp:91] Creating Layer inception_4a/3x3
I0403 15:43:35.969213   435 net.cpp:425] inception_4a/3x3 <- inception_4a/3x3_reduce
I0403 15:43:35.969233   435 net.cpp:399] inception_4a/3x3 -> inception_4a/3x3
I0403 15:43:35.971928   435 net.cpp:141] Setting up inception_4a/3x3
I0403 15:43:35.971957   435 net.cpp:148] Top shape: 24 208 14 14 (978432)
I0403 15:43:35.971974   435 net.cpp:156] Memory required for data: 869149728
I0403 15:43:35.971992   435 layer_factory.hpp:77] Creating layer inception_4a/relu_3x3
I0403 15:43:35.972013   435 net.cpp:91] Creating Layer inception_4a/relu_3x3
I0403 15:43:35.972031   435 net.cpp:425] inception_4a/relu_3x3 <- inception_4a/3x3
I0403 15:43:35.972050   435 net.cpp:386] inception_4a/relu_3x3 -> inception_4a/3x3 (in-place)
I0403 15:43:35.972335   435 net.cpp:141] Setting up inception_4a/relu_3x3
I0403 15:43:35.972362   435 net.cpp:148] Top shape: 24 208 14 14 (978432)
I0403 15:43:35.972378   435 net.cpp:156] Memory required for data: 873063456
I0403 15:43:35.972393   435 layer_factory.hpp:77] Creating layer inception_4a/5x5_reduce
I0403 15:43:35.972417   435 net.cpp:91] Creating Layer inception_4a/5x5_reduce
I0403 15:43:35.972435   435 net.cpp:425] inception_4a/5x5_reduce <- pool3/3x3_s2_pool3/3x3_s2_0_split_2
I0403 15:43:35.972458   435 net.cpp:399] inception_4a/5x5_reduce -> inception_4a/5x5_reduce
I0403 15:43:35.973502   435 net.cpp:141] Setting up inception_4a/5x5_reduce
I0403 15:43:35.973531   435 net.cpp:148] Top shape: 24 16 14 14 (75264)
I0403 15:43:35.973547   435 net.cpp:156] Memory required for data: 873364512
I0403 15:43:35.973567   435 layer_factory.hpp:77] Creating layer inception_4a/relu_5x5_reduce
I0403 15:43:35.973599   435 net.cpp:91] Creating Layer inception_4a/relu_5x5_reduce
I0403 15:43:35.973618   435 net.cpp:425] inception_4a/relu_5x5_reduce <- inception_4a/5x5_reduce
I0403 15:43:35.973635   435 net.cpp:386] inception_4a/relu_5x5_reduce -> inception_4a/5x5_reduce (in-place)
I0403 15:43:35.973810   435 net.cpp:141] Setting up inception_4a/relu_5x5_reduce
I0403 15:43:35.973840   435 net.cpp:148] Top shape: 24 16 14 14 (75264)
I0403 15:43:35.973857   435 net.cpp:156] Memory required for data: 873665568
I0403 15:43:35.973882   435 layer_factory.hpp:77] Creating layer inception_4a/5x5
I0403 15:43:35.973904   435 net.cpp:91] Creating Layer inception_4a/5x5
I0403 15:43:35.973922   435 net.cpp:425] inception_4a/5x5 <- inception_4a/5x5_reduce
I0403 15:43:35.973942   435 net.cpp:399] inception_4a/5x5 -> inception_4a/5x5
I0403 15:43:35.975067   435 net.cpp:141] Setting up inception_4a/5x5
I0403 15:43:35.975100   435 net.cpp:148] Top shape: 24 48 14 14 (225792)
I0403 15:43:35.975117   435 net.cpp:156] Memory required for data: 874568736
I0403 15:43:35.975137   435 layer_factory.hpp:77] Creating layer inception_4a/relu_5x5
I0403 15:43:35.975157   435 net.cpp:91] Creating Layer inception_4a/relu_5x5
I0403 15:43:35.975174   435 net.cpp:425] inception_4a/relu_5x5 <- inception_4a/5x5
I0403 15:43:35.975198   435 net.cpp:386] inception_4a/relu_5x5 -> inception_4a/5x5 (in-place)
I0403 15:43:35.975386   435 net.cpp:141] Setting up inception_4a/relu_5x5
I0403 15:43:35.975414   435 net.cpp:148] Top shape: 24 48 14 14 (225792)
I0403 15:43:35.975430   435 net.cpp:156] Memory required for data: 875471904
I0403 15:43:35.975445   435 layer_factory.hpp:77] Creating layer inception_4a/pool
I0403 15:43:35.975463   435 net.cpp:91] Creating Layer inception_4a/pool
I0403 15:43:35.975481   435 net.cpp:425] inception_4a/pool <- pool3/3x3_s2_pool3/3x3_s2_0_split_3
I0403 15:43:35.975502   435 net.cpp:399] inception_4a/pool -> inception_4a/pool
I0403 15:43:35.975565   435 net.cpp:141] Setting up inception_4a/pool
I0403 15:43:35.975600   435 net.cpp:148] Top shape: 24 480 14 14 (2257920)
I0403 15:43:35.975616   435 net.cpp:156] Memory required for data: 884503584
I0403 15:43:35.975631   435 layer_factory.hpp:77] Creating layer inception_4a/pool_proj
I0403 15:43:35.975657   435 net.cpp:91] Creating Layer inception_4a/pool_proj
I0403 15:43:35.975677   435 net.cpp:425] inception_4a/pool_proj <- inception_4a/pool
I0403 15:43:35.975697   435 net.cpp:399] inception_4a/pool_proj -> inception_4a/pool_proj
I0403 15:43:35.976905   435 net.cpp:141] Setting up inception_4a/pool_proj
I0403 15:43:35.976936   435 net.cpp:148] Top shape: 24 64 14 14 (301056)
I0403 15:43:35.976969   435 net.cpp:156] Memory required for data: 885707808
I0403 15:43:35.976989   435 layer_factory.hpp:77] Creating layer inception_4a/relu_pool_proj
I0403 15:43:35.977010   435 net.cpp:91] Creating Layer inception_4a/relu_pool_proj
I0403 15:43:35.977027   435 net.cpp:425] inception_4a/relu_pool_proj <- inception_4a/pool_proj
I0403 15:43:35.977051   435 net.cpp:386] inception_4a/relu_pool_proj -> inception_4a/pool_proj (in-place)
I0403 15:43:35.977349   435 net.cpp:141] Setting up inception_4a/relu_pool_proj
I0403 15:43:35.977380   435 net.cpp:148] Top shape: 24 64 14 14 (301056)
I0403 15:43:35.977396   435 net.cpp:156] Memory required for data: 886912032
I0403 15:43:35.977413   435 layer_factory.hpp:77] Creating layer inception_4a/output
I0403 15:43:35.977432   435 net.cpp:91] Creating Layer inception_4a/output
I0403 15:43:35.977447   435 net.cpp:425] inception_4a/output <- inception_4a/1x1
I0403 15:43:35.977465   435 net.cpp:425] inception_4a/output <- inception_4a/3x3
I0403 15:43:35.977483   435 net.cpp:425] inception_4a/output <- inception_4a/5x5
I0403 15:43:35.977499   435 net.cpp:425] inception_4a/output <- inception_4a/pool_proj
I0403 15:43:35.977519   435 net.cpp:399] inception_4a/output -> inception_4a/output
I0403 15:43:35.977566   435 net.cpp:141] Setting up inception_4a/output
I0403 15:43:35.977591   435 net.cpp:148] Top shape: 24 512 14 14 (2408448)
I0403 15:43:35.977605   435 net.cpp:156] Memory required for data: 896545824
I0403 15:43:35.977620   435 layer_factory.hpp:77] Creating layer inception_4a/output_inception_4a/output_0_split
I0403 15:43:35.977640   435 net.cpp:91] Creating Layer inception_4a/output_inception_4a/output_0_split
I0403 15:43:35.977658   435 net.cpp:425] inception_4a/output_inception_4a/output_0_split <- inception_4a/output
I0403 15:43:35.977677   435 net.cpp:399] inception_4a/output_inception_4a/output_0_split -> inception_4a/output_inception_4a/output_0_split_0
I0403 15:43:35.977702   435 net.cpp:399] inception_4a/output_inception_4a/output_0_split -> inception_4a/output_inception_4a/output_0_split_1
I0403 15:43:35.977723   435 net.cpp:399] inception_4a/output_inception_4a/output_0_split -> inception_4a/output_inception_4a/output_0_split_2
I0403 15:43:35.977746   435 net.cpp:399] inception_4a/output_inception_4a/output_0_split -> inception_4a/output_inception_4a/output_0_split_3
I0403 15:43:35.977766   435 net.cpp:399] inception_4a/output_inception_4a/output_0_split -> inception_4a/output_inception_4a/output_0_split_4
I0403 15:43:35.977859   435 net.cpp:141] Setting up inception_4a/output_inception_4a/output_0_split
I0403 15:43:35.977885   435 net.cpp:148] Top shape: 24 512 14 14 (2408448)
I0403 15:43:35.977901   435 net.cpp:148] Top shape: 24 512 14 14 (2408448)
I0403 15:43:35.977918   435 net.cpp:148] Top shape: 24 512 14 14 (2408448)
I0403 15:43:35.977934   435 net.cpp:148] Top shape: 24 512 14 14 (2408448)
I0403 15:43:35.977952   435 net.cpp:148] Top shape: 24 512 14 14 (2408448)
I0403 15:43:35.977965   435 net.cpp:156] Memory required for data: 944714784
I0403 15:43:35.977982   435 layer_factory.hpp:77] Creating layer loss1/ave_pool
I0403 15:43:35.978003   435 net.cpp:91] Creating Layer loss1/ave_pool
I0403 15:43:35.978018   435 net.cpp:425] loss1/ave_pool <- inception_4a/output_inception_4a/output_0_split_0
I0403 15:43:35.978039   435 net.cpp:399] loss1/ave_pool -> loss1/ave_pool
I0403 15:43:35.978250   435 net.cpp:141] Setting up loss1/ave_pool
I0403 15:43:35.978286   435 net.cpp:148] Top shape: 24 512 4 4 (196608)
I0403 15:43:35.978302   435 net.cpp:156] Memory required for data: 945501216
I0403 15:43:35.978318   435 layer_factory.hpp:77] Creating layer loss1/conv
I0403 15:43:35.978341   435 net.cpp:91] Creating Layer loss1/conv
I0403 15:43:35.978360   435 net.cpp:425] loss1/conv <- loss1/ave_pool
I0403 15:43:35.978382   435 net.cpp:399] loss1/conv -> loss1/conv
I0403 15:43:35.979830   435 net.cpp:141] Setting up loss1/conv
I0403 15:43:35.979859   435 net.cpp:148] Top shape: 24 128 4 4 (49152)
I0403 15:43:35.979876   435 net.cpp:156] Memory required for data: 945697824
I0403 15:43:35.979910   435 layer_factory.hpp:77] Creating layer loss1/relu_conv
I0403 15:43:35.979933   435 net.cpp:91] Creating Layer loss1/relu_conv
I0403 15:43:35.979953   435 net.cpp:425] loss1/relu_conv <- loss1/conv
I0403 15:43:35.979972   435 net.cpp:386] loss1/relu_conv -> loss1/conv (in-place)
I0403 15:43:35.980268   435 net.cpp:141] Setting up loss1/relu_conv
I0403 15:43:35.980296   435 net.cpp:148] Top shape: 24 128 4 4 (49152)
I0403 15:43:35.980314   435 net.cpp:156] Memory required for data: 945894432
I0403 15:43:35.980329   435 layer_factory.hpp:77] Creating layer loss1/fc
I0403 15:43:35.980355   435 net.cpp:91] Creating Layer loss1/fc
I0403 15:43:35.980375   435 net.cpp:425] loss1/fc <- loss1/conv
I0403 15:43:35.980396   435 net.cpp:399] loss1/fc -> loss1/fc
I0403 15:43:35.998422   435 net.cpp:141] Setting up loss1/fc
I0403 15:43:35.998456   435 net.cpp:148] Top shape: 24 1024 (24576)
I0403 15:43:35.998471   435 net.cpp:156] Memory required for data: 945992736
I0403 15:43:35.998491   435 layer_factory.hpp:77] Creating layer loss1/relu_fc
I0403 15:43:35.998510   435 net.cpp:91] Creating Layer loss1/relu_fc
I0403 15:43:35.998528   435 net.cpp:425] loss1/relu_fc <- loss1/fc
I0403 15:43:35.998548   435 net.cpp:386] loss1/relu_fc -> loss1/fc (in-place)
I0403 15:43:35.998739   435 net.cpp:141] Setting up loss1/relu_fc
I0403 15:43:35.998764   435 net.cpp:148] Top shape: 24 1024 (24576)
I0403 15:43:35.998780   435 net.cpp:156] Memory required for data: 946091040
I0403 15:43:35.998795   435 layer_factory.hpp:77] Creating layer loss1/drop_fc
I0403 15:43:35.998822   435 net.cpp:91] Creating Layer loss1/drop_fc
I0403 15:43:35.998842   435 net.cpp:425] loss1/drop_fc <- loss1/fc
I0403 15:43:35.998862   435 net.cpp:386] loss1/drop_fc -> loss1/fc (in-place)
I0403 15:43:35.998914   435 net.cpp:141] Setting up loss1/drop_fc
I0403 15:43:35.998940   435 net.cpp:148] Top shape: 24 1024 (24576)
I0403 15:43:35.998956   435 net.cpp:156] Memory required for data: 946189344
I0403 15:43:35.998972   435 layer_factory.hpp:77] Creating layer loss1/classifier_plantvillage
I0403 15:43:35.998991   435 net.cpp:91] Creating Layer loss1/classifier_plantvillage
I0403 15:43:35.999007   435 net.cpp:425] loss1/classifier_plantvillage <- loss1/fc
I0403 15:43:35.999029   435 net.cpp:399] loss1/classifier_plantvillage -> loss1/classifier_plantvillage
I0403 15:43:35.999925   435 net.cpp:141] Setting up loss1/classifier_plantvillage
I0403 15:43:35.999954   435 net.cpp:148] Top shape: 24 38 (912)
I0403 15:43:35.999969   435 net.cpp:156] Memory required for data: 946192992
I0403 15:43:35.999989   435 layer_factory.hpp:77] Creating layer loss1/classifier_plantvillage_loss1/classifier_plantvillage_0_split
I0403 15:43:36.000007   435 net.cpp:91] Creating Layer loss1/classifier_plantvillage_loss1/classifier_plantvillage_0_split
I0403 15:43:36.000025   435 net.cpp:425] loss1/classifier_plantvillage_loss1/classifier_plantvillage_0_split <- loss1/classifier_plantvillage
I0403 15:43:36.000054   435 net.cpp:399] loss1/classifier_plantvillage_loss1/classifier_plantvillage_0_split -> loss1/classifier_plantvillage_loss1/classifier_plantvillage_0_split_0
I0403 15:43:36.000077   435 net.cpp:399] loss1/classifier_plantvillage_loss1/classifier_plantvillage_0_split -> loss1/classifier_plantvillage_loss1/classifier_plantvillage_0_split_1
I0403 15:43:36.000097   435 net.cpp:399] loss1/classifier_plantvillage_loss1/classifier_plantvillage_0_split -> loss1/classifier_plantvillage_loss1/classifier_plantvillage_0_split_2
I0403 15:43:36.000166   435 net.cpp:141] Setting up loss1/classifier_plantvillage_loss1/classifier_plantvillage_0_split
I0403 15:43:36.000191   435 net.cpp:148] Top shape: 24 38 (912)
I0403 15:43:36.000208   435 net.cpp:148] Top shape: 24 38 (912)
I0403 15:43:36.000223   435 net.cpp:148] Top shape: 24 38 (912)
I0403 15:43:36.000237   435 net.cpp:156] Memory required for data: 946203936
I0403 15:43:36.000257   435 layer_factory.hpp:77] Creating layer inception_4b/1x1
I0403 15:43:36.000280   435 net.cpp:91] Creating Layer inception_4b/1x1
I0403 15:43:36.000315   435 net.cpp:425] inception_4b/1x1 <- inception_4a/output_inception_4a/output_0_split_1
I0403 15:43:36.000336   435 net.cpp:399] inception_4b/1x1 -> inception_4b/1x1
I0403 15:43:36.001976   435 net.cpp:141] Setting up inception_4b/1x1
I0403 15:43:36.002005   435 net.cpp:148] Top shape: 24 160 14 14 (752640)
I0403 15:43:36.002022   435 net.cpp:156] Memory required for data: 949214496
I0403 15:43:36.002043   435 layer_factory.hpp:77] Creating layer inception_4b/relu_1x1
I0403 15:43:36.002063   435 net.cpp:91] Creating Layer inception_4b/relu_1x1
I0403 15:43:36.002081   435 net.cpp:425] inception_4b/relu_1x1 <- inception_4b/1x1
I0403 15:43:36.002099   435 net.cpp:386] inception_4b/relu_1x1 -> inception_4b/1x1 (in-place)
I0403 15:43:36.002285   435 net.cpp:141] Setting up inception_4b/relu_1x1
I0403 15:43:36.002313   435 net.cpp:148] Top shape: 24 160 14 14 (752640)
I0403 15:43:36.002329   435 net.cpp:156] Memory required for data: 952225056
I0403 15:43:36.002346   435 layer_factory.hpp:77] Creating layer inception_4b/3x3_reduce
I0403 15:43:36.002368   435 net.cpp:91] Creating Layer inception_4b/3x3_reduce
I0403 15:43:36.002387   435 net.cpp:425] inception_4b/3x3_reduce <- inception_4a/output_inception_4a/output_0_split_2
I0403 15:43:36.002405   435 net.cpp:399] inception_4b/3x3_reduce -> inception_4b/3x3_reduce
I0403 15:43:36.003767   435 net.cpp:141] Setting up inception_4b/3x3_reduce
I0403 15:43:36.003799   435 net.cpp:148] Top shape: 24 112 14 14 (526848)
I0403 15:43:36.003824   435 net.cpp:156] Memory required for data: 954332448
I0403 15:43:36.003844   435 layer_factory.hpp:77] Creating layer inception_4b/relu_3x3_reduce
I0403 15:43:36.003861   435 net.cpp:91] Creating Layer inception_4b/relu_3x3_reduce
I0403 15:43:36.003877   435 net.cpp:425] inception_4b/relu_3x3_reduce <- inception_4b/3x3_reduce
I0403 15:43:36.003895   435 net.cpp:386] inception_4b/relu_3x3_reduce -> inception_4b/3x3_reduce (in-place)
I0403 15:43:36.004180   435 net.cpp:141] Setting up inception_4b/relu_3x3_reduce
I0403 15:43:36.004210   435 net.cpp:148] Top shape: 24 112 14 14 (526848)
I0403 15:43:36.004227   435 net.cpp:156] Memory required for data: 956439840
I0403 15:43:36.004243   435 layer_factory.hpp:77] Creating layer inception_4b/3x3
I0403 15:43:36.004277   435 net.cpp:91] Creating Layer inception_4b/3x3
I0403 15:43:36.004298   435 net.cpp:425] inception_4b/3x3 <- inception_4b/3x3_reduce
I0403 15:43:36.004317   435 net.cpp:399] inception_4b/3x3 -> inception_4b/3x3
I0403 15:43:36.007324   435 net.cpp:141] Setting up inception_4b/3x3
I0403 15:43:36.007354   435 net.cpp:148] Top shape: 24 224 14 14 (1053696)
I0403 15:43:36.007371   435 net.cpp:156] Memory required for data: 960654624
I0403 15:43:36.007390   435 layer_factory.hpp:77] Creating layer inception_4b/relu_3x3
I0403 15:43:36.007410   435 net.cpp:91] Creating Layer inception_4b/relu_3x3
I0403 15:43:36.007426   435 net.cpp:425] inception_4b/relu_3x3 <- inception_4b/3x3
I0403 15:43:36.007447   435 net.cpp:386] inception_4b/relu_3x3 -> inception_4b/3x3 (in-place)
I0403 15:43:36.007642   435 net.cpp:141] Setting up inception_4b/relu_3x3
I0403 15:43:36.007668   435 net.cpp:148] Top shape: 24 224 14 14 (1053696)
I0403 15:43:36.007683   435 net.cpp:156] Memory required for data: 964869408
I0403 15:43:36.007699   435 layer_factory.hpp:77] Creating layer inception_4b/5x5_reduce
I0403 15:43:36.007721   435 net.cpp:91] Creating Layer inception_4b/5x5_reduce
I0403 15:43:36.007740   435 net.cpp:425] inception_4b/5x5_reduce <- inception_4a/output_inception_4a/output_0_split_3
I0403 15:43:36.007763   435 net.cpp:399] inception_4b/5x5_reduce -> inception_4b/5x5_reduce
I0403 15:43:36.008882   435 net.cpp:141] Setting up inception_4b/5x5_reduce
I0403 15:43:36.008909   435 net.cpp:148] Top shape: 24 24 14 14 (112896)
I0403 15:43:36.008926   435 net.cpp:156] Memory required for data: 965320992
I0403 15:43:36.008945   435 layer_factory.hpp:77] Creating layer inception_4b/relu_5x5_reduce
I0403 15:43:36.008968   435 net.cpp:91] Creating Layer inception_4b/relu_5x5_reduce
I0403 15:43:36.009002   435 net.cpp:425] inception_4b/relu_5x5_reduce <- inception_4b/5x5_reduce
I0403 15:43:36.009022   435 net.cpp:386] inception_4b/relu_5x5_reduce -> inception_4b/5x5_reduce (in-place)
I0403 15:43:36.009207   435 net.cpp:141] Setting up inception_4b/relu_5x5_reduce
I0403 15:43:36.009235   435 net.cpp:148] Top shape: 24 24 14 14 (112896)
I0403 15:43:36.009255   435 net.cpp:156] Memory required for data: 965772576
I0403 15:43:36.009273   435 layer_factory.hpp:77] Creating layer inception_4b/5x5
I0403 15:43:36.009296   435 net.cpp:91] Creating Layer inception_4b/5x5
I0403 15:43:36.009315   435 net.cpp:425] inception_4b/5x5 <- inception_4b/5x5_reduce
I0403 15:43:36.009333   435 net.cpp:399] inception_4b/5x5 -> inception_4b/5x5
I0403 15:43:36.010577   435 net.cpp:141] Setting up inception_4b/5x5
I0403 15:43:36.010607   435 net.cpp:148] Top shape: 24 64 14 14 (301056)
I0403 15:43:36.010623   435 net.cpp:156] Memory required for data: 966976800
I0403 15:43:36.010643   435 layer_factory.hpp:77] Creating layer inception_4b/relu_5x5
I0403 15:43:36.010663   435 net.cpp:91] Creating Layer inception_4b/relu_5x5
I0403 15:43:36.010679   435 net.cpp:425] inception_4b/relu_5x5 <- inception_4b/5x5
I0403 15:43:36.010697   435 net.cpp:386] inception_4b/relu_5x5 -> inception_4b/5x5 (in-place)
I0403 15:43:36.010984   435 net.cpp:141] Setting up inception_4b/relu_5x5
I0403 15:43:36.011011   435 net.cpp:148] Top shape: 24 64 14 14 (301056)
I0403 15:43:36.011026   435 net.cpp:156] Memory required for data: 968181024
I0403 15:43:36.011042   435 layer_factory.hpp:77] Creating layer inception_4b/pool
I0403 15:43:36.011065   435 net.cpp:91] Creating Layer inception_4b/pool
I0403 15:43:36.011085   435 net.cpp:425] inception_4b/pool <- inception_4a/output_inception_4a/output_0_split_4
I0403 15:43:36.011103   435 net.cpp:399] inception_4b/pool -> inception_4b/pool
I0403 15:43:36.011170   435 net.cpp:141] Setting up inception_4b/pool
I0403 15:43:36.011195   435 net.cpp:148] Top shape: 24 512 14 14 (2408448)
I0403 15:43:36.011211   435 net.cpp:156] Memory required for data: 977814816
I0403 15:43:36.011227   435 layer_factory.hpp:77] Creating layer inception_4b/pool_proj
I0403 15:43:36.011250   435 net.cpp:91] Creating Layer inception_4b/pool_proj
I0403 15:43:36.011273   435 net.cpp:425] inception_4b/pool_proj <- inception_4b/pool
I0403 15:43:36.011296   435 net.cpp:399] inception_4b/pool_proj -> inception_4b/pool_proj
I0403 15:43:36.012536   435 net.cpp:141] Setting up inception_4b/pool_proj
I0403 15:43:36.012563   435 net.cpp:148] Top shape: 24 64 14 14 (301056)
I0403 15:43:36.012580   435 net.cpp:156] Memory required for data: 979019040
I0403 15:43:36.012599   435 layer_factory.hpp:77] Creating layer inception_4b/relu_pool_proj
I0403 15:43:36.012620   435 net.cpp:91] Creating Layer inception_4b/relu_pool_proj
I0403 15:43:36.012639   435 net.cpp:425] inception_4b/relu_pool_proj <- inception_4b/pool_proj
I0403 15:43:36.012658   435 net.cpp:386] inception_4b/relu_pool_proj -> inception_4b/pool_proj (in-place)
I0403 15:43:36.012845   435 net.cpp:141] Setting up inception_4b/relu_pool_proj
I0403 15:43:36.012873   435 net.cpp:148] Top shape: 24 64 14 14 (301056)
I0403 15:43:36.012890   435 net.cpp:156] Memory required for data: 980223264
I0403 15:43:36.012907   435 layer_factory.hpp:77] Creating layer inception_4b/output
I0403 15:43:36.012924   435 net.cpp:91] Creating Layer inception_4b/output
I0403 15:43:36.012940   435 net.cpp:425] inception_4b/output <- inception_4b/1x1
I0403 15:43:36.012956   435 net.cpp:425] inception_4b/output <- inception_4b/3x3
I0403 15:43:36.012974   435 net.cpp:425] inception_4b/output <- inception_4b/5x5
I0403 15:43:36.012990   435 net.cpp:425] inception_4b/output <- inception_4b/pool_proj
I0403 15:43:36.013007   435 net.cpp:399] inception_4b/output -> inception_4b/output
I0403 15:43:36.013054   435 net.cpp:141] Setting up inception_4b/output
I0403 15:43:36.013079   435 net.cpp:148] Top shape: 24 512 14 14 (2408448)
I0403 15:43:36.013094   435 net.cpp:156] Memory required for data: 989857056
I0403 15:43:36.013124   435 layer_factory.hpp:77] Creating layer inception_4b/output_inception_4b/output_0_split
I0403 15:43:36.013146   435 net.cpp:91] Creating Layer inception_4b/output_inception_4b/output_0_split
I0403 15:43:36.013164   435 net.cpp:425] inception_4b/output_inception_4b/output_0_split <- inception_4b/output
I0403 15:43:36.013183   435 net.cpp:399] inception_4b/output_inception_4b/output_0_split -> inception_4b/output_inception_4b/output_0_split_0
I0403 15:43:36.013203   435 net.cpp:399] inception_4b/output_inception_4b/output_0_split -> inception_4b/output_inception_4b/output_0_split_1
I0403 15:43:36.013223   435 net.cpp:399] inception_4b/output_inception_4b/output_0_split -> inception_4b/output_inception_4b/output_0_split_2
I0403 15:43:36.013247   435 net.cpp:399] inception_4b/output_inception_4b/output_0_split -> inception_4b/output_inception_4b/output_0_split_3
I0403 15:43:36.013337   435 net.cpp:141] Setting up inception_4b/output_inception_4b/output_0_split
I0403 15:43:36.013361   435 net.cpp:148] Top shape: 24 512 14 14 (2408448)
I0403 15:43:36.013380   435 net.cpp:148] Top shape: 24 512 14 14 (2408448)
I0403 15:43:36.013396   435 net.cpp:148] Top shape: 24 512 14 14 (2408448)
I0403 15:43:36.013411   435 net.cpp:148] Top shape: 24 512 14 14 (2408448)
I0403 15:43:36.013424   435 net.cpp:156] Memory required for data: 1028392224
I0403 15:43:36.013439   435 layer_factory.hpp:77] Creating layer inception_4c/1x1
I0403 15:43:36.013463   435 net.cpp:91] Creating Layer inception_4c/1x1
I0403 15:43:36.013483   435 net.cpp:425] inception_4c/1x1 <- inception_4b/output_inception_4b/output_0_split_0
I0403 15:43:36.013504   435 net.cpp:399] inception_4c/1x1 -> inception_4c/1x1
I0403 15:43:36.014952   435 net.cpp:141] Setting up inception_4c/1x1
I0403 15:43:36.014981   435 net.cpp:148] Top shape: 24 128 14 14 (602112)
I0403 15:43:36.014997   435 net.cpp:156] Memory required for data: 1030800672
I0403 15:43:36.015017   435 layer_factory.hpp:77] Creating layer inception_4c/relu_1x1
I0403 15:43:36.015035   435 net.cpp:91] Creating Layer inception_4c/relu_1x1
I0403 15:43:36.015053   435 net.cpp:425] inception_4c/relu_1x1 <- inception_4c/1x1
I0403 15:43:36.015074   435 net.cpp:386] inception_4c/relu_1x1 -> inception_4c/1x1 (in-place)
I0403 15:43:36.015265   435 net.cpp:141] Setting up inception_4c/relu_1x1
I0403 15:43:36.015292   435 net.cpp:148] Top shape: 24 128 14 14 (602112)
I0403 15:43:36.015307   435 net.cpp:156] Memory required for data: 1033209120
I0403 15:43:36.015323   435 layer_factory.hpp:77] Creating layer inception_4c/3x3_reduce
I0403 15:43:36.015347   435 net.cpp:91] Creating Layer inception_4c/3x3_reduce
I0403 15:43:36.015364   435 net.cpp:425] inception_4c/3x3_reduce <- inception_4b/output_inception_4b/output_0_split_1
I0403 15:43:36.015386   435 net.cpp:399] inception_4c/3x3_reduce -> inception_4c/3x3_reduce
I0403 15:43:36.017323   435 net.cpp:141] Setting up inception_4c/3x3_reduce
I0403 15:43:36.017351   435 net.cpp:148] Top shape: 24 128 14 14 (602112)
I0403 15:43:36.017369   435 net.cpp:156] Memory required for data: 1035617568
I0403 15:43:36.017387   435 layer_factory.hpp:77] Creating layer inception_4c/relu_3x3_reduce
I0403 15:43:36.017408   435 net.cpp:91] Creating Layer inception_4c/relu_3x3_reduce
I0403 15:43:36.017426   435 net.cpp:425] inception_4c/relu_3x3_reduce <- inception_4c/3x3_reduce
I0403 15:43:36.017444   435 net.cpp:386] inception_4c/relu_3x3_reduce -> inception_4c/3x3_reduce (in-place)
I0403 15:43:36.017732   435 net.cpp:141] Setting up inception_4c/relu_3x3_reduce
I0403 15:43:36.017760   435 net.cpp:148] Top shape: 24 128 14 14 (602112)
I0403 15:43:36.017776   435 net.cpp:156] Memory required for data: 1038026016
I0403 15:43:36.017791   435 layer_factory.hpp:77] Creating layer inception_4c/3x3
I0403 15:43:36.017814   435 net.cpp:91] Creating Layer inception_4c/3x3
I0403 15:43:36.017833   435 net.cpp:425] inception_4c/3x3 <- inception_4c/3x3_reduce
I0403 15:43:36.017855   435 net.cpp:399] inception_4c/3x3 -> inception_4c/3x3
I0403 15:43:36.021447   435 net.cpp:141] Setting up inception_4c/3x3
I0403 15:43:36.021488   435 net.cpp:148] Top shape: 24 256 14 14 (1204224)
I0403 15:43:36.021507   435 net.cpp:156] Memory required for data: 1042842912
I0403 15:43:36.021540   435 layer_factory.hpp:77] Creating layer inception_4c/relu_3x3
I0403 15:43:36.021564   435 net.cpp:91] Creating Layer inception_4c/relu_3x3
I0403 15:43:36.021581   435 net.cpp:425] inception_4c/relu_3x3 <- inception_4c/3x3
I0403 15:43:36.021600   435 net.cpp:386] inception_4c/relu_3x3 -> inception_4c/3x3 (in-place)
I0403 15:43:36.021785   435 net.cpp:141] Setting up inception_4c/relu_3x3
I0403 15:43:36.021811   435 net.cpp:148] Top shape: 24 256 14 14 (1204224)
I0403 15:43:36.021829   435 net.cpp:156] Memory required for data: 1047659808
I0403 15:43:36.021844   435 layer_factory.hpp:77] Creating layer inception_4c/5x5_reduce
I0403 15:43:36.021864   435 net.cpp:91] Creating Layer inception_4c/5x5_reduce
I0403 15:43:36.021883   435 net.cpp:425] inception_4c/5x5_reduce <- inception_4b/output_inception_4b/output_0_split_2
I0403 15:43:36.021905   435 net.cpp:399] inception_4c/5x5_reduce -> inception_4c/5x5_reduce
I0403 15:43:36.023011   435 net.cpp:141] Setting up inception_4c/5x5_reduce
I0403 15:43:36.023041   435 net.cpp:148] Top shape: 24 24 14 14 (112896)
I0403 15:43:36.023056   435 net.cpp:156] Memory required for data: 1048111392
I0403 15:43:36.023077   435 layer_factory.hpp:77] Creating layer inception_4c/relu_5x5_reduce
I0403 15:43:36.023097   435 net.cpp:91] Creating Layer inception_4c/relu_5x5_reduce
I0403 15:43:36.023114   435 net.cpp:425] inception_4c/relu_5x5_reduce <- inception_4c/5x5_reduce
I0403 15:43:36.023133   435 net.cpp:386] inception_4c/relu_5x5_reduce -> inception_4c/5x5_reduce (in-place)
I0403 15:43:36.023327   435 net.cpp:141] Setting up inception_4c/relu_5x5_reduce
I0403 15:43:36.023355   435 net.cpp:148] Top shape: 24 24 14 14 (112896)
I0403 15:43:36.023371   435 net.cpp:156] Memory required for data: 1048562976
I0403 15:43:36.023387   435 layer_factory.hpp:77] Creating layer inception_4c/5x5
I0403 15:43:36.023411   435 net.cpp:91] Creating Layer inception_4c/5x5
I0403 15:43:36.023429   435 net.cpp:425] inception_4c/5x5 <- inception_4c/5x5_reduce
I0403 15:43:36.023449   435 net.cpp:399] inception_4c/5x5 -> inception_4c/5x5
I0403 15:43:36.024749   435 net.cpp:141] Setting up inception_4c/5x5
I0403 15:43:36.024781   435 net.cpp:148] Top shape: 24 64 14 14 (301056)
I0403 15:43:36.024799   435 net.cpp:156] Memory required for data: 1049767200
I0403 15:43:36.024819   435 layer_factory.hpp:77] Creating layer inception_4c/relu_5x5
I0403 15:43:36.024838   435 net.cpp:91] Creating Layer inception_4c/relu_5x5
I0403 15:43:36.024857   435 net.cpp:425] inception_4c/relu_5x5 <- inception_4c/5x5
I0403 15:43:36.024876   435 net.cpp:386] inception_4c/relu_5x5 -> inception_4c/5x5 (in-place)
I0403 15:43:36.025184   435 net.cpp:141] Setting up inception_4c/relu_5x5
I0403 15:43:36.025216   435 net.cpp:148] Top shape: 24 64 14 14 (301056)
I0403 15:43:36.025233   435 net.cpp:156] Memory required for data: 1050971424
I0403 15:43:36.025249   435 layer_factory.hpp:77] Creating layer inception_4c/pool
I0403 15:43:36.025272   435 net.cpp:91] Creating Layer inception_4c/pool
I0403 15:43:36.025290   435 net.cpp:425] inception_4c/pool <- inception_4b/output_inception_4b/output_0_split_3
I0403 15:43:36.025312   435 net.cpp:399] inception_4c/pool -> inception_4c/pool
I0403 15:43:36.025380   435 net.cpp:141] Setting up inception_4c/pool
I0403 15:43:36.025405   435 net.cpp:148] Top shape: 24 512 14 14 (2408448)
I0403 15:43:36.025421   435 net.cpp:156] Memory required for data: 1060605216
I0403 15:43:36.025437   435 layer_factory.hpp:77] Creating layer inception_4c/pool_proj
I0403 15:43:36.025462   435 net.cpp:91] Creating Layer inception_4c/pool_proj
I0403 15:43:36.025481   435 net.cpp:425] inception_4c/pool_proj <- inception_4c/pool
I0403 15:43:36.025502   435 net.cpp:399] inception_4c/pool_proj -> inception_4c/pool_proj
I0403 15:43:36.026768   435 net.cpp:141] Setting up inception_4c/pool_proj
I0403 15:43:36.026798   435 net.cpp:148] Top shape: 24 64 14 14 (301056)
I0403 15:43:36.026830   435 net.cpp:156] Memory required for data: 1061809440
I0403 15:43:36.026851   435 layer_factory.hpp:77] Creating layer inception_4c/relu_pool_proj
I0403 15:43:36.026872   435 net.cpp:91] Creating Layer inception_4c/relu_pool_proj
I0403 15:43:36.026891   435 net.cpp:425] inception_4c/relu_pool_proj <- inception_4c/pool_proj
I0403 15:43:36.026911   435 net.cpp:386] inception_4c/relu_pool_proj -> inception_4c/pool_proj (in-place)
I0403 15:43:36.027106   435 net.cpp:141] Setting up inception_4c/relu_pool_proj
I0403 15:43:36.027133   435 net.cpp:148] Top shape: 24 64 14 14 (301056)
I0403 15:43:36.027151   435 net.cpp:156] Memory required for data: 1063013664
I0403 15:43:36.027168   435 layer_factory.hpp:77] Creating layer inception_4c/output
I0403 15:43:36.027186   435 net.cpp:91] Creating Layer inception_4c/output
I0403 15:43:36.027202   435 net.cpp:425] inception_4c/output <- inception_4c/1x1
I0403 15:43:36.027220   435 net.cpp:425] inception_4c/output <- inception_4c/3x3
I0403 15:43:36.027236   435 net.cpp:425] inception_4c/output <- inception_4c/5x5
I0403 15:43:36.027256   435 net.cpp:425] inception_4c/output <- inception_4c/pool_proj
I0403 15:43:36.027277   435 net.cpp:399] inception_4c/output -> inception_4c/output
I0403 15:43:36.027328   435 net.cpp:141] Setting up inception_4c/output
I0403 15:43:36.027354   435 net.cpp:148] Top shape: 24 512 14 14 (2408448)
I0403 15:43:36.027369   435 net.cpp:156] Memory required for data: 1072647456
I0403 15:43:36.027384   435 layer_factory.hpp:77] Creating layer inception_4c/output_inception_4c/output_0_split
I0403 15:43:36.027405   435 net.cpp:91] Creating Layer inception_4c/output_inception_4c/output_0_split
I0403 15:43:36.027422   435 net.cpp:425] inception_4c/output_inception_4c/output_0_split <- inception_4c/output
I0403 15:43:36.027441   435 net.cpp:399] inception_4c/output_inception_4c/output_0_split -> inception_4c/output_inception_4c/output_0_split_0
I0403 15:43:36.027462   435 net.cpp:399] inception_4c/output_inception_4c/output_0_split -> inception_4c/output_inception_4c/output_0_split_1
I0403 15:43:36.027483   435 net.cpp:399] inception_4c/output_inception_4c/output_0_split -> inception_4c/output_inception_4c/output_0_split_2
I0403 15:43:36.027506   435 net.cpp:399] inception_4c/output_inception_4c/output_0_split -> inception_4c/output_inception_4c/output_0_split_3
I0403 15:43:36.027597   435 net.cpp:141] Setting up inception_4c/output_inception_4c/output_0_split
I0403 15:43:36.027622   435 net.cpp:148] Top shape: 24 512 14 14 (2408448)
I0403 15:43:36.027640   435 net.cpp:148] Top shape: 24 512 14 14 (2408448)
I0403 15:43:36.027657   435 net.cpp:148] Top shape: 24 512 14 14 (2408448)
I0403 15:43:36.027673   435 net.cpp:148] Top shape: 24 512 14 14 (2408448)
I0403 15:43:36.027688   435 net.cpp:156] Memory required for data: 1111182624
I0403 15:43:36.027704   435 layer_factory.hpp:77] Creating layer inception_4d/1x1
I0403 15:43:36.027726   435 net.cpp:91] Creating Layer inception_4d/1x1
I0403 15:43:36.027745   435 net.cpp:425] inception_4d/1x1 <- inception_4c/output_inception_4c/output_0_split_0
I0403 15:43:36.027767   435 net.cpp:399] inception_4d/1x1 -> inception_4d/1x1
I0403 15:43:36.029196   435 net.cpp:141] Setting up inception_4d/1x1
I0403 15:43:36.029225   435 net.cpp:148] Top shape: 24 112 14 14 (526848)
I0403 15:43:36.029242   435 net.cpp:156] Memory required for data: 1113290016
I0403 15:43:36.029269   435 layer_factory.hpp:77] Creating layer inception_4d/relu_1x1
I0403 15:43:36.029289   435 net.cpp:91] Creating Layer inception_4d/relu_1x1
I0403 15:43:36.029306   435 net.cpp:425] inception_4d/relu_1x1 <- inception_4d/1x1
I0403 15:43:36.029327   435 net.cpp:386] inception_4d/relu_1x1 -> inception_4d/1x1 (in-place)
I0403 15:43:36.029520   435 net.cpp:141] Setting up inception_4d/relu_1x1
I0403 15:43:36.029551   435 net.cpp:148] Top shape: 24 112 14 14 (526848)
I0403 15:43:36.029567   435 net.cpp:156] Memory required for data: 1115397408
I0403 15:43:36.029583   435 layer_factory.hpp:77] Creating layer inception_4d/3x3_reduce
I0403 15:43:36.029621   435 net.cpp:91] Creating Layer inception_4d/3x3_reduce
I0403 15:43:36.029641   435 net.cpp:425] inception_4d/3x3_reduce <- inception_4c/output_inception_4c/output_0_split_1
I0403 15:43:36.029664   435 net.cpp:399] inception_4d/3x3_reduce -> inception_4d/3x3_reduce
I0403 15:43:36.031231   435 net.cpp:141] Setting up inception_4d/3x3_reduce
I0403 15:43:36.031266   435 net.cpp:148] Top shape: 24 144 14 14 (677376)
I0403 15:43:36.031286   435 net.cpp:156] Memory required for data: 1118106912
I0403 15:43:36.031306   435 layer_factory.hpp:77] Creating layer inception_4d/relu_3x3_reduce
I0403 15:43:36.031325   435 net.cpp:91] Creating Layer inception_4d/relu_3x3_reduce
I0403 15:43:36.031342   435 net.cpp:425] inception_4d/relu_3x3_reduce <- inception_4d/3x3_reduce
I0403 15:43:36.031363   435 net.cpp:386] inception_4d/relu_3x3_reduce -> inception_4d/3x3_reduce (in-place)
I0403 15:43:36.031667   435 net.cpp:141] Setting up inception_4d/relu_3x3_reduce
I0403 15:43:36.031697   435 net.cpp:148] Top shape: 24 144 14 14 (677376)
I0403 15:43:36.031714   435 net.cpp:156] Memory required for data: 1120816416
I0403 15:43:36.031731   435 layer_factory.hpp:77] Creating layer inception_4d/3x3
I0403 15:43:36.031754   435 net.cpp:91] Creating Layer inception_4d/3x3
I0403 15:43:36.031772   435 net.cpp:425] inception_4d/3x3 <- inception_4d/3x3_reduce
I0403 15:43:36.031792   435 net.cpp:399] inception_4d/3x3 -> inception_4d/3x3
I0403 15:43:36.036185   435 net.cpp:141] Setting up inception_4d/3x3
I0403 15:43:36.036216   435 net.cpp:148] Top shape: 24 288 14 14 (1354752)
I0403 15:43:36.036232   435 net.cpp:156] Memory required for data: 1126235424
I0403 15:43:36.036255   435 layer_factory.hpp:77] Creating layer inception_4d/relu_3x3
I0403 15:43:36.036278   435 net.cpp:91] Creating Layer inception_4d/relu_3x3
I0403 15:43:36.036298   435 net.cpp:425] inception_4d/relu_3x3 <- inception_4d/3x3
I0403 15:43:36.036315   435 net.cpp:386] inception_4d/relu_3x3 -> inception_4d/3x3 (in-place)
I0403 15:43:36.036507   435 net.cpp:141] Setting up inception_4d/relu_3x3
I0403 15:43:36.036533   435 net.cpp:148] Top shape: 24 288 14 14 (1354752)
I0403 15:43:36.036550   435 net.cpp:156] Memory required for data: 1131654432
I0403 15:43:36.036566   435 layer_factory.hpp:77] Creating layer inception_4d/5x5_reduce
I0403 15:43:36.036589   435 net.cpp:91] Creating Layer inception_4d/5x5_reduce
I0403 15:43:36.036608   435 net.cpp:425] inception_4d/5x5_reduce <- inception_4c/output_inception_4c/output_0_split_2
I0403 15:43:36.036629   435 net.cpp:399] inception_4d/5x5_reduce -> inception_4d/5x5_reduce
I0403 15:43:36.037837   435 net.cpp:141] Setting up inception_4d/5x5_reduce
I0403 15:43:36.037868   435 net.cpp:148] Top shape: 24 32 14 14 (150528)
I0403 15:43:36.037883   435 net.cpp:156] Memory required for data: 1132256544
I0403 15:43:36.037904   435 layer_factory.hpp:77] Creating layer inception_4d/relu_5x5_reduce
I0403 15:43:36.037925   435 net.cpp:91] Creating Layer inception_4d/relu_5x5_reduce
I0403 15:43:36.037945   435 net.cpp:425] inception_4d/relu_5x5_reduce <- inception_4d/5x5_reduce
I0403 15:43:36.037963   435 net.cpp:386] inception_4d/relu_5x5_reduce -> inception_4d/5x5_reduce (in-place)
I0403 15:43:36.038158   435 net.cpp:141] Setting up inception_4d/relu_5x5_reduce
I0403 15:43:36.038185   435 net.cpp:148] Top shape: 24 32 14 14 (150528)
I0403 15:43:36.038200   435 net.cpp:156] Memory required for data: 1132858656
I0403 15:43:36.038218   435 layer_factory.hpp:77] Creating layer inception_4d/5x5
I0403 15:43:36.038240   435 net.cpp:91] Creating Layer inception_4d/5x5
I0403 15:43:36.038264   435 net.cpp:425] inception_4d/5x5 <- inception_4d/5x5_reduce
I0403 15:43:36.038287   435 net.cpp:399] inception_4d/5x5 -> inception_4d/5x5
I0403 15:43:36.039813   435 net.cpp:141] Setting up inception_4d/5x5
I0403 15:43:36.039844   435 net.cpp:148] Top shape: 24 64 14 14 (301056)
I0403 15:43:36.039862   435 net.cpp:156] Memory required for data: 1134062880
I0403 15:43:36.039881   435 layer_factory.hpp:77] Creating layer inception_4d/relu_5x5
I0403 15:43:36.039916   435 net.cpp:91] Creating Layer inception_4d/relu_5x5
I0403 15:43:36.039934   435 net.cpp:425] inception_4d/relu_5x5 <- inception_4d/5x5
I0403 15:43:36.039952   435 net.cpp:386] inception_4d/relu_5x5 -> inception_4d/5x5 (in-place)
I0403 15:43:36.040273   435 net.cpp:141] Setting up inception_4d/relu_5x5
I0403 15:43:36.040304   435 net.cpp:148] Top shape: 24 64 14 14 (301056)
I0403 15:43:36.040321   435 net.cpp:156] Memory required for data: 1135267104
I0403 15:43:36.040338   435 layer_factory.hpp:77] Creating layer inception_4d/pool
I0403 15:43:36.040357   435 net.cpp:91] Creating Layer inception_4d/pool
I0403 15:43:36.040374   435 net.cpp:425] inception_4d/pool <- inception_4c/output_inception_4c/output_0_split_3
I0403 15:43:36.040395   435 net.cpp:399] inception_4d/pool -> inception_4d/pool
I0403 15:43:36.040465   435 net.cpp:141] Setting up inception_4d/pool
I0403 15:43:36.040491   435 net.cpp:148] Top shape: 24 512 14 14 (2408448)
I0403 15:43:36.040508   435 net.cpp:156] Memory required for data: 1144900896
I0403 15:43:36.040524   435 layer_factory.hpp:77] Creating layer inception_4d/pool_proj
I0403 15:43:36.040547   435 net.cpp:91] Creating Layer inception_4d/pool_proj
I0403 15:43:36.040566   435 net.cpp:425] inception_4d/pool_proj <- inception_4d/pool
I0403 15:43:36.040588   435 net.cpp:399] inception_4d/pool_proj -> inception_4d/pool_proj
I0403 15:43:36.042402   435 net.cpp:141] Setting up inception_4d/pool_proj
I0403 15:43:36.042433   435 net.cpp:148] Top shape: 24 64 14 14 (301056)
I0403 15:43:36.042450   435 net.cpp:156] Memory required for data: 1146105120
I0403 15:43:36.042470   435 layer_factory.hpp:77] Creating layer inception_4d/relu_pool_proj
I0403 15:43:36.042493   435 net.cpp:91] Creating Layer inception_4d/relu_pool_proj
I0403 15:43:36.042512   435 net.cpp:425] inception_4d/relu_pool_proj <- inception_4d/pool_proj
I0403 15:43:36.042532   435 net.cpp:386] inception_4d/relu_pool_proj -> inception_4d/pool_proj (in-place)
I0403 15:43:36.042731   435 net.cpp:141] Setting up inception_4d/relu_pool_proj
I0403 15:43:36.042757   435 net.cpp:148] Top shape: 24 64 14 14 (301056)
I0403 15:43:36.042773   435 net.cpp:156] Memory required for data: 1147309344
I0403 15:43:36.042788   435 layer_factory.hpp:77] Creating layer inception_4d/output
I0403 15:43:36.042809   435 net.cpp:91] Creating Layer inception_4d/output
I0403 15:43:36.042826   435 net.cpp:425] inception_4d/output <- inception_4d/1x1
I0403 15:43:36.042845   435 net.cpp:425] inception_4d/output <- inception_4d/3x3
I0403 15:43:36.042862   435 net.cpp:425] inception_4d/output <- inception_4d/5x5
I0403 15:43:36.042879   435 net.cpp:425] inception_4d/output <- inception_4d/pool_proj
I0403 15:43:36.042898   435 net.cpp:399] inception_4d/output -> inception_4d/output
I0403 15:43:36.042969   435 net.cpp:141] Setting up inception_4d/output
I0403 15:43:36.042994   435 net.cpp:148] Top shape: 24 528 14 14 (2483712)
I0403 15:43:36.043009   435 net.cpp:156] Memory required for data: 1157244192
I0403 15:43:36.043023   435 layer_factory.hpp:77] Creating layer inception_4d/output_inception_4d/output_0_split
I0403 15:43:36.043041   435 net.cpp:91] Creating Layer inception_4d/output_inception_4d/output_0_split
I0403 15:43:36.043057   435 net.cpp:425] inception_4d/output_inception_4d/output_0_split <- inception_4d/output
I0403 15:43:36.043078   435 net.cpp:399] inception_4d/output_inception_4d/output_0_split -> inception_4d/output_inception_4d/output_0_split_0
I0403 15:43:36.043102   435 net.cpp:399] inception_4d/output_inception_4d/output_0_split -> inception_4d/output_inception_4d/output_0_split_1
I0403 15:43:36.043123   435 net.cpp:399] inception_4d/output_inception_4d/output_0_split -> inception_4d/output_inception_4d/output_0_split_2
I0403 15:43:36.043143   435 net.cpp:399] inception_4d/output_inception_4d/output_0_split -> inception_4d/output_inception_4d/output_0_split_3
I0403 15:43:36.043169   435 net.cpp:399] inception_4d/output_inception_4d/output_0_split -> inception_4d/output_inception_4d/output_0_split_4
I0403 15:43:36.043277   435 net.cpp:141] Setting up inception_4d/output_inception_4d/output_0_split
I0403 15:43:36.043314   435 net.cpp:148] Top shape: 24 528 14 14 (2483712)
I0403 15:43:36.043332   435 net.cpp:148] Top shape: 24 528 14 14 (2483712)
I0403 15:43:36.043349   435 net.cpp:148] Top shape: 24 528 14 14 (2483712)
I0403 15:43:36.043365   435 net.cpp:148] Top shape: 24 528 14 14 (2483712)
I0403 15:43:36.043380   435 net.cpp:148] Top shape: 24 528 14 14 (2483712)
I0403 15:43:36.043395   435 net.cpp:156] Memory required for data: 1206918432
I0403 15:43:36.043409   435 layer_factory.hpp:77] Creating layer loss2/ave_pool
I0403 15:43:36.043427   435 net.cpp:91] Creating Layer loss2/ave_pool
I0403 15:43:36.043444   435 net.cpp:425] loss2/ave_pool <- inception_4d/output_inception_4d/output_0_split_0
I0403 15:43:36.043465   435 net.cpp:399] loss2/ave_pool -> loss2/ave_pool
I0403 15:43:36.043781   435 net.cpp:141] Setting up loss2/ave_pool
I0403 15:43:36.043808   435 net.cpp:148] Top shape: 24 528 4 4 (202752)
I0403 15:43:36.043824   435 net.cpp:156] Memory required for data: 1207729440
I0403 15:43:36.043840   435 layer_factory.hpp:77] Creating layer loss2/conv
I0403 15:43:36.043864   435 net.cpp:91] Creating Layer loss2/conv
I0403 15:43:36.043882   435 net.cpp:425] loss2/conv <- loss2/ave_pool
I0403 15:43:36.043903   435 net.cpp:399] loss2/conv -> loss2/conv
I0403 15:43:36.045811   435 net.cpp:141] Setting up loss2/conv
I0403 15:43:36.045840   435 net.cpp:148] Top shape: 24 128 4 4 (49152)
I0403 15:43:36.045857   435 net.cpp:156] Memory required for data: 1207926048
I0403 15:43:36.045879   435 layer_factory.hpp:77] Creating layer loss2/relu_conv
I0403 15:43:36.045899   435 net.cpp:91] Creating Layer loss2/relu_conv
I0403 15:43:36.045915   435 net.cpp:425] loss2/relu_conv <- loss2/conv
I0403 15:43:36.045934   435 net.cpp:386] loss2/relu_conv -> loss2/conv (in-place)
I0403 15:43:36.046228   435 net.cpp:141] Setting up loss2/relu_conv
I0403 15:43:36.046259   435 net.cpp:148] Top shape: 24 128 4 4 (49152)
I0403 15:43:36.046277   435 net.cpp:156] Memory required for data: 1208122656
I0403 15:43:36.046293   435 layer_factory.hpp:77] Creating layer loss2/fc
I0403 15:43:36.046314   435 net.cpp:91] Creating Layer loss2/fc
I0403 15:43:36.046331   435 net.cpp:425] loss2/fc <- loss2/conv
I0403 15:43:36.046352   435 net.cpp:399] loss2/fc -> loss2/fc
I0403 15:43:36.063977   435 net.cpp:141] Setting up loss2/fc
I0403 15:43:36.064009   435 net.cpp:148] Top shape: 24 1024 (24576)
I0403 15:43:36.064025   435 net.cpp:156] Memory required for data: 1208220960
I0403 15:43:36.064045   435 layer_factory.hpp:77] Creating layer loss2/relu_fc
I0403 15:43:36.064066   435 net.cpp:91] Creating Layer loss2/relu_fc
I0403 15:43:36.064085   435 net.cpp:425] loss2/relu_fc <- loss2/fc
I0403 15:43:36.064103   435 net.cpp:386] loss2/relu_fc -> loss2/fc (in-place)
I0403 15:43:36.064411   435 net.cpp:141] Setting up loss2/relu_fc
I0403 15:43:36.064438   435 net.cpp:148] Top shape: 24 1024 (24576)
I0403 15:43:36.064455   435 net.cpp:156] Memory required for data: 1208319264
I0403 15:43:36.064470   435 layer_factory.hpp:77] Creating layer loss2/drop_fc
I0403 15:43:36.064491   435 net.cpp:91] Creating Layer loss2/drop_fc
I0403 15:43:36.064510   435 net.cpp:425] loss2/drop_fc <- loss2/fc
I0403 15:43:36.064527   435 net.cpp:386] loss2/drop_fc -> loss2/fc (in-place)
I0403 15:43:36.064579   435 net.cpp:141] Setting up loss2/drop_fc
I0403 15:43:36.064602   435 net.cpp:148] Top shape: 24 1024 (24576)
I0403 15:43:36.064616   435 net.cpp:156] Memory required for data: 1208417568
I0403 15:43:36.064632   435 layer_factory.hpp:77] Creating layer loss2/classifier_plantvillage
I0403 15:43:36.064651   435 net.cpp:91] Creating Layer loss2/classifier_plantvillage
I0403 15:43:36.064666   435 net.cpp:425] loss2/classifier_plantvillage <- loss2/fc
I0403 15:43:36.064688   435 net.cpp:399] loss2/classifier_plantvillage -> loss2/classifier_plantvillage
I0403 15:43:36.065094   435 net.cpp:141] Setting up loss2/classifier_plantvillage
I0403 15:43:36.065121   435 net.cpp:148] Top shape: 24 38 (912)
I0403 15:43:36.065136   435 net.cpp:156] Memory required for data: 1208421216
I0403 15:43:36.065176   435 layer_factory.hpp:77] Creating layer loss2/classifier_plantvillage_loss2/classifier_plantvillage_0_split
I0403 15:43:36.065197   435 net.cpp:91] Creating Layer loss2/classifier_plantvillage_loss2/classifier_plantvillage_0_split
I0403 15:43:36.065217   435 net.cpp:425] loss2/classifier_plantvillage_loss2/classifier_plantvillage_0_split <- loss2/classifier_plantvillage
I0403 15:43:36.065240   435 net.cpp:399] loss2/classifier_plantvillage_loss2/classifier_plantvillage_0_split -> loss2/classifier_plantvillage_loss2/classifier_plantvillage_0_split_0
I0403 15:43:36.065268   435 net.cpp:399] loss2/classifier_plantvillage_loss2/classifier_plantvillage_0_split -> loss2/classifier_plantvillage_loss2/classifier_plantvillage_0_split_1
I0403 15:43:36.065289   435 net.cpp:399] loss2/classifier_plantvillage_loss2/classifier_plantvillage_0_split -> loss2/classifier_plantvillage_loss2/classifier_plantvillage_0_split_2
I0403 15:43:36.065367   435 net.cpp:141] Setting up loss2/classifier_plantvillage_loss2/classifier_plantvillage_0_split
I0403 15:43:36.065392   435 net.cpp:148] Top shape: 24 38 (912)
I0403 15:43:36.065409   435 net.cpp:148] Top shape: 24 38 (912)
I0403 15:43:36.065424   435 net.cpp:148] Top shape: 24 38 (912)
I0403 15:43:36.065438   435 net.cpp:156] Memory required for data: 1208432160
I0403 15:43:36.065454   435 layer_factory.hpp:77] Creating layer inception_4e/1x1
I0403 15:43:36.065476   435 net.cpp:91] Creating Layer inception_4e/1x1
I0403 15:43:36.065495   435 net.cpp:425] inception_4e/1x1 <- inception_4d/output_inception_4d/output_0_split_1
I0403 15:43:36.065515   435 net.cpp:399] inception_4e/1x1 -> inception_4e/1x1
I0403 15:43:36.067351   435 net.cpp:141] Setting up inception_4e/1x1
I0403 15:43:36.067383   435 net.cpp:148] Top shape: 24 256 14 14 (1204224)
I0403 15:43:36.067399   435 net.cpp:156] Memory required for data: 1213249056
I0403 15:43:36.067420   435 layer_factory.hpp:77] Creating layer inception_4e/relu_1x1
I0403 15:43:36.067438   435 net.cpp:91] Creating Layer inception_4e/relu_1x1
I0403 15:43:36.067456   435 net.cpp:425] inception_4e/relu_1x1 <- inception_4e/1x1
I0403 15:43:36.067472   435 net.cpp:386] inception_4e/relu_1x1 -> inception_4e/1x1 (in-place)
I0403 15:43:36.067777   435 net.cpp:141] Setting up inception_4e/relu_1x1
I0403 15:43:36.067806   435 net.cpp:148] Top shape: 24 256 14 14 (1204224)
I0403 15:43:36.067823   435 net.cpp:156] Memory required for data: 1218065952
I0403 15:43:36.067839   435 layer_factory.hpp:77] Creating layer inception_4e/3x3_reduce
I0403 15:43:36.067862   435 net.cpp:91] Creating Layer inception_4e/3x3_reduce
I0403 15:43:36.067880   435 net.cpp:425] inception_4e/3x3_reduce <- inception_4d/output_inception_4d/output_0_split_2
I0403 15:43:36.067899   435 net.cpp:399] inception_4e/3x3_reduce -> inception_4e/3x3_reduce
I0403 15:43:36.070030   435 net.cpp:141] Setting up inception_4e/3x3_reduce
I0403 15:43:36.070061   435 net.cpp:148] Top shape: 24 160 14 14 (752640)
I0403 15:43:36.070078   435 net.cpp:156] Memory required for data: 1221076512
I0403 15:43:36.070097   435 layer_factory.hpp:77] Creating layer inception_4e/relu_3x3_reduce
I0403 15:43:36.070117   435 net.cpp:91] Creating Layer inception_4e/relu_3x3_reduce
I0403 15:43:36.070134   435 net.cpp:425] inception_4e/relu_3x3_reduce <- inception_4e/3x3_reduce
I0403 15:43:36.070153   435 net.cpp:386] inception_4e/relu_3x3_reduce -> inception_4e/3x3_reduce (in-place)
I0403 15:43:36.070351   435 net.cpp:141] Setting up inception_4e/relu_3x3_reduce
I0403 15:43:36.070377   435 net.cpp:148] Top shape: 24 160 14 14 (752640)
I0403 15:43:36.070394   435 net.cpp:156] Memory required for data: 1224087072
I0403 15:43:36.070410   435 layer_factory.hpp:77] Creating layer inception_4e/3x3
I0403 15:43:36.070432   435 net.cpp:91] Creating Layer inception_4e/3x3
I0403 15:43:36.070451   435 net.cpp:425] inception_4e/3x3 <- inception_4e/3x3_reduce
I0403 15:43:36.070472   435 net.cpp:399] inception_4e/3x3 -> inception_4e/3x3
I0403 15:43:36.075570   435 net.cpp:141] Setting up inception_4e/3x3
I0403 15:43:36.075613   435 net.cpp:148] Top shape: 24 320 14 14 (1505280)
I0403 15:43:36.075633   435 net.cpp:156] Memory required for data: 1230108192
I0403 15:43:36.075651   435 layer_factory.hpp:77] Creating layer inception_4e/relu_3x3
I0403 15:43:36.075670   435 net.cpp:91] Creating Layer inception_4e/relu_3x3
I0403 15:43:36.075688   435 net.cpp:425] inception_4e/relu_3x3 <- inception_4e/3x3
I0403 15:43:36.075708   435 net.cpp:386] inception_4e/relu_3x3 -> inception_4e/3x3 (in-place)
I0403 15:43:36.076015   435 net.cpp:141] Setting up inception_4e/relu_3x3
I0403 15:43:36.076042   435 net.cpp:148] Top shape: 24 320 14 14 (1505280)
I0403 15:43:36.076059   435 net.cpp:156] Memory required for data: 1236129312
I0403 15:43:36.076076   435 layer_factory.hpp:77] Creating layer inception_4e/5x5_reduce
I0403 15:43:36.076099   435 net.cpp:91] Creating Layer inception_4e/5x5_reduce
I0403 15:43:36.076117   435 net.cpp:425] inception_4e/5x5_reduce <- inception_4d/output_inception_4d/output_0_split_3
I0403 15:43:36.076139   435 net.cpp:399] inception_4e/5x5_reduce -> inception_4e/5x5_reduce
I0403 15:43:36.077226   435 net.cpp:141] Setting up inception_4e/5x5_reduce
I0403 15:43:36.077261   435 net.cpp:148] Top shape: 24 32 14 14 (150528)
I0403 15:43:36.077280   435 net.cpp:156] Memory required for data: 1236731424
I0403 15:43:36.077299   435 layer_factory.hpp:77] Creating layer inception_4e/relu_5x5_reduce
I0403 15:43:36.077317   435 net.cpp:91] Creating Layer inception_4e/relu_5x5_reduce
I0403 15:43:36.077334   435 net.cpp:425] inception_4e/relu_5x5_reduce <- inception_4e/5x5_reduce
I0403 15:43:36.077353   435 net.cpp:386] inception_4e/relu_5x5_reduce -> inception_4e/5x5_reduce (in-place)
I0403 15:43:36.077654   435 net.cpp:141] Setting up inception_4e/relu_5x5_reduce
I0403 15:43:36.077683   435 net.cpp:148] Top shape: 24 32 14 14 (150528)
I0403 15:43:36.077700   435 net.cpp:156] Memory required for data: 1237333536
I0403 15:43:36.077716   435 layer_factory.hpp:77] Creating layer inception_4e/5x5
I0403 15:43:36.077757   435 net.cpp:91] Creating Layer inception_4e/5x5
I0403 15:43:36.077778   435 net.cpp:425] inception_4e/5x5 <- inception_4e/5x5_reduce
I0403 15:43:36.077798   435 net.cpp:399] inception_4e/5x5 -> inception_4e/5x5
I0403 15:43:36.079643   435 net.cpp:141] Setting up inception_4e/5x5
I0403 15:43:36.079673   435 net.cpp:148] Top shape: 24 128 14 14 (602112)
I0403 15:43:36.079689   435 net.cpp:156] Memory required for data: 1239741984
I0403 15:43:36.079710   435 layer_factory.hpp:77] Creating layer inception_4e/relu_5x5
I0403 15:43:36.079730   435 net.cpp:91] Creating Layer inception_4e/relu_5x5
I0403 15:43:36.079748   435 net.cpp:425] inception_4e/relu_5x5 <- inception_4e/5x5
I0403 15:43:36.079767   435 net.cpp:386] inception_4e/relu_5x5 -> inception_4e/5x5 (in-place)
I0403 15:43:36.079973   435 net.cpp:141] Setting up inception_4e/relu_5x5
I0403 15:43:36.080001   435 net.cpp:148] Top shape: 24 128 14 14 (602112)
I0403 15:43:36.080018   435 net.cpp:156] Memory required for data: 1242150432
I0403 15:43:36.080034   435 layer_factory.hpp:77] Creating layer inception_4e/pool
I0403 15:43:36.080052   435 net.cpp:91] Creating Layer inception_4e/pool
I0403 15:43:36.080070   435 net.cpp:425] inception_4e/pool <- inception_4d/output_inception_4d/output_0_split_4
I0403 15:43:36.080090   435 net.cpp:399] inception_4e/pool -> inception_4e/pool
I0403 15:43:36.080162   435 net.cpp:141] Setting up inception_4e/pool
I0403 15:43:36.080186   435 net.cpp:148] Top shape: 24 528 14 14 (2483712)
I0403 15:43:36.080201   435 net.cpp:156] Memory required for data: 1252085280
I0403 15:43:36.080217   435 layer_factory.hpp:77] Creating layer inception_4e/pool_proj
I0403 15:43:36.080240   435 net.cpp:91] Creating Layer inception_4e/pool_proj
I0403 15:43:36.080261   435 net.cpp:425] inception_4e/pool_proj <- inception_4e/pool
I0403 15:43:36.080284   435 net.cpp:399] inception_4e/pool_proj -> inception_4e/pool_proj
I0403 15:43:36.081845   435 net.cpp:141] Setting up inception_4e/pool_proj
I0403 15:43:36.081876   435 net.cpp:148] Top shape: 24 128 14 14 (602112)
I0403 15:43:36.081907   435 net.cpp:156] Memory required for data: 1254493728
I0403 15:43:36.081928   435 layer_factory.hpp:77] Creating layer inception_4e/relu_pool_proj
I0403 15:43:36.081950   435 net.cpp:91] Creating Layer inception_4e/relu_pool_proj
I0403 15:43:36.081969   435 net.cpp:425] inception_4e/relu_pool_proj <- inception_4e/pool_proj
I0403 15:43:36.081986   435 net.cpp:386] inception_4e/relu_pool_proj -> inception_4e/pool_proj (in-place)
I0403 15:43:36.082304   435 net.cpp:141] Setting up inception_4e/relu_pool_proj
I0403 15:43:36.082332   435 net.cpp:148] Top shape: 24 128 14 14 (602112)
I0403 15:43:36.082350   435 net.cpp:156] Memory required for data: 1256902176
I0403 15:43:36.082365   435 layer_factory.hpp:77] Creating layer inception_4e/output
I0403 15:43:36.082384   435 net.cpp:91] Creating Layer inception_4e/output
I0403 15:43:36.082403   435 net.cpp:425] inception_4e/output <- inception_4e/1x1
I0403 15:43:36.082420   435 net.cpp:425] inception_4e/output <- inception_4e/3x3
I0403 15:43:36.082437   435 net.cpp:425] inception_4e/output <- inception_4e/5x5
I0403 15:43:36.082455   435 net.cpp:425] inception_4e/output <- inception_4e/pool_proj
I0403 15:43:36.082473   435 net.cpp:399] inception_4e/output -> inception_4e/output
I0403 15:43:36.082523   435 net.cpp:141] Setting up inception_4e/output
I0403 15:43:36.082551   435 net.cpp:148] Top shape: 24 832 14 14 (3913728)
I0403 15:43:36.082569   435 net.cpp:156] Memory required for data: 1272557088
I0403 15:43:36.082586   435 layer_factory.hpp:77] Creating layer pool4/3x3_s2
I0403 15:43:36.082603   435 net.cpp:91] Creating Layer pool4/3x3_s2
I0403 15:43:36.082620   435 net.cpp:425] pool4/3x3_s2 <- inception_4e/output
I0403 15:43:36.082643   435 net.cpp:399] pool4/3x3_s2 -> pool4/3x3_s2
I0403 15:43:36.082712   435 net.cpp:141] Setting up pool4/3x3_s2
I0403 15:43:36.082741   435 net.cpp:148] Top shape: 24 832 7 7 (978432)
I0403 15:43:36.082757   435 net.cpp:156] Memory required for data: 1276470816
I0403 15:43:36.082774   435 layer_factory.hpp:77] Creating layer pool4/3x3_s2_pool4/3x3_s2_0_split
I0403 15:43:36.082792   435 net.cpp:91] Creating Layer pool4/3x3_s2_pool4/3x3_s2_0_split
I0403 15:43:36.082808   435 net.cpp:425] pool4/3x3_s2_pool4/3x3_s2_0_split <- pool4/3x3_s2
I0403 15:43:36.082828   435 net.cpp:399] pool4/3x3_s2_pool4/3x3_s2_0_split -> pool4/3x3_s2_pool4/3x3_s2_0_split_0
I0403 15:43:36.082849   435 net.cpp:399] pool4/3x3_s2_pool4/3x3_s2_0_split -> pool4/3x3_s2_pool4/3x3_s2_0_split_1
I0403 15:43:36.082872   435 net.cpp:399] pool4/3x3_s2_pool4/3x3_s2_0_split -> pool4/3x3_s2_pool4/3x3_s2_0_split_2
I0403 15:43:36.082895   435 net.cpp:399] pool4/3x3_s2_pool4/3x3_s2_0_split -> pool4/3x3_s2_pool4/3x3_s2_0_split_3
I0403 15:43:36.082990   435 net.cpp:141] Setting up pool4/3x3_s2_pool4/3x3_s2_0_split
I0403 15:43:36.083015   435 net.cpp:148] Top shape: 24 832 7 7 (978432)
I0403 15:43:36.083032   435 net.cpp:148] Top shape: 24 832 7 7 (978432)
I0403 15:43:36.083050   435 net.cpp:148] Top shape: 24 832 7 7 (978432)
I0403 15:43:36.083065   435 net.cpp:148] Top shape: 24 832 7 7 (978432)
I0403 15:43:36.083081   435 net.cpp:156] Memory required for data: 1292125728
I0403 15:43:36.083096   435 layer_factory.hpp:77] Creating layer inception_5a/1x1
I0403 15:43:36.083120   435 net.cpp:91] Creating Layer inception_5a/1x1
I0403 15:43:36.083138   435 net.cpp:425] inception_5a/1x1 <- pool4/3x3_s2_pool4/3x3_s2_0_split_0
I0403 15:43:36.083160   435 net.cpp:399] inception_5a/1x1 -> inception_5a/1x1
I0403 15:43:36.086127   435 net.cpp:141] Setting up inception_5a/1x1
I0403 15:43:36.086159   435 net.cpp:148] Top shape: 24 256 7 7 (301056)
I0403 15:43:36.086176   435 net.cpp:156] Memory required for data: 1293329952
I0403 15:43:36.086196   435 layer_factory.hpp:77] Creating layer inception_5a/relu_1x1
I0403 15:43:36.086218   435 net.cpp:91] Creating Layer inception_5a/relu_1x1
I0403 15:43:36.086236   435 net.cpp:425] inception_5a/relu_1x1 <- inception_5a/1x1
I0403 15:43:36.086261   435 net.cpp:386] inception_5a/relu_1x1 -> inception_5a/1x1 (in-place)
I0403 15:43:36.086590   435 net.cpp:141] Setting up inception_5a/relu_1x1
I0403 15:43:36.086618   435 net.cpp:148] Top shape: 24 256 7 7 (301056)
I0403 15:43:36.086635   435 net.cpp:156] Memory required for data: 1294534176
I0403 15:43:36.086652   435 layer_factory.hpp:77] Creating layer inception_5a/3x3_reduce
I0403 15:43:36.086675   435 net.cpp:91] Creating Layer inception_5a/3x3_reduce
I0403 15:43:36.086696   435 net.cpp:425] inception_5a/3x3_reduce <- pool4/3x3_s2_pool4/3x3_s2_0_split_1
I0403 15:43:36.086717   435 net.cpp:399] inception_5a/3x3_reduce -> inception_5a/3x3_reduce
I0403 15:43:36.089257   435 net.cpp:141] Setting up inception_5a/3x3_reduce
I0403 15:43:36.089287   435 net.cpp:148] Top shape: 24 160 7 7 (188160)
I0403 15:43:36.089305   435 net.cpp:156] Memory required for data: 1295286816
I0403 15:43:36.089325   435 layer_factory.hpp:77] Creating layer inception_5a/relu_3x3_reduce
I0403 15:43:36.089346   435 net.cpp:91] Creating Layer inception_5a/relu_3x3_reduce
I0403 15:43:36.089365   435 net.cpp:425] inception_5a/relu_3x3_reduce <- inception_5a/3x3_reduce
I0403 15:43:36.089383   435 net.cpp:386] inception_5a/relu_3x3_reduce -> inception_5a/3x3_reduce (in-place)
I0403 15:43:36.089586   435 net.cpp:141] Setting up inception_5a/relu_3x3_reduce
I0403 15:43:36.089613   435 net.cpp:148] Top shape: 24 160 7 7 (188160)
I0403 15:43:36.089629   435 net.cpp:156] Memory required for data: 1296039456
I0403 15:43:36.089645   435 layer_factory.hpp:77] Creating layer inception_5a/3x3
I0403 15:43:36.089670   435 net.cpp:91] Creating Layer inception_5a/3x3
I0403 15:43:36.089689   435 net.cpp:425] inception_5a/3x3 <- inception_5a/3x3_reduce
I0403 15:43:36.089712   435 net.cpp:399] inception_5a/3x3 -> inception_5a/3x3
I0403 15:43:36.094918   435 net.cpp:141] Setting up inception_5a/3x3
I0403 15:43:36.094949   435 net.cpp:148] Top shape: 24 320 7 7 (376320)
I0403 15:43:36.094966   435 net.cpp:156] Memory required for data: 1297544736
I0403 15:43:36.094986   435 layer_factory.hpp:77] Creating layer inception_5a/relu_3x3
I0403 15:43:36.095008   435 net.cpp:91] Creating Layer inception_5a/relu_3x3
I0403 15:43:36.095027   435 net.cpp:425] inception_5a/relu_3x3 <- inception_5a/3x3
I0403 15:43:36.095046   435 net.cpp:386] inception_5a/relu_3x3 -> inception_5a/3x3 (in-place)
I0403 15:43:36.095362   435 net.cpp:141] Setting up inception_5a/relu_3x3
I0403 15:43:36.095391   435 net.cpp:148] Top shape: 24 320 7 7 (376320)
I0403 15:43:36.095407   435 net.cpp:156] Memory required for data: 1299050016
I0403 15:43:36.095424   435 layer_factory.hpp:77] Creating layer inception_5a/5x5_reduce
I0403 15:43:36.095448   435 net.cpp:91] Creating Layer inception_5a/5x5_reduce
I0403 15:43:36.095468   435 net.cpp:425] inception_5a/5x5_reduce <- pool4/3x3_s2_pool4/3x3_s2_0_split_2
I0403 15:43:36.095490   435 net.cpp:399] inception_5a/5x5_reduce -> inception_5a/5x5_reduce
I0403 15:43:36.096714   435 net.cpp:141] Setting up inception_5a/5x5_reduce
I0403 15:43:36.096745   435 net.cpp:148] Top shape: 24 32 7 7 (37632)
I0403 15:43:36.096761   435 net.cpp:156] Memory required for data: 1299200544
I0403 15:43:36.096781   435 layer_factory.hpp:77] Creating layer inception_5a/relu_5x5_reduce
I0403 15:43:36.096802   435 net.cpp:91] Creating Layer inception_5a/relu_5x5_reduce
I0403 15:43:36.096822   435 net.cpp:425] inception_5a/relu_5x5_reduce <- inception_5a/5x5_reduce
I0403 15:43:36.096840   435 net.cpp:386] inception_5a/relu_5x5_reduce -> inception_5a/5x5_reduce (in-place)
I0403 15:43:36.097160   435 net.cpp:141] Setting up inception_5a/relu_5x5_reduce
I0403 15:43:36.097190   435 net.cpp:148] Top shape: 24 32 7 7 (37632)
I0403 15:43:36.097208   435 net.cpp:156] Memory required for data: 1299351072
I0403 15:43:36.097223   435 layer_factory.hpp:77] Creating layer inception_5a/5x5
I0403 15:43:36.097246   435 net.cpp:91] Creating Layer inception_5a/5x5
I0403 15:43:36.097270   435 net.cpp:425] inception_5a/5x5 <- inception_5a/5x5_reduce
I0403 15:43:36.097290   435 net.cpp:399] inception_5a/5x5 -> inception_5a/5x5
I0403 15:43:36.099095   435 net.cpp:141] Setting up inception_5a/5x5
I0403 15:43:36.099138   435 net.cpp:148] Top shape: 24 128 7 7 (150528)
I0403 15:43:36.099154   435 net.cpp:156] Memory required for data: 1299953184
I0403 15:43:36.099174   435 layer_factory.hpp:77] Creating layer inception_5a/relu_5x5
I0403 15:43:36.099196   435 net.cpp:91] Creating Layer inception_5a/relu_5x5
I0403 15:43:36.099215   435 net.cpp:425] inception_5a/relu_5x5 <- inception_5a/5x5
I0403 15:43:36.099233   435 net.cpp:386] inception_5a/relu_5x5 -> inception_5a/5x5 (in-place)
I0403 15:43:36.099444   435 net.cpp:141] Setting up inception_5a/relu_5x5
I0403 15:43:36.099473   435 net.cpp:148] Top shape: 24 128 7 7 (150528)
I0403 15:43:36.099490   435 net.cpp:156] Memory required for data: 1300555296
I0403 15:43:36.099506   435 layer_factory.hpp:77] Creating layer inception_5a/pool
I0403 15:43:36.099525   435 net.cpp:91] Creating Layer inception_5a/pool
I0403 15:43:36.099541   435 net.cpp:425] inception_5a/pool <- pool4/3x3_s2_pool4/3x3_s2_0_split_3
I0403 15:43:36.099562   435 net.cpp:399] inception_5a/pool -> inception_5a/pool
I0403 15:43:36.099635   435 net.cpp:141] Setting up inception_5a/pool
I0403 15:43:36.099661   435 net.cpp:148] Top shape: 24 832 7 7 (978432)
I0403 15:43:36.099678   435 net.cpp:156] Memory required for data: 1304469024
I0403 15:43:36.099694   435 layer_factory.hpp:77] Creating layer inception_5a/pool_proj
I0403 15:43:36.099727   435 net.cpp:91] Creating Layer inception_5a/pool_proj
I0403 15:43:36.099747   435 net.cpp:425] inception_5a/pool_proj <- inception_5a/pool
I0403 15:43:36.099769   435 net.cpp:399] inception_5a/pool_proj -> inception_5a/pool_proj
I0403 15:43:36.102109   435 net.cpp:141] Setting up inception_5a/pool_proj
I0403 15:43:36.102139   435 net.cpp:148] Top shape: 24 128 7 7 (150528)
I0403 15:43:36.102156   435 net.cpp:156] Memory required for data: 1305071136
I0403 15:43:36.102176   435 layer_factory.hpp:77] Creating layer inception_5a/relu_pool_proj
I0403 15:43:36.102197   435 net.cpp:91] Creating Layer inception_5a/relu_pool_proj
I0403 15:43:36.102216   435 net.cpp:425] inception_5a/relu_pool_proj <- inception_5a/pool_proj
I0403 15:43:36.102233   435 net.cpp:386] inception_5a/relu_pool_proj -> inception_5a/pool_proj (in-place)
I0403 15:43:36.102538   435 net.cpp:141] Setting up inception_5a/relu_pool_proj
I0403 15:43:36.102567   435 net.cpp:148] Top shape: 24 128 7 7 (150528)
I0403 15:43:36.102582   435 net.cpp:156] Memory required for data: 1305673248
I0403 15:43:36.102598   435 layer_factory.hpp:77] Creating layer inception_5a/output
I0403 15:43:36.102617   435 net.cpp:91] Creating Layer inception_5a/output
I0403 15:43:36.102633   435 net.cpp:425] inception_5a/output <- inception_5a/1x1
I0403 15:43:36.102650   435 net.cpp:425] inception_5a/output <- inception_5a/3x3
I0403 15:43:36.102668   435 net.cpp:425] inception_5a/output <- inception_5a/5x5
I0403 15:43:36.102684   435 net.cpp:425] inception_5a/output <- inception_5a/pool_proj
I0403 15:43:36.102705   435 net.cpp:399] inception_5a/output -> inception_5a/output
I0403 15:43:36.102757   435 net.cpp:141] Setting up inception_5a/output
I0403 15:43:36.102782   435 net.cpp:148] Top shape: 24 832 7 7 (978432)
I0403 15:43:36.102797   435 net.cpp:156] Memory required for data: 1309586976
I0403 15:43:36.102813   435 layer_factory.hpp:77] Creating layer inception_5a/output_inception_5a/output_0_split
I0403 15:43:36.102830   435 net.cpp:91] Creating Layer inception_5a/output_inception_5a/output_0_split
I0403 15:43:36.102846   435 net.cpp:425] inception_5a/output_inception_5a/output_0_split <- inception_5a/output
I0403 15:43:36.102869   435 net.cpp:399] inception_5a/output_inception_5a/output_0_split -> inception_5a/output_inception_5a/output_0_split_0
I0403 15:43:36.102891   435 net.cpp:399] inception_5a/output_inception_5a/output_0_split -> inception_5a/output_inception_5a/output_0_split_1
I0403 15:43:36.102912   435 net.cpp:399] inception_5a/output_inception_5a/output_0_split -> inception_5a/output_inception_5a/output_0_split_2
I0403 15:43:36.102934   435 net.cpp:399] inception_5a/output_inception_5a/output_0_split -> inception_5a/output_inception_5a/output_0_split_3
I0403 15:43:36.103049   435 net.cpp:141] Setting up inception_5a/output_inception_5a/output_0_split
I0403 15:43:36.103073   435 net.cpp:148] Top shape: 24 832 7 7 (978432)
I0403 15:43:36.103090   435 net.cpp:148] Top shape: 24 832 7 7 (978432)
I0403 15:43:36.103106   435 net.cpp:148] Top shape: 24 832 7 7 (978432)
I0403 15:43:36.103121   435 net.cpp:148] Top shape: 24 832 7 7 (978432)
I0403 15:43:36.103135   435 net.cpp:156] Memory required for data: 1325241888
I0403 15:43:36.103152   435 layer_factory.hpp:77] Creating layer inception_5b/1x1
I0403 15:43:36.103175   435 net.cpp:91] Creating Layer inception_5b/1x1
I0403 15:43:36.103193   435 net.cpp:425] inception_5b/1x1 <- inception_5a/output_inception_5a/output_0_split_0
I0403 15:43:36.103214   435 net.cpp:399] inception_5b/1x1 -> inception_5b/1x1
I0403 15:43:36.106999   435 net.cpp:141] Setting up inception_5b/1x1
I0403 15:43:36.107029   435 net.cpp:148] Top shape: 24 384 7 7 (451584)
I0403 15:43:36.107046   435 net.cpp:156] Memory required for data: 1327048224
I0403 15:43:36.107065   435 layer_factory.hpp:77] Creating layer inception_5b/relu_1x1
I0403 15:43:36.107087   435 net.cpp:91] Creating Layer inception_5b/relu_1x1
I0403 15:43:36.107105   435 net.cpp:425] inception_5b/relu_1x1 <- inception_5b/1x1
I0403 15:43:36.107122   435 net.cpp:386] inception_5b/relu_1x1 -> inception_5b/1x1 (in-place)
I0403 15:43:36.107437   435 net.cpp:141] Setting up inception_5b/relu_1x1
I0403 15:43:36.107465   435 net.cpp:148] Top shape: 24 384 7 7 (451584)
I0403 15:43:36.107481   435 net.cpp:156] Memory required for data: 1328854560
I0403 15:43:36.107497   435 layer_factory.hpp:77] Creating layer inception_5b/3x3_reduce
I0403 15:43:36.107520   435 net.cpp:91] Creating Layer inception_5b/3x3_reduce
I0403 15:43:36.107538   435 net.cpp:425] inception_5b/3x3_reduce <- inception_5a/output_inception_5a/output_0_split_1
I0403 15:43:36.107561   435 net.cpp:399] inception_5b/3x3_reduce -> inception_5b/3x3_reduce
I0403 15:43:36.110239   435 net.cpp:141] Setting up inception_5b/3x3_reduce
I0403 15:43:36.110273   435 net.cpp:148] Top shape: 24 192 7 7 (225792)
I0403 15:43:36.110291   435 net.cpp:156] Memory required for data: 1329757728
I0403 15:43:36.110311   435 layer_factory.hpp:77] Creating layer inception_5b/relu_3x3_reduce
I0403 15:43:36.110332   435 net.cpp:91] Creating Layer inception_5b/relu_3x3_reduce
I0403 15:43:36.110350   435 net.cpp:425] inception_5b/relu_3x3_reduce <- inception_5b/3x3_reduce
I0403 15:43:36.110369   435 net.cpp:386] inception_5b/relu_3x3_reduce -> inception_5b/3x3_reduce (in-place)
I0403 15:43:36.110563   435 net.cpp:141] Setting up inception_5b/relu_3x3_reduce
I0403 15:43:36.110590   435 net.cpp:148] Top shape: 24 192 7 7 (225792)
I0403 15:43:36.110605   435 net.cpp:156] Memory required for data: 1330660896
I0403 15:43:36.110621   435 layer_factory.hpp:77] Creating layer inception_5b/3x3
I0403 15:43:36.110643   435 net.cpp:91] Creating Layer inception_5b/3x3
I0403 15:43:36.110662   435 net.cpp:425] inception_5b/3x3 <- inception_5b/3x3_reduce
I0403 15:43:36.110683   435 net.cpp:399] inception_5b/3x3 -> inception_5b/3x3
I0403 15:43:36.117463   435 net.cpp:141] Setting up inception_5b/3x3
I0403 15:43:36.117493   435 net.cpp:148] Top shape: 24 384 7 7 (451584)
I0403 15:43:36.117511   435 net.cpp:156] Memory required for data: 1332467232
I0403 15:43:36.117528   435 layer_factory.hpp:77] Creating layer inception_5b/relu_3x3
I0403 15:43:36.117550   435 net.cpp:91] Creating Layer inception_5b/relu_3x3
I0403 15:43:36.117568   435 net.cpp:425] inception_5b/relu_3x3 <- inception_5b/3x3
I0403 15:43:36.117588   435 net.cpp:386] inception_5b/relu_3x3 -> inception_5b/3x3 (in-place)
I0403 15:43:36.117893   435 net.cpp:141] Setting up inception_5b/relu_3x3
I0403 15:43:36.117920   435 net.cpp:148] Top shape: 24 384 7 7 (451584)
I0403 15:43:36.117936   435 net.cpp:156] Memory required for data: 1334273568
I0403 15:43:36.117952   435 layer_factory.hpp:77] Creating layer inception_5b/5x5_reduce
I0403 15:43:36.117991   435 net.cpp:91] Creating Layer inception_5b/5x5_reduce
I0403 15:43:36.118012   435 net.cpp:425] inception_5b/5x5_reduce <- inception_5a/output_inception_5a/output_0_split_2
I0403 15:43:36.118036   435 net.cpp:399] inception_5b/5x5_reduce -> inception_5b/5x5_reduce
I0403 15:43:36.119339   435 net.cpp:141] Setting up inception_5b/5x5_reduce
I0403 15:43:36.119369   435 net.cpp:148] Top shape: 24 48 7 7 (56448)
I0403 15:43:36.119385   435 net.cpp:156] Memory required for data: 1334499360
I0403 15:43:36.119405   435 layer_factory.hpp:77] Creating layer inception_5b/relu_5x5_reduce
I0403 15:43:36.119426   435 net.cpp:91] Creating Layer inception_5b/relu_5x5_reduce
I0403 15:43:36.119443   435 net.cpp:425] inception_5b/relu_5x5_reduce <- inception_5b/5x5_reduce
I0403 15:43:36.119462   435 net.cpp:386] inception_5b/relu_5x5_reduce -> inception_5b/5x5_reduce (in-place)
I0403 15:43:36.119845   435 net.cpp:141] Setting up inception_5b/relu_5x5_reduce
I0403 15:43:36.119874   435 net.cpp:148] Top shape: 24 48 7 7 (56448)
I0403 15:43:36.119889   435 net.cpp:156] Memory required for data: 1334725152
I0403 15:43:36.119905   435 layer_factory.hpp:77] Creating layer inception_5b/5x5
I0403 15:43:36.119926   435 net.cpp:91] Creating Layer inception_5b/5x5
I0403 15:43:36.119945   435 net.cpp:425] inception_5b/5x5 <- inception_5b/5x5_reduce
I0403 15:43:36.119963   435 net.cpp:399] inception_5b/5x5 -> inception_5b/5x5
I0403 15:43:36.122040   435 net.cpp:141] Setting up inception_5b/5x5
I0403 15:43:36.122067   435 net.cpp:148] Top shape: 24 128 7 7 (150528)
I0403 15:43:36.122084   435 net.cpp:156] Memory required for data: 1335327264
I0403 15:43:36.122103   435 layer_factory.hpp:77] Creating layer inception_5b/relu_5x5
I0403 15:43:36.122124   435 net.cpp:91] Creating Layer inception_5b/relu_5x5
I0403 15:43:36.122143   435 net.cpp:425] inception_5b/relu_5x5 <- inception_5b/5x5
I0403 15:43:36.122161   435 net.cpp:386] inception_5b/relu_5x5 -> inception_5b/5x5 (in-place)
I0403 15:43:36.122369   435 net.cpp:141] Setting up inception_5b/relu_5x5
I0403 15:43:36.122395   435 net.cpp:148] Top shape: 24 128 7 7 (150528)
I0403 15:43:36.122412   435 net.cpp:156] Memory required for data: 1335929376
I0403 15:43:36.122428   435 layer_factory.hpp:77] Creating layer inception_5b/pool
I0403 15:43:36.122447   435 net.cpp:91] Creating Layer inception_5b/pool
I0403 15:43:36.122462   435 net.cpp:425] inception_5b/pool <- inception_5a/output_inception_5a/output_0_split_3
I0403 15:43:36.122483   435 net.cpp:399] inception_5b/pool -> inception_5b/pool
I0403 15:43:36.122556   435 net.cpp:141] Setting up inception_5b/pool
I0403 15:43:36.122582   435 net.cpp:148] Top shape: 24 832 7 7 (978432)
I0403 15:43:36.122598   435 net.cpp:156] Memory required for data: 1339843104
I0403 15:43:36.122613   435 layer_factory.hpp:77] Creating layer inception_5b/pool_proj
I0403 15:43:36.122637   435 net.cpp:91] Creating Layer inception_5b/pool_proj
I0403 15:43:36.122656   435 net.cpp:425] inception_5b/pool_proj <- inception_5b/pool
I0403 15:43:36.122675   435 net.cpp:399] inception_5b/pool_proj -> inception_5b/pool_proj
I0403 15:43:36.125010   435 net.cpp:141] Setting up inception_5b/pool_proj
I0403 15:43:36.125043   435 net.cpp:148] Top shape: 24 128 7 7 (150528)
I0403 15:43:36.125061   435 net.cpp:156] Memory required for data: 1340445216
I0403 15:43:36.125080   435 layer_factory.hpp:77] Creating layer inception_5b/relu_pool_proj
I0403 15:43:36.125102   435 net.cpp:91] Creating Layer inception_5b/relu_pool_proj
I0403 15:43:36.125120   435 net.cpp:425] inception_5b/relu_pool_proj <- inception_5b/pool_proj
I0403 15:43:36.125139   435 net.cpp:386] inception_5b/relu_pool_proj -> inception_5b/pool_proj (in-place)
I0403 15:43:36.125449   435 net.cpp:141] Setting up inception_5b/relu_pool_proj
I0403 15:43:36.125476   435 net.cpp:148] Top shape: 24 128 7 7 (150528)
I0403 15:43:36.125493   435 net.cpp:156] Memory required for data: 1341047328
I0403 15:43:36.125509   435 layer_factory.hpp:77] Creating layer inception_5b/output
I0403 15:43:36.125530   435 net.cpp:91] Creating Layer inception_5b/output
I0403 15:43:36.125560   435 net.cpp:425] inception_5b/output <- inception_5b/1x1
I0403 15:43:36.125581   435 net.cpp:425] inception_5b/output <- inception_5b/3x3
I0403 15:43:36.125597   435 net.cpp:425] inception_5b/output <- inception_5b/5x5
I0403 15:43:36.125615   435 net.cpp:425] inception_5b/output <- inception_5b/pool_proj
I0403 15:43:36.125634   435 net.cpp:399] inception_5b/output -> inception_5b/output
I0403 15:43:36.125689   435 net.cpp:141] Setting up inception_5b/output
I0403 15:43:36.125715   435 net.cpp:148] Top shape: 24 1024 7 7 (1204224)
I0403 15:43:36.125730   435 net.cpp:156] Memory required for data: 1345864224
I0403 15:43:36.125746   435 layer_factory.hpp:77] Creating layer pool5/7x7_s1
I0403 15:43:36.125763   435 net.cpp:91] Creating Layer pool5/7x7_s1
I0403 15:43:36.125780   435 net.cpp:425] pool5/7x7_s1 <- inception_5b/output
I0403 15:43:36.125803   435 net.cpp:399] pool5/7x7_s1 -> pool5/7x7_s1
I0403 15:43:36.126029   435 net.cpp:141] Setting up pool5/7x7_s1
I0403 15:43:36.126056   435 net.cpp:148] Top shape: 24 1024 1 1 (24576)
I0403 15:43:36.126071   435 net.cpp:156] Memory required for data: 1345962528
I0403 15:43:36.126087   435 layer_factory.hpp:77] Creating layer pool5/drop_7x7_s1
I0403 15:43:36.126108   435 net.cpp:91] Creating Layer pool5/drop_7x7_s1
I0403 15:43:36.126126   435 net.cpp:425] pool5/drop_7x7_s1 <- pool5/7x7_s1
I0403 15:43:36.126143   435 net.cpp:386] pool5/drop_7x7_s1 -> pool5/7x7_s1 (in-place)
I0403 15:43:36.126197   435 net.cpp:141] Setting up pool5/drop_7x7_s1
I0403 15:43:36.126222   435 net.cpp:148] Top shape: 24 1024 1 1 (24576)
I0403 15:43:36.126237   435 net.cpp:156] Memory required for data: 1346060832
I0403 15:43:36.126256   435 layer_factory.hpp:77] Creating layer loss3/classifier_plantvillage
I0403 15:43:36.126279   435 net.cpp:91] Creating Layer loss3/classifier_plantvillage
I0403 15:43:36.126298   435 net.cpp:425] loss3/classifier_plantvillage <- pool5/7x7_s1
I0403 15:43:36.126318   435 net.cpp:399] loss3/classifier_plantvillage -> loss3/classifier_plantvillage
I0403 15:43:36.126746   435 net.cpp:141] Setting up loss3/classifier_plantvillage
I0403 15:43:36.126772   435 net.cpp:148] Top shape: 24 38 (912)
I0403 15:43:36.126787   435 net.cpp:156] Memory required for data: 1346064480
I0403 15:43:36.126807   435 layer_factory.hpp:77] Creating layer loss3/classifier_plantvillage_loss3/classifier_plantvillage_0_split
I0403 15:43:36.126827   435 net.cpp:91] Creating Layer loss3/classifier_plantvillage_loss3/classifier_plantvillage_0_split
I0403 15:43:36.126843   435 net.cpp:425] loss3/classifier_plantvillage_loss3/classifier_plantvillage_0_split <- loss3/classifier_plantvillage
I0403 15:43:36.126864   435 net.cpp:399] loss3/classifier_plantvillage_loss3/classifier_plantvillage_0_split -> loss3/classifier_plantvillage_loss3/classifier_plantvillage_0_split_0
I0403 15:43:36.126886   435 net.cpp:399] loss3/classifier_plantvillage_loss3/classifier_plantvillage_0_split -> loss3/classifier_plantvillage_loss3/classifier_plantvillage_0_split_1
I0403 15:43:36.126907   435 net.cpp:399] loss3/classifier_plantvillage_loss3/classifier_plantvillage_0_split -> loss3/classifier_plantvillage_loss3/classifier_plantvillage_0_split_2
I0403 15:43:36.126929   435 net.cpp:399] loss3/classifier_plantvillage_loss3/classifier_plantvillage_0_split -> loss3/classifier_plantvillage_loss3/classifier_plantvillage_0_split_3
I0403 15:43:36.127033   435 net.cpp:141] Setting up loss3/classifier_plantvillage_loss3/classifier_plantvillage_0_split
I0403 15:43:36.127060   435 net.cpp:148] Top shape: 24 38 (912)
I0403 15:43:36.127077   435 net.cpp:148] Top shape: 24 38 (912)
I0403 15:43:36.127094   435 net.cpp:148] Top shape: 24 38 (912)
I0403 15:43:36.127109   435 net.cpp:148] Top shape: 24 38 (912)
I0403 15:43:36.127123   435 net.cpp:156] Memory required for data: 1346079072
I0403 15:43:36.127138   435 layer_factory.hpp:77] Creating layer loss1/loss
I0403 15:43:36.127161   435 net.cpp:91] Creating Layer loss1/loss
I0403 15:43:36.127177   435 net.cpp:425] loss1/loss <- loss1/classifier_plantvillage_loss1/classifier_plantvillage_0_split_0
I0403 15:43:36.127208   435 net.cpp:425] loss1/loss <- label_data_1_split_0
…
