…
I0403 15:40:44.464958 32675 net.cpp:313] The NetState phase (1) differed from the phase (0) specified by a rule in layer data
I0403 15:40:44.466184 32675 net.cpp:49] Initializing net from parameters: 
state {
  phase: TEST
}
layer {
  name: "data"
  type: "Data"
  top: "data"
  top: "label"
  include {
    phase: TEST
  }
  transform_param {
    mirror: false
    crop_size: 224
    mean_file: "/home/mohanty/data/final_dataset/lmdb/color-60-40/mean.binaryproto"
  }
  data_param {
    source: "/home/mohanty/data/final_dataset/lmdb/color-60-40/test_db"
    batch_size: 24
    backend: LMDB
  }
}
layer {
  name: "conv1/7x7_s2"
  type: "Convolution"
  bottom: "data"
  top: "conv1/7x7_s2"
  param {
    lr_mult: 1
    decay_mult: 1
  }
  param {
    lr_mult: 2
    decay_mult: 0
  }
  convolution_param {
    num_output: 64
    pad: 3
    kernel_size: 7
    stride: 2
    weight_filler {
      type: "xavier"
      std: 0.1
    }
    bias_filler {
      type: "constant"
      value: 0.2
    }
  }
}
layer {
  name: "conv1/relu_7x7"
  type: "ReLU"
  bottom: "conv1/7x7_s2"
  top: "conv1/7x7_s2"
}
layer {
  name: "pool1/3x3_s2"
  type: "Pooling"
  bottom: "conv1/7x7_s2"
  top: "pool1/3x3_s2"
  pooling_param {
    pool: MAX
    kernel_size: 3
    stride: 2
  }
}
layer {
  name: "pool1/norm1"
  type: "LRN"
  bottom: "pool1/3x3_s2"
  top: "pool1/norm1"
  lrn_param {
    local_size: 5
    alpha: 0.0001
    beta: 0.75
  }
}
layer {
  name: "conv2/3x3_reduce"
  type: "Convolution"
  bottom: "pool1/norm1"
  top: "conv2/3x3_reduce"
  param {
    lr_mult: 1
    decay_mult: 1
  }
  param {
    lr_mult: 2
    decay_mult: 0
  }
  convolution_param {
    num_output: 64
    kernel_size: 1
    weight_filler {
      type: "xavier"
      std: 0.1
    }
    bias_filler {
      type: "constant"
      value: 0.2
    }
  }
}
layer {
  name: "conv2/relu_3x3_reduce"
  type: "ReLU"
  bottom: "conv2/3x3_reduce"
  top: "conv2/3x3_reduce"
}
layer {
  name: "conv2/3x3"
  type: "Convolution"
  bottom: "conv2/3x3_reduce"
  top: "conv2/3x3"
  param {
    lr_mult: 1
    decay_mult: 1
  }
  param {
    lr_mult: 2
    decay_mult: 0
  }
  convolution_param {
    num_output: 192
    pad: 1
    kernel_size: 3
    weight_filler {
      type: "xavier"
      std: 0.03
    }
    bias_filler {
      type: "constant"
      value: 0.2
    }
  }
}
layer {
  name: "conv2/relu_3x3"
  type: "ReLU"
  bottom: "conv2/3x3"
  top: "conv2/3x3"
}
layer {
  name: "conv2/norm2"
  type: "LRN"
  bottom: "conv2/3x3"
  top: "conv2/norm2"
  lrn_param {
    local_size: 5
    alpha: 0.0001
    beta: 0.75
  }
}
layer {
  name: "pool2/3x3_s2"
  type: "Pooling"
  bottom: "conv2/norm2"
  top: "pool2/3x3_s2"
  pooling_param {
    pool: MAX
    kernel_size: 3
    stride: 2
  }
}
layer {
  name: "inception_3a/1x1"
  type: "Convolution"
  bottom: "pool2/3x3_s2"
  top: "inception_3a/1x1"
  param {
    lr_mult: 1
    decay_mult: 1
  }
  param {
    lr_mult: 2
    decay_mult: 0
  }
  convolution_param {
    num_output: 64
    kernel_size: 1
    weight_filler {
      type: "xavier"
      std: 0.03
    }
    bias_filler {
      type: "constant"
      value: 0.2
    }
  }
}
layer {
  name: "inception_3a/relu_1x1"
  type: "ReLU"
  bottom: "inception_3a/1x1"
  top: "inception_3a/1x1"
}
layer {
  name: "inception_3a/3x3_reduce"
  type: "Convolution"
  bottom: "pool2/3x3_s2"
  top: "inception_3a/3x3_reduce"
  param {
    lr_mult: 1
    decay_mult: 1
  }
  param {
    lr_mult: 2
    decay_mult: 0
  }
  convolution_param {
    num_output: 96
    kernel_size: 1
    weight_filler {
      type: "xavier"
      std: 0.09
    }
    bias_filler {
      type: "constant"
      value: 0.2
    }
  }
}
layer {
  name: "inception_3a/relu_3x3_reduce"
  type: "ReLU"
  bottom: "inception_3a/3x3_reduce"
  top: "inception_3a/3x3_reduce"
}
layer {
  name: "inception_3a/3x3"
  type: "Convolution"
  bottom: "inception_3a/3x3_reduce"
  top: "inception_3a/3x3"
  param {
    lr_mult: 1
    decay_mult: 1
  }
  param {
    lr_mult: 2
    decay_mult: 0
  }
  convolution_param {
    num_output: 128
    pad: 1
    kernel_size: 3
    weight_filler {
      type: "xavier"
      std: 0.03
    }
    bias_filler {
      type: "constant"
      value: 0.2
    }
  }
}
layer {
  name: "inception_3a/relu_3x3"
  type: "ReLU"
  bottom: "inception_3a/3x3"
  top: "inception_3a/3x3"
}
layer {
  name: "inception_3a/5x5_reduce"
  type: "Convolution"
  bottom: "pool2/3x3_s2"
  top: "inception_3a/5x5_reduce"
  param {
    lr_mult: 1
    decay_mult: 1
  }
  param {
    lr_mult: 2
    decay_mult: 0
  }
  convolution_param {
    num_output: 16
    kernel_size: 1
    weight_filler {
      type: "xavier"
      std: 0.2
    }
    bias_filler {
      type: "constant"
      value: 0.2
    }
  }
}
layer {
  name: "inception_3a/relu_5x5_reduce"
  type: "ReLU"
  bottom: "inception_3a/5x5_reduce"
  top: "inception_3a/5x5_reduce"
}
layer {
  name: "inception_3a/5x5"
  type: "Convolution"
  bottom: "inception_3a/5x5_reduce"
  top: "inception_3a/5x5"
  param {
    lr_mult: 1
    decay_mult: 1
  }
  param {
    lr_mult: 2
    decay_mult: 0
  }
  convolution_param {
    num_output: 32
    pad: 2
    kernel_size: 5
    weight_filler {
      type: "xavier"
      std: 0.03
    }
    bias_filler {
      type: "constant"
      value: 0.2
    }
  }
}
layer {
  name: "inception_3a/relu_5x5"
  type: "ReLU"
  bottom: "inception_3a/5x5"
  top: "inception_3a/5x5"
}
layer {
  name: "inception_3a/pool"
  type: "Pooling"
  bottom: "pool2/3x3_s2"
  top: "inception_3a/pool"
  pooling_param {
    pool: MAX
    kernel_size: 3
    stride: 1
    pad: 1
  }
}
layer {
  name: "inception_3a/pool_proj"
  type: "Convolution"
  bottom: "inception_3a/pool"
  top: "inception_3a/pool_proj"
  param {
    lr_mult: 1
    decay_mult: 1
  }
  param {
    lr_mult: 2
    decay_mult: 0
  }
  convolution_param {
    num_output: 32
    kernel_size: 1
    weight_filler {
      type: "xavier"
      std: 0.1
    }
    bias_filler {
      type: "constant"
      value: 0.2
    }
  }
}
layer {
  name: "inception_3a/relu_pool_proj"
  type: "ReLU"
  bottom: "inception_3a/pool_proj"
  top: "inception_3a/pool_proj"
}
layer {
  name: "inception_3a/output"
  type: "Concat"
  bottom: "inception_3a/1x1"
  bottom: "inception_3a/3x3"
  bottom: "inception_3a/5x5"
  bottom: "inception_3a/pool_proj"
  top: "inception_3a/output"
}
layer {
  name: "inception_3b/1x1"
  type: "Convolution"
  bottom: "inception_3a/output"
  top: "inception_3b/1x1"
  param {
    lr_mult: 1
    decay_mult: 1
  }
  param {
    lr_mult: 2
    decay_mult: 0
  }
  convolution_param {
    num_output: 128
    kernel_size: 1
    weight_filler {
      type: "xavier"
      std: 0.03
    }
    bias_filler {
      type: "constant"
      value: 0.2
    }
  }
}
layer {
  name: "inception_3b/relu_1x1"
  type: "ReLU"
  bottom: "inception_3b/1x1"
  top: "inception_3b/1x1"
}
layer {
  name: "inception_3b/3x3_reduce"
  type: "Convolution"
  bottom: "inception_3a/output"
  top: "inception_3b/3x3_reduce"
  param {
    lr_mult: 1
    decay_mult: 1
  }
  param {
    lr_mult: 2
    decay_mult: 0
  }
  convolution_param {
    num_output: 128
    kernel_size: 1
    weight_filler {
      type: "xavier"
      std: 0.09
    }
    bias_filler {
      type: "constant"
      value: 0.2
    }
  }
}
layer {
  name: "inception_3b/relu_3x3_reduce"
  type: "ReLU"
  bottom: "inception_3b/3x3_reduce"
  top: "inception_3b/3x3_reduce"
}
layer {
  name: "inception_3b/3x3"
  type: "Convolution"
  bottom: "inception_3b/3x3_reduce"
  top: "inception_3b/3x3"
  param {
    lr_mult: 1
    decay_mult: 1
  }
  param {
    lr_mult: 2
    decay_mult: 0
  }
  convolution_param {
    num_output: 192
    pad: 1
    kernel_size: 3
    weight_filler {
      type: "xavier"
      std: 0.03
    }
    bias_filler {
      type: "constant"
      value: 0.2
    }
  }
}
layer {
  name: "inception_3b/relu_3x3"
  type: "ReLU"
  bottom: "inception_3b/3x3"
  top: "inception_3b/3x3"
}
layer {
  name: "inception_3b/5x5_reduce"
  type: "Convolution"
  bottom: "inception_3a/output"
  top: "inception_3b/5x5_reduce"
  param {
    lr_mult: 1
    decay_mult: 1
  }
  param {
    lr_mult: 2
    decay_mult: 0
  }
  convolution_param {
    num_output: 32
    kernel_size: 1
    weight_filler {
      type: "xavier"
      std: 0.2
    }
    bias_filler {
      type: "constant"
      value: 0.2
    }
  }
}
layer {
  name: "inception_3b/relu_5x5_reduce"
  type: "ReLU"
  bottom: "inception_3b/5x5_reduce"
  top: "inception_3b/5x5_reduce"
}
layer {
  name: "inception_3b/5x5"
  type: "Convolution"
  bottom: "inception_3b/5x5_reduce"
  top: "inception_3b/5x5"
  param {
    lr_mult: 1
    decay_mult: 1
  }
  param {
    lr_mult: 2
    decay_mult: 0
  }
  convolution_param {
    num_output: 96
    pad: 2
    kernel_size: 5
    weight_filler {
      type: "xavier"
      std: 0.03
    }
    bias_filler {
      type: "constant"
      value: 0.2
    }
  }
}
layer {
  name: "inception_3b/relu_5x5"
  type: "ReLU"
  bottom: "inception_3b/5x5"
  top: "inception_3b/5x5"
}
layer {
  name: "inception_3b/pool"
  type: "Pooling"
  bottom: "inception_3a/output"
  top: "inception_3b/pool"
  pooling_param {
    pool: MAX
    kernel_size: 3
    stride: 1
    pad: 1
  }
}
layer {
  name: "inception_3b/pool_proj"
  type: "Convolution"
  bottom: "inception_3b/pool"
  top: "inception_3b/pool_proj"
  param {
    lr_mult: 1
    decay_mult: 1
  }
  param {
    lr_mult: 2
    decay_mult: 0
  }
  convolution_param {
    num_output: 64
    kernel_size: 1
    weight_filler {
      type: "xavier"
      std: 0.1
    }
    bias_filler {
      type: "constant"
      value: 0.2
    }
  }
}
layer {
  name: "inception_3b/relu_pool_proj"
  type: "ReLU"
  bottom: "inception_3b/pool_proj"
  top: "inception_3b/pool_proj"
}
layer {
  name: "inception_3b/output"
  type: "Concat"
  bottom: "inception_3b/1x1"
  bottom: "inception_3b/3x3"
  bottom: "inception_3b/5x5"
  bottom: "inception_3b/pool_proj"
  top: "inception_3b/output"
}
layer {
  name: "pool3/3x3_s2"
  type: "Pooling"
  bottom: "inception_3b/output"
  top: "pool3/3x3_s2"
  pooling_param {
    pool: MAX
    kernel_size: 3
    stride: 2
  }
}
layer {
  name: "inception_4a/1x1"
  type: "Convolution"
  bottom: "pool3/3x3_s2"
  top: "inception_4a/1x1"
  param {
    lr_mult: 1
    decay_mult: 1
  }
  param {
    lr_mult: 2
    decay_mult: 0
  }
  convolution_param {
    num_output: 192
    kernel_size: 1
    weight_filler {
      type: "xavier"
      std: 0.03
    }
    bias_filler {
      type: "constant"
      value: 0.2
    }
  }
}
layer {
  name: "inception_4a/relu_1x1"
  type: "ReLU"
  bottom: "inception_4a/1x1"
  top: "inception_4a/1x1"
}
layer {
  name: "inception_4a/3x3_reduce"
  type: "Convolution"
  bottom: "pool3/3x3_s2"
  top: "inception_4a/3x3_reduce"
  param {
    lr_mult: 1
    decay_mult: 1
  }
  param {
    lr_mult: 2
    decay_mult: 0
  }
  convolution_param {
    num_output: 96
    kernel_size: 1
    weight_filler {
      type: "xavier"
      std: 0.09
    }
    bias_filler {
      type: "constant"
      value: 0.2
    }
  }
}
layer {
  name: "inception_4a/relu_3x3_reduce"
  type: "ReLU"
  bottom: "inception_4a/3x3_reduce"
  top: "inception_4a/3x3_reduce"
}
layer {
  name: "inception_4a/3x3"
  type: "Convolution"
  bottom: "inception_4a/3x3_reduce"
  top: "inception_4a/3x3"
  param {
    lr_mult: 1
    decay_mult: 1
  }
  param {
    lr_mult: 2
    decay_mult: 0
  }
  convolution_param {
    num_output: 208
    pad: 1
    kernel_size: 3
    weight_filler {
      type: "xavier"
      std: 0.03
    }
    bias_filler {
      type: "constant"
      value: 0.2
    }
  }
}
layer {
  name: "inception_4a/relu_3x3"
  type: "ReLU"
  bottom: "inception_4a/3x3"
  top: "inception_4a/3x3"
}
layer {
  name: "inception_4a/5x5_reduce"
  type: "Convolution"
  bottom: "pool3/3x3_s2"
  top: "inception_4a/5x5_reduce"
  param {
    lr_mult: 1
    decay_mult: 1
  }
  param {
    lr_mult: 2
    decay_mult: 0
  }
  convolution_param {
    num_output: 16
    kernel_size: 1
    weight_filler {
      type: "xavier"
      std: 0.2
    }
    bias_filler {
      type: "constant"
      value: 0.2
    }
  }
}
layer {
  name: "inception_4a/relu_5x5_reduce"
  type: "ReLU"
  bottom: "inception_4a/5x5_reduce"
  top: "inception_4a/5x5_reduce"
}
layer {
  name: "inception_4a/5x5"
  type: "Convolution"
  bottom: "inception_4a/5x5_reduce"
  top: "inception_4a/5x5"
  param {
    lr_mult: 1
    decay_mult: 1
  }
  param {
    lr_mult: 2
    decay_mult: 0
  }
  convolution_param {
    num_output: 48
    pad: 2
    kernel_size: 5
    weight_filler {
      type: "xavier"
      std: 0.03
    }
    bias_filler {
      type: "constant"
      value: 0.2
    }
  }
}
layer {
  name: "inception_4a/relu_5x5"
  type: "ReLU"
  bottom: "inception_4a/5x5"
  top: "inception_4a/5x5"
}
layer {
  name: "inception_4a/pool"
  type: "Pooling"
  bottom: "pool3/3x3_s2"
  top: "inception_4a/pool"
  pooling_param {
    pool: MAX
    kernel_size: 3
    stride: 1
    pad: 1
  }
}
layer {
  name: "inception_4a/pool_proj"
  type: "Convolution"
  bottom: "inception_4a/pool"
  top: "inception_4a/pool_proj"
  param {
    lr_mult: 1
    decay_mult: 1
  }
  param {
    lr_mult: 2
    decay_mult: 0
  }
  convolution_param {
    num_output: 64
    kernel_size: 1
    weight_filler {
      type: "xavier"
      std: 0.1
    }
    bias_filler {
      type: "constant"
      value: 0.2
    }
  }
}
layer {
  name: "inception_4a/relu_pool_proj"
  type: "ReLU"
  bottom: "inception_4a/pool_proj"
  top: "inception_4a/pool_proj"
}
layer {
  name: "inception_4a/output"
  type: "Concat"
  bottom: "inception_4a/1x1"
  bottom: "inception_4a/3x3"
  bottom: "inception_4a/5x5"
  bottom: "inception_4a/pool_proj"
  top: "inception_4a/output"
}
layer {
  name: "loss1/ave_pool"
  type: "Pooling"
  bottom: "inception_4a/output"
  top: "loss1/ave_pool"
  pooling_param {
    pool: AVE
    kernel_size: 5
    stride: 3
  }
}
layer {
  name: "loss1/conv"
  type: "Convolution"
  bottom: "loss1/ave_pool"
  top: "loss1/conv"
  param {
    lr_mult: 1
    decay_mult: 1
  }
  param {
    lr_mult: 2
    decay_mult: 0
  }
  convolution_param {
    num_output: 128
    kernel_size: 1
    weight_filler {
      type: "xavier"
      std: 0.08
    }
    bias_filler {
      type: "constant"
      value: 0.2
    }
  }
}
layer {
  name: "loss1/relu_conv"
  type: "ReLU"
  bottom: "loss1/conv"
  top: "loss1/conv"
}
layer {
  name: "loss1/fc"
  type: "InnerProduct"
  bottom: "loss1/conv"
  top: "loss1/fc"
  param {
    lr_mult: 1
    decay_mult: 1
  }
  param {
    lr_mult: 2
    decay_mult: 0
  }
  inner_product_param {
    num_output: 1024
    weight_filler {
      type: "xavier"
      std: 0.02
    }
    bias_filler {
      type: "constant"
      value: 0.2
    }
  }
}
layer {
  name: "loss1/relu_fc"
  type: "ReLU"
  bottom: "loss1/fc"
  top: "loss1/fc"
}
layer {
  name: "loss1/drop_fc"
  type: "Dropout"
  bottom: "loss1/fc"
  top: "loss1/fc"
  dropout_param {
    dropout_ratio: 0.7
  }
}
layer {
  name: "loss1/classifier_plantvillage"
  type: "InnerProduct"
  bottom: "loss1/fc"
  top: "loss1/classifier_plantvillage"
  param {
    lr_mult: 1
    decay_mult: 1
  }
  param {
    lr_mult: 2
    decay_mult: 0
  }
  inner_product_param {
    num_output: 38
    weight_filler {
      type: "xavier"
      std: 0.0009765625
    }
    bias_filler {
      type: "constant"
      value: 0
    }
  }
}
layer {
  name: "inception_4b/1x1"
  type: "Convolution"
  bottom: "inception_4a/output"
  top: "inception_4b/1x1"
  param {
    lr_mult: 1
    decay_mult: 1
  }
  param {
    lr_mult: 2
    decay_mult: 0
  }
  convolution_param {
    num_output: 160
    kernel_size: 1
    weight_filler {
      type: "xavier"
      std: 0.03
    }
    bias_filler {
      type: "constant"
      value: 0.2
    }
  }
}
layer {
  name: "inception_4b/relu_1x1"
  type: "ReLU"
  bottom: "inception_4b/1x1"
  top: "inception_4b/1x1"
}
layer {
  name: "inception_4b/3x3_reduce"
  type: "Convolution"
  bottom: "inception_4a/output"
  top: "inception_4b/3x3_reduce"
  param {
    lr_mult: 1
    decay_mult: 1
  }
  param {
    lr_mult: 2
    decay_mult: 0
  }
  convolution_param {
    num_output: 112
    kernel_size: 1
    weight_filler {
      type: "xavier"
      std: 0.09
    }
    bias_filler {
      type: "constant"
      value: 0.2
    }
  }
}
layer {
  name: "inception_4b/relu_3x3_reduce"
  type: "ReLU"
  bottom: "inception_4b/3x3_reduce"
  top: "inception_4b/3x3_reduce"
}
layer {
  name: "inception_4b/3x3"
  type: "Convolution"
  bottom: "inception_4b/3x3_reduce"
  top: "inception_4b/3x3"
  param {
    lr_mult: 1
    decay_mult: 1
  }
  param {
    lr_mult: 2
    decay_mult: 0
  }
  convolution_param {
    num_output: 224
    pad: 1
    kernel_size: 3
    weight_filler {
      type: "xavier"
      std: 0.03
    }
    bias_filler {
      type: "constant"
      value: 0.2
    }
  }
}
layer {
  name: "inception_4b/relu_3x3"
  type: "ReLU"
  bottom: "inception_4b/3x3"
  top: "inception_4b/3x3"
}
layer {
  name: "inception_4b/5x5_reduce"
  type: "Convolution"
  bottom: "inception_4a/output"
  top: "inception_4b/5x5_reduce"
  param {
    lr_mult: 1
    decay_mult: 1
  }
  param {
    lr_mult: 2
    decay_mult: 0
  }
  convolution_param {
    num_output: 24
    kernel_size: 1
    weight_filler {
      type: "xavier"
      std: 0.2
    }
    bias_filler {
      type: "constant"
      value: 0.2
    }
  }
}
layer {
  name: "inception_4b/relu_5x5_reduce"
  type: "ReLU"
  bottom: "inception_4b/5x5_reduce"
  top: "inception_4b/5x5_reduce"
}
layer {
  name: "inception_4b/5x5"
  type: "Convolution"
  bottom: "inception_4b/5x5_reduce"
  top: "inception_4b/5x5"
  param {
    lr_mult: 1
    decay_mult: 1
  }
  param {
    lr_mult: 2
    decay_mult: 0
  }
  convolution_param {
    num_output: 64
    pad: 2
    kernel_size: 5
    weight_filler {
      type: "xavier"
      std: 0.03
    }
    bias_filler {
      type: "constant"
      value: 0.2
    }
  }
}
layer {
  name: "inception_4b/relu_5x5"
  type: "ReLU"
  bottom: "inception_4b/5x5"
  top: "inception_4b/5x5"
}
layer {
  name: "inception_4b/pool"
  type: "Pooling"
  bottom: "inception_4a/output"
  top: "inception_4b/pool"
  pooling_param {
    pool: MAX
    kernel_size: 3
    stride: 1
    pad: 1
  }
}
layer {
  name: "inception_4b/pool_proj"
  type: "Convolution"
  bottom: "inception_4b/pool"
  top: "inception_4b/pool_proj"
  param {
    lr_mult: 1
    decay_mult: 1
  }
  param {
    lr_mult: 2
    decay_mult: 0
  }
  convolution_param {
    num_output: 64
    kernel_size: 1
    weight_filler {
      type: "xavier"
      std: 0.1
    }
    bias_filler {
      type: "constant"
      value: 0.2
    }
  }
}
layer {
  name: "inception_4b/relu_pool_proj"
  type: "ReLU"
  bottom: "inception_4b/pool_proj"
  top: "inception_4b/pool_proj"
}
layer {
  name: "inception_4b/output"
  type: "Concat"
  bottom: "inception_4b/1x1"
  bottom: "inception_4b/3x3"
  bottom: "inception_4b/5x5"
  bottom: "inception_4b/pool_proj"
  top: "inception_4b/output"
}
layer {
  name: "inception_4c/1x1"
  type: "Convolution"
  bottom: "inception_4b/output"
  top: "inception_4c/1x1"
  param {
    lr_mult: 1
    decay_mult: 1
  }
  param {
    lr_mult: 2
    decay_mult: 0
  }
  convolution_param {
    num_output: 128
    kernel_size: 1
    weight_filler {
      type: "xavier"
      std: 0.03
    }
    bias_filler {
      type: "constant"
      value: 0.2
    }
  }
}
layer {
  name: "inception_4c/relu_1x1"
  type: "ReLU"
  bottom: "inception_4c/1x1"
  top: "inception_4c/1x1"
}
layer {
  name: "inception_4c/3x3_reduce"
  type: "Convolution"
  bottom: "inception_4b/output"
  top: "inception_4c/3x3_reduce"
  param {
    lr_mult: 1
    decay_mult: 1
  }
  param {
    lr_mult: 2
    decay_mult: 0
  }
  convolution_param {
    num_output: 128
    kernel_size: 1
    weight_filler {
      type: "xavier"
      std: 0.09
    }
    bias_filler {
      type: "constant"
      value: 0.2
    }
  }
}
layer {
  name: "inception_4c/relu_3x3_reduce"
  type: "ReLU"
  bottom: "inception_4c/3x3_reduce"
  top: "inception_4c/3x3_reduce"
}
layer {
  name: "inception_4c/3x3"
  type: "Convolution"
  bottom: "inception_4c/3x3_reduce"
  top: "inception_4c/3x3"
  param {
    lr_mult: 1
    decay_mult: 1
  }
  param {
    lr_mult: 2
    decay_mult: 0
  }
  convolution_param {
    num_output: 256
    pad: 1
    kernel_size: 3
    weight_filler {
      type: "xavier"
      std: 0.03
    }
    bias_filler {
      type: "constant"
      value: 0.2
    }
  }
}
layer {
  name: "inception_4c/relu_3x3"
  type: "ReLU"
  bottom: "inception_4c/3x3"
  top: "inception_4c/3x3"
}
layer {
  name: "inception_4c/5x5_reduce"
  type: "Convolution"
  bottom: "inception_4b/output"
  top: "inception_4c/5x5_reduce"
  param {
    lr_mult: 1
    decay_mult: 1
  }
  param {
    lr_mult: 2
    decay_mult: 0
  }
  convolution_param {
    num_output: 24
    kernel_size: 1
    weight_filler {
      type: "xavier"
      std: 0.2
    }
    bias_filler {
      type: "constant"
      value: 0.2
    }
  }
}
layer {
  name: "inception_4c/relu_5x5_reduce"
  type: "ReLU"
  bottom: "inception_4c/5x5_reduce"
  top: "inception_4c/5x5_reduce"
}
layer {
  name: "inception_4c/5x5"
  type: "Convolution"
  bottom: "inception_4c/5x5_reduce"
  top: "inception_4c/5x5"
  param {
    lr_mult: 1
    decay_mult: 1
  }
  param {
    lr_mult: 2
    decay_mult: 0
  }
  convolution_param {
    num_output: 64
    pad: 2
    kernel_size: 5
    weight_filler {
      type: "xavier"
      std: 0.03
    }
    bias_filler {
      type: "constant"
      value: 0.2
    }
  }
}
layer {
  name: "inception_4c/relu_5x5"
  type: "ReLU"
  bottom: "inception_4c/5x5"
  top: "inception_4c/5x5"
}
layer {
  name: "inception_4c/pool"
  type: "Pooling"
  bottom: "inception_4b/output"
  top: "inception_4c/pool"
  pooling_param {
    pool: MAX
    kernel_size: 3
    stride: 1
    pad: 1
  }
}
layer {
  name: "inception_4c/pool_proj"
  type: "Convolution"
  bottom: "inception_4c/pool"
  top: "inception_4c/pool_proj"
  param {
    lr_mult: 1
    decay_mult: 1
  }
  param {
    lr_mult: 2
    decay_mult: 0
  }
  convolution_param {
    num_output: 64
    kernel_size: 1
    weight_filler {
      type: "xavier"
      std: 0.1
    }
    bias_filler {
      type: "constant"
      value: 0.2
    }
  }
}
layer {
  name: "inception_4c/relu_pool_proj"
  type: "ReLU"
  bottom: "inception_4c/pool_proj"
  top: "inception_4c/pool_proj"
}
layer {
  name: "inception_4c/output"
  type: "Concat"
  bottom: "inception_4c/1x1"
  bottom: "inception_4c/3x3"
  bottom: "inception_4c/5x5"
  bottom: "inception_4c/pool_proj"
  top: "inception_4c/output"
}
layer {
  name: "inception_4d/1x1"
  type: "Convolution"
  bottom: "inception_4c/output"
  top: "inception_4d/1x1"
  param {
    lr_mult: 1
    decay_mult: 1
  }
  param {
    lr_mult: 2
    decay_mult: 0
  }
  convolution_param {
    num_output: 112
    kernel_size: 1
    weight_filler {
      type: "xavier"
      std: 0.03
    }
    bias_filler {
      type: "constant"
      value: 0.2
    }
  }
}
layer {
  name: "inception_4d/relu_1x1"
  type: "ReLU"
  bottom: "inception_4d/1x1"
  top: "inception_4d/1x1"
}
layer {
  name: "inception_4d/3x3_reduce"
  type: "Convolution"
  bottom: "inception_4c/output"
  top: "inception_4d/3x3_reduce"
  param {
    lr_mult: 1
    decay_mult: 1
  }
  param {
    lr_mult: 2
    decay_mult: 0
  }
  convolution_param {
    num_output: 144
    kernel_size: 1
    weight_filler {
      type: "xavier"
      std: 0.09
    }
    bias_filler {
      type: "constant"
      value: 0.2
    }
  }
}
layer {
  name: "inception_4d/relu_3x3_reduce"
  type: "ReLU"
  bottom: "inception_4d/3x3_reduce"
  top: "inception_4d/3x3_reduce"
}
layer {
  name: "inception_4d/3x3"
  type: "Convolution"
  bottom: "inception_4d/3x3_reduce"
  top: "inception_4d/3x3"
  param {
    lr_mult: 1
    decay_mult: 1
  }
  param {
    lr_mult: 2
    decay_mult: 0
  }
  convolution_param {
    num_output: 288
    pad: 1
    kernel_size: 3
    weight_filler {
      type: "xavier"
      std: 0.03
    }
    bias_filler {
      type: "constant"
      value: 0.2
    }
  }
}
layer {
  name: "inception_4d/relu_3x3"
  type: "ReLU"
  bottom: "inception_4d/3x3"
  top: "inception_4d/3x3"
}
layer {
  name: "inception_4d/5x5_reduce"
  type: "Convolution"
  bottom: "inception_4c/output"
  top: "inception_4d/5x5_reduce"
  param {
    lr_mult: 1
    decay_mult: 1
  }
  param {
    lr_mult: 2
    decay_mult: 0
  }
  convolution_param {
    num_output: 32
    kernel_size: 1
    weight_filler {
      type: "xavier"
      std: 0.2
    }
    bias_filler {
      type: "constant"
      value: 0.2
    }
  }
}
layer {
  name: "inception_4d/relu_5x5_reduce"
  type: "ReLU"
  bottom: "inception_4d/5x5_reduce"
  top: "inception_4d/5x5_reduce"
}
layer {
  name: "inception_4d/5x5"
  type: "Convolution"
  bottom: "inception_4d/5x5_reduce"
  top: "inception_4d/5x5"
  param {
    lr_mult: 1
    decay_mult: 1
  }
  param {
    lr_mult: 2
    decay_mult: 0
  }
  convolution_param {
    num_output: 64
    pad: 2
    kernel_size: 5
    weight_filler {
      type: "xavier"
      std: 0.03
    }
    bias_filler {
      type: "constant"
      value: 0.2
    }
  }
}
layer {
  name: "inception_4d/relu_5x5"
  type: "ReLU"
  bottom: "inception_4d/5x5"
  top: "inception_4d/5x5"
}
layer {
  name: "inception_4d/pool"
  type: "Pooling"
  bottom: "inception_4c/output"
  top: "inception_4d/pool"
  pooling_param {
    pool: MAX
    kernel_size: 3
    stride: 1
    pad: 1
  }
}
layer {
  name: "inception_4d/pool_proj"
  type: "Convolution"
  bottom: "inception_4d/pool"
  top: "inception_4d/pool_proj"
  param {
    lr_mult: 1
    decay_mult: 1
  }
  param {
    lr_mult: 2
    decay_mult: 0
  }
  convolution_param {
    num_output: 64
    kernel_size: 1
    weight_filler {
      type: "xavier"
      std: 0.1
    }
    bias_filler {
      type: "constant"
      value: 0.2
    }
  }
}
layer {
  name: "inception_4d/relu_pool_proj"
  type: "ReLU"
  bottom: "inception_4d/pool_proj"
  top: "inception_4d/pool_proj"
}
layer {
  name: "inception_4d/output"
  type: "Concat"
  bottom: "inception_4d/1x1"
  bottom: "inception_4d/3x3"
  bottom: "inception_4d/5x5"
  bottom: "inception_4d/pool_proj"
  top: "inception_4d/output"
}
layer {
  name: "loss2/ave_pool"
  type: "Pooling"
  bottom: "inception_4d/output"
  top: "loss2/ave_pool"
  pooling_param {
    pool: AVE
    kernel_size: 5
    stride: 3
  }
}
layer {
  name: "loss2/conv"
  type: "Convolution"
  bottom: "loss2/ave_pool"
  top: "loss2/conv"
  param {
    lr_mult: 1
    decay_mult: 1
  }
  param {
    lr_mult: 2
    decay_mult: 0
  }
  convolution_param {
    num_output: 128
    kernel_size: 1
    weight_filler {
      type: "xavier"
      std: 0.08
    }
    bias_filler {
      type: "constant"
      value: 0.2
    }
  }
}
layer {
  name: "loss2/relu_conv"
  type: "ReLU"
  bottom: "loss2/conv"
  top: "loss2/conv"
}
layer {
  name: "loss2/fc"
  type: "InnerProduct"
  bottom: "loss2/conv"
  top: "loss2/fc"
  param {
    lr_mult: 1
    decay_mult: 1
  }
  param {
    lr_mult: 2
    decay_mult: 0
  }
  inner_product_param {
    num_output: 1024
    weight_filler {
      type: "xavier"
      std: 0.02
    }
    bias_filler {
      type: "constant"
      value: 0.2
    }
  }
}
layer {
  name: "loss2/relu_fc"
  type: "ReLU"
  bottom: "loss2/fc"
  top: "loss2/fc"
}
layer {
  name: "loss2/drop_fc"
  type: "Dropout"
  bottom: "loss2/fc"
  top: "loss2/fc"
  dropout_param {
    dropout_ratio: 0.7
  }
}
layer {
  name: "loss2/classifier_plantvillage"
  type: "InnerProduct"
  bottom: "loss2/fc"
  top: "loss2/classifier_plantvillage"
  param {
    lr_mult: 1
    decay_mult: 1
  }
  param {
    lr_mult: 2
    decay_mult: 0
  }
  inner_product_param {
    num_output: 38
    weight_filler {
      type: "xavier"
      std: 0.0009765625
    }
    bias_filler {
      type: "constant"
      value: 0
    }
  }
}
layer {
  name: "inception_4e/1x1"
  type: "Convolution"
  bottom: "inception_4d/output"
  top: "inception_4e/1x1"
  param {
    lr_mult: 1
    decay_mult: 1
  }
  param {
    lr_mult: 2
    decay_mult: 0
  }
  convolution_param {
    num_output: 256
    kernel_size: 1
    weight_filler {
      type: "xavier"
      std: 0.03
    }
    bias_filler {
      type: "constant"
      value: 0.2
    }
  }
}
layer {
  name: "inception_4e/relu_1x1"
  type: "ReLU"
  bottom: "inception_4e/1x1"
  top: "inception_4e/1x1"
}
layer {
  name: "inception_4e/3x3_reduce"
  type: "Convolution"
  bottom: "inception_4d/output"
  top: "inception_4e/3x3_reduce"
  param {
    lr_mult: 1
    decay_mult: 1
  }
  param {
    lr_mult: 2
    decay_mult: 0
  }
  convolution_param {
    num_output: 160
    kernel_size: 1
    weight_filler {
      type: "xavier"
      std: 0.09
    }
    bias_filler {
      type: "constant"
      value: 0.2
    }
  }
}
layer {
  name: "inception_4e/relu_3x3_reduce"
  type: "ReLU"
  bottom: "inception_4e/3x3_reduce"
  top: "inception_4e/3x3_reduce"
}
layer {
  name: "inception_4e/3x3"
  type: "Convolution"
  bottom: "inception_4e/3x3_reduce"
  top: "inception_4e/3x3"
  param {
    lr_mult: 1
    decay_mult: 1
  }
  param {
    lr_mult: 2
    decay_mult: 0
  }
  convolution_param {
    num_output: 320
    pad: 1
    kernel_size: 3
    weight_filler {
      type: "xavier"
      std: 0.03
    }
    bias_filler {
      type: "constant"
      value: 0.2
    }
  }
}
layer {
  name: "inception_4e/relu_3x3"
  type: "ReLU"
  bottom: "inception_4e/3x3"
  top: "inception_4e/3x3"
}
layer {
  name: "inception_4e/5x5_reduce"
  type: "Convolution"
  bottom: "inception_4d/output"
  top: "inception_4e/5x5_reduce"
  param {
    lr_mult: 1
    decay_mult: 1
  }
  param {
    lr_mult: 2
    decay_mult: 0
  }
  convolution_param {
    num_output: 32
    kernel_size: 1
    weight_filler {
      type: "xavier"
      std: 0.2
    }
    bias_filler {
      type: "constant"
      value: 0.2
    }
  }
}
layer {
  name: "inception_4e/relu_5x5_reduce"
  type: "ReLU"
  bottom: "inception_4e/5x5_reduce"
  top: "inception_4e/5x5_reduce"
}
layer {
  name: "inception_4e/5x5"
  type: "Convolution"
  bottom: "inception_4e/5x5_reduce"
  top: "inception_4e/5x5"
  p
I0403 15:40:44.467474 32675 layer_factory.hpp:77] Creating layer data
I0403 15:40:44.468098 32675 net.cpp:91] Creating Layer data
I0403 15:40:44.468132 32675 net.cpp:399] data -> data
I0403 15:40:44.468186 32675 net.cpp:399] data -> label
I0403 15:40:44.468225 32675 data_transformer.cpp:25] Loading mean file from: /home/mohanty/data/final_dataset/lmdb/color-60-40/mean.binaryproto
I0403 15:40:44.471426 32680 db_lmdb.cpp:38] Opened lmdb /home/mohanty/data/final_dataset/lmdb/color-60-40/test_db
I0403 15:40:44.481765 32675 data_layer.cpp:41] output data size: 24,3,224,224
I0403 15:40:44.512440 32675 net.cpp:141] Setting up data
I0403 15:40:44.512512 32675 net.cpp:148] Top shape: 24 3 224 224 (3612672)
I0403 15:40:44.512537 32675 net.cpp:148] Top shape: 24 (24)
I0403 15:40:44.512553 32675 net.cpp:156] Memory required for data: 14450784
I0403 15:40:44.512583 32675 layer_factory.hpp:77] Creating layer label_data_1_split
I0403 15:40:44.512610 32675 net.cpp:91] Creating Layer label_data_1_split
I0403 15:40:44.512631 32675 net.cpp:425] label_data_1_split <- label
I0403 15:40:44.512665 32675 net.cpp:399] label_data_1_split -> label_data_1_split_0
I0403 15:40:44.512694 32675 net.cpp:399] label_data_1_split -> label_data_1_split_1
I0403 15:40:44.512717 32675 net.cpp:399] label_data_1_split -> label_data_1_split_2
I0403 15:40:44.512739 32675 net.cpp:399] label_data_1_split -> label_data_1_split_3
I0403 15:40:44.512759 32675 net.cpp:399] label_data_1_split -> label_data_1_split_4
I0403 15:40:44.512781 32675 net.cpp:399] label_data_1_split -> label_data_1_split_5
I0403 15:40:44.512804 32675 net.cpp:399] label_data_1_split -> label_data_1_split_6
I0403 15:40:44.512825 32675 net.cpp:399] label_data_1_split -> label_data_1_split_7
I0403 15:40:44.512846 32675 net.cpp:399] label_data_1_split -> label_data_1_split_8
I0403 15:40:44.512868 32675 net.cpp:399] label_data_1_split -> label_data_1_split_9
I0403 15:40:44.512989 32675 net.cpp:141] Setting up label_data_1_split
I0403 15:40:44.513013 32675 net.cpp:148] Top shape: 24 (24)
I0403 15:40:44.513032 32675 net.cpp:148] Top shape: 24 (24)
I0403 15:40:44.513049 32675 net.cpp:148] Top shape: 24 (24)
I0403 15:40:44.513065 32675 net.cpp:148] Top shape: 24 (24)
I0403 15:40:44.513082 32675 net.cpp:148] Top shape: 24 (24)
I0403 15:40:44.513098 32675 net.cpp:148] Top shape: 24 (24)
I0403 15:40:44.513114 32675 net.cpp:148] Top shape: 24 (24)
I0403 15:40:44.513130 32675 net.cpp:148] Top shape: 24 (24)
I0403 15:40:44.513147 32675 net.cpp:148] Top shape: 24 (24)
I0403 15:40:44.513164 32675 net.cpp:148] Top shape: 24 (24)
I0403 15:40:44.513211 32675 net.cpp:156] Memory required for data: 14451744
I0403 15:40:44.513227 32675 layer_factory.hpp:77] Creating layer conv1/7x7_s2
I0403 15:40:44.513259 32675 net.cpp:91] Creating Layer conv1/7x7_s2
I0403 15:40:44.513280 32675 net.cpp:425] conv1/7x7_s2 <- data
I0403 15:40:44.513306 32675 net.cpp:399] conv1/7x7_s2 -> conv1/7x7_s2
I0403 15:40:44.660043 32675 net.cpp:141] Setting up conv1/7x7_s2
I0403 15:40:44.660105 32675 net.cpp:148] Top shape: 24 64 112 112 (19267584)
I0403 15:40:44.660125 32675 net.cpp:156] Memory required for data: 91522080
I0403 15:40:44.660158 32675 layer_factory.hpp:77] Creating layer conv1/relu_7x7
I0403 15:40:44.660189 32675 net.cpp:91] Creating Layer conv1/relu_7x7
I0403 15:40:44.660210 32675 net.cpp:425] conv1/relu_7x7 <- conv1/7x7_s2
I0403 15:40:44.660230 32675 net.cpp:386] conv1/relu_7x7 -> conv1/7x7_s2 (in-place)
I0403 15:40:44.660523 32675 net.cpp:141] Setting up conv1/relu_7x7
I0403 15:40:44.660552 32675 net.cpp:148] Top shape: 24 64 112 112 (19267584)
I0403 15:40:44.660569 32675 net.cpp:156] Memory required for data: 168592416
I0403 15:40:44.660586 32675 layer_factory.hpp:77] Creating layer pool1/3x3_s2
I0403 15:40:44.660612 32675 net.cpp:91] Creating Layer pool1/3x3_s2
I0403 15:40:44.660636 32675 net.cpp:425] pool1/3x3_s2 <- conv1/7x7_s2
I0403 15:40:44.660656 32675 net.cpp:399] pool1/3x3_s2 -> pool1/3x3_s2
I0403 15:40:44.660742 32675 net.cpp:141] Setting up pool1/3x3_s2
I0403 15:40:44.660768 32675 net.cpp:148] Top shape: 24 64 56 56 (4816896)
I0403 15:40:44.660785 32675 net.cpp:156] Memory required for data: 187860000
I0403 15:40:44.660800 32675 layer_factory.hpp:77] Creating layer pool1/norm1
I0403 15:40:44.660826 32675 net.cpp:91] Creating Layer pool1/norm1
I0403 15:40:44.660846 32675 net.cpp:425] pool1/norm1 <- pool1/3x3_s2
I0403 15:40:44.660868 32675 net.cpp:399] pool1/norm1 -> pool1/norm1
I0403 15:40:44.661206 32675 net.cpp:141] Setting up pool1/norm1
I0403 15:40:44.661237 32675 net.cpp:148] Top shape: 24 64 56 56 (4816896)
I0403 15:40:44.661252 32675 net.cpp:156] Memory required for data: 207127584
I0403 15:40:44.661269 32675 layer_factory.hpp:77] Creating layer conv2/3x3_reduce
I0403 15:40:44.661303 32675 net.cpp:91] Creating Layer conv2/3x3_reduce
I0403 15:40:44.661322 32675 net.cpp:425] conv2/3x3_reduce <- pool1/norm1
I0403 15:40:44.661346 32675 net.cpp:399] conv2/3x3_reduce -> conv2/3x3_reduce
I0403 15:40:44.662772 32675 net.cpp:141] Setting up conv2/3x3_reduce
I0403 15:40:44.662806 32675 net.cpp:148] Top shape: 24 64 56 56 (4816896)
I0403 15:40:44.662827 32675 net.cpp:156] Memory required for data: 226395168
I0403 15:40:44.662848 32675 layer_factory.hpp:77] Creating layer conv2/relu_3x3_reduce
I0403 15:40:44.662868 32675 net.cpp:91] Creating Layer conv2/relu_3x3_reduce
I0403 15:40:44.662886 32675 net.cpp:425] conv2/relu_3x3_reduce <- conv2/3x3_reduce
I0403 15:40:44.662950 32675 net.cpp:386] conv2/relu_3x3_reduce -> conv2/3x3_reduce (in-place)
I0403 15:40:44.663233 32675 net.cpp:141] Setting up conv2/relu_3x3_reduce
I0403 15:40:44.663272 32675 net.cpp:148] Top shape: 24 64 56 56 (4816896)
I0403 15:40:44.663307 32675 net.cpp:156] Memory required for data: 245662752
I0403 15:40:44.663327 32675 layer_factory.hpp:77] Creating layer conv2/3x3
I0403 15:40:44.663352 32675 net.cpp:91] Creating Layer conv2/3x3
I0403 15:40:44.663372 32675 net.cpp:425] conv2/3x3 <- conv2/3x3_reduce
I0403 15:40:44.663391 32675 net.cpp:399] conv2/3x3 -> conv2/3x3
I0403 15:40:44.665838 32675 net.cpp:141] Setting up conv2/3x3
I0403 15:40:44.665873 32675 net.cpp:148] Top shape: 24 192 56 56 (14450688)
I0403 15:40:44.665891 32675 net.cpp:156] Memory required for data: 303465504
I0403 15:40:44.665915 32675 layer_factory.hpp:77] Creating layer conv2/relu_3x3
I0403 15:40:44.665935 32675 net.cpp:91] Creating Layer conv2/relu_3x3
I0403 15:40:44.665953 32675 net.cpp:425] conv2/relu_3x3 <- conv2/3x3
I0403 15:40:44.665976 32675 net.cpp:386] conv2/relu_3x3 -> conv2/3x3 (in-place)
I0403 15:40:44.666160 32675 net.cpp:141] Setting up conv2/relu_3x3
I0403 15:40:44.666188 32675 net.cpp:148] Top shape: 24 192 56 56 (14450688)
I0403 15:40:44.666239 32675 net.cpp:156] Memory required for data: 361268256
I0403 15:40:44.666256 32675 layer_factory.hpp:77] Creating layer conv2/norm2
I0403 15:40:44.666282 32675 net.cpp:91] Creating Layer conv2/norm2
I0403 15:40:44.666309 32675 net.cpp:425] conv2/norm2 <- conv2/3x3
I0403 15:40:44.666339 32675 net.cpp:399] conv2/norm2 -> conv2/norm2
I0403 15:40:44.666697 32675 net.cpp:141] Setting up conv2/norm2
I0403 15:40:44.666726 32675 net.cpp:148] Top shape: 24 192 56 56 (14450688)
I0403 15:40:44.666745 32675 net.cpp:156] Memory required for data: 419071008
I0403 15:40:44.666764 32675 layer_factory.hpp:77] Creating layer pool2/3x3_s2
I0403 15:40:44.666785 32675 net.cpp:91] Creating Layer pool2/3x3_s2
I0403 15:40:44.666805 32675 net.cpp:425] pool2/3x3_s2 <- conv2/norm2
I0403 15:40:44.666831 32675 net.cpp:399] pool2/3x3_s2 -> pool2/3x3_s2
I0403 15:40:44.666887 32675 net.cpp:141] Setting up pool2/3x3_s2
I0403 15:40:44.666918 32675 net.cpp:148] Top shape: 24 192 28 28 (3612672)
I0403 15:40:44.666936 32675 net.cpp:156] Memory required for data: 433521696
I0403 15:40:44.666954 32675 layer_factory.hpp:77] Creating layer pool2/3x3_s2_pool2/3x3_s2_0_split
I0403 15:40:44.666972 32675 net.cpp:91] Creating Layer pool2/3x3_s2_pool2/3x3_s2_0_split
I0403 15:40:44.666990 32675 net.cpp:425] pool2/3x3_s2_pool2/3x3_s2_0_split <- pool2/3x3_s2
I0403 15:40:44.667011 32675 net.cpp:399] pool2/3x3_s2_pool2/3x3_s2_0_split -> pool2/3x3_s2_pool2/3x3_s2_0_split_0
I0403 15:40:44.667032 32675 net.cpp:399] pool2/3x3_s2_pool2/3x3_s2_0_split -> pool2/3x3_s2_pool2/3x3_s2_0_split_1
I0403 15:40:44.667055 32675 net.cpp:399] pool2/3x3_s2_pool2/3x3_s2_0_split -> pool2/3x3_s2_pool2/3x3_s2_0_split_2
I0403 15:40:44.667076 32675 net.cpp:399] pool2/3x3_s2_pool2/3x3_s2_0_split -> pool2/3x3_s2_pool2/3x3_s2_0_split_3
I0403 15:40:44.667150 32675 net.cpp:141] Setting up pool2/3x3_s2_pool2/3x3_s2_0_split
I0403 15:40:44.667174 32675 net.cpp:148] Top shape: 24 192 28 28 (3612672)
I0403 15:40:44.667191 32675 net.cpp:148] Top shape: 24 192 28 28 (3612672)
I0403 15:40:44.667208 32675 net.cpp:148] Top shape: 24 192 28 28 (3612672)
I0403 15:40:44.667227 32675 net.cpp:148] Top shape: 24 192 28 28 (3612672)
I0403 15:40:44.667244 32675 net.cpp:156] Memory required for data: 491324448
I0403 15:40:44.667264 32675 layer_factory.hpp:77] Creating layer inception_3a/1x1
I0403 15:40:44.667292 32675 net.cpp:91] Creating Layer inception_3a/1x1
I0403 15:40:44.667315 32675 net.cpp:425] inception_3a/1x1 <- pool2/3x3_s2_pool2/3x3_s2_0_split_0
I0403 15:40:44.667341 32675 net.cpp:399] inception_3a/1x1 -> inception_3a/1x1
I0403 15:40:44.668977 32675 net.cpp:141] Setting up inception_3a/1x1
I0403 15:40:44.669015 32675 net.cpp:148] Top shape: 24 64 28 28 (1204224)
I0403 15:40:44.669037 32675 net.cpp:156] Memory required for data: 496141344
I0403 15:40:44.669065 32675 layer_factory.hpp:77] Creating layer inception_3a/relu_1x1
I0403 15:40:44.669095 32675 net.cpp:91] Creating Layer inception_3a/relu_1x1
I0403 15:40:44.669116 32675 net.cpp:425] inception_3a/relu_1x1 <- inception_3a/1x1
I0403 15:40:44.669134 32675 net.cpp:386] inception_3a/relu_1x1 -> inception_3a/1x1 (in-place)
I0403 15:40:44.669327 32675 net.cpp:141] Setting up inception_3a/relu_1x1
I0403 15:40:44.669355 32675 net.cpp:148] Top shape: 24 64 28 28 (1204224)
I0403 15:40:44.669371 32675 net.cpp:156] Memory required for data: 500958240
I0403 15:40:44.669387 32675 layer_factory.hpp:77] Creating layer inception_3a/3x3_reduce
I0403 15:40:44.669411 32675 net.cpp:91] Creating Layer inception_3a/3x3_reduce
I0403 15:40:44.669430 32675 net.cpp:425] inception_3a/3x3_reduce <- pool2/3x3_s2_pool2/3x3_s2_0_split_1
I0403 15:40:44.669456 32675 net.cpp:399] inception_3a/3x3_reduce -> inception_3a/3x3_reduce
I0403 15:40:44.671243 32675 net.cpp:141] Setting up inception_3a/3x3_reduce
I0403 15:40:44.671279 32675 net.cpp:148] Top shape: 24 96 28 28 (1806336)
I0403 15:40:44.671304 32675 net.cpp:156] Memory required for data: 508183584
I0403 15:40:44.671327 32675 layer_factory.hpp:77] Creating layer inception_3a/relu_3x3_reduce
I0403 15:40:44.671373 32675 net.cpp:91] Creating Layer inception_3a/relu_3x3_reduce
I0403 15:40:44.671393 32675 net.cpp:425] inception_3a/relu_3x3_reduce <- inception_3a/3x3_reduce
I0403 15:40:44.671416 32675 net.cpp:386] inception_3a/relu_3x3_reduce -> inception_3a/3x3_reduce (in-place)
I0403 15:40:44.671615 32675 net.cpp:141] Setting up inception_3a/relu_3x3_reduce
I0403 15:40:44.671650 32675 net.cpp:148] Top shape: 24 96 28 28 (1806336)
I0403 15:40:44.671672 32675 net.cpp:156] Memory required for data: 515408928
I0403 15:40:44.671689 32675 layer_factory.hpp:77] Creating layer inception_3a/3x3
I0403 15:40:44.671715 32675 net.cpp:91] Creating Layer inception_3a/3x3
I0403 15:40:44.671733 32675 net.cpp:425] inception_3a/3x3 <- inception_3a/3x3_reduce
I0403 15:40:44.671754 32675 net.cpp:399] inception_3a/3x3 -> inception_3a/3x3
I0403 15:40:44.673560 32675 net.cpp:141] Setting up inception_3a/3x3
I0403 15:40:44.673596 32675 net.cpp:148] Top shape: 24 128 28 28 (2408448)
I0403 15:40:44.673616 32675 net.cpp:156] Memory required for data: 525042720
I0403 15:40:44.673636 32675 layer_factory.hpp:77] Creating layer inception_3a/relu_3x3
I0403 15:40:44.673660 32675 net.cpp:91] Creating Layer inception_3a/relu_3x3
I0403 15:40:44.673678 32675 net.cpp:425] inception_3a/relu_3x3 <- inception_3a/3x3
I0403 15:40:44.673704 32675 net.cpp:386] inception_3a/relu_3x3 -> inception_3a/3x3 (in-place)
I0403 15:40:44.674003 32675 net.cpp:141] Setting up inception_3a/relu_3x3
I0403 15:40:44.674032 32675 net.cpp:148] Top shape: 24 128 28 28 (2408448)
I0403 15:40:44.674048 32675 net.cpp:156] Memory required for data: 534676512
I0403 15:40:44.674064 32675 layer_factory.hpp:77] Creating layer inception_3a/5x5_reduce
I0403 15:40:44.674088 32675 net.cpp:91] Creating Layer inception_3a/5x5_reduce
I0403 15:40:44.674108 32675 net.cpp:425] inception_3a/5x5_reduce <- pool2/3x3_s2_pool2/3x3_s2_0_split_2
I0403 15:40:44.674130 32675 net.cpp:399] inception_3a/5x5_reduce -> inception_3a/5x5_reduce
I0403 15:40:44.675149 32675 net.cpp:141] Setting up inception_3a/5x5_reduce
I0403 15:40:44.675180 32675 net.cpp:148] Top shape: 24 16 28 28 (301056)
I0403 15:40:44.675197 32675 net.cpp:156] Memory required for data: 535880736
I0403 15:40:44.675217 32675 layer_factory.hpp:77] Creating layer inception_3a/relu_5x5_reduce
I0403 15:40:44.675237 32675 net.cpp:91] Creating Layer inception_3a/relu_5x5_reduce
I0403 15:40:44.675254 32675 net.cpp:425] inception_3a/relu_5x5_reduce <- inception_3a/5x5_reduce
I0403 15:40:44.675278 32675 net.cpp:386] inception_3a/relu_5x5_reduce -> inception_3a/5x5_reduce (in-place)
I0403 15:40:44.675585 32675 net.cpp:141] Setting up inception_3a/relu_5x5_reduce
I0403 15:40:44.675619 32675 net.cpp:148] Top shape: 24 16 28 28 (301056)
I0403 15:40:44.675647 32675 net.cpp:156] Memory required for data: 537084960
I0403 15:40:44.675667 32675 layer_factory.hpp:77] Creating layer inception_3a/5x5
I0403 15:40:44.675695 32675 net.cpp:91] Creating Layer inception_3a/5x5
I0403 15:40:44.675714 32675 net.cpp:425] inception_3a/5x5 <- inception_3a/5x5_reduce
I0403 15:40:44.675735 32675 net.cpp:399] inception_3a/5x5 -> inception_3a/5x5
I0403 15:40:44.676797 32675 net.cpp:141] Setting up inception_3a/5x5
I0403 15:40:44.676829 32675 net.cpp:148] Top shape: 24 32 28 28 (602112)
I0403 15:40:44.676848 32675 net.cpp:156] Memory required for data: 539493408
I0403 15:40:44.676868 32675 layer_factory.hpp:77] Creating layer inception_3a/relu_5x5
I0403 15:40:44.676887 32675 net.cpp:91] Creating Layer inception_3a/relu_5x5
I0403 15:40:44.676905 32675 net.cpp:425] inception_3a/relu_5x5 <- inception_3a/5x5
I0403 15:40:44.676923 32675 net.cpp:386] inception_3a/relu_5x5 -> inception_3a/5x5 (in-place)
I0403 15:40:44.677109 32675 net.cpp:141] Setting up inception_3a/relu_5x5
I0403 15:40:44.677139 32675 net.cpp:148] Top shape: 24 32 28 28 (602112)
I0403 15:40:44.677162 32675 net.cpp:156] Memory required for data: 541901856
I0403 15:40:44.677183 32675 layer_factory.hpp:77] Creating layer inception_3a/pool
I0403 15:40:44.677214 32675 net.cpp:91] Creating Layer inception_3a/pool
I0403 15:40:44.677237 32675 net.cpp:425] inception_3a/pool <- pool2/3x3_s2_pool2/3x3_s2_0_split_3
I0403 15:40:44.677279 32675 net.cpp:399] inception_3a/pool -> inception_3a/pool
I0403 15:40:44.677346 32675 net.cpp:141] Setting up inception_3a/pool
I0403 15:40:44.677374 32675 net.cpp:148] Top shape: 24 192 28 28 (3612672)
I0403 15:40:44.677392 32675 net.cpp:156] Memory required for data: 556352544
I0403 15:40:44.677407 32675 layer_factory.hpp:77] Creating layer inception_3a/pool_proj
I0403 15:40:44.677430 32675 net.cpp:91] Creating Layer inception_3a/pool_proj
I0403 15:40:44.677449 32675 net.cpp:425] inception_3a/pool_proj <- inception_3a/pool
I0403 15:40:44.677469 32675 net.cpp:399] inception_3a/pool_proj -> inception_3a/pool_proj
I0403 15:40:44.678478 32675 net.cpp:141] Setting up inception_3a/pool_proj
I0403 15:40:44.678509 32675 net.cpp:148] Top shape: 24 32 28 28 (602112)
I0403 15:40:44.678526 32675 net.cpp:156] Memory required for data: 558760992
I0403 15:40:44.678555 32675 layer_factory.hpp:77] Creating layer inception_3a/relu_pool_proj
I0403 15:40:44.678576 32675 net.cpp:91] Creating Layer inception_3a/relu_pool_proj
I0403 15:40:44.678596 32675 net.cpp:425] inception_3a/relu_pool_proj <- inception_3a/pool_proj
I0403 15:40:44.678624 32675 net.cpp:386] inception_3a/relu_pool_proj -> inception_3a/pool_proj (in-place)
I0403 15:40:44.678910 32675 net.cpp:141] Setting up inception_3a/relu_pool_proj
I0403 15:40:44.678941 32675 net.cpp:148] Top shape: 24 32 28 28 (602112)
I0403 15:40:44.678959 32675 net.cpp:156] Memory required for data: 561169440
I0403 15:40:44.678975 32675 layer_factory.hpp:77] Creating layer inception_3a/output
I0403 15:40:44.678994 32675 net.cpp:91] Creating Layer inception_3a/output
I0403 15:40:44.679013 32675 net.cpp:425] inception_3a/output <- inception_3a/1x1
I0403 15:40:44.679031 32675 net.cpp:425] inception_3a/output <- inception_3a/3x3
I0403 15:40:44.679049 32675 net.cpp:425] inception_3a/output <- inception_3a/5x5
I0403 15:40:44.679064 32675 net.cpp:425] inception_3a/output <- inception_3a/pool_proj
I0403 15:40:44.679088 32675 net.cpp:399] inception_3a/output -> inception_3a/output
I0403 15:40:44.679139 32675 net.cpp:141] Setting up inception_3a/output
I0403 15:40:44.679170 32675 net.cpp:148] Top shape: 24 256 28 28 (4816896)
I0403 15:40:44.679191 32675 net.cpp:156] Memory required for data: 580437024
I0403 15:40:44.679215 32675 layer_factory.hpp:77] Creating layer inception_3a/output_inception_3a/output_0_split
I0403 15:40:44.679246 32675 net.cpp:91] Creating Layer inception_3a/output_inception_3a/output_0_split
I0403 15:40:44.679270 32675 net.cpp:425] inception_3a/output_inception_3a/output_0_split <- inception_3a/output
I0403 15:40:44.679302 32675 net.cpp:399] inception_3a/output_inception_3a/output_0_split -> inception_3a/output_inception_3a/output_0_split_0
I0403 15:40:44.679327 32675 net.cpp:399] inception_3a/output_inception_3a/output_0_split -> inception_3a/output_inception_3a/output_0_split_1
I0403 15:40:44.679353 32675 net.cpp:399] inception_3a/output_inception_3a/output_0_split -> inception_3a/output_inception_3a/output_0_split_2
I0403 15:40:44.679378 32675 net.cpp:399] inception_3a/output_inception_3a/output_0_split -> inception_3a/output_inception_3a/output_0_split_3
I0403 15:40:44.679457 32675 net.cpp:141] Setting up inception_3a/output_inception_3a/output_0_split
I0403 15:40:44.679483 32675 net.cpp:148] Top shape: 24 256 28 28 (4816896)
I0403 15:40:44.679502 32675 net.cpp:148] Top shape: 24 256 28 28 (4816896)
I0403 15:40:44.679518 32675 net.cpp:148] Top shape: 24 256 28 28 (4816896)
I0403 15:40:44.679534 32675 net.cpp:148] Top shape: 24 256 28 28 (4816896)
I0403 15:40:44.679548 32675 net.cpp:156] Memory required for data: 657507360
I0403 15:40:44.679563 32675 layer_factory.hpp:77] Creating layer inception_3b/1x1
I0403 15:40:44.679589 32675 net.cpp:91] Creating Layer inception_3b/1x1
I0403 15:40:44.679607 32675 net.cpp:425] inception_3b/1x1 <- inception_3a/output_inception_3a/output_0_split_0
I0403 15:40:44.679627 32675 net.cpp:399] inception_3b/1x1 -> inception_3b/1x1
I0403 15:40:44.680848 32675 net.cpp:141] Setting up inception_3b/1x1
I0403 15:40:44.680901 32675 net.cpp:148] Top shape: 24 128 28 28 (2408448)
I0403 15:40:44.680919 32675 net.cpp:156] Memory required for data: 667141152
I0403 15:40:44.680939 32675 layer_factory.hpp:77] Creating layer inception_3b/relu_1x1
I0403 15:40:44.680963 32675 net.cpp:91] Creating Layer inception_3b/relu_1x1
I0403 15:40:44.680981 32675 net.cpp:425] inception_3b/relu_1x1 <- inception_3b/1x1
I0403 15:40:44.680999 32675 net.cpp:386] inception_3b/relu_1x1 -> inception_3b/1x1 (in-place)
I0403 15:40:44.681183 32675 net.cpp:141] Setting up inception_3b/relu_1x1
I0403 15:40:44.681210 32675 net.cpp:148] Top shape: 24 128 28 28 (2408448)
I0403 15:40:44.681231 32675 net.cpp:156] Memory required for data: 676774944
I0403 15:40:44.681248 32675 layer_factory.hpp:77] Creating layer inception_3b/3x3_reduce
I0403 15:40:44.681272 32675 net.cpp:91] Creating Layer inception_3b/3x3_reduce
I0403 15:40:44.681301 32675 net.cpp:425] inception_3b/3x3_reduce <- inception_3a/output_inception_3a/output_0_split_1
I0403 15:40:44.681334 32675 net.cpp:399] inception_3b/3x3_reduce -> inception_3b/3x3_reduce
I0403 15:40:44.682526 32675 net.cpp:141] Setting up inception_3b/3x3_reduce
I0403 15:40:44.682557 32675 net.cpp:148] Top shape: 24 128 28 28 (2408448)
I0403 15:40:44.682580 32675 net.cpp:156] Memory required for data: 686408736
I0403 15:40:44.682600 32675 layer_factory.hpp:77] Creating layer inception_3b/relu_3x3_reduce
I0403 15:40:44.682621 32675 net.cpp:91] Creating Layer inception_3b/relu_3x3_reduce
I0403 15:40:44.682641 32675 net.cpp:425] inception_3b/relu_3x3_reduce <- inception_3b/3x3_reduce
I0403 15:40:44.682658 32675 net.cpp:386] inception_3b/relu_3x3_reduce -> inception_3b/3x3_reduce (in-place)
I0403 15:40:44.682842 32675 net.cpp:141] Setting up inception_3b/relu_3x3_reduce
I0403 15:40:44.682879 32675 net.cpp:148] Top shape: 24 128 28 28 (2408448)
I0403 15:40:44.682903 32675 net.cpp:156] Memory required for data: 696042528
I0403 15:40:44.682924 32675 layer_factory.hpp:77] Creating layer inception_3b/3x3
I0403 15:40:44.682955 32675 net.cpp:91] Creating Layer inception_3b/3x3
I0403 15:40:44.682982 32675 net.cpp:425] inception_3b/3x3 <- inception_3b/3x3_reduce
I0403 15:40:44.683014 32675 net.cpp:399] inception_3b/3x3 -> inception_3b/3x3
I0403 15:40:44.686060 32675 net.cpp:141] Setting up inception_3b/3x3
I0403 15:40:44.686094 32675 net.cpp:148] Top shape: 24 192 28 28 (3612672)
I0403 15:40:44.686111 32675 net.cpp:156] Memory required for data: 710493216
I0403 15:40:44.686131 32675 layer_factory.hpp:77] Creating layer inception_3b/relu_3x3
I0403 15:40:44.686151 32675 net.cpp:91] Creating Layer inception_3b/relu_3x3
I0403 15:40:44.686168 32675 net.cpp:425] inception_3b/relu_3x3 <- inception_3b/3x3
I0403 15:40:44.686189 32675 net.cpp:386] inception_3b/relu_3x3 -> inception_3b/3x3 (in-place)
I0403 15:40:44.686485 32675 net.cpp:141] Setting up inception_3b/relu_3x3
I0403 15:40:44.686522 32675 net.cpp:148] Top shape: 24 192 28 28 (3612672)
I0403 15:40:44.686539 32675 net.cpp:156] Memory required for data: 724943904
I0403 15:40:44.686556 32675 layer_factory.hpp:77] Creating layer inception_3b/5x5_reduce
I0403 15:40:44.686580 32675 net.cpp:91] Creating Layer inception_3b/5x5_reduce
I0403 15:40:44.686599 32675 net.cpp:425] inception_3b/5x5_reduce <- inception_3a/output_inception_3a/output_0_split_2
I0403 15:40:44.686624 32675 net.cpp:399] inception_3b/5x5_reduce -> inception_3b/5x5_reduce
I0403 15:40:44.687657 32675 net.cpp:141] Setting up inception_3b/5x5_reduce
I0403 15:40:44.687690 32675 net.cpp:148] Top shape: 24 32 28 28 (602112)
I0403 15:40:44.687708 32675 net.cpp:156] Memory required for data: 727352352
I0403 15:40:44.687729 32675 layer_factory.hpp:77] Creating layer inception_3b/relu_5x5_reduce
I0403 15:40:44.687748 32675 net.cpp:91] Creating Layer inception_3b/relu_5x5_reduce
I0403 15:40:44.687765 32675 net.cpp:425] inception_3b/relu_5x5_reduce <- inception_3b/5x5_reduce
I0403 15:40:44.687786 32675 net.cpp:386] inception_3b/relu_5x5_reduce -> inception_3b/5x5_reduce (in-place)
I0403 15:40:44.687975 32675 net.cpp:141] Setting up inception_3b/relu_5x5_reduce
I0403 15:40:44.688015 32675 net.cpp:148] Top shape: 24 32 28 28 (602112)
I0403 15:40:44.688032 32675 net.cpp:156] Memory required for data: 729760800
I0403 15:40:44.688050 32675 layer_factory.hpp:77] Creating layer inception_3b/5x5
I0403 15:40:44.688072 32675 net.cpp:91] Creating Layer inception_3b/5x5
I0403 15:40:44.688091 32675 net.cpp:425] inception_3b/5x5 <- inception_3b/5x5_reduce
I0403 15:40:44.688114 32675 net.cpp:399] inception_3b/5x5 -> inception_3b/5x5
I0403 15:40:44.690157 32675 net.cpp:141] Setting up inception_3b/5x5
I0403 15:40:44.690189 32675 net.cpp:148] Top shape: 24 96 28 28 (1806336)
I0403 15:40:44.690207 32675 net.cpp:156] Memory required for data: 736986144
I0403 15:40:44.690227 32675 layer_factory.hpp:77] Creating layer inception_3b/relu_5x5
I0403 15:40:44.690248 32675 net.cpp:91] Creating Layer inception_3b/relu_5x5
I0403 15:40:44.690268 32675 net.cpp:425] inception_3b/relu_5x5 <- inception_3b/5x5
I0403 15:40:44.690291 32675 net.cpp:386] inception_3b/relu_5x5 -> inception_3b/5x5 (in-place)
I0403 15:40:44.690497 32675 net.cpp:141] Setting up inception_3b/relu_5x5
I0403 15:40:44.690526 32675 net.cpp:148] Top shape: 24 96 28 28 (1806336)
I0403 15:40:44.690541 32675 net.cpp:156] Memory required for data: 744211488
I0403 15:40:44.690557 32675 layer_factory.hpp:77] Creating layer inception_3b/pool
I0403 15:40:44.690575 32675 net.cpp:91] Creating Layer inception_3b/pool
I0403 15:40:44.690593 32675 net.cpp:425] inception_3b/pool <- inception_3a/output_inception_3a/output_0_split_3
I0403 15:40:44.690613 32675 net.cpp:399] inception_3b/pool -> inception_3b/pool
I0403 15:40:44.690672 32675 net.cpp:141] Setting up inception_3b/pool
I0403 15:40:44.690697 32675 net.cpp:148] Top shape: 24 256 28 28 (4816896)
I0403 15:40:44.690719 32675 net.cpp:156] Memory required for data: 763479072
I0403 15:40:44.690735 32675 layer_factory.hpp:77] Creating layer inception_3b/pool_proj
I0403 15:40:44.690762 32675 net.cpp:91] Creating Layer inception_3b/pool_proj
I0403 15:40:44.690793 32675 net.cpp:425] inception_3b/pool_proj <- inception_3b/pool
I0403 15:40:44.690819 32675 net.cpp:399] inception_3b/pool_proj -> inception_3b/pool_proj
I0403 15:40:44.691938 32675 net.cpp:141] Setting up inception_3b/pool_proj
I0403 15:40:44.691980 32675 net.cpp:148] Top shape: 24 64 28 28 (1204224)
I0403 15:40:44.692001 32675 net.cpp:156] Memory required for data: 768295968
I0403 15:40:44.692026 32675 layer_factory.hpp:77] Creating layer inception_3b/relu_pool_proj
I0403 15:40:44.692054 32675 net.cpp:91] Creating Layer inception_3b/relu_pool_proj
I0403 15:40:44.692078 32675 net.cpp:425] inception_3b/relu_pool_proj <- inception_3b/pool_proj
I0403 15:40:44.692101 32675 net.cpp:386] inception_3b/relu_pool_proj -> inception_3b/pool_proj (in-place)
I0403 15:40:44.692505 32675 net.cpp:141] Setting up inception_3b/relu_pool_proj
I0403 15:40:44.692536 32675 net.cpp:148] Top shape: 24 64 28 28 (1204224)
I0403 15:40:44.692559 32675 net.cpp:156] Memory required for data: 773112864
I0403 15:40:44.692579 32675 layer_factory.hpp:77] Creating layer inception_3b/output
I0403 15:40:44.692603 32675 net.cpp:91] Creating Layer inception_3b/output
I0403 15:40:44.692626 32675 net.cpp:425] inception_3b/output <- inception_3b/1x1
I0403 15:40:44.692646 32675 net.cpp:425] inception_3b/output <- inception_3b/3x3
I0403 15:40:44.692669 32675 net.cpp:425] inception_3b/output <- inception_3b/5x5
I0403 15:40:44.692687 32675 net.cpp:425] inception_3b/output <- inception_3b/pool_proj
I0403 15:40:44.692708 32675 net.cpp:399] inception_3b/output -> inception_3b/output
I0403 15:40:44.692754 32675 net.cpp:141] Setting up inception_3b/output
I0403 15:40:44.692782 32675 net.cpp:148] Top shape: 24 480 28 28 (9031680)
I0403 15:40:44.692800 32675 net.cpp:156] Memory required for data: 809239584
I0403 15:40:44.692816 32675 layer_factory.hpp:77] Creating layer pool3/3x3_s2
I0403 15:40:44.692836 32675 net.cpp:91] Creating Layer pool3/3x3_s2
I0403 15:40:44.692852 32675 net.cpp:425] pool3/3x3_s2 <- inception_3b/output
I0403 15:40:44.692872 32675 net.cpp:399] pool3/3x3_s2 -> pool3/3x3_s2
I0403 15:40:44.692951 32675 net.cpp:141] Setting up pool3/3x3_s2
I0403 15:40:44.692977 32675 net.cpp:148] Top shape: 24 480 14 14 (2257920)
I0403 15:40:44.692997 32675 net.cpp:156] Memory required for data: 818271264
I0403 15:40:44.693013 32675 layer_factory.hpp:77] Creating layer pool3/3x3_s2_pool3/3x3_s2_0_split
I0403 15:40:44.693035 32675 net.cpp:91] Creating Layer pool3/3x3_s2_pool3/3x3_s2_0_split
I0403 15:40:44.693055 32675 net.cpp:425] pool3/3x3_s2_pool3/3x3_s2_0_split <- pool3/3x3_s2
I0403 15:40:44.693079 32675 net.cpp:399] pool3/3x3_s2_pool3/3x3_s2_0_split -> pool3/3x3_s2_pool3/3x3_s2_0_split_0
I0403 15:40:44.693105 32675 net.cpp:399] pool3/3x3_s2_pool3/3x3_s2_0_split -> pool3/3x3_s2_pool3/3x3_s2_0_split_1
I0403 15:40:44.693133 32675 net.cpp:399] pool3/3x3_s2_pool3/3x3_s2_0_split -> pool3/3x3_s2_pool3/3x3_s2_0_split_2
I0403 15:40:44.693164 32675 net.cpp:399] pool3/3x3_s2_pool3/3x3_s2_0_split -> pool3/3x3_s2_pool3/3x3_s2_0_split_3
I0403 15:40:44.693250 32675 net.cpp:141] Setting up pool3/3x3_s2_pool3/3x3_s2_0_split
I0403 15:40:44.693281 32675 net.cpp:148] Top shape: 24 480 14 14 (2257920)
I0403 15:40:44.693312 32675 net.cpp:148] Top shape: 24 480 14 14 (2257920)
I0403 15:40:44.693336 32675 net.cpp:148] Top shape: 24 480 14 14 (2257920)
I0403 15:40:44.693354 32675 net.cpp:148] Top shape: 24 480 14 14 (2257920)
I0403 15:40:44.693377 32675 net.cpp:156] Memory required for data: 854397984
I0403 15:40:44.693397 32675 layer_factory.hpp:77] Creating layer inception_4a/1x1
I0403 15:40:44.693429 32675 net.cpp:91] Creating Layer inception_4a/1x1
I0403 15:40:44.693454 32675 net.cpp:425] inception_4a/1x1 <- pool3/3x3_s2_pool3/3x3_s2_0_split_0
I0403 15:40:44.693475 32675 net.cpp:399] inception_4a/1x1 -> inception_4a/1x1
I0403 15:40:44.695137 32675 net.cpp:141] Setting up inception_4a/1x1
I0403 15:40:44.695168 32675 net.cpp:148] Top shape: 24 192 14 14 (903168)
I0403 15:40:44.695184 32675 net.cpp:156] Memory required for data: 858010656
I0403 15:40:44.695204 32675 layer_factory.hpp:77] Creating layer inception_4a/relu_1x1
I0403 15:40:44.695227 32675 net.cpp:91] Creating Layer inception_4a/relu_1x1
I0403 15:40:44.695245 32675 net.cpp:425] inception_4a/relu_1x1 <- inception_4a/1x1
I0403 15:40:44.695266 32675 net.cpp:386] inception_4a/relu_1x1 -> inception_4a/1x1 (in-place)
I0403 15:40:44.695456 32675 net.cpp:141] Setting up inception_4a/relu_1x1
I0403 15:40:44.695485 32675 net.cpp:148] Top shape: 24 192 14 14 (903168)
I0403 15:40:44.695508 32675 net.cpp:156] Memory required for data: 861623328
I0403 15:40:44.695528 32675 layer_factory.hpp:77] Creating layer inception_4a/3x3_reduce
I0403 15:40:44.695554 32675 net.cpp:91] Creating Layer inception_4a/3x3_reduce
I0403 15:40:44.695574 32675 net.cpp:425] inception_4a/3x3_reduce <- pool3/3x3_s2_pool3/3x3_s2_0_split_1
I0403 15:40:44.695595 32675 net.cpp:399] inception_4a/3x3_reduce -> inception_4a/3x3_reduce
I0403 15:40:44.696923 32675 net.cpp:141] Setting up inception_4a/3x3_reduce
I0403 15:40:44.696952 32675 net.cpp:148] Top shape: 24 96 14 14 (451584)
I0403 15:40:44.696970 32675 net.cpp:156] Memory required for data: 863429664
I0403 15:40:44.697002 32675 layer_factory.hpp:77] Creating layer inception_4a/relu_3x3_reduce
I0403 15:40:44.697031 32675 net.cpp:91] Creating Layer inception_4a/relu_3x3_reduce
I0403 15:40:44.697054 32675 net.cpp:425] inception_4a/relu_3x3_reduce <- inception_4a/3x3_reduce
I0403 15:40:44.697082 32675 net.cpp:386] inception_4a/relu_3x3_reduce -> inception_4a/3x3_reduce (in-place)
I0403 15:40:44.697273 32675 net.cpp:141] Setting up inception_4a/relu_3x3_reduce
I0403 15:40:44.697305 32675 net.cpp:148] Top shape: 24 96 14 14 (451584)
I0403 15:40:44.697321 32675 net.cpp:156] Memory required for data: 865236000
I0403 15:40:44.697336 32675 layer_factory.hpp:77] Creating layer inception_4a/3x3
I0403 15:40:44.697365 32675 net.cpp:91] Creating Layer inception_4a/3x3
I0403 15:40:44.697383 32675 net.cpp:425] inception_4a/3x3 <- inception_4a/3x3_reduce
I0403 15:40:44.697404 32675 net.cpp:399] inception_4a/3x3 -> inception_4a/3x3
I0403 15:40:44.700194 32675 net.cpp:141] Setting up inception_4a/3x3
I0403 15:40:44.700232 32675 net.cpp:148] Top shape: 24 208 14 14 (978432)
I0403 15:40:44.700249 32675 net.cpp:156] Memory required for data: 869149728
I0403 15:40:44.700270 32675 layer_factory.hpp:77] Creating layer inception_4a/relu_3x3
I0403 15:40:44.700294 32675 net.cpp:91] Creating Layer inception_4a/relu_3x3
I0403 15:40:44.700314 32675 net.cpp:425] inception_4a/relu_3x3 <- inception_4a/3x3
I0403 15:40:44.700332 32675 net.cpp:386] inception_4a/relu_3x3 -> inception_4a/3x3 (in-place)
I0403 15:40:44.700616 32675 net.cpp:141] Setting up inception_4a/relu_3x3
I0403 15:40:44.700651 32675 net.cpp:148] Top shape: 24 208 14 14 (978432)
I0403 15:40:44.700673 32675 net.cpp:156] Memory required for data: 873063456
I0403 15:40:44.700697 32675 layer_factory.hpp:77] Creating layer inception_4a/5x5_reduce
I0403 15:40:44.700722 32675 net.cpp:91] Creating Layer inception_4a/5x5_reduce
I0403 15:40:44.700747 32675 net.cpp:425] inception_4a/5x5_reduce <- pool3/3x3_s2_pool3/3x3_s2_0_split_2
I0403 15:40:44.700775 32675 net.cpp:399] inception_4a/5x5_reduce -> inception_4a/5x5_reduce
I0403 15:40:44.701829 32675 net.cpp:141] Setting up inception_4a/5x5_reduce
I0403 15:40:44.701869 32675 net.cpp:148] Top shape: 24 16 14 14 (75264)
I0403 15:40:44.701886 32675 net.cpp:156] Memory required for data: 873364512
I0403 15:40:44.701906 32675 layer_factory.hpp:77] Creating layer inception_4a/relu_5x5_reduce
I0403 15:40:44.701926 32675 net.cpp:91] Creating Layer inception_4a/relu_5x5_reduce
I0403 15:40:44.701944 32675 net.cpp:425] inception_4a/relu_5x5_reduce <- inception_4a/5x5_reduce
I0403 15:40:44.701963 32675 net.cpp:386] inception_4a/relu_5x5_reduce -> inception_4a/5x5_reduce (in-place)
I0403 15:40:44.702157 32675 net.cpp:141] Setting up inception_4a/relu_5x5_reduce
I0403 15:40:44.702185 32675 net.cpp:148] Top shape: 24 16 14 14 (75264)
I0403 15:40:44.702201 32675 net.cpp:156] Memory required for data: 873665568
I0403 15:40:44.702222 32675 layer_factory.hpp:77] Creating layer inception_4a/5x5
I0403 15:40:44.702246 32675 net.cpp:91] Creating Layer inception_4a/5x5
I0403 15:40:44.702280 32675 net.cpp:425] inception_4a/5x5 <- inception_4a/5x5_reduce
I0403 15:40:44.702312 32675 net.cpp:399] inception_4a/5x5 -> inception_4a/5x5
I0403 15:40:44.703452 32675 net.cpp:141] Setting up inception_4a/5x5
I0403 15:40:44.703490 32675 net.cpp:148] Top shape: 24 48 14 14 (225792)
I0403 15:40:44.703510 32675 net.cpp:156] Memory required for data: 874568736
I0403 15:40:44.703536 32675 layer_factory.hpp:77] Creating layer inception_4a/relu_5x5
I0403 15:40:44.703555 32675 net.cpp:91] Creating Layer inception_4a/relu_5x5
I0403 15:40:44.703578 32675 net.cpp:425] inception_4a/relu_5x5 <- inception_4a/5x5
I0403 15:40:44.703600 32675 net.cpp:386] inception_4a/relu_5x5 -> inception_4a/5x5 (in-place)
I0403 15:40:44.703789 32675 net.cpp:141] Setting up inception_4a/relu_5x5
I0403 15:40:44.703817 32675 net.cpp:148] Top shape: 24 48 14 14 (225792)
I0403 15:40:44.703833 32675 net.cpp:156] Memory required for data: 875471904
I0403 15:40:44.703850 32675 layer_factory.hpp:77] Creating layer inception_4a/pool
I0403 15:40:44.703871 32675 net.cpp:91] Creating Layer inception_4a/pool
I0403 15:40:44.703891 32675 net.cpp:425] inception_4a/pool <- pool3/3x3_s2_pool3/3x3_s2_0_split_3
I0403 15:40:44.703917 32675 net.cpp:399] inception_4a/pool -> inception_4a/pool
I0403 15:40:44.703982 32675 net.cpp:141] Setting up inception_4a/pool
I0403 15:40:44.704012 32675 net.cpp:148] Top shape: 24 480 14 14 (2257920)
I0403 15:40:44.704033 32675 net.cpp:156] Memory required for data: 884503584
I0403 15:40:44.704056 32675 layer_factory.hpp:77] Creating layer inception_4a/pool_proj
I0403 15:40:44.704083 32675 net.cpp:91] Creating Layer inception_4a/pool_proj
I0403 15:40:44.704107 32675 net.cpp:425] inception_4a/pool_proj <- inception_4a/pool
I0403 15:40:44.704135 32675 net.cpp:399] inception_4a/pool_proj -> inception_4a/pool_proj
I0403 15:40:44.705379 32675 net.cpp:141] Setting up inception_4a/pool_proj
I0403 15:40:44.705410 32675 net.cpp:148] Top shape: 24 64 14 14 (301056)
I0403 15:40:44.705443 32675 net.cpp:156] Memory required for data: 885707808
I0403 15:40:44.705466 32675 layer_factory.hpp:77] Creating layer inception_4a/relu_pool_proj
I0403 15:40:44.705488 32675 net.cpp:91] Creating Layer inception_4a/relu_pool_proj
I0403 15:40:44.705507 32675 net.cpp:425] inception_4a/relu_pool_proj <- inception_4a/pool_proj
I0403 15:40:44.705525 32675 net.cpp:386] inception_4a/relu_pool_proj -> inception_4a/pool_proj (in-place)
I0403 15:40:44.705828 32675 net.cpp:141] Setting up inception_4a/relu_pool_proj
I0403 15:40:44.705862 32675 net.cpp:148] Top shape: 24 64 14 14 (301056)
I0403 15:40:44.705888 32675 net.cpp:156] Memory required for data: 886912032
I0403 15:40:44.705909 32675 layer_factory.hpp:77] Creating layer inception_4a/output
I0403 15:40:44.705927 32675 net.cpp:91] Creating Layer inception_4a/output
I0403 15:40:44.705943 32675 net.cpp:425] inception_4a/output <- inception_4a/1x1
I0403 15:40:44.705961 32675 net.cpp:425] inception_4a/output <- inception_4a/3x3
I0403 15:40:44.705979 32675 net.cpp:425] inception_4a/output <- inception_4a/5x5
I0403 15:40:44.705996 32675 net.cpp:425] inception_4a/output <- inception_4a/pool_proj
I0403 15:40:44.706017 32675 net.cpp:399] inception_4a/output -> inception_4a/output
I0403 15:40:44.706066 32675 net.cpp:141] Setting up inception_4a/output
I0403 15:40:44.706092 32675 net.cpp:148] Top shape: 24 512 14 14 (2408448)
I0403 15:40:44.706107 32675 net.cpp:156] Memory required for data: 896545824
I0403 15:40:44.706125 32675 layer_factory.hpp:77] Creating layer inception_4a/output_inception_4a/output_0_split
I0403 15:40:44.706143 32675 net.cpp:91] Creating Layer inception_4a/output_inception_4a/output_0_split
I0403 15:40:44.706159 32675 net.cpp:425] inception_4a/output_inception_4a/output_0_split <- inception_4a/output
I0403 15:40:44.706179 32675 net.cpp:399] inception_4a/output_inception_4a/output_0_split -> inception_4a/output_inception_4a/output_0_split_0
I0403 15:40:44.706202 32675 net.cpp:399] inception_4a/output_inception_4a/output_0_split -> inception_4a/output_inception_4a/output_0_split_1
I0403 15:40:44.706228 32675 net.cpp:399] inception_4a/output_inception_4a/output_0_split -> inception_4a/output_inception_4a/output_0_split_2
I0403 15:40:44.706250 32675 net.cpp:399] inception_4a/output_inception_4a/output_0_split -> inception_4a/output_inception_4a/output_0_split_3
I0403 15:40:44.706271 32675 net.cpp:399] inception_4a/output_inception_4a/output_0_split -> inception_4a/output_inception_4a/output_0_split_4
I0403 15:40:44.706380 32675 net.cpp:141] Setting up inception_4a/output_inception_4a/output_0_split
I0403 15:40:44.706416 32675 net.cpp:148] Top shape: 24 512 14 14 (2408448)
I0403 15:40:44.706442 32675 net.cpp:148] Top shape: 24 512 14 14 (2408448)
I0403 15:40:44.706465 32675 net.cpp:148] Top shape: 24 512 14 14 (2408448)
I0403 15:40:44.706487 32675 net.cpp:148] Top shape: 24 512 14 14 (2408448)
I0403 15:40:44.706509 32675 net.cpp:148] Top shape: 24 512 14 14 (2408448)
I0403 15:40:44.706529 32675 net.cpp:156] Memory required for data: 944714784
I0403 15:40:44.706553 32675 layer_factory.hpp:77] Creating layer loss1/ave_pool
I0403 15:40:44.706578 32675 net.cpp:91] Creating Layer loss1/ave_pool
I0403 15:40:44.706595 32675 net.cpp:425] loss1/ave_pool <- inception_4a/output_inception_4a/output_0_split_0
I0403 15:40:44.706616 32675 net.cpp:399] loss1/ave_pool -> loss1/ave_pool
I0403 15:40:44.706835 32675 net.cpp:141] Setting up loss1/ave_pool
I0403 15:40:44.706862 32675 net.cpp:148] Top shape: 24 512 4 4 (196608)
I0403 15:40:44.706879 32675 net.cpp:156] Memory required for data: 945501216
I0403 15:40:44.706895 32675 layer_factory.hpp:77] Creating layer loss1/conv
I0403 15:40:44.706924 32675 net.cpp:91] Creating Layer loss1/conv
I0403 15:40:44.706943 32675 net.cpp:425] loss1/conv <- loss1/ave_pool
I0403 15:40:44.706965 32675 net.cpp:399] loss1/conv -> loss1/conv
I0403 15:40:44.708449 32675 net.cpp:141] Setting up loss1/conv
I0403 15:40:44.708485 32675 net.cpp:148] Top shape: 24 128 4 4 (49152)
I0403 15:40:44.708508 32675 net.cpp:156] Memory required for data: 945697824
I0403 15:40:44.708544 32675 layer_factory.hpp:77] Creating layer loss1/relu_conv
I0403 15:40:44.708564 32675 net.cpp:91] Creating Layer loss1/relu_conv
I0403 15:40:44.708582 32675 net.cpp:425] loss1/relu_conv <- loss1/conv
I0403 15:40:44.708601 32675 net.cpp:386] loss1/relu_conv -> loss1/conv (in-place)
I0403 15:40:44.708897 32675 net.cpp:141] Setting up loss1/relu_conv
I0403 15:40:44.708932 32675 net.cpp:148] Top shape: 24 128 4 4 (49152)
I0403 15:40:44.708956 32675 net.cpp:156] Memory required for data: 945894432
I0403 15:40:44.708976 32675 layer_factory.hpp:77] Creating layer loss1/fc
I0403 15:40:44.709007 32675 net.cpp:91] Creating Layer loss1/fc
I0403 15:40:44.709029 32675 net.cpp:425] loss1/fc <- loss1/conv
I0403 15:40:44.709053 32675 net.cpp:399] loss1/fc -> loss1/fc
I0403 15:40:44.727612 32675 net.cpp:141] Setting up loss1/fc
I0403 15:40:44.727645 32675 net.cpp:148] Top shape: 24 1024 (24576)
I0403 15:40:44.727663 32675 net.cpp:156] Memory required for data: 945992736
I0403 15:40:44.727681 32675 layer_factory.hpp:77] Creating layer loss1/relu_fc
I0403 15:40:44.727702 32675 net.cpp:91] Creating Layer loss1/relu_fc
I0403 15:40:44.727721 32675 net.cpp:425] loss1/relu_fc <- loss1/fc
I0403 15:40:44.727740 32675 net.cpp:386] loss1/relu_fc -> loss1/fc (in-place)
I0403 15:40:44.727933 32675 net.cpp:141] Setting up loss1/relu_fc
I0403 15:40:44.727959 32675 net.cpp:148] Top shape: 24 1024 (24576)
I0403 15:40:44.727974 32675 net.cpp:156] Memory required for data: 946091040
I0403 15:40:44.727990 32675 layer_factory.hpp:77] Creating layer loss1/drop_fc
I0403 15:40:44.728019 32675 net.cpp:91] Creating Layer loss1/drop_fc
I0403 15:40:44.728037 32675 net.cpp:425] loss1/drop_fc <- loss1/fc
I0403 15:40:44.728056 32675 net.cpp:386] loss1/drop_fc -> loss1/fc (in-place)
I0403 15:40:44.728112 32675 net.cpp:141] Setting up loss1/drop_fc
I0403 15:40:44.728138 32675 net.cpp:148] Top shape: 24 1024 (24576)
I0403 15:40:44.728153 32675 net.cpp:156] Memory required for data: 946189344
I0403 15:40:44.728169 32675 layer_factory.hpp:77] Creating layer loss1/classifier_plantvillage
I0403 15:40:44.728188 32675 net.cpp:91] Creating Layer loss1/classifier_plantvillage
I0403 15:40:44.728210 32675 net.cpp:425] loss1/classifier_plantvillage <- loss1/fc
I0403 15:40:44.728230 32675 net.cpp:399] loss1/classifier_plantvillage -> loss1/classifier_plantvillage
I0403 15:40:44.729151 32675 net.cpp:141] Setting up loss1/classifier_plantvillage
I0403 15:40:44.729183 32675 net.cpp:148] Top shape: 24 38 (912)
I0403 15:40:44.729200 32675 net.cpp:156] Memory required for data: 946192992
I0403 15:40:44.729219 32675 layer_factory.hpp:77] Creating layer loss1/classifier_plantvillage_loss1/classifier_plantvillage_0_split
I0403 15:40:44.729239 32675 net.cpp:91] Creating Layer loss1/classifier_plantvillage_loss1/classifier_plantvillage_0_split
I0403 15:40:44.729256 32675 net.cpp:425] loss1/classifier_plantvillage_loss1/classifier_plantvillage_0_split <- loss1/classifier_plantvillage
I0403 15:40:44.729275 32675 net.cpp:399] loss1/classifier_plantvillage_loss1/classifier_plantvillage_0_split -> loss1/classifier_plantvillage_loss1/classifier_plantvillage_0_split_0
I0403 15:40:44.729301 32675 net.cpp:399] loss1/classifier_plantvillage_loss1/classifier_plantvillage_0_split -> loss1/classifier_plantvillage_loss1/classifier_plantvillage_0_split_1
I0403 15:40:44.729326 32675 net.cpp:399] loss1/classifier_plantvillage_loss1/classifier_plantvillage_0_split -> loss1/classifier_plantvillage_loss1/classifier_plantvillage_0_split_2
I0403 15:40:44.729395 32675 net.cpp:141] Setting up loss1/classifier_plantvillage_loss1/classifier_plantvillage_0_split
I0403 15:40:44.729423 32675 net.cpp:148] Top shape: 24 38 (912)
I0403 15:40:44.729439 32675 net.cpp:148] Top shape: 24 38 (912)
I0403 15:40:44.729455 32675 net.cpp:148] Top shape: 24 38 (912)
I0403 15:40:44.729470 32675 net.cpp:156] Memory required for data: 946203936
I0403 15:40:44.729485 32675 layer_factory.hpp:77] Creating layer inception_4b/1x1
I0403 15:40:44.729506 32675 net.cpp:91] Creating Layer inception_4b/1x1
I0403 15:40:44.729542 32675 net.cpp:425] inception_4b/1x1 <- inception_4a/output_inception_4a/output_0_split_1
I0403 15:40:44.729565 32675 net.cpp:399] inception_4b/1x1 -> inception_4b/1x1
I0403 15:40:44.731237 32675 net.cpp:141] Setting up inception_4b/1x1
I0403 15:40:44.731269 32675 net.cpp:148] Top shape: 24 160 14 14 (752640)
I0403 15:40:44.731292 32675 net.cpp:156] Memory required for data: 949214496
I0403 15:40:44.731312 32675 layer_factory.hpp:77] Creating layer inception_4b/relu_1x1
I0403 15:40:44.731331 32675 net.cpp:91] Creating Layer inception_4b/relu_1x1
I0403 15:40:44.731349 32675 net.cpp:425] inception_4b/relu_1x1 <- inception_4b/1x1
I0403 15:40:44.731367 32675 net.cpp:386] inception_4b/relu_1x1 -> inception_4b/1x1 (in-place)
I0403 15:40:44.731554 32675 net.cpp:141] Setting up inception_4b/relu_1x1
I0403 15:40:44.731580 32675 net.cpp:148] Top shape: 24 160 14 14 (752640)
I0403 15:40:44.731595 32675 net.cpp:156] Memory required for data: 952225056
I0403 15:40:44.731611 32675 layer_factory.hpp:77] Creating layer inception_4b/3x3_reduce
I0403 15:40:44.731633 32675 net.cpp:91] Creating Layer inception_4b/3x3_reduce
I0403 15:40:44.731653 32675 net.cpp:425] inception_4b/3x3_reduce <- inception_4a/output_inception_4a/output_0_split_2
I0403 15:40:44.731675 32675 net.cpp:399] inception_4b/3x3_reduce -> inception_4b/3x3_reduce
I0403 15:40:44.733050 32675 net.cpp:141] Setting up inception_4b/3x3_reduce
I0403 15:40:44.733084 32675 net.cpp:148] Top shape: 24 112 14 14 (526848)
I0403 15:40:44.733103 32675 net.cpp:156] Memory required for data: 954332448
I0403 15:40:44.733124 32675 layer_factory.hpp:77] Creating layer inception_4b/relu_3x3_reduce
I0403 15:40:44.733142 32675 net.cpp:91] Creating Layer inception_4b/relu_3x3_reduce
I0403 15:40:44.733160 32675 net.cpp:425] inception_4b/relu_3x3_reduce <- inception_4b/3x3_reduce
I0403 15:40:44.733181 32675 net.cpp:386] inception_4b/relu_3x3_reduce -> inception_4b/3x3_reduce (in-place)
I0403 15:40:44.733474 32675 net.cpp:141] Setting up inception_4b/relu_3x3_reduce
I0403 15:40:44.733506 32675 net.cpp:148] Top shape: 24 112 14 14 (526848)
I0403 15:40:44.733523 32675 net.cpp:156] Memory required for data: 956439840
I0403 15:40:44.733539 32675 layer_factory.hpp:77] Creating layer inception_4b/3x3
I0403 15:40:44.733563 32675 net.cpp:91] Creating Layer inception_4b/3x3
I0403 15:40:44.733582 32675 net.cpp:425] inception_4b/3x3 <- inception_4b/3x3_reduce
I0403 15:40:44.733604 32675 net.cpp:399] inception_4b/3x3 -> inception_4b/3x3
I0403 15:40:44.736639 32675 net.cpp:141] Setting up inception_4b/3x3
I0403 15:40:44.736670 32675 net.cpp:148] Top shape: 24 224 14 14 (1053696)
I0403 15:40:44.736686 32675 net.cpp:156] Memory required for data: 960654624
I0403 15:40:44.736706 32675 layer_factory.hpp:77] Creating layer inception_4b/relu_3x3
I0403 15:40:44.736727 32675 net.cpp:91] Creating Layer inception_4b/relu_3x3
I0403 15:40:44.736747 32675 net.cpp:425] inception_4b/relu_3x3 <- inception_4b/3x3
I0403 15:40:44.736765 32675 net.cpp:386] inception_4b/relu_3x3 -> inception_4b/3x3 (in-place)
I0403 15:40:44.736951 32675 net.cpp:141] Setting up inception_4b/relu_3x3
I0403 15:40:44.736979 32675 net.cpp:148] Top shape: 24 224 14 14 (1053696)
I0403 15:40:44.736996 32675 net.cpp:156] Memory required for data: 964869408
I0403 15:40:44.737012 32675 layer_factory.hpp:77] Creating layer inception_4b/5x5_reduce
I0403 15:40:44.737036 32675 net.cpp:91] Creating Layer inception_4b/5x5_reduce
I0403 15:40:44.737054 32675 net.cpp:425] inception_4b/5x5_reduce <- inception_4a/output_inception_4a/output_0_split_3
I0403 15:40:44.737074 32675 net.cpp:399] inception_4b/5x5_reduce -> inception_4b/5x5_reduce
I0403 15:40:44.738181 32675 net.cpp:141] Setting up inception_4b/5x5_reduce
I0403 15:40:44.738212 32675 net.cpp:148] Top shape: 24 24 14 14 (112896)
I0403 15:40:44.738231 32675 net.cpp:156] Memory required for data: 965320992
I0403 15:40:44.738251 32675 layer_factory.hpp:77] Creating layer inception_4b/relu_5x5_reduce
I0403 15:40:44.738270 32675 net.cpp:91] Creating Layer inception_4b/relu_5x5_reduce
I0403 15:40:44.738307 32675 net.cpp:425] inception_4b/relu_5x5_reduce <- inception_4b/5x5_reduce
I0403 15:40:44.738332 32675 net.cpp:386] inception_4b/relu_5x5_reduce -> inception_4b/5x5_reduce (in-place)
I0403 15:40:44.738523 32675 net.cpp:141] Setting up inception_4b/relu_5x5_reduce
I0403 15:40:44.738549 32675 net.cpp:148] Top shape: 24 24 14 14 (112896)
I0403 15:40:44.738564 32675 net.cpp:156] Memory required for data: 965772576
I0403 15:40:44.738580 32675 layer_factory.hpp:77] Creating layer inception_4b/5x5
I0403 15:40:44.738605 32675 net.cpp:91] Creating Layer inception_4b/5x5
I0403 15:40:44.738622 32675 net.cpp:425] inception_4b/5x5 <- inception_4b/5x5_reduce
I0403 15:40:44.738643 32675 net.cpp:399] inception_4b/5x5 -> inception_4b/5x5
I0403 15:40:44.739894 32675 net.cpp:141] Setting up inception_4b/5x5
I0403 15:40:44.739926 32675 net.cpp:148] Top shape: 24 64 14 14 (301056)
I0403 15:40:44.739943 32675 net.cpp:156] Memory required for data: 966976800
I0403 15:40:44.739964 32675 layer_factory.hpp:77] Creating layer inception_4b/relu_5x5
I0403 15:40:44.739982 32675 net.cpp:91] Creating Layer inception_4b/relu_5x5
I0403 15:40:44.740000 32675 net.cpp:425] inception_4b/relu_5x5 <- inception_4b/5x5
I0403 15:40:44.740017 32675 net.cpp:386] inception_4b/relu_5x5 -> inception_4b/5x5 (in-place)
I0403 15:40:44.740317 32675 net.cpp:141] Setting up inception_4b/relu_5x5
I0403 15:40:44.740347 32675 net.cpp:148] Top shape: 24 64 14 14 (301056)
I0403 15:40:44.740365 32675 net.cpp:156] Memory required for data: 968181024
I0403 15:40:44.740381 32675 layer_factory.hpp:77] Creating layer inception_4b/pool
I0403 15:40:44.740399 32675 net.cpp:91] Creating Layer inception_4b/pool
I0403 15:40:44.740417 32675 net.cpp:425] inception_4b/pool <- inception_4a/output_inception_4a/output_0_split_4
I0403 15:40:44.740437 32675 net.cpp:399] inception_4b/pool -> inception_4b/pool
I0403 15:40:44.740505 32675 net.cpp:141] Setting up inception_4b/pool
I0403 15:40:44.740530 32675 net.cpp:148] Top shape: 24 512 14 14 (2408448)
I0403 15:40:44.740546 32675 net.cpp:156] Memory required for data: 977814816
I0403 15:40:44.740561 32675 layer_factory.hpp:77] Creating layer inception_4b/pool_proj
I0403 15:40:44.740584 32675 net.cpp:91] Creating Layer inception_4b/pool_proj
I0403 15:40:44.740603 32675 net.cpp:425] inception_4b/pool_proj <- inception_4b/pool
I0403 15:40:44.740624 32675 net.cpp:399] inception_4b/pool_proj -> inception_4b/pool_proj
I0403 15:40:44.741853 32675 net.cpp:141] Setting up inception_4b/pool_proj
I0403 15:40:44.741884 32675 net.cpp:148] Top shape: 24 64 14 14 (301056)
I0403 15:40:44.741902 32675 net.cpp:156] Memory required for data: 979019040
I0403 15:40:44.741921 32675 layer_factory.hpp:77] Creating layer inception_4b/relu_pool_proj
I0403 15:40:44.741940 32675 net.cpp:91] Creating Layer inception_4b/relu_pool_proj
I0403 15:40:44.741956 32675 net.cpp:425] inception_4b/relu_pool_proj <- inception_4b/pool_proj
I0403 15:40:44.741978 32675 net.cpp:386] inception_4b/relu_pool_proj -> inception_4b/pool_proj (in-place)
I0403 15:40:44.742171 32675 net.cpp:141] Setting up inception_4b/relu_pool_proj
I0403 15:40:44.742199 32675 net.cpp:148] Top shape: 24 64 14 14 (301056)
I0403 15:40:44.742214 32675 net.cpp:156] Memory required for data: 980223264
I0403 15:40:44.742229 32675 layer_factory.hpp:77] Creating layer inception_4b/output
I0403 15:40:44.742247 32675 net.cpp:91] Creating Layer inception_4b/output
I0403 15:40:44.742264 32675 net.cpp:425] inception_4b/output <- inception_4b/1x1
I0403 15:40:44.742282 32675 net.cpp:425] inception_4b/output <- inception_4b/3x3
I0403 15:40:44.742305 32675 net.cpp:425] inception_4b/output <- inception_4b/5x5
I0403 15:40:44.742323 32675 net.cpp:425] inception_4b/output <- inception_4b/pool_proj
I0403 15:40:44.742342 32675 net.cpp:399] inception_4b/output -> inception_4b/output
I0403 15:40:44.742389 32675 net.cpp:141] Setting up inception_4b/output
I0403 15:40:44.742418 32675 net.cpp:148] Top shape: 24 512 14 14 (2408448)
I0403 15:40:44.742434 32675 net.cpp:156] Memory required for data: 989857056
I0403 15:40:44.742465 32675 layer_factory.hpp:77] Creating layer inception_4b/output_inception_4b/output_0_split
I0403 15:40:44.742485 32675 net.cpp:91] Creating Layer inception_4b/output_inception_4b/output_0_split
I0403 15:40:44.742501 32675 net.cpp:425] inception_4b/output_inception_4b/output_0_split <- inception_4b/output
I0403 15:40:44.742522 32675 net.cpp:399] inception_4b/output_inception_4b/output_0_split -> inception_4b/output_inception_4b/output_0_split_0
I0403 15:40:44.742547 32675 net.cpp:399] inception_4b/output_inception_4b/output_0_split -> inception_4b/output_inception_4b/output_0_split_1
I0403 15:40:44.742568 32675 net.cpp:399] inception_4b/output_inception_4b/output_0_split -> inception_4b/output_inception_4b/output_0_split_2
I0403 15:40:44.742589 32675 net.cpp:399] inception_4b/output_inception_4b/output_0_split -> inception_4b/output_inception_4b/output_0_split_3
I0403 15:40:44.742673 32675 net.cpp:141] Setting up inception_4b/output_inception_4b/output_0_split
I0403 15:40:44.742698 32675 net.cpp:148] Top shape: 24 512 14 14 (2408448)
I0403 15:40:44.742720 32675 net.cpp:148] Top shape: 24 512 14 14 (2408448)
I0403 15:40:44.742738 32675 net.cpp:148] Top shape: 24 512 14 14 (2408448)
I0403 15:40:44.742753 32675 net.cpp:148] Top shape: 24 512 14 14 (2408448)
I0403 15:40:44.742768 32675 net.cpp:156] Memory required for data: 1028392224
I0403 15:40:44.742784 32675 layer_factory.hpp:77] Creating layer inception_4c/1x1
I0403 15:40:44.742805 32675 net.cpp:91] Creating Layer inception_4c/1x1
I0403 15:40:44.742820 32675 net.cpp:425] inception_4c/1x1 <- inception_4b/output_inception_4b/output_0_split_0
I0403 15:40:44.742843 32675 net.cpp:399] inception_4c/1x1 -> inception_4c/1x1
I0403 15:40:44.744374 32675 net.cpp:141] Setting up inception_4c/1x1
I0403 15:40:44.744405 32675 net.cpp:148] Top shape: 24 128 14 14 (602112)
I0403 15:40:44.744423 32675 net.cpp:156] Memory required for data: 1030800672
I0403 15:40:44.744443 32675 layer_factory.hpp:77] Creating layer inception_4c/relu_1x1
I0403 15:40:44.744467 32675 net.cpp:91] Creating Layer inception_4c/relu_1x1
I0403 15:40:44.744485 32675 net.cpp:425] inception_4c/relu_1x1 <- inception_4c/1x1
I0403 15:40:44.744504 32675 net.cpp:386] inception_4c/relu_1x1 -> inception_4c/1x1 (in-place)
I0403 15:40:44.744694 32675 net.cpp:141] Setting up inception_4c/relu_1x1
I0403 15:40:44.744722 32675 net.cpp:148] Top shape: 24 128 14 14 (602112)
I0403 15:40:44.744738 32675 net.cpp:156] Memory required for data: 1033209120
I0403 15:40:44.744755 32675 layer_factory.hpp:77] Creating layer inception_4c/3x3_reduce
I0403 15:40:44.744781 32675 net.cpp:91] Creating Layer inception_4c/3x3_reduce
I0403 15:40:44.744801 32675 net.cpp:425] inception_4c/3x3_reduce <- inception_4b/output_inception_4b/output_0_split_1
I0403 15:40:44.744822 32675 net.cpp:399] inception_4c/3x3_reduce -> inception_4c/3x3_reduce
I0403 15:40:44.746857 32675 net.cpp:141] Setting up inception_4c/3x3_reduce
I0403 15:40:44.746887 32675 net.cpp:148] Top shape: 24 128 14 14 (602112)
I0403 15:40:44.746906 32675 net.cpp:156] Memory required for data: 1035617568
I0403 15:40:44.746928 32675 layer_factory.hpp:77] Creating layer inception_4c/relu_3x3_reduce
I0403 15:40:44.746948 32675 net.cpp:91] Creating Layer inception_4c/relu_3x3_reduce
I0403 15:40:44.746966 32675 net.cpp:425] inception_4c/relu_3x3_reduce <- inception_4c/3x3_reduce
I0403 15:40:44.746984 32675 net.cpp:386] inception_4c/relu_3x3_reduce -> inception_4c/3x3_reduce (in-place)
I0403 15:40:44.747292 32675 net.cpp:141] Setting up inception_4c/relu_3x3_reduce
I0403 15:40:44.747321 32675 net.cpp:148] Top shape: 24 128 14 14 (602112)
I0403 15:40:44.747339 32675 net.cpp:156] Memory required for data: 1038026016
I0403 15:40:44.747354 32675 layer_factory.hpp:77] Creating layer inception_4c/3x3
I0403 15:40:44.747381 32675 net.cpp:91] Creating Layer inception_4c/3x3
I0403 15:40:44.747401 32675 net.cpp:425] inception_4c/3x3 <- inception_4c/3x3_reduce
I0403 15:40:44.747422 32675 net.cpp:399] inception_4c/3x3 -> inception_4c/3x3
I0403 15:40:44.751205 32675 net.cpp:141] Setting up inception_4c/3x3
I0403 15:40:44.751252 32675 net.cpp:148] Top shape: 24 256 14 14 (1204224)
I0403 15:40:44.751272 32675 net.cpp:156] Memory required for data: 1042842912
I0403 15:40:44.751312 32675 layer_factory.hpp:77] Creating layer inception_4c/relu_3x3
I0403 15:40:44.751337 32675 net.cpp:91] Creating Layer inception_4c/relu_3x3
I0403 15:40:44.751354 32675 net.cpp:425] inception_4c/relu_3x3 <- inception_4c/3x3
I0403 15:40:44.751375 32675 net.cpp:386] inception_4c/relu_3x3 -> inception_4c/3x3 (in-place)
I0403 15:40:44.751569 32675 net.cpp:141] Setting up inception_4c/relu_3x3
I0403 15:40:44.751598 32675 net.cpp:148] Top shape: 24 256 14 14 (1204224)
I0403 15:40:44.751616 32675 net.cpp:156] Memory required for data: 1047659808
I0403 15:40:44.751631 32675 layer_factory.hpp:77] Creating layer inception_4c/5x5_reduce
I0403 15:40:44.751657 32675 net.cpp:91] Creating Layer inception_4c/5x5_reduce
I0403 15:40:44.751674 32675 net.cpp:425] inception_4c/5x5_reduce <- inception_4b/output_inception_4b/output_0_split_2
I0403 15:40:44.751695 32675 net.cpp:399] inception_4c/5x5_reduce -> inception_4c/5x5_reduce
I0403 15:40:44.752840 32675 net.cpp:141] Setting up inception_4c/5x5_reduce
I0403 15:40:44.752873 32675 net.cpp:148] Top shape: 24 24 14 14 (112896)
I0403 15:40:44.752892 32675 net.cpp:156] Memory required for data: 1048111392
I0403 15:40:44.752912 32675 layer_factory.hpp:77] Creating layer inception_4c/relu_5x5_reduce
I0403 15:40:44.752933 32675 net.cpp:91] Creating Layer inception_4c/relu_5x5_reduce
I0403 15:40:44.752950 32675 net.cpp:425] inception_4c/relu_5x5_reduce <- inception_4c/5x5_reduce
I0403 15:40:44.752971 32675 net.cpp:386] inception_4c/relu_5x5_reduce -> inception_4c/5x5_reduce (in-place)
I0403 15:40:44.753168 32675 net.cpp:141] Setting up inception_4c/relu_5x5_reduce
I0403 15:40:44.753196 32675 net.cpp:148] Top shape: 24 24 14 14 (112896)
I0403 15:40:44.753211 32675 net.cpp:156] Memory required for data: 1048562976
I0403 15:40:44.753227 32675 layer_factory.hpp:77] Creating layer inception_4c/5x5
I0403 15:40:44.753254 32675 net.cpp:91] Creating Layer inception_4c/5x5
I0403 15:40:44.753274 32675 net.cpp:425] inception_4c/5x5 <- inception_4c/5x5_reduce
I0403 15:40:44.753304 32675 net.cpp:399] inception_4c/5x5 -> inception_4c/5x5
I0403 15:40:44.754631 32675 net.cpp:141] Setting up inception_4c/5x5
I0403 15:40:44.754662 32675 net.cpp:148] Top shape: 24 64 14 14 (301056)
I0403 15:40:44.754680 32675 net.cpp:156] Memory required for data: 1049767200
I0403 15:40:44.754701 32675 layer_factory.hpp:77] Creating layer inception_4c/relu_5x5
I0403 15:40:44.754722 32675 net.cpp:91] Creating Layer inception_4c/relu_5x5
I0403 15:40:44.754739 32675 net.cpp:425] inception_4c/relu_5x5 <- inception_4c/5x5
I0403 15:40:44.754758 32675 net.cpp:386] inception_4c/relu_5x5 -> inception_4c/5x5 (in-place)
I0403 15:40:44.755062 32675 net.cpp:141] Setting up inception_4c/relu_5x5
I0403 15:40:44.755091 32675 net.cpp:148] Top shape: 24 64 14 14 (301056)
I0403 15:40:44.755107 32675 net.cpp:156] Memory required for data: 1050971424
I0403 15:40:44.755125 32675 layer_factory.hpp:77] Creating layer inception_4c/pool
I0403 15:40:44.755143 32675 net.cpp:91] Creating Layer inception_4c/pool
I0403 15:40:44.755164 32675 net.cpp:425] inception_4c/pool <- inception_4b/output_inception_4b/output_0_split_3
I0403 15:40:44.755184 32675 net.cpp:399] inception_4c/pool -> inception_4c/pool
I0403 15:40:44.755255 32675 net.cpp:141] Setting up inception_4c/pool
I0403 15:40:44.755281 32675 net.cpp:148] Top shape: 24 512 14 14 (2408448)
I0403 15:40:44.755303 32675 net.cpp:156] Memory required for data: 1060605216
I0403 15:40:44.755321 32675 layer_factory.hpp:77] Creating layer inception_4c/pool_proj
I0403 15:40:44.755347 32675 net.cpp:91] Creating Layer inception_4c/pool_proj
I0403 15:40:44.755367 32675 net.cpp:425] inception_4c/pool_proj <- inception_4c/pool
I0403 15:40:44.755388 32675 net.cpp:399] inception_4c/pool_proj -> inception_4c/pool_proj
I0403 15:40:44.756686 32675 net.cpp:141] Setting up inception_4c/pool_proj
I0403 15:40:44.756721 32675 net.cpp:148] Top shape: 24 64 14 14 (301056)
I0403 15:40:44.756752 32675 net.cpp:156] Memory required for data: 1061809440
I0403 15:40:44.756773 32675 layer_factory.hpp:77] Creating layer inception_4c/relu_pool_proj
I0403 15:40:44.756793 32675 net.cpp:91] Creating Layer inception_4c/relu_pool_proj
I0403 15:40:44.756810 32675 net.cpp:425] inception_4c/relu_pool_proj <- inception_4c/pool_proj
I0403 15:40:44.756831 32675 net.cpp:386] inception_4c/relu_pool_proj -> inception_4c/pool_proj (in-place)
I0403 15:40:44.757030 32675 net.cpp:141] Setting up inception_4c/relu_pool_proj
I0403 15:40:44.757057 32675 net.cpp:148] Top shape: 24 64 14 14 (301056)
I0403 15:40:44.757073 32675 net.cpp:156] Memory required for data: 1063013664
I0403 15:40:44.757091 32675 layer_factory.hpp:77] Creating layer inception_4c/output
I0403 15:40:44.757108 32675 net.cpp:91] Creating Layer inception_4c/output
I0403 15:40:44.757124 32675 net.cpp:425] inception_4c/output <- inception_4c/1x1
I0403 15:40:44.757141 32675 net.cpp:425] inception_4c/output <- inception_4c/3x3
I0403 15:40:44.757159 32675 net.cpp:425] inception_4c/output <- inception_4c/5x5
I0403 15:40:44.757176 32675 net.cpp:425] inception_4c/output <- inception_4c/pool_proj
I0403 15:40:44.757200 32675 net.cpp:399] inception_4c/output -> inception_4c/output
I0403 15:40:44.757251 32675 net.cpp:141] Setting up inception_4c/output
I0403 15:40:44.757278 32675 net.cpp:148] Top shape: 24 512 14 14 (2408448)
I0403 15:40:44.757302 32675 net.cpp:156] Memory required for data: 1072647456
I0403 15:40:44.757318 32675 layer_factory.hpp:77] Creating layer inception_4c/output_inception_4c/output_0_split
I0403 15:40:44.757336 32675 net.cpp:91] Creating Layer inception_4c/output_inception_4c/output_0_split
I0403 15:40:44.757354 32675 net.cpp:425] inception_4c/output_inception_4c/output_0_split <- inception_4c/output
I0403 15:40:44.757375 32675 net.cpp:399] inception_4c/output_inception_4c/output_0_split -> inception_4c/output_inception_4c/output_0_split_0
I0403 15:40:44.757396 32675 net.cpp:399] inception_4c/output_inception_4c/output_0_split -> inception_4c/output_inception_4c/output_0_split_1
I0403 15:40:44.757417 32675 net.cpp:399] inception_4c/output_inception_4c/output_0_split -> inception_4c/output_inception_4c/output_0_split_2
I0403 15:40:44.757438 32675 net.cpp:399] inception_4c/output_inception_4c/output_0_split -> inception_4c/output_inception_4c/output_0_split_3
I0403 15:40:44.757529 32675 net.cpp:141] Setting up inception_4c/output_inception_4c/output_0_split
I0403 15:40:44.757555 32675 net.cpp:148] Top shape: 24 512 14 14 (2408448)
I0403 15:40:44.757573 32675 net.cpp:148] Top shape: 24 512 14 14 (2408448)
I0403 15:40:44.757591 32675 net.cpp:148] Top shape: 24 512 14 14 (2408448)
I0403 15:40:44.757607 32675 net.cpp:148] Top shape: 24 512 14 14 (2408448)
I0403 15:40:44.757622 32675 net.cpp:156] Memory required for data: 1111182624
I0403 15:40:44.757637 32675 layer_factory.hpp:77] Creating layer inception_4d/1x1
I0403 15:40:44.757661 32675 net.cpp:91] Creating Layer inception_4d/1x1
I0403 15:40:44.757680 32675 net.cpp:425] inception_4d/1x1 <- inception_4c/output_inception_4c/output_0_split_0
I0403 15:40:44.757701 32675 net.cpp:399] inception_4d/1x1 -> inception_4d/1x1
I0403 15:40:44.759172 32675 net.cpp:141] Setting up inception_4d/1x1
I0403 15:40:44.759202 32675 net.cpp:148] Top shape: 24 112 14 14 (526848)
I0403 15:40:44.759219 32675 net.cpp:156] Memory required for data: 1113290016
I0403 15:40:44.759239 32675 layer_factory.hpp:77] Creating layer inception_4d/relu_1x1
I0403 15:40:44.759261 32675 net.cpp:91] Creating Layer inception_4d/relu_1x1
I0403 15:40:44.759280 32675 net.cpp:425] inception_4d/relu_1x1 <- inception_4d/1x1
I0403 15:40:44.759305 32675 net.cpp:386] inception_4d/relu_1x1 -> inception_4d/1x1 (in-place)
I0403 15:40:44.759505 32675 net.cpp:141] Setting up inception_4d/relu_1x1
I0403 15:40:44.759533 32675 net.cpp:148] Top shape: 24 112 14 14 (526848)
I0403 15:40:44.759551 32675 net.cpp:156] Memory required for data: 1115397408
I0403 15:40:44.759567 32675 layer_factory.hpp:77] Creating layer inception_4d/3x3_reduce
I0403 15:40:44.759605 32675 net.cpp:91] Creating Layer inception_4d/3x3_reduce
I0403 15:40:44.759625 32675 net.cpp:425] inception_4d/3x3_reduce <- inception_4c/output_inception_4c/output_0_split_1
I0403 15:40:44.759646 32675 net.cpp:399] inception_4d/3x3_reduce -> inception_4d/3x3_reduce
I0403 15:40:44.761239 32675 net.cpp:141] Setting up inception_4d/3x3_reduce
I0403 15:40:44.761268 32675 net.cpp:148] Top shape: 24 144 14 14 (677376)
I0403 15:40:44.761291 32675 net.cpp:156] Memory required for data: 1118106912
I0403 15:40:44.761312 32675 layer_factory.hpp:77] Creating layer inception_4d/relu_3x3_reduce
I0403 15:40:44.761337 32675 net.cpp:91] Creating Layer inception_4d/relu_3x3_reduce
I0403 15:40:44.761354 32675 net.cpp:425] inception_4d/relu_3x3_reduce <- inception_4d/3x3_reduce
I0403 15:40:44.761373 32675 net.cpp:386] inception_4d/relu_3x3_reduce -> inception_4d/3x3_reduce (in-place)
I0403 15:40:44.761679 32675 net.cpp:141] Setting up inception_4d/relu_3x3_reduce
I0403 15:40:44.761708 32675 net.cpp:148] Top shape: 24 144 14 14 (677376)
I0403 15:40:44.761726 32675 net.cpp:156] Memory required for data: 1120816416
I0403 15:40:44.761752 32675 layer_factory.hpp:77] Creating layer inception_4d/3x3
I0403 15:40:44.761776 32675 net.cpp:91] Creating Layer inception_4d/3x3
I0403 15:40:44.761797 32675 net.cpp:425] inception_4d/3x3 <- inception_4d/3x3_reduce
I0403 15:40:44.761819 32675 net.cpp:399] inception_4d/3x3 -> inception_4d/3x3
I0403 15:40:44.766222 32675 net.cpp:141] Setting up inception_4d/3x3
I0403 15:40:44.766254 32675 net.cpp:148] Top shape: 24 288 14 14 (1354752)
I0403 15:40:44.766271 32675 net.cpp:156] Memory required for data: 1126235424
I0403 15:40:44.766296 32675 layer_factory.hpp:77] Creating layer inception_4d/relu_3x3
I0403 15:40:44.766324 32675 net.cpp:91] Creating Layer inception_4d/relu_3x3
I0403 15:40:44.766345 32675 net.cpp:425] inception_4d/relu_3x3 <- inception_4d/3x3
I0403 15:40:44.766366 32675 net.cpp:386] inception_4d/relu_3x3 -> inception_4d/3x3 (in-place)
I0403 15:40:44.766561 32675 net.cpp:141] Setting up inception_4d/relu_3x3
I0403 15:40:44.766593 32675 net.cpp:148] Top shape: 24 288 14 14 (1354752)
I0403 15:40:44.766612 32675 net.cpp:156] Memory required for data: 1131654432
I0403 15:40:44.766631 32675 layer_factory.hpp:77] Creating layer inception_4d/5x5_reduce
I0403 15:40:44.766659 32675 net.cpp:91] Creating Layer inception_4d/5x5_reduce
I0403 15:40:44.766681 32675 net.cpp:425] inception_4d/5x5_reduce <- inception_4c/output_inception_4c/output_0_split_2
I0403 15:40:44.766710 32675 net.cpp:399] inception_4d/5x5_reduce -> inception_4d/5x5_reduce
I0403 15:40:44.767897 32675 net.cpp:141] Setting up inception_4d/5x5_reduce
I0403 15:40:44.767926 32675 net.cpp:148] Top shape: 24 32 14 14 (150528)
I0403 15:40:44.767943 32675 net.cpp:156] Memory required for data: 1132256544
I0403 15:40:44.767963 32675 layer_factory.hpp:77] Creating layer inception_4d/relu_5x5_reduce
I0403 15:40:44.767989 32675 net.cpp:91] Creating Layer inception_4d/relu_5x5_reduce
I0403 15:40:44.768007 32675 net.cpp:425] inception_4d/relu_5x5_reduce <- inception_4d/5x5_reduce
I0403 15:40:44.768024 32675 net.cpp:386] inception_4d/relu_5x5_reduce -> inception_4d/5x5_reduce (in-place)
I0403 15:40:44.768225 32675 net.cpp:141] Setting up inception_4d/relu_5x5_reduce
I0403 15:40:44.768254 32675 net.cpp:148] Top shape: 24 32 14 14 (150528)
I0403 15:40:44.768271 32675 net.cpp:156] Memory required for data: 1132858656
I0403 15:40:44.768291 32675 layer_factory.hpp:77] Creating layer inception_4d/5x5
I0403 15:40:44.768316 32675 net.cpp:91] Creating Layer inception_4d/5x5
I0403 15:40:44.768335 32675 net.cpp:425] inception_4d/5x5 <- inception_4d/5x5_reduce
I0403 15:40:44.768355 32675 net.cpp:399] inception_4d/5x5 -> inception_4d/5x5
I0403 15:40:44.769852 32675 net.cpp:141] Setting up inception_4d/5x5
I0403 15:40:44.769886 32675 net.cpp:148] Top shape: 24 64 14 14 (301056)
I0403 15:40:44.769903 32675 net.cpp:156] Memory required for data: 1134062880
I0403 15:40:44.769922 32675 layer_factory.hpp:77] Creating layer inception_4d/relu_5x5
I0403 15:40:44.769958 32675 net.cpp:91] Creating Layer inception_4d/relu_5x5
I0403 15:40:44.769976 32675 net.cpp:425] inception_4d/relu_5x5 <- inception_4d/5x5
I0403 15:40:44.769999 32675 net.cpp:386] inception_4d/relu_5x5 -> inception_4d/5x5 (in-place)
I0403 15:40:44.770315 32675 net.cpp:141] Setting up inception_4d/relu_5x5
I0403 15:40:44.770346 32675 net.cpp:148] Top shape: 24 64 14 14 (301056)
I0403 15:40:44.770364 32675 net.cpp:156] Memory required for data: 1135267104
I0403 15:40:44.770380 32675 layer_factory.hpp:77] Creating layer inception_4d/pool
I0403 15:40:44.770400 32675 net.cpp:91] Creating Layer inception_4d/pool
I0403 15:40:44.770416 32675 net.cpp:425] inception_4d/pool <- inception_4c/output_inception_4c/output_0_split_3
I0403 15:40:44.770437 32675 net.cpp:399] inception_4d/pool -> inception_4d/pool
I0403 15:40:44.770505 32675 net.cpp:141] Setting up inception_4d/pool
I0403 15:40:44.770534 32675 net.cpp:148] Top shape: 24 512 14 14 (2408448)
I0403 15:40:44.770550 32675 net.cpp:156] Memory required for data: 1144900896
I0403 15:40:44.770565 32675 layer_factory.hpp:77] Creating layer inception_4d/pool_proj
I0403 15:40:44.770594 32675 net.cpp:91] Creating Layer inception_4d/pool_proj
I0403 15:40:44.770612 32675 net.cpp:425] inception_4d/pool_proj <- inception_4d/pool
I0403 15:40:44.770634 32675 net.cpp:399] inception_4d/pool_proj -> inception_4d/pool_proj
I0403 15:40:44.772445 32675 net.cpp:141] Setting up inception_4d/pool_proj
I0403 15:40:44.772476 32675 net.cpp:148] Top shape: 24 64 14 14 (301056)
I0403 15:40:44.772493 32675 net.cpp:156] Memory required for data: 1146105120
I0403 15:40:44.772513 32675 layer_factory.hpp:77] Creating layer inception_4d/relu_pool_proj
I0403 15:40:44.772536 32675 net.cpp:91] Creating Layer inception_4d/relu_pool_proj
I0403 15:40:44.772554 32675 net.cpp:425] inception_4d/relu_pool_proj <- inception_4d/pool_proj
I0403 15:40:44.772572 32675 net.cpp:386] inception_4d/relu_pool_proj -> inception_4d/pool_proj (in-place)
I0403 15:40:44.772768 32675 net.cpp:141] Setting up inception_4d/relu_pool_proj
I0403 15:40:44.772801 32675 net.cpp:148] Top shape: 24 64 14 14 (301056)
I0403 15:40:44.772822 32675 net.cpp:156] Memory required for data: 1147309344
I0403 15:40:44.772842 32675 layer_factory.hpp:77] Creating layer inception_4d/output
I0403 15:40:44.772863 32675 net.cpp:91] Creating Layer inception_4d/output
I0403 15:40:44.772884 32675 net.cpp:425] inception_4d/output <- inception_4d/1x1
I0403 15:40:44.772908 32675 net.cpp:425] inception_4d/output <- inception_4d/3x3
I0403 15:40:44.772925 32675 net.cpp:425] inception_4d/output <- inception_4d/5x5
I0403 15:40:44.772943 32675 net.cpp:425] inception_4d/output <- inception_4d/pool_proj
I0403 15:40:44.772963 32675 net.cpp:399] inception_4d/output -> inception_4d/output
I0403 15:40:44.773012 32675 net.cpp:141] Setting up inception_4d/output
I0403 15:40:44.773038 32675 net.cpp:148] Top shape: 24 528 14 14 (2483712)
I0403 15:40:44.773061 32675 net.cpp:156] Memory required for data: 1157244192
I0403 15:40:44.773077 32675 layer_factory.hpp:77] Creating layer inception_4d/output_inception_4d/output_0_split
I0403 15:40:44.773095 32675 net.cpp:91] Creating Layer inception_4d/output_inception_4d/output_0_split
I0403 15:40:44.773111 32675 net.cpp:425] inception_4d/output_inception_4d/output_0_split <- inception_4d/output
I0403 15:40:44.773129 32675 net.cpp:399] inception_4d/output_inception_4d/output_0_split -> inception_4d/output_inception_4d/output_0_split_0
I0403 15:40:44.773152 32675 net.cpp:399] inception_4d/output_inception_4d/output_0_split -> inception_4d/output_inception_4d/output_0_split_1
I0403 15:40:44.773176 32675 net.cpp:399] inception_4d/output_inception_4d/output_0_split -> inception_4d/output_inception_4d/output_0_split_2
I0403 15:40:44.773200 32675 net.cpp:399] inception_4d/output_inception_4d/output_0_split -> inception_4d/output_inception_4d/output_0_split_3
I0403 15:40:44.773221 32675 net.cpp:399] inception_4d/output_inception_4d/output_0_split -> inception_4d/output_inception_4d/output_0_split_4
I0403 15:40:44.773334 32675 net.cpp:141] Setting up inception_4d/output_inception_4d/output_0_split
I0403 15:40:44.773380 32675 net.cpp:148] Top shape: 24 528 14 14 (2483712)
I0403 15:40:44.773407 32675 net.cpp:148] Top shape: 24 528 14 14 (2483712)
I0403 15:40:44.773429 32675 net.cpp:148] Top shape: 24 528 14 14 (2483712)
I0403 15:40:44.773450 32675 net.cpp:148] Top shape: 24 528 14 14 (2483712)
I0403 15:40:44.773471 32675 net.cpp:148] Top shape: 24 528 14 14 (2483712)
I0403 15:40:44.773490 32675 net.cpp:156] Memory required for data: 1206918432
I0403 15:40:44.773509 32675 layer_factory.hpp:77] Creating layer loss2/ave_pool
I0403 15:40:44.773532 32675 net.cpp:91] Creating Layer loss2/ave_pool
I0403 15:40:44.773553 32675 net.cpp:425] loss2/ave_pool <- inception_4d/output_inception_4d/output_0_split_0
I0403 15:40:44.773573 32675 net.cpp:399] loss2/ave_pool -> loss2/ave_pool
I0403 15:40:44.773897 32675 net.cpp:141] Setting up loss2/ave_pool
I0403 15:40:44.773926 32675 net.cpp:148] Top shape: 24 528 4 4 (202752)
I0403 15:40:44.773944 32675 net.cpp:156] Memory required for data: 1207729440
I0403 15:40:44.773962 32675 layer_factory.hpp:77] Creating layer loss2/conv
I0403 15:40:44.773985 32675 net.cpp:91] Creating Layer loss2/conv
I0403 15:40:44.774008 32675 net.cpp:425] loss2/conv <- loss2/ave_pool
I0403 15:40:44.774034 32675 net.cpp:399] loss2/conv -> loss2/conv
I0403 15:40:44.776041 32675 net.cpp:141] Setting up loss2/conv
I0403 15:40:44.776073 32675 net.cpp:148] Top shape: 24 128 4 4 (49152)
I0403 15:40:44.776090 32675 net.cpp:156] Memory required for data: 1207926048
I0403 15:40:44.776110 32675 layer_factory.hpp:77] Creating layer loss2/relu_conv
I0403 15:40:44.776131 32675 net.cpp:91] Creating Layer loss2/relu_conv
I0403 15:40:44.776149 32675 net.cpp:425] loss2/relu_conv <- loss2/conv
I0403 15:40:44.776170 32675 net.cpp:386] loss2/relu_conv -> loss2/conv (in-place)
I0403 15:40:44.776479 32675 net.cpp:141] Setting up loss2/relu_conv
I0403 15:40:44.776509 32675 net.cpp:148] Top shape: 24 128 4 4 (49152)
I0403 15:40:44.776525 32675 net.cpp:156] Memory required for data: 1208122656
I0403 15:40:44.776541 32675 layer_factory.hpp:77] Creating layer loss2/fc
I0403 15:40:44.776562 32675 net.cpp:91] Creating Layer loss2/fc
I0403 15:40:44.776581 32675 net.cpp:425] loss2/fc <- loss2/conv
I0403 15:40:44.776603 32675 net.cpp:399] loss2/fc -> loss2/fc
I0403 15:40:44.795295 32675 net.cpp:141] Setting up loss2/fc
I0403 15:40:44.795336 32675 net.cpp:148] Top shape: 24 1024 (24576)
I0403 15:40:44.795353 32675 net.cpp:156] Memory required for data: 1208220960
I0403 15:40:44.795373 32675 layer_factory.hpp:77] Creating layer loss2/relu_fc
I0403 15:40:44.795392 32675 net.cpp:91] Creating Layer loss2/relu_fc
I0403 15:40:44.795409 32675 net.cpp:425] loss2/relu_fc <- loss2/fc
I0403 15:40:44.795428 32675 net.cpp:386] loss2/relu_fc -> loss2/fc (in-place)
I0403 15:40:44.795742 32675 net.cpp:141] Setting up loss2/relu_fc
I0403 15:40:44.795783 32675 net.cpp:148] Top shape: 24 1024 (24576)
I0403 15:40:44.795806 32675 net.cpp:156] Memory required for data: 1208319264
I0403 15:40:44.795822 32675 layer_factory.hpp:77] Creating layer loss2/drop_fc
I0403 15:40:44.795846 32675 net.cpp:91] Creating Layer loss2/drop_fc
I0403 15:40:44.795867 32675 net.cpp:425] loss2/drop_fc <- loss2/fc
I0403 15:40:44.795889 32675 net.cpp:386] loss2/drop_fc -> loss2/fc (in-place)
I0403 15:40:44.795943 32675 net.cpp:141] Setting up loss2/drop_fc
I0403 15:40:44.795966 32675 net.cpp:148] Top shape: 24 1024 (24576)
I0403 15:40:44.795981 32675 net.cpp:156] Memory required for data: 1208417568
I0403 15:40:44.795996 32675 layer_factory.hpp:77] Creating layer loss2/classifier_plantvillage
I0403 15:40:44.796018 32675 net.cpp:91] Creating Layer loss2/classifier_plantvillage
I0403 15:40:44.796036 32675 net.cpp:425] loss2/classifier_plantvillage <- loss2/fc
I0403 15:40:44.796054 32675 net.cpp:399] loss2/classifier_plantvillage -> loss2/classifier_plantvillage
I0403 15:40:44.796478 32675 net.cpp:141] Setting up loss2/classifier_plantvillage
I0403 15:40:44.796509 32675 net.cpp:148] Top shape: 24 38 (912)
I0403 15:40:44.796535 32675 net.cpp:156] Memory required for data: 1208421216
I0403 15:40:44.796578 32675 layer_factory.hpp:77] Creating layer loss2/classifier_plantvillage_loss2/classifier_plantvillage_0_split
I0403 15:40:44.796604 32675 net.cpp:91] Creating Layer loss2/classifier_plantvillage_loss2/classifier_plantvillage_0_split
I0403 15:40:44.796625 32675 net.cpp:425] loss2/classifier_plantvillage_loss2/classifier_plantvillage_0_split <- loss2/classifier_plantvillage
I0403 15:40:44.796648 32675 net.cpp:399] loss2/classifier_plantvillage_loss2/classifier_plantvillage_0_split -> loss2/classifier_plantvillage_loss2/classifier_plantvillage_0_split_0
I0403 15:40:44.796669 32675 net.cpp:399] loss2/classifier_plantvillage_loss2/classifier_plantvillage_0_split -> loss2/classifier_plantvillage_loss2/classifier_plantvillage_0_split_1
I0403 15:40:44.796691 32675 net.cpp:399] loss2/classifier_plantvillage_loss2/classifier_plantvillage_0_split -> loss2/classifier_plantvillage_loss2/classifier_plantvillage_0_split_2
I0403 15:40:44.796772 32675 net.cpp:141] Setting up loss2/classifier_plantvillage_loss2/classifier_plantvillage_0_split
I0403 15:40:44.796797 32675 net.cpp:148] Top shape: 24 38 (912)
I0403 15:40:44.796814 32675 net.cpp:148] Top shape: 24 38 (912)
I0403 15:40:44.796830 32675 net.cpp:148] Top shape: 24 38 (912)
I0403 15:40:44.796845 32675 net.cpp:156] Memory required for data: 1208432160
I0403 15:40:44.796860 32675 layer_factory.hpp:77] Creating layer inception_4e/1x1
I0403 15:40:44.796886 32675 net.cpp:91] Creating Layer inception_4e/1x1
I0403 15:40:44.796905 32675 net.cpp:425] inception_4e/1x1 <- inception_4d/output_inception_4d/output_0_split_1
I0403 15:40:44.796926 32675 net.cpp:399] inception_4e/1x1 -> inception_4e/1x1
I0403 15:40:44.798807 32675 net.cpp:141] Setting up inception_4e/1x1
I0403 15:40:44.798838 32675 net.cpp:148] Top shape: 24 256 14 14 (1204224)
I0403 15:40:44.798854 32675 net.cpp:156] Memory required for data: 1213249056
I0403 15:40:44.798873 32675 layer_factory.hpp:77] Creating layer inception_4e/relu_1x1
I0403 15:40:44.798895 32675 net.cpp:91] Creating Layer inception_4e/relu_1x1
I0403 15:40:44.798913 32675 net.cpp:425] inception_4e/relu_1x1 <- inception_4e/1x1
I0403 15:40:44.798930 32675 net.cpp:386] inception_4e/relu_1x1 -> inception_4e/1x1 (in-place)
I0403 15:40:44.799235 32675 net.cpp:141] Setting up inception_4e/relu_1x1
I0403 15:40:44.799265 32675 net.cpp:148] Top shape: 24 256 14 14 (1204224)
I0403 15:40:44.799281 32675 net.cpp:156] Memory required for data: 1218065952
I0403 15:40:44.799302 32675 layer_factory.hpp:77] Creating layer inception_4e/3x3_reduce
I0403 15:40:44.799329 32675 net.cpp:91] Creating Layer inception_4e/3x3_reduce
I0403 15:40:44.799348 32675 net.cpp:425] inception_4e/3x3_reduce <- inception_4d/output_inception_4d/output_0_split_2
I0403 15:40:44.799371 32675 net.cpp:399] inception_4e/3x3_reduce -> inception_4e/3x3_reduce
I0403 15:40:44.801538 32675 net.cpp:141] Setting up inception_4e/3x3_reduce
I0403 15:40:44.801568 32675 net.cpp:148] Top shape: 24 160 14 14 (752640)
I0403 15:40:44.801585 32675 net.cpp:156] Memory required for data: 1221076512
I0403 15:40:44.801605 32675 layer_factory.hpp:77] Creating layer inception_4e/relu_3x3_reduce
I0403 15:40:44.801625 32675 net.cpp:91] Creating Layer inception_4e/relu_3x3_reduce
I0403 15:40:44.801641 32675 net.cpp:425] inception_4e/relu_3x3_reduce <- inception_4e/3x3_reduce
I0403 15:40:44.801662 32675 net.cpp:386] inception_4e/relu_3x3_reduce -> inception_4e/3x3_reduce (in-place)
I0403 15:40:44.801859 32675 net.cpp:141] Setting up inception_4e/relu_3x3_reduce
I0403 15:40:44.801887 32675 net.cpp:148] Top shape: 24 160 14 14 (752640)
I0403 15:40:44.801903 32675 net.cpp:156] Memory required for data: 1224087072
I0403 15:40:44.801918 32675 layer_factory.hpp:77] Creating layer inception_4e/3x3
I0403 15:40:44.801944 32675 net.cpp:91] Creating Layer inception_4e/3x3
I0403 15:40:44.801962 32675 net.cpp:425] inception_4e/3x3 <- inception_4e/3x3_reduce
I0403 15:40:44.801985 32675 net.cpp:399] inception_4e/3x3 -> inception_4e/3x3
I0403 15:40:44.807164 32675 net.cpp:141] Setting up inception_4e/3x3
I0403 15:40:44.807211 32675 net.cpp:148] Top shape: 24 320 14 14 (1505280)
I0403 15:40:44.807237 32675 net.cpp:156] Memory required for data: 1230108192
I0403 15:40:44.807262 32675 layer_factory.hpp:77] Creating layer inception_4e/relu_3x3
I0403 15:40:44.807294 32675 net.cpp:91] Creating Layer inception_4e/relu_3x3
I0403 15:40:44.807319 32675 net.cpp:425] inception_4e/relu_3x3 <- inception_4e/3x3
I0403 15:40:44.807337 32675 net.cpp:386] inception_4e/relu_3x3 -> inception_4e/3x3 (in-place)
I0403 15:40:44.807649 32675 net.cpp:141] Setting up inception_4e/relu_3x3
I0403 15:40:44.807680 32675 net.cpp:148] Top shape: 24 320 14 14 (1505280)
I0403 15:40:44.807696 32675 net.cpp:156] Memory required for data: 1236129312
I0403 15:40:44.807718 32675 layer_factory.hpp:77] Creating layer inception_4e/5x5_reduce
I0403 15:40:44.807745 32675 net.cpp:91] Creating Layer inception_4e/5x5_reduce
I0403 15:40:44.807770 32675 net.cpp:425] inception_4e/5x5_reduce <- inception_4d/output_inception_4d/output_0_split_3
I0403 15:40:44.807804 32675 net.cpp:399] inception_4e/5x5_reduce -> inception_4e/5x5_reduce
I0403 15:40:44.808959 32675 net.cpp:141] Setting up inception_4e/5x5_reduce
I0403 15:40:44.808996 32675 net.cpp:148] Top shape: 24 32 14 14 (150528)
I0403 15:40:44.809018 32675 net.cpp:156] Memory required for data: 1236731424
I0403 15:40:44.809042 32675 layer_factory.hpp:77] Creating layer inception_4e/relu_5x5_reduce
I0403 15:40:44.809062 32675 net.cpp:91] Creating Layer inception_4e/relu_5x5_reduce
I0403 15:40:44.809079 32675 net.cpp:425] inception_4e/relu_5x5_reduce <- inception_4e/5x5_reduce
I0403 15:40:44.809099 32675 net.cpp:386] inception_4e/relu_5x5_reduce -> inception_4e/5x5_reduce (in-place)
I0403 15:40:44.809422 32675 net.cpp:141] Setting up inception_4e/relu_5x5_reduce
I0403 15:40:44.809456 32675 net.cpp:148] Top shape: 24 32 14 14 (150528)
I0403 15:40:44.809476 32675 net.cpp:156] Memory required for data: 1237333536
I0403 15:40:44.809499 32675 layer_factory.hpp:77] Creating layer inception_4e/5x5
I0403 15:40:44.809545 32675 net.cpp:91] Creating Layer inception_4e/5x5
I0403 15:40:44.809571 32675 net.cpp:425] inception_4e/5x5 <- inception_4e/5x5_reduce
I0403 15:40:44.809600 32675 net.cpp:399] inception_4e/5x5 -> inception_4e/5x5
I0403 15:40:44.811554 32675 net.cpp:141] Setting up inception_4e/5x5
I0403 15:40:44.811596 32675 net.cpp:148] Top shape: 24 128 14 14 (602112)
I0403 15:40:44.811624 32675 net.cpp:156] Memory required for data: 1239741984
I0403 15:40:44.811658 32675 layer_factory.hpp:77] Creating layer inception_4e/relu_5x5
I0403 15:40:44.811679 32675 net.cpp:91] Creating Layer inception_4e/relu_5x5
I0403 15:40:44.811697 32675 net.cpp:425] inception_4e/relu_5x5 <- inception_4e/5x5
I0403 15:40:44.811718 32675 net.cpp:386] inception_4e/relu_5x5 -> inception_4e/5x5 (in-place)
I0403 15:40:44.811928 32675 net.cpp:141] Setting up inception_4e/relu_5x5
I0403 15:40:44.811956 32675 net.cpp:148] Top shape: 24 128 14 14 (602112)
I0403 15:40:44.811972 32675 net.cpp:156] Memory required for data: 1242150432
I0403 15:40:44.811988 32675 layer_factory.hpp:77] Creating layer inception_4e/pool
I0403 15:40:44.812007 32675 net.cpp:91] Creating Layer inception_4e/pool
I0403 15:40:44.812027 32675 net.cpp:425] inception_4e/pool <- inception_4d/output_inception_4d/output_0_split_4
I0403 15:40:44.812052 32675 net.cpp:399] inception_4e/pool -> inception_4e/pool
I0403 15:40:44.812134 32675 net.cpp:141] Setting up inception_4e/pool
I0403 15:40:44.812165 32675 net.cpp:148] Top shape: 24 528 14 14 (2483712)
I0403 15:40:44.812188 32675 net.cpp:156] Memory required for data: 1252085280
I0403 15:40:44.812204 32675 layer_factory.hpp:77] Creating layer inception_4e/pool_proj
I0403 15:40:44.812233 32675 net.cpp:91] Creating Layer inception_4e/pool_proj
I0403 15:40:44.812258 32675 net.cpp:425] inception_4e/pool_proj <- inception_4e/pool
I0403 15:40:44.812289 32675 net.cpp:399] inception_4e/pool_proj -> inception_4e/pool_proj
I0403 15:40:44.813890 32675 net.cpp:141] Setting up inception_4e/pool_proj
I0403 15:40:44.813921 32675 net.cpp:148] Top shape: 24 128 14 14 (602112)
I0403 15:40:44.813953 32675 net.cpp:156] Memory required for data: 1254493728
I0403 15:40:44.813974 32675 layer_factory.hpp:77] Creating layer inception_4e/relu_pool_proj
I0403 15:40:44.813997 32675 net.cpp:91] Creating Layer inception_4e/relu_pool_proj
I0403 15:40:44.814015 32675 net.cpp:425] inception_4e/relu_pool_proj <- inception_4e/pool_proj
I0403 15:40:44.814033 32675 net.cpp:386] inception_4e/relu_pool_proj -> inception_4e/pool_proj (in-place)
I0403 15:40:44.814357 32675 net.cpp:141] Setting up inception_4e/relu_pool_proj
I0403 15:40:44.814394 32675 net.cpp:148] Top shape: 24 128 14 14 (602112)
I0403 15:40:44.814410 32675 net.cpp:156] Memory required for data: 1256902176
I0403 15:40:44.814437 32675 layer_factory.hpp:77] Creating layer inception_4e/output
I0403 15:40:44.814460 32675 net.cpp:91] Creating Layer inception_4e/output
I0403 15:40:44.814476 32675 net.cpp:425] inception_4e/output <- inception_4e/1x1
I0403 15:40:44.814496 32675 net.cpp:425] inception_4e/output <- inception_4e/3x3
I0403 15:40:44.814514 32675 net.cpp:425] inception_4e/output <- inception_4e/5x5
I0403 15:40:44.814532 32675 net.cpp:425] inception_4e/output <- inception_4e/pool_proj
I0403 15:40:44.814551 32675 net.cpp:399] inception_4e/output -> inception_4e/output
I0403 15:40:44.814606 32675 net.cpp:141] Setting up inception_4e/output
I0403 15:40:44.814632 32675 net.cpp:148] Top shape: 24 832 14 14 (3913728)
I0403 15:40:44.814648 32675 net.cpp:156] Memory required for data: 1272557088
I0403 15:40:44.814664 32675 layer_factory.hpp:77] Creating layer pool4/3x3_s2
I0403 15:40:44.814683 32675 net.cpp:91] Creating Layer pool4/3x3_s2
I0403 15:40:44.814702 32675 net.cpp:425] pool4/3x3_s2 <- inception_4e/output
I0403 15:40:44.814723 32675 net.cpp:399] pool4/3x3_s2 -> pool4/3x3_s2
I0403 15:40:44.814810 32675 net.cpp:141] Setting up pool4/3x3_s2
I0403 15:40:44.814841 32675 net.cpp:148] Top shape: 24 832 7 7 (978432)
I0403 15:40:44.814865 32675 net.cpp:156] Memory required for data: 1276470816
I0403 15:40:44.814889 32675 layer_factory.hpp:77] Creating layer pool4/3x3_s2_pool4/3x3_s2_0_split
I0403 15:40:44.814916 32675 net.cpp:91] Creating Layer pool4/3x3_s2_pool4/3x3_s2_0_split
I0403 15:40:44.814939 32675 net.cpp:425] pool4/3x3_s2_pool4/3x3_s2_0_split <- pool4/3x3_s2
I0403 15:40:44.814965 32675 net.cpp:399] pool4/3x3_s2_pool4/3x3_s2_0_split -> pool4/3x3_s2_pool4/3x3_s2_0_split_0
I0403 15:40:44.814986 32675 net.cpp:399] pool4/3x3_s2_pool4/3x3_s2_0_split -> pool4/3x3_s2_pool4/3x3_s2_0_split_1
I0403 15:40:44.815008 32675 net.cpp:399] pool4/3x3_s2_pool4/3x3_s2_0_split -> pool4/3x3_s2_pool4/3x3_s2_0_split_2
I0403 15:40:44.815031 32675 net.cpp:399] pool4/3x3_s2_pool4/3x3_s2_0_split -> pool4/3x3_s2_pool4/3x3_s2_0_split_3
I0403 15:40:44.815126 32675 net.cpp:141] Setting up pool4/3x3_s2_pool4/3x3_s2_0_split
I0403 15:40:44.815155 32675 net.cpp:148] Top shape: 24 832 7 7 (978432)
I0403 15:40:44.815173 32675 net.cpp:148] Top shape: 24 832 7 7 (978432)
I0403 15:40:44.815191 32675 net.cpp:148] Top shape: 24 832 7 7 (978432)
I0403 15:40:44.815207 32675 net.cpp:148] Top shape: 24 832 7 7 (978432)
I0403 15:40:44.815222 32675 net.cpp:156] Memory required for data: 1292125728
I0403 15:40:44.815237 32675 layer_factory.hpp:77] Creating layer inception_5a/1x1
I0403 15:40:44.815261 32675 net.cpp:91] Creating Layer inception_5a/1x1
I0403 15:40:44.815282 32675 net.cpp:425] inception_5a/1x1 <- pool4/3x3_s2_pool4/3x3_s2_0_split_0
I0403 15:40:44.815309 32675 net.cpp:399] inception_5a/1x1 -> inception_5a/1x1
I0403 15:40:44.818346 32675 net.cpp:141] Setting up inception_5a/1x1
I0403 15:40:44.818380 32675 net.cpp:148] Top shape: 24 256 7 7 (301056)
I0403 15:40:44.818397 32675 net.cpp:156] Memory required for data: 1293329952
I0403 15:40:44.818418 32675 layer_factory.hpp:77] Creating layer inception_5a/relu_1x1
I0403 15:40:44.818439 32675 net.cpp:91] Creating Layer inception_5a/relu_1x1
I0403 15:40:44.818457 32675 net.cpp:425] inception_5a/relu_1x1 <- inception_5a/1x1
I0403 15:40:44.818478 32675 net.cpp:386] inception_5a/relu_1x1 -> inception_5a/1x1 (in-place)
I0403 15:40:44.818809 32675 net.cpp:141] Setting up inception_5a/relu_1x1
I0403 15:40:44.818840 32675 net.cpp:148] Top shape: 24 256 7 7 (301056)
I0403 15:40:44.818856 32675 net.cpp:156] Memory required for data: 1294534176
I0403 15:40:44.818873 32675 layer_factory.hpp:77] Creating layer inception_5a/3x3_reduce
I0403 15:40:44.818897 32675 net.cpp:91] Creating Layer inception_5a/3x3_reduce
I0403 15:40:44.818917 32675 net.cpp:425] inception_5a/3x3_reduce <- pool4/3x3_s2_pool4/3x3_s2_0_split_1
I0403 15:40:44.818941 32675 net.cpp:399] inception_5a/3x3_reduce -> inception_5a/3x3_reduce
I0403 15:40:44.821542 32675 net.cpp:141] Setting up inception_5a/3x3_reduce
I0403 15:40:44.821573 32675 net.cpp:148] Top shape: 24 160 7 7 (188160)
I0403 15:40:44.821593 32675 net.cpp:156] Memory required for data: 1295286816
I0403 15:40:44.821612 32675 layer_factory.hpp:77] Creating layer inception_5a/relu_3x3_reduce
I0403 15:40:44.821635 32675 net.cpp:91] Creating Layer inception_5a/relu_3x3_reduce
I0403 15:40:44.821653 32675 net.cpp:425] inception_5a/relu_3x3_reduce <- inception_5a/3x3_reduce
I0403 15:40:44.821672 32675 net.cpp:386] inception_5a/relu_3x3_reduce -> inception_5a/3x3_reduce (in-place)
I0403 15:40:44.821877 32675 net.cpp:141] Setting up inception_5a/relu_3x3_reduce
I0403 15:40:44.821907 32675 net.cpp:148] Top shape: 24 160 7 7 (188160)
I0403 15:40:44.821924 32675 net.cpp:156] Memory required for data: 1296039456
I0403 15:40:44.821940 32675 layer_factory.hpp:77] Creating layer inception_5a/3x3
I0403 15:40:44.821965 32675 net.cpp:91] Creating Layer inception_5a/3x3
I0403 15:40:44.821985 32675 net.cpp:425] inception_5a/3x3 <- inception_5a/3x3_reduce
I0403 15:40:44.822005 32675 net.cpp:399] inception_5a/3x3 -> inception_5a/3x3
I0403 15:40:44.827301 32675 net.cpp:141] Setting up inception_5a/3x3
I0403 15:40:44.827335 32675 net.cpp:148] Top shape: 24 320 7 7 (376320)
I0403 15:40:44.827353 32675 net.cpp:156] Memory required for data: 1297544736
I0403 15:40:44.827373 32675 layer_factory.hpp:77] Creating layer inception_5a/relu_3x3
I0403 15:40:44.827392 32675 net.cpp:91] Creating Layer inception_5a/relu_3x3
I0403 15:40:44.827410 32675 net.cpp:425] inception_5a/relu_3x3 <- inception_5a/3x3
I0403 15:40:44.827431 32675 net.cpp:386] inception_5a/relu_3x3 -> inception_5a/3x3 (in-place)
I0403 15:40:44.827742 32675 net.cpp:141] Setting up inception_5a/relu_3x3
I0403 15:40:44.827771 32675 net.cpp:148] Top shape: 24 320 7 7 (376320)
I0403 15:40:44.827788 32675 net.cpp:156] Memory required for data: 1299050016
I0403 15:40:44.827803 32675 layer_factory.hpp:77] Creating layer inception_5a/5x5_reduce
I0403 15:40:44.827828 32675 net.cpp:91] Creating Layer inception_5a/5x5_reduce
I0403 15:40:44.827848 32675 net.cpp:425] inception_5a/5x5_reduce <- pool4/3x3_s2_pool4/3x3_s2_0_split_2
I0403 15:40:44.827869 32675 net.cpp:399] inception_5a/5x5_reduce -> inception_5a/5x5_reduce
I0403 15:40:44.829084 32675 net.cpp:141] Setting up inception_5a/5x5_reduce
I0403 15:40:44.829120 32675 net.cpp:148] Top shape: 24 32 7 7 (37632)
I0403 15:40:44.829138 32675 net.cpp:156] Memory required for data: 1299200544
I0403 15:40:44.829157 32675 layer_factory.hpp:77] Creating layer inception_5a/relu_5x5_reduce
I0403 15:40:44.829176 32675 net.cpp:91] Creating Layer inception_5a/relu_5x5_reduce
I0403 15:40:44.829193 32675 net.cpp:425] inception_5a/relu_5x5_reduce <- inception_5a/5x5_reduce
I0403 15:40:44.829215 32675 net.cpp:386] inception_5a/relu_5x5_reduce -> inception_5a/5x5_reduce (in-place)
I0403 15:40:44.829530 32675 net.cpp:141] Setting up inception_5a/relu_5x5_reduce
I0403 15:40:44.829566 32675 net.cpp:148] Top shape: 24 32 7 7 (37632)
I0403 15:40:44.829591 32675 net.cpp:156] Memory required for data: 1299351072
I0403 15:40:44.829612 32675 layer_factory.hpp:77] Creating layer inception_5a/5x5
I0403 15:40:44.829640 32675 net.cpp:91] Creating Layer inception_5a/5x5
I0403 15:40:44.829665 32675 net.cpp:425] inception_5a/5x5 <- inception_5a/5x5_reduce
I0403 15:40:44.829697 32675 net.cpp:399] inception_5a/5x5 -> inception_5a/5x5
I0403 15:40:44.831491 32675 net.cpp:141] Setting up inception_5a/5x5
I0403 15:40:44.831534 32675 net.cpp:148] Top shape: 24 128 7 7 (150528)
I0403 15:40:44.831557 32675 net.cpp:156] Memory required for data: 1299953184
I0403 15:40:44.831578 32675 layer_factory.hpp:77] Creating layer inception_5a/relu_5x5
I0403 15:40:44.831598 32675 net.cpp:91] Creating Layer inception_5a/relu_5x5
I0403 15:40:44.831620 32675 net.cpp:425] inception_5a/relu_5x5 <- inception_5a/5x5
I0403 15:40:44.831642 32675 net.cpp:386] inception_5a/relu_5x5 -> inception_5a/5x5 (in-place)
I0403 15:40:44.831848 32675 net.cpp:141] Setting up inception_5a/relu_5x5
I0403 15:40:44.831876 32675 net.cpp:148] Top shape: 24 128 7 7 (150528)
I0403 15:40:44.831892 32675 net.cpp:156] Memory required for data: 1300555296
I0403 15:40:44.831907 32675 layer_factory.hpp:77] Creating layer inception_5a/pool
I0403 15:40:44.831924 32675 net.cpp:91] Creating Layer inception_5a/pool
I0403 15:40:44.831943 32675 net.cpp:425] inception_5a/pool <- pool4/3x3_s2_pool4/3x3_s2_0_split_3
I0403 15:40:44.831962 32675 net.cpp:399] inception_5a/pool -> inception_5a/pool
I0403 15:40:44.832036 32675 net.cpp:141] Setting up inception_5a/pool
I0403 15:40:44.832062 32675 net.cpp:148] Top shape: 24 832 7 7 (978432)
I0403 15:40:44.832077 32675 net.cpp:156] Memory required for data: 1304469024
I0403 15:40:44.832094 32675 layer_factory.hpp:77] Creating layer inception_5a/pool_proj
I0403 15:40:44.832118 32675 net.cpp:91] Creating Layer inception_5a/pool_proj
I0403 15:40:44.832144 32675 net.cpp:425] inception_5a/pool_proj <- inception_5a/pool
I0403 15:40:44.832165 32675 net.cpp:399] inception_5a/pool_proj -> inception_5a/pool_proj
I0403 15:40:44.834568 32675 net.cpp:141] Setting up inception_5a/pool_proj
I0403 15:40:44.834604 32675 net.cpp:148] Top shape: 24 128 7 7 (150528)
I0403 15:40:44.834626 32675 net.cpp:156] Memory required for data: 1305071136
I0403 15:40:44.834651 32675 layer_factory.hpp:77] Creating layer inception_5a/relu_pool_proj
I0403 15:40:44.834672 32675 net.cpp:91] Creating Layer inception_5a/relu_pool_proj
I0403 15:40:44.834693 32675 net.cpp:425] inception_5a/relu_pool_proj <- inception_5a/pool_proj
I0403 15:40:44.834714 32675 net.cpp:386] inception_5a/relu_pool_proj -> inception_5a/pool_proj (in-place)
I0403 15:40:44.835031 32675 net.cpp:141] Setting up inception_5a/relu_pool_proj
I0403 15:40:44.835062 32675 net.cpp:148] Top shape: 24 128 7 7 (150528)
I0403 15:40:44.835079 32675 net.cpp:156] Memory required for data: 1305673248
I0403 15:40:44.835101 32675 layer_factory.hpp:77] Creating layer inception_5a/output
I0403 15:40:44.835119 32675 net.cpp:91] Creating Layer inception_5a/output
I0403 15:40:44.835135 32675 net.cpp:425] inception_5a/output <- inception_5a/1x1
I0403 15:40:44.835156 32675 net.cpp:425] inception_5a/output <- inception_5a/3x3
I0403 15:40:44.835180 32675 net.cpp:425] inception_5a/output <- inception_5a/5x5
I0403 15:40:44.835201 32675 net.cpp:425] inception_5a/output <- inception_5a/pool_proj
I0403 15:40:44.835227 32675 net.cpp:399] inception_5a/output -> inception_5a/output
I0403 15:40:44.835290 32675 net.cpp:141] Setting up inception_5a/output
I0403 15:40:44.835316 32675 net.cpp:148] Top shape: 24 832 7 7 (978432)
I0403 15:40:44.835331 32675 net.cpp:156] Memory required for data: 1309586976
I0403 15:40:44.835346 32675 layer_factory.hpp:77] Creating layer inception_5a/output_inception_5a/output_0_split
I0403 15:40:44.835364 32675 net.cpp:91] Creating Layer inception_5a/output_inception_5a/output_0_split
I0403 15:40:44.835384 32675 net.cpp:425] inception_5a/output_inception_5a/output_0_split <- inception_5a/output
I0403 15:40:44.835404 32675 net.cpp:399] inception_5a/output_inception_5a/output_0_split -> inception_5a/output_inception_5a/output_0_split_0
I0403 15:40:44.835425 32675 net.cpp:399] inception_5a/output_inception_5a/output_0_split -> inception_5a/output_inception_5a/output_0_split_1
I0403 15:40:44.835446 32675 net.cpp:399] inception_5a/output_inception_5a/output_0_split -> inception_5a/output_inception_5a/output_0_split_2
I0403 15:40:44.835469 32675 net.cpp:399] inception_5a/output_inception_5a/output_0_split -> inception_5a/output_inception_5a/output_0_split_3
I0403 15:40:44.835587 32675 net.cpp:141] Setting up inception_5a/output_inception_5a/output_0_split
I0403 15:40:44.835628 32675 net.cpp:148] Top shape: 24 832 7 7 (978432)
I0403 15:40:44.835645 32675 net.cpp:148] Top shape: 24 832 7 7 (978432)
I0403 15:40:44.835661 32675 net.cpp:148] Top shape: 24 832 7 7 (978432)
I0403 15:40:44.835676 32675 net.cpp:148] Top shape: 24 832 7 7 (978432)
I0403 15:40:44.835695 32675 net.cpp:156] Memory required for data: 1325241888
I0403 15:40:44.835710 32675 layer_factory.hpp:77] Creating layer inception_5b/1x1
I0403 15:40:44.835737 32675 net.cpp:91] Creating Layer inception_5b/1x1
I0403 15:40:44.835762 32675 net.cpp:425] inception_5b/1x1 <- inception_5a/output_inception_5a/output_0_split_0
I0403 15:40:44.835789 32675 net.cpp:399] inception_5b/1x1 -> inception_5b/1x1
I0403 15:40:44.839622 32675 net.cpp:141] Setting up inception_5b/1x1
I0403 15:40:44.839653 32675 net.cpp:148] Top shape: 24 384 7 7 (451584)
I0403 15:40:44.839669 32675 net.cpp:156] Memory required for data: 1327048224
I0403 15:40:44.839689 32675 layer_factory.hpp:77] Creating layer inception_5b/relu_1x1
I0403 15:40:44.839710 32675 net.cpp:91] Creating Layer inception_5b/relu_1x1
I0403 15:40:44.839727 32675 net.cpp:425] inception_5b/relu_1x1 <- inception_5b/1x1
I0403 15:40:44.839745 32675 net.cpp:386] inception_5b/relu_1x1 -> inception_5b/1x1 (in-place)
I0403 15:40:44.840052 32675 net.cpp:141] Setting up inception_5b/relu_1x1
I0403 15:40:44.840085 32675 net.cpp:148] Top shape: 24 384 7 7 (451584)
I0403 15:40:44.840109 32675 net.cpp:156] Memory required for data: 1328854560
I0403 15:40:44.840126 32675 layer_factory.hpp:77] Creating layer inception_5b/3x3_reduce
I0403 15:40:44.840160 32675 net.cpp:91] Creating Layer inception_5b/3x3_reduce
I0403 15:40:44.840179 32675 net.cpp:425] inception_5b/3x3_reduce <- inception_5a/output_inception_5a/output_0_split_1
I0403 15:40:44.840204 32675 net.cpp:399] inception_5b/3x3_reduce -> inception_5b/3x3_reduce
I0403 15:40:44.842905 32675 net.cpp:141] Setting up inception_5b/3x3_reduce
I0403 15:40:44.842934 32675 net.cpp:148] Top shape: 24 192 7 7 (225792)
I0403 15:40:44.842952 32675 net.cpp:156] Memory required for data: 1329757728
I0403 15:40:44.842972 32675 layer_factory.hpp:77] Creating layer inception_5b/relu_3x3_reduce
I0403 15:40:44.842993 32675 net.cpp:91] Creating Layer inception_5b/relu_3x3_reduce
I0403 15:40:44.843009 32675 net.cpp:425] inception_5b/relu_3x3_reduce <- inception_5b/3x3_reduce
I0403 15:40:44.843026 32675 net.cpp:386] inception_5b/relu_3x3_reduce -> inception_5b/3x3_reduce (in-place)
I0403 15:40:44.843225 32675 net.cpp:141] Setting up inception_5b/relu_3x3_reduce
I0403 15:40:44.843257 32675 net.cpp:148] Top shape: 24 192 7 7 (225792)
I0403 15:40:44.843276 32675 net.cpp:156] Memory required for data: 1330660896
I0403 15:40:44.843300 32675 layer_factory.hpp:77] Creating layer inception_5b/3x3
I0403 15:40:44.843329 32675 net.cpp:91] Creating Layer inception_5b/3x3
I0403 15:40:44.843353 32675 net.cpp:425] inception_5b/3x3 <- inception_5b/3x3_reduce
I0403 15:40:44.843372 32675 net.cpp:399] inception_5b/3x3 -> inception_5b/3x3
I0403 15:40:44.850128 32675 net.cpp:141] Setting up inception_5b/3x3
I0403 15:40:44.850160 32675 net.cpp:148] Top shape: 24 384 7 7 (451584)
I0403 15:40:44.850179 32675 net.cpp:156] Memory required for data: 1332467232
I0403 15:40:44.850198 32675 layer_factory.hpp:77] Creating layer inception_5b/relu_3x3
I0403 15:40:44.850217 32675 net.cpp:91] Creating Layer inception_5b/relu_3x3
I0403 15:40:44.850235 32675 net.cpp:425] inception_5b/relu_3x3 <- inception_5b/3x3
I0403 15:40:44.850253 32675 net.cpp:386] inception_5b/relu_3x3 -> inception_5b/3x3 (in-place)
I0403 15:40:44.850559 32675 net.cpp:141] Setting up inception_5b/relu_3x3
I0403 15:40:44.850589 32675 net.cpp:148] Top shape: 24 384 7 7 (451584)
I0403 15:40:44.850606 32675 net.cpp:156] Memory required for data: 1334273568
I0403 15:40:44.850622 32675 layer_factory.hpp:77] Creating layer inception_5b/5x5_reduce
I0403 15:40:44.850659 32675 net.cpp:91] Creating Layer inception_5b/5x5_reduce
I0403 15:40:44.850677 32675 net.cpp:425] inception_5b/5x5_reduce <- inception_5a/output_inception_5a/output_0_split_2
I0403 15:40:44.850700 32675 net.cpp:399] inception_5b/5x5_reduce -> inception_5b/5x5_reduce
I0403 15:40:44.852018 32675 net.cpp:141] Setting up inception_5b/5x5_reduce
I0403 15:40:44.852046 32675 net.cpp:148] Top shape: 24 48 7 7 (56448)
I0403 15:40:44.852063 32675 net.cpp:156] Memory required for data: 1334499360
I0403 15:40:44.852082 32675 layer_factory.hpp:77] Creating layer inception_5b/relu_5x5_reduce
I0403 15:40:44.852102 32675 net.cpp:91] Creating Layer inception_5b/relu_5x5_reduce
I0403 15:40:44.852121 32675 net.cpp:425] inception_5b/relu_5x5_reduce <- inception_5b/5x5_reduce
I0403 15:40:44.852141 32675 net.cpp:386] inception_5b/relu_5x5_reduce -> inception_5b/5x5_reduce (in-place)
I0403 15:40:44.852532 32675 net.cpp:141] Setting up inception_5b/relu_5x5_reduce
I0403 15:40:44.852560 32675 net.cpp:148] Top shape: 24 48 7 7 (56448)
I0403 15:40:44.852576 32675 net.cpp:156] Memory required for data: 1334725152
I0403 15:40:44.852591 32675 layer_factory.hpp:77] Creating layer inception_5b/5x5
I0403 15:40:44.852612 32675 net.cpp:91] Creating Layer inception_5b/5x5
I0403 15:40:44.852628 32675 net.cpp:425] inception_5b/5x5 <- inception_5b/5x5_reduce
I0403 15:40:44.852648 32675 net.cpp:399] inception_5b/5x5 -> inception_5b/5x5
I0403 15:40:44.854722 32675 net.cpp:141] Setting up inception_5b/5x5
I0403 15:40:44.854754 32675 net.cpp:148] Top shape: 24 128 7 7 (150528)
I0403 15:40:44.854770 32675 net.cpp:156] Memory required for data: 1335327264
I0403 15:40:44.854789 32675 layer_factory.hpp:77] Creating layer inception_5b/relu_5x5
I0403 15:40:44.854809 32675 net.cpp:91] Creating Layer inception_5b/relu_5x5
I0403 15:40:44.854825 32675 net.cpp:425] inception_5b/relu_5x5 <- inception_5b/5x5
I0403 15:40:44.854846 32675 net.cpp:386] inception_5b/relu_5x5 -> inception_5b/5x5 (in-place)
I0403 15:40:44.855046 32675 net.cpp:141] Setting up inception_5b/relu_5x5
I0403 15:40:44.855072 32675 net.cpp:148] Top shape: 24 128 7 7 (150528)
I0403 15:40:44.855087 32675 net.cpp:156] Memory required for data: 1335929376
I0403 15:40:44.855103 32675 layer_factory.hpp:77] Creating layer inception_5b/pool
I0403 15:40:44.855120 32675 net.cpp:91] Creating Layer inception_5b/pool
I0403 15:40:44.855137 32675 net.cpp:425] inception_5b/pool <- inception_5a/output_inception_5a/output_0_split_3
I0403 15:40:44.855159 32675 net.cpp:399] inception_5b/pool -> inception_5b/pool
I0403 15:40:44.855245 32675 net.cpp:141] Setting up inception_5b/pool
I0403 15:40:44.855273 32675 net.cpp:148] Top shape: 24 832 7 7 (978432)
I0403 15:40:44.855305 32675 net.cpp:156] Memory required for data: 1339843104
I0403 15:40:44.855322 32675 layer_factory.hpp:77] Creating layer inception_5b/pool_proj
I0403 15:40:44.855345 32675 net.cpp:91] Creating Layer inception_5b/pool_proj
I0403 15:40:44.855363 32675 net.cpp:425] inception_5b/pool_proj <- inception_5b/pool
I0403 15:40:44.855384 32675 net.cpp:399] inception_5b/pool_proj -> inception_5b/pool_proj
I0403 15:40:44.857641 32675 net.cpp:141] Setting up inception_5b/pool_proj
I0403 15:40:44.857669 32675 net.cpp:148] Top shape: 24 128 7 7 (150528)
I0403 15:40:44.857689 32675 net.cpp:156] Memory required for data: 1340445216
I0403 15:40:44.857708 32675 layer_factory.hpp:77] Creating layer inception_5b/relu_pool_proj
I0403 15:40:44.857728 32675 net.cpp:91] Creating Layer inception_5b/relu_pool_proj
I0403 15:40:44.857743 32675 net.cpp:425] inception_5b/relu_pool_proj <- inception_5b/pool_proj
I0403 15:40:44.857763 32675 net.cpp:386] inception_5b/relu_pool_proj -> inception_5b/pool_proj (in-place)
I0403 15:40:44.858057 32675 net.cpp:141] Setting up inception_5b/relu_pool_proj
I0403 15:40:44.858088 32675 net.cpp:148] Top shape: 24 128 7 7 (150528)
I0403 15:40:44.858108 32675 net.cpp:156] Memory required for data: 1341047328
I0403 15:40:44.858125 32675 layer_factory.hpp:77] Creating layer inception_5b/output
I0403 15:40:44.858151 32675 net.cpp:91] Creating Layer inception_5b/output
I0403 15:40:44.858188 32675 net.cpp:425] inception_5b/output <- inception_5b/1x1
I0403 15:40:44.858212 32675 net.cpp:425] inception_5b/output <- inception_5b/3x3
I0403 15:40:44.858237 32675 net.cpp:425] inception_5b/output <- inception_5b/5x5
I0403 15:40:44.858259 32675 net.cpp:425] inception_5b/output <- inception_5b/pool_proj
I0403 15:40:44.858280 32675 net.cpp:399] inception_5b/output -> inception_5b/output
I0403 15:40:44.858345 32675 net.cpp:141] Setting up inception_5b/output
I0403 15:40:44.858374 32675 net.cpp:148] Top shape: 24 1024 7 7 (1204224)
I0403 15:40:44.858398 32675 net.cpp:156] Memory required for data: 1345864224
I0403 15:40:44.858418 32675 layer_factory.hpp:77] Creating layer pool5/7x7_s1
I0403 15:40:44.858439 32675 net.cpp:91] Creating Layer pool5/7x7_s1
I0403 15:40:44.858455 32675 net.cpp:425] pool5/7x7_s1 <- inception_5b/output
I0403 15:40:44.858474 32675 net.cpp:399] pool5/7x7_s1 -> pool5/7x7_s1
I0403 15:40:44.858691 32675 net.cpp:141] Setting up pool5/7x7_s1
I0403 15:40:44.858718 32675 net.cpp:148] Top shape: 24 1024 1 1 (24576)
I0403 15:40:44.858734 32675 net.cpp:156] Memory required for data: 1345962528
I0403 15:40:44.858749 32675 layer_factory.hpp:77] Creating layer pool5/drop_7x7_s1
I0403 15:40:44.858767 32675 net.cpp:91] Creating Layer pool5/drop_7x7_s1
I0403 15:40:44.858784 32675 net.cpp:425] pool5/drop_7x7_s1 <- pool5/7x7_s1
I0403 15:40:44.858803 32675 net.cpp:386] pool5/drop_7x7_s1 -> pool5/7x7_s1 (in-place)
I0403 15:40:44.858852 32675 net.cpp:141] Setting up pool5/drop_7x7_s1
I0403 15:40:44.858876 32675 net.cpp:148] Top shape: 24 1024 1 1 (24576)
I0403 15:40:44.858891 32675 net.cpp:156] Memory required for data: 1346060832
I0403 15:40:44.858906 32675 layer_factory.hpp:77] Creating layer loss3/classifier_plantvillage
I0403 15:40:44.858927 32675 net.cpp:91] Creating Layer loss3/classifier_plantvillage
I0403 15:40:44.858944 32675 net.cpp:425] loss3/classifier_plantvillage <- pool5/7x7_s1
I0403 15:40:44.858965 32675 net.cpp:399] loss3/classifier_plantvillage -> loss3/classifier_plantvillage
I0403 15:40:44.859382 32675 net.cpp:141] Setting up loss3/classifier_plantvillage
I0403 15:40:44.859412 32675 net.cpp:148] Top shape: 24 38 (912)
I0403 15:40:44.859429 32675 net.cpp:156] Memory required for data: 1346064480
I0403 15:40:44.859453 32675 layer_factory.hpp:77] Creating layer loss3/classifier_plantvillage_loss3/classifier_plantvillage_0_split
I0403 15:40:44.859477 32675 net.cpp:91] Creating Layer loss3/classifier_plantvillage_loss3/classifier_plantvillage_0_split
I0403 15:40:44.859500 32675 net.cpp:425] loss3/classifier_plantvillage_loss3/classifier_plantvillage_0_split <- loss3/classifier_plantvillage
I0403 15:40:44.859524 32675 net.cpp:399] loss3/classifier_plantvillage_loss3/classifier_plantvillage_0_split -> loss3/classifier_plantvillage_loss3/classifier_plantvillage_0_split_0
I0403 15:40:44.859547 32675 net.cpp:399] loss3/classifier_plantvillage_loss3/classifier_plantvillage_0_split -> loss3/classifier_plantvillage_loss3/classifier_plantvillage_0_split_1
I0403 15:40:44.859572 32675 net.cpp:399] loss3/classifier_plantvillage_loss3/classifier_plantvillage_0_split -> loss3/classifier_plantvillage_loss3/classifier_plantvillage_0_split_2
I0403 15:40:44.859591 32675 net.cpp:399] loss3/classifier_plantvillage_loss3/classifier_plantvillage_0_split -> loss3/classifier_plantvillage_loss3/classifier_plantvillage_0_split_3
I0403 15:40:44.859689 32675 net.cpp:141] Setting up loss3/classifier_plantvillage_loss3/classifier_plantvillage_0_split
I0403 15:40:44.859712 32675 net.cpp:148] Top shape: 24 38 (912)
I0403 15:40:44.859729 32675 net.cpp:148] Top shape: 24 38 (912)
I0403 15:40:44.859743 32675 net.cpp:148] Top shape: 24 38 (912)
I0403 15:40:44.859758 32675 net.cpp:148] Top shape: 24 38 (912)
I0403 15:40:44.859772 32675 net.cpp:156] Memory required for data: 1346079072
I0403 15:40:44.859786 32675 layer_factory.hpp:77] Creating layer loss1/loss
I0403 15:40:44.859807 32675 net.cpp:91] Creating Layer loss1/loss
I0403 15:40:44.859825 32675 net.cpp:425] loss1/loss <- loss1/classifier_plantvillage_loss1/classifier_plantvillage_0_split_0
I0403 15:40:44.859855 32675 net.cpp:425] loss1/loss <- label_data_1_split_0
…
