…
I0403 15:06:03.896986 31131 net.cpp:313] The NetState phase (1) differed from the phase (0) specified by a rule in layer data
I0403 15:06:03.898123 31131 net.cpp:49] Initializing net from parameters: 
state {
  phase: TEST
}
layer {
  name: "data"
  type: "Data"
  top: "data"
  top: "label"
  include {
    phase: TEST
  }
  transform_param {
    mirror: false
    crop_size: 224
    mean_file: "/home/mohanty/data/final_dataset/lmdb/color-60-40/mean.binaryproto"
  }
  data_param {
    source: "/home/mohanty/data/final_dataset/lmdb/color-60-40/test_db"
    batch_size: 24
    backend: LMDB
  }
}
layer {
  name: "conv1/7x7_s2"
  type: "Convolution"
  bottom: "data"
  top: "conv1/7x7_s2"
  param {
    lr_mult: 1
    decay_mult: 1
  }
  param {
    lr_mult: 2
    decay_mult: 0
  }
  convolution_param {
    num_output: 64
    pad: 3
    kernel_size: 7
    stride: 2
    weight_filler {
      type: "xavier"
      std: 0.1
    }
    bias_filler {
      type: "constant"
      value: 0.2
    }
  }
}
layer {
  name: "conv1/relu_7x7"
  type: "ReLU"
  bottom: "conv1/7x7_s2"
  top: "conv1/7x7_s2"
}
layer {
  name: "pool1/3x3_s2"
  type: "Pooling"
  bottom: "conv1/7x7_s2"
  top: "pool1/3x3_s2"
  pooling_param {
    pool: MAX
    kernel_size: 3
    stride: 2
  }
}
layer {
  name: "pool1/norm1"
  type: "LRN"
  bottom: "pool1/3x3_s2"
  top: "pool1/norm1"
  lrn_param {
    local_size: 5
    alpha: 0.0001
    beta: 0.75
  }
}
layer {
  name: "conv2/3x3_reduce"
  type: "Convolution"
  bottom: "pool1/norm1"
  top: "conv2/3x3_reduce"
  param {
    lr_mult: 1
    decay_mult: 1
  }
  param {
    lr_mult: 2
    decay_mult: 0
  }
  convolution_param {
    num_output: 64
    kernel_size: 1
    weight_filler {
      type: "xavier"
      std: 0.1
    }
    bias_filler {
      type: "constant"
      value: 0.2
    }
  }
}
layer {
  name: "conv2/relu_3x3_reduce"
  type: "ReLU"
  bottom: "conv2/3x3_reduce"
  top: "conv2/3x3_reduce"
}
layer {
  name: "conv2/3x3"
  type: "Convolution"
  bottom: "conv2/3x3_reduce"
  top: "conv2/3x3"
  param {
    lr_mult: 1
    decay_mult: 1
  }
  param {
    lr_mult: 2
    decay_mult: 0
  }
  convolution_param {
    num_output: 192
    pad: 1
    kernel_size: 3
    weight_filler {
      type: "xavier"
      std: 0.03
    }
    bias_filler {
      type: "constant"
      value: 0.2
    }
  }
}
layer {
  name: "conv2/relu_3x3"
  type: "ReLU"
  bottom: "conv2/3x3"
  top: "conv2/3x3"
}
layer {
  name: "conv2/norm2"
  type: "LRN"
  bottom: "conv2/3x3"
  top: "conv2/norm2"
  lrn_param {
    local_size: 5
    alpha: 0.0001
    beta: 0.75
  }
}
layer {
  name: "pool2/3x3_s2"
  type: "Pooling"
  bottom: "conv2/norm2"
  top: "pool2/3x3_s2"
  pooling_param {
    pool: MAX
    kernel_size: 3
    stride: 2
  }
}
layer {
  name: "inception_3a/1x1"
  type: "Convolution"
  bottom: "pool2/3x3_s2"
  top: "inception_3a/1x1"
  param {
    lr_mult: 1
    decay_mult: 1
  }
  param {
    lr_mult: 2
    decay_mult: 0
  }
  convolution_param {
    num_output: 64
    kernel_size: 1
    weight_filler {
      type: "xavier"
      std: 0.03
    }
    bias_filler {
      type: "constant"
      value: 0.2
    }
  }
}
layer {
  name: "inception_3a/relu_1x1"
  type: "ReLU"
  bottom: "inception_3a/1x1"
  top: "inception_3a/1x1"
}
layer {
  name: "inception_3a/3x3_reduce"
  type: "Convolution"
  bottom: "pool2/3x3_s2"
  top: "inception_3a/3x3_reduce"
  param {
    lr_mult: 1
    decay_mult: 1
  }
  param {
    lr_mult: 2
    decay_mult: 0
  }
  convolution_param {
    num_output: 96
    kernel_size: 1
    weight_filler {
      type: "xavier"
      std: 0.09
    }
    bias_filler {
      type: "constant"
      value: 0.2
    }
  }
}
layer {
  name: "inception_3a/relu_3x3_reduce"
  type: "ReLU"
  bottom: "inception_3a/3x3_reduce"
  top: "inception_3a/3x3_reduce"
}
layer {
  name: "inception_3a/3x3"
  type: "Convolution"
  bottom: "inception_3a/3x3_reduce"
  top: "inception_3a/3x3"
  param {
    lr_mult: 1
    decay_mult: 1
  }
  param {
    lr_mult: 2
    decay_mult: 0
  }
  convolution_param {
    num_output: 128
    pad: 1
    kernel_size: 3
    weight_filler {
      type: "xavier"
      std: 0.03
    }
    bias_filler {
      type: "constant"
      value: 0.2
    }
  }
}
layer {
  name: "inception_3a/relu_3x3"
  type: "ReLU"
  bottom: "inception_3a/3x3"
  top: "inception_3a/3x3"
}
layer {
  name: "inception_3a/5x5_reduce"
  type: "Convolution"
  bottom: "pool2/3x3_s2"
  top: "inception_3a/5x5_reduce"
  param {
    lr_mult: 1
    decay_mult: 1
  }
  param {
    lr_mult: 2
    decay_mult: 0
  }
  convolution_param {
    num_output: 16
    kernel_size: 1
    weight_filler {
      type: "xavier"
      std: 0.2
    }
    bias_filler {
      type: "constant"
      value: 0.2
    }
  }
}
layer {
  name: "inception_3a/relu_5x5_reduce"
  type: "ReLU"
  bottom: "inception_3a/5x5_reduce"
  top: "inception_3a/5x5_reduce"
}
layer {
  name: "inception_3a/5x5"
  type: "Convolution"
  bottom: "inception_3a/5x5_reduce"
  top: "inception_3a/5x5"
  param {
    lr_mult: 1
    decay_mult: 1
  }
  param {
    lr_mult: 2
    decay_mult: 0
  }
  convolution_param {
    num_output: 32
    pad: 2
    kernel_size: 5
    weight_filler {
      type: "xavier"
      std: 0.03
    }
    bias_filler {
      type: "constant"
      value: 0.2
    }
  }
}
layer {
  name: "inception_3a/relu_5x5"
  type: "ReLU"
  bottom: "inception_3a/5x5"
  top: "inception_3a/5x5"
}
layer {
  name: "inception_3a/pool"
  type: "Pooling"
  bottom: "pool2/3x3_s2"
  top: "inception_3a/pool"
  pooling_param {
    pool: MAX
    kernel_size: 3
    stride: 1
    pad: 1
  }
}
layer {
  name: "inception_3a/pool_proj"
  type: "Convolution"
  bottom: "inception_3a/pool"
  top: "inception_3a/pool_proj"
  param {
    lr_mult: 1
    decay_mult: 1
  }
  param {
    lr_mult: 2
    decay_mult: 0
  }
  convolution_param {
    num_output: 32
    kernel_size: 1
    weight_filler {
      type: "xavier"
      std: 0.1
    }
    bias_filler {
      type: "constant"
      value: 0.2
    }
  }
}
layer {
  name: "inception_3a/relu_pool_proj"
  type: "ReLU"
  bottom: "inception_3a/pool_proj"
  top: "inception_3a/pool_proj"
}
layer {
  name: "inception_3a/output"
  type: "Concat"
  bottom: "inception_3a/1x1"
  bottom: "inception_3a/3x3"
  bottom: "inception_3a/5x5"
  bottom: "inception_3a/pool_proj"
  top: "inception_3a/output"
}
layer {
  name: "inception_3b/1x1"
  type: "Convolution"
  bottom: "inception_3a/output"
  top: "inception_3b/1x1"
  param {
    lr_mult: 1
    decay_mult: 1
  }
  param {
    lr_mult: 2
    decay_mult: 0
  }
  convolution_param {
    num_output: 128
    kernel_size: 1
    weight_filler {
      type: "xavier"
      std: 0.03
    }
    bias_filler {
      type: "constant"
      value: 0.2
    }
  }
}
layer {
  name: "inception_3b/relu_1x1"
  type: "ReLU"
  bottom: "inception_3b/1x1"
  top: "inception_3b/1x1"
}
layer {
  name: "inception_3b/3x3_reduce"
  type: "Convolution"
  bottom: "inception_3a/output"
  top: "inception_3b/3x3_reduce"
  param {
    lr_mult: 1
    decay_mult: 1
  }
  param {
    lr_mult: 2
    decay_mult: 0
  }
  convolution_param {
    num_output: 128
    kernel_size: 1
    weight_filler {
      type: "xavier"
      std: 0.09
    }
    bias_filler {
      type: "constant"
      value: 0.2
    }
  }
}
layer {
  name: "inception_3b/relu_3x3_reduce"
  type: "ReLU"
  bottom: "inception_3b/3x3_reduce"
  top: "inception_3b/3x3_reduce"
}
layer {
  name: "inception_3b/3x3"
  type: "Convolution"
  bottom: "inception_3b/3x3_reduce"
  top: "inception_3b/3x3"
  param {
    lr_mult: 1
    decay_mult: 1
  }
  param {
    lr_mult: 2
    decay_mult: 0
  }
  convolution_param {
    num_output: 192
    pad: 1
    kernel_size: 3
    weight_filler {
      type: "xavier"
      std: 0.03
    }
    bias_filler {
      type: "constant"
      value: 0.2
    }
  }
}
layer {
  name: "inception_3b/relu_3x3"
  type: "ReLU"
  bottom: "inception_3b/3x3"
  top: "inception_3b/3x3"
}
layer {
  name: "inception_3b/5x5_reduce"
  type: "Convolution"
  bottom: "inception_3a/output"
  top: "inception_3b/5x5_reduce"
  param {
    lr_mult: 1
    decay_mult: 1
  }
  param {
    lr_mult: 2
    decay_mult: 0
  }
  convolution_param {
    num_output: 32
    kernel_size: 1
    weight_filler {
      type: "xavier"
      std: 0.2
    }
    bias_filler {
      type: "constant"
      value: 0.2
    }
  }
}
layer {
  name: "inception_3b/relu_5x5_reduce"
  type: "ReLU"
  bottom: "inception_3b/5x5_reduce"
  top: "inception_3b/5x5_reduce"
}
layer {
  name: "inception_3b/5x5"
  type: "Convolution"
  bottom: "inception_3b/5x5_reduce"
  top: "inception_3b/5x5"
  param {
    lr_mult: 1
    decay_mult: 1
  }
  param {
    lr_mult: 2
    decay_mult: 0
  }
  convolution_param {
    num_output: 96
    pad: 2
    kernel_size: 5
    weight_filler {
      type: "xavier"
      std: 0.03
    }
    bias_filler {
      type: "constant"
      value: 0.2
    }
  }
}
layer {
  name: "inception_3b/relu_5x5"
  type: "ReLU"
  bottom: "inception_3b/5x5"
  top: "inception_3b/5x5"
}
layer {
  name: "inception_3b/pool"
  type: "Pooling"
  bottom: "inception_3a/output"
  top: "inception_3b/pool"
  pooling_param {
    pool: MAX
    kernel_size: 3
    stride: 1
    pad: 1
  }
}
layer {
  name: "inception_3b/pool_proj"
  type: "Convolution"
  bottom: "inception_3b/pool"
  top: "inception_3b/pool_proj"
  param {
    lr_mult: 1
    decay_mult: 1
  }
  param {
    lr_mult: 2
    decay_mult: 0
  }
  convolution_param {
    num_output: 64
    kernel_size: 1
    weight_filler {
      type: "xavier"
      std: 0.1
    }
    bias_filler {
      type: "constant"
      value: 0.2
    }
  }
}
layer {
  name: "inception_3b/relu_pool_proj"
  type: "ReLU"
  bottom: "inception_3b/pool_proj"
  top: "inception_3b/pool_proj"
}
layer {
  name: "inception_3b/output"
  type: "Concat"
  bottom: "inception_3b/1x1"
  bottom: "inception_3b/3x3"
  bottom: "inception_3b/5x5"
  bottom: "inception_3b/pool_proj"
  top: "inception_3b/output"
}
layer {
  name: "pool3/3x3_s2"
  type: "Pooling"
  bottom: "inception_3b/output"
  top: "pool3/3x3_s2"
  pooling_param {
    pool: MAX
    kernel_size: 3
    stride: 2
  }
}
layer {
  name: "inception_4a/1x1"
  type: "Convolution"
  bottom: "pool3/3x3_s2"
  top: "inception_4a/1x1"
  param {
    lr_mult: 1
    decay_mult: 1
  }
  param {
    lr_mult: 2
    decay_mult: 0
  }
  convolution_param {
    num_output: 192
    kernel_size: 1
    weight_filler {
      type: "xavier"
      std: 0.03
    }
    bias_filler {
      type: "constant"
      value: 0.2
    }
  }
}
layer {
  name: "inception_4a/relu_1x1"
  type: "ReLU"
  bottom: "inception_4a/1x1"
  top: "inception_4a/1x1"
}
layer {
  name: "inception_4a/3x3_reduce"
  type: "Convolution"
  bottom: "pool3/3x3_s2"
  top: "inception_4a/3x3_reduce"
  param {
    lr_mult: 1
    decay_mult: 1
  }
  param {
    lr_mult: 2
    decay_mult: 0
  }
  convolution_param {
    num_output: 96
    kernel_size: 1
    weight_filler {
      type: "xavier"
      std: 0.09
    }
    bias_filler {
      type: "constant"
      value: 0.2
    }
  }
}
layer {
  name: "inception_4a/relu_3x3_reduce"
  type: "ReLU"
  bottom: "inception_4a/3x3_reduce"
  top: "inception_4a/3x3_reduce"
}
layer {
  name: "inception_4a/3x3"
  type: "Convolution"
  bottom: "inception_4a/3x3_reduce"
  top: "inception_4a/3x3"
  param {
    lr_mult: 1
    decay_mult: 1
  }
  param {
    lr_mult: 2
    decay_mult: 0
  }
  convolution_param {
    num_output: 208
    pad: 1
    kernel_size: 3
    weight_filler {
      type: "xavier"
      std: 0.03
    }
    bias_filler {
      type: "constant"
      value: 0.2
    }
  }
}
layer {
  name: "inception_4a/relu_3x3"
  type: "ReLU"
  bottom: "inception_4a/3x3"
  top: "inception_4a/3x3"
}
layer {
  name: "inception_4a/5x5_reduce"
  type: "Convolution"
  bottom: "pool3/3x3_s2"
  top: "inception_4a/5x5_reduce"
  param {
    lr_mult: 1
    decay_mult: 1
  }
  param {
    lr_mult: 2
    decay_mult: 0
  }
  convolution_param {
    num_output: 16
    kernel_size: 1
    weight_filler {
      type: "xavier"
      std: 0.2
    }
    bias_filler {
      type: "constant"
      value: 0.2
    }
  }
}
layer {
  name: "inception_4a/relu_5x5_reduce"
  type: "ReLU"
  bottom: "inception_4a/5x5_reduce"
  top: "inception_4a/5x5_reduce"
}
layer {
  name: "inception_4a/5x5"
  type: "Convolution"
  bottom: "inception_4a/5x5_reduce"
  top: "inception_4a/5x5"
  param {
    lr_mult: 1
    decay_mult: 1
  }
  param {
    lr_mult: 2
    decay_mult: 0
  }
  convolution_param {
    num_output: 48
    pad: 2
    kernel_size: 5
    weight_filler {
      type: "xavier"
      std: 0.03
    }
    bias_filler {
      type: "constant"
      value: 0.2
    }
  }
}
layer {
  name: "inception_4a/relu_5x5"
  type: "ReLU"
  bottom: "inception_4a/5x5"
  top: "inception_4a/5x5"
}
layer {
  name: "inception_4a/pool"
  type: "Pooling"
  bottom: "pool3/3x3_s2"
  top: "inception_4a/pool"
  pooling_param {
    pool: MAX
    kernel_size: 3
    stride: 1
    pad: 1
  }
}
layer {
  name: "inception_4a/pool_proj"
  type: "Convolution"
  bottom: "inception_4a/pool"
  top: "inception_4a/pool_proj"
  param {
    lr_mult: 1
    decay_mult: 1
  }
  param {
    lr_mult: 2
    decay_mult: 0
  }
  convolution_param {
    num_output: 64
    kernel_size: 1
    weight_filler {
      type: "xavier"
      std: 0.1
    }
    bias_filler {
      type: "constant"
      value: 0.2
    }
  }
}
layer {
  name: "inception_4a/relu_pool_proj"
  type: "ReLU"
  bottom: "inception_4a/pool_proj"
  top: "inception_4a/pool_proj"
}
layer {
  name: "inception_4a/output"
  type: "Concat"
  bottom: "inception_4a/1x1"
  bottom: "inception_4a/3x3"
  bottom: "inception_4a/5x5"
  bottom: "inception_4a/pool_proj"
  top: "inception_4a/output"
}
layer {
  name: "loss1/ave_pool"
  type: "Pooling"
  bottom: "inception_4a/output"
  top: "loss1/ave_pool"
  pooling_param {
    pool: AVE
    kernel_size: 5
    stride: 3
  }
}
layer {
  name: "loss1/conv"
  type: "Convolution"
  bottom: "loss1/ave_pool"
  top: "loss1/conv"
  param {
    lr_mult: 1
    decay_mult: 1
  }
  param {
    lr_mult: 2
    decay_mult: 0
  }
  convolution_param {
    num_output: 128
    kernel_size: 1
    weight_filler {
      type: "xavier"
      std: 0.08
    }
    bias_filler {
      type: "constant"
      value: 0.2
    }
  }
}
layer {
  name: "loss1/relu_conv"
  type: "ReLU"
  bottom: "loss1/conv"
  top: "loss1/conv"
}
layer {
  name: "loss1/fc"
  type: "InnerProduct"
  bottom: "loss1/conv"
  top: "loss1/fc"
  param {
    lr_mult: 1
    decay_mult: 1
  }
  param {
    lr_mult: 2
    decay_mult: 0
  }
  inner_product_param {
    num_output: 1024
    weight_filler {
      type: "xavier"
      std: 0.02
    }
    bias_filler {
      type: "constant"
      value: 0.2
    }
  }
}
layer {
  name: "loss1/relu_fc"
  type: "ReLU"
  bottom: "loss1/fc"
  top: "loss1/fc"
}
layer {
  name: "loss1/drop_fc"
  type: "Dropout"
  bottom: "loss1/fc"
  top: "loss1/fc"
  dropout_param {
    dropout_ratio: 0.7
  }
}
layer {
  name: "loss1/classifier_plantvillage"
  type: "InnerProduct"
  bottom: "loss1/fc"
  top: "loss1/classifier_plantvillage"
  param {
    lr_mult: 1
    decay_mult: 1
  }
  param {
    lr_mult: 2
    decay_mult: 0
  }
  inner_product_param {
    num_output: 38
    weight_filler {
      type: "xavier"
      std: 0.0009765625
    }
    bias_filler {
      type: "constant"
      value: 0
    }
  }
}
layer {
  name: "inception_4b/1x1"
  type: "Convolution"
  bottom: "inception_4a/output"
  top: "inception_4b/1x1"
  param {
    lr_mult: 1
    decay_mult: 1
  }
  param {
    lr_mult: 2
    decay_mult: 0
  }
  convolution_param {
    num_output: 160
    kernel_size: 1
    weight_filler {
      type: "xavier"
      std: 0.03
    }
    bias_filler {
      type: "constant"
      value: 0.2
    }
  }
}
layer {
  name: "inception_4b/relu_1x1"
  type: "ReLU"
  bottom: "inception_4b/1x1"
  top: "inception_4b/1x1"
}
layer {
  name: "inception_4b/3x3_reduce"
  type: "Convolution"
  bottom: "inception_4a/output"
  top: "inception_4b/3x3_reduce"
  param {
    lr_mult: 1
    decay_mult: 1
  }
  param {
    lr_mult: 2
    decay_mult: 0
  }
  convolution_param {
    num_output: 112
    kernel_size: 1
    weight_filler {
      type: "xavier"
      std: 0.09
    }
    bias_filler {
      type: "constant"
      value: 0.2
    }
  }
}
layer {
  name: "inception_4b/relu_3x3_reduce"
  type: "ReLU"
  bottom: "inception_4b/3x3_reduce"
  top: "inception_4b/3x3_reduce"
}
layer {
  name: "inception_4b/3x3"
  type: "Convolution"
  bottom: "inception_4b/3x3_reduce"
  top: "inception_4b/3x3"
  param {
    lr_mult: 1
    decay_mult: 1
  }
  param {
    lr_mult: 2
    decay_mult: 0
  }
  convolution_param {
    num_output: 224
    pad: 1
    kernel_size: 3
    weight_filler {
      type: "xavier"
      std: 0.03
    }
    bias_filler {
      type: "constant"
      value: 0.2
    }
  }
}
layer {
  name: "inception_4b/relu_3x3"
  type: "ReLU"
  bottom: "inception_4b/3x3"
  top: "inception_4b/3x3"
}
layer {
  name: "inception_4b/5x5_reduce"
  type: "Convolution"
  bottom: "inception_4a/output"
  top: "inception_4b/5x5_reduce"
  param {
    lr_mult: 1
    decay_mult: 1
  }
  param {
    lr_mult: 2
    decay_mult: 0
  }
  convolution_param {
    num_output: 24
    kernel_size: 1
    weight_filler {
      type: "xavier"
      std: 0.2
    }
    bias_filler {
      type: "constant"
      value: 0.2
    }
  }
}
layer {
  name: "inception_4b/relu_5x5_reduce"
  type: "ReLU"
  bottom: "inception_4b/5x5_reduce"
  top: "inception_4b/5x5_reduce"
}
layer {
  name: "inception_4b/5x5"
  type: "Convolution"
  bottom: "inception_4b/5x5_reduce"
  top: "inception_4b/5x5"
  param {
    lr_mult: 1
    decay_mult: 1
  }
  param {
    lr_mult: 2
    decay_mult: 0
  }
  convolution_param {
    num_output: 64
    pad: 2
    kernel_size: 5
    weight_filler {
      type: "xavier"
      std: 0.03
    }
    bias_filler {
      type: "constant"
      value: 0.2
    }
  }
}
layer {
  name: "inception_4b/relu_5x5"
  type: "ReLU"
  bottom: "inception_4b/5x5"
  top: "inception_4b/5x5"
}
layer {
  name: "inception_4b/pool"
  type: "Pooling"
  bottom: "inception_4a/output"
  top: "inception_4b/pool"
  pooling_param {
    pool: MAX
    kernel_size: 3
    stride: 1
    pad: 1
  }
}
layer {
  name: "inception_4b/pool_proj"
  type: "Convolution"
  bottom: "inception_4b/pool"
  top: "inception_4b/pool_proj"
  param {
    lr_mult: 1
    decay_mult: 1
  }
  param {
    lr_mult: 2
    decay_mult: 0
  }
  convolution_param {
    num_output: 64
    kernel_size: 1
    weight_filler {
      type: "xavier"
      std: 0.1
    }
    bias_filler {
      type: "constant"
      value: 0.2
    }
  }
}
layer {
  name: "inception_4b/relu_pool_proj"
  type: "ReLU"
  bottom: "inception_4b/pool_proj"
  top: "inception_4b/pool_proj"
}
layer {
  name: "inception_4b/output"
  type: "Concat"
  bottom: "inception_4b/1x1"
  bottom: "inception_4b/3x3"
  bottom: "inception_4b/5x5"
  bottom: "inception_4b/pool_proj"
  top: "inception_4b/output"
}
layer {
  name: "inception_4c/1x1"
  type: "Convolution"
  bottom: "inception_4b/output"
  top: "inception_4c/1x1"
  param {
    lr_mult: 1
    decay_mult: 1
  }
  param {
    lr_mult: 2
    decay_mult: 0
  }
  convolution_param {
    num_output: 128
    kernel_size: 1
    weight_filler {
      type: "xavier"
      std: 0.03
    }
    bias_filler {
      type: "constant"
      value: 0.2
    }
  }
}
layer {
  name: "inception_4c/relu_1x1"
  type: "ReLU"
  bottom: "inception_4c/1x1"
  top: "inception_4c/1x1"
}
layer {
  name: "inception_4c/3x3_reduce"
  type: "Convolution"
  bottom: "inception_4b/output"
  top: "inception_4c/3x3_reduce"
  param {
    lr_mult: 1
    decay_mult: 1
  }
  param {
    lr_mult: 2
    decay_mult: 0
  }
  convolution_param {
    num_output: 128
    kernel_size: 1
    weight_filler {
      type: "xavier"
      std: 0.09
    }
    bias_filler {
      type: "constant"
      value: 0.2
    }
  }
}
layer {
  name: "inception_4c/relu_3x3_reduce"
  type: "ReLU"
  bottom: "inception_4c/3x3_reduce"
  top: "inception_4c/3x3_reduce"
}
layer {
  name: "inception_4c/3x3"
  type: "Convolution"
  bottom: "inception_4c/3x3_reduce"
  top: "inception_4c/3x3"
  param {
    lr_mult: 1
    decay_mult: 1
  }
  param {
    lr_mult: 2
    decay_mult: 0
  }
  convolution_param {
    num_output: 256
    pad: 1
    kernel_size: 3
    weight_filler {
      type: "xavier"
      std: 0.03
    }
    bias_filler {
      type: "constant"
      value: 0.2
    }
  }
}
layer {
  name: "inception_4c/relu_3x3"
  type: "ReLU"
  bottom: "inception_4c/3x3"
  top: "inception_4c/3x3"
}
layer {
  name: "inception_4c/5x5_reduce"
  type: "Convolution"
  bottom: "inception_4b/output"
  top: "inception_4c/5x5_reduce"
  param {
    lr_mult: 1
    decay_mult: 1
  }
  param {
    lr_mult: 2
    decay_mult: 0
  }
  convolution_param {
    num_output: 24
    kernel_size: 1
    weight_filler {
      type: "xavier"
      std: 0.2
    }
    bias_filler {
      type: "constant"
      value: 0.2
    }
  }
}
layer {
  name: "inception_4c/relu_5x5_reduce"
  type: "ReLU"
  bottom: "inception_4c/5x5_reduce"
  top: "inception_4c/5x5_reduce"
}
layer {
  name: "inception_4c/5x5"
  type: "Convolution"
  bottom: "inception_4c/5x5_reduce"
  top: "inception_4c/5x5"
  param {
    lr_mult: 1
    decay_mult: 1
  }
  param {
    lr_mult: 2
    decay_mult: 0
  }
  convolution_param {
    num_output: 64
    pad: 2
    kernel_size: 5
    weight_filler {
      type: "xavier"
      std: 0.03
    }
    bias_filler {
      type: "constant"
      value: 0.2
    }
  }
}
layer {
  name: "inception_4c/relu_5x5"
  type: "ReLU"
  bottom: "inception_4c/5x5"
  top: "inception_4c/5x5"
}
layer {
  name: "inception_4c/pool"
  type: "Pooling"
  bottom: "inception_4b/output"
  top: "inception_4c/pool"
  pooling_param {
    pool: MAX
    kernel_size: 3
    stride: 1
    pad: 1
  }
}
layer {
  name: "inception_4c/pool_proj"
  type: "Convolution"
  bottom: "inception_4c/pool"
  top: "inception_4c/pool_proj"
  param {
    lr_mult: 1
    decay_mult: 1
  }
  param {
    lr_mult: 2
    decay_mult: 0
  }
  convolution_param {
    num_output: 64
    kernel_size: 1
    weight_filler {
      type: "xavier"
      std: 0.1
    }
    bias_filler {
      type: "constant"
      value: 0.2
    }
  }
}
layer {
  name: "inception_4c/relu_pool_proj"
  type: "ReLU"
  bottom: "inception_4c/pool_proj"
  top: "inception_4c/pool_proj"
}
layer {
  name: "inception_4c/output"
  type: "Concat"
  bottom: "inception_4c/1x1"
  bottom: "inception_4c/3x3"
  bottom: "inception_4c/5x5"
  bottom: "inception_4c/pool_proj"
  top: "inception_4c/output"
}
layer {
  name: "inception_4d/1x1"
  type: "Convolution"
  bottom: "inception_4c/output"
  top: "inception_4d/1x1"
  param {
    lr_mult: 1
    decay_mult: 1
  }
  param {
    lr_mult: 2
    decay_mult: 0
  }
  convolution_param {
    num_output: 112
    kernel_size: 1
    weight_filler {
      type: "xavier"
      std: 0.03
    }
    bias_filler {
      type: "constant"
      value: 0.2
    }
  }
}
layer {
  name: "inception_4d/relu_1x1"
  type: "ReLU"
  bottom: "inception_4d/1x1"
  top: "inception_4d/1x1"
}
layer {
  name: "inception_4d/3x3_reduce"
  type: "Convolution"
  bottom: "inception_4c/output"
  top: "inception_4d/3x3_reduce"
  param {
    lr_mult: 1
    decay_mult: 1
  }
  param {
    lr_mult: 2
    decay_mult: 0
  }
  convolution_param {
    num_output: 144
    kernel_size: 1
    weight_filler {
      type: "xavier"
      std: 0.09
    }
    bias_filler {
      type: "constant"
      value: 0.2
    }
  }
}
layer {
  name: "inception_4d/relu_3x3_reduce"
  type: "ReLU"
  bottom: "inception_4d/3x3_reduce"
  top: "inception_4d/3x3_reduce"
}
layer {
  name: "inception_4d/3x3"
  type: "Convolution"
  bottom: "inception_4d/3x3_reduce"
  top: "inception_4d/3x3"
  param {
    lr_mult: 1
    decay_mult: 1
  }
  param {
    lr_mult: 2
    decay_mult: 0
  }
  convolution_param {
    num_output: 288
    pad: 1
    kernel_size: 3
    weight_filler {
      type: "xavier"
      std: 0.03
    }
    bias_filler {
      type: "constant"
      value: 0.2
    }
  }
}
layer {
  name: "inception_4d/relu_3x3"
  type: "ReLU"
  bottom: "inception_4d/3x3"
  top: "inception_4d/3x3"
}
layer {
  name: "inception_4d/5x5_reduce"
  type: "Convolution"
  bottom: "inception_4c/output"
  top: "inception_4d/5x5_reduce"
  param {
    lr_mult: 1
    decay_mult: 1
  }
  param {
    lr_mult: 2
    decay_mult: 0
  }
  convolution_param {
    num_output: 32
    kernel_size: 1
    weight_filler {
      type: "xavier"
      std: 0.2
    }
    bias_filler {
      type: "constant"
      value: 0.2
    }
  }
}
layer {
  name: "inception_4d/relu_5x5_reduce"
  type: "ReLU"
  bottom: "inception_4d/5x5_reduce"
  top: "inception_4d/5x5_reduce"
}
layer {
  name: "inception_4d/5x5"
  type: "Convolution"
  bottom: "inception_4d/5x5_reduce"
  top: "inception_4d/5x5"
  param {
    lr_mult: 1
    decay_mult: 1
  }
  param {
    lr_mult: 2
    decay_mult: 0
  }
  convolution_param {
    num_output: 64
    pad: 2
    kernel_size: 5
    weight_filler {
      type: "xavier"
      std: 0.03
    }
    bias_filler {
      type: "constant"
      value: 0.2
    }
  }
}
layer {
  name: "inception_4d/relu_5x5"
  type: "ReLU"
  bottom: "inception_4d/5x5"
  top: "inception_4d/5x5"
}
layer {
  name: "inception_4d/pool"
  type: "Pooling"
  bottom: "inception_4c/output"
  top: "inception_4d/pool"
  pooling_param {
    pool: MAX
    kernel_size: 3
    stride: 1
    pad: 1
  }
}
layer {
  name: "inception_4d/pool_proj"
  type: "Convolution"
  bottom: "inception_4d/pool"
  top: "inception_4d/pool_proj"
  param {
    lr_mult: 1
    decay_mult: 1
  }
  param {
    lr_mult: 2
    decay_mult: 0
  }
  convolution_param {
    num_output: 64
    kernel_size: 1
    weight_filler {
      type: "xavier"
      std: 0.1
    }
    bias_filler {
      type: "constant"
      value: 0.2
    }
  }
}
layer {
  name: "inception_4d/relu_pool_proj"
  type: "ReLU"
  bottom: "inception_4d/pool_proj"
  top: "inception_4d/pool_proj"
}
layer {
  name: "inception_4d/output"
  type: "Concat"
  bottom: "inception_4d/1x1"
  bottom: "inception_4d/3x3"
  bottom: "inception_4d/5x5"
  bottom: "inception_4d/pool_proj"
  top: "inception_4d/output"
}
layer {
  name: "loss2/ave_pool"
  type: "Pooling"
  bottom: "inception_4d/output"
  top: "loss2/ave_pool"
  pooling_param {
    pool: AVE
    kernel_size: 5
    stride: 3
  }
}
layer {
  name: "loss2/conv"
  type: "Convolution"
  bottom: "loss2/ave_pool"
  top: "loss2/conv"
  param {
    lr_mult: 1
    decay_mult: 1
  }
  param {
    lr_mult: 2
    decay_mult: 0
  }
  convolution_param {
    num_output: 128
    kernel_size: 1
    weight_filler {
      type: "xavier"
      std: 0.08
    }
    bias_filler {
      type: "constant"
      value: 0.2
    }
  }
}
layer {
  name: "loss2/relu_conv"
  type: "ReLU"
  bottom: "loss2/conv"
  top: "loss2/conv"
}
layer {
  name: "loss2/fc"
  type: "InnerProduct"
  bottom: "loss2/conv"
  top: "loss2/fc"
  param {
    lr_mult: 1
    decay_mult: 1
  }
  param {
    lr_mult: 2
    decay_mult: 0
  }
  inner_product_param {
    num_output: 1024
    weight_filler {
      type: "xavier"
      std: 0.02
    }
    bias_filler {
      type: "constant"
      value: 0.2
    }
  }
}
layer {
  name: "loss2/relu_fc"
  type: "ReLU"
  bottom: "loss2/fc"
  top: "loss2/fc"
}
layer {
  name: "loss2/drop_fc"
  type: "Dropout"
  bottom: "loss2/fc"
  top: "loss2/fc"
  dropout_param {
    dropout_ratio: 0.7
  }
}
layer {
  name: "loss2/classifier_plantvillage"
  type: "InnerProduct"
  bottom: "loss2/fc"
  top: "loss2/classifier_plantvillage"
  param {
    lr_mult: 1
    decay_mult: 1
  }
  param {
    lr_mult: 2
    decay_mult: 0
  }
  inner_product_param {
    num_output: 38
    weight_filler {
      type: "xavier"
      std: 0.0009765625
    }
    bias_filler {
      type: "constant"
      value: 0
    }
  }
}
layer {
  name: "inception_4e/1x1"
  type: "Convolution"
  bottom: "inception_4d/output"
  top: "inception_4e/1x1"
  param {
    lr_mult: 1
    decay_mult: 1
  }
  param {
    lr_mult: 2
    decay_mult: 0
  }
  convolution_param {
    num_output: 256
    kernel_size: 1
    weight_filler {
      type: "xavier"
      std: 0.03
    }
    bias_filler {
      type: "constant"
      value: 0.2
    }
  }
}
layer {
  name: "inception_4e/relu_1x1"
  type: "ReLU"
  bottom: "inception_4e/1x1"
  top: "inception_4e/1x1"
}
layer {
  name: "inception_4e/3x3_reduce"
  type: "Convolution"
  bottom: "inception_4d/output"
  top: "inception_4e/3x3_reduce"
  param {
    lr_mult: 1
    decay_mult: 1
  }
  param {
    lr_mult: 2
    decay_mult: 0
  }
  convolution_param {
    num_output: 160
    kernel_size: 1
    weight_filler {
      type: "xavier"
      std: 0.09
    }
    bias_filler {
      type: "constant"
      value: 0.2
    }
  }
}
layer {
  name: "inception_4e/relu_3x3_reduce"
  type: "ReLU"
  bottom: "inception_4e/3x3_reduce"
  top: "inception_4e/3x3_reduce"
}
layer {
  name: "inception_4e/3x3"
  type: "Convolution"
  bottom: "inception_4e/3x3_reduce"
  top: "inception_4e/3x3"
  param {
    lr_mult: 1
    decay_mult: 1
  }
  param {
    lr_mult: 2
    decay_mult: 0
  }
  convolution_param {
    num_output: 320
    pad: 1
    kernel_size: 3
    weight_filler {
      type: "xavier"
      std: 0.03
    }
    bias_filler {
      type: "constant"
      value: 0.2
    }
  }
}
layer {
  name: "inception_4e/relu_3x3"
  type: "ReLU"
  bottom: "inception_4e/3x3"
  top: "inception_4e/3x3"
}
layer {
  name: "inception_4e/5x5_reduce"
  type: "Convolution"
  bottom: "inception_4d/output"
  top: "inception_4e/5x5_reduce"
  param {
    lr_mult: 1
    decay_mult: 1
  }
  param {
    lr_mult: 2
    decay_mult: 0
  }
  convolution_param {
    num_output: 32
    kernel_size: 1
    weight_filler {
      type: "xavier"
      std: 0.2
    }
    bias_filler {
      type: "constant"
      value: 0.2
    }
  }
}
layer {
  name: "inception_4e/relu_5x5_reduce"
  type: "ReLU"
  bottom: "inception_4e/5x5_reduce"
  top: "inception_4e/5x5_reduce"
}
layer {
  name: "inception_4e/5x5"
  type: "Convolution"
  bottom: "inception_4e/5x5_reduce"
  top: "inception_4e/5x5"
  p
I0403 15:06:03.899538 31131 layer_factory.hpp:77] Creating layer data
I0403 15:06:03.900223 31131 net.cpp:91] Creating Layer data
I0403 15:06:03.900257 31131 net.cpp:399] data -> data
I0403 15:06:03.900332 31131 net.cpp:399] data -> label
I0403 15:06:03.900372 31131 data_transformer.cpp:25] Loading mean file from: /home/mohanty/data/final_dataset/lmdb/color-60-40/mean.binaryproto
I0403 15:06:03.902492 31139 db_lmdb.cpp:38] Opened lmdb /home/mohanty/data/final_dataset/lmdb/color-60-40/test_db
I0403 15:06:03.915138 31131 data_layer.cpp:41] output data size: 24,3,224,224
I0403 15:06:03.947021 31131 net.cpp:141] Setting up data
I0403 15:06:03.947080 31131 net.cpp:148] Top shape: 24 3 224 224 (3612672)
I0403 15:06:03.947105 31131 net.cpp:148] Top shape: 24 (24)
I0403 15:06:03.947121 31131 net.cpp:156] Memory required for data: 14450784
I0403 15:06:03.947150 31131 layer_factory.hpp:77] Creating layer label_data_1_split
I0403 15:06:03.947177 31131 net.cpp:91] Creating Layer label_data_1_split
I0403 15:06:03.947198 31131 net.cpp:425] label_data_1_split <- label
I0403 15:06:03.947232 31131 net.cpp:399] label_data_1_split -> label_data_1_split_0
I0403 15:06:03.947260 31131 net.cpp:399] label_data_1_split -> label_data_1_split_1
I0403 15:06:03.947286 31131 net.cpp:399] label_data_1_split -> label_data_1_split_2
I0403 15:06:03.947310 31131 net.cpp:399] label_data_1_split -> label_data_1_split_3
I0403 15:06:03.947335 31131 net.cpp:399] label_data_1_split -> label_data_1_split_4
I0403 15:06:03.947355 31131 net.cpp:399] label_data_1_split -> label_data_1_split_5
I0403 15:06:03.947376 31131 net.cpp:399] label_data_1_split -> label_data_1_split_6
I0403 15:06:03.947398 31131 net.cpp:399] label_data_1_split -> label_data_1_split_7
I0403 15:06:03.947419 31131 net.cpp:399] label_data_1_split -> label_data_1_split_8
I0403 15:06:03.947440 31131 net.cpp:399] label_data_1_split -> label_data_1_split_9
I0403 15:06:03.947559 31131 net.cpp:141] Setting up label_data_1_split
I0403 15:06:03.947587 31131 net.cpp:148] Top shape: 24 (24)
I0403 15:06:03.947605 31131 net.cpp:148] Top shape: 24 (24)
I0403 15:06:03.947623 31131 net.cpp:148] Top shape: 24 (24)
I0403 15:06:03.947639 31131 net.cpp:148] Top shape: 24 (24)
I0403 15:06:03.947656 31131 net.cpp:148] Top shape: 24 (24)
I0403 15:06:03.947672 31131 net.cpp:148] Top shape: 24 (24)
I0403 15:06:03.947687 31131 net.cpp:148] Top shape: 24 (24)
I0403 15:06:03.947705 31131 net.cpp:148] Top shape: 24 (24)
I0403 15:06:03.947721 31131 net.cpp:148] Top shape: 24 (24)
I0403 15:06:03.947738 31131 net.cpp:148] Top shape: 24 (24)
I0403 15:06:03.947775 31131 net.cpp:156] Memory required for data: 14451744
I0403 15:06:03.947793 31131 layer_factory.hpp:77] Creating layer conv1/7x7_s2
I0403 15:06:03.947826 31131 net.cpp:91] Creating Layer conv1/7x7_s2
I0403 15:06:03.947846 31131 net.cpp:425] conv1/7x7_s2 <- data
I0403 15:06:03.947870 31131 net.cpp:399] conv1/7x7_s2 -> conv1/7x7_s2
I0403 15:06:04.092458 31131 net.cpp:141] Setting up conv1/7x7_s2
I0403 15:06:04.092535 31131 net.cpp:148] Top shape: 24 64 112 112 (19267584)
I0403 15:06:04.092553 31131 net.cpp:156] Memory required for data: 91522080
I0403 15:06:04.092586 31131 layer_factory.hpp:77] Creating layer conv1/relu_7x7
I0403 15:06:04.092613 31131 net.cpp:91] Creating Layer conv1/relu_7x7
I0403 15:06:04.092633 31131 net.cpp:425] conv1/relu_7x7 <- conv1/7x7_s2
I0403 15:06:04.092653 31131 net.cpp:386] conv1/relu_7x7 -> conv1/7x7_s2 (in-place)
I0403 15:06:04.092914 31131 net.cpp:141] Setting up conv1/relu_7x7
I0403 15:06:04.092959 31131 net.cpp:148] Top shape: 24 64 112 112 (19267584)
I0403 15:06:04.092978 31131 net.cpp:156] Memory required for data: 168592416
I0403 15:06:04.092993 31131 layer_factory.hpp:77] Creating layer pool1/3x3_s2
I0403 15:06:04.093019 31131 net.cpp:91] Creating Layer pool1/3x3_s2
I0403 15:06:04.093037 31131 net.cpp:425] pool1/3x3_s2 <- conv1/7x7_s2
I0403 15:06:04.093065 31131 net.cpp:399] pool1/3x3_s2 -> pool1/3x3_s2
I0403 15:06:04.093140 31131 net.cpp:141] Setting up pool1/3x3_s2
I0403 15:06:04.093168 31131 net.cpp:148] Top shape: 24 64 56 56 (4816896)
I0403 15:06:04.093183 31131 net.cpp:156] Memory required for data: 187860000
I0403 15:06:04.093199 31131 layer_factory.hpp:77] Creating layer pool1/norm1
I0403 15:06:04.093224 31131 net.cpp:91] Creating Layer pool1/norm1
I0403 15:06:04.093242 31131 net.cpp:425] pool1/norm1 <- pool1/3x3_s2
I0403 15:06:04.093261 31131 net.cpp:399] pool1/norm1 -> pool1/norm1
I0403 15:06:04.093557 31131 net.cpp:141] Setting up pool1/norm1
I0403 15:06:04.093588 31131 net.cpp:148] Top shape: 24 64 56 56 (4816896)
I0403 15:06:04.093605 31131 net.cpp:156] Memory required for data: 207127584
I0403 15:06:04.093621 31131 layer_factory.hpp:77] Creating layer conv2/3x3_reduce
I0403 15:06:04.093647 31131 net.cpp:91] Creating Layer conv2/3x3_reduce
I0403 15:06:04.093663 31131 net.cpp:425] conv2/3x3_reduce <- pool1/norm1
I0403 15:06:04.093683 31131 net.cpp:399] conv2/3x3_reduce -> conv2/3x3_reduce
I0403 15:06:04.095136 31131 net.cpp:141] Setting up conv2/3x3_reduce
I0403 15:06:04.095177 31131 net.cpp:148] Top shape: 24 64 56 56 (4816896)
I0403 15:06:04.095194 31131 net.cpp:156] Memory required for data: 226395168
I0403 15:06:04.095217 31131 layer_factory.hpp:77] Creating layer conv2/relu_3x3_reduce
I0403 15:06:04.095240 31131 net.cpp:91] Creating Layer conv2/relu_3x3_reduce
I0403 15:06:04.095258 31131 net.cpp:425] conv2/relu_3x3_reduce <- conv2/3x3_reduce
I0403 15:06:04.095276 31131 net.cpp:386] conv2/relu_3x3_reduce -> conv2/3x3_reduce (in-place)
I0403 15:06:04.095639 31131 net.cpp:141] Setting up conv2/relu_3x3_reduce
I0403 15:06:04.095669 31131 net.cpp:148] Top shape: 24 64 56 56 (4816896)
I0403 15:06:04.095686 31131 net.cpp:156] Memory required for data: 245662752
I0403 15:06:04.095702 31131 layer_factory.hpp:77] Creating layer conv2/3x3
I0403 15:06:04.095729 31131 net.cpp:91] Creating Layer conv2/3x3
I0403 15:06:04.095749 31131 net.cpp:425] conv2/3x3 <- conv2/3x3_reduce
I0403 15:06:04.095772 31131 net.cpp:399] conv2/3x3 -> conv2/3x3
I0403 15:06:04.098214 31131 net.cpp:141] Setting up conv2/3x3
I0403 15:06:04.098248 31131 net.cpp:148] Top shape: 24 192 56 56 (14450688)
I0403 15:06:04.098266 31131 net.cpp:156] Memory required for data: 303465504
I0403 15:06:04.098294 31131 layer_factory.hpp:77] Creating layer conv2/relu_3x3
I0403 15:06:04.098318 31131 net.cpp:91] Creating Layer conv2/relu_3x3
I0403 15:06:04.098336 31131 net.cpp:425] conv2/relu_3x3 <- conv2/3x3
I0403 15:06:04.098356 31131 net.cpp:386] conv2/relu_3x3 -> conv2/3x3 (in-place)
I0403 15:06:04.098543 31131 net.cpp:141] Setting up conv2/relu_3x3
I0403 15:06:04.098590 31131 net.cpp:148] Top shape: 24 192 56 56 (14450688)
I0403 15:06:04.098639 31131 net.cpp:156] Memory required for data: 361268256
I0403 15:06:04.098657 31131 layer_factory.hpp:77] Creating layer conv2/norm2
I0403 15:06:04.098680 31131 net.cpp:91] Creating Layer conv2/norm2
I0403 15:06:04.098697 31131 net.cpp:425] conv2/norm2 <- conv2/3x3
I0403 15:06:04.098719 31131 net.cpp:399] conv2/norm2 -> conv2/norm2
I0403 15:06:04.099041 31131 net.cpp:141] Setting up conv2/norm2
I0403 15:06:04.099073 31131 net.cpp:148] Top shape: 24 192 56 56 (14450688)
I0403 15:06:04.099092 31131 net.cpp:156] Memory required for data: 419071008
I0403 15:06:04.099107 31131 layer_factory.hpp:77] Creating layer pool2/3x3_s2
I0403 15:06:04.099125 31131 net.cpp:91] Creating Layer pool2/3x3_s2
I0403 15:06:04.099143 31131 net.cpp:425] pool2/3x3_s2 <- conv2/norm2
I0403 15:06:04.099167 31131 net.cpp:399] pool2/3x3_s2 -> pool2/3x3_s2
I0403 15:06:04.099223 31131 net.cpp:141] Setting up pool2/3x3_s2
I0403 15:06:04.099251 31131 net.cpp:148] Top shape: 24 192 28 28 (3612672)
I0403 15:06:04.099269 31131 net.cpp:156] Memory required for data: 433521696
I0403 15:06:04.099289 31131 layer_factory.hpp:77] Creating layer pool2/3x3_s2_pool2/3x3_s2_0_split
I0403 15:06:04.099310 31131 net.cpp:91] Creating Layer pool2/3x3_s2_pool2/3x3_s2_0_split
I0403 15:06:04.099328 31131 net.cpp:425] pool2/3x3_s2_pool2/3x3_s2_0_split <- pool2/3x3_s2
I0403 15:06:04.099346 31131 net.cpp:399] pool2/3x3_s2_pool2/3x3_s2_0_split -> pool2/3x3_s2_pool2/3x3_s2_0_split_0
I0403 15:06:04.099369 31131 net.cpp:399] pool2/3x3_s2_pool2/3x3_s2_0_split -> pool2/3x3_s2_pool2/3x3_s2_0_split_1
I0403 15:06:04.099393 31131 net.cpp:399] pool2/3x3_s2_pool2/3x3_s2_0_split -> pool2/3x3_s2_pool2/3x3_s2_0_split_2
I0403 15:06:04.099417 31131 net.cpp:399] pool2/3x3_s2_pool2/3x3_s2_0_split -> pool2/3x3_s2_pool2/3x3_s2_0_split_3
I0403 15:06:04.099493 31131 net.cpp:141] Setting up pool2/3x3_s2_pool2/3x3_s2_0_split
I0403 15:06:04.099521 31131 net.cpp:148] Top shape: 24 192 28 28 (3612672)
I0403 15:06:04.099539 31131 net.cpp:148] Top shape: 24 192 28 28 (3612672)
I0403 15:06:04.099555 31131 net.cpp:148] Top shape: 24 192 28 28 (3612672)
I0403 15:06:04.099573 31131 net.cpp:148] Top shape: 24 192 28 28 (3612672)
I0403 15:06:04.099588 31131 net.cpp:156] Memory required for data: 491324448
I0403 15:06:04.099604 31131 layer_factory.hpp:77] Creating layer inception_3a/1x1
I0403 15:06:04.099629 31131 net.cpp:91] Creating Layer inception_3a/1x1
I0403 15:06:04.099648 31131 net.cpp:425] inception_3a/1x1 <- pool2/3x3_s2_pool2/3x3_s2_0_split_0
I0403 15:06:04.099670 31131 net.cpp:399] inception_3a/1x1 -> inception_3a/1x1
I0403 15:06:04.101289 31131 net.cpp:141] Setting up inception_3a/1x1
I0403 15:06:04.101322 31131 net.cpp:148] Top shape: 24 64 28 28 (1204224)
I0403 15:06:04.101341 31131 net.cpp:156] Memory required for data: 496141344
I0403 15:06:04.101361 31131 layer_factory.hpp:77] Creating layer inception_3a/relu_1x1
I0403 15:06:04.101382 31131 net.cpp:91] Creating Layer inception_3a/relu_1x1
I0403 15:06:04.101398 31131 net.cpp:425] inception_3a/relu_1x1 <- inception_3a/1x1
I0403 15:06:04.101420 31131 net.cpp:386] inception_3a/relu_1x1 -> inception_3a/1x1 (in-place)
I0403 15:06:04.101611 31131 net.cpp:141] Setting up inception_3a/relu_1x1
I0403 15:06:04.101639 31131 net.cpp:148] Top shape: 24 64 28 28 (1204224)
I0403 15:06:04.101655 31131 net.cpp:156] Memory required for data: 500958240
I0403 15:06:04.101670 31131 layer_factory.hpp:77] Creating layer inception_3a/3x3_reduce
I0403 15:06:04.101694 31131 net.cpp:91] Creating Layer inception_3a/3x3_reduce
I0403 15:06:04.101713 31131 net.cpp:425] inception_3a/3x3_reduce <- pool2/3x3_s2_pool2/3x3_s2_0_split_1
I0403 15:06:04.101735 31131 net.cpp:399] inception_3a/3x3_reduce -> inception_3a/3x3_reduce
I0403 15:06:04.103545 31131 net.cpp:141] Setting up inception_3a/3x3_reduce
I0403 15:06:04.103579 31131 net.cpp:148] Top shape: 24 96 28 28 (1806336)
I0403 15:06:04.103595 31131 net.cpp:156] Memory required for data: 508183584
I0403 15:06:04.103620 31131 layer_factory.hpp:77] Creating layer inception_3a/relu_3x3_reduce
I0403 15:06:04.103660 31131 net.cpp:91] Creating Layer inception_3a/relu_3x3_reduce
I0403 15:06:04.103682 31131 net.cpp:425] inception_3a/relu_3x3_reduce <- inception_3a/3x3_reduce
I0403 15:06:04.103700 31131 net.cpp:386] inception_3a/relu_3x3_reduce -> inception_3a/3x3_reduce (in-place)
I0403 15:06:04.103896 31131 net.cpp:141] Setting up inception_3a/relu_3x3_reduce
I0403 15:06:04.103926 31131 net.cpp:148] Top shape: 24 96 28 28 (1806336)
I0403 15:06:04.103945 31131 net.cpp:156] Memory required for data: 515408928
I0403 15:06:04.103960 31131 layer_factory.hpp:77] Creating layer inception_3a/3x3
I0403 15:06:04.103986 31131 net.cpp:91] Creating Layer inception_3a/3x3
I0403 15:06:04.104004 31131 net.cpp:425] inception_3a/3x3 <- inception_3a/3x3_reduce
I0403 15:06:04.104027 31131 net.cpp:399] inception_3a/3x3 -> inception_3a/3x3
I0403 15:06:04.105808 31131 net.cpp:141] Setting up inception_3a/3x3
I0403 15:06:04.105839 31131 net.cpp:148] Top shape: 24 128 28 28 (2408448)
I0403 15:06:04.105857 31131 net.cpp:156] Memory required for data: 525042720
I0403 15:06:04.105877 31131 layer_factory.hpp:77] Creating layer inception_3a/relu_3x3
I0403 15:06:04.105901 31131 net.cpp:91] Creating Layer inception_3a/relu_3x3
I0403 15:06:04.105919 31131 net.cpp:425] inception_3a/relu_3x3 <- inception_3a/3x3
I0403 15:06:04.105939 31131 net.cpp:386] inception_3a/relu_3x3 -> inception_3a/3x3 (in-place)
I0403 15:06:04.106237 31131 net.cpp:141] Setting up inception_3a/relu_3x3
I0403 15:06:04.106266 31131 net.cpp:148] Top shape: 24 128 28 28 (2408448)
I0403 15:06:04.106282 31131 net.cpp:156] Memory required for data: 534676512
I0403 15:06:04.106303 31131 layer_factory.hpp:77] Creating layer inception_3a/5x5_reduce
I0403 15:06:04.106328 31131 net.cpp:91] Creating Layer inception_3a/5x5_reduce
I0403 15:06:04.106346 31131 net.cpp:425] inception_3a/5x5_reduce <- pool2/3x3_s2_pool2/3x3_s2_0_split_2
I0403 15:06:04.106369 31131 net.cpp:399] inception_3a/5x5_reduce -> inception_3a/5x5_reduce
I0403 15:06:04.107405 31131 net.cpp:141] Setting up inception_3a/5x5_reduce
I0403 15:06:04.107436 31131 net.cpp:148] Top shape: 24 16 28 28 (301056)
I0403 15:06:04.107453 31131 net.cpp:156] Memory required for data: 535880736
I0403 15:06:04.107473 31131 layer_factory.hpp:77] Creating layer inception_3a/relu_5x5_reduce
I0403 15:06:04.107496 31131 net.cpp:91] Creating Layer inception_3a/relu_5x5_reduce
I0403 15:06:04.107514 31131 net.cpp:425] inception_3a/relu_5x5_reduce <- inception_3a/5x5_reduce
I0403 15:06:04.107533 31131 net.cpp:386] inception_3a/relu_5x5_reduce -> inception_3a/5x5_reduce (in-place)
I0403 15:06:04.107856 31131 net.cpp:141] Setting up inception_3a/relu_5x5_reduce
I0403 15:06:04.107899 31131 net.cpp:148] Top shape: 24 16 28 28 (301056)
I0403 15:06:04.107918 31131 net.cpp:156] Memory required for data: 537084960
I0403 15:06:04.107933 31131 layer_factory.hpp:77] Creating layer inception_3a/5x5
I0403 15:06:04.107959 31131 net.cpp:91] Creating Layer inception_3a/5x5
I0403 15:06:04.107977 31131 net.cpp:425] inception_3a/5x5 <- inception_3a/5x5_reduce
I0403 15:06:04.107997 31131 net.cpp:399] inception_3a/5x5 -> inception_3a/5x5
I0403 15:06:04.109035 31131 net.cpp:141] Setting up inception_3a/5x5
I0403 15:06:04.109079 31131 net.cpp:148] Top shape: 24 32 28 28 (602112)
I0403 15:06:04.109125 31131 net.cpp:156] Memory required for data: 539493408
I0403 15:06:04.109145 31131 layer_factory.hpp:77] Creating layer inception_3a/relu_5x5
I0403 15:06:04.109165 31131 net.cpp:91] Creating Layer inception_3a/relu_5x5
I0403 15:06:04.109182 31131 net.cpp:425] inception_3a/relu_5x5 <- inception_3a/5x5
I0403 15:06:04.109202 31131 net.cpp:386] inception_3a/relu_5x5 -> inception_3a/5x5 (in-place)
I0403 15:06:04.109385 31131 net.cpp:141] Setting up inception_3a/relu_5x5
I0403 15:06:04.109412 31131 net.cpp:148] Top shape: 24 32 28 28 (602112)
I0403 15:06:04.109428 31131 net.cpp:156] Memory required for data: 541901856
I0403 15:06:04.109444 31131 layer_factory.hpp:77] Creating layer inception_3a/pool
I0403 15:06:04.109467 31131 net.cpp:91] Creating Layer inception_3a/pool
I0403 15:06:04.109483 31131 net.cpp:425] inception_3a/pool <- pool2/3x3_s2_pool2/3x3_s2_0_split_3
I0403 15:06:04.109519 31131 net.cpp:399] inception_3a/pool -> inception_3a/pool
I0403 15:06:04.109603 31131 net.cpp:141] Setting up inception_3a/pool
I0403 15:06:04.109638 31131 net.cpp:148] Top shape: 24 192 28 28 (3612672)
I0403 15:06:04.109680 31131 net.cpp:156] Memory required for data: 556352544
I0403 15:06:04.109716 31131 layer_factory.hpp:77] Creating layer inception_3a/pool_proj
I0403 15:06:04.109760 31131 net.cpp:91] Creating Layer inception_3a/pool_proj
I0403 15:06:04.109794 31131 net.cpp:425] inception_3a/pool_proj <- inception_3a/pool
I0403 15:06:04.109848 31131 net.cpp:399] inception_3a/pool_proj -> inception_3a/pool_proj
I0403 15:06:04.110848 31131 net.cpp:141] Setting up inception_3a/pool_proj
I0403 15:06:04.110894 31131 net.cpp:148] Top shape: 24 32 28 28 (602112)
I0403 15:06:04.110911 31131 net.cpp:156] Memory required for data: 558760992
I0403 15:06:04.110935 31131 layer_factory.hpp:77] Creating layer inception_3a/relu_pool_proj
I0403 15:06:04.110960 31131 net.cpp:91] Creating Layer inception_3a/relu_pool_proj
I0403 15:06:04.110978 31131 net.cpp:425] inception_3a/relu_pool_proj <- inception_3a/pool_proj
I0403 15:06:04.110997 31131 net.cpp:386] inception_3a/relu_pool_proj -> inception_3a/pool_proj (in-place)
I0403 15:06:04.111310 31131 net.cpp:141] Setting up inception_3a/relu_pool_proj
I0403 15:06:04.111337 31131 net.cpp:148] Top shape: 24 32 28 28 (602112)
I0403 15:06:04.111354 31131 net.cpp:156] Memory required for data: 561169440
I0403 15:06:04.111371 31131 layer_factory.hpp:77] Creating layer inception_3a/output
I0403 15:06:04.111388 31131 net.cpp:91] Creating Layer inception_3a/output
I0403 15:06:04.111404 31131 net.cpp:425] inception_3a/output <- inception_3a/1x1
I0403 15:06:04.111423 31131 net.cpp:425] inception_3a/output <- inception_3a/3x3
I0403 15:06:04.111439 31131 net.cpp:425] inception_3a/output <- inception_3a/5x5
I0403 15:06:04.111456 31131 net.cpp:425] inception_3a/output <- inception_3a/pool_proj
I0403 15:06:04.111477 31131 net.cpp:399] inception_3a/output -> inception_3a/output
I0403 15:06:04.111527 31131 net.cpp:141] Setting up inception_3a/output
I0403 15:06:04.111552 31131 net.cpp:148] Top shape: 24 256 28 28 (4816896)
I0403 15:06:04.111569 31131 net.cpp:156] Memory required for data: 580437024
I0403 15:06:04.111585 31131 layer_factory.hpp:77] Creating layer inception_3a/output_inception_3a/output_0_split
I0403 15:06:04.111604 31131 net.cpp:91] Creating Layer inception_3a/output_inception_3a/output_0_split
I0403 15:06:04.111621 31131 net.cpp:425] inception_3a/output_inception_3a/output_0_split <- inception_3a/output
I0403 15:06:04.111642 31131 net.cpp:399] inception_3a/output_inception_3a/output_0_split -> inception_3a/output_inception_3a/output_0_split_0
I0403 15:06:04.111665 31131 net.cpp:399] inception_3a/output_inception_3a/output_0_split -> inception_3a/output_inception_3a/output_0_split_1
I0403 15:06:04.111687 31131 net.cpp:399] inception_3a/output_inception_3a/output_0_split -> inception_3a/output_inception_3a/output_0_split_2
I0403 15:06:04.111709 31131 net.cpp:399] inception_3a/output_inception_3a/output_0_split -> inception_3a/output_inception_3a/output_0_split_3
I0403 15:06:04.111788 31131 net.cpp:141] Setting up inception_3a/output_inception_3a/output_0_split
I0403 15:06:04.111812 31131 net.cpp:148] Top shape: 24 256 28 28 (4816896)
I0403 15:06:04.111831 31131 net.cpp:148] Top shape: 24 256 28 28 (4816896)
I0403 15:06:04.111847 31131 net.cpp:148] Top shape: 24 256 28 28 (4816896)
I0403 15:06:04.111863 31131 net.cpp:148] Top shape: 24 256 28 28 (4816896)
I0403 15:06:04.111877 31131 net.cpp:156] Memory required for data: 657507360
I0403 15:06:04.111892 31131 layer_factory.hpp:77] Creating layer inception_3b/1x1
I0403 15:06:04.111917 31131 net.cpp:91] Creating Layer inception_3b/1x1
I0403 15:06:04.111934 31131 net.cpp:425] inception_3b/1x1 <- inception_3a/output_inception_3a/output_0_split_0
I0403 15:06:04.111956 31131 net.cpp:399] inception_3b/1x1 -> inception_3b/1x1
I0403 15:06:04.113144 31131 net.cpp:141] Setting up inception_3b/1x1
I0403 15:06:04.113188 31131 net.cpp:148] Top shape: 24 128 28 28 (2408448)
I0403 15:06:04.113205 31131 net.cpp:156] Memory required for data: 667141152
I0403 15:06:04.113224 31131 layer_factory.hpp:77] Creating layer inception_3b/relu_1x1
I0403 15:06:04.113245 31131 net.cpp:91] Creating Layer inception_3b/relu_1x1
I0403 15:06:04.113265 31131 net.cpp:425] inception_3b/relu_1x1 <- inception_3b/1x1
I0403 15:06:04.113298 31131 net.cpp:386] inception_3b/relu_1x1 -> inception_3b/1x1 (in-place)
I0403 15:06:04.113488 31131 net.cpp:141] Setting up inception_3b/relu_1x1
I0403 15:06:04.113526 31131 net.cpp:148] Top shape: 24 128 28 28 (2408448)
I0403 15:06:04.113551 31131 net.cpp:156] Memory required for data: 676774944
I0403 15:06:04.113567 31131 layer_factory.hpp:77] Creating layer inception_3b/3x3_reduce
I0403 15:06:04.113591 31131 net.cpp:91] Creating Layer inception_3b/3x3_reduce
I0403 15:06:04.113610 31131 net.cpp:425] inception_3b/3x3_reduce <- inception_3a/output_inception_3a/output_0_split_1
I0403 15:06:04.113631 31131 net.cpp:399] inception_3b/3x3_reduce -> inception_3b/3x3_reduce
I0403 15:06:04.114796 31131 net.cpp:141] Setting up inception_3b/3x3_reduce
I0403 15:06:04.114826 31131 net.cpp:148] Top shape: 24 128 28 28 (2408448)
I0403 15:06:04.114843 31131 net.cpp:156] Memory required for data: 686408736
I0403 15:06:04.114862 31131 layer_factory.hpp:77] Creating layer inception_3b/relu_3x3_reduce
I0403 15:06:04.114882 31131 net.cpp:91] Creating Layer inception_3b/relu_3x3_reduce
I0403 15:06:04.114899 31131 net.cpp:425] inception_3b/relu_3x3_reduce <- inception_3b/3x3_reduce
I0403 15:06:04.114919 31131 net.cpp:386] inception_3b/relu_3x3_reduce -> inception_3b/3x3_reduce (in-place)
I0403 15:06:04.115099 31131 net.cpp:141] Setting up inception_3b/relu_3x3_reduce
I0403 15:06:04.115126 31131 net.cpp:148] Top shape: 24 128 28 28 (2408448)
I0403 15:06:04.115144 31131 net.cpp:156] Memory required for data: 696042528
I0403 15:06:04.115160 31131 layer_factory.hpp:77] Creating layer inception_3b/3x3
I0403 15:06:04.115187 31131 net.cpp:91] Creating Layer inception_3b/3x3
I0403 15:06:04.115206 31131 net.cpp:425] inception_3b/3x3 <- inception_3b/3x3_reduce
I0403 15:06:04.115227 31131 net.cpp:399] inception_3b/3x3 -> inception_3b/3x3
I0403 15:06:04.118240 31131 net.cpp:141] Setting up inception_3b/3x3
I0403 15:06:04.118291 31131 net.cpp:148] Top shape: 24 192 28 28 (3612672)
I0403 15:06:04.118327 31131 net.cpp:156] Memory required for data: 710493216
I0403 15:06:04.118366 31131 layer_factory.hpp:77] Creating layer inception_3b/relu_3x3
I0403 15:06:04.118407 31131 net.cpp:91] Creating Layer inception_3b/relu_3x3
I0403 15:06:04.118468 31131 net.cpp:425] inception_3b/relu_3x3 <- inception_3b/3x3
I0403 15:06:04.118496 31131 net.cpp:386] inception_3b/relu_3x3 -> inception_3b/3x3 (in-place)
I0403 15:06:04.118801 31131 net.cpp:141] Setting up inception_3b/relu_3x3
I0403 15:06:04.118847 31131 net.cpp:148] Top shape: 24 192 28 28 (3612672)
I0403 15:06:04.118865 31131 net.cpp:156] Memory required for data: 724943904
I0403 15:06:04.118880 31131 layer_factory.hpp:77] Creating layer inception_3b/5x5_reduce
I0403 15:06:04.118906 31131 net.cpp:91] Creating Layer inception_3b/5x5_reduce
I0403 15:06:04.118933 31131 net.cpp:425] inception_3b/5x5_reduce <- inception_3a/output_inception_3a/output_0_split_2
I0403 15:06:04.118960 31131 net.cpp:399] inception_3b/5x5_reduce -> inception_3b/5x5_reduce
I0403 15:06:04.119992 31131 net.cpp:141] Setting up inception_3b/5x5_reduce
I0403 15:06:04.120028 31131 net.cpp:148] Top shape: 24 32 28 28 (602112)
I0403 15:06:04.120044 31131 net.cpp:156] Memory required for data: 727352352
I0403 15:06:04.120064 31131 layer_factory.hpp:77] Creating layer inception_3b/relu_5x5_reduce
I0403 15:06:04.120085 31131 net.cpp:91] Creating Layer inception_3b/relu_5x5_reduce
I0403 15:06:04.120102 31131 net.cpp:425] inception_3b/relu_5x5_reduce <- inception_3b/5x5_reduce
I0403 15:06:04.120121 31131 net.cpp:386] inception_3b/relu_5x5_reduce -> inception_3b/5x5_reduce (in-place)
I0403 15:06:04.120307 31131 net.cpp:141] Setting up inception_3b/relu_5x5_reduce
I0403 15:06:04.120349 31131 net.cpp:148] Top shape: 24 32 28 28 (602112)
I0403 15:06:04.120369 31131 net.cpp:156] Memory required for data: 729760800
I0403 15:06:04.120389 31131 layer_factory.hpp:77] Creating layer inception_3b/5x5
I0403 15:06:04.120419 31131 net.cpp:91] Creating Layer inception_3b/5x5
I0403 15:06:04.120445 31131 net.cpp:425] inception_3b/5x5 <- inception_3b/5x5_reduce
I0403 15:06:04.120484 31131 net.cpp:399] inception_3b/5x5 -> inception_3b/5x5
I0403 15:06:04.122526 31131 net.cpp:141] Setting up inception_3b/5x5
I0403 15:06:04.122557 31131 net.cpp:148] Top shape: 24 96 28 28 (1806336)
I0403 15:06:04.122576 31131 net.cpp:156] Memory required for data: 736986144
I0403 15:06:04.122619 31131 layer_factory.hpp:77] Creating layer inception_3b/relu_5x5
I0403 15:06:04.122661 31131 net.cpp:91] Creating Layer inception_3b/relu_5x5
I0403 15:06:04.122691 31131 net.cpp:425] inception_3b/relu_5x5 <- inception_3b/5x5
I0403 15:06:04.122722 31131 net.cpp:386] inception_3b/relu_5x5 -> inception_3b/5x5 (in-place)
I0403 15:06:04.122941 31131 net.cpp:141] Setting up inception_3b/relu_5x5
I0403 15:06:04.122969 31131 net.cpp:148] Top shape: 24 96 28 28 (1806336)
I0403 15:06:04.122984 31131 net.cpp:156] Memory required for data: 744211488
I0403 15:06:04.123000 31131 layer_factory.hpp:77] Creating layer inception_3b/pool
I0403 15:06:04.123019 31131 net.cpp:91] Creating Layer inception_3b/pool
I0403 15:06:04.123036 31131 net.cpp:425] inception_3b/pool <- inception_3a/output_inception_3a/output_0_split_3
I0403 15:06:04.123085 31131 net.cpp:399] inception_3b/pool -> inception_3b/pool
I0403 15:06:04.123167 31131 net.cpp:141] Setting up inception_3b/pool
I0403 15:06:04.123214 31131 net.cpp:148] Top shape: 24 256 28 28 (4816896)
I0403 15:06:04.123250 31131 net.cpp:156] Memory required for data: 763479072
I0403 15:06:04.123265 31131 layer_factory.hpp:77] Creating layer inception_3b/pool_proj
I0403 15:06:04.123292 31131 net.cpp:91] Creating Layer inception_3b/pool_proj
I0403 15:06:04.123312 31131 net.cpp:425] inception_3b/pool_proj <- inception_3b/pool
I0403 15:06:04.123337 31131 net.cpp:399] inception_3b/pool_proj -> inception_3b/pool_proj
I0403 15:06:04.124430 31131 net.cpp:141] Setting up inception_3b/pool_proj
I0403 15:06:04.124462 31131 net.cpp:148] Top shape: 24 64 28 28 (1204224)
I0403 15:06:04.124480 31131 net.cpp:156] Memory required for data: 768295968
I0403 15:06:04.124500 31131 layer_factory.hpp:77] Creating layer inception_3b/relu_pool_proj
I0403 15:06:04.124518 31131 net.cpp:91] Creating Layer inception_3b/relu_pool_proj
I0403 15:06:04.124536 31131 net.cpp:425] inception_3b/relu_pool_proj <- inception_3b/pool_proj
I0403 15:06:04.124554 31131 net.cpp:386] inception_3b/relu_pool_proj -> inception_3b/pool_proj (in-place)
I0403 15:06:04.125088 31131 net.cpp:141] Setting up inception_3b/relu_pool_proj
I0403 15:06:04.125118 31131 net.cpp:148] Top shape: 24 64 28 28 (1204224)
I0403 15:06:04.125147 31131 net.cpp:156] Memory required for data: 773112864
I0403 15:06:04.125165 31131 layer_factory.hpp:77] Creating layer inception_3b/output
I0403 15:06:04.125202 31131 net.cpp:91] Creating Layer inception_3b/output
I0403 15:06:04.125236 31131 net.cpp:425] inception_3b/output <- inception_3b/1x1
I0403 15:06:04.125257 31131 net.cpp:425] inception_3b/output <- inception_3b/3x3
I0403 15:06:04.125288 31131 net.cpp:425] inception_3b/output <- inception_3b/5x5
I0403 15:06:04.125308 31131 net.cpp:425] inception_3b/output <- inception_3b/pool_proj
I0403 15:06:04.125329 31131 net.cpp:399] inception_3b/output -> inception_3b/output
I0403 15:06:04.125378 31131 net.cpp:141] Setting up inception_3b/output
I0403 15:06:04.125416 31131 net.cpp:148] Top shape: 24 480 28 28 (9031680)
I0403 15:06:04.125430 31131 net.cpp:156] Memory required for data: 809239584
I0403 15:06:04.125447 31131 layer_factory.hpp:77] Creating layer pool3/3x3_s2
I0403 15:06:04.125465 31131 net.cpp:91] Creating Layer pool3/3x3_s2
I0403 15:06:04.125483 31131 net.cpp:425] pool3/3x3_s2 <- inception_3b/output
I0403 15:06:04.125504 31131 net.cpp:399] pool3/3x3_s2 -> pool3/3x3_s2
I0403 15:06:04.125578 31131 net.cpp:141] Setting up pool3/3x3_s2
I0403 15:06:04.125604 31131 net.cpp:148] Top shape: 24 480 14 14 (2257920)
I0403 15:06:04.125619 31131 net.cpp:156] Memory required for data: 818271264
I0403 15:06:04.125634 31131 layer_factory.hpp:77] Creating layer pool3/3x3_s2_pool3/3x3_s2_0_split
I0403 15:06:04.125654 31131 net.cpp:91] Creating Layer pool3/3x3_s2_pool3/3x3_s2_0_split
I0403 15:06:04.125671 31131 net.cpp:425] pool3/3x3_s2_pool3/3x3_s2_0_split <- pool3/3x3_s2
I0403 15:06:04.125691 31131 net.cpp:399] pool3/3x3_s2_pool3/3x3_s2_0_split -> pool3/3x3_s2_pool3/3x3_s2_0_split_0
I0403 15:06:04.125713 31131 net.cpp:399] pool3/3x3_s2_pool3/3x3_s2_0_split -> pool3/3x3_s2_pool3/3x3_s2_0_split_1
I0403 15:06:04.125733 31131 net.cpp:399] pool3/3x3_s2_pool3/3x3_s2_0_split -> pool3/3x3_s2_pool3/3x3_s2_0_split_2
I0403 15:06:04.125753 31131 net.cpp:399] pool3/3x3_s2_pool3/3x3_s2_0_split -> pool3/3x3_s2_pool3/3x3_s2_0_split_3
I0403 15:06:04.125833 31131 net.cpp:141] Setting up pool3/3x3_s2_pool3/3x3_s2_0_split
I0403 15:06:04.125859 31131 net.cpp:148] Top shape: 24 480 14 14 (2257920)
I0403 15:06:04.125877 31131 net.cpp:148] Top shape: 24 480 14 14 (2257920)
I0403 15:06:04.125895 31131 net.cpp:148] Top shape: 24 480 14 14 (2257920)
I0403 15:06:04.125910 31131 net.cpp:148] Top shape: 24 480 14 14 (2257920)
I0403 15:06:04.125926 31131 net.cpp:156] Memory required for data: 854397984
I0403 15:06:04.125941 31131 layer_factory.hpp:77] Creating layer inception_4a/1x1
I0403 15:06:04.125960 31131 net.cpp:91] Creating Layer inception_4a/1x1
I0403 15:06:04.125978 31131 net.cpp:425] inception_4a/1x1 <- pool3/3x3_s2_pool3/3x3_s2_0_split_0
I0403 15:06:04.126000 31131 net.cpp:399] inception_4a/1x1 -> inception_4a/1x1
I0403 15:06:04.127620 31131 net.cpp:141] Setting up inception_4a/1x1
I0403 15:06:04.127652 31131 net.cpp:148] Top shape: 24 192 14 14 (903168)
I0403 15:06:04.127671 31131 net.cpp:156] Memory required for data: 858010656
I0403 15:06:04.127691 31131 layer_factory.hpp:77] Creating layer inception_4a/relu_1x1
I0403 15:06:04.127710 31131 net.cpp:91] Creating Layer inception_4a/relu_1x1
I0403 15:06:04.127727 31131 net.cpp:425] inception_4a/relu_1x1 <- inception_4a/1x1
I0403 15:06:04.127744 31131 net.cpp:386] inception_4a/relu_1x1 -> inception_4a/1x1 (in-place)
I0403 15:06:04.127929 31131 net.cpp:141] Setting up inception_4a/relu_1x1
I0403 15:06:04.127955 31131 net.cpp:148] Top shape: 24 192 14 14 (903168)
I0403 15:06:04.127971 31131 net.cpp:156] Memory required for data: 861623328
I0403 15:06:04.127987 31131 layer_factory.hpp:77] Creating layer inception_4a/3x3_reduce
I0403 15:06:04.128010 31131 net.cpp:91] Creating Layer inception_4a/3x3_reduce
I0403 15:06:04.128028 31131 net.cpp:425] inception_4a/3x3_reduce <- pool3/3x3_s2_pool3/3x3_s2_0_split_1
I0403 15:06:04.128051 31131 net.cpp:399] inception_4a/3x3_reduce -> inception_4a/3x3_reduce
I0403 15:06:04.129344 31131 net.cpp:141] Setting up inception_4a/3x3_reduce
I0403 15:06:04.129375 31131 net.cpp:148] Top shape: 24 96 14 14 (451584)
I0403 15:06:04.129393 31131 net.cpp:156] Memory required for data: 863429664
I0403 15:06:04.129420 31131 layer_factory.hpp:77] Creating layer inception_4a/relu_3x3_reduce
I0403 15:06:04.129441 31131 net.cpp:91] Creating Layer inception_4a/relu_3x3_reduce
I0403 15:06:04.129458 31131 net.cpp:425] inception_4a/relu_3x3_reduce <- inception_4a/3x3_reduce
I0403 15:06:04.129475 31131 net.cpp:386] inception_4a/relu_3x3_reduce -> inception_4a/3x3_reduce (in-place)
I0403 15:06:04.129649 31131 net.cpp:141] Setting up inception_4a/relu_3x3_reduce
I0403 15:06:04.129678 31131 net.cpp:148] Top shape: 24 96 14 14 (451584)
I0403 15:06:04.129694 31131 net.cpp:156] Memory required for data: 865236000
I0403 15:06:04.129709 31131 layer_factory.hpp:77] Creating layer inception_4a/3x3
I0403 15:06:04.129731 31131 net.cpp:91] Creating Layer inception_4a/3x3
I0403 15:06:04.129750 31131 net.cpp:425] inception_4a/3x3 <- inception_4a/3x3_reduce
I0403 15:06:04.129771 31131 net.cpp:399] inception_4a/3x3 -> inception_4a/3x3
I0403 15:06:04.132436 31131 net.cpp:141] Setting up inception_4a/3x3
I0403 15:06:04.132465 31131 net.cpp:148] Top shape: 24 208 14 14 (978432)
I0403 15:06:04.132482 31131 net.cpp:156] Memory required for data: 869149728
I0403 15:06:04.132500 31131 layer_factory.hpp:77] Creating layer inception_4a/relu_3x3
I0403 15:06:04.132519 31131 net.cpp:91] Creating Layer inception_4a/relu_3x3
I0403 15:06:04.132535 31131 net.cpp:425] inception_4a/relu_3x3 <- inception_4a/3x3
I0403 15:06:04.132555 31131 net.cpp:386] inception_4a/relu_3x3 -> inception_4a/3x3 (in-place)
I0403 15:06:04.132839 31131 net.cpp:141] Setting up inception_4a/relu_3x3
I0403 15:06:04.132865 31131 net.cpp:148] Top shape: 24 208 14 14 (978432)
I0403 15:06:04.132881 31131 net.cpp:156] Memory required for data: 873063456
I0403 15:06:04.132896 31131 layer_factory.hpp:77] Creating layer inception_4a/5x5_reduce
I0403 15:06:04.132920 31131 net.cpp:91] Creating Layer inception_4a/5x5_reduce
I0403 15:06:04.132937 31131 net.cpp:425] inception_4a/5x5_reduce <- pool3/3x3_s2_pool3/3x3_s2_0_split_2
I0403 15:06:04.132958 31131 net.cpp:399] inception_4a/5x5_reduce -> inception_4a/5x5_reduce
I0403 15:06:04.133973 31131 net.cpp:141] Setting up inception_4a/5x5_reduce
I0403 15:06:04.134001 31131 net.cpp:148] Top shape: 24 16 14 14 (75264)
I0403 15:06:04.134017 31131 net.cpp:156] Memory required for data: 873364512
I0403 15:06:04.134035 31131 layer_factory.hpp:77] Creating layer inception_4a/relu_5x5_reduce
I0403 15:06:04.134054 31131 net.cpp:91] Creating Layer inception_4a/relu_5x5_reduce
I0403 15:06:04.134071 31131 net.cpp:425] inception_4a/relu_5x5_reduce <- inception_4a/5x5_reduce
I0403 15:06:04.134093 31131 net.cpp:386] inception_4a/relu_5x5_reduce -> inception_4a/5x5_reduce (in-place)
I0403 15:06:04.134274 31131 net.cpp:141] Setting up inception_4a/relu_5x5_reduce
I0403 15:06:04.134310 31131 net.cpp:148] Top shape: 24 16 14 14 (75264)
I0403 15:06:04.134327 31131 net.cpp:156] Memory required for data: 873665568
I0403 15:06:04.134343 31131 layer_factory.hpp:77] Creating layer inception_4a/5x5
I0403 15:06:04.134367 31131 net.cpp:91] Creating Layer inception_4a/5x5
I0403 15:06:04.134387 31131 net.cpp:425] inception_4a/5x5 <- inception_4a/5x5_reduce
I0403 15:06:04.134408 31131 net.cpp:399] inception_4a/5x5 -> inception_4a/5x5
I0403 15:06:04.135499 31131 net.cpp:141] Setting up inception_4a/5x5
I0403 15:06:04.135527 31131 net.cpp:148] Top shape: 24 48 14 14 (225792)
I0403 15:06:04.135556 31131 net.cpp:156] Memory required for data: 874568736
I0403 15:06:04.135578 31131 layer_factory.hpp:77] Creating layer inception_4a/relu_5x5
I0403 15:06:04.135601 31131 net.cpp:91] Creating Layer inception_4a/relu_5x5
I0403 15:06:04.135618 31131 net.cpp:425] inception_4a/relu_5x5 <- inception_4a/5x5
I0403 15:06:04.135637 31131 net.cpp:386] inception_4a/relu_5x5 -> inception_4a/5x5 (in-place)
I0403 15:06:04.135824 31131 net.cpp:141] Setting up inception_4a/relu_5x5
I0403 15:06:04.135851 31131 net.cpp:148] Top shape: 24 48 14 14 (225792)
I0403 15:06:04.135866 31131 net.cpp:156] Memory required for data: 875471904
I0403 15:06:04.135882 31131 layer_factory.hpp:77] Creating layer inception_4a/pool
I0403 15:06:04.135901 31131 net.cpp:91] Creating Layer inception_4a/pool
I0403 15:06:04.135917 31131 net.cpp:425] inception_4a/pool <- pool3/3x3_s2_pool3/3x3_s2_0_split_3
I0403 15:06:04.135937 31131 net.cpp:399] inception_4a/pool -> inception_4a/pool
I0403 15:06:04.136001 31131 net.cpp:141] Setting up inception_4a/pool
I0403 15:06:04.136026 31131 net.cpp:148] Top shape: 24 480 14 14 (2257920)
I0403 15:06:04.136042 31131 net.cpp:156] Memory required for data: 884503584
I0403 15:06:04.136059 31131 layer_factory.hpp:77] Creating layer inception_4a/pool_proj
I0403 15:06:04.136082 31131 net.cpp:91] Creating Layer inception_4a/pool_proj
I0403 15:06:04.136101 31131 net.cpp:425] inception_4a/pool_proj <- inception_4a/pool
I0403 15:06:04.136121 31131 net.cpp:399] inception_4a/pool_proj -> inception_4a/pool_proj
I0403 15:06:04.137312 31131 net.cpp:141] Setting up inception_4a/pool_proj
I0403 15:06:04.137342 31131 net.cpp:148] Top shape: 24 64 14 14 (301056)
I0403 15:06:04.137373 31131 net.cpp:156] Memory required for data: 885707808
I0403 15:06:04.137393 31131 layer_factory.hpp:77] Creating layer inception_4a/relu_pool_proj
I0403 15:06:04.137411 31131 net.cpp:91] Creating Layer inception_4a/relu_pool_proj
I0403 15:06:04.137428 31131 net.cpp:425] inception_4a/relu_pool_proj <- inception_4a/pool_proj
I0403 15:06:04.137449 31131 net.cpp:386] inception_4a/relu_pool_proj -> inception_4a/pool_proj (in-place)
I0403 15:06:04.137733 31131 net.cpp:141] Setting up inception_4a/relu_pool_proj
I0403 15:06:04.137763 31131 net.cpp:148] Top shape: 24 64 14 14 (301056)
I0403 15:06:04.137779 31131 net.cpp:156] Memory required for data: 886912032
I0403 15:06:04.137795 31131 layer_factory.hpp:77] Creating layer inception_4a/output
I0403 15:06:04.137814 31131 net.cpp:91] Creating Layer inception_4a/output
I0403 15:06:04.137830 31131 net.cpp:425] inception_4a/output <- inception_4a/1x1
I0403 15:06:04.137846 31131 net.cpp:425] inception_4a/output <- inception_4a/3x3
I0403 15:06:04.137862 31131 net.cpp:425] inception_4a/output <- inception_4a/5x5
I0403 15:06:04.137879 31131 net.cpp:425] inception_4a/output <- inception_4a/pool_proj
I0403 15:06:04.137897 31131 net.cpp:399] inception_4a/output -> inception_4a/output
I0403 15:06:04.137943 31131 net.cpp:141] Setting up inception_4a/output
I0403 15:06:04.137966 31131 net.cpp:148] Top shape: 24 512 14 14 (2408448)
I0403 15:06:04.137981 31131 net.cpp:156] Memory required for data: 896545824
I0403 15:06:04.137996 31131 layer_factory.hpp:77] Creating layer inception_4a/output_inception_4a/output_0_split
I0403 15:06:04.138016 31131 net.cpp:91] Creating Layer inception_4a/output_inception_4a/output_0_split
I0403 15:06:04.138032 31131 net.cpp:425] inception_4a/output_inception_4a/output_0_split <- inception_4a/output
I0403 15:06:04.138051 31131 net.cpp:399] inception_4a/output_inception_4a/output_0_split -> inception_4a/output_inception_4a/output_0_split_0
I0403 15:06:04.138072 31131 net.cpp:399] inception_4a/output_inception_4a/output_0_split -> inception_4a/output_inception_4a/output_0_split_1
I0403 15:06:04.138092 31131 net.cpp:399] inception_4a/output_inception_4a/output_0_split -> inception_4a/output_inception_4a/output_0_split_2
I0403 15:06:04.138116 31131 net.cpp:399] inception_4a/output_inception_4a/output_0_split -> inception_4a/output_inception_4a/output_0_split_3
I0403 15:06:04.138137 31131 net.cpp:399] inception_4a/output_inception_4a/output_0_split -> inception_4a/output_inception_4a/output_0_split_4
I0403 15:06:04.138228 31131 net.cpp:141] Setting up inception_4a/output_inception_4a/output_0_split
I0403 15:06:04.138253 31131 net.cpp:148] Top shape: 24 512 14 14 (2408448)
I0403 15:06:04.138270 31131 net.cpp:148] Top shape: 24 512 14 14 (2408448)
I0403 15:06:04.138290 31131 net.cpp:148] Top shape: 24 512 14 14 (2408448)
I0403 15:06:04.138308 31131 net.cpp:148] Top shape: 24 512 14 14 (2408448)
I0403 15:06:04.138324 31131 net.cpp:148] Top shape: 24 512 14 14 (2408448)
I0403 15:06:04.138337 31131 net.cpp:156] Memory required for data: 944714784
I0403 15:06:04.138353 31131 layer_factory.hpp:77] Creating layer loss1/ave_pool
I0403 15:06:04.138371 31131 net.cpp:91] Creating Layer loss1/ave_pool
I0403 15:06:04.138387 31131 net.cpp:425] loss1/ave_pool <- inception_4a/output_inception_4a/output_0_split_0
I0403 15:06:04.138408 31131 net.cpp:399] loss1/ave_pool -> loss1/ave_pool
I0403 15:06:04.138618 31131 net.cpp:141] Setting up loss1/ave_pool
I0403 15:06:04.138648 31131 net.cpp:148] Top shape: 24 512 4 4 (196608)
I0403 15:06:04.138664 31131 net.cpp:156] Memory required for data: 945501216
I0403 15:06:04.138679 31131 layer_factory.hpp:77] Creating layer loss1/conv
I0403 15:06:04.138701 31131 net.cpp:91] Creating Layer loss1/conv
I0403 15:06:04.138720 31131 net.cpp:425] loss1/conv <- loss1/ave_pool
I0403 15:06:04.138739 31131 net.cpp:399] loss1/conv -> loss1/conv
I0403 15:06:04.140158 31131 net.cpp:141] Setting up loss1/conv
I0403 15:06:04.140187 31131 net.cpp:148] Top shape: 24 128 4 4 (49152)
I0403 15:06:04.140204 31131 net.cpp:156] Memory required for data: 945697824
I0403 15:06:04.140238 31131 layer_factory.hpp:77] Creating layer loss1/relu_conv
I0403 15:06:04.140259 31131 net.cpp:91] Creating Layer loss1/relu_conv
I0403 15:06:04.140275 31131 net.cpp:425] loss1/relu_conv <- loss1/conv
I0403 15:06:04.140300 31131 net.cpp:386] loss1/relu_conv -> loss1/conv (in-place)
I0403 15:06:04.140583 31131 net.cpp:141] Setting up loss1/relu_conv
I0403 15:06:04.140610 31131 net.cpp:148] Top shape: 24 128 4 4 (49152)
I0403 15:06:04.140626 31131 net.cpp:156] Memory required for data: 945894432
I0403 15:06:04.140641 31131 layer_factory.hpp:77] Creating layer loss1/fc
I0403 15:06:04.140666 31131 net.cpp:91] Creating Layer loss1/fc
I0403 15:06:04.140684 31131 net.cpp:425] loss1/fc <- loss1/conv
I0403 15:06:04.140708 31131 net.cpp:399] loss1/fc -> loss1/fc
I0403 15:06:04.158480 31131 net.cpp:141] Setting up loss1/fc
I0403 15:06:04.158512 31131 net.cpp:148] Top shape: 24 1024 (24576)
I0403 15:06:04.158529 31131 net.cpp:156] Memory required for data: 945992736
I0403 15:06:04.158547 31131 layer_factory.hpp:77] Creating layer loss1/relu_fc
I0403 15:06:04.158566 31131 net.cpp:91] Creating Layer loss1/relu_fc
I0403 15:06:04.158581 31131 net.cpp:425] loss1/relu_fc <- loss1/fc
I0403 15:06:04.158599 31131 net.cpp:386] loss1/relu_fc -> loss1/fc (in-place)
I0403 15:06:04.158784 31131 net.cpp:141] Setting up loss1/relu_fc
I0403 15:06:04.158812 31131 net.cpp:148] Top shape: 24 1024 (24576)
I0403 15:06:04.158828 31131 net.cpp:156] Memory required for data: 946091040
I0403 15:06:04.158843 31131 layer_factory.hpp:77] Creating layer loss1/drop_fc
I0403 15:06:04.158869 31131 net.cpp:91] Creating Layer loss1/drop_fc
I0403 15:06:04.158886 31131 net.cpp:425] loss1/drop_fc <- loss1/fc
I0403 15:06:04.158906 31131 net.cpp:386] loss1/drop_fc -> loss1/fc (in-place)
I0403 15:06:04.158988 31131 net.cpp:141] Setting up loss1/drop_fc
I0403 15:06:04.159036 31131 net.cpp:148] Top shape: 24 1024 (24576)
I0403 15:06:04.159080 31131 net.cpp:156] Memory required for data: 946189344
I0403 15:06:04.159124 31131 layer_factory.hpp:77] Creating layer loss1/classifier_plantvillage
I0403 15:06:04.159168 31131 net.cpp:91] Creating Layer loss1/classifier_plantvillage
I0403 15:06:04.159185 31131 net.cpp:425] loss1/classifier_plantvillage <- loss1/fc
I0403 15:06:04.159205 31131 net.cpp:399] loss1/classifier_plantvillage -> loss1/classifier_plantvillage
I0403 15:06:04.160095 31131 net.cpp:141] Setting up loss1/classifier_plantvillage
I0403 15:06:04.160123 31131 net.cpp:148] Top shape: 24 38 (912)
I0403 15:06:04.160138 31131 net.cpp:156] Memory required for data: 946192992
I0403 15:06:04.160156 31131 layer_factory.hpp:77] Creating layer loss1/classifier_plantvillage_loss1/classifier_plantvillage_0_split
I0403 15:06:04.160176 31131 net.cpp:91] Creating Layer loss1/classifier_plantvillage_loss1/classifier_plantvillage_0_split
I0403 15:06:04.160192 31131 net.cpp:425] loss1/classifier_plantvillage_loss1/classifier_plantvillage_0_split <- loss1/classifier_plantvillage
I0403 15:06:04.160212 31131 net.cpp:399] loss1/classifier_plantvillage_loss1/classifier_plantvillage_0_split -> loss1/classifier_plantvillage_loss1/classifier_plantvillage_0_split_0
I0403 15:06:04.160233 31131 net.cpp:399] loss1/classifier_plantvillage_loss1/classifier_plantvillage_0_split -> loss1/classifier_plantvillage_loss1/classifier_plantvillage_0_split_1
I0403 15:06:04.160254 31131 net.cpp:399] loss1/classifier_plantvillage_loss1/classifier_plantvillage_0_split -> loss1/classifier_plantvillage_loss1/classifier_plantvillage_0_split_2
I0403 15:06:04.160337 31131 net.cpp:141] Setting up loss1/classifier_plantvillage_loss1/classifier_plantvillage_0_split
I0403 15:06:04.160374 31131 net.cpp:148] Top shape: 24 38 (912)
I0403 15:06:04.160392 31131 net.cpp:148] Top shape: 24 38 (912)
I0403 15:06:04.160408 31131 net.cpp:148] Top shape: 24 38 (912)
I0403 15:06:04.160423 31131 net.cpp:156] Memory required for data: 946203936
I0403 15:06:04.160439 31131 layer_factory.hpp:77] Creating layer inception_4b/1x1
I0403 15:06:04.160462 31131 net.cpp:91] Creating Layer inception_4b/1x1
I0403 15:06:04.160495 31131 net.cpp:425] inception_4b/1x1 <- inception_4a/output_inception_4a/output_0_split_1
I0403 15:06:04.160517 31131 net.cpp:399] inception_4b/1x1 -> inception_4b/1x1
I0403 15:06:04.162181 31131 net.cpp:141] Setting up inception_4b/1x1
I0403 15:06:04.162211 31131 net.cpp:148] Top shape: 24 160 14 14 (752640)
I0403 15:06:04.162227 31131 net.cpp:156] Memory required for data: 949214496
I0403 15:06:04.162246 31131 layer_factory.hpp:77] Creating layer inception_4b/relu_1x1
I0403 15:06:04.162266 31131 net.cpp:91] Creating Layer inception_4b/relu_1x1
I0403 15:06:04.162282 31131 net.cpp:425] inception_4b/relu_1x1 <- inception_4b/1x1
I0403 15:06:04.162308 31131 net.cpp:386] inception_4b/relu_1x1 -> inception_4b/1x1 (in-place)
I0403 15:06:04.162492 31131 net.cpp:141] Setting up inception_4b/relu_1x1
I0403 15:06:04.162518 31131 net.cpp:148] Top shape: 24 160 14 14 (752640)
I0403 15:06:04.162533 31131 net.cpp:156] Memory required for data: 952225056
I0403 15:06:04.162549 31131 layer_factory.hpp:77] Creating layer inception_4b/3x3_reduce
I0403 15:06:04.162570 31131 net.cpp:91] Creating Layer inception_4b/3x3_reduce
I0403 15:06:04.162587 31131 net.cpp:425] inception_4b/3x3_reduce <- inception_4a/output_inception_4a/output_0_split_2
I0403 15:06:04.162608 31131 net.cpp:399] inception_4b/3x3_reduce -> inception_4b/3x3_reduce
I0403 15:06:04.163964 31131 net.cpp:141] Setting up inception_4b/3x3_reduce
I0403 15:06:04.163991 31131 net.cpp:148] Top shape: 24 112 14 14 (526848)
I0403 15:06:04.164007 31131 net.cpp:156] Memory required for data: 954332448
I0403 15:06:04.164026 31131 layer_factory.hpp:77] Creating layer inception_4b/relu_3x3_reduce
I0403 15:06:04.164048 31131 net.cpp:91] Creating Layer inception_4b/relu_3x3_reduce
I0403 15:06:04.164065 31131 net.cpp:425] inception_4b/relu_3x3_reduce <- inception_4b/3x3_reduce
I0403 15:06:04.164083 31131 net.cpp:386] inception_4b/relu_3x3_reduce -> inception_4b/3x3_reduce (in-place)
I0403 15:06:04.164383 31131 net.cpp:141] Setting up inception_4b/relu_3x3_reduce
I0403 15:06:04.164410 31131 net.cpp:148] Top shape: 24 112 14 14 (526848)
I0403 15:06:04.164427 31131 net.cpp:156] Memory required for data: 956439840
I0403 15:06:04.164441 31131 layer_factory.hpp:77] Creating layer inception_4b/3x3
I0403 15:06:04.164464 31131 net.cpp:91] Creating Layer inception_4b/3x3
I0403 15:06:04.164482 31131 net.cpp:425] inception_4b/3x3 <- inception_4b/3x3_reduce
I0403 15:06:04.164504 31131 net.cpp:399] inception_4b/3x3 -> inception_4b/3x3
I0403 15:06:04.167485 31131 net.cpp:141] Setting up inception_4b/3x3
I0403 15:06:04.167518 31131 net.cpp:148] Top shape: 24 224 14 14 (1053696)
I0403 15:06:04.167536 31131 net.cpp:156] Memory required for data: 960654624
I0403 15:06:04.167556 31131 layer_factory.hpp:77] Creating layer inception_4b/relu_3x3
I0403 15:06:04.167575 31131 net.cpp:91] Creating Layer inception_4b/relu_3x3
I0403 15:06:04.167593 31131 net.cpp:425] inception_4b/relu_3x3 <- inception_4b/3x3
I0403 15:06:04.167613 31131 net.cpp:386] inception_4b/relu_3x3 -> inception_4b/3x3 (in-place)
I0403 15:06:04.167795 31131 net.cpp:141] Setting up inception_4b/relu_3x3
I0403 15:06:04.167821 31131 net.cpp:148] Top shape: 24 224 14 14 (1053696)
I0403 15:06:04.167836 31131 net.cpp:156] Memory required for data: 964869408
I0403 15:06:04.167851 31131 layer_factory.hpp:77] Creating layer inception_4b/5x5_reduce
I0403 15:06:04.167876 31131 net.cpp:91] Creating Layer inception_4b/5x5_reduce
I0403 15:06:04.167896 31131 net.cpp:425] inception_4b/5x5_reduce <- inception_4a/output_inception_4a/output_0_split_3
I0403 15:06:04.167917 31131 net.cpp:399] inception_4b/5x5_reduce -> inception_4b/5x5_reduce
I0403 15:06:04.169054 31131 net.cpp:141] Setting up inception_4b/5x5_reduce
I0403 15:06:04.169091 31131 net.cpp:148] Top shape: 24 24 14 14 (112896)
I0403 15:06:04.169137 31131 net.cpp:156] Memory required for data: 965320992
I0403 15:06:04.169179 31131 layer_factory.hpp:77] Creating layer inception_4b/relu_5x5_reduce
I0403 15:06:04.169203 31131 net.cpp:91] Creating Layer inception_4b/relu_5x5_reduce
I0403 15:06:04.169253 31131 net.cpp:425] inception_4b/relu_5x5_reduce <- inception_4b/5x5_reduce
I0403 15:06:04.169275 31131 net.cpp:386] inception_4b/relu_5x5_reduce -> inception_4b/5x5_reduce (in-place)
I0403 15:06:04.169489 31131 net.cpp:141] Setting up inception_4b/relu_5x5_reduce
I0403 15:06:04.169517 31131 net.cpp:148] Top shape: 24 24 14 14 (112896)
I0403 15:06:04.169533 31131 net.cpp:156] Memory required for data: 965772576
I0403 15:06:04.169548 31131 layer_factory.hpp:77] Creating layer inception_4b/5x5
I0403 15:06:04.169572 31131 net.cpp:91] Creating Layer inception_4b/5x5
I0403 15:06:04.169590 31131 net.cpp:425] inception_4b/5x5 <- inception_4b/5x5_reduce
I0403 15:06:04.169610 31131 net.cpp:399] inception_4b/5x5 -> inception_4b/5x5
I0403 15:06:04.170845 31131 net.cpp:141] Setting up inception_4b/5x5
I0403 15:06:04.170874 31131 net.cpp:148] Top shape: 24 64 14 14 (301056)
I0403 15:06:04.170891 31131 net.cpp:156] Memory required for data: 966976800
I0403 15:06:04.170908 31131 layer_factory.hpp:77] Creating layer inception_4b/relu_5x5
I0403 15:06:04.170934 31131 net.cpp:91] Creating Layer inception_4b/relu_5x5
I0403 15:06:04.170963 31131 net.cpp:425] inception_4b/relu_5x5 <- inception_4b/5x5
I0403 15:06:04.171003 31131 net.cpp:386] inception_4b/relu_5x5 -> inception_4b/5x5 (in-place)
I0403 15:06:04.171334 31131 net.cpp:141] Setting up inception_4b/relu_5x5
I0403 15:06:04.171362 31131 net.cpp:148] Top shape: 24 64 14 14 (301056)
I0403 15:06:04.171380 31131 net.cpp:156] Memory required for data: 968181024
I0403 15:06:04.171394 31131 layer_factory.hpp:77] Creating layer inception_4b/pool
I0403 15:06:04.171416 31131 net.cpp:91] Creating Layer inception_4b/pool
I0403 15:06:04.171435 31131 net.cpp:425] inception_4b/pool <- inception_4a/output_inception_4a/output_0_split_4
I0403 15:06:04.171464 31131 net.cpp:399] inception_4b/pool -> inception_4b/pool
I0403 15:06:04.171562 31131 net.cpp:141] Setting up inception_4b/pool
I0403 15:06:04.171612 31131 net.cpp:148] Top shape: 24 512 14 14 (2408448)
I0403 15:06:04.171648 31131 net.cpp:156] Memory required for data: 977814816
I0403 15:06:04.171684 31131 layer_factory.hpp:77] Creating layer inception_4b/pool_proj
I0403 15:06:04.171711 31131 net.cpp:91] Creating Layer inception_4b/pool_proj
I0403 15:06:04.171730 31131 net.cpp:425] inception_4b/pool_proj <- inception_4b/pool
I0403 15:06:04.171749 31131 net.cpp:399] inception_4b/pool_proj -> inception_4b/pool_proj
I0403 15:06:04.173070 31131 net.cpp:141] Setting up inception_4b/pool_proj
I0403 15:06:04.173107 31131 net.cpp:148] Top shape: 24 64 14 14 (301056)
I0403 15:06:04.173130 31131 net.cpp:156] Memory required for data: 979019040
I0403 15:06:04.173161 31131 layer_factory.hpp:77] Creating layer inception_4b/relu_pool_proj
I0403 15:06:04.173208 31131 net.cpp:91] Creating Layer inception_4b/relu_pool_proj
I0403 15:06:04.173248 31131 net.cpp:425] inception_4b/relu_pool_proj <- inception_4b/pool_proj
I0403 15:06:04.173291 31131 net.cpp:386] inception_4b/relu_pool_proj -> inception_4b/pool_proj (in-place)
I0403 15:06:04.173486 31131 net.cpp:141] Setting up inception_4b/relu_pool_proj
I0403 15:06:04.173524 31131 net.cpp:148] Top shape: 24 64 14 14 (301056)
I0403 15:06:04.173574 31131 net.cpp:156] Memory required for data: 980223264
I0403 15:06:04.173590 31131 layer_factory.hpp:77] Creating layer inception_4b/output
I0403 15:06:04.173625 31131 net.cpp:91] Creating Layer inception_4b/output
I0403 15:06:04.173665 31131 net.cpp:425] inception_4b/output <- inception_4b/1x1
I0403 15:06:04.173707 31131 net.cpp:425] inception_4b/output <- inception_4b/3x3
I0403 15:06:04.173750 31131 net.cpp:425] inception_4b/output <- inception_4b/5x5
I0403 15:06:04.173768 31131 net.cpp:425] inception_4b/output <- inception_4b/pool_proj
I0403 15:06:04.173787 31131 net.cpp:399] inception_4b/output -> inception_4b/output
I0403 15:06:04.173835 31131 net.cpp:141] Setting up inception_4b/output
I0403 15:06:04.173859 31131 net.cpp:148] Top shape: 24 512 14 14 (2408448)
I0403 15:06:04.173874 31131 net.cpp:156] Memory required for data: 989857056
I0403 15:06:04.173905 31131 layer_factory.hpp:77] Creating layer inception_4b/output_inception_4b/output_0_split
I0403 15:06:04.173925 31131 net.cpp:91] Creating Layer inception_4b/output_inception_4b/output_0_split
I0403 15:06:04.173945 31131 net.cpp:425] inception_4b/output_inception_4b/output_0_split <- inception_4b/output
I0403 15:06:04.173965 31131 net.cpp:399] inception_4b/output_inception_4b/output_0_split -> inception_4b/output_inception_4b/output_0_split_0
I0403 15:06:04.173986 31131 net.cpp:399] inception_4b/output_inception_4b/output_0_split -> inception_4b/output_inception_4b/output_0_split_1
I0403 15:06:04.174007 31131 net.cpp:399] inception_4b/output_inception_4b/output_0_split -> inception_4b/output_inception_4b/output_0_split_2
I0403 15:06:04.174029 31131 net.cpp:399] inception_4b/output_inception_4b/output_0_split -> inception_4b/output_inception_4b/output_0_split_3
I0403 15:06:04.174118 31131 net.cpp:141] Setting up inception_4b/output_inception_4b/output_0_split
I0403 15:06:04.174142 31131 net.cpp:148] Top shape: 24 512 14 14 (2408448)
I0403 15:06:04.174160 31131 net.cpp:148] Top shape: 24 512 14 14 (2408448)
I0403 15:06:04.174176 31131 net.cpp:148] Top shape: 24 512 14 14 (2408448)
I0403 15:06:04.174193 31131 net.cpp:148] Top shape: 24 512 14 14 (2408448)
I0403 15:06:04.174206 31131 net.cpp:156] Memory required for data: 1028392224
I0403 15:06:04.174222 31131 layer_factory.hpp:77] Creating layer inception_4c/1x1
I0403 15:06:04.174245 31131 net.cpp:91] Creating Layer inception_4c/1x1
I0403 15:06:04.174263 31131 net.cpp:425] inception_4c/1x1 <- inception_4b/output_inception_4b/output_0_split_0
I0403 15:06:04.174295 31131 net.cpp:399] inception_4c/1x1 -> inception_4c/1x1
I0403 15:06:04.175850 31131 net.cpp:141] Setting up inception_4c/1x1
I0403 15:06:04.175885 31131 net.cpp:148] Top shape: 24 128 14 14 (602112)
I0403 15:06:04.175904 31131 net.cpp:156] Memory required for data: 1030800672
I0403 15:06:04.175922 31131 layer_factory.hpp:77] Creating layer inception_4c/relu_1x1
I0403 15:06:04.175942 31131 net.cpp:91] Creating Layer inception_4c/relu_1x1
I0403 15:06:04.175961 31131 net.cpp:425] inception_4c/relu_1x1 <- inception_4c/1x1
I0403 15:06:04.175978 31131 net.cpp:386] inception_4c/relu_1x1 -> inception_4c/1x1 (in-place)
I0403 15:06:04.176168 31131 net.cpp:141] Setting up inception_4c/relu_1x1
I0403 15:06:04.176197 31131 net.cpp:148] Top shape: 24 128 14 14 (602112)
I0403 15:06:04.176211 31131 net.cpp:156] Memory required for data: 1033209120
I0403 15:06:04.176229 31131 layer_factory.hpp:77] Creating layer inception_4c/3x3_reduce
I0403 15:06:04.176251 31131 net.cpp:91] Creating Layer inception_4c/3x3_reduce
I0403 15:06:04.176270 31131 net.cpp:425] inception_4c/3x3_reduce <- inception_4b/output_inception_4b/output_0_split_1
I0403 15:06:04.176297 31131 net.cpp:399] inception_4c/3x3_reduce -> inception_4c/3x3_reduce
I0403 15:06:04.178299 31131 net.cpp:141] Setting up inception_4c/3x3_reduce
I0403 15:06:04.178329 31131 net.cpp:148] Top shape: 24 128 14 14 (602112)
I0403 15:06:04.178345 31131 net.cpp:156] Memory required for data: 1035617568
I0403 15:06:04.178365 31131 layer_factory.hpp:77] Creating layer inception_4c/relu_3x3_reduce
I0403 15:06:04.178387 31131 net.cpp:91] Creating Layer inception_4c/relu_3x3_reduce
I0403 15:06:04.178406 31131 net.cpp:425] inception_4c/relu_3x3_reduce <- inception_4c/3x3_reduce
I0403 15:06:04.178426 31131 net.cpp:386] inception_4c/relu_3x3_reduce -> inception_4c/3x3_reduce (in-place)
I0403 15:06:04.178741 31131 net.cpp:141] Setting up inception_4c/relu_3x3_reduce
I0403 15:06:04.178771 31131 net.cpp:148] Top shape: 24 128 14 14 (602112)
I0403 15:06:04.178786 31131 net.cpp:156] Memory required for data: 1038026016
I0403 15:06:04.178802 31131 layer_factory.hpp:77] Creating layer inception_4c/3x3
I0403 15:06:04.178827 31131 net.cpp:91] Creating Layer inception_4c/3x3
I0403 15:06:04.178846 31131 net.cpp:425] inception_4c/3x3 <- inception_4c/3x3_reduce
I0403 15:06:04.178869 31131 net.cpp:399] inception_4c/3x3 -> inception_4c/3x3
I0403 15:06:04.182600 31131 net.cpp:141] Setting up inception_4c/3x3
I0403 15:06:04.182643 31131 net.cpp:148] Top shape: 24 256 14 14 (1204224)
I0403 15:06:04.182660 31131 net.cpp:156] Memory required for data: 1042842912
I0403 15:06:04.182694 31131 layer_factory.hpp:77] Creating layer inception_4c/relu_3x3
I0403 15:06:04.182719 31131 net.cpp:91] Creating Layer inception_4c/relu_3x3
I0403 15:06:04.182737 31131 net.cpp:425] inception_4c/relu_3x3 <- inception_4c/3x3
I0403 15:06:04.182756 31131 net.cpp:386] inception_4c/relu_3x3 -> inception_4c/3x3 (in-place)
I0403 15:06:04.182945 31131 net.cpp:141] Setting up inception_4c/relu_3x3
I0403 15:06:04.182971 31131 net.cpp:148] Top shape: 24 256 14 14 (1204224)
I0403 15:06:04.182986 31131 net.cpp:156] Memory required for data: 1047659808
I0403 15:06:04.183002 31131 layer_factory.hpp:77] Creating layer inception_4c/5x5_reduce
I0403 15:06:04.183027 31131 net.cpp:91] Creating Layer inception_4c/5x5_reduce
I0403 15:06:04.183045 31131 net.cpp:425] inception_4c/5x5_reduce <- inception_4b/output_inception_4b/output_0_split_2
I0403 15:06:04.183068 31131 net.cpp:399] inception_4c/5x5_reduce -> inception_4c/5x5_reduce
I0403 15:06:04.184197 31131 net.cpp:141] Setting up inception_4c/5x5_reduce
I0403 15:06:04.184228 31131 net.cpp:148] Top shape: 24 24 14 14 (112896)
I0403 15:06:04.184245 31131 net.cpp:156] Memory required for data: 1048111392
I0403 15:06:04.184265 31131 layer_factory.hpp:77] Creating layer inception_4c/relu_5x5_reduce
I0403 15:06:04.184298 31131 net.cpp:91] Creating Layer inception_4c/relu_5x5_reduce
I0403 15:06:04.184319 31131 net.cpp:425] inception_4c/relu_5x5_reduce <- inception_4c/5x5_reduce
I0403 15:06:04.184336 31131 net.cpp:386] inception_4c/relu_5x5_reduce -> inception_4c/5x5_reduce (in-place)
I0403 15:06:04.184530 31131 net.cpp:141] Setting up inception_4c/relu_5x5_reduce
I0403 15:06:04.184557 31131 net.cpp:148] Top shape: 24 24 14 14 (112896)
I0403 15:06:04.184574 31131 net.cpp:156] Memory required for data: 1048562976
I0403 15:06:04.184589 31131 layer_factory.hpp:77] Creating layer inception_4c/5x5
I0403 15:06:04.184614 31131 net.cpp:91] Creating Layer inception_4c/5x5
I0403 15:06:04.184633 31131 net.cpp:425] inception_4c/5x5 <- inception_4c/5x5_reduce
I0403 15:06:04.184653 31131 net.cpp:399] inception_4c/5x5 -> inception_4c/5x5
I0403 15:06:04.185956 31131 net.cpp:141] Setting up inception_4c/5x5
I0403 15:06:04.186000 31131 net.cpp:148] Top shape: 24 64 14 14 (301056)
I0403 15:06:04.186033 31131 net.cpp:156] Memory required for data: 1049767200
I0403 15:06:04.186054 31131 layer_factory.hpp:77] Creating layer inception_4c/relu_5x5
I0403 15:06:04.186074 31131 net.cpp:91] Creating Layer inception_4c/relu_5x5
I0403 15:06:04.186089 31131 net.cpp:425] inception_4c/relu_5x5 <- inception_4c/5x5
I0403 15:06:04.186108 31131 net.cpp:386] inception_4c/relu_5x5 -> inception_4c/5x5 (in-place)
I0403 15:06:04.186415 31131 net.cpp:141] Setting up inception_4c/relu_5x5
I0403 15:06:04.186458 31131 net.cpp:148] Top shape: 24 64 14 14 (301056)
I0403 15:06:04.186497 31131 net.cpp:156] Memory required for data: 1050971424
I0403 15:06:04.186558 31131 layer_factory.hpp:77] Creating layer inception_4c/pool
I0403 15:06:04.186609 31131 net.cpp:91] Creating Layer inception_4c/pool
I0403 15:06:04.186647 31131 net.cpp:425] inception_4c/pool <- inception_4b/output_inception_4b/output_0_split_3
I0403 15:06:04.186697 31131 net.cpp:399] inception_4c/pool -> inception_4c/pool
I0403 15:06:04.186785 31131 net.cpp:141] Setting up inception_4c/pool
I0403 15:06:04.186815 31131 net.cpp:148] Top shape: 24 512 14 14 (2408448)
I0403 15:06:04.186830 31131 net.cpp:156] Memory required for data: 1060605216
I0403 15:06:04.186846 31131 layer_factory.hpp:77] Creating layer inception_4c/pool_proj
I0403 15:06:04.186867 31131 net.cpp:91] Creating Layer inception_4c/pool_proj
I0403 15:06:04.186885 31131 net.cpp:425] inception_4c/pool_proj <- inception_4c/pool
I0403 15:06:04.186908 31131 net.cpp:399] inception_4c/pool_proj -> inception_4c/pool_proj
I0403 15:06:04.188191 31131 net.cpp:141] Setting up inception_4c/pool_proj
I0403 15:06:04.188222 31131 net.cpp:148] Top shape: 24 64 14 14 (301056)
I0403 15:06:04.188271 31131 net.cpp:156] Memory required for data: 1061809440
I0403 15:06:04.188297 31131 layer_factory.hpp:77] Creating layer inception_4c/relu_pool_proj
I0403 15:06:04.188321 31131 net.cpp:91] Creating Layer inception_4c/relu_pool_proj
I0403 15:06:04.188340 31131 net.cpp:425] inception_4c/relu_pool_proj <- inception_4c/pool_proj
I0403 15:06:04.188359 31131 net.cpp:386] inception_4c/relu_pool_proj -> inception_4c/pool_proj (in-place)
I0403 15:06:04.188561 31131 net.cpp:141] Setting up inception_4c/relu_pool_proj
I0403 15:06:04.188591 31131 net.cpp:148] Top shape: 24 64 14 14 (301056)
I0403 15:06:04.188607 31131 net.cpp:156] Memory required for data: 1063013664
I0403 15:06:04.188623 31131 layer_factory.hpp:77] Creating layer inception_4c/output
I0403 15:06:04.188642 31131 net.cpp:91] Creating Layer inception_4c/output
I0403 15:06:04.188659 31131 net.cpp:425] inception_4c/output <- inception_4c/1x1
I0403 15:06:04.188678 31131 net.cpp:425] inception_4c/output <- inception_4c/3x3
I0403 15:06:04.188695 31131 net.cpp:425] inception_4c/output <- inception_4c/5x5
I0403 15:06:04.188712 31131 net.cpp:425] inception_4c/output <- inception_4c/pool_proj
I0403 15:06:04.188731 31131 net.cpp:399] inception_4c/output -> inception_4c/output
I0403 15:06:04.188794 31131 net.cpp:141] Setting up inception_4c/output
I0403 15:06:04.188820 31131 net.cpp:148] Top shape: 24 512 14 14 (2408448)
I0403 15:06:04.188840 31131 net.cpp:156] Memory required for data: 1072647456
I0403 15:06:04.188869 31131 layer_factory.hpp:77] Creating layer inception_4c/output_inception_4c/output_0_split
I0403 15:06:04.188887 31131 net.cpp:91] Creating Layer inception_4c/output_inception_4c/output_0_split
I0403 15:06:04.188904 31131 net.cpp:425] inception_4c/output_inception_4c/output_0_split <- inception_4c/output
I0403 15:06:04.188925 31131 net.cpp:399] inception_4c/output_inception_4c/output_0_split -> inception_4c/output_inception_4c/output_0_split_0
I0403 15:06:04.188947 31131 net.cpp:399] inception_4c/output_inception_4c/output_0_split -> inception_4c/output_inception_4c/output_0_split_1
I0403 15:06:04.188971 31131 net.cpp:399] inception_4c/output_inception_4c/output_0_split -> inception_4c/output_inception_4c/output_0_split_2
I0403 15:06:04.188992 31131 net.cpp:399] inception_4c/output_inception_4c/output_0_split -> inception_4c/output_inception_4c/output_0_split_3
I0403 15:06:04.189088 31131 net.cpp:141] Setting up inception_4c/output_inception_4c/output_0_split
I0403 15:06:04.189113 31131 net.cpp:148] Top shape: 24 512 14 14 (2408448)
I0403 15:06:04.189131 31131 net.cpp:148] Top shape: 24 512 14 14 (2408448)
I0403 15:06:04.189152 31131 net.cpp:148] Top shape: 24 512 14 14 (2408448)
I0403 15:06:04.189170 31131 net.cpp:148] Top shape: 24 512 14 14 (2408448)
I0403 15:06:04.189185 31131 net.cpp:156] Memory required for data: 1111182624
I0403 15:06:04.189199 31131 layer_factory.hpp:77] Creating layer inception_4d/1x1
I0403 15:06:04.189224 31131 net.cpp:91] Creating Layer inception_4d/1x1
I0403 15:06:04.189244 31131 net.cpp:425] inception_4d/1x1 <- inception_4c/output_inception_4c/output_0_split_0
I0403 15:06:04.189265 31131 net.cpp:399] inception_4d/1x1 -> inception_4d/1x1
I0403 15:06:04.190723 31131 net.cpp:141] Setting up inception_4d/1x1
I0403 15:06:04.190753 31131 net.cpp:148] Top shape: 24 112 14 14 (526848)
I0403 15:06:04.190770 31131 net.cpp:156] Memory required for data: 1113290016
I0403 15:06:04.190790 31131 layer_factory.hpp:77] Creating layer inception_4d/relu_1x1
I0403 15:06:04.190809 31131 net.cpp:91] Creating Layer inception_4d/relu_1x1
I0403 15:06:04.190826 31131 net.cpp:425] inception_4d/relu_1x1 <- inception_4d/1x1
I0403 15:06:04.190847 31131 net.cpp:386] inception_4d/relu_1x1 -> inception_4d/1x1 (in-place)
I0403 15:06:04.191038 31131 net.cpp:141] Setting up inception_4d/relu_1x1
I0403 15:06:04.191064 31131 net.cpp:148] Top shape: 24 112 14 14 (526848)
I0403 15:06:04.191079 31131 net.cpp:156] Memory required for data: 1115397408
I0403 15:06:04.191094 31131 layer_factory.hpp:77] Creating layer inception_4d/3x3_reduce
I0403 15:06:04.191133 31131 net.cpp:91] Creating Layer inception_4d/3x3_reduce
I0403 15:06:04.191154 31131 net.cpp:425] inception_4d/3x3_reduce <- inception_4c/output_inception_4c/output_0_split_1
I0403 15:06:04.191176 31131 net.cpp:399] inception_4d/3x3_reduce -> inception_4d/3x3_reduce
I0403 15:06:04.192750 31131 net.cpp:141] Setting up inception_4d/3x3_reduce
I0403 15:06:04.192780 31131 net.cpp:148] Top shape: 24 144 14 14 (677376)
I0403 15:06:04.192797 31131 net.cpp:156] Memory required for data: 1118106912
I0403 15:06:04.192819 31131 layer_factory.hpp:77] Creating layer inception_4d/relu_3x3_reduce
I0403 15:06:04.192839 31131 net.cpp:91] Creating Layer inception_4d/relu_3x3_reduce
I0403 15:06:04.192857 31131 net.cpp:425] inception_4d/relu_3x3_reduce <- inception_4d/3x3_reduce
I0403 15:06:04.192874 31131 net.cpp:386] inception_4d/relu_3x3_reduce -> inception_4d/3x3_reduce (in-place)
I0403 15:06:04.193310 31131 net.cpp:141] Setting up inception_4d/relu_3x3_reduce
I0403 15:06:04.193338 31131 net.cpp:148] Top shape: 24 144 14 14 (677376)
I0403 15:06:04.193354 31131 net.cpp:156] Memory required for data: 1120816416
I0403 15:06:04.193369 31131 layer_factory.hpp:77] Creating layer inception_4d/3x3
I0403 15:06:04.193394 31131 net.cpp:91] Creating Layer inception_4d/3x3
I0403 15:06:04.193413 31131 net.cpp:425] inception_4d/3x3 <- inception_4d/3x3_reduce
I0403 15:06:04.193434 31131 net.cpp:399] inception_4d/3x3 -> inception_4d/3x3
I0403 15:06:04.198062 31131 net.cpp:141] Setting up inception_4d/3x3
I0403 15:06:04.198093 31131 net.cpp:148] Top shape: 24 288 14 14 (1354752)
I0403 15:06:04.198110 31131 net.cpp:156] Memory required for data: 1126235424
I0403 15:06:04.198130 31131 layer_factory.hpp:77] Creating layer inception_4d/relu_3x3
I0403 15:06:04.198150 31131 net.cpp:91] Creating Layer inception_4d/relu_3x3
I0403 15:06:04.198168 31131 net.cpp:425] inception_4d/relu_3x3 <- inception_4d/3x3
I0403 15:06:04.198189 31131 net.cpp:386] inception_4d/relu_3x3 -> inception_4d/3x3 (in-place)
I0403 15:06:04.198390 31131 net.cpp:141] Setting up inception_4d/relu_3x3
I0403 15:06:04.198416 31131 net.cpp:148] Top shape: 24 288 14 14 (1354752)
I0403 15:06:04.198432 31131 net.cpp:156] Memory required for data: 1131654432
I0403 15:06:04.198448 31131 layer_factory.hpp:77] Creating layer inception_4d/5x5_reduce
I0403 15:06:04.198472 31131 net.cpp:91] Creating Layer inception_4d/5x5_reduce
I0403 15:06:04.198489 31131 net.cpp:425] inception_4d/5x5_reduce <- inception_4c/output_inception_4c/output_0_split_2
I0403 15:06:04.198513 31131 net.cpp:399] inception_4d/5x5_reduce -> inception_4d/5x5_reduce
I0403 15:06:04.199769 31131 net.cpp:141] Setting up inception_4d/5x5_reduce
I0403 15:06:04.199797 31131 net.cpp:148] Top shape: 24 32 14 14 (150528)
I0403 15:06:04.199813 31131 net.cpp:156] Memory required for data: 1132256544
I0403 15:06:04.199833 31131 layer_factory.hpp:77] Creating layer inception_4d/relu_5x5_reduce
I0403 15:06:04.199851 31131 net.cpp:91] Creating Layer inception_4d/relu_5x5_reduce
I0403 15:06:04.199868 31131 net.cpp:425] inception_4d/relu_5x5_reduce <- inception_4d/5x5_reduce
I0403 15:06:04.199889 31131 net.cpp:386] inception_4d/relu_5x5_reduce -> inception_4d/5x5_reduce (in-place)
I0403 15:06:04.200081 31131 net.cpp:141] Setting up inception_4d/relu_5x5_reduce
I0403 15:06:04.200109 31131 net.cpp:148] Top shape: 24 32 14 14 (150528)
I0403 15:06:04.200132 31131 net.cpp:156] Memory required for data: 1132858656
I0403 15:06:04.200150 31131 layer_factory.hpp:77] Creating layer inception_4d/5x5
I0403 15:06:04.200172 31131 net.cpp:91] Creating Layer inception_4d/5x5
I0403 15:06:04.200191 31131 net.cpp:425] inception_4d/5x5 <- inception_4d/5x5_reduce
I0403 15:06:04.200212 31131 net.cpp:399] inception_4d/5x5 -> inception_4d/5x5
I0403 15:06:04.201727 31131 net.cpp:141] Setting up inception_4d/5x5
I0403 15:06:04.201756 31131 net.cpp:148] Top shape: 24 64 14 14 (301056)
I0403 15:06:04.201771 31131 net.cpp:156] Memory required for data: 1134062880
I0403 15:06:04.201792 31131 layer_factory.hpp:77] Creating layer inception_4d/relu_5x5
I0403 15:06:04.201828 31131 net.cpp:91] Creating Layer inception_4d/relu_5x5
I0403 15:06:04.201848 31131 net.cpp:425] inception_4d/relu_5x5 <- inception_4d/5x5
I0403 15:06:04.201866 31131 net.cpp:386] inception_4d/relu_5x5 -> inception_4d/5x5 (in-place)
I0403 15:06:04.202174 31131 net.cpp:141] Setting up inception_4d/relu_5x5
I0403 15:06:04.202201 31131 net.cpp:148] Top shape: 24 64 14 14 (301056)
I0403 15:06:04.202217 31131 net.cpp:156] Memory required for data: 1135267104
I0403 15:06:04.202234 31131 layer_factory.hpp:77] Creating layer inception_4d/pool
I0403 15:06:04.202253 31131 net.cpp:91] Creating Layer inception_4d/pool
I0403 15:06:04.202270 31131 net.cpp:425] inception_4d/pool <- inception_4c/output_inception_4c/output_0_split_3
I0403 15:06:04.202293 31131 net.cpp:399] inception_4d/pool -> inception_4d/pool
I0403 15:06:04.202363 31131 net.cpp:141] Setting up inception_4d/pool
I0403 15:06:04.202388 31131 net.cpp:148] Top shape: 24 512 14 14 (2408448)
I0403 15:06:04.202404 31131 net.cpp:156] Memory required for data: 1144900896
I0403 15:06:04.202419 31131 layer_factory.hpp:77] Creating layer inception_4d/pool_proj
I0403 15:06:04.202441 31131 net.cpp:91] Creating Layer inception_4d/pool_proj
I0403 15:06:04.202460 31131 net.cpp:425] inception_4d/pool_proj <- inception_4d/pool
I0403 15:06:04.202481 31131 net.cpp:399] inception_4d/pool_proj -> inception_4d/pool_proj
I0403 15:06:04.204267 31131 net.cpp:141] Setting up inception_4d/pool_proj
I0403 15:06:04.204308 31131 net.cpp:148] Top shape: 24 64 14 14 (301056)
I0403 15:06:04.204325 31131 net.cpp:156] Memory required for data: 1146105120
I0403 15:06:04.204344 31131 layer_factory.hpp:77] Creating layer inception_4d/relu_pool_proj
I0403 15:06:04.204365 31131 net.cpp:91] Creating Layer inception_4d/relu_pool_proj
I0403 15:06:04.204380 31131 net.cpp:425] inception_4d/relu_pool_proj <- inception_4d/pool_proj
I0403 15:06:04.204401 31131 net.cpp:386] inception_4d/relu_pool_proj -> inception_4d/pool_proj (in-place)
I0403 15:06:04.204589 31131 net.cpp:141] Setting up inception_4d/relu_pool_proj
I0403 15:06:04.204615 31131 net.cpp:148] Top shape: 24 64 14 14 (301056)
I0403 15:06:04.204632 31131 net.cpp:156] Memory required for data: 1147309344
I0403 15:06:04.204648 31131 layer_factory.hpp:77] Creating layer inception_4d/output
I0403 15:06:04.204664 31131 net.cpp:91] Creating Layer inception_4d/output
I0403 15:06:04.204680 31131 net.cpp:425] inception_4d/output <- inception_4d/1x1
I0403 15:06:04.204699 31131 net.cpp:425] inception_4d/output <- inception_4d/3x3
I0403 15:06:04.204715 31131 net.cpp:425] inception_4d/output <- inception_4d/5x5
I0403 15:06:04.204731 31131 net.cpp:425] inception_4d/output <- inception_4d/pool_proj
I0403 15:06:04.204751 31131 net.cpp:399] inception_4d/output -> inception_4d/output
I0403 15:06:04.204804 31131 net.cpp:141] Setting up inception_4d/output
I0403 15:06:04.204829 31131 net.cpp:148] Top shape: 24 528 14 14 (2483712)
I0403 15:06:04.204844 31131 net.cpp:156] Memory required for data: 1157244192
I0403 15:06:04.204859 31131 layer_factory.hpp:77] Creating layer inception_4d/output_inception_4d/output_0_split
I0403 15:06:04.204876 31131 net.cpp:91] Creating Layer inception_4d/output_inception_4d/output_0_split
I0403 15:06:04.204892 31131 net.cpp:425] inception_4d/output_inception_4d/output_0_split <- inception_4d/output
I0403 15:06:04.204915 31131 net.cpp:399] inception_4d/output_inception_4d/output_0_split -> inception_4d/output_inception_4d/output_0_split_0
I0403 15:06:04.204936 31131 net.cpp:399] inception_4d/output_inception_4d/output_0_split -> inception_4d/output_inception_4d/output_0_split_1
I0403 15:06:04.204958 31131 net.cpp:399] inception_4d/output_inception_4d/output_0_split -> inception_4d/output_inception_4d/output_0_split_2
I0403 15:06:04.204979 31131 net.cpp:399] inception_4d/output_inception_4d/output_0_split -> inception_4d/output_inception_4d/output_0_split_3
I0403 15:06:04.204999 31131 net.cpp:399] inception_4d/output_inception_4d/output_0_split -> inception_4d/output_inception_4d/output_0_split_4
I0403 15:06:04.205104 31131 net.cpp:141] Setting up inception_4d/output_inception_4d/output_0_split
I0403 15:06:04.205142 31131 net.cpp:148] Top shape: 24 528 14 14 (2483712)
I0403 15:06:04.205160 31131 net.cpp:148] Top shape: 24 528 14 14 (2483712)
I0403 15:06:04.205176 31131 net.cpp:148] Top shape: 24 528 14 14 (2483712)
I0403 15:06:04.205191 31131 net.cpp:148] Top shape: 24 528 14 14 (2483712)
I0403 15:06:04.205206 31131 net.cpp:148] Top shape: 24 528 14 14 (2483712)
I0403 15:06:04.205220 31131 net.cpp:156] Memory required for data: 1206918432
I0403 15:06:04.205236 31131 layer_factory.hpp:77] Creating layer loss2/ave_pool
I0403 15:06:04.205255 31131 net.cpp:91] Creating Layer loss2/ave_pool
I0403 15:06:04.205271 31131 net.cpp:425] loss2/ave_pool <- inception_4d/output_inception_4d/output_0_split_0
I0403 15:06:04.205296 31131 net.cpp:399] loss2/ave_pool -> loss2/ave_pool
I0403 15:06:04.205615 31131 net.cpp:141] Setting up loss2/ave_pool
I0403 15:06:04.205642 31131 net.cpp:148] Top shape: 24 528 4 4 (202752)
I0403 15:06:04.205658 31131 net.cpp:156] Memory required for data: 1207729440
I0403 15:06:04.205673 31131 layer_factory.hpp:77] Creating layer loss2/conv
I0403 15:06:04.205696 31131 net.cpp:91] Creating Layer loss2/conv
I0403 15:06:04.205714 31131 net.cpp:425] loss2/conv <- loss2/ave_pool
I0403 15:06:04.205735 31131 net.cpp:399] loss2/conv -> loss2/conv
I0403 15:06:04.207734 31131 net.cpp:141] Setting up loss2/conv
I0403 15:06:04.207765 31131 net.cpp:148] Top shape: 24 128 4 4 (49152)
I0403 15:06:04.207782 31131 net.cpp:156] Memory required for data: 1207926048
I0403 15:06:04.207829 31131 layer_factory.hpp:77] Creating layer loss2/relu_conv
I0403 15:06:04.207871 31131 net.cpp:91] Creating Layer loss2/relu_conv
I0403 15:06:04.207908 31131 net.cpp:425] loss2/relu_conv <- loss2/conv
I0403 15:06:04.207937 31131 net.cpp:386] loss2/relu_conv -> loss2/conv (in-place)
I0403 15:06:04.208261 31131 net.cpp:141] Setting up loss2/relu_conv
I0403 15:06:04.208295 31131 net.cpp:148] Top shape: 24 128 4 4 (49152)
I0403 15:06:04.208313 31131 net.cpp:156] Memory required for data: 1208122656
I0403 15:06:04.208329 31131 layer_factory.hpp:77] Creating layer loss2/fc
I0403 15:06:04.208353 31131 net.cpp:91] Creating Layer loss2/fc
I0403 15:06:04.208370 31131 net.cpp:425] loss2/fc <- loss2/conv
I0403 15:06:04.208406 31131 net.cpp:399] loss2/fc -> loss2/fc
I0403 15:06:04.226402 31131 net.cpp:141] Setting up loss2/fc
I0403 15:06:04.226446 31131 net.cpp:148] Top shape: 24 1024 (24576)
I0403 15:06:04.226462 31131 net.cpp:156] Memory required for data: 1208220960
I0403 15:06:04.226482 31131 layer_factory.hpp:77] Creating layer loss2/relu_fc
I0403 15:06:04.226501 31131 net.cpp:91] Creating Layer loss2/relu_fc
I0403 15:06:04.226518 31131 net.cpp:425] loss2/relu_fc <- loss2/fc
I0403 15:06:04.226538 31131 net.cpp:386] loss2/relu_fc -> loss2/fc (in-place)
I0403 15:06:04.226852 31131 net.cpp:141] Setting up loss2/relu_fc
I0403 15:06:04.226879 31131 net.cpp:148] Top shape: 24 1024 (24576)
I0403 15:06:04.226896 31131 net.cpp:156] Memory required for data: 1208319264
I0403 15:06:04.226912 31131 layer_factory.hpp:77] Creating layer loss2/drop_fc
I0403 15:06:04.226929 31131 net.cpp:91] Creating Layer loss2/drop_fc
I0403 15:06:04.226944 31131 net.cpp:425] loss2/drop_fc <- loss2/fc
I0403 15:06:04.226963 31131 net.cpp:386] loss2/drop_fc -> loss2/fc (in-place)
I0403 15:06:04.227015 31131 net.cpp:141] Setting up loss2/drop_fc
I0403 15:06:04.227041 31131 net.cpp:148] Top shape: 24 1024 (24576)
I0403 15:06:04.227057 31131 net.cpp:156] Memory required for data: 1208417568
I0403 15:06:04.227072 31131 layer_factory.hpp:77] Creating layer loss2/classifier_plantvillage
I0403 15:06:04.227092 31131 net.cpp:91] Creating Layer loss2/classifier_plantvillage
I0403 15:06:04.227108 31131 net.cpp:425] loss2/classifier_plantvillage <- loss2/fc
I0403 15:06:04.227129 31131 net.cpp:399] loss2/classifier_plantvillage -> loss2/classifier_plantvillage
I0403 15:06:04.227537 31131 net.cpp:141] Setting up loss2/classifier_plantvillage
I0403 15:06:04.227562 31131 net.cpp:148] Top shape: 24 38 (912)
I0403 15:06:04.227578 31131 net.cpp:156] Memory required for data: 1208421216
I0403 15:06:04.227614 31131 layer_factory.hpp:77] Creating layer loss2/classifier_plantvillage_loss2/classifier_plantvillage_0_split
I0403 15:06:04.227637 31131 net.cpp:91] Creating Layer loss2/classifier_plantvillage_loss2/classifier_plantvillage_0_split
I0403 15:06:04.227653 31131 net.cpp:425] loss2/classifier_plantvillage_loss2/classifier_plantvillage_0_split <- loss2/classifier_plantvillage
I0403 15:06:04.227671 31131 net.cpp:399] loss2/classifier_plantvillage_loss2/classifier_plantvillage_0_split -> loss2/classifier_plantvillage_loss2/classifier_plantvillage_0_split_0
I0403 15:06:04.227692 31131 net.cpp:399] loss2/classifier_plantvillage_loss2/classifier_plantvillage_0_split -> loss2/classifier_plantvillage_loss2/classifier_plantvillage_0_split_1
I0403 15:06:04.227717 31131 net.cpp:399] loss2/classifier_plantvillage_loss2/classifier_plantvillage_0_split -> loss2/classifier_plantvillage_loss2/classifier_plantvillage_0_split_2
I0403 15:06:04.227792 31131 net.cpp:141] Setting up loss2/classifier_plantvillage_loss2/classifier_plantvillage_0_split
I0403 15:06:04.227816 31131 net.cpp:148] Top shape: 24 38 (912)
I0403 15:06:04.227833 31131 net.cpp:148] Top shape: 24 38 (912)
I0403 15:06:04.227848 31131 net.cpp:148] Top shape: 24 38 (912)
I0403 15:06:04.227861 31131 net.cpp:156] Memory required for data: 1208432160
I0403 15:06:04.227877 31131 layer_factory.hpp:77] Creating layer inception_4e/1x1
I0403 15:06:04.227900 31131 net.cpp:91] Creating Layer inception_4e/1x1
I0403 15:06:04.227918 31131 net.cpp:425] inception_4e/1x1 <- inception_4d/output_inception_4d/output_0_split_1
I0403 15:06:04.227936 31131 net.cpp:399] inception_4e/1x1 -> inception_4e/1x1
I0403 15:06:04.229734 31131 net.cpp:141] Setting up inception_4e/1x1
I0403 15:06:04.229764 31131 net.cpp:148] Top shape: 24 256 14 14 (1204224)
I0403 15:06:04.229784 31131 net.cpp:156] Memory required for data: 1213249056
I0403 15:06:04.229801 31131 layer_factory.hpp:77] Creating layer inception_4e/relu_1x1
I0403 15:06:04.229820 31131 net.cpp:91] Creating Layer inception_4e/relu_1x1
I0403 15:06:04.229835 31131 net.cpp:425] inception_4e/relu_1x1 <- inception_4e/1x1
I0403 15:06:04.229852 31131 net.cpp:386] inception_4e/relu_1x1 -> inception_4e/1x1 (in-place)
I0403 15:06:04.230170 31131 net.cpp:141] Setting up inception_4e/relu_1x1
I0403 15:06:04.230197 31131 net.cpp:148] Top shape: 24 256 14 14 (1204224)
I0403 15:06:04.230216 31131 net.cpp:156] Memory required for data: 1218065952
I0403 15:06:04.230231 31131 layer_factory.hpp:77] Creating layer inception_4e/3x3_reduce
I0403 15:06:04.230250 31131 net.cpp:91] Creating Layer inception_4e/3x3_reduce
I0403 15:06:04.230268 31131 net.cpp:425] inception_4e/3x3_reduce <- inception_4d/output_inception_4d/output_0_split_2
I0403 15:06:04.230293 31131 net.cpp:399] inception_4e/3x3_reduce -> inception_4e/3x3_reduce
I0403 15:06:04.232383 31131 net.cpp:141] Setting up inception_4e/3x3_reduce
I0403 15:06:04.232412 31131 net.cpp:148] Top shape: 24 160 14 14 (752640)
I0403 15:06:04.232429 31131 net.cpp:156] Memory required for data: 1221076512
I0403 15:06:04.232447 31131 layer_factory.hpp:77] Creating layer inception_4e/relu_3x3_reduce
I0403 15:06:04.232468 31131 net.cpp:91] Creating Layer inception_4e/relu_3x3_reduce
I0403 15:06:04.232488 31131 net.cpp:425] inception_4e/relu_3x3_reduce <- inception_4e/3x3_reduce
I0403 15:06:04.232506 31131 net.cpp:386] inception_4e/relu_3x3_reduce -> inception_4e/3x3_reduce (in-place)
I0403 15:06:04.232687 31131 net.cpp:141] Setting up inception_4e/relu_3x3_reduce
I0403 15:06:04.232714 31131 net.cpp:148] Top shape: 24 160 14 14 (752640)
I0403 15:06:04.232731 31131 net.cpp:156] Memory required for data: 1224087072
I0403 15:06:04.232746 31131 layer_factory.hpp:77] Creating layer inception_4e/3x3
I0403 15:06:04.232769 31131 net.cpp:91] Creating Layer inception_4e/3x3
I0403 15:06:04.232786 31131 net.cpp:425] inception_4e/3x3 <- inception_4e/3x3_reduce
I0403 15:06:04.232805 31131 net.cpp:399] inception_4e/3x3 -> inception_4e/3x3
I0403 15:06:04.237900 31131 net.cpp:141] Setting up inception_4e/3x3
I0403 15:06:04.237946 31131 net.cpp:148] Top shape: 24 320 14 14 (1505280)
I0403 15:06:04.237964 31131 net.cpp:156] Memory required for data: 1230108192
I0403 15:06:04.237983 31131 layer_factory.hpp:77] Creating layer inception_4e/relu_3x3
I0403 15:06:04.238003 31131 net.cpp:91] Creating Layer inception_4e/relu_3x3
I0403 15:06:04.238020 31131 net.cpp:425] inception_4e/relu_3x3 <- inception_4e/3x3
I0403 15:06:04.238039 31131 net.cpp:386] inception_4e/relu_3x3 -> inception_4e/3x3 (in-place)
I0403 15:06:04.238348 31131 net.cpp:141] Setting up inception_4e/relu_3x3
I0403 15:06:04.238375 31131 net.cpp:148] Top shape: 24 320 14 14 (1505280)
I0403 15:06:04.238391 31131 net.cpp:156] Memory required for data: 1236129312
I0403 15:06:04.238407 31131 layer_factory.hpp:77] Creating layer inception_4e/5x5_reduce
I0403 15:06:04.238431 31131 net.cpp:91] Creating Layer inception_4e/5x5_reduce
I0403 15:06:04.238450 31131 net.cpp:425] inception_4e/5x5_reduce <- inception_4d/output_inception_4d/output_0_split_3
I0403 15:06:04.238471 31131 net.cpp:399] inception_4e/5x5_reduce -> inception_4e/5x5_reduce
I0403 15:06:04.239559 31131 net.cpp:141] Setting up inception_4e/5x5_reduce
I0403 15:06:04.239589 31131 net.cpp:148] Top shape: 24 32 14 14 (150528)
I0403 15:06:04.239605 31131 net.cpp:156] Memory required for data: 1236731424
I0403 15:06:04.239624 31131 layer_factory.hpp:77] Creating layer inception_4e/relu_5x5_reduce
I0403 15:06:04.239645 31131 net.cpp:91] Creating Layer inception_4e/relu_5x5_reduce
I0403 15:06:04.239665 31131 net.cpp:425] inception_4e/relu_5x5_reduce <- inception_4e/5x5_reduce
I0403 15:06:04.239682 31131 net.cpp:386] inception_4e/relu_5x5_reduce -> inception_4e/5x5_reduce (in-place)
I0403 15:06:04.239984 31131 net.cpp:141] Setting up inception_4e/relu_5x5_reduce
I0403 15:06:04.240010 31131 net.cpp:148] Top shape: 24 32 14 14 (150528)
I0403 15:06:04.240026 31131 net.cpp:156] Memory required for data: 1237333536
I0403 15:06:04.240042 31131 layer_factory.hpp:77] Creating layer inception_4e/5x5
I0403 15:06:04.240082 31131 net.cpp:91] Creating Layer inception_4e/5x5
I0403 15:06:04.240103 31131 net.cpp:425] inception_4e/5x5 <- inception_4e/5x5_reduce
I0403 15:06:04.240123 31131 net.cpp:399] inception_4e/5x5 -> inception_4e/5x5
I0403 15:06:04.241987 31131 net.cpp:141] Setting up inception_4e/5x5
I0403 15:06:04.242017 31131 net.cpp:148] Top shape: 24 128 14 14 (602112)
I0403 15:06:04.242035 31131 net.cpp:156] Memory required for data: 1239741984
I0403 15:06:04.242055 31131 layer_factory.hpp:77] Creating layer inception_4e/relu_5x5
I0403 15:06:04.242077 31131 net.cpp:91] Creating Layer inception_4e/relu_5x5
I0403 15:06:04.242095 31131 net.cpp:425] inception_4e/relu_5x5 <- inception_4e/5x5
I0403 15:06:04.242115 31131 net.cpp:386] inception_4e/relu_5x5 -> inception_4e/5x5 (in-place)
I0403 15:06:04.242321 31131 net.cpp:141] Setting up inception_4e/relu_5x5
I0403 15:06:04.242347 31131 net.cpp:148] Top shape: 24 128 14 14 (602112)
I0403 15:06:04.242362 31131 net.cpp:156] Memory required for data: 1242150432
I0403 15:06:04.242377 31131 layer_factory.hpp:77] Creating layer inception_4e/pool
I0403 15:06:04.242398 31131 net.cpp:91] Creating Layer inception_4e/pool
I0403 15:06:04.242415 31131 net.cpp:425] inception_4e/pool <- inception_4d/output_inception_4d/output_0_split_4
I0403 15:06:04.242434 31131 net.cpp:399] inception_4e/pool -> inception_4e/pool
I0403 15:06:04.242507 31131 net.cpp:141] Setting up inception_4e/pool
I0403 15:06:04.242532 31131 net.cpp:148] Top shape: 24 528 14 14 (2483712)
I0403 15:06:04.242548 31131 net.cpp:156] Memory required for data: 1252085280
I0403 15:06:04.242563 31131 layer_factory.hpp:77] Creating layer inception_4e/pool_proj
I0403 15:06:04.242585 31131 net.cpp:91] Creating Layer inception_4e/pool_proj
I0403 15:06:04.242604 31131 net.cpp:425] inception_4e/pool_proj <- inception_4e/pool
I0403 15:06:04.242627 31131 net.cpp:399] inception_4e/pool_proj -> inception_4e/pool_proj
I0403 15:06:04.244138 31131 net.cpp:141] Setting up inception_4e/pool_proj
I0403 15:06:04.244166 31131 net.cpp:148] Top shape: 24 128 14 14 (602112)
I0403 15:06:04.244197 31131 net.cpp:156] Memory required for data: 1254493728
I0403 15:06:04.244217 31131 layer_factory.hpp:77] Creating layer inception_4e/relu_pool_proj
I0403 15:06:04.244237 31131 net.cpp:91] Creating Layer inception_4e/relu_pool_proj
I0403 15:06:04.244257 31131 net.cpp:425] inception_4e/relu_pool_proj <- inception_4e/pool_proj
I0403 15:06:04.244276 31131 net.cpp:386] inception_4e/relu_pool_proj -> inception_4e/pool_proj (in-place)
I0403 15:06:04.244591 31131 net.cpp:141] Setting up inception_4e/relu_pool_proj
I0403 15:06:04.244633 31131 net.cpp:148] Top shape: 24 128 14 14 (602112)
I0403 15:06:04.244668 31131 net.cpp:156] Memory required for data: 1256902176
I0403 15:06:04.244693 31131 layer_factory.hpp:77] Creating layer inception_4e/output
I0403 15:06:04.244712 31131 net.cpp:91] Creating Layer inception_4e/output
I0403 15:06:04.244750 31131 net.cpp:425] inception_4e/output <- inception_4e/1x1
I0403 15:06:04.244767 31131 net.cpp:425] inception_4e/output <- inception_4e/3x3
I0403 15:06:04.244784 31131 net.cpp:425] inception_4e/output <- inception_4e/5x5
I0403 15:06:04.244801 31131 net.cpp:425] inception_4e/output <- inception_4e/pool_proj
I0403 15:06:04.244822 31131 net.cpp:399] inception_4e/output -> inception_4e/output
I0403 15:06:04.244873 31131 net.cpp:141] Setting up inception_4e/output
I0403 15:06:04.244910 31131 net.cpp:148] Top shape: 24 832 14 14 (3913728)
I0403 15:06:04.244949 31131 net.cpp:156] Memory required for data: 1272557088
I0403 15:06:04.244993 31131 layer_factory.hpp:77] Creating layer pool4/3x3_s2
I0403 15:06:04.245038 31131 net.cpp:91] Creating Layer pool4/3x3_s2
I0403 15:06:04.245067 31131 net.cpp:425] pool4/3x3_s2 <- inception_4e/output
I0403 15:06:04.245100 31131 net.cpp:399] pool4/3x3_s2 -> pool4/3x3_s2
I0403 15:06:04.245185 31131 net.cpp:141] Setting up pool4/3x3_s2
I0403 15:06:04.245211 31131 net.cpp:148] Top shape: 24 832 7 7 (978432)
I0403 15:06:04.245228 31131 net.cpp:156] Memory required for data: 1276470816
I0403 15:06:04.245242 31131 layer_factory.hpp:77] Creating layer pool4/3x3_s2_pool4/3x3_s2_0_split
I0403 15:06:04.245262 31131 net.cpp:91] Creating Layer pool4/3x3_s2_pool4/3x3_s2_0_split
I0403 15:06:04.245280 31131 net.cpp:425] pool4/3x3_s2_pool4/3x3_s2_0_split <- pool4/3x3_s2
I0403 15:06:04.245302 31131 net.cpp:399] pool4/3x3_s2_pool4/3x3_s2_0_split -> pool4/3x3_s2_pool4/3x3_s2_0_split_0
I0403 15:06:04.245326 31131 net.cpp:399] pool4/3x3_s2_pool4/3x3_s2_0_split -> pool4/3x3_s2_pool4/3x3_s2_0_split_1
I0403 15:06:04.245345 31131 net.cpp:399] pool4/3x3_s2_pool4/3x3_s2_0_split -> pool4/3x3_s2_pool4/3x3_s2_0_split_2
I0403 15:06:04.245365 31131 net.cpp:399] pool4/3x3_s2_pool4/3x3_s2_0_split -> pool4/3x3_s2_pool4/3x3_s2_0_split_3
I0403 15:06:04.245455 31131 net.cpp:141] Setting up pool4/3x3_s2_pool4/3x3_s2_0_split
I0403 15:06:04.245481 31131 net.cpp:148] Top shape: 24 832 7 7 (978432)
I0403 15:06:04.245497 31131 net.cpp:148] Top shape: 24 832 7 7 (978432)
I0403 15:06:04.245513 31131 net.cpp:148] Top shape: 24 832 7 7 (978432)
I0403 15:06:04.245530 31131 net.cpp:148] Top shape: 24 832 7 7 (978432)
I0403 15:06:04.245544 31131 net.cpp:156] Memory required for data: 1292125728
I0403 15:06:04.245558 31131 layer_factory.hpp:77] Creating layer inception_5a/1x1
I0403 15:06:04.245582 31131 net.cpp:91] Creating Layer inception_5a/1x1
I0403 15:06:04.245601 31131 net.cpp:425] inception_5a/1x1 <- pool4/3x3_s2_pool4/3x3_s2_0_split_0
I0403 15:06:04.245622 31131 net.cpp:399] inception_5a/1x1 -> inception_5a/1x1
I0403 15:06:04.248535 31131 net.cpp:141] Setting up inception_5a/1x1
I0403 15:06:04.248564 31131 net.cpp:148] Top shape: 24 256 7 7 (301056)
I0403 15:06:04.248581 31131 net.cpp:156] Memory required for data: 1293329952
I0403 15:06:04.248600 31131 layer_factory.hpp:77] Creating layer inception_5a/relu_1x1
I0403 15:06:04.248622 31131 net.cpp:91] Creating Layer inception_5a/relu_1x1
I0403 15:06:04.248641 31131 net.cpp:425] inception_5a/relu_1x1 <- inception_5a/1x1
I0403 15:06:04.248661 31131 net.cpp:386] inception_5a/relu_1x1 -> inception_5a/1x1 (in-place)
I0403 15:06:04.248981 31131 net.cpp:141] Setting up inception_5a/relu_1x1
I0403 15:06:04.249008 31131 net.cpp:148] Top shape: 24 256 7 7 (301056)
I0403 15:06:04.249024 31131 net.cpp:156] Memory required for data: 1294534176
I0403 15:06:04.249039 31131 layer_factory.hpp:77] Creating layer inception_5a/3x3_reduce
I0403 15:06:04.249063 31131 net.cpp:91] Creating Layer inception_5a/3x3_reduce
I0403 15:06:04.249081 31131 net.cpp:425] inception_5a/3x3_reduce <- pool4/3x3_s2_pool4/3x3_s2_0_split_1
I0403 15:06:04.249104 31131 net.cpp:399] inception_5a/3x3_reduce -> inception_5a/3x3_reduce
I0403 15:06:04.251626 31131 net.cpp:141] Setting up inception_5a/3x3_reduce
I0403 15:06:04.251658 31131 net.cpp:148] Top shape: 24 160 7 7 (188160)
I0403 15:06:04.251674 31131 net.cpp:156] Memory required for data: 1295286816
I0403 15:06:04.251694 31131 layer_factory.hpp:77] Creating layer inception_5a/relu_3x3_reduce
I0403 15:06:04.251713 31131 net.cpp:91] Creating Layer inception_5a/relu_3x3_reduce
I0403 15:06:04.251730 31131 net.cpp:425] inception_5a/relu_3x3_reduce <- inception_5a/3x3_reduce
I0403 15:06:04.251750 31131 net.cpp:386] inception_5a/relu_3x3_reduce -> inception_5a/3x3_reduce (in-place)
I0403 15:06:04.251960 31131 net.cpp:141] Setting up inception_5a/relu_3x3_reduce
I0403 15:06:04.251986 31131 net.cpp:148] Top shape: 24 160 7 7 (188160)
I0403 15:06:04.252002 31131 net.cpp:156] Memory required for data: 1296039456
I0403 15:06:04.252018 31131 layer_factory.hpp:77] Creating layer inception_5a/3x3
I0403 15:06:04.252041 31131 net.cpp:91] Creating Layer inception_5a/3x3
I0403 15:06:04.252079 31131 net.cpp:425] inception_5a/3x3 <- inception_5a/3x3_reduce
I0403 15:06:04.252120 31131 net.cpp:399] inception_5a/3x3 -> inception_5a/3x3
I0403 15:06:04.257079 31131 net.cpp:141] Setting up inception_5a/3x3
I0403 15:06:04.257109 31131 net.cpp:148] Top shape: 24 320 7 7 (376320)
I0403 15:06:04.257127 31131 net.cpp:156] Memory required for data: 1297544736
I0403 15:06:04.257145 31131 layer_factory.hpp:77] Creating layer inception_5a/relu_3x3
I0403 15:06:04.257166 31131 net.cpp:91] Creating Layer inception_5a/relu_3x3
I0403 15:06:04.257184 31131 net.cpp:425] inception_5a/relu_3x3 <- inception_5a/3x3
I0403 15:06:04.257201 31131 net.cpp:386] inception_5a/relu_3x3 -> inception_5a/3x3 (in-place)
I0403 15:06:04.257493 31131 net.cpp:141] Setting up inception_5a/relu_3x3
I0403 15:06:04.257519 31131 net.cpp:148] Top shape: 24 320 7 7 (376320)
I0403 15:06:04.257535 31131 net.cpp:156] Memory required for data: 1299050016
I0403 15:06:04.257550 31131 layer_factory.hpp:77] Creating layer inception_5a/5x5_reduce
I0403 15:06:04.257575 31131 net.cpp:91] Creating Layer inception_5a/5x5_reduce
I0403 15:06:04.257593 31131 net.cpp:425] inception_5a/5x5_reduce <- pool4/3x3_s2_pool4/3x3_s2_0_split_2
I0403 15:06:04.257616 31131 net.cpp:399] inception_5a/5x5_reduce -> inception_5a/5x5_reduce
I0403 15:06:04.258849 31131 net.cpp:141] Setting up inception_5a/5x5_reduce
I0403 15:06:04.258878 31131 net.cpp:148] Top shape: 24 32 7 7 (37632)
I0403 15:06:04.258894 31131 net.cpp:156] Memory required for data: 1299200544
I0403 15:06:04.258913 31131 layer_factory.hpp:77] Creating layer inception_5a/relu_5x5_reduce
I0403 15:06:04.258934 31131 net.cpp:91] Creating Layer inception_5a/relu_5x5_reduce
I0403 15:06:04.258952 31131 net.cpp:425] inception_5a/relu_5x5_reduce <- inception_5a/5x5_reduce
I0403 15:06:04.258970 31131 net.cpp:386] inception_5a/relu_5x5_reduce -> inception_5a/5x5_reduce (in-place)
I0403 15:06:04.259266 31131 net.cpp:141] Setting up inception_5a/relu_5x5_reduce
I0403 15:06:04.259299 31131 net.cpp:148] Top shape: 24 32 7 7 (37632)
I0403 15:06:04.259315 31131 net.cpp:156] Memory required for data: 1299351072
I0403 15:06:04.259330 31131 layer_factory.hpp:77] Creating layer inception_5a/5x5
I0403 15:06:04.259351 31131 net.cpp:91] Creating Layer inception_5a/5x5
I0403 15:06:04.259368 31131 net.cpp:425] inception_5a/5x5 <- inception_5a/5x5_reduce
I0403 15:06:04.259389 31131 net.cpp:399] inception_5a/5x5 -> inception_5a/5x5
I0403 15:06:04.261178 31131 net.cpp:141] Setting up inception_5a/5x5
I0403 15:06:04.261219 31131 net.cpp:148] Top shape: 24 128 7 7 (150528)
I0403 15:06:04.261236 31131 net.cpp:156] Memory required for data: 1299953184
I0403 15:06:04.261256 31131 layer_factory.hpp:77] Creating layer inception_5a/relu_5x5
I0403 15:06:04.261277 31131 net.cpp:91] Creating Layer inception_5a/relu_5x5
I0403 15:06:04.261301 31131 net.cpp:425] inception_5a/relu_5x5 <- inception_5a/5x5
I0403 15:06:04.261319 31131 net.cpp:386] inception_5a/relu_5x5 -> inception_5a/5x5 (in-place)
I0403 15:06:04.261514 31131 net.cpp:141] Setting up inception_5a/relu_5x5
I0403 15:06:04.261564 31131 net.cpp:148] Top shape: 24 128 7 7 (150528)
I0403 15:06:04.261607 31131 net.cpp:156] Memory required for data: 1300555296
I0403 15:06:04.261622 31131 layer_factory.hpp:77] Creating layer inception_5a/pool
I0403 15:06:04.261642 31131 net.cpp:91] Creating Layer inception_5a/pool
I0403 15:06:04.261659 31131 net.cpp:425] inception_5a/pool <- pool4/3x3_s2_pool4/3x3_s2_0_split_3
I0403 15:06:04.261678 31131 net.cpp:399] inception_5a/pool -> inception_5a/pool
I0403 15:06:04.261752 31131 net.cpp:141] Setting up inception_5a/pool
I0403 15:06:04.261777 31131 net.cpp:148] Top shape: 24 832 7 7 (978432)
I0403 15:06:04.261792 31131 net.cpp:156] Memory required for data: 1304469024
I0403 15:06:04.261807 31131 layer_factory.hpp:77] Creating layer inception_5a/pool_proj
I0403 15:06:04.261829 31131 net.cpp:91] Creating Layer inception_5a/pool_proj
I0403 15:06:04.261848 31131 net.cpp:425] inception_5a/pool_proj <- inception_5a/pool
I0403 15:06:04.261869 31131 net.cpp:399] inception_5a/pool_proj -> inception_5a/pool_proj
I0403 15:06:04.264277 31131 net.cpp:141] Setting up inception_5a/pool_proj
I0403 15:06:04.264318 31131 net.cpp:148] Top shape: 24 128 7 7 (150528)
I0403 15:06:04.264336 31131 net.cpp:156] Memory required for data: 1305071136
I0403 15:06:04.264355 31131 layer_factory.hpp:77] Creating layer inception_5a/relu_pool_proj
I0403 15:06:04.264375 31131 net.cpp:91] Creating Layer inception_5a/relu_pool_proj
I0403 15:06:04.264392 31131 net.cpp:425] inception_5a/relu_pool_proj <- inception_5a/pool_proj
I0403 15:06:04.264415 31131 net.cpp:386] inception_5a/relu_pool_proj -> inception_5a/pool_proj (in-place)
I0403 15:06:04.264730 31131 net.cpp:141] Setting up inception_5a/relu_pool_proj
I0403 15:06:04.264758 31131 net.cpp:148] Top shape: 24 128 7 7 (150528)
I0403 15:06:04.264775 31131 net.cpp:156] Memory required for data: 1305673248
I0403 15:06:04.264791 31131 layer_factory.hpp:77] Creating layer inception_5a/output
I0403 15:06:04.264808 31131 net.cpp:91] Creating Layer inception_5a/output
I0403 15:06:04.264825 31131 net.cpp:425] inception_5a/output <- inception_5a/1x1
I0403 15:06:04.264843 31131 net.cpp:425] inception_5a/output <- inception_5a/3x3
I0403 15:06:04.264860 31131 net.cpp:425] inception_5a/output <- inception_5a/5x5
I0403 15:06:04.264878 31131 net.cpp:425] inception_5a/output <- inception_5a/pool_proj
I0403 15:06:04.264899 31131 net.cpp:399] inception_5a/output -> inception_5a/output
I0403 15:06:04.264950 31131 net.cpp:141] Setting up inception_5a/output
I0403 15:06:04.264978 31131 net.cpp:148] Top shape: 24 832 7 7 (978432)
I0403 15:06:04.264994 31131 net.cpp:156] Memory required for data: 1309586976
I0403 15:06:04.265010 31131 layer_factory.hpp:77] Creating layer inception_5a/output_inception_5a/output_0_split
I0403 15:06:04.265028 31131 net.cpp:91] Creating Layer inception_5a/output_inception_5a/output_0_split
I0403 15:06:04.265046 31131 net.cpp:425] inception_5a/output_inception_5a/output_0_split <- inception_5a/output
I0403 15:06:04.265065 31131 net.cpp:399] inception_5a/output_inception_5a/output_0_split -> inception_5a/output_inception_5a/output_0_split_0
I0403 15:06:04.265086 31131 net.cpp:399] inception_5a/output_inception_5a/output_0_split -> inception_5a/output_inception_5a/output_0_split_1
I0403 15:06:04.265108 31131 net.cpp:399] inception_5a/output_inception_5a/output_0_split -> inception_5a/output_inception_5a/output_0_split_2
I0403 15:06:04.265131 31131 net.cpp:399] inception_5a/output_inception_5a/output_0_split -> inception_5a/output_inception_5a/output_0_split_3
I0403 15:06:04.265249 31131 net.cpp:141] Setting up inception_5a/output_inception_5a/output_0_split
I0403 15:06:04.265275 31131 net.cpp:148] Top shape: 24 832 7 7 (978432)
I0403 15:06:04.265298 31131 net.cpp:148] Top shape: 24 832 7 7 (978432)
I0403 15:06:04.265316 31131 net.cpp:148] Top shape: 24 832 7 7 (978432)
I0403 15:06:04.265331 31131 net.cpp:148] Top shape: 24 832 7 7 (978432)
I0403 15:06:04.265347 31131 net.cpp:156] Memory required for data: 1325241888
I0403 15:06:04.265362 31131 layer_factory.hpp:77] Creating layer inception_5b/1x1
I0403 15:06:04.265385 31131 net.cpp:91] Creating Layer inception_5b/1x1
I0403 15:06:04.265404 31131 net.cpp:425] inception_5b/1x1 <- inception_5a/output_inception_5a/output_0_split_0
I0403 15:06:04.265430 31131 net.cpp:399] inception_5b/1x1 -> inception_5b/1x1
I0403 15:06:04.269386 31131 net.cpp:141] Setting up inception_5b/1x1
I0403 15:06:04.269419 31131 net.cpp:148] Top shape: 24 384 7 7 (451584)
I0403 15:06:04.269438 31131 net.cpp:156] Memory required for data: 1327048224
I0403 15:06:04.269457 31131 layer_factory.hpp:77] Creating layer inception_5b/relu_1x1
I0403 15:06:04.269477 31131 net.cpp:91] Creating Layer inception_5b/relu_1x1
I0403 15:06:04.269495 31131 net.cpp:425] inception_5b/relu_1x1 <- inception_5b/1x1
I0403 15:06:04.269515 31131 net.cpp:386] inception_5b/relu_1x1 -> inception_5b/1x1 (in-place)
I0403 15:06:04.269830 31131 net.cpp:141] Setting up inception_5b/relu_1x1
I0403 15:06:04.269871 31131 net.cpp:148] Top shape: 24 384 7 7 (451584)
I0403 15:06:04.269889 31131 net.cpp:156] Memory required for data: 1328854560
I0403 15:06:04.269906 31131 layer_factory.hpp:77] Creating layer inception_5b/3x3_reduce
I0403 15:06:04.269929 31131 net.cpp:91] Creating Layer inception_5b/3x3_reduce
I0403 15:06:04.269949 31131 net.cpp:425] inception_5b/3x3_reduce <- inception_5a/output_inception_5a/output_0_split_1
I0403 15:06:04.269969 31131 net.cpp:399] inception_5b/3x3_reduce -> inception_5b/3x3_reduce
I0403 15:06:04.272847 31131 net.cpp:141] Setting up inception_5b/3x3_reduce
I0403 15:06:04.272881 31131 net.cpp:148] Top shape: 24 192 7 7 (225792)
I0403 15:06:04.272897 31131 net.cpp:156] Memory required for data: 1329757728
I0403 15:06:04.272915 31131 layer_factory.hpp:77] Creating layer inception_5b/relu_3x3_reduce
I0403 15:06:04.272934 31131 net.cpp:91] Creating Layer inception_5b/relu_3x3_reduce
I0403 15:06:04.272951 31131 net.cpp:425] inception_5b/relu_3x3_reduce <- inception_5b/3x3_reduce
I0403 15:06:04.272972 31131 net.cpp:386] inception_5b/relu_3x3_reduce -> inception_5b/3x3_reduce (in-place)
I0403 15:06:04.273174 31131 net.cpp:141] Setting up inception_5b/relu_3x3_reduce
I0403 15:06:04.273201 31131 net.cpp:148] Top shape: 24 192 7 7 (225792)
I0403 15:06:04.273216 31131 net.cpp:156] Memory required for data: 1330660896
I0403 15:06:04.273232 31131 layer_factory.hpp:77] Creating layer inception_5b/3x3
I0403 15:06:04.273255 31131 net.cpp:91] Creating Layer inception_5b/3x3
I0403 15:06:04.273275 31131 net.cpp:425] inception_5b/3x3 <- inception_5b/3x3_reduce
I0403 15:06:04.273303 31131 net.cpp:399] inception_5b/3x3 -> inception_5b/3x3
I0403 15:06:04.280272 31131 net.cpp:141] Setting up inception_5b/3x3
I0403 15:06:04.280308 31131 net.cpp:148] Top shape: 24 384 7 7 (451584)
I0403 15:06:04.280328 31131 net.cpp:156] Memory required for data: 1332467232
I0403 15:06:04.280347 31131 layer_factory.hpp:77] Creating layer inception_5b/relu_3x3
I0403 15:06:04.280366 31131 net.cpp:91] Creating Layer inception_5b/relu_3x3
I0403 15:06:04.280383 31131 net.cpp:425] inception_5b/relu_3x3 <- inception_5b/3x3
I0403 15:06:04.280405 31131 net.cpp:386] inception_5b/relu_3x3 -> inception_5b/3x3 (in-place)
I0403 15:06:04.280719 31131 net.cpp:141] Setting up inception_5b/relu_3x3
I0403 15:06:04.280745 31131 net.cpp:148] Top shape: 24 384 7 7 (451584)
I0403 15:06:04.280762 31131 net.cpp:156] Memory required for data: 1334273568
I0403 15:06:04.280778 31131 layer_factory.hpp:77] Creating layer inception_5b/5x5_reduce
I0403 15:06:04.280830 31131 net.cpp:91] Creating Layer inception_5b/5x5_reduce
I0403 15:06:04.280850 31131 net.cpp:425] inception_5b/5x5_reduce <- inception_5a/output_inception_5a/output_0_split_2
I0403 15:06:04.280874 31131 net.cpp:399] inception_5b/5x5_reduce -> inception_5b/5x5_reduce
I0403 15:06:04.282239 31131 net.cpp:141] Setting up inception_5b/5x5_reduce
I0403 15:06:04.282269 31131 net.cpp:148] Top shape: 24 48 7 7 (56448)
I0403 15:06:04.282289 31131 net.cpp:156] Memory required for data: 1334499360
I0403 15:06:04.282310 31131 layer_factory.hpp:77] Creating layer inception_5b/relu_5x5_reduce
I0403 15:06:04.282328 31131 net.cpp:91] Creating Layer inception_5b/relu_5x5_reduce
I0403 15:06:04.282346 31131 net.cpp:425] inception_5b/relu_5x5_reduce <- inception_5b/5x5_reduce
I0403 15:06:04.282368 31131 net.cpp:386] inception_5b/relu_5x5_reduce -> inception_5b/5x5_reduce (in-place)
I0403 15:06:04.282757 31131 net.cpp:141] Setting up inception_5b/relu_5x5_reduce
I0403 15:06:04.282784 31131 net.cpp:148] Top shape: 24 48 7 7 (56448)
I0403 15:06:04.282800 31131 net.cpp:156] Memory required for data: 1334725152
I0403 15:06:04.282816 31131 layer_factory.hpp:77] Creating layer inception_5b/5x5
I0403 15:06:04.282837 31131 net.cpp:91] Creating Layer inception_5b/5x5
I0403 15:06:04.282855 31131 net.cpp:425] inception_5b/5x5 <- inception_5b/5x5_reduce
I0403 15:06:04.282876 31131 net.cpp:399] inception_5b/5x5 -> inception_5b/5x5
I0403 15:06:04.285130 31131 net.cpp:141] Setting up inception_5b/5x5
I0403 15:06:04.285177 31131 net.cpp:148] Top shape: 24 128 7 7 (150528)
I0403 15:06:04.285218 31131 net.cpp:156] Memory required for data: 1335327264
I0403 15:06:04.285262 31131 layer_factory.hpp:77] Creating layer inception_5b/relu_5x5
I0403 15:06:04.285303 31131 net.cpp:91] Creating Layer inception_5b/relu_5x5
I0403 15:06:04.285328 31131 net.cpp:425] inception_5b/relu_5x5 <- inception_5b/5x5
I0403 15:06:04.285368 31131 net.cpp:386] inception_5b/relu_5x5 -> inception_5b/5x5 (in-place)
I0403 15:06:04.285578 31131 net.cpp:141] Setting up inception_5b/relu_5x5
I0403 15:06:04.285625 31131 net.cpp:148] Top shape: 24 128 7 7 (150528)
I0403 15:06:04.285650 31131 net.cpp:156] Memory required for data: 1335929376
I0403 15:06:04.285694 31131 layer_factory.hpp:77] Creating layer inception_5b/pool
I0403 15:06:04.285723 31131 net.cpp:91] Creating Layer inception_5b/pool
I0403 15:06:04.285768 31131 net.cpp:425] inception_5b/pool <- inception_5a/output_inception_5a/output_0_split_3
I0403 15:06:04.285815 31131 net.cpp:399] inception_5b/pool -> inception_5b/pool
I0403 15:06:04.285909 31131 net.cpp:141] Setting up inception_5b/pool
I0403 15:06:04.285959 31131 net.cpp:148] Top shape: 24 832 7 7 (978432)
I0403 15:06:04.285996 31131 net.cpp:156] Memory required for data: 1339843104
I0403 15:06:04.286037 31131 layer_factory.hpp:77] Creating layer inception_5b/pool_proj
I0403 15:06:04.286092 31131 net.cpp:91] Creating Layer inception_5b/pool_proj
I0403 15:06:04.286123 31131 net.cpp:425] inception_5b/pool_proj <- inception_5b/pool
I0403 15:06:04.286164 31131 net.cpp:399] inception_5b/pool_proj -> inception_5b/pool_proj
I0403 15:06:04.288595 31131 net.cpp:141] Setting up inception_5b/pool_proj
I0403 15:06:04.288642 31131 net.cpp:148] Top shape: 24 128 7 7 (150528)
I0403 15:06:04.288684 31131 net.cpp:156] Memory required for data: 1340445216
I0403 15:06:04.288725 31131 layer_factory.hpp:77] Creating layer inception_5b/relu_pool_proj
I0403 15:06:04.288761 31131 net.cpp:91] Creating Layer inception_5b/relu_pool_proj
I0403 15:06:04.288803 31131 net.cpp:425] inception_5b/relu_pool_proj <- inception_5b/pool_proj
I0403 15:06:04.288847 31131 net.cpp:386] inception_5b/relu_pool_proj -> inception_5b/pool_proj (in-place)
I0403 15:06:04.289186 31131 net.cpp:141] Setting up inception_5b/relu_pool_proj
I0403 15:06:04.289230 31131 net.cpp:148] Top shape: 24 128 7 7 (150528)
I0403 15:06:04.289248 31131 net.cpp:156] Memory required for data: 1341047328
I0403 15:06:04.289264 31131 layer_factory.hpp:77] Creating layer inception_5b/output
I0403 15:06:04.289286 31131 net.cpp:91] Creating Layer inception_5b/output
I0403 15:06:04.289320 31131 net.cpp:425] inception_5b/output <- inception_5b/1x1
I0403 15:06:04.289340 31131 net.cpp:425] inception_5b/output <- inception_5b/3x3
I0403 15:06:04.289358 31131 net.cpp:425] inception_5b/output <- inception_5b/5x5
I0403 15:06:04.289376 31131 net.cpp:425] inception_5b/output <- inception_5b/pool_proj
I0403 15:06:04.289399 31131 net.cpp:399] inception_5b/output -> inception_5b/output
I0403 15:06:04.289454 31131 net.cpp:141] Setting up inception_5b/output
I0403 15:06:04.289482 31131 net.cpp:148] Top shape: 24 1024 7 7 (1204224)
I0403 15:06:04.289501 31131 net.cpp:156] Memory required for data: 1345864224
I0403 15:06:04.289520 31131 layer_factory.hpp:77] Creating layer pool5/7x7_s1
I0403 15:06:04.289546 31131 net.cpp:91] Creating Layer pool5/7x7_s1
I0403 15:06:04.289574 31131 net.cpp:425] pool5/7x7_s1 <- inception_5b/output
I0403 15:06:04.289611 31131 net.cpp:399] pool5/7x7_s1 -> pool5/7x7_s1
I0403 15:06:04.289847 31131 net.cpp:141] Setting up pool5/7x7_s1
I0403 15:06:04.289875 31131 net.cpp:148] Top shape: 24 1024 1 1 (24576)
I0403 15:06:04.289892 31131 net.cpp:156] Memory required for data: 1345962528
I0403 15:06:04.289908 31131 layer_factory.hpp:77] Creating layer pool5/drop_7x7_s1
I0403 15:06:04.289930 31131 net.cpp:91] Creating Layer pool5/drop_7x7_s1
I0403 15:06:04.289949 31131 net.cpp:425] pool5/drop_7x7_s1 <- pool5/7x7_s1
I0403 15:06:04.289968 31131 net.cpp:386] pool5/drop_7x7_s1 -> pool5/7x7_s1 (in-place)
I0403 15:06:04.290024 31131 net.cpp:141] Setting up pool5/drop_7x7_s1
I0403 15:06:04.290051 31131 net.cpp:148] Top shape: 24 1024 1 1 (24576)
I0403 15:06:04.290067 31131 net.cpp:156] Memory required for data: 1346060832
I0403 15:06:04.290083 31131 layer_factory.hpp:77] Creating layer loss3/classifier_plantvillage
I0403 15:06:04.290105 31131 net.cpp:91] Creating Layer loss3/classifier_plantvillage
I0403 15:06:04.290125 31131 net.cpp:425] loss3/classifier_plantvillage <- pool5/7x7_s1
I0403 15:06:04.290148 31131 net.cpp:399] loss3/classifier_plantvillage -> loss3/classifier_plantvillage
I0403 15:06:04.290612 31131 net.cpp:141] Setting up loss3/classifier_plantvillage
I0403 15:06:04.290642 31131 net.cpp:148] Top shape: 24 38 (912)
I0403 15:06:04.290658 31131 net.cpp:156] Memory required for data: 1346064480
I0403 15:06:04.290678 31131 layer_factory.hpp:77] Creating layer loss3/classifier_plantvillage_loss3/classifier_plantvillage_0_split
I0403 15:06:04.290698 31131 net.cpp:91] Creating Layer loss3/classifier_plantvillage_loss3/classifier_plantvillage_0_split
I0403 15:06:04.290714 31131 net.cpp:425] loss3/classifier_plantvillage_loss3/classifier_plantvillage_0_split <- loss3/classifier_plantvillage
I0403 15:06:04.290735 31131 net.cpp:399] loss3/classifier_plantvillage_loss3/classifier_plantvillage_0_split -> loss3/classifier_plantvillage_loss3/classifier_plantvillage_0_split_0
I0403 15:06:04.290760 31131 net.cpp:399] loss3/classifier_plantvillage_loss3/classifier_plantvillage_0_split -> loss3/classifier_plantvillage_loss3/classifier_plantvillage_0_split_1
I0403 15:06:04.290784 31131 net.cpp:399] loss3/classifier_plantvillage_loss3/classifier_plantvillage_0_split -> loss3/classifier_plantvillage_loss3/classifier_plantvillage_0_split_2
I0403 15:06:04.290807 31131 net.cpp:399] loss3/classifier_plantvillage_loss3/classifier_plantvillage_0_split -> loss3/classifier_plantvillage_loss3/classifier_plantvillage_0_split_3
I0403 15:06:04.290925 31131 net.cpp:141] Setting up loss3/classifier_plantvillage_loss3/classifier_plantvillage_0_split
I0403 15:06:04.290951 31131 net.cpp:148] Top shape: 24 38 (912)
I0403 15:06:04.290969 31131 net.cpp:148] Top shape: 24 38 (912)
I0403 15:06:04.290987 31131 net.cpp:148] Top shape: 24 38 (912)
I0403 15:06:04.291002 31131 net.cpp:148] Top shape: 24 38 (912)
I0403 15:06:04.291018 31131 net.cpp:156] Memory required for data: 1346079072
I0403 15:06:04.291033 31131 layer_factory.hpp:77] Creating layer loss1/loss
I0403 15:06:04.291059 31131 net.cpp:91] Creating Layer loss1/loss
I0403 15:06:04.291079 31131 net.cpp:425] loss1/loss <- loss1/classifier_plantvillage_loss1/classifier_plantvillage_0_split_0
I0403 15:06:04.291115 31131 net.cpp:425] loss1/loss <- label_data_1_split_0
…
