…
I0403 15:07:29.683822 31160 net.cpp:313] The NetState phase (1) differed from the phase (0) specified by a rule in layer data
I0403 15:07:29.685003 31160 net.cpp:49] Initializing net from parameters: 
state {
  phase: TEST
}
layer {
  name: "data"
  type: "Data"
  top: "data"
  top: "label"
  include {
    phase: TEST
  }
  transform_param {
    mirror: false
    crop_size: 224
    mean_file: "/home/mohanty/data/final_dataset/lmdb/color-60-40/mean.binaryproto"
  }
  data_param {
    source: "/home/mohanty/data/final_dataset/lmdb/color-60-40/test_db"
    batch_size: 24
    backend: LMDB
  }
}
layer {
  name: "conv1/7x7_s2"
  type: "Convolution"
  bottom: "data"
  top: "conv1/7x7_s2"
  param {
    lr_mult: 1
    decay_mult: 1
  }
  param {
    lr_mult: 2
    decay_mult: 0
  }
  convolution_param {
    num_output: 64
    pad: 3
    kernel_size: 7
    stride: 2
    weight_filler {
      type: "xavier"
      std: 0.1
    }
    bias_filler {
      type: "constant"
      value: 0.2
    }
  }
}
layer {
  name: "conv1/relu_7x7"
  type: "ReLU"
  bottom: "conv1/7x7_s2"
  top: "conv1/7x7_s2"
}
layer {
  name: "pool1/3x3_s2"
  type: "Pooling"
  bottom: "conv1/7x7_s2"
  top: "pool1/3x3_s2"
  pooling_param {
    pool: MAX
    kernel_size: 3
    stride: 2
  }
}
layer {
  name: "pool1/norm1"
  type: "LRN"
  bottom: "pool1/3x3_s2"
  top: "pool1/norm1"
  lrn_param {
    local_size: 5
    alpha: 0.0001
    beta: 0.75
  }
}
layer {
  name: "conv2/3x3_reduce"
  type: "Convolution"
  bottom: "pool1/norm1"
  top: "conv2/3x3_reduce"
  param {
    lr_mult: 1
    decay_mult: 1
  }
  param {
    lr_mult: 2
    decay_mult: 0
  }
  convolution_param {
    num_output: 64
    kernel_size: 1
    weight_filler {
      type: "xavier"
      std: 0.1
    }
    bias_filler {
      type: "constant"
      value: 0.2
    }
  }
}
layer {
  name: "conv2/relu_3x3_reduce"
  type: "ReLU"
  bottom: "conv2/3x3_reduce"
  top: "conv2/3x3_reduce"
}
layer {
  name: "conv2/3x3"
  type: "Convolution"
  bottom: "conv2/3x3_reduce"
  top: "conv2/3x3"
  param {
    lr_mult: 1
    decay_mult: 1
  }
  param {
    lr_mult: 2
    decay_mult: 0
  }
  convolution_param {
    num_output: 192
    pad: 1
    kernel_size: 3
    weight_filler {
      type: "xavier"
      std: 0.03
    }
    bias_filler {
      type: "constant"
      value: 0.2
    }
  }
}
layer {
  name: "conv2/relu_3x3"
  type: "ReLU"
  bottom: "conv2/3x3"
  top: "conv2/3x3"
}
layer {
  name: "conv2/norm2"
  type: "LRN"
  bottom: "conv2/3x3"
  top: "conv2/norm2"
  lrn_param {
    local_size: 5
    alpha: 0.0001
    beta: 0.75
  }
}
layer {
  name: "pool2/3x3_s2"
  type: "Pooling"
  bottom: "conv2/norm2"
  top: "pool2/3x3_s2"
  pooling_param {
    pool: MAX
    kernel_size: 3
    stride: 2
  }
}
layer {
  name: "inception_3a/1x1"
  type: "Convolution"
  bottom: "pool2/3x3_s2"
  top: "inception_3a/1x1"
  param {
    lr_mult: 1
    decay_mult: 1
  }
  param {
    lr_mult: 2
    decay_mult: 0
  }
  convolution_param {
    num_output: 64
    kernel_size: 1
    weight_filler {
      type: "xavier"
      std: 0.03
    }
    bias_filler {
      type: "constant"
      value: 0.2
    }
  }
}
layer {
  name: "inception_3a/relu_1x1"
  type: "ReLU"
  bottom: "inception_3a/1x1"
  top: "inception_3a/1x1"
}
layer {
  name: "inception_3a/3x3_reduce"
  type: "Convolution"
  bottom: "pool2/3x3_s2"
  top: "inception_3a/3x3_reduce"
  param {
    lr_mult: 1
    decay_mult: 1
  }
  param {
    lr_mult: 2
    decay_mult: 0
  }
  convolution_param {
    num_output: 96
    kernel_size: 1
    weight_filler {
      type: "xavier"
      std: 0.09
    }
    bias_filler {
      type: "constant"
      value: 0.2
    }
  }
}
layer {
  name: "inception_3a/relu_3x3_reduce"
  type: "ReLU"
  bottom: "inception_3a/3x3_reduce"
  top: "inception_3a/3x3_reduce"
}
layer {
  name: "inception_3a/3x3"
  type: "Convolution"
  bottom: "inception_3a/3x3_reduce"
  top: "inception_3a/3x3"
  param {
    lr_mult: 1
    decay_mult: 1
  }
  param {
    lr_mult: 2
    decay_mult: 0
  }
  convolution_param {
    num_output: 128
    pad: 1
    kernel_size: 3
    weight_filler {
      type: "xavier"
      std: 0.03
    }
    bias_filler {
      type: "constant"
      value: 0.2
    }
  }
}
layer {
  name: "inception_3a/relu_3x3"
  type: "ReLU"
  bottom: "inception_3a/3x3"
  top: "inception_3a/3x3"
}
layer {
  name: "inception_3a/5x5_reduce"
  type: "Convolution"
  bottom: "pool2/3x3_s2"
  top: "inception_3a/5x5_reduce"
  param {
    lr_mult: 1
    decay_mult: 1
  }
  param {
    lr_mult: 2
    decay_mult: 0
  }
  convolution_param {
    num_output: 16
    kernel_size: 1
    weight_filler {
      type: "xavier"
      std: 0.2
    }
    bias_filler {
      type: "constant"
      value: 0.2
    }
  }
}
layer {
  name: "inception_3a/relu_5x5_reduce"
  type: "ReLU"
  bottom: "inception_3a/5x5_reduce"
  top: "inception_3a/5x5_reduce"
}
layer {
  name: "inception_3a/5x5"
  type: "Convolution"
  bottom: "inception_3a/5x5_reduce"
  top: "inception_3a/5x5"
  param {
    lr_mult: 1
    decay_mult: 1
  }
  param {
    lr_mult: 2
    decay_mult: 0
  }
  convolution_param {
    num_output: 32
    pad: 2
    kernel_size: 5
    weight_filler {
      type: "xavier"
      std: 0.03
    }
    bias_filler {
      type: "constant"
      value: 0.2
    }
  }
}
layer {
  name: "inception_3a/relu_5x5"
  type: "ReLU"
  bottom: "inception_3a/5x5"
  top: "inception_3a/5x5"
}
layer {
  name: "inception_3a/pool"
  type: "Pooling"
  bottom: "pool2/3x3_s2"
  top: "inception_3a/pool"
  pooling_param {
    pool: MAX
    kernel_size: 3
    stride: 1
    pad: 1
  }
}
layer {
  name: "inception_3a/pool_proj"
  type: "Convolution"
  bottom: "inception_3a/pool"
  top: "inception_3a/pool_proj"
  param {
    lr_mult: 1
    decay_mult: 1
  }
  param {
    lr_mult: 2
    decay_mult: 0
  }
  convolution_param {
    num_output: 32
    kernel_size: 1
    weight_filler {
      type: "xavier"
      std: 0.1
    }
    bias_filler {
      type: "constant"
      value: 0.2
    }
  }
}
layer {
  name: "inception_3a/relu_pool_proj"
  type: "ReLU"
  bottom: "inception_3a/pool_proj"
  top: "inception_3a/pool_proj"
}
layer {
  name: "inception_3a/output"
  type: "Concat"
  bottom: "inception_3a/1x1"
  bottom: "inception_3a/3x3"
  bottom: "inception_3a/5x5"
  bottom: "inception_3a/pool_proj"
  top: "inception_3a/output"
}
layer {
  name: "inception_3b/1x1"
  type: "Convolution"
  bottom: "inception_3a/output"
  top: "inception_3b/1x1"
  param {
    lr_mult: 1
    decay_mult: 1
  }
  param {
    lr_mult: 2
    decay_mult: 0
  }
  convolution_param {
    num_output: 128
    kernel_size: 1
    weight_filler {
      type: "xavier"
      std: 0.03
    }
    bias_filler {
      type: "constant"
      value: 0.2
    }
  }
}
layer {
  name: "inception_3b/relu_1x1"
  type: "ReLU"
  bottom: "inception_3b/1x1"
  top: "inception_3b/1x1"
}
layer {
  name: "inception_3b/3x3_reduce"
  type: "Convolution"
  bottom: "inception_3a/output"
  top: "inception_3b/3x3_reduce"
  param {
    lr_mult: 1
    decay_mult: 1
  }
  param {
    lr_mult: 2
    decay_mult: 0
  }
  convolution_param {
    num_output: 128
    kernel_size: 1
    weight_filler {
      type: "xavier"
      std: 0.09
    }
    bias_filler {
      type: "constant"
      value: 0.2
    }
  }
}
layer {
  name: "inception_3b/relu_3x3_reduce"
  type: "ReLU"
  bottom: "inception_3b/3x3_reduce"
  top: "inception_3b/3x3_reduce"
}
layer {
  name: "inception_3b/3x3"
  type: "Convolution"
  bottom: "inception_3b/3x3_reduce"
  top: "inception_3b/3x3"
  param {
    lr_mult: 1
    decay_mult: 1
  }
  param {
    lr_mult: 2
    decay_mult: 0
  }
  convolution_param {
    num_output: 192
    pad: 1
    kernel_size: 3
    weight_filler {
      type: "xavier"
      std: 0.03
    }
    bias_filler {
      type: "constant"
      value: 0.2
    }
  }
}
layer {
  name: "inception_3b/relu_3x3"
  type: "ReLU"
  bottom: "inception_3b/3x3"
  top: "inception_3b/3x3"
}
layer {
  name: "inception_3b/5x5_reduce"
  type: "Convolution"
  bottom: "inception_3a/output"
  top: "inception_3b/5x5_reduce"
  param {
    lr_mult: 1
    decay_mult: 1
  }
  param {
    lr_mult: 2
    decay_mult: 0
  }
  convolution_param {
    num_output: 32
    kernel_size: 1
    weight_filler {
      type: "xavier"
      std: 0.2
    }
    bias_filler {
      type: "constant"
      value: 0.2
    }
  }
}
layer {
  name: "inception_3b/relu_5x5_reduce"
  type: "ReLU"
  bottom: "inception_3b/5x5_reduce"
  top: "inception_3b/5x5_reduce"
}
layer {
  name: "inception_3b/5x5"
  type: "Convolution"
  bottom: "inception_3b/5x5_reduce"
  top: "inception_3b/5x5"
  param {
    lr_mult: 1
    decay_mult: 1
  }
  param {
    lr_mult: 2
    decay_mult: 0
  }
  convolution_param {
    num_output: 96
    pad: 2
    kernel_size: 5
    weight_filler {
      type: "xavier"
      std: 0.03
    }
    bias_filler {
      type: "constant"
      value: 0.2
    }
  }
}
layer {
  name: "inception_3b/relu_5x5"
  type: "ReLU"
  bottom: "inception_3b/5x5"
  top: "inception_3b/5x5"
}
layer {
  name: "inception_3b/pool"
  type: "Pooling"
  bottom: "inception_3a/output"
  top: "inception_3b/pool"
  pooling_param {
    pool: MAX
    kernel_size: 3
    stride: 1
    pad: 1
  }
}
layer {
  name: "inception_3b/pool_proj"
  type: "Convolution"
  bottom: "inception_3b/pool"
  top: "inception_3b/pool_proj"
  param {
    lr_mult: 1
    decay_mult: 1
  }
  param {
    lr_mult: 2
    decay_mult: 0
  }
  convolution_param {
    num_output: 64
    kernel_size: 1
    weight_filler {
      type: "xavier"
      std: 0.1
    }
    bias_filler {
      type: "constant"
      value: 0.2
    }
  }
}
layer {
  name: "inception_3b/relu_pool_proj"
  type: "ReLU"
  bottom: "inception_3b/pool_proj"
  top: "inception_3b/pool_proj"
}
layer {
  name: "inception_3b/output"
  type: "Concat"
  bottom: "inception_3b/1x1"
  bottom: "inception_3b/3x3"
  bottom: "inception_3b/5x5"
  bottom: "inception_3b/pool_proj"
  top: "inception_3b/output"
}
layer {
  name: "pool3/3x3_s2"
  type: "Pooling"
  bottom: "inception_3b/output"
  top: "pool3/3x3_s2"
  pooling_param {
    pool: MAX
    kernel_size: 3
    stride: 2
  }
}
layer {
  name: "inception_4a/1x1"
  type: "Convolution"
  bottom: "pool3/3x3_s2"
  top: "inception_4a/1x1"
  param {
    lr_mult: 1
    decay_mult: 1
  }
  param {
    lr_mult: 2
    decay_mult: 0
  }
  convolution_param {
    num_output: 192
    kernel_size: 1
    weight_filler {
      type: "xavier"
      std: 0.03
    }
    bias_filler {
      type: "constant"
      value: 0.2
    }
  }
}
layer {
  name: "inception_4a/relu_1x1"
  type: "ReLU"
  bottom: "inception_4a/1x1"
  top: "inception_4a/1x1"
}
layer {
  name: "inception_4a/3x3_reduce"
  type: "Convolution"
  bottom: "pool3/3x3_s2"
  top: "inception_4a/3x3_reduce"
  param {
    lr_mult: 1
    decay_mult: 1
  }
  param {
    lr_mult: 2
    decay_mult: 0
  }
  convolution_param {
    num_output: 96
    kernel_size: 1
    weight_filler {
      type: "xavier"
      std: 0.09
    }
    bias_filler {
      type: "constant"
      value: 0.2
    }
  }
}
layer {
  name: "inception_4a/relu_3x3_reduce"
  type: "ReLU"
  bottom: "inception_4a/3x3_reduce"
  top: "inception_4a/3x3_reduce"
}
layer {
  name: "inception_4a/3x3"
  type: "Convolution"
  bottom: "inception_4a/3x3_reduce"
  top: "inception_4a/3x3"
  param {
    lr_mult: 1
    decay_mult: 1
  }
  param {
    lr_mult: 2
    decay_mult: 0
  }
  convolution_param {
    num_output: 208
    pad: 1
    kernel_size: 3
    weight_filler {
      type: "xavier"
      std: 0.03
    }
    bias_filler {
      type: "constant"
      value: 0.2
    }
  }
}
layer {
  name: "inception_4a/relu_3x3"
  type: "ReLU"
  bottom: "inception_4a/3x3"
  top: "inception_4a/3x3"
}
layer {
  name: "inception_4a/5x5_reduce"
  type: "Convolution"
  bottom: "pool3/3x3_s2"
  top: "inception_4a/5x5_reduce"
  param {
    lr_mult: 1
    decay_mult: 1
  }
  param {
    lr_mult: 2
    decay_mult: 0
  }
  convolution_param {
    num_output: 16
    kernel_size: 1
    weight_filler {
      type: "xavier"
      std: 0.2
    }
    bias_filler {
      type: "constant"
      value: 0.2
    }
  }
}
layer {
  name: "inception_4a/relu_5x5_reduce"
  type: "ReLU"
  bottom: "inception_4a/5x5_reduce"
  top: "inception_4a/5x5_reduce"
}
layer {
  name: "inception_4a/5x5"
  type: "Convolution"
  bottom: "inception_4a/5x5_reduce"
  top: "inception_4a/5x5"
  param {
    lr_mult: 1
    decay_mult: 1
  }
  param {
    lr_mult: 2
    decay_mult: 0
  }
  convolution_param {
    num_output: 48
    pad: 2
    kernel_size: 5
    weight_filler {
      type: "xavier"
      std: 0.03
    }
    bias_filler {
      type: "constant"
      value: 0.2
    }
  }
}
layer {
  name: "inception_4a/relu_5x5"
  type: "ReLU"
  bottom: "inception_4a/5x5"
  top: "inception_4a/5x5"
}
layer {
  name: "inception_4a/pool"
  type: "Pooling"
  bottom: "pool3/3x3_s2"
  top: "inception_4a/pool"
  pooling_param {
    pool: MAX
    kernel_size: 3
    stride: 1
    pad: 1
  }
}
layer {
  name: "inception_4a/pool_proj"
  type: "Convolution"
  bottom: "inception_4a/pool"
  top: "inception_4a/pool_proj"
  param {
    lr_mult: 1
    decay_mult: 1
  }
  param {
    lr_mult: 2
    decay_mult: 0
  }
  convolution_param {
    num_output: 64
    kernel_size: 1
    weight_filler {
      type: "xavier"
      std: 0.1
    }
    bias_filler {
      type: "constant"
      value: 0.2
    }
  }
}
layer {
  name: "inception_4a/relu_pool_proj"
  type: "ReLU"
  bottom: "inception_4a/pool_proj"
  top: "inception_4a/pool_proj"
}
layer {
  name: "inception_4a/output"
  type: "Concat"
  bottom: "inception_4a/1x1"
  bottom: "inception_4a/3x3"
  bottom: "inception_4a/5x5"
  bottom: "inception_4a/pool_proj"
  top: "inception_4a/output"
}
layer {
  name: "loss1/ave_pool"
  type: "Pooling"
  bottom: "inception_4a/output"
  top: "loss1/ave_pool"
  pooling_param {
    pool: AVE
    kernel_size: 5
    stride: 3
  }
}
layer {
  name: "loss1/conv"
  type: "Convolution"
  bottom: "loss1/ave_pool"
  top: "loss1/conv"
  param {
    lr_mult: 1
    decay_mult: 1
  }
  param {
    lr_mult: 2
    decay_mult: 0
  }
  convolution_param {
    num_output: 128
    kernel_size: 1
    weight_filler {
      type: "xavier"
      std: 0.08
    }
    bias_filler {
      type: "constant"
      value: 0.2
    }
  }
}
layer {
  name: "loss1/relu_conv"
  type: "ReLU"
  bottom: "loss1/conv"
  top: "loss1/conv"
}
layer {
  name: "loss1/fc"
  type: "InnerProduct"
  bottom: "loss1/conv"
  top: "loss1/fc"
  param {
    lr_mult: 1
    decay_mult: 1
  }
  param {
    lr_mult: 2
    decay_mult: 0
  }
  inner_product_param {
    num_output: 1024
    weight_filler {
      type: "xavier"
      std: 0.02
    }
    bias_filler {
      type: "constant"
      value: 0.2
    }
  }
}
layer {
  name: "loss1/relu_fc"
  type: "ReLU"
  bottom: "loss1/fc"
  top: "loss1/fc"
}
layer {
  name: "loss1/drop_fc"
  type: "Dropout"
  bottom: "loss1/fc"
  top: "loss1/fc"
  dropout_param {
    dropout_ratio: 0.7
  }
}
layer {
  name: "loss1/classifier_plantvillage"
  type: "InnerProduct"
  bottom: "loss1/fc"
  top: "loss1/classifier_plantvillage"
  param {
    lr_mult: 1
    decay_mult: 1
  }
  param {
    lr_mult: 2
    decay_mult: 0
  }
  inner_product_param {
    num_output: 38
    weight_filler {
      type: "xavier"
      std: 0.0009765625
    }
    bias_filler {
      type: "constant"
      value: 0
    }
  }
}
layer {
  name: "inception_4b/1x1"
  type: "Convolution"
  bottom: "inception_4a/output"
  top: "inception_4b/1x1"
  param {
    lr_mult: 1
    decay_mult: 1
  }
  param {
    lr_mult: 2
    decay_mult: 0
  }
  convolution_param {
    num_output: 160
    kernel_size: 1
    weight_filler {
      type: "xavier"
      std: 0.03
    }
    bias_filler {
      type: "constant"
      value: 0.2
    }
  }
}
layer {
  name: "inception_4b/relu_1x1"
  type: "ReLU"
  bottom: "inception_4b/1x1"
  top: "inception_4b/1x1"
}
layer {
  name: "inception_4b/3x3_reduce"
  type: "Convolution"
  bottom: "inception_4a/output"
  top: "inception_4b/3x3_reduce"
  param {
    lr_mult: 1
    decay_mult: 1
  }
  param {
    lr_mult: 2
    decay_mult: 0
  }
  convolution_param {
    num_output: 112
    kernel_size: 1
    weight_filler {
      type: "xavier"
      std: 0.09
    }
    bias_filler {
      type: "constant"
      value: 0.2
    }
  }
}
layer {
  name: "inception_4b/relu_3x3_reduce"
  type: "ReLU"
  bottom: "inception_4b/3x3_reduce"
  top: "inception_4b/3x3_reduce"
}
layer {
  name: "inception_4b/3x3"
  type: "Convolution"
  bottom: "inception_4b/3x3_reduce"
  top: "inception_4b/3x3"
  param {
    lr_mult: 1
    decay_mult: 1
  }
  param {
    lr_mult: 2
    decay_mult: 0
  }
  convolution_param {
    num_output: 224
    pad: 1
    kernel_size: 3
    weight_filler {
      type: "xavier"
      std: 0.03
    }
    bias_filler {
      type: "constant"
      value: 0.2
    }
  }
}
layer {
  name: "inception_4b/relu_3x3"
  type: "ReLU"
  bottom: "inception_4b/3x3"
  top: "inception_4b/3x3"
}
layer {
  name: "inception_4b/5x5_reduce"
  type: "Convolution"
  bottom: "inception_4a/output"
  top: "inception_4b/5x5_reduce"
  param {
    lr_mult: 1
    decay_mult: 1
  }
  param {
    lr_mult: 2
    decay_mult: 0
  }
  convolution_param {
    num_output: 24
    kernel_size: 1
    weight_filler {
      type: "xavier"
      std: 0.2
    }
    bias_filler {
      type: "constant"
      value: 0.2
    }
  }
}
layer {
  name: "inception_4b/relu_5x5_reduce"
  type: "ReLU"
  bottom: "inception_4b/5x5_reduce"
  top: "inception_4b/5x5_reduce"
}
layer {
  name: "inception_4b/5x5"
  type: "Convolution"
  bottom: "inception_4b/5x5_reduce"
  top: "inception_4b/5x5"
  param {
    lr_mult: 1
    decay_mult: 1
  }
  param {
    lr_mult: 2
    decay_mult: 0
  }
  convolution_param {
    num_output: 64
    pad: 2
    kernel_size: 5
    weight_filler {
      type: "xavier"
      std: 0.03
    }
    bias_filler {
      type: "constant"
      value: 0.2
    }
  }
}
layer {
  name: "inception_4b/relu_5x5"
  type: "ReLU"
  bottom: "inception_4b/5x5"
  top: "inception_4b/5x5"
}
layer {
  name: "inception_4b/pool"
  type: "Pooling"
  bottom: "inception_4a/output"
  top: "inception_4b/pool"
  pooling_param {
    pool: MAX
    kernel_size: 3
    stride: 1
    pad: 1
  }
}
layer {
  name: "inception_4b/pool_proj"
  type: "Convolution"
  bottom: "inception_4b/pool"
  top: "inception_4b/pool_proj"
  param {
    lr_mult: 1
    decay_mult: 1
  }
  param {
    lr_mult: 2
    decay_mult: 0
  }
  convolution_param {
    num_output: 64
    kernel_size: 1
    weight_filler {
      type: "xavier"
      std: 0.1
    }
    bias_filler {
      type: "constant"
      value: 0.2
    }
  }
}
layer {
  name: "inception_4b/relu_pool_proj"
  type: "ReLU"
  bottom: "inception_4b/pool_proj"
  top: "inception_4b/pool_proj"
}
layer {
  name: "inception_4b/output"
  type: "Concat"
  bottom: "inception_4b/1x1"
  bottom: "inception_4b/3x3"
  bottom: "inception_4b/5x5"
  bottom: "inception_4b/pool_proj"
  top: "inception_4b/output"
}
layer {
  name: "inception_4c/1x1"
  type: "Convolution"
  bottom: "inception_4b/output"
  top: "inception_4c/1x1"
  param {
    lr_mult: 1
    decay_mult: 1
  }
  param {
    lr_mult: 2
    decay_mult: 0
  }
  convolution_param {
    num_output: 128
    kernel_size: 1
    weight_filler {
      type: "xavier"
      std: 0.03
    }
    bias_filler {
      type: "constant"
      value: 0.2
    }
  }
}
layer {
  name: "inception_4c/relu_1x1"
  type: "ReLU"
  bottom: "inception_4c/1x1"
  top: "inception_4c/1x1"
}
layer {
  name: "inception_4c/3x3_reduce"
  type: "Convolution"
  bottom: "inception_4b/output"
  top: "inception_4c/3x3_reduce"
  param {
    lr_mult: 1
    decay_mult: 1
  }
  param {
    lr_mult: 2
    decay_mult: 0
  }
  convolution_param {
    num_output: 128
    kernel_size: 1
    weight_filler {
      type: "xavier"
      std: 0.09
    }
    bias_filler {
      type: "constant"
      value: 0.2
    }
  }
}
layer {
  name: "inception_4c/relu_3x3_reduce"
  type: "ReLU"
  bottom: "inception_4c/3x3_reduce"
  top: "inception_4c/3x3_reduce"
}
layer {
  name: "inception_4c/3x3"
  type: "Convolution"
  bottom: "inception_4c/3x3_reduce"
  top: "inception_4c/3x3"
  param {
    lr_mult: 1
    decay_mult: 1
  }
  param {
    lr_mult: 2
    decay_mult: 0
  }
  convolution_param {
    num_output: 256
    pad: 1
    kernel_size: 3
    weight_filler {
      type: "xavier"
      std: 0.03
    }
    bias_filler {
      type: "constant"
      value: 0.2
    }
  }
}
layer {
  name: "inception_4c/relu_3x3"
  type: "ReLU"
  bottom: "inception_4c/3x3"
  top: "inception_4c/3x3"
}
layer {
  name: "inception_4c/5x5_reduce"
  type: "Convolution"
  bottom: "inception_4b/output"
  top: "inception_4c/5x5_reduce"
  param {
    lr_mult: 1
    decay_mult: 1
  }
  param {
    lr_mult: 2
    decay_mult: 0
  }
  convolution_param {
    num_output: 24
    kernel_size: 1
    weight_filler {
      type: "xavier"
      std: 0.2
    }
    bias_filler {
      type: "constant"
      value: 0.2
    }
  }
}
layer {
  name: "inception_4c/relu_5x5_reduce"
  type: "ReLU"
  bottom: "inception_4c/5x5_reduce"
  top: "inception_4c/5x5_reduce"
}
layer {
  name: "inception_4c/5x5"
  type: "Convolution"
  bottom: "inception_4c/5x5_reduce"
  top: "inception_4c/5x5"
  param {
    lr_mult: 1
    decay_mult: 1
  }
  param {
    lr_mult: 2
    decay_mult: 0
  }
  convolution_param {
    num_output: 64
    pad: 2
    kernel_size: 5
    weight_filler {
      type: "xavier"
      std: 0.03
    }
    bias_filler {
      type: "constant"
      value: 0.2
    }
  }
}
layer {
  name: "inception_4c/relu_5x5"
  type: "ReLU"
  bottom: "inception_4c/5x5"
  top: "inception_4c/5x5"
}
layer {
  name: "inception_4c/pool"
  type: "Pooling"
  bottom: "inception_4b/output"
  top: "inception_4c/pool"
  pooling_param {
    pool: MAX
    kernel_size: 3
    stride: 1
    pad: 1
  }
}
layer {
  name: "inception_4c/pool_proj"
  type: "Convolution"
  bottom: "inception_4c/pool"
  top: "inception_4c/pool_proj"
  param {
    lr_mult: 1
    decay_mult: 1
  }
  param {
    lr_mult: 2
    decay_mult: 0
  }
  convolution_param {
    num_output: 64
    kernel_size: 1
    weight_filler {
      type: "xavier"
      std: 0.1
    }
    bias_filler {
      type: "constant"
      value: 0.2
    }
  }
}
layer {
  name: "inception_4c/relu_pool_proj"
  type: "ReLU"
  bottom: "inception_4c/pool_proj"
  top: "inception_4c/pool_proj"
}
layer {
  name: "inception_4c/output"
  type: "Concat"
  bottom: "inception_4c/1x1"
  bottom: "inception_4c/3x3"
  bottom: "inception_4c/5x5"
  bottom: "inception_4c/pool_proj"
  top: "inception_4c/output"
}
layer {
  name: "inception_4d/1x1"
  type: "Convolution"
  bottom: "inception_4c/output"
  top: "inception_4d/1x1"
  param {
    lr_mult: 1
    decay_mult: 1
  }
  param {
    lr_mult: 2
    decay_mult: 0
  }
  convolution_param {
    num_output: 112
    kernel_size: 1
    weight_filler {
      type: "xavier"
      std: 0.03
    }
    bias_filler {
      type: "constant"
      value: 0.2
    }
  }
}
layer {
  name: "inception_4d/relu_1x1"
  type: "ReLU"
  bottom: "inception_4d/1x1"
  top: "inception_4d/1x1"
}
layer {
  name: "inception_4d/3x3_reduce"
  type: "Convolution"
  bottom: "inception_4c/output"
  top: "inception_4d/3x3_reduce"
  param {
    lr_mult: 1
    decay_mult: 1
  }
  param {
    lr_mult: 2
    decay_mult: 0
  }
  convolution_param {
    num_output: 144
    kernel_size: 1
    weight_filler {
      type: "xavier"
      std: 0.09
    }
    bias_filler {
      type: "constant"
      value: 0.2
    }
  }
}
layer {
  name: "inception_4d/relu_3x3_reduce"
  type: "ReLU"
  bottom: "inception_4d/3x3_reduce"
  top: "inception_4d/3x3_reduce"
}
layer {
  name: "inception_4d/3x3"
  type: "Convolution"
  bottom: "inception_4d/3x3_reduce"
  top: "inception_4d/3x3"
  param {
    lr_mult: 1
    decay_mult: 1
  }
  param {
    lr_mult: 2
    decay_mult: 0
  }
  convolution_param {
    num_output: 288
    pad: 1
    kernel_size: 3
    weight_filler {
      type: "xavier"
      std: 0.03
    }
    bias_filler {
      type: "constant"
      value: 0.2
    }
  }
}
layer {
  name: "inception_4d/relu_3x3"
  type: "ReLU"
  bottom: "inception_4d/3x3"
  top: "inception_4d/3x3"
}
layer {
  name: "inception_4d/5x5_reduce"
  type: "Convolution"
  bottom: "inception_4c/output"
  top: "inception_4d/5x5_reduce"
  param {
    lr_mult: 1
    decay_mult: 1
  }
  param {
    lr_mult: 2
    decay_mult: 0
  }
  convolution_param {
    num_output: 32
    kernel_size: 1
    weight_filler {
      type: "xavier"
      std: 0.2
    }
    bias_filler {
      type: "constant"
      value: 0.2
    }
  }
}
layer {
  name: "inception_4d/relu_5x5_reduce"
  type: "ReLU"
  bottom: "inception_4d/5x5_reduce"
  top: "inception_4d/5x5_reduce"
}
layer {
  name: "inception_4d/5x5"
  type: "Convolution"
  bottom: "inception_4d/5x5_reduce"
  top: "inception_4d/5x5"
  param {
    lr_mult: 1
    decay_mult: 1
  }
  param {
    lr_mult: 2
    decay_mult: 0
  }
  convolution_param {
    num_output: 64
    pad: 2
    kernel_size: 5
    weight_filler {
      type: "xavier"
      std: 0.03
    }
    bias_filler {
      type: "constant"
      value: 0.2
    }
  }
}
layer {
  name: "inception_4d/relu_5x5"
  type: "ReLU"
  bottom: "inception_4d/5x5"
  top: "inception_4d/5x5"
}
layer {
  name: "inception_4d/pool"
  type: "Pooling"
  bottom: "inception_4c/output"
  top: "inception_4d/pool"
  pooling_param {
    pool: MAX
    kernel_size: 3
    stride: 1
    pad: 1
  }
}
layer {
  name: "inception_4d/pool_proj"
  type: "Convolution"
  bottom: "inception_4d/pool"
  top: "inception_4d/pool_proj"
  param {
    lr_mult: 1
    decay_mult: 1
  }
  param {
    lr_mult: 2
    decay_mult: 0
  }
  convolution_param {
    num_output: 64
    kernel_size: 1
    weight_filler {
      type: "xavier"
      std: 0.1
    }
    bias_filler {
      type: "constant"
      value: 0.2
    }
  }
}
layer {
  name: "inception_4d/relu_pool_proj"
  type: "ReLU"
  bottom: "inception_4d/pool_proj"
  top: "inception_4d/pool_proj"
}
layer {
  name: "inception_4d/output"
  type: "Concat"
  bottom: "inception_4d/1x1"
  bottom: "inception_4d/3x3"
  bottom: "inception_4d/5x5"
  bottom: "inception_4d/pool_proj"
  top: "inception_4d/output"
}
layer {
  name: "loss2/ave_pool"
  type: "Pooling"
  bottom: "inception_4d/output"
  top: "loss2/ave_pool"
  pooling_param {
    pool: AVE
    kernel_size: 5
    stride: 3
  }
}
layer {
  name: "loss2/conv"
  type: "Convolution"
  bottom: "loss2/ave_pool"
  top: "loss2/conv"
  param {
    lr_mult: 1
    decay_mult: 1
  }
  param {
    lr_mult: 2
    decay_mult: 0
  }
  convolution_param {
    num_output: 128
    kernel_size: 1
    weight_filler {
      type: "xavier"
      std: 0.08
    }
    bias_filler {
      type: "constant"
      value: 0.2
    }
  }
}
layer {
  name: "loss2/relu_conv"
  type: "ReLU"
  bottom: "loss2/conv"
  top: "loss2/conv"
}
layer {
  name: "loss2/fc"
  type: "InnerProduct"
  bottom: "loss2/conv"
  top: "loss2/fc"
  param {
    lr_mult: 1
    decay_mult: 1
  }
  param {
    lr_mult: 2
    decay_mult: 0
  }
  inner_product_param {
    num_output: 1024
    weight_filler {
      type: "xavier"
      std: 0.02
    }
    bias_filler {
      type: "constant"
      value: 0.2
    }
  }
}
layer {
  name: "loss2/relu_fc"
  type: "ReLU"
  bottom: "loss2/fc"
  top: "loss2/fc"
}
layer {
  name: "loss2/drop_fc"
  type: "Dropout"
  bottom: "loss2/fc"
  top: "loss2/fc"
  dropout_param {
    dropout_ratio: 0.7
  }
}
layer {
  name: "loss2/classifier_plantvillage"
  type: "InnerProduct"
  bottom: "loss2/fc"
  top: "loss2/classifier_plantvillage"
  param {
    lr_mult: 1
    decay_mult: 1
  }
  param {
    lr_mult: 2
    decay_mult: 0
  }
  inner_product_param {
    num_output: 38
    weight_filler {
      type: "xavier"
      std: 0.0009765625
    }
    bias_filler {
      type: "constant"
      value: 0
    }
  }
}
layer {
  name: "inception_4e/1x1"
  type: "Convolution"
  bottom: "inception_4d/output"
  top: "inception_4e/1x1"
  param {
    lr_mult: 1
    decay_mult: 1
  }
  param {
    lr_mult: 2
    decay_mult: 0
  }
  convolution_param {
    num_output: 256
    kernel_size: 1
    weight_filler {
      type: "xavier"
      std: 0.03
    }
    bias_filler {
      type: "constant"
      value: 0.2
    }
  }
}
layer {
  name: "inception_4e/relu_1x1"
  type: "ReLU"
  bottom: "inception_4e/1x1"
  top: "inception_4e/1x1"
}
layer {
  name: "inception_4e/3x3_reduce"
  type: "Convolution"
  bottom: "inception_4d/output"
  top: "inception_4e/3x3_reduce"
  param {
    lr_mult: 1
    decay_mult: 1
  }
  param {
    lr_mult: 2
    decay_mult: 0
  }
  convolution_param {
    num_output: 160
    kernel_size: 1
    weight_filler {
      type: "xavier"
      std: 0.09
    }
    bias_filler {
      type: "constant"
      value: 0.2
    }
  }
}
layer {
  name: "inception_4e/relu_3x3_reduce"
  type: "ReLU"
  bottom: "inception_4e/3x3_reduce"
  top: "inception_4e/3x3_reduce"
}
layer {
  name: "inception_4e/3x3"
  type: "Convolution"
  bottom: "inception_4e/3x3_reduce"
  top: "inception_4e/3x3"
  param {
    lr_mult: 1
    decay_mult: 1
  }
  param {
    lr_mult: 2
    decay_mult: 0
  }
  convolution_param {
    num_output: 320
    pad: 1
    kernel_size: 3
    weight_filler {
      type: "xavier"
      std: 0.03
    }
    bias_filler {
      type: "constant"
      value: 0.2
    }
  }
}
layer {
  name: "inception_4e/relu_3x3"
  type: "ReLU"
  bottom: "inception_4e/3x3"
  top: "inception_4e/3x3"
}
layer {
  name: "inception_4e/5x5_reduce"
  type: "Convolution"
  bottom: "inception_4d/output"
  top: "inception_4e/5x5_reduce"
  param {
    lr_mult: 1
    decay_mult: 1
  }
  param {
    lr_mult: 2
    decay_mult: 0
  }
  convolution_param {
    num_output: 32
    kernel_size: 1
    weight_filler {
      type: "xavier"
      std: 0.2
    }
    bias_filler {
      type: "constant"
      value: 0.2
    }
  }
}
layer {
  name: "inception_4e/relu_5x5_reduce"
  type: "ReLU"
  bottom: "inception_4e/5x5_reduce"
  top: "inception_4e/5x5_reduce"
}
layer {
  name: "inception_4e/5x5"
  type: "Convolution"
  bottom: "inception_4e/5x5_reduce"
  top: "inception_4e/5x5"
  p
I0403 15:07:29.686267 31160 layer_factory.hpp:77] Creating layer data
I0403 15:07:29.686892 31160 net.cpp:91] Creating Layer data
I0403 15:07:29.686926 31160 net.cpp:399] data -> data
I0403 15:07:29.686980 31160 net.cpp:399] data -> label
I0403 15:07:29.687027 31160 data_transformer.cpp:25] Loading mean file from: /home/mohanty/data/final_dataset/lmdb/color-60-40/mean.binaryproto
I0403 15:07:29.689870 31164 db_lmdb.cpp:38] Opened lmdb /home/mohanty/data/final_dataset/lmdb/color-60-40/test_db
I0403 15:07:29.700829 31160 data_layer.cpp:41] output data size: 24,3,224,224
I0403 15:07:29.732234 31160 net.cpp:141] Setting up data
I0403 15:07:29.732329 31160 net.cpp:148] Top shape: 24 3 224 224 (3612672)
I0403 15:07:29.732353 31160 net.cpp:148] Top shape: 24 (24)
I0403 15:07:29.732369 31160 net.cpp:156] Memory required for data: 14450784
I0403 15:07:29.732399 31160 layer_factory.hpp:77] Creating layer label_data_1_split
I0403 15:07:29.732429 31160 net.cpp:91] Creating Layer label_data_1_split
I0403 15:07:29.732450 31160 net.cpp:425] label_data_1_split <- label
I0403 15:07:29.732484 31160 net.cpp:399] label_data_1_split -> label_data_1_split_0
I0403 15:07:29.732514 31160 net.cpp:399] label_data_1_split -> label_data_1_split_1
I0403 15:07:29.732537 31160 net.cpp:399] label_data_1_split -> label_data_1_split_2
I0403 15:07:29.732559 31160 net.cpp:399] label_data_1_split -> label_data_1_split_3
I0403 15:07:29.732580 31160 net.cpp:399] label_data_1_split -> label_data_1_split_4
I0403 15:07:29.732602 31160 net.cpp:399] label_data_1_split -> label_data_1_split_5
I0403 15:07:29.732625 31160 net.cpp:399] label_data_1_split -> label_data_1_split_6
I0403 15:07:29.732645 31160 net.cpp:399] label_data_1_split -> label_data_1_split_7
I0403 15:07:29.732666 31160 net.cpp:399] label_data_1_split -> label_data_1_split_8
I0403 15:07:29.732687 31160 net.cpp:399] label_data_1_split -> label_data_1_split_9
I0403 15:07:29.732810 31160 net.cpp:141] Setting up label_data_1_split
I0403 15:07:29.732836 31160 net.cpp:148] Top shape: 24 (24)
I0403 15:07:29.732854 31160 net.cpp:148] Top shape: 24 (24)
I0403 15:07:29.732872 31160 net.cpp:148] Top shape: 24 (24)
I0403 15:07:29.732888 31160 net.cpp:148] Top shape: 24 (24)
I0403 15:07:29.732905 31160 net.cpp:148] Top shape: 24 (24)
I0403 15:07:29.732921 31160 net.cpp:148] Top shape: 24 (24)
I0403 15:07:29.732939 31160 net.cpp:148] Top shape: 24 (24)
I0403 15:07:29.732956 31160 net.cpp:148] Top shape: 24 (24)
I0403 15:07:29.732972 31160 net.cpp:148] Top shape: 24 (24)
I0403 15:07:29.732990 31160 net.cpp:148] Top shape: 24 (24)
I0403 15:07:29.733036 31160 net.cpp:156] Memory required for data: 14451744
I0403 15:07:29.733053 31160 layer_factory.hpp:77] Creating layer conv1/7x7_s2
I0403 15:07:29.733088 31160 net.cpp:91] Creating Layer conv1/7x7_s2
I0403 15:07:29.733108 31160 net.cpp:425] conv1/7x7_s2 <- data
I0403 15:07:29.733129 31160 net.cpp:399] conv1/7x7_s2 -> conv1/7x7_s2
I0403 15:07:31.958528 31160 net.cpp:141] Setting up conv1/7x7_s2
I0403 15:07:31.958606 31160 net.cpp:148] Top shape: 24 64 112 112 (19267584)
I0403 15:07:31.958623 31160 net.cpp:156] Memory required for data: 91522080
I0403 15:07:31.958657 31160 layer_factory.hpp:77] Creating layer conv1/relu_7x7
I0403 15:07:31.958685 31160 net.cpp:91] Creating Layer conv1/relu_7x7
I0403 15:07:31.958703 31160 net.cpp:425] conv1/relu_7x7 <- conv1/7x7_s2
I0403 15:07:31.958724 31160 net.cpp:386] conv1/relu_7x7 -> conv1/7x7_s2 (in-place)
I0403 15:07:31.958977 31160 net.cpp:141] Setting up conv1/relu_7x7
I0403 15:07:31.959005 31160 net.cpp:148] Top shape: 24 64 112 112 (19267584)
I0403 15:07:31.959022 31160 net.cpp:156] Memory required for data: 168592416
I0403 15:07:31.959036 31160 layer_factory.hpp:77] Creating layer pool1/3x3_s2
I0403 15:07:31.959063 31160 net.cpp:91] Creating Layer pool1/3x3_s2
I0403 15:07:31.959080 31160 net.cpp:425] pool1/3x3_s2 <- conv1/7x7_s2
I0403 15:07:31.959100 31160 net.cpp:399] pool1/3x3_s2 -> pool1/3x3_s2
I0403 15:07:31.959173 31160 net.cpp:141] Setting up pool1/3x3_s2
I0403 15:07:31.959198 31160 net.cpp:148] Top shape: 24 64 56 56 (4816896)
I0403 15:07:31.959214 31160 net.cpp:156] Memory required for data: 187860000
I0403 15:07:31.959229 31160 layer_factory.hpp:77] Creating layer pool1/norm1
I0403 15:07:31.959259 31160 net.cpp:91] Creating Layer pool1/norm1
I0403 15:07:31.959277 31160 net.cpp:425] pool1/norm1 <- pool1/3x3_s2
I0403 15:07:31.959296 31160 net.cpp:399] pool1/norm1 -> pool1/norm1
I0403 15:07:31.959574 31160 net.cpp:141] Setting up pool1/norm1
I0403 15:07:31.959601 31160 net.cpp:148] Top shape: 24 64 56 56 (4816896)
I0403 15:07:31.959617 31160 net.cpp:156] Memory required for data: 207127584
I0403 15:07:31.959633 31160 layer_factory.hpp:77] Creating layer conv2/3x3_reduce
I0403 15:07:31.959671 31160 net.cpp:91] Creating Layer conv2/3x3_reduce
I0403 15:07:31.959686 31160 net.cpp:425] conv2/3x3_reduce <- pool1/norm1
I0403 15:07:31.959707 31160 net.cpp:399] conv2/3x3_reduce -> conv2/3x3_reduce
I0403 15:07:31.960988 31160 net.cpp:141] Setting up conv2/3x3_reduce
I0403 15:07:31.961019 31160 net.cpp:148] Top shape: 24 64 56 56 (4816896)
I0403 15:07:31.961037 31160 net.cpp:156] Memory required for data: 226395168
I0403 15:07:31.961060 31160 layer_factory.hpp:77] Creating layer conv2/relu_3x3_reduce
I0403 15:07:31.961079 31160 net.cpp:91] Creating Layer conv2/relu_3x3_reduce
I0403 15:07:31.961096 31160 net.cpp:425] conv2/relu_3x3_reduce <- conv2/3x3_reduce
I0403 15:07:31.961112 31160 net.cpp:386] conv2/relu_3x3_reduce -> conv2/3x3_reduce (in-place)
I0403 15:07:31.961360 31160 net.cpp:141] Setting up conv2/relu_3x3_reduce
I0403 15:07:31.961386 31160 net.cpp:148] Top shape: 24 64 56 56 (4816896)
I0403 15:07:31.961415 31160 net.cpp:156] Memory required for data: 245662752
I0403 15:07:31.961432 31160 layer_factory.hpp:77] Creating layer conv2/3x3
I0403 15:07:31.961454 31160 net.cpp:91] Creating Layer conv2/3x3
I0403 15:07:31.961472 31160 net.cpp:425] conv2/3x3 <- conv2/3x3_reduce
I0403 15:07:31.961489 31160 net.cpp:399] conv2/3x3 -> conv2/3x3
I0403 15:07:31.963637 31160 net.cpp:141] Setting up conv2/3x3
I0403 15:07:31.963670 31160 net.cpp:148] Top shape: 24 192 56 56 (14450688)
I0403 15:07:31.963690 31160 net.cpp:156] Memory required for data: 303465504
I0403 15:07:31.963711 31160 layer_factory.hpp:77] Creating layer conv2/relu_3x3
I0403 15:07:31.963732 31160 net.cpp:91] Creating Layer conv2/relu_3x3
I0403 15:07:31.963749 31160 net.cpp:425] conv2/relu_3x3 <- conv2/3x3
I0403 15:07:31.963768 31160 net.cpp:386] conv2/relu_3x3 -> conv2/3x3 (in-place)
I0403 15:07:31.963922 31160 net.cpp:141] Setting up conv2/relu_3x3
I0403 15:07:31.963948 31160 net.cpp:148] Top shape: 24 192 56 56 (14450688)
I0403 15:07:31.963992 31160 net.cpp:156] Memory required for data: 361268256
I0403 15:07:31.964009 31160 layer_factory.hpp:77] Creating layer conv2/norm2
I0403 15:07:31.964027 31160 net.cpp:91] Creating Layer conv2/norm2
I0403 15:07:31.964043 31160 net.cpp:425] conv2/norm2 <- conv2/3x3
I0403 15:07:31.964061 31160 net.cpp:399] conv2/norm2 -> conv2/norm2
I0403 15:07:31.964344 31160 net.cpp:141] Setting up conv2/norm2
I0403 15:07:31.964370 31160 net.cpp:148] Top shape: 24 192 56 56 (14450688)
I0403 15:07:31.964385 31160 net.cpp:156] Memory required for data: 419071008
I0403 15:07:31.964401 31160 layer_factory.hpp:77] Creating layer pool2/3x3_s2
I0403 15:07:31.964418 31160 net.cpp:91] Creating Layer pool2/3x3_s2
I0403 15:07:31.964434 31160 net.cpp:425] pool2/3x3_s2 <- conv2/norm2
I0403 15:07:31.964453 31160 net.cpp:399] pool2/3x3_s2 -> pool2/3x3_s2
I0403 15:07:31.964500 31160 net.cpp:141] Setting up pool2/3x3_s2
I0403 15:07:31.964524 31160 net.cpp:148] Top shape: 24 192 28 28 (3612672)
I0403 15:07:31.964539 31160 net.cpp:156] Memory required for data: 433521696
I0403 15:07:31.964552 31160 layer_factory.hpp:77] Creating layer pool2/3x3_s2_pool2/3x3_s2_0_split
I0403 15:07:31.964570 31160 net.cpp:91] Creating Layer pool2/3x3_s2_pool2/3x3_s2_0_split
I0403 15:07:31.964586 31160 net.cpp:425] pool2/3x3_s2_pool2/3x3_s2_0_split <- pool2/3x3_s2
I0403 15:07:31.964602 31160 net.cpp:399] pool2/3x3_s2_pool2/3x3_s2_0_split -> pool2/3x3_s2_pool2/3x3_s2_0_split_0
I0403 15:07:31.964620 31160 net.cpp:399] pool2/3x3_s2_pool2/3x3_s2_0_split -> pool2/3x3_s2_pool2/3x3_s2_0_split_1
I0403 15:07:31.964638 31160 net.cpp:399] pool2/3x3_s2_pool2/3x3_s2_0_split -> pool2/3x3_s2_pool2/3x3_s2_0_split_2
I0403 15:07:31.964658 31160 net.cpp:399] pool2/3x3_s2_pool2/3x3_s2_0_split -> pool2/3x3_s2_pool2/3x3_s2_0_split_3
I0403 15:07:31.964718 31160 net.cpp:141] Setting up pool2/3x3_s2_pool2/3x3_s2_0_split
I0403 15:07:31.964740 31160 net.cpp:148] Top shape: 24 192 28 28 (3612672)
I0403 15:07:31.964756 31160 net.cpp:148] Top shape: 24 192 28 28 (3612672)
I0403 15:07:31.964771 31160 net.cpp:148] Top shape: 24 192 28 28 (3612672)
I0403 15:07:31.964787 31160 net.cpp:148] Top shape: 24 192 28 28 (3612672)
I0403 15:07:31.964804 31160 net.cpp:156] Memory required for data: 491324448
I0403 15:07:31.964821 31160 layer_factory.hpp:77] Creating layer inception_3a/1x1
I0403 15:07:31.964840 31160 net.cpp:91] Creating Layer inception_3a/1x1
I0403 15:07:31.964859 31160 net.cpp:425] inception_3a/1x1 <- pool2/3x3_s2_pool2/3x3_s2_0_split_0
I0403 15:07:31.964876 31160 net.cpp:399] inception_3a/1x1 -> inception_3a/1x1
I0403 15:07:31.966284 31160 net.cpp:141] Setting up inception_3a/1x1
I0403 15:07:31.966320 31160 net.cpp:148] Top shape: 24 64 28 28 (1204224)
I0403 15:07:31.966337 31160 net.cpp:156] Memory required for data: 496141344
I0403 15:07:31.966356 31160 layer_factory.hpp:77] Creating layer inception_3a/relu_1x1
I0403 15:07:31.966374 31160 net.cpp:91] Creating Layer inception_3a/relu_1x1
I0403 15:07:31.966390 31160 net.cpp:425] inception_3a/relu_1x1 <- inception_3a/1x1
I0403 15:07:31.966408 31160 net.cpp:386] inception_3a/relu_1x1 -> inception_3a/1x1 (in-place)
I0403 15:07:31.966560 31160 net.cpp:141] Setting up inception_3a/relu_1x1
I0403 15:07:31.966585 31160 net.cpp:148] Top shape: 24 64 28 28 (1204224)
I0403 15:07:31.966601 31160 net.cpp:156] Memory required for data: 500958240
I0403 15:07:31.966616 31160 layer_factory.hpp:77] Creating layer inception_3a/3x3_reduce
I0403 15:07:31.966636 31160 net.cpp:91] Creating Layer inception_3a/3x3_reduce
I0403 15:07:31.966652 31160 net.cpp:425] inception_3a/3x3_reduce <- pool2/3x3_s2_pool2/3x3_s2_0_split_1
I0403 15:07:31.966671 31160 net.cpp:399] inception_3a/3x3_reduce -> inception_3a/3x3_reduce
I0403 15:07:31.968230 31160 net.cpp:141] Setting up inception_3a/3x3_reduce
I0403 15:07:31.968262 31160 net.cpp:148] Top shape: 24 96 28 28 (1806336)
I0403 15:07:31.968281 31160 net.cpp:156] Memory required for data: 508183584
I0403 15:07:31.968302 31160 layer_factory.hpp:77] Creating layer inception_3a/relu_3x3_reduce
I0403 15:07:31.968336 31160 net.cpp:91] Creating Layer inception_3a/relu_3x3_reduce
I0403 15:07:31.968353 31160 net.cpp:425] inception_3a/relu_3x3_reduce <- inception_3a/3x3_reduce
I0403 15:07:31.968370 31160 net.cpp:386] inception_3a/relu_3x3_reduce -> inception_3a/3x3_reduce (in-place)
I0403 15:07:31.968533 31160 net.cpp:141] Setting up inception_3a/relu_3x3_reduce
I0403 15:07:31.968559 31160 net.cpp:148] Top shape: 24 96 28 28 (1806336)
I0403 15:07:31.968576 31160 net.cpp:156] Memory required for data: 515408928
I0403 15:07:31.968590 31160 layer_factory.hpp:77] Creating layer inception_3a/3x3
I0403 15:07:31.968613 31160 net.cpp:91] Creating Layer inception_3a/3x3
I0403 15:07:31.968631 31160 net.cpp:425] inception_3a/3x3 <- inception_3a/3x3_reduce
I0403 15:07:31.968650 31160 net.cpp:399] inception_3a/3x3 -> inception_3a/3x3
I0403 15:07:31.970240 31160 net.cpp:141] Setting up inception_3a/3x3
I0403 15:07:31.970273 31160 net.cpp:148] Top shape: 24 128 28 28 (2408448)
I0403 15:07:31.970290 31160 net.cpp:156] Memory required for data: 525042720
I0403 15:07:31.970309 31160 layer_factory.hpp:77] Creating layer inception_3a/relu_3x3
I0403 15:07:31.970329 31160 net.cpp:91] Creating Layer inception_3a/relu_3x3
I0403 15:07:31.970345 31160 net.cpp:425] inception_3a/relu_3x3 <- inception_3a/3x3
I0403 15:07:31.970366 31160 net.cpp:386] inception_3a/relu_3x3 -> inception_3a/3x3 (in-place)
I0403 15:07:31.970649 31160 net.cpp:141] Setting up inception_3a/relu_3x3
I0403 15:07:31.970676 31160 net.cpp:148] Top shape: 24 128 28 28 (2408448)
I0403 15:07:31.970691 31160 net.cpp:156] Memory required for data: 534676512
I0403 15:07:31.970720 31160 layer_factory.hpp:77] Creating layer inception_3a/5x5_reduce
I0403 15:07:31.970741 31160 net.cpp:91] Creating Layer inception_3a/5x5_reduce
I0403 15:07:31.970759 31160 net.cpp:425] inception_3a/5x5_reduce <- pool2/3x3_s2_pool2/3x3_s2_0_split_2
I0403 15:07:31.970779 31160 net.cpp:399] inception_3a/5x5_reduce -> inception_3a/5x5_reduce
I0403 15:07:31.971714 31160 net.cpp:141] Setting up inception_3a/5x5_reduce
I0403 15:07:31.971743 31160 net.cpp:148] Top shape: 24 16 28 28 (301056)
I0403 15:07:31.971758 31160 net.cpp:156] Memory required for data: 535880736
I0403 15:07:31.971778 31160 layer_factory.hpp:77] Creating layer inception_3a/relu_5x5_reduce
I0403 15:07:31.971798 31160 net.cpp:91] Creating Layer inception_3a/relu_5x5_reduce
I0403 15:07:31.971815 31160 net.cpp:425] inception_3a/relu_5x5_reduce <- inception_3a/5x5_reduce
I0403 15:07:31.971833 31160 net.cpp:386] inception_3a/relu_5x5_reduce -> inception_3a/5x5_reduce (in-place)
I0403 15:07:31.972115 31160 net.cpp:141] Setting up inception_3a/relu_5x5_reduce
I0403 15:07:31.972141 31160 net.cpp:148] Top shape: 24 16 28 28 (301056)
I0403 15:07:31.972157 31160 net.cpp:156] Memory required for data: 537084960
I0403 15:07:31.972172 31160 layer_factory.hpp:77] Creating layer inception_3a/5x5
I0403 15:07:31.972194 31160 net.cpp:91] Creating Layer inception_3a/5x5
I0403 15:07:31.972211 31160 net.cpp:425] inception_3a/5x5 <- inception_3a/5x5_reduce
I0403 15:07:31.972232 31160 net.cpp:399] inception_3a/5x5 -> inception_3a/5x5
I0403 15:07:31.973208 31160 net.cpp:141] Setting up inception_3a/5x5
I0403 15:07:31.973237 31160 net.cpp:148] Top shape: 24 32 28 28 (602112)
I0403 15:07:31.973258 31160 net.cpp:156] Memory required for data: 539493408
I0403 15:07:31.973278 31160 layer_factory.hpp:77] Creating layer inception_3a/relu_5x5
I0403 15:07:31.973297 31160 net.cpp:91] Creating Layer inception_3a/relu_5x5
I0403 15:07:31.973314 31160 net.cpp:425] inception_3a/relu_5x5 <- inception_3a/5x5
I0403 15:07:31.973332 31160 net.cpp:386] inception_3a/relu_5x5 -> inception_3a/5x5 (in-place)
I0403 15:07:31.973500 31160 net.cpp:141] Setting up inception_3a/relu_5x5
I0403 15:07:31.973526 31160 net.cpp:148] Top shape: 24 32 28 28 (602112)
I0403 15:07:31.973542 31160 net.cpp:156] Memory required for data: 541901856
I0403 15:07:31.973561 31160 layer_factory.hpp:77] Creating layer inception_3a/pool
I0403 15:07:31.973584 31160 net.cpp:91] Creating Layer inception_3a/pool
I0403 15:07:31.973600 31160 net.cpp:425] inception_3a/pool <- pool2/3x3_s2_pool2/3x3_s2_0_split_3
I0403 15:07:31.973642 31160 net.cpp:399] inception_3a/pool -> inception_3a/pool
I0403 15:07:31.973703 31160 net.cpp:141] Setting up inception_3a/pool
I0403 15:07:31.973729 31160 net.cpp:148] Top shape: 24 192 28 28 (3612672)
I0403 15:07:31.973747 31160 net.cpp:156] Memory required for data: 556352544
I0403 15:07:31.973763 31160 layer_factory.hpp:77] Creating layer inception_3a/pool_proj
I0403 15:07:31.973789 31160 net.cpp:91] Creating Layer inception_3a/pool_proj
I0403 15:07:31.973808 31160 net.cpp:425] inception_3a/pool_proj <- inception_3a/pool
I0403 15:07:31.973830 31160 net.cpp:399] inception_3a/pool_proj -> inception_3a/pool_proj
I0403 15:07:31.974820 31160 net.cpp:141] Setting up inception_3a/pool_proj
I0403 15:07:31.974848 31160 net.cpp:148] Top shape: 24 32 28 28 (602112)
I0403 15:07:31.974864 31160 net.cpp:156] Memory required for data: 558760992
I0403 15:07:31.974889 31160 layer_factory.hpp:77] Creating layer inception_3a/relu_pool_proj
I0403 15:07:31.974911 31160 net.cpp:91] Creating Layer inception_3a/relu_pool_proj
I0403 15:07:31.974928 31160 net.cpp:425] inception_3a/relu_pool_proj <- inception_3a/pool_proj
I0403 15:07:31.974946 31160 net.cpp:386] inception_3a/relu_pool_proj -> inception_3a/pool_proj (in-place)
I0403 15:07:31.975211 31160 net.cpp:141] Setting up inception_3a/relu_pool_proj
I0403 15:07:31.975237 31160 net.cpp:148] Top shape: 24 32 28 28 (602112)
I0403 15:07:31.975256 31160 net.cpp:156] Memory required for data: 561169440
I0403 15:07:31.975273 31160 layer_factory.hpp:77] Creating layer inception_3a/output
I0403 15:07:31.975292 31160 net.cpp:91] Creating Layer inception_3a/output
I0403 15:07:31.975308 31160 net.cpp:425] inception_3a/output <- inception_3a/1x1
I0403 15:07:31.975325 31160 net.cpp:425] inception_3a/output <- inception_3a/3x3
I0403 15:07:31.975342 31160 net.cpp:425] inception_3a/output <- inception_3a/5x5
I0403 15:07:31.975358 31160 net.cpp:425] inception_3a/output <- inception_3a/pool_proj
I0403 15:07:31.975378 31160 net.cpp:399] inception_3a/output -> inception_3a/output
I0403 15:07:31.975420 31160 net.cpp:141] Setting up inception_3a/output
I0403 15:07:31.975445 31160 net.cpp:148] Top shape: 24 256 28 28 (4816896)
I0403 15:07:31.975458 31160 net.cpp:156] Memory required for data: 580437024
I0403 15:07:31.975472 31160 layer_factory.hpp:77] Creating layer inception_3a/output_inception_3a/output_0_split
I0403 15:07:31.975492 31160 net.cpp:91] Creating Layer inception_3a/output_inception_3a/output_0_split
I0403 15:07:31.975508 31160 net.cpp:425] inception_3a/output_inception_3a/output_0_split <- inception_3a/output
I0403 15:07:31.975525 31160 net.cpp:399] inception_3a/output_inception_3a/output_0_split -> inception_3a/output_inception_3a/output_0_split_0
I0403 15:07:31.975549 31160 net.cpp:399] inception_3a/output_inception_3a/output_0_split -> inception_3a/output_inception_3a/output_0_split_1
I0403 15:07:31.975575 31160 net.cpp:399] inception_3a/output_inception_3a/output_0_split -> inception_3a/output_inception_3a/output_0_split_2
I0403 15:07:31.975600 31160 net.cpp:399] inception_3a/output_inception_3a/output_0_split -> inception_3a/output_inception_3a/output_0_split_3
I0403 15:07:31.975671 31160 net.cpp:141] Setting up inception_3a/output_inception_3a/output_0_split
I0403 15:07:31.975694 31160 net.cpp:148] Top shape: 24 256 28 28 (4816896)
I0403 15:07:31.975711 31160 net.cpp:148] Top shape: 24 256 28 28 (4816896)
I0403 15:07:31.975728 31160 net.cpp:148] Top shape: 24 256 28 28 (4816896)
I0403 15:07:31.975742 31160 net.cpp:148] Top shape: 24 256 28 28 (4816896)
I0403 15:07:31.975756 31160 net.cpp:156] Memory required for data: 657507360
I0403 15:07:31.975771 31160 layer_factory.hpp:77] Creating layer inception_3b/1x1
I0403 15:07:31.975793 31160 net.cpp:91] Creating Layer inception_3b/1x1
I0403 15:07:31.975810 31160 net.cpp:425] inception_3b/1x1 <- inception_3a/output_inception_3a/output_0_split_0
I0403 15:07:31.975832 31160 net.cpp:399] inception_3b/1x1 -> inception_3b/1x1
I0403 15:07:31.976934 31160 net.cpp:141] Setting up inception_3b/1x1
I0403 15:07:31.976975 31160 net.cpp:148] Top shape: 24 128 28 28 (2408448)
I0403 15:07:31.976994 31160 net.cpp:156] Memory required for data: 667141152
I0403 15:07:31.977011 31160 layer_factory.hpp:77] Creating layer inception_3b/relu_1x1
I0403 15:07:31.977042 31160 net.cpp:91] Creating Layer inception_3b/relu_1x1
I0403 15:07:31.977063 31160 net.cpp:425] inception_3b/relu_1x1 <- inception_3b/1x1
I0403 15:07:31.977083 31160 net.cpp:386] inception_3b/relu_1x1 -> inception_3b/1x1 (in-place)
I0403 15:07:31.977259 31160 net.cpp:141] Setting up inception_3b/relu_1x1
I0403 15:07:31.977285 31160 net.cpp:148] Top shape: 24 128 28 28 (2408448)
I0403 15:07:31.977303 31160 net.cpp:156] Memory required for data: 676774944
I0403 15:07:31.977319 31160 layer_factory.hpp:77] Creating layer inception_3b/3x3_reduce
I0403 15:07:31.977345 31160 net.cpp:91] Creating Layer inception_3b/3x3_reduce
I0403 15:07:31.977367 31160 net.cpp:425] inception_3b/3x3_reduce <- inception_3a/output_inception_3a/output_0_split_1
I0403 15:07:31.977390 31160 net.cpp:399] inception_3b/3x3_reduce -> inception_3b/3x3_reduce
I0403 15:07:31.978518 31160 net.cpp:141] Setting up inception_3b/3x3_reduce
I0403 15:07:31.978550 31160 net.cpp:148] Top shape: 24 128 28 28 (2408448)
I0403 15:07:31.978571 31160 net.cpp:156] Memory required for data: 686408736
I0403 15:07:31.978591 31160 layer_factory.hpp:77] Creating layer inception_3b/relu_3x3_reduce
I0403 15:07:31.978613 31160 net.cpp:91] Creating Layer inception_3b/relu_3x3_reduce
I0403 15:07:31.978632 31160 net.cpp:425] inception_3b/relu_3x3_reduce <- inception_3b/3x3_reduce
I0403 15:07:31.978652 31160 net.cpp:386] inception_3b/relu_3x3_reduce -> inception_3b/3x3_reduce (in-place)
I0403 15:07:31.978826 31160 net.cpp:141] Setting up inception_3b/relu_3x3_reduce
I0403 15:07:31.978852 31160 net.cpp:148] Top shape: 24 128 28 28 (2408448)
I0403 15:07:31.978866 31160 net.cpp:156] Memory required for data: 696042528
I0403 15:07:31.978883 31160 layer_factory.hpp:77] Creating layer inception_3b/3x3
I0403 15:07:31.978909 31160 net.cpp:91] Creating Layer inception_3b/3x3
I0403 15:07:31.978926 31160 net.cpp:425] inception_3b/3x3 <- inception_3b/3x3_reduce
I0403 15:07:31.978945 31160 net.cpp:399] inception_3b/3x3 -> inception_3b/3x3
I0403 15:07:31.981868 31160 net.cpp:141] Setting up inception_3b/3x3
I0403 15:07:31.981897 31160 net.cpp:148] Top shape: 24 192 28 28 (3612672)
I0403 15:07:31.981914 31160 net.cpp:156] Memory required for data: 710493216
I0403 15:07:31.981932 31160 layer_factory.hpp:77] Creating layer inception_3b/relu_3x3
I0403 15:07:31.981951 31160 net.cpp:91] Creating Layer inception_3b/relu_3x3
I0403 15:07:31.981969 31160 net.cpp:425] inception_3b/relu_3x3 <- inception_3b/3x3
I0403 15:07:31.981992 31160 net.cpp:386] inception_3b/relu_3x3 -> inception_3b/3x3 (in-place)
I0403 15:07:31.982282 31160 net.cpp:141] Setting up inception_3b/relu_3x3
I0403 15:07:31.982311 31160 net.cpp:148] Top shape: 24 192 28 28 (3612672)
I0403 15:07:31.982326 31160 net.cpp:156] Memory required for data: 724943904
I0403 15:07:31.982342 31160 layer_factory.hpp:77] Creating layer inception_3b/5x5_reduce
I0403 15:07:31.982367 31160 net.cpp:91] Creating Layer inception_3b/5x5_reduce
I0403 15:07:31.982385 31160 net.cpp:425] inception_3b/5x5_reduce <- inception_3a/output_inception_3a/output_0_split_2
I0403 15:07:31.982409 31160 net.cpp:399] inception_3b/5x5_reduce -> inception_3b/5x5_reduce
I0403 15:07:31.983402 31160 net.cpp:141] Setting up inception_3b/5x5_reduce
I0403 15:07:31.983433 31160 net.cpp:148] Top shape: 24 32 28 28 (602112)
I0403 15:07:31.983450 31160 net.cpp:156] Memory required for data: 727352352
I0403 15:07:31.983469 31160 layer_factory.hpp:77] Creating layer inception_3b/relu_5x5_reduce
I0403 15:07:31.983486 31160 net.cpp:91] Creating Layer inception_3b/relu_5x5_reduce
I0403 15:07:31.983503 31160 net.cpp:425] inception_3b/relu_5x5_reduce <- inception_3b/5x5_reduce
I0403 15:07:31.983523 31160 net.cpp:386] inception_3b/relu_5x5_reduce -> inception_3b/5x5_reduce (in-place)
I0403 15:07:31.983697 31160 net.cpp:141] Setting up inception_3b/relu_5x5_reduce
I0403 15:07:31.983736 31160 net.cpp:148] Top shape: 24 32 28 28 (602112)
I0403 15:07:31.983752 31160 net.cpp:156] Memory required for data: 729760800
I0403 15:07:31.983769 31160 layer_factory.hpp:77] Creating layer inception_3b/5x5
I0403 15:07:31.983791 31160 net.cpp:91] Creating Layer inception_3b/5x5
I0403 15:07:31.983809 31160 net.cpp:425] inception_3b/5x5 <- inception_3b/5x5_reduce
I0403 15:07:31.983831 31160 net.cpp:399] inception_3b/5x5 -> inception_3b/5x5
I0403 15:07:31.985860 31160 net.cpp:141] Setting up inception_3b/5x5
I0403 15:07:31.985893 31160 net.cpp:148] Top shape: 24 96 28 28 (1806336)
I0403 15:07:31.985909 31160 net.cpp:156] Memory required for data: 736986144
I0403 15:07:31.985934 31160 layer_factory.hpp:77] Creating layer inception_3b/relu_5x5
I0403 15:07:31.985955 31160 net.cpp:91] Creating Layer inception_3b/relu_5x5
I0403 15:07:31.985972 31160 net.cpp:425] inception_3b/relu_5x5 <- inception_3b/5x5
I0403 15:07:31.985991 31160 net.cpp:386] inception_3b/relu_5x5 -> inception_3b/5x5 (in-place)
I0403 15:07:31.986188 31160 net.cpp:141] Setting up inception_3b/relu_5x5
I0403 15:07:31.986215 31160 net.cpp:148] Top shape: 24 96 28 28 (1806336)
I0403 15:07:31.986232 31160 net.cpp:156] Memory required for data: 744211488
I0403 15:07:31.986246 31160 layer_factory.hpp:77] Creating layer inception_3b/pool
I0403 15:07:31.986280 31160 net.cpp:91] Creating Layer inception_3b/pool
I0403 15:07:31.986299 31160 net.cpp:425] inception_3b/pool <- inception_3a/output_inception_3a/output_0_split_3
I0403 15:07:31.986316 31160 net.cpp:399] inception_3b/pool -> inception_3b/pool
I0403 15:07:31.986374 31160 net.cpp:141] Setting up inception_3b/pool
I0403 15:07:31.986399 31160 net.cpp:148] Top shape: 24 256 28 28 (4816896)
I0403 15:07:31.986415 31160 net.cpp:156] Memory required for data: 763479072
I0403 15:07:31.986431 31160 layer_factory.hpp:77] Creating layer inception_3b/pool_proj
I0403 15:07:31.986457 31160 net.cpp:91] Creating Layer inception_3b/pool_proj
I0403 15:07:31.986476 31160 net.cpp:425] inception_3b/pool_proj <- inception_3b/pool
I0403 15:07:31.986496 31160 net.cpp:399] inception_3b/pool_proj -> inception_3b/pool_proj
I0403 15:07:31.987578 31160 net.cpp:141] Setting up inception_3b/pool_proj
I0403 15:07:31.987607 31160 net.cpp:148] Top shape: 24 64 28 28 (1204224)
I0403 15:07:31.987623 31160 net.cpp:156] Memory required for data: 768295968
I0403 15:07:31.987643 31160 layer_factory.hpp:77] Creating layer inception_3b/relu_pool_proj
I0403 15:07:31.987663 31160 net.cpp:91] Creating Layer inception_3b/relu_pool_proj
I0403 15:07:31.987681 31160 net.cpp:425] inception_3b/relu_pool_proj <- inception_3b/pool_proj
I0403 15:07:31.987699 31160 net.cpp:386] inception_3b/relu_pool_proj -> inception_3b/pool_proj (in-place)
I0403 15:07:31.988098 31160 net.cpp:141] Setting up inception_3b/relu_pool_proj
I0403 15:07:31.988126 31160 net.cpp:148] Top shape: 24 64 28 28 (1204224)
I0403 15:07:31.988142 31160 net.cpp:156] Memory required for data: 773112864
I0403 15:07:31.988159 31160 layer_factory.hpp:77] Creating layer inception_3b/output
I0403 15:07:31.988178 31160 net.cpp:91] Creating Layer inception_3b/output
I0403 15:07:31.988193 31160 net.cpp:425] inception_3b/output <- inception_3b/1x1
I0403 15:07:31.988211 31160 net.cpp:425] inception_3b/output <- inception_3b/3x3
I0403 15:07:31.988231 31160 net.cpp:425] inception_3b/output <- inception_3b/5x5
I0403 15:07:31.988248 31160 net.cpp:425] inception_3b/output <- inception_3b/pool_proj
I0403 15:07:31.988272 31160 net.cpp:399] inception_3b/output -> inception_3b/output
I0403 15:07:31.988317 31160 net.cpp:141] Setting up inception_3b/output
I0403 15:07:31.988343 31160 net.cpp:148] Top shape: 24 480 28 28 (9031680)
I0403 15:07:31.988360 31160 net.cpp:156] Memory required for data: 809239584
I0403 15:07:31.988375 31160 layer_factory.hpp:77] Creating layer pool3/3x3_s2
I0403 15:07:31.988394 31160 net.cpp:91] Creating Layer pool3/3x3_s2
I0403 15:07:31.988410 31160 net.cpp:425] pool3/3x3_s2 <- inception_3b/output
I0403 15:07:31.988431 31160 net.cpp:399] pool3/3x3_s2 -> pool3/3x3_s2
I0403 15:07:31.988508 31160 net.cpp:141] Setting up pool3/3x3_s2
I0403 15:07:31.988536 31160 net.cpp:148] Top shape: 24 480 14 14 (2257920)
I0403 15:07:31.988553 31160 net.cpp:156] Memory required for data: 818271264
I0403 15:07:31.988570 31160 layer_factory.hpp:77] Creating layer pool3/3x3_s2_pool3/3x3_s2_0_split
I0403 15:07:31.988587 31160 net.cpp:91] Creating Layer pool3/3x3_s2_pool3/3x3_s2_0_split
I0403 15:07:31.988603 31160 net.cpp:425] pool3/3x3_s2_pool3/3x3_s2_0_split <- pool3/3x3_s2
I0403 15:07:31.988622 31160 net.cpp:399] pool3/3x3_s2_pool3/3x3_s2_0_split -> pool3/3x3_s2_pool3/3x3_s2_0_split_0
I0403 15:07:31.988642 31160 net.cpp:399] pool3/3x3_s2_pool3/3x3_s2_0_split -> pool3/3x3_s2_pool3/3x3_s2_0_split_1
I0403 15:07:31.988662 31160 net.cpp:399] pool3/3x3_s2_pool3/3x3_s2_0_split -> pool3/3x3_s2_pool3/3x3_s2_0_split_2
I0403 15:07:31.988684 31160 net.cpp:399] pool3/3x3_s2_pool3/3x3_s2_0_split -> pool3/3x3_s2_pool3/3x3_s2_0_split_3
I0403 15:07:31.988770 31160 net.cpp:141] Setting up pool3/3x3_s2_pool3/3x3_s2_0_split
I0403 15:07:31.988797 31160 net.cpp:148] Top shape: 24 480 14 14 (2257920)
I0403 15:07:31.988817 31160 net.cpp:148] Top shape: 24 480 14 14 (2257920)
I0403 15:07:31.988832 31160 net.cpp:148] Top shape: 24 480 14 14 (2257920)
I0403 15:07:31.988849 31160 net.cpp:148] Top shape: 24 480 14 14 (2257920)
I0403 15:07:31.988864 31160 net.cpp:156] Memory required for data: 854397984
I0403 15:07:31.988883 31160 layer_factory.hpp:77] Creating layer inception_4a/1x1
I0403 15:07:31.988905 31160 net.cpp:91] Creating Layer inception_4a/1x1
I0403 15:07:31.988924 31160 net.cpp:425] inception_4a/1x1 <- pool3/3x3_s2_pool3/3x3_s2_0_split_0
I0403 15:07:31.988945 31160 net.cpp:399] inception_4a/1x1 -> inception_4a/1x1
I0403 15:07:31.990559 31160 net.cpp:141] Setting up inception_4a/1x1
I0403 15:07:31.990589 31160 net.cpp:148] Top shape: 24 192 14 14 (903168)
I0403 15:07:31.990605 31160 net.cpp:156] Memory required for data: 858010656
I0403 15:07:31.990625 31160 layer_factory.hpp:77] Creating layer inception_4a/relu_1x1
I0403 15:07:31.990646 31160 net.cpp:91] Creating Layer inception_4a/relu_1x1
I0403 15:07:31.990665 31160 net.cpp:425] inception_4a/relu_1x1 <- inception_4a/1x1
I0403 15:07:31.990682 31160 net.cpp:386] inception_4a/relu_1x1 -> inception_4a/1x1 (in-place)
I0403 15:07:31.990861 31160 net.cpp:141] Setting up inception_4a/relu_1x1
I0403 15:07:31.990892 31160 net.cpp:148] Top shape: 24 192 14 14 (903168)
I0403 15:07:31.990909 31160 net.cpp:156] Memory required for data: 861623328
I0403 15:07:31.990926 31160 layer_factory.hpp:77] Creating layer inception_4a/3x3_reduce
I0403 15:07:31.990949 31160 net.cpp:91] Creating Layer inception_4a/3x3_reduce
I0403 15:07:31.990968 31160 net.cpp:425] inception_4a/3x3_reduce <- pool3/3x3_s2_pool3/3x3_s2_0_split_1
I0403 15:07:31.990988 31160 net.cpp:399] inception_4a/3x3_reduce -> inception_4a/3x3_reduce
I0403 15:07:31.992313 31160 net.cpp:141] Setting up inception_4a/3x3_reduce
I0403 15:07:31.992342 31160 net.cpp:148] Top shape: 24 96 14 14 (451584)
I0403 15:07:31.992360 31160 net.cpp:156] Memory required for data: 863429664
I0403 15:07:31.992388 31160 layer_factory.hpp:77] Creating layer inception_4a/relu_3x3_reduce
I0403 15:07:31.992410 31160 net.cpp:91] Creating Layer inception_4a/relu_3x3_reduce
I0403 15:07:31.992427 31160 net.cpp:425] inception_4a/relu_3x3_reduce <- inception_4a/3x3_reduce
I0403 15:07:31.992446 31160 net.cpp:386] inception_4a/relu_3x3_reduce -> inception_4a/3x3_reduce (in-place)
I0403 15:07:31.992627 31160 net.cpp:141] Setting up inception_4a/relu_3x3_reduce
I0403 15:07:31.992660 31160 net.cpp:148] Top shape: 24 96 14 14 (451584)
I0403 15:07:31.992676 31160 net.cpp:156] Memory required for data: 865236000
I0403 15:07:31.992692 31160 layer_factory.hpp:77] Creating layer inception_4a/3x3
I0403 15:07:31.992717 31160 net.cpp:91] Creating Layer inception_4a/3x3
I0403 15:07:31.992734 31160 net.cpp:425] inception_4a/3x3 <- inception_4a/3x3_reduce
I0403 15:07:31.992754 31160 net.cpp:399] inception_4a/3x3 -> inception_4a/3x3
I0403 15:07:31.995512 31160 net.cpp:141] Setting up inception_4a/3x3
I0403 15:07:31.995544 31160 net.cpp:148] Top shape: 24 208 14 14 (978432)
I0403 15:07:31.995563 31160 net.cpp:156] Memory required for data: 869149728
I0403 15:07:31.995584 31160 layer_factory.hpp:77] Creating layer inception_4a/relu_3x3
I0403 15:07:31.995602 31160 net.cpp:91] Creating Layer inception_4a/relu_3x3
I0403 15:07:31.995620 31160 net.cpp:425] inception_4a/relu_3x3 <- inception_4a/3x3
I0403 15:07:31.995640 31160 net.cpp:386] inception_4a/relu_3x3 -> inception_4a/3x3 (in-place)
I0403 15:07:31.995929 31160 net.cpp:141] Setting up inception_4a/relu_3x3
I0403 15:07:31.995959 31160 net.cpp:148] Top shape: 24 208 14 14 (978432)
I0403 15:07:31.995977 31160 net.cpp:156] Memory required for data: 873063456
I0403 15:07:31.995992 31160 layer_factory.hpp:77] Creating layer inception_4a/5x5_reduce
I0403 15:07:31.996016 31160 net.cpp:91] Creating Layer inception_4a/5x5_reduce
I0403 15:07:31.996040 31160 net.cpp:425] inception_4a/5x5_reduce <- pool3/3x3_s2_pool3/3x3_s2_0_split_2
I0403 15:07:31.996060 31160 net.cpp:399] inception_4a/5x5_reduce -> inception_4a/5x5_reduce
I0403 15:07:31.997128 31160 net.cpp:141] Setting up inception_4a/5x5_reduce
I0403 15:07:31.997159 31160 net.cpp:148] Top shape: 24 16 14 14 (75264)
I0403 15:07:31.997177 31160 net.cpp:156] Memory required for data: 873364512
I0403 15:07:31.997198 31160 layer_factory.hpp:77] Creating layer inception_4a/relu_5x5_reduce
I0403 15:07:31.997220 31160 net.cpp:91] Creating Layer inception_4a/relu_5x5_reduce
I0403 15:07:31.997237 31160 net.cpp:425] inception_4a/relu_5x5_reduce <- inception_4a/5x5_reduce
I0403 15:07:31.997262 31160 net.cpp:386] inception_4a/relu_5x5_reduce -> inception_4a/5x5_reduce (in-place)
I0403 15:07:31.997450 31160 net.cpp:141] Setting up inception_4a/relu_5x5_reduce
I0403 15:07:31.997478 31160 net.cpp:148] Top shape: 24 16 14 14 (75264)
I0403 15:07:31.997493 31160 net.cpp:156] Memory required for data: 873665568
I0403 15:07:31.997509 31160 layer_factory.hpp:77] Creating layer inception_4a/5x5
I0403 15:07:31.997532 31160 net.cpp:91] Creating Layer inception_4a/5x5
I0403 15:07:31.997551 31160 net.cpp:425] inception_4a/5x5 <- inception_4a/5x5_reduce
I0403 15:07:31.997573 31160 net.cpp:399] inception_4a/5x5 -> inception_4a/5x5
I0403 15:07:31.998703 31160 net.cpp:141] Setting up inception_4a/5x5
I0403 15:07:31.998733 31160 net.cpp:148] Top shape: 24 48 14 14 (225792)
I0403 15:07:31.998749 31160 net.cpp:156] Memory required for data: 874568736
I0403 15:07:31.998770 31160 layer_factory.hpp:77] Creating layer inception_4a/relu_5x5
I0403 15:07:31.998792 31160 net.cpp:91] Creating Layer inception_4a/relu_5x5
I0403 15:07:31.998811 31160 net.cpp:425] inception_4a/relu_5x5 <- inception_4a/5x5
I0403 15:07:31.998827 31160 net.cpp:386] inception_4a/relu_5x5 -> inception_4a/5x5 (in-place)
I0403 15:07:31.999014 31160 net.cpp:141] Setting up inception_4a/relu_5x5
I0403 15:07:31.999042 31160 net.cpp:148] Top shape: 24 48 14 14 (225792)
I0403 15:07:31.999058 31160 net.cpp:156] Memory required for data: 875471904
I0403 15:07:31.999073 31160 layer_factory.hpp:77] Creating layer inception_4a/pool
I0403 15:07:31.999094 31160 net.cpp:91] Creating Layer inception_4a/pool
I0403 15:07:31.999112 31160 net.cpp:425] inception_4a/pool <- pool3/3x3_s2_pool3/3x3_s2_0_split_3
I0403 15:07:31.999131 31160 net.cpp:399] inception_4a/pool -> inception_4a/pool
I0403 15:07:31.999196 31160 net.cpp:141] Setting up inception_4a/pool
I0403 15:07:31.999220 31160 net.cpp:148] Top shape: 24 480 14 14 (2257920)
I0403 15:07:31.999238 31160 net.cpp:156] Memory required for data: 884503584
I0403 15:07:31.999258 31160 layer_factory.hpp:77] Creating layer inception_4a/pool_proj
I0403 15:07:31.999287 31160 net.cpp:91] Creating Layer inception_4a/pool_proj
I0403 15:07:31.999306 31160 net.cpp:425] inception_4a/pool_proj <- inception_4a/pool
I0403 15:07:31.999328 31160 net.cpp:399] inception_4a/pool_proj -> inception_4a/pool_proj
I0403 15:07:32.000542 31160 net.cpp:141] Setting up inception_4a/pool_proj
I0403 15:07:32.000574 31160 net.cpp:148] Top shape: 24 64 14 14 (301056)
I0403 15:07:32.000607 31160 net.cpp:156] Memory required for data: 885707808
I0403 15:07:32.000627 31160 layer_factory.hpp:77] Creating layer inception_4a/relu_pool_proj
I0403 15:07:32.000649 31160 net.cpp:91] Creating Layer inception_4a/relu_pool_proj
I0403 15:07:32.000674 31160 net.cpp:425] inception_4a/relu_pool_proj <- inception_4a/pool_proj
I0403 15:07:32.000692 31160 net.cpp:386] inception_4a/relu_pool_proj -> inception_4a/pool_proj (in-place)
I0403 15:07:32.000987 31160 net.cpp:141] Setting up inception_4a/relu_pool_proj
I0403 15:07:32.001016 31160 net.cpp:148] Top shape: 24 64 14 14 (301056)
I0403 15:07:32.001032 31160 net.cpp:156] Memory required for data: 886912032
I0403 15:07:32.001047 31160 layer_factory.hpp:77] Creating layer inception_4a/output
I0403 15:07:32.001068 31160 net.cpp:91] Creating Layer inception_4a/output
I0403 15:07:32.001087 31160 net.cpp:425] inception_4a/output <- inception_4a/1x1
I0403 15:07:32.001107 31160 net.cpp:425] inception_4a/output <- inception_4a/3x3
I0403 15:07:32.001129 31160 net.cpp:425] inception_4a/output <- inception_4a/5x5
I0403 15:07:32.001148 31160 net.cpp:425] inception_4a/output <- inception_4a/pool_proj
I0403 15:07:32.001168 31160 net.cpp:399] inception_4a/output -> inception_4a/output
I0403 15:07:32.001217 31160 net.cpp:141] Setting up inception_4a/output
I0403 15:07:32.001242 31160 net.cpp:148] Top shape: 24 512 14 14 (2408448)
I0403 15:07:32.001265 31160 net.cpp:156] Memory required for data: 896545824
I0403 15:07:32.001284 31160 layer_factory.hpp:77] Creating layer inception_4a/output_inception_4a/output_0_split
I0403 15:07:32.001303 31160 net.cpp:91] Creating Layer inception_4a/output_inception_4a/output_0_split
I0403 15:07:32.001319 31160 net.cpp:425] inception_4a/output_inception_4a/output_0_split <- inception_4a/output
I0403 15:07:32.001341 31160 net.cpp:399] inception_4a/output_inception_4a/output_0_split -> inception_4a/output_inception_4a/output_0_split_0
I0403 15:07:32.001363 31160 net.cpp:399] inception_4a/output_inception_4a/output_0_split -> inception_4a/output_inception_4a/output_0_split_1
I0403 15:07:32.001384 31160 net.cpp:399] inception_4a/output_inception_4a/output_0_split -> inception_4a/output_inception_4a/output_0_split_2
I0403 15:07:32.001405 31160 net.cpp:399] inception_4a/output_inception_4a/output_0_split -> inception_4a/output_inception_4a/output_0_split_3
I0403 15:07:32.001425 31160 net.cpp:399] inception_4a/output_inception_4a/output_0_split -> inception_4a/output_inception_4a/output_0_split_4
I0403 15:07:32.001523 31160 net.cpp:141] Setting up inception_4a/output_inception_4a/output_0_split
I0403 15:07:32.001554 31160 net.cpp:148] Top shape: 24 512 14 14 (2408448)
I0403 15:07:32.001577 31160 net.cpp:148] Top shape: 24 512 14 14 (2408448)
I0403 15:07:32.001597 31160 net.cpp:148] Top shape: 24 512 14 14 (2408448)
I0403 15:07:32.001615 31160 net.cpp:148] Top shape: 24 512 14 14 (2408448)
I0403 15:07:32.001631 31160 net.cpp:148] Top shape: 24 512 14 14 (2408448)
I0403 15:07:32.001646 31160 net.cpp:156] Memory required for data: 944714784
I0403 15:07:32.001660 31160 layer_factory.hpp:77] Creating layer loss1/ave_pool
I0403 15:07:32.001679 31160 net.cpp:91] Creating Layer loss1/ave_pool
I0403 15:07:32.001695 31160 net.cpp:425] loss1/ave_pool <- inception_4a/output_inception_4a/output_0_split_0
I0403 15:07:32.001718 31160 net.cpp:399] loss1/ave_pool -> loss1/ave_pool
I0403 15:07:32.001930 31160 net.cpp:141] Setting up loss1/ave_pool
I0403 15:07:32.001958 31160 net.cpp:148] Top shape: 24 512 4 4 (196608)
I0403 15:07:32.001974 31160 net.cpp:156] Memory required for data: 945501216
I0403 15:07:32.001991 31160 layer_factory.hpp:77] Creating layer loss1/conv
I0403 15:07:32.002017 31160 net.cpp:91] Creating Layer loss1/conv
I0403 15:07:32.002037 31160 net.cpp:425] loss1/conv <- loss1/ave_pool
I0403 15:07:32.002060 31160 net.cpp:399] loss1/conv -> loss1/conv
I0403 15:07:32.003537 31160 net.cpp:141] Setting up loss1/conv
I0403 15:07:32.003578 31160 net.cpp:148] Top shape: 24 128 4 4 (49152)
I0403 15:07:32.003597 31160 net.cpp:156] Memory required for data: 945697824
I0403 15:07:32.003639 31160 layer_factory.hpp:77] Creating layer loss1/relu_conv
I0403 15:07:32.003659 31160 net.cpp:91] Creating Layer loss1/relu_conv
I0403 15:07:32.003676 31160 net.cpp:425] loss1/relu_conv <- loss1/conv
I0403 15:07:32.003697 31160 net.cpp:386] loss1/relu_conv -> loss1/conv (in-place)
I0403 15:07:32.004009 31160 net.cpp:141] Setting up loss1/relu_conv
I0403 15:07:32.004040 31160 net.cpp:148] Top shape: 24 128 4 4 (49152)
I0403 15:07:32.004056 31160 net.cpp:156] Memory required for data: 945894432
I0403 15:07:32.004072 31160 layer_factory.hpp:77] Creating layer loss1/fc
I0403 15:07:32.004104 31160 net.cpp:91] Creating Layer loss1/fc
I0403 15:07:32.004125 31160 net.cpp:425] loss1/fc <- loss1/conv
I0403 15:07:32.004148 31160 net.cpp:399] loss1/fc -> loss1/fc
I0403 15:07:32.022147 31160 net.cpp:141] Setting up loss1/fc
I0403 15:07:32.022193 31160 net.cpp:148] Top shape: 24 1024 (24576)
I0403 15:07:32.022209 31160 net.cpp:156] Memory required for data: 945992736
I0403 15:07:32.022228 31160 layer_factory.hpp:77] Creating layer loss1/relu_fc
I0403 15:07:32.022250 31160 net.cpp:91] Creating Layer loss1/relu_fc
I0403 15:07:32.022274 31160 net.cpp:425] loss1/relu_fc <- loss1/fc
I0403 15:07:32.022292 31160 net.cpp:386] loss1/relu_fc -> loss1/fc (in-place)
I0403 15:07:32.022493 31160 net.cpp:141] Setting up loss1/relu_fc
I0403 15:07:32.022521 31160 net.cpp:148] Top shape: 24 1024 (24576)
I0403 15:07:32.022537 31160 net.cpp:156] Memory required for data: 946091040
I0403 15:07:32.022552 31160 layer_factory.hpp:77] Creating layer loss1/drop_fc
I0403 15:07:32.022580 31160 net.cpp:91] Creating Layer loss1/drop_fc
I0403 15:07:32.022598 31160 net.cpp:425] loss1/drop_fc <- loss1/fc
I0403 15:07:32.022617 31160 net.cpp:386] loss1/drop_fc -> loss1/fc (in-place)
I0403 15:07:32.022670 31160 net.cpp:141] Setting up loss1/drop_fc
I0403 15:07:32.022692 31160 net.cpp:148] Top shape: 24 1024 (24576)
I0403 15:07:32.022707 31160 net.cpp:156] Memory required for data: 946189344
I0403 15:07:32.022723 31160 layer_factory.hpp:77] Creating layer loss1/classifier_plantvillage
I0403 15:07:32.022743 31160 net.cpp:91] Creating Layer loss1/classifier_plantvillage
I0403 15:07:32.022759 31160 net.cpp:425] loss1/classifier_plantvillage <- loss1/fc
I0403 15:07:32.022781 31160 net.cpp:399] loss1/classifier_plantvillage -> loss1/classifier_plantvillage
I0403 15:07:32.023690 31160 net.cpp:141] Setting up loss1/classifier_plantvillage
I0403 15:07:32.023718 31160 net.cpp:148] Top shape: 24 38 (912)
I0403 15:07:32.023735 31160 net.cpp:156] Memory required for data: 946192992
I0403 15:07:32.023752 31160 layer_factory.hpp:77] Creating layer loss1/classifier_plantvillage_loss1/classifier_plantvillage_0_split
I0403 15:07:32.023773 31160 net.cpp:91] Creating Layer loss1/classifier_plantvillage_loss1/classifier_plantvillage_0_split
I0403 15:07:32.023790 31160 net.cpp:425] loss1/classifier_plantvillage_loss1/classifier_plantvillage_0_split <- loss1/classifier_plantvillage
I0403 15:07:32.023808 31160 net.cpp:399] loss1/classifier_plantvillage_loss1/classifier_plantvillage_0_split -> loss1/classifier_plantvillage_loss1/classifier_plantvillage_0_split_0
I0403 15:07:32.023828 31160 net.cpp:399] loss1/classifier_plantvillage_loss1/classifier_plantvillage_0_split -> loss1/classifier_plantvillage_loss1/classifier_plantvillage_0_split_1
I0403 15:07:32.023850 31160 net.cpp:399] loss1/classifier_plantvillage_loss1/classifier_plantvillage_0_split -> loss1/classifier_plantvillage_loss1/classifier_plantvillage_0_split_2
I0403 15:07:32.023916 31160 net.cpp:141] Setting up loss1/classifier_plantvillage_loss1/classifier_plantvillage_0_split
I0403 15:07:32.023939 31160 net.cpp:148] Top shape: 24 38 (912)
I0403 15:07:32.023955 31160 net.cpp:148] Top shape: 24 38 (912)
I0403 15:07:32.023970 31160 net.cpp:148] Top shape: 24 38 (912)
I0403 15:07:32.023984 31160 net.cpp:156] Memory required for data: 946203936
I0403 15:07:32.023998 31160 layer_factory.hpp:77] Creating layer inception_4b/1x1
I0403 15:07:32.024021 31160 net.cpp:91] Creating Layer inception_4b/1x1
I0403 15:07:32.024060 31160 net.cpp:425] inception_4b/1x1 <- inception_4a/output_inception_4a/output_0_split_1
I0403 15:07:32.024080 31160 net.cpp:399] inception_4b/1x1 -> inception_4b/1x1
I0403 15:07:32.025722 31160 net.cpp:141] Setting up inception_4b/1x1
I0403 15:07:32.025753 31160 net.cpp:148] Top shape: 24 160 14 14 (752640)
I0403 15:07:32.025769 31160 net.cpp:156] Memory required for data: 949214496
I0403 15:07:32.025789 31160 layer_factory.hpp:77] Creating layer inception_4b/relu_1x1
I0403 15:07:32.025809 31160 net.cpp:91] Creating Layer inception_4b/relu_1x1
I0403 15:07:32.025825 31160 net.cpp:425] inception_4b/relu_1x1 <- inception_4b/1x1
I0403 15:07:32.025845 31160 net.cpp:386] inception_4b/relu_1x1 -> inception_4b/1x1 (in-place)
I0403 15:07:32.026022 31160 net.cpp:141] Setting up inception_4b/relu_1x1
I0403 15:07:32.026048 31160 net.cpp:148] Top shape: 24 160 14 14 (752640)
I0403 15:07:32.026062 31160 net.cpp:156] Memory required for data: 952225056
I0403 15:07:32.026078 31160 layer_factory.hpp:77] Creating layer inception_4b/3x3_reduce
I0403 15:07:32.026103 31160 net.cpp:91] Creating Layer inception_4b/3x3_reduce
I0403 15:07:32.026120 31160 net.cpp:425] inception_4b/3x3_reduce <- inception_4a/output_inception_4a/output_0_split_2
I0403 15:07:32.026140 31160 net.cpp:399] inception_4b/3x3_reduce -> inception_4b/3x3_reduce
I0403 15:07:32.027511 31160 net.cpp:141] Setting up inception_4b/3x3_reduce
I0403 15:07:32.027539 31160 net.cpp:148] Top shape: 24 112 14 14 (526848)
I0403 15:07:32.027557 31160 net.cpp:156] Memory required for data: 954332448
I0403 15:07:32.027577 31160 layer_factory.hpp:77] Creating layer inception_4b/relu_3x3_reduce
I0403 15:07:32.027595 31160 net.cpp:91] Creating Layer inception_4b/relu_3x3_reduce
I0403 15:07:32.027619 31160 net.cpp:425] inception_4b/relu_3x3_reduce <- inception_4b/3x3_reduce
I0403 15:07:32.027639 31160 net.cpp:386] inception_4b/relu_3x3_reduce -> inception_4b/3x3_reduce (in-place)
I0403 15:07:32.027926 31160 net.cpp:141] Setting up inception_4b/relu_3x3_reduce
I0403 15:07:32.027956 31160 net.cpp:148] Top shape: 24 112 14 14 (526848)
I0403 15:07:32.027971 31160 net.cpp:156] Memory required for data: 956439840
I0403 15:07:32.027987 31160 layer_factory.hpp:77] Creating layer inception_4b/3x3
I0403 15:07:32.028009 31160 net.cpp:91] Creating Layer inception_4b/3x3
I0403 15:07:32.028028 31160 net.cpp:425] inception_4b/3x3 <- inception_4b/3x3_reduce
I0403 15:07:32.028048 31160 net.cpp:399] inception_4b/3x3 -> inception_4b/3x3
I0403 15:07:32.031189 31160 net.cpp:141] Setting up inception_4b/3x3
I0403 15:07:32.031219 31160 net.cpp:148] Top shape: 24 224 14 14 (1053696)
I0403 15:07:32.031235 31160 net.cpp:156] Memory required for data: 960654624
I0403 15:07:32.031260 31160 layer_factory.hpp:77] Creating layer inception_4b/relu_3x3
I0403 15:07:32.031292 31160 net.cpp:91] Creating Layer inception_4b/relu_3x3
I0403 15:07:32.031309 31160 net.cpp:425] inception_4b/relu_3x3 <- inception_4b/3x3
I0403 15:07:32.031328 31160 net.cpp:386] inception_4b/relu_3x3 -> inception_4b/3x3 (in-place)
I0403 15:07:32.031512 31160 net.cpp:141] Setting up inception_4b/relu_3x3
I0403 15:07:32.031540 31160 net.cpp:148] Top shape: 24 224 14 14 (1053696)
I0403 15:07:32.031566 31160 net.cpp:156] Memory required for data: 964869408
I0403 15:07:32.031581 31160 layer_factory.hpp:77] Creating layer inception_4b/5x5_reduce
I0403 15:07:32.031605 31160 net.cpp:91] Creating Layer inception_4b/5x5_reduce
I0403 15:07:32.031623 31160 net.cpp:425] inception_4b/5x5_reduce <- inception_4a/output_inception_4a/output_0_split_3
I0403 15:07:32.031647 31160 net.cpp:399] inception_4b/5x5_reduce -> inception_4b/5x5_reduce
I0403 15:07:32.032747 31160 net.cpp:141] Setting up inception_4b/5x5_reduce
I0403 15:07:32.032775 31160 net.cpp:148] Top shape: 24 24 14 14 (112896)
I0403 15:07:32.032791 31160 net.cpp:156] Memory required for data: 965320992
I0403 15:07:32.032811 31160 layer_factory.hpp:77] Creating layer inception_4b/relu_5x5_reduce
I0403 15:07:32.032829 31160 net.cpp:91] Creating Layer inception_4b/relu_5x5_reduce
I0403 15:07:32.032863 31160 net.cpp:425] inception_4b/relu_5x5_reduce <- inception_4b/5x5_reduce
I0403 15:07:32.032886 31160 net.cpp:386] inception_4b/relu_5x5_reduce -> inception_4b/5x5_reduce (in-place)
I0403 15:07:32.033074 31160 net.cpp:141] Setting up inception_4b/relu_5x5_reduce
I0403 15:07:32.033102 31160 net.cpp:148] Top shape: 24 24 14 14 (112896)
I0403 15:07:32.033116 31160 net.cpp:156] Memory required for data: 965772576
I0403 15:07:32.033133 31160 layer_factory.hpp:77] Creating layer inception_4b/5x5
I0403 15:07:32.033156 31160 net.cpp:91] Creating Layer inception_4b/5x5
I0403 15:07:32.033177 31160 net.cpp:425] inception_4b/5x5 <- inception_4b/5x5_reduce
I0403 15:07:32.033200 31160 net.cpp:399] inception_4b/5x5 -> inception_4b/5x5
I0403 15:07:32.034446 31160 net.cpp:141] Setting up inception_4b/5x5
I0403 15:07:32.034477 31160 net.cpp:148] Top shape: 24 64 14 14 (301056)
I0403 15:07:32.034493 31160 net.cpp:156] Memory required for data: 966976800
I0403 15:07:32.034517 31160 layer_factory.hpp:77] Creating layer inception_4b/relu_5x5
I0403 15:07:32.034538 31160 net.cpp:91] Creating Layer inception_4b/relu_5x5
I0403 15:07:32.034557 31160 net.cpp:425] inception_4b/relu_5x5 <- inception_4b/5x5
I0403 15:07:32.034581 31160 net.cpp:386] inception_4b/relu_5x5 -> inception_4b/5x5 (in-place)
I0403 15:07:32.034868 31160 net.cpp:141] Setting up inception_4b/relu_5x5
I0403 15:07:32.034898 31160 net.cpp:148] Top shape: 24 64 14 14 (301056)
I0403 15:07:32.034914 31160 net.cpp:156] Memory required for data: 968181024
I0403 15:07:32.034929 31160 layer_factory.hpp:77] Creating layer inception_4b/pool
I0403 15:07:32.034956 31160 net.cpp:91] Creating Layer inception_4b/pool
I0403 15:07:32.034976 31160 net.cpp:425] inception_4b/pool <- inception_4a/output_inception_4a/output_0_split_4
I0403 15:07:32.034996 31160 net.cpp:399] inception_4b/pool -> inception_4b/pool
I0403 15:07:32.035063 31160 net.cpp:141] Setting up inception_4b/pool
I0403 15:07:32.035086 31160 net.cpp:148] Top shape: 24 512 14 14 (2408448)
I0403 15:07:32.035101 31160 net.cpp:156] Memory required for data: 977814816
I0403 15:07:32.035116 31160 layer_factory.hpp:77] Creating layer inception_4b/pool_proj
I0403 15:07:32.035140 31160 net.cpp:91] Creating Layer inception_4b/pool_proj
I0403 15:07:32.035168 31160 net.cpp:425] inception_4b/pool_proj <- inception_4b/pool
I0403 15:07:32.035189 31160 net.cpp:399] inception_4b/pool_proj -> inception_4b/pool_proj
I0403 15:07:32.036411 31160 net.cpp:141] Setting up inception_4b/pool_proj
I0403 15:07:32.036443 31160 net.cpp:148] Top shape: 24 64 14 14 (301056)
I0403 15:07:32.036460 31160 net.cpp:156] Memory required for data: 979019040
I0403 15:07:32.036480 31160 layer_factory.hpp:77] Creating layer inception_4b/relu_pool_proj
I0403 15:07:32.036499 31160 net.cpp:91] Creating Layer inception_4b/relu_pool_proj
I0403 15:07:32.036516 31160 net.cpp:425] inception_4b/relu_pool_proj <- inception_4b/pool_proj
I0403 15:07:32.036536 31160 net.cpp:386] inception_4b/relu_pool_proj -> inception_4b/pool_proj (in-place)
I0403 15:07:32.036734 31160 net.cpp:141] Setting up inception_4b/relu_pool_proj
I0403 15:07:32.036761 31160 net.cpp:148] Top shape: 24 64 14 14 (301056)
I0403 15:07:32.036777 31160 net.cpp:156] Memory required for data: 980223264
I0403 15:07:32.036792 31160 layer_factory.hpp:77] Creating layer inception_4b/output
I0403 15:07:32.036808 31160 net.cpp:91] Creating Layer inception_4b/output
I0403 15:07:32.036824 31160 net.cpp:425] inception_4b/output <- inception_4b/1x1
I0403 15:07:32.036841 31160 net.cpp:425] inception_4b/output <- inception_4b/3x3
I0403 15:07:32.036859 31160 net.cpp:425] inception_4b/output <- inception_4b/5x5
I0403 15:07:32.036875 31160 net.cpp:425] inception_4b/output <- inception_4b/pool_proj
I0403 15:07:32.036893 31160 net.cpp:399] inception_4b/output -> inception_4b/output
I0403 15:07:32.036942 31160 net.cpp:141] Setting up inception_4b/output
I0403 15:07:32.036967 31160 net.cpp:148] Top shape: 24 512 14 14 (2408448)
I0403 15:07:32.036981 31160 net.cpp:156] Memory required for data: 989857056
I0403 15:07:32.037012 31160 layer_factory.hpp:77] Creating layer inception_4b/output_inception_4b/output_0_split
I0403 15:07:32.037031 31160 net.cpp:91] Creating Layer inception_4b/output_inception_4b/output_0_split
I0403 15:07:32.037047 31160 net.cpp:425] inception_4b/output_inception_4b/output_0_split <- inception_4b/output
I0403 15:07:32.037067 31160 net.cpp:399] inception_4b/output_inception_4b/output_0_split -> inception_4b/output_inception_4b/output_0_split_0
I0403 15:07:32.037089 31160 net.cpp:399] inception_4b/output_inception_4b/output_0_split -> inception_4b/output_inception_4b/output_0_split_1
I0403 15:07:32.037111 31160 net.cpp:399] inception_4b/output_inception_4b/output_0_split -> inception_4b/output_inception_4b/output_0_split_2
I0403 15:07:32.037132 31160 net.cpp:399] inception_4b/output_inception_4b/output_0_split -> inception_4b/output_inception_4b/output_0_split_3
I0403 15:07:32.037216 31160 net.cpp:141] Setting up inception_4b/output_inception_4b/output_0_split
I0403 15:07:32.037250 31160 net.cpp:148] Top shape: 24 512 14 14 (2408448)
I0403 15:07:32.037276 31160 net.cpp:148] Top shape: 24 512 14 14 (2408448)
I0403 15:07:32.037292 31160 net.cpp:148] Top shape: 24 512 14 14 (2408448)
I0403 15:07:32.037309 31160 net.cpp:148] Top shape: 24 512 14 14 (2408448)
I0403 15:07:32.037323 31160 net.cpp:156] Memory required for data: 1028392224
I0403 15:07:32.037339 31160 layer_factory.hpp:77] Creating layer inception_4c/1x1
I0403 15:07:32.037361 31160 net.cpp:91] Creating Layer inception_4c/1x1
I0403 15:07:32.037379 31160 net.cpp:425] inception_4c/1x1 <- inception_4b/output_inception_4b/output_0_split_0
I0403 15:07:32.037398 31160 net.cpp:399] inception_4c/1x1 -> inception_4c/1x1
I0403 15:07:32.038832 31160 net.cpp:141] Setting up inception_4c/1x1
I0403 15:07:32.038862 31160 net.cpp:148] Top shape: 24 128 14 14 (602112)
I0403 15:07:32.038878 31160 net.cpp:156] Memory required for data: 1030800672
I0403 15:07:32.038897 31160 layer_factory.hpp:77] Creating layer inception_4c/relu_1x1
I0403 15:07:32.038918 31160 net.cpp:91] Creating Layer inception_4c/relu_1x1
I0403 15:07:32.038934 31160 net.cpp:425] inception_4c/relu_1x1 <- inception_4c/1x1
I0403 15:07:32.038952 31160 net.cpp:386] inception_4c/relu_1x1 -> inception_4c/1x1 (in-place)
I0403 15:07:32.039135 31160 net.cpp:141] Setting up inception_4c/relu_1x1
I0403 15:07:32.039168 31160 net.cpp:148] Top shape: 24 128 14 14 (602112)
I0403 15:07:32.039186 31160 net.cpp:156] Memory required for data: 1033209120
I0403 15:07:32.039201 31160 layer_factory.hpp:77] Creating layer inception_4c/3x3_reduce
I0403 15:07:32.039224 31160 net.cpp:91] Creating Layer inception_4c/3x3_reduce
I0403 15:07:32.039242 31160 net.cpp:425] inception_4c/3x3_reduce <- inception_4b/output_inception_4b/output_0_split_1
I0403 15:07:32.039268 31160 net.cpp:399] inception_4c/3x3_reduce -> inception_4c/3x3_reduce
I0403 15:07:32.041213 31160 net.cpp:141] Setting up inception_4c/3x3_reduce
I0403 15:07:32.041244 31160 net.cpp:148] Top shape: 24 128 14 14 (602112)
I0403 15:07:32.041275 31160 net.cpp:156] Memory required for data: 1035617568
I0403 15:07:32.041297 31160 layer_factory.hpp:77] Creating layer inception_4c/relu_3x3_reduce
I0403 15:07:32.041316 31160 net.cpp:91] Creating Layer inception_4c/relu_3x3_reduce
I0403 15:07:32.041335 31160 net.cpp:425] inception_4c/relu_3x3_reduce <- inception_4c/3x3_reduce
I0403 15:07:32.041353 31160 net.cpp:386] inception_4c/relu_3x3_reduce -> inception_4c/3x3_reduce (in-place)
I0403 15:07:32.041651 31160 net.cpp:141] Setting up inception_4c/relu_3x3_reduce
I0403 15:07:32.041682 31160 net.cpp:148] Top shape: 24 128 14 14 (602112)
I0403 15:07:32.041698 31160 net.cpp:156] Memory required for data: 1038026016
I0403 15:07:32.041714 31160 layer_factory.hpp:77] Creating layer inception_4c/3x3
I0403 15:07:32.041738 31160 net.cpp:91] Creating Layer inception_4c/3x3
I0403 15:07:32.041756 31160 net.cpp:425] inception_4c/3x3 <- inception_4c/3x3_reduce
I0403 15:07:32.041777 31160 net.cpp:399] inception_4c/3x3 -> inception_4c/3x3
I0403 15:07:32.045403 31160 net.cpp:141] Setting up inception_4c/3x3
I0403 15:07:32.045446 31160 net.cpp:148] Top shape: 24 256 14 14 (1204224)
I0403 15:07:32.045464 31160 net.cpp:156] Memory required for data: 1042842912
I0403 15:07:32.045497 31160 layer_factory.hpp:77] Creating layer inception_4c/relu_3x3
I0403 15:07:32.045518 31160 net.cpp:91] Creating Layer inception_4c/relu_3x3
I0403 15:07:32.045536 31160 net.cpp:425] inception_4c/relu_3x3 <- inception_4c/3x3
I0403 15:07:32.045555 31160 net.cpp:386] inception_4c/relu_3x3 -> inception_4c/3x3 (in-place)
I0403 15:07:32.045740 31160 net.cpp:141] Setting up inception_4c/relu_3x3
I0403 15:07:32.045768 31160 net.cpp:148] Top shape: 24 256 14 14 (1204224)
I0403 15:07:32.045783 31160 net.cpp:156] Memory required for data: 1047659808
I0403 15:07:32.045797 31160 layer_factory.hpp:77] Creating layer inception_4c/5x5_reduce
I0403 15:07:32.045822 31160 net.cpp:91] Creating Layer inception_4c/5x5_reduce
I0403 15:07:32.045847 31160 net.cpp:425] inception_4c/5x5_reduce <- inception_4b/output_inception_4b/output_0_split_2
I0403 15:07:32.045869 31160 net.cpp:399] inception_4c/5x5_reduce -> inception_4c/5x5_reduce
I0403 15:07:32.046990 31160 net.cpp:141] Setting up inception_4c/5x5_reduce
I0403 15:07:32.047021 31160 net.cpp:148] Top shape: 24 24 14 14 (112896)
I0403 15:07:32.047039 31160 net.cpp:156] Memory required for data: 1048111392
I0403 15:07:32.047060 31160 layer_factory.hpp:77] Creating layer inception_4c/relu_5x5_reduce
I0403 15:07:32.047080 31160 net.cpp:91] Creating Layer inception_4c/relu_5x5_reduce
I0403 15:07:32.047094 31160 net.cpp:425] inception_4c/relu_5x5_reduce <- inception_4c/5x5_reduce
I0403 15:07:32.047113 31160 net.cpp:386] inception_4c/relu_5x5_reduce -> inception_4c/5x5_reduce (in-place)
I0403 15:07:32.047299 31160 net.cpp:141] Setting up inception_4c/relu_5x5_reduce
I0403 15:07:32.047329 31160 net.cpp:148] Top shape: 24 24 14 14 (112896)
I0403 15:07:32.047344 31160 net.cpp:156] Memory required for data: 1048562976
I0403 15:07:32.047359 31160 layer_factory.hpp:77] Creating layer inception_4c/5x5
I0403 15:07:32.047384 31160 net.cpp:91] Creating Layer inception_4c/5x5
I0403 15:07:32.047401 31160 net.cpp:425] inception_4c/5x5 <- inception_4c/5x5_reduce
I0403 15:07:32.047422 31160 net.cpp:399] inception_4c/5x5 -> inception_4c/5x5
I0403 15:07:32.048636 31160 net.cpp:141] Setting up inception_4c/5x5
I0403 15:07:32.048666 31160 net.cpp:148] Top shape: 24 64 14 14 (301056)
I0403 15:07:32.048681 31160 net.cpp:156] Memory required for data: 1049767200
I0403 15:07:32.048699 31160 layer_factory.hpp:77] Creating layer inception_4c/relu_5x5
I0403 15:07:32.048719 31160 net.cpp:91] Creating Layer inception_4c/relu_5x5
I0403 15:07:32.048740 31160 net.cpp:425] inception_4c/relu_5x5 <- inception_4c/5x5
I0403 15:07:32.048758 31160 net.cpp:386] inception_4c/relu_5x5 -> inception_4c/5x5 (in-place)
I0403 15:07:32.049103 31160 net.cpp:141] Setting up inception_4c/relu_5x5
I0403 15:07:32.049130 31160 net.cpp:148] Top shape: 24 64 14 14 (301056)
I0403 15:07:32.049145 31160 net.cpp:156] Memory required for data: 1050971424
I0403 15:07:32.049161 31160 layer_factory.hpp:77] Creating layer inception_4c/pool
I0403 15:07:32.049180 31160 net.cpp:91] Creating Layer inception_4c/pool
I0403 15:07:32.049196 31160 net.cpp:425] inception_4c/pool <- inception_4b/output_inception_4b/output_0_split_3
I0403 15:07:32.049216 31160 net.cpp:399] inception_4c/pool -> inception_4c/pool
I0403 15:07:32.049285 31160 net.cpp:141] Setting up inception_4c/pool
I0403 15:07:32.049315 31160 net.cpp:148] Top shape: 24 512 14 14 (2408448)
I0403 15:07:32.049330 31160 net.cpp:156] Memory required for data: 1060605216
I0403 15:07:32.049345 31160 layer_factory.hpp:77] Creating layer inception_4c/pool_proj
I0403 15:07:32.049367 31160 net.cpp:91] Creating Layer inception_4c/pool_proj
I0403 15:07:32.049384 31160 net.cpp:425] inception_4c/pool_proj <- inception_4c/pool
I0403 15:07:32.049406 31160 net.cpp:399] inception_4c/pool_proj -> inception_4c/pool_proj
I0403 15:07:32.050601 31160 net.cpp:141] Setting up inception_4c/pool_proj
I0403 15:07:32.050634 31160 net.cpp:148] Top shape: 24 64 14 14 (301056)
I0403 15:07:32.050668 31160 net.cpp:156] Memory required for data: 1061809440
I0403 15:07:32.050690 31160 layer_factory.hpp:77] Creating layer inception_4c/relu_pool_proj
I0403 15:07:32.050712 31160 net.cpp:91] Creating Layer inception_4c/relu_pool_proj
I0403 15:07:32.050735 31160 net.cpp:425] inception_4c/relu_pool_proj <- inception_4c/pool_proj
I0403 15:07:32.050757 31160 net.cpp:386] inception_4c/relu_pool_proj -> inception_4c/pool_proj (in-place)
I0403 15:07:32.050940 31160 net.cpp:141] Setting up inception_4c/relu_pool_proj
I0403 15:07:32.050966 31160 net.cpp:148] Top shape: 24 64 14 14 (301056)
I0403 15:07:32.050981 31160 net.cpp:156] Memory required for data: 1063013664
I0403 15:07:32.050995 31160 layer_factory.hpp:77] Creating layer inception_4c/output
I0403 15:07:32.051012 31160 net.cpp:91] Creating Layer inception_4c/output
I0403 15:07:32.051028 31160 net.cpp:425] inception_4c/output <- inception_4c/1x1
I0403 15:07:32.051045 31160 net.cpp:425] inception_4c/output <- inception_4c/3x3
I0403 15:07:32.051061 31160 net.cpp:425] inception_4c/output <- inception_4c/5x5
I0403 15:07:32.051077 31160 net.cpp:425] inception_4c/output <- inception_4c/pool_proj
I0403 15:07:32.051098 31160 net.cpp:399] inception_4c/output -> inception_4c/output
I0403 15:07:32.051147 31160 net.cpp:141] Setting up inception_4c/output
I0403 15:07:32.051170 31160 net.cpp:148] Top shape: 24 512 14 14 (2408448)
I0403 15:07:32.051185 31160 net.cpp:156] Memory required for data: 1072647456
I0403 15:07:32.051200 31160 layer_factory.hpp:77] Creating layer inception_4c/output_inception_4c/output_0_split
I0403 15:07:32.051218 31160 net.cpp:91] Creating Layer inception_4c/output_inception_4c/output_0_split
I0403 15:07:32.051232 31160 net.cpp:425] inception_4c/output_inception_4c/output_0_split <- inception_4c/output
I0403 15:07:32.051255 31160 net.cpp:399] inception_4c/output_inception_4c/output_0_split -> inception_4c/output_inception_4c/output_0_split_0
I0403 15:07:32.051290 31160 net.cpp:399] inception_4c/output_inception_4c/output_0_split -> inception_4c/output_inception_4c/output_0_split_1
I0403 15:07:32.051311 31160 net.cpp:399] inception_4c/output_inception_4c/output_0_split -> inception_4c/output_inception_4c/output_0_split_2
I0403 15:07:32.051331 31160 net.cpp:399] inception_4c/output_inception_4c/output_0_split -> inception_4c/output_inception_4c/output_0_split_3
I0403 15:07:32.051415 31160 net.cpp:141] Setting up inception_4c/output_inception_4c/output_0_split
I0403 15:07:32.051440 31160 net.cpp:148] Top shape: 24 512 14 14 (2408448)
I0403 15:07:32.051455 31160 net.cpp:148] Top shape: 24 512 14 14 (2408448)
I0403 15:07:32.051470 31160 net.cpp:148] Top shape: 24 512 14 14 (2408448)
I0403 15:07:32.051486 31160 net.cpp:148] Top shape: 24 512 14 14 (2408448)
I0403 15:07:32.051501 31160 net.cpp:156] Memory required for data: 1111182624
I0403 15:07:32.051515 31160 layer_factory.hpp:77] Creating layer inception_4d/1x1
I0403 15:07:32.051538 31160 net.cpp:91] Creating Layer inception_4d/1x1
I0403 15:07:32.051565 31160 net.cpp:425] inception_4d/1x1 <- inception_4c/output_inception_4c/output_0_split_0
I0403 15:07:32.051585 31160 net.cpp:399] inception_4d/1x1 -> inception_4d/1x1
I0403 15:07:32.052939 31160 net.cpp:141] Setting up inception_4d/1x1
I0403 15:07:32.052968 31160 net.cpp:148] Top shape: 24 112 14 14 (526848)
I0403 15:07:32.052983 31160 net.cpp:156] Memory required for data: 1113290016
I0403 15:07:32.053001 31160 layer_factory.hpp:77] Creating layer inception_4d/relu_1x1
I0403 15:07:32.053022 31160 net.cpp:91] Creating Layer inception_4d/relu_1x1
I0403 15:07:32.053040 31160 net.cpp:425] inception_4d/relu_1x1 <- inception_4d/1x1
I0403 15:07:32.053056 31160 net.cpp:386] inception_4d/relu_1x1 -> inception_4d/1x1 (in-place)
I0403 15:07:32.053239 31160 net.cpp:141] Setting up inception_4d/relu_1x1
I0403 15:07:32.053269 31160 net.cpp:148] Top shape: 24 112 14 14 (526848)
I0403 15:07:32.053284 31160 net.cpp:156] Memory required for data: 1115397408
I0403 15:07:32.053299 31160 layer_factory.hpp:77] Creating layer inception_4d/3x3_reduce
I0403 15:07:32.053334 31160 net.cpp:91] Creating Layer inception_4d/3x3_reduce
I0403 15:07:32.053354 31160 net.cpp:425] inception_4d/3x3_reduce <- inception_4c/output_inception_4c/output_0_split_1
I0403 15:07:32.053376 31160 net.cpp:399] inception_4d/3x3_reduce -> inception_4d/3x3_reduce
I0403 15:07:32.054859 31160 net.cpp:141] Setting up inception_4d/3x3_reduce
I0403 15:07:32.054888 31160 net.cpp:148] Top shape: 24 144 14 14 (677376)
I0403 15:07:32.054903 31160 net.cpp:156] Memory required for data: 1118106912
I0403 15:07:32.054921 31160 layer_factory.hpp:77] Creating layer inception_4d/relu_3x3_reduce
I0403 15:07:32.054942 31160 net.cpp:91] Creating Layer inception_4d/relu_3x3_reduce
I0403 15:07:32.054960 31160 net.cpp:425] inception_4d/relu_3x3_reduce <- inception_4d/3x3_reduce
I0403 15:07:32.054978 31160 net.cpp:386] inception_4d/relu_3x3_reduce -> inception_4d/3x3_reduce (in-place)
I0403 15:07:32.055268 31160 net.cpp:141] Setting up inception_4d/relu_3x3_reduce
I0403 15:07:32.055299 31160 net.cpp:148] Top shape: 24 144 14 14 (677376)
I0403 15:07:32.055317 31160 net.cpp:156] Memory required for data: 1120816416
I0403 15:07:32.055337 31160 layer_factory.hpp:77] Creating layer inception_4d/3x3
I0403 15:07:32.055362 31160 net.cpp:91] Creating Layer inception_4d/3x3
I0403 15:07:32.055388 31160 net.cpp:425] inception_4d/3x3 <- inception_4d/3x3_reduce
I0403 15:07:32.055413 31160 net.cpp:399] inception_4d/3x3 -> inception_4d/3x3
I0403 15:07:32.059759 31160 net.cpp:141] Setting up inception_4d/3x3
I0403 15:07:32.059792 31160 net.cpp:148] Top shape: 24 288 14 14 (1354752)
I0403 15:07:32.059818 31160 net.cpp:156] Memory required for data: 1126235424
I0403 15:07:32.059837 31160 layer_factory.hpp:77] Creating layer inception_4d/relu_3x3
I0403 15:07:32.059856 31160 net.cpp:91] Creating Layer inception_4d/relu_3x3
I0403 15:07:32.059873 31160 net.cpp:425] inception_4d/relu_3x3 <- inception_4d/3x3
I0403 15:07:32.059891 31160 net.cpp:386] inception_4d/relu_3x3 -> inception_4d/3x3 (in-place)
I0403 15:07:32.060078 31160 net.cpp:141] Setting up inception_4d/relu_3x3
I0403 15:07:32.060104 31160 net.cpp:148] Top shape: 24 288 14 14 (1354752)
I0403 15:07:32.060119 31160 net.cpp:156] Memory required for data: 1131654432
I0403 15:07:32.060134 31160 layer_factory.hpp:77] Creating layer inception_4d/5x5_reduce
I0403 15:07:32.060156 31160 net.cpp:91] Creating Layer inception_4d/5x5_reduce
I0403 15:07:32.060175 31160 net.cpp:425] inception_4d/5x5_reduce <- inception_4c/output_inception_4c/output_0_split_2
I0403 15:07:32.060199 31160 net.cpp:399] inception_4d/5x5_reduce -> inception_4d/5x5_reduce
I0403 15:07:32.061355 31160 net.cpp:141] Setting up inception_4d/5x5_reduce
I0403 15:07:32.061383 31160 net.cpp:148] Top shape: 24 32 14 14 (150528)
I0403 15:07:32.061399 31160 net.cpp:156] Memory required for data: 1132256544
I0403 15:07:32.061419 31160 layer_factory.hpp:77] Creating layer inception_4d/relu_5x5_reduce
I0403 15:07:32.061440 31160 net.cpp:91] Creating Layer inception_4d/relu_5x5_reduce
I0403 15:07:32.061458 31160 net.cpp:425] inception_4d/relu_5x5_reduce <- inception_4d/5x5_reduce
I0403 15:07:32.061477 31160 net.cpp:386] inception_4d/relu_5x5_reduce -> inception_4d/5x5_reduce (in-place)
I0403 15:07:32.061666 31160 net.cpp:141] Setting up inception_4d/relu_5x5_reduce
I0403 15:07:32.061692 31160 net.cpp:148] Top shape: 24 32 14 14 (150528)
I0403 15:07:32.061707 31160 net.cpp:156] Memory required for data: 1132858656
I0403 15:07:32.061723 31160 layer_factory.hpp:77] Creating layer inception_4d/5x5
I0403 15:07:32.061746 31160 net.cpp:91] Creating Layer inception_4d/5x5
I0403 15:07:32.061764 31160 net.cpp:425] inception_4d/5x5 <- inception_4d/5x5_reduce
I0403 15:07:32.061785 31160 net.cpp:399] inception_4d/5x5 -> inception_4d/5x5
I0403 15:07:32.063267 31160 net.cpp:141] Setting up inception_4d/5x5
I0403 15:07:32.063297 31160 net.cpp:148] Top shape: 24 64 14 14 (301056)
I0403 15:07:32.063313 31160 net.cpp:156] Memory required for data: 1134062880
I0403 15:07:32.063333 31160 layer_factory.hpp:77] Creating layer inception_4d/relu_5x5
I0403 15:07:32.063366 31160 net.cpp:91] Creating Layer inception_4d/relu_5x5
I0403 15:07:32.063385 31160 net.cpp:425] inception_4d/relu_5x5 <- inception_4d/5x5
I0403 15:07:32.063405 31160 net.cpp:386] inception_4d/relu_5x5 -> inception_4d/5x5 (in-place)
I0403 15:07:32.063709 31160 net.cpp:141] Setting up inception_4d/relu_5x5
I0403 15:07:32.063737 31160 net.cpp:148] Top shape: 24 64 14 14 (301056)
I0403 15:07:32.063755 31160 net.cpp:156] Memory required for data: 1135267104
I0403 15:07:32.063771 31160 layer_factory.hpp:77] Creating layer inception_4d/pool
I0403 15:07:32.063788 31160 net.cpp:91] Creating Layer inception_4d/pool
I0403 15:07:32.063807 31160 net.cpp:425] inception_4d/pool <- inception_4c/output_inception_4c/output_0_split_3
I0403 15:07:32.063827 31160 net.cpp:399] inception_4d/pool -> inception_4d/pool
I0403 15:07:32.063894 31160 net.cpp:141] Setting up inception_4d/pool
I0403 15:07:32.063920 31160 net.cpp:148] Top shape: 24 512 14 14 (2408448)
I0403 15:07:32.063935 31160 net.cpp:156] Memory required for data: 1144900896
I0403 15:07:32.063951 31160 layer_factory.hpp:77] Creating layer inception_4d/pool_proj
I0403 15:07:32.063974 31160 net.cpp:91] Creating Layer inception_4d/pool_proj
I0403 15:07:32.063994 31160 net.cpp:425] inception_4d/pool_proj <- inception_4d/pool
I0403 15:07:32.064013 31160 net.cpp:399] inception_4d/pool_proj -> inception_4d/pool_proj
I0403 15:07:32.065835 31160 net.cpp:141] Setting up inception_4d/pool_proj
I0403 15:07:32.065868 31160 net.cpp:148] Top shape: 24 64 14 14 (301056)
I0403 15:07:32.065886 31160 net.cpp:156] Memory required for data: 1146105120
I0403 15:07:32.065906 31160 layer_factory.hpp:77] Creating layer inception_4d/relu_pool_proj
I0403 15:07:32.065924 31160 net.cpp:91] Creating Layer inception_4d/relu_pool_proj
I0403 15:07:32.065943 31160 net.cpp:425] inception_4d/relu_pool_proj <- inception_4d/pool_proj
I0403 15:07:32.065960 31160 net.cpp:386] inception_4d/relu_pool_proj -> inception_4d/pool_proj (in-place)
I0403 15:07:32.066157 31160 net.cpp:141] Setting up inception_4d/relu_pool_proj
I0403 15:07:32.066184 31160 net.cpp:148] Top shape: 24 64 14 14 (301056)
I0403 15:07:32.066200 31160 net.cpp:156] Memory required for data: 1147309344
I0403 15:07:32.066215 31160 layer_factory.hpp:77] Creating layer inception_4d/output
I0403 15:07:32.066233 31160 net.cpp:91] Creating Layer inception_4d/output
I0403 15:07:32.066251 31160 net.cpp:425] inception_4d/output <- inception_4d/1x1
I0403 15:07:32.066285 31160 net.cpp:425] inception_4d/output <- inception_4d/3x3
I0403 15:07:32.066303 31160 net.cpp:425] inception_4d/output <- inception_4d/5x5
I0403 15:07:32.066318 31160 net.cpp:425] inception_4d/output <- inception_4d/pool_proj
I0403 15:07:32.066341 31160 net.cpp:399] inception_4d/output -> inception_4d/output
I0403 15:07:32.066404 31160 net.cpp:141] Setting up inception_4d/output
I0403 15:07:32.066431 31160 net.cpp:148] Top shape: 24 528 14 14 (2483712)
I0403 15:07:32.066448 31160 net.cpp:156] Memory required for data: 1157244192
I0403 15:07:32.066468 31160 layer_factory.hpp:77] Creating layer inception_4d/output_inception_4d/output_0_split
I0403 15:07:32.066493 31160 net.cpp:91] Creating Layer inception_4d/output_inception_4d/output_0_split
I0403 15:07:32.066511 31160 net.cpp:425] inception_4d/output_inception_4d/output_0_split <- inception_4d/output
I0403 15:07:32.066534 31160 net.cpp:399] inception_4d/output_inception_4d/output_0_split -> inception_4d/output_inception_4d/output_0_split_0
I0403 15:07:32.066565 31160 net.cpp:399] inception_4d/output_inception_4d/output_0_split -> inception_4d/output_inception_4d/output_0_split_1
I0403 15:07:32.066587 31160 net.cpp:399] inception_4d/output_inception_4d/output_0_split -> inception_4d/output_inception_4d/output_0_split_2
I0403 15:07:32.066609 31160 net.cpp:399] inception_4d/output_inception_4d/output_0_split -> inception_4d/output_inception_4d/output_0_split_3
I0403 15:07:32.066630 31160 net.cpp:399] inception_4d/output_inception_4d/output_0_split -> inception_4d/output_inception_4d/output_0_split_4
I0403 15:07:32.066742 31160 net.cpp:141] Setting up inception_4d/output_inception_4d/output_0_split
I0403 15:07:32.066784 31160 net.cpp:148] Top shape: 24 528 14 14 (2483712)
I0403 15:07:32.066805 31160 net.cpp:148] Top shape: 24 528 14 14 (2483712)
I0403 15:07:32.066823 31160 net.cpp:148] Top shape: 24 528 14 14 (2483712)
I0403 15:07:32.066843 31160 net.cpp:148] Top shape: 24 528 14 14 (2483712)
I0403 15:07:32.066862 31160 net.cpp:148] Top shape: 24 528 14 14 (2483712)
I0403 15:07:32.066887 31160 net.cpp:156] Memory required for data: 1206918432
I0403 15:07:32.066910 31160 layer_factory.hpp:77] Creating layer loss2/ave_pool
I0403 15:07:32.066938 31160 net.cpp:91] Creating Layer loss2/ave_pool
I0403 15:07:32.066969 31160 net.cpp:425] loss2/ave_pool <- inception_4d/output_inception_4d/output_0_split_0
I0403 15:07:32.066990 31160 net.cpp:399] loss2/ave_pool -> loss2/ave_pool
I0403 15:07:32.067354 31160 net.cpp:141] Setting up loss2/ave_pool
I0403 15:07:32.067389 31160 net.cpp:148] Top shape: 24 528 4 4 (202752)
I0403 15:07:32.067409 31160 net.cpp:156] Memory required for data: 1207729440
I0403 15:07:32.067425 31160 layer_factory.hpp:77] Creating layer loss2/conv
I0403 15:07:32.067450 31160 net.cpp:91] Creating Layer loss2/conv
I0403 15:07:32.067469 31160 net.cpp:425] loss2/conv <- loss2/ave_pool
I0403 15:07:32.067492 31160 net.cpp:399] loss2/conv -> loss2/conv
I0403 15:07:32.069506 31160 net.cpp:141] Setting up loss2/conv
I0403 15:07:32.069537 31160 net.cpp:148] Top shape: 24 128 4 4 (49152)
I0403 15:07:32.069553 31160 net.cpp:156] Memory required for data: 1207926048
I0403 15:07:32.069574 31160 layer_factory.hpp:77] Creating layer loss2/relu_conv
I0403 15:07:32.069597 31160 net.cpp:91] Creating Layer loss2/relu_conv
I0403 15:07:32.069615 31160 net.cpp:425] loss2/relu_conv <- loss2/conv
I0403 15:07:32.069633 31160 net.cpp:386] loss2/relu_conv -> loss2/conv (in-place)
I0403 15:07:32.069936 31160 net.cpp:141] Setting up loss2/relu_conv
I0403 15:07:32.069963 31160 net.cpp:148] Top shape: 24 128 4 4 (49152)
I0403 15:07:32.069979 31160 net.cpp:156] Memory required for data: 1208122656
I0403 15:07:32.069995 31160 layer_factory.hpp:77] Creating layer loss2/fc
I0403 15:07:32.070020 31160 net.cpp:91] Creating Layer loss2/fc
I0403 15:07:32.070039 31160 net.cpp:425] loss2/fc <- loss2/conv
I0403 15:07:32.070058 31160 net.cpp:399] loss2/fc -> loss2/fc
I0403 15:07:32.088291 31160 net.cpp:141] Setting up loss2/fc
I0403 15:07:32.088346 31160 net.cpp:148] Top shape: 24 1024 (24576)
I0403 15:07:32.088363 31160 net.cpp:156] Memory required for data: 1208220960
I0403 15:07:32.088384 31160 layer_factory.hpp:77] Creating layer loss2/relu_fc
I0403 15:07:32.088405 31160 net.cpp:91] Creating Layer loss2/relu_fc
I0403 15:07:32.088423 31160 net.cpp:425] loss2/relu_fc <- loss2/fc
I0403 15:07:32.088449 31160 net.cpp:386] loss2/relu_fc -> loss2/fc (in-place)
I0403 15:07:32.088816 31160 net.cpp:141] Setting up loss2/relu_fc
I0403 15:07:32.088846 31160 net.cpp:148] Top shape: 24 1024 (24576)
I0403 15:07:32.088862 31160 net.cpp:156] Memory required for data: 1208319264
I0403 15:07:32.088878 31160 layer_factory.hpp:77] Creating layer loss2/drop_fc
I0403 15:07:32.088898 31160 net.cpp:91] Creating Layer loss2/drop_fc
I0403 15:07:32.088914 31160 net.cpp:425] loss2/drop_fc <- loss2/fc
I0403 15:07:32.088934 31160 net.cpp:386] loss2/drop_fc -> loss2/fc (in-place)
I0403 15:07:32.088986 31160 net.cpp:141] Setting up loss2/drop_fc
I0403 15:07:32.089011 31160 net.cpp:148] Top shape: 24 1024 (24576)
I0403 15:07:32.089025 31160 net.cpp:156] Memory required for data: 1208417568
I0403 15:07:32.089041 31160 layer_factory.hpp:77] Creating layer loss2/classifier_plantvillage
I0403 15:07:32.089064 31160 net.cpp:91] Creating Layer loss2/classifier_plantvillage
I0403 15:07:32.089083 31160 net.cpp:425] loss2/classifier_plantvillage <- loss2/fc
I0403 15:07:32.089103 31160 net.cpp:399] loss2/classifier_plantvillage -> loss2/classifier_plantvillage
I0403 15:07:32.089519 31160 net.cpp:141] Setting up loss2/classifier_plantvillage
I0403 15:07:32.089546 31160 net.cpp:148] Top shape: 24 38 (912)
I0403 15:07:32.089561 31160 net.cpp:156] Memory required for data: 1208421216
I0403 15:07:32.089607 31160 layer_factory.hpp:77] Creating layer loss2/classifier_plantvillage_loss2/classifier_plantvillage_0_split
I0403 15:07:32.089630 31160 net.cpp:91] Creating Layer loss2/classifier_plantvillage_loss2/classifier_plantvillage_0_split
I0403 15:07:32.089649 31160 net.cpp:425] loss2/classifier_plantvillage_loss2/classifier_plantvillage_0_split <- loss2/classifier_plantvillage
I0403 15:07:32.089668 31160 net.cpp:399] loss2/classifier_plantvillage_loss2/classifier_plantvillage_0_split -> loss2/classifier_plantvillage_loss2/classifier_plantvillage_0_split_0
I0403 15:07:32.089689 31160 net.cpp:399] loss2/classifier_plantvillage_loss2/classifier_plantvillage_0_split -> loss2/classifier_plantvillage_loss2/classifier_plantvillage_0_split_1
I0403 15:07:32.089710 31160 net.cpp:399] loss2/classifier_plantvillage_loss2/classifier_plantvillage_0_split -> loss2/classifier_plantvillage_loss2/classifier_plantvillage_0_split_2
I0403 15:07:32.089793 31160 net.cpp:141] Setting up loss2/classifier_plantvillage_loss2/classifier_plantvillage_0_split
I0403 15:07:32.089818 31160 net.cpp:148] Top shape: 24 38 (912)
I0403 15:07:32.089835 31160 net.cpp:148] Top shape: 24 38 (912)
I0403 15:07:32.089850 31160 net.cpp:148] Top shape: 24 38 (912)
I0403 15:07:32.089865 31160 net.cpp:156] Memory required for data: 1208432160
I0403 15:07:32.089879 31160 layer_factory.hpp:77] Creating layer inception_4e/1x1
I0403 15:07:32.089901 31160 net.cpp:91] Creating Layer inception_4e/1x1
I0403 15:07:32.089920 31160 net.cpp:425] inception_4e/1x1 <- inception_4d/output_inception_4d/output_0_split_1
I0403 15:07:32.089943 31160 net.cpp:399] inception_4e/1x1 -> inception_4e/1x1
I0403 15:07:32.091830 31160 net.cpp:141] Setting up inception_4e/1x1
I0403 15:07:32.091858 31160 net.cpp:148] Top shape: 24 256 14 14 (1204224)
I0403 15:07:32.091876 31160 net.cpp:156] Memory required for data: 1213249056
I0403 15:07:32.091897 31160 layer_factory.hpp:77] Creating layer inception_4e/relu_1x1
I0403 15:07:32.091917 31160 net.cpp:91] Creating Layer inception_4e/relu_1x1
I0403 15:07:32.091934 31160 net.cpp:425] inception_4e/relu_1x1 <- inception_4e/1x1
I0403 15:07:32.091953 31160 net.cpp:386] inception_4e/relu_1x1 -> inception_4e/1x1 (in-place)
I0403 15:07:32.092274 31160 net.cpp:141] Setting up inception_4e/relu_1x1
I0403 15:07:32.092315 31160 net.cpp:148] Top shape: 24 256 14 14 (1204224)
I0403 15:07:32.092335 31160 net.cpp:156] Memory required for data: 1218065952
I0403 15:07:32.092363 31160 layer_factory.hpp:77] Creating layer inception_4e/3x3_reduce
I0403 15:07:32.092388 31160 net.cpp:91] Creating Layer inception_4e/3x3_reduce
I0403 15:07:32.092414 31160 net.cpp:425] inception_4e/3x3_reduce <- inception_4d/output_inception_4d/output_0_split_2
I0403 15:07:32.092458 31160 net.cpp:399] inception_4e/3x3_reduce -> inception_4e/3x3_reduce
I0403 15:07:32.094755 31160 net.cpp:141] Setting up inception_4e/3x3_reduce
I0403 15:07:32.094785 31160 net.cpp:148] Top shape: 24 160 14 14 (752640)
I0403 15:07:32.094801 31160 net.cpp:156] Memory required for data: 1221076512
I0403 15:07:32.094822 31160 layer_factory.hpp:77] Creating layer inception_4e/relu_3x3_reduce
I0403 15:07:32.094841 31160 net.cpp:91] Creating Layer inception_4e/relu_3x3_reduce
I0403 15:07:32.094866 31160 net.cpp:425] inception_4e/relu_3x3_reduce <- inception_4e/3x3_reduce
I0403 15:07:32.094889 31160 net.cpp:386] inception_4e/relu_3x3_reduce -> inception_4e/3x3_reduce (in-place)
I0403 15:07:32.095088 31160 net.cpp:141] Setting up inception_4e/relu_3x3_reduce
I0403 15:07:32.095114 31160 net.cpp:148] Top shape: 24 160 14 14 (752640)
I0403 15:07:32.095129 31160 net.cpp:156] Memory required for data: 1224087072
I0403 15:07:32.095145 31160 layer_factory.hpp:77] Creating layer inception_4e/3x3
I0403 15:07:32.095168 31160 net.cpp:91] Creating Layer inception_4e/3x3
I0403 15:07:32.095192 31160 net.cpp:425] inception_4e/3x3 <- inception_4e/3x3_reduce
I0403 15:07:32.095223 31160 net.cpp:399] inception_4e/3x3 -> inception_4e/3x3
I0403 15:07:32.100793 31160 net.cpp:141] Setting up inception_4e/3x3
I0403 15:07:32.100841 31160 net.cpp:148] Top shape: 24 320 14 14 (1505280)
I0403 15:07:32.100863 31160 net.cpp:156] Memory required for data: 1230108192
I0403 15:07:32.100883 31160 layer_factory.hpp:77] Creating layer inception_4e/relu_3x3
I0403 15:07:32.100909 31160 net.cpp:91] Creating Layer inception_4e/relu_3x3
I0403 15:07:32.100931 31160 net.cpp:425] inception_4e/relu_3x3 <- inception_4e/3x3
I0403 15:07:32.100953 31160 net.cpp:386] inception_4e/relu_3x3 -> inception_4e/3x3 (in-place)
I0403 15:07:32.101276 31160 net.cpp:141] Setting up inception_4e/relu_3x3
I0403 15:07:32.101312 31160 net.cpp:148] Top shape: 24 320 14 14 (1505280)
I0403 15:07:32.101335 31160 net.cpp:156] Memory required for data: 1236129312
I0403 15:07:32.101351 31160 layer_factory.hpp:77] Creating layer inception_4e/5x5_reduce
I0403 15:07:32.101384 31160 net.cpp:91] Creating Layer inception_4e/5x5_reduce
I0403 15:07:32.101405 31160 net.cpp:425] inception_4e/5x5_reduce <- inception_4d/output_inception_4d/output_0_split_3
I0403 15:07:32.101429 31160 net.cpp:399] inception_4e/5x5_reduce -> inception_4e/5x5_reduce
I0403 15:07:32.102584 31160 net.cpp:141] Setting up inception_4e/5x5_reduce
I0403 15:07:32.102620 31160 net.cpp:148] Top shape: 24 32 14 14 (150528)
I0403 15:07:32.102643 31160 net.cpp:156] Memory required for data: 1236731424
I0403 15:07:32.102663 31160 layer_factory.hpp:77] Creating layer inception_4e/relu_5x5_reduce
I0403 15:07:32.102684 31160 net.cpp:91] Creating Layer inception_4e/relu_5x5_reduce
I0403 15:07:32.102701 31160 net.cpp:425] inception_4e/relu_5x5_reduce <- inception_4e/5x5_reduce
I0403 15:07:32.102722 31160 net.cpp:386] inception_4e/relu_5x5_reduce -> inception_4e/5x5_reduce (in-place)
I0403 15:07:32.103041 31160 net.cpp:141] Setting up inception_4e/relu_5x5_reduce
I0403 15:07:32.103070 31160 net.cpp:148] Top shape: 24 32 14 14 (150528)
I0403 15:07:32.103091 31160 net.cpp:156] Memory required for data: 1237333536
I0403 15:07:32.103107 31160 layer_factory.hpp:77] Creating layer inception_4e/5x5
I0403 15:07:32.103148 31160 net.cpp:91] Creating Layer inception_4e/5x5
I0403 15:07:32.103170 31160 net.cpp:425] inception_4e/5x5 <- inception_4e/5x5_reduce
I0403 15:07:32.103193 31160 net.cpp:399] inception_4e/5x5 -> inception_4e/5x5
I0403 15:07:32.105207 31160 net.cpp:141] Setting up inception_4e/5x5
I0403 15:07:32.105242 31160 net.cpp:148] Top shape: 24 128 14 14 (602112)
I0403 15:07:32.105265 31160 net.cpp:156] Memory required for data: 1239741984
I0403 15:07:32.105288 31160 layer_factory.hpp:77] Creating layer inception_4e/relu_5x5
I0403 15:07:32.105307 31160 net.cpp:91] Creating Layer inception_4e/relu_5x5
I0403 15:07:32.105325 31160 net.cpp:425] inception_4e/relu_5x5 <- inception_4e/5x5
I0403 15:07:32.105347 31160 net.cpp:386] inception_4e/relu_5x5 -> inception_4e/5x5 (in-place)
I0403 15:07:32.105566 31160 net.cpp:141] Setting up inception_4e/relu_5x5
I0403 15:07:32.105594 31160 net.cpp:148] Top shape: 24 128 14 14 (602112)
I0403 15:07:32.105612 31160 net.cpp:156] Memory required for data: 1242150432
I0403 15:07:32.105628 31160 layer_factory.hpp:77] Creating layer inception_4e/pool
I0403 15:07:32.105648 31160 net.cpp:91] Creating Layer inception_4e/pool
I0403 15:07:32.105670 31160 net.cpp:425] inception_4e/pool <- inception_4d/output_inception_4d/output_0_split_4
I0403 15:07:32.105690 31160 net.cpp:399] inception_4e/pool -> inception_4e/pool
I0403 15:07:32.105772 31160 net.cpp:141] Setting up inception_4e/pool
I0403 15:07:32.105798 31160 net.cpp:148] Top shape: 24 528 14 14 (2483712)
I0403 15:07:32.105814 31160 net.cpp:156] Memory required for data: 1252085280
I0403 15:07:32.105830 31160 layer_factory.hpp:77] Creating layer inception_4e/pool_proj
I0403 15:07:32.105854 31160 net.cpp:91] Creating Layer inception_4e/pool_proj
I0403 15:07:32.105875 31160 net.cpp:425] inception_4e/pool_proj <- inception_4e/pool
I0403 15:07:32.105897 31160 net.cpp:399] inception_4e/pool_proj -> inception_4e/pool_proj
I0403 15:07:32.107524 31160 net.cpp:141] Setting up inception_4e/pool_proj
I0403 15:07:32.107558 31160 net.cpp:148] Top shape: 24 128 14 14 (602112)
I0403 15:07:32.107590 31160 net.cpp:156] Memory required for data: 1254493728
I0403 15:07:32.107611 31160 layer_factory.hpp:77] Creating layer inception_4e/relu_pool_proj
I0403 15:07:32.107631 31160 net.cpp:91] Creating Layer inception_4e/relu_pool_proj
I0403 15:07:32.107650 31160 net.cpp:425] inception_4e/relu_pool_proj <- inception_4e/pool_proj
I0403 15:07:32.107669 31160 net.cpp:386] inception_4e/relu_pool_proj -> inception_4e/pool_proj (in-place)
I0403 15:07:32.107983 31160 net.cpp:141] Setting up inception_4e/relu_pool_proj
I0403 15:07:32.108016 31160 net.cpp:148] Top shape: 24 128 14 14 (602112)
I0403 15:07:32.108033 31160 net.cpp:156] Memory required for data: 1256902176
I0403 15:07:32.108050 31160 layer_factory.hpp:77] Creating layer inception_4e/output
I0403 15:07:32.108069 31160 net.cpp:91] Creating Layer inception_4e/output
I0403 15:07:32.108086 31160 net.cpp:425] inception_4e/output <- inception_4e/1x1
I0403 15:07:32.108104 31160 net.cpp:425] inception_4e/output <- inception_4e/3x3
I0403 15:07:32.108122 31160 net.cpp:425] inception_4e/output <- inception_4e/5x5
I0403 15:07:32.108139 31160 net.cpp:425] inception_4e/output <- inception_4e/pool_proj
I0403 15:07:32.108157 31160 net.cpp:399] inception_4e/output -> inception_4e/output
I0403 15:07:32.108213 31160 net.cpp:141] Setting up inception_4e/output
I0403 15:07:32.108239 31160 net.cpp:148] Top shape: 24 832 14 14 (3913728)
I0403 15:07:32.108260 31160 net.cpp:156] Memory required for data: 1272557088
I0403 15:07:32.108278 31160 layer_factory.hpp:77] Creating layer pool4/3x3_s2
I0403 15:07:32.108300 31160 net.cpp:91] Creating Layer pool4/3x3_s2
I0403 15:07:32.108319 31160 net.cpp:425] pool4/3x3_s2 <- inception_4e/output
I0403 15:07:32.108340 31160 net.cpp:399] pool4/3x3_s2 -> pool4/3x3_s2
I0403 15:07:32.108414 31160 net.cpp:141] Setting up pool4/3x3_s2
I0403 15:07:32.108440 31160 net.cpp:148] Top shape: 24 832 7 7 (978432)
I0403 15:07:32.108458 31160 net.cpp:156] Memory required for data: 1276470816
I0403 15:07:32.108474 31160 layer_factory.hpp:77] Creating layer pool4/3x3_s2_pool4/3x3_s2_0_split
I0403 15:07:32.108491 31160 net.cpp:91] Creating Layer pool4/3x3_s2_pool4/3x3_s2_0_split
I0403 15:07:32.108510 31160 net.cpp:425] pool4/3x3_s2_pool4/3x3_s2_0_split <- pool4/3x3_s2
I0403 15:07:32.108530 31160 net.cpp:399] pool4/3x3_s2_pool4/3x3_s2_0_split -> pool4/3x3_s2_pool4/3x3_s2_0_split_0
I0403 15:07:32.108554 31160 net.cpp:399] pool4/3x3_s2_pool4/3x3_s2_0_split -> pool4/3x3_s2_pool4/3x3_s2_0_split_1
I0403 15:07:32.108579 31160 net.cpp:399] pool4/3x3_s2_pool4/3x3_s2_0_split -> pool4/3x3_s2_pool4/3x3_s2_0_split_2
I0403 15:07:32.108603 31160 net.cpp:399] pool4/3x3_s2_pool4/3x3_s2_0_split -> pool4/3x3_s2_pool4/3x3_s2_0_split_3
I0403 15:07:32.108702 31160 net.cpp:141] Setting up pool4/3x3_s2_pool4/3x3_s2_0_split
I0403 15:07:32.108731 31160 net.cpp:148] Top shape: 24 832 7 7 (978432)
I0403 15:07:32.108749 31160 net.cpp:148] Top shape: 24 832 7 7 (978432)
I0403 15:07:32.108767 31160 net.cpp:148] Top shape: 24 832 7 7 (978432)
I0403 15:07:32.108785 31160 net.cpp:148] Top shape: 24 832 7 7 (978432)
I0403 15:07:32.108799 31160 net.cpp:156] Memory required for data: 1292125728
I0403 15:07:32.108815 31160 layer_factory.hpp:77] Creating layer inception_5a/1x1
I0403 15:07:32.108839 31160 net.cpp:91] Creating Layer inception_5a/1x1
I0403 15:07:32.108858 31160 net.cpp:425] inception_5a/1x1 <- pool4/3x3_s2_pool4/3x3_s2_0_split_0
I0403 15:07:32.108880 31160 net.cpp:399] inception_5a/1x1 -> inception_5a/1x1
I0403 15:07:32.111979 31160 net.cpp:141] Setting up inception_5a/1x1
I0403 15:07:32.112013 31160 net.cpp:148] Top shape: 24 256 7 7 (301056)
I0403 15:07:32.112033 31160 net.cpp:156] Memory required for data: 1293329952
I0403 15:07:32.112053 31160 layer_factory.hpp:77] Creating layer inception_5a/relu_1x1
I0403 15:07:32.112073 31160 net.cpp:91] Creating Layer inception_5a/relu_1x1
I0403 15:07:32.112092 31160 net.cpp:425] inception_5a/relu_1x1 <- inception_5a/1x1
I0403 15:07:32.112113 31160 net.cpp:386] inception_5a/relu_1x1 -> inception_5a/1x1 (in-place)
I0403 15:07:32.112452 31160 net.cpp:141] Setting up inception_5a/relu_1x1
I0403 15:07:32.112483 31160 net.cpp:148] Top shape: 24 256 7 7 (301056)
I0403 15:07:32.112501 31160 net.cpp:156] Memory required for data: 1294534176
I0403 15:07:32.112530 31160 layer_factory.hpp:77] Creating layer inception_5a/3x3_reduce
I0403 15:07:32.112563 31160 net.cpp:91] Creating Layer inception_5a/3x3_reduce
I0403 15:07:32.112583 31160 net.cpp:425] inception_5a/3x3_reduce <- pool4/3x3_s2_pool4/3x3_s2_0_split_1
I0403 15:07:32.112607 31160 net.cpp:399] inception_5a/3x3_reduce -> inception_5a/3x3_reduce
I0403 15:07:32.115627 31160 net.cpp:141] Setting up inception_5a/3x3_reduce
I0403 15:07:32.115658 31160 net.cpp:148] Top shape: 24 160 7 7 (188160)
I0403 15:07:32.115677 31160 net.cpp:156] Memory required for data: 1295286816
I0403 15:07:32.115696 31160 layer_factory.hpp:77] Creating layer inception_5a/relu_3x3_reduce
I0403 15:07:32.115715 31160 net.cpp:91] Creating Layer inception_5a/relu_3x3_reduce
I0403 15:07:32.115733 31160 net.cpp:425] inception_5a/relu_3x3_reduce <- inception_5a/3x3_reduce
I0403 15:07:32.115753 31160 net.cpp:386] inception_5a/relu_3x3_reduce -> inception_5a/3x3_reduce (in-place)
I0403 15:07:32.115953 31160 net.cpp:141] Setting up inception_5a/relu_3x3_reduce
I0403 15:07:32.115983 31160 net.cpp:148] Top shape: 24 160 7 7 (188160)
I0403 15:07:32.115999 31160 net.cpp:156] Memory required for data: 1296039456
I0403 15:07:32.116015 31160 layer_factory.hpp:77] Creating layer inception_5a/3x3
I0403 15:07:32.116039 31160 net.cpp:91] Creating Layer inception_5a/3x3
I0403 15:07:32.116060 31160 net.cpp:425] inception_5a/3x3 <- inception_5a/3x3_reduce
I0403 15:07:32.116080 31160 net.cpp:399] inception_5a/3x3 -> inception_5a/3x3
I0403 15:07:32.121650 31160 net.cpp:141] Setting up inception_5a/3x3
I0403 15:07:32.121680 31160 net.cpp:148] Top shape: 24 320 7 7 (376320)
I0403 15:07:32.121697 31160 net.cpp:156] Memory required for data: 1297544736
I0403 15:07:32.121717 31160 layer_factory.hpp:77] Creating layer inception_5a/relu_3x3
I0403 15:07:32.121738 31160 net.cpp:91] Creating Layer inception_5a/relu_3x3
I0403 15:07:32.121757 31160 net.cpp:425] inception_5a/relu_3x3 <- inception_5a/3x3
I0403 15:07:32.121778 31160 net.cpp:386] inception_5a/relu_3x3 -> inception_5a/3x3 (in-place)
I0403 15:07:32.122090 31160 net.cpp:141] Setting up inception_5a/relu_3x3
I0403 15:07:32.122119 31160 net.cpp:148] Top shape: 24 320 7 7 (376320)
I0403 15:07:32.122134 31160 net.cpp:156] Memory required for data: 1299050016
I0403 15:07:32.122150 31160 layer_factory.hpp:77] Creating layer inception_5a/5x5_reduce
I0403 15:07:32.122174 31160 net.cpp:91] Creating Layer inception_5a/5x5_reduce
I0403 15:07:32.122195 31160 net.cpp:425] inception_5a/5x5_reduce <- pool4/3x3_s2_pool4/3x3_s2_0_split_2
I0403 15:07:32.122218 31160 net.cpp:399] inception_5a/5x5_reduce -> inception_5a/5x5_reduce
I0403 15:07:32.123456 31160 net.cpp:141] Setting up inception_5a/5x5_reduce
I0403 15:07:32.123488 31160 net.cpp:148] Top shape: 24 32 7 7 (37632)
I0403 15:07:32.123507 31160 net.cpp:156] Memory required for data: 1299200544
I0403 15:07:32.123525 31160 layer_factory.hpp:77] Creating layer inception_5a/relu_5x5_reduce
I0403 15:07:32.123548 31160 net.cpp:91] Creating Layer inception_5a/relu_5x5_reduce
I0403 15:07:32.123564 31160 net.cpp:425] inception_5a/relu_5x5_reduce <- inception_5a/5x5_reduce
I0403 15:07:32.123584 31160 net.cpp:386] inception_5a/relu_5x5_reduce -> inception_5a/5x5_reduce (in-place)
I0403 15:07:32.123895 31160 net.cpp:141] Setting up inception_5a/relu_5x5_reduce
I0403 15:07:32.123924 31160 net.cpp:148] Top shape: 24 32 7 7 (37632)
I0403 15:07:32.123939 31160 net.cpp:156] Memory required for data: 1299351072
I0403 15:07:32.123956 31160 layer_factory.hpp:77] Creating layer inception_5a/5x5
I0403 15:07:32.123980 31160 net.cpp:91] Creating Layer inception_5a/5x5
I0403 15:07:32.123998 31160 net.cpp:425] inception_5a/5x5 <- inception_5a/5x5_reduce
I0403 15:07:32.124022 31160 net.cpp:399] inception_5a/5x5 -> inception_5a/5x5
I0403 15:07:32.125846 31160 net.cpp:141] Setting up inception_5a/5x5
I0403 15:07:32.125887 31160 net.cpp:148] Top shape: 24 128 7 7 (150528)
I0403 15:07:32.125905 31160 net.cpp:156] Memory required for data: 1299953184
I0403 15:07:32.125943 31160 layer_factory.hpp:77] Creating layer inception_5a/relu_5x5
I0403 15:07:32.125962 31160 net.cpp:91] Creating Layer inception_5a/relu_5x5
I0403 15:07:32.125980 31160 net.cpp:425] inception_5a/relu_5x5 <- inception_5a/5x5
I0403 15:07:32.126009 31160 net.cpp:386] inception_5a/relu_5x5 -> inception_5a/5x5 (in-place)
I0403 15:07:32.126209 31160 net.cpp:141] Setting up inception_5a/relu_5x5
I0403 15:07:32.126235 31160 net.cpp:148] Top shape: 24 128 7 7 (150528)
I0403 15:07:32.126250 31160 net.cpp:156] Memory required for data: 1300555296
I0403 15:07:32.126271 31160 layer_factory.hpp:77] Creating layer inception_5a/pool
I0403 15:07:32.126291 31160 net.cpp:91] Creating Layer inception_5a/pool
I0403 15:07:32.126318 31160 net.cpp:425] inception_5a/pool <- pool4/3x3_s2_pool4/3x3_s2_0_split_3
I0403 15:07:32.126338 31160 net.cpp:399] inception_5a/pool -> inception_5a/pool
I0403 15:07:32.126412 31160 net.cpp:141] Setting up inception_5a/pool
I0403 15:07:32.126437 31160 net.cpp:148] Top shape: 24 832 7 7 (978432)
I0403 15:07:32.126451 31160 net.cpp:156] Memory required for data: 1304469024
I0403 15:07:32.126466 31160 layer_factory.hpp:77] Creating layer inception_5a/pool_proj
I0403 15:07:32.126488 31160 net.cpp:91] Creating Layer inception_5a/pool_proj
I0403 15:07:32.126507 31160 net.cpp:425] inception_5a/pool_proj <- inception_5a/pool
I0403 15:07:32.126529 31160 net.cpp:399] inception_5a/pool_proj -> inception_5a/pool_proj
I0403 15:07:32.129009 31160 net.cpp:141] Setting up inception_5a/pool_proj
I0403 15:07:32.129042 31160 net.cpp:148] Top shape: 24 128 7 7 (150528)
I0403 15:07:32.129060 31160 net.cpp:156] Memory required for data: 1305071136
I0403 15:07:32.129081 31160 layer_factory.hpp:77] Creating layer inception_5a/relu_pool_proj
I0403 15:07:32.129098 31160 net.cpp:91] Creating Layer inception_5a/relu_pool_proj
I0403 15:07:32.129117 31160 net.cpp:425] inception_5a/relu_pool_proj <- inception_5a/pool_proj
I0403 15:07:32.129138 31160 net.cpp:386] inception_5a/relu_pool_proj -> inception_5a/pool_proj (in-place)
I0403 15:07:32.129441 31160 net.cpp:141] Setting up inception_5a/relu_pool_proj
I0403 15:07:32.129472 31160 net.cpp:148] Top shape: 24 128 7 7 (150528)
I0403 15:07:32.129487 31160 net.cpp:156] Memory required for data: 1305673248
I0403 15:07:32.129503 31160 layer_factory.hpp:77] Creating layer inception_5a/output
I0403 15:07:32.129521 31160 net.cpp:91] Creating Layer inception_5a/output
I0403 15:07:32.129539 31160 net.cpp:425] inception_5a/output <- inception_5a/1x1
I0403 15:07:32.129555 31160 net.cpp:425] inception_5a/output <- inception_5a/3x3
I0403 15:07:32.129575 31160 net.cpp:425] inception_5a/output <- inception_5a/5x5
I0403 15:07:32.129591 31160 net.cpp:425] inception_5a/output <- inception_5a/pool_proj
I0403 15:07:32.129608 31160 net.cpp:399] inception_5a/output -> inception_5a/output
I0403 15:07:32.129662 31160 net.cpp:141] Setting up inception_5a/output
I0403 15:07:32.129686 31160 net.cpp:148] Top shape: 24 832 7 7 (978432)
I0403 15:07:32.129701 31160 net.cpp:156] Memory required for data: 1309586976
I0403 15:07:32.129717 31160 layer_factory.hpp:77] Creating layer inception_5a/output_inception_5a/output_0_split
I0403 15:07:32.129735 31160 net.cpp:91] Creating Layer inception_5a/output_inception_5a/output_0_split
I0403 15:07:32.129751 31160 net.cpp:425] inception_5a/output_inception_5a/output_0_split <- inception_5a/output
I0403 15:07:32.129772 31160 net.cpp:399] inception_5a/output_inception_5a/output_0_split -> inception_5a/output_inception_5a/output_0_split_0
I0403 15:07:32.129796 31160 net.cpp:399] inception_5a/output_inception_5a/output_0_split -> inception_5a/output_inception_5a/output_0_split_1
I0403 15:07:32.129817 31160 net.cpp:399] inception_5a/output_inception_5a/output_0_split -> inception_5a/output_inception_5a/output_0_split_2
I0403 15:07:32.129842 31160 net.cpp:399] inception_5a/output_inception_5a/output_0_split -> inception_5a/output_inception_5a/output_0_split_3
I0403 15:07:32.129957 31160 net.cpp:141] Setting up inception_5a/output_inception_5a/output_0_split
I0403 15:07:32.129982 31160 net.cpp:148] Top shape: 24 832 7 7 (978432)
I0403 15:07:32.129999 31160 net.cpp:148] Top shape: 24 832 7 7 (978432)
I0403 15:07:32.130017 31160 net.cpp:148] Top shape: 24 832 7 7 (978432)
I0403 15:07:32.130031 31160 net.cpp:148] Top shape: 24 832 7 7 (978432)
I0403 15:07:32.130048 31160 net.cpp:156] Memory required for data: 1325241888
I0403 15:07:32.130062 31160 layer_factory.hpp:77] Creating layer inception_5b/1x1
I0403 15:07:32.130085 31160 net.cpp:91] Creating Layer inception_5b/1x1
I0403 15:07:32.130103 31160 net.cpp:425] inception_5b/1x1 <- inception_5a/output_inception_5a/output_0_split_0
I0403 15:07:32.130125 31160 net.cpp:399] inception_5b/1x1 -> inception_5b/1x1
I0403 15:07:32.134016 31160 net.cpp:141] Setting up inception_5b/1x1
I0403 15:07:32.134047 31160 net.cpp:148] Top shape: 24 384 7 7 (451584)
I0403 15:07:32.134068 31160 net.cpp:156] Memory required for data: 1327048224
I0403 15:07:32.134086 31160 layer_factory.hpp:77] Creating layer inception_5b/relu_1x1
I0403 15:07:32.134105 31160 net.cpp:91] Creating Layer inception_5b/relu_1x1
I0403 15:07:32.134122 31160 net.cpp:425] inception_5b/relu_1x1 <- inception_5b/1x1
I0403 15:07:32.134140 31160 net.cpp:386] inception_5b/relu_1x1 -> inception_5b/1x1 (in-place)
I0403 15:07:32.134466 31160 net.cpp:141] Setting up inception_5b/relu_1x1
I0403 15:07:32.134495 31160 net.cpp:148] Top shape: 24 384 7 7 (451584)
I0403 15:07:32.134513 31160 net.cpp:156] Memory required for data: 1328854560
I0403 15:07:32.134528 31160 layer_factory.hpp:77] Creating layer inception_5b/3x3_reduce
I0403 15:07:32.134549 31160 net.cpp:91] Creating Layer inception_5b/3x3_reduce
I0403 15:07:32.134567 31160 net.cpp:425] inception_5b/3x3_reduce <- inception_5a/output_inception_5a/output_0_split_1
I0403 15:07:32.134590 31160 net.cpp:399] inception_5b/3x3_reduce -> inception_5b/3x3_reduce
I0403 15:07:32.137394 31160 net.cpp:141] Setting up inception_5b/3x3_reduce
I0403 15:07:32.137425 31160 net.cpp:148] Top shape: 24 192 7 7 (225792)
I0403 15:07:32.137442 31160 net.cpp:156] Memory required for data: 1329757728
I0403 15:07:32.137461 31160 layer_factory.hpp:77] Creating layer inception_5b/relu_3x3_reduce
I0403 15:07:32.137485 31160 net.cpp:91] Creating Layer inception_5b/relu_3x3_reduce
I0403 15:07:32.137503 31160 net.cpp:425] inception_5b/relu_3x3_reduce <- inception_5b/3x3_reduce
I0403 15:07:32.137521 31160 net.cpp:386] inception_5b/relu_3x3_reduce -> inception_5b/3x3_reduce (in-place)
I0403 15:07:32.137717 31160 net.cpp:141] Setting up inception_5b/relu_3x3_reduce
I0403 15:07:32.137748 31160 net.cpp:148] Top shape: 24 192 7 7 (225792)
I0403 15:07:32.137763 31160 net.cpp:156] Memory required for data: 1330660896
I0403 15:07:32.137781 31160 layer_factory.hpp:77] Creating layer inception_5b/3x3
I0403 15:07:32.137805 31160 net.cpp:91] Creating Layer inception_5b/3x3
I0403 15:07:32.137825 31160 net.cpp:425] inception_5b/3x3 <- inception_5b/3x3_reduce
I0403 15:07:32.137850 31160 net.cpp:399] inception_5b/3x3 -> inception_5b/3x3
I0403 15:07:32.144706 31160 net.cpp:141] Setting up inception_5b/3x3
I0403 15:07:32.144737 31160 net.cpp:148] Top shape: 24 384 7 7 (451584)
I0403 15:07:32.144755 31160 net.cpp:156] Memory required for data: 1332467232
I0403 15:07:32.144775 31160 layer_factory.hpp:77] Creating layer inception_5b/relu_3x3
I0403 15:07:32.144793 31160 net.cpp:91] Creating Layer inception_5b/relu_3x3
I0403 15:07:32.144810 31160 net.cpp:425] inception_5b/relu_3x3 <- inception_5b/3x3
I0403 15:07:32.144830 31160 net.cpp:386] inception_5b/relu_3x3 -> inception_5b/3x3 (in-place)
I0403 15:07:32.145131 31160 net.cpp:141] Setting up inception_5b/relu_3x3
I0403 15:07:32.145164 31160 net.cpp:148] Top shape: 24 384 7 7 (451584)
I0403 15:07:32.145182 31160 net.cpp:156] Memory required for data: 1334273568
I0403 15:07:32.145200 31160 layer_factory.hpp:77] Creating layer inception_5b/5x5_reduce
I0403 15:07:32.145241 31160 net.cpp:91] Creating Layer inception_5b/5x5_reduce
I0403 15:07:32.145277 31160 net.cpp:425] inception_5b/5x5_reduce <- inception_5a/output_inception_5a/output_0_split_2
I0403 15:07:32.145301 31160 net.cpp:399] inception_5b/5x5_reduce -> inception_5b/5x5_reduce
I0403 15:07:32.146622 31160 net.cpp:141] Setting up inception_5b/5x5_reduce
I0403 15:07:32.146654 31160 net.cpp:148] Top shape: 24 48 7 7 (56448)
I0403 15:07:32.146672 31160 net.cpp:156] Memory required for data: 1334499360
I0403 15:07:32.146692 31160 layer_factory.hpp:77] Creating layer inception_5b/relu_5x5_reduce
I0403 15:07:32.146709 31160 net.cpp:91] Creating Layer inception_5b/relu_5x5_reduce
I0403 15:07:32.146726 31160 net.cpp:425] inception_5b/relu_5x5_reduce <- inception_5b/5x5_reduce
I0403 15:07:32.146744 31160 net.cpp:386] inception_5b/relu_5x5_reduce -> inception_5b/5x5_reduce (in-place)
I0403 15:07:32.147141 31160 net.cpp:141] Setting up inception_5b/relu_5x5_reduce
I0403 15:07:32.147168 31160 net.cpp:148] Top shape: 24 48 7 7 (56448)
I0403 15:07:32.147186 31160 net.cpp:156] Memory required for data: 1334725152
I0403 15:07:32.147202 31160 layer_factory.hpp:77] Creating layer inception_5b/5x5
I0403 15:07:32.147222 31160 net.cpp:91] Creating Layer inception_5b/5x5
I0403 15:07:32.147241 31160 net.cpp:425] inception_5b/5x5 <- inception_5b/5x5_reduce
I0403 15:07:32.147267 31160 net.cpp:399] inception_5b/5x5 -> inception_5b/5x5
I0403 15:07:32.149416 31160 net.cpp:141] Setting up inception_5b/5x5
I0403 15:07:32.149448 31160 net.cpp:148] Top shape: 24 128 7 7 (150528)
I0403 15:07:32.149467 31160 net.cpp:156] Memory required for data: 1335327264
I0403 15:07:32.149487 31160 layer_factory.hpp:77] Creating layer inception_5b/relu_5x5
I0403 15:07:32.149505 31160 net.cpp:91] Creating Layer inception_5b/relu_5x5
I0403 15:07:32.149524 31160 net.cpp:425] inception_5b/relu_5x5 <- inception_5b/5x5
I0403 15:07:32.149544 31160 net.cpp:386] inception_5b/relu_5x5 -> inception_5b/5x5 (in-place)
I0403 15:07:32.149754 31160 net.cpp:141] Setting up inception_5b/relu_5x5
I0403 15:07:32.149780 31160 net.cpp:148] Top shape: 24 128 7 7 (150528)
I0403 15:07:32.149796 31160 net.cpp:156] Memory required for data: 1335929376
I0403 15:07:32.149812 31160 layer_factory.hpp:77] Creating layer inception_5b/pool
I0403 15:07:32.149834 31160 net.cpp:91] Creating Layer inception_5b/pool
I0403 15:07:32.149852 31160 net.cpp:425] inception_5b/pool <- inception_5a/output_inception_5a/output_0_split_3
I0403 15:07:32.149881 31160 net.cpp:399] inception_5b/pool -> inception_5b/pool
I0403 15:07:32.149962 31160 net.cpp:141] Setting up inception_5b/pool
I0403 15:07:32.149988 31160 net.cpp:148] Top shape: 24 832 7 7 (978432)
I0403 15:07:32.150003 31160 net.cpp:156] Memory required for data: 1339843104
I0403 15:07:32.150022 31160 layer_factory.hpp:77] Creating layer inception_5b/pool_proj
I0403 15:07:32.150050 31160 net.cpp:91] Creating Layer inception_5b/pool_proj
I0403 15:07:32.150070 31160 net.cpp:425] inception_5b/pool_proj <- inception_5b/pool
I0403 15:07:32.150094 31160 net.cpp:399] inception_5b/pool_proj -> inception_5b/pool_proj
I0403 15:07:32.152523 31160 net.cpp:141] Setting up inception_5b/pool_proj
I0403 15:07:32.152556 31160 net.cpp:148] Top shape: 24 128 7 7 (150528)
I0403 15:07:32.152575 31160 net.cpp:156] Memory required for data: 1340445216
I0403 15:07:32.152595 31160 layer_factory.hpp:77] Creating layer inception_5b/relu_pool_proj
I0403 15:07:32.152616 31160 net.cpp:91] Creating Layer inception_5b/relu_pool_proj
I0403 15:07:32.152632 31160 net.cpp:425] inception_5b/relu_pool_proj <- inception_5b/pool_proj
I0403 15:07:32.152650 31160 net.cpp:386] inception_5b/relu_pool_proj -> inception_5b/pool_proj (in-place)
I0403 15:07:32.152966 31160 net.cpp:141] Setting up inception_5b/relu_pool_proj
I0403 15:07:32.152997 31160 net.cpp:148] Top shape: 24 128 7 7 (150528)
I0403 15:07:32.153013 31160 net.cpp:156] Memory required for data: 1341047328
I0403 15:07:32.153029 31160 layer_factory.hpp:77] Creating layer inception_5b/output
I0403 15:07:32.153048 31160 net.cpp:91] Creating Layer inception_5b/output
I0403 15:07:32.153081 31160 net.cpp:425] inception_5b/output <- inception_5b/1x1
I0403 15:07:32.153100 31160 net.cpp:425] inception_5b/output <- inception_5b/3x3
I0403 15:07:32.153118 31160 net.cpp:425] inception_5b/output <- inception_5b/5x5
I0403 15:07:32.153136 31160 net.cpp:425] inception_5b/output <- inception_5b/pool_proj
I0403 15:07:32.153156 31160 net.cpp:399] inception_5b/output -> inception_5b/output
I0403 15:07:32.153213 31160 net.cpp:141] Setting up inception_5b/output
I0403 15:07:32.153242 31160 net.cpp:148] Top shape: 24 1024 7 7 (1204224)
I0403 15:07:32.153269 31160 net.cpp:156] Memory required for data: 1345864224
I0403 15:07:32.153285 31160 layer_factory.hpp:77] Creating layer pool5/7x7_s1
I0403 15:07:32.153306 31160 net.cpp:91] Creating Layer pool5/7x7_s1
I0403 15:07:32.153324 31160 net.cpp:425] pool5/7x7_s1 <- inception_5b/output
I0403 15:07:32.153345 31160 net.cpp:399] pool5/7x7_s1 -> pool5/7x7_s1
I0403 15:07:32.153580 31160 net.cpp:141] Setting up pool5/7x7_s1
I0403 15:07:32.153609 31160 net.cpp:148] Top shape: 24 1024 1 1 (24576)
I0403 15:07:32.153625 31160 net.cpp:156] Memory required for data: 1345962528
I0403 15:07:32.153640 31160 layer_factory.hpp:77] Creating layer pool5/drop_7x7_s1
I0403 15:07:32.153659 31160 net.cpp:91] Creating Layer pool5/drop_7x7_s1
I0403 15:07:32.153676 31160 net.cpp:425] pool5/drop_7x7_s1 <- pool5/7x7_s1
I0403 15:07:32.153697 31160 net.cpp:386] pool5/drop_7x7_s1 -> pool5/7x7_s1 (in-place)
I0403 15:07:32.153759 31160 net.cpp:141] Setting up pool5/drop_7x7_s1
I0403 15:07:32.153791 31160 net.cpp:148] Top shape: 24 1024 1 1 (24576)
I0403 15:07:32.153815 31160 net.cpp:156] Memory required for data: 1346060832
I0403 15:07:32.153841 31160 layer_factory.hpp:77] Creating layer loss3/classifier_plantvillage
I0403 15:07:32.153868 31160 net.cpp:91] Creating Layer loss3/classifier_plantvillage
I0403 15:07:32.153892 31160 net.cpp:425] loss3/classifier_plantvillage <- pool5/7x7_s1
I0403 15:07:32.153920 31160 net.cpp:399] loss3/classifier_plantvillage -> loss3/classifier_plantvillage
I0403 15:07:32.154400 31160 net.cpp:141] Setting up loss3/classifier_plantvillage
I0403 15:07:32.154429 31160 net.cpp:148] Top shape: 24 38 (912)
I0403 15:07:32.154448 31160 net.cpp:156] Memory required for data: 1346064480
I0403 15:07:32.154469 31160 layer_factory.hpp:77] Creating layer loss3/classifier_plantvillage_loss3/classifier_plantvillage_0_split
I0403 15:07:32.154497 31160 net.cpp:91] Creating Layer loss3/classifier_plantvillage_loss3/classifier_plantvillage_0_split
I0403 15:07:32.154516 31160 net.cpp:425] loss3/classifier_plantvillage_loss3/classifier_plantvillage_0_split <- loss3/classifier_plantvillage
I0403 15:07:32.154537 31160 net.cpp:399] loss3/classifier_plantvillage_loss3/classifier_plantvillage_0_split -> loss3/classifier_plantvillage_loss3/classifier_plantvillage_0_split_0
I0403 15:07:32.154559 31160 net.cpp:399] loss3/classifier_plantvillage_loss3/classifier_plantvillage_0_split -> loss3/classifier_plantvillage_loss3/classifier_plantvillage_0_split_1
I0403 15:07:32.154582 31160 net.cpp:399] loss3/classifier_plantvillage_loss3/classifier_plantvillage_0_split -> loss3/classifier_plantvillage_loss3/classifier_plantvillage_0_split_2
I0403 15:07:32.154608 31160 net.cpp:399] loss3/classifier_plantvillage_loss3/classifier_plantvillage_0_split -> loss3/classifier_plantvillage_loss3/classifier_plantvillage_0_split_3
I0403 15:07:32.154721 31160 net.cpp:141] Setting up loss3/classifier_plantvillage_loss3/classifier_plantvillage_0_split
I0403 15:07:32.154747 31160 net.cpp:148] Top shape: 24 38 (912)
I0403 15:07:32.154764 31160 net.cpp:148] Top shape: 24 38 (912)
I0403 15:07:32.154780 31160 net.cpp:148] Top shape: 24 38 (912)
I0403 15:07:32.154798 31160 net.cpp:148] Top shape: 24 38 (912)
I0403 15:07:32.154813 31160 net.cpp:156] Memory required for data: 1346079072
I0403 15:07:32.154829 31160 layer_factory.hpp:77] Creating layer loss1/loss
I0403 15:07:32.154852 31160 net.cpp:91] Creating Layer loss1/loss
I0403 15:07:32.154871 31160 net.cpp:425] loss1/loss <- loss1/classifier_plantvillage_loss1/classifier_plantvillage_0_split_0
I0403 15:07:32.154906 31160 net.cpp:425] loss1/loss <- label_data_1_split_0
…
