…
I0403 15:23:34.464026 31699 net.cpp:313] The NetState phase (1) differed from the phase (0) specified by a rule in layer data
I0403 15:23:34.465137 31699 net.cpp:49] Initializing net from parameters: 
state {
  phase: TEST
}
layer {
  name: "data"
  type: "Data"
  top: "data"
  top: "label"
  include {
    phase: TEST
  }
  transform_param {
    mirror: false
    crop_size: 224
    mean_file: "/home/mohanty/data/final_dataset/lmdb/color-60-40/mean.binaryproto"
  }
  data_param {
    source: "/home/mohanty/data/final_dataset/lmdb/color-60-40/test_db"
    batch_size: 24
    backend: LMDB
  }
}
layer {
  name: "conv1/7x7_s2"
  type: "Convolution"
  bottom: "data"
  top: "conv1/7x7_s2"
  param {
    lr_mult: 1
    decay_mult: 1
  }
  param {
    lr_mult: 2
    decay_mult: 0
  }
  convolution_param {
    num_output: 64
    pad: 3
    kernel_size: 7
    stride: 2
    weight_filler {
      type: "xavier"
      std: 0.1
    }
    bias_filler {
      type: "constant"
      value: 0.2
    }
  }
}
layer {
  name: "conv1/relu_7x7"
  type: "ReLU"
  bottom: "conv1/7x7_s2"
  top: "conv1/7x7_s2"
}
layer {
  name: "pool1/3x3_s2"
  type: "Pooling"
  bottom: "conv1/7x7_s2"
  top: "pool1/3x3_s2"
  pooling_param {
    pool: MAX
    kernel_size: 3
    stride: 2
  }
}
layer {
  name: "pool1/norm1"
  type: "LRN"
  bottom: "pool1/3x3_s2"
  top: "pool1/norm1"
  lrn_param {
    local_size: 5
    alpha: 0.0001
    beta: 0.75
  }
}
layer {
  name: "conv2/3x3_reduce"
  type: "Convolution"
  bottom: "pool1/norm1"
  top: "conv2/3x3_reduce"
  param {
    lr_mult: 1
    decay_mult: 1
  }
  param {
    lr_mult: 2
    decay_mult: 0
  }
  convolution_param {
    num_output: 64
    kernel_size: 1
    weight_filler {
      type: "xavier"
      std: 0.1
    }
    bias_filler {
      type: "constant"
      value: 0.2
    }
  }
}
layer {
  name: "conv2/relu_3x3_reduce"
  type: "ReLU"
  bottom: "conv2/3x3_reduce"
  top: "conv2/3x3_reduce"
}
layer {
  name: "conv2/3x3"
  type: "Convolution"
  bottom: "conv2/3x3_reduce"
  top: "conv2/3x3"
  param {
    lr_mult: 1
    decay_mult: 1
  }
  param {
    lr_mult: 2
    decay_mult: 0
  }
  convolution_param {
    num_output: 192
    pad: 1
    kernel_size: 3
    weight_filler {
      type: "xavier"
      std: 0.03
    }
    bias_filler {
      type: "constant"
      value: 0.2
    }
  }
}
layer {
  name: "conv2/relu_3x3"
  type: "ReLU"
  bottom: "conv2/3x3"
  top: "conv2/3x3"
}
layer {
  name: "conv2/norm2"
  type: "LRN"
  bottom: "conv2/3x3"
  top: "conv2/norm2"
  lrn_param {
    local_size: 5
    alpha: 0.0001
    beta: 0.75
  }
}
layer {
  name: "pool2/3x3_s2"
  type: "Pooling"
  bottom: "conv2/norm2"
  top: "pool2/3x3_s2"
  pooling_param {
    pool: MAX
    kernel_size: 3
    stride: 2
  }
}
layer {
  name: "inception_3a/1x1"
  type: "Convolution"
  bottom: "pool2/3x3_s2"
  top: "inception_3a/1x1"
  param {
    lr_mult: 1
    decay_mult: 1
  }
  param {
    lr_mult: 2
    decay_mult: 0
  }
  convolution_param {
    num_output: 64
    kernel_size: 1
    weight_filler {
      type: "xavier"
      std: 0.03
    }
    bias_filler {
      type: "constant"
      value: 0.2
    }
  }
}
layer {
  name: "inception_3a/relu_1x1"
  type: "ReLU"
  bottom: "inception_3a/1x1"
  top: "inception_3a/1x1"
}
layer {
  name: "inception_3a/3x3_reduce"
  type: "Convolution"
  bottom: "pool2/3x3_s2"
  top: "inception_3a/3x3_reduce"
  param {
    lr_mult: 1
    decay_mult: 1
  }
  param {
    lr_mult: 2
    decay_mult: 0
  }
  convolution_param {
    num_output: 96
    kernel_size: 1
    weight_filler {
      type: "xavier"
      std: 0.09
    }
    bias_filler {
      type: "constant"
      value: 0.2
    }
  }
}
layer {
  name: "inception_3a/relu_3x3_reduce"
  type: "ReLU"
  bottom: "inception_3a/3x3_reduce"
  top: "inception_3a/3x3_reduce"
}
layer {
  name: "inception_3a/3x3"
  type: "Convolution"
  bottom: "inception_3a/3x3_reduce"
  top: "inception_3a/3x3"
  param {
    lr_mult: 1
    decay_mult: 1
  }
  param {
    lr_mult: 2
    decay_mult: 0
  }
  convolution_param {
    num_output: 128
    pad: 1
    kernel_size: 3
    weight_filler {
      type: "xavier"
      std: 0.03
    }
    bias_filler {
      type: "constant"
      value: 0.2
    }
  }
}
layer {
  name: "inception_3a/relu_3x3"
  type: "ReLU"
  bottom: "inception_3a/3x3"
  top: "inception_3a/3x3"
}
layer {
  name: "inception_3a/5x5_reduce"
  type: "Convolution"
  bottom: "pool2/3x3_s2"
  top: "inception_3a/5x5_reduce"
  param {
    lr_mult: 1
    decay_mult: 1
  }
  param {
    lr_mult: 2
    decay_mult: 0
  }
  convolution_param {
    num_output: 16
    kernel_size: 1
    weight_filler {
      type: "xavier"
      std: 0.2
    }
    bias_filler {
      type: "constant"
      value: 0.2
    }
  }
}
layer {
  name: "inception_3a/relu_5x5_reduce"
  type: "ReLU"
  bottom: "inception_3a/5x5_reduce"
  top: "inception_3a/5x5_reduce"
}
layer {
  name: "inception_3a/5x5"
  type: "Convolution"
  bottom: "inception_3a/5x5_reduce"
  top: "inception_3a/5x5"
  param {
    lr_mult: 1
    decay_mult: 1
  }
  param {
    lr_mult: 2
    decay_mult: 0
  }
  convolution_param {
    num_output: 32
    pad: 2
    kernel_size: 5
    weight_filler {
      type: "xavier"
      std: 0.03
    }
    bias_filler {
      type: "constant"
      value: 0.2
    }
  }
}
layer {
  name: "inception_3a/relu_5x5"
  type: "ReLU"
  bottom: "inception_3a/5x5"
  top: "inception_3a/5x5"
}
layer {
  name: "inception_3a/pool"
  type: "Pooling"
  bottom: "pool2/3x3_s2"
  top: "inception_3a/pool"
  pooling_param {
    pool: MAX
    kernel_size: 3
    stride: 1
    pad: 1
  }
}
layer {
  name: "inception_3a/pool_proj"
  type: "Convolution"
  bottom: "inception_3a/pool"
  top: "inception_3a/pool_proj"
  param {
    lr_mult: 1
    decay_mult: 1
  }
  param {
    lr_mult: 2
    decay_mult: 0
  }
  convolution_param {
    num_output: 32
    kernel_size: 1
    weight_filler {
      type: "xavier"
      std: 0.1
    }
    bias_filler {
      type: "constant"
      value: 0.2
    }
  }
}
layer {
  name: "inception_3a/relu_pool_proj"
  type: "ReLU"
  bottom: "inception_3a/pool_proj"
  top: "inception_3a/pool_proj"
}
layer {
  name: "inception_3a/output"
  type: "Concat"
  bottom: "inception_3a/1x1"
  bottom: "inception_3a/3x3"
  bottom: "inception_3a/5x5"
  bottom: "inception_3a/pool_proj"
  top: "inception_3a/output"
}
layer {
  name: "inception_3b/1x1"
  type: "Convolution"
  bottom: "inception_3a/output"
  top: "inception_3b/1x1"
  param {
    lr_mult: 1
    decay_mult: 1
  }
  param {
    lr_mult: 2
    decay_mult: 0
  }
  convolution_param {
    num_output: 128
    kernel_size: 1
    weight_filler {
      type: "xavier"
      std: 0.03
    }
    bias_filler {
      type: "constant"
      value: 0.2
    }
  }
}
layer {
  name: "inception_3b/relu_1x1"
  type: "ReLU"
  bottom: "inception_3b/1x1"
  top: "inception_3b/1x1"
}
layer {
  name: "inception_3b/3x3_reduce"
  type: "Convolution"
  bottom: "inception_3a/output"
  top: "inception_3b/3x3_reduce"
  param {
    lr_mult: 1
    decay_mult: 1
  }
  param {
    lr_mult: 2
    decay_mult: 0
  }
  convolution_param {
    num_output: 128
    kernel_size: 1
    weight_filler {
      type: "xavier"
      std: 0.09
    }
    bias_filler {
      type: "constant"
      value: 0.2
    }
  }
}
layer {
  name: "inception_3b/relu_3x3_reduce"
  type: "ReLU"
  bottom: "inception_3b/3x3_reduce"
  top: "inception_3b/3x3_reduce"
}
layer {
  name: "inception_3b/3x3"
  type: "Convolution"
  bottom: "inception_3b/3x3_reduce"
  top: "inception_3b/3x3"
  param {
    lr_mult: 1
    decay_mult: 1
  }
  param {
    lr_mult: 2
    decay_mult: 0
  }
  convolution_param {
    num_output: 192
    pad: 1
    kernel_size: 3
    weight_filler {
      type: "xavier"
      std: 0.03
    }
    bias_filler {
      type: "constant"
      value: 0.2
    }
  }
}
layer {
  name: "inception_3b/relu_3x3"
  type: "ReLU"
  bottom: "inception_3b/3x3"
  top: "inception_3b/3x3"
}
layer {
  name: "inception_3b/5x5_reduce"
  type: "Convolution"
  bottom: "inception_3a/output"
  top: "inception_3b/5x5_reduce"
  param {
    lr_mult: 1
    decay_mult: 1
  }
  param {
    lr_mult: 2
    decay_mult: 0
  }
  convolution_param {
    num_output: 32
    kernel_size: 1
    weight_filler {
      type: "xavier"
      std: 0.2
    }
    bias_filler {
      type: "constant"
      value: 0.2
    }
  }
}
layer {
  name: "inception_3b/relu_5x5_reduce"
  type: "ReLU"
  bottom: "inception_3b/5x5_reduce"
  top: "inception_3b/5x5_reduce"
}
layer {
  name: "inception_3b/5x5"
  type: "Convolution"
  bottom: "inception_3b/5x5_reduce"
  top: "inception_3b/5x5"
  param {
    lr_mult: 1
    decay_mult: 1
  }
  param {
    lr_mult: 2
    decay_mult: 0
  }
  convolution_param {
    num_output: 96
    pad: 2
    kernel_size: 5
    weight_filler {
      type: "xavier"
      std: 0.03
    }
    bias_filler {
      type: "constant"
      value: 0.2
    }
  }
}
layer {
  name: "inception_3b/relu_5x5"
  type: "ReLU"
  bottom: "inception_3b/5x5"
  top: "inception_3b/5x5"
}
layer {
  name: "inception_3b/pool"
  type: "Pooling"
  bottom: "inception_3a/output"
  top: "inception_3b/pool"
  pooling_param {
    pool: MAX
    kernel_size: 3
    stride: 1
    pad: 1
  }
}
layer {
  name: "inception_3b/pool_proj"
  type: "Convolution"
  bottom: "inception_3b/pool"
  top: "inception_3b/pool_proj"
  param {
    lr_mult: 1
    decay_mult: 1
  }
  param {
    lr_mult: 2
    decay_mult: 0
  }
  convolution_param {
    num_output: 64
    kernel_size: 1
    weight_filler {
      type: "xavier"
      std: 0.1
    }
    bias_filler {
      type: "constant"
      value: 0.2
    }
  }
}
layer {
  name: "inception_3b/relu_pool_proj"
  type: "ReLU"
  bottom: "inception_3b/pool_proj"
  top: "inception_3b/pool_proj"
}
layer {
  name: "inception_3b/output"
  type: "Concat"
  bottom: "inception_3b/1x1"
  bottom: "inception_3b/3x3"
  bottom: "inception_3b/5x5"
  bottom: "inception_3b/pool_proj"
  top: "inception_3b/output"
}
layer {
  name: "pool3/3x3_s2"
  type: "Pooling"
  bottom: "inception_3b/output"
  top: "pool3/3x3_s2"
  pooling_param {
    pool: MAX
    kernel_size: 3
    stride: 2
  }
}
layer {
  name: "inception_4a/1x1"
  type: "Convolution"
  bottom: "pool3/3x3_s2"
  top: "inception_4a/1x1"
  param {
    lr_mult: 1
    decay_mult: 1
  }
  param {
    lr_mult: 2
    decay_mult: 0
  }
  convolution_param {
    num_output: 192
    kernel_size: 1
    weight_filler {
      type: "xavier"
      std: 0.03
    }
    bias_filler {
      type: "constant"
      value: 0.2
    }
  }
}
layer {
  name: "inception_4a/relu_1x1"
  type: "ReLU"
  bottom: "inception_4a/1x1"
  top: "inception_4a/1x1"
}
layer {
  name: "inception_4a/3x3_reduce"
  type: "Convolution"
  bottom: "pool3/3x3_s2"
  top: "inception_4a/3x3_reduce"
  param {
    lr_mult: 1
    decay_mult: 1
  }
  param {
    lr_mult: 2
    decay_mult: 0
  }
  convolution_param {
    num_output: 96
    kernel_size: 1
    weight_filler {
      type: "xavier"
      std: 0.09
    }
    bias_filler {
      type: "constant"
      value: 0.2
    }
  }
}
layer {
  name: "inception_4a/relu_3x3_reduce"
  type: "ReLU"
  bottom: "inception_4a/3x3_reduce"
  top: "inception_4a/3x3_reduce"
}
layer {
  name: "inception_4a/3x3"
  type: "Convolution"
  bottom: "inception_4a/3x3_reduce"
  top: "inception_4a/3x3"
  param {
    lr_mult: 1
    decay_mult: 1
  }
  param {
    lr_mult: 2
    decay_mult: 0
  }
  convolution_param {
    num_output: 208
    pad: 1
    kernel_size: 3
    weight_filler {
      type: "xavier"
      std: 0.03
    }
    bias_filler {
      type: "constant"
      value: 0.2
    }
  }
}
layer {
  name: "inception_4a/relu_3x3"
  type: "ReLU"
  bottom: "inception_4a/3x3"
  top: "inception_4a/3x3"
}
layer {
  name: "inception_4a/5x5_reduce"
  type: "Convolution"
  bottom: "pool3/3x3_s2"
  top: "inception_4a/5x5_reduce"
  param {
    lr_mult: 1
    decay_mult: 1
  }
  param {
    lr_mult: 2
    decay_mult: 0
  }
  convolution_param {
    num_output: 16
    kernel_size: 1
    weight_filler {
      type: "xavier"
      std: 0.2
    }
    bias_filler {
      type: "constant"
      value: 0.2
    }
  }
}
layer {
  name: "inception_4a/relu_5x5_reduce"
  type: "ReLU"
  bottom: "inception_4a/5x5_reduce"
  top: "inception_4a/5x5_reduce"
}
layer {
  name: "inception_4a/5x5"
  type: "Convolution"
  bottom: "inception_4a/5x5_reduce"
  top: "inception_4a/5x5"
  param {
    lr_mult: 1
    decay_mult: 1
  }
  param {
    lr_mult: 2
    decay_mult: 0
  }
  convolution_param {
    num_output: 48
    pad: 2
    kernel_size: 5
    weight_filler {
      type: "xavier"
      std: 0.03
    }
    bias_filler {
      type: "constant"
      value: 0.2
    }
  }
}
layer {
  name: "inception_4a/relu_5x5"
  type: "ReLU"
  bottom: "inception_4a/5x5"
  top: "inception_4a/5x5"
}
layer {
  name: "inception_4a/pool"
  type: "Pooling"
  bottom: "pool3/3x3_s2"
  top: "inception_4a/pool"
  pooling_param {
    pool: MAX
    kernel_size: 3
    stride: 1
    pad: 1
  }
}
layer {
  name: "inception_4a/pool_proj"
  type: "Convolution"
  bottom: "inception_4a/pool"
  top: "inception_4a/pool_proj"
  param {
    lr_mult: 1
    decay_mult: 1
  }
  param {
    lr_mult: 2
    decay_mult: 0
  }
  convolution_param {
    num_output: 64
    kernel_size: 1
    weight_filler {
      type: "xavier"
      std: 0.1
    }
    bias_filler {
      type: "constant"
      value: 0.2
    }
  }
}
layer {
  name: "inception_4a/relu_pool_proj"
  type: "ReLU"
  bottom: "inception_4a/pool_proj"
  top: "inception_4a/pool_proj"
}
layer {
  name: "inception_4a/output"
  type: "Concat"
  bottom: "inception_4a/1x1"
  bottom: "inception_4a/3x3"
  bottom: "inception_4a/5x5"
  bottom: "inception_4a/pool_proj"
  top: "inception_4a/output"
}
layer {
  name: "loss1/ave_pool"
  type: "Pooling"
  bottom: "inception_4a/output"
  top: "loss1/ave_pool"
  pooling_param {
    pool: AVE
    kernel_size: 5
    stride: 3
  }
}
layer {
  name: "loss1/conv"
  type: "Convolution"
  bottom: "loss1/ave_pool"
  top: "loss1/conv"
  param {
    lr_mult: 1
    decay_mult: 1
  }
  param {
    lr_mult: 2
    decay_mult: 0
  }
  convolution_param {
    num_output: 128
    kernel_size: 1
    weight_filler {
      type: "xavier"
      std: 0.08
    }
    bias_filler {
      type: "constant"
      value: 0.2
    }
  }
}
layer {
  name: "loss1/relu_conv"
  type: "ReLU"
  bottom: "loss1/conv"
  top: "loss1/conv"
}
layer {
  name: "loss1/fc"
  type: "InnerProduct"
  bottom: "loss1/conv"
  top: "loss1/fc"
  param {
    lr_mult: 1
    decay_mult: 1
  }
  param {
    lr_mult: 2
    decay_mult: 0
  }
  inner_product_param {
    num_output: 1024
    weight_filler {
      type: "xavier"
      std: 0.02
    }
    bias_filler {
      type: "constant"
      value: 0.2
    }
  }
}
layer {
  name: "loss1/relu_fc"
  type: "ReLU"
  bottom: "loss1/fc"
  top: "loss1/fc"
}
layer {
  name: "loss1/drop_fc"
  type: "Dropout"
  bottom: "loss1/fc"
  top: "loss1/fc"
  dropout_param {
    dropout_ratio: 0.7
  }
}
layer {
  name: "loss1/classifier_plantvillage"
  type: "InnerProduct"
  bottom: "loss1/fc"
  top: "loss1/classifier_plantvillage"
  param {
    lr_mult: 1
    decay_mult: 1
  }
  param {
    lr_mult: 2
    decay_mult: 0
  }
  inner_product_param {
    num_output: 38
    weight_filler {
      type: "xavier"
      std: 0.0009765625
    }
    bias_filler {
      type: "constant"
      value: 0
    }
  }
}
layer {
  name: "inception_4b/1x1"
  type: "Convolution"
  bottom: "inception_4a/output"
  top: "inception_4b/1x1"
  param {
    lr_mult: 1
    decay_mult: 1
  }
  param {
    lr_mult: 2
    decay_mult: 0
  }
  convolution_param {
    num_output: 160
    kernel_size: 1
    weight_filler {
      type: "xavier"
      std: 0.03
    }
    bias_filler {
      type: "constant"
      value: 0.2
    }
  }
}
layer {
  name: "inception_4b/relu_1x1"
  type: "ReLU"
  bottom: "inception_4b/1x1"
  top: "inception_4b/1x1"
}
layer {
  name: "inception_4b/3x3_reduce"
  type: "Convolution"
  bottom: "inception_4a/output"
  top: "inception_4b/3x3_reduce"
  param {
    lr_mult: 1
    decay_mult: 1
  }
  param {
    lr_mult: 2
    decay_mult: 0
  }
  convolution_param {
    num_output: 112
    kernel_size: 1
    weight_filler {
      type: "xavier"
      std: 0.09
    }
    bias_filler {
      type: "constant"
      value: 0.2
    }
  }
}
layer {
  name: "inception_4b/relu_3x3_reduce"
  type: "ReLU"
  bottom: "inception_4b/3x3_reduce"
  top: "inception_4b/3x3_reduce"
}
layer {
  name: "inception_4b/3x3"
  type: "Convolution"
  bottom: "inception_4b/3x3_reduce"
  top: "inception_4b/3x3"
  param {
    lr_mult: 1
    decay_mult: 1
  }
  param {
    lr_mult: 2
    decay_mult: 0
  }
  convolution_param {
    num_output: 224
    pad: 1
    kernel_size: 3
    weight_filler {
      type: "xavier"
      std: 0.03
    }
    bias_filler {
      type: "constant"
      value: 0.2
    }
  }
}
layer {
  name: "inception_4b/relu_3x3"
  type: "ReLU"
  bottom: "inception_4b/3x3"
  top: "inception_4b/3x3"
}
layer {
  name: "inception_4b/5x5_reduce"
  type: "Convolution"
  bottom: "inception_4a/output"
  top: "inception_4b/5x5_reduce"
  param {
    lr_mult: 1
    decay_mult: 1
  }
  param {
    lr_mult: 2
    decay_mult: 0
  }
  convolution_param {
    num_output: 24
    kernel_size: 1
    weight_filler {
      type: "xavier"
      std: 0.2
    }
    bias_filler {
      type: "constant"
      value: 0.2
    }
  }
}
layer {
  name: "inception_4b/relu_5x5_reduce"
  type: "ReLU"
  bottom: "inception_4b/5x5_reduce"
  top: "inception_4b/5x5_reduce"
}
layer {
  name: "inception_4b/5x5"
  type: "Convolution"
  bottom: "inception_4b/5x5_reduce"
  top: "inception_4b/5x5"
  param {
    lr_mult: 1
    decay_mult: 1
  }
  param {
    lr_mult: 2
    decay_mult: 0
  }
  convolution_param {
    num_output: 64
    pad: 2
    kernel_size: 5
    weight_filler {
      type: "xavier"
      std: 0.03
    }
    bias_filler {
      type: "constant"
      value: 0.2
    }
  }
}
layer {
  name: "inception_4b/relu_5x5"
  type: "ReLU"
  bottom: "inception_4b/5x5"
  top: "inception_4b/5x5"
}
layer {
  name: "inception_4b/pool"
  type: "Pooling"
  bottom: "inception_4a/output"
  top: "inception_4b/pool"
  pooling_param {
    pool: MAX
    kernel_size: 3
    stride: 1
    pad: 1
  }
}
layer {
  name: "inception_4b/pool_proj"
  type: "Convolution"
  bottom: "inception_4b/pool"
  top: "inception_4b/pool_proj"
  param {
    lr_mult: 1
    decay_mult: 1
  }
  param {
    lr_mult: 2
    decay_mult: 0
  }
  convolution_param {
    num_output: 64
    kernel_size: 1
    weight_filler {
      type: "xavier"
      std: 0.1
    }
    bias_filler {
      type: "constant"
      value: 0.2
    }
  }
}
layer {
  name: "inception_4b/relu_pool_proj"
  type: "ReLU"
  bottom: "inception_4b/pool_proj"
  top: "inception_4b/pool_proj"
}
layer {
  name: "inception_4b/output"
  type: "Concat"
  bottom: "inception_4b/1x1"
  bottom: "inception_4b/3x3"
  bottom: "inception_4b/5x5"
  bottom: "inception_4b/pool_proj"
  top: "inception_4b/output"
}
layer {
  name: "inception_4c/1x1"
  type: "Convolution"
  bottom: "inception_4b/output"
  top: "inception_4c/1x1"
  param {
    lr_mult: 1
    decay_mult: 1
  }
  param {
    lr_mult: 2
    decay_mult: 0
  }
  convolution_param {
    num_output: 128
    kernel_size: 1
    weight_filler {
      type: "xavier"
      std: 0.03
    }
    bias_filler {
      type: "constant"
      value: 0.2
    }
  }
}
layer {
  name: "inception_4c/relu_1x1"
  type: "ReLU"
  bottom: "inception_4c/1x1"
  top: "inception_4c/1x1"
}
layer {
  name: "inception_4c/3x3_reduce"
  type: "Convolution"
  bottom: "inception_4b/output"
  top: "inception_4c/3x3_reduce"
  param {
    lr_mult: 1
    decay_mult: 1
  }
  param {
    lr_mult: 2
    decay_mult: 0
  }
  convolution_param {
    num_output: 128
    kernel_size: 1
    weight_filler {
      type: "xavier"
      std: 0.09
    }
    bias_filler {
      type: "constant"
      value: 0.2
    }
  }
}
layer {
  name: "inception_4c/relu_3x3_reduce"
  type: "ReLU"
  bottom: "inception_4c/3x3_reduce"
  top: "inception_4c/3x3_reduce"
}
layer {
  name: "inception_4c/3x3"
  type: "Convolution"
  bottom: "inception_4c/3x3_reduce"
  top: "inception_4c/3x3"
  param {
    lr_mult: 1
    decay_mult: 1
  }
  param {
    lr_mult: 2
    decay_mult: 0
  }
  convolution_param {
    num_output: 256
    pad: 1
    kernel_size: 3
    weight_filler {
      type: "xavier"
      std: 0.03
    }
    bias_filler {
      type: "constant"
      value: 0.2
    }
  }
}
layer {
  name: "inception_4c/relu_3x3"
  type: "ReLU"
  bottom: "inception_4c/3x3"
  top: "inception_4c/3x3"
}
layer {
  name: "inception_4c/5x5_reduce"
  type: "Convolution"
  bottom: "inception_4b/output"
  top: "inception_4c/5x5_reduce"
  param {
    lr_mult: 1
    decay_mult: 1
  }
  param {
    lr_mult: 2
    decay_mult: 0
  }
  convolution_param {
    num_output: 24
    kernel_size: 1
    weight_filler {
      type: "xavier"
      std: 0.2
    }
    bias_filler {
      type: "constant"
      value: 0.2
    }
  }
}
layer {
  name: "inception_4c/relu_5x5_reduce"
  type: "ReLU"
  bottom: "inception_4c/5x5_reduce"
  top: "inception_4c/5x5_reduce"
}
layer {
  name: "inception_4c/5x5"
  type: "Convolution"
  bottom: "inception_4c/5x5_reduce"
  top: "inception_4c/5x5"
  param {
    lr_mult: 1
    decay_mult: 1
  }
  param {
    lr_mult: 2
    decay_mult: 0
  }
  convolution_param {
    num_output: 64
    pad: 2
    kernel_size: 5
    weight_filler {
      type: "xavier"
      std: 0.03
    }
    bias_filler {
      type: "constant"
      value: 0.2
    }
  }
}
layer {
  name: "inception_4c/relu_5x5"
  type: "ReLU"
  bottom: "inception_4c/5x5"
  top: "inception_4c/5x5"
}
layer {
  name: "inception_4c/pool"
  type: "Pooling"
  bottom: "inception_4b/output"
  top: "inception_4c/pool"
  pooling_param {
    pool: MAX
    kernel_size: 3
    stride: 1
    pad: 1
  }
}
layer {
  name: "inception_4c/pool_proj"
  type: "Convolution"
  bottom: "inception_4c/pool"
  top: "inception_4c/pool_proj"
  param {
    lr_mult: 1
    decay_mult: 1
  }
  param {
    lr_mult: 2
    decay_mult: 0
  }
  convolution_param {
    num_output: 64
    kernel_size: 1
    weight_filler {
      type: "xavier"
      std: 0.1
    }
    bias_filler {
      type: "constant"
      value: 0.2
    }
  }
}
layer {
  name: "inception_4c/relu_pool_proj"
  type: "ReLU"
  bottom: "inception_4c/pool_proj"
  top: "inception_4c/pool_proj"
}
layer {
  name: "inception_4c/output"
  type: "Concat"
  bottom: "inception_4c/1x1"
  bottom: "inception_4c/3x3"
  bottom: "inception_4c/5x5"
  bottom: "inception_4c/pool_proj"
  top: "inception_4c/output"
}
layer {
  name: "inception_4d/1x1"
  type: "Convolution"
  bottom: "inception_4c/output"
  top: "inception_4d/1x1"
  param {
    lr_mult: 1
    decay_mult: 1
  }
  param {
    lr_mult: 2
    decay_mult: 0
  }
  convolution_param {
    num_output: 112
    kernel_size: 1
    weight_filler {
      type: "xavier"
      std: 0.03
    }
    bias_filler {
      type: "constant"
      value: 0.2
    }
  }
}
layer {
  name: "inception_4d/relu_1x1"
  type: "ReLU"
  bottom: "inception_4d/1x1"
  top: "inception_4d/1x1"
}
layer {
  name: "inception_4d/3x3_reduce"
  type: "Convolution"
  bottom: "inception_4c/output"
  top: "inception_4d/3x3_reduce"
  param {
    lr_mult: 1
    decay_mult: 1
  }
  param {
    lr_mult: 2
    decay_mult: 0
  }
  convolution_param {
    num_output: 144
    kernel_size: 1
    weight_filler {
      type: "xavier"
      std: 0.09
    }
    bias_filler {
      type: "constant"
      value: 0.2
    }
  }
}
layer {
  name: "inception_4d/relu_3x3_reduce"
  type: "ReLU"
  bottom: "inception_4d/3x3_reduce"
  top: "inception_4d/3x3_reduce"
}
layer {
  name: "inception_4d/3x3"
  type: "Convolution"
  bottom: "inception_4d/3x3_reduce"
  top: "inception_4d/3x3"
  param {
    lr_mult: 1
    decay_mult: 1
  }
  param {
    lr_mult: 2
    decay_mult: 0
  }
  convolution_param {
    num_output: 288
    pad: 1
    kernel_size: 3
    weight_filler {
      type: "xavier"
      std: 0.03
    }
    bias_filler {
      type: "constant"
      value: 0.2
    }
  }
}
layer {
  name: "inception_4d/relu_3x3"
  type: "ReLU"
  bottom: "inception_4d/3x3"
  top: "inception_4d/3x3"
}
layer {
  name: "inception_4d/5x5_reduce"
  type: "Convolution"
  bottom: "inception_4c/output"
  top: "inception_4d/5x5_reduce"
  param {
    lr_mult: 1
    decay_mult: 1
  }
  param {
    lr_mult: 2
    decay_mult: 0
  }
  convolution_param {
    num_output: 32
    kernel_size: 1
    weight_filler {
      type: "xavier"
      std: 0.2
    }
    bias_filler {
      type: "constant"
      value: 0.2
    }
  }
}
layer {
  name: "inception_4d/relu_5x5_reduce"
  type: "ReLU"
  bottom: "inception_4d/5x5_reduce"
  top: "inception_4d/5x5_reduce"
}
layer {
  name: "inception_4d/5x5"
  type: "Convolution"
  bottom: "inception_4d/5x5_reduce"
  top: "inception_4d/5x5"
  param {
    lr_mult: 1
    decay_mult: 1
  }
  param {
    lr_mult: 2
    decay_mult: 0
  }
  convolution_param {
    num_output: 64
    pad: 2
    kernel_size: 5
    weight_filler {
      type: "xavier"
      std: 0.03
    }
    bias_filler {
      type: "constant"
      value: 0.2
    }
  }
}
layer {
  name: "inception_4d/relu_5x5"
  type: "ReLU"
  bottom: "inception_4d/5x5"
  top: "inception_4d/5x5"
}
layer {
  name: "inception_4d/pool"
  type: "Pooling"
  bottom: "inception_4c/output"
  top: "inception_4d/pool"
  pooling_param {
    pool: MAX
    kernel_size: 3
    stride: 1
    pad: 1
  }
}
layer {
  name: "inception_4d/pool_proj"
  type: "Convolution"
  bottom: "inception_4d/pool"
  top: "inception_4d/pool_proj"
  param {
    lr_mult: 1
    decay_mult: 1
  }
  param {
    lr_mult: 2
    decay_mult: 0
  }
  convolution_param {
    num_output: 64
    kernel_size: 1
    weight_filler {
      type: "xavier"
      std: 0.1
    }
    bias_filler {
      type: "constant"
      value: 0.2
    }
  }
}
layer {
  name: "inception_4d/relu_pool_proj"
  type: "ReLU"
  bottom: "inception_4d/pool_proj"
  top: "inception_4d/pool_proj"
}
layer {
  name: "inception_4d/output"
  type: "Concat"
  bottom: "inception_4d/1x1"
  bottom: "inception_4d/3x3"
  bottom: "inception_4d/5x5"
  bottom: "inception_4d/pool_proj"
  top: "inception_4d/output"
}
layer {
  name: "loss2/ave_pool"
  type: "Pooling"
  bottom: "inception_4d/output"
  top: "loss2/ave_pool"
  pooling_param {
    pool: AVE
    kernel_size: 5
    stride: 3
  }
}
layer {
  name: "loss2/conv"
  type: "Convolution"
  bottom: "loss2/ave_pool"
  top: "loss2/conv"
  param {
    lr_mult: 1
    decay_mult: 1
  }
  param {
    lr_mult: 2
    decay_mult: 0
  }
  convolution_param {
    num_output: 128
    kernel_size: 1
    weight_filler {
      type: "xavier"
      std: 0.08
    }
    bias_filler {
      type: "constant"
      value: 0.2
    }
  }
}
layer {
  name: "loss2/relu_conv"
  type: "ReLU"
  bottom: "loss2/conv"
  top: "loss2/conv"
}
layer {
  name: "loss2/fc"
  type: "InnerProduct"
  bottom: "loss2/conv"
  top: "loss2/fc"
  param {
    lr_mult: 1
    decay_mult: 1
  }
  param {
    lr_mult: 2
    decay_mult: 0
  }
  inner_product_param {
    num_output: 1024
    weight_filler {
      type: "xavier"
      std: 0.02
    }
    bias_filler {
      type: "constant"
      value: 0.2
    }
  }
}
layer {
  name: "loss2/relu_fc"
  type: "ReLU"
  bottom: "loss2/fc"
  top: "loss2/fc"
}
layer {
  name: "loss2/drop_fc"
  type: "Dropout"
  bottom: "loss2/fc"
  top: "loss2/fc"
  dropout_param {
    dropout_ratio: 0.7
  }
}
layer {
  name: "loss2/classifier_plantvillage"
  type: "InnerProduct"
  bottom: "loss2/fc"
  top: "loss2/classifier_plantvillage"
  param {
    lr_mult: 1
    decay_mult: 1
  }
  param {
    lr_mult: 2
    decay_mult: 0
  }
  inner_product_param {
    num_output: 38
    weight_filler {
      type: "xavier"
      std: 0.0009765625
    }
    bias_filler {
      type: "constant"
      value: 0
    }
  }
}
layer {
  name: "inception_4e/1x1"
  type: "Convolution"
  bottom: "inception_4d/output"
  top: "inception_4e/1x1"
  param {
    lr_mult: 1
    decay_mult: 1
  }
  param {
    lr_mult: 2
    decay_mult: 0
  }
  convolution_param {
    num_output: 256
    kernel_size: 1
    weight_filler {
      type: "xavier"
      std: 0.03
    }
    bias_filler {
      type: "constant"
      value: 0.2
    }
  }
}
layer {
  name: "inception_4e/relu_1x1"
  type: "ReLU"
  bottom: "inception_4e/1x1"
  top: "inception_4e/1x1"
}
layer {
  name: "inception_4e/3x3_reduce"
  type: "Convolution"
  bottom: "inception_4d/output"
  top: "inception_4e/3x3_reduce"
  param {
    lr_mult: 1
    decay_mult: 1
  }
  param {
    lr_mult: 2
    decay_mult: 0
  }
  convolution_param {
    num_output: 160
    kernel_size: 1
    weight_filler {
      type: "xavier"
      std: 0.09
    }
    bias_filler {
      type: "constant"
      value: 0.2
    }
  }
}
layer {
  name: "inception_4e/relu_3x3_reduce"
  type: "ReLU"
  bottom: "inception_4e/3x3_reduce"
  top: "inception_4e/3x3_reduce"
}
layer {
  name: "inception_4e/3x3"
  type: "Convolution"
  bottom: "inception_4e/3x3_reduce"
  top: "inception_4e/3x3"
  param {
    lr_mult: 1
    decay_mult: 1
  }
  param {
    lr_mult: 2
    decay_mult: 0
  }
  convolution_param {
    num_output: 320
    pad: 1
    kernel_size: 3
    weight_filler {
      type: "xavier"
      std: 0.03
    }
    bias_filler {
      type: "constant"
      value: 0.2
    }
  }
}
layer {
  name: "inception_4e/relu_3x3"
  type: "ReLU"
  bottom: "inception_4e/3x3"
  top: "inception_4e/3x3"
}
layer {
  name: "inception_4e/5x5_reduce"
  type: "Convolution"
  bottom: "inception_4d/output"
  top: "inception_4e/5x5_reduce"
  param {
    lr_mult: 1
    decay_mult: 1
  }
  param {
    lr_mult: 2
    decay_mult: 0
  }
  convolution_param {
    num_output: 32
    kernel_size: 1
    weight_filler {
      type: "xavier"
      std: 0.2
    }
    bias_filler {
      type: "constant"
      value: 0.2
    }
  }
}
layer {
  name: "inception_4e/relu_5x5_reduce"
  type: "ReLU"
  bottom: "inception_4e/5x5_reduce"
  top: "inception_4e/5x5_reduce"
}
layer {
  name: "inception_4e/5x5"
  type: "Convolution"
  bottom: "inception_4e/5x5_reduce"
  top: "inception_4e/5x5"
  p
I0403 15:23:34.466503 31699 layer_factory.hpp:77] Creating layer data
I0403 15:23:34.467103 31699 net.cpp:91] Creating Layer data
I0403 15:23:34.467136 31699 net.cpp:399] data -> data
I0403 15:23:34.467190 31699 net.cpp:399] data -> label
I0403 15:23:34.467226 31699 data_transformer.cpp:25] Loading mean file from: /home/mohanty/data/final_dataset/lmdb/color-60-40/mean.binaryproto
I0403 15:23:34.471310 31701 db_lmdb.cpp:38] Opened lmdb /home/mohanty/data/final_dataset/lmdb/color-60-40/test_db
I0403 15:23:34.490015 31699 data_layer.cpp:41] output data size: 24,3,224,224
I0403 15:23:34.521306 31699 net.cpp:141] Setting up data
I0403 15:23:34.521390 31699 net.cpp:148] Top shape: 24 3 224 224 (3612672)
I0403 15:23:34.521415 31699 net.cpp:148] Top shape: 24 (24)
I0403 15:23:34.521432 31699 net.cpp:156] Memory required for data: 14450784
I0403 15:23:34.521461 31699 layer_factory.hpp:77] Creating layer label_data_1_split
I0403 15:23:34.521488 31699 net.cpp:91] Creating Layer label_data_1_split
I0403 15:23:34.521507 31699 net.cpp:425] label_data_1_split <- label
I0403 15:23:34.521540 31699 net.cpp:399] label_data_1_split -> label_data_1_split_0
I0403 15:23:34.521569 31699 net.cpp:399] label_data_1_split -> label_data_1_split_1
I0403 15:23:34.521592 31699 net.cpp:399] label_data_1_split -> label_data_1_split_2
I0403 15:23:34.521615 31699 net.cpp:399] label_data_1_split -> label_data_1_split_3
I0403 15:23:34.521636 31699 net.cpp:399] label_data_1_split -> label_data_1_split_4
I0403 15:23:34.521654 31699 net.cpp:399] label_data_1_split -> label_data_1_split_5
I0403 15:23:34.521674 31699 net.cpp:399] label_data_1_split -> label_data_1_split_6
I0403 15:23:34.521697 31699 net.cpp:399] label_data_1_split -> label_data_1_split_7
I0403 15:23:34.521716 31699 net.cpp:399] label_data_1_split -> label_data_1_split_8
I0403 15:23:34.521738 31699 net.cpp:399] label_data_1_split -> label_data_1_split_9
I0403 15:23:34.521855 31699 net.cpp:141] Setting up label_data_1_split
I0403 15:23:34.521879 31699 net.cpp:148] Top shape: 24 (24)
I0403 15:23:34.521898 31699 net.cpp:148] Top shape: 24 (24)
I0403 15:23:34.521914 31699 net.cpp:148] Top shape: 24 (24)
I0403 15:23:34.521931 31699 net.cpp:148] Top shape: 24 (24)
I0403 15:23:34.521947 31699 net.cpp:148] Top shape: 24 (24)
I0403 15:23:34.521965 31699 net.cpp:148] Top shape: 24 (24)
I0403 15:23:34.521981 31699 net.cpp:148] Top shape: 24 (24)
I0403 15:23:34.521997 31699 net.cpp:148] Top shape: 24 (24)
I0403 15:23:34.522014 31699 net.cpp:148] Top shape: 24 (24)
I0403 15:23:34.522032 31699 net.cpp:148] Top shape: 24 (24)
I0403 15:23:34.522078 31699 net.cpp:156] Memory required for data: 14451744
I0403 15:23:34.522095 31699 layer_factory.hpp:77] Creating layer conv1/7x7_s2
I0403 15:23:34.522128 31699 net.cpp:91] Creating Layer conv1/7x7_s2
I0403 15:23:34.522148 31699 net.cpp:425] conv1/7x7_s2 <- data
I0403 15:23:34.522168 31699 net.cpp:399] conv1/7x7_s2 -> conv1/7x7_s2
I0403 15:23:34.673388 31699 net.cpp:141] Setting up conv1/7x7_s2
I0403 15:23:34.673462 31699 net.cpp:148] Top shape: 24 64 112 112 (19267584)
I0403 15:23:34.673481 31699 net.cpp:156] Memory required for data: 91522080
I0403 15:23:34.673514 31699 layer_factory.hpp:77] Creating layer conv1/relu_7x7
I0403 15:23:34.673542 31699 net.cpp:91] Creating Layer conv1/relu_7x7
I0403 15:23:34.673562 31699 net.cpp:425] conv1/relu_7x7 <- conv1/7x7_s2
I0403 15:23:34.673583 31699 net.cpp:386] conv1/relu_7x7 -> conv1/7x7_s2 (in-place)
I0403 15:23:34.673840 31699 net.cpp:141] Setting up conv1/relu_7x7
I0403 15:23:34.673867 31699 net.cpp:148] Top shape: 24 64 112 112 (19267584)
I0403 15:23:34.673883 31699 net.cpp:156] Memory required for data: 168592416
I0403 15:23:34.673899 31699 layer_factory.hpp:77] Creating layer pool1/3x3_s2
I0403 15:23:34.673925 31699 net.cpp:91] Creating Layer pool1/3x3_s2
I0403 15:23:34.673943 31699 net.cpp:425] pool1/3x3_s2 <- conv1/7x7_s2
I0403 15:23:34.673962 31699 net.cpp:399] pool1/3x3_s2 -> pool1/3x3_s2
I0403 15:23:34.674036 31699 net.cpp:141] Setting up pool1/3x3_s2
I0403 15:23:34.674063 31699 net.cpp:148] Top shape: 24 64 56 56 (4816896)
I0403 15:23:34.674078 31699 net.cpp:156] Memory required for data: 187860000
I0403 15:23:34.674094 31699 layer_factory.hpp:77] Creating layer pool1/norm1
I0403 15:23:34.674118 31699 net.cpp:91] Creating Layer pool1/norm1
I0403 15:23:34.674136 31699 net.cpp:425] pool1/norm1 <- pool1/3x3_s2
I0403 15:23:34.674155 31699 net.cpp:399] pool1/norm1 -> pool1/norm1
I0403 15:23:34.674474 31699 net.cpp:141] Setting up pool1/norm1
I0403 15:23:34.674504 31699 net.cpp:148] Top shape: 24 64 56 56 (4816896)
I0403 15:23:34.674521 31699 net.cpp:156] Memory required for data: 207127584
I0403 15:23:34.674549 31699 layer_factory.hpp:77] Creating layer conv2/3x3_reduce
I0403 15:23:34.674574 31699 net.cpp:91] Creating Layer conv2/3x3_reduce
I0403 15:23:34.674592 31699 net.cpp:425] conv2/3x3_reduce <- pool1/norm1
I0403 15:23:34.674612 31699 net.cpp:399] conv2/3x3_reduce -> conv2/3x3_reduce
I0403 15:23:34.675978 31699 net.cpp:141] Setting up conv2/3x3_reduce
I0403 15:23:34.676009 31699 net.cpp:148] Top shape: 24 64 56 56 (4816896)
I0403 15:23:34.676026 31699 net.cpp:156] Memory required for data: 226395168
I0403 15:23:34.676048 31699 layer_factory.hpp:77] Creating layer conv2/relu_3x3_reduce
I0403 15:23:34.676067 31699 net.cpp:91] Creating Layer conv2/relu_3x3_reduce
I0403 15:23:34.676084 31699 net.cpp:425] conv2/relu_3x3_reduce <- conv2/3x3_reduce
I0403 15:23:34.676101 31699 net.cpp:386] conv2/relu_3x3_reduce -> conv2/3x3_reduce (in-place)
I0403 15:23:34.676364 31699 net.cpp:141] Setting up conv2/relu_3x3_reduce
I0403 15:23:34.676393 31699 net.cpp:148] Top shape: 24 64 56 56 (4816896)
I0403 15:23:34.676409 31699 net.cpp:156] Memory required for data: 245662752
I0403 15:23:34.676424 31699 layer_factory.hpp:77] Creating layer conv2/3x3
I0403 15:23:34.676447 31699 net.cpp:91] Creating Layer conv2/3x3
I0403 15:23:34.676465 31699 net.cpp:425] conv2/3x3 <- conv2/3x3_reduce
I0403 15:23:34.676484 31699 net.cpp:399] conv2/3x3 -> conv2/3x3
I0403 15:23:34.678890 31699 net.cpp:141] Setting up conv2/3x3
I0403 15:23:34.678926 31699 net.cpp:148] Top shape: 24 192 56 56 (14450688)
I0403 15:23:34.678944 31699 net.cpp:156] Memory required for data: 303465504
I0403 15:23:34.678967 31699 layer_factory.hpp:77] Creating layer conv2/relu_3x3
I0403 15:23:34.678987 31699 net.cpp:91] Creating Layer conv2/relu_3x3
I0403 15:23:34.679005 31699 net.cpp:425] conv2/relu_3x3 <- conv2/3x3
I0403 15:23:34.679023 31699 net.cpp:386] conv2/relu_3x3 -> conv2/3x3 (in-place)
I0403 15:23:34.679213 31699 net.cpp:141] Setting up conv2/relu_3x3
I0403 15:23:34.679239 31699 net.cpp:148] Top shape: 24 192 56 56 (14450688)
I0403 15:23:34.679294 31699 net.cpp:156] Memory required for data: 361268256
I0403 15:23:34.679311 31699 layer_factory.hpp:77] Creating layer conv2/norm2
I0403 15:23:34.679333 31699 net.cpp:91] Creating Layer conv2/norm2
I0403 15:23:34.679352 31699 net.cpp:425] conv2/norm2 <- conv2/3x3
I0403 15:23:34.679373 31699 net.cpp:399] conv2/norm2 -> conv2/norm2
I0403 15:23:34.679695 31699 net.cpp:141] Setting up conv2/norm2
I0403 15:23:34.679724 31699 net.cpp:148] Top shape: 24 192 56 56 (14450688)
I0403 15:23:34.679740 31699 net.cpp:156] Memory required for data: 419071008
I0403 15:23:34.679756 31699 layer_factory.hpp:77] Creating layer pool2/3x3_s2
I0403 15:23:34.679777 31699 net.cpp:91] Creating Layer pool2/3x3_s2
I0403 15:23:34.679795 31699 net.cpp:425] pool2/3x3_s2 <- conv2/norm2
I0403 15:23:34.679814 31699 net.cpp:399] pool2/3x3_s2 -> pool2/3x3_s2
I0403 15:23:34.679872 31699 net.cpp:141] Setting up pool2/3x3_s2
I0403 15:23:34.679895 31699 net.cpp:148] Top shape: 24 192 28 28 (3612672)
I0403 15:23:34.679911 31699 net.cpp:156] Memory required for data: 433521696
I0403 15:23:34.679929 31699 layer_factory.hpp:77] Creating layer pool2/3x3_s2_pool2/3x3_s2_0_split
I0403 15:23:34.679947 31699 net.cpp:91] Creating Layer pool2/3x3_s2_pool2/3x3_s2_0_split
I0403 15:23:34.679963 31699 net.cpp:425] pool2/3x3_s2_pool2/3x3_s2_0_split <- pool2/3x3_s2
I0403 15:23:34.679985 31699 net.cpp:399] pool2/3x3_s2_pool2/3x3_s2_0_split -> pool2/3x3_s2_pool2/3x3_s2_0_split_0
I0403 15:23:34.680006 31699 net.cpp:399] pool2/3x3_s2_pool2/3x3_s2_0_split -> pool2/3x3_s2_pool2/3x3_s2_0_split_1
I0403 15:23:34.680027 31699 net.cpp:399] pool2/3x3_s2_pool2/3x3_s2_0_split -> pool2/3x3_s2_pool2/3x3_s2_0_split_2
I0403 15:23:34.680048 31699 net.cpp:399] pool2/3x3_s2_pool2/3x3_s2_0_split -> pool2/3x3_s2_pool2/3x3_s2_0_split_3
I0403 15:23:34.680152 31699 net.cpp:141] Setting up pool2/3x3_s2_pool2/3x3_s2_0_split
I0403 15:23:34.680181 31699 net.cpp:148] Top shape: 24 192 28 28 (3612672)
I0403 15:23:34.680200 31699 net.cpp:148] Top shape: 24 192 28 28 (3612672)
I0403 15:23:34.680218 31699 net.cpp:148] Top shape: 24 192 28 28 (3612672)
I0403 15:23:34.680234 31699 net.cpp:148] Top shape: 24 192 28 28 (3612672)
I0403 15:23:34.680249 31699 net.cpp:156] Memory required for data: 491324448
I0403 15:23:34.680271 31699 layer_factory.hpp:77] Creating layer inception_3a/1x1
I0403 15:23:34.680295 31699 net.cpp:91] Creating Layer inception_3a/1x1
I0403 15:23:34.680313 31699 net.cpp:425] inception_3a/1x1 <- pool2/3x3_s2_pool2/3x3_s2_0_split_0
I0403 15:23:34.680336 31699 net.cpp:399] inception_3a/1x1 -> inception_3a/1x1
I0403 15:23:34.681988 31699 net.cpp:141] Setting up inception_3a/1x1
I0403 15:23:34.682018 31699 net.cpp:148] Top shape: 24 64 28 28 (1204224)
I0403 15:23:34.682035 31699 net.cpp:156] Memory required for data: 496141344
I0403 15:23:34.682055 31699 layer_factory.hpp:77] Creating layer inception_3a/relu_1x1
I0403 15:23:34.682077 31699 net.cpp:91] Creating Layer inception_3a/relu_1x1
I0403 15:23:34.682096 31699 net.cpp:425] inception_3a/relu_1x1 <- inception_3a/1x1
I0403 15:23:34.682116 31699 net.cpp:386] inception_3a/relu_1x1 -> inception_3a/1x1 (in-place)
I0403 15:23:34.682307 31699 net.cpp:141] Setting up inception_3a/relu_1x1
I0403 15:23:34.682337 31699 net.cpp:148] Top shape: 24 64 28 28 (1204224)
I0403 15:23:34.682353 31699 net.cpp:156] Memory required for data: 500958240
I0403 15:23:34.682368 31699 layer_factory.hpp:77] Creating layer inception_3a/3x3_reduce
I0403 15:23:34.682392 31699 net.cpp:91] Creating Layer inception_3a/3x3_reduce
I0403 15:23:34.682411 31699 net.cpp:425] inception_3a/3x3_reduce <- pool2/3x3_s2_pool2/3x3_s2_0_split_1
I0403 15:23:34.682431 31699 net.cpp:399] inception_3a/3x3_reduce -> inception_3a/3x3_reduce
I0403 15:23:34.684207 31699 net.cpp:141] Setting up inception_3a/3x3_reduce
I0403 15:23:34.684238 31699 net.cpp:148] Top shape: 24 96 28 28 (1806336)
I0403 15:23:34.684268 31699 net.cpp:156] Memory required for data: 508183584
I0403 15:23:34.684298 31699 layer_factory.hpp:77] Creating layer inception_3a/relu_3x3_reduce
I0403 15:23:34.684337 31699 net.cpp:91] Creating Layer inception_3a/relu_3x3_reduce
I0403 15:23:34.684357 31699 net.cpp:425] inception_3a/relu_3x3_reduce <- inception_3a/3x3_reduce
I0403 15:23:34.684379 31699 net.cpp:386] inception_3a/relu_3x3_reduce -> inception_3a/3x3_reduce (in-place)
I0403 15:23:34.684566 31699 net.cpp:141] Setting up inception_3a/relu_3x3_reduce
I0403 15:23:34.684593 31699 net.cpp:148] Top shape: 24 96 28 28 (1806336)
I0403 15:23:34.684609 31699 net.cpp:156] Memory required for data: 515408928
I0403 15:23:34.684624 31699 layer_factory.hpp:77] Creating layer inception_3a/3x3
I0403 15:23:34.684649 31699 net.cpp:91] Creating Layer inception_3a/3x3
I0403 15:23:34.684669 31699 net.cpp:425] inception_3a/3x3 <- inception_3a/3x3_reduce
I0403 15:23:34.684692 31699 net.cpp:399] inception_3a/3x3 -> inception_3a/3x3
I0403 15:23:34.686425 31699 net.cpp:141] Setting up inception_3a/3x3
I0403 15:23:34.686463 31699 net.cpp:148] Top shape: 24 128 28 28 (2408448)
I0403 15:23:34.686481 31699 net.cpp:156] Memory required for data: 525042720
I0403 15:23:34.686502 31699 layer_factory.hpp:77] Creating layer inception_3a/relu_3x3
I0403 15:23:34.686522 31699 net.cpp:91] Creating Layer inception_3a/relu_3x3
I0403 15:23:34.686537 31699 net.cpp:425] inception_3a/relu_3x3 <- inception_3a/3x3
I0403 15:23:34.686558 31699 net.cpp:386] inception_3a/relu_3x3 -> inception_3a/3x3 (in-place)
I0403 15:23:34.686843 31699 net.cpp:141] Setting up inception_3a/relu_3x3
I0403 15:23:34.686873 31699 net.cpp:148] Top shape: 24 128 28 28 (2408448)
I0403 15:23:34.686892 31699 net.cpp:156] Memory required for data: 534676512
I0403 15:23:34.686908 31699 layer_factory.hpp:77] Creating layer inception_3a/5x5_reduce
I0403 15:23:34.686931 31699 net.cpp:91] Creating Layer inception_3a/5x5_reduce
I0403 15:23:34.686950 31699 net.cpp:425] inception_3a/5x5_reduce <- pool2/3x3_s2_pool2/3x3_s2_0_split_2
I0403 15:23:34.686970 31699 net.cpp:399] inception_3a/5x5_reduce -> inception_3a/5x5_reduce
I0403 15:23:34.687973 31699 net.cpp:141] Setting up inception_3a/5x5_reduce
I0403 15:23:34.688004 31699 net.cpp:148] Top shape: 24 16 28 28 (301056)
I0403 15:23:34.688022 31699 net.cpp:156] Memory required for data: 535880736
I0403 15:23:34.688043 31699 layer_factory.hpp:77] Creating layer inception_3a/relu_5x5_reduce
I0403 15:23:34.688062 31699 net.cpp:91] Creating Layer inception_3a/relu_5x5_reduce
I0403 15:23:34.688078 31699 net.cpp:425] inception_3a/relu_5x5_reduce <- inception_3a/5x5_reduce
I0403 15:23:34.688099 31699 net.cpp:386] inception_3a/relu_5x5_reduce -> inception_3a/5x5_reduce (in-place)
I0403 15:23:34.688408 31699 net.cpp:141] Setting up inception_3a/relu_5x5_reduce
I0403 15:23:34.688436 31699 net.cpp:148] Top shape: 24 16 28 28 (301056)
I0403 15:23:34.688453 31699 net.cpp:156] Memory required for data: 537084960
I0403 15:23:34.688470 31699 layer_factory.hpp:77] Creating layer inception_3a/5x5
I0403 15:23:34.688498 31699 net.cpp:91] Creating Layer inception_3a/5x5
I0403 15:23:34.688515 31699 net.cpp:425] inception_3a/5x5 <- inception_3a/5x5_reduce
I0403 15:23:34.688537 31699 net.cpp:399] inception_3a/5x5 -> inception_3a/5x5
I0403 15:23:34.689585 31699 net.cpp:141] Setting up inception_3a/5x5
I0403 15:23:34.689615 31699 net.cpp:148] Top shape: 24 32 28 28 (602112)
I0403 15:23:34.689630 31699 net.cpp:156] Memory required for data: 539493408
I0403 15:23:34.689651 31699 layer_factory.hpp:77] Creating layer inception_3a/relu_5x5
I0403 15:23:34.689672 31699 net.cpp:91] Creating Layer inception_3a/relu_5x5
I0403 15:23:34.689689 31699 net.cpp:425] inception_3a/relu_5x5 <- inception_3a/5x5
I0403 15:23:34.689708 31699 net.cpp:386] inception_3a/relu_5x5 -> inception_3a/5x5 (in-place)
I0403 15:23:34.689893 31699 net.cpp:141] Setting up inception_3a/relu_5x5
I0403 15:23:34.689920 31699 net.cpp:148] Top shape: 24 32 28 28 (602112)
I0403 15:23:34.689936 31699 net.cpp:156] Memory required for data: 541901856
I0403 15:23:34.689952 31699 layer_factory.hpp:77] Creating layer inception_3a/pool
I0403 15:23:34.689971 31699 net.cpp:91] Creating Layer inception_3a/pool
I0403 15:23:34.689988 31699 net.cpp:425] inception_3a/pool <- pool2/3x3_s2_pool2/3x3_s2_0_split_3
I0403 15:23:34.690026 31699 net.cpp:399] inception_3a/pool -> inception_3a/pool
I0403 15:23:34.690086 31699 net.cpp:141] Setting up inception_3a/pool
I0403 15:23:34.690111 31699 net.cpp:148] Top shape: 24 192 28 28 (3612672)
I0403 15:23:34.690127 31699 net.cpp:156] Memory required for data: 556352544
I0403 15:23:34.690143 31699 layer_factory.hpp:77] Creating layer inception_3a/pool_proj
I0403 15:23:34.690171 31699 net.cpp:91] Creating Layer inception_3a/pool_proj
I0403 15:23:34.690189 31699 net.cpp:425] inception_3a/pool_proj <- inception_3a/pool
I0403 15:23:34.690209 31699 net.cpp:399] inception_3a/pool_proj -> inception_3a/pool_proj
I0403 15:23:34.691213 31699 net.cpp:141] Setting up inception_3a/pool_proj
I0403 15:23:34.691243 31699 net.cpp:148] Top shape: 24 32 28 28 (602112)
I0403 15:23:34.691267 31699 net.cpp:156] Memory required for data: 558760992
I0403 15:23:34.691295 31699 layer_factory.hpp:77] Creating layer inception_3a/relu_pool_proj
I0403 15:23:34.691315 31699 net.cpp:91] Creating Layer inception_3a/relu_pool_proj
I0403 15:23:34.691331 31699 net.cpp:425] inception_3a/relu_pool_proj <- inception_3a/pool_proj
I0403 15:23:34.691352 31699 net.cpp:386] inception_3a/relu_pool_proj -> inception_3a/pool_proj (in-place)
I0403 15:23:34.691639 31699 net.cpp:141] Setting up inception_3a/relu_pool_proj
I0403 15:23:34.691668 31699 net.cpp:148] Top shape: 24 32 28 28 (602112)
I0403 15:23:34.691687 31699 net.cpp:156] Memory required for data: 561169440
I0403 15:23:34.691704 31699 layer_factory.hpp:77] Creating layer inception_3a/output
I0403 15:23:34.691723 31699 net.cpp:91] Creating Layer inception_3a/output
I0403 15:23:34.691740 31699 net.cpp:425] inception_3a/output <- inception_3a/1x1
I0403 15:23:34.691758 31699 net.cpp:425] inception_3a/output <- inception_3a/3x3
I0403 15:23:34.691776 31699 net.cpp:425] inception_3a/output <- inception_3a/5x5
I0403 15:23:34.691793 31699 net.cpp:425] inception_3a/output <- inception_3a/pool_proj
I0403 15:23:34.691810 31699 net.cpp:399] inception_3a/output -> inception_3a/output
I0403 15:23:34.691859 31699 net.cpp:141] Setting up inception_3a/output
I0403 15:23:34.691884 31699 net.cpp:148] Top shape: 24 256 28 28 (4816896)
I0403 15:23:34.691900 31699 net.cpp:156] Memory required for data: 580437024
I0403 15:23:34.691915 31699 layer_factory.hpp:77] Creating layer inception_3a/output_inception_3a/output_0_split
I0403 15:23:34.691933 31699 net.cpp:91] Creating Layer inception_3a/output_inception_3a/output_0_split
I0403 15:23:34.691951 31699 net.cpp:425] inception_3a/output_inception_3a/output_0_split <- inception_3a/output
I0403 15:23:34.691972 31699 net.cpp:399] inception_3a/output_inception_3a/output_0_split -> inception_3a/output_inception_3a/output_0_split_0
I0403 15:23:34.691993 31699 net.cpp:399] inception_3a/output_inception_3a/output_0_split -> inception_3a/output_inception_3a/output_0_split_1
I0403 15:23:34.692019 31699 net.cpp:399] inception_3a/output_inception_3a/output_0_split -> inception_3a/output_inception_3a/output_0_split_2
I0403 15:23:34.692041 31699 net.cpp:399] inception_3a/output_inception_3a/output_0_split -> inception_3a/output_inception_3a/output_0_split_3
I0403 15:23:34.692118 31699 net.cpp:141] Setting up inception_3a/output_inception_3a/output_0_split
I0403 15:23:34.692144 31699 net.cpp:148] Top shape: 24 256 28 28 (4816896)
I0403 15:23:34.692170 31699 net.cpp:148] Top shape: 24 256 28 28 (4816896)
I0403 15:23:34.692188 31699 net.cpp:148] Top shape: 24 256 28 28 (4816896)
I0403 15:23:34.692205 31699 net.cpp:148] Top shape: 24 256 28 28 (4816896)
I0403 15:23:34.692220 31699 net.cpp:156] Memory required for data: 657507360
I0403 15:23:34.692235 31699 layer_factory.hpp:77] Creating layer inception_3b/1x1
I0403 15:23:34.692265 31699 net.cpp:91] Creating Layer inception_3b/1x1
I0403 15:23:34.692284 31699 net.cpp:425] inception_3b/1x1 <- inception_3a/output_inception_3a/output_0_split_0
I0403 15:23:34.692306 31699 net.cpp:399] inception_3b/1x1 -> inception_3b/1x1
I0403 15:23:34.693485 31699 net.cpp:141] Setting up inception_3b/1x1
I0403 15:23:34.693527 31699 net.cpp:148] Top shape: 24 128 28 28 (2408448)
I0403 15:23:34.693545 31699 net.cpp:156] Memory required for data: 667141152
I0403 15:23:34.693565 31699 layer_factory.hpp:77] Creating layer inception_3b/relu_1x1
I0403 15:23:34.693588 31699 net.cpp:91] Creating Layer inception_3b/relu_1x1
I0403 15:23:34.693608 31699 net.cpp:425] inception_3b/relu_1x1 <- inception_3b/1x1
I0403 15:23:34.693627 31699 net.cpp:386] inception_3b/relu_1x1 -> inception_3b/1x1 (in-place)
I0403 15:23:34.693810 31699 net.cpp:141] Setting up inception_3b/relu_1x1
I0403 15:23:34.693840 31699 net.cpp:148] Top shape: 24 128 28 28 (2408448)
I0403 15:23:34.693857 31699 net.cpp:156] Memory required for data: 676774944
I0403 15:23:34.693872 31699 layer_factory.hpp:77] Creating layer inception_3b/3x3_reduce
I0403 15:23:34.693897 31699 net.cpp:91] Creating Layer inception_3b/3x3_reduce
I0403 15:23:34.693915 31699 net.cpp:425] inception_3b/3x3_reduce <- inception_3a/output_inception_3a/output_0_split_1
I0403 15:23:34.693935 31699 net.cpp:399] inception_3b/3x3_reduce -> inception_3b/3x3_reduce
I0403 15:23:34.695137 31699 net.cpp:141] Setting up inception_3b/3x3_reduce
I0403 15:23:34.695166 31699 net.cpp:148] Top shape: 24 128 28 28 (2408448)
I0403 15:23:34.695183 31699 net.cpp:156] Memory required for data: 686408736
I0403 15:23:34.695202 31699 layer_factory.hpp:77] Creating layer inception_3b/relu_3x3_reduce
I0403 15:23:34.695225 31699 net.cpp:91] Creating Layer inception_3b/relu_3x3_reduce
I0403 15:23:34.695243 31699 net.cpp:425] inception_3b/relu_3x3_reduce <- inception_3b/3x3_reduce
I0403 15:23:34.695268 31699 net.cpp:386] inception_3b/relu_3x3_reduce -> inception_3b/3x3_reduce (in-place)
I0403 15:23:34.695448 31699 net.cpp:141] Setting up inception_3b/relu_3x3_reduce
I0403 15:23:34.695478 31699 net.cpp:148] Top shape: 24 128 28 28 (2408448)
I0403 15:23:34.695495 31699 net.cpp:156] Memory required for data: 696042528
I0403 15:23:34.695511 31699 layer_factory.hpp:77] Creating layer inception_3b/3x3
I0403 15:23:34.695538 31699 net.cpp:91] Creating Layer inception_3b/3x3
I0403 15:23:34.695556 31699 net.cpp:425] inception_3b/3x3 <- inception_3b/3x3_reduce
I0403 15:23:34.695580 31699 net.cpp:399] inception_3b/3x3 -> inception_3b/3x3
I0403 15:23:34.698660 31699 net.cpp:141] Setting up inception_3b/3x3
I0403 15:23:34.698693 31699 net.cpp:148] Top shape: 24 192 28 28 (3612672)
I0403 15:23:34.698710 31699 net.cpp:156] Memory required for data: 710493216
I0403 15:23:34.698730 31699 layer_factory.hpp:77] Creating layer inception_3b/relu_3x3
I0403 15:23:34.698750 31699 net.cpp:91] Creating Layer inception_3b/relu_3x3
I0403 15:23:34.698766 31699 net.cpp:425] inception_3b/relu_3x3 <- inception_3b/3x3
I0403 15:23:34.698786 31699 net.cpp:386] inception_3b/relu_3x3 -> inception_3b/3x3 (in-place)
I0403 15:23:34.699077 31699 net.cpp:141] Setting up inception_3b/relu_3x3
I0403 15:23:34.699107 31699 net.cpp:148] Top shape: 24 192 28 28 (3612672)
I0403 15:23:34.699125 31699 net.cpp:156] Memory required for data: 724943904
I0403 15:23:34.699139 31699 layer_factory.hpp:77] Creating layer inception_3b/5x5_reduce
I0403 15:23:34.699164 31699 net.cpp:91] Creating Layer inception_3b/5x5_reduce
I0403 15:23:34.699185 31699 net.cpp:425] inception_3b/5x5_reduce <- inception_3a/output_inception_3a/output_0_split_2
I0403 15:23:34.699205 31699 net.cpp:399] inception_3b/5x5_reduce -> inception_3b/5x5_reduce
I0403 15:23:34.700238 31699 net.cpp:141] Setting up inception_3b/5x5_reduce
I0403 15:23:34.700273 31699 net.cpp:148] Top shape: 24 32 28 28 (602112)
I0403 15:23:34.700291 31699 net.cpp:156] Memory required for data: 727352352
I0403 15:23:34.700310 31699 layer_factory.hpp:77] Creating layer inception_3b/relu_5x5_reduce
I0403 15:23:34.700331 31699 net.cpp:91] Creating Layer inception_3b/relu_5x5_reduce
I0403 15:23:34.700350 31699 net.cpp:425] inception_3b/relu_5x5_reduce <- inception_3b/5x5_reduce
I0403 15:23:34.700369 31699 net.cpp:386] inception_3b/relu_5x5_reduce -> inception_3b/5x5_reduce (in-place)
I0403 15:23:34.700558 31699 net.cpp:141] Setting up inception_3b/relu_5x5_reduce
I0403 15:23:34.700598 31699 net.cpp:148] Top shape: 24 32 28 28 (602112)
I0403 15:23:34.700614 31699 net.cpp:156] Memory required for data: 729760800
I0403 15:23:34.700631 31699 layer_factory.hpp:77] Creating layer inception_3b/5x5
I0403 15:23:34.700654 31699 net.cpp:91] Creating Layer inception_3b/5x5
I0403 15:23:34.700675 31699 net.cpp:425] inception_3b/5x5 <- inception_3b/5x5_reduce
I0403 15:23:34.700698 31699 net.cpp:399] inception_3b/5x5 -> inception_3b/5x5
I0403 15:23:34.702786 31699 net.cpp:141] Setting up inception_3b/5x5
I0403 15:23:34.702817 31699 net.cpp:148] Top shape: 24 96 28 28 (1806336)
I0403 15:23:34.702834 31699 net.cpp:156] Memory required for data: 736986144
I0403 15:23:34.702853 31699 layer_factory.hpp:77] Creating layer inception_3b/relu_5x5
I0403 15:23:34.702875 31699 net.cpp:91] Creating Layer inception_3b/relu_5x5
I0403 15:23:34.702893 31699 net.cpp:425] inception_3b/relu_5x5 <- inception_3b/5x5
I0403 15:23:34.702913 31699 net.cpp:386] inception_3b/relu_5x5 -> inception_3b/5x5 (in-place)
I0403 15:23:34.703112 31699 net.cpp:141] Setting up inception_3b/relu_5x5
I0403 15:23:34.703140 31699 net.cpp:148] Top shape: 24 96 28 28 (1806336)
I0403 15:23:34.703155 31699 net.cpp:156] Memory required for data: 744211488
I0403 15:23:34.703171 31699 layer_factory.hpp:77] Creating layer inception_3b/pool
I0403 15:23:34.703191 31699 net.cpp:91] Creating Layer inception_3b/pool
I0403 15:23:34.703208 31699 net.cpp:425] inception_3b/pool <- inception_3a/output_inception_3a/output_0_split_3
I0403 15:23:34.703227 31699 net.cpp:399] inception_3b/pool -> inception_3b/pool
I0403 15:23:34.703290 31699 net.cpp:141] Setting up inception_3b/pool
I0403 15:23:34.703315 31699 net.cpp:148] Top shape: 24 256 28 28 (4816896)
I0403 15:23:34.703331 31699 net.cpp:156] Memory required for data: 763479072
I0403 15:23:34.703347 31699 layer_factory.hpp:77] Creating layer inception_3b/pool_proj
I0403 15:23:34.703372 31699 net.cpp:91] Creating Layer inception_3b/pool_proj
I0403 15:23:34.703389 31699 net.cpp:425] inception_3b/pool_proj <- inception_3b/pool
I0403 15:23:34.703416 31699 net.cpp:399] inception_3b/pool_proj -> inception_3b/pool_proj
I0403 15:23:34.704562 31699 net.cpp:141] Setting up inception_3b/pool_proj
I0403 15:23:34.704592 31699 net.cpp:148] Top shape: 24 64 28 28 (1204224)
I0403 15:23:34.704608 31699 net.cpp:156] Memory required for data: 768295968
I0403 15:23:34.704627 31699 layer_factory.hpp:77] Creating layer inception_3b/relu_pool_proj
I0403 15:23:34.704646 31699 net.cpp:91] Creating Layer inception_3b/relu_pool_proj
I0403 15:23:34.704663 31699 net.cpp:425] inception_3b/relu_pool_proj <- inception_3b/pool_proj
I0403 15:23:34.704684 31699 net.cpp:386] inception_3b/relu_pool_proj -> inception_3b/pool_proj (in-place)
I0403 15:23:34.705080 31699 net.cpp:141] Setting up inception_3b/relu_pool_proj
I0403 15:23:34.705109 31699 net.cpp:148] Top shape: 24 64 28 28 (1204224)
I0403 15:23:34.705127 31699 net.cpp:156] Memory required for data: 773112864
I0403 15:23:34.705143 31699 layer_factory.hpp:77] Creating layer inception_3b/output
I0403 15:23:34.705163 31699 net.cpp:91] Creating Layer inception_3b/output
I0403 15:23:34.705178 31699 net.cpp:425] inception_3b/output <- inception_3b/1x1
I0403 15:23:34.705194 31699 net.cpp:425] inception_3b/output <- inception_3b/3x3
I0403 15:23:34.705211 31699 net.cpp:425] inception_3b/output <- inception_3b/5x5
I0403 15:23:34.705229 31699 net.cpp:425] inception_3b/output <- inception_3b/pool_proj
I0403 15:23:34.705248 31699 net.cpp:399] inception_3b/output -> inception_3b/output
I0403 15:23:34.705298 31699 net.cpp:141] Setting up inception_3b/output
I0403 15:23:34.705322 31699 net.cpp:148] Top shape: 24 480 28 28 (9031680)
I0403 15:23:34.705338 31699 net.cpp:156] Memory required for data: 809239584
I0403 15:23:34.705353 31699 layer_factory.hpp:77] Creating layer pool3/3x3_s2
I0403 15:23:34.705374 31699 net.cpp:91] Creating Layer pool3/3x3_s2
I0403 15:23:34.705391 31699 net.cpp:425] pool3/3x3_s2 <- inception_3b/output
I0403 15:23:34.705410 31699 net.cpp:399] pool3/3x3_s2 -> pool3/3x3_s2
I0403 15:23:34.705484 31699 net.cpp:141] Setting up pool3/3x3_s2
I0403 15:23:34.705509 31699 net.cpp:148] Top shape: 24 480 14 14 (2257920)
I0403 15:23:34.705525 31699 net.cpp:156] Memory required for data: 818271264
I0403 15:23:34.705541 31699 layer_factory.hpp:77] Creating layer pool3/3x3_s2_pool3/3x3_s2_0_split
I0403 15:23:34.705559 31699 net.cpp:91] Creating Layer pool3/3x3_s2_pool3/3x3_s2_0_split
I0403 15:23:34.705576 31699 net.cpp:425] pool3/3x3_s2_pool3/3x3_s2_0_split <- pool3/3x3_s2
I0403 15:23:34.705597 31699 net.cpp:399] pool3/3x3_s2_pool3/3x3_s2_0_split -> pool3/3x3_s2_pool3/3x3_s2_0_split_0
I0403 15:23:34.705617 31699 net.cpp:399] pool3/3x3_s2_pool3/3x3_s2_0_split -> pool3/3x3_s2_pool3/3x3_s2_0_split_1
I0403 15:23:34.705637 31699 net.cpp:399] pool3/3x3_s2_pool3/3x3_s2_0_split -> pool3/3x3_s2_pool3/3x3_s2_0_split_2
I0403 15:23:34.705657 31699 net.cpp:399] pool3/3x3_s2_pool3/3x3_s2_0_split -> pool3/3x3_s2_pool3/3x3_s2_0_split_3
I0403 15:23:34.705734 31699 net.cpp:141] Setting up pool3/3x3_s2_pool3/3x3_s2_0_split
I0403 15:23:34.705759 31699 net.cpp:148] Top shape: 24 480 14 14 (2257920)
I0403 15:23:34.705775 31699 net.cpp:148] Top shape: 24 480 14 14 (2257920)
I0403 15:23:34.705791 31699 net.cpp:148] Top shape: 24 480 14 14 (2257920)
I0403 15:23:34.705806 31699 net.cpp:148] Top shape: 24 480 14 14 (2257920)
I0403 15:23:34.705821 31699 net.cpp:156] Memory required for data: 854397984
I0403 15:23:34.705835 31699 layer_factory.hpp:77] Creating layer inception_4a/1x1
I0403 15:23:34.705858 31699 net.cpp:91] Creating Layer inception_4a/1x1
I0403 15:23:34.705875 31699 net.cpp:425] inception_4a/1x1 <- pool3/3x3_s2_pool3/3x3_s2_0_split_0
I0403 15:23:34.705898 31699 net.cpp:399] inception_4a/1x1 -> inception_4a/1x1
I0403 15:23:34.707491 31699 net.cpp:141] Setting up inception_4a/1x1
I0403 15:23:34.707521 31699 net.cpp:148] Top shape: 24 192 14 14 (903168)
I0403 15:23:34.707537 31699 net.cpp:156] Memory required for data: 858010656
I0403 15:23:34.707556 31699 layer_factory.hpp:77] Creating layer inception_4a/relu_1x1
I0403 15:23:34.707576 31699 net.cpp:91] Creating Layer inception_4a/relu_1x1
I0403 15:23:34.707593 31699 net.cpp:425] inception_4a/relu_1x1 <- inception_4a/1x1
I0403 15:23:34.707613 31699 net.cpp:386] inception_4a/relu_1x1 -> inception_4a/1x1 (in-place)
I0403 15:23:34.707795 31699 net.cpp:141] Setting up inception_4a/relu_1x1
I0403 15:23:34.707823 31699 net.cpp:148] Top shape: 24 192 14 14 (903168)
I0403 15:23:34.707837 31699 net.cpp:156] Memory required for data: 861623328
I0403 15:23:34.707854 31699 layer_factory.hpp:77] Creating layer inception_4a/3x3_reduce
I0403 15:23:34.707875 31699 net.cpp:91] Creating Layer inception_4a/3x3_reduce
I0403 15:23:34.707893 31699 net.cpp:425] inception_4a/3x3_reduce <- pool3/3x3_s2_pool3/3x3_s2_0_split_1
I0403 15:23:34.707916 31699 net.cpp:399] inception_4a/3x3_reduce -> inception_4a/3x3_reduce
I0403 15:23:34.709259 31699 net.cpp:141] Setting up inception_4a/3x3_reduce
I0403 15:23:34.709287 31699 net.cpp:148] Top shape: 24 96 14 14 (451584)
I0403 15:23:34.709303 31699 net.cpp:156] Memory required for data: 863429664
I0403 15:23:34.709331 31699 layer_factory.hpp:77] Creating layer inception_4a/relu_3x3_reduce
I0403 15:23:34.709350 31699 net.cpp:91] Creating Layer inception_4a/relu_3x3_reduce
I0403 15:23:34.709367 31699 net.cpp:425] inception_4a/relu_3x3_reduce <- inception_4a/3x3_reduce
I0403 15:23:34.709388 31699 net.cpp:386] inception_4a/relu_3x3_reduce -> inception_4a/3x3_reduce (in-place)
I0403 15:23:34.709564 31699 net.cpp:141] Setting up inception_4a/relu_3x3_reduce
I0403 15:23:34.709590 31699 net.cpp:148] Top shape: 24 96 14 14 (451584)
I0403 15:23:34.709606 31699 net.cpp:156] Memory required for data: 865236000
I0403 15:23:34.709621 31699 layer_factory.hpp:77] Creating layer inception_4a/3x3
I0403 15:23:34.709645 31699 net.cpp:91] Creating Layer inception_4a/3x3
I0403 15:23:34.709662 31699 net.cpp:425] inception_4a/3x3 <- inception_4a/3x3_reduce
I0403 15:23:34.709686 31699 net.cpp:399] inception_4a/3x3 -> inception_4a/3x3
I0403 15:23:34.712477 31699 net.cpp:141] Setting up inception_4a/3x3
I0403 15:23:34.712507 31699 net.cpp:148] Top shape: 24 208 14 14 (978432)
I0403 15:23:34.712524 31699 net.cpp:156] Memory required for data: 869149728
I0403 15:23:34.712544 31699 layer_factory.hpp:77] Creating layer inception_4a/relu_3x3
I0403 15:23:34.712570 31699 net.cpp:91] Creating Layer inception_4a/relu_3x3
I0403 15:23:34.712589 31699 net.cpp:425] inception_4a/relu_3x3 <- inception_4a/3x3
I0403 15:23:34.712607 31699 net.cpp:386] inception_4a/relu_3x3 -> inception_4a/3x3 (in-place)
I0403 15:23:34.712887 31699 net.cpp:141] Setting up inception_4a/relu_3x3
I0403 15:23:34.712913 31699 net.cpp:148] Top shape: 24 208 14 14 (978432)
I0403 15:23:34.712929 31699 net.cpp:156] Memory required for data: 873063456
I0403 15:23:34.712944 31699 layer_factory.hpp:77] Creating layer inception_4a/5x5_reduce
I0403 15:23:34.712968 31699 net.cpp:91] Creating Layer inception_4a/5x5_reduce
I0403 15:23:34.712985 31699 net.cpp:425] inception_4a/5x5_reduce <- pool3/3x3_s2_pool3/3x3_s2_0_split_2
I0403 15:23:34.713008 31699 net.cpp:399] inception_4a/5x5_reduce -> inception_4a/5x5_reduce
I0403 15:23:34.714043 31699 net.cpp:141] Setting up inception_4a/5x5_reduce
I0403 15:23:34.714071 31699 net.cpp:148] Top shape: 24 16 14 14 (75264)
I0403 15:23:34.714087 31699 net.cpp:156] Memory required for data: 873364512
I0403 15:23:34.714107 31699 layer_factory.hpp:77] Creating layer inception_4a/relu_5x5_reduce
I0403 15:23:34.714128 31699 net.cpp:91] Creating Layer inception_4a/relu_5x5_reduce
I0403 15:23:34.714145 31699 net.cpp:425] inception_4a/relu_5x5_reduce <- inception_4a/5x5_reduce
I0403 15:23:34.714164 31699 net.cpp:386] inception_4a/relu_5x5_reduce -> inception_4a/5x5_reduce (in-place)
I0403 15:23:34.714355 31699 net.cpp:141] Setting up inception_4a/relu_5x5_reduce
I0403 15:23:34.714382 31699 net.cpp:148] Top shape: 24 16 14 14 (75264)
I0403 15:23:34.714398 31699 net.cpp:156] Memory required for data: 873665568
I0403 15:23:34.714413 31699 layer_factory.hpp:77] Creating layer inception_4a/5x5
I0403 15:23:34.714437 31699 net.cpp:91] Creating Layer inception_4a/5x5
I0403 15:23:34.714457 31699 net.cpp:425] inception_4a/5x5 <- inception_4a/5x5_reduce
I0403 15:23:34.714486 31699 net.cpp:399] inception_4a/5x5 -> inception_4a/5x5
I0403 15:23:34.715596 31699 net.cpp:141] Setting up inception_4a/5x5
I0403 15:23:34.715627 31699 net.cpp:148] Top shape: 24 48 14 14 (225792)
I0403 15:23:34.715644 31699 net.cpp:156] Memory required for data: 874568736
I0403 15:23:34.715664 31699 layer_factory.hpp:77] Creating layer inception_4a/relu_5x5
I0403 15:23:34.715683 31699 net.cpp:91] Creating Layer inception_4a/relu_5x5
I0403 15:23:34.715700 31699 net.cpp:425] inception_4a/relu_5x5 <- inception_4a/5x5
I0403 15:23:34.715721 31699 net.cpp:386] inception_4a/relu_5x5 -> inception_4a/5x5 (in-place)
I0403 15:23:34.715909 31699 net.cpp:141] Setting up inception_4a/relu_5x5
I0403 15:23:34.715934 31699 net.cpp:148] Top shape: 24 48 14 14 (225792)
I0403 15:23:34.715950 31699 net.cpp:156] Memory required for data: 875471904
I0403 15:23:34.715965 31699 layer_factory.hpp:77] Creating layer inception_4a/pool
I0403 15:23:34.715983 31699 net.cpp:91] Creating Layer inception_4a/pool
I0403 15:23:34.715999 31699 net.cpp:425] inception_4a/pool <- pool3/3x3_s2_pool3/3x3_s2_0_split_3
I0403 15:23:34.716020 31699 net.cpp:399] inception_4a/pool -> inception_4a/pool
I0403 15:23:34.716157 31699 net.cpp:141] Setting up inception_4a/pool
I0403 15:23:34.716184 31699 net.cpp:148] Top shape: 24 480 14 14 (2257920)
I0403 15:23:34.716199 31699 net.cpp:156] Memory required for data: 884503584
I0403 15:23:34.716214 31699 layer_factory.hpp:77] Creating layer inception_4a/pool_proj
I0403 15:23:34.716238 31699 net.cpp:91] Creating Layer inception_4a/pool_proj
I0403 15:23:34.716259 31699 net.cpp:425] inception_4a/pool_proj <- inception_4a/pool
I0403 15:23:34.716284 31699 net.cpp:399] inception_4a/pool_proj -> inception_4a/pool_proj
I0403 15:23:34.717540 31699 net.cpp:141] Setting up inception_4a/pool_proj
I0403 15:23:34.717568 31699 net.cpp:148] Top shape: 24 64 14 14 (301056)
I0403 15:23:34.717602 31699 net.cpp:156] Memory required for data: 885707808
I0403 15:23:34.717623 31699 layer_factory.hpp:77] Creating layer inception_4a/relu_pool_proj
I0403 15:23:34.717649 31699 net.cpp:91] Creating Layer inception_4a/relu_pool_proj
I0403 15:23:34.717667 31699 net.cpp:425] inception_4a/relu_pool_proj <- inception_4a/pool_proj
I0403 15:23:34.717687 31699 net.cpp:386] inception_4a/relu_pool_proj -> inception_4a/pool_proj (in-place)
I0403 15:23:34.717980 31699 net.cpp:141] Setting up inception_4a/relu_pool_proj
I0403 15:23:34.718008 31699 net.cpp:148] Top shape: 24 64 14 14 (301056)
I0403 15:23:34.718024 31699 net.cpp:156] Memory required for data: 886912032
I0403 15:23:34.718040 31699 layer_factory.hpp:77] Creating layer inception_4a/output
I0403 15:23:34.718060 31699 net.cpp:91] Creating Layer inception_4a/output
I0403 15:23:34.718076 31699 net.cpp:425] inception_4a/output <- inception_4a/1x1
I0403 15:23:34.718094 31699 net.cpp:425] inception_4a/output <- inception_4a/3x3
I0403 15:23:34.718111 31699 net.cpp:425] inception_4a/output <- inception_4a/5x5
I0403 15:23:34.718128 31699 net.cpp:425] inception_4a/output <- inception_4a/pool_proj
I0403 15:23:34.718148 31699 net.cpp:399] inception_4a/output -> inception_4a/output
I0403 15:23:34.718195 31699 net.cpp:141] Setting up inception_4a/output
I0403 15:23:34.718224 31699 net.cpp:148] Top shape: 24 512 14 14 (2408448)
I0403 15:23:34.718240 31699 net.cpp:156] Memory required for data: 896545824
I0403 15:23:34.718261 31699 layer_factory.hpp:77] Creating layer inception_4a/output_inception_4a/output_0_split
I0403 15:23:34.718281 31699 net.cpp:91] Creating Layer inception_4a/output_inception_4a/output_0_split
I0403 15:23:34.718298 31699 net.cpp:425] inception_4a/output_inception_4a/output_0_split <- inception_4a/output
I0403 15:23:34.718320 31699 net.cpp:399] inception_4a/output_inception_4a/output_0_split -> inception_4a/output_inception_4a/output_0_split_0
I0403 15:23:34.718343 31699 net.cpp:399] inception_4a/output_inception_4a/output_0_split -> inception_4a/output_inception_4a/output_0_split_1
I0403 15:23:34.718364 31699 net.cpp:399] inception_4a/output_inception_4a/output_0_split -> inception_4a/output_inception_4a/output_0_split_2
I0403 15:23:34.718385 31699 net.cpp:399] inception_4a/output_inception_4a/output_0_split -> inception_4a/output_inception_4a/output_0_split_3
I0403 15:23:34.718405 31699 net.cpp:399] inception_4a/output_inception_4a/output_0_split -> inception_4a/output_inception_4a/output_0_split_4
I0403 15:23:34.718502 31699 net.cpp:141] Setting up inception_4a/output_inception_4a/output_0_split
I0403 15:23:34.718526 31699 net.cpp:148] Top shape: 24 512 14 14 (2408448)
I0403 15:23:34.718544 31699 net.cpp:148] Top shape: 24 512 14 14 (2408448)
I0403 15:23:34.718560 31699 net.cpp:148] Top shape: 24 512 14 14 (2408448)
I0403 15:23:34.718580 31699 net.cpp:148] Top shape: 24 512 14 14 (2408448)
I0403 15:23:34.718596 31699 net.cpp:148] Top shape: 24 512 14 14 (2408448)
I0403 15:23:34.718611 31699 net.cpp:156] Memory required for data: 944714784
I0403 15:23:34.718626 31699 layer_factory.hpp:77] Creating layer loss1/ave_pool
I0403 15:23:34.718648 31699 net.cpp:91] Creating Layer loss1/ave_pool
I0403 15:23:34.718667 31699 net.cpp:425] loss1/ave_pool <- inception_4a/output_inception_4a/output_0_split_0
I0403 15:23:34.718685 31699 net.cpp:399] loss1/ave_pool -> loss1/ave_pool
I0403 15:23:34.718910 31699 net.cpp:141] Setting up loss1/ave_pool
I0403 15:23:34.718938 31699 net.cpp:148] Top shape: 24 512 4 4 (196608)
I0403 15:23:34.718955 31699 net.cpp:156] Memory required for data: 945501216
I0403 15:23:34.718971 31699 layer_factory.hpp:77] Creating layer loss1/conv
I0403 15:23:34.718994 31699 net.cpp:91] Creating Layer loss1/conv
I0403 15:23:34.719012 31699 net.cpp:425] loss1/conv <- loss1/ave_pool
I0403 15:23:34.719035 31699 net.cpp:399] loss1/conv -> loss1/conv
I0403 15:23:34.720530 31699 net.cpp:141] Setting up loss1/conv
I0403 15:23:34.720559 31699 net.cpp:148] Top shape: 24 128 4 4 (49152)
I0403 15:23:34.720577 31699 net.cpp:156] Memory required for data: 945697824
I0403 15:23:34.720610 31699 layer_factory.hpp:77] Creating layer loss1/relu_conv
I0403 15:23:34.720633 31699 net.cpp:91] Creating Layer loss1/relu_conv
I0403 15:23:34.720652 31699 net.cpp:425] loss1/relu_conv <- loss1/conv
I0403 15:23:34.720670 31699 net.cpp:386] loss1/relu_conv -> loss1/conv (in-place)
I0403 15:23:34.720964 31699 net.cpp:141] Setting up loss1/relu_conv
I0403 15:23:34.720993 31699 net.cpp:148] Top shape: 24 128 4 4 (49152)
I0403 15:23:34.721009 31699 net.cpp:156] Memory required for data: 945894432
I0403 15:23:34.721024 31699 layer_factory.hpp:77] Creating layer loss1/fc
I0403 15:23:34.721051 31699 net.cpp:91] Creating Layer loss1/fc
I0403 15:23:34.721070 31699 net.cpp:425] loss1/fc <- loss1/conv
I0403 15:23:34.721093 31699 net.cpp:399] loss1/fc -> loss1/fc
I0403 15:23:34.739629 31699 net.cpp:141] Setting up loss1/fc
I0403 15:23:34.739667 31699 net.cpp:148] Top shape: 24 1024 (24576)
I0403 15:23:34.739683 31699 net.cpp:156] Memory required for data: 945992736
I0403 15:23:34.739702 31699 layer_factory.hpp:77] Creating layer loss1/relu_fc
I0403 15:23:34.739722 31699 net.cpp:91] Creating Layer loss1/relu_fc
I0403 15:23:34.739737 31699 net.cpp:425] loss1/relu_fc <- loss1/fc
I0403 15:23:34.739758 31699 net.cpp:386] loss1/relu_fc -> loss1/fc (in-place)
I0403 15:23:34.739955 31699 net.cpp:141] Setting up loss1/relu_fc
I0403 15:23:34.739981 31699 net.cpp:148] Top shape: 24 1024 (24576)
I0403 15:23:34.739996 31699 net.cpp:156] Memory required for data: 946091040
I0403 15:23:34.740011 31699 layer_factory.hpp:77] Creating layer loss1/drop_fc
I0403 15:23:34.740041 31699 net.cpp:91] Creating Layer loss1/drop_fc
I0403 15:23:34.740059 31699 net.cpp:425] loss1/drop_fc <- loss1/fc
I0403 15:23:34.740077 31699 net.cpp:386] loss1/drop_fc -> loss1/fc (in-place)
I0403 15:23:34.740131 31699 net.cpp:141] Setting up loss1/drop_fc
I0403 15:23:34.740156 31699 net.cpp:148] Top shape: 24 1024 (24576)
I0403 15:23:34.740170 31699 net.cpp:156] Memory required for data: 946189344
I0403 15:23:34.740185 31699 layer_factory.hpp:77] Creating layer loss1/classifier_plantvillage
I0403 15:23:34.740205 31699 net.cpp:91] Creating Layer loss1/classifier_plantvillage
I0403 15:23:34.740221 31699 net.cpp:425] loss1/classifier_plantvillage <- loss1/fc
I0403 15:23:34.740243 31699 net.cpp:399] loss1/classifier_plantvillage -> loss1/classifier_plantvillage
I0403 15:23:34.741175 31699 net.cpp:141] Setting up loss1/classifier_plantvillage
I0403 15:23:34.741209 31699 net.cpp:148] Top shape: 24 38 (912)
I0403 15:23:34.741225 31699 net.cpp:156] Memory required for data: 946192992
I0403 15:23:34.741242 31699 layer_factory.hpp:77] Creating layer loss1/classifier_plantvillage_loss1/classifier_plantvillage_0_split
I0403 15:23:34.741286 31699 net.cpp:91] Creating Layer loss1/classifier_plantvillage_loss1/classifier_plantvillage_0_split
I0403 15:23:34.741312 31699 net.cpp:425] loss1/classifier_plantvillage_loss1/classifier_plantvillage_0_split <- loss1/classifier_plantvillage
I0403 15:23:34.741331 31699 net.cpp:399] loss1/classifier_plantvillage_loss1/classifier_plantvillage_0_split -> loss1/classifier_plantvillage_loss1/classifier_plantvillage_0_split_0
I0403 15:23:34.741353 31699 net.cpp:399] loss1/classifier_plantvillage_loss1/classifier_plantvillage_0_split -> loss1/classifier_plantvillage_loss1/classifier_plantvillage_0_split_1
I0403 15:23:34.741375 31699 net.cpp:399] loss1/classifier_plantvillage_loss1/classifier_plantvillage_0_split -> loss1/classifier_plantvillage_loss1/classifier_plantvillage_0_split_2
I0403 15:23:34.741444 31699 net.cpp:141] Setting up loss1/classifier_plantvillage_loss1/classifier_plantvillage_0_split
I0403 15:23:34.741469 31699 net.cpp:148] Top shape: 24 38 (912)
I0403 15:23:34.741485 31699 net.cpp:148] Top shape: 24 38 (912)
I0403 15:23:34.741502 31699 net.cpp:148] Top shape: 24 38 (912)
I0403 15:23:34.741516 31699 net.cpp:156] Memory required for data: 946203936
I0403 15:23:34.741531 31699 layer_factory.hpp:77] Creating layer inception_4b/1x1
I0403 15:23:34.741566 31699 net.cpp:91] Creating Layer inception_4b/1x1
I0403 15:23:34.741603 31699 net.cpp:425] inception_4b/1x1 <- inception_4a/output_inception_4a/output_0_split_1
I0403 15:23:34.741623 31699 net.cpp:399] inception_4b/1x1 -> inception_4b/1x1
I0403 15:23:34.743281 31699 net.cpp:141] Setting up inception_4b/1x1
I0403 15:23:34.743310 31699 net.cpp:148] Top shape: 24 160 14 14 (752640)
I0403 15:23:34.743326 31699 net.cpp:156] Memory required for data: 949214496
I0403 15:23:34.743345 31699 layer_factory.hpp:77] Creating layer inception_4b/relu_1x1
I0403 15:23:34.743371 31699 net.cpp:91] Creating Layer inception_4b/relu_1x1
I0403 15:23:34.743389 31699 net.cpp:425] inception_4b/relu_1x1 <- inception_4b/1x1
I0403 15:23:34.743407 31699 net.cpp:386] inception_4b/relu_1x1 -> inception_4b/1x1 (in-place)
I0403 15:23:34.743589 31699 net.cpp:141] Setting up inception_4b/relu_1x1
I0403 15:23:34.743615 31699 net.cpp:148] Top shape: 24 160 14 14 (752640)
I0403 15:23:34.743630 31699 net.cpp:156] Memory required for data: 952225056
I0403 15:23:34.743645 31699 layer_factory.hpp:77] Creating layer inception_4b/3x3_reduce
I0403 15:23:34.743670 31699 net.cpp:91] Creating Layer inception_4b/3x3_reduce
I0403 15:23:34.743688 31699 net.cpp:425] inception_4b/3x3_reduce <- inception_4a/output_inception_4a/output_0_split_2
I0403 15:23:34.743710 31699 net.cpp:399] inception_4b/3x3_reduce -> inception_4b/3x3_reduce
I0403 15:23:34.745090 31699 net.cpp:141] Setting up inception_4b/3x3_reduce
I0403 15:23:34.745121 31699 net.cpp:148] Top shape: 24 112 14 14 (526848)
I0403 15:23:34.745139 31699 net.cpp:156] Memory required for data: 954332448
I0403 15:23:34.745164 31699 layer_factory.hpp:77] Creating layer inception_4b/relu_3x3_reduce
I0403 15:23:34.745187 31699 net.cpp:91] Creating Layer inception_4b/relu_3x3_reduce
I0403 15:23:34.745203 31699 net.cpp:425] inception_4b/relu_3x3_reduce <- inception_4b/3x3_reduce
I0403 15:23:34.745223 31699 net.cpp:386] inception_4b/relu_3x3_reduce -> inception_4b/3x3_reduce (in-place)
I0403 15:23:34.745506 31699 net.cpp:141] Setting up inception_4b/relu_3x3_reduce
I0403 15:23:34.745535 31699 net.cpp:148] Top shape: 24 112 14 14 (526848)
I0403 15:23:34.745551 31699 net.cpp:156] Memory required for data: 956439840
I0403 15:23:34.745568 31699 layer_factory.hpp:77] Creating layer inception_4b/3x3
I0403 15:23:34.745599 31699 net.cpp:91] Creating Layer inception_4b/3x3
I0403 15:23:34.745627 31699 net.cpp:425] inception_4b/3x3 <- inception_4b/3x3_reduce
I0403 15:23:34.745647 31699 net.cpp:399] inception_4b/3x3 -> inception_4b/3x3
I0403 15:23:34.748621 31699 net.cpp:141] Setting up inception_4b/3x3
I0403 15:23:34.748651 31699 net.cpp:148] Top shape: 24 224 14 14 (1053696)
I0403 15:23:34.748667 31699 net.cpp:156] Memory required for data: 960654624
I0403 15:23:34.748685 31699 layer_factory.hpp:77] Creating layer inception_4b/relu_3x3
I0403 15:23:34.748711 31699 net.cpp:91] Creating Layer inception_4b/relu_3x3
I0403 15:23:34.748728 31699 net.cpp:425] inception_4b/relu_3x3 <- inception_4b/3x3
I0403 15:23:34.748746 31699 net.cpp:386] inception_4b/relu_3x3 -> inception_4b/3x3 (in-place)
I0403 15:23:34.748926 31699 net.cpp:141] Setting up inception_4b/relu_3x3
I0403 15:23:34.748955 31699 net.cpp:148] Top shape: 24 224 14 14 (1053696)
I0403 15:23:34.748977 31699 net.cpp:156] Memory required for data: 964869408
I0403 15:23:34.748998 31699 layer_factory.hpp:77] Creating layer inception_4b/5x5_reduce
I0403 15:23:34.749020 31699 net.cpp:91] Creating Layer inception_4b/5x5_reduce
I0403 15:23:34.749040 31699 net.cpp:425] inception_4b/5x5_reduce <- inception_4a/output_inception_4a/output_0_split_3
I0403 15:23:34.749063 31699 net.cpp:399] inception_4b/5x5_reduce -> inception_4b/5x5_reduce
I0403 15:23:34.750152 31699 net.cpp:141] Setting up inception_4b/5x5_reduce
I0403 15:23:34.750182 31699 net.cpp:148] Top shape: 24 24 14 14 (112896)
I0403 15:23:34.750200 31699 net.cpp:156] Memory required for data: 965320992
I0403 15:23:34.750224 31699 layer_factory.hpp:77] Creating layer inception_4b/relu_5x5_reduce
I0403 15:23:34.750250 31699 net.cpp:91] Creating Layer inception_4b/relu_5x5_reduce
I0403 15:23:34.750286 31699 net.cpp:425] inception_4b/relu_5x5_reduce <- inception_4b/5x5_reduce
I0403 15:23:34.750305 31699 net.cpp:386] inception_4b/relu_5x5_reduce -> inception_4b/5x5_reduce (in-place)
I0403 15:23:34.750493 31699 net.cpp:141] Setting up inception_4b/relu_5x5_reduce
I0403 15:23:34.750519 31699 net.cpp:148] Top shape: 24 24 14 14 (112896)
I0403 15:23:34.750533 31699 net.cpp:156] Memory required for data: 965772576
I0403 15:23:34.750550 31699 layer_factory.hpp:77] Creating layer inception_4b/5x5
I0403 15:23:34.750574 31699 net.cpp:91] Creating Layer inception_4b/5x5
I0403 15:23:34.750592 31699 net.cpp:425] inception_4b/5x5 <- inception_4b/5x5_reduce
I0403 15:23:34.750614 31699 net.cpp:399] inception_4b/5x5 -> inception_4b/5x5
I0403 15:23:34.751842 31699 net.cpp:141] Setting up inception_4b/5x5
I0403 15:23:34.751873 31699 net.cpp:148] Top shape: 24 64 14 14 (301056)
I0403 15:23:34.751895 31699 net.cpp:156] Memory required for data: 966976800
I0403 15:23:34.751919 31699 layer_factory.hpp:77] Creating layer inception_4b/relu_5x5
I0403 15:23:34.751943 31699 net.cpp:91] Creating Layer inception_4b/relu_5x5
I0403 15:23:34.751960 31699 net.cpp:425] inception_4b/relu_5x5 <- inception_4b/5x5
I0403 15:23:34.751977 31699 net.cpp:386] inception_4b/relu_5x5 -> inception_4b/5x5 (in-place)
I0403 15:23:34.752269 31699 net.cpp:141] Setting up inception_4b/relu_5x5
I0403 15:23:34.752296 31699 net.cpp:148] Top shape: 24 64 14 14 (301056)
I0403 15:23:34.752315 31699 net.cpp:156] Memory required for data: 968181024
I0403 15:23:34.752336 31699 layer_factory.hpp:77] Creating layer inception_4b/pool
I0403 15:23:34.752358 31699 net.cpp:91] Creating Layer inception_4b/pool
I0403 15:23:34.752377 31699 net.cpp:425] inception_4b/pool <- inception_4a/output_inception_4a/output_0_split_4
I0403 15:23:34.752394 31699 net.cpp:399] inception_4b/pool -> inception_4b/pool
I0403 15:23:34.752459 31699 net.cpp:141] Setting up inception_4b/pool
I0403 15:23:34.752485 31699 net.cpp:148] Top shape: 24 512 14 14 (2408448)
I0403 15:23:34.752499 31699 net.cpp:156] Memory required for data: 977814816
I0403 15:23:34.752514 31699 layer_factory.hpp:77] Creating layer inception_4b/pool_proj
I0403 15:23:34.752537 31699 net.cpp:91] Creating Layer inception_4b/pool_proj
I0403 15:23:34.752557 31699 net.cpp:425] inception_4b/pool_proj <- inception_4b/pool
I0403 15:23:34.752578 31699 net.cpp:399] inception_4b/pool_proj -> inception_4b/pool_proj
I0403 15:23:34.753779 31699 net.cpp:141] Setting up inception_4b/pool_proj
I0403 15:23:34.753808 31699 net.cpp:148] Top shape: 24 64 14 14 (301056)
I0403 15:23:34.753823 31699 net.cpp:156] Memory required for data: 979019040
I0403 15:23:34.753842 31699 layer_factory.hpp:77] Creating layer inception_4b/relu_pool_proj
I0403 15:23:34.753864 31699 net.cpp:91] Creating Layer inception_4b/relu_pool_proj
I0403 15:23:34.753880 31699 net.cpp:425] inception_4b/relu_pool_proj <- inception_4b/pool_proj
I0403 15:23:34.753898 31699 net.cpp:386] inception_4b/relu_pool_proj -> inception_4b/pool_proj (in-place)
I0403 15:23:34.754079 31699 net.cpp:141] Setting up inception_4b/relu_pool_proj
I0403 15:23:34.754106 31699 net.cpp:148] Top shape: 24 64 14 14 (301056)
I0403 15:23:34.754119 31699 net.cpp:156] Memory required for data: 980223264
I0403 15:23:34.754134 31699 layer_factory.hpp:77] Creating layer inception_4b/output
I0403 15:23:34.754151 31699 net.cpp:91] Creating Layer inception_4b/output
I0403 15:23:34.754168 31699 net.cpp:425] inception_4b/output <- inception_4b/1x1
I0403 15:23:34.754184 31699 net.cpp:425] inception_4b/output <- inception_4b/3x3
I0403 15:23:34.754200 31699 net.cpp:425] inception_4b/output <- inception_4b/5x5
I0403 15:23:34.754217 31699 net.cpp:425] inception_4b/output <- inception_4b/pool_proj
I0403 15:23:34.754237 31699 net.cpp:399] inception_4b/output -> inception_4b/output
I0403 15:23:34.754295 31699 net.cpp:141] Setting up inception_4b/output
I0403 15:23:34.754324 31699 net.cpp:148] Top shape: 24 512 14 14 (2408448)
I0403 15:23:34.754340 31699 net.cpp:156] Memory required for data: 989857056
I0403 15:23:34.754370 31699 layer_factory.hpp:77] Creating layer inception_4b/output_inception_4b/output_0_split
I0403 15:23:34.754392 31699 net.cpp:91] Creating Layer inception_4b/output_inception_4b/output_0_split
I0403 15:23:34.754412 31699 net.cpp:425] inception_4b/output_inception_4b/output_0_split <- inception_4b/output
I0403 15:23:34.754429 31699 net.cpp:399] inception_4b/output_inception_4b/output_0_split -> inception_4b/output_inception_4b/output_0_split_0
I0403 15:23:34.754449 31699 net.cpp:399] inception_4b/output_inception_4b/output_0_split -> inception_4b/output_inception_4b/output_0_split_1
I0403 15:23:34.754472 31699 net.cpp:399] inception_4b/output_inception_4b/output_0_split -> inception_4b/output_inception_4b/output_0_split_2
I0403 15:23:34.754492 31699 net.cpp:399] inception_4b/output_inception_4b/output_0_split -> inception_4b/output_inception_4b/output_0_split_3
I0403 15:23:34.754576 31699 net.cpp:141] Setting up inception_4b/output_inception_4b/output_0_split
I0403 15:23:34.754601 31699 net.cpp:148] Top shape: 24 512 14 14 (2408448)
I0403 15:23:34.754616 31699 net.cpp:148] Top shape: 24 512 14 14 (2408448)
I0403 15:23:34.754632 31699 net.cpp:148] Top shape: 24 512 14 14 (2408448)
I0403 15:23:34.754648 31699 net.cpp:148] Top shape: 24 512 14 14 (2408448)
I0403 15:23:34.754662 31699 net.cpp:156] Memory required for data: 1028392224
I0403 15:23:34.754676 31699 layer_factory.hpp:77] Creating layer inception_4c/1x1
I0403 15:23:34.754699 31699 net.cpp:91] Creating Layer inception_4c/1x1
I0403 15:23:34.754717 31699 net.cpp:425] inception_4c/1x1 <- inception_4b/output_inception_4b/output_0_split_0
I0403 15:23:34.754745 31699 net.cpp:399] inception_4c/1x1 -> inception_4c/1x1
I0403 15:23:34.756217 31699 net.cpp:141] Setting up inception_4c/1x1
I0403 15:23:34.756244 31699 net.cpp:148] Top shape: 24 128 14 14 (602112)
I0403 15:23:34.756265 31699 net.cpp:156] Memory required for data: 1030800672
I0403 15:23:34.756285 31699 layer_factory.hpp:77] Creating layer inception_4c/relu_1x1
I0403 15:23:34.756302 31699 net.cpp:91] Creating Layer inception_4c/relu_1x1
I0403 15:23:34.756319 31699 net.cpp:425] inception_4c/relu_1x1 <- inception_4c/1x1
I0403 15:23:34.756340 31699 net.cpp:386] inception_4c/relu_1x1 -> inception_4c/1x1 (in-place)
I0403 15:23:34.756521 31699 net.cpp:141] Setting up inception_4c/relu_1x1
I0403 15:23:34.756548 31699 net.cpp:148] Top shape: 24 128 14 14 (602112)
I0403 15:23:34.756563 31699 net.cpp:156] Memory required for data: 1033209120
I0403 15:23:34.756580 31699 layer_factory.hpp:77] Creating layer inception_4c/3x3_reduce
I0403 15:23:34.756603 31699 net.cpp:91] Creating Layer inception_4c/3x3_reduce
I0403 15:23:34.756620 31699 net.cpp:425] inception_4c/3x3_reduce <- inception_4b/output_inception_4b/output_0_split_1
I0403 15:23:34.756642 31699 net.cpp:399] inception_4c/3x3_reduce -> inception_4c/3x3_reduce
I0403 15:23:34.758656 31699 net.cpp:141] Setting up inception_4c/3x3_reduce
I0403 15:23:34.758688 31699 net.cpp:148] Top shape: 24 128 14 14 (602112)
I0403 15:23:34.758703 31699 net.cpp:156] Memory required for data: 1035617568
I0403 15:23:34.758723 31699 layer_factory.hpp:77] Creating layer inception_4c/relu_3x3_reduce
I0403 15:23:34.758744 31699 net.cpp:91] Creating Layer inception_4c/relu_3x3_reduce
I0403 15:23:34.758762 31699 net.cpp:425] inception_4c/relu_3x3_reduce <- inception_4c/3x3_reduce
I0403 15:23:34.758780 31699 net.cpp:386] inception_4c/relu_3x3_reduce -> inception_4c/3x3_reduce (in-place)
I0403 15:23:34.759076 31699 net.cpp:141] Setting up inception_4c/relu_3x3_reduce
I0403 15:23:34.759104 31699 net.cpp:148] Top shape: 24 128 14 14 (602112)
I0403 15:23:34.759120 31699 net.cpp:156] Memory required for data: 1038026016
I0403 15:23:34.759136 31699 layer_factory.hpp:77] Creating layer inception_4c/3x3
I0403 15:23:34.759160 31699 net.cpp:91] Creating Layer inception_4c/3x3
I0403 15:23:34.759177 31699 net.cpp:425] inception_4c/3x3 <- inception_4c/3x3_reduce
I0403 15:23:34.759201 31699 net.cpp:399] inception_4c/3x3 -> inception_4c/3x3
I0403 15:23:34.762928 31699 net.cpp:141] Setting up inception_4c/3x3
I0403 15:23:34.762970 31699 net.cpp:148] Top shape: 24 256 14 14 (1204224)
I0403 15:23:34.762987 31699 net.cpp:156] Memory required for data: 1042842912
I0403 15:23:34.763021 31699 layer_factory.hpp:77] Creating layer inception_4c/relu_3x3
I0403 15:23:34.763043 31699 net.cpp:91] Creating Layer inception_4c/relu_3x3
I0403 15:23:34.763062 31699 net.cpp:425] inception_4c/relu_3x3 <- inception_4c/3x3
I0403 15:23:34.763079 31699 net.cpp:386] inception_4c/relu_3x3 -> inception_4c/3x3 (in-place)
I0403 15:23:34.763276 31699 net.cpp:141] Setting up inception_4c/relu_3x3
I0403 15:23:34.763306 31699 net.cpp:148] Top shape: 24 256 14 14 (1204224)
I0403 15:23:34.763322 31699 net.cpp:156] Memory required for data: 1047659808
I0403 15:23:34.763339 31699 layer_factory.hpp:77] Creating layer inception_4c/5x5_reduce
I0403 15:23:34.763363 31699 net.cpp:91] Creating Layer inception_4c/5x5_reduce
I0403 15:23:34.763382 31699 net.cpp:425] inception_4c/5x5_reduce <- inception_4b/output_inception_4b/output_0_split_2
I0403 15:23:34.763401 31699 net.cpp:399] inception_4c/5x5_reduce -> inception_4c/5x5_reduce
I0403 15:23:34.764534 31699 net.cpp:141] Setting up inception_4c/5x5_reduce
I0403 15:23:34.764566 31699 net.cpp:148] Top shape: 24 24 14 14 (112896)
I0403 15:23:34.764583 31699 net.cpp:156] Memory required for data: 1048111392
I0403 15:23:34.764603 31699 layer_factory.hpp:77] Creating layer inception_4c/relu_5x5_reduce
I0403 15:23:34.764622 31699 net.cpp:91] Creating Layer inception_4c/relu_5x5_reduce
I0403 15:23:34.764638 31699 net.cpp:425] inception_4c/relu_5x5_reduce <- inception_4c/5x5_reduce
I0403 15:23:34.764657 31699 net.cpp:386] inception_4c/relu_5x5_reduce -> inception_4c/5x5_reduce (in-place)
I0403 15:23:34.764848 31699 net.cpp:141] Setting up inception_4c/relu_5x5_reduce
I0403 15:23:34.764880 31699 net.cpp:148] Top shape: 24 24 14 14 (112896)
I0403 15:23:34.764899 31699 net.cpp:156] Memory required for data: 1048562976
I0403 15:23:34.764919 31699 layer_factory.hpp:77] Creating layer inception_4c/5x5
I0403 15:23:34.764947 31699 net.cpp:91] Creating Layer inception_4c/5x5
I0403 15:23:34.764966 31699 net.cpp:425] inception_4c/5x5 <- inception_4c/5x5_reduce
I0403 15:23:34.764987 31699 net.cpp:399] inception_4c/5x5 -> inception_4c/5x5
I0403 15:23:34.766275 31699 net.cpp:141] Setting up inception_4c/5x5
I0403 15:23:34.766304 31699 net.cpp:148] Top shape: 24 64 14 14 (301056)
I0403 15:23:34.766319 31699 net.cpp:156] Memory required for data: 1049767200
I0403 15:23:34.766340 31699 layer_factory.hpp:77] Creating layer inception_4c/relu_5x5
I0403 15:23:34.766358 31699 net.cpp:91] Creating Layer inception_4c/relu_5x5
I0403 15:23:34.766374 31699 net.cpp:425] inception_4c/relu_5x5 <- inception_4c/5x5
I0403 15:23:34.766396 31699 net.cpp:386] inception_4c/relu_5x5 -> inception_4c/5x5 (in-place)
I0403 15:23:34.766693 31699 net.cpp:141] Setting up inception_4c/relu_5x5
I0403 15:23:34.766721 31699 net.cpp:148] Top shape: 24 64 14 14 (301056)
I0403 15:23:34.766736 31699 net.cpp:156] Memory required for data: 1050971424
I0403 15:23:34.766752 31699 layer_factory.hpp:77] Creating layer inception_4c/pool
I0403 15:23:34.766772 31699 net.cpp:91] Creating Layer inception_4c/pool
I0403 15:23:34.766788 31699 net.cpp:425] inception_4c/pool <- inception_4b/output_inception_4b/output_0_split_3
I0403 15:23:34.766814 31699 net.cpp:399] inception_4c/pool -> inception_4c/pool
I0403 15:23:34.766882 31699 net.cpp:141] Setting up inception_4c/pool
I0403 15:23:34.766907 31699 net.cpp:148] Top shape: 24 512 14 14 (2408448)
I0403 15:23:34.766924 31699 net.cpp:156] Memory required for data: 1060605216
I0403 15:23:34.766939 31699 layer_factory.hpp:77] Creating layer inception_4c/pool_proj
I0403 15:23:34.766978 31699 net.cpp:91] Creating Layer inception_4c/pool_proj
I0403 15:23:34.766999 31699 net.cpp:425] inception_4c/pool_proj <- inception_4c/pool
I0403 15:23:34.767019 31699 net.cpp:399] inception_4c/pool_proj -> inception_4c/pool_proj
I0403 15:23:34.768319 31699 net.cpp:141] Setting up inception_4c/pool_proj
I0403 15:23:34.768350 31699 net.cpp:148] Top shape: 24 64 14 14 (301056)
I0403 15:23:34.768381 31699 net.cpp:156] Memory required for data: 1061809440
I0403 15:23:34.768404 31699 layer_factory.hpp:77] Creating layer inception_4c/relu_pool_proj
I0403 15:23:34.768424 31699 net.cpp:91] Creating Layer inception_4c/relu_pool_proj
I0403 15:23:34.768442 31699 net.cpp:425] inception_4c/relu_pool_proj <- inception_4c/pool_proj
I0403 15:23:34.768462 31699 net.cpp:386] inception_4c/relu_pool_proj -> inception_4c/pool_proj (in-place)
I0403 15:23:34.768657 31699 net.cpp:141] Setting up inception_4c/relu_pool_proj
I0403 15:23:34.768684 31699 net.cpp:148] Top shape: 24 64 14 14 (301056)
I0403 15:23:34.768700 31699 net.cpp:156] Memory required for data: 1063013664
I0403 15:23:34.768717 31699 layer_factory.hpp:77] Creating layer inception_4c/output
I0403 15:23:34.768735 31699 net.cpp:91] Creating Layer inception_4c/output
I0403 15:23:34.768753 31699 net.cpp:425] inception_4c/output <- inception_4c/1x1
I0403 15:23:34.768769 31699 net.cpp:425] inception_4c/output <- inception_4c/3x3
I0403 15:23:34.768786 31699 net.cpp:425] inception_4c/output <- inception_4c/5x5
I0403 15:23:34.768805 31699 net.cpp:425] inception_4c/output <- inception_4c/pool_proj
I0403 15:23:34.768826 31699 net.cpp:399] inception_4c/output -> inception_4c/output
I0403 15:23:34.768874 31699 net.cpp:141] Setting up inception_4c/output
I0403 15:23:34.768903 31699 net.cpp:148] Top shape: 24 512 14 14 (2408448)
I0403 15:23:34.768918 31699 net.cpp:156] Memory required for data: 1072647456
I0403 15:23:34.768935 31699 layer_factory.hpp:77] Creating layer inception_4c/output_inception_4c/output_0_split
I0403 15:23:34.768954 31699 net.cpp:91] Creating Layer inception_4c/output_inception_4c/output_0_split
I0403 15:23:34.768970 31699 net.cpp:425] inception_4c/output_inception_4c/output_0_split <- inception_4c/output
I0403 15:23:34.768987 31699 net.cpp:399] inception_4c/output_inception_4c/output_0_split -> inception_4c/output_inception_4c/output_0_split_0
I0403 15:23:34.769009 31699 net.cpp:399] inception_4c/output_inception_4c/output_0_split -> inception_4c/output_inception_4c/output_0_split_1
I0403 15:23:34.769032 31699 net.cpp:399] inception_4c/output_inception_4c/output_0_split -> inception_4c/output_inception_4c/output_0_split_2
I0403 15:23:34.769055 31699 net.cpp:399] inception_4c/output_inception_4c/output_0_split -> inception_4c/output_inception_4c/output_0_split_3
I0403 15:23:34.769148 31699 net.cpp:141] Setting up inception_4c/output_inception_4c/output_0_split
I0403 15:23:34.769173 31699 net.cpp:148] Top shape: 24 512 14 14 (2408448)
I0403 15:23:34.769191 31699 net.cpp:148] Top shape: 24 512 14 14 (2408448)
I0403 15:23:34.769207 31699 net.cpp:148] Top shape: 24 512 14 14 (2408448)
I0403 15:23:34.769224 31699 net.cpp:148] Top shape: 24 512 14 14 (2408448)
I0403 15:23:34.769238 31699 net.cpp:156] Memory required for data: 1111182624
I0403 15:23:34.769258 31699 layer_factory.hpp:77] Creating layer inception_4d/1x1
I0403 15:23:34.769284 31699 net.cpp:91] Creating Layer inception_4d/1x1
I0403 15:23:34.769304 31699 net.cpp:425] inception_4d/1x1 <- inception_4c/output_inception_4c/output_0_split_0
I0403 15:23:34.769326 31699 net.cpp:399] inception_4d/1x1 -> inception_4d/1x1
I0403 15:23:34.770795 31699 net.cpp:141] Setting up inception_4d/1x1
I0403 15:23:34.770825 31699 net.cpp:148] Top shape: 24 112 14 14 (526848)
I0403 15:23:34.770843 31699 net.cpp:156] Memory required for data: 1113290016
I0403 15:23:34.770864 31699 layer_factory.hpp:77] Creating layer inception_4d/relu_1x1
I0403 15:23:34.770884 31699 net.cpp:91] Creating Layer inception_4d/relu_1x1
I0403 15:23:34.770902 31699 net.cpp:425] inception_4d/relu_1x1 <- inception_4d/1x1
I0403 15:23:34.770921 31699 net.cpp:386] inception_4d/relu_1x1 -> inception_4d/1x1 (in-place)
I0403 15:23:34.771119 31699 net.cpp:141] Setting up inception_4d/relu_1x1
I0403 15:23:34.771153 31699 net.cpp:148] Top shape: 24 112 14 14 (526848)
I0403 15:23:34.771169 31699 net.cpp:156] Memory required for data: 1115397408
I0403 15:23:34.771185 31699 layer_factory.hpp:77] Creating layer inception_4d/3x3_reduce
I0403 15:23:34.771222 31699 net.cpp:91] Creating Layer inception_4d/3x3_reduce
I0403 15:23:34.771242 31699 net.cpp:425] inception_4d/3x3_reduce <- inception_4c/output_inception_4c/output_0_split_1
I0403 15:23:34.771278 31699 net.cpp:399] inception_4d/3x3_reduce -> inception_4d/3x3_reduce
I0403 15:23:34.772888 31699 net.cpp:141] Setting up inception_4d/3x3_reduce
I0403 15:23:34.772918 31699 net.cpp:148] Top shape: 24 144 14 14 (677376)
I0403 15:23:34.772934 31699 net.cpp:156] Memory required for data: 1118106912
I0403 15:23:34.772954 31699 layer_factory.hpp:77] Creating layer inception_4d/relu_3x3_reduce
I0403 15:23:34.772974 31699 net.cpp:91] Creating Layer inception_4d/relu_3x3_reduce
I0403 15:23:34.772992 31699 net.cpp:425] inception_4d/relu_3x3_reduce <- inception_4d/3x3_reduce
I0403 15:23:34.773013 31699 net.cpp:386] inception_4d/relu_3x3_reduce -> inception_4d/3x3_reduce (in-place)
I0403 15:23:34.773322 31699 net.cpp:141] Setting up inception_4d/relu_3x3_reduce
I0403 15:23:34.773351 31699 net.cpp:148] Top shape: 24 144 14 14 (677376)
I0403 15:23:34.773366 31699 net.cpp:156] Memory required for data: 1120816416
I0403 15:23:34.773383 31699 layer_factory.hpp:77] Creating layer inception_4d/3x3
I0403 15:23:34.773407 31699 net.cpp:91] Creating Layer inception_4d/3x3
I0403 15:23:34.773425 31699 net.cpp:425] inception_4d/3x3 <- inception_4d/3x3_reduce
I0403 15:23:34.773448 31699 net.cpp:399] inception_4d/3x3 -> inception_4d/3x3
I0403 15:23:34.778005 31699 net.cpp:141] Setting up inception_4d/3x3
I0403 15:23:34.778036 31699 net.cpp:148] Top shape: 24 288 14 14 (1354752)
I0403 15:23:34.778053 31699 net.cpp:156] Memory required for data: 1126235424
I0403 15:23:34.778074 31699 layer_factory.hpp:77] Creating layer inception_4d/relu_3x3
I0403 15:23:34.778095 31699 net.cpp:91] Creating Layer inception_4d/relu_3x3
I0403 15:23:34.778112 31699 net.cpp:425] inception_4d/relu_3x3 <- inception_4d/3x3
I0403 15:23:34.778131 31699 net.cpp:386] inception_4d/relu_3x3 -> inception_4d/3x3 (in-place)
I0403 15:23:34.778326 31699 net.cpp:141] Setting up inception_4d/relu_3x3
I0403 15:23:34.778355 31699 net.cpp:148] Top shape: 24 288 14 14 (1354752)
I0403 15:23:34.778372 31699 net.cpp:156] Memory required for data: 1131654432
I0403 15:23:34.778388 31699 layer_factory.hpp:77] Creating layer inception_4d/5x5_reduce
I0403 15:23:34.778410 31699 net.cpp:91] Creating Layer inception_4d/5x5_reduce
I0403 15:23:34.778430 31699 net.cpp:425] inception_4d/5x5_reduce <- inception_4c/output_inception_4c/output_0_split_2
I0403 15:23:34.778450 31699 net.cpp:399] inception_4d/5x5_reduce -> inception_4d/5x5_reduce
I0403 15:23:34.779631 31699 net.cpp:141] Setting up inception_4d/5x5_reduce
I0403 15:23:34.779660 31699 net.cpp:148] Top shape: 24 32 14 14 (150528)
I0403 15:23:34.779676 31699 net.cpp:156] Memory required for data: 1132256544
I0403 15:23:34.779695 31699 layer_factory.hpp:77] Creating layer inception_4d/relu_5x5_reduce
I0403 15:23:34.779716 31699 net.cpp:91] Creating Layer inception_4d/relu_5x5_reduce
I0403 15:23:34.779734 31699 net.cpp:425] inception_4d/relu_5x5_reduce <- inception_4d/5x5_reduce
I0403 15:23:34.779753 31699 net.cpp:386] inception_4d/relu_5x5_reduce -> inception_4d/5x5_reduce (in-place)
I0403 15:23:34.779949 31699 net.cpp:141] Setting up inception_4d/relu_5x5_reduce
I0403 15:23:34.779979 31699 net.cpp:148] Top shape: 24 32 14 14 (150528)
I0403 15:23:34.779995 31699 net.cpp:156] Memory required for data: 1132858656
I0403 15:23:34.780011 31699 layer_factory.hpp:77] Creating layer inception_4d/5x5
I0403 15:23:34.780035 31699 net.cpp:91] Creating Layer inception_4d/5x5
I0403 15:23:34.780053 31699 net.cpp:425] inception_4d/5x5 <- inception_4d/5x5_reduce
I0403 15:23:34.780073 31699 net.cpp:399] inception_4d/5x5 -> inception_4d/5x5
I0403 15:23:34.781594 31699 net.cpp:141] Setting up inception_4d/5x5
I0403 15:23:34.781625 31699 net.cpp:148] Top shape: 24 64 14 14 (301056)
I0403 15:23:34.781642 31699 net.cpp:156] Memory required for data: 1134062880
I0403 15:23:34.781662 31699 layer_factory.hpp:77] Creating layer inception_4d/relu_5x5
I0403 15:23:34.781698 31699 net.cpp:91] Creating Layer inception_4d/relu_5x5
I0403 15:23:34.781721 31699 net.cpp:425] inception_4d/relu_5x5 <- inception_4d/5x5
I0403 15:23:34.781746 31699 net.cpp:386] inception_4d/relu_5x5 -> inception_4d/5x5 (in-place)
I0403 15:23:34.782063 31699 net.cpp:141] Setting up inception_4d/relu_5x5
I0403 15:23:34.782093 31699 net.cpp:148] Top shape: 24 64 14 14 (301056)
I0403 15:23:34.782109 31699 net.cpp:156] Memory required for data: 1135267104
I0403 15:23:34.782124 31699 layer_factory.hpp:77] Creating layer inception_4d/pool
I0403 15:23:34.782143 31699 net.cpp:91] Creating Layer inception_4d/pool
I0403 15:23:34.782160 31699 net.cpp:425] inception_4d/pool <- inception_4c/output_inception_4c/output_0_split_3
I0403 15:23:34.782181 31699 net.cpp:399] inception_4d/pool -> inception_4d/pool
I0403 15:23:34.782249 31699 net.cpp:141] Setting up inception_4d/pool
I0403 15:23:34.782279 31699 net.cpp:148] Top shape: 24 512 14 14 (2408448)
I0403 15:23:34.782296 31699 net.cpp:156] Memory required for data: 1144900896
I0403 15:23:34.782312 31699 layer_factory.hpp:77] Creating layer inception_4d/pool_proj
I0403 15:23:34.782335 31699 net.cpp:91] Creating Layer inception_4d/pool_proj
I0403 15:23:34.782359 31699 net.cpp:425] inception_4d/pool_proj <- inception_4d/pool
I0403 15:23:34.782380 31699 net.cpp:399] inception_4d/pool_proj -> inception_4d/pool_proj
I0403 15:23:34.784214 31699 net.cpp:141] Setting up inception_4d/pool_proj
I0403 15:23:34.784250 31699 net.cpp:148] Top shape: 24 64 14 14 (301056)
I0403 15:23:34.784278 31699 net.cpp:156] Memory required for data: 1146105120
I0403 15:23:34.784299 31699 layer_factory.hpp:77] Creating layer inception_4d/relu_pool_proj
I0403 15:23:34.784320 31699 net.cpp:91] Creating Layer inception_4d/relu_pool_proj
I0403 15:23:34.784338 31699 net.cpp:425] inception_4d/relu_pool_proj <- inception_4d/pool_proj
I0403 15:23:34.784358 31699 net.cpp:386] inception_4d/relu_pool_proj -> inception_4d/pool_proj (in-place)
I0403 15:23:34.784548 31699 net.cpp:141] Setting up inception_4d/relu_pool_proj
I0403 15:23:34.784577 31699 net.cpp:148] Top shape: 24 64 14 14 (301056)
I0403 15:23:34.784593 31699 net.cpp:156] Memory required for data: 1147309344
I0403 15:23:34.784610 31699 layer_factory.hpp:77] Creating layer inception_4d/output
I0403 15:23:34.784626 31699 net.cpp:91] Creating Layer inception_4d/output
I0403 15:23:34.784643 31699 net.cpp:425] inception_4d/output <- inception_4d/1x1
I0403 15:23:34.784660 31699 net.cpp:425] inception_4d/output <- inception_4d/3x3
I0403 15:23:34.784677 31699 net.cpp:425] inception_4d/output <- inception_4d/5x5
I0403 15:23:34.784693 31699 net.cpp:425] inception_4d/output <- inception_4d/pool_proj
I0403 15:23:34.784710 31699 net.cpp:399] inception_4d/output -> inception_4d/output
I0403 15:23:34.784760 31699 net.cpp:141] Setting up inception_4d/output
I0403 15:23:34.784786 31699 net.cpp:148] Top shape: 24 528 14 14 (2483712)
I0403 15:23:34.784801 31699 net.cpp:156] Memory required for data: 1157244192
I0403 15:23:34.784816 31699 layer_factory.hpp:77] Creating layer inception_4d/output_inception_4d/output_0_split
I0403 15:23:34.784837 31699 net.cpp:91] Creating Layer inception_4d/output_inception_4d/output_0_split
I0403 15:23:34.784858 31699 net.cpp:425] inception_4d/output_inception_4d/output_0_split <- inception_4d/output
I0403 15:23:34.784883 31699 net.cpp:399] inception_4d/output_inception_4d/output_0_split -> inception_4d/output_inception_4d/output_0_split_0
I0403 15:23:34.784909 31699 net.cpp:399] inception_4d/output_inception_4d/output_0_split -> inception_4d/output_inception_4d/output_0_split_1
I0403 15:23:34.784929 31699 net.cpp:399] inception_4d/output_inception_4d/output_0_split -> inception_4d/output_inception_4d/output_0_split_2
I0403 15:23:34.784955 31699 net.cpp:399] inception_4d/output_inception_4d/output_0_split -> inception_4d/output_inception_4d/output_0_split_3
I0403 15:23:34.784976 31699 net.cpp:399] inception_4d/output_inception_4d/output_0_split -> inception_4d/output_inception_4d/output_0_split_4
I0403 15:23:34.785079 31699 net.cpp:141] Setting up inception_4d/output_inception_4d/output_0_split
I0403 15:23:34.785116 31699 net.cpp:148] Top shape: 24 528 14 14 (2483712)
I0403 15:23:34.785135 31699 net.cpp:148] Top shape: 24 528 14 14 (2483712)
I0403 15:23:34.785151 31699 net.cpp:148] Top shape: 24 528 14 14 (2483712)
I0403 15:23:34.785166 31699 net.cpp:148] Top shape: 24 528 14 14 (2483712)
I0403 15:23:34.785182 31699 net.cpp:148] Top shape: 24 528 14 14 (2483712)
I0403 15:23:34.785197 31699 net.cpp:156] Memory required for data: 1206918432
I0403 15:23:34.785212 31699 layer_factory.hpp:77] Creating layer loss2/ave_pool
I0403 15:23:34.785230 31699 net.cpp:91] Creating Layer loss2/ave_pool
I0403 15:23:34.785248 31699 net.cpp:425] loss2/ave_pool <- inception_4d/output_inception_4d/output_0_split_0
I0403 15:23:34.785274 31699 net.cpp:399] loss2/ave_pool -> loss2/ave_pool
I0403 15:23:34.785598 31699 net.cpp:141] Setting up loss2/ave_pool
I0403 15:23:34.785624 31699 net.cpp:148] Top shape: 24 528 4 4 (202752)
I0403 15:23:34.785640 31699 net.cpp:156] Memory required for data: 1207729440
I0403 15:23:34.785656 31699 layer_factory.hpp:77] Creating layer loss2/conv
I0403 15:23:34.785679 31699 net.cpp:91] Creating Layer loss2/conv
I0403 15:23:34.785698 31699 net.cpp:425] loss2/conv <- loss2/ave_pool
I0403 15:23:34.785719 31699 net.cpp:399] loss2/conv -> loss2/conv
I0403 15:23:34.787721 31699 net.cpp:141] Setting up loss2/conv
I0403 15:23:34.787752 31699 net.cpp:148] Top shape: 24 128 4 4 (49152)
I0403 15:23:34.787770 31699 net.cpp:156] Memory required for data: 1207926048
I0403 15:23:34.787791 31699 layer_factory.hpp:77] Creating layer loss2/relu_conv
I0403 15:23:34.787809 31699 net.cpp:91] Creating Layer loss2/relu_conv
I0403 15:23:34.787827 31699 net.cpp:425] loss2/relu_conv <- loss2/conv
I0403 15:23:34.787847 31699 net.cpp:386] loss2/relu_conv -> loss2/conv (in-place)
I0403 15:23:34.788142 31699 net.cpp:141] Setting up loss2/relu_conv
I0403 15:23:34.788172 31699 net.cpp:148] Top shape: 24 128 4 4 (49152)
I0403 15:23:34.788188 31699 net.cpp:156] Memory required for data: 1208122656
I0403 15:23:34.788203 31699 layer_factory.hpp:77] Creating layer loss2/fc
I0403 15:23:34.788224 31699 net.cpp:91] Creating Layer loss2/fc
I0403 15:23:34.788240 31699 net.cpp:425] loss2/fc <- loss2/conv
I0403 15:23:34.788282 31699 net.cpp:399] loss2/fc -> loss2/fc
I0403 15:23:34.806841 31699 net.cpp:141] Setting up loss2/fc
I0403 15:23:34.806879 31699 net.cpp:148] Top shape: 24 1024 (24576)
I0403 15:23:34.806896 31699 net.cpp:156] Memory required for data: 1208220960
I0403 15:23:34.806920 31699 layer_factory.hpp:77] Creating layer loss2/relu_fc
I0403 15:23:34.806942 31699 net.cpp:91] Creating Layer loss2/relu_fc
I0403 15:23:34.806962 31699 net.cpp:425] loss2/relu_fc <- loss2/fc
I0403 15:23:34.806982 31699 net.cpp:386] loss2/relu_fc -> loss2/fc (in-place)
I0403 15:23:34.807351 31699 net.cpp:141] Setting up loss2/relu_fc
I0403 15:23:34.807380 31699 net.cpp:148] Top shape: 24 1024 (24576)
I0403 15:23:34.807397 31699 net.cpp:156] Memory required for data: 1208319264
I0403 15:23:34.807413 31699 layer_factory.hpp:77] Creating layer loss2/drop_fc
I0403 15:23:34.807435 31699 net.cpp:91] Creating Layer loss2/drop_fc
I0403 15:23:34.807453 31699 net.cpp:425] loss2/drop_fc <- loss2/fc
I0403 15:23:34.807472 31699 net.cpp:386] loss2/drop_fc -> loss2/fc (in-place)
I0403 15:23:34.807526 31699 net.cpp:141] Setting up loss2/drop_fc
I0403 15:23:34.807551 31699 net.cpp:148] Top shape: 24 1024 (24576)
I0403 15:23:34.807569 31699 net.cpp:156] Memory required for data: 1208417568
I0403 15:23:34.807586 31699 layer_factory.hpp:77] Creating layer loss2/classifier_plantvillage
I0403 15:23:34.807607 31699 net.cpp:91] Creating Layer loss2/classifier_plantvillage
I0403 15:23:34.807623 31699 net.cpp:425] loss2/classifier_plantvillage <- loss2/fc
I0403 15:23:34.807646 31699 net.cpp:399] loss2/classifier_plantvillage -> loss2/classifier_plantvillage
I0403 15:23:34.808086 31699 net.cpp:141] Setting up loss2/classifier_plantvillage
I0403 15:23:34.808114 31699 net.cpp:148] Top shape: 24 38 (912)
I0403 15:23:34.808128 31699 net.cpp:156] Memory required for data: 1208421216
I0403 15:23:34.808177 31699 layer_factory.hpp:77] Creating layer loss2/classifier_plantvillage_loss2/classifier_plantvillage_0_split
I0403 15:23:34.808198 31699 net.cpp:91] Creating Layer loss2/classifier_plantvillage_loss2/classifier_plantvillage_0_split
I0403 15:23:34.808215 31699 net.cpp:425] loss2/classifier_plantvillage_loss2/classifier_plantvillage_0_split <- loss2/classifier_plantvillage
I0403 15:23:34.808236 31699 net.cpp:399] loss2/classifier_plantvillage_loss2/classifier_plantvillage_0_split -> loss2/classifier_plantvillage_loss2/classifier_plantvillage_0_split_0
I0403 15:23:34.808265 31699 net.cpp:399] loss2/classifier_plantvillage_loss2/classifier_plantvillage_0_split -> loss2/classifier_plantvillage_loss2/classifier_plantvillage_0_split_1
I0403 15:23:34.808289 31699 net.cpp:399] loss2/classifier_plantvillage_loss2/classifier_plantvillage_0_split -> loss2/classifier_plantvillage_loss2/classifier_plantvillage_0_split_2
I0403 15:23:34.808370 31699 net.cpp:141] Setting up loss2/classifier_plantvillage_loss2/classifier_plantvillage_0_split
I0403 15:23:34.808398 31699 net.cpp:148] Top shape: 24 38 (912)
I0403 15:23:34.808414 31699 net.cpp:148] Top shape: 24 38 (912)
I0403 15:23:34.808436 31699 net.cpp:148] Top shape: 24 38 (912)
I0403 15:23:34.808451 31699 net.cpp:156] Memory required for data: 1208432160
I0403 15:23:34.808467 31699 layer_factory.hpp:77] Creating layer inception_4e/1x1
I0403 15:23:34.808490 31699 net.cpp:91] Creating Layer inception_4e/1x1
I0403 15:23:34.808508 31699 net.cpp:425] inception_4e/1x1 <- inception_4d/output_inception_4d/output_0_split_1
I0403 15:23:34.808529 31699 net.cpp:399] inception_4e/1x1 -> inception_4e/1x1
I0403 15:23:34.810511 31699 net.cpp:141] Setting up inception_4e/1x1
I0403 15:23:34.810542 31699 net.cpp:148] Top shape: 24 256 14 14 (1204224)
I0403 15:23:34.810559 31699 net.cpp:156] Memory required for data: 1213249056
I0403 15:23:34.810580 31699 layer_factory.hpp:77] Creating layer inception_4e/relu_1x1
I0403 15:23:34.810600 31699 net.cpp:91] Creating Layer inception_4e/relu_1x1
I0403 15:23:34.810617 31699 net.cpp:425] inception_4e/relu_1x1 <- inception_4e/1x1
I0403 15:23:34.810638 31699 net.cpp:386] inception_4e/relu_1x1 -> inception_4e/1x1 (in-place)
I0403 15:23:34.810955 31699 net.cpp:141] Setting up inception_4e/relu_1x1
I0403 15:23:34.810982 31699 net.cpp:148] Top shape: 24 256 14 14 (1204224)
I0403 15:23:34.811002 31699 net.cpp:156] Memory required for data: 1218065952
I0403 15:23:34.811018 31699 layer_factory.hpp:77] Creating layer inception_4e/3x3_reduce
I0403 15:23:34.811041 31699 net.cpp:91] Creating Layer inception_4e/3x3_reduce
I0403 15:23:34.811060 31699 net.cpp:425] inception_4e/3x3_reduce <- inception_4d/output_inception_4d/output_0_split_2
I0403 15:23:34.811084 31699 net.cpp:399] inception_4e/3x3_reduce -> inception_4e/3x3_reduce
I0403 15:23:34.813395 31699 net.cpp:141] Setting up inception_4e/3x3_reduce
I0403 15:23:34.813427 31699 net.cpp:148] Top shape: 24 160 14 14 (752640)
I0403 15:23:34.813446 31699 net.cpp:156] Memory required for data: 1221076512
I0403 15:23:34.813465 31699 layer_factory.hpp:77] Creating layer inception_4e/relu_3x3_reduce
I0403 15:23:34.813484 31699 net.cpp:91] Creating Layer inception_4e/relu_3x3_reduce
I0403 15:23:34.813500 31699 net.cpp:425] inception_4e/relu_3x3_reduce <- inception_4e/3x3_reduce
I0403 15:23:34.813521 31699 net.cpp:386] inception_4e/relu_3x3_reduce -> inception_4e/3x3_reduce (in-place)
I0403 15:23:34.813717 31699 net.cpp:141] Setting up inception_4e/relu_3x3_reduce
I0403 15:23:34.813743 31699 net.cpp:148] Top shape: 24 160 14 14 (752640)
I0403 15:23:34.813758 31699 net.cpp:156] Memory required for data: 1224087072
I0403 15:23:34.813774 31699 layer_factory.hpp:77] Creating layer inception_4e/3x3
I0403 15:23:34.813797 31699 net.cpp:91] Creating Layer inception_4e/3x3
I0403 15:23:34.813815 31699 net.cpp:425] inception_4e/3x3 <- inception_4e/3x3_reduce
I0403 15:23:34.813838 31699 net.cpp:399] inception_4e/3x3 -> inception_4e/3x3
I0403 15:23:34.819128 31699 net.cpp:141] Setting up inception_4e/3x3
I0403 15:23:34.819171 31699 net.cpp:148] Top shape: 24 320 14 14 (1505280)
I0403 15:23:34.819188 31699 net.cpp:156] Memory required for data: 1230108192
I0403 15:23:34.819207 31699 layer_factory.hpp:77] Creating layer inception_4e/relu_3x3
I0403 15:23:34.819226 31699 net.cpp:91] Creating Layer inception_4e/relu_3x3
I0403 15:23:34.819243 31699 net.cpp:425] inception_4e/relu_3x3 <- inception_4e/3x3
I0403 15:23:34.819269 31699 net.cpp:386] inception_4e/relu_3x3 -> inception_4e/3x3 (in-place)
I0403 15:23:34.819581 31699 net.cpp:141] Setting up inception_4e/relu_3x3
I0403 15:23:34.819608 31699 net.cpp:148] Top shape: 24 320 14 14 (1505280)
I0403 15:23:34.819624 31699 net.cpp:156] Memory required for data: 1236129312
I0403 15:23:34.819640 31699 layer_factory.hpp:77] Creating layer inception_4e/5x5_reduce
I0403 15:23:34.819667 31699 net.cpp:91] Creating Layer inception_4e/5x5_reduce
I0403 15:23:34.819687 31699 net.cpp:425] inception_4e/5x5_reduce <- inception_4d/output_inception_4d/output_0_split_3
I0403 15:23:34.819710 31699 net.cpp:399] inception_4e/5x5_reduce -> inception_4e/5x5_reduce
I0403 15:23:34.820823 31699 net.cpp:141] Setting up inception_4e/5x5_reduce
I0403 15:23:34.820854 31699 net.cpp:148] Top shape: 24 32 14 14 (150528)
I0403 15:23:34.820873 31699 net.cpp:156] Memory required for data: 1236731424
I0403 15:23:34.820891 31699 layer_factory.hpp:77] Creating layer inception_4e/relu_5x5_reduce
I0403 15:23:34.820911 31699 net.cpp:91] Creating Layer inception_4e/relu_5x5_reduce
I0403 15:23:34.820927 31699 net.cpp:425] inception_4e/relu_5x5_reduce <- inception_4e/5x5_reduce
I0403 15:23:34.820945 31699 net.cpp:386] inception_4e/relu_5x5_reduce -> inception_4e/5x5_reduce (in-place)
I0403 15:23:34.821259 31699 net.cpp:141] Setting up inception_4e/relu_5x5_reduce
I0403 15:23:34.821293 31699 net.cpp:148] Top shape: 24 32 14 14 (150528)
I0403 15:23:34.821310 31699 net.cpp:156] Memory required for data: 1237333536
I0403 15:23:34.821326 31699 layer_factory.hpp:77] Creating layer inception_4e/5x5
I0403 15:23:34.821367 31699 net.cpp:91] Creating Layer inception_4e/5x5
I0403 15:23:34.821387 31699 net.cpp:425] inception_4e/5x5 <- inception_4e/5x5_reduce
I0403 15:23:34.821406 31699 net.cpp:399] inception_4e/5x5 -> inception_4e/5x5
I0403 15:23:34.823307 31699 net.cpp:141] Setting up inception_4e/5x5
I0403 15:23:34.823338 31699 net.cpp:148] Top shape: 24 128 14 14 (602112)
I0403 15:23:34.823354 31699 net.cpp:156] Memory required for data: 1239741984
I0403 15:23:34.823374 31699 layer_factory.hpp:77] Creating layer inception_4e/relu_5x5
I0403 15:23:34.823395 31699 net.cpp:91] Creating Layer inception_4e/relu_5x5
I0403 15:23:34.823410 31699 net.cpp:425] inception_4e/relu_5x5 <- inception_4e/5x5
I0403 15:23:34.823428 31699 net.cpp:386] inception_4e/relu_5x5 -> inception_4e/5x5 (in-place)
I0403 15:23:34.823642 31699 net.cpp:141] Setting up inception_4e/relu_5x5
I0403 15:23:34.823671 31699 net.cpp:148] Top shape: 24 128 14 14 (602112)
I0403 15:23:34.823688 31699 net.cpp:156] Memory required for data: 1242150432
I0403 15:23:34.823704 31699 layer_factory.hpp:77] Creating layer inception_4e/pool
I0403 15:23:34.823724 31699 net.cpp:91] Creating Layer inception_4e/pool
I0403 15:23:34.823740 31699 net.cpp:425] inception_4e/pool <- inception_4d/output_inception_4d/output_0_split_4
I0403 15:23:34.823761 31699 net.cpp:399] inception_4e/pool -> inception_4e/pool
I0403 15:23:34.823854 31699 net.cpp:141] Setting up inception_4e/pool
I0403 15:23:34.823880 31699 net.cpp:148] Top shape: 24 528 14 14 (2483712)
I0403 15:23:34.823895 31699 net.cpp:156] Memory required for data: 1252085280
I0403 15:23:34.823909 31699 layer_factory.hpp:77] Creating layer inception_4e/pool_proj
I0403 15:23:34.823932 31699 net.cpp:91] Creating Layer inception_4e/pool_proj
I0403 15:23:34.823951 31699 net.cpp:425] inception_4e/pool_proj <- inception_4e/pool
I0403 15:23:34.823971 31699 net.cpp:399] inception_4e/pool_proj -> inception_4e/pool_proj
I0403 15:23:34.825521 31699 net.cpp:141] Setting up inception_4e/pool_proj
I0403 15:23:34.825549 31699 net.cpp:148] Top shape: 24 128 14 14 (602112)
I0403 15:23:34.825580 31699 net.cpp:156] Memory required for data: 1254493728
I0403 15:23:34.825600 31699 layer_factory.hpp:77] Creating layer inception_4e/relu_pool_proj
I0403 15:23:34.825620 31699 net.cpp:91] Creating Layer inception_4e/relu_pool_proj
I0403 15:23:34.825637 31699 net.cpp:425] inception_4e/relu_pool_proj <- inception_4e/pool_proj
I0403 15:23:34.825655 31699 net.cpp:386] inception_4e/relu_pool_proj -> inception_4e/pool_proj (in-place)
I0403 15:23:34.825955 31699 net.cpp:141] Setting up inception_4e/relu_pool_proj
I0403 15:23:34.825983 31699 net.cpp:148] Top shape: 24 128 14 14 (602112)
I0403 15:23:34.825999 31699 net.cpp:156] Memory required for data: 1256902176
I0403 15:23:34.826014 31699 layer_factory.hpp:77] Creating layer inception_4e/output
I0403 15:23:34.826033 31699 net.cpp:91] Creating Layer inception_4e/output
I0403 15:23:34.826050 31699 net.cpp:425] inception_4e/output <- inception_4e/1x1
I0403 15:23:34.826068 31699 net.cpp:425] inception_4e/output <- inception_4e/3x3
I0403 15:23:34.826084 31699 net.cpp:425] inception_4e/output <- inception_4e/5x5
I0403 15:23:34.826100 31699 net.cpp:425] inception_4e/output <- inception_4e/pool_proj
I0403 15:23:34.826117 31699 net.cpp:399] inception_4e/output -> inception_4e/output
I0403 15:23:34.826169 31699 net.cpp:141] Setting up inception_4e/output
I0403 15:23:34.826192 31699 net.cpp:148] Top shape: 24 832 14 14 (3913728)
I0403 15:23:34.826207 31699 net.cpp:156] Memory required for data: 1272557088
I0403 15:23:34.826222 31699 layer_factory.hpp:77] Creating layer pool4/3x3_s2
I0403 15:23:34.826241 31699 net.cpp:91] Creating Layer pool4/3x3_s2
I0403 15:23:34.826261 31699 net.cpp:425] pool4/3x3_s2 <- inception_4e/output
I0403 15:23:34.826282 31699 net.cpp:399] pool4/3x3_s2 -> pool4/3x3_s2
I0403 15:23:34.826351 31699 net.cpp:141] Setting up pool4/3x3_s2
I0403 15:23:34.826380 31699 net.cpp:148] Top shape: 24 832 7 7 (978432)
I0403 15:23:34.826395 31699 net.cpp:156] Memory required for data: 1276470816
I0403 15:23:34.826411 31699 layer_factory.hpp:77] Creating layer pool4/3x3_s2_pool4/3x3_s2_0_split
I0403 15:23:34.826427 31699 net.cpp:91] Creating Layer pool4/3x3_s2_pool4/3x3_s2_0_split
I0403 15:23:34.826442 31699 net.cpp:425] pool4/3x3_s2_pool4/3x3_s2_0_split <- pool4/3x3_s2
I0403 15:23:34.826459 31699 net.cpp:399] pool4/3x3_s2_pool4/3x3_s2_0_split -> pool4/3x3_s2_pool4/3x3_s2_0_split_0
I0403 15:23:34.826483 31699 net.cpp:399] pool4/3x3_s2_pool4/3x3_s2_0_split -> pool4/3x3_s2_pool4/3x3_s2_0_split_1
I0403 15:23:34.826503 31699 net.cpp:399] pool4/3x3_s2_pool4/3x3_s2_0_split -> pool4/3x3_s2_pool4/3x3_s2_0_split_2
I0403 15:23:34.826524 31699 net.cpp:399] pool4/3x3_s2_pool4/3x3_s2_0_split -> pool4/3x3_s2_pool4/3x3_s2_0_split_3
I0403 15:23:34.826612 31699 net.cpp:141] Setting up pool4/3x3_s2_pool4/3x3_s2_0_split
I0403 15:23:34.826637 31699 net.cpp:148] Top shape: 24 832 7 7 (978432)
I0403 15:23:34.826653 31699 net.cpp:148] Top shape: 24 832 7 7 (978432)
I0403 15:23:34.826668 31699 net.cpp:148] Top shape: 24 832 7 7 (978432)
I0403 15:23:34.826684 31699 net.cpp:148] Top shape: 24 832 7 7 (978432)
I0403 15:23:34.826697 31699 net.cpp:156] Memory required for data: 1292125728
I0403 15:23:34.826712 31699 layer_factory.hpp:77] Creating layer inception_5a/1x1
I0403 15:23:34.826735 31699 net.cpp:91] Creating Layer inception_5a/1x1
I0403 15:23:34.826756 31699 net.cpp:425] inception_5a/1x1 <- pool4/3x3_s2_pool4/3x3_s2_0_split_0
I0403 15:23:34.826774 31699 net.cpp:399] inception_5a/1x1 -> inception_5a/1x1
I0403 15:23:34.829845 31699 net.cpp:141] Setting up inception_5a/1x1
I0403 15:23:34.829876 31699 net.cpp:148] Top shape: 24 256 7 7 (301056)
I0403 15:23:34.829892 31699 net.cpp:156] Memory required for data: 1293329952
I0403 15:23:34.829912 31699 layer_factory.hpp:77] Creating layer inception_5a/relu_1x1
I0403 15:23:34.829932 31699 net.cpp:91] Creating Layer inception_5a/relu_1x1
I0403 15:23:34.829949 31699 net.cpp:425] inception_5a/relu_1x1 <- inception_5a/1x1
I0403 15:23:34.829967 31699 net.cpp:386] inception_5a/relu_1x1 -> inception_5a/1x1 (in-place)
I0403 15:23:34.830298 31699 net.cpp:141] Setting up inception_5a/relu_1x1
I0403 15:23:34.830327 31699 net.cpp:148] Top shape: 24 256 7 7 (301056)
I0403 15:23:34.830343 31699 net.cpp:156] Memory required for data: 1294534176
I0403 15:23:34.830358 31699 layer_factory.hpp:77] Creating layer inception_5a/3x3_reduce
I0403 15:23:34.830384 31699 net.cpp:91] Creating Layer inception_5a/3x3_reduce
I0403 15:23:34.830401 31699 net.cpp:425] inception_5a/3x3_reduce <- pool4/3x3_s2_pool4/3x3_s2_0_split_1
I0403 15:23:34.830421 31699 net.cpp:399] inception_5a/3x3_reduce -> inception_5a/3x3_reduce
I0403 15:23:34.832985 31699 net.cpp:141] Setting up inception_5a/3x3_reduce
I0403 15:23:34.833016 31699 net.cpp:148] Top shape: 24 160 7 7 (188160)
I0403 15:23:34.833032 31699 net.cpp:156] Memory required for data: 1295286816
I0403 15:23:34.833051 31699 layer_factory.hpp:77] Creating layer inception_5a/relu_3x3_reduce
I0403 15:23:34.833070 31699 net.cpp:91] Creating Layer inception_5a/relu_3x3_reduce
I0403 15:23:34.833087 31699 net.cpp:425] inception_5a/relu_3x3_reduce <- inception_5a/3x3_reduce
I0403 15:23:34.833106 31699 net.cpp:386] inception_5a/relu_3x3_reduce -> inception_5a/3x3_reduce (in-place)
I0403 15:23:34.833300 31699 net.cpp:141] Setting up inception_5a/relu_3x3_reduce
I0403 15:23:34.833325 31699 net.cpp:148] Top shape: 24 160 7 7 (188160)
I0403 15:23:34.833340 31699 net.cpp:156] Memory required for data: 1296039456
I0403 15:23:34.833355 31699 layer_factory.hpp:77] Creating layer inception_5a/3x3
I0403 15:23:34.833381 31699 net.cpp:91] Creating Layer inception_5a/3x3
I0403 15:23:34.833400 31699 net.cpp:425] inception_5a/3x3 <- inception_5a/3x3_reduce
I0403 15:23:34.833420 31699 net.cpp:399] inception_5a/3x3 -> inception_5a/3x3
I0403 15:23:34.838556 31699 net.cpp:141] Setting up inception_5a/3x3
I0403 15:23:34.838599 31699 net.cpp:148] Top shape: 24 320 7 7 (376320)
I0403 15:23:34.838614 31699 net.cpp:156] Memory required for data: 1297544736
I0403 15:23:34.838634 31699 layer_factory.hpp:77] Creating layer inception_5a/relu_3x3
I0403 15:23:34.838651 31699 net.cpp:91] Creating Layer inception_5a/relu_3x3
I0403 15:23:34.838667 31699 net.cpp:425] inception_5a/relu_3x3 <- inception_5a/3x3
I0403 15:23:34.838683 31699 net.cpp:386] inception_5a/relu_3x3 -> inception_5a/3x3 (in-place)
I0403 15:23:34.838973 31699 net.cpp:141] Setting up inception_5a/relu_3x3
I0403 15:23:34.839001 31699 net.cpp:148] Top shape: 24 320 7 7 (376320)
I0403 15:23:34.839017 31699 net.cpp:156] Memory required for data: 1299050016
I0403 15:23:34.839032 31699 layer_factory.hpp:77] Creating layer inception_5a/5x5_reduce
I0403 15:23:34.839052 31699 net.cpp:91] Creating Layer inception_5a/5x5_reduce
I0403 15:23:34.839071 31699 net.cpp:425] inception_5a/5x5_reduce <- pool4/3x3_s2_pool4/3x3_s2_0_split_2
I0403 15:23:34.839093 31699 net.cpp:399] inception_5a/5x5_reduce -> inception_5a/5x5_reduce
I0403 15:23:34.840240 31699 net.cpp:141] Setting up inception_5a/5x5_reduce
I0403 15:23:34.840275 31699 net.cpp:148] Top shape: 24 32 7 7 (37632)
I0403 15:23:34.840291 31699 net.cpp:156] Memory required for data: 1299200544
I0403 15:23:34.840309 31699 layer_factory.hpp:77] Creating layer inception_5a/relu_5x5_reduce
I0403 15:23:34.840327 31699 net.cpp:91] Creating Layer inception_5a/relu_5x5_reduce
I0403 15:23:34.840344 31699 net.cpp:425] inception_5a/relu_5x5_reduce <- inception_5a/5x5_reduce
I0403 15:23:34.840364 31699 net.cpp:386] inception_5a/relu_5x5_reduce -> inception_5a/5x5_reduce (in-place)
I0403 15:23:34.840657 31699 net.cpp:141] Setting up inception_5a/relu_5x5_reduce
I0403 15:23:34.840685 31699 net.cpp:148] Top shape: 24 32 7 7 (37632)
I0403 15:23:34.840700 31699 net.cpp:156] Memory required for data: 1299351072
I0403 15:23:34.840716 31699 layer_factory.hpp:77] Creating layer inception_5a/5x5
I0403 15:23:34.840739 31699 net.cpp:91] Creating Layer inception_5a/5x5
I0403 15:23:34.840756 31699 net.cpp:425] inception_5a/5x5 <- inception_5a/5x5_reduce
I0403 15:23:34.840775 31699 net.cpp:399] inception_5a/5x5 -> inception_5a/5x5
I0403 15:23:34.842507 31699 net.cpp:141] Setting up inception_5a/5x5
I0403 15:23:34.842561 31699 net.cpp:148] Top shape: 24 128 7 7 (150528)
I0403 15:23:34.842577 31699 net.cpp:156] Memory required for data: 1299953184
I0403 15:23:34.842597 31699 layer_factory.hpp:77] Creating layer inception_5a/relu_5x5
I0403 15:23:34.842614 31699 net.cpp:91] Creating Layer inception_5a/relu_5x5
I0403 15:23:34.842631 31699 net.cpp:425] inception_5a/relu_5x5 <- inception_5a/5x5
I0403 15:23:34.842648 31699 net.cpp:386] inception_5a/relu_5x5 -> inception_5a/5x5 (in-place)
I0403 15:23:34.842836 31699 net.cpp:141] Setting up inception_5a/relu_5x5
I0403 15:23:34.842864 31699 net.cpp:148] Top shape: 24 128 7 7 (150528)
I0403 15:23:34.842878 31699 net.cpp:156] Memory required for data: 1300555296
I0403 15:23:34.842893 31699 layer_factory.hpp:77] Creating layer inception_5a/pool
I0403 15:23:34.842911 31699 net.cpp:91] Creating Layer inception_5a/pool
I0403 15:23:34.842927 31699 net.cpp:425] inception_5a/pool <- pool4/3x3_s2_pool4/3x3_s2_0_split_3
I0403 15:23:34.842947 31699 net.cpp:399] inception_5a/pool -> inception_5a/pool
I0403 15:23:34.843014 31699 net.cpp:141] Setting up inception_5a/pool
I0403 15:23:34.843039 31699 net.cpp:148] Top shape: 24 832 7 7 (978432)
I0403 15:23:34.843056 31699 net.cpp:156] Memory required for data: 1304469024
I0403 15:23:34.843071 31699 layer_factory.hpp:77] Creating layer inception_5a/pool_proj
I0403 15:23:34.843091 31699 net.cpp:91] Creating Layer inception_5a/pool_proj
I0403 15:23:34.843106 31699 net.cpp:425] inception_5a/pool_proj <- inception_5a/pool
I0403 15:23:34.843127 31699 net.cpp:399] inception_5a/pool_proj -> inception_5a/pool_proj
I0403 15:23:34.845425 31699 net.cpp:141] Setting up inception_5a/pool_proj
I0403 15:23:34.845454 31699 net.cpp:148] Top shape: 24 128 7 7 (150528)
I0403 15:23:34.845469 31699 net.cpp:156] Memory required for data: 1305071136
I0403 15:23:34.845487 31699 layer_factory.hpp:77] Creating layer inception_5a/relu_pool_proj
I0403 15:23:34.845506 31699 net.cpp:91] Creating Layer inception_5a/relu_pool_proj
I0403 15:23:34.845525 31699 net.cpp:425] inception_5a/relu_pool_proj <- inception_5a/pool_proj
I0403 15:23:34.845542 31699 net.cpp:386] inception_5a/relu_pool_proj -> inception_5a/pool_proj (in-place)
I0403 15:23:34.845839 31699 net.cpp:141] Setting up inception_5a/relu_pool_proj
I0403 15:23:34.845865 31699 net.cpp:148] Top shape: 24 128 7 7 (150528)
I0403 15:23:34.845880 31699 net.cpp:156] Memory required for data: 1305673248
I0403 15:23:34.845893 31699 layer_factory.hpp:77] Creating layer inception_5a/output
I0403 15:23:34.845913 31699 net.cpp:91] Creating Layer inception_5a/output
I0403 15:23:34.845929 31699 net.cpp:425] inception_5a/output <- inception_5a/1x1
I0403 15:23:34.845947 31699 net.cpp:425] inception_5a/output <- inception_5a/3x3
I0403 15:23:34.845963 31699 net.cpp:425] inception_5a/output <- inception_5a/5x5
I0403 15:23:34.845978 31699 net.cpp:425] inception_5a/output <- inception_5a/pool_proj
I0403 15:23:34.845995 31699 net.cpp:399] inception_5a/output -> inception_5a/output
I0403 15:23:34.846045 31699 net.cpp:141] Setting up inception_5a/output
I0403 15:23:34.846070 31699 net.cpp:148] Top shape: 24 832 7 7 (978432)
I0403 15:23:34.846084 31699 net.cpp:156] Memory required for data: 1309586976
I0403 15:23:34.846099 31699 layer_factory.hpp:77] Creating layer inception_5a/output_inception_5a/output_0_split
I0403 15:23:34.846115 31699 net.cpp:91] Creating Layer inception_5a/output_inception_5a/output_0_split
I0403 15:23:34.846129 31699 net.cpp:425] inception_5a/output_inception_5a/output_0_split <- inception_5a/output
I0403 15:23:34.846149 31699 net.cpp:399] inception_5a/output_inception_5a/output_0_split -> inception_5a/output_inception_5a/output_0_split_0
I0403 15:23:34.846170 31699 net.cpp:399] inception_5a/output_inception_5a/output_0_split -> inception_5a/output_inception_5a/output_0_split_1
I0403 15:23:34.846191 31699 net.cpp:399] inception_5a/output_inception_5a/output_0_split -> inception_5a/output_inception_5a/output_0_split_2
I0403 15:23:34.846211 31699 net.cpp:399] inception_5a/output_inception_5a/output_0_split -> inception_5a/output_inception_5a/output_0_split_3
I0403 15:23:34.846326 31699 net.cpp:141] Setting up inception_5a/output_inception_5a/output_0_split
I0403 15:23:34.846354 31699 net.cpp:148] Top shape: 24 832 7 7 (978432)
I0403 15:23:34.846369 31699 net.cpp:148] Top shape: 24 832 7 7 (978432)
I0403 15:23:34.846386 31699 net.cpp:148] Top shape: 24 832 7 7 (978432)
I0403 15:23:34.846402 31699 net.cpp:148] Top shape: 24 832 7 7 (978432)
I0403 15:23:34.846415 31699 net.cpp:156] Memory required for data: 1325241888
I0403 15:23:34.846431 31699 layer_factory.hpp:77] Creating layer inception_5b/1x1
I0403 15:23:34.846452 31699 net.cpp:91] Creating Layer inception_5b/1x1
I0403 15:23:34.846469 31699 net.cpp:425] inception_5b/1x1 <- inception_5a/output_inception_5a/output_0_split_0
I0403 15:23:34.846488 31699 net.cpp:399] inception_5b/1x1 -> inception_5b/1x1
I0403 15:23:34.850181 31699 net.cpp:141] Setting up inception_5b/1x1
I0403 15:23:34.850213 31699 net.cpp:148] Top shape: 24 384 7 7 (451584)
I0403 15:23:34.850227 31699 net.cpp:156] Memory required for data: 1327048224
I0403 15:23:34.850263 31699 layer_factory.hpp:77] Creating layer inception_5b/relu_1x1
I0403 15:23:34.850287 31699 net.cpp:91] Creating Layer inception_5b/relu_1x1
I0403 15:23:34.850304 31699 net.cpp:425] inception_5b/relu_1x1 <- inception_5b/1x1
I0403 15:23:34.850323 31699 net.cpp:386] inception_5b/relu_1x1 -> inception_5b/1x1 (in-place)
I0403 15:23:34.850661 31699 net.cpp:141] Setting up inception_5b/relu_1x1
I0403 15:23:34.850687 31699 net.cpp:148] Top shape: 24 384 7 7 (451584)
I0403 15:23:34.850702 31699 net.cpp:156] Memory required for data: 1328854560
I0403 15:23:34.850715 31699 layer_factory.hpp:77] Creating layer inception_5b/3x3_reduce
I0403 15:23:34.850738 31699 net.cpp:91] Creating Layer inception_5b/3x3_reduce
I0403 15:23:34.850755 31699 net.cpp:425] inception_5b/3x3_reduce <- inception_5a/output_inception_5a/output_0_split_1
I0403 15:23:34.850776 31699 net.cpp:399] inception_5b/3x3_reduce -> inception_5b/3x3_reduce
I0403 15:23:34.853400 31699 net.cpp:141] Setting up inception_5b/3x3_reduce
I0403 15:23:34.853433 31699 net.cpp:148] Top shape: 24 192 7 7 (225792)
I0403 15:23:34.853449 31699 net.cpp:156] Memory required for data: 1329757728
I0403 15:23:34.853468 31699 layer_factory.hpp:77] Creating layer inception_5b/relu_3x3_reduce
I0403 15:23:34.853489 31699 net.cpp:91] Creating Layer inception_5b/relu_3x3_reduce
I0403 15:23:34.853507 31699 net.cpp:425] inception_5b/relu_3x3_reduce <- inception_5b/3x3_reduce
I0403 15:23:34.853525 31699 net.cpp:386] inception_5b/relu_3x3_reduce -> inception_5b/3x3_reduce (in-place)
I0403 15:23:34.853727 31699 net.cpp:141] Setting up inception_5b/relu_3x3_reduce
I0403 15:23:34.853756 31699 net.cpp:148] Top shape: 24 192 7 7 (225792)
I0403 15:23:34.853771 31699 net.cpp:156] Memory required for data: 1330660896
I0403 15:23:34.853787 31699 layer_factory.hpp:77] Creating layer inception_5b/3x3
I0403 15:23:34.853809 31699 net.cpp:91] Creating Layer inception_5b/3x3
I0403 15:23:34.853827 31699 net.cpp:425] inception_5b/3x3 <- inception_5b/3x3_reduce
I0403 15:23:34.853847 31699 net.cpp:399] inception_5b/3x3 -> inception_5b/3x3
I0403 15:23:34.860827 31699 net.cpp:141] Setting up inception_5b/3x3
I0403 15:23:34.860857 31699 net.cpp:148] Top shape: 24 384 7 7 (451584)
I0403 15:23:34.860873 31699 net.cpp:156] Memory required for data: 1332467232
I0403 15:23:34.860893 31699 layer_factory.hpp:77] Creating layer inception_5b/relu_3x3
I0403 15:23:34.860915 31699 net.cpp:91] Creating Layer inception_5b/relu_3x3
I0403 15:23:34.860934 31699 net.cpp:425] inception_5b/relu_3x3 <- inception_5b/3x3
I0403 15:23:34.860952 31699 net.cpp:386] inception_5b/relu_3x3 -> inception_5b/3x3 (in-place)
I0403 15:23:34.861274 31699 net.cpp:141] Setting up inception_5b/relu_3x3
I0403 15:23:34.861304 31699 net.cpp:148] Top shape: 24 384 7 7 (451584)
I0403 15:23:34.861318 31699 net.cpp:156] Memory required for data: 1334273568
I0403 15:23:34.861335 31699 layer_factory.hpp:77] Creating layer inception_5b/5x5_reduce
I0403 15:23:34.861376 31699 net.cpp:91] Creating Layer inception_5b/5x5_reduce
I0403 15:23:34.861397 31699 net.cpp:425] inception_5b/5x5_reduce <- inception_5a/output_inception_5a/output_0_split_2
I0403 15:23:34.861420 31699 net.cpp:399] inception_5b/5x5_reduce -> inception_5b/5x5_reduce
I0403 15:23:34.862793 31699 net.cpp:141] Setting up inception_5b/5x5_reduce
I0403 15:23:34.862823 31699 net.cpp:148] Top shape: 24 48 7 7 (56448)
I0403 15:23:34.862838 31699 net.cpp:156] Memory required for data: 1334499360
I0403 15:23:34.862859 31699 layer_factory.hpp:77] Creating layer inception_5b/relu_5x5_reduce
I0403 15:23:34.862879 31699 net.cpp:91] Creating Layer inception_5b/relu_5x5_reduce
I0403 15:23:34.862898 31699 net.cpp:425] inception_5b/relu_5x5_reduce <- inception_5b/5x5_reduce
I0403 15:23:34.862917 31699 net.cpp:386] inception_5b/relu_5x5_reduce -> inception_5b/5x5_reduce (in-place)
I0403 15:23:34.863314 31699 net.cpp:141] Setting up inception_5b/relu_5x5_reduce
I0403 15:23:34.863343 31699 net.cpp:148] Top shape: 24 48 7 7 (56448)
I0403 15:23:34.863358 31699 net.cpp:156] Memory required for data: 1334725152
I0403 15:23:34.863373 31699 layer_factory.hpp:77] Creating layer inception_5b/5x5
I0403 15:23:34.863395 31699 net.cpp:91] Creating Layer inception_5b/5x5
I0403 15:23:34.863412 31699 net.cpp:425] inception_5b/5x5 <- inception_5b/5x5_reduce
I0403 15:23:34.863433 31699 net.cpp:399] inception_5b/5x5 -> inception_5b/5x5
I0403 15:23:34.865577 31699 net.cpp:141] Setting up inception_5b/5x5
I0403 15:23:34.865607 31699 net.cpp:148] Top shape: 24 128 7 7 (150528)
I0403 15:23:34.865623 31699 net.cpp:156] Memory required for data: 1335327264
I0403 15:23:34.865643 31699 layer_factory.hpp:77] Creating layer inception_5b/relu_5x5
I0403 15:23:34.865664 31699 net.cpp:91] Creating Layer inception_5b/relu_5x5
I0403 15:23:34.865682 31699 net.cpp:425] inception_5b/relu_5x5 <- inception_5b/5x5
I0403 15:23:34.865701 31699 net.cpp:386] inception_5b/relu_5x5 -> inception_5b/5x5 (in-place)
I0403 15:23:34.865906 31699 net.cpp:141] Setting up inception_5b/relu_5x5
I0403 15:23:34.865933 31699 net.cpp:148] Top shape: 24 128 7 7 (150528)
I0403 15:23:34.865949 31699 net.cpp:156] Memory required for data: 1335929376
I0403 15:23:34.865965 31699 layer_factory.hpp:77] Creating layer inception_5b/pool
I0403 15:23:34.865983 31699 net.cpp:91] Creating Layer inception_5b/pool
I0403 15:23:34.866000 31699 net.cpp:425] inception_5b/pool <- inception_5a/output_inception_5a/output_0_split_3
I0403 15:23:34.866021 31699 net.cpp:399] inception_5b/pool -> inception_5b/pool
I0403 15:23:34.866098 31699 net.cpp:141] Setting up inception_5b/pool
I0403 15:23:34.866123 31699 net.cpp:148] Top shape: 24 832 7 7 (978432)
I0403 15:23:34.866139 31699 net.cpp:156] Memory required for data: 1339843104
I0403 15:23:34.866154 31699 layer_factory.hpp:77] Creating layer inception_5b/pool_proj
I0403 15:23:34.866178 31699 net.cpp:91] Creating Layer inception_5b/pool_proj
I0403 15:23:34.866199 31699 net.cpp:425] inception_5b/pool_proj <- inception_5b/pool
I0403 15:23:34.866219 31699 net.cpp:399] inception_5b/pool_proj -> inception_5b/pool_proj
I0403 15:23:34.868671 31699 net.cpp:141] Setting up inception_5b/pool_proj
I0403 15:23:34.868701 31699 net.cpp:148] Top shape: 24 128 7 7 (150528)
I0403 15:23:34.868717 31699 net.cpp:156] Memory required for data: 1340445216
I0403 15:23:34.868736 31699 layer_factory.hpp:77] Creating layer inception_5b/relu_pool_proj
I0403 15:23:34.868757 31699 net.cpp:91] Creating Layer inception_5b/relu_pool_proj
I0403 15:23:34.868775 31699 net.cpp:425] inception_5b/relu_pool_proj <- inception_5b/pool_proj
I0403 15:23:34.868793 31699 net.cpp:386] inception_5b/relu_pool_proj -> inception_5b/pool_proj (in-place)
I0403 15:23:34.869102 31699 net.cpp:141] Setting up inception_5b/relu_pool_proj
I0403 15:23:34.869130 31699 net.cpp:148] Top shape: 24 128 7 7 (150528)
I0403 15:23:34.869145 31699 net.cpp:156] Memory required for data: 1341047328
I0403 15:23:34.869161 31699 layer_factory.hpp:77] Creating layer inception_5b/output
I0403 15:23:34.869181 31699 net.cpp:91] Creating Layer inception_5b/output
I0403 15:23:34.869215 31699 net.cpp:425] inception_5b/output <- inception_5b/1x1
I0403 15:23:34.869233 31699 net.cpp:425] inception_5b/output <- inception_5b/3x3
I0403 15:23:34.869251 31699 net.cpp:425] inception_5b/output <- inception_5b/5x5
I0403 15:23:34.869273 31699 net.cpp:425] inception_5b/output <- inception_5b/pool_proj
I0403 15:23:34.869292 31699 net.cpp:399] inception_5b/output -> inception_5b/output
I0403 15:23:34.869348 31699 net.cpp:141] Setting up inception_5b/output
I0403 15:23:34.869372 31699 net.cpp:148] Top shape: 24 1024 7 7 (1204224)
I0403 15:23:34.869388 31699 net.cpp:156] Memory required for data: 1345864224
I0403 15:23:34.869405 31699 layer_factory.hpp:77] Creating layer pool5/7x7_s1
I0403 15:23:34.869422 31699 net.cpp:91] Creating Layer pool5/7x7_s1
I0403 15:23:34.869438 31699 net.cpp:425] pool5/7x7_s1 <- inception_5b/output
I0403 15:23:34.869463 31699 net.cpp:399] pool5/7x7_s1 -> pool5/7x7_s1
I0403 15:23:34.869688 31699 net.cpp:141] Setting up pool5/7x7_s1
I0403 15:23:34.869717 31699 net.cpp:148] Top shape: 24 1024 1 1 (24576)
I0403 15:23:34.869734 31699 net.cpp:156] Memory required for data: 1345962528
I0403 15:23:34.869750 31699 layer_factory.hpp:77] Creating layer pool5/drop_7x7_s1
I0403 15:23:34.869767 31699 net.cpp:91] Creating Layer pool5/drop_7x7_s1
I0403 15:23:34.869783 31699 net.cpp:425] pool5/drop_7x7_s1 <- pool5/7x7_s1
I0403 15:23:34.869801 31699 net.cpp:386] pool5/drop_7x7_s1 -> pool5/7x7_s1 (in-place)
I0403 15:23:34.869854 31699 net.cpp:141] Setting up pool5/drop_7x7_s1
I0403 15:23:34.869879 31699 net.cpp:148] Top shape: 24 1024 1 1 (24576)
I0403 15:23:34.869894 31699 net.cpp:156] Memory required for data: 1346060832
I0403 15:23:34.869909 31699 layer_factory.hpp:77] Creating layer loss3/classifier_plantvillage
I0403 15:23:34.869931 31699 net.cpp:91] Creating Layer loss3/classifier_plantvillage
I0403 15:23:34.869948 31699 net.cpp:425] loss3/classifier_plantvillage <- pool5/7x7_s1
I0403 15:23:34.869967 31699 net.cpp:399] loss3/classifier_plantvillage -> loss3/classifier_plantvillage
I0403 15:23:34.870415 31699 net.cpp:141] Setting up loss3/classifier_plantvillage
I0403 15:23:34.870441 31699 net.cpp:148] Top shape: 24 38 (912)
I0403 15:23:34.870457 31699 net.cpp:156] Memory required for data: 1346064480
I0403 15:23:34.870477 31699 layer_factory.hpp:77] Creating layer loss3/classifier_plantvillage_loss3/classifier_plantvillage_0_split
I0403 15:23:34.870496 31699 net.cpp:91] Creating Layer loss3/classifier_plantvillage_loss3/classifier_plantvillage_0_split
I0403 15:23:34.870513 31699 net.cpp:425] loss3/classifier_plantvillage_loss3/classifier_plantvillage_0_split <- loss3/classifier_plantvillage
I0403 15:23:34.870534 31699 net.cpp:399] loss3/classifier_plantvillage_loss3/classifier_plantvillage_0_split -> loss3/classifier_plantvillage_loss3/classifier_plantvillage_0_split_0
I0403 15:23:34.870556 31699 net.cpp:399] loss3/classifier_plantvillage_loss3/classifier_plantvillage_0_split -> loss3/classifier_plantvillage_loss3/classifier_plantvillage_0_split_1
I0403 15:23:34.870579 31699 net.cpp:399] loss3/classifier_plantvillage_loss3/classifier_plantvillage_0_split -> loss3/classifier_plantvillage_loss3/classifier_plantvillage_0_split_2
I0403 15:23:34.870600 31699 net.cpp:399] loss3/classifier_plantvillage_loss3/classifier_plantvillage_0_split -> loss3/classifier_plantvillage_loss3/classifier_plantvillage_0_split_3
I0403 15:23:34.870712 31699 net.cpp:141] Setting up loss3/classifier_plantvillage_loss3/classifier_plantvillage_0_split
I0403 15:23:34.870738 31699 net.cpp:148] Top shape: 24 38 (912)
I0403 15:23:34.870755 31699 net.cpp:148] Top shape: 24 38 (912)
I0403 15:23:34.870784 31699 net.cpp:148] Top shape: 24 38 (912)
I0403 15:23:34.870800 31699 net.cpp:148] Top shape: 24 38 (912)
I0403 15:23:34.870815 31699 net.cpp:156] Memory required for data: 1346079072
I0403 15:23:34.870831 31699 layer_factory.hpp:77] Creating layer loss1/loss
I0403 15:23:34.870856 31699 net.cpp:91] Creating Layer loss1/loss
I0403 15:23:34.870875 31699 net.cpp:425] loss1/loss <- loss1/classifier_plantvillage_loss1/classifier_plantvillage_0_split_0
I0403 15:23:34.870908 31699 net.cpp:425] loss1/loss <- label_data_1_split_0
…
