…
I0403 15:30:44.305140 31983 net.cpp:313] The NetState phase (1) differed from the phase (0) specified by a rule in layer data
I0403 15:30:44.306279 31983 net.cpp:49] Initializing net from parameters: 
state {
  phase: TEST
}
layer {
  name: "data"
  type: "Data"
  top: "data"
  top: "label"
  include {
    phase: TEST
  }
  transform_param {
    mirror: false
    crop_size: 224
    mean_file: "/home/mohanty/data/final_dataset/lmdb/color-60-40/mean.binaryproto"
  }
  data_param {
    source: "/home/mohanty/data/final_dataset/lmdb/color-60-40/test_db"
    batch_size: 24
    backend: LMDB
  }
}
layer {
  name: "conv1/7x7_s2"
  type: "Convolution"
  bottom: "data"
  top: "conv1/7x7_s2"
  param {
    lr_mult: 1
    decay_mult: 1
  }
  param {
    lr_mult: 2
    decay_mult: 0
  }
  convolution_param {
    num_output: 64
    pad: 3
    kernel_size: 7
    stride: 2
    weight_filler {
      type: "xavier"
      std: 0.1
    }
    bias_filler {
      type: "constant"
      value: 0.2
    }
  }
}
layer {
  name: "conv1/relu_7x7"
  type: "ReLU"
  bottom: "conv1/7x7_s2"
  top: "conv1/7x7_s2"
}
layer {
  name: "pool1/3x3_s2"
  type: "Pooling"
  bottom: "conv1/7x7_s2"
  top: "pool1/3x3_s2"
  pooling_param {
    pool: MAX
    kernel_size: 3
    stride: 2
  }
}
layer {
  name: "pool1/norm1"
  type: "LRN"
  bottom: "pool1/3x3_s2"
  top: "pool1/norm1"
  lrn_param {
    local_size: 5
    alpha: 0.0001
    beta: 0.75
  }
}
layer {
  name: "conv2/3x3_reduce"
  type: "Convolution"
  bottom: "pool1/norm1"
  top: "conv2/3x3_reduce"
  param {
    lr_mult: 1
    decay_mult: 1
  }
  param {
    lr_mult: 2
    decay_mult: 0
  }
  convolution_param {
    num_output: 64
    kernel_size: 1
    weight_filler {
      type: "xavier"
      std: 0.1
    }
    bias_filler {
      type: "constant"
      value: 0.2
    }
  }
}
layer {
  name: "conv2/relu_3x3_reduce"
  type: "ReLU"
  bottom: "conv2/3x3_reduce"
  top: "conv2/3x3_reduce"
}
layer {
  name: "conv2/3x3"
  type: "Convolution"
  bottom: "conv2/3x3_reduce"
  top: "conv2/3x3"
  param {
    lr_mult: 1
    decay_mult: 1
  }
  param {
    lr_mult: 2
    decay_mult: 0
  }
  convolution_param {
    num_output: 192
    pad: 1
    kernel_size: 3
    weight_filler {
      type: "xavier"
      std: 0.03
    }
    bias_filler {
      type: "constant"
      value: 0.2
    }
  }
}
layer {
  name: "conv2/relu_3x3"
  type: "ReLU"
  bottom: "conv2/3x3"
  top: "conv2/3x3"
}
layer {
  name: "conv2/norm2"
  type: "LRN"
  bottom: "conv2/3x3"
  top: "conv2/norm2"
  lrn_param {
    local_size: 5
    alpha: 0.0001
    beta: 0.75
  }
}
layer {
  name: "pool2/3x3_s2"
  type: "Pooling"
  bottom: "conv2/norm2"
  top: "pool2/3x3_s2"
  pooling_param {
    pool: MAX
    kernel_size: 3
    stride: 2
  }
}
layer {
  name: "inception_3a/1x1"
  type: "Convolution"
  bottom: "pool2/3x3_s2"
  top: "inception_3a/1x1"
  param {
    lr_mult: 1
    decay_mult: 1
  }
  param {
    lr_mult: 2
    decay_mult: 0
  }
  convolution_param {
    num_output: 64
    kernel_size: 1
    weight_filler {
      type: "xavier"
      std: 0.03
    }
    bias_filler {
      type: "constant"
      value: 0.2
    }
  }
}
layer {
  name: "inception_3a/relu_1x1"
  type: "ReLU"
  bottom: "inception_3a/1x1"
  top: "inception_3a/1x1"
}
layer {
  name: "inception_3a/3x3_reduce"
  type: "Convolution"
  bottom: "pool2/3x3_s2"
  top: "inception_3a/3x3_reduce"
  param {
    lr_mult: 1
    decay_mult: 1
  }
  param {
    lr_mult: 2
    decay_mult: 0
  }
  convolution_param {
    num_output: 96
    kernel_size: 1
    weight_filler {
      type: "xavier"
      std: 0.09
    }
    bias_filler {
      type: "constant"
      value: 0.2
    }
  }
}
layer {
  name: "inception_3a/relu_3x3_reduce"
  type: "ReLU"
  bottom: "inception_3a/3x3_reduce"
  top: "inception_3a/3x3_reduce"
}
layer {
  name: "inception_3a/3x3"
  type: "Convolution"
  bottom: "inception_3a/3x3_reduce"
  top: "inception_3a/3x3"
  param {
    lr_mult: 1
    decay_mult: 1
  }
  param {
    lr_mult: 2
    decay_mult: 0
  }
  convolution_param {
    num_output: 128
    pad: 1
    kernel_size: 3
    weight_filler {
      type: "xavier"
      std: 0.03
    }
    bias_filler {
      type: "constant"
      value: 0.2
    }
  }
}
layer {
  name: "inception_3a/relu_3x3"
  type: "ReLU"
  bottom: "inception_3a/3x3"
  top: "inception_3a/3x3"
}
layer {
  name: "inception_3a/5x5_reduce"
  type: "Convolution"
  bottom: "pool2/3x3_s2"
  top: "inception_3a/5x5_reduce"
  param {
    lr_mult: 1
    decay_mult: 1
  }
  param {
    lr_mult: 2
    decay_mult: 0
  }
  convolution_param {
    num_output: 16
    kernel_size: 1
    weight_filler {
      type: "xavier"
      std: 0.2
    }
    bias_filler {
      type: "constant"
      value: 0.2
    }
  }
}
layer {
  name: "inception_3a/relu_5x5_reduce"
  type: "ReLU"
  bottom: "inception_3a/5x5_reduce"
  top: "inception_3a/5x5_reduce"
}
layer {
  name: "inception_3a/5x5"
  type: "Convolution"
  bottom: "inception_3a/5x5_reduce"
  top: "inception_3a/5x5"
  param {
    lr_mult: 1
    decay_mult: 1
  }
  param {
    lr_mult: 2
    decay_mult: 0
  }
  convolution_param {
    num_output: 32
    pad: 2
    kernel_size: 5
    weight_filler {
      type: "xavier"
      std: 0.03
    }
    bias_filler {
      type: "constant"
      value: 0.2
    }
  }
}
layer {
  name: "inception_3a/relu_5x5"
  type: "ReLU"
  bottom: "inception_3a/5x5"
  top: "inception_3a/5x5"
}
layer {
  name: "inception_3a/pool"
  type: "Pooling"
  bottom: "pool2/3x3_s2"
  top: "inception_3a/pool"
  pooling_param {
    pool: MAX
    kernel_size: 3
    stride: 1
    pad: 1
  }
}
layer {
  name: "inception_3a/pool_proj"
  type: "Convolution"
  bottom: "inception_3a/pool"
  top: "inception_3a/pool_proj"
  param {
    lr_mult: 1
    decay_mult: 1
  }
  param {
    lr_mult: 2
    decay_mult: 0
  }
  convolution_param {
    num_output: 32
    kernel_size: 1
    weight_filler {
      type: "xavier"
      std: 0.1
    }
    bias_filler {
      type: "constant"
      value: 0.2
    }
  }
}
layer {
  name: "inception_3a/relu_pool_proj"
  type: "ReLU"
  bottom: "inception_3a/pool_proj"
  top: "inception_3a/pool_proj"
}
layer {
  name: "inception_3a/output"
  type: "Concat"
  bottom: "inception_3a/1x1"
  bottom: "inception_3a/3x3"
  bottom: "inception_3a/5x5"
  bottom: "inception_3a/pool_proj"
  top: "inception_3a/output"
}
layer {
  name: "inception_3b/1x1"
  type: "Convolution"
  bottom: "inception_3a/output"
  top: "inception_3b/1x1"
  param {
    lr_mult: 1
    decay_mult: 1
  }
  param {
    lr_mult: 2
    decay_mult: 0
  }
  convolution_param {
    num_output: 128
    kernel_size: 1
    weight_filler {
      type: "xavier"
      std: 0.03
    }
    bias_filler {
      type: "constant"
      value: 0.2
    }
  }
}
layer {
  name: "inception_3b/relu_1x1"
  type: "ReLU"
  bottom: "inception_3b/1x1"
  top: "inception_3b/1x1"
}
layer {
  name: "inception_3b/3x3_reduce"
  type: "Convolution"
  bottom: "inception_3a/output"
  top: "inception_3b/3x3_reduce"
  param {
    lr_mult: 1
    decay_mult: 1
  }
  param {
    lr_mult: 2
    decay_mult: 0
  }
  convolution_param {
    num_output: 128
    kernel_size: 1
    weight_filler {
      type: "xavier"
      std: 0.09
    }
    bias_filler {
      type: "constant"
      value: 0.2
    }
  }
}
layer {
  name: "inception_3b/relu_3x3_reduce"
  type: "ReLU"
  bottom: "inception_3b/3x3_reduce"
  top: "inception_3b/3x3_reduce"
}
layer {
  name: "inception_3b/3x3"
  type: "Convolution"
  bottom: "inception_3b/3x3_reduce"
  top: "inception_3b/3x3"
  param {
    lr_mult: 1
    decay_mult: 1
  }
  param {
    lr_mult: 2
    decay_mult: 0
  }
  convolution_param {
    num_output: 192
    pad: 1
    kernel_size: 3
    weight_filler {
      type: "xavier"
      std: 0.03
    }
    bias_filler {
      type: "constant"
      value: 0.2
    }
  }
}
layer {
  name: "inception_3b/relu_3x3"
  type: "ReLU"
  bottom: "inception_3b/3x3"
  top: "inception_3b/3x3"
}
layer {
  name: "inception_3b/5x5_reduce"
  type: "Convolution"
  bottom: "inception_3a/output"
  top: "inception_3b/5x5_reduce"
  param {
    lr_mult: 1
    decay_mult: 1
  }
  param {
    lr_mult: 2
    decay_mult: 0
  }
  convolution_param {
    num_output: 32
    kernel_size: 1
    weight_filler {
      type: "xavier"
      std: 0.2
    }
    bias_filler {
      type: "constant"
      value: 0.2
    }
  }
}
layer {
  name: "inception_3b/relu_5x5_reduce"
  type: "ReLU"
  bottom: "inception_3b/5x5_reduce"
  top: "inception_3b/5x5_reduce"
}
layer {
  name: "inception_3b/5x5"
  type: "Convolution"
  bottom: "inception_3b/5x5_reduce"
  top: "inception_3b/5x5"
  param {
    lr_mult: 1
    decay_mult: 1
  }
  param {
    lr_mult: 2
    decay_mult: 0
  }
  convolution_param {
    num_output: 96
    pad: 2
    kernel_size: 5
    weight_filler {
      type: "xavier"
      std: 0.03
    }
    bias_filler {
      type: "constant"
      value: 0.2
    }
  }
}
layer {
  name: "inception_3b/relu_5x5"
  type: "ReLU"
  bottom: "inception_3b/5x5"
  top: "inception_3b/5x5"
}
layer {
  name: "inception_3b/pool"
  type: "Pooling"
  bottom: "inception_3a/output"
  top: "inception_3b/pool"
  pooling_param {
    pool: MAX
    kernel_size: 3
    stride: 1
    pad: 1
  }
}
layer {
  name: "inception_3b/pool_proj"
  type: "Convolution"
  bottom: "inception_3b/pool"
  top: "inception_3b/pool_proj"
  param {
    lr_mult: 1
    decay_mult: 1
  }
  param {
    lr_mult: 2
    decay_mult: 0
  }
  convolution_param {
    num_output: 64
    kernel_size: 1
    weight_filler {
      type: "xavier"
      std: 0.1
    }
    bias_filler {
      type: "constant"
      value: 0.2
    }
  }
}
layer {
  name: "inception_3b/relu_pool_proj"
  type: "ReLU"
  bottom: "inception_3b/pool_proj"
  top: "inception_3b/pool_proj"
}
layer {
  name: "inception_3b/output"
  type: "Concat"
  bottom: "inception_3b/1x1"
  bottom: "inception_3b/3x3"
  bottom: "inception_3b/5x5"
  bottom: "inception_3b/pool_proj"
  top: "inception_3b/output"
}
layer {
  name: "pool3/3x3_s2"
  type: "Pooling"
  bottom: "inception_3b/output"
  top: "pool3/3x3_s2"
  pooling_param {
    pool: MAX
    kernel_size: 3
    stride: 2
  }
}
layer {
  name: "inception_4a/1x1"
  type: "Convolution"
  bottom: "pool3/3x3_s2"
  top: "inception_4a/1x1"
  param {
    lr_mult: 1
    decay_mult: 1
  }
  param {
    lr_mult: 2
    decay_mult: 0
  }
  convolution_param {
    num_output: 192
    kernel_size: 1
    weight_filler {
      type: "xavier"
      std: 0.03
    }
    bias_filler {
      type: "constant"
      value: 0.2
    }
  }
}
layer {
  name: "inception_4a/relu_1x1"
  type: "ReLU"
  bottom: "inception_4a/1x1"
  top: "inception_4a/1x1"
}
layer {
  name: "inception_4a/3x3_reduce"
  type: "Convolution"
  bottom: "pool3/3x3_s2"
  top: "inception_4a/3x3_reduce"
  param {
    lr_mult: 1
    decay_mult: 1
  }
  param {
    lr_mult: 2
    decay_mult: 0
  }
  convolution_param {
    num_output: 96
    kernel_size: 1
    weight_filler {
      type: "xavier"
      std: 0.09
    }
    bias_filler {
      type: "constant"
      value: 0.2
    }
  }
}
layer {
  name: "inception_4a/relu_3x3_reduce"
  type: "ReLU"
  bottom: "inception_4a/3x3_reduce"
  top: "inception_4a/3x3_reduce"
}
layer {
  name: "inception_4a/3x3"
  type: "Convolution"
  bottom: "inception_4a/3x3_reduce"
  top: "inception_4a/3x3"
  param {
    lr_mult: 1
    decay_mult: 1
  }
  param {
    lr_mult: 2
    decay_mult: 0
  }
  convolution_param {
    num_output: 208
    pad: 1
    kernel_size: 3
    weight_filler {
      type: "xavier"
      std: 0.03
    }
    bias_filler {
      type: "constant"
      value: 0.2
    }
  }
}
layer {
  name: "inception_4a/relu_3x3"
  type: "ReLU"
  bottom: "inception_4a/3x3"
  top: "inception_4a/3x3"
}
layer {
  name: "inception_4a/5x5_reduce"
  type: "Convolution"
  bottom: "pool3/3x3_s2"
  top: "inception_4a/5x5_reduce"
  param {
    lr_mult: 1
    decay_mult: 1
  }
  param {
    lr_mult: 2
    decay_mult: 0
  }
  convolution_param {
    num_output: 16
    kernel_size: 1
    weight_filler {
      type: "xavier"
      std: 0.2
    }
    bias_filler {
      type: "constant"
      value: 0.2
    }
  }
}
layer {
  name: "inception_4a/relu_5x5_reduce"
  type: "ReLU"
  bottom: "inception_4a/5x5_reduce"
  top: "inception_4a/5x5_reduce"
}
layer {
  name: "inception_4a/5x5"
  type: "Convolution"
  bottom: "inception_4a/5x5_reduce"
  top: "inception_4a/5x5"
  param {
    lr_mult: 1
    decay_mult: 1
  }
  param {
    lr_mult: 2
    decay_mult: 0
  }
  convolution_param {
    num_output: 48
    pad: 2
    kernel_size: 5
    weight_filler {
      type: "xavier"
      std: 0.03
    }
    bias_filler {
      type: "constant"
      value: 0.2
    }
  }
}
layer {
  name: "inception_4a/relu_5x5"
  type: "ReLU"
  bottom: "inception_4a/5x5"
  top: "inception_4a/5x5"
}
layer {
  name: "inception_4a/pool"
  type: "Pooling"
  bottom: "pool3/3x3_s2"
  top: "inception_4a/pool"
  pooling_param {
    pool: MAX
    kernel_size: 3
    stride: 1
    pad: 1
  }
}
layer {
  name: "inception_4a/pool_proj"
  type: "Convolution"
  bottom: "inception_4a/pool"
  top: "inception_4a/pool_proj"
  param {
    lr_mult: 1
    decay_mult: 1
  }
  param {
    lr_mult: 2
    decay_mult: 0
  }
  convolution_param {
    num_output: 64
    kernel_size: 1
    weight_filler {
      type: "xavier"
      std: 0.1
    }
    bias_filler {
      type: "constant"
      value: 0.2
    }
  }
}
layer {
  name: "inception_4a/relu_pool_proj"
  type: "ReLU"
  bottom: "inception_4a/pool_proj"
  top: "inception_4a/pool_proj"
}
layer {
  name: "inception_4a/output"
  type: "Concat"
  bottom: "inception_4a/1x1"
  bottom: "inception_4a/3x3"
  bottom: "inception_4a/5x5"
  bottom: "inception_4a/pool_proj"
  top: "inception_4a/output"
}
layer {
  name: "loss1/ave_pool"
  type: "Pooling"
  bottom: "inception_4a/output"
  top: "loss1/ave_pool"
  pooling_param {
    pool: AVE
    kernel_size: 5
    stride: 3
  }
}
layer {
  name: "loss1/conv"
  type: "Convolution"
  bottom: "loss1/ave_pool"
  top: "loss1/conv"
  param {
    lr_mult: 1
    decay_mult: 1
  }
  param {
    lr_mult: 2
    decay_mult: 0
  }
  convolution_param {
    num_output: 128
    kernel_size: 1
    weight_filler {
      type: "xavier"
      std: 0.08
    }
    bias_filler {
      type: "constant"
      value: 0.2
    }
  }
}
layer {
  name: "loss1/relu_conv"
  type: "ReLU"
  bottom: "loss1/conv"
  top: "loss1/conv"
}
layer {
  name: "loss1/fc"
  type: "InnerProduct"
  bottom: "loss1/conv"
  top: "loss1/fc"
  param {
    lr_mult: 1
    decay_mult: 1
  }
  param {
    lr_mult: 2
    decay_mult: 0
  }
  inner_product_param {
    num_output: 1024
    weight_filler {
      type: "xavier"
      std: 0.02
    }
    bias_filler {
      type: "constant"
      value: 0.2
    }
  }
}
layer {
  name: "loss1/relu_fc"
  type: "ReLU"
  bottom: "loss1/fc"
  top: "loss1/fc"
}
layer {
  name: "loss1/drop_fc"
  type: "Dropout"
  bottom: "loss1/fc"
  top: "loss1/fc"
  dropout_param {
    dropout_ratio: 0.7
  }
}
layer {
  name: "loss1/classifier_plantvillage"
  type: "InnerProduct"
  bottom: "loss1/fc"
  top: "loss1/classifier_plantvillage"
  param {
    lr_mult: 1
    decay_mult: 1
  }
  param {
    lr_mult: 2
    decay_mult: 0
  }
  inner_product_param {
    num_output: 38
    weight_filler {
      type: "xavier"
      std: 0.0009765625
    }
    bias_filler {
      type: "constant"
      value: 0
    }
  }
}
layer {
  name: "inception_4b/1x1"
  type: "Convolution"
  bottom: "inception_4a/output"
  top: "inception_4b/1x1"
  param {
    lr_mult: 1
    decay_mult: 1
  }
  param {
    lr_mult: 2
    decay_mult: 0
  }
  convolution_param {
    num_output: 160
    kernel_size: 1
    weight_filler {
      type: "xavier"
      std: 0.03
    }
    bias_filler {
      type: "constant"
      value: 0.2
    }
  }
}
layer {
  name: "inception_4b/relu_1x1"
  type: "ReLU"
  bottom: "inception_4b/1x1"
  top: "inception_4b/1x1"
}
layer {
  name: "inception_4b/3x3_reduce"
  type: "Convolution"
  bottom: "inception_4a/output"
  top: "inception_4b/3x3_reduce"
  param {
    lr_mult: 1
    decay_mult: 1
  }
  param {
    lr_mult: 2
    decay_mult: 0
  }
  convolution_param {
    num_output: 112
    kernel_size: 1
    weight_filler {
      type: "xavier"
      std: 0.09
    }
    bias_filler {
      type: "constant"
      value: 0.2
    }
  }
}
layer {
  name: "inception_4b/relu_3x3_reduce"
  type: "ReLU"
  bottom: "inception_4b/3x3_reduce"
  top: "inception_4b/3x3_reduce"
}
layer {
  name: "inception_4b/3x3"
  type: "Convolution"
  bottom: "inception_4b/3x3_reduce"
  top: "inception_4b/3x3"
  param {
    lr_mult: 1
    decay_mult: 1
  }
  param {
    lr_mult: 2
    decay_mult: 0
  }
  convolution_param {
    num_output: 224
    pad: 1
    kernel_size: 3
    weight_filler {
      type: "xavier"
      std: 0.03
    }
    bias_filler {
      type: "constant"
      value: 0.2
    }
  }
}
layer {
  name: "inception_4b/relu_3x3"
  type: "ReLU"
  bottom: "inception_4b/3x3"
  top: "inception_4b/3x3"
}
layer {
  name: "inception_4b/5x5_reduce"
  type: "Convolution"
  bottom: "inception_4a/output"
  top: "inception_4b/5x5_reduce"
  param {
    lr_mult: 1
    decay_mult: 1
  }
  param {
    lr_mult: 2
    decay_mult: 0
  }
  convolution_param {
    num_output: 24
    kernel_size: 1
    weight_filler {
      type: "xavier"
      std: 0.2
    }
    bias_filler {
      type: "constant"
      value: 0.2
    }
  }
}
layer {
  name: "inception_4b/relu_5x5_reduce"
  type: "ReLU"
  bottom: "inception_4b/5x5_reduce"
  top: "inception_4b/5x5_reduce"
}
layer {
  name: "inception_4b/5x5"
  type: "Convolution"
  bottom: "inception_4b/5x5_reduce"
  top: "inception_4b/5x5"
  param {
    lr_mult: 1
    decay_mult: 1
  }
  param {
    lr_mult: 2
    decay_mult: 0
  }
  convolution_param {
    num_output: 64
    pad: 2
    kernel_size: 5
    weight_filler {
      type: "xavier"
      std: 0.03
    }
    bias_filler {
      type: "constant"
      value: 0.2
    }
  }
}
layer {
  name: "inception_4b/relu_5x5"
  type: "ReLU"
  bottom: "inception_4b/5x5"
  top: "inception_4b/5x5"
}
layer {
  name: "inception_4b/pool"
  type: "Pooling"
  bottom: "inception_4a/output"
  top: "inception_4b/pool"
  pooling_param {
    pool: MAX
    kernel_size: 3
    stride: 1
    pad: 1
  }
}
layer {
  name: "inception_4b/pool_proj"
  type: "Convolution"
  bottom: "inception_4b/pool"
  top: "inception_4b/pool_proj"
  param {
    lr_mult: 1
    decay_mult: 1
  }
  param {
    lr_mult: 2
    decay_mult: 0
  }
  convolution_param {
    num_output: 64
    kernel_size: 1
    weight_filler {
      type: "xavier"
      std: 0.1
    }
    bias_filler {
      type: "constant"
      value: 0.2
    }
  }
}
layer {
  name: "inception_4b/relu_pool_proj"
  type: "ReLU"
  bottom: "inception_4b/pool_proj"
  top: "inception_4b/pool_proj"
}
layer {
  name: "inception_4b/output"
  type: "Concat"
  bottom: "inception_4b/1x1"
  bottom: "inception_4b/3x3"
  bottom: "inception_4b/5x5"
  bottom: "inception_4b/pool_proj"
  top: "inception_4b/output"
}
layer {
  name: "inception_4c/1x1"
  type: "Convolution"
  bottom: "inception_4b/output"
  top: "inception_4c/1x1"
  param {
    lr_mult: 1
    decay_mult: 1
  }
  param {
    lr_mult: 2
    decay_mult: 0
  }
  convolution_param {
    num_output: 128
    kernel_size: 1
    weight_filler {
      type: "xavier"
      std: 0.03
    }
    bias_filler {
      type: "constant"
      value: 0.2
    }
  }
}
layer {
  name: "inception_4c/relu_1x1"
  type: "ReLU"
  bottom: "inception_4c/1x1"
  top: "inception_4c/1x1"
}
layer {
  name: "inception_4c/3x3_reduce"
  type: "Convolution"
  bottom: "inception_4b/output"
  top: "inception_4c/3x3_reduce"
  param {
    lr_mult: 1
    decay_mult: 1
  }
  param {
    lr_mult: 2
    decay_mult: 0
  }
  convolution_param {
    num_output: 128
    kernel_size: 1
    weight_filler {
      type: "xavier"
      std: 0.09
    }
    bias_filler {
      type: "constant"
      value: 0.2
    }
  }
}
layer {
  name: "inception_4c/relu_3x3_reduce"
  type: "ReLU"
  bottom: "inception_4c/3x3_reduce"
  top: "inception_4c/3x3_reduce"
}
layer {
  name: "inception_4c/3x3"
  type: "Convolution"
  bottom: "inception_4c/3x3_reduce"
  top: "inception_4c/3x3"
  param {
    lr_mult: 1
    decay_mult: 1
  }
  param {
    lr_mult: 2
    decay_mult: 0
  }
  convolution_param {
    num_output: 256
    pad: 1
    kernel_size: 3
    weight_filler {
      type: "xavier"
      std: 0.03
    }
    bias_filler {
      type: "constant"
      value: 0.2
    }
  }
}
layer {
  name: "inception_4c/relu_3x3"
  type: "ReLU"
  bottom: "inception_4c/3x3"
  top: "inception_4c/3x3"
}
layer {
  name: "inception_4c/5x5_reduce"
  type: "Convolution"
  bottom: "inception_4b/output"
  top: "inception_4c/5x5_reduce"
  param {
    lr_mult: 1
    decay_mult: 1
  }
  param {
    lr_mult: 2
    decay_mult: 0
  }
  convolution_param {
    num_output: 24
    kernel_size: 1
    weight_filler {
      type: "xavier"
      std: 0.2
    }
    bias_filler {
      type: "constant"
      value: 0.2
    }
  }
}
layer {
  name: "inception_4c/relu_5x5_reduce"
  type: "ReLU"
  bottom: "inception_4c/5x5_reduce"
  top: "inception_4c/5x5_reduce"
}
layer {
  name: "inception_4c/5x5"
  type: "Convolution"
  bottom: "inception_4c/5x5_reduce"
  top: "inception_4c/5x5"
  param {
    lr_mult: 1
    decay_mult: 1
  }
  param {
    lr_mult: 2
    decay_mult: 0
  }
  convolution_param {
    num_output: 64
    pad: 2
    kernel_size: 5
    weight_filler {
      type: "xavier"
      std: 0.03
    }
    bias_filler {
      type: "constant"
      value: 0.2
    }
  }
}
layer {
  name: "inception_4c/relu_5x5"
  type: "ReLU"
  bottom: "inception_4c/5x5"
  top: "inception_4c/5x5"
}
layer {
  name: "inception_4c/pool"
  type: "Pooling"
  bottom: "inception_4b/output"
  top: "inception_4c/pool"
  pooling_param {
    pool: MAX
    kernel_size: 3
    stride: 1
    pad: 1
  }
}
layer {
  name: "inception_4c/pool_proj"
  type: "Convolution"
  bottom: "inception_4c/pool"
  top: "inception_4c/pool_proj"
  param {
    lr_mult: 1
    decay_mult: 1
  }
  param {
    lr_mult: 2
    decay_mult: 0
  }
  convolution_param {
    num_output: 64
    kernel_size: 1
    weight_filler {
      type: "xavier"
      std: 0.1
    }
    bias_filler {
      type: "constant"
      value: 0.2
    }
  }
}
layer {
  name: "inception_4c/relu_pool_proj"
  type: "ReLU"
  bottom: "inception_4c/pool_proj"
  top: "inception_4c/pool_proj"
}
layer {
  name: "inception_4c/output"
  type: "Concat"
  bottom: "inception_4c/1x1"
  bottom: "inception_4c/3x3"
  bottom: "inception_4c/5x5"
  bottom: "inception_4c/pool_proj"
  top: "inception_4c/output"
}
layer {
  name: "inception_4d/1x1"
  type: "Convolution"
  bottom: "inception_4c/output"
  top: "inception_4d/1x1"
  param {
    lr_mult: 1
    decay_mult: 1
  }
  param {
    lr_mult: 2
    decay_mult: 0
  }
  convolution_param {
    num_output: 112
    kernel_size: 1
    weight_filler {
      type: "xavier"
      std: 0.03
    }
    bias_filler {
      type: "constant"
      value: 0.2
    }
  }
}
layer {
  name: "inception_4d/relu_1x1"
  type: "ReLU"
  bottom: "inception_4d/1x1"
  top: "inception_4d/1x1"
}
layer {
  name: "inception_4d/3x3_reduce"
  type: "Convolution"
  bottom: "inception_4c/output"
  top: "inception_4d/3x3_reduce"
  param {
    lr_mult: 1
    decay_mult: 1
  }
  param {
    lr_mult: 2
    decay_mult: 0
  }
  convolution_param {
    num_output: 144
    kernel_size: 1
    weight_filler {
      type: "xavier"
      std: 0.09
    }
    bias_filler {
      type: "constant"
      value: 0.2
    }
  }
}
layer {
  name: "inception_4d/relu_3x3_reduce"
  type: "ReLU"
  bottom: "inception_4d/3x3_reduce"
  top: "inception_4d/3x3_reduce"
}
layer {
  name: "inception_4d/3x3"
  type: "Convolution"
  bottom: "inception_4d/3x3_reduce"
  top: "inception_4d/3x3"
  param {
    lr_mult: 1
    decay_mult: 1
  }
  param {
    lr_mult: 2
    decay_mult: 0
  }
  convolution_param {
    num_output: 288
    pad: 1
    kernel_size: 3
    weight_filler {
      type: "xavier"
      std: 0.03
    }
    bias_filler {
      type: "constant"
      value: 0.2
    }
  }
}
layer {
  name: "inception_4d/relu_3x3"
  type: "ReLU"
  bottom: "inception_4d/3x3"
  top: "inception_4d/3x3"
}
layer {
  name: "inception_4d/5x5_reduce"
  type: "Convolution"
  bottom: "inception_4c/output"
  top: "inception_4d/5x5_reduce"
  param {
    lr_mult: 1
    decay_mult: 1
  }
  param {
    lr_mult: 2
    decay_mult: 0
  }
  convolution_param {
    num_output: 32
    kernel_size: 1
    weight_filler {
      type: "xavier"
      std: 0.2
    }
    bias_filler {
      type: "constant"
      value: 0.2
    }
  }
}
layer {
  name: "inception_4d/relu_5x5_reduce"
  type: "ReLU"
  bottom: "inception_4d/5x5_reduce"
  top: "inception_4d/5x5_reduce"
}
layer {
  name: "inception_4d/5x5"
  type: "Convolution"
  bottom: "inception_4d/5x5_reduce"
  top: "inception_4d/5x5"
  param {
    lr_mult: 1
    decay_mult: 1
  }
  param {
    lr_mult: 2
    decay_mult: 0
  }
  convolution_param {
    num_output: 64
    pad: 2
    kernel_size: 5
    weight_filler {
      type: "xavier"
      std: 0.03
    }
    bias_filler {
      type: "constant"
      value: 0.2
    }
  }
}
layer {
  name: "inception_4d/relu_5x5"
  type: "ReLU"
  bottom: "inception_4d/5x5"
  top: "inception_4d/5x5"
}
layer {
  name: "inception_4d/pool"
  type: "Pooling"
  bottom: "inception_4c/output"
  top: "inception_4d/pool"
  pooling_param {
    pool: MAX
    kernel_size: 3
    stride: 1
    pad: 1
  }
}
layer {
  name: "inception_4d/pool_proj"
  type: "Convolution"
  bottom: "inception_4d/pool"
  top: "inception_4d/pool_proj"
  param {
    lr_mult: 1
    decay_mult: 1
  }
  param {
    lr_mult: 2
    decay_mult: 0
  }
  convolution_param {
    num_output: 64
    kernel_size: 1
    weight_filler {
      type: "xavier"
      std: 0.1
    }
    bias_filler {
      type: "constant"
      value: 0.2
    }
  }
}
layer {
  name: "inception_4d/relu_pool_proj"
  type: "ReLU"
  bottom: "inception_4d/pool_proj"
  top: "inception_4d/pool_proj"
}
layer {
  name: "inception_4d/output"
  type: "Concat"
  bottom: "inception_4d/1x1"
  bottom: "inception_4d/3x3"
  bottom: "inception_4d/5x5"
  bottom: "inception_4d/pool_proj"
  top: "inception_4d/output"
}
layer {
  name: "loss2/ave_pool"
  type: "Pooling"
  bottom: "inception_4d/output"
  top: "loss2/ave_pool"
  pooling_param {
    pool: AVE
    kernel_size: 5
    stride: 3
  }
}
layer {
  name: "loss2/conv"
  type: "Convolution"
  bottom: "loss2/ave_pool"
  top: "loss2/conv"
  param {
    lr_mult: 1
    decay_mult: 1
  }
  param {
    lr_mult: 2
    decay_mult: 0
  }
  convolution_param {
    num_output: 128
    kernel_size: 1
    weight_filler {
      type: "xavier"
      std: 0.08
    }
    bias_filler {
      type: "constant"
      value: 0.2
    }
  }
}
layer {
  name: "loss2/relu_conv"
  type: "ReLU"
  bottom: "loss2/conv"
  top: "loss2/conv"
}
layer {
  name: "loss2/fc"
  type: "InnerProduct"
  bottom: "loss2/conv"
  top: "loss2/fc"
  param {
    lr_mult: 1
    decay_mult: 1
  }
  param {
    lr_mult: 2
    decay_mult: 0
  }
  inner_product_param {
    num_output: 1024
    weight_filler {
      type: "xavier"
      std: 0.02
    }
    bias_filler {
      type: "constant"
      value: 0.2
    }
  }
}
layer {
  name: "loss2/relu_fc"
  type: "ReLU"
  bottom: "loss2/fc"
  top: "loss2/fc"
}
layer {
  name: "loss2/drop_fc"
  type: "Dropout"
  bottom: "loss2/fc"
  top: "loss2/fc"
  dropout_param {
    dropout_ratio: 0.7
  }
}
layer {
  name: "loss2/classifier_plantvillage"
  type: "InnerProduct"
  bottom: "loss2/fc"
  top: "loss2/classifier_plantvillage"
  param {
    lr_mult: 1
    decay_mult: 1
  }
  param {
    lr_mult: 2
    decay_mult: 0
  }
  inner_product_param {
    num_output: 38
    weight_filler {
      type: "xavier"
      std: 0.0009765625
    }
    bias_filler {
      type: "constant"
      value: 0
    }
  }
}
layer {
  name: "inception_4e/1x1"
  type: "Convolution"
  bottom: "inception_4d/output"
  top: "inception_4e/1x1"
  param {
    lr_mult: 1
    decay_mult: 1
  }
  param {
    lr_mult: 2
    decay_mult: 0
  }
  convolution_param {
    num_output: 256
    kernel_size: 1
    weight_filler {
      type: "xavier"
      std: 0.03
    }
    bias_filler {
      type: "constant"
      value: 0.2
    }
  }
}
layer {
  name: "inception_4e/relu_1x1"
  type: "ReLU"
  bottom: "inception_4e/1x1"
  top: "inception_4e/1x1"
}
layer {
  name: "inception_4e/3x3_reduce"
  type: "Convolution"
  bottom: "inception_4d/output"
  top: "inception_4e/3x3_reduce"
  param {
    lr_mult: 1
    decay_mult: 1
  }
  param {
    lr_mult: 2
    decay_mult: 0
  }
  convolution_param {
    num_output: 160
    kernel_size: 1
    weight_filler {
      type: "xavier"
      std: 0.09
    }
    bias_filler {
      type: "constant"
      value: 0.2
    }
  }
}
layer {
  name: "inception_4e/relu_3x3_reduce"
  type: "ReLU"
  bottom: "inception_4e/3x3_reduce"
  top: "inception_4e/3x3_reduce"
}
layer {
  name: "inception_4e/3x3"
  type: "Convolution"
  bottom: "inception_4e/3x3_reduce"
  top: "inception_4e/3x3"
  param {
    lr_mult: 1
    decay_mult: 1
  }
  param {
    lr_mult: 2
    decay_mult: 0
  }
  convolution_param {
    num_output: 320
    pad: 1
    kernel_size: 3
    weight_filler {
      type: "xavier"
      std: 0.03
    }
    bias_filler {
      type: "constant"
      value: 0.2
    }
  }
}
layer {
  name: "inception_4e/relu_3x3"
  type: "ReLU"
  bottom: "inception_4e/3x3"
  top: "inception_4e/3x3"
}
layer {
  name: "inception_4e/5x5_reduce"
  type: "Convolution"
  bottom: "inception_4d/output"
  top: "inception_4e/5x5_reduce"
  param {
    lr_mult: 1
    decay_mult: 1
  }
  param {
    lr_mult: 2
    decay_mult: 0
  }
  convolution_param {
    num_output: 32
    kernel_size: 1
    weight_filler {
      type: "xavier"
      std: 0.2
    }
    bias_filler {
      type: "constant"
      value: 0.2
    }
  }
}
layer {
  name: "inception_4e/relu_5x5_reduce"
  type: "ReLU"
  bottom: "inception_4e/5x5_reduce"
  top: "inception_4e/5x5_reduce"
}
layer {
  name: "inception_4e/5x5"
  type: "Convolution"
  bottom: "inception_4e/5x5_reduce"
  top: "inception_4e/5x5"
  p
I0403 15:30:44.307536 31983 layer_factory.hpp:77] Creating layer data
I0403 15:30:44.308538 31983 net.cpp:91] Creating Layer data
I0403 15:30:44.308573 31983 net.cpp:399] data -> data
I0403 15:30:44.308631 31983 net.cpp:399] data -> label
I0403 15:30:44.308676 31983 data_transformer.cpp:25] Loading mean file from: /home/mohanty/data/final_dataset/lmdb/color-60-40/mean.binaryproto
I0403 15:30:44.311700 31987 db_lmdb.cpp:38] Opened lmdb /home/mohanty/data/final_dataset/lmdb/color-60-40/test_db
I0403 15:30:44.322726 31983 data_layer.cpp:41] output data size: 24,3,224,224
I0403 15:30:44.353817 31983 net.cpp:141] Setting up data
I0403 15:30:44.353902 31983 net.cpp:148] Top shape: 24 3 224 224 (3612672)
I0403 15:30:44.353925 31983 net.cpp:148] Top shape: 24 (24)
I0403 15:30:44.353941 31983 net.cpp:156] Memory required for data: 14450784
I0403 15:30:44.353971 31983 layer_factory.hpp:77] Creating layer label_data_1_split
I0403 15:30:44.353997 31983 net.cpp:91] Creating Layer label_data_1_split
I0403 15:30:44.354017 31983 net.cpp:425] label_data_1_split <- label
I0403 15:30:44.354048 31983 net.cpp:399] label_data_1_split -> label_data_1_split_0
I0403 15:30:44.354076 31983 net.cpp:399] label_data_1_split -> label_data_1_split_1
I0403 15:30:44.354097 31983 net.cpp:399] label_data_1_split -> label_data_1_split_2
I0403 15:30:44.354118 31983 net.cpp:399] label_data_1_split -> label_data_1_split_3
I0403 15:30:44.354138 31983 net.cpp:399] label_data_1_split -> label_data_1_split_4
I0403 15:30:44.354159 31983 net.cpp:399] label_data_1_split -> label_data_1_split_5
I0403 15:30:44.354179 31983 net.cpp:399] label_data_1_split -> label_data_1_split_6
I0403 15:30:44.354200 31983 net.cpp:399] label_data_1_split -> label_data_1_split_7
I0403 15:30:44.354220 31983 net.cpp:399] label_data_1_split -> label_data_1_split_8
I0403 15:30:44.354241 31983 net.cpp:399] label_data_1_split -> label_data_1_split_9
I0403 15:30:44.354369 31983 net.cpp:141] Setting up label_data_1_split
I0403 15:30:44.354394 31983 net.cpp:148] Top shape: 24 (24)
I0403 15:30:44.354413 31983 net.cpp:148] Top shape: 24 (24)
I0403 15:30:44.354431 31983 net.cpp:148] Top shape: 24 (24)
I0403 15:30:44.354447 31983 net.cpp:148] Top shape: 24 (24)
I0403 15:30:44.354465 31983 net.cpp:148] Top shape: 24 (24)
I0403 15:30:44.354480 31983 net.cpp:148] Top shape: 24 (24)
I0403 15:30:44.354497 31983 net.cpp:148] Top shape: 24 (24)
I0403 15:30:44.354513 31983 net.cpp:148] Top shape: 24 (24)
I0403 15:30:44.354531 31983 net.cpp:148] Top shape: 24 (24)
I0403 15:30:44.354547 31983 net.cpp:148] Top shape: 24 (24)
I0403 15:30:44.354593 31983 net.cpp:156] Memory required for data: 14451744
I0403 15:30:44.354609 31983 layer_factory.hpp:77] Creating layer conv1/7x7_s2
I0403 15:30:44.354640 31983 net.cpp:91] Creating Layer conv1/7x7_s2
I0403 15:30:44.354660 31983 net.cpp:425] conv1/7x7_s2 <- data
I0403 15:30:44.354681 31983 net.cpp:399] conv1/7x7_s2 -> conv1/7x7_s2
I0403 15:30:44.501497 31983 net.cpp:141] Setting up conv1/7x7_s2
I0403 15:30:44.501582 31983 net.cpp:148] Top shape: 24 64 112 112 (19267584)
I0403 15:30:44.501606 31983 net.cpp:156] Memory required for data: 91522080
I0403 15:30:44.501646 31983 layer_factory.hpp:77] Creating layer conv1/relu_7x7
I0403 15:30:44.501675 31983 net.cpp:91] Creating Layer conv1/relu_7x7
I0403 15:30:44.501695 31983 net.cpp:425] conv1/relu_7x7 <- conv1/7x7_s2
I0403 15:30:44.501715 31983 net.cpp:386] conv1/relu_7x7 -> conv1/7x7_s2 (in-place)
I0403 15:30:44.501991 31983 net.cpp:141] Setting up conv1/relu_7x7
I0403 15:30:44.502020 31983 net.cpp:148] Top shape: 24 64 112 112 (19267584)
I0403 15:30:44.502038 31983 net.cpp:156] Memory required for data: 168592416
I0403 15:30:44.502054 31983 layer_factory.hpp:77] Creating layer pool1/3x3_s2
I0403 15:30:44.502081 31983 net.cpp:91] Creating Layer pool1/3x3_s2
I0403 15:30:44.502102 31983 net.cpp:425] pool1/3x3_s2 <- conv1/7x7_s2
I0403 15:30:44.502123 31983 net.cpp:399] pool1/3x3_s2 -> pool1/3x3_s2
I0403 15:30:44.502200 31983 net.cpp:141] Setting up pool1/3x3_s2
I0403 15:30:44.502226 31983 net.cpp:148] Top shape: 24 64 56 56 (4816896)
I0403 15:30:44.502243 31983 net.cpp:156] Memory required for data: 187860000
I0403 15:30:44.502260 31983 layer_factory.hpp:77] Creating layer pool1/norm1
I0403 15:30:44.502290 31983 net.cpp:91] Creating Layer pool1/norm1
I0403 15:30:44.502310 31983 net.cpp:425] pool1/norm1 <- pool1/3x3_s2
I0403 15:30:44.502331 31983 net.cpp:399] pool1/norm1 -> pool1/norm1
I0403 15:30:44.502634 31983 net.cpp:141] Setting up pool1/norm1
I0403 15:30:44.502663 31983 net.cpp:148] Top shape: 24 64 56 56 (4816896)
I0403 15:30:44.502681 31983 net.cpp:156] Memory required for data: 207127584
I0403 15:30:44.502696 31983 layer_factory.hpp:77] Creating layer conv2/3x3_reduce
I0403 15:30:44.502723 31983 net.cpp:91] Creating Layer conv2/3x3_reduce
I0403 15:30:44.502743 31983 net.cpp:425] conv2/3x3_reduce <- pool1/norm1
I0403 15:30:44.502763 31983 net.cpp:399] conv2/3x3_reduce -> conv2/3x3_reduce
I0403 15:30:44.504307 31983 net.cpp:141] Setting up conv2/3x3_reduce
I0403 15:30:44.504341 31983 net.cpp:148] Top shape: 24 64 56 56 (4816896)
I0403 15:30:44.504364 31983 net.cpp:156] Memory required for data: 226395168
I0403 15:30:44.504390 31983 layer_factory.hpp:77] Creating layer conv2/relu_3x3_reduce
I0403 15:30:44.504418 31983 net.cpp:91] Creating Layer conv2/relu_3x3_reduce
I0403 15:30:44.504441 31983 net.cpp:425] conv2/relu_3x3_reduce <- conv2/3x3_reduce
I0403 15:30:44.504465 31983 net.cpp:386] conv2/relu_3x3_reduce -> conv2/3x3_reduce (in-place)
I0403 15:30:44.504746 31983 net.cpp:141] Setting up conv2/relu_3x3_reduce
I0403 15:30:44.504775 31983 net.cpp:148] Top shape: 24 64 56 56 (4816896)
I0403 15:30:44.504791 31983 net.cpp:156] Memory required for data: 245662752
I0403 15:30:44.504807 31983 layer_factory.hpp:77] Creating layer conv2/3x3
I0403 15:30:44.504861 31983 net.cpp:91] Creating Layer conv2/3x3
I0403 15:30:44.504881 31983 net.cpp:425] conv2/3x3 <- conv2/3x3_reduce
I0403 15:30:44.504905 31983 net.cpp:399] conv2/3x3 -> conv2/3x3
I0403 15:30:44.507347 31983 net.cpp:141] Setting up conv2/3x3
I0403 15:30:44.507380 31983 net.cpp:148] Top shape: 24 192 56 56 (14450688)
I0403 15:30:44.507397 31983 net.cpp:156] Memory required for data: 303465504
I0403 15:30:44.507421 31983 layer_factory.hpp:77] Creating layer conv2/relu_3x3
I0403 15:30:44.507446 31983 net.cpp:91] Creating Layer conv2/relu_3x3
I0403 15:30:44.507463 31983 net.cpp:425] conv2/relu_3x3 <- conv2/3x3
I0403 15:30:44.507482 31983 net.cpp:386] conv2/relu_3x3 -> conv2/3x3 (in-place)
I0403 15:30:44.507668 31983 net.cpp:141] Setting up conv2/relu_3x3
I0403 15:30:44.507695 31983 net.cpp:148] Top shape: 24 192 56 56 (14450688)
I0403 15:30:44.507745 31983 net.cpp:156] Memory required for data: 361268256
I0403 15:30:44.507762 31983 layer_factory.hpp:77] Creating layer conv2/norm2
I0403 15:30:44.507784 31983 net.cpp:91] Creating Layer conv2/norm2
I0403 15:30:44.507802 31983 net.cpp:425] conv2/norm2 <- conv2/3x3
I0403 15:30:44.507823 31983 net.cpp:399] conv2/norm2 -> conv2/norm2
I0403 15:30:44.508142 31983 net.cpp:141] Setting up conv2/norm2
I0403 15:30:44.508178 31983 net.cpp:148] Top shape: 24 192 56 56 (14450688)
I0403 15:30:44.508200 31983 net.cpp:156] Memory required for data: 419071008
I0403 15:30:44.508221 31983 layer_factory.hpp:77] Creating layer pool2/3x3_s2
I0403 15:30:44.508239 31983 net.cpp:91] Creating Layer pool2/3x3_s2
I0403 15:30:44.508256 31983 net.cpp:425] pool2/3x3_s2 <- conv2/norm2
I0403 15:30:44.508277 31983 net.cpp:399] pool2/3x3_s2 -> pool2/3x3_s2
I0403 15:30:44.508342 31983 net.cpp:141] Setting up pool2/3x3_s2
I0403 15:30:44.508369 31983 net.cpp:148] Top shape: 24 192 28 28 (3612672)
I0403 15:30:44.508386 31983 net.cpp:156] Memory required for data: 433521696
I0403 15:30:44.508404 31983 layer_factory.hpp:77] Creating layer pool2/3x3_s2_pool2/3x3_s2_0_split
I0403 15:30:44.508422 31983 net.cpp:91] Creating Layer pool2/3x3_s2_pool2/3x3_s2_0_split
I0403 15:30:44.508438 31983 net.cpp:425] pool2/3x3_s2_pool2/3x3_s2_0_split <- pool2/3x3_s2
I0403 15:30:44.508457 31983 net.cpp:399] pool2/3x3_s2_pool2/3x3_s2_0_split -> pool2/3x3_s2_pool2/3x3_s2_0_split_0
I0403 15:30:44.508477 31983 net.cpp:399] pool2/3x3_s2_pool2/3x3_s2_0_split -> pool2/3x3_s2_pool2/3x3_s2_0_split_1
I0403 15:30:44.508556 31983 net.cpp:399] pool2/3x3_s2_pool2/3x3_s2_0_split -> pool2/3x3_s2_pool2/3x3_s2_0_split_2
I0403 15:30:44.508584 31983 net.cpp:399] pool2/3x3_s2_pool2/3x3_s2_0_split -> pool2/3x3_s2_pool2/3x3_s2_0_split_3
I0403 15:30:44.508663 31983 net.cpp:141] Setting up pool2/3x3_s2_pool2/3x3_s2_0_split
I0403 15:30:44.508688 31983 net.cpp:148] Top shape: 24 192 28 28 (3612672)
I0403 15:30:44.508708 31983 net.cpp:148] Top shape: 24 192 28 28 (3612672)
I0403 15:30:44.508725 31983 net.cpp:148] Top shape: 24 192 28 28 (3612672)
I0403 15:30:44.508743 31983 net.cpp:148] Top shape: 24 192 28 28 (3612672)
I0403 15:30:44.508757 31983 net.cpp:156] Memory required for data: 491324448
I0403 15:30:44.508774 31983 layer_factory.hpp:77] Creating layer inception_3a/1x1
I0403 15:30:44.508798 31983 net.cpp:91] Creating Layer inception_3a/1x1
I0403 15:30:44.508816 31983 net.cpp:425] inception_3a/1x1 <- pool2/3x3_s2_pool2/3x3_s2_0_split_0
I0403 15:30:44.508838 31983 net.cpp:399] inception_3a/1x1 -> inception_3a/1x1
I0403 15:30:44.510470 31983 net.cpp:141] Setting up inception_3a/1x1
I0403 15:30:44.510502 31983 net.cpp:148] Top shape: 24 64 28 28 (1204224)
I0403 15:30:44.510520 31983 net.cpp:156] Memory required for data: 496141344
I0403 15:30:44.510540 31983 layer_factory.hpp:77] Creating layer inception_3a/relu_1x1
I0403 15:30:44.510561 31983 net.cpp:91] Creating Layer inception_3a/relu_1x1
I0403 15:30:44.510581 31983 net.cpp:425] inception_3a/relu_1x1 <- inception_3a/1x1
I0403 15:30:44.510601 31983 net.cpp:386] inception_3a/relu_1x1 -> inception_3a/1x1 (in-place)
I0403 15:30:44.510783 31983 net.cpp:141] Setting up inception_3a/relu_1x1
I0403 15:30:44.510810 31983 net.cpp:148] Top shape: 24 64 28 28 (1204224)
I0403 15:30:44.510828 31983 net.cpp:156] Memory required for data: 500958240
I0403 15:30:44.510844 31983 layer_factory.hpp:77] Creating layer inception_3a/3x3_reduce
I0403 15:30:44.510869 31983 net.cpp:91] Creating Layer inception_3a/3x3_reduce
I0403 15:30:44.510887 31983 net.cpp:425] inception_3a/3x3_reduce <- pool2/3x3_s2_pool2/3x3_s2_0_split_1
I0403 15:30:44.510910 31983 net.cpp:399] inception_3a/3x3_reduce -> inception_3a/3x3_reduce
I0403 15:30:44.512722 31983 net.cpp:141] Setting up inception_3a/3x3_reduce
I0403 15:30:44.512753 31983 net.cpp:148] Top shape: 24 96 28 28 (1806336)
I0403 15:30:44.512771 31983 net.cpp:156] Memory required for data: 508183584
I0403 15:30:44.512794 31983 layer_factory.hpp:77] Creating layer inception_3a/relu_3x3_reduce
I0403 15:30:44.512835 31983 net.cpp:91] Creating Layer inception_3a/relu_3x3_reduce
I0403 15:30:44.512861 31983 net.cpp:425] inception_3a/relu_3x3_reduce <- inception_3a/3x3_reduce
I0403 15:30:44.512883 31983 net.cpp:386] inception_3a/relu_3x3_reduce -> inception_3a/3x3_reduce (in-place)
I0403 15:30:44.513077 31983 net.cpp:141] Setting up inception_3a/relu_3x3_reduce
I0403 15:30:44.513108 31983 net.cpp:148] Top shape: 24 96 28 28 (1806336)
I0403 15:30:44.513126 31983 net.cpp:156] Memory required for data: 515408928
I0403 15:30:44.513144 31983 layer_factory.hpp:77] Creating layer inception_3a/3x3
I0403 15:30:44.513169 31983 net.cpp:91] Creating Layer inception_3a/3x3
I0403 15:30:44.513187 31983 net.cpp:425] inception_3a/3x3 <- inception_3a/3x3_reduce
I0403 15:30:44.513211 31983 net.cpp:399] inception_3a/3x3 -> inception_3a/3x3
I0403 15:30:44.515009 31983 net.cpp:141] Setting up inception_3a/3x3
I0403 15:30:44.515048 31983 net.cpp:148] Top shape: 24 128 28 28 (2408448)
I0403 15:30:44.515069 31983 net.cpp:156] Memory required for data: 525042720
I0403 15:30:44.515094 31983 layer_factory.hpp:77] Creating layer inception_3a/relu_3x3
I0403 15:30:44.515125 31983 net.cpp:91] Creating Layer inception_3a/relu_3x3
I0403 15:30:44.515151 31983 net.cpp:425] inception_3a/relu_3x3 <- inception_3a/3x3
I0403 15:30:44.515177 31983 net.cpp:386] inception_3a/relu_3x3 -> inception_3a/3x3 (in-place)
I0403 15:30:44.515475 31983 net.cpp:141] Setting up inception_3a/relu_3x3
I0403 15:30:44.515504 31983 net.cpp:148] Top shape: 24 128 28 28 (2408448)
I0403 15:30:44.515522 31983 net.cpp:156] Memory required for data: 534676512
I0403 15:30:44.515539 31983 layer_factory.hpp:77] Creating layer inception_3a/5x5_reduce
I0403 15:30:44.515564 31983 net.cpp:91] Creating Layer inception_3a/5x5_reduce
I0403 15:30:44.515583 31983 net.cpp:425] inception_3a/5x5_reduce <- pool2/3x3_s2_pool2/3x3_s2_0_split_2
I0403 15:30:44.515604 31983 net.cpp:399] inception_3a/5x5_reduce -> inception_3a/5x5_reduce
I0403 15:30:44.516662 31983 net.cpp:141] Setting up inception_3a/5x5_reduce
I0403 15:30:44.516693 31983 net.cpp:148] Top shape: 24 16 28 28 (301056)
I0403 15:30:44.516710 31983 net.cpp:156] Memory required for data: 535880736
I0403 15:30:44.516731 31983 layer_factory.hpp:77] Creating layer inception_3a/relu_5x5_reduce
I0403 15:30:44.516754 31983 net.cpp:91] Creating Layer inception_3a/relu_5x5_reduce
I0403 15:30:44.516772 31983 net.cpp:425] inception_3a/relu_5x5_reduce <- inception_3a/5x5_reduce
I0403 15:30:44.516791 31983 net.cpp:386] inception_3a/relu_5x5_reduce -> inception_3a/5x5_reduce (in-place)
I0403 15:30:44.517110 31983 net.cpp:141] Setting up inception_3a/relu_5x5_reduce
I0403 15:30:44.517138 31983 net.cpp:148] Top shape: 24 16 28 28 (301056)
I0403 15:30:44.517155 31983 net.cpp:156] Memory required for data: 537084960
I0403 15:30:44.517173 31983 layer_factory.hpp:77] Creating layer inception_3a/5x5
I0403 15:30:44.517197 31983 net.cpp:91] Creating Layer inception_3a/5x5
I0403 15:30:44.517217 31983 net.cpp:425] inception_3a/5x5 <- inception_3a/5x5_reduce
I0403 15:30:44.517237 31983 net.cpp:399] inception_3a/5x5 -> inception_3a/5x5
I0403 15:30:44.518322 31983 net.cpp:141] Setting up inception_3a/5x5
I0403 15:30:44.518352 31983 net.cpp:148] Top shape: 24 32 28 28 (602112)
I0403 15:30:44.518369 31983 net.cpp:156] Memory required for data: 539493408
I0403 15:30:44.518389 31983 layer_factory.hpp:77] Creating layer inception_3a/relu_5x5
I0403 15:30:44.518409 31983 net.cpp:91] Creating Layer inception_3a/relu_5x5
I0403 15:30:44.518426 31983 net.cpp:425] inception_3a/relu_5x5 <- inception_3a/5x5
I0403 15:30:44.518448 31983 net.cpp:386] inception_3a/relu_5x5 -> inception_3a/5x5 (in-place)
I0403 15:30:44.518646 31983 net.cpp:141] Setting up inception_3a/relu_5x5
I0403 15:30:44.518678 31983 net.cpp:148] Top shape: 24 32 28 28 (602112)
I0403 15:30:44.518698 31983 net.cpp:156] Memory required for data: 541901856
I0403 15:30:44.518718 31983 layer_factory.hpp:77] Creating layer inception_3a/pool
I0403 15:30:44.518748 31983 net.cpp:91] Creating Layer inception_3a/pool
I0403 15:30:44.518775 31983 net.cpp:425] inception_3a/pool <- pool2/3x3_s2_pool2/3x3_s2_0_split_3
I0403 15:30:44.518810 31983 net.cpp:399] inception_3a/pool -> inception_3a/pool
I0403 15:30:44.518872 31983 net.cpp:141] Setting up inception_3a/pool
I0403 15:30:44.518895 31983 net.cpp:148] Top shape: 24 192 28 28 (3612672)
I0403 15:30:44.518913 31983 net.cpp:156] Memory required for data: 556352544
I0403 15:30:44.518928 31983 layer_factory.hpp:77] Creating layer inception_3a/pool_proj
I0403 15:30:44.518950 31983 net.cpp:91] Creating Layer inception_3a/pool_proj
I0403 15:30:44.518967 31983 net.cpp:425] inception_3a/pool_proj <- inception_3a/pool
I0403 15:30:44.518990 31983 net.cpp:399] inception_3a/pool_proj -> inception_3a/pool_proj
I0403 15:30:44.519989 31983 net.cpp:141] Setting up inception_3a/pool_proj
I0403 15:30:44.520018 31983 net.cpp:148] Top shape: 24 32 28 28 (602112)
I0403 15:30:44.520035 31983 net.cpp:156] Memory required for data: 558760992
I0403 15:30:44.520064 31983 layer_factory.hpp:77] Creating layer inception_3a/relu_pool_proj
I0403 15:30:44.520087 31983 net.cpp:91] Creating Layer inception_3a/relu_pool_proj
I0403 15:30:44.520104 31983 net.cpp:425] inception_3a/relu_pool_proj <- inception_3a/pool_proj
I0403 15:30:44.520123 31983 net.cpp:386] inception_3a/relu_pool_proj -> inception_3a/pool_proj (in-place)
I0403 15:30:44.520395 31983 net.cpp:141] Setting up inception_3a/relu_pool_proj
I0403 15:30:44.520422 31983 net.cpp:148] Top shape: 24 32 28 28 (602112)
I0403 15:30:44.520438 31983 net.cpp:156] Memory required for data: 561169440
I0403 15:30:44.520453 31983 layer_factory.hpp:77] Creating layer inception_3a/output
I0403 15:30:44.520472 31983 net.cpp:91] Creating Layer inception_3a/output
I0403 15:30:44.520488 31983 net.cpp:425] inception_3a/output <- inception_3a/1x1
I0403 15:30:44.520505 31983 net.cpp:425] inception_3a/output <- inception_3a/3x3
I0403 15:30:44.520522 31983 net.cpp:425] inception_3a/output <- inception_3a/5x5
I0403 15:30:44.520551 31983 net.cpp:425] inception_3a/output <- inception_3a/pool_proj
I0403 15:30:44.520570 31983 net.cpp:399] inception_3a/output -> inception_3a/output
I0403 15:30:44.520618 31983 net.cpp:141] Setting up inception_3a/output
I0403 15:30:44.520642 31983 net.cpp:148] Top shape: 24 256 28 28 (4816896)
I0403 15:30:44.520658 31983 net.cpp:156] Memory required for data: 580437024
I0403 15:30:44.520673 31983 layer_factory.hpp:77] Creating layer inception_3a/output_inception_3a/output_0_split
I0403 15:30:44.520690 31983 net.cpp:91] Creating Layer inception_3a/output_inception_3a/output_0_split
I0403 15:30:44.520705 31983 net.cpp:425] inception_3a/output_inception_3a/output_0_split <- inception_3a/output
I0403 15:30:44.520725 31983 net.cpp:399] inception_3a/output_inception_3a/output_0_split -> inception_3a/output_inception_3a/output_0_split_0
I0403 15:30:44.520745 31983 net.cpp:399] inception_3a/output_inception_3a/output_0_split -> inception_3a/output_inception_3a/output_0_split_1
I0403 15:30:44.520769 31983 net.cpp:399] inception_3a/output_inception_3a/output_0_split -> inception_3a/output_inception_3a/output_0_split_2
I0403 15:30:44.520792 31983 net.cpp:399] inception_3a/output_inception_3a/output_0_split -> inception_3a/output_inception_3a/output_0_split_3
I0403 15:30:44.520869 31983 net.cpp:141] Setting up inception_3a/output_inception_3a/output_0_split
I0403 15:30:44.520891 31983 net.cpp:148] Top shape: 24 256 28 28 (4816896)
I0403 15:30:44.520908 31983 net.cpp:148] Top shape: 24 256 28 28 (4816896)
I0403 15:30:44.520925 31983 net.cpp:148] Top shape: 24 256 28 28 (4816896)
I0403 15:30:44.520942 31983 net.cpp:148] Top shape: 24 256 28 28 (4816896)
I0403 15:30:44.520956 31983 net.cpp:156] Memory required for data: 657507360
I0403 15:30:44.520972 31983 layer_factory.hpp:77] Creating layer inception_3b/1x1
I0403 15:30:44.520993 31983 net.cpp:91] Creating Layer inception_3b/1x1
I0403 15:30:44.521009 31983 net.cpp:425] inception_3b/1x1 <- inception_3a/output_inception_3a/output_0_split_0
I0403 15:30:44.521030 31983 net.cpp:399] inception_3b/1x1 -> inception_3b/1x1
I0403 15:30:44.522153 31983 net.cpp:141] Setting up inception_3b/1x1
I0403 15:30:44.522192 31983 net.cpp:148] Top shape: 24 128 28 28 (2408448)
I0403 15:30:44.522209 31983 net.cpp:156] Memory required for data: 667141152
I0403 15:30:44.522229 31983 layer_factory.hpp:77] Creating layer inception_3b/relu_1x1
I0403 15:30:44.522248 31983 net.cpp:91] Creating Layer inception_3b/relu_1x1
I0403 15:30:44.522264 31983 net.cpp:425] inception_3b/relu_1x1 <- inception_3b/1x1
I0403 15:30:44.522286 31983 net.cpp:386] inception_3b/relu_1x1 -> inception_3b/1x1 (in-place)
I0403 15:30:44.522459 31983 net.cpp:141] Setting up inception_3b/relu_1x1
I0403 15:30:44.522485 31983 net.cpp:148] Top shape: 24 128 28 28 (2408448)
I0403 15:30:44.522500 31983 net.cpp:156] Memory required for data: 676774944
I0403 15:30:44.522516 31983 layer_factory.hpp:77] Creating layer inception_3b/3x3_reduce
I0403 15:30:44.522537 31983 net.cpp:91] Creating Layer inception_3b/3x3_reduce
I0403 15:30:44.522554 31983 net.cpp:425] inception_3b/3x3_reduce <- inception_3a/output_inception_3a/output_0_split_1
I0403 15:30:44.522578 31983 net.cpp:399] inception_3b/3x3_reduce -> inception_3b/3x3_reduce
I0403 15:30:44.523661 31983 net.cpp:141] Setting up inception_3b/3x3_reduce
I0403 15:30:44.523689 31983 net.cpp:148] Top shape: 24 128 28 28 (2408448)
I0403 15:30:44.523705 31983 net.cpp:156] Memory required for data: 686408736
I0403 15:30:44.523722 31983 layer_factory.hpp:77] Creating layer inception_3b/relu_3x3_reduce
I0403 15:30:44.523742 31983 net.cpp:91] Creating Layer inception_3b/relu_3x3_reduce
I0403 15:30:44.523757 31983 net.cpp:425] inception_3b/relu_3x3_reduce <- inception_3b/3x3_reduce
I0403 15:30:44.523777 31983 net.cpp:386] inception_3b/relu_3x3_reduce -> inception_3b/3x3_reduce (in-place)
I0403 15:30:44.523944 31983 net.cpp:141] Setting up inception_3b/relu_3x3_reduce
I0403 15:30:44.523969 31983 net.cpp:148] Top shape: 24 128 28 28 (2408448)
I0403 15:30:44.523990 31983 net.cpp:156] Memory required for data: 696042528
I0403 15:30:44.524008 31983 layer_factory.hpp:77] Creating layer inception_3b/3x3
I0403 15:30:44.524039 31983 net.cpp:91] Creating Layer inception_3b/3x3
I0403 15:30:44.524062 31983 net.cpp:425] inception_3b/3x3 <- inception_3b/3x3_reduce
I0403 15:30:44.524085 31983 net.cpp:399] inception_3b/3x3 -> inception_3b/3x3
I0403 15:30:44.526957 31983 net.cpp:141] Setting up inception_3b/3x3
I0403 15:30:44.526998 31983 net.cpp:148] Top shape: 24 192 28 28 (3612672)
I0403 15:30:44.527012 31983 net.cpp:156] Memory required for data: 710493216
I0403 15:30:44.527031 31983 layer_factory.hpp:77] Creating layer inception_3b/relu_3x3
I0403 15:30:44.527051 31983 net.cpp:91] Creating Layer inception_3b/relu_3x3
I0403 15:30:44.527070 31983 net.cpp:425] inception_3b/relu_3x3 <- inception_3b/3x3
I0403 15:30:44.527087 31983 net.cpp:386] inception_3b/relu_3x3 -> inception_3b/3x3 (in-place)
I0403 15:30:44.527361 31983 net.cpp:141] Setting up inception_3b/relu_3x3
I0403 15:30:44.527389 31983 net.cpp:148] Top shape: 24 192 28 28 (3612672)
I0403 15:30:44.527403 31983 net.cpp:156] Memory required for data: 724943904
I0403 15:30:44.527418 31983 layer_factory.hpp:77] Creating layer inception_3b/5x5_reduce
I0403 15:30:44.527441 31983 net.cpp:91] Creating Layer inception_3b/5x5_reduce
I0403 15:30:44.527458 31983 net.cpp:425] inception_3b/5x5_reduce <- inception_3a/output_inception_3a/output_0_split_2
I0403 15:30:44.527482 31983 net.cpp:399] inception_3b/5x5_reduce -> inception_3b/5x5_reduce
I0403 15:30:44.528481 31983 net.cpp:141] Setting up inception_3b/5x5_reduce
I0403 15:30:44.528511 31983 net.cpp:148] Top shape: 24 32 28 28 (602112)
I0403 15:30:44.528527 31983 net.cpp:156] Memory required for data: 727352352
I0403 15:30:44.528547 31983 layer_factory.hpp:77] Creating layer inception_3b/relu_5x5_reduce
I0403 15:30:44.528568 31983 net.cpp:91] Creating Layer inception_3b/relu_5x5_reduce
I0403 15:30:44.528586 31983 net.cpp:425] inception_3b/relu_5x5_reduce <- inception_3b/5x5_reduce
I0403 15:30:44.528604 31983 net.cpp:386] inception_3b/relu_5x5_reduce -> inception_3b/5x5_reduce (in-place)
I0403 15:30:44.528775 31983 net.cpp:141] Setting up inception_3b/relu_5x5_reduce
I0403 15:30:44.528821 31983 net.cpp:148] Top shape: 24 32 28 28 (602112)
I0403 15:30:44.528844 31983 net.cpp:156] Memory required for data: 729760800
I0403 15:30:44.528867 31983 layer_factory.hpp:77] Creating layer inception_3b/5x5
I0403 15:30:44.528890 31983 net.cpp:91] Creating Layer inception_3b/5x5
I0403 15:30:44.528918 31983 net.cpp:425] inception_3b/5x5 <- inception_3b/5x5_reduce
I0403 15:30:44.528942 31983 net.cpp:399] inception_3b/5x5 -> inception_3b/5x5
I0403 15:30:44.530915 31983 net.cpp:141] Setting up inception_3b/5x5
I0403 15:30:44.530944 31983 net.cpp:148] Top shape: 24 96 28 28 (1806336)
I0403 15:30:44.530961 31983 net.cpp:156] Memory required for data: 736986144
I0403 15:30:44.530982 31983 layer_factory.hpp:77] Creating layer inception_3b/relu_5x5
I0403 15:30:44.531004 31983 net.cpp:91] Creating Layer inception_3b/relu_5x5
I0403 15:30:44.531026 31983 net.cpp:425] inception_3b/relu_5x5 <- inception_3b/5x5
I0403 15:30:44.531055 31983 net.cpp:386] inception_3b/relu_5x5 -> inception_3b/5x5 (in-place)
I0403 15:30:44.531255 31983 net.cpp:141] Setting up inception_3b/relu_5x5
I0403 15:30:44.531280 31983 net.cpp:148] Top shape: 24 96 28 28 (1806336)
I0403 15:30:44.531301 31983 net.cpp:156] Memory required for data: 744211488
I0403 15:30:44.531316 31983 layer_factory.hpp:77] Creating layer inception_3b/pool
I0403 15:30:44.531334 31983 net.cpp:91] Creating Layer inception_3b/pool
I0403 15:30:44.531350 31983 net.cpp:425] inception_3b/pool <- inception_3a/output_inception_3a/output_0_split_3
I0403 15:30:44.531369 31983 net.cpp:399] inception_3b/pool -> inception_3b/pool
I0403 15:30:44.531430 31983 net.cpp:141] Setting up inception_3b/pool
I0403 15:30:44.531458 31983 net.cpp:148] Top shape: 24 256 28 28 (4816896)
I0403 15:30:44.531476 31983 net.cpp:156] Memory required for data: 763479072
I0403 15:30:44.531492 31983 layer_factory.hpp:77] Creating layer inception_3b/pool_proj
I0403 15:30:44.531519 31983 net.cpp:91] Creating Layer inception_3b/pool_proj
I0403 15:30:44.531544 31983 net.cpp:425] inception_3b/pool_proj <- inception_3b/pool
I0403 15:30:44.531568 31983 net.cpp:399] inception_3b/pool_proj -> inception_3b/pool_proj
I0403 15:30:44.532631 31983 net.cpp:141] Setting up inception_3b/pool_proj
I0403 15:30:44.532663 31983 net.cpp:148] Top shape: 24 64 28 28 (1204224)
I0403 15:30:44.532680 31983 net.cpp:156] Memory required for data: 768295968
I0403 15:30:44.532701 31983 layer_factory.hpp:77] Creating layer inception_3b/relu_pool_proj
I0403 15:30:44.532718 31983 net.cpp:91] Creating Layer inception_3b/relu_pool_proj
I0403 15:30:44.532735 31983 net.cpp:425] inception_3b/relu_pool_proj <- inception_3b/pool_proj
I0403 15:30:44.532753 31983 net.cpp:386] inception_3b/relu_pool_proj -> inception_3b/pool_proj (in-place)
I0403 15:30:44.533149 31983 net.cpp:141] Setting up inception_3b/relu_pool_proj
I0403 15:30:44.533187 31983 net.cpp:148] Top shape: 24 64 28 28 (1204224)
I0403 15:30:44.533210 31983 net.cpp:156] Memory required for data: 773112864
I0403 15:30:44.533224 31983 layer_factory.hpp:77] Creating layer inception_3b/output
I0403 15:30:44.533244 31983 net.cpp:91] Creating Layer inception_3b/output
I0403 15:30:44.533262 31983 net.cpp:425] inception_3b/output <- inception_3b/1x1
I0403 15:30:44.533279 31983 net.cpp:425] inception_3b/output <- inception_3b/3x3
I0403 15:30:44.533300 31983 net.cpp:425] inception_3b/output <- inception_3b/5x5
I0403 15:30:44.533318 31983 net.cpp:425] inception_3b/output <- inception_3b/pool_proj
I0403 15:30:44.533335 31983 net.cpp:399] inception_3b/output -> inception_3b/output
I0403 15:30:44.533382 31983 net.cpp:141] Setting up inception_3b/output
I0403 15:30:44.533406 31983 net.cpp:148] Top shape: 24 480 28 28 (9031680)
I0403 15:30:44.533421 31983 net.cpp:156] Memory required for data: 809239584
I0403 15:30:44.533437 31983 layer_factory.hpp:77] Creating layer pool3/3x3_s2
I0403 15:30:44.533453 31983 net.cpp:91] Creating Layer pool3/3x3_s2
I0403 15:30:44.533470 31983 net.cpp:425] pool3/3x3_s2 <- inception_3b/output
I0403 15:30:44.533490 31983 net.cpp:399] pool3/3x3_s2 -> pool3/3x3_s2
I0403 15:30:44.533565 31983 net.cpp:141] Setting up pool3/3x3_s2
I0403 15:30:44.533589 31983 net.cpp:148] Top shape: 24 480 14 14 (2257920)
I0403 15:30:44.533612 31983 net.cpp:156] Memory required for data: 818271264
I0403 15:30:44.533633 31983 layer_factory.hpp:77] Creating layer pool3/3x3_s2_pool3/3x3_s2_0_split
I0403 15:30:44.533658 31983 net.cpp:91] Creating Layer pool3/3x3_s2_pool3/3x3_s2_0_split
I0403 15:30:44.533680 31983 net.cpp:425] pool3/3x3_s2_pool3/3x3_s2_0_split <- pool3/3x3_s2
I0403 15:30:44.533705 31983 net.cpp:399] pool3/3x3_s2_pool3/3x3_s2_0_split -> pool3/3x3_s2_pool3/3x3_s2_0_split_0
I0403 15:30:44.533735 31983 net.cpp:399] pool3/3x3_s2_pool3/3x3_s2_0_split -> pool3/3x3_s2_pool3/3x3_s2_0_split_1
I0403 15:30:44.533757 31983 net.cpp:399] pool3/3x3_s2_pool3/3x3_s2_0_split -> pool3/3x3_s2_pool3/3x3_s2_0_split_2
I0403 15:30:44.533783 31983 net.cpp:399] pool3/3x3_s2_pool3/3x3_s2_0_split -> pool3/3x3_s2_pool3/3x3_s2_0_split_3
I0403 15:30:44.533859 31983 net.cpp:141] Setting up pool3/3x3_s2_pool3/3x3_s2_0_split
I0403 15:30:44.533885 31983 net.cpp:148] Top shape: 24 480 14 14 (2257920)
I0403 15:30:44.533901 31983 net.cpp:148] Top shape: 24 480 14 14 (2257920)
I0403 15:30:44.533918 31983 net.cpp:148] Top shape: 24 480 14 14 (2257920)
I0403 15:30:44.533934 31983 net.cpp:148] Top shape: 24 480 14 14 (2257920)
I0403 15:30:44.533948 31983 net.cpp:156] Memory required for data: 854397984
I0403 15:30:44.533963 31983 layer_factory.hpp:77] Creating layer inception_4a/1x1
I0403 15:30:44.533983 31983 net.cpp:91] Creating Layer inception_4a/1x1
I0403 15:30:44.534000 31983 net.cpp:425] inception_4a/1x1 <- pool3/3x3_s2_pool3/3x3_s2_0_split_0
I0403 15:30:44.534024 31983 net.cpp:399] inception_4a/1x1 -> inception_4a/1x1
I0403 15:30:44.535588 31983 net.cpp:141] Setting up inception_4a/1x1
I0403 15:30:44.535619 31983 net.cpp:148] Top shape: 24 192 14 14 (903168)
I0403 15:30:44.535636 31983 net.cpp:156] Memory required for data: 858010656
I0403 15:30:44.535657 31983 layer_factory.hpp:77] Creating layer inception_4a/relu_1x1
I0403 15:30:44.535677 31983 net.cpp:91] Creating Layer inception_4a/relu_1x1
I0403 15:30:44.535694 31983 net.cpp:425] inception_4a/relu_1x1 <- inception_4a/1x1
I0403 15:30:44.535712 31983 net.cpp:386] inception_4a/relu_1x1 -> inception_4a/1x1 (in-place)
I0403 15:30:44.535888 31983 net.cpp:141] Setting up inception_4a/relu_1x1
I0403 15:30:44.535918 31983 net.cpp:148] Top shape: 24 192 14 14 (903168)
I0403 15:30:44.535943 31983 net.cpp:156] Memory required for data: 861623328
I0403 15:30:44.535964 31983 layer_factory.hpp:77] Creating layer inception_4a/3x3_reduce
I0403 15:30:44.535995 31983 net.cpp:91] Creating Layer inception_4a/3x3_reduce
I0403 15:30:44.536020 31983 net.cpp:425] inception_4a/3x3_reduce <- pool3/3x3_s2_pool3/3x3_s2_0_split_1
I0403 15:30:44.536046 31983 net.cpp:399] inception_4a/3x3_reduce -> inception_4a/3x3_reduce
I0403 15:30:44.537322 31983 net.cpp:141] Setting up inception_4a/3x3_reduce
I0403 15:30:44.537355 31983 net.cpp:148] Top shape: 24 96 14 14 (451584)
I0403 15:30:44.537372 31983 net.cpp:156] Memory required for data: 863429664
I0403 15:30:44.537397 31983 layer_factory.hpp:77] Creating layer inception_4a/relu_3x3_reduce
I0403 15:30:44.537420 31983 net.cpp:91] Creating Layer inception_4a/relu_3x3_reduce
I0403 15:30:44.537436 31983 net.cpp:425] inception_4a/relu_3x3_reduce <- inception_4a/3x3_reduce
I0403 15:30:44.537453 31983 net.cpp:386] inception_4a/relu_3x3_reduce -> inception_4a/3x3_reduce (in-place)
I0403 15:30:44.537629 31983 net.cpp:141] Setting up inception_4a/relu_3x3_reduce
I0403 15:30:44.537657 31983 net.cpp:148] Top shape: 24 96 14 14 (451584)
I0403 15:30:44.537672 31983 net.cpp:156] Memory required for data: 865236000
I0403 15:30:44.537693 31983 layer_factory.hpp:77] Creating layer inception_4a/3x3
I0403 15:30:44.537720 31983 net.cpp:91] Creating Layer inception_4a/3x3
I0403 15:30:44.537739 31983 net.cpp:425] inception_4a/3x3 <- inception_4a/3x3_reduce
I0403 15:30:44.537762 31983 net.cpp:399] inception_4a/3x3 -> inception_4a/3x3
I0403 15:30:44.540439 31983 net.cpp:141] Setting up inception_4a/3x3
I0403 15:30:44.540468 31983 net.cpp:148] Top shape: 24 208 14 14 (978432)
I0403 15:30:44.540485 31983 net.cpp:156] Memory required for data: 869149728
I0403 15:30:44.540504 31983 layer_factory.hpp:77] Creating layer inception_4a/relu_3x3
I0403 15:30:44.540523 31983 net.cpp:91] Creating Layer inception_4a/relu_3x3
I0403 15:30:44.540539 31983 net.cpp:425] inception_4a/relu_3x3 <- inception_4a/3x3
I0403 15:30:44.540560 31983 net.cpp:386] inception_4a/relu_3x3 -> inception_4a/3x3 (in-place)
I0403 15:30:44.540844 31983 net.cpp:141] Setting up inception_4a/relu_3x3
I0403 15:30:44.540877 31983 net.cpp:148] Top shape: 24 208 14 14 (978432)
I0403 15:30:44.540899 31983 net.cpp:156] Memory required for data: 873063456
I0403 15:30:44.540921 31983 layer_factory.hpp:77] Creating layer inception_4a/5x5_reduce
I0403 15:30:44.540951 31983 net.cpp:91] Creating Layer inception_4a/5x5_reduce
I0403 15:30:44.540973 31983 net.cpp:425] inception_4a/5x5_reduce <- pool3/3x3_s2_pool3/3x3_s2_0_split_2
I0403 15:30:44.541002 31983 net.cpp:399] inception_4a/5x5_reduce -> inception_4a/5x5_reduce
I0403 15:30:44.542012 31983 net.cpp:141] Setting up inception_4a/5x5_reduce
I0403 15:30:44.542043 31983 net.cpp:148] Top shape: 24 16 14 14 (75264)
I0403 15:30:44.542067 31983 net.cpp:156] Memory required for data: 873364512
I0403 15:30:44.542091 31983 layer_factory.hpp:77] Creating layer inception_4a/relu_5x5_reduce
I0403 15:30:44.542121 31983 net.cpp:91] Creating Layer inception_4a/relu_5x5_reduce
I0403 15:30:44.542142 31983 net.cpp:425] inception_4a/relu_5x5_reduce <- inception_4a/5x5_reduce
I0403 15:30:44.542170 31983 net.cpp:386] inception_4a/relu_5x5_reduce -> inception_4a/5x5_reduce (in-place)
I0403 15:30:44.542356 31983 net.cpp:141] Setting up inception_4a/relu_5x5_reduce
I0403 15:30:44.542382 31983 net.cpp:148] Top shape: 24 16 14 14 (75264)
I0403 15:30:44.542397 31983 net.cpp:156] Memory required for data: 873665568
I0403 15:30:44.542412 31983 layer_factory.hpp:77] Creating layer inception_4a/5x5
I0403 15:30:44.542436 31983 net.cpp:91] Creating Layer inception_4a/5x5
I0403 15:30:44.542455 31983 net.cpp:425] inception_4a/5x5 <- inception_4a/5x5_reduce
I0403 15:30:44.542477 31983 net.cpp:399] inception_4a/5x5 -> inception_4a/5x5
I0403 15:30:44.543553 31983 net.cpp:141] Setting up inception_4a/5x5
I0403 15:30:44.543582 31983 net.cpp:148] Top shape: 24 48 14 14 (225792)
I0403 15:30:44.543601 31983 net.cpp:156] Memory required for data: 874568736
I0403 15:30:44.543620 31983 layer_factory.hpp:77] Creating layer inception_4a/relu_5x5
I0403 15:30:44.543642 31983 net.cpp:91] Creating Layer inception_4a/relu_5x5
I0403 15:30:44.543660 31983 net.cpp:425] inception_4a/relu_5x5 <- inception_4a/5x5
I0403 15:30:44.543683 31983 net.cpp:386] inception_4a/relu_5x5 -> inception_4a/5x5 (in-place)
I0403 15:30:44.543859 31983 net.cpp:141] Setting up inception_4a/relu_5x5
I0403 15:30:44.543896 31983 net.cpp:148] Top shape: 24 48 14 14 (225792)
I0403 15:30:44.543916 31983 net.cpp:156] Memory required for data: 875471904
I0403 15:30:44.543932 31983 layer_factory.hpp:77] Creating layer inception_4a/pool
I0403 15:30:44.543951 31983 net.cpp:91] Creating Layer inception_4a/pool
I0403 15:30:44.543967 31983 net.cpp:425] inception_4a/pool <- pool3/3x3_s2_pool3/3x3_s2_0_split_3
I0403 15:30:44.543990 31983 net.cpp:399] inception_4a/pool -> inception_4a/pool
I0403 15:30:44.544052 31983 net.cpp:141] Setting up inception_4a/pool
I0403 15:30:44.544076 31983 net.cpp:148] Top shape: 24 480 14 14 (2257920)
I0403 15:30:44.544092 31983 net.cpp:156] Memory required for data: 884503584
I0403 15:30:44.544107 31983 layer_factory.hpp:77] Creating layer inception_4a/pool_proj
I0403 15:30:44.544132 31983 net.cpp:91] Creating Layer inception_4a/pool_proj
I0403 15:30:44.544150 31983 net.cpp:425] inception_4a/pool_proj <- inception_4a/pool
I0403 15:30:44.544170 31983 net.cpp:399] inception_4a/pool_proj -> inception_4a/pool_proj
I0403 15:30:44.545347 31983 net.cpp:141] Setting up inception_4a/pool_proj
I0403 15:30:44.545378 31983 net.cpp:148] Top shape: 24 64 14 14 (301056)
I0403 15:30:44.545409 31983 net.cpp:156] Memory required for data: 885707808
I0403 15:30:44.545430 31983 layer_factory.hpp:77] Creating layer inception_4a/relu_pool_proj
I0403 15:30:44.545450 31983 net.cpp:91] Creating Layer inception_4a/relu_pool_proj
I0403 15:30:44.545480 31983 net.cpp:425] inception_4a/relu_pool_proj <- inception_4a/pool_proj
I0403 15:30:44.545503 31983 net.cpp:386] inception_4a/relu_pool_proj -> inception_4a/pool_proj (in-place)
I0403 15:30:44.545814 31983 net.cpp:141] Setting up inception_4a/relu_pool_proj
I0403 15:30:44.545842 31983 net.cpp:148] Top shape: 24 64 14 14 (301056)
I0403 15:30:44.545861 31983 net.cpp:156] Memory required for data: 886912032
I0403 15:30:44.545876 31983 layer_factory.hpp:77] Creating layer inception_4a/output
I0403 15:30:44.545894 31983 net.cpp:91] Creating Layer inception_4a/output
I0403 15:30:44.545912 31983 net.cpp:425] inception_4a/output <- inception_4a/1x1
I0403 15:30:44.545928 31983 net.cpp:425] inception_4a/output <- inception_4a/3x3
I0403 15:30:44.545945 31983 net.cpp:425] inception_4a/output <- inception_4a/5x5
I0403 15:30:44.545963 31983 net.cpp:425] inception_4a/output <- inception_4a/pool_proj
I0403 15:30:44.545979 31983 net.cpp:399] inception_4a/output -> inception_4a/output
I0403 15:30:44.546023 31983 net.cpp:141] Setting up inception_4a/output
I0403 15:30:44.546047 31983 net.cpp:148] Top shape: 24 512 14 14 (2408448)
I0403 15:30:44.546062 31983 net.cpp:156] Memory required for data: 896545824
I0403 15:30:44.546077 31983 layer_factory.hpp:77] Creating layer inception_4a/output_inception_4a/output_0_split
I0403 15:30:44.546097 31983 net.cpp:91] Creating Layer inception_4a/output_inception_4a/output_0_split
I0403 15:30:44.546113 31983 net.cpp:425] inception_4a/output_inception_4a/output_0_split <- inception_4a/output
I0403 15:30:44.546133 31983 net.cpp:399] inception_4a/output_inception_4a/output_0_split -> inception_4a/output_inception_4a/output_0_split_0
I0403 15:30:44.546152 31983 net.cpp:399] inception_4a/output_inception_4a/output_0_split -> inception_4a/output_inception_4a/output_0_split_1
I0403 15:30:44.546174 31983 net.cpp:399] inception_4a/output_inception_4a/output_0_split -> inception_4a/output_inception_4a/output_0_split_2
I0403 15:30:44.546196 31983 net.cpp:399] inception_4a/output_inception_4a/output_0_split -> inception_4a/output_inception_4a/output_0_split_3
I0403 15:30:44.546218 31983 net.cpp:399] inception_4a/output_inception_4a/output_0_split -> inception_4a/output_inception_4a/output_0_split_4
I0403 15:30:44.546311 31983 net.cpp:141] Setting up inception_4a/output_inception_4a/output_0_split
I0403 15:30:44.546336 31983 net.cpp:148] Top shape: 24 512 14 14 (2408448)
I0403 15:30:44.546353 31983 net.cpp:148] Top shape: 24 512 14 14 (2408448)
I0403 15:30:44.546370 31983 net.cpp:148] Top shape: 24 512 14 14 (2408448)
I0403 15:30:44.546386 31983 net.cpp:148] Top shape: 24 512 14 14 (2408448)
I0403 15:30:44.546403 31983 net.cpp:148] Top shape: 24 512 14 14 (2408448)
I0403 15:30:44.546417 31983 net.cpp:156] Memory required for data: 944714784
I0403 15:30:44.546433 31983 layer_factory.hpp:77] Creating layer loss1/ave_pool
I0403 15:30:44.546450 31983 net.cpp:91] Creating Layer loss1/ave_pool
I0403 15:30:44.546466 31983 net.cpp:425] loss1/ave_pool <- inception_4a/output_inception_4a/output_0_split_0
I0403 15:30:44.546486 31983 net.cpp:399] loss1/ave_pool -> loss1/ave_pool
I0403 15:30:44.546686 31983 net.cpp:141] Setting up loss1/ave_pool
I0403 15:30:44.546720 31983 net.cpp:148] Top shape: 24 512 4 4 (196608)
I0403 15:30:44.546743 31983 net.cpp:156] Memory required for data: 945501216
I0403 15:30:44.546761 31983 layer_factory.hpp:77] Creating layer loss1/conv
I0403 15:30:44.546782 31983 net.cpp:91] Creating Layer loss1/conv
I0403 15:30:44.546799 31983 net.cpp:425] loss1/conv <- loss1/ave_pool
I0403 15:30:44.546818 31983 net.cpp:399] loss1/conv -> loss1/conv
I0403 15:30:44.548233 31983 net.cpp:141] Setting up loss1/conv
I0403 15:30:44.548261 31983 net.cpp:148] Top shape: 24 128 4 4 (49152)
I0403 15:30:44.548277 31983 net.cpp:156] Memory required for data: 945697824
I0403 15:30:44.548316 31983 layer_factory.hpp:77] Creating layer loss1/relu_conv
I0403 15:30:44.548337 31983 net.cpp:91] Creating Layer loss1/relu_conv
I0403 15:30:44.548355 31983 net.cpp:425] loss1/relu_conv <- loss1/conv
I0403 15:30:44.548375 31983 net.cpp:386] loss1/relu_conv -> loss1/conv (in-place)
I0403 15:30:44.548660 31983 net.cpp:141] Setting up loss1/relu_conv
I0403 15:30:44.548687 31983 net.cpp:148] Top shape: 24 128 4 4 (49152)
I0403 15:30:44.548703 31983 net.cpp:156] Memory required for data: 945894432
I0403 15:30:44.548719 31983 layer_factory.hpp:77] Creating layer loss1/fc
I0403 15:30:44.548743 31983 net.cpp:91] Creating Layer loss1/fc
I0403 15:30:44.548763 31983 net.cpp:425] loss1/fc <- loss1/conv
I0403 15:30:44.548784 31983 net.cpp:399] loss1/fc -> loss1/fc
I0403 15:30:44.566828 31983 net.cpp:141] Setting up loss1/fc
I0403 15:30:44.566893 31983 net.cpp:148] Top shape: 24 1024 (24576)
I0403 15:30:44.566921 31983 net.cpp:156] Memory required for data: 945992736
I0403 15:30:44.566951 31983 layer_factory.hpp:77] Creating layer loss1/relu_fc
I0403 15:30:44.566972 31983 net.cpp:91] Creating Layer loss1/relu_fc
I0403 15:30:44.566989 31983 net.cpp:425] loss1/relu_fc <- loss1/fc
I0403 15:30:44.567006 31983 net.cpp:386] loss1/relu_fc -> loss1/fc (in-place)
I0403 15:30:44.567203 31983 net.cpp:141] Setting up loss1/relu_fc
I0403 15:30:44.567235 31983 net.cpp:148] Top shape: 24 1024 (24576)
I0403 15:30:44.567256 31983 net.cpp:156] Memory required for data: 946091040
I0403 15:30:44.567281 31983 layer_factory.hpp:77] Creating layer loss1/drop_fc
I0403 15:30:44.567318 31983 net.cpp:91] Creating Layer loss1/drop_fc
I0403 15:30:44.567338 31983 net.cpp:425] loss1/drop_fc <- loss1/fc
I0403 15:30:44.567364 31983 net.cpp:386] loss1/drop_fc -> loss1/fc (in-place)
I0403 15:30:44.567420 31983 net.cpp:141] Setting up loss1/drop_fc
I0403 15:30:44.567448 31983 net.cpp:148] Top shape: 24 1024 (24576)
I0403 15:30:44.567471 31983 net.cpp:156] Memory required for data: 946189344
I0403 15:30:44.567495 31983 layer_factory.hpp:77] Creating layer loss1/classifier_plantvillage
I0403 15:30:44.567525 31983 net.cpp:91] Creating Layer loss1/classifier_plantvillage
I0403 15:30:44.567553 31983 net.cpp:425] loss1/classifier_plantvillage <- loss1/fc
I0403 15:30:44.567579 31983 net.cpp:399] loss1/classifier_plantvillage -> loss1/classifier_plantvillage
I0403 15:30:44.568503 31983 net.cpp:141] Setting up loss1/classifier_plantvillage
I0403 15:30:44.568532 31983 net.cpp:148] Top shape: 24 38 (912)
I0403 15:30:44.568548 31983 net.cpp:156] Memory required for data: 946192992
I0403 15:30:44.568567 31983 layer_factory.hpp:77] Creating layer loss1/classifier_plantvillage_loss1/classifier_plantvillage_0_split
I0403 15:30:44.568586 31983 net.cpp:91] Creating Layer loss1/classifier_plantvillage_loss1/classifier_plantvillage_0_split
I0403 15:30:44.568604 31983 net.cpp:425] loss1/classifier_plantvillage_loss1/classifier_plantvillage_0_split <- loss1/classifier_plantvillage
I0403 15:30:44.568630 31983 net.cpp:399] loss1/classifier_plantvillage_loss1/classifier_plantvillage_0_split -> loss1/classifier_plantvillage_loss1/classifier_plantvillage_0_split_0
I0403 15:30:44.568657 31983 net.cpp:399] loss1/classifier_plantvillage_loss1/classifier_plantvillage_0_split -> loss1/classifier_plantvillage_loss1/classifier_plantvillage_0_split_1
I0403 15:30:44.568684 31983 net.cpp:399] loss1/classifier_plantvillage_loss1/classifier_plantvillage_0_split -> loss1/classifier_plantvillage_loss1/classifier_plantvillage_0_split_2
I0403 15:30:44.568755 31983 net.cpp:141] Setting up loss1/classifier_plantvillage_loss1/classifier_plantvillage_0_split
I0403 15:30:44.568779 31983 net.cpp:148] Top shape: 24 38 (912)
I0403 15:30:44.568795 31983 net.cpp:148] Top shape: 24 38 (912)
I0403 15:30:44.568812 31983 net.cpp:148] Top shape: 24 38 (912)
I0403 15:30:44.568826 31983 net.cpp:156] Memory required for data: 946203936
I0403 15:30:44.568841 31983 layer_factory.hpp:77] Creating layer inception_4b/1x1
I0403 15:30:44.568864 31983 net.cpp:91] Creating Layer inception_4b/1x1
I0403 15:30:44.568902 31983 net.cpp:425] inception_4b/1x1 <- inception_4a/output_inception_4a/output_0_split_1
I0403 15:30:44.568924 31983 net.cpp:399] inception_4b/1x1 -> inception_4b/1x1
I0403 15:30:44.570579 31983 net.cpp:141] Setting up inception_4b/1x1
I0403 15:30:44.570607 31983 net.cpp:148] Top shape: 24 160 14 14 (752640)
I0403 15:30:44.570624 31983 net.cpp:156] Memory required for data: 949214496
I0403 15:30:44.570643 31983 layer_factory.hpp:77] Creating layer inception_4b/relu_1x1
I0403 15:30:44.570662 31983 net.cpp:91] Creating Layer inception_4b/relu_1x1
I0403 15:30:44.570679 31983 net.cpp:425] inception_4b/relu_1x1 <- inception_4b/1x1
I0403 15:30:44.570700 31983 net.cpp:386] inception_4b/relu_1x1 -> inception_4b/1x1 (in-place)
I0403 15:30:44.570879 31983 net.cpp:141] Setting up inception_4b/relu_1x1
I0403 15:30:44.570909 31983 net.cpp:148] Top shape: 24 160 14 14 (752640)
I0403 15:30:44.570930 31983 net.cpp:156] Memory required for data: 952225056
I0403 15:30:44.570955 31983 layer_factory.hpp:77] Creating layer inception_4b/3x3_reduce
I0403 15:30:44.570983 31983 net.cpp:91] Creating Layer inception_4b/3x3_reduce
I0403 15:30:44.571002 31983 net.cpp:425] inception_4b/3x3_reduce <- inception_4a/output_inception_4a/output_0_split_2
I0403 15:30:44.571032 31983 net.cpp:399] inception_4b/3x3_reduce -> inception_4b/3x3_reduce
I0403 15:30:44.572391 31983 net.cpp:141] Setting up inception_4b/3x3_reduce
I0403 15:30:44.572419 31983 net.cpp:148] Top shape: 24 112 14 14 (526848)
I0403 15:30:44.572437 31983 net.cpp:156] Memory required for data: 954332448
I0403 15:30:44.572454 31983 layer_factory.hpp:77] Creating layer inception_4b/relu_3x3_reduce
I0403 15:30:44.572476 31983 net.cpp:91] Creating Layer inception_4b/relu_3x3_reduce
I0403 15:30:44.572494 31983 net.cpp:425] inception_4b/relu_3x3_reduce <- inception_4b/3x3_reduce
I0403 15:30:44.572512 31983 net.cpp:386] inception_4b/relu_3x3_reduce -> inception_4b/3x3_reduce (in-place)
I0403 15:30:44.572796 31983 net.cpp:141] Setting up inception_4b/relu_3x3_reduce
I0403 15:30:44.572829 31983 net.cpp:148] Top shape: 24 112 14 14 (526848)
I0403 15:30:44.572849 31983 net.cpp:156] Memory required for data: 956439840
I0403 15:30:44.572870 31983 layer_factory.hpp:77] Creating layer inception_4b/3x3
I0403 15:30:44.572904 31983 net.cpp:91] Creating Layer inception_4b/3x3
I0403 15:30:44.572923 31983 net.cpp:425] inception_4b/3x3 <- inception_4b/3x3_reduce
I0403 15:30:44.572948 31983 net.cpp:399] inception_4b/3x3 -> inception_4b/3x3
I0403 15:30:44.575933 31983 net.cpp:141] Setting up inception_4b/3x3
I0403 15:30:44.575966 31983 net.cpp:148] Top shape: 24 224 14 14 (1053696)
I0403 15:30:44.575984 31983 net.cpp:156] Memory required for data: 960654624
I0403 15:30:44.576004 31983 layer_factory.hpp:77] Creating layer inception_4b/relu_3x3
I0403 15:30:44.576026 31983 net.cpp:91] Creating Layer inception_4b/relu_3x3
I0403 15:30:44.576051 31983 net.cpp:425] inception_4b/relu_3x3 <- inception_4b/3x3
I0403 15:30:44.576076 31983 net.cpp:386] inception_4b/relu_3x3 -> inception_4b/3x3 (in-place)
I0403 15:30:44.576261 31983 net.cpp:141] Setting up inception_4b/relu_3x3
I0403 15:30:44.576295 31983 net.cpp:148] Top shape: 24 224 14 14 (1053696)
I0403 15:30:44.576316 31983 net.cpp:156] Memory required for data: 964869408
I0403 15:30:44.576336 31983 layer_factory.hpp:77] Creating layer inception_4b/5x5_reduce
I0403 15:30:44.576364 31983 net.cpp:91] Creating Layer inception_4b/5x5_reduce
I0403 15:30:44.576387 31983 net.cpp:425] inception_4b/5x5_reduce <- inception_4a/output_inception_4a/output_0_split_3
I0403 15:30:44.576411 31983 net.cpp:399] inception_4b/5x5_reduce -> inception_4b/5x5_reduce
I0403 15:30:44.577507 31983 net.cpp:141] Setting up inception_4b/5x5_reduce
I0403 15:30:44.577534 31983 net.cpp:148] Top shape: 24 24 14 14 (112896)
I0403 15:30:44.577556 31983 net.cpp:156] Memory required for data: 965320992
I0403 15:30:44.577579 31983 layer_factory.hpp:77] Creating layer inception_4b/relu_5x5_reduce
I0403 15:30:44.577605 31983 net.cpp:91] Creating Layer inception_4b/relu_5x5_reduce
I0403 15:30:44.577644 31983 net.cpp:425] inception_4b/relu_5x5_reduce <- inception_4b/5x5_reduce
I0403 15:30:44.577667 31983 net.cpp:386] inception_4b/relu_5x5_reduce -> inception_4b/5x5_reduce (in-place)
I0403 15:30:44.577854 31983 net.cpp:141] Setting up inception_4b/relu_5x5_reduce
I0403 15:30:44.577879 31983 net.cpp:148] Top shape: 24 24 14 14 (112896)
I0403 15:30:44.577895 31983 net.cpp:156] Memory required for data: 965772576
I0403 15:30:44.577911 31983 layer_factory.hpp:77] Creating layer inception_4b/5x5
I0403 15:30:44.577935 31983 net.cpp:91] Creating Layer inception_4b/5x5
I0403 15:30:44.577953 31983 net.cpp:425] inception_4b/5x5 <- inception_4b/5x5_reduce
I0403 15:30:44.577972 31983 net.cpp:399] inception_4b/5x5 -> inception_4b/5x5
I0403 15:30:44.579212 31983 net.cpp:141] Setting up inception_4b/5x5
I0403 15:30:44.579241 31983 net.cpp:148] Top shape: 24 64 14 14 (301056)
I0403 15:30:44.579257 31983 net.cpp:156] Memory required for data: 966976800
I0403 15:30:44.579274 31983 layer_factory.hpp:77] Creating layer inception_4b/relu_5x5
I0403 15:30:44.579298 31983 net.cpp:91] Creating Layer inception_4b/relu_5x5
I0403 15:30:44.579318 31983 net.cpp:425] inception_4b/relu_5x5 <- inception_4b/5x5
I0403 15:30:44.579337 31983 net.cpp:386] inception_4b/relu_5x5 -> inception_4b/5x5 (in-place)
I0403 15:30:44.579627 31983 net.cpp:141] Setting up inception_4b/relu_5x5
I0403 15:30:44.579654 31983 net.cpp:148] Top shape: 24 64 14 14 (301056)
I0403 15:30:44.579670 31983 net.cpp:156] Memory required for data: 968181024
I0403 15:30:44.579697 31983 layer_factory.hpp:77] Creating layer inception_4b/pool
I0403 15:30:44.579717 31983 net.cpp:91] Creating Layer inception_4b/pool
I0403 15:30:44.579735 31983 net.cpp:425] inception_4b/pool <- inception_4a/output_inception_4a/output_0_split_4
I0403 15:30:44.579761 31983 net.cpp:399] inception_4b/pool -> inception_4b/pool
I0403 15:30:44.579828 31983 net.cpp:141] Setting up inception_4b/pool
I0403 15:30:44.579854 31983 net.cpp:148] Top shape: 24 512 14 14 (2408448)
I0403 15:30:44.579871 31983 net.cpp:156] Memory required for data: 977814816
I0403 15:30:44.579887 31983 layer_factory.hpp:77] Creating layer inception_4b/pool_proj
I0403 15:30:44.579912 31983 net.cpp:91] Creating Layer inception_4b/pool_proj
I0403 15:30:44.579932 31983 net.cpp:425] inception_4b/pool_proj <- inception_4b/pool
I0403 15:30:44.579952 31983 net.cpp:399] inception_4b/pool_proj -> inception_4b/pool_proj
I0403 15:30:44.581331 31983 net.cpp:141] Setting up inception_4b/pool_proj
I0403 15:30:44.581369 31983 net.cpp:148] Top shape: 24 64 14 14 (301056)
I0403 15:30:44.581389 31983 net.cpp:156] Memory required for data: 979019040
I0403 15:30:44.581410 31983 layer_factory.hpp:77] Creating layer inception_4b/relu_pool_proj
I0403 15:30:44.581434 31983 net.cpp:91] Creating Layer inception_4b/relu_pool_proj
I0403 15:30:44.581452 31983 net.cpp:425] inception_4b/relu_pool_proj <- inception_4b/pool_proj
I0403 15:30:44.581472 31983 net.cpp:386] inception_4b/relu_pool_proj -> inception_4b/pool_proj (in-place)
I0403 15:30:44.581663 31983 net.cpp:141] Setting up inception_4b/relu_pool_proj
I0403 15:30:44.581692 31983 net.cpp:148] Top shape: 24 64 14 14 (301056)
I0403 15:30:44.581712 31983 net.cpp:156] Memory required for data: 980223264
I0403 15:30:44.581733 31983 layer_factory.hpp:77] Creating layer inception_4b/output
I0403 15:30:44.581758 31983 net.cpp:91] Creating Layer inception_4b/output
I0403 15:30:44.581787 31983 net.cpp:425] inception_4b/output <- inception_4b/1x1
I0403 15:30:44.581811 31983 net.cpp:425] inception_4b/output <- inception_4b/3x3
I0403 15:30:44.581835 31983 net.cpp:425] inception_4b/output <- inception_4b/5x5
I0403 15:30:44.581853 31983 net.cpp:425] inception_4b/output <- inception_4b/pool_proj
I0403 15:30:44.581876 31983 net.cpp:399] inception_4b/output -> inception_4b/output
I0403 15:30:44.581934 31983 net.cpp:141] Setting up inception_4b/output
I0403 15:30:44.581959 31983 net.cpp:148] Top shape: 24 512 14 14 (2408448)
I0403 15:30:44.581974 31983 net.cpp:156] Memory required for data: 989857056
I0403 15:30:44.582006 31983 layer_factory.hpp:77] Creating layer inception_4b/output_inception_4b/output_0_split
I0403 15:30:44.582026 31983 net.cpp:91] Creating Layer inception_4b/output_inception_4b/output_0_split
I0403 15:30:44.582046 31983 net.cpp:425] inception_4b/output_inception_4b/output_0_split <- inception_4b/output
I0403 15:30:44.582065 31983 net.cpp:399] inception_4b/output_inception_4b/output_0_split -> inception_4b/output_inception_4b/output_0_split_0
I0403 15:30:44.582087 31983 net.cpp:399] inception_4b/output_inception_4b/output_0_split -> inception_4b/output_inception_4b/output_0_split_1
I0403 15:30:44.582109 31983 net.cpp:399] inception_4b/output_inception_4b/output_0_split -> inception_4b/output_inception_4b/output_0_split_2
I0403 15:30:44.582131 31983 net.cpp:399] inception_4b/output_inception_4b/output_0_split -> inception_4b/output_inception_4b/output_0_split_3
I0403 15:30:44.582218 31983 net.cpp:141] Setting up inception_4b/output_inception_4b/output_0_split
I0403 15:30:44.582243 31983 net.cpp:148] Top shape: 24 512 14 14 (2408448)
I0403 15:30:44.582280 31983 net.cpp:148] Top shape: 24 512 14 14 (2408448)
I0403 15:30:44.582298 31983 net.cpp:148] Top shape: 24 512 14 14 (2408448)
I0403 15:30:44.582325 31983 net.cpp:148] Top shape: 24 512 14 14 (2408448)
I0403 15:30:44.582341 31983 net.cpp:156] Memory required for data: 1028392224
I0403 15:30:44.582356 31983 layer_factory.hpp:77] Creating layer inception_4c/1x1
I0403 15:30:44.582381 31983 net.cpp:91] Creating Layer inception_4c/1x1
I0403 15:30:44.582401 31983 net.cpp:425] inception_4c/1x1 <- inception_4b/output_inception_4b/output_0_split_0
I0403 15:30:44.582423 31983 net.cpp:399] inception_4c/1x1 -> inception_4c/1x1
I0403 15:30:44.583966 31983 net.cpp:141] Setting up inception_4c/1x1
I0403 15:30:44.584002 31983 net.cpp:148] Top shape: 24 128 14 14 (602112)
I0403 15:30:44.584020 31983 net.cpp:156] Memory required for data: 1030800672
I0403 15:30:44.584041 31983 layer_factory.hpp:77] Creating layer inception_4c/relu_1x1
I0403 15:30:44.584061 31983 net.cpp:91] Creating Layer inception_4c/relu_1x1
I0403 15:30:44.584079 31983 net.cpp:425] inception_4c/relu_1x1 <- inception_4c/1x1
I0403 15:30:44.584097 31983 net.cpp:386] inception_4c/relu_1x1 -> inception_4c/1x1 (in-place)
I0403 15:30:44.584316 31983 net.cpp:141] Setting up inception_4c/relu_1x1
I0403 15:30:44.584345 31983 net.cpp:148] Top shape: 24 128 14 14 (602112)
I0403 15:30:44.584363 31983 net.cpp:156] Memory required for data: 1033209120
I0403 15:30:44.584380 31983 layer_factory.hpp:77] Creating layer inception_4c/3x3_reduce
I0403 15:30:44.584404 31983 net.cpp:91] Creating Layer inception_4c/3x3_reduce
I0403 15:30:44.584424 31983 net.cpp:425] inception_4c/3x3_reduce <- inception_4b/output_inception_4b/output_0_split_1
I0403 15:30:44.584446 31983 net.cpp:399] inception_4c/3x3_reduce -> inception_4c/3x3_reduce
I0403 15:30:44.586529 31983 net.cpp:141] Setting up inception_4c/3x3_reduce
I0403 15:30:44.586560 31983 net.cpp:148] Top shape: 24 128 14 14 (602112)
I0403 15:30:44.586580 31983 net.cpp:156] Memory required for data: 1035617568
I0403 15:30:44.586602 31983 layer_factory.hpp:77] Creating layer inception_4c/relu_3x3_reduce
I0403 15:30:44.586624 31983 net.cpp:91] Creating Layer inception_4c/relu_3x3_reduce
I0403 15:30:44.586642 31983 net.cpp:425] inception_4c/relu_3x3_reduce <- inception_4c/3x3_reduce
I0403 15:30:44.586663 31983 net.cpp:386] inception_4c/relu_3x3_reduce -> inception_4c/3x3_reduce (in-place)
I0403 15:30:44.586972 31983 net.cpp:141] Setting up inception_4c/relu_3x3_reduce
I0403 15:30:44.587002 31983 net.cpp:148] Top shape: 24 128 14 14 (602112)
I0403 15:30:44.587018 31983 net.cpp:156] Memory required for data: 1038026016
I0403 15:30:44.587034 31983 layer_factory.hpp:77] Creating layer inception_4c/3x3
I0403 15:30:44.587059 31983 net.cpp:91] Creating Layer inception_4c/3x3
I0403 15:30:44.587080 31983 net.cpp:425] inception_4c/3x3 <- inception_4c/3x3_reduce
I0403 15:30:44.587103 31983 net.cpp:399] inception_4c/3x3 -> inception_4c/3x3
I0403 15:30:44.590945 31983 net.cpp:141] Setting up inception_4c/3x3
I0403 15:30:44.590991 31983 net.cpp:148] Top shape: 24 256 14 14 (1204224)
I0403 15:30:44.591011 31983 net.cpp:156] Memory required for data: 1042842912
I0403 15:30:44.591047 31983 layer_factory.hpp:77] Creating layer inception_4c/relu_3x3
I0403 15:30:44.591071 31983 net.cpp:91] Creating Layer inception_4c/relu_3x3
I0403 15:30:44.591089 31983 net.cpp:425] inception_4c/relu_3x3 <- inception_4c/3x3
I0403 15:30:44.591109 31983 net.cpp:386] inception_4c/relu_3x3 -> inception_4c/3x3 (in-place)
I0403 15:30:44.591310 31983 net.cpp:141] Setting up inception_4c/relu_3x3
I0403 15:30:44.591338 31983 net.cpp:148] Top shape: 24 256 14 14 (1204224)
I0403 15:30:44.591356 31983 net.cpp:156] Memory required for data: 1047659808
I0403 15:30:44.591372 31983 layer_factory.hpp:77] Creating layer inception_4c/5x5_reduce
I0403 15:30:44.591398 31983 net.cpp:91] Creating Layer inception_4c/5x5_reduce
I0403 15:30:44.591418 31983 net.cpp:425] inception_4c/5x5_reduce <- inception_4b/output_inception_4b/output_0_split_2
I0403 15:30:44.591442 31983 net.cpp:399] inception_4c/5x5_reduce -> inception_4c/5x5_reduce
I0403 15:30:44.592615 31983 net.cpp:141] Setting up inception_4c/5x5_reduce
I0403 15:30:44.592645 31983 net.cpp:148] Top shape: 24 24 14 14 (112896)
I0403 15:30:44.592663 31983 net.cpp:156] Memory required for data: 1048111392
I0403 15:30:44.592684 31983 layer_factory.hpp:77] Creating layer inception_4c/relu_5x5_reduce
I0403 15:30:44.592706 31983 net.cpp:91] Creating Layer inception_4c/relu_5x5_reduce
I0403 15:30:44.592726 31983 net.cpp:425] inception_4c/relu_5x5_reduce <- inception_4c/5x5_reduce
I0403 15:30:44.592746 31983 net.cpp:386] inception_4c/relu_5x5_reduce -> inception_4c/5x5_reduce (in-place)
I0403 15:30:44.592948 31983 net.cpp:141] Setting up inception_4c/relu_5x5_reduce
I0403 15:30:44.592975 31983 net.cpp:148] Top shape: 24 24 14 14 (112896)
I0403 15:30:44.592993 31983 net.cpp:156] Memory required for data: 1048562976
I0403 15:30:44.593011 31983 layer_factory.hpp:77] Creating layer inception_4c/5x5
I0403 15:30:44.593036 31983 net.cpp:91] Creating Layer inception_4c/5x5
I0403 15:30:44.593056 31983 net.cpp:425] inception_4c/5x5 <- inception_4c/5x5_reduce
I0403 15:30:44.593078 31983 net.cpp:399] inception_4c/5x5 -> inception_4c/5x5
I0403 15:30:44.594424 31983 net.cpp:141] Setting up inception_4c/5x5
I0403 15:30:44.594457 31983 net.cpp:148] Top shape: 24 64 14 14 (301056)
I0403 15:30:44.594475 31983 net.cpp:156] Memory required for data: 1049767200
I0403 15:30:44.594496 31983 layer_factory.hpp:77] Creating layer inception_4c/relu_5x5
I0403 15:30:44.594517 31983 net.cpp:91] Creating Layer inception_4c/relu_5x5
I0403 15:30:44.594535 31983 net.cpp:425] inception_4c/relu_5x5 <- inception_4c/5x5
I0403 15:30:44.594554 31983 net.cpp:386] inception_4c/relu_5x5 -> inception_4c/5x5 (in-place)
I0403 15:30:44.594869 31983 net.cpp:141] Setting up inception_4c/relu_5x5
I0403 15:30:44.594907 31983 net.cpp:148] Top shape: 24 64 14 14 (301056)
I0403 15:30:44.594928 31983 net.cpp:156] Memory required for data: 1050971424
I0403 15:30:44.594949 31983 layer_factory.hpp:77] Creating layer inception_4c/pool
I0403 15:30:44.594974 31983 net.cpp:91] Creating Layer inception_4c/pool
I0403 15:30:44.594998 31983 net.cpp:425] inception_4c/pool <- inception_4b/output_inception_4b/output_0_split_3
I0403 15:30:44.595023 31983 net.cpp:399] inception_4c/pool -> inception_4c/pool
I0403 15:30:44.595101 31983 net.cpp:141] Setting up inception_4c/pool
I0403 15:30:44.595135 31983 net.cpp:148] Top shape: 24 512 14 14 (2408448)
I0403 15:30:44.595162 31983 net.cpp:156] Memory required for data: 1060605216
I0403 15:30:44.595186 31983 layer_factory.hpp:77] Creating layer inception_4c/pool_proj
I0403 15:30:44.595212 31983 net.cpp:91] Creating Layer inception_4c/pool_proj
I0403 15:30:44.595239 31983 net.cpp:425] inception_4c/pool_proj <- inception_4c/pool
I0403 15:30:44.595275 31983 net.cpp:399] inception_4c/pool_proj -> inception_4c/pool_proj
I0403 15:30:44.596554 31983 net.cpp:141] Setting up inception_4c/pool_proj
I0403 15:30:44.596583 31983 net.cpp:148] Top shape: 24 64 14 14 (301056)
I0403 15:30:44.596616 31983 net.cpp:156] Memory required for data: 1061809440
I0403 15:30:44.596637 31983 layer_factory.hpp:77] Creating layer inception_4c/relu_pool_proj
I0403 15:30:44.596660 31983 net.cpp:91] Creating Layer inception_4c/relu_pool_proj
I0403 15:30:44.596681 31983 net.cpp:425] inception_4c/relu_pool_proj <- inception_4c/pool_proj
I0403 15:30:44.596701 31983 net.cpp:386] inception_4c/relu_pool_proj -> inception_4c/pool_proj (in-place)
I0403 15:30:44.596891 31983 net.cpp:141] Setting up inception_4c/relu_pool_proj
I0403 15:30:44.596917 31983 net.cpp:148] Top shape: 24 64 14 14 (301056)
I0403 15:30:44.596937 31983 net.cpp:156] Memory required for data: 1063013664
I0403 15:30:44.596953 31983 layer_factory.hpp:77] Creating layer inception_4c/output
I0403 15:30:44.596972 31983 net.cpp:91] Creating Layer inception_4c/output
I0403 15:30:44.596989 31983 net.cpp:425] inception_4c/output <- inception_4c/1x1
I0403 15:30:44.597007 31983 net.cpp:425] inception_4c/output <- inception_4c/3x3
I0403 15:30:44.597024 31983 net.cpp:425] inception_4c/output <- inception_4c/5x5
I0403 15:30:44.597040 31983 net.cpp:425] inception_4c/output <- inception_4c/pool_proj
I0403 15:30:44.597059 31983 net.cpp:399] inception_4c/output -> inception_4c/output
I0403 15:30:44.597110 31983 net.cpp:141] Setting up inception_4c/output
I0403 15:30:44.597134 31983 net.cpp:148] Top shape: 24 512 14 14 (2408448)
I0403 15:30:44.597151 31983 net.cpp:156] Memory required for data: 1072647456
I0403 15:30:44.597165 31983 layer_factory.hpp:77] Creating layer inception_4c/output_inception_4c/output_0_split
I0403 15:30:44.597183 31983 net.cpp:91] Creating Layer inception_4c/output_inception_4c/output_0_split
I0403 15:30:44.597200 31983 net.cpp:425] inception_4c/output_inception_4c/output_0_split <- inception_4c/output
I0403 15:30:44.597221 31983 net.cpp:399] inception_4c/output_inception_4c/output_0_split -> inception_4c/output_inception_4c/output_0_split_0
I0403 15:30:44.597244 31983 net.cpp:399] inception_4c/output_inception_4c/output_0_split -> inception_4c/output_inception_4c/output_0_split_1
I0403 15:30:44.597273 31983 net.cpp:399] inception_4c/output_inception_4c/output_0_split -> inception_4c/output_inception_4c/output_0_split_2
I0403 15:30:44.597296 31983 net.cpp:399] inception_4c/output_inception_4c/output_0_split -> inception_4c/output_inception_4c/output_0_split_3
I0403 15:30:44.597385 31983 net.cpp:141] Setting up inception_4c/output_inception_4c/output_0_split
I0403 15:30:44.597410 31983 net.cpp:148] Top shape: 24 512 14 14 (2408448)
I0403 15:30:44.597427 31983 net.cpp:148] Top shape: 24 512 14 14 (2408448)
I0403 15:30:44.597445 31983 net.cpp:148] Top shape: 24 512 14 14 (2408448)
I0403 15:30:44.597462 31983 net.cpp:148] Top shape: 24 512 14 14 (2408448)
I0403 15:30:44.597476 31983 net.cpp:156] Memory required for data: 1111182624
I0403 15:30:44.597492 31983 layer_factory.hpp:77] Creating layer inception_4d/1x1
I0403 15:30:44.597517 31983 net.cpp:91] Creating Layer inception_4d/1x1
I0403 15:30:44.597537 31983 net.cpp:425] inception_4d/1x1 <- inception_4c/output_inception_4c/output_0_split_0
I0403 15:30:44.597558 31983 net.cpp:399] inception_4d/1x1 -> inception_4d/1x1
I0403 15:30:44.598983 31983 net.cpp:141] Setting up inception_4d/1x1
I0403 15:30:44.599012 31983 net.cpp:148] Top shape: 24 112 14 14 (526848)
I0403 15:30:44.599035 31983 net.cpp:156] Memory required for data: 1113290016
I0403 15:30:44.599056 31983 layer_factory.hpp:77] Creating layer inception_4d/relu_1x1
I0403 15:30:44.599074 31983 net.cpp:91] Creating Layer inception_4d/relu_1x1
I0403 15:30:44.599094 31983 net.cpp:425] inception_4d/relu_1x1 <- inception_4d/1x1
I0403 15:30:44.599123 31983 net.cpp:386] inception_4d/relu_1x1 -> inception_4d/1x1 (in-place)
I0403 15:30:44.599321 31983 net.cpp:141] Setting up inception_4d/relu_1x1
I0403 15:30:44.599349 31983 net.cpp:148] Top shape: 24 112 14 14 (526848)
I0403 15:30:44.599364 31983 net.cpp:156] Memory required for data: 1115397408
I0403 15:30:44.599381 31983 layer_factory.hpp:77] Creating layer inception_4d/3x3_reduce
I0403 15:30:44.599419 31983 net.cpp:91] Creating Layer inception_4d/3x3_reduce
I0403 15:30:44.599445 31983 net.cpp:425] inception_4d/3x3_reduce <- inception_4c/output_inception_4c/output_0_split_1
I0403 15:30:44.599468 31983 net.cpp:399] inception_4d/3x3_reduce -> inception_4d/3x3_reduce
I0403 15:30:44.601039 31983 net.cpp:141] Setting up inception_4d/3x3_reduce
I0403 15:30:44.601068 31983 net.cpp:148] Top shape: 24 144 14 14 (677376)
I0403 15:30:44.601085 31983 net.cpp:156] Memory required for data: 1118106912
I0403 15:30:44.601112 31983 layer_factory.hpp:77] Creating layer inception_4d/relu_3x3_reduce
I0403 15:30:44.601137 31983 net.cpp:91] Creating Layer inception_4d/relu_3x3_reduce
I0403 15:30:44.601156 31983 net.cpp:425] inception_4d/relu_3x3_reduce <- inception_4d/3x3_reduce
I0403 15:30:44.601174 31983 net.cpp:386] inception_4d/relu_3x3_reduce -> inception_4d/3x3_reduce (in-place)
I0403 15:30:44.601475 31983 net.cpp:141] Setting up inception_4d/relu_3x3_reduce
I0403 15:30:44.601501 31983 net.cpp:148] Top shape: 24 144 14 14 (677376)
I0403 15:30:44.601517 31983 net.cpp:156] Memory required for data: 1120816416
I0403 15:30:44.601533 31983 layer_factory.hpp:77] Creating layer inception_4d/3x3
I0403 15:30:44.601558 31983 net.cpp:91] Creating Layer inception_4d/3x3
I0403 15:30:44.601579 31983 net.cpp:425] inception_4d/3x3 <- inception_4d/3x3_reduce
I0403 15:30:44.601598 31983 net.cpp:399] inception_4d/3x3 -> inception_4d/3x3
I0403 15:30:44.606109 31983 net.cpp:141] Setting up inception_4d/3x3
I0403 15:30:44.606148 31983 net.cpp:148] Top shape: 24 288 14 14 (1354752)
I0403 15:30:44.606173 31983 net.cpp:156] Memory required for data: 1126235424
I0403 15:30:44.606196 31983 layer_factory.hpp:77] Creating layer inception_4d/relu_3x3
I0403 15:30:44.606230 31983 net.cpp:91] Creating Layer inception_4d/relu_3x3
I0403 15:30:44.606248 31983 net.cpp:425] inception_4d/relu_3x3 <- inception_4d/3x3
I0403 15:30:44.606276 31983 net.cpp:386] inception_4d/relu_3x3 -> inception_4d/3x3 (in-place)
I0403 15:30:44.606478 31983 net.cpp:141] Setting up inception_4d/relu_3x3
I0403 15:30:44.606526 31983 net.cpp:148] Top shape: 24 288 14 14 (1354752)
I0403 15:30:44.606569 31983 net.cpp:156] Memory required for data: 1131654432
I0403 15:30:44.606598 31983 layer_factory.hpp:77] Creating layer inception_4d/5x5_reduce
I0403 15:30:44.606631 31983 net.cpp:91] Creating Layer inception_4d/5x5_reduce
I0403 15:30:44.606662 31983 net.cpp:425] inception_4d/5x5_reduce <- inception_4c/output_inception_4c/output_0_split_2
I0403 15:30:44.606701 31983 net.cpp:399] inception_4d/5x5_reduce -> inception_4d/5x5_reduce
I0403 15:30:44.607892 31983 net.cpp:141] Setting up inception_4d/5x5_reduce
I0403 15:30:44.607920 31983 net.cpp:148] Top shape: 24 32 14 14 (150528)
I0403 15:30:44.607936 31983 net.cpp:156] Memory required for data: 1132256544
I0403 15:30:44.607955 31983 layer_factory.hpp:77] Creating layer inception_4d/relu_5x5_reduce
I0403 15:30:44.607975 31983 net.cpp:91] Creating Layer inception_4d/relu_5x5_reduce
I0403 15:30:44.607990 31983 net.cpp:425] inception_4d/relu_5x5_reduce <- inception_4d/5x5_reduce
I0403 15:30:44.608011 31983 net.cpp:386] inception_4d/relu_5x5_reduce -> inception_4d/5x5_reduce (in-place)
I0403 15:30:44.608199 31983 net.cpp:141] Setting up inception_4d/relu_5x5_reduce
I0403 15:30:44.608225 31983 net.cpp:148] Top shape: 24 32 14 14 (150528)
I0403 15:30:44.608242 31983 net.cpp:156] Memory required for data: 1132858656
I0403 15:30:44.608263 31983 layer_factory.hpp:77] Creating layer inception_4d/5x5
I0403 15:30:44.608288 31983 net.cpp:91] Creating Layer inception_4d/5x5
I0403 15:30:44.608306 31983 net.cpp:425] inception_4d/5x5 <- inception_4d/5x5_reduce
I0403 15:30:44.608332 31983 net.cpp:399] inception_4d/5x5 -> inception_4d/5x5
I0403 15:30:44.609822 31983 net.cpp:141] Setting up inception_4d/5x5
I0403 15:30:44.609851 31983 net.cpp:148] Top shape: 24 64 14 14 (301056)
I0403 15:30:44.609869 31983 net.cpp:156] Memory required for data: 1134062880
I0403 15:30:44.609889 31983 layer_factory.hpp:77] Creating layer inception_4d/relu_5x5
I0403 15:30:44.609925 31983 net.cpp:91] Creating Layer inception_4d/relu_5x5
I0403 15:30:44.609943 31983 net.cpp:425] inception_4d/relu_5x5 <- inception_4d/5x5
I0403 15:30:44.609962 31983 net.cpp:386] inception_4d/relu_5x5 -> inception_4d/5x5 (in-place)
I0403 15:30:44.610275 31983 net.cpp:141] Setting up inception_4d/relu_5x5
I0403 15:30:44.610301 31983 net.cpp:148] Top shape: 24 64 14 14 (301056)
I0403 15:30:44.610317 31983 net.cpp:156] Memory required for data: 1135267104
I0403 15:30:44.610332 31983 layer_factory.hpp:77] Creating layer inception_4d/pool
I0403 15:30:44.610353 31983 net.cpp:91] Creating Layer inception_4d/pool
I0403 15:30:44.610371 31983 net.cpp:425] inception_4d/pool <- inception_4c/output_inception_4c/output_0_split_3
I0403 15:30:44.610391 31983 net.cpp:399] inception_4d/pool -> inception_4d/pool
I0403 15:30:44.610460 31983 net.cpp:141] Setting up inception_4d/pool
I0403 15:30:44.610484 31983 net.cpp:148] Top shape: 24 512 14 14 (2408448)
I0403 15:30:44.610499 31983 net.cpp:156] Memory required for data: 1144900896
I0403 15:30:44.610515 31983 layer_factory.hpp:77] Creating layer inception_4d/pool_proj
I0403 15:30:44.610538 31983 net.cpp:91] Creating Layer inception_4d/pool_proj
I0403 15:30:44.610556 31983 net.cpp:425] inception_4d/pool_proj <- inception_4d/pool
I0403 15:30:44.610580 31983 net.cpp:399] inception_4d/pool_proj -> inception_4d/pool_proj
I0403 15:30:44.612349 31983 net.cpp:141] Setting up inception_4d/pool_proj
I0403 15:30:44.612381 31983 net.cpp:148] Top shape: 24 64 14 14 (301056)
I0403 15:30:44.612399 31983 net.cpp:156] Memory required for data: 1146105120
I0403 15:30:44.612418 31983 layer_factory.hpp:77] Creating layer inception_4d/relu_pool_proj
I0403 15:30:44.612437 31983 net.cpp:91] Creating Layer inception_4d/relu_pool_proj
I0403 15:30:44.612455 31983 net.cpp:425] inception_4d/relu_pool_proj <- inception_4d/pool_proj
I0403 15:30:44.612476 31983 net.cpp:386] inception_4d/relu_pool_proj -> inception_4d/pool_proj (in-place)
I0403 15:30:44.612666 31983 net.cpp:141] Setting up inception_4d/relu_pool_proj
I0403 15:30:44.612692 31983 net.cpp:148] Top shape: 24 64 14 14 (301056)
I0403 15:30:44.612707 31983 net.cpp:156] Memory required for data: 1147309344
I0403 15:30:44.612723 31983 layer_factory.hpp:77] Creating layer inception_4d/output
I0403 15:30:44.612740 31983 net.cpp:91] Creating Layer inception_4d/output
I0403 15:30:44.612757 31983 net.cpp:425] inception_4d/output <- inception_4d/1x1
I0403 15:30:44.612774 31983 net.cpp:425] inception_4d/output <- inception_4d/3x3
I0403 15:30:44.612790 31983 net.cpp:425] inception_4d/output <- inception_4d/5x5
I0403 15:30:44.612807 31983 net.cpp:425] inception_4d/output <- inception_4d/pool_proj
I0403 15:30:44.612828 31983 net.cpp:399] inception_4d/output -> inception_4d/output
I0403 15:30:44.612879 31983 net.cpp:141] Setting up inception_4d/output
I0403 15:30:44.612902 31983 net.cpp:148] Top shape: 24 528 14 14 (2483712)
I0403 15:30:44.612917 31983 net.cpp:156] Memory required for data: 1157244192
I0403 15:30:44.612933 31983 layer_factory.hpp:77] Creating layer inception_4d/output_inception_4d/output_0_split
I0403 15:30:44.612952 31983 net.cpp:91] Creating Layer inception_4d/output_inception_4d/output_0_split
I0403 15:30:44.612968 31983 net.cpp:425] inception_4d/output_inception_4d/output_0_split <- inception_4d/output
I0403 15:30:44.612992 31983 net.cpp:399] inception_4d/output_inception_4d/output_0_split -> inception_4d/output_inception_4d/output_0_split_0
I0403 15:30:44.613014 31983 net.cpp:399] inception_4d/output_inception_4d/output_0_split -> inception_4d/output_inception_4d/output_0_split_1
I0403 15:30:44.613036 31983 net.cpp:399] inception_4d/output_inception_4d/output_0_split -> inception_4d/output_inception_4d/output_0_split_2
I0403 15:30:44.613057 31983 net.cpp:399] inception_4d/output_inception_4d/output_0_split -> inception_4d/output_inception_4d/output_0_split_3
I0403 15:30:44.613077 31983 net.cpp:399] inception_4d/output_inception_4d/output_0_split -> inception_4d/output_inception_4d/output_0_split_4
I0403 15:30:44.613193 31983 net.cpp:141] Setting up inception_4d/output_inception_4d/output_0_split
I0403 15:30:44.613234 31983 net.cpp:148] Top shape: 24 528 14 14 (2483712)
I0403 15:30:44.613256 31983 net.cpp:148] Top shape: 24 528 14 14 (2483712)
I0403 15:30:44.613276 31983 net.cpp:148] Top shape: 24 528 14 14 (2483712)
I0403 15:30:44.613292 31983 net.cpp:148] Top shape: 24 528 14 14 (2483712)
I0403 15:30:44.613309 31983 net.cpp:148] Top shape: 24 528 14 14 (2483712)
I0403 15:30:44.613325 31983 net.cpp:156] Memory required for data: 1206918432
I0403 15:30:44.613342 31983 layer_factory.hpp:77] Creating layer loss2/ave_pool
I0403 15:30:44.613360 31983 net.cpp:91] Creating Layer loss2/ave_pool
I0403 15:30:44.613378 31983 net.cpp:425] loss2/ave_pool <- inception_4d/output_inception_4d/output_0_split_0
I0403 15:30:44.613411 31983 net.cpp:399] loss2/ave_pool -> loss2/ave_pool
I0403 15:30:44.613729 31983 net.cpp:141] Setting up loss2/ave_pool
I0403 15:30:44.613756 31983 net.cpp:148] Top shape: 24 528 4 4 (202752)
I0403 15:30:44.613772 31983 net.cpp:156] Memory required for data: 1207729440
I0403 15:30:44.613788 31983 layer_factory.hpp:77] Creating layer loss2/conv
I0403 15:30:44.613811 31983 net.cpp:91] Creating Layer loss2/conv
I0403 15:30:44.613829 31983 net.cpp:425] loss2/conv <- loss2/ave_pool
I0403 15:30:44.613850 31983 net.cpp:399] loss2/conv -> loss2/conv
I0403 15:30:44.615902 31983 net.cpp:141] Setting up loss2/conv
I0403 15:30:44.615933 31983 net.cpp:148] Top shape: 24 128 4 4 (49152)
I0403 15:30:44.615949 31983 net.cpp:156] Memory required for data: 1207926048
I0403 15:30:44.615969 31983 layer_factory.hpp:77] Creating layer loss2/relu_conv
I0403 15:30:44.615991 31983 net.cpp:91] Creating Layer loss2/relu_conv
I0403 15:30:44.616009 31983 net.cpp:425] loss2/relu_conv <- loss2/conv
I0403 15:30:44.616029 31983 net.cpp:386] loss2/relu_conv -> loss2/conv (in-place)
I0403 15:30:44.616329 31983 net.cpp:141] Setting up loss2/relu_conv
I0403 15:30:44.616358 31983 net.cpp:148] Top shape: 24 128 4 4 (49152)
I0403 15:30:44.616375 31983 net.cpp:156] Memory required for data: 1208122656
I0403 15:30:44.616392 31983 layer_factory.hpp:77] Creating layer loss2/fc
I0403 15:30:44.616415 31983 net.cpp:91] Creating Layer loss2/fc
I0403 15:30:44.616433 31983 net.cpp:425] loss2/fc <- loss2/conv
I0403 15:30:44.616456 31983 net.cpp:399] loss2/fc -> loss2/fc
I0403 15:30:44.634729 31983 net.cpp:141] Setting up loss2/fc
I0403 15:30:44.634765 31983 net.cpp:148] Top shape: 24 1024 (24576)
I0403 15:30:44.634781 31983 net.cpp:156] Memory required for data: 1208220960
I0403 15:30:44.634809 31983 layer_factory.hpp:77] Creating layer loss2/relu_fc
I0403 15:30:44.634842 31983 net.cpp:91] Creating Layer loss2/relu_fc
I0403 15:30:44.634860 31983 net.cpp:425] loss2/relu_fc <- loss2/fc
I0403 15:30:44.634881 31983 net.cpp:386] loss2/relu_fc -> loss2/fc (in-place)
I0403 15:30:44.635185 31983 net.cpp:141] Setting up loss2/relu_fc
I0403 15:30:44.635212 31983 net.cpp:148] Top shape: 24 1024 (24576)
I0403 15:30:44.635227 31983 net.cpp:156] Memory required for data: 1208319264
I0403 15:30:44.635243 31983 layer_factory.hpp:77] Creating layer loss2/drop_fc
I0403 15:30:44.635268 31983 net.cpp:91] Creating Layer loss2/drop_fc
I0403 15:30:44.635287 31983 net.cpp:425] loss2/drop_fc <- loss2/fc
I0403 15:30:44.635308 31983 net.cpp:386] loss2/drop_fc -> loss2/fc (in-place)
I0403 15:30:44.635357 31983 net.cpp:141] Setting up loss2/drop_fc
I0403 15:30:44.635385 31983 net.cpp:148] Top shape: 24 1024 (24576)
I0403 15:30:44.635401 31983 net.cpp:156] Memory required for data: 1208417568
I0403 15:30:44.635416 31983 layer_factory.hpp:77] Creating layer loss2/classifier_plantvillage
I0403 15:30:44.635435 31983 net.cpp:91] Creating Layer loss2/classifier_plantvillage
I0403 15:30:44.635452 31983 net.cpp:425] loss2/classifier_plantvillage <- loss2/fc
I0403 15:30:44.635475 31983 net.cpp:399] loss2/classifier_plantvillage -> loss2/classifier_plantvillage
I0403 15:30:44.635882 31983 net.cpp:141] Setting up loss2/classifier_plantvillage
I0403 15:30:44.635908 31983 net.cpp:148] Top shape: 24 38 (912)
I0403 15:30:44.635924 31983 net.cpp:156] Memory required for data: 1208421216
I0403 15:30:44.635962 31983 layer_factory.hpp:77] Creating layer loss2/classifier_plantvillage_loss2/classifier_plantvillage_0_split
I0403 15:30:44.635984 31983 net.cpp:91] Creating Layer loss2/classifier_plantvillage_loss2/classifier_plantvillage_0_split
I0403 15:30:44.636003 31983 net.cpp:425] loss2/classifier_plantvillage_loss2/classifier_plantvillage_0_split <- loss2/classifier_plantvillage
I0403 15:30:44.636023 31983 net.cpp:399] loss2/classifier_plantvillage_loss2/classifier_plantvillage_0_split -> loss2/classifier_plantvillage_loss2/classifier_plantvillage_0_split_0
I0403 15:30:44.636042 31983 net.cpp:399] loss2/classifier_plantvillage_loss2/classifier_plantvillage_0_split -> loss2/classifier_plantvillage_loss2/classifier_plantvillage_0_split_1
I0403 15:30:44.636066 31983 net.cpp:399] loss2/classifier_plantvillage_loss2/classifier_plantvillage_0_split -> loss2/classifier_plantvillage_loss2/classifier_plantvillage_0_split_2
I0403 15:30:44.636143 31983 net.cpp:141] Setting up loss2/classifier_plantvillage_loss2/classifier_plantvillage_0_split
I0403 15:30:44.636168 31983 net.cpp:148] Top shape: 24 38 (912)
I0403 15:30:44.636185 31983 net.cpp:148] Top shape: 24 38 (912)
I0403 15:30:44.636201 31983 net.cpp:148] Top shape: 24 38 (912)
I0403 15:30:44.636216 31983 net.cpp:156] Memory required for data: 1208432160
I0403 15:30:44.636231 31983 layer_factory.hpp:77] Creating layer inception_4e/1x1
I0403 15:30:44.636258 31983 net.cpp:91] Creating Layer inception_4e/1x1
I0403 15:30:44.636278 31983 net.cpp:425] inception_4e/1x1 <- inception_4d/output_inception_4d/output_0_split_1
I0403 15:30:44.636299 31983 net.cpp:399] inception_4e/1x1 -> inception_4e/1x1
I0403 15:30:44.638128 31983 net.cpp:141] Setting up inception_4e/1x1
I0403 15:30:44.638156 31983 net.cpp:148] Top shape: 24 256 14 14 (1204224)
I0403 15:30:44.638172 31983 net.cpp:156] Memory required for data: 1213249056
I0403 15:30:44.638191 31983 layer_factory.hpp:77] Creating layer inception_4e/relu_1x1
I0403 15:30:44.638285 31983 net.cpp:91] Creating Layer inception_4e/relu_1x1
I0403 15:30:44.638306 31983 net.cpp:425] inception_4e/relu_1x1 <- inception_4e/1x1
I0403 15:30:44.638324 31983 net.cpp:386] inception_4e/relu_1x1 -> inception_4e/1x1 (in-place)
I0403 15:30:44.638625 31983 net.cpp:141] Setting up inception_4e/relu_1x1
I0403 15:30:44.638653 31983 net.cpp:148] Top shape: 24 256 14 14 (1204224)
I0403 15:30:44.638669 31983 net.cpp:156] Memory required for data: 1218065952
I0403 15:30:44.638684 31983 layer_factory.hpp:77] Creating layer inception_4e/3x3_reduce
I0403 15:30:44.638707 31983 net.cpp:91] Creating Layer inception_4e/3x3_reduce
I0403 15:30:44.638726 31983 net.cpp:425] inception_4e/3x3_reduce <- inception_4d/output_inception_4d/output_0_split_2
I0403 15:30:44.638749 31983 net.cpp:399] inception_4e/3x3_reduce -> inception_4e/3x3_reduce
I0403 15:30:44.640882 31983 net.cpp:141] Setting up inception_4e/3x3_reduce
I0403 15:30:44.640910 31983 net.cpp:148] Top shape: 24 160 14 14 (752640)
I0403 15:30:44.640928 31983 net.cpp:156] Memory required for data: 1221076512
I0403 15:30:44.640945 31983 layer_factory.hpp:77] Creating layer inception_4e/relu_3x3_reduce
I0403 15:30:44.640971 31983 net.cpp:91] Creating Layer inception_4e/relu_3x3_reduce
I0403 15:30:44.640990 31983 net.cpp:425] inception_4e/relu_3x3_reduce <- inception_4e/3x3_reduce
I0403 15:30:44.641008 31983 net.cpp:386] inception_4e/relu_3x3_reduce -> inception_4e/3x3_reduce (in-place)
I0403 15:30:44.641194 31983 net.cpp:141] Setting up inception_4e/relu_3x3_reduce
I0403 15:30:44.641222 31983 net.cpp:148] Top shape: 24 160 14 14 (752640)
I0403 15:30:44.641239 31983 net.cpp:156] Memory required for data: 1224087072
I0403 15:30:44.641258 31983 layer_factory.hpp:77] Creating layer inception_4e/3x3
I0403 15:30:44.641283 31983 net.cpp:91] Creating Layer inception_4e/3x3
I0403 15:30:44.641302 31983 net.cpp:425] inception_4e/3x3 <- inception_4e/3x3_reduce
I0403 15:30:44.641322 31983 net.cpp:399] inception_4e/3x3 -> inception_4e/3x3
I0403 15:30:44.646353 31983 net.cpp:141] Setting up inception_4e/3x3
I0403 15:30:44.646400 31983 net.cpp:148] Top shape: 24 320 14 14 (1505280)
I0403 15:30:44.646419 31983 net.cpp:156] Memory required for data: 1230108192
I0403 15:30:44.646438 31983 layer_factory.hpp:77] Creating layer inception_4e/relu_3x3
I0403 15:30:44.646456 31983 net.cpp:91] Creating Layer inception_4e/relu_3x3
I0403 15:30:44.646474 31983 net.cpp:425] inception_4e/relu_3x3 <- inception_4e/3x3
I0403 15:30:44.646492 31983 net.cpp:386] inception_4e/relu_3x3 -> inception_4e/3x3 (in-place)
I0403 15:30:44.646795 31983 net.cpp:141] Setting up inception_4e/relu_3x3
I0403 15:30:44.646822 31983 net.cpp:148] Top shape: 24 320 14 14 (1505280)
I0403 15:30:44.646838 31983 net.cpp:156] Memory required for data: 1236129312
I0403 15:30:44.646854 31983 layer_factory.hpp:77] Creating layer inception_4e/5x5_reduce
I0403 15:30:44.646878 31983 net.cpp:91] Creating Layer inception_4e/5x5_reduce
I0403 15:30:44.646896 31983 net.cpp:425] inception_4e/5x5_reduce <- inception_4d/output_inception_4d/output_0_split_3
I0403 15:30:44.646919 31983 net.cpp:399] inception_4e/5x5_reduce -> inception_4e/5x5_reduce
I0403 15:30:44.647990 31983 net.cpp:141] Setting up inception_4e/5x5_reduce
I0403 15:30:44.648020 31983 net.cpp:148] Top shape: 24 32 14 14 (150528)
I0403 15:30:44.648036 31983 net.cpp:156] Memory required for data: 1236731424
I0403 15:30:44.648056 31983 layer_factory.hpp:77] Creating layer inception_4e/relu_5x5_reduce
I0403 15:30:44.648077 31983 net.cpp:91] Creating Layer inception_4e/relu_5x5_reduce
I0403 15:30:44.648094 31983 net.cpp:425] inception_4e/relu_5x5_reduce <- inception_4e/5x5_reduce
I0403 15:30:44.648113 31983 net.cpp:386] inception_4e/relu_5x5_reduce -> inception_4e/5x5_reduce (in-place)
I0403 15:30:44.648419 31983 net.cpp:141] Setting up inception_4e/relu_5x5_reduce
I0403 15:30:44.648447 31983 net.cpp:148] Top shape: 24 32 14 14 (150528)
I0403 15:30:44.648463 31983 net.cpp:156] Memory required for data: 1237333536
I0403 15:30:44.648478 31983 layer_factory.hpp:77] Creating layer inception_4e/5x5
I0403 15:30:44.648519 31983 net.cpp:91] Creating Layer inception_4e/5x5
I0403 15:30:44.648538 31983 net.cpp:425] inception_4e/5x5 <- inception_4e/5x5_reduce
I0403 15:30:44.648558 31983 net.cpp:399] inception_4e/5x5 -> inception_4e/5x5
I0403 15:30:44.650401 31983 net.cpp:141] Setting up inception_4e/5x5
I0403 15:30:44.650436 31983 net.cpp:148] Top shape: 24 128 14 14 (602112)
I0403 15:30:44.650459 31983 net.cpp:156] Memory required for data: 1239741984
I0403 15:30:44.650488 31983 layer_factory.hpp:77] Creating layer inception_4e/relu_5x5
I0403 15:30:44.650518 31983 net.cpp:91] Creating Layer inception_4e/relu_5x5
I0403 15:30:44.650540 31983 net.cpp:425] inception_4e/relu_5x5 <- inception_4e/5x5
I0403 15:30:44.650565 31983 net.cpp:386] inception_4e/relu_5x5 -> inception_4e/5x5 (in-place)
I0403 15:30:44.650770 31983 net.cpp:141] Setting up inception_4e/relu_5x5
I0403 15:30:44.650796 31983 net.cpp:148] Top shape: 24 128 14 14 (602112)
I0403 15:30:44.650825 31983 net.cpp:156] Memory required for data: 1242150432
I0403 15:30:44.650840 31983 layer_factory.hpp:77] Creating layer inception_4e/pool
I0403 15:30:44.650861 31983 net.cpp:91] Creating Layer inception_4e/pool
I0403 15:30:44.650879 31983 net.cpp:425] inception_4e/pool <- inception_4d/output_inception_4d/output_0_split_4
I0403 15:30:44.650900 31983 net.cpp:399] inception_4e/pool -> inception_4e/pool
I0403 15:30:44.650972 31983 net.cpp:141] Setting up inception_4e/pool
I0403 15:30:44.650998 31983 net.cpp:148] Top shape: 24 528 14 14 (2483712)
I0403 15:30:44.651015 31983 net.cpp:156] Memory required for data: 1252085280
I0403 15:30:44.651031 31983 layer_factory.hpp:77] Creating layer inception_4e/pool_proj
I0403 15:30:44.651056 31983 net.cpp:91] Creating Layer inception_4e/pool_proj
I0403 15:30:44.651073 31983 net.cpp:425] inception_4e/pool_proj <- inception_4e/pool
I0403 15:30:44.651095 31983 net.cpp:399] inception_4e/pool_proj -> inception_4e/pool_proj
I0403 15:30:44.652655 31983 net.cpp:141] Setting up inception_4e/pool_proj
I0403 15:30:44.652685 31983 net.cpp:148] Top shape: 24 128 14 14 (602112)
I0403 15:30:44.652716 31983 net.cpp:156] Memory required for data: 1254493728
I0403 15:30:44.652737 31983 layer_factory.hpp:77] Creating layer inception_4e/relu_pool_proj
I0403 15:30:44.652757 31983 net.cpp:91] Creating Layer inception_4e/relu_pool_proj
I0403 15:30:44.652776 31983 net.cpp:425] inception_4e/relu_pool_proj <- inception_4e/pool_proj
I0403 15:30:44.652796 31983 net.cpp:386] inception_4e/relu_pool_proj -> inception_4e/pool_proj (in-place)
I0403 15:30:44.653103 31983 net.cpp:141] Setting up inception_4e/relu_pool_proj
I0403 15:30:44.653131 31983 net.cpp:148] Top shape: 24 128 14 14 (602112)
I0403 15:30:44.653147 31983 net.cpp:156] Memory required for data: 1256902176
I0403 15:30:44.653164 31983 layer_factory.hpp:77] Creating layer inception_4e/output
I0403 15:30:44.653183 31983 net.cpp:91] Creating Layer inception_4e/output
I0403 15:30:44.653199 31983 net.cpp:425] inception_4e/output <- inception_4e/1x1
I0403 15:30:44.653216 31983 net.cpp:425] inception_4e/output <- inception_4e/3x3
I0403 15:30:44.653234 31983 net.cpp:425] inception_4e/output <- inception_4e/5x5
I0403 15:30:44.653255 31983 net.cpp:425] inception_4e/output <- inception_4e/pool_proj
I0403 15:30:44.653278 31983 net.cpp:399] inception_4e/output -> inception_4e/output
I0403 15:30:44.653331 31983 net.cpp:141] Setting up inception_4e/output
I0403 15:30:44.653358 31983 net.cpp:148] Top shape: 24 832 14 14 (3913728)
I0403 15:30:44.653376 31983 net.cpp:156] Memory required for data: 1272557088
I0403 15:30:44.653393 31983 layer_factory.hpp:77] Creating layer pool4/3x3_s2
I0403 15:30:44.653411 31983 net.cpp:91] Creating Layer pool4/3x3_s2
I0403 15:30:44.653427 31983 net.cpp:425] pool4/3x3_s2 <- inception_4e/output
I0403 15:30:44.653452 31983 net.cpp:399] pool4/3x3_s2 -> pool4/3x3_s2
I0403 15:30:44.653522 31983 net.cpp:141] Setting up pool4/3x3_s2
I0403 15:30:44.653548 31983 net.cpp:148] Top shape: 24 832 7 7 (978432)
I0403 15:30:44.653563 31983 net.cpp:156] Memory required for data: 1276470816
I0403 15:30:44.653579 31983 layer_factory.hpp:77] Creating layer pool4/3x3_s2_pool4/3x3_s2_0_split
I0403 15:30:44.653599 31983 net.cpp:91] Creating Layer pool4/3x3_s2_pool4/3x3_s2_0_split
I0403 15:30:44.653619 31983 net.cpp:425] pool4/3x3_s2_pool4/3x3_s2_0_split <- pool4/3x3_s2
I0403 15:30:44.653637 31983 net.cpp:399] pool4/3x3_s2_pool4/3x3_s2_0_split -> pool4/3x3_s2_pool4/3x3_s2_0_split_0
I0403 15:30:44.653659 31983 net.cpp:399] pool4/3x3_s2_pool4/3x3_s2_0_split -> pool4/3x3_s2_pool4/3x3_s2_0_split_1
I0403 15:30:44.653681 31983 net.cpp:399] pool4/3x3_s2_pool4/3x3_s2_0_split -> pool4/3x3_s2_pool4/3x3_s2_0_split_2
I0403 15:30:44.653703 31983 net.cpp:399] pool4/3x3_s2_pool4/3x3_s2_0_split -> pool4/3x3_s2_pool4/3x3_s2_0_split_3
I0403 15:30:44.653800 31983 net.cpp:141] Setting up pool4/3x3_s2_pool4/3x3_s2_0_split
I0403 15:30:44.653826 31983 net.cpp:148] Top shape: 24 832 7 7 (978432)
I0403 15:30:44.653844 31983 net.cpp:148] Top shape: 24 832 7 7 (978432)
I0403 15:30:44.653861 31983 net.cpp:148] Top shape: 24 832 7 7 (978432)
I0403 15:30:44.653877 31983 net.cpp:148] Top shape: 24 832 7 7 (978432)
I0403 15:30:44.653892 31983 net.cpp:156] Memory required for data: 1292125728
I0403 15:30:44.653908 31983 layer_factory.hpp:77] Creating layer inception_5a/1x1
I0403 15:30:44.653934 31983 net.cpp:91] Creating Layer inception_5a/1x1
I0403 15:30:44.653952 31983 net.cpp:425] inception_5a/1x1 <- pool4/3x3_s2_pool4/3x3_s2_0_split_0
I0403 15:30:44.653975 31983 net.cpp:399] inception_5a/1x1 -> inception_5a/1x1
I0403 15:30:44.656939 31983 net.cpp:141] Setting up inception_5a/1x1
I0403 15:30:44.656970 31983 net.cpp:148] Top shape: 24 256 7 7 (301056)
I0403 15:30:44.656987 31983 net.cpp:156] Memory required for data: 1293329952
I0403 15:30:44.657006 31983 layer_factory.hpp:77] Creating layer inception_5a/relu_1x1
I0403 15:30:44.657027 31983 net.cpp:91] Creating Layer inception_5a/relu_1x1
I0403 15:30:44.657045 31983 net.cpp:425] inception_5a/relu_1x1 <- inception_5a/1x1
I0403 15:30:44.657065 31983 net.cpp:386] inception_5a/relu_1x1 -> inception_5a/1x1 (in-place)
I0403 15:30:44.657413 31983 net.cpp:141] Setting up inception_5a/relu_1x1
I0403 15:30:44.657454 31983 net.cpp:148] Top shape: 24 256 7 7 (301056)
I0403 15:30:44.657469 31983 net.cpp:156] Memory required for data: 1294534176
I0403 15:30:44.657485 31983 layer_factory.hpp:77] Creating layer inception_5a/3x3_reduce
I0403 15:30:44.657508 31983 net.cpp:91] Creating Layer inception_5a/3x3_reduce
I0403 15:30:44.657527 31983 net.cpp:425] inception_5a/3x3_reduce <- pool4/3x3_s2_pool4/3x3_s2_0_split_1
I0403 15:30:44.657551 31983 net.cpp:399] inception_5a/3x3_reduce -> inception_5a/3x3_reduce
I0403 15:30:44.660092 31983 net.cpp:141] Setting up inception_5a/3x3_reduce
I0403 15:30:44.660125 31983 net.cpp:148] Top shape: 24 160 7 7 (188160)
I0403 15:30:44.660142 31983 net.cpp:156] Memory required for data: 1295286816
I0403 15:30:44.660163 31983 layer_factory.hpp:77] Creating layer inception_5a/relu_3x3_reduce
I0403 15:30:44.660182 31983 net.cpp:91] Creating Layer inception_5a/relu_3x3_reduce
I0403 15:30:44.660204 31983 net.cpp:425] inception_5a/relu_3x3_reduce <- inception_5a/3x3_reduce
I0403 15:30:44.660226 31983 net.cpp:386] inception_5a/relu_3x3_reduce -> inception_5a/3x3_reduce (in-place)
I0403 15:30:44.660428 31983 net.cpp:141] Setting up inception_5a/relu_3x3_reduce
I0403 15:30:44.660455 31983 net.cpp:148] Top shape: 24 160 7 7 (188160)
I0403 15:30:44.660471 31983 net.cpp:156] Memory required for data: 1296039456
I0403 15:30:44.660487 31983 layer_factory.hpp:77] Creating layer inception_5a/3x3
I0403 15:30:44.660511 31983 net.cpp:91] Creating Layer inception_5a/3x3
I0403 15:30:44.660529 31983 net.cpp:425] inception_5a/3x3 <- inception_5a/3x3_reduce
I0403 15:30:44.660554 31983 net.cpp:399] inception_5a/3x3 -> inception_5a/3x3
I0403 15:30:44.665772 31983 net.cpp:141] Setting up inception_5a/3x3
I0403 15:30:44.665802 31983 net.cpp:148] Top shape: 24 320 7 7 (376320)
I0403 15:30:44.665820 31983 net.cpp:156] Memory required for data: 1297544736
I0403 15:30:44.665841 31983 layer_factory.hpp:77] Creating layer inception_5a/relu_3x3
I0403 15:30:44.665863 31983 net.cpp:91] Creating Layer inception_5a/relu_3x3
I0403 15:30:44.665882 31983 net.cpp:425] inception_5a/relu_3x3 <- inception_5a/3x3
I0403 15:30:44.665902 31983 net.cpp:386] inception_5a/relu_3x3 -> inception_5a/3x3 (in-place)
I0403 15:30:44.666206 31983 net.cpp:141] Setting up inception_5a/relu_3x3
I0403 15:30:44.666234 31983 net.cpp:148] Top shape: 24 320 7 7 (376320)
I0403 15:30:44.666250 31983 net.cpp:156] Memory required for data: 1299050016
I0403 15:30:44.666272 31983 layer_factory.hpp:77] Creating layer inception_5a/5x5_reduce
I0403 15:30:44.666297 31983 net.cpp:91] Creating Layer inception_5a/5x5_reduce
I0403 15:30:44.666317 31983 net.cpp:425] inception_5a/5x5_reduce <- pool4/3x3_s2_pool4/3x3_s2_0_split_2
I0403 15:30:44.666342 31983 net.cpp:399] inception_5a/5x5_reduce -> inception_5a/5x5_reduce
I0403 15:30:44.667554 31983 net.cpp:141] Setting up inception_5a/5x5_reduce
I0403 15:30:44.667585 31983 net.cpp:148] Top shape: 24 32 7 7 (37632)
I0403 15:30:44.667603 31983 net.cpp:156] Memory required for data: 1299200544
I0403 15:30:44.667623 31983 layer_factory.hpp:77] Creating layer inception_5a/relu_5x5_reduce
I0403 15:30:44.667645 31983 net.cpp:91] Creating Layer inception_5a/relu_5x5_reduce
I0403 15:30:44.667665 31983 net.cpp:425] inception_5a/relu_5x5_reduce <- inception_5a/5x5_reduce
I0403 15:30:44.667685 31983 net.cpp:386] inception_5a/relu_5x5_reduce -> inception_5a/5x5_reduce (in-place)
I0403 15:30:44.668000 31983 net.cpp:141] Setting up inception_5a/relu_5x5_reduce
I0403 15:30:44.668028 31983 net.cpp:148] Top shape: 24 32 7 7 (37632)
I0403 15:30:44.668045 31983 net.cpp:156] Memory required for data: 1299351072
I0403 15:30:44.668061 31983 layer_factory.hpp:77] Creating layer inception_5a/5x5
I0403 15:30:44.668086 31983 net.cpp:91] Creating Layer inception_5a/5x5
I0403 15:30:44.668107 31983 net.cpp:425] inception_5a/5x5 <- inception_5a/5x5_reduce
I0403 15:30:44.668129 31983 net.cpp:399] inception_5a/5x5 -> inception_5a/5x5
I0403 15:30:44.669924 31983 net.cpp:141] Setting up inception_5a/5x5
I0403 15:30:44.669965 31983 net.cpp:148] Top shape: 24 128 7 7 (150528)
I0403 15:30:44.669983 31983 net.cpp:156] Memory required for data: 1299953184
I0403 15:30:44.670003 31983 layer_factory.hpp:77] Creating layer inception_5a/relu_5x5
I0403 15:30:44.670025 31983 net.cpp:91] Creating Layer inception_5a/relu_5x5
I0403 15:30:44.670044 31983 net.cpp:425] inception_5a/relu_5x5 <- inception_5a/5x5
I0403 15:30:44.670064 31983 net.cpp:386] inception_5a/relu_5x5 -> inception_5a/5x5 (in-place)
I0403 15:30:44.670265 31983 net.cpp:141] Setting up inception_5a/relu_5x5
I0403 15:30:44.670292 31983 net.cpp:148] Top shape: 24 128 7 7 (150528)
I0403 15:30:44.670308 31983 net.cpp:156] Memory required for data: 1300555296
I0403 15:30:44.670323 31983 layer_factory.hpp:77] Creating layer inception_5a/pool
I0403 15:30:44.670346 31983 net.cpp:91] Creating Layer inception_5a/pool
I0403 15:30:44.670362 31983 net.cpp:425] inception_5a/pool <- pool4/3x3_s2_pool4/3x3_s2_0_split_3
I0403 15:30:44.670382 31983 net.cpp:399] inception_5a/pool -> inception_5a/pool
I0403 15:30:44.670456 31983 net.cpp:141] Setting up inception_5a/pool
I0403 15:30:44.670482 31983 net.cpp:148] Top shape: 24 832 7 7 (978432)
I0403 15:30:44.670497 31983 net.cpp:156] Memory required for data: 1304469024
I0403 15:30:44.670512 31983 layer_factory.hpp:77] Creating layer inception_5a/pool_proj
I0403 15:30:44.670536 31983 net.cpp:91] Creating Layer inception_5a/pool_proj
I0403 15:30:44.670554 31983 net.cpp:425] inception_5a/pool_proj <- inception_5a/pool
I0403 15:30:44.670579 31983 net.cpp:399] inception_5a/pool_proj -> inception_5a/pool_proj
I0403 15:30:44.672938 31983 net.cpp:141] Setting up inception_5a/pool_proj
I0403 15:30:44.672968 31983 net.cpp:148] Top shape: 24 128 7 7 (150528)
I0403 15:30:44.672986 31983 net.cpp:156] Memory required for data: 1305071136
I0403 15:30:44.673005 31983 layer_factory.hpp:77] Creating layer inception_5a/relu_pool_proj
I0403 15:30:44.673025 31983 net.cpp:91] Creating Layer inception_5a/relu_pool_proj
I0403 15:30:44.673043 31983 net.cpp:425] inception_5a/relu_pool_proj <- inception_5a/pool_proj
I0403 15:30:44.673064 31983 net.cpp:386] inception_5a/relu_pool_proj -> inception_5a/pool_proj (in-place)
I0403 15:30:44.673378 31983 net.cpp:141] Setting up inception_5a/relu_pool_proj
I0403 15:30:44.673406 31983 net.cpp:148] Top shape: 24 128 7 7 (150528)
I0403 15:30:44.673424 31983 net.cpp:156] Memory required for data: 1305673248
I0403 15:30:44.673439 31983 layer_factory.hpp:77] Creating layer inception_5a/output
I0403 15:30:44.673459 31983 net.cpp:91] Creating Layer inception_5a/output
I0403 15:30:44.673476 31983 net.cpp:425] inception_5a/output <- inception_5a/1x1
I0403 15:30:44.673496 31983 net.cpp:425] inception_5a/output <- inception_5a/3x3
I0403 15:30:44.673513 31983 net.cpp:425] inception_5a/output <- inception_5a/5x5
I0403 15:30:44.673530 31983 net.cpp:425] inception_5a/output <- inception_5a/pool_proj
I0403 15:30:44.673552 31983 net.cpp:399] inception_5a/output -> inception_5a/output
I0403 15:30:44.673606 31983 net.cpp:141] Setting up inception_5a/output
I0403 15:30:44.673635 31983 net.cpp:148] Top shape: 24 832 7 7 (978432)
I0403 15:30:44.673652 31983 net.cpp:156] Memory required for data: 1309586976
I0403 15:30:44.673669 31983 layer_factory.hpp:77] Creating layer inception_5a/output_inception_5a/output_0_split
I0403 15:30:44.673687 31983 net.cpp:91] Creating Layer inception_5a/output_inception_5a/output_0_split
I0403 15:30:44.673704 31983 net.cpp:425] inception_5a/output_inception_5a/output_0_split <- inception_5a/output
I0403 15:30:44.673723 31983 net.cpp:399] inception_5a/output_inception_5a/output_0_split -> inception_5a/output_inception_5a/output_0_split_0
I0403 15:30:44.673745 31983 net.cpp:399] inception_5a/output_inception_5a/output_0_split -> inception_5a/output_inception_5a/output_0_split_1
I0403 15:30:44.673770 31983 net.cpp:399] inception_5a/output_inception_5a/output_0_split -> inception_5a/output_inception_5a/output_0_split_2
I0403 15:30:44.673794 31983 net.cpp:399] inception_5a/output_inception_5a/output_0_split -> inception_5a/output_inception_5a/output_0_split_3
I0403 15:30:44.673912 31983 net.cpp:141] Setting up inception_5a/output_inception_5a/output_0_split
I0403 15:30:44.673938 31983 net.cpp:148] Top shape: 24 832 7 7 (978432)
I0403 15:30:44.673955 31983 net.cpp:148] Top shape: 24 832 7 7 (978432)
I0403 15:30:44.673974 31983 net.cpp:148] Top shape: 24 832 7 7 (978432)
I0403 15:30:44.673991 31983 net.cpp:148] Top shape: 24 832 7 7 (978432)
I0403 15:30:44.674006 31983 net.cpp:156] Memory required for data: 1325241888
I0403 15:30:44.674021 31983 layer_factory.hpp:77] Creating layer inception_5b/1x1
I0403 15:30:44.674046 31983 net.cpp:91] Creating Layer inception_5b/1x1
I0403 15:30:44.674067 31983 net.cpp:425] inception_5b/1x1 <- inception_5a/output_inception_5a/output_0_split_0
I0403 15:30:44.674089 31983 net.cpp:399] inception_5b/1x1 -> inception_5b/1x1
I0403 15:30:44.678100 31983 net.cpp:141] Setting up inception_5b/1x1
I0403 15:30:44.678134 31983 net.cpp:148] Top shape: 24 384 7 7 (451584)
I0403 15:30:44.678153 31983 net.cpp:156] Memory required for data: 1327048224
I0403 15:30:44.678174 31983 layer_factory.hpp:77] Creating layer inception_5b/relu_1x1
I0403 15:30:44.678194 31983 net.cpp:91] Creating Layer inception_5b/relu_1x1
I0403 15:30:44.678212 31983 net.cpp:425] inception_5b/relu_1x1 <- inception_5b/1x1
I0403 15:30:44.678234 31983 net.cpp:386] inception_5b/relu_1x1 -> inception_5b/1x1 (in-place)
I0403 15:30:44.678565 31983 net.cpp:141] Setting up inception_5b/relu_1x1
I0403 15:30:44.678596 31983 net.cpp:148] Top shape: 24 384 7 7 (451584)
I0403 15:30:44.678613 31983 net.cpp:156] Memory required for data: 1328854560
I0403 15:30:44.678630 31983 layer_factory.hpp:77] Creating layer inception_5b/3x3_reduce
I0403 15:30:44.678655 31983 net.cpp:91] Creating Layer inception_5b/3x3_reduce
I0403 15:30:44.678675 31983 net.cpp:425] inception_5b/3x3_reduce <- inception_5a/output_inception_5a/output_0_split_1
I0403 15:30:44.678697 31983 net.cpp:399] inception_5b/3x3_reduce -> inception_5b/3x3_reduce
I0403 15:30:44.681550 31983 net.cpp:141] Setting up inception_5b/3x3_reduce
I0403 15:30:44.681586 31983 net.cpp:148] Top shape: 24 192 7 7 (225792)
I0403 15:30:44.681602 31983 net.cpp:156] Memory required for data: 1329757728
I0403 15:30:44.681624 31983 layer_factory.hpp:77] Creating layer inception_5b/relu_3x3_reduce
I0403 15:30:44.681644 31983 net.cpp:91] Creating Layer inception_5b/relu_3x3_reduce
I0403 15:30:44.681663 31983 net.cpp:425] inception_5b/relu_3x3_reduce <- inception_5b/3x3_reduce
I0403 15:30:44.681685 31983 net.cpp:386] inception_5b/relu_3x3_reduce -> inception_5b/3x3_reduce (in-place)
I0403 15:30:44.681890 31983 net.cpp:141] Setting up inception_5b/relu_3x3_reduce
I0403 15:30:44.681916 31983 net.cpp:148] Top shape: 24 192 7 7 (225792)
I0403 15:30:44.681933 31983 net.cpp:156] Memory required for data: 1330660896
I0403 15:30:44.681951 31983 layer_factory.hpp:77] Creating layer inception_5b/3x3
I0403 15:30:44.681974 31983 net.cpp:91] Creating Layer inception_5b/3x3
I0403 15:30:44.681995 31983 net.cpp:425] inception_5b/3x3 <- inception_5b/3x3_reduce
I0403 15:30:44.682018 31983 net.cpp:399] inception_5b/3x3 -> inception_5b/3x3
I0403 15:30:44.689204 31983 net.cpp:141] Setting up inception_5b/3x3
I0403 15:30:44.689236 31983 net.cpp:148] Top shape: 24 384 7 7 (451584)
I0403 15:30:44.689259 31983 net.cpp:156] Memory required for data: 1332467232
I0403 15:30:44.689280 31983 layer_factory.hpp:77] Creating layer inception_5b/relu_3x3
I0403 15:30:44.689302 31983 net.cpp:91] Creating Layer inception_5b/relu_3x3
I0403 15:30:44.689321 31983 net.cpp:425] inception_5b/relu_3x3 <- inception_5b/3x3
I0403 15:30:44.689343 31983 net.cpp:386] inception_5b/relu_3x3 -> inception_5b/3x3 (in-place)
I0403 15:30:44.689666 31983 net.cpp:141] Setting up inception_5b/relu_3x3
I0403 15:30:44.689694 31983 net.cpp:148] Top shape: 24 384 7 7 (451584)
I0403 15:30:44.689712 31983 net.cpp:156] Memory required for data: 1334273568
I0403 15:30:44.689728 31983 layer_factory.hpp:77] Creating layer inception_5b/5x5_reduce
I0403 15:30:44.689771 31983 net.cpp:91] Creating Layer inception_5b/5x5_reduce
I0403 15:30:44.689792 31983 net.cpp:425] inception_5b/5x5_reduce <- inception_5a/output_inception_5a/output_0_split_2
I0403 15:30:44.689818 31983 net.cpp:399] inception_5b/5x5_reduce -> inception_5b/5x5_reduce
I0403 15:30:44.691179 31983 net.cpp:141] Setting up inception_5b/5x5_reduce
I0403 15:30:44.691210 31983 net.cpp:148] Top shape: 24 48 7 7 (56448)
I0403 15:30:44.691226 31983 net.cpp:156] Memory required for data: 1334499360
I0403 15:30:44.691246 31983 layer_factory.hpp:77] Creating layer inception_5b/relu_5x5_reduce
I0403 15:30:44.691274 31983 net.cpp:91] Creating Layer inception_5b/relu_5x5_reduce
I0403 15:30:44.691294 31983 net.cpp:425] inception_5b/relu_5x5_reduce <- inception_5b/5x5_reduce
I0403 15:30:44.691315 31983 net.cpp:386] inception_5b/relu_5x5_reduce -> inception_5b/5x5_reduce (in-place)
I0403 15:30:44.691725 31983 net.cpp:141] Setting up inception_5b/relu_5x5_reduce
I0403 15:30:44.691753 31983 net.cpp:148] Top shape: 24 48 7 7 (56448)
I0403 15:30:44.691771 31983 net.cpp:156] Memory required for data: 1334725152
I0403 15:30:44.691788 31983 layer_factory.hpp:77] Creating layer inception_5b/5x5
I0403 15:30:44.691809 31983 net.cpp:91] Creating Layer inception_5b/5x5
I0403 15:30:44.691828 31983 net.cpp:425] inception_5b/5x5 <- inception_5b/5x5_reduce
I0403 15:30:44.691849 31983 net.cpp:399] inception_5b/5x5 -> inception_5b/5x5
I0403 15:30:44.694058 31983 net.cpp:141] Setting up inception_5b/5x5
I0403 15:30:44.694089 31983 net.cpp:148] Top shape: 24 128 7 7 (150528)
I0403 15:30:44.694108 31983 net.cpp:156] Memory required for data: 1335327264
I0403 15:30:44.694128 31983 layer_factory.hpp:77] Creating layer inception_5b/relu_5x5
I0403 15:30:44.694150 31983 net.cpp:91] Creating Layer inception_5b/relu_5x5
I0403 15:30:44.694171 31983 net.cpp:425] inception_5b/relu_5x5 <- inception_5b/5x5
I0403 15:30:44.694190 31983 net.cpp:386] inception_5b/relu_5x5 -> inception_5b/5x5 (in-place)
I0403 15:30:44.694421 31983 net.cpp:141] Setting up inception_5b/relu_5x5
I0403 15:30:44.694453 31983 net.cpp:148] Top shape: 24 128 7 7 (150528)
I0403 15:30:44.694483 31983 net.cpp:156] Memory required for data: 1335929376
I0403 15:30:44.694499 31983 layer_factory.hpp:77] Creating layer inception_5b/pool
I0403 15:30:44.694519 31983 net.cpp:91] Creating Layer inception_5b/pool
I0403 15:30:44.694535 31983 net.cpp:425] inception_5b/pool <- inception_5a/output_inception_5a/output_0_split_3
I0403 15:30:44.694555 31983 net.cpp:399] inception_5b/pool -> inception_5b/pool
I0403 15:30:44.694633 31983 net.cpp:141] Setting up inception_5b/pool
I0403 15:30:44.694659 31983 net.cpp:148] Top shape: 24 832 7 7 (978432)
I0403 15:30:44.694674 31983 net.cpp:156] Memory required for data: 1339843104
I0403 15:30:44.694691 31983 layer_factory.hpp:77] Creating layer inception_5b/pool_proj
I0403 15:30:44.694715 31983 net.cpp:91] Creating Layer inception_5b/pool_proj
I0403 15:30:44.694735 31983 net.cpp:425] inception_5b/pool_proj <- inception_5b/pool
I0403 15:30:44.694757 31983 net.cpp:399] inception_5b/pool_proj -> inception_5b/pool_proj
I0403 15:30:44.697140 31983 net.cpp:141] Setting up inception_5b/pool_proj
I0403 15:30:44.697170 31983 net.cpp:148] Top shape: 24 128 7 7 (150528)
I0403 15:30:44.697187 31983 net.cpp:156] Memory required for data: 1340445216
I0403 15:30:44.697206 31983 layer_factory.hpp:77] Creating layer inception_5b/relu_pool_proj
I0403 15:30:44.697228 31983 net.cpp:91] Creating Layer inception_5b/relu_pool_proj
I0403 15:30:44.697247 31983 net.cpp:425] inception_5b/relu_pool_proj <- inception_5b/pool_proj
I0403 15:30:44.697273 31983 net.cpp:386] inception_5b/relu_pool_proj -> inception_5b/pool_proj (in-place)
I0403 15:30:44.697579 31983 net.cpp:141] Setting up inception_5b/relu_pool_proj
I0403 15:30:44.697607 31983 net.cpp:148] Top shape: 24 128 7 7 (150528)
I0403 15:30:44.697623 31983 net.cpp:156] Memory required for data: 1341047328
I0403 15:30:44.697638 31983 layer_factory.hpp:77] Creating layer inception_5b/output
I0403 15:30:44.697656 31983 net.cpp:91] Creating Layer inception_5b/output
I0403 15:30:44.697688 31983 net.cpp:425] inception_5b/output <- inception_5b/1x1
I0403 15:30:44.697706 31983 net.cpp:425] inception_5b/output <- inception_5b/3x3
I0403 15:30:44.697723 31983 net.cpp:425] inception_5b/output <- inception_5b/5x5
I0403 15:30:44.697739 31983 net.cpp:425] inception_5b/output <- inception_5b/pool_proj
I0403 15:30:44.697760 31983 net.cpp:399] inception_5b/output -> inception_5b/output
I0403 15:30:44.697813 31983 net.cpp:141] Setting up inception_5b/output
I0403 15:30:44.697840 31983 net.cpp:148] Top shape: 24 1024 7 7 (1204224)
I0403 15:30:44.697859 31983 net.cpp:156] Memory required for data: 1345864224
I0403 15:30:44.697873 31983 layer_factory.hpp:77] Creating layer pool5/7x7_s1
I0403 15:30:44.697891 31983 net.cpp:91] Creating Layer pool5/7x7_s1
I0403 15:30:44.697907 31983 net.cpp:425] pool5/7x7_s1 <- inception_5b/output
I0403 15:30:44.697931 31983 net.cpp:399] pool5/7x7_s1 -> pool5/7x7_s1
I0403 15:30:44.698146 31983 net.cpp:141] Setting up pool5/7x7_s1
I0403 15:30:44.698173 31983 net.cpp:148] Top shape: 24 1024 1 1 (24576)
I0403 15:30:44.698187 31983 net.cpp:156] Memory required for data: 1345962528
I0403 15:30:44.698204 31983 layer_factory.hpp:77] Creating layer pool5/drop_7x7_s1
I0403 15:30:44.698222 31983 net.cpp:91] Creating Layer pool5/drop_7x7_s1
I0403 15:30:44.698242 31983 net.cpp:425] pool5/drop_7x7_s1 <- pool5/7x7_s1
I0403 15:30:44.698266 31983 net.cpp:386] pool5/drop_7x7_s1 -> pool5/7x7_s1 (in-place)
I0403 15:30:44.698319 31983 net.cpp:141] Setting up pool5/drop_7x7_s1
I0403 15:30:44.698346 31983 net.cpp:148] Top shape: 24 1024 1 1 (24576)
I0403 15:30:44.698362 31983 net.cpp:156] Memory required for data: 1346060832
I0403 15:30:44.698377 31983 layer_factory.hpp:77] Creating layer loss3/classifier_plantvillage
I0403 15:30:44.698397 31983 net.cpp:91] Creating Layer loss3/classifier_plantvillage
I0403 15:30:44.698415 31983 net.cpp:425] loss3/classifier_plantvillage <- pool5/7x7_s1
I0403 15:30:44.698436 31983 net.cpp:399] loss3/classifier_plantvillage -> loss3/classifier_plantvillage
I0403 15:30:44.698860 31983 net.cpp:141] Setting up loss3/classifier_plantvillage
I0403 15:30:44.698887 31983 net.cpp:148] Top shape: 24 38 (912)
I0403 15:30:44.698904 31983 net.cpp:156] Memory required for data: 1346064480
I0403 15:30:44.698922 31983 layer_factory.hpp:77] Creating layer loss3/classifier_plantvillage_loss3/classifier_plantvillage_0_split
I0403 15:30:44.698941 31983 net.cpp:91] Creating Layer loss3/classifier_plantvillage_loss3/classifier_plantvillage_0_split
I0403 15:30:44.698958 31983 net.cpp:425] loss3/classifier_plantvillage_loss3/classifier_plantvillage_0_split <- loss3/classifier_plantvillage
I0403 15:30:44.698977 31983 net.cpp:399] loss3/classifier_plantvillage_loss3/classifier_plantvillage_0_split -> loss3/classifier_plantvillage_loss3/classifier_plantvillage_0_split_0
I0403 15:30:44.699002 31983 net.cpp:399] loss3/classifier_plantvillage_loss3/classifier_plantvillage_0_split -> loss3/classifier_plantvillage_loss3/classifier_plantvillage_0_split_1
I0403 15:30:44.699023 31983 net.cpp:399] loss3/classifier_plantvillage_loss3/classifier_plantvillage_0_split -> loss3/classifier_plantvillage_loss3/classifier_plantvillage_0_split_2
I0403 15:30:44.699043 31983 net.cpp:399] loss3/classifier_plantvillage_loss3/classifier_plantvillage_0_split -> loss3/classifier_plantvillage_loss3/classifier_plantvillage_0_split_3
I0403 15:30:44.699147 31983 net.cpp:141] Setting up loss3/classifier_plantvillage_loss3/classifier_plantvillage_0_split
I0403 15:30:44.699172 31983 net.cpp:148] Top shape: 24 38 (912)
I0403 15:30:44.699189 31983 net.cpp:148] Top shape: 24 38 (912)
I0403 15:30:44.699205 31983 net.cpp:148] Top shape: 24 38 (912)
I0403 15:30:44.699221 31983 net.cpp:148] Top shape: 24 38 (912)
I0403 15:30:44.699235 31983 net.cpp:156] Memory required for data: 1346079072
I0403 15:30:44.699251 31983 layer_factory.hpp:77] Creating layer loss1/loss
I0403 15:30:44.699282 31983 net.cpp:91] Creating Layer loss1/loss
I0403 15:30:44.699301 31983 net.cpp:425] loss1/loss <- loss1/classifier_plantvillage_loss1/classifier_plantvillage_0_split_0
I0403 15:30:44.699332 31983 net.cpp:425] loss1/loss <- label_data_1_split_0
…
