…
I0403 15:11:53.180465 31278 net.cpp:313] The NetState phase (1) differed from the phase (0) specified by a rule in layer data
I0403 15:11:53.181691 31278 net.cpp:49] Initializing net from parameters: 
state {
  phase: TEST
}
layer {
  name: "data"
  type: "Data"
  top: "data"
  top: "label"
  include {
    phase: TEST
  }
  transform_param {
    mirror: false
    crop_size: 224
    mean_file: "/home/mohanty/data/final_dataset/lmdb/color-60-40/mean.binaryproto"
  }
  data_param {
    source: "/home/mohanty/data/final_dataset/lmdb/color-60-40/test_db"
    batch_size: 24
    backend: LMDB
  }
}
layer {
  name: "conv1/7x7_s2"
  type: "Convolution"
  bottom: "data"
  top: "conv1/7x7_s2"
  param {
    lr_mult: 1
    decay_mult: 1
  }
  param {
    lr_mult: 2
    decay_mult: 0
  }
  convolution_param {
    num_output: 64
    pad: 3
    kernel_size: 7
    stride: 2
    weight_filler {
      type: "xavier"
      std: 0.1
    }
    bias_filler {
      type: "constant"
      value: 0.2
    }
  }
}
layer {
  name: "conv1/relu_7x7"
  type: "ReLU"
  bottom: "conv1/7x7_s2"
  top: "conv1/7x7_s2"
}
layer {
  name: "pool1/3x3_s2"
  type: "Pooling"
  bottom: "conv1/7x7_s2"
  top: "pool1/3x3_s2"
  pooling_param {
    pool: MAX
    kernel_size: 3
    stride: 2
  }
}
layer {
  name: "pool1/norm1"
  type: "LRN"
  bottom: "pool1/3x3_s2"
  top: "pool1/norm1"
  lrn_param {
    local_size: 5
    alpha: 0.0001
    beta: 0.75
  }
}
layer {
  name: "conv2/3x3_reduce"
  type: "Convolution"
  bottom: "pool1/norm1"
  top: "conv2/3x3_reduce"
  param {
    lr_mult: 1
    decay_mult: 1
  }
  param {
    lr_mult: 2
    decay_mult: 0
  }
  convolution_param {
    num_output: 64
    kernel_size: 1
    weight_filler {
      type: "xavier"
      std: 0.1
    }
    bias_filler {
      type: "constant"
      value: 0.2
    }
  }
}
layer {
  name: "conv2/relu_3x3_reduce"
  type: "ReLU"
  bottom: "conv2/3x3_reduce"
  top: "conv2/3x3_reduce"
}
layer {
  name: "conv2/3x3"
  type: "Convolution"
  bottom: "conv2/3x3_reduce"
  top: "conv2/3x3"
  param {
    lr_mult: 1
    decay_mult: 1
  }
  param {
    lr_mult: 2
    decay_mult: 0
  }
  convolution_param {
    num_output: 192
    pad: 1
    kernel_size: 3
    weight_filler {
      type: "xavier"
      std: 0.03
    }
    bias_filler {
      type: "constant"
      value: 0.2
    }
  }
}
layer {
  name: "conv2/relu_3x3"
  type: "ReLU"
  bottom: "conv2/3x3"
  top: "conv2/3x3"
}
layer {
  name: "conv2/norm2"
  type: "LRN"
  bottom: "conv2/3x3"
  top: "conv2/norm2"
  lrn_param {
    local_size: 5
    alpha: 0.0001
    beta: 0.75
  }
}
layer {
  name: "pool2/3x3_s2"
  type: "Pooling"
  bottom: "conv2/norm2"
  top: "pool2/3x3_s2"
  pooling_param {
    pool: MAX
    kernel_size: 3
    stride: 2
  }
}
layer {
  name: "inception_3a/1x1"
  type: "Convolution"
  bottom: "pool2/3x3_s2"
  top: "inception_3a/1x1"
  param {
    lr_mult: 1
    decay_mult: 1
  }
  param {
    lr_mult: 2
    decay_mult: 0
  }
  convolution_param {
    num_output: 64
    kernel_size: 1
    weight_filler {
      type: "xavier"
      std: 0.03
    }
    bias_filler {
      type: "constant"
      value: 0.2
    }
  }
}
layer {
  name: "inception_3a/relu_1x1"
  type: "ReLU"
  bottom: "inception_3a/1x1"
  top: "inception_3a/1x1"
}
layer {
  name: "inception_3a/3x3_reduce"
  type: "Convolution"
  bottom: "pool2/3x3_s2"
  top: "inception_3a/3x3_reduce"
  param {
    lr_mult: 1
    decay_mult: 1
  }
  param {
    lr_mult: 2
    decay_mult: 0
  }
  convolution_param {
    num_output: 96
    kernel_size: 1
    weight_filler {
      type: "xavier"
      std: 0.09
    }
    bias_filler {
      type: "constant"
      value: 0.2
    }
  }
}
layer {
  name: "inception_3a/relu_3x3_reduce"
  type: "ReLU"
  bottom: "inception_3a/3x3_reduce"
  top: "inception_3a/3x3_reduce"
}
layer {
  name: "inception_3a/3x3"
  type: "Convolution"
  bottom: "inception_3a/3x3_reduce"
  top: "inception_3a/3x3"
  param {
    lr_mult: 1
    decay_mult: 1
  }
  param {
    lr_mult: 2
    decay_mult: 0
  }
  convolution_param {
    num_output: 128
    pad: 1
    kernel_size: 3
    weight_filler {
      type: "xavier"
      std: 0.03
    }
    bias_filler {
      type: "constant"
      value: 0.2
    }
  }
}
layer {
  name: "inception_3a/relu_3x3"
  type: "ReLU"
  bottom: "inception_3a/3x3"
  top: "inception_3a/3x3"
}
layer {
  name: "inception_3a/5x5_reduce"
  type: "Convolution"
  bottom: "pool2/3x3_s2"
  top: "inception_3a/5x5_reduce"
  param {
    lr_mult: 1
    decay_mult: 1
  }
  param {
    lr_mult: 2
    decay_mult: 0
  }
  convolution_param {
    num_output: 16
    kernel_size: 1
    weight_filler {
      type: "xavier"
      std: 0.2
    }
    bias_filler {
      type: "constant"
      value: 0.2
    }
  }
}
layer {
  name: "inception_3a/relu_5x5_reduce"
  type: "ReLU"
  bottom: "inception_3a/5x5_reduce"
  top: "inception_3a/5x5_reduce"
}
layer {
  name: "inception_3a/5x5"
  type: "Convolution"
  bottom: "inception_3a/5x5_reduce"
  top: "inception_3a/5x5"
  param {
    lr_mult: 1
    decay_mult: 1
  }
  param {
    lr_mult: 2
    decay_mult: 0
  }
  convolution_param {
    num_output: 32
    pad: 2
    kernel_size: 5
    weight_filler {
      type: "xavier"
      std: 0.03
    }
    bias_filler {
      type: "constant"
      value: 0.2
    }
  }
}
layer {
  name: "inception_3a/relu_5x5"
  type: "ReLU"
  bottom: "inception_3a/5x5"
  top: "inception_3a/5x5"
}
layer {
  name: "inception_3a/pool"
  type: "Pooling"
  bottom: "pool2/3x3_s2"
  top: "inception_3a/pool"
  pooling_param {
    pool: MAX
    kernel_size: 3
    stride: 1
    pad: 1
  }
}
layer {
  name: "inception_3a/pool_proj"
  type: "Convolution"
  bottom: "inception_3a/pool"
  top: "inception_3a/pool_proj"
  param {
    lr_mult: 1
    decay_mult: 1
  }
  param {
    lr_mult: 2
    decay_mult: 0
  }
  convolution_param {
    num_output: 32
    kernel_size: 1
    weight_filler {
      type: "xavier"
      std: 0.1
    }
    bias_filler {
      type: "constant"
      value: 0.2
    }
  }
}
layer {
  name: "inception_3a/relu_pool_proj"
  type: "ReLU"
  bottom: "inception_3a/pool_proj"
  top: "inception_3a/pool_proj"
}
layer {
  name: "inception_3a/output"
  type: "Concat"
  bottom: "inception_3a/1x1"
  bottom: "inception_3a/3x3"
  bottom: "inception_3a/5x5"
  bottom: "inception_3a/pool_proj"
  top: "inception_3a/output"
}
layer {
  name: "inception_3b/1x1"
  type: "Convolution"
  bottom: "inception_3a/output"
  top: "inception_3b/1x1"
  param {
    lr_mult: 1
    decay_mult: 1
  }
  param {
    lr_mult: 2
    decay_mult: 0
  }
  convolution_param {
    num_output: 128
    kernel_size: 1
    weight_filler {
      type: "xavier"
      std: 0.03
    }
    bias_filler {
      type: "constant"
      value: 0.2
    }
  }
}
layer {
  name: "inception_3b/relu_1x1"
  type: "ReLU"
  bottom: "inception_3b/1x1"
  top: "inception_3b/1x1"
}
layer {
  name: "inception_3b/3x3_reduce"
  type: "Convolution"
  bottom: "inception_3a/output"
  top: "inception_3b/3x3_reduce"
  param {
    lr_mult: 1
    decay_mult: 1
  }
  param {
    lr_mult: 2
    decay_mult: 0
  }
  convolution_param {
    num_output: 128
    kernel_size: 1
    weight_filler {
      type: "xavier"
      std: 0.09
    }
    bias_filler {
      type: "constant"
      value: 0.2
    }
  }
}
layer {
  name: "inception_3b/relu_3x3_reduce"
  type: "ReLU"
  bottom: "inception_3b/3x3_reduce"
  top: "inception_3b/3x3_reduce"
}
layer {
  name: "inception_3b/3x3"
  type: "Convolution"
  bottom: "inception_3b/3x3_reduce"
  top: "inception_3b/3x3"
  param {
    lr_mult: 1
    decay_mult: 1
  }
  param {
    lr_mult: 2
    decay_mult: 0
  }
  convolution_param {
    num_output: 192
    pad: 1
    kernel_size: 3
    weight_filler {
      type: "xavier"
      std: 0.03
    }
    bias_filler {
      type: "constant"
      value: 0.2
    }
  }
}
layer {
  name: "inception_3b/relu_3x3"
  type: "ReLU"
  bottom: "inception_3b/3x3"
  top: "inception_3b/3x3"
}
layer {
  name: "inception_3b/5x5_reduce"
  type: "Convolution"
  bottom: "inception_3a/output"
  top: "inception_3b/5x5_reduce"
  param {
    lr_mult: 1
    decay_mult: 1
  }
  param {
    lr_mult: 2
    decay_mult: 0
  }
  convolution_param {
    num_output: 32
    kernel_size: 1
    weight_filler {
      type: "xavier"
      std: 0.2
    }
    bias_filler {
      type: "constant"
      value: 0.2
    }
  }
}
layer {
  name: "inception_3b/relu_5x5_reduce"
  type: "ReLU"
  bottom: "inception_3b/5x5_reduce"
  top: "inception_3b/5x5_reduce"
}
layer {
  name: "inception_3b/5x5"
  type: "Convolution"
  bottom: "inception_3b/5x5_reduce"
  top: "inception_3b/5x5"
  param {
    lr_mult: 1
    decay_mult: 1
  }
  param {
    lr_mult: 2
    decay_mult: 0
  }
  convolution_param {
    num_output: 96
    pad: 2
    kernel_size: 5
    weight_filler {
      type: "xavier"
      std: 0.03
    }
    bias_filler {
      type: "constant"
      value: 0.2
    }
  }
}
layer {
  name: "inception_3b/relu_5x5"
  type: "ReLU"
  bottom: "inception_3b/5x5"
  top: "inception_3b/5x5"
}
layer {
  name: "inception_3b/pool"
  type: "Pooling"
  bottom: "inception_3a/output"
  top: "inception_3b/pool"
  pooling_param {
    pool: MAX
    kernel_size: 3
    stride: 1
    pad: 1
  }
}
layer {
  name: "inception_3b/pool_proj"
  type: "Convolution"
  bottom: "inception_3b/pool"
  top: "inception_3b/pool_proj"
  param {
    lr_mult: 1
    decay_mult: 1
  }
  param {
    lr_mult: 2
    decay_mult: 0
  }
  convolution_param {
    num_output: 64
    kernel_size: 1
    weight_filler {
      type: "xavier"
      std: 0.1
    }
    bias_filler {
      type: "constant"
      value: 0.2
    }
  }
}
layer {
  name: "inception_3b/relu_pool_proj"
  type: "ReLU"
  bottom: "inception_3b/pool_proj"
  top: "inception_3b/pool_proj"
}
layer {
  name: "inception_3b/output"
  type: "Concat"
  bottom: "inception_3b/1x1"
  bottom: "inception_3b/3x3"
  bottom: "inception_3b/5x5"
  bottom: "inception_3b/pool_proj"
  top: "inception_3b/output"
}
layer {
  name: "pool3/3x3_s2"
  type: "Pooling"
  bottom: "inception_3b/output"
  top: "pool3/3x3_s2"
  pooling_param {
    pool: MAX
    kernel_size: 3
    stride: 2
  }
}
layer {
  name: "inception_4a/1x1"
  type: "Convolution"
  bottom: "pool3/3x3_s2"
  top: "inception_4a/1x1"
  param {
    lr_mult: 1
    decay_mult: 1
  }
  param {
    lr_mult: 2
    decay_mult: 0
  }
  convolution_param {
    num_output: 192
    kernel_size: 1
    weight_filler {
      type: "xavier"
      std: 0.03
    }
    bias_filler {
      type: "constant"
      value: 0.2
    }
  }
}
layer {
  name: "inception_4a/relu_1x1"
  type: "ReLU"
  bottom: "inception_4a/1x1"
  top: "inception_4a/1x1"
}
layer {
  name: "inception_4a/3x3_reduce"
  type: "Convolution"
  bottom: "pool3/3x3_s2"
  top: "inception_4a/3x3_reduce"
  param {
    lr_mult: 1
    decay_mult: 1
  }
  param {
    lr_mult: 2
    decay_mult: 0
  }
  convolution_param {
    num_output: 96
    kernel_size: 1
    weight_filler {
      type: "xavier"
      std: 0.09
    }
    bias_filler {
      type: "constant"
      value: 0.2
    }
  }
}
layer {
  name: "inception_4a/relu_3x3_reduce"
  type: "ReLU"
  bottom: "inception_4a/3x3_reduce"
  top: "inception_4a/3x3_reduce"
}
layer {
  name: "inception_4a/3x3"
  type: "Convolution"
  bottom: "inception_4a/3x3_reduce"
  top: "inception_4a/3x3"
  param {
    lr_mult: 1
    decay_mult: 1
  }
  param {
    lr_mult: 2
    decay_mult: 0
  }
  convolution_param {
    num_output: 208
    pad: 1
    kernel_size: 3
    weight_filler {
      type: "xavier"
      std: 0.03
    }
    bias_filler {
      type: "constant"
      value: 0.2
    }
  }
}
layer {
  name: "inception_4a/relu_3x3"
  type: "ReLU"
  bottom: "inception_4a/3x3"
  top: "inception_4a/3x3"
}
layer {
  name: "inception_4a/5x5_reduce"
  type: "Convolution"
  bottom: "pool3/3x3_s2"
  top: "inception_4a/5x5_reduce"
  param {
    lr_mult: 1
    decay_mult: 1
  }
  param {
    lr_mult: 2
    decay_mult: 0
  }
  convolution_param {
    num_output: 16
    kernel_size: 1
    weight_filler {
      type: "xavier"
      std: 0.2
    }
    bias_filler {
      type: "constant"
      value: 0.2
    }
  }
}
layer {
  name: "inception_4a/relu_5x5_reduce"
  type: "ReLU"
  bottom: "inception_4a/5x5_reduce"
  top: "inception_4a/5x5_reduce"
}
layer {
  name: "inception_4a/5x5"
  type: "Convolution"
  bottom: "inception_4a/5x5_reduce"
  top: "inception_4a/5x5"
  param {
    lr_mult: 1
    decay_mult: 1
  }
  param {
    lr_mult: 2
    decay_mult: 0
  }
  convolution_param {
    num_output: 48
    pad: 2
    kernel_size: 5
    weight_filler {
      type: "xavier"
      std: 0.03
    }
    bias_filler {
      type: "constant"
      value: 0.2
    }
  }
}
layer {
  name: "inception_4a/relu_5x5"
  type: "ReLU"
  bottom: "inception_4a/5x5"
  top: "inception_4a/5x5"
}
layer {
  name: "inception_4a/pool"
  type: "Pooling"
  bottom: "pool3/3x3_s2"
  top: "inception_4a/pool"
  pooling_param {
    pool: MAX
    kernel_size: 3
    stride: 1
    pad: 1
  }
}
layer {
  name: "inception_4a/pool_proj"
  type: "Convolution"
  bottom: "inception_4a/pool"
  top: "inception_4a/pool_proj"
  param {
    lr_mult: 1
    decay_mult: 1
  }
  param {
    lr_mult: 2
    decay_mult: 0
  }
  convolution_param {
    num_output: 64
    kernel_size: 1
    weight_filler {
      type: "xavier"
      std: 0.1
    }
    bias_filler {
      type: "constant"
      value: 0.2
    }
  }
}
layer {
  name: "inception_4a/relu_pool_proj"
  type: "ReLU"
  bottom: "inception_4a/pool_proj"
  top: "inception_4a/pool_proj"
}
layer {
  name: "inception_4a/output"
  type: "Concat"
  bottom: "inception_4a/1x1"
  bottom: "inception_4a/3x3"
  bottom: "inception_4a/5x5"
  bottom: "inception_4a/pool_proj"
  top: "inception_4a/output"
}
layer {
  name: "loss1/ave_pool"
  type: "Pooling"
  bottom: "inception_4a/output"
  top: "loss1/ave_pool"
  pooling_param {
    pool: AVE
    kernel_size: 5
    stride: 3
  }
}
layer {
  name: "loss1/conv"
  type: "Convolution"
  bottom: "loss1/ave_pool"
  top: "loss1/conv"
  param {
    lr_mult: 1
    decay_mult: 1
  }
  param {
    lr_mult: 2
    decay_mult: 0
  }
  convolution_param {
    num_output: 128
    kernel_size: 1
    weight_filler {
      type: "xavier"
      std: 0.08
    }
    bias_filler {
      type: "constant"
      value: 0.2
    }
  }
}
layer {
  name: "loss1/relu_conv"
  type: "ReLU"
  bottom: "loss1/conv"
  top: "loss1/conv"
}
layer {
  name: "loss1/fc"
  type: "InnerProduct"
  bottom: "loss1/conv"
  top: "loss1/fc"
  param {
    lr_mult: 1
    decay_mult: 1
  }
  param {
    lr_mult: 2
    decay_mult: 0
  }
  inner_product_param {
    num_output: 1024
    weight_filler {
      type: "xavier"
      std: 0.02
    }
    bias_filler {
      type: "constant"
      value: 0.2
    }
  }
}
layer {
  name: "loss1/relu_fc"
  type: "ReLU"
  bottom: "loss1/fc"
  top: "loss1/fc"
}
layer {
  name: "loss1/drop_fc"
  type: "Dropout"
  bottom: "loss1/fc"
  top: "loss1/fc"
  dropout_param {
    dropout_ratio: 0.7
  }
}
layer {
  name: "loss1/classifier_plantvillage"
  type: "InnerProduct"
  bottom: "loss1/fc"
  top: "loss1/classifier_plantvillage"
  param {
    lr_mult: 1
    decay_mult: 1
  }
  param {
    lr_mult: 2
    decay_mult: 0
  }
  inner_product_param {
    num_output: 38
    weight_filler {
      type: "xavier"
      std: 0.0009765625
    }
    bias_filler {
      type: "constant"
      value: 0
    }
  }
}
layer {
  name: "inception_4b/1x1"
  type: "Convolution"
  bottom: "inception_4a/output"
  top: "inception_4b/1x1"
  param {
    lr_mult: 1
    decay_mult: 1
  }
  param {
    lr_mult: 2
    decay_mult: 0
  }
  convolution_param {
    num_output: 160
    kernel_size: 1
    weight_filler {
      type: "xavier"
      std: 0.03
    }
    bias_filler {
      type: "constant"
      value: 0.2
    }
  }
}
layer {
  name: "inception_4b/relu_1x1"
  type: "ReLU"
  bottom: "inception_4b/1x1"
  top: "inception_4b/1x1"
}
layer {
  name: "inception_4b/3x3_reduce"
  type: "Convolution"
  bottom: "inception_4a/output"
  top: "inception_4b/3x3_reduce"
  param {
    lr_mult: 1
    decay_mult: 1
  }
  param {
    lr_mult: 2
    decay_mult: 0
  }
  convolution_param {
    num_output: 112
    kernel_size: 1
    weight_filler {
      type: "xavier"
      std: 0.09
    }
    bias_filler {
      type: "constant"
      value: 0.2
    }
  }
}
layer {
  name: "inception_4b/relu_3x3_reduce"
  type: "ReLU"
  bottom: "inception_4b/3x3_reduce"
  top: "inception_4b/3x3_reduce"
}
layer {
  name: "inception_4b/3x3"
  type: "Convolution"
  bottom: "inception_4b/3x3_reduce"
  top: "inception_4b/3x3"
  param {
    lr_mult: 1
    decay_mult: 1
  }
  param {
    lr_mult: 2
    decay_mult: 0
  }
  convolution_param {
    num_output: 224
    pad: 1
    kernel_size: 3
    weight_filler {
      type: "xavier"
      std: 0.03
    }
    bias_filler {
      type: "constant"
      value: 0.2
    }
  }
}
layer {
  name: "inception_4b/relu_3x3"
  type: "ReLU"
  bottom: "inception_4b/3x3"
  top: "inception_4b/3x3"
}
layer {
  name: "inception_4b/5x5_reduce"
  type: "Convolution"
  bottom: "inception_4a/output"
  top: "inception_4b/5x5_reduce"
  param {
    lr_mult: 1
    decay_mult: 1
  }
  param {
    lr_mult: 2
    decay_mult: 0
  }
  convolution_param {
    num_output: 24
    kernel_size: 1
    weight_filler {
      type: "xavier"
      std: 0.2
    }
    bias_filler {
      type: "constant"
      value: 0.2
    }
  }
}
layer {
  name: "inception_4b/relu_5x5_reduce"
  type: "ReLU"
  bottom: "inception_4b/5x5_reduce"
  top: "inception_4b/5x5_reduce"
}
layer {
  name: "inception_4b/5x5"
  type: "Convolution"
  bottom: "inception_4b/5x5_reduce"
  top: "inception_4b/5x5"
  param {
    lr_mult: 1
    decay_mult: 1
  }
  param {
    lr_mult: 2
    decay_mult: 0
  }
  convolution_param {
    num_output: 64
    pad: 2
    kernel_size: 5
    weight_filler {
      type: "xavier"
      std: 0.03
    }
    bias_filler {
      type: "constant"
      value: 0.2
    }
  }
}
layer {
  name: "inception_4b/relu_5x5"
  type: "ReLU"
  bottom: "inception_4b/5x5"
  top: "inception_4b/5x5"
}
layer {
  name: "inception_4b/pool"
  type: "Pooling"
  bottom: "inception_4a/output"
  top: "inception_4b/pool"
  pooling_param {
    pool: MAX
    kernel_size: 3
    stride: 1
    pad: 1
  }
}
layer {
  name: "inception_4b/pool_proj"
  type: "Convolution"
  bottom: "inception_4b/pool"
  top: "inception_4b/pool_proj"
  param {
    lr_mult: 1
    decay_mult: 1
  }
  param {
    lr_mult: 2
    decay_mult: 0
  }
  convolution_param {
    num_output: 64
    kernel_size: 1
    weight_filler {
      type: "xavier"
      std: 0.1
    }
    bias_filler {
      type: "constant"
      value: 0.2
    }
  }
}
layer {
  name: "inception_4b/relu_pool_proj"
  type: "ReLU"
  bottom: "inception_4b/pool_proj"
  top: "inception_4b/pool_proj"
}
layer {
  name: "inception_4b/output"
  type: "Concat"
  bottom: "inception_4b/1x1"
  bottom: "inception_4b/3x3"
  bottom: "inception_4b/5x5"
  bottom: "inception_4b/pool_proj"
  top: "inception_4b/output"
}
layer {
  name: "inception_4c/1x1"
  type: "Convolution"
  bottom: "inception_4b/output"
  top: "inception_4c/1x1"
  param {
    lr_mult: 1
    decay_mult: 1
  }
  param {
    lr_mult: 2
    decay_mult: 0
  }
  convolution_param {
    num_output: 128
    kernel_size: 1
    weight_filler {
      type: "xavier"
      std: 0.03
    }
    bias_filler {
      type: "constant"
      value: 0.2
    }
  }
}
layer {
  name: "inception_4c/relu_1x1"
  type: "ReLU"
  bottom: "inception_4c/1x1"
  top: "inception_4c/1x1"
}
layer {
  name: "inception_4c/3x3_reduce"
  type: "Convolution"
  bottom: "inception_4b/output"
  top: "inception_4c/3x3_reduce"
  param {
    lr_mult: 1
    decay_mult: 1
  }
  param {
    lr_mult: 2
    decay_mult: 0
  }
  convolution_param {
    num_output: 128
    kernel_size: 1
    weight_filler {
      type: "xavier"
      std: 0.09
    }
    bias_filler {
      type: "constant"
      value: 0.2
    }
  }
}
layer {
  name: "inception_4c/relu_3x3_reduce"
  type: "ReLU"
  bottom: "inception_4c/3x3_reduce"
  top: "inception_4c/3x3_reduce"
}
layer {
  name: "inception_4c/3x3"
  type: "Convolution"
  bottom: "inception_4c/3x3_reduce"
  top: "inception_4c/3x3"
  param {
    lr_mult: 1
    decay_mult: 1
  }
  param {
    lr_mult: 2
    decay_mult: 0
  }
  convolution_param {
    num_output: 256
    pad: 1
    kernel_size: 3
    weight_filler {
      type: "xavier"
      std: 0.03
    }
    bias_filler {
      type: "constant"
      value: 0.2
    }
  }
}
layer {
  name: "inception_4c/relu_3x3"
  type: "ReLU"
  bottom: "inception_4c/3x3"
  top: "inception_4c/3x3"
}
layer {
  name: "inception_4c/5x5_reduce"
  type: "Convolution"
  bottom: "inception_4b/output"
  top: "inception_4c/5x5_reduce"
  param {
    lr_mult: 1
    decay_mult: 1
  }
  param {
    lr_mult: 2
    decay_mult: 0
  }
  convolution_param {
    num_output: 24
    kernel_size: 1
    weight_filler {
      type: "xavier"
      std: 0.2
    }
    bias_filler {
      type: "constant"
      value: 0.2
    }
  }
}
layer {
  name: "inception_4c/relu_5x5_reduce"
  type: "ReLU"
  bottom: "inception_4c/5x5_reduce"
  top: "inception_4c/5x5_reduce"
}
layer {
  name: "inception_4c/5x5"
  type: "Convolution"
  bottom: "inception_4c/5x5_reduce"
  top: "inception_4c/5x5"
  param {
    lr_mult: 1
    decay_mult: 1
  }
  param {
    lr_mult: 2
    decay_mult: 0
  }
  convolution_param {
    num_output: 64
    pad: 2
    kernel_size: 5
    weight_filler {
      type: "xavier"
      std: 0.03
    }
    bias_filler {
      type: "constant"
      value: 0.2
    }
  }
}
layer {
  name: "inception_4c/relu_5x5"
  type: "ReLU"
  bottom: "inception_4c/5x5"
  top: "inception_4c/5x5"
}
layer {
  name: "inception_4c/pool"
  type: "Pooling"
  bottom: "inception_4b/output"
  top: "inception_4c/pool"
  pooling_param {
    pool: MAX
    kernel_size: 3
    stride: 1
    pad: 1
  }
}
layer {
  name: "inception_4c/pool_proj"
  type: "Convolution"
  bottom: "inception_4c/pool"
  top: "inception_4c/pool_proj"
  param {
    lr_mult: 1
    decay_mult: 1
  }
  param {
    lr_mult: 2
    decay_mult: 0
  }
  convolution_param {
    num_output: 64
    kernel_size: 1
    weight_filler {
      type: "xavier"
      std: 0.1
    }
    bias_filler {
      type: "constant"
      value: 0.2
    }
  }
}
layer {
  name: "inception_4c/relu_pool_proj"
  type: "ReLU"
  bottom: "inception_4c/pool_proj"
  top: "inception_4c/pool_proj"
}
layer {
  name: "inception_4c/output"
  type: "Concat"
  bottom: "inception_4c/1x1"
  bottom: "inception_4c/3x3"
  bottom: "inception_4c/5x5"
  bottom: "inception_4c/pool_proj"
  top: "inception_4c/output"
}
layer {
  name: "inception_4d/1x1"
  type: "Convolution"
  bottom: "inception_4c/output"
  top: "inception_4d/1x1"
  param {
    lr_mult: 1
    decay_mult: 1
  }
  param {
    lr_mult: 2
    decay_mult: 0
  }
  convolution_param {
    num_output: 112
    kernel_size: 1
    weight_filler {
      type: "xavier"
      std: 0.03
    }
    bias_filler {
      type: "constant"
      value: 0.2
    }
  }
}
layer {
  name: "inception_4d/relu_1x1"
  type: "ReLU"
  bottom: "inception_4d/1x1"
  top: "inception_4d/1x1"
}
layer {
  name: "inception_4d/3x3_reduce"
  type: "Convolution"
  bottom: "inception_4c/output"
  top: "inception_4d/3x3_reduce"
  param {
    lr_mult: 1
    decay_mult: 1
  }
  param {
    lr_mult: 2
    decay_mult: 0
  }
  convolution_param {
    num_output: 144
    kernel_size: 1
    weight_filler {
      type: "xavier"
      std: 0.09
    }
    bias_filler {
      type: "constant"
      value: 0.2
    }
  }
}
layer {
  name: "inception_4d/relu_3x3_reduce"
  type: "ReLU"
  bottom: "inception_4d/3x3_reduce"
  top: "inception_4d/3x3_reduce"
}
layer {
  name: "inception_4d/3x3"
  type: "Convolution"
  bottom: "inception_4d/3x3_reduce"
  top: "inception_4d/3x3"
  param {
    lr_mult: 1
    decay_mult: 1
  }
  param {
    lr_mult: 2
    decay_mult: 0
  }
  convolution_param {
    num_output: 288
    pad: 1
    kernel_size: 3
    weight_filler {
      type: "xavier"
      std: 0.03
    }
    bias_filler {
      type: "constant"
      value: 0.2
    }
  }
}
layer {
  name: "inception_4d/relu_3x3"
  type: "ReLU"
  bottom: "inception_4d/3x3"
  top: "inception_4d/3x3"
}
layer {
  name: "inception_4d/5x5_reduce"
  type: "Convolution"
  bottom: "inception_4c/output"
  top: "inception_4d/5x5_reduce"
  param {
    lr_mult: 1
    decay_mult: 1
  }
  param {
    lr_mult: 2
    decay_mult: 0
  }
  convolution_param {
    num_output: 32
    kernel_size: 1
    weight_filler {
      type: "xavier"
      std: 0.2
    }
    bias_filler {
      type: "constant"
      value: 0.2
    }
  }
}
layer {
  name: "inception_4d/relu_5x5_reduce"
  type: "ReLU"
  bottom: "inception_4d/5x5_reduce"
  top: "inception_4d/5x5_reduce"
}
layer {
  name: "inception_4d/5x5"
  type: "Convolution"
  bottom: "inception_4d/5x5_reduce"
  top: "inception_4d/5x5"
  param {
    lr_mult: 1
    decay_mult: 1
  }
  param {
    lr_mult: 2
    decay_mult: 0
  }
  convolution_param {
    num_output: 64
    pad: 2
    kernel_size: 5
    weight_filler {
      type: "xavier"
      std: 0.03
    }
    bias_filler {
      type: "constant"
      value: 0.2
    }
  }
}
layer {
  name: "inception_4d/relu_5x5"
  type: "ReLU"
  bottom: "inception_4d/5x5"
  top: "inception_4d/5x5"
}
layer {
  name: "inception_4d/pool"
  type: "Pooling"
  bottom: "inception_4c/output"
  top: "inception_4d/pool"
  pooling_param {
    pool: MAX
    kernel_size: 3
    stride: 1
    pad: 1
  }
}
layer {
  name: "inception_4d/pool_proj"
  type: "Convolution"
  bottom: "inception_4d/pool"
  top: "inception_4d/pool_proj"
  param {
    lr_mult: 1
    decay_mult: 1
  }
  param {
    lr_mult: 2
    decay_mult: 0
  }
  convolution_param {
    num_output: 64
    kernel_size: 1
    weight_filler {
      type: "xavier"
      std: 0.1
    }
    bias_filler {
      type: "constant"
      value: 0.2
    }
  }
}
layer {
  name: "inception_4d/relu_pool_proj"
  type: "ReLU"
  bottom: "inception_4d/pool_proj"
  top: "inception_4d/pool_proj"
}
layer {
  name: "inception_4d/output"
  type: "Concat"
  bottom: "inception_4d/1x1"
  bottom: "inception_4d/3x3"
  bottom: "inception_4d/5x5"
  bottom: "inception_4d/pool_proj"
  top: "inception_4d/output"
}
layer {
  name: "loss2/ave_pool"
  type: "Pooling"
  bottom: "inception_4d/output"
  top: "loss2/ave_pool"
  pooling_param {
    pool: AVE
    kernel_size: 5
    stride: 3
  }
}
layer {
  name: "loss2/conv"
  type: "Convolution"
  bottom: "loss2/ave_pool"
  top: "loss2/conv"
  param {
    lr_mult: 1
    decay_mult: 1
  }
  param {
    lr_mult: 2
    decay_mult: 0
  }
  convolution_param {
    num_output: 128
    kernel_size: 1
    weight_filler {
      type: "xavier"
      std: 0.08
    }
    bias_filler {
      type: "constant"
      value: 0.2
    }
  }
}
layer {
  name: "loss2/relu_conv"
  type: "ReLU"
  bottom: "loss2/conv"
  top: "loss2/conv"
}
layer {
  name: "loss2/fc"
  type: "InnerProduct"
  bottom: "loss2/conv"
  top: "loss2/fc"
  param {
    lr_mult: 1
    decay_mult: 1
  }
  param {
    lr_mult: 2
    decay_mult: 0
  }
  inner_product_param {
    num_output: 1024
    weight_filler {
      type: "xavier"
      std: 0.02
    }
    bias_filler {
      type: "constant"
      value: 0.2
    }
  }
}
layer {
  name: "loss2/relu_fc"
  type: "ReLU"
  bottom: "loss2/fc"
  top: "loss2/fc"
}
layer {
  name: "loss2/drop_fc"
  type: "Dropout"
  bottom: "loss2/fc"
  top: "loss2/fc"
  dropout_param {
    dropout_ratio: 0.7
  }
}
layer {
  name: "loss2/classifier_plantvillage"
  type: "InnerProduct"
  bottom: "loss2/fc"
  top: "loss2/classifier_plantvillage"
  param {
    lr_mult: 1
    decay_mult: 1
  }
  param {
    lr_mult: 2
    decay_mult: 0
  }
  inner_product_param {
    num_output: 38
    weight_filler {
      type: "xavier"
      std: 0.0009765625
    }
    bias_filler {
      type: "constant"
      value: 0
    }
  }
}
layer {
  name: "inception_4e/1x1"
  type: "Convolution"
  bottom: "inception_4d/output"
  top: "inception_4e/1x1"
  param {
    lr_mult: 1
    decay_mult: 1
  }
  param {
    lr_mult: 2
    decay_mult: 0
  }
  convolution_param {
    num_output: 256
    kernel_size: 1
    weight_filler {
      type: "xavier"
      std: 0.03
    }
    bias_filler {
      type: "constant"
      value: 0.2
    }
  }
}
layer {
  name: "inception_4e/relu_1x1"
  type: "ReLU"
  bottom: "inception_4e/1x1"
  top: "inception_4e/1x1"
}
layer {
  name: "inception_4e/3x3_reduce"
  type: "Convolution"
  bottom: "inception_4d/output"
  top: "inception_4e/3x3_reduce"
  param {
    lr_mult: 1
    decay_mult: 1
  }
  param {
    lr_mult: 2
    decay_mult: 0
  }
  convolution_param {
    num_output: 160
    kernel_size: 1
    weight_filler {
      type: "xavier"
      std: 0.09
    }
    bias_filler {
      type: "constant"
      value: 0.2
    }
  }
}
layer {
  name: "inception_4e/relu_3x3_reduce"
  type: "ReLU"
  bottom: "inception_4e/3x3_reduce"
  top: "inception_4e/3x3_reduce"
}
layer {
  name: "inception_4e/3x3"
  type: "Convolution"
  bottom: "inception_4e/3x3_reduce"
  top: "inception_4e/3x3"
  param {
    lr_mult: 1
    decay_mult: 1
  }
  param {
    lr_mult: 2
    decay_mult: 0
  }
  convolution_param {
    num_output: 320
    pad: 1
    kernel_size: 3
    weight_filler {
      type: "xavier"
      std: 0.03
    }
    bias_filler {
      type: "constant"
      value: 0.2
    }
  }
}
layer {
  name: "inception_4e/relu_3x3"
  type: "ReLU"
  bottom: "inception_4e/3x3"
  top: "inception_4e/3x3"
}
layer {
  name: "inception_4e/5x5_reduce"
  type: "Convolution"
  bottom: "inception_4d/output"
  top: "inception_4e/5x5_reduce"
  param {
    lr_mult: 1
    decay_mult: 1
  }
  param {
    lr_mult: 2
    decay_mult: 0
  }
  convolution_param {
    num_output: 32
    kernel_size: 1
    weight_filler {
      type: "xavier"
      std: 0.2
    }
    bias_filler {
      type: "constant"
      value: 0.2
    }
  }
}
layer {
  name: "inception_4e/relu_5x5_reduce"
  type: "ReLU"
  bottom: "inception_4e/5x5_reduce"
  top: "inception_4e/5x5_reduce"
}
layer {
  name: "inception_4e/5x5"
  type: "Convolution"
  bottom: "inception_4e/5x5_reduce"
  top: "inception_4e/5x5"
  p
I0403 15:11:53.182963 31278 layer_factory.hpp:77] Creating layer data
I0403 15:11:53.183603 31278 net.cpp:91] Creating Layer data
I0403 15:11:53.183639 31278 net.cpp:399] data -> data
I0403 15:11:53.183691 31278 net.cpp:399] data -> label
I0403 15:11:53.183729 31278 data_transformer.cpp:25] Loading mean file from: /home/mohanty/data/final_dataset/lmdb/color-60-40/mean.binaryproto
I0403 15:11:53.186010 31280 db_lmdb.cpp:38] Opened lmdb /home/mohanty/data/final_dataset/lmdb/color-60-40/test_db
I0403 15:11:53.197280 31278 data_layer.cpp:41] output data size: 24,3,224,224
I0403 15:11:53.228931 31278 net.cpp:141] Setting up data
I0403 15:11:53.228991 31278 net.cpp:148] Top shape: 24 3 224 224 (3612672)
I0403 15:11:53.229015 31278 net.cpp:148] Top shape: 24 (24)
I0403 15:11:53.229032 31278 net.cpp:156] Memory required for data: 14450784
I0403 15:11:53.229061 31278 layer_factory.hpp:77] Creating layer label_data_1_split
I0403 15:11:53.229089 31278 net.cpp:91] Creating Layer label_data_1_split
I0403 15:11:53.229107 31278 net.cpp:425] label_data_1_split <- label
I0403 15:11:53.229140 31278 net.cpp:399] label_data_1_split -> label_data_1_split_0
I0403 15:11:53.229171 31278 net.cpp:399] label_data_1_split -> label_data_1_split_1
I0403 15:11:53.229192 31278 net.cpp:399] label_data_1_split -> label_data_1_split_2
I0403 15:11:53.229214 31278 net.cpp:399] label_data_1_split -> label_data_1_split_3
I0403 15:11:53.229235 31278 net.cpp:399] label_data_1_split -> label_data_1_split_4
I0403 15:11:53.229270 31278 net.cpp:399] label_data_1_split -> label_data_1_split_5
I0403 15:11:53.229293 31278 net.cpp:399] label_data_1_split -> label_data_1_split_6
I0403 15:11:53.229315 31278 net.cpp:399] label_data_1_split -> label_data_1_split_7
I0403 15:11:53.229336 31278 net.cpp:399] label_data_1_split -> label_data_1_split_8
I0403 15:11:53.229358 31278 net.cpp:399] label_data_1_split -> label_data_1_split_9
I0403 15:11:53.229477 31278 net.cpp:141] Setting up label_data_1_split
I0403 15:11:53.229503 31278 net.cpp:148] Top shape: 24 (24)
I0403 15:11:53.229521 31278 net.cpp:148] Top shape: 24 (24)
I0403 15:11:53.229537 31278 net.cpp:148] Top shape: 24 (24)
I0403 15:11:53.229553 31278 net.cpp:148] Top shape: 24 (24)
I0403 15:11:53.229571 31278 net.cpp:148] Top shape: 24 (24)
I0403 15:11:53.229588 31278 net.cpp:148] Top shape: 24 (24)
I0403 15:11:53.229604 31278 net.cpp:148] Top shape: 24 (24)
I0403 15:11:53.229621 31278 net.cpp:148] Top shape: 24 (24)
I0403 15:11:53.229637 31278 net.cpp:148] Top shape: 24 (24)
I0403 15:11:53.229655 31278 net.cpp:148] Top shape: 24 (24)
I0403 15:11:53.229691 31278 net.cpp:156] Memory required for data: 14451744
I0403 15:11:53.229709 31278 layer_factory.hpp:77] Creating layer conv1/7x7_s2
I0403 15:11:53.229742 31278 net.cpp:91] Creating Layer conv1/7x7_s2
I0403 15:11:53.229761 31278 net.cpp:425] conv1/7x7_s2 <- data
I0403 15:11:53.229782 31278 net.cpp:399] conv1/7x7_s2 -> conv1/7x7_s2
I0403 15:11:53.376924 31278 net.cpp:141] Setting up conv1/7x7_s2
I0403 15:11:53.377002 31278 net.cpp:148] Top shape: 24 64 112 112 (19267584)
I0403 15:11:53.377022 31278 net.cpp:156] Memory required for data: 91522080
I0403 15:11:53.377054 31278 layer_factory.hpp:77] Creating layer conv1/relu_7x7
I0403 15:11:53.377081 31278 net.cpp:91] Creating Layer conv1/relu_7x7
I0403 15:11:53.377100 31278 net.cpp:425] conv1/relu_7x7 <- conv1/7x7_s2
I0403 15:11:53.377125 31278 net.cpp:386] conv1/relu_7x7 -> conv1/7x7_s2 (in-place)
I0403 15:11:53.377406 31278 net.cpp:141] Setting up conv1/relu_7x7
I0403 15:11:53.377435 31278 net.cpp:148] Top shape: 24 64 112 112 (19267584)
I0403 15:11:53.377451 31278 net.cpp:156] Memory required for data: 168592416
I0403 15:11:53.377467 31278 layer_factory.hpp:77] Creating layer pool1/3x3_s2
I0403 15:11:53.377516 31278 net.cpp:91] Creating Layer pool1/3x3_s2
I0403 15:11:53.377538 31278 net.cpp:425] pool1/3x3_s2 <- conv1/7x7_s2
I0403 15:11:53.377558 31278 net.cpp:399] pool1/3x3_s2 -> pool1/3x3_s2
I0403 15:11:53.377638 31278 net.cpp:141] Setting up pool1/3x3_s2
I0403 15:11:53.377665 31278 net.cpp:148] Top shape: 24 64 56 56 (4816896)
I0403 15:11:53.377681 31278 net.cpp:156] Memory required for data: 187860000
I0403 15:11:53.377697 31278 layer_factory.hpp:77] Creating layer pool1/norm1
I0403 15:11:53.377722 31278 net.cpp:91] Creating Layer pool1/norm1
I0403 15:11:53.377740 31278 net.cpp:425] pool1/norm1 <- pool1/3x3_s2
I0403 15:11:53.377761 31278 net.cpp:399] pool1/norm1 -> pool1/norm1
I0403 15:11:53.378072 31278 net.cpp:141] Setting up pool1/norm1
I0403 15:11:53.378100 31278 net.cpp:148] Top shape: 24 64 56 56 (4816896)
I0403 15:11:53.378116 31278 net.cpp:156] Memory required for data: 207127584
I0403 15:11:53.378132 31278 layer_factory.hpp:77] Creating layer conv2/3x3_reduce
I0403 15:11:53.378159 31278 net.cpp:91] Creating Layer conv2/3x3_reduce
I0403 15:11:53.378176 31278 net.cpp:425] conv2/3x3_reduce <- pool1/norm1
I0403 15:11:53.378199 31278 net.cpp:399] conv2/3x3_reduce -> conv2/3x3_reduce
I0403 15:11:53.379658 31278 net.cpp:141] Setting up conv2/3x3_reduce
I0403 15:11:53.379693 31278 net.cpp:148] Top shape: 24 64 56 56 (4816896)
I0403 15:11:53.379709 31278 net.cpp:156] Memory required for data: 226395168
I0403 15:11:53.379732 31278 layer_factory.hpp:77] Creating layer conv2/relu_3x3_reduce
I0403 15:11:53.379751 31278 net.cpp:91] Creating Layer conv2/relu_3x3_reduce
I0403 15:11:53.379768 31278 net.cpp:425] conv2/relu_3x3_reduce <- conv2/3x3_reduce
I0403 15:11:53.379789 31278 net.cpp:386] conv2/relu_3x3_reduce -> conv2/3x3_reduce (in-place)
I0403 15:11:53.380060 31278 net.cpp:141] Setting up conv2/relu_3x3_reduce
I0403 15:11:53.380090 31278 net.cpp:148] Top shape: 24 64 56 56 (4816896)
I0403 15:11:53.380107 31278 net.cpp:156] Memory required for data: 245662752
I0403 15:11:53.380123 31278 layer_factory.hpp:77] Creating layer conv2/3x3
I0403 15:11:53.380147 31278 net.cpp:91] Creating Layer conv2/3x3
I0403 15:11:53.380168 31278 net.cpp:425] conv2/3x3 <- conv2/3x3_reduce
I0403 15:11:53.380188 31278 net.cpp:399] conv2/3x3 -> conv2/3x3
I0403 15:11:53.382616 31278 net.cpp:141] Setting up conv2/3x3
I0403 15:11:53.382650 31278 net.cpp:148] Top shape: 24 192 56 56 (14450688)
I0403 15:11:53.382668 31278 net.cpp:156] Memory required for data: 303465504
I0403 15:11:53.382690 31278 layer_factory.hpp:77] Creating layer conv2/relu_3x3
I0403 15:11:53.382709 31278 net.cpp:91] Creating Layer conv2/relu_3x3
I0403 15:11:53.382726 31278 net.cpp:425] conv2/relu_3x3 <- conv2/3x3
I0403 15:11:53.382748 31278 net.cpp:386] conv2/relu_3x3 -> conv2/3x3 (in-place)
I0403 15:11:53.382956 31278 net.cpp:141] Setting up conv2/relu_3x3
I0403 15:11:53.382984 31278 net.cpp:148] Top shape: 24 192 56 56 (14450688)
I0403 15:11:53.383033 31278 net.cpp:156] Memory required for data: 361268256
I0403 15:11:53.383049 31278 layer_factory.hpp:77] Creating layer conv2/norm2
I0403 15:11:53.383071 31278 net.cpp:91] Creating Layer conv2/norm2
I0403 15:11:53.383088 31278 net.cpp:425] conv2/norm2 <- conv2/3x3
I0403 15:11:53.383108 31278 net.cpp:399] conv2/norm2 -> conv2/norm2
I0403 15:11:53.383430 31278 net.cpp:141] Setting up conv2/norm2
I0403 15:11:53.383458 31278 net.cpp:148] Top shape: 24 192 56 56 (14450688)
I0403 15:11:53.383476 31278 net.cpp:156] Memory required for data: 419071008
I0403 15:11:53.383492 31278 layer_factory.hpp:77] Creating layer pool2/3x3_s2
I0403 15:11:53.383513 31278 net.cpp:91] Creating Layer pool2/3x3_s2
I0403 15:11:53.383530 31278 net.cpp:425] pool2/3x3_s2 <- conv2/norm2
I0403 15:11:53.383548 31278 net.cpp:399] pool2/3x3_s2 -> pool2/3x3_s2
I0403 15:11:53.383606 31278 net.cpp:141] Setting up pool2/3x3_s2
I0403 15:11:53.383632 31278 net.cpp:148] Top shape: 24 192 28 28 (3612672)
I0403 15:11:53.383646 31278 net.cpp:156] Memory required for data: 433521696
I0403 15:11:53.383661 31278 layer_factory.hpp:77] Creating layer pool2/3x3_s2_pool2/3x3_s2_0_split
I0403 15:11:53.383682 31278 net.cpp:91] Creating Layer pool2/3x3_s2_pool2/3x3_s2_0_split
I0403 15:11:53.383699 31278 net.cpp:425] pool2/3x3_s2_pool2/3x3_s2_0_split <- pool2/3x3_s2
I0403 15:11:53.383718 31278 net.cpp:399] pool2/3x3_s2_pool2/3x3_s2_0_split -> pool2/3x3_s2_pool2/3x3_s2_0_split_0
I0403 15:11:53.383738 31278 net.cpp:399] pool2/3x3_s2_pool2/3x3_s2_0_split -> pool2/3x3_s2_pool2/3x3_s2_0_split_1
I0403 15:11:53.383759 31278 net.cpp:399] pool2/3x3_s2_pool2/3x3_s2_0_split -> pool2/3x3_s2_pool2/3x3_s2_0_split_2
I0403 15:11:53.383777 31278 net.cpp:399] pool2/3x3_s2_pool2/3x3_s2_0_split -> pool2/3x3_s2_pool2/3x3_s2_0_split_3
I0403 15:11:53.383848 31278 net.cpp:141] Setting up pool2/3x3_s2_pool2/3x3_s2_0_split
I0403 15:11:53.383872 31278 net.cpp:148] Top shape: 24 192 28 28 (3612672)
I0403 15:11:53.383889 31278 net.cpp:148] Top shape: 24 192 28 28 (3612672)
I0403 15:11:53.383906 31278 net.cpp:148] Top shape: 24 192 28 28 (3612672)
I0403 15:11:53.383924 31278 net.cpp:148] Top shape: 24 192 28 28 (3612672)
I0403 15:11:53.383937 31278 net.cpp:156] Memory required for data: 491324448
I0403 15:11:53.383952 31278 layer_factory.hpp:77] Creating layer inception_3a/1x1
I0403 15:11:53.383975 31278 net.cpp:91] Creating Layer inception_3a/1x1
I0403 15:11:53.383993 31278 net.cpp:425] inception_3a/1x1 <- pool2/3x3_s2_pool2/3x3_s2_0_split_0
I0403 15:11:53.384016 31278 net.cpp:399] inception_3a/1x1 -> inception_3a/1x1
I0403 15:11:53.385607 31278 net.cpp:141] Setting up inception_3a/1x1
I0403 15:11:53.385640 31278 net.cpp:148] Top shape: 24 64 28 28 (1204224)
I0403 15:11:53.385658 31278 net.cpp:156] Memory required for data: 496141344
I0403 15:11:53.385679 31278 layer_factory.hpp:77] Creating layer inception_3a/relu_1x1
I0403 15:11:53.385699 31278 net.cpp:91] Creating Layer inception_3a/relu_1x1
I0403 15:11:53.385715 31278 net.cpp:425] inception_3a/relu_1x1 <- inception_3a/1x1
I0403 15:11:53.385732 31278 net.cpp:386] inception_3a/relu_1x1 -> inception_3a/1x1 (in-place)
I0403 15:11:53.385917 31278 net.cpp:141] Setting up inception_3a/relu_1x1
I0403 15:11:53.385946 31278 net.cpp:148] Top shape: 24 64 28 28 (1204224)
I0403 15:11:53.385960 31278 net.cpp:156] Memory required for data: 500958240
I0403 15:11:53.385975 31278 layer_factory.hpp:77] Creating layer inception_3a/3x3_reduce
I0403 15:11:53.385999 31278 net.cpp:91] Creating Layer inception_3a/3x3_reduce
I0403 15:11:53.386018 31278 net.cpp:425] inception_3a/3x3_reduce <- pool2/3x3_s2_pool2/3x3_s2_0_split_1
I0403 15:11:53.386040 31278 net.cpp:399] inception_3a/3x3_reduce -> inception_3a/3x3_reduce
I0403 15:11:53.387828 31278 net.cpp:141] Setting up inception_3a/3x3_reduce
I0403 15:11:53.387861 31278 net.cpp:148] Top shape: 24 96 28 28 (1806336)
I0403 15:11:53.387878 31278 net.cpp:156] Memory required for data: 508183584
I0403 15:11:53.387902 31278 layer_factory.hpp:77] Creating layer inception_3a/relu_3x3_reduce
I0403 15:11:53.387939 31278 net.cpp:91] Creating Layer inception_3a/relu_3x3_reduce
I0403 15:11:53.387958 31278 net.cpp:425] inception_3a/relu_3x3_reduce <- inception_3a/3x3_reduce
I0403 15:11:53.387998 31278 net.cpp:386] inception_3a/relu_3x3_reduce -> inception_3a/3x3_reduce (in-place)
I0403 15:11:53.388195 31278 net.cpp:141] Setting up inception_3a/relu_3x3_reduce
I0403 15:11:53.388221 31278 net.cpp:148] Top shape: 24 96 28 28 (1806336)
I0403 15:11:53.388237 31278 net.cpp:156] Memory required for data: 515408928
I0403 15:11:53.388265 31278 layer_factory.hpp:77] Creating layer inception_3a/3x3
I0403 15:11:53.388293 31278 net.cpp:91] Creating Layer inception_3a/3x3
I0403 15:11:53.388310 31278 net.cpp:425] inception_3a/3x3 <- inception_3a/3x3_reduce
I0403 15:11:53.388330 31278 net.cpp:399] inception_3a/3x3 -> inception_3a/3x3
I0403 15:11:53.390064 31278 net.cpp:141] Setting up inception_3a/3x3
I0403 15:11:53.390094 31278 net.cpp:148] Top shape: 24 128 28 28 (2408448)
I0403 15:11:53.390110 31278 net.cpp:156] Memory required for data: 525042720
I0403 15:11:53.390130 31278 layer_factory.hpp:77] Creating layer inception_3a/relu_3x3
I0403 15:11:53.390149 31278 net.cpp:91] Creating Layer inception_3a/relu_3x3
I0403 15:11:53.390166 31278 net.cpp:425] inception_3a/relu_3x3 <- inception_3a/3x3
I0403 15:11:53.390187 31278 net.cpp:386] inception_3a/relu_3x3 -> inception_3a/3x3 (in-place)
I0403 15:11:53.390476 31278 net.cpp:141] Setting up inception_3a/relu_3x3
I0403 15:11:53.390503 31278 net.cpp:148] Top shape: 24 128 28 28 (2408448)
I0403 15:11:53.390519 31278 net.cpp:156] Memory required for data: 534676512
I0403 15:11:53.390535 31278 layer_factory.hpp:77] Creating layer inception_3a/5x5_reduce
I0403 15:11:53.390558 31278 net.cpp:91] Creating Layer inception_3a/5x5_reduce
I0403 15:11:53.390579 31278 net.cpp:425] inception_3a/5x5_reduce <- pool2/3x3_s2_pool2/3x3_s2_0_split_2
I0403 15:11:53.390601 31278 net.cpp:399] inception_3a/5x5_reduce -> inception_3a/5x5_reduce
I0403 15:11:53.391593 31278 net.cpp:141] Setting up inception_3a/5x5_reduce
I0403 15:11:53.391623 31278 net.cpp:148] Top shape: 24 16 28 28 (301056)
I0403 15:11:53.391639 31278 net.cpp:156] Memory required for data: 535880736
I0403 15:11:53.391659 31278 layer_factory.hpp:77] Creating layer inception_3a/relu_5x5_reduce
I0403 15:11:53.391675 31278 net.cpp:91] Creating Layer inception_3a/relu_5x5_reduce
I0403 15:11:53.391691 31278 net.cpp:425] inception_3a/relu_5x5_reduce <- inception_3a/5x5_reduce
I0403 15:11:53.391711 31278 net.cpp:386] inception_3a/relu_5x5_reduce -> inception_3a/5x5_reduce (in-place)
I0403 15:11:53.392007 31278 net.cpp:141] Setting up inception_3a/relu_5x5_reduce
I0403 15:11:53.392035 31278 net.cpp:148] Top shape: 24 16 28 28 (301056)
I0403 15:11:53.392056 31278 net.cpp:156] Memory required for data: 537084960
I0403 15:11:53.392071 31278 layer_factory.hpp:77] Creating layer inception_3a/5x5
I0403 15:11:53.392094 31278 net.cpp:91] Creating Layer inception_3a/5x5
I0403 15:11:53.392117 31278 net.cpp:425] inception_3a/5x5 <- inception_3a/5x5_reduce
I0403 15:11:53.392139 31278 net.cpp:399] inception_3a/5x5 -> inception_3a/5x5
I0403 15:11:53.393162 31278 net.cpp:141] Setting up inception_3a/5x5
I0403 15:11:53.393193 31278 net.cpp:148] Top shape: 24 32 28 28 (602112)
I0403 15:11:53.393208 31278 net.cpp:156] Memory required for data: 539493408
I0403 15:11:53.393227 31278 layer_factory.hpp:77] Creating layer inception_3a/relu_5x5
I0403 15:11:53.393246 31278 net.cpp:91] Creating Layer inception_3a/relu_5x5
I0403 15:11:53.393270 31278 net.cpp:425] inception_3a/relu_5x5 <- inception_3a/5x5
I0403 15:11:53.393290 31278 net.cpp:386] inception_3a/relu_5x5 -> inception_3a/5x5 (in-place)
I0403 15:11:53.393470 31278 net.cpp:141] Setting up inception_3a/relu_5x5
I0403 15:11:53.393496 31278 net.cpp:148] Top shape: 24 32 28 28 (602112)
I0403 15:11:53.393513 31278 net.cpp:156] Memory required for data: 541901856
I0403 15:11:53.393528 31278 layer_factory.hpp:77] Creating layer inception_3a/pool
I0403 15:11:53.393549 31278 net.cpp:91] Creating Layer inception_3a/pool
I0403 15:11:53.393568 31278 net.cpp:425] inception_3a/pool <- pool2/3x3_s2_pool2/3x3_s2_0_split_3
I0403 15:11:53.393602 31278 net.cpp:399] inception_3a/pool -> inception_3a/pool
I0403 15:11:53.393663 31278 net.cpp:141] Setting up inception_3a/pool
I0403 15:11:53.393688 31278 net.cpp:148] Top shape: 24 192 28 28 (3612672)
I0403 15:11:53.393703 31278 net.cpp:156] Memory required for data: 556352544
I0403 15:11:53.393719 31278 layer_factory.hpp:77] Creating layer inception_3a/pool_proj
I0403 15:11:53.393743 31278 net.cpp:91] Creating Layer inception_3a/pool_proj
I0403 15:11:53.393760 31278 net.cpp:425] inception_3a/pool_proj <- inception_3a/pool
I0403 15:11:53.393784 31278 net.cpp:399] inception_3a/pool_proj -> inception_3a/pool_proj
I0403 15:11:53.394775 31278 net.cpp:141] Setting up inception_3a/pool_proj
I0403 15:11:53.394804 31278 net.cpp:148] Top shape: 24 32 28 28 (602112)
I0403 15:11:53.394825 31278 net.cpp:156] Memory required for data: 558760992
I0403 15:11:53.394847 31278 layer_factory.hpp:77] Creating layer inception_3a/relu_pool_proj
I0403 15:11:53.394867 31278 net.cpp:91] Creating Layer inception_3a/relu_pool_proj
I0403 15:11:53.394884 31278 net.cpp:425] inception_3a/relu_pool_proj <- inception_3a/pool_proj
I0403 15:11:53.394906 31278 net.cpp:386] inception_3a/relu_pool_proj -> inception_3a/pool_proj (in-place)
I0403 15:11:53.395187 31278 net.cpp:141] Setting up inception_3a/relu_pool_proj
I0403 15:11:53.395215 31278 net.cpp:148] Top shape: 24 32 28 28 (602112)
I0403 15:11:53.395231 31278 net.cpp:156] Memory required for data: 561169440
I0403 15:11:53.395248 31278 layer_factory.hpp:77] Creating layer inception_3a/output
I0403 15:11:53.395272 31278 net.cpp:91] Creating Layer inception_3a/output
I0403 15:11:53.395288 31278 net.cpp:425] inception_3a/output <- inception_3a/1x1
I0403 15:11:53.395305 31278 net.cpp:425] inception_3a/output <- inception_3a/3x3
I0403 15:11:53.395321 31278 net.cpp:425] inception_3a/output <- inception_3a/5x5
I0403 15:11:53.395339 31278 net.cpp:425] inception_3a/output <- inception_3a/pool_proj
I0403 15:11:53.395359 31278 net.cpp:399] inception_3a/output -> inception_3a/output
I0403 15:11:53.395406 31278 net.cpp:141] Setting up inception_3a/output
I0403 15:11:53.395434 31278 net.cpp:148] Top shape: 24 256 28 28 (4816896)
I0403 15:11:53.395450 31278 net.cpp:156] Memory required for data: 580437024
I0403 15:11:53.395467 31278 layer_factory.hpp:77] Creating layer inception_3a/output_inception_3a/output_0_split
I0403 15:11:53.395484 31278 net.cpp:91] Creating Layer inception_3a/output_inception_3a/output_0_split
I0403 15:11:53.395500 31278 net.cpp:425] inception_3a/output_inception_3a/output_0_split <- inception_3a/output
I0403 15:11:53.395519 31278 net.cpp:399] inception_3a/output_inception_3a/output_0_split -> inception_3a/output_inception_3a/output_0_split_0
I0403 15:11:53.395539 31278 net.cpp:399] inception_3a/output_inception_3a/output_0_split -> inception_3a/output_inception_3a/output_0_split_1
I0403 15:11:53.395565 31278 net.cpp:399] inception_3a/output_inception_3a/output_0_split -> inception_3a/output_inception_3a/output_0_split_2
I0403 15:11:53.395586 31278 net.cpp:399] inception_3a/output_inception_3a/output_0_split -> inception_3a/output_inception_3a/output_0_split_3
I0403 15:11:53.395663 31278 net.cpp:141] Setting up inception_3a/output_inception_3a/output_0_split
I0403 15:11:53.395690 31278 net.cpp:148] Top shape: 24 256 28 28 (4816896)
I0403 15:11:53.395709 31278 net.cpp:148] Top shape: 24 256 28 28 (4816896)
I0403 15:11:53.395726 31278 net.cpp:148] Top shape: 24 256 28 28 (4816896)
I0403 15:11:53.395742 31278 net.cpp:148] Top shape: 24 256 28 28 (4816896)
I0403 15:11:53.395757 31278 net.cpp:156] Memory required for data: 657507360
I0403 15:11:53.395772 31278 layer_factory.hpp:77] Creating layer inception_3b/1x1
I0403 15:11:53.395797 31278 net.cpp:91] Creating Layer inception_3b/1x1
I0403 15:11:53.395814 31278 net.cpp:425] inception_3b/1x1 <- inception_3a/output_inception_3a/output_0_split_0
I0403 15:11:53.395835 31278 net.cpp:399] inception_3b/1x1 -> inception_3b/1x1
I0403 15:11:53.396991 31278 net.cpp:141] Setting up inception_3b/1x1
I0403 15:11:53.397033 31278 net.cpp:148] Top shape: 24 128 28 28 (2408448)
I0403 15:11:53.397052 31278 net.cpp:156] Memory required for data: 667141152
I0403 15:11:53.397071 31278 layer_factory.hpp:77] Creating layer inception_3b/relu_1x1
I0403 15:11:53.397089 31278 net.cpp:91] Creating Layer inception_3b/relu_1x1
I0403 15:11:53.397106 31278 net.cpp:425] inception_3b/relu_1x1 <- inception_3b/1x1
I0403 15:11:53.397126 31278 net.cpp:386] inception_3b/relu_1x1 -> inception_3b/1x1 (in-place)
I0403 15:11:53.397312 31278 net.cpp:141] Setting up inception_3b/relu_1x1
I0403 15:11:53.397339 31278 net.cpp:148] Top shape: 24 128 28 28 (2408448)
I0403 15:11:53.397356 31278 net.cpp:156] Memory required for data: 676774944
I0403 15:11:53.397370 31278 layer_factory.hpp:77] Creating layer inception_3b/3x3_reduce
I0403 15:11:53.397394 31278 net.cpp:91] Creating Layer inception_3b/3x3_reduce
I0403 15:11:53.397413 31278 net.cpp:425] inception_3b/3x3_reduce <- inception_3a/output_inception_3a/output_0_split_1
I0403 15:11:53.397434 31278 net.cpp:399] inception_3b/3x3_reduce -> inception_3b/3x3_reduce
I0403 15:11:53.398586 31278 net.cpp:141] Setting up inception_3b/3x3_reduce
I0403 15:11:53.398617 31278 net.cpp:148] Top shape: 24 128 28 28 (2408448)
I0403 15:11:53.398633 31278 net.cpp:156] Memory required for data: 686408736
I0403 15:11:53.398653 31278 layer_factory.hpp:77] Creating layer inception_3b/relu_3x3_reduce
I0403 15:11:53.398670 31278 net.cpp:91] Creating Layer inception_3b/relu_3x3_reduce
I0403 15:11:53.398687 31278 net.cpp:425] inception_3b/relu_3x3_reduce <- inception_3b/3x3_reduce
I0403 15:11:53.398706 31278 net.cpp:386] inception_3b/relu_3x3_reduce -> inception_3b/3x3_reduce (in-place)
I0403 15:11:53.398888 31278 net.cpp:141] Setting up inception_3b/relu_3x3_reduce
I0403 15:11:53.398916 31278 net.cpp:148] Top shape: 24 128 28 28 (2408448)
I0403 15:11:53.398931 31278 net.cpp:156] Memory required for data: 696042528
I0403 15:11:53.398946 31278 layer_factory.hpp:77] Creating layer inception_3b/3x3
I0403 15:11:53.398970 31278 net.cpp:91] Creating Layer inception_3b/3x3
I0403 15:11:53.398989 31278 net.cpp:425] inception_3b/3x3 <- inception_3b/3x3_reduce
I0403 15:11:53.399013 31278 net.cpp:399] inception_3b/3x3 -> inception_3b/3x3
I0403 15:11:53.401998 31278 net.cpp:141] Setting up inception_3b/3x3
I0403 15:11:53.402029 31278 net.cpp:148] Top shape: 24 192 28 28 (3612672)
I0403 15:11:53.402045 31278 net.cpp:156] Memory required for data: 710493216
I0403 15:11:53.402065 31278 layer_factory.hpp:77] Creating layer inception_3b/relu_3x3
I0403 15:11:53.402084 31278 net.cpp:91] Creating Layer inception_3b/relu_3x3
I0403 15:11:53.402101 31278 net.cpp:425] inception_3b/relu_3x3 <- inception_3b/3x3
I0403 15:11:53.402122 31278 net.cpp:386] inception_3b/relu_3x3 -> inception_3b/3x3 (in-place)
I0403 15:11:53.402411 31278 net.cpp:141] Setting up inception_3b/relu_3x3
I0403 15:11:53.402441 31278 net.cpp:148] Top shape: 24 192 28 28 (3612672)
I0403 15:11:53.402456 31278 net.cpp:156] Memory required for data: 724943904
I0403 15:11:53.402472 31278 layer_factory.hpp:77] Creating layer inception_3b/5x5_reduce
I0403 15:11:53.402497 31278 net.cpp:91] Creating Layer inception_3b/5x5_reduce
I0403 15:11:53.402515 31278 net.cpp:425] inception_3b/5x5_reduce <- inception_3a/output_inception_3a/output_0_split_2
I0403 15:11:53.402539 31278 net.cpp:399] inception_3b/5x5_reduce -> inception_3b/5x5_reduce
I0403 15:11:53.403558 31278 net.cpp:141] Setting up inception_3b/5x5_reduce
I0403 15:11:53.403589 31278 net.cpp:148] Top shape: 24 32 28 28 (602112)
I0403 15:11:53.403604 31278 net.cpp:156] Memory required for data: 727352352
I0403 15:11:53.403625 31278 layer_factory.hpp:77] Creating layer inception_3b/relu_5x5_reduce
I0403 15:11:53.403643 31278 net.cpp:91] Creating Layer inception_3b/relu_5x5_reduce
I0403 15:11:53.403658 31278 net.cpp:425] inception_3b/relu_5x5_reduce <- inception_3b/5x5_reduce
I0403 15:11:53.403679 31278 net.cpp:386] inception_3b/relu_5x5_reduce -> inception_3b/5x5_reduce (in-place)
I0403 15:11:53.403859 31278 net.cpp:141] Setting up inception_3b/relu_5x5_reduce
I0403 15:11:53.403899 31278 net.cpp:148] Top shape: 24 32 28 28 (602112)
I0403 15:11:53.403915 31278 net.cpp:156] Memory required for data: 729760800
I0403 15:11:53.403933 31278 layer_factory.hpp:77] Creating layer inception_3b/5x5
I0403 15:11:53.403955 31278 net.cpp:91] Creating Layer inception_3b/5x5
I0403 15:11:53.403975 31278 net.cpp:425] inception_3b/5x5 <- inception_3b/5x5_reduce
I0403 15:11:53.403996 31278 net.cpp:399] inception_3b/5x5 -> inception_3b/5x5
I0403 15:11:53.406003 31278 net.cpp:141] Setting up inception_3b/5x5
I0403 15:11:53.406035 31278 net.cpp:148] Top shape: 24 96 28 28 (1806336)
I0403 15:11:53.406054 31278 net.cpp:156] Memory required for data: 736986144
I0403 15:11:53.406075 31278 layer_factory.hpp:77] Creating layer inception_3b/relu_5x5
I0403 15:11:53.406092 31278 net.cpp:91] Creating Layer inception_3b/relu_5x5
I0403 15:11:53.406108 31278 net.cpp:425] inception_3b/relu_5x5 <- inception_3b/5x5
I0403 15:11:53.406127 31278 net.cpp:386] inception_3b/relu_5x5 -> inception_3b/5x5 (in-place)
I0403 15:11:53.406330 31278 net.cpp:141] Setting up inception_3b/relu_5x5
I0403 15:11:53.406358 31278 net.cpp:148] Top shape: 24 96 28 28 (1806336)
I0403 15:11:53.406373 31278 net.cpp:156] Memory required for data: 744211488
I0403 15:11:53.406389 31278 layer_factory.hpp:77] Creating layer inception_3b/pool
I0403 15:11:53.406407 31278 net.cpp:91] Creating Layer inception_3b/pool
I0403 15:11:53.406424 31278 net.cpp:425] inception_3b/pool <- inception_3a/output_inception_3a/output_0_split_3
I0403 15:11:53.406443 31278 net.cpp:399] inception_3b/pool -> inception_3b/pool
I0403 15:11:53.406502 31278 net.cpp:141] Setting up inception_3b/pool
I0403 15:11:53.406529 31278 net.cpp:148] Top shape: 24 256 28 28 (4816896)
I0403 15:11:53.406545 31278 net.cpp:156] Memory required for data: 763479072
I0403 15:11:53.406560 31278 layer_factory.hpp:77] Creating layer inception_3b/pool_proj
I0403 15:11:53.406584 31278 net.cpp:91] Creating Layer inception_3b/pool_proj
I0403 15:11:53.406604 31278 net.cpp:425] inception_3b/pool_proj <- inception_3b/pool
I0403 15:11:53.406623 31278 net.cpp:399] inception_3b/pool_proj -> inception_3b/pool_proj
I0403 15:11:53.407703 31278 net.cpp:141] Setting up inception_3b/pool_proj
I0403 15:11:53.407732 31278 net.cpp:148] Top shape: 24 64 28 28 (1204224)
I0403 15:11:53.407749 31278 net.cpp:156] Memory required for data: 768295968
I0403 15:11:53.407769 31278 layer_factory.hpp:77] Creating layer inception_3b/relu_pool_proj
I0403 15:11:53.407789 31278 net.cpp:91] Creating Layer inception_3b/relu_pool_proj
I0403 15:11:53.407806 31278 net.cpp:425] inception_3b/relu_pool_proj <- inception_3b/pool_proj
I0403 15:11:53.407826 31278 net.cpp:386] inception_3b/relu_pool_proj -> inception_3b/pool_proj (in-place)
I0403 15:11:53.408231 31278 net.cpp:141] Setting up inception_3b/relu_pool_proj
I0403 15:11:53.408263 31278 net.cpp:148] Top shape: 24 64 28 28 (1204224)
I0403 15:11:53.408284 31278 net.cpp:156] Memory required for data: 773112864
I0403 15:11:53.408300 31278 layer_factory.hpp:77] Creating layer inception_3b/output
I0403 15:11:53.408319 31278 net.cpp:91] Creating Layer inception_3b/output
I0403 15:11:53.408335 31278 net.cpp:425] inception_3b/output <- inception_3b/1x1
I0403 15:11:53.408352 31278 net.cpp:425] inception_3b/output <- inception_3b/3x3
I0403 15:11:53.408370 31278 net.cpp:425] inception_3b/output <- inception_3b/5x5
I0403 15:11:53.408386 31278 net.cpp:425] inception_3b/output <- inception_3b/pool_proj
I0403 15:11:53.408406 31278 net.cpp:399] inception_3b/output -> inception_3b/output
I0403 15:11:53.408452 31278 net.cpp:141] Setting up inception_3b/output
I0403 15:11:53.408480 31278 net.cpp:148] Top shape: 24 480 28 28 (9031680)
I0403 15:11:53.408498 31278 net.cpp:156] Memory required for data: 809239584
I0403 15:11:53.408512 31278 layer_factory.hpp:77] Creating layer pool3/3x3_s2
I0403 15:11:53.408530 31278 net.cpp:91] Creating Layer pool3/3x3_s2
I0403 15:11:53.408547 31278 net.cpp:425] pool3/3x3_s2 <- inception_3b/output
I0403 15:11:53.408570 31278 net.cpp:399] pool3/3x3_s2 -> pool3/3x3_s2
I0403 15:11:53.408643 31278 net.cpp:141] Setting up pool3/3x3_s2
I0403 15:11:53.408668 31278 net.cpp:148] Top shape: 24 480 14 14 (2257920)
I0403 15:11:53.408684 31278 net.cpp:156] Memory required for data: 818271264
I0403 15:11:53.408699 31278 layer_factory.hpp:77] Creating layer pool3/3x3_s2_pool3/3x3_s2_0_split
I0403 15:11:53.408720 31278 net.cpp:91] Creating Layer pool3/3x3_s2_pool3/3x3_s2_0_split
I0403 15:11:53.408737 31278 net.cpp:425] pool3/3x3_s2_pool3/3x3_s2_0_split <- pool3/3x3_s2
I0403 15:11:53.408756 31278 net.cpp:399] pool3/3x3_s2_pool3/3x3_s2_0_split -> pool3/3x3_s2_pool3/3x3_s2_0_split_0
I0403 15:11:53.408776 31278 net.cpp:399] pool3/3x3_s2_pool3/3x3_s2_0_split -> pool3/3x3_s2_pool3/3x3_s2_0_split_1
I0403 15:11:53.408798 31278 net.cpp:399] pool3/3x3_s2_pool3/3x3_s2_0_split -> pool3/3x3_s2_pool3/3x3_s2_0_split_2
I0403 15:11:53.408820 31278 net.cpp:399] pool3/3x3_s2_pool3/3x3_s2_0_split -> pool3/3x3_s2_pool3/3x3_s2_0_split_3
I0403 15:11:53.408898 31278 net.cpp:141] Setting up pool3/3x3_s2_pool3/3x3_s2_0_split
I0403 15:11:53.408923 31278 net.cpp:148] Top shape: 24 480 14 14 (2257920)
I0403 15:11:53.408941 31278 net.cpp:148] Top shape: 24 480 14 14 (2257920)
I0403 15:11:53.408957 31278 net.cpp:148] Top shape: 24 480 14 14 (2257920)
I0403 15:11:53.408973 31278 net.cpp:148] Top shape: 24 480 14 14 (2257920)
I0403 15:11:53.408987 31278 net.cpp:156] Memory required for data: 854397984
I0403 15:11:53.409003 31278 layer_factory.hpp:77] Creating layer inception_4a/1x1
I0403 15:11:53.409026 31278 net.cpp:91] Creating Layer inception_4a/1x1
I0403 15:11:53.409045 31278 net.cpp:425] inception_4a/1x1 <- pool3/3x3_s2_pool3/3x3_s2_0_split_0
I0403 15:11:53.409067 31278 net.cpp:399] inception_4a/1x1 -> inception_4a/1x1
I0403 15:11:53.410672 31278 net.cpp:141] Setting up inception_4a/1x1
I0403 15:11:53.410701 31278 net.cpp:148] Top shape: 24 192 14 14 (903168)
I0403 15:11:53.410718 31278 net.cpp:156] Memory required for data: 858010656
I0403 15:11:53.410737 31278 layer_factory.hpp:77] Creating layer inception_4a/relu_1x1
I0403 15:11:53.410758 31278 net.cpp:91] Creating Layer inception_4a/relu_1x1
I0403 15:11:53.410775 31278 net.cpp:425] inception_4a/relu_1x1 <- inception_4a/1x1
I0403 15:11:53.410794 31278 net.cpp:386] inception_4a/relu_1x1 -> inception_4a/1x1 (in-place)
I0403 15:11:53.410974 31278 net.cpp:141] Setting up inception_4a/relu_1x1
I0403 15:11:53.411005 31278 net.cpp:148] Top shape: 24 192 14 14 (903168)
I0403 15:11:53.411021 31278 net.cpp:156] Memory required for data: 861623328
I0403 15:11:53.411037 31278 layer_factory.hpp:77] Creating layer inception_4a/3x3_reduce
I0403 15:11:53.411061 31278 net.cpp:91] Creating Layer inception_4a/3x3_reduce
I0403 15:11:53.411079 31278 net.cpp:425] inception_4a/3x3_reduce <- pool3/3x3_s2_pool3/3x3_s2_0_split_1
I0403 15:11:53.411101 31278 net.cpp:399] inception_4a/3x3_reduce -> inception_4a/3x3_reduce
I0403 15:11:53.412420 31278 net.cpp:141] Setting up inception_4a/3x3_reduce
I0403 15:11:53.412449 31278 net.cpp:148] Top shape: 24 96 14 14 (451584)
I0403 15:11:53.412466 31278 net.cpp:156] Memory required for data: 863429664
I0403 15:11:53.412492 31278 layer_factory.hpp:77] Creating layer inception_4a/relu_3x3_reduce
I0403 15:11:53.412515 31278 net.cpp:91] Creating Layer inception_4a/relu_3x3_reduce
I0403 15:11:53.412533 31278 net.cpp:425] inception_4a/relu_3x3_reduce <- inception_4a/3x3_reduce
I0403 15:11:53.412552 31278 net.cpp:386] inception_4a/relu_3x3_reduce -> inception_4a/3x3_reduce (in-place)
I0403 15:11:53.412732 31278 net.cpp:141] Setting up inception_4a/relu_3x3_reduce
I0403 15:11:53.412760 31278 net.cpp:148] Top shape: 24 96 14 14 (451584)
I0403 15:11:53.412775 31278 net.cpp:156] Memory required for data: 865236000
I0403 15:11:53.412789 31278 layer_factory.hpp:77] Creating layer inception_4a/3x3
I0403 15:11:53.412813 31278 net.cpp:91] Creating Layer inception_4a/3x3
I0403 15:11:53.412832 31278 net.cpp:425] inception_4a/3x3 <- inception_4a/3x3_reduce
I0403 15:11:53.412853 31278 net.cpp:399] inception_4a/3x3 -> inception_4a/3x3
I0403 15:11:53.415596 31278 net.cpp:141] Setting up inception_4a/3x3
I0403 15:11:53.415628 31278 net.cpp:148] Top shape: 24 208 14 14 (978432)
I0403 15:11:53.415645 31278 net.cpp:156] Memory required for data: 869149728
I0403 15:11:53.415665 31278 layer_factory.hpp:77] Creating layer inception_4a/relu_3x3
I0403 15:11:53.415684 31278 net.cpp:91] Creating Layer inception_4a/relu_3x3
I0403 15:11:53.415699 31278 net.cpp:425] inception_4a/relu_3x3 <- inception_4a/3x3
I0403 15:11:53.415717 31278 net.cpp:386] inception_4a/relu_3x3 -> inception_4a/3x3 (in-place)
I0403 15:11:53.416002 31278 net.cpp:141] Setting up inception_4a/relu_3x3
I0403 15:11:53.416033 31278 net.cpp:148] Top shape: 24 208 14 14 (978432)
I0403 15:11:53.416050 31278 net.cpp:156] Memory required for data: 873063456
I0403 15:11:53.416066 31278 layer_factory.hpp:77] Creating layer inception_4a/5x5_reduce
I0403 15:11:53.416090 31278 net.cpp:91] Creating Layer inception_4a/5x5_reduce
I0403 15:11:53.416108 31278 net.cpp:425] inception_4a/5x5_reduce <- pool3/3x3_s2_pool3/3x3_s2_0_split_2
I0403 15:11:53.416128 31278 net.cpp:399] inception_4a/5x5_reduce -> inception_4a/5x5_reduce
I0403 15:11:53.417174 31278 net.cpp:141] Setting up inception_4a/5x5_reduce
I0403 15:11:53.417206 31278 net.cpp:148] Top shape: 24 16 14 14 (75264)
I0403 15:11:53.417222 31278 net.cpp:156] Memory required for data: 873364512
I0403 15:11:53.417242 31278 layer_factory.hpp:77] Creating layer inception_4a/relu_5x5_reduce
I0403 15:11:53.417265 31278 net.cpp:91] Creating Layer inception_4a/relu_5x5_reduce
I0403 15:11:53.417284 31278 net.cpp:425] inception_4a/relu_5x5_reduce <- inception_4a/5x5_reduce
I0403 15:11:53.417304 31278 net.cpp:386] inception_4a/relu_5x5_reduce -> inception_4a/5x5_reduce (in-place)
I0403 15:11:53.417492 31278 net.cpp:141] Setting up inception_4a/relu_5x5_reduce
I0403 15:11:53.417520 31278 net.cpp:148] Top shape: 24 16 14 14 (75264)
I0403 15:11:53.417536 31278 net.cpp:156] Memory required for data: 873665568
I0403 15:11:53.417549 31278 layer_factory.hpp:77] Creating layer inception_4a/5x5
I0403 15:11:53.417572 31278 net.cpp:91] Creating Layer inception_4a/5x5
I0403 15:11:53.417589 31278 net.cpp:425] inception_4a/5x5 <- inception_4a/5x5_reduce
I0403 15:11:53.417613 31278 net.cpp:399] inception_4a/5x5 -> inception_4a/5x5
I0403 15:11:53.418721 31278 net.cpp:141] Setting up inception_4a/5x5
I0403 15:11:53.418751 31278 net.cpp:148] Top shape: 24 48 14 14 (225792)
I0403 15:11:53.418766 31278 net.cpp:156] Memory required for data: 874568736
I0403 15:11:53.418786 31278 layer_factory.hpp:77] Creating layer inception_4a/relu_5x5
I0403 15:11:53.418807 31278 net.cpp:91] Creating Layer inception_4a/relu_5x5
I0403 15:11:53.418823 31278 net.cpp:425] inception_4a/relu_5x5 <- inception_4a/5x5
I0403 15:11:53.418843 31278 net.cpp:386] inception_4a/relu_5x5 -> inception_4a/5x5 (in-place)
I0403 15:11:53.419023 31278 net.cpp:141] Setting up inception_4a/relu_5x5
I0403 15:11:53.419049 31278 net.cpp:148] Top shape: 24 48 14 14 (225792)
I0403 15:11:53.419069 31278 net.cpp:156] Memory required for data: 875471904
I0403 15:11:53.419085 31278 layer_factory.hpp:77] Creating layer inception_4a/pool
I0403 15:11:53.419103 31278 net.cpp:91] Creating Layer inception_4a/pool
I0403 15:11:53.419119 31278 net.cpp:425] inception_4a/pool <- pool3/3x3_s2_pool3/3x3_s2_0_split_3
I0403 15:11:53.419138 31278 net.cpp:399] inception_4a/pool -> inception_4a/pool
I0403 15:11:53.419201 31278 net.cpp:141] Setting up inception_4a/pool
I0403 15:11:53.419226 31278 net.cpp:148] Top shape: 24 480 14 14 (2257920)
I0403 15:11:53.419242 31278 net.cpp:156] Memory required for data: 884503584
I0403 15:11:53.419263 31278 layer_factory.hpp:77] Creating layer inception_4a/pool_proj
I0403 15:11:53.419287 31278 net.cpp:91] Creating Layer inception_4a/pool_proj
I0403 15:11:53.419306 31278 net.cpp:425] inception_4a/pool_proj <- inception_4a/pool
I0403 15:11:53.419328 31278 net.cpp:399] inception_4a/pool_proj -> inception_4a/pool_proj
I0403 15:11:53.420524 31278 net.cpp:141] Setting up inception_4a/pool_proj
I0403 15:11:53.420554 31278 net.cpp:148] Top shape: 24 64 14 14 (301056)
I0403 15:11:53.420593 31278 net.cpp:156] Memory required for data: 885707808
I0403 15:11:53.420613 31278 layer_factory.hpp:77] Creating layer inception_4a/relu_pool_proj
I0403 15:11:53.420635 31278 net.cpp:91] Creating Layer inception_4a/relu_pool_proj
I0403 15:11:53.420652 31278 net.cpp:425] inception_4a/relu_pool_proj <- inception_4a/pool_proj
I0403 15:11:53.420670 31278 net.cpp:386] inception_4a/relu_pool_proj -> inception_4a/pool_proj (in-place)
I0403 15:11:53.420964 31278 net.cpp:141] Setting up inception_4a/relu_pool_proj
I0403 15:11:53.420991 31278 net.cpp:148] Top shape: 24 64 14 14 (301056)
I0403 15:11:53.421007 31278 net.cpp:156] Memory required for data: 886912032
I0403 15:11:53.421023 31278 layer_factory.hpp:77] Creating layer inception_4a/output
I0403 15:11:53.421046 31278 net.cpp:91] Creating Layer inception_4a/output
I0403 15:11:53.421061 31278 net.cpp:425] inception_4a/output <- inception_4a/1x1
I0403 15:11:53.421078 31278 net.cpp:425] inception_4a/output <- inception_4a/3x3
I0403 15:11:53.421095 31278 net.cpp:425] inception_4a/output <- inception_4a/5x5
I0403 15:11:53.421113 31278 net.cpp:425] inception_4a/output <- inception_4a/pool_proj
I0403 15:11:53.421131 31278 net.cpp:399] inception_4a/output -> inception_4a/output
I0403 15:11:53.421178 31278 net.cpp:141] Setting up inception_4a/output
I0403 15:11:53.421203 31278 net.cpp:148] Top shape: 24 512 14 14 (2408448)
I0403 15:11:53.421218 31278 net.cpp:156] Memory required for data: 896545824
I0403 15:11:53.421234 31278 layer_factory.hpp:77] Creating layer inception_4a/output_inception_4a/output_0_split
I0403 15:11:53.421257 31278 net.cpp:91] Creating Layer inception_4a/output_inception_4a/output_0_split
I0403 15:11:53.421275 31278 net.cpp:425] inception_4a/output_inception_4a/output_0_split <- inception_4a/output
I0403 15:11:53.421298 31278 net.cpp:399] inception_4a/output_inception_4a/output_0_split -> inception_4a/output_inception_4a/output_0_split_0
I0403 15:11:53.421320 31278 net.cpp:399] inception_4a/output_inception_4a/output_0_split -> inception_4a/output_inception_4a/output_0_split_1
I0403 15:11:53.421341 31278 net.cpp:399] inception_4a/output_inception_4a/output_0_split -> inception_4a/output_inception_4a/output_0_split_2
I0403 15:11:53.421361 31278 net.cpp:399] inception_4a/output_inception_4a/output_0_split -> inception_4a/output_inception_4a/output_0_split_3
I0403 15:11:53.421381 31278 net.cpp:399] inception_4a/output_inception_4a/output_0_split -> inception_4a/output_inception_4a/output_0_split_4
I0403 15:11:53.421478 31278 net.cpp:141] Setting up inception_4a/output_inception_4a/output_0_split
I0403 15:11:53.421504 31278 net.cpp:148] Top shape: 24 512 14 14 (2408448)
I0403 15:11:53.421519 31278 net.cpp:148] Top shape: 24 512 14 14 (2408448)
I0403 15:11:53.421535 31278 net.cpp:148] Top shape: 24 512 14 14 (2408448)
I0403 15:11:53.421551 31278 net.cpp:148] Top shape: 24 512 14 14 (2408448)
I0403 15:11:53.421568 31278 net.cpp:148] Top shape: 24 512 14 14 (2408448)
I0403 15:11:53.421582 31278 net.cpp:156] Memory required for data: 944714784
I0403 15:11:53.421598 31278 layer_factory.hpp:77] Creating layer loss1/ave_pool
I0403 15:11:53.421617 31278 net.cpp:91] Creating Layer loss1/ave_pool
I0403 15:11:53.421633 31278 net.cpp:425] loss1/ave_pool <- inception_4a/output_inception_4a/output_0_split_0
I0403 15:11:53.421654 31278 net.cpp:399] loss1/ave_pool -> loss1/ave_pool
I0403 15:11:53.421867 31278 net.cpp:141] Setting up loss1/ave_pool
I0403 15:11:53.421895 31278 net.cpp:148] Top shape: 24 512 4 4 (196608)
I0403 15:11:53.421911 31278 net.cpp:156] Memory required for data: 945501216
I0403 15:11:53.421927 31278 layer_factory.hpp:77] Creating layer loss1/conv
I0403 15:11:53.421950 31278 net.cpp:91] Creating Layer loss1/conv
I0403 15:11:53.421969 31278 net.cpp:425] loss1/conv <- loss1/ave_pool
I0403 15:11:53.421991 31278 net.cpp:399] loss1/conv -> loss1/conv
I0403 15:11:53.423442 31278 net.cpp:141] Setting up loss1/conv
I0403 15:11:53.423475 31278 net.cpp:148] Top shape: 24 128 4 4 (49152)
I0403 15:11:53.423491 31278 net.cpp:156] Memory required for data: 945697824
I0403 15:11:53.423526 31278 layer_factory.hpp:77] Creating layer loss1/relu_conv
I0403 15:11:53.423547 31278 net.cpp:91] Creating Layer loss1/relu_conv
I0403 15:11:53.423564 31278 net.cpp:425] loss1/relu_conv <- loss1/conv
I0403 15:11:53.423583 31278 net.cpp:386] loss1/relu_conv -> loss1/conv (in-place)
I0403 15:11:53.423871 31278 net.cpp:141] Setting up loss1/relu_conv
I0403 15:11:53.423900 31278 net.cpp:148] Top shape: 24 128 4 4 (49152)
I0403 15:11:53.423918 31278 net.cpp:156] Memory required for data: 945894432
I0403 15:11:53.423933 31278 layer_factory.hpp:77] Creating layer loss1/fc
I0403 15:11:53.423959 31278 net.cpp:91] Creating Layer loss1/fc
I0403 15:11:53.423976 31278 net.cpp:425] loss1/fc <- loss1/conv
I0403 15:11:53.424005 31278 net.cpp:399] loss1/fc -> loss1/fc
I0403 15:11:53.442298 31278 net.cpp:141] Setting up loss1/fc
I0403 15:11:53.442342 31278 net.cpp:148] Top shape: 24 1024 (24576)
I0403 15:11:53.442360 31278 net.cpp:156] Memory required for data: 945992736
I0403 15:11:53.442381 31278 layer_factory.hpp:77] Creating layer loss1/relu_fc
I0403 15:11:53.442401 31278 net.cpp:91] Creating Layer loss1/relu_fc
I0403 15:11:53.442420 31278 net.cpp:425] loss1/relu_fc <- loss1/fc
I0403 15:11:53.442440 31278 net.cpp:386] loss1/relu_fc -> loss1/fc (in-place)
I0403 15:11:53.442646 31278 net.cpp:141] Setting up loss1/relu_fc
I0403 15:11:53.442674 31278 net.cpp:148] Top shape: 24 1024 (24576)
I0403 15:11:53.442689 31278 net.cpp:156] Memory required for data: 946091040
I0403 15:11:53.442705 31278 layer_factory.hpp:77] Creating layer loss1/drop_fc
I0403 15:11:53.442734 31278 net.cpp:91] Creating Layer loss1/drop_fc
I0403 15:11:53.442751 31278 net.cpp:425] loss1/drop_fc <- loss1/fc
I0403 15:11:53.442770 31278 net.cpp:386] loss1/drop_fc -> loss1/fc (in-place)
I0403 15:11:53.442824 31278 net.cpp:141] Setting up loss1/drop_fc
I0403 15:11:53.442849 31278 net.cpp:148] Top shape: 24 1024 (24576)
I0403 15:11:53.442864 31278 net.cpp:156] Memory required for data: 946189344
I0403 15:11:53.442881 31278 layer_factory.hpp:77] Creating layer loss1/classifier_plantvillage
I0403 15:11:53.442905 31278 net.cpp:91] Creating Layer loss1/classifier_plantvillage
I0403 15:11:53.442922 31278 net.cpp:425] loss1/classifier_plantvillage <- loss1/fc
I0403 15:11:53.442942 31278 net.cpp:399] loss1/classifier_plantvillage -> loss1/classifier_plantvillage
I0403 15:11:53.443919 31278 net.cpp:141] Setting up loss1/classifier_plantvillage
I0403 15:11:53.443953 31278 net.cpp:148] Top shape: 24 38 (912)
I0403 15:11:53.443971 31278 net.cpp:156] Memory required for data: 946192992
I0403 15:11:53.443991 31278 layer_factory.hpp:77] Creating layer loss1/classifier_plantvillage_loss1/classifier_plantvillage_0_split
I0403 15:11:53.444010 31278 net.cpp:91] Creating Layer loss1/classifier_plantvillage_loss1/classifier_plantvillage_0_split
I0403 15:11:53.444027 31278 net.cpp:425] loss1/classifier_plantvillage_loss1/classifier_plantvillage_0_split <- loss1/classifier_plantvillage
I0403 15:11:53.444046 31278 net.cpp:399] loss1/classifier_plantvillage_loss1/classifier_plantvillage_0_split -> loss1/classifier_plantvillage_loss1/classifier_plantvillage_0_split_0
I0403 15:11:53.444067 31278 net.cpp:399] loss1/classifier_plantvillage_loss1/classifier_plantvillage_0_split -> loss1/classifier_plantvillage_loss1/classifier_plantvillage_0_split_1
I0403 15:11:53.444088 31278 net.cpp:399] loss1/classifier_plantvillage_loss1/classifier_plantvillage_0_split -> loss1/classifier_plantvillage_loss1/classifier_plantvillage_0_split_2
I0403 15:11:53.444159 31278 net.cpp:141] Setting up loss1/classifier_plantvillage_loss1/classifier_plantvillage_0_split
I0403 15:11:53.444183 31278 net.cpp:148] Top shape: 24 38 (912)
I0403 15:11:53.444200 31278 net.cpp:148] Top shape: 24 38 (912)
I0403 15:11:53.444216 31278 net.cpp:148] Top shape: 24 38 (912)
I0403 15:11:53.444231 31278 net.cpp:156] Memory required for data: 946203936
I0403 15:11:53.444247 31278 layer_factory.hpp:77] Creating layer inception_4b/1x1
I0403 15:11:53.444279 31278 net.cpp:91] Creating Layer inception_4b/1x1
I0403 15:11:53.444320 31278 net.cpp:425] inception_4b/1x1 <- inception_4a/output_inception_4a/output_0_split_1
I0403 15:11:53.444344 31278 net.cpp:399] inception_4b/1x1 -> inception_4b/1x1
I0403 15:11:53.446111 31278 net.cpp:141] Setting up inception_4b/1x1
I0403 15:11:53.446146 31278 net.cpp:148] Top shape: 24 160 14 14 (752640)
I0403 15:11:53.446162 31278 net.cpp:156] Memory required for data: 949214496
I0403 15:11:53.446182 31278 layer_factory.hpp:77] Creating layer inception_4b/relu_1x1
I0403 15:11:53.446202 31278 net.cpp:91] Creating Layer inception_4b/relu_1x1
I0403 15:11:53.446219 31278 net.cpp:425] inception_4b/relu_1x1 <- inception_4b/1x1
I0403 15:11:53.446239 31278 net.cpp:386] inception_4b/relu_1x1 -> inception_4b/1x1 (in-place)
I0403 15:11:53.446446 31278 net.cpp:141] Setting up inception_4b/relu_1x1
I0403 15:11:53.446473 31278 net.cpp:148] Top shape: 24 160 14 14 (752640)
I0403 15:11:53.446490 31278 net.cpp:156] Memory required for data: 952225056
I0403 15:11:53.446506 31278 layer_factory.hpp:77] Creating layer inception_4b/3x3_reduce
I0403 15:11:53.446529 31278 net.cpp:91] Creating Layer inception_4b/3x3_reduce
I0403 15:11:53.446547 31278 net.cpp:425] inception_4b/3x3_reduce <- inception_4a/output_inception_4a/output_0_split_2
I0403 15:11:53.446569 31278 net.cpp:399] inception_4b/3x3_reduce -> inception_4b/3x3_reduce
I0403 15:11:53.448015 31278 net.cpp:141] Setting up inception_4b/3x3_reduce
I0403 15:11:53.448046 31278 net.cpp:148] Top shape: 24 112 14 14 (526848)
I0403 15:11:53.448062 31278 net.cpp:156] Memory required for data: 954332448
I0403 15:11:53.448081 31278 layer_factory.hpp:77] Creating layer inception_4b/relu_3x3_reduce
I0403 15:11:53.448103 31278 net.cpp:91] Creating Layer inception_4b/relu_3x3_reduce
I0403 15:11:53.448122 31278 net.cpp:425] inception_4b/relu_3x3_reduce <- inception_4b/3x3_reduce
I0403 15:11:53.448140 31278 net.cpp:386] inception_4b/relu_3x3_reduce -> inception_4b/3x3_reduce (in-place)
I0403 15:11:53.448825 31278 net.cpp:141] Setting up inception_4b/relu_3x3_reduce
I0403 15:11:53.448853 31278 net.cpp:148] Top shape: 24 112 14 14 (526848)
I0403 15:11:53.448869 31278 net.cpp:156] Memory required for data: 956439840
I0403 15:11:53.448885 31278 layer_factory.hpp:77] Creating layer inception_4b/3x3
I0403 15:11:53.448909 31278 net.cpp:91] Creating Layer inception_4b/3x3
I0403 15:11:53.448927 31278 net.cpp:425] inception_4b/3x3 <- inception_4b/3x3_reduce
I0403 15:11:53.448951 31278 net.cpp:399] inception_4b/3x3 -> inception_4b/3x3
I0403 15:11:53.452028 31278 net.cpp:141] Setting up inception_4b/3x3
I0403 15:11:53.452059 31278 net.cpp:148] Top shape: 24 224 14 14 (1053696)
I0403 15:11:53.452075 31278 net.cpp:156] Memory required for data: 960654624
I0403 15:11:53.452095 31278 layer_factory.hpp:77] Creating layer inception_4b/relu_3x3
I0403 15:11:53.452116 31278 net.cpp:91] Creating Layer inception_4b/relu_3x3
I0403 15:11:53.452133 31278 net.cpp:425] inception_4b/relu_3x3 <- inception_4b/3x3
I0403 15:11:53.452152 31278 net.cpp:386] inception_4b/relu_3x3 -> inception_4b/3x3 (in-place)
I0403 15:11:53.452342 31278 net.cpp:141] Setting up inception_4b/relu_3x3
I0403 15:11:53.452371 31278 net.cpp:148] Top shape: 24 224 14 14 (1053696)
I0403 15:11:53.452389 31278 net.cpp:156] Memory required for data: 964869408
I0403 15:11:53.452405 31278 layer_factory.hpp:77] Creating layer inception_4b/5x5_reduce
I0403 15:11:53.452430 31278 net.cpp:91] Creating Layer inception_4b/5x5_reduce
I0403 15:11:53.452447 31278 net.cpp:425] inception_4b/5x5_reduce <- inception_4a/output_inception_4a/output_0_split_3
I0403 15:11:53.452467 31278 net.cpp:399] inception_4b/5x5_reduce -> inception_4b/5x5_reduce
I0403 15:11:53.453835 31278 net.cpp:141] Setting up inception_4b/5x5_reduce
I0403 15:11:53.453866 31278 net.cpp:148] Top shape: 24 24 14 14 (112896)
I0403 15:11:53.453884 31278 net.cpp:156] Memory required for data: 965320992
I0403 15:11:53.453904 31278 layer_factory.hpp:77] Creating layer inception_4b/relu_5x5_reduce
I0403 15:11:53.453922 31278 net.cpp:91] Creating Layer inception_4b/relu_5x5_reduce
I0403 15:11:53.453953 31278 net.cpp:425] inception_4b/relu_5x5_reduce <- inception_4b/5x5_reduce
I0403 15:11:53.453975 31278 net.cpp:386] inception_4b/relu_5x5_reduce -> inception_4b/5x5_reduce (in-place)
I0403 15:11:53.454166 31278 net.cpp:141] Setting up inception_4b/relu_5x5_reduce
I0403 15:11:53.454192 31278 net.cpp:148] Top shape: 24 24 14 14 (112896)
I0403 15:11:53.454208 31278 net.cpp:156] Memory required for data: 965772576
I0403 15:11:53.454224 31278 layer_factory.hpp:77] Creating layer inception_4b/5x5
I0403 15:11:53.454247 31278 net.cpp:91] Creating Layer inception_4b/5x5
I0403 15:11:53.454277 31278 net.cpp:425] inception_4b/5x5 <- inception_4b/5x5_reduce
I0403 15:11:53.454301 31278 net.cpp:399] inception_4b/5x5 -> inception_4b/5x5
I0403 15:11:53.455566 31278 net.cpp:141] Setting up inception_4b/5x5
I0403 15:11:53.455598 31278 net.cpp:148] Top shape: 24 64 14 14 (301056)
I0403 15:11:53.455616 31278 net.cpp:156] Memory required for data: 966976800
I0403 15:11:53.455636 31278 layer_factory.hpp:77] Creating layer inception_4b/relu_5x5
I0403 15:11:53.455656 31278 net.cpp:91] Creating Layer inception_4b/relu_5x5
I0403 15:11:53.455672 31278 net.cpp:425] inception_4b/relu_5x5 <- inception_4b/5x5
I0403 15:11:53.455693 31278 net.cpp:386] inception_4b/relu_5x5 -> inception_4b/5x5 (in-place)
I0403 15:11:53.456030 31278 net.cpp:141] Setting up inception_4b/relu_5x5
I0403 15:11:53.456061 31278 net.cpp:148] Top shape: 24 64 14 14 (301056)
I0403 15:11:53.456079 31278 net.cpp:156] Memory required for data: 968181024
I0403 15:11:53.456094 31278 layer_factory.hpp:77] Creating layer inception_4b/pool
I0403 15:11:53.456115 31278 net.cpp:91] Creating Layer inception_4b/pool
I0403 15:11:53.456131 31278 net.cpp:425] inception_4b/pool <- inception_4a/output_inception_4a/output_0_split_4
I0403 15:11:53.456154 31278 net.cpp:399] inception_4b/pool -> inception_4b/pool
I0403 15:11:53.456223 31278 net.cpp:141] Setting up inception_4b/pool
I0403 15:11:53.456248 31278 net.cpp:148] Top shape: 24 512 14 14 (2408448)
I0403 15:11:53.456269 31278 net.cpp:156] Memory required for data: 977814816
I0403 15:11:53.456285 31278 layer_factory.hpp:77] Creating layer inception_4b/pool_proj
I0403 15:11:53.456310 31278 net.cpp:91] Creating Layer inception_4b/pool_proj
I0403 15:11:53.456331 31278 net.cpp:425] inception_4b/pool_proj <- inception_4b/pool
I0403 15:11:53.456351 31278 net.cpp:399] inception_4b/pool_proj -> inception_4b/pool_proj
I0403 15:11:53.457623 31278 net.cpp:141] Setting up inception_4b/pool_proj
I0403 15:11:53.457653 31278 net.cpp:148] Top shape: 24 64 14 14 (301056)
I0403 15:11:53.457670 31278 net.cpp:156] Memory required for data: 979019040
I0403 15:11:53.457690 31278 layer_factory.hpp:77] Creating layer inception_4b/relu_pool_proj
I0403 15:11:53.457708 31278 net.cpp:91] Creating Layer inception_4b/relu_pool_proj
I0403 15:11:53.457726 31278 net.cpp:425] inception_4b/relu_pool_proj <- inception_4b/pool_proj
I0403 15:11:53.457748 31278 net.cpp:386] inception_4b/relu_pool_proj -> inception_4b/pool_proj (in-place)
I0403 15:11:53.457938 31278 net.cpp:141] Setting up inception_4b/relu_pool_proj
I0403 15:11:53.457965 31278 net.cpp:148] Top shape: 24 64 14 14 (301056)
I0403 15:11:53.457981 31278 net.cpp:156] Memory required for data: 980223264
I0403 15:11:53.457998 31278 layer_factory.hpp:77] Creating layer inception_4b/output
I0403 15:11:53.458017 31278 net.cpp:91] Creating Layer inception_4b/output
I0403 15:11:53.458035 31278 net.cpp:425] inception_4b/output <- inception_4b/1x1
I0403 15:11:53.458055 31278 net.cpp:425] inception_4b/output <- inception_4b/3x3
I0403 15:11:53.458070 31278 net.cpp:425] inception_4b/output <- inception_4b/5x5
I0403 15:11:53.458086 31278 net.cpp:425] inception_4b/output <- inception_4b/pool_proj
I0403 15:11:53.458104 31278 net.cpp:399] inception_4b/output -> inception_4b/output
I0403 15:11:53.458150 31278 net.cpp:141] Setting up inception_4b/output
I0403 15:11:53.458178 31278 net.cpp:148] Top shape: 24 512 14 14 (2408448)
I0403 15:11:53.458194 31278 net.cpp:156] Memory required for data: 989857056
I0403 15:11:53.458225 31278 layer_factory.hpp:77] Creating layer inception_4b/output_inception_4b/output_0_split
I0403 15:11:53.458243 31278 net.cpp:91] Creating Layer inception_4b/output_inception_4b/output_0_split
I0403 15:11:53.458266 31278 net.cpp:425] inception_4b/output_inception_4b/output_0_split <- inception_4b/output
I0403 15:11:53.458287 31278 net.cpp:399] inception_4b/output_inception_4b/output_0_split -> inception_4b/output_inception_4b/output_0_split_0
I0403 15:11:53.458309 31278 net.cpp:399] inception_4b/output_inception_4b/output_0_split -> inception_4b/output_inception_4b/output_0_split_1
I0403 15:11:53.458331 31278 net.cpp:399] inception_4b/output_inception_4b/output_0_split -> inception_4b/output_inception_4b/output_0_split_2
I0403 15:11:53.458353 31278 net.cpp:399] inception_4b/output_inception_4b/output_0_split -> inception_4b/output_inception_4b/output_0_split_3
I0403 15:11:53.458547 31278 net.cpp:141] Setting up inception_4b/output_inception_4b/output_0_split
I0403 15:11:53.458578 31278 net.cpp:148] Top shape: 24 512 14 14 (2408448)
I0403 15:11:53.458595 31278 net.cpp:148] Top shape: 24 512 14 14 (2408448)
I0403 15:11:53.458612 31278 net.cpp:148] Top shape: 24 512 14 14 (2408448)
I0403 15:11:53.458628 31278 net.cpp:148] Top shape: 24 512 14 14 (2408448)
I0403 15:11:53.458643 31278 net.cpp:156] Memory required for data: 1028392224
I0403 15:11:53.458658 31278 layer_factory.hpp:77] Creating layer inception_4c/1x1
I0403 15:11:53.458683 31278 net.cpp:91] Creating Layer inception_4c/1x1
I0403 15:11:53.458703 31278 net.cpp:425] inception_4c/1x1 <- inception_4b/output_inception_4b/output_0_split_0
I0403 15:11:53.458722 31278 net.cpp:399] inception_4c/1x1 -> inception_4c/1x1
I0403 15:11:53.460264 31278 net.cpp:141] Setting up inception_4c/1x1
I0403 15:11:53.460294 31278 net.cpp:148] Top shape: 24 128 14 14 (602112)
I0403 15:11:53.460312 31278 net.cpp:156] Memory required for data: 1030800672
I0403 15:11:53.460331 31278 layer_factory.hpp:77] Creating layer inception_4c/relu_1x1
I0403 15:11:53.460352 31278 net.cpp:91] Creating Layer inception_4c/relu_1x1
I0403 15:11:53.460369 31278 net.cpp:425] inception_4c/relu_1x1 <- inception_4c/1x1
I0403 15:11:53.460388 31278 net.cpp:386] inception_4c/relu_1x1 -> inception_4c/1x1 (in-place)
I0403 15:11:53.460574 31278 net.cpp:141] Setting up inception_4c/relu_1x1
I0403 15:11:53.460603 31278 net.cpp:148] Top shape: 24 128 14 14 (602112)
I0403 15:11:53.460620 31278 net.cpp:156] Memory required for data: 1033209120
I0403 15:11:53.460636 31278 layer_factory.hpp:77] Creating layer inception_4c/3x3_reduce
I0403 15:11:53.460660 31278 net.cpp:91] Creating Layer inception_4c/3x3_reduce
I0403 15:11:53.460678 31278 net.cpp:425] inception_4c/3x3_reduce <- inception_4b/output_inception_4b/output_0_split_1
I0403 15:11:53.460697 31278 net.cpp:399] inception_4c/3x3_reduce -> inception_4c/3x3_reduce
I0403 15:11:53.462887 31278 net.cpp:141] Setting up inception_4c/3x3_reduce
I0403 15:11:53.462919 31278 net.cpp:148] Top shape: 24 128 14 14 (602112)
I0403 15:11:53.462937 31278 net.cpp:156] Memory required for data: 1035617568
I0403 15:11:53.462957 31278 layer_factory.hpp:77] Creating layer inception_4c/relu_3x3_reduce
I0403 15:11:53.462976 31278 net.cpp:91] Creating Layer inception_4c/relu_3x3_reduce
I0403 15:11:53.462995 31278 net.cpp:425] inception_4c/relu_3x3_reduce <- inception_4c/3x3_reduce
I0403 15:11:53.463016 31278 net.cpp:386] inception_4c/relu_3x3_reduce -> inception_4c/3x3_reduce (in-place)
I0403 15:11:53.463320 31278 net.cpp:141] Setting up inception_4c/relu_3x3_reduce
I0403 15:11:53.463351 31278 net.cpp:148] Top shape: 24 128 14 14 (602112)
I0403 15:11:53.463366 31278 net.cpp:156] Memory required for data: 1038026016
I0403 15:11:53.463383 31278 layer_factory.hpp:77] Creating layer inception_4c/3x3
I0403 15:11:53.463407 31278 net.cpp:91] Creating Layer inception_4c/3x3
I0403 15:11:53.463425 31278 net.cpp:425] inception_4c/3x3 <- inception_4c/3x3_reduce
I0403 15:11:53.463445 31278 net.cpp:399] inception_4c/3x3 -> inception_4c/3x3
I0403 15:11:53.467322 31278 net.cpp:141] Setting up inception_4c/3x3
I0403 15:11:53.467366 31278 net.cpp:148] Top shape: 24 256 14 14 (1204224)
I0403 15:11:53.467383 31278 net.cpp:156] Memory required for data: 1042842912
I0403 15:11:53.467418 31278 layer_factory.hpp:77] Creating layer inception_4c/relu_3x3
I0403 15:11:53.467439 31278 net.cpp:91] Creating Layer inception_4c/relu_3x3
I0403 15:11:53.467456 31278 net.cpp:425] inception_4c/relu_3x3 <- inception_4c/3x3
I0403 15:11:53.467476 31278 net.cpp:386] inception_4c/relu_3x3 -> inception_4c/3x3 (in-place)
I0403 15:11:53.467663 31278 net.cpp:141] Setting up inception_4c/relu_3x3
I0403 15:11:53.467689 31278 net.cpp:148] Top shape: 24 256 14 14 (1204224)
I0403 15:11:53.467705 31278 net.cpp:156] Memory required for data: 1047659808
I0403 15:11:53.467721 31278 layer_factory.hpp:77] Creating layer inception_4c/5x5_reduce
I0403 15:11:53.467746 31278 net.cpp:91] Creating Layer inception_4c/5x5_reduce
I0403 15:11:53.467764 31278 net.cpp:425] inception_4c/5x5_reduce <- inception_4b/output_inception_4b/output_0_split_2
I0403 15:11:53.467787 31278 net.cpp:399] inception_4c/5x5_reduce -> inception_4c/5x5_reduce
I0403 15:11:53.468971 31278 net.cpp:141] Setting up inception_4c/5x5_reduce
I0403 15:11:53.469002 31278 net.cpp:148] Top shape: 24 24 14 14 (112896)
I0403 15:11:53.469019 31278 net.cpp:156] Memory required for data: 1048111392
I0403 15:11:53.469039 31278 layer_factory.hpp:77] Creating layer inception_4c/relu_5x5_reduce
I0403 15:11:53.469058 31278 net.cpp:91] Creating Layer inception_4c/relu_5x5_reduce
I0403 15:11:53.469075 31278 net.cpp:425] inception_4c/relu_5x5_reduce <- inception_4c/5x5_reduce
I0403 15:11:53.469096 31278 net.cpp:386] inception_4c/relu_5x5_reduce -> inception_4c/5x5_reduce (in-place)
I0403 15:11:53.469290 31278 net.cpp:141] Setting up inception_4c/relu_5x5_reduce
I0403 15:11:53.469317 31278 net.cpp:148] Top shape: 24 24 14 14 (112896)
I0403 15:11:53.469332 31278 net.cpp:156] Memory required for data: 1048562976
I0403 15:11:53.469348 31278 layer_factory.hpp:77] Creating layer inception_4c/5x5
I0403 15:11:53.469372 31278 net.cpp:91] Creating Layer inception_4c/5x5
I0403 15:11:53.469391 31278 net.cpp:425] inception_4c/5x5 <- inception_4c/5x5_reduce
I0403 15:11:53.469413 31278 net.cpp:399] inception_4c/5x5 -> inception_4c/5x5
I0403 15:11:53.470811 31278 net.cpp:141] Setting up inception_4c/5x5
I0403 15:11:53.470841 31278 net.cpp:148] Top shape: 24 64 14 14 (301056)
I0403 15:11:53.470857 31278 net.cpp:156] Memory required for data: 1049767200
I0403 15:11:53.470876 31278 layer_factory.hpp:77] Creating layer inception_4c/relu_5x5
I0403 15:11:53.470897 31278 net.cpp:91] Creating Layer inception_4c/relu_5x5
I0403 15:11:53.470916 31278 net.cpp:425] inception_4c/relu_5x5 <- inception_4c/5x5
I0403 15:11:53.470934 31278 net.cpp:386] inception_4c/relu_5x5 -> inception_4c/5x5 (in-place)
I0403 15:11:53.471231 31278 net.cpp:141] Setting up inception_4c/relu_5x5
I0403 15:11:53.471264 31278 net.cpp:148] Top shape: 24 64 14 14 (301056)
I0403 15:11:53.471282 31278 net.cpp:156] Memory required for data: 1050971424
I0403 15:11:53.471298 31278 layer_factory.hpp:77] Creating layer inception_4c/pool
I0403 15:11:53.471319 31278 net.cpp:91] Creating Layer inception_4c/pool
I0403 15:11:53.471338 31278 net.cpp:425] inception_4c/pool <- inception_4b/output_inception_4b/output_0_split_3
I0403 15:11:53.471357 31278 net.cpp:399] inception_4c/pool -> inception_4c/pool
I0403 15:11:53.471426 31278 net.cpp:141] Setting up inception_4c/pool
I0403 15:11:53.471451 31278 net.cpp:148] Top shape: 24 512 14 14 (2408448)
I0403 15:11:53.471465 31278 net.cpp:156] Memory required for data: 1060605216
I0403 15:11:53.471480 31278 layer_factory.hpp:77] Creating layer inception_4c/pool_proj
I0403 15:11:53.471504 31278 net.cpp:91] Creating Layer inception_4c/pool_proj
I0403 15:11:53.471524 31278 net.cpp:425] inception_4c/pool_proj <- inception_4c/pool
I0403 15:11:53.471546 31278 net.cpp:399] inception_4c/pool_proj -> inception_4c/pool_proj
I0403 15:11:53.472857 31278 net.cpp:141] Setting up inception_4c/pool_proj
I0403 15:11:53.472887 31278 net.cpp:148] Top shape: 24 64 14 14 (301056)
I0403 15:11:53.472918 31278 net.cpp:156] Memory required for data: 1061809440
I0403 15:11:53.472939 31278 layer_factory.hpp:77] Creating layer inception_4c/relu_pool_proj
I0403 15:11:53.472957 31278 net.cpp:91] Creating Layer inception_4c/relu_pool_proj
I0403 15:11:53.472975 31278 net.cpp:425] inception_4c/relu_pool_proj <- inception_4c/pool_proj
I0403 15:11:53.472996 31278 net.cpp:386] inception_4c/relu_pool_proj -> inception_4c/pool_proj (in-place)
I0403 15:11:53.473183 31278 net.cpp:141] Setting up inception_4c/relu_pool_proj
I0403 15:11:53.473211 31278 net.cpp:148] Top shape: 24 64 14 14 (301056)
I0403 15:11:53.473225 31278 net.cpp:156] Memory required for data: 1063013664
I0403 15:11:53.473242 31278 layer_factory.hpp:77] Creating layer inception_4c/output
I0403 15:11:53.473266 31278 net.cpp:91] Creating Layer inception_4c/output
I0403 15:11:53.473287 31278 net.cpp:425] inception_4c/output <- inception_4c/1x1
I0403 15:11:53.473304 31278 net.cpp:425] inception_4c/output <- inception_4c/3x3
I0403 15:11:53.473322 31278 net.cpp:425] inception_4c/output <- inception_4c/5x5
I0403 15:11:53.473338 31278 net.cpp:425] inception_4c/output <- inception_4c/pool_proj
I0403 15:11:53.473357 31278 net.cpp:399] inception_4c/output -> inception_4c/output
I0403 15:11:53.473404 31278 net.cpp:141] Setting up inception_4c/output
I0403 15:11:53.473433 31278 net.cpp:148] Top shape: 24 512 14 14 (2408448)
I0403 15:11:53.473449 31278 net.cpp:156] Memory required for data: 1072647456
I0403 15:11:53.473465 31278 layer_factory.hpp:77] Creating layer inception_4c/output_inception_4c/output_0_split
I0403 15:11:53.473482 31278 net.cpp:91] Creating Layer inception_4c/output_inception_4c/output_0_split
I0403 15:11:53.473500 31278 net.cpp:425] inception_4c/output_inception_4c/output_0_split <- inception_4c/output
I0403 15:11:53.473520 31278 net.cpp:399] inception_4c/output_inception_4c/output_0_split -> inception_4c/output_inception_4c/output_0_split_0
I0403 15:11:53.473541 31278 net.cpp:399] inception_4c/output_inception_4c/output_0_split -> inception_4c/output_inception_4c/output_0_split_1
I0403 15:11:53.473562 31278 net.cpp:399] inception_4c/output_inception_4c/output_0_split -> inception_4c/output_inception_4c/output_0_split_2
I0403 15:11:53.473582 31278 net.cpp:399] inception_4c/output_inception_4c/output_0_split -> inception_4c/output_inception_4c/output_0_split_3
I0403 15:11:53.473669 31278 net.cpp:141] Setting up inception_4c/output_inception_4c/output_0_split
I0403 15:11:53.473698 31278 net.cpp:148] Top shape: 24 512 14 14 (2408448)
I0403 15:11:53.473717 31278 net.cpp:148] Top shape: 24 512 14 14 (2408448)
I0403 15:11:53.473734 31278 net.cpp:148] Top shape: 24 512 14 14 (2408448)
I0403 15:11:53.473752 31278 net.cpp:148] Top shape: 24 512 14 14 (2408448)
I0403 15:11:53.473765 31278 net.cpp:156] Memory required for data: 1111182624
I0403 15:11:53.473779 31278 layer_factory.hpp:77] Creating layer inception_4d/1x1
I0403 15:11:53.473801 31278 net.cpp:91] Creating Layer inception_4d/1x1
I0403 15:11:53.473820 31278 net.cpp:425] inception_4d/1x1 <- inception_4c/output_inception_4c/output_0_split_0
I0403 15:11:53.473842 31278 net.cpp:399] inception_4d/1x1 -> inception_4d/1x1
I0403 15:11:53.475329 31278 net.cpp:141] Setting up inception_4d/1x1
I0403 15:11:53.475363 31278 net.cpp:148] Top shape: 24 112 14 14 (526848)
I0403 15:11:53.475379 31278 net.cpp:156] Memory required for data: 1113290016
I0403 15:11:53.475399 31278 layer_factory.hpp:77] Creating layer inception_4d/relu_1x1
I0403 15:11:53.475419 31278 net.cpp:91] Creating Layer inception_4d/relu_1x1
I0403 15:11:53.475436 31278 net.cpp:425] inception_4d/relu_1x1 <- inception_4d/1x1
I0403 15:11:53.475455 31278 net.cpp:386] inception_4d/relu_1x1 -> inception_4d/1x1 (in-place)
I0403 15:11:53.475643 31278 net.cpp:141] Setting up inception_4d/relu_1x1
I0403 15:11:53.475672 31278 net.cpp:148] Top shape: 24 112 14 14 (526848)
I0403 15:11:53.475688 31278 net.cpp:156] Memory required for data: 1115397408
I0403 15:11:53.475704 31278 layer_factory.hpp:77] Creating layer inception_4d/3x3_reduce
I0403 15:11:53.475742 31278 net.cpp:91] Creating Layer inception_4d/3x3_reduce
I0403 15:11:53.475762 31278 net.cpp:425] inception_4d/3x3_reduce <- inception_4c/output_inception_4c/output_0_split_1
I0403 15:11:53.475783 31278 net.cpp:399] inception_4d/3x3_reduce -> inception_4d/3x3_reduce
I0403 15:11:53.477391 31278 net.cpp:141] Setting up inception_4d/3x3_reduce
I0403 15:11:53.477421 31278 net.cpp:148] Top shape: 24 144 14 14 (677376)
I0403 15:11:53.477437 31278 net.cpp:156] Memory required for data: 1118106912
I0403 15:11:53.477457 31278 layer_factory.hpp:77] Creating layer inception_4d/relu_3x3_reduce
I0403 15:11:53.477478 31278 net.cpp:91] Creating Layer inception_4d/relu_3x3_reduce
I0403 15:11:53.477495 31278 net.cpp:425] inception_4d/relu_3x3_reduce <- inception_4d/3x3_reduce
I0403 15:11:53.477514 31278 net.cpp:386] inception_4d/relu_3x3_reduce -> inception_4d/3x3_reduce (in-place)
I0403 15:11:53.477812 31278 net.cpp:141] Setting up inception_4d/relu_3x3_reduce
I0403 15:11:53.477840 31278 net.cpp:148] Top shape: 24 144 14 14 (677376)
I0403 15:11:53.477855 31278 net.cpp:156] Memory required for data: 1120816416
I0403 15:11:53.477872 31278 layer_factory.hpp:77] Creating layer inception_4d/3x3
I0403 15:11:53.477895 31278 net.cpp:91] Creating Layer inception_4d/3x3
I0403 15:11:53.477913 31278 net.cpp:425] inception_4d/3x3 <- inception_4d/3x3_reduce
I0403 15:11:53.477936 31278 net.cpp:399] inception_4d/3x3 -> inception_4d/3x3
I0403 15:11:53.482429 31278 net.cpp:141] Setting up inception_4d/3x3
I0403 15:11:53.482461 31278 net.cpp:148] Top shape: 24 288 14 14 (1354752)
I0403 15:11:53.482478 31278 net.cpp:156] Memory required for data: 1126235424
I0403 15:11:53.482498 31278 layer_factory.hpp:77] Creating layer inception_4d/relu_3x3
I0403 15:11:53.482520 31278 net.cpp:91] Creating Layer inception_4d/relu_3x3
I0403 15:11:53.482537 31278 net.cpp:425] inception_4d/relu_3x3 <- inception_4d/3x3
I0403 15:11:53.482558 31278 net.cpp:386] inception_4d/relu_3x3 -> inception_4d/3x3 (in-place)
I0403 15:11:53.482758 31278 net.cpp:141] Setting up inception_4d/relu_3x3
I0403 15:11:53.482785 31278 net.cpp:148] Top shape: 24 288 14 14 (1354752)
I0403 15:11:53.482801 31278 net.cpp:156] Memory required for data: 1131654432
I0403 15:11:53.482818 31278 layer_factory.hpp:77] Creating layer inception_4d/5x5_reduce
I0403 15:11:53.482841 31278 net.cpp:91] Creating Layer inception_4d/5x5_reduce
I0403 15:11:53.482859 31278 net.cpp:425] inception_4d/5x5_reduce <- inception_4c/output_inception_4c/output_0_split_2
I0403 15:11:53.482882 31278 net.cpp:399] inception_4d/5x5_reduce -> inception_4d/5x5_reduce
I0403 15:11:53.484192 31278 net.cpp:141] Setting up inception_4d/5x5_reduce
I0403 15:11:53.484225 31278 net.cpp:148] Top shape: 24 32 14 14 (150528)
I0403 15:11:53.484242 31278 net.cpp:156] Memory required for data: 1132256544
I0403 15:11:53.484277 31278 layer_factory.hpp:77] Creating layer inception_4d/relu_5x5_reduce
I0403 15:11:53.484299 31278 net.cpp:91] Creating Layer inception_4d/relu_5x5_reduce
I0403 15:11:53.484318 31278 net.cpp:425] inception_4d/relu_5x5_reduce <- inception_4d/5x5_reduce
I0403 15:11:53.484335 31278 net.cpp:386] inception_4d/relu_5x5_reduce -> inception_4d/5x5_reduce (in-place)
I0403 15:11:53.484539 31278 net.cpp:141] Setting up inception_4d/relu_5x5_reduce
I0403 15:11:53.484568 31278 net.cpp:148] Top shape: 24 32 14 14 (150528)
I0403 15:11:53.484586 31278 net.cpp:156] Memory required for data: 1132858656
I0403 15:11:53.484603 31278 layer_factory.hpp:77] Creating layer inception_4d/5x5
I0403 15:11:53.484627 31278 net.cpp:91] Creating Layer inception_4d/5x5
I0403 15:11:53.484645 31278 net.cpp:425] inception_4d/5x5 <- inception_4d/5x5_reduce
I0403 15:11:53.484668 31278 net.cpp:399] inception_4d/5x5 -> inception_4d/5x5
I0403 15:11:53.486285 31278 net.cpp:141] Setting up inception_4d/5x5
I0403 15:11:53.486316 31278 net.cpp:148] Top shape: 24 64 14 14 (301056)
I0403 15:11:53.486333 31278 net.cpp:156] Memory required for data: 1134062880
I0403 15:11:53.486353 31278 layer_factory.hpp:77] Creating layer inception_4d/relu_5x5
I0403 15:11:53.486392 31278 net.cpp:91] Creating Layer inception_4d/relu_5x5
I0403 15:11:53.486412 31278 net.cpp:425] inception_4d/relu_5x5 <- inception_4d/5x5
I0403 15:11:53.486430 31278 net.cpp:386] inception_4d/relu_5x5 -> inception_4d/5x5 (in-place)
I0403 15:11:53.486753 31278 net.cpp:141] Setting up inception_4d/relu_5x5
I0403 15:11:53.486783 31278 net.cpp:148] Top shape: 24 64 14 14 (301056)
I0403 15:11:53.486799 31278 net.cpp:156] Memory required for data: 1135267104
I0403 15:11:53.486815 31278 layer_factory.hpp:77] Creating layer inception_4d/pool
I0403 15:11:53.486835 31278 net.cpp:91] Creating Layer inception_4d/pool
I0403 15:11:53.486850 31278 net.cpp:425] inception_4d/pool <- inception_4c/output_inception_4c/output_0_split_3
I0403 15:11:53.486873 31278 net.cpp:399] inception_4d/pool -> inception_4d/pool
I0403 15:11:53.486943 31278 net.cpp:141] Setting up inception_4d/pool
I0403 15:11:53.486973 31278 net.cpp:148] Top shape: 24 512 14 14 (2408448)
I0403 15:11:53.486989 31278 net.cpp:156] Memory required for data: 1144900896
I0403 15:11:53.487006 31278 layer_factory.hpp:77] Creating layer inception_4d/pool_proj
I0403 15:11:53.487030 31278 net.cpp:91] Creating Layer inception_4d/pool_proj
I0403 15:11:53.487049 31278 net.cpp:425] inception_4d/pool_proj <- inception_4d/pool
I0403 15:11:53.487071 31278 net.cpp:399] inception_4d/pool_proj -> inception_4d/pool_proj
I0403 15:11:53.489181 31278 net.cpp:141] Setting up inception_4d/pool_proj
I0403 15:11:53.489212 31278 net.cpp:148] Top shape: 24 64 14 14 (301056)
I0403 15:11:53.489229 31278 net.cpp:156] Memory required for data: 1146105120
I0403 15:11:53.489255 31278 layer_factory.hpp:77] Creating layer inception_4d/relu_pool_proj
I0403 15:11:53.489277 31278 net.cpp:91] Creating Layer inception_4d/relu_pool_proj
I0403 15:11:53.489295 31278 net.cpp:425] inception_4d/relu_pool_proj <- inception_4d/pool_proj
I0403 15:11:53.489315 31278 net.cpp:386] inception_4d/relu_pool_proj -> inception_4d/pool_proj (in-place)
I0403 15:11:53.489516 31278 net.cpp:141] Setting up inception_4d/relu_pool_proj
I0403 15:11:53.489544 31278 net.cpp:148] Top shape: 24 64 14 14 (301056)
I0403 15:11:53.489559 31278 net.cpp:156] Memory required for data: 1147309344
I0403 15:11:53.489576 31278 layer_factory.hpp:77] Creating layer inception_4d/output
I0403 15:11:53.489595 31278 net.cpp:91] Creating Layer inception_4d/output
I0403 15:11:53.489614 31278 net.cpp:425] inception_4d/output <- inception_4d/1x1
I0403 15:11:53.489631 31278 net.cpp:425] inception_4d/output <- inception_4d/3x3
I0403 15:11:53.489648 31278 net.cpp:425] inception_4d/output <- inception_4d/5x5
I0403 15:11:53.489666 31278 net.cpp:425] inception_4d/output <- inception_4d/pool_proj
I0403 15:11:53.489687 31278 net.cpp:399] inception_4d/output -> inception_4d/output
I0403 15:11:53.489738 31278 net.cpp:141] Setting up inception_4d/output
I0403 15:11:53.489768 31278 net.cpp:148] Top shape: 24 528 14 14 (2483712)
I0403 15:11:53.489784 31278 net.cpp:156] Memory required for data: 1157244192
I0403 15:11:53.489800 31278 layer_factory.hpp:77] Creating layer inception_4d/output_inception_4d/output_0_split
I0403 15:11:53.489820 31278 net.cpp:91] Creating Layer inception_4d/output_inception_4d/output_0_split
I0403 15:11:53.489835 31278 net.cpp:425] inception_4d/output_inception_4d/output_0_split <- inception_4d/output
I0403 15:11:53.489855 31278 net.cpp:399] inception_4d/output_inception_4d/output_0_split -> inception_4d/output_inception_4d/output_0_split_0
I0403 15:11:53.489882 31278 net.cpp:399] inception_4d/output_inception_4d/output_0_split -> inception_4d/output_inception_4d/output_0_split_1
I0403 15:11:53.489905 31278 net.cpp:399] inception_4d/output_inception_4d/output_0_split -> inception_4d/output_inception_4d/output_0_split_2
I0403 15:11:53.489926 31278 net.cpp:399] inception_4d/output_inception_4d/output_0_split -> inception_4d/output_inception_4d/output_0_split_3
I0403 15:11:53.489948 31278 net.cpp:399] inception_4d/output_inception_4d/output_0_split -> inception_4d/output_inception_4d/output_0_split_4
I0403 15:11:53.490059 31278 net.cpp:141] Setting up inception_4d/output_inception_4d/output_0_split
I0403 15:11:53.490098 31278 net.cpp:148] Top shape: 24 528 14 14 (2483712)
I0403 15:11:53.490116 31278 net.cpp:148] Top shape: 24 528 14 14 (2483712)
I0403 15:11:53.490134 31278 net.cpp:148] Top shape: 24 528 14 14 (2483712)
I0403 15:11:53.490149 31278 net.cpp:148] Top shape: 24 528 14 14 (2483712)
I0403 15:11:53.490166 31278 net.cpp:148] Top shape: 24 528 14 14 (2483712)
I0403 15:11:53.490182 31278 net.cpp:156] Memory required for data: 1206918432
I0403 15:11:53.490198 31278 layer_factory.hpp:77] Creating layer loss2/ave_pool
I0403 15:11:53.490221 31278 net.cpp:91] Creating Layer loss2/ave_pool
I0403 15:11:53.490237 31278 net.cpp:425] loss2/ave_pool <- inception_4d/output_inception_4d/output_0_split_0
I0403 15:11:53.490262 31278 net.cpp:399] loss2/ave_pool -> loss2/ave_pool
I0403 15:11:53.490597 31278 net.cpp:141] Setting up loss2/ave_pool
I0403 15:11:53.490629 31278 net.cpp:148] Top shape: 24 528 4 4 (202752)
I0403 15:11:53.490646 31278 net.cpp:156] Memory required for data: 1207729440
I0403 15:11:53.490664 31278 layer_factory.hpp:77] Creating layer loss2/conv
I0403 15:11:53.490689 31278 net.cpp:91] Creating Layer loss2/conv
I0403 15:11:53.490708 31278 net.cpp:425] loss2/conv <- loss2/ave_pool
I0403 15:11:53.490730 31278 net.cpp:399] loss2/conv -> loss2/conv
I0403 15:11:53.492818 31278 net.cpp:141] Setting up loss2/conv
I0403 15:11:53.492851 31278 net.cpp:148] Top shape: 24 128 4 4 (49152)
I0403 15:11:53.492867 31278 net.cpp:156] Memory required for data: 1207926048
I0403 15:11:53.492888 31278 layer_factory.hpp:77] Creating layer loss2/relu_conv
I0403 15:11:53.492908 31278 net.cpp:91] Creating Layer loss2/relu_conv
I0403 15:11:53.492925 31278 net.cpp:425] loss2/relu_conv <- loss2/conv
I0403 15:11:53.492946 31278 net.cpp:386] loss2/relu_conv -> loss2/conv (in-place)
I0403 15:11:53.493329 31278 net.cpp:141] Setting up loss2/relu_conv
I0403 15:11:53.493358 31278 net.cpp:148] Top shape: 24 128 4 4 (49152)
I0403 15:11:53.493376 31278 net.cpp:156] Memory required for data: 1208122656
I0403 15:11:53.493392 31278 layer_factory.hpp:77] Creating layer loss2/fc
I0403 15:11:53.493413 31278 net.cpp:91] Creating Layer loss2/fc
I0403 15:11:53.493430 31278 net.cpp:425] loss2/fc <- loss2/conv
I0403 15:11:53.493453 31278 net.cpp:399] loss2/fc -> loss2/fc
I0403 15:11:53.512300 31278 net.cpp:141] Setting up loss2/fc
I0403 15:11:53.512352 31278 net.cpp:148] Top shape: 24 1024 (24576)
I0403 15:11:53.512369 31278 net.cpp:156] Memory required for data: 1208220960
I0403 15:11:53.512390 31278 layer_factory.hpp:77] Creating layer loss2/relu_fc
I0403 15:11:53.512413 31278 net.cpp:91] Creating Layer loss2/relu_fc
I0403 15:11:53.512431 31278 net.cpp:425] loss2/relu_fc <- loss2/fc
I0403 15:11:53.512450 31278 net.cpp:386] loss2/relu_fc -> loss2/fc (in-place)
I0403 15:11:53.512864 31278 net.cpp:141] Setting up loss2/relu_fc
I0403 15:11:53.512897 31278 net.cpp:148] Top shape: 24 1024 (24576)
I0403 15:11:53.512914 31278 net.cpp:156] Memory required for data: 1208319264
I0403 15:11:53.512930 31278 layer_factory.hpp:77] Creating layer loss2/drop_fc
I0403 15:11:53.512950 31278 net.cpp:91] Creating Layer loss2/drop_fc
I0403 15:11:53.512967 31278 net.cpp:425] loss2/drop_fc <- loss2/fc
I0403 15:11:53.512986 31278 net.cpp:386] loss2/drop_fc -> loss2/fc (in-place)
I0403 15:11:53.513042 31278 net.cpp:141] Setting up loss2/drop_fc
I0403 15:11:53.513068 31278 net.cpp:148] Top shape: 24 1024 (24576)
I0403 15:11:53.513084 31278 net.cpp:156] Memory required for data: 1208417568
I0403 15:11:53.513099 31278 layer_factory.hpp:77] Creating layer loss2/classifier_plantvillage
I0403 15:11:53.513123 31278 net.cpp:91] Creating Layer loss2/classifier_plantvillage
I0403 15:11:53.513144 31278 net.cpp:425] loss2/classifier_plantvillage <- loss2/fc
I0403 15:11:53.513164 31278 net.cpp:399] loss2/classifier_plantvillage -> loss2/classifier_plantvillage
I0403 15:11:53.513608 31278 net.cpp:141] Setting up loss2/classifier_plantvillage
I0403 15:11:53.513636 31278 net.cpp:148] Top shape: 24 38 (912)
I0403 15:11:53.513653 31278 net.cpp:156] Memory required for data: 1208421216
I0403 15:11:53.513698 31278 layer_factory.hpp:77] Creating layer loss2/classifier_plantvillage_loss2/classifier_plantvillage_0_split
I0403 15:11:53.513720 31278 net.cpp:91] Creating Layer loss2/classifier_plantvillage_loss2/classifier_plantvillage_0_split
I0403 15:11:53.513736 31278 net.cpp:425] loss2/classifier_plantvillage_loss2/classifier_plantvillage_0_split <- loss2/classifier_plantvillage
I0403 15:11:53.513758 31278 net.cpp:399] loss2/classifier_plantvillage_loss2/classifier_plantvillage_0_split -> loss2/classifier_plantvillage_loss2/classifier_plantvillage_0_split_0
I0403 15:11:53.513783 31278 net.cpp:399] loss2/classifier_plantvillage_loss2/classifier_plantvillage_0_split -> loss2/classifier_plantvillage_loss2/classifier_plantvillage_0_split_1
I0403 15:11:53.513806 31278 net.cpp:399] loss2/classifier_plantvillage_loss2/classifier_plantvillage_0_split -> loss2/classifier_plantvillage_loss2/classifier_plantvillage_0_split_2
I0403 15:11:53.513890 31278 net.cpp:141] Setting up loss2/classifier_plantvillage_loss2/classifier_plantvillage_0_split
I0403 15:11:53.513916 31278 net.cpp:148] Top shape: 24 38 (912)
I0403 15:11:53.513933 31278 net.cpp:148] Top shape: 24 38 (912)
I0403 15:11:53.513949 31278 net.cpp:148] Top shape: 24 38 (912)
I0403 15:11:53.513965 31278 net.cpp:156] Memory required for data: 1208432160
I0403 15:11:53.513981 31278 layer_factory.hpp:77] Creating layer inception_4e/1x1
I0403 15:11:53.514006 31278 net.cpp:91] Creating Layer inception_4e/1x1
I0403 15:11:53.514026 31278 net.cpp:425] inception_4e/1x1 <- inception_4d/output_inception_4d/output_0_split_1
I0403 15:11:53.514047 31278 net.cpp:399] inception_4e/1x1 -> inception_4e/1x1
I0403 15:11:53.516033 31278 net.cpp:141] Setting up inception_4e/1x1
I0403 15:11:53.516065 31278 net.cpp:148] Top shape: 24 256 14 14 (1204224)
I0403 15:11:53.516083 31278 net.cpp:156] Memory required for data: 1213249056
I0403 15:11:53.516103 31278 layer_factory.hpp:77] Creating layer inception_4e/relu_1x1
I0403 15:11:53.516124 31278 net.cpp:91] Creating Layer inception_4e/relu_1x1
I0403 15:11:53.516142 31278 net.cpp:425] inception_4e/relu_1x1 <- inception_4e/1x1
I0403 15:11:53.516161 31278 net.cpp:386] inception_4e/relu_1x1 -> inception_4e/1x1 (in-place)
I0403 15:11:53.516542 31278 net.cpp:141] Setting up inception_4e/relu_1x1
I0403 15:11:53.516572 31278 net.cpp:148] Top shape: 24 256 14 14 (1204224)
I0403 15:11:53.516589 31278 net.cpp:156] Memory required for data: 1218065952
I0403 15:11:53.516605 31278 layer_factory.hpp:77] Creating layer inception_4e/3x3_reduce
I0403 15:11:53.516630 31278 net.cpp:91] Creating Layer inception_4e/3x3_reduce
I0403 15:11:53.516649 31278 net.cpp:425] inception_4e/3x3_reduce <- inception_4d/output_inception_4d/output_0_split_2
I0403 15:11:53.516674 31278 net.cpp:399] inception_4e/3x3_reduce -> inception_4e/3x3_reduce
I0403 15:11:53.519071 31278 net.cpp:141] Setting up inception_4e/3x3_reduce
I0403 15:11:53.519101 31278 net.cpp:148] Top shape: 24 160 14 14 (752640)
I0403 15:11:53.519117 31278 net.cpp:156] Memory required for data: 1221076512
I0403 15:11:53.519136 31278 layer_factory.hpp:77] Creating layer inception_4e/relu_3x3_reduce
I0403 15:11:53.519155 31278 net.cpp:91] Creating Layer inception_4e/relu_3x3_reduce
I0403 15:11:53.519172 31278 net.cpp:425] inception_4e/relu_3x3_reduce <- inception_4e/3x3_reduce
I0403 15:11:53.519193 31278 net.cpp:386] inception_4e/relu_3x3_reduce -> inception_4e/3x3_reduce (in-place)
I0403 15:11:53.519392 31278 net.cpp:141] Setting up inception_4e/relu_3x3_reduce
I0403 15:11:53.519420 31278 net.cpp:148] Top shape: 24 160 14 14 (752640)
I0403 15:11:53.519436 31278 net.cpp:156] Memory required for data: 1224087072
I0403 15:11:53.519451 31278 layer_factory.hpp:77] Creating layer inception_4e/3x3
I0403 15:11:53.519475 31278 net.cpp:91] Creating Layer inception_4e/3x3
I0403 15:11:53.519495 31278 net.cpp:425] inception_4e/3x3 <- inception_4e/3x3_reduce
I0403 15:11:53.519516 31278 net.cpp:399] inception_4e/3x3 -> inception_4e/3x3
I0403 15:11:53.524798 31278 net.cpp:141] Setting up inception_4e/3x3
I0403 15:11:53.524844 31278 net.cpp:148] Top shape: 24 320 14 14 (1505280)
I0403 15:11:53.524860 31278 net.cpp:156] Memory required for data: 1230108192
I0403 15:11:53.524880 31278 layer_factory.hpp:77] Creating layer inception_4e/relu_3x3
I0403 15:11:53.524902 31278 net.cpp:91] Creating Layer inception_4e/relu_3x3
I0403 15:11:53.524919 31278 net.cpp:425] inception_4e/relu_3x3 <- inception_4e/3x3
I0403 15:11:53.524937 31278 net.cpp:386] inception_4e/relu_3x3 -> inception_4e/3x3 (in-place)
I0403 15:11:53.525276 31278 net.cpp:141] Setting up inception_4e/relu_3x3
I0403 15:11:53.525306 31278 net.cpp:148] Top shape: 24 320 14 14 (1505280)
I0403 15:11:53.525324 31278 net.cpp:156] Memory required for data: 1236129312
I0403 15:11:53.525341 31278 layer_factory.hpp:77] Creating layer inception_4e/5x5_reduce
I0403 15:11:53.525362 31278 net.cpp:91] Creating Layer inception_4e/5x5_reduce
I0403 15:11:53.525379 31278 net.cpp:425] inception_4e/5x5_reduce <- inception_4d/output_inception_4d/output_0_split_3
I0403 15:11:53.525403 31278 net.cpp:399] inception_4e/5x5_reduce -> inception_4e/5x5_reduce
I0403 15:11:53.526554 31278 net.cpp:141] Setting up inception_4e/5x5_reduce
I0403 15:11:53.526597 31278 net.cpp:148] Top shape: 24 32 14 14 (150528)
I0403 15:11:53.526612 31278 net.cpp:156] Memory required for data: 1236731424
I0403 15:11:53.526631 31278 layer_factory.hpp:77] Creating layer inception_4e/relu_5x5_reduce
I0403 15:11:53.526653 31278 net.cpp:91] Creating Layer inception_4e/relu_5x5_reduce
I0403 15:11:53.526669 31278 net.cpp:425] inception_4e/relu_5x5_reduce <- inception_4e/5x5_reduce
I0403 15:11:53.526689 31278 net.cpp:386] inception_4e/relu_5x5_reduce -> inception_4e/5x5_reduce (in-place)
I0403 15:11:53.526990 31278 net.cpp:141] Setting up inception_4e/relu_5x5_reduce
I0403 15:11:53.527017 31278 net.cpp:148] Top shape: 24 32 14 14 (150528)
I0403 15:11:53.527032 31278 net.cpp:156] Memory required for data: 1237333536
I0403 15:11:53.527047 31278 layer_factory.hpp:77] Creating layer inception_4e/5x5
I0403 15:11:53.527087 31278 net.cpp:91] Creating Layer inception_4e/5x5
I0403 15:11:53.527107 31278 net.cpp:425] inception_4e/5x5 <- inception_4e/5x5_reduce
I0403 15:11:53.527127 31278 net.cpp:399] inception_4e/5x5 -> inception_4e/5x5
I0403 15:11:53.529080 31278 net.cpp:141] Setting up inception_4e/5x5
I0403 15:11:53.529111 31278 net.cpp:148] Top shape: 24 128 14 14 (602112)
I0403 15:11:53.529129 31278 net.cpp:156] Memory required for data: 1239741984
I0403 15:11:53.529150 31278 layer_factory.hpp:77] Creating layer inception_4e/relu_5x5
I0403 15:11:53.529167 31278 net.cpp:91] Creating Layer inception_4e/relu_5x5
I0403 15:11:53.529183 31278 net.cpp:425] inception_4e/relu_5x5 <- inception_4e/5x5
I0403 15:11:53.529202 31278 net.cpp:386] inception_4e/relu_5x5 -> inception_4e/5x5 (in-place)
I0403 15:11:53.529408 31278 net.cpp:141] Setting up inception_4e/relu_5x5
I0403 15:11:53.529435 31278 net.cpp:148] Top shape: 24 128 14 14 (602112)
I0403 15:11:53.529450 31278 net.cpp:156] Memory required for data: 1242150432
I0403 15:11:53.529466 31278 layer_factory.hpp:77] Creating layer inception_4e/pool
I0403 15:11:53.529484 31278 net.cpp:91] Creating Layer inception_4e/pool
I0403 15:11:53.529501 31278 net.cpp:425] inception_4e/pool <- inception_4d/output_inception_4d/output_0_split_4
I0403 15:11:53.529522 31278 net.cpp:399] inception_4e/pool -> inception_4e/pool
I0403 15:11:53.529593 31278 net.cpp:141] Setting up inception_4e/pool
I0403 15:11:53.529619 31278 net.cpp:148] Top shape: 24 528 14 14 (2483712)
I0403 15:11:53.529634 31278 net.cpp:156] Memory required for data: 1252085280
I0403 15:11:53.529649 31278 layer_factory.hpp:77] Creating layer inception_4e/pool_proj
I0403 15:11:53.529672 31278 net.cpp:91] Creating Layer inception_4e/pool_proj
I0403 15:11:53.529690 31278 net.cpp:425] inception_4e/pool_proj <- inception_4e/pool
I0403 15:11:53.529708 31278 net.cpp:399] inception_4e/pool_proj -> inception_4e/pool_proj
I0403 15:11:53.531213 31278 net.cpp:141] Setting up inception_4e/pool_proj
I0403 15:11:53.531265 31278 net.cpp:148] Top shape: 24 128 14 14 (602112)
I0403 15:11:53.531301 31278 net.cpp:156] Memory required for data: 1254493728
I0403 15:11:53.531337 31278 layer_factory.hpp:77] Creating layer inception_4e/relu_pool_proj
I0403 15:11:53.531380 31278 net.cpp:91] Creating Layer inception_4e/relu_pool_proj
I0403 15:11:53.531422 31278 net.cpp:425] inception_4e/relu_pool_proj <- inception_4e/pool_proj
I0403 15:11:53.531469 31278 net.cpp:386] inception_4e/relu_pool_proj -> inception_4e/pool_proj (in-place)
I0403 15:11:53.531774 31278 net.cpp:141] Setting up inception_4e/relu_pool_proj
I0403 15:11:53.531815 31278 net.cpp:148] Top shape: 24 128 14 14 (602112)
I0403 15:11:53.531846 31278 net.cpp:156] Memory required for data: 1256902176
I0403 15:11:53.531872 31278 layer_factory.hpp:77] Creating layer inception_4e/output
I0403 15:11:53.531898 31278 net.cpp:91] Creating Layer inception_4e/output
I0403 15:11:53.531916 31278 net.cpp:425] inception_4e/output <- inception_4e/1x1
I0403 15:11:53.531934 31278 net.cpp:425] inception_4e/output <- inception_4e/3x3
I0403 15:11:53.531972 31278 net.cpp:425] inception_4e/output <- inception_4e/5x5
I0403 15:11:53.532008 31278 net.cpp:425] inception_4e/output <- inception_4e/pool_proj
I0403 15:11:53.532049 31278 net.cpp:399] inception_4e/output -> inception_4e/output
I0403 15:11:53.532127 31278 net.cpp:141] Setting up inception_4e/output
I0403 15:11:53.532160 31278 net.cpp:148] Top shape: 24 832 14 14 (3913728)
I0403 15:11:53.532181 31278 net.cpp:156] Memory required for data: 1272557088
I0403 15:11:53.532198 31278 layer_factory.hpp:77] Creating layer pool4/3x3_s2
I0403 15:11:53.532228 31278 net.cpp:91] Creating Layer pool4/3x3_s2
I0403 15:11:53.532256 31278 net.cpp:425] pool4/3x3_s2 <- inception_4e/output
I0403 15:11:53.532305 31278 net.cpp:399] pool4/3x3_s2 -> pool4/3x3_s2
I0403 15:11:53.532400 31278 net.cpp:141] Setting up pool4/3x3_s2
I0403 15:11:53.532434 31278 net.cpp:148] Top shape: 24 832 7 7 (978432)
I0403 15:11:53.532472 31278 net.cpp:156] Memory required for data: 1276470816
I0403 15:11:53.532510 31278 layer_factory.hpp:77] Creating layer pool4/3x3_s2_pool4/3x3_s2_0_split
I0403 15:11:53.532553 31278 net.cpp:91] Creating Layer pool4/3x3_s2_pool4/3x3_s2_0_split
I0403 15:11:53.532594 31278 net.cpp:425] pool4/3x3_s2_pool4/3x3_s2_0_split <- pool4/3x3_s2
I0403 15:11:53.532639 31278 net.cpp:399] pool4/3x3_s2_pool4/3x3_s2_0_split -> pool4/3x3_s2_pool4/3x3_s2_0_split_0
I0403 15:11:53.532676 31278 net.cpp:399] pool4/3x3_s2_pool4/3x3_s2_0_split -> pool4/3x3_s2_pool4/3x3_s2_0_split_1
I0403 15:11:53.532711 31278 net.cpp:399] pool4/3x3_s2_pool4/3x3_s2_0_split -> pool4/3x3_s2_pool4/3x3_s2_0_split_2
I0403 15:11:53.532740 31278 net.cpp:399] pool4/3x3_s2_pool4/3x3_s2_0_split -> pool4/3x3_s2_pool4/3x3_s2_0_split_3
I0403 15:11:53.532855 31278 net.cpp:141] Setting up pool4/3x3_s2_pool4/3x3_s2_0_split
I0403 15:11:53.532901 31278 net.cpp:148] Top shape: 24 832 7 7 (978432)
I0403 15:11:53.532938 31278 net.cpp:148] Top shape: 24 832 7 7 (978432)
I0403 15:11:53.532996 31278 net.cpp:148] Top shape: 24 832 7 7 (978432)
I0403 15:11:53.533037 31278 net.cpp:148] Top shape: 24 832 7 7 (978432)
I0403 15:11:53.533077 31278 net.cpp:156] Memory required for data: 1292125728
I0403 15:11:53.533118 31278 layer_factory.hpp:77] Creating layer inception_5a/1x1
I0403 15:11:53.533165 31278 net.cpp:91] Creating Layer inception_5a/1x1
I0403 15:11:53.533190 31278 net.cpp:425] inception_5a/1x1 <- pool4/3x3_s2_pool4/3x3_s2_0_split_0
I0403 15:11:53.533213 31278 net.cpp:399] inception_5a/1x1 -> inception_5a/1x1
I0403 15:11:53.536262 31278 net.cpp:141] Setting up inception_5a/1x1
I0403 15:11:53.536294 31278 net.cpp:148] Top shape: 24 256 7 7 (301056)
I0403 15:11:53.536311 31278 net.cpp:156] Memory required for data: 1293329952
I0403 15:11:53.536330 31278 layer_factory.hpp:77] Creating layer inception_5a/relu_1x1
I0403 15:11:53.536350 31278 net.cpp:91] Creating Layer inception_5a/relu_1x1
I0403 15:11:53.536367 31278 net.cpp:425] inception_5a/relu_1x1 <- inception_5a/1x1
I0403 15:11:53.536388 31278 net.cpp:386] inception_5a/relu_1x1 -> inception_5a/1x1 (in-place)
I0403 15:11:53.536725 31278 net.cpp:141] Setting up inception_5a/relu_1x1
I0403 15:11:53.536756 31278 net.cpp:148] Top shape: 24 256 7 7 (301056)
I0403 15:11:53.536773 31278 net.cpp:156] Memory required for data: 1294534176
I0403 15:11:53.536789 31278 layer_factory.hpp:77] Creating layer inception_5a/3x3_reduce
I0403 15:11:53.536815 31278 net.cpp:91] Creating Layer inception_5a/3x3_reduce
I0403 15:11:53.536839 31278 net.cpp:425] inception_5a/3x3_reduce <- pool4/3x3_s2_pool4/3x3_s2_0_split_1
I0403 15:11:53.536861 31278 net.cpp:399] inception_5a/3x3_reduce -> inception_5a/3x3_reduce
I0403 15:11:53.539362 31278 net.cpp:141] Setting up inception_5a/3x3_reduce
I0403 15:11:53.539397 31278 net.cpp:148] Top shape: 24 160 7 7 (188160)
I0403 15:11:53.539415 31278 net.cpp:156] Memory required for data: 1295286816
I0403 15:11:53.539436 31278 layer_factory.hpp:77] Creating layer inception_5a/relu_3x3_reduce
I0403 15:11:53.539456 31278 net.cpp:91] Creating Layer inception_5a/relu_3x3_reduce
I0403 15:11:53.539474 31278 net.cpp:425] inception_5a/relu_3x3_reduce <- inception_5a/3x3_reduce
I0403 15:11:53.539494 31278 net.cpp:386] inception_5a/relu_3x3_reduce -> inception_5a/3x3_reduce (in-place)
I0403 15:11:53.539700 31278 net.cpp:141] Setting up inception_5a/relu_3x3_reduce
I0403 15:11:53.539727 31278 net.cpp:148] Top shape: 24 160 7 7 (188160)
I0403 15:11:53.539742 31278 net.cpp:156] Memory required for data: 1296039456
I0403 15:11:53.539758 31278 layer_factory.hpp:77] Creating layer inception_5a/3x3
I0403 15:11:53.539782 31278 net.cpp:91] Creating Layer inception_5a/3x3
I0403 15:11:53.539800 31278 net.cpp:425] inception_5a/3x3 <- inception_5a/3x3_reduce
I0403 15:11:53.539827 31278 net.cpp:399] inception_5a/3x3 -> inception_5a/3x3
I0403 15:11:53.544903 31278 net.cpp:141] Setting up inception_5a/3x3
I0403 15:11:53.544936 31278 net.cpp:148] Top shape: 24 320 7 7 (376320)
I0403 15:11:53.544953 31278 net.cpp:156] Memory required for data: 1297544736
I0403 15:11:53.544973 31278 layer_factory.hpp:77] Creating layer inception_5a/relu_3x3
I0403 15:11:53.544991 31278 net.cpp:91] Creating Layer inception_5a/relu_3x3
I0403 15:11:53.545008 31278 net.cpp:425] inception_5a/relu_3x3 <- inception_5a/3x3
I0403 15:11:53.545028 31278 net.cpp:386] inception_5a/relu_3x3 -> inception_5a/3x3 (in-place)
I0403 15:11:53.545342 31278 net.cpp:141] Setting up inception_5a/relu_3x3
I0403 15:11:53.545374 31278 net.cpp:148] Top shape: 24 320 7 7 (376320)
I0403 15:11:53.545390 31278 net.cpp:156] Memory required for data: 1299050016
I0403 15:11:53.545405 31278 layer_factory.hpp:77] Creating layer inception_5a/5x5_reduce
I0403 15:11:53.545429 31278 net.cpp:91] Creating Layer inception_5a/5x5_reduce
I0403 15:11:53.545447 31278 net.cpp:425] inception_5a/5x5_reduce <- pool4/3x3_s2_pool4/3x3_s2_0_split_2
I0403 15:11:53.545467 31278 net.cpp:399] inception_5a/5x5_reduce -> inception_5a/5x5_reduce
I0403 15:11:53.546648 31278 net.cpp:141] Setting up inception_5a/5x5_reduce
I0403 15:11:53.546676 31278 net.cpp:148] Top shape: 24 32 7 7 (37632)
I0403 15:11:53.546694 31278 net.cpp:156] Memory required for data: 1299200544
I0403 15:11:53.546712 31278 layer_factory.hpp:77] Creating layer inception_5a/relu_5x5_reduce
I0403 15:11:53.546730 31278 net.cpp:91] Creating Layer inception_5a/relu_5x5_reduce
I0403 15:11:53.546747 31278 net.cpp:425] inception_5a/relu_5x5_reduce <- inception_5a/5x5_reduce
I0403 15:11:53.546768 31278 net.cpp:386] inception_5a/relu_5x5_reduce -> inception_5a/5x5_reduce (in-place)
I0403 15:11:53.547070 31278 net.cpp:141] Setting up inception_5a/relu_5x5_reduce
I0403 15:11:53.547097 31278 net.cpp:148] Top shape: 24 32 7 7 (37632)
I0403 15:11:53.547112 31278 net.cpp:156] Memory required for data: 1299351072
I0403 15:11:53.547127 31278 layer_factory.hpp:77] Creating layer inception_5a/5x5
I0403 15:11:53.547150 31278 net.cpp:91] Creating Layer inception_5a/5x5
I0403 15:11:53.547168 31278 net.cpp:425] inception_5a/5x5 <- inception_5a/5x5_reduce
I0403 15:11:53.547190 31278 net.cpp:399] inception_5a/5x5 -> inception_5a/5x5
I0403 15:11:53.548926 31278 net.cpp:141] Setting up inception_5a/5x5
I0403 15:11:53.548969 31278 net.cpp:148] Top shape: 24 128 7 7 (150528)
I0403 15:11:53.548987 31278 net.cpp:156] Memory required for data: 1299953184
I0403 15:11:53.549007 31278 layer_factory.hpp:77] Creating layer inception_5a/relu_5x5
I0403 15:11:53.549026 31278 net.cpp:91] Creating Layer inception_5a/relu_5x5
I0403 15:11:53.549041 31278 net.cpp:425] inception_5a/relu_5x5 <- inception_5a/5x5
I0403 15:11:53.549062 31278 net.cpp:386] inception_5a/relu_5x5 -> inception_5a/5x5 (in-place)
I0403 15:11:53.549257 31278 net.cpp:141] Setting up inception_5a/relu_5x5
I0403 15:11:53.549283 31278 net.cpp:148] Top shape: 24 128 7 7 (150528)
I0403 15:11:53.549299 31278 net.cpp:156] Memory required for data: 1300555296
I0403 15:11:53.549314 31278 layer_factory.hpp:77] Creating layer inception_5a/pool
I0403 15:11:53.549331 31278 net.cpp:91] Creating Layer inception_5a/pool
I0403 15:11:53.549347 31278 net.cpp:425] inception_5a/pool <- pool4/3x3_s2_pool4/3x3_s2_0_split_3
I0403 15:11:53.549367 31278 net.cpp:399] inception_5a/pool -> inception_5a/pool
I0403 15:11:53.549443 31278 net.cpp:141] Setting up inception_5a/pool
I0403 15:11:53.549468 31278 net.cpp:148] Top shape: 24 832 7 7 (978432)
I0403 15:11:53.549482 31278 net.cpp:156] Memory required for data: 1304469024
I0403 15:11:53.549499 31278 layer_factory.hpp:77] Creating layer inception_5a/pool_proj
I0403 15:11:53.549530 31278 net.cpp:91] Creating Layer inception_5a/pool_proj
I0403 15:11:53.549547 31278 net.cpp:425] inception_5a/pool_proj <- inception_5a/pool
I0403 15:11:53.549567 31278 net.cpp:399] inception_5a/pool_proj -> inception_5a/pool_proj
I0403 15:11:53.551867 31278 net.cpp:141] Setting up inception_5a/pool_proj
I0403 15:11:53.551900 31278 net.cpp:148] Top shape: 24 128 7 7 (150528)
I0403 15:11:53.551918 31278 net.cpp:156] Memory required for data: 1305071136
I0403 15:11:53.551936 31278 layer_factory.hpp:77] Creating layer inception_5a/relu_pool_proj
I0403 15:11:53.551955 31278 net.cpp:91] Creating Layer inception_5a/relu_pool_proj
I0403 15:11:53.551971 31278 net.cpp:425] inception_5a/relu_pool_proj <- inception_5a/pool_proj
I0403 15:11:53.551990 31278 net.cpp:386] inception_5a/relu_pool_proj -> inception_5a/pool_proj (in-place)
I0403 15:11:53.552300 31278 net.cpp:141] Setting up inception_5a/relu_pool_proj
I0403 15:11:53.552330 31278 net.cpp:148] Top shape: 24 128 7 7 (150528)
I0403 15:11:53.552347 31278 net.cpp:156] Memory required for data: 1305673248
I0403 15:11:53.552362 31278 layer_factory.hpp:77] Creating layer inception_5a/output
I0403 15:11:53.552379 31278 net.cpp:91] Creating Layer inception_5a/output
I0403 15:11:53.552395 31278 net.cpp:425] inception_5a/output <- inception_5a/1x1
I0403 15:11:53.552412 31278 net.cpp:425] inception_5a/output <- inception_5a/3x3
I0403 15:11:53.552429 31278 net.cpp:425] inception_5a/output <- inception_5a/5x5
I0403 15:11:53.552448 31278 net.cpp:425] inception_5a/output <- inception_5a/pool_proj
I0403 15:11:53.552465 31278 net.cpp:399] inception_5a/output -> inception_5a/output
I0403 15:11:53.552526 31278 net.cpp:141] Setting up inception_5a/output
I0403 15:11:53.552552 31278 net.cpp:148] Top shape: 24 832 7 7 (978432)
I0403 15:11:53.552568 31278 net.cpp:156] Memory required for data: 1309586976
I0403 15:11:53.552584 31278 layer_factory.hpp:77] Creating layer inception_5a/output_inception_5a/output_0_split
I0403 15:11:53.552603 31278 net.cpp:91] Creating Layer inception_5a/output_inception_5a/output_0_split
I0403 15:11:53.552619 31278 net.cpp:425] inception_5a/output_inception_5a/output_0_split <- inception_5a/output
I0403 15:11:53.552636 31278 net.cpp:399] inception_5a/output_inception_5a/output_0_split -> inception_5a/output_inception_5a/output_0_split_0
I0403 15:11:53.552656 31278 net.cpp:399] inception_5a/output_inception_5a/output_0_split -> inception_5a/output_inception_5a/output_0_split_1
I0403 15:11:53.552677 31278 net.cpp:399] inception_5a/output_inception_5a/output_0_split -> inception_5a/output_inception_5a/output_0_split_2
I0403 15:11:53.552697 31278 net.cpp:399] inception_5a/output_inception_5a/output_0_split -> inception_5a/output_inception_5a/output_0_split_3
I0403 15:11:53.552834 31278 net.cpp:141] Setting up inception_5a/output_inception_5a/output_0_split
I0403 15:11:53.552862 31278 net.cpp:148] Top shape: 24 832 7 7 (978432)
I0403 15:11:53.552881 31278 net.cpp:148] Top shape: 24 832 7 7 (978432)
I0403 15:11:53.552897 31278 net.cpp:148] Top shape: 24 832 7 7 (978432)
I0403 15:11:53.552913 31278 net.cpp:148] Top shape: 24 832 7 7 (978432)
I0403 15:11:53.552958 31278 net.cpp:156] Memory required for data: 1325241888
I0403 15:11:53.552978 31278 layer_factory.hpp:77] Creating layer inception_5b/1x1
I0403 15:11:53.553025 31278 net.cpp:91] Creating Layer inception_5b/1x1
I0403 15:11:53.553047 31278 net.cpp:425] inception_5b/1x1 <- inception_5a/output_inception_5a/output_0_split_0
I0403 15:11:53.553083 31278 net.cpp:399] inception_5b/1x1 -> inception_5b/1x1
I0403 15:11:53.684031 31278 net.cpp:141] Setting up inception_5b/1x1
I0403 15:11:53.684115 31278 net.cpp:148] Top shape: 24 384 7 7 (451584)
I0403 15:11:53.684134 31278 net.cpp:156] Memory required for data: 1327048224
I0403 15:11:53.684159 31278 layer_factory.hpp:77] Creating layer inception_5b/relu_1x1
I0403 15:11:53.684185 31278 net.cpp:91] Creating Layer inception_5b/relu_1x1
I0403 15:11:53.684227 31278 net.cpp:425] inception_5b/relu_1x1 <- inception_5b/1x1
I0403 15:11:53.684275 31278 net.cpp:386] inception_5b/relu_1x1 -> inception_5b/1x1 (in-place)
I0403 15:11:53.684742 31278 net.cpp:141] Setting up inception_5b/relu_1x1
I0403 15:11:53.684774 31278 net.cpp:148] Top shape: 24 384 7 7 (451584)
I0403 15:11:53.684793 31278 net.cpp:156] Memory required for data: 1328854560
I0403 15:11:53.684811 31278 layer_factory.hpp:77] Creating layer inception_5b/3x3_reduce
I0403 15:11:53.684844 31278 net.cpp:91] Creating Layer inception_5b/3x3_reduce
I0403 15:11:53.684864 31278 net.cpp:425] inception_5b/3x3_reduce <- inception_5a/output_inception_5a/output_0_split_1
I0403 15:11:53.684886 31278 net.cpp:399] inception_5b/3x3_reduce -> inception_5b/3x3_reduce
I0403 15:11:53.687791 31278 net.cpp:141] Setting up inception_5b/3x3_reduce
I0403 15:11:53.687827 31278 net.cpp:148] Top shape: 24 192 7 7 (225792)
I0403 15:11:53.687845 31278 net.cpp:156] Memory required for data: 1329757728
I0403 15:11:53.687866 31278 layer_factory.hpp:77] Creating layer inception_5b/relu_3x3_reduce
I0403 15:11:53.687886 31278 net.cpp:91] Creating Layer inception_5b/relu_3x3_reduce
I0403 15:11:53.687904 31278 net.cpp:425] inception_5b/relu_3x3_reduce <- inception_5b/3x3_reduce
I0403 15:11:53.687923 31278 net.cpp:386] inception_5b/relu_3x3_reduce -> inception_5b/3x3_reduce (in-place)
I0403 15:11:53.688134 31278 net.cpp:141] Setting up inception_5b/relu_3x3_reduce
I0403 15:11:53.688163 31278 net.cpp:148] Top shape: 24 192 7 7 (225792)
I0403 15:11:53.688179 31278 net.cpp:156] Memory required for data: 1330660896
I0403 15:11:53.688195 31278 layer_factory.hpp:77] Creating layer inception_5b/3x3
I0403 15:11:53.688220 31278 net.cpp:91] Creating Layer inception_5b/3x3
I0403 15:11:53.688238 31278 net.cpp:425] inception_5b/3x3 <- inception_5b/3x3_reduce
I0403 15:11:53.688267 31278 net.cpp:399] inception_5b/3x3 -> inception_5b/3x3
I0403 15:11:53.695670 31278 net.cpp:141] Setting up inception_5b/3x3
I0403 15:11:53.695705 31278 net.cpp:148] Top shape: 24 384 7 7 (451584)
I0403 15:11:53.695724 31278 net.cpp:156] Memory required for data: 1332467232
I0403 15:11:53.695745 31278 layer_factory.hpp:77] Creating layer inception_5b/relu_3x3
I0403 15:11:53.695765 31278 net.cpp:91] Creating Layer inception_5b/relu_3x3
I0403 15:11:53.695782 31278 net.cpp:425] inception_5b/relu_3x3 <- inception_5b/3x3
I0403 15:11:53.695801 31278 net.cpp:386] inception_5b/relu_3x3 -> inception_5b/3x3 (in-place)
I0403 15:11:53.696125 31278 net.cpp:141] Setting up inception_5b/relu_3x3
I0403 15:11:53.696156 31278 net.cpp:148] Top shape: 24 384 7 7 (451584)
I0403 15:11:53.696172 31278 net.cpp:156] Memory required for data: 1334273568
I0403 15:11:53.696188 31278 layer_factory.hpp:77] Creating layer inception_5b/5x5_reduce
I0403 15:11:53.696245 31278 net.cpp:91] Creating Layer inception_5b/5x5_reduce
I0403 15:11:53.696271 31278 net.cpp:425] inception_5b/5x5_reduce <- inception_5a/output_inception_5a/output_0_split_2
I0403 15:11:53.696295 31278 net.cpp:399] inception_5b/5x5_reduce -> inception_5b/5x5_reduce
I0403 15:11:53.697664 31278 net.cpp:141] Setting up inception_5b/5x5_reduce
I0403 15:11:53.697698 31278 net.cpp:148] Top shape: 24 48 7 7 (56448)
I0403 15:11:53.697717 31278 net.cpp:156] Memory required for data: 1334499360
I0403 15:11:53.697737 31278 layer_factory.hpp:77] Creating layer inception_5b/relu_5x5_reduce
I0403 15:11:53.697757 31278 net.cpp:91] Creating Layer inception_5b/relu_5x5_reduce
I0403 15:11:53.697775 31278 net.cpp:425] inception_5b/relu_5x5_reduce <- inception_5b/5x5_reduce
I0403 15:11:53.697796 31278 net.cpp:386] inception_5b/relu_5x5_reduce -> inception_5b/5x5_reduce (in-place)
I0403 15:11:53.698196 31278 net.cpp:141] Setting up inception_5b/relu_5x5_reduce
I0403 15:11:53.698226 31278 net.cpp:148] Top shape: 24 48 7 7 (56448)
I0403 15:11:53.698243 31278 net.cpp:156] Memory required for data: 1334725152
I0403 15:11:53.698266 31278 layer_factory.hpp:77] Creating layer inception_5b/5x5
I0403 15:11:53.698288 31278 net.cpp:91] Creating Layer inception_5b/5x5
I0403 15:11:53.698308 31278 net.cpp:425] inception_5b/5x5 <- inception_5b/5x5_reduce
I0403 15:11:53.698329 31278 net.cpp:399] inception_5b/5x5 -> inception_5b/5x5
I0403 15:11:53.700556 31278 net.cpp:141] Setting up inception_5b/5x5
I0403 15:11:53.700590 31278 net.cpp:148] Top shape: 24 128 7 7 (150528)
I0403 15:11:53.700608 31278 net.cpp:156] Memory required for data: 1335327264
I0403 15:11:53.700626 31278 layer_factory.hpp:77] Creating layer inception_5b/relu_5x5
I0403 15:11:53.700646 31278 net.cpp:91] Creating Layer inception_5b/relu_5x5
I0403 15:11:53.700664 31278 net.cpp:425] inception_5b/relu_5x5 <- inception_5b/5x5
I0403 15:11:53.700686 31278 net.cpp:386] inception_5b/relu_5x5 -> inception_5b/5x5 (in-place)
I0403 15:11:53.700897 31278 net.cpp:141] Setting up inception_5b/relu_5x5
I0403 15:11:53.700925 31278 net.cpp:148] Top shape: 24 128 7 7 (150528)
I0403 15:11:53.700942 31278 net.cpp:156] Memory required for data: 1335929376
I0403 15:11:53.700960 31278 layer_factory.hpp:77] Creating layer inception_5b/pool
I0403 15:11:53.700984 31278 net.cpp:91] Creating Layer inception_5b/pool
I0403 15:11:53.701005 31278 net.cpp:425] inception_5b/pool <- inception_5a/output_inception_5a/output_0_split_3
I0403 15:11:53.701035 31278 net.cpp:399] inception_5b/pool -> inception_5b/pool
I0403 15:11:53.701120 31278 net.cpp:141] Setting up inception_5b/pool
I0403 15:11:53.701148 31278 net.cpp:148] Top shape: 24 832 7 7 (978432)
I0403 15:11:53.701169 31278 net.cpp:156] Memory required for data: 1339843104
I0403 15:11:53.701186 31278 layer_factory.hpp:77] Creating layer inception_5b/pool_proj
I0403 15:11:53.701217 31278 net.cpp:91] Creating Layer inception_5b/pool_proj
I0403 15:11:53.701249 31278 net.cpp:425] inception_5b/pool_proj <- inception_5b/pool
I0403 15:11:53.701280 31278 net.cpp:399] inception_5b/pool_proj -> inception_5b/pool_proj
I0403 15:11:53.703775 31278 net.cpp:141] Setting up inception_5b/pool_proj
I0403 15:11:53.703814 31278 net.cpp:148] Top shape: 24 128 7 7 (150528)
I0403 15:11:53.703831 31278 net.cpp:156] Memory required for data: 1340445216
I0403 15:11:53.703873 31278 layer_factory.hpp:77] Creating layer inception_5b/relu_pool_proj
I0403 15:11:53.703898 31278 net.cpp:91] Creating Layer inception_5b/relu_pool_proj
I0403 15:11:53.703922 31278 net.cpp:425] inception_5b/relu_pool_proj <- inception_5b/pool_proj
I0403 15:11:53.703958 31278 net.cpp:386] inception_5b/relu_pool_proj -> inception_5b/pool_proj (in-place)
I0403 15:11:53.704306 31278 net.cpp:141] Setting up inception_5b/relu_pool_proj
I0403 15:11:53.704339 31278 net.cpp:148] Top shape: 24 128 7 7 (150528)
I0403 15:11:53.704357 31278 net.cpp:156] Memory required for data: 1341047328
I0403 15:11:53.704375 31278 layer_factory.hpp:77] Creating layer inception_5b/output
I0403 15:11:53.704396 31278 net.cpp:91] Creating Layer inception_5b/output
I0403 15:11:53.704432 31278 net.cpp:425] inception_5b/output <- inception_5b/1x1
I0403 15:11:53.704452 31278 net.cpp:425] inception_5b/output <- inception_5b/3x3
I0403 15:11:53.704470 31278 net.cpp:425] inception_5b/output <- inception_5b/5x5
I0403 15:11:53.704489 31278 net.cpp:425] inception_5b/output <- inception_5b/pool_proj
I0403 15:11:53.704514 31278 net.cpp:399] inception_5b/output -> inception_5b/output
I0403 15:11:53.704572 31278 net.cpp:141] Setting up inception_5b/output
I0403 15:11:53.704599 31278 net.cpp:148] Top shape: 24 1024 7 7 (1204224)
I0403 15:11:53.704615 31278 net.cpp:156] Memory required for data: 1345864224
I0403 15:11:53.704632 31278 layer_factory.hpp:77] Creating layer pool5/7x7_s1
I0403 15:11:53.704655 31278 net.cpp:91] Creating Layer pool5/7x7_s1
I0403 15:11:53.704674 31278 net.cpp:425] pool5/7x7_s1 <- inception_5b/output
I0403 15:11:53.704696 31278 net.cpp:399] pool5/7x7_s1 -> pool5/7x7_s1
I0403 15:11:53.704932 31278 net.cpp:141] Setting up pool5/7x7_s1
I0403 15:11:53.704968 31278 net.cpp:148] Top shape: 24 1024 1 1 (24576)
I0403 15:11:53.704987 31278 net.cpp:156] Memory required for data: 1345962528
I0403 15:11:53.705003 31278 layer_factory.hpp:77] Creating layer pool5/drop_7x7_s1
I0403 15:11:53.705027 31278 net.cpp:91] Creating Layer pool5/drop_7x7_s1
I0403 15:11:53.705061 31278 net.cpp:425] pool5/drop_7x7_s1 <- pool5/7x7_s1
I0403 15:11:53.705107 31278 net.cpp:386] pool5/drop_7x7_s1 -> pool5/7x7_s1 (in-place)
I0403 15:11:53.705165 31278 net.cpp:141] Setting up pool5/drop_7x7_s1
I0403 15:11:53.705195 31278 net.cpp:148] Top shape: 24 1024 1 1 (24576)
I0403 15:11:53.705227 31278 net.cpp:156] Memory required for data: 1346060832
I0403 15:11:53.705267 31278 layer_factory.hpp:77] Creating layer loss3/classifier_plantvillage
I0403 15:11:53.705294 31278 net.cpp:91] Creating Layer loss3/classifier_plantvillage
I0403 15:11:53.705314 31278 net.cpp:425] loss3/classifier_plantvillage <- pool5/7x7_s1
I0403 15:11:53.705338 31278 net.cpp:399] loss3/classifier_plantvillage -> loss3/classifier_plantvillage
I0403 15:11:53.705803 31278 net.cpp:141] Setting up loss3/classifier_plantvillage
I0403 15:11:53.705852 31278 net.cpp:148] Top shape: 24 38 (912)
I0403 15:11:53.705876 31278 net.cpp:156] Memory required for data: 1346064480
I0403 15:11:53.705896 31278 layer_factory.hpp:77] Creating layer loss3/classifier_plantvillage_loss3/classifier_plantvillage_0_split
I0403 15:11:53.705919 31278 net.cpp:91] Creating Layer loss3/classifier_plantvillage_loss3/classifier_plantvillage_0_split
I0403 15:11:53.705960 31278 net.cpp:425] loss3/classifier_plantvillage_loss3/classifier_plantvillage_0_split <- loss3/classifier_plantvillage
I0403 15:11:53.705983 31278 net.cpp:399] loss3/classifier_plantvillage_loss3/classifier_plantvillage_0_split -> loss3/classifier_plantvillage_loss3/classifier_plantvillage_0_split_0
I0403 15:11:53.706022 31278 net.cpp:399] loss3/classifier_plantvillage_loss3/classifier_plantvillage_0_split -> loss3/classifier_plantvillage_loss3/classifier_plantvillage_0_split_1
I0403 15:11:53.706063 31278 net.cpp:399] loss3/classifier_plantvillage_loss3/classifier_plantvillage_0_split -> loss3/classifier_plantvillage_loss3/classifier_plantvillage_0_split_2
I0403 15:11:53.706085 31278 net.cpp:399] loss3/classifier_plantvillage_loss3/classifier_plantvillage_0_split -> loss3/classifier_plantvillage_loss3/classifier_plantvillage_0_split_3
I0403 15:11:53.706192 31278 net.cpp:141] Setting up loss3/classifier_plantvillage_loss3/classifier_plantvillage_0_split
I0403 15:11:53.706228 31278 net.cpp:148] Top shape: 24 38 (912)
I0403 15:11:53.706274 31278 net.cpp:148] Top shape: 24 38 (912)
I0403 15:11:53.706295 31278 net.cpp:148] Top shape: 24 38 (912)
I0403 15:11:53.706311 31278 net.cpp:148] Top shape: 24 38 (912)
I0403 15:11:53.706326 31278 net.cpp:156] Memory required for data: 1346079072
I0403 15:11:53.706343 31278 layer_factory.hpp:77] Creating layer loss1/loss
I0403 15:11:53.706367 31278 net.cpp:91] Creating Layer loss1/loss
I0403 15:11:53.706387 31278 net.cpp:425] loss1/loss <- loss1/classifier_plantvillage_loss1/classifier_plantvillage_0_split_0
I0403 15:11:53.706421 31278 net.cpp:425] loss1/loss <- label_data_1_split_0
…
