…
I0403 15:29:18.318730 31944 net.cpp:313] The NetState phase (1) differed from the phase (0) specified by a rule in layer data
I0403 15:29:18.319864 31944 net.cpp:49] Initializing net from parameters: 
state {
  phase: TEST
}
layer {
  name: "data"
  type: "Data"
  top: "data"
  top: "label"
  include {
    phase: TEST
  }
  transform_param {
    mirror: false
    crop_size: 224
    mean_file: "/home/mohanty/data/final_dataset/lmdb/color-60-40/mean.binaryproto"
  }
  data_param {
    source: "/home/mohanty/data/final_dataset/lmdb/color-60-40/test_db"
    batch_size: 24
    backend: LMDB
  }
}
layer {
  name: "conv1/7x7_s2"
  type: "Convolution"
  bottom: "data"
  top: "conv1/7x7_s2"
  param {
    lr_mult: 1
    decay_mult: 1
  }
  param {
    lr_mult: 2
    decay_mult: 0
  }
  convolution_param {
    num_output: 64
    pad: 3
    kernel_size: 7
    stride: 2
    weight_filler {
      type: "xavier"
      std: 0.1
    }
    bias_filler {
      type: "constant"
      value: 0.2
    }
  }
}
layer {
  name: "conv1/relu_7x7"
  type: "ReLU"
  bottom: "conv1/7x7_s2"
  top: "conv1/7x7_s2"
}
layer {
  name: "pool1/3x3_s2"
  type: "Pooling"
  bottom: "conv1/7x7_s2"
  top: "pool1/3x3_s2"
  pooling_param {
    pool: MAX
    kernel_size: 3
    stride: 2
  }
}
layer {
  name: "pool1/norm1"
  type: "LRN"
  bottom: "pool1/3x3_s2"
  top: "pool1/norm1"
  lrn_param {
    local_size: 5
    alpha: 0.0001
    beta: 0.75
  }
}
layer {
  name: "conv2/3x3_reduce"
  type: "Convolution"
  bottom: "pool1/norm1"
  top: "conv2/3x3_reduce"
  param {
    lr_mult: 1
    decay_mult: 1
  }
  param {
    lr_mult: 2
    decay_mult: 0
  }
  convolution_param {
    num_output: 64
    kernel_size: 1
    weight_filler {
      type: "xavier"
      std: 0.1
    }
    bias_filler {
      type: "constant"
      value: 0.2
    }
  }
}
layer {
  name: "conv2/relu_3x3_reduce"
  type: "ReLU"
  bottom: "conv2/3x3_reduce"
  top: "conv2/3x3_reduce"
}
layer {
  name: "conv2/3x3"
  type: "Convolution"
  bottom: "conv2/3x3_reduce"
  top: "conv2/3x3"
  param {
    lr_mult: 1
    decay_mult: 1
  }
  param {
    lr_mult: 2
    decay_mult: 0
  }
  convolution_param {
    num_output: 192
    pad: 1
    kernel_size: 3
    weight_filler {
      type: "xavier"
      std: 0.03
    }
    bias_filler {
      type: "constant"
      value: 0.2
    }
  }
}
layer {
  name: "conv2/relu_3x3"
  type: "ReLU"
  bottom: "conv2/3x3"
  top: "conv2/3x3"
}
layer {
  name: "conv2/norm2"
  type: "LRN"
  bottom: "conv2/3x3"
  top: "conv2/norm2"
  lrn_param {
    local_size: 5
    alpha: 0.0001
    beta: 0.75
  }
}
layer {
  name: "pool2/3x3_s2"
  type: "Pooling"
  bottom: "conv2/norm2"
  top: "pool2/3x3_s2"
  pooling_param {
    pool: MAX
    kernel_size: 3
    stride: 2
  }
}
layer {
  name: "inception_3a/1x1"
  type: "Convolution"
  bottom: "pool2/3x3_s2"
  top: "inception_3a/1x1"
  param {
    lr_mult: 1
    decay_mult: 1
  }
  param {
    lr_mult: 2
    decay_mult: 0
  }
  convolution_param {
    num_output: 64
    kernel_size: 1
    weight_filler {
      type: "xavier"
      std: 0.03
    }
    bias_filler {
      type: "constant"
      value: 0.2
    }
  }
}
layer {
  name: "inception_3a/relu_1x1"
  type: "ReLU"
  bottom: "inception_3a/1x1"
  top: "inception_3a/1x1"
}
layer {
  name: "inception_3a/3x3_reduce"
  type: "Convolution"
  bottom: "pool2/3x3_s2"
  top: "inception_3a/3x3_reduce"
  param {
    lr_mult: 1
    decay_mult: 1
  }
  param {
    lr_mult: 2
    decay_mult: 0
  }
  convolution_param {
    num_output: 96
    kernel_size: 1
    weight_filler {
      type: "xavier"
      std: 0.09
    }
    bias_filler {
      type: "constant"
      value: 0.2
    }
  }
}
layer {
  name: "inception_3a/relu_3x3_reduce"
  type: "ReLU"
  bottom: "inception_3a/3x3_reduce"
  top: "inception_3a/3x3_reduce"
}
layer {
  name: "inception_3a/3x3"
  type: "Convolution"
  bottom: "inception_3a/3x3_reduce"
  top: "inception_3a/3x3"
  param {
    lr_mult: 1
    decay_mult: 1
  }
  param {
    lr_mult: 2
    decay_mult: 0
  }
  convolution_param {
    num_output: 128
    pad: 1
    kernel_size: 3
    weight_filler {
      type: "xavier"
      std: 0.03
    }
    bias_filler {
      type: "constant"
      value: 0.2
    }
  }
}
layer {
  name: "inception_3a/relu_3x3"
  type: "ReLU"
  bottom: "inception_3a/3x3"
  top: "inception_3a/3x3"
}
layer {
  name: "inception_3a/5x5_reduce"
  type: "Convolution"
  bottom: "pool2/3x3_s2"
  top: "inception_3a/5x5_reduce"
  param {
    lr_mult: 1
    decay_mult: 1
  }
  param {
    lr_mult: 2
    decay_mult: 0
  }
  convolution_param {
    num_output: 16
    kernel_size: 1
    weight_filler {
      type: "xavier"
      std: 0.2
    }
    bias_filler {
      type: "constant"
      value: 0.2
    }
  }
}
layer {
  name: "inception_3a/relu_5x5_reduce"
  type: "ReLU"
  bottom: "inception_3a/5x5_reduce"
  top: "inception_3a/5x5_reduce"
}
layer {
  name: "inception_3a/5x5"
  type: "Convolution"
  bottom: "inception_3a/5x5_reduce"
  top: "inception_3a/5x5"
  param {
    lr_mult: 1
    decay_mult: 1
  }
  param {
    lr_mult: 2
    decay_mult: 0
  }
  convolution_param {
    num_output: 32
    pad: 2
    kernel_size: 5
    weight_filler {
      type: "xavier"
      std: 0.03
    }
    bias_filler {
      type: "constant"
      value: 0.2
    }
  }
}
layer {
  name: "inception_3a/relu_5x5"
  type: "ReLU"
  bottom: "inception_3a/5x5"
  top: "inception_3a/5x5"
}
layer {
  name: "inception_3a/pool"
  type: "Pooling"
  bottom: "pool2/3x3_s2"
  top: "inception_3a/pool"
  pooling_param {
    pool: MAX
    kernel_size: 3
    stride: 1
    pad: 1
  }
}
layer {
  name: "inception_3a/pool_proj"
  type: "Convolution"
  bottom: "inception_3a/pool"
  top: "inception_3a/pool_proj"
  param {
    lr_mult: 1
    decay_mult: 1
  }
  param {
    lr_mult: 2
    decay_mult: 0
  }
  convolution_param {
    num_output: 32
    kernel_size: 1
    weight_filler {
      type: "xavier"
      std: 0.1
    }
    bias_filler {
      type: "constant"
      value: 0.2
    }
  }
}
layer {
  name: "inception_3a/relu_pool_proj"
  type: "ReLU"
  bottom: "inception_3a/pool_proj"
  top: "inception_3a/pool_proj"
}
layer {
  name: "inception_3a/output"
  type: "Concat"
  bottom: "inception_3a/1x1"
  bottom: "inception_3a/3x3"
  bottom: "inception_3a/5x5"
  bottom: "inception_3a/pool_proj"
  top: "inception_3a/output"
}
layer {
  name: "inception_3b/1x1"
  type: "Convolution"
  bottom: "inception_3a/output"
  top: "inception_3b/1x1"
  param {
    lr_mult: 1
    decay_mult: 1
  }
  param {
    lr_mult: 2
    decay_mult: 0
  }
  convolution_param {
    num_output: 128
    kernel_size: 1
    weight_filler {
      type: "xavier"
      std: 0.03
    }
    bias_filler {
      type: "constant"
      value: 0.2
    }
  }
}
layer {
  name: "inception_3b/relu_1x1"
  type: "ReLU"
  bottom: "inception_3b/1x1"
  top: "inception_3b/1x1"
}
layer {
  name: "inception_3b/3x3_reduce"
  type: "Convolution"
  bottom: "inception_3a/output"
  top: "inception_3b/3x3_reduce"
  param {
    lr_mult: 1
    decay_mult: 1
  }
  param {
    lr_mult: 2
    decay_mult: 0
  }
  convolution_param {
    num_output: 128
    kernel_size: 1
    weight_filler {
      type: "xavier"
      std: 0.09
    }
    bias_filler {
      type: "constant"
      value: 0.2
    }
  }
}
layer {
  name: "inception_3b/relu_3x3_reduce"
  type: "ReLU"
  bottom: "inception_3b/3x3_reduce"
  top: "inception_3b/3x3_reduce"
}
layer {
  name: "inception_3b/3x3"
  type: "Convolution"
  bottom: "inception_3b/3x3_reduce"
  top: "inception_3b/3x3"
  param {
    lr_mult: 1
    decay_mult: 1
  }
  param {
    lr_mult: 2
    decay_mult: 0
  }
  convolution_param {
    num_output: 192
    pad: 1
    kernel_size: 3
    weight_filler {
      type: "xavier"
      std: 0.03
    }
    bias_filler {
      type: "constant"
      value: 0.2
    }
  }
}
layer {
  name: "inception_3b/relu_3x3"
  type: "ReLU"
  bottom: "inception_3b/3x3"
  top: "inception_3b/3x3"
}
layer {
  name: "inception_3b/5x5_reduce"
  type: "Convolution"
  bottom: "inception_3a/output"
  top: "inception_3b/5x5_reduce"
  param {
    lr_mult: 1
    decay_mult: 1
  }
  param {
    lr_mult: 2
    decay_mult: 0
  }
  convolution_param {
    num_output: 32
    kernel_size: 1
    weight_filler {
      type: "xavier"
      std: 0.2
    }
    bias_filler {
      type: "constant"
      value: 0.2
    }
  }
}
layer {
  name: "inception_3b/relu_5x5_reduce"
  type: "ReLU"
  bottom: "inception_3b/5x5_reduce"
  top: "inception_3b/5x5_reduce"
}
layer {
  name: "inception_3b/5x5"
  type: "Convolution"
  bottom: "inception_3b/5x5_reduce"
  top: "inception_3b/5x5"
  param {
    lr_mult: 1
    decay_mult: 1
  }
  param {
    lr_mult: 2
    decay_mult: 0
  }
  convolution_param {
    num_output: 96
    pad: 2
    kernel_size: 5
    weight_filler {
      type: "xavier"
      std: 0.03
    }
    bias_filler {
      type: "constant"
      value: 0.2
    }
  }
}
layer {
  name: "inception_3b/relu_5x5"
  type: "ReLU"
  bottom: "inception_3b/5x5"
  top: "inception_3b/5x5"
}
layer {
  name: "inception_3b/pool"
  type: "Pooling"
  bottom: "inception_3a/output"
  top: "inception_3b/pool"
  pooling_param {
    pool: MAX
    kernel_size: 3
    stride: 1
    pad: 1
  }
}
layer {
  name: "inception_3b/pool_proj"
  type: "Convolution"
  bottom: "inception_3b/pool"
  top: "inception_3b/pool_proj"
  param {
    lr_mult: 1
    decay_mult: 1
  }
  param {
    lr_mult: 2
    decay_mult: 0
  }
  convolution_param {
    num_output: 64
    kernel_size: 1
    weight_filler {
      type: "xavier"
      std: 0.1
    }
    bias_filler {
      type: "constant"
      value: 0.2
    }
  }
}
layer {
  name: "inception_3b/relu_pool_proj"
  type: "ReLU"
  bottom: "inception_3b/pool_proj"
  top: "inception_3b/pool_proj"
}
layer {
  name: "inception_3b/output"
  type: "Concat"
  bottom: "inception_3b/1x1"
  bottom: "inception_3b/3x3"
  bottom: "inception_3b/5x5"
  bottom: "inception_3b/pool_proj"
  top: "inception_3b/output"
}
layer {
  name: "pool3/3x3_s2"
  type: "Pooling"
  bottom: "inception_3b/output"
  top: "pool3/3x3_s2"
  pooling_param {
    pool: MAX
    kernel_size: 3
    stride: 2
  }
}
layer {
  name: "inception_4a/1x1"
  type: "Convolution"
  bottom: "pool3/3x3_s2"
  top: "inception_4a/1x1"
  param {
    lr_mult: 1
    decay_mult: 1
  }
  param {
    lr_mult: 2
    decay_mult: 0
  }
  convolution_param {
    num_output: 192
    kernel_size: 1
    weight_filler {
      type: "xavier"
      std: 0.03
    }
    bias_filler {
      type: "constant"
      value: 0.2
    }
  }
}
layer {
  name: "inception_4a/relu_1x1"
  type: "ReLU"
  bottom: "inception_4a/1x1"
  top: "inception_4a/1x1"
}
layer {
  name: "inception_4a/3x3_reduce"
  type: "Convolution"
  bottom: "pool3/3x3_s2"
  top: "inception_4a/3x3_reduce"
  param {
    lr_mult: 1
    decay_mult: 1
  }
  param {
    lr_mult: 2
    decay_mult: 0
  }
  convolution_param {
    num_output: 96
    kernel_size: 1
    weight_filler {
      type: "xavier"
      std: 0.09
    }
    bias_filler {
      type: "constant"
      value: 0.2
    }
  }
}
layer {
  name: "inception_4a/relu_3x3_reduce"
  type: "ReLU"
  bottom: "inception_4a/3x3_reduce"
  top: "inception_4a/3x3_reduce"
}
layer {
  name: "inception_4a/3x3"
  type: "Convolution"
  bottom: "inception_4a/3x3_reduce"
  top: "inception_4a/3x3"
  param {
    lr_mult: 1
    decay_mult: 1
  }
  param {
    lr_mult: 2
    decay_mult: 0
  }
  convolution_param {
    num_output: 208
    pad: 1
    kernel_size: 3
    weight_filler {
      type: "xavier"
      std: 0.03
    }
    bias_filler {
      type: "constant"
      value: 0.2
    }
  }
}
layer {
  name: "inception_4a/relu_3x3"
  type: "ReLU"
  bottom: "inception_4a/3x3"
  top: "inception_4a/3x3"
}
layer {
  name: "inception_4a/5x5_reduce"
  type: "Convolution"
  bottom: "pool3/3x3_s2"
  top: "inception_4a/5x5_reduce"
  param {
    lr_mult: 1
    decay_mult: 1
  }
  param {
    lr_mult: 2
    decay_mult: 0
  }
  convolution_param {
    num_output: 16
    kernel_size: 1
    weight_filler {
      type: "xavier"
      std: 0.2
    }
    bias_filler {
      type: "constant"
      value: 0.2
    }
  }
}
layer {
  name: "inception_4a/relu_5x5_reduce"
  type: "ReLU"
  bottom: "inception_4a/5x5_reduce"
  top: "inception_4a/5x5_reduce"
}
layer {
  name: "inception_4a/5x5"
  type: "Convolution"
  bottom: "inception_4a/5x5_reduce"
  top: "inception_4a/5x5"
  param {
    lr_mult: 1
    decay_mult: 1
  }
  param {
    lr_mult: 2
    decay_mult: 0
  }
  convolution_param {
    num_output: 48
    pad: 2
    kernel_size: 5
    weight_filler {
      type: "xavier"
      std: 0.03
    }
    bias_filler {
      type: "constant"
      value: 0.2
    }
  }
}
layer {
  name: "inception_4a/relu_5x5"
  type: "ReLU"
  bottom: "inception_4a/5x5"
  top: "inception_4a/5x5"
}
layer {
  name: "inception_4a/pool"
  type: "Pooling"
  bottom: "pool3/3x3_s2"
  top: "inception_4a/pool"
  pooling_param {
    pool: MAX
    kernel_size: 3
    stride: 1
    pad: 1
  }
}
layer {
  name: "inception_4a/pool_proj"
  type: "Convolution"
  bottom: "inception_4a/pool"
  top: "inception_4a/pool_proj"
  param {
    lr_mult: 1
    decay_mult: 1
  }
  param {
    lr_mult: 2
    decay_mult: 0
  }
  convolution_param {
    num_output: 64
    kernel_size: 1
    weight_filler {
      type: "xavier"
      std: 0.1
    }
    bias_filler {
      type: "constant"
      value: 0.2
    }
  }
}
layer {
  name: "inception_4a/relu_pool_proj"
  type: "ReLU"
  bottom: "inception_4a/pool_proj"
  top: "inception_4a/pool_proj"
}
layer {
  name: "inception_4a/output"
  type: "Concat"
  bottom: "inception_4a/1x1"
  bottom: "inception_4a/3x3"
  bottom: "inception_4a/5x5"
  bottom: "inception_4a/pool_proj"
  top: "inception_4a/output"
}
layer {
  name: "loss1/ave_pool"
  type: "Pooling"
  bottom: "inception_4a/output"
  top: "loss1/ave_pool"
  pooling_param {
    pool: AVE
    kernel_size: 5
    stride: 3
  }
}
layer {
  name: "loss1/conv"
  type: "Convolution"
  bottom: "loss1/ave_pool"
  top: "loss1/conv"
  param {
    lr_mult: 1
    decay_mult: 1
  }
  param {
    lr_mult: 2
    decay_mult: 0
  }
  convolution_param {
    num_output: 128
    kernel_size: 1
    weight_filler {
      type: "xavier"
      std: 0.08
    }
    bias_filler {
      type: "constant"
      value: 0.2
    }
  }
}
layer {
  name: "loss1/relu_conv"
  type: "ReLU"
  bottom: "loss1/conv"
  top: "loss1/conv"
}
layer {
  name: "loss1/fc"
  type: "InnerProduct"
  bottom: "loss1/conv"
  top: "loss1/fc"
  param {
    lr_mult: 1
    decay_mult: 1
  }
  param {
    lr_mult: 2
    decay_mult: 0
  }
  inner_product_param {
    num_output: 1024
    weight_filler {
      type: "xavier"
      std: 0.02
    }
    bias_filler {
      type: "constant"
      value: 0.2
    }
  }
}
layer {
  name: "loss1/relu_fc"
  type: "ReLU"
  bottom: "loss1/fc"
  top: "loss1/fc"
}
layer {
  name: "loss1/drop_fc"
  type: "Dropout"
  bottom: "loss1/fc"
  top: "loss1/fc"
  dropout_param {
    dropout_ratio: 0.7
  }
}
layer {
  name: "loss1/classifier_plantvillage"
  type: "InnerProduct"
  bottom: "loss1/fc"
  top: "loss1/classifier_plantvillage"
  param {
    lr_mult: 1
    decay_mult: 1
  }
  param {
    lr_mult: 2
    decay_mult: 0
  }
  inner_product_param {
    num_output: 38
    weight_filler {
      type: "xavier"
      std: 0.0009765625
    }
    bias_filler {
      type: "constant"
      value: 0
    }
  }
}
layer {
  name: "inception_4b/1x1"
  type: "Convolution"
  bottom: "inception_4a/output"
  top: "inception_4b/1x1"
  param {
    lr_mult: 1
    decay_mult: 1
  }
  param {
    lr_mult: 2
    decay_mult: 0
  }
  convolution_param {
    num_output: 160
    kernel_size: 1
    weight_filler {
      type: "xavier"
      std: 0.03
    }
    bias_filler {
      type: "constant"
      value: 0.2
    }
  }
}
layer {
  name: "inception_4b/relu_1x1"
  type: "ReLU"
  bottom: "inception_4b/1x1"
  top: "inception_4b/1x1"
}
layer {
  name: "inception_4b/3x3_reduce"
  type: "Convolution"
  bottom: "inception_4a/output"
  top: "inception_4b/3x3_reduce"
  param {
    lr_mult: 1
    decay_mult: 1
  }
  param {
    lr_mult: 2
    decay_mult: 0
  }
  convolution_param {
    num_output: 112
    kernel_size: 1
    weight_filler {
      type: "xavier"
      std: 0.09
    }
    bias_filler {
      type: "constant"
      value: 0.2
    }
  }
}
layer {
  name: "inception_4b/relu_3x3_reduce"
  type: "ReLU"
  bottom: "inception_4b/3x3_reduce"
  top: "inception_4b/3x3_reduce"
}
layer {
  name: "inception_4b/3x3"
  type: "Convolution"
  bottom: "inception_4b/3x3_reduce"
  top: "inception_4b/3x3"
  param {
    lr_mult: 1
    decay_mult: 1
  }
  param {
    lr_mult: 2
    decay_mult: 0
  }
  convolution_param {
    num_output: 224
    pad: 1
    kernel_size: 3
    weight_filler {
      type: "xavier"
      std: 0.03
    }
    bias_filler {
      type: "constant"
      value: 0.2
    }
  }
}
layer {
  name: "inception_4b/relu_3x3"
  type: "ReLU"
  bottom: "inception_4b/3x3"
  top: "inception_4b/3x3"
}
layer {
  name: "inception_4b/5x5_reduce"
  type: "Convolution"
  bottom: "inception_4a/output"
  top: "inception_4b/5x5_reduce"
  param {
    lr_mult: 1
    decay_mult: 1
  }
  param {
    lr_mult: 2
    decay_mult: 0
  }
  convolution_param {
    num_output: 24
    kernel_size: 1
    weight_filler {
      type: "xavier"
      std: 0.2
    }
    bias_filler {
      type: "constant"
      value: 0.2
    }
  }
}
layer {
  name: "inception_4b/relu_5x5_reduce"
  type: "ReLU"
  bottom: "inception_4b/5x5_reduce"
  top: "inception_4b/5x5_reduce"
}
layer {
  name: "inception_4b/5x5"
  type: "Convolution"
  bottom: "inception_4b/5x5_reduce"
  top: "inception_4b/5x5"
  param {
    lr_mult: 1
    decay_mult: 1
  }
  param {
    lr_mult: 2
    decay_mult: 0
  }
  convolution_param {
    num_output: 64
    pad: 2
    kernel_size: 5
    weight_filler {
      type: "xavier"
      std: 0.03
    }
    bias_filler {
      type: "constant"
      value: 0.2
    }
  }
}
layer {
  name: "inception_4b/relu_5x5"
  type: "ReLU"
  bottom: "inception_4b/5x5"
  top: "inception_4b/5x5"
}
layer {
  name: "inception_4b/pool"
  type: "Pooling"
  bottom: "inception_4a/output"
  top: "inception_4b/pool"
  pooling_param {
    pool: MAX
    kernel_size: 3
    stride: 1
    pad: 1
  }
}
layer {
  name: "inception_4b/pool_proj"
  type: "Convolution"
  bottom: "inception_4b/pool"
  top: "inception_4b/pool_proj"
  param {
    lr_mult: 1
    decay_mult: 1
  }
  param {
    lr_mult: 2
    decay_mult: 0
  }
  convolution_param {
    num_output: 64
    kernel_size: 1
    weight_filler {
      type: "xavier"
      std: 0.1
    }
    bias_filler {
      type: "constant"
      value: 0.2
    }
  }
}
layer {
  name: "inception_4b/relu_pool_proj"
  type: "ReLU"
  bottom: "inception_4b/pool_proj"
  top: "inception_4b/pool_proj"
}
layer {
  name: "inception_4b/output"
  type: "Concat"
  bottom: "inception_4b/1x1"
  bottom: "inception_4b/3x3"
  bottom: "inception_4b/5x5"
  bottom: "inception_4b/pool_proj"
  top: "inception_4b/output"
}
layer {
  name: "inception_4c/1x1"
  type: "Convolution"
  bottom: "inception_4b/output"
  top: "inception_4c/1x1"
  param {
    lr_mult: 1
    decay_mult: 1
  }
  param {
    lr_mult: 2
    decay_mult: 0
  }
  convolution_param {
    num_output: 128
    kernel_size: 1
    weight_filler {
      type: "xavier"
      std: 0.03
    }
    bias_filler {
      type: "constant"
      value: 0.2
    }
  }
}
layer {
  name: "inception_4c/relu_1x1"
  type: "ReLU"
  bottom: "inception_4c/1x1"
  top: "inception_4c/1x1"
}
layer {
  name: "inception_4c/3x3_reduce"
  type: "Convolution"
  bottom: "inception_4b/output"
  top: "inception_4c/3x3_reduce"
  param {
    lr_mult: 1
    decay_mult: 1
  }
  param {
    lr_mult: 2
    decay_mult: 0
  }
  convolution_param {
    num_output: 128
    kernel_size: 1
    weight_filler {
      type: "xavier"
      std: 0.09
    }
    bias_filler {
      type: "constant"
      value: 0.2
    }
  }
}
layer {
  name: "inception_4c/relu_3x3_reduce"
  type: "ReLU"
  bottom: "inception_4c/3x3_reduce"
  top: "inception_4c/3x3_reduce"
}
layer {
  name: "inception_4c/3x3"
  type: "Convolution"
  bottom: "inception_4c/3x3_reduce"
  top: "inception_4c/3x3"
  param {
    lr_mult: 1
    decay_mult: 1
  }
  param {
    lr_mult: 2
    decay_mult: 0
  }
  convolution_param {
    num_output: 256
    pad: 1
    kernel_size: 3
    weight_filler {
      type: "xavier"
      std: 0.03
    }
    bias_filler {
      type: "constant"
      value: 0.2
    }
  }
}
layer {
  name: "inception_4c/relu_3x3"
  type: "ReLU"
  bottom: "inception_4c/3x3"
  top: "inception_4c/3x3"
}
layer {
  name: "inception_4c/5x5_reduce"
  type: "Convolution"
  bottom: "inception_4b/output"
  top: "inception_4c/5x5_reduce"
  param {
    lr_mult: 1
    decay_mult: 1
  }
  param {
    lr_mult: 2
    decay_mult: 0
  }
  convolution_param {
    num_output: 24
    kernel_size: 1
    weight_filler {
      type: "xavier"
      std: 0.2
    }
    bias_filler {
      type: "constant"
      value: 0.2
    }
  }
}
layer {
  name: "inception_4c/relu_5x5_reduce"
  type: "ReLU"
  bottom: "inception_4c/5x5_reduce"
  top: "inception_4c/5x5_reduce"
}
layer {
  name: "inception_4c/5x5"
  type: "Convolution"
  bottom: "inception_4c/5x5_reduce"
  top: "inception_4c/5x5"
  param {
    lr_mult: 1
    decay_mult: 1
  }
  param {
    lr_mult: 2
    decay_mult: 0
  }
  convolution_param {
    num_output: 64
    pad: 2
    kernel_size: 5
    weight_filler {
      type: "xavier"
      std: 0.03
    }
    bias_filler {
      type: "constant"
      value: 0.2
    }
  }
}
layer {
  name: "inception_4c/relu_5x5"
  type: "ReLU"
  bottom: "inception_4c/5x5"
  top: "inception_4c/5x5"
}
layer {
  name: "inception_4c/pool"
  type: "Pooling"
  bottom: "inception_4b/output"
  top: "inception_4c/pool"
  pooling_param {
    pool: MAX
    kernel_size: 3
    stride: 1
    pad: 1
  }
}
layer {
  name: "inception_4c/pool_proj"
  type: "Convolution"
  bottom: "inception_4c/pool"
  top: "inception_4c/pool_proj"
  param {
    lr_mult: 1
    decay_mult: 1
  }
  param {
    lr_mult: 2
    decay_mult: 0
  }
  convolution_param {
    num_output: 64
    kernel_size: 1
    weight_filler {
      type: "xavier"
      std: 0.1
    }
    bias_filler {
      type: "constant"
      value: 0.2
    }
  }
}
layer {
  name: "inception_4c/relu_pool_proj"
  type: "ReLU"
  bottom: "inception_4c/pool_proj"
  top: "inception_4c/pool_proj"
}
layer {
  name: "inception_4c/output"
  type: "Concat"
  bottom: "inception_4c/1x1"
  bottom: "inception_4c/3x3"
  bottom: "inception_4c/5x5"
  bottom: "inception_4c/pool_proj"
  top: "inception_4c/output"
}
layer {
  name: "inception_4d/1x1"
  type: "Convolution"
  bottom: "inception_4c/output"
  top: "inception_4d/1x1"
  param {
    lr_mult: 1
    decay_mult: 1
  }
  param {
    lr_mult: 2
    decay_mult: 0
  }
  convolution_param {
    num_output: 112
    kernel_size: 1
    weight_filler {
      type: "xavier"
      std: 0.03
    }
    bias_filler {
      type: "constant"
      value: 0.2
    }
  }
}
layer {
  name: "inception_4d/relu_1x1"
  type: "ReLU"
  bottom: "inception_4d/1x1"
  top: "inception_4d/1x1"
}
layer {
  name: "inception_4d/3x3_reduce"
  type: "Convolution"
  bottom: "inception_4c/output"
  top: "inception_4d/3x3_reduce"
  param {
    lr_mult: 1
    decay_mult: 1
  }
  param {
    lr_mult: 2
    decay_mult: 0
  }
  convolution_param {
    num_output: 144
    kernel_size: 1
    weight_filler {
      type: "xavier"
      std: 0.09
    }
    bias_filler {
      type: "constant"
      value: 0.2
    }
  }
}
layer {
  name: "inception_4d/relu_3x3_reduce"
  type: "ReLU"
  bottom: "inception_4d/3x3_reduce"
  top: "inception_4d/3x3_reduce"
}
layer {
  name: "inception_4d/3x3"
  type: "Convolution"
  bottom: "inception_4d/3x3_reduce"
  top: "inception_4d/3x3"
  param {
    lr_mult: 1
    decay_mult: 1
  }
  param {
    lr_mult: 2
    decay_mult: 0
  }
  convolution_param {
    num_output: 288
    pad: 1
    kernel_size: 3
    weight_filler {
      type: "xavier"
      std: 0.03
    }
    bias_filler {
      type: "constant"
      value: 0.2
    }
  }
}
layer {
  name: "inception_4d/relu_3x3"
  type: "ReLU"
  bottom: "inception_4d/3x3"
  top: "inception_4d/3x3"
}
layer {
  name: "inception_4d/5x5_reduce"
  type: "Convolution"
  bottom: "inception_4c/output"
  top: "inception_4d/5x5_reduce"
  param {
    lr_mult: 1
    decay_mult: 1
  }
  param {
    lr_mult: 2
    decay_mult: 0
  }
  convolution_param {
    num_output: 32
    kernel_size: 1
    weight_filler {
      type: "xavier"
      std: 0.2
    }
    bias_filler {
      type: "constant"
      value: 0.2
    }
  }
}
layer {
  name: "inception_4d/relu_5x5_reduce"
  type: "ReLU"
  bottom: "inception_4d/5x5_reduce"
  top: "inception_4d/5x5_reduce"
}
layer {
  name: "inception_4d/5x5"
  type: "Convolution"
  bottom: "inception_4d/5x5_reduce"
  top: "inception_4d/5x5"
  param {
    lr_mult: 1
    decay_mult: 1
  }
  param {
    lr_mult: 2
    decay_mult: 0
  }
  convolution_param {
    num_output: 64
    pad: 2
    kernel_size: 5
    weight_filler {
      type: "xavier"
      std: 0.03
    }
    bias_filler {
      type: "constant"
      value: 0.2
    }
  }
}
layer {
  name: "inception_4d/relu_5x5"
  type: "ReLU"
  bottom: "inception_4d/5x5"
  top: "inception_4d/5x5"
}
layer {
  name: "inception_4d/pool"
  type: "Pooling"
  bottom: "inception_4c/output"
  top: "inception_4d/pool"
  pooling_param {
    pool: MAX
    kernel_size: 3
    stride: 1
    pad: 1
  }
}
layer {
  name: "inception_4d/pool_proj"
  type: "Convolution"
  bottom: "inception_4d/pool"
  top: "inception_4d/pool_proj"
  param {
    lr_mult: 1
    decay_mult: 1
  }
  param {
    lr_mult: 2
    decay_mult: 0
  }
  convolution_param {
    num_output: 64
    kernel_size: 1
    weight_filler {
      type: "xavier"
      std: 0.1
    }
    bias_filler {
      type: "constant"
      value: 0.2
    }
  }
}
layer {
  name: "inception_4d/relu_pool_proj"
  type: "ReLU"
  bottom: "inception_4d/pool_proj"
  top: "inception_4d/pool_proj"
}
layer {
  name: "inception_4d/output"
  type: "Concat"
  bottom: "inception_4d/1x1"
  bottom: "inception_4d/3x3"
  bottom: "inception_4d/5x5"
  bottom: "inception_4d/pool_proj"
  top: "inception_4d/output"
}
layer {
  name: "loss2/ave_pool"
  type: "Pooling"
  bottom: "inception_4d/output"
  top: "loss2/ave_pool"
  pooling_param {
    pool: AVE
    kernel_size: 5
    stride: 3
  }
}
layer {
  name: "loss2/conv"
  type: "Convolution"
  bottom: "loss2/ave_pool"
  top: "loss2/conv"
  param {
    lr_mult: 1
    decay_mult: 1
  }
  param {
    lr_mult: 2
    decay_mult: 0
  }
  convolution_param {
    num_output: 128
    kernel_size: 1
    weight_filler {
      type: "xavier"
      std: 0.08
    }
    bias_filler {
      type: "constant"
      value: 0.2
    }
  }
}
layer {
  name: "loss2/relu_conv"
  type: "ReLU"
  bottom: "loss2/conv"
  top: "loss2/conv"
}
layer {
  name: "loss2/fc"
  type: "InnerProduct"
  bottom: "loss2/conv"
  top: "loss2/fc"
  param {
    lr_mult: 1
    decay_mult: 1
  }
  param {
    lr_mult: 2
    decay_mult: 0
  }
  inner_product_param {
    num_output: 1024
    weight_filler {
      type: "xavier"
      std: 0.02
    }
    bias_filler {
      type: "constant"
      value: 0.2
    }
  }
}
layer {
  name: "loss2/relu_fc"
  type: "ReLU"
  bottom: "loss2/fc"
  top: "loss2/fc"
}
layer {
  name: "loss2/drop_fc"
  type: "Dropout"
  bottom: "loss2/fc"
  top: "loss2/fc"
  dropout_param {
    dropout_ratio: 0.7
  }
}
layer {
  name: "loss2/classifier_plantvillage"
  type: "InnerProduct"
  bottom: "loss2/fc"
  top: "loss2/classifier_plantvillage"
  param {
    lr_mult: 1
    decay_mult: 1
  }
  param {
    lr_mult: 2
    decay_mult: 0
  }
  inner_product_param {
    num_output: 38
    weight_filler {
      type: "xavier"
      std: 0.0009765625
    }
    bias_filler {
      type: "constant"
      value: 0
    }
  }
}
layer {
  name: "inception_4e/1x1"
  type: "Convolution"
  bottom: "inception_4d/output"
  top: "inception_4e/1x1"
  param {
    lr_mult: 1
    decay_mult: 1
  }
  param {
    lr_mult: 2
    decay_mult: 0
  }
  convolution_param {
    num_output: 256
    kernel_size: 1
    weight_filler {
      type: "xavier"
      std: 0.03
    }
    bias_filler {
      type: "constant"
      value: 0.2
    }
  }
}
layer {
  name: "inception_4e/relu_1x1"
  type: "ReLU"
  bottom: "inception_4e/1x1"
  top: "inception_4e/1x1"
}
layer {
  name: "inception_4e/3x3_reduce"
  type: "Convolution"
  bottom: "inception_4d/output"
  top: "inception_4e/3x3_reduce"
  param {
    lr_mult: 1
    decay_mult: 1
  }
  param {
    lr_mult: 2
    decay_mult: 0
  }
  convolution_param {
    num_output: 160
    kernel_size: 1
    weight_filler {
      type: "xavier"
      std: 0.09
    }
    bias_filler {
      type: "constant"
      value: 0.2
    }
  }
}
layer {
  name: "inception_4e/relu_3x3_reduce"
  type: "ReLU"
  bottom: "inception_4e/3x3_reduce"
  top: "inception_4e/3x3_reduce"
}
layer {
  name: "inception_4e/3x3"
  type: "Convolution"
  bottom: "inception_4e/3x3_reduce"
  top: "inception_4e/3x3"
  param {
    lr_mult: 1
    decay_mult: 1
  }
  param {
    lr_mult: 2
    decay_mult: 0
  }
  convolution_param {
    num_output: 320
    pad: 1
    kernel_size: 3
    weight_filler {
      type: "xavier"
      std: 0.03
    }
    bias_filler {
      type: "constant"
      value: 0.2
    }
  }
}
layer {
  name: "inception_4e/relu_3x3"
  type: "ReLU"
  bottom: "inception_4e/3x3"
  top: "inception_4e/3x3"
}
layer {
  name: "inception_4e/5x5_reduce"
  type: "Convolution"
  bottom: "inception_4d/output"
  top: "inception_4e/5x5_reduce"
  param {
    lr_mult: 1
    decay_mult: 1
  }
  param {
    lr_mult: 2
    decay_mult: 0
  }
  convolution_param {
    num_output: 32
    kernel_size: 1
    weight_filler {
      type: "xavier"
      std: 0.2
    }
    bias_filler {
      type: "constant"
      value: 0.2
    }
  }
}
layer {
  name: "inception_4e/relu_5x5_reduce"
  type: "ReLU"
  bottom: "inception_4e/5x5_reduce"
  top: "inception_4e/5x5_reduce"
}
layer {
  name: "inception_4e/5x5"
  type: "Convolution"
  bottom: "inception_4e/5x5_reduce"
  top: "inception_4e/5x5"
  p
I0403 15:29:18.321166 31944 layer_factory.hpp:77] Creating layer data
I0403 15:29:18.321763 31944 net.cpp:91] Creating Layer data
I0403 15:29:18.321795 31944 net.cpp:399] data -> data
I0403 15:29:18.321848 31944 net.cpp:399] data -> label
I0403 15:29:18.321887 31944 data_transformer.cpp:25] Loading mean file from: /home/mohanty/data/final_dataset/lmdb/color-60-40/mean.binaryproto
I0403 15:29:18.325062 31946 db_lmdb.cpp:38] Opened lmdb /home/mohanty/data/final_dataset/lmdb/color-60-40/test_db
I0403 15:29:18.335600 31944 data_layer.cpp:41] output data size: 24,3,224,224
I0403 15:29:18.365706 31944 net.cpp:141] Setting up data
I0403 15:29:18.365792 31944 net.cpp:148] Top shape: 24 3 224 224 (3612672)
I0403 15:29:18.365814 31944 net.cpp:148] Top shape: 24 (24)
I0403 15:29:18.365833 31944 net.cpp:156] Memory required for data: 14450784
I0403 15:29:18.365861 31944 layer_factory.hpp:77] Creating layer label_data_1_split
I0403 15:29:18.365887 31944 net.cpp:91] Creating Layer label_data_1_split
I0403 15:29:18.365906 31944 net.cpp:425] label_data_1_split <- label
I0403 15:29:18.365938 31944 net.cpp:399] label_data_1_split -> label_data_1_split_0
I0403 15:29:18.365967 31944 net.cpp:399] label_data_1_split -> label_data_1_split_1
I0403 15:29:18.365989 31944 net.cpp:399] label_data_1_split -> label_data_1_split_2
I0403 15:29:18.366010 31944 net.cpp:399] label_data_1_split -> label_data_1_split_3
I0403 15:29:18.366030 31944 net.cpp:399] label_data_1_split -> label_data_1_split_4
I0403 15:29:18.366050 31944 net.cpp:399] label_data_1_split -> label_data_1_split_5
I0403 15:29:18.366070 31944 net.cpp:399] label_data_1_split -> label_data_1_split_6
I0403 15:29:18.366091 31944 net.cpp:399] label_data_1_split -> label_data_1_split_7
I0403 15:29:18.366111 31944 net.cpp:399] label_data_1_split -> label_data_1_split_8
I0403 15:29:18.366132 31944 net.cpp:399] label_data_1_split -> label_data_1_split_9
I0403 15:29:18.366245 31944 net.cpp:141] Setting up label_data_1_split
I0403 15:29:18.366269 31944 net.cpp:148] Top shape: 24 (24)
I0403 15:29:18.366302 31944 net.cpp:148] Top shape: 24 (24)
I0403 15:29:18.366333 31944 net.cpp:148] Top shape: 24 (24)
I0403 15:29:18.366353 31944 net.cpp:148] Top shape: 24 (24)
I0403 15:29:18.366369 31944 net.cpp:148] Top shape: 24 (24)
I0403 15:29:18.366385 31944 net.cpp:148] Top shape: 24 (24)
I0403 15:29:18.366402 31944 net.cpp:148] Top shape: 24 (24)
I0403 15:29:18.366418 31944 net.cpp:148] Top shape: 24 (24)
I0403 15:29:18.366435 31944 net.cpp:148] Top shape: 24 (24)
I0403 15:29:18.366451 31944 net.cpp:148] Top shape: 24 (24)
I0403 15:29:18.366498 31944 net.cpp:156] Memory required for data: 14451744
I0403 15:29:18.366515 31944 layer_factory.hpp:77] Creating layer conv1/7x7_s2
I0403 15:29:18.366549 31944 net.cpp:91] Creating Layer conv1/7x7_s2
I0403 15:29:18.366567 31944 net.cpp:425] conv1/7x7_s2 <- data
I0403 15:29:18.366588 31944 net.cpp:399] conv1/7x7_s2 -> conv1/7x7_s2
I0403 15:29:18.514163 31944 net.cpp:141] Setting up conv1/7x7_s2
I0403 15:29:18.514242 31944 net.cpp:148] Top shape: 24 64 112 112 (19267584)
I0403 15:29:18.514262 31944 net.cpp:156] Memory required for data: 91522080
I0403 15:29:18.514312 31944 layer_factory.hpp:77] Creating layer conv1/relu_7x7
I0403 15:29:18.514345 31944 net.cpp:91] Creating Layer conv1/relu_7x7
I0403 15:29:18.514366 31944 net.cpp:425] conv1/relu_7x7 <- conv1/7x7_s2
I0403 15:29:18.514387 31944 net.cpp:386] conv1/relu_7x7 -> conv1/7x7_s2 (in-place)
I0403 15:29:18.514658 31944 net.cpp:141] Setting up conv1/relu_7x7
I0403 15:29:18.514688 31944 net.cpp:148] Top shape: 24 64 112 112 (19267584)
I0403 15:29:18.514705 31944 net.cpp:156] Memory required for data: 168592416
I0403 15:29:18.514722 31944 layer_factory.hpp:77] Creating layer pool1/3x3_s2
I0403 15:29:18.514750 31944 net.cpp:91] Creating Layer pool1/3x3_s2
I0403 15:29:18.514768 31944 net.cpp:425] pool1/3x3_s2 <- conv1/7x7_s2
I0403 15:29:18.514787 31944 net.cpp:399] pool1/3x3_s2 -> pool1/3x3_s2
I0403 15:29:18.514866 31944 net.cpp:141] Setting up pool1/3x3_s2
I0403 15:29:18.514894 31944 net.cpp:148] Top shape: 24 64 56 56 (4816896)
I0403 15:29:18.514910 31944 net.cpp:156] Memory required for data: 187860000
I0403 15:29:18.514927 31944 layer_factory.hpp:77] Creating layer pool1/norm1
I0403 15:29:18.514953 31944 net.cpp:91] Creating Layer pool1/norm1
I0403 15:29:18.514972 31944 net.cpp:425] pool1/norm1 <- pool1/3x3_s2
I0403 15:29:18.514991 31944 net.cpp:399] pool1/norm1 -> pool1/norm1
I0403 15:29:18.515297 31944 net.cpp:141] Setting up pool1/norm1
I0403 15:29:18.515327 31944 net.cpp:148] Top shape: 24 64 56 56 (4816896)
I0403 15:29:18.515344 31944 net.cpp:156] Memory required for data: 207127584
I0403 15:29:18.515362 31944 layer_factory.hpp:77] Creating layer conv2/3x3_reduce
I0403 15:29:18.515388 31944 net.cpp:91] Creating Layer conv2/3x3_reduce
I0403 15:29:18.515406 31944 net.cpp:425] conv2/3x3_reduce <- pool1/norm1
I0403 15:29:18.515427 31944 net.cpp:399] conv2/3x3_reduce -> conv2/3x3_reduce
I0403 15:29:18.516865 31944 net.cpp:141] Setting up conv2/3x3_reduce
I0403 15:29:18.516896 31944 net.cpp:148] Top shape: 24 64 56 56 (4816896)
I0403 15:29:18.516914 31944 net.cpp:156] Memory required for data: 226395168
I0403 15:29:18.516938 31944 layer_factory.hpp:77] Creating layer conv2/relu_3x3_reduce
I0403 15:29:18.516963 31944 net.cpp:91] Creating Layer conv2/relu_3x3_reduce
I0403 15:29:18.516983 31944 net.cpp:425] conv2/relu_3x3_reduce <- conv2/3x3_reduce
I0403 15:29:18.517001 31944 net.cpp:386] conv2/relu_3x3_reduce -> conv2/3x3_reduce (in-place)
I0403 15:29:18.517297 31944 net.cpp:141] Setting up conv2/relu_3x3_reduce
I0403 15:29:18.517326 31944 net.cpp:148] Top shape: 24 64 56 56 (4816896)
I0403 15:29:18.517343 31944 net.cpp:156] Memory required for data: 245662752
I0403 15:29:18.517360 31944 layer_factory.hpp:77] Creating layer conv2/3x3
I0403 15:29:18.517387 31944 net.cpp:91] Creating Layer conv2/3x3
I0403 15:29:18.517408 31944 net.cpp:425] conv2/3x3 <- conv2/3x3_reduce
I0403 15:29:18.517429 31944 net.cpp:399] conv2/3x3 -> conv2/3x3
I0403 15:29:18.519855 31944 net.cpp:141] Setting up conv2/3x3
I0403 15:29:18.519888 31944 net.cpp:148] Top shape: 24 192 56 56 (14450688)
I0403 15:29:18.519907 31944 net.cpp:156] Memory required for data: 303465504
I0403 15:29:18.519930 31944 layer_factory.hpp:77] Creating layer conv2/relu_3x3
I0403 15:29:18.519954 31944 net.cpp:91] Creating Layer conv2/relu_3x3
I0403 15:29:18.519974 31944 net.cpp:425] conv2/relu_3x3 <- conv2/3x3
I0403 15:29:18.519994 31944 net.cpp:386] conv2/relu_3x3 -> conv2/3x3 (in-place)
I0403 15:29:18.520184 31944 net.cpp:141] Setting up conv2/relu_3x3
I0403 15:29:18.520210 31944 net.cpp:148] Top shape: 24 192 56 56 (14450688)
I0403 15:29:18.520275 31944 net.cpp:156] Memory required for data: 361268256
I0403 15:29:18.520298 31944 layer_factory.hpp:77] Creating layer conv2/norm2
I0403 15:29:18.520319 31944 net.cpp:91] Creating Layer conv2/norm2
I0403 15:29:18.520339 31944 net.cpp:425] conv2/norm2 <- conv2/3x3
I0403 15:29:18.520360 31944 net.cpp:399] conv2/norm2 -> conv2/norm2
I0403 15:29:18.520685 31944 net.cpp:141] Setting up conv2/norm2
I0403 15:29:18.520715 31944 net.cpp:148] Top shape: 24 192 56 56 (14450688)
I0403 15:29:18.520732 31944 net.cpp:156] Memory required for data: 419071008
I0403 15:29:18.520750 31944 layer_factory.hpp:77] Creating layer pool2/3x3_s2
I0403 15:29:18.520769 31944 net.cpp:91] Creating Layer pool2/3x3_s2
I0403 15:29:18.520787 31944 net.cpp:425] pool2/3x3_s2 <- conv2/norm2
I0403 15:29:18.520809 31944 net.cpp:399] pool2/3x3_s2 -> pool2/3x3_s2
I0403 15:29:18.520865 31944 net.cpp:141] Setting up pool2/3x3_s2
I0403 15:29:18.520891 31944 net.cpp:148] Top shape: 24 192 28 28 (3612672)
I0403 15:29:18.520907 31944 net.cpp:156] Memory required for data: 433521696
I0403 15:29:18.520925 31944 layer_factory.hpp:77] Creating layer pool2/3x3_s2_pool2/3x3_s2_0_split
I0403 15:29:18.520946 31944 net.cpp:91] Creating Layer pool2/3x3_s2_pool2/3x3_s2_0_split
I0403 15:29:18.520964 31944 net.cpp:425] pool2/3x3_s2_pool2/3x3_s2_0_split <- pool2/3x3_s2
I0403 15:29:18.520987 31944 net.cpp:399] pool2/3x3_s2_pool2/3x3_s2_0_split -> pool2/3x3_s2_pool2/3x3_s2_0_split_0
I0403 15:29:18.521009 31944 net.cpp:399] pool2/3x3_s2_pool2/3x3_s2_0_split -> pool2/3x3_s2_pool2/3x3_s2_0_split_1
I0403 15:29:18.521033 31944 net.cpp:399] pool2/3x3_s2_pool2/3x3_s2_0_split -> pool2/3x3_s2_pool2/3x3_s2_0_split_2
I0403 15:29:18.521054 31944 net.cpp:399] pool2/3x3_s2_pool2/3x3_s2_0_split -> pool2/3x3_s2_pool2/3x3_s2_0_split_3
I0403 15:29:18.521131 31944 net.cpp:141] Setting up pool2/3x3_s2_pool2/3x3_s2_0_split
I0403 15:29:18.521159 31944 net.cpp:148] Top shape: 24 192 28 28 (3612672)
I0403 15:29:18.521178 31944 net.cpp:148] Top shape: 24 192 28 28 (3612672)
I0403 15:29:18.521195 31944 net.cpp:148] Top shape: 24 192 28 28 (3612672)
I0403 15:29:18.521212 31944 net.cpp:148] Top shape: 24 192 28 28 (3612672)
I0403 15:29:18.521229 31944 net.cpp:156] Memory required for data: 491324448
I0403 15:29:18.521244 31944 layer_factory.hpp:77] Creating layer inception_3a/1x1
I0403 15:29:18.521267 31944 net.cpp:91] Creating Layer inception_3a/1x1
I0403 15:29:18.521291 31944 net.cpp:425] inception_3a/1x1 <- pool2/3x3_s2_pool2/3x3_s2_0_split_0
I0403 15:29:18.521312 31944 net.cpp:399] inception_3a/1x1 -> inception_3a/1x1
I0403 15:29:18.522979 31944 net.cpp:141] Setting up inception_3a/1x1
I0403 15:29:18.523010 31944 net.cpp:148] Top shape: 24 64 28 28 (1204224)
I0403 15:29:18.523027 31944 net.cpp:156] Memory required for data: 496141344
I0403 15:29:18.523046 31944 layer_factory.hpp:77] Creating layer inception_3a/relu_1x1
I0403 15:29:18.523069 31944 net.cpp:91] Creating Layer inception_3a/relu_1x1
I0403 15:29:18.523088 31944 net.cpp:425] inception_3a/relu_1x1 <- inception_3a/1x1
I0403 15:29:18.523108 31944 net.cpp:386] inception_3a/relu_1x1 -> inception_3a/1x1 (in-place)
I0403 15:29:18.523299 31944 net.cpp:141] Setting up inception_3a/relu_1x1
I0403 15:29:18.523329 31944 net.cpp:148] Top shape: 24 64 28 28 (1204224)
I0403 15:29:18.523346 31944 net.cpp:156] Memory required for data: 500958240
I0403 15:29:18.523363 31944 layer_factory.hpp:77] Creating layer inception_3a/3x3_reduce
I0403 15:29:18.523387 31944 net.cpp:91] Creating Layer inception_3a/3x3_reduce
I0403 15:29:18.523407 31944 net.cpp:425] inception_3a/3x3_reduce <- pool2/3x3_s2_pool2/3x3_s2_0_split_1
I0403 15:29:18.523429 31944 net.cpp:399] inception_3a/3x3_reduce -> inception_3a/3x3_reduce
I0403 15:29:18.525202 31944 net.cpp:141] Setting up inception_3a/3x3_reduce
I0403 15:29:18.525233 31944 net.cpp:148] Top shape: 24 96 28 28 (1806336)
I0403 15:29:18.525264 31944 net.cpp:156] Memory required for data: 508183584
I0403 15:29:18.525292 31944 layer_factory.hpp:77] Creating layer inception_3a/relu_3x3_reduce
I0403 15:29:18.525333 31944 net.cpp:91] Creating Layer inception_3a/relu_3x3_reduce
I0403 15:29:18.525354 31944 net.cpp:425] inception_3a/relu_3x3_reduce <- inception_3a/3x3_reduce
I0403 15:29:18.525377 31944 net.cpp:386] inception_3a/relu_3x3_reduce -> inception_3a/3x3_reduce (in-place)
I0403 15:29:18.525583 31944 net.cpp:141] Setting up inception_3a/relu_3x3_reduce
I0403 15:29:18.525610 31944 net.cpp:148] Top shape: 24 96 28 28 (1806336)
I0403 15:29:18.525627 31944 net.cpp:156] Memory required for data: 515408928
I0403 15:29:18.525645 31944 layer_factory.hpp:77] Creating layer inception_3a/3x3
I0403 15:29:18.525668 31944 net.cpp:91] Creating Layer inception_3a/3x3
I0403 15:29:18.525686 31944 net.cpp:425] inception_3a/3x3 <- inception_3a/3x3_reduce
I0403 15:29:18.525710 31944 net.cpp:399] inception_3a/3x3 -> inception_3a/3x3
I0403 15:29:18.527390 31944 net.cpp:141] Setting up inception_3a/3x3
I0403 15:29:18.527420 31944 net.cpp:148] Top shape: 24 128 28 28 (2408448)
I0403 15:29:18.527441 31944 net.cpp:156] Memory required for data: 525042720
I0403 15:29:18.527462 31944 layer_factory.hpp:77] Creating layer inception_3a/relu_3x3
I0403 15:29:18.527482 31944 net.cpp:91] Creating Layer inception_3a/relu_3x3
I0403 15:29:18.527498 31944 net.cpp:425] inception_3a/relu_3x3 <- inception_3a/3x3
I0403 15:29:18.527518 31944 net.cpp:386] inception_3a/relu_3x3 -> inception_3a/3x3 (in-place)
I0403 15:29:18.527796 31944 net.cpp:141] Setting up inception_3a/relu_3x3
I0403 15:29:18.527824 31944 net.cpp:148] Top shape: 24 128 28 28 (2408448)
I0403 15:29:18.527844 31944 net.cpp:156] Memory required for data: 534676512
I0403 15:29:18.527860 31944 layer_factory.hpp:77] Creating layer inception_3a/5x5_reduce
I0403 15:29:18.527881 31944 net.cpp:91] Creating Layer inception_3a/5x5_reduce
I0403 15:29:18.527899 31944 net.cpp:425] inception_3a/5x5_reduce <- pool2/3x3_s2_pool2/3x3_s2_0_split_2
I0403 15:29:18.527926 31944 net.cpp:399] inception_3a/5x5_reduce -> inception_3a/5x5_reduce
I0403 15:29:18.528903 31944 net.cpp:141] Setting up inception_3a/5x5_reduce
I0403 15:29:18.528934 31944 net.cpp:148] Top shape: 24 16 28 28 (301056)
I0403 15:29:18.528952 31944 net.cpp:156] Memory required for data: 535880736
I0403 15:29:18.528972 31944 layer_factory.hpp:77] Creating layer inception_3a/relu_5x5_reduce
I0403 15:29:18.528991 31944 net.cpp:91] Creating Layer inception_3a/relu_5x5_reduce
I0403 15:29:18.529008 31944 net.cpp:425] inception_3a/relu_5x5_reduce <- inception_3a/5x5_reduce
I0403 15:29:18.529026 31944 net.cpp:386] inception_3a/relu_5x5_reduce -> inception_3a/5x5_reduce (in-place)
I0403 15:29:18.529332 31944 net.cpp:141] Setting up inception_3a/relu_5x5_reduce
I0403 15:29:18.529361 31944 net.cpp:148] Top shape: 24 16 28 28 (301056)
I0403 15:29:18.529377 31944 net.cpp:156] Memory required for data: 537084960
I0403 15:29:18.529393 31944 layer_factory.hpp:77] Creating layer inception_3a/5x5
I0403 15:29:18.529417 31944 net.cpp:91] Creating Layer inception_3a/5x5
I0403 15:29:18.529435 31944 net.cpp:425] inception_3a/5x5 <- inception_3a/5x5_reduce
I0403 15:29:18.529458 31944 net.cpp:399] inception_3a/5x5 -> inception_3a/5x5
I0403 15:29:18.530488 31944 net.cpp:141] Setting up inception_3a/5x5
I0403 15:29:18.530516 31944 net.cpp:148] Top shape: 24 32 28 28 (602112)
I0403 15:29:18.530534 31944 net.cpp:156] Memory required for data: 539493408
I0403 15:29:18.530555 31944 layer_factory.hpp:77] Creating layer inception_3a/relu_5x5
I0403 15:29:18.530577 31944 net.cpp:91] Creating Layer inception_3a/relu_5x5
I0403 15:29:18.530596 31944 net.cpp:425] inception_3a/relu_5x5 <- inception_3a/5x5
I0403 15:29:18.530616 31944 net.cpp:386] inception_3a/relu_5x5 -> inception_3a/5x5 (in-place)
I0403 15:29:18.530793 31944 net.cpp:141] Setting up inception_3a/relu_5x5
I0403 15:29:18.530822 31944 net.cpp:148] Top shape: 24 32 28 28 (602112)
I0403 15:29:18.530840 31944 net.cpp:156] Memory required for data: 541901856
I0403 15:29:18.530856 31944 layer_factory.hpp:77] Creating layer inception_3a/pool
I0403 15:29:18.530874 31944 net.cpp:91] Creating Layer inception_3a/pool
I0403 15:29:18.530890 31944 net.cpp:425] inception_3a/pool <- pool2/3x3_s2_pool2/3x3_s2_0_split_3
I0403 15:29:18.530930 31944 net.cpp:399] inception_3a/pool -> inception_3a/pool
I0403 15:29:18.530990 31944 net.cpp:141] Setting up inception_3a/pool
I0403 15:29:18.531015 31944 net.cpp:148] Top shape: 24 192 28 28 (3612672)
I0403 15:29:18.531031 31944 net.cpp:156] Memory required for data: 556352544
I0403 15:29:18.531047 31944 layer_factory.hpp:77] Creating layer inception_3a/pool_proj
I0403 15:29:18.531071 31944 net.cpp:91] Creating Layer inception_3a/pool_proj
I0403 15:29:18.531090 31944 net.cpp:425] inception_3a/pool_proj <- inception_3a/pool
I0403 15:29:18.531113 31944 net.cpp:399] inception_3a/pool_proj -> inception_3a/pool_proj
I0403 15:29:18.532094 31944 net.cpp:141] Setting up inception_3a/pool_proj
I0403 15:29:18.532124 31944 net.cpp:148] Top shape: 24 32 28 28 (602112)
I0403 15:29:18.532140 31944 net.cpp:156] Memory required for data: 558760992
I0403 15:29:18.532166 31944 layer_factory.hpp:77] Creating layer inception_3a/relu_pool_proj
I0403 15:29:18.532187 31944 net.cpp:91] Creating Layer inception_3a/relu_pool_proj
I0403 15:29:18.532204 31944 net.cpp:425] inception_3a/relu_pool_proj <- inception_3a/pool_proj
I0403 15:29:18.532222 31944 net.cpp:386] inception_3a/relu_pool_proj -> inception_3a/pool_proj (in-place)
I0403 15:29:18.532513 31944 net.cpp:141] Setting up inception_3a/relu_pool_proj
I0403 15:29:18.532541 31944 net.cpp:148] Top shape: 24 32 28 28 (602112)
I0403 15:29:18.532560 31944 net.cpp:156] Memory required for data: 561169440
I0403 15:29:18.532577 31944 layer_factory.hpp:77] Creating layer inception_3a/output
I0403 15:29:18.532596 31944 net.cpp:91] Creating Layer inception_3a/output
I0403 15:29:18.532613 31944 net.cpp:425] inception_3a/output <- inception_3a/1x1
I0403 15:29:18.532631 31944 net.cpp:425] inception_3a/output <- inception_3a/3x3
I0403 15:29:18.532649 31944 net.cpp:425] inception_3a/output <- inception_3a/5x5
I0403 15:29:18.532665 31944 net.cpp:425] inception_3a/output <- inception_3a/pool_proj
I0403 15:29:18.532683 31944 net.cpp:399] inception_3a/output -> inception_3a/output
I0403 15:29:18.532732 31944 net.cpp:141] Setting up inception_3a/output
I0403 15:29:18.532758 31944 net.cpp:148] Top shape: 24 256 28 28 (4816896)
I0403 15:29:18.532774 31944 net.cpp:156] Memory required for data: 580437024
I0403 15:29:18.532790 31944 layer_factory.hpp:77] Creating layer inception_3a/output_inception_3a/output_0_split
I0403 15:29:18.532809 31944 net.cpp:91] Creating Layer inception_3a/output_inception_3a/output_0_split
I0403 15:29:18.532824 31944 net.cpp:425] inception_3a/output_inception_3a/output_0_split <- inception_3a/output
I0403 15:29:18.532847 31944 net.cpp:399] inception_3a/output_inception_3a/output_0_split -> inception_3a/output_inception_3a/output_0_split_0
I0403 15:29:18.532869 31944 net.cpp:399] inception_3a/output_inception_3a/output_0_split -> inception_3a/output_inception_3a/output_0_split_1
I0403 15:29:18.532896 31944 net.cpp:399] inception_3a/output_inception_3a/output_0_split -> inception_3a/output_inception_3a/output_0_split_2
I0403 15:29:18.532922 31944 net.cpp:399] inception_3a/output_inception_3a/output_0_split -> inception_3a/output_inception_3a/output_0_split_3
I0403 15:29:18.532997 31944 net.cpp:141] Setting up inception_3a/output_inception_3a/output_0_split
I0403 15:29:18.533021 31944 net.cpp:148] Top shape: 24 256 28 28 (4816896)
I0403 15:29:18.533040 31944 net.cpp:148] Top shape: 24 256 28 28 (4816896)
I0403 15:29:18.533056 31944 net.cpp:148] Top shape: 24 256 28 28 (4816896)
I0403 15:29:18.533073 31944 net.cpp:148] Top shape: 24 256 28 28 (4816896)
I0403 15:29:18.533089 31944 net.cpp:156] Memory required for data: 657507360
I0403 15:29:18.533105 31944 layer_factory.hpp:77] Creating layer inception_3b/1x1
I0403 15:29:18.533129 31944 net.cpp:91] Creating Layer inception_3b/1x1
I0403 15:29:18.533149 31944 net.cpp:425] inception_3b/1x1 <- inception_3a/output_inception_3a/output_0_split_0
I0403 15:29:18.533171 31944 net.cpp:399] inception_3b/1x1 -> inception_3b/1x1
I0403 15:29:18.534328 31944 net.cpp:141] Setting up inception_3b/1x1
I0403 15:29:18.534368 31944 net.cpp:148] Top shape: 24 128 28 28 (2408448)
I0403 15:29:18.534386 31944 net.cpp:156] Memory required for data: 667141152
I0403 15:29:18.534406 31944 layer_factory.hpp:77] Creating layer inception_3b/relu_1x1
I0403 15:29:18.534428 31944 net.cpp:91] Creating Layer inception_3b/relu_1x1
I0403 15:29:18.534446 31944 net.cpp:425] inception_3b/relu_1x1 <- inception_3b/1x1
I0403 15:29:18.534464 31944 net.cpp:386] inception_3b/relu_1x1 -> inception_3b/1x1 (in-place)
I0403 15:29:18.534641 31944 net.cpp:141] Setting up inception_3b/relu_1x1
I0403 15:29:18.534669 31944 net.cpp:148] Top shape: 24 128 28 28 (2408448)
I0403 15:29:18.534685 31944 net.cpp:156] Memory required for data: 676774944
I0403 15:29:18.534701 31944 layer_factory.hpp:77] Creating layer inception_3b/3x3_reduce
I0403 15:29:18.534721 31944 net.cpp:91] Creating Layer inception_3b/3x3_reduce
I0403 15:29:18.534739 31944 net.cpp:425] inception_3b/3x3_reduce <- inception_3a/output_inception_3a/output_0_split_1
I0403 15:29:18.534760 31944 net.cpp:399] inception_3b/3x3_reduce -> inception_3b/3x3_reduce
I0403 15:29:18.535883 31944 net.cpp:141] Setting up inception_3b/3x3_reduce
I0403 15:29:18.535912 31944 net.cpp:148] Top shape: 24 128 28 28 (2408448)
I0403 15:29:18.535928 31944 net.cpp:156] Memory required for data: 686408736
I0403 15:29:18.535948 31944 layer_factory.hpp:77] Creating layer inception_3b/relu_3x3_reduce
I0403 15:29:18.535969 31944 net.cpp:91] Creating Layer inception_3b/relu_3x3_reduce
I0403 15:29:18.535986 31944 net.cpp:425] inception_3b/relu_3x3_reduce <- inception_3b/3x3_reduce
I0403 15:29:18.536005 31944 net.cpp:386] inception_3b/relu_3x3_reduce -> inception_3b/3x3_reduce (in-place)
I0403 15:29:18.536175 31944 net.cpp:141] Setting up inception_3b/relu_3x3_reduce
I0403 15:29:18.536202 31944 net.cpp:148] Top shape: 24 128 28 28 (2408448)
I0403 15:29:18.536218 31944 net.cpp:156] Memory required for data: 696042528
I0403 15:29:18.536233 31944 layer_factory.hpp:77] Creating layer inception_3b/3x3
I0403 15:29:18.536260 31944 net.cpp:91] Creating Layer inception_3b/3x3
I0403 15:29:18.536279 31944 net.cpp:425] inception_3b/3x3 <- inception_3b/3x3_reduce
I0403 15:29:18.536309 31944 net.cpp:399] inception_3b/3x3 -> inception_3b/3x3
I0403 15:29:18.539194 31944 net.cpp:141] Setting up inception_3b/3x3
I0403 15:29:18.539224 31944 net.cpp:148] Top shape: 24 192 28 28 (3612672)
I0403 15:29:18.539244 31944 net.cpp:156] Memory required for data: 710493216
I0403 15:29:18.539264 31944 layer_factory.hpp:77] Creating layer inception_3b/relu_3x3
I0403 15:29:18.539286 31944 net.cpp:91] Creating Layer inception_3b/relu_3x3
I0403 15:29:18.539305 31944 net.cpp:425] inception_3b/relu_3x3 <- inception_3b/3x3
I0403 15:29:18.539324 31944 net.cpp:386] inception_3b/relu_3x3 -> inception_3b/3x3 (in-place)
I0403 15:29:18.539603 31944 net.cpp:141] Setting up inception_3b/relu_3x3
I0403 15:29:18.539629 31944 net.cpp:148] Top shape: 24 192 28 28 (3612672)
I0403 15:29:18.539649 31944 net.cpp:156] Memory required for data: 724943904
I0403 15:29:18.539664 31944 layer_factory.hpp:77] Creating layer inception_3b/5x5_reduce
I0403 15:29:18.539686 31944 net.cpp:91] Creating Layer inception_3b/5x5_reduce
I0403 15:29:18.539705 31944 net.cpp:425] inception_3b/5x5_reduce <- inception_3a/output_inception_3a/output_0_split_2
I0403 15:29:18.539726 31944 net.cpp:399] inception_3b/5x5_reduce -> inception_3b/5x5_reduce
I0403 15:29:18.540742 31944 net.cpp:141] Setting up inception_3b/5x5_reduce
I0403 15:29:18.540772 31944 net.cpp:148] Top shape: 24 32 28 28 (602112)
I0403 15:29:18.540789 31944 net.cpp:156] Memory required for data: 727352352
I0403 15:29:18.540809 31944 layer_factory.hpp:77] Creating layer inception_3b/relu_5x5_reduce
I0403 15:29:18.540832 31944 net.cpp:91] Creating Layer inception_3b/relu_5x5_reduce
I0403 15:29:18.540850 31944 net.cpp:425] inception_3b/relu_5x5_reduce <- inception_3b/5x5_reduce
I0403 15:29:18.540869 31944 net.cpp:386] inception_3b/relu_5x5_reduce -> inception_3b/5x5_reduce (in-place)
I0403 15:29:18.541052 31944 net.cpp:141] Setting up inception_3b/relu_5x5_reduce
I0403 15:29:18.541095 31944 net.cpp:148] Top shape: 24 32 28 28 (602112)
I0403 15:29:18.541117 31944 net.cpp:156] Memory required for data: 729760800
I0403 15:29:18.541133 31944 layer_factory.hpp:77] Creating layer inception_3b/5x5
I0403 15:29:18.541157 31944 net.cpp:91] Creating Layer inception_3b/5x5
I0403 15:29:18.541175 31944 net.cpp:425] inception_3b/5x5 <- inception_3b/5x5_reduce
I0403 15:29:18.541194 31944 net.cpp:399] inception_3b/5x5 -> inception_3b/5x5
I0403 15:29:18.543192 31944 net.cpp:141] Setting up inception_3b/5x5
I0403 15:29:18.543221 31944 net.cpp:148] Top shape: 24 96 28 28 (1806336)
I0403 15:29:18.543238 31944 net.cpp:156] Memory required for data: 736986144
I0403 15:29:18.543257 31944 layer_factory.hpp:77] Creating layer inception_3b/relu_5x5
I0403 15:29:18.543278 31944 net.cpp:91] Creating Layer inception_3b/relu_5x5
I0403 15:29:18.543300 31944 net.cpp:425] inception_3b/relu_5x5 <- inception_3b/5x5
I0403 15:29:18.543319 31944 net.cpp:386] inception_3b/relu_5x5 -> inception_3b/5x5 (in-place)
I0403 15:29:18.543509 31944 net.cpp:141] Setting up inception_3b/relu_5x5
I0403 15:29:18.543535 31944 net.cpp:148] Top shape: 24 96 28 28 (1806336)
I0403 15:29:18.543562 31944 net.cpp:156] Memory required for data: 744211488
I0403 15:29:18.543578 31944 layer_factory.hpp:77] Creating layer inception_3b/pool
I0403 15:29:18.543597 31944 net.cpp:91] Creating Layer inception_3b/pool
I0403 15:29:18.543612 31944 net.cpp:425] inception_3b/pool <- inception_3a/output_inception_3a/output_0_split_3
I0403 15:29:18.543632 31944 net.cpp:399] inception_3b/pool -> inception_3b/pool
I0403 15:29:18.543687 31944 net.cpp:141] Setting up inception_3b/pool
I0403 15:29:18.543711 31944 net.cpp:148] Top shape: 24 256 28 28 (4816896)
I0403 15:29:18.543727 31944 net.cpp:156] Memory required for data: 763479072
I0403 15:29:18.543743 31944 layer_factory.hpp:77] Creating layer inception_3b/pool_proj
I0403 15:29:18.543766 31944 net.cpp:91] Creating Layer inception_3b/pool_proj
I0403 15:29:18.543786 31944 net.cpp:425] inception_3b/pool_proj <- inception_3b/pool
I0403 15:29:18.543807 31944 net.cpp:399] inception_3b/pool_proj -> inception_3b/pool_proj
I0403 15:29:18.544836 31944 net.cpp:141] Setting up inception_3b/pool_proj
I0403 15:29:18.544865 31944 net.cpp:148] Top shape: 24 64 28 28 (1204224)
I0403 15:29:18.544881 31944 net.cpp:156] Memory required for data: 768295968
I0403 15:29:18.544900 31944 layer_factory.hpp:77] Creating layer inception_3b/relu_pool_proj
I0403 15:29:18.544919 31944 net.cpp:91] Creating Layer inception_3b/relu_pool_proj
I0403 15:29:18.544936 31944 net.cpp:425] inception_3b/relu_pool_proj <- inception_3b/pool_proj
I0403 15:29:18.544955 31944 net.cpp:386] inception_3b/relu_pool_proj -> inception_3b/pool_proj (in-place)
I0403 15:29:18.545336 31944 net.cpp:141] Setting up inception_3b/relu_pool_proj
I0403 15:29:18.545364 31944 net.cpp:148] Top shape: 24 64 28 28 (1204224)
I0403 15:29:18.545380 31944 net.cpp:156] Memory required for data: 773112864
I0403 15:29:18.545397 31944 layer_factory.hpp:77] Creating layer inception_3b/output
I0403 15:29:18.545414 31944 net.cpp:91] Creating Layer inception_3b/output
I0403 15:29:18.545430 31944 net.cpp:425] inception_3b/output <- inception_3b/1x1
I0403 15:29:18.545447 31944 net.cpp:425] inception_3b/output <- inception_3b/3x3
I0403 15:29:18.545464 31944 net.cpp:425] inception_3b/output <- inception_3b/5x5
I0403 15:29:18.545480 31944 net.cpp:425] inception_3b/output <- inception_3b/pool_proj
I0403 15:29:18.545496 31944 net.cpp:399] inception_3b/output -> inception_3b/output
I0403 15:29:18.545552 31944 net.cpp:141] Setting up inception_3b/output
I0403 15:29:18.545578 31944 net.cpp:148] Top shape: 24 480 28 28 (9031680)
I0403 15:29:18.545593 31944 net.cpp:156] Memory required for data: 809239584
I0403 15:29:18.545608 31944 layer_factory.hpp:77] Creating layer pool3/3x3_s2
I0403 15:29:18.545629 31944 net.cpp:91] Creating Layer pool3/3x3_s2
I0403 15:29:18.545645 31944 net.cpp:425] pool3/3x3_s2 <- inception_3b/output
I0403 15:29:18.545665 31944 net.cpp:399] pool3/3x3_s2 -> pool3/3x3_s2
I0403 15:29:18.545737 31944 net.cpp:141] Setting up pool3/3x3_s2
I0403 15:29:18.545763 31944 net.cpp:148] Top shape: 24 480 14 14 (2257920)
I0403 15:29:18.545778 31944 net.cpp:156] Memory required for data: 818271264
I0403 15:29:18.545794 31944 layer_factory.hpp:77] Creating layer pool3/3x3_s2_pool3/3x3_s2_0_split
I0403 15:29:18.545811 31944 net.cpp:91] Creating Layer pool3/3x3_s2_pool3/3x3_s2_0_split
I0403 15:29:18.545827 31944 net.cpp:425] pool3/3x3_s2_pool3/3x3_s2_0_split <- pool3/3x3_s2
I0403 15:29:18.545860 31944 net.cpp:399] pool3/3x3_s2_pool3/3x3_s2_0_split -> pool3/3x3_s2_pool3/3x3_s2_0_split_0
I0403 15:29:18.545879 31944 net.cpp:399] pool3/3x3_s2_pool3/3x3_s2_0_split -> pool3/3x3_s2_pool3/3x3_s2_0_split_1
I0403 15:29:18.545900 31944 net.cpp:399] pool3/3x3_s2_pool3/3x3_s2_0_split -> pool3/3x3_s2_pool3/3x3_s2_0_split_2
I0403 15:29:18.545920 31944 net.cpp:399] pool3/3x3_s2_pool3/3x3_s2_0_split -> pool3/3x3_s2_pool3/3x3_s2_0_split_3
I0403 15:29:18.545995 31944 net.cpp:141] Setting up pool3/3x3_s2_pool3/3x3_s2_0_split
I0403 15:29:18.546021 31944 net.cpp:148] Top shape: 24 480 14 14 (2257920)
I0403 15:29:18.546039 31944 net.cpp:148] Top shape: 24 480 14 14 (2257920)
I0403 15:29:18.546056 31944 net.cpp:148] Top shape: 24 480 14 14 (2257920)
I0403 15:29:18.546072 31944 net.cpp:148] Top shape: 24 480 14 14 (2257920)
I0403 15:29:18.546087 31944 net.cpp:156] Memory required for data: 854397984
I0403 15:29:18.546103 31944 layer_factory.hpp:77] Creating layer inception_4a/1x1
I0403 15:29:18.546125 31944 net.cpp:91] Creating Layer inception_4a/1x1
I0403 15:29:18.546144 31944 net.cpp:425] inception_4a/1x1 <- pool3/3x3_s2_pool3/3x3_s2_0_split_0
I0403 15:29:18.546162 31944 net.cpp:399] inception_4a/1x1 -> inception_4a/1x1
I0403 15:29:18.547677 31944 net.cpp:141] Setting up inception_4a/1x1
I0403 15:29:18.547705 31944 net.cpp:148] Top shape: 24 192 14 14 (903168)
I0403 15:29:18.547722 31944 net.cpp:156] Memory required for data: 858010656
I0403 15:29:18.547740 31944 layer_factory.hpp:77] Creating layer inception_4a/relu_1x1
I0403 15:29:18.547758 31944 net.cpp:91] Creating Layer inception_4a/relu_1x1
I0403 15:29:18.547775 31944 net.cpp:425] inception_4a/relu_1x1 <- inception_4a/1x1
I0403 15:29:18.547794 31944 net.cpp:386] inception_4a/relu_1x1 -> inception_4a/1x1 (in-place)
I0403 15:29:18.547966 31944 net.cpp:141] Setting up inception_4a/relu_1x1
I0403 15:29:18.547991 31944 net.cpp:148] Top shape: 24 192 14 14 (903168)
I0403 15:29:18.548007 31944 net.cpp:156] Memory required for data: 861623328
I0403 15:29:18.548022 31944 layer_factory.hpp:77] Creating layer inception_4a/3x3_reduce
I0403 15:29:18.548043 31944 net.cpp:91] Creating Layer inception_4a/3x3_reduce
I0403 15:29:18.548060 31944 net.cpp:425] inception_4a/3x3_reduce <- pool3/3x3_s2_pool3/3x3_s2_0_split_1
I0403 15:29:18.548081 31944 net.cpp:399] inception_4a/3x3_reduce -> inception_4a/3x3_reduce
I0403 15:29:18.549345 31944 net.cpp:141] Setting up inception_4a/3x3_reduce
I0403 15:29:18.549373 31944 net.cpp:148] Top shape: 24 96 14 14 (451584)
I0403 15:29:18.549389 31944 net.cpp:156] Memory required for data: 863429664
I0403 15:29:18.549415 31944 layer_factory.hpp:77] Creating layer inception_4a/relu_3x3_reduce
I0403 15:29:18.549435 31944 net.cpp:91] Creating Layer inception_4a/relu_3x3_reduce
I0403 15:29:18.549451 31944 net.cpp:425] inception_4a/relu_3x3_reduce <- inception_4a/3x3_reduce
I0403 15:29:18.549471 31944 net.cpp:386] inception_4a/relu_3x3_reduce -> inception_4a/3x3_reduce (in-place)
I0403 15:29:18.549645 31944 net.cpp:141] Setting up inception_4a/relu_3x3_reduce
I0403 15:29:18.549671 31944 net.cpp:148] Top shape: 24 96 14 14 (451584)
I0403 15:29:18.549686 31944 net.cpp:156] Memory required for data: 865236000
I0403 15:29:18.549702 31944 layer_factory.hpp:77] Creating layer inception_4a/3x3
I0403 15:29:18.549724 31944 net.cpp:91] Creating Layer inception_4a/3x3
I0403 15:29:18.549742 31944 net.cpp:425] inception_4a/3x3 <- inception_4a/3x3_reduce
I0403 15:29:18.549763 31944 net.cpp:399] inception_4a/3x3 -> inception_4a/3x3
I0403 15:29:18.552386 31944 net.cpp:141] Setting up inception_4a/3x3
I0403 15:29:18.552414 31944 net.cpp:148] Top shape: 24 208 14 14 (978432)
I0403 15:29:18.552431 31944 net.cpp:156] Memory required for data: 869149728
I0403 15:29:18.552451 31944 layer_factory.hpp:77] Creating layer inception_4a/relu_3x3
I0403 15:29:18.552472 31944 net.cpp:91] Creating Layer inception_4a/relu_3x3
I0403 15:29:18.552489 31944 net.cpp:425] inception_4a/relu_3x3 <- inception_4a/3x3
I0403 15:29:18.552506 31944 net.cpp:386] inception_4a/relu_3x3 -> inception_4a/3x3 (in-place)
I0403 15:29:18.552778 31944 net.cpp:141] Setting up inception_4a/relu_3x3
I0403 15:29:18.552805 31944 net.cpp:148] Top shape: 24 208 14 14 (978432)
I0403 15:29:18.552821 31944 net.cpp:156] Memory required for data: 873063456
I0403 15:29:18.552836 31944 layer_factory.hpp:77] Creating layer inception_4a/5x5_reduce
I0403 15:29:18.552858 31944 net.cpp:91] Creating Layer inception_4a/5x5_reduce
I0403 15:29:18.552877 31944 net.cpp:425] inception_4a/5x5_reduce <- pool3/3x3_s2_pool3/3x3_s2_0_split_2
I0403 15:29:18.552901 31944 net.cpp:399] inception_4a/5x5_reduce -> inception_4a/5x5_reduce
I0403 15:29:18.553922 31944 net.cpp:141] Setting up inception_4a/5x5_reduce
I0403 15:29:18.553949 31944 net.cpp:148] Top shape: 24 16 14 14 (75264)
I0403 15:29:18.553966 31944 net.cpp:156] Memory required for data: 873364512
I0403 15:29:18.553987 31944 layer_factory.hpp:77] Creating layer inception_4a/relu_5x5_reduce
I0403 15:29:18.554008 31944 net.cpp:91] Creating Layer inception_4a/relu_5x5_reduce
I0403 15:29:18.554023 31944 net.cpp:425] inception_4a/relu_5x5_reduce <- inception_4a/5x5_reduce
I0403 15:29:18.554041 31944 net.cpp:386] inception_4a/relu_5x5_reduce -> inception_4a/5x5_reduce (in-place)
I0403 15:29:18.554216 31944 net.cpp:141] Setting up inception_4a/relu_5x5_reduce
I0403 15:29:18.554244 31944 net.cpp:148] Top shape: 24 16 14 14 (75264)
I0403 15:29:18.554261 31944 net.cpp:156] Memory required for data: 873665568
I0403 15:29:18.554276 31944 layer_factory.hpp:77] Creating layer inception_4a/5x5
I0403 15:29:18.554312 31944 net.cpp:91] Creating Layer inception_4a/5x5
I0403 15:29:18.554332 31944 net.cpp:425] inception_4a/5x5 <- inception_4a/5x5_reduce
I0403 15:29:18.554352 31944 net.cpp:399] inception_4a/5x5 -> inception_4a/5x5
I0403 15:29:18.555433 31944 net.cpp:141] Setting up inception_4a/5x5
I0403 15:29:18.555464 31944 net.cpp:148] Top shape: 24 48 14 14 (225792)
I0403 15:29:18.555493 31944 net.cpp:156] Memory required for data: 874568736
I0403 15:29:18.555513 31944 layer_factory.hpp:77] Creating layer inception_4a/relu_5x5
I0403 15:29:18.555532 31944 net.cpp:91] Creating Layer inception_4a/relu_5x5
I0403 15:29:18.555549 31944 net.cpp:425] inception_4a/relu_5x5 <- inception_4a/5x5
I0403 15:29:18.555567 31944 net.cpp:386] inception_4a/relu_5x5 -> inception_4a/5x5 (in-place)
I0403 15:29:18.555752 31944 net.cpp:141] Setting up inception_4a/relu_5x5
I0403 15:29:18.555779 31944 net.cpp:148] Top shape: 24 48 14 14 (225792)
I0403 15:29:18.555795 31944 net.cpp:156] Memory required for data: 875471904
I0403 15:29:18.555811 31944 layer_factory.hpp:77] Creating layer inception_4a/pool
I0403 15:29:18.555830 31944 net.cpp:91] Creating Layer inception_4a/pool
I0403 15:29:18.555846 31944 net.cpp:425] inception_4a/pool <- pool3/3x3_s2_pool3/3x3_s2_0_split_3
I0403 15:29:18.555867 31944 net.cpp:399] inception_4a/pool -> inception_4a/pool
I0403 15:29:18.555928 31944 net.cpp:141] Setting up inception_4a/pool
I0403 15:29:18.555954 31944 net.cpp:148] Top shape: 24 480 14 14 (2257920)
I0403 15:29:18.555969 31944 net.cpp:156] Memory required for data: 884503584
I0403 15:29:18.555985 31944 layer_factory.hpp:77] Creating layer inception_4a/pool_proj
I0403 15:29:18.556011 31944 net.cpp:91] Creating Layer inception_4a/pool_proj
I0403 15:29:18.556030 31944 net.cpp:425] inception_4a/pool_proj <- inception_4a/pool
I0403 15:29:18.556051 31944 net.cpp:399] inception_4a/pool_proj -> inception_4a/pool_proj
I0403 15:29:18.557199 31944 net.cpp:141] Setting up inception_4a/pool_proj
I0403 15:29:18.557227 31944 net.cpp:148] Top shape: 24 64 14 14 (301056)
I0403 15:29:18.557257 31944 net.cpp:156] Memory required for data: 885707808
I0403 15:29:18.557278 31944 layer_factory.hpp:77] Creating layer inception_4a/relu_pool_proj
I0403 15:29:18.557302 31944 net.cpp:91] Creating Layer inception_4a/relu_pool_proj
I0403 15:29:18.557318 31944 net.cpp:425] inception_4a/relu_pool_proj <- inception_4a/pool_proj
I0403 15:29:18.557339 31944 net.cpp:386] inception_4a/relu_pool_proj -> inception_4a/pool_proj (in-place)
I0403 15:29:18.557621 31944 net.cpp:141] Setting up inception_4a/relu_pool_proj
I0403 15:29:18.557649 31944 net.cpp:148] Top shape: 24 64 14 14 (301056)
I0403 15:29:18.557665 31944 net.cpp:156] Memory required for data: 886912032
I0403 15:29:18.557682 31944 layer_factory.hpp:77] Creating layer inception_4a/output
I0403 15:29:18.557698 31944 net.cpp:91] Creating Layer inception_4a/output
I0403 15:29:18.557715 31944 net.cpp:425] inception_4a/output <- inception_4a/1x1
I0403 15:29:18.557734 31944 net.cpp:425] inception_4a/output <- inception_4a/3x3
I0403 15:29:18.557751 31944 net.cpp:425] inception_4a/output <- inception_4a/5x5
I0403 15:29:18.557768 31944 net.cpp:425] inception_4a/output <- inception_4a/pool_proj
I0403 15:29:18.557790 31944 net.cpp:399] inception_4a/output -> inception_4a/output
I0403 15:29:18.557834 31944 net.cpp:141] Setting up inception_4a/output
I0403 15:29:18.557862 31944 net.cpp:148] Top shape: 24 512 14 14 (2408448)
I0403 15:29:18.557878 31944 net.cpp:156] Memory required for data: 896545824
I0403 15:29:18.557893 31944 layer_factory.hpp:77] Creating layer inception_4a/output_inception_4a/output_0_split
I0403 15:29:18.557911 31944 net.cpp:91] Creating Layer inception_4a/output_inception_4a/output_0_split
I0403 15:29:18.557927 31944 net.cpp:425] inception_4a/output_inception_4a/output_0_split <- inception_4a/output
I0403 15:29:18.557946 31944 net.cpp:399] inception_4a/output_inception_4a/output_0_split -> inception_4a/output_inception_4a/output_0_split_0
I0403 15:29:18.557971 31944 net.cpp:399] inception_4a/output_inception_4a/output_0_split -> inception_4a/output_inception_4a/output_0_split_1
I0403 15:29:18.557992 31944 net.cpp:399] inception_4a/output_inception_4a/output_0_split -> inception_4a/output_inception_4a/output_0_split_2
I0403 15:29:18.558013 31944 net.cpp:399] inception_4a/output_inception_4a/output_0_split -> inception_4a/output_inception_4a/output_0_split_3
I0403 15:29:18.558033 31944 net.cpp:399] inception_4a/output_inception_4a/output_0_split -> inception_4a/output_inception_4a/output_0_split_4
I0403 15:29:18.558126 31944 net.cpp:141] Setting up inception_4a/output_inception_4a/output_0_split
I0403 15:29:18.558152 31944 net.cpp:148] Top shape: 24 512 14 14 (2408448)
I0403 15:29:18.558169 31944 net.cpp:148] Top shape: 24 512 14 14 (2408448)
I0403 15:29:18.558185 31944 net.cpp:148] Top shape: 24 512 14 14 (2408448)
I0403 15:29:18.558202 31944 net.cpp:148] Top shape: 24 512 14 14 (2408448)
I0403 15:29:18.558218 31944 net.cpp:148] Top shape: 24 512 14 14 (2408448)
I0403 15:29:18.558233 31944 net.cpp:156] Memory required for data: 944714784
I0403 15:29:18.558248 31944 layer_factory.hpp:77] Creating layer loss1/ave_pool
I0403 15:29:18.558269 31944 net.cpp:91] Creating Layer loss1/ave_pool
I0403 15:29:18.558290 31944 net.cpp:425] loss1/ave_pool <- inception_4a/output_inception_4a/output_0_split_0
I0403 15:29:18.558310 31944 net.cpp:399] loss1/ave_pool -> loss1/ave_pool
I0403 15:29:18.558516 31944 net.cpp:141] Setting up loss1/ave_pool
I0403 15:29:18.558555 31944 net.cpp:148] Top shape: 24 512 4 4 (196608)
I0403 15:29:18.558574 31944 net.cpp:156] Memory required for data: 945501216
I0403 15:29:18.558590 31944 layer_factory.hpp:77] Creating layer loss1/conv
I0403 15:29:18.558614 31944 net.cpp:91] Creating Layer loss1/conv
I0403 15:29:18.558634 31944 net.cpp:425] loss1/conv <- loss1/ave_pool
I0403 15:29:18.558657 31944 net.cpp:399] loss1/conv -> loss1/conv
I0403 15:29:18.560063 31944 net.cpp:141] Setting up loss1/conv
I0403 15:29:18.560091 31944 net.cpp:148] Top shape: 24 128 4 4 (49152)
I0403 15:29:18.560109 31944 net.cpp:156] Memory required for data: 945697824
I0403 15:29:18.560148 31944 layer_factory.hpp:77] Creating layer loss1/relu_conv
I0403 15:29:18.560170 31944 net.cpp:91] Creating Layer loss1/relu_conv
I0403 15:29:18.560189 31944 net.cpp:425] loss1/relu_conv <- loss1/conv
I0403 15:29:18.560206 31944 net.cpp:386] loss1/relu_conv -> loss1/conv (in-place)
I0403 15:29:18.560489 31944 net.cpp:141] Setting up loss1/relu_conv
I0403 15:29:18.560518 31944 net.cpp:148] Top shape: 24 128 4 4 (49152)
I0403 15:29:18.560534 31944 net.cpp:156] Memory required for data: 945894432
I0403 15:29:18.560549 31944 layer_factory.hpp:77] Creating layer loss1/fc
I0403 15:29:18.560576 31944 net.cpp:91] Creating Layer loss1/fc
I0403 15:29:18.560595 31944 net.cpp:425] loss1/fc <- loss1/conv
I0403 15:29:18.560614 31944 net.cpp:399] loss1/fc -> loss1/fc
I0403 15:29:18.578506 31944 net.cpp:141] Setting up loss1/fc
I0403 15:29:18.578537 31944 net.cpp:148] Top shape: 24 1024 (24576)
I0403 15:29:18.578568 31944 net.cpp:156] Memory required for data: 945992736
I0403 15:29:18.578588 31944 layer_factory.hpp:77] Creating layer loss1/relu_fc
I0403 15:29:18.578608 31944 net.cpp:91] Creating Layer loss1/relu_fc
I0403 15:29:18.578626 31944 net.cpp:425] loss1/relu_fc <- loss1/fc
I0403 15:29:18.578647 31944 net.cpp:386] loss1/relu_fc -> loss1/fc (in-place)
I0403 15:29:18.578856 31944 net.cpp:141] Setting up loss1/relu_fc
I0403 15:29:18.578882 31944 net.cpp:148] Top shape: 24 1024 (24576)
I0403 15:29:18.578898 31944 net.cpp:156] Memory required for data: 946091040
I0403 15:29:18.578915 31944 layer_factory.hpp:77] Creating layer loss1/drop_fc
I0403 15:29:18.578943 31944 net.cpp:91] Creating Layer loss1/drop_fc
I0403 15:29:18.578961 31944 net.cpp:425] loss1/drop_fc <- loss1/fc
I0403 15:29:18.578980 31944 net.cpp:386] loss1/drop_fc -> loss1/fc (in-place)
I0403 15:29:18.579031 31944 net.cpp:141] Setting up loss1/drop_fc
I0403 15:29:18.579059 31944 net.cpp:148] Top shape: 24 1024 (24576)
I0403 15:29:18.579077 31944 net.cpp:156] Memory required for data: 946189344
I0403 15:29:18.579093 31944 layer_factory.hpp:77] Creating layer loss1/classifier_plantvillage
I0403 15:29:18.579113 31944 net.cpp:91] Creating Layer loss1/classifier_plantvillage
I0403 15:29:18.579128 31944 net.cpp:425] loss1/classifier_plantvillage <- loss1/fc
I0403 15:29:18.579149 31944 net.cpp:399] loss1/classifier_plantvillage -> loss1/classifier_plantvillage
I0403 15:29:18.580148 31944 net.cpp:141] Setting up loss1/classifier_plantvillage
I0403 15:29:18.580178 31944 net.cpp:148] Top shape: 24 38 (912)
I0403 15:29:18.580194 31944 net.cpp:156] Memory required for data: 946192992
I0403 15:29:18.580214 31944 layer_factory.hpp:77] Creating layer loss1/classifier_plantvillage_loss1/classifier_plantvillage_0_split
I0403 15:29:18.580235 31944 net.cpp:91] Creating Layer loss1/classifier_plantvillage_loss1/classifier_plantvillage_0_split
I0403 15:29:18.580255 31944 net.cpp:425] loss1/classifier_plantvillage_loss1/classifier_plantvillage_0_split <- loss1/classifier_plantvillage
I0403 15:29:18.580273 31944 net.cpp:399] loss1/classifier_plantvillage_loss1/classifier_plantvillage_0_split -> loss1/classifier_plantvillage_loss1/classifier_plantvillage_0_split_0
I0403 15:29:18.580299 31944 net.cpp:399] loss1/classifier_plantvillage_loss1/classifier_plantvillage_0_split -> loss1/classifier_plantvillage_loss1/classifier_plantvillage_0_split_1
I0403 15:29:18.580322 31944 net.cpp:399] loss1/classifier_plantvillage_loss1/classifier_plantvillage_0_split -> loss1/classifier_plantvillage_loss1/classifier_plantvillage_0_split_2
I0403 15:29:18.580386 31944 net.cpp:141] Setting up loss1/classifier_plantvillage_loss1/classifier_plantvillage_0_split
I0403 15:29:18.580413 31944 net.cpp:148] Top shape: 24 38 (912)
I0403 15:29:18.580431 31944 net.cpp:148] Top shape: 24 38 (912)
I0403 15:29:18.580447 31944 net.cpp:148] Top shape: 24 38 (912)
I0403 15:29:18.580462 31944 net.cpp:156] Memory required for data: 946203936
I0403 15:29:18.580477 31944 layer_factory.hpp:77] Creating layer inception_4b/1x1
I0403 15:29:18.580498 31944 net.cpp:91] Creating Layer inception_4b/1x1
I0403 15:29:18.580533 31944 net.cpp:425] inception_4b/1x1 <- inception_4a/output_inception_4a/output_0_split_1
I0403 15:29:18.580555 31944 net.cpp:399] inception_4b/1x1 -> inception_4b/1x1
I0403 15:29:18.582204 31944 net.cpp:141] Setting up inception_4b/1x1
I0403 15:29:18.582234 31944 net.cpp:148] Top shape: 24 160 14 14 (752640)
I0403 15:29:18.582252 31944 net.cpp:156] Memory required for data: 949214496
I0403 15:29:18.582270 31944 layer_factory.hpp:77] Creating layer inception_4b/relu_1x1
I0403 15:29:18.582296 31944 net.cpp:91] Creating Layer inception_4b/relu_1x1
I0403 15:29:18.582314 31944 net.cpp:425] inception_4b/relu_1x1 <- inception_4b/1x1
I0403 15:29:18.582334 31944 net.cpp:386] inception_4b/relu_1x1 -> inception_4b/1x1 (in-place)
I0403 15:29:18.582515 31944 net.cpp:141] Setting up inception_4b/relu_1x1
I0403 15:29:18.582543 31944 net.cpp:148] Top shape: 24 160 14 14 (752640)
I0403 15:29:18.582559 31944 net.cpp:156] Memory required for data: 952225056
I0403 15:29:18.582577 31944 layer_factory.hpp:77] Creating layer inception_4b/3x3_reduce
I0403 15:29:18.582600 31944 net.cpp:91] Creating Layer inception_4b/3x3_reduce
I0403 15:29:18.582619 31944 net.cpp:425] inception_4b/3x3_reduce <- inception_4a/output_inception_4a/output_0_split_2
I0403 15:29:18.582639 31944 net.cpp:399] inception_4b/3x3_reduce -> inception_4b/3x3_reduce
I0403 15:29:18.584019 31944 net.cpp:141] Setting up inception_4b/3x3_reduce
I0403 15:29:18.584048 31944 net.cpp:148] Top shape: 24 112 14 14 (526848)
I0403 15:29:18.584066 31944 net.cpp:156] Memory required for data: 954332448
I0403 15:29:18.584089 31944 layer_factory.hpp:77] Creating layer inception_4b/relu_3x3_reduce
I0403 15:29:18.584108 31944 net.cpp:91] Creating Layer inception_4b/relu_3x3_reduce
I0403 15:29:18.584125 31944 net.cpp:425] inception_4b/relu_3x3_reduce <- inception_4b/3x3_reduce
I0403 15:29:18.584142 31944 net.cpp:386] inception_4b/relu_3x3_reduce -> inception_4b/3x3_reduce (in-place)
I0403 15:29:18.584439 31944 net.cpp:141] Setting up inception_4b/relu_3x3_reduce
I0403 15:29:18.584470 31944 net.cpp:148] Top shape: 24 112 14 14 (526848)
I0403 15:29:18.584486 31944 net.cpp:156] Memory required for data: 956439840
I0403 15:29:18.584501 31944 layer_factory.hpp:77] Creating layer inception_4b/3x3
I0403 15:29:18.584524 31944 net.cpp:91] Creating Layer inception_4b/3x3
I0403 15:29:18.584542 31944 net.cpp:425] inception_4b/3x3 <- inception_4b/3x3_reduce
I0403 15:29:18.584563 31944 net.cpp:399] inception_4b/3x3 -> inception_4b/3x3
I0403 15:29:18.587538 31944 net.cpp:141] Setting up inception_4b/3x3
I0403 15:29:18.587568 31944 net.cpp:148] Top shape: 24 224 14 14 (1053696)
I0403 15:29:18.587584 31944 net.cpp:156] Memory required for data: 960654624
I0403 15:29:18.587604 31944 layer_factory.hpp:77] Creating layer inception_4b/relu_3x3
I0403 15:29:18.587621 31944 net.cpp:91] Creating Layer inception_4b/relu_3x3
I0403 15:29:18.587641 31944 net.cpp:425] inception_4b/relu_3x3 <- inception_4b/3x3
I0403 15:29:18.587658 31944 net.cpp:386] inception_4b/relu_3x3 -> inception_4b/3x3 (in-place)
I0403 15:29:18.587839 31944 net.cpp:141] Setting up inception_4b/relu_3x3
I0403 15:29:18.587865 31944 net.cpp:148] Top shape: 24 224 14 14 (1053696)
I0403 15:29:18.587882 31944 net.cpp:156] Memory required for data: 964869408
I0403 15:29:18.587898 31944 layer_factory.hpp:77] Creating layer inception_4b/5x5_reduce
I0403 15:29:18.587920 31944 net.cpp:91] Creating Layer inception_4b/5x5_reduce
I0403 15:29:18.587939 31944 net.cpp:425] inception_4b/5x5_reduce <- inception_4a/output_inception_4a/output_0_split_3
I0403 15:29:18.587965 31944 net.cpp:399] inception_4b/5x5_reduce -> inception_4b/5x5_reduce
I0403 15:29:18.589077 31944 net.cpp:141] Setting up inception_4b/5x5_reduce
I0403 15:29:18.589107 31944 net.cpp:148] Top shape: 24 24 14 14 (112896)
I0403 15:29:18.589123 31944 net.cpp:156] Memory required for data: 965320992
I0403 15:29:18.589143 31944 layer_factory.hpp:77] Creating layer inception_4b/relu_5x5_reduce
I0403 15:29:18.589164 31944 net.cpp:91] Creating Layer inception_4b/relu_5x5_reduce
I0403 15:29:18.589195 31944 net.cpp:425] inception_4b/relu_5x5_reduce <- inception_4b/5x5_reduce
I0403 15:29:18.589215 31944 net.cpp:386] inception_4b/relu_5x5_reduce -> inception_4b/5x5_reduce (in-place)
I0403 15:29:18.589404 31944 net.cpp:141] Setting up inception_4b/relu_5x5_reduce
I0403 15:29:18.589431 31944 net.cpp:148] Top shape: 24 24 14 14 (112896)
I0403 15:29:18.589445 31944 net.cpp:156] Memory required for data: 965772576
I0403 15:29:18.589462 31944 layer_factory.hpp:77] Creating layer inception_4b/5x5
I0403 15:29:18.589485 31944 net.cpp:91] Creating Layer inception_4b/5x5
I0403 15:29:18.589504 31944 net.cpp:425] inception_4b/5x5 <- inception_4b/5x5_reduce
I0403 15:29:18.589525 31944 net.cpp:399] inception_4b/5x5 -> inception_4b/5x5
I0403 15:29:18.590741 31944 net.cpp:141] Setting up inception_4b/5x5
I0403 15:29:18.590770 31944 net.cpp:148] Top shape: 24 64 14 14 (301056)
I0403 15:29:18.590786 31944 net.cpp:156] Memory required for data: 966976800
I0403 15:29:18.590806 31944 layer_factory.hpp:77] Creating layer inception_4b/relu_5x5
I0403 15:29:18.590826 31944 net.cpp:91] Creating Layer inception_4b/relu_5x5
I0403 15:29:18.590844 31944 net.cpp:425] inception_4b/relu_5x5 <- inception_4b/5x5
I0403 15:29:18.590862 31944 net.cpp:386] inception_4b/relu_5x5 -> inception_4b/5x5 (in-place)
I0403 15:29:18.591147 31944 net.cpp:141] Setting up inception_4b/relu_5x5
I0403 15:29:18.591174 31944 net.cpp:148] Top shape: 24 64 14 14 (301056)
I0403 15:29:18.591190 31944 net.cpp:156] Memory required for data: 968181024
I0403 15:29:18.591207 31944 layer_factory.hpp:77] Creating layer inception_4b/pool
I0403 15:29:18.591228 31944 net.cpp:91] Creating Layer inception_4b/pool
I0403 15:29:18.591245 31944 net.cpp:425] inception_4b/pool <- inception_4a/output_inception_4a/output_0_split_4
I0403 15:29:18.591264 31944 net.cpp:399] inception_4b/pool -> inception_4b/pool
I0403 15:29:18.591333 31944 net.cpp:141] Setting up inception_4b/pool
I0403 15:29:18.591359 31944 net.cpp:148] Top shape: 24 512 14 14 (2408448)
I0403 15:29:18.591374 31944 net.cpp:156] Memory required for data: 977814816
I0403 15:29:18.591390 31944 layer_factory.hpp:77] Creating layer inception_4b/pool_proj
I0403 15:29:18.591413 31944 net.cpp:91] Creating Layer inception_4b/pool_proj
I0403 15:29:18.591433 31944 net.cpp:425] inception_4b/pool_proj <- inception_4b/pool
I0403 15:29:18.591456 31944 net.cpp:399] inception_4b/pool_proj -> inception_4b/pool_proj
I0403 15:29:18.592653 31944 net.cpp:141] Setting up inception_4b/pool_proj
I0403 15:29:18.592684 31944 net.cpp:148] Top shape: 24 64 14 14 (301056)
I0403 15:29:18.592705 31944 net.cpp:156] Memory required for data: 979019040
I0403 15:29:18.592725 31944 layer_factory.hpp:77] Creating layer inception_4b/relu_pool_proj
I0403 15:29:18.592743 31944 net.cpp:91] Creating Layer inception_4b/relu_pool_proj
I0403 15:29:18.592761 31944 net.cpp:425] inception_4b/relu_pool_proj <- inception_4b/pool_proj
I0403 15:29:18.592778 31944 net.cpp:386] inception_4b/relu_pool_proj -> inception_4b/pool_proj (in-place)
I0403 15:29:18.592959 31944 net.cpp:141] Setting up inception_4b/relu_pool_proj
I0403 15:29:18.592988 31944 net.cpp:148] Top shape: 24 64 14 14 (301056)
I0403 15:29:18.593004 31944 net.cpp:156] Memory required for data: 980223264
I0403 15:29:18.593020 31944 layer_factory.hpp:77] Creating layer inception_4b/output
I0403 15:29:18.593039 31944 net.cpp:91] Creating Layer inception_4b/output
I0403 15:29:18.593055 31944 net.cpp:425] inception_4b/output <- inception_4b/1x1
I0403 15:29:18.593071 31944 net.cpp:425] inception_4b/output <- inception_4b/3x3
I0403 15:29:18.593088 31944 net.cpp:425] inception_4b/output <- inception_4b/5x5
I0403 15:29:18.593106 31944 net.cpp:425] inception_4b/output <- inception_4b/pool_proj
I0403 15:29:18.593127 31944 net.cpp:399] inception_4b/output -> inception_4b/output
I0403 15:29:18.593173 31944 net.cpp:141] Setting up inception_4b/output
I0403 15:29:18.593196 31944 net.cpp:148] Top shape: 24 512 14 14 (2408448)
I0403 15:29:18.593212 31944 net.cpp:156] Memory required for data: 989857056
I0403 15:29:18.593241 31944 layer_factory.hpp:77] Creating layer inception_4b/output_inception_4b/output_0_split
I0403 15:29:18.593263 31944 net.cpp:91] Creating Layer inception_4b/output_inception_4b/output_0_split
I0403 15:29:18.593281 31944 net.cpp:425] inception_4b/output_inception_4b/output_0_split <- inception_4b/output
I0403 15:29:18.593304 31944 net.cpp:399] inception_4b/output_inception_4b/output_0_split -> inception_4b/output_inception_4b/output_0_split_0
I0403 15:29:18.593327 31944 net.cpp:399] inception_4b/output_inception_4b/output_0_split -> inception_4b/output_inception_4b/output_0_split_1
I0403 15:29:18.593350 31944 net.cpp:399] inception_4b/output_inception_4b/output_0_split -> inception_4b/output_inception_4b/output_0_split_2
I0403 15:29:18.593372 31944 net.cpp:399] inception_4b/output_inception_4b/output_0_split -> inception_4b/output_inception_4b/output_0_split_3
I0403 15:29:18.593456 31944 net.cpp:141] Setting up inception_4b/output_inception_4b/output_0_split
I0403 15:29:18.593480 31944 net.cpp:148] Top shape: 24 512 14 14 (2408448)
I0403 15:29:18.593498 31944 net.cpp:148] Top shape: 24 512 14 14 (2408448)
I0403 15:29:18.593515 31944 net.cpp:148] Top shape: 24 512 14 14 (2408448)
I0403 15:29:18.593531 31944 net.cpp:148] Top shape: 24 512 14 14 (2408448)
I0403 15:29:18.593559 31944 net.cpp:156] Memory required for data: 1028392224
I0403 15:29:18.593575 31944 layer_factory.hpp:77] Creating layer inception_4c/1x1
I0403 15:29:18.593597 31944 net.cpp:91] Creating Layer inception_4c/1x1
I0403 15:29:18.593616 31944 net.cpp:425] inception_4c/1x1 <- inception_4b/output_inception_4b/output_0_split_0
I0403 15:29:18.593638 31944 net.cpp:399] inception_4c/1x1 -> inception_4c/1x1
I0403 15:29:18.595093 31944 net.cpp:141] Setting up inception_4c/1x1
I0403 15:29:18.595124 31944 net.cpp:148] Top shape: 24 128 14 14 (602112)
I0403 15:29:18.595142 31944 net.cpp:156] Memory required for data: 1030800672
I0403 15:29:18.595162 31944 layer_factory.hpp:77] Creating layer inception_4c/relu_1x1
I0403 15:29:18.595181 31944 net.cpp:91] Creating Layer inception_4c/relu_1x1
I0403 15:29:18.595199 31944 net.cpp:425] inception_4c/relu_1x1 <- inception_4c/1x1
I0403 15:29:18.595221 31944 net.cpp:386] inception_4c/relu_1x1 -> inception_4c/1x1 (in-place)
I0403 15:29:18.595408 31944 net.cpp:141] Setting up inception_4c/relu_1x1
I0403 15:29:18.595435 31944 net.cpp:148] Top shape: 24 128 14 14 (602112)
I0403 15:29:18.595451 31944 net.cpp:156] Memory required for data: 1033209120
I0403 15:29:18.595468 31944 layer_factory.hpp:77] Creating layer inception_4c/3x3_reduce
I0403 15:29:18.595490 31944 net.cpp:91] Creating Layer inception_4c/3x3_reduce
I0403 15:29:18.595510 31944 net.cpp:425] inception_4c/3x3_reduce <- inception_4b/output_inception_4b/output_0_split_1
I0403 15:29:18.595532 31944 net.cpp:399] inception_4c/3x3_reduce -> inception_4c/3x3_reduce
I0403 15:29:18.597499 31944 net.cpp:141] Setting up inception_4c/3x3_reduce
I0403 15:29:18.597529 31944 net.cpp:148] Top shape: 24 128 14 14 (602112)
I0403 15:29:18.597546 31944 net.cpp:156] Memory required for data: 1035617568
I0403 15:29:18.597566 31944 layer_factory.hpp:77] Creating layer inception_4c/relu_3x3_reduce
I0403 15:29:18.597587 31944 net.cpp:91] Creating Layer inception_4c/relu_3x3_reduce
I0403 15:29:18.597605 31944 net.cpp:425] inception_4c/relu_3x3_reduce <- inception_4c/3x3_reduce
I0403 15:29:18.597625 31944 net.cpp:386] inception_4c/relu_3x3_reduce -> inception_4c/3x3_reduce (in-place)
I0403 15:29:18.597916 31944 net.cpp:141] Setting up inception_4c/relu_3x3_reduce
I0403 15:29:18.597944 31944 net.cpp:148] Top shape: 24 128 14 14 (602112)
I0403 15:29:18.597959 31944 net.cpp:156] Memory required for data: 1038026016
I0403 15:29:18.597976 31944 layer_factory.hpp:77] Creating layer inception_4c/3x3
I0403 15:29:18.598000 31944 net.cpp:91] Creating Layer inception_4c/3x3
I0403 15:29:18.598018 31944 net.cpp:425] inception_4c/3x3 <- inception_4c/3x3_reduce
I0403 15:29:18.598044 31944 net.cpp:399] inception_4c/3x3 -> inception_4c/3x3
I0403 15:29:18.601681 31944 net.cpp:141] Setting up inception_4c/3x3
I0403 15:29:18.601723 31944 net.cpp:148] Top shape: 24 256 14 14 (1204224)
I0403 15:29:18.601742 31944 net.cpp:156] Memory required for data: 1042842912
I0403 15:29:18.601774 31944 layer_factory.hpp:77] Creating layer inception_4c/relu_3x3
I0403 15:29:18.601799 31944 net.cpp:91] Creating Layer inception_4c/relu_3x3
I0403 15:29:18.601817 31944 net.cpp:425] inception_4c/relu_3x3 <- inception_4c/3x3
I0403 15:29:18.601836 31944 net.cpp:386] inception_4c/relu_3x3 -> inception_4c/3x3 (in-place)
I0403 15:29:18.602020 31944 net.cpp:141] Setting up inception_4c/relu_3x3
I0403 15:29:18.602046 31944 net.cpp:148] Top shape: 24 256 14 14 (1204224)
I0403 15:29:18.602061 31944 net.cpp:156] Memory required for data: 1047659808
I0403 15:29:18.602077 31944 layer_factory.hpp:77] Creating layer inception_4c/5x5_reduce
I0403 15:29:18.602102 31944 net.cpp:91] Creating Layer inception_4c/5x5_reduce
I0403 15:29:18.602120 31944 net.cpp:425] inception_4c/5x5_reduce <- inception_4b/output_inception_4b/output_0_split_2
I0403 15:29:18.602139 31944 net.cpp:399] inception_4c/5x5_reduce -> inception_4c/5x5_reduce
I0403 15:29:18.603227 31944 net.cpp:141] Setting up inception_4c/5x5_reduce
I0403 15:29:18.603256 31944 net.cpp:148] Top shape: 24 24 14 14 (112896)
I0403 15:29:18.603272 31944 net.cpp:156] Memory required for data: 1048111392
I0403 15:29:18.603296 31944 layer_factory.hpp:77] Creating layer inception_4c/relu_5x5_reduce
I0403 15:29:18.603319 31944 net.cpp:91] Creating Layer inception_4c/relu_5x5_reduce
I0403 15:29:18.603339 31944 net.cpp:425] inception_4c/relu_5x5_reduce <- inception_4c/5x5_reduce
I0403 15:29:18.603358 31944 net.cpp:386] inception_4c/relu_5x5_reduce -> inception_4c/5x5_reduce (in-place)
I0403 15:29:18.603559 31944 net.cpp:141] Setting up inception_4c/relu_5x5_reduce
I0403 15:29:18.603587 31944 net.cpp:148] Top shape: 24 24 14 14 (112896)
I0403 15:29:18.603605 31944 net.cpp:156] Memory required for data: 1048562976
I0403 15:29:18.603621 31944 layer_factory.hpp:77] Creating layer inception_4c/5x5
I0403 15:29:18.603643 31944 net.cpp:91] Creating Layer inception_4c/5x5
I0403 15:29:18.603662 31944 net.cpp:425] inception_4c/5x5 <- inception_4c/5x5_reduce
I0403 15:29:18.603684 31944 net.cpp:399] inception_4c/5x5 -> inception_4c/5x5
I0403 15:29:18.604985 31944 net.cpp:141] Setting up inception_4c/5x5
I0403 15:29:18.605018 31944 net.cpp:148] Top shape: 24 64 14 14 (301056)
I0403 15:29:18.605036 31944 net.cpp:156] Memory required for data: 1049767200
I0403 15:29:18.605057 31944 layer_factory.hpp:77] Creating layer inception_4c/relu_5x5
I0403 15:29:18.605075 31944 net.cpp:91] Creating Layer inception_4c/relu_5x5
I0403 15:29:18.605093 31944 net.cpp:425] inception_4c/relu_5x5 <- inception_4c/5x5
I0403 15:29:18.605115 31944 net.cpp:386] inception_4c/relu_5x5 -> inception_4c/5x5 (in-place)
I0403 15:29:18.605443 31944 net.cpp:141] Setting up inception_4c/relu_5x5
I0403 15:29:18.605473 31944 net.cpp:148] Top shape: 24 64 14 14 (301056)
I0403 15:29:18.605492 31944 net.cpp:156] Memory required for data: 1050971424
I0403 15:29:18.605509 31944 layer_factory.hpp:77] Creating layer inception_4c/pool
I0403 15:29:18.605528 31944 net.cpp:91] Creating Layer inception_4c/pool
I0403 15:29:18.605546 31944 net.cpp:425] inception_4c/pool <- inception_4b/output_inception_4b/output_0_split_3
I0403 15:29:18.605568 31944 net.cpp:399] inception_4c/pool -> inception_4c/pool
I0403 15:29:18.605649 31944 net.cpp:141] Setting up inception_4c/pool
I0403 15:29:18.605677 31944 net.cpp:148] Top shape: 24 512 14 14 (2408448)
I0403 15:29:18.605695 31944 net.cpp:156] Memory required for data: 1060605216
I0403 15:29:18.605711 31944 layer_factory.hpp:77] Creating layer inception_4c/pool_proj
I0403 15:29:18.605732 31944 net.cpp:91] Creating Layer inception_4c/pool_proj
I0403 15:29:18.605749 31944 net.cpp:425] inception_4c/pool_proj <- inception_4c/pool
I0403 15:29:18.605772 31944 net.cpp:399] inception_4c/pool_proj -> inception_4c/pool_proj
I0403 15:29:18.607026 31944 net.cpp:141] Setting up inception_4c/pool_proj
I0403 15:29:18.607056 31944 net.cpp:148] Top shape: 24 64 14 14 (301056)
I0403 15:29:18.607087 31944 net.cpp:156] Memory required for data: 1061809440
I0403 15:29:18.607108 31944 layer_factory.hpp:77] Creating layer inception_4c/relu_pool_proj
I0403 15:29:18.607132 31944 net.cpp:91] Creating Layer inception_4c/relu_pool_proj
I0403 15:29:18.607151 31944 net.cpp:425] inception_4c/relu_pool_proj <- inception_4c/pool_proj
I0403 15:29:18.607170 31944 net.cpp:386] inception_4c/relu_pool_proj -> inception_4c/pool_proj (in-place)
I0403 15:29:18.607367 31944 net.cpp:141] Setting up inception_4c/relu_pool_proj
I0403 15:29:18.607396 31944 net.cpp:148] Top shape: 24 64 14 14 (301056)
I0403 15:29:18.607414 31944 net.cpp:156] Memory required for data: 1063013664
I0403 15:29:18.607430 31944 layer_factory.hpp:77] Creating layer inception_4c/output
I0403 15:29:18.607450 31944 net.cpp:91] Creating Layer inception_4c/output
I0403 15:29:18.607465 31944 net.cpp:425] inception_4c/output <- inception_4c/1x1
I0403 15:29:18.607482 31944 net.cpp:425] inception_4c/output <- inception_4c/3x3
I0403 15:29:18.607501 31944 net.cpp:425] inception_4c/output <- inception_4c/5x5
I0403 15:29:18.607517 31944 net.cpp:425] inception_4c/output <- inception_4c/pool_proj
I0403 15:29:18.607539 31944 net.cpp:399] inception_4c/output -> inception_4c/output
I0403 15:29:18.607588 31944 net.cpp:141] Setting up inception_4c/output
I0403 15:29:18.607611 31944 net.cpp:148] Top shape: 24 512 14 14 (2408448)
I0403 15:29:18.607627 31944 net.cpp:156] Memory required for data: 1072647456
I0403 15:29:18.607642 31944 layer_factory.hpp:77] Creating layer inception_4c/output_inception_4c/output_0_split
I0403 15:29:18.607662 31944 net.cpp:91] Creating Layer inception_4c/output_inception_4c/output_0_split
I0403 15:29:18.607681 31944 net.cpp:425] inception_4c/output_inception_4c/output_0_split <- inception_4c/output
I0403 15:29:18.607699 31944 net.cpp:399] inception_4c/output_inception_4c/output_0_split -> inception_4c/output_inception_4c/output_0_split_0
I0403 15:29:18.607720 31944 net.cpp:399] inception_4c/output_inception_4c/output_0_split -> inception_4c/output_inception_4c/output_0_split_1
I0403 15:29:18.607745 31944 net.cpp:399] inception_4c/output_inception_4c/output_0_split -> inception_4c/output_inception_4c/output_0_split_2
I0403 15:29:18.607766 31944 net.cpp:399] inception_4c/output_inception_4c/output_0_split -> inception_4c/output_inception_4c/output_0_split_3
I0403 15:29:18.607854 31944 net.cpp:141] Setting up inception_4c/output_inception_4c/output_0_split
I0403 15:29:18.607879 31944 net.cpp:148] Top shape: 24 512 14 14 (2408448)
I0403 15:29:18.607897 31944 net.cpp:148] Top shape: 24 512 14 14 (2408448)
I0403 15:29:18.607915 31944 net.cpp:148] Top shape: 24 512 14 14 (2408448)
I0403 15:29:18.607931 31944 net.cpp:148] Top shape: 24 512 14 14 (2408448)
I0403 15:29:18.607946 31944 net.cpp:156] Memory required for data: 1111182624
I0403 15:29:18.607962 31944 layer_factory.hpp:77] Creating layer inception_4d/1x1
I0403 15:29:18.607985 31944 net.cpp:91] Creating Layer inception_4d/1x1
I0403 15:29:18.608003 31944 net.cpp:425] inception_4d/1x1 <- inception_4c/output_inception_4c/output_0_split_0
I0403 15:29:18.608026 31944 net.cpp:399] inception_4d/1x1 -> inception_4d/1x1
I0403 15:29:18.609494 31944 net.cpp:141] Setting up inception_4d/1x1
I0403 15:29:18.609524 31944 net.cpp:148] Top shape: 24 112 14 14 (526848)
I0403 15:29:18.609541 31944 net.cpp:156] Memory required for data: 1113290016
I0403 15:29:18.609562 31944 layer_factory.hpp:77] Creating layer inception_4d/relu_1x1
I0403 15:29:18.609585 31944 net.cpp:91] Creating Layer inception_4d/relu_1x1
I0403 15:29:18.609604 31944 net.cpp:425] inception_4d/relu_1x1 <- inception_4d/1x1
I0403 15:29:18.609622 31944 net.cpp:386] inception_4d/relu_1x1 -> inception_4d/1x1 (in-place)
I0403 15:29:18.609817 31944 net.cpp:141] Setting up inception_4d/relu_1x1
I0403 15:29:18.609843 31944 net.cpp:148] Top shape: 24 112 14 14 (526848)
I0403 15:29:18.609859 31944 net.cpp:156] Memory required for data: 1115397408
I0403 15:29:18.609876 31944 layer_factory.hpp:77] Creating layer inception_4d/3x3_reduce
I0403 15:29:18.609915 31944 net.cpp:91] Creating Layer inception_4d/3x3_reduce
I0403 15:29:18.609935 31944 net.cpp:425] inception_4d/3x3_reduce <- inception_4c/output_inception_4c/output_0_split_1
I0403 15:29:18.609957 31944 net.cpp:399] inception_4d/3x3_reduce -> inception_4d/3x3_reduce
I0403 15:29:18.611527 31944 net.cpp:141] Setting up inception_4d/3x3_reduce
I0403 15:29:18.611558 31944 net.cpp:148] Top shape: 24 144 14 14 (677376)
I0403 15:29:18.611577 31944 net.cpp:156] Memory required for data: 1118106912
I0403 15:29:18.611596 31944 layer_factory.hpp:77] Creating layer inception_4d/relu_3x3_reduce
I0403 15:29:18.611616 31944 net.cpp:91] Creating Layer inception_4d/relu_3x3_reduce
I0403 15:29:18.611634 31944 net.cpp:425] inception_4d/relu_3x3_reduce <- inception_4d/3x3_reduce
I0403 15:29:18.611655 31944 net.cpp:386] inception_4d/relu_3x3_reduce -> inception_4d/3x3_reduce (in-place)
I0403 15:29:18.611964 31944 net.cpp:141] Setting up inception_4d/relu_3x3_reduce
I0403 15:29:18.611994 31944 net.cpp:148] Top shape: 24 144 14 14 (677376)
I0403 15:29:18.612010 31944 net.cpp:156] Memory required for data: 1120816416
I0403 15:29:18.612026 31944 layer_factory.hpp:77] Creating layer inception_4d/3x3
I0403 15:29:18.612049 31944 net.cpp:91] Creating Layer inception_4d/3x3
I0403 15:29:18.612068 31944 net.cpp:425] inception_4d/3x3 <- inception_4d/3x3_reduce
I0403 15:29:18.612092 31944 net.cpp:399] inception_4d/3x3 -> inception_4d/3x3
I0403 15:29:18.616603 31944 net.cpp:141] Setting up inception_4d/3x3
I0403 15:29:18.616634 31944 net.cpp:148] Top shape: 24 288 14 14 (1354752)
I0403 15:29:18.616653 31944 net.cpp:156] Memory required for data: 1126235424
I0403 15:29:18.616673 31944 layer_factory.hpp:77] Creating layer inception_4d/relu_3x3
I0403 15:29:18.616698 31944 net.cpp:91] Creating Layer inception_4d/relu_3x3
I0403 15:29:18.616717 31944 net.cpp:425] inception_4d/relu_3x3 <- inception_4d/3x3
I0403 15:29:18.616736 31944 net.cpp:386] inception_4d/relu_3x3 -> inception_4d/3x3 (in-place)
I0403 15:29:18.616943 31944 net.cpp:141] Setting up inception_4d/relu_3x3
I0403 15:29:18.616972 31944 net.cpp:148] Top shape: 24 288 14 14 (1354752)
I0403 15:29:18.616991 31944 net.cpp:156] Memory required for data: 1131654432
I0403 15:29:18.617007 31944 layer_factory.hpp:77] Creating layer inception_4d/5x5_reduce
I0403 15:29:18.617028 31944 net.cpp:91] Creating Layer inception_4d/5x5_reduce
I0403 15:29:18.617048 31944 net.cpp:425] inception_4d/5x5_reduce <- inception_4c/output_inception_4c/output_0_split_2
I0403 15:29:18.617069 31944 net.cpp:399] inception_4d/5x5_reduce -> inception_4d/5x5_reduce
I0403 15:29:18.618257 31944 net.cpp:141] Setting up inception_4d/5x5_reduce
I0403 15:29:18.618290 31944 net.cpp:148] Top shape: 24 32 14 14 (150528)
I0403 15:29:18.618309 31944 net.cpp:156] Memory required for data: 1132256544
I0403 15:29:18.618330 31944 layer_factory.hpp:77] Creating layer inception_4d/relu_5x5_reduce
I0403 15:29:18.618352 31944 net.cpp:91] Creating Layer inception_4d/relu_5x5_reduce
I0403 15:29:18.618371 31944 net.cpp:425] inception_4d/relu_5x5_reduce <- inception_4d/5x5_reduce
I0403 15:29:18.618389 31944 net.cpp:386] inception_4d/relu_5x5_reduce -> inception_4d/5x5_reduce (in-place)
I0403 15:29:18.618599 31944 net.cpp:141] Setting up inception_4d/relu_5x5_reduce
I0403 15:29:18.618628 31944 net.cpp:148] Top shape: 24 32 14 14 (150528)
I0403 15:29:18.618644 31944 net.cpp:156] Memory required for data: 1132858656
I0403 15:29:18.618660 31944 layer_factory.hpp:77] Creating layer inception_4d/5x5
I0403 15:29:18.618686 31944 net.cpp:91] Creating Layer inception_4d/5x5
I0403 15:29:18.618705 31944 net.cpp:425] inception_4d/5x5 <- inception_4d/5x5_reduce
I0403 15:29:18.618726 31944 net.cpp:399] inception_4d/5x5 -> inception_4d/5x5
I0403 15:29:18.620259 31944 net.cpp:141] Setting up inception_4d/5x5
I0403 15:29:18.620293 31944 net.cpp:148] Top shape: 24 64 14 14 (301056)
I0403 15:29:18.620312 31944 net.cpp:156] Memory required for data: 1134062880
I0403 15:29:18.620333 31944 layer_factory.hpp:77] Creating layer inception_4d/relu_5x5
I0403 15:29:18.620368 31944 net.cpp:91] Creating Layer inception_4d/relu_5x5
I0403 15:29:18.620388 31944 net.cpp:425] inception_4d/relu_5x5 <- inception_4d/5x5
I0403 15:29:18.620409 31944 net.cpp:386] inception_4d/relu_5x5 -> inception_4d/5x5 (in-place)
I0403 15:29:18.620720 31944 net.cpp:141] Setting up inception_4d/relu_5x5
I0403 15:29:18.620750 31944 net.cpp:148] Top shape: 24 64 14 14 (301056)
I0403 15:29:18.620769 31944 net.cpp:156] Memory required for data: 1135267104
I0403 15:29:18.620785 31944 layer_factory.hpp:77] Creating layer inception_4d/pool
I0403 15:29:18.620805 31944 net.cpp:91] Creating Layer inception_4d/pool
I0403 15:29:18.620822 31944 net.cpp:425] inception_4d/pool <- inception_4c/output_inception_4c/output_0_split_3
I0403 15:29:18.620846 31944 net.cpp:399] inception_4d/pool -> inception_4d/pool
I0403 15:29:18.620913 31944 net.cpp:141] Setting up inception_4d/pool
I0403 15:29:18.620940 31944 net.cpp:148] Top shape: 24 512 14 14 (2408448)
I0403 15:29:18.620956 31944 net.cpp:156] Memory required for data: 1144900896
I0403 15:29:18.620972 31944 layer_factory.hpp:77] Creating layer inception_4d/pool_proj
I0403 15:29:18.620996 31944 net.cpp:91] Creating Layer inception_4d/pool_proj
I0403 15:29:18.621016 31944 net.cpp:425] inception_4d/pool_proj <- inception_4d/pool
I0403 15:29:18.621039 31944 net.cpp:399] inception_4d/pool_proj -> inception_4d/pool_proj
I0403 15:29:18.622841 31944 net.cpp:141] Setting up inception_4d/pool_proj
I0403 15:29:18.622871 31944 net.cpp:148] Top shape: 24 64 14 14 (301056)
I0403 15:29:18.622889 31944 net.cpp:156] Memory required for data: 1146105120
I0403 15:29:18.622908 31944 layer_factory.hpp:77] Creating layer inception_4d/relu_pool_proj
I0403 15:29:18.622928 31944 net.cpp:91] Creating Layer inception_4d/relu_pool_proj
I0403 15:29:18.622946 31944 net.cpp:425] inception_4d/relu_pool_proj <- inception_4d/pool_proj
I0403 15:29:18.622966 31944 net.cpp:386] inception_4d/relu_pool_proj -> inception_4d/pool_proj (in-place)
I0403 15:29:18.623157 31944 net.cpp:141] Setting up inception_4d/relu_pool_proj
I0403 15:29:18.623185 31944 net.cpp:148] Top shape: 24 64 14 14 (301056)
I0403 15:29:18.623203 31944 net.cpp:156] Memory required for data: 1147309344
I0403 15:29:18.623219 31944 layer_factory.hpp:77] Creating layer inception_4d/output
I0403 15:29:18.623237 31944 net.cpp:91] Creating Layer inception_4d/output
I0403 15:29:18.623253 31944 net.cpp:425] inception_4d/output <- inception_4d/1x1
I0403 15:29:18.623272 31944 net.cpp:425] inception_4d/output <- inception_4d/3x3
I0403 15:29:18.623302 31944 net.cpp:425] inception_4d/output <- inception_4d/5x5
I0403 15:29:18.623323 31944 net.cpp:425] inception_4d/output <- inception_4d/pool_proj
I0403 15:29:18.623342 31944 net.cpp:399] inception_4d/output -> inception_4d/output
I0403 15:29:18.623391 31944 net.cpp:141] Setting up inception_4d/output
I0403 15:29:18.623416 31944 net.cpp:148] Top shape: 24 528 14 14 (2483712)
I0403 15:29:18.623432 31944 net.cpp:156] Memory required for data: 1157244192
I0403 15:29:18.623448 31944 layer_factory.hpp:77] Creating layer inception_4d/output_inception_4d/output_0_split
I0403 15:29:18.623469 31944 net.cpp:91] Creating Layer inception_4d/output_inception_4d/output_0_split
I0403 15:29:18.623486 31944 net.cpp:425] inception_4d/output_inception_4d/output_0_split <- inception_4d/output
I0403 15:29:18.623503 31944 net.cpp:399] inception_4d/output_inception_4d/output_0_split -> inception_4d/output_inception_4d/output_0_split_0
I0403 15:29:18.623524 31944 net.cpp:399] inception_4d/output_inception_4d/output_0_split -> inception_4d/output_inception_4d/output_0_split_1
I0403 15:29:18.623558 31944 net.cpp:399] inception_4d/output_inception_4d/output_0_split -> inception_4d/output_inception_4d/output_0_split_2
I0403 15:29:18.623581 31944 net.cpp:399] inception_4d/output_inception_4d/output_0_split -> inception_4d/output_inception_4d/output_0_split_3
I0403 15:29:18.623606 31944 net.cpp:399] inception_4d/output_inception_4d/output_0_split -> inception_4d/output_inception_4d/output_0_split_4
I0403 15:29:18.623716 31944 net.cpp:141] Setting up inception_4d/output_inception_4d/output_0_split
I0403 15:29:18.623754 31944 net.cpp:148] Top shape: 24 528 14 14 (2483712)
I0403 15:29:18.623774 31944 net.cpp:148] Top shape: 24 528 14 14 (2483712)
I0403 15:29:18.623790 31944 net.cpp:148] Top shape: 24 528 14 14 (2483712)
I0403 15:29:18.623808 31944 net.cpp:148] Top shape: 24 528 14 14 (2483712)
I0403 15:29:18.623850 31944 net.cpp:148] Top shape: 24 528 14 14 (2483712)
I0403 15:29:18.623865 31944 net.cpp:156] Memory required for data: 1206918432
I0403 15:29:18.623891 31944 layer_factory.hpp:77] Creating layer loss2/ave_pool
I0403 15:29:18.623909 31944 net.cpp:91] Creating Layer loss2/ave_pool
I0403 15:29:18.623926 31944 net.cpp:425] loss2/ave_pool <- inception_4d/output_inception_4d/output_0_split_0
I0403 15:29:18.623949 31944 net.cpp:399] loss2/ave_pool -> loss2/ave_pool
I0403 15:29:18.624253 31944 net.cpp:141] Setting up loss2/ave_pool
I0403 15:29:18.624279 31944 net.cpp:148] Top shape: 24 528 4 4 (202752)
I0403 15:29:18.624300 31944 net.cpp:156] Memory required for data: 1207729440
I0403 15:29:18.624316 31944 layer_factory.hpp:77] Creating layer loss2/conv
I0403 15:29:18.624339 31944 net.cpp:91] Creating Layer loss2/conv
I0403 15:29:18.624357 31944 net.cpp:425] loss2/conv <- loss2/ave_pool
I0403 15:29:18.624379 31944 net.cpp:399] loss2/conv -> loss2/conv
I0403 15:29:18.626277 31944 net.cpp:141] Setting up loss2/conv
I0403 15:29:18.626312 31944 net.cpp:148] Top shape: 24 128 4 4 (49152)
I0403 15:29:18.626328 31944 net.cpp:156] Memory required for data: 1207926048
I0403 15:29:18.626348 31944 layer_factory.hpp:77] Creating layer loss2/relu_conv
I0403 15:29:18.626366 31944 net.cpp:91] Creating Layer loss2/relu_conv
I0403 15:29:18.626384 31944 net.cpp:425] loss2/relu_conv <- loss2/conv
I0403 15:29:18.626401 31944 net.cpp:386] loss2/relu_conv -> loss2/conv (in-place)
I0403 15:29:18.626685 31944 net.cpp:141] Setting up loss2/relu_conv
I0403 15:29:18.626714 31944 net.cpp:148] Top shape: 24 128 4 4 (49152)
I0403 15:29:18.626731 31944 net.cpp:156] Memory required for data: 1208122656
I0403 15:29:18.626746 31944 layer_factory.hpp:77] Creating layer loss2/fc
I0403 15:29:18.626766 31944 net.cpp:91] Creating Layer loss2/fc
I0403 15:29:18.626783 31944 net.cpp:425] loss2/fc <- loss2/conv
I0403 15:29:18.626806 31944 net.cpp:399] loss2/fc -> loss2/fc
I0403 15:29:18.644281 31944 net.cpp:141] Setting up loss2/fc
I0403 15:29:18.644321 31944 net.cpp:148] Top shape: 24 1024 (24576)
I0403 15:29:18.644338 31944 net.cpp:156] Memory required for data: 1208220960
I0403 15:29:18.644357 31944 layer_factory.hpp:77] Creating layer loss2/relu_fc
I0403 15:29:18.644379 31944 net.cpp:91] Creating Layer loss2/relu_fc
I0403 15:29:18.644397 31944 net.cpp:425] loss2/relu_fc <- loss2/fc
I0403 15:29:18.644417 31944 net.cpp:386] loss2/relu_fc -> loss2/fc (in-place)
I0403 15:29:18.644707 31944 net.cpp:141] Setting up loss2/relu_fc
I0403 15:29:18.644733 31944 net.cpp:148] Top shape: 24 1024 (24576)
I0403 15:29:18.644748 31944 net.cpp:156] Memory required for data: 1208319264
I0403 15:29:18.644763 31944 layer_factory.hpp:77] Creating layer loss2/drop_fc
I0403 15:29:18.644785 31944 net.cpp:91] Creating Layer loss2/drop_fc
I0403 15:29:18.644803 31944 net.cpp:425] loss2/drop_fc <- loss2/fc
I0403 15:29:18.644820 31944 net.cpp:386] loss2/drop_fc -> loss2/fc (in-place)
I0403 15:29:18.644870 31944 net.cpp:141] Setting up loss2/drop_fc
I0403 15:29:18.644894 31944 net.cpp:148] Top shape: 24 1024 (24576)
I0403 15:29:18.644909 31944 net.cpp:156] Memory required for data: 1208417568
I0403 15:29:18.644924 31944 layer_factory.hpp:77] Creating layer loss2/classifier_plantvillage
I0403 15:29:18.644942 31944 net.cpp:91] Creating Layer loss2/classifier_plantvillage
I0403 15:29:18.644958 31944 net.cpp:425] loss2/classifier_plantvillage <- loss2/fc
I0403 15:29:18.644979 31944 net.cpp:399] loss2/classifier_plantvillage -> loss2/classifier_plantvillage
I0403 15:29:18.645378 31944 net.cpp:141] Setting up loss2/classifier_plantvillage
I0403 15:29:18.645404 31944 net.cpp:148] Top shape: 24 38 (912)
I0403 15:29:18.645421 31944 net.cpp:156] Memory required for data: 1208421216
I0403 15:29:18.645455 31944 layer_factory.hpp:77] Creating layer loss2/classifier_plantvillage_loss2/classifier_plantvillage_0_split
I0403 15:29:18.645475 31944 net.cpp:91] Creating Layer loss2/classifier_plantvillage_loss2/classifier_plantvillage_0_split
I0403 15:29:18.645491 31944 net.cpp:425] loss2/classifier_plantvillage_loss2/classifier_plantvillage_0_split <- loss2/classifier_plantvillage
I0403 15:29:18.645511 31944 net.cpp:399] loss2/classifier_plantvillage_loss2/classifier_plantvillage_0_split -> loss2/classifier_plantvillage_loss2/classifier_plantvillage_0_split_0
I0403 15:29:18.645534 31944 net.cpp:399] loss2/classifier_plantvillage_loss2/classifier_plantvillage_0_split -> loss2/classifier_plantvillage_loss2/classifier_plantvillage_0_split_1
I0403 15:29:18.645555 31944 net.cpp:399] loss2/classifier_plantvillage_loss2/classifier_plantvillage_0_split -> loss2/classifier_plantvillage_loss2/classifier_plantvillage_0_split_2
I0403 15:29:18.645632 31944 net.cpp:141] Setting up loss2/classifier_plantvillage_loss2/classifier_plantvillage_0_split
I0403 15:29:18.645659 31944 net.cpp:148] Top shape: 24 38 (912)
I0403 15:29:18.645678 31944 net.cpp:148] Top shape: 24 38 (912)
I0403 15:29:18.645694 31944 net.cpp:148] Top shape: 24 38 (912)
I0403 15:29:18.645707 31944 net.cpp:156] Memory required for data: 1208432160
I0403 15:29:18.645722 31944 layer_factory.hpp:77] Creating layer inception_4e/1x1
I0403 15:29:18.645742 31944 net.cpp:91] Creating Layer inception_4e/1x1
I0403 15:29:18.645759 31944 net.cpp:425] inception_4e/1x1 <- inception_4d/output_inception_4d/output_0_split_1
I0403 15:29:18.645781 31944 net.cpp:399] inception_4e/1x1 -> inception_4e/1x1
I0403 15:29:18.647559 31944 net.cpp:141] Setting up inception_4e/1x1
I0403 15:29:18.647590 31944 net.cpp:148] Top shape: 24 256 14 14 (1204224)
I0403 15:29:18.647608 31944 net.cpp:156] Memory required for data: 1213249056
I0403 15:29:18.647627 31944 layer_factory.hpp:77] Creating layer inception_4e/relu_1x1
I0403 15:29:18.647646 31944 net.cpp:91] Creating Layer inception_4e/relu_1x1
I0403 15:29:18.647663 31944 net.cpp:425] inception_4e/relu_1x1 <- inception_4e/1x1
I0403 15:29:18.647685 31944 net.cpp:386] inception_4e/relu_1x1 -> inception_4e/1x1 (in-place)
I0403 15:29:18.647989 31944 net.cpp:141] Setting up inception_4e/relu_1x1
I0403 15:29:18.648016 31944 net.cpp:148] Top shape: 24 256 14 14 (1204224)
I0403 15:29:18.648033 31944 net.cpp:156] Memory required for data: 1218065952
I0403 15:29:18.648049 31944 layer_factory.hpp:77] Creating layer inception_4e/3x3_reduce
I0403 15:29:18.648072 31944 net.cpp:91] Creating Layer inception_4e/3x3_reduce
I0403 15:29:18.648089 31944 net.cpp:425] inception_4e/3x3_reduce <- inception_4d/output_inception_4d/output_0_split_2
I0403 15:29:18.648108 31944 net.cpp:399] inception_4e/3x3_reduce -> inception_4e/3x3_reduce
I0403 15:29:18.650173 31944 net.cpp:141] Setting up inception_4e/3x3_reduce
I0403 15:29:18.650203 31944 net.cpp:148] Top shape: 24 160 14 14 (752640)
I0403 15:29:18.650220 31944 net.cpp:156] Memory required for data: 1221076512
I0403 15:29:18.650239 31944 layer_factory.hpp:77] Creating layer inception_4e/relu_3x3_reduce
I0403 15:29:18.650259 31944 net.cpp:91] Creating Layer inception_4e/relu_3x3_reduce
I0403 15:29:18.650274 31944 net.cpp:425] inception_4e/relu_3x3_reduce <- inception_4e/3x3_reduce
I0403 15:29:18.650298 31944 net.cpp:386] inception_4e/relu_3x3_reduce -> inception_4e/3x3_reduce (in-place)
I0403 15:29:18.650485 31944 net.cpp:141] Setting up inception_4e/relu_3x3_reduce
I0403 15:29:18.650512 31944 net.cpp:148] Top shape: 24 160 14 14 (752640)
I0403 15:29:18.650530 31944 net.cpp:156] Memory required for data: 1224087072
I0403 15:29:18.650545 31944 layer_factory.hpp:77] Creating layer inception_4e/3x3
I0403 15:29:18.650568 31944 net.cpp:91] Creating Layer inception_4e/3x3
I0403 15:29:18.650586 31944 net.cpp:425] inception_4e/3x3 <- inception_4e/3x3_reduce
I0403 15:29:18.650609 31944 net.cpp:399] inception_4e/3x3 -> inception_4e/3x3
I0403 15:29:18.655519 31944 net.cpp:141] Setting up inception_4e/3x3
I0403 15:29:18.655561 31944 net.cpp:148] Top shape: 24 320 14 14 (1505280)
I0403 15:29:18.655580 31944 net.cpp:156] Memory required for data: 1230108192
I0403 15:29:18.655599 31944 layer_factory.hpp:77] Creating layer inception_4e/relu_3x3
I0403 15:29:18.655618 31944 net.cpp:91] Creating Layer inception_4e/relu_3x3
I0403 15:29:18.655635 31944 net.cpp:425] inception_4e/relu_3x3 <- inception_4e/3x3
I0403 15:29:18.655658 31944 net.cpp:386] inception_4e/relu_3x3 -> inception_4e/3x3 (in-place)
I0403 15:29:18.655958 31944 net.cpp:141] Setting up inception_4e/relu_3x3
I0403 15:29:18.655984 31944 net.cpp:148] Top shape: 24 320 14 14 (1505280)
I0403 15:29:18.655999 31944 net.cpp:156] Memory required for data: 1236129312
I0403 15:29:18.656014 31944 layer_factory.hpp:77] Creating layer inception_4e/5x5_reduce
I0403 15:29:18.656038 31944 net.cpp:91] Creating Layer inception_4e/5x5_reduce
I0403 15:29:18.656056 31944 net.cpp:425] inception_4e/5x5_reduce <- inception_4d/output_inception_4d/output_0_split_3
I0403 15:29:18.656080 31944 net.cpp:399] inception_4e/5x5_reduce -> inception_4e/5x5_reduce
I0403 15:29:18.657132 31944 net.cpp:141] Setting up inception_4e/5x5_reduce
I0403 15:29:18.657160 31944 net.cpp:148] Top shape: 24 32 14 14 (150528)
I0403 15:29:18.657176 31944 net.cpp:156] Memory required for data: 1236731424
I0403 15:29:18.657197 31944 layer_factory.hpp:77] Creating layer inception_4e/relu_5x5_reduce
I0403 15:29:18.657217 31944 net.cpp:91] Creating Layer inception_4e/relu_5x5_reduce
I0403 15:29:18.657234 31944 net.cpp:425] inception_4e/relu_5x5_reduce <- inception_4e/5x5_reduce
I0403 15:29:18.657253 31944 net.cpp:386] inception_4e/relu_5x5_reduce -> inception_4e/5x5_reduce (in-place)
I0403 15:29:18.657568 31944 net.cpp:141] Setting up inception_4e/relu_5x5_reduce
I0403 15:29:18.657595 31944 net.cpp:148] Top shape: 24 32 14 14 (150528)
I0403 15:29:18.657611 31944 net.cpp:156] Memory required for data: 1237333536
I0403 15:29:18.657626 31944 layer_factory.hpp:77] Creating layer inception_4e/5x5
I0403 15:29:18.657667 31944 net.cpp:91] Creating Layer inception_4e/5x5
I0403 15:29:18.657686 31944 net.cpp:425] inception_4e/5x5 <- inception_4e/5x5_reduce
I0403 15:29:18.657706 31944 net.cpp:399] inception_4e/5x5 -> inception_4e/5x5
I0403 15:29:18.659546 31944 net.cpp:141] Setting up inception_4e/5x5
I0403 15:29:18.659575 31944 net.cpp:148] Top shape: 24 128 14 14 (602112)
I0403 15:29:18.659592 31944 net.cpp:156] Memory required for data: 1239741984
I0403 15:29:18.659613 31944 layer_factory.hpp:77] Creating layer inception_4e/relu_5x5
I0403 15:29:18.659646 31944 net.cpp:91] Creating Layer inception_4e/relu_5x5
I0403 15:29:18.659663 31944 net.cpp:425] inception_4e/relu_5x5 <- inception_4e/5x5
I0403 15:29:18.659682 31944 net.cpp:386] inception_4e/relu_5x5 -> inception_4e/5x5 (in-place)
I0403 15:29:18.659884 31944 net.cpp:141] Setting up inception_4e/relu_5x5
I0403 15:29:18.659914 31944 net.cpp:148] Top shape: 24 128 14 14 (602112)
I0403 15:29:18.659930 31944 net.cpp:156] Memory required for data: 1242150432
I0403 15:29:18.659945 31944 layer_factory.hpp:77] Creating layer inception_4e/pool
I0403 15:29:18.659965 31944 net.cpp:91] Creating Layer inception_4e/pool
I0403 15:29:18.659982 31944 net.cpp:425] inception_4e/pool <- inception_4d/output_inception_4d/output_0_split_4
I0403 15:29:18.660001 31944 net.cpp:399] inception_4e/pool -> inception_4e/pool
I0403 15:29:18.660073 31944 net.cpp:141] Setting up inception_4e/pool
I0403 15:29:18.660097 31944 net.cpp:148] Top shape: 24 528 14 14 (2483712)
I0403 15:29:18.660112 31944 net.cpp:156] Memory required for data: 1252085280
I0403 15:29:18.660128 31944 layer_factory.hpp:77] Creating layer inception_4e/pool_proj
I0403 15:29:18.660151 31944 net.cpp:91] Creating Layer inception_4e/pool_proj
I0403 15:29:18.660168 31944 net.cpp:425] inception_4e/pool_proj <- inception_4e/pool
I0403 15:29:18.660192 31944 net.cpp:399] inception_4e/pool_proj -> inception_4e/pool_proj
I0403 15:29:18.661706 31944 net.cpp:141] Setting up inception_4e/pool_proj
I0403 15:29:18.661736 31944 net.cpp:148] Top shape: 24 128 14 14 (602112)
I0403 15:29:18.661766 31944 net.cpp:156] Memory required for data: 1254493728
I0403 15:29:18.661785 31944 layer_factory.hpp:77] Creating layer inception_4e/relu_pool_proj
I0403 15:29:18.661808 31944 net.cpp:91] Creating Layer inception_4e/relu_pool_proj
I0403 15:29:18.661826 31944 net.cpp:425] inception_4e/relu_pool_proj <- inception_4e/pool_proj
I0403 15:29:18.661845 31944 net.cpp:386] inception_4e/relu_pool_proj -> inception_4e/pool_proj (in-place)
I0403 15:29:18.662144 31944 net.cpp:141] Setting up inception_4e/relu_pool_proj
I0403 15:29:18.662171 31944 net.cpp:148] Top shape: 24 128 14 14 (602112)
I0403 15:29:18.662188 31944 net.cpp:156] Memory required for data: 1256902176
I0403 15:29:18.662202 31944 layer_factory.hpp:77] Creating layer inception_4e/output
I0403 15:29:18.662233 31944 net.cpp:91] Creating Layer inception_4e/output
I0403 15:29:18.662250 31944 net.cpp:425] inception_4e/output <- inception_4e/1x1
I0403 15:29:18.662267 31944 net.cpp:425] inception_4e/output <- inception_4e/3x3
I0403 15:29:18.662288 31944 net.cpp:425] inception_4e/output <- inception_4e/5x5
I0403 15:29:18.662307 31944 net.cpp:425] inception_4e/output <- inception_4e/pool_proj
I0403 15:29:18.662328 31944 net.cpp:399] inception_4e/output -> inception_4e/output
I0403 15:29:18.662384 31944 net.cpp:141] Setting up inception_4e/output
I0403 15:29:18.662410 31944 net.cpp:148] Top shape: 24 832 14 14 (3913728)
I0403 15:29:18.662425 31944 net.cpp:156] Memory required for data: 1272557088
I0403 15:29:18.662441 31944 layer_factory.hpp:77] Creating layer pool4/3x3_s2
I0403 15:29:18.662461 31944 net.cpp:91] Creating Layer pool4/3x3_s2
I0403 15:29:18.662477 31944 net.cpp:425] pool4/3x3_s2 <- inception_4e/output
I0403 15:29:18.662499 31944 net.cpp:399] pool4/3x3_s2 -> pool4/3x3_s2
I0403 15:29:18.662569 31944 net.cpp:141] Setting up pool4/3x3_s2
I0403 15:29:18.662595 31944 net.cpp:148] Top shape: 24 832 7 7 (978432)
I0403 15:29:18.662611 31944 net.cpp:156] Memory required for data: 1276470816
I0403 15:29:18.662626 31944 layer_factory.hpp:77] Creating layer pool4/3x3_s2_pool4/3x3_s2_0_split
I0403 15:29:18.662648 31944 net.cpp:91] Creating Layer pool4/3x3_s2_pool4/3x3_s2_0_split
I0403 15:29:18.662667 31944 net.cpp:425] pool4/3x3_s2_pool4/3x3_s2_0_split <- pool4/3x3_s2
I0403 15:29:18.662688 31944 net.cpp:399] pool4/3x3_s2_pool4/3x3_s2_0_split -> pool4/3x3_s2_pool4/3x3_s2_0_split_0
I0403 15:29:18.662713 31944 net.cpp:399] pool4/3x3_s2_pool4/3x3_s2_0_split -> pool4/3x3_s2_pool4/3x3_s2_0_split_1
I0403 15:29:18.662736 31944 net.cpp:399] pool4/3x3_s2_pool4/3x3_s2_0_split -> pool4/3x3_s2_pool4/3x3_s2_0_split_2
I0403 15:29:18.662758 31944 net.cpp:399] pool4/3x3_s2_pool4/3x3_s2_0_split -> pool4/3x3_s2_pool4/3x3_s2_0_split_3
I0403 15:29:18.662863 31944 net.cpp:141] Setting up pool4/3x3_s2_pool4/3x3_s2_0_split
I0403 15:29:18.662888 31944 net.cpp:148] Top shape: 24 832 7 7 (978432)
I0403 15:29:18.662905 31944 net.cpp:148] Top shape: 24 832 7 7 (978432)
I0403 15:29:18.662924 31944 net.cpp:148] Top shape: 24 832 7 7 (978432)
I0403 15:29:18.662940 31944 net.cpp:148] Top shape: 24 832 7 7 (978432)
I0403 15:29:18.662953 31944 net.cpp:156] Memory required for data: 1292125728
I0403 15:29:18.662968 31944 layer_factory.hpp:77] Creating layer inception_5a/1x1
I0403 15:29:18.662994 31944 net.cpp:91] Creating Layer inception_5a/1x1
I0403 15:29:18.663013 31944 net.cpp:425] inception_5a/1x1 <- pool4/3x3_s2_pool4/3x3_s2_0_split_0
I0403 15:29:18.663035 31944 net.cpp:399] inception_5a/1x1 -> inception_5a/1x1
I0403 15:29:18.665938 31944 net.cpp:141] Setting up inception_5a/1x1
I0403 15:29:18.665969 31944 net.cpp:148] Top shape: 24 256 7 7 (301056)
I0403 15:29:18.665990 31944 net.cpp:156] Memory required for data: 1293329952
I0403 15:29:18.666009 31944 layer_factory.hpp:77] Creating layer inception_5a/relu_1x1
I0403 15:29:18.666029 31944 net.cpp:91] Creating Layer inception_5a/relu_1x1
I0403 15:29:18.666048 31944 net.cpp:425] inception_5a/relu_1x1 <- inception_5a/1x1
I0403 15:29:18.666066 31944 net.cpp:386] inception_5a/relu_1x1 -> inception_5a/1x1 (in-place)
I0403 15:29:18.666396 31944 net.cpp:141] Setting up inception_5a/relu_1x1
I0403 15:29:18.666424 31944 net.cpp:148] Top shape: 24 256 7 7 (301056)
I0403 15:29:18.666445 31944 net.cpp:156] Memory required for data: 1294534176
I0403 15:29:18.666461 31944 layer_factory.hpp:77] Creating layer inception_5a/3x3_reduce
I0403 15:29:18.666483 31944 net.cpp:91] Creating Layer inception_5a/3x3_reduce
I0403 15:29:18.666503 31944 net.cpp:425] inception_5a/3x3_reduce <- pool4/3x3_s2_pool4/3x3_s2_0_split_1
I0403 15:29:18.666527 31944 net.cpp:399] inception_5a/3x3_reduce -> inception_5a/3x3_reduce
I0403 15:29:18.669111 31944 net.cpp:141] Setting up inception_5a/3x3_reduce
I0403 15:29:18.669142 31944 net.cpp:148] Top shape: 24 160 7 7 (188160)
I0403 15:29:18.669158 31944 net.cpp:156] Memory required for data: 1295286816
I0403 15:29:18.669178 31944 layer_factory.hpp:77] Creating layer inception_5a/relu_3x3_reduce
I0403 15:29:18.669198 31944 net.cpp:91] Creating Layer inception_5a/relu_3x3_reduce
I0403 15:29:18.669216 31944 net.cpp:425] inception_5a/relu_3x3_reduce <- inception_5a/3x3_reduce
I0403 15:29:18.669239 31944 net.cpp:386] inception_5a/relu_3x3_reduce -> inception_5a/3x3_reduce (in-place)
I0403 15:29:18.669443 31944 net.cpp:141] Setting up inception_5a/relu_3x3_reduce
I0403 15:29:18.669471 31944 net.cpp:148] Top shape: 24 160 7 7 (188160)
I0403 15:29:18.669486 31944 net.cpp:156] Memory required for data: 1296039456
I0403 15:29:18.669503 31944 layer_factory.hpp:77] Creating layer inception_5a/3x3
I0403 15:29:18.669528 31944 net.cpp:91] Creating Layer inception_5a/3x3
I0403 15:29:18.669548 31944 net.cpp:425] inception_5a/3x3 <- inception_5a/3x3_reduce
I0403 15:29:18.669570 31944 net.cpp:399] inception_5a/3x3 -> inception_5a/3x3
I0403 15:29:18.674866 31944 net.cpp:141] Setting up inception_5a/3x3
I0403 15:29:18.674897 31944 net.cpp:148] Top shape: 24 320 7 7 (376320)
I0403 15:29:18.674916 31944 net.cpp:156] Memory required for data: 1297544736
I0403 15:29:18.674937 31944 layer_factory.hpp:77] Creating layer inception_5a/relu_3x3
I0403 15:29:18.674960 31944 net.cpp:91] Creating Layer inception_5a/relu_3x3
I0403 15:29:18.674979 31944 net.cpp:425] inception_5a/relu_3x3 <- inception_5a/3x3
I0403 15:29:18.674999 31944 net.cpp:386] inception_5a/relu_3x3 -> inception_5a/3x3 (in-place)
I0403 15:29:18.675309 31944 net.cpp:141] Setting up inception_5a/relu_3x3
I0403 15:29:18.675338 31944 net.cpp:148] Top shape: 24 320 7 7 (376320)
I0403 15:29:18.675354 31944 net.cpp:156] Memory required for data: 1299050016
I0403 15:29:18.675370 31944 layer_factory.hpp:77] Creating layer inception_5a/5x5_reduce
I0403 15:29:18.675395 31944 net.cpp:91] Creating Layer inception_5a/5x5_reduce
I0403 15:29:18.675416 31944 net.cpp:425] inception_5a/5x5_reduce <- pool4/3x3_s2_pool4/3x3_s2_0_split_2
I0403 15:29:18.675437 31944 net.cpp:399] inception_5a/5x5_reduce -> inception_5a/5x5_reduce
I0403 15:29:18.676673 31944 net.cpp:141] Setting up inception_5a/5x5_reduce
I0403 15:29:18.676707 31944 net.cpp:148] Top shape: 24 32 7 7 (37632)
I0403 15:29:18.676725 31944 net.cpp:156] Memory required for data: 1299200544
I0403 15:29:18.676748 31944 layer_factory.hpp:77] Creating layer inception_5a/relu_5x5_reduce
I0403 15:29:18.676766 31944 net.cpp:91] Creating Layer inception_5a/relu_5x5_reduce
I0403 15:29:18.676785 31944 net.cpp:425] inception_5a/relu_5x5_reduce <- inception_5a/5x5_reduce
I0403 15:29:18.676805 31944 net.cpp:386] inception_5a/relu_5x5_reduce -> inception_5a/5x5_reduce (in-place)
I0403 15:29:18.677129 31944 net.cpp:141] Setting up inception_5a/relu_5x5_reduce
I0403 15:29:18.677158 31944 net.cpp:148] Top shape: 24 32 7 7 (37632)
I0403 15:29:18.677176 31944 net.cpp:156] Memory required for data: 1299351072
I0403 15:29:18.677192 31944 layer_factory.hpp:77] Creating layer inception_5a/5x5
I0403 15:29:18.677217 31944 net.cpp:91] Creating Layer inception_5a/5x5
I0403 15:29:18.677237 31944 net.cpp:425] inception_5a/5x5 <- inception_5a/5x5_reduce
I0403 15:29:18.677258 31944 net.cpp:399] inception_5a/5x5 -> inception_5a/5x5
I0403 15:29:18.679080 31944 net.cpp:141] Setting up inception_5a/5x5
I0403 15:29:18.679127 31944 net.cpp:148] Top shape: 24 128 7 7 (150528)
I0403 15:29:18.679146 31944 net.cpp:156] Memory required for data: 1299953184
I0403 15:29:18.679165 31944 layer_factory.hpp:77] Creating layer inception_5a/relu_5x5
I0403 15:29:18.679188 31944 net.cpp:91] Creating Layer inception_5a/relu_5x5
I0403 15:29:18.679208 31944 net.cpp:425] inception_5a/relu_5x5 <- inception_5a/5x5
I0403 15:29:18.679226 31944 net.cpp:386] inception_5a/relu_5x5 -> inception_5a/5x5 (in-place)
I0403 15:29:18.679433 31944 net.cpp:141] Setting up inception_5a/relu_5x5
I0403 15:29:18.679463 31944 net.cpp:148] Top shape: 24 128 7 7 (150528)
I0403 15:29:18.679481 31944 net.cpp:156] Memory required for data: 1300555296
I0403 15:29:18.679497 31944 layer_factory.hpp:77] Creating layer inception_5a/pool
I0403 15:29:18.679515 31944 net.cpp:91] Creating Layer inception_5a/pool
I0403 15:29:18.679544 31944 net.cpp:425] inception_5a/pool <- pool4/3x3_s2_pool4/3x3_s2_0_split_3
I0403 15:29:18.679566 31944 net.cpp:399] inception_5a/pool -> inception_5a/pool
I0403 15:29:18.679651 31944 net.cpp:141] Setting up inception_5a/pool
I0403 15:29:18.679677 31944 net.cpp:148] Top shape: 24 832 7 7 (978432)
I0403 15:29:18.679693 31944 net.cpp:156] Memory required for data: 1304469024
I0403 15:29:18.679709 31944 layer_factory.hpp:77] Creating layer inception_5a/pool_proj
I0403 15:29:18.679733 31944 net.cpp:91] Creating Layer inception_5a/pool_proj
I0403 15:29:18.679754 31944 net.cpp:425] inception_5a/pool_proj <- inception_5a/pool
I0403 15:29:18.679774 31944 net.cpp:399] inception_5a/pool_proj -> inception_5a/pool_proj
I0403 15:29:18.682116 31944 net.cpp:141] Setting up inception_5a/pool_proj
I0403 15:29:18.682147 31944 net.cpp:148] Top shape: 24 128 7 7 (150528)
I0403 15:29:18.682163 31944 net.cpp:156] Memory required for data: 1305071136
I0403 15:29:18.682183 31944 layer_factory.hpp:77] Creating layer inception_5a/relu_pool_proj
I0403 15:29:18.682204 31944 net.cpp:91] Creating Layer inception_5a/relu_pool_proj
I0403 15:29:18.682222 31944 net.cpp:425] inception_5a/relu_pool_proj <- inception_5a/pool_proj
I0403 15:29:18.682241 31944 net.cpp:386] inception_5a/relu_pool_proj -> inception_5a/pool_proj (in-place)
I0403 15:29:18.682550 31944 net.cpp:141] Setting up inception_5a/relu_pool_proj
I0403 15:29:18.682579 31944 net.cpp:148] Top shape: 24 128 7 7 (150528)
I0403 15:29:18.682595 31944 net.cpp:156] Memory required for data: 1305673248
I0403 15:29:18.682610 31944 layer_factory.hpp:77] Creating layer inception_5a/output
I0403 15:29:18.682631 31944 net.cpp:91] Creating Layer inception_5a/output
I0403 15:29:18.682648 31944 net.cpp:425] inception_5a/output <- inception_5a/1x1
I0403 15:29:18.682667 31944 net.cpp:425] inception_5a/output <- inception_5a/3x3
I0403 15:29:18.682684 31944 net.cpp:425] inception_5a/output <- inception_5a/5x5
I0403 15:29:18.682701 31944 net.cpp:425] inception_5a/output <- inception_5a/pool_proj
I0403 15:29:18.682718 31944 net.cpp:399] inception_5a/output -> inception_5a/output
I0403 15:29:18.682770 31944 net.cpp:141] Setting up inception_5a/output
I0403 15:29:18.682796 31944 net.cpp:148] Top shape: 24 832 7 7 (978432)
I0403 15:29:18.682812 31944 net.cpp:156] Memory required for data: 1309586976
I0403 15:29:18.682828 31944 layer_factory.hpp:77] Creating layer inception_5a/output_inception_5a/output_0_split
I0403 15:29:18.682847 31944 net.cpp:91] Creating Layer inception_5a/output_inception_5a/output_0_split
I0403 15:29:18.682863 31944 net.cpp:425] inception_5a/output_inception_5a/output_0_split <- inception_5a/output
I0403 15:29:18.682884 31944 net.cpp:399] inception_5a/output_inception_5a/output_0_split -> inception_5a/output_inception_5a/output_0_split_0
I0403 15:29:18.682906 31944 net.cpp:399] inception_5a/output_inception_5a/output_0_split -> inception_5a/output_inception_5a/output_0_split_1
I0403 15:29:18.682929 31944 net.cpp:399] inception_5a/output_inception_5a/output_0_split -> inception_5a/output_inception_5a/output_0_split_2
I0403 15:29:18.682952 31944 net.cpp:399] inception_5a/output_inception_5a/output_0_split -> inception_5a/output_inception_5a/output_0_split_3
I0403 15:29:18.683064 31944 net.cpp:141] Setting up inception_5a/output_inception_5a/output_0_split
I0403 15:29:18.683092 31944 net.cpp:148] Top shape: 24 832 7 7 (978432)
I0403 15:29:18.683111 31944 net.cpp:148] Top shape: 24 832 7 7 (978432)
I0403 15:29:18.683128 31944 net.cpp:148] Top shape: 24 832 7 7 (978432)
I0403 15:29:18.683145 31944 net.cpp:148] Top shape: 24 832 7 7 (978432)
I0403 15:29:18.683159 31944 net.cpp:156] Memory required for data: 1325241888
I0403 15:29:18.683176 31944 layer_factory.hpp:77] Creating layer inception_5b/1x1
I0403 15:29:18.683197 31944 net.cpp:91] Creating Layer inception_5b/1x1
I0403 15:29:18.683215 31944 net.cpp:425] inception_5b/1x1 <- inception_5a/output_inception_5a/output_0_split_0
I0403 15:29:18.683235 31944 net.cpp:399] inception_5b/1x1 -> inception_5b/1x1
I0403 15:29:18.687073 31944 net.cpp:141] Setting up inception_5b/1x1
I0403 15:29:18.687104 31944 net.cpp:148] Top shape: 24 384 7 7 (451584)
I0403 15:29:18.687121 31944 net.cpp:156] Memory required for data: 1327048224
I0403 15:29:18.687140 31944 layer_factory.hpp:77] Creating layer inception_5b/relu_1x1
I0403 15:29:18.687160 31944 net.cpp:91] Creating Layer inception_5b/relu_1x1
I0403 15:29:18.687180 31944 net.cpp:425] inception_5b/relu_1x1 <- inception_5b/1x1
I0403 15:29:18.687201 31944 net.cpp:386] inception_5b/relu_1x1 -> inception_5b/1x1 (in-place)
I0403 15:29:18.687518 31944 net.cpp:141] Setting up inception_5b/relu_1x1
I0403 15:29:18.687546 31944 net.cpp:148] Top shape: 24 384 7 7 (451584)
I0403 15:29:18.687561 31944 net.cpp:156] Memory required for data: 1328854560
I0403 15:29:18.687579 31944 layer_factory.hpp:77] Creating layer inception_5b/3x3_reduce
I0403 15:29:18.687602 31944 net.cpp:91] Creating Layer inception_5b/3x3_reduce
I0403 15:29:18.687620 31944 net.cpp:425] inception_5b/3x3_reduce <- inception_5a/output_inception_5a/output_0_split_1
I0403 15:29:18.687644 31944 net.cpp:399] inception_5b/3x3_reduce -> inception_5b/3x3_reduce
I0403 15:29:18.690369 31944 net.cpp:141] Setting up inception_5b/3x3_reduce
I0403 15:29:18.690400 31944 net.cpp:148] Top shape: 24 192 7 7 (225792)
I0403 15:29:18.690418 31944 net.cpp:156] Memory required for data: 1329757728
I0403 15:29:18.690436 31944 layer_factory.hpp:77] Creating layer inception_5b/relu_3x3_reduce
I0403 15:29:18.690459 31944 net.cpp:91] Creating Layer inception_5b/relu_3x3_reduce
I0403 15:29:18.690477 31944 net.cpp:425] inception_5b/relu_3x3_reduce <- inception_5b/3x3_reduce
I0403 15:29:18.690496 31944 net.cpp:386] inception_5b/relu_3x3_reduce -> inception_5b/3x3_reduce (in-place)
I0403 15:29:18.690690 31944 net.cpp:141] Setting up inception_5b/relu_3x3_reduce
I0403 15:29:18.690717 31944 net.cpp:148] Top shape: 24 192 7 7 (225792)
I0403 15:29:18.690733 31944 net.cpp:156] Memory required for data: 1330660896
I0403 15:29:18.690749 31944 layer_factory.hpp:77] Creating layer inception_5b/3x3
I0403 15:29:18.690774 31944 net.cpp:91] Creating Layer inception_5b/3x3
I0403 15:29:18.690794 31944 net.cpp:425] inception_5b/3x3 <- inception_5b/3x3_reduce
I0403 15:29:18.690814 31944 net.cpp:399] inception_5b/3x3 -> inception_5b/3x3
I0403 15:29:18.697649 31944 net.cpp:141] Setting up inception_5b/3x3
I0403 15:29:18.697680 31944 net.cpp:148] Top shape: 24 384 7 7 (451584)
I0403 15:29:18.697697 31944 net.cpp:156] Memory required for data: 1332467232
I0403 15:29:18.697716 31944 layer_factory.hpp:77] Creating layer inception_5b/relu_3x3
I0403 15:29:18.697738 31944 net.cpp:91] Creating Layer inception_5b/relu_3x3
I0403 15:29:18.697758 31944 net.cpp:425] inception_5b/relu_3x3 <- inception_5b/3x3
I0403 15:29:18.697777 31944 net.cpp:386] inception_5b/relu_3x3 -> inception_5b/3x3 (in-place)
I0403 15:29:18.698079 31944 net.cpp:141] Setting up inception_5b/relu_3x3
I0403 15:29:18.698107 31944 net.cpp:148] Top shape: 24 384 7 7 (451584)
I0403 15:29:18.698122 31944 net.cpp:156] Memory required for data: 1334273568
I0403 15:29:18.698138 31944 layer_factory.hpp:77] Creating layer inception_5b/5x5_reduce
I0403 15:29:18.698179 31944 net.cpp:91] Creating Layer inception_5b/5x5_reduce
I0403 15:29:18.698199 31944 net.cpp:425] inception_5b/5x5_reduce <- inception_5a/output_inception_5a/output_0_split_2
I0403 15:29:18.698222 31944 net.cpp:399] inception_5b/5x5_reduce -> inception_5b/5x5_reduce
I0403 15:29:18.699517 31944 net.cpp:141] Setting up inception_5b/5x5_reduce
I0403 15:29:18.699559 31944 net.cpp:148] Top shape: 24 48 7 7 (56448)
I0403 15:29:18.699578 31944 net.cpp:156] Memory required for data: 1334499360
I0403 15:29:18.699597 31944 layer_factory.hpp:77] Creating layer inception_5b/relu_5x5_reduce
I0403 15:29:18.699620 31944 net.cpp:91] Creating Layer inception_5b/relu_5x5_reduce
I0403 15:29:18.699640 31944 net.cpp:425] inception_5b/relu_5x5_reduce <- inception_5b/5x5_reduce
I0403 15:29:18.699661 31944 net.cpp:386] inception_5b/relu_5x5_reduce -> inception_5b/5x5_reduce (in-place)
I0403 15:29:18.700059 31944 net.cpp:141] Setting up inception_5b/relu_5x5_reduce
I0403 15:29:18.700088 31944 net.cpp:148] Top shape: 24 48 7 7 (56448)
I0403 15:29:18.700103 31944 net.cpp:156] Memory required for data: 1334725152
I0403 15:29:18.700119 31944 layer_factory.hpp:77] Creating layer inception_5b/5x5
I0403 15:29:18.700141 31944 net.cpp:91] Creating Layer inception_5b/5x5
I0403 15:29:18.700160 31944 net.cpp:425] inception_5b/5x5 <- inception_5b/5x5_reduce
I0403 15:29:18.700181 31944 net.cpp:399] inception_5b/5x5 -> inception_5b/5x5
I0403 15:29:18.702308 31944 net.cpp:141] Setting up inception_5b/5x5
I0403 15:29:18.702337 31944 net.cpp:148] Top shape: 24 128 7 7 (150528)
I0403 15:29:18.702353 31944 net.cpp:156] Memory required for data: 1335327264
I0403 15:29:18.702373 31944 layer_factory.hpp:77] Creating layer inception_5b/relu_5x5
I0403 15:29:18.702399 31944 net.cpp:91] Creating Layer inception_5b/relu_5x5
I0403 15:29:18.702417 31944 net.cpp:425] inception_5b/relu_5x5 <- inception_5b/5x5
I0403 15:29:18.702436 31944 net.cpp:386] inception_5b/relu_5x5 -> inception_5b/5x5 (in-place)
I0403 15:29:18.702636 31944 net.cpp:141] Setting up inception_5b/relu_5x5
I0403 15:29:18.702664 31944 net.cpp:148] Top shape: 24 128 7 7 (150528)
I0403 15:29:18.702682 31944 net.cpp:156] Memory required for data: 1335929376
I0403 15:29:18.702697 31944 layer_factory.hpp:77] Creating layer inception_5b/pool
I0403 15:29:18.702715 31944 net.cpp:91] Creating Layer inception_5b/pool
I0403 15:29:18.702733 31944 net.cpp:425] inception_5b/pool <- inception_5a/output_inception_5a/output_0_split_3
I0403 15:29:18.702754 31944 net.cpp:399] inception_5b/pool -> inception_5b/pool
I0403 15:29:18.702827 31944 net.cpp:141] Setting up inception_5b/pool
I0403 15:29:18.702855 31944 net.cpp:148] Top shape: 24 832 7 7 (978432)
I0403 15:29:18.702872 31944 net.cpp:156] Memory required for data: 1339843104
I0403 15:29:18.702888 31944 layer_factory.hpp:77] Creating layer inception_5b/pool_proj
I0403 15:29:18.702908 31944 net.cpp:91] Creating Layer inception_5b/pool_proj
I0403 15:29:18.702927 31944 net.cpp:425] inception_5b/pool_proj <- inception_5b/pool
I0403 15:29:18.702950 31944 net.cpp:399] inception_5b/pool_proj -> inception_5b/pool_proj
I0403 15:29:18.705302 31944 net.cpp:141] Setting up inception_5b/pool_proj
I0403 15:29:18.705333 31944 net.cpp:148] Top shape: 24 128 7 7 (150528)
I0403 15:29:18.705351 31944 net.cpp:156] Memory required for data: 1340445216
I0403 15:29:18.705370 31944 layer_factory.hpp:77] Creating layer inception_5b/relu_pool_proj
I0403 15:29:18.705392 31944 net.cpp:91] Creating Layer inception_5b/relu_pool_proj
I0403 15:29:18.705410 31944 net.cpp:425] inception_5b/relu_pool_proj <- inception_5b/pool_proj
I0403 15:29:18.705430 31944 net.cpp:386] inception_5b/relu_pool_proj -> inception_5b/pool_proj (in-place)
I0403 15:29:18.705736 31944 net.cpp:141] Setting up inception_5b/relu_pool_proj
I0403 15:29:18.705765 31944 net.cpp:148] Top shape: 24 128 7 7 (150528)
I0403 15:29:18.705780 31944 net.cpp:156] Memory required for data: 1341047328
I0403 15:29:18.705797 31944 layer_factory.hpp:77] Creating layer inception_5b/output
I0403 15:29:18.705816 31944 net.cpp:91] Creating Layer inception_5b/output
I0403 15:29:18.705848 31944 net.cpp:425] inception_5b/output <- inception_5b/1x1
I0403 15:29:18.705869 31944 net.cpp:425] inception_5b/output <- inception_5b/3x3
I0403 15:29:18.705889 31944 net.cpp:425] inception_5b/output <- inception_5b/5x5
I0403 15:29:18.705907 31944 net.cpp:425] inception_5b/output <- inception_5b/pool_proj
I0403 15:29:18.705925 31944 net.cpp:399] inception_5b/output -> inception_5b/output
I0403 15:29:18.705981 31944 net.cpp:141] Setting up inception_5b/output
I0403 15:29:18.706006 31944 net.cpp:148] Top shape: 24 1024 7 7 (1204224)
I0403 15:29:18.706020 31944 net.cpp:156] Memory required for data: 1345864224
I0403 15:29:18.706037 31944 layer_factory.hpp:77] Creating layer pool5/7x7_s1
I0403 15:29:18.706054 31944 net.cpp:91] Creating Layer pool5/7x7_s1
I0403 15:29:18.706071 31944 net.cpp:425] pool5/7x7_s1 <- inception_5b/output
I0403 15:29:18.706092 31944 net.cpp:399] pool5/7x7_s1 -> pool5/7x7_s1
I0403 15:29:18.706315 31944 net.cpp:141] Setting up pool5/7x7_s1
I0403 15:29:18.706343 31944 net.cpp:148] Top shape: 24 1024 1 1 (24576)
I0403 15:29:18.706359 31944 net.cpp:156] Memory required for data: 1345962528
I0403 15:29:18.706375 31944 layer_factory.hpp:77] Creating layer pool5/drop_7x7_s1
I0403 15:29:18.706399 31944 net.cpp:91] Creating Layer pool5/drop_7x7_s1
I0403 15:29:18.706418 31944 net.cpp:425] pool5/drop_7x7_s1 <- pool5/7x7_s1
I0403 15:29:18.706437 31944 net.cpp:386] pool5/drop_7x7_s1 -> pool5/7x7_s1 (in-place)
I0403 15:29:18.706490 31944 net.cpp:141] Setting up pool5/drop_7x7_s1
I0403 15:29:18.706516 31944 net.cpp:148] Top shape: 24 1024 1 1 (24576)
I0403 15:29:18.706532 31944 net.cpp:156] Memory required for data: 1346060832
I0403 15:29:18.706559 31944 layer_factory.hpp:77] Creating layer loss3/classifier_plantvillage
I0403 15:29:18.706580 31944 net.cpp:91] Creating Layer loss3/classifier_plantvillage
I0403 15:29:18.706598 31944 net.cpp:425] loss3/classifier_plantvillage <- pool5/7x7_s1
I0403 15:29:18.706620 31944 net.cpp:399] loss3/classifier_plantvillage -> loss3/classifier_plantvillage
I0403 15:29:18.707070 31944 net.cpp:141] Setting up loss3/classifier_plantvillage
I0403 15:29:18.707098 31944 net.cpp:148] Top shape: 24 38 (912)
I0403 15:29:18.707113 31944 net.cpp:156] Memory required for data: 1346064480
I0403 15:29:18.707134 31944 layer_factory.hpp:77] Creating layer loss3/classifier_plantvillage_loss3/classifier_plantvillage_0_split
I0403 15:29:18.707151 31944 net.cpp:91] Creating Layer loss3/classifier_plantvillage_loss3/classifier_plantvillage_0_split
I0403 15:29:18.707168 31944 net.cpp:425] loss3/classifier_plantvillage_loss3/classifier_plantvillage_0_split <- loss3/classifier_plantvillage
I0403 15:29:18.707190 31944 net.cpp:399] loss3/classifier_plantvillage_loss3/classifier_plantvillage_0_split -> loss3/classifier_plantvillage_loss3/classifier_plantvillage_0_split_0
I0403 15:29:18.707212 31944 net.cpp:399] loss3/classifier_plantvillage_loss3/classifier_plantvillage_0_split -> loss3/classifier_plantvillage_loss3/classifier_plantvillage_0_split_1
I0403 15:29:18.707233 31944 net.cpp:399] loss3/classifier_plantvillage_loss3/classifier_plantvillage_0_split -> loss3/classifier_plantvillage_loss3/classifier_plantvillage_0_split_2
I0403 15:29:18.707254 31944 net.cpp:399] loss3/classifier_plantvillage_loss3/classifier_plantvillage_0_split -> loss3/classifier_plantvillage_loss3/classifier_plantvillage_0_split_3
I0403 15:29:18.707389 31944 net.cpp:141] Setting up loss3/classifier_plantvillage_loss3/classifier_plantvillage_0_split
I0403 15:29:18.707417 31944 net.cpp:148] Top shape: 24 38 (912)
I0403 15:29:18.707434 31944 net.cpp:148] Top shape: 24 38 (912)
I0403 15:29:18.707450 31944 net.cpp:148] Top shape: 24 38 (912)
I0403 15:29:18.707468 31944 net.cpp:148] Top shape: 24 38 (912)
I0403 15:29:18.707482 31944 net.cpp:156] Memory required for data: 1346079072
I0403 15:29:18.707497 31944 layer_factory.hpp:77] Creating layer loss1/loss
I0403 15:29:18.707520 31944 net.cpp:91] Creating Layer loss1/loss
I0403 15:29:18.707540 31944 net.cpp:425] loss1/loss <- loss1/classifier_plantvillage_loss1/classifier_plantvillage_0_split_0
I0403 15:29:18.707573 31944 net.cpp:425] loss1/loss <- label_data_1_split_0
…
