…
I0403 15:39:18.272079 32619 net.cpp:313] The NetState phase (1) differed from the phase (0) specified by a rule in layer data
I0403 15:39:18.273221 32619 net.cpp:49] Initializing net from parameters: 
state {
  phase: TEST
}
layer {
  name: "data"
  type: "Data"
  top: "data"
  top: "label"
  include {
    phase: TEST
  }
  transform_param {
    mirror: false
    crop_size: 224
    mean_file: "/home/mohanty/data/final_dataset/lmdb/color-60-40/mean.binaryproto"
  }
  data_param {
    source: "/home/mohanty/data/final_dataset/lmdb/color-60-40/test_db"
    batch_size: 24
    backend: LMDB
  }
}
layer {
  name: "conv1/7x7_s2"
  type: "Convolution"
  bottom: "data"
  top: "conv1/7x7_s2"
  param {
    lr_mult: 1
    decay_mult: 1
  }
  param {
    lr_mult: 2
    decay_mult: 0
  }
  convolution_param {
    num_output: 64
    pad: 3
    kernel_size: 7
    stride: 2
    weight_filler {
      type: "xavier"
      std: 0.1
    }
    bias_filler {
      type: "constant"
      value: 0.2
    }
  }
}
layer {
  name: "conv1/relu_7x7"
  type: "ReLU"
  bottom: "conv1/7x7_s2"
  top: "conv1/7x7_s2"
}
layer {
  name: "pool1/3x3_s2"
  type: "Pooling"
  bottom: "conv1/7x7_s2"
  top: "pool1/3x3_s2"
  pooling_param {
    pool: MAX
    kernel_size: 3
    stride: 2
  }
}
layer {
  name: "pool1/norm1"
  type: "LRN"
  bottom: "pool1/3x3_s2"
  top: "pool1/norm1"
  lrn_param {
    local_size: 5
    alpha: 0.0001
    beta: 0.75
  }
}
layer {
  name: "conv2/3x3_reduce"
  type: "Convolution"
  bottom: "pool1/norm1"
  top: "conv2/3x3_reduce"
  param {
    lr_mult: 1
    decay_mult: 1
  }
  param {
    lr_mult: 2
    decay_mult: 0
  }
  convolution_param {
    num_output: 64
    kernel_size: 1
    weight_filler {
      type: "xavier"
      std: 0.1
    }
    bias_filler {
      type: "constant"
      value: 0.2
    }
  }
}
layer {
  name: "conv2/relu_3x3_reduce"
  type: "ReLU"
  bottom: "conv2/3x3_reduce"
  top: "conv2/3x3_reduce"
}
layer {
  name: "conv2/3x3"
  type: "Convolution"
  bottom: "conv2/3x3_reduce"
  top: "conv2/3x3"
  param {
    lr_mult: 1
    decay_mult: 1
  }
  param {
    lr_mult: 2
    decay_mult: 0
  }
  convolution_param {
    num_output: 192
    pad: 1
    kernel_size: 3
    weight_filler {
      type: "xavier"
      std: 0.03
    }
    bias_filler {
      type: "constant"
      value: 0.2
    }
  }
}
layer {
  name: "conv2/relu_3x3"
  type: "ReLU"
  bottom: "conv2/3x3"
  top: "conv2/3x3"
}
layer {
  name: "conv2/norm2"
  type: "LRN"
  bottom: "conv2/3x3"
  top: "conv2/norm2"
  lrn_param {
    local_size: 5
    alpha: 0.0001
    beta: 0.75
  }
}
layer {
  name: "pool2/3x3_s2"
  type: "Pooling"
  bottom: "conv2/norm2"
  top: "pool2/3x3_s2"
  pooling_param {
    pool: MAX
    kernel_size: 3
    stride: 2
  }
}
layer {
  name: "inception_3a/1x1"
  type: "Convolution"
  bottom: "pool2/3x3_s2"
  top: "inception_3a/1x1"
  param {
    lr_mult: 1
    decay_mult: 1
  }
  param {
    lr_mult: 2
    decay_mult: 0
  }
  convolution_param {
    num_output: 64
    kernel_size: 1
    weight_filler {
      type: "xavier"
      std: 0.03
    }
    bias_filler {
      type: "constant"
      value: 0.2
    }
  }
}
layer {
  name: "inception_3a/relu_1x1"
  type: "ReLU"
  bottom: "inception_3a/1x1"
  top: "inception_3a/1x1"
}
layer {
  name: "inception_3a/3x3_reduce"
  type: "Convolution"
  bottom: "pool2/3x3_s2"
  top: "inception_3a/3x3_reduce"
  param {
    lr_mult: 1
    decay_mult: 1
  }
  param {
    lr_mult: 2
    decay_mult: 0
  }
  convolution_param {
    num_output: 96
    kernel_size: 1
    weight_filler {
      type: "xavier"
      std: 0.09
    }
    bias_filler {
      type: "constant"
      value: 0.2
    }
  }
}
layer {
  name: "inception_3a/relu_3x3_reduce"
  type: "ReLU"
  bottom: "inception_3a/3x3_reduce"
  top: "inception_3a/3x3_reduce"
}
layer {
  name: "inception_3a/3x3"
  type: "Convolution"
  bottom: "inception_3a/3x3_reduce"
  top: "inception_3a/3x3"
  param {
    lr_mult: 1
    decay_mult: 1
  }
  param {
    lr_mult: 2
    decay_mult: 0
  }
  convolution_param {
    num_output: 128
    pad: 1
    kernel_size: 3
    weight_filler {
      type: "xavier"
      std: 0.03
    }
    bias_filler {
      type: "constant"
      value: 0.2
    }
  }
}
layer {
  name: "inception_3a/relu_3x3"
  type: "ReLU"
  bottom: "inception_3a/3x3"
  top: "inception_3a/3x3"
}
layer {
  name: "inception_3a/5x5_reduce"
  type: "Convolution"
  bottom: "pool2/3x3_s2"
  top: "inception_3a/5x5_reduce"
  param {
    lr_mult: 1
    decay_mult: 1
  }
  param {
    lr_mult: 2
    decay_mult: 0
  }
  convolution_param {
    num_output: 16
    kernel_size: 1
    weight_filler {
      type: "xavier"
      std: 0.2
    }
    bias_filler {
      type: "constant"
      value: 0.2
    }
  }
}
layer {
  name: "inception_3a/relu_5x5_reduce"
  type: "ReLU"
  bottom: "inception_3a/5x5_reduce"
  top: "inception_3a/5x5_reduce"
}
layer {
  name: "inception_3a/5x5"
  type: "Convolution"
  bottom: "inception_3a/5x5_reduce"
  top: "inception_3a/5x5"
  param {
    lr_mult: 1
    decay_mult: 1
  }
  param {
    lr_mult: 2
    decay_mult: 0
  }
  convolution_param {
    num_output: 32
    pad: 2
    kernel_size: 5
    weight_filler {
      type: "xavier"
      std: 0.03
    }
    bias_filler {
      type: "constant"
      value: 0.2
    }
  }
}
layer {
  name: "inception_3a/relu_5x5"
  type: "ReLU"
  bottom: "inception_3a/5x5"
  top: "inception_3a/5x5"
}
layer {
  name: "inception_3a/pool"
  type: "Pooling"
  bottom: "pool2/3x3_s2"
  top: "inception_3a/pool"
  pooling_param {
    pool: MAX
    kernel_size: 3
    stride: 1
    pad: 1
  }
}
layer {
  name: "inception_3a/pool_proj"
  type: "Convolution"
  bottom: "inception_3a/pool"
  top: "inception_3a/pool_proj"
  param {
    lr_mult: 1
    decay_mult: 1
  }
  param {
    lr_mult: 2
    decay_mult: 0
  }
  convolution_param {
    num_output: 32
    kernel_size: 1
    weight_filler {
      type: "xavier"
      std: 0.1
    }
    bias_filler {
      type: "constant"
      value: 0.2
    }
  }
}
layer {
  name: "inception_3a/relu_pool_proj"
  type: "ReLU"
  bottom: "inception_3a/pool_proj"
  top: "inception_3a/pool_proj"
}
layer {
  name: "inception_3a/output"
  type: "Concat"
  bottom: "inception_3a/1x1"
  bottom: "inception_3a/3x3"
  bottom: "inception_3a/5x5"
  bottom: "inception_3a/pool_proj"
  top: "inception_3a/output"
}
layer {
  name: "inception_3b/1x1"
  type: "Convolution"
  bottom: "inception_3a/output"
  top: "inception_3b/1x1"
  param {
    lr_mult: 1
    decay_mult: 1
  }
  param {
    lr_mult: 2
    decay_mult: 0
  }
  convolution_param {
    num_output: 128
    kernel_size: 1
    weight_filler {
      type: "xavier"
      std: 0.03
    }
    bias_filler {
      type: "constant"
      value: 0.2
    }
  }
}
layer {
  name: "inception_3b/relu_1x1"
  type: "ReLU"
  bottom: "inception_3b/1x1"
  top: "inception_3b/1x1"
}
layer {
  name: "inception_3b/3x3_reduce"
  type: "Convolution"
  bottom: "inception_3a/output"
  top: "inception_3b/3x3_reduce"
  param {
    lr_mult: 1
    decay_mult: 1
  }
  param {
    lr_mult: 2
    decay_mult: 0
  }
  convolution_param {
    num_output: 128
    kernel_size: 1
    weight_filler {
      type: "xavier"
      std: 0.09
    }
    bias_filler {
      type: "constant"
      value: 0.2
    }
  }
}
layer {
  name: "inception_3b/relu_3x3_reduce"
  type: "ReLU"
  bottom: "inception_3b/3x3_reduce"
  top: "inception_3b/3x3_reduce"
}
layer {
  name: "inception_3b/3x3"
  type: "Convolution"
  bottom: "inception_3b/3x3_reduce"
  top: "inception_3b/3x3"
  param {
    lr_mult: 1
    decay_mult: 1
  }
  param {
    lr_mult: 2
    decay_mult: 0
  }
  convolution_param {
    num_output: 192
    pad: 1
    kernel_size: 3
    weight_filler {
      type: "xavier"
      std: 0.03
    }
    bias_filler {
      type: "constant"
      value: 0.2
    }
  }
}
layer {
  name: "inception_3b/relu_3x3"
  type: "ReLU"
  bottom: "inception_3b/3x3"
  top: "inception_3b/3x3"
}
layer {
  name: "inception_3b/5x5_reduce"
  type: "Convolution"
  bottom: "inception_3a/output"
  top: "inception_3b/5x5_reduce"
  param {
    lr_mult: 1
    decay_mult: 1
  }
  param {
    lr_mult: 2
    decay_mult: 0
  }
  convolution_param {
    num_output: 32
    kernel_size: 1
    weight_filler {
      type: "xavier"
      std: 0.2
    }
    bias_filler {
      type: "constant"
      value: 0.2
    }
  }
}
layer {
  name: "inception_3b/relu_5x5_reduce"
  type: "ReLU"
  bottom: "inception_3b/5x5_reduce"
  top: "inception_3b/5x5_reduce"
}
layer {
  name: "inception_3b/5x5"
  type: "Convolution"
  bottom: "inception_3b/5x5_reduce"
  top: "inception_3b/5x5"
  param {
    lr_mult: 1
    decay_mult: 1
  }
  param {
    lr_mult: 2
    decay_mult: 0
  }
  convolution_param {
    num_output: 96
    pad: 2
    kernel_size: 5
    weight_filler {
      type: "xavier"
      std: 0.03
    }
    bias_filler {
      type: "constant"
      value: 0.2
    }
  }
}
layer {
  name: "inception_3b/relu_5x5"
  type: "ReLU"
  bottom: "inception_3b/5x5"
  top: "inception_3b/5x5"
}
layer {
  name: "inception_3b/pool"
  type: "Pooling"
  bottom: "inception_3a/output"
  top: "inception_3b/pool"
  pooling_param {
    pool: MAX
    kernel_size: 3
    stride: 1
    pad: 1
  }
}
layer {
  name: "inception_3b/pool_proj"
  type: "Convolution"
  bottom: "inception_3b/pool"
  top: "inception_3b/pool_proj"
  param {
    lr_mult: 1
    decay_mult: 1
  }
  param {
    lr_mult: 2
    decay_mult: 0
  }
  convolution_param {
    num_output: 64
    kernel_size: 1
    weight_filler {
      type: "xavier"
      std: 0.1
    }
    bias_filler {
      type: "constant"
      value: 0.2
    }
  }
}
layer {
  name: "inception_3b/relu_pool_proj"
  type: "ReLU"
  bottom: "inception_3b/pool_proj"
  top: "inception_3b/pool_proj"
}
layer {
  name: "inception_3b/output"
  type: "Concat"
  bottom: "inception_3b/1x1"
  bottom: "inception_3b/3x3"
  bottom: "inception_3b/5x5"
  bottom: "inception_3b/pool_proj"
  top: "inception_3b/output"
}
layer {
  name: "pool3/3x3_s2"
  type: "Pooling"
  bottom: "inception_3b/output"
  top: "pool3/3x3_s2"
  pooling_param {
    pool: MAX
    kernel_size: 3
    stride: 2
  }
}
layer {
  name: "inception_4a/1x1"
  type: "Convolution"
  bottom: "pool3/3x3_s2"
  top: "inception_4a/1x1"
  param {
    lr_mult: 1
    decay_mult: 1
  }
  param {
    lr_mult: 2
    decay_mult: 0
  }
  convolution_param {
    num_output: 192
    kernel_size: 1
    weight_filler {
      type: "xavier"
      std: 0.03
    }
    bias_filler {
      type: "constant"
      value: 0.2
    }
  }
}
layer {
  name: "inception_4a/relu_1x1"
  type: "ReLU"
  bottom: "inception_4a/1x1"
  top: "inception_4a/1x1"
}
layer {
  name: "inception_4a/3x3_reduce"
  type: "Convolution"
  bottom: "pool3/3x3_s2"
  top: "inception_4a/3x3_reduce"
  param {
    lr_mult: 1
    decay_mult: 1
  }
  param {
    lr_mult: 2
    decay_mult: 0
  }
  convolution_param {
    num_output: 96
    kernel_size: 1
    weight_filler {
      type: "xavier"
      std: 0.09
    }
    bias_filler {
      type: "constant"
      value: 0.2
    }
  }
}
layer {
  name: "inception_4a/relu_3x3_reduce"
  type: "ReLU"
  bottom: "inception_4a/3x3_reduce"
  top: "inception_4a/3x3_reduce"
}
layer {
  name: "inception_4a/3x3"
  type: "Convolution"
  bottom: "inception_4a/3x3_reduce"
  top: "inception_4a/3x3"
  param {
    lr_mult: 1
    decay_mult: 1
  }
  param {
    lr_mult: 2
    decay_mult: 0
  }
  convolution_param {
    num_output: 208
    pad: 1
    kernel_size: 3
    weight_filler {
      type: "xavier"
      std: 0.03
    }
    bias_filler {
      type: "constant"
      value: 0.2
    }
  }
}
layer {
  name: "inception_4a/relu_3x3"
  type: "ReLU"
  bottom: "inception_4a/3x3"
  top: "inception_4a/3x3"
}
layer {
  name: "inception_4a/5x5_reduce"
  type: "Convolution"
  bottom: "pool3/3x3_s2"
  top: "inception_4a/5x5_reduce"
  param {
    lr_mult: 1
    decay_mult: 1
  }
  param {
    lr_mult: 2
    decay_mult: 0
  }
  convolution_param {
    num_output: 16
    kernel_size: 1
    weight_filler {
      type: "xavier"
      std: 0.2
    }
    bias_filler {
      type: "constant"
      value: 0.2
    }
  }
}
layer {
  name: "inception_4a/relu_5x5_reduce"
  type: "ReLU"
  bottom: "inception_4a/5x5_reduce"
  top: "inception_4a/5x5_reduce"
}
layer {
  name: "inception_4a/5x5"
  type: "Convolution"
  bottom: "inception_4a/5x5_reduce"
  top: "inception_4a/5x5"
  param {
    lr_mult: 1
    decay_mult: 1
  }
  param {
    lr_mult: 2
    decay_mult: 0
  }
  convolution_param {
    num_output: 48
    pad: 2
    kernel_size: 5
    weight_filler {
      type: "xavier"
      std: 0.03
    }
    bias_filler {
      type: "constant"
      value: 0.2
    }
  }
}
layer {
  name: "inception_4a/relu_5x5"
  type: "ReLU"
  bottom: "inception_4a/5x5"
  top: "inception_4a/5x5"
}
layer {
  name: "inception_4a/pool"
  type: "Pooling"
  bottom: "pool3/3x3_s2"
  top: "inception_4a/pool"
  pooling_param {
    pool: MAX
    kernel_size: 3
    stride: 1
    pad: 1
  }
}
layer {
  name: "inception_4a/pool_proj"
  type: "Convolution"
  bottom: "inception_4a/pool"
  top: "inception_4a/pool_proj"
  param {
    lr_mult: 1
    decay_mult: 1
  }
  param {
    lr_mult: 2
    decay_mult: 0
  }
  convolution_param {
    num_output: 64
    kernel_size: 1
    weight_filler {
      type: "xavier"
      std: 0.1
    }
    bias_filler {
      type: "constant"
      value: 0.2
    }
  }
}
layer {
  name: "inception_4a/relu_pool_proj"
  type: "ReLU"
  bottom: "inception_4a/pool_proj"
  top: "inception_4a/pool_proj"
}
layer {
  name: "inception_4a/output"
  type: "Concat"
  bottom: "inception_4a/1x1"
  bottom: "inception_4a/3x3"
  bottom: "inception_4a/5x5"
  bottom: "inception_4a/pool_proj"
  top: "inception_4a/output"
}
layer {
  name: "loss1/ave_pool"
  type: "Pooling"
  bottom: "inception_4a/output"
  top: "loss1/ave_pool"
  pooling_param {
    pool: AVE
    kernel_size: 5
    stride: 3
  }
}
layer {
  name: "loss1/conv"
  type: "Convolution"
  bottom: "loss1/ave_pool"
  top: "loss1/conv"
  param {
    lr_mult: 1
    decay_mult: 1
  }
  param {
    lr_mult: 2
    decay_mult: 0
  }
  convolution_param {
    num_output: 128
    kernel_size: 1
    weight_filler {
      type: "xavier"
      std: 0.08
    }
    bias_filler {
      type: "constant"
      value: 0.2
    }
  }
}
layer {
  name: "loss1/relu_conv"
  type: "ReLU"
  bottom: "loss1/conv"
  top: "loss1/conv"
}
layer {
  name: "loss1/fc"
  type: "InnerProduct"
  bottom: "loss1/conv"
  top: "loss1/fc"
  param {
    lr_mult: 1
    decay_mult: 1
  }
  param {
    lr_mult: 2
    decay_mult: 0
  }
  inner_product_param {
    num_output: 1024
    weight_filler {
      type: "xavier"
      std: 0.02
    }
    bias_filler {
      type: "constant"
      value: 0.2
    }
  }
}
layer {
  name: "loss1/relu_fc"
  type: "ReLU"
  bottom: "loss1/fc"
  top: "loss1/fc"
}
layer {
  name: "loss1/drop_fc"
  type: "Dropout"
  bottom: "loss1/fc"
  top: "loss1/fc"
  dropout_param {
    dropout_ratio: 0.7
  }
}
layer {
  name: "loss1/classifier_plantvillage"
  type: "InnerProduct"
  bottom: "loss1/fc"
  top: "loss1/classifier_plantvillage"
  param {
    lr_mult: 1
    decay_mult: 1
  }
  param {
    lr_mult: 2
    decay_mult: 0
  }
  inner_product_param {
    num_output: 38
    weight_filler {
      type: "xavier"
      std: 0.0009765625
    }
    bias_filler {
      type: "constant"
      value: 0
    }
  }
}
layer {
  name: "inception_4b/1x1"
  type: "Convolution"
  bottom: "inception_4a/output"
  top: "inception_4b/1x1"
  param {
    lr_mult: 1
    decay_mult: 1
  }
  param {
    lr_mult: 2
    decay_mult: 0
  }
  convolution_param {
    num_output: 160
    kernel_size: 1
    weight_filler {
      type: "xavier"
      std: 0.03
    }
    bias_filler {
      type: "constant"
      value: 0.2
    }
  }
}
layer {
  name: "inception_4b/relu_1x1"
  type: "ReLU"
  bottom: "inception_4b/1x1"
  top: "inception_4b/1x1"
}
layer {
  name: "inception_4b/3x3_reduce"
  type: "Convolution"
  bottom: "inception_4a/output"
  top: "inception_4b/3x3_reduce"
  param {
    lr_mult: 1
    decay_mult: 1
  }
  param {
    lr_mult: 2
    decay_mult: 0
  }
  convolution_param {
    num_output: 112
    kernel_size: 1
    weight_filler {
      type: "xavier"
      std: 0.09
    }
    bias_filler {
      type: "constant"
      value: 0.2
    }
  }
}
layer {
  name: "inception_4b/relu_3x3_reduce"
  type: "ReLU"
  bottom: "inception_4b/3x3_reduce"
  top: "inception_4b/3x3_reduce"
}
layer {
  name: "inception_4b/3x3"
  type: "Convolution"
  bottom: "inception_4b/3x3_reduce"
  top: "inception_4b/3x3"
  param {
    lr_mult: 1
    decay_mult: 1
  }
  param {
    lr_mult: 2
    decay_mult: 0
  }
  convolution_param {
    num_output: 224
    pad: 1
    kernel_size: 3
    weight_filler {
      type: "xavier"
      std: 0.03
    }
    bias_filler {
      type: "constant"
      value: 0.2
    }
  }
}
layer {
  name: "inception_4b/relu_3x3"
  type: "ReLU"
  bottom: "inception_4b/3x3"
  top: "inception_4b/3x3"
}
layer {
  name: "inception_4b/5x5_reduce"
  type: "Convolution"
  bottom: "inception_4a/output"
  top: "inception_4b/5x5_reduce"
  param {
    lr_mult: 1
    decay_mult: 1
  }
  param {
    lr_mult: 2
    decay_mult: 0
  }
  convolution_param {
    num_output: 24
    kernel_size: 1
    weight_filler {
      type: "xavier"
      std: 0.2
    }
    bias_filler {
      type: "constant"
      value: 0.2
    }
  }
}
layer {
  name: "inception_4b/relu_5x5_reduce"
  type: "ReLU"
  bottom: "inception_4b/5x5_reduce"
  top: "inception_4b/5x5_reduce"
}
layer {
  name: "inception_4b/5x5"
  type: "Convolution"
  bottom: "inception_4b/5x5_reduce"
  top: "inception_4b/5x5"
  param {
    lr_mult: 1
    decay_mult: 1
  }
  param {
    lr_mult: 2
    decay_mult: 0
  }
  convolution_param {
    num_output: 64
    pad: 2
    kernel_size: 5
    weight_filler {
      type: "xavier"
      std: 0.03
    }
    bias_filler {
      type: "constant"
      value: 0.2
    }
  }
}
layer {
  name: "inception_4b/relu_5x5"
  type: "ReLU"
  bottom: "inception_4b/5x5"
  top: "inception_4b/5x5"
}
layer {
  name: "inception_4b/pool"
  type: "Pooling"
  bottom: "inception_4a/output"
  top: "inception_4b/pool"
  pooling_param {
    pool: MAX
    kernel_size: 3
    stride: 1
    pad: 1
  }
}
layer {
  name: "inception_4b/pool_proj"
  type: "Convolution"
  bottom: "inception_4b/pool"
  top: "inception_4b/pool_proj"
  param {
    lr_mult: 1
    decay_mult: 1
  }
  param {
    lr_mult: 2
    decay_mult: 0
  }
  convolution_param {
    num_output: 64
    kernel_size: 1
    weight_filler {
      type: "xavier"
      std: 0.1
    }
    bias_filler {
      type: "constant"
      value: 0.2
    }
  }
}
layer {
  name: "inception_4b/relu_pool_proj"
  type: "ReLU"
  bottom: "inception_4b/pool_proj"
  top: "inception_4b/pool_proj"
}
layer {
  name: "inception_4b/output"
  type: "Concat"
  bottom: "inception_4b/1x1"
  bottom: "inception_4b/3x3"
  bottom: "inception_4b/5x5"
  bottom: "inception_4b/pool_proj"
  top: "inception_4b/output"
}
layer {
  name: "inception_4c/1x1"
  type: "Convolution"
  bottom: "inception_4b/output"
  top: "inception_4c/1x1"
  param {
    lr_mult: 1
    decay_mult: 1
  }
  param {
    lr_mult: 2
    decay_mult: 0
  }
  convolution_param {
    num_output: 128
    kernel_size: 1
    weight_filler {
      type: "xavier"
      std: 0.03
    }
    bias_filler {
      type: "constant"
      value: 0.2
    }
  }
}
layer {
  name: "inception_4c/relu_1x1"
  type: "ReLU"
  bottom: "inception_4c/1x1"
  top: "inception_4c/1x1"
}
layer {
  name: "inception_4c/3x3_reduce"
  type: "Convolution"
  bottom: "inception_4b/output"
  top: "inception_4c/3x3_reduce"
  param {
    lr_mult: 1
    decay_mult: 1
  }
  param {
    lr_mult: 2
    decay_mult: 0
  }
  convolution_param {
    num_output: 128
    kernel_size: 1
    weight_filler {
      type: "xavier"
      std: 0.09
    }
    bias_filler {
      type: "constant"
      value: 0.2
    }
  }
}
layer {
  name: "inception_4c/relu_3x3_reduce"
  type: "ReLU"
  bottom: "inception_4c/3x3_reduce"
  top: "inception_4c/3x3_reduce"
}
layer {
  name: "inception_4c/3x3"
  type: "Convolution"
  bottom: "inception_4c/3x3_reduce"
  top: "inception_4c/3x3"
  param {
    lr_mult: 1
    decay_mult: 1
  }
  param {
    lr_mult: 2
    decay_mult: 0
  }
  convolution_param {
    num_output: 256
    pad: 1
    kernel_size: 3
    weight_filler {
      type: "xavier"
      std: 0.03
    }
    bias_filler {
      type: "constant"
      value: 0.2
    }
  }
}
layer {
  name: "inception_4c/relu_3x3"
  type: "ReLU"
  bottom: "inception_4c/3x3"
  top: "inception_4c/3x3"
}
layer {
  name: "inception_4c/5x5_reduce"
  type: "Convolution"
  bottom: "inception_4b/output"
  top: "inception_4c/5x5_reduce"
  param {
    lr_mult: 1
    decay_mult: 1
  }
  param {
    lr_mult: 2
    decay_mult: 0
  }
  convolution_param {
    num_output: 24
    kernel_size: 1
    weight_filler {
      type: "xavier"
      std: 0.2
    }
    bias_filler {
      type: "constant"
      value: 0.2
    }
  }
}
layer {
  name: "inception_4c/relu_5x5_reduce"
  type: "ReLU"
  bottom: "inception_4c/5x5_reduce"
  top: "inception_4c/5x5_reduce"
}
layer {
  name: "inception_4c/5x5"
  type: "Convolution"
  bottom: "inception_4c/5x5_reduce"
  top: "inception_4c/5x5"
  param {
    lr_mult: 1
    decay_mult: 1
  }
  param {
    lr_mult: 2
    decay_mult: 0
  }
  convolution_param {
    num_output: 64
    pad: 2
    kernel_size: 5
    weight_filler {
      type: "xavier"
      std: 0.03
    }
    bias_filler {
      type: "constant"
      value: 0.2
    }
  }
}
layer {
  name: "inception_4c/relu_5x5"
  type: "ReLU"
  bottom: "inception_4c/5x5"
  top: "inception_4c/5x5"
}
layer {
  name: "inception_4c/pool"
  type: "Pooling"
  bottom: "inception_4b/output"
  top: "inception_4c/pool"
  pooling_param {
    pool: MAX
    kernel_size: 3
    stride: 1
    pad: 1
  }
}
layer {
  name: "inception_4c/pool_proj"
  type: "Convolution"
  bottom: "inception_4c/pool"
  top: "inception_4c/pool_proj"
  param {
    lr_mult: 1
    decay_mult: 1
  }
  param {
    lr_mult: 2
    decay_mult: 0
  }
  convolution_param {
    num_output: 64
    kernel_size: 1
    weight_filler {
      type: "xavier"
      std: 0.1
    }
    bias_filler {
      type: "constant"
      value: 0.2
    }
  }
}
layer {
  name: "inception_4c/relu_pool_proj"
  type: "ReLU"
  bottom: "inception_4c/pool_proj"
  top: "inception_4c/pool_proj"
}
layer {
  name: "inception_4c/output"
  type: "Concat"
  bottom: "inception_4c/1x1"
  bottom: "inception_4c/3x3"
  bottom: "inception_4c/5x5"
  bottom: "inception_4c/pool_proj"
  top: "inception_4c/output"
}
layer {
  name: "inception_4d/1x1"
  type: "Convolution"
  bottom: "inception_4c/output"
  top: "inception_4d/1x1"
  param {
    lr_mult: 1
    decay_mult: 1
  }
  param {
    lr_mult: 2
    decay_mult: 0
  }
  convolution_param {
    num_output: 112
    kernel_size: 1
    weight_filler {
      type: "xavier"
      std: 0.03
    }
    bias_filler {
      type: "constant"
      value: 0.2
    }
  }
}
layer {
  name: "inception_4d/relu_1x1"
  type: "ReLU"
  bottom: "inception_4d/1x1"
  top: "inception_4d/1x1"
}
layer {
  name: "inception_4d/3x3_reduce"
  type: "Convolution"
  bottom: "inception_4c/output"
  top: "inception_4d/3x3_reduce"
  param {
    lr_mult: 1
    decay_mult: 1
  }
  param {
    lr_mult: 2
    decay_mult: 0
  }
  convolution_param {
    num_output: 144
    kernel_size: 1
    weight_filler {
      type: "xavier"
      std: 0.09
    }
    bias_filler {
      type: "constant"
      value: 0.2
    }
  }
}
layer {
  name: "inception_4d/relu_3x3_reduce"
  type: "ReLU"
  bottom: "inception_4d/3x3_reduce"
  top: "inception_4d/3x3_reduce"
}
layer {
  name: "inception_4d/3x3"
  type: "Convolution"
  bottom: "inception_4d/3x3_reduce"
  top: "inception_4d/3x3"
  param {
    lr_mult: 1
    decay_mult: 1
  }
  param {
    lr_mult: 2
    decay_mult: 0
  }
  convolution_param {
    num_output: 288
    pad: 1
    kernel_size: 3
    weight_filler {
      type: "xavier"
      std: 0.03
    }
    bias_filler {
      type: "constant"
      value: 0.2
    }
  }
}
layer {
  name: "inception_4d/relu_3x3"
  type: "ReLU"
  bottom: "inception_4d/3x3"
  top: "inception_4d/3x3"
}
layer {
  name: "inception_4d/5x5_reduce"
  type: "Convolution"
  bottom: "inception_4c/output"
  top: "inception_4d/5x5_reduce"
  param {
    lr_mult: 1
    decay_mult: 1
  }
  param {
    lr_mult: 2
    decay_mult: 0
  }
  convolution_param {
    num_output: 32
    kernel_size: 1
    weight_filler {
      type: "xavier"
      std: 0.2
    }
    bias_filler {
      type: "constant"
      value: 0.2
    }
  }
}
layer {
  name: "inception_4d/relu_5x5_reduce"
  type: "ReLU"
  bottom: "inception_4d/5x5_reduce"
  top: "inception_4d/5x5_reduce"
}
layer {
  name: "inception_4d/5x5"
  type: "Convolution"
  bottom: "inception_4d/5x5_reduce"
  top: "inception_4d/5x5"
  param {
    lr_mult: 1
    decay_mult: 1
  }
  param {
    lr_mult: 2
    decay_mult: 0
  }
  convolution_param {
    num_output: 64
    pad: 2
    kernel_size: 5
    weight_filler {
      type: "xavier"
      std: 0.03
    }
    bias_filler {
      type: "constant"
      value: 0.2
    }
  }
}
layer {
  name: "inception_4d/relu_5x5"
  type: "ReLU"
  bottom: "inception_4d/5x5"
  top: "inception_4d/5x5"
}
layer {
  name: "inception_4d/pool"
  type: "Pooling"
  bottom: "inception_4c/output"
  top: "inception_4d/pool"
  pooling_param {
    pool: MAX
    kernel_size: 3
    stride: 1
    pad: 1
  }
}
layer {
  name: "inception_4d/pool_proj"
  type: "Convolution"
  bottom: "inception_4d/pool"
  top: "inception_4d/pool_proj"
  param {
    lr_mult: 1
    decay_mult: 1
  }
  param {
    lr_mult: 2
    decay_mult: 0
  }
  convolution_param {
    num_output: 64
    kernel_size: 1
    weight_filler {
      type: "xavier"
      std: 0.1
    }
    bias_filler {
      type: "constant"
      value: 0.2
    }
  }
}
layer {
  name: "inception_4d/relu_pool_proj"
  type: "ReLU"
  bottom: "inception_4d/pool_proj"
  top: "inception_4d/pool_proj"
}
layer {
  name: "inception_4d/output"
  type: "Concat"
  bottom: "inception_4d/1x1"
  bottom: "inception_4d/3x3"
  bottom: "inception_4d/5x5"
  bottom: "inception_4d/pool_proj"
  top: "inception_4d/output"
}
layer {
  name: "loss2/ave_pool"
  type: "Pooling"
  bottom: "inception_4d/output"
  top: "loss2/ave_pool"
  pooling_param {
    pool: AVE
    kernel_size: 5
    stride: 3
  }
}
layer {
  name: "loss2/conv"
  type: "Convolution"
  bottom: "loss2/ave_pool"
  top: "loss2/conv"
  param {
    lr_mult: 1
    decay_mult: 1
  }
  param {
    lr_mult: 2
    decay_mult: 0
  }
  convolution_param {
    num_output: 128
    kernel_size: 1
    weight_filler {
      type: "xavier"
      std: 0.08
    }
    bias_filler {
      type: "constant"
      value: 0.2
    }
  }
}
layer {
  name: "loss2/relu_conv"
  type: "ReLU"
  bottom: "loss2/conv"
  top: "loss2/conv"
}
layer {
  name: "loss2/fc"
  type: "InnerProduct"
  bottom: "loss2/conv"
  top: "loss2/fc"
  param {
    lr_mult: 1
    decay_mult: 1
  }
  param {
    lr_mult: 2
    decay_mult: 0
  }
  inner_product_param {
    num_output: 1024
    weight_filler {
      type: "xavier"
      std: 0.02
    }
    bias_filler {
      type: "constant"
      value: 0.2
    }
  }
}
layer {
  name: "loss2/relu_fc"
  type: "ReLU"
  bottom: "loss2/fc"
  top: "loss2/fc"
}
layer {
  name: "loss2/drop_fc"
  type: "Dropout"
  bottom: "loss2/fc"
  top: "loss2/fc"
  dropout_param {
    dropout_ratio: 0.7
  }
}
layer {
  name: "loss2/classifier_plantvillage"
  type: "InnerProduct"
  bottom: "loss2/fc"
  top: "loss2/classifier_plantvillage"
  param {
    lr_mult: 1
    decay_mult: 1
  }
  param {
    lr_mult: 2
    decay_mult: 0
  }
  inner_product_param {
    num_output: 38
    weight_filler {
      type: "xavier"
      std: 0.0009765625
    }
    bias_filler {
      type: "constant"
      value: 0
    }
  }
}
layer {
  name: "inception_4e/1x1"
  type: "Convolution"
  bottom: "inception_4d/output"
  top: "inception_4e/1x1"
  param {
    lr_mult: 1
    decay_mult: 1
  }
  param {
    lr_mult: 2
    decay_mult: 0
  }
  convolution_param {
    num_output: 256
    kernel_size: 1
    weight_filler {
      type: "xavier"
      std: 0.03
    }
    bias_filler {
      type: "constant"
      value: 0.2
    }
  }
}
layer {
  name: "inception_4e/relu_1x1"
  type: "ReLU"
  bottom: "inception_4e/1x1"
  top: "inception_4e/1x1"
}
layer {
  name: "inception_4e/3x3_reduce"
  type: "Convolution"
  bottom: "inception_4d/output"
  top: "inception_4e/3x3_reduce"
  param {
    lr_mult: 1
    decay_mult: 1
  }
  param {
    lr_mult: 2
    decay_mult: 0
  }
  convolution_param {
    num_output: 160
    kernel_size: 1
    weight_filler {
      type: "xavier"
      std: 0.09
    }
    bias_filler {
      type: "constant"
      value: 0.2
    }
  }
}
layer {
  name: "inception_4e/relu_3x3_reduce"
  type: "ReLU"
  bottom: "inception_4e/3x3_reduce"
  top: "inception_4e/3x3_reduce"
}
layer {
  name: "inception_4e/3x3"
  type: "Convolution"
  bottom: "inception_4e/3x3_reduce"
  top: "inception_4e/3x3"
  param {
    lr_mult: 1
    decay_mult: 1
  }
  param {
    lr_mult: 2
    decay_mult: 0
  }
  convolution_param {
    num_output: 320
    pad: 1
    kernel_size: 3
    weight_filler {
      type: "xavier"
      std: 0.03
    }
    bias_filler {
      type: "constant"
      value: 0.2
    }
  }
}
layer {
  name: "inception_4e/relu_3x3"
  type: "ReLU"
  bottom: "inception_4e/3x3"
  top: "inception_4e/3x3"
}
layer {
  name: "inception_4e/5x5_reduce"
  type: "Convolution"
  bottom: "inception_4d/output"
  top: "inception_4e/5x5_reduce"
  param {
    lr_mult: 1
    decay_mult: 1
  }
  param {
    lr_mult: 2
    decay_mult: 0
  }
  convolution_param {
    num_output: 32
    kernel_size: 1
    weight_filler {
      type: "xavier"
      std: 0.2
    }
    bias_filler {
      type: "constant"
      value: 0.2
    }
  }
}
layer {
  name: "inception_4e/relu_5x5_reduce"
  type: "ReLU"
  bottom: "inception_4e/5x5_reduce"
  top: "inception_4e/5x5_reduce"
}
layer {
  name: "inception_4e/5x5"
  type: "Convolution"
  bottom: "inception_4e/5x5_reduce"
  top: "inception_4e/5x5"
  p
I0403 15:39:18.274435 32619 layer_factory.hpp:77] Creating layer data
I0403 15:39:18.275038 32619 net.cpp:91] Creating Layer data
I0403 15:39:18.275068 32619 net.cpp:399] data -> data
I0403 15:39:18.275122 32619 net.cpp:399] data -> label
I0403 15:39:18.275161 32619 data_transformer.cpp:25] Loading mean file from: /home/mohanty/data/final_dataset/lmdb/color-60-40/mean.binaryproto
I0403 15:39:18.277871 32622 db_lmdb.cpp:38] Opened lmdb /home/mohanty/data/final_dataset/lmdb/color-60-40/test_db
I0403 15:39:18.288867 32619 data_layer.cpp:41] output data size: 24,3,224,224
I0403 15:39:18.319504 32619 net.cpp:141] Setting up data
I0403 15:39:18.319577 32619 net.cpp:148] Top shape: 24 3 224 224 (3612672)
I0403 15:39:18.319602 32619 net.cpp:148] Top shape: 24 (24)
I0403 15:39:18.319619 32619 net.cpp:156] Memory required for data: 14450784
I0403 15:39:18.319648 32619 layer_factory.hpp:77] Creating layer label_data_1_split
I0403 15:39:18.319677 32619 net.cpp:91] Creating Layer label_data_1_split
I0403 15:39:18.319696 32619 net.cpp:425] label_data_1_split <- label
I0403 15:39:18.319730 32619 net.cpp:399] label_data_1_split -> label_data_1_split_0
I0403 15:39:18.319759 32619 net.cpp:399] label_data_1_split -> label_data_1_split_1
I0403 15:39:18.319782 32619 net.cpp:399] label_data_1_split -> label_data_1_split_2
I0403 15:39:18.319804 32619 net.cpp:399] label_data_1_split -> label_data_1_split_3
I0403 15:39:18.319824 32619 net.cpp:399] label_data_1_split -> label_data_1_split_4
I0403 15:39:18.319846 32619 net.cpp:399] label_data_1_split -> label_data_1_split_5
I0403 15:39:18.319867 32619 net.cpp:399] label_data_1_split -> label_data_1_split_6
I0403 15:39:18.319888 32619 net.cpp:399] label_data_1_split -> label_data_1_split_7
I0403 15:39:18.319910 32619 net.cpp:399] label_data_1_split -> label_data_1_split_8
I0403 15:39:18.319929 32619 net.cpp:399] label_data_1_split -> label_data_1_split_9
I0403 15:39:18.320050 32619 net.cpp:141] Setting up label_data_1_split
I0403 15:39:18.320075 32619 net.cpp:148] Top shape: 24 (24)
I0403 15:39:18.320093 32619 net.cpp:148] Top shape: 24 (24)
I0403 15:39:18.320111 32619 net.cpp:148] Top shape: 24 (24)
I0403 15:39:18.320128 32619 net.cpp:148] Top shape: 24 (24)
I0403 15:39:18.320145 32619 net.cpp:148] Top shape: 24 (24)
I0403 15:39:18.320161 32619 net.cpp:148] Top shape: 24 (24)
I0403 15:39:18.320178 32619 net.cpp:148] Top shape: 24 (24)
I0403 15:39:18.320194 32619 net.cpp:148] Top shape: 24 (24)
I0403 15:39:18.320211 32619 net.cpp:148] Top shape: 24 (24)
I0403 15:39:18.320230 32619 net.cpp:148] Top shape: 24 (24)
I0403 15:39:18.320281 32619 net.cpp:156] Memory required for data: 14451744
I0403 15:39:18.320298 32619 layer_factory.hpp:77] Creating layer conv1/7x7_s2
I0403 15:39:18.320332 32619 net.cpp:91] Creating Layer conv1/7x7_s2
I0403 15:39:18.320351 32619 net.cpp:425] conv1/7x7_s2 <- data
I0403 15:39:18.320372 32619 net.cpp:399] conv1/7x7_s2 -> conv1/7x7_s2
I0403 15:39:18.469108 32619 net.cpp:141] Setting up conv1/7x7_s2
I0403 15:39:18.469177 32619 net.cpp:148] Top shape: 24 64 112 112 (19267584)
I0403 15:39:18.469197 32619 net.cpp:156] Memory required for data: 91522080
I0403 15:39:18.469230 32619 layer_factory.hpp:77] Creating layer conv1/relu_7x7
I0403 15:39:18.469262 32619 net.cpp:91] Creating Layer conv1/relu_7x7
I0403 15:39:18.469285 32619 net.cpp:425] conv1/relu_7x7 <- conv1/7x7_s2
I0403 15:39:18.469305 32619 net.cpp:386] conv1/relu_7x7 -> conv1/7x7_s2 (in-place)
I0403 15:39:18.469581 32619 net.cpp:141] Setting up conv1/relu_7x7
I0403 15:39:18.469610 32619 net.cpp:148] Top shape: 24 64 112 112 (19267584)
I0403 15:39:18.469627 32619 net.cpp:156] Memory required for data: 168592416
I0403 15:39:18.469643 32619 layer_factory.hpp:77] Creating layer pool1/3x3_s2
I0403 15:39:18.469669 32619 net.cpp:91] Creating Layer pool1/3x3_s2
I0403 15:39:18.469689 32619 net.cpp:425] pool1/3x3_s2 <- conv1/7x7_s2
I0403 15:39:18.469709 32619 net.cpp:399] pool1/3x3_s2 -> pool1/3x3_s2
I0403 15:39:18.469787 32619 net.cpp:141] Setting up pool1/3x3_s2
I0403 15:39:18.469813 32619 net.cpp:148] Top shape: 24 64 56 56 (4816896)
I0403 15:39:18.469830 32619 net.cpp:156] Memory required for data: 187860000
I0403 15:39:18.469846 32619 layer_factory.hpp:77] Creating layer pool1/norm1
I0403 15:39:18.469871 32619 net.cpp:91] Creating Layer pool1/norm1
I0403 15:39:18.469890 32619 net.cpp:425] pool1/norm1 <- pool1/3x3_s2
I0403 15:39:18.469910 32619 net.cpp:399] pool1/norm1 -> pool1/norm1
I0403 15:39:18.470209 32619 net.cpp:141] Setting up pool1/norm1
I0403 15:39:18.470249 32619 net.cpp:148] Top shape: 24 64 56 56 (4816896)
I0403 15:39:18.470274 32619 net.cpp:156] Memory required for data: 207127584
I0403 15:39:18.470290 32619 layer_factory.hpp:77] Creating layer conv2/3x3_reduce
I0403 15:39:18.470317 32619 net.cpp:91] Creating Layer conv2/3x3_reduce
I0403 15:39:18.470335 32619 net.cpp:425] conv2/3x3_reduce <- pool1/norm1
I0403 15:39:18.470356 32619 net.cpp:399] conv2/3x3_reduce -> conv2/3x3_reduce
I0403 15:39:18.471734 32619 net.cpp:141] Setting up conv2/3x3_reduce
I0403 15:39:18.471765 32619 net.cpp:148] Top shape: 24 64 56 56 (4816896)
I0403 15:39:18.471782 32619 net.cpp:156] Memory required for data: 226395168
I0403 15:39:18.471807 32619 layer_factory.hpp:77] Creating layer conv2/relu_3x3_reduce
I0403 15:39:18.471827 32619 net.cpp:91] Creating Layer conv2/relu_3x3_reduce
I0403 15:39:18.471844 32619 net.cpp:425] conv2/relu_3x3_reduce <- conv2/3x3_reduce
I0403 15:39:18.471863 32619 net.cpp:386] conv2/relu_3x3_reduce -> conv2/3x3_reduce (in-place)
I0403 15:39:18.472127 32619 net.cpp:141] Setting up conv2/relu_3x3_reduce
I0403 15:39:18.472157 32619 net.cpp:148] Top shape: 24 64 56 56 (4816896)
I0403 15:39:18.472174 32619 net.cpp:156] Memory required for data: 245662752
I0403 15:39:18.472193 32619 layer_factory.hpp:77] Creating layer conv2/3x3
I0403 15:39:18.472215 32619 net.cpp:91] Creating Layer conv2/3x3
I0403 15:39:18.472234 32619 net.cpp:425] conv2/3x3 <- conv2/3x3_reduce
I0403 15:39:18.472259 32619 net.cpp:399] conv2/3x3 -> conv2/3x3
I0403 15:39:18.474581 32619 net.cpp:141] Setting up conv2/3x3
I0403 15:39:18.474617 32619 net.cpp:148] Top shape: 24 192 56 56 (14450688)
I0403 15:39:18.474634 32619 net.cpp:156] Memory required for data: 303465504
I0403 15:39:18.474658 32619 layer_factory.hpp:77] Creating layer conv2/relu_3x3
I0403 15:39:18.474678 32619 net.cpp:91] Creating Layer conv2/relu_3x3
I0403 15:39:18.474694 32619 net.cpp:425] conv2/relu_3x3 <- conv2/3x3
I0403 15:39:18.474714 32619 net.cpp:386] conv2/relu_3x3 -> conv2/3x3 (in-place)
I0403 15:39:18.474885 32619 net.cpp:141] Setting up conv2/relu_3x3
I0403 15:39:18.474913 32619 net.cpp:148] Top shape: 24 192 56 56 (14450688)
I0403 15:39:18.474961 32619 net.cpp:156] Memory required for data: 361268256
I0403 15:39:18.474979 32619 layer_factory.hpp:77] Creating layer conv2/norm2
I0403 15:39:18.475000 32619 net.cpp:91] Creating Layer conv2/norm2
I0403 15:39:18.475018 32619 net.cpp:425] conv2/norm2 <- conv2/3x3
I0403 15:39:18.475038 32619 net.cpp:399] conv2/norm2 -> conv2/norm2
I0403 15:39:18.475342 32619 net.cpp:141] Setting up conv2/norm2
I0403 15:39:18.475370 32619 net.cpp:148] Top shape: 24 192 56 56 (14450688)
I0403 15:39:18.475389 32619 net.cpp:156] Memory required for data: 419071008
I0403 15:39:18.475404 32619 layer_factory.hpp:77] Creating layer pool2/3x3_s2
I0403 15:39:18.475425 32619 net.cpp:91] Creating Layer pool2/3x3_s2
I0403 15:39:18.475442 32619 net.cpp:425] pool2/3x3_s2 <- conv2/norm2
I0403 15:39:18.475461 32619 net.cpp:399] pool2/3x3_s2 -> pool2/3x3_s2
I0403 15:39:18.475513 32619 net.cpp:141] Setting up pool2/3x3_s2
I0403 15:39:18.475538 32619 net.cpp:148] Top shape: 24 192 28 28 (3612672)
I0403 15:39:18.475555 32619 net.cpp:156] Memory required for data: 433521696
I0403 15:39:18.475572 32619 layer_factory.hpp:77] Creating layer pool2/3x3_s2_pool2/3x3_s2_0_split
I0403 15:39:18.475592 32619 net.cpp:91] Creating Layer pool2/3x3_s2_pool2/3x3_s2_0_split
I0403 15:39:18.475608 32619 net.cpp:425] pool2/3x3_s2_pool2/3x3_s2_0_split <- pool2/3x3_s2
I0403 15:39:18.475628 32619 net.cpp:399] pool2/3x3_s2_pool2/3x3_s2_0_split -> pool2/3x3_s2_pool2/3x3_s2_0_split_0
I0403 15:39:18.475648 32619 net.cpp:399] pool2/3x3_s2_pool2/3x3_s2_0_split -> pool2/3x3_s2_pool2/3x3_s2_0_split_1
I0403 15:39:18.475672 32619 net.cpp:399] pool2/3x3_s2_pool2/3x3_s2_0_split -> pool2/3x3_s2_pool2/3x3_s2_0_split_2
I0403 15:39:18.475692 32619 net.cpp:399] pool2/3x3_s2_pool2/3x3_s2_0_split -> pool2/3x3_s2_pool2/3x3_s2_0_split_3
I0403 15:39:18.475760 32619 net.cpp:141] Setting up pool2/3x3_s2_pool2/3x3_s2_0_split
I0403 15:39:18.475785 32619 net.cpp:148] Top shape: 24 192 28 28 (3612672)
I0403 15:39:18.475803 32619 net.cpp:148] Top shape: 24 192 28 28 (3612672)
I0403 15:39:18.475821 32619 net.cpp:148] Top shape: 24 192 28 28 (3612672)
I0403 15:39:18.475838 32619 net.cpp:148] Top shape: 24 192 28 28 (3612672)
I0403 15:39:18.475853 32619 net.cpp:156] Memory required for data: 491324448
I0403 15:39:18.475870 32619 layer_factory.hpp:77] Creating layer inception_3a/1x1
I0403 15:39:18.475893 32619 net.cpp:91] Creating Layer inception_3a/1x1
I0403 15:39:18.475910 32619 net.cpp:425] inception_3a/1x1 <- pool2/3x3_s2_pool2/3x3_s2_0_split_0
I0403 15:39:18.475930 32619 net.cpp:399] inception_3a/1x1 -> inception_3a/1x1
I0403 15:39:18.477494 32619 net.cpp:141] Setting up inception_3a/1x1
I0403 15:39:18.477526 32619 net.cpp:148] Top shape: 24 64 28 28 (1204224)
I0403 15:39:18.477545 32619 net.cpp:156] Memory required for data: 496141344
I0403 15:39:18.477566 32619 layer_factory.hpp:77] Creating layer inception_3a/relu_1x1
I0403 15:39:18.477588 32619 net.cpp:91] Creating Layer inception_3a/relu_1x1
I0403 15:39:18.477607 32619 net.cpp:425] inception_3a/relu_1x1 <- inception_3a/1x1
I0403 15:39:18.477625 32619 net.cpp:386] inception_3a/relu_1x1 -> inception_3a/1x1 (in-place)
I0403 15:39:18.477813 32619 net.cpp:141] Setting up inception_3a/relu_1x1
I0403 15:39:18.477843 32619 net.cpp:148] Top shape: 24 64 28 28 (1204224)
I0403 15:39:18.477859 32619 net.cpp:156] Memory required for data: 500958240
I0403 15:39:18.477877 32619 layer_factory.hpp:77] Creating layer inception_3a/3x3_reduce
I0403 15:39:18.477902 32619 net.cpp:91] Creating Layer inception_3a/3x3_reduce
I0403 15:39:18.477921 32619 net.cpp:425] inception_3a/3x3_reduce <- pool2/3x3_s2_pool2/3x3_s2_0_split_1
I0403 15:39:18.477941 32619 net.cpp:399] inception_3a/3x3_reduce -> inception_3a/3x3_reduce
I0403 15:39:18.479691 32619 net.cpp:141] Setting up inception_3a/3x3_reduce
I0403 15:39:18.479722 32619 net.cpp:148] Top shape: 24 96 28 28 (1806336)
I0403 15:39:18.479740 32619 net.cpp:156] Memory required for data: 508183584
I0403 15:39:18.479763 32619 layer_factory.hpp:77] Creating layer inception_3a/relu_3x3_reduce
I0403 15:39:18.479804 32619 net.cpp:91] Creating Layer inception_3a/relu_3x3_reduce
I0403 15:39:18.479825 32619 net.cpp:425] inception_3a/relu_3x3_reduce <- inception_3a/3x3_reduce
I0403 15:39:18.479846 32619 net.cpp:386] inception_3a/relu_3x3_reduce -> inception_3a/3x3_reduce (in-place)
I0403 15:39:18.480037 32619 net.cpp:141] Setting up inception_3a/relu_3x3_reduce
I0403 15:39:18.480065 32619 net.cpp:148] Top shape: 24 96 28 28 (1806336)
I0403 15:39:18.480080 32619 net.cpp:156] Memory required for data: 515408928
I0403 15:39:18.480098 32619 layer_factory.hpp:77] Creating layer inception_3a/3x3
I0403 15:39:18.480121 32619 net.cpp:91] Creating Layer inception_3a/3x3
I0403 15:39:18.480140 32619 net.cpp:425] inception_3a/3x3 <- inception_3a/3x3_reduce
I0403 15:39:18.480165 32619 net.cpp:399] inception_3a/3x3 -> inception_3a/3x3
I0403 15:39:18.481962 32619 net.cpp:141] Setting up inception_3a/3x3
I0403 15:39:18.481997 32619 net.cpp:148] Top shape: 24 128 28 28 (2408448)
I0403 15:39:18.482015 32619 net.cpp:156] Memory required for data: 525042720
I0403 15:39:18.482035 32619 layer_factory.hpp:77] Creating layer inception_3a/relu_3x3
I0403 15:39:18.482056 32619 net.cpp:91] Creating Layer inception_3a/relu_3x3
I0403 15:39:18.482075 32619 net.cpp:425] inception_3a/relu_3x3 <- inception_3a/3x3
I0403 15:39:18.482095 32619 net.cpp:386] inception_3a/relu_3x3 -> inception_3a/3x3 (in-place)
I0403 15:39:18.482401 32619 net.cpp:141] Setting up inception_3a/relu_3x3
I0403 15:39:18.482434 32619 net.cpp:148] Top shape: 24 128 28 28 (2408448)
I0403 15:39:18.482451 32619 net.cpp:156] Memory required for data: 534676512
I0403 15:39:18.482468 32619 layer_factory.hpp:77] Creating layer inception_3a/5x5_reduce
I0403 15:39:18.482493 32619 net.cpp:91] Creating Layer inception_3a/5x5_reduce
I0403 15:39:18.482512 32619 net.cpp:425] inception_3a/5x5_reduce <- pool2/3x3_s2_pool2/3x3_s2_0_split_2
I0403 15:39:18.482532 32619 net.cpp:399] inception_3a/5x5_reduce -> inception_3a/5x5_reduce
I0403 15:39:18.483536 32619 net.cpp:141] Setting up inception_3a/5x5_reduce
I0403 15:39:18.483567 32619 net.cpp:148] Top shape: 24 16 28 28 (301056)
I0403 15:39:18.483585 32619 net.cpp:156] Memory required for data: 535880736
I0403 15:39:18.483605 32619 layer_factory.hpp:77] Creating layer inception_3a/relu_5x5_reduce
I0403 15:39:18.483625 32619 net.cpp:91] Creating Layer inception_3a/relu_5x5_reduce
I0403 15:39:18.483642 32619 net.cpp:425] inception_3a/relu_5x5_reduce <- inception_3a/5x5_reduce
I0403 15:39:18.483664 32619 net.cpp:386] inception_3a/relu_5x5_reduce -> inception_3a/5x5_reduce (in-place)
I0403 15:39:18.483959 32619 net.cpp:141] Setting up inception_3a/relu_5x5_reduce
I0403 15:39:18.483988 32619 net.cpp:148] Top shape: 24 16 28 28 (301056)
I0403 15:39:18.484004 32619 net.cpp:156] Memory required for data: 537084960
I0403 15:39:18.484020 32619 layer_factory.hpp:77] Creating layer inception_3a/5x5
I0403 15:39:18.484045 32619 net.cpp:91] Creating Layer inception_3a/5x5
I0403 15:39:18.484063 32619 net.cpp:425] inception_3a/5x5 <- inception_3a/5x5_reduce
I0403 15:39:18.484086 32619 net.cpp:399] inception_3a/5x5 -> inception_3a/5x5
I0403 15:39:18.485131 32619 net.cpp:141] Setting up inception_3a/5x5
I0403 15:39:18.485159 32619 net.cpp:148] Top shape: 24 32 28 28 (602112)
I0403 15:39:18.485179 32619 net.cpp:156] Memory required for data: 539493408
I0403 15:39:18.485200 32619 layer_factory.hpp:77] Creating layer inception_3a/relu_5x5
I0403 15:39:18.485220 32619 net.cpp:91] Creating Layer inception_3a/relu_5x5
I0403 15:39:18.485237 32619 net.cpp:425] inception_3a/relu_5x5 <- inception_3a/5x5
I0403 15:39:18.485258 32619 net.cpp:386] inception_3a/relu_5x5 -> inception_3a/5x5 (in-place)
I0403 15:39:18.485440 32619 net.cpp:141] Setting up inception_3a/relu_5x5
I0403 15:39:18.485469 32619 net.cpp:148] Top shape: 24 32 28 28 (602112)
I0403 15:39:18.485486 32619 net.cpp:156] Memory required for data: 541901856
I0403 15:39:18.485503 32619 layer_factory.hpp:77] Creating layer inception_3a/pool
I0403 15:39:18.485522 32619 net.cpp:91] Creating Layer inception_3a/pool
I0403 15:39:18.485538 32619 net.cpp:425] inception_3a/pool <- pool2/3x3_s2_pool2/3x3_s2_0_split_3
I0403 15:39:18.485577 32619 net.cpp:399] inception_3a/pool -> inception_3a/pool
I0403 15:39:18.485637 32619 net.cpp:141] Setting up inception_3a/pool
I0403 15:39:18.485666 32619 net.cpp:148] Top shape: 24 192 28 28 (3612672)
I0403 15:39:18.485682 32619 net.cpp:156] Memory required for data: 556352544
I0403 15:39:18.485698 32619 layer_factory.hpp:77] Creating layer inception_3a/pool_proj
I0403 15:39:18.485718 32619 net.cpp:91] Creating Layer inception_3a/pool_proj
I0403 15:39:18.485736 32619 net.cpp:425] inception_3a/pool_proj <- inception_3a/pool
I0403 15:39:18.485759 32619 net.cpp:399] inception_3a/pool_proj -> inception_3a/pool_proj
I0403 15:39:18.486740 32619 net.cpp:141] Setting up inception_3a/pool_proj
I0403 15:39:18.486769 32619 net.cpp:148] Top shape: 24 32 28 28 (602112)
I0403 15:39:18.486785 32619 net.cpp:156] Memory required for data: 558760992
I0403 15:39:18.486811 32619 layer_factory.hpp:77] Creating layer inception_3a/relu_pool_proj
I0403 15:39:18.486834 32619 net.cpp:91] Creating Layer inception_3a/relu_pool_proj
I0403 15:39:18.486850 32619 net.cpp:425] inception_3a/relu_pool_proj <- inception_3a/pool_proj
I0403 15:39:18.486870 32619 net.cpp:386] inception_3a/relu_pool_proj -> inception_3a/pool_proj (in-place)
I0403 15:39:18.487148 32619 net.cpp:141] Setting up inception_3a/relu_pool_proj
I0403 15:39:18.487177 32619 net.cpp:148] Top shape: 24 32 28 28 (602112)
I0403 15:39:18.487195 32619 net.cpp:156] Memory required for data: 561169440
I0403 15:39:18.487211 32619 layer_factory.hpp:77] Creating layer inception_3a/output
I0403 15:39:18.487231 32619 net.cpp:91] Creating Layer inception_3a/output
I0403 15:39:18.487246 32619 net.cpp:425] inception_3a/output <- inception_3a/1x1
I0403 15:39:18.487268 32619 net.cpp:425] inception_3a/output <- inception_3a/3x3
I0403 15:39:18.487288 32619 net.cpp:425] inception_3a/output <- inception_3a/5x5
I0403 15:39:18.487305 32619 net.cpp:425] inception_3a/output <- inception_3a/pool_proj
I0403 15:39:18.487323 32619 net.cpp:399] inception_3a/output -> inception_3a/output
I0403 15:39:18.487373 32619 net.cpp:141] Setting up inception_3a/output
I0403 15:39:18.487398 32619 net.cpp:148] Top shape: 24 256 28 28 (4816896)
I0403 15:39:18.487416 32619 net.cpp:156] Memory required for data: 580437024
I0403 15:39:18.487431 32619 layer_factory.hpp:77] Creating layer inception_3a/output_inception_3a/output_0_split
I0403 15:39:18.487452 32619 net.cpp:91] Creating Layer inception_3a/output_inception_3a/output_0_split
I0403 15:39:18.487469 32619 net.cpp:425] inception_3a/output_inception_3a/output_0_split <- inception_3a/output
I0403 15:39:18.487488 32619 net.cpp:399] inception_3a/output_inception_3a/output_0_split -> inception_3a/output_inception_3a/output_0_split_0
I0403 15:39:18.487509 32619 net.cpp:399] inception_3a/output_inception_3a/output_0_split -> inception_3a/output_inception_3a/output_0_split_1
I0403 15:39:18.487534 32619 net.cpp:399] inception_3a/output_inception_3a/output_0_split -> inception_3a/output_inception_3a/output_0_split_2
I0403 15:39:18.487556 32619 net.cpp:399] inception_3a/output_inception_3a/output_0_split -> inception_3a/output_inception_3a/output_0_split_3
I0403 15:39:18.487638 32619 net.cpp:141] Setting up inception_3a/output_inception_3a/output_0_split
I0403 15:39:18.487663 32619 net.cpp:148] Top shape: 24 256 28 28 (4816896)
I0403 15:39:18.487680 32619 net.cpp:148] Top shape: 24 256 28 28 (4816896)
I0403 15:39:18.487697 32619 net.cpp:148] Top shape: 24 256 28 28 (4816896)
I0403 15:39:18.487714 32619 net.cpp:148] Top shape: 24 256 28 28 (4816896)
I0403 15:39:18.487728 32619 net.cpp:156] Memory required for data: 657507360
I0403 15:39:18.487743 32619 layer_factory.hpp:77] Creating layer inception_3b/1x1
I0403 15:39:18.487766 32619 net.cpp:91] Creating Layer inception_3b/1x1
I0403 15:39:18.487787 32619 net.cpp:425] inception_3b/1x1 <- inception_3a/output_inception_3a/output_0_split_0
I0403 15:39:18.487807 32619 net.cpp:399] inception_3b/1x1 -> inception_3b/1x1
I0403 15:39:18.488996 32619 net.cpp:141] Setting up inception_3b/1x1
I0403 15:39:18.489037 32619 net.cpp:148] Top shape: 24 128 28 28 (2408448)
I0403 15:39:18.489054 32619 net.cpp:156] Memory required for data: 667141152
I0403 15:39:18.489073 32619 layer_factory.hpp:77] Creating layer inception_3b/relu_1x1
I0403 15:39:18.489097 32619 net.cpp:91] Creating Layer inception_3b/relu_1x1
I0403 15:39:18.489115 32619 net.cpp:425] inception_3b/relu_1x1 <- inception_3b/1x1
I0403 15:39:18.489135 32619 net.cpp:386] inception_3b/relu_1x1 -> inception_3b/1x1 (in-place)
I0403 15:39:18.489315 32619 net.cpp:141] Setting up inception_3b/relu_1x1
I0403 15:39:18.489343 32619 net.cpp:148] Top shape: 24 128 28 28 (2408448)
I0403 15:39:18.489359 32619 net.cpp:156] Memory required for data: 676774944
I0403 15:39:18.489375 32619 layer_factory.hpp:77] Creating layer inception_3b/3x3_reduce
I0403 15:39:18.489398 32619 net.cpp:91] Creating Layer inception_3b/3x3_reduce
I0403 15:39:18.489416 32619 net.cpp:425] inception_3b/3x3_reduce <- inception_3a/output_inception_3a/output_0_split_1
I0403 15:39:18.489436 32619 net.cpp:399] inception_3b/3x3_reduce -> inception_3b/3x3_reduce
I0403 15:39:18.490592 32619 net.cpp:141] Setting up inception_3b/3x3_reduce
I0403 15:39:18.490622 32619 net.cpp:148] Top shape: 24 128 28 28 (2408448)
I0403 15:39:18.490638 32619 net.cpp:156] Memory required for data: 686408736
I0403 15:39:18.490658 32619 layer_factory.hpp:77] Creating layer inception_3b/relu_3x3_reduce
I0403 15:39:18.490679 32619 net.cpp:91] Creating Layer inception_3b/relu_3x3_reduce
I0403 15:39:18.490696 32619 net.cpp:425] inception_3b/relu_3x3_reduce <- inception_3b/3x3_reduce
I0403 15:39:18.490715 32619 net.cpp:386] inception_3b/relu_3x3_reduce -> inception_3b/3x3_reduce (in-place)
I0403 15:39:18.490895 32619 net.cpp:141] Setting up inception_3b/relu_3x3_reduce
I0403 15:39:18.490922 32619 net.cpp:148] Top shape: 24 128 28 28 (2408448)
I0403 15:39:18.490939 32619 net.cpp:156] Memory required for data: 696042528
I0403 15:39:18.490955 32619 layer_factory.hpp:77] Creating layer inception_3b/3x3
I0403 15:39:18.490980 32619 net.cpp:91] Creating Layer inception_3b/3x3
I0403 15:39:18.491000 32619 net.cpp:425] inception_3b/3x3 <- inception_3b/3x3_reduce
I0403 15:39:18.491022 32619 net.cpp:399] inception_3b/3x3 -> inception_3b/3x3
I0403 15:39:18.493976 32619 net.cpp:141] Setting up inception_3b/3x3
I0403 15:39:18.494009 32619 net.cpp:148] Top shape: 24 192 28 28 (3612672)
I0403 15:39:18.494026 32619 net.cpp:156] Memory required for data: 710493216
I0403 15:39:18.494046 32619 layer_factory.hpp:77] Creating layer inception_3b/relu_3x3
I0403 15:39:18.494066 32619 net.cpp:91] Creating Layer inception_3b/relu_3x3
I0403 15:39:18.494084 32619 net.cpp:425] inception_3b/relu_3x3 <- inception_3b/3x3
I0403 15:39:18.494103 32619 net.cpp:386] inception_3b/relu_3x3 -> inception_3b/3x3 (in-place)
I0403 15:39:18.494398 32619 net.cpp:141] Setting up inception_3b/relu_3x3
I0403 15:39:18.494428 32619 net.cpp:148] Top shape: 24 192 28 28 (3612672)
I0403 15:39:18.494446 32619 net.cpp:156] Memory required for data: 724943904
I0403 15:39:18.494462 32619 layer_factory.hpp:77] Creating layer inception_3b/5x5_reduce
I0403 15:39:18.494485 32619 net.cpp:91] Creating Layer inception_3b/5x5_reduce
I0403 15:39:18.494505 32619 net.cpp:425] inception_3b/5x5_reduce <- inception_3a/output_inception_3a/output_0_split_2
I0403 15:39:18.494525 32619 net.cpp:399] inception_3b/5x5_reduce -> inception_3b/5x5_reduce
I0403 15:39:18.495533 32619 net.cpp:141] Setting up inception_3b/5x5_reduce
I0403 15:39:18.495566 32619 net.cpp:148] Top shape: 24 32 28 28 (602112)
I0403 15:39:18.495584 32619 net.cpp:156] Memory required for data: 727352352
I0403 15:39:18.495604 32619 layer_factory.hpp:77] Creating layer inception_3b/relu_5x5_reduce
I0403 15:39:18.495625 32619 net.cpp:91] Creating Layer inception_3b/relu_5x5_reduce
I0403 15:39:18.495641 32619 net.cpp:425] inception_3b/relu_5x5_reduce <- inception_3b/5x5_reduce
I0403 15:39:18.495659 32619 net.cpp:386] inception_3b/relu_5x5_reduce -> inception_3b/5x5_reduce (in-place)
I0403 15:39:18.495842 32619 net.cpp:141] Setting up inception_3b/relu_5x5_reduce
I0403 15:39:18.495884 32619 net.cpp:148] Top shape: 24 32 28 28 (602112)
I0403 15:39:18.495901 32619 net.cpp:156] Memory required for data: 729760800
I0403 15:39:18.495918 32619 layer_factory.hpp:77] Creating layer inception_3b/5x5
I0403 15:39:18.495941 32619 net.cpp:91] Creating Layer inception_3b/5x5
I0403 15:39:18.495959 32619 net.cpp:425] inception_3b/5x5 <- inception_3b/5x5_reduce
I0403 15:39:18.495981 32619 net.cpp:399] inception_3b/5x5 -> inception_3b/5x5
I0403 15:39:18.497977 32619 net.cpp:141] Setting up inception_3b/5x5
I0403 15:39:18.498008 32619 net.cpp:148] Top shape: 24 96 28 28 (1806336)
I0403 15:39:18.498026 32619 net.cpp:156] Memory required for data: 736986144
I0403 15:39:18.498046 32619 layer_factory.hpp:77] Creating layer inception_3b/relu_5x5
I0403 15:39:18.498069 32619 net.cpp:91] Creating Layer inception_3b/relu_5x5
I0403 15:39:18.498087 32619 net.cpp:425] inception_3b/relu_5x5 <- inception_3b/5x5
I0403 15:39:18.498106 32619 net.cpp:386] inception_3b/relu_5x5 -> inception_3b/5x5 (in-place)
I0403 15:39:18.498311 32619 net.cpp:141] Setting up inception_3b/relu_5x5
I0403 15:39:18.498339 32619 net.cpp:148] Top shape: 24 96 28 28 (1806336)
I0403 15:39:18.498356 32619 net.cpp:156] Memory required for data: 744211488
I0403 15:39:18.498373 32619 layer_factory.hpp:77] Creating layer inception_3b/pool
I0403 15:39:18.498392 32619 net.cpp:91] Creating Layer inception_3b/pool
I0403 15:39:18.498410 32619 net.cpp:425] inception_3b/pool <- inception_3a/output_inception_3a/output_0_split_3
I0403 15:39:18.498430 32619 net.cpp:399] inception_3b/pool -> inception_3b/pool
I0403 15:39:18.498487 32619 net.cpp:141] Setting up inception_3b/pool
I0403 15:39:18.498512 32619 net.cpp:148] Top shape: 24 256 28 28 (4816896)
I0403 15:39:18.498528 32619 net.cpp:156] Memory required for data: 763479072
I0403 15:39:18.498543 32619 layer_factory.hpp:77] Creating layer inception_3b/pool_proj
I0403 15:39:18.498569 32619 net.cpp:91] Creating Layer inception_3b/pool_proj
I0403 15:39:18.498587 32619 net.cpp:425] inception_3b/pool_proj <- inception_3b/pool
I0403 15:39:18.498610 32619 net.cpp:399] inception_3b/pool_proj -> inception_3b/pool_proj
I0403 15:39:18.499707 32619 net.cpp:141] Setting up inception_3b/pool_proj
I0403 15:39:18.499737 32619 net.cpp:148] Top shape: 24 64 28 28 (1204224)
I0403 15:39:18.499752 32619 net.cpp:156] Memory required for data: 768295968
I0403 15:39:18.499771 32619 layer_factory.hpp:77] Creating layer inception_3b/relu_pool_proj
I0403 15:39:18.499790 32619 net.cpp:91] Creating Layer inception_3b/relu_pool_proj
I0403 15:39:18.499809 32619 net.cpp:425] inception_3b/relu_pool_proj <- inception_3b/pool_proj
I0403 15:39:18.499830 32619 net.cpp:386] inception_3b/relu_pool_proj -> inception_3b/pool_proj (in-place)
I0403 15:39:18.500224 32619 net.cpp:141] Setting up inception_3b/relu_pool_proj
I0403 15:39:18.500255 32619 net.cpp:148] Top shape: 24 64 28 28 (1204224)
I0403 15:39:18.500273 32619 net.cpp:156] Memory required for data: 773112864
I0403 15:39:18.500290 32619 layer_factory.hpp:77] Creating layer inception_3b/output
I0403 15:39:18.500308 32619 net.cpp:91] Creating Layer inception_3b/output
I0403 15:39:18.500325 32619 net.cpp:425] inception_3b/output <- inception_3b/1x1
I0403 15:39:18.500344 32619 net.cpp:425] inception_3b/output <- inception_3b/3x3
I0403 15:39:18.500360 32619 net.cpp:425] inception_3b/output <- inception_3b/5x5
I0403 15:39:18.500377 32619 net.cpp:425] inception_3b/output <- inception_3b/pool_proj
I0403 15:39:18.500396 32619 net.cpp:399] inception_3b/output -> inception_3b/output
I0403 15:39:18.500442 32619 net.cpp:141] Setting up inception_3b/output
I0403 15:39:18.500468 32619 net.cpp:148] Top shape: 24 480 28 28 (9031680)
I0403 15:39:18.500484 32619 net.cpp:156] Memory required for data: 809239584
I0403 15:39:18.500500 32619 layer_factory.hpp:77] Creating layer pool3/3x3_s2
I0403 15:39:18.500520 32619 net.cpp:91] Creating Layer pool3/3x3_s2
I0403 15:39:18.500537 32619 net.cpp:425] pool3/3x3_s2 <- inception_3b/output
I0403 15:39:18.500555 32619 net.cpp:399] pool3/3x3_s2 -> pool3/3x3_s2
I0403 15:39:18.500630 32619 net.cpp:141] Setting up pool3/3x3_s2
I0403 15:39:18.500656 32619 net.cpp:148] Top shape: 24 480 14 14 (2257920)
I0403 15:39:18.500674 32619 net.cpp:156] Memory required for data: 818271264
I0403 15:39:18.500689 32619 layer_factory.hpp:77] Creating layer pool3/3x3_s2_pool3/3x3_s2_0_split
I0403 15:39:18.500708 32619 net.cpp:91] Creating Layer pool3/3x3_s2_pool3/3x3_s2_0_split
I0403 15:39:18.500725 32619 net.cpp:425] pool3/3x3_s2_pool3/3x3_s2_0_split <- pool3/3x3_s2
I0403 15:39:18.500746 32619 net.cpp:399] pool3/3x3_s2_pool3/3x3_s2_0_split -> pool3/3x3_s2_pool3/3x3_s2_0_split_0
I0403 15:39:18.500767 32619 net.cpp:399] pool3/3x3_s2_pool3/3x3_s2_0_split -> pool3/3x3_s2_pool3/3x3_s2_0_split_1
I0403 15:39:18.500789 32619 net.cpp:399] pool3/3x3_s2_pool3/3x3_s2_0_split -> pool3/3x3_s2_pool3/3x3_s2_0_split_2
I0403 15:39:18.500809 32619 net.cpp:399] pool3/3x3_s2_pool3/3x3_s2_0_split -> pool3/3x3_s2_pool3/3x3_s2_0_split_3
I0403 15:39:18.500887 32619 net.cpp:141] Setting up pool3/3x3_s2_pool3/3x3_s2_0_split
I0403 15:39:18.500915 32619 net.cpp:148] Top shape: 24 480 14 14 (2257920)
I0403 15:39:18.500932 32619 net.cpp:148] Top shape: 24 480 14 14 (2257920)
I0403 15:39:18.500948 32619 net.cpp:148] Top shape: 24 480 14 14 (2257920)
I0403 15:39:18.500967 32619 net.cpp:148] Top shape: 24 480 14 14 (2257920)
I0403 15:39:18.500980 32619 net.cpp:156] Memory required for data: 854397984
I0403 15:39:18.500995 32619 layer_factory.hpp:77] Creating layer inception_4a/1x1
I0403 15:39:18.501019 32619 net.cpp:91] Creating Layer inception_4a/1x1
I0403 15:39:18.501037 32619 net.cpp:425] inception_4a/1x1 <- pool3/3x3_s2_pool3/3x3_s2_0_split_0
I0403 15:39:18.501060 32619 net.cpp:399] inception_4a/1x1 -> inception_4a/1x1
I0403 15:39:18.502665 32619 net.cpp:141] Setting up inception_4a/1x1
I0403 15:39:18.502694 32619 net.cpp:148] Top shape: 24 192 14 14 (903168)
I0403 15:39:18.502712 32619 net.cpp:156] Memory required for data: 858010656
I0403 15:39:18.502730 32619 layer_factory.hpp:77] Creating layer inception_4a/relu_1x1
I0403 15:39:18.502753 32619 net.cpp:91] Creating Layer inception_4a/relu_1x1
I0403 15:39:18.502770 32619 net.cpp:425] inception_4a/relu_1x1 <- inception_4a/1x1
I0403 15:39:18.502789 32619 net.cpp:386] inception_4a/relu_1x1 -> inception_4a/1x1 (in-place)
I0403 15:39:18.502969 32619 net.cpp:141] Setting up inception_4a/relu_1x1
I0403 15:39:18.502996 32619 net.cpp:148] Top shape: 24 192 14 14 (903168)
I0403 15:39:18.503011 32619 net.cpp:156] Memory required for data: 861623328
I0403 15:39:18.503027 32619 layer_factory.hpp:77] Creating layer inception_4a/3x3_reduce
I0403 15:39:18.503051 32619 net.cpp:91] Creating Layer inception_4a/3x3_reduce
I0403 15:39:18.503070 32619 net.cpp:425] inception_4a/3x3_reduce <- pool3/3x3_s2_pool3/3x3_s2_0_split_1
I0403 15:39:18.503093 32619 net.cpp:399] inception_4a/3x3_reduce -> inception_4a/3x3_reduce
I0403 15:39:18.504400 32619 net.cpp:141] Setting up inception_4a/3x3_reduce
I0403 15:39:18.504429 32619 net.cpp:148] Top shape: 24 96 14 14 (451584)
I0403 15:39:18.504446 32619 net.cpp:156] Memory required for data: 863429664
I0403 15:39:18.504472 32619 layer_factory.hpp:77] Creating layer inception_4a/relu_3x3_reduce
I0403 15:39:18.504493 32619 net.cpp:91] Creating Layer inception_4a/relu_3x3_reduce
I0403 15:39:18.504509 32619 net.cpp:425] inception_4a/relu_3x3_reduce <- inception_4a/3x3_reduce
I0403 15:39:18.504529 32619 net.cpp:386] inception_4a/relu_3x3_reduce -> inception_4a/3x3_reduce (in-place)
I0403 15:39:18.504710 32619 net.cpp:141] Setting up inception_4a/relu_3x3_reduce
I0403 15:39:18.504736 32619 net.cpp:148] Top shape: 24 96 14 14 (451584)
I0403 15:39:18.504752 32619 net.cpp:156] Memory required for data: 865236000
I0403 15:39:18.504768 32619 layer_factory.hpp:77] Creating layer inception_4a/3x3
I0403 15:39:18.504791 32619 net.cpp:91] Creating Layer inception_4a/3x3
I0403 15:39:18.504809 32619 net.cpp:425] inception_4a/3x3 <- inception_4a/3x3_reduce
I0403 15:39:18.504832 32619 net.cpp:399] inception_4a/3x3 -> inception_4a/3x3
I0403 15:39:18.507553 32619 net.cpp:141] Setting up inception_4a/3x3
I0403 15:39:18.507587 32619 net.cpp:148] Top shape: 24 208 14 14 (978432)
I0403 15:39:18.507606 32619 net.cpp:156] Memory required for data: 869149728
I0403 15:39:18.507624 32619 layer_factory.hpp:77] Creating layer inception_4a/relu_3x3
I0403 15:39:18.507647 32619 net.cpp:91] Creating Layer inception_4a/relu_3x3
I0403 15:39:18.507666 32619 net.cpp:425] inception_4a/relu_3x3 <- inception_4a/3x3
I0403 15:39:18.507684 32619 net.cpp:386] inception_4a/relu_3x3 -> inception_4a/3x3 (in-place)
I0403 15:39:18.507969 32619 net.cpp:141] Setting up inception_4a/relu_3x3
I0403 15:39:18.507997 32619 net.cpp:148] Top shape: 24 208 14 14 (978432)
I0403 15:39:18.508013 32619 net.cpp:156] Memory required for data: 873063456
I0403 15:39:18.508030 32619 layer_factory.hpp:77] Creating layer inception_4a/5x5_reduce
I0403 15:39:18.508054 32619 net.cpp:91] Creating Layer inception_4a/5x5_reduce
I0403 15:39:18.508072 32619 net.cpp:425] inception_4a/5x5_reduce <- pool3/3x3_s2_pool3/3x3_s2_0_split_2
I0403 15:39:18.508095 32619 net.cpp:399] inception_4a/5x5_reduce -> inception_4a/5x5_reduce
I0403 15:39:18.509137 32619 net.cpp:141] Setting up inception_4a/5x5_reduce
I0403 15:39:18.509167 32619 net.cpp:148] Top shape: 24 16 14 14 (75264)
I0403 15:39:18.509186 32619 net.cpp:156] Memory required for data: 873364512
I0403 15:39:18.509207 32619 layer_factory.hpp:77] Creating layer inception_4a/relu_5x5_reduce
I0403 15:39:18.509227 32619 net.cpp:91] Creating Layer inception_4a/relu_5x5_reduce
I0403 15:39:18.509243 32619 net.cpp:425] inception_4a/relu_5x5_reduce <- inception_4a/5x5_reduce
I0403 15:39:18.509265 32619 net.cpp:386] inception_4a/relu_5x5_reduce -> inception_4a/5x5_reduce (in-place)
I0403 15:39:18.509452 32619 net.cpp:141] Setting up inception_4a/relu_5x5_reduce
I0403 15:39:18.509481 32619 net.cpp:148] Top shape: 24 16 14 14 (75264)
I0403 15:39:18.509498 32619 net.cpp:156] Memory required for data: 873665568
I0403 15:39:18.509515 32619 layer_factory.hpp:77] Creating layer inception_4a/5x5
I0403 15:39:18.509538 32619 net.cpp:91] Creating Layer inception_4a/5x5
I0403 15:39:18.509557 32619 net.cpp:425] inception_4a/5x5 <- inception_4a/5x5_reduce
I0403 15:39:18.509577 32619 net.cpp:399] inception_4a/5x5 -> inception_4a/5x5
I0403 15:39:18.510722 32619 net.cpp:141] Setting up inception_4a/5x5
I0403 15:39:18.510751 32619 net.cpp:148] Top shape: 24 48 14 14 (225792)
I0403 15:39:18.510767 32619 net.cpp:156] Memory required for data: 874568736
I0403 15:39:18.510787 32619 layer_factory.hpp:77] Creating layer inception_4a/relu_5x5
I0403 15:39:18.510805 32619 net.cpp:91] Creating Layer inception_4a/relu_5x5
I0403 15:39:18.510821 32619 net.cpp:425] inception_4a/relu_5x5 <- inception_4a/5x5
I0403 15:39:18.510844 32619 net.cpp:386] inception_4a/relu_5x5 -> inception_4a/5x5 (in-place)
I0403 15:39:18.511023 32619 net.cpp:141] Setting up inception_4a/relu_5x5
I0403 15:39:18.511049 32619 net.cpp:148] Top shape: 24 48 14 14 (225792)
I0403 15:39:18.511065 32619 net.cpp:156] Memory required for data: 875471904
I0403 15:39:18.511080 32619 layer_factory.hpp:77] Creating layer inception_4a/pool
I0403 15:39:18.511101 32619 net.cpp:91] Creating Layer inception_4a/pool
I0403 15:39:18.511118 32619 net.cpp:425] inception_4a/pool <- pool3/3x3_s2_pool3/3x3_s2_0_split_3
I0403 15:39:18.511137 32619 net.cpp:399] inception_4a/pool -> inception_4a/pool
I0403 15:39:18.511198 32619 net.cpp:141] Setting up inception_4a/pool
I0403 15:39:18.511224 32619 net.cpp:148] Top shape: 24 480 14 14 (2257920)
I0403 15:39:18.511239 32619 net.cpp:156] Memory required for data: 884503584
I0403 15:39:18.511257 32619 layer_factory.hpp:77] Creating layer inception_4a/pool_proj
I0403 15:39:18.511281 32619 net.cpp:91] Creating Layer inception_4a/pool_proj
I0403 15:39:18.511299 32619 net.cpp:425] inception_4a/pool_proj <- inception_4a/pool
I0403 15:39:18.511322 32619 net.cpp:399] inception_4a/pool_proj -> inception_4a/pool_proj
I0403 15:39:18.512480 32619 net.cpp:141] Setting up inception_4a/pool_proj
I0403 15:39:18.512508 32619 net.cpp:148] Top shape: 24 64 14 14 (301056)
I0403 15:39:18.512539 32619 net.cpp:156] Memory required for data: 885707808
I0403 15:39:18.512560 32619 layer_factory.hpp:77] Creating layer inception_4a/relu_pool_proj
I0403 15:39:18.512578 32619 net.cpp:91] Creating Layer inception_4a/relu_pool_proj
I0403 15:39:18.512594 32619 net.cpp:425] inception_4a/relu_pool_proj <- inception_4a/pool_proj
I0403 15:39:18.512616 32619 net.cpp:386] inception_4a/relu_pool_proj -> inception_4a/pool_proj (in-place)
I0403 15:39:18.512902 32619 net.cpp:141] Setting up inception_4a/relu_pool_proj
I0403 15:39:18.512928 32619 net.cpp:148] Top shape: 24 64 14 14 (301056)
I0403 15:39:18.512944 32619 net.cpp:156] Memory required for data: 886912032
I0403 15:39:18.512959 32619 layer_factory.hpp:77] Creating layer inception_4a/output
I0403 15:39:18.512976 32619 net.cpp:91] Creating Layer inception_4a/output
I0403 15:39:18.512994 32619 net.cpp:425] inception_4a/output <- inception_4a/1x1
I0403 15:39:18.513011 32619 net.cpp:425] inception_4a/output <- inception_4a/3x3
I0403 15:39:18.513028 32619 net.cpp:425] inception_4a/output <- inception_4a/5x5
I0403 15:39:18.513044 32619 net.cpp:425] inception_4a/output <- inception_4a/pool_proj
I0403 15:39:18.513063 32619 net.cpp:399] inception_4a/output -> inception_4a/output
I0403 15:39:18.513108 32619 net.cpp:141] Setting up inception_4a/output
I0403 15:39:18.513135 32619 net.cpp:148] Top shape: 24 512 14 14 (2408448)
I0403 15:39:18.513151 32619 net.cpp:156] Memory required for data: 896545824
I0403 15:39:18.513167 32619 layer_factory.hpp:77] Creating layer inception_4a/output_inception_4a/output_0_split
I0403 15:39:18.513185 32619 net.cpp:91] Creating Layer inception_4a/output_inception_4a/output_0_split
I0403 15:39:18.513201 32619 net.cpp:425] inception_4a/output_inception_4a/output_0_split <- inception_4a/output
I0403 15:39:18.513218 32619 net.cpp:399] inception_4a/output_inception_4a/output_0_split -> inception_4a/output_inception_4a/output_0_split_0
I0403 15:39:18.513242 32619 net.cpp:399] inception_4a/output_inception_4a/output_0_split -> inception_4a/output_inception_4a/output_0_split_1
I0403 15:39:18.513270 32619 net.cpp:399] inception_4a/output_inception_4a/output_0_split -> inception_4a/output_inception_4a/output_0_split_2
I0403 15:39:18.513293 32619 net.cpp:399] inception_4a/output_inception_4a/output_0_split -> inception_4a/output_inception_4a/output_0_split_3
I0403 15:39:18.513314 32619 net.cpp:399] inception_4a/output_inception_4a/output_0_split -> inception_4a/output_inception_4a/output_0_split_4
I0403 15:39:18.513404 32619 net.cpp:141] Setting up inception_4a/output_inception_4a/output_0_split
I0403 15:39:18.513429 32619 net.cpp:148] Top shape: 24 512 14 14 (2408448)
I0403 15:39:18.513450 32619 net.cpp:148] Top shape: 24 512 14 14 (2408448)
I0403 15:39:18.513468 32619 net.cpp:148] Top shape: 24 512 14 14 (2408448)
I0403 15:39:18.513485 32619 net.cpp:148] Top shape: 24 512 14 14 (2408448)
I0403 15:39:18.513501 32619 net.cpp:148] Top shape: 24 512 14 14 (2408448)
I0403 15:39:18.513515 32619 net.cpp:156] Memory required for data: 944714784
I0403 15:39:18.513530 32619 layer_factory.hpp:77] Creating layer loss1/ave_pool
I0403 15:39:18.513548 32619 net.cpp:91] Creating Layer loss1/ave_pool
I0403 15:39:18.513564 32619 net.cpp:425] loss1/ave_pool <- inception_4a/output_inception_4a/output_0_split_0
I0403 15:39:18.513582 32619 net.cpp:399] loss1/ave_pool -> loss1/ave_pool
I0403 15:39:18.513784 32619 net.cpp:141] Setting up loss1/ave_pool
I0403 15:39:18.513811 32619 net.cpp:148] Top shape: 24 512 4 4 (196608)
I0403 15:39:18.513826 32619 net.cpp:156] Memory required for data: 945501216
I0403 15:39:18.513842 32619 layer_factory.hpp:77] Creating layer loss1/conv
I0403 15:39:18.513864 32619 net.cpp:91] Creating Layer loss1/conv
I0403 15:39:18.513883 32619 net.cpp:425] loss1/conv <- loss1/ave_pool
I0403 15:39:18.513905 32619 net.cpp:399] loss1/conv -> loss1/conv
I0403 15:39:18.515316 32619 net.cpp:141] Setting up loss1/conv
I0403 15:39:18.515344 32619 net.cpp:148] Top shape: 24 128 4 4 (49152)
I0403 15:39:18.515360 32619 net.cpp:156] Memory required for data: 945697824
I0403 15:39:18.515401 32619 layer_factory.hpp:77] Creating layer loss1/relu_conv
I0403 15:39:18.515425 32619 net.cpp:91] Creating Layer loss1/relu_conv
I0403 15:39:18.515444 32619 net.cpp:425] loss1/relu_conv <- loss1/conv
I0403 15:39:18.515462 32619 net.cpp:386] loss1/relu_conv -> loss1/conv (in-place)
I0403 15:39:18.515743 32619 net.cpp:141] Setting up loss1/relu_conv
I0403 15:39:18.515770 32619 net.cpp:148] Top shape: 24 128 4 4 (49152)
I0403 15:39:18.515786 32619 net.cpp:156] Memory required for data: 945894432
I0403 15:39:18.515802 32619 layer_factory.hpp:77] Creating layer loss1/fc
I0403 15:39:18.515830 32619 net.cpp:91] Creating Layer loss1/fc
I0403 15:39:18.515849 32619 net.cpp:425] loss1/fc <- loss1/conv
I0403 15:39:18.515867 32619 net.cpp:399] loss1/fc -> loss1/fc
I0403 15:39:18.533505 32619 net.cpp:141] Setting up loss1/fc
I0403 15:39:18.533537 32619 net.cpp:148] Top shape: 24 1024 (24576)
I0403 15:39:18.533555 32619 net.cpp:156] Memory required for data: 945992736
I0403 15:39:18.533574 32619 layer_factory.hpp:77] Creating layer loss1/relu_fc
I0403 15:39:18.533593 32619 net.cpp:91] Creating Layer loss1/relu_fc
I0403 15:39:18.533612 32619 net.cpp:425] loss1/relu_fc <- loss1/fc
I0403 15:39:18.533632 32619 net.cpp:386] loss1/relu_fc -> loss1/fc (in-place)
I0403 15:39:18.533824 32619 net.cpp:141] Setting up loss1/relu_fc
I0403 15:39:18.533850 32619 net.cpp:148] Top shape: 24 1024 (24576)
I0403 15:39:18.533865 32619 net.cpp:156] Memory required for data: 946091040
I0403 15:39:18.533881 32619 layer_factory.hpp:77] Creating layer loss1/drop_fc
I0403 15:39:18.533910 32619 net.cpp:91] Creating Layer loss1/drop_fc
I0403 15:39:18.533927 32619 net.cpp:425] loss1/drop_fc <- loss1/fc
I0403 15:39:18.533944 32619 net.cpp:386] loss1/drop_fc -> loss1/fc (in-place)
I0403 15:39:18.533995 32619 net.cpp:141] Setting up loss1/drop_fc
I0403 15:39:18.534023 32619 net.cpp:148] Top shape: 24 1024 (24576)
I0403 15:39:18.534039 32619 net.cpp:156] Memory required for data: 946189344
I0403 15:39:18.534055 32619 layer_factory.hpp:77] Creating layer loss1/classifier_plantvillage
I0403 15:39:18.534075 32619 net.cpp:91] Creating Layer loss1/classifier_plantvillage
I0403 15:39:18.534090 32619 net.cpp:425] loss1/classifier_plantvillage <- loss1/fc
I0403 15:39:18.534111 32619 net.cpp:399] loss1/classifier_plantvillage -> loss1/classifier_plantvillage
I0403 15:39:18.535004 32619 net.cpp:141] Setting up loss1/classifier_plantvillage
I0403 15:39:18.535034 32619 net.cpp:148] Top shape: 24 38 (912)
I0403 15:39:18.535050 32619 net.cpp:156] Memory required for data: 946192992
I0403 15:39:18.535069 32619 layer_factory.hpp:77] Creating layer loss1/classifier_plantvillage_loss1/classifier_plantvillage_0_split
I0403 15:39:18.535090 32619 net.cpp:91] Creating Layer loss1/classifier_plantvillage_loss1/classifier_plantvillage_0_split
I0403 15:39:18.535109 32619 net.cpp:425] loss1/classifier_plantvillage_loss1/classifier_plantvillage_0_split <- loss1/classifier_plantvillage
I0403 15:39:18.535127 32619 net.cpp:399] loss1/classifier_plantvillage_loss1/classifier_plantvillage_0_split -> loss1/classifier_plantvillage_loss1/classifier_plantvillage_0_split_0
I0403 15:39:18.535148 32619 net.cpp:399] loss1/classifier_plantvillage_loss1/classifier_plantvillage_0_split -> loss1/classifier_plantvillage_loss1/classifier_plantvillage_0_split_1
I0403 15:39:18.535171 32619 net.cpp:399] loss1/classifier_plantvillage_loss1/classifier_plantvillage_0_split -> loss1/classifier_plantvillage_loss1/classifier_plantvillage_0_split_2
I0403 15:39:18.535238 32619 net.cpp:141] Setting up loss1/classifier_plantvillage_loss1/classifier_plantvillage_0_split
I0403 15:39:18.535267 32619 net.cpp:148] Top shape: 24 38 (912)
I0403 15:39:18.535285 32619 net.cpp:148] Top shape: 24 38 (912)
I0403 15:39:18.535302 32619 net.cpp:148] Top shape: 24 38 (912)
I0403 15:39:18.535317 32619 net.cpp:156] Memory required for data: 946203936
I0403 15:39:18.535332 32619 layer_factory.hpp:77] Creating layer inception_4b/1x1
I0403 15:39:18.535354 32619 net.cpp:91] Creating Layer inception_4b/1x1
I0403 15:39:18.535387 32619 net.cpp:425] inception_4b/1x1 <- inception_4a/output_inception_4a/output_0_split_1
I0403 15:39:18.535409 32619 net.cpp:399] inception_4b/1x1 -> inception_4b/1x1
I0403 15:39:18.537058 32619 net.cpp:141] Setting up inception_4b/1x1
I0403 15:39:18.537087 32619 net.cpp:148] Top shape: 24 160 14 14 (752640)
I0403 15:39:18.537104 32619 net.cpp:156] Memory required for data: 949214496
I0403 15:39:18.537123 32619 layer_factory.hpp:77] Creating layer inception_4b/relu_1x1
I0403 15:39:18.537144 32619 net.cpp:91] Creating Layer inception_4b/relu_1x1
I0403 15:39:18.537163 32619 net.cpp:425] inception_4b/relu_1x1 <- inception_4b/1x1
I0403 15:39:18.537180 32619 net.cpp:386] inception_4b/relu_1x1 -> inception_4b/1x1 (in-place)
I0403 15:39:18.537367 32619 net.cpp:141] Setting up inception_4b/relu_1x1
I0403 15:39:18.537395 32619 net.cpp:148] Top shape: 24 160 14 14 (752640)
I0403 15:39:18.537411 32619 net.cpp:156] Memory required for data: 952225056
I0403 15:39:18.537426 32619 layer_factory.hpp:77] Creating layer inception_4b/3x3_reduce
I0403 15:39:18.537449 32619 net.cpp:91] Creating Layer inception_4b/3x3_reduce
I0403 15:39:18.537468 32619 net.cpp:425] inception_4b/3x3_reduce <- inception_4a/output_inception_4a/output_0_split_2
I0403 15:39:18.537488 32619 net.cpp:399] inception_4b/3x3_reduce -> inception_4b/3x3_reduce
I0403 15:39:18.538827 32619 net.cpp:141] Setting up inception_4b/3x3_reduce
I0403 15:39:18.538858 32619 net.cpp:148] Top shape: 24 112 14 14 (526848)
I0403 15:39:18.538877 32619 net.cpp:156] Memory required for data: 954332448
I0403 15:39:18.538895 32619 layer_factory.hpp:77] Creating layer inception_4b/relu_3x3_reduce
I0403 15:39:18.538914 32619 net.cpp:91] Creating Layer inception_4b/relu_3x3_reduce
I0403 15:39:18.538933 32619 net.cpp:425] inception_4b/relu_3x3_reduce <- inception_4b/3x3_reduce
I0403 15:39:18.538952 32619 net.cpp:386] inception_4b/relu_3x3_reduce -> inception_4b/3x3_reduce (in-place)
I0403 15:39:18.539229 32619 net.cpp:141] Setting up inception_4b/relu_3x3_reduce
I0403 15:39:18.539263 32619 net.cpp:148] Top shape: 24 112 14 14 (526848)
I0403 15:39:18.539281 32619 net.cpp:156] Memory required for data: 956439840
I0403 15:39:18.539297 32619 layer_factory.hpp:77] Creating layer inception_4b/3x3
I0403 15:39:18.539320 32619 net.cpp:91] Creating Layer inception_4b/3x3
I0403 15:39:18.539340 32619 net.cpp:425] inception_4b/3x3 <- inception_4b/3x3_reduce
I0403 15:39:18.539358 32619 net.cpp:399] inception_4b/3x3 -> inception_4b/3x3
I0403 15:39:18.542316 32619 net.cpp:141] Setting up inception_4b/3x3
I0403 15:39:18.542346 32619 net.cpp:148] Top shape: 24 224 14 14 (1053696)
I0403 15:39:18.542362 32619 net.cpp:156] Memory required for data: 960654624
I0403 15:39:18.542382 32619 layer_factory.hpp:77] Creating layer inception_4b/relu_3x3
I0403 15:39:18.542402 32619 net.cpp:91] Creating Layer inception_4b/relu_3x3
I0403 15:39:18.542418 32619 net.cpp:425] inception_4b/relu_3x3 <- inception_4b/3x3
I0403 15:39:18.542438 32619 net.cpp:386] inception_4b/relu_3x3 -> inception_4b/3x3 (in-place)
I0403 15:39:18.542616 32619 net.cpp:141] Setting up inception_4b/relu_3x3
I0403 15:39:18.542641 32619 net.cpp:148] Top shape: 24 224 14 14 (1053696)
I0403 15:39:18.542656 32619 net.cpp:156] Memory required for data: 964869408
I0403 15:39:18.542671 32619 layer_factory.hpp:77] Creating layer inception_4b/5x5_reduce
I0403 15:39:18.542696 32619 net.cpp:91] Creating Layer inception_4b/5x5_reduce
I0403 15:39:18.542714 32619 net.cpp:425] inception_4b/5x5_reduce <- inception_4a/output_inception_4a/output_0_split_3
I0403 15:39:18.542734 32619 net.cpp:399] inception_4b/5x5_reduce -> inception_4b/5x5_reduce
I0403 15:39:18.543846 32619 net.cpp:141] Setting up inception_4b/5x5_reduce
I0403 15:39:18.543875 32619 net.cpp:148] Top shape: 24 24 14 14 (112896)
I0403 15:39:18.543891 32619 net.cpp:156] Memory required for data: 965320992
I0403 15:39:18.543910 32619 layer_factory.hpp:77] Creating layer inception_4b/relu_5x5_reduce
I0403 15:39:18.543931 32619 net.cpp:91] Creating Layer inception_4b/relu_5x5_reduce
I0403 15:39:18.543962 32619 net.cpp:425] inception_4b/relu_5x5_reduce <- inception_4b/5x5_reduce
I0403 15:39:18.543983 32619 net.cpp:386] inception_4b/relu_5x5_reduce -> inception_4b/5x5_reduce (in-place)
I0403 15:39:18.544168 32619 net.cpp:141] Setting up inception_4b/relu_5x5_reduce
I0403 15:39:18.544193 32619 net.cpp:148] Top shape: 24 24 14 14 (112896)
I0403 15:39:18.544209 32619 net.cpp:156] Memory required for data: 965772576
I0403 15:39:18.544224 32619 layer_factory.hpp:77] Creating layer inception_4b/5x5
I0403 15:39:18.544247 32619 net.cpp:91] Creating Layer inception_4b/5x5
I0403 15:39:18.544277 32619 net.cpp:425] inception_4b/5x5 <- inception_4b/5x5_reduce
I0403 15:39:18.544301 32619 net.cpp:399] inception_4b/5x5 -> inception_4b/5x5
I0403 15:39:18.545529 32619 net.cpp:141] Setting up inception_4b/5x5
I0403 15:39:18.545557 32619 net.cpp:148] Top shape: 24 64 14 14 (301056)
I0403 15:39:18.545575 32619 net.cpp:156] Memory required for data: 966976800
I0403 15:39:18.545595 32619 layer_factory.hpp:77] Creating layer inception_4b/relu_5x5
I0403 15:39:18.545616 32619 net.cpp:91] Creating Layer inception_4b/relu_5x5
I0403 15:39:18.545634 32619 net.cpp:425] inception_4b/relu_5x5 <- inception_4b/5x5
I0403 15:39:18.545651 32619 net.cpp:386] inception_4b/relu_5x5 -> inception_4b/5x5 (in-place)
I0403 15:39:18.545938 32619 net.cpp:141] Setting up inception_4b/relu_5x5
I0403 15:39:18.545964 32619 net.cpp:148] Top shape: 24 64 14 14 (301056)
I0403 15:39:18.545979 32619 net.cpp:156] Memory required for data: 968181024
I0403 15:39:18.545995 32619 layer_factory.hpp:77] Creating layer inception_4b/pool
I0403 15:39:18.546016 32619 net.cpp:91] Creating Layer inception_4b/pool
I0403 15:39:18.546033 32619 net.cpp:425] inception_4b/pool <- inception_4a/output_inception_4a/output_0_split_4
I0403 15:39:18.546052 32619 net.cpp:399] inception_4b/pool -> inception_4b/pool
I0403 15:39:18.546116 32619 net.cpp:141] Setting up inception_4b/pool
I0403 15:39:18.546141 32619 net.cpp:148] Top shape: 24 512 14 14 (2408448)
I0403 15:39:18.546157 32619 net.cpp:156] Memory required for data: 977814816
I0403 15:39:18.546174 32619 layer_factory.hpp:77] Creating layer inception_4b/pool_proj
I0403 15:39:18.546195 32619 net.cpp:91] Creating Layer inception_4b/pool_proj
I0403 15:39:18.546211 32619 net.cpp:425] inception_4b/pool_proj <- inception_4b/pool
I0403 15:39:18.546232 32619 net.cpp:399] inception_4b/pool_proj -> inception_4b/pool_proj
I0403 15:39:18.547431 32619 net.cpp:141] Setting up inception_4b/pool_proj
I0403 15:39:18.547463 32619 net.cpp:148] Top shape: 24 64 14 14 (301056)
I0403 15:39:18.547480 32619 net.cpp:156] Memory required for data: 979019040
I0403 15:39:18.547500 32619 layer_factory.hpp:77] Creating layer inception_4b/relu_pool_proj
I0403 15:39:18.547518 32619 net.cpp:91] Creating Layer inception_4b/relu_pool_proj
I0403 15:39:18.547534 32619 net.cpp:425] inception_4b/relu_pool_proj <- inception_4b/pool_proj
I0403 15:39:18.547552 32619 net.cpp:386] inception_4b/relu_pool_proj -> inception_4b/pool_proj (in-place)
I0403 15:39:18.547735 32619 net.cpp:141] Setting up inception_4b/relu_pool_proj
I0403 15:39:18.547763 32619 net.cpp:148] Top shape: 24 64 14 14 (301056)
I0403 15:39:18.547780 32619 net.cpp:156] Memory required for data: 980223264
I0403 15:39:18.547796 32619 layer_factory.hpp:77] Creating layer inception_4b/output
I0403 15:39:18.547813 32619 net.cpp:91] Creating Layer inception_4b/output
I0403 15:39:18.547829 32619 net.cpp:425] inception_4b/output <- inception_4b/1x1
I0403 15:39:18.547847 32619 net.cpp:425] inception_4b/output <- inception_4b/3x3
I0403 15:39:18.547863 32619 net.cpp:425] inception_4b/output <- inception_4b/5x5
I0403 15:39:18.547881 32619 net.cpp:425] inception_4b/output <- inception_4b/pool_proj
I0403 15:39:18.547900 32619 net.cpp:399] inception_4b/output -> inception_4b/output
I0403 15:39:18.547945 32619 net.cpp:141] Setting up inception_4b/output
I0403 15:39:18.547969 32619 net.cpp:148] Top shape: 24 512 14 14 (2408448)
I0403 15:39:18.547984 32619 net.cpp:156] Memory required for data: 989857056
I0403 15:39:18.548013 32619 layer_factory.hpp:77] Creating layer inception_4b/output_inception_4b/output_0_split
I0403 15:39:18.548035 32619 net.cpp:91] Creating Layer inception_4b/output_inception_4b/output_0_split
I0403 15:39:18.548053 32619 net.cpp:425] inception_4b/output_inception_4b/output_0_split <- inception_4b/output
I0403 15:39:18.548070 32619 net.cpp:399] inception_4b/output_inception_4b/output_0_split -> inception_4b/output_inception_4b/output_0_split_0
I0403 15:39:18.548092 32619 net.cpp:399] inception_4b/output_inception_4b/output_0_split -> inception_4b/output_inception_4b/output_0_split_1
I0403 15:39:18.548115 32619 net.cpp:399] inception_4b/output_inception_4b/output_0_split -> inception_4b/output_inception_4b/output_0_split_2
I0403 15:39:18.548135 32619 net.cpp:399] inception_4b/output_inception_4b/output_0_split -> inception_4b/output_inception_4b/output_0_split_3
I0403 15:39:18.548219 32619 net.cpp:141] Setting up inception_4b/output_inception_4b/output_0_split
I0403 15:39:18.548393 32619 net.cpp:148] Top shape: 24 512 14 14 (2408448)
I0403 15:39:18.548444 32619 net.cpp:148] Top shape: 24 512 14 14 (2408448)
I0403 15:39:18.548465 32619 net.cpp:148] Top shape: 24 512 14 14 (2408448)
I0403 15:39:18.548481 32619 net.cpp:148] Top shape: 24 512 14 14 (2408448)
I0403 15:39:18.548496 32619 net.cpp:156] Memory required for data: 1028392224
I0403 15:39:18.548511 32619 layer_factory.hpp:77] Creating layer inception_4c/1x1
I0403 15:39:18.548537 32619 net.cpp:91] Creating Layer inception_4c/1x1
I0403 15:39:18.548557 32619 net.cpp:425] inception_4c/1x1 <- inception_4b/output_inception_4b/output_0_split_0
I0403 15:39:18.548579 32619 net.cpp:399] inception_4c/1x1 -> inception_4c/1x1
I0403 15:39:18.550014 32619 net.cpp:141] Setting up inception_4c/1x1
I0403 15:39:18.550042 32619 net.cpp:148] Top shape: 24 128 14 14 (602112)
I0403 15:39:18.550060 32619 net.cpp:156] Memory required for data: 1030800672
I0403 15:39:18.550078 32619 layer_factory.hpp:77] Creating layer inception_4c/relu_1x1
I0403 15:39:18.550096 32619 net.cpp:91] Creating Layer inception_4c/relu_1x1
I0403 15:39:18.550113 32619 net.cpp:425] inception_4c/relu_1x1 <- inception_4c/1x1
I0403 15:39:18.550132 32619 net.cpp:386] inception_4c/relu_1x1 -> inception_4c/1x1 (in-place)
I0403 15:39:18.550319 32619 net.cpp:141] Setting up inception_4c/relu_1x1
I0403 15:39:18.550345 32619 net.cpp:148] Top shape: 24 128 14 14 (602112)
I0403 15:39:18.550361 32619 net.cpp:156] Memory required for data: 1033209120
I0403 15:39:18.550376 32619 layer_factory.hpp:77] Creating layer inception_4c/3x3_reduce
I0403 15:39:18.550400 32619 net.cpp:91] Creating Layer inception_4c/3x3_reduce
I0403 15:39:18.550416 32619 net.cpp:425] inception_4c/3x3_reduce <- inception_4b/output_inception_4b/output_0_split_1
I0403 15:39:18.550438 32619 net.cpp:399] inception_4c/3x3_reduce -> inception_4c/3x3_reduce
I0403 15:39:18.552361 32619 net.cpp:141] Setting up inception_4c/3x3_reduce
I0403 15:39:18.552391 32619 net.cpp:148] Top shape: 24 128 14 14 (602112)
I0403 15:39:18.552407 32619 net.cpp:156] Memory required for data: 1035617568
I0403 15:39:18.552426 32619 layer_factory.hpp:77] Creating layer inception_4c/relu_3x3_reduce
I0403 15:39:18.552448 32619 net.cpp:91] Creating Layer inception_4c/relu_3x3_reduce
I0403 15:39:18.552465 32619 net.cpp:425] inception_4c/relu_3x3_reduce <- inception_4c/3x3_reduce
I0403 15:39:18.552482 32619 net.cpp:386] inception_4c/relu_3x3_reduce -> inception_4c/3x3_reduce (in-place)
I0403 15:39:18.552769 32619 net.cpp:141] Setting up inception_4c/relu_3x3_reduce
I0403 15:39:18.552796 32619 net.cpp:148] Top shape: 24 128 14 14 (602112)
I0403 15:39:18.552813 32619 net.cpp:156] Memory required for data: 1038026016
I0403 15:39:18.552829 32619 layer_factory.hpp:77] Creating layer inception_4c/3x3
I0403 15:39:18.552851 32619 net.cpp:91] Creating Layer inception_4c/3x3
I0403 15:39:18.552870 32619 net.cpp:425] inception_4c/3x3 <- inception_4c/3x3_reduce
I0403 15:39:18.552892 32619 net.cpp:399] inception_4c/3x3 -> inception_4c/3x3
I0403 15:39:18.556466 32619 net.cpp:141] Setting up inception_4c/3x3
I0403 15:39:18.556522 32619 net.cpp:148] Top shape: 24 256 14 14 (1204224)
I0403 15:39:18.556545 32619 net.cpp:156] Memory required for data: 1042842912
I0403 15:39:18.556578 32619 layer_factory.hpp:77] Creating layer inception_4c/relu_3x3
I0403 15:39:18.556601 32619 net.cpp:91] Creating Layer inception_4c/relu_3x3
I0403 15:39:18.556618 32619 net.cpp:425] inception_4c/relu_3x3 <- inception_4c/3x3
I0403 15:39:18.556637 32619 net.cpp:386] inception_4c/relu_3x3 -> inception_4c/3x3 (in-place)
I0403 15:39:18.556840 32619 net.cpp:141] Setting up inception_4c/relu_3x3
I0403 15:39:18.556867 32619 net.cpp:148] Top shape: 24 256 14 14 (1204224)
I0403 15:39:18.556882 32619 net.cpp:156] Memory required for data: 1047659808
I0403 15:39:18.556898 32619 layer_factory.hpp:77] Creating layer inception_4c/5x5_reduce
I0403 15:39:18.556923 32619 net.cpp:91] Creating Layer inception_4c/5x5_reduce
I0403 15:39:18.556943 32619 net.cpp:425] inception_4c/5x5_reduce <- inception_4b/output_inception_4b/output_0_split_2
I0403 15:39:18.556963 32619 net.cpp:399] inception_4c/5x5_reduce -> inception_4c/5x5_reduce
I0403 15:39:18.558054 32619 net.cpp:141] Setting up inception_4c/5x5_reduce
I0403 15:39:18.558082 32619 net.cpp:148] Top shape: 24 24 14 14 (112896)
I0403 15:39:18.558099 32619 net.cpp:156] Memory required for data: 1048111392
I0403 15:39:18.558118 32619 layer_factory.hpp:77] Creating layer inception_4c/relu_5x5_reduce
I0403 15:39:18.558140 32619 net.cpp:91] Creating Layer inception_4c/relu_5x5_reduce
I0403 15:39:18.558158 32619 net.cpp:425] inception_4c/relu_5x5_reduce <- inception_4c/5x5_reduce
I0403 15:39:18.558176 32619 net.cpp:386] inception_4c/relu_5x5_reduce -> inception_4c/5x5_reduce (in-place)
I0403 15:39:18.558365 32619 net.cpp:141] Setting up inception_4c/relu_5x5_reduce
I0403 15:39:18.558392 32619 net.cpp:148] Top shape: 24 24 14 14 (112896)
I0403 15:39:18.558406 32619 net.cpp:156] Memory required for data: 1048562976
I0403 15:39:18.558421 32619 layer_factory.hpp:77] Creating layer inception_4c/5x5
I0403 15:39:18.558444 32619 net.cpp:91] Creating Layer inception_4c/5x5
I0403 15:39:18.558464 32619 net.cpp:425] inception_4c/5x5 <- inception_4c/5x5_reduce
I0403 15:39:18.558485 32619 net.cpp:399] inception_4c/5x5 -> inception_4c/5x5
I0403 15:39:18.559725 32619 net.cpp:141] Setting up inception_4c/5x5
I0403 15:39:18.559756 32619 net.cpp:148] Top shape: 24 64 14 14 (301056)
I0403 15:39:18.559772 32619 net.cpp:156] Memory required for data: 1049767200
I0403 15:39:18.559792 32619 layer_factory.hpp:77] Creating layer inception_4c/relu_5x5
I0403 15:39:18.559809 32619 net.cpp:91] Creating Layer inception_4c/relu_5x5
I0403 15:39:18.559825 32619 net.cpp:425] inception_4c/relu_5x5 <- inception_4c/5x5
I0403 15:39:18.559845 32619 net.cpp:386] inception_4c/relu_5x5 -> inception_4c/5x5 (in-place)
I0403 15:39:18.560142 32619 net.cpp:141] Setting up inception_4c/relu_5x5
I0403 15:39:18.560171 32619 net.cpp:148] Top shape: 24 64 14 14 (301056)
I0403 15:39:18.560189 32619 net.cpp:156] Memory required for data: 1050971424
I0403 15:39:18.560204 32619 layer_factory.hpp:77] Creating layer inception_4c/pool
I0403 15:39:18.560222 32619 net.cpp:91] Creating Layer inception_4c/pool
I0403 15:39:18.560238 32619 net.cpp:425] inception_4c/pool <- inception_4b/output_inception_4b/output_0_split_3
I0403 15:39:18.560262 32619 net.cpp:399] inception_4c/pool -> inception_4c/pool
I0403 15:39:18.560330 32619 net.cpp:141] Setting up inception_4c/pool
I0403 15:39:18.560356 32619 net.cpp:148] Top shape: 24 512 14 14 (2408448)
I0403 15:39:18.560374 32619 net.cpp:156] Memory required for data: 1060605216
I0403 15:39:18.560389 32619 layer_factory.hpp:77] Creating layer inception_4c/pool_proj
I0403 15:39:18.560410 32619 net.cpp:91] Creating Layer inception_4c/pool_proj
I0403 15:39:18.560427 32619 net.cpp:425] inception_4c/pool_proj <- inception_4c/pool
I0403 15:39:18.560447 32619 net.cpp:399] inception_4c/pool_proj -> inception_4c/pool_proj
I0403 15:39:18.561666 32619 net.cpp:141] Setting up inception_4c/pool_proj
I0403 15:39:18.561699 32619 net.cpp:148] Top shape: 24 64 14 14 (301056)
I0403 15:39:18.561729 32619 net.cpp:156] Memory required for data: 1061809440
I0403 15:39:18.561748 32619 layer_factory.hpp:77] Creating layer inception_4c/relu_pool_proj
I0403 15:39:18.561767 32619 net.cpp:91] Creating Layer inception_4c/relu_pool_proj
I0403 15:39:18.561784 32619 net.cpp:425] inception_4c/relu_pool_proj <- inception_4c/pool_proj
I0403 15:39:18.561802 32619 net.cpp:386] inception_4c/relu_pool_proj -> inception_4c/pool_proj (in-place)
I0403 15:39:18.561988 32619 net.cpp:141] Setting up inception_4c/relu_pool_proj
I0403 15:39:18.562016 32619 net.cpp:148] Top shape: 24 64 14 14 (301056)
I0403 15:39:18.562031 32619 net.cpp:156] Memory required for data: 1063013664
I0403 15:39:18.562047 32619 layer_factory.hpp:77] Creating layer inception_4c/output
I0403 15:39:18.562064 32619 net.cpp:91] Creating Layer inception_4c/output
I0403 15:39:18.562079 32619 net.cpp:425] inception_4c/output <- inception_4c/1x1
I0403 15:39:18.562096 32619 net.cpp:425] inception_4c/output <- inception_4c/3x3
I0403 15:39:18.562113 32619 net.cpp:425] inception_4c/output <- inception_4c/5x5
I0403 15:39:18.562129 32619 net.cpp:425] inception_4c/output <- inception_4c/pool_proj
I0403 15:39:18.562147 32619 net.cpp:399] inception_4c/output -> inception_4c/output
I0403 15:39:18.562193 32619 net.cpp:141] Setting up inception_4c/output
I0403 15:39:18.562216 32619 net.cpp:148] Top shape: 24 512 14 14 (2408448)
I0403 15:39:18.562230 32619 net.cpp:156] Memory required for data: 1072647456
I0403 15:39:18.562245 32619 layer_factory.hpp:77] Creating layer inception_4c/output_inception_4c/output_0_split
I0403 15:39:18.562269 32619 net.cpp:91] Creating Layer inception_4c/output_inception_4c/output_0_split
I0403 15:39:18.562286 32619 net.cpp:425] inception_4c/output_inception_4c/output_0_split <- inception_4c/output
I0403 15:39:18.562304 32619 net.cpp:399] inception_4c/output_inception_4c/output_0_split -> inception_4c/output_inception_4c/output_0_split_0
I0403 15:39:18.562325 32619 net.cpp:399] inception_4c/output_inception_4c/output_0_split -> inception_4c/output_inception_4c/output_0_split_1
I0403 15:39:18.562346 32619 net.cpp:399] inception_4c/output_inception_4c/output_0_split -> inception_4c/output_inception_4c/output_0_split_2
I0403 15:39:18.562367 32619 net.cpp:399] inception_4c/output_inception_4c/output_0_split -> inception_4c/output_inception_4c/output_0_split_3
I0403 15:39:18.562453 32619 net.cpp:141] Setting up inception_4c/output_inception_4c/output_0_split
I0403 15:39:18.562476 32619 net.cpp:148] Top shape: 24 512 14 14 (2408448)
I0403 15:39:18.562492 32619 net.cpp:148] Top shape: 24 512 14 14 (2408448)
I0403 15:39:18.562508 32619 net.cpp:148] Top shape: 24 512 14 14 (2408448)
I0403 15:39:18.562523 32619 net.cpp:148] Top shape: 24 512 14 14 (2408448)
I0403 15:39:18.562537 32619 net.cpp:156] Memory required for data: 1111182624
I0403 15:39:18.562552 32619 layer_factory.hpp:77] Creating layer inception_4d/1x1
I0403 15:39:18.562575 32619 net.cpp:91] Creating Layer inception_4d/1x1
I0403 15:39:18.562593 32619 net.cpp:425] inception_4d/1x1 <- inception_4c/output_inception_4c/output_0_split_0
I0403 15:39:18.562613 32619 net.cpp:399] inception_4d/1x1 -> inception_4d/1x1
I0403 15:39:18.563998 32619 net.cpp:141] Setting up inception_4d/1x1
I0403 15:39:18.564026 32619 net.cpp:148] Top shape: 24 112 14 14 (526848)
I0403 15:39:18.564041 32619 net.cpp:156] Memory required for data: 1113290016
I0403 15:39:18.564060 32619 layer_factory.hpp:77] Creating layer inception_4d/relu_1x1
I0403 15:39:18.564081 32619 net.cpp:91] Creating Layer inception_4d/relu_1x1
I0403 15:39:18.564100 32619 net.cpp:425] inception_4d/relu_1x1 <- inception_4d/1x1
I0403 15:39:18.564116 32619 net.cpp:386] inception_4d/relu_1x1 -> inception_4d/1x1 (in-place)
I0403 15:39:18.564316 32619 net.cpp:141] Setting up inception_4d/relu_1x1
I0403 15:39:18.564342 32619 net.cpp:148] Top shape: 24 112 14 14 (526848)
I0403 15:39:18.564357 32619 net.cpp:156] Memory required for data: 1115397408
I0403 15:39:18.564371 32619 layer_factory.hpp:77] Creating layer inception_4d/3x3_reduce
I0403 15:39:18.564409 32619 net.cpp:91] Creating Layer inception_4d/3x3_reduce
I0403 15:39:18.564429 32619 net.cpp:425] inception_4d/3x3_reduce <- inception_4c/output_inception_4c/output_0_split_1
I0403 15:39:18.564447 32619 net.cpp:399] inception_4d/3x3_reduce -> inception_4d/3x3_reduce
I0403 15:39:18.565955 32619 net.cpp:141] Setting up inception_4d/3x3_reduce
I0403 15:39:18.565984 32619 net.cpp:148] Top shape: 24 144 14 14 (677376)
I0403 15:39:18.565999 32619 net.cpp:156] Memory required for data: 1118106912
I0403 15:39:18.566017 32619 layer_factory.hpp:77] Creating layer inception_4d/relu_3x3_reduce
I0403 15:39:18.566035 32619 net.cpp:91] Creating Layer inception_4d/relu_3x3_reduce
I0403 15:39:18.566051 32619 net.cpp:425] inception_4d/relu_3x3_reduce <- inception_4d/3x3_reduce
I0403 15:39:18.566071 32619 net.cpp:386] inception_4d/relu_3x3_reduce -> inception_4d/3x3_reduce (in-place)
I0403 15:39:18.566367 32619 net.cpp:141] Setting up inception_4d/relu_3x3_reduce
I0403 15:39:18.566393 32619 net.cpp:148] Top shape: 24 144 14 14 (677376)
I0403 15:39:18.566408 32619 net.cpp:156] Memory required for data: 1120816416
I0403 15:39:18.566424 32619 layer_factory.hpp:77] Creating layer inception_4d/3x3
I0403 15:39:18.566447 32619 net.cpp:91] Creating Layer inception_4d/3x3
I0403 15:39:18.566464 32619 net.cpp:425] inception_4d/3x3 <- inception_4d/3x3_reduce
I0403 15:39:18.566486 32619 net.cpp:399] inception_4d/3x3 -> inception_4d/3x3
I0403 15:39:18.570720 32619 net.cpp:141] Setting up inception_4d/3x3
I0403 15:39:18.570749 32619 net.cpp:148] Top shape: 24 288 14 14 (1354752)
I0403 15:39:18.570765 32619 net.cpp:156] Memory required for data: 1126235424
I0403 15:39:18.570785 32619 layer_factory.hpp:77] Creating layer inception_4d/relu_3x3
I0403 15:39:18.570806 32619 net.cpp:91] Creating Layer inception_4d/relu_3x3
I0403 15:39:18.570822 32619 net.cpp:425] inception_4d/relu_3x3 <- inception_4d/3x3
I0403 15:39:18.570839 32619 net.cpp:386] inception_4d/relu_3x3 -> inception_4d/3x3 (in-place)
I0403 15:39:18.571023 32619 net.cpp:141] Setting up inception_4d/relu_3x3
I0403 15:39:18.571050 32619 net.cpp:148] Top shape: 24 288 14 14 (1354752)
I0403 15:39:18.571066 32619 net.cpp:156] Memory required for data: 1131654432
I0403 15:39:18.571081 32619 layer_factory.hpp:77] Creating layer inception_4d/5x5_reduce
I0403 15:39:18.571104 32619 net.cpp:91] Creating Layer inception_4d/5x5_reduce
I0403 15:39:18.571121 32619 net.cpp:425] inception_4d/5x5_reduce <- inception_4c/output_inception_4c/output_0_split_2
I0403 15:39:18.571141 32619 net.cpp:399] inception_4d/5x5_reduce -> inception_4d/5x5_reduce
I0403 15:39:18.572295 32619 net.cpp:141] Setting up inception_4d/5x5_reduce
I0403 15:39:18.572324 32619 net.cpp:148] Top shape: 24 32 14 14 (150528)
I0403 15:39:18.572340 32619 net.cpp:156] Memory required for data: 1132256544
I0403 15:39:18.572358 32619 layer_factory.hpp:77] Creating layer inception_4d/relu_5x5_reduce
I0403 15:39:18.572381 32619 net.cpp:91] Creating Layer inception_4d/relu_5x5_reduce
I0403 15:39:18.572397 32619 net.cpp:425] inception_4d/relu_5x5_reduce <- inception_4d/5x5_reduce
I0403 15:39:18.572414 32619 net.cpp:386] inception_4d/relu_5x5_reduce -> inception_4d/5x5_reduce (in-place)
I0403 15:39:18.572602 32619 net.cpp:141] Setting up inception_4d/relu_5x5_reduce
I0403 15:39:18.572628 32619 net.cpp:148] Top shape: 24 32 14 14 (150528)
I0403 15:39:18.572641 32619 net.cpp:156] Memory required for data: 1132858656
I0403 15:39:18.572656 32619 layer_factory.hpp:77] Creating layer inception_4d/5x5
I0403 15:39:18.572681 32619 net.cpp:91] Creating Layer inception_4d/5x5
I0403 15:39:18.572698 32619 net.cpp:425] inception_4d/5x5 <- inception_4d/5x5_reduce
I0403 15:39:18.572717 32619 net.cpp:399] inception_4d/5x5 -> inception_4d/5x5
I0403 15:39:18.574183 32619 net.cpp:141] Setting up inception_4d/5x5
I0403 15:39:18.574213 32619 net.cpp:148] Top shape: 24 64 14 14 (301056)
I0403 15:39:18.574230 32619 net.cpp:156] Memory required for data: 1134062880
I0403 15:39:18.574250 32619 layer_factory.hpp:77] Creating layer inception_4d/relu_5x5
I0403 15:39:18.574295 32619 net.cpp:91] Creating Layer inception_4d/relu_5x5
I0403 15:39:18.574311 32619 net.cpp:425] inception_4d/relu_5x5 <- inception_4d/5x5
I0403 15:39:18.574331 32619 net.cpp:386] inception_4d/relu_5x5 -> inception_4d/5x5 (in-place)
I0403 15:39:18.574637 32619 net.cpp:141] Setting up inception_4d/relu_5x5
I0403 15:39:18.574666 32619 net.cpp:148] Top shape: 24 64 14 14 (301056)
I0403 15:39:18.574682 32619 net.cpp:156] Memory required for data: 1135267104
I0403 15:39:18.574698 32619 layer_factory.hpp:77] Creating layer inception_4d/pool
I0403 15:39:18.574715 32619 net.cpp:91] Creating Layer inception_4d/pool
I0403 15:39:18.574731 32619 net.cpp:425] inception_4d/pool <- inception_4c/output_inception_4c/output_0_split_3
I0403 15:39:18.574753 32619 net.cpp:399] inception_4d/pool -> inception_4d/pool
I0403 15:39:18.574818 32619 net.cpp:141] Setting up inception_4d/pool
I0403 15:39:18.574842 32619 net.cpp:148] Top shape: 24 512 14 14 (2408448)
I0403 15:39:18.574857 32619 net.cpp:156] Memory required for data: 1144900896
I0403 15:39:18.574872 32619 layer_factory.hpp:77] Creating layer inception_4d/pool_proj
I0403 15:39:18.574894 32619 net.cpp:91] Creating Layer inception_4d/pool_proj
I0403 15:39:18.574913 32619 net.cpp:425] inception_4d/pool_proj <- inception_4d/pool
I0403 15:39:18.574934 32619 net.cpp:399] inception_4d/pool_proj -> inception_4d/pool_proj
I0403 15:39:18.576704 32619 net.cpp:141] Setting up inception_4d/pool_proj
I0403 15:39:18.576735 32619 net.cpp:148] Top shape: 24 64 14 14 (301056)
I0403 15:39:18.576751 32619 net.cpp:156] Memory required for data: 1146105120
I0403 15:39:18.576771 32619 layer_factory.hpp:77] Creating layer inception_4d/relu_pool_proj
I0403 15:39:18.576792 32619 net.cpp:91] Creating Layer inception_4d/relu_pool_proj
I0403 15:39:18.576822 32619 net.cpp:425] inception_4d/relu_pool_proj <- inception_4d/pool_proj
I0403 15:39:18.576838 32619 net.cpp:386] inception_4d/relu_pool_proj -> inception_4d/pool_proj (in-place)
I0403 15:39:18.577023 32619 net.cpp:141] Setting up inception_4d/relu_pool_proj
I0403 15:39:18.577051 32619 net.cpp:148] Top shape: 24 64 14 14 (301056)
I0403 15:39:18.577067 32619 net.cpp:156] Memory required for data: 1147309344
I0403 15:39:18.577082 32619 layer_factory.hpp:77] Creating layer inception_4d/output
I0403 15:39:18.577100 32619 net.cpp:91] Creating Layer inception_4d/output
I0403 15:39:18.577116 32619 net.cpp:425] inception_4d/output <- inception_4d/1x1
I0403 15:39:18.577133 32619 net.cpp:425] inception_4d/output <- inception_4d/3x3
I0403 15:39:18.577149 32619 net.cpp:425] inception_4d/output <- inception_4d/5x5
I0403 15:39:18.577164 32619 net.cpp:425] inception_4d/output <- inception_4d/pool_proj
I0403 15:39:18.577181 32619 net.cpp:399] inception_4d/output -> inception_4d/output
I0403 15:39:18.577229 32619 net.cpp:141] Setting up inception_4d/output
I0403 15:39:18.577257 32619 net.cpp:148] Top shape: 24 528 14 14 (2483712)
I0403 15:39:18.577273 32619 net.cpp:156] Memory required for data: 1157244192
I0403 15:39:18.577289 32619 layer_factory.hpp:77] Creating layer inception_4d/output_inception_4d/output_0_split
I0403 15:39:18.577309 32619 net.cpp:91] Creating Layer inception_4d/output_inception_4d/output_0_split
I0403 15:39:18.577327 32619 net.cpp:425] inception_4d/output_inception_4d/output_0_split <- inception_4d/output
I0403 15:39:18.577344 32619 net.cpp:399] inception_4d/output_inception_4d/output_0_split -> inception_4d/output_inception_4d/output_0_split_0
I0403 15:39:18.577364 32619 net.cpp:399] inception_4d/output_inception_4d/output_0_split -> inception_4d/output_inception_4d/output_0_split_1
I0403 15:39:18.577385 32619 net.cpp:399] inception_4d/output_inception_4d/output_0_split -> inception_4d/output_inception_4d/output_0_split_2
I0403 15:39:18.577406 32619 net.cpp:399] inception_4d/output_inception_4d/output_0_split -> inception_4d/output_inception_4d/output_0_split_3
I0403 15:39:18.577427 32619 net.cpp:399] inception_4d/output_inception_4d/output_0_split -> inception_4d/output_inception_4d/output_0_split_4
I0403 15:39:18.577532 32619 net.cpp:141] Setting up inception_4d/output_inception_4d/output_0_split
I0403 15:39:18.577569 32619 net.cpp:148] Top shape: 24 528 14 14 (2483712)
I0403 15:39:18.577585 32619 net.cpp:148] Top shape: 24 528 14 14 (2483712)
I0403 15:39:18.577601 32619 net.cpp:148] Top shape: 24 528 14 14 (2483712)
I0403 15:39:18.577618 32619 net.cpp:148] Top shape: 24 528 14 14 (2483712)
I0403 15:39:18.577633 32619 net.cpp:148] Top shape: 24 528 14 14 (2483712)
I0403 15:39:18.577647 32619 net.cpp:156] Memory required for data: 1206918432
I0403 15:39:18.577662 32619 layer_factory.hpp:77] Creating layer loss2/ave_pool
I0403 15:39:18.577682 32619 net.cpp:91] Creating Layer loss2/ave_pool
I0403 15:39:18.577699 32619 net.cpp:425] loss2/ave_pool <- inception_4d/output_inception_4d/output_0_split_0
I0403 15:39:18.577718 32619 net.cpp:399] loss2/ave_pool -> loss2/ave_pool
I0403 15:39:18.578029 32619 net.cpp:141] Setting up loss2/ave_pool
I0403 15:39:18.578055 32619 net.cpp:148] Top shape: 24 528 4 4 (202752)
I0403 15:39:18.578070 32619 net.cpp:156] Memory required for data: 1207729440
I0403 15:39:18.578086 32619 layer_factory.hpp:77] Creating layer loss2/conv
I0403 15:39:18.578109 32619 net.cpp:91] Creating Layer loss2/conv
I0403 15:39:18.578127 32619 net.cpp:425] loss2/conv <- loss2/ave_pool
I0403 15:39:18.578148 32619 net.cpp:399] loss2/conv -> loss2/conv
I0403 15:39:18.580026 32619 net.cpp:141] Setting up loss2/conv
I0403 15:39:18.580057 32619 net.cpp:148] Top shape: 24 128 4 4 (49152)
I0403 15:39:18.580075 32619 net.cpp:156] Memory required for data: 1207926048
I0403 15:39:18.580093 32619 layer_factory.hpp:77] Creating layer loss2/relu_conv
I0403 15:39:18.580112 32619 net.cpp:91] Creating Layer loss2/relu_conv
I0403 15:39:18.580130 32619 net.cpp:425] loss2/relu_conv <- loss2/conv
I0403 15:39:18.580150 32619 net.cpp:386] loss2/relu_conv -> loss2/conv (in-place)
I0403 15:39:18.580440 32619 net.cpp:141] Setting up loss2/relu_conv
I0403 15:39:18.580468 32619 net.cpp:148] Top shape: 24 128 4 4 (49152)
I0403 15:39:18.580485 32619 net.cpp:156] Memory required for data: 1208122656
I0403 15:39:18.580500 32619 layer_factory.hpp:77] Creating layer loss2/fc
I0403 15:39:18.580520 32619 net.cpp:91] Creating Layer loss2/fc
I0403 15:39:18.580538 32619 net.cpp:425] loss2/fc <- loss2/conv
I0403 15:39:18.580559 32619 net.cpp:399] loss2/fc -> loss2/fc
I0403 15:39:18.598417 32619 net.cpp:141] Setting up loss2/fc
I0403 15:39:18.598454 32619 net.cpp:148] Top shape: 24 1024 (24576)
I0403 15:39:18.598470 32619 net.cpp:156] Memory required for data: 1208220960
I0403 15:39:18.598489 32619 layer_factory.hpp:77] Creating layer loss2/relu_fc
I0403 15:39:18.598507 32619 net.cpp:91] Creating Layer loss2/relu_fc
I0403 15:39:18.598523 32619 net.cpp:425] loss2/relu_fc <- loss2/fc
I0403 15:39:18.598541 32619 net.cpp:386] loss2/relu_fc -> loss2/fc (in-place)
I0403 15:39:18.598842 32619 net.cpp:141] Setting up loss2/relu_fc
I0403 15:39:18.598868 32619 net.cpp:148] Top shape: 24 1024 (24576)
I0403 15:39:18.598883 32619 net.cpp:156] Memory required for data: 1208319264
I0403 15:39:18.598898 32619 layer_factory.hpp:77] Creating layer loss2/drop_fc
I0403 15:39:18.598919 32619 net.cpp:91] Creating Layer loss2/drop_fc
I0403 15:39:18.598937 32619 net.cpp:425] loss2/drop_fc <- loss2/fc
I0403 15:39:18.598954 32619 net.cpp:386] loss2/drop_fc -> loss2/fc (in-place)
I0403 15:39:18.599004 32619 net.cpp:141] Setting up loss2/drop_fc
I0403 15:39:18.599028 32619 net.cpp:148] Top shape: 24 1024 (24576)
I0403 15:39:18.599043 32619 net.cpp:156] Memory required for data: 1208417568
I0403 15:39:18.599058 32619 layer_factory.hpp:77] Creating layer loss2/classifier_plantvillage
I0403 15:39:18.599078 32619 net.cpp:91] Creating Layer loss2/classifier_plantvillage
I0403 15:39:18.599094 32619 net.cpp:425] loss2/classifier_plantvillage <- loss2/fc
I0403 15:39:18.599112 32619 net.cpp:399] loss2/classifier_plantvillage -> loss2/classifier_plantvillage
I0403 15:39:18.599531 32619 net.cpp:141] Setting up loss2/classifier_plantvillage
I0403 15:39:18.599557 32619 net.cpp:148] Top shape: 24 38 (912)
I0403 15:39:18.599573 32619 net.cpp:156] Memory required for data: 1208421216
I0403 15:39:18.599611 32619 layer_factory.hpp:77] Creating layer loss2/classifier_plantvillage_loss2/classifier_plantvillage_0_split
I0403 15:39:18.599629 32619 net.cpp:91] Creating Layer loss2/classifier_plantvillage_loss2/classifier_plantvillage_0_split
I0403 15:39:18.599647 32619 net.cpp:425] loss2/classifier_plantvillage_loss2/classifier_plantvillage_0_split <- loss2/classifier_plantvillage
I0403 15:39:18.599668 32619 net.cpp:399] loss2/classifier_plantvillage_loss2/classifier_plantvillage_0_split -> loss2/classifier_plantvillage_loss2/classifier_plantvillage_0_split_0
I0403 15:39:18.599689 32619 net.cpp:399] loss2/classifier_plantvillage_loss2/classifier_plantvillage_0_split -> loss2/classifier_plantvillage_loss2/classifier_plantvillage_0_split_1
I0403 15:39:18.599711 32619 net.cpp:399] loss2/classifier_plantvillage_loss2/classifier_plantvillage_0_split -> loss2/classifier_plantvillage_loss2/classifier_plantvillage_0_split_2
I0403 15:39:18.599789 32619 net.cpp:141] Setting up loss2/classifier_plantvillage_loss2/classifier_plantvillage_0_split
I0403 15:39:18.599828 32619 net.cpp:148] Top shape: 24 38 (912)
I0403 15:39:18.599844 32619 net.cpp:148] Top shape: 24 38 (912)
I0403 15:39:18.599860 32619 net.cpp:148] Top shape: 24 38 (912)
I0403 15:39:18.599874 32619 net.cpp:156] Memory required for data: 1208432160
I0403 15:39:18.599889 32619 layer_factory.hpp:77] Creating layer inception_4e/1x1
I0403 15:39:18.599910 32619 net.cpp:91] Creating Layer inception_4e/1x1
I0403 15:39:18.599928 32619 net.cpp:425] inception_4e/1x1 <- inception_4d/output_inception_4d/output_0_split_1
I0403 15:39:18.599947 32619 net.cpp:399] inception_4e/1x1 -> inception_4e/1x1
I0403 15:39:18.601774 32619 net.cpp:141] Setting up inception_4e/1x1
I0403 15:39:18.601805 32619 net.cpp:148] Top shape: 24 256 14 14 (1204224)
I0403 15:39:18.601821 32619 net.cpp:156] Memory required for data: 1213249056
I0403 15:39:18.601840 32619 layer_factory.hpp:77] Creating layer inception_4e/relu_1x1
I0403 15:39:18.601860 32619 net.cpp:91] Creating Layer inception_4e/relu_1x1
I0403 15:39:18.601874 32619 net.cpp:425] inception_4e/relu_1x1 <- inception_4e/1x1
I0403 15:39:18.601894 32619 net.cpp:386] inception_4e/relu_1x1 -> inception_4e/1x1 (in-place)
I0403 15:39:18.602192 32619 net.cpp:141] Setting up inception_4e/relu_1x1
I0403 15:39:18.602221 32619 net.cpp:148] Top shape: 24 256 14 14 (1204224)
I0403 15:39:18.602236 32619 net.cpp:156] Memory required for data: 1218065952
I0403 15:39:18.602252 32619 layer_factory.hpp:77] Creating layer inception_4e/3x3_reduce
I0403 15:39:18.602277 32619 net.cpp:91] Creating Layer inception_4e/3x3_reduce
I0403 15:39:18.602295 32619 net.cpp:425] inception_4e/3x3_reduce <- inception_4d/output_inception_4d/output_0_split_2
I0403 15:39:18.602314 32619 net.cpp:399] inception_4e/3x3_reduce -> inception_4e/3x3_reduce
I0403 15:39:18.604440 32619 net.cpp:141] Setting up inception_4e/3x3_reduce
I0403 15:39:18.604472 32619 net.cpp:148] Top shape: 24 160 14 14 (752640)
I0403 15:39:18.604490 32619 net.cpp:156] Memory required for data: 1221076512
I0403 15:39:18.604508 32619 layer_factory.hpp:77] Creating layer inception_4e/relu_3x3_reduce
I0403 15:39:18.604526 32619 net.cpp:91] Creating Layer inception_4e/relu_3x3_reduce
I0403 15:39:18.604542 32619 net.cpp:425] inception_4e/relu_3x3_reduce <- inception_4e/3x3_reduce
I0403 15:39:18.604559 32619 net.cpp:386] inception_4e/relu_3x3_reduce -> inception_4e/3x3_reduce (in-place)
I0403 15:39:18.604749 32619 net.cpp:141] Setting up inception_4e/relu_3x3_reduce
I0403 15:39:18.604775 32619 net.cpp:148] Top shape: 24 160 14 14 (752640)
I0403 15:39:18.604789 32619 net.cpp:156] Memory required for data: 1224087072
I0403 15:39:18.604804 32619 layer_factory.hpp:77] Creating layer inception_4e/3x3
I0403 15:39:18.604827 32619 net.cpp:91] Creating Layer inception_4e/3x3
I0403 15:39:18.604845 32619 net.cpp:425] inception_4e/3x3 <- inception_4e/3x3_reduce
I0403 15:39:18.604866 32619 net.cpp:399] inception_4e/3x3 -> inception_4e/3x3
I0403 15:39:18.609894 32619 net.cpp:141] Setting up inception_4e/3x3
I0403 15:39:18.609935 32619 net.cpp:148] Top shape: 24 320 14 14 (1505280)
I0403 15:39:18.609951 32619 net.cpp:156] Memory required for data: 1230108192
I0403 15:39:18.609971 32619 layer_factory.hpp:77] Creating layer inception_4e/relu_3x3
I0403 15:39:18.609988 32619 net.cpp:91] Creating Layer inception_4e/relu_3x3
I0403 15:39:18.610008 32619 net.cpp:425] inception_4e/relu_3x3 <- inception_4e/3x3
I0403 15:39:18.610026 32619 net.cpp:386] inception_4e/relu_3x3 -> inception_4e/3x3 (in-place)
I0403 15:39:18.610345 32619 net.cpp:141] Setting up inception_4e/relu_3x3
I0403 15:39:18.610373 32619 net.cpp:148] Top shape: 24 320 14 14 (1505280)
I0403 15:39:18.610388 32619 net.cpp:156] Memory required for data: 1236129312
I0403 15:39:18.610404 32619 layer_factory.hpp:77] Creating layer inception_4e/5x5_reduce
I0403 15:39:18.610427 32619 net.cpp:91] Creating Layer inception_4e/5x5_reduce
I0403 15:39:18.610446 32619 net.cpp:425] inception_4e/5x5_reduce <- inception_4d/output_inception_4d/output_0_split_3
I0403 15:39:18.610468 32619 net.cpp:399] inception_4e/5x5_reduce -> inception_4e/5x5_reduce
I0403 15:39:18.611608 32619 net.cpp:141] Setting up inception_4e/5x5_reduce
I0403 15:39:18.611639 32619 net.cpp:148] Top shape: 24 32 14 14 (150528)
I0403 15:39:18.611654 32619 net.cpp:156] Memory required for data: 1236731424
I0403 15:39:18.611673 32619 layer_factory.hpp:77] Creating layer inception_4e/relu_5x5_reduce
I0403 15:39:18.611691 32619 net.cpp:91] Creating Layer inception_4e/relu_5x5_reduce
I0403 15:39:18.611707 32619 net.cpp:425] inception_4e/relu_5x5_reduce <- inception_4e/5x5_reduce
I0403 15:39:18.611727 32619 net.cpp:386] inception_4e/relu_5x5_reduce -> inception_4e/5x5_reduce (in-place)
I0403 15:39:18.612030 32619 net.cpp:141] Setting up inception_4e/relu_5x5_reduce
I0403 15:39:18.612058 32619 net.cpp:148] Top shape: 24 32 14 14 (150528)
I0403 15:39:18.612074 32619 net.cpp:156] Memory required for data: 1237333536
I0403 15:39:18.612089 32619 layer_factory.hpp:77] Creating layer inception_4e/5x5
I0403 15:39:18.612128 32619 net.cpp:91] Creating Layer inception_4e/5x5
I0403 15:39:18.612148 32619 net.cpp:425] inception_4e/5x5 <- inception_4e/5x5_reduce
I0403 15:39:18.612166 32619 net.cpp:399] inception_4e/5x5 -> inception_4e/5x5
I0403 15:39:18.613998 32619 net.cpp:141] Setting up inception_4e/5x5
I0403 15:39:18.614027 32619 net.cpp:148] Top shape: 24 128 14 14 (602112)
I0403 15:39:18.614042 32619 net.cpp:156] Memory required for data: 1239741984
I0403 15:39:18.614061 32619 layer_factory.hpp:77] Creating layer inception_4e/relu_5x5
I0403 15:39:18.614081 32619 net.cpp:91] Creating Layer inception_4e/relu_5x5
I0403 15:39:18.614099 32619 net.cpp:425] inception_4e/relu_5x5 <- inception_4e/5x5
I0403 15:39:18.614115 32619 net.cpp:386] inception_4e/relu_5x5 -> inception_4e/5x5 (in-place)
I0403 15:39:18.614327 32619 net.cpp:141] Setting up inception_4e/relu_5x5
I0403 15:39:18.614354 32619 net.cpp:148] Top shape: 24 128 14 14 (602112)
I0403 15:39:18.614370 32619 net.cpp:156] Memory required for data: 1242150432
I0403 15:39:18.614385 32619 layer_factory.hpp:77] Creating layer inception_4e/pool
I0403 15:39:18.614403 32619 net.cpp:91] Creating Layer inception_4e/pool
I0403 15:39:18.614419 32619 net.cpp:425] inception_4e/pool <- inception_4d/output_inception_4d/output_0_split_4
I0403 15:39:18.614439 32619 net.cpp:399] inception_4e/pool -> inception_4e/pool
I0403 15:39:18.614511 32619 net.cpp:141] Setting up inception_4e/pool
I0403 15:39:18.614534 32619 net.cpp:148] Top shape: 24 528 14 14 (2483712)
I0403 15:39:18.614558 32619 net.cpp:156] Memory required for data: 1252085280
I0403 15:39:18.614573 32619 layer_factory.hpp:77] Creating layer inception_4e/pool_proj
I0403 15:39:18.614596 32619 net.cpp:91] Creating Layer inception_4e/pool_proj
I0403 15:39:18.614614 32619 net.cpp:425] inception_4e/pool_proj <- inception_4e/pool
I0403 15:39:18.614632 32619 net.cpp:399] inception_4e/pool_proj -> inception_4e/pool_proj
I0403 15:39:18.616137 32619 net.cpp:141] Setting up inception_4e/pool_proj
I0403 15:39:18.616165 32619 net.cpp:148] Top shape: 24 128 14 14 (602112)
I0403 15:39:18.616195 32619 net.cpp:156] Memory required for data: 1254493728
I0403 15:39:18.616214 32619 layer_factory.hpp:77] Creating layer inception_4e/relu_pool_proj
I0403 15:39:18.616235 32619 net.cpp:91] Creating Layer inception_4e/relu_pool_proj
I0403 15:39:18.616251 32619 net.cpp:425] inception_4e/relu_pool_proj <- inception_4e/pool_proj
I0403 15:39:18.616273 32619 net.cpp:386] inception_4e/relu_pool_proj -> inception_4e/pool_proj (in-place)
I0403 15:39:18.616571 32619 net.cpp:141] Setting up inception_4e/relu_pool_proj
I0403 15:39:18.616598 32619 net.cpp:148] Top shape: 24 128 14 14 (602112)
I0403 15:39:18.616612 32619 net.cpp:156] Memory required for data: 1256902176
I0403 15:39:18.616627 32619 layer_factory.hpp:77] Creating layer inception_4e/output
I0403 15:39:18.616647 32619 net.cpp:91] Creating Layer inception_4e/output
I0403 15:39:18.616663 32619 net.cpp:425] inception_4e/output <- inception_4e/1x1
I0403 15:39:18.616680 32619 net.cpp:425] inception_4e/output <- inception_4e/3x3
I0403 15:39:18.616696 32619 net.cpp:425] inception_4e/output <- inception_4e/5x5
I0403 15:39:18.616714 32619 net.cpp:425] inception_4e/output <- inception_4e/pool_proj
I0403 15:39:18.616730 32619 net.cpp:399] inception_4e/output -> inception_4e/output
I0403 15:39:18.616781 32619 net.cpp:141] Setting up inception_4e/output
I0403 15:39:18.616804 32619 net.cpp:148] Top shape: 24 832 14 14 (3913728)
I0403 15:39:18.616819 32619 net.cpp:156] Memory required for data: 1272557088
I0403 15:39:18.616834 32619 layer_factory.hpp:77] Creating layer pool4/3x3_s2
I0403 15:39:18.616852 32619 net.cpp:91] Creating Layer pool4/3x3_s2
I0403 15:39:18.616868 32619 net.cpp:425] pool4/3x3_s2 <- inception_4e/output
I0403 15:39:18.616888 32619 net.cpp:399] pool4/3x3_s2 -> pool4/3x3_s2
I0403 15:39:18.616955 32619 net.cpp:141] Setting up pool4/3x3_s2
I0403 15:39:18.616978 32619 net.cpp:148] Top shape: 24 832 7 7 (978432)
I0403 15:39:18.616992 32619 net.cpp:156] Memory required for data: 1276470816
I0403 15:39:18.617007 32619 layer_factory.hpp:77] Creating layer pool4/3x3_s2_pool4/3x3_s2_0_split
I0403 15:39:18.617027 32619 net.cpp:91] Creating Layer pool4/3x3_s2_pool4/3x3_s2_0_split
I0403 15:39:18.617044 32619 net.cpp:425] pool4/3x3_s2_pool4/3x3_s2_0_split <- pool4/3x3_s2
I0403 15:39:18.617061 32619 net.cpp:399] pool4/3x3_s2_pool4/3x3_s2_0_split -> pool4/3x3_s2_pool4/3x3_s2_0_split_0
I0403 15:39:18.617084 32619 net.cpp:399] pool4/3x3_s2_pool4/3x3_s2_0_split -> pool4/3x3_s2_pool4/3x3_s2_0_split_1
I0403 15:39:18.617105 32619 net.cpp:399] pool4/3x3_s2_pool4/3x3_s2_0_split -> pool4/3x3_s2_pool4/3x3_s2_0_split_2
I0403 15:39:18.617125 32619 net.cpp:399] pool4/3x3_s2_pool4/3x3_s2_0_split -> pool4/3x3_s2_pool4/3x3_s2_0_split_3
I0403 15:39:18.617213 32619 net.cpp:141] Setting up pool4/3x3_s2_pool4/3x3_s2_0_split
I0403 15:39:18.617236 32619 net.cpp:148] Top shape: 24 832 7 7 (978432)
I0403 15:39:18.617256 32619 net.cpp:148] Top shape: 24 832 7 7 (978432)
I0403 15:39:18.617274 32619 net.cpp:148] Top shape: 24 832 7 7 (978432)
I0403 15:39:18.617290 32619 net.cpp:148] Top shape: 24 832 7 7 (978432)
I0403 15:39:18.617305 32619 net.cpp:156] Memory required for data: 1292125728
I0403 15:39:18.617319 32619 layer_factory.hpp:77] Creating layer inception_5a/1x1
I0403 15:39:18.617341 32619 net.cpp:91] Creating Layer inception_5a/1x1
I0403 15:39:18.617359 32619 net.cpp:425] inception_5a/1x1 <- pool4/3x3_s2_pool4/3x3_s2_0_split_0
I0403 15:39:18.617379 32619 net.cpp:399] inception_5a/1x1 -> inception_5a/1x1
I0403 15:39:18.620228 32619 net.cpp:141] Setting up inception_5a/1x1
I0403 15:39:18.620263 32619 net.cpp:148] Top shape: 24 256 7 7 (301056)
I0403 15:39:18.620281 32619 net.cpp:156] Memory required for data: 1293329952
I0403 15:39:18.620301 32619 layer_factory.hpp:77] Creating layer inception_5a/relu_1x1
I0403 15:39:18.620318 32619 net.cpp:91] Creating Layer inception_5a/relu_1x1
I0403 15:39:18.620334 32619 net.cpp:425] inception_5a/relu_1x1 <- inception_5a/1x1
I0403 15:39:18.620352 32619 net.cpp:386] inception_5a/relu_1x1 -> inception_5a/1x1 (in-place)
I0403 15:39:18.620667 32619 net.cpp:141] Setting up inception_5a/relu_1x1
I0403 15:39:18.620699 32619 net.cpp:148] Top shape: 24 256 7 7 (301056)
I0403 15:39:18.620715 32619 net.cpp:156] Memory required for data: 1294534176
I0403 15:39:18.620731 32619 layer_factory.hpp:77] Creating layer inception_5a/3x3_reduce
I0403 15:39:18.620754 32619 net.cpp:91] Creating Layer inception_5a/3x3_reduce
I0403 15:39:18.620771 32619 net.cpp:425] inception_5a/3x3_reduce <- pool4/3x3_s2_pool4/3x3_s2_0_split_1
I0403 15:39:18.620790 32619 net.cpp:399] inception_5a/3x3_reduce -> inception_5a/3x3_reduce
I0403 15:39:18.623241 32619 net.cpp:141] Setting up inception_5a/3x3_reduce
I0403 15:39:18.623275 32619 net.cpp:148] Top shape: 24 160 7 7 (188160)
I0403 15:39:18.623292 32619 net.cpp:156] Memory required for data: 1295286816
I0403 15:39:18.623311 32619 layer_factory.hpp:77] Creating layer inception_5a/relu_3x3_reduce
I0403 15:39:18.623332 32619 net.cpp:91] Creating Layer inception_5a/relu_3x3_reduce
I0403 15:39:18.623349 32619 net.cpp:425] inception_5a/relu_3x3_reduce <- inception_5a/3x3_reduce
I0403 15:39:18.623368 32619 net.cpp:386] inception_5a/relu_3x3_reduce -> inception_5a/3x3_reduce (in-place)
I0403 15:39:18.623556 32619 net.cpp:141] Setting up inception_5a/relu_3x3_reduce
I0403 15:39:18.623582 32619 net.cpp:148] Top shape: 24 160 7 7 (188160)
I0403 15:39:18.623600 32619 net.cpp:156] Memory required for data: 1296039456
I0403 15:39:18.623616 32619 layer_factory.hpp:77] Creating layer inception_5a/3x3
I0403 15:39:18.623636 32619 net.cpp:91] Creating Layer inception_5a/3x3
I0403 15:39:18.623653 32619 net.cpp:425] inception_5a/3x3 <- inception_5a/3x3_reduce
I0403 15:39:18.623675 32619 net.cpp:399] inception_5a/3x3 -> inception_5a/3x3
I0403 15:39:18.628720 32619 net.cpp:141] Setting up inception_5a/3x3
I0403 15:39:18.628749 32619 net.cpp:148] Top shape: 24 320 7 7 (376320)
I0403 15:39:18.628765 32619 net.cpp:156] Memory required for data: 1297544736
I0403 15:39:18.628783 32619 layer_factory.hpp:77] Creating layer inception_5a/relu_3x3
I0403 15:39:18.628804 32619 net.cpp:91] Creating Layer inception_5a/relu_3x3
I0403 15:39:18.628823 32619 net.cpp:425] inception_5a/relu_3x3 <- inception_5a/3x3
I0403 15:39:18.628840 32619 net.cpp:386] inception_5a/relu_3x3 -> inception_5a/3x3 (in-place)
I0403 15:39:18.629137 32619 net.cpp:141] Setting up inception_5a/relu_3x3
I0403 15:39:18.629163 32619 net.cpp:148] Top shape: 24 320 7 7 (376320)
I0403 15:39:18.629178 32619 net.cpp:156] Memory required for data: 1299050016
I0403 15:39:18.629194 32619 layer_factory.hpp:77] Creating layer inception_5a/5x5_reduce
I0403 15:39:18.629218 32619 net.cpp:91] Creating Layer inception_5a/5x5_reduce
I0403 15:39:18.629237 32619 net.cpp:425] inception_5a/5x5_reduce <- pool4/3x3_s2_pool4/3x3_s2_0_split_2
I0403 15:39:18.629261 32619 net.cpp:399] inception_5a/5x5_reduce -> inception_5a/5x5_reduce
I0403 15:39:18.630439 32619 net.cpp:141] Setting up inception_5a/5x5_reduce
I0403 15:39:18.630471 32619 net.cpp:148] Top shape: 24 32 7 7 (37632)
I0403 15:39:18.630487 32619 net.cpp:156] Memory required for data: 1299200544
I0403 15:39:18.630506 32619 layer_factory.hpp:77] Creating layer inception_5a/relu_5x5_reduce
I0403 15:39:18.630525 32619 net.cpp:91] Creating Layer inception_5a/relu_5x5_reduce
I0403 15:39:18.630542 32619 net.cpp:425] inception_5a/relu_5x5_reduce <- inception_5a/5x5_reduce
I0403 15:39:18.630558 32619 net.cpp:386] inception_5a/relu_5x5_reduce -> inception_5a/5x5_reduce (in-place)
I0403 15:39:18.630866 32619 net.cpp:141] Setting up inception_5a/relu_5x5_reduce
I0403 15:39:18.630894 32619 net.cpp:148] Top shape: 24 32 7 7 (37632)
I0403 15:39:18.630909 32619 net.cpp:156] Memory required for data: 1299351072
I0403 15:39:18.630925 32619 layer_factory.hpp:77] Creating layer inception_5a/5x5
I0403 15:39:18.630947 32619 net.cpp:91] Creating Layer inception_5a/5x5
I0403 15:39:18.630965 32619 net.cpp:425] inception_5a/5x5 <- inception_5a/5x5_reduce
I0403 15:39:18.630985 32619 net.cpp:399] inception_5a/5x5 -> inception_5a/5x5
I0403 15:39:18.632740 32619 net.cpp:141] Setting up inception_5a/5x5
I0403 15:39:18.632781 32619 net.cpp:148] Top shape: 24 128 7 7 (150528)
I0403 15:39:18.632797 32619 net.cpp:156] Memory required for data: 1299953184
I0403 15:39:18.632828 32619 layer_factory.hpp:77] Creating layer inception_5a/relu_5x5
I0403 15:39:18.632849 32619 net.cpp:91] Creating Layer inception_5a/relu_5x5
I0403 15:39:18.632866 32619 net.cpp:425] inception_5a/relu_5x5 <- inception_5a/5x5
I0403 15:39:18.632884 32619 net.cpp:386] inception_5a/relu_5x5 -> inception_5a/5x5 (in-place)
I0403 15:39:18.633077 32619 net.cpp:141] Setting up inception_5a/relu_5x5
I0403 15:39:18.633103 32619 net.cpp:148] Top shape: 24 128 7 7 (150528)
I0403 15:39:18.633118 32619 net.cpp:156] Memory required for data: 1300555296
I0403 15:39:18.633133 32619 layer_factory.hpp:77] Creating layer inception_5a/pool
I0403 15:39:18.633152 32619 net.cpp:91] Creating Layer inception_5a/pool
I0403 15:39:18.633167 32619 net.cpp:425] inception_5a/pool <- pool4/3x3_s2_pool4/3x3_s2_0_split_3
I0403 15:39:18.633188 32619 net.cpp:399] inception_5a/pool -> inception_5a/pool
I0403 15:39:18.633263 32619 net.cpp:141] Setting up inception_5a/pool
I0403 15:39:18.633288 32619 net.cpp:148] Top shape: 24 832 7 7 (978432)
I0403 15:39:18.633303 32619 net.cpp:156] Memory required for data: 1304469024
I0403 15:39:18.633318 32619 layer_factory.hpp:77] Creating layer inception_5a/pool_proj
I0403 15:39:18.633342 32619 net.cpp:91] Creating Layer inception_5a/pool_proj
I0403 15:39:18.633359 32619 net.cpp:425] inception_5a/pool_proj <- inception_5a/pool
I0403 15:39:18.633378 32619 net.cpp:399] inception_5a/pool_proj -> inception_5a/pool_proj
I0403 15:39:18.635684 32619 net.cpp:141] Setting up inception_5a/pool_proj
I0403 15:39:18.635715 32619 net.cpp:148] Top shape: 24 128 7 7 (150528)
I0403 15:39:18.635731 32619 net.cpp:156] Memory required for data: 1305071136
I0403 15:39:18.635759 32619 layer_factory.hpp:77] Creating layer inception_5a/relu_pool_proj
I0403 15:39:18.635781 32619 net.cpp:91] Creating Layer inception_5a/relu_pool_proj
I0403 15:39:18.635797 32619 net.cpp:425] inception_5a/relu_pool_proj <- inception_5a/pool_proj
I0403 15:39:18.635815 32619 net.cpp:386] inception_5a/relu_pool_proj -> inception_5a/pool_proj (in-place)
I0403 15:39:18.636132 32619 net.cpp:141] Setting up inception_5a/relu_pool_proj
I0403 15:39:18.636157 32619 net.cpp:148] Top shape: 24 128 7 7 (150528)
I0403 15:39:18.636173 32619 net.cpp:156] Memory required for data: 1305673248
I0403 15:39:18.636188 32619 layer_factory.hpp:77] Creating layer inception_5a/output
I0403 15:39:18.636207 32619 net.cpp:91] Creating Layer inception_5a/output
I0403 15:39:18.636224 32619 net.cpp:425] inception_5a/output <- inception_5a/1x1
I0403 15:39:18.636241 32619 net.cpp:425] inception_5a/output <- inception_5a/3x3
I0403 15:39:18.636262 32619 net.cpp:425] inception_5a/output <- inception_5a/5x5
I0403 15:39:18.636281 32619 net.cpp:425] inception_5a/output <- inception_5a/pool_proj
I0403 15:39:18.636307 32619 net.cpp:399] inception_5a/output -> inception_5a/output
I0403 15:39:18.636358 32619 net.cpp:141] Setting up inception_5a/output
I0403 15:39:18.636381 32619 net.cpp:148] Top shape: 24 832 7 7 (978432)
I0403 15:39:18.636396 32619 net.cpp:156] Memory required for data: 1309586976
I0403 15:39:18.636411 32619 layer_factory.hpp:77] Creating layer inception_5a/output_inception_5a/output_0_split
I0403 15:39:18.636428 32619 net.cpp:91] Creating Layer inception_5a/output_inception_5a/output_0_split
I0403 15:39:18.636445 32619 net.cpp:425] inception_5a/output_inception_5a/output_0_split <- inception_5a/output
I0403 15:39:18.636463 32619 net.cpp:399] inception_5a/output_inception_5a/output_0_split -> inception_5a/output_inception_5a/output_0_split_0
I0403 15:39:18.636484 32619 net.cpp:399] inception_5a/output_inception_5a/output_0_split -> inception_5a/output_inception_5a/output_0_split_1
I0403 15:39:18.636504 32619 net.cpp:399] inception_5a/output_inception_5a/output_0_split -> inception_5a/output_inception_5a/output_0_split_2
I0403 15:39:18.636536 32619 net.cpp:399] inception_5a/output_inception_5a/output_0_split -> inception_5a/output_inception_5a/output_0_split_3
I0403 15:39:18.636651 32619 net.cpp:141] Setting up inception_5a/output_inception_5a/output_0_split
I0403 15:39:18.636678 32619 net.cpp:148] Top shape: 24 832 7 7 (978432)
I0403 15:39:18.636696 32619 net.cpp:148] Top shape: 24 832 7 7 (978432)
I0403 15:39:18.636713 32619 net.cpp:148] Top shape: 24 832 7 7 (978432)
I0403 15:39:18.636729 32619 net.cpp:148] Top shape: 24 832 7 7 (978432)
I0403 15:39:18.636744 32619 net.cpp:156] Memory required for data: 1325241888
I0403 15:39:18.636759 32619 layer_factory.hpp:77] Creating layer inception_5b/1x1
I0403 15:39:18.636782 32619 net.cpp:91] Creating Layer inception_5b/1x1
I0403 15:39:18.636801 32619 net.cpp:425] inception_5b/1x1 <- inception_5a/output_inception_5a/output_0_split_0
I0403 15:39:18.636819 32619 net.cpp:399] inception_5b/1x1 -> inception_5b/1x1
I0403 15:39:18.640638 32619 net.cpp:141] Setting up inception_5b/1x1
I0403 15:39:18.640669 32619 net.cpp:148] Top shape: 24 384 7 7 (451584)
I0403 15:39:18.640686 32619 net.cpp:156] Memory required for data: 1327048224
I0403 15:39:18.640705 32619 layer_factory.hpp:77] Creating layer inception_5b/relu_1x1
I0403 15:39:18.640727 32619 net.cpp:91] Creating Layer inception_5b/relu_1x1
I0403 15:39:18.640744 32619 net.cpp:425] inception_5b/relu_1x1 <- inception_5b/1x1
I0403 15:39:18.640763 32619 net.cpp:386] inception_5b/relu_1x1 -> inception_5b/1x1 (in-place)
I0403 15:39:18.641086 32619 net.cpp:141] Setting up inception_5b/relu_1x1
I0403 15:39:18.641113 32619 net.cpp:148] Top shape: 24 384 7 7 (451584)
I0403 15:39:18.641127 32619 net.cpp:156] Memory required for data: 1328854560
I0403 15:39:18.641142 32619 layer_factory.hpp:77] Creating layer inception_5b/3x3_reduce
I0403 15:39:18.641165 32619 net.cpp:91] Creating Layer inception_5b/3x3_reduce
I0403 15:39:18.641182 32619 net.cpp:425] inception_5b/3x3_reduce <- inception_5a/output_inception_5a/output_0_split_1
I0403 15:39:18.641206 32619 net.cpp:399] inception_5b/3x3_reduce -> inception_5b/3x3_reduce
I0403 15:39:18.643899 32619 net.cpp:141] Setting up inception_5b/3x3_reduce
I0403 15:39:18.643929 32619 net.cpp:148] Top shape: 24 192 7 7 (225792)
I0403 15:39:18.643944 32619 net.cpp:156] Memory required for data: 1329757728
I0403 15:39:18.643964 32619 layer_factory.hpp:77] Creating layer inception_5b/relu_3x3_reduce
I0403 15:39:18.643983 32619 net.cpp:91] Creating Layer inception_5b/relu_3x3_reduce
I0403 15:39:18.644001 32619 net.cpp:425] inception_5b/relu_3x3_reduce <- inception_5b/3x3_reduce
I0403 15:39:18.644018 32619 net.cpp:386] inception_5b/relu_3x3_reduce -> inception_5b/3x3_reduce (in-place)
I0403 15:39:18.644212 32619 net.cpp:141] Setting up inception_5b/relu_3x3_reduce
I0403 15:39:18.644237 32619 net.cpp:148] Top shape: 24 192 7 7 (225792)
I0403 15:39:18.644255 32619 net.cpp:156] Memory required for data: 1330660896
I0403 15:39:18.644273 32619 layer_factory.hpp:77] Creating layer inception_5b/3x3
I0403 15:39:18.644296 32619 net.cpp:91] Creating Layer inception_5b/3x3
I0403 15:39:18.644315 32619 net.cpp:425] inception_5b/3x3 <- inception_5b/3x3_reduce
I0403 15:39:18.644335 32619 net.cpp:399] inception_5b/3x3 -> inception_5b/3x3
I0403 15:39:18.651136 32619 net.cpp:141] Setting up inception_5b/3x3
I0403 15:39:18.651165 32619 net.cpp:148] Top shape: 24 384 7 7 (451584)
I0403 15:39:18.651181 32619 net.cpp:156] Memory required for data: 1332467232
I0403 15:39:18.651201 32619 layer_factory.hpp:77] Creating layer inception_5b/relu_3x3
I0403 15:39:18.651221 32619 net.cpp:91] Creating Layer inception_5b/relu_3x3
I0403 15:39:18.651237 32619 net.cpp:425] inception_5b/relu_3x3 <- inception_5b/3x3
I0403 15:39:18.651259 32619 net.cpp:386] inception_5b/relu_3x3 -> inception_5b/3x3 (in-place)
I0403 15:39:18.651568 32619 net.cpp:141] Setting up inception_5b/relu_3x3
I0403 15:39:18.651595 32619 net.cpp:148] Top shape: 24 384 7 7 (451584)
I0403 15:39:18.651610 32619 net.cpp:156] Memory required for data: 1334273568
I0403 15:39:18.651626 32619 layer_factory.hpp:77] Creating layer inception_5b/5x5_reduce
I0403 15:39:18.651664 32619 net.cpp:91] Creating Layer inception_5b/5x5_reduce
I0403 15:39:18.651684 32619 net.cpp:425] inception_5b/5x5_reduce <- inception_5a/output_inception_5a/output_0_split_2
I0403 15:39:18.651705 32619 net.cpp:399] inception_5b/5x5_reduce -> inception_5b/5x5_reduce
I0403 15:39:18.652984 32619 net.cpp:141] Setting up inception_5b/5x5_reduce
I0403 15:39:18.653012 32619 net.cpp:148] Top shape: 24 48 7 7 (56448)
I0403 15:39:18.653028 32619 net.cpp:156] Memory required for data: 1334499360
I0403 15:39:18.653045 32619 layer_factory.hpp:77] Creating layer inception_5b/relu_5x5_reduce
I0403 15:39:18.653066 32619 net.cpp:91] Creating Layer inception_5b/relu_5x5_reduce
I0403 15:39:18.653084 32619 net.cpp:425] inception_5b/relu_5x5_reduce <- inception_5b/5x5_reduce
I0403 15:39:18.653100 32619 net.cpp:386] inception_5b/relu_5x5_reduce -> inception_5b/5x5_reduce (in-place)
I0403 15:39:18.653483 32619 net.cpp:141] Setting up inception_5b/relu_5x5_reduce
I0403 15:39:18.653511 32619 net.cpp:148] Top shape: 24 48 7 7 (56448)
I0403 15:39:18.653525 32619 net.cpp:156] Memory required for data: 1334725152
I0403 15:39:18.653540 32619 layer_factory.hpp:77] Creating layer inception_5b/5x5
I0403 15:39:18.653560 32619 net.cpp:91] Creating Layer inception_5b/5x5
I0403 15:39:18.653578 32619 net.cpp:425] inception_5b/5x5 <- inception_5b/5x5_reduce
I0403 15:39:18.653597 32619 net.cpp:399] inception_5b/5x5 -> inception_5b/5x5
I0403 15:39:18.655664 32619 net.cpp:141] Setting up inception_5b/5x5
I0403 15:39:18.655695 32619 net.cpp:148] Top shape: 24 128 7 7 (150528)
I0403 15:39:18.655711 32619 net.cpp:156] Memory required for data: 1335327264
I0403 15:39:18.655730 32619 layer_factory.hpp:77] Creating layer inception_5b/relu_5x5
I0403 15:39:18.655748 32619 net.cpp:91] Creating Layer inception_5b/relu_5x5
I0403 15:39:18.655764 32619 net.cpp:425] inception_5b/relu_5x5 <- inception_5b/5x5
I0403 15:39:18.655782 32619 net.cpp:386] inception_5b/relu_5x5 -> inception_5b/5x5 (in-place)
I0403 15:39:18.655978 32619 net.cpp:141] Setting up inception_5b/relu_5x5
I0403 15:39:18.656005 32619 net.cpp:148] Top shape: 24 128 7 7 (150528)
I0403 15:39:18.656021 32619 net.cpp:156] Memory required for data: 1335929376
I0403 15:39:18.656036 32619 layer_factory.hpp:77] Creating layer inception_5b/pool
I0403 15:39:18.656054 32619 net.cpp:91] Creating Layer inception_5b/pool
I0403 15:39:18.656070 32619 net.cpp:425] inception_5b/pool <- inception_5a/output_inception_5a/output_0_split_3
I0403 15:39:18.656090 32619 net.cpp:399] inception_5b/pool -> inception_5b/pool
I0403 15:39:18.656163 32619 net.cpp:141] Setting up inception_5b/pool
I0403 15:39:18.656190 32619 net.cpp:148] Top shape: 24 832 7 7 (978432)
I0403 15:39:18.656206 32619 net.cpp:156] Memory required for data: 1339843104
I0403 15:39:18.656220 32619 layer_factory.hpp:77] Creating layer inception_5b/pool_proj
I0403 15:39:18.656242 32619 net.cpp:91] Creating Layer inception_5b/pool_proj
I0403 15:39:18.656265 32619 net.cpp:425] inception_5b/pool_proj <- inception_5b/pool
I0403 15:39:18.656283 32619 net.cpp:399] inception_5b/pool_proj -> inception_5b/pool_proj
I0403 15:39:18.658581 32619 net.cpp:141] Setting up inception_5b/pool_proj
I0403 15:39:18.658612 32619 net.cpp:148] Top shape: 24 128 7 7 (150528)
I0403 15:39:18.658627 32619 net.cpp:156] Memory required for data: 1340445216
I0403 15:39:18.658645 32619 layer_factory.hpp:77] Creating layer inception_5b/relu_pool_proj
I0403 15:39:18.658666 32619 net.cpp:91] Creating Layer inception_5b/relu_pool_proj
I0403 15:39:18.658684 32619 net.cpp:425] inception_5b/relu_pool_proj <- inception_5b/pool_proj
I0403 15:39:18.658702 32619 net.cpp:386] inception_5b/relu_pool_proj -> inception_5b/pool_proj (in-place)
I0403 15:39:18.659004 32619 net.cpp:141] Setting up inception_5b/relu_pool_proj
I0403 15:39:18.659031 32619 net.cpp:148] Top shape: 24 128 7 7 (150528)
I0403 15:39:18.659046 32619 net.cpp:156] Memory required for data: 1341047328
I0403 15:39:18.659061 32619 layer_factory.hpp:77] Creating layer inception_5b/output
I0403 15:39:18.659082 32619 net.cpp:91] Creating Layer inception_5b/output
I0403 15:39:18.659112 32619 net.cpp:425] inception_5b/output <- inception_5b/1x1
I0403 15:39:18.659131 32619 net.cpp:425] inception_5b/output <- inception_5b/3x3
I0403 15:39:18.659147 32619 net.cpp:425] inception_5b/output <- inception_5b/5x5
I0403 15:39:18.659163 32619 net.cpp:425] inception_5b/output <- inception_5b/pool_proj
I0403 15:39:18.659180 32619 net.cpp:399] inception_5b/output -> inception_5b/output
I0403 15:39:18.659235 32619 net.cpp:141] Setting up inception_5b/output
I0403 15:39:18.659262 32619 net.cpp:148] Top shape: 24 1024 7 7 (1204224)
I0403 15:39:18.659277 32619 net.cpp:156] Memory required for data: 1345864224
I0403 15:39:18.659293 32619 layer_factory.hpp:77] Creating layer pool5/7x7_s1
I0403 15:39:18.659310 32619 net.cpp:91] Creating Layer pool5/7x7_s1
I0403 15:39:18.659327 32619 net.cpp:425] pool5/7x7_s1 <- inception_5b/output
I0403 15:39:18.659346 32619 net.cpp:399] pool5/7x7_s1 -> pool5/7x7_s1
I0403 15:39:18.659564 32619 net.cpp:141] Setting up pool5/7x7_s1
I0403 15:39:18.659590 32619 net.cpp:148] Top shape: 24 1024 1 1 (24576)
I0403 15:39:18.659605 32619 net.cpp:156] Memory required for data: 1345962528
I0403 15:39:18.659620 32619 layer_factory.hpp:77] Creating layer pool5/drop_7x7_s1
I0403 15:39:18.659639 32619 net.cpp:91] Creating Layer pool5/drop_7x7_s1
I0403 15:39:18.659657 32619 net.cpp:425] pool5/drop_7x7_s1 <- pool5/7x7_s1
I0403 15:39:18.659673 32619 net.cpp:386] pool5/drop_7x7_s1 -> pool5/7x7_s1 (in-place)
I0403 15:39:18.659726 32619 net.cpp:141] Setting up pool5/drop_7x7_s1
I0403 15:39:18.659749 32619 net.cpp:148] Top shape: 24 1024 1 1 (24576)
I0403 15:39:18.659765 32619 net.cpp:156] Memory required for data: 1346060832
I0403 15:39:18.659780 32619 layer_factory.hpp:77] Creating layer loss3/classifier_plantvillage
I0403 15:39:18.659801 32619 net.cpp:91] Creating Layer loss3/classifier_plantvillage
I0403 15:39:18.659817 32619 net.cpp:425] loss3/classifier_plantvillage <- pool5/7x7_s1
I0403 15:39:18.659835 32619 net.cpp:399] loss3/classifier_plantvillage -> loss3/classifier_plantvillage
I0403 15:39:18.660271 32619 net.cpp:141] Setting up loss3/classifier_plantvillage
I0403 15:39:18.660296 32619 net.cpp:148] Top shape: 24 38 (912)
I0403 15:39:18.660311 32619 net.cpp:156] Memory required for data: 1346064480
I0403 15:39:18.660329 32619 layer_factory.hpp:77] Creating layer loss3/classifier_plantvillage_loss3/classifier_plantvillage_0_split
I0403 15:39:18.660347 32619 net.cpp:91] Creating Layer loss3/classifier_plantvillage_loss3/classifier_plantvillage_0_split
I0403 15:39:18.660364 32619 net.cpp:425] loss3/classifier_plantvillage_loss3/classifier_plantvillage_0_split <- loss3/classifier_plantvillage
I0403 15:39:18.660384 32619 net.cpp:399] loss3/classifier_plantvillage_loss3/classifier_plantvillage_0_split -> loss3/classifier_plantvillage_loss3/classifier_plantvillage_0_split_0
I0403 15:39:18.660404 32619 net.cpp:399] loss3/classifier_plantvillage_loss3/classifier_plantvillage_0_split -> loss3/classifier_plantvillage_loss3/classifier_plantvillage_0_split_1
I0403 15:39:18.660425 32619 net.cpp:399] loss3/classifier_plantvillage_loss3/classifier_plantvillage_0_split -> loss3/classifier_plantvillage_loss3/classifier_plantvillage_0_split_2
I0403 15:39:18.660445 32619 net.cpp:399] loss3/classifier_plantvillage_loss3/classifier_plantvillage_0_split -> loss3/classifier_plantvillage_loss3/classifier_plantvillage_0_split_3
I0403 15:39:18.660545 32619 net.cpp:141] Setting up loss3/classifier_plantvillage_loss3/classifier_plantvillage_0_split
I0403 15:39:18.660569 32619 net.cpp:148] Top shape: 24 38 (912)
I0403 15:39:18.660585 32619 net.cpp:148] Top shape: 24 38 (912)
I0403 15:39:18.660601 32619 net.cpp:148] Top shape: 24 38 (912)
I0403 15:39:18.660616 32619 net.cpp:148] Top shape: 24 38 (912)
I0403 15:39:18.660630 32619 net.cpp:156] Memory required for data: 1346079072
I0403 15:39:18.660645 32619 layer_factory.hpp:77] Creating layer loss1/loss
I0403 15:39:18.660666 32619 net.cpp:91] Creating Layer loss1/loss
I0403 15:39:18.660684 32619 net.cpp:425] loss1/loss <- loss1/classifier_plantvillage_loss1/classifier_plantvillage_0_split_0
I0403 15:39:18.660714 32619 net.cpp:425] loss1/loss <- label_data_1_split_0
…
