…
I0403 15:37:52.358785 32537 net.cpp:313] The NetState phase (1) differed from the phase (0) specified by a rule in layer data
I0403 15:37:52.360050 32537 net.cpp:49] Initializing net from parameters: 
state {
  phase: TEST
}
layer {
  name: "data"
  type: "Data"
  top: "data"
  top: "label"
  include {
    phase: TEST
  }
  transform_param {
    mirror: false
    crop_size: 224
    mean_file: "/home/mohanty/data/final_dataset/lmdb/color-60-40/mean.binaryproto"
  }
  data_param {
    source: "/home/mohanty/data/final_dataset/lmdb/color-60-40/test_db"
    batch_size: 24
    backend: LMDB
  }
}
layer {
  name: "conv1/7x7_s2"
  type: "Convolution"
  bottom: "data"
  top: "conv1/7x7_s2"
  param {
    lr_mult: 1
    decay_mult: 1
  }
  param {
    lr_mult: 2
    decay_mult: 0
  }
  convolution_param {
    num_output: 64
    pad: 3
    kernel_size: 7
    stride: 2
    weight_filler {
      type: "xavier"
      std: 0.1
    }
    bias_filler {
      type: "constant"
      value: 0.2
    }
  }
}
layer {
  name: "conv1/relu_7x7"
  type: "ReLU"
  bottom: "conv1/7x7_s2"
  top: "conv1/7x7_s2"
}
layer {
  name: "pool1/3x3_s2"
  type: "Pooling"
  bottom: "conv1/7x7_s2"
  top: "pool1/3x3_s2"
  pooling_param {
    pool: MAX
    kernel_size: 3
    stride: 2
  }
}
layer {
  name: "pool1/norm1"
  type: "LRN"
  bottom: "pool1/3x3_s2"
  top: "pool1/norm1"
  lrn_param {
    local_size: 5
    alpha: 0.0001
    beta: 0.75
  }
}
layer {
  name: "conv2/3x3_reduce"
  type: "Convolution"
  bottom: "pool1/norm1"
  top: "conv2/3x3_reduce"
  param {
    lr_mult: 1
    decay_mult: 1
  }
  param {
    lr_mult: 2
    decay_mult: 0
  }
  convolution_param {
    num_output: 64
    kernel_size: 1
    weight_filler {
      type: "xavier"
      std: 0.1
    }
    bias_filler {
      type: "constant"
      value: 0.2
    }
  }
}
layer {
  name: "conv2/relu_3x3_reduce"
  type: "ReLU"
  bottom: "conv2/3x3_reduce"
  top: "conv2/3x3_reduce"
}
layer {
  name: "conv2/3x3"
  type: "Convolution"
  bottom: "conv2/3x3_reduce"
  top: "conv2/3x3"
  param {
    lr_mult: 1
    decay_mult: 1
  }
  param {
    lr_mult: 2
    decay_mult: 0
  }
  convolution_param {
    num_output: 192
    pad: 1
    kernel_size: 3
    weight_filler {
      type: "xavier"
      std: 0.03
    }
    bias_filler {
      type: "constant"
      value: 0.2
    }
  }
}
layer {
  name: "conv2/relu_3x3"
  type: "ReLU"
  bottom: "conv2/3x3"
  top: "conv2/3x3"
}
layer {
  name: "conv2/norm2"
  type: "LRN"
  bottom: "conv2/3x3"
  top: "conv2/norm2"
  lrn_param {
    local_size: 5
    alpha: 0.0001
    beta: 0.75
  }
}
layer {
  name: "pool2/3x3_s2"
  type: "Pooling"
  bottom: "conv2/norm2"
  top: "pool2/3x3_s2"
  pooling_param {
    pool: MAX
    kernel_size: 3
    stride: 2
  }
}
layer {
  name: "inception_3a/1x1"
  type: "Convolution"
  bottom: "pool2/3x3_s2"
  top: "inception_3a/1x1"
  param {
    lr_mult: 1
    decay_mult: 1
  }
  param {
    lr_mult: 2
    decay_mult: 0
  }
  convolution_param {
    num_output: 64
    kernel_size: 1
    weight_filler {
      type: "xavier"
      std: 0.03
    }
    bias_filler {
      type: "constant"
      value: 0.2
    }
  }
}
layer {
  name: "inception_3a/relu_1x1"
  type: "ReLU"
  bottom: "inception_3a/1x1"
  top: "inception_3a/1x1"
}
layer {
  name: "inception_3a/3x3_reduce"
  type: "Convolution"
  bottom: "pool2/3x3_s2"
  top: "inception_3a/3x3_reduce"
  param {
    lr_mult: 1
    decay_mult: 1
  }
  param {
    lr_mult: 2
    decay_mult: 0
  }
  convolution_param {
    num_output: 96
    kernel_size: 1
    weight_filler {
      type: "xavier"
      std: 0.09
    }
    bias_filler {
      type: "constant"
      value: 0.2
    }
  }
}
layer {
  name: "inception_3a/relu_3x3_reduce"
  type: "ReLU"
  bottom: "inception_3a/3x3_reduce"
  top: "inception_3a/3x3_reduce"
}
layer {
  name: "inception_3a/3x3"
  type: "Convolution"
  bottom: "inception_3a/3x3_reduce"
  top: "inception_3a/3x3"
  param {
    lr_mult: 1
    decay_mult: 1
  }
  param {
    lr_mult: 2
    decay_mult: 0
  }
  convolution_param {
    num_output: 128
    pad: 1
    kernel_size: 3
    weight_filler {
      type: "xavier"
      std: 0.03
    }
    bias_filler {
      type: "constant"
      value: 0.2
    }
  }
}
layer {
  name: "inception_3a/relu_3x3"
  type: "ReLU"
  bottom: "inception_3a/3x3"
  top: "inception_3a/3x3"
}
layer {
  name: "inception_3a/5x5_reduce"
  type: "Convolution"
  bottom: "pool2/3x3_s2"
  top: "inception_3a/5x5_reduce"
  param {
    lr_mult: 1
    decay_mult: 1
  }
  param {
    lr_mult: 2
    decay_mult: 0
  }
  convolution_param {
    num_output: 16
    kernel_size: 1
    weight_filler {
      type: "xavier"
      std: 0.2
    }
    bias_filler {
      type: "constant"
      value: 0.2
    }
  }
}
layer {
  name: "inception_3a/relu_5x5_reduce"
  type: "ReLU"
  bottom: "inception_3a/5x5_reduce"
  top: "inception_3a/5x5_reduce"
}
layer {
  name: "inception_3a/5x5"
  type: "Convolution"
  bottom: "inception_3a/5x5_reduce"
  top: "inception_3a/5x5"
  param {
    lr_mult: 1
    decay_mult: 1
  }
  param {
    lr_mult: 2
    decay_mult: 0
  }
  convolution_param {
    num_output: 32
    pad: 2
    kernel_size: 5
    weight_filler {
      type: "xavier"
      std: 0.03
    }
    bias_filler {
      type: "constant"
      value: 0.2
    }
  }
}
layer {
  name: "inception_3a/relu_5x5"
  type: "ReLU"
  bottom: "inception_3a/5x5"
  top: "inception_3a/5x5"
}
layer {
  name: "inception_3a/pool"
  type: "Pooling"
  bottom: "pool2/3x3_s2"
  top: "inception_3a/pool"
  pooling_param {
    pool: MAX
    kernel_size: 3
    stride: 1
    pad: 1
  }
}
layer {
  name: "inception_3a/pool_proj"
  type: "Convolution"
  bottom: "inception_3a/pool"
  top: "inception_3a/pool_proj"
  param {
    lr_mult: 1
    decay_mult: 1
  }
  param {
    lr_mult: 2
    decay_mult: 0
  }
  convolution_param {
    num_output: 32
    kernel_size: 1
    weight_filler {
      type: "xavier"
      std: 0.1
    }
    bias_filler {
      type: "constant"
      value: 0.2
    }
  }
}
layer {
  name: "inception_3a/relu_pool_proj"
  type: "ReLU"
  bottom: "inception_3a/pool_proj"
  top: "inception_3a/pool_proj"
}
layer {
  name: "inception_3a/output"
  type: "Concat"
  bottom: "inception_3a/1x1"
  bottom: "inception_3a/3x3"
  bottom: "inception_3a/5x5"
  bottom: "inception_3a/pool_proj"
  top: "inception_3a/output"
}
layer {
  name: "inception_3b/1x1"
  type: "Convolution"
  bottom: "inception_3a/output"
  top: "inception_3b/1x1"
  param {
    lr_mult: 1
    decay_mult: 1
  }
  param {
    lr_mult: 2
    decay_mult: 0
  }
  convolution_param {
    num_output: 128
    kernel_size: 1
    weight_filler {
      type: "xavier"
      std: 0.03
    }
    bias_filler {
      type: "constant"
      value: 0.2
    }
  }
}
layer {
  name: "inception_3b/relu_1x1"
  type: "ReLU"
  bottom: "inception_3b/1x1"
  top: "inception_3b/1x1"
}
layer {
  name: "inception_3b/3x3_reduce"
  type: "Convolution"
  bottom: "inception_3a/output"
  top: "inception_3b/3x3_reduce"
  param {
    lr_mult: 1
    decay_mult: 1
  }
  param {
    lr_mult: 2
    decay_mult: 0
  }
  convolution_param {
    num_output: 128
    kernel_size: 1
    weight_filler {
      type: "xavier"
      std: 0.09
    }
    bias_filler {
      type: "constant"
      value: 0.2
    }
  }
}
layer {
  name: "inception_3b/relu_3x3_reduce"
  type: "ReLU"
  bottom: "inception_3b/3x3_reduce"
  top: "inception_3b/3x3_reduce"
}
layer {
  name: "inception_3b/3x3"
  type: "Convolution"
  bottom: "inception_3b/3x3_reduce"
  top: "inception_3b/3x3"
  param {
    lr_mult: 1
    decay_mult: 1
  }
  param {
    lr_mult: 2
    decay_mult: 0
  }
  convolution_param {
    num_output: 192
    pad: 1
    kernel_size: 3
    weight_filler {
      type: "xavier"
      std: 0.03
    }
    bias_filler {
      type: "constant"
      value: 0.2
    }
  }
}
layer {
  name: "inception_3b/relu_3x3"
  type: "ReLU"
  bottom: "inception_3b/3x3"
  top: "inception_3b/3x3"
}
layer {
  name: "inception_3b/5x5_reduce"
  type: "Convolution"
  bottom: "inception_3a/output"
  top: "inception_3b/5x5_reduce"
  param {
    lr_mult: 1
    decay_mult: 1
  }
  param {
    lr_mult: 2
    decay_mult: 0
  }
  convolution_param {
    num_output: 32
    kernel_size: 1
    weight_filler {
      type: "xavier"
      std: 0.2
    }
    bias_filler {
      type: "constant"
      value: 0.2
    }
  }
}
layer {
  name: "inception_3b/relu_5x5_reduce"
  type: "ReLU"
  bottom: "inception_3b/5x5_reduce"
  top: "inception_3b/5x5_reduce"
}
layer {
  name: "inception_3b/5x5"
  type: "Convolution"
  bottom: "inception_3b/5x5_reduce"
  top: "inception_3b/5x5"
  param {
    lr_mult: 1
    decay_mult: 1
  }
  param {
    lr_mult: 2
    decay_mult: 0
  }
  convolution_param {
    num_output: 96
    pad: 2
    kernel_size: 5
    weight_filler {
      type: "xavier"
      std: 0.03
    }
    bias_filler {
      type: "constant"
      value: 0.2
    }
  }
}
layer {
  name: "inception_3b/relu_5x5"
  type: "ReLU"
  bottom: "inception_3b/5x5"
  top: "inception_3b/5x5"
}
layer {
  name: "inception_3b/pool"
  type: "Pooling"
  bottom: "inception_3a/output"
  top: "inception_3b/pool"
  pooling_param {
    pool: MAX
    kernel_size: 3
    stride: 1
    pad: 1
  }
}
layer {
  name: "inception_3b/pool_proj"
  type: "Convolution"
  bottom: "inception_3b/pool"
  top: "inception_3b/pool_proj"
  param {
    lr_mult: 1
    decay_mult: 1
  }
  param {
    lr_mult: 2
    decay_mult: 0
  }
  convolution_param {
    num_output: 64
    kernel_size: 1
    weight_filler {
      type: "xavier"
      std: 0.1
    }
    bias_filler {
      type: "constant"
      value: 0.2
    }
  }
}
layer {
  name: "inception_3b/relu_pool_proj"
  type: "ReLU"
  bottom: "inception_3b/pool_proj"
  top: "inception_3b/pool_proj"
}
layer {
  name: "inception_3b/output"
  type: "Concat"
  bottom: "inception_3b/1x1"
  bottom: "inception_3b/3x3"
  bottom: "inception_3b/5x5"
  bottom: "inception_3b/pool_proj"
  top: "inception_3b/output"
}
layer {
  name: "pool3/3x3_s2"
  type: "Pooling"
  bottom: "inception_3b/output"
  top: "pool3/3x3_s2"
  pooling_param {
    pool: MAX
    kernel_size: 3
    stride: 2
  }
}
layer {
  name: "inception_4a/1x1"
  type: "Convolution"
  bottom: "pool3/3x3_s2"
  top: "inception_4a/1x1"
  param {
    lr_mult: 1
    decay_mult: 1
  }
  param {
    lr_mult: 2
    decay_mult: 0
  }
  convolution_param {
    num_output: 192
    kernel_size: 1
    weight_filler {
      type: "xavier"
      std: 0.03
    }
    bias_filler {
      type: "constant"
      value: 0.2
    }
  }
}
layer {
  name: "inception_4a/relu_1x1"
  type: "ReLU"
  bottom: "inception_4a/1x1"
  top: "inception_4a/1x1"
}
layer {
  name: "inception_4a/3x3_reduce"
  type: "Convolution"
  bottom: "pool3/3x3_s2"
  top: "inception_4a/3x3_reduce"
  param {
    lr_mult: 1
    decay_mult: 1
  }
  param {
    lr_mult: 2
    decay_mult: 0
  }
  convolution_param {
    num_output: 96
    kernel_size: 1
    weight_filler {
      type: "xavier"
      std: 0.09
    }
    bias_filler {
      type: "constant"
      value: 0.2
    }
  }
}
layer {
  name: "inception_4a/relu_3x3_reduce"
  type: "ReLU"
  bottom: "inception_4a/3x3_reduce"
  top: "inception_4a/3x3_reduce"
}
layer {
  name: "inception_4a/3x3"
  type: "Convolution"
  bottom: "inception_4a/3x3_reduce"
  top: "inception_4a/3x3"
  param {
    lr_mult: 1
    decay_mult: 1
  }
  param {
    lr_mult: 2
    decay_mult: 0
  }
  convolution_param {
    num_output: 208
    pad: 1
    kernel_size: 3
    weight_filler {
      type: "xavier"
      std: 0.03
    }
    bias_filler {
      type: "constant"
      value: 0.2
    }
  }
}
layer {
  name: "inception_4a/relu_3x3"
  type: "ReLU"
  bottom: "inception_4a/3x3"
  top: "inception_4a/3x3"
}
layer {
  name: "inception_4a/5x5_reduce"
  type: "Convolution"
  bottom: "pool3/3x3_s2"
  top: "inception_4a/5x5_reduce"
  param {
    lr_mult: 1
    decay_mult: 1
  }
  param {
    lr_mult: 2
    decay_mult: 0
  }
  convolution_param {
    num_output: 16
    kernel_size: 1
    weight_filler {
      type: "xavier"
      std: 0.2
    }
    bias_filler {
      type: "constant"
      value: 0.2
    }
  }
}
layer {
  name: "inception_4a/relu_5x5_reduce"
  type: "ReLU"
  bottom: "inception_4a/5x5_reduce"
  top: "inception_4a/5x5_reduce"
}
layer {
  name: "inception_4a/5x5"
  type: "Convolution"
  bottom: "inception_4a/5x5_reduce"
  top: "inception_4a/5x5"
  param {
    lr_mult: 1
    decay_mult: 1
  }
  param {
    lr_mult: 2
    decay_mult: 0
  }
  convolution_param {
    num_output: 48
    pad: 2
    kernel_size: 5
    weight_filler {
      type: "xavier"
      std: 0.03
    }
    bias_filler {
      type: "constant"
      value: 0.2
    }
  }
}
layer {
  name: "inception_4a/relu_5x5"
  type: "ReLU"
  bottom: "inception_4a/5x5"
  top: "inception_4a/5x5"
}
layer {
  name: "inception_4a/pool"
  type: "Pooling"
  bottom: "pool3/3x3_s2"
  top: "inception_4a/pool"
  pooling_param {
    pool: MAX
    kernel_size: 3
    stride: 1
    pad: 1
  }
}
layer {
  name: "inception_4a/pool_proj"
  type: "Convolution"
  bottom: "inception_4a/pool"
  top: "inception_4a/pool_proj"
  param {
    lr_mult: 1
    decay_mult: 1
  }
  param {
    lr_mult: 2
    decay_mult: 0
  }
  convolution_param {
    num_output: 64
    kernel_size: 1
    weight_filler {
      type: "xavier"
      std: 0.1
    }
    bias_filler {
      type: "constant"
      value: 0.2
    }
  }
}
layer {
  name: "inception_4a/relu_pool_proj"
  type: "ReLU"
  bottom: "inception_4a/pool_proj"
  top: "inception_4a/pool_proj"
}
layer {
  name: "inception_4a/output"
  type: "Concat"
  bottom: "inception_4a/1x1"
  bottom: "inception_4a/3x3"
  bottom: "inception_4a/5x5"
  bottom: "inception_4a/pool_proj"
  top: "inception_4a/output"
}
layer {
  name: "loss1/ave_pool"
  type: "Pooling"
  bottom: "inception_4a/output"
  top: "loss1/ave_pool"
  pooling_param {
    pool: AVE
    kernel_size: 5
    stride: 3
  }
}
layer {
  name: "loss1/conv"
  type: "Convolution"
  bottom: "loss1/ave_pool"
  top: "loss1/conv"
  param {
    lr_mult: 1
    decay_mult: 1
  }
  param {
    lr_mult: 2
    decay_mult: 0
  }
  convolution_param {
    num_output: 128
    kernel_size: 1
    weight_filler {
      type: "xavier"
      std: 0.08
    }
    bias_filler {
      type: "constant"
      value: 0.2
    }
  }
}
layer {
  name: "loss1/relu_conv"
  type: "ReLU"
  bottom: "loss1/conv"
  top: "loss1/conv"
}
layer {
  name: "loss1/fc"
  type: "InnerProduct"
  bottom: "loss1/conv"
  top: "loss1/fc"
  param {
    lr_mult: 1
    decay_mult: 1
  }
  param {
    lr_mult: 2
    decay_mult: 0
  }
  inner_product_param {
    num_output: 1024
    weight_filler {
      type: "xavier"
      std: 0.02
    }
    bias_filler {
      type: "constant"
      value: 0.2
    }
  }
}
layer {
  name: "loss1/relu_fc"
  type: "ReLU"
  bottom: "loss1/fc"
  top: "loss1/fc"
}
layer {
  name: "loss1/drop_fc"
  type: "Dropout"
  bottom: "loss1/fc"
  top: "loss1/fc"
  dropout_param {
    dropout_ratio: 0.7
  }
}
layer {
  name: "loss1/classifier_plantvillage"
  type: "InnerProduct"
  bottom: "loss1/fc"
  top: "loss1/classifier_plantvillage"
  param {
    lr_mult: 1
    decay_mult: 1
  }
  param {
    lr_mult: 2
    decay_mult: 0
  }
  inner_product_param {
    num_output: 38
    weight_filler {
      type: "xavier"
      std: 0.0009765625
    }
    bias_filler {
      type: "constant"
      value: 0
    }
  }
}
layer {
  name: "inception_4b/1x1"
  type: "Convolution"
  bottom: "inception_4a/output"
  top: "inception_4b/1x1"
  param {
    lr_mult: 1
    decay_mult: 1
  }
  param {
    lr_mult: 2
    decay_mult: 0
  }
  convolution_param {
    num_output: 160
    kernel_size: 1
    weight_filler {
      type: "xavier"
      std: 0.03
    }
    bias_filler {
      type: "constant"
      value: 0.2
    }
  }
}
layer {
  name: "inception_4b/relu_1x1"
  type: "ReLU"
  bottom: "inception_4b/1x1"
  top: "inception_4b/1x1"
}
layer {
  name: "inception_4b/3x3_reduce"
  type: "Convolution"
  bottom: "inception_4a/output"
  top: "inception_4b/3x3_reduce"
  param {
    lr_mult: 1
    decay_mult: 1
  }
  param {
    lr_mult: 2
    decay_mult: 0
  }
  convolution_param {
    num_output: 112
    kernel_size: 1
    weight_filler {
      type: "xavier"
      std: 0.09
    }
    bias_filler {
      type: "constant"
      value: 0.2
    }
  }
}
layer {
  name: "inception_4b/relu_3x3_reduce"
  type: "ReLU"
  bottom: "inception_4b/3x3_reduce"
  top: "inception_4b/3x3_reduce"
}
layer {
  name: "inception_4b/3x3"
  type: "Convolution"
  bottom: "inception_4b/3x3_reduce"
  top: "inception_4b/3x3"
  param {
    lr_mult: 1
    decay_mult: 1
  }
  param {
    lr_mult: 2
    decay_mult: 0
  }
  convolution_param {
    num_output: 224
    pad: 1
    kernel_size: 3
    weight_filler {
      type: "xavier"
      std: 0.03
    }
    bias_filler {
      type: "constant"
      value: 0.2
    }
  }
}
layer {
  name: "inception_4b/relu_3x3"
  type: "ReLU"
  bottom: "inception_4b/3x3"
  top: "inception_4b/3x3"
}
layer {
  name: "inception_4b/5x5_reduce"
  type: "Convolution"
  bottom: "inception_4a/output"
  top: "inception_4b/5x5_reduce"
  param {
    lr_mult: 1
    decay_mult: 1
  }
  param {
    lr_mult: 2
    decay_mult: 0
  }
  convolution_param {
    num_output: 24
    kernel_size: 1
    weight_filler {
      type: "xavier"
      std: 0.2
    }
    bias_filler {
      type: "constant"
      value: 0.2
    }
  }
}
layer {
  name: "inception_4b/relu_5x5_reduce"
  type: "ReLU"
  bottom: "inception_4b/5x5_reduce"
  top: "inception_4b/5x5_reduce"
}
layer {
  name: "inception_4b/5x5"
  type: "Convolution"
  bottom: "inception_4b/5x5_reduce"
  top: "inception_4b/5x5"
  param {
    lr_mult: 1
    decay_mult: 1
  }
  param {
    lr_mult: 2
    decay_mult: 0
  }
  convolution_param {
    num_output: 64
    pad: 2
    kernel_size: 5
    weight_filler {
      type: "xavier"
      std: 0.03
    }
    bias_filler {
      type: "constant"
      value: 0.2
    }
  }
}
layer {
  name: "inception_4b/relu_5x5"
  type: "ReLU"
  bottom: "inception_4b/5x5"
  top: "inception_4b/5x5"
}
layer {
  name: "inception_4b/pool"
  type: "Pooling"
  bottom: "inception_4a/output"
  top: "inception_4b/pool"
  pooling_param {
    pool: MAX
    kernel_size: 3
    stride: 1
    pad: 1
  }
}
layer {
  name: "inception_4b/pool_proj"
  type: "Convolution"
  bottom: "inception_4b/pool"
  top: "inception_4b/pool_proj"
  param {
    lr_mult: 1
    decay_mult: 1
  }
  param {
    lr_mult: 2
    decay_mult: 0
  }
  convolution_param {
    num_output: 64
    kernel_size: 1
    weight_filler {
      type: "xavier"
      std: 0.1
    }
    bias_filler {
      type: "constant"
      value: 0.2
    }
  }
}
layer {
  name: "inception_4b/relu_pool_proj"
  type: "ReLU"
  bottom: "inception_4b/pool_proj"
  top: "inception_4b/pool_proj"
}
layer {
  name: "inception_4b/output"
  type: "Concat"
  bottom: "inception_4b/1x1"
  bottom: "inception_4b/3x3"
  bottom: "inception_4b/5x5"
  bottom: "inception_4b/pool_proj"
  top: "inception_4b/output"
}
layer {
  name: "inception_4c/1x1"
  type: "Convolution"
  bottom: "inception_4b/output"
  top: "inception_4c/1x1"
  param {
    lr_mult: 1
    decay_mult: 1
  }
  param {
    lr_mult: 2
    decay_mult: 0
  }
  convolution_param {
    num_output: 128
    kernel_size: 1
    weight_filler {
      type: "xavier"
      std: 0.03
    }
    bias_filler {
      type: "constant"
      value: 0.2
    }
  }
}
layer {
  name: "inception_4c/relu_1x1"
  type: "ReLU"
  bottom: "inception_4c/1x1"
  top: "inception_4c/1x1"
}
layer {
  name: "inception_4c/3x3_reduce"
  type: "Convolution"
  bottom: "inception_4b/output"
  top: "inception_4c/3x3_reduce"
  param {
    lr_mult: 1
    decay_mult: 1
  }
  param {
    lr_mult: 2
    decay_mult: 0
  }
  convolution_param {
    num_output: 128
    kernel_size: 1
    weight_filler {
      type: "xavier"
      std: 0.09
    }
    bias_filler {
      type: "constant"
      value: 0.2
    }
  }
}
layer {
  name: "inception_4c/relu_3x3_reduce"
  type: "ReLU"
  bottom: "inception_4c/3x3_reduce"
  top: "inception_4c/3x3_reduce"
}
layer {
  name: "inception_4c/3x3"
  type: "Convolution"
  bottom: "inception_4c/3x3_reduce"
  top: "inception_4c/3x3"
  param {
    lr_mult: 1
    decay_mult: 1
  }
  param {
    lr_mult: 2
    decay_mult: 0
  }
  convolution_param {
    num_output: 256
    pad: 1
    kernel_size: 3
    weight_filler {
      type: "xavier"
      std: 0.03
    }
    bias_filler {
      type: "constant"
      value: 0.2
    }
  }
}
layer {
  name: "inception_4c/relu_3x3"
  type: "ReLU"
  bottom: "inception_4c/3x3"
  top: "inception_4c/3x3"
}
layer {
  name: "inception_4c/5x5_reduce"
  type: "Convolution"
  bottom: "inception_4b/output"
  top: "inception_4c/5x5_reduce"
  param {
    lr_mult: 1
    decay_mult: 1
  }
  param {
    lr_mult: 2
    decay_mult: 0
  }
  convolution_param {
    num_output: 24
    kernel_size: 1
    weight_filler {
      type: "xavier"
      std: 0.2
    }
    bias_filler {
      type: "constant"
      value: 0.2
    }
  }
}
layer {
  name: "inception_4c/relu_5x5_reduce"
  type: "ReLU"
  bottom: "inception_4c/5x5_reduce"
  top: "inception_4c/5x5_reduce"
}
layer {
  name: "inception_4c/5x5"
  type: "Convolution"
  bottom: "inception_4c/5x5_reduce"
  top: "inception_4c/5x5"
  param {
    lr_mult: 1
    decay_mult: 1
  }
  param {
    lr_mult: 2
    decay_mult: 0
  }
  convolution_param {
    num_output: 64
    pad: 2
    kernel_size: 5
    weight_filler {
      type: "xavier"
      std: 0.03
    }
    bias_filler {
      type: "constant"
      value: 0.2
    }
  }
}
layer {
  name: "inception_4c/relu_5x5"
  type: "ReLU"
  bottom: "inception_4c/5x5"
  top: "inception_4c/5x5"
}
layer {
  name: "inception_4c/pool"
  type: "Pooling"
  bottom: "inception_4b/output"
  top: "inception_4c/pool"
  pooling_param {
    pool: MAX
    kernel_size: 3
    stride: 1
    pad: 1
  }
}
layer {
  name: "inception_4c/pool_proj"
  type: "Convolution"
  bottom: "inception_4c/pool"
  top: "inception_4c/pool_proj"
  param {
    lr_mult: 1
    decay_mult: 1
  }
  param {
    lr_mult: 2
    decay_mult: 0
  }
  convolution_param {
    num_output: 64
    kernel_size: 1
    weight_filler {
      type: "xavier"
      std: 0.1
    }
    bias_filler {
      type: "constant"
      value: 0.2
    }
  }
}
layer {
  name: "inception_4c/relu_pool_proj"
  type: "ReLU"
  bottom: "inception_4c/pool_proj"
  top: "inception_4c/pool_proj"
}
layer {
  name: "inception_4c/output"
  type: "Concat"
  bottom: "inception_4c/1x1"
  bottom: "inception_4c/3x3"
  bottom: "inception_4c/5x5"
  bottom: "inception_4c/pool_proj"
  top: "inception_4c/output"
}
layer {
  name: "inception_4d/1x1"
  type: "Convolution"
  bottom: "inception_4c/output"
  top: "inception_4d/1x1"
  param {
    lr_mult: 1
    decay_mult: 1
  }
  param {
    lr_mult: 2
    decay_mult: 0
  }
  convolution_param {
    num_output: 112
    kernel_size: 1
    weight_filler {
      type: "xavier"
      std: 0.03
    }
    bias_filler {
      type: "constant"
      value: 0.2
    }
  }
}
layer {
  name: "inception_4d/relu_1x1"
  type: "ReLU"
  bottom: "inception_4d/1x1"
  top: "inception_4d/1x1"
}
layer {
  name: "inception_4d/3x3_reduce"
  type: "Convolution"
  bottom: "inception_4c/output"
  top: "inception_4d/3x3_reduce"
  param {
    lr_mult: 1
    decay_mult: 1
  }
  param {
    lr_mult: 2
    decay_mult: 0
  }
  convolution_param {
    num_output: 144
    kernel_size: 1
    weight_filler {
      type: "xavier"
      std: 0.09
    }
    bias_filler {
      type: "constant"
      value: 0.2
    }
  }
}
layer {
  name: "inception_4d/relu_3x3_reduce"
  type: "ReLU"
  bottom: "inception_4d/3x3_reduce"
  top: "inception_4d/3x3_reduce"
}
layer {
  name: "inception_4d/3x3"
  type: "Convolution"
  bottom: "inception_4d/3x3_reduce"
  top: "inception_4d/3x3"
  param {
    lr_mult: 1
    decay_mult: 1
  }
  param {
    lr_mult: 2
    decay_mult: 0
  }
  convolution_param {
    num_output: 288
    pad: 1
    kernel_size: 3
    weight_filler {
      type: "xavier"
      std: 0.03
    }
    bias_filler {
      type: "constant"
      value: 0.2
    }
  }
}
layer {
  name: "inception_4d/relu_3x3"
  type: "ReLU"
  bottom: "inception_4d/3x3"
  top: "inception_4d/3x3"
}
layer {
  name: "inception_4d/5x5_reduce"
  type: "Convolution"
  bottom: "inception_4c/output"
  top: "inception_4d/5x5_reduce"
  param {
    lr_mult: 1
    decay_mult: 1
  }
  param {
    lr_mult: 2
    decay_mult: 0
  }
  convolution_param {
    num_output: 32
    kernel_size: 1
    weight_filler {
      type: "xavier"
      std: 0.2
    }
    bias_filler {
      type: "constant"
      value: 0.2
    }
  }
}
layer {
  name: "inception_4d/relu_5x5_reduce"
  type: "ReLU"
  bottom: "inception_4d/5x5_reduce"
  top: "inception_4d/5x5_reduce"
}
layer {
  name: "inception_4d/5x5"
  type: "Convolution"
  bottom: "inception_4d/5x5_reduce"
  top: "inception_4d/5x5"
  param {
    lr_mult: 1
    decay_mult: 1
  }
  param {
    lr_mult: 2
    decay_mult: 0
  }
  convolution_param {
    num_output: 64
    pad: 2
    kernel_size: 5
    weight_filler {
      type: "xavier"
      std: 0.03
    }
    bias_filler {
      type: "constant"
      value: 0.2
    }
  }
}
layer {
  name: "inception_4d/relu_5x5"
  type: "ReLU"
  bottom: "inception_4d/5x5"
  top: "inception_4d/5x5"
}
layer {
  name: "inception_4d/pool"
  type: "Pooling"
  bottom: "inception_4c/output"
  top: "inception_4d/pool"
  pooling_param {
    pool: MAX
    kernel_size: 3
    stride: 1
    pad: 1
  }
}
layer {
  name: "inception_4d/pool_proj"
  type: "Convolution"
  bottom: "inception_4d/pool"
  top: "inception_4d/pool_proj"
  param {
    lr_mult: 1
    decay_mult: 1
  }
  param {
    lr_mult: 2
    decay_mult: 0
  }
  convolution_param {
    num_output: 64
    kernel_size: 1
    weight_filler {
      type: "xavier"
      std: 0.1
    }
    bias_filler {
      type: "constant"
      value: 0.2
    }
  }
}
layer {
  name: "inception_4d/relu_pool_proj"
  type: "ReLU"
  bottom: "inception_4d/pool_proj"
  top: "inception_4d/pool_proj"
}
layer {
  name: "inception_4d/output"
  type: "Concat"
  bottom: "inception_4d/1x1"
  bottom: "inception_4d/3x3"
  bottom: "inception_4d/5x5"
  bottom: "inception_4d/pool_proj"
  top: "inception_4d/output"
}
layer {
  name: "loss2/ave_pool"
  type: "Pooling"
  bottom: "inception_4d/output"
  top: "loss2/ave_pool"
  pooling_param {
    pool: AVE
    kernel_size: 5
    stride: 3
  }
}
layer {
  name: "loss2/conv"
  type: "Convolution"
  bottom: "loss2/ave_pool"
  top: "loss2/conv"
  param {
    lr_mult: 1
    decay_mult: 1
  }
  param {
    lr_mult: 2
    decay_mult: 0
  }
  convolution_param {
    num_output: 128
    kernel_size: 1
    weight_filler {
      type: "xavier"
      std: 0.08
    }
    bias_filler {
      type: "constant"
      value: 0.2
    }
  }
}
layer {
  name: "loss2/relu_conv"
  type: "ReLU"
  bottom: "loss2/conv"
  top: "loss2/conv"
}
layer {
  name: "loss2/fc"
  type: "InnerProduct"
  bottom: "loss2/conv"
  top: "loss2/fc"
  param {
    lr_mult: 1
    decay_mult: 1
  }
  param {
    lr_mult: 2
    decay_mult: 0
  }
  inner_product_param {
    num_output: 1024
    weight_filler {
      type: "xavier"
      std: 0.02
    }
    bias_filler {
      type: "constant"
      value: 0.2
    }
  }
}
layer {
  name: "loss2/relu_fc"
  type: "ReLU"
  bottom: "loss2/fc"
  top: "loss2/fc"
}
layer {
  name: "loss2/drop_fc"
  type: "Dropout"
  bottom: "loss2/fc"
  top: "loss2/fc"
  dropout_param {
    dropout_ratio: 0.7
  }
}
layer {
  name: "loss2/classifier_plantvillage"
  type: "InnerProduct"
  bottom: "loss2/fc"
  top: "loss2/classifier_plantvillage"
  param {
    lr_mult: 1
    decay_mult: 1
  }
  param {
    lr_mult: 2
    decay_mult: 0
  }
  inner_product_param {
    num_output: 38
    weight_filler {
      type: "xavier"
      std: 0.0009765625
    }
    bias_filler {
      type: "constant"
      value: 0
    }
  }
}
layer {
  name: "inception_4e/1x1"
  type: "Convolution"
  bottom: "inception_4d/output"
  top: "inception_4e/1x1"
  param {
    lr_mult: 1
    decay_mult: 1
  }
  param {
    lr_mult: 2
    decay_mult: 0
  }
  convolution_param {
    num_output: 256
    kernel_size: 1
    weight_filler {
      type: "xavier"
      std: 0.03
    }
    bias_filler {
      type: "constant"
      value: 0.2
    }
  }
}
layer {
  name: "inception_4e/relu_1x1"
  type: "ReLU"
  bottom: "inception_4e/1x1"
  top: "inception_4e/1x1"
}
layer {
  name: "inception_4e/3x3_reduce"
  type: "Convolution"
  bottom: "inception_4d/output"
  top: "inception_4e/3x3_reduce"
  param {
    lr_mult: 1
    decay_mult: 1
  }
  param {
    lr_mult: 2
    decay_mult: 0
  }
  convolution_param {
    num_output: 160
    kernel_size: 1
    weight_filler {
      type: "xavier"
      std: 0.09
    }
    bias_filler {
      type: "constant"
      value: 0.2
    }
  }
}
layer {
  name: "inception_4e/relu_3x3_reduce"
  type: "ReLU"
  bottom: "inception_4e/3x3_reduce"
  top: "inception_4e/3x3_reduce"
}
layer {
  name: "inception_4e/3x3"
  type: "Convolution"
  bottom: "inception_4e/3x3_reduce"
  top: "inception_4e/3x3"
  param {
    lr_mult: 1
    decay_mult: 1
  }
  param {
    lr_mult: 2
    decay_mult: 0
  }
  convolution_param {
    num_output: 320
    pad: 1
    kernel_size: 3
    weight_filler {
      type: "xavier"
      std: 0.03
    }
    bias_filler {
      type: "constant"
      value: 0.2
    }
  }
}
layer {
  name: "inception_4e/relu_3x3"
  type: "ReLU"
  bottom: "inception_4e/3x3"
  top: "inception_4e/3x3"
}
layer {
  name: "inception_4e/5x5_reduce"
  type: "Convolution"
  bottom: "inception_4d/output"
  top: "inception_4e/5x5_reduce"
  param {
    lr_mult: 1
    decay_mult: 1
  }
  param {
    lr_mult: 2
    decay_mult: 0
  }
  convolution_param {
    num_output: 32
    kernel_size: 1
    weight_filler {
      type: "xavier"
      std: 0.2
    }
    bias_filler {
      type: "constant"
      value: 0.2
    }
  }
}
layer {
  name: "inception_4e/relu_5x5_reduce"
  type: "ReLU"
  bottom: "inception_4e/5x5_reduce"
  top: "inception_4e/5x5_reduce"
}
layer {
  name: "inception_4e/5x5"
  type: "Convolution"
  bottom: "inception_4e/5x5_reduce"
  top: "inception_4e/5x5"
  p
I0403 15:37:52.361412 32537 layer_factory.hpp:77] Creating layer data
I0403 15:37:52.362038 32537 net.cpp:91] Creating Layer data
I0403 15:37:52.362071 32537 net.cpp:399] data -> data
I0403 15:37:52.362123 32537 net.cpp:399] data -> label
I0403 15:37:52.362160 32537 data_transformer.cpp:25] Loading mean file from: /home/mohanty/data/final_dataset/lmdb/color-60-40/mean.binaryproto
I0403 15:37:52.364874 32577 db_lmdb.cpp:38] Opened lmdb /home/mohanty/data/final_dataset/lmdb/color-60-40/test_db
I0403 15:37:52.376492 32537 data_layer.cpp:41] output data size: 24,3,224,224
I0403 15:37:52.420347 32537 net.cpp:141] Setting up data
I0403 15:37:52.420441 32537 net.cpp:148] Top shape: 24 3 224 224 (3612672)
I0403 15:37:52.420466 32537 net.cpp:148] Top shape: 24 (24)
I0403 15:37:52.420483 32537 net.cpp:156] Memory required for data: 14450784
I0403 15:37:52.420514 32537 layer_factory.hpp:77] Creating layer label_data_1_split
I0403 15:37:52.420543 32537 net.cpp:91] Creating Layer label_data_1_split
I0403 15:37:52.420562 32537 net.cpp:425] label_data_1_split <- label
I0403 15:37:52.420596 32537 net.cpp:399] label_data_1_split -> label_data_1_split_0
I0403 15:37:52.420626 32537 net.cpp:399] label_data_1_split -> label_data_1_split_1
I0403 15:37:52.420650 32537 net.cpp:399] label_data_1_split -> label_data_1_split_2
I0403 15:37:52.420672 32537 net.cpp:399] label_data_1_split -> label_data_1_split_3
I0403 15:37:52.420692 32537 net.cpp:399] label_data_1_split -> label_data_1_split_4
I0403 15:37:52.420712 32537 net.cpp:399] label_data_1_split -> label_data_1_split_5
I0403 15:37:52.420732 32537 net.cpp:399] label_data_1_split -> label_data_1_split_6
I0403 15:37:52.420754 32537 net.cpp:399] label_data_1_split -> label_data_1_split_7
I0403 15:37:52.420774 32537 net.cpp:399] label_data_1_split -> label_data_1_split_8
I0403 15:37:52.420796 32537 net.cpp:399] label_data_1_split -> label_data_1_split_9
I0403 15:37:52.420917 32537 net.cpp:141] Setting up label_data_1_split
I0403 15:37:52.420940 32537 net.cpp:148] Top shape: 24 (24)
I0403 15:37:52.420958 32537 net.cpp:148] Top shape: 24 (24)
I0403 15:37:52.420976 32537 net.cpp:148] Top shape: 24 (24)
I0403 15:37:52.420994 32537 net.cpp:148] Top shape: 24 (24)
I0403 15:37:52.421011 32537 net.cpp:148] Top shape: 24 (24)
I0403 15:37:52.421027 32537 net.cpp:148] Top shape: 24 (24)
I0403 15:37:52.421044 32537 net.cpp:148] Top shape: 24 (24)
I0403 15:37:52.421061 32537 net.cpp:148] Top shape: 24 (24)
I0403 15:37:52.421077 32537 net.cpp:148] Top shape: 24 (24)
I0403 15:37:52.421093 32537 net.cpp:148] Top shape: 24 (24)
I0403 15:37:52.421136 32537 net.cpp:156] Memory required for data: 14451744
I0403 15:37:52.421159 32537 layer_factory.hpp:77] Creating layer conv1/7x7_s2
I0403 15:37:52.421202 32537 net.cpp:91] Creating Layer conv1/7x7_s2
I0403 15:37:52.421233 32537 net.cpp:425] conv1/7x7_s2 <- data
I0403 15:37:52.421265 32537 net.cpp:399] conv1/7x7_s2 -> conv1/7x7_s2
I0403 15:37:52.611358 32537 net.cpp:141] Setting up conv1/7x7_s2
I0403 15:37:52.611419 32537 net.cpp:148] Top shape: 24 64 112 112 (19267584)
I0403 15:37:52.611449 32537 net.cpp:156] Memory required for data: 91522080
I0403 15:37:52.611490 32537 layer_factory.hpp:77] Creating layer conv1/relu_7x7
I0403 15:37:52.611521 32537 net.cpp:91] Creating Layer conv1/relu_7x7
I0403 15:37:52.611549 32537 net.cpp:425] conv1/relu_7x7 <- conv1/7x7_s2
I0403 15:37:52.611575 32537 net.cpp:386] conv1/relu_7x7 -> conv1/7x7_s2 (in-place)
I0403 15:37:52.611852 32537 net.cpp:141] Setting up conv1/relu_7x7
I0403 15:37:52.611889 32537 net.cpp:148] Top shape: 24 64 112 112 (19267584)
I0403 15:37:52.611912 32537 net.cpp:156] Memory required for data: 168592416
I0403 15:37:52.611934 32537 layer_factory.hpp:77] Creating layer pool1/3x3_s2
I0403 15:37:52.611971 32537 net.cpp:91] Creating Layer pool1/3x3_s2
I0403 15:37:52.611990 32537 net.cpp:425] pool1/3x3_s2 <- conv1/7x7_s2
I0403 15:37:52.612011 32537 net.cpp:399] pool1/3x3_s2 -> pool1/3x3_s2
I0403 15:37:52.612085 32537 net.cpp:141] Setting up pool1/3x3_s2
I0403 15:37:52.612112 32537 net.cpp:148] Top shape: 24 64 56 56 (4816896)
I0403 15:37:52.612140 32537 net.cpp:156] Memory required for data: 187860000
I0403 15:37:52.612167 32537 layer_factory.hpp:77] Creating layer pool1/norm1
I0403 15:37:52.612239 32537 net.cpp:91] Creating Layer pool1/norm1
I0403 15:37:52.612264 32537 net.cpp:425] pool1/norm1 <- pool1/3x3_s2
I0403 15:37:52.612288 32537 net.cpp:399] pool1/norm1 -> pool1/norm1
I0403 15:37:52.612596 32537 net.cpp:141] Setting up pool1/norm1
I0403 15:37:52.612625 32537 net.cpp:148] Top shape: 24 64 56 56 (4816896)
I0403 15:37:52.612643 32537 net.cpp:156] Memory required for data: 207127584
I0403 15:37:52.612659 32537 layer_factory.hpp:77] Creating layer conv2/3x3_reduce
I0403 15:37:52.612689 32537 net.cpp:91] Creating Layer conv2/3x3_reduce
I0403 15:37:52.612714 32537 net.cpp:425] conv2/3x3_reduce <- pool1/norm1
I0403 15:37:52.612733 32537 net.cpp:399] conv2/3x3_reduce -> conv2/3x3_reduce
I0403 15:37:52.622488 32537 net.cpp:141] Setting up conv2/3x3_reduce
I0403 15:37:52.622530 32537 net.cpp:148] Top shape: 24 64 56 56 (4816896)
I0403 15:37:52.622555 32537 net.cpp:156] Memory required for data: 226395168
I0403 15:37:52.622594 32537 layer_factory.hpp:77] Creating layer conv2/relu_3x3_reduce
I0403 15:37:52.622617 32537 net.cpp:91] Creating Layer conv2/relu_3x3_reduce
I0403 15:37:52.622635 32537 net.cpp:425] conv2/relu_3x3_reduce <- conv2/3x3_reduce
I0403 15:37:52.622655 32537 net.cpp:386] conv2/relu_3x3_reduce -> conv2/3x3_reduce (in-place)
I0403 15:37:52.622951 32537 net.cpp:141] Setting up conv2/relu_3x3_reduce
I0403 15:37:52.622982 32537 net.cpp:148] Top shape: 24 64 56 56 (4816896)
I0403 15:37:52.622998 32537 net.cpp:156] Memory required for data: 245662752
I0403 15:37:52.623016 32537 layer_factory.hpp:77] Creating layer conv2/3x3
I0403 15:37:52.623042 32537 net.cpp:91] Creating Layer conv2/3x3
I0403 15:37:52.623061 32537 net.cpp:425] conv2/3x3 <- conv2/3x3_reduce
I0403 15:37:52.623086 32537 net.cpp:399] conv2/3x3 -> conv2/3x3
I0403 15:37:52.625535 32537 net.cpp:141] Setting up conv2/3x3
I0403 15:37:52.625576 32537 net.cpp:148] Top shape: 24 192 56 56 (14450688)
I0403 15:37:52.625597 32537 net.cpp:156] Memory required for data: 303465504
I0403 15:37:52.625623 32537 layer_factory.hpp:77] Creating layer conv2/relu_3x3
I0403 15:37:52.625644 32537 net.cpp:91] Creating Layer conv2/relu_3x3
I0403 15:37:52.625663 32537 net.cpp:425] conv2/relu_3x3 <- conv2/3x3
I0403 15:37:52.625681 32537 net.cpp:386] conv2/relu_3x3 -> conv2/3x3 (in-place)
I0403 15:37:52.625871 32537 net.cpp:141] Setting up conv2/relu_3x3
I0403 15:37:52.625901 32537 net.cpp:148] Top shape: 24 192 56 56 (14450688)
I0403 15:37:52.625946 32537 net.cpp:156] Memory required for data: 361268256
I0403 15:37:52.625963 32537 layer_factory.hpp:77] Creating layer conv2/norm2
I0403 15:37:52.625988 32537 net.cpp:91] Creating Layer conv2/norm2
I0403 15:37:52.626006 32537 net.cpp:425] conv2/norm2 <- conv2/3x3
I0403 15:37:52.626026 32537 net.cpp:399] conv2/norm2 -> conv2/norm2
I0403 15:37:52.626348 32537 net.cpp:141] Setting up conv2/norm2
I0403 15:37:52.626377 32537 net.cpp:148] Top shape: 24 192 56 56 (14450688)
I0403 15:37:52.626394 32537 net.cpp:156] Memory required for data: 419071008
I0403 15:37:52.626410 32537 layer_factory.hpp:77] Creating layer pool2/3x3_s2
I0403 15:37:52.626431 32537 net.cpp:91] Creating Layer pool2/3x3_s2
I0403 15:37:52.626449 32537 net.cpp:425] pool2/3x3_s2 <- conv2/norm2
I0403 15:37:52.626468 32537 net.cpp:399] pool2/3x3_s2 -> pool2/3x3_s2
I0403 15:37:52.626525 32537 net.cpp:141] Setting up pool2/3x3_s2
I0403 15:37:52.626562 32537 net.cpp:148] Top shape: 24 192 28 28 (3612672)
I0403 15:37:52.626579 32537 net.cpp:156] Memory required for data: 433521696
I0403 15:37:52.626593 32537 layer_factory.hpp:77] Creating layer pool2/3x3_s2_pool2/3x3_s2_0_split
I0403 15:37:52.626612 32537 net.cpp:91] Creating Layer pool2/3x3_s2_pool2/3x3_s2_0_split
I0403 15:37:52.626628 32537 net.cpp:425] pool2/3x3_s2_pool2/3x3_s2_0_split <- pool2/3x3_s2
I0403 15:37:52.626649 32537 net.cpp:399] pool2/3x3_s2_pool2/3x3_s2_0_split -> pool2/3x3_s2_pool2/3x3_s2_0_split_0
I0403 15:37:52.626672 32537 net.cpp:399] pool2/3x3_s2_pool2/3x3_s2_0_split -> pool2/3x3_s2_pool2/3x3_s2_0_split_1
I0403 15:37:52.626703 32537 net.cpp:399] pool2/3x3_s2_pool2/3x3_s2_0_split -> pool2/3x3_s2_pool2/3x3_s2_0_split_2
I0403 15:37:52.626732 32537 net.cpp:399] pool2/3x3_s2_pool2/3x3_s2_0_split -> pool2/3x3_s2_pool2/3x3_s2_0_split_3
I0403 15:37:52.626813 32537 net.cpp:141] Setting up pool2/3x3_s2_pool2/3x3_s2_0_split
I0403 15:37:52.626848 32537 net.cpp:148] Top shape: 24 192 28 28 (3612672)
I0403 15:37:52.626874 32537 net.cpp:148] Top shape: 24 192 28 28 (3612672)
I0403 15:37:52.626900 32537 net.cpp:148] Top shape: 24 192 28 28 (3612672)
I0403 15:37:52.626927 32537 net.cpp:148] Top shape: 24 192 28 28 (3612672)
I0403 15:37:52.626951 32537 net.cpp:156] Memory required for data: 491324448
I0403 15:37:52.626976 32537 layer_factory.hpp:77] Creating layer inception_3a/1x1
I0403 15:37:52.627012 32537 net.cpp:91] Creating Layer inception_3a/1x1
I0403 15:37:52.627046 32537 net.cpp:425] inception_3a/1x1 <- pool2/3x3_s2_pool2/3x3_s2_0_split_0
I0403 15:37:52.627080 32537 net.cpp:399] inception_3a/1x1 -> inception_3a/1x1
I0403 15:37:52.628679 32537 net.cpp:141] Setting up inception_3a/1x1
I0403 15:37:52.628710 32537 net.cpp:148] Top shape: 24 64 28 28 (1204224)
I0403 15:37:52.628728 32537 net.cpp:156] Memory required for data: 496141344
I0403 15:37:52.628751 32537 layer_factory.hpp:77] Creating layer inception_3a/relu_1x1
I0403 15:37:52.628775 32537 net.cpp:91] Creating Layer inception_3a/relu_1x1
I0403 15:37:52.628793 32537 net.cpp:425] inception_3a/relu_1x1 <- inception_3a/1x1
I0403 15:37:52.628813 32537 net.cpp:386] inception_3a/relu_1x1 -> inception_3a/1x1 (in-place)
I0403 15:37:52.628990 32537 net.cpp:141] Setting up inception_3a/relu_1x1
I0403 15:37:52.629020 32537 net.cpp:148] Top shape: 24 64 28 28 (1204224)
I0403 15:37:52.629037 32537 net.cpp:156] Memory required for data: 500958240
I0403 15:37:52.629055 32537 layer_factory.hpp:77] Creating layer inception_3a/3x3_reduce
I0403 15:37:52.629077 32537 net.cpp:91] Creating Layer inception_3a/3x3_reduce
I0403 15:37:52.629096 32537 net.cpp:425] inception_3a/3x3_reduce <- pool2/3x3_s2_pool2/3x3_s2_0_split_1
I0403 15:37:52.629117 32537 net.cpp:399] inception_3a/3x3_reduce -> inception_3a/3x3_reduce
I0403 15:37:52.630867 32537 net.cpp:141] Setting up inception_3a/3x3_reduce
I0403 15:37:52.630903 32537 net.cpp:148] Top shape: 24 96 28 28 (1806336)
I0403 15:37:52.630923 32537 net.cpp:156] Memory required for data: 508183584
I0403 15:37:52.630950 32537 layer_factory.hpp:77] Creating layer inception_3a/relu_3x3_reduce
I0403 15:37:52.630996 32537 net.cpp:91] Creating Layer inception_3a/relu_3x3_reduce
I0403 15:37:52.631021 32537 net.cpp:425] inception_3a/relu_3x3_reduce <- inception_3a/3x3_reduce
I0403 15:37:52.631052 32537 net.cpp:386] inception_3a/relu_3x3_reduce -> inception_3a/3x3_reduce (in-place)
I0403 15:37:52.631247 32537 net.cpp:141] Setting up inception_3a/relu_3x3_reduce
I0403 15:37:52.631278 32537 net.cpp:148] Top shape: 24 96 28 28 (1806336)
I0403 15:37:52.631316 32537 net.cpp:156] Memory required for data: 515408928
I0403 15:37:52.631341 32537 layer_factory.hpp:77] Creating layer inception_3a/3x3
I0403 15:37:52.631367 32537 net.cpp:91] Creating Layer inception_3a/3x3
I0403 15:37:52.631393 32537 net.cpp:425] inception_3a/3x3 <- inception_3a/3x3_reduce
I0403 15:37:52.631419 32537 net.cpp:399] inception_3a/3x3 -> inception_3a/3x3
I0403 15:37:52.633155 32537 net.cpp:141] Setting up inception_3a/3x3
I0403 15:37:52.633186 32537 net.cpp:148] Top shape: 24 128 28 28 (2408448)
I0403 15:37:52.633203 32537 net.cpp:156] Memory required for data: 525042720
I0403 15:37:52.633222 32537 layer_factory.hpp:77] Creating layer inception_3a/relu_3x3
I0403 15:37:52.633246 32537 net.cpp:91] Creating Layer inception_3a/relu_3x3
I0403 15:37:52.633267 32537 net.cpp:425] inception_3a/relu_3x3 <- inception_3a/3x3
I0403 15:37:52.633290 32537 net.cpp:386] inception_3a/relu_3x3 -> inception_3a/3x3 (in-place)
I0403 15:37:52.633585 32537 net.cpp:141] Setting up inception_3a/relu_3x3
I0403 15:37:52.633621 32537 net.cpp:148] Top shape: 24 128 28 28 (2408448)
I0403 15:37:52.633653 32537 net.cpp:156] Memory required for data: 534676512
I0403 15:37:52.633673 32537 layer_factory.hpp:77] Creating layer inception_3a/5x5_reduce
I0403 15:37:52.633708 32537 net.cpp:91] Creating Layer inception_3a/5x5_reduce
I0403 15:37:52.633728 32537 net.cpp:425] inception_3a/5x5_reduce <- pool2/3x3_s2_pool2/3x3_s2_0_split_2
I0403 15:37:52.633749 32537 net.cpp:399] inception_3a/5x5_reduce -> inception_3a/5x5_reduce
I0403 15:37:52.634775 32537 net.cpp:141] Setting up inception_3a/5x5_reduce
I0403 15:37:52.634809 32537 net.cpp:148] Top shape: 24 16 28 28 (301056)
I0403 15:37:52.634832 32537 net.cpp:156] Memory required for data: 535880736
I0403 15:37:52.634857 32537 layer_factory.hpp:77] Creating layer inception_3a/relu_5x5_reduce
I0403 15:37:52.634891 32537 net.cpp:91] Creating Layer inception_3a/relu_5x5_reduce
I0403 15:37:52.634912 32537 net.cpp:425] inception_3a/relu_5x5_reduce <- inception_3a/5x5_reduce
I0403 15:37:52.634934 32537 net.cpp:386] inception_3a/relu_5x5_reduce -> inception_3a/5x5_reduce (in-place)
I0403 15:37:52.635228 32537 net.cpp:141] Setting up inception_3a/relu_5x5_reduce
I0403 15:37:52.635265 32537 net.cpp:148] Top shape: 24 16 28 28 (301056)
I0403 15:37:52.635298 32537 net.cpp:156] Memory required for data: 537084960
I0403 15:37:52.635321 32537 layer_factory.hpp:77] Creating layer inception_3a/5x5
I0403 15:37:52.635346 32537 net.cpp:91] Creating Layer inception_3a/5x5
I0403 15:37:52.635365 32537 net.cpp:425] inception_3a/5x5 <- inception_3a/5x5_reduce
I0403 15:37:52.635390 32537 net.cpp:399] inception_3a/5x5 -> inception_3a/5x5
I0403 15:37:52.636456 32537 net.cpp:141] Setting up inception_3a/5x5
I0403 15:37:52.636485 32537 net.cpp:148] Top shape: 24 32 28 28 (602112)
I0403 15:37:52.636502 32537 net.cpp:156] Memory required for data: 539493408
I0403 15:37:52.636523 32537 layer_factory.hpp:77] Creating layer inception_3a/relu_5x5
I0403 15:37:52.636544 32537 net.cpp:91] Creating Layer inception_3a/relu_5x5
I0403 15:37:52.636561 32537 net.cpp:425] inception_3a/relu_5x5 <- inception_3a/5x5
I0403 15:37:52.636581 32537 net.cpp:386] inception_3a/relu_5x5 -> inception_3a/5x5 (in-place)
I0403 15:37:52.636791 32537 net.cpp:141] Setting up inception_3a/relu_5x5
I0403 15:37:52.636821 32537 net.cpp:148] Top shape: 24 32 28 28 (602112)
I0403 15:37:52.636837 32537 net.cpp:156] Memory required for data: 541901856
I0403 15:37:52.636853 32537 layer_factory.hpp:77] Creating layer inception_3a/pool
I0403 15:37:52.636874 32537 net.cpp:91] Creating Layer inception_3a/pool
I0403 15:37:52.636901 32537 net.cpp:425] inception_3a/pool <- pool2/3x3_s2_pool2/3x3_s2_0_split_3
I0403 15:37:52.636946 32537 net.cpp:399] inception_3a/pool -> inception_3a/pool
I0403 15:37:52.637012 32537 net.cpp:141] Setting up inception_3a/pool
I0403 15:37:52.637049 32537 net.cpp:148] Top shape: 24 192 28 28 (3612672)
I0403 15:37:52.637068 32537 net.cpp:156] Memory required for data: 556352544
I0403 15:37:52.637089 32537 layer_factory.hpp:77] Creating layer inception_3a/pool_proj
I0403 15:37:52.637125 32537 net.cpp:91] Creating Layer inception_3a/pool_proj
I0403 15:37:52.637148 32537 net.cpp:425] inception_3a/pool_proj <- inception_3a/pool
I0403 15:37:52.637169 32537 net.cpp:399] inception_3a/pool_proj -> inception_3a/pool_proj
I0403 15:37:52.638165 32537 net.cpp:141] Setting up inception_3a/pool_proj
I0403 15:37:52.638195 32537 net.cpp:148] Top shape: 24 32 28 28 (602112)
I0403 15:37:52.638211 32537 net.cpp:156] Memory required for data: 558760992
I0403 15:37:52.638250 32537 layer_factory.hpp:77] Creating layer inception_3a/relu_pool_proj
I0403 15:37:52.638273 32537 net.cpp:91] Creating Layer inception_3a/relu_pool_proj
I0403 15:37:52.638294 32537 net.cpp:425] inception_3a/relu_pool_proj <- inception_3a/pool_proj
I0403 15:37:52.638316 32537 net.cpp:386] inception_3a/relu_pool_proj -> inception_3a/pool_proj (in-place)
I0403 15:37:52.638612 32537 net.cpp:141] Setting up inception_3a/relu_pool_proj
I0403 15:37:52.638648 32537 net.cpp:148] Top shape: 24 32 28 28 (602112)
I0403 15:37:52.638669 32537 net.cpp:156] Memory required for data: 561169440
I0403 15:37:52.638689 32537 layer_factory.hpp:77] Creating layer inception_3a/output
I0403 15:37:52.638710 32537 net.cpp:91] Creating Layer inception_3a/output
I0403 15:37:52.638731 32537 net.cpp:425] inception_3a/output <- inception_3a/1x1
I0403 15:37:52.638751 32537 net.cpp:425] inception_3a/output <- inception_3a/3x3
I0403 15:37:52.638774 32537 net.cpp:425] inception_3a/output <- inception_3a/5x5
I0403 15:37:52.638800 32537 net.cpp:425] inception_3a/output <- inception_3a/pool_proj
I0403 15:37:52.638819 32537 net.cpp:399] inception_3a/output -> inception_3a/output
I0403 15:37:52.638873 32537 net.cpp:141] Setting up inception_3a/output
I0403 15:37:52.638903 32537 net.cpp:148] Top shape: 24 256 28 28 (4816896)
I0403 15:37:52.638921 32537 net.cpp:156] Memory required for data: 580437024
I0403 15:37:52.638938 32537 layer_factory.hpp:77] Creating layer inception_3a/output_inception_3a/output_0_split
I0403 15:37:52.638958 32537 net.cpp:91] Creating Layer inception_3a/output_inception_3a/output_0_split
I0403 15:37:52.638981 32537 net.cpp:425] inception_3a/output_inception_3a/output_0_split <- inception_3a/output
I0403 15:37:52.639011 32537 net.cpp:399] inception_3a/output_inception_3a/output_0_split -> inception_3a/output_inception_3a/output_0_split_0
I0403 15:37:52.639051 32537 net.cpp:399] inception_3a/output_inception_3a/output_0_split -> inception_3a/output_inception_3a/output_0_split_1
I0403 15:37:52.639080 32537 net.cpp:399] inception_3a/output_inception_3a/output_0_split -> inception_3a/output_inception_3a/output_0_split_2
I0403 15:37:52.639107 32537 net.cpp:399] inception_3a/output_inception_3a/output_0_split -> inception_3a/output_inception_3a/output_0_split_3
I0403 15:37:52.639191 32537 net.cpp:141] Setting up inception_3a/output_inception_3a/output_0_split
I0403 15:37:52.639219 32537 net.cpp:148] Top shape: 24 256 28 28 (4816896)
I0403 15:37:52.639238 32537 net.cpp:148] Top shape: 24 256 28 28 (4816896)
I0403 15:37:52.639257 32537 net.cpp:148] Top shape: 24 256 28 28 (4816896)
I0403 15:37:52.639287 32537 net.cpp:148] Top shape: 24 256 28 28 (4816896)
I0403 15:37:52.639319 32537 net.cpp:156] Memory required for data: 657507360
I0403 15:37:52.639338 32537 layer_factory.hpp:77] Creating layer inception_3b/1x1
I0403 15:37:52.639359 32537 net.cpp:91] Creating Layer inception_3b/1x1
I0403 15:37:52.639377 32537 net.cpp:425] inception_3b/1x1 <- inception_3a/output_inception_3a/output_0_split_0
I0403 15:37:52.639400 32537 net.cpp:399] inception_3b/1x1 -> inception_3b/1x1
I0403 15:37:52.640602 32537 net.cpp:141] Setting up inception_3b/1x1
I0403 15:37:52.671610 32537 net.cpp:148] Top shape: 24 128 28 28 (2408448)
I0403 15:37:52.671634 32537 net.cpp:156] Memory required for data: 667141152
I0403 15:37:52.671659 32537 layer_factory.hpp:77] Creating layer inception_3b/relu_1x1
I0403 15:37:52.671694 32537 net.cpp:91] Creating Layer inception_3b/relu_1x1
I0403 15:37:52.671712 32537 net.cpp:425] inception_3b/relu_1x1 <- inception_3b/1x1
I0403 15:37:52.671738 32537 net.cpp:386] inception_3b/relu_1x1 -> inception_3b/1x1 (in-place)
I0403 15:37:52.671939 32537 net.cpp:141] Setting up inception_3b/relu_1x1
I0403 15:37:52.671974 32537 net.cpp:148] Top shape: 24 128 28 28 (2408448)
I0403 15:37:52.671998 32537 net.cpp:156] Memory required for data: 676774944
I0403 15:37:52.672013 32537 layer_factory.hpp:77] Creating layer inception_3b/3x3_reduce
I0403 15:37:52.672050 32537 net.cpp:91] Creating Layer inception_3b/3x3_reduce
I0403 15:37:52.672075 32537 net.cpp:425] inception_3b/3x3_reduce <- inception_3a/output_inception_3a/output_0_split_1
I0403 15:37:52.672103 32537 net.cpp:399] inception_3b/3x3_reduce -> inception_3b/3x3_reduce
I0403 15:37:52.673333 32537 net.cpp:141] Setting up inception_3b/3x3_reduce
I0403 15:37:52.673367 32537 net.cpp:148] Top shape: 24 128 28 28 (2408448)
I0403 15:37:52.673394 32537 net.cpp:156] Memory required for data: 686408736
I0403 15:37:52.673418 32537 layer_factory.hpp:77] Creating layer inception_3b/relu_3x3_reduce
I0403 15:37:52.673441 32537 net.cpp:91] Creating Layer inception_3b/relu_3x3_reduce
I0403 15:37:52.673460 32537 net.cpp:425] inception_3b/relu_3x3_reduce <- inception_3b/3x3_reduce
I0403 15:37:52.673478 32537 net.cpp:386] inception_3b/relu_3x3_reduce -> inception_3b/3x3_reduce (in-place)
I0403 15:37:52.673660 32537 net.cpp:141] Setting up inception_3b/relu_3x3_reduce
I0403 15:37:52.673689 32537 net.cpp:148] Top shape: 24 128 28 28 (2408448)
I0403 15:37:52.673718 32537 net.cpp:156] Memory required for data: 696042528
I0403 15:37:52.673733 32537 layer_factory.hpp:77] Creating layer inception_3b/3x3
I0403 15:37:52.673758 32537 net.cpp:91] Creating Layer inception_3b/3x3
I0403 15:37:52.673777 32537 net.cpp:425] inception_3b/3x3 <- inception_3b/3x3_reduce
I0403 15:37:52.673799 32537 net.cpp:399] inception_3b/3x3 -> inception_3b/3x3
I0403 15:37:52.676854 32537 net.cpp:141] Setting up inception_3b/3x3
I0403 15:37:52.676895 32537 net.cpp:148] Top shape: 24 192 28 28 (3612672)
I0403 15:37:52.676919 32537 net.cpp:156] Memory required for data: 710493216
I0403 15:37:52.676939 32537 layer_factory.hpp:77] Creating layer inception_3b/relu_3x3
I0403 15:37:52.676960 32537 net.cpp:91] Creating Layer inception_3b/relu_3x3
I0403 15:37:52.676981 32537 net.cpp:425] inception_3b/relu_3x3 <- inception_3b/3x3
I0403 15:37:52.677006 32537 net.cpp:386] inception_3b/relu_3x3 -> inception_3b/3x3 (in-place)
I0403 15:37:52.677341 32537 net.cpp:141] Setting up inception_3b/relu_3x3
I0403 15:37:52.677371 32537 net.cpp:148] Top shape: 24 192 28 28 (3612672)
I0403 15:37:52.677386 32537 net.cpp:156] Memory required for data: 724943904
I0403 15:37:52.677402 32537 layer_factory.hpp:77] Creating layer inception_3b/5x5_reduce
I0403 15:37:52.677428 32537 net.cpp:91] Creating Layer inception_3b/5x5_reduce
I0403 15:37:52.677448 32537 net.cpp:425] inception_3b/5x5_reduce <- inception_3a/output_inception_3a/output_0_split_2
I0403 15:37:52.677467 32537 net.cpp:399] inception_3b/5x5_reduce -> inception_3b/5x5_reduce
I0403 15:37:52.678473 32537 net.cpp:141] Setting up inception_3b/5x5_reduce
I0403 15:37:52.678504 32537 net.cpp:148] Top shape: 24 32 28 28 (602112)
I0403 15:37:52.678531 32537 net.cpp:156] Memory required for data: 727352352
I0403 15:37:52.678555 32537 layer_factory.hpp:77] Creating layer inception_3b/relu_5x5_reduce
I0403 15:37:52.678591 32537 net.cpp:91] Creating Layer inception_3b/relu_5x5_reduce
I0403 15:37:52.678609 32537 net.cpp:425] inception_3b/relu_5x5_reduce <- inception_3b/5x5_reduce
I0403 15:37:52.678627 32537 net.cpp:386] inception_3b/relu_5x5_reduce -> inception_3b/5x5_reduce (in-place)
I0403 15:37:52.678818 32537 net.cpp:141] Setting up inception_3b/relu_5x5_reduce
I0403 15:37:52.678860 32537 net.cpp:148] Top shape: 24 32 28 28 (602112)
I0403 15:37:52.678875 32537 net.cpp:156] Memory required for data: 729760800
I0403 15:37:52.678892 32537 layer_factory.hpp:77] Creating layer inception_3b/5x5
I0403 15:37:52.678915 32537 net.cpp:91] Creating Layer inception_3b/5x5
I0403 15:37:52.678936 32537 net.cpp:425] inception_3b/5x5 <- inception_3b/5x5_reduce
I0403 15:37:52.678959 32537 net.cpp:399] inception_3b/5x5 -> inception_3b/5x5
I0403 15:37:52.681046 32537 net.cpp:141] Setting up inception_3b/5x5
I0403 15:37:52.681077 32537 net.cpp:148] Top shape: 24 96 28 28 (1806336)
I0403 15:37:52.681100 32537 net.cpp:156] Memory required for data: 736986144
I0403 15:37:52.681138 32537 layer_factory.hpp:77] Creating layer inception_3b/relu_5x5
I0403 15:37:52.681160 32537 net.cpp:91] Creating Layer inception_3b/relu_5x5
I0403 15:37:52.681180 32537 net.cpp:425] inception_3b/relu_5x5 <- inception_3b/5x5
I0403 15:37:52.681198 32537 net.cpp:386] inception_3b/relu_5x5 -> inception_3b/5x5 (in-place)
I0403 15:37:52.681406 32537 net.cpp:141] Setting up inception_3b/relu_5x5
I0403 15:37:52.681432 32537 net.cpp:148] Top shape: 24 96 28 28 (1806336)
I0403 15:37:52.681459 32537 net.cpp:156] Memory required for data: 744211488
I0403 15:37:52.681474 32537 layer_factory.hpp:77] Creating layer inception_3b/pool
I0403 15:37:52.681493 32537 net.cpp:91] Creating Layer inception_3b/pool
I0403 15:37:52.681509 32537 net.cpp:425] inception_3b/pool <- inception_3a/output_inception_3a/output_0_split_3
I0403 15:37:52.681527 32537 net.cpp:399] inception_3b/pool -> inception_3b/pool
I0403 15:37:52.681583 32537 net.cpp:141] Setting up inception_3b/pool
I0403 15:37:52.681605 32537 net.cpp:148] Top shape: 24 256 28 28 (4816896)
I0403 15:37:52.681620 32537 net.cpp:156] Memory required for data: 763479072
I0403 15:37:52.681634 32537 layer_factory.hpp:77] Creating layer inception_3b/pool_proj
I0403 15:37:52.681658 32537 net.cpp:91] Creating Layer inception_3b/pool_proj
I0403 15:37:52.681674 32537 net.cpp:425] inception_3b/pool_proj <- inception_3b/pool
I0403 15:37:52.681695 32537 net.cpp:399] inception_3b/pool_proj -> inception_3b/pool_proj
I0403 15:37:52.682749 32537 net.cpp:141] Setting up inception_3b/pool_proj
I0403 15:37:52.682777 32537 net.cpp:148] Top shape: 24 64 28 28 (1204224)
I0403 15:37:52.682793 32537 net.cpp:156] Memory required for data: 768295968
I0403 15:37:52.682812 32537 layer_factory.hpp:77] Creating layer inception_3b/relu_pool_proj
I0403 15:37:52.682832 32537 net.cpp:91] Creating Layer inception_3b/relu_pool_proj
I0403 15:37:52.682847 32537 net.cpp:425] inception_3b/relu_pool_proj <- inception_3b/pool_proj
I0403 15:37:52.682868 32537 net.cpp:386] inception_3b/relu_pool_proj -> inception_3b/pool_proj (in-place)
I0403 15:37:52.683248 32537 net.cpp:141] Setting up inception_3b/relu_pool_proj
I0403 15:37:52.683276 32537 net.cpp:148] Top shape: 24 64 28 28 (1204224)
I0403 15:37:52.683298 32537 net.cpp:156] Memory required for data: 773112864
I0403 15:37:52.683315 32537 layer_factory.hpp:77] Creating layer inception_3b/output
I0403 15:37:52.683332 32537 net.cpp:91] Creating Layer inception_3b/output
I0403 15:37:52.683347 32537 net.cpp:425] inception_3b/output <- inception_3b/1x1
I0403 15:37:52.683364 32537 net.cpp:425] inception_3b/output <- inception_3b/3x3
I0403 15:37:52.683382 32537 net.cpp:425] inception_3b/output <- inception_3b/5x5
I0403 15:37:52.683396 32537 net.cpp:425] inception_3b/output <- inception_3b/pool_proj
I0403 15:37:52.683416 32537 net.cpp:399] inception_3b/output -> inception_3b/output
I0403 15:37:52.683459 32537 net.cpp:141] Setting up inception_3b/output
I0403 15:37:52.683483 32537 net.cpp:148] Top shape: 24 480 28 28 (9031680)
I0403 15:37:52.683498 32537 net.cpp:156] Memory required for data: 809239584
I0403 15:37:52.683513 32537 layer_factory.hpp:77] Creating layer pool3/3x3_s2
I0403 15:37:52.683533 32537 net.cpp:91] Creating Layer pool3/3x3_s2
I0403 15:37:52.683549 32537 net.cpp:425] pool3/3x3_s2 <- inception_3b/output
I0403 15:37:52.683568 32537 net.cpp:399] pool3/3x3_s2 -> pool3/3x3_s2
I0403 15:37:52.683640 32537 net.cpp:141] Setting up pool3/3x3_s2
I0403 15:37:52.683663 32537 net.cpp:148] Top shape: 24 480 14 14 (2257920)
I0403 15:37:52.683678 32537 net.cpp:156] Memory required for data: 818271264
I0403 15:37:52.683692 32537 layer_factory.hpp:77] Creating layer pool3/3x3_s2_pool3/3x3_s2_0_split
I0403 15:37:52.683709 32537 net.cpp:91] Creating Layer pool3/3x3_s2_pool3/3x3_s2_0_split
I0403 15:37:52.683724 32537 net.cpp:425] pool3/3x3_s2_pool3/3x3_s2_0_split <- pool3/3x3_s2
I0403 15:37:52.683743 32537 net.cpp:399] pool3/3x3_s2_pool3/3x3_s2_0_split -> pool3/3x3_s2_pool3/3x3_s2_0_split_0
I0403 15:37:52.683763 32537 net.cpp:399] pool3/3x3_s2_pool3/3x3_s2_0_split -> pool3/3x3_s2_pool3/3x3_s2_0_split_1
I0403 15:37:52.683784 32537 net.cpp:399] pool3/3x3_s2_pool3/3x3_s2_0_split -> pool3/3x3_s2_pool3/3x3_s2_0_split_2
I0403 15:37:52.683804 32537 net.cpp:399] pool3/3x3_s2_pool3/3x3_s2_0_split -> pool3/3x3_s2_pool3/3x3_s2_0_split_3
I0403 15:37:52.683879 32537 net.cpp:141] Setting up pool3/3x3_s2_pool3/3x3_s2_0_split
I0403 15:37:52.683902 32537 net.cpp:148] Top shape: 24 480 14 14 (2257920)
I0403 15:37:52.683919 32537 net.cpp:148] Top shape: 24 480 14 14 (2257920)
I0403 15:37:52.683935 32537 net.cpp:148] Top shape: 24 480 14 14 (2257920)
I0403 15:37:52.683951 32537 net.cpp:148] Top shape: 24 480 14 14 (2257920)
I0403 15:37:52.683965 32537 net.cpp:156] Memory required for data: 854397984
I0403 15:37:52.683980 32537 layer_factory.hpp:77] Creating layer inception_4a/1x1
I0403 15:37:52.684003 32537 net.cpp:91] Creating Layer inception_4a/1x1
I0403 15:37:52.684020 32537 net.cpp:425] inception_4a/1x1 <- pool3/3x3_s2_pool3/3x3_s2_0_split_0
I0403 15:37:52.684044 32537 net.cpp:399] inception_4a/1x1 -> inception_4a/1x1
I0403 15:37:52.685678 32537 net.cpp:141] Setting up inception_4a/1x1
I0403 15:37:52.685705 32537 net.cpp:148] Top shape: 24 192 14 14 (903168)
I0403 15:37:52.685721 32537 net.cpp:156] Memory required for data: 858010656
I0403 15:37:52.685740 32537 layer_factory.hpp:77] Creating layer inception_4a/relu_1x1
I0403 15:37:52.685758 32537 net.cpp:91] Creating Layer inception_4a/relu_1x1
I0403 15:37:52.685781 32537 net.cpp:425] inception_4a/relu_1x1 <- inception_4a/1x1
I0403 15:37:52.685816 32537 net.cpp:386] inception_4a/relu_1x1 -> inception_4a/1x1 (in-place)
I0403 15:37:52.686005 32537 net.cpp:141] Setting up inception_4a/relu_1x1
I0403 15:37:52.686031 32537 net.cpp:148] Top shape: 24 192 14 14 (903168)
I0403 15:37:52.686046 32537 net.cpp:156] Memory required for data: 861623328
I0403 15:37:52.686061 32537 layer_factory.hpp:77] Creating layer inception_4a/3x3_reduce
I0403 15:37:52.686085 32537 net.cpp:91] Creating Layer inception_4a/3x3_reduce
I0403 15:37:52.686102 32537 net.cpp:425] inception_4a/3x3_reduce <- pool3/3x3_s2_pool3/3x3_s2_0_split_1
I0403 15:37:52.686125 32537 net.cpp:399] inception_4a/3x3_reduce -> inception_4a/3x3_reduce
I0403 15:37:52.687489 32537 net.cpp:141] Setting up inception_4a/3x3_reduce
I0403 15:37:52.687518 32537 net.cpp:148] Top shape: 24 96 14 14 (451584)
I0403 15:37:52.687536 32537 net.cpp:156] Memory required for data: 863429664
I0403 15:37:52.687563 32537 layer_factory.hpp:77] Creating layer inception_4a/relu_3x3_reduce
I0403 15:37:52.687594 32537 net.cpp:91] Creating Layer inception_4a/relu_3x3_reduce
I0403 15:37:52.687611 32537 net.cpp:425] inception_4a/relu_3x3_reduce <- inception_4a/3x3_reduce
I0403 15:37:52.687629 32537 net.cpp:386] inception_4a/relu_3x3_reduce -> inception_4a/3x3_reduce (in-place)
I0403 15:37:52.687808 32537 net.cpp:141] Setting up inception_4a/relu_3x3_reduce
I0403 15:37:52.687846 32537 net.cpp:148] Top shape: 24 96 14 14 (451584)
I0403 15:37:52.687865 32537 net.cpp:156] Memory required for data: 865236000
I0403 15:37:52.687882 32537 layer_factory.hpp:77] Creating layer inception_4a/3x3
I0403 15:37:52.687917 32537 net.cpp:91] Creating Layer inception_4a/3x3
I0403 15:37:52.687935 32537 net.cpp:425] inception_4a/3x3 <- inception_4a/3x3_reduce
I0403 15:37:52.687970 32537 net.cpp:399] inception_4a/3x3 -> inception_4a/3x3
I0403 15:37:52.690727 32537 net.cpp:141] Setting up inception_4a/3x3
I0403 15:37:52.690765 32537 net.cpp:148] Top shape: 24 208 14 14 (978432)
I0403 15:37:52.690796 32537 net.cpp:156] Memory required for data: 869149728
I0403 15:37:52.690820 32537 layer_factory.hpp:77] Creating layer inception_4a/relu_3x3
I0403 15:37:52.690845 32537 net.cpp:91] Creating Layer inception_4a/relu_3x3
I0403 15:37:52.690863 32537 net.cpp:425] inception_4a/relu_3x3 <- inception_4a/3x3
I0403 15:37:52.690881 32537 net.cpp:386] inception_4a/relu_3x3 -> inception_4a/3x3 (in-place)
I0403 15:37:52.691179 32537 net.cpp:141] Setting up inception_4a/relu_3x3
I0403 15:37:52.691206 32537 net.cpp:148] Top shape: 24 208 14 14 (978432)
I0403 15:37:52.691222 32537 net.cpp:156] Memory required for data: 873063456
I0403 15:37:52.691237 32537 layer_factory.hpp:77] Creating layer inception_4a/5x5_reduce
I0403 15:37:52.691261 32537 net.cpp:91] Creating Layer inception_4a/5x5_reduce
I0403 15:37:52.691279 32537 net.cpp:425] inception_4a/5x5_reduce <- pool3/3x3_s2_pool3/3x3_s2_0_split_2
I0403 15:37:52.691308 32537 net.cpp:399] inception_4a/5x5_reduce -> inception_4a/5x5_reduce
I0403 15:37:52.692329 32537 net.cpp:141] Setting up inception_4a/5x5_reduce
I0403 15:37:52.692358 32537 net.cpp:148] Top shape: 24 16 14 14 (75264)
I0403 15:37:52.692375 32537 net.cpp:156] Memory required for data: 873364512
I0403 15:37:52.692394 32537 layer_factory.hpp:77] Creating layer inception_4a/relu_5x5_reduce
I0403 15:37:52.692414 32537 net.cpp:91] Creating Layer inception_4a/relu_5x5_reduce
I0403 15:37:52.692431 32537 net.cpp:425] inception_4a/relu_5x5_reduce <- inception_4a/5x5_reduce
I0403 15:37:52.692450 32537 net.cpp:386] inception_4a/relu_5x5_reduce -> inception_4a/5x5_reduce (in-place)
I0403 15:37:52.692625 32537 net.cpp:141] Setting up inception_4a/relu_5x5_reduce
I0403 15:37:52.692652 32537 net.cpp:148] Top shape: 24 16 14 14 (75264)
I0403 15:37:52.692667 32537 net.cpp:156] Memory required for data: 873665568
I0403 15:37:52.692683 32537 layer_factory.hpp:77] Creating layer inception_4a/5x5
I0403 15:37:52.692706 32537 net.cpp:91] Creating Layer inception_4a/5x5
I0403 15:37:52.692725 32537 net.cpp:425] inception_4a/5x5 <- inception_4a/5x5_reduce
I0403 15:37:52.692745 32537 net.cpp:399] inception_4a/5x5 -> inception_4a/5x5
I0403 15:37:52.693843 32537 net.cpp:141] Setting up inception_4a/5x5
I0403 15:37:52.693874 32537 net.cpp:148] Top shape: 24 48 14 14 (225792)
I0403 15:37:52.693892 32537 net.cpp:156] Memory required for data: 874568736
I0403 15:37:52.693912 32537 layer_factory.hpp:77] Creating layer inception_4a/relu_5x5
I0403 15:37:52.693930 32537 net.cpp:91] Creating Layer inception_4a/relu_5x5
I0403 15:37:52.693946 32537 net.cpp:425] inception_4a/relu_5x5 <- inception_4a/5x5
I0403 15:37:52.693967 32537 net.cpp:386] inception_4a/relu_5x5 -> inception_4a/5x5 (in-place)
I0403 15:37:52.694142 32537 net.cpp:141] Setting up inception_4a/relu_5x5
I0403 15:37:52.694169 32537 net.cpp:148] Top shape: 24 48 14 14 (225792)
I0403 15:37:52.694183 32537 net.cpp:156] Memory required for data: 875471904
I0403 15:37:52.694200 32537 layer_factory.hpp:77] Creating layer inception_4a/pool
I0403 15:37:52.694217 32537 net.cpp:91] Creating Layer inception_4a/pool
I0403 15:37:52.694233 32537 net.cpp:425] inception_4a/pool <- pool3/3x3_s2_pool3/3x3_s2_0_split_3
I0403 15:37:52.694255 32537 net.cpp:399] inception_4a/pool -> inception_4a/pool
I0403 15:37:52.694327 32537 net.cpp:141] Setting up inception_4a/pool
I0403 15:37:52.694353 32537 net.cpp:148] Top shape: 24 480 14 14 (2257920)
I0403 15:37:52.694370 32537 net.cpp:156] Memory required for data: 884503584
I0403 15:37:52.694386 32537 layer_factory.hpp:77] Creating layer inception_4a/pool_proj
I0403 15:37:52.694409 32537 net.cpp:91] Creating Layer inception_4a/pool_proj
I0403 15:37:52.694427 32537 net.cpp:425] inception_4a/pool_proj <- inception_4a/pool
I0403 15:37:52.694447 32537 net.cpp:399] inception_4a/pool_proj -> inception_4a/pool_proj
I0403 15:37:52.695653 32537 net.cpp:141] Setting up inception_4a/pool_proj
I0403 15:37:52.695685 32537 net.cpp:148] Top shape: 24 64 14 14 (301056)
I0403 15:37:52.695724 32537 net.cpp:156] Memory required for data: 885707808
I0403 15:37:52.695744 32537 layer_factory.hpp:77] Creating layer inception_4a/relu_pool_proj
I0403 15:37:52.695765 32537 net.cpp:91] Creating Layer inception_4a/relu_pool_proj
I0403 15:37:52.695793 32537 net.cpp:425] inception_4a/relu_pool_proj <- inception_4a/pool_proj
I0403 15:37:52.695814 32537 net.cpp:386] inception_4a/relu_pool_proj -> inception_4a/pool_proj (in-place)
I0403 15:37:52.696099 32537 net.cpp:141] Setting up inception_4a/relu_pool_proj
I0403 15:37:52.696125 32537 net.cpp:148] Top shape: 24 64 14 14 (301056)
I0403 15:37:52.696141 32537 net.cpp:156] Memory required for data: 886912032
I0403 15:37:52.696156 32537 layer_factory.hpp:77] Creating layer inception_4a/output
I0403 15:37:52.696174 32537 net.cpp:91] Creating Layer inception_4a/output
I0403 15:37:52.696190 32537 net.cpp:425] inception_4a/output <- inception_4a/1x1
I0403 15:37:52.696208 32537 net.cpp:425] inception_4a/output <- inception_4a/3x3
I0403 15:37:52.696225 32537 net.cpp:425] inception_4a/output <- inception_4a/5x5
I0403 15:37:52.696241 32537 net.cpp:425] inception_4a/output <- inception_4a/pool_proj
I0403 15:37:52.696261 32537 net.cpp:399] inception_4a/output -> inception_4a/output
I0403 15:37:52.696311 32537 net.cpp:141] Setting up inception_4a/output
I0403 15:37:52.696336 32537 net.cpp:148] Top shape: 24 512 14 14 (2408448)
I0403 15:37:52.696352 32537 net.cpp:156] Memory required for data: 896545824
I0403 15:37:52.696367 32537 layer_factory.hpp:77] Creating layer inception_4a/output_inception_4a/output_0_split
I0403 15:37:52.696393 32537 net.cpp:91] Creating Layer inception_4a/output_inception_4a/output_0_split
I0403 15:37:52.696409 32537 net.cpp:425] inception_4a/output_inception_4a/output_0_split <- inception_4a/output
I0403 15:37:52.696429 32537 net.cpp:399] inception_4a/output_inception_4a/output_0_split -> inception_4a/output_inception_4a/output_0_split_0
I0403 15:37:52.696451 32537 net.cpp:399] inception_4a/output_inception_4a/output_0_split -> inception_4a/output_inception_4a/output_0_split_1
I0403 15:37:52.696473 32537 net.cpp:399] inception_4a/output_inception_4a/output_0_split -> inception_4a/output_inception_4a/output_0_split_2
I0403 15:37:52.696494 32537 net.cpp:399] inception_4a/output_inception_4a/output_0_split -> inception_4a/output_inception_4a/output_0_split_3
I0403 15:37:52.696514 32537 net.cpp:399] inception_4a/output_inception_4a/output_0_split -> inception_4a/output_inception_4a/output_0_split_4
I0403 15:37:52.696609 32537 net.cpp:141] Setting up inception_4a/output_inception_4a/output_0_split
I0403 15:37:52.696635 32537 net.cpp:148] Top shape: 24 512 14 14 (2408448)
I0403 15:37:52.696651 32537 net.cpp:148] Top shape: 24 512 14 14 (2408448)
I0403 15:37:52.696668 32537 net.cpp:148] Top shape: 24 512 14 14 (2408448)
I0403 15:37:52.696686 32537 net.cpp:148] Top shape: 24 512 14 14 (2408448)
I0403 15:37:52.696702 32537 net.cpp:148] Top shape: 24 512 14 14 (2408448)
I0403 15:37:52.696715 32537 net.cpp:156] Memory required for data: 944714784
I0403 15:37:52.696730 32537 layer_factory.hpp:77] Creating layer loss1/ave_pool
I0403 15:37:52.696750 32537 net.cpp:91] Creating Layer loss1/ave_pool
I0403 15:37:52.696768 32537 net.cpp:425] loss1/ave_pool <- inception_4a/output_inception_4a/output_0_split_0
I0403 15:37:52.696787 32537 net.cpp:399] loss1/ave_pool -> loss1/ave_pool
I0403 15:37:52.697005 32537 net.cpp:141] Setting up loss1/ave_pool
I0403 15:37:52.697034 32537 net.cpp:148] Top shape: 24 512 4 4 (196608)
I0403 15:37:52.697062 32537 net.cpp:156] Memory required for data: 945501216
I0403 15:37:52.697078 32537 layer_factory.hpp:77] Creating layer loss1/conv
I0403 15:37:52.697101 32537 net.cpp:91] Creating Layer loss1/conv
I0403 15:37:52.697121 32537 net.cpp:425] loss1/conv <- loss1/ave_pool
I0403 15:37:52.697149 32537 net.cpp:399] loss1/conv -> loss1/conv
I0403 15:37:52.698648 32537 net.cpp:141] Setting up loss1/conv
I0403 15:37:52.698678 32537 net.cpp:148] Top shape: 24 128 4 4 (49152)
I0403 15:37:52.698694 32537 net.cpp:156] Memory required for data: 945697824
I0403 15:37:52.698729 32537 layer_factory.hpp:77] Creating layer loss1/relu_conv
I0403 15:37:52.698750 32537 net.cpp:91] Creating Layer loss1/relu_conv
I0403 15:37:52.698768 32537 net.cpp:425] loss1/relu_conv <- loss1/conv
I0403 15:37:52.698787 32537 net.cpp:386] loss1/relu_conv -> loss1/conv (in-place)
I0403 15:37:52.699077 32537 net.cpp:141] Setting up loss1/relu_conv
I0403 15:37:52.699105 32537 net.cpp:148] Top shape: 24 128 4 4 (49152)
I0403 15:37:52.699121 32537 net.cpp:156] Memory required for data: 945894432
I0403 15:37:52.699137 32537 layer_factory.hpp:77] Creating layer loss1/fc
I0403 15:37:52.699164 32537 net.cpp:91] Creating Layer loss1/fc
I0403 15:37:52.699183 32537 net.cpp:425] loss1/fc <- loss1/conv
I0403 15:37:52.699205 32537 net.cpp:399] loss1/fc -> loss1/fc
I0403 15:37:52.717350 32537 net.cpp:141] Setting up loss1/fc
I0403 15:37:52.717383 32537 net.cpp:148] Top shape: 24 1024 (24576)
I0403 15:37:52.717401 32537 net.cpp:156] Memory required for data: 945992736
I0403 15:37:52.717420 32537 layer_factory.hpp:77] Creating layer loss1/relu_fc
I0403 15:37:52.717438 32537 net.cpp:91] Creating Layer loss1/relu_fc
I0403 15:37:52.717455 32537 net.cpp:425] loss1/relu_fc <- loss1/fc
I0403 15:37:52.717475 32537 net.cpp:386] loss1/relu_fc -> loss1/fc (in-place)
I0403 15:37:52.717661 32537 net.cpp:141] Setting up loss1/relu_fc
I0403 15:37:52.717687 32537 net.cpp:148] Top shape: 24 1024 (24576)
I0403 15:37:52.717702 32537 net.cpp:156] Memory required for data: 946091040
I0403 15:37:52.717718 32537 layer_factory.hpp:77] Creating layer loss1/drop_fc
I0403 15:37:52.717748 32537 net.cpp:91] Creating Layer loss1/drop_fc
I0403 15:37:52.717767 32537 net.cpp:425] loss1/drop_fc <- loss1/fc
I0403 15:37:52.717783 32537 net.cpp:386] loss1/drop_fc -> loss1/fc (in-place)
I0403 15:37:52.717834 32537 net.cpp:141] Setting up loss1/drop_fc
I0403 15:37:52.717860 32537 net.cpp:148] Top shape: 24 1024 (24576)
I0403 15:37:52.717876 32537 net.cpp:156] Memory required for data: 946189344
I0403 15:37:52.717892 32537 layer_factory.hpp:77] Creating layer loss1/classifier_plantvillage
I0403 15:37:52.717911 32537 net.cpp:91] Creating Layer loss1/classifier_plantvillage
I0403 15:37:52.717926 32537 net.cpp:425] loss1/classifier_plantvillage <- loss1/fc
I0403 15:37:52.717948 32537 net.cpp:399] loss1/classifier_plantvillage -> loss1/classifier_plantvillage
I0403 15:37:52.718840 32537 net.cpp:141] Setting up loss1/classifier_plantvillage
I0403 15:37:52.718870 32537 net.cpp:148] Top shape: 24 38 (912)
I0403 15:37:52.718886 32537 net.cpp:156] Memory required for data: 946192992
I0403 15:37:52.718906 32537 layer_factory.hpp:77] Creating layer loss1/classifier_plantvillage_loss1/classifier_plantvillage_0_split
I0403 15:37:52.718924 32537 net.cpp:91] Creating Layer loss1/classifier_plantvillage_loss1/classifier_plantvillage_0_split
I0403 15:37:52.718940 32537 net.cpp:425] loss1/classifier_plantvillage_loss1/classifier_plantvillage_0_split <- loss1/classifier_plantvillage
I0403 15:37:52.718961 32537 net.cpp:399] loss1/classifier_plantvillage_loss1/classifier_plantvillage_0_split -> loss1/classifier_plantvillage_loss1/classifier_plantvillage_0_split_0
I0403 15:37:52.718981 32537 net.cpp:399] loss1/classifier_plantvillage_loss1/classifier_plantvillage_0_split -> loss1/classifier_plantvillage_loss1/classifier_plantvillage_0_split_1
I0403 15:37:52.719002 32537 net.cpp:399] loss1/classifier_plantvillage_loss1/classifier_plantvillage_0_split -> loss1/classifier_plantvillage_loss1/classifier_plantvillage_0_split_2
I0403 15:37:52.719069 32537 net.cpp:141] Setting up loss1/classifier_plantvillage_loss1/classifier_plantvillage_0_split
I0403 15:37:52.719094 32537 net.cpp:148] Top shape: 24 38 (912)
I0403 15:37:52.719110 32537 net.cpp:148] Top shape: 24 38 (912)
I0403 15:37:52.719126 32537 net.cpp:148] Top shape: 24 38 (912)
I0403 15:37:52.719141 32537 net.cpp:156] Memory required for data: 946203936
I0403 15:37:52.719156 32537 layer_factory.hpp:77] Creating layer inception_4b/1x1
I0403 15:37:52.719178 32537 net.cpp:91] Creating Layer inception_4b/1x1
I0403 15:37:52.719215 32537 net.cpp:425] inception_4b/1x1 <- inception_4a/output_inception_4a/output_0_split_1
I0403 15:37:52.719236 32537 net.cpp:399] inception_4b/1x1 -> inception_4b/1x1
I0403 15:37:52.720892 32537 net.cpp:141] Setting up inception_4b/1x1
I0403 15:37:52.720922 32537 net.cpp:148] Top shape: 24 160 14 14 (752640)
I0403 15:37:52.720938 32537 net.cpp:156] Memory required for data: 949214496
I0403 15:37:52.720959 32537 layer_factory.hpp:77] Creating layer inception_4b/relu_1x1
I0403 15:37:52.720979 32537 net.cpp:91] Creating Layer inception_4b/relu_1x1
I0403 15:37:52.720998 32537 net.cpp:425] inception_4b/relu_1x1 <- inception_4b/1x1
I0403 15:37:52.721015 32537 net.cpp:386] inception_4b/relu_1x1 -> inception_4b/1x1 (in-place)
I0403 15:37:52.721189 32537 net.cpp:141] Setting up inception_4b/relu_1x1
I0403 15:37:52.721216 32537 net.cpp:148] Top shape: 24 160 14 14 (752640)
I0403 15:37:52.721233 32537 net.cpp:156] Memory required for data: 952225056
I0403 15:37:52.721249 32537 layer_factory.hpp:77] Creating layer inception_4b/3x3_reduce
I0403 15:37:52.721271 32537 net.cpp:91] Creating Layer inception_4b/3x3_reduce
I0403 15:37:52.721292 32537 net.cpp:425] inception_4b/3x3_reduce <- inception_4a/output_inception_4a/output_0_split_2
I0403 15:37:52.721313 32537 net.cpp:399] inception_4b/3x3_reduce -> inception_4b/3x3_reduce
I0403 15:37:52.722633 32537 net.cpp:141] Setting up inception_4b/3x3_reduce
I0403 15:37:52.722666 32537 net.cpp:148] Top shape: 24 112 14 14 (526848)
I0403 15:37:52.722690 32537 net.cpp:156] Memory required for data: 954332448
I0403 15:37:52.722710 32537 layer_factory.hpp:77] Creating layer inception_4b/relu_3x3_reduce
I0403 15:37:52.722728 32537 net.cpp:91] Creating Layer inception_4b/relu_3x3_reduce
I0403 15:37:52.722746 32537 net.cpp:425] inception_4b/relu_3x3_reduce <- inception_4b/3x3_reduce
I0403 15:37:52.722764 32537 net.cpp:386] inception_4b/relu_3x3_reduce -> inception_4b/3x3_reduce (in-place)
I0403 15:37:52.723038 32537 net.cpp:141] Setting up inception_4b/relu_3x3_reduce
I0403 15:37:52.723067 32537 net.cpp:148] Top shape: 24 112 14 14 (526848)
I0403 15:37:52.723084 32537 net.cpp:156] Memory required for data: 956439840
I0403 15:37:52.723100 32537 layer_factory.hpp:77] Creating layer inception_4b/3x3
I0403 15:37:52.723124 32537 net.cpp:91] Creating Layer inception_4b/3x3
I0403 15:37:52.723141 32537 net.cpp:425] inception_4b/3x3 <- inception_4b/3x3_reduce
I0403 15:37:52.723161 32537 net.cpp:399] inception_4b/3x3 -> inception_4b/3x3
I0403 15:37:52.726099 32537 net.cpp:141] Setting up inception_4b/3x3
I0403 15:37:52.726128 32537 net.cpp:148] Top shape: 24 224 14 14 (1053696)
I0403 15:37:52.726145 32537 net.cpp:156] Memory required for data: 960654624
I0403 15:37:52.726164 32537 layer_factory.hpp:77] Creating layer inception_4b/relu_3x3
I0403 15:37:52.726182 32537 net.cpp:91] Creating Layer inception_4b/relu_3x3
I0403 15:37:52.726199 32537 net.cpp:425] inception_4b/relu_3x3 <- inception_4b/3x3
I0403 15:37:52.726219 32537 net.cpp:386] inception_4b/relu_3x3 -> inception_4b/3x3 (in-place)
I0403 15:37:52.726400 32537 net.cpp:141] Setting up inception_4b/relu_3x3
I0403 15:37:52.726426 32537 net.cpp:148] Top shape: 24 224 14 14 (1053696)
I0403 15:37:52.726443 32537 net.cpp:156] Memory required for data: 964869408
I0403 15:37:52.726457 32537 layer_factory.hpp:77] Creating layer inception_4b/5x5_reduce
I0403 15:37:52.726480 32537 net.cpp:91] Creating Layer inception_4b/5x5_reduce
I0403 15:37:52.726498 32537 net.cpp:425] inception_4b/5x5_reduce <- inception_4a/output_inception_4a/output_0_split_3
I0403 15:37:52.726521 32537 net.cpp:399] inception_4b/5x5_reduce -> inception_4b/5x5_reduce
I0403 15:37:52.727578 32537 net.cpp:141] Setting up inception_4b/5x5_reduce
I0403 15:37:52.727609 32537 net.cpp:148] Top shape: 24 24 14 14 (112896)
I0403 15:37:52.727627 32537 net.cpp:156] Memory required for data: 965320992
I0403 15:37:52.727646 32537 layer_factory.hpp:77] Creating layer inception_4b/relu_5x5_reduce
I0403 15:37:52.727665 32537 net.cpp:91] Creating Layer inception_4b/relu_5x5_reduce
I0403 15:37:52.727696 32537 net.cpp:425] inception_4b/relu_5x5_reduce <- inception_4b/5x5_reduce
I0403 15:37:52.727715 32537 net.cpp:386] inception_4b/relu_5x5_reduce -> inception_4b/5x5_reduce (in-place)
I0403 15:37:52.727895 32537 net.cpp:141] Setting up inception_4b/relu_5x5_reduce
I0403 15:37:52.727922 32537 net.cpp:148] Top shape: 24 24 14 14 (112896)
I0403 15:37:52.727941 32537 net.cpp:156] Memory required for data: 965772576
I0403 15:37:52.727955 32537 layer_factory.hpp:77] Creating layer inception_4b/5x5
I0403 15:37:52.727980 32537 net.cpp:91] Creating Layer inception_4b/5x5
I0403 15:37:52.727998 32537 net.cpp:425] inception_4b/5x5 <- inception_4b/5x5_reduce
I0403 15:37:52.728016 32537 net.cpp:399] inception_4b/5x5 -> inception_4b/5x5
I0403 15:37:52.729224 32537 net.cpp:141] Setting up inception_4b/5x5
I0403 15:37:52.729254 32537 net.cpp:148] Top shape: 24 64 14 14 (301056)
I0403 15:37:52.729270 32537 net.cpp:156] Memory required for data: 966976800
I0403 15:37:52.729292 32537 layer_factory.hpp:77] Creating layer inception_4b/relu_5x5
I0403 15:37:52.729315 32537 net.cpp:91] Creating Layer inception_4b/relu_5x5
I0403 15:37:52.729332 32537 net.cpp:425] inception_4b/relu_5x5 <- inception_4b/5x5
I0403 15:37:52.729351 32537 net.cpp:386] inception_4b/relu_5x5 -> inception_4b/5x5 (in-place)
I0403 15:37:52.729630 32537 net.cpp:141] Setting up inception_4b/relu_5x5
I0403 15:37:52.729656 32537 net.cpp:148] Top shape: 24 64 14 14 (301056)
I0403 15:37:52.729672 32537 net.cpp:156] Memory required for data: 968181024
I0403 15:37:52.729687 32537 layer_factory.hpp:77] Creating layer inception_4b/pool
I0403 15:37:52.729709 32537 net.cpp:91] Creating Layer inception_4b/pool
I0403 15:37:52.729728 32537 net.cpp:425] inception_4b/pool <- inception_4a/output_inception_4a/output_0_split_4
I0403 15:37:52.729748 32537 net.cpp:399] inception_4b/pool -> inception_4b/pool
I0403 15:37:52.729814 32537 net.cpp:141] Setting up inception_4b/pool
I0403 15:37:52.729836 32537 net.cpp:148] Top shape: 24 512 14 14 (2408448)
I0403 15:37:52.729851 32537 net.cpp:156] Memory required for data: 977814816
I0403 15:37:52.729866 32537 layer_factory.hpp:77] Creating layer inception_4b/pool_proj
I0403 15:37:52.729889 32537 net.cpp:91] Creating Layer inception_4b/pool_proj
I0403 15:37:52.729907 32537 net.cpp:425] inception_4b/pool_proj <- inception_4b/pool
I0403 15:37:52.729929 32537 net.cpp:399] inception_4b/pool_proj -> inception_4b/pool_proj
I0403 15:37:52.731147 32537 net.cpp:141] Setting up inception_4b/pool_proj
I0403 15:37:52.731174 32537 net.cpp:148] Top shape: 24 64 14 14 (301056)
I0403 15:37:52.731191 32537 net.cpp:156] Memory required for data: 979019040
I0403 15:37:52.731210 32537 layer_factory.hpp:77] Creating layer inception_4b/relu_pool_proj
I0403 15:37:52.731231 32537 net.cpp:91] Creating Layer inception_4b/relu_pool_proj
I0403 15:37:52.731250 32537 net.cpp:425] inception_4b/relu_pool_proj <- inception_4b/pool_proj
I0403 15:37:52.731268 32537 net.cpp:386] inception_4b/relu_pool_proj -> inception_4b/pool_proj (in-place)
I0403 15:37:52.731447 32537 net.cpp:141] Setting up inception_4b/relu_pool_proj
I0403 15:37:52.731472 32537 net.cpp:148] Top shape: 24 64 14 14 (301056)
I0403 15:37:52.731488 32537 net.cpp:156] Memory required for data: 980223264
I0403 15:37:52.731504 32537 layer_factory.hpp:77] Creating layer inception_4b/output
I0403 15:37:52.731523 32537 net.cpp:91] Creating Layer inception_4b/output
I0403 15:37:52.731539 32537 net.cpp:425] inception_4b/output <- inception_4b/1x1
I0403 15:37:52.731556 32537 net.cpp:425] inception_4b/output <- inception_4b/3x3
I0403 15:37:52.731573 32537 net.cpp:425] inception_4b/output <- inception_4b/5x5
I0403 15:37:52.731590 32537 net.cpp:425] inception_4b/output <- inception_4b/pool_proj
I0403 15:37:52.731609 32537 net.cpp:399] inception_4b/output -> inception_4b/output
I0403 15:37:52.731654 32537 net.cpp:141] Setting up inception_4b/output
I0403 15:37:52.731678 32537 net.cpp:148] Top shape: 24 512 14 14 (2408448)
I0403 15:37:52.731698 32537 net.cpp:156] Memory required for data: 989857056
I0403 15:37:52.731731 32537 layer_factory.hpp:77] Creating layer inception_4b/output_inception_4b/output_0_split
I0403 15:37:52.731750 32537 net.cpp:91] Creating Layer inception_4b/output_inception_4b/output_0_split
I0403 15:37:52.731767 32537 net.cpp:425] inception_4b/output_inception_4b/output_0_split <- inception_4b/output
I0403 15:37:52.731786 32537 net.cpp:399] inception_4b/output_inception_4b/output_0_split -> inception_4b/output_inception_4b/output_0_split_0
I0403 15:37:52.731806 32537 net.cpp:399] inception_4b/output_inception_4b/output_0_split -> inception_4b/output_inception_4b/output_0_split_1
I0403 15:37:52.731827 32537 net.cpp:399] inception_4b/output_inception_4b/output_0_split -> inception_4b/output_inception_4b/output_0_split_2
I0403 15:37:52.731851 32537 net.cpp:399] inception_4b/output_inception_4b/output_0_split -> inception_4b/output_inception_4b/output_0_split_3
I0403 15:37:52.731935 32537 net.cpp:141] Setting up inception_4b/output_inception_4b/output_0_split
I0403 15:37:52.731959 32537 net.cpp:148] Top shape: 24 512 14 14 (2408448)
I0403 15:37:52.731976 32537 net.cpp:148] Top shape: 24 512 14 14 (2408448)
I0403 15:37:52.731993 32537 net.cpp:148] Top shape: 24 512 14 14 (2408448)
I0403 15:37:52.732009 32537 net.cpp:148] Top shape: 24 512 14 14 (2408448)
I0403 15:37:52.732024 32537 net.cpp:156] Memory required for data: 1028392224
I0403 15:37:52.732039 32537 layer_factory.hpp:77] Creating layer inception_4c/1x1
I0403 15:37:52.732061 32537 net.cpp:91] Creating Layer inception_4c/1x1
I0403 15:37:52.732079 32537 net.cpp:425] inception_4c/1x1 <- inception_4b/output_inception_4b/output_0_split_0
I0403 15:37:52.732101 32537 net.cpp:399] inception_4c/1x1 -> inception_4c/1x1
I0403 15:37:52.733523 32537 net.cpp:141] Setting up inception_4c/1x1
I0403 15:37:52.733551 32537 net.cpp:148] Top shape: 24 128 14 14 (602112)
I0403 15:37:52.733569 32537 net.cpp:156] Memory required for data: 1030800672
I0403 15:37:52.733587 32537 layer_factory.hpp:77] Creating layer inception_4c/relu_1x1
I0403 15:37:52.733608 32537 net.cpp:91] Creating Layer inception_4c/relu_1x1
I0403 15:37:52.733623 32537 net.cpp:425] inception_4c/relu_1x1 <- inception_4c/1x1
I0403 15:37:52.733644 32537 net.cpp:386] inception_4c/relu_1x1 -> inception_4c/1x1 (in-place)
I0403 15:37:52.733819 32537 net.cpp:141] Setting up inception_4c/relu_1x1
I0403 15:37:52.733842 32537 net.cpp:148] Top shape: 24 128 14 14 (602112)
I0403 15:37:52.733858 32537 net.cpp:156] Memory required for data: 1033209120
I0403 15:37:52.733873 32537 layer_factory.hpp:77] Creating layer inception_4c/3x3_reduce
I0403 15:37:52.733896 32537 net.cpp:91] Creating Layer inception_4c/3x3_reduce
I0403 15:37:52.733916 32537 net.cpp:425] inception_4c/3x3_reduce <- inception_4b/output_inception_4b/output_0_split_1
I0403 15:37:52.733937 32537 net.cpp:399] inception_4c/3x3_reduce -> inception_4c/3x3_reduce
I0403 15:37:52.735877 32537 net.cpp:141] Setting up inception_4c/3x3_reduce
I0403 15:37:52.735906 32537 net.cpp:148] Top shape: 24 128 14 14 (602112)
I0403 15:37:52.735924 32537 net.cpp:156] Memory required for data: 1035617568
I0403 15:37:52.735942 32537 layer_factory.hpp:77] Creating layer inception_4c/relu_3x3_reduce
I0403 15:37:52.735965 32537 net.cpp:91] Creating Layer inception_4c/relu_3x3_reduce
I0403 15:37:52.735982 32537 net.cpp:425] inception_4c/relu_3x3_reduce <- inception_4c/3x3_reduce
I0403 15:37:52.736001 32537 net.cpp:386] inception_4c/relu_3x3_reduce -> inception_4c/3x3_reduce (in-place)
I0403 15:37:52.736281 32537 net.cpp:141] Setting up inception_4c/relu_3x3_reduce
I0403 15:37:52.736312 32537 net.cpp:148] Top shape: 24 128 14 14 (602112)
I0403 15:37:52.736328 32537 net.cpp:156] Memory required for data: 1038026016
I0403 15:37:52.736346 32537 layer_factory.hpp:77] Creating layer inception_4c/3x3
I0403 15:37:52.736369 32537 net.cpp:91] Creating Layer inception_4c/3x3
I0403 15:37:52.736387 32537 net.cpp:425] inception_4c/3x3 <- inception_4c/3x3_reduce
I0403 15:37:52.736409 32537 net.cpp:399] inception_4c/3x3 -> inception_4c/3x3
I0403 15:37:52.739956 32537 net.cpp:141] Setting up inception_4c/3x3
I0403 15:37:52.740000 32537 net.cpp:148] Top shape: 24 256 14 14 (1204224)
I0403 15:37:52.740016 32537 net.cpp:156] Memory required for data: 1042842912
I0403 15:37:52.740052 32537 layer_factory.hpp:77] Creating layer inception_4c/relu_3x3
I0403 15:37:52.740077 32537 net.cpp:91] Creating Layer inception_4c/relu_3x3
I0403 15:37:52.740094 32537 net.cpp:425] inception_4c/relu_3x3 <- inception_4c/3x3
I0403 15:37:52.740113 32537 net.cpp:386] inception_4c/relu_3x3 -> inception_4c/3x3 (in-place)
I0403 15:37:52.740293 32537 net.cpp:141] Setting up inception_4c/relu_3x3
I0403 15:37:52.740320 32537 net.cpp:148] Top shape: 24 256 14 14 (1204224)
I0403 15:37:52.740336 32537 net.cpp:156] Memory required for data: 1047659808
I0403 15:37:52.740351 32537 layer_factory.hpp:77] Creating layer inception_4c/5x5_reduce
I0403 15:37:52.740371 32537 net.cpp:91] Creating Layer inception_4c/5x5_reduce
I0403 15:37:52.740389 32537 net.cpp:425] inception_4c/5x5_reduce <- inception_4b/output_inception_4b/output_0_split_2
I0403 15:37:52.740412 32537 net.cpp:399] inception_4c/5x5_reduce -> inception_4c/5x5_reduce
I0403 15:37:52.741477 32537 net.cpp:141] Setting up inception_4c/5x5_reduce
I0403 15:37:52.741506 32537 net.cpp:148] Top shape: 24 24 14 14 (112896)
I0403 15:37:52.741523 32537 net.cpp:156] Memory required for data: 1048111392
I0403 15:37:52.741541 32537 layer_factory.hpp:77] Creating layer inception_4c/relu_5x5_reduce
I0403 15:37:52.741564 32537 net.cpp:91] Creating Layer inception_4c/relu_5x5_reduce
I0403 15:37:52.741581 32537 net.cpp:425] inception_4c/relu_5x5_reduce <- inception_4c/5x5_reduce
I0403 15:37:52.741600 32537 net.cpp:386] inception_4c/relu_5x5_reduce -> inception_4c/5x5_reduce (in-place)
I0403 15:37:52.741780 32537 net.cpp:141] Setting up inception_4c/relu_5x5_reduce
I0403 15:37:52.741807 32537 net.cpp:148] Top shape: 24 24 14 14 (112896)
I0403 15:37:52.741823 32537 net.cpp:156] Memory required for data: 1048562976
I0403 15:37:52.741839 32537 layer_factory.hpp:77] Creating layer inception_4c/5x5
I0403 15:37:52.741863 32537 net.cpp:91] Creating Layer inception_4c/5x5
I0403 15:37:52.741879 32537 net.cpp:425] inception_4c/5x5 <- inception_4c/5x5_reduce
I0403 15:37:52.741899 32537 net.cpp:399] inception_4c/5x5 -> inception_4c/5x5
I0403 15:37:52.743116 32537 net.cpp:141] Setting up inception_4c/5x5
I0403 15:37:52.743145 32537 net.cpp:148] Top shape: 24 64 14 14 (301056)
I0403 15:37:52.743161 32537 net.cpp:156] Memory required for data: 1049767200
I0403 15:37:52.743181 32537 layer_factory.hpp:77] Creating layer inception_4c/relu_5x5
I0403 15:37:52.743199 32537 net.cpp:91] Creating Layer inception_4c/relu_5x5
I0403 15:37:52.743216 32537 net.cpp:425] inception_4c/relu_5x5 <- inception_4c/5x5
I0403 15:37:52.743235 32537 net.cpp:386] inception_4c/relu_5x5 -> inception_4c/5x5 (in-place)
I0403 15:37:52.743525 32537 net.cpp:141] Setting up inception_4c/relu_5x5
I0403 15:37:52.743553 32537 net.cpp:148] Top shape: 24 64 14 14 (301056)
I0403 15:37:52.743571 32537 net.cpp:156] Memory required for data: 1050971424
I0403 15:37:52.743587 32537 layer_factory.hpp:77] Creating layer inception_4c/pool
I0403 15:37:52.743605 32537 net.cpp:91] Creating Layer inception_4c/pool
I0403 15:37:52.743621 32537 net.cpp:425] inception_4c/pool <- inception_4b/output_inception_4b/output_0_split_3
I0403 15:37:52.743641 32537 net.cpp:399] inception_4c/pool -> inception_4c/pool
I0403 15:37:52.743705 32537 net.cpp:141] Setting up inception_4c/pool
I0403 15:37:52.743731 32537 net.cpp:148] Top shape: 24 512 14 14 (2408448)
I0403 15:37:52.743746 32537 net.cpp:156] Memory required for data: 1060605216
I0403 15:37:52.743762 32537 layer_factory.hpp:77] Creating layer inception_4c/pool_proj
I0403 15:37:52.743785 32537 net.cpp:91] Creating Layer inception_4c/pool_proj
I0403 15:37:52.743803 32537 net.cpp:425] inception_4c/pool_proj <- inception_4c/pool
I0403 15:37:52.743823 32537 net.cpp:399] inception_4c/pool_proj -> inception_4c/pool_proj
I0403 15:37:52.745090 32537 net.cpp:141] Setting up inception_4c/pool_proj
I0403 15:37:52.745121 32537 net.cpp:148] Top shape: 24 64 14 14 (301056)
I0403 15:37:52.745152 32537 net.cpp:156] Memory required for data: 1061809440
I0403 15:37:52.745173 32537 layer_factory.hpp:77] Creating layer inception_4c/relu_pool_proj
I0403 15:37:52.745194 32537 net.cpp:91] Creating Layer inception_4c/relu_pool_proj
I0403 15:37:52.745213 32537 net.cpp:425] inception_4c/relu_pool_proj <- inception_4c/pool_proj
I0403 15:37:52.745232 32537 net.cpp:386] inception_4c/relu_pool_proj -> inception_4c/pool_proj (in-place)
I0403 15:37:52.745430 32537 net.cpp:141] Setting up inception_4c/relu_pool_proj
I0403 15:37:52.745458 32537 net.cpp:148] Top shape: 24 64 14 14 (301056)
I0403 15:37:52.745473 32537 net.cpp:156] Memory required for data: 1063013664
I0403 15:37:52.745487 32537 layer_factory.hpp:77] Creating layer inception_4c/output
I0403 15:37:52.745506 32537 net.cpp:91] Creating Layer inception_4c/output
I0403 15:37:52.745522 32537 net.cpp:425] inception_4c/output <- inception_4c/1x1
I0403 15:37:52.745538 32537 net.cpp:425] inception_4c/output <- inception_4c/3x3
I0403 15:37:52.745555 32537 net.cpp:425] inception_4c/output <- inception_4c/5x5
I0403 15:37:52.745573 32537 net.cpp:425] inception_4c/output <- inception_4c/pool_proj
I0403 15:37:52.745589 32537 net.cpp:399] inception_4c/output -> inception_4c/output
I0403 15:37:52.745635 32537 net.cpp:141] Setting up inception_4c/output
I0403 15:37:52.745661 32537 net.cpp:148] Top shape: 24 512 14 14 (2408448)
I0403 15:37:52.745676 32537 net.cpp:156] Memory required for data: 1072647456
I0403 15:37:52.745692 32537 layer_factory.hpp:77] Creating layer inception_4c/output_inception_4c/output_0_split
I0403 15:37:52.745710 32537 net.cpp:91] Creating Layer inception_4c/output_inception_4c/output_0_split
I0403 15:37:52.745728 32537 net.cpp:425] inception_4c/output_inception_4c/output_0_split <- inception_4c/output
I0403 15:37:52.745745 32537 net.cpp:399] inception_4c/output_inception_4c/output_0_split -> inception_4c/output_inception_4c/output_0_split_0
I0403 15:37:52.745765 32537 net.cpp:399] inception_4c/output_inception_4c/output_0_split -> inception_4c/output_inception_4c/output_0_split_1
I0403 15:37:52.745786 32537 net.cpp:399] inception_4c/output_inception_4c/output_0_split -> inception_4c/output_inception_4c/output_0_split_2
I0403 15:37:52.745810 32537 net.cpp:399] inception_4c/output_inception_4c/output_0_split -> inception_4c/output_inception_4c/output_0_split_3
I0403 15:37:52.745896 32537 net.cpp:141] Setting up inception_4c/output_inception_4c/output_0_split
I0403 15:37:52.745921 32537 net.cpp:148] Top shape: 24 512 14 14 (2408448)
I0403 15:37:52.745937 32537 net.cpp:148] Top shape: 24 512 14 14 (2408448)
I0403 15:37:52.745954 32537 net.cpp:148] Top shape: 24 512 14 14 (2408448)
I0403 15:37:52.745970 32537 net.cpp:148] Top shape: 24 512 14 14 (2408448)
I0403 15:37:52.745985 32537 net.cpp:156] Memory required for data: 1111182624
I0403 15:37:52.746000 32537 layer_factory.hpp:77] Creating layer inception_4d/1x1
I0403 15:37:52.746021 32537 net.cpp:91] Creating Layer inception_4d/1x1
I0403 15:37:52.746038 32537 net.cpp:425] inception_4d/1x1 <- inception_4c/output_inception_4c/output_0_split_0
I0403 15:37:52.746059 32537 net.cpp:399] inception_4d/1x1 -> inception_4d/1x1
I0403 15:37:52.747432 32537 net.cpp:141] Setting up inception_4d/1x1
I0403 15:37:52.747462 32537 net.cpp:148] Top shape: 24 112 14 14 (526848)
I0403 15:37:52.747478 32537 net.cpp:156] Memory required for data: 1113290016
I0403 15:37:52.747496 32537 layer_factory.hpp:77] Creating layer inception_4d/relu_1x1
I0403 15:37:52.747514 32537 net.cpp:91] Creating Layer inception_4d/relu_1x1
I0403 15:37:52.747530 32537 net.cpp:425] inception_4d/relu_1x1 <- inception_4d/1x1
I0403 15:37:52.747553 32537 net.cpp:386] inception_4d/relu_1x1 -> inception_4d/1x1 (in-place)
I0403 15:37:52.747735 32537 net.cpp:141] Setting up inception_4d/relu_1x1
I0403 15:37:52.747761 32537 net.cpp:148] Top shape: 24 112 14 14 (526848)
I0403 15:37:52.747776 32537 net.cpp:156] Memory required for data: 1115397408
I0403 15:37:52.747792 32537 layer_factory.hpp:77] Creating layer inception_4d/3x3_reduce
I0403 15:37:52.747834 32537 net.cpp:91] Creating Layer inception_4d/3x3_reduce
I0403 15:37:52.747853 32537 net.cpp:425] inception_4d/3x3_reduce <- inception_4c/output_inception_4c/output_0_split_1
I0403 15:37:52.747875 32537 net.cpp:399] inception_4d/3x3_reduce -> inception_4d/3x3_reduce
I0403 15:37:52.749374 32537 net.cpp:141] Setting up inception_4d/3x3_reduce
I0403 15:37:52.749405 32537 net.cpp:148] Top shape: 24 144 14 14 (677376)
I0403 15:37:52.749423 32537 net.cpp:156] Memory required for data: 1118106912
I0403 15:37:52.749442 32537 layer_factory.hpp:77] Creating layer inception_4d/relu_3x3_reduce
I0403 15:37:52.749461 32537 net.cpp:91] Creating Layer inception_4d/relu_3x3_reduce
I0403 15:37:52.749477 32537 net.cpp:425] inception_4d/relu_3x3_reduce <- inception_4d/3x3_reduce
I0403 15:37:52.749497 32537 net.cpp:386] inception_4d/relu_3x3_reduce -> inception_4d/3x3_reduce (in-place)
I0403 15:37:52.749783 32537 net.cpp:141] Setting up inception_4d/relu_3x3_reduce
I0403 15:37:52.749816 32537 net.cpp:148] Top shape: 24 144 14 14 (677376)
I0403 15:37:52.749833 32537 net.cpp:156] Memory required for data: 1120816416
I0403 15:37:52.749850 32537 layer_factory.hpp:77] Creating layer inception_4d/3x3
I0403 15:37:52.749872 32537 net.cpp:91] Creating Layer inception_4d/3x3
I0403 15:37:52.749891 32537 net.cpp:425] inception_4d/3x3 <- inception_4d/3x3_reduce
I0403 15:37:52.749913 32537 net.cpp:399] inception_4d/3x3 -> inception_4d/3x3
I0403 15:37:52.754483 32537 net.cpp:141] Setting up inception_4d/3x3
I0403 15:37:52.754515 32537 net.cpp:148] Top shape: 24 288 14 14 (1354752)
I0403 15:37:52.754534 32537 net.cpp:156] Memory required for data: 1126235424
I0403 15:37:52.754554 32537 layer_factory.hpp:77] Creating layer inception_4d/relu_3x3
I0403 15:37:52.754575 32537 net.cpp:91] Creating Layer inception_4d/relu_3x3
I0403 15:37:52.754609 32537 net.cpp:425] inception_4d/relu_3x3 <- inception_4d/3x3
I0403 15:37:52.754629 32537 net.cpp:386] inception_4d/relu_3x3 -> inception_4d/3x3 (in-place)
I0403 15:37:52.754822 32537 net.cpp:141] Setting up inception_4d/relu_3x3
I0403 15:37:52.754850 32537 net.cpp:148] Top shape: 24 288 14 14 (1354752)
I0403 15:37:52.754865 32537 net.cpp:156] Memory required for data: 1131654432
I0403 15:37:52.754883 32537 layer_factory.hpp:77] Creating layer inception_4d/5x5_reduce
I0403 15:37:52.754909 32537 net.cpp:91] Creating Layer inception_4d/5x5_reduce
I0403 15:37:52.754936 32537 net.cpp:425] inception_4d/5x5_reduce <- inception_4c/output_inception_4c/output_0_split_2
I0403 15:37:52.754979 32537 net.cpp:399] inception_4d/5x5_reduce -> inception_4d/5x5_reduce
I0403 15:37:52.756183 32537 net.cpp:141] Setting up inception_4d/5x5_reduce
I0403 15:37:52.756216 32537 net.cpp:148] Top shape: 24 32 14 14 (150528)
I0403 15:37:52.756233 32537 net.cpp:156] Memory required for data: 1132256544
I0403 15:37:52.756253 32537 layer_factory.hpp:77] Creating layer inception_4d/relu_5x5_reduce
I0403 15:37:52.756273 32537 net.cpp:91] Creating Layer inception_4d/relu_5x5_reduce
I0403 15:37:52.756299 32537 net.cpp:425] inception_4d/relu_5x5_reduce <- inception_4d/5x5_reduce
I0403 15:37:52.756319 32537 net.cpp:386] inception_4d/relu_5x5_reduce -> inception_4d/5x5_reduce (in-place)
I0403 15:37:52.756516 32537 net.cpp:141] Setting up inception_4d/relu_5x5_reduce
I0403 15:37:52.756551 32537 net.cpp:148] Top shape: 24 32 14 14 (150528)
I0403 15:37:52.756575 32537 net.cpp:156] Memory required for data: 1132858656
I0403 15:37:52.756592 32537 layer_factory.hpp:77] Creating layer inception_4d/5x5
I0403 15:37:52.756618 32537 net.cpp:91] Creating Layer inception_4d/5x5
I0403 15:37:52.756639 32537 net.cpp:425] inception_4d/5x5 <- inception_4d/5x5_reduce
I0403 15:37:52.756662 32537 net.cpp:399] inception_4d/5x5 -> inception_4d/5x5
I0403 15:37:52.758201 32537 net.cpp:141] Setting up inception_4d/5x5
I0403 15:37:52.758271 32537 net.cpp:148] Top shape: 24 64 14 14 (301056)
I0403 15:37:52.758307 32537 net.cpp:156] Memory required for data: 1134062880
I0403 15:37:52.758334 32537 layer_factory.hpp:77] Creating layer inception_4d/relu_5x5
I0403 15:37:52.758383 32537 net.cpp:91] Creating Layer inception_4d/relu_5x5
I0403 15:37:52.758414 32537 net.cpp:425] inception_4d/relu_5x5 <- inception_4d/5x5
I0403 15:37:52.758435 32537 net.cpp:386] inception_4d/relu_5x5 -> inception_4d/5x5 (in-place)
I0403 15:37:52.758738 32537 net.cpp:141] Setting up inception_4d/relu_5x5
I0403 15:37:52.758796 32537 net.cpp:148] Top shape: 24 64 14 14 (301056)
I0403 15:37:52.758833 32537 net.cpp:156] Memory required for data: 1135267104
I0403 15:37:52.758908 32537 layer_factory.hpp:77] Creating layer inception_4d/pool
I0403 15:37:52.758932 32537 net.cpp:91] Creating Layer inception_4d/pool
I0403 15:37:52.758961 32537 net.cpp:425] inception_4d/pool <- inception_4c/output_inception_4c/output_0_split_3
I0403 15:37:52.758981 32537 net.cpp:399] inception_4d/pool -> inception_4d/pool
I0403 15:37:52.759062 32537 net.cpp:141] Setting up inception_4d/pool
I0403 15:37:52.759089 32537 net.cpp:148] Top shape: 24 512 14 14 (2408448)
I0403 15:37:52.759105 32537 net.cpp:156] Memory required for data: 1144900896
I0403 15:37:52.759122 32537 layer_factory.hpp:77] Creating layer inception_4d/pool_proj
I0403 15:37:52.759145 32537 net.cpp:91] Creating Layer inception_4d/pool_proj
I0403 15:37:52.759166 32537 net.cpp:425] inception_4d/pool_proj <- inception_4d/pool
I0403 15:37:52.759188 32537 net.cpp:399] inception_4d/pool_proj -> inception_4d/pool_proj
I0403 15:37:52.760994 32537 net.cpp:141] Setting up inception_4d/pool_proj
I0403 15:37:52.761025 32537 net.cpp:148] Top shape: 24 64 14 14 (301056)
I0403 15:37:52.761044 32537 net.cpp:156] Memory required for data: 1146105120
I0403 15:37:52.761064 32537 layer_factory.hpp:77] Creating layer inception_4d/relu_pool_proj
I0403 15:37:52.761085 32537 net.cpp:91] Creating Layer inception_4d/relu_pool_proj
I0403 15:37:52.761103 32537 net.cpp:425] inception_4d/relu_pool_proj <- inception_4d/pool_proj
I0403 15:37:52.761121 32537 net.cpp:386] inception_4d/relu_pool_proj -> inception_4d/pool_proj (in-place)
I0403 15:37:52.761314 32537 net.cpp:141] Setting up inception_4d/relu_pool_proj
I0403 15:37:52.761340 32537 net.cpp:148] Top shape: 24 64 14 14 (301056)
I0403 15:37:52.761356 32537 net.cpp:156] Memory required for data: 1147309344
I0403 15:37:52.761373 32537 layer_factory.hpp:77] Creating layer inception_4d/output
I0403 15:37:52.761394 32537 net.cpp:91] Creating Layer inception_4d/output
I0403 15:37:52.761410 32537 net.cpp:425] inception_4d/output <- inception_4d/1x1
I0403 15:37:52.761430 32537 net.cpp:425] inception_4d/output <- inception_4d/3x3
I0403 15:37:52.761446 32537 net.cpp:425] inception_4d/output <- inception_4d/5x5
I0403 15:37:52.761463 32537 net.cpp:425] inception_4d/output <- inception_4d/pool_proj
I0403 15:37:52.761482 32537 net.cpp:399] inception_4d/output -> inception_4d/output
I0403 15:37:52.761533 32537 net.cpp:141] Setting up inception_4d/output
I0403 15:37:52.761562 32537 net.cpp:148] Top shape: 24 528 14 14 (2483712)
I0403 15:37:52.761577 32537 net.cpp:156] Memory required for data: 1157244192
I0403 15:37:52.761595 32537 layer_factory.hpp:77] Creating layer inception_4d/output_inception_4d/output_0_split
I0403 15:37:52.761611 32537 net.cpp:91] Creating Layer inception_4d/output_inception_4d/output_0_split
I0403 15:37:52.761636 32537 net.cpp:425] inception_4d/output_inception_4d/output_0_split <- inception_4d/output
I0403 15:37:52.761667 32537 net.cpp:399] inception_4d/output_inception_4d/output_0_split -> inception_4d/output_inception_4d/output_0_split_0
I0403 15:37:52.761698 32537 net.cpp:399] inception_4d/output_inception_4d/output_0_split -> inception_4d/output_inception_4d/output_0_split_1
I0403 15:37:52.761728 32537 net.cpp:399] inception_4d/output_inception_4d/output_0_split -> inception_4d/output_inception_4d/output_0_split_2
I0403 15:37:52.761765 32537 net.cpp:399] inception_4d/output_inception_4d/output_0_split -> inception_4d/output_inception_4d/output_0_split_3
I0403 15:37:52.761787 32537 net.cpp:399] inception_4d/output_inception_4d/output_0_split -> inception_4d/output_inception_4d/output_0_split_4
I0403 15:37:52.761893 32537 net.cpp:141] Setting up inception_4d/output_inception_4d/output_0_split
I0403 15:37:52.761934 32537 net.cpp:148] Top shape: 24 528 14 14 (2483712)
I0403 15:37:52.761952 32537 net.cpp:148] Top shape: 24 528 14 14 (2483712)
I0403 15:37:52.761970 32537 net.cpp:148] Top shape: 24 528 14 14 (2483712)
I0403 15:37:52.761986 32537 net.cpp:148] Top shape: 24 528 14 14 (2483712)
I0403 15:37:52.762003 32537 net.cpp:148] Top shape: 24 528 14 14 (2483712)
I0403 15:37:52.762018 32537 net.cpp:156] Memory required for data: 1206918432
I0403 15:37:52.762033 32537 layer_factory.hpp:77] Creating layer loss2/ave_pool
I0403 15:37:52.762053 32537 net.cpp:91] Creating Layer loss2/ave_pool
I0403 15:37:52.762071 32537 net.cpp:425] loss2/ave_pool <- inception_4d/output_inception_4d/output_0_split_0
I0403 15:37:52.762101 32537 net.cpp:399] loss2/ave_pool -> loss2/ave_pool
I0403 15:37:52.762456 32537 net.cpp:141] Setting up loss2/ave_pool
I0403 15:37:52.762486 32537 net.cpp:148] Top shape: 24 528 4 4 (202752)
I0403 15:37:52.762503 32537 net.cpp:156] Memory required for data: 1207729440
I0403 15:37:52.762519 32537 layer_factory.hpp:77] Creating layer loss2/conv
I0403 15:37:52.762543 32537 net.cpp:91] Creating Layer loss2/conv
I0403 15:37:52.762563 32537 net.cpp:425] loss2/conv <- loss2/ave_pool
I0403 15:37:52.762588 32537 net.cpp:399] loss2/conv -> loss2/conv
I0403 15:37:52.764605 32537 net.cpp:141] Setting up loss2/conv
I0403 15:37:52.764657 32537 net.cpp:148] Top shape: 24 128 4 4 (49152)
I0403 15:37:52.764677 32537 net.cpp:156] Memory required for data: 1207926048
I0403 15:37:52.764698 32537 layer_factory.hpp:77] Creating layer loss2/relu_conv
I0403 15:37:52.764741 32537 net.cpp:91] Creating Layer loss2/relu_conv
I0403 15:37:52.764760 32537 net.cpp:425] loss2/relu_conv <- loss2/conv
I0403 15:37:52.764787 32537 net.cpp:386] loss2/relu_conv -> loss2/conv (in-place)
I0403 15:37:52.765085 32537 net.cpp:141] Setting up loss2/relu_conv
I0403 15:37:52.765128 32537 net.cpp:148] Top shape: 24 128 4 4 (49152)
I0403 15:37:52.765146 32537 net.cpp:156] Memory required for data: 1208122656
I0403 15:37:52.765164 32537 layer_factory.hpp:77] Creating layer loss2/fc
I0403 15:37:52.765185 32537 net.cpp:91] Creating Layer loss2/fc
I0403 15:37:52.765204 32537 net.cpp:425] loss2/fc <- loss2/conv
I0403 15:37:52.765228 32537 net.cpp:399] loss2/fc -> loss2/fc
I0403 15:37:52.784226 32537 net.cpp:141] Setting up loss2/fc
I0403 15:37:52.784265 32537 net.cpp:148] Top shape: 24 1024 (24576)
I0403 15:37:52.784286 32537 net.cpp:156] Memory required for data: 1208220960
I0403 15:37:52.784322 32537 layer_factory.hpp:77] Creating layer loss2/relu_fc
I0403 15:37:52.784346 32537 net.cpp:91] Creating Layer loss2/relu_fc
I0403 15:37:52.784368 32537 net.cpp:425] loss2/relu_fc <- loss2/fc
I0403 15:37:52.784401 32537 net.cpp:386] loss2/relu_fc -> loss2/fc (in-place)
I0403 15:37:52.784750 32537 net.cpp:141] Setting up loss2/relu_fc
I0403 15:37:52.784792 32537 net.cpp:148] Top shape: 24 1024 (24576)
I0403 15:37:52.784832 32537 net.cpp:156] Memory required for data: 1208319264
I0403 15:37:52.784849 32537 layer_factory.hpp:77] Creating layer loss2/drop_fc
I0403 15:37:52.784875 32537 net.cpp:91] Creating Layer loss2/drop_fc
I0403 15:37:52.784911 32537 net.cpp:425] loss2/drop_fc <- loss2/fc
I0403 15:37:52.784941 32537 net.cpp:386] loss2/drop_fc -> loss2/fc (in-place)
I0403 15:37:52.785012 32537 net.cpp:141] Setting up loss2/drop_fc
I0403 15:37:52.785069 32537 net.cpp:148] Top shape: 24 1024 (24576)
I0403 15:37:52.785104 32537 net.cpp:156] Memory required for data: 1208417568
I0403 15:37:52.785146 32537 layer_factory.hpp:77] Creating layer loss2/classifier_plantvillage
I0403 15:37:52.785166 32537 net.cpp:91] Creating Layer loss2/classifier_plantvillage
I0403 15:37:52.785183 32537 net.cpp:425] loss2/classifier_plantvillage <- loss2/fc
I0403 15:37:52.785207 32537 net.cpp:399] loss2/classifier_plantvillage -> loss2/classifier_plantvillage
I0403 15:37:52.785658 32537 net.cpp:141] Setting up loss2/classifier_plantvillage
I0403 15:37:52.785698 32537 net.cpp:148] Top shape: 24 38 (912)
I0403 15:37:52.785722 32537 net.cpp:156] Memory required for data: 1208421216
I0403 15:37:52.785768 32537 layer_factory.hpp:77] Creating layer loss2/classifier_plantvillage_loss2/classifier_plantvillage_0_split
I0403 15:37:52.785794 32537 net.cpp:91] Creating Layer loss2/classifier_plantvillage_loss2/classifier_plantvillage_0_split
I0403 15:37:52.785811 32537 net.cpp:425] loss2/classifier_plantvillage_loss2/classifier_plantvillage_0_split <- loss2/classifier_plantvillage
I0403 15:37:52.785835 32537 net.cpp:399] loss2/classifier_plantvillage_loss2/classifier_plantvillage_0_split -> loss2/classifier_plantvillage_loss2/classifier_plantvillage_0_split_0
I0403 15:37:52.785864 32537 net.cpp:399] loss2/classifier_plantvillage_loss2/classifier_plantvillage_0_split -> loss2/classifier_plantvillage_loss2/classifier_plantvillage_0_split_1
I0403 15:37:52.785890 32537 net.cpp:399] loss2/classifier_plantvillage_loss2/classifier_plantvillage_0_split -> loss2/classifier_plantvillage_loss2/classifier_plantvillage_0_split_2
I0403 15:37:52.785982 32537 net.cpp:141] Setting up loss2/classifier_plantvillage_loss2/classifier_plantvillage_0_split
I0403 15:37:52.786007 32537 net.cpp:148] Top shape: 24 38 (912)
I0403 15:37:52.786026 32537 net.cpp:148] Top shape: 24 38 (912)
I0403 15:37:52.786042 32537 net.cpp:148] Top shape: 24 38 (912)
I0403 15:37:52.786058 32537 net.cpp:156] Memory required for data: 1208432160
I0403 15:37:52.786074 32537 layer_factory.hpp:77] Creating layer inception_4e/1x1
I0403 15:37:52.786098 32537 net.cpp:91] Creating Layer inception_4e/1x1
I0403 15:37:52.786118 32537 net.cpp:425] inception_4e/1x1 <- inception_4d/output_inception_4d/output_0_split_1
I0403 15:37:52.786139 32537 net.cpp:399] inception_4e/1x1 -> inception_4e/1x1
I0403 15:37:52.788169 32537 net.cpp:141] Setting up inception_4e/1x1
I0403 15:37:52.788205 32537 net.cpp:148] Top shape: 24 256 14 14 (1204224)
I0403 15:37:52.788251 32537 net.cpp:156] Memory required for data: 1213249056
I0403 15:37:52.788270 32537 layer_factory.hpp:77] Creating layer inception_4e/relu_1x1
I0403 15:37:52.788295 32537 net.cpp:91] Creating Layer inception_4e/relu_1x1
I0403 15:37:52.788312 32537 net.cpp:425] inception_4e/relu_1x1 <- inception_4e/1x1
I0403 15:37:52.788334 32537 net.cpp:386] inception_4e/relu_1x1 -> inception_4e/1x1 (in-place)
I0403 15:37:52.788636 32537 net.cpp:141] Setting up inception_4e/relu_1x1
I0403 15:37:52.788666 32537 net.cpp:148] Top shape: 24 256 14 14 (1204224)
I0403 15:37:52.788696 32537 net.cpp:156] Memory required for data: 1218065952
I0403 15:37:52.788713 32537 layer_factory.hpp:77] Creating layer inception_4e/3x3_reduce
I0403 15:37:52.788750 32537 net.cpp:91] Creating Layer inception_4e/3x3_reduce
I0403 15:37:52.788770 32537 net.cpp:425] inception_4e/3x3_reduce <- inception_4d/output_inception_4d/output_0_split_2
I0403 15:37:52.788791 32537 net.cpp:399] inception_4e/3x3_reduce -> inception_4e/3x3_reduce
I0403 15:37:52.791049 32537 net.cpp:141] Setting up inception_4e/3x3_reduce
I0403 15:37:52.791080 32537 net.cpp:148] Top shape: 24 160 14 14 (752640)
I0403 15:37:52.791098 32537 net.cpp:156] Memory required for data: 1221076512
I0403 15:37:52.791117 32537 layer_factory.hpp:77] Creating layer inception_4e/relu_3x3_reduce
I0403 15:37:52.791141 32537 net.cpp:91] Creating Layer inception_4e/relu_3x3_reduce
I0403 15:37:52.791162 32537 net.cpp:425] inception_4e/relu_3x3_reduce <- inception_4e/3x3_reduce
I0403 15:37:52.791188 32537 net.cpp:386] inception_4e/relu_3x3_reduce -> inception_4e/3x3_reduce (in-place)
I0403 15:37:52.791409 32537 net.cpp:141] Setting up inception_4e/relu_3x3_reduce
I0403 15:37:52.791436 32537 net.cpp:148] Top shape: 24 160 14 14 (752640)
I0403 15:37:52.791453 32537 net.cpp:156] Memory required for data: 1224087072
I0403 15:37:52.791472 32537 layer_factory.hpp:77] Creating layer inception_4e/3x3
I0403 15:37:52.791496 32537 net.cpp:91] Creating Layer inception_4e/3x3
I0403 15:37:52.791514 32537 net.cpp:425] inception_4e/3x3 <- inception_4e/3x3_reduce
I0403 15:37:52.791538 32537 net.cpp:399] inception_4e/3x3 -> inception_4e/3x3
I0403 15:37:52.796874 32537 net.cpp:141] Setting up inception_4e/3x3
I0403 15:37:52.796923 32537 net.cpp:148] Top shape: 24 320 14 14 (1505280)
I0403 15:37:52.796942 32537 net.cpp:156] Memory required for data: 1230108192
I0403 15:37:52.796963 32537 layer_factory.hpp:77] Creating layer inception_4e/relu_3x3
I0403 15:37:52.796984 32537 net.cpp:91] Creating Layer inception_4e/relu_3x3
I0403 15:37:52.797003 32537 net.cpp:425] inception_4e/relu_3x3 <- inception_4e/3x3
I0403 15:37:52.797024 32537 net.cpp:386] inception_4e/relu_3x3 -> inception_4e/3x3 (in-place)
I0403 15:37:52.797354 32537 net.cpp:141] Setting up inception_4e/relu_3x3
I0403 15:37:52.797384 32537 net.cpp:148] Top shape: 24 320 14 14 (1505280)
I0403 15:37:52.797400 32537 net.cpp:156] Memory required for data: 1236129312
I0403 15:37:52.797417 32537 layer_factory.hpp:77] Creating layer inception_4e/5x5_reduce
I0403 15:37:52.797442 32537 net.cpp:91] Creating Layer inception_4e/5x5_reduce
I0403 15:37:52.797462 32537 net.cpp:425] inception_4e/5x5_reduce <- inception_4d/output_inception_4d/output_0_split_3
I0403 15:37:52.797485 32537 net.cpp:399] inception_4e/5x5_reduce -> inception_4e/5x5_reduce
I0403 15:37:52.798631 32537 net.cpp:141] Setting up inception_4e/5x5_reduce
I0403 15:37:52.798667 32537 net.cpp:148] Top shape: 24 32 14 14 (150528)
I0403 15:37:52.798696 32537 net.cpp:156] Memory required for data: 1236731424
I0403 15:37:52.798715 32537 layer_factory.hpp:77] Creating layer inception_4e/relu_5x5_reduce
I0403 15:37:52.798735 32537 net.cpp:91] Creating Layer inception_4e/relu_5x5_reduce
I0403 15:37:52.798754 32537 net.cpp:425] inception_4e/relu_5x5_reduce <- inception_4e/5x5_reduce
I0403 15:37:52.798774 32537 net.cpp:386] inception_4e/relu_5x5_reduce -> inception_4e/5x5_reduce (in-place)
I0403 15:37:52.799088 32537 net.cpp:141] Setting up inception_4e/relu_5x5_reduce
I0403 15:37:52.799120 32537 net.cpp:148] Top shape: 24 32 14 14 (150528)
I0403 15:37:52.799139 32537 net.cpp:156] Memory required for data: 1237333536
I0403 15:37:52.799156 32537 layer_factory.hpp:77] Creating layer inception_4e/5x5
I0403 15:37:52.799207 32537 net.cpp:91] Creating Layer inception_4e/5x5
I0403 15:37:52.799233 32537 net.cpp:425] inception_4e/5x5 <- inception_4e/5x5_reduce
I0403 15:37:52.799259 32537 net.cpp:399] inception_4e/5x5 -> inception_4e/5x5
I0403 15:37:52.801204 32537 net.cpp:141] Setting up inception_4e/5x5
I0403 15:37:52.801235 32537 net.cpp:148] Top shape: 24 128 14 14 (602112)
I0403 15:37:52.801254 32537 net.cpp:156] Memory required for data: 1239741984
I0403 15:37:52.801287 32537 layer_factory.hpp:77] Creating layer inception_4e/relu_5x5
I0403 15:37:52.801311 32537 net.cpp:91] Creating Layer inception_4e/relu_5x5
I0403 15:37:52.801331 32537 net.cpp:425] inception_4e/relu_5x5 <- inception_4e/5x5
I0403 15:37:52.801349 32537 net.cpp:386] inception_4e/relu_5x5 -> inception_4e/5x5 (in-place)
I0403 15:37:52.801556 32537 net.cpp:141] Setting up inception_4e/relu_5x5
I0403 15:37:52.801586 32537 net.cpp:148] Top shape: 24 128 14 14 (602112)
I0403 15:37:52.801604 32537 net.cpp:156] Memory required for data: 1242150432
I0403 15:37:52.801625 32537 layer_factory.hpp:77] Creating layer inception_4e/pool
I0403 15:37:52.801650 32537 net.cpp:91] Creating Layer inception_4e/pool
I0403 15:37:52.801677 32537 net.cpp:425] inception_4e/pool <- inception_4d/output_inception_4d/output_0_split_4
I0403 15:37:52.801700 32537 net.cpp:399] inception_4e/pool -> inception_4e/pool
I0403 15:37:52.801779 32537 net.cpp:141] Setting up inception_4e/pool
I0403 15:37:52.801806 32537 net.cpp:148] Top shape: 24 528 14 14 (2483712)
I0403 15:37:52.801821 32537 net.cpp:156] Memory required for data: 1252085280
I0403 15:37:52.801837 32537 layer_factory.hpp:77] Creating layer inception_4e/pool_proj
I0403 15:37:52.801861 32537 net.cpp:91] Creating Layer inception_4e/pool_proj
I0403 15:37:52.801894 32537 net.cpp:425] inception_4e/pool_proj <- inception_4e/pool
I0403 15:37:52.801918 32537 net.cpp:399] inception_4e/pool_proj -> inception_4e/pool_proj
I0403 15:37:52.803521 32537 net.cpp:141] Setting up inception_4e/pool_proj
I0403 15:37:52.803551 32537 net.cpp:148] Top shape: 24 128 14 14 (602112)
I0403 15:37:52.803583 32537 net.cpp:156] Memory required for data: 1254493728
I0403 15:37:52.803606 32537 layer_factory.hpp:77] Creating layer inception_4e/relu_pool_proj
I0403 15:37:52.803627 32537 net.cpp:91] Creating Layer inception_4e/relu_pool_proj
I0403 15:37:52.803647 32537 net.cpp:425] inception_4e/relu_pool_proj <- inception_4e/pool_proj
I0403 15:37:52.803665 32537 net.cpp:386] inception_4e/relu_pool_proj -> inception_4e/pool_proj (in-place)
I0403 15:37:52.803979 32537 net.cpp:141] Setting up inception_4e/relu_pool_proj
I0403 15:37:52.804008 32537 net.cpp:148] Top shape: 24 128 14 14 (602112)
I0403 15:37:52.804028 32537 net.cpp:156] Memory required for data: 1256902176
I0403 15:37:52.804059 32537 layer_factory.hpp:77] Creating layer inception_4e/output
I0403 15:37:52.804080 32537 net.cpp:91] Creating Layer inception_4e/output
I0403 15:37:52.804097 32537 net.cpp:425] inception_4e/output <- inception_4e/1x1
I0403 15:37:52.804116 32537 net.cpp:425] inception_4e/output <- inception_4e/3x3
I0403 15:37:52.804136 32537 net.cpp:425] inception_4e/output <- inception_4e/5x5
I0403 15:37:52.804154 32537 net.cpp:425] inception_4e/output <- inception_4e/pool_proj
I0403 15:37:52.804173 32537 net.cpp:399] inception_4e/output -> inception_4e/output
I0403 15:37:52.804227 32537 net.cpp:141] Setting up inception_4e/output
I0403 15:37:52.804266 32537 net.cpp:148] Top shape: 24 832 14 14 (3913728)
I0403 15:37:52.804297 32537 net.cpp:156] Memory required for data: 1272557088
I0403 15:37:52.804318 32537 layer_factory.hpp:77] Creating layer pool4/3x3_s2
I0403 15:37:52.804337 32537 net.cpp:91] Creating Layer pool4/3x3_s2
I0403 15:37:52.804354 32537 net.cpp:425] pool4/3x3_s2 <- inception_4e/output
I0403 15:37:52.804378 32537 net.cpp:399] pool4/3x3_s2 -> pool4/3x3_s2
I0403 15:37:52.804451 32537 net.cpp:141] Setting up pool4/3x3_s2
I0403 15:37:52.804482 32537 net.cpp:148] Top shape: 24 832 7 7 (978432)
I0403 15:37:52.804499 32537 net.cpp:156] Memory required for data: 1276470816
I0403 15:37:52.804517 32537 layer_factory.hpp:77] Creating layer pool4/3x3_s2_pool4/3x3_s2_0_split
I0403 15:37:52.804533 32537 net.cpp:91] Creating Layer pool4/3x3_s2_pool4/3x3_s2_0_split
I0403 15:37:52.804551 32537 net.cpp:425] pool4/3x3_s2_pool4/3x3_s2_0_split <- pool4/3x3_s2
I0403 15:37:52.804579 32537 net.cpp:399] pool4/3x3_s2_pool4/3x3_s2_0_split -> pool4/3x3_s2_pool4/3x3_s2_0_split_0
I0403 15:37:52.804599 32537 net.cpp:399] pool4/3x3_s2_pool4/3x3_s2_0_split -> pool4/3x3_s2_pool4/3x3_s2_0_split_1
I0403 15:37:52.804639 32537 net.cpp:399] pool4/3x3_s2_pool4/3x3_s2_0_split -> pool4/3x3_s2_pool4/3x3_s2_0_split_2
I0403 15:37:52.804677 32537 net.cpp:399] pool4/3x3_s2_pool4/3x3_s2_0_split -> pool4/3x3_s2_pool4/3x3_s2_0_split_3
I0403 15:37:52.804776 32537 net.cpp:141] Setting up pool4/3x3_s2_pool4/3x3_s2_0_split
I0403 15:37:52.804802 32537 net.cpp:148] Top shape: 24 832 7 7 (978432)
I0403 15:37:52.804842 32537 net.cpp:148] Top shape: 24 832 7 7 (978432)
I0403 15:37:52.804872 32537 net.cpp:148] Top shape: 24 832 7 7 (978432)
I0403 15:37:52.804895 32537 net.cpp:148] Top shape: 24 832 7 7 (978432)
I0403 15:37:52.804911 32537 net.cpp:156] Memory required for data: 1292125728
I0403 15:37:52.804935 32537 layer_factory.hpp:77] Creating layer inception_5a/1x1
I0403 15:37:52.804970 32537 net.cpp:91] Creating Layer inception_5a/1x1
I0403 15:37:52.805002 32537 net.cpp:425] inception_5a/1x1 <- pool4/3x3_s2_pool4/3x3_s2_0_split_0
I0403 15:37:52.805035 32537 net.cpp:399] inception_5a/1x1 -> inception_5a/1x1
I0403 15:37:52.808114 32537 net.cpp:141] Setting up inception_5a/1x1
I0403 15:37:52.808151 32537 net.cpp:148] Top shape: 24 256 7 7 (301056)
I0403 15:37:52.808178 32537 net.cpp:156] Memory required for data: 1293329952
I0403 15:37:52.808218 32537 layer_factory.hpp:77] Creating layer inception_5a/relu_1x1
I0403 15:37:52.808249 32537 net.cpp:91] Creating Layer inception_5a/relu_1x1
I0403 15:37:52.808271 32537 net.cpp:425] inception_5a/relu_1x1 <- inception_5a/1x1
I0403 15:37:52.808297 32537 net.cpp:386] inception_5a/relu_1x1 -> inception_5a/1x1 (in-place)
I0403 15:37:52.808639 32537 net.cpp:141] Setting up inception_5a/relu_1x1
I0403 15:37:52.808679 32537 net.cpp:148] Top shape: 24 256 7 7 (301056)
I0403 15:37:52.808696 32537 net.cpp:156] Memory required for data: 1294534176
I0403 15:37:52.808712 32537 layer_factory.hpp:77] Creating layer inception_5a/3x3_reduce
I0403 15:37:52.808737 32537 net.cpp:91] Creating Layer inception_5a/3x3_reduce
I0403 15:37:52.808756 32537 net.cpp:425] inception_5a/3x3_reduce <- pool4/3x3_s2_pool4/3x3_s2_0_split_1
I0403 15:37:52.808780 32537 net.cpp:399] inception_5a/3x3_reduce -> inception_5a/3x3_reduce
I0403 15:37:52.811408 32537 net.cpp:141] Setting up inception_5a/3x3_reduce
I0403 15:37:52.811457 32537 net.cpp:148] Top shape: 24 160 7 7 (188160)
I0403 15:37:52.811482 32537 net.cpp:156] Memory required for data: 1295286816
I0403 15:37:52.811504 32537 layer_factory.hpp:77] Creating layer inception_5a/relu_3x3_reduce
I0403 15:37:52.811549 32537 net.cpp:91] Creating Layer inception_5a/relu_3x3_reduce
I0403 15:37:52.811575 32537 net.cpp:425] inception_5a/relu_3x3_reduce <- inception_5a/3x3_reduce
I0403 15:37:52.811595 32537 net.cpp:386] inception_5a/relu_3x3_reduce -> inception_5a/3x3_reduce (in-place)
I0403 15:37:52.811800 32537 net.cpp:141] Setting up inception_5a/relu_3x3_reduce
I0403 15:37:52.811827 32537 net.cpp:148] Top shape: 24 160 7 7 (188160)
I0403 15:37:52.811844 32537 net.cpp:156] Memory required for data: 1296039456
I0403 15:37:52.811862 32537 layer_factory.hpp:77] Creating layer inception_5a/3x3
I0403 15:37:52.811892 32537 net.cpp:91] Creating Layer inception_5a/3x3
I0403 15:37:52.811931 32537 net.cpp:425] inception_5a/3x3 <- inception_5a/3x3_reduce
I0403 15:37:52.811964 32537 net.cpp:399] inception_5a/3x3 -> inception_5a/3x3
I0403 15:37:52.817402 32537 net.cpp:141] Setting up inception_5a/3x3
I0403 15:37:52.817435 32537 net.cpp:148] Top shape: 24 320 7 7 (376320)
I0403 15:37:52.817454 32537 net.cpp:156] Memory required for data: 1297544736
I0403 15:37:52.817474 32537 layer_factory.hpp:77] Creating layer inception_5a/relu_3x3
I0403 15:37:52.817497 32537 net.cpp:91] Creating Layer inception_5a/relu_3x3
I0403 15:37:52.817515 32537 net.cpp:425] inception_5a/relu_3x3 <- inception_5a/3x3
I0403 15:37:52.817534 32537 net.cpp:386] inception_5a/relu_3x3 -> inception_5a/3x3 (in-place)
I0403 15:37:52.817844 32537 net.cpp:141] Setting up inception_5a/relu_3x3
I0403 15:37:52.817873 32537 net.cpp:148] Top shape: 24 320 7 7 (376320)
I0403 15:37:52.817890 32537 net.cpp:156] Memory required for data: 1299050016
I0403 15:37:52.817908 32537 layer_factory.hpp:77] Creating layer inception_5a/5x5_reduce
I0403 15:37:52.817931 32537 net.cpp:91] Creating Layer inception_5a/5x5_reduce
I0403 15:37:52.817951 32537 net.cpp:425] inception_5a/5x5_reduce <- pool4/3x3_s2_pool4/3x3_s2_0_split_2
I0403 15:37:52.817975 32537 net.cpp:399] inception_5a/5x5_reduce -> inception_5a/5x5_reduce
I0403 15:37:52.819221 32537 net.cpp:141] Setting up inception_5a/5x5_reduce
I0403 15:37:52.819254 32537 net.cpp:148] Top shape: 24 32 7 7 (37632)
I0403 15:37:52.819272 32537 net.cpp:156] Memory required for data: 1299200544
I0403 15:37:52.819298 32537 layer_factory.hpp:77] Creating layer inception_5a/relu_5x5_reduce
I0403 15:37:52.819319 32537 net.cpp:91] Creating Layer inception_5a/relu_5x5_reduce
I0403 15:37:52.819336 32537 net.cpp:425] inception_5a/relu_5x5_reduce <- inception_5a/5x5_reduce
I0403 15:37:52.819358 32537 net.cpp:386] inception_5a/relu_5x5_reduce -> inception_5a/5x5_reduce (in-place)
I0403 15:37:52.819672 32537 net.cpp:141] Setting up inception_5a/relu_5x5_reduce
I0403 15:37:52.819703 32537 net.cpp:148] Top shape: 24 32 7 7 (37632)
I0403 15:37:52.819721 32537 net.cpp:156] Memory required for data: 1299351072
I0403 15:37:52.819737 32537 layer_factory.hpp:77] Creating layer inception_5a/5x5
I0403 15:37:52.819761 32537 net.cpp:91] Creating Layer inception_5a/5x5
I0403 15:37:52.819782 32537 net.cpp:425] inception_5a/5x5 <- inception_5a/5x5_reduce
I0403 15:37:52.819803 32537 net.cpp:399] inception_5a/5x5 -> inception_5a/5x5
I0403 15:37:52.821632 32537 net.cpp:141] Setting up inception_5a/5x5
I0403 15:37:52.821674 32537 net.cpp:148] Top shape: 24 128 7 7 (150528)
I0403 15:37:52.821693 32537 net.cpp:156] Memory required for data: 1299953184
I0403 15:37:52.821713 32537 layer_factory.hpp:77] Creating layer inception_5a/relu_5x5
I0403 15:37:52.821737 32537 net.cpp:91] Creating Layer inception_5a/relu_5x5
I0403 15:37:52.821755 32537 net.cpp:425] inception_5a/relu_5x5 <- inception_5a/5x5
I0403 15:37:52.821775 32537 net.cpp:386] inception_5a/relu_5x5 -> inception_5a/5x5 (in-place)
I0403 15:37:52.821979 32537 net.cpp:141] Setting up inception_5a/relu_5x5
I0403 15:37:52.822010 32537 net.cpp:148] Top shape: 24 128 7 7 (150528)
I0403 15:37:52.822028 32537 net.cpp:156] Memory required for data: 1300555296
I0403 15:37:52.822049 32537 layer_factory.hpp:77] Creating layer inception_5a/pool
I0403 15:37:52.822072 32537 net.cpp:91] Creating Layer inception_5a/pool
I0403 15:37:52.822090 32537 net.cpp:425] inception_5a/pool <- pool4/3x3_s2_pool4/3x3_s2_0_split_3
I0403 15:37:52.822113 32537 net.cpp:399] inception_5a/pool -> inception_5a/pool
I0403 15:37:52.822187 32537 net.cpp:141] Setting up inception_5a/pool
I0403 15:37:52.822221 32537 net.cpp:148] Top shape: 24 832 7 7 (978432)
I0403 15:37:52.822238 32537 net.cpp:156] Memory required for data: 1304469024
I0403 15:37:52.822260 32537 layer_factory.hpp:77] Creating layer inception_5a/pool_proj
I0403 15:37:52.822295 32537 net.cpp:91] Creating Layer inception_5a/pool_proj
I0403 15:37:52.822319 32537 net.cpp:425] inception_5a/pool_proj <- inception_5a/pool
I0403 15:37:52.822350 32537 net.cpp:399] inception_5a/pool_proj -> inception_5a/pool_proj
I0403 15:37:52.824807 32537 net.cpp:141] Setting up inception_5a/pool_proj
I0403 15:37:52.824842 32537 net.cpp:148] Top shape: 24 128 7 7 (150528)
I0403 15:37:52.824861 32537 net.cpp:156] Memory required for data: 1305071136
I0403 15:37:52.824880 32537 layer_factory.hpp:77] Creating layer inception_5a/relu_pool_proj
I0403 15:37:52.824903 32537 net.cpp:91] Creating Layer inception_5a/relu_pool_proj
I0403 15:37:52.824923 32537 net.cpp:425] inception_5a/relu_pool_proj <- inception_5a/pool_proj
I0403 15:37:52.824944 32537 net.cpp:386] inception_5a/relu_pool_proj -> inception_5a/pool_proj (in-place)
I0403 15:37:52.825260 32537 net.cpp:141] Setting up inception_5a/relu_pool_proj
I0403 15:37:52.825331 32537 net.cpp:148] Top shape: 24 128 7 7 (150528)
I0403 15:37:52.825350 32537 net.cpp:156] Memory required for data: 1305673248
I0403 15:37:52.825369 32537 layer_factory.hpp:77] Creating layer inception_5a/output
I0403 15:37:52.825388 32537 net.cpp:91] Creating Layer inception_5a/output
I0403 15:37:52.825407 32537 net.cpp:425] inception_5a/output <- inception_5a/1x1
I0403 15:37:52.825425 32537 net.cpp:425] inception_5a/output <- inception_5a/3x3
I0403 15:37:52.825443 32537 net.cpp:425] inception_5a/output <- inception_5a/5x5
I0403 15:37:52.825460 32537 net.cpp:425] inception_5a/output <- inception_5a/pool_proj
I0403 15:37:52.825481 32537 net.cpp:399] inception_5a/output -> inception_5a/output
I0403 15:37:52.825538 32537 net.cpp:141] Setting up inception_5a/output
I0403 15:37:52.825563 32537 net.cpp:148] Top shape: 24 832 7 7 (978432)
I0403 15:37:52.825587 32537 net.cpp:156] Memory required for data: 1309586976
I0403 15:37:52.825620 32537 layer_factory.hpp:77] Creating layer inception_5a/output_inception_5a/output_0_split
I0403 15:37:52.825640 32537 net.cpp:91] Creating Layer inception_5a/output_inception_5a/output_0_split
I0403 15:37:52.825659 32537 net.cpp:425] inception_5a/output_inception_5a/output_0_split <- inception_5a/output
I0403 15:37:52.825680 32537 net.cpp:399] inception_5a/output_inception_5a/output_0_split -> inception_5a/output_inception_5a/output_0_split_0
I0403 15:37:52.825702 32537 net.cpp:399] inception_5a/output_inception_5a/output_0_split -> inception_5a/output_inception_5a/output_0_split_1
I0403 15:37:52.825726 32537 net.cpp:399] inception_5a/output_inception_5a/output_0_split -> inception_5a/output_inception_5a/output_0_split_2
I0403 15:37:52.825747 32537 net.cpp:399] inception_5a/output_inception_5a/output_0_split -> inception_5a/output_inception_5a/output_0_split_3
I0403 15:37:52.825866 32537 net.cpp:141] Setting up inception_5a/output_inception_5a/output_0_split
I0403 15:37:52.825906 32537 net.cpp:148] Top shape: 24 832 7 7 (978432)
I0403 15:37:52.825925 32537 net.cpp:148] Top shape: 24 832 7 7 (978432)
I0403 15:37:52.825947 32537 net.cpp:148] Top shape: 24 832 7 7 (978432)
I0403 15:37:52.825963 32537 net.cpp:148] Top shape: 24 832 7 7 (978432)
I0403 15:37:52.825978 32537 net.cpp:156] Memory required for data: 1325241888
I0403 15:37:52.825994 32537 layer_factory.hpp:77] Creating layer inception_5b/1x1
I0403 15:37:52.826016 32537 net.cpp:91] Creating Layer inception_5b/1x1
I0403 15:37:52.826036 32537 net.cpp:425] inception_5b/1x1 <- inception_5a/output_inception_5a/output_0_split_0
I0403 15:37:52.826056 32537 net.cpp:399] inception_5b/1x1 -> inception_5b/1x1
I0403 15:37:52.830087 32537 net.cpp:141] Setting up inception_5b/1x1
I0403 15:37:52.830140 32537 net.cpp:148] Top shape: 24 384 7 7 (451584)
I0403 15:37:52.830162 32537 net.cpp:156] Memory required for data: 1327048224
I0403 15:37:52.830183 32537 layer_factory.hpp:77] Creating layer inception_5b/relu_1x1
I0403 15:37:52.830209 32537 net.cpp:91] Creating Layer inception_5b/relu_1x1
I0403 15:37:52.830229 32537 net.cpp:425] inception_5b/relu_1x1 <- inception_5b/1x1
I0403 15:37:52.830253 32537 net.cpp:386] inception_5b/relu_1x1 -> inception_5b/1x1 (in-place)
I0403 15:37:52.830582 32537 net.cpp:141] Setting up inception_5b/relu_1x1
I0403 15:37:52.830613 32537 net.cpp:148] Top shape: 24 384 7 7 (451584)
I0403 15:37:52.830629 32537 net.cpp:156] Memory required for data: 1328854560
I0403 15:37:52.830646 32537 layer_factory.hpp:77] Creating layer inception_5b/3x3_reduce
I0403 15:37:52.830670 32537 net.cpp:91] Creating Layer inception_5b/3x3_reduce
I0403 15:37:52.830689 32537 net.cpp:425] inception_5b/3x3_reduce <- inception_5a/output_inception_5a/output_0_split_1
I0403 15:37:52.830714 32537 net.cpp:399] inception_5b/3x3_reduce -> inception_5b/3x3_reduce
I0403 15:37:52.833545 32537 net.cpp:141] Setting up inception_5b/3x3_reduce
I0403 15:37:52.833578 32537 net.cpp:148] Top shape: 24 192 7 7 (225792)
I0403 15:37:52.833596 32537 net.cpp:156] Memory required for data: 1329757728
I0403 15:37:52.833616 32537 layer_factory.hpp:77] Creating layer inception_5b/relu_3x3_reduce
I0403 15:37:52.833639 32537 net.cpp:91] Creating Layer inception_5b/relu_3x3_reduce
I0403 15:37:52.833658 32537 net.cpp:425] inception_5b/relu_3x3_reduce <- inception_5b/3x3_reduce
I0403 15:37:52.833678 32537 net.cpp:386] inception_5b/relu_3x3_reduce -> inception_5b/3x3_reduce (in-place)
I0403 15:37:52.833878 32537 net.cpp:141] Setting up inception_5b/relu_3x3_reduce
I0403 15:37:52.833909 32537 net.cpp:148] Top shape: 24 192 7 7 (225792)
I0403 15:37:52.833926 32537 net.cpp:156] Memory required for data: 1330660896
I0403 15:37:52.833943 32537 layer_factory.hpp:77] Creating layer inception_5b/3x3
I0403 15:37:52.833964 32537 net.cpp:91] Creating Layer inception_5b/3x3
I0403 15:37:52.833982 32537 net.cpp:425] inception_5b/3x3 <- inception_5b/3x3_reduce
I0403 15:37:52.834005 32537 net.cpp:399] inception_5b/3x3 -> inception_5b/3x3
I0403 15:37:52.841220 32537 net.cpp:141] Setting up inception_5b/3x3
I0403 15:37:52.841251 32537 net.cpp:148] Top shape: 24 384 7 7 (451584)
I0403 15:37:52.841267 32537 net.cpp:156] Memory required for data: 1332467232
I0403 15:37:52.841290 32537 layer_factory.hpp:77] Creating layer inception_5b/relu_3x3
I0403 15:37:52.841315 32537 net.cpp:91] Creating Layer inception_5b/relu_3x3
I0403 15:37:52.841333 32537 net.cpp:425] inception_5b/relu_3x3 <- inception_5b/3x3
I0403 15:37:52.841352 32537 net.cpp:386] inception_5b/relu_3x3 -> inception_5b/3x3 (in-place)
I0403 15:37:52.841689 32537 net.cpp:141] Setting up inception_5b/relu_3x3
I0403 15:37:52.841720 32537 net.cpp:148] Top shape: 24 384 7 7 (451584)
I0403 15:37:52.841744 32537 net.cpp:156] Memory required for data: 1334273568
I0403 15:37:52.841765 32537 layer_factory.hpp:77] Creating layer inception_5b/5x5_reduce
I0403 15:37:52.841830 32537 net.cpp:91] Creating Layer inception_5b/5x5_reduce
I0403 15:37:52.841851 32537 net.cpp:425] inception_5b/5x5_reduce <- inception_5a/output_inception_5a/output_0_split_2
I0403 15:37:52.841876 32537 net.cpp:399] inception_5b/5x5_reduce -> inception_5b/5x5_reduce
I0403 15:37:52.843214 32537 net.cpp:141] Setting up inception_5b/5x5_reduce
I0403 15:37:52.843246 32537 net.cpp:148] Top shape: 24 48 7 7 (56448)
I0403 15:37:52.843273 32537 net.cpp:156] Memory required for data: 1334499360
I0403 15:37:52.843302 32537 layer_factory.hpp:77] Creating layer inception_5b/relu_5x5_reduce
I0403 15:37:52.843333 32537 net.cpp:91] Creating Layer inception_5b/relu_5x5_reduce
I0403 15:37:52.843364 32537 net.cpp:425] inception_5b/relu_5x5_reduce <- inception_5b/5x5_reduce
I0403 15:37:52.843392 32537 net.cpp:386] inception_5b/relu_5x5_reduce -> inception_5b/5x5_reduce (in-place)
I0403 15:37:52.843798 32537 net.cpp:141] Setting up inception_5b/relu_5x5_reduce
I0403 15:37:52.843827 32537 net.cpp:148] Top shape: 24 48 7 7 (56448)
I0403 15:37:52.843845 32537 net.cpp:156] Memory required for data: 1334725152
I0403 15:37:52.843863 32537 layer_factory.hpp:77] Creating layer inception_5b/5x5
I0403 15:37:52.843884 32537 net.cpp:91] Creating Layer inception_5b/5x5
I0403 15:37:52.843905 32537 net.cpp:425] inception_5b/5x5 <- inception_5b/5x5_reduce
I0403 15:37:52.843931 32537 net.cpp:399] inception_5b/5x5 -> inception_5b/5x5
I0403 15:37:52.846180 32537 net.cpp:141] Setting up inception_5b/5x5
I0403 15:37:52.846211 32537 net.cpp:148] Top shape: 24 128 7 7 (150528)
I0403 15:37:52.846230 32537 net.cpp:156] Memory required for data: 1335327264
I0403 15:37:52.846249 32537 layer_factory.hpp:77] Creating layer inception_5b/relu_5x5
I0403 15:37:52.846273 32537 net.cpp:91] Creating Layer inception_5b/relu_5x5
I0403 15:37:52.846303 32537 net.cpp:425] inception_5b/relu_5x5 <- inception_5b/5x5
I0403 15:37:52.846330 32537 net.cpp:386] inception_5b/relu_5x5 -> inception_5b/5x5 (in-place)
I0403 15:37:52.846541 32537 net.cpp:141] Setting up inception_5b/relu_5x5
I0403 15:37:52.846570 32537 net.cpp:148] Top shape: 24 128 7 7 (150528)
I0403 15:37:52.846586 32537 net.cpp:156] Memory required for data: 1335929376
I0403 15:37:52.846603 32537 layer_factory.hpp:77] Creating layer inception_5b/pool
I0403 15:37:52.846626 32537 net.cpp:91] Creating Layer inception_5b/pool
I0403 15:37:52.846642 32537 net.cpp:425] inception_5b/pool <- inception_5a/output_inception_5a/output_0_split_3
I0403 15:37:52.846664 32537 net.cpp:399] inception_5b/pool -> inception_5b/pool
I0403 15:37:52.846742 32537 net.cpp:141] Setting up inception_5b/pool
I0403 15:37:52.846781 32537 net.cpp:148] Top shape: 24 832 7 7 (978432)
I0403 15:37:52.846796 32537 net.cpp:156] Memory required for data: 1339843104
I0403 15:37:52.846818 32537 layer_factory.hpp:77] Creating layer inception_5b/pool_proj
I0403 15:37:52.846859 32537 net.cpp:91] Creating Layer inception_5b/pool_proj
I0403 15:37:52.846879 32537 net.cpp:425] inception_5b/pool_proj <- inception_5b/pool
I0403 15:37:52.846899 32537 net.cpp:399] inception_5b/pool_proj -> inception_5b/pool_proj
I0403 15:37:52.849467 32537 net.cpp:141] Setting up inception_5b/pool_proj
I0403 15:37:52.849503 32537 net.cpp:148] Top shape: 24 128 7 7 (150528)
I0403 15:37:52.849525 32537 net.cpp:156] Memory required for data: 1340445216
I0403 15:37:52.849556 32537 layer_factory.hpp:77] Creating layer inception_5b/relu_pool_proj
I0403 15:37:52.849578 32537 net.cpp:91] Creating Layer inception_5b/relu_pool_proj
I0403 15:37:52.849596 32537 net.cpp:425] inception_5b/relu_pool_proj <- inception_5b/pool_proj
I0403 15:37:52.849628 32537 net.cpp:386] inception_5b/relu_pool_proj -> inception_5b/pool_proj (in-place)
I0403 15:37:52.849943 32537 net.cpp:141] Setting up inception_5b/relu_pool_proj
I0403 15:37:52.849978 32537 net.cpp:148] Top shape: 24 128 7 7 (150528)
I0403 15:37:52.850006 32537 net.cpp:156] Memory required for data: 1341047328
I0403 15:37:52.850045 32537 layer_factory.hpp:77] Creating layer inception_5b/output
I0403 15:37:52.850076 32537 net.cpp:91] Creating Layer inception_5b/output
I0403 15:37:52.850121 32537 net.cpp:425] inception_5b/output <- inception_5b/1x1
I0403 15:37:52.850139 32537 net.cpp:425] inception_5b/output <- inception_5b/3x3
I0403 15:37:52.850169 32537 net.cpp:425] inception_5b/output <- inception_5b/5x5
I0403 15:37:52.850186 32537 net.cpp:425] inception_5b/output <- inception_5b/pool_proj
I0403 15:37:52.850204 32537 net.cpp:399] inception_5b/output -> inception_5b/output
I0403 15:37:52.850272 32537 net.cpp:141] Setting up inception_5b/output
I0403 15:37:52.850348 32537 net.cpp:148] Top shape: 24 1024 7 7 (1204224)
I0403 15:37:52.850373 32537 net.cpp:156] Memory required for data: 1345864224
I0403 15:37:52.850399 32537 layer_factory.hpp:77] Creating layer pool5/7x7_s1
I0403 15:37:52.850425 32537 net.cpp:91] Creating Layer pool5/7x7_s1
I0403 15:37:52.850442 32537 net.cpp:425] pool5/7x7_s1 <- inception_5b/output
I0403 15:37:52.850464 32537 net.cpp:399] pool5/7x7_s1 -> pool5/7x7_s1
I0403 15:37:52.850698 32537 net.cpp:141] Setting up pool5/7x7_s1
I0403 15:37:52.850726 32537 net.cpp:148] Top shape: 24 1024 1 1 (24576)
I0403 15:37:52.850749 32537 net.cpp:156] Memory required for data: 1345962528
I0403 15:37:52.850766 32537 layer_factory.hpp:77] Creating layer pool5/drop_7x7_s1
I0403 15:37:52.850797 32537 net.cpp:91] Creating Layer pool5/drop_7x7_s1
I0403 15:37:52.850814 32537 net.cpp:425] pool5/drop_7x7_s1 <- pool5/7x7_s1
I0403 15:37:52.850846 32537 net.cpp:386] pool5/drop_7x7_s1 -> pool5/7x7_s1 (in-place)
I0403 15:37:52.850903 32537 net.cpp:141] Setting up pool5/drop_7x7_s1
I0403 15:37:52.850931 32537 net.cpp:148] Top shape: 24 1024 1 1 (24576)
I0403 15:37:52.850950 32537 net.cpp:156] Memory required for data: 1346060832
I0403 15:37:52.850965 32537 layer_factory.hpp:77] Creating layer loss3/classifier_plantvillage
I0403 15:37:52.850991 32537 net.cpp:91] Creating Layer loss3/classifier_plantvillage
I0403 15:37:52.851011 32537 net.cpp:425] loss3/classifier_plantvillage <- pool5/7x7_s1
I0403 15:37:52.851030 32537 net.cpp:399] loss3/classifier_plantvillage -> loss3/classifier_plantvillage
I0403 15:37:52.851510 32537 net.cpp:141] Setting up loss3/classifier_plantvillage
I0403 15:37:52.877166 32537 net.cpp:148] Top shape: 24 38 (912)
I0403 15:37:52.877213 32537 net.cpp:156] Memory required for data: 1346064480
I0403 15:37:52.877236 32537 layer_factory.hpp:77] Creating layer loss3/classifier_plantvillage_loss3/classifier_plantvillage_0_split
I0403 15:37:52.877259 32537 net.cpp:91] Creating Layer loss3/classifier_plantvillage_loss3/classifier_plantvillage_0_split
I0403 15:37:52.877279 32537 net.cpp:425] loss3/classifier_plantvillage_loss3/classifier_plantvillage_0_split <- loss3/classifier_plantvillage
I0403 15:37:52.877326 32537 net.cpp:399] loss3/classifier_plantvillage_loss3/classifier_plantvillage_0_split -> loss3/classifier_plantvillage_loss3/classifier_plantvillage_0_split_0
I0403 15:37:52.877354 32537 net.cpp:399] loss3/classifier_plantvillage_loss3/classifier_plantvillage_0_split -> loss3/classifier_plantvillage_loss3/classifier_plantvillage_0_split_1
I0403 15:37:52.877377 32537 net.cpp:399] loss3/classifier_plantvillage_loss3/classifier_plantvillage_0_split -> loss3/classifier_plantvillage_loss3/classifier_plantvillage_0_split_2
I0403 15:37:52.877398 32537 net.cpp:399] loss3/classifier_plantvillage_loss3/classifier_plantvillage_0_split -> loss3/classifier_plantvillage_loss3/classifier_plantvillage_0_split_3
I0403 15:37:52.877521 32537 net.cpp:141] Setting up loss3/classifier_plantvillage_loss3/classifier_plantvillage_0_split
I0403 15:37:52.877548 32537 net.cpp:148] Top shape: 24 38 (912)
I0403 15:37:52.877567 32537 net.cpp:148] Top shape: 24 38 (912)
I0403 15:37:52.877584 32537 net.cpp:148] Top shape: 24 38 (912)
I0403 15:37:52.877615 32537 net.cpp:148] Top shape: 24 38 (912)
I0403 15:37:52.877630 32537 net.cpp:156] Memory required for data: 1346079072
I0403 15:37:52.877645 32537 layer_factory.hpp:77] Creating layer loss1/loss
I0403 15:37:52.877681 32537 net.cpp:91] Creating Layer loss1/loss
I0403 15:37:52.877699 32537 net.cpp:425] loss1/loss <- loss1/classifier_plantvillage_loss1/classifier_plantvillage_0_split_0
I0403 15:37:52.877737 32537 net.cpp:425] loss1/loss <- label_data_1_split_0
…
