…
I0403 15:36:26.747571 32387 net.cpp:313] The NetState phase (1) differed from the phase (0) specified by a rule in layer data
I0403 15:36:26.748755 32387 net.cpp:49] Initializing net from parameters: 
state {
  phase: TEST
}
layer {
  name: "data"
  type: "Data"
  top: "data"
  top: "label"
  include {
    phase: TEST
  }
  transform_param {
    mirror: false
    crop_size: 224
    mean_file: "/home/mohanty/data/final_dataset/lmdb/color-60-40/mean.binaryproto"
  }
  data_param {
    source: "/home/mohanty/data/final_dataset/lmdb/color-60-40/test_db"
    batch_size: 24
    backend: LMDB
  }
}
layer {
  name: "conv1/7x7_s2"
  type: "Convolution"
  bottom: "data"
  top: "conv1/7x7_s2"
  param {
    lr_mult: 1
    decay_mult: 1
  }
  param {
    lr_mult: 2
    decay_mult: 0
  }
  convolution_param {
    num_output: 64
    pad: 3
    kernel_size: 7
    stride: 2
    weight_filler {
      type: "xavier"
      std: 0.1
    }
    bias_filler {
      type: "constant"
      value: 0.2
    }
  }
}
layer {
  name: "conv1/relu_7x7"
  type: "ReLU"
  bottom: "conv1/7x7_s2"
  top: "conv1/7x7_s2"
}
layer {
  name: "pool1/3x3_s2"
  type: "Pooling"
  bottom: "conv1/7x7_s2"
  top: "pool1/3x3_s2"
  pooling_param {
    pool: MAX
    kernel_size: 3
    stride: 2
  }
}
layer {
  name: "pool1/norm1"
  type: "LRN"
  bottom: "pool1/3x3_s2"
  top: "pool1/norm1"
  lrn_param {
    local_size: 5
    alpha: 0.0001
    beta: 0.75
  }
}
layer {
  name: "conv2/3x3_reduce"
  type: "Convolution"
  bottom: "pool1/norm1"
  top: "conv2/3x3_reduce"
  param {
    lr_mult: 1
    decay_mult: 1
  }
  param {
    lr_mult: 2
    decay_mult: 0
  }
  convolution_param {
    num_output: 64
    kernel_size: 1
    weight_filler {
      type: "xavier"
      std: 0.1
    }
    bias_filler {
      type: "constant"
      value: 0.2
    }
  }
}
layer {
  name: "conv2/relu_3x3_reduce"
  type: "ReLU"
  bottom: "conv2/3x3_reduce"
  top: "conv2/3x3_reduce"
}
layer {
  name: "conv2/3x3"
  type: "Convolution"
  bottom: "conv2/3x3_reduce"
  top: "conv2/3x3"
  param {
    lr_mult: 1
    decay_mult: 1
  }
  param {
    lr_mult: 2
    decay_mult: 0
  }
  convolution_param {
    num_output: 192
    pad: 1
    kernel_size: 3
    weight_filler {
      type: "xavier"
      std: 0.03
    }
    bias_filler {
      type: "constant"
      value: 0.2
    }
  }
}
layer {
  name: "conv2/relu_3x3"
  type: "ReLU"
  bottom: "conv2/3x3"
  top: "conv2/3x3"
}
layer {
  name: "conv2/norm2"
  type: "LRN"
  bottom: "conv2/3x3"
  top: "conv2/norm2"
  lrn_param {
    local_size: 5
    alpha: 0.0001
    beta: 0.75
  }
}
layer {
  name: "pool2/3x3_s2"
  type: "Pooling"
  bottom: "conv2/norm2"
  top: "pool2/3x3_s2"
  pooling_param {
    pool: MAX
    kernel_size: 3
    stride: 2
  }
}
layer {
  name: "inception_3a/1x1"
  type: "Convolution"
  bottom: "pool2/3x3_s2"
  top: "inception_3a/1x1"
  param {
    lr_mult: 1
    decay_mult: 1
  }
  param {
    lr_mult: 2
    decay_mult: 0
  }
  convolution_param {
    num_output: 64
    kernel_size: 1
    weight_filler {
      type: "xavier"
      std: 0.03
    }
    bias_filler {
      type: "constant"
      value: 0.2
    }
  }
}
layer {
  name: "inception_3a/relu_1x1"
  type: "ReLU"
  bottom: "inception_3a/1x1"
  top: "inception_3a/1x1"
}
layer {
  name: "inception_3a/3x3_reduce"
  type: "Convolution"
  bottom: "pool2/3x3_s2"
  top: "inception_3a/3x3_reduce"
  param {
    lr_mult: 1
    decay_mult: 1
  }
  param {
    lr_mult: 2
    decay_mult: 0
  }
  convolution_param {
    num_output: 96
    kernel_size: 1
    weight_filler {
      type: "xavier"
      std: 0.09
    }
    bias_filler {
      type: "constant"
      value: 0.2
    }
  }
}
layer {
  name: "inception_3a/relu_3x3_reduce"
  type: "ReLU"
  bottom: "inception_3a/3x3_reduce"
  top: "inception_3a/3x3_reduce"
}
layer {
  name: "inception_3a/3x3"
  type: "Convolution"
  bottom: "inception_3a/3x3_reduce"
  top: "inception_3a/3x3"
  param {
    lr_mult: 1
    decay_mult: 1
  }
  param {
    lr_mult: 2
    decay_mult: 0
  }
  convolution_param {
    num_output: 128
    pad: 1
    kernel_size: 3
    weight_filler {
      type: "xavier"
      std: 0.03
    }
    bias_filler {
      type: "constant"
      value: 0.2
    }
  }
}
layer {
  name: "inception_3a/relu_3x3"
  type: "ReLU"
  bottom: "inception_3a/3x3"
  top: "inception_3a/3x3"
}
layer {
  name: "inception_3a/5x5_reduce"
  type: "Convolution"
  bottom: "pool2/3x3_s2"
  top: "inception_3a/5x5_reduce"
  param {
    lr_mult: 1
    decay_mult: 1
  }
  param {
    lr_mult: 2
    decay_mult: 0
  }
  convolution_param {
    num_output: 16
    kernel_size: 1
    weight_filler {
      type: "xavier"
      std: 0.2
    }
    bias_filler {
      type: "constant"
      value: 0.2
    }
  }
}
layer {
  name: "inception_3a/relu_5x5_reduce"
  type: "ReLU"
  bottom: "inception_3a/5x5_reduce"
  top: "inception_3a/5x5_reduce"
}
layer {
  name: "inception_3a/5x5"
  type: "Convolution"
  bottom: "inception_3a/5x5_reduce"
  top: "inception_3a/5x5"
  param {
    lr_mult: 1
    decay_mult: 1
  }
  param {
    lr_mult: 2
    decay_mult: 0
  }
  convolution_param {
    num_output: 32
    pad: 2
    kernel_size: 5
    weight_filler {
      type: "xavier"
      std: 0.03
    }
    bias_filler {
      type: "constant"
      value: 0.2
    }
  }
}
layer {
  name: "inception_3a/relu_5x5"
  type: "ReLU"
  bottom: "inception_3a/5x5"
  top: "inception_3a/5x5"
}
layer {
  name: "inception_3a/pool"
  type: "Pooling"
  bottom: "pool2/3x3_s2"
  top: "inception_3a/pool"
  pooling_param {
    pool: MAX
    kernel_size: 3
    stride: 1
    pad: 1
  }
}
layer {
  name: "inception_3a/pool_proj"
  type: "Convolution"
  bottom: "inception_3a/pool"
  top: "inception_3a/pool_proj"
  param {
    lr_mult: 1
    decay_mult: 1
  }
  param {
    lr_mult: 2
    decay_mult: 0
  }
  convolution_param {
    num_output: 32
    kernel_size: 1
    weight_filler {
      type: "xavier"
      std: 0.1
    }
    bias_filler {
      type: "constant"
      value: 0.2
    }
  }
}
layer {
  name: "inception_3a/relu_pool_proj"
  type: "ReLU"
  bottom: "inception_3a/pool_proj"
  top: "inception_3a/pool_proj"
}
layer {
  name: "inception_3a/output"
  type: "Concat"
  bottom: "inception_3a/1x1"
  bottom: "inception_3a/3x3"
  bottom: "inception_3a/5x5"
  bottom: "inception_3a/pool_proj"
  top: "inception_3a/output"
}
layer {
  name: "inception_3b/1x1"
  type: "Convolution"
  bottom: "inception_3a/output"
  top: "inception_3b/1x1"
  param {
    lr_mult: 1
    decay_mult: 1
  }
  param {
    lr_mult: 2
    decay_mult: 0
  }
  convolution_param {
    num_output: 128
    kernel_size: 1
    weight_filler {
      type: "xavier"
      std: 0.03
    }
    bias_filler {
      type: "constant"
      value: 0.2
    }
  }
}
layer {
  name: "inception_3b/relu_1x1"
  type: "ReLU"
  bottom: "inception_3b/1x1"
  top: "inception_3b/1x1"
}
layer {
  name: "inception_3b/3x3_reduce"
  type: "Convolution"
  bottom: "inception_3a/output"
  top: "inception_3b/3x3_reduce"
  param {
    lr_mult: 1
    decay_mult: 1
  }
  param {
    lr_mult: 2
    decay_mult: 0
  }
  convolution_param {
    num_output: 128
    kernel_size: 1
    weight_filler {
      type: "xavier"
      std: 0.09
    }
    bias_filler {
      type: "constant"
      value: 0.2
    }
  }
}
layer {
  name: "inception_3b/relu_3x3_reduce"
  type: "ReLU"
  bottom: "inception_3b/3x3_reduce"
  top: "inception_3b/3x3_reduce"
}
layer {
  name: "inception_3b/3x3"
  type: "Convolution"
  bottom: "inception_3b/3x3_reduce"
  top: "inception_3b/3x3"
  param {
    lr_mult: 1
    decay_mult: 1
  }
  param {
    lr_mult: 2
    decay_mult: 0
  }
  convolution_param {
    num_output: 192
    pad: 1
    kernel_size: 3
    weight_filler {
      type: "xavier"
      std: 0.03
    }
    bias_filler {
      type: "constant"
      value: 0.2
    }
  }
}
layer {
  name: "inception_3b/relu_3x3"
  type: "ReLU"
  bottom: "inception_3b/3x3"
  top: "inception_3b/3x3"
}
layer {
  name: "inception_3b/5x5_reduce"
  type: "Convolution"
  bottom: "inception_3a/output"
  top: "inception_3b/5x5_reduce"
  param {
    lr_mult: 1
    decay_mult: 1
  }
  param {
    lr_mult: 2
    decay_mult: 0
  }
  convolution_param {
    num_output: 32
    kernel_size: 1
    weight_filler {
      type: "xavier"
      std: 0.2
    }
    bias_filler {
      type: "constant"
      value: 0.2
    }
  }
}
layer {
  name: "inception_3b/relu_5x5_reduce"
  type: "ReLU"
  bottom: "inception_3b/5x5_reduce"
  top: "inception_3b/5x5_reduce"
}
layer {
  name: "inception_3b/5x5"
  type: "Convolution"
  bottom: "inception_3b/5x5_reduce"
  top: "inception_3b/5x5"
  param {
    lr_mult: 1
    decay_mult: 1
  }
  param {
    lr_mult: 2
    decay_mult: 0
  }
  convolution_param {
    num_output: 96
    pad: 2
    kernel_size: 5
    weight_filler {
      type: "xavier"
      std: 0.03
    }
    bias_filler {
      type: "constant"
      value: 0.2
    }
  }
}
layer {
  name: "inception_3b/relu_5x5"
  type: "ReLU"
  bottom: "inception_3b/5x5"
  top: "inception_3b/5x5"
}
layer {
  name: "inception_3b/pool"
  type: "Pooling"
  bottom: "inception_3a/output"
  top: "inception_3b/pool"
  pooling_param {
    pool: MAX
    kernel_size: 3
    stride: 1
    pad: 1
  }
}
layer {
  name: "inception_3b/pool_proj"
  type: "Convolution"
  bottom: "inception_3b/pool"
  top: "inception_3b/pool_proj"
  param {
    lr_mult: 1
    decay_mult: 1
  }
  param {
    lr_mult: 2
    decay_mult: 0
  }
  convolution_param {
    num_output: 64
    kernel_size: 1
    weight_filler {
      type: "xavier"
      std: 0.1
    }
    bias_filler {
      type: "constant"
      value: 0.2
    }
  }
}
layer {
  name: "inception_3b/relu_pool_proj"
  type: "ReLU"
  bottom: "inception_3b/pool_proj"
  top: "inception_3b/pool_proj"
}
layer {
  name: "inception_3b/output"
  type: "Concat"
  bottom: "inception_3b/1x1"
  bottom: "inception_3b/3x3"
  bottom: "inception_3b/5x5"
  bottom: "inception_3b/pool_proj"
  top: "inception_3b/output"
}
layer {
  name: "pool3/3x3_s2"
  type: "Pooling"
  bottom: "inception_3b/output"
  top: "pool3/3x3_s2"
  pooling_param {
    pool: MAX
    kernel_size: 3
    stride: 2
  }
}
layer {
  name: "inception_4a/1x1"
  type: "Convolution"
  bottom: "pool3/3x3_s2"
  top: "inception_4a/1x1"
  param {
    lr_mult: 1
    decay_mult: 1
  }
  param {
    lr_mult: 2
    decay_mult: 0
  }
  convolution_param {
    num_output: 192
    kernel_size: 1
    weight_filler {
      type: "xavier"
      std: 0.03
    }
    bias_filler {
      type: "constant"
      value: 0.2
    }
  }
}
layer {
  name: "inception_4a/relu_1x1"
  type: "ReLU"
  bottom: "inception_4a/1x1"
  top: "inception_4a/1x1"
}
layer {
  name: "inception_4a/3x3_reduce"
  type: "Convolution"
  bottom: "pool3/3x3_s2"
  top: "inception_4a/3x3_reduce"
  param {
    lr_mult: 1
    decay_mult: 1
  }
  param {
    lr_mult: 2
    decay_mult: 0
  }
  convolution_param {
    num_output: 96
    kernel_size: 1
    weight_filler {
      type: "xavier"
      std: 0.09
    }
    bias_filler {
      type: "constant"
      value: 0.2
    }
  }
}
layer {
  name: "inception_4a/relu_3x3_reduce"
  type: "ReLU"
  bottom: "inception_4a/3x3_reduce"
  top: "inception_4a/3x3_reduce"
}
layer {
  name: "inception_4a/3x3"
  type: "Convolution"
  bottom: "inception_4a/3x3_reduce"
  top: "inception_4a/3x3"
  param {
    lr_mult: 1
    decay_mult: 1
  }
  param {
    lr_mult: 2
    decay_mult: 0
  }
  convolution_param {
    num_output: 208
    pad: 1
    kernel_size: 3
    weight_filler {
      type: "xavier"
      std: 0.03
    }
    bias_filler {
      type: "constant"
      value: 0.2
    }
  }
}
layer {
  name: "inception_4a/relu_3x3"
  type: "ReLU"
  bottom: "inception_4a/3x3"
  top: "inception_4a/3x3"
}
layer {
  name: "inception_4a/5x5_reduce"
  type: "Convolution"
  bottom: "pool3/3x3_s2"
  top: "inception_4a/5x5_reduce"
  param {
    lr_mult: 1
    decay_mult: 1
  }
  param {
    lr_mult: 2
    decay_mult: 0
  }
  convolution_param {
    num_output: 16
    kernel_size: 1
    weight_filler {
      type: "xavier"
      std: 0.2
    }
    bias_filler {
      type: "constant"
      value: 0.2
    }
  }
}
layer {
  name: "inception_4a/relu_5x5_reduce"
  type: "ReLU"
  bottom: "inception_4a/5x5_reduce"
  top: "inception_4a/5x5_reduce"
}
layer {
  name: "inception_4a/5x5"
  type: "Convolution"
  bottom: "inception_4a/5x5_reduce"
  top: "inception_4a/5x5"
  param {
    lr_mult: 1
    decay_mult: 1
  }
  param {
    lr_mult: 2
    decay_mult: 0
  }
  convolution_param {
    num_output: 48
    pad: 2
    kernel_size: 5
    weight_filler {
      type: "xavier"
      std: 0.03
    }
    bias_filler {
      type: "constant"
      value: 0.2
    }
  }
}
layer {
  name: "inception_4a/relu_5x5"
  type: "ReLU"
  bottom: "inception_4a/5x5"
  top: "inception_4a/5x5"
}
layer {
  name: "inception_4a/pool"
  type: "Pooling"
  bottom: "pool3/3x3_s2"
  top: "inception_4a/pool"
  pooling_param {
    pool: MAX
    kernel_size: 3
    stride: 1
    pad: 1
  }
}
layer {
  name: "inception_4a/pool_proj"
  type: "Convolution"
  bottom: "inception_4a/pool"
  top: "inception_4a/pool_proj"
  param {
    lr_mult: 1
    decay_mult: 1
  }
  param {
    lr_mult: 2
    decay_mult: 0
  }
  convolution_param {
    num_output: 64
    kernel_size: 1
    weight_filler {
      type: "xavier"
      std: 0.1
    }
    bias_filler {
      type: "constant"
      value: 0.2
    }
  }
}
layer {
  name: "inception_4a/relu_pool_proj"
  type: "ReLU"
  bottom: "inception_4a/pool_proj"
  top: "inception_4a/pool_proj"
}
layer {
  name: "inception_4a/output"
  type: "Concat"
  bottom: "inception_4a/1x1"
  bottom: "inception_4a/3x3"
  bottom: "inception_4a/5x5"
  bottom: "inception_4a/pool_proj"
  top: "inception_4a/output"
}
layer {
  name: "loss1/ave_pool"
  type: "Pooling"
  bottom: "inception_4a/output"
  top: "loss1/ave_pool"
  pooling_param {
    pool: AVE
    kernel_size: 5
    stride: 3
  }
}
layer {
  name: "loss1/conv"
  type: "Convolution"
  bottom: "loss1/ave_pool"
  top: "loss1/conv"
  param {
    lr_mult: 1
    decay_mult: 1
  }
  param {
    lr_mult: 2
    decay_mult: 0
  }
  convolution_param {
    num_output: 128
    kernel_size: 1
    weight_filler {
      type: "xavier"
      std: 0.08
    }
    bias_filler {
      type: "constant"
      value: 0.2
    }
  }
}
layer {
  name: "loss1/relu_conv"
  type: "ReLU"
  bottom: "loss1/conv"
  top: "loss1/conv"
}
layer {
  name: "loss1/fc"
  type: "InnerProduct"
  bottom: "loss1/conv"
  top: "loss1/fc"
  param {
    lr_mult: 1
    decay_mult: 1
  }
  param {
    lr_mult: 2
    decay_mult: 0
  }
  inner_product_param {
    num_output: 1024
    weight_filler {
      type: "xavier"
      std: 0.02
    }
    bias_filler {
      type: "constant"
      value: 0.2
    }
  }
}
layer {
  name: "loss1/relu_fc"
  type: "ReLU"
  bottom: "loss1/fc"
  top: "loss1/fc"
}
layer {
  name: "loss1/drop_fc"
  type: "Dropout"
  bottom: "loss1/fc"
  top: "loss1/fc"
  dropout_param {
    dropout_ratio: 0.7
  }
}
layer {
  name: "loss1/classifier_plantvillage"
  type: "InnerProduct"
  bottom: "loss1/fc"
  top: "loss1/classifier_plantvillage"
  param {
    lr_mult: 1
    decay_mult: 1
  }
  param {
    lr_mult: 2
    decay_mult: 0
  }
  inner_product_param {
    num_output: 38
    weight_filler {
      type: "xavier"
      std: 0.0009765625
    }
    bias_filler {
      type: "constant"
      value: 0
    }
  }
}
layer {
  name: "inception_4b/1x1"
  type: "Convolution"
  bottom: "inception_4a/output"
  top: "inception_4b/1x1"
  param {
    lr_mult: 1
    decay_mult: 1
  }
  param {
    lr_mult: 2
    decay_mult: 0
  }
  convolution_param {
    num_output: 160
    kernel_size: 1
    weight_filler {
      type: "xavier"
      std: 0.03
    }
    bias_filler {
      type: "constant"
      value: 0.2
    }
  }
}
layer {
  name: "inception_4b/relu_1x1"
  type: "ReLU"
  bottom: "inception_4b/1x1"
  top: "inception_4b/1x1"
}
layer {
  name: "inception_4b/3x3_reduce"
  type: "Convolution"
  bottom: "inception_4a/output"
  top: "inception_4b/3x3_reduce"
  param {
    lr_mult: 1
    decay_mult: 1
  }
  param {
    lr_mult: 2
    decay_mult: 0
  }
  convolution_param {
    num_output: 112
    kernel_size: 1
    weight_filler {
      type: "xavier"
      std: 0.09
    }
    bias_filler {
      type: "constant"
      value: 0.2
    }
  }
}
layer {
  name: "inception_4b/relu_3x3_reduce"
  type: "ReLU"
  bottom: "inception_4b/3x3_reduce"
  top: "inception_4b/3x3_reduce"
}
layer {
  name: "inception_4b/3x3"
  type: "Convolution"
  bottom: "inception_4b/3x3_reduce"
  top: "inception_4b/3x3"
  param {
    lr_mult: 1
    decay_mult: 1
  }
  param {
    lr_mult: 2
    decay_mult: 0
  }
  convolution_param {
    num_output: 224
    pad: 1
    kernel_size: 3
    weight_filler {
      type: "xavier"
      std: 0.03
    }
    bias_filler {
      type: "constant"
      value: 0.2
    }
  }
}
layer {
  name: "inception_4b/relu_3x3"
  type: "ReLU"
  bottom: "inception_4b/3x3"
  top: "inception_4b/3x3"
}
layer {
  name: "inception_4b/5x5_reduce"
  type: "Convolution"
  bottom: "inception_4a/output"
  top: "inception_4b/5x5_reduce"
  param {
    lr_mult: 1
    decay_mult: 1
  }
  param {
    lr_mult: 2
    decay_mult: 0
  }
  convolution_param {
    num_output: 24
    kernel_size: 1
    weight_filler {
      type: "xavier"
      std: 0.2
    }
    bias_filler {
      type: "constant"
      value: 0.2
    }
  }
}
layer {
  name: "inception_4b/relu_5x5_reduce"
  type: "ReLU"
  bottom: "inception_4b/5x5_reduce"
  top: "inception_4b/5x5_reduce"
}
layer {
  name: "inception_4b/5x5"
  type: "Convolution"
  bottom: "inception_4b/5x5_reduce"
  top: "inception_4b/5x5"
  param {
    lr_mult: 1
    decay_mult: 1
  }
  param {
    lr_mult: 2
    decay_mult: 0
  }
  convolution_param {
    num_output: 64
    pad: 2
    kernel_size: 5
    weight_filler {
      type: "xavier"
      std: 0.03
    }
    bias_filler {
      type: "constant"
      value: 0.2
    }
  }
}
layer {
  name: "inception_4b/relu_5x5"
  type: "ReLU"
  bottom: "inception_4b/5x5"
  top: "inception_4b/5x5"
}
layer {
  name: "inception_4b/pool"
  type: "Pooling"
  bottom: "inception_4a/output"
  top: "inception_4b/pool"
  pooling_param {
    pool: MAX
    kernel_size: 3
    stride: 1
    pad: 1
  }
}
layer {
  name: "inception_4b/pool_proj"
  type: "Convolution"
  bottom: "inception_4b/pool"
  top: "inception_4b/pool_proj"
  param {
    lr_mult: 1
    decay_mult: 1
  }
  param {
    lr_mult: 2
    decay_mult: 0
  }
  convolution_param {
    num_output: 64
    kernel_size: 1
    weight_filler {
      type: "xavier"
      std: 0.1
    }
    bias_filler {
      type: "constant"
      value: 0.2
    }
  }
}
layer {
  name: "inception_4b/relu_pool_proj"
  type: "ReLU"
  bottom: "inception_4b/pool_proj"
  top: "inception_4b/pool_proj"
}
layer {
  name: "inception_4b/output"
  type: "Concat"
  bottom: "inception_4b/1x1"
  bottom: "inception_4b/3x3"
  bottom: "inception_4b/5x5"
  bottom: "inception_4b/pool_proj"
  top: "inception_4b/output"
}
layer {
  name: "inception_4c/1x1"
  type: "Convolution"
  bottom: "inception_4b/output"
  top: "inception_4c/1x1"
  param {
    lr_mult: 1
    decay_mult: 1
  }
  param {
    lr_mult: 2
    decay_mult: 0
  }
  convolution_param {
    num_output: 128
    kernel_size: 1
    weight_filler {
      type: "xavier"
      std: 0.03
    }
    bias_filler {
      type: "constant"
      value: 0.2
    }
  }
}
layer {
  name: "inception_4c/relu_1x1"
  type: "ReLU"
  bottom: "inception_4c/1x1"
  top: "inception_4c/1x1"
}
layer {
  name: "inception_4c/3x3_reduce"
  type: "Convolution"
  bottom: "inception_4b/output"
  top: "inception_4c/3x3_reduce"
  param {
    lr_mult: 1
    decay_mult: 1
  }
  param {
    lr_mult: 2
    decay_mult: 0
  }
  convolution_param {
    num_output: 128
    kernel_size: 1
    weight_filler {
      type: "xavier"
      std: 0.09
    }
    bias_filler {
      type: "constant"
      value: 0.2
    }
  }
}
layer {
  name: "inception_4c/relu_3x3_reduce"
  type: "ReLU"
  bottom: "inception_4c/3x3_reduce"
  top: "inception_4c/3x3_reduce"
}
layer {
  name: "inception_4c/3x3"
  type: "Convolution"
  bottom: "inception_4c/3x3_reduce"
  top: "inception_4c/3x3"
  param {
    lr_mult: 1
    decay_mult: 1
  }
  param {
    lr_mult: 2
    decay_mult: 0
  }
  convolution_param {
    num_output: 256
    pad: 1
    kernel_size: 3
    weight_filler {
      type: "xavier"
      std: 0.03
    }
    bias_filler {
      type: "constant"
      value: 0.2
    }
  }
}
layer {
  name: "inception_4c/relu_3x3"
  type: "ReLU"
  bottom: "inception_4c/3x3"
  top: "inception_4c/3x3"
}
layer {
  name: "inception_4c/5x5_reduce"
  type: "Convolution"
  bottom: "inception_4b/output"
  top: "inception_4c/5x5_reduce"
  param {
    lr_mult: 1
    decay_mult: 1
  }
  param {
    lr_mult: 2
    decay_mult: 0
  }
  convolution_param {
    num_output: 24
    kernel_size: 1
    weight_filler {
      type: "xavier"
      std: 0.2
    }
    bias_filler {
      type: "constant"
      value: 0.2
    }
  }
}
layer {
  name: "inception_4c/relu_5x5_reduce"
  type: "ReLU"
  bottom: "inception_4c/5x5_reduce"
  top: "inception_4c/5x5_reduce"
}
layer {
  name: "inception_4c/5x5"
  type: "Convolution"
  bottom: "inception_4c/5x5_reduce"
  top: "inception_4c/5x5"
  param {
    lr_mult: 1
    decay_mult: 1
  }
  param {
    lr_mult: 2
    decay_mult: 0
  }
  convolution_param {
    num_output: 64
    pad: 2
    kernel_size: 5
    weight_filler {
      type: "xavier"
      std: 0.03
    }
    bias_filler {
      type: "constant"
      value: 0.2
    }
  }
}
layer {
  name: "inception_4c/relu_5x5"
  type: "ReLU"
  bottom: "inception_4c/5x5"
  top: "inception_4c/5x5"
}
layer {
  name: "inception_4c/pool"
  type: "Pooling"
  bottom: "inception_4b/output"
  top: "inception_4c/pool"
  pooling_param {
    pool: MAX
    kernel_size: 3
    stride: 1
    pad: 1
  }
}
layer {
  name: "inception_4c/pool_proj"
  type: "Convolution"
  bottom: "inception_4c/pool"
  top: "inception_4c/pool_proj"
  param {
    lr_mult: 1
    decay_mult: 1
  }
  param {
    lr_mult: 2
    decay_mult: 0
  }
  convolution_param {
    num_output: 64
    kernel_size: 1
    weight_filler {
      type: "xavier"
      std: 0.1
    }
    bias_filler {
      type: "constant"
      value: 0.2
    }
  }
}
layer {
  name: "inception_4c/relu_pool_proj"
  type: "ReLU"
  bottom: "inception_4c/pool_proj"
  top: "inception_4c/pool_proj"
}
layer {
  name: "inception_4c/output"
  type: "Concat"
  bottom: "inception_4c/1x1"
  bottom: "inception_4c/3x3"
  bottom: "inception_4c/5x5"
  bottom: "inception_4c/pool_proj"
  top: "inception_4c/output"
}
layer {
  name: "inception_4d/1x1"
  type: "Convolution"
  bottom: "inception_4c/output"
  top: "inception_4d/1x1"
  param {
    lr_mult: 1
    decay_mult: 1
  }
  param {
    lr_mult: 2
    decay_mult: 0
  }
  convolution_param {
    num_output: 112
    kernel_size: 1
    weight_filler {
      type: "xavier"
      std: 0.03
    }
    bias_filler {
      type: "constant"
      value: 0.2
    }
  }
}
layer {
  name: "inception_4d/relu_1x1"
  type: "ReLU"
  bottom: "inception_4d/1x1"
  top: "inception_4d/1x1"
}
layer {
  name: "inception_4d/3x3_reduce"
  type: "Convolution"
  bottom: "inception_4c/output"
  top: "inception_4d/3x3_reduce"
  param {
    lr_mult: 1
    decay_mult: 1
  }
  param {
    lr_mult: 2
    decay_mult: 0
  }
  convolution_param {
    num_output: 144
    kernel_size: 1
    weight_filler {
      type: "xavier"
      std: 0.09
    }
    bias_filler {
      type: "constant"
      value: 0.2
    }
  }
}
layer {
  name: "inception_4d/relu_3x3_reduce"
  type: "ReLU"
  bottom: "inception_4d/3x3_reduce"
  top: "inception_4d/3x3_reduce"
}
layer {
  name: "inception_4d/3x3"
  type: "Convolution"
  bottom: "inception_4d/3x3_reduce"
  top: "inception_4d/3x3"
  param {
    lr_mult: 1
    decay_mult: 1
  }
  param {
    lr_mult: 2
    decay_mult: 0
  }
  convolution_param {
    num_output: 288
    pad: 1
    kernel_size: 3
    weight_filler {
      type: "xavier"
      std: 0.03
    }
    bias_filler {
      type: "constant"
      value: 0.2
    }
  }
}
layer {
  name: "inception_4d/relu_3x3"
  type: "ReLU"
  bottom: "inception_4d/3x3"
  top: "inception_4d/3x3"
}
layer {
  name: "inception_4d/5x5_reduce"
  type: "Convolution"
  bottom: "inception_4c/output"
  top: "inception_4d/5x5_reduce"
  param {
    lr_mult: 1
    decay_mult: 1
  }
  param {
    lr_mult: 2
    decay_mult: 0
  }
  convolution_param {
    num_output: 32
    kernel_size: 1
    weight_filler {
      type: "xavier"
      std: 0.2
    }
    bias_filler {
      type: "constant"
      value: 0.2
    }
  }
}
layer {
  name: "inception_4d/relu_5x5_reduce"
  type: "ReLU"
  bottom: "inception_4d/5x5_reduce"
  top: "inception_4d/5x5_reduce"
}
layer {
  name: "inception_4d/5x5"
  type: "Convolution"
  bottom: "inception_4d/5x5_reduce"
  top: "inception_4d/5x5"
  param {
    lr_mult: 1
    decay_mult: 1
  }
  param {
    lr_mult: 2
    decay_mult: 0
  }
  convolution_param {
    num_output: 64
    pad: 2
    kernel_size: 5
    weight_filler {
      type: "xavier"
      std: 0.03
    }
    bias_filler {
      type: "constant"
      value: 0.2
    }
  }
}
layer {
  name: "inception_4d/relu_5x5"
  type: "ReLU"
  bottom: "inception_4d/5x5"
  top: "inception_4d/5x5"
}
layer {
  name: "inception_4d/pool"
  type: "Pooling"
  bottom: "inception_4c/output"
  top: "inception_4d/pool"
  pooling_param {
    pool: MAX
    kernel_size: 3
    stride: 1
    pad: 1
  }
}
layer {
  name: "inception_4d/pool_proj"
  type: "Convolution"
  bottom: "inception_4d/pool"
  top: "inception_4d/pool_proj"
  param {
    lr_mult: 1
    decay_mult: 1
  }
  param {
    lr_mult: 2
    decay_mult: 0
  }
  convolution_param {
    num_output: 64
    kernel_size: 1
    weight_filler {
      type: "xavier"
      std: 0.1
    }
    bias_filler {
      type: "constant"
      value: 0.2
    }
  }
}
layer {
  name: "inception_4d/relu_pool_proj"
  type: "ReLU"
  bottom: "inception_4d/pool_proj"
  top: "inception_4d/pool_proj"
}
layer {
  name: "inception_4d/output"
  type: "Concat"
  bottom: "inception_4d/1x1"
  bottom: "inception_4d/3x3"
  bottom: "inception_4d/5x5"
  bottom: "inception_4d/pool_proj"
  top: "inception_4d/output"
}
layer {
  name: "loss2/ave_pool"
  type: "Pooling"
  bottom: "inception_4d/output"
  top: "loss2/ave_pool"
  pooling_param {
    pool: AVE
    kernel_size: 5
    stride: 3
  }
}
layer {
  name: "loss2/conv"
  type: "Convolution"
  bottom: "loss2/ave_pool"
  top: "loss2/conv"
  param {
    lr_mult: 1
    decay_mult: 1
  }
  param {
    lr_mult: 2
    decay_mult: 0
  }
  convolution_param {
    num_output: 128
    kernel_size: 1
    weight_filler {
      type: "xavier"
      std: 0.08
    }
    bias_filler {
      type: "constant"
      value: 0.2
    }
  }
}
layer {
  name: "loss2/relu_conv"
  type: "ReLU"
  bottom: "loss2/conv"
  top: "loss2/conv"
}
layer {
  name: "loss2/fc"
  type: "InnerProduct"
  bottom: "loss2/conv"
  top: "loss2/fc"
  param {
    lr_mult: 1
    decay_mult: 1
  }
  param {
    lr_mult: 2
    decay_mult: 0
  }
  inner_product_param {
    num_output: 1024
    weight_filler {
      type: "xavier"
      std: 0.02
    }
    bias_filler {
      type: "constant"
      value: 0.2
    }
  }
}
layer {
  name: "loss2/relu_fc"
  type: "ReLU"
  bottom: "loss2/fc"
  top: "loss2/fc"
}
layer {
  name: "loss2/drop_fc"
  type: "Dropout"
  bottom: "loss2/fc"
  top: "loss2/fc"
  dropout_param {
    dropout_ratio: 0.7
  }
}
layer {
  name: "loss2/classifier_plantvillage"
  type: "InnerProduct"
  bottom: "loss2/fc"
  top: "loss2/classifier_plantvillage"
  param {
    lr_mult: 1
    decay_mult: 1
  }
  param {
    lr_mult: 2
    decay_mult: 0
  }
  inner_product_param {
    num_output: 38
    weight_filler {
      type: "xavier"
      std: 0.0009765625
    }
    bias_filler {
      type: "constant"
      value: 0
    }
  }
}
layer {
  name: "inception_4e/1x1"
  type: "Convolution"
  bottom: "inception_4d/output"
  top: "inception_4e/1x1"
  param {
    lr_mult: 1
    decay_mult: 1
  }
  param {
    lr_mult: 2
    decay_mult: 0
  }
  convolution_param {
    num_output: 256
    kernel_size: 1
    weight_filler {
      type: "xavier"
      std: 0.03
    }
    bias_filler {
      type: "constant"
      value: 0.2
    }
  }
}
layer {
  name: "inception_4e/relu_1x1"
  type: "ReLU"
  bottom: "inception_4e/1x1"
  top: "inception_4e/1x1"
}
layer {
  name: "inception_4e/3x3_reduce"
  type: "Convolution"
  bottom: "inception_4d/output"
  top: "inception_4e/3x3_reduce"
  param {
    lr_mult: 1
    decay_mult: 1
  }
  param {
    lr_mult: 2
    decay_mult: 0
  }
  convolution_param {
    num_output: 160
    kernel_size: 1
    weight_filler {
      type: "xavier"
      std: 0.09
    }
    bias_filler {
      type: "constant"
      value: 0.2
    }
  }
}
layer {
  name: "inception_4e/relu_3x3_reduce"
  type: "ReLU"
  bottom: "inception_4e/3x3_reduce"
  top: "inception_4e/3x3_reduce"
}
layer {
  name: "inception_4e/3x3"
  type: "Convolution"
  bottom: "inception_4e/3x3_reduce"
  top: "inception_4e/3x3"
  param {
    lr_mult: 1
    decay_mult: 1
  }
  param {
    lr_mult: 2
    decay_mult: 0
  }
  convolution_param {
    num_output: 320
    pad: 1
    kernel_size: 3
    weight_filler {
      type: "xavier"
      std: 0.03
    }
    bias_filler {
      type: "constant"
      value: 0.2
    }
  }
}
layer {
  name: "inception_4e/relu_3x3"
  type: "ReLU"
  bottom: "inception_4e/3x3"
  top: "inception_4e/3x3"
}
layer {
  name: "inception_4e/5x5_reduce"
  type: "Convolution"
  bottom: "inception_4d/output"
  top: "inception_4e/5x5_reduce"
  param {
    lr_mult: 1
    decay_mult: 1
  }
  param {
    lr_mult: 2
    decay_mult: 0
  }
  convolution_param {
    num_output: 32
    kernel_size: 1
    weight_filler {
      type: "xavier"
      std: 0.2
    }
    bias_filler {
      type: "constant"
      value: 0.2
    }
  }
}
layer {
  name: "inception_4e/relu_5x5_reduce"
  type: "ReLU"
  bottom: "inception_4e/5x5_reduce"
  top: "inception_4e/5x5_reduce"
}
layer {
  name: "inception_4e/5x5"
  type: "Convolution"
  bottom: "inception_4e/5x5_reduce"
  top: "inception_4e/5x5"
  p
I0403 15:36:26.749984 32387 layer_factory.hpp:77] Creating layer data
I0403 15:36:26.750587 32387 net.cpp:91] Creating Layer data
I0403 15:36:26.750618 32387 net.cpp:399] data -> data
I0403 15:36:26.750671 32387 net.cpp:399] data -> label
I0403 15:36:26.750708 32387 data_transformer.cpp:25] Loading mean file from: /home/mohanty/data/final_dataset/lmdb/color-60-40/mean.binaryproto
I0403 15:36:26.753252 32390 db_lmdb.cpp:38] Opened lmdb /home/mohanty/data/final_dataset/lmdb/color-60-40/test_db
I0403 15:36:26.764472 32387 data_layer.cpp:41] output data size: 24,3,224,224
I0403 15:36:26.794312 32387 net.cpp:141] Setting up data
I0403 15:36:26.794395 32387 net.cpp:148] Top shape: 24 3 224 224 (3612672)
I0403 15:36:26.794420 32387 net.cpp:148] Top shape: 24 (24)
I0403 15:36:26.794435 32387 net.cpp:156] Memory required for data: 14450784
I0403 15:36:26.794463 32387 layer_factory.hpp:77] Creating layer label_data_1_split
I0403 15:36:26.794493 32387 net.cpp:91] Creating Layer label_data_1_split
I0403 15:36:26.794512 32387 net.cpp:425] label_data_1_split <- label
I0403 15:36:26.794543 32387 net.cpp:399] label_data_1_split -> label_data_1_split_0
I0403 15:36:26.794572 32387 net.cpp:399] label_data_1_split -> label_data_1_split_1
I0403 15:36:26.794595 32387 net.cpp:399] label_data_1_split -> label_data_1_split_2
I0403 15:36:26.794616 32387 net.cpp:399] label_data_1_split -> label_data_1_split_3
I0403 15:36:26.794651 32387 net.cpp:399] label_data_1_split -> label_data_1_split_4
I0403 15:36:26.794670 32387 net.cpp:399] label_data_1_split -> label_data_1_split_5
I0403 15:36:26.794690 32387 net.cpp:399] label_data_1_split -> label_data_1_split_6
I0403 15:36:26.794710 32387 net.cpp:399] label_data_1_split -> label_data_1_split_7
I0403 15:36:26.794729 32387 net.cpp:399] label_data_1_split -> label_data_1_split_8
I0403 15:36:26.794751 32387 net.cpp:399] label_data_1_split -> label_data_1_split_9
I0403 15:36:26.794865 32387 net.cpp:141] Setting up label_data_1_split
I0403 15:36:26.794889 32387 net.cpp:148] Top shape: 24 (24)
I0403 15:36:26.794906 32387 net.cpp:148] Top shape: 24 (24)
I0403 15:36:26.794922 32387 net.cpp:148] Top shape: 24 (24)
I0403 15:36:26.794939 32387 net.cpp:148] Top shape: 24 (24)
I0403 15:36:26.794955 32387 net.cpp:148] Top shape: 24 (24)
I0403 15:36:26.794971 32387 net.cpp:148] Top shape: 24 (24)
I0403 15:36:26.794987 32387 net.cpp:148] Top shape: 24 (24)
I0403 15:36:26.795004 32387 net.cpp:148] Top shape: 24 (24)
I0403 15:36:26.795020 32387 net.cpp:148] Top shape: 24 (24)
I0403 15:36:26.795037 32387 net.cpp:148] Top shape: 24 (24)
I0403 15:36:26.795080 32387 net.cpp:156] Memory required for data: 14451744
I0403 15:36:26.795097 32387 layer_factory.hpp:77] Creating layer conv1/7x7_s2
I0403 15:36:26.795128 32387 net.cpp:91] Creating Layer conv1/7x7_s2
I0403 15:36:26.795147 32387 net.cpp:425] conv1/7x7_s2 <- data
I0403 15:36:26.795168 32387 net.cpp:399] conv1/7x7_s2 -> conv1/7x7_s2
I0403 15:36:26.939606 32387 net.cpp:141] Setting up conv1/7x7_s2
I0403 15:36:26.939667 32387 net.cpp:148] Top shape: 24 64 112 112 (19267584)
I0403 15:36:26.939685 32387 net.cpp:156] Memory required for data: 91522080
I0403 15:36:26.939718 32387 layer_factory.hpp:77] Creating layer conv1/relu_7x7
I0403 15:36:26.939746 32387 net.cpp:91] Creating Layer conv1/relu_7x7
I0403 15:36:26.939765 32387 net.cpp:425] conv1/relu_7x7 <- conv1/7x7_s2
I0403 15:36:26.939785 32387 net.cpp:386] conv1/relu_7x7 -> conv1/7x7_s2 (in-place)
I0403 15:36:26.940037 32387 net.cpp:141] Setting up conv1/relu_7x7
I0403 15:36:26.940064 32387 net.cpp:148] Top shape: 24 64 112 112 (19267584)
I0403 15:36:26.940080 32387 net.cpp:156] Memory required for data: 168592416
I0403 15:36:26.940098 32387 layer_factory.hpp:77] Creating layer pool1/3x3_s2
I0403 15:36:26.940122 32387 net.cpp:91] Creating Layer pool1/3x3_s2
I0403 15:36:26.940140 32387 net.cpp:425] pool1/3x3_s2 <- conv1/7x7_s2
I0403 15:36:26.940160 32387 net.cpp:399] pool1/3x3_s2 -> pool1/3x3_s2
I0403 15:36:26.940233 32387 net.cpp:141] Setting up pool1/3x3_s2
I0403 15:36:26.940271 32387 net.cpp:148] Top shape: 24 64 56 56 (4816896)
I0403 15:36:26.940291 32387 net.cpp:156] Memory required for data: 187860000
I0403 15:36:26.940310 32387 layer_factory.hpp:77] Creating layer pool1/norm1
I0403 15:36:26.940335 32387 net.cpp:91] Creating Layer pool1/norm1
I0403 15:36:26.940354 32387 net.cpp:425] pool1/norm1 <- pool1/3x3_s2
I0403 15:36:26.940373 32387 net.cpp:399] pool1/norm1 -> pool1/norm1
I0403 15:36:26.940686 32387 net.cpp:141] Setting up pool1/norm1
I0403 15:36:26.940714 32387 net.cpp:148] Top shape: 24 64 56 56 (4816896)
I0403 15:36:26.940732 32387 net.cpp:156] Memory required for data: 207127584
I0403 15:36:26.940747 32387 layer_factory.hpp:77] Creating layer conv2/3x3_reduce
I0403 15:36:26.940773 32387 net.cpp:91] Creating Layer conv2/3x3_reduce
I0403 15:36:26.940791 32387 net.cpp:425] conv2/3x3_reduce <- pool1/norm1
I0403 15:36:26.940811 32387 net.cpp:399] conv2/3x3_reduce -> conv2/3x3_reduce
I0403 15:36:26.942272 32387 net.cpp:141] Setting up conv2/3x3_reduce
I0403 15:36:26.942311 32387 net.cpp:148] Top shape: 24 64 56 56 (4816896)
I0403 15:36:26.942329 32387 net.cpp:156] Memory required for data: 226395168
I0403 15:36:26.942353 32387 layer_factory.hpp:77] Creating layer conv2/relu_3x3_reduce
I0403 15:36:26.942371 32387 net.cpp:91] Creating Layer conv2/relu_3x3_reduce
I0403 15:36:26.942389 32387 net.cpp:425] conv2/relu_3x3_reduce <- conv2/3x3_reduce
I0403 15:36:26.942409 32387 net.cpp:386] conv2/relu_3x3_reduce -> conv2/3x3_reduce (in-place)
I0403 15:36:26.942677 32387 net.cpp:141] Setting up conv2/relu_3x3_reduce
I0403 15:36:26.942729 32387 net.cpp:148] Top shape: 24 64 56 56 (4816896)
I0403 15:36:26.942747 32387 net.cpp:156] Memory required for data: 245662752
I0403 15:36:26.942764 32387 layer_factory.hpp:77] Creating layer conv2/3x3
I0403 15:36:26.942788 32387 net.cpp:91] Creating Layer conv2/3x3
I0403 15:36:26.942807 32387 net.cpp:425] conv2/3x3 <- conv2/3x3_reduce
I0403 15:36:26.942829 32387 net.cpp:399] conv2/3x3 -> conv2/3x3
I0403 15:36:26.945207 32387 net.cpp:141] Setting up conv2/3x3
I0403 15:36:26.945240 32387 net.cpp:148] Top shape: 24 192 56 56 (14450688)
I0403 15:36:26.945271 32387 net.cpp:156] Memory required for data: 303465504
I0403 15:36:26.945298 32387 layer_factory.hpp:77] Creating layer conv2/relu_3x3
I0403 15:36:26.945322 32387 net.cpp:91] Creating Layer conv2/relu_3x3
I0403 15:36:26.945341 32387 net.cpp:425] conv2/relu_3x3 <- conv2/3x3
I0403 15:36:26.945360 32387 net.cpp:386] conv2/relu_3x3 -> conv2/3x3 (in-place)
I0403 15:36:26.945543 32387 net.cpp:141] Setting up conv2/relu_3x3
I0403 15:36:26.945581 32387 net.cpp:148] Top shape: 24 192 56 56 (14450688)
I0403 15:36:26.945644 32387 net.cpp:156] Memory required for data: 361268256
I0403 15:36:26.945663 32387 layer_factory.hpp:77] Creating layer conv2/norm2
I0403 15:36:26.945685 32387 net.cpp:91] Creating Layer conv2/norm2
I0403 15:36:26.945703 32387 net.cpp:425] conv2/norm2 <- conv2/3x3
I0403 15:36:26.945724 32387 net.cpp:399] conv2/norm2 -> conv2/norm2
I0403 15:36:26.946033 32387 net.cpp:141] Setting up conv2/norm2
I0403 15:36:26.946064 32387 net.cpp:148] Top shape: 24 192 56 56 (14450688)
I0403 15:36:26.946082 32387 net.cpp:156] Memory required for data: 419071008
I0403 15:36:26.946110 32387 layer_factory.hpp:77] Creating layer pool2/3x3_s2
I0403 15:36:26.946130 32387 net.cpp:91] Creating Layer pool2/3x3_s2
I0403 15:36:26.946146 32387 net.cpp:425] pool2/3x3_s2 <- conv2/norm2
I0403 15:36:26.946166 32387 net.cpp:399] pool2/3x3_s2 -> pool2/3x3_s2
I0403 15:36:26.946246 32387 net.cpp:141] Setting up pool2/3x3_s2
I0403 15:36:26.946272 32387 net.cpp:148] Top shape: 24 192 28 28 (3612672)
I0403 15:36:26.946292 32387 net.cpp:156] Memory required for data: 433521696
I0403 15:36:26.946310 32387 layer_factory.hpp:77] Creating layer pool2/3x3_s2_pool2/3x3_s2_0_split
I0403 15:36:26.946331 32387 net.cpp:91] Creating Layer pool2/3x3_s2_pool2/3x3_s2_0_split
I0403 15:36:26.946347 32387 net.cpp:425] pool2/3x3_s2_pool2/3x3_s2_0_split <- pool2/3x3_s2
I0403 15:36:26.946365 32387 net.cpp:399] pool2/3x3_s2_pool2/3x3_s2_0_split -> pool2/3x3_s2_pool2/3x3_s2_0_split_0
I0403 15:36:26.946387 32387 net.cpp:399] pool2/3x3_s2_pool2/3x3_s2_0_split -> pool2/3x3_s2_pool2/3x3_s2_0_split_1
I0403 15:36:26.946406 32387 net.cpp:399] pool2/3x3_s2_pool2/3x3_s2_0_split -> pool2/3x3_s2_pool2/3x3_s2_0_split_2
I0403 15:36:26.946430 32387 net.cpp:399] pool2/3x3_s2_pool2/3x3_s2_0_split -> pool2/3x3_s2_pool2/3x3_s2_0_split_3
I0403 15:36:26.946502 32387 net.cpp:141] Setting up pool2/3x3_s2_pool2/3x3_s2_0_split
I0403 15:36:26.946527 32387 net.cpp:148] Top shape: 24 192 28 28 (3612672)
I0403 15:36:26.946543 32387 net.cpp:148] Top shape: 24 192 28 28 (3612672)
I0403 15:36:26.946559 32387 net.cpp:148] Top shape: 24 192 28 28 (3612672)
I0403 15:36:26.946578 32387 net.cpp:148] Top shape: 24 192 28 28 (3612672)
I0403 15:36:26.946591 32387 net.cpp:156] Memory required for data: 491324448
I0403 15:36:26.946606 32387 layer_factory.hpp:77] Creating layer inception_3a/1x1
I0403 15:36:26.946630 32387 net.cpp:91] Creating Layer inception_3a/1x1
I0403 15:36:26.946647 32387 net.cpp:425] inception_3a/1x1 <- pool2/3x3_s2_pool2/3x3_s2_0_split_0
I0403 15:36:26.946669 32387 net.cpp:399] inception_3a/1x1 -> inception_3a/1x1
I0403 15:36:26.948343 32387 net.cpp:141] Setting up inception_3a/1x1
I0403 15:36:26.948374 32387 net.cpp:148] Top shape: 24 64 28 28 (1204224)
I0403 15:36:26.948392 32387 net.cpp:156] Memory required for data: 496141344
I0403 15:36:26.948413 32387 layer_factory.hpp:77] Creating layer inception_3a/relu_1x1
I0403 15:36:26.948432 32387 net.cpp:91] Creating Layer inception_3a/relu_1x1
I0403 15:36:26.948451 32387 net.cpp:425] inception_3a/relu_1x1 <- inception_3a/1x1
I0403 15:36:26.948472 32387 net.cpp:386] inception_3a/relu_1x1 -> inception_3a/1x1 (in-place)
I0403 15:36:26.948658 32387 net.cpp:141] Setting up inception_3a/relu_1x1
I0403 15:36:26.948696 32387 net.cpp:148] Top shape: 24 64 28 28 (1204224)
I0403 15:36:26.948712 32387 net.cpp:156] Memory required for data: 500958240
I0403 15:36:26.948729 32387 layer_factory.hpp:77] Creating layer inception_3a/3x3_reduce
I0403 15:36:26.948752 32387 net.cpp:91] Creating Layer inception_3a/3x3_reduce
I0403 15:36:26.948770 32387 net.cpp:425] inception_3a/3x3_reduce <- pool2/3x3_s2_pool2/3x3_s2_0_split_1
I0403 15:36:26.948792 32387 net.cpp:399] inception_3a/3x3_reduce -> inception_3a/3x3_reduce
I0403 15:36:26.950489 32387 net.cpp:141] Setting up inception_3a/3x3_reduce
I0403 15:36:26.950518 32387 net.cpp:148] Top shape: 24 96 28 28 (1806336)
I0403 15:36:26.950534 32387 net.cpp:156] Memory required for data: 508183584
I0403 15:36:26.950556 32387 layer_factory.hpp:77] Creating layer inception_3a/relu_3x3_reduce
I0403 15:36:26.950597 32387 net.cpp:91] Creating Layer inception_3a/relu_3x3_reduce
I0403 15:36:26.950614 32387 net.cpp:425] inception_3a/relu_3x3_reduce <- inception_3a/3x3_reduce
I0403 15:36:26.950634 32387 net.cpp:386] inception_3a/relu_3x3_reduce -> inception_3a/3x3_reduce (in-place)
I0403 15:36:26.950810 32387 net.cpp:141] Setting up inception_3a/relu_3x3_reduce
I0403 15:36:26.950839 32387 net.cpp:148] Top shape: 24 96 28 28 (1806336)
I0403 15:36:26.950853 32387 net.cpp:156] Memory required for data: 515408928
I0403 15:36:26.950868 32387 layer_factory.hpp:77] Creating layer inception_3a/3x3
I0403 15:36:26.950892 32387 net.cpp:91] Creating Layer inception_3a/3x3
I0403 15:36:26.950911 32387 net.cpp:425] inception_3a/3x3 <- inception_3a/3x3_reduce
I0403 15:36:26.950929 32387 net.cpp:399] inception_3a/3x3 -> inception_3a/3x3
I0403 15:36:26.952563 32387 net.cpp:141] Setting up inception_3a/3x3
I0403 15:36:26.952590 32387 net.cpp:148] Top shape: 24 128 28 28 (2408448)
I0403 15:36:26.952607 32387 net.cpp:156] Memory required for data: 525042720
I0403 15:36:26.952626 32387 layer_factory.hpp:77] Creating layer inception_3a/relu_3x3
I0403 15:36:26.952647 32387 net.cpp:91] Creating Layer inception_3a/relu_3x3
I0403 15:36:26.952664 32387 net.cpp:425] inception_3a/relu_3x3 <- inception_3a/3x3
I0403 15:36:26.952687 32387 net.cpp:386] inception_3a/relu_3x3 -> inception_3a/3x3 (in-place)
I0403 15:36:26.952966 32387 net.cpp:141] Setting up inception_3a/relu_3x3
I0403 15:36:26.952993 32387 net.cpp:148] Top shape: 24 128 28 28 (2408448)
I0403 15:36:26.953008 32387 net.cpp:156] Memory required for data: 534676512
I0403 15:36:26.953023 32387 layer_factory.hpp:77] Creating layer inception_3a/5x5_reduce
I0403 15:36:26.953045 32387 net.cpp:91] Creating Layer inception_3a/5x5_reduce
I0403 15:36:26.953063 32387 net.cpp:425] inception_3a/5x5_reduce <- pool2/3x3_s2_pool2/3x3_s2_0_split_2
I0403 15:36:26.953083 32387 net.cpp:399] inception_3a/5x5_reduce -> inception_3a/5x5_reduce
I0403 15:36:26.954032 32387 net.cpp:141] Setting up inception_3a/5x5_reduce
I0403 15:36:26.954061 32387 net.cpp:148] Top shape: 24 16 28 28 (301056)
I0403 15:36:26.954082 32387 net.cpp:156] Memory required for data: 535880736
I0403 15:36:26.954100 32387 layer_factory.hpp:77] Creating layer inception_3a/relu_5x5_reduce
I0403 15:36:26.954121 32387 net.cpp:91] Creating Layer inception_3a/relu_5x5_reduce
I0403 15:36:26.954139 32387 net.cpp:425] inception_3a/relu_5x5_reduce <- inception_3a/5x5_reduce
I0403 15:36:26.954157 32387 net.cpp:386] inception_3a/relu_5x5_reduce -> inception_3a/5x5_reduce (in-place)
I0403 15:36:26.954460 32387 net.cpp:141] Setting up inception_3a/relu_5x5_reduce
I0403 15:36:26.954488 32387 net.cpp:148] Top shape: 24 16 28 28 (301056)
I0403 15:36:26.954502 32387 net.cpp:156] Memory required for data: 537084960
I0403 15:36:26.954519 32387 layer_factory.hpp:77] Creating layer inception_3a/5x5
I0403 15:36:26.954543 32387 net.cpp:91] Creating Layer inception_3a/5x5
I0403 15:36:26.954561 32387 net.cpp:425] inception_3a/5x5 <- inception_3a/5x5_reduce
I0403 15:36:26.954581 32387 net.cpp:399] inception_3a/5x5 -> inception_3a/5x5
I0403 15:36:26.955627 32387 net.cpp:141] Setting up inception_3a/5x5
I0403 15:36:26.955656 32387 net.cpp:148] Top shape: 24 32 28 28 (602112)
I0403 15:36:26.955670 32387 net.cpp:156] Memory required for data: 539493408
I0403 15:36:26.955690 32387 layer_factory.hpp:77] Creating layer inception_3a/relu_5x5
I0403 15:36:26.955709 32387 net.cpp:91] Creating Layer inception_3a/relu_5x5
I0403 15:36:26.955725 32387 net.cpp:425] inception_3a/relu_5x5 <- inception_3a/5x5
I0403 15:36:26.955745 32387 net.cpp:386] inception_3a/relu_5x5 -> inception_3a/5x5 (in-place)
I0403 15:36:26.955911 32387 net.cpp:141] Setting up inception_3a/relu_5x5
I0403 15:36:26.955935 32387 net.cpp:148] Top shape: 24 32 28 28 (602112)
I0403 15:36:26.955951 32387 net.cpp:156] Memory required for data: 541901856
I0403 15:36:26.955967 32387 layer_factory.hpp:77] Creating layer inception_3a/pool
I0403 15:36:26.955987 32387 net.cpp:91] Creating Layer inception_3a/pool
I0403 15:36:26.956003 32387 net.cpp:425] inception_3a/pool <- pool2/3x3_s2_pool2/3x3_s2_0_split_3
I0403 15:36:26.956037 32387 net.cpp:399] inception_3a/pool -> inception_3a/pool
I0403 15:36:26.956094 32387 net.cpp:141] Setting up inception_3a/pool
I0403 15:36:26.956117 32387 net.cpp:148] Top shape: 24 192 28 28 (3612672)
I0403 15:36:26.956133 32387 net.cpp:156] Memory required for data: 556352544
I0403 15:36:26.956148 32387 layer_factory.hpp:77] Creating layer inception_3a/pool_proj
I0403 15:36:26.956171 32387 net.cpp:91] Creating Layer inception_3a/pool_proj
I0403 15:36:26.956188 32387 net.cpp:425] inception_3a/pool_proj <- inception_3a/pool
I0403 15:36:26.956210 32387 net.cpp:399] inception_3a/pool_proj -> inception_3a/pool_proj
I0403 15:36:26.957130 32387 net.cpp:141] Setting up inception_3a/pool_proj
I0403 15:36:26.957160 32387 net.cpp:148] Top shape: 24 32 28 28 (602112)
I0403 15:36:26.957177 32387 net.cpp:156] Memory required for data: 558760992
I0403 15:36:26.957200 32387 layer_factory.hpp:77] Creating layer inception_3a/relu_pool_proj
I0403 15:36:26.957221 32387 net.cpp:91] Creating Layer inception_3a/relu_pool_proj
I0403 15:36:26.957237 32387 net.cpp:425] inception_3a/relu_pool_proj <- inception_3a/pool_proj
I0403 15:36:26.957255 32387 net.cpp:386] inception_3a/relu_pool_proj -> inception_3a/pool_proj (in-place)
I0403 15:36:26.957576 32387 net.cpp:141] Setting up inception_3a/relu_pool_proj
I0403 15:36:26.957603 32387 net.cpp:148] Top shape: 24 32 28 28 (602112)
I0403 15:36:26.957619 32387 net.cpp:156] Memory required for data: 561169440
I0403 15:36:26.957635 32387 layer_factory.hpp:77] Creating layer inception_3a/output
I0403 15:36:26.957653 32387 net.cpp:91] Creating Layer inception_3a/output
I0403 15:36:26.957679 32387 net.cpp:425] inception_3a/output <- inception_3a/1x1
I0403 15:36:26.957696 32387 net.cpp:425] inception_3a/output <- inception_3a/3x3
I0403 15:36:26.957713 32387 net.cpp:425] inception_3a/output <- inception_3a/5x5
I0403 15:36:26.957731 32387 net.cpp:425] inception_3a/output <- inception_3a/pool_proj
I0403 15:36:26.957751 32387 net.cpp:399] inception_3a/output -> inception_3a/output
I0403 15:36:26.957798 32387 net.cpp:141] Setting up inception_3a/output
I0403 15:36:26.957839 32387 net.cpp:148] Top shape: 24 256 28 28 (4816896)
I0403 15:36:26.957854 32387 net.cpp:156] Memory required for data: 580437024
I0403 15:36:26.957870 32387 layer_factory.hpp:77] Creating layer inception_3a/output_inception_3a/output_0_split
I0403 15:36:26.957888 32387 net.cpp:91] Creating Layer inception_3a/output_inception_3a/output_0_split
I0403 15:36:26.957904 32387 net.cpp:425] inception_3a/output_inception_3a/output_0_split <- inception_3a/output
I0403 15:36:26.957922 32387 net.cpp:399] inception_3a/output_inception_3a/output_0_split -> inception_3a/output_inception_3a/output_0_split_0
I0403 15:36:26.957944 32387 net.cpp:399] inception_3a/output_inception_3a/output_0_split -> inception_3a/output_inception_3a/output_0_split_1
I0403 15:36:26.957967 32387 net.cpp:399] inception_3a/output_inception_3a/output_0_split -> inception_3a/output_inception_3a/output_0_split_2
I0403 15:36:26.957989 32387 net.cpp:399] inception_3a/output_inception_3a/output_0_split -> inception_3a/output_inception_3a/output_0_split_3
I0403 15:36:26.958063 32387 net.cpp:141] Setting up inception_3a/output_inception_3a/output_0_split
I0403 15:36:26.958088 32387 net.cpp:148] Top shape: 24 256 28 28 (4816896)
I0403 15:36:26.958106 32387 net.cpp:148] Top shape: 24 256 28 28 (4816896)
I0403 15:36:26.958123 32387 net.cpp:148] Top shape: 24 256 28 28 (4816896)
I0403 15:36:26.958139 32387 net.cpp:148] Top shape: 24 256 28 28 (4816896)
I0403 15:36:26.958153 32387 net.cpp:156] Memory required for data: 657507360
I0403 15:36:26.958169 32387 layer_factory.hpp:77] Creating layer inception_3b/1x1
I0403 15:36:26.958191 32387 net.cpp:91] Creating Layer inception_3b/1x1
I0403 15:36:26.958209 32387 net.cpp:425] inception_3b/1x1 <- inception_3a/output_inception_3a/output_0_split_0
I0403 15:36:26.958230 32387 net.cpp:399] inception_3b/1x1 -> inception_3b/1x1
I0403 15:36:26.959348 32387 net.cpp:141] Setting up inception_3b/1x1
I0403 15:36:26.959391 32387 net.cpp:148] Top shape: 24 128 28 28 (2408448)
I0403 15:36:26.959408 32387 net.cpp:156] Memory required for data: 667141152
I0403 15:36:26.959429 32387 layer_factory.hpp:77] Creating layer inception_3b/relu_1x1
I0403 15:36:26.959447 32387 net.cpp:91] Creating Layer inception_3b/relu_1x1
I0403 15:36:26.959463 32387 net.cpp:425] inception_3b/relu_1x1 <- inception_3b/1x1
I0403 15:36:26.959484 32387 net.cpp:386] inception_3b/relu_1x1 -> inception_3b/1x1 (in-place)
I0403 15:36:26.959656 32387 net.cpp:141] Setting up inception_3b/relu_1x1
I0403 15:36:26.959682 32387 net.cpp:148] Top shape: 24 128 28 28 (2408448)
I0403 15:36:26.959698 32387 net.cpp:156] Memory required for data: 676774944
I0403 15:36:26.959714 32387 layer_factory.hpp:77] Creating layer inception_3b/3x3_reduce
I0403 15:36:26.959738 32387 net.cpp:91] Creating Layer inception_3b/3x3_reduce
I0403 15:36:26.959755 32387 net.cpp:425] inception_3b/3x3_reduce <- inception_3a/output_inception_3a/output_0_split_1
I0403 15:36:26.959776 32387 net.cpp:399] inception_3b/3x3_reduce -> inception_3b/3x3_reduce
I0403 15:36:26.960893 32387 net.cpp:141] Setting up inception_3b/3x3_reduce
I0403 15:36:26.960924 32387 net.cpp:148] Top shape: 24 128 28 28 (2408448)
I0403 15:36:26.960940 32387 net.cpp:156] Memory required for data: 686408736
I0403 15:36:26.960958 32387 layer_factory.hpp:77] Creating layer inception_3b/relu_3x3_reduce
I0403 15:36:26.960978 32387 net.cpp:91] Creating Layer inception_3b/relu_3x3_reduce
I0403 15:36:26.960994 32387 net.cpp:425] inception_3b/relu_3x3_reduce <- inception_3b/3x3_reduce
I0403 15:36:26.961014 32387 net.cpp:386] inception_3b/relu_3x3_reduce -> inception_3b/3x3_reduce (in-place)
I0403 15:36:26.961191 32387 net.cpp:141] Setting up inception_3b/relu_3x3_reduce
I0403 15:36:26.961217 32387 net.cpp:148] Top shape: 24 128 28 28 (2408448)
I0403 15:36:26.961232 32387 net.cpp:156] Memory required for data: 696042528
I0403 15:36:26.961247 32387 layer_factory.hpp:77] Creating layer inception_3b/3x3
I0403 15:36:26.961274 32387 net.cpp:91] Creating Layer inception_3b/3x3
I0403 15:36:26.961298 32387 net.cpp:425] inception_3b/3x3 <- inception_3b/3x3_reduce
I0403 15:36:26.961319 32387 net.cpp:399] inception_3b/3x3 -> inception_3b/3x3
I0403 15:36:26.964385 32387 net.cpp:141] Setting up inception_3b/3x3
I0403 15:36:26.964416 32387 net.cpp:148] Top shape: 24 192 28 28 (3612672)
I0403 15:36:26.964433 32387 net.cpp:156] Memory required for data: 710493216
I0403 15:36:26.964454 32387 layer_factory.hpp:77] Creating layer inception_3b/relu_3x3
I0403 15:36:26.964474 32387 net.cpp:91] Creating Layer inception_3b/relu_3x3
I0403 15:36:26.964491 32387 net.cpp:425] inception_3b/relu_3x3 <- inception_3b/3x3
I0403 15:36:26.964510 32387 net.cpp:386] inception_3b/relu_3x3 -> inception_3b/3x3 (in-place)
I0403 15:36:26.964802 32387 net.cpp:141] Setting up inception_3b/relu_3x3
I0403 15:36:26.964829 32387 net.cpp:148] Top shape: 24 192 28 28 (3612672)
I0403 15:36:26.964845 32387 net.cpp:156] Memory required for data: 724943904
I0403 15:36:26.964861 32387 layer_factory.hpp:77] Creating layer inception_3b/5x5_reduce
I0403 15:36:26.964884 32387 net.cpp:91] Creating Layer inception_3b/5x5_reduce
I0403 15:36:26.964902 32387 net.cpp:425] inception_3b/5x5_reduce <- inception_3a/output_inception_3a/output_0_split_2
I0403 15:36:26.964926 32387 net.cpp:399] inception_3b/5x5_reduce -> inception_3b/5x5_reduce
I0403 15:36:26.965960 32387 net.cpp:141] Setting up inception_3b/5x5_reduce
I0403 15:36:26.965989 32387 net.cpp:148] Top shape: 24 32 28 28 (602112)
I0403 15:36:26.966006 32387 net.cpp:156] Memory required for data: 727352352
I0403 15:36:26.966025 32387 layer_factory.hpp:77] Creating layer inception_3b/relu_5x5_reduce
I0403 15:36:26.966043 32387 net.cpp:91] Creating Layer inception_3b/relu_5x5_reduce
I0403 15:36:26.966061 32387 net.cpp:425] inception_3b/relu_5x5_reduce <- inception_3b/5x5_reduce
I0403 15:36:26.966081 32387 net.cpp:386] inception_3b/relu_5x5_reduce -> inception_3b/5x5_reduce (in-place)
I0403 15:36:26.966269 32387 net.cpp:141] Setting up inception_3b/relu_5x5_reduce
I0403 15:36:26.966311 32387 net.cpp:148] Top shape: 24 32 28 28 (602112)
I0403 15:36:26.966328 32387 net.cpp:156] Memory required for data: 729760800
I0403 15:36:26.966344 32387 layer_factory.hpp:77] Creating layer inception_3b/5x5
I0403 15:36:26.966367 32387 net.cpp:91] Creating Layer inception_3b/5x5
I0403 15:36:26.966387 32387 net.cpp:425] inception_3b/5x5 <- inception_3b/5x5_reduce
I0403 15:36:26.966408 32387 net.cpp:399] inception_3b/5x5 -> inception_3b/5x5
I0403 15:36:26.968464 32387 net.cpp:141] Setting up inception_3b/5x5
I0403 15:36:26.968497 32387 net.cpp:148] Top shape: 24 96 28 28 (1806336)
I0403 15:36:26.968515 32387 net.cpp:156] Memory required for data: 736986144
I0403 15:36:26.968535 32387 layer_factory.hpp:77] Creating layer inception_3b/relu_5x5
I0403 15:36:26.968554 32387 net.cpp:91] Creating Layer inception_3b/relu_5x5
I0403 15:36:26.968571 32387 net.cpp:425] inception_3b/relu_5x5 <- inception_3b/5x5
I0403 15:36:26.968592 32387 net.cpp:386] inception_3b/relu_5x5 -> inception_3b/5x5 (in-place)
I0403 15:36:26.968797 32387 net.cpp:141] Setting up inception_3b/relu_5x5
I0403 15:36:26.968823 32387 net.cpp:148] Top shape: 24 96 28 28 (1806336)
I0403 15:36:26.968838 32387 net.cpp:156] Memory required for data: 744211488
I0403 15:36:26.968853 32387 layer_factory.hpp:77] Creating layer inception_3b/pool
I0403 15:36:26.968873 32387 net.cpp:91] Creating Layer inception_3b/pool
I0403 15:36:26.968889 32387 net.cpp:425] inception_3b/pool <- inception_3a/output_inception_3a/output_0_split_3
I0403 15:36:26.968909 32387 net.cpp:399] inception_3b/pool -> inception_3b/pool
I0403 15:36:26.968966 32387 net.cpp:141] Setting up inception_3b/pool
I0403 15:36:26.968991 32387 net.cpp:148] Top shape: 24 256 28 28 (4816896)
I0403 15:36:26.969005 32387 net.cpp:156] Memory required for data: 763479072
I0403 15:36:26.969022 32387 layer_factory.hpp:77] Creating layer inception_3b/pool_proj
I0403 15:36:26.969043 32387 net.cpp:91] Creating Layer inception_3b/pool_proj
I0403 15:36:26.969063 32387 net.cpp:425] inception_3b/pool_proj <- inception_3b/pool
I0403 15:36:26.969084 32387 net.cpp:399] inception_3b/pool_proj -> inception_3b/pool_proj
I0403 15:36:26.970121 32387 net.cpp:141] Setting up inception_3b/pool_proj
I0403 15:36:26.970150 32387 net.cpp:148] Top shape: 24 64 28 28 (1204224)
I0403 15:36:26.970166 32387 net.cpp:156] Memory required for data: 768295968
I0403 15:36:26.970185 32387 layer_factory.hpp:77] Creating layer inception_3b/relu_pool_proj
I0403 15:36:26.970206 32387 net.cpp:91] Creating Layer inception_3b/relu_pool_proj
I0403 15:36:26.970226 32387 net.cpp:425] inception_3b/relu_pool_proj <- inception_3b/pool_proj
I0403 15:36:26.970243 32387 net.cpp:386] inception_3b/relu_pool_proj -> inception_3b/pool_proj (in-place)
I0403 15:36:26.970625 32387 net.cpp:141] Setting up inception_3b/relu_pool_proj
I0403 15:36:26.970654 32387 net.cpp:148] Top shape: 24 64 28 28 (1204224)
I0403 15:36:26.970669 32387 net.cpp:156] Memory required for data: 773112864
I0403 15:36:26.970685 32387 layer_factory.hpp:77] Creating layer inception_3b/output
I0403 15:36:26.970702 32387 net.cpp:91] Creating Layer inception_3b/output
I0403 15:36:26.970718 32387 net.cpp:425] inception_3b/output <- inception_3b/1x1
I0403 15:36:26.970736 32387 net.cpp:425] inception_3b/output <- inception_3b/3x3
I0403 15:36:26.970755 32387 net.cpp:425] inception_3b/output <- inception_3b/5x5
I0403 15:36:26.970773 32387 net.cpp:425] inception_3b/output <- inception_3b/pool_proj
I0403 15:36:26.970790 32387 net.cpp:399] inception_3b/output -> inception_3b/output
I0403 15:36:26.970837 32387 net.cpp:141] Setting up inception_3b/output
I0403 15:36:26.970865 32387 net.cpp:148] Top shape: 24 480 28 28 (9031680)
I0403 15:36:26.970880 32387 net.cpp:156] Memory required for data: 809239584
I0403 15:36:26.970895 32387 layer_factory.hpp:77] Creating layer pool3/3x3_s2
I0403 15:36:26.970911 32387 net.cpp:91] Creating Layer pool3/3x3_s2
I0403 15:36:26.970927 32387 net.cpp:425] pool3/3x3_s2 <- inception_3b/output
I0403 15:36:26.970948 32387 net.cpp:399] pool3/3x3_s2 -> pool3/3x3_s2
I0403 15:36:26.971020 32387 net.cpp:141] Setting up pool3/3x3_s2
I0403 15:36:26.971045 32387 net.cpp:148] Top shape: 24 480 14 14 (2257920)
I0403 15:36:26.971060 32387 net.cpp:156] Memory required for data: 818271264
I0403 15:36:26.971074 32387 layer_factory.hpp:77] Creating layer pool3/3x3_s2_pool3/3x3_s2_0_split
I0403 15:36:26.971094 32387 net.cpp:91] Creating Layer pool3/3x3_s2_pool3/3x3_s2_0_split
I0403 15:36:26.971110 32387 net.cpp:425] pool3/3x3_s2_pool3/3x3_s2_0_split <- pool3/3x3_s2
I0403 15:36:26.971128 32387 net.cpp:399] pool3/3x3_s2_pool3/3x3_s2_0_split -> pool3/3x3_s2_pool3/3x3_s2_0_split_0
I0403 15:36:26.971151 32387 net.cpp:399] pool3/3x3_s2_pool3/3x3_s2_0_split -> pool3/3x3_s2_pool3/3x3_s2_0_split_1
I0403 15:36:26.971174 32387 net.cpp:399] pool3/3x3_s2_pool3/3x3_s2_0_split -> pool3/3x3_s2_pool3/3x3_s2_0_split_2
I0403 15:36:26.971192 32387 net.cpp:399] pool3/3x3_s2_pool3/3x3_s2_0_split -> pool3/3x3_s2_pool3/3x3_s2_0_split_3
I0403 15:36:26.971272 32387 net.cpp:141] Setting up pool3/3x3_s2_pool3/3x3_s2_0_split
I0403 15:36:26.971302 32387 net.cpp:148] Top shape: 24 480 14 14 (2257920)
I0403 15:36:26.971319 32387 net.cpp:148] Top shape: 24 480 14 14 (2257920)
I0403 15:36:26.971338 32387 net.cpp:148] Top shape: 24 480 14 14 (2257920)
I0403 15:36:26.971354 32387 net.cpp:148] Top shape: 24 480 14 14 (2257920)
I0403 15:36:26.971367 32387 net.cpp:156] Memory required for data: 854397984
I0403 15:36:26.971382 32387 layer_factory.hpp:77] Creating layer inception_4a/1x1
I0403 15:36:26.971405 32387 net.cpp:91] Creating Layer inception_4a/1x1
I0403 15:36:26.971423 32387 net.cpp:425] inception_4a/1x1 <- pool3/3x3_s2_pool3/3x3_s2_0_split_0
I0403 15:36:26.971446 32387 net.cpp:399] inception_4a/1x1 -> inception_4a/1x1
I0403 15:36:26.973032 32387 net.cpp:141] Setting up inception_4a/1x1
I0403 15:36:26.973063 32387 net.cpp:148] Top shape: 24 192 14 14 (903168)
I0403 15:36:26.973081 32387 net.cpp:156] Memory required for data: 858010656
I0403 15:36:26.973101 32387 layer_factory.hpp:77] Creating layer inception_4a/relu_1x1
I0403 15:36:26.973120 32387 net.cpp:91] Creating Layer inception_4a/relu_1x1
I0403 15:36:26.973139 32387 net.cpp:425] inception_4a/relu_1x1 <- inception_4a/1x1
I0403 15:36:26.973156 32387 net.cpp:386] inception_4a/relu_1x1 -> inception_4a/1x1 (in-place)
I0403 15:36:26.973336 32387 net.cpp:141] Setting up inception_4a/relu_1x1
I0403 15:36:26.973364 32387 net.cpp:148] Top shape: 24 192 14 14 (903168)
I0403 15:36:26.973381 32387 net.cpp:156] Memory required for data: 861623328
I0403 15:36:26.973395 32387 layer_factory.hpp:77] Creating layer inception_4a/3x3_reduce
I0403 15:36:26.973418 32387 net.cpp:91] Creating Layer inception_4a/3x3_reduce
I0403 15:36:26.973436 32387 net.cpp:425] inception_4a/3x3_reduce <- pool3/3x3_s2_pool3/3x3_s2_0_split_1
I0403 15:36:26.973459 32387 net.cpp:399] inception_4a/3x3_reduce -> inception_4a/3x3_reduce
I0403 15:36:26.974795 32387 net.cpp:141] Setting up inception_4a/3x3_reduce
I0403 15:36:26.974823 32387 net.cpp:148] Top shape: 24 96 14 14 (451584)
I0403 15:36:26.974839 32387 net.cpp:156] Memory required for data: 863429664
I0403 15:36:26.974867 32387 layer_factory.hpp:77] Creating layer inception_4a/relu_3x3_reduce
I0403 15:36:26.974889 32387 net.cpp:91] Creating Layer inception_4a/relu_3x3_reduce
I0403 15:36:26.974906 32387 net.cpp:425] inception_4a/relu_3x3_reduce <- inception_4a/3x3_reduce
I0403 15:36:26.974925 32387 net.cpp:386] inception_4a/relu_3x3_reduce -> inception_4a/3x3_reduce (in-place)
I0403 15:36:26.975103 32387 net.cpp:141] Setting up inception_4a/relu_3x3_reduce
I0403 15:36:26.975131 32387 net.cpp:148] Top shape: 24 96 14 14 (451584)
I0403 15:36:26.975147 32387 net.cpp:156] Memory required for data: 865236000
I0403 15:36:26.975163 32387 layer_factory.hpp:77] Creating layer inception_4a/3x3
I0403 15:36:26.975186 32387 net.cpp:91] Creating Layer inception_4a/3x3
I0403 15:36:26.975203 32387 net.cpp:425] inception_4a/3x3 <- inception_4a/3x3_reduce
I0403 15:36:26.975222 32387 net.cpp:399] inception_4a/3x3 -> inception_4a/3x3
I0403 15:36:26.978050 32387 net.cpp:141] Setting up inception_4a/3x3
I0403 15:36:26.978080 32387 net.cpp:148] Top shape: 24 208 14 14 (978432)
I0403 15:36:26.978094 32387 net.cpp:156] Memory required for data: 869149728
I0403 15:36:26.978114 32387 layer_factory.hpp:77] Creating layer inception_4a/relu_3x3
I0403 15:36:26.978132 32387 net.cpp:91] Creating Layer inception_4a/relu_3x3
I0403 15:36:26.978160 32387 net.cpp:425] inception_4a/relu_3x3 <- inception_4a/3x3
I0403 15:36:26.978179 32387 net.cpp:386] inception_4a/relu_3x3 -> inception_4a/3x3 (in-place)
I0403 15:36:26.978478 32387 net.cpp:141] Setting up inception_4a/relu_3x3
I0403 15:36:26.978504 32387 net.cpp:148] Top shape: 24 208 14 14 (978432)
I0403 15:36:26.978520 32387 net.cpp:156] Memory required for data: 873063456
I0403 15:36:26.978535 32387 layer_factory.hpp:77] Creating layer inception_4a/5x5_reduce
I0403 15:36:26.978559 32387 net.cpp:91] Creating Layer inception_4a/5x5_reduce
I0403 15:36:26.978579 32387 net.cpp:425] inception_4a/5x5_reduce <- pool3/3x3_s2_pool3/3x3_s2_0_split_2
I0403 15:36:26.978600 32387 net.cpp:399] inception_4a/5x5_reduce -> inception_4a/5x5_reduce
I0403 15:36:26.979598 32387 net.cpp:141] Setting up inception_4a/5x5_reduce
I0403 15:36:26.979625 32387 net.cpp:148] Top shape: 24 16 14 14 (75264)
I0403 15:36:26.979641 32387 net.cpp:156] Memory required for data: 873364512
I0403 15:36:26.979660 32387 layer_factory.hpp:77] Creating layer inception_4a/relu_5x5_reduce
I0403 15:36:26.979679 32387 net.cpp:91] Creating Layer inception_4a/relu_5x5_reduce
I0403 15:36:26.979696 32387 net.cpp:425] inception_4a/relu_5x5_reduce <- inception_4a/5x5_reduce
I0403 15:36:26.979715 32387 net.cpp:386] inception_4a/relu_5x5_reduce -> inception_4a/5x5_reduce (in-place)
I0403 15:36:26.979890 32387 net.cpp:141] Setting up inception_4a/relu_5x5_reduce
I0403 15:36:26.979915 32387 net.cpp:148] Top shape: 24 16 14 14 (75264)
I0403 15:36:26.979930 32387 net.cpp:156] Memory required for data: 873665568
I0403 15:36:26.979946 32387 layer_factory.hpp:77] Creating layer inception_4a/5x5
I0403 15:36:26.979969 32387 net.cpp:91] Creating Layer inception_4a/5x5
I0403 15:36:26.979985 32387 net.cpp:425] inception_4a/5x5 <- inception_4a/5x5_reduce
I0403 15:36:26.980006 32387 net.cpp:399] inception_4a/5x5 -> inception_4a/5x5
I0403 15:36:26.981104 32387 net.cpp:141] Setting up inception_4a/5x5
I0403 15:36:26.981132 32387 net.cpp:148] Top shape: 24 48 14 14 (225792)
I0403 15:36:26.981148 32387 net.cpp:156] Memory required for data: 874568736
I0403 15:36:26.981166 32387 layer_factory.hpp:77] Creating layer inception_4a/relu_5x5
I0403 15:36:26.981187 32387 net.cpp:91] Creating Layer inception_4a/relu_5x5
I0403 15:36:26.981205 32387 net.cpp:425] inception_4a/relu_5x5 <- inception_4a/5x5
I0403 15:36:26.981222 32387 net.cpp:386] inception_4a/relu_5x5 -> inception_4a/5x5 (in-place)
I0403 15:36:26.981401 32387 net.cpp:141] Setting up inception_4a/relu_5x5
I0403 15:36:26.981428 32387 net.cpp:148] Top shape: 24 48 14 14 (225792)
I0403 15:36:26.981444 32387 net.cpp:156] Memory required for data: 875471904
I0403 15:36:26.981459 32387 layer_factory.hpp:77] Creating layer inception_4a/pool
I0403 15:36:26.981478 32387 net.cpp:91] Creating Layer inception_4a/pool
I0403 15:36:26.981494 32387 net.cpp:425] inception_4a/pool <- pool3/3x3_s2_pool3/3x3_s2_0_split_3
I0403 15:36:26.981513 32387 net.cpp:399] inception_4a/pool -> inception_4a/pool
I0403 15:36:26.981572 32387 net.cpp:141] Setting up inception_4a/pool
I0403 15:36:26.981596 32387 net.cpp:148] Top shape: 24 480 14 14 (2257920)
I0403 15:36:26.981611 32387 net.cpp:156] Memory required for data: 884503584
I0403 15:36:26.981627 32387 layer_factory.hpp:77] Creating layer inception_4a/pool_proj
I0403 15:36:26.981648 32387 net.cpp:91] Creating Layer inception_4a/pool_proj
I0403 15:36:26.981665 32387 net.cpp:425] inception_4a/pool_proj <- inception_4a/pool
I0403 15:36:26.981686 32387 net.cpp:399] inception_4a/pool_proj -> inception_4a/pool_proj
I0403 15:36:26.982852 32387 net.cpp:141] Setting up inception_4a/pool_proj
I0403 15:36:26.982880 32387 net.cpp:148] Top shape: 24 64 14 14 (301056)
I0403 15:36:26.982913 32387 net.cpp:156] Memory required for data: 885707808
I0403 15:36:26.982933 32387 layer_factory.hpp:77] Creating layer inception_4a/relu_pool_proj
I0403 15:36:26.982954 32387 net.cpp:91] Creating Layer inception_4a/relu_pool_proj
I0403 15:36:26.982970 32387 net.cpp:425] inception_4a/relu_pool_proj <- inception_4a/pool_proj
I0403 15:36:26.982990 32387 net.cpp:386] inception_4a/relu_pool_proj -> inception_4a/pool_proj (in-place)
I0403 15:36:26.983265 32387 net.cpp:141] Setting up inception_4a/relu_pool_proj
I0403 15:36:26.983297 32387 net.cpp:148] Top shape: 24 64 14 14 (301056)
I0403 15:36:26.983314 32387 net.cpp:156] Memory required for data: 886912032
I0403 15:36:26.983330 32387 layer_factory.hpp:77] Creating layer inception_4a/output
I0403 15:36:26.983350 32387 net.cpp:91] Creating Layer inception_4a/output
I0403 15:36:26.983366 32387 net.cpp:425] inception_4a/output <- inception_4a/1x1
I0403 15:36:26.983383 32387 net.cpp:425] inception_4a/output <- inception_4a/3x3
I0403 15:36:26.983400 32387 net.cpp:425] inception_4a/output <- inception_4a/5x5
I0403 15:36:26.983417 32387 net.cpp:425] inception_4a/output <- inception_4a/pool_proj
I0403 15:36:26.983433 32387 net.cpp:399] inception_4a/output -> inception_4a/output
I0403 15:36:26.983479 32387 net.cpp:141] Setting up inception_4a/output
I0403 15:36:26.983501 32387 net.cpp:148] Top shape: 24 512 14 14 (2408448)
I0403 15:36:26.983515 32387 net.cpp:156] Memory required for data: 896545824
I0403 15:36:26.983531 32387 layer_factory.hpp:77] Creating layer inception_4a/output_inception_4a/output_0_split
I0403 15:36:26.983549 32387 net.cpp:91] Creating Layer inception_4a/output_inception_4a/output_0_split
I0403 15:36:26.983564 32387 net.cpp:425] inception_4a/output_inception_4a/output_0_split <- inception_4a/output
I0403 15:36:26.983584 32387 net.cpp:399] inception_4a/output_inception_4a/output_0_split -> inception_4a/output_inception_4a/output_0_split_0
I0403 15:36:26.983605 32387 net.cpp:399] inception_4a/output_inception_4a/output_0_split -> inception_4a/output_inception_4a/output_0_split_1
I0403 15:36:26.983626 32387 net.cpp:399] inception_4a/output_inception_4a/output_0_split -> inception_4a/output_inception_4a/output_0_split_2
I0403 15:36:26.983649 32387 net.cpp:399] inception_4a/output_inception_4a/output_0_split -> inception_4a/output_inception_4a/output_0_split_3
I0403 15:36:26.983671 32387 net.cpp:399] inception_4a/output_inception_4a/output_0_split -> inception_4a/output_inception_4a/output_0_split_4
I0403 15:36:26.983773 32387 net.cpp:141] Setting up inception_4a/output_inception_4a/output_0_split
I0403 15:36:26.983796 32387 net.cpp:148] Top shape: 24 512 14 14 (2408448)
I0403 15:36:26.983814 32387 net.cpp:148] Top shape: 24 512 14 14 (2408448)
I0403 15:36:26.983830 32387 net.cpp:148] Top shape: 24 512 14 14 (2408448)
I0403 15:36:26.983846 32387 net.cpp:148] Top shape: 24 512 14 14 (2408448)
I0403 15:36:26.983862 32387 net.cpp:148] Top shape: 24 512 14 14 (2408448)
I0403 15:36:26.983876 32387 net.cpp:156] Memory required for data: 944714784
I0403 15:36:26.983891 32387 layer_factory.hpp:77] Creating layer loss1/ave_pool
I0403 15:36:26.983909 32387 net.cpp:91] Creating Layer loss1/ave_pool
I0403 15:36:26.983938 32387 net.cpp:425] loss1/ave_pool <- inception_4a/output_inception_4a/output_0_split_0
I0403 15:36:26.983959 32387 net.cpp:399] loss1/ave_pool -> loss1/ave_pool
I0403 15:36:26.984179 32387 net.cpp:141] Setting up loss1/ave_pool
I0403 15:36:26.984206 32387 net.cpp:148] Top shape: 24 512 4 4 (196608)
I0403 15:36:26.984233 32387 net.cpp:156] Memory required for data: 945501216
I0403 15:36:26.984248 32387 layer_factory.hpp:77] Creating layer loss1/conv
I0403 15:36:26.984272 32387 net.cpp:91] Creating Layer loss1/conv
I0403 15:36:26.984300 32387 net.cpp:425] loss1/conv <- loss1/ave_pool
I0403 15:36:26.984321 32387 net.cpp:399] loss1/conv -> loss1/conv
I0403 15:36:26.985699 32387 net.cpp:141] Setting up loss1/conv
I0403 15:36:26.985728 32387 net.cpp:148] Top shape: 24 128 4 4 (49152)
I0403 15:36:26.985745 32387 net.cpp:156] Memory required for data: 945697824
I0403 15:36:26.985780 32387 layer_factory.hpp:77] Creating layer loss1/relu_conv
I0403 15:36:26.985800 32387 net.cpp:91] Creating Layer loss1/relu_conv
I0403 15:36:26.985817 32387 net.cpp:425] loss1/relu_conv <- loss1/conv
I0403 15:36:26.985851 32387 net.cpp:386] loss1/relu_conv -> loss1/conv (in-place)
I0403 15:36:26.986124 32387 net.cpp:141] Setting up loss1/relu_conv
I0403 15:36:26.986150 32387 net.cpp:148] Top shape: 24 128 4 4 (49152)
I0403 15:36:26.986167 32387 net.cpp:156] Memory required for data: 945894432
I0403 15:36:26.986183 32387 layer_factory.hpp:77] Creating layer loss1/fc
I0403 15:36:26.986207 32387 net.cpp:91] Creating Layer loss1/fc
I0403 15:36:26.986224 32387 net.cpp:425] loss1/fc <- loss1/conv
I0403 15:36:26.986246 32387 net.cpp:399] loss1/fc -> loss1/fc
I0403 15:36:27.004596 32387 net.cpp:141] Setting up loss1/fc
I0403 15:36:27.004633 32387 net.cpp:148] Top shape: 24 1024 (24576)
I0403 15:36:27.004650 32387 net.cpp:156] Memory required for data: 945992736
I0403 15:36:27.004672 32387 layer_factory.hpp:77] Creating layer loss1/relu_fc
I0403 15:36:27.004690 32387 net.cpp:91] Creating Layer loss1/relu_fc
I0403 15:36:27.004709 32387 net.cpp:425] loss1/relu_fc <- loss1/fc
I0403 15:36:27.004725 32387 net.cpp:386] loss1/relu_fc -> loss1/fc (in-place)
I0403 15:36:27.004925 32387 net.cpp:141] Setting up loss1/relu_fc
I0403 15:36:27.004950 32387 net.cpp:148] Top shape: 24 1024 (24576)
I0403 15:36:27.004966 32387 net.cpp:156] Memory required for data: 946091040
I0403 15:36:27.004981 32387 layer_factory.hpp:77] Creating layer loss1/drop_fc
I0403 15:36:27.005008 32387 net.cpp:91] Creating Layer loss1/drop_fc
I0403 15:36:27.005026 32387 net.cpp:425] loss1/drop_fc <- loss1/fc
I0403 15:36:27.005046 32387 net.cpp:386] loss1/drop_fc -> loss1/fc (in-place)
I0403 15:36:27.005098 32387 net.cpp:141] Setting up loss1/drop_fc
I0403 15:36:27.005122 32387 net.cpp:148] Top shape: 24 1024 (24576)
I0403 15:36:27.005149 32387 net.cpp:156] Memory required for data: 946189344
I0403 15:36:27.005167 32387 layer_factory.hpp:77] Creating layer loss1/classifier_plantvillage
I0403 15:36:27.005190 32387 net.cpp:91] Creating Layer loss1/classifier_plantvillage
I0403 15:36:27.005209 32387 net.cpp:425] loss1/classifier_plantvillage <- loss1/fc
I0403 15:36:27.005228 32387 net.cpp:399] loss1/classifier_plantvillage -> loss1/classifier_plantvillage
I0403 15:36:27.006218 32387 net.cpp:141] Setting up loss1/classifier_plantvillage
I0403 15:36:27.006248 32387 net.cpp:148] Top shape: 24 38 (912)
I0403 15:36:27.006264 32387 net.cpp:156] Memory required for data: 946192992
I0403 15:36:27.006288 32387 layer_factory.hpp:77] Creating layer loss1/classifier_plantvillage_loss1/classifier_plantvillage_0_split
I0403 15:36:27.006307 32387 net.cpp:91] Creating Layer loss1/classifier_plantvillage_loss1/classifier_plantvillage_0_split
I0403 15:36:27.006325 32387 net.cpp:425] loss1/classifier_plantvillage_loss1/classifier_plantvillage_0_split <- loss1/classifier_plantvillage
I0403 15:36:27.006342 32387 net.cpp:399] loss1/classifier_plantvillage_loss1/classifier_plantvillage_0_split -> loss1/classifier_plantvillage_loss1/classifier_plantvillage_0_split_0
I0403 15:36:27.006364 32387 net.cpp:399] loss1/classifier_plantvillage_loss1/classifier_plantvillage_0_split -> loss1/classifier_plantvillage_loss1/classifier_plantvillage_0_split_1
I0403 15:36:27.006386 32387 net.cpp:399] loss1/classifier_plantvillage_loss1/classifier_plantvillage_0_split -> loss1/classifier_plantvillage_loss1/classifier_plantvillage_0_split_2
I0403 15:36:27.006454 32387 net.cpp:141] Setting up loss1/classifier_plantvillage_loss1/classifier_plantvillage_0_split
I0403 15:36:27.006477 32387 net.cpp:148] Top shape: 24 38 (912)
I0403 15:36:27.006494 32387 net.cpp:148] Top shape: 24 38 (912)
I0403 15:36:27.006508 32387 net.cpp:148] Top shape: 24 38 (912)
I0403 15:36:27.006523 32387 net.cpp:156] Memory required for data: 946203936
I0403 15:36:27.006537 32387 layer_factory.hpp:77] Creating layer inception_4b/1x1
I0403 15:36:27.006573 32387 net.cpp:91] Creating Layer inception_4b/1x1
I0403 15:36:27.006608 32387 net.cpp:425] inception_4b/1x1 <- inception_4a/output_inception_4a/output_0_split_1
I0403 15:36:27.006631 32387 net.cpp:399] inception_4b/1x1 -> inception_4b/1x1
I0403 15:36:27.008327 32387 net.cpp:141] Setting up inception_4b/1x1
I0403 15:36:27.008355 32387 net.cpp:148] Top shape: 24 160 14 14 (752640)
I0403 15:36:27.008371 32387 net.cpp:156] Memory required for data: 949214496
I0403 15:36:27.008390 32387 layer_factory.hpp:77] Creating layer inception_4b/relu_1x1
I0403 15:36:27.008409 32387 net.cpp:91] Creating Layer inception_4b/relu_1x1
I0403 15:36:27.008425 32387 net.cpp:425] inception_4b/relu_1x1 <- inception_4b/1x1
I0403 15:36:27.008445 32387 net.cpp:386] inception_4b/relu_1x1 -> inception_4b/1x1 (in-place)
I0403 15:36:27.008646 32387 net.cpp:141] Setting up inception_4b/relu_1x1
I0403 15:36:27.008673 32387 net.cpp:148] Top shape: 24 160 14 14 (752640)
I0403 15:36:27.008689 32387 net.cpp:156] Memory required for data: 952225056
I0403 15:36:27.008705 32387 layer_factory.hpp:77] Creating layer inception_4b/3x3_reduce
I0403 15:36:27.008728 32387 net.cpp:91] Creating Layer inception_4b/3x3_reduce
I0403 15:36:27.008747 32387 net.cpp:425] inception_4b/3x3_reduce <- inception_4a/output_inception_4a/output_0_split_2
I0403 15:36:27.008770 32387 net.cpp:399] inception_4b/3x3_reduce -> inception_4b/3x3_reduce
I0403 15:36:27.010161 32387 net.cpp:141] Setting up inception_4b/3x3_reduce
I0403 15:36:27.010190 32387 net.cpp:148] Top shape: 24 112 14 14 (526848)
I0403 15:36:27.010205 32387 net.cpp:156] Memory required for data: 954332448
I0403 15:36:27.010226 32387 layer_factory.hpp:77] Creating layer inception_4b/relu_3x3_reduce
I0403 15:36:27.010246 32387 net.cpp:91] Creating Layer inception_4b/relu_3x3_reduce
I0403 15:36:27.010272 32387 net.cpp:425] inception_4b/relu_3x3_reduce <- inception_4b/3x3_reduce
I0403 15:36:27.010308 32387 net.cpp:386] inception_4b/relu_3x3_reduce -> inception_4b/3x3_reduce (in-place)
I0403 15:36:27.010604 32387 net.cpp:141] Setting up inception_4b/relu_3x3_reduce
I0403 15:36:27.010632 32387 net.cpp:148] Top shape: 24 112 14 14 (526848)
I0403 15:36:27.010648 32387 net.cpp:156] Memory required for data: 956439840
I0403 15:36:27.010663 32387 layer_factory.hpp:77] Creating layer inception_4b/3x3
I0403 15:36:27.010685 32387 net.cpp:91] Creating Layer inception_4b/3x3
I0403 15:36:27.010702 32387 net.cpp:425] inception_4b/3x3 <- inception_4b/3x3_reduce
I0403 15:36:27.010725 32387 net.cpp:399] inception_4b/3x3 -> inception_4b/3x3
I0403 15:36:27.013721 32387 net.cpp:141] Setting up inception_4b/3x3
I0403 15:36:27.013754 32387 net.cpp:148] Top shape: 24 224 14 14 (1053696)
I0403 15:36:27.013772 32387 net.cpp:156] Memory required for data: 960654624
I0403 15:36:27.013792 32387 layer_factory.hpp:77] Creating layer inception_4b/relu_3x3
I0403 15:36:27.013811 32387 net.cpp:91] Creating Layer inception_4b/relu_3x3
I0403 15:36:27.013829 32387 net.cpp:425] inception_4b/relu_3x3 <- inception_4b/3x3
I0403 15:36:27.013859 32387 net.cpp:386] inception_4b/relu_3x3 -> inception_4b/3x3 (in-place)
I0403 15:36:27.014035 32387 net.cpp:141] Setting up inception_4b/relu_3x3
I0403 15:36:27.014060 32387 net.cpp:148] Top shape: 24 224 14 14 (1053696)
I0403 15:36:27.014075 32387 net.cpp:156] Memory required for data: 964869408
I0403 15:36:27.014089 32387 layer_factory.hpp:77] Creating layer inception_4b/5x5_reduce
I0403 15:36:27.014113 32387 net.cpp:91] Creating Layer inception_4b/5x5_reduce
I0403 15:36:27.014130 32387 net.cpp:425] inception_4b/5x5_reduce <- inception_4a/output_inception_4a/output_0_split_3
I0403 15:36:27.014152 32387 net.cpp:399] inception_4b/5x5_reduce -> inception_4b/5x5_reduce
I0403 15:36:27.015311 32387 net.cpp:141] Setting up inception_4b/5x5_reduce
I0403 15:36:27.015341 32387 net.cpp:148] Top shape: 24 24 14 14 (112896)
I0403 15:36:27.015357 32387 net.cpp:156] Memory required for data: 965320992
I0403 15:36:27.015375 32387 layer_factory.hpp:77] Creating layer inception_4b/relu_5x5_reduce
I0403 15:36:27.015398 32387 net.cpp:91] Creating Layer inception_4b/relu_5x5_reduce
I0403 15:36:27.015442 32387 net.cpp:425] inception_4b/relu_5x5_reduce <- inception_4b/5x5_reduce
I0403 15:36:27.015462 32387 net.cpp:386] inception_4b/relu_5x5_reduce -> inception_4b/5x5_reduce (in-place)
I0403 15:36:27.015676 32387 net.cpp:141] Setting up inception_4b/relu_5x5_reduce
I0403 15:36:27.015702 32387 net.cpp:148] Top shape: 24 24 14 14 (112896)
I0403 15:36:27.015732 32387 net.cpp:156] Memory required for data: 965772576
I0403 15:36:27.015748 32387 layer_factory.hpp:77] Creating layer inception_4b/5x5
I0403 15:36:27.015771 32387 net.cpp:91] Creating Layer inception_4b/5x5
I0403 15:36:27.015791 32387 net.cpp:425] inception_4b/5x5 <- inception_4b/5x5_reduce
I0403 15:36:27.015811 32387 net.cpp:399] inception_4b/5x5 -> inception_4b/5x5
I0403 15:36:27.017071 32387 net.cpp:141] Setting up inception_4b/5x5
I0403 15:36:27.017101 32387 net.cpp:148] Top shape: 24 64 14 14 (301056)
I0403 15:36:27.017117 32387 net.cpp:156] Memory required for data: 966976800
I0403 15:36:27.017137 32387 layer_factory.hpp:77] Creating layer inception_4b/relu_5x5
I0403 15:36:27.017153 32387 net.cpp:91] Creating Layer inception_4b/relu_5x5
I0403 15:36:27.017169 32387 net.cpp:425] inception_4b/relu_5x5 <- inception_4b/5x5
I0403 15:36:27.017189 32387 net.cpp:386] inception_4b/relu_5x5 -> inception_4b/5x5 (in-place)
I0403 15:36:27.017472 32387 net.cpp:141] Setting up inception_4b/relu_5x5
I0403 15:36:27.017498 32387 net.cpp:148] Top shape: 24 64 14 14 (301056)
I0403 15:36:27.017514 32387 net.cpp:156] Memory required for data: 968181024
I0403 15:36:27.017529 32387 layer_factory.hpp:77] Creating layer inception_4b/pool
I0403 15:36:27.017547 32387 net.cpp:91] Creating Layer inception_4b/pool
I0403 15:36:27.017563 32387 net.cpp:425] inception_4b/pool <- inception_4a/output_inception_4a/output_0_split_4
I0403 15:36:27.017596 32387 net.cpp:399] inception_4b/pool -> inception_4b/pool
I0403 15:36:27.017660 32387 net.cpp:141] Setting up inception_4b/pool
I0403 15:36:27.017685 32387 net.cpp:148] Top shape: 24 512 14 14 (2408448)
I0403 15:36:27.017700 32387 net.cpp:156] Memory required for data: 977814816
I0403 15:36:27.017715 32387 layer_factory.hpp:77] Creating layer inception_4b/pool_proj
I0403 15:36:27.017740 32387 net.cpp:91] Creating Layer inception_4b/pool_proj
I0403 15:36:27.017758 32387 net.cpp:425] inception_4b/pool_proj <- inception_4b/pool
I0403 15:36:27.017777 32387 net.cpp:399] inception_4b/pool_proj -> inception_4b/pool_proj
I0403 15:36:27.018987 32387 net.cpp:141] Setting up inception_4b/pool_proj
I0403 15:36:27.019014 32387 net.cpp:148] Top shape: 24 64 14 14 (301056)
I0403 15:36:27.019031 32387 net.cpp:156] Memory required for data: 979019040
I0403 15:36:27.019048 32387 layer_factory.hpp:77] Creating layer inception_4b/relu_pool_proj
I0403 15:36:27.019067 32387 net.cpp:91] Creating Layer inception_4b/relu_pool_proj
I0403 15:36:27.019083 32387 net.cpp:425] inception_4b/relu_pool_proj <- inception_4b/pool_proj
I0403 15:36:27.019104 32387 net.cpp:386] inception_4b/relu_pool_proj -> inception_4b/pool_proj (in-place)
I0403 15:36:27.019281 32387 net.cpp:141] Setting up inception_4b/relu_pool_proj
I0403 15:36:27.019310 32387 net.cpp:148] Top shape: 24 64 14 14 (301056)
I0403 15:36:27.019325 32387 net.cpp:156] Memory required for data: 980223264
I0403 15:36:27.019341 32387 layer_factory.hpp:77] Creating layer inception_4b/output
I0403 15:36:27.019366 32387 net.cpp:91] Creating Layer inception_4b/output
I0403 15:36:27.019382 32387 net.cpp:425] inception_4b/output <- inception_4b/1x1
I0403 15:36:27.019399 32387 net.cpp:425] inception_4b/output <- inception_4b/3x3
I0403 15:36:27.019415 32387 net.cpp:425] inception_4b/output <- inception_4b/5x5
I0403 15:36:27.019430 32387 net.cpp:425] inception_4b/output <- inception_4b/pool_proj
I0403 15:36:27.019448 32387 net.cpp:399] inception_4b/output -> inception_4b/output
I0403 15:36:27.019492 32387 net.cpp:141] Setting up inception_4b/output
I0403 15:36:27.019516 32387 net.cpp:148] Top shape: 24 512 14 14 (2408448)
I0403 15:36:27.019532 32387 net.cpp:156] Memory required for data: 989857056
I0403 15:36:27.019562 32387 layer_factory.hpp:77] Creating layer inception_4b/output_inception_4b/output_0_split
I0403 15:36:27.019580 32387 net.cpp:91] Creating Layer inception_4b/output_inception_4b/output_0_split
I0403 15:36:27.019596 32387 net.cpp:425] inception_4b/output_inception_4b/output_0_split <- inception_4b/output
I0403 15:36:27.019618 32387 net.cpp:399] inception_4b/output_inception_4b/output_0_split -> inception_4b/output_inception_4b/output_0_split_0
I0403 15:36:27.019639 32387 net.cpp:399] inception_4b/output_inception_4b/output_0_split -> inception_4b/output_inception_4b/output_0_split_1
I0403 15:36:27.019659 32387 net.cpp:399] inception_4b/output_inception_4b/output_0_split -> inception_4b/output_inception_4b/output_0_split_2
I0403 15:36:27.019680 32387 net.cpp:399] inception_4b/output_inception_4b/output_0_split -> inception_4b/output_inception_4b/output_0_split_3
I0403 15:36:27.019760 32387 net.cpp:141] Setting up inception_4b/output_inception_4b/output_0_split
I0403 15:36:27.019784 32387 net.cpp:148] Top shape: 24 512 14 14 (2408448)
I0403 15:36:27.019803 32387 net.cpp:148] Top shape: 24 512 14 14 (2408448)
I0403 15:36:27.019819 32387 net.cpp:148] Top shape: 24 512 14 14 (2408448)
I0403 15:36:27.019834 32387 net.cpp:148] Top shape: 24 512 14 14 (2408448)
I0403 15:36:27.019848 32387 net.cpp:156] Memory required for data: 1028392224
I0403 15:36:27.019863 32387 layer_factory.hpp:77] Creating layer inception_4c/1x1
I0403 15:36:27.019886 32387 net.cpp:91] Creating Layer inception_4c/1x1
I0403 15:36:27.019904 32387 net.cpp:425] inception_4c/1x1 <- inception_4b/output_inception_4b/output_0_split_0
I0403 15:36:27.019925 32387 net.cpp:399] inception_4c/1x1 -> inception_4c/1x1
I0403 15:36:27.021342 32387 net.cpp:141] Setting up inception_4c/1x1
I0403 15:36:27.021370 32387 net.cpp:148] Top shape: 24 128 14 14 (602112)
I0403 15:36:27.021386 32387 net.cpp:156] Memory required for data: 1030800672
I0403 15:36:27.021405 32387 layer_factory.hpp:77] Creating layer inception_4c/relu_1x1
I0403 15:36:27.021440 32387 net.cpp:91] Creating Layer inception_4c/relu_1x1
I0403 15:36:27.021456 32387 net.cpp:425] inception_4c/relu_1x1 <- inception_4c/1x1
I0403 15:36:27.021472 32387 net.cpp:386] inception_4c/relu_1x1 -> inception_4c/1x1 (in-place)
I0403 15:36:27.021651 32387 net.cpp:141] Setting up inception_4c/relu_1x1
I0403 15:36:27.021677 32387 net.cpp:148] Top shape: 24 128 14 14 (602112)
I0403 15:36:27.021693 32387 net.cpp:156] Memory required for data: 1033209120
I0403 15:36:27.021709 32387 layer_factory.hpp:77] Creating layer inception_4c/3x3_reduce
I0403 15:36:27.021730 32387 net.cpp:91] Creating Layer inception_4c/3x3_reduce
I0403 15:36:27.021749 32387 net.cpp:425] inception_4c/3x3_reduce <- inception_4b/output_inception_4b/output_0_split_1
I0403 15:36:27.021767 32387 net.cpp:399] inception_4c/3x3_reduce -> inception_4c/3x3_reduce
I0403 15:36:27.023705 32387 net.cpp:141] Setting up inception_4c/3x3_reduce
I0403 15:36:27.023736 32387 net.cpp:148] Top shape: 24 128 14 14 (602112)
I0403 15:36:27.023754 32387 net.cpp:156] Memory required for data: 1035617568
I0403 15:36:27.023785 32387 layer_factory.hpp:77] Creating layer inception_4c/relu_3x3_reduce
I0403 15:36:27.023805 32387 net.cpp:91] Creating Layer inception_4c/relu_3x3_reduce
I0403 15:36:27.023823 32387 net.cpp:425] inception_4c/relu_3x3_reduce <- inception_4c/3x3_reduce
I0403 15:36:27.023855 32387 net.cpp:386] inception_4c/relu_3x3_reduce -> inception_4c/3x3_reduce (in-place)
I0403 15:36:27.024155 32387 net.cpp:141] Setting up inception_4c/relu_3x3_reduce
I0403 15:36:27.024184 32387 net.cpp:148] Top shape: 24 128 14 14 (602112)
I0403 15:36:27.024200 32387 net.cpp:156] Memory required for data: 1038026016
I0403 15:36:27.024216 32387 layer_factory.hpp:77] Creating layer inception_4c/3x3
I0403 15:36:27.024240 32387 net.cpp:91] Creating Layer inception_4c/3x3
I0403 15:36:27.024257 32387 net.cpp:425] inception_4c/3x3 <- inception_4c/3x3_reduce
I0403 15:36:27.024279 32387 net.cpp:399] inception_4c/3x3 -> inception_4c/3x3
I0403 15:36:27.027957 32387 net.cpp:141] Setting up inception_4c/3x3
I0403 15:36:27.027997 32387 net.cpp:148] Top shape: 24 256 14 14 (1204224)
I0403 15:36:27.028028 32387 net.cpp:156] Memory required for data: 1042842912
I0403 15:36:27.028062 32387 layer_factory.hpp:77] Creating layer inception_4c/relu_3x3
I0403 15:36:27.028084 32387 net.cpp:91] Creating Layer inception_4c/relu_3x3
I0403 15:36:27.028100 32387 net.cpp:425] inception_4c/relu_3x3 <- inception_4c/3x3
I0403 15:36:27.028121 32387 net.cpp:386] inception_4c/relu_3x3 -> inception_4c/3x3 (in-place)
I0403 15:36:27.028322 32387 net.cpp:141] Setting up inception_4c/relu_3x3
I0403 15:36:27.028347 32387 net.cpp:148] Top shape: 24 256 14 14 (1204224)
I0403 15:36:27.028363 32387 net.cpp:156] Memory required for data: 1047659808
I0403 15:36:27.028379 32387 layer_factory.hpp:77] Creating layer inception_4c/5x5_reduce
I0403 15:36:27.028401 32387 net.cpp:91] Creating Layer inception_4c/5x5_reduce
I0403 15:36:27.028419 32387 net.cpp:425] inception_4c/5x5_reduce <- inception_4b/output_inception_4b/output_0_split_2
I0403 15:36:27.028441 32387 net.cpp:399] inception_4c/5x5_reduce -> inception_4c/5x5_reduce
I0403 15:36:27.029497 32387 net.cpp:141] Setting up inception_4c/5x5_reduce
I0403 15:36:27.029525 32387 net.cpp:148] Top shape: 24 24 14 14 (112896)
I0403 15:36:27.029541 32387 net.cpp:156] Memory required for data: 1048111392
I0403 15:36:27.029559 32387 layer_factory.hpp:77] Creating layer inception_4c/relu_5x5_reduce
I0403 15:36:27.029580 32387 net.cpp:91] Creating Layer inception_4c/relu_5x5_reduce
I0403 15:36:27.029597 32387 net.cpp:425] inception_4c/relu_5x5_reduce <- inception_4c/5x5_reduce
I0403 15:36:27.029615 32387 net.cpp:386] inception_4c/relu_5x5_reduce -> inception_4c/5x5_reduce (in-place)
I0403 15:36:27.029793 32387 net.cpp:141] Setting up inception_4c/relu_5x5_reduce
I0403 15:36:27.029819 32387 net.cpp:148] Top shape: 24 24 14 14 (112896)
I0403 15:36:27.029834 32387 net.cpp:156] Memory required for data: 1048562976
I0403 15:36:27.029849 32387 layer_factory.hpp:77] Creating layer inception_4c/5x5
I0403 15:36:27.029870 32387 net.cpp:91] Creating Layer inception_4c/5x5
I0403 15:36:27.029888 32387 net.cpp:425] inception_4c/5x5 <- inception_4c/5x5_reduce
I0403 15:36:27.029911 32387 net.cpp:399] inception_4c/5x5 -> inception_4c/5x5
I0403 15:36:27.031110 32387 net.cpp:141] Setting up inception_4c/5x5
I0403 15:36:27.031136 32387 net.cpp:148] Top shape: 24 64 14 14 (301056)
I0403 15:36:27.031152 32387 net.cpp:156] Memory required for data: 1049767200
I0403 15:36:27.031172 32387 layer_factory.hpp:77] Creating layer inception_4c/relu_5x5
I0403 15:36:27.031194 32387 net.cpp:91] Creating Layer inception_4c/relu_5x5
I0403 15:36:27.031213 32387 net.cpp:425] inception_4c/relu_5x5 <- inception_4c/5x5
I0403 15:36:27.031231 32387 net.cpp:386] inception_4c/relu_5x5 -> inception_4c/5x5 (in-place)
I0403 15:36:27.031514 32387 net.cpp:141] Setting up inception_4c/relu_5x5
I0403 15:36:27.031540 32387 net.cpp:148] Top shape: 24 64 14 14 (301056)
I0403 15:36:27.031555 32387 net.cpp:156] Memory required for data: 1050971424
I0403 15:36:27.031572 32387 layer_factory.hpp:77] Creating layer inception_4c/pool
I0403 15:36:27.031594 32387 net.cpp:91] Creating Layer inception_4c/pool
I0403 15:36:27.031611 32387 net.cpp:425] inception_4c/pool <- inception_4b/output_inception_4b/output_0_split_3
I0403 15:36:27.031630 32387 net.cpp:399] inception_4c/pool -> inception_4c/pool
I0403 15:36:27.031693 32387 net.cpp:141] Setting up inception_4c/pool
I0403 15:36:27.031718 32387 net.cpp:148] Top shape: 24 512 14 14 (2408448)
I0403 15:36:27.031733 32387 net.cpp:156] Memory required for data: 1060605216
I0403 15:36:27.031747 32387 layer_factory.hpp:77] Creating layer inception_4c/pool_proj
I0403 15:36:27.031769 32387 net.cpp:91] Creating Layer inception_4c/pool_proj
I0403 15:36:27.031787 32387 net.cpp:425] inception_4c/pool_proj <- inception_4c/pool
I0403 15:36:27.031807 32387 net.cpp:399] inception_4c/pool_proj -> inception_4c/pool_proj
I0403 15:36:27.033099 32387 net.cpp:141] Setting up inception_4c/pool_proj
I0403 15:36:27.033129 32387 net.cpp:148] Top shape: 24 64 14 14 (301056)
I0403 15:36:27.033161 32387 net.cpp:156] Memory required for data: 1061809440
I0403 15:36:27.033184 32387 layer_factory.hpp:77] Creating layer inception_4c/relu_pool_proj
I0403 15:36:27.033203 32387 net.cpp:91] Creating Layer inception_4c/relu_pool_proj
I0403 15:36:27.033221 32387 net.cpp:425] inception_4c/relu_pool_proj <- inception_4c/pool_proj
I0403 15:36:27.033243 32387 net.cpp:386] inception_4c/relu_pool_proj -> inception_4c/pool_proj (in-place)
I0403 15:36:27.033470 32387 net.cpp:141] Setting up inception_4c/relu_pool_proj
I0403 15:36:27.033509 32387 net.cpp:148] Top shape: 24 64 14 14 (301056)
I0403 15:36:27.033524 32387 net.cpp:156] Memory required for data: 1063013664
I0403 15:36:27.033540 32387 layer_factory.hpp:77] Creating layer inception_4c/output
I0403 15:36:27.033560 32387 net.cpp:91] Creating Layer inception_4c/output
I0403 15:36:27.033576 32387 net.cpp:425] inception_4c/output <- inception_4c/1x1
I0403 15:36:27.033594 32387 net.cpp:425] inception_4c/output <- inception_4c/3x3
I0403 15:36:27.033612 32387 net.cpp:425] inception_4c/output <- inception_4c/5x5
I0403 15:36:27.033627 32387 net.cpp:425] inception_4c/output <- inception_4c/pool_proj
I0403 15:36:27.033644 32387 net.cpp:399] inception_4c/output -> inception_4c/output
I0403 15:36:27.033691 32387 net.cpp:141] Setting up inception_4c/output
I0403 15:36:27.033715 32387 net.cpp:148] Top shape: 24 512 14 14 (2408448)
I0403 15:36:27.033730 32387 net.cpp:156] Memory required for data: 1072647456
I0403 15:36:27.033745 32387 layer_factory.hpp:77] Creating layer inception_4c/output_inception_4c/output_0_split
I0403 15:36:27.033761 32387 net.cpp:91] Creating Layer inception_4c/output_inception_4c/output_0_split
I0403 15:36:27.033777 32387 net.cpp:425] inception_4c/output_inception_4c/output_0_split <- inception_4c/output
I0403 15:36:27.033797 32387 net.cpp:399] inception_4c/output_inception_4c/output_0_split -> inception_4c/output_inception_4c/output_0_split_0
I0403 15:36:27.033818 32387 net.cpp:399] inception_4c/output_inception_4c/output_0_split -> inception_4c/output_inception_4c/output_0_split_1
I0403 15:36:27.033838 32387 net.cpp:399] inception_4c/output_inception_4c/output_0_split -> inception_4c/output_inception_4c/output_0_split_2
I0403 15:36:27.033857 32387 net.cpp:399] inception_4c/output_inception_4c/output_0_split -> inception_4c/output_inception_4c/output_0_split_3
I0403 15:36:27.033951 32387 net.cpp:141] Setting up inception_4c/output_inception_4c/output_0_split
I0403 15:36:27.033978 32387 net.cpp:148] Top shape: 24 512 14 14 (2408448)
I0403 15:36:27.033996 32387 net.cpp:148] Top shape: 24 512 14 14 (2408448)
I0403 15:36:27.034013 32387 net.cpp:148] Top shape: 24 512 14 14 (2408448)
I0403 15:36:27.034030 32387 net.cpp:148] Top shape: 24 512 14 14 (2408448)
I0403 15:36:27.034044 32387 net.cpp:156] Memory required for data: 1111182624
I0403 15:36:27.034060 32387 layer_factory.hpp:77] Creating layer inception_4d/1x1
I0403 15:36:27.034086 32387 net.cpp:91] Creating Layer inception_4d/1x1
I0403 15:36:27.034104 32387 net.cpp:425] inception_4d/1x1 <- inception_4c/output_inception_4c/output_0_split_0
I0403 15:36:27.034123 32387 net.cpp:399] inception_4d/1x1 -> inception_4d/1x1
I0403 15:36:27.035493 32387 net.cpp:141] Setting up inception_4d/1x1
I0403 15:36:27.035524 32387 net.cpp:148] Top shape: 24 112 14 14 (526848)
I0403 15:36:27.035542 32387 net.cpp:156] Memory required for data: 1113290016
I0403 15:36:27.035560 32387 layer_factory.hpp:77] Creating layer inception_4d/relu_1x1
I0403 15:36:27.035580 32387 net.cpp:91] Creating Layer inception_4d/relu_1x1
I0403 15:36:27.035598 32387 net.cpp:425] inception_4d/relu_1x1 <- inception_4d/1x1
I0403 15:36:27.035614 32387 net.cpp:386] inception_4d/relu_1x1 -> inception_4d/1x1 (in-place)
I0403 15:36:27.035795 32387 net.cpp:141] Setting up inception_4d/relu_1x1
I0403 15:36:27.035821 32387 net.cpp:148] Top shape: 24 112 14 14 (526848)
I0403 15:36:27.035836 32387 net.cpp:156] Memory required for data: 1115397408
I0403 15:36:27.035853 32387 layer_factory.hpp:77] Creating layer inception_4d/3x3_reduce
I0403 15:36:27.035887 32387 net.cpp:91] Creating Layer inception_4d/3x3_reduce
I0403 15:36:27.035905 32387 net.cpp:425] inception_4d/3x3_reduce <- inception_4c/output_inception_4c/output_0_split_1
I0403 15:36:27.035928 32387 net.cpp:399] inception_4d/3x3_reduce -> inception_4d/3x3_reduce
I0403 15:36:27.037456 32387 net.cpp:141] Setting up inception_4d/3x3_reduce
I0403 15:36:27.037484 32387 net.cpp:148] Top shape: 24 144 14 14 (677376)
I0403 15:36:27.037500 32387 net.cpp:156] Memory required for data: 1118106912
I0403 15:36:27.037520 32387 layer_factory.hpp:77] Creating layer inception_4d/relu_3x3_reduce
I0403 15:36:27.037541 32387 net.cpp:91] Creating Layer inception_4d/relu_3x3_reduce
I0403 15:36:27.037560 32387 net.cpp:425] inception_4d/relu_3x3_reduce <- inception_4d/3x3_reduce
I0403 15:36:27.037580 32387 net.cpp:386] inception_4d/relu_3x3_reduce -> inception_4d/3x3_reduce (in-place)
I0403 15:36:27.037858 32387 net.cpp:141] Setting up inception_4d/relu_3x3_reduce
I0403 15:36:27.037883 32387 net.cpp:148] Top shape: 24 144 14 14 (677376)
I0403 15:36:27.037899 32387 net.cpp:156] Memory required for data: 1120816416
I0403 15:36:27.037914 32387 layer_factory.hpp:77] Creating layer inception_4d/3x3
I0403 15:36:27.037940 32387 net.cpp:91] Creating Layer inception_4d/3x3
I0403 15:36:27.037957 32387 net.cpp:425] inception_4d/3x3 <- inception_4d/3x3_reduce
I0403 15:36:27.037976 32387 net.cpp:399] inception_4d/3x3 -> inception_4d/3x3
I0403 15:36:27.042423 32387 net.cpp:141] Setting up inception_4d/3x3
I0403 15:36:27.042455 32387 net.cpp:148] Top shape: 24 288 14 14 (1354752)
I0403 15:36:27.042474 32387 net.cpp:156] Memory required for data: 1126235424
I0403 15:36:27.042496 32387 layer_factory.hpp:77] Creating layer inception_4d/relu_3x3
I0403 15:36:27.042515 32387 net.cpp:91] Creating Layer inception_4d/relu_3x3
I0403 15:36:27.042531 32387 net.cpp:425] inception_4d/relu_3x3 <- inception_4d/3x3
I0403 15:36:27.042551 32387 net.cpp:386] inception_4d/relu_3x3 -> inception_4d/3x3 (in-place)
I0403 15:36:27.042739 32387 net.cpp:141] Setting up inception_4d/relu_3x3
I0403 15:36:27.042767 32387 net.cpp:148] Top shape: 24 288 14 14 (1354752)
I0403 15:36:27.042781 32387 net.cpp:156] Memory required for data: 1131654432
I0403 15:36:27.042798 32387 layer_factory.hpp:77] Creating layer inception_4d/5x5_reduce
I0403 15:36:27.042820 32387 net.cpp:91] Creating Layer inception_4d/5x5_reduce
I0403 15:36:27.042840 32387 net.cpp:425] inception_4d/5x5_reduce <- inception_4c/output_inception_4c/output_0_split_2
I0403 15:36:27.042860 32387 net.cpp:399] inception_4d/5x5_reduce -> inception_4d/5x5_reduce
I0403 15:36:27.044011 32387 net.cpp:141] Setting up inception_4d/5x5_reduce
I0403 15:36:27.044042 32387 net.cpp:148] Top shape: 24 32 14 14 (150528)
I0403 15:36:27.044059 32387 net.cpp:156] Memory required for data: 1132256544
I0403 15:36:27.044080 32387 layer_factory.hpp:77] Creating layer inception_4d/relu_5x5_reduce
I0403 15:36:27.044100 32387 net.cpp:91] Creating Layer inception_4d/relu_5x5_reduce
I0403 15:36:27.044117 32387 net.cpp:425] inception_4d/relu_5x5_reduce <- inception_4d/5x5_reduce
I0403 15:36:27.044137 32387 net.cpp:386] inception_4d/relu_5x5_reduce -> inception_4d/5x5_reduce (in-place)
I0403 15:36:27.044340 32387 net.cpp:141] Setting up inception_4d/relu_5x5_reduce
I0403 15:36:27.044368 32387 net.cpp:148] Top shape: 24 32 14 14 (150528)
I0403 15:36:27.044384 32387 net.cpp:156] Memory required for data: 1132858656
I0403 15:36:27.044399 32387 layer_factory.hpp:77] Creating layer inception_4d/5x5
I0403 15:36:27.044422 32387 net.cpp:91] Creating Layer inception_4d/5x5
I0403 15:36:27.044440 32387 net.cpp:425] inception_4d/5x5 <- inception_4d/5x5_reduce
I0403 15:36:27.044461 32387 net.cpp:399] inception_4d/5x5 -> inception_4d/5x5
I0403 15:36:27.045961 32387 net.cpp:141] Setting up inception_4d/5x5
I0403 15:36:27.045990 32387 net.cpp:148] Top shape: 24 64 14 14 (301056)
I0403 15:36:27.046007 32387 net.cpp:156] Memory required for data: 1134062880
I0403 15:36:27.046027 32387 layer_factory.hpp:77] Creating layer inception_4d/relu_5x5
I0403 15:36:27.046064 32387 net.cpp:91] Creating Layer inception_4d/relu_5x5
I0403 15:36:27.046083 32387 net.cpp:425] inception_4d/relu_5x5 <- inception_4d/5x5
I0403 15:36:27.046102 32387 net.cpp:386] inception_4d/relu_5x5 -> inception_4d/5x5 (in-place)
I0403 15:36:27.046411 32387 net.cpp:141] Setting up inception_4d/relu_5x5
I0403 15:36:27.046438 32387 net.cpp:148] Top shape: 24 64 14 14 (301056)
I0403 15:36:27.046454 32387 net.cpp:156] Memory required for data: 1135267104
I0403 15:36:27.046484 32387 layer_factory.hpp:77] Creating layer inception_4d/pool
I0403 15:36:27.046505 32387 net.cpp:91] Creating Layer inception_4d/pool
I0403 15:36:27.046522 32387 net.cpp:425] inception_4d/pool <- inception_4c/output_inception_4c/output_0_split_3
I0403 15:36:27.046541 32387 net.cpp:399] inception_4d/pool -> inception_4d/pool
I0403 15:36:27.046612 32387 net.cpp:141] Setting up inception_4d/pool
I0403 15:36:27.046638 32387 net.cpp:148] Top shape: 24 512 14 14 (2408448)
I0403 15:36:27.046654 32387 net.cpp:156] Memory required for data: 1144900896
I0403 15:36:27.046669 32387 layer_factory.hpp:77] Creating layer inception_4d/pool_proj
I0403 15:36:27.046692 32387 net.cpp:91] Creating Layer inception_4d/pool_proj
I0403 15:36:27.046711 32387 net.cpp:425] inception_4d/pool_proj <- inception_4d/pool
I0403 15:36:27.046733 32387 net.cpp:399] inception_4d/pool_proj -> inception_4d/pool_proj
I0403 15:36:27.048611 32387 net.cpp:141] Setting up inception_4d/pool_proj
I0403 15:36:27.048645 32387 net.cpp:148] Top shape: 24 64 14 14 (301056)
I0403 15:36:27.048663 32387 net.cpp:156] Memory required for data: 1146105120
I0403 15:36:27.048683 32387 layer_factory.hpp:77] Creating layer inception_4d/relu_pool_proj
I0403 15:36:27.048703 32387 net.cpp:91] Creating Layer inception_4d/relu_pool_proj
I0403 15:36:27.048732 32387 net.cpp:425] inception_4d/relu_pool_proj <- inception_4d/pool_proj
I0403 15:36:27.048754 32387 net.cpp:386] inception_4d/relu_pool_proj -> inception_4d/pool_proj (in-place)
I0403 15:36:27.048957 32387 net.cpp:141] Setting up inception_4d/relu_pool_proj
I0403 15:36:27.048985 32387 net.cpp:148] Top shape: 24 64 14 14 (301056)
I0403 15:36:27.049000 32387 net.cpp:156] Memory required for data: 1147309344
I0403 15:36:27.049015 32387 layer_factory.hpp:77] Creating layer inception_4d/output
I0403 15:36:27.049033 32387 net.cpp:91] Creating Layer inception_4d/output
I0403 15:36:27.049051 32387 net.cpp:425] inception_4d/output <- inception_4d/1x1
I0403 15:36:27.049068 32387 net.cpp:425] inception_4d/output <- inception_4d/3x3
I0403 15:36:27.049085 32387 net.cpp:425] inception_4d/output <- inception_4d/5x5
I0403 15:36:27.049103 32387 net.cpp:425] inception_4d/output <- inception_4d/pool_proj
I0403 15:36:27.049123 32387 net.cpp:399] inception_4d/output -> inception_4d/output
I0403 15:36:27.049171 32387 net.cpp:141] Setting up inception_4d/output
I0403 15:36:27.049197 32387 net.cpp:148] Top shape: 24 528 14 14 (2483712)
I0403 15:36:27.049213 32387 net.cpp:156] Memory required for data: 1157244192
I0403 15:36:27.049229 32387 layer_factory.hpp:77] Creating layer inception_4d/output_inception_4d/output_0_split
I0403 15:36:27.049247 32387 net.cpp:91] Creating Layer inception_4d/output_inception_4d/output_0_split
I0403 15:36:27.049263 32387 net.cpp:425] inception_4d/output_inception_4d/output_0_split <- inception_4d/output
I0403 15:36:27.049289 32387 net.cpp:399] inception_4d/output_inception_4d/output_0_split -> inception_4d/output_inception_4d/output_0_split_0
I0403 15:36:27.049314 32387 net.cpp:399] inception_4d/output_inception_4d/output_0_split -> inception_4d/output_inception_4d/output_0_split_1
I0403 15:36:27.049350 32387 net.cpp:399] inception_4d/output_inception_4d/output_0_split -> inception_4d/output_inception_4d/output_0_split_2
I0403 15:36:27.049373 32387 net.cpp:399] inception_4d/output_inception_4d/output_0_split -> inception_4d/output_inception_4d/output_0_split_3
I0403 15:36:27.049393 32387 net.cpp:399] inception_4d/output_inception_4d/output_0_split -> inception_4d/output_inception_4d/output_0_split_4
I0403 15:36:27.049499 32387 net.cpp:141] Setting up inception_4d/output_inception_4d/output_0_split
I0403 15:36:27.049543 32387 net.cpp:148] Top shape: 24 528 14 14 (2483712)
I0403 15:36:27.049562 32387 net.cpp:148] Top shape: 24 528 14 14 (2483712)
I0403 15:36:27.049582 32387 net.cpp:148] Top shape: 24 528 14 14 (2483712)
I0403 15:36:27.049598 32387 net.cpp:148] Top shape: 24 528 14 14 (2483712)
I0403 15:36:27.049615 32387 net.cpp:148] Top shape: 24 528 14 14 (2483712)
I0403 15:36:27.049630 32387 net.cpp:156] Memory required for data: 1206918432
I0403 15:36:27.049648 32387 layer_factory.hpp:77] Creating layer loss2/ave_pool
I0403 15:36:27.049665 32387 net.cpp:91] Creating Layer loss2/ave_pool
I0403 15:36:27.049684 32387 net.cpp:425] loss2/ave_pool <- inception_4d/output_inception_4d/output_0_split_0
I0403 15:36:27.049703 32387 net.cpp:399] loss2/ave_pool -> loss2/ave_pool
I0403 15:36:27.050031 32387 net.cpp:141] Setting up loss2/ave_pool
I0403 15:36:27.050061 32387 net.cpp:148] Top shape: 24 528 4 4 (202752)
I0403 15:36:27.050077 32387 net.cpp:156] Memory required for data: 1207729440
I0403 15:36:27.050093 32387 layer_factory.hpp:77] Creating layer loss2/conv
I0403 15:36:27.050117 32387 net.cpp:91] Creating Layer loss2/conv
I0403 15:36:27.050135 32387 net.cpp:425] loss2/conv <- loss2/ave_pool
I0403 15:36:27.050156 32387 net.cpp:399] loss2/conv -> loss2/conv
I0403 15:36:27.052125 32387 net.cpp:141] Setting up loss2/conv
I0403 15:36:27.052155 32387 net.cpp:148] Top shape: 24 128 4 4 (49152)
I0403 15:36:27.052171 32387 net.cpp:156] Memory required for data: 1207926048
I0403 15:36:27.052191 32387 layer_factory.hpp:77] Creating layer loss2/relu_conv
I0403 15:36:27.052213 32387 net.cpp:91] Creating Layer loss2/relu_conv
I0403 15:36:27.052232 32387 net.cpp:425] loss2/relu_conv <- loss2/conv
I0403 15:36:27.052251 32387 net.cpp:386] loss2/relu_conv -> loss2/conv (in-place)
I0403 15:36:27.052542 32387 net.cpp:141] Setting up loss2/relu_conv
I0403 15:36:27.052569 32387 net.cpp:148] Top shape: 24 128 4 4 (49152)
I0403 15:36:27.052585 32387 net.cpp:156] Memory required for data: 1208122656
I0403 15:36:27.052602 32387 layer_factory.hpp:77] Creating layer loss2/fc
I0403 15:36:27.052626 32387 net.cpp:91] Creating Layer loss2/fc
I0403 15:36:27.052656 32387 net.cpp:425] loss2/fc <- loss2/conv
I0403 15:36:27.052676 32387 net.cpp:399] loss2/fc -> loss2/fc
I0403 15:36:27.070957 32387 net.cpp:141] Setting up loss2/fc
I0403 15:36:27.070989 32387 net.cpp:148] Top shape: 24 1024 (24576)
I0403 15:36:27.071004 32387 net.cpp:156] Memory required for data: 1208220960
I0403 15:36:27.071025 32387 layer_factory.hpp:77] Creating layer loss2/relu_fc
I0403 15:36:27.071044 32387 net.cpp:91] Creating Layer loss2/relu_fc
I0403 15:36:27.071061 32387 net.cpp:425] loss2/relu_fc <- loss2/fc
I0403 15:36:27.071081 32387 net.cpp:386] loss2/relu_fc -> loss2/fc (in-place)
I0403 15:36:27.071378 32387 net.cpp:141] Setting up loss2/relu_fc
I0403 15:36:27.071404 32387 net.cpp:148] Top shape: 24 1024 (24576)
I0403 15:36:27.071432 32387 net.cpp:156] Memory required for data: 1208319264
I0403 15:36:27.071450 32387 layer_factory.hpp:77] Creating layer loss2/drop_fc
I0403 15:36:27.071470 32387 net.cpp:91] Creating Layer loss2/drop_fc
I0403 15:36:27.071486 32387 net.cpp:425] loss2/drop_fc <- loss2/fc
I0403 15:36:27.071507 32387 net.cpp:386] loss2/drop_fc -> loss2/fc (in-place)
I0403 15:36:27.071570 32387 net.cpp:141] Setting up loss2/drop_fc
I0403 15:36:27.071598 32387 net.cpp:148] Top shape: 24 1024 (24576)
I0403 15:36:27.071615 32387 net.cpp:156] Memory required for data: 1208417568
I0403 15:36:27.071632 32387 layer_factory.hpp:77] Creating layer loss2/classifier_plantvillage
I0403 15:36:27.071651 32387 net.cpp:91] Creating Layer loss2/classifier_plantvillage
I0403 15:36:27.071668 32387 net.cpp:425] loss2/classifier_plantvillage <- loss2/fc
I0403 15:36:27.071691 32387 net.cpp:399] loss2/classifier_plantvillage -> loss2/classifier_plantvillage
I0403 15:36:27.072147 32387 net.cpp:141] Setting up loss2/classifier_plantvillage
I0403 15:36:27.072173 32387 net.cpp:148] Top shape: 24 38 (912)
I0403 15:36:27.072187 32387 net.cpp:156] Memory required for data: 1208421216
I0403 15:36:27.072222 32387 layer_factory.hpp:77] Creating layer loss2/classifier_plantvillage_loss2/classifier_plantvillage_0_split
I0403 15:36:27.072244 32387 net.cpp:91] Creating Layer loss2/classifier_plantvillage_loss2/classifier_plantvillage_0_split
I0403 15:36:27.072263 32387 net.cpp:425] loss2/classifier_plantvillage_loss2/classifier_plantvillage_0_split <- loss2/classifier_plantvillage
I0403 15:36:27.072281 32387 net.cpp:399] loss2/classifier_plantvillage_loss2/classifier_plantvillage_0_split -> loss2/classifier_plantvillage_loss2/classifier_plantvillage_0_split_0
I0403 15:36:27.072307 32387 net.cpp:399] loss2/classifier_plantvillage_loss2/classifier_plantvillage_0_split -> loss2/classifier_plantvillage_loss2/classifier_plantvillage_0_split_1
I0403 15:36:27.072329 32387 net.cpp:399] loss2/classifier_plantvillage_loss2/classifier_plantvillage_0_split -> loss2/classifier_plantvillage_loss2/classifier_plantvillage_0_split_2
I0403 15:36:27.072408 32387 net.cpp:141] Setting up loss2/classifier_plantvillage_loss2/classifier_plantvillage_0_split
I0403 15:36:27.072432 32387 net.cpp:148] Top shape: 24 38 (912)
I0403 15:36:27.072448 32387 net.cpp:148] Top shape: 24 38 (912)
I0403 15:36:27.072463 32387 net.cpp:148] Top shape: 24 38 (912)
I0403 15:36:27.072479 32387 net.cpp:156] Memory required for data: 1208432160
I0403 15:36:27.072494 32387 layer_factory.hpp:77] Creating layer inception_4e/1x1
I0403 15:36:27.072515 32387 net.cpp:91] Creating Layer inception_4e/1x1
I0403 15:36:27.072533 32387 net.cpp:425] inception_4e/1x1 <- inception_4d/output_inception_4d/output_0_split_1
I0403 15:36:27.072553 32387 net.cpp:399] inception_4e/1x1 -> inception_4e/1x1
I0403 15:36:27.074378 32387 net.cpp:141] Setting up inception_4e/1x1
I0403 15:36:27.074406 32387 net.cpp:148] Top shape: 24 256 14 14 (1204224)
I0403 15:36:27.074422 32387 net.cpp:156] Memory required for data: 1213249056
I0403 15:36:27.074442 32387 layer_factory.hpp:77] Creating layer inception_4e/relu_1x1
I0403 15:36:27.074462 32387 net.cpp:91] Creating Layer inception_4e/relu_1x1
I0403 15:36:27.074479 32387 net.cpp:425] inception_4e/relu_1x1 <- inception_4e/1x1
I0403 15:36:27.074501 32387 net.cpp:386] inception_4e/relu_1x1 -> inception_4e/1x1 (in-place)
I0403 15:36:27.074792 32387 net.cpp:141] Setting up inception_4e/relu_1x1
I0403 15:36:27.074820 32387 net.cpp:148] Top shape: 24 256 14 14 (1204224)
I0403 15:36:27.074834 32387 net.cpp:156] Memory required for data: 1218065952
I0403 15:36:27.074849 32387 layer_factory.hpp:77] Creating layer inception_4e/3x3_reduce
I0403 15:36:27.074872 32387 net.cpp:91] Creating Layer inception_4e/3x3_reduce
I0403 15:36:27.074890 32387 net.cpp:425] inception_4e/3x3_reduce <- inception_4d/output_inception_4d/output_0_split_2
I0403 15:36:27.074913 32387 net.cpp:399] inception_4e/3x3_reduce -> inception_4e/3x3_reduce
I0403 15:36:27.077088 32387 net.cpp:141] Setting up inception_4e/3x3_reduce
I0403 15:36:27.077118 32387 net.cpp:148] Top shape: 24 160 14 14 (752640)
I0403 15:36:27.077136 32387 net.cpp:156] Memory required for data: 1221076512
I0403 15:36:27.077155 32387 layer_factory.hpp:77] Creating layer inception_4e/relu_3x3_reduce
I0403 15:36:27.077178 32387 net.cpp:91] Creating Layer inception_4e/relu_3x3_reduce
I0403 15:36:27.077195 32387 net.cpp:425] inception_4e/relu_3x3_reduce <- inception_4e/3x3_reduce
I0403 15:36:27.077214 32387 net.cpp:386] inception_4e/relu_3x3_reduce -> inception_4e/3x3_reduce (in-place)
I0403 15:36:27.077416 32387 net.cpp:141] Setting up inception_4e/relu_3x3_reduce
I0403 15:36:27.077441 32387 net.cpp:148] Top shape: 24 160 14 14 (752640)
I0403 15:36:27.077472 32387 net.cpp:156] Memory required for data: 1224087072
I0403 15:36:27.077489 32387 layer_factory.hpp:77] Creating layer inception_4e/3x3
I0403 15:36:27.077510 32387 net.cpp:91] Creating Layer inception_4e/3x3
I0403 15:36:27.077528 32387 net.cpp:425] inception_4e/3x3 <- inception_4e/3x3_reduce
I0403 15:36:27.077550 32387 net.cpp:399] inception_4e/3x3 -> inception_4e/3x3
I0403 15:36:27.082762 32387 net.cpp:141] Setting up inception_4e/3x3
I0403 15:36:27.082803 32387 net.cpp:148] Top shape: 24 320 14 14 (1505280)
I0403 15:36:27.082824 32387 net.cpp:156] Memory required for data: 1230108192
I0403 15:36:27.082856 32387 layer_factory.hpp:77] Creating layer inception_4e/relu_3x3
I0403 15:36:27.082875 32387 net.cpp:91] Creating Layer inception_4e/relu_3x3
I0403 15:36:27.082890 32387 net.cpp:425] inception_4e/relu_3x3 <- inception_4e/3x3
I0403 15:36:27.082908 32387 net.cpp:386] inception_4e/relu_3x3 -> inception_4e/3x3 (in-place)
I0403 15:36:27.083202 32387 net.cpp:141] Setting up inception_4e/relu_3x3
I0403 15:36:27.083230 32387 net.cpp:148] Top shape: 24 320 14 14 (1505280)
I0403 15:36:27.083247 32387 net.cpp:156] Memory required for data: 1236129312
I0403 15:36:27.083277 32387 layer_factory.hpp:77] Creating layer inception_4e/5x5_reduce
I0403 15:36:27.083314 32387 net.cpp:91] Creating Layer inception_4e/5x5_reduce
I0403 15:36:27.083334 32387 net.cpp:425] inception_4e/5x5_reduce <- inception_4d/output_inception_4d/output_0_split_3
I0403 15:36:27.083354 32387 net.cpp:399] inception_4e/5x5_reduce -> inception_4e/5x5_reduce
I0403 15:36:27.084527 32387 net.cpp:141] Setting up inception_4e/5x5_reduce
I0403 15:36:27.084558 32387 net.cpp:148] Top shape: 24 32 14 14 (150528)
I0403 15:36:27.084573 32387 net.cpp:156] Memory required for data: 1236731424
I0403 15:36:27.084592 32387 layer_factory.hpp:77] Creating layer inception_4e/relu_5x5_reduce
I0403 15:36:27.084614 32387 net.cpp:91] Creating Layer inception_4e/relu_5x5_reduce
I0403 15:36:27.084631 32387 net.cpp:425] inception_4e/relu_5x5_reduce <- inception_4e/5x5_reduce
I0403 15:36:27.084650 32387 net.cpp:386] inception_4e/relu_5x5_reduce -> inception_4e/5x5_reduce (in-place)
I0403 15:36:27.084976 32387 net.cpp:141] Setting up inception_4e/relu_5x5_reduce
I0403 15:36:27.085003 32387 net.cpp:148] Top shape: 24 32 14 14 (150528)
I0403 15:36:27.085019 32387 net.cpp:156] Memory required for data: 1237333536
I0403 15:36:27.085036 32387 layer_factory.hpp:77] Creating layer inception_4e/5x5
I0403 15:36:27.085075 32387 net.cpp:91] Creating Layer inception_4e/5x5
I0403 15:36:27.085095 32387 net.cpp:425] inception_4e/5x5 <- inception_4e/5x5_reduce
I0403 15:36:27.085115 32387 net.cpp:399] inception_4e/5x5 -> inception_4e/5x5
I0403 15:36:27.086977 32387 net.cpp:141] Setting up inception_4e/5x5
I0403 15:36:27.087007 32387 net.cpp:148] Top shape: 24 128 14 14 (602112)
I0403 15:36:27.087024 32387 net.cpp:156] Memory required for data: 1239741984
I0403 15:36:27.087050 32387 layer_factory.hpp:77] Creating layer inception_4e/relu_5x5
I0403 15:36:27.087069 32387 net.cpp:91] Creating Layer inception_4e/relu_5x5
I0403 15:36:27.087087 32387 net.cpp:425] inception_4e/relu_5x5 <- inception_4e/5x5
I0403 15:36:27.087108 32387 net.cpp:386] inception_4e/relu_5x5 -> inception_4e/5x5 (in-place)
I0403 15:36:27.087334 32387 net.cpp:141] Setting up inception_4e/relu_5x5
I0403 15:36:27.087360 32387 net.cpp:148] Top shape: 24 128 14 14 (602112)
I0403 15:36:27.087374 32387 net.cpp:156] Memory required for data: 1242150432
I0403 15:36:27.087390 32387 layer_factory.hpp:77] Creating layer inception_4e/pool
I0403 15:36:27.087410 32387 net.cpp:91] Creating Layer inception_4e/pool
I0403 15:36:27.087427 32387 net.cpp:425] inception_4e/pool <- inception_4d/output_inception_4d/output_0_split_4
I0403 15:36:27.087447 32387 net.cpp:399] inception_4e/pool -> inception_4e/pool
I0403 15:36:27.087517 32387 net.cpp:141] Setting up inception_4e/pool
I0403 15:36:27.087540 32387 net.cpp:148] Top shape: 24 528 14 14 (2483712)
I0403 15:36:27.087555 32387 net.cpp:156] Memory required for data: 1252085280
I0403 15:36:27.087573 32387 layer_factory.hpp:77] Creating layer inception_4e/pool_proj
I0403 15:36:27.087594 32387 net.cpp:91] Creating Layer inception_4e/pool_proj
I0403 15:36:27.087613 32387 net.cpp:425] inception_4e/pool_proj <- inception_4e/pool
I0403 15:36:27.087635 32387 net.cpp:399] inception_4e/pool_proj -> inception_4e/pool_proj
I0403 15:36:27.089210 32387 net.cpp:141] Setting up inception_4e/pool_proj
I0403 15:36:27.089241 32387 net.cpp:148] Top shape: 24 128 14 14 (602112)
I0403 15:36:27.089270 32387 net.cpp:156] Memory required for data: 1254493728
I0403 15:36:27.089295 32387 layer_factory.hpp:77] Creating layer inception_4e/relu_pool_proj
I0403 15:36:27.089315 32387 net.cpp:91] Creating Layer inception_4e/relu_pool_proj
I0403 15:36:27.089334 32387 net.cpp:425] inception_4e/relu_pool_proj <- inception_4e/pool_proj
I0403 15:36:27.089352 32387 net.cpp:386] inception_4e/relu_pool_proj -> inception_4e/pool_proj (in-place)
I0403 15:36:27.089635 32387 net.cpp:141] Setting up inception_4e/relu_pool_proj
I0403 15:36:27.089664 32387 net.cpp:148] Top shape: 24 128 14 14 (602112)
I0403 15:36:27.089679 32387 net.cpp:156] Memory required for data: 1256902176
I0403 15:36:27.089695 32387 layer_factory.hpp:77] Creating layer inception_4e/output
I0403 15:36:27.089714 32387 net.cpp:91] Creating Layer inception_4e/output
I0403 15:36:27.089730 32387 net.cpp:425] inception_4e/output <- inception_4e/1x1
I0403 15:36:27.089745 32387 net.cpp:425] inception_4e/output <- inception_4e/3x3
I0403 15:36:27.089762 32387 net.cpp:425] inception_4e/output <- inception_4e/5x5
I0403 15:36:27.089778 32387 net.cpp:425] inception_4e/output <- inception_4e/pool_proj
I0403 15:36:27.089799 32387 net.cpp:399] inception_4e/output -> inception_4e/output
I0403 15:36:27.089849 32387 net.cpp:141] Setting up inception_4e/output
I0403 15:36:27.089872 32387 net.cpp:148] Top shape: 24 832 14 14 (3913728)
I0403 15:36:27.089887 32387 net.cpp:156] Memory required for data: 1272557088
I0403 15:36:27.089902 32387 layer_factory.hpp:77] Creating layer pool4/3x3_s2
I0403 15:36:27.089923 32387 net.cpp:91] Creating Layer pool4/3x3_s2
I0403 15:36:27.089941 32387 net.cpp:425] pool4/3x3_s2 <- inception_4e/output
I0403 15:36:27.089959 32387 net.cpp:399] pool4/3x3_s2 -> pool4/3x3_s2
I0403 15:36:27.090028 32387 net.cpp:141] Setting up pool4/3x3_s2
I0403 15:36:27.090054 32387 net.cpp:148] Top shape: 24 832 7 7 (978432)
I0403 15:36:27.090068 32387 net.cpp:156] Memory required for data: 1276470816
I0403 15:36:27.090083 32387 layer_factory.hpp:77] Creating layer pool4/3x3_s2_pool4/3x3_s2_0_split
I0403 15:36:27.090101 32387 net.cpp:91] Creating Layer pool4/3x3_s2_pool4/3x3_s2_0_split
I0403 15:36:27.090116 32387 net.cpp:425] pool4/3x3_s2_pool4/3x3_s2_0_split <- pool4/3x3_s2
I0403 15:36:27.090137 32387 net.cpp:399] pool4/3x3_s2_pool4/3x3_s2_0_split -> pool4/3x3_s2_pool4/3x3_s2_0_split_0
I0403 15:36:27.090157 32387 net.cpp:399] pool4/3x3_s2_pool4/3x3_s2_0_split -> pool4/3x3_s2_pool4/3x3_s2_0_split_1
I0403 15:36:27.090178 32387 net.cpp:399] pool4/3x3_s2_pool4/3x3_s2_0_split -> pool4/3x3_s2_pool4/3x3_s2_0_split_2
I0403 15:36:27.090198 32387 net.cpp:399] pool4/3x3_s2_pool4/3x3_s2_0_split -> pool4/3x3_s2_pool4/3x3_s2_0_split_3
I0403 15:36:27.090291 32387 net.cpp:141] Setting up pool4/3x3_s2_pool4/3x3_s2_0_split
I0403 15:36:27.090317 32387 net.cpp:148] Top shape: 24 832 7 7 (978432)
I0403 15:36:27.090333 32387 net.cpp:148] Top shape: 24 832 7 7 (978432)
I0403 15:36:27.090348 32387 net.cpp:148] Top shape: 24 832 7 7 (978432)
I0403 15:36:27.090365 32387 net.cpp:148] Top shape: 24 832 7 7 (978432)
I0403 15:36:27.090380 32387 net.cpp:156] Memory required for data: 1292125728
I0403 15:36:27.090395 32387 layer_factory.hpp:77] Creating layer inception_5a/1x1
I0403 15:36:27.090417 32387 net.cpp:91] Creating Layer inception_5a/1x1
I0403 15:36:27.090435 32387 net.cpp:425] inception_5a/1x1 <- pool4/3x3_s2_pool4/3x3_s2_0_split_0
I0403 15:36:27.090456 32387 net.cpp:399] inception_5a/1x1 -> inception_5a/1x1
I0403 15:36:27.093405 32387 net.cpp:141] Setting up inception_5a/1x1
I0403 15:36:27.093433 32387 net.cpp:148] Top shape: 24 256 7 7 (301056)
I0403 15:36:27.093449 32387 net.cpp:156] Memory required for data: 1293329952
I0403 15:36:27.093469 32387 layer_factory.hpp:77] Creating layer inception_5a/relu_1x1
I0403 15:36:27.093487 32387 net.cpp:91] Creating Layer inception_5a/relu_1x1
I0403 15:36:27.093502 32387 net.cpp:425] inception_5a/relu_1x1 <- inception_5a/1x1
I0403 15:36:27.093521 32387 net.cpp:386] inception_5a/relu_1x1 -> inception_5a/1x1 (in-place)
I0403 15:36:27.093832 32387 net.cpp:141] Setting up inception_5a/relu_1x1
I0403 15:36:27.093858 32387 net.cpp:148] Top shape: 24 256 7 7 (301056)
I0403 15:36:27.093873 32387 net.cpp:156] Memory required for data: 1294534176
I0403 15:36:27.093889 32387 layer_factory.hpp:77] Creating layer inception_5a/3x3_reduce
I0403 15:36:27.093912 32387 net.cpp:91] Creating Layer inception_5a/3x3_reduce
I0403 15:36:27.093931 32387 net.cpp:425] inception_5a/3x3_reduce <- pool4/3x3_s2_pool4/3x3_s2_0_split_1
I0403 15:36:27.093964 32387 net.cpp:399] inception_5a/3x3_reduce -> inception_5a/3x3_reduce
I0403 15:36:27.096482 32387 net.cpp:141] Setting up inception_5a/3x3_reduce
I0403 15:36:27.096513 32387 net.cpp:148] Top shape: 24 160 7 7 (188160)
I0403 15:36:27.096531 32387 net.cpp:156] Memory required for data: 1295286816
I0403 15:36:27.096563 32387 layer_factory.hpp:77] Creating layer inception_5a/relu_3x3_reduce
I0403 15:36:27.096583 32387 net.cpp:91] Creating Layer inception_5a/relu_3x3_reduce
I0403 15:36:27.096601 32387 net.cpp:425] inception_5a/relu_3x3_reduce <- inception_5a/3x3_reduce
I0403 15:36:27.096623 32387 net.cpp:386] inception_5a/relu_3x3_reduce -> inception_5a/3x3_reduce (in-place)
I0403 15:36:27.096840 32387 net.cpp:141] Setting up inception_5a/relu_3x3_reduce
I0403 15:36:27.096864 32387 net.cpp:148] Top shape: 24 160 7 7 (188160)
I0403 15:36:27.096879 32387 net.cpp:156] Memory required for data: 1296039456
I0403 15:36:27.096895 32387 layer_factory.hpp:77] Creating layer inception_5a/3x3
I0403 15:36:27.096920 32387 net.cpp:91] Creating Layer inception_5a/3x3
I0403 15:36:27.096937 32387 net.cpp:425] inception_5a/3x3 <- inception_5a/3x3_reduce
I0403 15:36:27.096961 32387 net.cpp:399] inception_5a/3x3 -> inception_5a/3x3
I0403 15:36:27.102095 32387 net.cpp:141] Setting up inception_5a/3x3
I0403 15:36:27.102126 32387 net.cpp:148] Top shape: 24 320 7 7 (376320)
I0403 15:36:27.102144 32387 net.cpp:156] Memory required for data: 1297544736
I0403 15:36:27.102164 32387 layer_factory.hpp:77] Creating layer inception_5a/relu_3x3
I0403 15:36:27.102182 32387 net.cpp:91] Creating Layer inception_5a/relu_3x3
I0403 15:36:27.102203 32387 net.cpp:425] inception_5a/relu_3x3 <- inception_5a/3x3
I0403 15:36:27.102222 32387 net.cpp:386] inception_5a/relu_3x3 -> inception_5a/3x3 (in-place)
I0403 15:36:27.102525 32387 net.cpp:141] Setting up inception_5a/relu_3x3
I0403 15:36:27.102552 32387 net.cpp:148] Top shape: 24 320 7 7 (376320)
I0403 15:36:27.102569 32387 net.cpp:156] Memory required for data: 1299050016
I0403 15:36:27.102586 32387 layer_factory.hpp:77] Creating layer inception_5a/5x5_reduce
I0403 15:36:27.102613 32387 net.cpp:91] Creating Layer inception_5a/5x5_reduce
I0403 15:36:27.102633 32387 net.cpp:425] inception_5a/5x5_reduce <- pool4/3x3_s2_pool4/3x3_s2_0_split_2
I0403 15:36:27.102654 32387 net.cpp:399] inception_5a/5x5_reduce -> inception_5a/5x5_reduce
I0403 15:36:27.103840 32387 net.cpp:141] Setting up inception_5a/5x5_reduce
I0403 15:36:27.103870 32387 net.cpp:148] Top shape: 24 32 7 7 (37632)
I0403 15:36:27.103888 32387 net.cpp:156] Memory required for data: 1299200544
I0403 15:36:27.103909 32387 layer_factory.hpp:77] Creating layer inception_5a/relu_5x5_reduce
I0403 15:36:27.103929 32387 net.cpp:91] Creating Layer inception_5a/relu_5x5_reduce
I0403 15:36:27.103948 32387 net.cpp:425] inception_5a/relu_5x5_reduce <- inception_5a/5x5_reduce
I0403 15:36:27.103966 32387 net.cpp:386] inception_5a/relu_5x5_reduce -> inception_5a/5x5_reduce (in-place)
I0403 15:36:27.104270 32387 net.cpp:141] Setting up inception_5a/relu_5x5_reduce
I0403 15:36:27.104307 32387 net.cpp:148] Top shape: 24 32 7 7 (37632)
I0403 15:36:27.104326 32387 net.cpp:156] Memory required for data: 1299351072
I0403 15:36:27.104342 32387 layer_factory.hpp:77] Creating layer inception_5a/5x5
I0403 15:36:27.104379 32387 net.cpp:91] Creating Layer inception_5a/5x5
I0403 15:36:27.104399 32387 net.cpp:425] inception_5a/5x5 <- inception_5a/5x5_reduce
I0403 15:36:27.104421 32387 net.cpp:399] inception_5a/5x5 -> inception_5a/5x5
I0403 15:36:27.106214 32387 net.cpp:141] Setting up inception_5a/5x5
I0403 15:36:27.106254 32387 net.cpp:148] Top shape: 24 128 7 7 (150528)
I0403 15:36:27.106271 32387 net.cpp:156] Memory required for data: 1299953184
I0403 15:36:27.106295 32387 layer_factory.hpp:77] Creating layer inception_5a/relu_5x5
I0403 15:36:27.106315 32387 net.cpp:91] Creating Layer inception_5a/relu_5x5
I0403 15:36:27.106336 32387 net.cpp:425] inception_5a/relu_5x5 <- inception_5a/5x5
I0403 15:36:27.106355 32387 net.cpp:386] inception_5a/relu_5x5 -> inception_5a/5x5 (in-place)
I0403 15:36:27.106580 32387 net.cpp:141] Setting up inception_5a/relu_5x5
I0403 15:36:27.106606 32387 net.cpp:148] Top shape: 24 128 7 7 (150528)
I0403 15:36:27.106623 32387 net.cpp:156] Memory required for data: 1300555296
I0403 15:36:27.106639 32387 layer_factory.hpp:77] Creating layer inception_5a/pool
I0403 15:36:27.106662 32387 net.cpp:91] Creating Layer inception_5a/pool
I0403 15:36:27.106680 32387 net.cpp:425] inception_5a/pool <- pool4/3x3_s2_pool4/3x3_s2_0_split_3
I0403 15:36:27.106701 32387 net.cpp:399] inception_5a/pool -> inception_5a/pool
I0403 15:36:27.106783 32387 net.cpp:141] Setting up inception_5a/pool
I0403 15:36:27.106811 32387 net.cpp:148] Top shape: 24 832 7 7 (978432)
I0403 15:36:27.106827 32387 net.cpp:156] Memory required for data: 1304469024
I0403 15:36:27.106854 32387 layer_factory.hpp:77] Creating layer inception_5a/pool_proj
I0403 15:36:27.106878 32387 net.cpp:91] Creating Layer inception_5a/pool_proj
I0403 15:36:27.106899 32387 net.cpp:425] inception_5a/pool_proj <- inception_5a/pool
I0403 15:36:27.106921 32387 net.cpp:399] inception_5a/pool_proj -> inception_5a/pool_proj
I0403 15:36:27.109340 32387 net.cpp:141] Setting up inception_5a/pool_proj
I0403 15:36:27.109371 32387 net.cpp:148] Top shape: 24 128 7 7 (150528)
I0403 15:36:27.109387 32387 net.cpp:156] Memory required for data: 1305071136
I0403 15:36:27.109407 32387 layer_factory.hpp:77] Creating layer inception_5a/relu_pool_proj
I0403 15:36:27.109427 32387 net.cpp:91] Creating Layer inception_5a/relu_pool_proj
I0403 15:36:27.109446 32387 net.cpp:425] inception_5a/relu_pool_proj <- inception_5a/pool_proj
I0403 15:36:27.109465 32387 net.cpp:386] inception_5a/relu_pool_proj -> inception_5a/pool_proj (in-place)
I0403 15:36:27.109765 32387 net.cpp:141] Setting up inception_5a/relu_pool_proj
I0403 15:36:27.109791 32387 net.cpp:148] Top shape: 24 128 7 7 (150528)
I0403 15:36:27.109807 32387 net.cpp:156] Memory required for data: 1305673248
I0403 15:36:27.109822 32387 layer_factory.hpp:77] Creating layer inception_5a/output
I0403 15:36:27.109841 32387 net.cpp:91] Creating Layer inception_5a/output
I0403 15:36:27.109858 32387 net.cpp:425] inception_5a/output <- inception_5a/1x1
I0403 15:36:27.109874 32387 net.cpp:425] inception_5a/output <- inception_5a/3x3
I0403 15:36:27.109891 32387 net.cpp:425] inception_5a/output <- inception_5a/5x5
I0403 15:36:27.109908 32387 net.cpp:425] inception_5a/output <- inception_5a/pool_proj
I0403 15:36:27.109928 32387 net.cpp:399] inception_5a/output -> inception_5a/output
I0403 15:36:27.109980 32387 net.cpp:141] Setting up inception_5a/output
I0403 15:36:27.110016 32387 net.cpp:148] Top shape: 24 832 7 7 (978432)
I0403 15:36:27.110036 32387 net.cpp:156] Memory required for data: 1309586976
I0403 15:36:27.110052 32387 layer_factory.hpp:77] Creating layer inception_5a/output_inception_5a/output_0_split
I0403 15:36:27.110069 32387 net.cpp:91] Creating Layer inception_5a/output_inception_5a/output_0_split
I0403 15:36:27.110086 32387 net.cpp:425] inception_5a/output_inception_5a/output_0_split <- inception_5a/output
I0403 15:36:27.110106 32387 net.cpp:399] inception_5a/output_inception_5a/output_0_split -> inception_5a/output_inception_5a/output_0_split_0
I0403 15:36:27.110128 32387 net.cpp:399] inception_5a/output_inception_5a/output_0_split -> inception_5a/output_inception_5a/output_0_split_1
I0403 15:36:27.110149 32387 net.cpp:399] inception_5a/output_inception_5a/output_0_split -> inception_5a/output_inception_5a/output_0_split_2
I0403 15:36:27.110173 32387 net.cpp:399] inception_5a/output_inception_5a/output_0_split -> inception_5a/output_inception_5a/output_0_split_3
I0403 15:36:27.110307 32387 net.cpp:141] Setting up inception_5a/output_inception_5a/output_0_split
I0403 15:36:27.110332 32387 net.cpp:148] Top shape: 24 832 7 7 (978432)
I0403 15:36:27.110350 32387 net.cpp:148] Top shape: 24 832 7 7 (978432)
I0403 15:36:27.110383 32387 net.cpp:148] Top shape: 24 832 7 7 (978432)
I0403 15:36:27.110400 32387 net.cpp:148] Top shape: 24 832 7 7 (978432)
I0403 15:36:27.110415 32387 net.cpp:156] Memory required for data: 1325241888
I0403 15:36:27.110431 32387 layer_factory.hpp:77] Creating layer inception_5b/1x1
I0403 15:36:27.110455 32387 net.cpp:91] Creating Layer inception_5b/1x1
I0403 15:36:27.110473 32387 net.cpp:425] inception_5b/1x1 <- inception_5a/output_inception_5a/output_0_split_0
I0403 15:36:27.110497 32387 net.cpp:399] inception_5b/1x1 -> inception_5b/1x1
I0403 15:36:27.114338 32387 net.cpp:141] Setting up inception_5b/1x1
I0403 15:36:27.114372 32387 net.cpp:148] Top shape: 24 384 7 7 (451584)
I0403 15:36:27.114389 32387 net.cpp:156] Memory required for data: 1327048224
I0403 15:36:27.114409 32387 layer_factory.hpp:77] Creating layer inception_5b/relu_1x1
I0403 15:36:27.114428 32387 net.cpp:91] Creating Layer inception_5b/relu_1x1
I0403 15:36:27.114445 32387 net.cpp:425] inception_5b/relu_1x1 <- inception_5b/1x1
I0403 15:36:27.114467 32387 net.cpp:386] inception_5b/relu_1x1 -> inception_5b/1x1 (in-place)
I0403 15:36:27.114779 32387 net.cpp:141] Setting up inception_5b/relu_1x1
I0403 15:36:27.114809 32387 net.cpp:148] Top shape: 24 384 7 7 (451584)
I0403 15:36:27.114825 32387 net.cpp:156] Memory required for data: 1328854560
I0403 15:36:27.114841 32387 layer_factory.hpp:77] Creating layer inception_5b/3x3_reduce
I0403 15:36:27.114866 32387 net.cpp:91] Creating Layer inception_5b/3x3_reduce
I0403 15:36:27.114886 32387 net.cpp:425] inception_5b/3x3_reduce <- inception_5a/output_inception_5a/output_0_split_1
I0403 15:36:27.114905 32387 net.cpp:399] inception_5b/3x3_reduce -> inception_5b/3x3_reduce
I0403 15:36:27.117720 32387 net.cpp:141] Setting up inception_5b/3x3_reduce
I0403 15:36:27.117753 32387 net.cpp:148] Top shape: 24 192 7 7 (225792)
I0403 15:36:27.117769 32387 net.cpp:156] Memory required for data: 1329757728
I0403 15:36:27.117789 32387 layer_factory.hpp:77] Creating layer inception_5b/relu_3x3_reduce
I0403 15:36:27.117806 32387 net.cpp:91] Creating Layer inception_5b/relu_3x3_reduce
I0403 15:36:27.117823 32387 net.cpp:425] inception_5b/relu_3x3_reduce <- inception_5b/3x3_reduce
I0403 15:36:27.117842 32387 net.cpp:386] inception_5b/relu_3x3_reduce -> inception_5b/3x3_reduce (in-place)
I0403 15:36:27.118049 32387 net.cpp:141] Setting up inception_5b/relu_3x3_reduce
I0403 15:36:27.118075 32387 net.cpp:148] Top shape: 24 192 7 7 (225792)
I0403 15:36:27.118091 32387 net.cpp:156] Memory required for data: 1330660896
I0403 15:36:27.118108 32387 layer_factory.hpp:77] Creating layer inception_5b/3x3
I0403 15:36:27.118130 32387 net.cpp:91] Creating Layer inception_5b/3x3
I0403 15:36:27.118147 32387 net.cpp:425] inception_5b/3x3 <- inception_5b/3x3_reduce
I0403 15:36:27.118170 32387 net.cpp:399] inception_5b/3x3 -> inception_5b/3x3
I0403 15:36:27.125043 32387 net.cpp:141] Setting up inception_5b/3x3
I0403 15:36:27.125073 32387 net.cpp:148] Top shape: 24 384 7 7 (451584)
I0403 15:36:27.125090 32387 net.cpp:156] Memory required for data: 1332467232
I0403 15:36:27.125110 32387 layer_factory.hpp:77] Creating layer inception_5b/relu_3x3
I0403 15:36:27.125129 32387 net.cpp:91] Creating Layer inception_5b/relu_3x3
I0403 15:36:27.125147 32387 net.cpp:425] inception_5b/relu_3x3 <- inception_5b/3x3
I0403 15:36:27.125169 32387 net.cpp:386] inception_5b/relu_3x3 -> inception_5b/3x3 (in-place)
I0403 15:36:27.125494 32387 net.cpp:141] Setting up inception_5b/relu_3x3
I0403 15:36:27.125522 32387 net.cpp:148] Top shape: 24 384 7 7 (451584)
I0403 15:36:27.125538 32387 net.cpp:156] Memory required for data: 1334273568
I0403 15:36:27.125555 32387 layer_factory.hpp:77] Creating layer inception_5b/5x5_reduce
I0403 15:36:27.125594 32387 net.cpp:91] Creating Layer inception_5b/5x5_reduce
I0403 15:36:27.125614 32387 net.cpp:425] inception_5b/5x5_reduce <- inception_5a/output_inception_5a/output_0_split_2
I0403 15:36:27.125638 32387 net.cpp:399] inception_5b/5x5_reduce -> inception_5b/5x5_reduce
I0403 15:36:27.126900 32387 net.cpp:141] Setting up inception_5b/5x5_reduce
I0403 15:36:27.126929 32387 net.cpp:148] Top shape: 24 48 7 7 (56448)
I0403 15:36:27.126946 32387 net.cpp:156] Memory required for data: 1334499360
I0403 15:36:27.126966 32387 layer_factory.hpp:77] Creating layer inception_5b/relu_5x5_reduce
I0403 15:36:27.126986 32387 net.cpp:91] Creating Layer inception_5b/relu_5x5_reduce
I0403 15:36:27.127003 32387 net.cpp:425] inception_5b/relu_5x5_reduce <- inception_5b/5x5_reduce
I0403 15:36:27.127025 32387 net.cpp:386] inception_5b/relu_5x5_reduce -> inception_5b/5x5_reduce (in-place)
I0403 15:36:27.127408 32387 net.cpp:141] Setting up inception_5b/relu_5x5_reduce
I0403 15:36:27.127436 32387 net.cpp:148] Top shape: 24 48 7 7 (56448)
I0403 15:36:27.127451 32387 net.cpp:156] Memory required for data: 1334725152
I0403 15:36:27.127467 32387 layer_factory.hpp:77] Creating layer inception_5b/5x5
I0403 15:36:27.127490 32387 net.cpp:91] Creating Layer inception_5b/5x5
I0403 15:36:27.127509 32387 net.cpp:425] inception_5b/5x5 <- inception_5b/5x5_reduce
I0403 15:36:27.127528 32387 net.cpp:399] inception_5b/5x5 -> inception_5b/5x5
I0403 15:36:27.129595 32387 net.cpp:141] Setting up inception_5b/5x5
I0403 15:36:27.129622 32387 net.cpp:148] Top shape: 24 128 7 7 (150528)
I0403 15:36:27.129639 32387 net.cpp:156] Memory required for data: 1335327264
I0403 15:36:27.129659 32387 layer_factory.hpp:77] Creating layer inception_5b/relu_5x5
I0403 15:36:27.129678 32387 net.cpp:91] Creating Layer inception_5b/relu_5x5
I0403 15:36:27.129695 32387 net.cpp:425] inception_5b/relu_5x5 <- inception_5b/5x5
I0403 15:36:27.129716 32387 net.cpp:386] inception_5b/relu_5x5 -> inception_5b/5x5 (in-place)
I0403 15:36:27.129922 32387 net.cpp:141] Setting up inception_5b/relu_5x5
I0403 15:36:27.129947 32387 net.cpp:148] Top shape: 24 128 7 7 (150528)
I0403 15:36:27.129963 32387 net.cpp:156] Memory required for data: 1335929376
I0403 15:36:27.129979 32387 layer_factory.hpp:77] Creating layer inception_5b/pool
I0403 15:36:27.129999 32387 net.cpp:91] Creating Layer inception_5b/pool
I0403 15:36:27.130017 32387 net.cpp:425] inception_5b/pool <- inception_5a/output_inception_5a/output_0_split_3
I0403 15:36:27.130035 32387 net.cpp:399] inception_5b/pool -> inception_5b/pool
I0403 15:36:27.130107 32387 net.cpp:141] Setting up inception_5b/pool
I0403 15:36:27.130132 32387 net.cpp:148] Top shape: 24 832 7 7 (978432)
I0403 15:36:27.130147 32387 net.cpp:156] Memory required for data: 1339843104
I0403 15:36:27.130163 32387 layer_factory.hpp:77] Creating layer inception_5b/pool_proj
I0403 15:36:27.130188 32387 net.cpp:91] Creating Layer inception_5b/pool_proj
I0403 15:36:27.130205 32387 net.cpp:425] inception_5b/pool_proj <- inception_5b/pool
I0403 15:36:27.130226 32387 net.cpp:399] inception_5b/pool_proj -> inception_5b/pool_proj
I0403 15:36:27.132585 32387 net.cpp:141] Setting up inception_5b/pool_proj
I0403 15:36:27.132616 32387 net.cpp:148] Top shape: 24 128 7 7 (150528)
I0403 15:36:27.132632 32387 net.cpp:156] Memory required for data: 1340445216
I0403 15:36:27.132652 32387 layer_factory.hpp:77] Creating layer inception_5b/relu_pool_proj
I0403 15:36:27.132670 32387 net.cpp:91] Creating Layer inception_5b/relu_pool_proj
I0403 15:36:27.132688 32387 net.cpp:425] inception_5b/relu_pool_proj <- inception_5b/pool_proj
I0403 15:36:27.132707 32387 net.cpp:386] inception_5b/relu_pool_proj -> inception_5b/pool_proj (in-place)
I0403 15:36:27.133004 32387 net.cpp:141] Setting up inception_5b/relu_pool_proj
I0403 15:36:27.133033 32387 net.cpp:148] Top shape: 24 128 7 7 (150528)
I0403 15:36:27.133049 32387 net.cpp:156] Memory required for data: 1341047328
I0403 15:36:27.133064 32387 layer_factory.hpp:77] Creating layer inception_5b/output
I0403 15:36:27.133082 32387 net.cpp:91] Creating Layer inception_5b/output
I0403 15:36:27.133113 32387 net.cpp:425] inception_5b/output <- inception_5b/1x1
I0403 15:36:27.133131 32387 net.cpp:425] inception_5b/output <- inception_5b/3x3
I0403 15:36:27.133150 32387 net.cpp:425] inception_5b/output <- inception_5b/5x5
I0403 15:36:27.133167 32387 net.cpp:425] inception_5b/output <- inception_5b/pool_proj
I0403 15:36:27.133188 32387 net.cpp:399] inception_5b/output -> inception_5b/output
I0403 15:36:27.133239 32387 net.cpp:141] Setting up inception_5b/output
I0403 15:36:27.133265 32387 net.cpp:148] Top shape: 24 1024 7 7 (1204224)
I0403 15:36:27.133278 32387 net.cpp:156] Memory required for data: 1345864224
I0403 15:36:27.133307 32387 layer_factory.hpp:77] Creating layer pool5/7x7_s1
I0403 15:36:27.133332 32387 net.cpp:91] Creating Layer pool5/7x7_s1
I0403 15:36:27.133349 32387 net.cpp:425] pool5/7x7_s1 <- inception_5b/output
I0403 15:36:27.133368 32387 net.cpp:399] pool5/7x7_s1 -> pool5/7x7_s1
I0403 15:36:27.133586 32387 net.cpp:141] Setting up pool5/7x7_s1
I0403 15:36:27.133611 32387 net.cpp:148] Top shape: 24 1024 1 1 (24576)
I0403 15:36:27.133626 32387 net.cpp:156] Memory required for data: 1345962528
I0403 15:36:27.133642 32387 layer_factory.hpp:77] Creating layer pool5/drop_7x7_s1
I0403 15:36:27.133661 32387 net.cpp:91] Creating Layer pool5/drop_7x7_s1
I0403 15:36:27.133677 32387 net.cpp:425] pool5/drop_7x7_s1 <- pool5/7x7_s1
I0403 15:36:27.133697 32387 net.cpp:386] pool5/drop_7x7_s1 -> pool5/7x7_s1 (in-place)
I0403 15:36:27.133745 32387 net.cpp:141] Setting up pool5/drop_7x7_s1
I0403 15:36:27.133771 32387 net.cpp:148] Top shape: 24 1024 1 1 (24576)
I0403 15:36:27.133788 32387 net.cpp:156] Memory required for data: 1346060832
I0403 15:36:27.133803 32387 layer_factory.hpp:77] Creating layer loss3/classifier_plantvillage
I0403 15:36:27.133822 32387 net.cpp:91] Creating Layer loss3/classifier_plantvillage
I0403 15:36:27.133851 32387 net.cpp:425] loss3/classifier_plantvillage <- pool5/7x7_s1
I0403 15:36:27.133872 32387 net.cpp:399] loss3/classifier_plantvillage -> loss3/classifier_plantvillage
I0403 15:36:27.134320 32387 net.cpp:141] Setting up loss3/classifier_plantvillage
I0403 15:36:27.134348 32387 net.cpp:148] Top shape: 24 38 (912)
I0403 15:36:27.134366 32387 net.cpp:156] Memory required for data: 1346064480
I0403 15:36:27.134385 32387 layer_factory.hpp:77] Creating layer loss3/classifier_plantvillage_loss3/classifier_plantvillage_0_split
I0403 15:36:27.134404 32387 net.cpp:91] Creating Layer loss3/classifier_plantvillage_loss3/classifier_plantvillage_0_split
I0403 15:36:27.134421 32387 net.cpp:425] loss3/classifier_plantvillage_loss3/classifier_plantvillage_0_split <- loss3/classifier_plantvillage
I0403 15:36:27.134438 32387 net.cpp:399] loss3/classifier_plantvillage_loss3/classifier_plantvillage_0_split -> loss3/classifier_plantvillage_loss3/classifier_plantvillage_0_split_0
I0403 15:36:27.134460 32387 net.cpp:399] loss3/classifier_plantvillage_loss3/classifier_plantvillage_0_split -> loss3/classifier_plantvillage_loss3/classifier_plantvillage_0_split_1
I0403 15:36:27.134485 32387 net.cpp:399] loss3/classifier_plantvillage_loss3/classifier_plantvillage_0_split -> loss3/classifier_plantvillage_loss3/classifier_plantvillage_0_split_2
I0403 15:36:27.134506 32387 net.cpp:399] loss3/classifier_plantvillage_loss3/classifier_plantvillage_0_split -> loss3/classifier_plantvillage_loss3/classifier_plantvillage_0_split_3
I0403 15:36:27.134619 32387 net.cpp:141] Setting up loss3/classifier_plantvillage_loss3/classifier_plantvillage_0_split
I0403 15:36:27.134644 32387 net.cpp:148] Top shape: 24 38 (912)
I0403 15:36:27.134660 32387 net.cpp:148] Top shape: 24 38 (912)
I0403 15:36:27.134677 32387 net.cpp:148] Top shape: 24 38 (912)
I0403 15:36:27.134693 32387 net.cpp:148] Top shape: 24 38 (912)
I0403 15:36:27.134707 32387 net.cpp:156] Memory required for data: 1346079072
I0403 15:36:27.134722 32387 layer_factory.hpp:77] Creating layer loss1/loss
I0403 15:36:27.134745 32387 net.cpp:91] Creating Layer loss1/loss
I0403 15:36:27.134763 32387 net.cpp:425] loss1/loss <- loss1/classifier_plantvillage_loss1/classifier_plantvillage_0_split_0
I0403 15:36:27.134799 32387 net.cpp:425] loss1/loss <- label_data_1_split_0
…
