…
I0403 15:08:59.918357 31196 net.cpp:313] The NetState phase (1) differed from the phase (0) specified by a rule in layer data
I0403 15:08:59.919793 31196 net.cpp:49] Initializing net from parameters: 
state {
  phase: TEST
}
layer {
  name: "data"
  type: "Data"
  top: "data"
  top: "label"
  include {
    phase: TEST
  }
  transform_param {
    mirror: false
    crop_size: 224
    mean_file: "/home/mohanty/data/final_dataset/lmdb/color-60-40/mean.binaryproto"
  }
  data_param {
    source: "/home/mohanty/data/final_dataset/lmdb/color-60-40/test_db"
    batch_size: 24
    backend: LMDB
  }
}
layer {
  name: "conv1/7x7_s2"
  type: "Convolution"
  bottom: "data"
  top: "conv1/7x7_s2"
  param {
    lr_mult: 1
    decay_mult: 1
  }
  param {
    lr_mult: 2
    decay_mult: 0
  }
  convolution_param {
    num_output: 64
    pad: 3
    kernel_size: 7
    stride: 2
    weight_filler {
      type: "xavier"
      std: 0.1
    }
    bias_filler {
      type: "constant"
      value: 0.2
    }
  }
}
layer {
  name: "conv1/relu_7x7"
  type: "ReLU"
  bottom: "conv1/7x7_s2"
  top: "conv1/7x7_s2"
}
layer {
  name: "pool1/3x3_s2"
  type: "Pooling"
  bottom: "conv1/7x7_s2"
  top: "pool1/3x3_s2"
  pooling_param {
    pool: MAX
    kernel_size: 3
    stride: 2
  }
}
layer {
  name: "pool1/norm1"
  type: "LRN"
  bottom: "pool1/3x3_s2"
  top: "pool1/norm1"
  lrn_param {
    local_size: 5
    alpha: 0.0001
    beta: 0.75
  }
}
layer {
  name: "conv2/3x3_reduce"
  type: "Convolution"
  bottom: "pool1/norm1"
  top: "conv2/3x3_reduce"
  param {
    lr_mult: 1
    decay_mult: 1
  }
  param {
    lr_mult: 2
    decay_mult: 0
  }
  convolution_param {
    num_output: 64
    kernel_size: 1
    weight_filler {
      type: "xavier"
      std: 0.1
    }
    bias_filler {
      type: "constant"
      value: 0.2
    }
  }
}
layer {
  name: "conv2/relu_3x3_reduce"
  type: "ReLU"
  bottom: "conv2/3x3_reduce"
  top: "conv2/3x3_reduce"
}
layer {
  name: "conv2/3x3"
  type: "Convolution"
  bottom: "conv2/3x3_reduce"
  top: "conv2/3x3"
  param {
    lr_mult: 1
    decay_mult: 1
  }
  param {
    lr_mult: 2
    decay_mult: 0
  }
  convolution_param {
    num_output: 192
    pad: 1
    kernel_size: 3
    weight_filler {
      type: "xavier"
      std: 0.03
    }
    bias_filler {
      type: "constant"
      value: 0.2
    }
  }
}
layer {
  name: "conv2/relu_3x3"
  type: "ReLU"
  bottom: "conv2/3x3"
  top: "conv2/3x3"
}
layer {
  name: "conv2/norm2"
  type: "LRN"
  bottom: "conv2/3x3"
  top: "conv2/norm2"
  lrn_param {
    local_size: 5
    alpha: 0.0001
    beta: 0.75
  }
}
layer {
  name: "pool2/3x3_s2"
  type: "Pooling"
  bottom: "conv2/norm2"
  top: "pool2/3x3_s2"
  pooling_param {
    pool: MAX
    kernel_size: 3
    stride: 2
  }
}
layer {
  name: "inception_3a/1x1"
  type: "Convolution"
  bottom: "pool2/3x3_s2"
  top: "inception_3a/1x1"
  param {
    lr_mult: 1
    decay_mult: 1
  }
  param {
    lr_mult: 2
    decay_mult: 0
  }
  convolution_param {
    num_output: 64
    kernel_size: 1
    weight_filler {
      type: "xavier"
      std: 0.03
    }
    bias_filler {
      type: "constant"
      value: 0.2
    }
  }
}
layer {
  name: "inception_3a/relu_1x1"
  type: "ReLU"
  bottom: "inception_3a/1x1"
  top: "inception_3a/1x1"
}
layer {
  name: "inception_3a/3x3_reduce"
  type: "Convolution"
  bottom: "pool2/3x3_s2"
  top: "inception_3a/3x3_reduce"
  param {
    lr_mult: 1
    decay_mult: 1
  }
  param {
    lr_mult: 2
    decay_mult: 0
  }
  convolution_param {
    num_output: 96
    kernel_size: 1
    weight_filler {
      type: "xavier"
      std: 0.09
    }
    bias_filler {
      type: "constant"
      value: 0.2
    }
  }
}
layer {
  name: "inception_3a/relu_3x3_reduce"
  type: "ReLU"
  bottom: "inception_3a/3x3_reduce"
  top: "inception_3a/3x3_reduce"
}
layer {
  name: "inception_3a/3x3"
  type: "Convolution"
  bottom: "inception_3a/3x3_reduce"
  top: "inception_3a/3x3"
  param {
    lr_mult: 1
    decay_mult: 1
  }
  param {
    lr_mult: 2
    decay_mult: 0
  }
  convolution_param {
    num_output: 128
    pad: 1
    kernel_size: 3
    weight_filler {
      type: "xavier"
      std: 0.03
    }
    bias_filler {
      type: "constant"
      value: 0.2
    }
  }
}
layer {
  name: "inception_3a/relu_3x3"
  type: "ReLU"
  bottom: "inception_3a/3x3"
  top: "inception_3a/3x3"
}
layer {
  name: "inception_3a/5x5_reduce"
  type: "Convolution"
  bottom: "pool2/3x3_s2"
  top: "inception_3a/5x5_reduce"
  param {
    lr_mult: 1
    decay_mult: 1
  }
  param {
    lr_mult: 2
    decay_mult: 0
  }
  convolution_param {
    num_output: 16
    kernel_size: 1
    weight_filler {
      type: "xavier"
      std: 0.2
    }
    bias_filler {
      type: "constant"
      value: 0.2
    }
  }
}
layer {
  name: "inception_3a/relu_5x5_reduce"
  type: "ReLU"
  bottom: "inception_3a/5x5_reduce"
  top: "inception_3a/5x5_reduce"
}
layer {
  name: "inception_3a/5x5"
  type: "Convolution"
  bottom: "inception_3a/5x5_reduce"
  top: "inception_3a/5x5"
  param {
    lr_mult: 1
    decay_mult: 1
  }
  param {
    lr_mult: 2
    decay_mult: 0
  }
  convolution_param {
    num_output: 32
    pad: 2
    kernel_size: 5
    weight_filler {
      type: "xavier"
      std: 0.03
    }
    bias_filler {
      type: "constant"
      value: 0.2
    }
  }
}
layer {
  name: "inception_3a/relu_5x5"
  type: "ReLU"
  bottom: "inception_3a/5x5"
  top: "inception_3a/5x5"
}
layer {
  name: "inception_3a/pool"
  type: "Pooling"
  bottom: "pool2/3x3_s2"
  top: "inception_3a/pool"
  pooling_param {
    pool: MAX
    kernel_size: 3
    stride: 1
    pad: 1
  }
}
layer {
  name: "inception_3a/pool_proj"
  type: "Convolution"
  bottom: "inception_3a/pool"
  top: "inception_3a/pool_proj"
  param {
    lr_mult: 1
    decay_mult: 1
  }
  param {
    lr_mult: 2
    decay_mult: 0
  }
  convolution_param {
    num_output: 32
    kernel_size: 1
    weight_filler {
      type: "xavier"
      std: 0.1
    }
    bias_filler {
      type: "constant"
      value: 0.2
    }
  }
}
layer {
  name: "inception_3a/relu_pool_proj"
  type: "ReLU"
  bottom: "inception_3a/pool_proj"
  top: "inception_3a/pool_proj"
}
layer {
  name: "inception_3a/output"
  type: "Concat"
  bottom: "inception_3a/1x1"
  bottom: "inception_3a/3x3"
  bottom: "inception_3a/5x5"
  bottom: "inception_3a/pool_proj"
  top: "inception_3a/output"
}
layer {
  name: "inception_3b/1x1"
  type: "Convolution"
  bottom: "inception_3a/output"
  top: "inception_3b/1x1"
  param {
    lr_mult: 1
    decay_mult: 1
  }
  param {
    lr_mult: 2
    decay_mult: 0
  }
  convolution_param {
    num_output: 128
    kernel_size: 1
    weight_filler {
      type: "xavier"
      std: 0.03
    }
    bias_filler {
      type: "constant"
      value: 0.2
    }
  }
}
layer {
  name: "inception_3b/relu_1x1"
  type: "ReLU"
  bottom: "inception_3b/1x1"
  top: "inception_3b/1x1"
}
layer {
  name: "inception_3b/3x3_reduce"
  type: "Convolution"
  bottom: "inception_3a/output"
  top: "inception_3b/3x3_reduce"
  param {
    lr_mult: 1
    decay_mult: 1
  }
  param {
    lr_mult: 2
    decay_mult: 0
  }
  convolution_param {
    num_output: 128
    kernel_size: 1
    weight_filler {
      type: "xavier"
      std: 0.09
    }
    bias_filler {
      type: "constant"
      value: 0.2
    }
  }
}
layer {
  name: "inception_3b/relu_3x3_reduce"
  type: "ReLU"
  bottom: "inception_3b/3x3_reduce"
  top: "inception_3b/3x3_reduce"
}
layer {
  name: "inception_3b/3x3"
  type: "Convolution"
  bottom: "inception_3b/3x3_reduce"
  top: "inception_3b/3x3"
  param {
    lr_mult: 1
    decay_mult: 1
  }
  param {
    lr_mult: 2
    decay_mult: 0
  }
  convolution_param {
    num_output: 192
    pad: 1
    kernel_size: 3
    weight_filler {
      type: "xavier"
      std: 0.03
    }
    bias_filler {
      type: "constant"
      value: 0.2
    }
  }
}
layer {
  name: "inception_3b/relu_3x3"
  type: "ReLU"
  bottom: "inception_3b/3x3"
  top: "inception_3b/3x3"
}
layer {
  name: "inception_3b/5x5_reduce"
  type: "Convolution"
  bottom: "inception_3a/output"
  top: "inception_3b/5x5_reduce"
  param {
    lr_mult: 1
    decay_mult: 1
  }
  param {
    lr_mult: 2
    decay_mult: 0
  }
  convolution_param {
    num_output: 32
    kernel_size: 1
    weight_filler {
      type: "xavier"
      std: 0.2
    }
    bias_filler {
      type: "constant"
      value: 0.2
    }
  }
}
layer {
  name: "inception_3b/relu_5x5_reduce"
  type: "ReLU"
  bottom: "inception_3b/5x5_reduce"
  top: "inception_3b/5x5_reduce"
}
layer {
  name: "inception_3b/5x5"
  type: "Convolution"
  bottom: "inception_3b/5x5_reduce"
  top: "inception_3b/5x5"
  param {
    lr_mult: 1
    decay_mult: 1
  }
  param {
    lr_mult: 2
    decay_mult: 0
  }
  convolution_param {
    num_output: 96
    pad: 2
    kernel_size: 5
    weight_filler {
      type: "xavier"
      std: 0.03
    }
    bias_filler {
      type: "constant"
      value: 0.2
    }
  }
}
layer {
  name: "inception_3b/relu_5x5"
  type: "ReLU"
  bottom: "inception_3b/5x5"
  top: "inception_3b/5x5"
}
layer {
  name: "inception_3b/pool"
  type: "Pooling"
  bottom: "inception_3a/output"
  top: "inception_3b/pool"
  pooling_param {
    pool: MAX
    kernel_size: 3
    stride: 1
    pad: 1
  }
}
layer {
  name: "inception_3b/pool_proj"
  type: "Convolution"
  bottom: "inception_3b/pool"
  top: "inception_3b/pool_proj"
  param {
    lr_mult: 1
    decay_mult: 1
  }
  param {
    lr_mult: 2
    decay_mult: 0
  }
  convolution_param {
    num_output: 64
    kernel_size: 1
    weight_filler {
      type: "xavier"
      std: 0.1
    }
    bias_filler {
      type: "constant"
      value: 0.2
    }
  }
}
layer {
  name: "inception_3b/relu_pool_proj"
  type: "ReLU"
  bottom: "inception_3b/pool_proj"
  top: "inception_3b/pool_proj"
}
layer {
  name: "inception_3b/output"
  type: "Concat"
  bottom: "inception_3b/1x1"
  bottom: "inception_3b/3x3"
  bottom: "inception_3b/5x5"
  bottom: "inception_3b/pool_proj"
  top: "inception_3b/output"
}
layer {
  name: "pool3/3x3_s2"
  type: "Pooling"
  bottom: "inception_3b/output"
  top: "pool3/3x3_s2"
  pooling_param {
    pool: MAX
    kernel_size: 3
    stride: 2
  }
}
layer {
  name: "inception_4a/1x1"
  type: "Convolution"
  bottom: "pool3/3x3_s2"
  top: "inception_4a/1x1"
  param {
    lr_mult: 1
    decay_mult: 1
  }
  param {
    lr_mult: 2
    decay_mult: 0
  }
  convolution_param {
    num_output: 192
    kernel_size: 1
    weight_filler {
      type: "xavier"
      std: 0.03
    }
    bias_filler {
      type: "constant"
      value: 0.2
    }
  }
}
layer {
  name: "inception_4a/relu_1x1"
  type: "ReLU"
  bottom: "inception_4a/1x1"
  top: "inception_4a/1x1"
}
layer {
  name: "inception_4a/3x3_reduce"
  type: "Convolution"
  bottom: "pool3/3x3_s2"
  top: "inception_4a/3x3_reduce"
  param {
    lr_mult: 1
    decay_mult: 1
  }
  param {
    lr_mult: 2
    decay_mult: 0
  }
  convolution_param {
    num_output: 96
    kernel_size: 1
    weight_filler {
      type: "xavier"
      std: 0.09
    }
    bias_filler {
      type: "constant"
      value: 0.2
    }
  }
}
layer {
  name: "inception_4a/relu_3x3_reduce"
  type: "ReLU"
  bottom: "inception_4a/3x3_reduce"
  top: "inception_4a/3x3_reduce"
}
layer {
  name: "inception_4a/3x3"
  type: "Convolution"
  bottom: "inception_4a/3x3_reduce"
  top: "inception_4a/3x3"
  param {
    lr_mult: 1
    decay_mult: 1
  }
  param {
    lr_mult: 2
    decay_mult: 0
  }
  convolution_param {
    num_output: 208
    pad: 1
    kernel_size: 3
    weight_filler {
      type: "xavier"
      std: 0.03
    }
    bias_filler {
      type: "constant"
      value: 0.2
    }
  }
}
layer {
  name: "inception_4a/relu_3x3"
  type: "ReLU"
  bottom: "inception_4a/3x3"
  top: "inception_4a/3x3"
}
layer {
  name: "inception_4a/5x5_reduce"
  type: "Convolution"
  bottom: "pool3/3x3_s2"
  top: "inception_4a/5x5_reduce"
  param {
    lr_mult: 1
    decay_mult: 1
  }
  param {
    lr_mult: 2
    decay_mult: 0
  }
  convolution_param {
    num_output: 16
    kernel_size: 1
    weight_filler {
      type: "xavier"
      std: 0.2
    }
    bias_filler {
      type: "constant"
      value: 0.2
    }
  }
}
layer {
  name: "inception_4a/relu_5x5_reduce"
  type: "ReLU"
  bottom: "inception_4a/5x5_reduce"
  top: "inception_4a/5x5_reduce"
}
layer {
  name: "inception_4a/5x5"
  type: "Convolution"
  bottom: "inception_4a/5x5_reduce"
  top: "inception_4a/5x5"
  param {
    lr_mult: 1
    decay_mult: 1
  }
  param {
    lr_mult: 2
    decay_mult: 0
  }
  convolution_param {
    num_output: 48
    pad: 2
    kernel_size: 5
    weight_filler {
      type: "xavier"
      std: 0.03
    }
    bias_filler {
      type: "constant"
      value: 0.2
    }
  }
}
layer {
  name: "inception_4a/relu_5x5"
  type: "ReLU"
  bottom: "inception_4a/5x5"
  top: "inception_4a/5x5"
}
layer {
  name: "inception_4a/pool"
  type: "Pooling"
  bottom: "pool3/3x3_s2"
  top: "inception_4a/pool"
  pooling_param {
    pool: MAX
    kernel_size: 3
    stride: 1
    pad: 1
  }
}
layer {
  name: "inception_4a/pool_proj"
  type: "Convolution"
  bottom: "inception_4a/pool"
  top: "inception_4a/pool_proj"
  param {
    lr_mult: 1
    decay_mult: 1
  }
  param {
    lr_mult: 2
    decay_mult: 0
  }
  convolution_param {
    num_output: 64
    kernel_size: 1
    weight_filler {
      type: "xavier"
      std: 0.1
    }
    bias_filler {
      type: "constant"
      value: 0.2
    }
  }
}
layer {
  name: "inception_4a/relu_pool_proj"
  type: "ReLU"
  bottom: "inception_4a/pool_proj"
  top: "inception_4a/pool_proj"
}
layer {
  name: "inception_4a/output"
  type: "Concat"
  bottom: "inception_4a/1x1"
  bottom: "inception_4a/3x3"
  bottom: "inception_4a/5x5"
  bottom: "inception_4a/pool_proj"
  top: "inception_4a/output"
}
layer {
  name: "loss1/ave_pool"
  type: "Pooling"
  bottom: "inception_4a/output"
  top: "loss1/ave_pool"
  pooling_param {
    pool: AVE
    kernel_size: 5
    stride: 3
  }
}
layer {
  name: "loss1/conv"
  type: "Convolution"
  bottom: "loss1/ave_pool"
  top: "loss1/conv"
  param {
    lr_mult: 1
    decay_mult: 1
  }
  param {
    lr_mult: 2
    decay_mult: 0
  }
  convolution_param {
    num_output: 128
    kernel_size: 1
    weight_filler {
      type: "xavier"
      std: 0.08
    }
    bias_filler {
      type: "constant"
      value: 0.2
    }
  }
}
layer {
  name: "loss1/relu_conv"
  type: "ReLU"
  bottom: "loss1/conv"
  top: "loss1/conv"
}
layer {
  name: "loss1/fc"
  type: "InnerProduct"
  bottom: "loss1/conv"
  top: "loss1/fc"
  param {
    lr_mult: 1
    decay_mult: 1
  }
  param {
    lr_mult: 2
    decay_mult: 0
  }
  inner_product_param {
    num_output: 1024
    weight_filler {
      type: "xavier"
      std: 0.02
    }
    bias_filler {
      type: "constant"
      value: 0.2
    }
  }
}
layer {
  name: "loss1/relu_fc"
  type: "ReLU"
  bottom: "loss1/fc"
  top: "loss1/fc"
}
layer {
  name: "loss1/drop_fc"
  type: "Dropout"
  bottom: "loss1/fc"
  top: "loss1/fc"
  dropout_param {
    dropout_ratio: 0.7
  }
}
layer {
  name: "loss1/classifier_plantvillage"
  type: "InnerProduct"
  bottom: "loss1/fc"
  top: "loss1/classifier_plantvillage"
  param {
    lr_mult: 1
    decay_mult: 1
  }
  param {
    lr_mult: 2
    decay_mult: 0
  }
  inner_product_param {
    num_output: 38
    weight_filler {
      type: "xavier"
      std: 0.0009765625
    }
    bias_filler {
      type: "constant"
      value: 0
    }
  }
}
layer {
  name: "inception_4b/1x1"
  type: "Convolution"
  bottom: "inception_4a/output"
  top: "inception_4b/1x1"
  param {
    lr_mult: 1
    decay_mult: 1
  }
  param {
    lr_mult: 2
    decay_mult: 0
  }
  convolution_param {
    num_output: 160
    kernel_size: 1
    weight_filler {
      type: "xavier"
      std: 0.03
    }
    bias_filler {
      type: "constant"
      value: 0.2
    }
  }
}
layer {
  name: "inception_4b/relu_1x1"
  type: "ReLU"
  bottom: "inception_4b/1x1"
  top: "inception_4b/1x1"
}
layer {
  name: "inception_4b/3x3_reduce"
  type: "Convolution"
  bottom: "inception_4a/output"
  top: "inception_4b/3x3_reduce"
  param {
    lr_mult: 1
    decay_mult: 1
  }
  param {
    lr_mult: 2
    decay_mult: 0
  }
  convolution_param {
    num_output: 112
    kernel_size: 1
    weight_filler {
      type: "xavier"
      std: 0.09
    }
    bias_filler {
      type: "constant"
      value: 0.2
    }
  }
}
layer {
  name: "inception_4b/relu_3x3_reduce"
  type: "ReLU"
  bottom: "inception_4b/3x3_reduce"
  top: "inception_4b/3x3_reduce"
}
layer {
  name: "inception_4b/3x3"
  type: "Convolution"
  bottom: "inception_4b/3x3_reduce"
  top: "inception_4b/3x3"
  param {
    lr_mult: 1
    decay_mult: 1
  }
  param {
    lr_mult: 2
    decay_mult: 0
  }
  convolution_param {
    num_output: 224
    pad: 1
    kernel_size: 3
    weight_filler {
      type: "xavier"
      std: 0.03
    }
    bias_filler {
      type: "constant"
      value: 0.2
    }
  }
}
layer {
  name: "inception_4b/relu_3x3"
  type: "ReLU"
  bottom: "inception_4b/3x3"
  top: "inception_4b/3x3"
}
layer {
  name: "inception_4b/5x5_reduce"
  type: "Convolution"
  bottom: "inception_4a/output"
  top: "inception_4b/5x5_reduce"
  param {
    lr_mult: 1
    decay_mult: 1
  }
  param {
    lr_mult: 2
    decay_mult: 0
  }
  convolution_param {
    num_output: 24
    kernel_size: 1
    weight_filler {
      type: "xavier"
      std: 0.2
    }
    bias_filler {
      type: "constant"
      value: 0.2
    }
  }
}
layer {
  name: "inception_4b/relu_5x5_reduce"
  type: "ReLU"
  bottom: "inception_4b/5x5_reduce"
  top: "inception_4b/5x5_reduce"
}
layer {
  name: "inception_4b/5x5"
  type: "Convolution"
  bottom: "inception_4b/5x5_reduce"
  top: "inception_4b/5x5"
  param {
    lr_mult: 1
    decay_mult: 1
  }
  param {
    lr_mult: 2
    decay_mult: 0
  }
  convolution_param {
    num_output: 64
    pad: 2
    kernel_size: 5
    weight_filler {
      type: "xavier"
      std: 0.03
    }
    bias_filler {
      type: "constant"
      value: 0.2
    }
  }
}
layer {
  name: "inception_4b/relu_5x5"
  type: "ReLU"
  bottom: "inception_4b/5x5"
  top: "inception_4b/5x5"
}
layer {
  name: "inception_4b/pool"
  type: "Pooling"
  bottom: "inception_4a/output"
  top: "inception_4b/pool"
  pooling_param {
    pool: MAX
    kernel_size: 3
    stride: 1
    pad: 1
  }
}
layer {
  name: "inception_4b/pool_proj"
  type: "Convolution"
  bottom: "inception_4b/pool"
  top: "inception_4b/pool_proj"
  param {
    lr_mult: 1
    decay_mult: 1
  }
  param {
    lr_mult: 2
    decay_mult: 0
  }
  convolution_param {
    num_output: 64
    kernel_size: 1
    weight_filler {
      type: "xavier"
      std: 0.1
    }
    bias_filler {
      type: "constant"
      value: 0.2
    }
  }
}
layer {
  name: "inception_4b/relu_pool_proj"
  type: "ReLU"
  bottom: "inception_4b/pool_proj"
  top: "inception_4b/pool_proj"
}
layer {
  name: "inception_4b/output"
  type: "Concat"
  bottom: "inception_4b/1x1"
  bottom: "inception_4b/3x3"
  bottom: "inception_4b/5x5"
  bottom: "inception_4b/pool_proj"
  top: "inception_4b/output"
}
layer {
  name: "inception_4c/1x1"
  type: "Convolution"
  bottom: "inception_4b/output"
  top: "inception_4c/1x1"
  param {
    lr_mult: 1
    decay_mult: 1
  }
  param {
    lr_mult: 2
    decay_mult: 0
  }
  convolution_param {
    num_output: 128
    kernel_size: 1
    weight_filler {
      type: "xavier"
      std: 0.03
    }
    bias_filler {
      type: "constant"
      value: 0.2
    }
  }
}
layer {
  name: "inception_4c/relu_1x1"
  type: "ReLU"
  bottom: "inception_4c/1x1"
  top: "inception_4c/1x1"
}
layer {
  name: "inception_4c/3x3_reduce"
  type: "Convolution"
  bottom: "inception_4b/output"
  top: "inception_4c/3x3_reduce"
  param {
    lr_mult: 1
    decay_mult: 1
  }
  param {
    lr_mult: 2
    decay_mult: 0
  }
  convolution_param {
    num_output: 128
    kernel_size: 1
    weight_filler {
      type: "xavier"
      std: 0.09
    }
    bias_filler {
      type: "constant"
      value: 0.2
    }
  }
}
layer {
  name: "inception_4c/relu_3x3_reduce"
  type: "ReLU"
  bottom: "inception_4c/3x3_reduce"
  top: "inception_4c/3x3_reduce"
}
layer {
  name: "inception_4c/3x3"
  type: "Convolution"
  bottom: "inception_4c/3x3_reduce"
  top: "inception_4c/3x3"
  param {
    lr_mult: 1
    decay_mult: 1
  }
  param {
    lr_mult: 2
    decay_mult: 0
  }
  convolution_param {
    num_output: 256
    pad: 1
    kernel_size: 3
    weight_filler {
      type: "xavier"
      std: 0.03
    }
    bias_filler {
      type: "constant"
      value: 0.2
    }
  }
}
layer {
  name: "inception_4c/relu_3x3"
  type: "ReLU"
  bottom: "inception_4c/3x3"
  top: "inception_4c/3x3"
}
layer {
  name: "inception_4c/5x5_reduce"
  type: "Convolution"
  bottom: "inception_4b/output"
  top: "inception_4c/5x5_reduce"
  param {
    lr_mult: 1
    decay_mult: 1
  }
  param {
    lr_mult: 2
    decay_mult: 0
  }
  convolution_param {
    num_output: 24
    kernel_size: 1
    weight_filler {
      type: "xavier"
      std: 0.2
    }
    bias_filler {
      type: "constant"
      value: 0.2
    }
  }
}
layer {
  name: "inception_4c/relu_5x5_reduce"
  type: "ReLU"
  bottom: "inception_4c/5x5_reduce"
  top: "inception_4c/5x5_reduce"
}
layer {
  name: "inception_4c/5x5"
  type: "Convolution"
  bottom: "inception_4c/5x5_reduce"
  top: "inception_4c/5x5"
  param {
    lr_mult: 1
    decay_mult: 1
  }
  param {
    lr_mult: 2
    decay_mult: 0
  }
  convolution_param {
    num_output: 64
    pad: 2
    kernel_size: 5
    weight_filler {
      type: "xavier"
      std: 0.03
    }
    bias_filler {
      type: "constant"
      value: 0.2
    }
  }
}
layer {
  name: "inception_4c/relu_5x5"
  type: "ReLU"
  bottom: "inception_4c/5x5"
  top: "inception_4c/5x5"
}
layer {
  name: "inception_4c/pool"
  type: "Pooling"
  bottom: "inception_4b/output"
  top: "inception_4c/pool"
  pooling_param {
    pool: MAX
    kernel_size: 3
    stride: 1
    pad: 1
  }
}
layer {
  name: "inception_4c/pool_proj"
  type: "Convolution"
  bottom: "inception_4c/pool"
  top: "inception_4c/pool_proj"
  param {
    lr_mult: 1
    decay_mult: 1
  }
  param {
    lr_mult: 2
    decay_mult: 0
  }
  convolution_param {
    num_output: 64
    kernel_size: 1
    weight_filler {
      type: "xavier"
      std: 0.1
    }
    bias_filler {
      type: "constant"
      value: 0.2
    }
  }
}
layer {
  name: "inception_4c/relu_pool_proj"
  type: "ReLU"
  bottom: "inception_4c/pool_proj"
  top: "inception_4c/pool_proj"
}
layer {
  name: "inception_4c/output"
  type: "Concat"
  bottom: "inception_4c/1x1"
  bottom: "inception_4c/3x3"
  bottom: "inception_4c/5x5"
  bottom: "inception_4c/pool_proj"
  top: "inception_4c/output"
}
layer {
  name: "inception_4d/1x1"
  type: "Convolution"
  bottom: "inception_4c/output"
  top: "inception_4d/1x1"
  param {
    lr_mult: 1
    decay_mult: 1
  }
  param {
    lr_mult: 2
    decay_mult: 0
  }
  convolution_param {
    num_output: 112
    kernel_size: 1
    weight_filler {
      type: "xavier"
      std: 0.03
    }
    bias_filler {
      type: "constant"
      value: 0.2
    }
  }
}
layer {
  name: "inception_4d/relu_1x1"
  type: "ReLU"
  bottom: "inception_4d/1x1"
  top: "inception_4d/1x1"
}
layer {
  name: "inception_4d/3x3_reduce"
  type: "Convolution"
  bottom: "inception_4c/output"
  top: "inception_4d/3x3_reduce"
  param {
    lr_mult: 1
    decay_mult: 1
  }
  param {
    lr_mult: 2
    decay_mult: 0
  }
  convolution_param {
    num_output: 144
    kernel_size: 1
    weight_filler {
      type: "xavier"
      std: 0.09
    }
    bias_filler {
      type: "constant"
      value: 0.2
    }
  }
}
layer {
  name: "inception_4d/relu_3x3_reduce"
  type: "ReLU"
  bottom: "inception_4d/3x3_reduce"
  top: "inception_4d/3x3_reduce"
}
layer {
  name: "inception_4d/3x3"
  type: "Convolution"
  bottom: "inception_4d/3x3_reduce"
  top: "inception_4d/3x3"
  param {
    lr_mult: 1
    decay_mult: 1
  }
  param {
    lr_mult: 2
    decay_mult: 0
  }
  convolution_param {
    num_output: 288
    pad: 1
    kernel_size: 3
    weight_filler {
      type: "xavier"
      std: 0.03
    }
    bias_filler {
      type: "constant"
      value: 0.2
    }
  }
}
layer {
  name: "inception_4d/relu_3x3"
  type: "ReLU"
  bottom: "inception_4d/3x3"
  top: "inception_4d/3x3"
}
layer {
  name: "inception_4d/5x5_reduce"
  type: "Convolution"
  bottom: "inception_4c/output"
  top: "inception_4d/5x5_reduce"
  param {
    lr_mult: 1
    decay_mult: 1
  }
  param {
    lr_mult: 2
    decay_mult: 0
  }
  convolution_param {
    num_output: 32
    kernel_size: 1
    weight_filler {
      type: "xavier"
      std: 0.2
    }
    bias_filler {
      type: "constant"
      value: 0.2
    }
  }
}
layer {
  name: "inception_4d/relu_5x5_reduce"
  type: "ReLU"
  bottom: "inception_4d/5x5_reduce"
  top: "inception_4d/5x5_reduce"
}
layer {
  name: "inception_4d/5x5"
  type: "Convolution"
  bottom: "inception_4d/5x5_reduce"
  top: "inception_4d/5x5"
  param {
    lr_mult: 1
    decay_mult: 1
  }
  param {
    lr_mult: 2
    decay_mult: 0
  }
  convolution_param {
    num_output: 64
    pad: 2
    kernel_size: 5
    weight_filler {
      type: "xavier"
      std: 0.03
    }
    bias_filler {
      type: "constant"
      value: 0.2
    }
  }
}
layer {
  name: "inception_4d/relu_5x5"
  type: "ReLU"
  bottom: "inception_4d/5x5"
  top: "inception_4d/5x5"
}
layer {
  name: "inception_4d/pool"
  type: "Pooling"
  bottom: "inception_4c/output"
  top: "inception_4d/pool"
  pooling_param {
    pool: MAX
    kernel_size: 3
    stride: 1
    pad: 1
  }
}
layer {
  name: "inception_4d/pool_proj"
  type: "Convolution"
  bottom: "inception_4d/pool"
  top: "inception_4d/pool_proj"
  param {
    lr_mult: 1
    decay_mult: 1
  }
  param {
    lr_mult: 2
    decay_mult: 0
  }
  convolution_param {
    num_output: 64
    kernel_size: 1
    weight_filler {
      type: "xavier"
      std: 0.1
    }
    bias_filler {
      type: "constant"
      value: 0.2
    }
  }
}
layer {
  name: "inception_4d/relu_pool_proj"
  type: "ReLU"
  bottom: "inception_4d/pool_proj"
  top: "inception_4d/pool_proj"
}
layer {
  name: "inception_4d/output"
  type: "Concat"
  bottom: "inception_4d/1x1"
  bottom: "inception_4d/3x3"
  bottom: "inception_4d/5x5"
  bottom: "inception_4d/pool_proj"
  top: "inception_4d/output"
}
layer {
  name: "loss2/ave_pool"
  type: "Pooling"
  bottom: "inception_4d/output"
  top: "loss2/ave_pool"
  pooling_param {
    pool: AVE
    kernel_size: 5
    stride: 3
  }
}
layer {
  name: "loss2/conv"
  type: "Convolution"
  bottom: "loss2/ave_pool"
  top: "loss2/conv"
  param {
    lr_mult: 1
    decay_mult: 1
  }
  param {
    lr_mult: 2
    decay_mult: 0
  }
  convolution_param {
    num_output: 128
    kernel_size: 1
    weight_filler {
      type: "xavier"
      std: 0.08
    }
    bias_filler {
      type: "constant"
      value: 0.2
    }
  }
}
layer {
  name: "loss2/relu_conv"
  type: "ReLU"
  bottom: "loss2/conv"
  top: "loss2/conv"
}
layer {
  name: "loss2/fc"
  type: "InnerProduct"
  bottom: "loss2/conv"
  top: "loss2/fc"
  param {
    lr_mult: 1
    decay_mult: 1
  }
  param {
    lr_mult: 2
    decay_mult: 0
  }
  inner_product_param {
    num_output: 1024
    weight_filler {
      type: "xavier"
      std: 0.02
    }
    bias_filler {
      type: "constant"
      value: 0.2
    }
  }
}
layer {
  name: "loss2/relu_fc"
  type: "ReLU"
  bottom: "loss2/fc"
  top: "loss2/fc"
}
layer {
  name: "loss2/drop_fc"
  type: "Dropout"
  bottom: "loss2/fc"
  top: "loss2/fc"
  dropout_param {
    dropout_ratio: 0.7
  }
}
layer {
  name: "loss2/classifier_plantvillage"
  type: "InnerProduct"
  bottom: "loss2/fc"
  top: "loss2/classifier_plantvillage"
  param {
    lr_mult: 1
    decay_mult: 1
  }
  param {
    lr_mult: 2
    decay_mult: 0
  }
  inner_product_param {
    num_output: 38
    weight_filler {
      type: "xavier"
      std: 0.0009765625
    }
    bias_filler {
      type: "constant"
      value: 0
    }
  }
}
layer {
  name: "inception_4e/1x1"
  type: "Convolution"
  bottom: "inception_4d/output"
  top: "inception_4e/1x1"
  param {
    lr_mult: 1
    decay_mult: 1
  }
  param {
    lr_mult: 2
    decay_mult: 0
  }
  convolution_param {
    num_output: 256
    kernel_size: 1
    weight_filler {
      type: "xavier"
      std: 0.03
    }
    bias_filler {
      type: "constant"
      value: 0.2
    }
  }
}
layer {
  name: "inception_4e/relu_1x1"
  type: "ReLU"
  bottom: "inception_4e/1x1"
  top: "inception_4e/1x1"
}
layer {
  name: "inception_4e/3x3_reduce"
  type: "Convolution"
  bottom: "inception_4d/output"
  top: "inception_4e/3x3_reduce"
  param {
    lr_mult: 1
    decay_mult: 1
  }
  param {
    lr_mult: 2
    decay_mult: 0
  }
  convolution_param {
    num_output: 160
    kernel_size: 1
    weight_filler {
      type: "xavier"
      std: 0.09
    }
    bias_filler {
      type: "constant"
      value: 0.2
    }
  }
}
layer {
  name: "inception_4e/relu_3x3_reduce"
  type: "ReLU"
  bottom: "inception_4e/3x3_reduce"
  top: "inception_4e/3x3_reduce"
}
layer {
  name: "inception_4e/3x3"
  type: "Convolution"
  bottom: "inception_4e/3x3_reduce"
  top: "inception_4e/3x3"
  param {
    lr_mult: 1
    decay_mult: 1
  }
  param {
    lr_mult: 2
    decay_mult: 0
  }
  convolution_param {
    num_output: 320
    pad: 1
    kernel_size: 3
    weight_filler {
      type: "xavier"
      std: 0.03
    }
    bias_filler {
      type: "constant"
      value: 0.2
    }
  }
}
layer {
  name: "inception_4e/relu_3x3"
  type: "ReLU"
  bottom: "inception_4e/3x3"
  top: "inception_4e/3x3"
}
layer {
  name: "inception_4e/5x5_reduce"
  type: "Convolution"
  bottom: "inception_4d/output"
  top: "inception_4e/5x5_reduce"
  param {
    lr_mult: 1
    decay_mult: 1
  }
  param {
    lr_mult: 2
    decay_mult: 0
  }
  convolution_param {
    num_output: 32
    kernel_size: 1
    weight_filler {
      type: "xavier"
      std: 0.2
    }
    bias_filler {
      type: "constant"
      value: 0.2
    }
  }
}
layer {
  name: "inception_4e/relu_5x5_reduce"
  type: "ReLU"
  bottom: "inception_4e/5x5_reduce"
  top: "inception_4e/5x5_reduce"
}
layer {
  name: "inception_4e/5x5"
  type: "Convolution"
  bottom: "inception_4e/5x5_reduce"
  top: "inception_4e/5x5"
  p
I0403 15:08:59.921188 31196 layer_factory.hpp:77] Creating layer data
I0403 15:08:59.921939 31196 net.cpp:91] Creating Layer data
I0403 15:08:59.921978 31196 net.cpp:399] data -> data
I0403 15:08:59.922037 31196 net.cpp:399] data -> label
I0403 15:08:59.922081 31196 data_transformer.cpp:25] Loading mean file from: /home/mohanty/data/final_dataset/lmdb/color-60-40/mean.binaryproto
I0403 15:08:59.925019 31205 db_lmdb.cpp:38] Opened lmdb /home/mohanty/data/final_dataset/lmdb/color-60-40/test_db
I0403 15:08:59.938190 31196 data_layer.cpp:41] output data size: 24,3,224,224
I0403 15:08:59.973588 31196 net.cpp:141] Setting up data
I0403 15:08:59.973680 31196 net.cpp:148] Top shape: 24 3 224 224 (3612672)
I0403 15:08:59.973707 31196 net.cpp:148] Top shape: 24 (24)
I0403 15:08:59.973726 31196 net.cpp:156] Memory required for data: 14450784
I0403 15:08:59.973757 31196 layer_factory.hpp:77] Creating layer label_data_1_split
I0403 15:08:59.973790 31196 net.cpp:91] Creating Layer label_data_1_split
I0403 15:08:59.973812 31196 net.cpp:425] label_data_1_split <- label
I0403 15:08:59.973851 31196 net.cpp:399] label_data_1_split -> label_data_1_split_0
I0403 15:08:59.973886 31196 net.cpp:399] label_data_1_split -> label_data_1_split_1
I0403 15:08:59.973912 31196 net.cpp:399] label_data_1_split -> label_data_1_split_2
I0403 15:08:59.973937 31196 net.cpp:399] label_data_1_split -> label_data_1_split_3
I0403 15:08:59.973959 31196 net.cpp:399] label_data_1_split -> label_data_1_split_4
I0403 15:08:59.973984 31196 net.cpp:399] label_data_1_split -> label_data_1_split_5
I0403 15:08:59.974009 31196 net.cpp:399] label_data_1_split -> label_data_1_split_6
I0403 15:08:59.974035 31196 net.cpp:399] label_data_1_split -> label_data_1_split_7
I0403 15:08:59.974059 31196 net.cpp:399] label_data_1_split -> label_data_1_split_8
I0403 15:08:59.974083 31196 net.cpp:399] label_data_1_split -> label_data_1_split_9
I0403 15:08:59.974222 31196 net.cpp:141] Setting up label_data_1_split
I0403 15:08:59.974251 31196 net.cpp:148] Top shape: 24 (24)
I0403 15:08:59.974272 31196 net.cpp:148] Top shape: 24 (24)
I0403 15:08:59.974308 31196 net.cpp:148] Top shape: 24 (24)
I0403 15:08:59.974330 31196 net.cpp:148] Top shape: 24 (24)
I0403 15:08:59.974350 31196 net.cpp:148] Top shape: 24 (24)
I0403 15:08:59.974369 31196 net.cpp:148] Top shape: 24 (24)
I0403 15:08:59.974387 31196 net.cpp:148] Top shape: 24 (24)
I0403 15:08:59.974406 31196 net.cpp:148] Top shape: 24 (24)
I0403 15:08:59.974426 31196 net.cpp:148] Top shape: 24 (24)
I0403 15:08:59.974447 31196 net.cpp:148] Top shape: 24 (24)
I0403 15:08:59.974490 31196 net.cpp:156] Memory required for data: 14451744
I0403 15:08:59.974509 31196 layer_factory.hpp:77] Creating layer conv1/7x7_s2
I0403 15:08:59.974547 31196 net.cpp:91] Creating Layer conv1/7x7_s2
I0403 15:08:59.974573 31196 net.cpp:425] conv1/7x7_s2 <- data
I0403 15:08:59.974601 31196 net.cpp:399] conv1/7x7_s2 -> conv1/7x7_s2
I0403 15:09:00.136862 31196 net.cpp:141] Setting up conv1/7x7_s2
I0403 15:09:00.136940 31196 net.cpp:148] Top shape: 24 64 112 112 (19267584)
I0403 15:09:00.136977 31196 net.cpp:156] Memory required for data: 91522080
I0403 15:09:00.137040 31196 layer_factory.hpp:77] Creating layer conv1/relu_7x7
I0403 15:09:00.137087 31196 net.cpp:91] Creating Layer conv1/relu_7x7
I0403 15:09:00.137130 31196 net.cpp:425] conv1/relu_7x7 <- conv1/7x7_s2
I0403 15:09:00.137158 31196 net.cpp:386] conv1/relu_7x7 -> conv1/7x7_s2 (in-place)
I0403 15:09:00.137495 31196 net.cpp:141] Setting up conv1/relu_7x7
I0403 15:09:00.137528 31196 net.cpp:148] Top shape: 24 64 112 112 (19267584)
I0403 15:09:00.137548 31196 net.cpp:156] Memory required for data: 168592416
I0403 15:09:00.137567 31196 layer_factory.hpp:77] Creating layer pool1/3x3_s2
I0403 15:09:00.137598 31196 net.cpp:91] Creating Layer pool1/3x3_s2
I0403 15:09:00.137624 31196 net.cpp:425] pool1/3x3_s2 <- conv1/7x7_s2
I0403 15:09:00.137650 31196 net.cpp:399] pool1/3x3_s2 -> pool1/3x3_s2
I0403 15:09:00.137743 31196 net.cpp:141] Setting up pool1/3x3_s2
I0403 15:09:00.137773 31196 net.cpp:148] Top shape: 24 64 56 56 (4816896)
I0403 15:09:00.137791 31196 net.cpp:156] Memory required for data: 187860000
I0403 15:09:00.137810 31196 layer_factory.hpp:77] Creating layer pool1/norm1
I0403 15:09:00.137845 31196 net.cpp:91] Creating Layer pool1/norm1
I0403 15:09:00.137868 31196 net.cpp:425] pool1/norm1 <- pool1/3x3_s2
I0403 15:09:00.137893 31196 net.cpp:399] pool1/norm1 -> pool1/norm1
I0403 15:09:00.138257 31196 net.cpp:141] Setting up pool1/norm1
I0403 15:09:00.138316 31196 net.cpp:148] Top shape: 24 64 56 56 (4816896)
I0403 15:09:00.138353 31196 net.cpp:156] Memory required for data: 207127584
I0403 15:09:00.138391 31196 layer_factory.hpp:77] Creating layer conv2/3x3_reduce
I0403 15:09:00.138437 31196 net.cpp:91] Creating Layer conv2/3x3_reduce
I0403 15:09:00.138476 31196 net.cpp:425] conv2/3x3_reduce <- pool1/norm1
I0403 15:09:00.138512 31196 net.cpp:399] conv2/3x3_reduce -> conv2/3x3_reduce
I0403 15:09:00.140175 31196 net.cpp:141] Setting up conv2/3x3_reduce
I0403 15:09:00.140211 31196 net.cpp:148] Top shape: 24 64 56 56 (4816896)
I0403 15:09:00.140231 31196 net.cpp:156] Memory required for data: 226395168
I0403 15:09:00.140257 31196 layer_factory.hpp:77] Creating layer conv2/relu_3x3_reduce
I0403 15:09:00.140288 31196 net.cpp:91] Creating Layer conv2/relu_3x3_reduce
I0403 15:09:00.140311 31196 net.cpp:425] conv2/relu_3x3_reduce <- conv2/3x3_reduce
I0403 15:09:00.140332 31196 net.cpp:386] conv2/relu_3x3_reduce -> conv2/3x3_reduce (in-place)
I0403 15:09:00.140655 31196 net.cpp:141] Setting up conv2/relu_3x3_reduce
I0403 15:09:00.140689 31196 net.cpp:148] Top shape: 24 64 56 56 (4816896)
I0403 15:09:00.140707 31196 net.cpp:156] Memory required for data: 245662752
I0403 15:09:00.140727 31196 layer_factory.hpp:77] Creating layer conv2/3x3
I0403 15:09:00.140784 31196 net.cpp:91] Creating Layer conv2/3x3
I0403 15:09:00.140822 31196 net.cpp:425] conv2/3x3 <- conv2/3x3_reduce
I0403 15:09:00.140866 31196 net.cpp:399] conv2/3x3 -> conv2/3x3
I0403 15:09:00.143779 31196 net.cpp:141] Setting up conv2/3x3
I0403 15:09:00.143816 31196 net.cpp:148] Top shape: 24 192 56 56 (14450688)
I0403 15:09:00.143836 31196 net.cpp:156] Memory required for data: 303465504
I0403 15:09:00.143867 31196 layer_factory.hpp:77] Creating layer conv2/relu_3x3
I0403 15:09:00.143892 31196 net.cpp:91] Creating Layer conv2/relu_3x3
I0403 15:09:00.143911 31196 net.cpp:425] conv2/relu_3x3 <- conv2/3x3
I0403 15:09:00.143932 31196 net.cpp:386] conv2/relu_3x3 -> conv2/3x3 (in-place)
I0403 15:09:00.144150 31196 net.cpp:141] Setting up conv2/relu_3x3
I0403 15:09:00.144183 31196 net.cpp:148] Top shape: 24 192 56 56 (14450688)
I0403 15:09:00.144237 31196 net.cpp:156] Memory required for data: 361268256
I0403 15:09:00.144258 31196 layer_factory.hpp:77] Creating layer conv2/norm2
I0403 15:09:00.144280 31196 net.cpp:91] Creating Layer conv2/norm2
I0403 15:09:00.144317 31196 net.cpp:425] conv2/norm2 <- conv2/3x3
I0403 15:09:00.144345 31196 net.cpp:399] conv2/norm2 -> conv2/norm2
I0403 15:09:00.144724 31196 net.cpp:141] Setting up conv2/norm2
I0403 15:09:00.144758 31196 net.cpp:148] Top shape: 24 192 56 56 (14450688)
I0403 15:09:00.144776 31196 net.cpp:156] Memory required for data: 419071008
I0403 15:09:00.144795 31196 layer_factory.hpp:77] Creating layer pool2/3x3_s2
I0403 15:09:00.144817 31196 net.cpp:91] Creating Layer pool2/3x3_s2
I0403 15:09:00.144836 31196 net.cpp:425] pool2/3x3_s2 <- conv2/norm2
I0403 15:09:00.144861 31196 net.cpp:399] pool2/3x3_s2 -> pool2/3x3_s2
I0403 15:09:00.144927 31196 net.cpp:141] Setting up pool2/3x3_s2
I0403 15:09:00.144959 31196 net.cpp:148] Top shape: 24 192 28 28 (3612672)
I0403 15:09:00.144979 31196 net.cpp:156] Memory required for data: 433521696
I0403 15:09:00.144997 31196 layer_factory.hpp:77] Creating layer pool2/3x3_s2_pool2/3x3_s2_0_split
I0403 15:09:00.145018 31196 net.cpp:91] Creating Layer pool2/3x3_s2_pool2/3x3_s2_0_split
I0403 15:09:00.145036 31196 net.cpp:425] pool2/3x3_s2_pool2/3x3_s2_0_split <- pool2/3x3_s2
I0403 15:09:00.145057 31196 net.cpp:399] pool2/3x3_s2_pool2/3x3_s2_0_split -> pool2/3x3_s2_pool2/3x3_s2_0_split_0
I0403 15:09:00.145083 31196 net.cpp:399] pool2/3x3_s2_pool2/3x3_s2_0_split -> pool2/3x3_s2_pool2/3x3_s2_0_split_1
I0403 15:09:00.145110 31196 net.cpp:399] pool2/3x3_s2_pool2/3x3_s2_0_split -> pool2/3x3_s2_pool2/3x3_s2_0_split_2
I0403 15:09:00.145134 31196 net.cpp:399] pool2/3x3_s2_pool2/3x3_s2_0_split -> pool2/3x3_s2_pool2/3x3_s2_0_split_3
I0403 15:09:00.145220 31196 net.cpp:141] Setting up pool2/3x3_s2_pool2/3x3_s2_0_split
I0403 15:09:00.145247 31196 net.cpp:148] Top shape: 24 192 28 28 (3612672)
I0403 15:09:00.145268 31196 net.cpp:148] Top shape: 24 192 28 28 (3612672)
I0403 15:09:00.145292 31196 net.cpp:148] Top shape: 24 192 28 28 (3612672)
I0403 15:09:00.145313 31196 net.cpp:148] Top shape: 24 192 28 28 (3612672)
I0403 15:09:00.145331 31196 net.cpp:156] Memory required for data: 491324448
I0403 15:09:00.145349 31196 layer_factory.hpp:77] Creating layer inception_3a/1x1
I0403 15:09:00.145376 31196 net.cpp:91] Creating Layer inception_3a/1x1
I0403 15:09:00.145400 31196 net.cpp:425] inception_3a/1x1 <- pool2/3x3_s2_pool2/3x3_s2_0_split_0
I0403 15:09:00.145422 31196 net.cpp:399] inception_3a/1x1 -> inception_3a/1x1
I0403 15:09:00.147261 31196 net.cpp:141] Setting up inception_3a/1x1
I0403 15:09:00.147303 31196 net.cpp:148] Top shape: 24 64 28 28 (1204224)
I0403 15:09:00.147323 31196 net.cpp:156] Memory required for data: 496141344
I0403 15:09:00.147346 31196 layer_factory.hpp:77] Creating layer inception_3a/relu_1x1
I0403 15:09:00.147372 31196 net.cpp:91] Creating Layer inception_3a/relu_1x1
I0403 15:09:00.147392 31196 net.cpp:425] inception_3a/relu_1x1 <- inception_3a/1x1
I0403 15:09:00.147413 31196 net.cpp:386] inception_3a/relu_1x1 -> inception_3a/1x1 (in-place)
I0403 15:09:00.147626 31196 net.cpp:141] Setting up inception_3a/relu_1x1
I0403 15:09:00.147670 31196 net.cpp:148] Top shape: 24 64 28 28 (1204224)
I0403 15:09:00.147692 31196 net.cpp:156] Memory required for data: 500958240
I0403 15:09:00.147721 31196 layer_factory.hpp:77] Creating layer inception_3a/3x3_reduce
I0403 15:09:00.147756 31196 net.cpp:91] Creating Layer inception_3a/3x3_reduce
I0403 15:09:00.147778 31196 net.cpp:425] inception_3a/3x3_reduce <- pool2/3x3_s2_pool2/3x3_s2_0_split_1
I0403 15:09:00.147804 31196 net.cpp:399] inception_3a/3x3_reduce -> inception_3a/3x3_reduce
I0403 15:09:00.149972 31196 net.cpp:141] Setting up inception_3a/3x3_reduce
I0403 15:09:00.150009 31196 net.cpp:148] Top shape: 24 96 28 28 (1806336)
I0403 15:09:00.150048 31196 net.cpp:156] Memory required for data: 508183584
I0403 15:09:00.150106 31196 layer_factory.hpp:77] Creating layer inception_3a/relu_3x3_reduce
I0403 15:09:00.150166 31196 net.cpp:91] Creating Layer inception_3a/relu_3x3_reduce
I0403 15:09:00.150203 31196 net.cpp:425] inception_3a/relu_3x3_reduce <- inception_3a/3x3_reduce
I0403 15:09:00.150255 31196 net.cpp:386] inception_3a/relu_3x3_reduce -> inception_3a/3x3_reduce (in-place)
I0403 15:09:00.150486 31196 net.cpp:141] Setting up inception_3a/relu_3x3_reduce
I0403 15:09:00.150518 31196 net.cpp:148] Top shape: 24 96 28 28 (1806336)
I0403 15:09:00.150537 31196 net.cpp:156] Memory required for data: 515408928
I0403 15:09:00.150557 31196 layer_factory.hpp:77] Creating layer inception_3a/3x3
I0403 15:09:00.150588 31196 net.cpp:91] Creating Layer inception_3a/3x3
I0403 15:09:00.150609 31196 net.cpp:425] inception_3a/3x3 <- inception_3a/3x3_reduce
I0403 15:09:00.150635 31196 net.cpp:399] inception_3a/3x3 -> inception_3a/3x3
I0403 15:09:00.152637 31196 net.cpp:141] Setting up inception_3a/3x3
I0403 15:09:00.152673 31196 net.cpp:148] Top shape: 24 128 28 28 (2408448)
I0403 15:09:00.152691 31196 net.cpp:156] Memory required for data: 525042720
I0403 15:09:00.152714 31196 layer_factory.hpp:77] Creating layer inception_3a/relu_3x3
I0403 15:09:00.152740 31196 net.cpp:91] Creating Layer inception_3a/relu_3x3
I0403 15:09:00.152761 31196 net.cpp:425] inception_3a/relu_3x3 <- inception_3a/3x3
I0403 15:09:00.152784 31196 net.cpp:386] inception_3a/relu_3x3 -> inception_3a/3x3 (in-place)
I0403 15:09:00.153108 31196 net.cpp:141] Setting up inception_3a/relu_3x3
I0403 15:09:00.153141 31196 net.cpp:148] Top shape: 24 128 28 28 (2408448)
I0403 15:09:00.153159 31196 net.cpp:156] Memory required for data: 534676512
I0403 15:09:00.153177 31196 layer_factory.hpp:77] Creating layer inception_3a/5x5_reduce
I0403 15:09:00.153205 31196 net.cpp:91] Creating Layer inception_3a/5x5_reduce
I0403 15:09:00.153229 31196 net.cpp:425] inception_3a/5x5_reduce <- pool2/3x3_s2_pool2/3x3_s2_0_split_2
I0403 15:09:00.153255 31196 net.cpp:399] inception_3a/5x5_reduce -> inception_3a/5x5_reduce
I0403 15:09:00.154425 31196 net.cpp:141] Setting up inception_3a/5x5_reduce
I0403 15:09:00.154460 31196 net.cpp:148] Top shape: 24 16 28 28 (301056)
I0403 15:09:00.154479 31196 net.cpp:156] Memory required for data: 535880736
I0403 15:09:00.154501 31196 layer_factory.hpp:77] Creating layer inception_3a/relu_5x5_reduce
I0403 15:09:00.154527 31196 net.cpp:91] Creating Layer inception_3a/relu_5x5_reduce
I0403 15:09:00.154548 31196 net.cpp:425] inception_3a/relu_5x5_reduce <- inception_3a/5x5_reduce
I0403 15:09:00.154572 31196 net.cpp:386] inception_3a/relu_5x5_reduce -> inception_3a/5x5_reduce (in-place)
I0403 15:09:00.155061 31196 net.cpp:141] Setting up inception_3a/relu_5x5_reduce
I0403 15:09:00.155095 31196 net.cpp:148] Top shape: 24 16 28 28 (301056)
I0403 15:09:00.155115 31196 net.cpp:156] Memory required for data: 537084960
I0403 15:09:00.155134 31196 layer_factory.hpp:77] Creating layer inception_3a/5x5
I0403 15:09:00.155164 31196 net.cpp:91] Creating Layer inception_3a/5x5
I0403 15:09:00.155185 31196 net.cpp:425] inception_3a/5x5 <- inception_3a/5x5_reduce
I0403 15:09:00.155210 31196 net.cpp:399] inception_3a/5x5 -> inception_3a/5x5
I0403 15:09:00.156443 31196 net.cpp:141] Setting up inception_3a/5x5
I0403 15:09:00.156478 31196 net.cpp:148] Top shape: 24 32 28 28 (602112)
I0403 15:09:00.156497 31196 net.cpp:156] Memory required for data: 539493408
I0403 15:09:00.156520 31196 layer_factory.hpp:77] Creating layer inception_3a/relu_5x5
I0403 15:09:00.156546 31196 net.cpp:91] Creating Layer inception_3a/relu_5x5
I0403 15:09:00.156568 31196 net.cpp:425] inception_3a/relu_5x5 <- inception_3a/5x5
I0403 15:09:00.156589 31196 net.cpp:386] inception_3a/relu_5x5 -> inception_3a/5x5 (in-place)
I0403 15:09:00.156797 31196 net.cpp:141] Setting up inception_3a/relu_5x5
I0403 15:09:00.156857 31196 net.cpp:148] Top shape: 24 32 28 28 (602112)
I0403 15:09:00.156878 31196 net.cpp:156] Memory required for data: 541901856
I0403 15:09:00.156898 31196 layer_factory.hpp:77] Creating layer inception_3a/pool
I0403 15:09:00.156920 31196 net.cpp:91] Creating Layer inception_3a/pool
I0403 15:09:00.156939 31196 net.cpp:425] inception_3a/pool <- pool2/3x3_s2_pool2/3x3_s2_0_split_3
I0403 15:09:00.156980 31196 net.cpp:399] inception_3a/pool -> inception_3a/pool
I0403 15:09:00.157052 31196 net.cpp:141] Setting up inception_3a/pool
I0403 15:09:00.157081 31196 net.cpp:148] Top shape: 24 192 28 28 (3612672)
I0403 15:09:00.157100 31196 net.cpp:156] Memory required for data: 556352544
I0403 15:09:00.157119 31196 layer_factory.hpp:77] Creating layer inception_3a/pool_proj
I0403 15:09:00.157146 31196 net.cpp:91] Creating Layer inception_3a/pool_proj
I0403 15:09:00.157169 31196 net.cpp:425] inception_3a/pool_proj <- inception_3a/pool
I0403 15:09:00.157197 31196 net.cpp:399] inception_3a/pool_proj -> inception_3a/pool_proj
I0403 15:09:00.158459 31196 net.cpp:141] Setting up inception_3a/pool_proj
I0403 15:09:00.158494 31196 net.cpp:148] Top shape: 24 32 28 28 (602112)
I0403 15:09:00.158514 31196 net.cpp:156] Memory required for data: 558760992
I0403 15:09:00.158542 31196 layer_factory.hpp:77] Creating layer inception_3a/relu_pool_proj
I0403 15:09:00.158570 31196 net.cpp:91] Creating Layer inception_3a/relu_pool_proj
I0403 15:09:00.158591 31196 net.cpp:425] inception_3a/relu_pool_proj <- inception_3a/pool_proj
I0403 15:09:00.158612 31196 net.cpp:386] inception_3a/relu_pool_proj -> inception_3a/pool_proj (in-place)
I0403 15:09:00.158953 31196 net.cpp:141] Setting up inception_3a/relu_pool_proj
I0403 15:09:00.158987 31196 net.cpp:148] Top shape: 24 32 28 28 (602112)
I0403 15:09:00.159004 31196 net.cpp:156] Memory required for data: 561169440
I0403 15:09:00.159024 31196 layer_factory.hpp:77] Creating layer inception_3a/output
I0403 15:09:00.159049 31196 net.cpp:91] Creating Layer inception_3a/output
I0403 15:09:00.159070 31196 net.cpp:425] inception_3a/output <- inception_3a/1x1
I0403 15:09:00.159090 31196 net.cpp:425] inception_3a/output <- inception_3a/3x3
I0403 15:09:00.159111 31196 net.cpp:425] inception_3a/output <- inception_3a/5x5
I0403 15:09:00.159131 31196 net.cpp:425] inception_3a/output <- inception_3a/pool_proj
I0403 15:09:00.159150 31196 net.cpp:399] inception_3a/output -> inception_3a/output
I0403 15:09:00.159210 31196 net.cpp:141] Setting up inception_3a/output
I0403 15:09:00.159240 31196 net.cpp:148] Top shape: 24 256 28 28 (4816896)
I0403 15:09:00.159257 31196 net.cpp:156] Memory required for data: 580437024
I0403 15:09:00.159277 31196 layer_factory.hpp:77] Creating layer inception_3a/output_inception_3a/output_0_split
I0403 15:09:00.159304 31196 net.cpp:91] Creating Layer inception_3a/output_inception_3a/output_0_split
I0403 15:09:00.159324 31196 net.cpp:425] inception_3a/output_inception_3a/output_0_split <- inception_3a/output
I0403 15:09:00.159348 31196 net.cpp:399] inception_3a/output_inception_3a/output_0_split -> inception_3a/output_inception_3a/output_0_split_0
I0403 15:09:00.159374 31196 net.cpp:399] inception_3a/output_inception_3a/output_0_split -> inception_3a/output_inception_3a/output_0_split_1
I0403 15:09:00.159404 31196 net.cpp:399] inception_3a/output_inception_3a/output_0_split -> inception_3a/output_inception_3a/output_0_split_2
I0403 15:09:00.159432 31196 net.cpp:399] inception_3a/output_inception_3a/output_0_split -> inception_3a/output_inception_3a/output_0_split_3
I0403 15:09:00.159526 31196 net.cpp:141] Setting up inception_3a/output_inception_3a/output_0_split
I0403 15:09:00.159555 31196 net.cpp:148] Top shape: 24 256 28 28 (4816896)
I0403 15:09:00.159579 31196 net.cpp:148] Top shape: 24 256 28 28 (4816896)
I0403 15:09:00.159597 31196 net.cpp:148] Top shape: 24 256 28 28 (4816896)
I0403 15:09:00.159616 31196 net.cpp:148] Top shape: 24 256 28 28 (4816896)
I0403 15:09:00.159634 31196 net.cpp:156] Memory required for data: 657507360
I0403 15:09:00.159652 31196 layer_factory.hpp:77] Creating layer inception_3b/1x1
I0403 15:09:00.159680 31196 net.cpp:91] Creating Layer inception_3b/1x1
I0403 15:09:00.159704 31196 net.cpp:425] inception_3b/1x1 <- inception_3a/output_inception_3a/output_0_split_0
I0403 15:09:00.159730 31196 net.cpp:399] inception_3b/1x1 -> inception_3b/1x1
I0403 15:09:00.161118 31196 net.cpp:141] Setting up inception_3b/1x1
I0403 15:09:00.161167 31196 net.cpp:148] Top shape: 24 128 28 28 (2408448)
I0403 15:09:00.161187 31196 net.cpp:156] Memory required for data: 667141152
I0403 15:09:00.161211 31196 layer_factory.hpp:77] Creating layer inception_3b/relu_1x1
I0403 15:09:00.161237 31196 net.cpp:91] Creating Layer inception_3b/relu_1x1
I0403 15:09:00.161258 31196 net.cpp:425] inception_3b/relu_1x1 <- inception_3b/1x1
I0403 15:09:00.161280 31196 net.cpp:386] inception_3b/relu_1x1 -> inception_3b/1x1 (in-place)
I0403 15:09:00.161499 31196 net.cpp:141] Setting up inception_3b/relu_1x1
I0403 15:09:00.161531 31196 net.cpp:148] Top shape: 24 128 28 28 (2408448)
I0403 15:09:00.161550 31196 net.cpp:156] Memory required for data: 676774944
I0403 15:09:00.161568 31196 layer_factory.hpp:77] Creating layer inception_3b/3x3_reduce
I0403 15:09:00.161595 31196 net.cpp:91] Creating Layer inception_3b/3x3_reduce
I0403 15:09:00.161618 31196 net.cpp:425] inception_3b/3x3_reduce <- inception_3a/output_inception_3a/output_0_split_1
I0403 15:09:00.161644 31196 net.cpp:399] inception_3b/3x3_reduce -> inception_3b/3x3_reduce
I0403 15:09:00.163033 31196 net.cpp:141] Setting up inception_3b/3x3_reduce
I0403 15:09:00.163069 31196 net.cpp:148] Top shape: 24 128 28 28 (2408448)
I0403 15:09:00.163089 31196 net.cpp:156] Memory required for data: 686408736
I0403 15:09:00.163111 31196 layer_factory.hpp:77] Creating layer inception_3b/relu_3x3_reduce
I0403 15:09:00.163135 31196 net.cpp:91] Creating Layer inception_3b/relu_3x3_reduce
I0403 15:09:00.163154 31196 net.cpp:425] inception_3b/relu_3x3_reduce <- inception_3b/3x3_reduce
I0403 15:09:00.163179 31196 net.cpp:386] inception_3b/relu_3x3_reduce -> inception_3b/3x3_reduce (in-place)
I0403 15:09:00.163398 31196 net.cpp:141] Setting up inception_3b/relu_3x3_reduce
I0403 15:09:00.163429 31196 net.cpp:148] Top shape: 24 128 28 28 (2408448)
I0403 15:09:00.163447 31196 net.cpp:156] Memory required for data: 696042528
I0403 15:09:00.163465 31196 layer_factory.hpp:77] Creating layer inception_3b/3x3
I0403 15:09:00.163497 31196 net.cpp:91] Creating Layer inception_3b/3x3
I0403 15:09:00.163519 31196 net.cpp:425] inception_3b/3x3 <- inception_3b/3x3_reduce
I0403 15:09:00.163544 31196 net.cpp:399] inception_3b/3x3 -> inception_3b/3x3
I0403 15:09:00.167089 31196 net.cpp:141] Setting up inception_3b/3x3
I0403 15:09:00.167125 31196 net.cpp:148] Top shape: 24 192 28 28 (3612672)
I0403 15:09:00.167143 31196 net.cpp:156] Memory required for data: 710493216
I0403 15:09:00.167165 31196 layer_factory.hpp:77] Creating layer inception_3b/relu_3x3
I0403 15:09:00.167191 31196 net.cpp:91] Creating Layer inception_3b/relu_3x3
I0403 15:09:00.167212 31196 net.cpp:425] inception_3b/relu_3x3 <- inception_3b/3x3
I0403 15:09:00.167234 31196 net.cpp:386] inception_3b/relu_3x3 -> inception_3b/3x3 (in-place)
I0403 15:09:00.167570 31196 net.cpp:141] Setting up inception_3b/relu_3x3
I0403 15:09:00.167603 31196 net.cpp:148] Top shape: 24 192 28 28 (3612672)
I0403 15:09:00.167620 31196 net.cpp:156] Memory required for data: 724943904
I0403 15:09:00.167639 31196 layer_factory.hpp:77] Creating layer inception_3b/5x5_reduce
I0403 15:09:00.167667 31196 net.cpp:91] Creating Layer inception_3b/5x5_reduce
I0403 15:09:00.167690 31196 net.cpp:425] inception_3b/5x5_reduce <- inception_3a/output_inception_3a/output_0_split_2
I0403 15:09:00.167716 31196 net.cpp:399] inception_3b/5x5_reduce -> inception_3b/5x5_reduce
I0403 15:09:00.168915 31196 net.cpp:141] Setting up inception_3b/5x5_reduce
I0403 15:09:00.168951 31196 net.cpp:148] Top shape: 24 32 28 28 (602112)
I0403 15:09:00.168970 31196 net.cpp:156] Memory required for data: 727352352
I0403 15:09:00.168993 31196 layer_factory.hpp:77] Creating layer inception_3b/relu_5x5_reduce
I0403 15:09:00.169018 31196 net.cpp:91] Creating Layer inception_3b/relu_5x5_reduce
I0403 15:09:00.169039 31196 net.cpp:425] inception_3b/relu_5x5_reduce <- inception_3b/5x5_reduce
I0403 15:09:00.169062 31196 net.cpp:386] inception_3b/relu_5x5_reduce -> inception_3b/5x5_reduce (in-place)
I0403 15:09:00.169278 31196 net.cpp:141] Setting up inception_3b/relu_5x5_reduce
I0403 15:09:00.169332 31196 net.cpp:148] Top shape: 24 32 28 28 (602112)
I0403 15:09:00.169353 31196 net.cpp:156] Memory required for data: 729760800
I0403 15:09:00.169373 31196 layer_factory.hpp:77] Creating layer inception_3b/5x5
I0403 15:09:00.169400 31196 net.cpp:91] Creating Layer inception_3b/5x5
I0403 15:09:00.169421 31196 net.cpp:425] inception_3b/5x5 <- inception_3b/5x5_reduce
I0403 15:09:00.169445 31196 net.cpp:399] inception_3b/5x5 -> inception_3b/5x5
I0403 15:09:00.171870 31196 net.cpp:141] Setting up inception_3b/5x5
I0403 15:09:00.171906 31196 net.cpp:148] Top shape: 24 96 28 28 (1806336)
I0403 15:09:00.171926 31196 net.cpp:156] Memory required for data: 736986144
I0403 15:09:00.171947 31196 layer_factory.hpp:77] Creating layer inception_3b/relu_5x5
I0403 15:09:00.171970 31196 net.cpp:91] Creating Layer inception_3b/relu_5x5
I0403 15:09:00.171990 31196 net.cpp:425] inception_3b/relu_5x5 <- inception_3b/5x5
I0403 15:09:00.172014 31196 net.cpp:386] inception_3b/relu_5x5 -> inception_3b/5x5 (in-place)
I0403 15:09:00.172251 31196 net.cpp:141] Setting up inception_3b/relu_5x5
I0403 15:09:00.172287 31196 net.cpp:148] Top shape: 24 96 28 28 (1806336)
I0403 15:09:00.172307 31196 net.cpp:156] Memory required for data: 744211488
I0403 15:09:00.172327 31196 layer_factory.hpp:77] Creating layer inception_3b/pool
I0403 15:09:00.172348 31196 net.cpp:91] Creating Layer inception_3b/pool
I0403 15:09:00.172366 31196 net.cpp:425] inception_3b/pool <- inception_3a/output_inception_3a/output_0_split_3
I0403 15:09:00.172389 31196 net.cpp:399] inception_3b/pool -> inception_3b/pool
I0403 15:09:00.172458 31196 net.cpp:141] Setting up inception_3b/pool
I0403 15:09:00.172487 31196 net.cpp:148] Top shape: 24 256 28 28 (4816896)
I0403 15:09:00.172507 31196 net.cpp:156] Memory required for data: 763479072
I0403 15:09:00.172525 31196 layer_factory.hpp:77] Creating layer inception_3b/pool_proj
I0403 15:09:00.172552 31196 net.cpp:91] Creating Layer inception_3b/pool_proj
I0403 15:09:00.172574 31196 net.cpp:425] inception_3b/pool_proj <- inception_3b/pool
I0403 15:09:00.172600 31196 net.cpp:399] inception_3b/pool_proj -> inception_3b/pool_proj
I0403 15:09:00.173878 31196 net.cpp:141] Setting up inception_3b/pool_proj
I0403 15:09:00.173915 31196 net.cpp:148] Top shape: 24 64 28 28 (1204224)
I0403 15:09:00.173934 31196 net.cpp:156] Memory required for data: 768295968
I0403 15:09:00.173957 31196 layer_factory.hpp:77] Creating layer inception_3b/relu_pool_proj
I0403 15:09:00.173980 31196 net.cpp:91] Creating Layer inception_3b/relu_pool_proj
I0403 15:09:00.174000 31196 net.cpp:425] inception_3b/relu_pool_proj <- inception_3b/pool_proj
I0403 15:09:00.174021 31196 net.cpp:386] inception_3b/relu_pool_proj -> inception_3b/pool_proj (in-place)
I0403 15:09:00.174569 31196 net.cpp:141] Setting up inception_3b/relu_pool_proj
I0403 15:09:00.174602 31196 net.cpp:148] Top shape: 24 64 28 28 (1204224)
I0403 15:09:00.174621 31196 net.cpp:156] Memory required for data: 773112864
I0403 15:09:00.174640 31196 layer_factory.hpp:77] Creating layer inception_3b/output
I0403 15:09:00.174665 31196 net.cpp:91] Creating Layer inception_3b/output
I0403 15:09:00.174688 31196 net.cpp:425] inception_3b/output <- inception_3b/1x1
I0403 15:09:00.174710 31196 net.cpp:425] inception_3b/output <- inception_3b/3x3
I0403 15:09:00.174728 31196 net.cpp:425] inception_3b/output <- inception_3b/5x5
I0403 15:09:00.174747 31196 net.cpp:425] inception_3b/output <- inception_3b/pool_proj
I0403 15:09:00.174768 31196 net.cpp:399] inception_3b/output -> inception_3b/output
I0403 15:09:00.174824 31196 net.cpp:141] Setting up inception_3b/output
I0403 15:09:00.174852 31196 net.cpp:148] Top shape: 24 480 28 28 (9031680)
I0403 15:09:00.174875 31196 net.cpp:156] Memory required for data: 809239584
I0403 15:09:00.174893 31196 layer_factory.hpp:77] Creating layer pool3/3x3_s2
I0403 15:09:00.174937 31196 net.cpp:91] Creating Layer pool3/3x3_s2
I0403 15:09:00.174988 31196 net.cpp:425] pool3/3x3_s2 <- inception_3b/output
I0403 15:09:00.175035 31196 net.cpp:399] pool3/3x3_s2 -> pool3/3x3_s2
I0403 15:09:00.175153 31196 net.cpp:141] Setting up pool3/3x3_s2
I0403 15:09:00.175184 31196 net.cpp:148] Top shape: 24 480 14 14 (2257920)
I0403 15:09:00.175201 31196 net.cpp:156] Memory required for data: 818271264
I0403 15:09:00.175220 31196 layer_factory.hpp:77] Creating layer pool3/3x3_s2_pool3/3x3_s2_0_split
I0403 15:09:00.175240 31196 net.cpp:91] Creating Layer pool3/3x3_s2_pool3/3x3_s2_0_split
I0403 15:09:00.175258 31196 net.cpp:425] pool3/3x3_s2_pool3/3x3_s2_0_split <- pool3/3x3_s2
I0403 15:09:00.175287 31196 net.cpp:399] pool3/3x3_s2_pool3/3x3_s2_0_split -> pool3/3x3_s2_pool3/3x3_s2_0_split_0
I0403 15:09:00.175314 31196 net.cpp:399] pool3/3x3_s2_pool3/3x3_s2_0_split -> pool3/3x3_s2_pool3/3x3_s2_0_split_1
I0403 15:09:00.175346 31196 net.cpp:399] pool3/3x3_s2_pool3/3x3_s2_0_split -> pool3/3x3_s2_pool3/3x3_s2_0_split_2
I0403 15:09:00.175400 31196 net.cpp:399] pool3/3x3_s2_pool3/3x3_s2_0_split -> pool3/3x3_s2_pool3/3x3_s2_0_split_3
I0403 15:09:00.175505 31196 net.cpp:141] Setting up pool3/3x3_s2_pool3/3x3_s2_0_split
I0403 15:09:00.175537 31196 net.cpp:148] Top shape: 24 480 14 14 (2257920)
I0403 15:09:00.175559 31196 net.cpp:148] Top shape: 24 480 14 14 (2257920)
I0403 15:09:00.175580 31196 net.cpp:148] Top shape: 24 480 14 14 (2257920)
I0403 15:09:00.175597 31196 net.cpp:148] Top shape: 24 480 14 14 (2257920)
I0403 15:09:00.175613 31196 net.cpp:156] Memory required for data: 854397984
I0403 15:09:00.175631 31196 layer_factory.hpp:77] Creating layer inception_4a/1x1
I0403 15:09:00.175657 31196 net.cpp:91] Creating Layer inception_4a/1x1
I0403 15:09:00.175678 31196 net.cpp:425] inception_4a/1x1 <- pool3/3x3_s2_pool3/3x3_s2_0_split_0
I0403 15:09:00.175701 31196 net.cpp:399] inception_4a/1x1 -> inception_4a/1x1
I0403 15:09:00.177959 31196 net.cpp:141] Setting up inception_4a/1x1
I0403 15:09:00.177996 31196 net.cpp:148] Top shape: 24 192 14 14 (903168)
I0403 15:09:00.178015 31196 net.cpp:156] Memory required for data: 858010656
I0403 15:09:00.178038 31196 layer_factory.hpp:77] Creating layer inception_4a/relu_1x1
I0403 15:09:00.178061 31196 net.cpp:91] Creating Layer inception_4a/relu_1x1
I0403 15:09:00.178082 31196 net.cpp:425] inception_4a/relu_1x1 <- inception_4a/1x1
I0403 15:09:00.178107 31196 net.cpp:386] inception_4a/relu_1x1 -> inception_4a/1x1 (in-place)
I0403 15:09:00.178333 31196 net.cpp:141] Setting up inception_4a/relu_1x1
I0403 15:09:00.178364 31196 net.cpp:148] Top shape: 24 192 14 14 (903168)
I0403 15:09:00.178381 31196 net.cpp:156] Memory required for data: 861623328
I0403 15:09:00.178400 31196 layer_factory.hpp:77] Creating layer inception_4a/3x3_reduce
I0403 15:09:00.178428 31196 net.cpp:91] Creating Layer inception_4a/3x3_reduce
I0403 15:09:00.178449 31196 net.cpp:425] inception_4a/3x3_reduce <- pool3/3x3_s2_pool3/3x3_s2_0_split_1
I0403 15:09:00.178475 31196 net.cpp:399] inception_4a/3x3_reduce -> inception_4a/3x3_reduce
I0403 15:09:00.180027 31196 net.cpp:141] Setting up inception_4a/3x3_reduce
I0403 15:09:00.180064 31196 net.cpp:148] Top shape: 24 96 14 14 (451584)
I0403 15:09:00.180085 31196 net.cpp:156] Memory required for data: 863429664
I0403 15:09:00.180117 31196 layer_factory.hpp:77] Creating layer inception_4a/relu_3x3_reduce
I0403 15:09:00.180142 31196 net.cpp:91] Creating Layer inception_4a/relu_3x3_reduce
I0403 15:09:00.180162 31196 net.cpp:425] inception_4a/relu_3x3_reduce <- inception_4a/3x3_reduce
I0403 15:09:00.180183 31196 net.cpp:386] inception_4a/relu_3x3_reduce -> inception_4a/3x3_reduce (in-place)
I0403 15:09:00.180403 31196 net.cpp:141] Setting up inception_4a/relu_3x3_reduce
I0403 15:09:00.180434 31196 net.cpp:148] Top shape: 24 96 14 14 (451584)
I0403 15:09:00.180452 31196 net.cpp:156] Memory required for data: 865236000
I0403 15:09:00.180471 31196 layer_factory.hpp:77] Creating layer inception_4a/3x3
I0403 15:09:00.180498 31196 net.cpp:91] Creating Layer inception_4a/3x3
I0403 15:09:00.180521 31196 net.cpp:425] inception_4a/3x3 <- inception_4a/3x3_reduce
I0403 15:09:00.180546 31196 net.cpp:399] inception_4a/3x3 -> inception_4a/3x3
I0403 15:09:00.183815 31196 net.cpp:141] Setting up inception_4a/3x3
I0403 15:09:00.183851 31196 net.cpp:148] Top shape: 24 208 14 14 (978432)
I0403 15:09:00.183871 31196 net.cpp:156] Memory required for data: 869149728
I0403 15:09:00.183893 31196 layer_factory.hpp:77] Creating layer inception_4a/relu_3x3
I0403 15:09:00.183917 31196 net.cpp:91] Creating Layer inception_4a/relu_3x3
I0403 15:09:00.183938 31196 net.cpp:425] inception_4a/relu_3x3 <- inception_4a/3x3
I0403 15:09:00.183961 31196 net.cpp:386] inception_4a/relu_3x3 -> inception_4a/3x3 (in-place)
I0403 15:09:00.184327 31196 net.cpp:141] Setting up inception_4a/relu_3x3
I0403 15:09:00.184361 31196 net.cpp:148] Top shape: 24 208 14 14 (978432)
I0403 15:09:00.184381 31196 net.cpp:156] Memory required for data: 873063456
I0403 15:09:00.184398 31196 layer_factory.hpp:77] Creating layer inception_4a/5x5_reduce
I0403 15:09:00.184425 31196 net.cpp:91] Creating Layer inception_4a/5x5_reduce
I0403 15:09:00.184447 31196 net.cpp:425] inception_4a/5x5_reduce <- pool3/3x3_s2_pool3/3x3_s2_0_split_2
I0403 15:09:00.184473 31196 net.cpp:399] inception_4a/5x5_reduce -> inception_4a/5x5_reduce
I0403 15:09:00.185720 31196 net.cpp:141] Setting up inception_4a/5x5_reduce
I0403 15:09:00.185755 31196 net.cpp:148] Top shape: 24 16 14 14 (75264)
I0403 15:09:00.185775 31196 net.cpp:156] Memory required for data: 873364512
I0403 15:09:00.185799 31196 layer_factory.hpp:77] Creating layer inception_4a/relu_5x5_reduce
I0403 15:09:00.185823 31196 net.cpp:91] Creating Layer inception_4a/relu_5x5_reduce
I0403 15:09:00.185843 31196 net.cpp:425] inception_4a/relu_5x5_reduce <- inception_4a/5x5_reduce
I0403 15:09:00.185865 31196 net.cpp:386] inception_4a/relu_5x5_reduce -> inception_4a/5x5_reduce (in-place)
I0403 15:09:00.186081 31196 net.cpp:141] Setting up inception_4a/relu_5x5_reduce
I0403 15:09:00.186117 31196 net.cpp:148] Top shape: 24 16 14 14 (75264)
I0403 15:09:00.186137 31196 net.cpp:156] Memory required for data: 873665568
I0403 15:09:00.186156 31196 layer_factory.hpp:77] Creating layer inception_4a/5x5
I0403 15:09:00.186183 31196 net.cpp:91] Creating Layer inception_4a/5x5
I0403 15:09:00.186205 31196 net.cpp:425] inception_4a/5x5 <- inception_4a/5x5_reduce
I0403 15:09:00.186229 31196 net.cpp:399] inception_4a/5x5 -> inception_4a/5x5
I0403 15:09:00.187556 31196 net.cpp:141] Setting up inception_4a/5x5
I0403 15:09:00.187590 31196 net.cpp:148] Top shape: 24 48 14 14 (225792)
I0403 15:09:00.187609 31196 net.cpp:156] Memory required for data: 874568736
I0403 15:09:00.187633 31196 layer_factory.hpp:77] Creating layer inception_4a/relu_5x5
I0403 15:09:00.187657 31196 net.cpp:91] Creating Layer inception_4a/relu_5x5
I0403 15:09:00.187677 31196 net.cpp:425] inception_4a/relu_5x5 <- inception_4a/5x5
I0403 15:09:00.187700 31196 net.cpp:386] inception_4a/relu_5x5 -> inception_4a/5x5 (in-place)
I0403 15:09:00.187922 31196 net.cpp:141] Setting up inception_4a/relu_5x5
I0403 15:09:00.187953 31196 net.cpp:148] Top shape: 24 48 14 14 (225792)
I0403 15:09:00.187971 31196 net.cpp:156] Memory required for data: 875471904
I0403 15:09:00.187988 31196 layer_factory.hpp:77] Creating layer inception_4a/pool
I0403 15:09:00.188010 31196 net.cpp:91] Creating Layer inception_4a/pool
I0403 15:09:00.188030 31196 net.cpp:425] inception_4a/pool <- pool3/3x3_s2_pool3/3x3_s2_0_split_3
I0403 15:09:00.188055 31196 net.cpp:399] inception_4a/pool -> inception_4a/pool
I0403 15:09:00.188132 31196 net.cpp:141] Setting up inception_4a/pool
I0403 15:09:00.188160 31196 net.cpp:148] Top shape: 24 480 14 14 (2257920)
I0403 15:09:00.188179 31196 net.cpp:156] Memory required for data: 884503584
I0403 15:09:00.188196 31196 layer_factory.hpp:77] Creating layer inception_4a/pool_proj
I0403 15:09:00.188225 31196 net.cpp:91] Creating Layer inception_4a/pool_proj
I0403 15:09:00.188246 31196 net.cpp:425] inception_4a/pool_proj <- inception_4a/pool
I0403 15:09:00.188269 31196 net.cpp:399] inception_4a/pool_proj -> inception_4a/pool_proj
I0403 15:09:00.189697 31196 net.cpp:141] Setting up inception_4a/pool_proj
I0403 15:09:00.189735 31196 net.cpp:148] Top shape: 24 64 14 14 (301056)
I0403 15:09:00.189774 31196 net.cpp:156] Memory required for data: 885707808
I0403 15:09:00.189797 31196 layer_factory.hpp:77] Creating layer inception_4a/relu_pool_proj
I0403 15:09:00.189821 31196 net.cpp:91] Creating Layer inception_4a/relu_pool_proj
I0403 15:09:00.189841 31196 net.cpp:425] inception_4a/relu_pool_proj <- inception_4a/pool_proj
I0403 15:09:00.189867 31196 net.cpp:386] inception_4a/relu_pool_proj -> inception_4a/pool_proj (in-place)
I0403 15:09:00.190208 31196 net.cpp:141] Setting up inception_4a/relu_pool_proj
I0403 15:09:00.190244 31196 net.cpp:148] Top shape: 24 64 14 14 (301056)
I0403 15:09:00.190264 31196 net.cpp:156] Memory required for data: 886912032
I0403 15:09:00.190289 31196 layer_factory.hpp:77] Creating layer inception_4a/output
I0403 15:09:00.190312 31196 net.cpp:91] Creating Layer inception_4a/output
I0403 15:09:00.190331 31196 net.cpp:425] inception_4a/output <- inception_4a/1x1
I0403 15:09:00.190353 31196 net.cpp:425] inception_4a/output <- inception_4a/3x3
I0403 15:09:00.190372 31196 net.cpp:425] inception_4a/output <- inception_4a/5x5
I0403 15:09:00.190392 31196 net.cpp:425] inception_4a/output <- inception_4a/pool_proj
I0403 15:09:00.190417 31196 net.cpp:399] inception_4a/output -> inception_4a/output
I0403 15:09:00.190471 31196 net.cpp:141] Setting up inception_4a/output
I0403 15:09:00.190500 31196 net.cpp:148] Top shape: 24 512 14 14 (2408448)
I0403 15:09:00.190518 31196 net.cpp:156] Memory required for data: 896545824
I0403 15:09:00.190536 31196 layer_factory.hpp:77] Creating layer inception_4a/output_inception_4a/output_0_split
I0403 15:09:00.190560 31196 net.cpp:91] Creating Layer inception_4a/output_inception_4a/output_0_split
I0403 15:09:00.190580 31196 net.cpp:425] inception_4a/output_inception_4a/output_0_split <- inception_4a/output
I0403 15:09:00.190603 31196 net.cpp:399] inception_4a/output_inception_4a/output_0_split -> inception_4a/output_inception_4a/output_0_split_0
I0403 15:09:00.190628 31196 net.cpp:399] inception_4a/output_inception_4a/output_0_split -> inception_4a/output_inception_4a/output_0_split_1
I0403 15:09:00.190657 31196 net.cpp:399] inception_4a/output_inception_4a/output_0_split -> inception_4a/output_inception_4a/output_0_split_2
I0403 15:09:00.190682 31196 net.cpp:399] inception_4a/output_inception_4a/output_0_split -> inception_4a/output_inception_4a/output_0_split_3
I0403 15:09:00.190706 31196 net.cpp:399] inception_4a/output_inception_4a/output_0_split -> inception_4a/output_inception_4a/output_0_split_4
I0403 15:09:00.190819 31196 net.cpp:141] Setting up inception_4a/output_inception_4a/output_0_split
I0403 15:09:00.190848 31196 net.cpp:148] Top shape: 24 512 14 14 (2408448)
I0403 15:09:00.190868 31196 net.cpp:148] Top shape: 24 512 14 14 (2408448)
I0403 15:09:00.190886 31196 net.cpp:148] Top shape: 24 512 14 14 (2408448)
I0403 15:09:00.190904 31196 net.cpp:148] Top shape: 24 512 14 14 (2408448)
I0403 15:09:00.190922 31196 net.cpp:148] Top shape: 24 512 14 14 (2408448)
I0403 15:09:00.190939 31196 net.cpp:156] Memory required for data: 944714784
I0403 15:09:00.190958 31196 layer_factory.hpp:77] Creating layer loss1/ave_pool
I0403 15:09:00.190984 31196 net.cpp:91] Creating Layer loss1/ave_pool
I0403 15:09:00.191004 31196 net.cpp:425] loss1/ave_pool <- inception_4a/output_inception_4a/output_0_split_0
I0403 15:09:00.191026 31196 net.cpp:399] loss1/ave_pool -> loss1/ave_pool
I0403 15:09:00.191282 31196 net.cpp:141] Setting up loss1/ave_pool
I0403 15:09:00.191321 31196 net.cpp:148] Top shape: 24 512 4 4 (196608)
I0403 15:09:00.191340 31196 net.cpp:156] Memory required for data: 945501216
I0403 15:09:00.191359 31196 layer_factory.hpp:77] Creating layer loss1/conv
I0403 15:09:00.191386 31196 net.cpp:91] Creating Layer loss1/conv
I0403 15:09:00.191407 31196 net.cpp:425] loss1/conv <- loss1/ave_pool
I0403 15:09:00.191431 31196 net.cpp:399] loss1/conv -> loss1/conv
I0403 15:09:00.193157 31196 net.cpp:141] Setting up loss1/conv
I0403 15:09:00.193192 31196 net.cpp:148] Top shape: 24 128 4 4 (49152)
I0403 15:09:00.193212 31196 net.cpp:156] Memory required for data: 945697824
I0403 15:09:00.193251 31196 layer_factory.hpp:77] Creating layer loss1/relu_conv
I0403 15:09:00.193277 31196 net.cpp:91] Creating Layer loss1/relu_conv
I0403 15:09:00.193305 31196 net.cpp:425] loss1/relu_conv <- loss1/conv
I0403 15:09:00.193326 31196 net.cpp:386] loss1/relu_conv -> loss1/conv (in-place)
I0403 15:09:00.193666 31196 net.cpp:141] Setting up loss1/relu_conv
I0403 15:09:00.193699 31196 net.cpp:148] Top shape: 24 128 4 4 (49152)
I0403 15:09:00.193718 31196 net.cpp:156] Memory required for data: 945894432
I0403 15:09:00.193737 31196 layer_factory.hpp:77] Creating layer loss1/fc
I0403 15:09:00.193769 31196 net.cpp:91] Creating Layer loss1/fc
I0403 15:09:00.193794 31196 net.cpp:425] loss1/fc <- loss1/conv
I0403 15:09:00.193816 31196 net.cpp:399] loss1/fc -> loss1/fc
I0403 15:09:00.215571 31196 net.cpp:141] Setting up loss1/fc
I0403 15:09:00.215610 31196 net.cpp:148] Top shape: 24 1024 (24576)
I0403 15:09:00.215629 31196 net.cpp:156] Memory required for data: 945992736
I0403 15:09:00.215653 31196 layer_factory.hpp:77] Creating layer loss1/relu_fc
I0403 15:09:00.215675 31196 net.cpp:91] Creating Layer loss1/relu_fc
I0403 15:09:00.215695 31196 net.cpp:425] loss1/relu_fc <- loss1/fc
I0403 15:09:00.215720 31196 net.cpp:386] loss1/relu_fc -> loss1/fc (in-place)
I0403 15:09:00.215960 31196 net.cpp:141] Setting up loss1/relu_fc
I0403 15:09:00.215993 31196 net.cpp:148] Top shape: 24 1024 (24576)
I0403 15:09:00.216012 31196 net.cpp:156] Memory required for data: 946091040
I0403 15:09:00.216030 31196 layer_factory.hpp:77] Creating layer loss1/drop_fc
I0403 15:09:00.216063 31196 net.cpp:91] Creating Layer loss1/drop_fc
I0403 15:09:00.216085 31196 net.cpp:425] loss1/drop_fc <- loss1/fc
I0403 15:09:00.216109 31196 net.cpp:386] loss1/drop_fc -> loss1/fc (in-place)
I0403 15:09:00.216174 31196 net.cpp:141] Setting up loss1/drop_fc
I0403 15:09:00.216207 31196 net.cpp:148] Top shape: 24 1024 (24576)
I0403 15:09:00.216225 31196 net.cpp:156] Memory required for data: 946189344
I0403 15:09:00.216243 31196 layer_factory.hpp:77] Creating layer loss1/classifier_plantvillage
I0403 15:09:00.216266 31196 net.cpp:91] Creating Layer loss1/classifier_plantvillage
I0403 15:09:00.216313 31196 net.cpp:425] loss1/classifier_plantvillage <- loss1/fc
I0403 15:09:00.216374 31196 net.cpp:399] loss1/classifier_plantvillage -> loss1/classifier_plantvillage
I0403 15:09:00.217491 31196 net.cpp:141] Setting up loss1/classifier_plantvillage
I0403 15:09:00.217526 31196 net.cpp:148] Top shape: 24 38 (912)
I0403 15:09:00.217546 31196 net.cpp:156] Memory required for data: 946192992
I0403 15:09:00.217569 31196 layer_factory.hpp:77] Creating layer loss1/classifier_plantvillage_loss1/classifier_plantvillage_0_split
I0403 15:09:00.217593 31196 net.cpp:91] Creating Layer loss1/classifier_plantvillage_loss1/classifier_plantvillage_0_split
I0403 15:09:00.217613 31196 net.cpp:425] loss1/classifier_plantvillage_loss1/classifier_plantvillage_0_split <- loss1/classifier_plantvillage
I0403 15:09:00.217638 31196 net.cpp:399] loss1/classifier_plantvillage_loss1/classifier_plantvillage_0_split -> loss1/classifier_plantvillage_loss1/classifier_plantvillage_0_split_0
I0403 15:09:00.217663 31196 net.cpp:399] loss1/classifier_plantvillage_loss1/classifier_plantvillage_0_split -> loss1/classifier_plantvillage_loss1/classifier_plantvillage_0_split_1
I0403 15:09:00.217689 31196 net.cpp:399] loss1/classifier_plantvillage_loss1/classifier_plantvillage_0_split -> loss1/classifier_plantvillage_loss1/classifier_plantvillage_0_split_2
I0403 15:09:00.217772 31196 net.cpp:141] Setting up loss1/classifier_plantvillage_loss1/classifier_plantvillage_0_split
I0403 15:09:00.217799 31196 net.cpp:148] Top shape: 24 38 (912)
I0403 15:09:00.217819 31196 net.cpp:148] Top shape: 24 38 (912)
I0403 15:09:00.217839 31196 net.cpp:148] Top shape: 24 38 (912)
I0403 15:09:00.217855 31196 net.cpp:156] Memory required for data: 946203936
I0403 15:09:00.217874 31196 layer_factory.hpp:77] Creating layer inception_4b/1x1
I0403 15:09:00.217902 31196 net.cpp:91] Creating Layer inception_4b/1x1
I0403 15:09:00.217943 31196 net.cpp:425] inception_4b/1x1 <- inception_4a/output_inception_4a/output_0_split_1
I0403 15:09:00.217968 31196 net.cpp:399] inception_4b/1x1 -> inception_4b/1x1
I0403 15:09:00.220000 31196 net.cpp:141] Setting up inception_4b/1x1
I0403 15:09:00.220036 31196 net.cpp:148] Top shape: 24 160 14 14 (752640)
I0403 15:09:00.220057 31196 net.cpp:156] Memory required for data: 949214496
I0403 15:09:00.220080 31196 layer_factory.hpp:77] Creating layer inception_4b/relu_1x1
I0403 15:09:00.220105 31196 net.cpp:91] Creating Layer inception_4b/relu_1x1
I0403 15:09:00.220126 31196 net.cpp:425] inception_4b/relu_1x1 <- inception_4b/1x1
I0403 15:09:00.220149 31196 net.cpp:386] inception_4b/relu_1x1 -> inception_4b/1x1 (in-place)
I0403 15:09:00.220381 31196 net.cpp:141] Setting up inception_4b/relu_1x1
I0403 15:09:00.220414 31196 net.cpp:148] Top shape: 24 160 14 14 (752640)
I0403 15:09:00.220433 31196 net.cpp:156] Memory required for data: 952225056
I0403 15:09:00.220453 31196 layer_factory.hpp:77] Creating layer inception_4b/3x3_reduce
I0403 15:09:00.220476 31196 net.cpp:91] Creating Layer inception_4b/3x3_reduce
I0403 15:09:00.220499 31196 net.cpp:425] inception_4b/3x3_reduce <- inception_4a/output_inception_4a/output_0_split_2
I0403 15:09:00.220543 31196 net.cpp:399] inception_4b/3x3_reduce -> inception_4b/3x3_reduce
I0403 15:09:00.222236 31196 net.cpp:141] Setting up inception_4b/3x3_reduce
I0403 15:09:00.222271 31196 net.cpp:148] Top shape: 24 112 14 14 (526848)
I0403 15:09:00.222296 31196 net.cpp:156] Memory required for data: 954332448
I0403 15:09:00.222321 31196 layer_factory.hpp:77] Creating layer inception_4b/relu_3x3_reduce
I0403 15:09:00.222348 31196 net.cpp:91] Creating Layer inception_4b/relu_3x3_reduce
I0403 15:09:00.222368 31196 net.cpp:425] inception_4b/relu_3x3_reduce <- inception_4b/3x3_reduce
I0403 15:09:00.222389 31196 net.cpp:386] inception_4b/relu_3x3_reduce -> inception_4b/3x3_reduce (in-place)
I0403 15:09:00.222739 31196 net.cpp:141] Setting up inception_4b/relu_3x3_reduce
I0403 15:09:00.222772 31196 net.cpp:148] Top shape: 24 112 14 14 (526848)
I0403 15:09:00.222795 31196 net.cpp:156] Memory required for data: 956439840
I0403 15:09:00.222813 31196 layer_factory.hpp:77] Creating layer inception_4b/3x3
I0403 15:09:00.222839 31196 net.cpp:91] Creating Layer inception_4b/3x3
I0403 15:09:00.222861 31196 net.cpp:425] inception_4b/3x3 <- inception_4b/3x3_reduce
I0403 15:09:00.222887 31196 net.cpp:399] inception_4b/3x3 -> inception_4b/3x3
I0403 15:09:00.226606 31196 net.cpp:141] Setting up inception_4b/3x3
I0403 15:09:00.226644 31196 net.cpp:148] Top shape: 24 224 14 14 (1053696)
I0403 15:09:00.226665 31196 net.cpp:156] Memory required for data: 960654624
I0403 15:09:00.226686 31196 layer_factory.hpp:77] Creating layer inception_4b/relu_3x3
I0403 15:09:00.226709 31196 net.cpp:91] Creating Layer inception_4b/relu_3x3
I0403 15:09:00.226730 31196 net.cpp:425] inception_4b/relu_3x3 <- inception_4b/3x3
I0403 15:09:00.226755 31196 net.cpp:386] inception_4b/relu_3x3 -> inception_4b/3x3 (in-place)
I0403 15:09:00.226981 31196 net.cpp:141] Setting up inception_4b/relu_3x3
I0403 15:09:00.227012 31196 net.cpp:148] Top shape: 24 224 14 14 (1053696)
I0403 15:09:00.227031 31196 net.cpp:156] Memory required for data: 964869408
I0403 15:09:00.227049 31196 layer_factory.hpp:77] Creating layer inception_4b/5x5_reduce
I0403 15:09:00.227078 31196 net.cpp:91] Creating Layer inception_4b/5x5_reduce
I0403 15:09:00.227100 31196 net.cpp:425] inception_4b/5x5_reduce <- inception_4a/output_inception_4a/output_0_split_3
I0403 15:09:00.227128 31196 net.cpp:399] inception_4b/5x5_reduce -> inception_4b/5x5_reduce
I0403 15:09:00.228464 31196 net.cpp:141] Setting up inception_4b/5x5_reduce
I0403 15:09:00.228500 31196 net.cpp:148] Top shape: 24 24 14 14 (112896)
I0403 15:09:00.228520 31196 net.cpp:156] Memory required for data: 965320992
I0403 15:09:00.228543 31196 layer_factory.hpp:77] Creating layer inception_4b/relu_5x5_reduce
I0403 15:09:00.228567 31196 net.cpp:91] Creating Layer inception_4b/relu_5x5_reduce
I0403 15:09:00.228607 31196 net.cpp:425] inception_4b/relu_5x5_reduce <- inception_4b/5x5_reduce
I0403 15:09:00.228631 31196 net.cpp:386] inception_4b/relu_5x5_reduce -> inception_4b/5x5_reduce (in-place)
I0403 15:09:00.228857 31196 net.cpp:141] Setting up inception_4b/relu_5x5_reduce
I0403 15:09:00.228890 31196 net.cpp:148] Top shape: 24 24 14 14 (112896)
I0403 15:09:00.228909 31196 net.cpp:156] Memory required for data: 965772576
I0403 15:09:00.228929 31196 layer_factory.hpp:77] Creating layer inception_4b/5x5
I0403 15:09:00.228956 31196 net.cpp:91] Creating Layer inception_4b/5x5
I0403 15:09:00.228978 31196 net.cpp:425] inception_4b/5x5 <- inception_4b/5x5_reduce
I0403 15:09:00.229002 31196 net.cpp:399] inception_4b/5x5 -> inception_4b/5x5
I0403 15:09:00.230518 31196 net.cpp:141] Setting up inception_4b/5x5
I0403 15:09:00.230552 31196 net.cpp:148] Top shape: 24 64 14 14 (301056)
I0403 15:09:00.230573 31196 net.cpp:156] Memory required for data: 966976800
I0403 15:09:00.230597 31196 layer_factory.hpp:77] Creating layer inception_4b/relu_5x5
I0403 15:09:00.230622 31196 net.cpp:91] Creating Layer inception_4b/relu_5x5
I0403 15:09:00.230643 31196 net.cpp:425] inception_4b/relu_5x5 <- inception_4b/5x5
I0403 15:09:00.230665 31196 net.cpp:386] inception_4b/relu_5x5 -> inception_4b/5x5 (in-place)
I0403 15:09:00.231017 31196 net.cpp:141] Setting up inception_4b/relu_5x5
I0403 15:09:00.231050 31196 net.cpp:148] Top shape: 24 64 14 14 (301056)
I0403 15:09:00.231067 31196 net.cpp:156] Memory required for data: 968181024
I0403 15:09:00.231086 31196 layer_factory.hpp:77] Creating layer inception_4b/pool
I0403 15:09:00.231108 31196 net.cpp:91] Creating Layer inception_4b/pool
I0403 15:09:00.231128 31196 net.cpp:425] inception_4b/pool <- inception_4a/output_inception_4a/output_0_split_4
I0403 15:09:00.231156 31196 net.cpp:399] inception_4b/pool -> inception_4b/pool
I0403 15:09:00.231240 31196 net.cpp:141] Setting up inception_4b/pool
I0403 15:09:00.231269 31196 net.cpp:148] Top shape: 24 512 14 14 (2408448)
I0403 15:09:00.231293 31196 net.cpp:156] Memory required for data: 977814816
I0403 15:09:00.231313 31196 layer_factory.hpp:77] Creating layer inception_4b/pool_proj
I0403 15:09:00.231340 31196 net.cpp:91] Creating Layer inception_4b/pool_proj
I0403 15:09:00.231364 31196 net.cpp:425] inception_4b/pool_proj <- inception_4b/pool
I0403 15:09:00.231389 31196 net.cpp:399] inception_4b/pool_proj -> inception_4b/pool_proj
I0403 15:09:00.232913 31196 net.cpp:141] Setting up inception_4b/pool_proj
I0403 15:09:00.232949 31196 net.cpp:148] Top shape: 24 64 14 14 (301056)
I0403 15:09:00.232967 31196 net.cpp:156] Memory required for data: 979019040
I0403 15:09:00.232990 31196 layer_factory.hpp:77] Creating layer inception_4b/relu_pool_proj
I0403 15:09:00.233014 31196 net.cpp:91] Creating Layer inception_4b/relu_pool_proj
I0403 15:09:00.233037 31196 net.cpp:425] inception_4b/relu_pool_proj <- inception_4b/pool_proj
I0403 15:09:00.233058 31196 net.cpp:386] inception_4b/relu_pool_proj -> inception_4b/pool_proj (in-place)
I0403 15:09:00.233283 31196 net.cpp:141] Setting up inception_4b/relu_pool_proj
I0403 15:09:00.233321 31196 net.cpp:148] Top shape: 24 64 14 14 (301056)
I0403 15:09:00.233341 31196 net.cpp:156] Memory required for data: 980223264
I0403 15:09:00.233383 31196 layer_factory.hpp:77] Creating layer inception_4b/output
I0403 15:09:00.233430 31196 net.cpp:91] Creating Layer inception_4b/output
I0403 15:09:00.233469 31196 net.cpp:425] inception_4b/output <- inception_4b/1x1
I0403 15:09:00.233516 31196 net.cpp:425] inception_4b/output <- inception_4b/3x3
I0403 15:09:00.233568 31196 net.cpp:425] inception_4b/output <- inception_4b/5x5
I0403 15:09:00.233618 31196 net.cpp:425] inception_4b/output <- inception_4b/pool_proj
I0403 15:09:00.233669 31196 net.cpp:399] inception_4b/output -> inception_4b/output
I0403 15:09:00.233728 31196 net.cpp:141] Setting up inception_4b/output
I0403 15:09:00.233757 31196 net.cpp:148] Top shape: 24 512 14 14 (2408448)
I0403 15:09:00.233775 31196 net.cpp:156] Memory required for data: 989857056
I0403 15:09:00.233810 31196 layer_factory.hpp:77] Creating layer inception_4b/output_inception_4b/output_0_split
I0403 15:09:00.233835 31196 net.cpp:91] Creating Layer inception_4b/output_inception_4b/output_0_split
I0403 15:09:00.233856 31196 net.cpp:425] inception_4b/output_inception_4b/output_0_split <- inception_4b/output
I0403 15:09:00.233878 31196 net.cpp:399] inception_4b/output_inception_4b/output_0_split -> inception_4b/output_inception_4b/output_0_split_0
I0403 15:09:00.233902 31196 net.cpp:399] inception_4b/output_inception_4b/output_0_split -> inception_4b/output_inception_4b/output_0_split_1
I0403 15:09:00.233927 31196 net.cpp:399] inception_4b/output_inception_4b/output_0_split -> inception_4b/output_inception_4b/output_0_split_2
I0403 15:09:00.233952 31196 net.cpp:399] inception_4b/output_inception_4b/output_0_split -> inception_4b/output_inception_4b/output_0_split_3
I0403 15:09:00.234081 31196 net.cpp:141] Setting up inception_4b/output_inception_4b/output_0_split
I0403 15:09:00.234125 31196 net.cpp:148] Top shape: 24 512 14 14 (2408448)
I0403 15:09:00.234146 31196 net.cpp:148] Top shape: 24 512 14 14 (2408448)
I0403 15:09:00.234166 31196 net.cpp:148] Top shape: 24 512 14 14 (2408448)
I0403 15:09:00.234184 31196 net.cpp:148] Top shape: 24 512 14 14 (2408448)
I0403 15:09:00.234200 31196 net.cpp:156] Memory required for data: 1028392224
I0403 15:09:00.234218 31196 layer_factory.hpp:77] Creating layer inception_4c/1x1
I0403 15:09:00.234247 31196 net.cpp:91] Creating Layer inception_4c/1x1
I0403 15:09:00.234267 31196 net.cpp:425] inception_4c/1x1 <- inception_4b/output_inception_4b/output_0_split_0
I0403 15:09:00.234310 31196 net.cpp:399] inception_4c/1x1 -> inception_4c/1x1
I0403 15:09:00.236106 31196 net.cpp:141] Setting up inception_4c/1x1
I0403 15:09:00.236146 31196 net.cpp:148] Top shape: 24 128 14 14 (602112)
I0403 15:09:00.236167 31196 net.cpp:156] Memory required for data: 1030800672
I0403 15:09:00.236191 31196 layer_factory.hpp:77] Creating layer inception_4c/relu_1x1
I0403 15:09:00.236213 31196 net.cpp:91] Creating Layer inception_4c/relu_1x1
I0403 15:09:00.236234 31196 net.cpp:425] inception_4c/relu_1x1 <- inception_4c/1x1
I0403 15:09:00.236256 31196 net.cpp:386] inception_4c/relu_1x1 -> inception_4c/1x1 (in-place)
I0403 15:09:00.236488 31196 net.cpp:141] Setting up inception_4c/relu_1x1
I0403 15:09:00.236518 31196 net.cpp:148] Top shape: 24 128 14 14 (602112)
I0403 15:09:00.236537 31196 net.cpp:156] Memory required for data: 1033209120
I0403 15:09:00.236557 31196 layer_factory.hpp:77] Creating layer inception_4c/3x3_reduce
I0403 15:09:00.236585 31196 net.cpp:91] Creating Layer inception_4c/3x3_reduce
I0403 15:09:00.236608 31196 net.cpp:425] inception_4c/3x3_reduce <- inception_4b/output_inception_4b/output_0_split_1
I0403 15:09:00.236635 31196 net.cpp:399] inception_4c/3x3_reduce -> inception_4c/3x3_reduce
I0403 15:09:00.239096 31196 net.cpp:141] Setting up inception_4c/3x3_reduce
I0403 15:09:00.239132 31196 net.cpp:148] Top shape: 24 128 14 14 (602112)
I0403 15:09:00.239152 31196 net.cpp:156] Memory required for data: 1035617568
I0403 15:09:00.239176 31196 layer_factory.hpp:77] Creating layer inception_4c/relu_3x3_reduce
I0403 15:09:00.239202 31196 net.cpp:91] Creating Layer inception_4c/relu_3x3_reduce
I0403 15:09:00.239223 31196 net.cpp:425] inception_4c/relu_3x3_reduce <- inception_4c/3x3_reduce
I0403 15:09:00.239244 31196 net.cpp:386] inception_4c/relu_3x3_reduce -> inception_4c/3x3_reduce (in-place)
I0403 15:09:00.239598 31196 net.cpp:141] Setting up inception_4c/relu_3x3_reduce
I0403 15:09:00.239630 31196 net.cpp:148] Top shape: 24 128 14 14 (602112)
I0403 15:09:00.239648 31196 net.cpp:156] Memory required for data: 1038026016
I0403 15:09:00.239667 31196 layer_factory.hpp:77] Creating layer inception_4c/3x3
I0403 15:09:00.239696 31196 net.cpp:91] Creating Layer inception_4c/3x3
I0403 15:09:00.239717 31196 net.cpp:425] inception_4c/3x3 <- inception_4c/3x3_reduce
I0403 15:09:00.239743 31196 net.cpp:399] inception_4c/3x3 -> inception_4c/3x3
I0403 15:09:00.244158 31196 net.cpp:141] Setting up inception_4c/3x3
I0403 15:09:00.244210 31196 net.cpp:148] Top shape: 24 256 14 14 (1204224)
I0403 15:09:00.244231 31196 net.cpp:156] Memory required for data: 1042842912
I0403 15:09:00.244277 31196 layer_factory.hpp:77] Creating layer inception_4c/relu_3x3
I0403 15:09:00.244318 31196 net.cpp:91] Creating Layer inception_4c/relu_3x3
I0403 15:09:00.244341 31196 net.cpp:425] inception_4c/relu_3x3 <- inception_4c/3x3
I0403 15:09:00.244364 31196 net.cpp:386] inception_4c/relu_3x3 -> inception_4c/3x3 (in-place)
I0403 15:09:00.244595 31196 net.cpp:141] Setting up inception_4c/relu_3x3
I0403 15:09:00.244624 31196 net.cpp:148] Top shape: 24 256 14 14 (1204224)
I0403 15:09:00.244642 31196 net.cpp:156] Memory required for data: 1047659808
I0403 15:09:00.244660 31196 layer_factory.hpp:77] Creating layer inception_4c/5x5_reduce
I0403 15:09:00.244688 31196 net.cpp:91] Creating Layer inception_4c/5x5_reduce
I0403 15:09:00.244709 31196 net.cpp:425] inception_4c/5x5_reduce <- inception_4b/output_inception_4b/output_0_split_2
I0403 15:09:00.244737 31196 net.cpp:399] inception_4c/5x5_reduce -> inception_4c/5x5_reduce
I0403 15:09:00.246088 31196 net.cpp:141] Setting up inception_4c/5x5_reduce
I0403 15:09:00.246134 31196 net.cpp:148] Top shape: 24 24 14 14 (112896)
I0403 15:09:00.246186 31196 net.cpp:156] Memory required for data: 1048111392
I0403 15:09:00.246209 31196 layer_factory.hpp:77] Creating layer inception_4c/relu_5x5_reduce
I0403 15:09:00.246235 31196 net.cpp:91] Creating Layer inception_4c/relu_5x5_reduce
I0403 15:09:00.246256 31196 net.cpp:425] inception_4c/relu_5x5_reduce <- inception_4c/5x5_reduce
I0403 15:09:00.246279 31196 net.cpp:386] inception_4c/relu_5x5_reduce -> inception_4c/5x5_reduce (in-place)
I0403 15:09:00.246515 31196 net.cpp:141] Setting up inception_4c/relu_5x5_reduce
I0403 15:09:00.246548 31196 net.cpp:148] Top shape: 24 24 14 14 (112896)
I0403 15:09:00.246569 31196 net.cpp:156] Memory required for data: 1048562976
I0403 15:09:00.246588 31196 layer_factory.hpp:77] Creating layer inception_4c/5x5
I0403 15:09:00.246616 31196 net.cpp:91] Creating Layer inception_4c/5x5
I0403 15:09:00.246639 31196 net.cpp:425] inception_4c/5x5 <- inception_4c/5x5_reduce
I0403 15:09:00.246664 31196 net.cpp:399] inception_4c/5x5 -> inception_4c/5x5
I0403 15:09:00.248188 31196 net.cpp:141] Setting up inception_4c/5x5
I0403 15:09:00.248225 31196 net.cpp:148] Top shape: 24 64 14 14 (301056)
I0403 15:09:00.248245 31196 net.cpp:156] Memory required for data: 1049767200
I0403 15:09:00.248270 31196 layer_factory.hpp:77] Creating layer inception_4c/relu_5x5
I0403 15:09:00.248296 31196 net.cpp:91] Creating Layer inception_4c/relu_5x5
I0403 15:09:00.248318 31196 net.cpp:425] inception_4c/relu_5x5 <- inception_4c/5x5
I0403 15:09:00.248340 31196 net.cpp:386] inception_4c/relu_5x5 -> inception_4c/5x5 (in-place)
I0403 15:09:00.248697 31196 net.cpp:141] Setting up inception_4c/relu_5x5
I0403 15:09:00.248730 31196 net.cpp:148] Top shape: 24 64 14 14 (301056)
I0403 15:09:00.248751 31196 net.cpp:156] Memory required for data: 1050971424
I0403 15:09:00.248770 31196 layer_factory.hpp:77] Creating layer inception_4c/pool
I0403 15:09:00.248793 31196 net.cpp:91] Creating Layer inception_4c/pool
I0403 15:09:00.248814 31196 net.cpp:425] inception_4c/pool <- inception_4b/output_inception_4b/output_0_split_3
I0403 15:09:00.248837 31196 net.cpp:399] inception_4c/pool -> inception_4c/pool
I0403 15:09:00.248920 31196 net.cpp:141] Setting up inception_4c/pool
I0403 15:09:00.248967 31196 net.cpp:148] Top shape: 24 512 14 14 (2408448)
I0403 15:09:00.249008 31196 net.cpp:156] Memory required for data: 1060605216
I0403 15:09:00.249052 31196 layer_factory.hpp:77] Creating layer inception_4c/pool_proj
I0403 15:09:00.249114 31196 net.cpp:91] Creating Layer inception_4c/pool_proj
I0403 15:09:00.249150 31196 net.cpp:425] inception_4c/pool_proj <- inception_4c/pool
I0403 15:09:00.249176 31196 net.cpp:399] inception_4c/pool_proj -> inception_4c/pool_proj
I0403 15:09:00.250692 31196 net.cpp:141] Setting up inception_4c/pool_proj
I0403 15:09:00.250727 31196 net.cpp:148] Top shape: 24 64 14 14 (301056)
I0403 15:09:00.250763 31196 net.cpp:156] Memory required for data: 1061809440
I0403 15:09:00.250789 31196 layer_factory.hpp:77] Creating layer inception_4c/relu_pool_proj
I0403 15:09:00.250819 31196 net.cpp:91] Creating Layer inception_4c/relu_pool_proj
I0403 15:09:00.250841 31196 net.cpp:425] inception_4c/relu_pool_proj <- inception_4c/pool_proj
I0403 15:09:00.250864 31196 net.cpp:386] inception_4c/relu_pool_proj -> inception_4c/pool_proj (in-place)
I0403 15:09:00.251087 31196 net.cpp:141] Setting up inception_4c/relu_pool_proj
I0403 15:09:00.251121 31196 net.cpp:148] Top shape: 24 64 14 14 (301056)
I0403 15:09:00.251140 31196 net.cpp:156] Memory required for data: 1063013664
I0403 15:09:00.251159 31196 layer_factory.hpp:77] Creating layer inception_4c/output
I0403 15:09:00.251181 31196 net.cpp:91] Creating Layer inception_4c/output
I0403 15:09:00.251200 31196 net.cpp:425] inception_4c/output <- inception_4c/1x1
I0403 15:09:00.251220 31196 net.cpp:425] inception_4c/output <- inception_4c/3x3
I0403 15:09:00.251240 31196 net.cpp:425] inception_4c/output <- inception_4c/5x5
I0403 15:09:00.251260 31196 net.cpp:425] inception_4c/output <- inception_4c/pool_proj
I0403 15:09:00.251281 31196 net.cpp:399] inception_4c/output -> inception_4c/output
I0403 15:09:00.251346 31196 net.cpp:141] Setting up inception_4c/output
I0403 15:09:00.251375 31196 net.cpp:148] Top shape: 24 512 14 14 (2408448)
I0403 15:09:00.251394 31196 net.cpp:156] Memory required for data: 1072647456
I0403 15:09:00.251411 31196 layer_factory.hpp:77] Creating layer inception_4c/output_inception_4c/output_0_split
I0403 15:09:00.251436 31196 net.cpp:91] Creating Layer inception_4c/output_inception_4c/output_0_split
I0403 15:09:00.251457 31196 net.cpp:425] inception_4c/output_inception_4c/output_0_split <- inception_4c/output
I0403 15:09:00.251479 31196 net.cpp:399] inception_4c/output_inception_4c/output_0_split -> inception_4c/output_inception_4c/output_0_split_0
I0403 15:09:00.251504 31196 net.cpp:399] inception_4c/output_inception_4c/output_0_split -> inception_4c/output_inception_4c/output_0_split_1
I0403 15:09:00.251528 31196 net.cpp:399] inception_4c/output_inception_4c/output_0_split -> inception_4c/output_inception_4c/output_0_split_2
I0403 15:09:00.251552 31196 net.cpp:399] inception_4c/output_inception_4c/output_0_split -> inception_4c/output_inception_4c/output_0_split_3
I0403 15:09:00.251662 31196 net.cpp:141] Setting up inception_4c/output_inception_4c/output_0_split
I0403 15:09:00.251690 31196 net.cpp:148] Top shape: 24 512 14 14 (2408448)
I0403 15:09:00.251710 31196 net.cpp:148] Top shape: 24 512 14 14 (2408448)
I0403 15:09:00.251729 31196 net.cpp:148] Top shape: 24 512 14 14 (2408448)
I0403 15:09:00.251746 31196 net.cpp:148] Top shape: 24 512 14 14 (2408448)
I0403 15:09:00.251765 31196 net.cpp:156] Memory required for data: 1111182624
I0403 15:09:00.251782 31196 layer_factory.hpp:77] Creating layer inception_4d/1x1
I0403 15:09:00.251808 31196 net.cpp:91] Creating Layer inception_4d/1x1
I0403 15:09:00.251832 31196 net.cpp:425] inception_4d/1x1 <- inception_4c/output_inception_4c/output_0_split_0
I0403 15:09:00.251858 31196 net.cpp:399] inception_4d/1x1 -> inception_4d/1x1
I0403 15:09:00.253573 31196 net.cpp:141] Setting up inception_4d/1x1
I0403 15:09:00.253608 31196 net.cpp:148] Top shape: 24 112 14 14 (526848)
I0403 15:09:00.253628 31196 net.cpp:156] Memory required for data: 1113290016
I0403 15:09:00.253649 31196 layer_factory.hpp:77] Creating layer inception_4d/relu_1x1
I0403 15:09:00.253672 31196 net.cpp:91] Creating Layer inception_4d/relu_1x1
I0403 15:09:00.253692 31196 net.cpp:425] inception_4d/relu_1x1 <- inception_4d/1x1
I0403 15:09:00.253717 31196 net.cpp:386] inception_4d/relu_1x1 -> inception_4d/1x1 (in-place)
I0403 15:09:00.253949 31196 net.cpp:141] Setting up inception_4d/relu_1x1
I0403 15:09:00.253979 31196 net.cpp:148] Top shape: 24 112 14 14 (526848)
I0403 15:09:00.253998 31196 net.cpp:156] Memory required for data: 1115397408
I0403 15:09:00.254016 31196 layer_factory.hpp:77] Creating layer inception_4d/3x3_reduce
I0403 15:09:00.254061 31196 net.cpp:91] Creating Layer inception_4d/3x3_reduce
I0403 15:09:00.254086 31196 net.cpp:425] inception_4d/3x3_reduce <- inception_4c/output_inception_4c/output_0_split_1
I0403 15:09:00.254112 31196 net.cpp:399] inception_4d/3x3_reduce -> inception_4d/3x3_reduce
I0403 15:09:00.256021 31196 net.cpp:141] Setting up inception_4d/3x3_reduce
I0403 15:09:00.256058 31196 net.cpp:148] Top shape: 24 144 14 14 (677376)
I0403 15:09:00.256079 31196 net.cpp:156] Memory required for data: 1118106912
I0403 15:09:00.256103 31196 layer_factory.hpp:77] Creating layer inception_4d/relu_3x3_reduce
I0403 15:09:00.256124 31196 net.cpp:91] Creating Layer inception_4d/relu_3x3_reduce
I0403 15:09:00.256145 31196 net.cpp:425] inception_4d/relu_3x3_reduce <- inception_4d/3x3_reduce
I0403 15:09:00.256170 31196 net.cpp:386] inception_4d/relu_3x3_reduce -> inception_4d/3x3_reduce (in-place)
I0403 15:09:00.256531 31196 net.cpp:141] Setting up inception_4d/relu_3x3_reduce
I0403 15:09:00.256567 31196 net.cpp:148] Top shape: 24 144 14 14 (677376)
I0403 15:09:00.256587 31196 net.cpp:156] Memory required for data: 1120816416
I0403 15:09:00.256608 31196 layer_factory.hpp:77] Creating layer inception_4d/3x3
I0403 15:09:00.256634 31196 net.cpp:91] Creating Layer inception_4d/3x3
I0403 15:09:00.256666 31196 net.cpp:425] inception_4d/3x3 <- inception_4d/3x3_reduce
I0403 15:09:00.256712 31196 net.cpp:399] inception_4d/3x3 -> inception_4d/3x3
I0403 15:09:00.262033 31196 net.cpp:141] Setting up inception_4d/3x3
I0403 15:09:00.262070 31196 net.cpp:148] Top shape: 24 288 14 14 (1354752)
I0403 15:09:00.262089 31196 net.cpp:156] Memory required for data: 1126235424
I0403 15:09:00.262112 31196 layer_factory.hpp:77] Creating layer inception_4d/relu_3x3
I0403 15:09:00.262137 31196 net.cpp:91] Creating Layer inception_4d/relu_3x3
I0403 15:09:00.262158 31196 net.cpp:425] inception_4d/relu_3x3 <- inception_4d/3x3
I0403 15:09:00.262181 31196 net.cpp:386] inception_4d/relu_3x3 -> inception_4d/3x3 (in-place)
I0403 15:09:00.262413 31196 net.cpp:141] Setting up inception_4d/relu_3x3
I0403 15:09:00.262444 31196 net.cpp:148] Top shape: 24 288 14 14 (1354752)
I0403 15:09:00.262464 31196 net.cpp:156] Memory required for data: 1131654432
I0403 15:09:00.262482 31196 layer_factory.hpp:77] Creating layer inception_4d/5x5_reduce
I0403 15:09:00.262509 31196 net.cpp:91] Creating Layer inception_4d/5x5_reduce
I0403 15:09:00.262531 31196 net.cpp:425] inception_4d/5x5_reduce <- inception_4c/output_inception_4c/output_0_split_2
I0403 15:09:00.262557 31196 net.cpp:399] inception_4d/5x5_reduce -> inception_4d/5x5_reduce
I0403 15:09:00.264008 31196 net.cpp:141] Setting up inception_4d/5x5_reduce
I0403 15:09:00.264045 31196 net.cpp:148] Top shape: 24 32 14 14 (150528)
I0403 15:09:00.264063 31196 net.cpp:156] Memory required for data: 1132256544
I0403 15:09:00.264086 31196 layer_factory.hpp:77] Creating layer inception_4d/relu_5x5_reduce
I0403 15:09:00.264107 31196 net.cpp:91] Creating Layer inception_4d/relu_5x5_reduce
I0403 15:09:00.264127 31196 net.cpp:425] inception_4d/relu_5x5_reduce <- inception_4d/5x5_reduce
I0403 15:09:00.264152 31196 net.cpp:386] inception_4d/relu_5x5_reduce -> inception_4d/5x5_reduce (in-place)
I0403 15:09:00.264400 31196 net.cpp:141] Setting up inception_4d/relu_5x5_reduce
I0403 15:09:00.264447 31196 net.cpp:148] Top shape: 24 32 14 14 (150528)
I0403 15:09:00.264467 31196 net.cpp:156] Memory required for data: 1132858656
I0403 15:09:00.264484 31196 layer_factory.hpp:77] Creating layer inception_4d/5x5
I0403 15:09:00.264542 31196 net.cpp:91] Creating Layer inception_4d/5x5
I0403 15:09:00.264590 31196 net.cpp:425] inception_4d/5x5 <- inception_4d/5x5_reduce
I0403 15:09:00.264645 31196 net.cpp:399] inception_4d/5x5 -> inception_4d/5x5
I0403 15:09:00.266517 31196 net.cpp:141] Setting up inception_4d/5x5
I0403 15:09:00.266552 31196 net.cpp:148] Top shape: 24 64 14 14 (301056)
I0403 15:09:00.266574 31196 net.cpp:156] Memory required for data: 1134062880
I0403 15:09:00.266597 31196 layer_factory.hpp:77] Creating layer inception_4d/relu_5x5
I0403 15:09:00.266660 31196 net.cpp:91] Creating Layer inception_4d/relu_5x5
I0403 15:09:00.266690 31196 net.cpp:425] inception_4d/relu_5x5 <- inception_4d/5x5
I0403 15:09:00.266712 31196 net.cpp:386] inception_4d/relu_5x5 -> inception_4d/5x5 (in-place)
I0403 15:09:00.267084 31196 net.cpp:141] Setting up inception_4d/relu_5x5
I0403 15:09:00.267118 31196 net.cpp:148] Top shape: 24 64 14 14 (301056)
I0403 15:09:00.267138 31196 net.cpp:156] Memory required for data: 1135267104
I0403 15:09:00.267156 31196 layer_factory.hpp:77] Creating layer inception_4d/pool
I0403 15:09:00.267181 31196 net.cpp:91] Creating Layer inception_4d/pool
I0403 15:09:00.267215 31196 net.cpp:425] inception_4d/pool <- inception_4c/output_inception_4c/output_0_split_3
I0403 15:09:00.267258 31196 net.cpp:399] inception_4d/pool -> inception_4d/pool
I0403 15:09:00.267365 31196 net.cpp:141] Setting up inception_4d/pool
I0403 15:09:00.267421 31196 net.cpp:148] Top shape: 24 512 14 14 (2408448)
I0403 15:09:00.267458 31196 net.cpp:156] Memory required for data: 1144900896
I0403 15:09:00.267477 31196 layer_factory.hpp:77] Creating layer inception_4d/pool_proj
I0403 15:09:00.267505 31196 net.cpp:91] Creating Layer inception_4d/pool_proj
I0403 15:09:00.267526 31196 net.cpp:425] inception_4d/pool_proj <- inception_4d/pool
I0403 15:09:00.267552 31196 net.cpp:399] inception_4d/pool_proj -> inception_4d/pool_proj
I0403 15:09:00.269711 31196 net.cpp:141] Setting up inception_4d/pool_proj
I0403 15:09:00.269747 31196 net.cpp:148] Top shape: 24 64 14 14 (301056)
I0403 15:09:00.269767 31196 net.cpp:156] Memory required for data: 1146105120
I0403 15:09:00.269789 31196 layer_factory.hpp:77] Creating layer inception_4d/relu_pool_proj
I0403 15:09:00.269815 31196 net.cpp:91] Creating Layer inception_4d/relu_pool_proj
I0403 15:09:00.269836 31196 net.cpp:425] inception_4d/relu_pool_proj <- inception_4d/pool_proj
I0403 15:09:00.269856 31196 net.cpp:386] inception_4d/relu_pool_proj -> inception_4d/pool_proj (in-place)
I0403 15:09:00.270128 31196 net.cpp:141] Setting up inception_4d/relu_pool_proj
I0403 15:09:00.270160 31196 net.cpp:148] Top shape: 24 64 14 14 (301056)
I0403 15:09:00.270197 31196 net.cpp:156] Memory required for data: 1147309344
I0403 15:09:00.270220 31196 layer_factory.hpp:77] Creating layer inception_4d/output
I0403 15:09:00.270247 31196 net.cpp:91] Creating Layer inception_4d/output
I0403 15:09:00.270272 31196 net.cpp:425] inception_4d/output <- inception_4d/1x1
I0403 15:09:00.270304 31196 net.cpp:425] inception_4d/output <- inception_4d/3x3
I0403 15:09:00.270330 31196 net.cpp:425] inception_4d/output <- inception_4d/5x5
I0403 15:09:00.270354 31196 net.cpp:425] inception_4d/output <- inception_4d/pool_proj
I0403 15:09:00.270380 31196 net.cpp:399] inception_4d/output -> inception_4d/output
I0403 15:09:00.270447 31196 net.cpp:141] Setting up inception_4d/output
I0403 15:09:00.270478 31196 net.cpp:148] Top shape: 24 528 14 14 (2483712)
I0403 15:09:00.270498 31196 net.cpp:156] Memory required for data: 1157244192
I0403 15:09:00.270517 31196 layer_factory.hpp:77] Creating layer inception_4d/output_inception_4d/output_0_split
I0403 15:09:00.270539 31196 net.cpp:91] Creating Layer inception_4d/output_inception_4d/output_0_split
I0403 15:09:00.270557 31196 net.cpp:425] inception_4d/output_inception_4d/output_0_split <- inception_4d/output
I0403 15:09:00.270583 31196 net.cpp:399] inception_4d/output_inception_4d/output_0_split -> inception_4d/output_inception_4d/output_0_split_0
I0403 15:09:00.270611 31196 net.cpp:399] inception_4d/output_inception_4d/output_0_split -> inception_4d/output_inception_4d/output_0_split_1
I0403 15:09:00.270637 31196 net.cpp:399] inception_4d/output_inception_4d/output_0_split -> inception_4d/output_inception_4d/output_0_split_2
I0403 15:09:00.270663 31196 net.cpp:399] inception_4d/output_inception_4d/output_0_split -> inception_4d/output_inception_4d/output_0_split_3
I0403 15:09:00.270689 31196 net.cpp:399] inception_4d/output_inception_4d/output_0_split -> inception_4d/output_inception_4d/output_0_split_4
I0403 15:09:00.270820 31196 net.cpp:141] Setting up inception_4d/output_inception_4d/output_0_split
I0403 15:09:00.270864 31196 net.cpp:148] Top shape: 24 528 14 14 (2483712)
I0403 15:09:00.270885 31196 net.cpp:148] Top shape: 24 528 14 14 (2483712)
I0403 15:09:00.270905 31196 net.cpp:148] Top shape: 24 528 14 14 (2483712)
I0403 15:09:00.270923 31196 net.cpp:148] Top shape: 24 528 14 14 (2483712)
I0403 15:09:00.270942 31196 net.cpp:148] Top shape: 24 528 14 14 (2483712)
I0403 15:09:00.270961 31196 net.cpp:156] Memory required for data: 1206918432
I0403 15:09:00.270978 31196 layer_factory.hpp:77] Creating layer loss2/ave_pool
I0403 15:09:00.271000 31196 net.cpp:91] Creating Layer loss2/ave_pool
I0403 15:09:00.271019 31196 net.cpp:425] loss2/ave_pool <- inception_4d/output_inception_4d/output_0_split_0
I0403 15:09:00.271045 31196 net.cpp:399] loss2/ave_pool -> loss2/ave_pool
I0403 15:09:00.271436 31196 net.cpp:141] Setting up loss2/ave_pool
I0403 15:09:00.271469 31196 net.cpp:148] Top shape: 24 528 4 4 (202752)
I0403 15:09:00.271489 31196 net.cpp:156] Memory required for data: 1207729440
I0403 15:09:00.271508 31196 layer_factory.hpp:77] Creating layer loss2/conv
I0403 15:09:00.271536 31196 net.cpp:91] Creating Layer loss2/conv
I0403 15:09:00.271559 31196 net.cpp:425] loss2/conv <- loss2/ave_pool
I0403 15:09:00.271586 31196 net.cpp:399] loss2/conv -> loss2/conv
I0403 15:09:00.273906 31196 net.cpp:141] Setting up loss2/conv
I0403 15:09:00.273941 31196 net.cpp:148] Top shape: 24 128 4 4 (49152)
I0403 15:09:00.273960 31196 net.cpp:156] Memory required for data: 1207926048
I0403 15:09:00.273983 31196 layer_factory.hpp:77] Creating layer loss2/relu_conv
I0403 15:09:00.274009 31196 net.cpp:91] Creating Layer loss2/relu_conv
I0403 15:09:00.274030 31196 net.cpp:425] loss2/relu_conv <- loss2/conv
I0403 15:09:00.274052 31196 net.cpp:386] loss2/relu_conv -> loss2/conv (in-place)
I0403 15:09:00.274416 31196 net.cpp:141] Setting up loss2/relu_conv
I0403 15:09:00.274449 31196 net.cpp:148] Top shape: 24 128 4 4 (49152)
I0403 15:09:00.274468 31196 net.cpp:156] Memory required for data: 1208122656
I0403 15:09:00.274487 31196 layer_factory.hpp:77] Creating layer loss2/fc
I0403 15:09:00.274513 31196 net.cpp:91] Creating Layer loss2/fc
I0403 15:09:00.274536 31196 net.cpp:425] loss2/fc <- loss2/conv
I0403 15:09:00.274564 31196 net.cpp:399] loss2/fc -> loss2/fc
I0403 15:09:00.296344 31196 net.cpp:141] Setting up loss2/fc
I0403 15:09:00.296389 31196 net.cpp:148] Top shape: 24 1024 (24576)
I0403 15:09:00.296409 31196 net.cpp:156] Memory required for data: 1208220960
I0403 15:09:00.296433 31196 layer_factory.hpp:77] Creating layer loss2/relu_fc
I0403 15:09:00.296457 31196 net.cpp:91] Creating Layer loss2/relu_fc
I0403 15:09:00.296478 31196 net.cpp:425] loss2/relu_fc <- loss2/fc
I0403 15:09:00.296504 31196 net.cpp:386] loss2/relu_fc -> loss2/fc (in-place)
I0403 15:09:00.296891 31196 net.cpp:141] Setting up loss2/relu_fc
I0403 15:09:00.296924 31196 net.cpp:148] Top shape: 24 1024 (24576)
I0403 15:09:00.296942 31196 net.cpp:156] Memory required for data: 1208319264
I0403 15:09:00.296962 31196 layer_factory.hpp:77] Creating layer loss2/drop_fc
I0403 15:09:00.296984 31196 net.cpp:91] Creating Layer loss2/drop_fc
I0403 15:09:00.297004 31196 net.cpp:425] loss2/drop_fc <- loss2/fc
I0403 15:09:00.297029 31196 net.cpp:386] loss2/drop_fc -> loss2/fc (in-place)
I0403 15:09:00.297093 31196 net.cpp:141] Setting up loss2/drop_fc
I0403 15:09:00.297122 31196 net.cpp:148] Top shape: 24 1024 (24576)
I0403 15:09:00.297139 31196 net.cpp:156] Memory required for data: 1208417568
I0403 15:09:00.297158 31196 layer_factory.hpp:77] Creating layer loss2/classifier_plantvillage
I0403 15:09:00.297179 31196 net.cpp:91] Creating Layer loss2/classifier_plantvillage
I0403 15:09:00.297199 31196 net.cpp:425] loss2/classifier_plantvillage <- loss2/fc
I0403 15:09:00.297225 31196 net.cpp:399] loss2/classifier_plantvillage -> loss2/classifier_plantvillage
I0403 15:09:00.297731 31196 net.cpp:141] Setting up loss2/classifier_plantvillage
I0403 15:09:00.297762 31196 net.cpp:148] Top shape: 24 38 (912)
I0403 15:09:00.297780 31196 net.cpp:156] Memory required for data: 1208421216
I0403 15:09:00.297824 31196 layer_factory.hpp:77] Creating layer loss2/classifier_plantvillage_loss2/classifier_plantvillage_0_split
I0403 15:09:00.297852 31196 net.cpp:91] Creating Layer loss2/classifier_plantvillage_loss2/classifier_plantvillage_0_split
I0403 15:09:00.297873 31196 net.cpp:425] loss2/classifier_plantvillage_loss2/classifier_plantvillage_0_split <- loss2/classifier_plantvillage
I0403 15:09:00.297896 31196 net.cpp:399] loss2/classifier_plantvillage_loss2/classifier_plantvillage_0_split -> loss2/classifier_plantvillage_loss2/classifier_plantvillage_0_split_0
I0403 15:09:00.297924 31196 net.cpp:399] loss2/classifier_plantvillage_loss2/classifier_plantvillage_0_split -> loss2/classifier_plantvillage_loss2/classifier_plantvillage_0_split_1
I0403 15:09:00.297950 31196 net.cpp:399] loss2/classifier_plantvillage_loss2/classifier_plantvillage_0_split -> loss2/classifier_plantvillage_loss2/classifier_plantvillage_0_split_2
I0403 15:09:00.298043 31196 net.cpp:141] Setting up loss2/classifier_plantvillage_loss2/classifier_plantvillage_0_split
I0403 15:09:00.298071 31196 net.cpp:148] Top shape: 24 38 (912)
I0403 15:09:00.298091 31196 net.cpp:148] Top shape: 24 38 (912)
I0403 15:09:00.298110 31196 net.cpp:148] Top shape: 24 38 (912)
I0403 15:09:00.298127 31196 net.cpp:156] Memory required for data: 1208432160
I0403 15:09:00.298146 31196 layer_factory.hpp:77] Creating layer inception_4e/1x1
I0403 15:09:00.298172 31196 net.cpp:91] Creating Layer inception_4e/1x1
I0403 15:09:00.298195 31196 net.cpp:425] inception_4e/1x1 <- inception_4d/output_inception_4d/output_0_split_1
I0403 15:09:00.298218 31196 net.cpp:399] inception_4e/1x1 -> inception_4e/1x1
I0403 15:09:00.300482 31196 net.cpp:141] Setting up inception_4e/1x1
I0403 15:09:00.300518 31196 net.cpp:148] Top shape: 24 256 14 14 (1204224)
I0403 15:09:00.300539 31196 net.cpp:156] Memory required for data: 1213249056
I0403 15:09:00.300562 31196 layer_factory.hpp:77] Creating layer inception_4e/relu_1x1
I0403 15:09:00.300585 31196 net.cpp:91] Creating Layer inception_4e/relu_1x1
I0403 15:09:00.300604 31196 net.cpp:425] inception_4e/relu_1x1 <- inception_4e/1x1
I0403 15:09:00.300626 31196 net.cpp:386] inception_4e/relu_1x1 -> inception_4e/1x1 (in-place)
I0403 15:09:00.300987 31196 net.cpp:141] Setting up inception_4e/relu_1x1
I0403 15:09:00.301024 31196 net.cpp:148] Top shape: 24 256 14 14 (1204224)
I0403 15:09:00.301046 31196 net.cpp:156] Memory required for data: 1218065952
I0403 15:09:00.301065 31196 layer_factory.hpp:77] Creating layer inception_4e/3x3_reduce
I0403 15:09:00.301093 31196 net.cpp:91] Creating Layer inception_4e/3x3_reduce
I0403 15:09:00.301115 31196 net.cpp:425] inception_4e/3x3_reduce <- inception_4d/output_inception_4d/output_0_split_2
I0403 15:09:00.301139 31196 net.cpp:399] inception_4e/3x3_reduce -> inception_4e/3x3_reduce
I0403 15:09:00.303731 31196 net.cpp:141] Setting up inception_4e/3x3_reduce
I0403 15:09:00.303766 31196 net.cpp:148] Top shape: 24 160 14 14 (752640)
I0403 15:09:00.303786 31196 net.cpp:156] Memory required for data: 1221076512
I0403 15:09:00.303809 31196 layer_factory.hpp:77] Creating layer inception_4e/relu_3x3_reduce
I0403 15:09:00.303834 31196 net.cpp:91] Creating Layer inception_4e/relu_3x3_reduce
I0403 15:09:00.303858 31196 net.cpp:425] inception_4e/relu_3x3_reduce <- inception_4e/3x3_reduce
I0403 15:09:00.303879 31196 net.cpp:386] inception_4e/relu_3x3_reduce -> inception_4e/3x3_reduce (in-place)
I0403 15:09:00.304111 31196 net.cpp:141] Setting up inception_4e/relu_3x3_reduce
I0403 15:09:00.304144 31196 net.cpp:148] Top shape: 24 160 14 14 (752640)
I0403 15:09:00.304164 31196 net.cpp:156] Memory required for data: 1224087072
I0403 15:09:00.304183 31196 layer_factory.hpp:77] Creating layer inception_4e/3x3
I0403 15:09:00.304209 31196 net.cpp:91] Creating Layer inception_4e/3x3
I0403 15:09:00.304231 31196 net.cpp:425] inception_4e/3x3 <- inception_4e/3x3_reduce
I0403 15:09:00.304255 31196 net.cpp:399] inception_4e/3x3 -> inception_4e/3x3
I0403 15:09:00.310417 31196 net.cpp:141] Setting up inception_4e/3x3
I0403 15:09:00.310470 31196 net.cpp:148] Top shape: 24 320 14 14 (1505280)
I0403 15:09:00.310492 31196 net.cpp:156] Memory required for data: 1230108192
I0403 15:09:00.310515 31196 layer_factory.hpp:77] Creating layer inception_4e/relu_3x3
I0403 15:09:00.310537 31196 net.cpp:91] Creating Layer inception_4e/relu_3x3
I0403 15:09:00.310557 31196 net.cpp:425] inception_4e/relu_3x3 <- inception_4e/3x3
I0403 15:09:00.310593 31196 net.cpp:386] inception_4e/relu_3x3 -> inception_4e/3x3 (in-place)
I0403 15:09:00.310976 31196 net.cpp:141] Setting up inception_4e/relu_3x3
I0403 15:09:00.311007 31196 net.cpp:148] Top shape: 24 320 14 14 (1505280)
I0403 15:09:00.311027 31196 net.cpp:156] Memory required for data: 1236129312
I0403 15:09:00.311045 31196 layer_factory.hpp:77] Creating layer inception_4e/5x5_reduce
I0403 15:09:00.311074 31196 net.cpp:91] Creating Layer inception_4e/5x5_reduce
I0403 15:09:00.311094 31196 net.cpp:425] inception_4e/5x5_reduce <- inception_4d/output_inception_4d/output_0_split_3
I0403 15:09:00.311121 31196 net.cpp:399] inception_4e/5x5_reduce -> inception_4e/5x5_reduce
I0403 15:09:00.312459 31196 net.cpp:141] Setting up inception_4e/5x5_reduce
I0403 15:09:00.312494 31196 net.cpp:148] Top shape: 24 32 14 14 (150528)
I0403 15:09:00.312513 31196 net.cpp:156] Memory required for data: 1236731424
I0403 15:09:00.312536 31196 layer_factory.hpp:77] Creating layer inception_4e/relu_5x5_reduce
I0403 15:09:00.312563 31196 net.cpp:91] Creating Layer inception_4e/relu_5x5_reduce
I0403 15:09:00.312584 31196 net.cpp:425] inception_4e/relu_5x5_reduce <- inception_4e/5x5_reduce
I0403 15:09:00.312605 31196 net.cpp:386] inception_4e/relu_5x5_reduce -> inception_4e/5x5_reduce (in-place)
I0403 15:09:00.312974 31196 net.cpp:141] Setting up inception_4e/relu_5x5_reduce
I0403 15:09:00.313007 31196 net.cpp:148] Top shape: 24 32 14 14 (150528)
I0403 15:09:00.313026 31196 net.cpp:156] Memory required for data: 1237333536
I0403 15:09:00.313046 31196 layer_factory.hpp:77] Creating layer inception_4e/5x5
I0403 15:09:00.313094 31196 net.cpp:91] Creating Layer inception_4e/5x5
I0403 15:09:00.313119 31196 net.cpp:425] inception_4e/5x5 <- inception_4e/5x5_reduce
I0403 15:09:00.313146 31196 net.cpp:399] inception_4e/5x5 -> inception_4e/5x5
I0403 15:09:00.315457 31196 net.cpp:141] Setting up inception_4e/5x5
I0403 15:09:00.315505 31196 net.cpp:148] Top shape: 24 128 14 14 (602112)
I0403 15:09:00.315526 31196 net.cpp:156] Memory required for data: 1239741984
I0403 15:09:00.315553 31196 layer_factory.hpp:77] Creating layer inception_4e/relu_5x5
I0403 15:09:00.315579 31196 net.cpp:91] Creating Layer inception_4e/relu_5x5
I0403 15:09:00.315601 31196 net.cpp:425] inception_4e/relu_5x5 <- inception_4e/5x5
I0403 15:09:00.315624 31196 net.cpp:386] inception_4e/relu_5x5 -> inception_4e/5x5 (in-place)
I0403 15:09:00.315881 31196 net.cpp:141] Setting up inception_4e/relu_5x5
I0403 15:09:00.315913 31196 net.cpp:148] Top shape: 24 128 14 14 (602112)
I0403 15:09:00.315933 31196 net.cpp:156] Memory required for data: 1242150432
I0403 15:09:00.315953 31196 layer_factory.hpp:77] Creating layer inception_4e/pool
I0403 15:09:00.315994 31196 net.cpp:91] Creating Layer inception_4e/pool
I0403 15:09:00.316016 31196 net.cpp:425] inception_4e/pool <- inception_4d/output_inception_4d/output_0_split_4
I0403 15:09:00.316038 31196 net.cpp:399] inception_4e/pool -> inception_4e/pool
I0403 15:09:00.316129 31196 net.cpp:141] Setting up inception_4e/pool
I0403 15:09:00.316160 31196 net.cpp:148] Top shape: 24 528 14 14 (2483712)
I0403 15:09:00.316180 31196 net.cpp:156] Memory required for data: 1252085280
I0403 15:09:00.316200 31196 layer_factory.hpp:77] Creating layer inception_4e/pool_proj
I0403 15:09:00.316231 31196 net.cpp:91] Creating Layer inception_4e/pool_proj
I0403 15:09:00.316254 31196 net.cpp:425] inception_4e/pool_proj <- inception_4e/pool
I0403 15:09:00.316282 31196 net.cpp:399] inception_4e/pool_proj -> inception_4e/pool_proj
I0403 15:09:00.318166 31196 net.cpp:141] Setting up inception_4e/pool_proj
I0403 15:09:00.318205 31196 net.cpp:148] Top shape: 24 128 14 14 (602112)
I0403 15:09:00.318250 31196 net.cpp:156] Memory required for data: 1254493728
I0403 15:09:00.318280 31196 layer_factory.hpp:77] Creating layer inception_4e/relu_pool_proj
I0403 15:09:00.318321 31196 net.cpp:91] Creating Layer inception_4e/relu_pool_proj
I0403 15:09:00.318347 31196 net.cpp:425] inception_4e/relu_pool_proj <- inception_4e/pool_proj
I0403 15:09:00.318375 31196 net.cpp:386] inception_4e/relu_pool_proj -> inception_4e/pool_proj (in-place)
I0403 15:09:00.318738 31196 net.cpp:141] Setting up inception_4e/relu_pool_proj
I0403 15:09:00.318778 31196 net.cpp:148] Top shape: 24 128 14 14 (602112)
I0403 15:09:00.318797 31196 net.cpp:156] Memory required for data: 1256902176
I0403 15:09:00.318817 31196 layer_factory.hpp:77] Creating layer inception_4e/output
I0403 15:09:00.318838 31196 net.cpp:91] Creating Layer inception_4e/output
I0403 15:09:00.318857 31196 net.cpp:425] inception_4e/output <- inception_4e/1x1
I0403 15:09:00.318878 31196 net.cpp:425] inception_4e/output <- inception_4e/3x3
I0403 15:09:00.318898 31196 net.cpp:425] inception_4e/output <- inception_4e/5x5
I0403 15:09:00.318925 31196 net.cpp:425] inception_4e/output <- inception_4e/pool_proj
I0403 15:09:00.318953 31196 net.cpp:399] inception_4e/output -> inception_4e/output
I0403 15:09:00.319018 31196 net.cpp:141] Setting up inception_4e/output
I0403 15:09:00.319056 31196 net.cpp:148] Top shape: 24 832 14 14 (3913728)
I0403 15:09:00.319077 31196 net.cpp:156] Memory required for data: 1272557088
I0403 15:09:00.319099 31196 layer_factory.hpp:77] Creating layer pool4/3x3_s2
I0403 15:09:00.319121 31196 net.cpp:91] Creating Layer pool4/3x3_s2
I0403 15:09:00.319149 31196 net.cpp:425] pool4/3x3_s2 <- inception_4e/output
I0403 15:09:00.319181 31196 net.cpp:399] pool4/3x3_s2 -> pool4/3x3_s2
I0403 15:09:00.319267 31196 net.cpp:141] Setting up pool4/3x3_s2
I0403 15:09:00.319309 31196 net.cpp:148] Top shape: 24 832 7 7 (978432)
I0403 15:09:00.319336 31196 net.cpp:156] Memory required for data: 1276470816
I0403 15:09:00.319362 31196 layer_factory.hpp:77] Creating layer pool4/3x3_s2_pool4/3x3_s2_0_split
I0403 15:09:00.319388 31196 net.cpp:91] Creating Layer pool4/3x3_s2_pool4/3x3_s2_0_split
I0403 15:09:00.319414 31196 net.cpp:425] pool4/3x3_s2_pool4/3x3_s2_0_split <- pool4/3x3_s2
I0403 15:09:00.319442 31196 net.cpp:399] pool4/3x3_s2_pool4/3x3_s2_0_split -> pool4/3x3_s2_pool4/3x3_s2_0_split_0
I0403 15:09:00.319469 31196 net.cpp:399] pool4/3x3_s2_pool4/3x3_s2_0_split -> pool4/3x3_s2_pool4/3x3_s2_0_split_1
I0403 15:09:00.319500 31196 net.cpp:399] pool4/3x3_s2_pool4/3x3_s2_0_split -> pool4/3x3_s2_pool4/3x3_s2_0_split_2
I0403 15:09:00.319532 31196 net.cpp:399] pool4/3x3_s2_pool4/3x3_s2_0_split -> pool4/3x3_s2_pool4/3x3_s2_0_split_3
I0403 15:09:00.319658 31196 net.cpp:141] Setting up pool4/3x3_s2_pool4/3x3_s2_0_split
I0403 15:09:00.319691 31196 net.cpp:148] Top shape: 24 832 7 7 (978432)
I0403 15:09:00.319716 31196 net.cpp:148] Top shape: 24 832 7 7 (978432)
I0403 15:09:00.319741 31196 net.cpp:148] Top shape: 24 832 7 7 (978432)
I0403 15:09:00.319766 31196 net.cpp:148] Top shape: 24 832 7 7 (978432)
I0403 15:09:00.319787 31196 net.cpp:156] Memory required for data: 1292125728
I0403 15:09:00.319809 31196 layer_factory.hpp:77] Creating layer inception_5a/1x1
I0403 15:09:00.319842 31196 net.cpp:91] Creating Layer inception_5a/1x1
I0403 15:09:00.319871 31196 net.cpp:425] inception_5a/1x1 <- pool4/3x3_s2_pool4/3x3_s2_0_split_0
I0403 15:09:00.319906 31196 net.cpp:399] inception_5a/1x1 -> inception_5a/1x1
I0403 15:09:00.323443 31196 net.cpp:141] Setting up inception_5a/1x1
I0403 15:09:00.323482 31196 net.cpp:148] Top shape: 24 256 7 7 (301056)
I0403 15:09:00.323506 31196 net.cpp:156] Memory required for data: 1293329952
I0403 15:09:00.323539 31196 layer_factory.hpp:77] Creating layer inception_5a/relu_1x1
I0403 15:09:00.323570 31196 net.cpp:91] Creating Layer inception_5a/relu_1x1
I0403 15:09:00.323598 31196 net.cpp:425] inception_5a/relu_1x1 <- inception_5a/1x1
I0403 15:09:00.323626 31196 net.cpp:386] inception_5a/relu_1x1 -> inception_5a/1x1 (in-place)
I0403 15:09:00.324015 31196 net.cpp:141] Setting up inception_5a/relu_1x1
I0403 15:09:00.324051 31196 net.cpp:148] Top shape: 24 256 7 7 (301056)
I0403 15:09:00.324077 31196 net.cpp:156] Memory required for data: 1294534176
I0403 15:09:00.324102 31196 layer_factory.hpp:77] Creating layer inception_5a/3x3_reduce
I0403 15:09:00.324133 31196 net.cpp:91] Creating Layer inception_5a/3x3_reduce
I0403 15:09:00.324156 31196 net.cpp:425] inception_5a/3x3_reduce <- pool4/3x3_s2_pool4/3x3_s2_0_split_1
I0403 15:09:00.324182 31196 net.cpp:399] inception_5a/3x3_reduce -> inception_5a/3x3_reduce
I0403 15:09:00.327219 31196 net.cpp:141] Setting up inception_5a/3x3_reduce
I0403 15:09:00.327256 31196 net.cpp:148] Top shape: 24 160 7 7 (188160)
I0403 15:09:00.327277 31196 net.cpp:156] Memory required for data: 1295286816
I0403 15:09:00.327307 31196 layer_factory.hpp:77] Creating layer inception_5a/relu_3x3_reduce
I0403 15:09:00.327332 31196 net.cpp:91] Creating Layer inception_5a/relu_3x3_reduce
I0403 15:09:00.327352 31196 net.cpp:425] inception_5a/relu_3x3_reduce <- inception_5a/3x3_reduce
I0403 15:09:00.327376 31196 net.cpp:386] inception_5a/relu_3x3_reduce -> inception_5a/3x3_reduce (in-place)
I0403 15:09:00.327611 31196 net.cpp:141] Setting up inception_5a/relu_3x3_reduce
I0403 15:09:00.327641 31196 net.cpp:148] Top shape: 24 160 7 7 (188160)
I0403 15:09:00.327659 31196 net.cpp:156] Memory required for data: 1296039456
I0403 15:09:00.327677 31196 layer_factory.hpp:77] Creating layer inception_5a/3x3
I0403 15:09:00.327704 31196 net.cpp:91] Creating Layer inception_5a/3x3
I0403 15:09:00.327726 31196 net.cpp:425] inception_5a/3x3 <- inception_5a/3x3_reduce
I0403 15:09:00.327754 31196 net.cpp:399] inception_5a/3x3 -> inception_5a/3x3
I0403 15:09:00.333963 31196 net.cpp:141] Setting up inception_5a/3x3
I0403 15:09:00.333999 31196 net.cpp:148] Top shape: 24 320 7 7 (376320)
I0403 15:09:00.334019 31196 net.cpp:156] Memory required for data: 1297544736
I0403 15:09:00.334043 31196 layer_factory.hpp:77] Creating layer inception_5a/relu_3x3
I0403 15:09:00.334069 31196 net.cpp:91] Creating Layer inception_5a/relu_3x3
I0403 15:09:00.334089 31196 net.cpp:425] inception_5a/relu_3x3 <- inception_5a/3x3
I0403 15:09:00.334111 31196 net.cpp:386] inception_5a/relu_3x3 -> inception_5a/3x3 (in-place)
I0403 15:09:00.334486 31196 net.cpp:141] Setting up inception_5a/relu_3x3
I0403 15:09:00.334518 31196 net.cpp:148] Top shape: 24 320 7 7 (376320)
I0403 15:09:00.334538 31196 net.cpp:156] Memory required for data: 1299050016
I0403 15:09:00.334558 31196 layer_factory.hpp:77] Creating layer inception_5a/5x5_reduce
I0403 15:09:00.334586 31196 net.cpp:91] Creating Layer inception_5a/5x5_reduce
I0403 15:09:00.334609 31196 net.cpp:425] inception_5a/5x5_reduce <- pool4/3x3_s2_pool4/3x3_s2_0_split_2
I0403 15:09:00.334635 31196 net.cpp:399] inception_5a/5x5_reduce -> inception_5a/5x5_reduce
I0403 15:09:00.336091 31196 net.cpp:141] Setting up inception_5a/5x5_reduce
I0403 15:09:00.336127 31196 net.cpp:148] Top shape: 24 32 7 7 (37632)
I0403 15:09:00.336146 31196 net.cpp:156] Memory required for data: 1299200544
I0403 15:09:00.336169 31196 layer_factory.hpp:77] Creating layer inception_5a/relu_5x5_reduce
I0403 15:09:00.336194 31196 net.cpp:91] Creating Layer inception_5a/relu_5x5_reduce
I0403 15:09:00.336215 31196 net.cpp:425] inception_5a/relu_5x5_reduce <- inception_5a/5x5_reduce
I0403 15:09:00.336236 31196 net.cpp:386] inception_5a/relu_5x5_reduce -> inception_5a/5x5_reduce (in-place)
I0403 15:09:00.336609 31196 net.cpp:141] Setting up inception_5a/relu_5x5_reduce
I0403 15:09:00.336642 31196 net.cpp:148] Top shape: 24 32 7 7 (37632)
I0403 15:09:00.336663 31196 net.cpp:156] Memory required for data: 1299351072
I0403 15:09:00.336681 31196 layer_factory.hpp:77] Creating layer inception_5a/5x5
I0403 15:09:00.336710 31196 net.cpp:91] Creating Layer inception_5a/5x5
I0403 15:09:00.336732 31196 net.cpp:425] inception_5a/5x5 <- inception_5a/5x5_reduce
I0403 15:09:00.336756 31196 net.cpp:399] inception_5a/5x5 -> inception_5a/5x5
I0403 15:09:00.338899 31196 net.cpp:141] Setting up inception_5a/5x5
I0403 15:09:00.338948 31196 net.cpp:148] Top shape: 24 128 7 7 (150528)
I0403 15:09:00.338969 31196 net.cpp:156] Memory required for data: 1299953184
I0403 15:09:00.338994 31196 layer_factory.hpp:77] Creating layer inception_5a/relu_5x5
I0403 15:09:00.339020 31196 net.cpp:91] Creating Layer inception_5a/relu_5x5
I0403 15:09:00.339041 31196 net.cpp:425] inception_5a/relu_5x5 <- inception_5a/5x5
I0403 15:09:00.339063 31196 net.cpp:386] inception_5a/relu_5x5 -> inception_5a/5x5 (in-place)
I0403 15:09:00.339309 31196 net.cpp:141] Setting up inception_5a/relu_5x5
I0403 15:09:00.339341 31196 net.cpp:148] Top shape: 24 128 7 7 (150528)
I0403 15:09:00.339362 31196 net.cpp:156] Memory required for data: 1300555296
I0403 15:09:00.339380 31196 layer_factory.hpp:77] Creating layer inception_5a/pool
I0403 15:09:00.339404 31196 net.cpp:91] Creating Layer inception_5a/pool
I0403 15:09:00.339424 31196 net.cpp:425] inception_5a/pool <- pool4/3x3_s2_pool4/3x3_s2_0_split_3
I0403 15:09:00.339449 31196 net.cpp:399] inception_5a/pool -> inception_5a/pool
I0403 15:09:00.339537 31196 net.cpp:141] Setting up inception_5a/pool
I0403 15:09:00.339566 31196 net.cpp:148] Top shape: 24 832 7 7 (978432)
I0403 15:09:00.339584 31196 net.cpp:156] Memory required for data: 1304469024
I0403 15:09:00.339602 31196 layer_factory.hpp:77] Creating layer inception_5a/pool_proj
I0403 15:09:00.339630 31196 net.cpp:91] Creating Layer inception_5a/pool_proj
I0403 15:09:00.339653 31196 net.cpp:425] inception_5a/pool_proj <- inception_5a/pool
I0403 15:09:00.339679 31196 net.cpp:399] inception_5a/pool_proj -> inception_5a/pool_proj
I0403 15:09:00.342494 31196 net.cpp:141] Setting up inception_5a/pool_proj
I0403 15:09:00.342531 31196 net.cpp:148] Top shape: 24 128 7 7 (150528)
I0403 15:09:00.342550 31196 net.cpp:156] Memory required for data: 1305071136
I0403 15:09:00.342576 31196 layer_factory.hpp:77] Creating layer inception_5a/relu_pool_proj
I0403 15:09:00.342598 31196 net.cpp:91] Creating Layer inception_5a/relu_pool_proj
I0403 15:09:00.342617 31196 net.cpp:425] inception_5a/relu_pool_proj <- inception_5a/pool_proj
I0403 15:09:00.342643 31196 net.cpp:386] inception_5a/relu_pool_proj -> inception_5a/pool_proj (in-place)
I0403 15:09:00.343014 31196 net.cpp:141] Setting up inception_5a/relu_pool_proj
I0403 15:09:00.343046 31196 net.cpp:148] Top shape: 24 128 7 7 (150528)
I0403 15:09:00.343066 31196 net.cpp:156] Memory required for data: 1305673248
I0403 15:09:00.343086 31196 layer_factory.hpp:77] Creating layer inception_5a/output
I0403 15:09:00.343107 31196 net.cpp:91] Creating Layer inception_5a/output
I0403 15:09:00.343127 31196 net.cpp:425] inception_5a/output <- inception_5a/1x1
I0403 15:09:00.343148 31196 net.cpp:425] inception_5a/output <- inception_5a/3x3
I0403 15:09:00.343169 31196 net.cpp:425] inception_5a/output <- inception_5a/5x5
I0403 15:09:00.343192 31196 net.cpp:425] inception_5a/output <- inception_5a/pool_proj
I0403 15:09:00.343216 31196 net.cpp:399] inception_5a/output -> inception_5a/output
I0403 15:09:00.343282 31196 net.cpp:141] Setting up inception_5a/output
I0403 15:09:00.343328 31196 net.cpp:148] Top shape: 24 832 7 7 (978432)
I0403 15:09:00.343348 31196 net.cpp:156] Memory required for data: 1309586976
I0403 15:09:00.343369 31196 layer_factory.hpp:77] Creating layer inception_5a/output_inception_5a/output_0_split
I0403 15:09:00.343390 31196 net.cpp:91] Creating Layer inception_5a/output_inception_5a/output_0_split
I0403 15:09:00.343410 31196 net.cpp:425] inception_5a/output_inception_5a/output_0_split <- inception_5a/output
I0403 15:09:00.343431 31196 net.cpp:399] inception_5a/output_inception_5a/output_0_split -> inception_5a/output_inception_5a/output_0_split_0
I0403 15:09:00.343461 31196 net.cpp:399] inception_5a/output_inception_5a/output_0_split -> inception_5a/output_inception_5a/output_0_split_1
I0403 15:09:00.343490 31196 net.cpp:399] inception_5a/output_inception_5a/output_0_split -> inception_5a/output_inception_5a/output_0_split_2
I0403 15:09:00.343518 31196 net.cpp:399] inception_5a/output_inception_5a/output_0_split -> inception_5a/output_inception_5a/output_0_split_3
I0403 15:09:00.343660 31196 net.cpp:141] Setting up inception_5a/output_inception_5a/output_0_split
I0403 15:09:00.343690 31196 net.cpp:148] Top shape: 24 832 7 7 (978432)
I0403 15:09:00.343711 31196 net.cpp:148] Top shape: 24 832 7 7 (978432)
I0403 15:09:00.343731 31196 net.cpp:148] Top shape: 24 832 7 7 (978432)
I0403 15:09:00.343751 31196 net.cpp:148] Top shape: 24 832 7 7 (978432)
I0403 15:09:00.343770 31196 net.cpp:156] Memory required for data: 1325241888
I0403 15:09:00.343787 31196 layer_factory.hpp:77] Creating layer inception_5b/1x1
I0403 15:09:00.343816 31196 net.cpp:91] Creating Layer inception_5b/1x1
I0403 15:09:00.343838 31196 net.cpp:425] inception_5b/1x1 <- inception_5a/output_inception_5a/output_0_split_0
I0403 15:09:00.343863 31196 net.cpp:399] inception_5b/1x1 -> inception_5b/1x1
I0403 15:09:00.348511 31196 net.cpp:141] Setting up inception_5b/1x1
I0403 15:09:00.348559 31196 net.cpp:148] Top shape: 24 384 7 7 (451584)
I0403 15:09:00.348587 31196 net.cpp:156] Memory required for data: 1327048224
I0403 15:09:00.348613 31196 layer_factory.hpp:77] Creating layer inception_5b/relu_1x1
I0403 15:09:00.348644 31196 net.cpp:91] Creating Layer inception_5b/relu_1x1
I0403 15:09:00.348672 31196 net.cpp:425] inception_5b/relu_1x1 <- inception_5b/1x1
I0403 15:09:00.348701 31196 net.cpp:386] inception_5b/relu_1x1 -> inception_5b/1x1 (in-place)
I0403 15:09:00.349087 31196 net.cpp:141] Setting up inception_5b/relu_1x1
I0403 15:09:00.349124 31196 net.cpp:148] Top shape: 24 384 7 7 (451584)
I0403 15:09:00.349150 31196 net.cpp:156] Memory required for data: 1328854560
I0403 15:09:00.349176 31196 layer_factory.hpp:77] Creating layer inception_5b/3x3_reduce
I0403 15:09:00.349210 31196 net.cpp:91] Creating Layer inception_5b/3x3_reduce
I0403 15:09:00.349239 31196 net.cpp:425] inception_5b/3x3_reduce <- inception_5a/output_inception_5a/output_0_split_1
I0403 15:09:00.349272 31196 net.cpp:399] inception_5b/3x3_reduce -> inception_5b/3x3_reduce
I0403 15:09:00.352553 31196 net.cpp:141] Setting up inception_5b/3x3_reduce
I0403 15:09:00.352591 31196 net.cpp:148] Top shape: 24 192 7 7 (225792)
I0403 15:09:00.352610 31196 net.cpp:156] Memory required for data: 1329757728
I0403 15:09:00.352633 31196 layer_factory.hpp:77] Creating layer inception_5b/relu_3x3_reduce
I0403 15:09:00.352655 31196 net.cpp:91] Creating Layer inception_5b/relu_3x3_reduce
I0403 15:09:00.352675 31196 net.cpp:425] inception_5b/relu_3x3_reduce <- inception_5b/3x3_reduce
I0403 15:09:00.352699 31196 net.cpp:386] inception_5b/relu_3x3_reduce -> inception_5b/3x3_reduce (in-place)
I0403 15:09:00.352941 31196 net.cpp:141] Setting up inception_5b/relu_3x3_reduce
I0403 15:09:00.352972 31196 net.cpp:148] Top shape: 24 192 7 7 (225792)
I0403 15:09:00.352989 31196 net.cpp:156] Memory required for data: 1330660896
I0403 15:09:00.353008 31196 layer_factory.hpp:77] Creating layer inception_5b/3x3
I0403 15:09:00.353035 31196 net.cpp:91] Creating Layer inception_5b/3x3
I0403 15:09:00.353056 31196 net.cpp:425] inception_5b/3x3 <- inception_5b/3x3_reduce
I0403 15:09:00.353083 31196 net.cpp:399] inception_5b/3x3 -> inception_5b/3x3
I0403 15:09:00.361377 31196 net.cpp:141] Setting up inception_5b/3x3
I0403 15:09:00.361416 31196 net.cpp:148] Top shape: 24 384 7 7 (451584)
I0403 15:09:00.361443 31196 net.cpp:156] Memory required for data: 1332467232
I0403 15:09:00.361466 31196 layer_factory.hpp:77] Creating layer inception_5b/relu_3x3
I0403 15:09:00.361488 31196 net.cpp:91] Creating Layer inception_5b/relu_3x3
I0403 15:09:00.361510 31196 net.cpp:425] inception_5b/relu_3x3 <- inception_5b/3x3
I0403 15:09:00.361536 31196 net.cpp:386] inception_5b/relu_3x3 -> inception_5b/3x3 (in-place)
I0403 15:09:00.361907 31196 net.cpp:141] Setting up inception_5b/relu_3x3
I0403 15:09:00.361939 31196 net.cpp:148] Top shape: 24 384 7 7 (451584)
I0403 15:09:00.361958 31196 net.cpp:156] Memory required for data: 1334273568
I0403 15:09:00.361979 31196 layer_factory.hpp:77] Creating layer inception_5b/5x5_reduce
I0403 15:09:00.362030 31196 net.cpp:91] Creating Layer inception_5b/5x5_reduce
I0403 15:09:00.362053 31196 net.cpp:425] inception_5b/5x5_reduce <- inception_5a/output_inception_5a/output_0_split_2
I0403 15:09:00.362082 31196 net.cpp:399] inception_5b/5x5_reduce -> inception_5b/5x5_reduce
I0403 15:09:00.363708 31196 net.cpp:141] Setting up inception_5b/5x5_reduce
I0403 15:09:00.363747 31196 net.cpp:148] Top shape: 24 48 7 7 (56448)
I0403 15:09:00.363775 31196 net.cpp:156] Memory required for data: 1334499360
I0403 15:09:00.363806 31196 layer_factory.hpp:77] Creating layer inception_5b/relu_5x5_reduce
I0403 15:09:00.363837 31196 net.cpp:91] Creating Layer inception_5b/relu_5x5_reduce
I0403 15:09:00.363864 31196 net.cpp:425] inception_5b/relu_5x5_reduce <- inception_5b/5x5_reduce
I0403 15:09:00.363889 31196 net.cpp:386] inception_5b/relu_5x5_reduce -> inception_5b/5x5_reduce (in-place)
I0403 15:09:00.364369 31196 net.cpp:141] Setting up inception_5b/relu_5x5_reduce
I0403 15:09:00.364403 31196 net.cpp:148] Top shape: 24 48 7 7 (56448)
I0403 15:09:00.364423 31196 net.cpp:156] Memory required for data: 1334725152
I0403 15:09:00.364442 31196 layer_factory.hpp:77] Creating layer inception_5b/5x5
I0403 15:09:00.364467 31196 net.cpp:91] Creating Layer inception_5b/5x5
I0403 15:09:00.364490 31196 net.cpp:425] inception_5b/5x5 <- inception_5b/5x5_reduce
I0403 15:09:00.364514 31196 net.cpp:399] inception_5b/5x5 -> inception_5b/5x5
I0403 15:09:00.367079 31196 net.cpp:141] Setting up inception_5b/5x5
I0403 15:09:00.367120 31196 net.cpp:148] Top shape: 24 128 7 7 (150528)
I0403 15:09:00.367141 31196 net.cpp:156] Memory required for data: 1335327264
I0403 15:09:00.367168 31196 layer_factory.hpp:77] Creating layer inception_5b/relu_5x5
I0403 15:09:00.367199 31196 net.cpp:91] Creating Layer inception_5b/relu_5x5
I0403 15:09:00.367228 31196 net.cpp:425] inception_5b/relu_5x5 <- inception_5b/5x5
I0403 15:09:00.367251 31196 net.cpp:386] inception_5b/relu_5x5 -> inception_5b/5x5 (in-place)
I0403 15:09:00.367504 31196 net.cpp:141] Setting up inception_5b/relu_5x5
I0403 15:09:00.367544 31196 net.cpp:148] Top shape: 24 128 7 7 (150528)
I0403 15:09:00.367571 31196 net.cpp:156] Memory required for data: 1335929376
I0403 15:09:00.367594 31196 layer_factory.hpp:77] Creating layer inception_5b/pool
I0403 15:09:00.367621 31196 net.cpp:91] Creating Layer inception_5b/pool
I0403 15:09:00.367650 31196 net.cpp:425] inception_5b/pool <- inception_5a/output_inception_5a/output_0_split_3
I0403 15:09:00.367679 31196 net.cpp:399] inception_5b/pool -> inception_5b/pool
I0403 15:09:00.367776 31196 net.cpp:141] Setting up inception_5b/pool
I0403 15:09:00.367815 31196 net.cpp:148] Top shape: 24 832 7 7 (978432)
I0403 15:09:00.367835 31196 net.cpp:156] Memory required for data: 1339843104
I0403 15:09:00.367861 31196 layer_factory.hpp:77] Creating layer inception_5b/pool_proj
I0403 15:09:00.367895 31196 net.cpp:91] Creating Layer inception_5b/pool_proj
I0403 15:09:00.367920 31196 net.cpp:425] inception_5b/pool_proj <- inception_5b/pool
I0403 15:09:00.367954 31196 net.cpp:399] inception_5b/pool_proj -> inception_5b/pool_proj
I0403 15:09:00.370836 31196 net.cpp:141] Setting up inception_5b/pool_proj
I0403 15:09:00.370879 31196 net.cpp:148] Top shape: 24 128 7 7 (150528)
I0403 15:09:00.370908 31196 net.cpp:156] Memory required for data: 1340445216
I0403 15:09:00.370937 31196 layer_factory.hpp:77] Creating layer inception_5b/relu_pool_proj
I0403 15:09:00.370970 31196 net.cpp:91] Creating Layer inception_5b/relu_pool_proj
I0403 15:09:00.370998 31196 net.cpp:425] inception_5b/relu_pool_proj <- inception_5b/pool_proj
I0403 15:09:00.371028 31196 net.cpp:386] inception_5b/relu_pool_proj -> inception_5b/pool_proj (in-place)
I0403 15:09:00.371409 31196 net.cpp:141] Setting up inception_5b/relu_pool_proj
I0403 15:09:00.371448 31196 net.cpp:148] Top shape: 24 128 7 7 (150528)
I0403 15:09:00.371475 31196 net.cpp:156] Memory required for data: 1341047328
I0403 15:09:00.371501 31196 layer_factory.hpp:77] Creating layer inception_5b/output
I0403 15:09:00.371531 31196 net.cpp:91] Creating Layer inception_5b/output
I0403 15:09:00.371582 31196 net.cpp:425] inception_5b/output <- inception_5b/1x1
I0403 15:09:00.371609 31196 net.cpp:425] inception_5b/output <- inception_5b/3x3
I0403 15:09:00.371641 31196 net.cpp:425] inception_5b/output <- inception_5b/5x5
I0403 15:09:00.371670 31196 net.cpp:425] inception_5b/output <- inception_5b/pool_proj
I0403 15:09:00.371700 31196 net.cpp:399] inception_5b/output -> inception_5b/output
I0403 15:09:00.371770 31196 net.cpp:141] Setting up inception_5b/output
I0403 15:09:00.371811 31196 net.cpp:148] Top shape: 24 1024 7 7 (1204224)
I0403 15:09:00.371840 31196 net.cpp:156] Memory required for data: 1345864224
I0403 15:09:00.371865 31196 layer_factory.hpp:77] Creating layer pool5/7x7_s1
I0403 15:09:00.371896 31196 net.cpp:91] Creating Layer pool5/7x7_s1
I0403 15:09:00.371925 31196 net.cpp:425] pool5/7x7_s1 <- inception_5b/output
I0403 15:09:00.371958 31196 net.cpp:399] pool5/7x7_s1 -> pool5/7x7_s1
I0403 15:09:00.372231 31196 net.cpp:141] Setting up pool5/7x7_s1
I0403 15:09:00.372272 31196 net.cpp:148] Top shape: 24 1024 1 1 (24576)
I0403 15:09:00.372299 31196 net.cpp:156] Memory required for data: 1345962528
I0403 15:09:00.372329 31196 layer_factory.hpp:77] Creating layer pool5/drop_7x7_s1
I0403 15:09:00.372364 31196 net.cpp:91] Creating Layer pool5/drop_7x7_s1
I0403 15:09:00.372390 31196 net.cpp:425] pool5/drop_7x7_s1 <- pool5/7x7_s1
I0403 15:09:00.372419 31196 net.cpp:386] pool5/drop_7x7_s1 -> pool5/7x7_s1 (in-place)
I0403 15:09:00.372488 31196 net.cpp:141] Setting up pool5/drop_7x7_s1
I0403 15:09:00.372524 31196 net.cpp:148] Top shape: 24 1024 1 1 (24576)
I0403 15:09:00.372565 31196 net.cpp:156] Memory required for data: 1346060832
I0403 15:09:00.372591 31196 layer_factory.hpp:77] Creating layer loss3/classifier_plantvillage
I0403 15:09:00.372623 31196 net.cpp:91] Creating Layer loss3/classifier_plantvillage
I0403 15:09:00.372648 31196 net.cpp:425] loss3/classifier_plantvillage <- pool5/7x7_s1
I0403 15:09:00.372683 31196 net.cpp:399] loss3/classifier_plantvillage -> loss3/classifier_plantvillage
I0403 15:09:00.373220 31196 net.cpp:141] Setting up loss3/classifier_plantvillage
I0403 15:09:00.373309 31196 net.cpp:148] Top shape: 24 38 (912)
I0403 15:09:00.373360 31196 net.cpp:156] Memory required for data: 1346064480
I0403 15:09:00.373391 31196 layer_factory.hpp:77] Creating layer loss3/classifier_plantvillage_loss3/classifier_plantvillage_0_split
I0403 15:09:00.373414 31196 net.cpp:91] Creating Layer loss3/classifier_plantvillage_loss3/classifier_plantvillage_0_split
I0403 15:09:00.373436 31196 net.cpp:425] loss3/classifier_plantvillage_loss3/classifier_plantvillage_0_split <- loss3/classifier_plantvillage
I0403 15:09:00.373466 31196 net.cpp:399] loss3/classifier_plantvillage_loss3/classifier_plantvillage_0_split -> loss3/classifier_plantvillage_loss3/classifier_plantvillage_0_split_0
I0403 15:09:00.373494 31196 net.cpp:399] loss3/classifier_plantvillage_loss3/classifier_plantvillage_0_split -> loss3/classifier_plantvillage_loss3/classifier_plantvillage_0_split_1
I0403 15:09:00.373522 31196 net.cpp:399] loss3/classifier_plantvillage_loss3/classifier_plantvillage_0_split -> loss3/classifier_plantvillage_loss3/classifier_plantvillage_0_split_2
I0403 15:09:00.373548 31196 net.cpp:399] loss3/classifier_plantvillage_loss3/classifier_plantvillage_0_split -> loss3/classifier_plantvillage_loss3/classifier_plantvillage_0_split_3
I0403 15:09:00.373680 31196 net.cpp:141] Setting up loss3/classifier_plantvillage_loss3/classifier_plantvillage_0_split
I0403 15:09:00.373710 31196 net.cpp:148] Top shape: 24 38 (912)
I0403 15:09:00.373730 31196 net.cpp:148] Top shape: 24 38 (912)
I0403 15:09:00.373750 31196 net.cpp:148] Top shape: 24 38 (912)
I0403 15:09:00.373770 31196 net.cpp:148] Top shape: 24 38 (912)
I0403 15:09:00.373788 31196 net.cpp:156] Memory required for data: 1346079072
I0403 15:09:00.373807 31196 layer_factory.hpp:77] Creating layer loss1/loss
I0403 15:09:00.373836 31196 net.cpp:91] Creating Layer loss1/loss
I0403 15:09:00.373859 31196 net.cpp:425] loss1/loss <- loss1/classifier_plantvillage_loss1/classifier_plantvillage_0_split_0
I0403 15:09:00.373898 31196 net.cpp:425] loss1/loss <- label_data_1_split_0
…
