…
I0403 15:27:52.706642 31924 net.cpp:313] The NetState phase (1) differed from the phase (0) specified by a rule in layer data
I0403 15:27:52.707828 31924 net.cpp:49] Initializing net from parameters: 
state {
  phase: TEST
}
layer {
  name: "data"
  type: "Data"
  top: "data"
  top: "label"
  include {
    phase: TEST
  }
  transform_param {
    mirror: false
    crop_size: 224
    mean_file: "/home/mohanty/data/final_dataset/lmdb/color-60-40/mean.binaryproto"
  }
  data_param {
    source: "/home/mohanty/data/final_dataset/lmdb/color-60-40/test_db"
    batch_size: 24
    backend: LMDB
  }
}
layer {
  name: "conv1/7x7_s2"
  type: "Convolution"
  bottom: "data"
  top: "conv1/7x7_s2"
  param {
    lr_mult: 1
    decay_mult: 1
  }
  param {
    lr_mult: 2
    decay_mult: 0
  }
  convolution_param {
    num_output: 64
    pad: 3
    kernel_size: 7
    stride: 2
    weight_filler {
      type: "xavier"
      std: 0.1
    }
    bias_filler {
      type: "constant"
      value: 0.2
    }
  }
}
layer {
  name: "conv1/relu_7x7"
  type: "ReLU"
  bottom: "conv1/7x7_s2"
  top: "conv1/7x7_s2"
}
layer {
  name: "pool1/3x3_s2"
  type: "Pooling"
  bottom: "conv1/7x7_s2"
  top: "pool1/3x3_s2"
  pooling_param {
    pool: MAX
    kernel_size: 3
    stride: 2
  }
}
layer {
  name: "pool1/norm1"
  type: "LRN"
  bottom: "pool1/3x3_s2"
  top: "pool1/norm1"
  lrn_param {
    local_size: 5
    alpha: 0.0001
    beta: 0.75
  }
}
layer {
  name: "conv2/3x3_reduce"
  type: "Convolution"
  bottom: "pool1/norm1"
  top: "conv2/3x3_reduce"
  param {
    lr_mult: 1
    decay_mult: 1
  }
  param {
    lr_mult: 2
    decay_mult: 0
  }
  convolution_param {
    num_output: 64
    kernel_size: 1
    weight_filler {
      type: "xavier"
      std: 0.1
    }
    bias_filler {
      type: "constant"
      value: 0.2
    }
  }
}
layer {
  name: "conv2/relu_3x3_reduce"
  type: "ReLU"
  bottom: "conv2/3x3_reduce"
  top: "conv2/3x3_reduce"
}
layer {
  name: "conv2/3x3"
  type: "Convolution"
  bottom: "conv2/3x3_reduce"
  top: "conv2/3x3"
  param {
    lr_mult: 1
    decay_mult: 1
  }
  param {
    lr_mult: 2
    decay_mult: 0
  }
  convolution_param {
    num_output: 192
    pad: 1
    kernel_size: 3
    weight_filler {
      type: "xavier"
      std: 0.03
    }
    bias_filler {
      type: "constant"
      value: 0.2
    }
  }
}
layer {
  name: "conv2/relu_3x3"
  type: "ReLU"
  bottom: "conv2/3x3"
  top: "conv2/3x3"
}
layer {
  name: "conv2/norm2"
  type: "LRN"
  bottom: "conv2/3x3"
  top: "conv2/norm2"
  lrn_param {
    local_size: 5
    alpha: 0.0001
    beta: 0.75
  }
}
layer {
  name: "pool2/3x3_s2"
  type: "Pooling"
  bottom: "conv2/norm2"
  top: "pool2/3x3_s2"
  pooling_param {
    pool: MAX
    kernel_size: 3
    stride: 2
  }
}
layer {
  name: "inception_3a/1x1"
  type: "Convolution"
  bottom: "pool2/3x3_s2"
  top: "inception_3a/1x1"
  param {
    lr_mult: 1
    decay_mult: 1
  }
  param {
    lr_mult: 2
    decay_mult: 0
  }
  convolution_param {
    num_output: 64
    kernel_size: 1
    weight_filler {
      type: "xavier"
      std: 0.03
    }
    bias_filler {
      type: "constant"
      value: 0.2
    }
  }
}
layer {
  name: "inception_3a/relu_1x1"
  type: "ReLU"
  bottom: "inception_3a/1x1"
  top: "inception_3a/1x1"
}
layer {
  name: "inception_3a/3x3_reduce"
  type: "Convolution"
  bottom: "pool2/3x3_s2"
  top: "inception_3a/3x3_reduce"
  param {
    lr_mult: 1
    decay_mult: 1
  }
  param {
    lr_mult: 2
    decay_mult: 0
  }
  convolution_param {
    num_output: 96
    kernel_size: 1
    weight_filler {
      type: "xavier"
      std: 0.09
    }
    bias_filler {
      type: "constant"
      value: 0.2
    }
  }
}
layer {
  name: "inception_3a/relu_3x3_reduce"
  type: "ReLU"
  bottom: "inception_3a/3x3_reduce"
  top: "inception_3a/3x3_reduce"
}
layer {
  name: "inception_3a/3x3"
  type: "Convolution"
  bottom: "inception_3a/3x3_reduce"
  top: "inception_3a/3x3"
  param {
    lr_mult: 1
    decay_mult: 1
  }
  param {
    lr_mult: 2
    decay_mult: 0
  }
  convolution_param {
    num_output: 128
    pad: 1
    kernel_size: 3
    weight_filler {
      type: "xavier"
      std: 0.03
    }
    bias_filler {
      type: "constant"
      value: 0.2
    }
  }
}
layer {
  name: "inception_3a/relu_3x3"
  type: "ReLU"
  bottom: "inception_3a/3x3"
  top: "inception_3a/3x3"
}
layer {
  name: "inception_3a/5x5_reduce"
  type: "Convolution"
  bottom: "pool2/3x3_s2"
  top: "inception_3a/5x5_reduce"
  param {
    lr_mult: 1
    decay_mult: 1
  }
  param {
    lr_mult: 2
    decay_mult: 0
  }
  convolution_param {
    num_output: 16
    kernel_size: 1
    weight_filler {
      type: "xavier"
      std: 0.2
    }
    bias_filler {
      type: "constant"
      value: 0.2
    }
  }
}
layer {
  name: "inception_3a/relu_5x5_reduce"
  type: "ReLU"
  bottom: "inception_3a/5x5_reduce"
  top: "inception_3a/5x5_reduce"
}
layer {
  name: "inception_3a/5x5"
  type: "Convolution"
  bottom: "inception_3a/5x5_reduce"
  top: "inception_3a/5x5"
  param {
    lr_mult: 1
    decay_mult: 1
  }
  param {
    lr_mult: 2
    decay_mult: 0
  }
  convolution_param {
    num_output: 32
    pad: 2
    kernel_size: 5
    weight_filler {
      type: "xavier"
      std: 0.03
    }
    bias_filler {
      type: "constant"
      value: 0.2
    }
  }
}
layer {
  name: "inception_3a/relu_5x5"
  type: "ReLU"
  bottom: "inception_3a/5x5"
  top: "inception_3a/5x5"
}
layer {
  name: "inception_3a/pool"
  type: "Pooling"
  bottom: "pool2/3x3_s2"
  top: "inception_3a/pool"
  pooling_param {
    pool: MAX
    kernel_size: 3
    stride: 1
    pad: 1
  }
}
layer {
  name: "inception_3a/pool_proj"
  type: "Convolution"
  bottom: "inception_3a/pool"
  top: "inception_3a/pool_proj"
  param {
    lr_mult: 1
    decay_mult: 1
  }
  param {
    lr_mult: 2
    decay_mult: 0
  }
  convolution_param {
    num_output: 32
    kernel_size: 1
    weight_filler {
      type: "xavier"
      std: 0.1
    }
    bias_filler {
      type: "constant"
      value: 0.2
    }
  }
}
layer {
  name: "inception_3a/relu_pool_proj"
  type: "ReLU"
  bottom: "inception_3a/pool_proj"
  top: "inception_3a/pool_proj"
}
layer {
  name: "inception_3a/output"
  type: "Concat"
  bottom: "inception_3a/1x1"
  bottom: "inception_3a/3x3"
  bottom: "inception_3a/5x5"
  bottom: "inception_3a/pool_proj"
  top: "inception_3a/output"
}
layer {
  name: "inception_3b/1x1"
  type: "Convolution"
  bottom: "inception_3a/output"
  top: "inception_3b/1x1"
  param {
    lr_mult: 1
    decay_mult: 1
  }
  param {
    lr_mult: 2
    decay_mult: 0
  }
  convolution_param {
    num_output: 128
    kernel_size: 1
    weight_filler {
      type: "xavier"
      std: 0.03
    }
    bias_filler {
      type: "constant"
      value: 0.2
    }
  }
}
layer {
  name: "inception_3b/relu_1x1"
  type: "ReLU"
  bottom: "inception_3b/1x1"
  top: "inception_3b/1x1"
}
layer {
  name: "inception_3b/3x3_reduce"
  type: "Convolution"
  bottom: "inception_3a/output"
  top: "inception_3b/3x3_reduce"
  param {
    lr_mult: 1
    decay_mult: 1
  }
  param {
    lr_mult: 2
    decay_mult: 0
  }
  convolution_param {
    num_output: 128
    kernel_size: 1
    weight_filler {
      type: "xavier"
      std: 0.09
    }
    bias_filler {
      type: "constant"
      value: 0.2
    }
  }
}
layer {
  name: "inception_3b/relu_3x3_reduce"
  type: "ReLU"
  bottom: "inception_3b/3x3_reduce"
  top: "inception_3b/3x3_reduce"
}
layer {
  name: "inception_3b/3x3"
  type: "Convolution"
  bottom: "inception_3b/3x3_reduce"
  top: "inception_3b/3x3"
  param {
    lr_mult: 1
    decay_mult: 1
  }
  param {
    lr_mult: 2
    decay_mult: 0
  }
  convolution_param {
    num_output: 192
    pad: 1
    kernel_size: 3
    weight_filler {
      type: "xavier"
      std: 0.03
    }
    bias_filler {
      type: "constant"
      value: 0.2
    }
  }
}
layer {
  name: "inception_3b/relu_3x3"
  type: "ReLU"
  bottom: "inception_3b/3x3"
  top: "inception_3b/3x3"
}
layer {
  name: "inception_3b/5x5_reduce"
  type: "Convolution"
  bottom: "inception_3a/output"
  top: "inception_3b/5x5_reduce"
  param {
    lr_mult: 1
    decay_mult: 1
  }
  param {
    lr_mult: 2
    decay_mult: 0
  }
  convolution_param {
    num_output: 32
    kernel_size: 1
    weight_filler {
      type: "xavier"
      std: 0.2
    }
    bias_filler {
      type: "constant"
      value: 0.2
    }
  }
}
layer {
  name: "inception_3b/relu_5x5_reduce"
  type: "ReLU"
  bottom: "inception_3b/5x5_reduce"
  top: "inception_3b/5x5_reduce"
}
layer {
  name: "inception_3b/5x5"
  type: "Convolution"
  bottom: "inception_3b/5x5_reduce"
  top: "inception_3b/5x5"
  param {
    lr_mult: 1
    decay_mult: 1
  }
  param {
    lr_mult: 2
    decay_mult: 0
  }
  convolution_param {
    num_output: 96
    pad: 2
    kernel_size: 5
    weight_filler {
      type: "xavier"
      std: 0.03
    }
    bias_filler {
      type: "constant"
      value: 0.2
    }
  }
}
layer {
  name: "inception_3b/relu_5x5"
  type: "ReLU"
  bottom: "inception_3b/5x5"
  top: "inception_3b/5x5"
}
layer {
  name: "inception_3b/pool"
  type: "Pooling"
  bottom: "inception_3a/output"
  top: "inception_3b/pool"
  pooling_param {
    pool: MAX
    kernel_size: 3
    stride: 1
    pad: 1
  }
}
layer {
  name: "inception_3b/pool_proj"
  type: "Convolution"
  bottom: "inception_3b/pool"
  top: "inception_3b/pool_proj"
  param {
    lr_mult: 1
    decay_mult: 1
  }
  param {
    lr_mult: 2
    decay_mult: 0
  }
  convolution_param {
    num_output: 64
    kernel_size: 1
    weight_filler {
      type: "xavier"
      std: 0.1
    }
    bias_filler {
      type: "constant"
      value: 0.2
    }
  }
}
layer {
  name: "inception_3b/relu_pool_proj"
  type: "ReLU"
  bottom: "inception_3b/pool_proj"
  top: "inception_3b/pool_proj"
}
layer {
  name: "inception_3b/output"
  type: "Concat"
  bottom: "inception_3b/1x1"
  bottom: "inception_3b/3x3"
  bottom: "inception_3b/5x5"
  bottom: "inception_3b/pool_proj"
  top: "inception_3b/output"
}
layer {
  name: "pool3/3x3_s2"
  type: "Pooling"
  bottom: "inception_3b/output"
  top: "pool3/3x3_s2"
  pooling_param {
    pool: MAX
    kernel_size: 3
    stride: 2
  }
}
layer {
  name: "inception_4a/1x1"
  type: "Convolution"
  bottom: "pool3/3x3_s2"
  top: "inception_4a/1x1"
  param {
    lr_mult: 1
    decay_mult: 1
  }
  param {
    lr_mult: 2
    decay_mult: 0
  }
  convolution_param {
    num_output: 192
    kernel_size: 1
    weight_filler {
      type: "xavier"
      std: 0.03
    }
    bias_filler {
      type: "constant"
      value: 0.2
    }
  }
}
layer {
  name: "inception_4a/relu_1x1"
  type: "ReLU"
  bottom: "inception_4a/1x1"
  top: "inception_4a/1x1"
}
layer {
  name: "inception_4a/3x3_reduce"
  type: "Convolution"
  bottom: "pool3/3x3_s2"
  top: "inception_4a/3x3_reduce"
  param {
    lr_mult: 1
    decay_mult: 1
  }
  param {
    lr_mult: 2
    decay_mult: 0
  }
  convolution_param {
    num_output: 96
    kernel_size: 1
    weight_filler {
      type: "xavier"
      std: 0.09
    }
    bias_filler {
      type: "constant"
      value: 0.2
    }
  }
}
layer {
  name: "inception_4a/relu_3x3_reduce"
  type: "ReLU"
  bottom: "inception_4a/3x3_reduce"
  top: "inception_4a/3x3_reduce"
}
layer {
  name: "inception_4a/3x3"
  type: "Convolution"
  bottom: "inception_4a/3x3_reduce"
  top: "inception_4a/3x3"
  param {
    lr_mult: 1
    decay_mult: 1
  }
  param {
    lr_mult: 2
    decay_mult: 0
  }
  convolution_param {
    num_output: 208
    pad: 1
    kernel_size: 3
    weight_filler {
      type: "xavier"
      std: 0.03
    }
    bias_filler {
      type: "constant"
      value: 0.2
    }
  }
}
layer {
  name: "inception_4a/relu_3x3"
  type: "ReLU"
  bottom: "inception_4a/3x3"
  top: "inception_4a/3x3"
}
layer {
  name: "inception_4a/5x5_reduce"
  type: "Convolution"
  bottom: "pool3/3x3_s2"
  top: "inception_4a/5x5_reduce"
  param {
    lr_mult: 1
    decay_mult: 1
  }
  param {
    lr_mult: 2
    decay_mult: 0
  }
  convolution_param {
    num_output: 16
    kernel_size: 1
    weight_filler {
      type: "xavier"
      std: 0.2
    }
    bias_filler {
      type: "constant"
      value: 0.2
    }
  }
}
layer {
  name: "inception_4a/relu_5x5_reduce"
  type: "ReLU"
  bottom: "inception_4a/5x5_reduce"
  top: "inception_4a/5x5_reduce"
}
layer {
  name: "inception_4a/5x5"
  type: "Convolution"
  bottom: "inception_4a/5x5_reduce"
  top: "inception_4a/5x5"
  param {
    lr_mult: 1
    decay_mult: 1
  }
  param {
    lr_mult: 2
    decay_mult: 0
  }
  convolution_param {
    num_output: 48
    pad: 2
    kernel_size: 5
    weight_filler {
      type: "xavier"
      std: 0.03
    }
    bias_filler {
      type: "constant"
      value: 0.2
    }
  }
}
layer {
  name: "inception_4a/relu_5x5"
  type: "ReLU"
  bottom: "inception_4a/5x5"
  top: "inception_4a/5x5"
}
layer {
  name: "inception_4a/pool"
  type: "Pooling"
  bottom: "pool3/3x3_s2"
  top: "inception_4a/pool"
  pooling_param {
    pool: MAX
    kernel_size: 3
    stride: 1
    pad: 1
  }
}
layer {
  name: "inception_4a/pool_proj"
  type: "Convolution"
  bottom: "inception_4a/pool"
  top: "inception_4a/pool_proj"
  param {
    lr_mult: 1
    decay_mult: 1
  }
  param {
    lr_mult: 2
    decay_mult: 0
  }
  convolution_param {
    num_output: 64
    kernel_size: 1
    weight_filler {
      type: "xavier"
      std: 0.1
    }
    bias_filler {
      type: "constant"
      value: 0.2
    }
  }
}
layer {
  name: "inception_4a/relu_pool_proj"
  type: "ReLU"
  bottom: "inception_4a/pool_proj"
  top: "inception_4a/pool_proj"
}
layer {
  name: "inception_4a/output"
  type: "Concat"
  bottom: "inception_4a/1x1"
  bottom: "inception_4a/3x3"
  bottom: "inception_4a/5x5"
  bottom: "inception_4a/pool_proj"
  top: "inception_4a/output"
}
layer {
  name: "loss1/ave_pool"
  type: "Pooling"
  bottom: "inception_4a/output"
  top: "loss1/ave_pool"
  pooling_param {
    pool: AVE
    kernel_size: 5
    stride: 3
  }
}
layer {
  name: "loss1/conv"
  type: "Convolution"
  bottom: "loss1/ave_pool"
  top: "loss1/conv"
  param {
    lr_mult: 1
    decay_mult: 1
  }
  param {
    lr_mult: 2
    decay_mult: 0
  }
  convolution_param {
    num_output: 128
    kernel_size: 1
    weight_filler {
      type: "xavier"
      std: 0.08
    }
    bias_filler {
      type: "constant"
      value: 0.2
    }
  }
}
layer {
  name: "loss1/relu_conv"
  type: "ReLU"
  bottom: "loss1/conv"
  top: "loss1/conv"
}
layer {
  name: "loss1/fc"
  type: "InnerProduct"
  bottom: "loss1/conv"
  top: "loss1/fc"
  param {
    lr_mult: 1
    decay_mult: 1
  }
  param {
    lr_mult: 2
    decay_mult: 0
  }
  inner_product_param {
    num_output: 1024
    weight_filler {
      type: "xavier"
      std: 0.02
    }
    bias_filler {
      type: "constant"
      value: 0.2
    }
  }
}
layer {
  name: "loss1/relu_fc"
  type: "ReLU"
  bottom: "loss1/fc"
  top: "loss1/fc"
}
layer {
  name: "loss1/drop_fc"
  type: "Dropout"
  bottom: "loss1/fc"
  top: "loss1/fc"
  dropout_param {
    dropout_ratio: 0.7
  }
}
layer {
  name: "loss1/classifier_plantvillage"
  type: "InnerProduct"
  bottom: "loss1/fc"
  top: "loss1/classifier_plantvillage"
  param {
    lr_mult: 1
    decay_mult: 1
  }
  param {
    lr_mult: 2
    decay_mult: 0
  }
  inner_product_param {
    num_output: 38
    weight_filler {
      type: "xavier"
      std: 0.0009765625
    }
    bias_filler {
      type: "constant"
      value: 0
    }
  }
}
layer {
  name: "inception_4b/1x1"
  type: "Convolution"
  bottom: "inception_4a/output"
  top: "inception_4b/1x1"
  param {
    lr_mult: 1
    decay_mult: 1
  }
  param {
    lr_mult: 2
    decay_mult: 0
  }
  convolution_param {
    num_output: 160
    kernel_size: 1
    weight_filler {
      type: "xavier"
      std: 0.03
    }
    bias_filler {
      type: "constant"
      value: 0.2
    }
  }
}
layer {
  name: "inception_4b/relu_1x1"
  type: "ReLU"
  bottom: "inception_4b/1x1"
  top: "inception_4b/1x1"
}
layer {
  name: "inception_4b/3x3_reduce"
  type: "Convolution"
  bottom: "inception_4a/output"
  top: "inception_4b/3x3_reduce"
  param {
    lr_mult: 1
    decay_mult: 1
  }
  param {
    lr_mult: 2
    decay_mult: 0
  }
  convolution_param {
    num_output: 112
    kernel_size: 1
    weight_filler {
      type: "xavier"
      std: 0.09
    }
    bias_filler {
      type: "constant"
      value: 0.2
    }
  }
}
layer {
  name: "inception_4b/relu_3x3_reduce"
  type: "ReLU"
  bottom: "inception_4b/3x3_reduce"
  top: "inception_4b/3x3_reduce"
}
layer {
  name: "inception_4b/3x3"
  type: "Convolution"
  bottom: "inception_4b/3x3_reduce"
  top: "inception_4b/3x3"
  param {
    lr_mult: 1
    decay_mult: 1
  }
  param {
    lr_mult: 2
    decay_mult: 0
  }
  convolution_param {
    num_output: 224
    pad: 1
    kernel_size: 3
    weight_filler {
      type: "xavier"
      std: 0.03
    }
    bias_filler {
      type: "constant"
      value: 0.2
    }
  }
}
layer {
  name: "inception_4b/relu_3x3"
  type: "ReLU"
  bottom: "inception_4b/3x3"
  top: "inception_4b/3x3"
}
layer {
  name: "inception_4b/5x5_reduce"
  type: "Convolution"
  bottom: "inception_4a/output"
  top: "inception_4b/5x5_reduce"
  param {
    lr_mult: 1
    decay_mult: 1
  }
  param {
    lr_mult: 2
    decay_mult: 0
  }
  convolution_param {
    num_output: 24
    kernel_size: 1
    weight_filler {
      type: "xavier"
      std: 0.2
    }
    bias_filler {
      type: "constant"
      value: 0.2
    }
  }
}
layer {
  name: "inception_4b/relu_5x5_reduce"
  type: "ReLU"
  bottom: "inception_4b/5x5_reduce"
  top: "inception_4b/5x5_reduce"
}
layer {
  name: "inception_4b/5x5"
  type: "Convolution"
  bottom: "inception_4b/5x5_reduce"
  top: "inception_4b/5x5"
  param {
    lr_mult: 1
    decay_mult: 1
  }
  param {
    lr_mult: 2
    decay_mult: 0
  }
  convolution_param {
    num_output: 64
    pad: 2
    kernel_size: 5
    weight_filler {
      type: "xavier"
      std: 0.03
    }
    bias_filler {
      type: "constant"
      value: 0.2
    }
  }
}
layer {
  name: "inception_4b/relu_5x5"
  type: "ReLU"
  bottom: "inception_4b/5x5"
  top: "inception_4b/5x5"
}
layer {
  name: "inception_4b/pool"
  type: "Pooling"
  bottom: "inception_4a/output"
  top: "inception_4b/pool"
  pooling_param {
    pool: MAX
    kernel_size: 3
    stride: 1
    pad: 1
  }
}
layer {
  name: "inception_4b/pool_proj"
  type: "Convolution"
  bottom: "inception_4b/pool"
  top: "inception_4b/pool_proj"
  param {
    lr_mult: 1
    decay_mult: 1
  }
  param {
    lr_mult: 2
    decay_mult: 0
  }
  convolution_param {
    num_output: 64
    kernel_size: 1
    weight_filler {
      type: "xavier"
      std: 0.1
    }
    bias_filler {
      type: "constant"
      value: 0.2
    }
  }
}
layer {
  name: "inception_4b/relu_pool_proj"
  type: "ReLU"
  bottom: "inception_4b/pool_proj"
  top: "inception_4b/pool_proj"
}
layer {
  name: "inception_4b/output"
  type: "Concat"
  bottom: "inception_4b/1x1"
  bottom: "inception_4b/3x3"
  bottom: "inception_4b/5x5"
  bottom: "inception_4b/pool_proj"
  top: "inception_4b/output"
}
layer {
  name: "inception_4c/1x1"
  type: "Convolution"
  bottom: "inception_4b/output"
  top: "inception_4c/1x1"
  param {
    lr_mult: 1
    decay_mult: 1
  }
  param {
    lr_mult: 2
    decay_mult: 0
  }
  convolution_param {
    num_output: 128
    kernel_size: 1
    weight_filler {
      type: "xavier"
      std: 0.03
    }
    bias_filler {
      type: "constant"
      value: 0.2
    }
  }
}
layer {
  name: "inception_4c/relu_1x1"
  type: "ReLU"
  bottom: "inception_4c/1x1"
  top: "inception_4c/1x1"
}
layer {
  name: "inception_4c/3x3_reduce"
  type: "Convolution"
  bottom: "inception_4b/output"
  top: "inception_4c/3x3_reduce"
  param {
    lr_mult: 1
    decay_mult: 1
  }
  param {
    lr_mult: 2
    decay_mult: 0
  }
  convolution_param {
    num_output: 128
    kernel_size: 1
    weight_filler {
      type: "xavier"
      std: 0.09
    }
    bias_filler {
      type: "constant"
      value: 0.2
    }
  }
}
layer {
  name: "inception_4c/relu_3x3_reduce"
  type: "ReLU"
  bottom: "inception_4c/3x3_reduce"
  top: "inception_4c/3x3_reduce"
}
layer {
  name: "inception_4c/3x3"
  type: "Convolution"
  bottom: "inception_4c/3x3_reduce"
  top: "inception_4c/3x3"
  param {
    lr_mult: 1
    decay_mult: 1
  }
  param {
    lr_mult: 2
    decay_mult: 0
  }
  convolution_param {
    num_output: 256
    pad: 1
    kernel_size: 3
    weight_filler {
      type: "xavier"
      std: 0.03
    }
    bias_filler {
      type: "constant"
      value: 0.2
    }
  }
}
layer {
  name: "inception_4c/relu_3x3"
  type: "ReLU"
  bottom: "inception_4c/3x3"
  top: "inception_4c/3x3"
}
layer {
  name: "inception_4c/5x5_reduce"
  type: "Convolution"
  bottom: "inception_4b/output"
  top: "inception_4c/5x5_reduce"
  param {
    lr_mult: 1
    decay_mult: 1
  }
  param {
    lr_mult: 2
    decay_mult: 0
  }
  convolution_param {
    num_output: 24
    kernel_size: 1
    weight_filler {
      type: "xavier"
      std: 0.2
    }
    bias_filler {
      type: "constant"
      value: 0.2
    }
  }
}
layer {
  name: "inception_4c/relu_5x5_reduce"
  type: "ReLU"
  bottom: "inception_4c/5x5_reduce"
  top: "inception_4c/5x5_reduce"
}
layer {
  name: "inception_4c/5x5"
  type: "Convolution"
  bottom: "inception_4c/5x5_reduce"
  top: "inception_4c/5x5"
  param {
    lr_mult: 1
    decay_mult: 1
  }
  param {
    lr_mult: 2
    decay_mult: 0
  }
  convolution_param {
    num_output: 64
    pad: 2
    kernel_size: 5
    weight_filler {
      type: "xavier"
      std: 0.03
    }
    bias_filler {
      type: "constant"
      value: 0.2
    }
  }
}
layer {
  name: "inception_4c/relu_5x5"
  type: "ReLU"
  bottom: "inception_4c/5x5"
  top: "inception_4c/5x5"
}
layer {
  name: "inception_4c/pool"
  type: "Pooling"
  bottom: "inception_4b/output"
  top: "inception_4c/pool"
  pooling_param {
    pool: MAX
    kernel_size: 3
    stride: 1
    pad: 1
  }
}
layer {
  name: "inception_4c/pool_proj"
  type: "Convolution"
  bottom: "inception_4c/pool"
  top: "inception_4c/pool_proj"
  param {
    lr_mult: 1
    decay_mult: 1
  }
  param {
    lr_mult: 2
    decay_mult: 0
  }
  convolution_param {
    num_output: 64
    kernel_size: 1
    weight_filler {
      type: "xavier"
      std: 0.1
    }
    bias_filler {
      type: "constant"
      value: 0.2
    }
  }
}
layer {
  name: "inception_4c/relu_pool_proj"
  type: "ReLU"
  bottom: "inception_4c/pool_proj"
  top: "inception_4c/pool_proj"
}
layer {
  name: "inception_4c/output"
  type: "Concat"
  bottom: "inception_4c/1x1"
  bottom: "inception_4c/3x3"
  bottom: "inception_4c/5x5"
  bottom: "inception_4c/pool_proj"
  top: "inception_4c/output"
}
layer {
  name: "inception_4d/1x1"
  type: "Convolution"
  bottom: "inception_4c/output"
  top: "inception_4d/1x1"
  param {
    lr_mult: 1
    decay_mult: 1
  }
  param {
    lr_mult: 2
    decay_mult: 0
  }
  convolution_param {
    num_output: 112
    kernel_size: 1
    weight_filler {
      type: "xavier"
      std: 0.03
    }
    bias_filler {
      type: "constant"
      value: 0.2
    }
  }
}
layer {
  name: "inception_4d/relu_1x1"
  type: "ReLU"
  bottom: "inception_4d/1x1"
  top: "inception_4d/1x1"
}
layer {
  name: "inception_4d/3x3_reduce"
  type: "Convolution"
  bottom: "inception_4c/output"
  top: "inception_4d/3x3_reduce"
  param {
    lr_mult: 1
    decay_mult: 1
  }
  param {
    lr_mult: 2
    decay_mult: 0
  }
  convolution_param {
    num_output: 144
    kernel_size: 1
    weight_filler {
      type: "xavier"
      std: 0.09
    }
    bias_filler {
      type: "constant"
      value: 0.2
    }
  }
}
layer {
  name: "inception_4d/relu_3x3_reduce"
  type: "ReLU"
  bottom: "inception_4d/3x3_reduce"
  top: "inception_4d/3x3_reduce"
}
layer {
  name: "inception_4d/3x3"
  type: "Convolution"
  bottom: "inception_4d/3x3_reduce"
  top: "inception_4d/3x3"
  param {
    lr_mult: 1
    decay_mult: 1
  }
  param {
    lr_mult: 2
    decay_mult: 0
  }
  convolution_param {
    num_output: 288
    pad: 1
    kernel_size: 3
    weight_filler {
      type: "xavier"
      std: 0.03
    }
    bias_filler {
      type: "constant"
      value: 0.2
    }
  }
}
layer {
  name: "inception_4d/relu_3x3"
  type: "ReLU"
  bottom: "inception_4d/3x3"
  top: "inception_4d/3x3"
}
layer {
  name: "inception_4d/5x5_reduce"
  type: "Convolution"
  bottom: "inception_4c/output"
  top: "inception_4d/5x5_reduce"
  param {
    lr_mult: 1
    decay_mult: 1
  }
  param {
    lr_mult: 2
    decay_mult: 0
  }
  convolution_param {
    num_output: 32
    kernel_size: 1
    weight_filler {
      type: "xavier"
      std: 0.2
    }
    bias_filler {
      type: "constant"
      value: 0.2
    }
  }
}
layer {
  name: "inception_4d/relu_5x5_reduce"
  type: "ReLU"
  bottom: "inception_4d/5x5_reduce"
  top: "inception_4d/5x5_reduce"
}
layer {
  name: "inception_4d/5x5"
  type: "Convolution"
  bottom: "inception_4d/5x5_reduce"
  top: "inception_4d/5x5"
  param {
    lr_mult: 1
    decay_mult: 1
  }
  param {
    lr_mult: 2
    decay_mult: 0
  }
  convolution_param {
    num_output: 64
    pad: 2
    kernel_size: 5
    weight_filler {
      type: "xavier"
      std: 0.03
    }
    bias_filler {
      type: "constant"
      value: 0.2
    }
  }
}
layer {
  name: "inception_4d/relu_5x5"
  type: "ReLU"
  bottom: "inception_4d/5x5"
  top: "inception_4d/5x5"
}
layer {
  name: "inception_4d/pool"
  type: "Pooling"
  bottom: "inception_4c/output"
  top: "inception_4d/pool"
  pooling_param {
    pool: MAX
    kernel_size: 3
    stride: 1
    pad: 1
  }
}
layer {
  name: "inception_4d/pool_proj"
  type: "Convolution"
  bottom: "inception_4d/pool"
  top: "inception_4d/pool_proj"
  param {
    lr_mult: 1
    decay_mult: 1
  }
  param {
    lr_mult: 2
    decay_mult: 0
  }
  convolution_param {
    num_output: 64
    kernel_size: 1
    weight_filler {
      type: "xavier"
      std: 0.1
    }
    bias_filler {
      type: "constant"
      value: 0.2
    }
  }
}
layer {
  name: "inception_4d/relu_pool_proj"
  type: "ReLU"
  bottom: "inception_4d/pool_proj"
  top: "inception_4d/pool_proj"
}
layer {
  name: "inception_4d/output"
  type: "Concat"
  bottom: "inception_4d/1x1"
  bottom: "inception_4d/3x3"
  bottom: "inception_4d/5x5"
  bottom: "inception_4d/pool_proj"
  top: "inception_4d/output"
}
layer {
  name: "loss2/ave_pool"
  type: "Pooling"
  bottom: "inception_4d/output"
  top: "loss2/ave_pool"
  pooling_param {
    pool: AVE
    kernel_size: 5
    stride: 3
  }
}
layer {
  name: "loss2/conv"
  type: "Convolution"
  bottom: "loss2/ave_pool"
  top: "loss2/conv"
  param {
    lr_mult: 1
    decay_mult: 1
  }
  param {
    lr_mult: 2
    decay_mult: 0
  }
  convolution_param {
    num_output: 128
    kernel_size: 1
    weight_filler {
      type: "xavier"
      std: 0.08
    }
    bias_filler {
      type: "constant"
      value: 0.2
    }
  }
}
layer {
  name: "loss2/relu_conv"
  type: "ReLU"
  bottom: "loss2/conv"
  top: "loss2/conv"
}
layer {
  name: "loss2/fc"
  type: "InnerProduct"
  bottom: "loss2/conv"
  top: "loss2/fc"
  param {
    lr_mult: 1
    decay_mult: 1
  }
  param {
    lr_mult: 2
    decay_mult: 0
  }
  inner_product_param {
    num_output: 1024
    weight_filler {
      type: "xavier"
      std: 0.02
    }
    bias_filler {
      type: "constant"
      value: 0.2
    }
  }
}
layer {
  name: "loss2/relu_fc"
  type: "ReLU"
  bottom: "loss2/fc"
  top: "loss2/fc"
}
layer {
  name: "loss2/drop_fc"
  type: "Dropout"
  bottom: "loss2/fc"
  top: "loss2/fc"
  dropout_param {
    dropout_ratio: 0.7
  }
}
layer {
  name: "loss2/classifier_plantvillage"
  type: "InnerProduct"
  bottom: "loss2/fc"
  top: "loss2/classifier_plantvillage"
  param {
    lr_mult: 1
    decay_mult: 1
  }
  param {
    lr_mult: 2
    decay_mult: 0
  }
  inner_product_param {
    num_output: 38
    weight_filler {
      type: "xavier"
      std: 0.0009765625
    }
    bias_filler {
      type: "constant"
      value: 0
    }
  }
}
layer {
  name: "inception_4e/1x1"
  type: "Convolution"
  bottom: "inception_4d/output"
  top: "inception_4e/1x1"
  param {
    lr_mult: 1
    decay_mult: 1
  }
  param {
    lr_mult: 2
    decay_mult: 0
  }
  convolution_param {
    num_output: 256
    kernel_size: 1
    weight_filler {
      type: "xavier"
      std: 0.03
    }
    bias_filler {
      type: "constant"
      value: 0.2
    }
  }
}
layer {
  name: "inception_4e/relu_1x1"
  type: "ReLU"
  bottom: "inception_4e/1x1"
  top: "inception_4e/1x1"
}
layer {
  name: "inception_4e/3x3_reduce"
  type: "Convolution"
  bottom: "inception_4d/output"
  top: "inception_4e/3x3_reduce"
  param {
    lr_mult: 1
    decay_mult: 1
  }
  param {
    lr_mult: 2
    decay_mult: 0
  }
  convolution_param {
    num_output: 160
    kernel_size: 1
    weight_filler {
      type: "xavier"
      std: 0.09
    }
    bias_filler {
      type: "constant"
      value: 0.2
    }
  }
}
layer {
  name: "inception_4e/relu_3x3_reduce"
  type: "ReLU"
  bottom: "inception_4e/3x3_reduce"
  top: "inception_4e/3x3_reduce"
}
layer {
  name: "inception_4e/3x3"
  type: "Convolution"
  bottom: "inception_4e/3x3_reduce"
  top: "inception_4e/3x3"
  param {
    lr_mult: 1
    decay_mult: 1
  }
  param {
    lr_mult: 2
    decay_mult: 0
  }
  convolution_param {
    num_output: 320
    pad: 1
    kernel_size: 3
    weight_filler {
      type: "xavier"
      std: 0.03
    }
    bias_filler {
      type: "constant"
      value: 0.2
    }
  }
}
layer {
  name: "inception_4e/relu_3x3"
  type: "ReLU"
  bottom: "inception_4e/3x3"
  top: "inception_4e/3x3"
}
layer {
  name: "inception_4e/5x5_reduce"
  type: "Convolution"
  bottom: "inception_4d/output"
  top: "inception_4e/5x5_reduce"
  param {
    lr_mult: 1
    decay_mult: 1
  }
  param {
    lr_mult: 2
    decay_mult: 0
  }
  convolution_param {
    num_output: 32
    kernel_size: 1
    weight_filler {
      type: "xavier"
      std: 0.2
    }
    bias_filler {
      type: "constant"
      value: 0.2
    }
  }
}
layer {
  name: "inception_4e/relu_5x5_reduce"
  type: "ReLU"
  bottom: "inception_4e/5x5_reduce"
  top: "inception_4e/5x5_reduce"
}
layer {
  name: "inception_4e/5x5"
  type: "Convolution"
  bottom: "inception_4e/5x5_reduce"
  top: "inception_4e/5x5"
  p
I0403 15:27:52.709116 31924 layer_factory.hpp:77] Creating layer data
I0403 15:27:52.709781 31924 net.cpp:91] Creating Layer data
I0403 15:27:52.709816 31924 net.cpp:399] data -> data
I0403 15:27:52.709872 31924 net.cpp:399] data -> label
I0403 15:27:52.709913 31924 data_transformer.cpp:25] Loading mean file from: /home/mohanty/data/final_dataset/lmdb/color-60-40/mean.binaryproto
I0403 15:27:52.712116 31927 db_lmdb.cpp:38] Opened lmdb /home/mohanty/data/final_dataset/lmdb/color-60-40/test_db
I0403 15:27:52.724109 31924 data_layer.cpp:41] output data size: 24,3,224,224
I0403 15:27:52.754125 31924 net.cpp:141] Setting up data
I0403 15:27:52.754204 31924 net.cpp:148] Top shape: 24 3 224 224 (3612672)
I0403 15:27:52.754227 31924 net.cpp:148] Top shape: 24 (24)
I0403 15:27:52.754245 31924 net.cpp:156] Memory required for data: 14450784
I0403 15:27:52.754271 31924 layer_factory.hpp:77] Creating layer label_data_1_split
I0403 15:27:52.754312 31924 net.cpp:91] Creating Layer label_data_1_split
I0403 15:27:52.754335 31924 net.cpp:425] label_data_1_split <- label
I0403 15:27:52.754369 31924 net.cpp:399] label_data_1_split -> label_data_1_split_0
I0403 15:27:52.754398 31924 net.cpp:399] label_data_1_split -> label_data_1_split_1
I0403 15:27:52.754422 31924 net.cpp:399] label_data_1_split -> label_data_1_split_2
I0403 15:27:52.754446 31924 net.cpp:399] label_data_1_split -> label_data_1_split_3
I0403 15:27:52.754467 31924 net.cpp:399] label_data_1_split -> label_data_1_split_4
I0403 15:27:52.754488 31924 net.cpp:399] label_data_1_split -> label_data_1_split_5
I0403 15:27:52.754510 31924 net.cpp:399] label_data_1_split -> label_data_1_split_6
I0403 15:27:52.754534 31924 net.cpp:399] label_data_1_split -> label_data_1_split_7
I0403 15:27:52.754555 31924 net.cpp:399] label_data_1_split -> label_data_1_split_8
I0403 15:27:52.754578 31924 net.cpp:399] label_data_1_split -> label_data_1_split_9
I0403 15:27:52.754700 31924 net.cpp:141] Setting up label_data_1_split
I0403 15:27:52.754726 31924 net.cpp:148] Top shape: 24 (24)
I0403 15:27:52.754745 31924 net.cpp:148] Top shape: 24 (24)
I0403 15:27:52.754765 31924 net.cpp:148] Top shape: 24 (24)
I0403 15:27:52.754783 31924 net.cpp:148] Top shape: 24 (24)
I0403 15:27:52.754801 31924 net.cpp:148] Top shape: 24 (24)
I0403 15:27:52.754817 31924 net.cpp:148] Top shape: 24 (24)
I0403 15:27:52.754835 31924 net.cpp:148] Top shape: 24 (24)
I0403 15:27:52.754853 31924 net.cpp:148] Top shape: 24 (24)
I0403 15:27:52.754871 31924 net.cpp:148] Top shape: 24 (24)
I0403 15:27:52.754890 31924 net.cpp:148] Top shape: 24 (24)
I0403 15:27:52.754937 31924 net.cpp:156] Memory required for data: 14451744
I0403 15:27:52.754956 31924 layer_factory.hpp:77] Creating layer conv1/7x7_s2
I0403 15:27:52.754990 31924 net.cpp:91] Creating Layer conv1/7x7_s2
I0403 15:27:52.755010 31924 net.cpp:425] conv1/7x7_s2 <- data
I0403 15:27:52.755033 31924 net.cpp:399] conv1/7x7_s2 -> conv1/7x7_s2
I0403 15:27:52.899920 31924 net.cpp:141] Setting up conv1/7x7_s2
I0403 15:27:52.899993 31924 net.cpp:148] Top shape: 24 64 112 112 (19267584)
I0403 15:27:52.900013 31924 net.cpp:156] Memory required for data: 91522080
I0403 15:27:52.900046 31924 layer_factory.hpp:77] Creating layer conv1/relu_7x7
I0403 15:27:52.900077 31924 net.cpp:91] Creating Layer conv1/relu_7x7
I0403 15:27:52.900099 31924 net.cpp:425] conv1/relu_7x7 <- conv1/7x7_s2
I0403 15:27:52.900121 31924 net.cpp:386] conv1/relu_7x7 -> conv1/7x7_s2 (in-place)
I0403 15:27:52.900401 31924 net.cpp:141] Setting up conv1/relu_7x7
I0403 15:27:52.900431 31924 net.cpp:148] Top shape: 24 64 112 112 (19267584)
I0403 15:27:52.900449 31924 net.cpp:156] Memory required for data: 168592416
I0403 15:27:52.900468 31924 layer_factory.hpp:77] Creating layer pool1/3x3_s2
I0403 15:27:52.900496 31924 net.cpp:91] Creating Layer pool1/3x3_s2
I0403 15:27:52.900517 31924 net.cpp:425] pool1/3x3_s2 <- conv1/7x7_s2
I0403 15:27:52.900539 31924 net.cpp:399] pool1/3x3_s2 -> pool1/3x3_s2
I0403 15:27:52.900619 31924 net.cpp:141] Setting up pool1/3x3_s2
I0403 15:27:52.900646 31924 net.cpp:148] Top shape: 24 64 56 56 (4816896)
I0403 15:27:52.900665 31924 net.cpp:156] Memory required for data: 187860000
I0403 15:27:52.900682 31924 layer_factory.hpp:77] Creating layer pool1/norm1
I0403 15:27:52.900710 31924 net.cpp:91] Creating Layer pool1/norm1
I0403 15:27:52.900730 31924 net.cpp:425] pool1/norm1 <- pool1/3x3_s2
I0403 15:27:52.900753 31924 net.cpp:399] pool1/norm1 -> pool1/norm1
I0403 15:27:52.901057 31924 net.cpp:141] Setting up pool1/norm1
I0403 15:27:52.901087 31924 net.cpp:148] Top shape: 24 64 56 56 (4816896)
I0403 15:27:52.901106 31924 net.cpp:156] Memory required for data: 207127584
I0403 15:27:52.901124 31924 layer_factory.hpp:77] Creating layer conv2/3x3_reduce
I0403 15:27:52.901152 31924 net.cpp:91] Creating Layer conv2/3x3_reduce
I0403 15:27:52.901171 31924 net.cpp:425] conv2/3x3_reduce <- pool1/norm1
I0403 15:27:52.901195 31924 net.cpp:399] conv2/3x3_reduce -> conv2/3x3_reduce
I0403 15:27:52.902595 31924 net.cpp:141] Setting up conv2/3x3_reduce
I0403 15:27:52.902626 31924 net.cpp:148] Top shape: 24 64 56 56 (4816896)
I0403 15:27:52.902647 31924 net.cpp:156] Memory required for data: 226395168
I0403 15:27:52.902672 31924 layer_factory.hpp:77] Creating layer conv2/relu_3x3_reduce
I0403 15:27:52.902693 31924 net.cpp:91] Creating Layer conv2/relu_3x3_reduce
I0403 15:27:52.902712 31924 net.cpp:425] conv2/relu_3x3_reduce <- conv2/3x3_reduce
I0403 15:27:52.902732 31924 net.cpp:386] conv2/relu_3x3_reduce -> conv2/3x3_reduce (in-place)
I0403 15:27:52.902997 31924 net.cpp:141] Setting up conv2/relu_3x3_reduce
I0403 15:27:52.903026 31924 net.cpp:148] Top shape: 24 64 56 56 (4816896)
I0403 15:27:52.903043 31924 net.cpp:156] Memory required for data: 245662752
I0403 15:27:52.903062 31924 layer_factory.hpp:77] Creating layer conv2/3x3
I0403 15:27:52.903087 31924 net.cpp:91] Creating Layer conv2/3x3
I0403 15:27:52.903107 31924 net.cpp:425] conv2/3x3 <- conv2/3x3_reduce
I0403 15:27:52.903128 31924 net.cpp:399] conv2/3x3 -> conv2/3x3
I0403 15:27:52.905478 31924 net.cpp:141] Setting up conv2/3x3
I0403 15:27:52.905511 31924 net.cpp:148] Top shape: 24 192 56 56 (14450688)
I0403 15:27:52.905531 31924 net.cpp:156] Memory required for data: 303465504
I0403 15:27:52.905555 31924 layer_factory.hpp:77] Creating layer conv2/relu_3x3
I0403 15:27:52.905580 31924 net.cpp:91] Creating Layer conv2/relu_3x3
I0403 15:27:52.905598 31924 net.cpp:425] conv2/relu_3x3 <- conv2/3x3
I0403 15:27:52.905619 31924 net.cpp:386] conv2/relu_3x3 -> conv2/3x3 (in-place)
I0403 15:27:52.905802 31924 net.cpp:141] Setting up conv2/relu_3x3
I0403 15:27:52.905830 31924 net.cpp:148] Top shape: 24 192 56 56 (14450688)
I0403 15:27:52.905880 31924 net.cpp:156] Memory required for data: 361268256
I0403 15:27:52.905900 31924 layer_factory.hpp:77] Creating layer conv2/norm2
I0403 15:27:52.905923 31924 net.cpp:91] Creating Layer conv2/norm2
I0403 15:27:52.905943 31924 net.cpp:425] conv2/norm2 <- conv2/3x3
I0403 15:27:52.905963 31924 net.cpp:399] conv2/norm2 -> conv2/norm2
I0403 15:27:52.906292 31924 net.cpp:141] Setting up conv2/norm2
I0403 15:27:52.906325 31924 net.cpp:148] Top shape: 24 192 56 56 (14450688)
I0403 15:27:52.906345 31924 net.cpp:156] Memory required for data: 419071008
I0403 15:27:52.906363 31924 layer_factory.hpp:77] Creating layer pool2/3x3_s2
I0403 15:27:52.906384 31924 net.cpp:91] Creating Layer pool2/3x3_s2
I0403 15:27:52.906404 31924 net.cpp:425] pool2/3x3_s2 <- conv2/norm2
I0403 15:27:52.906424 31924 net.cpp:399] pool2/3x3_s2 -> pool2/3x3_s2
I0403 15:27:52.906483 31924 net.cpp:141] Setting up pool2/3x3_s2
I0403 15:27:52.906509 31924 net.cpp:148] Top shape: 24 192 28 28 (3612672)
I0403 15:27:52.906527 31924 net.cpp:156] Memory required for data: 433521696
I0403 15:27:52.906544 31924 layer_factory.hpp:77] Creating layer pool2/3x3_s2_pool2/3x3_s2_0_split
I0403 15:27:52.906565 31924 net.cpp:91] Creating Layer pool2/3x3_s2_pool2/3x3_s2_0_split
I0403 15:27:52.906584 31924 net.cpp:425] pool2/3x3_s2_pool2/3x3_s2_0_split <- pool2/3x3_s2
I0403 15:27:52.906606 31924 net.cpp:399] pool2/3x3_s2_pool2/3x3_s2_0_split -> pool2/3x3_s2_pool2/3x3_s2_0_split_0
I0403 15:27:52.906631 31924 net.cpp:399] pool2/3x3_s2_pool2/3x3_s2_0_split -> pool2/3x3_s2_pool2/3x3_s2_0_split_1
I0403 15:27:52.906654 31924 net.cpp:399] pool2/3x3_s2_pool2/3x3_s2_0_split -> pool2/3x3_s2_pool2/3x3_s2_0_split_2
I0403 15:27:52.906679 31924 net.cpp:399] pool2/3x3_s2_pool2/3x3_s2_0_split -> pool2/3x3_s2_pool2/3x3_s2_0_split_3
I0403 15:27:52.906759 31924 net.cpp:141] Setting up pool2/3x3_s2_pool2/3x3_s2_0_split
I0403 15:27:52.906785 31924 net.cpp:148] Top shape: 24 192 28 28 (3612672)
I0403 15:27:52.906803 31924 net.cpp:148] Top shape: 24 192 28 28 (3612672)
I0403 15:27:52.906821 31924 net.cpp:148] Top shape: 24 192 28 28 (3612672)
I0403 15:27:52.906839 31924 net.cpp:148] Top shape: 24 192 28 28 (3612672)
I0403 15:27:52.906857 31924 net.cpp:156] Memory required for data: 491324448
I0403 15:27:52.906873 31924 layer_factory.hpp:77] Creating layer inception_3a/1x1
I0403 15:27:52.906898 31924 net.cpp:91] Creating Layer inception_3a/1x1
I0403 15:27:52.906919 31924 net.cpp:425] inception_3a/1x1 <- pool2/3x3_s2_pool2/3x3_s2_0_split_0
I0403 15:27:52.906942 31924 net.cpp:399] inception_3a/1x1 -> inception_3a/1x1
I0403 15:27:52.908597 31924 net.cpp:141] Setting up inception_3a/1x1
I0403 15:27:52.908633 31924 net.cpp:148] Top shape: 24 64 28 28 (1204224)
I0403 15:27:52.908653 31924 net.cpp:156] Memory required for data: 496141344
I0403 15:27:52.908675 31924 layer_factory.hpp:77] Creating layer inception_3a/relu_1x1
I0403 15:27:52.908697 31924 net.cpp:91] Creating Layer inception_3a/relu_1x1
I0403 15:27:52.908716 31924 net.cpp:425] inception_3a/relu_1x1 <- inception_3a/1x1
I0403 15:27:52.908740 31924 net.cpp:386] inception_3a/relu_1x1 -> inception_3a/1x1 (in-place)
I0403 15:27:52.908936 31924 net.cpp:141] Setting up inception_3a/relu_1x1
I0403 15:27:52.908962 31924 net.cpp:148] Top shape: 24 64 28 28 (1204224)
I0403 15:27:52.908980 31924 net.cpp:156] Memory required for data: 500958240
I0403 15:27:52.908998 31924 layer_factory.hpp:77] Creating layer inception_3a/3x3_reduce
I0403 15:27:52.909023 31924 net.cpp:91] Creating Layer inception_3a/3x3_reduce
I0403 15:27:52.909042 31924 net.cpp:425] inception_3a/3x3_reduce <- pool2/3x3_s2_pool2/3x3_s2_0_split_1
I0403 15:27:52.909071 31924 net.cpp:399] inception_3a/3x3_reduce -> inception_3a/3x3_reduce
I0403 15:27:52.910869 31924 net.cpp:141] Setting up inception_3a/3x3_reduce
I0403 15:27:52.910904 31924 net.cpp:148] Top shape: 24 96 28 28 (1806336)
I0403 15:27:52.910923 31924 net.cpp:156] Memory required for data: 508183584
I0403 15:27:52.910948 31924 layer_factory.hpp:77] Creating layer inception_3a/relu_3x3_reduce
I0403 15:27:52.910989 31924 net.cpp:91] Creating Layer inception_3a/relu_3x3_reduce
I0403 15:27:52.911010 31924 net.cpp:425] inception_3a/relu_3x3_reduce <- inception_3a/3x3_reduce
I0403 15:27:52.911031 31924 net.cpp:386] inception_3a/relu_3x3_reduce -> inception_3a/3x3_reduce (in-place)
I0403 15:27:52.911224 31924 net.cpp:141] Setting up inception_3a/relu_3x3_reduce
I0403 15:27:52.911255 31924 net.cpp:148] Top shape: 24 96 28 28 (1806336)
I0403 15:27:52.911274 31924 net.cpp:156] Memory required for data: 515408928
I0403 15:27:52.911298 31924 layer_factory.hpp:77] Creating layer inception_3a/3x3
I0403 15:27:52.911324 31924 net.cpp:91] Creating Layer inception_3a/3x3
I0403 15:27:52.911345 31924 net.cpp:425] inception_3a/3x3 <- inception_3a/3x3_reduce
I0403 15:27:52.911366 31924 net.cpp:399] inception_3a/3x3 -> inception_3a/3x3
I0403 15:27:52.913120 31924 net.cpp:141] Setting up inception_3a/3x3
I0403 15:27:52.913151 31924 net.cpp:148] Top shape: 24 128 28 28 (2408448)
I0403 15:27:52.913171 31924 net.cpp:156] Memory required for data: 525042720
I0403 15:27:52.913192 31924 layer_factory.hpp:77] Creating layer inception_3a/relu_3x3
I0403 15:27:52.913214 31924 net.cpp:91] Creating Layer inception_3a/relu_3x3
I0403 15:27:52.913240 31924 net.cpp:425] inception_3a/relu_3x3 <- inception_3a/3x3
I0403 15:27:52.913260 31924 net.cpp:386] inception_3a/relu_3x3 -> inception_3a/3x3 (in-place)
I0403 15:27:52.913561 31924 net.cpp:141] Setting up inception_3a/relu_3x3
I0403 15:27:52.913590 31924 net.cpp:148] Top shape: 24 128 28 28 (2408448)
I0403 15:27:52.913610 31924 net.cpp:156] Memory required for data: 534676512
I0403 15:27:52.913627 31924 layer_factory.hpp:77] Creating layer inception_3a/5x5_reduce
I0403 15:27:52.913652 31924 net.cpp:91] Creating Layer inception_3a/5x5_reduce
I0403 15:27:52.913672 31924 net.cpp:425] inception_3a/5x5_reduce <- pool2/3x3_s2_pool2/3x3_s2_0_split_2
I0403 15:27:52.913697 31924 net.cpp:399] inception_3a/5x5_reduce -> inception_3a/5x5_reduce
I0403 15:27:52.914746 31924 net.cpp:141] Setting up inception_3a/5x5_reduce
I0403 15:27:52.914777 31924 net.cpp:148] Top shape: 24 16 28 28 (301056)
I0403 15:27:52.914796 31924 net.cpp:156] Memory required for data: 535880736
I0403 15:27:52.914819 31924 layer_factory.hpp:77] Creating layer inception_3a/relu_5x5_reduce
I0403 15:27:52.914842 31924 net.cpp:91] Creating Layer inception_3a/relu_5x5_reduce
I0403 15:27:52.914862 31924 net.cpp:425] inception_3a/relu_5x5_reduce <- inception_3a/5x5_reduce
I0403 15:27:52.914882 31924 net.cpp:386] inception_3a/relu_5x5_reduce -> inception_3a/5x5_reduce (in-place)
I0403 15:27:52.915189 31924 net.cpp:141] Setting up inception_3a/relu_5x5_reduce
I0403 15:27:52.915218 31924 net.cpp:148] Top shape: 24 16 28 28 (301056)
I0403 15:27:52.915236 31924 net.cpp:156] Memory required for data: 537084960
I0403 15:27:52.915253 31924 layer_factory.hpp:77] Creating layer inception_3a/5x5
I0403 15:27:52.915279 31924 net.cpp:91] Creating Layer inception_3a/5x5
I0403 15:27:52.915319 31924 net.cpp:425] inception_3a/5x5 <- inception_3a/5x5_reduce
I0403 15:27:52.915344 31924 net.cpp:399] inception_3a/5x5 -> inception_3a/5x5
I0403 15:27:52.916471 31924 net.cpp:141] Setting up inception_3a/5x5
I0403 15:27:52.916506 31924 net.cpp:148] Top shape: 24 32 28 28 (602112)
I0403 15:27:52.916524 31924 net.cpp:156] Memory required for data: 539493408
I0403 15:27:52.916546 31924 layer_factory.hpp:77] Creating layer inception_3a/relu_5x5
I0403 15:27:52.916568 31924 net.cpp:91] Creating Layer inception_3a/relu_5x5
I0403 15:27:52.916587 31924 net.cpp:425] inception_3a/relu_5x5 <- inception_3a/5x5
I0403 15:27:52.916610 31924 net.cpp:386] inception_3a/relu_5x5 -> inception_3a/5x5 (in-place)
I0403 15:27:52.916801 31924 net.cpp:141] Setting up inception_3a/relu_5x5
I0403 15:27:52.916829 31924 net.cpp:148] Top shape: 24 32 28 28 (602112)
I0403 15:27:52.916847 31924 net.cpp:156] Memory required for data: 541901856
I0403 15:27:52.916864 31924 layer_factory.hpp:77] Creating layer inception_3a/pool
I0403 15:27:52.916884 31924 net.cpp:91] Creating Layer inception_3a/pool
I0403 15:27:52.916903 31924 net.cpp:425] inception_3a/pool <- pool2/3x3_s2_pool2/3x3_s2_0_split_3
I0403 15:27:52.916944 31924 net.cpp:399] inception_3a/pool -> inception_3a/pool
I0403 15:27:52.917011 31924 net.cpp:141] Setting up inception_3a/pool
I0403 15:27:52.917038 31924 net.cpp:148] Top shape: 24 192 28 28 (3612672)
I0403 15:27:52.917057 31924 net.cpp:156] Memory required for data: 556352544
I0403 15:27:52.917074 31924 layer_factory.hpp:77] Creating layer inception_3a/pool_proj
I0403 15:27:52.917100 31924 net.cpp:91] Creating Layer inception_3a/pool_proj
I0403 15:27:52.917121 31924 net.cpp:425] inception_3a/pool_proj <- inception_3a/pool
I0403 15:27:52.917146 31924 net.cpp:399] inception_3a/pool_proj -> inception_3a/pool_proj
I0403 15:27:52.918197 31924 net.cpp:141] Setting up inception_3a/pool_proj
I0403 15:27:52.918229 31924 net.cpp:148] Top shape: 24 32 28 28 (602112)
I0403 15:27:52.918247 31924 net.cpp:156] Memory required for data: 558760992
I0403 15:27:52.918274 31924 layer_factory.hpp:77] Creating layer inception_3a/relu_pool_proj
I0403 15:27:52.918304 31924 net.cpp:91] Creating Layer inception_3a/relu_pool_proj
I0403 15:27:52.918324 31924 net.cpp:425] inception_3a/relu_pool_proj <- inception_3a/pool_proj
I0403 15:27:52.918344 31924 net.cpp:386] inception_3a/relu_pool_proj -> inception_3a/pool_proj (in-place)
I0403 15:27:52.918643 31924 net.cpp:141] Setting up inception_3a/relu_pool_proj
I0403 15:27:52.918673 31924 net.cpp:148] Top shape: 24 32 28 28 (602112)
I0403 15:27:52.918690 31924 net.cpp:156] Memory required for data: 561169440
I0403 15:27:52.918709 31924 layer_factory.hpp:77] Creating layer inception_3a/output
I0403 15:27:52.918730 31924 net.cpp:91] Creating Layer inception_3a/output
I0403 15:27:52.918748 31924 net.cpp:425] inception_3a/output <- inception_3a/1x1
I0403 15:27:52.918767 31924 net.cpp:425] inception_3a/output <- inception_3a/3x3
I0403 15:27:52.918787 31924 net.cpp:425] inception_3a/output <- inception_3a/5x5
I0403 15:27:52.918805 31924 net.cpp:425] inception_3a/output <- inception_3a/pool_proj
I0403 15:27:52.918828 31924 net.cpp:399] inception_3a/output -> inception_3a/output
I0403 15:27:52.918880 31924 net.cpp:141] Setting up inception_3a/output
I0403 15:27:52.918910 31924 net.cpp:148] Top shape: 24 256 28 28 (4816896)
I0403 15:27:52.918928 31924 net.cpp:156] Memory required for data: 580437024
I0403 15:27:52.918946 31924 layer_factory.hpp:77] Creating layer inception_3a/output_inception_3a/output_0_split
I0403 15:27:52.918965 31924 net.cpp:91] Creating Layer inception_3a/output_inception_3a/output_0_split
I0403 15:27:52.918984 31924 net.cpp:425] inception_3a/output_inception_3a/output_0_split <- inception_3a/output
I0403 15:27:52.919005 31924 net.cpp:399] inception_3a/output_inception_3a/output_0_split -> inception_3a/output_inception_3a/output_0_split_0
I0403 15:27:52.919030 31924 net.cpp:399] inception_3a/output_inception_3a/output_0_split -> inception_3a/output_inception_3a/output_0_split_1
I0403 15:27:52.919056 31924 net.cpp:399] inception_3a/output_inception_3a/output_0_split -> inception_3a/output_inception_3a/output_0_split_2
I0403 15:27:52.919080 31924 net.cpp:399] inception_3a/output_inception_3a/output_0_split -> inception_3a/output_inception_3a/output_0_split_3
I0403 15:27:52.919162 31924 net.cpp:141] Setting up inception_3a/output_inception_3a/output_0_split
I0403 15:27:52.919190 31924 net.cpp:148] Top shape: 24 256 28 28 (4816896)
I0403 15:27:52.919211 31924 net.cpp:148] Top shape: 24 256 28 28 (4816896)
I0403 15:27:52.919230 31924 net.cpp:148] Top shape: 24 256 28 28 (4816896)
I0403 15:27:52.919248 31924 net.cpp:148] Top shape: 24 256 28 28 (4816896)
I0403 15:27:52.919265 31924 net.cpp:156] Memory required for data: 657507360
I0403 15:27:52.919281 31924 layer_factory.hpp:77] Creating layer inception_3b/1x1
I0403 15:27:52.919312 31924 net.cpp:91] Creating Layer inception_3b/1x1
I0403 15:27:52.919334 31924 net.cpp:425] inception_3b/1x1 <- inception_3a/output_inception_3a/output_0_split_0
I0403 15:27:52.919358 31924 net.cpp:399] inception_3b/1x1 -> inception_3b/1x1
I0403 15:27:52.920563 31924 net.cpp:141] Setting up inception_3b/1x1
I0403 15:27:52.920613 31924 net.cpp:148] Top shape: 24 128 28 28 (2408448)
I0403 15:27:52.920634 31924 net.cpp:156] Memory required for data: 667141152
I0403 15:27:52.920655 31924 layer_factory.hpp:77] Creating layer inception_3b/relu_1x1
I0403 15:27:52.920677 31924 net.cpp:91] Creating Layer inception_3b/relu_1x1
I0403 15:27:52.920696 31924 net.cpp:425] inception_3b/relu_1x1 <- inception_3b/1x1
I0403 15:27:52.920717 31924 net.cpp:386] inception_3b/relu_1x1 -> inception_3b/1x1 (in-place)
I0403 15:27:52.920907 31924 net.cpp:141] Setting up inception_3b/relu_1x1
I0403 15:27:52.920936 31924 net.cpp:148] Top shape: 24 128 28 28 (2408448)
I0403 15:27:52.920953 31924 net.cpp:156] Memory required for data: 676774944
I0403 15:27:52.920971 31924 layer_factory.hpp:77] Creating layer inception_3b/3x3_reduce
I0403 15:27:52.920996 31924 net.cpp:91] Creating Layer inception_3b/3x3_reduce
I0403 15:27:52.921016 31924 net.cpp:425] inception_3b/3x3_reduce <- inception_3a/output_inception_3a/output_0_split_1
I0403 15:27:52.921041 31924 net.cpp:399] inception_3b/3x3_reduce -> inception_3b/3x3_reduce
I0403 15:27:52.922255 31924 net.cpp:141] Setting up inception_3b/3x3_reduce
I0403 15:27:52.922292 31924 net.cpp:148] Top shape: 24 128 28 28 (2408448)
I0403 15:27:52.922313 31924 net.cpp:156] Memory required for data: 686408736
I0403 15:27:52.922335 31924 layer_factory.hpp:77] Creating layer inception_3b/relu_3x3_reduce
I0403 15:27:52.922356 31924 net.cpp:91] Creating Layer inception_3b/relu_3x3_reduce
I0403 15:27:52.922375 31924 net.cpp:425] inception_3b/relu_3x3_reduce <- inception_3b/3x3_reduce
I0403 15:27:52.922397 31924 net.cpp:386] inception_3b/relu_3x3_reduce -> inception_3b/3x3_reduce (in-place)
I0403 15:27:52.922583 31924 net.cpp:141] Setting up inception_3b/relu_3x3_reduce
I0403 15:27:52.922611 31924 net.cpp:148] Top shape: 24 128 28 28 (2408448)
I0403 15:27:52.922629 31924 net.cpp:156] Memory required for data: 696042528
I0403 15:27:52.922646 31924 layer_factory.hpp:77] Creating layer inception_3b/3x3
I0403 15:27:52.922675 31924 net.cpp:91] Creating Layer inception_3b/3x3
I0403 15:27:52.922696 31924 net.cpp:425] inception_3b/3x3 <- inception_3b/3x3_reduce
I0403 15:27:52.922719 31924 net.cpp:399] inception_3b/3x3 -> inception_3b/3x3
I0403 15:27:52.925829 31924 net.cpp:141] Setting up inception_3b/3x3
I0403 15:27:52.925861 31924 net.cpp:148] Top shape: 24 192 28 28 (3612672)
I0403 15:27:52.925880 31924 net.cpp:156] Memory required for data: 710493216
I0403 15:27:52.925901 31924 layer_factory.hpp:77] Creating layer inception_3b/relu_3x3
I0403 15:27:52.925922 31924 net.cpp:91] Creating Layer inception_3b/relu_3x3
I0403 15:27:52.925945 31924 net.cpp:425] inception_3b/relu_3x3 <- inception_3b/3x3
I0403 15:27:52.925964 31924 net.cpp:386] inception_3b/relu_3x3 -> inception_3b/3x3 (in-place)
I0403 15:27:52.926259 31924 net.cpp:141] Setting up inception_3b/relu_3x3
I0403 15:27:52.926292 31924 net.cpp:148] Top shape: 24 192 28 28 (3612672)
I0403 15:27:52.926311 31924 net.cpp:156] Memory required for data: 724943904
I0403 15:27:52.926329 31924 layer_factory.hpp:77] Creating layer inception_3b/5x5_reduce
I0403 15:27:52.926357 31924 net.cpp:91] Creating Layer inception_3b/5x5_reduce
I0403 15:27:52.926378 31924 net.cpp:425] inception_3b/5x5_reduce <- inception_3a/output_inception_3a/output_0_split_2
I0403 15:27:52.926403 31924 net.cpp:399] inception_3b/5x5_reduce -> inception_3b/5x5_reduce
I0403 15:27:52.927458 31924 net.cpp:141] Setting up inception_3b/5x5_reduce
I0403 15:27:52.927491 31924 net.cpp:148] Top shape: 24 32 28 28 (602112)
I0403 15:27:52.927511 31924 net.cpp:156] Memory required for data: 727352352
I0403 15:27:52.927532 31924 layer_factory.hpp:77] Creating layer inception_3b/relu_5x5_reduce
I0403 15:27:52.927554 31924 net.cpp:91] Creating Layer inception_3b/relu_5x5_reduce
I0403 15:27:52.927575 31924 net.cpp:425] inception_3b/relu_5x5_reduce <- inception_3b/5x5_reduce
I0403 15:27:52.927597 31924 net.cpp:386] inception_3b/relu_5x5_reduce -> inception_3b/5x5_reduce (in-place)
I0403 15:27:52.927788 31924 net.cpp:141] Setting up inception_3b/relu_5x5_reduce
I0403 15:27:52.927829 31924 net.cpp:148] Top shape: 24 32 28 28 (602112)
I0403 15:27:52.927847 31924 net.cpp:156] Memory required for data: 729760800
I0403 15:27:52.927865 31924 layer_factory.hpp:77] Creating layer inception_3b/5x5
I0403 15:27:52.927891 31924 net.cpp:91] Creating Layer inception_3b/5x5
I0403 15:27:52.927911 31924 net.cpp:425] inception_3b/5x5 <- inception_3b/5x5_reduce
I0403 15:27:52.927938 31924 net.cpp:399] inception_3b/5x5 -> inception_3b/5x5
I0403 15:27:52.930028 31924 net.cpp:141] Setting up inception_3b/5x5
I0403 15:27:52.930063 31924 net.cpp:148] Top shape: 24 96 28 28 (1806336)
I0403 15:27:52.930081 31924 net.cpp:156] Memory required for data: 736986144
I0403 15:27:52.930104 31924 layer_factory.hpp:77] Creating layer inception_3b/relu_5x5
I0403 15:27:52.930125 31924 net.cpp:91] Creating Layer inception_3b/relu_5x5
I0403 15:27:52.930145 31924 net.cpp:425] inception_3b/relu_5x5 <- inception_3b/5x5
I0403 15:27:52.930167 31924 net.cpp:386] inception_3b/relu_5x5 -> inception_3b/5x5 (in-place)
I0403 15:27:52.930379 31924 net.cpp:141] Setting up inception_3b/relu_5x5
I0403 15:27:52.930408 31924 net.cpp:148] Top shape: 24 96 28 28 (1806336)
I0403 15:27:52.930426 31924 net.cpp:156] Memory required for data: 744211488
I0403 15:27:52.930444 31924 layer_factory.hpp:77] Creating layer inception_3b/pool
I0403 15:27:52.930464 31924 net.cpp:91] Creating Layer inception_3b/pool
I0403 15:27:52.930482 31924 net.cpp:425] inception_3b/pool <- inception_3a/output_inception_3a/output_0_split_3
I0403 15:27:52.930503 31924 net.cpp:399] inception_3b/pool -> inception_3b/pool
I0403 15:27:52.930565 31924 net.cpp:141] Setting up inception_3b/pool
I0403 15:27:52.930593 31924 net.cpp:148] Top shape: 24 256 28 28 (4816896)
I0403 15:27:52.930609 31924 net.cpp:156] Memory required for data: 763479072
I0403 15:27:52.930627 31924 layer_factory.hpp:77] Creating layer inception_3b/pool_proj
I0403 15:27:52.930654 31924 net.cpp:91] Creating Layer inception_3b/pool_proj
I0403 15:27:52.930675 31924 net.cpp:425] inception_3b/pool_proj <- inception_3b/pool
I0403 15:27:52.930696 31924 net.cpp:399] inception_3b/pool_proj -> inception_3b/pool_proj
I0403 15:27:52.931830 31924 net.cpp:141] Setting up inception_3b/pool_proj
I0403 15:27:52.931861 31924 net.cpp:148] Top shape: 24 64 28 28 (1204224)
I0403 15:27:52.931879 31924 net.cpp:156] Memory required for data: 768295968
I0403 15:27:52.931900 31924 layer_factory.hpp:77] Creating layer inception_3b/relu_pool_proj
I0403 15:27:52.931922 31924 net.cpp:91] Creating Layer inception_3b/relu_pool_proj
I0403 15:27:52.931943 31924 net.cpp:425] inception_3b/relu_pool_proj <- inception_3b/pool_proj
I0403 15:27:52.931963 31924 net.cpp:386] inception_3b/relu_pool_proj -> inception_3b/pool_proj (in-place)
I0403 15:27:52.932380 31924 net.cpp:141] Setting up inception_3b/relu_pool_proj
I0403 15:27:52.932411 31924 net.cpp:148] Top shape: 24 64 28 28 (1204224)
I0403 15:27:52.932430 31924 net.cpp:156] Memory required for data: 773112864
I0403 15:27:52.932449 31924 layer_factory.hpp:77] Creating layer inception_3b/output
I0403 15:27:52.932469 31924 net.cpp:91] Creating Layer inception_3b/output
I0403 15:27:52.932492 31924 net.cpp:425] inception_3b/output <- inception_3b/1x1
I0403 15:27:52.932510 31924 net.cpp:425] inception_3b/output <- inception_3b/3x3
I0403 15:27:52.932529 31924 net.cpp:425] inception_3b/output <- inception_3b/5x5
I0403 15:27:52.932548 31924 net.cpp:425] inception_3b/output <- inception_3b/pool_proj
I0403 15:27:52.932567 31924 net.cpp:399] inception_3b/output -> inception_3b/output
I0403 15:27:52.932615 31924 net.cpp:141] Setting up inception_3b/output
I0403 15:27:52.932643 31924 net.cpp:148] Top shape: 24 480 28 28 (9031680)
I0403 15:27:52.932662 31924 net.cpp:156] Memory required for data: 809239584
I0403 15:27:52.932679 31924 layer_factory.hpp:77] Creating layer pool3/3x3_s2
I0403 15:27:52.932703 31924 net.cpp:91] Creating Layer pool3/3x3_s2
I0403 15:27:52.932723 31924 net.cpp:425] pool3/3x3_s2 <- inception_3b/output
I0403 15:27:52.932746 31924 net.cpp:399] pool3/3x3_s2 -> pool3/3x3_s2
I0403 15:27:52.932824 31924 net.cpp:141] Setting up pool3/3x3_s2
I0403 15:27:52.932853 31924 net.cpp:148] Top shape: 24 480 14 14 (2257920)
I0403 15:27:52.932871 31924 net.cpp:156] Memory required for data: 818271264
I0403 15:27:52.932889 31924 layer_factory.hpp:77] Creating layer pool3/3x3_s2_pool3/3x3_s2_0_split
I0403 15:27:52.932909 31924 net.cpp:91] Creating Layer pool3/3x3_s2_pool3/3x3_s2_0_split
I0403 15:27:52.932927 31924 net.cpp:425] pool3/3x3_s2_pool3/3x3_s2_0_split <- pool3/3x3_s2
I0403 15:27:52.932948 31924 net.cpp:399] pool3/3x3_s2_pool3/3x3_s2_0_split -> pool3/3x3_s2_pool3/3x3_s2_0_split_0
I0403 15:27:52.932971 31924 net.cpp:399] pool3/3x3_s2_pool3/3x3_s2_0_split -> pool3/3x3_s2_pool3/3x3_s2_0_split_1
I0403 15:27:52.932994 31924 net.cpp:399] pool3/3x3_s2_pool3/3x3_s2_0_split -> pool3/3x3_s2_pool3/3x3_s2_0_split_2
I0403 15:27:52.933018 31924 net.cpp:399] pool3/3x3_s2_pool3/3x3_s2_0_split -> pool3/3x3_s2_pool3/3x3_s2_0_split_3
I0403 15:27:52.933104 31924 net.cpp:141] Setting up pool3/3x3_s2_pool3/3x3_s2_0_split
I0403 15:27:52.933130 31924 net.cpp:148] Top shape: 24 480 14 14 (2257920)
I0403 15:27:52.933150 31924 net.cpp:148] Top shape: 24 480 14 14 (2257920)
I0403 15:27:52.933168 31924 net.cpp:148] Top shape: 24 480 14 14 (2257920)
I0403 15:27:52.933185 31924 net.cpp:148] Top shape: 24 480 14 14 (2257920)
I0403 15:27:52.933202 31924 net.cpp:156] Memory required for data: 854397984
I0403 15:27:52.933218 31924 layer_factory.hpp:77] Creating layer inception_4a/1x1
I0403 15:27:52.933243 31924 net.cpp:91] Creating Layer inception_4a/1x1
I0403 15:27:52.933266 31924 net.cpp:425] inception_4a/1x1 <- pool3/3x3_s2_pool3/3x3_s2_0_split_0
I0403 15:27:52.933302 31924 net.cpp:399] inception_4a/1x1 -> inception_4a/1x1
I0403 15:27:52.934978 31924 net.cpp:141] Setting up inception_4a/1x1
I0403 15:27:52.935009 31924 net.cpp:148] Top shape: 24 192 14 14 (903168)
I0403 15:27:52.935026 31924 net.cpp:156] Memory required for data: 858010656
I0403 15:27:52.935048 31924 layer_factory.hpp:77] Creating layer inception_4a/relu_1x1
I0403 15:27:52.935071 31924 net.cpp:91] Creating Layer inception_4a/relu_1x1
I0403 15:27:52.935091 31924 net.cpp:425] inception_4a/relu_1x1 <- inception_4a/1x1
I0403 15:27:52.935112 31924 net.cpp:386] inception_4a/relu_1x1 -> inception_4a/1x1 (in-place)
I0403 15:27:52.935305 31924 net.cpp:141] Setting up inception_4a/relu_1x1
I0403 15:27:52.935338 31924 net.cpp:148] Top shape: 24 192 14 14 (903168)
I0403 15:27:52.935358 31924 net.cpp:156] Memory required for data: 861623328
I0403 15:27:52.935375 31924 layer_factory.hpp:77] Creating layer inception_4a/3x3_reduce
I0403 15:27:52.935400 31924 net.cpp:91] Creating Layer inception_4a/3x3_reduce
I0403 15:27:52.935422 31924 net.cpp:425] inception_4a/3x3_reduce <- pool3/3x3_s2_pool3/3x3_s2_0_split_1
I0403 15:27:52.935449 31924 net.cpp:399] inception_4a/3x3_reduce -> inception_4a/3x3_reduce
I0403 15:27:52.936810 31924 net.cpp:141] Setting up inception_4a/3x3_reduce
I0403 15:27:52.936841 31924 net.cpp:148] Top shape: 24 96 14 14 (451584)
I0403 15:27:52.936858 31924 net.cpp:156] Memory required for data: 863429664
I0403 15:27:52.936887 31924 layer_factory.hpp:77] Creating layer inception_4a/relu_3x3_reduce
I0403 15:27:52.936913 31924 net.cpp:91] Creating Layer inception_4a/relu_3x3_reduce
I0403 15:27:52.936933 31924 net.cpp:425] inception_4a/relu_3x3_reduce <- inception_4a/3x3_reduce
I0403 15:27:52.936952 31924 net.cpp:386] inception_4a/relu_3x3_reduce -> inception_4a/3x3_reduce (in-place)
I0403 15:27:52.937142 31924 net.cpp:141] Setting up inception_4a/relu_3x3_reduce
I0403 15:27:52.937175 31924 net.cpp:148] Top shape: 24 96 14 14 (451584)
I0403 15:27:52.937191 31924 net.cpp:156] Memory required for data: 865236000
I0403 15:27:52.937209 31924 layer_factory.hpp:77] Creating layer inception_4a/3x3
I0403 15:27:52.937234 31924 net.cpp:91] Creating Layer inception_4a/3x3
I0403 15:27:52.937254 31924 net.cpp:425] inception_4a/3x3 <- inception_4a/3x3_reduce
I0403 15:27:52.937278 31924 net.cpp:399] inception_4a/3x3 -> inception_4a/3x3
I0403 15:27:52.940129 31924 net.cpp:141] Setting up inception_4a/3x3
I0403 15:27:52.940165 31924 net.cpp:148] Top shape: 24 208 14 14 (978432)
I0403 15:27:52.940186 31924 net.cpp:156] Memory required for data: 869149728
I0403 15:27:52.940208 31924 layer_factory.hpp:77] Creating layer inception_4a/relu_3x3
I0403 15:27:52.940229 31924 net.cpp:91] Creating Layer inception_4a/relu_3x3
I0403 15:27:52.940248 31924 net.cpp:425] inception_4a/relu_3x3 <- inception_4a/3x3
I0403 15:27:52.940269 31924 net.cpp:386] inception_4a/relu_3x3 -> inception_4a/3x3 (in-place)
I0403 15:27:52.940573 31924 net.cpp:141] Setting up inception_4a/relu_3x3
I0403 15:27:52.940605 31924 net.cpp:148] Top shape: 24 208 14 14 (978432)
I0403 15:27:52.940625 31924 net.cpp:156] Memory required for data: 873063456
I0403 15:27:52.940644 31924 layer_factory.hpp:77] Creating layer inception_4a/5x5_reduce
I0403 15:27:52.940670 31924 net.cpp:91] Creating Layer inception_4a/5x5_reduce
I0403 15:27:52.940690 31924 net.cpp:425] inception_4a/5x5_reduce <- pool3/3x3_s2_pool3/3x3_s2_0_split_2
I0403 15:27:52.940711 31924 net.cpp:399] inception_4a/5x5_reduce -> inception_4a/5x5_reduce
I0403 15:27:52.941802 31924 net.cpp:141] Setting up inception_4a/5x5_reduce
I0403 15:27:52.941835 31924 net.cpp:148] Top shape: 24 16 14 14 (75264)
I0403 15:27:52.941855 31924 net.cpp:156] Memory required for data: 873364512
I0403 15:27:52.941877 31924 layer_factory.hpp:77] Creating layer inception_4a/relu_5x5_reduce
I0403 15:27:52.941897 31924 net.cpp:91] Creating Layer inception_4a/relu_5x5_reduce
I0403 15:27:52.941916 31924 net.cpp:425] inception_4a/relu_5x5_reduce <- inception_4a/5x5_reduce
I0403 15:27:52.941938 31924 net.cpp:386] inception_4a/relu_5x5_reduce -> inception_4a/5x5_reduce (in-place)
I0403 15:27:52.942134 31924 net.cpp:141] Setting up inception_4a/relu_5x5_reduce
I0403 15:27:52.942163 31924 net.cpp:148] Top shape: 24 16 14 14 (75264)
I0403 15:27:52.942181 31924 net.cpp:156] Memory required for data: 873665568
I0403 15:27:52.942198 31924 layer_factory.hpp:77] Creating layer inception_4a/5x5
I0403 15:27:52.942224 31924 net.cpp:91] Creating Layer inception_4a/5x5
I0403 15:27:52.942245 31924 net.cpp:425] inception_4a/5x5 <- inception_4a/5x5_reduce
I0403 15:27:52.942270 31924 net.cpp:399] inception_4a/5x5 -> inception_4a/5x5
I0403 15:27:52.943439 31924 net.cpp:141] Setting up inception_4a/5x5
I0403 15:27:52.943470 31924 net.cpp:148] Top shape: 24 48 14 14 (225792)
I0403 15:27:52.943488 31924 net.cpp:156] Memory required for data: 874568736
I0403 15:27:52.943511 31924 layer_factory.hpp:77] Creating layer inception_4a/relu_5x5
I0403 15:27:52.943534 31924 net.cpp:91] Creating Layer inception_4a/relu_5x5
I0403 15:27:52.943554 31924 net.cpp:425] inception_4a/relu_5x5 <- inception_4a/5x5
I0403 15:27:52.943575 31924 net.cpp:386] inception_4a/relu_5x5 -> inception_4a/5x5 (in-place)
I0403 15:27:52.943773 31924 net.cpp:141] Setting up inception_4a/relu_5x5
I0403 15:27:52.943800 31924 net.cpp:148] Top shape: 24 48 14 14 (225792)
I0403 15:27:52.943819 31924 net.cpp:156] Memory required for data: 875471904
I0403 15:27:52.943835 31924 layer_factory.hpp:77] Creating layer inception_4a/pool
I0403 15:27:52.943861 31924 net.cpp:91] Creating Layer inception_4a/pool
I0403 15:27:52.943881 31924 net.cpp:425] inception_4a/pool <- pool3/3x3_s2_pool3/3x3_s2_0_split_3
I0403 15:27:52.943902 31924 net.cpp:399] inception_4a/pool -> inception_4a/pool
I0403 15:27:52.943971 31924 net.cpp:141] Setting up inception_4a/pool
I0403 15:27:52.943999 31924 net.cpp:148] Top shape: 24 480 14 14 (2257920)
I0403 15:27:52.944015 31924 net.cpp:156] Memory required for data: 884503584
I0403 15:27:52.944033 31924 layer_factory.hpp:77] Creating layer inception_4a/pool_proj
I0403 15:27:52.944057 31924 net.cpp:91] Creating Layer inception_4a/pool_proj
I0403 15:27:52.944078 31924 net.cpp:425] inception_4a/pool_proj <- inception_4a/pool
I0403 15:27:52.944102 31924 net.cpp:399] inception_4a/pool_proj -> inception_4a/pool_proj
I0403 15:27:52.945370 31924 net.cpp:141] Setting up inception_4a/pool_proj
I0403 15:27:52.945401 31924 net.cpp:148] Top shape: 24 64 14 14 (301056)
I0403 15:27:52.945436 31924 net.cpp:156] Memory required for data: 885707808
I0403 15:27:52.945459 31924 layer_factory.hpp:77] Creating layer inception_4a/relu_pool_proj
I0403 15:27:52.945484 31924 net.cpp:91] Creating Layer inception_4a/relu_pool_proj
I0403 15:27:52.945504 31924 net.cpp:425] inception_4a/relu_pool_proj <- inception_4a/pool_proj
I0403 15:27:52.945524 31924 net.cpp:386] inception_4a/relu_pool_proj -> inception_4a/pool_proj (in-place)
I0403 15:27:52.945828 31924 net.cpp:141] Setting up inception_4a/relu_pool_proj
I0403 15:27:52.945858 31924 net.cpp:148] Top shape: 24 64 14 14 (301056)
I0403 15:27:52.945876 31924 net.cpp:156] Memory required for data: 886912032
I0403 15:27:52.945894 31924 layer_factory.hpp:77] Creating layer inception_4a/output
I0403 15:27:52.945915 31924 net.cpp:91] Creating Layer inception_4a/output
I0403 15:27:52.945935 31924 net.cpp:425] inception_4a/output <- inception_4a/1x1
I0403 15:27:52.945955 31924 net.cpp:425] inception_4a/output <- inception_4a/3x3
I0403 15:27:52.945974 31924 net.cpp:425] inception_4a/output <- inception_4a/5x5
I0403 15:27:52.945993 31924 net.cpp:425] inception_4a/output <- inception_4a/pool_proj
I0403 15:27:52.946013 31924 net.cpp:399] inception_4a/output -> inception_4a/output
I0403 15:27:52.946063 31924 net.cpp:141] Setting up inception_4a/output
I0403 15:27:52.946090 31924 net.cpp:148] Top shape: 24 512 14 14 (2408448)
I0403 15:27:52.946108 31924 net.cpp:156] Memory required for data: 896545824
I0403 15:27:52.946125 31924 layer_factory.hpp:77] Creating layer inception_4a/output_inception_4a/output_0_split
I0403 15:27:52.946146 31924 net.cpp:91] Creating Layer inception_4a/output_inception_4a/output_0_split
I0403 15:27:52.946162 31924 net.cpp:425] inception_4a/output_inception_4a/output_0_split <- inception_4a/output
I0403 15:27:52.946185 31924 net.cpp:399] inception_4a/output_inception_4a/output_0_split -> inception_4a/output_inception_4a/output_0_split_0
I0403 15:27:52.946210 31924 net.cpp:399] inception_4a/output_inception_4a/output_0_split -> inception_4a/output_inception_4a/output_0_split_1
I0403 15:27:52.946233 31924 net.cpp:399] inception_4a/output_inception_4a/output_0_split -> inception_4a/output_inception_4a/output_0_split_2
I0403 15:27:52.946259 31924 net.cpp:399] inception_4a/output_inception_4a/output_0_split -> inception_4a/output_inception_4a/output_0_split_3
I0403 15:27:52.946282 31924 net.cpp:399] inception_4a/output_inception_4a/output_0_split -> inception_4a/output_inception_4a/output_0_split_4
I0403 15:27:52.946391 31924 net.cpp:141] Setting up inception_4a/output_inception_4a/output_0_split
I0403 15:27:52.946419 31924 net.cpp:148] Top shape: 24 512 14 14 (2408448)
I0403 15:27:52.946437 31924 net.cpp:148] Top shape: 24 512 14 14 (2408448)
I0403 15:27:52.946456 31924 net.cpp:148] Top shape: 24 512 14 14 (2408448)
I0403 15:27:52.946475 31924 net.cpp:148] Top shape: 24 512 14 14 (2408448)
I0403 15:27:52.946493 31924 net.cpp:148] Top shape: 24 512 14 14 (2408448)
I0403 15:27:52.946509 31924 net.cpp:156] Memory required for data: 944714784
I0403 15:27:52.946527 31924 layer_factory.hpp:77] Creating layer loss1/ave_pool
I0403 15:27:52.946547 31924 net.cpp:91] Creating Layer loss1/ave_pool
I0403 15:27:52.946565 31924 net.cpp:425] loss1/ave_pool <- inception_4a/output_inception_4a/output_0_split_0
I0403 15:27:52.946589 31924 net.cpp:399] loss1/ave_pool -> loss1/ave_pool
I0403 15:27:52.946817 31924 net.cpp:141] Setting up loss1/ave_pool
I0403 15:27:52.946846 31924 net.cpp:148] Top shape: 24 512 4 4 (196608)
I0403 15:27:52.946864 31924 net.cpp:156] Memory required for data: 945501216
I0403 15:27:52.946882 31924 layer_factory.hpp:77] Creating layer loss1/conv
I0403 15:27:52.946907 31924 net.cpp:91] Creating Layer loss1/conv
I0403 15:27:52.946926 31924 net.cpp:425] loss1/conv <- loss1/ave_pool
I0403 15:27:52.946950 31924 net.cpp:399] loss1/conv -> loss1/conv
I0403 15:27:52.948482 31924 net.cpp:141] Setting up loss1/conv
I0403 15:27:52.948516 31924 net.cpp:148] Top shape: 24 128 4 4 (49152)
I0403 15:27:52.948536 31924 net.cpp:156] Memory required for data: 945697824
I0403 15:27:52.948575 31924 layer_factory.hpp:77] Creating layer loss1/relu_conv
I0403 15:27:52.948596 31924 net.cpp:91] Creating Layer loss1/relu_conv
I0403 15:27:52.948617 31924 net.cpp:425] loss1/relu_conv <- loss1/conv
I0403 15:27:52.948640 31924 net.cpp:386] loss1/relu_conv -> loss1/conv (in-place)
I0403 15:27:52.948945 31924 net.cpp:141] Setting up loss1/relu_conv
I0403 15:27:52.948976 31924 net.cpp:148] Top shape: 24 128 4 4 (49152)
I0403 15:27:52.948994 31924 net.cpp:156] Memory required for data: 945894432
I0403 15:27:52.949012 31924 layer_factory.hpp:77] Creating layer loss1/fc
I0403 15:27:52.949038 31924 net.cpp:91] Creating Layer loss1/fc
I0403 15:27:52.949059 31924 net.cpp:425] loss1/fc <- loss1/conv
I0403 15:27:52.949082 31924 net.cpp:399] loss1/fc -> loss1/fc
I0403 15:27:52.968101 31924 net.cpp:141] Setting up loss1/fc
I0403 15:27:52.968158 31924 net.cpp:148] Top shape: 24 1024 (24576)
I0403 15:27:52.968178 31924 net.cpp:156] Memory required for data: 945992736
I0403 15:27:52.968200 31924 layer_factory.hpp:77] Creating layer loss1/relu_fc
I0403 15:27:52.968225 31924 net.cpp:91] Creating Layer loss1/relu_fc
I0403 15:27:52.968261 31924 net.cpp:425] loss1/relu_fc <- loss1/fc
I0403 15:27:52.968291 31924 net.cpp:386] loss1/relu_fc -> loss1/fc (in-place)
I0403 15:27:52.968550 31924 net.cpp:141] Setting up loss1/relu_fc
I0403 15:27:52.968580 31924 net.cpp:148] Top shape: 24 1024 (24576)
I0403 15:27:52.968613 31924 net.cpp:156] Memory required for data: 946091040
I0403 15:27:52.968632 31924 layer_factory.hpp:77] Creating layer loss1/drop_fc
I0403 15:27:52.968667 31924 net.cpp:91] Creating Layer loss1/drop_fc
I0403 15:27:52.968686 31924 net.cpp:425] loss1/drop_fc <- loss1/fc
I0403 15:27:52.968710 31924 net.cpp:386] loss1/drop_fc -> loss1/fc (in-place)
I0403 15:27:52.968791 31924 net.cpp:141] Setting up loss1/drop_fc
I0403 15:27:52.968824 31924 net.cpp:148] Top shape: 24 1024 (24576)
I0403 15:27:52.968843 31924 net.cpp:156] Memory required for data: 946189344
I0403 15:27:52.968863 31924 layer_factory.hpp:77] Creating layer loss1/classifier_plantvillage
I0403 15:27:52.968889 31924 net.cpp:91] Creating Layer loss1/classifier_plantvillage
I0403 15:27:52.968909 31924 net.cpp:425] loss1/classifier_plantvillage <- loss1/fc
I0403 15:27:52.968930 31924 net.cpp:399] loss1/classifier_plantvillage -> loss1/classifier_plantvillage
I0403 15:27:52.969979 31924 net.cpp:141] Setting up loss1/classifier_plantvillage
I0403 15:27:52.970010 31924 net.cpp:148] Top shape: 24 38 (912)
I0403 15:27:52.970032 31924 net.cpp:156] Memory required for data: 946192992
I0403 15:27:52.970058 31924 layer_factory.hpp:77] Creating layer loss1/classifier_plantvillage_loss1/classifier_plantvillage_0_split
I0403 15:27:52.970084 31924 net.cpp:91] Creating Layer loss1/classifier_plantvillage_loss1/classifier_plantvillage_0_split
I0403 15:27:52.970109 31924 net.cpp:425] loss1/classifier_plantvillage_loss1/classifier_plantvillage_0_split <- loss1/classifier_plantvillage
I0403 15:27:52.970147 31924 net.cpp:399] loss1/classifier_plantvillage_loss1/classifier_plantvillage_0_split -> loss1/classifier_plantvillage_loss1/classifier_plantvillage_0_split_0
I0403 15:27:52.970185 31924 net.cpp:399] loss1/classifier_plantvillage_loss1/classifier_plantvillage_0_split -> loss1/classifier_plantvillage_loss1/classifier_plantvillage_0_split_1
I0403 15:27:52.970219 31924 net.cpp:399] loss1/classifier_plantvillage_loss1/classifier_plantvillage_0_split -> loss1/classifier_plantvillage_loss1/classifier_plantvillage_0_split_2
I0403 15:27:52.970299 31924 net.cpp:141] Setting up loss1/classifier_plantvillage_loss1/classifier_plantvillage_0_split
I0403 15:27:52.970326 31924 net.cpp:148] Top shape: 24 38 (912)
I0403 15:27:52.970345 31924 net.cpp:148] Top shape: 24 38 (912)
I0403 15:27:52.970365 31924 net.cpp:148] Top shape: 24 38 (912)
I0403 15:27:52.970388 31924 net.cpp:156] Memory required for data: 946203936
I0403 15:27:52.970407 31924 layer_factory.hpp:77] Creating layer inception_4b/1x1
I0403 15:27:52.970435 31924 net.cpp:91] Creating Layer inception_4b/1x1
I0403 15:27:52.970481 31924 net.cpp:425] inception_4b/1x1 <- inception_4a/output_inception_4a/output_0_split_1
I0403 15:27:52.970509 31924 net.cpp:399] inception_4b/1x1 -> inception_4b/1x1
I0403 15:27:52.972314 31924 net.cpp:141] Setting up inception_4b/1x1
I0403 15:27:52.972352 31924 net.cpp:148] Top shape: 24 160 14 14 (752640)
I0403 15:27:52.972373 31924 net.cpp:156] Memory required for data: 949214496
I0403 15:27:52.972394 31924 layer_factory.hpp:77] Creating layer inception_4b/relu_1x1
I0403 15:27:52.972417 31924 net.cpp:91] Creating Layer inception_4b/relu_1x1
I0403 15:27:52.972447 31924 net.cpp:425] inception_4b/relu_1x1 <- inception_4b/1x1
I0403 15:27:52.972471 31924 net.cpp:386] inception_4b/relu_1x1 -> inception_4b/1x1 (in-place)
I0403 15:27:52.972676 31924 net.cpp:141] Setting up inception_4b/relu_1x1
I0403 15:27:52.972705 31924 net.cpp:148] Top shape: 24 160 14 14 (752640)
I0403 15:27:52.972723 31924 net.cpp:156] Memory required for data: 952225056
I0403 15:27:52.972741 31924 layer_factory.hpp:77] Creating layer inception_4b/3x3_reduce
I0403 15:27:52.972772 31924 net.cpp:91] Creating Layer inception_4b/3x3_reduce
I0403 15:27:52.972795 31924 net.cpp:425] inception_4b/3x3_reduce <- inception_4a/output_inception_4a/output_0_split_2
I0403 15:27:52.972820 31924 net.cpp:399] inception_4b/3x3_reduce -> inception_4b/3x3_reduce
I0403 15:27:52.974367 31924 net.cpp:141] Setting up inception_4b/3x3_reduce
I0403 15:27:52.974403 31924 net.cpp:148] Top shape: 24 112 14 14 (526848)
I0403 15:27:52.974424 31924 net.cpp:156] Memory required for data: 954332448
I0403 15:27:52.974453 31924 layer_factory.hpp:77] Creating layer inception_4b/relu_3x3_reduce
I0403 15:27:52.974488 31924 net.cpp:91] Creating Layer inception_4b/relu_3x3_reduce
I0403 15:27:52.974664 31924 net.cpp:425] inception_4b/relu_3x3_reduce <- inception_4b/3x3_reduce
I0403 15:27:52.974757 31924 net.cpp:386] inception_4b/relu_3x3_reduce -> inception_4b/3x3_reduce (in-place)
I0403 15:27:52.975272 31924 net.cpp:141] Setting up inception_4b/relu_3x3_reduce
I0403 15:27:52.975306 31924 net.cpp:148] Top shape: 24 112 14 14 (526848)
I0403 15:27:52.975328 31924 net.cpp:156] Memory required for data: 956439840
I0403 15:27:52.975347 31924 layer_factory.hpp:77] Creating layer inception_4b/3x3
I0403 15:27:52.975381 31924 net.cpp:91] Creating Layer inception_4b/3x3
I0403 15:27:52.975404 31924 net.cpp:425] inception_4b/3x3 <- inception_4b/3x3_reduce
I0403 15:27:52.975428 31924 net.cpp:399] inception_4b/3x3 -> inception_4b/3x3
I0403 15:27:52.978672 31924 net.cpp:141] Setting up inception_4b/3x3
I0403 15:27:52.978705 31924 net.cpp:148] Top shape: 24 224 14 14 (1053696)
I0403 15:27:52.978725 31924 net.cpp:156] Memory required for data: 960654624
I0403 15:27:52.978746 31924 layer_factory.hpp:77] Creating layer inception_4b/relu_3x3
I0403 15:27:52.978770 31924 net.cpp:91] Creating Layer inception_4b/relu_3x3
I0403 15:27:52.978790 31924 net.cpp:425] inception_4b/relu_3x3 <- inception_4b/3x3
I0403 15:27:52.978811 31924 net.cpp:386] inception_4b/relu_3x3 -> inception_4b/3x3 (in-place)
I0403 15:27:52.979013 31924 net.cpp:141] Setting up inception_4b/relu_3x3
I0403 15:27:52.979041 31924 net.cpp:148] Top shape: 24 224 14 14 (1053696)
I0403 15:27:52.979059 31924 net.cpp:156] Memory required for data: 964869408
I0403 15:27:52.979076 31924 layer_factory.hpp:77] Creating layer inception_4b/5x5_reduce
I0403 15:27:52.979102 31924 net.cpp:91] Creating Layer inception_4b/5x5_reduce
I0403 15:27:52.979125 31924 net.cpp:425] inception_4b/5x5_reduce <- inception_4a/output_inception_4a/output_0_split_3
I0403 15:27:52.979149 31924 net.cpp:399] inception_4b/5x5_reduce -> inception_4b/5x5_reduce
I0403 15:27:52.980336 31924 net.cpp:141] Setting up inception_4b/5x5_reduce
I0403 15:27:52.980368 31924 net.cpp:148] Top shape: 24 24 14 14 (112896)
I0403 15:27:52.980387 31924 net.cpp:156] Memory required for data: 965320992
I0403 15:27:52.980408 31924 layer_factory.hpp:77] Creating layer inception_4b/relu_5x5_reduce
I0403 15:27:52.980430 31924 net.cpp:91] Creating Layer inception_4b/relu_5x5_reduce
I0403 15:27:52.980465 31924 net.cpp:425] inception_4b/relu_5x5_reduce <- inception_4b/5x5_reduce
I0403 15:27:52.980491 31924 net.cpp:386] inception_4b/relu_5x5_reduce -> inception_4b/5x5_reduce (in-place)
I0403 15:27:52.980695 31924 net.cpp:141] Setting up inception_4b/relu_5x5_reduce
I0403 15:27:52.980723 31924 net.cpp:148] Top shape: 24 24 14 14 (112896)
I0403 15:27:52.980741 31924 net.cpp:156] Memory required for data: 965772576
I0403 15:27:52.980758 31924 layer_factory.hpp:77] Creating layer inception_4b/5x5
I0403 15:27:52.980784 31924 net.cpp:91] Creating Layer inception_4b/5x5
I0403 15:27:52.980806 31924 net.cpp:425] inception_4b/5x5 <- inception_4b/5x5_reduce
I0403 15:27:52.980830 31924 net.cpp:399] inception_4b/5x5 -> inception_4b/5x5
I0403 15:27:52.982163 31924 net.cpp:141] Setting up inception_4b/5x5
I0403 15:27:52.982197 31924 net.cpp:148] Top shape: 24 64 14 14 (301056)
I0403 15:27:52.982218 31924 net.cpp:156] Memory required for data: 966976800
I0403 15:27:52.982239 31924 layer_factory.hpp:77] Creating layer inception_4b/relu_5x5
I0403 15:27:52.982260 31924 net.cpp:91] Creating Layer inception_4b/relu_5x5
I0403 15:27:52.982280 31924 net.cpp:425] inception_4b/relu_5x5 <- inception_4b/5x5
I0403 15:27:52.982309 31924 net.cpp:386] inception_4b/relu_5x5 -> inception_4b/5x5 (in-place)
I0403 15:27:52.982671 31924 net.cpp:141] Setting up inception_4b/relu_5x5
I0403 15:27:52.982702 31924 net.cpp:148] Top shape: 24 64 14 14 (301056)
I0403 15:27:52.982722 31924 net.cpp:156] Memory required for data: 968181024
I0403 15:27:52.982739 31924 layer_factory.hpp:77] Creating layer inception_4b/pool
I0403 15:27:52.982760 31924 net.cpp:91] Creating Layer inception_4b/pool
I0403 15:27:52.982779 31924 net.cpp:425] inception_4b/pool <- inception_4a/output_inception_4a/output_0_split_4
I0403 15:27:52.982803 31924 net.cpp:399] inception_4b/pool -> inception_4b/pool
I0403 15:27:52.982873 31924 net.cpp:141] Setting up inception_4b/pool
I0403 15:27:52.982903 31924 net.cpp:148] Top shape: 24 512 14 14 (2408448)
I0403 15:27:52.982921 31924 net.cpp:156] Memory required for data: 977814816
I0403 15:27:52.982939 31924 layer_factory.hpp:77] Creating layer inception_4b/pool_proj
I0403 15:27:52.982961 31924 net.cpp:91] Creating Layer inception_4b/pool_proj
I0403 15:27:52.982981 31924 net.cpp:425] inception_4b/pool_proj <- inception_4b/pool
I0403 15:27:52.983006 31924 net.cpp:399] inception_4b/pool_proj -> inception_4b/pool_proj
I0403 15:27:52.984328 31924 net.cpp:141] Setting up inception_4b/pool_proj
I0403 15:27:52.984360 31924 net.cpp:148] Top shape: 24 64 14 14 (301056)
I0403 15:27:52.984380 31924 net.cpp:156] Memory required for data: 979019040
I0403 15:27:52.984400 31924 layer_factory.hpp:77] Creating layer inception_4b/relu_pool_proj
I0403 15:27:52.984432 31924 net.cpp:91] Creating Layer inception_4b/relu_pool_proj
I0403 15:27:52.984452 31924 net.cpp:425] inception_4b/relu_pool_proj <- inception_4b/pool_proj
I0403 15:27:52.984473 31924 net.cpp:386] inception_4b/relu_pool_proj -> inception_4b/pool_proj (in-place)
I0403 15:27:52.984673 31924 net.cpp:141] Setting up inception_4b/relu_pool_proj
I0403 15:27:52.984701 31924 net.cpp:148] Top shape: 24 64 14 14 (301056)
I0403 15:27:52.984719 31924 net.cpp:156] Memory required for data: 980223264
I0403 15:27:52.984735 31924 layer_factory.hpp:77] Creating layer inception_4b/output
I0403 15:27:52.984756 31924 net.cpp:91] Creating Layer inception_4b/output
I0403 15:27:52.984774 31924 net.cpp:425] inception_4b/output <- inception_4b/1x1
I0403 15:27:52.984797 31924 net.cpp:425] inception_4b/output <- inception_4b/3x3
I0403 15:27:52.984817 31924 net.cpp:425] inception_4b/output <- inception_4b/5x5
I0403 15:27:52.984836 31924 net.cpp:425] inception_4b/output <- inception_4b/pool_proj
I0403 15:27:52.984856 31924 net.cpp:399] inception_4b/output -> inception_4b/output
I0403 15:27:52.984908 31924 net.cpp:141] Setting up inception_4b/output
I0403 15:27:52.984935 31924 net.cpp:148] Top shape: 24 512 14 14 (2408448)
I0403 15:27:52.984952 31924 net.cpp:156] Memory required for data: 989857056
I0403 15:27:52.984985 31924 layer_factory.hpp:77] Creating layer inception_4b/output_inception_4b/output_0_split
I0403 15:27:52.985008 31924 net.cpp:91] Creating Layer inception_4b/output_inception_4b/output_0_split
I0403 15:27:52.985026 31924 net.cpp:425] inception_4b/output_inception_4b/output_0_split <- inception_4b/output
I0403 15:27:52.985049 31924 net.cpp:399] inception_4b/output_inception_4b/output_0_split -> inception_4b/output_inception_4b/output_0_split_0
I0403 15:27:52.985072 31924 net.cpp:399] inception_4b/output_inception_4b/output_0_split -> inception_4b/output_inception_4b/output_0_split_1
I0403 15:27:52.985096 31924 net.cpp:399] inception_4b/output_inception_4b/output_0_split -> inception_4b/output_inception_4b/output_0_split_2
I0403 15:27:52.985121 31924 net.cpp:399] inception_4b/output_inception_4b/output_0_split -> inception_4b/output_inception_4b/output_0_split_3
I0403 15:27:52.985214 31924 net.cpp:141] Setting up inception_4b/output_inception_4b/output_0_split
I0403 15:27:52.985245 31924 net.cpp:148] Top shape: 24 512 14 14 (2408448)
I0403 15:27:52.985267 31924 net.cpp:148] Top shape: 24 512 14 14 (2408448)
I0403 15:27:52.985290 31924 net.cpp:148] Top shape: 24 512 14 14 (2408448)
I0403 15:27:52.985308 31924 net.cpp:148] Top shape: 24 512 14 14 (2408448)
I0403 15:27:52.985324 31924 net.cpp:156] Memory required for data: 1028392224
I0403 15:27:52.985342 31924 layer_factory.hpp:77] Creating layer inception_4c/1x1
I0403 15:27:52.985368 31924 net.cpp:91] Creating Layer inception_4c/1x1
I0403 15:27:52.985389 31924 net.cpp:425] inception_4c/1x1 <- inception_4b/output_inception_4b/output_0_split_0
I0403 15:27:52.985410 31924 net.cpp:399] inception_4c/1x1 -> inception_4c/1x1
I0403 15:27:52.986971 31924 net.cpp:141] Setting up inception_4c/1x1
I0403 15:27:52.987002 31924 net.cpp:148] Top shape: 24 128 14 14 (602112)
I0403 15:27:52.987020 31924 net.cpp:156] Memory required for data: 1030800672
I0403 15:27:52.987042 31924 layer_factory.hpp:77] Creating layer inception_4c/relu_1x1
I0403 15:27:52.987067 31924 net.cpp:91] Creating Layer inception_4c/relu_1x1
I0403 15:27:52.987087 31924 net.cpp:425] inception_4c/relu_1x1 <- inception_4c/1x1
I0403 15:27:52.987107 31924 net.cpp:386] inception_4c/relu_1x1 -> inception_4c/1x1 (in-place)
I0403 15:27:52.987309 31924 net.cpp:141] Setting up inception_4c/relu_1x1
I0403 15:27:52.987339 31924 net.cpp:148] Top shape: 24 128 14 14 (602112)
I0403 15:27:52.987357 31924 net.cpp:156] Memory required for data: 1033209120
I0403 15:27:52.987375 31924 layer_factory.hpp:77] Creating layer inception_4c/3x3_reduce
I0403 15:27:52.987401 31924 net.cpp:91] Creating Layer inception_4c/3x3_reduce
I0403 15:27:52.987421 31924 net.cpp:425] inception_4c/3x3_reduce <- inception_4b/output_inception_4b/output_0_split_1
I0403 15:27:52.987444 31924 net.cpp:399] inception_4c/3x3_reduce -> inception_4c/3x3_reduce
I0403 15:27:52.989536 31924 net.cpp:141] Setting up inception_4c/3x3_reduce
I0403 15:27:52.989569 31924 net.cpp:148] Top shape: 24 128 14 14 (602112)
I0403 15:27:52.989589 31924 net.cpp:156] Memory required for data: 1035617568
I0403 15:27:52.989612 31924 layer_factory.hpp:77] Creating layer inception_4c/relu_3x3_reduce
I0403 15:27:52.989634 31924 net.cpp:91] Creating Layer inception_4c/relu_3x3_reduce
I0403 15:27:52.989651 31924 net.cpp:425] inception_4c/relu_3x3_reduce <- inception_4c/3x3_reduce
I0403 15:27:52.989675 31924 net.cpp:386] inception_4c/relu_3x3_reduce -> inception_4c/3x3_reduce (in-place)
I0403 15:27:52.989986 31924 net.cpp:141] Setting up inception_4c/relu_3x3_reduce
I0403 15:27:52.990017 31924 net.cpp:148] Top shape: 24 128 14 14 (602112)
I0403 15:27:52.990036 31924 net.cpp:156] Memory required for data: 1038026016
I0403 15:27:52.990054 31924 layer_factory.hpp:77] Creating layer inception_4c/3x3
I0403 15:27:52.990080 31924 net.cpp:91] Creating Layer inception_4c/3x3
I0403 15:27:52.990102 31924 net.cpp:425] inception_4c/3x3 <- inception_4c/3x3_reduce
I0403 15:27:52.990124 31924 net.cpp:399] inception_4c/3x3 -> inception_4c/3x3
I0403 15:27:52.993975 31924 net.cpp:141] Setting up inception_4c/3x3
I0403 15:27:52.994024 31924 net.cpp:148] Top shape: 24 256 14 14 (1204224)
I0403 15:27:52.994043 31924 net.cpp:156] Memory required for data: 1042842912
I0403 15:27:52.994078 31924 layer_factory.hpp:77] Creating layer inception_4c/relu_3x3
I0403 15:27:52.994102 31924 net.cpp:91] Creating Layer inception_4c/relu_3x3
I0403 15:27:52.994120 31924 net.cpp:425] inception_4c/relu_3x3 <- inception_4c/3x3
I0403 15:27:52.994143 31924 net.cpp:386] inception_4c/relu_3x3 -> inception_4c/3x3 (in-place)
I0403 15:27:52.994354 31924 net.cpp:141] Setting up inception_4c/relu_3x3
I0403 15:27:52.994382 31924 net.cpp:148] Top shape: 24 256 14 14 (1204224)
I0403 15:27:52.994400 31924 net.cpp:156] Memory required for data: 1047659808
I0403 15:27:52.994416 31924 layer_factory.hpp:77] Creating layer inception_4c/5x5_reduce
I0403 15:27:52.994446 31924 net.cpp:91] Creating Layer inception_4c/5x5_reduce
I0403 15:27:52.994465 31924 net.cpp:425] inception_4c/5x5_reduce <- inception_4b/output_inception_4b/output_0_split_2
I0403 15:27:52.994491 31924 net.cpp:399] inception_4c/5x5_reduce -> inception_4c/5x5_reduce
I0403 15:27:52.995676 31924 net.cpp:141] Setting up inception_4c/5x5_reduce
I0403 15:27:52.995707 31924 net.cpp:148] Top shape: 24 24 14 14 (112896)
I0403 15:27:52.995724 31924 net.cpp:156] Memory required for data: 1048111392
I0403 15:27:52.995745 31924 layer_factory.hpp:77] Creating layer inception_4c/relu_5x5_reduce
I0403 15:27:52.995766 31924 net.cpp:91] Creating Layer inception_4c/relu_5x5_reduce
I0403 15:27:52.995785 31924 net.cpp:425] inception_4c/relu_5x5_reduce <- inception_4c/5x5_reduce
I0403 15:27:52.995808 31924 net.cpp:386] inception_4c/relu_5x5_reduce -> inception_4c/5x5_reduce (in-place)
I0403 15:27:52.996012 31924 net.cpp:141] Setting up inception_4c/relu_5x5_reduce
I0403 15:27:52.996039 31924 net.cpp:148] Top shape: 24 24 14 14 (112896)
I0403 15:27:52.996057 31924 net.cpp:156] Memory required for data: 1048562976
I0403 15:27:52.996074 31924 layer_factory.hpp:77] Creating layer inception_4c/5x5
I0403 15:27:52.996100 31924 net.cpp:91] Creating Layer inception_4c/5x5
I0403 15:27:52.996120 31924 net.cpp:425] inception_4c/5x5 <- inception_4c/5x5_reduce
I0403 15:27:52.996145 31924 net.cpp:399] inception_4c/5x5 -> inception_4c/5x5
I0403 15:27:52.997495 31924 net.cpp:141] Setting up inception_4c/5x5
I0403 15:27:52.997525 31924 net.cpp:148] Top shape: 24 64 14 14 (301056)
I0403 15:27:52.997544 31924 net.cpp:156] Memory required for data: 1049767200
I0403 15:27:52.997565 31924 layer_factory.hpp:77] Creating layer inception_4c/relu_5x5
I0403 15:27:52.997587 31924 net.cpp:91] Creating Layer inception_4c/relu_5x5
I0403 15:27:52.997608 31924 net.cpp:425] inception_4c/relu_5x5 <- inception_4c/5x5
I0403 15:27:52.997628 31924 net.cpp:386] inception_4c/relu_5x5 -> inception_4c/5x5 (in-place)
I0403 15:27:52.997942 31924 net.cpp:141] Setting up inception_4c/relu_5x5
I0403 15:27:52.997972 31924 net.cpp:148] Top shape: 24 64 14 14 (301056)
I0403 15:27:52.997988 31924 net.cpp:156] Memory required for data: 1050971424
I0403 15:27:52.998005 31924 layer_factory.hpp:77] Creating layer inception_4c/pool
I0403 15:27:52.998028 31924 net.cpp:91] Creating Layer inception_4c/pool
I0403 15:27:52.998047 31924 net.cpp:425] inception_4c/pool <- inception_4b/output_inception_4b/output_0_split_3
I0403 15:27:52.998069 31924 net.cpp:399] inception_4c/pool -> inception_4c/pool
I0403 15:27:52.998142 31924 net.cpp:141] Setting up inception_4c/pool
I0403 15:27:52.998168 31924 net.cpp:148] Top shape: 24 512 14 14 (2408448)
I0403 15:27:52.998185 31924 net.cpp:156] Memory required for data: 1060605216
I0403 15:27:52.998203 31924 layer_factory.hpp:77] Creating layer inception_4c/pool_proj
I0403 15:27:52.998230 31924 net.cpp:91] Creating Layer inception_4c/pool_proj
I0403 15:27:52.998250 31924 net.cpp:425] inception_4c/pool_proj <- inception_4c/pool
I0403 15:27:52.998275 31924 net.cpp:399] inception_4c/pool_proj -> inception_4c/pool_proj
I0403 15:27:52.999601 31924 net.cpp:141] Setting up inception_4c/pool_proj
I0403 15:27:52.999634 31924 net.cpp:148] Top shape: 24 64 14 14 (301056)
I0403 15:27:52.999667 31924 net.cpp:156] Memory required for data: 1061809440
I0403 15:27:52.999689 31924 layer_factory.hpp:77] Creating layer inception_4c/relu_pool_proj
I0403 15:27:52.999709 31924 net.cpp:91] Creating Layer inception_4c/relu_pool_proj
I0403 15:27:52.999728 31924 net.cpp:425] inception_4c/relu_pool_proj <- inception_4c/pool_proj
I0403 15:27:52.999750 31924 net.cpp:386] inception_4c/relu_pool_proj -> inception_4c/pool_proj (in-place)
I0403 15:27:52.999950 31924 net.cpp:141] Setting up inception_4c/relu_pool_proj
I0403 15:27:52.999979 31924 net.cpp:148] Top shape: 24 64 14 14 (301056)
I0403 15:27:52.999995 31924 net.cpp:156] Memory required for data: 1063013664
I0403 15:27:53.000012 31924 layer_factory.hpp:77] Creating layer inception_4c/output
I0403 15:27:53.000033 31924 net.cpp:91] Creating Layer inception_4c/output
I0403 15:27:53.000051 31924 net.cpp:425] inception_4c/output <- inception_4c/1x1
I0403 15:27:53.000072 31924 net.cpp:425] inception_4c/output <- inception_4c/3x3
I0403 15:27:53.000089 31924 net.cpp:425] inception_4c/output <- inception_4c/5x5
I0403 15:27:53.000108 31924 net.cpp:425] inception_4c/output <- inception_4c/pool_proj
I0403 15:27:53.000129 31924 net.cpp:399] inception_4c/output -> inception_4c/output
I0403 15:27:53.000185 31924 net.cpp:141] Setting up inception_4c/output
I0403 15:27:53.000211 31924 net.cpp:148] Top shape: 24 512 14 14 (2408448)
I0403 15:27:53.000226 31924 net.cpp:156] Memory required for data: 1072647456
I0403 15:27:53.000243 31924 layer_factory.hpp:77] Creating layer inception_4c/output_inception_4c/output_0_split
I0403 15:27:53.000262 31924 net.cpp:91] Creating Layer inception_4c/output_inception_4c/output_0_split
I0403 15:27:53.000280 31924 net.cpp:425] inception_4c/output_inception_4c/output_0_split <- inception_4c/output
I0403 15:27:53.000308 31924 net.cpp:399] inception_4c/output_inception_4c/output_0_split -> inception_4c/output_inception_4c/output_0_split_0
I0403 15:27:53.000331 31924 net.cpp:399] inception_4c/output_inception_4c/output_0_split -> inception_4c/output_inception_4c/output_0_split_1
I0403 15:27:53.000355 31924 net.cpp:399] inception_4c/output_inception_4c/output_0_split -> inception_4c/output_inception_4c/output_0_split_2
I0403 15:27:53.000378 31924 net.cpp:399] inception_4c/output_inception_4c/output_0_split -> inception_4c/output_inception_4c/output_0_split_3
I0403 15:27:53.000475 31924 net.cpp:141] Setting up inception_4c/output_inception_4c/output_0_split
I0403 15:27:53.000504 31924 net.cpp:148] Top shape: 24 512 14 14 (2408448)
I0403 15:27:53.000524 31924 net.cpp:148] Top shape: 24 512 14 14 (2408448)
I0403 15:27:53.000541 31924 net.cpp:148] Top shape: 24 512 14 14 (2408448)
I0403 15:27:53.000560 31924 net.cpp:148] Top shape: 24 512 14 14 (2408448)
I0403 15:27:53.000576 31924 net.cpp:156] Memory required for data: 1111182624
I0403 15:27:53.000593 31924 layer_factory.hpp:77] Creating layer inception_4d/1x1
I0403 15:27:53.000617 31924 net.cpp:91] Creating Layer inception_4d/1x1
I0403 15:27:53.000638 31924 net.cpp:425] inception_4d/1x1 <- inception_4c/output_inception_4c/output_0_split_0
I0403 15:27:53.000658 31924 net.cpp:399] inception_4d/1x1 -> inception_4d/1x1
I0403 15:27:53.002149 31924 net.cpp:141] Setting up inception_4d/1x1
I0403 15:27:53.002182 31924 net.cpp:148] Top shape: 24 112 14 14 (526848)
I0403 15:27:53.002199 31924 net.cpp:156] Memory required for data: 1113290016
I0403 15:27:53.002220 31924 layer_factory.hpp:77] Creating layer inception_4d/relu_1x1
I0403 15:27:53.002243 31924 net.cpp:91] Creating Layer inception_4d/relu_1x1
I0403 15:27:53.002262 31924 net.cpp:425] inception_4d/relu_1x1 <- inception_4d/1x1
I0403 15:27:53.002296 31924 net.cpp:386] inception_4d/relu_1x1 -> inception_4d/1x1 (in-place)
I0403 15:27:53.002506 31924 net.cpp:141] Setting up inception_4d/relu_1x1
I0403 15:27:53.002532 31924 net.cpp:148] Top shape: 24 112 14 14 (526848)
I0403 15:27:53.002549 31924 net.cpp:156] Memory required for data: 1115397408
I0403 15:27:53.002567 31924 layer_factory.hpp:77] Creating layer inception_4d/3x3_reduce
I0403 15:27:53.002609 31924 net.cpp:91] Creating Layer inception_4d/3x3_reduce
I0403 15:27:53.002630 31924 net.cpp:425] inception_4d/3x3_reduce <- inception_4c/output_inception_4c/output_0_split_1
I0403 15:27:53.002655 31924 net.cpp:399] inception_4d/3x3_reduce -> inception_4d/3x3_reduce
I0403 15:27:53.004279 31924 net.cpp:141] Setting up inception_4d/3x3_reduce
I0403 15:27:53.004319 31924 net.cpp:148] Top shape: 24 144 14 14 (677376)
I0403 15:27:53.004338 31924 net.cpp:156] Memory required for data: 1118106912
I0403 15:27:53.004359 31924 layer_factory.hpp:77] Creating layer inception_4d/relu_3x3_reduce
I0403 15:27:53.004382 31924 net.cpp:91] Creating Layer inception_4d/relu_3x3_reduce
I0403 15:27:53.004403 31924 net.cpp:425] inception_4d/relu_3x3_reduce <- inception_4d/3x3_reduce
I0403 15:27:53.004423 31924 net.cpp:386] inception_4d/relu_3x3_reduce -> inception_4d/3x3_reduce (in-place)
I0403 15:27:53.004735 31924 net.cpp:141] Setting up inception_4d/relu_3x3_reduce
I0403 15:27:53.004765 31924 net.cpp:148] Top shape: 24 144 14 14 (677376)
I0403 15:27:53.004782 31924 net.cpp:156] Memory required for data: 1120816416
I0403 15:27:53.004801 31924 layer_factory.hpp:77] Creating layer inception_4d/3x3
I0403 15:27:53.004825 31924 net.cpp:91] Creating Layer inception_4d/3x3
I0403 15:27:53.004845 31924 net.cpp:425] inception_4d/3x3 <- inception_4d/3x3_reduce
I0403 15:27:53.004869 31924 net.cpp:399] inception_4d/3x3 -> inception_4d/3x3
I0403 15:27:53.009413 31924 net.cpp:141] Setting up inception_4d/3x3
I0403 15:27:53.009446 31924 net.cpp:148] Top shape: 24 288 14 14 (1354752)
I0403 15:27:53.009465 31924 net.cpp:156] Memory required for data: 1126235424
I0403 15:27:53.009487 31924 layer_factory.hpp:77] Creating layer inception_4d/relu_3x3
I0403 15:27:53.009508 31924 net.cpp:91] Creating Layer inception_4d/relu_3x3
I0403 15:27:53.009527 31924 net.cpp:425] inception_4d/relu_3x3 <- inception_4d/3x3
I0403 15:27:53.009546 31924 net.cpp:386] inception_4d/relu_3x3 -> inception_4d/3x3 (in-place)
I0403 15:27:53.009750 31924 net.cpp:141] Setting up inception_4d/relu_3x3
I0403 15:27:53.009778 31924 net.cpp:148] Top shape: 24 288 14 14 (1354752)
I0403 15:27:53.009795 31924 net.cpp:156] Memory required for data: 1131654432
I0403 15:27:53.009812 31924 layer_factory.hpp:77] Creating layer inception_4d/5x5_reduce
I0403 15:27:53.009837 31924 net.cpp:91] Creating Layer inception_4d/5x5_reduce
I0403 15:27:53.009856 31924 net.cpp:425] inception_4d/5x5_reduce <- inception_4c/output_inception_4c/output_0_split_2
I0403 15:27:53.009882 31924 net.cpp:399] inception_4d/5x5_reduce -> inception_4d/5x5_reduce
I0403 15:27:53.011124 31924 net.cpp:141] Setting up inception_4d/5x5_reduce
I0403 15:27:53.011157 31924 net.cpp:148] Top shape: 24 32 14 14 (150528)
I0403 15:27:53.011176 31924 net.cpp:156] Memory required for data: 1132256544
I0403 15:27:53.011198 31924 layer_factory.hpp:77] Creating layer inception_4d/relu_5x5_reduce
I0403 15:27:53.011219 31924 net.cpp:91] Creating Layer inception_4d/relu_5x5_reduce
I0403 15:27:53.011237 31924 net.cpp:425] inception_4d/relu_5x5_reduce <- inception_4d/5x5_reduce
I0403 15:27:53.011260 31924 net.cpp:386] inception_4d/relu_5x5_reduce -> inception_4d/5x5_reduce (in-place)
I0403 15:27:53.011473 31924 net.cpp:141] Setting up inception_4d/relu_5x5_reduce
I0403 15:27:53.011500 31924 net.cpp:148] Top shape: 24 32 14 14 (150528)
I0403 15:27:53.011518 31924 net.cpp:156] Memory required for data: 1132858656
I0403 15:27:53.011534 31924 layer_factory.hpp:77] Creating layer inception_4d/5x5
I0403 15:27:53.011559 31924 net.cpp:91] Creating Layer inception_4d/5x5
I0403 15:27:53.011580 31924 net.cpp:425] inception_4d/5x5 <- inception_4d/5x5_reduce
I0403 15:27:53.011605 31924 net.cpp:399] inception_4d/5x5 -> inception_4d/5x5
I0403 15:27:53.013195 31924 net.cpp:141] Setting up inception_4d/5x5
I0403 15:27:53.013224 31924 net.cpp:148] Top shape: 24 64 14 14 (301056)
I0403 15:27:53.013242 31924 net.cpp:156] Memory required for data: 1134062880
I0403 15:27:53.013264 31924 layer_factory.hpp:77] Creating layer inception_4d/relu_5x5
I0403 15:27:53.013305 31924 net.cpp:91] Creating Layer inception_4d/relu_5x5
I0403 15:27:53.013325 31924 net.cpp:425] inception_4d/relu_5x5 <- inception_4d/5x5
I0403 15:27:53.013348 31924 net.cpp:386] inception_4d/relu_5x5 -> inception_4d/5x5 (in-place)
I0403 15:27:53.013675 31924 net.cpp:141] Setting up inception_4d/relu_5x5
I0403 15:27:53.013705 31924 net.cpp:148] Top shape: 24 64 14 14 (301056)
I0403 15:27:53.013721 31924 net.cpp:156] Memory required for data: 1135267104
I0403 15:27:53.013737 31924 layer_factory.hpp:77] Creating layer inception_4d/pool
I0403 15:27:53.013757 31924 net.cpp:91] Creating Layer inception_4d/pool
I0403 15:27:53.013775 31924 net.cpp:425] inception_4d/pool <- inception_4c/output_inception_4c/output_0_split_3
I0403 15:27:53.013798 31924 net.cpp:399] inception_4d/pool -> inception_4d/pool
I0403 15:27:53.013871 31924 net.cpp:141] Setting up inception_4d/pool
I0403 15:27:53.013897 31924 net.cpp:148] Top shape: 24 512 14 14 (2408448)
I0403 15:27:53.013914 31924 net.cpp:156] Memory required for data: 1144900896
I0403 15:27:53.013931 31924 layer_factory.hpp:77] Creating layer inception_4d/pool_proj
I0403 15:27:53.013958 31924 net.cpp:91] Creating Layer inception_4d/pool_proj
I0403 15:27:53.013978 31924 net.cpp:425] inception_4d/pool_proj <- inception_4d/pool
I0403 15:27:53.013999 31924 net.cpp:399] inception_4d/pool_proj -> inception_4d/pool_proj
I0403 15:27:53.015933 31924 net.cpp:141] Setting up inception_4d/pool_proj
I0403 15:27:53.015967 31924 net.cpp:148] Top shape: 24 64 14 14 (301056)
I0403 15:27:53.015986 31924 net.cpp:156] Memory required for data: 1146105120
I0403 15:27:53.016007 31924 layer_factory.hpp:77] Creating layer inception_4d/relu_pool_proj
I0403 15:27:53.016028 31924 net.cpp:91] Creating Layer inception_4d/relu_pool_proj
I0403 15:27:53.016047 31924 net.cpp:425] inception_4d/relu_pool_proj <- inception_4d/pool_proj
I0403 15:27:53.016067 31924 net.cpp:386] inception_4d/relu_pool_proj -> inception_4d/pool_proj (in-place)
I0403 15:27:53.016275 31924 net.cpp:141] Setting up inception_4d/relu_pool_proj
I0403 15:27:53.016307 31924 net.cpp:148] Top shape: 24 64 14 14 (301056)
I0403 15:27:53.016324 31924 net.cpp:156] Memory required for data: 1147309344
I0403 15:27:53.016341 31924 layer_factory.hpp:77] Creating layer inception_4d/output
I0403 15:27:53.016361 31924 net.cpp:91] Creating Layer inception_4d/output
I0403 15:27:53.016379 31924 net.cpp:425] inception_4d/output <- inception_4d/1x1
I0403 15:27:53.016399 31924 net.cpp:425] inception_4d/output <- inception_4d/3x3
I0403 15:27:53.016418 31924 net.cpp:425] inception_4d/output <- inception_4d/5x5
I0403 15:27:53.016438 31924 net.cpp:425] inception_4d/output <- inception_4d/pool_proj
I0403 15:27:53.016459 31924 net.cpp:399] inception_4d/output -> inception_4d/output
I0403 15:27:53.016512 31924 net.cpp:141] Setting up inception_4d/output
I0403 15:27:53.016541 31924 net.cpp:148] Top shape: 24 528 14 14 (2483712)
I0403 15:27:53.016558 31924 net.cpp:156] Memory required for data: 1157244192
I0403 15:27:53.016577 31924 layer_factory.hpp:77] Creating layer inception_4d/output_inception_4d/output_0_split
I0403 15:27:53.016597 31924 net.cpp:91] Creating Layer inception_4d/output_inception_4d/output_0_split
I0403 15:27:53.016615 31924 net.cpp:425] inception_4d/output_inception_4d/output_0_split <- inception_4d/output
I0403 15:27:53.016638 31924 net.cpp:399] inception_4d/output_inception_4d/output_0_split -> inception_4d/output_inception_4d/output_0_split_0
I0403 15:27:53.016662 31924 net.cpp:399] inception_4d/output_inception_4d/output_0_split -> inception_4d/output_inception_4d/output_0_split_1
I0403 15:27:53.016686 31924 net.cpp:399] inception_4d/output_inception_4d/output_0_split -> inception_4d/output_inception_4d/output_0_split_2
I0403 15:27:53.016710 31924 net.cpp:399] inception_4d/output_inception_4d/output_0_split -> inception_4d/output_inception_4d/output_0_split_3
I0403 15:27:53.016731 31924 net.cpp:399] inception_4d/output_inception_4d/output_0_split -> inception_4d/output_inception_4d/output_0_split_4
I0403 15:27:53.016841 31924 net.cpp:141] Setting up inception_4d/output_inception_4d/output_0_split
I0403 15:27:53.016882 31924 net.cpp:148] Top shape: 24 528 14 14 (2483712)
I0403 15:27:53.016901 31924 net.cpp:148] Top shape: 24 528 14 14 (2483712)
I0403 15:27:53.016919 31924 net.cpp:148] Top shape: 24 528 14 14 (2483712)
I0403 15:27:53.016937 31924 net.cpp:148] Top shape: 24 528 14 14 (2483712)
I0403 15:27:53.016955 31924 net.cpp:148] Top shape: 24 528 14 14 (2483712)
I0403 15:27:53.016971 31924 net.cpp:156] Memory required for data: 1206918432
I0403 15:27:53.016988 31924 layer_factory.hpp:77] Creating layer loss2/ave_pool
I0403 15:27:53.017010 31924 net.cpp:91] Creating Layer loss2/ave_pool
I0403 15:27:53.017030 31924 net.cpp:425] loss2/ave_pool <- inception_4d/output_inception_4d/output_0_split_0
I0403 15:27:53.017050 31924 net.cpp:399] loss2/ave_pool -> loss2/ave_pool
I0403 15:27:53.017395 31924 net.cpp:141] Setting up loss2/ave_pool
I0403 15:27:53.017426 31924 net.cpp:148] Top shape: 24 528 4 4 (202752)
I0403 15:27:53.017443 31924 net.cpp:156] Memory required for data: 1207729440
I0403 15:27:53.017462 31924 layer_factory.hpp:77] Creating layer loss2/conv
I0403 15:27:53.017487 31924 net.cpp:91] Creating Layer loss2/conv
I0403 15:27:53.017505 31924 net.cpp:425] loss2/conv <- loss2/ave_pool
I0403 15:27:53.017527 31924 net.cpp:399] loss2/conv -> loss2/conv
I0403 15:27:53.019569 31924 net.cpp:141] Setting up loss2/conv
I0403 15:27:53.019601 31924 net.cpp:148] Top shape: 24 128 4 4 (49152)
I0403 15:27:53.019618 31924 net.cpp:156] Memory required for data: 1207926048
I0403 15:27:53.019639 31924 layer_factory.hpp:77] Creating layer loss2/relu_conv
I0403 15:27:53.019664 31924 net.cpp:91] Creating Layer loss2/relu_conv
I0403 15:27:53.019682 31924 net.cpp:425] loss2/relu_conv <- loss2/conv
I0403 15:27:53.019703 31924 net.cpp:386] loss2/relu_conv -> loss2/conv (in-place)
I0403 15:27:53.020011 31924 net.cpp:141] Setting up loss2/relu_conv
I0403 15:27:53.020040 31924 net.cpp:148] Top shape: 24 128 4 4 (49152)
I0403 15:27:53.020056 31924 net.cpp:156] Memory required for data: 1208122656
I0403 15:27:53.020073 31924 layer_factory.hpp:77] Creating layer loss2/fc
I0403 15:27:53.020099 31924 net.cpp:91] Creating Layer loss2/fc
I0403 15:27:53.020119 31924 net.cpp:425] loss2/fc <- loss2/conv
I0403 15:27:53.020140 31924 net.cpp:399] loss2/fc -> loss2/fc
I0403 15:27:53.038996 31924 net.cpp:141] Setting up loss2/fc
I0403 15:27:53.039041 31924 net.cpp:148] Top shape: 24 1024 (24576)
I0403 15:27:53.039058 31924 net.cpp:156] Memory required for data: 1208220960
I0403 15:27:53.039079 31924 layer_factory.hpp:77] Creating layer loss2/relu_fc
I0403 15:27:53.039100 31924 net.cpp:91] Creating Layer loss2/relu_fc
I0403 15:27:53.039119 31924 net.cpp:425] loss2/relu_fc <- loss2/fc
I0403 15:27:53.039142 31924 net.cpp:386] loss2/relu_fc -> loss2/fc (in-place)
I0403 15:27:53.039489 31924 net.cpp:141] Setting up loss2/relu_fc
I0403 15:27:53.039520 31924 net.cpp:148] Top shape: 24 1024 (24576)
I0403 15:27:53.039537 31924 net.cpp:156] Memory required for data: 1208319264
I0403 15:27:53.039554 31924 layer_factory.hpp:77] Creating layer loss2/drop_fc
I0403 15:27:53.039577 31924 net.cpp:91] Creating Layer loss2/drop_fc
I0403 15:27:53.039595 31924 net.cpp:425] loss2/drop_fc <- loss2/fc
I0403 15:27:53.039618 31924 net.cpp:386] loss2/drop_fc -> loss2/fc (in-place)
I0403 15:27:53.039672 31924 net.cpp:141] Setting up loss2/drop_fc
I0403 15:27:53.039696 31924 net.cpp:148] Top shape: 24 1024 (24576)
I0403 15:27:53.039713 31924 net.cpp:156] Memory required for data: 1208417568
I0403 15:27:53.039731 31924 layer_factory.hpp:77] Creating layer loss2/classifier_plantvillage
I0403 15:27:53.039755 31924 net.cpp:91] Creating Layer loss2/classifier_plantvillage
I0403 15:27:53.039775 31924 net.cpp:425] loss2/classifier_plantvillage <- loss2/fc
I0403 15:27:53.039798 31924 net.cpp:399] loss2/classifier_plantvillage -> loss2/classifier_plantvillage
I0403 15:27:53.040235 31924 net.cpp:141] Setting up loss2/classifier_plantvillage
I0403 15:27:53.040261 31924 net.cpp:148] Top shape: 24 38 (912)
I0403 15:27:53.040278 31924 net.cpp:156] Memory required for data: 1208421216
I0403 15:27:53.040325 31924 layer_factory.hpp:77] Creating layer loss2/classifier_plantvillage_loss2/classifier_plantvillage_0_split
I0403 15:27:53.040350 31924 net.cpp:91] Creating Layer loss2/classifier_plantvillage_loss2/classifier_plantvillage_0_split
I0403 15:27:53.040370 31924 net.cpp:425] loss2/classifier_plantvillage_loss2/classifier_plantvillage_0_split <- loss2/classifier_plantvillage
I0403 15:27:53.040390 31924 net.cpp:399] loss2/classifier_plantvillage_loss2/classifier_plantvillage_0_split -> loss2/classifier_plantvillage_loss2/classifier_plantvillage_0_split_0
I0403 15:27:53.040413 31924 net.cpp:399] loss2/classifier_plantvillage_loss2/classifier_plantvillage_0_split -> loss2/classifier_plantvillage_loss2/classifier_plantvillage_0_split_1
I0403 15:27:53.040436 31924 net.cpp:399] loss2/classifier_plantvillage_loss2/classifier_plantvillage_0_split -> loss2/classifier_plantvillage_loss2/classifier_plantvillage_0_split_2
I0403 15:27:53.040523 31924 net.cpp:141] Setting up loss2/classifier_plantvillage_loss2/classifier_plantvillage_0_split
I0403 15:27:53.040549 31924 net.cpp:148] Top shape: 24 38 (912)
I0403 15:27:53.040566 31924 net.cpp:148] Top shape: 24 38 (912)
I0403 15:27:53.040585 31924 net.cpp:148] Top shape: 24 38 (912)
I0403 15:27:53.040601 31924 net.cpp:156] Memory required for data: 1208432160
I0403 15:27:53.040616 31924 layer_factory.hpp:77] Creating layer inception_4e/1x1
I0403 15:27:53.040639 31924 net.cpp:91] Creating Layer inception_4e/1x1
I0403 15:27:53.040658 31924 net.cpp:425] inception_4e/1x1 <- inception_4d/output_inception_4d/output_0_split_1
I0403 15:27:53.040683 31924 net.cpp:399] inception_4e/1x1 -> inception_4e/1x1
I0403 15:27:53.042667 31924 net.cpp:141] Setting up inception_4e/1x1
I0403 15:27:53.042698 31924 net.cpp:148] Top shape: 24 256 14 14 (1204224)
I0403 15:27:53.042716 31924 net.cpp:156] Memory required for data: 1213249056
I0403 15:27:53.042737 31924 layer_factory.hpp:77] Creating layer inception_4e/relu_1x1
I0403 15:27:53.042758 31924 net.cpp:91] Creating Layer inception_4e/relu_1x1
I0403 15:27:53.042778 31924 net.cpp:425] inception_4e/relu_1x1 <- inception_4e/1x1
I0403 15:27:53.042798 31924 net.cpp:386] inception_4e/relu_1x1 -> inception_4e/1x1 (in-place)
I0403 15:27:53.043122 31924 net.cpp:141] Setting up inception_4e/relu_1x1
I0403 15:27:53.043149 31924 net.cpp:148] Top shape: 24 256 14 14 (1204224)
I0403 15:27:53.043167 31924 net.cpp:156] Memory required for data: 1218065952
I0403 15:27:53.043184 31924 layer_factory.hpp:77] Creating layer inception_4e/3x3_reduce
I0403 15:27:53.043210 31924 net.cpp:91] Creating Layer inception_4e/3x3_reduce
I0403 15:27:53.043228 31924 net.cpp:425] inception_4e/3x3_reduce <- inception_4d/output_inception_4d/output_0_split_2
I0403 15:27:53.043253 31924 net.cpp:399] inception_4e/3x3_reduce -> inception_4e/3x3_reduce
I0403 15:27:53.045574 31924 net.cpp:141] Setting up inception_4e/3x3_reduce
I0403 15:27:53.045606 31924 net.cpp:148] Top shape: 24 160 14 14 (752640)
I0403 15:27:53.045624 31924 net.cpp:156] Memory required for data: 1221076512
I0403 15:27:53.045645 31924 layer_factory.hpp:77] Creating layer inception_4e/relu_3x3_reduce
I0403 15:27:53.045666 31924 net.cpp:91] Creating Layer inception_4e/relu_3x3_reduce
I0403 15:27:53.045688 31924 net.cpp:425] inception_4e/relu_3x3_reduce <- inception_4e/3x3_reduce
I0403 15:27:53.045708 31924 net.cpp:386] inception_4e/relu_3x3_reduce -> inception_4e/3x3_reduce (in-place)
I0403 15:27:53.045912 31924 net.cpp:141] Setting up inception_4e/relu_3x3_reduce
I0403 15:27:53.045938 31924 net.cpp:148] Top shape: 24 160 14 14 (752640)
I0403 15:27:53.045955 31924 net.cpp:156] Memory required for data: 1224087072
I0403 15:27:53.045972 31924 layer_factory.hpp:77] Creating layer inception_4e/3x3
I0403 15:27:53.045997 31924 net.cpp:91] Creating Layer inception_4e/3x3
I0403 15:27:53.046016 31924 net.cpp:425] inception_4e/3x3 <- inception_4e/3x3_reduce
I0403 15:27:53.046041 31924 net.cpp:399] inception_4e/3x3 -> inception_4e/3x3
I0403 15:27:53.051405 31924 net.cpp:141] Setting up inception_4e/3x3
I0403 15:27:53.051451 31924 net.cpp:148] Top shape: 24 320 14 14 (1505280)
I0403 15:27:53.051470 31924 net.cpp:156] Memory required for data: 1230108192
I0403 15:27:53.051491 31924 layer_factory.hpp:77] Creating layer inception_4e/relu_3x3
I0403 15:27:53.051514 31924 net.cpp:91] Creating Layer inception_4e/relu_3x3
I0403 15:27:53.051533 31924 net.cpp:425] inception_4e/relu_3x3 <- inception_4e/3x3
I0403 15:27:53.051553 31924 net.cpp:386] inception_4e/relu_3x3 -> inception_4e/3x3 (in-place)
I0403 15:27:53.051879 31924 net.cpp:141] Setting up inception_4e/relu_3x3
I0403 15:27:53.051908 31924 net.cpp:148] Top shape: 24 320 14 14 (1505280)
I0403 15:27:53.051926 31924 net.cpp:156] Memory required for data: 1236129312
I0403 15:27:53.051944 31924 layer_factory.hpp:77] Creating layer inception_4e/5x5_reduce
I0403 15:27:53.051971 31924 net.cpp:91] Creating Layer inception_4e/5x5_reduce
I0403 15:27:53.051992 31924 net.cpp:425] inception_4e/5x5_reduce <- inception_4d/output_inception_4d/output_0_split_3
I0403 15:27:53.052014 31924 net.cpp:399] inception_4e/5x5_reduce -> inception_4e/5x5_reduce
I0403 15:27:53.053181 31924 net.cpp:141] Setting up inception_4e/5x5_reduce
I0403 15:27:53.053212 31924 net.cpp:148] Top shape: 24 32 14 14 (150528)
I0403 15:27:53.053231 31924 net.cpp:156] Memory required for data: 1236731424
I0403 15:27:53.053251 31924 layer_factory.hpp:77] Creating layer inception_4e/relu_5x5_reduce
I0403 15:27:53.053272 31924 net.cpp:91] Creating Layer inception_4e/relu_5x5_reduce
I0403 15:27:53.053295 31924 net.cpp:425] inception_4e/relu_5x5_reduce <- inception_4e/5x5_reduce
I0403 15:27:53.053318 31924 net.cpp:386] inception_4e/relu_5x5_reduce -> inception_4e/5x5_reduce (in-place)
I0403 15:27:53.053643 31924 net.cpp:141] Setting up inception_4e/relu_5x5_reduce
I0403 15:27:53.053670 31924 net.cpp:148] Top shape: 24 32 14 14 (150528)
I0403 15:27:53.053688 31924 net.cpp:156] Memory required for data: 1237333536
I0403 15:27:53.053704 31924 layer_factory.hpp:77] Creating layer inception_4e/5x5
I0403 15:27:53.053746 31924 net.cpp:91] Creating Layer inception_4e/5x5
I0403 15:27:53.053768 31924 net.cpp:425] inception_4e/5x5 <- inception_4e/5x5_reduce
I0403 15:27:53.053791 31924 net.cpp:399] inception_4e/5x5 -> inception_4e/5x5
I0403 15:27:53.055789 31924 net.cpp:141] Setting up inception_4e/5x5
I0403 15:27:53.055822 31924 net.cpp:148] Top shape: 24 128 14 14 (602112)
I0403 15:27:53.055840 31924 net.cpp:156] Memory required for data: 1239741984
I0403 15:27:53.055861 31924 layer_factory.hpp:77] Creating layer inception_4e/relu_5x5
I0403 15:27:53.055882 31924 net.cpp:91] Creating Layer inception_4e/relu_5x5
I0403 15:27:53.055901 31924 net.cpp:425] inception_4e/relu_5x5 <- inception_4e/5x5
I0403 15:27:53.055922 31924 net.cpp:386] inception_4e/relu_5x5 -> inception_4e/5x5 (in-place)
I0403 15:27:53.056140 31924 net.cpp:141] Setting up inception_4e/relu_5x5
I0403 15:27:53.056167 31924 net.cpp:148] Top shape: 24 128 14 14 (602112)
I0403 15:27:53.056185 31924 net.cpp:156] Memory required for data: 1242150432
I0403 15:27:53.056201 31924 layer_factory.hpp:77] Creating layer inception_4e/pool
I0403 15:27:53.056224 31924 net.cpp:91] Creating Layer inception_4e/pool
I0403 15:27:53.056243 31924 net.cpp:425] inception_4e/pool <- inception_4d/output_inception_4d/output_0_split_4
I0403 15:27:53.056263 31924 net.cpp:399] inception_4e/pool -> inception_4e/pool
I0403 15:27:53.056345 31924 net.cpp:141] Setting up inception_4e/pool
I0403 15:27:53.056372 31924 net.cpp:148] Top shape: 24 528 14 14 (2483712)
I0403 15:27:53.056390 31924 net.cpp:156] Memory required for data: 1252085280
I0403 15:27:53.056406 31924 layer_factory.hpp:77] Creating layer inception_4e/pool_proj
I0403 15:27:53.056429 31924 net.cpp:91] Creating Layer inception_4e/pool_proj
I0403 15:27:53.056449 31924 net.cpp:425] inception_4e/pool_proj <- inception_4e/pool
I0403 15:27:53.056473 31924 net.cpp:399] inception_4e/pool_proj -> inception_4e/pool_proj
I0403 15:27:53.058097 31924 net.cpp:141] Setting up inception_4e/pool_proj
I0403 15:27:53.058130 31924 net.cpp:148] Top shape: 24 128 14 14 (602112)
I0403 15:27:53.058162 31924 net.cpp:156] Memory required for data: 1254493728
I0403 15:27:53.058184 31924 layer_factory.hpp:77] Creating layer inception_4e/relu_pool_proj
I0403 15:27:53.058204 31924 net.cpp:91] Creating Layer inception_4e/relu_pool_proj
I0403 15:27:53.058223 31924 net.cpp:425] inception_4e/relu_pool_proj <- inception_4e/pool_proj
I0403 15:27:53.058243 31924 net.cpp:386] inception_4e/relu_pool_proj -> inception_4e/pool_proj (in-place)
I0403 15:27:53.058569 31924 net.cpp:141] Setting up inception_4e/relu_pool_proj
I0403 15:27:53.058600 31924 net.cpp:148] Top shape: 24 128 14 14 (602112)
I0403 15:27:53.058619 31924 net.cpp:156] Memory required for data: 1256902176
I0403 15:27:53.058635 31924 layer_factory.hpp:77] Creating layer inception_4e/output
I0403 15:27:53.058655 31924 net.cpp:91] Creating Layer inception_4e/output
I0403 15:27:53.058673 31924 net.cpp:425] inception_4e/output <- inception_4e/1x1
I0403 15:27:53.058692 31924 net.cpp:425] inception_4e/output <- inception_4e/3x3
I0403 15:27:53.058712 31924 net.cpp:425] inception_4e/output <- inception_4e/5x5
I0403 15:27:53.058730 31924 net.cpp:425] inception_4e/output <- inception_4e/pool_proj
I0403 15:27:53.058748 31924 net.cpp:399] inception_4e/output -> inception_4e/output
I0403 15:27:53.058804 31924 net.cpp:141] Setting up inception_4e/output
I0403 15:27:53.058830 31924 net.cpp:148] Top shape: 24 832 14 14 (3913728)
I0403 15:27:53.058847 31924 net.cpp:156] Memory required for data: 1272557088
I0403 15:27:53.058864 31924 layer_factory.hpp:77] Creating layer pool4/3x3_s2
I0403 15:27:53.058890 31924 net.cpp:91] Creating Layer pool4/3x3_s2
I0403 15:27:53.058909 31924 net.cpp:425] pool4/3x3_s2 <- inception_4e/output
I0403 15:27:53.058930 31924 net.cpp:399] pool4/3x3_s2 -> pool4/3x3_s2
I0403 15:27:53.059005 31924 net.cpp:141] Setting up pool4/3x3_s2
I0403 15:27:53.059031 31924 net.cpp:148] Top shape: 24 832 7 7 (978432)
I0403 15:27:53.059048 31924 net.cpp:156] Memory required for data: 1276470816
I0403 15:27:53.059064 31924 layer_factory.hpp:77] Creating layer pool4/3x3_s2_pool4/3x3_s2_0_split
I0403 15:27:53.059083 31924 net.cpp:91] Creating Layer pool4/3x3_s2_pool4/3x3_s2_0_split
I0403 15:27:53.059101 31924 net.cpp:425] pool4/3x3_s2_pool4/3x3_s2_0_split <- pool4/3x3_s2
I0403 15:27:53.059123 31924 net.cpp:399] pool4/3x3_s2_pool4/3x3_s2_0_split -> pool4/3x3_s2_pool4/3x3_s2_0_split_0
I0403 15:27:53.059147 31924 net.cpp:399] pool4/3x3_s2_pool4/3x3_s2_0_split -> pool4/3x3_s2_pool4/3x3_s2_0_split_1
I0403 15:27:53.059170 31924 net.cpp:399] pool4/3x3_s2_pool4/3x3_s2_0_split -> pool4/3x3_s2_pool4/3x3_s2_0_split_2
I0403 15:27:53.059192 31924 net.cpp:399] pool4/3x3_s2_pool4/3x3_s2_0_split -> pool4/3x3_s2_pool4/3x3_s2_0_split_3
I0403 15:27:53.059299 31924 net.cpp:141] Setting up pool4/3x3_s2_pool4/3x3_s2_0_split
I0403 15:27:53.059329 31924 net.cpp:148] Top shape: 24 832 7 7 (978432)
I0403 15:27:53.059348 31924 net.cpp:148] Top shape: 24 832 7 7 (978432)
I0403 15:27:53.059366 31924 net.cpp:148] Top shape: 24 832 7 7 (978432)
I0403 15:27:53.059383 31924 net.cpp:148] Top shape: 24 832 7 7 (978432)
I0403 15:27:53.059399 31924 net.cpp:156] Memory required for data: 1292125728
I0403 15:27:53.059417 31924 layer_factory.hpp:77] Creating layer inception_5a/1x1
I0403 15:27:53.059442 31924 net.cpp:91] Creating Layer inception_5a/1x1
I0403 15:27:53.059460 31924 net.cpp:425] inception_5a/1x1 <- pool4/3x3_s2_pool4/3x3_s2_0_split_0
I0403 15:27:53.059483 31924 net.cpp:399] inception_5a/1x1 -> inception_5a/1x1
I0403 15:27:53.062564 31924 net.cpp:141] Setting up inception_5a/1x1
I0403 15:27:53.062597 31924 net.cpp:148] Top shape: 24 256 7 7 (301056)
I0403 15:27:53.062614 31924 net.cpp:156] Memory required for data: 1293329952
I0403 15:27:53.062636 31924 layer_factory.hpp:77] Creating layer inception_5a/relu_1x1
I0403 15:27:53.062656 31924 net.cpp:91] Creating Layer inception_5a/relu_1x1
I0403 15:27:53.062674 31924 net.cpp:425] inception_5a/relu_1x1 <- inception_5a/1x1
I0403 15:27:53.062697 31924 net.cpp:386] inception_5a/relu_1x1 -> inception_5a/1x1 (in-place)
I0403 15:27:53.063035 31924 net.cpp:141] Setting up inception_5a/relu_1x1
I0403 15:27:53.063063 31924 net.cpp:148] Top shape: 24 256 7 7 (301056)
I0403 15:27:53.063081 31924 net.cpp:156] Memory required for data: 1294534176
I0403 15:27:53.063098 31924 layer_factory.hpp:77] Creating layer inception_5a/3x3_reduce
I0403 15:27:53.063123 31924 net.cpp:91] Creating Layer inception_5a/3x3_reduce
I0403 15:27:53.063143 31924 net.cpp:425] inception_5a/3x3_reduce <- pool4/3x3_s2_pool4/3x3_s2_0_split_1
I0403 15:27:53.063168 31924 net.cpp:399] inception_5a/3x3_reduce -> inception_5a/3x3_reduce
I0403 15:27:53.065845 31924 net.cpp:141] Setting up inception_5a/3x3_reduce
I0403 15:27:53.065879 31924 net.cpp:148] Top shape: 24 160 7 7 (188160)
I0403 15:27:53.065898 31924 net.cpp:156] Memory required for data: 1295286816
I0403 15:27:53.065919 31924 layer_factory.hpp:77] Creating layer inception_5a/relu_3x3_reduce
I0403 15:27:53.065939 31924 net.cpp:91] Creating Layer inception_5a/relu_3x3_reduce
I0403 15:27:53.065958 31924 net.cpp:425] inception_5a/relu_3x3_reduce <- inception_5a/3x3_reduce
I0403 15:27:53.065978 31924 net.cpp:386] inception_5a/relu_3x3_reduce -> inception_5a/3x3_reduce (in-place)
I0403 15:27:53.066189 31924 net.cpp:141] Setting up inception_5a/relu_3x3_reduce
I0403 15:27:53.066218 31924 net.cpp:148] Top shape: 24 160 7 7 (188160)
I0403 15:27:53.066236 31924 net.cpp:156] Memory required for data: 1296039456
I0403 15:27:53.066253 31924 layer_factory.hpp:77] Creating layer inception_5a/3x3
I0403 15:27:53.066278 31924 net.cpp:91] Creating Layer inception_5a/3x3
I0403 15:27:53.066303 31924 net.cpp:425] inception_5a/3x3 <- inception_5a/3x3_reduce
I0403 15:27:53.066324 31924 net.cpp:399] inception_5a/3x3 -> inception_5a/3x3
I0403 15:27:53.071751 31924 net.cpp:141] Setting up inception_5a/3x3
I0403 15:27:53.071784 31924 net.cpp:148] Top shape: 24 320 7 7 (376320)
I0403 15:27:53.071802 31924 net.cpp:156] Memory required for data: 1297544736
I0403 15:27:53.071823 31924 layer_factory.hpp:77] Creating layer inception_5a/relu_3x3
I0403 15:27:53.071844 31924 net.cpp:91] Creating Layer inception_5a/relu_3x3
I0403 15:27:53.071862 31924 net.cpp:425] inception_5a/relu_3x3 <- inception_5a/3x3
I0403 15:27:53.071884 31924 net.cpp:386] inception_5a/relu_3x3 -> inception_5a/3x3 (in-place)
I0403 15:27:53.072207 31924 net.cpp:141] Setting up inception_5a/relu_3x3
I0403 15:27:53.072235 31924 net.cpp:148] Top shape: 24 320 7 7 (376320)
I0403 15:27:53.072252 31924 net.cpp:156] Memory required for data: 1299050016
I0403 15:27:53.072269 31924 layer_factory.hpp:77] Creating layer inception_5a/5x5_reduce
I0403 15:27:53.072299 31924 net.cpp:91] Creating Layer inception_5a/5x5_reduce
I0403 15:27:53.072320 31924 net.cpp:425] inception_5a/5x5_reduce <- pool4/3x3_s2_pool4/3x3_s2_0_split_2
I0403 15:27:53.072346 31924 net.cpp:399] inception_5a/5x5_reduce -> inception_5a/5x5_reduce
I0403 15:27:53.073645 31924 net.cpp:141] Setting up inception_5a/5x5_reduce
I0403 15:27:53.073678 31924 net.cpp:148] Top shape: 24 32 7 7 (37632)
I0403 15:27:53.073698 31924 net.cpp:156] Memory required for data: 1299200544
I0403 15:27:53.073719 31924 layer_factory.hpp:77] Creating layer inception_5a/relu_5x5_reduce
I0403 15:27:53.073741 31924 net.cpp:91] Creating Layer inception_5a/relu_5x5_reduce
I0403 15:27:53.073761 31924 net.cpp:425] inception_5a/relu_5x5_reduce <- inception_5a/5x5_reduce
I0403 15:27:53.073781 31924 net.cpp:386] inception_5a/relu_5x5_reduce -> inception_5a/5x5_reduce (in-place)
I0403 15:27:53.074113 31924 net.cpp:141] Setting up inception_5a/relu_5x5_reduce
I0403 15:27:53.074141 31924 net.cpp:148] Top shape: 24 32 7 7 (37632)
I0403 15:27:53.074158 31924 net.cpp:156] Memory required for data: 1299351072
I0403 15:27:53.074174 31924 layer_factory.hpp:77] Creating layer inception_5a/5x5
I0403 15:27:53.074199 31924 net.cpp:91] Creating Layer inception_5a/5x5
I0403 15:27:53.074219 31924 net.cpp:425] inception_5a/5x5 <- inception_5a/5x5_reduce
I0403 15:27:53.074244 31924 net.cpp:399] inception_5a/5x5 -> inception_5a/5x5
I0403 15:27:53.076084 31924 net.cpp:141] Setting up inception_5a/5x5
I0403 15:27:53.076127 31924 net.cpp:148] Top shape: 24 128 7 7 (150528)
I0403 15:27:53.076144 31924 net.cpp:156] Memory required for data: 1299953184
I0403 15:27:53.076164 31924 layer_factory.hpp:77] Creating layer inception_5a/relu_5x5
I0403 15:27:53.076184 31924 net.cpp:91] Creating Layer inception_5a/relu_5x5
I0403 15:27:53.076202 31924 net.cpp:425] inception_5a/relu_5x5 <- inception_5a/5x5
I0403 15:27:53.076223 31924 net.cpp:386] inception_5a/relu_5x5 -> inception_5a/5x5 (in-place)
I0403 15:27:53.076433 31924 net.cpp:141] Setting up inception_5a/relu_5x5
I0403 15:27:53.076460 31924 net.cpp:148] Top shape: 24 128 7 7 (150528)
I0403 15:27:53.076477 31924 net.cpp:156] Memory required for data: 1300555296
I0403 15:27:53.076493 31924 layer_factory.hpp:77] Creating layer inception_5a/pool
I0403 15:27:53.076514 31924 net.cpp:91] Creating Layer inception_5a/pool
I0403 15:27:53.076532 31924 net.cpp:425] inception_5a/pool <- pool4/3x3_s2_pool4/3x3_s2_0_split_3
I0403 15:27:53.076552 31924 net.cpp:399] inception_5a/pool -> inception_5a/pool
I0403 15:27:53.076629 31924 net.cpp:141] Setting up inception_5a/pool
I0403 15:27:53.076655 31924 net.cpp:148] Top shape: 24 832 7 7 (978432)
I0403 15:27:53.076671 31924 net.cpp:156] Memory required for data: 1304469024
I0403 15:27:53.076688 31924 layer_factory.hpp:77] Creating layer inception_5a/pool_proj
I0403 15:27:53.076711 31924 net.cpp:91] Creating Layer inception_5a/pool_proj
I0403 15:27:53.076731 31924 net.cpp:425] inception_5a/pool_proj <- inception_5a/pool
I0403 15:27:53.076756 31924 net.cpp:399] inception_5a/pool_proj -> inception_5a/pool_proj
I0403 15:27:53.079195 31924 net.cpp:141] Setting up inception_5a/pool_proj
I0403 15:27:53.079231 31924 net.cpp:148] Top shape: 24 128 7 7 (150528)
I0403 15:27:53.079251 31924 net.cpp:156] Memory required for data: 1305071136
I0403 15:27:53.079272 31924 layer_factory.hpp:77] Creating layer inception_5a/relu_pool_proj
I0403 15:27:53.079298 31924 net.cpp:91] Creating Layer inception_5a/relu_pool_proj
I0403 15:27:53.079318 31924 net.cpp:425] inception_5a/relu_pool_proj <- inception_5a/pool_proj
I0403 15:27:53.079339 31924 net.cpp:386] inception_5a/relu_pool_proj -> inception_5a/pool_proj (in-place)
I0403 15:27:53.079659 31924 net.cpp:141] Setting up inception_5a/relu_pool_proj
I0403 15:27:53.079690 31924 net.cpp:148] Top shape: 24 128 7 7 (150528)
I0403 15:27:53.079709 31924 net.cpp:156] Memory required for data: 1305673248
I0403 15:27:53.079725 31924 layer_factory.hpp:77] Creating layer inception_5a/output
I0403 15:27:53.079746 31924 net.cpp:91] Creating Layer inception_5a/output
I0403 15:27:53.079763 31924 net.cpp:425] inception_5a/output <- inception_5a/1x1
I0403 15:27:53.079782 31924 net.cpp:425] inception_5a/output <- inception_5a/3x3
I0403 15:27:53.079800 31924 net.cpp:425] inception_5a/output <- inception_5a/5x5
I0403 15:27:53.079818 31924 net.cpp:425] inception_5a/output <- inception_5a/pool_proj
I0403 15:27:53.079840 31924 net.cpp:399] inception_5a/output -> inception_5a/output
I0403 15:27:53.079895 31924 net.cpp:141] Setting up inception_5a/output
I0403 15:27:53.079921 31924 net.cpp:148] Top shape: 24 832 7 7 (978432)
I0403 15:27:53.079938 31924 net.cpp:156] Memory required for data: 1309586976
I0403 15:27:53.079955 31924 layer_factory.hpp:77] Creating layer inception_5a/output_inception_5a/output_0_split
I0403 15:27:53.079978 31924 net.cpp:91] Creating Layer inception_5a/output_inception_5a/output_0_split
I0403 15:27:53.079998 31924 net.cpp:425] inception_5a/output_inception_5a/output_0_split <- inception_5a/output
I0403 15:27:53.080018 31924 net.cpp:399] inception_5a/output_inception_5a/output_0_split -> inception_5a/output_inception_5a/output_0_split_0
I0403 15:27:53.080040 31924 net.cpp:399] inception_5a/output_inception_5a/output_0_split -> inception_5a/output_inception_5a/output_0_split_1
I0403 15:27:53.080062 31924 net.cpp:399] inception_5a/output_inception_5a/output_0_split -> inception_5a/output_inception_5a/output_0_split_2
I0403 15:27:53.080090 31924 net.cpp:399] inception_5a/output_inception_5a/output_0_split -> inception_5a/output_inception_5a/output_0_split_3
I0403 15:27:53.080211 31924 net.cpp:141] Setting up inception_5a/output_inception_5a/output_0_split
I0403 15:27:53.080237 31924 net.cpp:148] Top shape: 24 832 7 7 (978432)
I0403 15:27:53.080256 31924 net.cpp:148] Top shape: 24 832 7 7 (978432)
I0403 15:27:53.080274 31924 net.cpp:148] Top shape: 24 832 7 7 (978432)
I0403 15:27:53.080297 31924 net.cpp:148] Top shape: 24 832 7 7 (978432)
I0403 15:27:53.080314 31924 net.cpp:156] Memory required for data: 1325241888
I0403 15:27:53.080330 31924 layer_factory.hpp:77] Creating layer inception_5b/1x1
I0403 15:27:53.080355 31924 net.cpp:91] Creating Layer inception_5b/1x1
I0403 15:27:53.080376 31924 net.cpp:425] inception_5b/1x1 <- inception_5a/output_inception_5a/output_0_split_0
I0403 15:27:53.080400 31924 net.cpp:399] inception_5b/1x1 -> inception_5b/1x1
I0403 15:27:53.084447 31924 net.cpp:141] Setting up inception_5b/1x1
I0403 15:27:53.084483 31924 net.cpp:148] Top shape: 24 384 7 7 (451584)
I0403 15:27:53.084502 31924 net.cpp:156] Memory required for data: 1327048224
I0403 15:27:53.084523 31924 layer_factory.hpp:77] Creating layer inception_5b/relu_1x1
I0403 15:27:53.084543 31924 net.cpp:91] Creating Layer inception_5b/relu_1x1
I0403 15:27:53.084563 31924 net.cpp:425] inception_5b/relu_1x1 <- inception_5b/1x1
I0403 15:27:53.084583 31924 net.cpp:386] inception_5b/relu_1x1 -> inception_5b/1x1 (in-place)
I0403 15:27:53.084916 31924 net.cpp:141] Setting up inception_5b/relu_1x1
I0403 15:27:53.084947 31924 net.cpp:148] Top shape: 24 384 7 7 (451584)
I0403 15:27:53.084965 31924 net.cpp:156] Memory required for data: 1328854560
I0403 15:27:53.084982 31924 layer_factory.hpp:77] Creating layer inception_5b/3x3_reduce
I0403 15:27:53.085005 31924 net.cpp:91] Creating Layer inception_5b/3x3_reduce
I0403 15:27:53.085024 31924 net.cpp:425] inception_5b/3x3_reduce <- inception_5a/output_inception_5a/output_0_split_1
I0403 15:27:53.085052 31924 net.cpp:399] inception_5b/3x3_reduce -> inception_5b/3x3_reduce
I0403 15:27:53.087931 31924 net.cpp:141] Setting up inception_5b/3x3_reduce
I0403 15:27:53.087965 31924 net.cpp:148] Top shape: 24 192 7 7 (225792)
I0403 15:27:53.087985 31924 net.cpp:156] Memory required for data: 1329757728
I0403 15:27:53.088006 31924 layer_factory.hpp:77] Creating layer inception_5b/relu_3x3_reduce
I0403 15:27:53.088027 31924 net.cpp:91] Creating Layer inception_5b/relu_3x3_reduce
I0403 15:27:53.088044 31924 net.cpp:425] inception_5b/relu_3x3_reduce <- inception_5b/3x3_reduce
I0403 15:27:53.088066 31924 net.cpp:386] inception_5b/relu_3x3_reduce -> inception_5b/3x3_reduce (in-place)
I0403 15:27:53.088277 31924 net.cpp:141] Setting up inception_5b/relu_3x3_reduce
I0403 15:27:53.088309 31924 net.cpp:148] Top shape: 24 192 7 7 (225792)
I0403 15:27:53.088326 31924 net.cpp:156] Memory required for data: 1330660896
I0403 15:27:53.088343 31924 layer_factory.hpp:77] Creating layer inception_5b/3x3
I0403 15:27:53.088368 31924 net.cpp:91] Creating Layer inception_5b/3x3
I0403 15:27:53.088388 31924 net.cpp:425] inception_5b/3x3 <- inception_5b/3x3_reduce
I0403 15:27:53.088414 31924 net.cpp:399] inception_5b/3x3 -> inception_5b/3x3
I0403 15:27:53.095620 31924 net.cpp:141] Setting up inception_5b/3x3
I0403 15:27:53.095654 31924 net.cpp:148] Top shape: 24 384 7 7 (451584)
I0403 15:27:53.095672 31924 net.cpp:156] Memory required for data: 1332467232
I0403 15:27:53.095693 31924 layer_factory.hpp:77] Creating layer inception_5b/relu_3x3
I0403 15:27:53.095715 31924 net.cpp:91] Creating Layer inception_5b/relu_3x3
I0403 15:27:53.095733 31924 net.cpp:425] inception_5b/relu_3x3 <- inception_5b/3x3
I0403 15:27:53.095755 31924 net.cpp:386] inception_5b/relu_3x3 -> inception_5b/3x3 (in-place)
I0403 15:27:53.096082 31924 net.cpp:141] Setting up inception_5b/relu_3x3
I0403 15:27:53.096113 31924 net.cpp:148] Top shape: 24 384 7 7 (451584)
I0403 15:27:53.096132 31924 net.cpp:156] Memory required for data: 1334273568
I0403 15:27:53.096149 31924 layer_factory.hpp:77] Creating layer inception_5b/5x5_reduce
I0403 15:27:53.096190 31924 net.cpp:91] Creating Layer inception_5b/5x5_reduce
I0403 15:27:53.096211 31924 net.cpp:425] inception_5b/5x5_reduce <- inception_5a/output_inception_5a/output_0_split_2
I0403 15:27:53.096235 31924 net.cpp:399] inception_5b/5x5_reduce -> inception_5b/5x5_reduce
I0403 15:27:53.097627 31924 net.cpp:141] Setting up inception_5b/5x5_reduce
I0403 15:27:53.097659 31924 net.cpp:148] Top shape: 24 48 7 7 (56448)
I0403 15:27:53.097678 31924 net.cpp:156] Memory required for data: 1334499360
I0403 15:27:53.097699 31924 layer_factory.hpp:77] Creating layer inception_5b/relu_5x5_reduce
I0403 15:27:53.097720 31924 net.cpp:91] Creating Layer inception_5b/relu_5x5_reduce
I0403 15:27:53.097739 31924 net.cpp:425] inception_5b/relu_5x5_reduce <- inception_5b/5x5_reduce
I0403 15:27:53.097759 31924 net.cpp:386] inception_5b/relu_5x5_reduce -> inception_5b/5x5_reduce (in-place)
I0403 15:27:53.098172 31924 net.cpp:141] Setting up inception_5b/relu_5x5_reduce
I0403 15:27:53.098201 31924 net.cpp:148] Top shape: 24 48 7 7 (56448)
I0403 15:27:53.098219 31924 net.cpp:156] Memory required for data: 1334725152
I0403 15:27:53.098237 31924 layer_factory.hpp:77] Creating layer inception_5b/5x5
I0403 15:27:53.098260 31924 net.cpp:91] Creating Layer inception_5b/5x5
I0403 15:27:53.098280 31924 net.cpp:425] inception_5b/5x5 <- inception_5b/5x5_reduce
I0403 15:27:53.098306 31924 net.cpp:399] inception_5b/5x5 -> inception_5b/5x5
I0403 15:27:53.100479 31924 net.cpp:141] Setting up inception_5b/5x5
I0403 15:27:53.100508 31924 net.cpp:148] Top shape: 24 128 7 7 (150528)
I0403 15:27:53.100525 31924 net.cpp:156] Memory required for data: 1335327264
I0403 15:27:53.100546 31924 layer_factory.hpp:77] Creating layer inception_5b/relu_5x5
I0403 15:27:53.100565 31924 net.cpp:91] Creating Layer inception_5b/relu_5x5
I0403 15:27:53.100584 31924 net.cpp:425] inception_5b/relu_5x5 <- inception_5b/5x5
I0403 15:27:53.100605 31924 net.cpp:386] inception_5b/relu_5x5 -> inception_5b/5x5 (in-place)
I0403 15:27:53.100813 31924 net.cpp:141] Setting up inception_5b/relu_5x5
I0403 15:27:53.100839 31924 net.cpp:148] Top shape: 24 128 7 7 (150528)
I0403 15:27:53.100857 31924 net.cpp:156] Memory required for data: 1335929376
I0403 15:27:53.100873 31924 layer_factory.hpp:77] Creating layer inception_5b/pool
I0403 15:27:53.100895 31924 net.cpp:91] Creating Layer inception_5b/pool
I0403 15:27:53.100914 31924 net.cpp:425] inception_5b/pool <- inception_5a/output_inception_5a/output_0_split_3
I0403 15:27:53.100934 31924 net.cpp:399] inception_5b/pool -> inception_5b/pool
I0403 15:27:53.101013 31924 net.cpp:141] Setting up inception_5b/pool
I0403 15:27:53.101039 31924 net.cpp:148] Top shape: 24 832 7 7 (978432)
I0403 15:27:53.101063 31924 net.cpp:156] Memory required for data: 1339843104
I0403 15:27:53.101080 31924 layer_factory.hpp:77] Creating layer inception_5b/pool_proj
I0403 15:27:53.101105 31924 net.cpp:91] Creating Layer inception_5b/pool_proj
I0403 15:27:53.101125 31924 net.cpp:425] inception_5b/pool_proj <- inception_5b/pool
I0403 15:27:53.101147 31924 net.cpp:399] inception_5b/pool_proj -> inception_5b/pool_proj
I0403 15:27:53.103580 31924 net.cpp:141] Setting up inception_5b/pool_proj
I0403 15:27:53.103613 31924 net.cpp:148] Top shape: 24 128 7 7 (150528)
I0403 15:27:53.103631 31924 net.cpp:156] Memory required for data: 1340445216
I0403 15:27:53.103652 31924 layer_factory.hpp:77] Creating layer inception_5b/relu_pool_proj
I0403 15:27:53.103672 31924 net.cpp:91] Creating Layer inception_5b/relu_pool_proj
I0403 15:27:53.103690 31924 net.cpp:425] inception_5b/relu_pool_proj <- inception_5b/pool_proj
I0403 15:27:53.103713 31924 net.cpp:386] inception_5b/relu_pool_proj -> inception_5b/pool_proj (in-place)
I0403 15:27:53.104032 31924 net.cpp:141] Setting up inception_5b/relu_pool_proj
I0403 15:27:53.104061 31924 net.cpp:148] Top shape: 24 128 7 7 (150528)
I0403 15:27:53.104077 31924 net.cpp:156] Memory required for data: 1341047328
I0403 15:27:53.104094 31924 layer_factory.hpp:77] Creating layer inception_5b/output
I0403 15:27:53.104113 31924 net.cpp:91] Creating Layer inception_5b/output
I0403 15:27:53.104146 31924 net.cpp:425] inception_5b/output <- inception_5b/1x1
I0403 15:27:53.104164 31924 net.cpp:425] inception_5b/output <- inception_5b/3x3
I0403 15:27:53.104183 31924 net.cpp:425] inception_5b/output <- inception_5b/5x5
I0403 15:27:53.104200 31924 net.cpp:425] inception_5b/output <- inception_5b/pool_proj
I0403 15:27:53.104219 31924 net.cpp:399] inception_5b/output -> inception_5b/output
I0403 15:27:53.104276 31924 net.cpp:141] Setting up inception_5b/output
I0403 15:27:53.104312 31924 net.cpp:148] Top shape: 24 1024 7 7 (1204224)
I0403 15:27:53.104331 31924 net.cpp:156] Memory required for data: 1345864224
I0403 15:27:53.104347 31924 layer_factory.hpp:77] Creating layer pool5/7x7_s1
I0403 15:27:53.104382 31924 net.cpp:91] Creating Layer pool5/7x7_s1
I0403 15:27:53.104400 31924 net.cpp:425] pool5/7x7_s1 <- inception_5b/output
I0403 15:27:53.104421 31924 net.cpp:399] pool5/7x7_s1 -> pool5/7x7_s1
I0403 15:27:53.104665 31924 net.cpp:141] Setting up pool5/7x7_s1
I0403 15:27:53.104692 31924 net.cpp:148] Top shape: 24 1024 1 1 (24576)
I0403 15:27:53.104708 31924 net.cpp:156] Memory required for data: 1345962528
I0403 15:27:53.104725 31924 layer_factory.hpp:77] Creating layer pool5/drop_7x7_s1
I0403 15:27:53.104746 31924 net.cpp:91] Creating Layer pool5/drop_7x7_s1
I0403 15:27:53.104776 31924 net.cpp:425] pool5/drop_7x7_s1 <- pool5/7x7_s1
I0403 15:27:53.104799 31924 net.cpp:386] pool5/drop_7x7_s1 -> pool5/7x7_s1 (in-place)
I0403 15:27:53.104851 31924 net.cpp:141] Setting up pool5/drop_7x7_s1
I0403 15:27:53.104879 31924 net.cpp:148] Top shape: 24 1024 1 1 (24576)
I0403 15:27:53.104897 31924 net.cpp:156] Memory required for data: 1346060832
I0403 15:27:53.104912 31924 layer_factory.hpp:77] Creating layer loss3/classifier_plantvillage
I0403 15:27:53.104933 31924 net.cpp:91] Creating Layer loss3/classifier_plantvillage
I0403 15:27:53.104953 31924 net.cpp:425] loss3/classifier_plantvillage <- pool5/7x7_s1
I0403 15:27:53.104974 31924 net.cpp:399] loss3/classifier_plantvillage -> loss3/classifier_plantvillage
I0403 15:27:53.105425 31924 net.cpp:141] Setting up loss3/classifier_plantvillage
I0403 15:27:53.105453 31924 net.cpp:148] Top shape: 24 38 (912)
I0403 15:27:53.105468 31924 net.cpp:156] Memory required for data: 1346064480
I0403 15:27:53.105489 31924 layer_factory.hpp:77] Creating layer loss3/classifier_plantvillage_loss3/classifier_plantvillage_0_split
I0403 15:27:53.105514 31924 net.cpp:91] Creating Layer loss3/classifier_plantvillage_loss3/classifier_plantvillage_0_split
I0403 15:27:53.105531 31924 net.cpp:425] loss3/classifier_plantvillage_loss3/classifier_plantvillage_0_split <- loss3/classifier_plantvillage
I0403 15:27:53.105551 31924 net.cpp:399] loss3/classifier_plantvillage_loss3/classifier_plantvillage_0_split -> loss3/classifier_plantvillage_loss3/classifier_plantvillage_0_split_0
I0403 15:27:53.105574 31924 net.cpp:399] loss3/classifier_plantvillage_loss3/classifier_plantvillage_0_split -> loss3/classifier_plantvillage_loss3/classifier_plantvillage_0_split_1
I0403 15:27:53.105597 31924 net.cpp:399] loss3/classifier_plantvillage_loss3/classifier_plantvillage_0_split -> loss3/classifier_plantvillage_loss3/classifier_plantvillage_0_split_2
I0403 15:27:53.105622 31924 net.cpp:399] loss3/classifier_plantvillage_loss3/classifier_plantvillage_0_split -> loss3/classifier_plantvillage_loss3/classifier_plantvillage_0_split_3
I0403 15:27:53.105733 31924 net.cpp:141] Setting up loss3/classifier_plantvillage_loss3/classifier_plantvillage_0_split
I0403 15:27:53.105759 31924 net.cpp:148] Top shape: 24 38 (912)
I0403 15:27:53.105777 31924 net.cpp:148] Top shape: 24 38 (912)
I0403 15:27:53.105794 31924 net.cpp:148] Top shape: 24 38 (912)
I0403 15:27:53.105813 31924 net.cpp:148] Top shape: 24 38 (912)
I0403 15:27:53.105828 31924 net.cpp:156] Memory required for data: 1346079072
I0403 15:27:53.105844 31924 layer_factory.hpp:77] Creating layer loss1/loss
I0403 15:27:53.105867 31924 net.cpp:91] Creating Layer loss1/loss
I0403 15:27:53.105886 31924 net.cpp:425] loss1/loss <- loss1/classifier_plantvillage_loss1/classifier_plantvillage_0_split_0
I0403 15:27:53.105918 31924 net.cpp:425] loss1/loss <- label_data_1_split_0
…
