…
I0403 15:13:20.917201 31308 net.cpp:313] The NetState phase (1) differed from the phase (0) specified by a rule in layer data
I0403 15:13:20.918378 31308 net.cpp:49] Initializing net from parameters: 
state {
  phase: TEST
}
layer {
  name: "data"
  type: "Data"
  top: "data"
  top: "label"
  include {
    phase: TEST
  }
  transform_param {
    mirror: false
    crop_size: 224
    mean_file: "/home/mohanty/data/final_dataset/lmdb/color-60-40/mean.binaryproto"
  }
  data_param {
    source: "/home/mohanty/data/final_dataset/lmdb/color-60-40/test_db"
    batch_size: 24
    backend: LMDB
  }
}
layer {
  name: "conv1/7x7_s2"
  type: "Convolution"
  bottom: "data"
  top: "conv1/7x7_s2"
  param {
    lr_mult: 1
    decay_mult: 1
  }
  param {
    lr_mult: 2
    decay_mult: 0
  }
  convolution_param {
    num_output: 64
    pad: 3
    kernel_size: 7
    stride: 2
    weight_filler {
      type: "xavier"
      std: 0.1
    }
    bias_filler {
      type: "constant"
      value: 0.2
    }
  }
}
layer {
  name: "conv1/relu_7x7"
  type: "ReLU"
  bottom: "conv1/7x7_s2"
  top: "conv1/7x7_s2"
}
layer {
  name: "pool1/3x3_s2"
  type: "Pooling"
  bottom: "conv1/7x7_s2"
  top: "pool1/3x3_s2"
  pooling_param {
    pool: MAX
    kernel_size: 3
    stride: 2
  }
}
layer {
  name: "pool1/norm1"
  type: "LRN"
  bottom: "pool1/3x3_s2"
  top: "pool1/norm1"
  lrn_param {
    local_size: 5
    alpha: 0.0001
    beta: 0.75
  }
}
layer {
  name: "conv2/3x3_reduce"
  type: "Convolution"
  bottom: "pool1/norm1"
  top: "conv2/3x3_reduce"
  param {
    lr_mult: 1
    decay_mult: 1
  }
  param {
    lr_mult: 2
    decay_mult: 0
  }
  convolution_param {
    num_output: 64
    kernel_size: 1
    weight_filler {
      type: "xavier"
      std: 0.1
    }
    bias_filler {
      type: "constant"
      value: 0.2
    }
  }
}
layer {
  name: "conv2/relu_3x3_reduce"
  type: "ReLU"
  bottom: "conv2/3x3_reduce"
  top: "conv2/3x3_reduce"
}
layer {
  name: "conv2/3x3"
  type: "Convolution"
  bottom: "conv2/3x3_reduce"
  top: "conv2/3x3"
  param {
    lr_mult: 1
    decay_mult: 1
  }
  param {
    lr_mult: 2
    decay_mult: 0
  }
  convolution_param {
    num_output: 192
    pad: 1
    kernel_size: 3
    weight_filler {
      type: "xavier"
      std: 0.03
    }
    bias_filler {
      type: "constant"
      value: 0.2
    }
  }
}
layer {
  name: "conv2/relu_3x3"
  type: "ReLU"
  bottom: "conv2/3x3"
  top: "conv2/3x3"
}
layer {
  name: "conv2/norm2"
  type: "LRN"
  bottom: "conv2/3x3"
  top: "conv2/norm2"
  lrn_param {
    local_size: 5
    alpha: 0.0001
    beta: 0.75
  }
}
layer {
  name: "pool2/3x3_s2"
  type: "Pooling"
  bottom: "conv2/norm2"
  top: "pool2/3x3_s2"
  pooling_param {
    pool: MAX
    kernel_size: 3
    stride: 2
  }
}
layer {
  name: "inception_3a/1x1"
  type: "Convolution"
  bottom: "pool2/3x3_s2"
  top: "inception_3a/1x1"
  param {
    lr_mult: 1
    decay_mult: 1
  }
  param {
    lr_mult: 2
    decay_mult: 0
  }
  convolution_param {
    num_output: 64
    kernel_size: 1
    weight_filler {
      type: "xavier"
      std: 0.03
    }
    bias_filler {
      type: "constant"
      value: 0.2
    }
  }
}
layer {
  name: "inception_3a/relu_1x1"
  type: "ReLU"
  bottom: "inception_3a/1x1"
  top: "inception_3a/1x1"
}
layer {
  name: "inception_3a/3x3_reduce"
  type: "Convolution"
  bottom: "pool2/3x3_s2"
  top: "inception_3a/3x3_reduce"
  param {
    lr_mult: 1
    decay_mult: 1
  }
  param {
    lr_mult: 2
    decay_mult: 0
  }
  convolution_param {
    num_output: 96
    kernel_size: 1
    weight_filler {
      type: "xavier"
      std: 0.09
    }
    bias_filler {
      type: "constant"
      value: 0.2
    }
  }
}
layer {
  name: "inception_3a/relu_3x3_reduce"
  type: "ReLU"
  bottom: "inception_3a/3x3_reduce"
  top: "inception_3a/3x3_reduce"
}
layer {
  name: "inception_3a/3x3"
  type: "Convolution"
  bottom: "inception_3a/3x3_reduce"
  top: "inception_3a/3x3"
  param {
    lr_mult: 1
    decay_mult: 1
  }
  param {
    lr_mult: 2
    decay_mult: 0
  }
  convolution_param {
    num_output: 128
    pad: 1
    kernel_size: 3
    weight_filler {
      type: "xavier"
      std: 0.03
    }
    bias_filler {
      type: "constant"
      value: 0.2
    }
  }
}
layer {
  name: "inception_3a/relu_3x3"
  type: "ReLU"
  bottom: "inception_3a/3x3"
  top: "inception_3a/3x3"
}
layer {
  name: "inception_3a/5x5_reduce"
  type: "Convolution"
  bottom: "pool2/3x3_s2"
  top: "inception_3a/5x5_reduce"
  param {
    lr_mult: 1
    decay_mult: 1
  }
  param {
    lr_mult: 2
    decay_mult: 0
  }
  convolution_param {
    num_output: 16
    kernel_size: 1
    weight_filler {
      type: "xavier"
      std: 0.2
    }
    bias_filler {
      type: "constant"
      value: 0.2
    }
  }
}
layer {
  name: "inception_3a/relu_5x5_reduce"
  type: "ReLU"
  bottom: "inception_3a/5x5_reduce"
  top: "inception_3a/5x5_reduce"
}
layer {
  name: "inception_3a/5x5"
  type: "Convolution"
  bottom: "inception_3a/5x5_reduce"
  top: "inception_3a/5x5"
  param {
    lr_mult: 1
    decay_mult: 1
  }
  param {
    lr_mult: 2
    decay_mult: 0
  }
  convolution_param {
    num_output: 32
    pad: 2
    kernel_size: 5
    weight_filler {
      type: "xavier"
      std: 0.03
    }
    bias_filler {
      type: "constant"
      value: 0.2
    }
  }
}
layer {
  name: "inception_3a/relu_5x5"
  type: "ReLU"
  bottom: "inception_3a/5x5"
  top: "inception_3a/5x5"
}
layer {
  name: "inception_3a/pool"
  type: "Pooling"
  bottom: "pool2/3x3_s2"
  top: "inception_3a/pool"
  pooling_param {
    pool: MAX
    kernel_size: 3
    stride: 1
    pad: 1
  }
}
layer {
  name: "inception_3a/pool_proj"
  type: "Convolution"
  bottom: "inception_3a/pool"
  top: "inception_3a/pool_proj"
  param {
    lr_mult: 1
    decay_mult: 1
  }
  param {
    lr_mult: 2
    decay_mult: 0
  }
  convolution_param {
    num_output: 32
    kernel_size: 1
    weight_filler {
      type: "xavier"
      std: 0.1
    }
    bias_filler {
      type: "constant"
      value: 0.2
    }
  }
}
layer {
  name: "inception_3a/relu_pool_proj"
  type: "ReLU"
  bottom: "inception_3a/pool_proj"
  top: "inception_3a/pool_proj"
}
layer {
  name: "inception_3a/output"
  type: "Concat"
  bottom: "inception_3a/1x1"
  bottom: "inception_3a/3x3"
  bottom: "inception_3a/5x5"
  bottom: "inception_3a/pool_proj"
  top: "inception_3a/output"
}
layer {
  name: "inception_3b/1x1"
  type: "Convolution"
  bottom: "inception_3a/output"
  top: "inception_3b/1x1"
  param {
    lr_mult: 1
    decay_mult: 1
  }
  param {
    lr_mult: 2
    decay_mult: 0
  }
  convolution_param {
    num_output: 128
    kernel_size: 1
    weight_filler {
      type: "xavier"
      std: 0.03
    }
    bias_filler {
      type: "constant"
      value: 0.2
    }
  }
}
layer {
  name: "inception_3b/relu_1x1"
  type: "ReLU"
  bottom: "inception_3b/1x1"
  top: "inception_3b/1x1"
}
layer {
  name: "inception_3b/3x3_reduce"
  type: "Convolution"
  bottom: "inception_3a/output"
  top: "inception_3b/3x3_reduce"
  param {
    lr_mult: 1
    decay_mult: 1
  }
  param {
    lr_mult: 2
    decay_mult: 0
  }
  convolution_param {
    num_output: 128
    kernel_size: 1
    weight_filler {
      type: "xavier"
      std: 0.09
    }
    bias_filler {
      type: "constant"
      value: 0.2
    }
  }
}
layer {
  name: "inception_3b/relu_3x3_reduce"
  type: "ReLU"
  bottom: "inception_3b/3x3_reduce"
  top: "inception_3b/3x3_reduce"
}
layer {
  name: "inception_3b/3x3"
  type: "Convolution"
  bottom: "inception_3b/3x3_reduce"
  top: "inception_3b/3x3"
  param {
    lr_mult: 1
    decay_mult: 1
  }
  param {
    lr_mult: 2
    decay_mult: 0
  }
  convolution_param {
    num_output: 192
    pad: 1
    kernel_size: 3
    weight_filler {
      type: "xavier"
      std: 0.03
    }
    bias_filler {
      type: "constant"
      value: 0.2
    }
  }
}
layer {
  name: "inception_3b/relu_3x3"
  type: "ReLU"
  bottom: "inception_3b/3x3"
  top: "inception_3b/3x3"
}
layer {
  name: "inception_3b/5x5_reduce"
  type: "Convolution"
  bottom: "inception_3a/output"
  top: "inception_3b/5x5_reduce"
  param {
    lr_mult: 1
    decay_mult: 1
  }
  param {
    lr_mult: 2
    decay_mult: 0
  }
  convolution_param {
    num_output: 32
    kernel_size: 1
    weight_filler {
      type: "xavier"
      std: 0.2
    }
    bias_filler {
      type: "constant"
      value: 0.2
    }
  }
}
layer {
  name: "inception_3b/relu_5x5_reduce"
  type: "ReLU"
  bottom: "inception_3b/5x5_reduce"
  top: "inception_3b/5x5_reduce"
}
layer {
  name: "inception_3b/5x5"
  type: "Convolution"
  bottom: "inception_3b/5x5_reduce"
  top: "inception_3b/5x5"
  param {
    lr_mult: 1
    decay_mult: 1
  }
  param {
    lr_mult: 2
    decay_mult: 0
  }
  convolution_param {
    num_output: 96
    pad: 2
    kernel_size: 5
    weight_filler {
      type: "xavier"
      std: 0.03
    }
    bias_filler {
      type: "constant"
      value: 0.2
    }
  }
}
layer {
  name: "inception_3b/relu_5x5"
  type: "ReLU"
  bottom: "inception_3b/5x5"
  top: "inception_3b/5x5"
}
layer {
  name: "inception_3b/pool"
  type: "Pooling"
  bottom: "inception_3a/output"
  top: "inception_3b/pool"
  pooling_param {
    pool: MAX
    kernel_size: 3
    stride: 1
    pad: 1
  }
}
layer {
  name: "inception_3b/pool_proj"
  type: "Convolution"
  bottom: "inception_3b/pool"
  top: "inception_3b/pool_proj"
  param {
    lr_mult: 1
    decay_mult: 1
  }
  param {
    lr_mult: 2
    decay_mult: 0
  }
  convolution_param {
    num_output: 64
    kernel_size: 1
    weight_filler {
      type: "xavier"
      std: 0.1
    }
    bias_filler {
      type: "constant"
      value: 0.2
    }
  }
}
layer {
  name: "inception_3b/relu_pool_proj"
  type: "ReLU"
  bottom: "inception_3b/pool_proj"
  top: "inception_3b/pool_proj"
}
layer {
  name: "inception_3b/output"
  type: "Concat"
  bottom: "inception_3b/1x1"
  bottom: "inception_3b/3x3"
  bottom: "inception_3b/5x5"
  bottom: "inception_3b/pool_proj"
  top: "inception_3b/output"
}
layer {
  name: "pool3/3x3_s2"
  type: "Pooling"
  bottom: "inception_3b/output"
  top: "pool3/3x3_s2"
  pooling_param {
    pool: MAX
    kernel_size: 3
    stride: 2
  }
}
layer {
  name: "inception_4a/1x1"
  type: "Convolution"
  bottom: "pool3/3x3_s2"
  top: "inception_4a/1x1"
  param {
    lr_mult: 1
    decay_mult: 1
  }
  param {
    lr_mult: 2
    decay_mult: 0
  }
  convolution_param {
    num_output: 192
    kernel_size: 1
    weight_filler {
      type: "xavier"
      std: 0.03
    }
    bias_filler {
      type: "constant"
      value: 0.2
    }
  }
}
layer {
  name: "inception_4a/relu_1x1"
  type: "ReLU"
  bottom: "inception_4a/1x1"
  top: "inception_4a/1x1"
}
layer {
  name: "inception_4a/3x3_reduce"
  type: "Convolution"
  bottom: "pool3/3x3_s2"
  top: "inception_4a/3x3_reduce"
  param {
    lr_mult: 1
    decay_mult: 1
  }
  param {
    lr_mult: 2
    decay_mult: 0
  }
  convolution_param {
    num_output: 96
    kernel_size: 1
    weight_filler {
      type: "xavier"
      std: 0.09
    }
    bias_filler {
      type: "constant"
      value: 0.2
    }
  }
}
layer {
  name: "inception_4a/relu_3x3_reduce"
  type: "ReLU"
  bottom: "inception_4a/3x3_reduce"
  top: "inception_4a/3x3_reduce"
}
layer {
  name: "inception_4a/3x3"
  type: "Convolution"
  bottom: "inception_4a/3x3_reduce"
  top: "inception_4a/3x3"
  param {
    lr_mult: 1
    decay_mult: 1
  }
  param {
    lr_mult: 2
    decay_mult: 0
  }
  convolution_param {
    num_output: 208
    pad: 1
    kernel_size: 3
    weight_filler {
      type: "xavier"
      std: 0.03
    }
    bias_filler {
      type: "constant"
      value: 0.2
    }
  }
}
layer {
  name: "inception_4a/relu_3x3"
  type: "ReLU"
  bottom: "inception_4a/3x3"
  top: "inception_4a/3x3"
}
layer {
  name: "inception_4a/5x5_reduce"
  type: "Convolution"
  bottom: "pool3/3x3_s2"
  top: "inception_4a/5x5_reduce"
  param {
    lr_mult: 1
    decay_mult: 1
  }
  param {
    lr_mult: 2
    decay_mult: 0
  }
  convolution_param {
    num_output: 16
    kernel_size: 1
    weight_filler {
      type: "xavier"
      std: 0.2
    }
    bias_filler {
      type: "constant"
      value: 0.2
    }
  }
}
layer {
  name: "inception_4a/relu_5x5_reduce"
  type: "ReLU"
  bottom: "inception_4a/5x5_reduce"
  top: "inception_4a/5x5_reduce"
}
layer {
  name: "inception_4a/5x5"
  type: "Convolution"
  bottom: "inception_4a/5x5_reduce"
  top: "inception_4a/5x5"
  param {
    lr_mult: 1
    decay_mult: 1
  }
  param {
    lr_mult: 2
    decay_mult: 0
  }
  convolution_param {
    num_output: 48
    pad: 2
    kernel_size: 5
    weight_filler {
      type: "xavier"
      std: 0.03
    }
    bias_filler {
      type: "constant"
      value: 0.2
    }
  }
}
layer {
  name: "inception_4a/relu_5x5"
  type: "ReLU"
  bottom: "inception_4a/5x5"
  top: "inception_4a/5x5"
}
layer {
  name: "inception_4a/pool"
  type: "Pooling"
  bottom: "pool3/3x3_s2"
  top: "inception_4a/pool"
  pooling_param {
    pool: MAX
    kernel_size: 3
    stride: 1
    pad: 1
  }
}
layer {
  name: "inception_4a/pool_proj"
  type: "Convolution"
  bottom: "inception_4a/pool"
  top: "inception_4a/pool_proj"
  param {
    lr_mult: 1
    decay_mult: 1
  }
  param {
    lr_mult: 2
    decay_mult: 0
  }
  convolution_param {
    num_output: 64
    kernel_size: 1
    weight_filler {
      type: "xavier"
      std: 0.1
    }
    bias_filler {
      type: "constant"
      value: 0.2
    }
  }
}
layer {
  name: "inception_4a/relu_pool_proj"
  type: "ReLU"
  bottom: "inception_4a/pool_proj"
  top: "inception_4a/pool_proj"
}
layer {
  name: "inception_4a/output"
  type: "Concat"
  bottom: "inception_4a/1x1"
  bottom: "inception_4a/3x3"
  bottom: "inception_4a/5x5"
  bottom: "inception_4a/pool_proj"
  top: "inception_4a/output"
}
layer {
  name: "loss1/ave_pool"
  type: "Pooling"
  bottom: "inception_4a/output"
  top: "loss1/ave_pool"
  pooling_param {
    pool: AVE
    kernel_size: 5
    stride: 3
  }
}
layer {
  name: "loss1/conv"
  type: "Convolution"
  bottom: "loss1/ave_pool"
  top: "loss1/conv"
  param {
    lr_mult: 1
    decay_mult: 1
  }
  param {
    lr_mult: 2
    decay_mult: 0
  }
  convolution_param {
    num_output: 128
    kernel_size: 1
    weight_filler {
      type: "xavier"
      std: 0.08
    }
    bias_filler {
      type: "constant"
      value: 0.2
    }
  }
}
layer {
  name: "loss1/relu_conv"
  type: "ReLU"
  bottom: "loss1/conv"
  top: "loss1/conv"
}
layer {
  name: "loss1/fc"
  type: "InnerProduct"
  bottom: "loss1/conv"
  top: "loss1/fc"
  param {
    lr_mult: 1
    decay_mult: 1
  }
  param {
    lr_mult: 2
    decay_mult: 0
  }
  inner_product_param {
    num_output: 1024
    weight_filler {
      type: "xavier"
      std: 0.02
    }
    bias_filler {
      type: "constant"
      value: 0.2
    }
  }
}
layer {
  name: "loss1/relu_fc"
  type: "ReLU"
  bottom: "loss1/fc"
  top: "loss1/fc"
}
layer {
  name: "loss1/drop_fc"
  type: "Dropout"
  bottom: "loss1/fc"
  top: "loss1/fc"
  dropout_param {
    dropout_ratio: 0.7
  }
}
layer {
  name: "loss1/classifier_plantvillage"
  type: "InnerProduct"
  bottom: "loss1/fc"
  top: "loss1/classifier_plantvillage"
  param {
    lr_mult: 1
    decay_mult: 1
  }
  param {
    lr_mult: 2
    decay_mult: 0
  }
  inner_product_param {
    num_output: 38
    weight_filler {
      type: "xavier"
      std: 0.0009765625
    }
    bias_filler {
      type: "constant"
      value: 0
    }
  }
}
layer {
  name: "inception_4b/1x1"
  type: "Convolution"
  bottom: "inception_4a/output"
  top: "inception_4b/1x1"
  param {
    lr_mult: 1
    decay_mult: 1
  }
  param {
    lr_mult: 2
    decay_mult: 0
  }
  convolution_param {
    num_output: 160
    kernel_size: 1
    weight_filler {
      type: "xavier"
      std: 0.03
    }
    bias_filler {
      type: "constant"
      value: 0.2
    }
  }
}
layer {
  name: "inception_4b/relu_1x1"
  type: "ReLU"
  bottom: "inception_4b/1x1"
  top: "inception_4b/1x1"
}
layer {
  name: "inception_4b/3x3_reduce"
  type: "Convolution"
  bottom: "inception_4a/output"
  top: "inception_4b/3x3_reduce"
  param {
    lr_mult: 1
    decay_mult: 1
  }
  param {
    lr_mult: 2
    decay_mult: 0
  }
  convolution_param {
    num_output: 112
    kernel_size: 1
    weight_filler {
      type: "xavier"
      std: 0.09
    }
    bias_filler {
      type: "constant"
      value: 0.2
    }
  }
}
layer {
  name: "inception_4b/relu_3x3_reduce"
  type: "ReLU"
  bottom: "inception_4b/3x3_reduce"
  top: "inception_4b/3x3_reduce"
}
layer {
  name: "inception_4b/3x3"
  type: "Convolution"
  bottom: "inception_4b/3x3_reduce"
  top: "inception_4b/3x3"
  param {
    lr_mult: 1
    decay_mult: 1
  }
  param {
    lr_mult: 2
    decay_mult: 0
  }
  convolution_param {
    num_output: 224
    pad: 1
    kernel_size: 3
    weight_filler {
      type: "xavier"
      std: 0.03
    }
    bias_filler {
      type: "constant"
      value: 0.2
    }
  }
}
layer {
  name: "inception_4b/relu_3x3"
  type: "ReLU"
  bottom: "inception_4b/3x3"
  top: "inception_4b/3x3"
}
layer {
  name: "inception_4b/5x5_reduce"
  type: "Convolution"
  bottom: "inception_4a/output"
  top: "inception_4b/5x5_reduce"
  param {
    lr_mult: 1
    decay_mult: 1
  }
  param {
    lr_mult: 2
    decay_mult: 0
  }
  convolution_param {
    num_output: 24
    kernel_size: 1
    weight_filler {
      type: "xavier"
      std: 0.2
    }
    bias_filler {
      type: "constant"
      value: 0.2
    }
  }
}
layer {
  name: "inception_4b/relu_5x5_reduce"
  type: "ReLU"
  bottom: "inception_4b/5x5_reduce"
  top: "inception_4b/5x5_reduce"
}
layer {
  name: "inception_4b/5x5"
  type: "Convolution"
  bottom: "inception_4b/5x5_reduce"
  top: "inception_4b/5x5"
  param {
    lr_mult: 1
    decay_mult: 1
  }
  param {
    lr_mult: 2
    decay_mult: 0
  }
  convolution_param {
    num_output: 64
    pad: 2
    kernel_size: 5
    weight_filler {
      type: "xavier"
      std: 0.03
    }
    bias_filler {
      type: "constant"
      value: 0.2
    }
  }
}
layer {
  name: "inception_4b/relu_5x5"
  type: "ReLU"
  bottom: "inception_4b/5x5"
  top: "inception_4b/5x5"
}
layer {
  name: "inception_4b/pool"
  type: "Pooling"
  bottom: "inception_4a/output"
  top: "inception_4b/pool"
  pooling_param {
    pool: MAX
    kernel_size: 3
    stride: 1
    pad: 1
  }
}
layer {
  name: "inception_4b/pool_proj"
  type: "Convolution"
  bottom: "inception_4b/pool"
  top: "inception_4b/pool_proj"
  param {
    lr_mult: 1
    decay_mult: 1
  }
  param {
    lr_mult: 2
    decay_mult: 0
  }
  convolution_param {
    num_output: 64
    kernel_size: 1
    weight_filler {
      type: "xavier"
      std: 0.1
    }
    bias_filler {
      type: "constant"
      value: 0.2
    }
  }
}
layer {
  name: "inception_4b/relu_pool_proj"
  type: "ReLU"
  bottom: "inception_4b/pool_proj"
  top: "inception_4b/pool_proj"
}
layer {
  name: "inception_4b/output"
  type: "Concat"
  bottom: "inception_4b/1x1"
  bottom: "inception_4b/3x3"
  bottom: "inception_4b/5x5"
  bottom: "inception_4b/pool_proj"
  top: "inception_4b/output"
}
layer {
  name: "inception_4c/1x1"
  type: "Convolution"
  bottom: "inception_4b/output"
  top: "inception_4c/1x1"
  param {
    lr_mult: 1
    decay_mult: 1
  }
  param {
    lr_mult: 2
    decay_mult: 0
  }
  convolution_param {
    num_output: 128
    kernel_size: 1
    weight_filler {
      type: "xavier"
      std: 0.03
    }
    bias_filler {
      type: "constant"
      value: 0.2
    }
  }
}
layer {
  name: "inception_4c/relu_1x1"
  type: "ReLU"
  bottom: "inception_4c/1x1"
  top: "inception_4c/1x1"
}
layer {
  name: "inception_4c/3x3_reduce"
  type: "Convolution"
  bottom: "inception_4b/output"
  top: "inception_4c/3x3_reduce"
  param {
    lr_mult: 1
    decay_mult: 1
  }
  param {
    lr_mult: 2
    decay_mult: 0
  }
  convolution_param {
    num_output: 128
    kernel_size: 1
    weight_filler {
      type: "xavier"
      std: 0.09
    }
    bias_filler {
      type: "constant"
      value: 0.2
    }
  }
}
layer {
  name: "inception_4c/relu_3x3_reduce"
  type: "ReLU"
  bottom: "inception_4c/3x3_reduce"
  top: "inception_4c/3x3_reduce"
}
layer {
  name: "inception_4c/3x3"
  type: "Convolution"
  bottom: "inception_4c/3x3_reduce"
  top: "inception_4c/3x3"
  param {
    lr_mult: 1
    decay_mult: 1
  }
  param {
    lr_mult: 2
    decay_mult: 0
  }
  convolution_param {
    num_output: 256
    pad: 1
    kernel_size: 3
    weight_filler {
      type: "xavier"
      std: 0.03
    }
    bias_filler {
      type: "constant"
      value: 0.2
    }
  }
}
layer {
  name: "inception_4c/relu_3x3"
  type: "ReLU"
  bottom: "inception_4c/3x3"
  top: "inception_4c/3x3"
}
layer {
  name: "inception_4c/5x5_reduce"
  type: "Convolution"
  bottom: "inception_4b/output"
  top: "inception_4c/5x5_reduce"
  param {
    lr_mult: 1
    decay_mult: 1
  }
  param {
    lr_mult: 2
    decay_mult: 0
  }
  convolution_param {
    num_output: 24
    kernel_size: 1
    weight_filler {
      type: "xavier"
      std: 0.2
    }
    bias_filler {
      type: "constant"
      value: 0.2
    }
  }
}
layer {
  name: "inception_4c/relu_5x5_reduce"
  type: "ReLU"
  bottom: "inception_4c/5x5_reduce"
  top: "inception_4c/5x5_reduce"
}
layer {
  name: "inception_4c/5x5"
  type: "Convolution"
  bottom: "inception_4c/5x5_reduce"
  top: "inception_4c/5x5"
  param {
    lr_mult: 1
    decay_mult: 1
  }
  param {
    lr_mult: 2
    decay_mult: 0
  }
  convolution_param {
    num_output: 64
    pad: 2
    kernel_size: 5
    weight_filler {
      type: "xavier"
      std: 0.03
    }
    bias_filler {
      type: "constant"
      value: 0.2
    }
  }
}
layer {
  name: "inception_4c/relu_5x5"
  type: "ReLU"
  bottom: "inception_4c/5x5"
  top: "inception_4c/5x5"
}
layer {
  name: "inception_4c/pool"
  type: "Pooling"
  bottom: "inception_4b/output"
  top: "inception_4c/pool"
  pooling_param {
    pool: MAX
    kernel_size: 3
    stride: 1
    pad: 1
  }
}
layer {
  name: "inception_4c/pool_proj"
  type: "Convolution"
  bottom: "inception_4c/pool"
  top: "inception_4c/pool_proj"
  param {
    lr_mult: 1
    decay_mult: 1
  }
  param {
    lr_mult: 2
    decay_mult: 0
  }
  convolution_param {
    num_output: 64
    kernel_size: 1
    weight_filler {
      type: "xavier"
      std: 0.1
    }
    bias_filler {
      type: "constant"
      value: 0.2
    }
  }
}
layer {
  name: "inception_4c/relu_pool_proj"
  type: "ReLU"
  bottom: "inception_4c/pool_proj"
  top: "inception_4c/pool_proj"
}
layer {
  name: "inception_4c/output"
  type: "Concat"
  bottom: "inception_4c/1x1"
  bottom: "inception_4c/3x3"
  bottom: "inception_4c/5x5"
  bottom: "inception_4c/pool_proj"
  top: "inception_4c/output"
}
layer {
  name: "inception_4d/1x1"
  type: "Convolution"
  bottom: "inception_4c/output"
  top: "inception_4d/1x1"
  param {
    lr_mult: 1
    decay_mult: 1
  }
  param {
    lr_mult: 2
    decay_mult: 0
  }
  convolution_param {
    num_output: 112
    kernel_size: 1
    weight_filler {
      type: "xavier"
      std: 0.03
    }
    bias_filler {
      type: "constant"
      value: 0.2
    }
  }
}
layer {
  name: "inception_4d/relu_1x1"
  type: "ReLU"
  bottom: "inception_4d/1x1"
  top: "inception_4d/1x1"
}
layer {
  name: "inception_4d/3x3_reduce"
  type: "Convolution"
  bottom: "inception_4c/output"
  top: "inception_4d/3x3_reduce"
  param {
    lr_mult: 1
    decay_mult: 1
  }
  param {
    lr_mult: 2
    decay_mult: 0
  }
  convolution_param {
    num_output: 144
    kernel_size: 1
    weight_filler {
      type: "xavier"
      std: 0.09
    }
    bias_filler {
      type: "constant"
      value: 0.2
    }
  }
}
layer {
  name: "inception_4d/relu_3x3_reduce"
  type: "ReLU"
  bottom: "inception_4d/3x3_reduce"
  top: "inception_4d/3x3_reduce"
}
layer {
  name: "inception_4d/3x3"
  type: "Convolution"
  bottom: "inception_4d/3x3_reduce"
  top: "inception_4d/3x3"
  param {
    lr_mult: 1
    decay_mult: 1
  }
  param {
    lr_mult: 2
    decay_mult: 0
  }
  convolution_param {
    num_output: 288
    pad: 1
    kernel_size: 3
    weight_filler {
      type: "xavier"
      std: 0.03
    }
    bias_filler {
      type: "constant"
      value: 0.2
    }
  }
}
layer {
  name: "inception_4d/relu_3x3"
  type: "ReLU"
  bottom: "inception_4d/3x3"
  top: "inception_4d/3x3"
}
layer {
  name: "inception_4d/5x5_reduce"
  type: "Convolution"
  bottom: "inception_4c/output"
  top: "inception_4d/5x5_reduce"
  param {
    lr_mult: 1
    decay_mult: 1
  }
  param {
    lr_mult: 2
    decay_mult: 0
  }
  convolution_param {
    num_output: 32
    kernel_size: 1
    weight_filler {
      type: "xavier"
      std: 0.2
    }
    bias_filler {
      type: "constant"
      value: 0.2
    }
  }
}
layer {
  name: "inception_4d/relu_5x5_reduce"
  type: "ReLU"
  bottom: "inception_4d/5x5_reduce"
  top: "inception_4d/5x5_reduce"
}
layer {
  name: "inception_4d/5x5"
  type: "Convolution"
  bottom: "inception_4d/5x5_reduce"
  top: "inception_4d/5x5"
  param {
    lr_mult: 1
    decay_mult: 1
  }
  param {
    lr_mult: 2
    decay_mult: 0
  }
  convolution_param {
    num_output: 64
    pad: 2
    kernel_size: 5
    weight_filler {
      type: "xavier"
      std: 0.03
    }
    bias_filler {
      type: "constant"
      value: 0.2
    }
  }
}
layer {
  name: "inception_4d/relu_5x5"
  type: "ReLU"
  bottom: "inception_4d/5x5"
  top: "inception_4d/5x5"
}
layer {
  name: "inception_4d/pool"
  type: "Pooling"
  bottom: "inception_4c/output"
  top: "inception_4d/pool"
  pooling_param {
    pool: MAX
    kernel_size: 3
    stride: 1
    pad: 1
  }
}
layer {
  name: "inception_4d/pool_proj"
  type: "Convolution"
  bottom: "inception_4d/pool"
  top: "inception_4d/pool_proj"
  param {
    lr_mult: 1
    decay_mult: 1
  }
  param {
    lr_mult: 2
    decay_mult: 0
  }
  convolution_param {
    num_output: 64
    kernel_size: 1
    weight_filler {
      type: "xavier"
      std: 0.1
    }
    bias_filler {
      type: "constant"
      value: 0.2
    }
  }
}
layer {
  name: "inception_4d/relu_pool_proj"
  type: "ReLU"
  bottom: "inception_4d/pool_proj"
  top: "inception_4d/pool_proj"
}
layer {
  name: "inception_4d/output"
  type: "Concat"
  bottom: "inception_4d/1x1"
  bottom: "inception_4d/3x3"
  bottom: "inception_4d/5x5"
  bottom: "inception_4d/pool_proj"
  top: "inception_4d/output"
}
layer {
  name: "loss2/ave_pool"
  type: "Pooling"
  bottom: "inception_4d/output"
  top: "loss2/ave_pool"
  pooling_param {
    pool: AVE
    kernel_size: 5
    stride: 3
  }
}
layer {
  name: "loss2/conv"
  type: "Convolution"
  bottom: "loss2/ave_pool"
  top: "loss2/conv"
  param {
    lr_mult: 1
    decay_mult: 1
  }
  param {
    lr_mult: 2
    decay_mult: 0
  }
  convolution_param {
    num_output: 128
    kernel_size: 1
    weight_filler {
      type: "xavier"
      std: 0.08
    }
    bias_filler {
      type: "constant"
      value: 0.2
    }
  }
}
layer {
  name: "loss2/relu_conv"
  type: "ReLU"
  bottom: "loss2/conv"
  top: "loss2/conv"
}
layer {
  name: "loss2/fc"
  type: "InnerProduct"
  bottom: "loss2/conv"
  top: "loss2/fc"
  param {
    lr_mult: 1
    decay_mult: 1
  }
  param {
    lr_mult: 2
    decay_mult: 0
  }
  inner_product_param {
    num_output: 1024
    weight_filler {
      type: "xavier"
      std: 0.02
    }
    bias_filler {
      type: "constant"
      value: 0.2
    }
  }
}
layer {
  name: "loss2/relu_fc"
  type: "ReLU"
  bottom: "loss2/fc"
  top: "loss2/fc"
}
layer {
  name: "loss2/drop_fc"
  type: "Dropout"
  bottom: "loss2/fc"
  top: "loss2/fc"
  dropout_param {
    dropout_ratio: 0.7
  }
}
layer {
  name: "loss2/classifier_plantvillage"
  type: "InnerProduct"
  bottom: "loss2/fc"
  top: "loss2/classifier_plantvillage"
  param {
    lr_mult: 1
    decay_mult: 1
  }
  param {
    lr_mult: 2
    decay_mult: 0
  }
  inner_product_param {
    num_output: 38
    weight_filler {
      type: "xavier"
      std: 0.0009765625
    }
    bias_filler {
      type: "constant"
      value: 0
    }
  }
}
layer {
  name: "inception_4e/1x1"
  type: "Convolution"
  bottom: "inception_4d/output"
  top: "inception_4e/1x1"
  param {
    lr_mult: 1
    decay_mult: 1
  }
  param {
    lr_mult: 2
    decay_mult: 0
  }
  convolution_param {
    num_output: 256
    kernel_size: 1
    weight_filler {
      type: "xavier"
      std: 0.03
    }
    bias_filler {
      type: "constant"
      value: 0.2
    }
  }
}
layer {
  name: "inception_4e/relu_1x1"
  type: "ReLU"
  bottom: "inception_4e/1x1"
  top: "inception_4e/1x1"
}
layer {
  name: "inception_4e/3x3_reduce"
  type: "Convolution"
  bottom: "inception_4d/output"
  top: "inception_4e/3x3_reduce"
  param {
    lr_mult: 1
    decay_mult: 1
  }
  param {
    lr_mult: 2
    decay_mult: 0
  }
  convolution_param {
    num_output: 160
    kernel_size: 1
    weight_filler {
      type: "xavier"
      std: 0.09
    }
    bias_filler {
      type: "constant"
      value: 0.2
    }
  }
}
layer {
  name: "inception_4e/relu_3x3_reduce"
  type: "ReLU"
  bottom: "inception_4e/3x3_reduce"
  top: "inception_4e/3x3_reduce"
}
layer {
  name: "inception_4e/3x3"
  type: "Convolution"
  bottom: "inception_4e/3x3_reduce"
  top: "inception_4e/3x3"
  param {
    lr_mult: 1
    decay_mult: 1
  }
  param {
    lr_mult: 2
    decay_mult: 0
  }
  convolution_param {
    num_output: 320
    pad: 1
    kernel_size: 3
    weight_filler {
      type: "xavier"
      std: 0.03
    }
    bias_filler {
      type: "constant"
      value: 0.2
    }
  }
}
layer {
  name: "inception_4e/relu_3x3"
  type: "ReLU"
  bottom: "inception_4e/3x3"
  top: "inception_4e/3x3"
}
layer {
  name: "inception_4e/5x5_reduce"
  type: "Convolution"
  bottom: "inception_4d/output"
  top: "inception_4e/5x5_reduce"
  param {
    lr_mult: 1
    decay_mult: 1
  }
  param {
    lr_mult: 2
    decay_mult: 0
  }
  convolution_param {
    num_output: 32
    kernel_size: 1
    weight_filler {
      type: "xavier"
      std: 0.2
    }
    bias_filler {
      type: "constant"
      value: 0.2
    }
  }
}
layer {
  name: "inception_4e/relu_5x5_reduce"
  type: "ReLU"
  bottom: "inception_4e/5x5_reduce"
  top: "inception_4e/5x5_reduce"
}
layer {
  name: "inception_4e/5x5"
  type: "Convolution"
  bottom: "inception_4e/5x5_reduce"
  top: "inception_4e/5x5"
  p
I0403 15:13:20.919695 31308 layer_factory.hpp:77] Creating layer data
I0403 15:13:20.920303 31308 net.cpp:91] Creating Layer data
I0403 15:13:20.920332 31308 net.cpp:399] data -> data
I0403 15:13:20.920382 31308 net.cpp:399] data -> label
I0403 15:13:20.920421 31308 data_transformer.cpp:25] Loading mean file from: /home/mohanty/data/final_dataset/lmdb/color-60-40/mean.binaryproto
I0403 15:13:20.934803 31311 db_lmdb.cpp:38] Opened lmdb /home/mohanty/data/final_dataset/lmdb/color-60-40/test_db
I0403 15:13:20.939349 31308 data_layer.cpp:41] output data size: 24,3,224,224
I0403 15:13:20.969584 31308 net.cpp:141] Setting up data
I0403 15:13:20.969660 31308 net.cpp:148] Top shape: 24 3 224 224 (3612672)
I0403 15:13:20.969682 31308 net.cpp:148] Top shape: 24 (24)
I0403 15:13:20.969698 31308 net.cpp:156] Memory required for data: 14450784
I0403 15:13:20.969725 31308 layer_factory.hpp:77] Creating layer label_data_1_split
I0403 15:13:20.969753 31308 net.cpp:91] Creating Layer label_data_1_split
I0403 15:13:20.969771 31308 net.cpp:425] label_data_1_split <- label
I0403 15:13:20.969802 31308 net.cpp:399] label_data_1_split -> label_data_1_split_0
I0403 15:13:20.969830 31308 net.cpp:399] label_data_1_split -> label_data_1_split_1
I0403 15:13:20.969851 31308 net.cpp:399] label_data_1_split -> label_data_1_split_2
I0403 15:13:20.969872 31308 net.cpp:399] label_data_1_split -> label_data_1_split_3
I0403 15:13:20.969892 31308 net.cpp:399] label_data_1_split -> label_data_1_split_4
I0403 15:13:20.969913 31308 net.cpp:399] label_data_1_split -> label_data_1_split_5
I0403 15:13:20.969933 31308 net.cpp:399] label_data_1_split -> label_data_1_split_6
I0403 15:13:20.969952 31308 net.cpp:399] label_data_1_split -> label_data_1_split_7
I0403 15:13:20.969971 31308 net.cpp:399] label_data_1_split -> label_data_1_split_8
I0403 15:13:20.969992 31308 net.cpp:399] label_data_1_split -> label_data_1_split_9
I0403 15:13:20.970105 31308 net.cpp:141] Setting up label_data_1_split
I0403 15:13:20.970130 31308 net.cpp:148] Top shape: 24 (24)
I0403 15:13:20.970149 31308 net.cpp:148] Top shape: 24 (24)
I0403 15:13:20.970165 31308 net.cpp:148] Top shape: 24 (24)
I0403 15:13:20.970180 31308 net.cpp:148] Top shape: 24 (24)
I0403 15:13:20.970194 31308 net.cpp:148] Top shape: 24 (24)
I0403 15:13:20.970211 31308 net.cpp:148] Top shape: 24 (24)
I0403 15:13:20.970227 31308 net.cpp:148] Top shape: 24 (24)
I0403 15:13:20.970242 31308 net.cpp:148] Top shape: 24 (24)
I0403 15:13:20.970258 31308 net.cpp:148] Top shape: 24 (24)
I0403 15:13:20.970274 31308 net.cpp:148] Top shape: 24 (24)
I0403 15:13:20.970322 31308 net.cpp:156] Memory required for data: 14451744
I0403 15:13:20.970338 31308 layer_factory.hpp:77] Creating layer conv1/7x7_s2
I0403 15:13:20.970378 31308 net.cpp:91] Creating Layer conv1/7x7_s2
I0403 15:13:20.970398 31308 net.cpp:425] conv1/7x7_s2 <- data
I0403 15:13:20.970418 31308 net.cpp:399] conv1/7x7_s2 -> conv1/7x7_s2
I0403 15:13:23.195530 31308 net.cpp:141] Setting up conv1/7x7_s2
I0403 15:13:23.195590 31308 net.cpp:148] Top shape: 24 64 112 112 (19267584)
I0403 15:13:23.195610 31308 net.cpp:156] Memory required for data: 91522080
I0403 15:13:23.195641 31308 layer_factory.hpp:77] Creating layer conv1/relu_7x7
I0403 15:13:23.195672 31308 net.cpp:91] Creating Layer conv1/relu_7x7
I0403 15:13:23.195690 31308 net.cpp:425] conv1/relu_7x7 <- conv1/7x7_s2
I0403 15:13:23.195709 31308 net.cpp:386] conv1/relu_7x7 -> conv1/7x7_s2 (in-place)
I0403 15:13:23.196053 31308 net.cpp:141] Setting up conv1/relu_7x7
I0403 15:13:23.196084 31308 net.cpp:148] Top shape: 24 64 112 112 (19267584)
I0403 15:13:23.196104 31308 net.cpp:156] Memory required for data: 168592416
I0403 15:13:23.196125 31308 layer_factory.hpp:77] Creating layer pool1/3x3_s2
I0403 15:13:23.196151 31308 net.cpp:91] Creating Layer pool1/3x3_s2
I0403 15:13:23.196171 31308 net.cpp:425] pool1/3x3_s2 <- conv1/7x7_s2
I0403 15:13:23.196192 31308 net.cpp:399] pool1/3x3_s2 -> pool1/3x3_s2
I0403 15:13:23.196271 31308 net.cpp:141] Setting up pool1/3x3_s2
I0403 15:13:23.196303 31308 net.cpp:148] Top shape: 24 64 56 56 (4816896)
I0403 15:13:23.196321 31308 net.cpp:156] Memory required for data: 187860000
I0403 15:13:23.196338 31308 layer_factory.hpp:77] Creating layer pool1/norm1
I0403 15:13:23.196364 31308 net.cpp:91] Creating Layer pool1/norm1
I0403 15:13:23.196383 31308 net.cpp:425] pool1/norm1 <- pool1/3x3_s2
I0403 15:13:23.196403 31308 net.cpp:399] pool1/norm1 -> pool1/norm1
I0403 15:13:23.196701 31308 net.cpp:141] Setting up pool1/norm1
I0403 15:13:23.196730 31308 net.cpp:148] Top shape: 24 64 56 56 (4816896)
I0403 15:13:23.196748 31308 net.cpp:156] Memory required for data: 207127584
I0403 15:13:23.196768 31308 layer_factory.hpp:77] Creating layer conv2/3x3_reduce
I0403 15:13:23.196794 31308 net.cpp:91] Creating Layer conv2/3x3_reduce
I0403 15:13:23.196812 31308 net.cpp:425] conv2/3x3_reduce <- pool1/norm1
I0403 15:13:23.196835 31308 net.cpp:399] conv2/3x3_reduce -> conv2/3x3_reduce
I0403 15:13:23.198258 31308 net.cpp:141] Setting up conv2/3x3_reduce
I0403 15:13:23.198294 31308 net.cpp:148] Top shape: 24 64 56 56 (4816896)
I0403 15:13:23.198314 31308 net.cpp:156] Memory required for data: 226395168
I0403 15:13:23.198336 31308 layer_factory.hpp:77] Creating layer conv2/relu_3x3_reduce
I0403 15:13:23.198359 31308 net.cpp:91] Creating Layer conv2/relu_3x3_reduce
I0403 15:13:23.198379 31308 net.cpp:425] conv2/relu_3x3_reduce <- conv2/3x3_reduce
I0403 15:13:23.198398 31308 net.cpp:386] conv2/relu_3x3_reduce -> conv2/3x3_reduce (in-place)
I0403 15:13:23.198683 31308 net.cpp:141] Setting up conv2/relu_3x3_reduce
I0403 15:13:23.198711 31308 net.cpp:148] Top shape: 24 64 56 56 (4816896)
I0403 15:13:23.198729 31308 net.cpp:156] Memory required for data: 245662752
I0403 15:13:23.198745 31308 layer_factory.hpp:77] Creating layer conv2/3x3
I0403 15:13:23.198772 31308 net.cpp:91] Creating Layer conv2/3x3
I0403 15:13:23.198791 31308 net.cpp:425] conv2/3x3 <- conv2/3x3_reduce
I0403 15:13:23.198812 31308 net.cpp:399] conv2/3x3 -> conv2/3x3
I0403 15:13:23.201370 31308 net.cpp:141] Setting up conv2/3x3
I0403 15:13:23.201406 31308 net.cpp:148] Top shape: 24 192 56 56 (14450688)
I0403 15:13:23.201426 31308 net.cpp:156] Memory required for data: 303465504
I0403 15:13:23.201448 31308 layer_factory.hpp:77] Creating layer conv2/relu_3x3
I0403 15:13:23.201470 31308 net.cpp:91] Creating Layer conv2/relu_3x3
I0403 15:13:23.201488 31308 net.cpp:425] conv2/relu_3x3 <- conv2/3x3
I0403 15:13:23.201511 31308 net.cpp:386] conv2/relu_3x3 -> conv2/3x3 (in-place)
I0403 15:13:23.201705 31308 net.cpp:141] Setting up conv2/relu_3x3
I0403 15:13:23.201735 31308 net.cpp:148] Top shape: 24 192 56 56 (14450688)
I0403 15:13:23.201786 31308 net.cpp:156] Memory required for data: 361268256
I0403 15:13:23.201808 31308 layer_factory.hpp:77] Creating layer conv2/norm2
I0403 15:13:23.201830 31308 net.cpp:91] Creating Layer conv2/norm2
I0403 15:13:23.201848 31308 net.cpp:425] conv2/norm2 <- conv2/3x3
I0403 15:13:23.201866 31308 net.cpp:399] conv2/norm2 -> conv2/norm2
I0403 15:13:23.202191 31308 net.cpp:141] Setting up conv2/norm2
I0403 15:13:23.202221 31308 net.cpp:148] Top shape: 24 192 56 56 (14450688)
I0403 15:13:23.202239 31308 net.cpp:156] Memory required for data: 419071008
I0403 15:13:23.202255 31308 layer_factory.hpp:77] Creating layer pool2/3x3_s2
I0403 15:13:23.202276 31308 net.cpp:91] Creating Layer pool2/3x3_s2
I0403 15:13:23.202299 31308 net.cpp:425] pool2/3x3_s2 <- conv2/norm2
I0403 15:13:23.202321 31308 net.cpp:399] pool2/3x3_s2 -> pool2/3x3_s2
I0403 15:13:23.202379 31308 net.cpp:141] Setting up pool2/3x3_s2
I0403 15:13:23.202404 31308 net.cpp:148] Top shape: 24 192 28 28 (3612672)
I0403 15:13:23.202420 31308 net.cpp:156] Memory required for data: 433521696
I0403 15:13:23.202435 31308 layer_factory.hpp:77] Creating layer pool2/3x3_s2_pool2/3x3_s2_0_split
I0403 15:13:23.202455 31308 net.cpp:91] Creating Layer pool2/3x3_s2_pool2/3x3_s2_0_split
I0403 15:13:23.202471 31308 net.cpp:425] pool2/3x3_s2_pool2/3x3_s2_0_split <- pool2/3x3_s2
I0403 15:13:23.202492 31308 net.cpp:399] pool2/3x3_s2_pool2/3x3_s2_0_split -> pool2/3x3_s2_pool2/3x3_s2_0_split_0
I0403 15:13:23.202514 31308 net.cpp:399] pool2/3x3_s2_pool2/3x3_s2_0_split -> pool2/3x3_s2_pool2/3x3_s2_0_split_1
I0403 15:13:23.202536 31308 net.cpp:399] pool2/3x3_s2_pool2/3x3_s2_0_split -> pool2/3x3_s2_pool2/3x3_s2_0_split_2
I0403 15:13:23.202556 31308 net.cpp:399] pool2/3x3_s2_pool2/3x3_s2_0_split -> pool2/3x3_s2_pool2/3x3_s2_0_split_3
I0403 15:13:23.202632 31308 net.cpp:141] Setting up pool2/3x3_s2_pool2/3x3_s2_0_split
I0403 15:13:23.202657 31308 net.cpp:148] Top shape: 24 192 28 28 (3612672)
I0403 15:13:23.202675 31308 net.cpp:148] Top shape: 24 192 28 28 (3612672)
I0403 15:13:23.202694 31308 net.cpp:148] Top shape: 24 192 28 28 (3612672)
I0403 15:13:23.202714 31308 net.cpp:148] Top shape: 24 192 28 28 (3612672)
I0403 15:13:23.202729 31308 net.cpp:156] Memory required for data: 491324448
I0403 15:13:23.202746 31308 layer_factory.hpp:77] Creating layer inception_3a/1x1
I0403 15:13:23.202771 31308 net.cpp:91] Creating Layer inception_3a/1x1
I0403 15:13:23.202791 31308 net.cpp:425] inception_3a/1x1 <- pool2/3x3_s2_pool2/3x3_s2_0_split_0
I0403 15:13:23.202814 31308 net.cpp:399] inception_3a/1x1 -> inception_3a/1x1
I0403 15:13:23.204432 31308 net.cpp:141] Setting up inception_3a/1x1
I0403 15:13:23.204465 31308 net.cpp:148] Top shape: 24 64 28 28 (1204224)
I0403 15:13:23.204484 31308 net.cpp:156] Memory required for data: 496141344
I0403 15:13:23.204504 31308 layer_factory.hpp:77] Creating layer inception_3a/relu_1x1
I0403 15:13:23.204525 31308 net.cpp:91] Creating Layer inception_3a/relu_1x1
I0403 15:13:23.204542 31308 net.cpp:425] inception_3a/relu_1x1 <- inception_3a/1x1
I0403 15:13:23.204561 31308 net.cpp:386] inception_3a/relu_1x1 -> inception_3a/1x1 (in-place)
I0403 15:13:23.204747 31308 net.cpp:141] Setting up inception_3a/relu_1x1
I0403 15:13:23.204777 31308 net.cpp:148] Top shape: 24 64 28 28 (1204224)
I0403 15:13:23.204794 31308 net.cpp:156] Memory required for data: 500958240
I0403 15:13:23.204810 31308 layer_factory.hpp:77] Creating layer inception_3a/3x3_reduce
I0403 15:13:23.204834 31308 net.cpp:91] Creating Layer inception_3a/3x3_reduce
I0403 15:13:23.204854 31308 net.cpp:425] inception_3a/3x3_reduce <- pool2/3x3_s2_pool2/3x3_s2_0_split_1
I0403 15:13:23.204874 31308 net.cpp:399] inception_3a/3x3_reduce -> inception_3a/3x3_reduce
I0403 15:13:23.206647 31308 net.cpp:141] Setting up inception_3a/3x3_reduce
I0403 15:13:23.206679 31308 net.cpp:148] Top shape: 24 96 28 28 (1806336)
I0403 15:13:23.206696 31308 net.cpp:156] Memory required for data: 508183584
I0403 15:13:23.206722 31308 layer_factory.hpp:77] Creating layer inception_3a/relu_3x3_reduce
I0403 15:13:23.206760 31308 net.cpp:91] Creating Layer inception_3a/relu_3x3_reduce
I0403 15:13:23.206779 31308 net.cpp:425] inception_3a/relu_3x3_reduce <- inception_3a/3x3_reduce
I0403 15:13:23.206801 31308 net.cpp:386] inception_3a/relu_3x3_reduce -> inception_3a/3x3_reduce (in-place)
I0403 15:13:23.206992 31308 net.cpp:141] Setting up inception_3a/relu_3x3_reduce
I0403 15:13:23.207020 31308 net.cpp:148] Top shape: 24 96 28 28 (1806336)
I0403 15:13:23.207036 31308 net.cpp:156] Memory required for data: 515408928
I0403 15:13:23.207051 31308 layer_factory.hpp:77] Creating layer inception_3a/3x3
I0403 15:13:23.207074 31308 net.cpp:91] Creating Layer inception_3a/3x3
I0403 15:13:23.207093 31308 net.cpp:425] inception_3a/3x3 <- inception_3a/3x3_reduce
I0403 15:13:23.207118 31308 net.cpp:399] inception_3a/3x3 -> inception_3a/3x3
I0403 15:13:23.208856 31308 net.cpp:141] Setting up inception_3a/3x3
I0403 15:13:23.208889 31308 net.cpp:148] Top shape: 24 128 28 28 (2408448)
I0403 15:13:23.208906 31308 net.cpp:156] Memory required for data: 525042720
I0403 15:13:23.208926 31308 layer_factory.hpp:77] Creating layer inception_3a/relu_3x3
I0403 15:13:23.208946 31308 net.cpp:91] Creating Layer inception_3a/relu_3x3
I0403 15:13:23.208964 31308 net.cpp:425] inception_3a/relu_3x3 <- inception_3a/3x3
I0403 15:13:23.208986 31308 net.cpp:386] inception_3a/relu_3x3 -> inception_3a/3x3 (in-place)
I0403 15:13:23.209276 31308 net.cpp:141] Setting up inception_3a/relu_3x3
I0403 15:13:23.209314 31308 net.cpp:148] Top shape: 24 128 28 28 (2408448)
I0403 15:13:23.209333 31308 net.cpp:156] Memory required for data: 534676512
I0403 15:13:23.209350 31308 layer_factory.hpp:77] Creating layer inception_3a/5x5_reduce
I0403 15:13:23.209373 31308 net.cpp:91] Creating Layer inception_3a/5x5_reduce
I0403 15:13:23.209398 31308 net.cpp:425] inception_3a/5x5_reduce <- pool2/3x3_s2_pool2/3x3_s2_0_split_2
I0403 15:13:23.209421 31308 net.cpp:399] inception_3a/5x5_reduce -> inception_3a/5x5_reduce
I0403 15:13:23.210433 31308 net.cpp:141] Setting up inception_3a/5x5_reduce
I0403 15:13:23.210464 31308 net.cpp:148] Top shape: 24 16 28 28 (301056)
I0403 15:13:23.210480 31308 net.cpp:156] Memory required for data: 535880736
I0403 15:13:23.210500 31308 layer_factory.hpp:77] Creating layer inception_3a/relu_5x5_reduce
I0403 15:13:23.210522 31308 net.cpp:91] Creating Layer inception_3a/relu_5x5_reduce
I0403 15:13:23.210542 31308 net.cpp:425] inception_3a/relu_5x5_reduce <- inception_3a/5x5_reduce
I0403 15:13:23.210566 31308 net.cpp:386] inception_3a/relu_5x5_reduce -> inception_3a/5x5_reduce (in-place)
I0403 15:13:23.210880 31308 net.cpp:141] Setting up inception_3a/relu_5x5_reduce
I0403 15:13:23.210909 31308 net.cpp:148] Top shape: 24 16 28 28 (301056)
I0403 15:13:23.210927 31308 net.cpp:156] Memory required for data: 537084960
I0403 15:13:23.210942 31308 layer_factory.hpp:77] Creating layer inception_3a/5x5
I0403 15:13:23.210965 31308 net.cpp:91] Creating Layer inception_3a/5x5
I0403 15:13:23.210985 31308 net.cpp:425] inception_3a/5x5 <- inception_3a/5x5_reduce
I0403 15:13:23.211007 31308 net.cpp:399] inception_3a/5x5 -> inception_3a/5x5
I0403 15:13:23.212064 31308 net.cpp:141] Setting up inception_3a/5x5
I0403 15:13:23.212097 31308 net.cpp:148] Top shape: 24 32 28 28 (602112)
I0403 15:13:23.212116 31308 net.cpp:156] Memory required for data: 539493408
I0403 15:13:23.212136 31308 layer_factory.hpp:77] Creating layer inception_3a/relu_5x5
I0403 15:13:23.212157 31308 net.cpp:91] Creating Layer inception_3a/relu_5x5
I0403 15:13:23.212172 31308 net.cpp:425] inception_3a/relu_5x5 <- inception_3a/5x5
I0403 15:13:23.212191 31308 net.cpp:386] inception_3a/relu_5x5 -> inception_3a/5x5 (in-place)
I0403 15:13:23.212381 31308 net.cpp:141] Setting up inception_3a/relu_5x5
I0403 15:13:23.212409 31308 net.cpp:148] Top shape: 24 32 28 28 (602112)
I0403 15:13:23.212425 31308 net.cpp:156] Memory required for data: 541901856
I0403 15:13:23.212441 31308 layer_factory.hpp:77] Creating layer inception_3a/pool
I0403 15:13:23.212460 31308 net.cpp:91] Creating Layer inception_3a/pool
I0403 15:13:23.212477 31308 net.cpp:425] inception_3a/pool <- pool2/3x3_s2_pool2/3x3_s2_0_split_3
I0403 15:13:23.212515 31308 net.cpp:399] inception_3a/pool -> inception_3a/pool
I0403 15:13:23.212577 31308 net.cpp:141] Setting up inception_3a/pool
I0403 15:13:23.212605 31308 net.cpp:148] Top shape: 24 192 28 28 (3612672)
I0403 15:13:23.212622 31308 net.cpp:156] Memory required for data: 556352544
I0403 15:13:23.212638 31308 layer_factory.hpp:77] Creating layer inception_3a/pool_proj
I0403 15:13:23.212662 31308 net.cpp:91] Creating Layer inception_3a/pool_proj
I0403 15:13:23.212682 31308 net.cpp:425] inception_3a/pool_proj <- inception_3a/pool
I0403 15:13:23.212702 31308 net.cpp:399] inception_3a/pool_proj -> inception_3a/pool_proj
I0403 15:13:23.213707 31308 net.cpp:141] Setting up inception_3a/pool_proj
I0403 15:13:23.213737 31308 net.cpp:148] Top shape: 24 32 28 28 (602112)
I0403 15:13:23.213754 31308 net.cpp:156] Memory required for data: 558760992
I0403 15:13:23.213780 31308 layer_factory.hpp:77] Creating layer inception_3a/relu_pool_proj
I0403 15:13:23.213801 31308 net.cpp:91] Creating Layer inception_3a/relu_pool_proj
I0403 15:13:23.213819 31308 net.cpp:425] inception_3a/relu_pool_proj <- inception_3a/pool_proj
I0403 15:13:23.213840 31308 net.cpp:386] inception_3a/relu_pool_proj -> inception_3a/pool_proj (in-place)
I0403 15:13:23.214126 31308 net.cpp:141] Setting up inception_3a/relu_pool_proj
I0403 15:13:23.214157 31308 net.cpp:148] Top shape: 24 32 28 28 (602112)
I0403 15:13:23.214175 31308 net.cpp:156] Memory required for data: 561169440
I0403 15:13:23.214191 31308 layer_factory.hpp:77] Creating layer inception_3a/output
I0403 15:13:23.214210 31308 net.cpp:91] Creating Layer inception_3a/output
I0403 15:13:23.214226 31308 net.cpp:425] inception_3a/output <- inception_3a/1x1
I0403 15:13:23.214244 31308 net.cpp:425] inception_3a/output <- inception_3a/3x3
I0403 15:13:23.214262 31308 net.cpp:425] inception_3a/output <- inception_3a/5x5
I0403 15:13:23.214278 31308 net.cpp:425] inception_3a/output <- inception_3a/pool_proj
I0403 15:13:23.214311 31308 net.cpp:399] inception_3a/output -> inception_3a/output
I0403 15:13:23.214365 31308 net.cpp:141] Setting up inception_3a/output
I0403 15:13:23.214391 31308 net.cpp:148] Top shape: 24 256 28 28 (4816896)
I0403 15:13:23.214407 31308 net.cpp:156] Memory required for data: 580437024
I0403 15:13:23.214422 31308 layer_factory.hpp:77] Creating layer inception_3a/output_inception_3a/output_0_split
I0403 15:13:23.214443 31308 net.cpp:91] Creating Layer inception_3a/output_inception_3a/output_0_split
I0403 15:13:23.214460 31308 net.cpp:425] inception_3a/output_inception_3a/output_0_split <- inception_3a/output
I0403 15:13:23.214479 31308 net.cpp:399] inception_3a/output_inception_3a/output_0_split -> inception_3a/output_inception_3a/output_0_split_0
I0403 15:13:23.214504 31308 net.cpp:399] inception_3a/output_inception_3a/output_0_split -> inception_3a/output_inception_3a/output_0_split_1
I0403 15:13:23.214530 31308 net.cpp:399] inception_3a/output_inception_3a/output_0_split -> inception_3a/output_inception_3a/output_0_split_2
I0403 15:13:23.214553 31308 net.cpp:399] inception_3a/output_inception_3a/output_0_split -> inception_3a/output_inception_3a/output_0_split_3
I0403 15:13:23.214634 31308 net.cpp:141] Setting up inception_3a/output_inception_3a/output_0_split
I0403 15:13:23.214659 31308 net.cpp:148] Top shape: 24 256 28 28 (4816896)
I0403 15:13:23.214678 31308 net.cpp:148] Top shape: 24 256 28 28 (4816896)
I0403 15:13:23.214694 31308 net.cpp:148] Top shape: 24 256 28 28 (4816896)
I0403 15:13:23.214711 31308 net.cpp:148] Top shape: 24 256 28 28 (4816896)
I0403 15:13:23.214726 31308 net.cpp:156] Memory required for data: 657507360
I0403 15:13:23.214743 31308 layer_factory.hpp:77] Creating layer inception_3b/1x1
I0403 15:13:23.214769 31308 net.cpp:91] Creating Layer inception_3b/1x1
I0403 15:13:23.214788 31308 net.cpp:425] inception_3b/1x1 <- inception_3a/output_inception_3a/output_0_split_0
I0403 15:13:23.214808 31308 net.cpp:399] inception_3b/1x1 -> inception_3b/1x1
I0403 15:13:23.215997 31308 net.cpp:141] Setting up inception_3b/1x1
I0403 15:13:23.216039 31308 net.cpp:148] Top shape: 24 128 28 28 (2408448)
I0403 15:13:23.216056 31308 net.cpp:156] Memory required for data: 667141152
I0403 15:13:23.216076 31308 layer_factory.hpp:77] Creating layer inception_3b/relu_1x1
I0403 15:13:23.216099 31308 net.cpp:91] Creating Layer inception_3b/relu_1x1
I0403 15:13:23.216119 31308 net.cpp:425] inception_3b/relu_1x1 <- inception_3b/1x1
I0403 15:13:23.216136 31308 net.cpp:386] inception_3b/relu_1x1 -> inception_3b/1x1 (in-place)
I0403 15:13:23.216328 31308 net.cpp:141] Setting up inception_3b/relu_1x1
I0403 15:13:23.216358 31308 net.cpp:148] Top shape: 24 128 28 28 (2408448)
I0403 15:13:23.216375 31308 net.cpp:156] Memory required for data: 676774944
I0403 15:13:23.216392 31308 layer_factory.hpp:77] Creating layer inception_3b/3x3_reduce
I0403 15:13:23.216416 31308 net.cpp:91] Creating Layer inception_3b/3x3_reduce
I0403 15:13:23.216437 31308 net.cpp:425] inception_3b/3x3_reduce <- inception_3a/output_inception_3a/output_0_split_1
I0403 15:13:23.216467 31308 net.cpp:399] inception_3b/3x3_reduce -> inception_3b/3x3_reduce
I0403 15:13:23.217655 31308 net.cpp:141] Setting up inception_3b/3x3_reduce
I0403 15:13:23.217685 31308 net.cpp:148] Top shape: 24 128 28 28 (2408448)
I0403 15:13:23.217702 31308 net.cpp:156] Memory required for data: 686408736
I0403 15:13:23.217721 31308 layer_factory.hpp:77] Creating layer inception_3b/relu_3x3_reduce
I0403 15:13:23.217743 31308 net.cpp:91] Creating Layer inception_3b/relu_3x3_reduce
I0403 15:13:23.217762 31308 net.cpp:425] inception_3b/relu_3x3_reduce <- inception_3b/3x3_reduce
I0403 15:13:23.217782 31308 net.cpp:386] inception_3b/relu_3x3_reduce -> inception_3b/3x3_reduce (in-place)
I0403 15:13:23.217963 31308 net.cpp:141] Setting up inception_3b/relu_3x3_reduce
I0403 15:13:23.217995 31308 net.cpp:148] Top shape: 24 128 28 28 (2408448)
I0403 15:13:23.218014 31308 net.cpp:156] Memory required for data: 696042528
I0403 15:13:23.218030 31308 layer_factory.hpp:77] Creating layer inception_3b/3x3
I0403 15:13:23.218057 31308 net.cpp:91] Creating Layer inception_3b/3x3
I0403 15:13:23.218076 31308 net.cpp:425] inception_3b/3x3 <- inception_3b/3x3_reduce
I0403 15:13:23.218099 31308 net.cpp:399] inception_3b/3x3 -> inception_3b/3x3
I0403 15:13:23.221161 31308 net.cpp:141] Setting up inception_3b/3x3
I0403 15:13:23.221195 31308 net.cpp:148] Top shape: 24 192 28 28 (3612672)
I0403 15:13:23.221213 31308 net.cpp:156] Memory required for data: 710493216
I0403 15:13:23.221233 31308 layer_factory.hpp:77] Creating layer inception_3b/relu_3x3
I0403 15:13:23.221253 31308 net.cpp:91] Creating Layer inception_3b/relu_3x3
I0403 15:13:23.221271 31308 net.cpp:425] inception_3b/relu_3x3 <- inception_3b/3x3
I0403 15:13:23.221298 31308 net.cpp:386] inception_3b/relu_3x3 -> inception_3b/3x3 (in-place)
I0403 15:13:23.221593 31308 net.cpp:141] Setting up inception_3b/relu_3x3
I0403 15:13:23.221624 31308 net.cpp:148] Top shape: 24 192 28 28 (3612672)
I0403 15:13:23.221643 31308 net.cpp:156] Memory required for data: 724943904
I0403 15:13:23.221659 31308 layer_factory.hpp:77] Creating layer inception_3b/5x5_reduce
I0403 15:13:23.221683 31308 net.cpp:91] Creating Layer inception_3b/5x5_reduce
I0403 15:13:23.221709 31308 net.cpp:425] inception_3b/5x5_reduce <- inception_3a/output_inception_3a/output_0_split_2
I0403 15:13:23.221730 31308 net.cpp:399] inception_3b/5x5_reduce -> inception_3b/5x5_reduce
I0403 15:13:23.222775 31308 net.cpp:141] Setting up inception_3b/5x5_reduce
I0403 15:13:23.222808 31308 net.cpp:148] Top shape: 24 32 28 28 (602112)
I0403 15:13:23.222826 31308 net.cpp:156] Memory required for data: 727352352
I0403 15:13:23.222846 31308 layer_factory.hpp:77] Creating layer inception_3b/relu_5x5_reduce
I0403 15:13:23.222867 31308 net.cpp:91] Creating Layer inception_3b/relu_5x5_reduce
I0403 15:13:23.222882 31308 net.cpp:425] inception_3b/relu_5x5_reduce <- inception_3b/5x5_reduce
I0403 15:13:23.222900 31308 net.cpp:386] inception_3b/relu_5x5_reduce -> inception_3b/5x5_reduce (in-place)
I0403 15:13:23.223088 31308 net.cpp:141] Setting up inception_3b/relu_5x5_reduce
I0403 15:13:23.223129 31308 net.cpp:148] Top shape: 24 32 28 28 (602112)
I0403 15:13:23.223147 31308 net.cpp:156] Memory required for data: 729760800
I0403 15:13:23.223163 31308 layer_factory.hpp:77] Creating layer inception_3b/5x5
I0403 15:13:23.223187 31308 net.cpp:91] Creating Layer inception_3b/5x5
I0403 15:13:23.223206 31308 net.cpp:425] inception_3b/5x5 <- inception_3b/5x5_reduce
I0403 15:13:23.223228 31308 net.cpp:399] inception_3b/5x5 -> inception_3b/5x5
I0403 15:13:23.225311 31308 net.cpp:141] Setting up inception_3b/5x5
I0403 15:13:23.225342 31308 net.cpp:148] Top shape: 24 96 28 28 (1806336)
I0403 15:13:23.225359 31308 net.cpp:156] Memory required for data: 736986144
I0403 15:13:23.225379 31308 layer_factory.hpp:77] Creating layer inception_3b/relu_5x5
I0403 15:13:23.225404 31308 net.cpp:91] Creating Layer inception_3b/relu_5x5
I0403 15:13:23.225421 31308 net.cpp:425] inception_3b/relu_5x5 <- inception_3b/5x5
I0403 15:13:23.225440 31308 net.cpp:386] inception_3b/relu_5x5 -> inception_3b/5x5 (in-place)
I0403 15:13:23.225641 31308 net.cpp:141] Setting up inception_3b/relu_5x5
I0403 15:13:23.225669 31308 net.cpp:148] Top shape: 24 96 28 28 (1806336)
I0403 15:13:23.225685 31308 net.cpp:156] Memory required for data: 744211488
I0403 15:13:23.225700 31308 layer_factory.hpp:77] Creating layer inception_3b/pool
I0403 15:13:23.225719 31308 net.cpp:91] Creating Layer inception_3b/pool
I0403 15:13:23.225736 31308 net.cpp:425] inception_3b/pool <- inception_3a/output_inception_3a/output_0_split_3
I0403 15:13:23.225754 31308 net.cpp:399] inception_3b/pool -> inception_3b/pool
I0403 15:13:23.225813 31308 net.cpp:141] Setting up inception_3b/pool
I0403 15:13:23.225838 31308 net.cpp:148] Top shape: 24 256 28 28 (4816896)
I0403 15:13:23.225854 31308 net.cpp:156] Memory required for data: 763479072
I0403 15:13:23.225870 31308 layer_factory.hpp:77] Creating layer inception_3b/pool_proj
I0403 15:13:23.225894 31308 net.cpp:91] Creating Layer inception_3b/pool_proj
I0403 15:13:23.225913 31308 net.cpp:425] inception_3b/pool_proj <- inception_3b/pool
I0403 15:13:23.225934 31308 net.cpp:399] inception_3b/pool_proj -> inception_3b/pool_proj
I0403 15:13:23.227042 31308 net.cpp:141] Setting up inception_3b/pool_proj
I0403 15:13:23.227072 31308 net.cpp:148] Top shape: 24 64 28 28 (1204224)
I0403 15:13:23.227088 31308 net.cpp:156] Memory required for data: 768295968
I0403 15:13:23.227108 31308 layer_factory.hpp:77] Creating layer inception_3b/relu_pool_proj
I0403 15:13:23.227129 31308 net.cpp:91] Creating Layer inception_3b/relu_pool_proj
I0403 15:13:23.227149 31308 net.cpp:425] inception_3b/relu_pool_proj <- inception_3b/pool_proj
I0403 15:13:23.227170 31308 net.cpp:386] inception_3b/relu_pool_proj -> inception_3b/pool_proj (in-place)
I0403 15:13:23.227594 31308 net.cpp:141] Setting up inception_3b/relu_pool_proj
I0403 15:13:23.227623 31308 net.cpp:148] Top shape: 24 64 28 28 (1204224)
I0403 15:13:23.227641 31308 net.cpp:156] Memory required for data: 773112864
I0403 15:13:23.227658 31308 layer_factory.hpp:77] Creating layer inception_3b/output
I0403 15:13:23.227675 31308 net.cpp:91] Creating Layer inception_3b/output
I0403 15:13:23.227694 31308 net.cpp:425] inception_3b/output <- inception_3b/1x1
I0403 15:13:23.227711 31308 net.cpp:425] inception_3b/output <- inception_3b/3x3
I0403 15:13:23.227730 31308 net.cpp:425] inception_3b/output <- inception_3b/5x5
I0403 15:13:23.227746 31308 net.cpp:425] inception_3b/output <- inception_3b/pool_proj
I0403 15:13:23.227768 31308 net.cpp:399] inception_3b/output -> inception_3b/output
I0403 15:13:23.227814 31308 net.cpp:141] Setting up inception_3b/output
I0403 15:13:23.227844 31308 net.cpp:148] Top shape: 24 480 28 28 (9031680)
I0403 15:13:23.227861 31308 net.cpp:156] Memory required for data: 809239584
I0403 15:13:23.227880 31308 layer_factory.hpp:77] Creating layer pool3/3x3_s2
I0403 15:13:23.227898 31308 net.cpp:91] Creating Layer pool3/3x3_s2
I0403 15:13:23.227921 31308 net.cpp:425] pool3/3x3_s2 <- inception_3b/output
I0403 15:13:23.227942 31308 net.cpp:399] pool3/3x3_s2 -> pool3/3x3_s2
I0403 15:13:23.228019 31308 net.cpp:141] Setting up pool3/3x3_s2
I0403 15:13:23.228046 31308 net.cpp:148] Top shape: 24 480 14 14 (2257920)
I0403 15:13:23.228063 31308 net.cpp:156] Memory required for data: 818271264
I0403 15:13:23.228080 31308 layer_factory.hpp:77] Creating layer pool3/3x3_s2_pool3/3x3_s2_0_split
I0403 15:13:23.228097 31308 net.cpp:91] Creating Layer pool3/3x3_s2_pool3/3x3_s2_0_split
I0403 15:13:23.228114 31308 net.cpp:425] pool3/3x3_s2_pool3/3x3_s2_0_split <- pool3/3x3_s2
I0403 15:13:23.228134 31308 net.cpp:399] pool3/3x3_s2_pool3/3x3_s2_0_split -> pool3/3x3_s2_pool3/3x3_s2_0_split_0
I0403 15:13:23.228159 31308 net.cpp:399] pool3/3x3_s2_pool3/3x3_s2_0_split -> pool3/3x3_s2_pool3/3x3_s2_0_split_1
I0403 15:13:23.228183 31308 net.cpp:399] pool3/3x3_s2_pool3/3x3_s2_0_split -> pool3/3x3_s2_pool3/3x3_s2_0_split_2
I0403 15:13:23.228206 31308 net.cpp:399] pool3/3x3_s2_pool3/3x3_s2_0_split -> pool3/3x3_s2_pool3/3x3_s2_0_split_3
I0403 15:13:23.228291 31308 net.cpp:141] Setting up pool3/3x3_s2_pool3/3x3_s2_0_split
I0403 15:13:23.228317 31308 net.cpp:148] Top shape: 24 480 14 14 (2257920)
I0403 15:13:23.228335 31308 net.cpp:148] Top shape: 24 480 14 14 (2257920)
I0403 15:13:23.228355 31308 net.cpp:148] Top shape: 24 480 14 14 (2257920)
I0403 15:13:23.228376 31308 net.cpp:148] Top shape: 24 480 14 14 (2257920)
I0403 15:13:23.228392 31308 net.cpp:156] Memory required for data: 854397984
I0403 15:13:23.228409 31308 layer_factory.hpp:77] Creating layer inception_4a/1x1
I0403 15:13:23.228433 31308 net.cpp:91] Creating Layer inception_4a/1x1
I0403 15:13:23.228451 31308 net.cpp:425] inception_4a/1x1 <- pool3/3x3_s2_pool3/3x3_s2_0_split_0
I0403 15:13:23.228473 31308 net.cpp:399] inception_4a/1x1 -> inception_4a/1x1
I0403 15:13:23.230121 31308 net.cpp:141] Setting up inception_4a/1x1
I0403 15:13:23.230151 31308 net.cpp:148] Top shape: 24 192 14 14 (903168)
I0403 15:13:23.230168 31308 net.cpp:156] Memory required for data: 858010656
I0403 15:13:23.230188 31308 layer_factory.hpp:77] Creating layer inception_4a/relu_1x1
I0403 15:13:23.230211 31308 net.cpp:91] Creating Layer inception_4a/relu_1x1
I0403 15:13:23.230229 31308 net.cpp:425] inception_4a/relu_1x1 <- inception_4a/1x1
I0403 15:13:23.230249 31308 net.cpp:386] inception_4a/relu_1x1 -> inception_4a/1x1 (in-place)
I0403 15:13:23.230438 31308 net.cpp:141] Setting up inception_4a/relu_1x1
I0403 15:13:23.230466 31308 net.cpp:148] Top shape: 24 192 14 14 (903168)
I0403 15:13:23.230482 31308 net.cpp:156] Memory required for data: 861623328
I0403 15:13:23.230499 31308 layer_factory.hpp:77] Creating layer inception_4a/3x3_reduce
I0403 15:13:23.230525 31308 net.cpp:91] Creating Layer inception_4a/3x3_reduce
I0403 15:13:23.230545 31308 net.cpp:425] inception_4a/3x3_reduce <- pool3/3x3_s2_pool3/3x3_s2_0_split_1
I0403 15:13:23.230564 31308 net.cpp:399] inception_4a/3x3_reduce -> inception_4a/3x3_reduce
I0403 15:13:23.231907 31308 net.cpp:141] Setting up inception_4a/3x3_reduce
I0403 15:13:23.231936 31308 net.cpp:148] Top shape: 24 96 14 14 (451584)
I0403 15:13:23.231955 31308 net.cpp:156] Memory required for data: 863429664
I0403 15:13:23.231981 31308 layer_factory.hpp:77] Creating layer inception_4a/relu_3x3_reduce
I0403 15:13:23.232002 31308 net.cpp:91] Creating Layer inception_4a/relu_3x3_reduce
I0403 15:13:23.232019 31308 net.cpp:425] inception_4a/relu_3x3_reduce <- inception_4a/3x3_reduce
I0403 15:13:23.232040 31308 net.cpp:386] inception_4a/relu_3x3_reduce -> inception_4a/3x3_reduce (in-place)
I0403 15:13:23.232228 31308 net.cpp:141] Setting up inception_4a/relu_3x3_reduce
I0403 15:13:23.232255 31308 net.cpp:148] Top shape: 24 96 14 14 (451584)
I0403 15:13:23.232270 31308 net.cpp:156] Memory required for data: 865236000
I0403 15:13:23.232292 31308 layer_factory.hpp:77] Creating layer inception_4a/3x3
I0403 15:13:23.232318 31308 net.cpp:91] Creating Layer inception_4a/3x3
I0403 15:13:23.232339 31308 net.cpp:425] inception_4a/3x3 <- inception_4a/3x3_reduce
I0403 15:13:23.232362 31308 net.cpp:399] inception_4a/3x3 -> inception_4a/3x3
I0403 15:13:23.235205 31308 net.cpp:141] Setting up inception_4a/3x3
I0403 15:13:23.235237 31308 net.cpp:148] Top shape: 24 208 14 14 (978432)
I0403 15:13:23.235255 31308 net.cpp:156] Memory required for data: 869149728
I0403 15:13:23.235273 31308 layer_factory.hpp:77] Creating layer inception_4a/relu_3x3
I0403 15:13:23.235302 31308 net.cpp:91] Creating Layer inception_4a/relu_3x3
I0403 15:13:23.235321 31308 net.cpp:425] inception_4a/relu_3x3 <- inception_4a/3x3
I0403 15:13:23.235340 31308 net.cpp:386] inception_4a/relu_3x3 -> inception_4a/3x3 (in-place)
I0403 15:13:23.235636 31308 net.cpp:141] Setting up inception_4a/relu_3x3
I0403 15:13:23.235666 31308 net.cpp:148] Top shape: 24 208 14 14 (978432)
I0403 15:13:23.235682 31308 net.cpp:156] Memory required for data: 873063456
I0403 15:13:23.235698 31308 layer_factory.hpp:77] Creating layer inception_4a/5x5_reduce
I0403 15:13:23.235721 31308 net.cpp:91] Creating Layer inception_4a/5x5_reduce
I0403 15:13:23.235741 31308 net.cpp:425] inception_4a/5x5_reduce <- pool3/3x3_s2_pool3/3x3_s2_0_split_2
I0403 15:13:23.235764 31308 net.cpp:399] inception_4a/5x5_reduce -> inception_4a/5x5_reduce
I0403 15:13:23.236852 31308 net.cpp:141] Setting up inception_4a/5x5_reduce
I0403 15:13:23.236886 31308 net.cpp:148] Top shape: 24 16 14 14 (75264)
I0403 15:13:23.236904 31308 net.cpp:156] Memory required for data: 873364512
I0403 15:13:23.236924 31308 layer_factory.hpp:77] Creating layer inception_4a/relu_5x5_reduce
I0403 15:13:23.236944 31308 net.cpp:91] Creating Layer inception_4a/relu_5x5_reduce
I0403 15:13:23.236963 31308 net.cpp:425] inception_4a/relu_5x5_reduce <- inception_4a/5x5_reduce
I0403 15:13:23.236981 31308 net.cpp:386] inception_4a/relu_5x5_reduce -> inception_4a/5x5_reduce (in-place)
I0403 15:13:23.237170 31308 net.cpp:141] Setting up inception_4a/relu_5x5_reduce
I0403 15:13:23.237198 31308 net.cpp:148] Top shape: 24 16 14 14 (75264)
I0403 15:13:23.237222 31308 net.cpp:156] Memory required for data: 873665568
I0403 15:13:23.237239 31308 layer_factory.hpp:77] Creating layer inception_4a/5x5
I0403 15:13:23.237262 31308 net.cpp:91] Creating Layer inception_4a/5x5
I0403 15:13:23.237282 31308 net.cpp:425] inception_4a/5x5 <- inception_4a/5x5_reduce
I0403 15:13:23.237310 31308 net.cpp:399] inception_4a/5x5 -> inception_4a/5x5
I0403 15:13:23.238462 31308 net.cpp:141] Setting up inception_4a/5x5
I0403 15:13:23.238493 31308 net.cpp:148] Top shape: 24 48 14 14 (225792)
I0403 15:13:23.238512 31308 net.cpp:156] Memory required for data: 874568736
I0403 15:13:23.238531 31308 layer_factory.hpp:77] Creating layer inception_4a/relu_5x5
I0403 15:13:23.238553 31308 net.cpp:91] Creating Layer inception_4a/relu_5x5
I0403 15:13:23.238572 31308 net.cpp:425] inception_4a/relu_5x5 <- inception_4a/5x5
I0403 15:13:23.238595 31308 net.cpp:386] inception_4a/relu_5x5 -> inception_4a/5x5 (in-place)
I0403 15:13:23.238780 31308 net.cpp:141] Setting up inception_4a/relu_5x5
I0403 15:13:23.238808 31308 net.cpp:148] Top shape: 24 48 14 14 (225792)
I0403 15:13:23.238826 31308 net.cpp:156] Memory required for data: 875471904
I0403 15:13:23.238842 31308 layer_factory.hpp:77] Creating layer inception_4a/pool
I0403 15:13:23.238863 31308 net.cpp:91] Creating Layer inception_4a/pool
I0403 15:13:23.238881 31308 net.cpp:425] inception_4a/pool <- pool3/3x3_s2_pool3/3x3_s2_0_split_3
I0403 15:13:23.238901 31308 net.cpp:399] inception_4a/pool -> inception_4a/pool
I0403 15:13:23.238970 31308 net.cpp:141] Setting up inception_4a/pool
I0403 15:13:23.238996 31308 net.cpp:148] Top shape: 24 480 14 14 (2257920)
I0403 15:13:23.239012 31308 net.cpp:156] Memory required for data: 884503584
I0403 15:13:23.239027 31308 layer_factory.hpp:77] Creating layer inception_4a/pool_proj
I0403 15:13:23.239050 31308 net.cpp:91] Creating Layer inception_4a/pool_proj
I0403 15:13:23.239069 31308 net.cpp:425] inception_4a/pool_proj <- inception_4a/pool
I0403 15:13:23.239092 31308 net.cpp:399] inception_4a/pool_proj -> inception_4a/pool_proj
I0403 15:13:23.240350 31308 net.cpp:141] Setting up inception_4a/pool_proj
I0403 15:13:23.240381 31308 net.cpp:148] Top shape: 24 64 14 14 (301056)
I0403 15:13:23.240413 31308 net.cpp:156] Memory required for data: 885707808
I0403 15:13:23.240434 31308 layer_factory.hpp:77] Creating layer inception_4a/relu_pool_proj
I0403 15:13:23.240458 31308 net.cpp:91] Creating Layer inception_4a/relu_pool_proj
I0403 15:13:23.240478 31308 net.cpp:425] inception_4a/relu_pool_proj <- inception_4a/pool_proj
I0403 15:13:23.240496 31308 net.cpp:386] inception_4a/relu_pool_proj -> inception_4a/pool_proj (in-place)
I0403 15:13:23.240794 31308 net.cpp:141] Setting up inception_4a/relu_pool_proj
I0403 15:13:23.240823 31308 net.cpp:148] Top shape: 24 64 14 14 (301056)
I0403 15:13:23.240841 31308 net.cpp:156] Memory required for data: 886912032
I0403 15:13:23.240864 31308 layer_factory.hpp:77] Creating layer inception_4a/output
I0403 15:13:23.240881 31308 net.cpp:91] Creating Layer inception_4a/output
I0403 15:13:23.240900 31308 net.cpp:425] inception_4a/output <- inception_4a/1x1
I0403 15:13:23.240922 31308 net.cpp:425] inception_4a/output <- inception_4a/3x3
I0403 15:13:23.240941 31308 net.cpp:425] inception_4a/output <- inception_4a/5x5
I0403 15:13:23.240959 31308 net.cpp:425] inception_4a/output <- inception_4a/pool_proj
I0403 15:13:23.240983 31308 net.cpp:399] inception_4a/output -> inception_4a/output
I0403 15:13:23.241032 31308 net.cpp:141] Setting up inception_4a/output
I0403 15:13:23.241060 31308 net.cpp:148] Top shape: 24 512 14 14 (2408448)
I0403 15:13:23.241077 31308 net.cpp:156] Memory required for data: 896545824
I0403 15:13:23.241092 31308 layer_factory.hpp:77] Creating layer inception_4a/output_inception_4a/output_0_split
I0403 15:13:23.241111 31308 net.cpp:91] Creating Layer inception_4a/output_inception_4a/output_0_split
I0403 15:13:23.241128 31308 net.cpp:425] inception_4a/output_inception_4a/output_0_split <- inception_4a/output
I0403 15:13:23.241150 31308 net.cpp:399] inception_4a/output_inception_4a/output_0_split -> inception_4a/output_inception_4a/output_0_split_0
I0403 15:13:23.241173 31308 net.cpp:399] inception_4a/output_inception_4a/output_0_split -> inception_4a/output_inception_4a/output_0_split_1
I0403 15:13:23.241196 31308 net.cpp:399] inception_4a/output_inception_4a/output_0_split -> inception_4a/output_inception_4a/output_0_split_2
I0403 15:13:23.241219 31308 net.cpp:399] inception_4a/output_inception_4a/output_0_split -> inception_4a/output_inception_4a/output_0_split_3
I0403 15:13:23.241241 31308 net.cpp:399] inception_4a/output_inception_4a/output_0_split -> inception_4a/output_inception_4a/output_0_split_4
I0403 15:13:23.241346 31308 net.cpp:141] Setting up inception_4a/output_inception_4a/output_0_split
I0403 15:13:23.241374 31308 net.cpp:148] Top shape: 24 512 14 14 (2408448)
I0403 15:13:23.241394 31308 net.cpp:148] Top shape: 24 512 14 14 (2408448)
I0403 15:13:23.241412 31308 net.cpp:148] Top shape: 24 512 14 14 (2408448)
I0403 15:13:23.241428 31308 net.cpp:148] Top shape: 24 512 14 14 (2408448)
I0403 15:13:23.241446 31308 net.cpp:148] Top shape: 24 512 14 14 (2408448)
I0403 15:13:23.241461 31308 net.cpp:156] Memory required for data: 944714784
I0403 15:13:23.241477 31308 layer_factory.hpp:77] Creating layer loss1/ave_pool
I0403 15:13:23.241495 31308 net.cpp:91] Creating Layer loss1/ave_pool
I0403 15:13:23.241513 31308 net.cpp:425] loss1/ave_pool <- inception_4a/output_inception_4a/output_0_split_0
I0403 15:13:23.241531 31308 net.cpp:399] loss1/ave_pool -> loss1/ave_pool
I0403 15:13:23.241755 31308 net.cpp:141] Setting up loss1/ave_pool
I0403 15:13:23.241787 31308 net.cpp:148] Top shape: 24 512 4 4 (196608)
I0403 15:13:23.241806 31308 net.cpp:156] Memory required for data: 945501216
I0403 15:13:23.241823 31308 layer_factory.hpp:77] Creating layer loss1/conv
I0403 15:13:23.241847 31308 net.cpp:91] Creating Layer loss1/conv
I0403 15:13:23.241866 31308 net.cpp:425] loss1/conv <- loss1/ave_pool
I0403 15:13:23.241889 31308 net.cpp:399] loss1/conv -> loss1/conv
I0403 15:13:23.243393 31308 net.cpp:141] Setting up loss1/conv
I0403 15:13:23.243427 31308 net.cpp:148] Top shape: 24 128 4 4 (49152)
I0403 15:13:23.243448 31308 net.cpp:156] Memory required for data: 945697824
I0403 15:13:23.243484 31308 layer_factory.hpp:77] Creating layer loss1/relu_conv
I0403 15:13:23.243505 31308 net.cpp:91] Creating Layer loss1/relu_conv
I0403 15:13:23.243523 31308 net.cpp:425] loss1/relu_conv <- loss1/conv
I0403 15:13:23.243542 31308 net.cpp:386] loss1/relu_conv -> loss1/conv (in-place)
I0403 15:13:23.243839 31308 net.cpp:141] Setting up loss1/relu_conv
I0403 15:13:23.243875 31308 net.cpp:148] Top shape: 24 128 4 4 (49152)
I0403 15:13:23.243893 31308 net.cpp:156] Memory required for data: 945894432
I0403 15:13:23.243911 31308 layer_factory.hpp:77] Creating layer loss1/fc
I0403 15:13:23.243938 31308 net.cpp:91] Creating Layer loss1/fc
I0403 15:13:23.243960 31308 net.cpp:425] loss1/fc <- loss1/conv
I0403 15:13:23.243985 31308 net.cpp:399] loss1/fc -> loss1/fc
I0403 15:13:23.262820 31308 net.cpp:141] Setting up loss1/fc
I0403 15:13:23.262856 31308 net.cpp:148] Top shape: 24 1024 (24576)
I0403 15:13:23.262879 31308 net.cpp:156] Memory required for data: 945992736
I0403 15:13:23.262900 31308 layer_factory.hpp:77] Creating layer loss1/relu_fc
I0403 15:13:23.262923 31308 net.cpp:91] Creating Layer loss1/relu_fc
I0403 15:13:23.262943 31308 net.cpp:425] loss1/relu_fc <- loss1/fc
I0403 15:13:23.262962 31308 net.cpp:386] loss1/relu_fc -> loss1/fc (in-place)
I0403 15:13:23.263164 31308 net.cpp:141] Setting up loss1/relu_fc
I0403 15:13:23.263191 31308 net.cpp:148] Top shape: 24 1024 (24576)
I0403 15:13:23.263207 31308 net.cpp:156] Memory required for data: 946091040
I0403 15:13:23.263223 31308 layer_factory.hpp:77] Creating layer loss1/drop_fc
I0403 15:13:23.263253 31308 net.cpp:91] Creating Layer loss1/drop_fc
I0403 15:13:23.263273 31308 net.cpp:425] loss1/drop_fc <- loss1/fc
I0403 15:13:23.263299 31308 net.cpp:386] loss1/drop_fc -> loss1/fc (in-place)
I0403 15:13:23.263358 31308 net.cpp:141] Setting up loss1/drop_fc
I0403 15:13:23.263383 31308 net.cpp:148] Top shape: 24 1024 (24576)
I0403 15:13:23.263401 31308 net.cpp:156] Memory required for data: 946189344
I0403 15:13:23.263417 31308 layer_factory.hpp:77] Creating layer loss1/classifier_plantvillage
I0403 15:13:23.263437 31308 net.cpp:91] Creating Layer loss1/classifier_plantvillage
I0403 15:13:23.263454 31308 net.cpp:425] loss1/classifier_plantvillage <- loss1/fc
I0403 15:13:23.263480 31308 net.cpp:399] loss1/classifier_plantvillage -> loss1/classifier_plantvillage
I0403 15:13:23.264448 31308 net.cpp:141] Setting up loss1/classifier_plantvillage
I0403 15:13:23.264482 31308 net.cpp:148] Top shape: 24 38 (912)
I0403 15:13:23.264499 31308 net.cpp:156] Memory required for data: 946192992
I0403 15:13:23.264519 31308 layer_factory.hpp:77] Creating layer loss1/classifier_plantvillage_loss1/classifier_plantvillage_0_split
I0403 15:13:23.264540 31308 net.cpp:91] Creating Layer loss1/classifier_plantvillage_loss1/classifier_plantvillage_0_split
I0403 15:13:23.264559 31308 net.cpp:425] loss1/classifier_plantvillage_loss1/classifier_plantvillage_0_split <- loss1/classifier_plantvillage
I0403 15:13:23.264580 31308 net.cpp:399] loss1/classifier_plantvillage_loss1/classifier_plantvillage_0_split -> loss1/classifier_plantvillage_loss1/classifier_plantvillage_0_split_0
I0403 15:13:23.264600 31308 net.cpp:399] loss1/classifier_plantvillage_loss1/classifier_plantvillage_0_split -> loss1/classifier_plantvillage_loss1/classifier_plantvillage_0_split_1
I0403 15:13:23.264622 31308 net.cpp:399] loss1/classifier_plantvillage_loss1/classifier_plantvillage_0_split -> loss1/classifier_plantvillage_loss1/classifier_plantvillage_0_split_2
I0403 15:13:23.264693 31308 net.cpp:141] Setting up loss1/classifier_plantvillage_loss1/classifier_plantvillage_0_split
I0403 15:13:23.264719 31308 net.cpp:148] Top shape: 24 38 (912)
I0403 15:13:23.264741 31308 net.cpp:148] Top shape: 24 38 (912)
I0403 15:13:23.264762 31308 net.cpp:148] Top shape: 24 38 (912)
I0403 15:13:23.264778 31308 net.cpp:156] Memory required for data: 946203936
I0403 15:13:23.264794 31308 layer_factory.hpp:77] Creating layer inception_4b/1x1
I0403 15:13:23.264818 31308 net.cpp:91] Creating Layer inception_4b/1x1
I0403 15:13:23.264853 31308 net.cpp:425] inception_4b/1x1 <- inception_4a/output_inception_4a/output_0_split_1
I0403 15:13:23.264880 31308 net.cpp:399] inception_4b/1x1 -> inception_4b/1x1
I0403 15:13:23.266633 31308 net.cpp:141] Setting up inception_4b/1x1
I0403 15:13:23.266667 31308 net.cpp:148] Top shape: 24 160 14 14 (752640)
I0403 15:13:23.266685 31308 net.cpp:156] Memory required for data: 949214496
I0403 15:13:23.266705 31308 layer_factory.hpp:77] Creating layer inception_4b/relu_1x1
I0403 15:13:23.266726 31308 net.cpp:91] Creating Layer inception_4b/relu_1x1
I0403 15:13:23.266744 31308 net.cpp:425] inception_4b/relu_1x1 <- inception_4b/1x1
I0403 15:13:23.266763 31308 net.cpp:386] inception_4b/relu_1x1 -> inception_4b/1x1 (in-place)
I0403 15:13:23.266957 31308 net.cpp:141] Setting up inception_4b/relu_1x1
I0403 15:13:23.266983 31308 net.cpp:148] Top shape: 24 160 14 14 (752640)
I0403 15:13:23.266999 31308 net.cpp:156] Memory required for data: 952225056
I0403 15:13:23.267014 31308 layer_factory.hpp:77] Creating layer inception_4b/3x3_reduce
I0403 15:13:23.267038 31308 net.cpp:91] Creating Layer inception_4b/3x3_reduce
I0403 15:13:23.267058 31308 net.cpp:425] inception_4b/3x3_reduce <- inception_4a/output_inception_4a/output_0_split_2
I0403 15:13:23.267081 31308 net.cpp:399] inception_4b/3x3_reduce -> inception_4b/3x3_reduce
I0403 15:13:23.268530 31308 net.cpp:141] Setting up inception_4b/3x3_reduce
I0403 15:13:23.268564 31308 net.cpp:148] Top shape: 24 112 14 14 (526848)
I0403 15:13:23.268584 31308 net.cpp:156] Memory required for data: 954332448
I0403 15:13:23.268604 31308 layer_factory.hpp:77] Creating layer inception_4b/relu_3x3_reduce
I0403 15:13:23.268625 31308 net.cpp:91] Creating Layer inception_4b/relu_3x3_reduce
I0403 15:13:23.268643 31308 net.cpp:425] inception_4b/relu_3x3_reduce <- inception_4b/3x3_reduce
I0403 15:13:23.268664 31308 net.cpp:386] inception_4b/relu_3x3_reduce -> inception_4b/3x3_reduce (in-place)
I0403 15:13:23.268960 31308 net.cpp:141] Setting up inception_4b/relu_3x3_reduce
I0403 15:13:23.268991 31308 net.cpp:148] Top shape: 24 112 14 14 (526848)
I0403 15:13:23.269016 31308 net.cpp:156] Memory required for data: 956439840
I0403 15:13:23.269032 31308 layer_factory.hpp:77] Creating layer inception_4b/3x3
I0403 15:13:23.269060 31308 net.cpp:91] Creating Layer inception_4b/3x3
I0403 15:13:23.269080 31308 net.cpp:425] inception_4b/3x3 <- inception_4b/3x3_reduce
I0403 15:13:23.269105 31308 net.cpp:399] inception_4b/3x3 -> inception_4b/3x3
I0403 15:13:23.272264 31308 net.cpp:141] Setting up inception_4b/3x3
I0403 15:13:23.272299 31308 net.cpp:148] Top shape: 24 224 14 14 (1053696)
I0403 15:13:23.272317 31308 net.cpp:156] Memory required for data: 960654624
I0403 15:13:23.272337 31308 layer_factory.hpp:77] Creating layer inception_4b/relu_3x3
I0403 15:13:23.272359 31308 net.cpp:91] Creating Layer inception_4b/relu_3x3
I0403 15:13:23.272378 31308 net.cpp:425] inception_4b/relu_3x3 <- inception_4b/3x3
I0403 15:13:23.272397 31308 net.cpp:386] inception_4b/relu_3x3 -> inception_4b/3x3 (in-place)
I0403 15:13:23.272594 31308 net.cpp:141] Setting up inception_4b/relu_3x3
I0403 15:13:23.272622 31308 net.cpp:148] Top shape: 24 224 14 14 (1053696)
I0403 15:13:23.272639 31308 net.cpp:156] Memory required for data: 964869408
I0403 15:13:23.272655 31308 layer_factory.hpp:77] Creating layer inception_4b/5x5_reduce
I0403 15:13:23.272681 31308 net.cpp:91] Creating Layer inception_4b/5x5_reduce
I0403 15:13:23.272701 31308 net.cpp:425] inception_4b/5x5_reduce <- inception_4a/output_inception_4a/output_0_split_3
I0403 15:13:23.272722 31308 net.cpp:399] inception_4b/5x5_reduce -> inception_4b/5x5_reduce
I0403 15:13:23.273880 31308 net.cpp:141] Setting up inception_4b/5x5_reduce
I0403 15:13:23.273911 31308 net.cpp:148] Top shape: 24 24 14 14 (112896)
I0403 15:13:23.273929 31308 net.cpp:156] Memory required for data: 965320992
I0403 15:13:23.273949 31308 layer_factory.hpp:77] Creating layer inception_4b/relu_5x5_reduce
I0403 15:13:23.273968 31308 net.cpp:91] Creating Layer inception_4b/relu_5x5_reduce
I0403 15:13:23.274008 31308 net.cpp:425] inception_4b/relu_5x5_reduce <- inception_4b/5x5_reduce
I0403 15:13:23.274032 31308 net.cpp:386] inception_4b/relu_5x5_reduce -> inception_4b/5x5_reduce (in-place)
I0403 15:13:23.274230 31308 net.cpp:141] Setting up inception_4b/relu_5x5_reduce
I0403 15:13:23.274256 31308 net.cpp:148] Top shape: 24 24 14 14 (112896)
I0403 15:13:23.274272 31308 net.cpp:156] Memory required for data: 965772576
I0403 15:13:23.274302 31308 layer_factory.hpp:77] Creating layer inception_4b/5x5
I0403 15:13:23.274329 31308 net.cpp:91] Creating Layer inception_4b/5x5
I0403 15:13:23.274350 31308 net.cpp:425] inception_4b/5x5 <- inception_4b/5x5_reduce
I0403 15:13:23.274372 31308 net.cpp:399] inception_4b/5x5 -> inception_4b/5x5
I0403 15:13:23.275667 31308 net.cpp:141] Setting up inception_4b/5x5
I0403 15:13:23.275702 31308 net.cpp:148] Top shape: 24 64 14 14 (301056)
I0403 15:13:23.275720 31308 net.cpp:156] Memory required for data: 966976800
I0403 15:13:23.275740 31308 layer_factory.hpp:77] Creating layer inception_4b/relu_5x5
I0403 15:13:23.275761 31308 net.cpp:91] Creating Layer inception_4b/relu_5x5
I0403 15:13:23.275780 31308 net.cpp:425] inception_4b/relu_5x5 <- inception_4b/5x5
I0403 15:13:23.275799 31308 net.cpp:386] inception_4b/relu_5x5 -> inception_4b/5x5 (in-place)
I0403 15:13:23.276100 31308 net.cpp:141] Setting up inception_4b/relu_5x5
I0403 15:13:23.276132 31308 net.cpp:148] Top shape: 24 64 14 14 (301056)
I0403 15:13:23.276149 31308 net.cpp:156] Memory required for data: 968181024
I0403 15:13:23.276166 31308 layer_factory.hpp:77] Creating layer inception_4b/pool
I0403 15:13:23.276186 31308 net.cpp:91] Creating Layer inception_4b/pool
I0403 15:13:23.276208 31308 net.cpp:425] inception_4b/pool <- inception_4a/output_inception_4a/output_0_split_4
I0403 15:13:23.276242 31308 net.cpp:399] inception_4b/pool -> inception_4b/pool
I0403 15:13:23.276330 31308 net.cpp:141] Setting up inception_4b/pool
I0403 15:13:23.276360 31308 net.cpp:148] Top shape: 24 512 14 14 (2408448)
I0403 15:13:23.276381 31308 net.cpp:156] Memory required for data: 977814816
I0403 15:13:23.276401 31308 layer_factory.hpp:77] Creating layer inception_4b/pool_proj
I0403 15:13:23.276424 31308 net.cpp:91] Creating Layer inception_4b/pool_proj
I0403 15:13:23.276445 31308 net.cpp:425] inception_4b/pool_proj <- inception_4b/pool
I0403 15:13:23.276474 31308 net.cpp:399] inception_4b/pool_proj -> inception_4b/pool_proj
I0403 15:13:23.277760 31308 net.cpp:141] Setting up inception_4b/pool_proj
I0403 15:13:23.277794 31308 net.cpp:148] Top shape: 24 64 14 14 (301056)
I0403 15:13:23.277812 31308 net.cpp:156] Memory required for data: 979019040
I0403 15:13:23.277832 31308 layer_factory.hpp:77] Creating layer inception_4b/relu_pool_proj
I0403 15:13:23.277851 31308 net.cpp:91] Creating Layer inception_4b/relu_pool_proj
I0403 15:13:23.277869 31308 net.cpp:425] inception_4b/relu_pool_proj <- inception_4b/pool_proj
I0403 15:13:23.277887 31308 net.cpp:386] inception_4b/relu_pool_proj -> inception_4b/pool_proj (in-place)
I0403 15:13:23.278082 31308 net.cpp:141] Setting up inception_4b/relu_pool_proj
I0403 15:13:23.278111 31308 net.cpp:148] Top shape: 24 64 14 14 (301056)
I0403 15:13:23.278132 31308 net.cpp:156] Memory required for data: 980223264
I0403 15:13:23.278149 31308 layer_factory.hpp:77] Creating layer inception_4b/output
I0403 15:13:23.278168 31308 net.cpp:91] Creating Layer inception_4b/output
I0403 15:13:23.278185 31308 net.cpp:425] inception_4b/output <- inception_4b/1x1
I0403 15:13:23.278204 31308 net.cpp:425] inception_4b/output <- inception_4b/3x3
I0403 15:13:23.278221 31308 net.cpp:425] inception_4b/output <- inception_4b/5x5
I0403 15:13:23.278239 31308 net.cpp:425] inception_4b/output <- inception_4b/pool_proj
I0403 15:13:23.278260 31308 net.cpp:399] inception_4b/output -> inception_4b/output
I0403 15:13:23.278313 31308 net.cpp:141] Setting up inception_4b/output
I0403 15:13:23.278342 31308 net.cpp:148] Top shape: 24 512 14 14 (2408448)
I0403 15:13:23.278365 31308 net.cpp:156] Memory required for data: 989857056
I0403 15:13:23.278396 31308 layer_factory.hpp:77] Creating layer inception_4b/output_inception_4b/output_0_split
I0403 15:13:23.278419 31308 net.cpp:91] Creating Layer inception_4b/output_inception_4b/output_0_split
I0403 15:13:23.278435 31308 net.cpp:425] inception_4b/output_inception_4b/output_0_split <- inception_4b/output
I0403 15:13:23.278456 31308 net.cpp:399] inception_4b/output_inception_4b/output_0_split -> inception_4b/output_inception_4b/output_0_split_0
I0403 15:13:23.278481 31308 net.cpp:399] inception_4b/output_inception_4b/output_0_split -> inception_4b/output_inception_4b/output_0_split_1
I0403 15:13:23.278501 31308 net.cpp:399] inception_4b/output_inception_4b/output_0_split -> inception_4b/output_inception_4b/output_0_split_2
I0403 15:13:23.278523 31308 net.cpp:399] inception_4b/output_inception_4b/output_0_split -> inception_4b/output_inception_4b/output_0_split_3
I0403 15:13:23.278616 31308 net.cpp:141] Setting up inception_4b/output_inception_4b/output_0_split
I0403 15:13:23.278641 31308 net.cpp:148] Top shape: 24 512 14 14 (2408448)
I0403 15:13:23.278661 31308 net.cpp:148] Top shape: 24 512 14 14 (2408448)
I0403 15:13:23.278677 31308 net.cpp:148] Top shape: 24 512 14 14 (2408448)
I0403 15:13:23.278694 31308 net.cpp:148] Top shape: 24 512 14 14 (2408448)
I0403 15:13:23.278708 31308 net.cpp:156] Memory required for data: 1028392224
I0403 15:13:23.278726 31308 layer_factory.hpp:77] Creating layer inception_4c/1x1
I0403 15:13:23.278758 31308 net.cpp:91] Creating Layer inception_4c/1x1
I0403 15:13:23.278777 31308 net.cpp:425] inception_4c/1x1 <- inception_4b/output_inception_4b/output_0_split_0
I0403 15:13:23.278801 31308 net.cpp:399] inception_4c/1x1 -> inception_4c/1x1
I0403 15:13:23.280334 31308 net.cpp:141] Setting up inception_4c/1x1
I0403 15:13:23.280364 31308 net.cpp:148] Top shape: 24 128 14 14 (602112)
I0403 15:13:23.280382 31308 net.cpp:156] Memory required for data: 1030800672
I0403 15:13:23.280402 31308 layer_factory.hpp:77] Creating layer inception_4c/relu_1x1
I0403 15:13:23.280428 31308 net.cpp:91] Creating Layer inception_4c/relu_1x1
I0403 15:13:23.280457 31308 net.cpp:425] inception_4c/relu_1x1 <- inception_4c/1x1
I0403 15:13:23.280478 31308 net.cpp:386] inception_4c/relu_1x1 -> inception_4c/1x1 (in-place)
I0403 15:13:23.280671 31308 net.cpp:141] Setting up inception_4c/relu_1x1
I0403 15:13:23.280699 31308 net.cpp:148] Top shape: 24 128 14 14 (602112)
I0403 15:13:23.280714 31308 net.cpp:156] Memory required for data: 1033209120
I0403 15:13:23.280730 31308 layer_factory.hpp:77] Creating layer inception_4c/3x3_reduce
I0403 15:13:23.280756 31308 net.cpp:91] Creating Layer inception_4c/3x3_reduce
I0403 15:13:23.280776 31308 net.cpp:425] inception_4c/3x3_reduce <- inception_4b/output_inception_4b/output_0_split_1
I0403 15:13:23.280800 31308 net.cpp:399] inception_4c/3x3_reduce -> inception_4c/3x3_reduce
I0403 15:13:23.282922 31308 net.cpp:141] Setting up inception_4c/3x3_reduce
I0403 15:13:23.282953 31308 net.cpp:148] Top shape: 24 128 14 14 (602112)
I0403 15:13:23.282970 31308 net.cpp:156] Memory required for data: 1035617568
I0403 15:13:23.282990 31308 layer_factory.hpp:77] Creating layer inception_4c/relu_3x3_reduce
I0403 15:13:23.283015 31308 net.cpp:91] Creating Layer inception_4c/relu_3x3_reduce
I0403 15:13:23.283032 31308 net.cpp:425] inception_4c/relu_3x3_reduce <- inception_4c/3x3_reduce
I0403 15:13:23.283051 31308 net.cpp:386] inception_4c/relu_3x3_reduce -> inception_4c/3x3_reduce (in-place)
I0403 15:13:23.283430 31308 net.cpp:141] Setting up inception_4c/relu_3x3_reduce
I0403 15:13:23.283460 31308 net.cpp:148] Top shape: 24 128 14 14 (602112)
I0403 15:13:23.283478 31308 net.cpp:156] Memory required for data: 1038026016
I0403 15:13:23.283494 31308 layer_factory.hpp:77] Creating layer inception_4c/3x3
I0403 15:13:23.283521 31308 net.cpp:91] Creating Layer inception_4c/3x3
I0403 15:13:23.283540 31308 net.cpp:425] inception_4c/3x3 <- inception_4c/3x3_reduce
I0403 15:13:23.283565 31308 net.cpp:399] inception_4c/3x3 -> inception_4c/3x3
I0403 15:13:23.287494 31308 net.cpp:141] Setting up inception_4c/3x3
I0403 15:13:23.287541 31308 net.cpp:148] Top shape: 24 256 14 14 (1204224)
I0403 15:13:23.287561 31308 net.cpp:156] Memory required for data: 1042842912
I0403 15:13:23.287596 31308 layer_factory.hpp:77] Creating layer inception_4c/relu_3x3
I0403 15:13:23.287618 31308 net.cpp:91] Creating Layer inception_4c/relu_3x3
I0403 15:13:23.287636 31308 net.cpp:425] inception_4c/relu_3x3 <- inception_4c/3x3
I0403 15:13:23.287654 31308 net.cpp:386] inception_4c/relu_3x3 -> inception_4c/3x3 (in-place)
I0403 15:13:23.287847 31308 net.cpp:141] Setting up inception_4c/relu_3x3
I0403 15:13:23.287878 31308 net.cpp:148] Top shape: 24 256 14 14 (1204224)
I0403 15:13:23.287894 31308 net.cpp:156] Memory required for data: 1047659808
I0403 15:13:23.287910 31308 layer_factory.hpp:77] Creating layer inception_4c/5x5_reduce
I0403 15:13:23.287935 31308 net.cpp:91] Creating Layer inception_4c/5x5_reduce
I0403 15:13:23.287955 31308 net.cpp:425] inception_4c/5x5_reduce <- inception_4b/output_inception_4b/output_0_split_2
I0403 15:13:23.287977 31308 net.cpp:399] inception_4c/5x5_reduce -> inception_4c/5x5_reduce
I0403 15:13:23.289131 31308 net.cpp:141] Setting up inception_4c/5x5_reduce
I0403 15:13:23.289163 31308 net.cpp:148] Top shape: 24 24 14 14 (112896)
I0403 15:13:23.289182 31308 net.cpp:156] Memory required for data: 1048111392
I0403 15:13:23.289201 31308 layer_factory.hpp:77] Creating layer inception_4c/relu_5x5_reduce
I0403 15:13:23.289222 31308 net.cpp:91] Creating Layer inception_4c/relu_5x5_reduce
I0403 15:13:23.289240 31308 net.cpp:425] inception_4c/relu_5x5_reduce <- inception_4c/5x5_reduce
I0403 15:13:23.289261 31308 net.cpp:386] inception_4c/relu_5x5_reduce -> inception_4c/5x5_reduce (in-place)
I0403 15:13:23.289469 31308 net.cpp:141] Setting up inception_4c/relu_5x5_reduce
I0403 15:13:23.289497 31308 net.cpp:148] Top shape: 24 24 14 14 (112896)
I0403 15:13:23.289515 31308 net.cpp:156] Memory required for data: 1048562976
I0403 15:13:23.289530 31308 layer_factory.hpp:77] Creating layer inception_4c/5x5
I0403 15:13:23.289554 31308 net.cpp:91] Creating Layer inception_4c/5x5
I0403 15:13:23.289575 31308 net.cpp:425] inception_4c/5x5 <- inception_4c/5x5_reduce
I0403 15:13:23.289600 31308 net.cpp:399] inception_4c/5x5 -> inception_4c/5x5
I0403 15:13:23.290927 31308 net.cpp:141] Setting up inception_4c/5x5
I0403 15:13:23.290957 31308 net.cpp:148] Top shape: 24 64 14 14 (301056)
I0403 15:13:23.290976 31308 net.cpp:156] Memory required for data: 1049767200
I0403 15:13:23.290994 31308 layer_factory.hpp:77] Creating layer inception_4c/relu_5x5
I0403 15:13:23.291018 31308 net.cpp:91] Creating Layer inception_4c/relu_5x5
I0403 15:13:23.291036 31308 net.cpp:425] inception_4c/relu_5x5 <- inception_4c/5x5
I0403 15:13:23.291056 31308 net.cpp:386] inception_4c/relu_5x5 -> inception_4c/5x5 (in-place)
I0403 15:13:23.291366 31308 net.cpp:141] Setting up inception_4c/relu_5x5
I0403 15:13:23.291395 31308 net.cpp:148] Top shape: 24 64 14 14 (301056)
I0403 15:13:23.291411 31308 net.cpp:156] Memory required for data: 1050971424
I0403 15:13:23.291427 31308 layer_factory.hpp:77] Creating layer inception_4c/pool
I0403 15:13:23.291447 31308 net.cpp:91] Creating Layer inception_4c/pool
I0403 15:13:23.291465 31308 net.cpp:425] inception_4c/pool <- inception_4b/output_inception_4b/output_0_split_3
I0403 15:13:23.291487 31308 net.cpp:399] inception_4c/pool -> inception_4c/pool
I0403 15:13:23.291558 31308 net.cpp:141] Setting up inception_4c/pool
I0403 15:13:23.291586 31308 net.cpp:148] Top shape: 24 512 14 14 (2408448)
I0403 15:13:23.291604 31308 net.cpp:156] Memory required for data: 1060605216
I0403 15:13:23.291620 31308 layer_factory.hpp:77] Creating layer inception_4c/pool_proj
I0403 15:13:23.291642 31308 net.cpp:91] Creating Layer inception_4c/pool_proj
I0403 15:13:23.291662 31308 net.cpp:425] inception_4c/pool_proj <- inception_4c/pool
I0403 15:13:23.291683 31308 net.cpp:399] inception_4c/pool_proj -> inception_4c/pool_proj
I0403 15:13:23.293020 31308 net.cpp:141] Setting up inception_4c/pool_proj
I0403 15:13:23.293053 31308 net.cpp:148] Top shape: 24 64 14 14 (301056)
I0403 15:13:23.293089 31308 net.cpp:156] Memory required for data: 1061809440
I0403 15:13:23.293110 31308 layer_factory.hpp:77] Creating layer inception_4c/relu_pool_proj
I0403 15:13:23.293129 31308 net.cpp:91] Creating Layer inception_4c/relu_pool_proj
I0403 15:13:23.293146 31308 net.cpp:425] inception_4c/relu_pool_proj <- inception_4c/pool_proj
I0403 15:13:23.293165 31308 net.cpp:386] inception_4c/relu_pool_proj -> inception_4c/pool_proj (in-place)
I0403 15:13:23.293367 31308 net.cpp:141] Setting up inception_4c/relu_pool_proj
I0403 15:13:23.293395 31308 net.cpp:148] Top shape: 24 64 14 14 (301056)
I0403 15:13:23.293412 31308 net.cpp:156] Memory required for data: 1063013664
I0403 15:13:23.293427 31308 layer_factory.hpp:77] Creating layer inception_4c/output
I0403 15:13:23.293447 31308 net.cpp:91] Creating Layer inception_4c/output
I0403 15:13:23.293463 31308 net.cpp:425] inception_4c/output <- inception_4c/1x1
I0403 15:13:23.293481 31308 net.cpp:425] inception_4c/output <- inception_4c/3x3
I0403 15:13:23.293499 31308 net.cpp:425] inception_4c/output <- inception_4c/5x5
I0403 15:13:23.293517 31308 net.cpp:425] inception_4c/output <- inception_4c/pool_proj
I0403 15:13:23.293546 31308 net.cpp:399] inception_4c/output -> inception_4c/output
I0403 15:13:23.293598 31308 net.cpp:141] Setting up inception_4c/output
I0403 15:13:23.293625 31308 net.cpp:148] Top shape: 24 512 14 14 (2408448)
I0403 15:13:23.293643 31308 net.cpp:156] Memory required for data: 1072647456
I0403 15:13:23.293660 31308 layer_factory.hpp:77] Creating layer inception_4c/output_inception_4c/output_0_split
I0403 15:13:23.293678 31308 net.cpp:91] Creating Layer inception_4c/output_inception_4c/output_0_split
I0403 15:13:23.293695 31308 net.cpp:425] inception_4c/output_inception_4c/output_0_split <- inception_4c/output
I0403 15:13:23.293714 31308 net.cpp:399] inception_4c/output_inception_4c/output_0_split -> inception_4c/output_inception_4c/output_0_split_0
I0403 15:13:23.293737 31308 net.cpp:399] inception_4c/output_inception_4c/output_0_split -> inception_4c/output_inception_4c/output_0_split_1
I0403 15:13:23.293763 31308 net.cpp:399] inception_4c/output_inception_4c/output_0_split -> inception_4c/output_inception_4c/output_0_split_2
I0403 15:13:23.293784 31308 net.cpp:399] inception_4c/output_inception_4c/output_0_split -> inception_4c/output_inception_4c/output_0_split_3
I0403 15:13:23.293876 31308 net.cpp:141] Setting up inception_4c/output_inception_4c/output_0_split
I0403 15:13:23.293901 31308 net.cpp:148] Top shape: 24 512 14 14 (2408448)
I0403 15:13:23.293918 31308 net.cpp:148] Top shape: 24 512 14 14 (2408448)
I0403 15:13:23.293936 31308 net.cpp:148] Top shape: 24 512 14 14 (2408448)
I0403 15:13:23.293951 31308 net.cpp:148] Top shape: 24 512 14 14 (2408448)
I0403 15:13:23.293967 31308 net.cpp:156] Memory required for data: 1111182624
I0403 15:13:23.293983 31308 layer_factory.hpp:77] Creating layer inception_4d/1x1
I0403 15:13:23.294008 31308 net.cpp:91] Creating Layer inception_4d/1x1
I0403 15:13:23.294026 31308 net.cpp:425] inception_4d/1x1 <- inception_4c/output_inception_4c/output_0_split_0
I0403 15:13:23.294049 31308 net.cpp:399] inception_4d/1x1 -> inception_4d/1x1
I0403 15:13:23.295537 31308 net.cpp:141] Setting up inception_4d/1x1
I0403 15:13:23.295568 31308 net.cpp:148] Top shape: 24 112 14 14 (526848)
I0403 15:13:23.295585 31308 net.cpp:156] Memory required for data: 1113290016
I0403 15:13:23.295605 31308 layer_factory.hpp:77] Creating layer inception_4d/relu_1x1
I0403 15:13:23.295627 31308 net.cpp:91] Creating Layer inception_4d/relu_1x1
I0403 15:13:23.295645 31308 net.cpp:425] inception_4d/relu_1x1 <- inception_4d/1x1
I0403 15:13:23.295665 31308 net.cpp:386] inception_4d/relu_1x1 -> inception_4d/1x1 (in-place)
I0403 15:13:23.295866 31308 net.cpp:141] Setting up inception_4d/relu_1x1
I0403 15:13:23.295895 31308 net.cpp:148] Top shape: 24 112 14 14 (526848)
I0403 15:13:23.295913 31308 net.cpp:156] Memory required for data: 1115397408
I0403 15:13:23.295930 31308 layer_factory.hpp:77] Creating layer inception_4d/3x3_reduce
I0403 15:13:23.295969 31308 net.cpp:91] Creating Layer inception_4d/3x3_reduce
I0403 15:13:23.295989 31308 net.cpp:425] inception_4d/3x3_reduce <- inception_4c/output_inception_4c/output_0_split_1
I0403 15:13:23.296010 31308 net.cpp:399] inception_4d/3x3_reduce -> inception_4d/3x3_reduce
I0403 15:13:23.297636 31308 net.cpp:141] Setting up inception_4d/3x3_reduce
I0403 15:13:23.297667 31308 net.cpp:148] Top shape: 24 144 14 14 (677376)
I0403 15:13:23.297684 31308 net.cpp:156] Memory required for data: 1118106912
I0403 15:13:23.297704 31308 layer_factory.hpp:77] Creating layer inception_4d/relu_3x3_reduce
I0403 15:13:23.297724 31308 net.cpp:91] Creating Layer inception_4d/relu_3x3_reduce
I0403 15:13:23.297742 31308 net.cpp:425] inception_4d/relu_3x3_reduce <- inception_4d/3x3_reduce
I0403 15:13:23.297763 31308 net.cpp:386] inception_4d/relu_3x3_reduce -> inception_4d/3x3_reduce (in-place)
I0403 15:13:23.298071 31308 net.cpp:141] Setting up inception_4d/relu_3x3_reduce
I0403 15:13:23.298100 31308 net.cpp:148] Top shape: 24 144 14 14 (677376)
I0403 15:13:23.298117 31308 net.cpp:156] Memory required for data: 1120816416
I0403 15:13:23.298135 31308 layer_factory.hpp:77] Creating layer inception_4d/3x3
I0403 15:13:23.298158 31308 net.cpp:91] Creating Layer inception_4d/3x3
I0403 15:13:23.298177 31308 net.cpp:425] inception_4d/3x3 <- inception_4d/3x3_reduce
I0403 15:13:23.298200 31308 net.cpp:399] inception_4d/3x3 -> inception_4d/3x3
I0403 15:13:23.302733 31308 net.cpp:141] Setting up inception_4d/3x3
I0403 15:13:23.302767 31308 net.cpp:148] Top shape: 24 288 14 14 (1354752)
I0403 15:13:23.302784 31308 net.cpp:156] Memory required for data: 1126235424
I0403 15:13:23.302804 31308 layer_factory.hpp:77] Creating layer inception_4d/relu_3x3
I0403 15:13:23.302826 31308 net.cpp:91] Creating Layer inception_4d/relu_3x3
I0403 15:13:23.302844 31308 net.cpp:425] inception_4d/relu_3x3 <- inception_4d/3x3
I0403 15:13:23.302863 31308 net.cpp:386] inception_4d/relu_3x3 -> inception_4d/3x3 (in-place)
I0403 15:13:23.303059 31308 net.cpp:141] Setting up inception_4d/relu_3x3
I0403 15:13:23.303089 31308 net.cpp:148] Top shape: 24 288 14 14 (1354752)
I0403 15:13:23.303108 31308 net.cpp:156] Memory required for data: 1131654432
I0403 15:13:23.303127 31308 layer_factory.hpp:77] Creating layer inception_4d/5x5_reduce
I0403 15:13:23.303150 31308 net.cpp:91] Creating Layer inception_4d/5x5_reduce
I0403 15:13:23.303176 31308 net.cpp:425] inception_4d/5x5_reduce <- inception_4c/output_inception_4c/output_0_split_2
I0403 15:13:23.303200 31308 net.cpp:399] inception_4d/5x5_reduce -> inception_4d/5x5_reduce
I0403 15:13:23.304467 31308 net.cpp:141] Setting up inception_4d/5x5_reduce
I0403 15:13:23.304498 31308 net.cpp:148] Top shape: 24 32 14 14 (150528)
I0403 15:13:23.304517 31308 net.cpp:156] Memory required for data: 1132256544
I0403 15:13:23.304538 31308 layer_factory.hpp:77] Creating layer inception_4d/relu_5x5_reduce
I0403 15:13:23.304559 31308 net.cpp:91] Creating Layer inception_4d/relu_5x5_reduce
I0403 15:13:23.304580 31308 net.cpp:425] inception_4d/relu_5x5_reduce <- inception_4d/5x5_reduce
I0403 15:13:23.304600 31308 net.cpp:386] inception_4d/relu_5x5_reduce -> inception_4d/5x5_reduce (in-place)
I0403 15:13:23.304805 31308 net.cpp:141] Setting up inception_4d/relu_5x5_reduce
I0403 15:13:23.304834 31308 net.cpp:148] Top shape: 24 32 14 14 (150528)
I0403 15:13:23.304852 31308 net.cpp:156] Memory required for data: 1132858656
I0403 15:13:23.304868 31308 layer_factory.hpp:77] Creating layer inception_4d/5x5
I0403 15:13:23.304893 31308 net.cpp:91] Creating Layer inception_4d/5x5
I0403 15:13:23.304910 31308 net.cpp:425] inception_4d/5x5 <- inception_4d/5x5_reduce
I0403 15:13:23.304930 31308 net.cpp:399] inception_4d/5x5 -> inception_4d/5x5
I0403 15:13:23.306516 31308 net.cpp:141] Setting up inception_4d/5x5
I0403 15:13:23.306550 31308 net.cpp:148] Top shape: 24 64 14 14 (301056)
I0403 15:13:23.306571 31308 net.cpp:156] Memory required for data: 1134062880
I0403 15:13:23.306591 31308 layer_factory.hpp:77] Creating layer inception_4d/relu_5x5
I0403 15:13:23.306627 31308 net.cpp:91] Creating Layer inception_4d/relu_5x5
I0403 15:13:23.306645 31308 net.cpp:425] inception_4d/relu_5x5 <- inception_4d/5x5
I0403 15:13:23.306668 31308 net.cpp:386] inception_4d/relu_5x5 -> inception_4d/5x5 (in-place)
I0403 15:13:23.306984 31308 net.cpp:141] Setting up inception_4d/relu_5x5
I0403 15:13:23.307015 31308 net.cpp:148] Top shape: 24 64 14 14 (301056)
I0403 15:13:23.307034 31308 net.cpp:156] Memory required for data: 1135267104
I0403 15:13:23.307049 31308 layer_factory.hpp:77] Creating layer inception_4d/pool
I0403 15:13:23.307068 31308 net.cpp:91] Creating Layer inception_4d/pool
I0403 15:13:23.307085 31308 net.cpp:425] inception_4d/pool <- inception_4c/output_inception_4c/output_0_split_3
I0403 15:13:23.307107 31308 net.cpp:399] inception_4d/pool -> inception_4d/pool
I0403 15:13:23.307179 31308 net.cpp:141] Setting up inception_4d/pool
I0403 15:13:23.307207 31308 net.cpp:148] Top shape: 24 512 14 14 (2408448)
I0403 15:13:23.307224 31308 net.cpp:156] Memory required for data: 1144900896
I0403 15:13:23.307240 31308 layer_factory.hpp:77] Creating layer inception_4d/pool_proj
I0403 15:13:23.307263 31308 net.cpp:91] Creating Layer inception_4d/pool_proj
I0403 15:13:23.307288 31308 net.cpp:425] inception_4d/pool_proj <- inception_4d/pool
I0403 15:13:23.307312 31308 net.cpp:399] inception_4d/pool_proj -> inception_4d/pool_proj
I0403 15:13:23.309185 31308 net.cpp:141] Setting up inception_4d/pool_proj
I0403 15:13:23.309216 31308 net.cpp:148] Top shape: 24 64 14 14 (301056)
I0403 15:13:23.309234 31308 net.cpp:156] Memory required for data: 1146105120
I0403 15:13:23.309253 31308 layer_factory.hpp:77] Creating layer inception_4d/relu_pool_proj
I0403 15:13:23.309280 31308 net.cpp:91] Creating Layer inception_4d/relu_pool_proj
I0403 15:13:23.309305 31308 net.cpp:425] inception_4d/relu_pool_proj <- inception_4d/pool_proj
I0403 15:13:23.309324 31308 net.cpp:386] inception_4d/relu_pool_proj -> inception_4d/pool_proj (in-place)
I0403 15:13:23.309520 31308 net.cpp:141] Setting up inception_4d/relu_pool_proj
I0403 15:13:23.309550 31308 net.cpp:148] Top shape: 24 64 14 14 (301056)
I0403 15:13:23.309566 31308 net.cpp:156] Memory required for data: 1147309344
I0403 15:13:23.309581 31308 layer_factory.hpp:77] Creating layer inception_4d/output
I0403 15:13:23.309599 31308 net.cpp:91] Creating Layer inception_4d/output
I0403 15:13:23.309617 31308 net.cpp:425] inception_4d/output <- inception_4d/1x1
I0403 15:13:23.309634 31308 net.cpp:425] inception_4d/output <- inception_4d/3x3
I0403 15:13:23.309651 31308 net.cpp:425] inception_4d/output <- inception_4d/5x5
I0403 15:13:23.309669 31308 net.cpp:425] inception_4d/output <- inception_4d/pool_proj
I0403 15:13:23.309687 31308 net.cpp:399] inception_4d/output -> inception_4d/output
I0403 15:13:23.309739 31308 net.cpp:141] Setting up inception_4d/output
I0403 15:13:23.309765 31308 net.cpp:148] Top shape: 24 528 14 14 (2483712)
I0403 15:13:23.309782 31308 net.cpp:156] Memory required for data: 1157244192
I0403 15:13:23.309798 31308 layer_factory.hpp:77] Creating layer inception_4d/output_inception_4d/output_0_split
I0403 15:13:23.309820 31308 net.cpp:91] Creating Layer inception_4d/output_inception_4d/output_0_split
I0403 15:13:23.309837 31308 net.cpp:425] inception_4d/output_inception_4d/output_0_split <- inception_4d/output
I0403 15:13:23.309857 31308 net.cpp:399] inception_4d/output_inception_4d/output_0_split -> inception_4d/output_inception_4d/output_0_split_0
I0403 15:13:23.309880 31308 net.cpp:399] inception_4d/output_inception_4d/output_0_split -> inception_4d/output_inception_4d/output_0_split_1
I0403 15:13:23.309905 31308 net.cpp:399] inception_4d/output_inception_4d/output_0_split -> inception_4d/output_inception_4d/output_0_split_2
I0403 15:13:23.309929 31308 net.cpp:399] inception_4d/output_inception_4d/output_0_split -> inception_4d/output_inception_4d/output_0_split_3
I0403 15:13:23.309950 31308 net.cpp:399] inception_4d/output_inception_4d/output_0_split -> inception_4d/output_inception_4d/output_0_split_4
I0403 15:13:23.310060 31308 net.cpp:141] Setting up inception_4d/output_inception_4d/output_0_split
I0403 15:13:23.310098 31308 net.cpp:148] Top shape: 24 528 14 14 (2483712)
I0403 15:13:23.310118 31308 net.cpp:148] Top shape: 24 528 14 14 (2483712)
I0403 15:13:23.310135 31308 net.cpp:148] Top shape: 24 528 14 14 (2483712)
I0403 15:13:23.310153 31308 net.cpp:148] Top shape: 24 528 14 14 (2483712)
I0403 15:13:23.310169 31308 net.cpp:148] Top shape: 24 528 14 14 (2483712)
I0403 15:13:23.310184 31308 net.cpp:156] Memory required for data: 1206918432
I0403 15:13:23.310201 31308 layer_factory.hpp:77] Creating layer loss2/ave_pool
I0403 15:13:23.310222 31308 net.cpp:91] Creating Layer loss2/ave_pool
I0403 15:13:23.310240 31308 net.cpp:425] loss2/ave_pool <- inception_4d/output_inception_4d/output_0_split_0
I0403 15:13:23.310261 31308 net.cpp:399] loss2/ave_pool -> loss2/ave_pool
I0403 15:13:23.310595 31308 net.cpp:141] Setting up loss2/ave_pool
I0403 15:13:23.310626 31308 net.cpp:148] Top shape: 24 528 4 4 (202752)
I0403 15:13:23.310642 31308 net.cpp:156] Memory required for data: 1207729440
I0403 15:13:23.310658 31308 layer_factory.hpp:77] Creating layer loss2/conv
I0403 15:13:23.310683 31308 net.cpp:91] Creating Layer loss2/conv
I0403 15:13:23.310703 31308 net.cpp:425] loss2/conv <- loss2/ave_pool
I0403 15:13:23.310724 31308 net.cpp:399] loss2/conv -> loss2/conv
I0403 15:13:23.312736 31308 net.cpp:141] Setting up loss2/conv
I0403 15:13:23.312767 31308 net.cpp:148] Top shape: 24 128 4 4 (49152)
I0403 15:13:23.312784 31308 net.cpp:156] Memory required for data: 1207926048
I0403 15:13:23.312804 31308 layer_factory.hpp:77] Creating layer loss2/relu_conv
I0403 15:13:23.312824 31308 net.cpp:91] Creating Layer loss2/relu_conv
I0403 15:13:23.312840 31308 net.cpp:425] loss2/relu_conv <- loss2/conv
I0403 15:13:23.312862 31308 net.cpp:386] loss2/relu_conv -> loss2/conv (in-place)
I0403 15:13:23.313172 31308 net.cpp:141] Setting up loss2/relu_conv
I0403 15:13:23.313201 31308 net.cpp:148] Top shape: 24 128 4 4 (49152)
I0403 15:13:23.313220 31308 net.cpp:156] Memory required for data: 1208122656
I0403 15:13:23.313235 31308 layer_factory.hpp:77] Creating layer loss2/fc
I0403 15:13:23.313256 31308 net.cpp:91] Creating Layer loss2/fc
I0403 15:13:23.313273 31308 net.cpp:425] loss2/fc <- loss2/conv
I0403 15:13:23.313300 31308 net.cpp:399] loss2/fc -> loss2/fc
I0403 15:13:23.332391 31308 net.cpp:141] Setting up loss2/fc
I0403 15:13:23.332448 31308 net.cpp:148] Top shape: 24 1024 (24576)
I0403 15:13:23.332469 31308 net.cpp:156] Memory required for data: 1208220960
I0403 15:13:23.332494 31308 layer_factory.hpp:77] Creating layer loss2/relu_fc
I0403 15:13:23.332517 31308 net.cpp:91] Creating Layer loss2/relu_fc
I0403 15:13:23.332556 31308 net.cpp:425] loss2/relu_fc <- loss2/fc
I0403 15:13:23.332578 31308 net.cpp:386] loss2/relu_fc -> loss2/fc (in-place)
I0403 15:13:23.332931 31308 net.cpp:141] Setting up loss2/relu_fc
I0403 15:13:23.332968 31308 net.cpp:148] Top shape: 24 1024 (24576)
I0403 15:13:23.332988 31308 net.cpp:156] Memory required for data: 1208319264
I0403 15:13:23.333009 31308 layer_factory.hpp:77] Creating layer loss2/drop_fc
I0403 15:13:23.333035 31308 net.cpp:91] Creating Layer loss2/drop_fc
I0403 15:13:23.333055 31308 net.cpp:425] loss2/drop_fc <- loss2/fc
I0403 15:13:23.333076 31308 net.cpp:386] loss2/drop_fc -> loss2/fc (in-place)
I0403 15:13:23.333134 31308 net.cpp:141] Setting up loss2/drop_fc
I0403 15:13:23.333159 31308 net.cpp:148] Top shape: 24 1024 (24576)
I0403 15:13:23.333186 31308 net.cpp:156] Memory required for data: 1208417568
I0403 15:13:23.333207 31308 layer_factory.hpp:77] Creating layer loss2/classifier_plantvillage
I0403 15:13:23.333233 31308 net.cpp:91] Creating Layer loss2/classifier_plantvillage
I0403 15:13:23.333258 31308 net.cpp:425] loss2/classifier_plantvillage <- loss2/fc
I0403 15:13:23.333290 31308 net.cpp:399] loss2/classifier_plantvillage -> loss2/classifier_plantvillage
I0403 15:13:23.333730 31308 net.cpp:141] Setting up loss2/classifier_plantvillage
I0403 15:13:23.333762 31308 net.cpp:148] Top shape: 24 38 (912)
I0403 15:13:23.333780 31308 net.cpp:156] Memory required for data: 1208421216
I0403 15:13:23.333820 31308 layer_factory.hpp:77] Creating layer loss2/classifier_plantvillage_loss2/classifier_plantvillage_0_split
I0403 15:13:23.333844 31308 net.cpp:91] Creating Layer loss2/classifier_plantvillage_loss2/classifier_plantvillage_0_split
I0403 15:13:23.333863 31308 net.cpp:425] loss2/classifier_plantvillage_loss2/classifier_plantvillage_0_split <- loss2/classifier_plantvillage
I0403 15:13:23.333884 31308 net.cpp:399] loss2/classifier_plantvillage_loss2/classifier_plantvillage_0_split -> loss2/classifier_plantvillage_loss2/classifier_plantvillage_0_split_0
I0403 15:13:23.333905 31308 net.cpp:399] loss2/classifier_plantvillage_loss2/classifier_plantvillage_0_split -> loss2/classifier_plantvillage_loss2/classifier_plantvillage_0_split_1
I0403 15:13:23.333927 31308 net.cpp:399] loss2/classifier_plantvillage_loss2/classifier_plantvillage_0_split -> loss2/classifier_plantvillage_loss2/classifier_plantvillage_0_split_2
I0403 15:13:23.334007 31308 net.cpp:141] Setting up loss2/classifier_plantvillage_loss2/classifier_plantvillage_0_split
I0403 15:13:23.334034 31308 net.cpp:148] Top shape: 24 38 (912)
I0403 15:13:23.334051 31308 net.cpp:148] Top shape: 24 38 (912)
I0403 15:13:23.334067 31308 net.cpp:148] Top shape: 24 38 (912)
I0403 15:13:23.334085 31308 net.cpp:156] Memory required for data: 1208432160
I0403 15:13:23.334105 31308 layer_factory.hpp:77] Creating layer inception_4e/1x1
I0403 15:13:23.334130 31308 net.cpp:91] Creating Layer inception_4e/1x1
I0403 15:13:23.334147 31308 net.cpp:425] inception_4e/1x1 <- inception_4d/output_inception_4d/output_0_split_1
I0403 15:13:23.334168 31308 net.cpp:399] inception_4e/1x1 -> inception_4e/1x1
I0403 15:13:23.336177 31308 net.cpp:141] Setting up inception_4e/1x1
I0403 15:13:23.336208 31308 net.cpp:148] Top shape: 24 256 14 14 (1204224)
I0403 15:13:23.336226 31308 net.cpp:156] Memory required for data: 1213249056
I0403 15:13:23.336246 31308 layer_factory.hpp:77] Creating layer inception_4e/relu_1x1
I0403 15:13:23.336266 31308 net.cpp:91] Creating Layer inception_4e/relu_1x1
I0403 15:13:23.336287 31308 net.cpp:425] inception_4e/relu_1x1 <- inception_4e/1x1
I0403 15:13:23.336310 31308 net.cpp:386] inception_4e/relu_1x1 -> inception_4e/1x1 (in-place)
I0403 15:13:23.336616 31308 net.cpp:141] Setting up inception_4e/relu_1x1
I0403 15:13:23.336644 31308 net.cpp:148] Top shape: 24 256 14 14 (1204224)
I0403 15:13:23.336661 31308 net.cpp:156] Memory required for data: 1218065952
I0403 15:13:23.336678 31308 layer_factory.hpp:77] Creating layer inception_4e/3x3_reduce
I0403 15:13:23.336702 31308 net.cpp:91] Creating Layer inception_4e/3x3_reduce
I0403 15:13:23.336725 31308 net.cpp:425] inception_4e/3x3_reduce <- inception_4d/output_inception_4d/output_0_split_2
I0403 15:13:23.336746 31308 net.cpp:399] inception_4e/3x3_reduce -> inception_4e/3x3_reduce
I0403 15:13:23.338973 31308 net.cpp:141] Setting up inception_4e/3x3_reduce
I0403 15:13:23.339005 31308 net.cpp:148] Top shape: 24 160 14 14 (752640)
I0403 15:13:23.339025 31308 net.cpp:156] Memory required for data: 1221076512
I0403 15:13:23.339043 31308 layer_factory.hpp:77] Creating layer inception_4e/relu_3x3_reduce
I0403 15:13:23.339064 31308 net.cpp:91] Creating Layer inception_4e/relu_3x3_reduce
I0403 15:13:23.339082 31308 net.cpp:425] inception_4e/relu_3x3_reduce <- inception_4e/3x3_reduce
I0403 15:13:23.339102 31308 net.cpp:386] inception_4e/relu_3x3_reduce -> inception_4e/3x3_reduce (in-place)
I0403 15:13:23.339301 31308 net.cpp:141] Setting up inception_4e/relu_3x3_reduce
I0403 15:13:23.339329 31308 net.cpp:148] Top shape: 24 160 14 14 (752640)
I0403 15:13:23.339345 31308 net.cpp:156] Memory required for data: 1224087072
I0403 15:13:23.339371 31308 layer_factory.hpp:77] Creating layer inception_4e/3x3
I0403 15:13:23.339395 31308 net.cpp:91] Creating Layer inception_4e/3x3
I0403 15:13:23.339414 31308 net.cpp:425] inception_4e/3x3 <- inception_4e/3x3_reduce
I0403 15:13:23.339440 31308 net.cpp:399] inception_4e/3x3 -> inception_4e/3x3
I0403 15:13:23.344651 31308 net.cpp:141] Setting up inception_4e/3x3
I0403 15:13:23.344696 31308 net.cpp:148] Top shape: 24 320 14 14 (1505280)
I0403 15:13:23.344712 31308 net.cpp:156] Memory required for data: 1230108192
I0403 15:13:23.344732 31308 layer_factory.hpp:77] Creating layer inception_4e/relu_3x3
I0403 15:13:23.344753 31308 net.cpp:91] Creating Layer inception_4e/relu_3x3
I0403 15:13:23.344771 31308 net.cpp:425] inception_4e/relu_3x3 <- inception_4e/3x3
I0403 15:13:23.344790 31308 net.cpp:386] inception_4e/relu_3x3 -> inception_4e/3x3 (in-place)
I0403 15:13:23.345106 31308 net.cpp:141] Setting up inception_4e/relu_3x3
I0403 15:13:23.345134 31308 net.cpp:148] Top shape: 24 320 14 14 (1505280)
I0403 15:13:23.345151 31308 net.cpp:156] Memory required for data: 1236129312
I0403 15:13:23.345167 31308 layer_factory.hpp:77] Creating layer inception_4e/5x5_reduce
I0403 15:13:23.345191 31308 net.cpp:91] Creating Layer inception_4e/5x5_reduce
I0403 15:13:23.345209 31308 net.cpp:425] inception_4e/5x5_reduce <- inception_4d/output_inception_4d/output_0_split_3
I0403 15:13:23.345233 31308 net.cpp:399] inception_4e/5x5_reduce -> inception_4e/5x5_reduce
I0403 15:13:23.346354 31308 net.cpp:141] Setting up inception_4e/5x5_reduce
I0403 15:13:23.346385 31308 net.cpp:148] Top shape: 24 32 14 14 (150528)
I0403 15:13:23.346402 31308 net.cpp:156] Memory required for data: 1236731424
I0403 15:13:23.346422 31308 layer_factory.hpp:77] Creating layer inception_4e/relu_5x5_reduce
I0403 15:13:23.346441 31308 net.cpp:91] Creating Layer inception_4e/relu_5x5_reduce
I0403 15:13:23.346459 31308 net.cpp:425] inception_4e/relu_5x5_reduce <- inception_4e/5x5_reduce
I0403 15:13:23.346480 31308 net.cpp:386] inception_4e/relu_5x5_reduce -> inception_4e/5x5_reduce (in-place)
I0403 15:13:23.346922 31308 net.cpp:141] Setting up inception_4e/relu_5x5_reduce
I0403 15:13:23.346952 31308 net.cpp:148] Top shape: 24 32 14 14 (150528)
I0403 15:13:23.346971 31308 net.cpp:156] Memory required for data: 1237333536
I0403 15:13:23.346987 31308 layer_factory.hpp:77] Creating layer inception_4e/5x5
I0403 15:13:23.347028 31308 net.cpp:91] Creating Layer inception_4e/5x5
I0403 15:13:23.347050 31308 net.cpp:425] inception_4e/5x5 <- inception_4e/5x5_reduce
I0403 15:13:23.347070 31308 net.cpp:399] inception_4e/5x5 -> inception_4e/5x5
I0403 15:13:23.349019 31308 net.cpp:141] Setting up inception_4e/5x5
I0403 15:13:23.349048 31308 net.cpp:148] Top shape: 24 128 14 14 (602112)
I0403 15:13:23.349064 31308 net.cpp:156] Memory required for data: 1239741984
I0403 15:13:23.349084 31308 layer_factory.hpp:77] Creating layer inception_4e/relu_5x5
I0403 15:13:23.349105 31308 net.cpp:91] Creating Layer inception_4e/relu_5x5
I0403 15:13:23.349124 31308 net.cpp:425] inception_4e/relu_5x5 <- inception_4e/5x5
I0403 15:13:23.349143 31308 net.cpp:386] inception_4e/relu_5x5 -> inception_4e/5x5 (in-place)
I0403 15:13:23.349354 31308 net.cpp:141] Setting up inception_4e/relu_5x5
I0403 15:13:23.349380 31308 net.cpp:148] Top shape: 24 128 14 14 (602112)
I0403 15:13:23.349396 31308 net.cpp:156] Memory required for data: 1242150432
I0403 15:13:23.349412 31308 layer_factory.hpp:77] Creating layer inception_4e/pool
I0403 15:13:23.349431 31308 net.cpp:91] Creating Layer inception_4e/pool
I0403 15:13:23.349448 31308 net.cpp:425] inception_4e/pool <- inception_4d/output_inception_4d/output_0_split_4
I0403 15:13:23.349469 31308 net.cpp:399] inception_4e/pool -> inception_4e/pool
I0403 15:13:23.349545 31308 net.cpp:141] Setting up inception_4e/pool
I0403 15:13:23.349570 31308 net.cpp:148] Top shape: 24 528 14 14 (2483712)
I0403 15:13:23.349586 31308 net.cpp:156] Memory required for data: 1252085280
I0403 15:13:23.349602 31308 layer_factory.hpp:77] Creating layer inception_4e/pool_proj
I0403 15:13:23.349627 31308 net.cpp:91] Creating Layer inception_4e/pool_proj
I0403 15:13:23.349645 31308 net.cpp:425] inception_4e/pool_proj <- inception_4e/pool
I0403 15:13:23.349665 31308 net.cpp:399] inception_4e/pool_proj -> inception_4e/pool_proj
I0403 15:13:23.351214 31308 net.cpp:141] Setting up inception_4e/pool_proj
I0403 15:13:23.351244 31308 net.cpp:148] Top shape: 24 128 14 14 (602112)
I0403 15:13:23.351275 31308 net.cpp:156] Memory required for data: 1254493728
I0403 15:13:23.351301 31308 layer_factory.hpp:77] Creating layer inception_4e/relu_pool_proj
I0403 15:13:23.351325 31308 net.cpp:91] Creating Layer inception_4e/relu_pool_proj
I0403 15:13:23.351344 31308 net.cpp:425] inception_4e/relu_pool_proj <- inception_4e/pool_proj
I0403 15:13:23.351362 31308 net.cpp:386] inception_4e/relu_pool_proj -> inception_4e/pool_proj (in-place)
I0403 15:13:23.351665 31308 net.cpp:141] Setting up inception_4e/relu_pool_proj
I0403 15:13:23.351693 31308 net.cpp:148] Top shape: 24 128 14 14 (602112)
I0403 15:13:23.351711 31308 net.cpp:156] Memory required for data: 1256902176
I0403 15:13:23.351727 31308 layer_factory.hpp:77] Creating layer inception_4e/output
I0403 15:13:23.351749 31308 net.cpp:91] Creating Layer inception_4e/output
I0403 15:13:23.351768 31308 net.cpp:425] inception_4e/output <- inception_4e/1x1
I0403 15:13:23.351785 31308 net.cpp:425] inception_4e/output <- inception_4e/3x3
I0403 15:13:23.351804 31308 net.cpp:425] inception_4e/output <- inception_4e/5x5
I0403 15:13:23.351821 31308 net.cpp:425] inception_4e/output <- inception_4e/pool_proj
I0403 15:13:23.351840 31308 net.cpp:399] inception_4e/output -> inception_4e/output
I0403 15:13:23.351892 31308 net.cpp:141] Setting up inception_4e/output
I0403 15:13:23.351918 31308 net.cpp:148] Top shape: 24 832 14 14 (3913728)
I0403 15:13:23.351934 31308 net.cpp:156] Memory required for data: 1272557088
I0403 15:13:23.351951 31308 layer_factory.hpp:77] Creating layer pool4/3x3_s2
I0403 15:13:23.351969 31308 net.cpp:91] Creating Layer pool4/3x3_s2
I0403 15:13:23.351985 31308 net.cpp:425] pool4/3x3_s2 <- inception_4e/output
I0403 15:13:23.352006 31308 net.cpp:399] pool4/3x3_s2 -> pool4/3x3_s2
I0403 15:13:23.352077 31308 net.cpp:141] Setting up pool4/3x3_s2
I0403 15:13:23.352102 31308 net.cpp:148] Top shape: 24 832 7 7 (978432)
I0403 15:13:23.352118 31308 net.cpp:156] Memory required for data: 1276470816
I0403 15:13:23.352133 31308 layer_factory.hpp:77] Creating layer pool4/3x3_s2_pool4/3x3_s2_0_split
I0403 15:13:23.352154 31308 net.cpp:91] Creating Layer pool4/3x3_s2_pool4/3x3_s2_0_split
I0403 15:13:23.352171 31308 net.cpp:425] pool4/3x3_s2_pool4/3x3_s2_0_split <- pool4/3x3_s2
I0403 15:13:23.352195 31308 net.cpp:399] pool4/3x3_s2_pool4/3x3_s2_0_split -> pool4/3x3_s2_pool4/3x3_s2_0_split_0
I0403 15:13:23.352216 31308 net.cpp:399] pool4/3x3_s2_pool4/3x3_s2_0_split -> pool4/3x3_s2_pool4/3x3_s2_0_split_1
I0403 15:13:23.352237 31308 net.cpp:399] pool4/3x3_s2_pool4/3x3_s2_0_split -> pool4/3x3_s2_pool4/3x3_s2_0_split_2
I0403 15:13:23.352259 31308 net.cpp:399] pool4/3x3_s2_pool4/3x3_s2_0_split -> pool4/3x3_s2_pool4/3x3_s2_0_split_3
I0403 15:13:23.352357 31308 net.cpp:141] Setting up pool4/3x3_s2_pool4/3x3_s2_0_split
I0403 15:13:23.352385 31308 net.cpp:148] Top shape: 24 832 7 7 (978432)
I0403 15:13:23.352402 31308 net.cpp:148] Top shape: 24 832 7 7 (978432)
I0403 15:13:23.352419 31308 net.cpp:148] Top shape: 24 832 7 7 (978432)
I0403 15:13:23.352437 31308 net.cpp:148] Top shape: 24 832 7 7 (978432)
I0403 15:13:23.352452 31308 net.cpp:156] Memory required for data: 1292125728
I0403 15:13:23.352468 31308 layer_factory.hpp:77] Creating layer inception_5a/1x1
I0403 15:13:23.352491 31308 net.cpp:91] Creating Layer inception_5a/1x1
I0403 15:13:23.352509 31308 net.cpp:425] inception_5a/1x1 <- pool4/3x3_s2_pool4/3x3_s2_0_split_0
I0403 15:13:23.352530 31308 net.cpp:399] inception_5a/1x1 -> inception_5a/1x1
I0403 15:13:23.355581 31308 net.cpp:141] Setting up inception_5a/1x1
I0403 15:13:23.355617 31308 net.cpp:148] Top shape: 24 256 7 7 (301056)
I0403 15:13:23.355634 31308 net.cpp:156] Memory required for data: 1293329952
I0403 15:13:23.355655 31308 layer_factory.hpp:77] Creating layer inception_5a/relu_1x1
I0403 15:13:23.355674 31308 net.cpp:91] Creating Layer inception_5a/relu_1x1
I0403 15:13:23.355691 31308 net.cpp:425] inception_5a/relu_1x1 <- inception_5a/1x1
I0403 15:13:23.355710 31308 net.cpp:386] inception_5a/relu_1x1 -> inception_5a/1x1 (in-place)
I0403 15:13:23.356042 31308 net.cpp:141] Setting up inception_5a/relu_1x1
I0403 15:13:23.356073 31308 net.cpp:148] Top shape: 24 256 7 7 (301056)
I0403 15:13:23.356092 31308 net.cpp:156] Memory required for data: 1294534176
I0403 15:13:23.356111 31308 layer_factory.hpp:77] Creating layer inception_5a/3x3_reduce
I0403 15:13:23.356134 31308 net.cpp:91] Creating Layer inception_5a/3x3_reduce
I0403 15:13:23.356155 31308 net.cpp:425] inception_5a/3x3_reduce <- pool4/3x3_s2_pool4/3x3_s2_0_split_1
I0403 15:13:23.356175 31308 net.cpp:399] inception_5a/3x3_reduce -> inception_5a/3x3_reduce
I0403 15:13:23.358809 31308 net.cpp:141] Setting up inception_5a/3x3_reduce
I0403 15:13:23.358839 31308 net.cpp:148] Top shape: 24 160 7 7 (188160)
I0403 15:13:23.358856 31308 net.cpp:156] Memory required for data: 1295286816
I0403 15:13:23.358875 31308 layer_factory.hpp:77] Creating layer inception_5a/relu_3x3_reduce
I0403 15:13:23.358897 31308 net.cpp:91] Creating Layer inception_5a/relu_3x3_reduce
I0403 15:13:23.358916 31308 net.cpp:425] inception_5a/relu_3x3_reduce <- inception_5a/3x3_reduce
I0403 15:13:23.358937 31308 net.cpp:386] inception_5a/relu_3x3_reduce -> inception_5a/3x3_reduce (in-place)
I0403 15:13:23.359136 31308 net.cpp:141] Setting up inception_5a/relu_3x3_reduce
I0403 15:13:23.359168 31308 net.cpp:148] Top shape: 24 160 7 7 (188160)
I0403 15:13:23.359184 31308 net.cpp:156] Memory required for data: 1296039456
I0403 15:13:23.359200 31308 layer_factory.hpp:77] Creating layer inception_5a/3x3
I0403 15:13:23.359225 31308 net.cpp:91] Creating Layer inception_5a/3x3
I0403 15:13:23.359246 31308 net.cpp:425] inception_5a/3x3 <- inception_5a/3x3_reduce
I0403 15:13:23.359266 31308 net.cpp:399] inception_5a/3x3 -> inception_5a/3x3
I0403 15:13:23.364639 31308 net.cpp:141] Setting up inception_5a/3x3
I0403 15:13:23.364673 31308 net.cpp:148] Top shape: 24 320 7 7 (376320)
I0403 15:13:23.364691 31308 net.cpp:156] Memory required for data: 1297544736
I0403 15:13:23.364712 31308 layer_factory.hpp:77] Creating layer inception_5a/relu_3x3
I0403 15:13:23.364732 31308 net.cpp:91] Creating Layer inception_5a/relu_3x3
I0403 15:13:23.364749 31308 net.cpp:425] inception_5a/relu_3x3 <- inception_5a/3x3
I0403 15:13:23.364771 31308 net.cpp:386] inception_5a/relu_3x3 -> inception_5a/3x3 (in-place)
I0403 15:13:23.365082 31308 net.cpp:141] Setting up inception_5a/relu_3x3
I0403 15:13:23.365119 31308 net.cpp:148] Top shape: 24 320 7 7 (376320)
I0403 15:13:23.365139 31308 net.cpp:156] Memory required for data: 1299050016
I0403 15:13:23.365155 31308 layer_factory.hpp:77] Creating layer inception_5a/5x5_reduce
I0403 15:13:23.365188 31308 net.cpp:91] Creating Layer inception_5a/5x5_reduce
I0403 15:13:23.365218 31308 net.cpp:425] inception_5a/5x5_reduce <- pool4/3x3_s2_pool4/3x3_s2_0_split_2
I0403 15:13:23.365239 31308 net.cpp:399] inception_5a/5x5_reduce -> inception_5a/5x5_reduce
I0403 15:13:23.366492 31308 net.cpp:141] Setting up inception_5a/5x5_reduce
I0403 15:13:23.366525 31308 net.cpp:148] Top shape: 24 32 7 7 (37632)
I0403 15:13:23.366544 31308 net.cpp:156] Memory required for data: 1299200544
I0403 15:13:23.366564 31308 layer_factory.hpp:77] Creating layer inception_5a/relu_5x5_reduce
I0403 15:13:23.366585 31308 net.cpp:91] Creating Layer inception_5a/relu_5x5_reduce
I0403 15:13:23.366602 31308 net.cpp:425] inception_5a/relu_5x5_reduce <- inception_5a/5x5_reduce
I0403 15:13:23.366622 31308 net.cpp:386] inception_5a/relu_5x5_reduce -> inception_5a/5x5_reduce (in-place)
I0403 15:13:23.366941 31308 net.cpp:141] Setting up inception_5a/relu_5x5_reduce
I0403 15:13:23.366971 31308 net.cpp:148] Top shape: 24 32 7 7 (37632)
I0403 15:13:23.366987 31308 net.cpp:156] Memory required for data: 1299351072
I0403 15:13:23.367004 31308 layer_factory.hpp:77] Creating layer inception_5a/5x5
I0403 15:13:23.367028 31308 net.cpp:91] Creating Layer inception_5a/5x5
I0403 15:13:23.367048 31308 net.cpp:425] inception_5a/5x5 <- inception_5a/5x5_reduce
I0403 15:13:23.367070 31308 net.cpp:399] inception_5a/5x5 -> inception_5a/5x5
I0403 15:13:23.368923 31308 net.cpp:141] Setting up inception_5a/5x5
I0403 15:13:23.368994 31308 net.cpp:148] Top shape: 24 128 7 7 (150528)
I0403 15:13:23.369040 31308 net.cpp:156] Memory required for data: 1299953184
I0403 15:13:23.369098 31308 layer_factory.hpp:77] Creating layer inception_5a/relu_5x5
I0403 15:13:23.369146 31308 net.cpp:91] Creating Layer inception_5a/relu_5x5
I0403 15:13:23.369192 31308 net.cpp:425] inception_5a/relu_5x5 <- inception_5a/5x5
I0403 15:13:23.369240 31308 net.cpp:386] inception_5a/relu_5x5 -> inception_5a/5x5 (in-place)
I0403 15:13:23.369478 31308 net.cpp:141] Setting up inception_5a/relu_5x5
I0403 15:13:23.369535 31308 net.cpp:148] Top shape: 24 128 7 7 (150528)
I0403 15:13:23.369580 31308 net.cpp:156] Memory required for data: 1300555296
I0403 15:13:23.369618 31308 layer_factory.hpp:77] Creating layer inception_5a/pool
I0403 15:13:23.369660 31308 net.cpp:91] Creating Layer inception_5a/pool
I0403 15:13:23.369710 31308 net.cpp:425] inception_5a/pool <- pool4/3x3_s2_pool4/3x3_s2_0_split_3
I0403 15:13:23.369734 31308 net.cpp:399] inception_5a/pool -> inception_5a/pool
I0403 15:13:23.369832 31308 net.cpp:141] Setting up inception_5a/pool
I0403 15:13:23.369874 31308 net.cpp:148] Top shape: 24 832 7 7 (978432)
I0403 15:13:23.369890 31308 net.cpp:156] Memory required for data: 1304469024
I0403 15:13:23.369921 31308 layer_factory.hpp:77] Creating layer inception_5a/pool_proj
I0403 15:13:23.369949 31308 net.cpp:91] Creating Layer inception_5a/pool_proj
I0403 15:13:23.369968 31308 net.cpp:425] inception_5a/pool_proj <- inception_5a/pool
I0403 15:13:23.369990 31308 net.cpp:399] inception_5a/pool_proj -> inception_5a/pool_proj
I0403 15:13:23.372443 31308 net.cpp:141] Setting up inception_5a/pool_proj
I0403 15:13:23.372476 31308 net.cpp:148] Top shape: 24 128 7 7 (150528)
I0403 15:13:23.372493 31308 net.cpp:156] Memory required for data: 1305071136
I0403 15:13:23.372514 31308 layer_factory.hpp:77] Creating layer inception_5a/relu_pool_proj
I0403 15:13:23.372537 31308 net.cpp:91] Creating Layer inception_5a/relu_pool_proj
I0403 15:13:23.372555 31308 net.cpp:425] inception_5a/relu_pool_proj <- inception_5a/pool_proj
I0403 15:13:23.372575 31308 net.cpp:386] inception_5a/relu_pool_proj -> inception_5a/pool_proj (in-place)
I0403 15:13:23.372889 31308 net.cpp:141] Setting up inception_5a/relu_pool_proj
I0403 15:13:23.372920 31308 net.cpp:148] Top shape: 24 128 7 7 (150528)
I0403 15:13:23.372944 31308 net.cpp:156] Memory required for data: 1305673248
I0403 15:13:23.372963 31308 layer_factory.hpp:77] Creating layer inception_5a/output
I0403 15:13:23.372984 31308 net.cpp:91] Creating Layer inception_5a/output
I0403 15:13:23.373003 31308 net.cpp:425] inception_5a/output <- inception_5a/1x1
I0403 15:13:23.373023 31308 net.cpp:425] inception_5a/output <- inception_5a/3x3
I0403 15:13:23.373042 31308 net.cpp:425] inception_5a/output <- inception_5a/5x5
I0403 15:13:23.373064 31308 net.cpp:425] inception_5a/output <- inception_5a/pool_proj
I0403 15:13:23.373081 31308 net.cpp:399] inception_5a/output -> inception_5a/output
I0403 15:13:23.373137 31308 net.cpp:141] Setting up inception_5a/output
I0403 15:13:23.373167 31308 net.cpp:148] Top shape: 24 832 7 7 (978432)
I0403 15:13:23.373183 31308 net.cpp:156] Memory required for data: 1309586976
I0403 15:13:23.373203 31308 layer_factory.hpp:77] Creating layer inception_5a/output_inception_5a/output_0_split
I0403 15:13:23.373222 31308 net.cpp:91] Creating Layer inception_5a/output_inception_5a/output_0_split
I0403 15:13:23.373241 31308 net.cpp:425] inception_5a/output_inception_5a/output_0_split <- inception_5a/output
I0403 15:13:23.373265 31308 net.cpp:399] inception_5a/output_inception_5a/output_0_split -> inception_5a/output_inception_5a/output_0_split_0
I0403 15:13:23.373294 31308 net.cpp:399] inception_5a/output_inception_5a/output_0_split -> inception_5a/output_inception_5a/output_0_split_1
I0403 15:13:23.373318 31308 net.cpp:399] inception_5a/output_inception_5a/output_0_split -> inception_5a/output_inception_5a/output_0_split_2
I0403 15:13:23.373342 31308 net.cpp:399] inception_5a/output_inception_5a/output_0_split -> inception_5a/output_inception_5a/output_0_split_3
I0403 15:13:23.373463 31308 net.cpp:141] Setting up inception_5a/output_inception_5a/output_0_split
I0403 15:13:23.373491 31308 net.cpp:148] Top shape: 24 832 7 7 (978432)
I0403 15:13:23.373508 31308 net.cpp:148] Top shape: 24 832 7 7 (978432)
I0403 15:13:23.373525 31308 net.cpp:148] Top shape: 24 832 7 7 (978432)
I0403 15:13:23.373543 31308 net.cpp:148] Top shape: 24 832 7 7 (978432)
I0403 15:13:23.373558 31308 net.cpp:156] Memory required for data: 1325241888
I0403 15:13:23.373574 31308 layer_factory.hpp:77] Creating layer inception_5b/1x1
I0403 15:13:23.373599 31308 net.cpp:91] Creating Layer inception_5b/1x1
I0403 15:13:23.373618 31308 net.cpp:425] inception_5b/1x1 <- inception_5a/output_inception_5a/output_0_split_0
I0403 15:13:23.373641 31308 net.cpp:399] inception_5b/1x1 -> inception_5b/1x1
I0403 15:13:23.377739 31308 net.cpp:141] Setting up inception_5b/1x1
I0403 15:13:23.377773 31308 net.cpp:148] Top shape: 24 384 7 7 (451584)
I0403 15:13:23.377789 31308 net.cpp:156] Memory required for data: 1327048224
I0403 15:13:23.377810 31308 layer_factory.hpp:77] Creating layer inception_5b/relu_1x1
I0403 15:13:23.377831 31308 net.cpp:91] Creating Layer inception_5b/relu_1x1
I0403 15:13:23.377851 31308 net.cpp:425] inception_5b/relu_1x1 <- inception_5b/1x1
I0403 15:13:23.377868 31308 net.cpp:386] inception_5b/relu_1x1 -> inception_5b/1x1 (in-place)
I0403 15:13:23.378198 31308 net.cpp:141] Setting up inception_5b/relu_1x1
I0403 15:13:23.378227 31308 net.cpp:148] Top shape: 24 384 7 7 (451584)
I0403 15:13:23.378245 31308 net.cpp:156] Memory required for data: 1328854560
I0403 15:13:23.378262 31308 layer_factory.hpp:77] Creating layer inception_5b/3x3_reduce
I0403 15:13:23.378290 31308 net.cpp:91] Creating Layer inception_5b/3x3_reduce
I0403 15:13:23.378312 31308 net.cpp:425] inception_5b/3x3_reduce <- inception_5a/output_inception_5a/output_0_split_1
I0403 15:13:23.378337 31308 net.cpp:399] inception_5b/3x3_reduce -> inception_5b/3x3_reduce
I0403 15:13:23.381186 31308 net.cpp:141] Setting up inception_5b/3x3_reduce
I0403 15:13:23.381217 31308 net.cpp:148] Top shape: 24 192 7 7 (225792)
I0403 15:13:23.381234 31308 net.cpp:156] Memory required for data: 1329757728
I0403 15:13:23.381254 31308 layer_factory.hpp:77] Creating layer inception_5b/relu_3x3_reduce
I0403 15:13:23.381276 31308 net.cpp:91] Creating Layer inception_5b/relu_3x3_reduce
I0403 15:13:23.381300 31308 net.cpp:425] inception_5b/relu_3x3_reduce <- inception_5b/3x3_reduce
I0403 15:13:23.381322 31308 net.cpp:386] inception_5b/relu_3x3_reduce -> inception_5b/3x3_reduce (in-place)
I0403 15:13:23.381528 31308 net.cpp:141] Setting up inception_5b/relu_3x3_reduce
I0403 15:13:23.381559 31308 net.cpp:148] Top shape: 24 192 7 7 (225792)
I0403 15:13:23.381579 31308 net.cpp:156] Memory required for data: 1330660896
I0403 15:13:23.381597 31308 layer_factory.hpp:77] Creating layer inception_5b/3x3
I0403 15:13:23.381619 31308 net.cpp:91] Creating Layer inception_5b/3x3
I0403 15:13:23.381639 31308 net.cpp:425] inception_5b/3x3 <- inception_5b/3x3_reduce
I0403 15:13:23.381660 31308 net.cpp:399] inception_5b/3x3 -> inception_5b/3x3
I0403 15:13:23.388906 31308 net.cpp:141] Setting up inception_5b/3x3
I0403 15:13:23.388939 31308 net.cpp:148] Top shape: 24 384 7 7 (451584)
I0403 15:13:23.388960 31308 net.cpp:156] Memory required for data: 1332467232
I0403 15:13:23.388980 31308 layer_factory.hpp:77] Creating layer inception_5b/relu_3x3
I0403 15:13:23.388999 31308 net.cpp:91] Creating Layer inception_5b/relu_3x3
I0403 15:13:23.389017 31308 net.cpp:425] inception_5b/relu_3x3 <- inception_5b/3x3
I0403 15:13:23.389036 31308 net.cpp:386] inception_5b/relu_3x3 -> inception_5b/3x3 (in-place)
I0403 15:13:23.389365 31308 net.cpp:141] Setting up inception_5b/relu_3x3
I0403 15:13:23.389395 31308 net.cpp:148] Top shape: 24 384 7 7 (451584)
I0403 15:13:23.389415 31308 net.cpp:156] Memory required for data: 1334273568
I0403 15:13:23.389432 31308 layer_factory.hpp:77] Creating layer inception_5b/5x5_reduce
I0403 15:13:23.389472 31308 net.cpp:91] Creating Layer inception_5b/5x5_reduce
I0403 15:13:23.389493 31308 net.cpp:425] inception_5b/5x5_reduce <- inception_5a/output_inception_5a/output_0_split_2
I0403 15:13:23.389520 31308 net.cpp:399] inception_5b/5x5_reduce -> inception_5b/5x5_reduce
I0403 15:13:23.390897 31308 net.cpp:141] Setting up inception_5b/5x5_reduce
I0403 15:13:23.390926 31308 net.cpp:148] Top shape: 24 48 7 7 (56448)
I0403 15:13:23.390944 31308 net.cpp:156] Memory required for data: 1334499360
I0403 15:13:23.390964 31308 layer_factory.hpp:77] Creating layer inception_5b/relu_5x5_reduce
I0403 15:13:23.390986 31308 net.cpp:91] Creating Layer inception_5b/relu_5x5_reduce
I0403 15:13:23.391005 31308 net.cpp:425] inception_5b/relu_5x5_reduce <- inception_5b/5x5_reduce
I0403 15:13:23.391023 31308 net.cpp:386] inception_5b/relu_5x5_reduce -> inception_5b/5x5_reduce (in-place)
I0403 15:13:23.391432 31308 net.cpp:141] Setting up inception_5b/relu_5x5_reduce
I0403 15:13:23.391463 31308 net.cpp:148] Top shape: 24 48 7 7 (56448)
I0403 15:13:23.391486 31308 net.cpp:156] Memory required for data: 1334725152
I0403 15:13:23.391502 31308 layer_factory.hpp:77] Creating layer inception_5b/5x5
I0403 15:13:23.391523 31308 net.cpp:91] Creating Layer inception_5b/5x5
I0403 15:13:23.391542 31308 net.cpp:425] inception_5b/5x5 <- inception_5b/5x5_reduce
I0403 15:13:23.391563 31308 net.cpp:399] inception_5b/5x5 -> inception_5b/5x5
I0403 15:13:23.393786 31308 net.cpp:141] Setting up inception_5b/5x5
I0403 15:13:23.393820 31308 net.cpp:148] Top shape: 24 128 7 7 (150528)
I0403 15:13:23.393837 31308 net.cpp:156] Memory required for data: 1335327264
I0403 15:13:23.393857 31308 layer_factory.hpp:77] Creating layer inception_5b/relu_5x5
I0403 15:13:23.393878 31308 net.cpp:91] Creating Layer inception_5b/relu_5x5
I0403 15:13:23.393896 31308 net.cpp:425] inception_5b/relu_5x5 <- inception_5b/5x5
I0403 15:13:23.393915 31308 net.cpp:386] inception_5b/relu_5x5 -> inception_5b/5x5 (in-place)
I0403 15:13:23.394124 31308 net.cpp:141] Setting up inception_5b/relu_5x5
I0403 15:13:23.394151 31308 net.cpp:148] Top shape: 24 128 7 7 (150528)
I0403 15:13:23.394166 31308 net.cpp:156] Memory required for data: 1335929376
I0403 15:13:23.394182 31308 layer_factory.hpp:77] Creating layer inception_5b/pool
I0403 15:13:23.394201 31308 net.cpp:91] Creating Layer inception_5b/pool
I0403 15:13:23.394219 31308 net.cpp:425] inception_5b/pool <- inception_5a/output_inception_5a/output_0_split_3
I0403 15:13:23.394240 31308 net.cpp:399] inception_5b/pool -> inception_5b/pool
I0403 15:13:23.394332 31308 net.cpp:141] Setting up inception_5b/pool
I0403 15:13:23.394362 31308 net.cpp:148] Top shape: 24 832 7 7 (978432)
I0403 15:13:23.394379 31308 net.cpp:156] Memory required for data: 1339843104
I0403 15:13:23.394397 31308 layer_factory.hpp:77] Creating layer inception_5b/pool_proj
I0403 15:13:23.394420 31308 net.cpp:91] Creating Layer inception_5b/pool_proj
I0403 15:13:23.394439 31308 net.cpp:425] inception_5b/pool_proj <- inception_5b/pool
I0403 15:13:23.394460 31308 net.cpp:399] inception_5b/pool_proj -> inception_5b/pool_proj
I0403 15:13:23.396930 31308 net.cpp:141] Setting up inception_5b/pool_proj
I0403 15:13:23.396963 31308 net.cpp:148] Top shape: 24 128 7 7 (150528)
I0403 15:13:23.396983 31308 net.cpp:156] Memory required for data: 1340445216
I0403 15:13:23.397006 31308 layer_factory.hpp:77] Creating layer inception_5b/relu_pool_proj
I0403 15:13:23.397030 31308 net.cpp:91] Creating Layer inception_5b/relu_pool_proj
I0403 15:13:23.397052 31308 net.cpp:425] inception_5b/relu_pool_proj <- inception_5b/pool_proj
I0403 15:13:23.397073 31308 net.cpp:386] inception_5b/relu_pool_proj -> inception_5b/pool_proj (in-place)
I0403 15:13:23.397405 31308 net.cpp:141] Setting up inception_5b/relu_pool_proj
I0403 15:13:23.397434 31308 net.cpp:148] Top shape: 24 128 7 7 (150528)
I0403 15:13:23.397451 31308 net.cpp:156] Memory required for data: 1341047328
I0403 15:13:23.397469 31308 layer_factory.hpp:77] Creating layer inception_5b/output
I0403 15:13:23.397490 31308 net.cpp:91] Creating Layer inception_5b/output
I0403 15:13:23.397523 31308 net.cpp:425] inception_5b/output <- inception_5b/1x1
I0403 15:13:23.397543 31308 net.cpp:425] inception_5b/output <- inception_5b/3x3
I0403 15:13:23.397562 31308 net.cpp:425] inception_5b/output <- inception_5b/5x5
I0403 15:13:23.397579 31308 net.cpp:425] inception_5b/output <- inception_5b/pool_proj
I0403 15:13:23.397598 31308 net.cpp:399] inception_5b/output -> inception_5b/output
I0403 15:13:23.397657 31308 net.cpp:141] Setting up inception_5b/output
I0403 15:13:23.397683 31308 net.cpp:148] Top shape: 24 1024 7 7 (1204224)
I0403 15:13:23.397701 31308 net.cpp:156] Memory required for data: 1345864224
I0403 15:13:23.397716 31308 layer_factory.hpp:77] Creating layer pool5/7x7_s1
I0403 15:13:23.397735 31308 net.cpp:91] Creating Layer pool5/7x7_s1
I0403 15:13:23.397753 31308 net.cpp:425] pool5/7x7_s1 <- inception_5b/output
I0403 15:13:23.397774 31308 net.cpp:399] pool5/7x7_s1 -> pool5/7x7_s1
I0403 15:13:23.398010 31308 net.cpp:141] Setting up pool5/7x7_s1
I0403 15:13:23.398039 31308 net.cpp:148] Top shape: 24 1024 1 1 (24576)
I0403 15:13:23.398056 31308 net.cpp:156] Memory required for data: 1345962528
I0403 15:13:23.398073 31308 layer_factory.hpp:77] Creating layer pool5/drop_7x7_s1
I0403 15:13:23.398094 31308 net.cpp:91] Creating Layer pool5/drop_7x7_s1
I0403 15:13:23.398118 31308 net.cpp:425] pool5/drop_7x7_s1 <- pool5/7x7_s1
I0403 15:13:23.398140 31308 net.cpp:386] pool5/drop_7x7_s1 -> pool5/7x7_s1 (in-place)
I0403 15:13:23.398195 31308 net.cpp:141] Setting up pool5/drop_7x7_s1
I0403 15:13:23.398219 31308 net.cpp:148] Top shape: 24 1024 1 1 (24576)
I0403 15:13:23.398236 31308 net.cpp:156] Memory required for data: 1346060832
I0403 15:13:23.398252 31308 layer_factory.hpp:77] Creating layer loss3/classifier_plantvillage
I0403 15:13:23.398274 31308 net.cpp:91] Creating Layer loss3/classifier_plantvillage
I0403 15:13:23.398299 31308 net.cpp:425] loss3/classifier_plantvillage <- pool5/7x7_s1
I0403 15:13:23.398324 31308 net.cpp:399] loss3/classifier_plantvillage -> loss3/classifier_plantvillage
I0403 15:13:23.398779 31308 net.cpp:141] Setting up loss3/classifier_plantvillage
I0403 15:13:23.398809 31308 net.cpp:148] Top shape: 24 38 (912)
I0403 15:13:23.398826 31308 net.cpp:156] Memory required for data: 1346064480
I0403 15:13:23.398846 31308 layer_factory.hpp:77] Creating layer loss3/classifier_plantvillage_loss3/classifier_plantvillage_0_split
I0403 15:13:23.398867 31308 net.cpp:91] Creating Layer loss3/classifier_plantvillage_loss3/classifier_plantvillage_0_split
I0403 15:13:23.398888 31308 net.cpp:425] loss3/classifier_plantvillage_loss3/classifier_plantvillage_0_split <- loss3/classifier_plantvillage
I0403 15:13:23.398912 31308 net.cpp:399] loss3/classifier_plantvillage_loss3/classifier_plantvillage_0_split -> loss3/classifier_plantvillage_loss3/classifier_plantvillage_0_split_0
I0403 15:13:23.398936 31308 net.cpp:399] loss3/classifier_plantvillage_loss3/classifier_plantvillage_0_split -> loss3/classifier_plantvillage_loss3/classifier_plantvillage_0_split_1
I0403 15:13:23.398958 31308 net.cpp:399] loss3/classifier_plantvillage_loss3/classifier_plantvillage_0_split -> loss3/classifier_plantvillage_loss3/classifier_plantvillage_0_split_2
I0403 15:13:23.398979 31308 net.cpp:399] loss3/classifier_plantvillage_loss3/classifier_plantvillage_0_split -> loss3/classifier_plantvillage_loss3/classifier_plantvillage_0_split_3
I0403 15:13:23.399088 31308 net.cpp:141] Setting up loss3/classifier_plantvillage_loss3/classifier_plantvillage_0_split
I0403 15:13:23.399116 31308 net.cpp:148] Top shape: 24 38 (912)
I0403 15:13:23.399134 31308 net.cpp:148] Top shape: 24 38 (912)
I0403 15:13:23.399152 31308 net.cpp:148] Top shape: 24 38 (912)
I0403 15:13:23.399178 31308 net.cpp:148] Top shape: 24 38 (912)
I0403 15:13:23.399195 31308 net.cpp:156] Memory required for data: 1346079072
I0403 15:13:23.399210 31308 layer_factory.hpp:77] Creating layer loss1/loss
I0403 15:13:23.399235 31308 net.cpp:91] Creating Layer loss1/loss
I0403 15:13:23.399255 31308 net.cpp:425] loss1/loss <- loss1/classifier_plantvillage_loss1/classifier_plantvillage_0_split_0
I0403 15:13:23.399291 31308 net.cpp:425] loss1/loss <- label_data_1_split_0
…
