…
I0403 14:40:25.938766 30106 net.cpp:313] The NetState phase (1) differed from the phase (0) specified by a rule in layer data
I0403 14:40:25.939512 30106 net.cpp:49] Initializing net from parameters: 
state {
  phase: TEST
}
layer {
  name: "data"
  type: "Data"
  top: "data"
  top: "label"
  include {
    phase: TEST
  }
  transform_param {
    crop_size: 227
    mean_file: "/home/mohanty/data/final_dataset/lmdb/segmented-40-60/mean.binaryproto"
  }
  data_param {
    source: "/home/mohanty/data/final_dataset/lmdb/segmented-40-60/test_db"
    batch_size: 100
    backend: LMDB
  }
}
layer {
  name: "conv1"
  type: "Convolution"
  bottom: "data"
  top: "conv1"
  param {
    lr_mult: 1
    decay_mult: 1
  }
  param {
    lr_mult: 2
    decay_mult: 0
  }
  convolution_param {
    num_output: 96
    kernel_size: 11
    stride: 4
    weight_filler {
      type: "gaussian"
      std: 0.01
    }
    bias_filler {
      type: "constant"
      value: 0
    }
  }
}
layer {
  name: "relu1"
  type: "ReLU"
  bottom: "conv1"
  top: "conv1"
}
layer {
  name: "norm1"
  type: "LRN"
  bottom: "conv1"
  top: "norm1"
  lrn_param {
    local_size: 5
    alpha: 0.0001
    beta: 0.75
  }
}
layer {
  name: "pool1"
  type: "Pooling"
  bottom: "norm1"
  top: "pool1"
  pooling_param {
    pool: MAX
    kernel_size: 3
    stride: 2
  }
}
layer {
  name: "conv2"
  type: "Convolution"
  bottom: "pool1"
  top: "conv2"
  param {
    lr_mult: 1
    decay_mult: 1
  }
  param {
    lr_mult: 2
    decay_mult: 0
  }
  convolution_param {
    num_output: 256
    pad: 2
    kernel_size: 5
    group: 2
    weight_filler {
      type: "gaussian"
      std: 0.01
    }
    bias_filler {
      type: "constant"
      value: 0.1
    }
  }
}
layer {
  name: "relu2"
  type: "ReLU"
  bottom: "conv2"
  top: "conv2"
}
layer {
  name: "norm2"
  type: "LRN"
  bottom: "conv2"
  top: "norm2"
  lrn_param {
    local_size: 5
    alpha: 0.0001
    beta: 0.75
  }
}
layer {
  name: "pool2"
  type: "Pooling"
  bottom: "norm2"
  top: "pool2"
  pooling_param {
    pool: MAX
    kernel_size: 3
    stride: 2
  }
}
layer {
  name: "conv3"
  type: "Convolution"
  bottom: "pool2"
  top: "conv3"
  param {
    lr_mult: 1
    decay_mult: 1
  }
  param {
    lr_mult: 2
    decay_mult: 0
  }
  convolution_param {
    num_output: 384
    pad: 1
    kernel_size: 3
    weight_filler {
      type: "gaussian"
      std: 0.01
    }
    bias_filler {
      type: "constant"
      value: 0
    }
  }
}
layer {
  name: "relu3"
  type: "ReLU"
  bottom: "conv3"
  top: "conv3"
}
layer {
  name: "conv4"
  type: "Convolution"
  bottom: "conv3"
  top: "conv4"
  param {
    lr_mult: 1
    decay_mult: 1
  }
  param {
    lr_mult: 2
    decay_mult: 0
  }
  convolution_param {
    num_output: 384
    pad: 1
    kernel_size: 3
    group: 2
    weight_filler {
      type: "gaussian"
      std: 0.01
    }
    bias_filler {
      type: "constant"
      value: 0.1
    }
  }
}
layer {
  name: "relu4"
  type: "ReLU"
  bottom: "conv4"
  top: "conv4"
}
layer {
  name: "conv5"
  type: "Convolution"
  bottom: "conv4"
  top: "conv5"
  param {
    lr_mult: 1
    decay_mult: 1
  }
  param {
    lr_mult: 2
    decay_mult: 0
  }
  convolution_param {
    num_output: 256
    pad: 1
    kernel_size: 3
    group: 2
    weight_filler {
      type: "gaussian"
      std: 0.01
    }
    bias_filler {
      type: "constant"
      value: 0.1
    }
  }
}
layer {
  name: "relu5"
  type: "ReLU"
  bottom: "conv5"
  top: "conv5"
}
layer {
  name: "pool5"
  type: "Pooling"
  bottom: "conv5"
  top: "pool5"
  pooling_param {
    pool: MAX
    kernel_size: 3
    stride: 2
  }
}
layer {
  name: "fc6"
  type: "InnerProduct"
  bottom: "pool5"
  top: "fc6"
  param {
    lr_mult: 1
    decay_mult: 1
  }
  param {
    lr_mult: 2
    decay_mult: 0
  }
  inner_product_param {
    num_output: 4096
    weight_filler {
      type: "gaussian"
      std: 0.005
    }
    bias_filler {
      type: "constant"
      value: 0.1
    }
  }
}
layer {
  name: "relu6"
  type: "ReLU"
  bottom: "fc6"
  top: "fc6"
}
layer {
  name: "drop6"
  type: "Dropout"
  bottom: "fc6"
  top: "fc6"
  dropout_param {
    dropout_ratio: 0.5
  }
}
layer {
  name: "fc7"
  type: "InnerProduct"
  bottom: "fc6"
  top: "fc7"
  param {
    lr_mult: 1
    decay_mult: 1
  }
  param {
    lr_mult: 2
    decay_mult: 0
  }
  inner_product_param {
    num_output: 4096
    weight_filler {
      type: "gaussian"
      std: 0.005
    }
    bias_filler {
      type: "constant"
      value: 0.1
    }
  }
}
layer {
  name: "relu7"
  type: "ReLU"
  bottom: "fc7"
  top: "fc7"
}
layer {
  name: "drop7"
  type: "Dropout"
  bottom: "fc7"
  top: "fc7"
  dropout_param {
    dropout_ratio: 0.5
  }
}
layer {
  name: "fc8_plantvillage"
  type: "InnerProduct"
  bottom: "fc7"
  top: "fc8_plantvillage"
  param {
    lr_mult: 1
    decay_mult: 1
  }
  param {
    lr_mult: 2
    decay_mult: 0
  }
  inner_product_param {
    num_output: 38
    weight_filler {
      type: "gaussian"
      std: 0.01
    }
    bias_filler {
      type: "constant"
      value: 0
    }
  }
}
layer {
  name: "prob"
  type: "Softmax"
  bottom: "fc8_plantvillage"
  top: "prob"
  include {
    phase: TEST
  }
}
layer {
  name: "hdf5out"
  type: "HDF5Output"
  bottom: "prob"
  bottom: "label"
  include {
    phase: TEST
  }
  hdf5_output_param {
    file_name: "hdf5_dumps/iter_2847.h5"
  }
}
layer {
  name: "loss"
  type: "SoftmaxWithLoss"
  bottom: "fc8_plantvillage"
  bottom: "label"
  top: "loss"
}
layer {
  name: "accuracy"
  type: "Accuracy"
  bottom: "fc8_plantvillage"
  bottom: "label"
  top: "accuracy"
  include {
    phase: TEST
  }
}
I0403 14:40:25.940526 30106 layer_factory.hpp:77] Creating layer data
I0403 14:40:25.942160 30106 net.cpp:91] Creating Layer data
I0403 14:40:25.942237 30106 net.cpp:399] data -> data
I0403 14:40:25.942364 30106 net.cpp:399] data -> label
I0403 14:40:25.942461 30106 data_transformer.cpp:25] Loading mean file from: /home/mohanty/data/final_dataset/lmdb/segmented-40-60/mean.binaryproto
I0403 14:40:25.945636 30110 db_lmdb.cpp:38] Opened lmdb /home/mohanty/data/final_dataset/lmdb/segmented-40-60/test_db
I0403 14:40:25.958513 30106 data_layer.cpp:41] output data size: 100,3,227,227
I0403 14:40:26.073694 30106 net.cpp:141] Setting up data
I0403 14:40:26.073808 30106 net.cpp:148] Top shape: 100 3 227 227 (15458700)
I0403 14:40:26.073832 30106 net.cpp:148] Top shape: 100 (100)
I0403 14:40:26.073848 30106 net.cpp:156] Memory required for data: 61835200
I0403 14:40:26.073879 30106 layer_factory.hpp:77] Creating layer label_data_1_split
I0403 14:40:26.073906 30106 net.cpp:91] Creating Layer label_data_1_split
I0403 14:40:26.073925 30106 net.cpp:425] label_data_1_split <- label
I0403 14:40:26.073959 30106 net.cpp:399] label_data_1_split -> label_data_1_split_0
I0403 14:40:26.073987 30106 net.cpp:399] label_data_1_split -> label_data_1_split_1
I0403 14:40:26.074007 30106 net.cpp:399] label_data_1_split -> label_data_1_split_2
I0403 14:40:26.074069 30106 net.cpp:141] Setting up label_data_1_split
I0403 14:40:26.074090 30106 net.cpp:148] Top shape: 100 (100)
I0403 14:40:26.074107 30106 net.cpp:148] Top shape: 100 (100)
I0403 14:40:26.074122 30106 net.cpp:148] Top shape: 100 (100)
I0403 14:40:26.074136 30106 net.cpp:156] Memory required for data: 61836400
I0403 14:40:26.074149 30106 layer_factory.hpp:77] Creating layer conv1
I0403 14:40:26.074184 30106 net.cpp:91] Creating Layer conv1
I0403 14:40:26.074201 30106 net.cpp:425] conv1 <- data
I0403 14:40:26.074220 30106 net.cpp:399] conv1 -> conv1
I0403 14:40:26.208308 30106 net.cpp:141] Setting up conv1
I0403 14:40:26.208380 30106 net.cpp:148] Top shape: 100 96 55 55 (29040000)
I0403 14:40:26.208398 30106 net.cpp:156] Memory required for data: 177996400
I0403 14:40:26.208442 30106 layer_factory.hpp:77] Creating layer relu1
I0403 14:40:26.208472 30106 net.cpp:91] Creating Layer relu1
I0403 14:40:26.208489 30106 net.cpp:425] relu1 <- conv1
I0403 14:40:26.208509 30106 net.cpp:386] relu1 -> conv1 (in-place)
I0403 14:40:26.208757 30106 net.cpp:141] Setting up relu1
I0403 14:40:26.208783 30106 net.cpp:148] Top shape: 100 96 55 55 (29040000)
I0403 14:40:26.208837 30106 net.cpp:156] Memory required for data: 294156400
I0403 14:40:26.208853 30106 layer_factory.hpp:77] Creating layer norm1
I0403 14:40:26.208880 30106 net.cpp:91] Creating Layer norm1
I0403 14:40:26.208897 30106 net.cpp:425] norm1 <- conv1
I0403 14:40:26.208915 30106 net.cpp:399] norm1 -> norm1
I0403 14:40:26.209208 30106 net.cpp:141] Setting up norm1
I0403 14:40:26.209233 30106 net.cpp:148] Top shape: 100 96 55 55 (29040000)
I0403 14:40:26.209249 30106 net.cpp:156] Memory required for data: 410316400
I0403 14:40:26.209264 30106 layer_factory.hpp:77] Creating layer pool1
I0403 14:40:26.209290 30106 net.cpp:91] Creating Layer pool1
I0403 14:40:26.209306 30106 net.cpp:425] pool1 <- norm1
I0403 14:40:26.209323 30106 net.cpp:399] pool1 -> pool1
I0403 14:40:26.209389 30106 net.cpp:141] Setting up pool1
I0403 14:40:26.209413 30106 net.cpp:148] Top shape: 100 96 27 27 (6998400)
I0403 14:40:26.209427 30106 net.cpp:156] Memory required for data: 438310000
I0403 14:40:26.209440 30106 layer_factory.hpp:77] Creating layer conv2
I0403 14:40:26.209466 30106 net.cpp:91] Creating Layer conv2
I0403 14:40:26.209482 30106 net.cpp:425] conv2 <- pool1
I0403 14:40:26.209499 30106 net.cpp:399] conv2 -> conv2
I0403 14:40:26.223418 30106 net.cpp:141] Setting up conv2
I0403 14:40:26.223451 30106 net.cpp:148] Top shape: 100 256 27 27 (18662400)
I0403 14:40:26.223467 30106 net.cpp:156] Memory required for data: 512959600
I0403 14:40:26.223489 30106 layer_factory.hpp:77] Creating layer relu2
I0403 14:40:26.223521 30106 net.cpp:91] Creating Layer relu2
I0403 14:40:26.223547 30106 net.cpp:425] relu2 <- conv2
I0403 14:40:26.223568 30106 net.cpp:386] relu2 -> conv2 (in-place)
I0403 14:40:26.223826 30106 net.cpp:141] Setting up relu2
I0403 14:40:26.223852 30106 net.cpp:148] Top shape: 100 256 27 27 (18662400)
I0403 14:40:26.223867 30106 net.cpp:156] Memory required for data: 587609200
I0403 14:40:26.223882 30106 layer_factory.hpp:77] Creating layer norm2
I0403 14:40:26.223902 30106 net.cpp:91] Creating Layer norm2
I0403 14:40:26.223917 30106 net.cpp:425] norm2 <- conv2
I0403 14:40:26.223945 30106 net.cpp:399] norm2 -> norm2
I0403 14:40:26.224117 30106 net.cpp:141] Setting up norm2
I0403 14:40:26.224141 30106 net.cpp:148] Top shape: 100 256 27 27 (18662400)
I0403 14:40:26.224156 30106 net.cpp:156] Memory required for data: 662258800
I0403 14:40:26.224171 30106 layer_factory.hpp:77] Creating layer pool2
I0403 14:40:26.224189 30106 net.cpp:91] Creating Layer pool2
I0403 14:40:26.224205 30106 net.cpp:425] pool2 <- norm2
I0403 14:40:26.224222 30106 net.cpp:399] pool2 -> pool2
I0403 14:40:26.224268 30106 net.cpp:141] Setting up pool2
I0403 14:40:26.224290 30106 net.cpp:148] Top shape: 100 256 13 13 (4326400)
I0403 14:40:26.224305 30106 net.cpp:156] Memory required for data: 679564400
I0403 14:40:26.224319 30106 layer_factory.hpp:77] Creating layer conv3
I0403 14:40:26.224339 30106 net.cpp:91] Creating Layer conv3
I0403 14:40:26.224354 30106 net.cpp:425] conv3 <- pool2
I0403 14:40:26.224372 30106 net.cpp:399] conv3 -> conv3
I0403 14:40:26.260608 30106 net.cpp:141] Setting up conv3
I0403 14:40:26.260660 30106 net.cpp:148] Top shape: 100 384 13 13 (6489600)
I0403 14:40:26.260676 30106 net.cpp:156] Memory required for data: 705522800
I0403 14:40:26.260699 30106 layer_factory.hpp:77] Creating layer relu3
I0403 14:40:26.260720 30106 net.cpp:91] Creating Layer relu3
I0403 14:40:26.260735 30106 net.cpp:425] relu3 <- conv3
I0403 14:40:26.260752 30106 net.cpp:386] relu3 -> conv3 (in-place)
I0403 14:40:26.261023 30106 net.cpp:141] Setting up relu3
I0403 14:40:26.261049 30106 net.cpp:148] Top shape: 100 384 13 13 (6489600)
I0403 14:40:26.261065 30106 net.cpp:156] Memory required for data: 731481200
I0403 14:40:26.261082 30106 layer_factory.hpp:77] Creating layer conv4
I0403 14:40:26.261112 30106 net.cpp:91] Creating Layer conv4
I0403 14:40:26.261132 30106 net.cpp:425] conv4 <- conv3
I0403 14:40:26.261153 30106 net.cpp:399] conv4 -> conv4
I0403 14:40:26.289113 30106 net.cpp:141] Setting up conv4
I0403 14:40:26.289161 30106 net.cpp:148] Top shape: 100 384 13 13 (6489600)
I0403 14:40:26.289214 30106 net.cpp:156] Memory required for data: 757439600
I0403 14:40:26.289235 30106 layer_factory.hpp:77] Creating layer relu4
I0403 14:40:26.289255 30106 net.cpp:91] Creating Layer relu4
I0403 14:40:26.289271 30106 net.cpp:425] relu4 <- conv4
I0403 14:40:26.289291 30106 net.cpp:386] relu4 -> conv4 (in-place)
I0403 14:40:26.289558 30106 net.cpp:141] Setting up relu4
I0403 14:40:26.289587 30106 net.cpp:148] Top shape: 100 384 13 13 (6489600)
I0403 14:40:26.289602 30106 net.cpp:156] Memory required for data: 783398000
I0403 14:40:26.289618 30106 layer_factory.hpp:77] Creating layer conv5
I0403 14:40:26.289644 30106 net.cpp:91] Creating Layer conv5
I0403 14:40:26.289664 30106 net.cpp:425] conv5 <- conv4
I0403 14:40:26.289683 30106 net.cpp:399] conv5 -> conv5
I0403 14:40:26.308920 30106 net.cpp:141] Setting up conv5
I0403 14:40:26.308955 30106 net.cpp:148] Top shape: 100 256 13 13 (4326400)
I0403 14:40:26.308971 30106 net.cpp:156] Memory required for data: 800703600
I0403 14:40:26.308996 30106 layer_factory.hpp:77] Creating layer relu5
I0403 14:40:26.309016 30106 net.cpp:91] Creating Layer relu5
I0403 14:40:26.309034 30106 net.cpp:425] relu5 <- conv5
I0403 14:40:26.309063 30106 net.cpp:386] relu5 -> conv5 (in-place)
I0403 14:40:26.309340 30106 net.cpp:141] Setting up relu5
I0403 14:40:26.309366 30106 net.cpp:148] Top shape: 100 256 13 13 (4326400)
I0403 14:40:26.309381 30106 net.cpp:156] Memory required for data: 818009200
I0403 14:40:26.309396 30106 layer_factory.hpp:77] Creating layer pool5
I0403 14:40:26.309422 30106 net.cpp:91] Creating Layer pool5
I0403 14:40:26.309440 30106 net.cpp:425] pool5 <- conv5
I0403 14:40:26.309460 30106 net.cpp:399] pool5 -> pool5
I0403 14:40:26.309519 30106 net.cpp:141] Setting up pool5
I0403 14:40:26.309545 30106 net.cpp:148] Top shape: 100 256 6 6 (921600)
I0403 14:40:26.309561 30106 net.cpp:156] Memory required for data: 821695600
I0403 14:40:26.309576 30106 layer_factory.hpp:77] Creating layer fc6
I0403 14:40:26.309607 30106 net.cpp:91] Creating Layer fc6
I0403 14:40:26.309623 30106 net.cpp:425] fc6 <- pool5
I0403 14:40:26.309640 30106 net.cpp:399] fc6 -> fc6
I0403 14:40:27.772745 30106 net.cpp:141] Setting up fc6
I0403 14:40:27.772830 30106 net.cpp:148] Top shape: 100 4096 (409600)
I0403 14:40:27.772846 30106 net.cpp:156] Memory required for data: 823334000
I0403 14:40:27.772868 30106 layer_factory.hpp:77] Creating layer relu6
I0403 14:40:27.772892 30106 net.cpp:91] Creating Layer relu6
I0403 14:40:27.772910 30106 net.cpp:425] relu6 <- fc6
I0403 14:40:27.772932 30106 net.cpp:386] relu6 -> fc6 (in-place)
I0403 14:40:27.773152 30106 net.cpp:141] Setting up relu6
I0403 14:40:27.773176 30106 net.cpp:148] Top shape: 100 4096 (409600)
I0403 14:40:27.773190 30106 net.cpp:156] Memory required for data: 824972400
I0403 14:40:27.773205 30106 layer_factory.hpp:77] Creating layer drop6
I0403 14:40:27.773223 30106 net.cpp:91] Creating Layer drop6
I0403 14:40:27.773238 30106 net.cpp:425] drop6 <- fc6
I0403 14:40:27.773257 30106 net.cpp:386] drop6 -> fc6 (in-place)
I0403 14:40:27.773308 30106 net.cpp:141] Setting up drop6
I0403 14:40:27.773334 30106 net.cpp:148] Top shape: 100 4096 (409600)
I0403 14:40:27.773349 30106 net.cpp:156] Memory required for data: 826610800
I0403 14:40:27.773363 30106 layer_factory.hpp:77] Creating layer fc7
I0403 14:40:27.773382 30106 net.cpp:91] Creating Layer fc7
I0403 14:40:27.773397 30106 net.cpp:425] fc7 <- fc6
I0403 14:40:27.773416 30106 net.cpp:399] fc7 -> fc7
I0403 14:40:28.423651 30106 net.cpp:141] Setting up fc7
I0403 14:40:28.423749 30106 net.cpp:148] Top shape: 100 4096 (409600)
I0403 14:40:28.423766 30106 net.cpp:156] Memory required for data: 828249200
I0403 14:40:28.423787 30106 layer_factory.hpp:77] Creating layer relu7
I0403 14:40:28.423810 30106 net.cpp:91] Creating Layer relu7
I0403 14:40:28.423827 30106 net.cpp:425] relu7 <- fc7
I0403 14:40:28.423848 30106 net.cpp:386] relu7 -> fc7 (in-place)
I0403 14:40:28.424257 30106 net.cpp:141] Setting up relu7
I0403 14:40:28.424284 30106 net.cpp:148] Top shape: 100 4096 (409600)
I0403 14:40:28.424340 30106 net.cpp:156] Memory required for data: 829887600
I0403 14:40:28.424355 30106 layer_factory.hpp:77] Creating layer drop7
I0403 14:40:28.424373 30106 net.cpp:91] Creating Layer drop7
I0403 14:40:28.424387 30106 net.cpp:425] drop7 <- fc7
I0403 14:40:28.424407 30106 net.cpp:386] drop7 -> fc7 (in-place)
I0403 14:40:28.424448 30106 net.cpp:141] Setting up drop7
I0403 14:40:28.424473 30106 net.cpp:148] Top shape: 100 4096 (409600)
I0403 14:40:28.424487 30106 net.cpp:156] Memory required for data: 831526000
I0403 14:40:28.424502 30106 layer_factory.hpp:77] Creating layer fc8_plantvillage
I0403 14:40:28.424531 30106 net.cpp:91] Creating Layer fc8_plantvillage
I0403 14:40:28.424551 30106 net.cpp:425] fc8_plantvillage <- fc7
I0403 14:40:28.424571 30106 net.cpp:399] fc8_plantvillage -> fc8_plantvillage
I0403 14:40:28.430927 30106 net.cpp:141] Setting up fc8_plantvillage
I0403 14:40:28.430963 30106 net.cpp:148] Top shape: 100 38 (3800)
I0403 14:40:28.430979 30106 net.cpp:156] Memory required for data: 831541200
I0403 14:40:28.430996 30106 layer_factory.hpp:77] Creating layer fc8_plantvillage_fc8_plantvillage_0_split
I0403 14:40:28.431015 30106 net.cpp:91] Creating Layer fc8_plantvillage_fc8_plantvillage_0_split
I0403 14:40:28.431028 30106 net.cpp:425] fc8_plantvillage_fc8_plantvillage_0_split <- fc8_plantvillage
I0403 14:40:28.431047 30106 net.cpp:399] fc8_plantvillage_fc8_plantvillage_0_split -> fc8_plantvillage_fc8_plantvillage_0_split_0
I0403 14:40:28.431067 30106 net.cpp:399] fc8_plantvillage_fc8_plantvillage_0_split -> fc8_plantvillage_fc8_plantvillage_0_split_1
I0403 14:40:28.431087 30106 net.cpp:399] fc8_plantvillage_fc8_plantvillage_0_split -> fc8_plantvillage_fc8_plantvillage_0_split_2
I0403 14:40:28.431172 30106 net.cpp:141] Setting up fc8_plantvillage_fc8_plantvillage_0_split
I0403 14:40:28.431208 30106 net.cpp:148] Top shape: 100 38 (3800)
I0403 14:40:28.431226 30106 net.cpp:148] Top shape: 100 38 (3800)
I0403 14:40:28.431241 30106 net.cpp:148] Top shape: 100 38 (3800)
I0403 14:40:28.431255 30106 net.cpp:156] Memory required for data: 831586800
I0403 14:40:28.431282 30106 layer_factory.hpp:77] Creating layer prob
I0403 14:40:28.431301 30106 net.cpp:91] Creating Layer prob
I0403 14:40:28.431315 30106 net.cpp:425] prob <- fc8_plantvillage_fc8_plantvillage_0_split_0
I0403 14:40:28.431335 30106 net.cpp:399] prob -> prob
I0403 14:40:28.431571 30106 net.cpp:141] Setting up prob
I0403 14:40:28.431618 30106 net.cpp:148] Top shape: 100 38 (3800)
I0403 14:40:28.431634 30106 net.cpp:156] Memory required for data: 831602000
I0403 14:40:28.431648 30106 layer_factory.hpp:77] Creating layer hdf5out
I0403 14:40:28.431695 30106 net.cpp:91] Creating Layer hdf5out
I0403 14:40:28.431710 30106 net.cpp:425] hdf5out <- prob
I0403 14:40:28.431726 30106 net.cpp:425] hdf5out <- label_data_1_split_0
I0403 14:40:28.435080 30106 net.cpp:141] Setting up hdf5out
…
