…
I0403 14:42:18.625435 30142 net.cpp:313] The NetState phase (1) differed from the phase (0) specified by a rule in layer data
I0403 14:42:18.626106 30142 net.cpp:49] Initializing net from parameters: 
state {
  phase: TEST
}
layer {
  name: "data"
  type: "Data"
  top: "data"
  top: "label"
  include {
    phase: TEST
  }
  transform_param {
    crop_size: 227
    mean_file: "/home/mohanty/data/final_dataset/lmdb/segmented-40-60/mean.binaryproto"
  }
  data_param {
    source: "/home/mohanty/data/final_dataset/lmdb/segmented-40-60/test_db"
    batch_size: 100
    backend: LMDB
  }
}
layer {
  name: "conv1"
  type: "Convolution"
  bottom: "data"
  top: "conv1"
  param {
    lr_mult: 1
    decay_mult: 1
  }
  param {
    lr_mult: 2
    decay_mult: 0
  }
  convolution_param {
    num_output: 96
    kernel_size: 11
    stride: 4
    weight_filler {
      type: "gaussian"
      std: 0.01
    }
    bias_filler {
      type: "constant"
      value: 0
    }
  }
}
layer {
  name: "relu1"
  type: "ReLU"
  bottom: "conv1"
  top: "conv1"
}
layer {
  name: "norm1"
  type: "LRN"
  bottom: "conv1"
  top: "norm1"
  lrn_param {
    local_size: 5
    alpha: 0.0001
    beta: 0.75
  }
}
layer {
  name: "pool1"
  type: "Pooling"
  bottom: "norm1"
  top: "pool1"
  pooling_param {
    pool: MAX
    kernel_size: 3
    stride: 2
  }
}
layer {
  name: "conv2"
  type: "Convolution"
  bottom: "pool1"
  top: "conv2"
  param {
    lr_mult: 1
    decay_mult: 1
  }
  param {
    lr_mult: 2
    decay_mult: 0
  }
  convolution_param {
    num_output: 256
    pad: 2
    kernel_size: 5
    group: 2
    weight_filler {
      type: "gaussian"
      std: 0.01
    }
    bias_filler {
      type: "constant"
      value: 0.1
    }
  }
}
layer {
  name: "relu2"
  type: "ReLU"
  bottom: "conv2"
  top: "conv2"
}
layer {
  name: "norm2"
  type: "LRN"
  bottom: "conv2"
  top: "norm2"
  lrn_param {
    local_size: 5
    alpha: 0.0001
    beta: 0.75
  }
}
layer {
  name: "pool2"
  type: "Pooling"
  bottom: "norm2"
  top: "pool2"
  pooling_param {
    pool: MAX
    kernel_size: 3
    stride: 2
  }
}
layer {
  name: "conv3"
  type: "Convolution"
  bottom: "pool2"
  top: "conv3"
  param {
    lr_mult: 1
    decay_mult: 1
  }
  param {
    lr_mult: 2
    decay_mult: 0
  }
  convolution_param {
    num_output: 384
    pad: 1
    kernel_size: 3
    weight_filler {
      type: "gaussian"
      std: 0.01
    }
    bias_filler {
      type: "constant"
      value: 0
    }
  }
}
layer {
  name: "relu3"
  type: "ReLU"
  bottom: "conv3"
  top: "conv3"
}
layer {
  name: "conv4"
  type: "Convolution"
  bottom: "conv3"
  top: "conv4"
  param {
    lr_mult: 1
    decay_mult: 1
  }
  param {
    lr_mult: 2
    decay_mult: 0
  }
  convolution_param {
    num_output: 384
    pad: 1
    kernel_size: 3
    group: 2
    weight_filler {
      type: "gaussian"
      std: 0.01
    }
    bias_filler {
      type: "constant"
      value: 0.1
    }
  }
}
layer {
  name: "relu4"
  type: "ReLU"
  bottom: "conv4"
  top: "conv4"
}
layer {
  name: "conv5"
  type: "Convolution"
  bottom: "conv4"
  top: "conv5"
  param {
    lr_mult: 1
    decay_mult: 1
  }
  param {
    lr_mult: 2
    decay_mult: 0
  }
  convolution_param {
    num_output: 256
    pad: 1
    kernel_size: 3
    group: 2
    weight_filler {
      type: "gaussian"
      std: 0.01
    }
    bias_filler {
      type: "constant"
      value: 0.1
    }
  }
}
layer {
  name: "relu5"
  type: "ReLU"
  bottom: "conv5"
  top: "conv5"
}
layer {
  name: "pool5"
  type: "Pooling"
  bottom: "conv5"
  top: "pool5"
  pooling_param {
    pool: MAX
    kernel_size: 3
    stride: 2
  }
}
layer {
  name: "fc6"
  type: "InnerProduct"
  bottom: "pool5"
  top: "fc6"
  param {
    lr_mult: 1
    decay_mult: 1
  }
  param {
    lr_mult: 2
    decay_mult: 0
  }
  inner_product_param {
    num_output: 4096
    weight_filler {
      type: "gaussian"
      std: 0.005
    }
    bias_filler {
      type: "constant"
      value: 0.1
    }
  }
}
layer {
  name: "relu6"
  type: "ReLU"
  bottom: "fc6"
  top: "fc6"
}
layer {
  name: "drop6"
  type: "Dropout"
  bottom: "fc6"
  top: "fc6"
  dropout_param {
    dropout_ratio: 0.5
  }
}
layer {
  name: "fc7"
  type: "InnerProduct"
  bottom: "fc6"
  top: "fc7"
  param {
    lr_mult: 1
    decay_mult: 1
  }
  param {
    lr_mult: 2
    decay_mult: 0
  }
  inner_product_param {
    num_output: 4096
    weight_filler {
      type: "gaussian"
      std: 0.005
    }
    bias_filler {
      type: "constant"
      value: 0.1
    }
  }
}
layer {
  name: "relu7"
  type: "ReLU"
  bottom: "fc7"
  top: "fc7"
}
layer {
  name: "drop7"
  type: "Dropout"
  bottom: "fc7"
  top: "fc7"
  dropout_param {
    dropout_ratio: 0.5
  }
}
layer {
  name: "fc8_plantvillage"
  type: "InnerProduct"
  bottom: "fc7"
  top: "fc8_plantvillage"
  param {
    lr_mult: 1
    decay_mult: 1
  }
  param {
    lr_mult: 2
    decay_mult: 0
  }
  inner_product_param {
    num_output: 38
    weight_filler {
      type: "gaussian"
      std: 0.01
    }
    bias_filler {
      type: "constant"
      value: 0
    }
  }
}
layer {
  name: "prob"
  type: "Softmax"
  bottom: "fc8_plantvillage"
  top: "prob"
  include {
    phase: TEST
  }
}
layer {
  name: "hdf5out"
  type: "HDF5Output"
  bottom: "prob"
  bottom: "label"
  include {
    phase: TEST
  }
  hdf5_output_param {
    file_name: "hdf5_dumps/iter_3285.h5"
  }
}
layer {
  name: "loss"
  type: "SoftmaxWithLoss"
  bottom: "fc8_plantvillage"
  bottom: "label"
  top: "loss"
}
layer {
  name: "accuracy"
  type: "Accuracy"
  bottom: "fc8_plantvillage"
  bottom: "label"
  top: "accuracy"
  include {
    phase: TEST
  }
}
I0403 14:42:18.627142 30142 layer_factory.hpp:77] Creating layer data
I0403 14:42:18.628763 30142 net.cpp:91] Creating Layer data
I0403 14:42:18.628839 30142 net.cpp:399] data -> data
I0403 14:42:18.628960 30142 net.cpp:399] data -> label
I0403 14:42:18.629048 30142 data_transformer.cpp:25] Loading mean file from: /home/mohanty/data/final_dataset/lmdb/segmented-40-60/mean.binaryproto
I0403 14:42:18.632987 30145 db_lmdb.cpp:38] Opened lmdb /home/mohanty/data/final_dataset/lmdb/segmented-40-60/test_db
I0403 14:42:18.651518 30142 data_layer.cpp:41] output data size: 100,3,227,227
I0403 14:42:18.766050 30142 net.cpp:141] Setting up data
I0403 14:42:18.766149 30142 net.cpp:148] Top shape: 100 3 227 227 (15458700)
I0403 14:42:18.766172 30142 net.cpp:148] Top shape: 100 (100)
I0403 14:42:18.766187 30142 net.cpp:156] Memory required for data: 61835200
I0403 14:42:18.766219 30142 layer_factory.hpp:77] Creating layer label_data_1_split
I0403 14:42:18.766247 30142 net.cpp:91] Creating Layer label_data_1_split
I0403 14:42:18.766265 30142 net.cpp:425] label_data_1_split <- label
I0403 14:42:18.766299 30142 net.cpp:399] label_data_1_split -> label_data_1_split_0
I0403 14:42:18.766330 30142 net.cpp:399] label_data_1_split -> label_data_1_split_1
I0403 14:42:18.766350 30142 net.cpp:399] label_data_1_split -> label_data_1_split_2
I0403 14:42:18.766410 30142 net.cpp:141] Setting up label_data_1_split
I0403 14:42:18.766433 30142 net.cpp:148] Top shape: 100 (100)
I0403 14:42:18.766450 30142 net.cpp:148] Top shape: 100 (100)
I0403 14:42:18.766466 30142 net.cpp:148] Top shape: 100 (100)
I0403 14:42:18.766480 30142 net.cpp:156] Memory required for data: 61836400
I0403 14:42:18.766496 30142 layer_factory.hpp:77] Creating layer conv1
I0403 14:42:18.766530 30142 net.cpp:91] Creating Layer conv1
I0403 14:42:18.766554 30142 net.cpp:425] conv1 <- data
I0403 14:42:18.766573 30142 net.cpp:399] conv1 -> conv1
I0403 14:42:18.899746 30142 net.cpp:141] Setting up conv1
I0403 14:42:18.899844 30142 net.cpp:148] Top shape: 100 96 55 55 (29040000)
I0403 14:42:18.899862 30142 net.cpp:156] Memory required for data: 177996400
I0403 14:42:18.899895 30142 layer_factory.hpp:77] Creating layer relu1
I0403 14:42:18.899924 30142 net.cpp:91] Creating Layer relu1
I0403 14:42:18.899941 30142 net.cpp:425] relu1 <- conv1
I0403 14:42:18.899960 30142 net.cpp:386] relu1 -> conv1 (in-place)
I0403 14:42:18.900207 30142 net.cpp:141] Setting up relu1
I0403 14:42:18.900233 30142 net.cpp:148] Top shape: 100 96 55 55 (29040000)
I0403 14:42:18.900285 30142 net.cpp:156] Memory required for data: 294156400
I0403 14:42:18.900301 30142 layer_factory.hpp:77] Creating layer norm1
I0403 14:42:18.900331 30142 net.cpp:91] Creating Layer norm1
I0403 14:42:18.900367 30142 net.cpp:425] norm1 <- conv1
I0403 14:42:18.900387 30142 net.cpp:399] norm1 -> norm1
I0403 14:42:18.900683 30142 net.cpp:141] Setting up norm1
I0403 14:42:18.900709 30142 net.cpp:148] Top shape: 100 96 55 55 (29040000)
I0403 14:42:18.900724 30142 net.cpp:156] Memory required for data: 410316400
I0403 14:42:18.900739 30142 layer_factory.hpp:77] Creating layer pool1
I0403 14:42:18.900763 30142 net.cpp:91] Creating Layer pool1
I0403 14:42:18.900779 30142 net.cpp:425] pool1 <- norm1
I0403 14:42:18.900794 30142 net.cpp:399] pool1 -> pool1
I0403 14:42:18.900859 30142 net.cpp:141] Setting up pool1
I0403 14:42:18.900882 30142 net.cpp:148] Top shape: 100 96 27 27 (6998400)
I0403 14:42:18.900897 30142 net.cpp:156] Memory required for data: 438310000
I0403 14:42:18.900910 30142 layer_factory.hpp:77] Creating layer conv2
I0403 14:42:18.900936 30142 net.cpp:91] Creating Layer conv2
I0403 14:42:18.900951 30142 net.cpp:425] conv2 <- pool1
I0403 14:42:18.900969 30142 net.cpp:399] conv2 -> conv2
I0403 14:42:18.915138 30142 net.cpp:141] Setting up conv2
I0403 14:42:18.915175 30142 net.cpp:148] Top shape: 100 256 27 27 (18662400)
I0403 14:42:18.915192 30142 net.cpp:156] Memory required for data: 512959600
I0403 14:42:18.915212 30142 layer_factory.hpp:77] Creating layer relu2
I0403 14:42:18.915231 30142 net.cpp:91] Creating Layer relu2
I0403 14:42:18.915247 30142 net.cpp:425] relu2 <- conv2
I0403 14:42:18.915264 30142 net.cpp:386] relu2 -> conv2 (in-place)
I0403 14:42:18.915529 30142 net.cpp:141] Setting up relu2
I0403 14:42:18.915561 30142 net.cpp:148] Top shape: 100 256 27 27 (18662400)
I0403 14:42:18.915577 30142 net.cpp:156] Memory required for data: 587609200
I0403 14:42:18.915591 30142 layer_factory.hpp:77] Creating layer norm2
I0403 14:42:18.915621 30142 net.cpp:91] Creating Layer norm2
I0403 14:42:18.915640 30142 net.cpp:425] norm2 <- conv2
I0403 14:42:18.915660 30142 net.cpp:399] norm2 -> norm2
I0403 14:42:18.915884 30142 net.cpp:141] Setting up norm2
I0403 14:42:18.915909 30142 net.cpp:148] Top shape: 100 256 27 27 (18662400)
I0403 14:42:18.915925 30142 net.cpp:156] Memory required for data: 662258800
I0403 14:42:18.915940 30142 layer_factory.hpp:77] Creating layer pool2
I0403 14:42:18.915956 30142 net.cpp:91] Creating Layer pool2
I0403 14:42:18.915971 30142 net.cpp:425] pool2 <- norm2
I0403 14:42:18.915988 30142 net.cpp:399] pool2 -> pool2
I0403 14:42:18.916039 30142 net.cpp:141] Setting up pool2
I0403 14:42:18.916060 30142 net.cpp:148] Top shape: 100 256 13 13 (4326400)
I0403 14:42:18.916074 30142 net.cpp:156] Memory required for data: 679564400
I0403 14:42:18.916088 30142 layer_factory.hpp:77] Creating layer conv3
I0403 14:42:18.916110 30142 net.cpp:91] Creating Layer conv3
I0403 14:42:18.916126 30142 net.cpp:425] conv3 <- pool2
I0403 14:42:18.916146 30142 net.cpp:399] conv3 -> conv3
I0403 14:42:18.953491 30142 net.cpp:141] Setting up conv3
I0403 14:42:18.953557 30142 net.cpp:148] Top shape: 100 384 13 13 (6489600)
I0403 14:42:18.953577 30142 net.cpp:156] Memory required for data: 705522800
I0403 14:42:18.953600 30142 layer_factory.hpp:77] Creating layer relu3
I0403 14:42:18.953624 30142 net.cpp:91] Creating Layer relu3
I0403 14:42:18.953665 30142 net.cpp:425] relu3 <- conv3
I0403 14:42:18.953692 30142 net.cpp:386] relu3 -> conv3 (in-place)
I0403 14:42:18.953956 30142 net.cpp:141] Setting up relu3
I0403 14:42:18.953985 30142 net.cpp:148] Top shape: 100 384 13 13 (6489600)
I0403 14:42:18.954001 30142 net.cpp:156] Memory required for data: 731481200
I0403 14:42:18.954015 30142 layer_factory.hpp:77] Creating layer conv4
I0403 14:42:18.954041 30142 net.cpp:91] Creating Layer conv4
I0403 14:42:18.954058 30142 net.cpp:425] conv4 <- conv3
I0403 14:42:18.954077 30142 net.cpp:399] conv4 -> conv4
I0403 14:42:18.982512 30142 net.cpp:141] Setting up conv4
I0403 14:42:18.982565 30142 net.cpp:148] Top shape: 100 384 13 13 (6489600)
I0403 14:42:18.982620 30142 net.cpp:156] Memory required for data: 757439600
I0403 14:42:18.982641 30142 layer_factory.hpp:77] Creating layer relu4
I0403 14:42:18.982663 30142 net.cpp:91] Creating Layer relu4
I0403 14:42:18.982679 30142 net.cpp:425] relu4 <- conv4
I0403 14:42:18.982697 30142 net.cpp:386] relu4 -> conv4 (in-place)
I0403 14:42:18.982969 30142 net.cpp:141] Setting up relu4
I0403 14:42:18.982995 30142 net.cpp:148] Top shape: 100 384 13 13 (6489600)
I0403 14:42:18.983009 30142 net.cpp:156] Memory required for data: 783398000
I0403 14:42:18.983024 30142 layer_factory.hpp:77] Creating layer conv5
I0403 14:42:18.983047 30142 net.cpp:91] Creating Layer conv5
I0403 14:42:18.983063 30142 net.cpp:425] conv5 <- conv4
I0403 14:42:18.983083 30142 net.cpp:399] conv5 -> conv5
I0403 14:42:19.002720 30142 net.cpp:141] Setting up conv5
I0403 14:42:19.002755 30142 net.cpp:148] Top shape: 100 256 13 13 (4326400)
I0403 14:42:19.002771 30142 net.cpp:156] Memory required for data: 800703600
I0403 14:42:19.002797 30142 layer_factory.hpp:77] Creating layer relu5
I0403 14:42:19.002818 30142 net.cpp:91] Creating Layer relu5
I0403 14:42:19.002832 30142 net.cpp:425] relu5 <- conv5
I0403 14:42:19.002849 30142 net.cpp:386] relu5 -> conv5 (in-place)
I0403 14:42:19.003113 30142 net.cpp:141] Setting up relu5
I0403 14:42:19.003141 30142 net.cpp:148] Top shape: 100 256 13 13 (4326400)
I0403 14:42:19.003156 30142 net.cpp:156] Memory required for data: 818009200
I0403 14:42:19.003172 30142 layer_factory.hpp:77] Creating layer pool5
I0403 14:42:19.003195 30142 net.cpp:91] Creating Layer pool5
I0403 14:42:19.003209 30142 net.cpp:425] pool5 <- conv5
I0403 14:42:19.003231 30142 net.cpp:399] pool5 -> pool5
I0403 14:42:19.003288 30142 net.cpp:141] Setting up pool5
I0403 14:42:19.003309 30142 net.cpp:148] Top shape: 100 256 6 6 (921600)
I0403 14:42:19.003324 30142 net.cpp:156] Memory required for data: 821695600
I0403 14:42:19.003337 30142 layer_factory.hpp:77] Creating layer fc6
I0403 14:42:19.003367 30142 net.cpp:91] Creating Layer fc6
I0403 14:42:19.003384 30142 net.cpp:425] fc6 <- pool5
I0403 14:42:19.003404 30142 net.cpp:399] fc6 -> fc6
I0403 14:42:20.488633 30142 net.cpp:141] Setting up fc6
I0403 14:42:20.488724 30142 net.cpp:148] Top shape: 100 4096 (409600)
I0403 14:42:20.488740 30142 net.cpp:156] Memory required for data: 823334000
I0403 14:42:20.488762 30142 layer_factory.hpp:77] Creating layer relu6
I0403 14:42:20.488787 30142 net.cpp:91] Creating Layer relu6
I0403 14:42:20.488806 30142 net.cpp:425] relu6 <- fc6
I0403 14:42:20.488827 30142 net.cpp:386] relu6 -> fc6 (in-place)
I0403 14:42:20.489075 30142 net.cpp:141] Setting up relu6
I0403 14:42:20.489101 30142 net.cpp:148] Top shape: 100 4096 (409600)
I0403 14:42:20.489116 30142 net.cpp:156] Memory required for data: 824972400
I0403 14:42:20.489131 30142 layer_factory.hpp:77] Creating layer drop6
I0403 14:42:20.489150 30142 net.cpp:91] Creating Layer drop6
I0403 14:42:20.489163 30142 net.cpp:425] drop6 <- fc6
I0403 14:42:20.489179 30142 net.cpp:386] drop6 -> fc6 (in-place)
I0403 14:42:20.489229 30142 net.cpp:141] Setting up drop6
I0403 14:42:20.489256 30142 net.cpp:148] Top shape: 100 4096 (409600)
I0403 14:42:20.489272 30142 net.cpp:156] Memory required for data: 826610800
I0403 14:42:20.489287 30142 layer_factory.hpp:77] Creating layer fc7
I0403 14:42:20.489320 30142 net.cpp:91] Creating Layer fc7
I0403 14:42:20.489336 30142 net.cpp:425] fc7 <- fc6
I0403 14:42:20.489352 30142 net.cpp:399] fc7 -> fc7
I0403 14:42:21.156263 30142 net.cpp:141] Setting up fc7
I0403 14:42:21.156327 30142 net.cpp:148] Top shape: 100 4096 (409600)
I0403 14:42:21.156343 30142 net.cpp:156] Memory required for data: 828249200
I0403 14:42:21.156368 30142 layer_factory.hpp:77] Creating layer relu7
I0403 14:42:21.156393 30142 net.cpp:91] Creating Layer relu7
I0403 14:42:21.156410 30142 net.cpp:425] relu7 <- fc7
I0403 14:42:21.156430 30142 net.cpp:386] relu7 -> fc7 (in-place)
I0403 14:42:21.156854 30142 net.cpp:141] Setting up relu7
I0403 14:42:21.156879 30142 net.cpp:148] Top shape: 100 4096 (409600)
I0403 14:42:21.156914 30142 net.cpp:156] Memory required for data: 829887600
I0403 14:42:21.156934 30142 layer_factory.hpp:77] Creating layer drop7
I0403 14:42:21.156955 30142 net.cpp:91] Creating Layer drop7
I0403 14:42:21.156971 30142 net.cpp:425] drop7 <- fc7
I0403 14:42:21.156987 30142 net.cpp:386] drop7 -> fc7 (in-place)
I0403 14:42:21.157032 30142 net.cpp:141] Setting up drop7
I0403 14:42:21.157052 30142 net.cpp:148] Top shape: 100 4096 (409600)
I0403 14:42:21.157066 30142 net.cpp:156] Memory required for data: 831526000
I0403 14:42:21.157080 30142 layer_factory.hpp:77] Creating layer fc8_plantvillage
I0403 14:42:21.157109 30142 net.cpp:91] Creating Layer fc8_plantvillage
I0403 14:42:21.157122 30142 net.cpp:425] fc8_plantvillage <- fc7
I0403 14:42:21.157141 30142 net.cpp:399] fc8_plantvillage -> fc8_plantvillage
I0403 14:42:21.163751 30142 net.cpp:141] Setting up fc8_plantvillage
I0403 14:42:21.163780 30142 net.cpp:148] Top shape: 100 38 (3800)
I0403 14:42:21.163795 30142 net.cpp:156] Memory required for data: 831541200
I0403 14:42:21.163812 30142 layer_factory.hpp:77] Creating layer fc8_plantvillage_fc8_plantvillage_0_split
I0403 14:42:21.163830 30142 net.cpp:91] Creating Layer fc8_plantvillage_fc8_plantvillage_0_split
I0403 14:42:21.163844 30142 net.cpp:425] fc8_plantvillage_fc8_plantvillage_0_split <- fc8_plantvillage
I0403 14:42:21.163861 30142 net.cpp:399] fc8_plantvillage_fc8_plantvillage_0_split -> fc8_plantvillage_fc8_plantvillage_0_split_0
I0403 14:42:21.163880 30142 net.cpp:399] fc8_plantvillage_fc8_plantvillage_0_split -> fc8_plantvillage_fc8_plantvillage_0_split_1
I0403 14:42:21.163909 30142 net.cpp:399] fc8_plantvillage_fc8_plantvillage_0_split -> fc8_plantvillage_fc8_plantvillage_0_split_2
I0403 14:42:21.163987 30142 net.cpp:141] Setting up fc8_plantvillage_fc8_plantvillage_0_split
I0403 14:42:21.164010 30142 net.cpp:148] Top shape: 100 38 (3800)
I0403 14:42:21.164024 30142 net.cpp:148] Top shape: 100 38 (3800)
I0403 14:42:21.164039 30142 net.cpp:148] Top shape: 100 38 (3800)
I0403 14:42:21.164052 30142 net.cpp:156] Memory required for data: 831586800
I0403 14:42:21.164067 30142 layer_factory.hpp:77] Creating layer prob
I0403 14:42:21.164085 30142 net.cpp:91] Creating Layer prob
I0403 14:42:21.164099 30142 net.cpp:425] prob <- fc8_plantvillage_fc8_plantvillage_0_split_0
I0403 14:42:21.164116 30142 net.cpp:399] prob -> prob
I0403 14:42:21.164336 30142 net.cpp:141] Setting up prob
I0403 14:42:21.164361 30142 net.cpp:148] Top shape: 100 38 (3800)
I0403 14:42:21.164376 30142 net.cpp:156] Memory required for data: 831602000
I0403 14:42:21.164389 30142 layer_factory.hpp:77] Creating layer hdf5out
I0403 14:42:21.164410 30142 net.cpp:91] Creating Layer hdf5out
I0403 14:42:21.164427 30142 net.cpp:425] hdf5out <- prob
I0403 14:42:21.164443 30142 net.cpp:425] hdf5out <- label_data_1_split_0
I0403 14:42:21.168011 30142 net.cpp:141] Setting up hdf5out
…
