…
I0403 14:48:05.338405 30323 net.cpp:313] The NetState phase (1) differed from the phase (0) specified by a rule in layer data
I0403 14:48:05.338758 30323 net.cpp:49] Initializing net from parameters: 
state {
  phase: TEST
}
layer {
  name: "data"
  type: "Data"
  top: "data"
  top: "label"
  include {
    phase: TEST
  }
  transform_param {
    crop_size: 227
    mean_file: "/home/mohanty/data/final_dataset/lmdb/segmented-40-60/mean.binaryproto"
  }
  data_param {
    source: "/home/mohanty/data/final_dataset/lmdb/segmented-40-60/test_db"
    batch_size: 100
    backend: LMDB
  }
}
layer {
  name: "conv1"
  type: "Convolution"
  bottom: "data"
  top: "conv1"
  param {
    lr_mult: 1
    decay_mult: 1
  }
  param {
    lr_mult: 2
    decay_mult: 0
  }
  convolution_param {
    num_output: 96
    kernel_size: 11
    stride: 4
    weight_filler {
      type: "gaussian"
      std: 0.01
    }
    bias_filler {
      type: "constant"
      value: 0
    }
  }
}
layer {
  name: "relu1"
  type: "ReLU"
  bottom: "conv1"
  top: "conv1"
}
layer {
  name: "norm1"
  type: "LRN"
  bottom: "conv1"
  top: "norm1"
  lrn_param {
    local_size: 5
    alpha: 0.0001
    beta: 0.75
  }
}
layer {
  name: "pool1"
  type: "Pooling"
  bottom: "norm1"
  top: "pool1"
  pooling_param {
    pool: MAX
    kernel_size: 3
    stride: 2
  }
}
layer {
  name: "conv2"
  type: "Convolution"
  bottom: "pool1"
  top: "conv2"
  param {
    lr_mult: 1
    decay_mult: 1
  }
  param {
    lr_mult: 2
    decay_mult: 0
  }
  convolution_param {
    num_output: 256
    pad: 2
    kernel_size: 5
    group: 2
    weight_filler {
      type: "gaussian"
      std: 0.01
    }
    bias_filler {
      type: "constant"
      value: 0.1
    }
  }
}
layer {
  name: "relu2"
  type: "ReLU"
  bottom: "conv2"
  top: "conv2"
}
layer {
  name: "norm2"
  type: "LRN"
  bottom: "conv2"
  top: "norm2"
  lrn_param {
    local_size: 5
    alpha: 0.0001
    beta: 0.75
  }
}
layer {
  name: "pool2"
  type: "Pooling"
  bottom: "norm2"
  top: "pool2"
  pooling_param {
    pool: MAX
    kernel_size: 3
    stride: 2
  }
}
layer {
  name: "conv3"
  type: "Convolution"
  bottom: "pool2"
  top: "conv3"
  param {
    lr_mult: 1
    decay_mult: 1
  }
  param {
    lr_mult: 2
    decay_mult: 0
  }
  convolution_param {
    num_output: 384
    pad: 1
    kernel_size: 3
    weight_filler {
      type: "gaussian"
      std: 0.01
    }
    bias_filler {
      type: "constant"
      value: 0
    }
  }
}
layer {
  name: "relu3"
  type: "ReLU"
  bottom: "conv3"
  top: "conv3"
}
layer {
  name: "conv4"
  type: "Convolution"
  bottom: "conv3"
  top: "conv4"
  param {
    lr_mult: 1
    decay_mult: 1
  }
  param {
    lr_mult: 2
    decay_mult: 0
  }
  convolution_param {
    num_output: 384
    pad: 1
    kernel_size: 3
    group: 2
    weight_filler {
      type: "gaussian"
      std: 0.01
    }
    bias_filler {
      type: "constant"
      value: 0.1
    }
  }
}
layer {
  name: "relu4"
  type: "ReLU"
  bottom: "conv4"
  top: "conv4"
}
layer {
  name: "conv5"
  type: "Convolution"
  bottom: "conv4"
  top: "conv5"
  param {
    lr_mult: 1
    decay_mult: 1
  }
  param {
    lr_mult: 2
    decay_mult: 0
  }
  convolution_param {
    num_output: 256
    pad: 1
    kernel_size: 3
    group: 2
    weight_filler {
      type: "gaussian"
      std: 0.01
    }
    bias_filler {
      type: "constant"
      value: 0.1
    }
  }
}
layer {
  name: "relu5"
  type: "ReLU"
  bottom: "conv5"
  top: "conv5"
}
layer {
  name: "pool5"
  type: "Pooling"
  bottom: "conv5"
  top: "pool5"
  pooling_param {
    pool: MAX
    kernel_size: 3
    stride: 2
  }
}
layer {
  name: "fc6"
  type: "InnerProduct"
  bottom: "pool5"
  top: "fc6"
  param {
    lr_mult: 1
    decay_mult: 1
  }
  param {
    lr_mult: 2
    decay_mult: 0
  }
  inner_product_param {
    num_output: 4096
    weight_filler {
      type: "gaussian"
      std: 0.005
    }
    bias_filler {
      type: "constant"
      value: 0.1
    }
  }
}
layer {
  name: "relu6"
  type: "ReLU"
  bottom: "fc6"
  top: "fc6"
}
layer {
  name: "drop6"
  type: "Dropout"
  bottom: "fc6"
  top: "fc6"
  dropout_param {
    dropout_ratio: 0.5
  }
}
layer {
  name: "fc7"
  type: "InnerProduct"
  bottom: "fc6"
  top: "fc7"
  param {
    lr_mult: 1
    decay_mult: 1
  }
  param {
    lr_mult: 2
    decay_mult: 0
  }
  inner_product_param {
    num_output: 4096
    weight_filler {
      type: "gaussian"
      std: 0.005
    }
    bias_filler {
      type: "constant"
      value: 0.1
    }
  }
}
layer {
  name: "relu7"
  type: "ReLU"
  bottom: "fc7"
  top: "fc7"
}
layer {
  name: "drop7"
  type: "Dropout"
  bottom: "fc7"
  top: "fc7"
  dropout_param {
    dropout_ratio: 0.5
  }
}
layer {
  name: "fc8_plantvillage"
  type: "InnerProduct"
  bottom: "fc7"
  top: "fc8_plantvillage"
  param {
    lr_mult: 1
    decay_mult: 1
  }
  param {
    lr_mult: 2
    decay_mult: 0
  }
  inner_product_param {
    num_output: 38
    weight_filler {
      type: "gaussian"
      std: 0.01
    }
    bias_filler {
      type: "constant"
      value: 0
    }
  }
}
layer {
  name: "prob"
  type: "Softmax"
  bottom: "fc8_plantvillage"
  top: "prob"
  include {
    phase: TEST
  }
}
layer {
  name: "hdf5out"
  type: "HDF5Output"
  bottom: "prob"
  bottom: "label"
  include {
    phase: TEST
  }
  hdf5_output_param {
    file_name: "hdf5_dumps/iter_4599.h5"
  }
}
layer {
  name: "loss"
  type: "SoftmaxWithLoss"
  bottom: "fc8_plantvillage"
  bottom: "label"
  top: "loss"
}
layer {
  name: "accuracy"
  type: "Accuracy"
  bottom: "fc8_plantvillage"
  bottom: "label"
  top: "accuracy"
  include {
    phase: TEST
  }
}
I0403 14:48:05.339314 30323 layer_factory.hpp:77] Creating layer data
I0403 14:48:05.339979 30323 net.cpp:91] Creating Layer data
I0403 14:48:05.340009 30323 net.cpp:399] data -> data
I0403 14:48:05.340066 30323 net.cpp:399] data -> label
I0403 14:48:05.340104 30323 data_transformer.cpp:25] Loading mean file from: /home/mohanty/data/final_dataset/lmdb/segmented-40-60/mean.binaryproto
I0403 14:48:05.342888 30325 db_lmdb.cpp:38] Opened lmdb /home/mohanty/data/final_dataset/lmdb/segmented-40-60/test_db
I0403 14:48:05.354239 30323 data_layer.cpp:41] output data size: 100,3,227,227
I0403 14:48:05.470551 30323 net.cpp:141] Setting up data
I0403 14:48:05.470672 30323 net.cpp:148] Top shape: 100 3 227 227 (15458700)
I0403 14:48:05.470695 30323 net.cpp:148] Top shape: 100 (100)
I0403 14:48:05.470711 30323 net.cpp:156] Memory required for data: 61835200
I0403 14:48:05.470741 30323 layer_factory.hpp:77] Creating layer label_data_1_split
I0403 14:48:05.470769 30323 net.cpp:91] Creating Layer label_data_1_split
I0403 14:48:05.470788 30323 net.cpp:425] label_data_1_split <- label
I0403 14:48:05.470824 30323 net.cpp:399] label_data_1_split -> label_data_1_split_0
I0403 14:48:05.470852 30323 net.cpp:399] label_data_1_split -> label_data_1_split_1
I0403 14:48:05.470873 30323 net.cpp:399] label_data_1_split -> label_data_1_split_2
I0403 14:48:05.470938 30323 net.cpp:141] Setting up label_data_1_split
I0403 14:48:05.470963 30323 net.cpp:148] Top shape: 100 (100)
I0403 14:48:05.470979 30323 net.cpp:148] Top shape: 100 (100)
I0403 14:48:05.470996 30323 net.cpp:148] Top shape: 100 (100)
I0403 14:48:05.471010 30323 net.cpp:156] Memory required for data: 61836400
I0403 14:48:05.471026 30323 layer_factory.hpp:77] Creating layer conv1
I0403 14:48:05.471062 30323 net.cpp:91] Creating Layer conv1
I0403 14:48:05.471081 30323 net.cpp:425] conv1 <- data
I0403 14:48:05.471099 30323 net.cpp:399] conv1 -> conv1
I0403 14:48:05.610399 30323 net.cpp:141] Setting up conv1
I0403 14:48:05.610494 30323 net.cpp:148] Top shape: 100 96 55 55 (29040000)
I0403 14:48:05.610515 30323 net.cpp:156] Memory required for data: 177996400
I0403 14:48:05.610555 30323 layer_factory.hpp:77] Creating layer relu1
I0403 14:48:05.610595 30323 net.cpp:91] Creating Layer relu1
I0403 14:48:05.610615 30323 net.cpp:425] relu1 <- conv1
I0403 14:48:05.610633 30323 net.cpp:386] relu1 -> conv1 (in-place)
I0403 14:48:05.610906 30323 net.cpp:141] Setting up relu1
I0403 14:48:05.610934 30323 net.cpp:148] Top shape: 100 96 55 55 (29040000)
I0403 14:48:05.610988 30323 net.cpp:156] Memory required for data: 294156400
I0403 14:48:05.611006 30323 layer_factory.hpp:77] Creating layer norm1
I0403 14:48:05.611037 30323 net.cpp:91] Creating Layer norm1
I0403 14:48:05.611054 30323 net.cpp:425] norm1 <- conv1
I0403 14:48:05.611074 30323 net.cpp:399] norm1 -> norm1
I0403 14:48:05.611409 30323 net.cpp:141] Setting up norm1
I0403 14:48:05.611438 30323 net.cpp:148] Top shape: 100 96 55 55 (29040000)
I0403 14:48:05.611454 30323 net.cpp:156] Memory required for data: 410316400
I0403 14:48:05.611469 30323 layer_factory.hpp:77] Creating layer pool1
I0403 14:48:05.611493 30323 net.cpp:91] Creating Layer pool1
I0403 14:48:05.611510 30323 net.cpp:425] pool1 <- norm1
I0403 14:48:05.611531 30323 net.cpp:399] pool1 -> pool1
I0403 14:48:05.611609 30323 net.cpp:141] Setting up pool1
I0403 14:48:05.611636 30323 net.cpp:148] Top shape: 100 96 27 27 (6998400)
I0403 14:48:05.611651 30323 net.cpp:156] Memory required for data: 438310000
I0403 14:48:05.611667 30323 layer_factory.hpp:77] Creating layer conv2
I0403 14:48:05.611696 30323 net.cpp:91] Creating Layer conv2
I0403 14:48:05.611712 30323 net.cpp:425] conv2 <- pool1
I0403 14:48:05.611732 30323 net.cpp:399] conv2 -> conv2
I0403 14:48:05.626839 30323 net.cpp:141] Setting up conv2
I0403 14:48:05.626878 30323 net.cpp:148] Top shape: 100 256 27 27 (18662400)
I0403 14:48:05.626895 30323 net.cpp:156] Memory required for data: 512959600
I0403 14:48:05.626919 30323 layer_factory.hpp:77] Creating layer relu2
I0403 14:48:05.626937 30323 net.cpp:91] Creating Layer relu2
I0403 14:48:05.626953 30323 net.cpp:425] relu2 <- conv2
I0403 14:48:05.627007 30323 net.cpp:386] relu2 -> conv2 (in-place)
I0403 14:48:05.627296 30323 net.cpp:141] Setting up relu2
I0403 14:48:05.627324 30323 net.cpp:148] Top shape: 100 256 27 27 (18662400)
I0403 14:48:05.627341 30323 net.cpp:156] Memory required for data: 587609200
I0403 14:48:05.627356 30323 layer_factory.hpp:77] Creating layer norm2
I0403 14:48:05.627382 30323 net.cpp:91] Creating Layer norm2
I0403 14:48:05.627399 30323 net.cpp:425] norm2 <- conv2
I0403 14:48:05.627418 30323 net.cpp:399] norm2 -> norm2
I0403 14:48:05.627624 30323 net.cpp:141] Setting up norm2
I0403 14:48:05.627651 30323 net.cpp:148] Top shape: 100 256 27 27 (18662400)
I0403 14:48:05.627666 30323 net.cpp:156] Memory required for data: 662258800
I0403 14:48:05.627682 30323 layer_factory.hpp:77] Creating layer pool2
I0403 14:48:05.627699 30323 net.cpp:91] Creating Layer pool2
I0403 14:48:05.627715 30323 net.cpp:425] pool2 <- norm2
I0403 14:48:05.627735 30323 net.cpp:399] pool2 -> pool2
I0403 14:48:05.627789 30323 net.cpp:141] Setting up pool2
I0403 14:48:05.627812 30323 net.cpp:148] Top shape: 100 256 13 13 (4326400)
I0403 14:48:05.627827 30323 net.cpp:156] Memory required for data: 679564400
I0403 14:48:05.627842 30323 layer_factory.hpp:77] Creating layer conv3
I0403 14:48:05.627867 30323 net.cpp:91] Creating Layer conv3
I0403 14:48:05.627885 30323 net.cpp:425] conv3 <- pool2
I0403 14:48:05.627904 30323 net.cpp:399] conv3 -> conv3
I0403 14:48:05.666543 30323 net.cpp:141] Setting up conv3
I0403 14:48:05.666609 30323 net.cpp:148] Top shape: 100 384 13 13 (6489600)
I0403 14:48:05.666626 30323 net.cpp:156] Memory required for data: 705522800
I0403 14:48:05.666651 30323 layer_factory.hpp:77] Creating layer relu3
I0403 14:48:05.666671 30323 net.cpp:91] Creating Layer relu3
I0403 14:48:05.666687 30323 net.cpp:425] relu3 <- conv3
I0403 14:48:05.666707 30323 net.cpp:386] relu3 -> conv3 (in-place)
I0403 14:48:05.666992 30323 net.cpp:141] Setting up relu3
I0403 14:48:05.667019 30323 net.cpp:148] Top shape: 100 384 13 13 (6489600)
I0403 14:48:05.667035 30323 net.cpp:156] Memory required for data: 731481200
I0403 14:48:05.667052 30323 layer_factory.hpp:77] Creating layer conv4
I0403 14:48:05.667076 30323 net.cpp:91] Creating Layer conv4
I0403 14:48:05.667093 30323 net.cpp:425] conv4 <- conv3
I0403 14:48:05.667114 30323 net.cpp:399] conv4 -> conv4
I0403 14:48:05.697937 30323 net.cpp:141] Setting up conv4
I0403 14:48:05.697988 30323 net.cpp:148] Top shape: 100 384 13 13 (6489600)
I0403 14:48:05.698030 30323 net.cpp:156] Memory required for data: 757439600
I0403 14:48:05.698053 30323 layer_factory.hpp:77] Creating layer relu4
I0403 14:48:05.698076 30323 net.cpp:91] Creating Layer relu4
I0403 14:48:05.698092 30323 net.cpp:425] relu4 <- conv4
I0403 14:48:05.698113 30323 net.cpp:386] relu4 -> conv4 (in-place)
I0403 14:48:05.698396 30323 net.cpp:141] Setting up relu4
I0403 14:48:05.698426 30323 net.cpp:148] Top shape: 100 384 13 13 (6489600)
I0403 14:48:05.698441 30323 net.cpp:156] Memory required for data: 783398000
I0403 14:48:05.698457 30323 layer_factory.hpp:77] Creating layer conv5
I0403 14:48:05.698482 30323 net.cpp:91] Creating Layer conv5
I0403 14:48:05.698499 30323 net.cpp:425] conv5 <- conv4
I0403 14:48:05.698519 30323 net.cpp:399] conv5 -> conv5
I0403 14:48:05.719326 30323 net.cpp:141] Setting up conv5
I0403 14:48:05.719367 30323 net.cpp:148] Top shape: 100 256 13 13 (4326400)
I0403 14:48:05.719383 30323 net.cpp:156] Memory required for data: 800703600
I0403 14:48:05.719408 30323 layer_factory.hpp:77] Creating layer relu5
I0403 14:48:05.719427 30323 net.cpp:91] Creating Layer relu5
I0403 14:48:05.719444 30323 net.cpp:425] relu5 <- conv5
I0403 14:48:05.719463 30323 net.cpp:386] relu5 -> conv5 (in-place)
I0403 14:48:05.719751 30323 net.cpp:141] Setting up relu5
I0403 14:48:05.719779 30323 net.cpp:148] Top shape: 100 256 13 13 (4326400)
I0403 14:48:05.719794 30323 net.cpp:156] Memory required for data: 818009200
I0403 14:48:05.719810 30323 layer_factory.hpp:77] Creating layer pool5
I0403 14:48:05.719835 30323 net.cpp:91] Creating Layer pool5
I0403 14:48:05.719851 30323 net.cpp:425] pool5 <- conv5
I0403 14:48:05.719869 30323 net.cpp:399] pool5 -> pool5
I0403 14:48:05.719930 30323 net.cpp:141] Setting up pool5
I0403 14:48:05.719954 30323 net.cpp:148] Top shape: 100 256 6 6 (921600)
I0403 14:48:05.719969 30323 net.cpp:156] Memory required for data: 821695600
I0403 14:48:05.719985 30323 layer_factory.hpp:77] Creating layer fc6
I0403 14:48:05.720016 30323 net.cpp:91] Creating Layer fc6
I0403 14:48:05.720058 30323 net.cpp:425] fc6 <- pool5
I0403 14:48:05.720082 30323 net.cpp:399] fc6 -> fc6
I0403 14:48:07.229197 30323 net.cpp:141] Setting up fc6
I0403 14:48:07.229287 30323 net.cpp:148] Top shape: 100 4096 (409600)
I0403 14:48:07.229303 30323 net.cpp:156] Memory required for data: 823334000
I0403 14:48:07.229327 30323 layer_factory.hpp:77] Creating layer relu6
I0403 14:48:07.229353 30323 net.cpp:91] Creating Layer relu6
I0403 14:48:07.229372 30323 net.cpp:425] relu6 <- fc6
I0403 14:48:07.229392 30323 net.cpp:386] relu6 -> fc6 (in-place)
I0403 14:48:07.229634 30323 net.cpp:141] Setting up relu6
I0403 14:48:07.229666 30323 net.cpp:148] Top shape: 100 4096 (409600)
I0403 14:48:07.229682 30323 net.cpp:156] Memory required for data: 824972400
I0403 14:48:07.229697 30323 layer_factory.hpp:77] Creating layer drop6
I0403 14:48:07.229717 30323 net.cpp:91] Creating Layer drop6
I0403 14:48:07.229732 30323 net.cpp:425] drop6 <- fc6
I0403 14:48:07.229750 30323 net.cpp:386] drop6 -> fc6 (in-place)
I0403 14:48:07.229817 30323 net.cpp:141] Setting up drop6
I0403 14:48:07.229845 30323 net.cpp:148] Top shape: 100 4096 (409600)
I0403 14:48:07.229859 30323 net.cpp:156] Memory required for data: 826610800
I0403 14:48:07.229873 30323 layer_factory.hpp:77] Creating layer fc7
I0403 14:48:07.229893 30323 net.cpp:91] Creating Layer fc7
I0403 14:48:07.229909 30323 net.cpp:425] fc7 <- fc6
I0403 14:48:07.229928 30323 net.cpp:399] fc7 -> fc7
I0403 14:48:07.895098 30323 net.cpp:141] Setting up fc7
I0403 14:48:07.895176 30323 net.cpp:148] Top shape: 100 4096 (409600)
I0403 14:48:07.895206 30323 net.cpp:156] Memory required for data: 828249200
I0403 14:48:07.895232 30323 layer_factory.hpp:77] Creating layer relu7
I0403 14:48:07.895256 30323 net.cpp:91] Creating Layer relu7
I0403 14:48:07.895288 30323 net.cpp:425] relu7 <- fc7
I0403 14:48:07.895313 30323 net.cpp:386] relu7 -> fc7 (in-place)
I0403 14:48:07.895720 30323 net.cpp:141] Setting up relu7
I0403 14:48:07.895750 30323 net.cpp:148] Top shape: 100 4096 (409600)
I0403 14:48:07.895794 30323 net.cpp:156] Memory required for data: 829887600
I0403 14:48:07.895810 30323 layer_factory.hpp:77] Creating layer drop7
I0403 14:48:07.895828 30323 net.cpp:91] Creating Layer drop7
I0403 14:48:07.895846 30323 net.cpp:425] drop7 <- fc7
I0403 14:48:07.895865 30323 net.cpp:386] drop7 -> fc7 (in-place)
I0403 14:48:07.895907 30323 net.cpp:141] Setting up drop7
I0403 14:48:07.895930 30323 net.cpp:148] Top shape: 100 4096 (409600)
I0403 14:48:07.895943 30323 net.cpp:156] Memory required for data: 831526000
I0403 14:48:07.895956 30323 layer_factory.hpp:77] Creating layer fc8_plantvillage
I0403 14:48:07.895979 30323 net.cpp:91] Creating Layer fc8_plantvillage
I0403 14:48:07.895994 30323 net.cpp:425] fc8_plantvillage <- fc7
I0403 14:48:07.896014 30323 net.cpp:399] fc8_plantvillage -> fc8_plantvillage
I0403 14:48:07.902554 30323 net.cpp:141] Setting up fc8_plantvillage
I0403 14:48:07.902590 30323 net.cpp:148] Top shape: 100 38 (3800)
I0403 14:48:07.902604 30323 net.cpp:156] Memory required for data: 831541200
I0403 14:48:07.902622 30323 layer_factory.hpp:77] Creating layer fc8_plantvillage_fc8_plantvillage_0_split
I0403 14:48:07.902639 30323 net.cpp:91] Creating Layer fc8_plantvillage_fc8_plantvillage_0_split
I0403 14:48:07.902654 30323 net.cpp:425] fc8_plantvillage_fc8_plantvillage_0_split <- fc8_plantvillage
I0403 14:48:07.902674 30323 net.cpp:399] fc8_plantvillage_fc8_plantvillage_0_split -> fc8_plantvillage_fc8_plantvillage_0_split_0
I0403 14:48:07.902694 30323 net.cpp:399] fc8_plantvillage_fc8_plantvillage_0_split -> fc8_plantvillage_fc8_plantvillage_0_split_1
I0403 14:48:07.902714 30323 net.cpp:399] fc8_plantvillage_fc8_plantvillage_0_split -> fc8_plantvillage_fc8_plantvillage_0_split_2
I0403 14:48:07.902791 30323 net.cpp:141] Setting up fc8_plantvillage_fc8_plantvillage_0_split
I0403 14:48:07.902813 30323 net.cpp:148] Top shape: 100 38 (3800)
I0403 14:48:07.902828 30323 net.cpp:148] Top shape: 100 38 (3800)
I0403 14:48:07.902843 30323 net.cpp:148] Top shape: 100 38 (3800)
I0403 14:48:07.902856 30323 net.cpp:156] Memory required for data: 831586800
I0403 14:48:07.902871 30323 layer_factory.hpp:77] Creating layer prob
I0403 14:48:07.902889 30323 net.cpp:91] Creating Layer prob
I0403 14:48:07.902904 30323 net.cpp:425] prob <- fc8_plantvillage_fc8_plantvillage_0_split_0
I0403 14:48:07.902923 30323 net.cpp:399] prob -> prob
I0403 14:48:07.903141 30323 net.cpp:141] Setting up prob
I0403 14:48:07.903170 30323 net.cpp:148] Top shape: 100 38 (3800)
I0403 14:48:07.903185 30323 net.cpp:156] Memory required for data: 831602000
I0403 14:48:07.903200 30323 layer_factory.hpp:77] Creating layer hdf5out
I0403 14:48:07.903218 30323 net.cpp:91] Creating Layer hdf5out
I0403 14:48:07.903234 30323 net.cpp:425] hdf5out <- prob
I0403 14:48:07.903249 30323 net.cpp:425] hdf5out <- label_data_1_split_0
I0403 14:48:07.907212 30323 net.cpp:141] Setting up hdf5out
…
