…
I0403 14:54:54.849191 30605 net.cpp:313] The NetState phase (1) differed from the phase (0) specified by a rule in layer data
I0403 14:54:54.849514 30605 net.cpp:49] Initializing net from parameters: 
state {
  phase: TEST
}
layer {
  name: "data"
  type: "Data"
  top: "data"
  top: "label"
  include {
    phase: TEST
  }
  transform_param {
    crop_size: 227
    mean_file: "/home/mohanty/data/final_dataset/lmdb/segmented-40-60/mean.binaryproto"
  }
  data_param {
    source: "/home/mohanty/data/final_dataset/lmdb/segmented-40-60/test_db"
    batch_size: 100
    backend: LMDB
  }
}
layer {
  name: "conv1"
  type: "Convolution"
  bottom: "data"
  top: "conv1"
  param {
    lr_mult: 1
    decay_mult: 1
  }
  param {
    lr_mult: 2
    decay_mult: 0
  }
  convolution_param {
    num_output: 96
    kernel_size: 11
    stride: 4
    weight_filler {
      type: "gaussian"
      std: 0.01
    }
    bias_filler {
      type: "constant"
      value: 0
    }
  }
}
layer {
  name: "relu1"
  type: "ReLU"
  bottom: "conv1"
  top: "conv1"
}
layer {
  name: "norm1"
  type: "LRN"
  bottom: "conv1"
  top: "norm1"
  lrn_param {
    local_size: 5
    alpha: 0.0001
    beta: 0.75
  }
}
layer {
  name: "pool1"
  type: "Pooling"
  bottom: "norm1"
  top: "pool1"
  pooling_param {
    pool: MAX
    kernel_size: 3
    stride: 2
  }
}
layer {
  name: "conv2"
  type: "Convolution"
  bottom: "pool1"
  top: "conv2"
  param {
    lr_mult: 1
    decay_mult: 1
  }
  param {
    lr_mult: 2
    decay_mult: 0
  }
  convolution_param {
    num_output: 256
    pad: 2
    kernel_size: 5
    group: 2
    weight_filler {
      type: "gaussian"
      std: 0.01
    }
    bias_filler {
      type: "constant"
      value: 0.1
    }
  }
}
layer {
  name: "relu2"
  type: "ReLU"
  bottom: "conv2"
  top: "conv2"
}
layer {
  name: "norm2"
  type: "LRN"
  bottom: "conv2"
  top: "norm2"
  lrn_param {
    local_size: 5
    alpha: 0.0001
    beta: 0.75
  }
}
layer {
  name: "pool2"
  type: "Pooling"
  bottom: "norm2"
  top: "pool2"
  pooling_param {
    pool: MAX
    kernel_size: 3
    stride: 2
  }
}
layer {
  name: "conv3"
  type: "Convolution"
  bottom: "pool2"
  top: "conv3"
  param {
    lr_mult: 1
    decay_mult: 1
  }
  param {
    lr_mult: 2
    decay_mult: 0
  }
  convolution_param {
    num_output: 384
    pad: 1
    kernel_size: 3
    weight_filler {
      type: "gaussian"
      std: 0.01
    }
    bias_filler {
      type: "constant"
      value: 0
    }
  }
}
layer {
  name: "relu3"
  type: "ReLU"
  bottom: "conv3"
  top: "conv3"
}
layer {
  name: "conv4"
  type: "Convolution"
  bottom: "conv3"
  top: "conv4"
  param {
    lr_mult: 1
    decay_mult: 1
  }
  param {
    lr_mult: 2
    decay_mult: 0
  }
  convolution_param {
    num_output: 384
    pad: 1
    kernel_size: 3
    group: 2
    weight_filler {
      type: "gaussian"
      std: 0.01
    }
    bias_filler {
      type: "constant"
      value: 0.1
    }
  }
}
layer {
  name: "relu4"
  type: "ReLU"
  bottom: "conv4"
  top: "conv4"
}
layer {
  name: "conv5"
  type: "Convolution"
  bottom: "conv4"
  top: "conv5"
  param {
    lr_mult: 1
    decay_mult: 1
  }
  param {
    lr_mult: 2
    decay_mult: 0
  }
  convolution_param {
    num_output: 256
    pad: 1
    kernel_size: 3
    group: 2
    weight_filler {
      type: "gaussian"
      std: 0.01
    }
    bias_filler {
      type: "constant"
      value: 0.1
    }
  }
}
layer {
  name: "relu5"
  type: "ReLU"
  bottom: "conv5"
  top: "conv5"
}
layer {
  name: "pool5"
  type: "Pooling"
  bottom: "conv5"
  top: "pool5"
  pooling_param {
    pool: MAX
    kernel_size: 3
    stride: 2
  }
}
layer {
  name: "fc6"
  type: "InnerProduct"
  bottom: "pool5"
  top: "fc6"
  param {
    lr_mult: 1
    decay_mult: 1
  }
  param {
    lr_mult: 2
    decay_mult: 0
  }
  inner_product_param {
    num_output: 4096
    weight_filler {
      type: "gaussian"
      std: 0.005
    }
    bias_filler {
      type: "constant"
      value: 0.1
    }
  }
}
layer {
  name: "relu6"
  type: "ReLU"
  bottom: "fc6"
  top: "fc6"
}
layer {
  name: "drop6"
  type: "Dropout"
  bottom: "fc6"
  top: "fc6"
  dropout_param {
    dropout_ratio: 0.5
  }
}
layer {
  name: "fc7"
  type: "InnerProduct"
  bottom: "fc6"
  top: "fc7"
  param {
    lr_mult: 1
    decay_mult: 1
  }
  param {
    lr_mult: 2
    decay_mult: 0
  }
  inner_product_param {
    num_output: 4096
    weight_filler {
      type: "gaussian"
      std: 0.005
    }
    bias_filler {
      type: "constant"
      value: 0.1
    }
  }
}
layer {
  name: "relu7"
  type: "ReLU"
  bottom: "fc7"
  top: "fc7"
}
layer {
  name: "drop7"
  type: "Dropout"
  bottom: "fc7"
  top: "fc7"
  dropout_param {
    dropout_ratio: 0.5
  }
}
layer {
  name: "fc8_plantvillage"
  type: "InnerProduct"
  bottom: "fc7"
  top: "fc8_plantvillage"
  param {
    lr_mult: 1
    decay_mult: 1
  }
  param {
    lr_mult: 2
    decay_mult: 0
  }
  inner_product_param {
    num_output: 38
    weight_filler {
      type: "gaussian"
      std: 0.01
    }
    bias_filler {
      type: "constant"
      value: 0
    }
  }
}
layer {
  name: "prob"
  type: "Softmax"
  bottom: "fc8_plantvillage"
  top: "prob"
  include {
    phase: TEST
  }
}
layer {
  name: "hdf5out"
  type: "HDF5Output"
  bottom: "prob"
  bottom: "label"
  include {
    phase: TEST
  }
  hdf5_output_param {
    file_name: "hdf5_dumps/iter_6132.h5"
  }
}
layer {
  name: "loss"
  type: "SoftmaxWithLoss"
  bottom: "fc8_plantvillage"
  bottom: "label"
  top: "loss"
}
layer {
  name: "accuracy"
  type: "Accuracy"
  bottom: "fc8_plantvillage"
  bottom: "label"
  top: "accuracy"
  include {
    phase: TEST
  }
}
I0403 14:54:54.850155 30605 layer_factory.hpp:77] Creating layer data
I0403 14:54:54.850798 30605 net.cpp:91] Creating Layer data
I0403 14:54:54.850828 30605 net.cpp:399] data -> data
I0403 14:54:54.850884 30605 net.cpp:399] data -> label
I0403 14:54:54.850920 30605 data_transformer.cpp:25] Loading mean file from: /home/mohanty/data/final_dataset/lmdb/segmented-40-60/mean.binaryproto
I0403 14:54:54.853525 30607 db_lmdb.cpp:38] Opened lmdb /home/mohanty/data/final_dataset/lmdb/segmented-40-60/test_db
I0403 14:54:54.865293 30605 data_layer.cpp:41] output data size: 100,3,227,227
I0403 14:54:54.983502 30605 net.cpp:141] Setting up data
I0403 14:54:54.983609 30605 net.cpp:148] Top shape: 100 3 227 227 (15458700)
I0403 14:54:54.983634 30605 net.cpp:148] Top shape: 100 (100)
I0403 14:54:54.983660 30605 net.cpp:156] Memory required for data: 61835200
I0403 14:54:54.983692 30605 layer_factory.hpp:77] Creating layer label_data_1_split
I0403 14:54:54.983721 30605 net.cpp:91] Creating Layer label_data_1_split
I0403 14:54:54.983741 30605 net.cpp:425] label_data_1_split <- label
I0403 14:54:54.983775 30605 net.cpp:399] label_data_1_split -> label_data_1_split_0
I0403 14:54:54.983805 30605 net.cpp:399] label_data_1_split -> label_data_1_split_1
I0403 14:54:54.983827 30605 net.cpp:399] label_data_1_split -> label_data_1_split_2
I0403 14:54:54.983893 30605 net.cpp:141] Setting up label_data_1_split
I0403 14:54:54.983917 30605 net.cpp:148] Top shape: 100 (100)
I0403 14:54:54.983934 30605 net.cpp:148] Top shape: 100 (100)
I0403 14:54:54.983950 30605 net.cpp:148] Top shape: 100 (100)
I0403 14:54:54.983964 30605 net.cpp:156] Memory required for data: 61836400
I0403 14:54:54.983980 30605 layer_factory.hpp:77] Creating layer conv1
I0403 14:54:54.984015 30605 net.cpp:91] Creating Layer conv1
I0403 14:54:54.984042 30605 net.cpp:425] conv1 <- data
I0403 14:54:54.984061 30605 net.cpp:399] conv1 -> conv1
I0403 14:54:55.124927 30605 net.cpp:141] Setting up conv1
I0403 14:54:55.125017 30605 net.cpp:148] Top shape: 100 96 55 55 (29040000)
I0403 14:54:55.125035 30605 net.cpp:156] Memory required for data: 177996400
I0403 14:54:55.125071 30605 layer_factory.hpp:77] Creating layer relu1
I0403 14:54:55.125098 30605 net.cpp:91] Creating Layer relu1
I0403 14:54:55.125116 30605 net.cpp:425] relu1 <- conv1
I0403 14:54:55.125135 30605 net.cpp:386] relu1 -> conv1 (in-place)
I0403 14:54:55.125391 30605 net.cpp:141] Setting up relu1
I0403 14:54:55.125418 30605 net.cpp:148] Top shape: 100 96 55 55 (29040000)
I0403 14:54:55.125468 30605 net.cpp:156] Memory required for data: 294156400
I0403 14:54:55.125483 30605 layer_factory.hpp:77] Creating layer norm1
I0403 14:54:55.125512 30605 net.cpp:91] Creating Layer norm1
I0403 14:54:55.125530 30605 net.cpp:425] norm1 <- conv1
I0403 14:54:55.125572 30605 net.cpp:399] norm1 -> norm1
I0403 14:54:55.125886 30605 net.cpp:141] Setting up norm1
I0403 14:54:55.125913 30605 net.cpp:148] Top shape: 100 96 55 55 (29040000)
I0403 14:54:55.125928 30605 net.cpp:156] Memory required for data: 410316400
I0403 14:54:55.125943 30605 layer_factory.hpp:77] Creating layer pool1
I0403 14:54:55.125967 30605 net.cpp:91] Creating Layer pool1
I0403 14:54:55.125984 30605 net.cpp:425] pool1 <- norm1
I0403 14:54:55.126001 30605 net.cpp:399] pool1 -> pool1
I0403 14:54:55.126070 30605 net.cpp:141] Setting up pool1
I0403 14:54:55.126092 30605 net.cpp:148] Top shape: 100 96 27 27 (6998400)
I0403 14:54:55.126106 30605 net.cpp:156] Memory required for data: 438310000
I0403 14:54:55.126121 30605 layer_factory.hpp:77] Creating layer conv2
I0403 14:54:55.126145 30605 net.cpp:91] Creating Layer conv2
I0403 14:54:55.126162 30605 net.cpp:425] conv2 <- pool1
I0403 14:54:55.126179 30605 net.cpp:399] conv2 -> conv2
I0403 14:54:55.140857 30605 net.cpp:141] Setting up conv2
I0403 14:54:55.140893 30605 net.cpp:148] Top shape: 100 256 27 27 (18662400)
I0403 14:54:55.140910 30605 net.cpp:156] Memory required for data: 512959600
I0403 14:54:55.140931 30605 layer_factory.hpp:77] Creating layer relu2
I0403 14:54:55.140949 30605 net.cpp:91] Creating Layer relu2
I0403 14:54:55.140964 30605 net.cpp:425] relu2 <- conv2
I0403 14:54:55.140983 30605 net.cpp:386] relu2 -> conv2 (in-place)
I0403 14:54:55.141264 30605 net.cpp:141] Setting up relu2
I0403 14:54:55.141290 30605 net.cpp:148] Top shape: 100 256 27 27 (18662400)
I0403 14:54:55.141305 30605 net.cpp:156] Memory required for data: 587609200
I0403 14:54:55.141320 30605 layer_factory.hpp:77] Creating layer norm2
I0403 14:54:55.141342 30605 net.cpp:91] Creating Layer norm2
I0403 14:54:55.141358 30605 net.cpp:425] norm2 <- conv2
I0403 14:54:55.141376 30605 net.cpp:399] norm2 -> norm2
I0403 14:54:55.141651 30605 net.cpp:141] Setting up norm2
I0403 14:54:55.141680 30605 net.cpp:148] Top shape: 100 256 27 27 (18662400)
I0403 14:54:55.141695 30605 net.cpp:156] Memory required for data: 662258800
I0403 14:54:55.141710 30605 layer_factory.hpp:77] Creating layer pool2
I0403 14:54:55.141727 30605 net.cpp:91] Creating Layer pool2
I0403 14:54:55.141742 30605 net.cpp:425] pool2 <- norm2
I0403 14:54:55.141762 30605 net.cpp:399] pool2 -> pool2
I0403 14:54:55.141814 30605 net.cpp:141] Setting up pool2
I0403 14:54:55.141837 30605 net.cpp:148] Top shape: 100 256 13 13 (4326400)
I0403 14:54:55.141852 30605 net.cpp:156] Memory required for data: 679564400
I0403 14:54:55.141866 30605 layer_factory.hpp:77] Creating layer conv3
I0403 14:54:55.141888 30605 net.cpp:91] Creating Layer conv3
I0403 14:54:55.141904 30605 net.cpp:425] conv3 <- pool2
I0403 14:54:55.141926 30605 net.cpp:399] conv3 -> conv3
I0403 14:54:55.179431 30605 net.cpp:141] Setting up conv3
I0403 14:54:55.179486 30605 net.cpp:148] Top shape: 100 384 13 13 (6489600)
I0403 14:54:55.179502 30605 net.cpp:156] Memory required for data: 705522800
I0403 14:54:55.179527 30605 layer_factory.hpp:77] Creating layer relu3
I0403 14:54:55.179550 30605 net.cpp:91] Creating Layer relu3
I0403 14:54:55.179569 30605 net.cpp:425] relu3 <- conv3
I0403 14:54:55.179589 30605 net.cpp:386] relu3 -> conv3 (in-place)
I0403 14:54:55.179858 30605 net.cpp:141] Setting up relu3
I0403 14:54:55.179886 30605 net.cpp:148] Top shape: 100 384 13 13 (6489600)
I0403 14:54:55.179901 30605 net.cpp:156] Memory required for data: 731481200
I0403 14:54:55.179915 30605 layer_factory.hpp:77] Creating layer conv4
I0403 14:54:55.179940 30605 net.cpp:91] Creating Layer conv4
I0403 14:54:55.179957 30605 net.cpp:425] conv4 <- conv3
I0403 14:54:55.179978 30605 net.cpp:399] conv4 -> conv4
I0403 14:54:55.209235 30605 net.cpp:141] Setting up conv4
I0403 14:54:55.209290 30605 net.cpp:148] Top shape: 100 384 13 13 (6489600)
I0403 14:54:55.209345 30605 net.cpp:156] Memory required for data: 757439600
I0403 14:54:55.209365 30605 layer_factory.hpp:77] Creating layer relu4
I0403 14:54:55.209384 30605 net.cpp:91] Creating Layer relu4
I0403 14:54:55.209400 30605 net.cpp:425] relu4 <- conv4
I0403 14:54:55.209417 30605 net.cpp:386] relu4 -> conv4 (in-place)
I0403 14:54:55.209695 30605 net.cpp:141] Setting up relu4
I0403 14:54:55.209724 30605 net.cpp:148] Top shape: 100 384 13 13 (6489600)
I0403 14:54:55.209740 30605 net.cpp:156] Memory required for data: 783398000
I0403 14:54:55.209755 30605 layer_factory.hpp:77] Creating layer conv5
I0403 14:54:55.209779 30605 net.cpp:91] Creating Layer conv5
I0403 14:54:55.209796 30605 net.cpp:425] conv5 <- conv4
I0403 14:54:55.209815 30605 net.cpp:399] conv5 -> conv5
I0403 14:54:55.230002 30605 net.cpp:141] Setting up conv5
I0403 14:54:55.230041 30605 net.cpp:148] Top shape: 100 256 13 13 (4326400)
I0403 14:54:55.230057 30605 net.cpp:156] Memory required for data: 800703600
I0403 14:54:55.230082 30605 layer_factory.hpp:77] Creating layer relu5
I0403 14:54:55.230099 30605 net.cpp:91] Creating Layer relu5
I0403 14:54:55.230115 30605 net.cpp:425] relu5 <- conv5
I0403 14:54:55.230134 30605 net.cpp:386] relu5 -> conv5 (in-place)
I0403 14:54:55.230417 30605 net.cpp:141] Setting up relu5
I0403 14:54:55.230446 30605 net.cpp:148] Top shape: 100 256 13 13 (4326400)
I0403 14:54:55.230461 30605 net.cpp:156] Memory required for data: 818009200
I0403 14:54:55.230476 30605 layer_factory.hpp:77] Creating layer pool5
I0403 14:54:55.230500 30605 net.cpp:91] Creating Layer pool5
I0403 14:54:55.230517 30605 net.cpp:425] pool5 <- conv5
I0403 14:54:55.230540 30605 net.cpp:399] pool5 -> pool5
I0403 14:54:55.230599 30605 net.cpp:141] Setting up pool5
I0403 14:54:55.230623 30605 net.cpp:148] Top shape: 100 256 6 6 (921600)
I0403 14:54:55.230636 30605 net.cpp:156] Memory required for data: 821695600
I0403 14:54:55.230659 30605 layer_factory.hpp:77] Creating layer fc6
I0403 14:54:55.230687 30605 net.cpp:91] Creating Layer fc6
I0403 14:54:55.230727 30605 net.cpp:425] fc6 <- pool5
I0403 14:54:55.230754 30605 net.cpp:399] fc6 -> fc6
I0403 14:54:56.743262 30605 net.cpp:141] Setting up fc6
I0403 14:54:56.743337 30605 net.cpp:148] Top shape: 100 4096 (409600)
I0403 14:54:56.743353 30605 net.cpp:156] Memory required for data: 823334000
I0403 14:54:56.743376 30605 layer_factory.hpp:77] Creating layer relu6
I0403 14:54:56.743398 30605 net.cpp:91] Creating Layer relu6
I0403 14:54:56.743415 30605 net.cpp:425] relu6 <- fc6
I0403 14:54:56.743435 30605 net.cpp:386] relu6 -> fc6 (in-place)
I0403 14:54:56.743654 30605 net.cpp:141] Setting up relu6
I0403 14:54:56.743680 30605 net.cpp:148] Top shape: 100 4096 (409600)
I0403 14:54:56.743695 30605 net.cpp:156] Memory required for data: 824972400
I0403 14:54:56.743710 30605 layer_factory.hpp:77] Creating layer drop6
I0403 14:54:56.743728 30605 net.cpp:91] Creating Layer drop6
I0403 14:54:56.743743 30605 net.cpp:425] drop6 <- fc6
I0403 14:54:56.743763 30605 net.cpp:386] drop6 -> fc6 (in-place)
I0403 14:54:56.743816 30605 net.cpp:141] Setting up drop6
I0403 14:54:56.743839 30605 net.cpp:148] Top shape: 100 4096 (409600)
I0403 14:54:56.743852 30605 net.cpp:156] Memory required for data: 826610800
I0403 14:54:56.743865 30605 layer_factory.hpp:77] Creating layer fc7
I0403 14:54:56.743888 30605 net.cpp:91] Creating Layer fc7
I0403 14:54:56.743903 30605 net.cpp:425] fc7 <- fc6
I0403 14:54:56.743926 30605 net.cpp:399] fc7 -> fc7
I0403 14:54:57.426084 30605 net.cpp:141] Setting up fc7
I0403 14:54:57.426180 30605 net.cpp:148] Top shape: 100 4096 (409600)
I0403 14:54:57.426195 30605 net.cpp:156] Memory required for data: 828249200
I0403 14:54:57.426218 30605 layer_factory.hpp:77] Creating layer relu7
I0403 14:54:57.426240 30605 net.cpp:91] Creating Layer relu7
I0403 14:54:57.426257 30605 net.cpp:425] relu7 <- fc7
I0403 14:54:57.426276 30605 net.cpp:386] relu7 -> fc7 (in-place)
I0403 14:54:57.450247 30605 net.cpp:141] Setting up relu7
I0403 14:54:57.450335 30605 net.cpp:148] Top shape: 100 4096 (409600)
I0403 14:54:57.450410 30605 net.cpp:156] Memory required for data: 829887600
I0403 14:54:57.450430 30605 layer_factory.hpp:77] Creating layer drop7
I0403 14:54:57.450456 30605 net.cpp:91] Creating Layer drop7
I0403 14:54:57.450474 30605 net.cpp:425] drop7 <- fc7
I0403 14:54:57.450496 30605 net.cpp:386] drop7 -> fc7 (in-place)
I0403 14:54:57.450590 30605 net.cpp:141] Setting up drop7
I0403 14:54:57.450614 30605 net.cpp:148] Top shape: 100 4096 (409600)
I0403 14:54:57.450628 30605 net.cpp:156] Memory required for data: 831526000
I0403 14:54:57.450642 30605 layer_factory.hpp:77] Creating layer fc8_plantvillage
I0403 14:54:57.450664 30605 net.cpp:91] Creating Layer fc8_plantvillage
I0403 14:54:57.450680 30605 net.cpp:425] fc8_plantvillage <- fc7
I0403 14:54:57.450697 30605 net.cpp:399] fc8_plantvillage -> fc8_plantvillage
I0403 14:54:57.457291 30605 net.cpp:141] Setting up fc8_plantvillage
I0403 14:54:57.457322 30605 net.cpp:148] Top shape: 100 38 (3800)
I0403 14:54:57.457337 30605 net.cpp:156] Memory required for data: 831541200
I0403 14:54:57.457356 30605 layer_factory.hpp:77] Creating layer fc8_plantvillage_fc8_plantvillage_0_split
I0403 14:54:57.457376 30605 net.cpp:91] Creating Layer fc8_plantvillage_fc8_plantvillage_0_split
I0403 14:54:57.457391 30605 net.cpp:425] fc8_plantvillage_fc8_plantvillage_0_split <- fc8_plantvillage
I0403 14:54:57.457409 30605 net.cpp:399] fc8_plantvillage_fc8_plantvillage_0_split -> fc8_plantvillage_fc8_plantvillage_0_split_0
I0403 14:54:57.457429 30605 net.cpp:399] fc8_plantvillage_fc8_plantvillage_0_split -> fc8_plantvillage_fc8_plantvillage_0_split_1
I0403 14:54:57.457449 30605 net.cpp:399] fc8_plantvillage_fc8_plantvillage_0_split -> fc8_plantvillage_fc8_plantvillage_0_split_2
I0403 14:54:57.457542 30605 net.cpp:141] Setting up fc8_plantvillage_fc8_plantvillage_0_split
I0403 14:54:57.457583 30605 net.cpp:148] Top shape: 100 38 (3800)
I0403 14:54:57.457599 30605 net.cpp:148] Top shape: 100 38 (3800)
I0403 14:54:57.457614 30605 net.cpp:148] Top shape: 100 38 (3800)
I0403 14:54:57.457628 30605 net.cpp:156] Memory required for data: 831586800
I0403 14:54:57.457643 30605 layer_factory.hpp:77] Creating layer prob
I0403 14:54:57.457660 30605 net.cpp:91] Creating Layer prob
I0403 14:54:57.457675 30605 net.cpp:425] prob <- fc8_plantvillage_fc8_plantvillage_0_split_0
I0403 14:54:57.457692 30605 net.cpp:399] prob -> prob
I0403 14:54:57.457911 30605 net.cpp:141] Setting up prob
I0403 14:54:57.457939 30605 net.cpp:148] Top shape: 100 38 (3800)
I0403 14:54:57.457954 30605 net.cpp:156] Memory required for data: 831602000
I0403 14:54:57.457969 30605 layer_factory.hpp:77] Creating layer hdf5out
I0403 14:54:57.457988 30605 net.cpp:91] Creating Layer hdf5out
I0403 14:54:57.458003 30605 net.cpp:425] hdf5out <- prob
I0403 14:54:57.458019 30605 net.cpp:425] hdf5out <- label_data_1_split_0
I0403 14:54:57.462152 30605 net.cpp:141] Setting up hdf5out
…
