…
I0403 14:52:56.785162 30534 net.cpp:313] The NetState phase (1) differed from the phase (0) specified by a rule in layer data
I0403 14:52:56.785482 30534 net.cpp:49] Initializing net from parameters: 
state {
  phase: TEST
}
layer {
  name: "data"
  type: "Data"
  top: "data"
  top: "label"
  include {
    phase: TEST
  }
  transform_param {
    crop_size: 227
    mean_file: "/home/mohanty/data/final_dataset/lmdb/segmented-40-60/mean.binaryproto"
  }
  data_param {
    source: "/home/mohanty/data/final_dataset/lmdb/segmented-40-60/test_db"
    batch_size: 100
    backend: LMDB
  }
}
layer {
  name: "conv1"
  type: "Convolution"
  bottom: "data"
  top: "conv1"
  param {
    lr_mult: 1
    decay_mult: 1
  }
  param {
    lr_mult: 2
    decay_mult: 0
  }
  convolution_param {
    num_output: 96
    kernel_size: 11
    stride: 4
    weight_filler {
      type: "gaussian"
      std: 0.01
    }
    bias_filler {
      type: "constant"
      value: 0
    }
  }
}
layer {
  name: "relu1"
  type: "ReLU"
  bottom: "conv1"
  top: "conv1"
}
layer {
  name: "norm1"
  type: "LRN"
  bottom: "conv1"
  top: "norm1"
  lrn_param {
    local_size: 5
    alpha: 0.0001
    beta: 0.75
  }
}
layer {
  name: "pool1"
  type: "Pooling"
  bottom: "norm1"
  top: "pool1"
  pooling_param {
    pool: MAX
    kernel_size: 3
    stride: 2
  }
}
layer {
  name: "conv2"
  type: "Convolution"
  bottom: "pool1"
  top: "conv2"
  param {
    lr_mult: 1
    decay_mult: 1
  }
  param {
    lr_mult: 2
    decay_mult: 0
  }
  convolution_param {
    num_output: 256
    pad: 2
    kernel_size: 5
    group: 2
    weight_filler {
      type: "gaussian"
      std: 0.01
    }
    bias_filler {
      type: "constant"
      value: 0.1
    }
  }
}
layer {
  name: "relu2"
  type: "ReLU"
  bottom: "conv2"
  top: "conv2"
}
layer {
  name: "norm2"
  type: "LRN"
  bottom: "conv2"
  top: "norm2"
  lrn_param {
    local_size: 5
    alpha: 0.0001
    beta: 0.75
  }
}
layer {
  name: "pool2"
  type: "Pooling"
  bottom: "norm2"
  top: "pool2"
  pooling_param {
    pool: MAX
    kernel_size: 3
    stride: 2
  }
}
layer {
  name: "conv3"
  type: "Convolution"
  bottom: "pool2"
  top: "conv3"
  param {
    lr_mult: 1
    decay_mult: 1
  }
  param {
    lr_mult: 2
    decay_mult: 0
  }
  convolution_param {
    num_output: 384
    pad: 1
    kernel_size: 3
    weight_filler {
      type: "gaussian"
      std: 0.01
    }
    bias_filler {
      type: "constant"
      value: 0
    }
  }
}
layer {
  name: "relu3"
  type: "ReLU"
  bottom: "conv3"
  top: "conv3"
}
layer {
  name: "conv4"
  type: "Convolution"
  bottom: "conv3"
  top: "conv4"
  param {
    lr_mult: 1
    decay_mult: 1
  }
  param {
    lr_mult: 2
    decay_mult: 0
  }
  convolution_param {
    num_output: 384
    pad: 1
    kernel_size: 3
    group: 2
    weight_filler {
      type: "gaussian"
      std: 0.01
    }
    bias_filler {
      type: "constant"
      value: 0.1
    }
  }
}
layer {
  name: "relu4"
  type: "ReLU"
  bottom: "conv4"
  top: "conv4"
}
layer {
  name: "conv5"
  type: "Convolution"
  bottom: "conv4"
  top: "conv5"
  param {
    lr_mult: 1
    decay_mult: 1
  }
  param {
    lr_mult: 2
    decay_mult: 0
  }
  convolution_param {
    num_output: 256
    pad: 1
    kernel_size: 3
    group: 2
    weight_filler {
      type: "gaussian"
      std: 0.01
    }
    bias_filler {
      type: "constant"
      value: 0.1
    }
  }
}
layer {
  name: "relu5"
  type: "ReLU"
  bottom: "conv5"
  top: "conv5"
}
layer {
  name: "pool5"
  type: "Pooling"
  bottom: "conv5"
  top: "pool5"
  pooling_param {
    pool: MAX
    kernel_size: 3
    stride: 2
  }
}
layer {
  name: "fc6"
  type: "InnerProduct"
  bottom: "pool5"
  top: "fc6"
  param {
    lr_mult: 1
    decay_mult: 1
  }
  param {
    lr_mult: 2
    decay_mult: 0
  }
  inner_product_param {
    num_output: 4096
    weight_filler {
      type: "gaussian"
      std: 0.005
    }
    bias_filler {
      type: "constant"
      value: 0.1
    }
  }
}
layer {
  name: "relu6"
  type: "ReLU"
  bottom: "fc6"
  top: "fc6"
}
layer {
  name: "drop6"
  type: "Dropout"
  bottom: "fc6"
  top: "fc6"
  dropout_param {
    dropout_ratio: 0.5
  }
}
layer {
  name: "fc7"
  type: "InnerProduct"
  bottom: "fc6"
  top: "fc7"
  param {
    lr_mult: 1
    decay_mult: 1
  }
  param {
    lr_mult: 2
    decay_mult: 0
  }
  inner_product_param {
    num_output: 4096
    weight_filler {
      type: "gaussian"
      std: 0.005
    }
    bias_filler {
      type: "constant"
      value: 0.1
    }
  }
}
layer {
  name: "relu7"
  type: "ReLU"
  bottom: "fc7"
  top: "fc7"
}
layer {
  name: "drop7"
  type: "Dropout"
  bottom: "fc7"
  top: "fc7"
  dropout_param {
    dropout_ratio: 0.5
  }
}
layer {
  name: "fc8_plantvillage"
  type: "InnerProduct"
  bottom: "fc7"
  top: "fc8_plantvillage"
  param {
    lr_mult: 1
    decay_mult: 1
  }
  param {
    lr_mult: 2
    decay_mult: 0
  }
  inner_product_param {
    num_output: 38
    weight_filler {
      type: "gaussian"
      std: 0.01
    }
    bias_filler {
      type: "constant"
      value: 0
    }
  }
}
layer {
  name: "prob"
  type: "Softmax"
  bottom: "fc8_plantvillage"
  top: "prob"
  include {
    phase: TEST
  }
}
layer {
  name: "hdf5out"
  type: "HDF5Output"
  bottom: "prob"
  bottom: "label"
  include {
    phase: TEST
  }
  hdf5_output_param {
    file_name: "hdf5_dumps/iter_5694.h5"
  }
}
layer {
  name: "loss"
  type: "SoftmaxWithLoss"
  bottom: "fc8_plantvillage"
  bottom: "label"
  top: "loss"
}
layer {
  name: "accuracy"
  type: "Accuracy"
  bottom: "fc8_plantvillage"
  bottom: "label"
  top: "accuracy"
  include {
    phase: TEST
  }
}
I0403 14:52:56.786036 30534 layer_factory.hpp:77] Creating layer data
I0403 14:52:56.786692 30534 net.cpp:91] Creating Layer data
I0403 14:52:56.786723 30534 net.cpp:399] data -> data
I0403 14:52:56.786782 30534 net.cpp:399] data -> label
I0403 14:52:56.786820 30534 data_transformer.cpp:25] Loading mean file from: /home/mohanty/data/final_dataset/lmdb/segmented-40-60/mean.binaryproto
I0403 14:52:56.789577 30538 db_lmdb.cpp:38] Opened lmdb /home/mohanty/data/final_dataset/lmdb/segmented-40-60/test_db
I0403 14:52:56.801120 30534 data_layer.cpp:41] output data size: 100,3,227,227
I0403 14:52:57.043323 30534 net.cpp:141] Setting up data
I0403 14:52:57.043443 30534 net.cpp:148] Top shape: 100 3 227 227 (15458700)
I0403 14:52:57.043469 30534 net.cpp:148] Top shape: 100 (100)
I0403 14:52:57.043485 30534 net.cpp:156] Memory required for data: 61835200
I0403 14:52:57.043516 30534 layer_factory.hpp:77] Creating layer label_data_1_split
I0403 14:52:57.043555 30534 net.cpp:91] Creating Layer label_data_1_split
I0403 14:52:57.043578 30534 net.cpp:425] label_data_1_split <- label
I0403 14:52:57.043615 30534 net.cpp:399] label_data_1_split -> label_data_1_split_0
I0403 14:52:57.043645 30534 net.cpp:399] label_data_1_split -> label_data_1_split_1
I0403 14:52:57.043666 30534 net.cpp:399] label_data_1_split -> label_data_1_split_2
I0403 14:52:57.043736 30534 net.cpp:141] Setting up label_data_1_split
I0403 14:52:57.043761 30534 net.cpp:148] Top shape: 100 (100)
I0403 14:52:57.043778 30534 net.cpp:148] Top shape: 100 (100)
I0403 14:52:57.043794 30534 net.cpp:148] Top shape: 100 (100)
I0403 14:52:57.043812 30534 net.cpp:156] Memory required for data: 61836400
I0403 14:52:57.043829 30534 layer_factory.hpp:77] Creating layer conv1
I0403 14:52:57.043869 30534 net.cpp:91] Creating Layer conv1
I0403 14:52:57.043890 30534 net.cpp:425] conv1 <- data
I0403 14:52:57.043912 30534 net.cpp:399] conv1 -> conv1
I0403 14:52:59.302919 30534 net.cpp:141] Setting up conv1
I0403 14:52:59.303015 30534 net.cpp:148] Top shape: 100 96 55 55 (29040000)
I0403 14:52:59.303032 30534 net.cpp:156] Memory required for data: 177996400
I0403 14:52:59.303071 30534 layer_factory.hpp:77] Creating layer relu1
I0403 14:52:59.303102 30534 net.cpp:91] Creating Layer relu1
I0403 14:52:59.303119 30534 net.cpp:425] relu1 <- conv1
I0403 14:52:59.303138 30534 net.cpp:386] relu1 -> conv1 (in-place)
I0403 14:52:59.308791 30534 net.cpp:141] Setting up relu1
I0403 14:52:59.308881 30534 net.cpp:148] Top shape: 100 96 55 55 (29040000)
I0403 14:52:59.308939 30534 net.cpp:156] Memory required for data: 294156400
I0403 14:52:59.308959 30534 layer_factory.hpp:77] Creating layer norm1
I0403 14:52:59.308998 30534 net.cpp:91] Creating Layer norm1
I0403 14:52:59.309018 30534 net.cpp:425] norm1 <- conv1
I0403 14:52:59.309041 30534 net.cpp:399] norm1 -> norm1
I0403 14:52:59.309464 30534 net.cpp:141] Setting up norm1
I0403 14:52:59.309492 30534 net.cpp:148] Top shape: 100 96 55 55 (29040000)
I0403 14:52:59.309507 30534 net.cpp:156] Memory required for data: 410316400
I0403 14:52:59.309523 30534 layer_factory.hpp:77] Creating layer pool1
I0403 14:52:59.309554 30534 net.cpp:91] Creating Layer pool1
I0403 14:52:59.309572 30534 net.cpp:425] pool1 <- norm1
I0403 14:52:59.309592 30534 net.cpp:399] pool1 -> pool1
I0403 14:52:59.309665 30534 net.cpp:141] Setting up pool1
I0403 14:52:59.309689 30534 net.cpp:148] Top shape: 100 96 27 27 (6998400)
I0403 14:52:59.309705 30534 net.cpp:156] Memory required for data: 438310000
I0403 14:52:59.309720 30534 layer_factory.hpp:77] Creating layer conv2
I0403 14:52:59.309751 30534 net.cpp:91] Creating Layer conv2
I0403 14:52:59.309768 30534 net.cpp:425] conv2 <- pool1
I0403 14:52:59.309787 30534 net.cpp:399] conv2 -> conv2
I0403 14:52:59.343936 30534 net.cpp:141] Setting up conv2
I0403 14:52:59.344039 30534 net.cpp:148] Top shape: 100 256 27 27 (18662400)
I0403 14:52:59.344055 30534 net.cpp:156] Memory required for data: 512959600
I0403 14:52:59.344087 30534 layer_factory.hpp:77] Creating layer relu2
I0403 14:52:59.344112 30534 net.cpp:91] Creating Layer relu2
I0403 14:52:59.344137 30534 net.cpp:425] relu2 <- conv2
I0403 14:52:59.344158 30534 net.cpp:386] relu2 -> conv2 (in-place)
I0403 14:52:59.344586 30534 net.cpp:141] Setting up relu2
I0403 14:52:59.344614 30534 net.cpp:148] Top shape: 100 256 27 27 (18662400)
I0403 14:52:59.344630 30534 net.cpp:156] Memory required for data: 587609200
I0403 14:52:59.344643 30534 layer_factory.hpp:77] Creating layer norm2
I0403 14:52:59.344669 30534 net.cpp:91] Creating Layer norm2
I0403 14:52:59.344686 30534 net.cpp:425] norm2 <- conv2
I0403 14:52:59.344704 30534 net.cpp:399] norm2 -> norm2
I0403 14:52:59.344918 30534 net.cpp:141] Setting up norm2
I0403 14:52:59.344974 30534 net.cpp:148] Top shape: 100 256 27 27 (18662400)
I0403 14:52:59.344992 30534 net.cpp:156] Memory required for data: 662258800
I0403 14:52:59.345007 30534 layer_factory.hpp:77] Creating layer pool2
I0403 14:52:59.345026 30534 net.cpp:91] Creating Layer pool2
I0403 14:52:59.345041 30534 net.cpp:425] pool2 <- norm2
I0403 14:52:59.345062 30534 net.cpp:399] pool2 -> pool2
I0403 14:52:59.345118 30534 net.cpp:141] Setting up pool2
I0403 14:52:59.345144 30534 net.cpp:148] Top shape: 100 256 13 13 (4326400)
I0403 14:52:59.345160 30534 net.cpp:156] Memory required for data: 679564400
I0403 14:52:59.345175 30534 layer_factory.hpp:77] Creating layer conv3
I0403 14:52:59.345201 30534 net.cpp:91] Creating Layer conv3
I0403 14:52:59.345218 30534 net.cpp:425] conv3 <- pool2
I0403 14:52:59.345237 30534 net.cpp:399] conv3 -> conv3
I0403 14:52:59.397459 30534 net.cpp:141] Setting up conv3
I0403 14:52:59.397531 30534 net.cpp:148] Top shape: 100 384 13 13 (6489600)
I0403 14:52:59.397562 30534 net.cpp:156] Memory required for data: 705522800
I0403 14:52:59.397591 30534 layer_factory.hpp:77] Creating layer relu3
I0403 14:52:59.397616 30534 net.cpp:91] Creating Layer relu3
I0403 14:52:59.397634 30534 net.cpp:425] relu3 <- conv3
I0403 14:52:59.397657 30534 net.cpp:386] relu3 -> conv3 (in-place)
I0403 14:52:59.397933 30534 net.cpp:141] Setting up relu3
I0403 14:52:59.397958 30534 net.cpp:148] Top shape: 100 384 13 13 (6489600)
I0403 14:52:59.397974 30534 net.cpp:156] Memory required for data: 731481200
I0403 14:52:59.397989 30534 layer_factory.hpp:77] Creating layer conv4
I0403 14:52:59.398015 30534 net.cpp:91] Creating Layer conv4
I0403 14:52:59.398032 30534 net.cpp:425] conv4 <- conv3
I0403 14:52:59.398053 30534 net.cpp:399] conv4 -> conv4
I0403 14:52:59.427853 30534 net.cpp:141] Setting up conv4
I0403 14:52:59.427902 30534 net.cpp:148] Top shape: 100 384 13 13 (6489600)
I0403 14:52:59.427999 30534 net.cpp:156] Memory required for data: 757439600
I0403 14:52:59.428025 30534 layer_factory.hpp:77] Creating layer relu4
I0403 14:52:59.428045 30534 net.cpp:91] Creating Layer relu4
I0403 14:52:59.428061 30534 net.cpp:425] relu4 <- conv4
I0403 14:52:59.428081 30534 net.cpp:386] relu4 -> conv4 (in-place)
I0403 14:52:59.428349 30534 net.cpp:141] Setting up relu4
I0403 14:52:59.428377 30534 net.cpp:148] Top shape: 100 384 13 13 (6489600)
I0403 14:52:59.428392 30534 net.cpp:156] Memory required for data: 783398000
I0403 14:52:59.428407 30534 layer_factory.hpp:77] Creating layer conv5
I0403 14:52:59.428431 30534 net.cpp:91] Creating Layer conv5
I0403 14:52:59.428449 30534 net.cpp:425] conv5 <- conv4
I0403 14:52:59.428470 30534 net.cpp:399] conv5 -> conv5
I0403 14:52:59.448838 30534 net.cpp:141] Setting up conv5
I0403 14:52:59.448897 30534 net.cpp:148] Top shape: 100 256 13 13 (4326400)
I0403 14:52:59.448916 30534 net.cpp:156] Memory required for data: 800703600
I0403 14:52:59.448943 30534 layer_factory.hpp:77] Creating layer relu5
I0403 14:52:59.448964 30534 net.cpp:91] Creating Layer relu5
I0403 14:52:59.448983 30534 net.cpp:425] relu5 <- conv5
I0403 14:52:59.449018 30534 net.cpp:386] relu5 -> conv5 (in-place)
I0403 14:52:59.449297 30534 net.cpp:141] Setting up relu5
I0403 14:52:59.449324 30534 net.cpp:148] Top shape: 100 256 13 13 (4326400)
I0403 14:52:59.449339 30534 net.cpp:156] Memory required for data: 818009200
I0403 14:52:59.449363 30534 layer_factory.hpp:77] Creating layer pool5
I0403 14:52:59.449389 30534 net.cpp:91] Creating Layer pool5
I0403 14:52:59.449405 30534 net.cpp:425] pool5 <- conv5
I0403 14:52:59.449424 30534 net.cpp:399] pool5 -> pool5
I0403 14:52:59.449487 30534 net.cpp:141] Setting up pool5
I0403 14:52:59.449511 30534 net.cpp:148] Top shape: 100 256 6 6 (921600)
I0403 14:52:59.449524 30534 net.cpp:156] Memory required for data: 821695600
I0403 14:52:59.449544 30534 layer_factory.hpp:77] Creating layer fc6
I0403 14:52:59.449574 30534 net.cpp:91] Creating Layer fc6
I0403 14:52:59.449591 30534 net.cpp:425] fc6 <- pool5
I0403 14:52:59.449612 30534 net.cpp:399] fc6 -> fc6
I0403 14:53:00.958814 30534 net.cpp:141] Setting up fc6
I0403 14:53:00.958902 30534 net.cpp:148] Top shape: 100 4096 (409600)
I0403 14:53:00.958920 30534 net.cpp:156] Memory required for data: 823334000
I0403 14:53:00.958941 30534 layer_factory.hpp:77] Creating layer relu6
I0403 14:53:00.958964 30534 net.cpp:91] Creating Layer relu6
I0403 14:53:00.958982 30534 net.cpp:425] relu6 <- fc6
I0403 14:53:00.959002 30534 net.cpp:386] relu6 -> fc6 (in-place)
I0403 14:53:00.959221 30534 net.cpp:141] Setting up relu6
I0403 14:53:00.959245 30534 net.cpp:148] Top shape: 100 4096 (409600)
I0403 14:53:00.959259 30534 net.cpp:156] Memory required for data: 824972400
I0403 14:53:00.959275 30534 layer_factory.hpp:77] Creating layer drop6
I0403 14:53:00.959305 30534 net.cpp:91] Creating Layer drop6
I0403 14:53:00.959321 30534 net.cpp:425] drop6 <- fc6
I0403 14:53:00.959342 30534 net.cpp:386] drop6 -> fc6 (in-place)
I0403 14:53:00.959396 30534 net.cpp:141] Setting up drop6
I0403 14:53:00.959427 30534 net.cpp:148] Top shape: 100 4096 (409600)
I0403 14:53:00.959444 30534 net.cpp:156] Memory required for data: 826610800
I0403 14:53:00.959458 30534 layer_factory.hpp:77] Creating layer fc7
I0403 14:53:00.959478 30534 net.cpp:91] Creating Layer fc7
I0403 14:53:00.959494 30534 net.cpp:425] fc7 <- fc6
I0403 14:53:00.959517 30534 net.cpp:399] fc7 -> fc7
I0403 14:53:01.628382 30534 net.cpp:141] Setting up fc7
I0403 14:53:01.628458 30534 net.cpp:148] Top shape: 100 4096 (409600)
I0403 14:53:01.628474 30534 net.cpp:156] Memory required for data: 828249200
I0403 14:53:01.628496 30534 layer_factory.hpp:77] Creating layer relu7
I0403 14:53:01.628520 30534 net.cpp:91] Creating Layer relu7
I0403 14:53:01.628540 30534 net.cpp:425] relu7 <- fc7
I0403 14:53:01.628563 30534 net.cpp:386] relu7 -> fc7 (in-place)
I0403 14:53:01.628954 30534 net.cpp:141] Setting up relu7
I0403 14:53:01.628980 30534 net.cpp:148] Top shape: 100 4096 (409600)
I0403 14:53:01.629034 30534 net.cpp:156] Memory required for data: 829887600
I0403 14:53:01.629048 30534 layer_factory.hpp:77] Creating layer drop7
I0403 14:53:01.629067 30534 net.cpp:91] Creating Layer drop7
I0403 14:53:01.629082 30534 net.cpp:425] drop7 <- fc7
I0403 14:53:01.629101 30534 net.cpp:386] drop7 -> fc7 (in-place)
I0403 14:53:01.629144 30534 net.cpp:141] Setting up drop7
I0403 14:53:01.629168 30534 net.cpp:148] Top shape: 100 4096 (409600)
I0403 14:53:01.629184 30534 net.cpp:156] Memory required for data: 831526000
I0403 14:53:01.629197 30534 layer_factory.hpp:77] Creating layer fc8_plantvillage
I0403 14:53:01.629217 30534 net.cpp:91] Creating Layer fc8_plantvillage
I0403 14:53:01.629231 30534 net.cpp:425] fc8_plantvillage <- fc7
I0403 14:53:01.629251 30534 net.cpp:399] fc8_plantvillage -> fc8_plantvillage
I0403 14:53:01.635860 30534 net.cpp:141] Setting up fc8_plantvillage
I0403 14:53:01.635887 30534 net.cpp:148] Top shape: 100 38 (3800)
I0403 14:53:01.635902 30534 net.cpp:156] Memory required for data: 831541200
I0403 14:53:01.635920 30534 layer_factory.hpp:77] Creating layer fc8_plantvillage_fc8_plantvillage_0_split
I0403 14:53:01.635937 30534 net.cpp:91] Creating Layer fc8_plantvillage_fc8_plantvillage_0_split
I0403 14:53:01.635956 30534 net.cpp:425] fc8_plantvillage_fc8_plantvillage_0_split <- fc8_plantvillage
I0403 14:53:01.635972 30534 net.cpp:399] fc8_plantvillage_fc8_plantvillage_0_split -> fc8_plantvillage_fc8_plantvillage_0_split_0
I0403 14:53:01.635992 30534 net.cpp:399] fc8_plantvillage_fc8_plantvillage_0_split -> fc8_plantvillage_fc8_plantvillage_0_split_1
I0403 14:53:01.636010 30534 net.cpp:399] fc8_plantvillage_fc8_plantvillage_0_split -> fc8_plantvillage_fc8_plantvillage_0_split_2
I0403 14:53:01.636086 30534 net.cpp:141] Setting up fc8_plantvillage_fc8_plantvillage_0_split
I0403 14:53:01.636111 30534 net.cpp:148] Top shape: 100 38 (3800)
I0403 14:53:01.636129 30534 net.cpp:148] Top shape: 100 38 (3800)
I0403 14:53:01.636144 30534 net.cpp:148] Top shape: 100 38 (3800)
I0403 14:53:01.636158 30534 net.cpp:156] Memory required for data: 831586800
I0403 14:53:01.636173 30534 layer_factory.hpp:77] Creating layer prob
I0403 14:53:01.636191 30534 net.cpp:91] Creating Layer prob
I0403 14:53:01.636205 30534 net.cpp:425] prob <- fc8_plantvillage_fc8_plantvillage_0_split_0
I0403 14:53:01.636222 30534 net.cpp:399] prob -> prob
I0403 14:53:01.636443 30534 net.cpp:141] Setting up prob
I0403 14:53:01.636467 30534 net.cpp:148] Top shape: 100 38 (3800)
I0403 14:53:01.636482 30534 net.cpp:156] Memory required for data: 831602000
I0403 14:53:01.636497 30534 layer_factory.hpp:77] Creating layer hdf5out
I0403 14:53:01.636514 30534 net.cpp:91] Creating Layer hdf5out
I0403 14:53:01.636529 30534 net.cpp:425] hdf5out <- prob
I0403 14:53:01.636549 30534 net.cpp:425] hdf5out <- label_data_1_split_0
I0403 14:53:01.640244 30534 net.cpp:141] Setting up hdf5out
…
