…
I0403 14:53:56.846976 30560 net.cpp:313] The NetState phase (1) differed from the phase (0) specified by a rule in layer data
I0403 14:53:56.847293 30560 net.cpp:49] Initializing net from parameters: 
state {
  phase: TEST
}
layer {
  name: "data"
  type: "Data"
  top: "data"
  top: "label"
  include {
    phase: TEST
  }
  transform_param {
    crop_size: 227
    mean_file: "/home/mohanty/data/final_dataset/lmdb/segmented-40-60/mean.binaryproto"
  }
  data_param {
    source: "/home/mohanty/data/final_dataset/lmdb/segmented-40-60/test_db"
    batch_size: 100
    backend: LMDB
  }
}
layer {
  name: "conv1"
  type: "Convolution"
  bottom: "data"
  top: "conv1"
  param {
    lr_mult: 1
    decay_mult: 1
  }
  param {
    lr_mult: 2
    decay_mult: 0
  }
  convolution_param {
    num_output: 96
    kernel_size: 11
    stride: 4
    weight_filler {
      type: "gaussian"
      std: 0.01
    }
    bias_filler {
      type: "constant"
      value: 0
    }
  }
}
layer {
  name: "relu1"
  type: "ReLU"
  bottom: "conv1"
  top: "conv1"
}
layer {
  name: "norm1"
  type: "LRN"
  bottom: "conv1"
  top: "norm1"
  lrn_param {
    local_size: 5
    alpha: 0.0001
    beta: 0.75
  }
}
layer {
  name: "pool1"
  type: "Pooling"
  bottom: "norm1"
  top: "pool1"
  pooling_param {
    pool: MAX
    kernel_size: 3
    stride: 2
  }
}
layer {
  name: "conv2"
  type: "Convolution"
  bottom: "pool1"
  top: "conv2"
  param {
    lr_mult: 1
    decay_mult: 1
  }
  param {
    lr_mult: 2
    decay_mult: 0
  }
  convolution_param {
    num_output: 256
    pad: 2
    kernel_size: 5
    group: 2
    weight_filler {
      type: "gaussian"
      std: 0.01
    }
    bias_filler {
      type: "constant"
      value: 0.1
    }
  }
}
layer {
  name: "relu2"
  type: "ReLU"
  bottom: "conv2"
  top: "conv2"
}
layer {
  name: "norm2"
  type: "LRN"
  bottom: "conv2"
  top: "norm2"
  lrn_param {
    local_size: 5
    alpha: 0.0001
    beta: 0.75
  }
}
layer {
  name: "pool2"
  type: "Pooling"
  bottom: "norm2"
  top: "pool2"
  pooling_param {
    pool: MAX
    kernel_size: 3
    stride: 2
  }
}
layer {
  name: "conv3"
  type: "Convolution"
  bottom: "pool2"
  top: "conv3"
  param {
    lr_mult: 1
    decay_mult: 1
  }
  param {
    lr_mult: 2
    decay_mult: 0
  }
  convolution_param {
    num_output: 384
    pad: 1
    kernel_size: 3
    weight_filler {
      type: "gaussian"
      std: 0.01
    }
    bias_filler {
      type: "constant"
      value: 0
    }
  }
}
layer {
  name: "relu3"
  type: "ReLU"
  bottom: "conv3"
  top: "conv3"
}
layer {
  name: "conv4"
  type: "Convolution"
  bottom: "conv3"
  top: "conv4"
  param {
    lr_mult: 1
    decay_mult: 1
  }
  param {
    lr_mult: 2
    decay_mult: 0
  }
  convolution_param {
    num_output: 384
    pad: 1
    kernel_size: 3
    group: 2
    weight_filler {
      type: "gaussian"
      std: 0.01
    }
    bias_filler {
      type: "constant"
      value: 0.1
    }
  }
}
layer {
  name: "relu4"
  type: "ReLU"
  bottom: "conv4"
  top: "conv4"
}
layer {
  name: "conv5"
  type: "Convolution"
  bottom: "conv4"
  top: "conv5"
  param {
    lr_mult: 1
    decay_mult: 1
  }
  param {
    lr_mult: 2
    decay_mult: 0
  }
  convolution_param {
    num_output: 256
    pad: 1
    kernel_size: 3
    group: 2
    weight_filler {
      type: "gaussian"
      std: 0.01
    }
    bias_filler {
      type: "constant"
      value: 0.1
    }
  }
}
layer {
  name: "relu5"
  type: "ReLU"
  bottom: "conv5"
  top: "conv5"
}
layer {
  name: "pool5"
  type: "Pooling"
  bottom: "conv5"
  top: "pool5"
  pooling_param {
    pool: MAX
    kernel_size: 3
    stride: 2
  }
}
layer {
  name: "fc6"
  type: "InnerProduct"
  bottom: "pool5"
  top: "fc6"
  param {
    lr_mult: 1
    decay_mult: 1
  }
  param {
    lr_mult: 2
    decay_mult: 0
  }
  inner_product_param {
    num_output: 4096
    weight_filler {
      type: "gaussian"
      std: 0.005
    }
    bias_filler {
      type: "constant"
      value: 0.1
    }
  }
}
layer {
  name: "relu6"
  type: "ReLU"
  bottom: "fc6"
  top: "fc6"
}
layer {
  name: "drop6"
  type: "Dropout"
  bottom: "fc6"
  top: "fc6"
  dropout_param {
    dropout_ratio: 0.5
  }
}
layer {
  name: "fc7"
  type: "InnerProduct"
  bottom: "fc6"
  top: "fc7"
  param {
    lr_mult: 1
    decay_mult: 1
  }
  param {
    lr_mult: 2
    decay_mult: 0
  }
  inner_product_param {
    num_output: 4096
    weight_filler {
      type: "gaussian"
      std: 0.005
    }
    bias_filler {
      type: "constant"
      value: 0.1
    }
  }
}
layer {
  name: "relu7"
  type: "ReLU"
  bottom: "fc7"
  top: "fc7"
}
layer {
  name: "drop7"
  type: "Dropout"
  bottom: "fc7"
  top: "fc7"
  dropout_param {
    dropout_ratio: 0.5
  }
}
layer {
  name: "fc8_plantvillage"
  type: "InnerProduct"
  bottom: "fc7"
  top: "fc8_plantvillage"
  param {
    lr_mult: 1
    decay_mult: 1
  }
  param {
    lr_mult: 2
    decay_mult: 0
  }
  inner_product_param {
    num_output: 38
    weight_filler {
      type: "gaussian"
      std: 0.01
    }
    bias_filler {
      type: "constant"
      value: 0
    }
  }
}
layer {
  name: "prob"
  type: "Softmax"
  bottom: "fc8_plantvillage"
  top: "prob"
  include {
    phase: TEST
  }
}
layer {
  name: "hdf5out"
  type: "HDF5Output"
  bottom: "prob"
  bottom: "label"
  include {
    phase: TEST
  }
  hdf5_output_param {
    file_name: "hdf5_dumps/iter_5913.h5"
  }
}
layer {
  name: "loss"
  type: "SoftmaxWithLoss"
  bottom: "fc8_plantvillage"
  bottom: "label"
  top: "loss"
}
layer {
  name: "accuracy"
  type: "Accuracy"
  bottom: "fc8_plantvillage"
  bottom: "label"
  top: "accuracy"
  include {
    phase: TEST
  }
}
I0403 14:53:56.847879 30560 layer_factory.hpp:77] Creating layer data
I0403 14:53:56.848518 30560 net.cpp:91] Creating Layer data
I0403 14:53:56.848556 30560 net.cpp:399] data -> data
I0403 14:53:56.848611 30560 net.cpp:399] data -> label
I0403 14:53:56.848651 30560 data_transformer.cpp:25] Loading mean file from: /home/mohanty/data/final_dataset/lmdb/segmented-40-60/mean.binaryproto
I0403 14:53:56.854262 30565 db_lmdb.cpp:38] Opened lmdb /home/mohanty/data/final_dataset/lmdb/segmented-40-60/test_db
I0403 14:53:56.862160 30560 data_layer.cpp:41] output data size: 100,3,227,227
I0403 14:53:56.981629 30560 net.cpp:141] Setting up data
I0403 14:53:56.981747 30560 net.cpp:148] Top shape: 100 3 227 227 (15458700)
I0403 14:53:56.981771 30560 net.cpp:148] Top shape: 100 (100)
I0403 14:53:56.981788 30560 net.cpp:156] Memory required for data: 61835200
I0403 14:53:56.981820 30560 layer_factory.hpp:77] Creating layer label_data_1_split
I0403 14:53:56.981850 30560 net.cpp:91] Creating Layer label_data_1_split
I0403 14:53:56.981871 30560 net.cpp:425] label_data_1_split <- label
I0403 14:53:56.981907 30560 net.cpp:399] label_data_1_split -> label_data_1_split_0
I0403 14:53:56.981935 30560 net.cpp:399] label_data_1_split -> label_data_1_split_1
I0403 14:53:56.981956 30560 net.cpp:399] label_data_1_split -> label_data_1_split_2
I0403 14:53:56.982022 30560 net.cpp:141] Setting up label_data_1_split
I0403 14:53:56.982044 30560 net.cpp:148] Top shape: 100 (100)
I0403 14:53:56.982061 30560 net.cpp:148] Top shape: 100 (100)
I0403 14:53:56.982079 30560 net.cpp:148] Top shape: 100 (100)
I0403 14:53:56.982094 30560 net.cpp:156] Memory required for data: 61836400
I0403 14:53:56.982108 30560 layer_factory.hpp:77] Creating layer conv1
I0403 14:53:56.982143 30560 net.cpp:91] Creating Layer conv1
I0403 14:53:56.982162 30560 net.cpp:425] conv1 <- data
I0403 14:53:56.982182 30560 net.cpp:399] conv1 -> conv1
I0403 14:53:57.121422 30560 net.cpp:141] Setting up conv1
I0403 14:53:57.121493 30560 net.cpp:148] Top shape: 100 96 55 55 (29040000)
I0403 14:53:57.121511 30560 net.cpp:156] Memory required for data: 177996400
I0403 14:53:57.121551 30560 layer_factory.hpp:77] Creating layer relu1
I0403 14:53:57.121582 30560 net.cpp:91] Creating Layer relu1
I0403 14:53:57.121599 30560 net.cpp:425] relu1 <- conv1
I0403 14:53:57.121619 30560 net.cpp:386] relu1 -> conv1 (in-place)
I0403 14:53:57.121886 30560 net.cpp:141] Setting up relu1
I0403 14:53:57.121913 30560 net.cpp:148] Top shape: 100 96 55 55 (29040000)
I0403 14:53:57.121968 30560 net.cpp:156] Memory required for data: 294156400
I0403 14:53:57.121986 30560 layer_factory.hpp:77] Creating layer norm1
I0403 14:53:57.122015 30560 net.cpp:91] Creating Layer norm1
I0403 14:53:57.122032 30560 net.cpp:425] norm1 <- conv1
I0403 14:53:57.122051 30560 net.cpp:399] norm1 -> norm1
I0403 14:53:57.122356 30560 net.cpp:141] Setting up norm1
I0403 14:53:57.122383 30560 net.cpp:148] Top shape: 100 96 55 55 (29040000)
I0403 14:53:57.122400 30560 net.cpp:156] Memory required for data: 410316400
I0403 14:53:57.122416 30560 layer_factory.hpp:77] Creating layer pool1
I0403 14:53:57.122438 30560 net.cpp:91] Creating Layer pool1
I0403 14:53:57.122455 30560 net.cpp:425] pool1 <- norm1
I0403 14:53:57.122473 30560 net.cpp:399] pool1 -> pool1
I0403 14:53:57.122556 30560 net.cpp:141] Setting up pool1
I0403 14:53:57.122581 30560 net.cpp:148] Top shape: 100 96 27 27 (6998400)
I0403 14:53:57.122597 30560 net.cpp:156] Memory required for data: 438310000
I0403 14:53:57.122611 30560 layer_factory.hpp:77] Creating layer conv2
I0403 14:53:57.122638 30560 net.cpp:91] Creating Layer conv2
I0403 14:53:57.122654 30560 net.cpp:425] conv2 <- pool1
I0403 14:53:57.122673 30560 net.cpp:399] conv2 -> conv2
I0403 14:53:57.137426 30560 net.cpp:141] Setting up conv2
I0403 14:53:57.137466 30560 net.cpp:148] Top shape: 100 256 27 27 (18662400)
I0403 14:53:57.137485 30560 net.cpp:156] Memory required for data: 512959600
I0403 14:53:57.137508 30560 layer_factory.hpp:77] Creating layer relu2
I0403 14:53:57.137529 30560 net.cpp:91] Creating Layer relu2
I0403 14:53:57.137549 30560 net.cpp:425] relu2 <- conv2
I0403 14:53:57.137567 30560 net.cpp:386] relu2 -> conv2 (in-place)
I0403 14:53:57.137847 30560 net.cpp:141] Setting up relu2
I0403 14:53:57.137876 30560 net.cpp:148] Top shape: 100 256 27 27 (18662400)
I0403 14:53:57.137892 30560 net.cpp:156] Memory required for data: 587609200
I0403 14:53:57.137907 30560 layer_factory.hpp:77] Creating layer norm2
I0403 14:53:57.137930 30560 net.cpp:91] Creating Layer norm2
I0403 14:53:57.137948 30560 net.cpp:425] norm2 <- conv2
I0403 14:53:57.137965 30560 net.cpp:399] norm2 -> norm2
I0403 14:53:57.138159 30560 net.cpp:141] Setting up norm2
I0403 14:53:57.138183 30560 net.cpp:148] Top shape: 100 256 27 27 (18662400)
I0403 14:53:57.138200 30560 net.cpp:156] Memory required for data: 662258800
I0403 14:53:57.138214 30560 layer_factory.hpp:77] Creating layer pool2
I0403 14:53:57.138234 30560 net.cpp:91] Creating Layer pool2
I0403 14:53:57.138250 30560 net.cpp:425] pool2 <- norm2
I0403 14:53:57.138270 30560 net.cpp:399] pool2 -> pool2
I0403 14:53:57.138321 30560 net.cpp:141] Setting up pool2
I0403 14:53:57.138345 30560 net.cpp:148] Top shape: 100 256 13 13 (4326400)
I0403 14:53:57.138360 30560 net.cpp:156] Memory required for data: 679564400
I0403 14:53:57.138375 30560 layer_factory.hpp:77] Creating layer conv3
I0403 14:53:57.138396 30560 net.cpp:91] Creating Layer conv3
I0403 14:53:57.138414 30560 net.cpp:425] conv3 <- pool2
I0403 14:53:57.138434 30560 net.cpp:399] conv3 -> conv3
I0403 14:53:57.176038 30560 net.cpp:141] Setting up conv3
I0403 14:53:57.176101 30560 net.cpp:148] Top shape: 100 384 13 13 (6489600)
I0403 14:53:57.176118 30560 net.cpp:156] Memory required for data: 705522800
I0403 14:53:57.176141 30560 layer_factory.hpp:77] Creating layer relu3
I0403 14:53:57.176162 30560 net.cpp:91] Creating Layer relu3
I0403 14:53:57.176179 30560 net.cpp:425] relu3 <- conv3
I0403 14:53:57.176198 30560 net.cpp:386] relu3 -> conv3 (in-place)
I0403 14:53:57.176470 30560 net.cpp:141] Setting up relu3
I0403 14:53:57.176499 30560 net.cpp:148] Top shape: 100 384 13 13 (6489600)
I0403 14:53:57.176515 30560 net.cpp:156] Memory required for data: 731481200
I0403 14:53:57.176530 30560 layer_factory.hpp:77] Creating layer conv4
I0403 14:53:57.176560 30560 net.cpp:91] Creating Layer conv4
I0403 14:53:57.176579 30560 net.cpp:425] conv4 <- conv3
I0403 14:53:57.176599 30560 net.cpp:399] conv4 -> conv4
I0403 14:53:57.205819 30560 net.cpp:141] Setting up conv4
I0403 14:53:57.205870 30560 net.cpp:148] Top shape: 100 384 13 13 (6489600)
I0403 14:53:57.205924 30560 net.cpp:156] Memory required for data: 757439600
I0403 14:53:57.205945 30560 layer_factory.hpp:77] Creating layer relu4
I0403 14:53:57.205967 30560 net.cpp:91] Creating Layer relu4
I0403 14:53:57.205984 30560 net.cpp:425] relu4 <- conv4
I0403 14:53:57.206002 30560 net.cpp:386] relu4 -> conv4 (in-place)
I0403 14:53:57.206284 30560 net.cpp:141] Setting up relu4
I0403 14:53:57.206310 30560 net.cpp:148] Top shape: 100 384 13 13 (6489600)
I0403 14:53:57.206324 30560 net.cpp:156] Memory required for data: 783398000
I0403 14:53:57.206339 30560 layer_factory.hpp:77] Creating layer conv5
I0403 14:53:57.206363 30560 net.cpp:91] Creating Layer conv5
I0403 14:53:57.206382 30560 net.cpp:425] conv5 <- conv4
I0403 14:53:57.206401 30560 net.cpp:399] conv5 -> conv5
I0403 14:53:57.226613 30560 net.cpp:141] Setting up conv5
I0403 14:53:57.226650 30560 net.cpp:148] Top shape: 100 256 13 13 (4326400)
I0403 14:53:57.226673 30560 net.cpp:156] Memory required for data: 800703600
I0403 14:53:57.226697 30560 layer_factory.hpp:77] Creating layer relu5
I0403 14:53:57.226722 30560 net.cpp:91] Creating Layer relu5
I0403 14:53:57.226739 30560 net.cpp:425] relu5 <- conv5
I0403 14:53:57.226759 30560 net.cpp:386] relu5 -> conv5 (in-place)
I0403 14:53:57.227030 30560 net.cpp:141] Setting up relu5
I0403 14:53:57.227058 30560 net.cpp:148] Top shape: 100 256 13 13 (4326400)
I0403 14:53:57.227074 30560 net.cpp:156] Memory required for data: 818009200
I0403 14:53:57.227089 30560 layer_factory.hpp:77] Creating layer pool5
I0403 14:53:57.227113 30560 net.cpp:91] Creating Layer pool5
I0403 14:53:57.227129 30560 net.cpp:425] pool5 <- conv5
I0403 14:53:57.227175 30560 net.cpp:399] pool5 -> pool5
I0403 14:53:57.227241 30560 net.cpp:141] Setting up pool5
I0403 14:53:57.227267 30560 net.cpp:148] Top shape: 100 256 6 6 (921600)
I0403 14:53:57.227283 30560 net.cpp:156] Memory required for data: 821695600
I0403 14:53:57.227298 30560 layer_factory.hpp:77] Creating layer fc6
I0403 14:53:57.227324 30560 net.cpp:91] Creating Layer fc6
I0403 14:53:57.227341 30560 net.cpp:425] fc6 <- pool5
I0403 14:53:57.227365 30560 net.cpp:399] fc6 -> fc6
I0403 14:53:58.736198 30560 net.cpp:141] Setting up fc6
I0403 14:53:58.736289 30560 net.cpp:148] Top shape: 100 4096 (409600)
I0403 14:53:58.736304 30560 net.cpp:156] Memory required for data: 823334000
I0403 14:53:58.736326 30560 layer_factory.hpp:77] Creating layer relu6
I0403 14:53:58.736353 30560 net.cpp:91] Creating Layer relu6
I0403 14:53:58.736372 30560 net.cpp:425] relu6 <- fc6
I0403 14:53:58.736392 30560 net.cpp:386] relu6 -> fc6 (in-place)
I0403 14:53:58.736611 30560 net.cpp:141] Setting up relu6
I0403 14:53:58.736637 30560 net.cpp:148] Top shape: 100 4096 (409600)
I0403 14:53:58.736654 30560 net.cpp:156] Memory required for data: 824972400
I0403 14:53:58.736668 30560 layer_factory.hpp:77] Creating layer drop6
I0403 14:53:58.736687 30560 net.cpp:91] Creating Layer drop6
I0403 14:53:58.736702 30560 net.cpp:425] drop6 <- fc6
I0403 14:53:58.736719 30560 net.cpp:386] drop6 -> fc6 (in-place)
I0403 14:53:58.736775 30560 net.cpp:141] Setting up drop6
I0403 14:53:58.736799 30560 net.cpp:148] Top shape: 100 4096 (409600)
I0403 14:53:58.736812 30560 net.cpp:156] Memory required for data: 826610800
I0403 14:53:58.736827 30560 layer_factory.hpp:77] Creating layer fc7
I0403 14:53:58.736850 30560 net.cpp:91] Creating Layer fc7
I0403 14:53:58.736866 30560 net.cpp:425] fc7 <- fc6
I0403 14:53:58.736883 30560 net.cpp:399] fc7 -> fc7
I0403 14:53:59.404606 30560 net.cpp:141] Setting up fc7
I0403 14:53:59.404706 30560 net.cpp:148] Top shape: 100 4096 (409600)
I0403 14:53:59.404723 30560 net.cpp:156] Memory required for data: 828249200
I0403 14:53:59.404745 30560 layer_factory.hpp:77] Creating layer relu7
I0403 14:53:59.404769 30560 net.cpp:91] Creating Layer relu7
I0403 14:53:59.404788 30560 net.cpp:425] relu7 <- fc7
I0403 14:53:59.404806 30560 net.cpp:386] relu7 -> fc7 (in-place)
I0403 14:53:59.405210 30560 net.cpp:141] Setting up relu7
I0403 14:53:59.405238 30560 net.cpp:148] Top shape: 100 4096 (409600)
I0403 14:53:59.405293 30560 net.cpp:156] Memory required for data: 829887600
I0403 14:53:59.405309 30560 layer_factory.hpp:77] Creating layer drop7
I0403 14:53:59.405328 30560 net.cpp:91] Creating Layer drop7
I0403 14:53:59.405344 30560 net.cpp:425] drop7 <- fc7
I0403 14:53:59.405360 30560 net.cpp:386] drop7 -> fc7 (in-place)
I0403 14:53:59.405405 30560 net.cpp:141] Setting up drop7
I0403 14:53:59.405428 30560 net.cpp:148] Top shape: 100 4096 (409600)
I0403 14:53:59.405442 30560 net.cpp:156] Memory required for data: 831526000
I0403 14:53:59.405457 30560 layer_factory.hpp:77] Creating layer fc8_plantvillage
I0403 14:53:59.405479 30560 net.cpp:91] Creating Layer fc8_plantvillage
I0403 14:53:59.405495 30560 net.cpp:425] fc8_plantvillage <- fc7
I0403 14:53:59.405513 30560 net.cpp:399] fc8_plantvillage -> fc8_plantvillage
I0403 14:53:59.412026 30560 net.cpp:141] Setting up fc8_plantvillage
I0403 14:53:59.412058 30560 net.cpp:148] Top shape: 100 38 (3800)
I0403 14:53:59.412073 30560 net.cpp:156] Memory required for data: 831541200
I0403 14:53:59.412091 30560 layer_factory.hpp:77] Creating layer fc8_plantvillage_fc8_plantvillage_0_split
I0403 14:53:59.412109 30560 net.cpp:91] Creating Layer fc8_plantvillage_fc8_plantvillage_0_split
I0403 14:53:59.412125 30560 net.cpp:425] fc8_plantvillage_fc8_plantvillage_0_split <- fc8_plantvillage
I0403 14:53:59.412144 30560 net.cpp:399] fc8_plantvillage_fc8_plantvillage_0_split -> fc8_plantvillage_fc8_plantvillage_0_split_0
I0403 14:53:59.412164 30560 net.cpp:399] fc8_plantvillage_fc8_plantvillage_0_split -> fc8_plantvillage_fc8_plantvillage_0_split_1
I0403 14:53:59.412184 30560 net.cpp:399] fc8_plantvillage_fc8_plantvillage_0_split -> fc8_plantvillage_fc8_plantvillage_0_split_2
I0403 14:53:59.412261 30560 net.cpp:141] Setting up fc8_plantvillage_fc8_plantvillage_0_split
I0403 14:53:59.412284 30560 net.cpp:148] Top shape: 100 38 (3800)
I0403 14:53:59.412300 30560 net.cpp:148] Top shape: 100 38 (3800)
I0403 14:53:59.412315 30560 net.cpp:148] Top shape: 100 38 (3800)
I0403 14:53:59.412329 30560 net.cpp:156] Memory required for data: 831586800
I0403 14:53:59.412343 30560 layer_factory.hpp:77] Creating layer prob
I0403 14:53:59.412365 30560 net.cpp:91] Creating Layer prob
I0403 14:53:59.412381 30560 net.cpp:425] prob <- fc8_plantvillage_fc8_plantvillage_0_split_0
I0403 14:53:59.412400 30560 net.cpp:399] prob -> prob
I0403 14:53:59.412621 30560 net.cpp:141] Setting up prob
I0403 14:53:59.412649 30560 net.cpp:148] Top shape: 100 38 (3800)
I0403 14:53:59.412664 30560 net.cpp:156] Memory required for data: 831602000
I0403 14:53:59.412679 30560 layer_factory.hpp:77] Creating layer hdf5out
I0403 14:53:59.412699 30560 net.cpp:91] Creating Layer hdf5out
I0403 14:53:59.412714 30560 net.cpp:425] hdf5out <- prob
I0403 14:53:59.412730 30560 net.cpp:425] hdf5out <- label_data_1_split_0
I0403 14:53:59.416390 30560 net.cpp:141] Setting up hdf5out
…
