…
I0403 14:38:33.509363 30057 net.cpp:313] The NetState phase (1) differed from the phase (0) specified by a rule in layer data
I0403 14:38:33.509706 30057 net.cpp:49] Initializing net from parameters: 
state {
  phase: TEST
}
layer {
  name: "data"
  type: "Data"
  top: "data"
  top: "label"
  include {
    phase: TEST
  }
  transform_param {
    crop_size: 227
    mean_file: "/home/mohanty/data/final_dataset/lmdb/segmented-40-60/mean.binaryproto"
  }
  data_param {
    source: "/home/mohanty/data/final_dataset/lmdb/segmented-40-60/test_db"
    batch_size: 100
    backend: LMDB
  }
}
layer {
  name: "conv1"
  type: "Convolution"
  bottom: "data"
  top: "conv1"
  param {
    lr_mult: 1
    decay_mult: 1
  }
  param {
    lr_mult: 2
    decay_mult: 0
  }
  convolution_param {
    num_output: 96
    kernel_size: 11
    stride: 4
    weight_filler {
      type: "gaussian"
      std: 0.01
    }
    bias_filler {
      type: "constant"
      value: 0
    }
  }
}
layer {
  name: "relu1"
  type: "ReLU"
  bottom: "conv1"
  top: "conv1"
}
layer {
  name: "norm1"
  type: "LRN"
  bottom: "conv1"
  top: "norm1"
  lrn_param {
    local_size: 5
    alpha: 0.0001
    beta: 0.75
  }
}
layer {
  name: "pool1"
  type: "Pooling"
  bottom: "norm1"
  top: "pool1"
  pooling_param {
    pool: MAX
    kernel_size: 3
    stride: 2
  }
}
layer {
  name: "conv2"
  type: "Convolution"
  bottom: "pool1"
  top: "conv2"
  param {
    lr_mult: 1
    decay_mult: 1
  }
  param {
    lr_mult: 2
    decay_mult: 0
  }
  convolution_param {
    num_output: 256
    pad: 2
    kernel_size: 5
    group: 2
    weight_filler {
      type: "gaussian"
      std: 0.01
    }
    bias_filler {
      type: "constant"
      value: 0.1
    }
  }
}
layer {
  name: "relu2"
  type: "ReLU"
  bottom: "conv2"
  top: "conv2"
}
layer {
  name: "norm2"
  type: "LRN"
  bottom: "conv2"
  top: "norm2"
  lrn_param {
    local_size: 5
    alpha: 0.0001
    beta: 0.75
  }
}
layer {
  name: "pool2"
  type: "Pooling"
  bottom: "norm2"
  top: "pool2"
  pooling_param {
    pool: MAX
    kernel_size: 3
    stride: 2
  }
}
layer {
  name: "conv3"
  type: "Convolution"
  bottom: "pool2"
  top: "conv3"
  param {
    lr_mult: 1
    decay_mult: 1
  }
  param {
    lr_mult: 2
    decay_mult: 0
  }
  convolution_param {
    num_output: 384
    pad: 1
    kernel_size: 3
    weight_filler {
      type: "gaussian"
      std: 0.01
    }
    bias_filler {
      type: "constant"
      value: 0
    }
  }
}
layer {
  name: "relu3"
  type: "ReLU"
  bottom: "conv3"
  top: "conv3"
}
layer {
  name: "conv4"
  type: "Convolution"
  bottom: "conv3"
  top: "conv4"
  param {
    lr_mult: 1
    decay_mult: 1
  }
  param {
    lr_mult: 2
    decay_mult: 0
  }
  convolution_param {
    num_output: 384
    pad: 1
    kernel_size: 3
    group: 2
    weight_filler {
      type: "gaussian"
      std: 0.01
    }
    bias_filler {
      type: "constant"
      value: 0.1
    }
  }
}
layer {
  name: "relu4"
  type: "ReLU"
  bottom: "conv4"
  top: "conv4"
}
layer {
  name: "conv5"
  type: "Convolution"
  bottom: "conv4"
  top: "conv5"
  param {
    lr_mult: 1
    decay_mult: 1
  }
  param {
    lr_mult: 2
    decay_mult: 0
  }
  convolution_param {
    num_output: 256
    pad: 1
    kernel_size: 3
    group: 2
    weight_filler {
      type: "gaussian"
      std: 0.01
    }
    bias_filler {
      type: "constant"
      value: 0.1
    }
  }
}
layer {
  name: "relu5"
  type: "ReLU"
  bottom: "conv5"
  top: "conv5"
}
layer {
  name: "pool5"
  type: "Pooling"
  bottom: "conv5"
  top: "pool5"
  pooling_param {
    pool: MAX
    kernel_size: 3
    stride: 2
  }
}
layer {
  name: "fc6"
  type: "InnerProduct"
  bottom: "pool5"
  top: "fc6"
  param {
    lr_mult: 1
    decay_mult: 1
  }
  param {
    lr_mult: 2
    decay_mult: 0
  }
  inner_product_param {
    num_output: 4096
    weight_filler {
      type: "gaussian"
      std: 0.005
    }
    bias_filler {
      type: "constant"
      value: 0.1
    }
  }
}
layer {
  name: "relu6"
  type: "ReLU"
  bottom: "fc6"
  top: "fc6"
}
layer {
  name: "drop6"
  type: "Dropout"
  bottom: "fc6"
  top: "fc6"
  dropout_param {
    dropout_ratio: 0.5
  }
}
layer {
  name: "fc7"
  type: "InnerProduct"
  bottom: "fc6"
  top: "fc7"
  param {
    lr_mult: 1
    decay_mult: 1
  }
  param {
    lr_mult: 2
    decay_mult: 0
  }
  inner_product_param {
    num_output: 4096
    weight_filler {
      type: "gaussian"
      std: 0.005
    }
    bias_filler {
      type: "constant"
      value: 0.1
    }
  }
}
layer {
  name: "relu7"
  type: "ReLU"
  bottom: "fc7"
  top: "fc7"
}
layer {
  name: "drop7"
  type: "Dropout"
  bottom: "fc7"
  top: "fc7"
  dropout_param {
    dropout_ratio: 0.5
  }
}
layer {
  name: "fc8_plantvillage"
  type: "InnerProduct"
  bottom: "fc7"
  top: "fc8_plantvillage"
  param {
    lr_mult: 1
    decay_mult: 1
  }
  param {
    lr_mult: 2
    decay_mult: 0
  }
  inner_product_param {
    num_output: 38
    weight_filler {
      type: "gaussian"
      std: 0.01
    }
    bias_filler {
      type: "constant"
      value: 0
    }
  }
}
layer {
  name: "prob"
  type: "Softmax"
  bottom: "fc8_plantvillage"
  top: "prob"
  include {
    phase: TEST
  }
}
layer {
  name: "hdf5out"
  type: "HDF5Output"
  bottom: "prob"
  bottom: "label"
  include {
    phase: TEST
  }
  hdf5_output_param {
    file_name: "hdf5_dumps/iter_2409.h5"
  }
}
layer {
  name: "loss"
  type: "SoftmaxWithLoss"
  bottom: "fc8_plantvillage"
  bottom: "label"
  top: "loss"
}
layer {
  name: "accuracy"
  type: "Accuracy"
  bottom: "fc8_plantvillage"
  bottom: "label"
  top: "accuracy"
  include {
    phase: TEST
  }
}
I0403 14:38:33.510467 30057 layer_factory.hpp:77] Creating layer data
I0403 14:38:33.511127 30057 net.cpp:91] Creating Layer data
I0403 14:38:33.511159 30057 net.cpp:399] data -> data
I0403 14:38:33.511215 30057 net.cpp:399] data -> label
I0403 14:38:33.511252 30057 data_transformer.cpp:25] Loading mean file from: /home/mohanty/data/final_dataset/lmdb/segmented-40-60/mean.binaryproto
I0403 14:38:33.514276 30059 db_lmdb.cpp:38] Opened lmdb /home/mohanty/data/final_dataset/lmdb/segmented-40-60/test_db
I0403 14:38:33.529913 30057 data_layer.cpp:41] output data size: 100,3,227,227
I0403 14:38:33.646149 30057 net.cpp:141] Setting up data
I0403 14:38:33.646255 30057 net.cpp:148] Top shape: 100 3 227 227 (15458700)
I0403 14:38:33.646277 30057 net.cpp:148] Top shape: 100 (100)
I0403 14:38:33.646294 30057 net.cpp:156] Memory required for data: 61835200
I0403 14:38:33.646325 30057 layer_factory.hpp:77] Creating layer label_data_1_split
I0403 14:38:33.646353 30057 net.cpp:91] Creating Layer label_data_1_split
I0403 14:38:33.646369 30057 net.cpp:425] label_data_1_split <- label
I0403 14:38:33.646414 30057 net.cpp:399] label_data_1_split -> label_data_1_split_0
I0403 14:38:33.646445 30057 net.cpp:399] label_data_1_split -> label_data_1_split_1
I0403 14:38:33.646464 30057 net.cpp:399] label_data_1_split -> label_data_1_split_2
I0403 14:38:33.646528 30057 net.cpp:141] Setting up label_data_1_split
I0403 14:38:33.646554 30057 net.cpp:148] Top shape: 100 (100)
I0403 14:38:33.646572 30057 net.cpp:148] Top shape: 100 (100)
I0403 14:38:33.646587 30057 net.cpp:148] Top shape: 100 (100)
I0403 14:38:33.646601 30057 net.cpp:156] Memory required for data: 61836400
I0403 14:38:33.646615 30057 layer_factory.hpp:77] Creating layer conv1
I0403 14:38:33.646651 30057 net.cpp:91] Creating Layer conv1
I0403 14:38:33.646668 30057 net.cpp:425] conv1 <- data
I0403 14:38:33.646687 30057 net.cpp:399] conv1 -> conv1
I0403 14:38:33.781317 30057 net.cpp:141] Setting up conv1
I0403 14:38:33.781400 30057 net.cpp:148] Top shape: 100 96 55 55 (29040000)
I0403 14:38:33.781417 30057 net.cpp:156] Memory required for data: 177996400
I0403 14:38:33.781450 30057 layer_factory.hpp:77] Creating layer relu1
I0403 14:38:33.781478 30057 net.cpp:91] Creating Layer relu1
I0403 14:38:33.781496 30057 net.cpp:425] relu1 <- conv1
I0403 14:38:33.781517 30057 net.cpp:386] relu1 -> conv1 (in-place)
I0403 14:38:33.781766 30057 net.cpp:141] Setting up relu1
I0403 14:38:33.781792 30057 net.cpp:148] Top shape: 100 96 55 55 (29040000)
I0403 14:38:33.781846 30057 net.cpp:156] Memory required for data: 294156400
I0403 14:38:33.781862 30057 layer_factory.hpp:77] Creating layer norm1
I0403 14:38:33.781889 30057 net.cpp:91] Creating Layer norm1
I0403 14:38:33.781906 30057 net.cpp:425] norm1 <- conv1
I0403 14:38:33.781924 30057 net.cpp:399] norm1 -> norm1
I0403 14:38:33.782261 30057 net.cpp:141] Setting up norm1
I0403 14:38:33.782287 30057 net.cpp:148] Top shape: 100 96 55 55 (29040000)
I0403 14:38:33.782304 30057 net.cpp:156] Memory required for data: 410316400
I0403 14:38:33.782317 30057 layer_factory.hpp:77] Creating layer pool1
I0403 14:38:33.782341 30057 net.cpp:91] Creating Layer pool1
I0403 14:38:33.782356 30057 net.cpp:425] pool1 <- norm1
I0403 14:38:33.782373 30057 net.cpp:399] pool1 -> pool1
I0403 14:38:33.782440 30057 net.cpp:141] Setting up pool1
I0403 14:38:33.782464 30057 net.cpp:148] Top shape: 100 96 27 27 (6998400)
I0403 14:38:33.782477 30057 net.cpp:156] Memory required for data: 438310000
I0403 14:38:33.782491 30057 layer_factory.hpp:77] Creating layer conv2
I0403 14:38:33.782517 30057 net.cpp:91] Creating Layer conv2
I0403 14:38:33.782532 30057 net.cpp:425] conv2 <- pool1
I0403 14:38:33.782554 30057 net.cpp:399] conv2 -> conv2
I0403 14:38:33.796730 30057 net.cpp:141] Setting up conv2
I0403 14:38:33.796761 30057 net.cpp:148] Top shape: 100 256 27 27 (18662400)
I0403 14:38:33.796777 30057 net.cpp:156] Memory required for data: 512959600
I0403 14:38:33.796798 30057 layer_factory.hpp:77] Creating layer relu2
I0403 14:38:33.796818 30057 net.cpp:91] Creating Layer relu2
I0403 14:38:33.796834 30057 net.cpp:425] relu2 <- conv2
I0403 14:38:33.796851 30057 net.cpp:386] relu2 -> conv2 (in-place)
I0403 14:38:33.797116 30057 net.cpp:141] Setting up relu2
I0403 14:38:33.797142 30057 net.cpp:148] Top shape: 100 256 27 27 (18662400)
I0403 14:38:33.797157 30057 net.cpp:156] Memory required for data: 587609200
I0403 14:38:33.797170 30057 layer_factory.hpp:77] Creating layer norm2
I0403 14:38:33.797193 30057 net.cpp:91] Creating Layer norm2
I0403 14:38:33.797209 30057 net.cpp:425] norm2 <- conv2
I0403 14:38:33.797229 30057 net.cpp:399] norm2 -> norm2
I0403 14:38:33.797417 30057 net.cpp:141] Setting up norm2
I0403 14:38:33.797441 30057 net.cpp:148] Top shape: 100 256 27 27 (18662400)
I0403 14:38:33.797456 30057 net.cpp:156] Memory required for data: 662258800
I0403 14:38:33.797471 30057 layer_factory.hpp:77] Creating layer pool2
I0403 14:38:33.797487 30057 net.cpp:91] Creating Layer pool2
I0403 14:38:33.797505 30057 net.cpp:425] pool2 <- norm2
I0403 14:38:33.797523 30057 net.cpp:399] pool2 -> pool2
I0403 14:38:33.797595 30057 net.cpp:141] Setting up pool2
I0403 14:38:33.797617 30057 net.cpp:148] Top shape: 100 256 13 13 (4326400)
I0403 14:38:33.797631 30057 net.cpp:156] Memory required for data: 679564400
I0403 14:38:33.797646 30057 layer_factory.hpp:77] Creating layer conv3
I0403 14:38:33.797667 30057 net.cpp:91] Creating Layer conv3
I0403 14:38:33.797683 30057 net.cpp:425] conv3 <- pool2
I0403 14:38:33.797703 30057 net.cpp:399] conv3 -> conv3
I0403 14:38:33.833909 30057 net.cpp:141] Setting up conv3
I0403 14:38:33.833957 30057 net.cpp:148] Top shape: 100 384 13 13 (6489600)
I0403 14:38:33.833972 30057 net.cpp:156] Memory required for data: 705522800
I0403 14:38:33.833995 30057 layer_factory.hpp:77] Creating layer relu3
I0403 14:38:33.834017 30057 net.cpp:91] Creating Layer relu3
I0403 14:38:33.834034 30057 net.cpp:425] relu3 <- conv3
I0403 14:38:33.834051 30057 net.cpp:386] relu3 -> conv3 (in-place)
I0403 14:38:33.834318 30057 net.cpp:141] Setting up relu3
I0403 14:38:33.834343 30057 net.cpp:148] Top shape: 100 384 13 13 (6489600)
I0403 14:38:33.834358 30057 net.cpp:156] Memory required for data: 731481200
I0403 14:38:33.834373 30057 layer_factory.hpp:77] Creating layer conv4
I0403 14:38:33.834396 30057 net.cpp:91] Creating Layer conv4
I0403 14:38:33.834414 30057 net.cpp:425] conv4 <- conv3
I0403 14:38:33.834437 30057 net.cpp:399] conv4 -> conv4
I0403 14:38:33.862444 30057 net.cpp:141] Setting up conv4
I0403 14:38:33.862486 30057 net.cpp:148] Top shape: 100 384 13 13 (6489600)
I0403 14:38:33.862540 30057 net.cpp:156] Memory required for data: 757439600
I0403 14:38:33.862562 30057 layer_factory.hpp:77] Creating layer relu4
I0403 14:38:33.862592 30057 net.cpp:91] Creating Layer relu4
I0403 14:38:33.862609 30057 net.cpp:425] relu4 <- conv4
I0403 14:38:33.862637 30057 net.cpp:386] relu4 -> conv4 (in-place)
I0403 14:38:33.862907 30057 net.cpp:141] Setting up relu4
I0403 14:38:33.862939 30057 net.cpp:148] Top shape: 100 384 13 13 (6489600)
I0403 14:38:33.862954 30057 net.cpp:156] Memory required for data: 783398000
I0403 14:38:33.862968 30057 layer_factory.hpp:77] Creating layer conv5
I0403 14:38:33.862994 30057 net.cpp:91] Creating Layer conv5
I0403 14:38:33.863011 30057 net.cpp:425] conv5 <- conv4
I0403 14:38:33.863032 30057 net.cpp:399] conv5 -> conv5
I0403 14:38:33.882380 30057 net.cpp:141] Setting up conv5
I0403 14:38:33.882412 30057 net.cpp:148] Top shape: 100 256 13 13 (4326400)
I0403 14:38:33.882429 30057 net.cpp:156] Memory required for data: 800703600
I0403 14:38:33.882452 30057 layer_factory.hpp:77] Creating layer relu5
I0403 14:38:33.882473 30057 net.cpp:91] Creating Layer relu5
I0403 14:38:33.882490 30057 net.cpp:425] relu5 <- conv5
I0403 14:38:33.882508 30057 net.cpp:386] relu5 -> conv5 (in-place)
I0403 14:38:33.882782 30057 net.cpp:141] Setting up relu5
I0403 14:38:33.882808 30057 net.cpp:148] Top shape: 100 256 13 13 (4326400)
I0403 14:38:33.882822 30057 net.cpp:156] Memory required for data: 818009200
I0403 14:38:33.882838 30057 layer_factory.hpp:77] Creating layer pool5
I0403 14:38:33.882863 30057 net.cpp:91] Creating Layer pool5
I0403 14:38:33.882885 30057 net.cpp:425] pool5 <- conv5
I0403 14:38:33.882904 30057 net.cpp:399] pool5 -> pool5
I0403 14:38:33.882961 30057 net.cpp:141] Setting up pool5
I0403 14:38:33.882983 30057 net.cpp:148] Top shape: 100 256 6 6 (921600)
I0403 14:38:33.882997 30057 net.cpp:156] Memory required for data: 821695600
I0403 14:38:33.883011 30057 layer_factory.hpp:77] Creating layer fc6
I0403 14:38:33.883044 30057 net.cpp:91] Creating Layer fc6
I0403 14:38:33.883061 30057 net.cpp:425] fc6 <- pool5
I0403 14:38:33.883080 30057 net.cpp:399] fc6 -> fc6
I0403 14:38:35.388245 30057 net.cpp:141] Setting up fc6
I0403 14:38:35.388324 30057 net.cpp:148] Top shape: 100 4096 (409600)
I0403 14:38:35.388340 30057 net.cpp:156] Memory required for data: 823334000
I0403 14:38:35.388363 30057 layer_factory.hpp:77] Creating layer relu6
I0403 14:38:35.388386 30057 net.cpp:91] Creating Layer relu6
I0403 14:38:35.388403 30057 net.cpp:425] relu6 <- fc6
I0403 14:38:35.388425 30057 net.cpp:386] relu6 -> fc6 (in-place)
I0403 14:38:35.388659 30057 net.cpp:141] Setting up relu6
I0403 14:38:35.388684 30057 net.cpp:148] Top shape: 100 4096 (409600)
I0403 14:38:35.388698 30057 net.cpp:156] Memory required for data: 824972400
I0403 14:38:35.388713 30057 layer_factory.hpp:77] Creating layer drop6
I0403 14:38:35.388731 30057 net.cpp:91] Creating Layer drop6
I0403 14:38:35.388749 30057 net.cpp:425] drop6 <- fc6
I0403 14:38:35.388767 30057 net.cpp:386] drop6 -> fc6 (in-place)
I0403 14:38:35.388819 30057 net.cpp:141] Setting up drop6
I0403 14:38:35.388844 30057 net.cpp:148] Top shape: 100 4096 (409600)
I0403 14:38:35.388859 30057 net.cpp:156] Memory required for data: 826610800
I0403 14:38:35.388873 30057 layer_factory.hpp:77] Creating layer fc7
I0403 14:38:35.388893 30057 net.cpp:91] Creating Layer fc7
I0403 14:38:35.388908 30057 net.cpp:425] fc7 <- fc6
I0403 14:38:35.388927 30057 net.cpp:399] fc7 -> fc7
I0403 14:38:36.039253 30057 net.cpp:141] Setting up fc7
I0403 14:38:36.039335 30057 net.cpp:148] Top shape: 100 4096 (409600)
I0403 14:38:36.039350 30057 net.cpp:156] Memory required for data: 828249200
I0403 14:38:36.039372 30057 layer_factory.hpp:77] Creating layer relu7
I0403 14:38:36.039396 30057 net.cpp:91] Creating Layer relu7
I0403 14:38:36.039412 30057 net.cpp:425] relu7 <- fc7
I0403 14:38:36.039433 30057 net.cpp:386] relu7 -> fc7 (in-place)
I0403 14:38:36.039840 30057 net.cpp:141] Setting up relu7
I0403 14:38:36.039865 30057 net.cpp:148] Top shape: 100 4096 (409600)
I0403 14:38:36.039918 30057 net.cpp:156] Memory required for data: 829887600
I0403 14:38:36.039933 30057 layer_factory.hpp:77] Creating layer drop7
I0403 14:38:36.039952 30057 net.cpp:91] Creating Layer drop7
I0403 14:38:36.039968 30057 net.cpp:425] drop7 <- fc7
I0403 14:38:36.039986 30057 net.cpp:386] drop7 -> fc7 (in-place)
I0403 14:38:36.040029 30057 net.cpp:141] Setting up drop7
I0403 14:38:36.040051 30057 net.cpp:148] Top shape: 100 4096 (409600)
I0403 14:38:36.040066 30057 net.cpp:156] Memory required for data: 831526000
I0403 14:38:36.040078 30057 layer_factory.hpp:77] Creating layer fc8_plantvillage
I0403 14:38:36.040098 30057 net.cpp:91] Creating Layer fc8_plantvillage
I0403 14:38:36.040113 30057 net.cpp:425] fc8_plantvillage <- fc7
I0403 14:38:36.040132 30057 net.cpp:399] fc8_plantvillage -> fc8_plantvillage
I0403 14:38:36.046543 30057 net.cpp:141] Setting up fc8_plantvillage
I0403 14:38:36.046571 30057 net.cpp:148] Top shape: 100 38 (3800)
I0403 14:38:36.046586 30057 net.cpp:156] Memory required for data: 831541200
I0403 14:38:36.046602 30057 layer_factory.hpp:77] Creating layer fc8_plantvillage_fc8_plantvillage_0_split
I0403 14:38:36.046622 30057 net.cpp:91] Creating Layer fc8_plantvillage_fc8_plantvillage_0_split
I0403 14:38:36.046638 30057 net.cpp:425] fc8_plantvillage_fc8_plantvillage_0_split <- fc8_plantvillage
I0403 14:38:36.046653 30057 net.cpp:399] fc8_plantvillage_fc8_plantvillage_0_split -> fc8_plantvillage_fc8_plantvillage_0_split_0
I0403 14:38:36.046671 30057 net.cpp:399] fc8_plantvillage_fc8_plantvillage_0_split -> fc8_plantvillage_fc8_plantvillage_0_split_1
I0403 14:38:36.046691 30057 net.cpp:399] fc8_plantvillage_fc8_plantvillage_0_split -> fc8_plantvillage_fc8_plantvillage_0_split_2
I0403 14:38:36.046777 30057 net.cpp:141] Setting up fc8_plantvillage_fc8_plantvillage_0_split
I0403 14:38:36.046798 30057 net.cpp:148] Top shape: 100 38 (3800)
I0403 14:38:36.046813 30057 net.cpp:148] Top shape: 100 38 (3800)
I0403 14:38:36.046828 30057 net.cpp:148] Top shape: 100 38 (3800)
I0403 14:38:36.046840 30057 net.cpp:156] Memory required for data: 831586800
I0403 14:38:36.046854 30057 layer_factory.hpp:77] Creating layer prob
I0403 14:38:36.046871 30057 net.cpp:91] Creating Layer prob
I0403 14:38:36.046885 30057 net.cpp:425] prob <- fc8_plantvillage_fc8_plantvillage_0_split_0
I0403 14:38:36.046901 30057 net.cpp:399] prob -> prob
I0403 14:38:36.047132 30057 net.cpp:141] Setting up prob
I0403 14:38:36.047158 30057 net.cpp:148] Top shape: 100 38 (3800)
I0403 14:38:36.047171 30057 net.cpp:156] Memory required for data: 831602000
I0403 14:38:36.047186 30057 layer_factory.hpp:77] Creating layer hdf5out
I0403 14:38:36.047204 30057 net.cpp:91] Creating Layer hdf5out
I0403 14:38:36.047220 30057 net.cpp:425] hdf5out <- prob
I0403 14:38:36.047241 30057 net.cpp:425] hdf5out <- label_data_1_split_0
I0403 14:38:36.050530 30057 net.cpp:141] Setting up hdf5out
…
