…
I0403 14:37:37.474791 30040 net.cpp:313] The NetState phase (1) differed from the phase (0) specified by a rule in layer data
I0403 14:37:37.475522 30040 net.cpp:49] Initializing net from parameters: 
state {
  phase: TEST
}
layer {
  name: "data"
  type: "Data"
  top: "data"
  top: "label"
  include {
    phase: TEST
  }
  transform_param {
    crop_size: 227
    mean_file: "/home/mohanty/data/final_dataset/lmdb/segmented-40-60/mean.binaryproto"
  }
  data_param {
    source: "/home/mohanty/data/final_dataset/lmdb/segmented-40-60/test_db"
    batch_size: 100
    backend: LMDB
  }
}
layer {
  name: "conv1"
  type: "Convolution"
  bottom: "data"
  top: "conv1"
  param {
    lr_mult: 1
    decay_mult: 1
  }
  param {
    lr_mult: 2
    decay_mult: 0
  }
  convolution_param {
    num_output: 96
    kernel_size: 11
    stride: 4
    weight_filler {
      type: "gaussian"
      std: 0.01
    }
    bias_filler {
      type: "constant"
      value: 0
    }
  }
}
layer {
  name: "relu1"
  type: "ReLU"
  bottom: "conv1"
  top: "conv1"
}
layer {
  name: "norm1"
  type: "LRN"
  bottom: "conv1"
  top: "norm1"
  lrn_param {
    local_size: 5
    alpha: 0.0001
    beta: 0.75
  }
}
layer {
  name: "pool1"
  type: "Pooling"
  bottom: "norm1"
  top: "pool1"
  pooling_param {
    pool: MAX
    kernel_size: 3
    stride: 2
  }
}
layer {
  name: "conv2"
  type: "Convolution"
  bottom: "pool1"
  top: "conv2"
  param {
    lr_mult: 1
    decay_mult: 1
  }
  param {
    lr_mult: 2
    decay_mult: 0
  }
  convolution_param {
    num_output: 256
    pad: 2
    kernel_size: 5
    group: 2
    weight_filler {
      type: "gaussian"
      std: 0.01
    }
    bias_filler {
      type: "constant"
      value: 0.1
    }
  }
}
layer {
  name: "relu2"
  type: "ReLU"
  bottom: "conv2"
  top: "conv2"
}
layer {
  name: "norm2"
  type: "LRN"
  bottom: "conv2"
  top: "norm2"
  lrn_param {
    local_size: 5
    alpha: 0.0001
    beta: 0.75
  }
}
layer {
  name: "pool2"
  type: "Pooling"
  bottom: "norm2"
  top: "pool2"
  pooling_param {
    pool: MAX
    kernel_size: 3
    stride: 2
  }
}
layer {
  name: "conv3"
  type: "Convolution"
  bottom: "pool2"
  top: "conv3"
  param {
    lr_mult: 1
    decay_mult: 1
  }
  param {
    lr_mult: 2
    decay_mult: 0
  }
  convolution_param {
    num_output: 384
    pad: 1
    kernel_size: 3
    weight_filler {
      type: "gaussian"
      std: 0.01
    }
    bias_filler {
      type: "constant"
      value: 0
    }
  }
}
layer {
  name: "relu3"
  type: "ReLU"
  bottom: "conv3"
  top: "conv3"
}
layer {
  name: "conv4"
  type: "Convolution"
  bottom: "conv3"
  top: "conv4"
  param {
    lr_mult: 1
    decay_mult: 1
  }
  param {
    lr_mult: 2
    decay_mult: 0
  }
  convolution_param {
    num_output: 384
    pad: 1
    kernel_size: 3
    group: 2
    weight_filler {
      type: "gaussian"
      std: 0.01
    }
    bias_filler {
      type: "constant"
      value: 0.1
    }
  }
}
layer {
  name: "relu4"
  type: "ReLU"
  bottom: "conv4"
  top: "conv4"
}
layer {
  name: "conv5"
  type: "Convolution"
  bottom: "conv4"
  top: "conv5"
  param {
    lr_mult: 1
    decay_mult: 1
  }
  param {
    lr_mult: 2
    decay_mult: 0
  }
  convolution_param {
    num_output: 256
    pad: 1
    kernel_size: 3
    group: 2
    weight_filler {
      type: "gaussian"
      std: 0.01
    }
    bias_filler {
      type: "constant"
      value: 0.1
    }
  }
}
layer {
  name: "relu5"
  type: "ReLU"
  bottom: "conv5"
  top: "conv5"
}
layer {
  name: "pool5"
  type: "Pooling"
  bottom: "conv5"
  top: "pool5"
  pooling_param {
    pool: MAX
    kernel_size: 3
    stride: 2
  }
}
layer {
  name: "fc6"
  type: "InnerProduct"
  bottom: "pool5"
  top: "fc6"
  param {
    lr_mult: 1
    decay_mult: 1
  }
  param {
    lr_mult: 2
    decay_mult: 0
  }
  inner_product_param {
    num_output: 4096
    weight_filler {
      type: "gaussian"
      std: 0.005
    }
    bias_filler {
      type: "constant"
      value: 0.1
    }
  }
}
layer {
  name: "relu6"
  type: "ReLU"
  bottom: "fc6"
  top: "fc6"
}
layer {
  name: "drop6"
  type: "Dropout"
  bottom: "fc6"
  top: "fc6"
  dropout_param {
    dropout_ratio: 0.5
  }
}
layer {
  name: "fc7"
  type: "InnerProduct"
  bottom: "fc6"
  top: "fc7"
  param {
    lr_mult: 1
    decay_mult: 1
  }
  param {
    lr_mult: 2
    decay_mult: 0
  }
  inner_product_param {
    num_output: 4096
    weight_filler {
      type: "gaussian"
      std: 0.005
    }
    bias_filler {
      type: "constant"
      value: 0.1
    }
  }
}
layer {
  name: "relu7"
  type: "ReLU"
  bottom: "fc7"
  top: "fc7"
}
layer {
  name: "drop7"
  type: "Dropout"
  bottom: "fc7"
  top: "fc7"
  dropout_param {
    dropout_ratio: 0.5
  }
}
layer {
  name: "fc8_plantvillage"
  type: "InnerProduct"
  bottom: "fc7"
  top: "fc8_plantvillage"
  param {
    lr_mult: 1
    decay_mult: 1
  }
  param {
    lr_mult: 2
    decay_mult: 0
  }
  inner_product_param {
    num_output: 38
    weight_filler {
      type: "gaussian"
      std: 0.01
    }
    bias_filler {
      type: "constant"
      value: 0
    }
  }
}
layer {
  name: "prob"
  type: "Softmax"
  bottom: "fc8_plantvillage"
  top: "prob"
  include {
    phase: TEST
  }
}
layer {
  name: "hdf5out"
  type: "HDF5Output"
  bottom: "prob"
  bottom: "label"
  include {
    phase: TEST
  }
  hdf5_output_param {
    file_name: "hdf5_dumps/iter_2190.h5"
  }
}
layer {
  name: "loss"
  type: "SoftmaxWithLoss"
  bottom: "fc8_plantvillage"
  bottom: "label"
  top: "loss"
}
layer {
  name: "accuracy"
  type: "Accuracy"
  bottom: "fc8_plantvillage"
  bottom: "label"
  top: "accuracy"
  include {
    phase: TEST
  }
}
I0403 14:37:37.476734 30040 layer_factory.hpp:77] Creating layer data
I0403 14:37:37.478240 30040 net.cpp:91] Creating Layer data
I0403 14:37:37.478312 30040 net.cpp:399] data -> data
I0403 14:37:37.478426 30040 net.cpp:399] data -> label
I0403 14:37:37.478523 30040 data_transformer.cpp:25] Loading mean file from: /home/mohanty/data/final_dataset/lmdb/segmented-40-60/mean.binaryproto
I0403 14:37:37.482506 30042 db_lmdb.cpp:38] Opened lmdb /home/mohanty/data/final_dataset/lmdb/segmented-40-60/test_db
I0403 14:37:37.500710 30040 data_layer.cpp:41] output data size: 100,3,227,227
I0403 14:37:37.615358 30040 net.cpp:141] Setting up data
I0403 14:37:37.615484 30040 net.cpp:148] Top shape: 100 3 227 227 (15458700)
I0403 14:37:37.615512 30040 net.cpp:148] Top shape: 100 (100)
I0403 14:37:37.615531 30040 net.cpp:156] Memory required for data: 61835200
I0403 14:37:37.615571 30040 layer_factory.hpp:77] Creating layer label_data_1_split
I0403 14:37:37.615599 30040 net.cpp:91] Creating Layer label_data_1_split
I0403 14:37:37.615618 30040 net.cpp:425] label_data_1_split <- label
I0403 14:37:37.615676 30040 net.cpp:399] label_data_1_split -> label_data_1_split_0
I0403 14:37:37.615705 30040 net.cpp:399] label_data_1_split -> label_data_1_split_1
I0403 14:37:37.615726 30040 net.cpp:399] label_data_1_split -> label_data_1_split_2
I0403 14:37:37.615789 30040 net.cpp:141] Setting up label_data_1_split
I0403 14:37:37.615811 30040 net.cpp:148] Top shape: 100 (100)
I0403 14:37:37.615828 30040 net.cpp:148] Top shape: 100 (100)
I0403 14:37:37.615842 30040 net.cpp:148] Top shape: 100 (100)
I0403 14:37:37.615855 30040 net.cpp:156] Memory required for data: 61836400
I0403 14:37:37.615869 30040 layer_factory.hpp:77] Creating layer conv1
I0403 14:37:37.615903 30040 net.cpp:91] Creating Layer conv1
I0403 14:37:37.615921 30040 net.cpp:425] conv1 <- data
I0403 14:37:37.615939 30040 net.cpp:399] conv1 -> conv1
I0403 14:37:37.748363 30040 net.cpp:141] Setting up conv1
I0403 14:37:37.748435 30040 net.cpp:148] Top shape: 100 96 55 55 (29040000)
I0403 14:37:37.748451 30040 net.cpp:156] Memory required for data: 177996400
I0403 14:37:37.748486 30040 layer_factory.hpp:77] Creating layer relu1
I0403 14:37:37.748519 30040 net.cpp:91] Creating Layer relu1
I0403 14:37:37.748540 30040 net.cpp:425] relu1 <- conv1
I0403 14:37:37.748569 30040 net.cpp:386] relu1 -> conv1 (in-place)
I0403 14:37:37.748854 30040 net.cpp:141] Setting up relu1
I0403 14:37:37.748881 30040 net.cpp:148] Top shape: 100 96 55 55 (29040000)
I0403 14:37:37.748934 30040 net.cpp:156] Memory required for data: 294156400
I0403 14:37:37.748949 30040 layer_factory.hpp:77] Creating layer norm1
I0403 14:37:37.748977 30040 net.cpp:91] Creating Layer norm1
I0403 14:37:37.748996 30040 net.cpp:425] norm1 <- conv1
I0403 14:37:37.749014 30040 net.cpp:399] norm1 -> norm1
I0403 14:37:37.749325 30040 net.cpp:141] Setting up norm1
I0403 14:37:37.749353 30040 net.cpp:148] Top shape: 100 96 55 55 (29040000)
I0403 14:37:37.749371 30040 net.cpp:156] Memory required for data: 410316400
I0403 14:37:37.749385 30040 layer_factory.hpp:77] Creating layer pool1
I0403 14:37:37.749408 30040 net.cpp:91] Creating Layer pool1
I0403 14:37:37.749424 30040 net.cpp:425] pool1 <- norm1
I0403 14:37:37.749444 30040 net.cpp:399] pool1 -> pool1
I0403 14:37:37.749519 30040 net.cpp:141] Setting up pool1
I0403 14:37:37.749543 30040 net.cpp:148] Top shape: 100 96 27 27 (6998400)
I0403 14:37:37.749559 30040 net.cpp:156] Memory required for data: 438310000
I0403 14:37:37.749573 30040 layer_factory.hpp:77] Creating layer conv2
I0403 14:37:37.749599 30040 net.cpp:91] Creating Layer conv2
I0403 14:37:37.749617 30040 net.cpp:425] conv2 <- pool1
I0403 14:37:37.749635 30040 net.cpp:399] conv2 -> conv2
I0403 14:37:37.763986 30040 net.cpp:141] Setting up conv2
I0403 14:37:37.764024 30040 net.cpp:148] Top shape: 100 256 27 27 (18662400)
I0403 14:37:37.764041 30040 net.cpp:156] Memory required for data: 512959600
I0403 14:37:37.764062 30040 layer_factory.hpp:77] Creating layer relu2
I0403 14:37:37.764081 30040 net.cpp:91] Creating Layer relu2
I0403 14:37:37.764096 30040 net.cpp:425] relu2 <- conv2
I0403 14:37:37.764116 30040 net.cpp:386] relu2 -> conv2 (in-place)
I0403 14:37:37.764425 30040 net.cpp:141] Setting up relu2
I0403 14:37:37.764451 30040 net.cpp:148] Top shape: 100 256 27 27 (18662400)
I0403 14:37:37.764466 30040 net.cpp:156] Memory required for data: 587609200
I0403 14:37:37.764482 30040 layer_factory.hpp:77] Creating layer norm2
I0403 14:37:37.764508 30040 net.cpp:91] Creating Layer norm2
I0403 14:37:37.764525 30040 net.cpp:425] norm2 <- conv2
I0403 14:37:37.764544 30040 net.cpp:399] norm2 -> norm2
I0403 14:37:37.764730 30040 net.cpp:141] Setting up norm2
I0403 14:37:37.764755 30040 net.cpp:148] Top shape: 100 256 27 27 (18662400)
I0403 14:37:37.764770 30040 net.cpp:156] Memory required for data: 662258800
I0403 14:37:37.764785 30040 layer_factory.hpp:77] Creating layer pool2
I0403 14:37:37.764801 30040 net.cpp:91] Creating Layer pool2
I0403 14:37:37.764816 30040 net.cpp:425] pool2 <- norm2
I0403 14:37:37.764834 30040 net.cpp:399] pool2 -> pool2
I0403 14:37:37.764885 30040 net.cpp:141] Setting up pool2
I0403 14:37:37.764909 30040 net.cpp:148] Top shape: 100 256 13 13 (4326400)
I0403 14:37:37.764922 30040 net.cpp:156] Memory required for data: 679564400
I0403 14:37:37.764937 30040 layer_factory.hpp:77] Creating layer conv3
I0403 14:37:37.764961 30040 net.cpp:91] Creating Layer conv3
I0403 14:37:37.764976 30040 net.cpp:425] conv3 <- pool2
I0403 14:37:37.764994 30040 net.cpp:399] conv3 -> conv3
I0403 14:37:37.801800 30040 net.cpp:141] Setting up conv3
I0403 14:37:37.801854 30040 net.cpp:148] Top shape: 100 384 13 13 (6489600)
I0403 14:37:37.801872 30040 net.cpp:156] Memory required for data: 705522800
I0403 14:37:37.801908 30040 layer_factory.hpp:77] Creating layer relu3
I0403 14:37:37.801928 30040 net.cpp:91] Creating Layer relu3
I0403 14:37:37.801947 30040 net.cpp:425] relu3 <- conv3
I0403 14:37:37.801969 30040 net.cpp:386] relu3 -> conv3 (in-place)
I0403 14:37:37.802244 30040 net.cpp:141] Setting up relu3
I0403 14:37:37.802270 30040 net.cpp:148] Top shape: 100 384 13 13 (6489600)
I0403 14:37:37.802285 30040 net.cpp:156] Memory required for data: 731481200
I0403 14:37:37.802299 30040 layer_factory.hpp:77] Creating layer conv4
I0403 14:37:37.802322 30040 net.cpp:91] Creating Layer conv4
I0403 14:37:37.802340 30040 net.cpp:425] conv4 <- conv3
I0403 14:37:37.802361 30040 net.cpp:399] conv4 -> conv4
I0403 14:37:37.831032 30040 net.cpp:141] Setting up conv4
I0403 14:37:37.831075 30040 net.cpp:148] Top shape: 100 384 13 13 (6489600)
I0403 14:37:37.831128 30040 net.cpp:156] Memory required for data: 757439600
I0403 14:37:37.831149 30040 layer_factory.hpp:77] Creating layer relu4
I0403 14:37:37.831169 30040 net.cpp:91] Creating Layer relu4
I0403 14:37:37.831187 30040 net.cpp:425] relu4 <- conv4
I0403 14:37:37.831207 30040 net.cpp:386] relu4 -> conv4 (in-place)
I0403 14:37:37.831470 30040 net.cpp:141] Setting up relu4
I0403 14:37:37.831498 30040 net.cpp:148] Top shape: 100 384 13 13 (6489600)
I0403 14:37:37.831519 30040 net.cpp:156] Memory required for data: 783398000
I0403 14:37:37.831535 30040 layer_factory.hpp:77] Creating layer conv5
I0403 14:37:37.831559 30040 net.cpp:91] Creating Layer conv5
I0403 14:37:37.831576 30040 net.cpp:425] conv5 <- conv4
I0403 14:37:37.831594 30040 net.cpp:399] conv5 -> conv5
I0403 14:37:37.851277 30040 net.cpp:141] Setting up conv5
I0403 14:37:37.851313 30040 net.cpp:148] Top shape: 100 256 13 13 (4326400)
I0403 14:37:37.851331 30040 net.cpp:156] Memory required for data: 800703600
I0403 14:37:37.851354 30040 layer_factory.hpp:77] Creating layer relu5
I0403 14:37:37.851373 30040 net.cpp:91] Creating Layer relu5
I0403 14:37:37.851389 30040 net.cpp:425] relu5 <- conv5
I0403 14:37:37.851408 30040 net.cpp:386] relu5 -> conv5 (in-place)
I0403 14:37:37.851678 30040 net.cpp:141] Setting up relu5
I0403 14:37:37.851703 30040 net.cpp:148] Top shape: 100 256 13 13 (4326400)
I0403 14:37:37.851718 30040 net.cpp:156] Memory required for data: 818009200
I0403 14:37:37.851733 30040 layer_factory.hpp:77] Creating layer pool5
I0403 14:37:37.851755 30040 net.cpp:91] Creating Layer pool5
I0403 14:37:37.851771 30040 net.cpp:425] pool5 <- conv5
I0403 14:37:37.851793 30040 net.cpp:399] pool5 -> pool5
I0403 14:37:37.851878 30040 net.cpp:141] Setting up pool5
I0403 14:37:37.851902 30040 net.cpp:148] Top shape: 100 256 6 6 (921600)
I0403 14:37:37.851917 30040 net.cpp:156] Memory required for data: 821695600
I0403 14:37:37.851932 30040 layer_factory.hpp:77] Creating layer fc6
I0403 14:37:37.851961 30040 net.cpp:91] Creating Layer fc6
I0403 14:37:37.851979 30040 net.cpp:425] fc6 <- pool5
I0403 14:37:37.851999 30040 net.cpp:399] fc6 -> fc6
I0403 14:37:39.321705 30040 net.cpp:141] Setting up fc6
I0403 14:37:39.321801 30040 net.cpp:148] Top shape: 100 4096 (409600)
I0403 14:37:39.321817 30040 net.cpp:156] Memory required for data: 823334000
I0403 14:37:39.321840 30040 layer_factory.hpp:77] Creating layer relu6
I0403 14:37:39.321866 30040 net.cpp:91] Creating Layer relu6
I0403 14:37:39.321883 30040 net.cpp:425] relu6 <- fc6
I0403 14:37:39.321903 30040 net.cpp:386] relu6 -> fc6 (in-place)
I0403 14:37:39.322124 30040 net.cpp:141] Setting up relu6
I0403 14:37:39.322147 30040 net.cpp:148] Top shape: 100 4096 (409600)
I0403 14:37:39.322161 30040 net.cpp:156] Memory required for data: 824972400
I0403 14:37:39.322176 30040 layer_factory.hpp:77] Creating layer drop6
I0403 14:37:39.322195 30040 net.cpp:91] Creating Layer drop6
I0403 14:37:39.322209 30040 net.cpp:425] drop6 <- fc6
I0403 14:37:39.322227 30040 net.cpp:386] drop6 -> fc6 (in-place)
I0403 14:37:39.322278 30040 net.cpp:141] Setting up drop6
I0403 14:37:39.322302 30040 net.cpp:148] Top shape: 100 4096 (409600)
I0403 14:37:39.322316 30040 net.cpp:156] Memory required for data: 826610800
I0403 14:37:39.322332 30040 layer_factory.hpp:77] Creating layer fc7
I0403 14:37:39.322352 30040 net.cpp:91] Creating Layer fc7
I0403 14:37:39.322366 30040 net.cpp:425] fc7 <- fc6
I0403 14:37:39.322388 30040 net.cpp:399] fc7 -> fc7
I0403 14:37:39.969820 30040 net.cpp:141] Setting up fc7
I0403 14:37:39.969895 30040 net.cpp:148] Top shape: 100 4096 (409600)
I0403 14:37:39.969912 30040 net.cpp:156] Memory required for data: 828249200
I0403 14:37:39.969933 30040 layer_factory.hpp:77] Creating layer relu7
I0403 14:37:39.969955 30040 net.cpp:91] Creating Layer relu7
I0403 14:37:39.969972 30040 net.cpp:425] relu7 <- fc7
I0403 14:37:39.969995 30040 net.cpp:386] relu7 -> fc7 (in-place)
I0403 14:37:39.970397 30040 net.cpp:141] Setting up relu7
I0403 14:37:39.970424 30040 net.cpp:148] Top shape: 100 4096 (409600)
I0403 14:37:39.970469 30040 net.cpp:156] Memory required for data: 829887600
I0403 14:37:39.970485 30040 layer_factory.hpp:77] Creating layer drop7
I0403 14:37:39.970509 30040 net.cpp:91] Creating Layer drop7
I0403 14:37:39.970525 30040 net.cpp:425] drop7 <- fc7
I0403 14:37:39.970543 30040 net.cpp:386] drop7 -> fc7 (in-place)
I0403 14:37:39.970585 30040 net.cpp:141] Setting up drop7
I0403 14:37:39.970607 30040 net.cpp:148] Top shape: 100 4096 (409600)
I0403 14:37:39.970620 30040 net.cpp:156] Memory required for data: 831526000
I0403 14:37:39.970633 30040 layer_factory.hpp:77] Creating layer fc8_plantvillage
I0403 14:37:39.970655 30040 net.cpp:91] Creating Layer fc8_plantvillage
I0403 14:37:39.970670 30040 net.cpp:425] fc8_plantvillage <- fc7
I0403 14:37:39.970693 30040 net.cpp:399] fc8_plantvillage -> fc8_plantvillage
I0403 14:37:39.977059 30040 net.cpp:141] Setting up fc8_plantvillage
I0403 14:37:39.977087 30040 net.cpp:148] Top shape: 100 38 (3800)
I0403 14:37:39.977100 30040 net.cpp:156] Memory required for data: 831541200
I0403 14:37:39.977118 30040 layer_factory.hpp:77] Creating layer fc8_plantvillage_fc8_plantvillage_0_split
I0403 14:37:39.977135 30040 net.cpp:91] Creating Layer fc8_plantvillage_fc8_plantvillage_0_split
I0403 14:37:39.977152 30040 net.cpp:425] fc8_plantvillage_fc8_plantvillage_0_split <- fc8_plantvillage
I0403 14:37:39.977171 30040 net.cpp:399] fc8_plantvillage_fc8_plantvillage_0_split -> fc8_plantvillage_fc8_plantvillage_0_split_0
I0403 14:37:39.977191 30040 net.cpp:399] fc8_plantvillage_fc8_plantvillage_0_split -> fc8_plantvillage_fc8_plantvillage_0_split_1
I0403 14:37:39.977210 30040 net.cpp:399] fc8_plantvillage_fc8_plantvillage_0_split -> fc8_plantvillage_fc8_plantvillage_0_split_2
I0403 14:37:39.977284 30040 net.cpp:141] Setting up fc8_plantvillage_fc8_plantvillage_0_split
I0403 14:37:39.977308 30040 net.cpp:148] Top shape: 100 38 (3800)
I0403 14:37:39.977322 30040 net.cpp:148] Top shape: 100 38 (3800)
I0403 14:37:39.977336 30040 net.cpp:148] Top shape: 100 38 (3800)
I0403 14:37:39.977349 30040 net.cpp:156] Memory required for data: 831586800
I0403 14:37:39.977363 30040 layer_factory.hpp:77] Creating layer prob
I0403 14:37:39.977381 30040 net.cpp:91] Creating Layer prob
I0403 14:37:39.977396 30040 net.cpp:425] prob <- fc8_plantvillage_fc8_plantvillage_0_split_0
I0403 14:37:39.977414 30040 net.cpp:399] prob -> prob
I0403 14:37:39.977641 30040 net.cpp:141] Setting up prob
I0403 14:37:39.977669 30040 net.cpp:148] Top shape: 100 38 (3800)
I0403 14:37:39.977684 30040 net.cpp:156] Memory required for data: 831602000
I0403 14:37:39.977699 30040 layer_factory.hpp:77] Creating layer hdf5out
I0403 14:37:39.977716 30040 net.cpp:91] Creating Layer hdf5out
I0403 14:37:39.977732 30040 net.cpp:425] hdf5out <- prob
I0403 14:37:39.977747 30040 net.cpp:425] hdf5out <- label_data_1_split_0
I0403 14:37:39.982679 30040 net.cpp:141] Setting up hdf5out
…
