…
I0403 14:36:41.483479 30021 net.cpp:313] The NetState phase (1) differed from the phase (0) specified by a rule in layer data
I0403 14:36:41.483978 30021 net.cpp:49] Initializing net from parameters: 
state {
  phase: TEST
}
layer {
  name: "data"
  type: "Data"
  top: "data"
  top: "label"
  include {
    phase: TEST
  }
  transform_param {
    crop_size: 227
    mean_file: "/home/mohanty/data/final_dataset/lmdb/segmented-40-60/mean.binaryproto"
  }
  data_param {
    source: "/home/mohanty/data/final_dataset/lmdb/segmented-40-60/test_db"
    batch_size: 100
    backend: LMDB
  }
}
layer {
  name: "conv1"
  type: "Convolution"
  bottom: "data"
  top: "conv1"
  param {
    lr_mult: 1
    decay_mult: 1
  }
  param {
    lr_mult: 2
    decay_mult: 0
  }
  convolution_param {
    num_output: 96
    kernel_size: 11
    stride: 4
    weight_filler {
      type: "gaussian"
      std: 0.01
    }
    bias_filler {
      type: "constant"
      value: 0
    }
  }
}
layer {
  name: "relu1"
  type: "ReLU"
  bottom: "conv1"
  top: "conv1"
}
layer {
  name: "norm1"
  type: "LRN"
  bottom: "conv1"
  top: "norm1"
  lrn_param {
    local_size: 5
    alpha: 0.0001
    beta: 0.75
  }
}
layer {
  name: "pool1"
  type: "Pooling"
  bottom: "norm1"
  top: "pool1"
  pooling_param {
    pool: MAX
    kernel_size: 3
    stride: 2
  }
}
layer {
  name: "conv2"
  type: "Convolution"
  bottom: "pool1"
  top: "conv2"
  param {
    lr_mult: 1
    decay_mult: 1
  }
  param {
    lr_mult: 2
    decay_mult: 0
  }
  convolution_param {
    num_output: 256
    pad: 2
    kernel_size: 5
    group: 2
    weight_filler {
      type: "gaussian"
      std: 0.01
    }
    bias_filler {
      type: "constant"
      value: 0.1
    }
  }
}
layer {
  name: "relu2"
  type: "ReLU"
  bottom: "conv2"
  top: "conv2"
}
layer {
  name: "norm2"
  type: "LRN"
  bottom: "conv2"
  top: "norm2"
  lrn_param {
    local_size: 5
    alpha: 0.0001
    beta: 0.75
  }
}
layer {
  name: "pool2"
  type: "Pooling"
  bottom: "norm2"
  top: "pool2"
  pooling_param {
    pool: MAX
    kernel_size: 3
    stride: 2
  }
}
layer {
  name: "conv3"
  type: "Convolution"
  bottom: "pool2"
  top: "conv3"
  param {
    lr_mult: 1
    decay_mult: 1
  }
  param {
    lr_mult: 2
    decay_mult: 0
  }
  convolution_param {
    num_output: 384
    pad: 1
    kernel_size: 3
    weight_filler {
      type: "gaussian"
      std: 0.01
    }
    bias_filler {
      type: "constant"
      value: 0
    }
  }
}
layer {
  name: "relu3"
  type: "ReLU"
  bottom: "conv3"
  top: "conv3"
}
layer {
  name: "conv4"
  type: "Convolution"
  bottom: "conv3"
  top: "conv4"
  param {
    lr_mult: 1
    decay_mult: 1
  }
  param {
    lr_mult: 2
    decay_mult: 0
  }
  convolution_param {
    num_output: 384
    pad: 1
    kernel_size: 3
    group: 2
    weight_filler {
      type: "gaussian"
      std: 0.01
    }
    bias_filler {
      type: "constant"
      value: 0.1
    }
  }
}
layer {
  name: "relu4"
  type: "ReLU"
  bottom: "conv4"
  top: "conv4"
}
layer {
  name: "conv5"
  type: "Convolution"
  bottom: "conv4"
  top: "conv5"
  param {
    lr_mult: 1
    decay_mult: 1
  }
  param {
    lr_mult: 2
    decay_mult: 0
  }
  convolution_param {
    num_output: 256
    pad: 1
    kernel_size: 3
    group: 2
    weight_filler {
      type: "gaussian"
      std: 0.01
    }
    bias_filler {
      type: "constant"
      value: 0.1
    }
  }
}
layer {
  name: "relu5"
  type: "ReLU"
  bottom: "conv5"
  top: "conv5"
}
layer {
  name: "pool5"
  type: "Pooling"
  bottom: "conv5"
  top: "pool5"
  pooling_param {
    pool: MAX
    kernel_size: 3
    stride: 2
  }
}
layer {
  name: "fc6"
  type: "InnerProduct"
  bottom: "pool5"
  top: "fc6"
  param {
    lr_mult: 1
    decay_mult: 1
  }
  param {
    lr_mult: 2
    decay_mult: 0
  }
  inner_product_param {
    num_output: 4096
    weight_filler {
      type: "gaussian"
      std: 0.005
    }
    bias_filler {
      type: "constant"
      value: 0.1
    }
  }
}
layer {
  name: "relu6"
  type: "ReLU"
  bottom: "fc6"
  top: "fc6"
}
layer {
  name: "drop6"
  type: "Dropout"
  bottom: "fc6"
  top: "fc6"
  dropout_param {
    dropout_ratio: 0.5
  }
}
layer {
  name: "fc7"
  type: "InnerProduct"
  bottom: "fc6"
  top: "fc7"
  param {
    lr_mult: 1
    decay_mult: 1
  }
  param {
    lr_mult: 2
    decay_mult: 0
  }
  inner_product_param {
    num_output: 4096
    weight_filler {
      type: "gaussian"
      std: 0.005
    }
    bias_filler {
      type: "constant"
      value: 0.1
    }
  }
}
layer {
  name: "relu7"
  type: "ReLU"
  bottom: "fc7"
  top: "fc7"
}
layer {
  name: "drop7"
  type: "Dropout"
  bottom: "fc7"
  top: "fc7"
  dropout_param {
    dropout_ratio: 0.5
  }
}
layer {
  name: "fc8_plantvillage"
  type: "InnerProduct"
  bottom: "fc7"
  top: "fc8_plantvillage"
  param {
    lr_mult: 1
    decay_mult: 1
  }
  param {
    lr_mult: 2
    decay_mult: 0
  }
  inner_product_param {
    num_output: 38
    weight_filler {
      type: "gaussian"
      std: 0.01
    }
    bias_filler {
      type: "constant"
      value: 0
    }
  }
}
layer {
  name: "prob"
  type: "Softmax"
  bottom: "fc8_plantvillage"
  top: "prob"
  include {
    phase: TEST
  }
}
layer {
  name: "hdf5out"
  type: "HDF5Output"
  bottom: "prob"
  bottom: "label"
  include {
    phase: TEST
  }
  hdf5_output_param {
    file_name: "hdf5_dumps/iter_1971.h5"
  }
}
layer {
  name: "loss"
  type: "SoftmaxWithLoss"
  bottom: "fc8_plantvillage"
  bottom: "label"
  top: "loss"
}
layer {
  name: "accuracy"
  type: "Accuracy"
  bottom: "fc8_plantvillage"
  bottom: "label"
  top: "accuracy"
  include {
    phase: TEST
  }
}
I0403 14:36:41.484844 30021 layer_factory.hpp:77] Creating layer data
I0403 14:36:41.485841 30021 net.cpp:91] Creating Layer data
I0403 14:36:41.485893 30021 net.cpp:399] data -> data
I0403 14:36:41.485971 30021 net.cpp:399] data -> label
I0403 14:36:41.486026 30021 data_transformer.cpp:25] Loading mean file from: /home/mohanty/data/final_dataset/lmdb/segmented-40-60/mean.binaryproto
I0403 14:36:41.489682 30025 db_lmdb.cpp:38] Opened lmdb /home/mohanty/data/final_dataset/lmdb/segmented-40-60/test_db
I0403 14:36:41.506655 30021 data_layer.cpp:41] output data size: 100,3,227,227
I0403 14:36:41.642637 30021 net.cpp:141] Setting up data
I0403 14:36:41.642765 30021 net.cpp:148] Top shape: 100 3 227 227 (15458700)
I0403 14:36:41.642793 30021 net.cpp:148] Top shape: 100 (100)
I0403 14:36:41.642813 30021 net.cpp:156] Memory required for data: 61835200
I0403 14:36:41.642849 30021 layer_factory.hpp:77] Creating layer label_data_1_split
I0403 14:36:41.642884 30021 net.cpp:91] Creating Layer label_data_1_split
I0403 14:36:41.642909 30021 net.cpp:425] label_data_1_split <- label
I0403 14:36:41.642951 30021 net.cpp:399] label_data_1_split -> label_data_1_split_0
I0403 14:36:41.642985 30021 net.cpp:399] label_data_1_split -> label_data_1_split_1
I0403 14:36:41.643012 30021 net.cpp:399] label_data_1_split -> label_data_1_split_2
I0403 14:36:41.643088 30021 net.cpp:141] Setting up label_data_1_split
I0403 14:36:41.643118 30021 net.cpp:148] Top shape: 100 (100)
I0403 14:36:41.643139 30021 net.cpp:148] Top shape: 100 (100)
I0403 14:36:41.643162 30021 net.cpp:148] Top shape: 100 (100)
I0403 14:36:41.643178 30021 net.cpp:156] Memory required for data: 61836400
I0403 14:36:41.643196 30021 layer_factory.hpp:77] Creating layer conv1
I0403 14:36:41.643239 30021 net.cpp:91] Creating Layer conv1
I0403 14:36:41.643262 30021 net.cpp:425] conv1 <- data
I0403 14:36:41.643290 30021 net.cpp:399] conv1 -> conv1
I0403 14:36:41.807870 30021 net.cpp:141] Setting up conv1
I0403 14:36:41.807971 30021 net.cpp:148] Top shape: 100 96 55 55 (29040000)
I0403 14:36:41.807991 30021 net.cpp:156] Memory required for data: 177996400
I0403 14:36:41.808032 30021 layer_factory.hpp:77] Creating layer relu1
I0403 14:36:41.808068 30021 net.cpp:91] Creating Layer relu1
I0403 14:36:41.808090 30021 net.cpp:425] relu1 <- conv1
I0403 14:36:41.808112 30021 net.cpp:386] relu1 -> conv1 (in-place)
I0403 14:36:41.808420 30021 net.cpp:141] Setting up relu1
I0403 14:36:41.808454 30021 net.cpp:148] Top shape: 100 96 55 55 (29040000)
I0403 14:36:41.808518 30021 net.cpp:156] Memory required for data: 294156400
I0403 14:36:41.808544 30021 layer_factory.hpp:77] Creating layer norm1
I0403 14:36:41.808579 30021 net.cpp:91] Creating Layer norm1
I0403 14:36:41.808601 30021 net.cpp:425] norm1 <- conv1
I0403 14:36:41.808624 30021 net.cpp:399] norm1 -> norm1
I0403 14:36:41.808995 30021 net.cpp:141] Setting up norm1
I0403 14:36:41.809028 30021 net.cpp:148] Top shape: 100 96 55 55 (29040000)
I0403 14:36:41.809046 30021 net.cpp:156] Memory required for data: 410316400
I0403 14:36:41.809064 30021 layer_factory.hpp:77] Creating layer pool1
I0403 14:36:41.809092 30021 net.cpp:91] Creating Layer pool1
I0403 14:36:41.809113 30021 net.cpp:425] pool1 <- norm1
I0403 14:36:41.809135 30021 net.cpp:399] pool1 -> pool1
I0403 14:36:41.809216 30021 net.cpp:141] Setting up pool1
I0403 14:36:41.809244 30021 net.cpp:148] Top shape: 100 96 27 27 (6998400)
I0403 14:36:41.809262 30021 net.cpp:156] Memory required for data: 438310000
I0403 14:36:41.809280 30021 layer_factory.hpp:77] Creating layer conv2
I0403 14:36:41.809311 30021 net.cpp:91] Creating Layer conv2
I0403 14:36:41.809330 30021 net.cpp:425] conv2 <- pool1
I0403 14:36:41.809351 30021 net.cpp:399] conv2 -> conv2
I0403 14:36:41.827276 30021 net.cpp:141] Setting up conv2
I0403 14:36:41.827322 30021 net.cpp:148] Top shape: 100 256 27 27 (18662400)
I0403 14:36:41.827343 30021 net.cpp:156] Memory required for data: 512959600
I0403 14:36:41.827368 30021 layer_factory.hpp:77] Creating layer relu2
I0403 14:36:41.827391 30021 net.cpp:91] Creating Layer relu2
I0403 14:36:41.827409 30021 net.cpp:425] relu2 <- conv2
I0403 14:36:41.827433 30021 net.cpp:386] relu2 -> conv2 (in-place)
I0403 14:36:41.827800 30021 net.cpp:141] Setting up relu2
I0403 14:36:41.827833 30021 net.cpp:148] Top shape: 100 256 27 27 (18662400)
I0403 14:36:41.827853 30021 net.cpp:156] Memory required for data: 587609200
I0403 14:36:41.827872 30021 layer_factory.hpp:77] Creating layer norm2
I0403 14:36:41.827898 30021 net.cpp:91] Creating Layer norm2
I0403 14:36:41.827919 30021 net.cpp:425] norm2 <- conv2
I0403 14:36:41.827941 30021 net.cpp:399] norm2 -> norm2
I0403 14:36:41.828182 30021 net.cpp:141] Setting up norm2
I0403 14:36:41.828215 30021 net.cpp:148] Top shape: 100 256 27 27 (18662400)
I0403 14:36:41.828234 30021 net.cpp:156] Memory required for data: 662258800
I0403 14:36:41.828253 30021 layer_factory.hpp:77] Creating layer pool2
I0403 14:36:41.828274 30021 net.cpp:91] Creating Layer pool2
I0403 14:36:41.828292 30021 net.cpp:425] pool2 <- norm2
I0403 14:36:41.828316 30021 net.cpp:399] pool2 -> pool2
I0403 14:36:41.828380 30021 net.cpp:141] Setting up pool2
I0403 14:36:41.828408 30021 net.cpp:148] Top shape: 100 256 13 13 (4326400)
I0403 14:36:41.828428 30021 net.cpp:156] Memory required for data: 679564400
I0403 14:36:41.828446 30021 layer_factory.hpp:77] Creating layer conv3
I0403 14:36:41.828475 30021 net.cpp:91] Creating Layer conv3
I0403 14:36:41.828495 30021 net.cpp:425] conv3 <- pool2
I0403 14:36:41.828521 30021 net.cpp:399] conv3 -> conv3
I0403 14:36:41.874774 30021 net.cpp:141] Setting up conv3
I0403 14:36:41.874835 30021 net.cpp:148] Top shape: 100 384 13 13 (6489600)
I0403 14:36:41.874858 30021 net.cpp:156] Memory required for data: 705522800
I0403 14:36:41.874898 30021 layer_factory.hpp:77] Creating layer relu3
I0403 14:36:41.874927 30021 net.cpp:91] Creating Layer relu3
I0403 14:36:41.874949 30021 net.cpp:425] relu3 <- conv3
I0403 14:36:41.874977 30021 net.cpp:386] relu3 -> conv3 (in-place)
I0403 14:36:41.875340 30021 net.cpp:141] Setting up relu3
I0403 14:36:41.875376 30021 net.cpp:148] Top shape: 100 384 13 13 (6489600)
I0403 14:36:41.875397 30021 net.cpp:156] Memory required for data: 731481200
I0403 14:36:41.875416 30021 layer_factory.hpp:77] Creating layer conv4
I0403 14:36:41.875447 30021 net.cpp:91] Creating Layer conv4
I0403 14:36:41.875469 30021 net.cpp:425] conv4 <- conv3
I0403 14:36:41.875494 30021 net.cpp:399] conv4 -> conv4
I0403 14:36:41.911648 30021 net.cpp:141] Setting up conv4
I0403 14:36:41.911722 30021 net.cpp:148] Top shape: 100 384 13 13 (6489600)
I0403 14:36:41.911770 30021 net.cpp:156] Memory required for data: 757439600
I0403 14:36:41.911798 30021 layer_factory.hpp:77] Creating layer relu4
I0403 14:36:41.911826 30021 net.cpp:91] Creating Layer relu4
I0403 14:36:41.911847 30021 net.cpp:425] relu4 <- conv4
I0403 14:36:41.911877 30021 net.cpp:386] relu4 -> conv4 (in-place)
I0403 14:36:41.912214 30021 net.cpp:141] Setting up relu4
I0403 14:36:41.912246 30021 net.cpp:148] Top shape: 100 384 13 13 (6489600)
I0403 14:36:41.912264 30021 net.cpp:156] Memory required for data: 783398000
I0403 14:36:41.912283 30021 layer_factory.hpp:77] Creating layer conv5
I0403 14:36:41.912317 30021 net.cpp:91] Creating Layer conv5
I0403 14:36:41.912338 30021 net.cpp:425] conv5 <- conv4
I0403 14:36:41.912359 30021 net.cpp:399] conv5 -> conv5
I0403 14:36:41.937234 30021 net.cpp:141] Setting up conv5
I0403 14:36:41.937279 30021 net.cpp:148] Top shape: 100 256 13 13 (4326400)
I0403 14:36:41.937300 30021 net.cpp:156] Memory required for data: 800703600
I0403 14:36:41.937330 30021 layer_factory.hpp:77] Creating layer relu5
I0403 14:36:41.937355 30021 net.cpp:91] Creating Layer relu5
I0403 14:36:41.937373 30021 net.cpp:425] relu5 <- conv5
I0403 14:36:41.937398 30021 net.cpp:386] relu5 -> conv5 (in-place)
I0403 14:36:41.937737 30021 net.cpp:141] Setting up relu5
I0403 14:36:41.937769 30021 net.cpp:148] Top shape: 100 256 13 13 (4326400)
I0403 14:36:41.937788 30021 net.cpp:156] Memory required for data: 818009200
I0403 14:36:41.937806 30021 layer_factory.hpp:77] Creating layer pool5
I0403 14:36:41.937834 30021 net.cpp:91] Creating Layer pool5
I0403 14:36:41.937851 30021 net.cpp:425] pool5 <- conv5
I0403 14:36:41.937877 30021 net.cpp:399] pool5 -> pool5
I0403 14:36:41.937949 30021 net.cpp:141] Setting up pool5
I0403 14:36:41.937978 30021 net.cpp:148] Top shape: 100 256 6 6 (921600)
I0403 14:36:41.937996 30021 net.cpp:156] Memory required for data: 821695600
I0403 14:36:41.938014 30021 layer_factory.hpp:77] Creating layer fc6
I0403 14:36:41.938088 30021 net.cpp:91] Creating Layer fc6
I0403 14:36:41.938117 30021 net.cpp:425] fc6 <- pool5
I0403 14:36:41.938145 30021 net.cpp:399] fc6 -> fc6
I0403 14:36:43.472820 30021 net.cpp:141] Setting up fc6
I0403 14:36:43.472913 30021 net.cpp:148] Top shape: 100 4096 (409600)
I0403 14:36:43.472929 30021 net.cpp:156] Memory required for data: 823334000
I0403 14:36:43.472950 30021 layer_factory.hpp:77] Creating layer relu6
I0403 14:36:43.472975 30021 net.cpp:91] Creating Layer relu6
I0403 14:36:43.472993 30021 net.cpp:425] relu6 <- fc6
I0403 14:36:43.473012 30021 net.cpp:386] relu6 -> fc6 (in-place)
I0403 14:36:43.473253 30021 net.cpp:141] Setting up relu6
I0403 14:36:43.473276 30021 net.cpp:148] Top shape: 100 4096 (409600)
I0403 14:36:43.473290 30021 net.cpp:156] Memory required for data: 824972400
I0403 14:36:43.473317 30021 layer_factory.hpp:77] Creating layer drop6
I0403 14:36:43.473336 30021 net.cpp:91] Creating Layer drop6
I0403 14:36:43.473351 30021 net.cpp:425] drop6 <- fc6
I0403 14:36:43.473372 30021 net.cpp:386] drop6 -> fc6 (in-place)
I0403 14:36:43.473426 30021 net.cpp:141] Setting up drop6
I0403 14:36:43.473448 30021 net.cpp:148] Top shape: 100 4096 (409600)
I0403 14:36:43.473461 30021 net.cpp:156] Memory required for data: 826610800
I0403 14:36:43.473475 30021 layer_factory.hpp:77] Creating layer fc7
I0403 14:36:43.473498 30021 net.cpp:91] Creating Layer fc7
I0403 14:36:43.473515 30021 net.cpp:425] fc7 <- fc6
I0403 14:36:43.473541 30021 net.cpp:399] fc7 -> fc7
I0403 14:36:44.124275 30021 net.cpp:141] Setting up fc7
I0403 14:36:44.124366 30021 net.cpp:148] Top shape: 100 4096 (409600)
I0403 14:36:44.124382 30021 net.cpp:156] Memory required for data: 828249200
I0403 14:36:44.124404 30021 layer_factory.hpp:77] Creating layer relu7
I0403 14:36:44.124428 30021 net.cpp:91] Creating Layer relu7
I0403 14:36:44.124444 30021 net.cpp:425] relu7 <- fc7
I0403 14:36:44.124465 30021 net.cpp:386] relu7 -> fc7 (in-place)
I0403 14:36:44.124876 30021 net.cpp:141] Setting up relu7
I0403 14:36:44.124902 30021 net.cpp:148] Top shape: 100 4096 (409600)
I0403 14:36:44.124954 30021 net.cpp:156] Memory required for data: 829887600
I0403 14:36:44.124970 30021 layer_factory.hpp:77] Creating layer drop7
I0403 14:36:44.124989 30021 net.cpp:91] Creating Layer drop7
I0403 14:36:44.125002 30021 net.cpp:425] drop7 <- fc7
I0403 14:36:44.125020 30021 net.cpp:386] drop7 -> fc7 (in-place)
I0403 14:36:44.125062 30021 net.cpp:141] Setting up drop7
I0403 14:36:44.125082 30021 net.cpp:148] Top shape: 100 4096 (409600)
I0403 14:36:44.125097 30021 net.cpp:156] Memory required for data: 831526000
I0403 14:36:44.125110 30021 layer_factory.hpp:77] Creating layer fc8_plantvillage
I0403 14:36:44.125133 30021 net.cpp:91] Creating Layer fc8_plantvillage
I0403 14:36:44.125149 30021 net.cpp:425] fc8_plantvillage <- fc7
I0403 14:36:44.125167 30021 net.cpp:399] fc8_plantvillage -> fc8_plantvillage
I0403 14:36:44.131541 30021 net.cpp:141] Setting up fc8_plantvillage
I0403 14:36:44.131568 30021 net.cpp:148] Top shape: 100 38 (3800)
I0403 14:36:44.131584 30021 net.cpp:156] Memory required for data: 831541200
I0403 14:36:44.131602 30021 layer_factory.hpp:77] Creating layer fc8_plantvillage_fc8_plantvillage_0_split
I0403 14:36:44.131619 30021 net.cpp:91] Creating Layer fc8_plantvillage_fc8_plantvillage_0_split
I0403 14:36:44.131633 30021 net.cpp:425] fc8_plantvillage_fc8_plantvillage_0_split <- fc8_plantvillage
I0403 14:36:44.131651 30021 net.cpp:399] fc8_plantvillage_fc8_plantvillage_0_split -> fc8_plantvillage_fc8_plantvillage_0_split_0
I0403 14:36:44.131670 30021 net.cpp:399] fc8_plantvillage_fc8_plantvillage_0_split -> fc8_plantvillage_fc8_plantvillage_0_split_1
I0403 14:36:44.131690 30021 net.cpp:399] fc8_plantvillage_fc8_plantvillage_0_split -> fc8_plantvillage_fc8_plantvillage_0_split_2
I0403 14:36:44.131764 30021 net.cpp:141] Setting up fc8_plantvillage_fc8_plantvillage_0_split
I0403 14:36:44.131786 30021 net.cpp:148] Top shape: 100 38 (3800)
I0403 14:36:44.131801 30021 net.cpp:148] Top shape: 100 38 (3800)
I0403 14:36:44.131815 30021 net.cpp:148] Top shape: 100 38 (3800)
I0403 14:36:44.131834 30021 net.cpp:156] Memory required for data: 831586800
I0403 14:36:44.131849 30021 layer_factory.hpp:77] Creating layer prob
I0403 14:36:44.131866 30021 net.cpp:91] Creating Layer prob
I0403 14:36:44.131880 30021 net.cpp:425] prob <- fc8_plantvillage_fc8_plantvillage_0_split_0
I0403 14:36:44.131899 30021 net.cpp:399] prob -> prob
I0403 14:36:44.132113 30021 net.cpp:141] Setting up prob
I0403 14:36:44.132139 30021 net.cpp:148] Top shape: 100 38 (3800)
I0403 14:36:44.132155 30021 net.cpp:156] Memory required for data: 831602000
I0403 14:36:44.132169 30021 layer_factory.hpp:77] Creating layer hdf5out
I0403 14:36:44.132187 30021 net.cpp:91] Creating Layer hdf5out
I0403 14:36:44.132201 30021 net.cpp:425] hdf5out <- prob
I0403 14:36:44.132216 30021 net.cpp:425] hdf5out <- label_data_1_split_0
I0403 14:36:44.136728 30021 net.cpp:141] Setting up hdf5out
…
