…
I0403 14:57:51.637435 30686 net.cpp:313] The NetState phase (1) differed from the phase (0) specified by a rule in layer data
I0403 14:57:51.637773 30686 net.cpp:49] Initializing net from parameters: 
state {
  phase: TEST
}
layer {
  name: "data"
  type: "Data"
  top: "data"
  top: "label"
  include {
    phase: TEST
  }
  transform_param {
    crop_size: 227
    mean_file: "/home/mohanty/data/final_dataset/lmdb/segmented-40-60/mean.binaryproto"
  }
  data_param {
    source: "/home/mohanty/data/final_dataset/lmdb/segmented-40-60/test_db"
    batch_size: 100
    backend: LMDB
  }
}
layer {
  name: "conv1"
  type: "Convolution"
  bottom: "data"
  top: "conv1"
  param {
    lr_mult: 1
    decay_mult: 1
  }
  param {
    lr_mult: 2
    decay_mult: 0
  }
  convolution_param {
    num_output: 96
    kernel_size: 11
    stride: 4
    weight_filler {
      type: "gaussian"
      std: 0.01
    }
    bias_filler {
      type: "constant"
      value: 0
    }
  }
}
layer {
  name: "relu1"
  type: "ReLU"
  bottom: "conv1"
  top: "conv1"
}
layer {
  name: "norm1"
  type: "LRN"
  bottom: "conv1"
  top: "norm1"
  lrn_param {
    local_size: 5
    alpha: 0.0001
    beta: 0.75
  }
}
layer {
  name: "pool1"
  type: "Pooling"
  bottom: "norm1"
  top: "pool1"
  pooling_param {
    pool: MAX
    kernel_size: 3
    stride: 2
  }
}
layer {
  name: "conv2"
  type: "Convolution"
  bottom: "pool1"
  top: "conv2"
  param {
    lr_mult: 1
    decay_mult: 1
  }
  param {
    lr_mult: 2
    decay_mult: 0
  }
  convolution_param {
    num_output: 256
    pad: 2
    kernel_size: 5
    group: 2
    weight_filler {
      type: "gaussian"
      std: 0.01
    }
    bias_filler {
      type: "constant"
      value: 0.1
    }
  }
}
layer {
  name: "relu2"
  type: "ReLU"
  bottom: "conv2"
  top: "conv2"
}
layer {
  name: "norm2"
  type: "LRN"
  bottom: "conv2"
  top: "norm2"
  lrn_param {
    local_size: 5
    alpha: 0.0001
    beta: 0.75
  }
}
layer {
  name: "pool2"
  type: "Pooling"
  bottom: "norm2"
  top: "pool2"
  pooling_param {
    pool: MAX
    kernel_size: 3
    stride: 2
  }
}
layer {
  name: "conv3"
  type: "Convolution"
  bottom: "pool2"
  top: "conv3"
  param {
    lr_mult: 1
    decay_mult: 1
  }
  param {
    lr_mult: 2
    decay_mult: 0
  }
  convolution_param {
    num_output: 384
    pad: 1
    kernel_size: 3
    weight_filler {
      type: "gaussian"
      std: 0.01
    }
    bias_filler {
      type: "constant"
      value: 0
    }
  }
}
layer {
  name: "relu3"
  type: "ReLU"
  bottom: "conv3"
  top: "conv3"
}
layer {
  name: "conv4"
  type: "Convolution"
  bottom: "conv3"
  top: "conv4"
  param {
    lr_mult: 1
    decay_mult: 1
  }
  param {
    lr_mult: 2
    decay_mult: 0
  }
  convolution_param {
    num_output: 384
    pad: 1
    kernel_size: 3
    group: 2
    weight_filler {
      type: "gaussian"
      std: 0.01
    }
    bias_filler {
      type: "constant"
      value: 0.1
    }
  }
}
layer {
  name: "relu4"
  type: "ReLU"
  bottom: "conv4"
  top: "conv4"
}
layer {
  name: "conv5"
  type: "Convolution"
  bottom: "conv4"
  top: "conv5"
  param {
    lr_mult: 1
    decay_mult: 1
  }
  param {
    lr_mult: 2
    decay_mult: 0
  }
  convolution_param {
    num_output: 256
    pad: 1
    kernel_size: 3
    group: 2
    weight_filler {
      type: "gaussian"
      std: 0.01
    }
    bias_filler {
      type: "constant"
      value: 0.1
    }
  }
}
layer {
  name: "relu5"
  type: "ReLU"
  bottom: "conv5"
  top: "conv5"
}
layer {
  name: "pool5"
  type: "Pooling"
  bottom: "conv5"
  top: "pool5"
  pooling_param {
    pool: MAX
    kernel_size: 3
    stride: 2
  }
}
layer {
  name: "fc6"
  type: "InnerProduct"
  bottom: "pool5"
  top: "fc6"
  param {
    lr_mult: 1
    decay_mult: 1
  }
  param {
    lr_mult: 2
    decay_mult: 0
  }
  inner_product_param {
    num_output: 4096
    weight_filler {
      type: "gaussian"
      std: 0.005
    }
    bias_filler {
      type: "constant"
      value: 0.1
    }
  }
}
layer {
  name: "relu6"
  type: "ReLU"
  bottom: "fc6"
  top: "fc6"
}
layer {
  name: "drop6"
  type: "Dropout"
  bottom: "fc6"
  top: "fc6"
  dropout_param {
    dropout_ratio: 0.5
  }
}
layer {
  name: "fc7"
  type: "InnerProduct"
  bottom: "fc6"
  top: "fc7"
  param {
    lr_mult: 1
    decay_mult: 1
  }
  param {
    lr_mult: 2
    decay_mult: 0
  }
  inner_product_param {
    num_output: 4096
    weight_filler {
      type: "gaussian"
      std: 0.005
    }
    bias_filler {
      type: "constant"
      value: 0.1
    }
  }
}
layer {
  name: "relu7"
  type: "ReLU"
  bottom: "fc7"
  top: "fc7"
}
layer {
  name: "drop7"
  type: "Dropout"
  bottom: "fc7"
  top: "fc7"
  dropout_param {
    dropout_ratio: 0.5
  }
}
layer {
  name: "fc8_plantvillage"
  type: "InnerProduct"
  bottom: "fc7"
  top: "fc8_plantvillage"
  param {
    lr_mult: 1
    decay_mult: 1
  }
  param {
    lr_mult: 2
    decay_mult: 0
  }
  inner_product_param {
    num_output: 38
    weight_filler {
      type: "gaussian"
      std: 0.01
    }
    bias_filler {
      type: "constant"
      value: 0
    }
  }
}
layer {
  name: "prob"
  type: "Softmax"
  bottom: "fc8_plantvillage"
  top: "prob"
  include {
    phase: TEST
  }
}
layer {
  name: "hdf5out"
  type: "HDF5Output"
  bottom: "prob"
  bottom: "label"
  include {
    phase: TEST
  }
  hdf5_output_param {
    file_name: "hdf5_dumps/iter_6571.h5"
  }
}
layer {
  name: "loss"
  type: "SoftmaxWithLoss"
  bottom: "fc8_plantvillage"
  bottom: "label"
  top: "loss"
}
layer {
  name: "accuracy"
  type: "Accuracy"
  bottom: "fc8_plantvillage"
  bottom: "label"
  top: "accuracy"
  include {
    phase: TEST
  }
}
I0403 14:57:51.638396 30686 layer_factory.hpp:77] Creating layer data
I0403 14:57:51.639031 30686 net.cpp:91] Creating Layer data
I0403 14:57:51.639063 30686 net.cpp:399] data -> data
I0403 14:57:51.639119 30686 net.cpp:399] data -> label
I0403 14:57:51.639158 30686 data_transformer.cpp:25] Loading mean file from: /home/mohanty/data/final_dataset/lmdb/segmented-40-60/mean.binaryproto
I0403 14:57:51.643702 30690 db_lmdb.cpp:38] Opened lmdb /home/mohanty/data/final_dataset/lmdb/segmented-40-60/test_db
I0403 14:57:51.662901 30686 data_layer.cpp:41] output data size: 100,3,227,227
I0403 14:57:51.778879 30686 net.cpp:141] Setting up data
I0403 14:57:51.778995 30686 net.cpp:148] Top shape: 100 3 227 227 (15458700)
I0403 14:57:51.779019 30686 net.cpp:148] Top shape: 100 (100)
I0403 14:57:51.779036 30686 net.cpp:156] Memory required for data: 61835200
I0403 14:57:51.779068 30686 layer_factory.hpp:77] Creating layer label_data_1_split
I0403 14:57:51.779098 30686 net.cpp:91] Creating Layer label_data_1_split
I0403 14:57:51.779119 30686 net.cpp:425] label_data_1_split <- label
I0403 14:57:51.779153 30686 net.cpp:399] label_data_1_split -> label_data_1_split_0
I0403 14:57:51.779183 30686 net.cpp:399] label_data_1_split -> label_data_1_split_1
I0403 14:57:51.779204 30686 net.cpp:399] label_data_1_split -> label_data_1_split_2
I0403 14:57:51.779266 30686 net.cpp:141] Setting up label_data_1_split
I0403 14:57:51.779291 30686 net.cpp:148] Top shape: 100 (100)
I0403 14:57:51.779309 30686 net.cpp:148] Top shape: 100 (100)
I0403 14:57:51.779326 30686 net.cpp:148] Top shape: 100 (100)
I0403 14:57:51.779341 30686 net.cpp:156] Memory required for data: 61836400
I0403 14:57:51.779357 30686 layer_factory.hpp:77] Creating layer conv1
I0403 14:57:51.779393 30686 net.cpp:91] Creating Layer conv1
I0403 14:57:51.779412 30686 net.cpp:425] conv1 <- data
I0403 14:57:51.779433 30686 net.cpp:399] conv1 -> conv1
I0403 14:57:51.913432 30686 net.cpp:141] Setting up conv1
I0403 14:57:51.913506 30686 net.cpp:148] Top shape: 100 96 55 55 (29040000)
I0403 14:57:51.913523 30686 net.cpp:156] Memory required for data: 177996400
I0403 14:57:51.913563 30686 layer_factory.hpp:77] Creating layer relu1
I0403 14:57:51.913595 30686 net.cpp:91] Creating Layer relu1
I0403 14:57:51.913614 30686 net.cpp:425] relu1 <- conv1
I0403 14:57:51.913633 30686 net.cpp:386] relu1 -> conv1 (in-place)
I0403 14:57:51.913885 30686 net.cpp:141] Setting up relu1
I0403 14:57:51.913913 30686 net.cpp:148] Top shape: 100 96 55 55 (29040000)
I0403 14:57:51.913967 30686 net.cpp:156] Memory required for data: 294156400
I0403 14:57:51.913985 30686 layer_factory.hpp:77] Creating layer norm1
I0403 14:57:51.914012 30686 net.cpp:91] Creating Layer norm1
I0403 14:57:51.914031 30686 net.cpp:425] norm1 <- conv1
I0403 14:57:51.914049 30686 net.cpp:399] norm1 -> norm1
I0403 14:57:51.914355 30686 net.cpp:141] Setting up norm1
I0403 14:57:51.914382 30686 net.cpp:148] Top shape: 100 96 55 55 (29040000)
I0403 14:57:51.914398 30686 net.cpp:156] Memory required for data: 410316400
I0403 14:57:51.914413 30686 layer_factory.hpp:77] Creating layer pool1
I0403 14:57:51.914438 30686 net.cpp:91] Creating Layer pool1
I0403 14:57:51.914455 30686 net.cpp:425] pool1 <- norm1
I0403 14:57:51.914474 30686 net.cpp:399] pool1 -> pool1
I0403 14:57:51.914553 30686 net.cpp:141] Setting up pool1
I0403 14:57:51.914580 30686 net.cpp:148] Top shape: 100 96 27 27 (6998400)
I0403 14:57:51.914594 30686 net.cpp:156] Memory required for data: 438310000
I0403 14:57:51.914609 30686 layer_factory.hpp:77] Creating layer conv2
I0403 14:57:51.914635 30686 net.cpp:91] Creating Layer conv2
I0403 14:57:51.914652 30686 net.cpp:425] conv2 <- pool1
I0403 14:57:51.914672 30686 net.cpp:399] conv2 -> conv2
I0403 14:57:51.929586 30686 net.cpp:141] Setting up conv2
I0403 14:57:51.929627 30686 net.cpp:148] Top shape: 100 256 27 27 (18662400)
I0403 14:57:51.929646 30686 net.cpp:156] Memory required for data: 512959600
I0403 14:57:51.929671 30686 layer_factory.hpp:77] Creating layer relu2
I0403 14:57:51.929694 30686 net.cpp:91] Creating Layer relu2
I0403 14:57:51.929714 30686 net.cpp:425] relu2 <- conv2
I0403 14:57:51.929735 30686 net.cpp:386] relu2 -> conv2 (in-place)
I0403 14:57:51.930017 30686 net.cpp:141] Setting up relu2
I0403 14:57:51.930043 30686 net.cpp:148] Top shape: 100 256 27 27 (18662400)
I0403 14:57:51.930059 30686 net.cpp:156] Memory required for data: 587609200
I0403 14:57:51.930075 30686 layer_factory.hpp:77] Creating layer norm2
I0403 14:57:51.930099 30686 net.cpp:91] Creating Layer norm2
I0403 14:57:51.930116 30686 net.cpp:425] norm2 <- conv2
I0403 14:57:51.930137 30686 net.cpp:399] norm2 -> norm2
I0403 14:57:51.930336 30686 net.cpp:141] Setting up norm2
I0403 14:57:51.930362 30686 net.cpp:148] Top shape: 100 256 27 27 (18662400)
I0403 14:57:51.930377 30686 net.cpp:156] Memory required for data: 662258800
I0403 14:57:51.930393 30686 layer_factory.hpp:77] Creating layer pool2
I0403 14:57:51.930414 30686 net.cpp:91] Creating Layer pool2
I0403 14:57:51.930431 30686 net.cpp:425] pool2 <- norm2
I0403 14:57:51.930449 30686 net.cpp:399] pool2 -> pool2
I0403 14:57:51.930505 30686 net.cpp:141] Setting up pool2
I0403 14:57:51.930528 30686 net.cpp:148] Top shape: 100 256 13 13 (4326400)
I0403 14:57:51.930548 30686 net.cpp:156] Memory required for data: 679564400
I0403 14:57:51.930565 30686 layer_factory.hpp:77] Creating layer conv3
I0403 14:57:51.930589 30686 net.cpp:91] Creating Layer conv3
I0403 14:57:51.930608 30686 net.cpp:425] conv3 <- pool2
I0403 14:57:51.930629 30686 net.cpp:399] conv3 -> conv3
I0403 14:57:51.967856 30686 net.cpp:141] Setting up conv3
I0403 14:57:51.967911 30686 net.cpp:148] Top shape: 100 384 13 13 (6489600)
I0403 14:57:51.967928 30686 net.cpp:156] Memory required for data: 705522800
I0403 14:57:51.967957 30686 layer_factory.hpp:77] Creating layer relu3
I0403 14:57:51.967979 30686 net.cpp:91] Creating Layer relu3
I0403 14:57:51.967996 30686 net.cpp:425] relu3 <- conv3
I0403 14:57:51.968014 30686 net.cpp:386] relu3 -> conv3 (in-place)
I0403 14:57:51.968284 30686 net.cpp:141] Setting up relu3
I0403 14:57:51.968312 30686 net.cpp:148] Top shape: 100 384 13 13 (6489600)
I0403 14:57:51.968328 30686 net.cpp:156] Memory required for data: 731481200
I0403 14:57:51.968344 30686 layer_factory.hpp:77] Creating layer conv4
I0403 14:57:51.968370 30686 net.cpp:91] Creating Layer conv4
I0403 14:57:51.968389 30686 net.cpp:425] conv4 <- conv3
I0403 14:57:51.968410 30686 net.cpp:399] conv4 -> conv4
I0403 14:57:51.997176 30686 net.cpp:141] Setting up conv4
I0403 14:57:51.997221 30686 net.cpp:148] Top shape: 100 384 13 13 (6489600)
I0403 14:57:51.997270 30686 net.cpp:156] Memory required for data: 757439600
I0403 14:57:51.997292 30686 layer_factory.hpp:77] Creating layer relu4
I0403 14:57:51.997314 30686 net.cpp:91] Creating Layer relu4
I0403 14:57:51.997339 30686 net.cpp:425] relu4 <- conv4
I0403 14:57:51.997359 30686 net.cpp:386] relu4 -> conv4 (in-place)
I0403 14:57:51.997649 30686 net.cpp:141] Setting up relu4
I0403 14:57:51.997675 30686 net.cpp:148] Top shape: 100 384 13 13 (6489600)
I0403 14:57:51.997690 30686 net.cpp:156] Memory required for data: 783398000
I0403 14:57:51.997706 30686 layer_factory.hpp:77] Creating layer conv5
I0403 14:57:51.997731 30686 net.cpp:91] Creating Layer conv5
I0403 14:57:51.997750 30686 net.cpp:425] conv5 <- conv4
I0403 14:57:51.997771 30686 net.cpp:399] conv5 -> conv5
I0403 14:57:52.017602 30686 net.cpp:141] Setting up conv5
I0403 14:57:52.017638 30686 net.cpp:148] Top shape: 100 256 13 13 (4326400)
I0403 14:57:52.017657 30686 net.cpp:156] Memory required for data: 800703600
I0403 14:57:52.017681 30686 layer_factory.hpp:77] Creating layer relu5
I0403 14:57:52.017706 30686 net.cpp:91] Creating Layer relu5
I0403 14:57:52.017724 30686 net.cpp:425] relu5 <- conv5
I0403 14:57:52.017743 30686 net.cpp:386] relu5 -> conv5 (in-place)
I0403 14:57:52.018018 30686 net.cpp:141] Setting up relu5
I0403 14:57:52.018043 30686 net.cpp:148] Top shape: 100 256 13 13 (4326400)
I0403 14:57:52.018059 30686 net.cpp:156] Memory required for data: 818009200
I0403 14:57:52.018075 30686 layer_factory.hpp:77] Creating layer pool5
I0403 14:57:52.018100 30686 net.cpp:91] Creating Layer pool5
I0403 14:57:52.018118 30686 net.cpp:425] pool5 <- conv5
I0403 14:57:52.018141 30686 net.cpp:399] pool5 -> pool5
I0403 14:57:52.018203 30686 net.cpp:141] Setting up pool5
I0403 14:57:52.018226 30686 net.cpp:148] Top shape: 100 256 6 6 (921600)
I0403 14:57:52.018241 30686 net.cpp:156] Memory required for data: 821695600
I0403 14:57:52.018256 30686 layer_factory.hpp:77] Creating layer fc6
I0403 14:57:52.018287 30686 net.cpp:91] Creating Layer fc6
I0403 14:57:52.018306 30686 net.cpp:425] fc6 <- pool5
I0403 14:57:52.018323 30686 net.cpp:399] fc6 -> fc6
I0403 14:57:53.624158 30686 net.cpp:141] Setting up fc6
I0403 14:57:53.624260 30686 net.cpp:148] Top shape: 100 4096 (409600)
I0403 14:57:53.624277 30686 net.cpp:156] Memory required for data: 823334000
I0403 14:57:53.624300 30686 layer_factory.hpp:77] Creating layer relu6
I0403 14:57:53.624331 30686 net.cpp:91] Creating Layer relu6
I0403 14:57:53.624349 30686 net.cpp:425] relu6 <- fc6
I0403 14:57:53.624372 30686 net.cpp:386] relu6 -> fc6 (in-place)
I0403 14:57:53.624610 30686 net.cpp:141] Setting up relu6
I0403 14:57:53.624644 30686 net.cpp:148] Top shape: 100 4096 (409600)
I0403 14:57:53.624658 30686 net.cpp:156] Memory required for data: 824972400
I0403 14:57:53.624672 30686 layer_factory.hpp:77] Creating layer drop6
I0403 14:57:53.624693 30686 net.cpp:91] Creating Layer drop6
I0403 14:57:53.624709 30686 net.cpp:425] drop6 <- fc6
I0403 14:57:53.624727 30686 net.cpp:386] drop6 -> fc6 (in-place)
I0403 14:57:53.624781 30686 net.cpp:141] Setting up drop6
I0403 14:57:53.624804 30686 net.cpp:148] Top shape: 100 4096 (409600)
I0403 14:57:53.624819 30686 net.cpp:156] Memory required for data: 826610800
I0403 14:57:53.624832 30686 layer_factory.hpp:77] Creating layer fc7
I0403 14:57:53.624852 30686 net.cpp:91] Creating Layer fc7
I0403 14:57:53.624867 30686 net.cpp:425] fc7 <- fc6
I0403 14:57:53.624887 30686 net.cpp:399] fc7 -> fc7
I0403 14:57:54.365660 30686 net.cpp:141] Setting up fc7
I0403 14:57:54.365752 30686 net.cpp:148] Top shape: 100 4096 (409600)
I0403 14:57:54.365778 30686 net.cpp:156] Memory required for data: 828249200
I0403 14:57:54.365806 30686 layer_factory.hpp:77] Creating layer relu7
I0403 14:57:54.365841 30686 net.cpp:91] Creating Layer relu7
I0403 14:57:54.365867 30686 net.cpp:425] relu7 <- fc7
I0403 14:57:54.365895 30686 net.cpp:386] relu7 -> fc7 (in-place)
I0403 14:57:54.366330 30686 net.cpp:141] Setting up relu7
I0403 14:57:54.366364 30686 net.cpp:148] Top shape: 100 4096 (409600)
I0403 14:57:54.366415 30686 net.cpp:156] Memory required for data: 829887600
I0403 14:57:54.366439 30686 layer_factory.hpp:77] Creating layer drop7
I0403 14:57:54.366468 30686 net.cpp:91] Creating Layer drop7
I0403 14:57:54.366493 30686 net.cpp:425] drop7 <- fc7
I0403 14:57:54.366521 30686 net.cpp:386] drop7 -> fc7 (in-place)
I0403 14:57:54.366580 30686 net.cpp:141] Setting up drop7
I0403 14:57:54.366613 30686 net.cpp:148] Top shape: 100 4096 (409600)
I0403 14:57:54.366636 30686 net.cpp:156] Memory required for data: 831526000
I0403 14:57:54.366652 30686 layer_factory.hpp:77] Creating layer fc8_plantvillage
I0403 14:57:54.366686 30686 net.cpp:91] Creating Layer fc8_plantvillage
I0403 14:57:54.366710 30686 net.cpp:425] fc8_plantvillage <- fc7
I0403 14:57:54.366734 30686 net.cpp:399] fc8_plantvillage -> fc8_plantvillage
I0403 14:57:54.374270 30686 net.cpp:141] Setting up fc8_plantvillage
I0403 14:57:54.374301 30686 net.cpp:148] Top shape: 100 38 (3800)
I0403 14:57:54.374323 30686 net.cpp:156] Memory required for data: 831541200
I0403 14:57:54.374351 30686 layer_factory.hpp:77] Creating layer fc8_plantvillage_fc8_plantvillage_0_split
I0403 14:57:54.374375 30686 net.cpp:91] Creating Layer fc8_plantvillage_fc8_plantvillage_0_split
I0403 14:57:54.374399 30686 net.cpp:425] fc8_plantvillage_fc8_plantvillage_0_split <- fc8_plantvillage
I0403 14:57:54.374426 30686 net.cpp:399] fc8_plantvillage_fc8_plantvillage_0_split -> fc8_plantvillage_fc8_plantvillage_0_split_0
I0403 14:57:54.374452 30686 net.cpp:399] fc8_plantvillage_fc8_plantvillage_0_split -> fc8_plantvillage_fc8_plantvillage_0_split_1
I0403 14:57:54.374481 30686 net.cpp:399] fc8_plantvillage_fc8_plantvillage_0_split -> fc8_plantvillage_fc8_plantvillage_0_split_2
I0403 14:57:54.374569 30686 net.cpp:141] Setting up fc8_plantvillage_fc8_plantvillage_0_split
I0403 14:57:54.374598 30686 net.cpp:148] Top shape: 100 38 (3800)
I0403 14:57:54.374617 30686 net.cpp:148] Top shape: 100 38 (3800)
I0403 14:57:54.374640 30686 net.cpp:148] Top shape: 100 38 (3800)
I0403 14:57:54.374663 30686 net.cpp:156] Memory required for data: 831586800
I0403 14:57:54.374696 30686 layer_factory.hpp:77] Creating layer prob
I0403 14:57:54.374716 30686 net.cpp:91] Creating Layer prob
I0403 14:57:54.374765 30686 net.cpp:425] prob <- fc8_plantvillage_fc8_plantvillage_0_split_0
I0403 14:57:54.374790 30686 net.cpp:399] prob -> prob
I0403 14:57:54.375038 30686 net.cpp:141] Setting up prob
I0403 14:57:54.375066 30686 net.cpp:148] Top shape: 100 38 (3800)
I0403 14:57:54.375092 30686 net.cpp:156] Memory required for data: 831602000
I0403 14:57:54.375115 30686 layer_factory.hpp:77] Creating layer hdf5out
I0403 14:57:54.375145 30686 net.cpp:91] Creating Layer hdf5out
I0403 14:57:54.375167 30686 net.cpp:425] hdf5out <- prob
I0403 14:57:54.375193 30686 net.cpp:425] hdf5out <- label_data_1_split_0
I0403 14:57:54.379251 30686 net.cpp:141] Setting up hdf5out
…
