…
I0403 14:29:10.564671 29865 net.cpp:313] The NetState phase (1) differed from the phase (0) specified by a rule in layer data
I0403 14:29:10.565418 29865 net.cpp:49] Initializing net from parameters: 
state {
  phase: TEST
}
layer {
  name: "data"
  type: "Data"
  top: "data"
  top: "label"
  include {
    phase: TEST
  }
  transform_param {
    crop_size: 227
    mean_file: "/home/mohanty/data/final_dataset/lmdb/segmented-40-60/mean.binaryproto"
  }
  data_param {
    source: "/home/mohanty/data/final_dataset/lmdb/segmented-40-60/test_db"
    batch_size: 100
    backend: LMDB
  }
}
layer {
  name: "conv1"
  type: "Convolution"
  bottom: "data"
  top: "conv1"
  param {
    lr_mult: 1
    decay_mult: 1
  }
  param {
    lr_mult: 2
    decay_mult: 0
  }
  convolution_param {
    num_output: 96
    kernel_size: 11
    stride: 4
    weight_filler {
      type: "gaussian"
      std: 0.01
    }
    bias_filler {
      type: "constant"
      value: 0
    }
  }
}
layer {
  name: "relu1"
  type: "ReLU"
  bottom: "conv1"
  top: "conv1"
}
layer {
  name: "norm1"
  type: "LRN"
  bottom: "conv1"
  top: "norm1"
  lrn_param {
    local_size: 5
    alpha: 0.0001
    beta: 0.75
  }
}
layer {
  name: "pool1"
  type: "Pooling"
  bottom: "norm1"
  top: "pool1"
  pooling_param {
    pool: MAX
    kernel_size: 3
    stride: 2
  }
}
layer {
  name: "conv2"
  type: "Convolution"
  bottom: "pool1"
  top: "conv2"
  param {
    lr_mult: 1
    decay_mult: 1
  }
  param {
    lr_mult: 2
    decay_mult: 0
  }
  convolution_param {
    num_output: 256
    pad: 2
    kernel_size: 5
    group: 2
    weight_filler {
      type: "gaussian"
      std: 0.01
    }
    bias_filler {
      type: "constant"
      value: 0.1
    }
  }
}
layer {
  name: "relu2"
  type: "ReLU"
  bottom: "conv2"
  top: "conv2"
}
layer {
  name: "norm2"
  type: "LRN"
  bottom: "conv2"
  top: "norm2"
  lrn_param {
    local_size: 5
    alpha: 0.0001
    beta: 0.75
  }
}
layer {
  name: "pool2"
  type: "Pooling"
  bottom: "norm2"
  top: "pool2"
  pooling_param {
    pool: MAX
    kernel_size: 3
    stride: 2
  }
}
layer {
  name: "conv3"
  type: "Convolution"
  bottom: "pool2"
  top: "conv3"
  param {
    lr_mult: 1
    decay_mult: 1
  }
  param {
    lr_mult: 2
    decay_mult: 0
  }
  convolution_param {
    num_output: 384
    pad: 1
    kernel_size: 3
    weight_filler {
      type: "gaussian"
      std: 0.01
    }
    bias_filler {
      type: "constant"
      value: 0
    }
  }
}
layer {
  name: "relu3"
  type: "ReLU"
  bottom: "conv3"
  top: "conv3"
}
layer {
  name: "conv4"
  type: "Convolution"
  bottom: "conv3"
  top: "conv4"
  param {
    lr_mult: 1
    decay_mult: 1
  }
  param {
    lr_mult: 2
    decay_mult: 0
  }
  convolution_param {
    num_output: 384
    pad: 1
    kernel_size: 3
    group: 2
    weight_filler {
      type: "gaussian"
      std: 0.01
    }
    bias_filler {
      type: "constant"
      value: 0.1
    }
  }
}
layer {
  name: "relu4"
  type: "ReLU"
  bottom: "conv4"
  top: "conv4"
}
layer {
  name: "conv5"
  type: "Convolution"
  bottom: "conv4"
  top: "conv5"
  param {
    lr_mult: 1
    decay_mult: 1
  }
  param {
    lr_mult: 2
    decay_mult: 0
  }
  convolution_param {
    num_output: 256
    pad: 1
    kernel_size: 3
    group: 2
    weight_filler {
      type: "gaussian"
      std: 0.01
    }
    bias_filler {
      type: "constant"
      value: 0.1
    }
  }
}
layer {
  name: "relu5"
  type: "ReLU"
  bottom: "conv5"
  top: "conv5"
}
layer {
  name: "pool5"
  type: "Pooling"
  bottom: "conv5"
  top: "pool5"
  pooling_param {
    pool: MAX
    kernel_size: 3
    stride: 2
  }
}
layer {
  name: "fc6"
  type: "InnerProduct"
  bottom: "pool5"
  top: "fc6"
  param {
    lr_mult: 1
    decay_mult: 1
  }
  param {
    lr_mult: 2
    decay_mult: 0
  }
  inner_product_param {
    num_output: 4096
    weight_filler {
      type: "gaussian"
      std: 0.005
    }
    bias_filler {
      type: "constant"
      value: 0.1
    }
  }
}
layer {
  name: "relu6"
  type: "ReLU"
  bottom: "fc6"
  top: "fc6"
}
layer {
  name: "drop6"
  type: "Dropout"
  bottom: "fc6"
  top: "fc6"
  dropout_param {
    dropout_ratio: 0.5
  }
}
layer {
  name: "fc7"
  type: "InnerProduct"
  bottom: "fc6"
  top: "fc7"
  param {
    lr_mult: 1
    decay_mult: 1
  }
  param {
    lr_mult: 2
    decay_mult: 0
  }
  inner_product_param {
    num_output: 4096
    weight_filler {
      type: "gaussian"
      std: 0.005
    }
    bias_filler {
      type: "constant"
      value: 0.1
    }
  }
}
layer {
  name: "relu7"
  type: "ReLU"
  bottom: "fc7"
  top: "fc7"
}
layer {
  name: "drop7"
  type: "Dropout"
  bottom: "fc7"
  top: "fc7"
  dropout_param {
    dropout_ratio: 0.5
  }
}
layer {
  name: "fc8_plantvillage"
  type: "InnerProduct"
  bottom: "fc7"
  top: "fc8_plantvillage"
  param {
    lr_mult: 1
    decay_mult: 1
  }
  param {
    lr_mult: 2
    decay_mult: 0
  }
  inner_product_param {
    num_output: 38
    weight_filler {
      type: "gaussian"
      std: 0.01
    }
    bias_filler {
      type: "constant"
      value: 0
    }
  }
}
layer {
  name: "prob"
  type: "Softmax"
  bottom: "fc8_plantvillage"
  top: "prob"
  include {
    phase: TEST
  }
}
layer {
  name: "hdf5out"
  type: "HDF5Output"
  bottom: "prob"
  bottom: "label"
  include {
    phase: TEST
  }
  hdf5_output_param {
    file_name: "hdf5_dumps/iter_219.h5"
  }
}
layer {
  name: "loss"
  type: "SoftmaxWithLoss"
  bottom: "fc8_plantvillage"
  bottom: "label"
  top: "loss"
}
layer {
  name: "accuracy"
  type: "Accuracy"
  bottom: "fc8_plantvillage"
  bottom: "label"
  top: "accuracy"
  include {
    phase: TEST
  }
}
I0403 14:29:10.566445 29865 layer_factory.hpp:77] Creating layer data
I0403 14:29:10.568094 29865 net.cpp:91] Creating Layer data
I0403 14:29:10.568150 29865 net.cpp:399] data -> data
I0403 14:29:10.568208 29865 net.cpp:399] data -> label
I0403 14:29:10.568245 29865 data_transformer.cpp:25] Loading mean file from: /home/mohanty/data/final_dataset/lmdb/segmented-40-60/mean.binaryproto
I0403 14:29:10.614207 29870 db_lmdb.cpp:38] Opened lmdb /home/mohanty/data/final_dataset/lmdb/segmented-40-60/test_db
I0403 14:29:10.638092 29865 data_layer.cpp:41] output data size: 100,3,227,227
I0403 14:29:10.774739 29865 net.cpp:141] Setting up data
I0403 14:29:10.774837 29865 net.cpp:148] Top shape: 100 3 227 227 (15458700)
I0403 14:29:10.774858 29865 net.cpp:148] Top shape: 100 (100)
I0403 14:29:10.774873 29865 net.cpp:156] Memory required for data: 61835200
I0403 14:29:10.774904 29865 layer_factory.hpp:77] Creating layer label_data_1_split
I0403 14:29:10.774931 29865 net.cpp:91] Creating Layer label_data_1_split
I0403 14:29:10.774950 29865 net.cpp:425] label_data_1_split <- label
I0403 14:29:10.774986 29865 net.cpp:399] label_data_1_split -> label_data_1_split_0
I0403 14:29:10.775013 29865 net.cpp:399] label_data_1_split -> label_data_1_split_1
I0403 14:29:10.775034 29865 net.cpp:399] label_data_1_split -> label_data_1_split_2
I0403 14:29:10.775096 29865 net.cpp:141] Setting up label_data_1_split
I0403 14:29:10.775118 29865 net.cpp:148] Top shape: 100 (100)
I0403 14:29:10.775135 29865 net.cpp:148] Top shape: 100 (100)
I0403 14:29:10.775151 29865 net.cpp:148] Top shape: 100 (100)
I0403 14:29:10.775166 29865 net.cpp:156] Memory required for data: 61836400
I0403 14:29:10.775180 29865 layer_factory.hpp:77] Creating layer conv1
I0403 14:29:10.775215 29865 net.cpp:91] Creating Layer conv1
I0403 14:29:10.775233 29865 net.cpp:425] conv1 <- data
I0403 14:29:10.775251 29865 net.cpp:399] conv1 -> conv1
I0403 14:29:10.914428 29865 net.cpp:141] Setting up conv1
I0403 14:29:10.914489 29865 net.cpp:148] Top shape: 100 96 55 55 (29040000)
I0403 14:29:10.914507 29865 net.cpp:156] Memory required for data: 177996400
I0403 14:29:10.914547 29865 layer_factory.hpp:77] Creating layer relu1
I0403 14:29:10.914582 29865 net.cpp:91] Creating Layer relu1
I0403 14:29:10.914602 29865 net.cpp:425] relu1 <- conv1
I0403 14:29:10.914623 29865 net.cpp:386] relu1 -> conv1 (in-place)
I0403 14:29:10.914965 29865 net.cpp:141] Setting up relu1
I0403 14:29:10.914993 29865 net.cpp:148] Top shape: 100 96 55 55 (29040000)
I0403 14:29:10.915042 29865 net.cpp:156] Memory required for data: 294156400
I0403 14:29:10.915060 29865 layer_factory.hpp:77] Creating layer norm1
I0403 14:29:10.915091 29865 net.cpp:91] Creating Layer norm1
I0403 14:29:10.915110 29865 net.cpp:425] norm1 <- conv1
I0403 14:29:10.915132 29865 net.cpp:399] norm1 -> norm1
I0403 14:29:10.915465 29865 net.cpp:141] Setting up norm1
I0403 14:29:10.915495 29865 net.cpp:148] Top shape: 100 96 55 55 (29040000)
I0403 14:29:10.915513 29865 net.cpp:156] Memory required for data: 410316400
I0403 14:29:10.915529 29865 layer_factory.hpp:77] Creating layer pool1
I0403 14:29:10.915558 29865 net.cpp:91] Creating Layer pool1
I0403 14:29:10.915576 29865 net.cpp:425] pool1 <- norm1
I0403 14:29:10.915599 29865 net.cpp:399] pool1 -> pool1
I0403 14:29:10.915674 29865 net.cpp:141] Setting up pool1
I0403 14:29:10.915699 29865 net.cpp:148] Top shape: 100 96 27 27 (6998400)
I0403 14:29:10.915714 29865 net.cpp:156] Memory required for data: 438310000
I0403 14:29:10.915735 29865 layer_factory.hpp:77] Creating layer conv2
I0403 14:29:10.915762 29865 net.cpp:91] Creating Layer conv2
I0403 14:29:10.915784 29865 net.cpp:425] conv2 <- pool1
I0403 14:29:10.915803 29865 net.cpp:399] conv2 -> conv2
I0403 14:29:10.931594 29865 net.cpp:141] Setting up conv2
I0403 14:29:10.931632 29865 net.cpp:148] Top shape: 100 256 27 27 (18662400)
I0403 14:29:10.931651 29865 net.cpp:156] Memory required for data: 512959600
I0403 14:29:10.931674 29865 layer_factory.hpp:77] Creating layer relu2
I0403 14:29:10.931699 29865 net.cpp:91] Creating Layer relu2
I0403 14:29:10.931718 29865 net.cpp:425] relu2 <- conv2
I0403 14:29:10.931740 29865 net.cpp:386] relu2 -> conv2 (in-place)
I0403 14:29:10.932019 29865 net.cpp:141] Setting up relu2
I0403 14:29:10.932046 29865 net.cpp:148] Top shape: 100 256 27 27 (18662400)
I0403 14:29:10.932063 29865 net.cpp:156] Memory required for data: 587609200
I0403 14:29:10.932080 29865 layer_factory.hpp:77] Creating layer norm2
I0403 14:29:10.932103 29865 net.cpp:91] Creating Layer norm2
I0403 14:29:10.932126 29865 net.cpp:425] norm2 <- conv2
I0403 14:29:10.932143 29865 net.cpp:399] norm2 -> norm2
I0403 14:29:10.932342 29865 net.cpp:141] Setting up norm2
I0403 14:29:10.932370 29865 net.cpp:148] Top shape: 100 256 27 27 (18662400)
I0403 14:29:10.932386 29865 net.cpp:156] Memory required for data: 662258800
I0403 14:29:10.932402 29865 layer_factory.hpp:77] Creating layer pool2
I0403 14:29:10.932420 29865 net.cpp:91] Creating Layer pool2
I0403 14:29:10.932436 29865 net.cpp:425] pool2 <- norm2
I0403 14:29:10.932457 29865 net.cpp:399] pool2 -> pool2
I0403 14:29:10.932510 29865 net.cpp:141] Setting up pool2
I0403 14:29:10.932538 29865 net.cpp:148] Top shape: 100 256 13 13 (4326400)
I0403 14:29:10.932555 29865 net.cpp:156] Memory required for data: 679564400
I0403 14:29:10.932570 29865 layer_factory.hpp:77] Creating layer conv3
I0403 14:29:10.932595 29865 net.cpp:91] Creating Layer conv3
I0403 14:29:10.932613 29865 net.cpp:425] conv3 <- pool2
I0403 14:29:10.932634 29865 net.cpp:399] conv3 -> conv3
I0403 14:29:10.972411 29865 net.cpp:141] Setting up conv3
I0403 14:29:10.972455 29865 net.cpp:148] Top shape: 100 384 13 13 (6489600)
I0403 14:29:10.972472 29865 net.cpp:156] Memory required for data: 705522800
I0403 14:29:10.972498 29865 layer_factory.hpp:77] Creating layer relu3
I0403 14:29:10.972519 29865 net.cpp:91] Creating Layer relu3
I0403 14:29:10.972540 29865 net.cpp:425] relu3 <- conv3
I0403 14:29:10.972560 29865 net.cpp:386] relu3 -> conv3 (in-place)
I0403 14:29:10.972839 29865 net.cpp:141] Setting up relu3
I0403 14:29:10.972868 29865 net.cpp:148] Top shape: 100 384 13 13 (6489600)
I0403 14:29:10.972885 29865 net.cpp:156] Memory required for data: 731481200
I0403 14:29:10.972903 29865 layer_factory.hpp:77] Creating layer conv4
I0403 14:29:10.972929 29865 net.cpp:91] Creating Layer conv4
I0403 14:29:10.972946 29865 net.cpp:425] conv4 <- conv3
I0403 14:29:10.972968 29865 net.cpp:399] conv4 -> conv4
I0403 14:29:11.004757 29865 net.cpp:141] Setting up conv4
I0403 14:29:11.004804 29865 net.cpp:148] Top shape: 100 384 13 13 (6489600)
I0403 14:29:11.004861 29865 net.cpp:156] Memory required for data: 757439600
I0403 14:29:11.004884 29865 layer_factory.hpp:77] Creating layer relu4
I0403 14:29:11.004904 29865 net.cpp:91] Creating Layer relu4
I0403 14:29:11.004922 29865 net.cpp:425] relu4 <- conv4
I0403 14:29:11.004941 29865 net.cpp:386] relu4 -> conv4 (in-place)
I0403 14:29:11.005223 29865 net.cpp:141] Setting up relu4
I0403 14:29:11.005249 29865 net.cpp:148] Top shape: 100 384 13 13 (6489600)
I0403 14:29:11.005270 29865 net.cpp:156] Memory required for data: 783398000
I0403 14:29:11.005285 29865 layer_factory.hpp:77] Creating layer conv5
I0403 14:29:11.005379 29865 net.cpp:91] Creating Layer conv5
I0403 14:29:11.005401 29865 net.cpp:425] conv5 <- conv4
I0403 14:29:11.005424 29865 net.cpp:399] conv5 -> conv5
I0403 14:29:11.027097 29865 net.cpp:141] Setting up conv5
I0403 14:29:11.027132 29865 net.cpp:148] Top shape: 100 256 13 13 (4326400)
I0403 14:29:11.027148 29865 net.cpp:156] Memory required for data: 800703600
I0403 14:29:11.027176 29865 layer_factory.hpp:77] Creating layer relu5
I0403 14:29:11.027197 29865 net.cpp:91] Creating Layer relu5
I0403 14:29:11.027214 29865 net.cpp:425] relu5 <- conv5
I0403 14:29:11.027235 29865 net.cpp:386] relu5 -> conv5 (in-place)
I0403 14:29:11.027518 29865 net.cpp:141] Setting up relu5
I0403 14:29:11.027551 29865 net.cpp:148] Top shape: 100 256 13 13 (4326400)
I0403 14:29:11.027570 29865 net.cpp:156] Memory required for data: 818009200
I0403 14:29:11.027585 29865 layer_factory.hpp:77] Creating layer pool5
I0403 14:29:11.027609 29865 net.cpp:91] Creating Layer pool5
I0403 14:29:11.027626 29865 net.cpp:425] pool5 <- conv5
I0403 14:29:11.027649 29865 net.cpp:399] pool5 -> pool5
I0403 14:29:11.027712 29865 net.cpp:141] Setting up pool5
I0403 14:29:11.027740 29865 net.cpp:148] Top shape: 100 256 6 6 (921600)
I0403 14:29:11.027756 29865 net.cpp:156] Memory required for data: 821695600
I0403 14:29:11.027771 29865 layer_factory.hpp:77] Creating layer fc6
I0403 14:29:11.027801 29865 net.cpp:91] Creating Layer fc6
I0403 14:29:11.027819 29865 net.cpp:425] fc6 <- pool5
I0403 14:29:11.027842 29865 net.cpp:399] fc6 -> fc6
I0403 14:29:12.538393 29865 net.cpp:141] Setting up fc6
I0403 14:29:12.538471 29865 net.cpp:148] Top shape: 100 4096 (409600)
I0403 14:29:12.538489 29865 net.cpp:156] Memory required for data: 823334000
I0403 14:29:12.538512 29865 layer_factory.hpp:77] Creating layer relu6
I0403 14:29:12.538540 29865 net.cpp:91] Creating Layer relu6
I0403 14:29:12.538558 29865 net.cpp:425] relu6 <- fc6
I0403 14:29:12.538579 29865 net.cpp:386] relu6 -> fc6 (in-place)
I0403 14:29:12.538821 29865 net.cpp:141] Setting up relu6
I0403 14:29:12.538846 29865 net.cpp:148] Top shape: 100 4096 (409600)
I0403 14:29:12.538861 29865 net.cpp:156] Memory required for data: 824972400
I0403 14:29:12.538877 29865 layer_factory.hpp:77] Creating layer drop6
I0403 14:29:12.538894 29865 net.cpp:91] Creating Layer drop6
I0403 14:29:12.538910 29865 net.cpp:425] drop6 <- fc6
I0403 14:29:12.538930 29865 net.cpp:386] drop6 -> fc6 (in-place)
I0403 14:29:12.538983 29865 net.cpp:141] Setting up drop6
I0403 14:29:12.539005 29865 net.cpp:148] Top shape: 100 4096 (409600)
I0403 14:29:12.539021 29865 net.cpp:156] Memory required for data: 826610800
I0403 14:29:12.539034 29865 layer_factory.hpp:77] Creating layer fc7
I0403 14:29:12.539057 29865 net.cpp:91] Creating Layer fc7
I0403 14:29:12.539072 29865 net.cpp:425] fc7 <- fc6
I0403 14:29:12.539091 29865 net.cpp:399] fc7 -> fc7
I0403 14:29:13.200878 29865 net.cpp:141] Setting up fc7
I0403 14:29:13.200971 29865 net.cpp:148] Top shape: 100 4096 (409600)
I0403 14:29:13.200987 29865 net.cpp:156] Memory required for data: 828249200
I0403 14:29:13.201009 29865 layer_factory.hpp:77] Creating layer relu7
I0403 14:29:13.201037 29865 net.cpp:91] Creating Layer relu7
I0403 14:29:13.201056 29865 net.cpp:425] relu7 <- fc7
I0403 14:29:13.201074 29865 net.cpp:386] relu7 -> fc7 (in-place)
I0403 14:29:13.201514 29865 net.cpp:141] Setting up relu7
I0403 14:29:13.201546 29865 net.cpp:148] Top shape: 100 4096 (409600)
I0403 14:29:13.201598 29865 net.cpp:156] Memory required for data: 829887600
I0403 14:29:13.201616 29865 layer_factory.hpp:77] Creating layer drop7
I0403 14:29:13.201634 29865 net.cpp:91] Creating Layer drop7
I0403 14:29:13.201663 29865 net.cpp:425] drop7 <- fc7
I0403 14:29:13.201679 29865 net.cpp:386] drop7 -> fc7 (in-place)
I0403 14:29:13.201722 29865 net.cpp:141] Setting up drop7
I0403 14:29:13.201745 29865 net.cpp:148] Top shape: 100 4096 (409600)
I0403 14:29:13.201759 29865 net.cpp:156] Memory required for data: 831526000
I0403 14:29:13.201774 29865 layer_factory.hpp:77] Creating layer fc8_plantvillage
I0403 14:29:13.201797 29865 net.cpp:91] Creating Layer fc8_plantvillage
I0403 14:29:13.201813 29865 net.cpp:425] fc8_plantvillage <- fc7
I0403 14:29:13.201831 29865 net.cpp:399] fc8_plantvillage -> fc8_plantvillage
I0403 14:29:13.208266 29865 net.cpp:141] Setting up fc8_plantvillage
I0403 14:29:13.208292 29865 net.cpp:148] Top shape: 100 38 (3800)
I0403 14:29:13.208307 29865 net.cpp:156] Memory required for data: 831541200
I0403 14:29:13.208323 29865 layer_factory.hpp:77] Creating layer fc8_plantvillage_fc8_plantvillage_0_split
I0403 14:29:13.208341 29865 net.cpp:91] Creating Layer fc8_plantvillage_fc8_plantvillage_0_split
I0403 14:29:13.208369 29865 net.cpp:425] fc8_plantvillage_fc8_plantvillage_0_split <- fc8_plantvillage
I0403 14:29:13.208389 29865 net.cpp:399] fc8_plantvillage_fc8_plantvillage_0_split -> fc8_plantvillage_fc8_plantvillage_0_split_0
I0403 14:29:13.208410 29865 net.cpp:399] fc8_plantvillage_fc8_plantvillage_0_split -> fc8_plantvillage_fc8_plantvillage_0_split_1
I0403 14:29:13.208430 29865 net.cpp:399] fc8_plantvillage_fc8_plantvillage_0_split -> fc8_plantvillage_fc8_plantvillage_0_split_2
I0403 14:29:13.208505 29865 net.cpp:141] Setting up fc8_plantvillage_fc8_plantvillage_0_split
I0403 14:29:13.208528 29865 net.cpp:148] Top shape: 100 38 (3800)
I0403 14:29:13.208549 29865 net.cpp:148] Top shape: 100 38 (3800)
I0403 14:29:13.208565 29865 net.cpp:148] Top shape: 100 38 (3800)
I0403 14:29:13.208580 29865 net.cpp:156] Memory required for data: 831586800
I0403 14:29:13.208595 29865 layer_factory.hpp:77] Creating layer prob
I0403 14:29:13.208616 29865 net.cpp:91] Creating Layer prob
I0403 14:29:13.208631 29865 net.cpp:425] prob <- fc8_plantvillage_fc8_plantvillage_0_split_0
I0403 14:29:13.208660 29865 net.cpp:399] prob -> prob
I0403 14:29:13.208871 29865 net.cpp:141] Setting up prob
I0403 14:29:13.208899 29865 net.cpp:148] Top shape: 100 38 (3800)
I0403 14:29:13.208915 29865 net.cpp:156] Memory required for data: 831602000
I0403 14:29:13.208930 29865 layer_factory.hpp:77] Creating layer hdf5out
I0403 14:29:13.208948 29865 net.cpp:91] Creating Layer hdf5out
I0403 14:29:13.208971 29865 net.cpp:425] hdf5out <- prob
I0403 14:29:13.208986 29865 net.cpp:425] hdf5out <- label_data_1_split_0
I0403 14:29:13.220098 29865 net.cpp:141] Setting up hdf5out
…
