…
I0403 14:35:46.000264 30006 net.cpp:313] The NetState phase (1) differed from the phase (0) specified by a rule in layer data
I0403 14:35:46.001029 30006 net.cpp:49] Initializing net from parameters: 
state {
  phase: TEST
}
layer {
  name: "data"
  type: "Data"
  top: "data"
  top: "label"
  include {
    phase: TEST
  }
  transform_param {
    crop_size: 227
    mean_file: "/home/mohanty/data/final_dataset/lmdb/segmented-40-60/mean.binaryproto"
  }
  data_param {
    source: "/home/mohanty/data/final_dataset/lmdb/segmented-40-60/test_db"
    batch_size: 100
    backend: LMDB
  }
}
layer {
  name: "conv1"
  type: "Convolution"
  bottom: "data"
  top: "conv1"
  param {
    lr_mult: 1
    decay_mult: 1
  }
  param {
    lr_mult: 2
    decay_mult: 0
  }
  convolution_param {
    num_output: 96
    kernel_size: 11
    stride: 4
    weight_filler {
      type: "gaussian"
      std: 0.01
    }
    bias_filler {
      type: "constant"
      value: 0
    }
  }
}
layer {
  name: "relu1"
  type: "ReLU"
  bottom: "conv1"
  top: "conv1"
}
layer {
  name: "norm1"
  type: "LRN"
  bottom: "conv1"
  top: "norm1"
  lrn_param {
    local_size: 5
    alpha: 0.0001
    beta: 0.75
  }
}
layer {
  name: "pool1"
  type: "Pooling"
  bottom: "norm1"
  top: "pool1"
  pooling_param {
    pool: MAX
    kernel_size: 3
    stride: 2
  }
}
layer {
  name: "conv2"
  type: "Convolution"
  bottom: "pool1"
  top: "conv2"
  param {
    lr_mult: 1
    decay_mult: 1
  }
  param {
    lr_mult: 2
    decay_mult: 0
  }
  convolution_param {
    num_output: 256
    pad: 2
    kernel_size: 5
    group: 2
    weight_filler {
      type: "gaussian"
      std: 0.01
    }
    bias_filler {
      type: "constant"
      value: 0.1
    }
  }
}
layer {
  name: "relu2"
  type: "ReLU"
  bottom: "conv2"
  top: "conv2"
}
layer {
  name: "norm2"
  type: "LRN"
  bottom: "conv2"
  top: "norm2"
  lrn_param {
    local_size: 5
    alpha: 0.0001
    beta: 0.75
  }
}
layer {
  name: "pool2"
  type: "Pooling"
  bottom: "norm2"
  top: "pool2"
  pooling_param {
    pool: MAX
    kernel_size: 3
    stride: 2
  }
}
layer {
  name: "conv3"
  type: "Convolution"
  bottom: "pool2"
  top: "conv3"
  param {
    lr_mult: 1
    decay_mult: 1
  }
  param {
    lr_mult: 2
    decay_mult: 0
  }
  convolution_param {
    num_output: 384
    pad: 1
    kernel_size: 3
    weight_filler {
      type: "gaussian"
      std: 0.01
    }
    bias_filler {
      type: "constant"
      value: 0
    }
  }
}
layer {
  name: "relu3"
  type: "ReLU"
  bottom: "conv3"
  top: "conv3"
}
layer {
  name: "conv4"
  type: "Convolution"
  bottom: "conv3"
  top: "conv4"
  param {
    lr_mult: 1
    decay_mult: 1
  }
  param {
    lr_mult: 2
    decay_mult: 0
  }
  convolution_param {
    num_output: 384
    pad: 1
    kernel_size: 3
    group: 2
    weight_filler {
      type: "gaussian"
      std: 0.01
    }
    bias_filler {
      type: "constant"
      value: 0.1
    }
  }
}
layer {
  name: "relu4"
  type: "ReLU"
  bottom: "conv4"
  top: "conv4"
}
layer {
  name: "conv5"
  type: "Convolution"
  bottom: "conv4"
  top: "conv5"
  param {
    lr_mult: 1
    decay_mult: 1
  }
  param {
    lr_mult: 2
    decay_mult: 0
  }
  convolution_param {
    num_output: 256
    pad: 1
    kernel_size: 3
    group: 2
    weight_filler {
      type: "gaussian"
      std: 0.01
    }
    bias_filler {
      type: "constant"
      value: 0.1
    }
  }
}
layer {
  name: "relu5"
  type: "ReLU"
  bottom: "conv5"
  top: "conv5"
}
layer {
  name: "pool5"
  type: "Pooling"
  bottom: "conv5"
  top: "pool5"
  pooling_param {
    pool: MAX
    kernel_size: 3
    stride: 2
  }
}
layer {
  name: "fc6"
  type: "InnerProduct"
  bottom: "pool5"
  top: "fc6"
  param {
    lr_mult: 1
    decay_mult: 1
  }
  param {
    lr_mult: 2
    decay_mult: 0
  }
  inner_product_param {
    num_output: 4096
    weight_filler {
      type: "gaussian"
      std: 0.005
    }
    bias_filler {
      type: "constant"
      value: 0.1
    }
  }
}
layer {
  name: "relu6"
  type: "ReLU"
  bottom: "fc6"
  top: "fc6"
}
layer {
  name: "drop6"
  type: "Dropout"
  bottom: "fc6"
  top: "fc6"
  dropout_param {
    dropout_ratio: 0.5
  }
}
layer {
  name: "fc7"
  type: "InnerProduct"
  bottom: "fc6"
  top: "fc7"
  param {
    lr_mult: 1
    decay_mult: 1
  }
  param {
    lr_mult: 2
    decay_mult: 0
  }
  inner_product_param {
    num_output: 4096
    weight_filler {
      type: "gaussian"
      std: 0.005
    }
    bias_filler {
      type: "constant"
      value: 0.1
    }
  }
}
layer {
  name: "relu7"
  type: "ReLU"
  bottom: "fc7"
  top: "fc7"
}
layer {
  name: "drop7"
  type: "Dropout"
  bottom: "fc7"
  top: "fc7"
  dropout_param {
    dropout_ratio: 0.5
  }
}
layer {
  name: "fc8_plantvillage"
  type: "InnerProduct"
  bottom: "fc7"
  top: "fc8_plantvillage"
  param {
    lr_mult: 1
    decay_mult: 1
  }
  param {
    lr_mult: 2
    decay_mult: 0
  }
  inner_product_param {
    num_output: 38
    weight_filler {
      type: "gaussian"
      std: 0.01
    }
    bias_filler {
      type: "constant"
      value: 0
    }
  }
}
layer {
  name: "prob"
  type: "Softmax"
  bottom: "fc8_plantvillage"
  top: "prob"
  include {
    phase: TEST
  }
}
layer {
  name: "hdf5out"
  type: "HDF5Output"
  bottom: "prob"
  bottom: "label"
  include {
    phase: TEST
  }
  hdf5_output_param {
    file_name: "hdf5_dumps/iter_1752.h5"
  }
}
layer {
  name: "loss"
  type: "SoftmaxWithLoss"
  bottom: "fc8_plantvillage"
  bottom: "label"
  top: "loss"
}
layer {
  name: "accuracy"
  type: "Accuracy"
  bottom: "fc8_plantvillage"
  bottom: "label"
  top: "accuracy"
  include {
    phase: TEST
  }
}
I0403 14:35:46.002055 30006 layer_factory.hpp:77] Creating layer data
I0403 14:35:46.003687 30006 net.cpp:91] Creating Layer data
I0403 14:35:46.003768 30006 net.cpp:399] data -> data
I0403 14:35:46.003892 30006 net.cpp:399] data -> label
I0403 14:35:46.003981 30006 data_transformer.cpp:25] Loading mean file from: /home/mohanty/data/final_dataset/lmdb/segmented-40-60/mean.binaryproto
I0403 14:35:46.075947 30008 db_lmdb.cpp:38] Opened lmdb /home/mohanty/data/final_dataset/lmdb/segmented-40-60/test_db
I0403 14:35:46.084007 30006 data_layer.cpp:41] output data size: 100,3,227,227
I0403 14:35:46.198459 30006 net.cpp:141] Setting up data
I0403 14:35:46.198567 30006 net.cpp:148] Top shape: 100 3 227 227 (15458700)
I0403 14:35:46.198590 30006 net.cpp:148] Top shape: 100 (100)
I0403 14:35:46.198606 30006 net.cpp:156] Memory required for data: 61835200
I0403 14:35:46.198637 30006 layer_factory.hpp:77] Creating layer label_data_1_split
I0403 14:35:46.198663 30006 net.cpp:91] Creating Layer label_data_1_split
I0403 14:35:46.198683 30006 net.cpp:425] label_data_1_split <- label
I0403 14:35:46.198719 30006 net.cpp:399] label_data_1_split -> label_data_1_split_0
I0403 14:35:46.198747 30006 net.cpp:399] label_data_1_split -> label_data_1_split_1
I0403 14:35:46.198767 30006 net.cpp:399] label_data_1_split -> label_data_1_split_2
I0403 14:35:46.198830 30006 net.cpp:141] Setting up label_data_1_split
I0403 14:35:46.198854 30006 net.cpp:148] Top shape: 100 (100)
I0403 14:35:46.198870 30006 net.cpp:148] Top shape: 100 (100)
I0403 14:35:46.198887 30006 net.cpp:148] Top shape: 100 (100)
I0403 14:35:46.198904 30006 net.cpp:156] Memory required for data: 61836400
I0403 14:35:46.198918 30006 layer_factory.hpp:77] Creating layer conv1
I0403 14:35:46.198957 30006 net.cpp:91] Creating Layer conv1
I0403 14:35:46.198976 30006 net.cpp:425] conv1 <- data
I0403 14:35:46.198997 30006 net.cpp:399] conv1 -> conv1
I0403 14:35:46.332655 30006 net.cpp:141] Setting up conv1
I0403 14:35:46.332749 30006 net.cpp:148] Top shape: 100 96 55 55 (29040000)
I0403 14:35:46.332765 30006 net.cpp:156] Memory required for data: 177996400
I0403 14:35:46.332799 30006 layer_factory.hpp:77] Creating layer relu1
I0403 14:35:46.332828 30006 net.cpp:91] Creating Layer relu1
I0403 14:35:46.332844 30006 net.cpp:425] relu1 <- conv1
I0403 14:35:46.332864 30006 net.cpp:386] relu1 -> conv1 (in-place)
I0403 14:35:46.333117 30006 net.cpp:141] Setting up relu1
I0403 14:35:46.333142 30006 net.cpp:148] Top shape: 100 96 55 55 (29040000)
I0403 14:35:46.333231 30006 net.cpp:156] Memory required for data: 294156400
I0403 14:35:46.333248 30006 layer_factory.hpp:77] Creating layer norm1
I0403 14:35:46.333277 30006 net.cpp:91] Creating Layer norm1
I0403 14:35:46.333297 30006 net.cpp:425] norm1 <- conv1
I0403 14:35:46.333314 30006 net.cpp:399] norm1 -> norm1
I0403 14:35:46.333626 30006 net.cpp:141] Setting up norm1
I0403 14:35:46.333653 30006 net.cpp:148] Top shape: 100 96 55 55 (29040000)
I0403 14:35:46.333669 30006 net.cpp:156] Memory required for data: 410316400
I0403 14:35:46.333683 30006 layer_factory.hpp:77] Creating layer pool1
I0403 14:35:46.333708 30006 net.cpp:91] Creating Layer pool1
I0403 14:35:46.333724 30006 net.cpp:425] pool1 <- norm1
I0403 14:35:46.333741 30006 net.cpp:399] pool1 -> pool1
I0403 14:35:46.333808 30006 net.cpp:141] Setting up pool1
I0403 14:35:46.333832 30006 net.cpp:148] Top shape: 100 96 27 27 (6998400)
I0403 14:35:46.333847 30006 net.cpp:156] Memory required for data: 438310000
I0403 14:35:46.333860 30006 layer_factory.hpp:77] Creating layer conv2
I0403 14:35:46.333886 30006 net.cpp:91] Creating Layer conv2
I0403 14:35:46.333901 30006 net.cpp:425] conv2 <- pool1
I0403 14:35:46.333920 30006 net.cpp:399] conv2 -> conv2
I0403 14:35:46.348173 30006 net.cpp:141] Setting up conv2
I0403 14:35:46.348215 30006 net.cpp:148] Top shape: 100 256 27 27 (18662400)
I0403 14:35:46.348232 30006 net.cpp:156] Memory required for data: 512959600
I0403 14:35:46.348253 30006 layer_factory.hpp:77] Creating layer relu2
I0403 14:35:46.348271 30006 net.cpp:91] Creating Layer relu2
I0403 14:35:46.348286 30006 net.cpp:425] relu2 <- conv2
I0403 14:35:46.348305 30006 net.cpp:386] relu2 -> conv2 (in-place)
I0403 14:35:46.348577 30006 net.cpp:141] Setting up relu2
I0403 14:35:46.348603 30006 net.cpp:148] Top shape: 100 256 27 27 (18662400)
I0403 14:35:46.348639 30006 net.cpp:156] Memory required for data: 587609200
I0403 14:35:46.348655 30006 layer_factory.hpp:77] Creating layer norm2
I0403 14:35:46.348677 30006 net.cpp:91] Creating Layer norm2
I0403 14:35:46.348693 30006 net.cpp:425] norm2 <- conv2
I0403 14:35:46.348711 30006 net.cpp:399] norm2 -> norm2
I0403 14:35:46.348897 30006 net.cpp:141] Setting up norm2
I0403 14:35:46.348924 30006 net.cpp:148] Top shape: 100 256 27 27 (18662400)
I0403 14:35:46.348939 30006 net.cpp:156] Memory required for data: 662258800
I0403 14:35:46.348953 30006 layer_factory.hpp:77] Creating layer pool2
I0403 14:35:46.348970 30006 net.cpp:91] Creating Layer pool2
I0403 14:35:46.348985 30006 net.cpp:425] pool2 <- norm2
I0403 14:35:46.349004 30006 net.cpp:399] pool2 -> pool2
I0403 14:35:46.349053 30006 net.cpp:141] Setting up pool2
I0403 14:35:46.349076 30006 net.cpp:148] Top shape: 100 256 13 13 (4326400)
I0403 14:35:46.349089 30006 net.cpp:156] Memory required for data: 679564400
I0403 14:35:46.349104 30006 layer_factory.hpp:77] Creating layer conv3
I0403 14:35:46.349126 30006 net.cpp:91] Creating Layer conv3
I0403 14:35:46.349143 30006 net.cpp:425] conv3 <- pool2
I0403 14:35:46.349162 30006 net.cpp:399] conv3 -> conv3
I0403 14:35:46.385148 30006 net.cpp:141] Setting up conv3
I0403 14:35:46.385197 30006 net.cpp:148] Top shape: 100 384 13 13 (6489600)
I0403 14:35:46.385213 30006 net.cpp:156] Memory required for data: 705522800
I0403 14:35:46.385237 30006 layer_factory.hpp:77] Creating layer relu3
I0403 14:35:46.385258 30006 net.cpp:91] Creating Layer relu3
I0403 14:35:46.385274 30006 net.cpp:425] relu3 <- conv3
I0403 14:35:46.385293 30006 net.cpp:386] relu3 -> conv3 (in-place)
I0403 14:35:46.385573 30006 net.cpp:141] Setting up relu3
I0403 14:35:46.385599 30006 net.cpp:148] Top shape: 100 384 13 13 (6489600)
I0403 14:35:46.385614 30006 net.cpp:156] Memory required for data: 731481200
I0403 14:35:46.385629 30006 layer_factory.hpp:77] Creating layer conv4
I0403 14:35:46.385653 30006 net.cpp:91] Creating Layer conv4
I0403 14:35:46.385669 30006 net.cpp:425] conv4 <- conv3
I0403 14:35:46.385690 30006 net.cpp:399] conv4 -> conv4
I0403 14:35:46.413622 30006 net.cpp:141] Setting up conv4
I0403 14:35:46.413681 30006 net.cpp:148] Top shape: 100 384 13 13 (6489600)
I0403 14:35:46.413743 30006 net.cpp:156] Memory required for data: 757439600
I0403 14:35:46.413764 30006 layer_factory.hpp:77] Creating layer relu4
I0403 14:35:46.413784 30006 net.cpp:91] Creating Layer relu4
I0403 14:35:46.413800 30006 net.cpp:425] relu4 <- conv4
I0403 14:35:46.413817 30006 net.cpp:386] relu4 -> conv4 (in-place)
I0403 14:35:46.414111 30006 net.cpp:141] Setting up relu4
I0403 14:35:46.414139 30006 net.cpp:148] Top shape: 100 384 13 13 (6489600)
I0403 14:35:46.414155 30006 net.cpp:156] Memory required for data: 783398000
I0403 14:35:46.414170 30006 layer_factory.hpp:77] Creating layer conv5
I0403 14:35:46.414191 30006 net.cpp:91] Creating Layer conv5
I0403 14:35:46.414207 30006 net.cpp:425] conv5 <- conv4
I0403 14:35:46.414229 30006 net.cpp:399] conv5 -> conv5
I0403 14:35:46.433415 30006 net.cpp:141] Setting up conv5
I0403 14:35:46.433447 30006 net.cpp:148] Top shape: 100 256 13 13 (4326400)
I0403 14:35:46.433462 30006 net.cpp:156] Memory required for data: 800703600
I0403 14:35:46.433488 30006 layer_factory.hpp:77] Creating layer relu5
I0403 14:35:46.433508 30006 net.cpp:91] Creating Layer relu5
I0403 14:35:46.433526 30006 net.cpp:425] relu5 <- conv5
I0403 14:35:46.433557 30006 net.cpp:386] relu5 -> conv5 (in-place)
I0403 14:35:46.433825 30006 net.cpp:141] Setting up relu5
I0403 14:35:46.433853 30006 net.cpp:148] Top shape: 100 256 13 13 (4326400)
I0403 14:35:46.433869 30006 net.cpp:156] Memory required for data: 818009200
I0403 14:35:46.433886 30006 layer_factory.hpp:77] Creating layer pool5
I0403 14:35:46.433907 30006 net.cpp:91] Creating Layer pool5
I0403 14:35:46.433929 30006 net.cpp:425] pool5 <- conv5
I0403 14:35:46.433948 30006 net.cpp:399] pool5 -> pool5
I0403 14:35:46.434005 30006 net.cpp:141] Setting up pool5
I0403 14:35:46.434029 30006 net.cpp:148] Top shape: 100 256 6 6 (921600)
I0403 14:35:46.434044 30006 net.cpp:156] Memory required for data: 821695600
I0403 14:35:46.434058 30006 layer_factory.hpp:77] Creating layer fc6
I0403 14:35:46.434087 30006 net.cpp:91] Creating Layer fc6
I0403 14:35:46.434103 30006 net.cpp:425] fc6 <- pool5
I0403 14:35:46.434123 30006 net.cpp:399] fc6 -> fc6
I0403 14:35:47.926729 30006 net.cpp:141] Setting up fc6
I0403 14:35:47.926805 30006 net.cpp:148] Top shape: 100 4096 (409600)
I0403 14:35:47.926821 30006 net.cpp:156] Memory required for data: 823334000
I0403 14:35:47.926846 30006 layer_factory.hpp:77] Creating layer relu6
I0403 14:35:47.926868 30006 net.cpp:91] Creating Layer relu6
I0403 14:35:47.926885 30006 net.cpp:425] relu6 <- fc6
I0403 14:35:47.926905 30006 net.cpp:386] relu6 -> fc6 (in-place)
I0403 14:35:47.927124 30006 net.cpp:141] Setting up relu6
I0403 14:35:47.927150 30006 net.cpp:148] Top shape: 100 4096 (409600)
I0403 14:35:47.927165 30006 net.cpp:156] Memory required for data: 824972400
I0403 14:35:47.927186 30006 layer_factory.hpp:77] Creating layer drop6
I0403 14:35:47.927203 30006 net.cpp:91] Creating Layer drop6
I0403 14:35:47.927218 30006 net.cpp:425] drop6 <- fc6
I0403 14:35:47.927237 30006 net.cpp:386] drop6 -> fc6 (in-place)
I0403 14:35:47.927289 30006 net.cpp:141] Setting up drop6
I0403 14:35:47.927309 30006 net.cpp:148] Top shape: 100 4096 (409600)
I0403 14:35:47.927323 30006 net.cpp:156] Memory required for data: 826610800
I0403 14:35:47.927337 30006 layer_factory.hpp:77] Creating layer fc7
I0403 14:35:47.927361 30006 net.cpp:91] Creating Layer fc7
I0403 14:35:47.927376 30006 net.cpp:425] fc7 <- fc6
I0403 14:35:47.927395 30006 net.cpp:399] fc7 -> fc7
I0403 14:35:48.579104 30006 net.cpp:141] Setting up fc7
I0403 14:35:48.579197 30006 net.cpp:148] Top shape: 100 4096 (409600)
I0403 14:35:48.579213 30006 net.cpp:156] Memory required for data: 828249200
I0403 14:35:48.579234 30006 layer_factory.hpp:77] Creating layer relu7
I0403 14:35:48.579258 30006 net.cpp:91] Creating Layer relu7
I0403 14:35:48.579274 30006 net.cpp:425] relu7 <- fc7
I0403 14:35:48.579294 30006 net.cpp:386] relu7 -> fc7 (in-place)
I0403 14:35:48.579711 30006 net.cpp:141] Setting up relu7
I0403 14:35:48.579738 30006 net.cpp:148] Top shape: 100 4096 (409600)
I0403 14:35:48.579792 30006 net.cpp:156] Memory required for data: 829887600
I0403 14:35:48.579808 30006 layer_factory.hpp:77] Creating layer drop7
I0403 14:35:48.579826 30006 net.cpp:91] Creating Layer drop7
I0403 14:35:48.579841 30006 net.cpp:425] drop7 <- fc7
I0403 14:35:48.579857 30006 net.cpp:386] drop7 -> fc7 (in-place)
I0403 14:35:48.579901 30006 net.cpp:141] Setting up drop7
I0403 14:35:48.579922 30006 net.cpp:148] Top shape: 100 4096 (409600)
I0403 14:35:48.579936 30006 net.cpp:156] Memory required for data: 831526000
I0403 14:35:48.579949 30006 layer_factory.hpp:77] Creating layer fc8_plantvillage
I0403 14:35:48.579972 30006 net.cpp:91] Creating Layer fc8_plantvillage
I0403 14:35:48.579987 30006 net.cpp:425] fc8_plantvillage <- fc7
I0403 14:35:48.580003 30006 net.cpp:399] fc8_plantvillage -> fc8_plantvillage
I0403 14:35:48.586405 30006 net.cpp:141] Setting up fc8_plantvillage
I0403 14:35:48.586433 30006 net.cpp:148] Top shape: 100 38 (3800)
I0403 14:35:48.586448 30006 net.cpp:156] Memory required for data: 831541200
I0403 14:35:48.586465 30006 layer_factory.hpp:77] Creating layer fc8_plantvillage_fc8_plantvillage_0_split
I0403 14:35:48.586483 30006 net.cpp:91] Creating Layer fc8_plantvillage_fc8_plantvillage_0_split
I0403 14:35:48.586498 30006 net.cpp:425] fc8_plantvillage_fc8_plantvillage_0_split <- fc8_plantvillage
I0403 14:35:48.586518 30006 net.cpp:399] fc8_plantvillage_fc8_plantvillage_0_split -> fc8_plantvillage_fc8_plantvillage_0_split_0
I0403 14:35:48.586546 30006 net.cpp:399] fc8_plantvillage_fc8_plantvillage_0_split -> fc8_plantvillage_fc8_plantvillage_0_split_1
I0403 14:35:48.586575 30006 net.cpp:399] fc8_plantvillage_fc8_plantvillage_0_split -> fc8_plantvillage_fc8_plantvillage_0_split_2
I0403 14:35:48.586650 30006 net.cpp:141] Setting up fc8_plantvillage_fc8_plantvillage_0_split
I0403 14:35:48.586673 30006 net.cpp:148] Top shape: 100 38 (3800)
I0403 14:35:48.586688 30006 net.cpp:148] Top shape: 100 38 (3800)
I0403 14:35:48.586704 30006 net.cpp:148] Top shape: 100 38 (3800)
I0403 14:35:48.586716 30006 net.cpp:156] Memory required for data: 831586800
I0403 14:35:48.586730 30006 layer_factory.hpp:77] Creating layer prob
I0403 14:35:48.586750 30006 net.cpp:91] Creating Layer prob
I0403 14:35:48.586766 30006 net.cpp:425] prob <- fc8_plantvillage_fc8_plantvillage_0_split_0
I0403 14:35:48.586783 30006 net.cpp:399] prob -> prob
I0403 14:35:48.586998 30006 net.cpp:141] Setting up prob
I0403 14:35:48.587025 30006 net.cpp:148] Top shape: 100 38 (3800)
I0403 14:35:48.587040 30006 net.cpp:156] Memory required for data: 831602000
I0403 14:35:48.587054 30006 layer_factory.hpp:77] Creating layer hdf5out
I0403 14:35:48.587074 30006 net.cpp:91] Creating Layer hdf5out
I0403 14:35:48.587087 30006 net.cpp:425] hdf5out <- prob
I0403 14:35:48.587103 30006 net.cpp:425] hdf5out <- label_data_1_split_0
I0403 14:35:48.591204 30006 net.cpp:141] Setting up hdf5out
…
