…
I0403 14:56:52.203922 30654 net.cpp:313] The NetState phase (1) differed from the phase (0) specified by a rule in layer data
I0403 14:56:52.204231 30654 net.cpp:49] Initializing net from parameters: 
state {
  phase: TEST
}
layer {
  name: "data"
  type: "Data"
  top: "data"
  top: "label"
  include {
    phase: TEST
  }
  transform_param {
    crop_size: 227
    mean_file: "/home/mohanty/data/final_dataset/lmdb/segmented-40-60/mean.binaryproto"
  }
  data_param {
    source: "/home/mohanty/data/final_dataset/lmdb/segmented-40-60/test_db"
    batch_size: 100
    backend: LMDB
  }
}
layer {
  name: "conv1"
  type: "Convolution"
  bottom: "data"
  top: "conv1"
  param {
    lr_mult: 1
    decay_mult: 1
  }
  param {
    lr_mult: 2
    decay_mult: 0
  }
  convolution_param {
    num_output: 96
    kernel_size: 11
    stride: 4
    weight_filler {
      type: "gaussian"
      std: 0.01
    }
    bias_filler {
      type: "constant"
      value: 0
    }
  }
}
layer {
  name: "relu1"
  type: "ReLU"
  bottom: "conv1"
  top: "conv1"
}
layer {
  name: "norm1"
  type: "LRN"
  bottom: "conv1"
  top: "norm1"
  lrn_param {
    local_size: 5
    alpha: 0.0001
    beta: 0.75
  }
}
layer {
  name: "pool1"
  type: "Pooling"
  bottom: "norm1"
  top: "pool1"
  pooling_param {
    pool: MAX
    kernel_size: 3
    stride: 2
  }
}
layer {
  name: "conv2"
  type: "Convolution"
  bottom: "pool1"
  top: "conv2"
  param {
    lr_mult: 1
    decay_mult: 1
  }
  param {
    lr_mult: 2
    decay_mult: 0
  }
  convolution_param {
    num_output: 256
    pad: 2
    kernel_size: 5
    group: 2
    weight_filler {
      type: "gaussian"
      std: 0.01
    }
    bias_filler {
      type: "constant"
      value: 0.1
    }
  }
}
layer {
  name: "relu2"
  type: "ReLU"
  bottom: "conv2"
  top: "conv2"
}
layer {
  name: "norm2"
  type: "LRN"
  bottom: "conv2"
  top: "norm2"
  lrn_param {
    local_size: 5
    alpha: 0.0001
    beta: 0.75
  }
}
layer {
  name: "pool2"
  type: "Pooling"
  bottom: "norm2"
  top: "pool2"
  pooling_param {
    pool: MAX
    kernel_size: 3
    stride: 2
  }
}
layer {
  name: "conv3"
  type: "Convolution"
  bottom: "pool2"
  top: "conv3"
  param {
    lr_mult: 1
    decay_mult: 1
  }
  param {
    lr_mult: 2
    decay_mult: 0
  }
  convolution_param {
    num_output: 384
    pad: 1
    kernel_size: 3
    weight_filler {
      type: "gaussian"
      std: 0.01
    }
    bias_filler {
      type: "constant"
      value: 0
    }
  }
}
layer {
  name: "relu3"
  type: "ReLU"
  bottom: "conv3"
  top: "conv3"
}
layer {
  name: "conv4"
  type: "Convolution"
  bottom: "conv3"
  top: "conv4"
  param {
    lr_mult: 1
    decay_mult: 1
  }
  param {
    lr_mult: 2
    decay_mult: 0
  }
  convolution_param {
    num_output: 384
    pad: 1
    kernel_size: 3
    group: 2
    weight_filler {
      type: "gaussian"
      std: 0.01
    }
    bias_filler {
      type: "constant"
      value: 0.1
    }
  }
}
layer {
  name: "relu4"
  type: "ReLU"
  bottom: "conv4"
  top: "conv4"
}
layer {
  name: "conv5"
  type: "Convolution"
  bottom: "conv4"
  top: "conv5"
  param {
    lr_mult: 1
    decay_mult: 1
  }
  param {
    lr_mult: 2
    decay_mult: 0
  }
  convolution_param {
    num_output: 256
    pad: 1
    kernel_size: 3
    group: 2
    weight_filler {
      type: "gaussian"
      std: 0.01
    }
    bias_filler {
      type: "constant"
      value: 0.1
    }
  }
}
layer {
  name: "relu5"
  type: "ReLU"
  bottom: "conv5"
  top: "conv5"
}
layer {
  name: "pool5"
  type: "Pooling"
  bottom: "conv5"
  top: "pool5"
  pooling_param {
    pool: MAX
    kernel_size: 3
    stride: 2
  }
}
layer {
  name: "fc6"
  type: "InnerProduct"
  bottom: "pool5"
  top: "fc6"
  param {
    lr_mult: 1
    decay_mult: 1
  }
  param {
    lr_mult: 2
    decay_mult: 0
  }
  inner_product_param {
    num_output: 4096
    weight_filler {
      type: "gaussian"
      std: 0.005
    }
    bias_filler {
      type: "constant"
      value: 0.1
    }
  }
}
layer {
  name: "relu6"
  type: "ReLU"
  bottom: "fc6"
  top: "fc6"
}
layer {
  name: "drop6"
  type: "Dropout"
  bottom: "fc6"
  top: "fc6"
  dropout_param {
    dropout_ratio: 0.5
  }
}
layer {
  name: "fc7"
  type: "InnerProduct"
  bottom: "fc6"
  top: "fc7"
  param {
    lr_mult: 1
    decay_mult: 1
  }
  param {
    lr_mult: 2
    decay_mult: 0
  }
  inner_product_param {
    num_output: 4096
    weight_filler {
      type: "gaussian"
      std: 0.005
    }
    bias_filler {
      type: "constant"
      value: 0.1
    }
  }
}
layer {
  name: "relu7"
  type: "ReLU"
  bottom: "fc7"
  top: "fc7"
}
layer {
  name: "drop7"
  type: "Dropout"
  bottom: "fc7"
  top: "fc7"
  dropout_param {
    dropout_ratio: 0.5
  }
}
layer {
  name: "fc8_plantvillage"
  type: "InnerProduct"
  bottom: "fc7"
  top: "fc8_plantvillage"
  param {
    lr_mult: 1
    decay_mult: 1
  }
  param {
    lr_mult: 2
    decay_mult: 0
  }
  inner_product_param {
    num_output: 38
    weight_filler {
      type: "gaussian"
      std: 0.01
    }
    bias_filler {
      type: "constant"
      value: 0
    }
  }
}
layer {
  name: "prob"
  type: "Softmax"
  bottom: "fc8_plantvillage"
  top: "prob"
  include {
    phase: TEST
  }
}
layer {
  name: "hdf5out"
  type: "HDF5Output"
  bottom: "prob"
  bottom: "label"
  include {
    phase: TEST
  }
  hdf5_output_param {
    file_name: "hdf5_dumps/iter_6570.h5"
  }
}
layer {
  name: "loss"
  type: "SoftmaxWithLoss"
  bottom: "fc8_plantvillage"
  bottom: "label"
  top: "loss"
}
layer {
  name: "accuracy"
  type: "Accuracy"
  bottom: "fc8_plantvillage"
  bottom: "label"
  top: "accuracy"
  include {
    phase: TEST
  }
}
I0403 14:56:52.204893 30654 layer_factory.hpp:77] Creating layer data
I0403 14:56:52.205539 30654 net.cpp:91] Creating Layer data
I0403 14:56:52.205571 30654 net.cpp:399] data -> data
I0403 14:56:52.205628 30654 net.cpp:399] data -> label
I0403 14:56:52.205665 30654 data_transformer.cpp:25] Loading mean file from: /home/mohanty/data/final_dataset/lmdb/segmented-40-60/mean.binaryproto
I0403 14:56:52.208720 30656 db_lmdb.cpp:38] Opened lmdb /home/mohanty/data/final_dataset/lmdb/segmented-40-60/test_db
I0403 14:56:52.219902 30654 data_layer.cpp:41] output data size: 100,3,227,227
I0403 14:56:52.338798 30654 net.cpp:141] Setting up data
I0403 14:56:52.338896 30654 net.cpp:148] Top shape: 100 3 227 227 (15458700)
I0403 14:56:52.338927 30654 net.cpp:148] Top shape: 100 (100)
I0403 14:56:52.338943 30654 net.cpp:156] Memory required for data: 61835200
I0403 14:56:52.338984 30654 layer_factory.hpp:77] Creating layer label_data_1_split
I0403 14:56:52.339011 30654 net.cpp:91] Creating Layer label_data_1_split
I0403 14:56:52.339030 30654 net.cpp:425] label_data_1_split <- label
I0403 14:56:52.339066 30654 net.cpp:399] label_data_1_split -> label_data_1_split_0
I0403 14:56:52.339095 30654 net.cpp:399] label_data_1_split -> label_data_1_split_1
I0403 14:56:52.339117 30654 net.cpp:399] label_data_1_split -> label_data_1_split_2
I0403 14:56:52.339182 30654 net.cpp:141] Setting up label_data_1_split
I0403 14:56:52.339206 30654 net.cpp:148] Top shape: 100 (100)
I0403 14:56:52.339222 30654 net.cpp:148] Top shape: 100 (100)
I0403 14:56:52.339239 30654 net.cpp:148] Top shape: 100 (100)
I0403 14:56:52.339253 30654 net.cpp:156] Memory required for data: 61836400
I0403 14:56:52.339268 30654 layer_factory.hpp:77] Creating layer conv1
I0403 14:56:52.339304 30654 net.cpp:91] Creating Layer conv1
I0403 14:56:52.339323 30654 net.cpp:425] conv1 <- data
I0403 14:56:52.339342 30654 net.cpp:399] conv1 -> conv1
I0403 14:56:52.478617 30654 net.cpp:141] Setting up conv1
I0403 14:56:52.478744 30654 net.cpp:148] Top shape: 100 96 55 55 (29040000)
I0403 14:56:52.478765 30654 net.cpp:156] Memory required for data: 177996400
I0403 14:56:52.478801 30654 layer_factory.hpp:77] Creating layer relu1
I0403 14:56:52.478831 30654 net.cpp:91] Creating Layer relu1
I0403 14:56:52.478849 30654 net.cpp:425] relu1 <- conv1
I0403 14:56:52.478868 30654 net.cpp:386] relu1 -> conv1 (in-place)
I0403 14:56:52.479126 30654 net.cpp:141] Setting up relu1
I0403 14:56:52.479153 30654 net.cpp:148] Top shape: 100 96 55 55 (29040000)
I0403 14:56:52.479207 30654 net.cpp:156] Memory required for data: 294156400
I0403 14:56:52.479224 30654 layer_factory.hpp:77] Creating layer norm1
I0403 14:56:52.479252 30654 net.cpp:91] Creating Layer norm1
I0403 14:56:52.479270 30654 net.cpp:425] norm1 <- conv1
I0403 14:56:52.479290 30654 net.cpp:399] norm1 -> norm1
I0403 14:56:52.479598 30654 net.cpp:141] Setting up norm1
I0403 14:56:52.479624 30654 net.cpp:148] Top shape: 100 96 55 55 (29040000)
I0403 14:56:52.479640 30654 net.cpp:156] Memory required for data: 410316400
I0403 14:56:52.479655 30654 layer_factory.hpp:77] Creating layer pool1
I0403 14:56:52.479679 30654 net.cpp:91] Creating Layer pool1
I0403 14:56:52.479697 30654 net.cpp:425] pool1 <- norm1
I0403 14:56:52.479715 30654 net.cpp:399] pool1 -> pool1
I0403 14:56:52.479784 30654 net.cpp:141] Setting up pool1
I0403 14:56:52.479807 30654 net.cpp:148] Top shape: 100 96 27 27 (6998400)
I0403 14:56:52.479822 30654 net.cpp:156] Memory required for data: 438310000
I0403 14:56:52.479837 30654 layer_factory.hpp:77] Creating layer conv2
I0403 14:56:52.479864 30654 net.cpp:91] Creating Layer conv2
I0403 14:56:52.479881 30654 net.cpp:425] conv2 <- pool1
I0403 14:56:52.479899 30654 net.cpp:399] conv2 -> conv2
I0403 14:56:52.494468 30654 net.cpp:141] Setting up conv2
I0403 14:56:52.494504 30654 net.cpp:148] Top shape: 100 256 27 27 (18662400)
I0403 14:56:52.494521 30654 net.cpp:156] Memory required for data: 512959600
I0403 14:56:52.494554 30654 layer_factory.hpp:77] Creating layer relu2
I0403 14:56:52.494577 30654 net.cpp:91] Creating Layer relu2
I0403 14:56:52.494593 30654 net.cpp:425] relu2 <- conv2
I0403 14:56:52.494611 30654 net.cpp:386] relu2 -> conv2 (in-place)
I0403 14:56:52.494891 30654 net.cpp:141] Setting up relu2
I0403 14:56:52.494918 30654 net.cpp:148] Top shape: 100 256 27 27 (18662400)
I0403 14:56:52.494933 30654 net.cpp:156] Memory required for data: 587609200
I0403 14:56:52.494949 30654 layer_factory.hpp:77] Creating layer norm2
I0403 14:56:52.494968 30654 net.cpp:91] Creating Layer norm2
I0403 14:56:52.494984 30654 net.cpp:425] norm2 <- conv2
I0403 14:56:52.495002 30654 net.cpp:399] norm2 -> norm2
I0403 14:56:52.495177 30654 net.cpp:141] Setting up norm2
I0403 14:56:52.495203 30654 net.cpp:148] Top shape: 100 256 27 27 (18662400)
I0403 14:56:52.495218 30654 net.cpp:156] Memory required for data: 662258800
I0403 14:56:52.495234 30654 layer_factory.hpp:77] Creating layer pool2
I0403 14:56:52.495252 30654 net.cpp:91] Creating Layer pool2
I0403 14:56:52.495267 30654 net.cpp:425] pool2 <- norm2
I0403 14:56:52.495285 30654 net.cpp:399] pool2 -> pool2
I0403 14:56:52.495338 30654 net.cpp:141] Setting up pool2
I0403 14:56:52.495362 30654 net.cpp:148] Top shape: 100 256 13 13 (4326400)
I0403 14:56:52.495376 30654 net.cpp:156] Memory required for data: 679564400
I0403 14:56:52.495391 30654 layer_factory.hpp:77] Creating layer conv3
I0403 14:56:52.495411 30654 net.cpp:91] Creating Layer conv3
I0403 14:56:52.495429 30654 net.cpp:425] conv3 <- pool2
I0403 14:56:52.495446 30654 net.cpp:399] conv3 -> conv3
I0403 14:56:52.532546 30654 net.cpp:141] Setting up conv3
I0403 14:56:52.532598 30654 net.cpp:148] Top shape: 100 384 13 13 (6489600)
I0403 14:56:52.532614 30654 net.cpp:156] Memory required for data: 705522800
I0403 14:56:52.532642 30654 layer_factory.hpp:77] Creating layer relu3
I0403 14:56:52.532667 30654 net.cpp:91] Creating Layer relu3
I0403 14:56:52.532685 30654 net.cpp:425] relu3 <- conv3
I0403 14:56:52.532704 30654 net.cpp:386] relu3 -> conv3 (in-place)
I0403 14:56:52.532969 30654 net.cpp:141] Setting up relu3
I0403 14:56:52.532999 30654 net.cpp:148] Top shape: 100 384 13 13 (6489600)
I0403 14:56:52.533013 30654 net.cpp:156] Memory required for data: 731481200
I0403 14:56:52.533030 30654 layer_factory.hpp:77] Creating layer conv4
I0403 14:56:52.533052 30654 net.cpp:91] Creating Layer conv4
I0403 14:56:52.533069 30654 net.cpp:425] conv4 <- conv3
I0403 14:56:52.533088 30654 net.cpp:399] conv4 -> conv4
I0403 14:56:52.561868 30654 net.cpp:141] Setting up conv4
I0403 14:56:52.561918 30654 net.cpp:148] Top shape: 100 384 13 13 (6489600)
I0403 14:56:52.561972 30654 net.cpp:156] Memory required for data: 757439600
I0403 14:56:52.561995 30654 layer_factory.hpp:77] Creating layer relu4
I0403 14:56:52.562016 30654 net.cpp:91] Creating Layer relu4
I0403 14:56:52.562034 30654 net.cpp:425] relu4 <- conv4
I0403 14:56:52.562052 30654 net.cpp:386] relu4 -> conv4 (in-place)
I0403 14:56:52.562325 30654 net.cpp:141] Setting up relu4
I0403 14:56:52.562351 30654 net.cpp:148] Top shape: 100 384 13 13 (6489600)
I0403 14:56:52.562366 30654 net.cpp:156] Memory required for data: 783398000
I0403 14:56:52.562381 30654 layer_factory.hpp:77] Creating layer conv5
I0403 14:56:52.562404 30654 net.cpp:91] Creating Layer conv5
I0403 14:56:52.562422 30654 net.cpp:425] conv5 <- conv4
I0403 14:56:52.562443 30654 net.cpp:399] conv5 -> conv5
I0403 14:56:52.582295 30654 net.cpp:141] Setting up conv5
I0403 14:56:52.582330 30654 net.cpp:148] Top shape: 100 256 13 13 (4326400)
I0403 14:56:52.582347 30654 net.cpp:156] Memory required for data: 800703600
I0403 14:56:52.582371 30654 layer_factory.hpp:77] Creating layer relu5
I0403 14:56:52.582394 30654 net.cpp:91] Creating Layer relu5
I0403 14:56:52.582412 30654 net.cpp:425] relu5 <- conv5
I0403 14:56:52.582428 30654 net.cpp:386] relu5 -> conv5 (in-place)
I0403 14:56:52.582718 30654 net.cpp:141] Setting up relu5
I0403 14:56:52.582748 30654 net.cpp:148] Top shape: 100 256 13 13 (4326400)
I0403 14:56:52.582764 30654 net.cpp:156] Memory required for data: 818009200
I0403 14:56:52.582779 30654 layer_factory.hpp:77] Creating layer pool5
I0403 14:56:52.582805 30654 net.cpp:91] Creating Layer pool5
I0403 14:56:52.582823 30654 net.cpp:425] pool5 <- conv5
I0403 14:56:52.582845 30654 net.cpp:399] pool5 -> pool5
I0403 14:56:52.582906 30654 net.cpp:141] Setting up pool5
I0403 14:56:52.582931 30654 net.cpp:148] Top shape: 100 256 6 6 (921600)
I0403 14:56:52.582945 30654 net.cpp:156] Memory required for data: 821695600
I0403 14:56:52.582960 30654 layer_factory.hpp:77] Creating layer fc6
I0403 14:56:52.582990 30654 net.cpp:91] Creating Layer fc6
I0403 14:56:52.583009 30654 net.cpp:425] fc6 <- pool5
I0403 14:56:52.583026 30654 net.cpp:399] fc6 -> fc6
I0403 14:56:54.129693 30654 net.cpp:141] Setting up fc6
I0403 14:56:54.129771 30654 net.cpp:148] Top shape: 100 4096 (409600)
I0403 14:56:54.129787 30654 net.cpp:156] Memory required for data: 823334000
I0403 14:56:54.129811 30654 layer_factory.hpp:77] Creating layer relu6
I0403 14:56:54.129834 30654 net.cpp:91] Creating Layer relu6
I0403 14:56:54.129853 30654 net.cpp:425] relu6 <- fc6
I0403 14:56:54.129875 30654 net.cpp:386] relu6 -> fc6 (in-place)
I0403 14:56:54.130091 30654 net.cpp:141] Setting up relu6
I0403 14:56:54.130115 30654 net.cpp:148] Top shape: 100 4096 (409600)
I0403 14:56:54.130130 30654 net.cpp:156] Memory required for data: 824972400
I0403 14:56:54.130144 30654 layer_factory.hpp:77] Creating layer drop6
I0403 14:56:54.130165 30654 net.cpp:91] Creating Layer drop6
I0403 14:56:54.130182 30654 net.cpp:425] drop6 <- fc6
I0403 14:56:54.130198 30654 net.cpp:386] drop6 -> fc6 (in-place)
I0403 14:56:54.130254 30654 net.cpp:141] Setting up drop6
I0403 14:56:54.130275 30654 net.cpp:148] Top shape: 100 4096 (409600)
I0403 14:56:54.130288 30654 net.cpp:156] Memory required for data: 826610800
I0403 14:56:54.130303 30654 layer_factory.hpp:77] Creating layer fc7
I0403 14:56:54.130322 30654 net.cpp:91] Creating Layer fc7
I0403 14:56:54.130337 30654 net.cpp:425] fc7 <- fc6
I0403 14:56:54.130357 30654 net.cpp:399] fc7 -> fc7
I0403 14:56:54.795132 30654 net.cpp:141] Setting up fc7
I0403 14:56:54.795223 30654 net.cpp:148] Top shape: 100 4096 (409600)
I0403 14:56:54.795239 30654 net.cpp:156] Memory required for data: 828249200
I0403 14:56:54.795261 30654 layer_factory.hpp:77] Creating layer relu7
I0403 14:56:54.795287 30654 net.cpp:91] Creating Layer relu7
I0403 14:56:54.795307 30654 net.cpp:425] relu7 <- fc7
I0403 14:56:54.795327 30654 net.cpp:386] relu7 -> fc7 (in-place)
I0403 14:56:54.795743 30654 net.cpp:141] Setting up relu7
I0403 14:56:54.795769 30654 net.cpp:148] Top shape: 100 4096 (409600)
I0403 14:56:54.795809 30654 net.cpp:156] Memory required for data: 829887600
I0403 14:56:54.795825 30654 layer_factory.hpp:77] Creating layer drop7
I0403 14:56:54.795847 30654 net.cpp:91] Creating Layer drop7
I0403 14:56:54.795863 30654 net.cpp:425] drop7 <- fc7
I0403 14:56:54.795881 30654 net.cpp:386] drop7 -> fc7 (in-place)
I0403 14:56:54.795922 30654 net.cpp:141] Setting up drop7
I0403 14:56:54.795946 30654 net.cpp:148] Top shape: 100 4096 (409600)
I0403 14:56:54.795961 30654 net.cpp:156] Memory required for data: 831526000
I0403 14:56:54.795976 30654 layer_factory.hpp:77] Creating layer fc8_plantvillage
I0403 14:56:54.795996 30654 net.cpp:91] Creating Layer fc8_plantvillage
I0403 14:56:54.796011 30654 net.cpp:425] fc8_plantvillage <- fc7
I0403 14:56:54.796030 30654 net.cpp:399] fc8_plantvillage -> fc8_plantvillage
I0403 14:56:54.802536 30654 net.cpp:141] Setting up fc8_plantvillage
I0403 14:56:54.802563 30654 net.cpp:148] Top shape: 100 38 (3800)
I0403 14:56:54.802578 30654 net.cpp:156] Memory required for data: 831541200
I0403 14:56:54.802597 30654 layer_factory.hpp:77] Creating layer fc8_plantvillage_fc8_plantvillage_0_split
I0403 14:56:54.802619 30654 net.cpp:91] Creating Layer fc8_plantvillage_fc8_plantvillage_0_split
I0403 14:56:54.802635 30654 net.cpp:425] fc8_plantvillage_fc8_plantvillage_0_split <- fc8_plantvillage
I0403 14:56:54.802651 30654 net.cpp:399] fc8_plantvillage_fc8_plantvillage_0_split -> fc8_plantvillage_fc8_plantvillage_0_split_0
I0403 14:56:54.802670 30654 net.cpp:399] fc8_plantvillage_fc8_plantvillage_0_split -> fc8_plantvillage_fc8_plantvillage_0_split_1
I0403 14:56:54.802690 30654 net.cpp:399] fc8_plantvillage_fc8_plantvillage_0_split -> fc8_plantvillage_fc8_plantvillage_0_split_2
I0403 14:56:54.802770 30654 net.cpp:141] Setting up fc8_plantvillage_fc8_plantvillage_0_split
I0403 14:56:54.802793 30654 net.cpp:148] Top shape: 100 38 (3800)
I0403 14:56:54.802809 30654 net.cpp:148] Top shape: 100 38 (3800)
I0403 14:56:54.802824 30654 net.cpp:148] Top shape: 100 38 (3800)
I0403 14:56:54.802837 30654 net.cpp:156] Memory required for data: 831586800
I0403 14:56:54.802851 30654 layer_factory.hpp:77] Creating layer prob
I0403 14:56:54.802870 30654 net.cpp:91] Creating Layer prob
I0403 14:56:54.802884 30654 net.cpp:425] prob <- fc8_plantvillage_fc8_plantvillage_0_split_0
I0403 14:56:54.802904 30654 net.cpp:399] prob -> prob
I0403 14:56:54.803123 30654 net.cpp:141] Setting up prob
I0403 14:56:54.803148 30654 net.cpp:148] Top shape: 100 38 (3800)
I0403 14:56:54.803163 30654 net.cpp:156] Memory required for data: 831602000
I0403 14:56:54.803177 30654 layer_factory.hpp:77] Creating layer hdf5out
I0403 14:56:54.803199 30654 net.cpp:91] Creating Layer hdf5out
I0403 14:56:54.803215 30654 net.cpp:425] hdf5out <- prob
I0403 14:56:54.803231 30654 net.cpp:425] hdf5out <- label_data_1_split_0
I0403 14:56:54.806674 30654 net.cpp:141] Setting up hdf5out
…
