…
I0403 14:55:54.468330 30632 net.cpp:313] The NetState phase (1) differed from the phase (0) specified by a rule in layer data
I0403 14:55:54.468663 30632 net.cpp:49] Initializing net from parameters: 
state {
  phase: TEST
}
layer {
  name: "data"
  type: "Data"
  top: "data"
  top: "label"
  include {
    phase: TEST
  }
  transform_param {
    crop_size: 227
    mean_file: "/home/mohanty/data/final_dataset/lmdb/segmented-40-60/mean.binaryproto"
  }
  data_param {
    source: "/home/mohanty/data/final_dataset/lmdb/segmented-40-60/test_db"
    batch_size: 100
    backend: LMDB
  }
}
layer {
  name: "conv1"
  type: "Convolution"
  bottom: "data"
  top: "conv1"
  param {
    lr_mult: 1
    decay_mult: 1
  }
  param {
    lr_mult: 2
    decay_mult: 0
  }
  convolution_param {
    num_output: 96
    kernel_size: 11
    stride: 4
    weight_filler {
      type: "gaussian"
      std: 0.01
    }
    bias_filler {
      type: "constant"
      value: 0
    }
  }
}
layer {
  name: "relu1"
  type: "ReLU"
  bottom: "conv1"
  top: "conv1"
}
layer {
  name: "norm1"
  type: "LRN"
  bottom: "conv1"
  top: "norm1"
  lrn_param {
    local_size: 5
    alpha: 0.0001
    beta: 0.75
  }
}
layer {
  name: "pool1"
  type: "Pooling"
  bottom: "norm1"
  top: "pool1"
  pooling_param {
    pool: MAX
    kernel_size: 3
    stride: 2
  }
}
layer {
  name: "conv2"
  type: "Convolution"
  bottom: "pool1"
  top: "conv2"
  param {
    lr_mult: 1
    decay_mult: 1
  }
  param {
    lr_mult: 2
    decay_mult: 0
  }
  convolution_param {
    num_output: 256
    pad: 2
    kernel_size: 5
    group: 2
    weight_filler {
      type: "gaussian"
      std: 0.01
    }
    bias_filler {
      type: "constant"
      value: 0.1
    }
  }
}
layer {
  name: "relu2"
  type: "ReLU"
  bottom: "conv2"
  top: "conv2"
}
layer {
  name: "norm2"
  type: "LRN"
  bottom: "conv2"
  top: "norm2"
  lrn_param {
    local_size: 5
    alpha: 0.0001
    beta: 0.75
  }
}
layer {
  name: "pool2"
  type: "Pooling"
  bottom: "norm2"
  top: "pool2"
  pooling_param {
    pool: MAX
    kernel_size: 3
    stride: 2
  }
}
layer {
  name: "conv3"
  type: "Convolution"
  bottom: "pool2"
  top: "conv3"
  param {
    lr_mult: 1
    decay_mult: 1
  }
  param {
    lr_mult: 2
    decay_mult: 0
  }
  convolution_param {
    num_output: 384
    pad: 1
    kernel_size: 3
    weight_filler {
      type: "gaussian"
      std: 0.01
    }
    bias_filler {
      type: "constant"
      value: 0
    }
  }
}
layer {
  name: "relu3"
  type: "ReLU"
  bottom: "conv3"
  top: "conv3"
}
layer {
  name: "conv4"
  type: "Convolution"
  bottom: "conv3"
  top: "conv4"
  param {
    lr_mult: 1
    decay_mult: 1
  }
  param {
    lr_mult: 2
    decay_mult: 0
  }
  convolution_param {
    num_output: 384
    pad: 1
    kernel_size: 3
    group: 2
    weight_filler {
      type: "gaussian"
      std: 0.01
    }
    bias_filler {
      type: "constant"
      value: 0.1
    }
  }
}
layer {
  name: "relu4"
  type: "ReLU"
  bottom: "conv4"
  top: "conv4"
}
layer {
  name: "conv5"
  type: "Convolution"
  bottom: "conv4"
  top: "conv5"
  param {
    lr_mult: 1
    decay_mult: 1
  }
  param {
    lr_mult: 2
    decay_mult: 0
  }
  convolution_param {
    num_output: 256
    pad: 1
    kernel_size: 3
    group: 2
    weight_filler {
      type: "gaussian"
      std: 0.01
    }
    bias_filler {
      type: "constant"
      value: 0.1
    }
  }
}
layer {
  name: "relu5"
  type: "ReLU"
  bottom: "conv5"
  top: "conv5"
}
layer {
  name: "pool5"
  type: "Pooling"
  bottom: "conv5"
  top: "pool5"
  pooling_param {
    pool: MAX
    kernel_size: 3
    stride: 2
  }
}
layer {
  name: "fc6"
  type: "InnerProduct"
  bottom: "pool5"
  top: "fc6"
  param {
    lr_mult: 1
    decay_mult: 1
  }
  param {
    lr_mult: 2
    decay_mult: 0
  }
  inner_product_param {
    num_output: 4096
    weight_filler {
      type: "gaussian"
      std: 0.005
    }
    bias_filler {
      type: "constant"
      value: 0.1
    }
  }
}
layer {
  name: "relu6"
  type: "ReLU"
  bottom: "fc6"
  top: "fc6"
}
layer {
  name: "drop6"
  type: "Dropout"
  bottom: "fc6"
  top: "fc6"
  dropout_param {
    dropout_ratio: 0.5
  }
}
layer {
  name: "fc7"
  type: "InnerProduct"
  bottom: "fc6"
  top: "fc7"
  param {
    lr_mult: 1
    decay_mult: 1
  }
  param {
    lr_mult: 2
    decay_mult: 0
  }
  inner_product_param {
    num_output: 4096
    weight_filler {
      type: "gaussian"
      std: 0.005
    }
    bias_filler {
      type: "constant"
      value: 0.1
    }
  }
}
layer {
  name: "relu7"
  type: "ReLU"
  bottom: "fc7"
  top: "fc7"
}
layer {
  name: "drop7"
  type: "Dropout"
  bottom: "fc7"
  top: "fc7"
  dropout_param {
    dropout_ratio: 0.5
  }
}
layer {
  name: "fc8_plantvillage"
  type: "InnerProduct"
  bottom: "fc7"
  top: "fc8_plantvillage"
  param {
    lr_mult: 1
    decay_mult: 1
  }
  param {
    lr_mult: 2
    decay_mult: 0
  }
  inner_product_param {
    num_output: 38
    weight_filler {
      type: "gaussian"
      std: 0.01
    }
    bias_filler {
      type: "constant"
      value: 0
    }
  }
}
layer {
  name: "prob"
  type: "Softmax"
  bottom: "fc8_plantvillage"
  top: "prob"
  include {
    phase: TEST
  }
}
layer {
  name: "hdf5out"
  type: "HDF5Output"
  bottom: "prob"
  bottom: "label"
  include {
    phase: TEST
  }
  hdf5_output_param {
    file_name: "hdf5_dumps/iter_6351.h5"
  }
}
layer {
  name: "loss"
  type: "SoftmaxWithLoss"
  bottom: "fc8_plantvillage"
  bottom: "label"
  top: "loss"
}
layer {
  name: "accuracy"
  type: "Accuracy"
  bottom: "fc8_plantvillage"
  bottom: "label"
  top: "accuracy"
  include {
    phase: TEST
  }
}
I0403 14:55:54.469300 30632 layer_factory.hpp:77] Creating layer data
I0403 14:55:54.469946 30632 net.cpp:91] Creating Layer data
I0403 14:55:54.469976 30632 net.cpp:399] data -> data
I0403 14:55:54.470034 30632 net.cpp:399] data -> label
I0403 14:55:54.470072 30632 data_transformer.cpp:25] Loading mean file from: /home/mohanty/data/final_dataset/lmdb/segmented-40-60/mean.binaryproto
I0403 14:55:54.474563 30634 db_lmdb.cpp:38] Opened lmdb /home/mohanty/data/final_dataset/lmdb/segmented-40-60/test_db
I0403 14:55:54.483695 30632 data_layer.cpp:41] output data size: 100,3,227,227
I0403 14:55:54.600471 30632 net.cpp:141] Setting up data
I0403 14:55:54.600589 30632 net.cpp:148] Top shape: 100 3 227 227 (15458700)
I0403 14:55:54.600612 30632 net.cpp:148] Top shape: 100 (100)
I0403 14:55:54.600627 30632 net.cpp:156] Memory required for data: 61835200
I0403 14:55:54.600659 30632 layer_factory.hpp:77] Creating layer label_data_1_split
I0403 14:55:54.600687 30632 net.cpp:91] Creating Layer label_data_1_split
I0403 14:55:54.600705 30632 net.cpp:425] label_data_1_split <- label
I0403 14:55:54.600740 30632 net.cpp:399] label_data_1_split -> label_data_1_split_0
I0403 14:55:54.600769 30632 net.cpp:399] label_data_1_split -> label_data_1_split_1
I0403 14:55:54.600790 30632 net.cpp:399] label_data_1_split -> label_data_1_split_2
I0403 14:55:54.600852 30632 net.cpp:141] Setting up label_data_1_split
I0403 14:55:54.600875 30632 net.cpp:148] Top shape: 100 (100)
I0403 14:55:54.600893 30632 net.cpp:148] Top shape: 100 (100)
I0403 14:55:54.600909 30632 net.cpp:148] Top shape: 100 (100)
I0403 14:55:54.600924 30632 net.cpp:156] Memory required for data: 61836400
I0403 14:55:54.600939 30632 layer_factory.hpp:77] Creating layer conv1
I0403 14:55:54.600973 30632 net.cpp:91] Creating Layer conv1
I0403 14:55:54.600992 30632 net.cpp:425] conv1 <- data
I0403 14:55:54.601012 30632 net.cpp:399] conv1 -> conv1
I0403 14:55:54.735177 30632 net.cpp:141] Setting up conv1
I0403 14:55:54.735255 30632 net.cpp:148] Top shape: 100 96 55 55 (29040000)
I0403 14:55:54.735272 30632 net.cpp:156] Memory required for data: 177996400
I0403 14:55:54.735306 30632 layer_factory.hpp:77] Creating layer relu1
I0403 14:55:54.735335 30632 net.cpp:91] Creating Layer relu1
I0403 14:55:54.735354 30632 net.cpp:425] relu1 <- conv1
I0403 14:55:54.735373 30632 net.cpp:386] relu1 -> conv1 (in-place)
I0403 14:55:54.735628 30632 net.cpp:141] Setting up relu1
I0403 14:55:54.735654 30632 net.cpp:148] Top shape: 100 96 55 55 (29040000)
I0403 14:55:54.735709 30632 net.cpp:156] Memory required for data: 294156400
I0403 14:55:54.735724 30632 layer_factory.hpp:77] Creating layer norm1
I0403 14:55:54.735754 30632 net.cpp:91] Creating Layer norm1
I0403 14:55:54.735772 30632 net.cpp:425] norm1 <- conv1
I0403 14:55:54.735790 30632 net.cpp:399] norm1 -> norm1
I0403 14:55:54.736095 30632 net.cpp:141] Setting up norm1
I0403 14:55:54.736122 30632 net.cpp:148] Top shape: 100 96 55 55 (29040000)
I0403 14:55:54.736137 30632 net.cpp:156] Memory required for data: 410316400
I0403 14:55:54.736152 30632 layer_factory.hpp:77] Creating layer pool1
I0403 14:55:54.736178 30632 net.cpp:91] Creating Layer pool1
I0403 14:55:54.736196 30632 net.cpp:425] pool1 <- norm1
I0403 14:55:54.736213 30632 net.cpp:399] pool1 -> pool1
I0403 14:55:54.736284 30632 net.cpp:141] Setting up pool1
I0403 14:55:54.736309 30632 net.cpp:148] Top shape: 100 96 27 27 (6998400)
I0403 14:55:54.736323 30632 net.cpp:156] Memory required for data: 438310000
I0403 14:55:54.736337 30632 layer_factory.hpp:77] Creating layer conv2
I0403 14:55:54.736366 30632 net.cpp:91] Creating Layer conv2
I0403 14:55:54.736382 30632 net.cpp:425] conv2 <- pool1
I0403 14:55:54.736402 30632 net.cpp:399] conv2 -> conv2
I0403 14:55:54.750869 30632 net.cpp:141] Setting up conv2
I0403 14:55:54.750905 30632 net.cpp:148] Top shape: 100 256 27 27 (18662400)
I0403 14:55:54.750921 30632 net.cpp:156] Memory required for data: 512959600
I0403 14:55:54.750942 30632 layer_factory.hpp:77] Creating layer relu2
I0403 14:55:54.750964 30632 net.cpp:91] Creating Layer relu2
I0403 14:55:54.750980 30632 net.cpp:425] relu2 <- conv2
I0403 14:55:54.750998 30632 net.cpp:386] relu2 -> conv2 (in-place)
I0403 14:55:54.751267 30632 net.cpp:141] Setting up relu2
I0403 14:55:54.751294 30632 net.cpp:148] Top shape: 100 256 27 27 (18662400)
I0403 14:55:54.751308 30632 net.cpp:156] Memory required for data: 587609200
I0403 14:55:54.751323 30632 layer_factory.hpp:77] Creating layer norm2
I0403 14:55:54.751344 30632 net.cpp:91] Creating Layer norm2
I0403 14:55:54.751361 30632 net.cpp:425] norm2 <- conv2
I0403 14:55:54.751381 30632 net.cpp:399] norm2 -> norm2
I0403 14:55:54.751579 30632 net.cpp:141] Setting up norm2
I0403 14:55:54.751605 30632 net.cpp:148] Top shape: 100 256 27 27 (18662400)
I0403 14:55:54.751619 30632 net.cpp:156] Memory required for data: 662258800
I0403 14:55:54.751634 30632 layer_factory.hpp:77] Creating layer pool2
I0403 14:55:54.751651 30632 net.cpp:91] Creating Layer pool2
I0403 14:55:54.751665 30632 net.cpp:425] pool2 <- norm2
I0403 14:55:54.751688 30632 net.cpp:399] pool2 -> pool2
I0403 14:55:54.751742 30632 net.cpp:141] Setting up pool2
I0403 14:55:54.751765 30632 net.cpp:148] Top shape: 100 256 13 13 (4326400)
I0403 14:55:54.751780 30632 net.cpp:156] Memory required for data: 679564400
I0403 14:55:54.751796 30632 layer_factory.hpp:77] Creating layer conv3
I0403 14:55:54.751817 30632 net.cpp:91] Creating Layer conv3
I0403 14:55:54.751834 30632 net.cpp:425] conv3 <- pool2
I0403 14:55:54.751855 30632 net.cpp:399] conv3 -> conv3
I0403 14:55:54.788899 30632 net.cpp:141] Setting up conv3
I0403 14:55:54.788962 30632 net.cpp:148] Top shape: 100 384 13 13 (6489600)
I0403 14:55:54.788980 30632 net.cpp:156] Memory required for data: 705522800
I0403 14:55:54.789005 30632 layer_factory.hpp:77] Creating layer relu3
I0403 14:55:54.789031 30632 net.cpp:91] Creating Layer relu3
I0403 14:55:54.789047 30632 net.cpp:425] relu3 <- conv3
I0403 14:55:54.789064 30632 net.cpp:386] relu3 -> conv3 (in-place)
I0403 14:55:54.789333 30632 net.cpp:141] Setting up relu3
I0403 14:55:54.789361 30632 net.cpp:148] Top shape: 100 384 13 13 (6489600)
I0403 14:55:54.789376 30632 net.cpp:156] Memory required for data: 731481200
I0403 14:55:54.789391 30632 layer_factory.hpp:77] Creating layer conv4
I0403 14:55:54.789414 30632 net.cpp:91] Creating Layer conv4
I0403 14:55:54.789430 30632 net.cpp:425] conv4 <- conv3
I0403 14:55:54.789451 30632 net.cpp:399] conv4 -> conv4
I0403 14:55:54.818320 30632 net.cpp:141] Setting up conv4
I0403 14:55:54.818352 30632 net.cpp:148] Top shape: 100 384 13 13 (6489600)
I0403 14:55:54.818392 30632 net.cpp:156] Memory required for data: 757439600
I0403 14:55:54.818413 30632 layer_factory.hpp:77] Creating layer relu4
I0403 14:55:54.818434 30632 net.cpp:91] Creating Layer relu4
I0403 14:55:54.818449 30632 net.cpp:425] relu4 <- conv4
I0403 14:55:54.818466 30632 net.cpp:386] relu4 -> conv4 (in-place)
I0403 14:55:54.818753 30632 net.cpp:141] Setting up relu4
I0403 14:55:54.818780 30632 net.cpp:148] Top shape: 100 384 13 13 (6489600)
I0403 14:55:54.818795 30632 net.cpp:156] Memory required for data: 783398000
I0403 14:55:54.818811 30632 layer_factory.hpp:77] Creating layer conv5
I0403 14:55:54.818833 30632 net.cpp:91] Creating Layer conv5
I0403 14:55:54.818850 30632 net.cpp:425] conv5 <- conv4
I0403 14:55:54.818873 30632 net.cpp:399] conv5 -> conv5
I0403 14:55:54.838738 30632 net.cpp:141] Setting up conv5
I0403 14:55:54.838775 30632 net.cpp:148] Top shape: 100 256 13 13 (4326400)
I0403 14:55:54.838793 30632 net.cpp:156] Memory required for data: 800703600
I0403 14:55:54.838815 30632 layer_factory.hpp:77] Creating layer relu5
I0403 14:55:54.838837 30632 net.cpp:91] Creating Layer relu5
I0403 14:55:54.838853 30632 net.cpp:425] relu5 <- conv5
I0403 14:55:54.838871 30632 net.cpp:386] relu5 -> conv5 (in-place)
I0403 14:55:54.839143 30632 net.cpp:141] Setting up relu5
I0403 14:55:54.839169 30632 net.cpp:148] Top shape: 100 256 13 13 (4326400)
I0403 14:55:54.839184 30632 net.cpp:156] Memory required for data: 818009200
I0403 14:55:54.839198 30632 layer_factory.hpp:77] Creating layer pool5
I0403 14:55:54.839222 30632 net.cpp:91] Creating Layer pool5
I0403 14:55:54.839238 30632 net.cpp:425] pool5 <- conv5
I0403 14:55:54.839257 30632 net.cpp:399] pool5 -> pool5
I0403 14:55:54.839316 30632 net.cpp:141] Setting up pool5
I0403 14:55:54.839340 30632 net.cpp:148] Top shape: 100 256 6 6 (921600)
I0403 14:55:54.839354 30632 net.cpp:156] Memory required for data: 821695600
I0403 14:55:54.839370 30632 layer_factory.hpp:77] Creating layer fc6
I0403 14:55:54.839398 30632 net.cpp:91] Creating Layer fc6
I0403 14:55:54.839416 30632 net.cpp:425] fc6 <- pool5
I0403 14:55:54.839433 30632 net.cpp:399] fc6 -> fc6
I0403 14:55:56.365214 30632 net.cpp:141] Setting up fc6
I0403 14:55:56.365298 30632 net.cpp:148] Top shape: 100 4096 (409600)
I0403 14:55:56.365314 30632 net.cpp:156] Memory required for data: 823334000
I0403 14:55:56.365336 30632 layer_factory.hpp:77] Creating layer relu6
I0403 14:55:56.365360 30632 net.cpp:91] Creating Layer relu6
I0403 14:55:56.365377 30632 net.cpp:425] relu6 <- fc6
I0403 14:55:56.365401 30632 net.cpp:386] relu6 -> fc6 (in-place)
I0403 14:55:56.365627 30632 net.cpp:141] Setting up relu6
I0403 14:55:56.365650 30632 net.cpp:148] Top shape: 100 4096 (409600)
I0403 14:55:56.365664 30632 net.cpp:156] Memory required for data: 824972400
I0403 14:55:56.365679 30632 layer_factory.hpp:77] Creating layer drop6
I0403 14:55:56.365697 30632 net.cpp:91] Creating Layer drop6
I0403 14:55:56.365712 30632 net.cpp:425] drop6 <- fc6
I0403 14:55:56.365731 30632 net.cpp:386] drop6 -> fc6 (in-place)
I0403 14:55:56.365787 30632 net.cpp:141] Setting up drop6
I0403 14:55:56.365808 30632 net.cpp:148] Top shape: 100 4096 (409600)
I0403 14:55:56.365823 30632 net.cpp:156] Memory required for data: 826610800
I0403 14:55:56.365836 30632 layer_factory.hpp:77] Creating layer fc7
I0403 14:55:56.365856 30632 net.cpp:91] Creating Layer fc7
I0403 14:55:56.365871 30632 net.cpp:425] fc7 <- fc6
I0403 14:55:56.365893 30632 net.cpp:399] fc7 -> fc7
I0403 14:55:57.030247 30632 net.cpp:141] Setting up fc7
I0403 14:55:57.030333 30632 net.cpp:148] Top shape: 100 4096 (409600)
I0403 14:55:57.030349 30632 net.cpp:156] Memory required for data: 828249200
I0403 14:55:57.030371 30632 layer_factory.hpp:77] Creating layer relu7
I0403 14:55:57.030397 30632 net.cpp:91] Creating Layer relu7
I0403 14:55:57.030414 30632 net.cpp:425] relu7 <- fc7
I0403 14:55:57.030433 30632 net.cpp:386] relu7 -> fc7 (in-place)
I0403 14:55:57.030853 30632 net.cpp:141] Setting up relu7
I0403 14:55:57.030879 30632 net.cpp:148] Top shape: 100 4096 (409600)
I0403 14:55:57.030915 30632 net.cpp:156] Memory required for data: 829887600
I0403 14:55:57.030930 30632 layer_factory.hpp:77] Creating layer drop7
I0403 14:55:57.030951 30632 net.cpp:91] Creating Layer drop7
I0403 14:55:57.030966 30632 net.cpp:425] drop7 <- fc7
I0403 14:55:57.030982 30632 net.cpp:386] drop7 -> fc7 (in-place)
I0403 14:55:57.031023 30632 net.cpp:141] Setting up drop7
I0403 14:55:57.031047 30632 net.cpp:148] Top shape: 100 4096 (409600)
I0403 14:55:57.031062 30632 net.cpp:156] Memory required for data: 831526000
I0403 14:55:57.031076 30632 layer_factory.hpp:77] Creating layer fc8_plantvillage
I0403 14:55:57.031095 30632 net.cpp:91] Creating Layer fc8_plantvillage
I0403 14:55:57.031111 30632 net.cpp:425] fc8_plantvillage <- fc7
I0403 14:55:57.031129 30632 net.cpp:399] fc8_plantvillage -> fc8_plantvillage
I0403 14:55:57.037645 30632 net.cpp:141] Setting up fc8_plantvillage
I0403 14:55:57.037673 30632 net.cpp:148] Top shape: 100 38 (3800)
I0403 14:55:57.037688 30632 net.cpp:156] Memory required for data: 831541200
I0403 14:55:57.037705 30632 layer_factory.hpp:77] Creating layer fc8_plantvillage_fc8_plantvillage_0_split
I0403 14:55:57.037726 30632 net.cpp:91] Creating Layer fc8_plantvillage_fc8_plantvillage_0_split
I0403 14:55:57.037742 30632 net.cpp:425] fc8_plantvillage_fc8_plantvillage_0_split <- fc8_plantvillage
I0403 14:55:57.037761 30632 net.cpp:399] fc8_plantvillage_fc8_plantvillage_0_split -> fc8_plantvillage_fc8_plantvillage_0_split_0
I0403 14:55:57.037780 30632 net.cpp:399] fc8_plantvillage_fc8_plantvillage_0_split -> fc8_plantvillage_fc8_plantvillage_0_split_1
I0403 14:55:57.037798 30632 net.cpp:399] fc8_plantvillage_fc8_plantvillage_0_split -> fc8_plantvillage_fc8_plantvillage_0_split_2
I0403 14:55:57.037876 30632 net.cpp:141] Setting up fc8_plantvillage_fc8_plantvillage_0_split
I0403 14:55:57.037899 30632 net.cpp:148] Top shape: 100 38 (3800)
I0403 14:55:57.037914 30632 net.cpp:148] Top shape: 100 38 (3800)
I0403 14:55:57.037930 30632 net.cpp:148] Top shape: 100 38 (3800)
I0403 14:55:57.037942 30632 net.cpp:156] Memory required for data: 831586800
I0403 14:55:57.037956 30632 layer_factory.hpp:77] Creating layer prob
I0403 14:55:57.037974 30632 net.cpp:91] Creating Layer prob
I0403 14:55:57.037989 30632 net.cpp:425] prob <- fc8_plantvillage_fc8_plantvillage_0_split_0
I0403 14:55:57.038010 30632 net.cpp:399] prob -> prob
I0403 14:55:57.038230 30632 net.cpp:141] Setting up prob
I0403 14:55:57.038255 30632 net.cpp:148] Top shape: 100 38 (3800)
I0403 14:55:57.038269 30632 net.cpp:156] Memory required for data: 831602000
I0403 14:55:57.038283 30632 layer_factory.hpp:77] Creating layer hdf5out
I0403 14:55:57.038305 30632 net.cpp:91] Creating Layer hdf5out
I0403 14:55:57.038319 30632 net.cpp:425] hdf5out <- prob
I0403 14:55:57.038336 30632 net.cpp:425] hdf5out <- label_data_1_split_0
I0403 14:55:57.042047 30632 net.cpp:141] Setting up hdf5out
…
