…
I0403 14:34:50.572515 29987 net.cpp:313] The NetState phase (1) differed from the phase (0) specified by a rule in layer data
I0403 14:34:50.573143 29987 net.cpp:49] Initializing net from parameters: 
state {
  phase: TEST
}
layer {
  name: "data"
  type: "Data"
  top: "data"
  top: "label"
  include {
    phase: TEST
  }
  transform_param {
    crop_size: 227
    mean_file: "/home/mohanty/data/final_dataset/lmdb/segmented-40-60/mean.binaryproto"
  }
  data_param {
    source: "/home/mohanty/data/final_dataset/lmdb/segmented-40-60/test_db"
    batch_size: 100
    backend: LMDB
  }
}
layer {
  name: "conv1"
  type: "Convolution"
  bottom: "data"
  top: "conv1"
  param {
    lr_mult: 1
    decay_mult: 1
  }
  param {
    lr_mult: 2
    decay_mult: 0
  }
  convolution_param {
    num_output: 96
    kernel_size: 11
    stride: 4
    weight_filler {
      type: "gaussian"
      std: 0.01
    }
    bias_filler {
      type: "constant"
      value: 0
    }
  }
}
layer {
  name: "relu1"
  type: "ReLU"
  bottom: "conv1"
  top: "conv1"
}
layer {
  name: "norm1"
  type: "LRN"
  bottom: "conv1"
  top: "norm1"
  lrn_param {
    local_size: 5
    alpha: 0.0001
    beta: 0.75
  }
}
layer {
  name: "pool1"
  type: "Pooling"
  bottom: "norm1"
  top: "pool1"
  pooling_param {
    pool: MAX
    kernel_size: 3
    stride: 2
  }
}
layer {
  name: "conv2"
  type: "Convolution"
  bottom: "pool1"
  top: "conv2"
  param {
    lr_mult: 1
    decay_mult: 1
  }
  param {
    lr_mult: 2
    decay_mult: 0
  }
  convolution_param {
    num_output: 256
    pad: 2
    kernel_size: 5
    group: 2
    weight_filler {
      type: "gaussian"
      std: 0.01
    }
    bias_filler {
      type: "constant"
      value: 0.1
    }
  }
}
layer {
  name: "relu2"
  type: "ReLU"
  bottom: "conv2"
  top: "conv2"
}
layer {
  name: "norm2"
  type: "LRN"
  bottom: "conv2"
  top: "norm2"
  lrn_param {
    local_size: 5
    alpha: 0.0001
    beta: 0.75
  }
}
layer {
  name: "pool2"
  type: "Pooling"
  bottom: "norm2"
  top: "pool2"
  pooling_param {
    pool: MAX
    kernel_size: 3
    stride: 2
  }
}
layer {
  name: "conv3"
  type: "Convolution"
  bottom: "pool2"
  top: "conv3"
  param {
    lr_mult: 1
    decay_mult: 1
  }
  param {
    lr_mult: 2
    decay_mult: 0
  }
  convolution_param {
    num_output: 384
    pad: 1
    kernel_size: 3
    weight_filler {
      type: "gaussian"
      std: 0.01
    }
    bias_filler {
      type: "constant"
      value: 0
    }
  }
}
layer {
  name: "relu3"
  type: "ReLU"
  bottom: "conv3"
  top: "conv3"
}
layer {
  name: "conv4"
  type: "Convolution"
  bottom: "conv3"
  top: "conv4"
  param {
    lr_mult: 1
    decay_mult: 1
  }
  param {
    lr_mult: 2
    decay_mult: 0
  }
  convolution_param {
    num_output: 384
    pad: 1
    kernel_size: 3
    group: 2
    weight_filler {
      type: "gaussian"
      std: 0.01
    }
    bias_filler {
      type: "constant"
      value: 0.1
    }
  }
}
layer {
  name: "relu4"
  type: "ReLU"
  bottom: "conv4"
  top: "conv4"
}
layer {
  name: "conv5"
  type: "Convolution"
  bottom: "conv4"
  top: "conv5"
  param {
    lr_mult: 1
    decay_mult: 1
  }
  param {
    lr_mult: 2
    decay_mult: 0
  }
  convolution_param {
    num_output: 256
    pad: 1
    kernel_size: 3
    group: 2
    weight_filler {
      type: "gaussian"
      std: 0.01
    }
    bias_filler {
      type: "constant"
      value: 0.1
    }
  }
}
layer {
  name: "relu5"
  type: "ReLU"
  bottom: "conv5"
  top: "conv5"
}
layer {
  name: "pool5"
  type: "Pooling"
  bottom: "conv5"
  top: "pool5"
  pooling_param {
    pool: MAX
    kernel_size: 3
    stride: 2
  }
}
layer {
  name: "fc6"
  type: "InnerProduct"
  bottom: "pool5"
  top: "fc6"
  param {
    lr_mult: 1
    decay_mult: 1
  }
  param {
    lr_mult: 2
    decay_mult: 0
  }
  inner_product_param {
    num_output: 4096
    weight_filler {
      type: "gaussian"
      std: 0.005
    }
    bias_filler {
      type: "constant"
      value: 0.1
    }
  }
}
layer {
  name: "relu6"
  type: "ReLU"
  bottom: "fc6"
  top: "fc6"
}
layer {
  name: "drop6"
  type: "Dropout"
  bottom: "fc6"
  top: "fc6"
  dropout_param {
    dropout_ratio: 0.5
  }
}
layer {
  name: "fc7"
  type: "InnerProduct"
  bottom: "fc6"
  top: "fc7"
  param {
    lr_mult: 1
    decay_mult: 1
  }
  param {
    lr_mult: 2
    decay_mult: 0
  }
  inner_product_param {
    num_output: 4096
    weight_filler {
      type: "gaussian"
      std: 0.005
    }
    bias_filler {
      type: "constant"
      value: 0.1
    }
  }
}
layer {
  name: "relu7"
  type: "ReLU"
  bottom: "fc7"
  top: "fc7"
}
layer {
  name: "drop7"
  type: "Dropout"
  bottom: "fc7"
  top: "fc7"
  dropout_param {
    dropout_ratio: 0.5
  }
}
layer {
  name: "fc8_plantvillage"
  type: "InnerProduct"
  bottom: "fc7"
  top: "fc8_plantvillage"
  param {
    lr_mult: 1
    decay_mult: 1
  }
  param {
    lr_mult: 2
    decay_mult: 0
  }
  inner_product_param {
    num_output: 38
    weight_filler {
      type: "gaussian"
      std: 0.01
    }
    bias_filler {
      type: "constant"
      value: 0
    }
  }
}
layer {
  name: "prob"
  type: "Softmax"
  bottom: "fc8_plantvillage"
  top: "prob"
  include {
    phase: TEST
  }
}
layer {
  name: "hdf5out"
  type: "HDF5Output"
  bottom: "prob"
  bottom: "label"
  include {
    phase: TEST
  }
  hdf5_output_param {
    file_name: "hdf5_dumps/iter_1533.h5"
  }
}
layer {
  name: "loss"
  type: "SoftmaxWithLoss"
  bottom: "fc8_plantvillage"
  bottom: "label"
  top: "loss"
}
layer {
  name: "accuracy"
  type: "Accuracy"
  bottom: "fc8_plantvillage"
  bottom: "label"
  top: "accuracy"
  include {
    phase: TEST
  }
}
I0403 14:34:50.574129 29987 layer_factory.hpp:77] Creating layer data
I0403 14:34:50.575525 29987 net.cpp:91] Creating Layer data
I0403 14:34:50.575574 29987 net.cpp:399] data -> data
I0403 14:34:50.575670 29987 net.cpp:399] data -> label
I0403 14:34:50.575747 29987 data_transformer.cpp:25] Loading mean file from: /home/mohanty/data/final_dataset/lmdb/segmented-40-60/mean.binaryproto
I0403 14:34:50.579217 29989 db_lmdb.cpp:38] Opened lmdb /home/mohanty/data/final_dataset/lmdb/segmented-40-60/test_db
I0403 14:34:50.593590 29987 data_layer.cpp:41] output data size: 100,3,227,227
I0403 14:34:50.707614 29987 net.cpp:141] Setting up data
I0403 14:34:50.707713 29987 net.cpp:148] Top shape: 100 3 227 227 (15458700)
I0403 14:34:50.707736 29987 net.cpp:148] Top shape: 100 (100)
I0403 14:34:50.707751 29987 net.cpp:156] Memory required for data: 61835200
I0403 14:34:50.707782 29987 layer_factory.hpp:77] Creating layer label_data_1_split
I0403 14:34:50.707808 29987 net.cpp:91] Creating Layer label_data_1_split
I0403 14:34:50.707828 29987 net.cpp:425] label_data_1_split <- label
I0403 14:34:50.707861 29987 net.cpp:399] label_data_1_split -> label_data_1_split_0
I0403 14:34:50.707888 29987 net.cpp:399] label_data_1_split -> label_data_1_split_1
I0403 14:34:50.707908 29987 net.cpp:399] label_data_1_split -> label_data_1_split_2
I0403 14:34:50.707970 29987 net.cpp:141] Setting up label_data_1_split
I0403 14:34:50.707993 29987 net.cpp:148] Top shape: 100 (100)
I0403 14:34:50.708009 29987 net.cpp:148] Top shape: 100 (100)
I0403 14:34:50.708024 29987 net.cpp:148] Top shape: 100 (100)
I0403 14:34:50.708037 29987 net.cpp:156] Memory required for data: 61836400
I0403 14:34:50.708051 29987 layer_factory.hpp:77] Creating layer conv1
I0403 14:34:50.708098 29987 net.cpp:91] Creating Layer conv1
I0403 14:34:50.708117 29987 net.cpp:425] conv1 <- data
I0403 14:34:50.708137 29987 net.cpp:399] conv1 -> conv1
I0403 14:34:50.841258 29987 net.cpp:141] Setting up conv1
I0403 14:34:50.841337 29987 net.cpp:148] Top shape: 100 96 55 55 (29040000)
I0403 14:34:50.841354 29987 net.cpp:156] Memory required for data: 177996400
I0403 14:34:50.841387 29987 layer_factory.hpp:77] Creating layer relu1
I0403 14:34:50.841416 29987 net.cpp:91] Creating Layer relu1
I0403 14:34:50.841434 29987 net.cpp:425] relu1 <- conv1
I0403 14:34:50.841455 29987 net.cpp:386] relu1 -> conv1 (in-place)
I0403 14:34:50.841759 29987 net.cpp:141] Setting up relu1
I0403 14:34:50.841785 29987 net.cpp:148] Top shape: 100 96 55 55 (29040000)
I0403 14:34:50.841833 29987 net.cpp:156] Memory required for data: 294156400
I0403 14:34:50.841850 29987 layer_factory.hpp:77] Creating layer norm1
I0403 14:34:50.841883 29987 net.cpp:91] Creating Layer norm1
I0403 14:34:50.841902 29987 net.cpp:425] norm1 <- conv1
I0403 14:34:50.841919 29987 net.cpp:399] norm1 -> norm1
I0403 14:34:50.842236 29987 net.cpp:141] Setting up norm1
I0403 14:34:50.842262 29987 net.cpp:148] Top shape: 100 96 55 55 (29040000)
I0403 14:34:50.842278 29987 net.cpp:156] Memory required for data: 410316400
I0403 14:34:50.842293 29987 layer_factory.hpp:77] Creating layer pool1
I0403 14:34:50.842317 29987 net.cpp:91] Creating Layer pool1
I0403 14:34:50.842335 29987 net.cpp:425] pool1 <- norm1
I0403 14:34:50.842353 29987 net.cpp:399] pool1 -> pool1
I0403 14:34:50.842425 29987 net.cpp:141] Setting up pool1
I0403 14:34:50.842449 29987 net.cpp:148] Top shape: 100 96 27 27 (6998400)
I0403 14:34:50.842463 29987 net.cpp:156] Memory required for data: 438310000
I0403 14:34:50.842478 29987 layer_factory.hpp:77] Creating layer conv2
I0403 14:34:50.842511 29987 net.cpp:91] Creating Layer conv2
I0403 14:34:50.842528 29987 net.cpp:425] conv2 <- pool1
I0403 14:34:50.842551 29987 net.cpp:399] conv2 -> conv2
I0403 14:34:50.857033 29987 net.cpp:141] Setting up conv2
I0403 14:34:50.857069 29987 net.cpp:148] Top shape: 100 256 27 27 (18662400)
I0403 14:34:50.857085 29987 net.cpp:156] Memory required for data: 512959600
I0403 14:34:50.857110 29987 layer_factory.hpp:77] Creating layer relu2
I0403 14:34:50.857130 29987 net.cpp:91] Creating Layer relu2
I0403 14:34:50.857187 29987 net.cpp:425] relu2 <- conv2
I0403 14:34:50.857204 29987 net.cpp:386] relu2 -> conv2 (in-place)
I0403 14:34:50.857475 29987 net.cpp:141] Setting up relu2
I0403 14:34:50.857506 29987 net.cpp:148] Top shape: 100 256 27 27 (18662400)
I0403 14:34:50.857523 29987 net.cpp:156] Memory required for data: 587609200
I0403 14:34:50.857538 29987 layer_factory.hpp:77] Creating layer norm2
I0403 14:34:50.857556 29987 net.cpp:91] Creating Layer norm2
I0403 14:34:50.857573 29987 net.cpp:425] norm2 <- conv2
I0403 14:34:50.857594 29987 net.cpp:399] norm2 -> norm2
I0403 14:34:50.857780 29987 net.cpp:141] Setting up norm2
I0403 14:34:50.857805 29987 net.cpp:148] Top shape: 100 256 27 27 (18662400)
I0403 14:34:50.857820 29987 net.cpp:156] Memory required for data: 662258800
I0403 14:34:50.857833 29987 layer_factory.hpp:77] Creating layer pool2
I0403 14:34:50.857853 29987 net.cpp:91] Creating Layer pool2
I0403 14:34:50.857870 29987 net.cpp:425] pool2 <- norm2
I0403 14:34:50.857887 29987 net.cpp:399] pool2 -> pool2
I0403 14:34:50.857939 29987 net.cpp:141] Setting up pool2
I0403 14:34:50.857961 29987 net.cpp:148] Top shape: 100 256 13 13 (4326400)
I0403 14:34:50.857975 29987 net.cpp:156] Memory required for data: 679564400
I0403 14:34:50.857990 29987 layer_factory.hpp:77] Creating layer conv3
I0403 14:34:50.858011 29987 net.cpp:91] Creating Layer conv3
I0403 14:34:50.858028 29987 net.cpp:425] conv3 <- pool2
I0403 14:34:50.858047 29987 net.cpp:399] conv3 -> conv3
I0403 14:34:50.894914 29987 net.cpp:141] Setting up conv3
I0403 14:34:50.894963 29987 net.cpp:148] Top shape: 100 384 13 13 (6489600)
I0403 14:34:50.894979 29987 net.cpp:156] Memory required for data: 705522800
I0403 14:34:50.895004 29987 layer_factory.hpp:77] Creating layer relu3
I0403 14:34:50.895027 29987 net.cpp:91] Creating Layer relu3
I0403 14:34:50.895043 29987 net.cpp:425] relu3 <- conv3
I0403 14:34:50.895061 29987 net.cpp:386] relu3 -> conv3 (in-place)
I0403 14:34:50.895326 29987 net.cpp:141] Setting up relu3
I0403 14:34:50.895351 29987 net.cpp:148] Top shape: 100 384 13 13 (6489600)
I0403 14:34:50.895366 29987 net.cpp:156] Memory required for data: 731481200
I0403 14:34:50.895382 29987 layer_factory.hpp:77] Creating layer conv4
I0403 14:34:50.895407 29987 net.cpp:91] Creating Layer conv4
I0403 14:34:50.895424 29987 net.cpp:425] conv4 <- conv3
I0403 14:34:50.895442 29987 net.cpp:399] conv4 -> conv4
I0403 14:34:50.924265 29987 net.cpp:141] Setting up conv4
I0403 14:34:50.924314 29987 net.cpp:148] Top shape: 100 384 13 13 (6489600)
I0403 14:34:50.924370 29987 net.cpp:156] Memory required for data: 757439600
I0403 14:34:50.924391 29987 layer_factory.hpp:77] Creating layer relu4
I0403 14:34:50.924417 29987 net.cpp:91] Creating Layer relu4
I0403 14:34:50.924434 29987 net.cpp:425] relu4 <- conv4
I0403 14:34:50.924453 29987 net.cpp:386] relu4 -> conv4 (in-place)
I0403 14:34:50.924736 29987 net.cpp:141] Setting up relu4
I0403 14:34:50.924762 29987 net.cpp:148] Top shape: 100 384 13 13 (6489600)
I0403 14:34:50.924777 29987 net.cpp:156] Memory required for data: 783398000
I0403 14:34:50.924793 29987 layer_factory.hpp:77] Creating layer conv5
I0403 14:34:50.924816 29987 net.cpp:91] Creating Layer conv5
I0403 14:34:50.924834 29987 net.cpp:425] conv5 <- conv4
I0403 14:34:50.924854 29987 net.cpp:399] conv5 -> conv5
I0403 14:34:50.944190 29987 net.cpp:141] Setting up conv5
I0403 14:34:50.944223 29987 net.cpp:148] Top shape: 100 256 13 13 (4326400)
I0403 14:34:50.944241 29987 net.cpp:156] Memory required for data: 800703600
I0403 14:34:50.944267 29987 layer_factory.hpp:77] Creating layer relu5
I0403 14:34:50.944285 29987 net.cpp:91] Creating Layer relu5
I0403 14:34:50.944301 29987 net.cpp:425] relu5 <- conv5
I0403 14:34:50.944319 29987 net.cpp:386] relu5 -> conv5 (in-place)
I0403 14:34:50.944582 29987 net.cpp:141] Setting up relu5
I0403 14:34:50.944608 29987 net.cpp:148] Top shape: 100 256 13 13 (4326400)
I0403 14:34:50.944627 29987 net.cpp:156] Memory required for data: 818009200
I0403 14:34:50.944640 29987 layer_factory.hpp:77] Creating layer pool5
I0403 14:34:50.944664 29987 net.cpp:91] Creating Layer pool5
I0403 14:34:50.944679 29987 net.cpp:425] pool5 <- conv5
I0403 14:34:50.944696 29987 net.cpp:399] pool5 -> pool5
I0403 14:34:50.944756 29987 net.cpp:141] Setting up pool5
I0403 14:34:50.944777 29987 net.cpp:148] Top shape: 100 256 6 6 (921600)
I0403 14:34:50.944792 29987 net.cpp:156] Memory required for data: 821695600
I0403 14:34:50.944805 29987 layer_factory.hpp:77] Creating layer fc6
I0403 14:34:50.944834 29987 net.cpp:91] Creating Layer fc6
I0403 14:34:50.944851 29987 net.cpp:425] fc6 <- pool5
I0403 14:34:50.944871 29987 net.cpp:399] fc6 -> fc6
I0403 14:34:52.409420 29987 net.cpp:141] Setting up fc6
I0403 14:34:52.409510 29987 net.cpp:148] Top shape: 100 4096 (409600)
I0403 14:34:52.409528 29987 net.cpp:156] Memory required for data: 823334000
I0403 14:34:52.409550 29987 layer_factory.hpp:77] Creating layer relu6
I0403 14:34:52.409574 29987 net.cpp:91] Creating Layer relu6
I0403 14:34:52.409590 29987 net.cpp:425] relu6 <- fc6
I0403 14:34:52.409612 29987 net.cpp:386] relu6 -> fc6 (in-place)
I0403 14:34:52.409843 29987 net.cpp:141] Setting up relu6
I0403 14:34:52.409868 29987 net.cpp:148] Top shape: 100 4096 (409600)
I0403 14:34:52.409880 29987 net.cpp:156] Memory required for data: 824972400
I0403 14:34:52.409894 29987 layer_factory.hpp:77] Creating layer drop6
I0403 14:34:52.409915 29987 net.cpp:91] Creating Layer drop6
I0403 14:34:52.409931 29987 net.cpp:425] drop6 <- fc6
I0403 14:34:52.409948 29987 net.cpp:386] drop6 -> fc6 (in-place)
I0403 14:34:52.410002 29987 net.cpp:141] Setting up drop6
I0403 14:34:52.410024 29987 net.cpp:148] Top shape: 100 4096 (409600)
I0403 14:34:52.410038 29987 net.cpp:156] Memory required for data: 826610800
I0403 14:34:52.410053 29987 layer_factory.hpp:77] Creating layer fc7
I0403 14:34:52.410074 29987 net.cpp:91] Creating Layer fc7
I0403 14:34:52.410090 29987 net.cpp:425] fc7 <- fc6
I0403 14:34:52.410109 29987 net.cpp:399] fc7 -> fc7
I0403 14:34:53.061295 29987 net.cpp:141] Setting up fc7
I0403 14:34:53.061364 29987 net.cpp:148] Top shape: 100 4096 (409600)
I0403 14:34:53.061379 29987 net.cpp:156] Memory required for data: 828249200
I0403 14:34:53.061403 29987 layer_factory.hpp:77] Creating layer relu7
I0403 14:34:53.061429 29987 net.cpp:91] Creating Layer relu7
I0403 14:34:53.061446 29987 net.cpp:425] relu7 <- fc7
I0403 14:34:53.061465 29987 net.cpp:386] relu7 -> fc7 (in-place)
I0403 14:34:53.061875 29987 net.cpp:141] Setting up relu7
I0403 14:34:53.061902 29987 net.cpp:148] Top shape: 100 4096 (409600)
I0403 14:34:53.061940 29987 net.cpp:156] Memory required for data: 829887600
I0403 14:34:53.061957 29987 layer_factory.hpp:77] Creating layer drop7
I0403 14:34:53.061978 29987 net.cpp:91] Creating Layer drop7
I0403 14:34:53.061995 29987 net.cpp:425] drop7 <- fc7
I0403 14:34:53.062011 29987 net.cpp:386] drop7 -> fc7 (in-place)
I0403 14:34:53.062054 29987 net.cpp:141] Setting up drop7
I0403 14:34:53.062077 29987 net.cpp:148] Top shape: 100 4096 (409600)
I0403 14:34:53.062090 29987 net.cpp:156] Memory required for data: 831526000
I0403 14:34:53.062105 29987 layer_factory.hpp:77] Creating layer fc8_plantvillage
I0403 14:34:53.062125 29987 net.cpp:91] Creating Layer fc8_plantvillage
I0403 14:34:53.062139 29987 net.cpp:425] fc8_plantvillage <- fc7
I0403 14:34:53.062158 29987 net.cpp:399] fc8_plantvillage -> fc8_plantvillage
I0403 14:34:53.068557 29987 net.cpp:141] Setting up fc8_plantvillage
I0403 14:34:53.068586 29987 net.cpp:148] Top shape: 100 38 (3800)
I0403 14:34:53.068601 29987 net.cpp:156] Memory required for data: 831541200
I0403 14:34:53.068620 29987 layer_factory.hpp:77] Creating layer fc8_plantvillage_fc8_plantvillage_0_split
I0403 14:34:53.068639 29987 net.cpp:91] Creating Layer fc8_plantvillage_fc8_plantvillage_0_split
I0403 14:34:53.068653 29987 net.cpp:425] fc8_plantvillage_fc8_plantvillage_0_split <- fc8_plantvillage
I0403 14:34:53.068670 29987 net.cpp:399] fc8_plantvillage_fc8_plantvillage_0_split -> fc8_plantvillage_fc8_plantvillage_0_split_0
I0403 14:34:53.068689 29987 net.cpp:399] fc8_plantvillage_fc8_plantvillage_0_split -> fc8_plantvillage_fc8_plantvillage_0_split_1
I0403 14:34:53.068708 29987 net.cpp:399] fc8_plantvillage_fc8_plantvillage_0_split -> fc8_plantvillage_fc8_plantvillage_0_split_2
I0403 14:34:53.068784 29987 net.cpp:141] Setting up fc8_plantvillage_fc8_plantvillage_0_split
I0403 14:34:53.068806 29987 net.cpp:148] Top shape: 100 38 (3800)
I0403 14:34:53.068822 29987 net.cpp:148] Top shape: 100 38 (3800)
I0403 14:34:53.068837 29987 net.cpp:148] Top shape: 100 38 (3800)
I0403 14:34:53.068850 29987 net.cpp:156] Memory required for data: 831586800
I0403 14:34:53.068864 29987 layer_factory.hpp:77] Creating layer prob
I0403 14:34:53.068882 29987 net.cpp:91] Creating Layer prob
I0403 14:34:53.068897 29987 net.cpp:425] prob <- fc8_plantvillage_fc8_plantvillage_0_split_0
I0403 14:34:53.068914 29987 net.cpp:399] prob -> prob
I0403 14:34:53.069124 29987 net.cpp:141] Setting up prob
I0403 14:34:53.069149 29987 net.cpp:148] Top shape: 100 38 (3800)
I0403 14:34:53.069162 29987 net.cpp:156] Memory required for data: 831602000
I0403 14:34:53.069177 29987 layer_factory.hpp:77] Creating layer hdf5out
I0403 14:34:53.069198 29987 net.cpp:91] Creating Layer hdf5out
I0403 14:34:53.069214 29987 net.cpp:425] hdf5out <- prob
I0403 14:34:53.069231 29987 net.cpp:425] hdf5out <- label_data_1_split_0
I0403 14:34:53.072691 29987 net.cpp:141] Setting up hdf5out
…
