…
I0403 14:33:54.819756 29960 net.cpp:313] The NetState phase (1) differed from the phase (0) specified by a rule in layer data
I0403 14:33:54.820513 29960 net.cpp:49] Initializing net from parameters: 
state {
  phase: TEST
}
layer {
  name: "data"
  type: "Data"
  top: "data"
  top: "label"
  include {
    phase: TEST
  }
  transform_param {
    crop_size: 227
    mean_file: "/home/mohanty/data/final_dataset/lmdb/segmented-40-60/mean.binaryproto"
  }
  data_param {
    source: "/home/mohanty/data/final_dataset/lmdb/segmented-40-60/test_db"
    batch_size: 100
    backend: LMDB
  }
}
layer {
  name: "conv1"
  type: "Convolution"
  bottom: "data"
  top: "conv1"
  param {
    lr_mult: 1
    decay_mult: 1
  }
  param {
    lr_mult: 2
    decay_mult: 0
  }
  convolution_param {
    num_output: 96
    kernel_size: 11
    stride: 4
    weight_filler {
      type: "gaussian"
      std: 0.01
    }
    bias_filler {
      type: "constant"
      value: 0
    }
  }
}
layer {
  name: "relu1"
  type: "ReLU"
  bottom: "conv1"
  top: "conv1"
}
layer {
  name: "norm1"
  type: "LRN"
  bottom: "conv1"
  top: "norm1"
  lrn_param {
    local_size: 5
    alpha: 0.0001
    beta: 0.75
  }
}
layer {
  name: "pool1"
  type: "Pooling"
  bottom: "norm1"
  top: "pool1"
  pooling_param {
    pool: MAX
    kernel_size: 3
    stride: 2
  }
}
layer {
  name: "conv2"
  type: "Convolution"
  bottom: "pool1"
  top: "conv2"
  param {
    lr_mult: 1
    decay_mult: 1
  }
  param {
    lr_mult: 2
    decay_mult: 0
  }
  convolution_param {
    num_output: 256
    pad: 2
    kernel_size: 5
    group: 2
    weight_filler {
      type: "gaussian"
      std: 0.01
    }
    bias_filler {
      type: "constant"
      value: 0.1
    }
  }
}
layer {
  name: "relu2"
  type: "ReLU"
  bottom: "conv2"
  top: "conv2"
}
layer {
  name: "norm2"
  type: "LRN"
  bottom: "conv2"
  top: "norm2"
  lrn_param {
    local_size: 5
    alpha: 0.0001
    beta: 0.75
  }
}
layer {
  name: "pool2"
  type: "Pooling"
  bottom: "norm2"
  top: "pool2"
  pooling_param {
    pool: MAX
    kernel_size: 3
    stride: 2
  }
}
layer {
  name: "conv3"
  type: "Convolution"
  bottom: "pool2"
  top: "conv3"
  param {
    lr_mult: 1
    decay_mult: 1
  }
  param {
    lr_mult: 2
    decay_mult: 0
  }
  convolution_param {
    num_output: 384
    pad: 1
    kernel_size: 3
    weight_filler {
      type: "gaussian"
      std: 0.01
    }
    bias_filler {
      type: "constant"
      value: 0
    }
  }
}
layer {
  name: "relu3"
  type: "ReLU"
  bottom: "conv3"
  top: "conv3"
}
layer {
  name: "conv4"
  type: "Convolution"
  bottom: "conv3"
  top: "conv4"
  param {
    lr_mult: 1
    decay_mult: 1
  }
  param {
    lr_mult: 2
    decay_mult: 0
  }
  convolution_param {
    num_output: 384
    pad: 1
    kernel_size: 3
    group: 2
    weight_filler {
      type: "gaussian"
      std: 0.01
    }
    bias_filler {
      type: "constant"
      value: 0.1
    }
  }
}
layer {
  name: "relu4"
  type: "ReLU"
  bottom: "conv4"
  top: "conv4"
}
layer {
  name: "conv5"
  type: "Convolution"
  bottom: "conv4"
  top: "conv5"
  param {
    lr_mult: 1
    decay_mult: 1
  }
  param {
    lr_mult: 2
    decay_mult: 0
  }
  convolution_param {
    num_output: 256
    pad: 1
    kernel_size: 3
    group: 2
    weight_filler {
      type: "gaussian"
      std: 0.01
    }
    bias_filler {
      type: "constant"
      value: 0.1
    }
  }
}
layer {
  name: "relu5"
  type: "ReLU"
  bottom: "conv5"
  top: "conv5"
}
layer {
  name: "pool5"
  type: "Pooling"
  bottom: "conv5"
  top: "pool5"
  pooling_param {
    pool: MAX
    kernel_size: 3
    stride: 2
  }
}
layer {
  name: "fc6"
  type: "InnerProduct"
  bottom: "pool5"
  top: "fc6"
  param {
    lr_mult: 1
    decay_mult: 1
  }
  param {
    lr_mult: 2
    decay_mult: 0
  }
  inner_product_param {
    num_output: 4096
    weight_filler {
      type: "gaussian"
      std: 0.005
    }
    bias_filler {
      type: "constant"
      value: 0.1
    }
  }
}
layer {
  name: "relu6"
  type: "ReLU"
  bottom: "fc6"
  top: "fc6"
}
layer {
  name: "drop6"
  type: "Dropout"
  bottom: "fc6"
  top: "fc6"
  dropout_param {
    dropout_ratio: 0.5
  }
}
layer {
  name: "fc7"
  type: "InnerProduct"
  bottom: "fc6"
  top: "fc7"
  param {
    lr_mult: 1
    decay_mult: 1
  }
  param {
    lr_mult: 2
    decay_mult: 0
  }
  inner_product_param {
    num_output: 4096
    weight_filler {
      type: "gaussian"
      std: 0.005
    }
    bias_filler {
      type: "constant"
      value: 0.1
    }
  }
}
layer {
  name: "relu7"
  type: "ReLU"
  bottom: "fc7"
  top: "fc7"
}
layer {
  name: "drop7"
  type: "Dropout"
  bottom: "fc7"
  top: "fc7"
  dropout_param {
    dropout_ratio: 0.5
  }
}
layer {
  name: "fc8_plantvillage"
  type: "InnerProduct"
  bottom: "fc7"
  top: "fc8_plantvillage"
  param {
    lr_mult: 1
    decay_mult: 1
  }
  param {
    lr_mult: 2
    decay_mult: 0
  }
  inner_product_param {
    num_output: 38
    weight_filler {
      type: "gaussian"
      std: 0.01
    }
    bias_filler {
      type: "constant"
      value: 0
    }
  }
}
layer {
  name: "prob"
  type: "Softmax"
  bottom: "fc8_plantvillage"
  top: "prob"
  include {
    phase: TEST
  }
}
layer {
  name: "hdf5out"
  type: "HDF5Output"
  bottom: "prob"
  bottom: "label"
  include {
    phase: TEST
  }
  hdf5_output_param {
    file_name: "hdf5_dumps/iter_1314.h5"
  }
}
layer {
  name: "loss"
  type: "SoftmaxWithLoss"
  bottom: "fc8_plantvillage"
  bottom: "label"
  top: "loss"
}
layer {
  name: "accuracy"
  type: "Accuracy"
  bottom: "fc8_plantvillage"
  bottom: "label"
  top: "accuracy"
  include {
    phase: TEST
  }
}
I0403 14:33:54.821776 29960 layer_factory.hpp:77] Creating layer data
I0403 14:33:54.823387 29960 net.cpp:91] Creating Layer data
I0403 14:33:54.823463 29960 net.cpp:399] data -> data
I0403 14:33:54.823611 29960 net.cpp:399] data -> label
I0403 14:33:54.823709 29960 data_transformer.cpp:25] Loading mean file from: /home/mohanty/data/final_dataset/lmdb/segmented-40-60/mean.binaryproto
I0403 14:33:54.843395 29962 db_lmdb.cpp:38] Opened lmdb /home/mohanty/data/final_dataset/lmdb/segmented-40-60/test_db
I0403 14:33:54.849993 29960 data_layer.cpp:41] output data size: 100,3,227,227
I0403 14:33:54.968124 29960 net.cpp:141] Setting up data
I0403 14:33:54.968241 29960 net.cpp:148] Top shape: 100 3 227 227 (15458700)
I0403 14:33:54.968263 29960 net.cpp:148] Top shape: 100 (100)
I0403 14:33:54.968278 29960 net.cpp:156] Memory required for data: 61835200
I0403 14:33:54.968308 29960 layer_factory.hpp:77] Creating layer label_data_1_split
I0403 14:33:54.968338 29960 net.cpp:91] Creating Layer label_data_1_split
I0403 14:33:54.968355 29960 net.cpp:425] label_data_1_split <- label
I0403 14:33:54.968390 29960 net.cpp:399] label_data_1_split -> label_data_1_split_0
I0403 14:33:54.968418 29960 net.cpp:399] label_data_1_split -> label_data_1_split_1
I0403 14:33:54.968439 29960 net.cpp:399] label_data_1_split -> label_data_1_split_2
I0403 14:33:54.968502 29960 net.cpp:141] Setting up label_data_1_split
I0403 14:33:54.968525 29960 net.cpp:148] Top shape: 100 (100)
I0403 14:33:54.968549 29960 net.cpp:148] Top shape: 100 (100)
I0403 14:33:54.968567 29960 net.cpp:148] Top shape: 100 (100)
I0403 14:33:54.968581 29960 net.cpp:156] Memory required for data: 61836400
I0403 14:33:54.968596 29960 layer_factory.hpp:77] Creating layer conv1
I0403 14:33:54.968629 29960 net.cpp:91] Creating Layer conv1
I0403 14:33:54.968648 29960 net.cpp:425] conv1 <- data
I0403 14:33:54.968667 29960 net.cpp:399] conv1 -> conv1
I0403 14:33:55.106824 29960 net.cpp:141] Setting up conv1
I0403 14:33:55.106916 29960 net.cpp:148] Top shape: 100 96 55 55 (29040000)
I0403 14:33:55.106933 29960 net.cpp:156] Memory required for data: 177996400
I0403 14:33:55.106967 29960 layer_factory.hpp:77] Creating layer relu1
I0403 14:33:55.106997 29960 net.cpp:91] Creating Layer relu1
I0403 14:33:55.107014 29960 net.cpp:425] relu1 <- conv1
I0403 14:33:55.107033 29960 net.cpp:386] relu1 -> conv1 (in-place)
I0403 14:33:55.107285 29960 net.cpp:141] Setting up relu1
I0403 14:33:55.107311 29960 net.cpp:148] Top shape: 100 96 55 55 (29040000)
I0403 14:33:55.107362 29960 net.cpp:156] Memory required for data: 294156400
I0403 14:33:55.107378 29960 layer_factory.hpp:77] Creating layer norm1
I0403 14:33:55.107406 29960 net.cpp:91] Creating Layer norm1
I0403 14:33:55.107424 29960 net.cpp:425] norm1 <- conv1
I0403 14:33:55.107441 29960 net.cpp:399] norm1 -> norm1
I0403 14:33:55.107749 29960 net.cpp:141] Setting up norm1
I0403 14:33:55.107776 29960 net.cpp:148] Top shape: 100 96 55 55 (29040000)
I0403 14:33:55.107792 29960 net.cpp:156] Memory required for data: 410316400
I0403 14:33:55.107815 29960 layer_factory.hpp:77] Creating layer pool1
I0403 14:33:55.107838 29960 net.cpp:91] Creating Layer pool1
I0403 14:33:55.107856 29960 net.cpp:425] pool1 <- norm1
I0403 14:33:55.107874 29960 net.cpp:399] pool1 -> pool1
I0403 14:33:55.107967 29960 net.cpp:141] Setting up pool1
I0403 14:33:55.107991 29960 net.cpp:148] Top shape: 100 96 27 27 (6998400)
I0403 14:33:55.108006 29960 net.cpp:156] Memory required for data: 438310000
I0403 14:33:55.108021 29960 layer_factory.hpp:77] Creating layer conv2
I0403 14:33:55.108047 29960 net.cpp:91] Creating Layer conv2
I0403 14:33:55.108062 29960 net.cpp:425] conv2 <- pool1
I0403 14:33:55.108080 29960 net.cpp:399] conv2 -> conv2
I0403 14:33:55.122647 29960 net.cpp:141] Setting up conv2
I0403 14:33:55.122684 29960 net.cpp:148] Top shape: 100 256 27 27 (18662400)
I0403 14:33:55.122700 29960 net.cpp:156] Memory required for data: 512959600
I0403 14:33:55.122723 29960 layer_factory.hpp:77] Creating layer relu2
I0403 14:33:55.122746 29960 net.cpp:91] Creating Layer relu2
I0403 14:33:55.122763 29960 net.cpp:425] relu2 <- conv2
I0403 14:33:55.122782 29960 net.cpp:386] relu2 -> conv2 (in-place)
I0403 14:33:55.123054 29960 net.cpp:141] Setting up relu2
I0403 14:33:55.123080 29960 net.cpp:148] Top shape: 100 256 27 27 (18662400)
I0403 14:33:55.123095 29960 net.cpp:156] Memory required for data: 587609200
I0403 14:33:55.123109 29960 layer_factory.hpp:77] Creating layer norm2
I0403 14:33:55.123133 29960 net.cpp:91] Creating Layer norm2
I0403 14:33:55.123150 29960 net.cpp:425] norm2 <- conv2
I0403 14:33:55.123170 29960 net.cpp:399] norm2 -> norm2
I0403 14:33:55.123363 29960 net.cpp:141] Setting up norm2
I0403 14:33:55.123389 29960 net.cpp:148] Top shape: 100 256 27 27 (18662400)
I0403 14:33:55.123404 29960 net.cpp:156] Memory required for data: 662258800
I0403 14:33:55.123417 29960 layer_factory.hpp:77] Creating layer pool2
I0403 14:33:55.123437 29960 net.cpp:91] Creating Layer pool2
I0403 14:33:55.123453 29960 net.cpp:425] pool2 <- norm2
I0403 14:33:55.123471 29960 net.cpp:399] pool2 -> pool2
I0403 14:33:55.123533 29960 net.cpp:141] Setting up pool2
I0403 14:33:55.123566 29960 net.cpp:148] Top shape: 100 256 13 13 (4326400)
I0403 14:33:55.123581 29960 net.cpp:156] Memory required for data: 679564400
I0403 14:33:55.123595 29960 layer_factory.hpp:77] Creating layer conv3
I0403 14:33:55.123618 29960 net.cpp:91] Creating Layer conv3
I0403 14:33:55.123636 29960 net.cpp:425] conv3 <- pool2
I0403 14:33:55.123656 29960 net.cpp:399] conv3 -> conv3
I0403 14:33:55.161226 29960 net.cpp:141] Setting up conv3
I0403 14:33:55.161281 29960 net.cpp:148] Top shape: 100 384 13 13 (6489600)
I0403 14:33:55.161298 29960 net.cpp:156] Memory required for data: 705522800
I0403 14:33:55.161324 29960 layer_factory.hpp:77] Creating layer relu3
I0403 14:33:55.161345 29960 net.cpp:91] Creating Layer relu3
I0403 14:33:55.161361 29960 net.cpp:425] relu3 <- conv3
I0403 14:33:55.161381 29960 net.cpp:386] relu3 -> conv3 (in-place)
I0403 14:33:55.161656 29960 net.cpp:141] Setting up relu3
I0403 14:33:55.161682 29960 net.cpp:148] Top shape: 100 384 13 13 (6489600)
I0403 14:33:55.161697 29960 net.cpp:156] Memory required for data: 731481200
I0403 14:33:55.161712 29960 layer_factory.hpp:77] Creating layer conv4
I0403 14:33:55.161737 29960 net.cpp:91] Creating Layer conv4
I0403 14:33:55.161754 29960 net.cpp:425] conv4 <- conv3
I0403 14:33:55.161774 29960 net.cpp:399] conv4 -> conv4
I0403 14:33:55.191005 29960 net.cpp:141] Setting up conv4
I0403 14:33:55.191050 29960 net.cpp:148] Top shape: 100 384 13 13 (6489600)
I0403 14:33:55.191107 29960 net.cpp:156] Memory required for data: 757439600
I0403 14:33:55.191128 29960 layer_factory.hpp:77] Creating layer relu4
I0403 14:33:55.191151 29960 net.cpp:91] Creating Layer relu4
I0403 14:33:55.191169 29960 net.cpp:425] relu4 <- conv4
I0403 14:33:55.191186 29960 net.cpp:386] relu4 -> conv4 (in-place)
I0403 14:33:55.191480 29960 net.cpp:141] Setting up relu4
I0403 14:33:55.191509 29960 net.cpp:148] Top shape: 100 384 13 13 (6489600)
I0403 14:33:55.191530 29960 net.cpp:156] Memory required for data: 783398000
I0403 14:33:55.191550 29960 layer_factory.hpp:77] Creating layer conv5
I0403 14:33:55.191577 29960 net.cpp:91] Creating Layer conv5
I0403 14:33:55.191594 29960 net.cpp:425] conv5 <- conv4
I0403 14:33:55.191617 29960 net.cpp:399] conv5 -> conv5
I0403 14:33:55.212273 29960 net.cpp:141] Setting up conv5
I0403 14:33:55.212308 29960 net.cpp:148] Top shape: 100 256 13 13 (4326400)
I0403 14:33:55.212327 29960 net.cpp:156] Memory required for data: 800703600
I0403 14:33:55.212352 29960 layer_factory.hpp:77] Creating layer relu5
I0403 14:33:55.212373 29960 net.cpp:91] Creating Layer relu5
I0403 14:33:55.212390 29960 net.cpp:425] relu5 <- conv5
I0403 14:33:55.212409 29960 net.cpp:386] relu5 -> conv5 (in-place)
I0403 14:33:55.212685 29960 net.cpp:141] Setting up relu5
I0403 14:33:55.212712 29960 net.cpp:148] Top shape: 100 256 13 13 (4326400)
I0403 14:33:55.212726 29960 net.cpp:156] Memory required for data: 818009200
I0403 14:33:55.212743 29960 layer_factory.hpp:77] Creating layer pool5
I0403 14:33:55.212766 29960 net.cpp:91] Creating Layer pool5
I0403 14:33:55.212784 29960 net.cpp:425] pool5 <- conv5
I0403 14:33:55.212803 29960 net.cpp:399] pool5 -> pool5
I0403 14:33:55.212863 29960 net.cpp:141] Setting up pool5
I0403 14:33:55.212887 29960 net.cpp:148] Top shape: 100 256 6 6 (921600)
I0403 14:33:55.212900 29960 net.cpp:156] Memory required for data: 821695600
I0403 14:33:55.212915 29960 layer_factory.hpp:77] Creating layer fc6
I0403 14:33:55.212945 29960 net.cpp:91] Creating Layer fc6
I0403 14:33:55.212962 29960 net.cpp:425] fc6 <- pool5
I0403 14:33:55.212981 29960 net.cpp:399] fc6 -> fc6
I0403 14:33:56.681399 29960 net.cpp:141] Setting up fc6
I0403 14:33:56.681473 29960 net.cpp:148] Top shape: 100 4096 (409600)
I0403 14:33:56.681488 29960 net.cpp:156] Memory required for data: 823334000
I0403 14:33:56.681509 29960 layer_factory.hpp:77] Creating layer relu6
I0403 14:33:56.681532 29960 net.cpp:91] Creating Layer relu6
I0403 14:33:56.681555 29960 net.cpp:425] relu6 <- fc6
I0403 14:33:56.681577 29960 net.cpp:386] relu6 -> fc6 (in-place)
I0403 14:33:56.681798 29960 net.cpp:141] Setting up relu6
I0403 14:33:56.681821 29960 net.cpp:148] Top shape: 100 4096 (409600)
I0403 14:33:56.681835 29960 net.cpp:156] Memory required for data: 824972400
I0403 14:33:56.681849 29960 layer_factory.hpp:77] Creating layer drop6
I0403 14:33:56.681870 29960 net.cpp:91] Creating Layer drop6
I0403 14:33:56.681886 29960 net.cpp:425] drop6 <- fc6
I0403 14:33:56.681902 29960 net.cpp:386] drop6 -> fc6 (in-place)
I0403 14:33:56.681956 29960 net.cpp:141] Setting up drop6
I0403 14:33:56.681977 29960 net.cpp:148] Top shape: 100 4096 (409600)
I0403 14:33:56.681990 29960 net.cpp:156] Memory required for data: 826610800
I0403 14:33:56.682004 29960 layer_factory.hpp:77] Creating layer fc7
I0403 14:33:56.682024 29960 net.cpp:91] Creating Layer fc7
I0403 14:33:56.682039 29960 net.cpp:425] fc7 <- fc6
I0403 14:33:56.682057 29960 net.cpp:399] fc7 -> fc7
I0403 14:33:57.328120 29960 net.cpp:141] Setting up fc7
I0403 14:33:57.328196 29960 net.cpp:148] Top shape: 100 4096 (409600)
I0403 14:33:57.328212 29960 net.cpp:156] Memory required for data: 828249200
I0403 14:33:57.328233 29960 layer_factory.hpp:77] Creating layer relu7
I0403 14:33:57.328258 29960 net.cpp:91] Creating Layer relu7
I0403 14:33:57.328276 29960 net.cpp:425] relu7 <- fc7
I0403 14:33:57.328295 29960 net.cpp:386] relu7 -> fc7 (in-place)
I0403 14:33:57.328722 29960 net.cpp:141] Setting up relu7
I0403 14:33:57.328748 29960 net.cpp:148] Top shape: 100 4096 (409600)
I0403 14:33:57.328795 29960 net.cpp:156] Memory required for data: 829887600
I0403 14:33:57.328810 29960 layer_factory.hpp:77] Creating layer drop7
I0403 14:33:57.328830 29960 net.cpp:91] Creating Layer drop7
I0403 14:33:57.328845 29960 net.cpp:425] drop7 <- fc7
I0403 14:33:57.328862 29960 net.cpp:386] drop7 -> fc7 (in-place)
I0403 14:33:57.328904 29960 net.cpp:141] Setting up drop7
I0403 14:33:57.328925 29960 net.cpp:148] Top shape: 100 4096 (409600)
I0403 14:33:57.328939 29960 net.cpp:156] Memory required for data: 831526000
I0403 14:33:57.328953 29960 layer_factory.hpp:77] Creating layer fc8_plantvillage
I0403 14:33:57.328974 29960 net.cpp:91] Creating Layer fc8_plantvillage
I0403 14:33:57.328987 29960 net.cpp:425] fc8_plantvillage <- fc7
I0403 14:33:57.329005 29960 net.cpp:399] fc8_plantvillage -> fc8_plantvillage
I0403 14:33:57.335314 29960 net.cpp:141] Setting up fc8_plantvillage
I0403 14:33:57.335342 29960 net.cpp:148] Top shape: 100 38 (3800)
I0403 14:33:57.335357 29960 net.cpp:156] Memory required for data: 831541200
I0403 14:33:57.335381 29960 layer_factory.hpp:77] Creating layer fc8_plantvillage_fc8_plantvillage_0_split
I0403 14:33:57.335405 29960 net.cpp:91] Creating Layer fc8_plantvillage_fc8_plantvillage_0_split
I0403 14:33:57.335422 29960 net.cpp:425] fc8_plantvillage_fc8_plantvillage_0_split <- fc8_plantvillage
I0403 14:33:57.335438 29960 net.cpp:399] fc8_plantvillage_fc8_plantvillage_0_split -> fc8_plantvillage_fc8_plantvillage_0_split_0
I0403 14:33:57.335456 29960 net.cpp:399] fc8_plantvillage_fc8_plantvillage_0_split -> fc8_plantvillage_fc8_plantvillage_0_split_1
I0403 14:33:57.335476 29960 net.cpp:399] fc8_plantvillage_fc8_plantvillage_0_split -> fc8_plantvillage_fc8_plantvillage_0_split_2
I0403 14:33:57.335558 29960 net.cpp:141] Setting up fc8_plantvillage_fc8_plantvillage_0_split
I0403 14:33:57.335582 29960 net.cpp:148] Top shape: 100 38 (3800)
I0403 14:33:57.335597 29960 net.cpp:148] Top shape: 100 38 (3800)
I0403 14:33:57.335611 29960 net.cpp:148] Top shape: 100 38 (3800)
I0403 14:33:57.335623 29960 net.cpp:156] Memory required for data: 831586800
I0403 14:33:57.335636 29960 layer_factory.hpp:77] Creating layer prob
I0403 14:33:57.335654 29960 net.cpp:91] Creating Layer prob
I0403 14:33:57.335669 29960 net.cpp:425] prob <- fc8_plantvillage_fc8_plantvillage_0_split_0
I0403 14:33:57.335696 29960 net.cpp:399] prob -> prob
I0403 14:33:57.335908 29960 net.cpp:141] Setting up prob
I0403 14:33:57.335932 29960 net.cpp:148] Top shape: 100 38 (3800)
I0403 14:33:57.335945 29960 net.cpp:156] Memory required for data: 831602000
I0403 14:33:57.335959 29960 layer_factory.hpp:77] Creating layer hdf5out
I0403 14:33:57.335979 29960 net.cpp:91] Creating Layer hdf5out
I0403 14:33:57.335994 29960 net.cpp:425] hdf5out <- prob
I0403 14:33:57.336009 29960 net.cpp:425] hdf5out <- label_data_1_split_0
I0403 14:33:57.340620 29960 net.cpp:141] Setting up hdf5out
…
