…
I0403 14:39:29.653933 30086 net.cpp:313] The NetState phase (1) differed from the phase (0) specified by a rule in layer data
I0403 14:39:29.654330 30086 net.cpp:49] Initializing net from parameters: 
state {
  phase: TEST
}
layer {
  name: "data"
  type: "Data"
  top: "data"
  top: "label"
  include {
    phase: TEST
  }
  transform_param {
    crop_size: 227
    mean_file: "/home/mohanty/data/final_dataset/lmdb/segmented-40-60/mean.binaryproto"
  }
  data_param {
    source: "/home/mohanty/data/final_dataset/lmdb/segmented-40-60/test_db"
    batch_size: 100
    backend: LMDB
  }
}
layer {
  name: "conv1"
  type: "Convolution"
  bottom: "data"
  top: "conv1"
  param {
    lr_mult: 1
    decay_mult: 1
  }
  param {
    lr_mult: 2
    decay_mult: 0
  }
  convolution_param {
    num_output: 96
    kernel_size: 11
    stride: 4
    weight_filler {
      type: "gaussian"
      std: 0.01
    }
    bias_filler {
      type: "constant"
      value: 0
    }
  }
}
layer {
  name: "relu1"
  type: "ReLU"
  bottom: "conv1"
  top: "conv1"
}
layer {
  name: "norm1"
  type: "LRN"
  bottom: "conv1"
  top: "norm1"
  lrn_param {
    local_size: 5
    alpha: 0.0001
    beta: 0.75
  }
}
layer {
  name: "pool1"
  type: "Pooling"
  bottom: "norm1"
  top: "pool1"
  pooling_param {
    pool: MAX
    kernel_size: 3
    stride: 2
  }
}
layer {
  name: "conv2"
  type: "Convolution"
  bottom: "pool1"
  top: "conv2"
  param {
    lr_mult: 1
    decay_mult: 1
  }
  param {
    lr_mult: 2
    decay_mult: 0
  }
  convolution_param {
    num_output: 256
    pad: 2
    kernel_size: 5
    group: 2
    weight_filler {
      type: "gaussian"
      std: 0.01
    }
    bias_filler {
      type: "constant"
      value: 0.1
    }
  }
}
layer {
  name: "relu2"
  type: "ReLU"
  bottom: "conv2"
  top: "conv2"
}
layer {
  name: "norm2"
  type: "LRN"
  bottom: "conv2"
  top: "norm2"
  lrn_param {
    local_size: 5
    alpha: 0.0001
    beta: 0.75
  }
}
layer {
  name: "pool2"
  type: "Pooling"
  bottom: "norm2"
  top: "pool2"
  pooling_param {
    pool: MAX
    kernel_size: 3
    stride: 2
  }
}
layer {
  name: "conv3"
  type: "Convolution"
  bottom: "pool2"
  top: "conv3"
  param {
    lr_mult: 1
    decay_mult: 1
  }
  param {
    lr_mult: 2
    decay_mult: 0
  }
  convolution_param {
    num_output: 384
    pad: 1
    kernel_size: 3
    weight_filler {
      type: "gaussian"
      std: 0.01
    }
    bias_filler {
      type: "constant"
      value: 0
    }
  }
}
layer {
  name: "relu3"
  type: "ReLU"
  bottom: "conv3"
  top: "conv3"
}
layer {
  name: "conv4"
  type: "Convolution"
  bottom: "conv3"
  top: "conv4"
  param {
    lr_mult: 1
    decay_mult: 1
  }
  param {
    lr_mult: 2
    decay_mult: 0
  }
  convolution_param {
    num_output: 384
    pad: 1
    kernel_size: 3
    group: 2
    weight_filler {
      type: "gaussian"
      std: 0.01
    }
    bias_filler {
      type: "constant"
      value: 0.1
    }
  }
}
layer {
  name: "relu4"
  type: "ReLU"
  bottom: "conv4"
  top: "conv4"
}
layer {
  name: "conv5"
  type: "Convolution"
  bottom: "conv4"
  top: "conv5"
  param {
    lr_mult: 1
    decay_mult: 1
  }
  param {
    lr_mult: 2
    decay_mult: 0
  }
  convolution_param {
    num_output: 256
    pad: 1
    kernel_size: 3
    group: 2
    weight_filler {
      type: "gaussian"
      std: 0.01
    }
    bias_filler {
      type: "constant"
      value: 0.1
    }
  }
}
layer {
  name: "relu5"
  type: "ReLU"
  bottom: "conv5"
  top: "conv5"
}
layer {
  name: "pool5"
  type: "Pooling"
  bottom: "conv5"
  top: "pool5"
  pooling_param {
    pool: MAX
    kernel_size: 3
    stride: 2
  }
}
layer {
  name: "fc6"
  type: "InnerProduct"
  bottom: "pool5"
  top: "fc6"
  param {
    lr_mult: 1
    decay_mult: 1
  }
  param {
    lr_mult: 2
    decay_mult: 0
  }
  inner_product_param {
    num_output: 4096
    weight_filler {
      type: "gaussian"
      std: 0.005
    }
    bias_filler {
      type: "constant"
      value: 0.1
    }
  }
}
layer {
  name: "relu6"
  type: "ReLU"
  bottom: "fc6"
  top: "fc6"
}
layer {
  name: "drop6"
  type: "Dropout"
  bottom: "fc6"
  top: "fc6"
  dropout_param {
    dropout_ratio: 0.5
  }
}
layer {
  name: "fc7"
  type: "InnerProduct"
  bottom: "fc6"
  top: "fc7"
  param {
    lr_mult: 1
    decay_mult: 1
  }
  param {
    lr_mult: 2
    decay_mult: 0
  }
  inner_product_param {
    num_output: 4096
    weight_filler {
      type: "gaussian"
      std: 0.005
    }
    bias_filler {
      type: "constant"
      value: 0.1
    }
  }
}
layer {
  name: "relu7"
  type: "ReLU"
  bottom: "fc7"
  top: "fc7"
}
layer {
  name: "drop7"
  type: "Dropout"
  bottom: "fc7"
  top: "fc7"
  dropout_param {
    dropout_ratio: 0.5
  }
}
layer {
  name: "fc8_plantvillage"
  type: "InnerProduct"
  bottom: "fc7"
  top: "fc8_plantvillage"
  param {
    lr_mult: 1
    decay_mult: 1
  }
  param {
    lr_mult: 2
    decay_mult: 0
  }
  inner_product_param {
    num_output: 38
    weight_filler {
      type: "gaussian"
      std: 0.01
    }
    bias_filler {
      type: "constant"
      value: 0
    }
  }
}
layer {
  name: "prob"
  type: "Softmax"
  bottom: "fc8_plantvillage"
  top: "prob"
  include {
    phase: TEST
  }
}
layer {
  name: "hdf5out"
  type: "HDF5Output"
  bottom: "prob"
  bottom: "label"
  include {
    phase: TEST
  }
  hdf5_output_param {
    file_name: "hdf5_dumps/iter_2628.h5"
  }
}
layer {
  name: "loss"
  type: "SoftmaxWithLoss"
  bottom: "fc8_plantvillage"
  bottom: "label"
  top: "loss"
}
layer {
  name: "accuracy"
  type: "Accuracy"
  bottom: "fc8_plantvillage"
  bottom: "label"
  top: "accuracy"
  include {
    phase: TEST
  }
}
I0403 14:39:29.655114 30086 layer_factory.hpp:77] Creating layer data
I0403 14:39:29.656306 30086 net.cpp:91] Creating Layer data
I0403 14:39:29.656347 30086 net.cpp:399] data -> data
I0403 14:39:29.656412 30086 net.cpp:399] data -> label
I0403 14:39:29.656457 30086 data_transformer.cpp:25] Loading mean file from: /home/mohanty/data/final_dataset/lmdb/segmented-40-60/mean.binaryproto
I0403 14:39:29.659302 30088 db_lmdb.cpp:38] Opened lmdb /home/mohanty/data/final_dataset/lmdb/segmented-40-60/test_db
I0403 14:39:29.673398 30086 data_layer.cpp:41] output data size: 100,3,227,227
I0403 14:39:29.809201 30086 net.cpp:141] Setting up data
I0403 14:39:29.809326 30086 net.cpp:148] Top shape: 100 3 227 227 (15458700)
I0403 14:39:29.809357 30086 net.cpp:148] Top shape: 100 (100)
I0403 14:39:29.809378 30086 net.cpp:156] Memory required for data: 61835200
I0403 14:39:29.809417 30086 layer_factory.hpp:77] Creating layer label_data_1_split
I0403 14:39:29.809453 30086 net.cpp:91] Creating Layer label_data_1_split
I0403 14:39:29.809476 30086 net.cpp:425] label_data_1_split <- label
I0403 14:39:29.809520 30086 net.cpp:399] label_data_1_split -> label_data_1_split_0
I0403 14:39:29.809561 30086 net.cpp:399] label_data_1_split -> label_data_1_split_1
I0403 14:39:29.809589 30086 net.cpp:399] label_data_1_split -> label_data_1_split_2
I0403 14:39:29.809667 30086 net.cpp:141] Setting up label_data_1_split
I0403 14:39:29.809697 30086 net.cpp:148] Top shape: 100 (100)
I0403 14:39:29.809718 30086 net.cpp:148] Top shape: 100 (100)
I0403 14:39:29.809739 30086 net.cpp:148] Top shape: 100 (100)
I0403 14:39:29.809756 30086 net.cpp:156] Memory required for data: 61836400
I0403 14:39:29.809774 30086 layer_factory.hpp:77] Creating layer conv1
I0403 14:39:29.809816 30086 net.cpp:91] Creating Layer conv1
I0403 14:39:29.809839 30086 net.cpp:425] conv1 <- data
I0403 14:39:29.809862 30086 net.cpp:399] conv1 -> conv1
I0403 14:39:29.975087 30086 net.cpp:141] Setting up conv1
I0403 14:39:29.975183 30086 net.cpp:148] Top shape: 100 96 55 55 (29040000)
I0403 14:39:29.975205 30086 net.cpp:156] Memory required for data: 177996400
I0403 14:39:29.975245 30086 layer_factory.hpp:77] Creating layer relu1
I0403 14:39:29.975281 30086 net.cpp:91] Creating Layer relu1
I0403 14:39:29.975306 30086 net.cpp:425] relu1 <- conv1
I0403 14:39:29.975328 30086 net.cpp:386] relu1 -> conv1 (in-place)
I0403 14:39:29.975636 30086 net.cpp:141] Setting up relu1
I0403 14:39:29.975669 30086 net.cpp:148] Top shape: 100 96 55 55 (29040000)
I0403 14:39:29.975729 30086 net.cpp:156] Memory required for data: 294156400
I0403 14:39:29.975749 30086 layer_factory.hpp:77] Creating layer norm1
I0403 14:39:29.975785 30086 net.cpp:91] Creating Layer norm1
I0403 14:39:29.975806 30086 net.cpp:425] norm1 <- conv1
I0403 14:39:29.975828 30086 net.cpp:399] norm1 -> norm1
I0403 14:39:29.976223 30086 net.cpp:141] Setting up norm1
I0403 14:39:29.976258 30086 net.cpp:148] Top shape: 100 96 55 55 (29040000)
I0403 14:39:29.976277 30086 net.cpp:156] Memory required for data: 410316400
I0403 14:39:29.976296 30086 layer_factory.hpp:77] Creating layer pool1
I0403 14:39:29.976325 30086 net.cpp:91] Creating Layer pool1
I0403 14:39:29.976346 30086 net.cpp:425] pool1 <- norm1
I0403 14:39:29.976367 30086 net.cpp:399] pool1 -> pool1
I0403 14:39:29.976450 30086 net.cpp:141] Setting up pool1
I0403 14:39:29.976480 30086 net.cpp:148] Top shape: 100 96 27 27 (6998400)
I0403 14:39:29.976498 30086 net.cpp:156] Memory required for data: 438310000
I0403 14:39:29.976517 30086 layer_factory.hpp:77] Creating layer conv2
I0403 14:39:29.976554 30086 net.cpp:91] Creating Layer conv2
I0403 14:39:29.976577 30086 net.cpp:425] conv2 <- pool1
I0403 14:39:29.976608 30086 net.cpp:399] conv2 -> conv2
I0403 14:39:29.994424 30086 net.cpp:141] Setting up conv2
I0403 14:39:29.994468 30086 net.cpp:148] Top shape: 100 256 27 27 (18662400)
I0403 14:39:29.994490 30086 net.cpp:156] Memory required for data: 512959600
I0403 14:39:29.994521 30086 layer_factory.hpp:77] Creating layer relu2
I0403 14:39:29.994550 30086 net.cpp:91] Creating Layer relu2
I0403 14:39:29.994571 30086 net.cpp:425] relu2 <- conv2
I0403 14:39:29.994593 30086 net.cpp:386] relu2 -> conv2 (in-place)
I0403 14:39:29.994911 30086 net.cpp:141] Setting up relu2
I0403 14:39:29.994946 30086 net.cpp:148] Top shape: 100 256 27 27 (18662400)
I0403 14:39:29.994964 30086 net.cpp:156] Memory required for data: 587609200
I0403 14:39:29.994984 30086 layer_factory.hpp:77] Creating layer norm2
I0403 14:39:29.995010 30086 net.cpp:91] Creating Layer norm2
I0403 14:39:29.995029 30086 net.cpp:425] norm2 <- conv2
I0403 14:39:29.995051 30086 net.cpp:399] norm2 -> norm2
I0403 14:39:29.995267 30086 net.cpp:141] Setting up norm2
I0403 14:39:29.995298 30086 net.cpp:148] Top shape: 100 256 27 27 (18662400)
I0403 14:39:29.995316 30086 net.cpp:156] Memory required for data: 662258800
I0403 14:39:29.995334 30086 layer_factory.hpp:77] Creating layer pool2
I0403 14:39:29.995357 30086 net.cpp:91] Creating Layer pool2
I0403 14:39:29.995374 30086 net.cpp:425] pool2 <- norm2
I0403 14:39:29.995396 30086 net.cpp:399] pool2 -> pool2
I0403 14:39:29.995455 30086 net.cpp:141] Setting up pool2
I0403 14:39:29.995484 30086 net.cpp:148] Top shape: 100 256 13 13 (4326400)
I0403 14:39:29.995502 30086 net.cpp:156] Memory required for data: 679564400
I0403 14:39:29.995520 30086 layer_factory.hpp:77] Creating layer conv3
I0403 14:39:29.995551 30086 net.cpp:91] Creating Layer conv3
I0403 14:39:29.995573 30086 net.cpp:425] conv3 <- pool2
I0403 14:39:29.995594 30086 net.cpp:399] conv3 -> conv3
I0403 14:39:30.041681 30086 net.cpp:141] Setting up conv3
I0403 14:39:30.041740 30086 net.cpp:148] Top shape: 100 384 13 13 (6489600)
I0403 14:39:30.041792 30086 net.cpp:156] Memory required for data: 705522800
I0403 14:39:30.041824 30086 layer_factory.hpp:77] Creating layer relu3
I0403 14:39:30.041852 30086 net.cpp:91] Creating Layer relu3
I0403 14:39:30.041872 30086 net.cpp:425] relu3 <- conv3
I0403 14:39:30.041895 30086 net.cpp:386] relu3 -> conv3 (in-place)
I0403 14:39:30.042209 30086 net.cpp:141] Setting up relu3
I0403 14:39:30.042243 30086 net.cpp:148] Top shape: 100 384 13 13 (6489600)
I0403 14:39:30.042263 30086 net.cpp:156] Memory required for data: 731481200
I0403 14:39:30.042284 30086 layer_factory.hpp:77] Creating layer conv4
I0403 14:39:30.042315 30086 net.cpp:91] Creating Layer conv4
I0403 14:39:30.042335 30086 net.cpp:425] conv4 <- conv3
I0403 14:39:30.042363 30086 net.cpp:399] conv4 -> conv4
I0403 14:39:30.078339 30086 net.cpp:141] Setting up conv4
I0403 14:39:30.078395 30086 net.cpp:148] Top shape: 100 384 13 13 (6489600)
I0403 14:39:30.078454 30086 net.cpp:156] Memory required for data: 757439600
I0403 14:39:30.078480 30086 layer_factory.hpp:77] Creating layer relu4
I0403 14:39:30.078505 30086 net.cpp:91] Creating Layer relu4
I0403 14:39:30.078524 30086 net.cpp:425] relu4 <- conv4
I0403 14:39:30.078555 30086 net.cpp:386] relu4 -> conv4 (in-place)
I0403 14:39:30.078882 30086 net.cpp:141] Setting up relu4
I0403 14:39:30.078917 30086 net.cpp:148] Top shape: 100 384 13 13 (6489600)
I0403 14:39:30.078936 30086 net.cpp:156] Memory required for data: 783398000
I0403 14:39:30.078955 30086 layer_factory.hpp:77] Creating layer conv5
I0403 14:39:30.078984 30086 net.cpp:91] Creating Layer conv5
I0403 14:39:30.079006 30086 net.cpp:425] conv5 <- conv4
I0403 14:39:30.079030 30086 net.cpp:399] conv5 -> conv5
I0403 14:39:30.103868 30086 net.cpp:141] Setting up conv5
I0403 14:39:30.103909 30086 net.cpp:148] Top shape: 100 256 13 13 (4326400)
I0403 14:39:30.103929 30086 net.cpp:156] Memory required for data: 800703600
I0403 14:39:30.103956 30086 layer_factory.hpp:77] Creating layer relu5
I0403 14:39:30.103981 30086 net.cpp:91] Creating Layer relu5
I0403 14:39:30.103999 30086 net.cpp:425] relu5 <- conv5
I0403 14:39:30.104027 30086 net.cpp:386] relu5 -> conv5 (in-place)
I0403 14:39:30.104356 30086 net.cpp:141] Setting up relu5
I0403 14:39:30.104388 30086 net.cpp:148] Top shape: 100 256 13 13 (4326400)
I0403 14:39:30.104406 30086 net.cpp:156] Memory required for data: 818009200
I0403 14:39:30.104425 30086 layer_factory.hpp:77] Creating layer pool5
I0403 14:39:30.104454 30086 net.cpp:91] Creating Layer pool5
I0403 14:39:30.104475 30086 net.cpp:425] pool5 <- conv5
I0403 14:39:30.104497 30086 net.cpp:399] pool5 -> pool5
I0403 14:39:30.104611 30086 net.cpp:141] Setting up pool5
I0403 14:39:30.104642 30086 net.cpp:148] Top shape: 100 256 6 6 (921600)
I0403 14:39:30.104662 30086 net.cpp:156] Memory required for data: 821695600
I0403 14:39:30.104681 30086 layer_factory.hpp:77] Creating layer fc6
I0403 14:39:30.104718 30086 net.cpp:91] Creating Layer fc6
I0403 14:39:30.104740 30086 net.cpp:425] fc6 <- pool5
I0403 14:39:30.104763 30086 net.cpp:399] fc6 -> fc6
I0403 14:39:31.609165 30086 net.cpp:141] Setting up fc6
I0403 14:39:31.609262 30086 net.cpp:148] Top shape: 100 4096 (409600)
I0403 14:39:31.609277 30086 net.cpp:156] Memory required for data: 823334000
I0403 14:39:31.609299 30086 layer_factory.hpp:77] Creating layer relu6
I0403 14:39:31.609323 30086 net.cpp:91] Creating Layer relu6
I0403 14:39:31.609339 30086 net.cpp:425] relu6 <- fc6
I0403 14:39:31.609361 30086 net.cpp:386] relu6 -> fc6 (in-place)
I0403 14:39:31.609588 30086 net.cpp:141] Setting up relu6
I0403 14:39:31.609612 30086 net.cpp:148] Top shape: 100 4096 (409600)
I0403 14:39:31.609627 30086 net.cpp:156] Memory required for data: 824972400
I0403 14:39:31.609640 30086 layer_factory.hpp:77] Creating layer drop6
I0403 14:39:31.609658 30086 net.cpp:91] Creating Layer drop6
I0403 14:39:31.609673 30086 net.cpp:425] drop6 <- fc6
I0403 14:39:31.609693 30086 net.cpp:386] drop6 -> fc6 (in-place)
I0403 14:39:31.609743 30086 net.cpp:141] Setting up drop6
I0403 14:39:31.609767 30086 net.cpp:148] Top shape: 100 4096 (409600)
I0403 14:39:31.609782 30086 net.cpp:156] Memory required for data: 826610800
I0403 14:39:31.609797 30086 layer_factory.hpp:77] Creating layer fc7
I0403 14:39:31.609815 30086 net.cpp:91] Creating Layer fc7
I0403 14:39:31.609829 30086 net.cpp:425] fc7 <- fc6
I0403 14:39:31.609848 30086 net.cpp:399] fc7 -> fc7
I0403 14:39:32.259182 30086 net.cpp:141] Setting up fc7
I0403 14:39:32.259256 30086 net.cpp:148] Top shape: 100 4096 (409600)
I0403 14:39:32.259274 30086 net.cpp:156] Memory required for data: 828249200
I0403 14:39:32.259297 30086 layer_factory.hpp:77] Creating layer relu7
I0403 14:39:32.259320 30086 net.cpp:91] Creating Layer relu7
I0403 14:39:32.259366 30086 net.cpp:425] relu7 <- fc7
I0403 14:39:32.259387 30086 net.cpp:386] relu7 -> fc7 (in-place)
I0403 14:39:32.259809 30086 net.cpp:141] Setting up relu7
I0403 14:39:32.259835 30086 net.cpp:148] Top shape: 100 4096 (409600)
I0403 14:39:32.259889 30086 net.cpp:156] Memory required for data: 829887600
I0403 14:39:32.259908 30086 layer_factory.hpp:77] Creating layer drop7
I0403 14:39:32.259930 30086 net.cpp:91] Creating Layer drop7
I0403 14:39:32.259945 30086 net.cpp:425] drop7 <- fc7
I0403 14:39:32.259963 30086 net.cpp:386] drop7 -> fc7 (in-place)
I0403 14:39:32.260004 30086 net.cpp:141] Setting up drop7
I0403 14:39:32.260027 30086 net.cpp:148] Top shape: 100 4096 (409600)
I0403 14:39:32.260041 30086 net.cpp:156] Memory required for data: 831526000
I0403 14:39:32.260056 30086 layer_factory.hpp:77] Creating layer fc8_plantvillage
I0403 14:39:32.260076 30086 net.cpp:91] Creating Layer fc8_plantvillage
I0403 14:39:32.260089 30086 net.cpp:425] fc8_plantvillage <- fc7
I0403 14:39:32.260108 30086 net.cpp:399] fc8_plantvillage -> fc8_plantvillage
I0403 14:39:32.266474 30086 net.cpp:141] Setting up fc8_plantvillage
I0403 14:39:32.266504 30086 net.cpp:148] Top shape: 100 38 (3800)
I0403 14:39:32.266518 30086 net.cpp:156] Memory required for data: 831541200
I0403 14:39:32.266541 30086 layer_factory.hpp:77] Creating layer fc8_plantvillage_fc8_plantvillage_0_split
I0403 14:39:32.266561 30086 net.cpp:91] Creating Layer fc8_plantvillage_fc8_plantvillage_0_split
I0403 14:39:32.266577 30086 net.cpp:425] fc8_plantvillage_fc8_plantvillage_0_split <- fc8_plantvillage
I0403 14:39:32.266597 30086 net.cpp:399] fc8_plantvillage_fc8_plantvillage_0_split -> fc8_plantvillage_fc8_plantvillage_0_split_0
I0403 14:39:32.266618 30086 net.cpp:399] fc8_plantvillage_fc8_plantvillage_0_split -> fc8_plantvillage_fc8_plantvillage_0_split_1
I0403 14:39:32.266638 30086 net.cpp:399] fc8_plantvillage_fc8_plantvillage_0_split -> fc8_plantvillage_fc8_plantvillage_0_split_2
I0403 14:39:32.266715 30086 net.cpp:141] Setting up fc8_plantvillage_fc8_plantvillage_0_split
I0403 14:39:32.266737 30086 net.cpp:148] Top shape: 100 38 (3800)
I0403 14:39:32.266753 30086 net.cpp:148] Top shape: 100 38 (3800)
I0403 14:39:32.266768 30086 net.cpp:148] Top shape: 100 38 (3800)
I0403 14:39:32.266782 30086 net.cpp:156] Memory required for data: 831586800
I0403 14:39:32.266795 30086 layer_factory.hpp:77] Creating layer prob
I0403 14:39:32.266813 30086 net.cpp:91] Creating Layer prob
I0403 14:39:32.266827 30086 net.cpp:425] prob <- fc8_plantvillage_fc8_plantvillage_0_split_0
I0403 14:39:32.266846 30086 net.cpp:399] prob -> prob
I0403 14:39:32.267060 30086 net.cpp:141] Setting up prob
I0403 14:39:32.267083 30086 net.cpp:148] Top shape: 100 38 (3800)
I0403 14:39:32.267098 30086 net.cpp:156] Memory required for data: 831602000
I0403 14:39:32.267112 30086 layer_factory.hpp:77] Creating layer hdf5out
I0403 14:39:32.267129 30086 net.cpp:91] Creating Layer hdf5out
I0403 14:39:32.267144 30086 net.cpp:425] hdf5out <- prob
I0403 14:39:32.267161 30086 net.cpp:425] hdf5out <- label_data_1_split_0
I0403 14:39:32.292482 30086 net.cpp:141] Setting up hdf5out
…
