…
I0403 14:43:16.085738 30213 net.cpp:313] The NetState phase (1) differed from the phase (0) specified by a rule in layer data
I0403 14:43:16.086061 30213 net.cpp:49] Initializing net from parameters: 
state {
  phase: TEST
}
layer {
  name: "data"
  type: "Data"
  top: "data"
  top: "label"
  include {
    phase: TEST
  }
  transform_param {
    crop_size: 227
    mean_file: "/home/mohanty/data/final_dataset/lmdb/segmented-40-60/mean.binaryproto"
  }
  data_param {
    source: "/home/mohanty/data/final_dataset/lmdb/segmented-40-60/test_db"
    batch_size: 100
    backend: LMDB
  }
}
layer {
  name: "conv1"
  type: "Convolution"
  bottom: "data"
  top: "conv1"
  param {
    lr_mult: 1
    decay_mult: 1
  }
  param {
    lr_mult: 2
    decay_mult: 0
  }
  convolution_param {
    num_output: 96
    kernel_size: 11
    stride: 4
    weight_filler {
      type: "gaussian"
      std: 0.01
    }
    bias_filler {
      type: "constant"
      value: 0
    }
  }
}
layer {
  name: "relu1"
  type: "ReLU"
  bottom: "conv1"
  top: "conv1"
}
layer {
  name: "norm1"
  type: "LRN"
  bottom: "conv1"
  top: "norm1"
  lrn_param {
    local_size: 5
    alpha: 0.0001
    beta: 0.75
  }
}
layer {
  name: "pool1"
  type: "Pooling"
  bottom: "norm1"
  top: "pool1"
  pooling_param {
    pool: MAX
    kernel_size: 3
    stride: 2
  }
}
layer {
  name: "conv2"
  type: "Convolution"
  bottom: "pool1"
  top: "conv2"
  param {
    lr_mult: 1
    decay_mult: 1
  }
  param {
    lr_mult: 2
    decay_mult: 0
  }
  convolution_param {
    num_output: 256
    pad: 2
    kernel_size: 5
    group: 2
    weight_filler {
      type: "gaussian"
      std: 0.01
    }
    bias_filler {
      type: "constant"
      value: 0.1
    }
  }
}
layer {
  name: "relu2"
  type: "ReLU"
  bottom: "conv2"
  top: "conv2"
}
layer {
  name: "norm2"
  type: "LRN"
  bottom: "conv2"
  top: "norm2"
  lrn_param {
    local_size: 5
    alpha: 0.0001
    beta: 0.75
  }
}
layer {
  name: "pool2"
  type: "Pooling"
  bottom: "norm2"
  top: "pool2"
  pooling_param {
    pool: MAX
    kernel_size: 3
    stride: 2
  }
}
layer {
  name: "conv3"
  type: "Convolution"
  bottom: "pool2"
  top: "conv3"
  param {
    lr_mult: 1
    decay_mult: 1
  }
  param {
    lr_mult: 2
    decay_mult: 0
  }
  convolution_param {
    num_output: 384
    pad: 1
    kernel_size: 3
    weight_filler {
      type: "gaussian"
      std: 0.01
    }
    bias_filler {
      type: "constant"
      value: 0
    }
  }
}
layer {
  name: "relu3"
  type: "ReLU"
  bottom: "conv3"
  top: "conv3"
}
layer {
  name: "conv4"
  type: "Convolution"
  bottom: "conv3"
  top: "conv4"
  param {
    lr_mult: 1
    decay_mult: 1
  }
  param {
    lr_mult: 2
    decay_mult: 0
  }
  convolution_param {
    num_output: 384
    pad: 1
    kernel_size: 3
    group: 2
    weight_filler {
      type: "gaussian"
      std: 0.01
    }
    bias_filler {
      type: "constant"
      value: 0.1
    }
  }
}
layer {
  name: "relu4"
  type: "ReLU"
  bottom: "conv4"
  top: "conv4"
}
layer {
  name: "conv5"
  type: "Convolution"
  bottom: "conv4"
  top: "conv5"
  param {
    lr_mult: 1
    decay_mult: 1
  }
  param {
    lr_mult: 2
    decay_mult: 0
  }
  convolution_param {
    num_output: 256
    pad: 1
    kernel_size: 3
    group: 2
    weight_filler {
      type: "gaussian"
      std: 0.01
    }
    bias_filler {
      type: "constant"
      value: 0.1
    }
  }
}
layer {
  name: "relu5"
  type: "ReLU"
  bottom: "conv5"
  top: "conv5"
}
layer {
  name: "pool5"
  type: "Pooling"
  bottom: "conv5"
  top: "pool5"
  pooling_param {
    pool: MAX
    kernel_size: 3
    stride: 2
  }
}
layer {
  name: "fc6"
  type: "InnerProduct"
  bottom: "pool5"
  top: "fc6"
  param {
    lr_mult: 1
    decay_mult: 1
  }
  param {
    lr_mult: 2
    decay_mult: 0
  }
  inner_product_param {
    num_output: 4096
    weight_filler {
      type: "gaussian"
      std: 0.005
    }
    bias_filler {
      type: "constant"
      value: 0.1
    }
  }
}
layer {
  name: "relu6"
  type: "ReLU"
  bottom: "fc6"
  top: "fc6"
}
layer {
  name: "drop6"
  type: "Dropout"
  bottom: "fc6"
  top: "fc6"
  dropout_param {
    dropout_ratio: 0.5
  }
}
layer {
  name: "fc7"
  type: "InnerProduct"
  bottom: "fc6"
  top: "fc7"
  param {
    lr_mult: 1
    decay_mult: 1
  }
  param {
    lr_mult: 2
    decay_mult: 0
  }
  inner_product_param {
    num_output: 4096
    weight_filler {
      type: "gaussian"
      std: 0.005
    }
    bias_filler {
      type: "constant"
      value: 0.1
    }
  }
}
layer {
  name: "relu7"
  type: "ReLU"
  bottom: "fc7"
  top: "fc7"
}
layer {
  name: "drop7"
  type: "Dropout"
  bottom: "fc7"
  top: "fc7"
  dropout_param {
    dropout_ratio: 0.5
  }
}
layer {
  name: "fc8_plantvillage"
  type: "InnerProduct"
  bottom: "fc7"
  top: "fc8_plantvillage"
  param {
    lr_mult: 1
    decay_mult: 1
  }
  param {
    lr_mult: 2
    decay_mult: 0
  }
  inner_product_param {
    num_output: 38
    weight_filler {
      type: "gaussian"
      std: 0.01
    }
    bias_filler {
      type: "constant"
      value: 0
    }
  }
}
layer {
  name: "prob"
  type: "Softmax"
  bottom: "fc8_plantvillage"
  top: "prob"
  include {
    phase: TEST
  }
}
layer {
  name: "hdf5out"
  type: "HDF5Output"
  bottom: "prob"
  bottom: "label"
  include {
    phase: TEST
  }
  hdf5_output_param {
    file_name: "hdf5_dumps/iter_3504.h5"
  }
}
layer {
  name: "loss"
  type: "SoftmaxWithLoss"
  bottom: "fc8_plantvillage"
  bottom: "label"
  top: "loss"
}
layer {
  name: "accuracy"
  type: "Accuracy"
  bottom: "fc8_plantvillage"
  bottom: "label"
  top: "accuracy"
  include {
    phase: TEST
  }
}
I0403 14:43:16.087740 30213 layer_factory.hpp:77] Creating layer data
I0403 14:43:16.088392 30213 net.cpp:91] Creating Layer data
I0403 14:43:16.088423 30213 net.cpp:399] data -> data
I0403 14:43:16.088479 30213 net.cpp:399] data -> label
I0403 14:43:16.088520 30213 data_transformer.cpp:25] Loading mean file from: /home/mohanty/data/final_dataset/lmdb/segmented-40-60/mean.binaryproto
I0403 14:43:16.091070 30216 db_lmdb.cpp:38] Opened lmdb /home/mohanty/data/final_dataset/lmdb/segmented-40-60/test_db
I0403 14:43:16.103098 30213 data_layer.cpp:41] output data size: 100,3,227,227
I0403 14:43:16.223986 30213 net.cpp:141] Setting up data
I0403 14:43:16.224086 30213 net.cpp:148] Top shape: 100 3 227 227 (15458700)
I0403 14:43:16.224112 30213 net.cpp:148] Top shape: 100 (100)
I0403 14:43:16.224128 30213 net.cpp:156] Memory required for data: 61835200
I0403 14:43:16.224161 30213 layer_factory.hpp:77] Creating layer label_data_1_split
I0403 14:43:16.224190 30213 net.cpp:91] Creating Layer label_data_1_split
I0403 14:43:16.224210 30213 net.cpp:425] label_data_1_split <- label
I0403 14:43:16.224246 30213 net.cpp:399] label_data_1_split -> label_data_1_split_0
I0403 14:43:16.224277 30213 net.cpp:399] label_data_1_split -> label_data_1_split_1
I0403 14:43:16.224298 30213 net.cpp:399] label_data_1_split -> label_data_1_split_2
I0403 14:43:16.224366 30213 net.cpp:141] Setting up label_data_1_split
I0403 14:43:16.224390 30213 net.cpp:148] Top shape: 100 (100)
I0403 14:43:16.224408 30213 net.cpp:148] Top shape: 100 (100)
I0403 14:43:16.224424 30213 net.cpp:148] Top shape: 100 (100)
I0403 14:43:16.224441 30213 net.cpp:156] Memory required for data: 61836400
I0403 14:43:16.224455 30213 layer_factory.hpp:77] Creating layer conv1
I0403 14:43:16.224493 30213 net.cpp:91] Creating Layer conv1
I0403 14:43:16.224512 30213 net.cpp:425] conv1 <- data
I0403 14:43:16.224542 30213 net.cpp:399] conv1 -> conv1
I0403 14:43:16.362638 30213 net.cpp:141] Setting up conv1
I0403 14:43:16.362717 30213 net.cpp:148] Top shape: 100 96 55 55 (29040000)
I0403 14:43:16.362735 30213 net.cpp:156] Memory required for data: 177996400
I0403 14:43:16.362771 30213 layer_factory.hpp:77] Creating layer relu1
I0403 14:43:16.362800 30213 net.cpp:91] Creating Layer relu1
I0403 14:43:16.362819 30213 net.cpp:425] relu1 <- conv1
I0403 14:43:16.362839 30213 net.cpp:386] relu1 -> conv1 (in-place)
I0403 14:43:16.363106 30213 net.cpp:141] Setting up relu1
I0403 14:43:16.363136 30213 net.cpp:148] Top shape: 100 96 55 55 (29040000)
I0403 14:43:16.363188 30213 net.cpp:156] Memory required for data: 294156400
I0403 14:43:16.363205 30213 layer_factory.hpp:77] Creating layer norm1
I0403 14:43:16.363234 30213 net.cpp:91] Creating Layer norm1
I0403 14:43:16.363253 30213 net.cpp:425] norm1 <- conv1
I0403 14:43:16.363275 30213 net.cpp:399] norm1 -> norm1
I0403 14:43:16.363615 30213 net.cpp:141] Setting up norm1
I0403 14:43:16.363642 30213 net.cpp:148] Top shape: 100 96 55 55 (29040000)
I0403 14:43:16.363658 30213 net.cpp:156] Memory required for data: 410316400
I0403 14:43:16.363674 30213 layer_factory.hpp:77] Creating layer pool1
I0403 14:43:16.363698 30213 net.cpp:91] Creating Layer pool1
I0403 14:43:16.363716 30213 net.cpp:425] pool1 <- norm1
I0403 14:43:16.363737 30213 net.cpp:399] pool1 -> pool1
I0403 14:43:16.363813 30213 net.cpp:141] Setting up pool1
I0403 14:43:16.363840 30213 net.cpp:148] Top shape: 100 96 27 27 (6998400)
I0403 14:43:16.363857 30213 net.cpp:156] Memory required for data: 438310000
I0403 14:43:16.363872 30213 layer_factory.hpp:77] Creating layer conv2
I0403 14:43:16.363900 30213 net.cpp:91] Creating Layer conv2
I0403 14:43:16.363919 30213 net.cpp:425] conv2 <- pool1
I0403 14:43:16.363936 30213 net.cpp:399] conv2 -> conv2
I0403 14:43:16.378739 30213 net.cpp:141] Setting up conv2
I0403 14:43:16.378777 30213 net.cpp:148] Top shape: 100 256 27 27 (18662400)
I0403 14:43:16.378795 30213 net.cpp:156] Memory required for data: 512959600
I0403 14:43:16.378818 30213 layer_factory.hpp:77] Creating layer relu2
I0403 14:43:16.378839 30213 net.cpp:91] Creating Layer relu2
I0403 14:43:16.378859 30213 net.cpp:425] relu2 <- conv2
I0403 14:43:16.378878 30213 net.cpp:386] relu2 -> conv2 (in-place)
I0403 14:43:16.379149 30213 net.cpp:141] Setting up relu2
I0403 14:43:16.379175 30213 net.cpp:148] Top shape: 100 256 27 27 (18662400)
I0403 14:43:16.379191 30213 net.cpp:156] Memory required for data: 587609200
I0403 14:43:16.379206 30213 layer_factory.hpp:77] Creating layer norm2
I0403 14:43:16.379228 30213 net.cpp:91] Creating Layer norm2
I0403 14:43:16.379254 30213 net.cpp:425] norm2 <- conv2
I0403 14:43:16.379276 30213 net.cpp:399] norm2 -> norm2
I0403 14:43:16.379472 30213 net.cpp:141] Setting up norm2
I0403 14:43:16.379498 30213 net.cpp:148] Top shape: 100 256 27 27 (18662400)
I0403 14:43:16.379513 30213 net.cpp:156] Memory required for data: 662258800
I0403 14:43:16.379529 30213 layer_factory.hpp:77] Creating layer pool2
I0403 14:43:16.379551 30213 net.cpp:91] Creating Layer pool2
I0403 14:43:16.379568 30213 net.cpp:425] pool2 <- norm2
I0403 14:43:16.379587 30213 net.cpp:399] pool2 -> pool2
I0403 14:43:16.379639 30213 net.cpp:141] Setting up pool2
I0403 14:43:16.379662 30213 net.cpp:148] Top shape: 100 256 13 13 (4326400)
I0403 14:43:16.379676 30213 net.cpp:156] Memory required for data: 679564400
I0403 14:43:16.379691 30213 layer_factory.hpp:77] Creating layer conv3
I0403 14:43:16.379715 30213 net.cpp:91] Creating Layer conv3
I0403 14:43:16.379732 30213 net.cpp:425] conv3 <- pool2
I0403 14:43:16.379751 30213 net.cpp:399] conv3 -> conv3
I0403 14:43:16.417273 30213 net.cpp:141] Setting up conv3
I0403 14:43:16.417328 30213 net.cpp:148] Top shape: 100 384 13 13 (6489600)
I0403 14:43:16.417345 30213 net.cpp:156] Memory required for data: 705522800
I0403 14:43:16.417368 30213 layer_factory.hpp:77] Creating layer relu3
I0403 14:43:16.417388 30213 net.cpp:91] Creating Layer relu3
I0403 14:43:16.417405 30213 net.cpp:425] relu3 <- conv3
I0403 14:43:16.417426 30213 net.cpp:386] relu3 -> conv3 (in-place)
I0403 14:43:16.417696 30213 net.cpp:141] Setting up relu3
I0403 14:43:16.417722 30213 net.cpp:148] Top shape: 100 384 13 13 (6489600)
I0403 14:43:16.417737 30213 net.cpp:156] Memory required for data: 731481200
I0403 14:43:16.417752 30213 layer_factory.hpp:77] Creating layer conv4
I0403 14:43:16.417776 30213 net.cpp:91] Creating Layer conv4
I0403 14:43:16.417793 30213 net.cpp:425] conv4 <- conv3
I0403 14:43:16.417814 30213 net.cpp:399] conv4 -> conv4
I0403 14:43:16.447038 30213 net.cpp:141] Setting up conv4
I0403 14:43:16.447085 30213 net.cpp:148] Top shape: 100 384 13 13 (6489600)
I0403 14:43:16.447131 30213 net.cpp:156] Memory required for data: 757439600
I0403 14:43:16.447152 30213 layer_factory.hpp:77] Creating layer relu4
I0403 14:43:16.447171 30213 net.cpp:91] Creating Layer relu4
I0403 14:43:16.447188 30213 net.cpp:425] relu4 <- conv4
I0403 14:43:16.447208 30213 net.cpp:386] relu4 -> conv4 (in-place)
I0403 14:43:16.447476 30213 net.cpp:141] Setting up relu4
I0403 14:43:16.447505 30213 net.cpp:148] Top shape: 100 384 13 13 (6489600)
I0403 14:43:16.447521 30213 net.cpp:156] Memory required for data: 783398000
I0403 14:43:16.447540 30213 layer_factory.hpp:77] Creating layer conv5
I0403 14:43:16.447566 30213 net.cpp:91] Creating Layer conv5
I0403 14:43:16.447584 30213 net.cpp:425] conv5 <- conv4
I0403 14:43:16.447602 30213 net.cpp:399] conv5 -> conv5
I0403 14:43:16.467515 30213 net.cpp:141] Setting up conv5
I0403 14:43:16.467555 30213 net.cpp:148] Top shape: 100 256 13 13 (4326400)
I0403 14:43:16.467574 30213 net.cpp:156] Memory required for data: 800703600
I0403 14:43:16.467597 30213 layer_factory.hpp:77] Creating layer relu5
I0403 14:43:16.467617 30213 net.cpp:91] Creating Layer relu5
I0403 14:43:16.467633 30213 net.cpp:425] relu5 <- conv5
I0403 14:43:16.467653 30213 net.cpp:386] relu5 -> conv5 (in-place)
I0403 14:43:16.467926 30213 net.cpp:141] Setting up relu5
I0403 14:43:16.467952 30213 net.cpp:148] Top shape: 100 256 13 13 (4326400)
I0403 14:43:16.467967 30213 net.cpp:156] Memory required for data: 818009200
I0403 14:43:16.467983 30213 layer_factory.hpp:77] Creating layer pool5
I0403 14:43:16.468008 30213 net.cpp:91] Creating Layer pool5
I0403 14:43:16.468024 30213 net.cpp:425] pool5 <- conv5
I0403 14:43:16.468044 30213 net.cpp:399] pool5 -> pool5
I0403 14:43:16.468103 30213 net.cpp:141] Setting up pool5
I0403 14:43:16.468125 30213 net.cpp:148] Top shape: 100 256 6 6 (921600)
I0403 14:43:16.468140 30213 net.cpp:156] Memory required for data: 821695600
I0403 14:43:16.468157 30213 layer_factory.hpp:77] Creating layer fc6
I0403 14:43:16.468184 30213 net.cpp:91] Creating Layer fc6
I0403 14:43:16.468202 30213 net.cpp:425] fc6 <- pool5
I0403 14:43:16.468222 30213 net.cpp:399] fc6 -> fc6
I0403 14:43:18.009897 30213 net.cpp:141] Setting up fc6
I0403 14:43:18.009990 30213 net.cpp:148] Top shape: 100 4096 (409600)
I0403 14:43:18.010007 30213 net.cpp:156] Memory required for data: 823334000
I0403 14:43:18.010030 30213 layer_factory.hpp:77] Creating layer relu6
I0403 14:43:18.010056 30213 net.cpp:91] Creating Layer relu6
I0403 14:43:18.010074 30213 net.cpp:425] relu6 <- fc6
I0403 14:43:18.010094 30213 net.cpp:386] relu6 -> fc6 (in-place)
I0403 14:43:18.010332 30213 net.cpp:141] Setting up relu6
I0403 14:43:18.010356 30213 net.cpp:148] Top shape: 100 4096 (409600)
I0403 14:43:18.010371 30213 net.cpp:156] Memory required for data: 824972400
I0403 14:43:18.010385 30213 layer_factory.hpp:77] Creating layer drop6
I0403 14:43:18.010404 30213 net.cpp:91] Creating Layer drop6
I0403 14:43:18.010419 30213 net.cpp:425] drop6 <- fc6
I0403 14:43:18.010437 30213 net.cpp:386] drop6 -> fc6 (in-place)
I0403 14:43:18.010491 30213 net.cpp:141] Setting up drop6
I0403 14:43:18.010534 30213 net.cpp:148] Top shape: 100 4096 (409600)
I0403 14:43:18.010550 30213 net.cpp:156] Memory required for data: 826610800
I0403 14:43:18.010570 30213 layer_factory.hpp:77] Creating layer fc7
I0403 14:43:18.010591 30213 net.cpp:91] Creating Layer fc7
I0403 14:43:18.010607 30213 net.cpp:425] fc7 <- fc6
I0403 14:43:18.010634 30213 net.cpp:399] fc7 -> fc7
I0403 14:43:18.678604 30213 net.cpp:141] Setting up fc7
I0403 14:43:18.678702 30213 net.cpp:148] Top shape: 100 4096 (409600)
I0403 14:43:18.678719 30213 net.cpp:156] Memory required for data: 828249200
I0403 14:43:18.678740 30213 layer_factory.hpp:77] Creating layer relu7
I0403 14:43:18.678763 30213 net.cpp:91] Creating Layer relu7
I0403 14:43:18.678781 30213 net.cpp:425] relu7 <- fc7
I0403 14:43:18.678802 30213 net.cpp:386] relu7 -> fc7 (in-place)
I0403 14:43:18.679203 30213 net.cpp:141] Setting up relu7
I0403 14:43:18.679229 30213 net.cpp:148] Top shape: 100 4096 (409600)
I0403 14:43:18.679280 30213 net.cpp:156] Memory required for data: 829887600
I0403 14:43:18.679296 30213 layer_factory.hpp:77] Creating layer drop7
I0403 14:43:18.679316 30213 net.cpp:91] Creating Layer drop7
I0403 14:43:18.679330 30213 net.cpp:425] drop7 <- fc7
I0403 14:43:18.679352 30213 net.cpp:386] drop7 -> fc7 (in-place)
I0403 14:43:18.679393 30213 net.cpp:141] Setting up drop7
I0403 14:43:18.679414 30213 net.cpp:148] Top shape: 100 4096 (409600)
I0403 14:43:18.679428 30213 net.cpp:156] Memory required for data: 831526000
I0403 14:43:18.679442 30213 layer_factory.hpp:77] Creating layer fc8_plantvillage
I0403 14:43:18.679464 30213 net.cpp:91] Creating Layer fc8_plantvillage
I0403 14:43:18.679481 30213 net.cpp:425] fc8_plantvillage <- fc7
I0403 14:43:18.679499 30213 net.cpp:399] fc8_plantvillage -> fc8_plantvillage
I0403 14:43:18.686024 30213 net.cpp:141] Setting up fc8_plantvillage
I0403 14:43:18.686053 30213 net.cpp:148] Top shape: 100 38 (3800)
I0403 14:43:18.686067 30213 net.cpp:156] Memory required for data: 831541200
I0403 14:43:18.686085 30213 layer_factory.hpp:77] Creating layer fc8_plantvillage_fc8_plantvillage_0_split
I0403 14:43:18.686103 30213 net.cpp:91] Creating Layer fc8_plantvillage_fc8_plantvillage_0_split
I0403 14:43:18.686120 30213 net.cpp:425] fc8_plantvillage_fc8_plantvillage_0_split <- fc8_plantvillage
I0403 14:43:18.686141 30213 net.cpp:399] fc8_plantvillage_fc8_plantvillage_0_split -> fc8_plantvillage_fc8_plantvillage_0_split_0
I0403 14:43:18.686163 30213 net.cpp:399] fc8_plantvillage_fc8_plantvillage_0_split -> fc8_plantvillage_fc8_plantvillage_0_split_1
I0403 14:43:18.686182 30213 net.cpp:399] fc8_plantvillage_fc8_plantvillage_0_split -> fc8_plantvillage_fc8_plantvillage_0_split_2
I0403 14:43:18.686259 30213 net.cpp:141] Setting up fc8_plantvillage_fc8_plantvillage_0_split
I0403 14:43:18.686281 30213 net.cpp:148] Top shape: 100 38 (3800)
I0403 14:43:18.686296 30213 net.cpp:148] Top shape: 100 38 (3800)
I0403 14:43:18.686311 30213 net.cpp:148] Top shape: 100 38 (3800)
I0403 14:43:18.686324 30213 net.cpp:156] Memory required for data: 831586800
I0403 14:43:18.686338 30213 layer_factory.hpp:77] Creating layer prob
I0403 14:43:18.686357 30213 net.cpp:91] Creating Layer prob
I0403 14:43:18.686372 30213 net.cpp:425] prob <- fc8_plantvillage_fc8_plantvillage_0_split_0
I0403 14:43:18.686393 30213 net.cpp:399] prob -> prob
I0403 14:43:18.686617 30213 net.cpp:141] Setting up prob
I0403 14:43:18.686642 30213 net.cpp:148] Top shape: 100 38 (3800)
I0403 14:43:18.686656 30213 net.cpp:156] Memory required for data: 831602000
I0403 14:43:18.686671 30213 layer_factory.hpp:77] Creating layer hdf5out
I0403 14:43:18.686689 30213 net.cpp:91] Creating Layer hdf5out
I0403 14:43:18.686705 30213 net.cpp:425] hdf5out <- prob
I0403 14:43:18.686720 30213 net.cpp:425] hdf5out <- label_data_1_split_0
I0403 14:43:18.690481 30213 net.cpp:141] Setting up hdf5out
…
