…
I0403 14:46:09.942675 30277 net.cpp:313] The NetState phase (1) differed from the phase (0) specified by a rule in layer data
I0403 14:46:09.942982 30277 net.cpp:49] Initializing net from parameters: 
state {
  phase: TEST
}
layer {
  name: "data"
  type: "Data"
  top: "data"
  top: "label"
  include {
    phase: TEST
  }
  transform_param {
    crop_size: 227
    mean_file: "/home/mohanty/data/final_dataset/lmdb/segmented-40-60/mean.binaryproto"
  }
  data_param {
    source: "/home/mohanty/data/final_dataset/lmdb/segmented-40-60/test_db"
    batch_size: 100
    backend: LMDB
  }
}
layer {
  name: "conv1"
  type: "Convolution"
  bottom: "data"
  top: "conv1"
  param {
    lr_mult: 1
    decay_mult: 1
  }
  param {
    lr_mult: 2
    decay_mult: 0
  }
  convolution_param {
    num_output: 96
    kernel_size: 11
    stride: 4
    weight_filler {
      type: "gaussian"
      std: 0.01
    }
    bias_filler {
      type: "constant"
      value: 0
    }
  }
}
layer {
  name: "relu1"
  type: "ReLU"
  bottom: "conv1"
  top: "conv1"
}
layer {
  name: "norm1"
  type: "LRN"
  bottom: "conv1"
  top: "norm1"
  lrn_param {
    local_size: 5
    alpha: 0.0001
    beta: 0.75
  }
}
layer {
  name: "pool1"
  type: "Pooling"
  bottom: "norm1"
  top: "pool1"
  pooling_param {
    pool: MAX
    kernel_size: 3
    stride: 2
  }
}
layer {
  name: "conv2"
  type: "Convolution"
  bottom: "pool1"
  top: "conv2"
  param {
    lr_mult: 1
    decay_mult: 1
  }
  param {
    lr_mult: 2
    decay_mult: 0
  }
  convolution_param {
    num_output: 256
    pad: 2
    kernel_size: 5
    group: 2
    weight_filler {
      type: "gaussian"
      std: 0.01
    }
    bias_filler {
      type: "constant"
      value: 0.1
    }
  }
}
layer {
  name: "relu2"
  type: "ReLU"
  bottom: "conv2"
  top: "conv2"
}
layer {
  name: "norm2"
  type: "LRN"
  bottom: "conv2"
  top: "norm2"
  lrn_param {
    local_size: 5
    alpha: 0.0001
    beta: 0.75
  }
}
layer {
  name: "pool2"
  type: "Pooling"
  bottom: "norm2"
  top: "pool2"
  pooling_param {
    pool: MAX
    kernel_size: 3
    stride: 2
  }
}
layer {
  name: "conv3"
  type: "Convolution"
  bottom: "pool2"
  top: "conv3"
  param {
    lr_mult: 1
    decay_mult: 1
  }
  param {
    lr_mult: 2
    decay_mult: 0
  }
  convolution_param {
    num_output: 384
    pad: 1
    kernel_size: 3
    weight_filler {
      type: "gaussian"
      std: 0.01
    }
    bias_filler {
      type: "constant"
      value: 0
    }
  }
}
layer {
  name: "relu3"
  type: "ReLU"
  bottom: "conv3"
  top: "conv3"
}
layer {
  name: "conv4"
  type: "Convolution"
  bottom: "conv3"
  top: "conv4"
  param {
    lr_mult: 1
    decay_mult: 1
  }
  param {
    lr_mult: 2
    decay_mult: 0
  }
  convolution_param {
    num_output: 384
    pad: 1
    kernel_size: 3
    group: 2
    weight_filler {
      type: "gaussian"
      std: 0.01
    }
    bias_filler {
      type: "constant"
      value: 0.1
    }
  }
}
layer {
  name: "relu4"
  type: "ReLU"
  bottom: "conv4"
  top: "conv4"
}
layer {
  name: "conv5"
  type: "Convolution"
  bottom: "conv4"
  top: "conv5"
  param {
    lr_mult: 1
    decay_mult: 1
  }
  param {
    lr_mult: 2
    decay_mult: 0
  }
  convolution_param {
    num_output: 256
    pad: 1
    kernel_size: 3
    group: 2
    weight_filler {
      type: "gaussian"
      std: 0.01
    }
    bias_filler {
      type: "constant"
      value: 0.1
    }
  }
}
layer {
  name: "relu5"
  type: "ReLU"
  bottom: "conv5"
  top: "conv5"
}
layer {
  name: "pool5"
  type: "Pooling"
  bottom: "conv5"
  top: "pool5"
  pooling_param {
    pool: MAX
    kernel_size: 3
    stride: 2
  }
}
layer {
  name: "fc6"
  type: "InnerProduct"
  bottom: "pool5"
  top: "fc6"
  param {
    lr_mult: 1
    decay_mult: 1
  }
  param {
    lr_mult: 2
    decay_mult: 0
  }
  inner_product_param {
    num_output: 4096
    weight_filler {
      type: "gaussian"
      std: 0.005
    }
    bias_filler {
      type: "constant"
      value: 0.1
    }
  }
}
layer {
  name: "relu6"
  type: "ReLU"
  bottom: "fc6"
  top: "fc6"
}
layer {
  name: "drop6"
  type: "Dropout"
  bottom: "fc6"
  top: "fc6"
  dropout_param {
    dropout_ratio: 0.5
  }
}
layer {
  name: "fc7"
  type: "InnerProduct"
  bottom: "fc6"
  top: "fc7"
  param {
    lr_mult: 1
    decay_mult: 1
  }
  param {
    lr_mult: 2
    decay_mult: 0
  }
  inner_product_param {
    num_output: 4096
    weight_filler {
      type: "gaussian"
      std: 0.005
    }
    bias_filler {
      type: "constant"
      value: 0.1
    }
  }
}
layer {
  name: "relu7"
  type: "ReLU"
  bottom: "fc7"
  top: "fc7"
}
layer {
  name: "drop7"
  type: "Dropout"
  bottom: "fc7"
  top: "fc7"
  dropout_param {
    dropout_ratio: 0.5
  }
}
layer {
  name: "fc8_plantvillage"
  type: "InnerProduct"
  bottom: "fc7"
  top: "fc8_plantvillage"
  param {
    lr_mult: 1
    decay_mult: 1
  }
  param {
    lr_mult: 2
    decay_mult: 0
  }
  inner_product_param {
    num_output: 38
    weight_filler {
      type: "gaussian"
      std: 0.01
    }
    bias_filler {
      type: "constant"
      value: 0
    }
  }
}
layer {
  name: "prob"
  type: "Softmax"
  bottom: "fc8_plantvillage"
  top: "prob"
  include {
    phase: TEST
  }
}
layer {
  name: "hdf5out"
  type: "HDF5Output"
  bottom: "prob"
  bottom: "label"
  include {
    phase: TEST
  }
  hdf5_output_param {
    file_name: "hdf5_dumps/iter_4161.h5"
  }
}
layer {
  name: "loss"
  type: "SoftmaxWithLoss"
  bottom: "fc8_plantvillage"
  bottom: "label"
  top: "loss"
}
layer {
  name: "accuracy"
  type: "Accuracy"
  bottom: "fc8_plantvillage"
  bottom: "label"
  top: "accuracy"
  include {
    phase: TEST
  }
}
I0403 14:46:09.943599 30277 layer_factory.hpp:77] Creating layer data
I0403 14:46:09.944286 30277 net.cpp:91] Creating Layer data
I0403 14:46:09.944320 30277 net.cpp:399] data -> data
I0403 14:46:09.944385 30277 net.cpp:399] data -> label
I0403 14:46:09.944432 30277 data_transformer.cpp:25] Loading mean file from: /home/mohanty/data/final_dataset/lmdb/segmented-40-60/mean.binaryproto
I0403 14:46:09.947149 30284 db_lmdb.cpp:38] Opened lmdb /home/mohanty/data/final_dataset/lmdb/segmented-40-60/test_db
I0403 14:46:09.959890 30277 data_layer.cpp:41] output data size: 100,3,227,227
I0403 14:46:10.078629 30277 net.cpp:141] Setting up data
I0403 14:46:10.078744 30277 net.cpp:148] Top shape: 100 3 227 227 (15458700)
I0403 14:46:10.078768 30277 net.cpp:148] Top shape: 100 (100)
I0403 14:46:10.078783 30277 net.cpp:156] Memory required for data: 61835200
I0403 14:46:10.078814 30277 layer_factory.hpp:77] Creating layer label_data_1_split
I0403 14:46:10.078840 30277 net.cpp:91] Creating Layer label_data_1_split
I0403 14:46:10.078860 30277 net.cpp:425] label_data_1_split <- label
I0403 14:46:10.078893 30277 net.cpp:399] label_data_1_split -> label_data_1_split_0
I0403 14:46:10.078922 30277 net.cpp:399] label_data_1_split -> label_data_1_split_1
I0403 14:46:10.078943 30277 net.cpp:399] label_data_1_split -> label_data_1_split_2
I0403 14:46:10.079006 30277 net.cpp:141] Setting up label_data_1_split
I0403 14:46:10.079030 30277 net.cpp:148] Top shape: 100 (100)
I0403 14:46:10.079046 30277 net.cpp:148] Top shape: 100 (100)
I0403 14:46:10.079061 30277 net.cpp:148] Top shape: 100 (100)
I0403 14:46:10.079076 30277 net.cpp:156] Memory required for data: 61836400
I0403 14:46:10.079090 30277 layer_factory.hpp:77] Creating layer conv1
I0403 14:46:10.079124 30277 net.cpp:91] Creating Layer conv1
I0403 14:46:10.079143 30277 net.cpp:425] conv1 <- data
I0403 14:46:10.079161 30277 net.cpp:399] conv1 -> conv1
I0403 14:46:10.218065 30277 net.cpp:141] Setting up conv1
I0403 14:46:10.218139 30277 net.cpp:148] Top shape: 100 96 55 55 (29040000)
I0403 14:46:10.218157 30277 net.cpp:156] Memory required for data: 177996400
I0403 14:46:10.218191 30277 layer_factory.hpp:77] Creating layer relu1
I0403 14:46:10.218220 30277 net.cpp:91] Creating Layer relu1
I0403 14:46:10.218238 30277 net.cpp:425] relu1 <- conv1
I0403 14:46:10.218256 30277 net.cpp:386] relu1 -> conv1 (in-place)
I0403 14:46:10.218526 30277 net.cpp:141] Setting up relu1
I0403 14:46:10.218557 30277 net.cpp:148] Top shape: 100 96 55 55 (29040000)
I0403 14:46:10.218627 30277 net.cpp:156] Memory required for data: 294156400
I0403 14:46:10.218642 30277 layer_factory.hpp:77] Creating layer norm1
I0403 14:46:10.218672 30277 net.cpp:91] Creating Layer norm1
I0403 14:46:10.218690 30277 net.cpp:425] norm1 <- conv1
I0403 14:46:10.218708 30277 net.cpp:399] norm1 -> norm1
I0403 14:46:10.219012 30277 net.cpp:141] Setting up norm1
I0403 14:46:10.219041 30277 net.cpp:148] Top shape: 100 96 55 55 (29040000)
I0403 14:46:10.219063 30277 net.cpp:156] Memory required for data: 410316400
I0403 14:46:10.219077 30277 layer_factory.hpp:77] Creating layer pool1
I0403 14:46:10.219138 30277 net.cpp:91] Creating Layer pool1
I0403 14:46:10.219159 30277 net.cpp:425] pool1 <- norm1
I0403 14:46:10.219177 30277 net.cpp:399] pool1 -> pool1
I0403 14:46:10.219247 30277 net.cpp:141] Setting up pool1
I0403 14:46:10.219270 30277 net.cpp:148] Top shape: 100 96 27 27 (6998400)
I0403 14:46:10.219285 30277 net.cpp:156] Memory required for data: 438310000
I0403 14:46:10.219300 30277 layer_factory.hpp:77] Creating layer conv2
I0403 14:46:10.219326 30277 net.cpp:91] Creating Layer conv2
I0403 14:46:10.219341 30277 net.cpp:425] conv2 <- pool1
I0403 14:46:10.219359 30277 net.cpp:399] conv2 -> conv2
I0403 14:46:10.233935 30277 net.cpp:141] Setting up conv2
I0403 14:46:10.233974 30277 net.cpp:148] Top shape: 100 256 27 27 (18662400)
I0403 14:46:10.233991 30277 net.cpp:156] Memory required for data: 512959600
I0403 14:46:10.234014 30277 layer_factory.hpp:77] Creating layer relu2
I0403 14:46:10.234032 30277 net.cpp:91] Creating Layer relu2
I0403 14:46:10.234047 30277 net.cpp:425] relu2 <- conv2
I0403 14:46:10.234066 30277 net.cpp:386] relu2 -> conv2 (in-place)
I0403 14:46:10.234336 30277 net.cpp:141] Setting up relu2
I0403 14:46:10.234364 30277 net.cpp:148] Top shape: 100 256 27 27 (18662400)
I0403 14:46:10.234380 30277 net.cpp:156] Memory required for data: 587609200
I0403 14:46:10.234396 30277 layer_factory.hpp:77] Creating layer norm2
I0403 14:46:10.234421 30277 net.cpp:91] Creating Layer norm2
I0403 14:46:10.234438 30277 net.cpp:425] norm2 <- conv2
I0403 14:46:10.234457 30277 net.cpp:399] norm2 -> norm2
I0403 14:46:10.234668 30277 net.cpp:141] Setting up norm2
I0403 14:46:10.234693 30277 net.cpp:148] Top shape: 100 256 27 27 (18662400)
I0403 14:46:10.234709 30277 net.cpp:156] Memory required for data: 662258800
I0403 14:46:10.234724 30277 layer_factory.hpp:77] Creating layer pool2
I0403 14:46:10.234742 30277 net.cpp:91] Creating Layer pool2
I0403 14:46:10.234757 30277 net.cpp:425] pool2 <- norm2
I0403 14:46:10.234781 30277 net.cpp:399] pool2 -> pool2
I0403 14:46:10.234829 30277 net.cpp:141] Setting up pool2
I0403 14:46:10.234853 30277 net.cpp:148] Top shape: 100 256 13 13 (4326400)
I0403 14:46:10.234866 30277 net.cpp:156] Memory required for data: 679564400
I0403 14:46:10.234881 30277 layer_factory.hpp:77] Creating layer conv3
I0403 14:46:10.234902 30277 net.cpp:91] Creating Layer conv3
I0403 14:46:10.234918 30277 net.cpp:425] conv3 <- pool2
I0403 14:46:10.234936 30277 net.cpp:399] conv3 -> conv3
I0403 14:46:10.272450 30277 net.cpp:141] Setting up conv3
I0403 14:46:10.272500 30277 net.cpp:148] Top shape: 100 384 13 13 (6489600)
I0403 14:46:10.272516 30277 net.cpp:156] Memory required for data: 705522800
I0403 14:46:10.272543 30277 layer_factory.hpp:77] Creating layer relu3
I0403 14:46:10.272565 30277 net.cpp:91] Creating Layer relu3
I0403 14:46:10.272581 30277 net.cpp:425] relu3 <- conv3
I0403 14:46:10.272600 30277 net.cpp:386] relu3 -> conv3 (in-place)
I0403 14:46:10.272863 30277 net.cpp:141] Setting up relu3
I0403 14:46:10.272891 30277 net.cpp:148] Top shape: 100 384 13 13 (6489600)
I0403 14:46:10.272905 30277 net.cpp:156] Memory required for data: 731481200
I0403 14:46:10.272920 30277 layer_factory.hpp:77] Creating layer conv4
I0403 14:46:10.272943 30277 net.cpp:91] Creating Layer conv4
I0403 14:46:10.272959 30277 net.cpp:425] conv4 <- conv3
I0403 14:46:10.272977 30277 net.cpp:399] conv4 -> conv4
I0403 14:46:10.302716 30277 net.cpp:141] Setting up conv4
I0403 14:46:10.302762 30277 net.cpp:148] Top shape: 100 384 13 13 (6489600)
I0403 14:46:10.302815 30277 net.cpp:156] Memory required for data: 757439600
I0403 14:46:10.302836 30277 layer_factory.hpp:77] Creating layer relu4
I0403 14:46:10.302855 30277 net.cpp:91] Creating Layer relu4
I0403 14:46:10.302871 30277 net.cpp:425] relu4 <- conv4
I0403 14:46:10.302889 30277 net.cpp:386] relu4 -> conv4 (in-place)
I0403 14:46:10.303167 30277 net.cpp:141] Setting up relu4
I0403 14:46:10.303195 30277 net.cpp:148] Top shape: 100 384 13 13 (6489600)
I0403 14:46:10.303212 30277 net.cpp:156] Memory required for data: 783398000
I0403 14:46:10.303227 30277 layer_factory.hpp:77] Creating layer conv5
I0403 14:46:10.303248 30277 net.cpp:91] Creating Layer conv5
I0403 14:46:10.303264 30277 net.cpp:425] conv5 <- conv4
I0403 14:46:10.303285 30277 net.cpp:399] conv5 -> conv5
I0403 14:46:10.323473 30277 net.cpp:141] Setting up conv5
I0403 14:46:10.323513 30277 net.cpp:148] Top shape: 100 256 13 13 (4326400)
I0403 14:46:10.323530 30277 net.cpp:156] Memory required for data: 800703600
I0403 14:46:10.323559 30277 layer_factory.hpp:77] Creating layer relu5
I0403 14:46:10.323580 30277 net.cpp:91] Creating Layer relu5
I0403 14:46:10.323596 30277 net.cpp:425] relu5 <- conv5
I0403 14:46:10.323616 30277 net.cpp:386] relu5 -> conv5 (in-place)
I0403 14:46:10.323886 30277 net.cpp:141] Setting up relu5
I0403 14:46:10.323916 30277 net.cpp:148] Top shape: 100 256 13 13 (4326400)
I0403 14:46:10.323932 30277 net.cpp:156] Memory required for data: 818009200
I0403 14:46:10.323947 30277 layer_factory.hpp:77] Creating layer pool5
I0403 14:46:10.323969 30277 net.cpp:91] Creating Layer pool5
I0403 14:46:10.323988 30277 net.cpp:425] pool5 <- conv5
I0403 14:46:10.324034 30277 net.cpp:399] pool5 -> pool5
I0403 14:46:10.324100 30277 net.cpp:141] Setting up pool5
I0403 14:46:10.324126 30277 net.cpp:148] Top shape: 100 256 6 6 (921600)
I0403 14:46:10.324141 30277 net.cpp:156] Memory required for data: 821695600
I0403 14:46:10.324154 30277 layer_factory.hpp:77] Creating layer fc6
I0403 14:46:10.324182 30277 net.cpp:91] Creating Layer fc6
I0403 14:46:10.324199 30277 net.cpp:425] fc6 <- pool5
I0403 14:46:10.324221 30277 net.cpp:399] fc6 -> fc6
I0403 14:46:11.864995 30277 net.cpp:141] Setting up fc6
I0403 14:46:11.865084 30277 net.cpp:148] Top shape: 100 4096 (409600)
I0403 14:46:11.865100 30277 net.cpp:156] Memory required for data: 823334000
I0403 14:46:11.865123 30277 layer_factory.hpp:77] Creating layer relu6
I0403 14:46:11.865146 30277 net.cpp:91] Creating Layer relu6
I0403 14:46:11.865164 30277 net.cpp:425] relu6 <- fc6
I0403 14:46:11.865185 30277 net.cpp:386] relu6 -> fc6 (in-place)
I0403 14:46:11.865414 30277 net.cpp:141] Setting up relu6
I0403 14:46:11.865442 30277 net.cpp:148] Top shape: 100 4096 (409600)
I0403 14:46:11.865456 30277 net.cpp:156] Memory required for data: 824972400
I0403 14:46:11.865471 30277 layer_factory.hpp:77] Creating layer drop6
I0403 14:46:11.865491 30277 net.cpp:91] Creating Layer drop6
I0403 14:46:11.865507 30277 net.cpp:425] drop6 <- fc6
I0403 14:46:11.865528 30277 net.cpp:386] drop6 -> fc6 (in-place)
I0403 14:46:11.865597 30277 net.cpp:141] Setting up drop6
I0403 14:46:11.865620 30277 net.cpp:148] Top shape: 100 4096 (409600)
I0403 14:46:11.865634 30277 net.cpp:156] Memory required for data: 826610800
I0403 14:46:11.865649 30277 layer_factory.hpp:77] Creating layer fc7
I0403 14:46:11.865672 30277 net.cpp:91] Creating Layer fc7
I0403 14:46:11.865689 30277 net.cpp:425] fc7 <- fc6
I0403 14:46:11.865708 30277 net.cpp:399] fc7 -> fc7
I0403 14:46:12.543597 30277 net.cpp:141] Setting up fc7
I0403 14:46:12.543674 30277 net.cpp:148] Top shape: 100 4096 (409600)
I0403 14:46:12.543690 30277 net.cpp:156] Memory required for data: 828249200
I0403 14:46:12.543712 30277 layer_factory.hpp:77] Creating layer relu7
I0403 14:46:12.543735 30277 net.cpp:91] Creating Layer relu7
I0403 14:46:12.543752 30277 net.cpp:425] relu7 <- fc7
I0403 14:46:12.543771 30277 net.cpp:386] relu7 -> fc7 (in-place)
I0403 14:46:12.544165 30277 net.cpp:141] Setting up relu7
I0403 14:46:12.544203 30277 net.cpp:148] Top shape: 100 4096 (409600)
I0403 14:46:12.544260 30277 net.cpp:156] Memory required for data: 829887600
I0403 14:46:12.544275 30277 layer_factory.hpp:77] Creating layer drop7
I0403 14:46:12.544306 30277 net.cpp:91] Creating Layer drop7
I0403 14:46:12.544324 30277 net.cpp:425] drop7 <- fc7
I0403 14:46:12.544342 30277 net.cpp:386] drop7 -> fc7 (in-place)
I0403 14:46:12.544385 30277 net.cpp:141] Setting up drop7
I0403 14:46:12.544409 30277 net.cpp:148] Top shape: 100 4096 (409600)
I0403 14:46:12.544422 30277 net.cpp:156] Memory required for data: 831526000
I0403 14:46:12.544437 30277 layer_factory.hpp:77] Creating layer fc8_plantvillage
I0403 14:46:12.544461 30277 net.cpp:91] Creating Layer fc8_plantvillage
I0403 14:46:12.544476 30277 net.cpp:425] fc8_plantvillage <- fc7
I0403 14:46:12.544494 30277 net.cpp:399] fc8_plantvillage -> fc8_plantvillage
I0403 14:46:12.551038 30277 net.cpp:141] Setting up fc8_plantvillage
I0403 14:46:12.551065 30277 net.cpp:148] Top shape: 100 38 (3800)
I0403 14:46:12.551080 30277 net.cpp:156] Memory required for data: 831541200
I0403 14:46:12.551098 30277 layer_factory.hpp:77] Creating layer fc8_plantvillage_fc8_plantvillage_0_split
I0403 14:46:12.551118 30277 net.cpp:91] Creating Layer fc8_plantvillage_fc8_plantvillage_0_split
I0403 14:46:12.551143 30277 net.cpp:425] fc8_plantvillage_fc8_plantvillage_0_split <- fc8_plantvillage
I0403 14:46:12.551163 30277 net.cpp:399] fc8_plantvillage_fc8_plantvillage_0_split -> fc8_plantvillage_fc8_plantvillage_0_split_0
I0403 14:46:12.551182 30277 net.cpp:399] fc8_plantvillage_fc8_plantvillage_0_split -> fc8_plantvillage_fc8_plantvillage_0_split_1
I0403 14:46:12.551203 30277 net.cpp:399] fc8_plantvillage_fc8_plantvillage_0_split -> fc8_plantvillage_fc8_plantvillage_0_split_2
I0403 14:46:12.551280 30277 net.cpp:141] Setting up fc8_plantvillage_fc8_plantvillage_0_split
I0403 14:46:12.551303 30277 net.cpp:148] Top shape: 100 38 (3800)
I0403 14:46:12.551319 30277 net.cpp:148] Top shape: 100 38 (3800)
I0403 14:46:12.551334 30277 net.cpp:148] Top shape: 100 38 (3800)
I0403 14:46:12.551348 30277 net.cpp:156] Memory required for data: 831586800
I0403 14:46:12.551362 30277 layer_factory.hpp:77] Creating layer prob
I0403 14:46:12.551383 30277 net.cpp:91] Creating Layer prob
I0403 14:46:12.551399 30277 net.cpp:425] prob <- fc8_plantvillage_fc8_plantvillage_0_split_0
I0403 14:46:12.551416 30277 net.cpp:399] prob -> prob
I0403 14:46:12.551638 30277 net.cpp:141] Setting up prob
I0403 14:46:12.551666 30277 net.cpp:148] Top shape: 100 38 (3800)
I0403 14:46:12.551681 30277 net.cpp:156] Memory required for data: 831602000
I0403 14:46:12.551697 30277 layer_factory.hpp:77] Creating layer hdf5out
I0403 14:46:12.551717 30277 net.cpp:91] Creating Layer hdf5out
I0403 14:46:12.551731 30277 net.cpp:425] hdf5out <- prob
I0403 14:46:12.551746 30277 net.cpp:425] hdf5out <- label_data_1_split_0
I0403 14:46:12.559295 30277 net.cpp:141] Setting up hdf5out
…
