…
I0403 14:49:02.519227 30339 net.cpp:313] The NetState phase (1) differed from the phase (0) specified by a rule in layer data
I0403 14:49:02.519562 30339 net.cpp:49] Initializing net from parameters: 
state {
  phase: TEST
}
layer {
  name: "data"
  type: "Data"
  top: "data"
  top: "label"
  include {
    phase: TEST
  }
  transform_param {
    crop_size: 227
    mean_file: "/home/mohanty/data/final_dataset/lmdb/segmented-40-60/mean.binaryproto"
  }
  data_param {
    source: "/home/mohanty/data/final_dataset/lmdb/segmented-40-60/test_db"
    batch_size: 100
    backend: LMDB
  }
}
layer {
  name: "conv1"
  type: "Convolution"
  bottom: "data"
  top: "conv1"
  param {
    lr_mult: 1
    decay_mult: 1
  }
  param {
    lr_mult: 2
    decay_mult: 0
  }
  convolution_param {
    num_output: 96
    kernel_size: 11
    stride: 4
    weight_filler {
      type: "gaussian"
      std: 0.01
    }
    bias_filler {
      type: "constant"
      value: 0
    }
  }
}
layer {
  name: "relu1"
  type: "ReLU"
  bottom: "conv1"
  top: "conv1"
}
layer {
  name: "norm1"
  type: "LRN"
  bottom: "conv1"
  top: "norm1"
  lrn_param {
    local_size: 5
    alpha: 0.0001
    beta: 0.75
  }
}
layer {
  name: "pool1"
  type: "Pooling"
  bottom: "norm1"
  top: "pool1"
  pooling_param {
    pool: MAX
    kernel_size: 3
    stride: 2
  }
}
layer {
  name: "conv2"
  type: "Convolution"
  bottom: "pool1"
  top: "conv2"
  param {
    lr_mult: 1
    decay_mult: 1
  }
  param {
    lr_mult: 2
    decay_mult: 0
  }
  convolution_param {
    num_output: 256
    pad: 2
    kernel_size: 5
    group: 2
    weight_filler {
      type: "gaussian"
      std: 0.01
    }
    bias_filler {
      type: "constant"
      value: 0.1
    }
  }
}
layer {
  name: "relu2"
  type: "ReLU"
  bottom: "conv2"
  top: "conv2"
}
layer {
  name: "norm2"
  type: "LRN"
  bottom: "conv2"
  top: "norm2"
  lrn_param {
    local_size: 5
    alpha: 0.0001
    beta: 0.75
  }
}
layer {
  name: "pool2"
  type: "Pooling"
  bottom: "norm2"
  top: "pool2"
  pooling_param {
    pool: MAX
    kernel_size: 3
    stride: 2
  }
}
layer {
  name: "conv3"
  type: "Convolution"
  bottom: "pool2"
  top: "conv3"
  param {
    lr_mult: 1
    decay_mult: 1
  }
  param {
    lr_mult: 2
    decay_mult: 0
  }
  convolution_param {
    num_output: 384
    pad: 1
    kernel_size: 3
    weight_filler {
      type: "gaussian"
      std: 0.01
    }
    bias_filler {
      type: "constant"
      value: 0
    }
  }
}
layer {
  name: "relu3"
  type: "ReLU"
  bottom: "conv3"
  top: "conv3"
}
layer {
  name: "conv4"
  type: "Convolution"
  bottom: "conv3"
  top: "conv4"
  param {
    lr_mult: 1
    decay_mult: 1
  }
  param {
    lr_mult: 2
    decay_mult: 0
  }
  convolution_param {
    num_output: 384
    pad: 1
    kernel_size: 3
    group: 2
    weight_filler {
      type: "gaussian"
      std: 0.01
    }
    bias_filler {
      type: "constant"
      value: 0.1
    }
  }
}
layer {
  name: "relu4"
  type: "ReLU"
  bottom: "conv4"
  top: "conv4"
}
layer {
  name: "conv5"
  type: "Convolution"
  bottom: "conv4"
  top: "conv5"
  param {
    lr_mult: 1
    decay_mult: 1
  }
  param {
    lr_mult: 2
    decay_mult: 0
  }
  convolution_param {
    num_output: 256
    pad: 1
    kernel_size: 3
    group: 2
    weight_filler {
      type: "gaussian"
      std: 0.01
    }
    bias_filler {
      type: "constant"
      value: 0.1
    }
  }
}
layer {
  name: "relu5"
  type: "ReLU"
  bottom: "conv5"
  top: "conv5"
}
layer {
  name: "pool5"
  type: "Pooling"
  bottom: "conv5"
  top: "pool5"
  pooling_param {
    pool: MAX
    kernel_size: 3
    stride: 2
  }
}
layer {
  name: "fc6"
  type: "InnerProduct"
  bottom: "pool5"
  top: "fc6"
  param {
    lr_mult: 1
    decay_mult: 1
  }
  param {
    lr_mult: 2
    decay_mult: 0
  }
  inner_product_param {
    num_output: 4096
    weight_filler {
      type: "gaussian"
      std: 0.005
    }
    bias_filler {
      type: "constant"
      value: 0.1
    }
  }
}
layer {
  name: "relu6"
  type: "ReLU"
  bottom: "fc6"
  top: "fc6"
}
layer {
  name: "drop6"
  type: "Dropout"
  bottom: "fc6"
  top: "fc6"
  dropout_param {
    dropout_ratio: 0.5
  }
}
layer {
  name: "fc7"
  type: "InnerProduct"
  bottom: "fc6"
  top: "fc7"
  param {
    lr_mult: 1
    decay_mult: 1
  }
  param {
    lr_mult: 2
    decay_mult: 0
  }
  inner_product_param {
    num_output: 4096
    weight_filler {
      type: "gaussian"
      std: 0.005
    }
    bias_filler {
      type: "constant"
      value: 0.1
    }
  }
}
layer {
  name: "relu7"
  type: "ReLU"
  bottom: "fc7"
  top: "fc7"
}
layer {
  name: "drop7"
  type: "Dropout"
  bottom: "fc7"
  top: "fc7"
  dropout_param {
    dropout_ratio: 0.5
  }
}
layer {
  name: "fc8_plantvillage"
  type: "InnerProduct"
  bottom: "fc7"
  top: "fc8_plantvillage"
  param {
    lr_mult: 1
    decay_mult: 1
  }
  param {
    lr_mult: 2
    decay_mult: 0
  }
  inner_product_param {
    num_output: 38
    weight_filler {
      type: "gaussian"
      std: 0.01
    }
    bias_filler {
      type: "constant"
      value: 0
    }
  }
}
layer {
  name: "prob"
  type: "Softmax"
  bottom: "fc8_plantvillage"
  top: "prob"
  include {
    phase: TEST
  }
}
layer {
  name: "hdf5out"
  type: "HDF5Output"
  bottom: "prob"
  bottom: "label"
  include {
    phase: TEST
  }
  hdf5_output_param {
    file_name: "hdf5_dumps/iter_4818.h5"
  }
}
layer {
  name: "loss"
  type: "SoftmaxWithLoss"
  bottom: "fc8_plantvillage"
  bottom: "label"
  top: "loss"
}
layer {
  name: "accuracy"
  type: "Accuracy"
  bottom: "fc8_plantvillage"
  bottom: "label"
  top: "accuracy"
  include {
    phase: TEST
  }
}
I0403 14:49:02.520195 30339 layer_factory.hpp:77] Creating layer data
I0403 14:49:02.520849 30339 net.cpp:91] Creating Layer data
I0403 14:49:02.520880 30339 net.cpp:399] data -> data
I0403 14:49:02.520941 30339 net.cpp:399] data -> label
I0403 14:49:02.520978 30339 data_transformer.cpp:25] Loading mean file from: /home/mohanty/data/final_dataset/lmdb/segmented-40-60/mean.binaryproto
I0403 14:49:02.524116 30341 db_lmdb.cpp:38] Opened lmdb /home/mohanty/data/final_dataset/lmdb/segmented-40-60/test_db
I0403 14:49:02.535027 30339 data_layer.cpp:41] output data size: 100,3,227,227
I0403 14:49:02.654074 30339 net.cpp:141] Setting up data
I0403 14:49:02.654206 30339 net.cpp:148] Top shape: 100 3 227 227 (15458700)
I0403 14:49:02.654232 30339 net.cpp:148] Top shape: 100 (100)
I0403 14:49:02.654247 30339 net.cpp:156] Memory required for data: 61835200
I0403 14:49:02.654280 30339 layer_factory.hpp:77] Creating layer label_data_1_split
I0403 14:49:02.654311 30339 net.cpp:91] Creating Layer label_data_1_split
I0403 14:49:02.654331 30339 net.cpp:425] label_data_1_split <- label
I0403 14:49:02.654366 30339 net.cpp:399] label_data_1_split -> label_data_1_split_0
I0403 14:49:02.654395 30339 net.cpp:399] label_data_1_split -> label_data_1_split_1
I0403 14:49:02.654417 30339 net.cpp:399] label_data_1_split -> label_data_1_split_2
I0403 14:49:02.654480 30339 net.cpp:141] Setting up label_data_1_split
I0403 14:49:02.654515 30339 net.cpp:148] Top shape: 100 (100)
I0403 14:49:02.654534 30339 net.cpp:148] Top shape: 100 (100)
I0403 14:49:02.654551 30339 net.cpp:148] Top shape: 100 (100)
I0403 14:49:02.654566 30339 net.cpp:156] Memory required for data: 61836400
I0403 14:49:02.654582 30339 layer_factory.hpp:77] Creating layer conv1
I0403 14:49:02.654618 30339 net.cpp:91] Creating Layer conv1
I0403 14:49:02.654635 30339 net.cpp:425] conv1 <- data
I0403 14:49:02.654655 30339 net.cpp:399] conv1 -> conv1
I0403 14:49:02.793090 30339 net.cpp:141] Setting up conv1
I0403 14:49:02.793182 30339 net.cpp:148] Top shape: 100 96 55 55 (29040000)
I0403 14:49:02.793200 30339 net.cpp:156] Memory required for data: 177996400
I0403 14:49:02.793236 30339 layer_factory.hpp:77] Creating layer relu1
I0403 14:49:02.793277 30339 net.cpp:91] Creating Layer relu1
I0403 14:49:02.793295 30339 net.cpp:425] relu1 <- conv1
I0403 14:49:02.793313 30339 net.cpp:386] relu1 -> conv1 (in-place)
I0403 14:49:02.793576 30339 net.cpp:141] Setting up relu1
I0403 14:49:02.793602 30339 net.cpp:148] Top shape: 100 96 55 55 (29040000)
I0403 14:49:02.793658 30339 net.cpp:156] Memory required for data: 294156400
I0403 14:49:02.793697 30339 layer_factory.hpp:77] Creating layer norm1
I0403 14:49:02.793730 30339 net.cpp:91] Creating Layer norm1
I0403 14:49:02.793747 30339 net.cpp:425] norm1 <- conv1
I0403 14:49:02.793764 30339 net.cpp:399] norm1 -> norm1
I0403 14:49:02.794070 30339 net.cpp:141] Setting up norm1
I0403 14:49:02.794097 30339 net.cpp:148] Top shape: 100 96 55 55 (29040000)
I0403 14:49:02.794113 30339 net.cpp:156] Memory required for data: 410316400
I0403 14:49:02.794128 30339 layer_factory.hpp:77] Creating layer pool1
I0403 14:49:02.794152 30339 net.cpp:91] Creating Layer pool1
I0403 14:49:02.794169 30339 net.cpp:425] pool1 <- norm1
I0403 14:49:02.794186 30339 net.cpp:399] pool1 -> pool1
I0403 14:49:02.794255 30339 net.cpp:141] Setting up pool1
I0403 14:49:02.794278 30339 net.cpp:148] Top shape: 100 96 27 27 (6998400)
I0403 14:49:02.794293 30339 net.cpp:156] Memory required for data: 438310000
I0403 14:49:02.794308 30339 layer_factory.hpp:77] Creating layer conv2
I0403 14:49:02.794334 30339 net.cpp:91] Creating Layer conv2
I0403 14:49:02.794350 30339 net.cpp:425] conv2 <- pool1
I0403 14:49:02.794368 30339 net.cpp:399] conv2 -> conv2
I0403 14:49:02.808957 30339 net.cpp:141] Setting up conv2
I0403 14:49:02.808995 30339 net.cpp:148] Top shape: 100 256 27 27 (18662400)
I0403 14:49:02.809011 30339 net.cpp:156] Memory required for data: 512959600
I0403 14:49:02.809032 30339 layer_factory.hpp:77] Creating layer relu2
I0403 14:49:02.809051 30339 net.cpp:91] Creating Layer relu2
I0403 14:49:02.809067 30339 net.cpp:425] relu2 <- conv2
I0403 14:49:02.809084 30339 net.cpp:386] relu2 -> conv2 (in-place)
I0403 14:49:02.809340 30339 net.cpp:141] Setting up relu2
I0403 14:49:02.809366 30339 net.cpp:148] Top shape: 100 256 27 27 (18662400)
I0403 14:49:02.809382 30339 net.cpp:156] Memory required for data: 587609200
I0403 14:49:02.809396 30339 layer_factory.hpp:77] Creating layer norm2
I0403 14:49:02.809417 30339 net.cpp:91] Creating Layer norm2
I0403 14:49:02.809432 30339 net.cpp:425] norm2 <- conv2
I0403 14:49:02.809450 30339 net.cpp:399] norm2 -> norm2
I0403 14:49:02.809664 30339 net.cpp:141] Setting up norm2
I0403 14:49:02.809690 30339 net.cpp:148] Top shape: 100 256 27 27 (18662400)
I0403 14:49:02.809705 30339 net.cpp:156] Memory required for data: 662258800
I0403 14:49:02.809720 30339 layer_factory.hpp:77] Creating layer pool2
I0403 14:49:02.809738 30339 net.cpp:91] Creating Layer pool2
I0403 14:49:02.809753 30339 net.cpp:425] pool2 <- norm2
I0403 14:49:02.809772 30339 net.cpp:399] pool2 -> pool2
I0403 14:49:02.809819 30339 net.cpp:141] Setting up pool2
I0403 14:49:02.809842 30339 net.cpp:148] Top shape: 100 256 13 13 (4326400)
I0403 14:49:02.809857 30339 net.cpp:156] Memory required for data: 679564400
I0403 14:49:02.809872 30339 layer_factory.hpp:77] Creating layer conv3
I0403 14:49:02.809892 30339 net.cpp:91] Creating Layer conv3
I0403 14:49:02.809908 30339 net.cpp:425] conv3 <- pool2
I0403 14:49:02.809927 30339 net.cpp:399] conv3 -> conv3
I0403 14:49:02.847622 30339 net.cpp:141] Setting up conv3
I0403 14:49:02.847673 30339 net.cpp:148] Top shape: 100 384 13 13 (6489600)
I0403 14:49:02.847692 30339 net.cpp:156] Memory required for data: 705522800
I0403 14:49:02.847718 30339 layer_factory.hpp:77] Creating layer relu3
I0403 14:49:02.847738 30339 net.cpp:91] Creating Layer relu3
I0403 14:49:02.847756 30339 net.cpp:425] relu3 <- conv3
I0403 14:49:02.847797 30339 net.cpp:386] relu3 -> conv3 (in-place)
I0403 14:49:02.848074 30339 net.cpp:141] Setting up relu3
I0403 14:49:02.848103 30339 net.cpp:148] Top shape: 100 384 13 13 (6489600)
I0403 14:49:02.848119 30339 net.cpp:156] Memory required for data: 731481200
I0403 14:49:02.848134 30339 layer_factory.hpp:77] Creating layer conv4
I0403 14:49:02.848158 30339 net.cpp:91] Creating Layer conv4
I0403 14:49:02.848176 30339 net.cpp:425] conv4 <- conv3
I0403 14:49:02.848196 30339 net.cpp:399] conv4 -> conv4
I0403 14:49:02.877429 30339 net.cpp:141] Setting up conv4
I0403 14:49:02.877472 30339 net.cpp:148] Top shape: 100 384 13 13 (6489600)
I0403 14:49:02.877532 30339 net.cpp:156] Memory required for data: 757439600
I0403 14:49:02.877553 30339 layer_factory.hpp:77] Creating layer relu4
I0403 14:49:02.877575 30339 net.cpp:91] Creating Layer relu4
I0403 14:49:02.877600 30339 net.cpp:425] relu4 <- conv4
I0403 14:49:02.877619 30339 net.cpp:386] relu4 -> conv4 (in-place)
I0403 14:49:02.877892 30339 net.cpp:141] Setting up relu4
I0403 14:49:02.877918 30339 net.cpp:148] Top shape: 100 384 13 13 (6489600)
I0403 14:49:02.877933 30339 net.cpp:156] Memory required for data: 783398000
I0403 14:49:02.877948 30339 layer_factory.hpp:77] Creating layer conv5
I0403 14:49:02.877976 30339 net.cpp:91] Creating Layer conv5
I0403 14:49:02.877995 30339 net.cpp:425] conv5 <- conv4
I0403 14:49:02.878013 30339 net.cpp:399] conv5 -> conv5
I0403 14:49:02.898313 30339 net.cpp:141] Setting up conv5
I0403 14:49:02.898380 30339 net.cpp:148] Top shape: 100 256 13 13 (4326400)
I0403 14:49:02.898397 30339 net.cpp:156] Memory required for data: 800703600
I0403 14:49:02.898424 30339 layer_factory.hpp:77] Creating layer relu5
I0403 14:49:02.898445 30339 net.cpp:91] Creating Layer relu5
I0403 14:49:02.898461 30339 net.cpp:425] relu5 <- conv5
I0403 14:49:02.898483 30339 net.cpp:386] relu5 -> conv5 (in-place)
I0403 14:49:02.898788 30339 net.cpp:141] Setting up relu5
I0403 14:49:02.898816 30339 net.cpp:148] Top shape: 100 256 13 13 (4326400)
I0403 14:49:02.898833 30339 net.cpp:156] Memory required for data: 818009200
I0403 14:49:02.898847 30339 layer_factory.hpp:77] Creating layer pool5
I0403 14:49:02.898870 30339 net.cpp:91] Creating Layer pool5
I0403 14:49:02.898886 30339 net.cpp:425] pool5 <- conv5
I0403 14:49:02.898907 30339 net.cpp:399] pool5 -> pool5
I0403 14:49:02.898968 30339 net.cpp:141] Setting up pool5
I0403 14:49:02.898991 30339 net.cpp:148] Top shape: 100 256 6 6 (921600)
I0403 14:49:02.899006 30339 net.cpp:156] Memory required for data: 821695600
I0403 14:49:02.899020 30339 layer_factory.hpp:77] Creating layer fc6
I0403 14:49:02.899051 30339 net.cpp:91] Creating Layer fc6
I0403 14:49:02.899068 30339 net.cpp:425] fc6 <- pool5
I0403 14:49:02.899088 30339 net.cpp:399] fc6 -> fc6
I0403 14:49:04.471146 30339 net.cpp:141] Setting up fc6
I0403 14:49:04.471257 30339 net.cpp:148] Top shape: 100 4096 (409600)
I0403 14:49:04.471276 30339 net.cpp:156] Memory required for data: 823334000
I0403 14:49:04.471299 30339 layer_factory.hpp:77] Creating layer relu6
I0403 14:49:04.471326 30339 net.cpp:91] Creating Layer relu6
I0403 14:49:04.471345 30339 net.cpp:425] relu6 <- fc6
I0403 14:49:04.471366 30339 net.cpp:386] relu6 -> fc6 (in-place)
I0403 14:49:04.471621 30339 net.cpp:141] Setting up relu6
I0403 14:49:04.471647 30339 net.cpp:148] Top shape: 100 4096 (409600)
I0403 14:49:04.471662 30339 net.cpp:156] Memory required for data: 824972400
I0403 14:49:04.471678 30339 layer_factory.hpp:77] Creating layer drop6
I0403 14:49:04.471698 30339 net.cpp:91] Creating Layer drop6
I0403 14:49:04.471714 30339 net.cpp:425] drop6 <- fc6
I0403 14:49:04.471737 30339 net.cpp:386] drop6 -> fc6 (in-place)
I0403 14:49:04.471796 30339 net.cpp:141] Setting up drop6
I0403 14:49:04.471830 30339 net.cpp:148] Top shape: 100 4096 (409600)
I0403 14:49:04.471844 30339 net.cpp:156] Memory required for data: 826610800
I0403 14:49:04.471859 30339 layer_factory.hpp:77] Creating layer fc7
I0403 14:49:04.471882 30339 net.cpp:91] Creating Layer fc7
I0403 14:49:04.471899 30339 net.cpp:425] fc7 <- fc6
I0403 14:49:04.471918 30339 net.cpp:399] fc7 -> fc7
I0403 14:49:06.733986 30339 net.cpp:141] Setting up fc7
I0403 14:49:06.734091 30339 net.cpp:148] Top shape: 100 4096 (409600)
I0403 14:49:06.734107 30339 net.cpp:156] Memory required for data: 828249200
I0403 14:49:06.734129 30339 layer_factory.hpp:77] Creating layer relu7
I0403 14:49:06.734153 30339 net.cpp:91] Creating Layer relu7
I0403 14:49:06.734171 30339 net.cpp:425] relu7 <- fc7
I0403 14:49:06.734194 30339 net.cpp:386] relu7 -> fc7 (in-place)
I0403 14:49:06.734602 30339 net.cpp:141] Setting up relu7
I0403 14:49:06.734633 30339 net.cpp:148] Top shape: 100 4096 (409600)
I0403 14:49:06.734689 30339 net.cpp:156] Memory required for data: 829887600
I0403 14:49:06.734704 30339 layer_factory.hpp:77] Creating layer drop7
I0403 14:49:06.734724 30339 net.cpp:91] Creating Layer drop7
I0403 14:49:06.734748 30339 net.cpp:425] drop7 <- fc7
I0403 14:49:06.734768 30339 net.cpp:386] drop7 -> fc7 (in-place)
I0403 14:49:06.734812 30339 net.cpp:141] Setting up drop7
I0403 14:49:06.734833 30339 net.cpp:148] Top shape: 100 4096 (409600)
I0403 14:49:06.734848 30339 net.cpp:156] Memory required for data: 831526000
I0403 14:49:06.734861 30339 layer_factory.hpp:77] Creating layer fc8_plantvillage
I0403 14:49:06.734884 30339 net.cpp:91] Creating Layer fc8_plantvillage
I0403 14:49:06.734899 30339 net.cpp:425] fc8_plantvillage <- fc7
I0403 14:49:06.734918 30339 net.cpp:399] fc8_plantvillage -> fc8_plantvillage
I0403 14:49:06.741482 30339 net.cpp:141] Setting up fc8_plantvillage
I0403 14:49:06.741513 30339 net.cpp:148] Top shape: 100 38 (3800)
I0403 14:49:06.741529 30339 net.cpp:156] Memory required for data: 831541200
I0403 14:49:06.741547 30339 layer_factory.hpp:77] Creating layer fc8_plantvillage_fc8_plantvillage_0_split
I0403 14:49:06.741565 30339 net.cpp:91] Creating Layer fc8_plantvillage_fc8_plantvillage_0_split
I0403 14:49:06.741581 30339 net.cpp:425] fc8_plantvillage_fc8_plantvillage_0_split <- fc8_plantvillage
I0403 14:49:06.741600 30339 net.cpp:399] fc8_plantvillage_fc8_plantvillage_0_split -> fc8_plantvillage_fc8_plantvillage_0_split_0
I0403 14:49:06.741621 30339 net.cpp:399] fc8_plantvillage_fc8_plantvillage_0_split -> fc8_plantvillage_fc8_plantvillage_0_split_1
I0403 14:49:06.741641 30339 net.cpp:399] fc8_plantvillage_fc8_plantvillage_0_split -> fc8_plantvillage_fc8_plantvillage_0_split_2
I0403 14:49:06.741715 30339 net.cpp:141] Setting up fc8_plantvillage_fc8_plantvillage_0_split
I0403 14:49:06.741739 30339 net.cpp:148] Top shape: 100 38 (3800)
I0403 14:49:06.741755 30339 net.cpp:148] Top shape: 100 38 (3800)
I0403 14:49:06.741770 30339 net.cpp:148] Top shape: 100 38 (3800)
I0403 14:49:06.741783 30339 net.cpp:156] Memory required for data: 831586800
I0403 14:49:06.741797 30339 layer_factory.hpp:77] Creating layer prob
I0403 14:49:06.741816 30339 net.cpp:91] Creating Layer prob
I0403 14:49:06.741830 30339 net.cpp:425] prob <- fc8_plantvillage_fc8_plantvillage_0_split_0
I0403 14:49:06.741850 30339 net.cpp:399] prob -> prob
I0403 14:49:06.742066 30339 net.cpp:141] Setting up prob
I0403 14:49:06.742094 30339 net.cpp:148] Top shape: 100 38 (3800)
I0403 14:49:06.742110 30339 net.cpp:156] Memory required for data: 831602000
I0403 14:49:06.742125 30339 layer_factory.hpp:77] Creating layer hdf5out
I0403 14:49:06.742142 30339 net.cpp:91] Creating Layer hdf5out
I0403 14:49:06.742157 30339 net.cpp:425] hdf5out <- prob
I0403 14:49:06.742172 30339 net.cpp:425] hdf5out <- label_data_1_split_0
I0403 14:49:06.746192 30339 net.cpp:141] Setting up hdf5out
…
