…
I0403 14:32:58.775528 29947 net.cpp:313] The NetState phase (1) differed from the phase (0) specified by a rule in layer data
I0403 14:32:58.776273 29947 net.cpp:49] Initializing net from parameters: 
state {
  phase: TEST
}
layer {
  name: "data"
  type: "Data"
  top: "data"
  top: "label"
  include {
    phase: TEST
  }
  transform_param {
    crop_size: 227
    mean_file: "/home/mohanty/data/final_dataset/lmdb/segmented-40-60/mean.binaryproto"
  }
  data_param {
    source: "/home/mohanty/data/final_dataset/lmdb/segmented-40-60/test_db"
    batch_size: 100
    backend: LMDB
  }
}
layer {
  name: "conv1"
  type: "Convolution"
  bottom: "data"
  top: "conv1"
  param {
    lr_mult: 1
    decay_mult: 1
  }
  param {
    lr_mult: 2
    decay_mult: 0
  }
  convolution_param {
    num_output: 96
    kernel_size: 11
    stride: 4
    weight_filler {
      type: "gaussian"
      std: 0.01
    }
    bias_filler {
      type: "constant"
      value: 0
    }
  }
}
layer {
  name: "relu1"
  type: "ReLU"
  bottom: "conv1"
  top: "conv1"
}
layer {
  name: "norm1"
  type: "LRN"
  bottom: "conv1"
  top: "norm1"
  lrn_param {
    local_size: 5
    alpha: 0.0001
    beta: 0.75
  }
}
layer {
  name: "pool1"
  type: "Pooling"
  bottom: "norm1"
  top: "pool1"
  pooling_param {
    pool: MAX
    kernel_size: 3
    stride: 2
  }
}
layer {
  name: "conv2"
  type: "Convolution"
  bottom: "pool1"
  top: "conv2"
  param {
    lr_mult: 1
    decay_mult: 1
  }
  param {
    lr_mult: 2
    decay_mult: 0
  }
  convolution_param {
    num_output: 256
    pad: 2
    kernel_size: 5
    group: 2
    weight_filler {
      type: "gaussian"
      std: 0.01
    }
    bias_filler {
      type: "constant"
      value: 0.1
    }
  }
}
layer {
  name: "relu2"
  type: "ReLU"
  bottom: "conv2"
  top: "conv2"
}
layer {
  name: "norm2"
  type: "LRN"
  bottom: "conv2"
  top: "norm2"
  lrn_param {
    local_size: 5
    alpha: 0.0001
    beta: 0.75
  }
}
layer {
  name: "pool2"
  type: "Pooling"
  bottom: "norm2"
  top: "pool2"
  pooling_param {
    pool: MAX
    kernel_size: 3
    stride: 2
  }
}
layer {
  name: "conv3"
  type: "Convolution"
  bottom: "pool2"
  top: "conv3"
  param {
    lr_mult: 1
    decay_mult: 1
  }
  param {
    lr_mult: 2
    decay_mult: 0
  }
  convolution_param {
    num_output: 384
    pad: 1
    kernel_size: 3
    weight_filler {
      type: "gaussian"
      std: 0.01
    }
    bias_filler {
      type: "constant"
      value: 0
    }
  }
}
layer {
  name: "relu3"
  type: "ReLU"
  bottom: "conv3"
  top: "conv3"
}
layer {
  name: "conv4"
  type: "Convolution"
  bottom: "conv3"
  top: "conv4"
  param {
    lr_mult: 1
    decay_mult: 1
  }
  param {
    lr_mult: 2
    decay_mult: 0
  }
  convolution_param {
    num_output: 384
    pad: 1
    kernel_size: 3
    group: 2
    weight_filler {
      type: "gaussian"
      std: 0.01
    }
    bias_filler {
      type: "constant"
      value: 0.1
    }
  }
}
layer {
  name: "relu4"
  type: "ReLU"
  bottom: "conv4"
  top: "conv4"
}
layer {
  name: "conv5"
  type: "Convolution"
  bottom: "conv4"
  top: "conv5"
  param {
    lr_mult: 1
    decay_mult: 1
  }
  param {
    lr_mult: 2
    decay_mult: 0
  }
  convolution_param {
    num_output: 256
    pad: 1
    kernel_size: 3
    group: 2
    weight_filler {
      type: "gaussian"
      std: 0.01
    }
    bias_filler {
      type: "constant"
      value: 0.1
    }
  }
}
layer {
  name: "relu5"
  type: "ReLU"
  bottom: "conv5"
  top: "conv5"
}
layer {
  name: "pool5"
  type: "Pooling"
  bottom: "conv5"
  top: "pool5"
  pooling_param {
    pool: MAX
    kernel_size: 3
    stride: 2
  }
}
layer {
  name: "fc6"
  type: "InnerProduct"
  bottom: "pool5"
  top: "fc6"
  param {
    lr_mult: 1
    decay_mult: 1
  }
  param {
    lr_mult: 2
    decay_mult: 0
  }
  inner_product_param {
    num_output: 4096
    weight_filler {
      type: "gaussian"
      std: 0.005
    }
    bias_filler {
      type: "constant"
      value: 0.1
    }
  }
}
layer {
  name: "relu6"
  type: "ReLU"
  bottom: "fc6"
  top: "fc6"
}
layer {
  name: "drop6"
  type: "Dropout"
  bottom: "fc6"
  top: "fc6"
  dropout_param {
    dropout_ratio: 0.5
  }
}
layer {
  name: "fc7"
  type: "InnerProduct"
  bottom: "fc6"
  top: "fc7"
  param {
    lr_mult: 1
    decay_mult: 1
  }
  param {
    lr_mult: 2
    decay_mult: 0
  }
  inner_product_param {
    num_output: 4096
    weight_filler {
      type: "gaussian"
      std: 0.005
    }
    bias_filler {
      type: "constant"
      value: 0.1
    }
  }
}
layer {
  name: "relu7"
  type: "ReLU"
  bottom: "fc7"
  top: "fc7"
}
layer {
  name: "drop7"
  type: "Dropout"
  bottom: "fc7"
  top: "fc7"
  dropout_param {
    dropout_ratio: 0.5
  }
}
layer {
  name: "fc8_plantvillage"
  type: "InnerProduct"
  bottom: "fc7"
  top: "fc8_plantvillage"
  param {
    lr_mult: 1
    decay_mult: 1
  }
  param {
    lr_mult: 2
    decay_mult: 0
  }
  inner_product_param {
    num_output: 38
    weight_filler {
      type: "gaussian"
      std: 0.01
    }
    bias_filler {
      type: "constant"
      value: 0
    }
  }
}
layer {
  name: "prob"
  type: "Softmax"
  bottom: "fc8_plantvillage"
  top: "prob"
  include {
    phase: TEST
  }
}
layer {
  name: "hdf5out"
  type: "HDF5Output"
  bottom: "prob"
  bottom: "label"
  include {
    phase: TEST
  }
  hdf5_output_param {
    file_name: "hdf5_dumps/iter_1095.h5"
  }
}
layer {
  name: "loss"
  type: "SoftmaxWithLoss"
  bottom: "fc8_plantvillage"
  bottom: "label"
  top: "loss"
}
layer {
  name: "accuracy"
  type: "Accuracy"
  bottom: "fc8_plantvillage"
  bottom: "label"
  top: "accuracy"
  include {
    phase: TEST
  }
}
I0403 14:32:58.777386 29947 layer_factory.hpp:77] Creating layer data
I0403 14:32:58.779022 29947 net.cpp:91] Creating Layer data
I0403 14:32:58.779072 29947 net.cpp:399] data -> data
I0403 14:32:58.779127 29947 net.cpp:399] data -> label
I0403 14:32:58.779165 29947 data_transformer.cpp:25] Loading mean file from: /home/mohanty/data/final_dataset/lmdb/segmented-40-60/mean.binaryproto
I0403 14:32:58.782500 29951 db_lmdb.cpp:38] Opened lmdb /home/mohanty/data/final_dataset/lmdb/segmented-40-60/test_db
I0403 14:32:58.794663 29947 data_layer.cpp:41] output data size: 100,3,227,227
I0403 14:32:58.911000 29947 net.cpp:141] Setting up data
I0403 14:32:58.911131 29947 net.cpp:148] Top shape: 100 3 227 227 (15458700)
I0403 14:32:58.911159 29947 net.cpp:148] Top shape: 100 (100)
I0403 14:32:58.911206 29947 net.cpp:156] Memory required for data: 61835200
I0403 14:32:58.911239 29947 layer_factory.hpp:77] Creating layer label_data_1_split
I0403 14:32:58.911269 29947 net.cpp:91] Creating Layer label_data_1_split
I0403 14:32:58.911289 29947 net.cpp:425] label_data_1_split <- label
I0403 14:32:58.911329 29947 net.cpp:399] label_data_1_split -> label_data_1_split_0
I0403 14:32:58.911358 29947 net.cpp:399] label_data_1_split -> label_data_1_split_1
I0403 14:32:58.911381 29947 net.cpp:399] label_data_1_split -> label_data_1_split_2
I0403 14:32:58.911453 29947 net.cpp:141] Setting up label_data_1_split
I0403 14:32:58.911520 29947 net.cpp:148] Top shape: 100 (100)
I0403 14:32:58.911545 29947 net.cpp:148] Top shape: 100 (100)
I0403 14:32:58.911574 29947 net.cpp:148] Top shape: 100 (100)
I0403 14:32:58.911598 29947 net.cpp:156] Memory required for data: 61836400
I0403 14:32:58.911613 29947 layer_factory.hpp:77] Creating layer conv1
I0403 14:32:58.911649 29947 net.cpp:91] Creating Layer conv1
I0403 14:32:58.911674 29947 net.cpp:425] conv1 <- data
I0403 14:32:58.911706 29947 net.cpp:399] conv1 -> conv1
I0403 14:32:59.052852 29947 net.cpp:141] Setting up conv1
I0403 14:32:59.052937 29947 net.cpp:148] Top shape: 100 96 55 55 (29040000)
I0403 14:32:59.052955 29947 net.cpp:156] Memory required for data: 177996400
I0403 14:32:59.052991 29947 layer_factory.hpp:77] Creating layer relu1
I0403 14:32:59.053021 29947 net.cpp:91] Creating Layer relu1
I0403 14:32:59.053040 29947 net.cpp:425] relu1 <- conv1
I0403 14:32:59.053063 29947 net.cpp:386] relu1 -> conv1 (in-place)
I0403 14:32:59.053339 29947 net.cpp:141] Setting up relu1
I0403 14:32:59.053369 29947 net.cpp:148] Top shape: 100 96 55 55 (29040000)
I0403 14:32:59.053416 29947 net.cpp:156] Memory required for data: 294156400
I0403 14:32:59.053433 29947 layer_factory.hpp:77] Creating layer norm1
I0403 14:32:59.053478 29947 net.cpp:91] Creating Layer norm1
I0403 14:32:59.053498 29947 net.cpp:425] norm1 <- conv1
I0403 14:32:59.053534 29947 net.cpp:399] norm1 -> norm1
I0403 14:32:59.053864 29947 net.cpp:141] Setting up norm1
I0403 14:32:59.053891 29947 net.cpp:148] Top shape: 100 96 55 55 (29040000)
I0403 14:32:59.053907 29947 net.cpp:156] Memory required for data: 410316400
I0403 14:32:59.053922 29947 layer_factory.hpp:77] Creating layer pool1
I0403 14:32:59.053946 29947 net.cpp:91] Creating Layer pool1
I0403 14:32:59.053962 29947 net.cpp:425] pool1 <- norm1
I0403 14:32:59.054002 29947 net.cpp:399] pool1 -> pool1
I0403 14:32:59.054075 29947 net.cpp:141] Setting up pool1
I0403 14:32:59.054105 29947 net.cpp:148] Top shape: 100 96 27 27 (6998400)
I0403 14:32:59.054121 29947 net.cpp:156] Memory required for data: 438310000
I0403 14:32:59.054136 29947 layer_factory.hpp:77] Creating layer conv2
I0403 14:32:59.054162 29947 net.cpp:91] Creating Layer conv2
I0403 14:32:59.054177 29947 net.cpp:425] conv2 <- pool1
I0403 14:32:59.054213 29947 net.cpp:399] conv2 -> conv2
I0403 14:32:59.069840 29947 net.cpp:141] Setting up conv2
I0403 14:32:59.069883 29947 net.cpp:148] Top shape: 100 256 27 27 (18662400)
I0403 14:32:59.069972 29947 net.cpp:156] Memory required for data: 512959600
I0403 14:32:59.070050 29947 layer_factory.hpp:77] Creating layer relu2
I0403 14:32:59.070103 29947 net.cpp:91] Creating Layer relu2
I0403 14:32:59.070127 29947 net.cpp:425] relu2 <- conv2
I0403 14:32:59.070155 29947 net.cpp:386] relu2 -> conv2 (in-place)
I0403 14:32:59.070482 29947 net.cpp:141] Setting up relu2
I0403 14:32:59.070518 29947 net.cpp:148] Top shape: 100 256 27 27 (18662400)
I0403 14:32:59.070544 29947 net.cpp:156] Memory required for data: 587609200
I0403 14:32:59.070569 29947 layer_factory.hpp:77] Creating layer norm2
I0403 14:32:59.070596 29947 net.cpp:91] Creating Layer norm2
I0403 14:32:59.070616 29947 net.cpp:425] norm2 <- conv2
I0403 14:32:59.070634 29947 net.cpp:399] norm2 -> norm2
I0403 14:32:59.070853 29947 net.cpp:141] Setting up norm2
I0403 14:32:59.070893 29947 net.cpp:148] Top shape: 100 256 27 27 (18662400)
I0403 14:32:59.070917 29947 net.cpp:156] Memory required for data: 662258800
I0403 14:32:59.070935 29947 layer_factory.hpp:77] Creating layer pool2
I0403 14:32:59.070956 29947 net.cpp:91] Creating Layer pool2
I0403 14:32:59.070992 29947 net.cpp:425] pool2 <- norm2
I0403 14:32:59.071036 29947 net.cpp:399] pool2 -> pool2
I0403 14:32:59.071110 29947 net.cpp:141] Setting up pool2
I0403 14:32:59.071188 29947 net.cpp:148] Top shape: 100 256 13 13 (4326400)
I0403 14:32:59.071207 29947 net.cpp:156] Memory required for data: 679564400
I0403 14:32:59.071223 29947 layer_factory.hpp:77] Creating layer conv3
I0403 14:32:59.071245 29947 net.cpp:91] Creating Layer conv3
I0403 14:32:59.071264 29947 net.cpp:425] conv3 <- pool2
I0403 14:32:59.071283 29947 net.cpp:399] conv3 -> conv3
I0403 14:32:59.111232 29947 net.cpp:141] Setting up conv3
I0403 14:32:59.111292 29947 net.cpp:148] Top shape: 100 384 13 13 (6489600)
I0403 14:32:59.111309 29947 net.cpp:156] Memory required for data: 705522800
I0403 14:32:59.111333 29947 layer_factory.hpp:77] Creating layer relu3
I0403 14:32:59.111354 29947 net.cpp:91] Creating Layer relu3
I0403 14:32:59.111371 29947 net.cpp:425] relu3 <- conv3
I0403 14:32:59.111389 29947 net.cpp:386] relu3 -> conv3 (in-place)
I0403 14:32:59.111665 29947 net.cpp:141] Setting up relu3
I0403 14:32:59.111691 29947 net.cpp:148] Top shape: 100 384 13 13 (6489600)
I0403 14:32:59.111707 29947 net.cpp:156] Memory required for data: 731481200
I0403 14:32:59.111722 29947 layer_factory.hpp:77] Creating layer conv4
I0403 14:32:59.111747 29947 net.cpp:91] Creating Layer conv4
I0403 14:32:59.111764 29947 net.cpp:425] conv4 <- conv3
I0403 14:32:59.111783 29947 net.cpp:399] conv4 -> conv4
I0403 14:32:59.141544 29947 net.cpp:141] Setting up conv4
I0403 14:32:59.141587 29947 net.cpp:148] Top shape: 100 384 13 13 (6489600)
I0403 14:32:59.141638 29947 net.cpp:156] Memory required for data: 757439600
I0403 14:32:59.141657 29947 layer_factory.hpp:77] Creating layer relu4
I0403 14:32:59.141677 29947 net.cpp:91] Creating Layer relu4
I0403 14:32:59.141693 29947 net.cpp:425] relu4 <- conv4
I0403 14:32:59.141711 29947 net.cpp:386] relu4 -> conv4 (in-place)
I0403 14:32:59.141990 29947 net.cpp:141] Setting up relu4
I0403 14:32:59.142019 29947 net.cpp:148] Top shape: 100 384 13 13 (6489600)
I0403 14:32:59.142033 29947 net.cpp:156] Memory required for data: 783398000
I0403 14:32:59.142050 29947 layer_factory.hpp:77] Creating layer conv5
I0403 14:32:59.142074 29947 net.cpp:91] Creating Layer conv5
I0403 14:32:59.142091 29947 net.cpp:425] conv5 <- conv4
I0403 14:32:59.142110 29947 net.cpp:399] conv5 -> conv5
I0403 14:32:59.162250 29947 net.cpp:141] Setting up conv5
I0403 14:32:59.162286 29947 net.cpp:148] Top shape: 100 256 13 13 (4326400)
I0403 14:32:59.162303 29947 net.cpp:156] Memory required for data: 800703600
I0403 14:32:59.162327 29947 layer_factory.hpp:77] Creating layer relu5
I0403 14:32:59.162345 29947 net.cpp:91] Creating Layer relu5
I0403 14:32:59.162360 29947 net.cpp:425] relu5 <- conv5
I0403 14:32:59.162380 29947 net.cpp:386] relu5 -> conv5 (in-place)
I0403 14:32:59.162704 29947 net.cpp:141] Setting up relu5
I0403 14:32:59.162730 29947 net.cpp:148] Top shape: 100 256 13 13 (4326400)
I0403 14:32:59.162745 29947 net.cpp:156] Memory required for data: 818009200
I0403 14:32:59.162760 29947 layer_factory.hpp:77] Creating layer pool5
I0403 14:32:59.162784 29947 net.cpp:91] Creating Layer pool5
I0403 14:32:59.162801 29947 net.cpp:425] pool5 <- conv5
I0403 14:32:59.162818 29947 net.cpp:399] pool5 -> pool5
I0403 14:32:59.162879 29947 net.cpp:141] Setting up pool5
I0403 14:32:59.162902 29947 net.cpp:148] Top shape: 100 256 6 6 (921600)
I0403 14:32:59.162916 29947 net.cpp:156] Memory required for data: 821695600
I0403 14:32:59.162931 29947 layer_factory.hpp:77] Creating layer fc6
I0403 14:32:59.162958 29947 net.cpp:91] Creating Layer fc6
I0403 14:32:59.162976 29947 net.cpp:425] fc6 <- pool5
I0403 14:32:59.162997 29947 net.cpp:399] fc6 -> fc6
I0403 14:33:00.686518 29947 net.cpp:141] Setting up fc6
I0403 14:33:00.686617 29947 net.cpp:148] Top shape: 100 4096 (409600)
I0403 14:33:00.686635 29947 net.cpp:156] Memory required for data: 823334000
I0403 14:33:00.686655 29947 layer_factory.hpp:77] Creating layer relu6
I0403 14:33:00.686679 29947 net.cpp:91] Creating Layer relu6
I0403 14:33:00.686697 29947 net.cpp:425] relu6 <- fc6
I0403 14:33:00.686714 29947 net.cpp:386] relu6 -> fc6 (in-place)
I0403 14:33:00.686944 29947 net.cpp:141] Setting up relu6
I0403 14:33:00.686970 29947 net.cpp:148] Top shape: 100 4096 (409600)
I0403 14:33:00.686985 29947 net.cpp:156] Memory required for data: 824972400
I0403 14:33:00.686998 29947 layer_factory.hpp:77] Creating layer drop6
I0403 14:33:00.687016 29947 net.cpp:91] Creating Layer drop6
I0403 14:33:00.687031 29947 net.cpp:425] drop6 <- fc6
I0403 14:33:00.687052 29947 net.cpp:386] drop6 -> fc6 (in-place)
I0403 14:33:00.687101 29947 net.cpp:141] Setting up drop6
I0403 14:33:00.687122 29947 net.cpp:148] Top shape: 100 4096 (409600)
I0403 14:33:00.687136 29947 net.cpp:156] Memory required for data: 826610800
I0403 14:33:00.687150 29947 layer_factory.hpp:77] Creating layer fc7
I0403 14:33:00.687177 29947 net.cpp:91] Creating Layer fc7
I0403 14:33:00.687193 29947 net.cpp:425] fc7 <- fc6
I0403 14:33:00.687213 29947 net.cpp:399] fc7 -> fc7
I0403 14:33:01.334420 29947 net.cpp:141] Setting up fc7
I0403 14:33:01.334520 29947 net.cpp:148] Top shape: 100 4096 (409600)
I0403 14:33:01.334537 29947 net.cpp:156] Memory required for data: 828249200
I0403 14:33:01.334558 29947 layer_factory.hpp:77] Creating layer relu7
I0403 14:33:01.334581 29947 net.cpp:91] Creating Layer relu7
I0403 14:33:01.334597 29947 net.cpp:425] relu7 <- fc7
I0403 14:33:01.334615 29947 net.cpp:386] relu7 -> fc7 (in-place)
I0403 14:33:01.335036 29947 net.cpp:141] Setting up relu7
I0403 14:33:01.335060 29947 net.cpp:148] Top shape: 100 4096 (409600)
I0403 14:33:01.335115 29947 net.cpp:156] Memory required for data: 829887600
I0403 14:33:01.335130 29947 layer_factory.hpp:77] Creating layer drop7
I0403 14:33:01.335149 29947 net.cpp:91] Creating Layer drop7
I0403 14:33:01.335162 29947 net.cpp:425] drop7 <- fc7
I0403 14:33:01.335180 29947 net.cpp:386] drop7 -> fc7 (in-place)
I0403 14:33:01.335222 29947 net.cpp:141] Setting up drop7
I0403 14:33:01.335242 29947 net.cpp:148] Top shape: 100 4096 (409600)
I0403 14:33:01.335256 29947 net.cpp:156] Memory required for data: 831526000
I0403 14:33:01.335270 29947 layer_factory.hpp:77] Creating layer fc8_plantvillage
I0403 14:33:01.335292 29947 net.cpp:91] Creating Layer fc8_plantvillage
I0403 14:33:01.335307 29947 net.cpp:425] fc8_plantvillage <- fc7
I0403 14:33:01.335325 29947 net.cpp:399] fc8_plantvillage -> fc8_plantvillage
I0403 14:33:01.341693 29947 net.cpp:141] Setting up fc8_plantvillage
I0403 14:33:01.341719 29947 net.cpp:148] Top shape: 100 38 (3800)
I0403 14:33:01.341734 29947 net.cpp:156] Memory required for data: 831541200
I0403 14:33:01.341752 29947 layer_factory.hpp:77] Creating layer fc8_plantvillage_fc8_plantvillage_0_split
I0403 14:33:01.341770 29947 net.cpp:91] Creating Layer fc8_plantvillage_fc8_plantvillage_0_split
I0403 14:33:01.341784 29947 net.cpp:425] fc8_plantvillage_fc8_plantvillage_0_split <- fc8_plantvillage
I0403 14:33:01.341804 29947 net.cpp:399] fc8_plantvillage_fc8_plantvillage_0_split -> fc8_plantvillage_fc8_plantvillage_0_split_0
I0403 14:33:01.341823 29947 net.cpp:399] fc8_plantvillage_fc8_plantvillage_0_split -> fc8_plantvillage_fc8_plantvillage_0_split_1
I0403 14:33:01.341842 29947 net.cpp:399] fc8_plantvillage_fc8_plantvillage_0_split -> fc8_plantvillage_fc8_plantvillage_0_split_2
I0403 14:33:01.341917 29947 net.cpp:141] Setting up fc8_plantvillage_fc8_plantvillage_0_split
I0403 14:33:01.341941 29947 net.cpp:148] Top shape: 100 38 (3800)
I0403 14:33:01.341958 29947 net.cpp:148] Top shape: 100 38 (3800)
I0403 14:33:01.341972 29947 net.cpp:148] Top shape: 100 38 (3800)
I0403 14:33:01.341985 29947 net.cpp:156] Memory required for data: 831586800
I0403 14:33:01.342000 29947 layer_factory.hpp:77] Creating layer prob
I0403 14:33:01.342016 29947 net.cpp:91] Creating Layer prob
I0403 14:33:01.342031 29947 net.cpp:425] prob <- fc8_plantvillage_fc8_plantvillage_0_split_0
I0403 14:33:01.342047 29947 net.cpp:399] prob -> prob
I0403 14:33:01.342255 29947 net.cpp:141] Setting up prob
I0403 14:33:01.342281 29947 net.cpp:148] Top shape: 100 38 (3800)
I0403 14:33:01.342295 29947 net.cpp:156] Memory required for data: 831602000
I0403 14:33:01.342309 29947 layer_factory.hpp:77] Creating layer hdf5out
I0403 14:33:01.342329 29947 net.cpp:91] Creating Layer hdf5out
I0403 14:33:01.342342 29947 net.cpp:425] hdf5out <- prob
I0403 14:33:01.342357 29947 net.cpp:425] hdf5out <- label_data_1_split_0
I0403 14:33:01.348053 29947 net.cpp:141] Setting up hdf5out
…
