…
I0403 14:31:06.434581 29905 net.cpp:313] The NetState phase (1) differed from the phase (0) specified by a rule in layer data
I0403 14:31:06.435329 29905 net.cpp:49] Initializing net from parameters: 
state {
  phase: TEST
}
layer {
  name: "data"
  type: "Data"
  top: "data"
  top: "label"
  include {
    phase: TEST
  }
  transform_param {
    crop_size: 227
    mean_file: "/home/mohanty/data/final_dataset/lmdb/segmented-40-60/mean.binaryproto"
  }
  data_param {
    source: "/home/mohanty/data/final_dataset/lmdb/segmented-40-60/test_db"
    batch_size: 100
    backend: LMDB
  }
}
layer {
  name: "conv1"
  type: "Convolution"
  bottom: "data"
  top: "conv1"
  param {
    lr_mult: 1
    decay_mult: 1
  }
  param {
    lr_mult: 2
    decay_mult: 0
  }
  convolution_param {
    num_output: 96
    kernel_size: 11
    stride: 4
    weight_filler {
      type: "gaussian"
      std: 0.01
    }
    bias_filler {
      type: "constant"
      value: 0
    }
  }
}
layer {
  name: "relu1"
  type: "ReLU"
  bottom: "conv1"
  top: "conv1"
}
layer {
  name: "norm1"
  type: "LRN"
  bottom: "conv1"
  top: "norm1"
  lrn_param {
    local_size: 5
    alpha: 0.0001
    beta: 0.75
  }
}
layer {
  name: "pool1"
  type: "Pooling"
  bottom: "norm1"
  top: "pool1"
  pooling_param {
    pool: MAX
    kernel_size: 3
    stride: 2
  }
}
layer {
  name: "conv2"
  type: "Convolution"
  bottom: "pool1"
  top: "conv2"
  param {
    lr_mult: 1
    decay_mult: 1
  }
  param {
    lr_mult: 2
    decay_mult: 0
  }
  convolution_param {
    num_output: 256
    pad: 2
    kernel_size: 5
    group: 2
    weight_filler {
      type: "gaussian"
      std: 0.01
    }
    bias_filler {
      type: "constant"
      value: 0.1
    }
  }
}
layer {
  name: "relu2"
  type: "ReLU"
  bottom: "conv2"
  top: "conv2"
}
layer {
  name: "norm2"
  type: "LRN"
  bottom: "conv2"
  top: "norm2"
  lrn_param {
    local_size: 5
    alpha: 0.0001
    beta: 0.75
  }
}
layer {
  name: "pool2"
  type: "Pooling"
  bottom: "norm2"
  top: "pool2"
  pooling_param {
    pool: MAX
    kernel_size: 3
    stride: 2
  }
}
layer {
  name: "conv3"
  type: "Convolution"
  bottom: "pool2"
  top: "conv3"
  param {
    lr_mult: 1
    decay_mult: 1
  }
  param {
    lr_mult: 2
    decay_mult: 0
  }
  convolution_param {
    num_output: 384
    pad: 1
    kernel_size: 3
    weight_filler {
      type: "gaussian"
      std: 0.01
    }
    bias_filler {
      type: "constant"
      value: 0
    }
  }
}
layer {
  name: "relu3"
  type: "ReLU"
  bottom: "conv3"
  top: "conv3"
}
layer {
  name: "conv4"
  type: "Convolution"
  bottom: "conv3"
  top: "conv4"
  param {
    lr_mult: 1
    decay_mult: 1
  }
  param {
    lr_mult: 2
    decay_mult: 0
  }
  convolution_param {
    num_output: 384
    pad: 1
    kernel_size: 3
    group: 2
    weight_filler {
      type: "gaussian"
      std: 0.01
    }
    bias_filler {
      type: "constant"
      value: 0.1
    }
  }
}
layer {
  name: "relu4"
  type: "ReLU"
  bottom: "conv4"
  top: "conv4"
}
layer {
  name: "conv5"
  type: "Convolution"
  bottom: "conv4"
  top: "conv5"
  param {
    lr_mult: 1
    decay_mult: 1
  }
  param {
    lr_mult: 2
    decay_mult: 0
  }
  convolution_param {
    num_output: 256
    pad: 1
    kernel_size: 3
    group: 2
    weight_filler {
      type: "gaussian"
      std: 0.01
    }
    bias_filler {
      type: "constant"
      value: 0.1
    }
  }
}
layer {
  name: "relu5"
  type: "ReLU"
  bottom: "conv5"
  top: "conv5"
}
layer {
  name: "pool5"
  type: "Pooling"
  bottom: "conv5"
  top: "pool5"
  pooling_param {
    pool: MAX
    kernel_size: 3
    stride: 2
  }
}
layer {
  name: "fc6"
  type: "InnerProduct"
  bottom: "pool5"
  top: "fc6"
  param {
    lr_mult: 1
    decay_mult: 1
  }
  param {
    lr_mult: 2
    decay_mult: 0
  }
  inner_product_param {
    num_output: 4096
    weight_filler {
      type: "gaussian"
      std: 0.005
    }
    bias_filler {
      type: "constant"
      value: 0.1
    }
  }
}
layer {
  name: "relu6"
  type: "ReLU"
  bottom: "fc6"
  top: "fc6"
}
layer {
  name: "drop6"
  type: "Dropout"
  bottom: "fc6"
  top: "fc6"
  dropout_param {
    dropout_ratio: 0.5
  }
}
layer {
  name: "fc7"
  type: "InnerProduct"
  bottom: "fc6"
  top: "fc7"
  param {
    lr_mult: 1
    decay_mult: 1
  }
  param {
    lr_mult: 2
    decay_mult: 0
  }
  inner_product_param {
    num_output: 4096
    weight_filler {
      type: "gaussian"
      std: 0.005
    }
    bias_filler {
      type: "constant"
      value: 0.1
    }
  }
}
layer {
  name: "relu7"
  type: "ReLU"
  bottom: "fc7"
  top: "fc7"
}
layer {
  name: "drop7"
  type: "Dropout"
  bottom: "fc7"
  top: "fc7"
  dropout_param {
    dropout_ratio: 0.5
  }
}
layer {
  name: "fc8_plantvillage"
  type: "InnerProduct"
  bottom: "fc7"
  top: "fc8_plantvillage"
  param {
    lr_mult: 1
    decay_mult: 1
  }
  param {
    lr_mult: 2
    decay_mult: 0
  }
  inner_product_param {
    num_output: 38
    weight_filler {
      type: "gaussian"
      std: 0.01
    }
    bias_filler {
      type: "constant"
      value: 0
    }
  }
}
layer {
  name: "prob"
  type: "Softmax"
  bottom: "fc8_plantvillage"
  top: "prob"
  include {
    phase: TEST
  }
}
layer {
  name: "hdf5out"
  type: "HDF5Output"
  bottom: "prob"
  bottom: "label"
  include {
    phase: TEST
  }
  hdf5_output_param {
    file_name: "hdf5_dumps/iter_657.h5"
  }
}
layer {
  name: "loss"
  type: "SoftmaxWithLoss"
  bottom: "fc8_plantvillage"
  bottom: "label"
  top: "loss"
}
layer {
  name: "accuracy"
  type: "Accuracy"
  bottom: "fc8_plantvillage"
  bottom: "label"
  top: "accuracy"
  include {
    phase: TEST
  }
}
I0403 14:31:06.436432 29905 layer_factory.hpp:77] Creating layer data
I0403 14:31:06.438058 29905 net.cpp:91] Creating Layer data
I0403 14:31:06.438140 29905 net.cpp:399] data -> data
I0403 14:31:06.438266 29905 net.cpp:399] data -> label
I0403 14:31:06.438354 29905 data_transformer.cpp:25] Loading mean file from: /home/mohanty/data/final_dataset/lmdb/segmented-40-60/mean.binaryproto
I0403 14:31:06.442683 29907 db_lmdb.cpp:38] Opened lmdb /home/mohanty/data/final_dataset/lmdb/segmented-40-60/test_db
I0403 14:31:06.461369 29905 data_layer.cpp:41] output data size: 100,3,227,227
I0403 14:31:06.576889 29905 net.cpp:141] Setting up data
I0403 14:31:06.577011 29905 net.cpp:148] Top shape: 100 3 227 227 (15458700)
I0403 14:31:06.577033 29905 net.cpp:148] Top shape: 100 (100)
I0403 14:31:06.577049 29905 net.cpp:156] Memory required for data: 61835200
I0403 14:31:06.577078 29905 layer_factory.hpp:77] Creating layer label_data_1_split
I0403 14:31:06.577111 29905 net.cpp:91] Creating Layer label_data_1_split
I0403 14:31:06.577129 29905 net.cpp:425] label_data_1_split <- label
I0403 14:31:06.577163 29905 net.cpp:399] label_data_1_split -> label_data_1_split_0
I0403 14:31:06.577193 29905 net.cpp:399] label_data_1_split -> label_data_1_split_1
I0403 14:31:06.577214 29905 net.cpp:399] label_data_1_split -> label_data_1_split_2
I0403 14:31:06.577276 29905 net.cpp:141] Setting up label_data_1_split
I0403 14:31:06.577298 29905 net.cpp:148] Top shape: 100 (100)
I0403 14:31:06.577314 29905 net.cpp:148] Top shape: 100 (100)
I0403 14:31:06.577330 29905 net.cpp:148] Top shape: 100 (100)
I0403 14:31:06.577344 29905 net.cpp:156] Memory required for data: 61836400
I0403 14:31:06.577359 29905 layer_factory.hpp:77] Creating layer conv1
I0403 14:31:06.577394 29905 net.cpp:91] Creating Layer conv1
I0403 14:31:06.577412 29905 net.cpp:425] conv1 <- data
I0403 14:31:06.577431 29905 net.cpp:399] conv1 -> conv1
I0403 14:31:06.714262 29905 net.cpp:141] Setting up conv1
I0403 14:31:06.714344 29905 net.cpp:148] Top shape: 100 96 55 55 (29040000)
I0403 14:31:06.714362 29905 net.cpp:156] Memory required for data: 177996400
I0403 14:31:06.714396 29905 layer_factory.hpp:77] Creating layer relu1
I0403 14:31:06.714426 29905 net.cpp:91] Creating Layer relu1
I0403 14:31:06.714444 29905 net.cpp:425] relu1 <- conv1
I0403 14:31:06.714486 29905 net.cpp:386] relu1 -> conv1 (in-place)
I0403 14:31:06.714766 29905 net.cpp:141] Setting up relu1
I0403 14:31:06.714793 29905 net.cpp:148] Top shape: 100 96 55 55 (29040000)
I0403 14:31:06.714848 29905 net.cpp:156] Memory required for data: 294156400
I0403 14:31:06.714864 29905 layer_factory.hpp:77] Creating layer norm1
I0403 14:31:06.714895 29905 net.cpp:91] Creating Layer norm1
I0403 14:31:06.714913 29905 net.cpp:425] norm1 <- conv1
I0403 14:31:06.714931 29905 net.cpp:399] norm1 -> norm1
I0403 14:31:06.715257 29905 net.cpp:141] Setting up norm1
I0403 14:31:06.715284 29905 net.cpp:148] Top shape: 100 96 55 55 (29040000)
I0403 14:31:06.715301 29905 net.cpp:156] Memory required for data: 410316400
I0403 14:31:06.715315 29905 layer_factory.hpp:77] Creating layer pool1
I0403 14:31:06.715342 29905 net.cpp:91] Creating Layer pool1
I0403 14:31:06.715360 29905 net.cpp:425] pool1 <- norm1
I0403 14:31:06.715378 29905 net.cpp:399] pool1 -> pool1
I0403 14:31:06.715453 29905 net.cpp:141] Setting up pool1
I0403 14:31:06.715477 29905 net.cpp:148] Top shape: 100 96 27 27 (6998400)
I0403 14:31:06.715492 29905 net.cpp:156] Memory required for data: 438310000
I0403 14:31:06.715508 29905 layer_factory.hpp:77] Creating layer conv2
I0403 14:31:06.715540 29905 net.cpp:91] Creating Layer conv2
I0403 14:31:06.715559 29905 net.cpp:425] conv2 <- pool1
I0403 14:31:06.715580 29905 net.cpp:399] conv2 -> conv2
I0403 14:31:06.730232 29905 net.cpp:141] Setting up conv2
I0403 14:31:06.730265 29905 net.cpp:148] Top shape: 100 256 27 27 (18662400)
I0403 14:31:06.730281 29905 net.cpp:156] Memory required for data: 512959600
I0403 14:31:06.730306 29905 layer_factory.hpp:77] Creating layer relu2
I0403 14:31:06.730326 29905 net.cpp:91] Creating Layer relu2
I0403 14:31:06.730341 29905 net.cpp:425] relu2 <- conv2
I0403 14:31:06.730357 29905 net.cpp:386] relu2 -> conv2 (in-place)
I0403 14:31:06.730674 29905 net.cpp:141] Setting up relu2
I0403 14:31:06.730700 29905 net.cpp:148] Top shape: 100 256 27 27 (18662400)
I0403 14:31:06.730720 29905 net.cpp:156] Memory required for data: 587609200
I0403 14:31:06.730736 29905 layer_factory.hpp:77] Creating layer norm2
I0403 14:31:06.730756 29905 net.cpp:91] Creating Layer norm2
I0403 14:31:06.730772 29905 net.cpp:425] norm2 <- conv2
I0403 14:31:06.730792 29905 net.cpp:399] norm2 -> norm2
I0403 14:31:06.730989 29905 net.cpp:141] Setting up norm2
I0403 14:31:06.731014 29905 net.cpp:148] Top shape: 100 256 27 27 (18662400)
I0403 14:31:06.731029 29905 net.cpp:156] Memory required for data: 662258800
I0403 14:31:06.731045 29905 layer_factory.hpp:77] Creating layer pool2
I0403 14:31:06.731065 29905 net.cpp:91] Creating Layer pool2
I0403 14:31:06.731081 29905 net.cpp:425] pool2 <- norm2
I0403 14:31:06.731097 29905 net.cpp:399] pool2 -> pool2
I0403 14:31:06.731153 29905 net.cpp:141] Setting up pool2
I0403 14:31:06.731175 29905 net.cpp:148] Top shape: 100 256 13 13 (4326400)
I0403 14:31:06.731190 29905 net.cpp:156] Memory required for data: 679564400
I0403 14:31:06.731205 29905 layer_factory.hpp:77] Creating layer conv3
I0403 14:31:06.731235 29905 net.cpp:91] Creating Layer conv3
I0403 14:31:06.731252 29905 net.cpp:425] conv3 <- pool2
I0403 14:31:06.731272 29905 net.cpp:399] conv3 -> conv3
I0403 14:31:06.768769 29905 net.cpp:141] Setting up conv3
I0403 14:31:06.768824 29905 net.cpp:148] Top shape: 100 384 13 13 (6489600)
I0403 14:31:06.768843 29905 net.cpp:156] Memory required for data: 705522800
I0403 14:31:06.768868 29905 layer_factory.hpp:77] Creating layer relu3
I0403 14:31:06.768893 29905 net.cpp:91] Creating Layer relu3
I0403 14:31:06.768910 29905 net.cpp:425] relu3 <- conv3
I0403 14:31:06.768929 29905 net.cpp:386] relu3 -> conv3 (in-place)
I0403 14:31:06.769196 29905 net.cpp:141] Setting up relu3
I0403 14:31:06.769222 29905 net.cpp:148] Top shape: 100 384 13 13 (6489600)
I0403 14:31:06.769237 29905 net.cpp:156] Memory required for data: 731481200
I0403 14:31:06.769253 29905 layer_factory.hpp:77] Creating layer conv4
I0403 14:31:06.769278 29905 net.cpp:91] Creating Layer conv4
I0403 14:31:06.769294 29905 net.cpp:425] conv4 <- conv3
I0403 14:31:06.769316 29905 net.cpp:399] conv4 -> conv4
I0403 14:31:06.798527 29905 net.cpp:141] Setting up conv4
I0403 14:31:06.798573 29905 net.cpp:148] Top shape: 100 384 13 13 (6489600)
I0403 14:31:06.798627 29905 net.cpp:156] Memory required for data: 757439600
I0403 14:31:06.798648 29905 layer_factory.hpp:77] Creating layer relu4
I0403 14:31:06.798669 29905 net.cpp:91] Creating Layer relu4
I0403 14:31:06.798686 29905 net.cpp:425] relu4 <- conv4
I0403 14:31:06.798707 29905 net.cpp:386] relu4 -> conv4 (in-place)
I0403 14:31:06.798979 29905 net.cpp:141] Setting up relu4
I0403 14:31:06.799005 29905 net.cpp:148] Top shape: 100 384 13 13 (6489600)
I0403 14:31:06.799021 29905 net.cpp:156] Memory required for data: 783398000
I0403 14:31:06.799036 29905 layer_factory.hpp:77] Creating layer conv5
I0403 14:31:06.799060 29905 net.cpp:91] Creating Layer conv5
I0403 14:31:06.799077 29905 net.cpp:425] conv5 <- conv4
I0403 14:31:06.799098 29905 net.cpp:399] conv5 -> conv5
I0403 14:31:06.819411 29905 net.cpp:141] Setting up conv5
I0403 14:31:06.819447 29905 net.cpp:148] Top shape: 100 256 13 13 (4326400)
I0403 14:31:06.819463 29905 net.cpp:156] Memory required for data: 800703600
I0403 14:31:06.819488 29905 layer_factory.hpp:77] Creating layer relu5
I0403 14:31:06.819509 29905 net.cpp:91] Creating Layer relu5
I0403 14:31:06.819526 29905 net.cpp:425] relu5 <- conv5
I0403 14:31:06.819548 29905 net.cpp:386] relu5 -> conv5 (in-place)
I0403 14:31:06.819816 29905 net.cpp:141] Setting up relu5
I0403 14:31:06.819842 29905 net.cpp:148] Top shape: 100 256 13 13 (4326400)
I0403 14:31:06.819857 29905 net.cpp:156] Memory required for data: 818009200
I0403 14:31:06.819872 29905 layer_factory.hpp:77] Creating layer pool5
I0403 14:31:06.819897 29905 net.cpp:91] Creating Layer pool5
I0403 14:31:06.819914 29905 net.cpp:425] pool5 <- conv5
I0403 14:31:06.819933 29905 net.cpp:399] pool5 -> pool5
I0403 14:31:06.819994 29905 net.cpp:141] Setting up pool5
I0403 14:31:06.820018 29905 net.cpp:148] Top shape: 100 256 6 6 (921600)
I0403 14:31:06.820053 29905 net.cpp:156] Memory required for data: 821695600
I0403 14:31:06.820076 29905 layer_factory.hpp:77] Creating layer fc6
I0403 14:31:06.820108 29905 net.cpp:91] Creating Layer fc6
I0403 14:31:06.820127 29905 net.cpp:425] fc6 <- pool5
I0403 14:31:06.820144 29905 net.cpp:399] fc6 -> fc6
I0403 14:31:08.287550 29905 net.cpp:141] Setting up fc6
I0403 14:31:08.287623 29905 net.cpp:148] Top shape: 100 4096 (409600)
I0403 14:31:08.287639 29905 net.cpp:156] Memory required for data: 823334000
I0403 14:31:08.287660 29905 layer_factory.hpp:77] Creating layer relu6
I0403 14:31:08.287684 29905 net.cpp:91] Creating Layer relu6
I0403 14:31:08.287700 29905 net.cpp:425] relu6 <- fc6
I0403 14:31:08.287722 29905 net.cpp:386] relu6 -> fc6 (in-place)
I0403 14:31:08.287950 29905 net.cpp:141] Setting up relu6
I0403 14:31:08.287973 29905 net.cpp:148] Top shape: 100 4096 (409600)
I0403 14:31:08.287988 29905 net.cpp:156] Memory required for data: 824972400
I0403 14:31:08.288002 29905 layer_factory.hpp:77] Creating layer drop6
I0403 14:31:08.288022 29905 net.cpp:91] Creating Layer drop6
I0403 14:31:08.288038 29905 net.cpp:425] drop6 <- fc6
I0403 14:31:08.288055 29905 net.cpp:386] drop6 -> fc6 (in-place)
I0403 14:31:08.288106 29905 net.cpp:141] Setting up drop6
I0403 14:31:08.288130 29905 net.cpp:148] Top shape: 100 4096 (409600)
I0403 14:31:08.288146 29905 net.cpp:156] Memory required for data: 826610800
I0403 14:31:08.288159 29905 layer_factory.hpp:77] Creating layer fc7
I0403 14:31:08.288179 29905 net.cpp:91] Creating Layer fc7
I0403 14:31:08.288195 29905 net.cpp:425] fc7 <- fc6
I0403 14:31:08.288215 29905 net.cpp:399] fc7 -> fc7
I0403 14:31:08.933682 29905 net.cpp:141] Setting up fc7
I0403 14:31:08.933768 29905 net.cpp:148] Top shape: 100 4096 (409600)
I0403 14:31:08.933784 29905 net.cpp:156] Memory required for data: 828249200
I0403 14:31:08.933804 29905 layer_factory.hpp:77] Creating layer relu7
I0403 14:31:08.933827 29905 net.cpp:91] Creating Layer relu7
I0403 14:31:08.933845 29905 net.cpp:425] relu7 <- fc7
I0403 14:31:08.933876 29905 net.cpp:386] relu7 -> fc7 (in-place)
I0403 14:31:08.934274 29905 net.cpp:141] Setting up relu7
I0403 14:31:08.934299 29905 net.cpp:148] Top shape: 100 4096 (409600)
I0403 14:31:08.934355 29905 net.cpp:156] Memory required for data: 829887600
I0403 14:31:08.934370 29905 layer_factory.hpp:77] Creating layer drop7
I0403 14:31:08.934388 29905 net.cpp:91] Creating Layer drop7
I0403 14:31:08.934403 29905 net.cpp:425] drop7 <- fc7
I0403 14:31:08.934422 29905 net.cpp:386] drop7 -> fc7 (in-place)
I0403 14:31:08.934466 29905 net.cpp:141] Setting up drop7
I0403 14:31:08.934487 29905 net.cpp:148] Top shape: 100 4096 (409600)
I0403 14:31:08.934501 29905 net.cpp:156] Memory required for data: 831526000
I0403 14:31:08.934515 29905 layer_factory.hpp:77] Creating layer fc8_plantvillage
I0403 14:31:08.934540 29905 net.cpp:91] Creating Layer fc8_plantvillage
I0403 14:31:08.934556 29905 net.cpp:425] fc8_plantvillage <- fc7
I0403 14:31:08.934576 29905 net.cpp:399] fc8_plantvillage -> fc8_plantvillage
I0403 14:31:08.940908 29905 net.cpp:141] Setting up fc8_plantvillage
I0403 14:31:08.940937 29905 net.cpp:148] Top shape: 100 38 (3800)
I0403 14:31:08.940953 29905 net.cpp:156] Memory required for data: 831541200
I0403 14:31:08.940969 29905 layer_factory.hpp:77] Creating layer fc8_plantvillage_fc8_plantvillage_0_split
I0403 14:31:08.940987 29905 net.cpp:91] Creating Layer fc8_plantvillage_fc8_plantvillage_0_split
I0403 14:31:08.941001 29905 net.cpp:425] fc8_plantvillage_fc8_plantvillage_0_split <- fc8_plantvillage
I0403 14:31:08.941017 29905 net.cpp:399] fc8_plantvillage_fc8_plantvillage_0_split -> fc8_plantvillage_fc8_plantvillage_0_split_0
I0403 14:31:08.941036 29905 net.cpp:399] fc8_plantvillage_fc8_plantvillage_0_split -> fc8_plantvillage_fc8_plantvillage_0_split_1
I0403 14:31:08.941056 29905 net.cpp:399] fc8_plantvillage_fc8_plantvillage_0_split -> fc8_plantvillage_fc8_plantvillage_0_split_2
I0403 14:31:08.941133 29905 net.cpp:141] Setting up fc8_plantvillage_fc8_plantvillage_0_split
I0403 14:31:08.941154 29905 net.cpp:148] Top shape: 100 38 (3800)
I0403 14:31:08.941170 29905 net.cpp:148] Top shape: 100 38 (3800)
I0403 14:31:08.941184 29905 net.cpp:148] Top shape: 100 38 (3800)
I0403 14:31:08.941198 29905 net.cpp:156] Memory required for data: 831586800
I0403 14:31:08.941211 29905 layer_factory.hpp:77] Creating layer prob
I0403 14:31:08.941229 29905 net.cpp:91] Creating Layer prob
I0403 14:31:08.941244 29905 net.cpp:425] prob <- fc8_plantvillage_fc8_plantvillage_0_split_0
I0403 14:31:08.941261 29905 net.cpp:399] prob -> prob
I0403 14:31:08.941473 29905 net.cpp:141] Setting up prob
I0403 14:31:08.941496 29905 net.cpp:148] Top shape: 100 38 (3800)
I0403 14:31:08.941510 29905 net.cpp:156] Memory required for data: 831602000
I0403 14:31:08.941524 29905 layer_factory.hpp:77] Creating layer hdf5out
I0403 14:31:08.941550 29905 net.cpp:91] Creating Layer hdf5out
I0403 14:31:08.941565 29905 net.cpp:425] hdf5out <- prob
I0403 14:31:08.941583 29905 net.cpp:425] hdf5out <- label_data_1_split_0
I0403 14:31:08.958200 29905 net.cpp:141] Setting up hdf5out
…
