…
I0403 14:50:59.340173 30469 net.cpp:313] The NetState phase (1) differed from the phase (0) specified by a rule in layer data
I0403 14:50:59.340488 30469 net.cpp:49] Initializing net from parameters: 
state {
  phase: TEST
}
layer {
  name: "data"
  type: "Data"
  top: "data"
  top: "label"
  include {
    phase: TEST
  }
  transform_param {
    crop_size: 227
    mean_file: "/home/mohanty/data/final_dataset/lmdb/segmented-40-60/mean.binaryproto"
  }
  data_param {
    source: "/home/mohanty/data/final_dataset/lmdb/segmented-40-60/test_db"
    batch_size: 100
    backend: LMDB
  }
}
layer {
  name: "conv1"
  type: "Convolution"
  bottom: "data"
  top: "conv1"
  param {
    lr_mult: 1
    decay_mult: 1
  }
  param {
    lr_mult: 2
    decay_mult: 0
  }
  convolution_param {
    num_output: 96
    kernel_size: 11
    stride: 4
    weight_filler {
      type: "gaussian"
      std: 0.01
    }
    bias_filler {
      type: "constant"
      value: 0
    }
  }
}
layer {
  name: "relu1"
  type: "ReLU"
  bottom: "conv1"
  top: "conv1"
}
layer {
  name: "norm1"
  type: "LRN"
  bottom: "conv1"
  top: "norm1"
  lrn_param {
    local_size: 5
    alpha: 0.0001
    beta: 0.75
  }
}
layer {
  name: "pool1"
  type: "Pooling"
  bottom: "norm1"
  top: "pool1"
  pooling_param {
    pool: MAX
    kernel_size: 3
    stride: 2
  }
}
layer {
  name: "conv2"
  type: "Convolution"
  bottom: "pool1"
  top: "conv2"
  param {
    lr_mult: 1
    decay_mult: 1
  }
  param {
    lr_mult: 2
    decay_mult: 0
  }
  convolution_param {
    num_output: 256
    pad: 2
    kernel_size: 5
    group: 2
    weight_filler {
      type: "gaussian"
      std: 0.01
    }
    bias_filler {
      type: "constant"
      value: 0.1
    }
  }
}
layer {
  name: "relu2"
  type: "ReLU"
  bottom: "conv2"
  top: "conv2"
}
layer {
  name: "norm2"
  type: "LRN"
  bottom: "conv2"
  top: "norm2"
  lrn_param {
    local_size: 5
    alpha: 0.0001
    beta: 0.75
  }
}
layer {
  name: "pool2"
  type: "Pooling"
  bottom: "norm2"
  top: "pool2"
  pooling_param {
    pool: MAX
    kernel_size: 3
    stride: 2
  }
}
layer {
  name: "conv3"
  type: "Convolution"
  bottom: "pool2"
  top: "conv3"
  param {
    lr_mult: 1
    decay_mult: 1
  }
  param {
    lr_mult: 2
    decay_mult: 0
  }
  convolution_param {
    num_output: 384
    pad: 1
    kernel_size: 3
    weight_filler {
      type: "gaussian"
      std: 0.01
    }
    bias_filler {
      type: "constant"
      value: 0
    }
  }
}
layer {
  name: "relu3"
  type: "ReLU"
  bottom: "conv3"
  top: "conv3"
}
layer {
  name: "conv4"
  type: "Convolution"
  bottom: "conv3"
  top: "conv4"
  param {
    lr_mult: 1
    decay_mult: 1
  }
  param {
    lr_mult: 2
    decay_mult: 0
  }
  convolution_param {
    num_output: 384
    pad: 1
    kernel_size: 3
    group: 2
    weight_filler {
      type: "gaussian"
      std: 0.01
    }
    bias_filler {
      type: "constant"
      value: 0.1
    }
  }
}
layer {
  name: "relu4"
  type: "ReLU"
  bottom: "conv4"
  top: "conv4"
}
layer {
  name: "conv5"
  type: "Convolution"
  bottom: "conv4"
  top: "conv5"
  param {
    lr_mult: 1
    decay_mult: 1
  }
  param {
    lr_mult: 2
    decay_mult: 0
  }
  convolution_param {
    num_output: 256
    pad: 1
    kernel_size: 3
    group: 2
    weight_filler {
      type: "gaussian"
      std: 0.01
    }
    bias_filler {
      type: "constant"
      value: 0.1
    }
  }
}
layer {
  name: "relu5"
  type: "ReLU"
  bottom: "conv5"
  top: "conv5"
}
layer {
  name: "pool5"
  type: "Pooling"
  bottom: "conv5"
  top: "pool5"
  pooling_param {
    pool: MAX
    kernel_size: 3
    stride: 2
  }
}
layer {
  name: "fc6"
  type: "InnerProduct"
  bottom: "pool5"
  top: "fc6"
  param {
    lr_mult: 1
    decay_mult: 1
  }
  param {
    lr_mult: 2
    decay_mult: 0
  }
  inner_product_param {
    num_output: 4096
    weight_filler {
      type: "gaussian"
      std: 0.005
    }
    bias_filler {
      type: "constant"
      value: 0.1
    }
  }
}
layer {
  name: "relu6"
  type: "ReLU"
  bottom: "fc6"
  top: "fc6"
}
layer {
  name: "drop6"
  type: "Dropout"
  bottom: "fc6"
  top: "fc6"
  dropout_param {
    dropout_ratio: 0.5
  }
}
layer {
  name: "fc7"
  type: "InnerProduct"
  bottom: "fc6"
  top: "fc7"
  param {
    lr_mult: 1
    decay_mult: 1
  }
  param {
    lr_mult: 2
    decay_mult: 0
  }
  inner_product_param {
    num_output: 4096
    weight_filler {
      type: "gaussian"
      std: 0.005
    }
    bias_filler {
      type: "constant"
      value: 0.1
    }
  }
}
layer {
  name: "relu7"
  type: "ReLU"
  bottom: "fc7"
  top: "fc7"
}
layer {
  name: "drop7"
  type: "Dropout"
  bottom: "fc7"
  top: "fc7"
  dropout_param {
    dropout_ratio: 0.5
  }
}
layer {
  name: "fc8_plantvillage"
  type: "InnerProduct"
  bottom: "fc7"
  top: "fc8_plantvillage"
  param {
    lr_mult: 1
    decay_mult: 1
  }
  param {
    lr_mult: 2
    decay_mult: 0
  }
  inner_product_param {
    num_output: 38
    weight_filler {
      type: "gaussian"
      std: 0.01
    }
    bias_filler {
      type: "constant"
      value: 0
    }
  }
}
layer {
  name: "prob"
  type: "Softmax"
  bottom: "fc8_plantvillage"
  top: "prob"
  include {
    phase: TEST
  }
}
layer {
  name: "hdf5out"
  type: "HDF5Output"
  bottom: "prob"
  bottom: "label"
  include {
    phase: TEST
  }
  hdf5_output_param {
    file_name: "hdf5_dumps/iter_5256.h5"
  }
}
layer {
  name: "loss"
  type: "SoftmaxWithLoss"
  bottom: "fc8_plantvillage"
  bottom: "label"
  top: "loss"
}
layer {
  name: "accuracy"
  type: "Accuracy"
  bottom: "fc8_plantvillage"
  bottom: "label"
  top: "accuracy"
  include {
    phase: TEST
  }
}
I0403 14:50:59.341114 30469 layer_factory.hpp:77] Creating layer data
I0403 14:50:59.341771 30469 net.cpp:91] Creating Layer data
I0403 14:50:59.341801 30469 net.cpp:399] data -> data
I0403 14:50:59.341856 30469 net.cpp:399] data -> label
I0403 14:50:59.341892 30469 data_transformer.cpp:25] Loading mean file from: /home/mohanty/data/final_dataset/lmdb/segmented-40-60/mean.binaryproto
I0403 14:50:59.344740 30472 db_lmdb.cpp:38] Opened lmdb /home/mohanty/data/final_dataset/lmdb/segmented-40-60/test_db
I0403 14:50:59.356052 30469 data_layer.cpp:41] output data size: 100,3,227,227
I0403 14:50:59.473510 30469 net.cpp:141] Setting up data
I0403 14:50:59.473616 30469 net.cpp:148] Top shape: 100 3 227 227 (15458700)
I0403 14:50:59.473640 30469 net.cpp:148] Top shape: 100 (100)
I0403 14:50:59.473657 30469 net.cpp:156] Memory required for data: 61835200
I0403 14:50:59.473690 30469 layer_factory.hpp:77] Creating layer label_data_1_split
I0403 14:50:59.473718 30469 net.cpp:91] Creating Layer label_data_1_split
I0403 14:50:59.473743 30469 net.cpp:425] label_data_1_split <- label
I0403 14:50:59.473779 30469 net.cpp:399] label_data_1_split -> label_data_1_split_0
I0403 14:50:59.473809 30469 net.cpp:399] label_data_1_split -> label_data_1_split_1
I0403 14:50:59.473827 30469 net.cpp:399] label_data_1_split -> label_data_1_split_2
I0403 14:50:59.473892 30469 net.cpp:141] Setting up label_data_1_split
I0403 14:50:59.473915 30469 net.cpp:148] Top shape: 100 (100)
I0403 14:50:59.473932 30469 net.cpp:148] Top shape: 100 (100)
I0403 14:50:59.473949 30469 net.cpp:148] Top shape: 100 (100)
I0403 14:50:59.473964 30469 net.cpp:156] Memory required for data: 61836400
I0403 14:50:59.473978 30469 layer_factory.hpp:77] Creating layer conv1
I0403 14:50:59.474014 30469 net.cpp:91] Creating Layer conv1
I0403 14:50:59.474032 30469 net.cpp:425] conv1 <- data
I0403 14:50:59.474052 30469 net.cpp:399] conv1 -> conv1
I0403 14:50:59.612957 30469 net.cpp:141] Setting up conv1
I0403 14:50:59.613029 30469 net.cpp:148] Top shape: 100 96 55 55 (29040000)
I0403 14:50:59.613046 30469 net.cpp:156] Memory required for data: 177996400
I0403 14:50:59.613080 30469 layer_factory.hpp:77] Creating layer relu1
I0403 14:50:59.613111 30469 net.cpp:91] Creating Layer relu1
I0403 14:50:59.613131 30469 net.cpp:425] relu1 <- conv1
I0403 14:50:59.613149 30469 net.cpp:386] relu1 -> conv1 (in-place)
I0403 14:50:59.613421 30469 net.cpp:141] Setting up relu1
I0403 14:50:59.613450 30469 net.cpp:148] Top shape: 100 96 55 55 (29040000)
I0403 14:50:59.613503 30469 net.cpp:156] Memory required for data: 294156400
I0403 14:50:59.613520 30469 layer_factory.hpp:77] Creating layer norm1
I0403 14:50:59.613553 30469 net.cpp:91] Creating Layer norm1
I0403 14:50:59.613572 30469 net.cpp:425] norm1 <- conv1
I0403 14:50:59.613592 30469 net.cpp:399] norm1 -> norm1
I0403 14:50:59.613936 30469 net.cpp:141] Setting up norm1
I0403 14:50:59.613965 30469 net.cpp:148] Top shape: 100 96 55 55 (29040000)
I0403 14:50:59.613979 30469 net.cpp:156] Memory required for data: 410316400
I0403 14:50:59.613994 30469 layer_factory.hpp:77] Creating layer pool1
I0403 14:50:59.614018 30469 net.cpp:91] Creating Layer pool1
I0403 14:50:59.614035 30469 net.cpp:425] pool1 <- norm1
I0403 14:50:59.614055 30469 net.cpp:399] pool1 -> pool1
I0403 14:50:59.614127 30469 net.cpp:141] Setting up pool1
I0403 14:50:59.614152 30469 net.cpp:148] Top shape: 100 96 27 27 (6998400)
I0403 14:50:59.614168 30469 net.cpp:156] Memory required for data: 438310000
I0403 14:50:59.614182 30469 layer_factory.hpp:77] Creating layer conv2
I0403 14:50:59.614210 30469 net.cpp:91] Creating Layer conv2
I0403 14:50:59.614228 30469 net.cpp:425] conv2 <- pool1
I0403 14:50:59.614245 30469 net.cpp:399] conv2 -> conv2
I0403 14:50:59.628900 30469 net.cpp:141] Setting up conv2
I0403 14:50:59.628936 30469 net.cpp:148] Top shape: 100 256 27 27 (18662400)
I0403 14:50:59.628953 30469 net.cpp:156] Memory required for data: 512959600
I0403 14:50:59.628975 30469 layer_factory.hpp:77] Creating layer relu2
I0403 14:50:59.628995 30469 net.cpp:91] Creating Layer relu2
I0403 14:50:59.629011 30469 net.cpp:425] relu2 <- conv2
I0403 14:50:59.629031 30469 net.cpp:386] relu2 -> conv2 (in-place)
I0403 14:50:59.629302 30469 net.cpp:141] Setting up relu2
I0403 14:50:59.629328 30469 net.cpp:148] Top shape: 100 256 27 27 (18662400)
I0403 14:50:59.629343 30469 net.cpp:156] Memory required for data: 587609200
I0403 14:50:59.629359 30469 layer_factory.hpp:77] Creating layer norm2
I0403 14:50:59.629380 30469 net.cpp:91] Creating Layer norm2
I0403 14:50:59.629398 30469 net.cpp:425] norm2 <- conv2
I0403 14:50:59.629418 30469 net.cpp:399] norm2 -> norm2
I0403 14:50:59.629616 30469 net.cpp:141] Setting up norm2
I0403 14:50:59.629642 30469 net.cpp:148] Top shape: 100 256 27 27 (18662400)
I0403 14:50:59.629691 30469 net.cpp:156] Memory required for data: 662258800
I0403 14:50:59.629711 30469 layer_factory.hpp:77] Creating layer pool2
I0403 14:50:59.629730 30469 net.cpp:91] Creating Layer pool2
I0403 14:50:59.629745 30469 net.cpp:425] pool2 <- norm2
I0403 14:50:59.629765 30469 net.cpp:399] pool2 -> pool2
I0403 14:50:59.629819 30469 net.cpp:141] Setting up pool2
I0403 14:50:59.629842 30469 net.cpp:148] Top shape: 100 256 13 13 (4326400)
I0403 14:50:59.629856 30469 net.cpp:156] Memory required for data: 679564400
I0403 14:50:59.629871 30469 layer_factory.hpp:77] Creating layer conv3
I0403 14:50:59.629895 30469 net.cpp:91] Creating Layer conv3
I0403 14:50:59.629912 30469 net.cpp:425] conv3 <- pool2
I0403 14:50:59.629930 30469 net.cpp:399] conv3 -> conv3
I0403 14:50:59.667551 30469 net.cpp:141] Setting up conv3
I0403 14:50:59.667600 30469 net.cpp:148] Top shape: 100 384 13 13 (6489600)
I0403 14:50:59.667616 30469 net.cpp:156] Memory required for data: 705522800
I0403 14:50:59.667640 30469 layer_factory.hpp:77] Creating layer relu3
I0403 14:50:59.667661 30469 net.cpp:91] Creating Layer relu3
I0403 14:50:59.667681 30469 net.cpp:425] relu3 <- conv3
I0403 14:50:59.667700 30469 net.cpp:386] relu3 -> conv3 (in-place)
I0403 14:50:59.667997 30469 net.cpp:141] Setting up relu3
I0403 14:50:59.668023 30469 net.cpp:148] Top shape: 100 384 13 13 (6489600)
I0403 14:50:59.668038 30469 net.cpp:156] Memory required for data: 731481200
I0403 14:50:59.668053 30469 layer_factory.hpp:77] Creating layer conv4
I0403 14:50:59.668078 30469 net.cpp:91] Creating Layer conv4
I0403 14:50:59.668095 30469 net.cpp:425] conv4 <- conv3
I0403 14:50:59.668117 30469 net.cpp:399] conv4 -> conv4
I0403 14:50:59.697469 30469 net.cpp:141] Setting up conv4
I0403 14:50:59.697528 30469 net.cpp:148] Top shape: 100 384 13 13 (6489600)
I0403 14:50:59.697582 30469 net.cpp:156] Memory required for data: 757439600
I0403 14:50:59.697603 30469 layer_factory.hpp:77] Creating layer relu4
I0403 14:50:59.697623 30469 net.cpp:91] Creating Layer relu4
I0403 14:50:59.697639 30469 net.cpp:425] relu4 <- conv4
I0403 14:50:59.697660 30469 net.cpp:386] relu4 -> conv4 (in-place)
I0403 14:50:59.697934 30469 net.cpp:141] Setting up relu4
I0403 14:50:59.697963 30469 net.cpp:148] Top shape: 100 384 13 13 (6489600)
I0403 14:50:59.697979 30469 net.cpp:156] Memory required for data: 783398000
I0403 14:50:59.697995 30469 layer_factory.hpp:77] Creating layer conv5
I0403 14:50:59.698019 30469 net.cpp:91] Creating Layer conv5
I0403 14:50:59.698036 30469 net.cpp:425] conv5 <- conv4
I0403 14:50:59.698055 30469 net.cpp:399] conv5 -> conv5
I0403 14:50:59.718425 30469 net.cpp:141] Setting up conv5
I0403 14:50:59.718461 30469 net.cpp:148] Top shape: 100 256 13 13 (4326400)
I0403 14:50:59.718478 30469 net.cpp:156] Memory required for data: 800703600
I0403 14:50:59.718503 30469 layer_factory.hpp:77] Creating layer relu5
I0403 14:50:59.718523 30469 net.cpp:91] Creating Layer relu5
I0403 14:50:59.718546 30469 net.cpp:425] relu5 <- conv5
I0403 14:50:59.718569 30469 net.cpp:386] relu5 -> conv5 (in-place)
I0403 14:50:59.718837 30469 net.cpp:141] Setting up relu5
I0403 14:50:59.718863 30469 net.cpp:148] Top shape: 100 256 13 13 (4326400)
I0403 14:50:59.718878 30469 net.cpp:156] Memory required for data: 818009200
I0403 14:50:59.718894 30469 layer_factory.hpp:77] Creating layer pool5
I0403 14:50:59.718919 30469 net.cpp:91] Creating Layer pool5
I0403 14:50:59.718935 30469 net.cpp:425] pool5 <- conv5
I0403 14:50:59.718953 30469 net.cpp:399] pool5 -> pool5
I0403 14:50:59.719045 30469 net.cpp:141] Setting up pool5
I0403 14:50:59.719069 30469 net.cpp:148] Top shape: 100 256 6 6 (921600)
I0403 14:50:59.719084 30469 net.cpp:156] Memory required for data: 821695600
I0403 14:50:59.719099 30469 layer_factory.hpp:77] Creating layer fc6
I0403 14:50:59.719126 30469 net.cpp:91] Creating Layer fc6
I0403 14:50:59.719146 30469 net.cpp:425] fc6 <- pool5
I0403 14:50:59.719164 30469 net.cpp:399] fc6 -> fc6
I0403 14:51:01.244853 30469 net.cpp:141] Setting up fc6
I0403 14:51:01.244927 30469 net.cpp:148] Top shape: 100 4096 (409600)
I0403 14:51:01.244943 30469 net.cpp:156] Memory required for data: 823334000
I0403 14:51:01.244964 30469 layer_factory.hpp:77] Creating layer relu6
I0403 14:51:01.244990 30469 net.cpp:91] Creating Layer relu6
I0403 14:51:01.245008 30469 net.cpp:425] relu6 <- fc6
I0403 14:51:01.245028 30469 net.cpp:386] relu6 -> fc6 (in-place)
I0403 14:51:01.245244 30469 net.cpp:141] Setting up relu6
I0403 14:51:01.245267 30469 net.cpp:148] Top shape: 100 4096 (409600)
I0403 14:51:01.245281 30469 net.cpp:156] Memory required for data: 824972400
I0403 14:51:01.245296 30469 layer_factory.hpp:77] Creating layer drop6
I0403 14:51:01.245313 30469 net.cpp:91] Creating Layer drop6
I0403 14:51:01.245328 30469 net.cpp:425] drop6 <- fc6
I0403 14:51:01.245353 30469 net.cpp:386] drop6 -> fc6 (in-place)
I0403 14:51:01.245406 30469 net.cpp:141] Setting up drop6
I0403 14:51:01.245431 30469 net.cpp:148] Top shape: 100 4096 (409600)
I0403 14:51:01.245446 30469 net.cpp:156] Memory required for data: 826610800
I0403 14:51:01.245461 30469 layer_factory.hpp:77] Creating layer fc7
I0403 14:51:01.245481 30469 net.cpp:91] Creating Layer fc7
I0403 14:51:01.245496 30469 net.cpp:425] fc7 <- fc6
I0403 14:51:01.245519 30469 net.cpp:399] fc7 -> fc7
I0403 14:51:01.915019 30469 net.cpp:141] Setting up fc7
I0403 14:51:01.915102 30469 net.cpp:148] Top shape: 100 4096 (409600)
I0403 14:51:01.915117 30469 net.cpp:156] Memory required for data: 828249200
I0403 14:51:01.915139 30469 layer_factory.hpp:77] Creating layer relu7
I0403 14:51:01.915161 30469 net.cpp:91] Creating Layer relu7
I0403 14:51:01.915179 30469 net.cpp:425] relu7 <- fc7
I0403 14:51:01.915200 30469 net.cpp:386] relu7 -> fc7 (in-place)
I0403 14:51:01.915594 30469 net.cpp:141] Setting up relu7
I0403 14:51:01.915619 30469 net.cpp:148] Top shape: 100 4096 (409600)
I0403 14:51:01.915657 30469 net.cpp:156] Memory required for data: 829887600
I0403 14:51:01.915673 30469 layer_factory.hpp:77] Creating layer drop7
I0403 14:51:01.915693 30469 net.cpp:91] Creating Layer drop7
I0403 14:51:01.915707 30469 net.cpp:425] drop7 <- fc7
I0403 14:51:01.915726 30469 net.cpp:386] drop7 -> fc7 (in-place)
I0403 14:51:01.915769 30469 net.cpp:141] Setting up drop7
I0403 14:51:01.915793 30469 net.cpp:148] Top shape: 100 4096 (409600)
I0403 14:51:01.915807 30469 net.cpp:156] Memory required for data: 831526000
I0403 14:51:01.915822 30469 layer_factory.hpp:77] Creating layer fc8_plantvillage
I0403 14:51:01.915841 30469 net.cpp:91] Creating Layer fc8_plantvillage
I0403 14:51:01.915856 30469 net.cpp:425] fc8_plantvillage <- fc7
I0403 14:51:01.915877 30469 net.cpp:399] fc8_plantvillage -> fc8_plantvillage
I0403 14:51:01.922467 30469 net.cpp:141] Setting up fc8_plantvillage
I0403 14:51:01.922495 30469 net.cpp:148] Top shape: 100 38 (3800)
I0403 14:51:01.922511 30469 net.cpp:156] Memory required for data: 831541200
I0403 14:51:01.922529 30469 layer_factory.hpp:77] Creating layer fc8_plantvillage_fc8_plantvillage_0_split
I0403 14:51:01.922551 30469 net.cpp:91] Creating Layer fc8_plantvillage_fc8_plantvillage_0_split
I0403 14:51:01.922567 30469 net.cpp:425] fc8_plantvillage_fc8_plantvillage_0_split <- fc8_plantvillage
I0403 14:51:01.922586 30469 net.cpp:399] fc8_plantvillage_fc8_plantvillage_0_split -> fc8_plantvillage_fc8_plantvillage_0_split_0
I0403 14:51:01.922606 30469 net.cpp:399] fc8_plantvillage_fc8_plantvillage_0_split -> fc8_plantvillage_fc8_plantvillage_0_split_1
I0403 14:51:01.922626 30469 net.cpp:399] fc8_plantvillage_fc8_plantvillage_0_split -> fc8_plantvillage_fc8_plantvillage_0_split_2
I0403 14:51:01.922703 30469 net.cpp:141] Setting up fc8_plantvillage_fc8_plantvillage_0_split
I0403 14:51:01.922724 30469 net.cpp:148] Top shape: 100 38 (3800)
I0403 14:51:01.922740 30469 net.cpp:148] Top shape: 100 38 (3800)
I0403 14:51:01.922756 30469 net.cpp:148] Top shape: 100 38 (3800)
I0403 14:51:01.922770 30469 net.cpp:156] Memory required for data: 831586800
I0403 14:51:01.922785 30469 layer_factory.hpp:77] Creating layer prob
I0403 14:51:01.922802 30469 net.cpp:91] Creating Layer prob
I0403 14:51:01.922817 30469 net.cpp:425] prob <- fc8_plantvillage_fc8_plantvillage_0_split_0
I0403 14:51:01.922837 30469 net.cpp:399] prob -> prob
I0403 14:51:01.923053 30469 net.cpp:141] Setting up prob
I0403 14:51:01.923077 30469 net.cpp:148] Top shape: 100 38 (3800)
I0403 14:51:01.923092 30469 net.cpp:156] Memory required for data: 831602000
I0403 14:51:01.923106 30469 layer_factory.hpp:77] Creating layer hdf5out
I0403 14:51:01.923125 30469 net.cpp:91] Creating Layer hdf5out
I0403 14:51:01.923140 30469 net.cpp:425] hdf5out <- prob
I0403 14:51:01.923156 30469 net.cpp:425] hdf5out <- label_data_1_split_0
I0403 14:51:01.938352 30469 net.cpp:141] Setting up hdf5out
…
