…
I0403 14:45:10.374068 30263 net.cpp:313] The NetState phase (1) differed from the phase (0) specified by a rule in layer data
I0403 14:45:10.374400 30263 net.cpp:49] Initializing net from parameters: 
state {
  phase: TEST
}
layer {
  name: "data"
  type: "Data"
  top: "data"
  top: "label"
  include {
    phase: TEST
  }
  transform_param {
    crop_size: 227
    mean_file: "/home/mohanty/data/final_dataset/lmdb/segmented-40-60/mean.binaryproto"
  }
  data_param {
    source: "/home/mohanty/data/final_dataset/lmdb/segmented-40-60/test_db"
    batch_size: 100
    backend: LMDB
  }
}
layer {
  name: "conv1"
  type: "Convolution"
  bottom: "data"
  top: "conv1"
  param {
    lr_mult: 1
    decay_mult: 1
  }
  param {
    lr_mult: 2
    decay_mult: 0
  }
  convolution_param {
    num_output: 96
    kernel_size: 11
    stride: 4
    weight_filler {
      type: "gaussian"
      std: 0.01
    }
    bias_filler {
      type: "constant"
      value: 0
    }
  }
}
layer {
  name: "relu1"
  type: "ReLU"
  bottom: "conv1"
  top: "conv1"
}
layer {
  name: "norm1"
  type: "LRN"
  bottom: "conv1"
  top: "norm1"
  lrn_param {
    local_size: 5
    alpha: 0.0001
    beta: 0.75
  }
}
layer {
  name: "pool1"
  type: "Pooling"
  bottom: "norm1"
  top: "pool1"
  pooling_param {
    pool: MAX
    kernel_size: 3
    stride: 2
  }
}
layer {
  name: "conv2"
  type: "Convolution"
  bottom: "pool1"
  top: "conv2"
  param {
    lr_mult: 1
    decay_mult: 1
  }
  param {
    lr_mult: 2
    decay_mult: 0
  }
  convolution_param {
    num_output: 256
    pad: 2
    kernel_size: 5
    group: 2
    weight_filler {
      type: "gaussian"
      std: 0.01
    }
    bias_filler {
      type: "constant"
      value: 0.1
    }
  }
}
layer {
  name: "relu2"
  type: "ReLU"
  bottom: "conv2"
  top: "conv2"
}
layer {
  name: "norm2"
  type: "LRN"
  bottom: "conv2"
  top: "norm2"
  lrn_param {
    local_size: 5
    alpha: 0.0001
    beta: 0.75
  }
}
layer {
  name: "pool2"
  type: "Pooling"
  bottom: "norm2"
  top: "pool2"
  pooling_param {
    pool: MAX
    kernel_size: 3
    stride: 2
  }
}
layer {
  name: "conv3"
  type: "Convolution"
  bottom: "pool2"
  top: "conv3"
  param {
    lr_mult: 1
    decay_mult: 1
  }
  param {
    lr_mult: 2
    decay_mult: 0
  }
  convolution_param {
    num_output: 384
    pad: 1
    kernel_size: 3
    weight_filler {
      type: "gaussian"
      std: 0.01
    }
    bias_filler {
      type: "constant"
      value: 0
    }
  }
}
layer {
  name: "relu3"
  type: "ReLU"
  bottom: "conv3"
  top: "conv3"
}
layer {
  name: "conv4"
  type: "Convolution"
  bottom: "conv3"
  top: "conv4"
  param {
    lr_mult: 1
    decay_mult: 1
  }
  param {
    lr_mult: 2
    decay_mult: 0
  }
  convolution_param {
    num_output: 384
    pad: 1
    kernel_size: 3
    group: 2
    weight_filler {
      type: "gaussian"
      std: 0.01
    }
    bias_filler {
      type: "constant"
      value: 0.1
    }
  }
}
layer {
  name: "relu4"
  type: "ReLU"
  bottom: "conv4"
  top: "conv4"
}
layer {
  name: "conv5"
  type: "Convolution"
  bottom: "conv4"
  top: "conv5"
  param {
    lr_mult: 1
    decay_mult: 1
  }
  param {
    lr_mult: 2
    decay_mult: 0
  }
  convolution_param {
    num_output: 256
    pad: 1
    kernel_size: 3
    group: 2
    weight_filler {
      type: "gaussian"
      std: 0.01
    }
    bias_filler {
      type: "constant"
      value: 0.1
    }
  }
}
layer {
  name: "relu5"
  type: "ReLU"
  bottom: "conv5"
  top: "conv5"
}
layer {
  name: "pool5"
  type: "Pooling"
  bottom: "conv5"
  top: "pool5"
  pooling_param {
    pool: MAX
    kernel_size: 3
    stride: 2
  }
}
layer {
  name: "fc6"
  type: "InnerProduct"
  bottom: "pool5"
  top: "fc6"
  param {
    lr_mult: 1
    decay_mult: 1
  }
  param {
    lr_mult: 2
    decay_mult: 0
  }
  inner_product_param {
    num_output: 4096
    weight_filler {
      type: "gaussian"
      std: 0.005
    }
    bias_filler {
      type: "constant"
      value: 0.1
    }
  }
}
layer {
  name: "relu6"
  type: "ReLU"
  bottom: "fc6"
  top: "fc6"
}
layer {
  name: "drop6"
  type: "Dropout"
  bottom: "fc6"
  top: "fc6"
  dropout_param {
    dropout_ratio: 0.5
  }
}
layer {
  name: "fc7"
  type: "InnerProduct"
  bottom: "fc6"
  top: "fc7"
  param {
    lr_mult: 1
    decay_mult: 1
  }
  param {
    lr_mult: 2
    decay_mult: 0
  }
  inner_product_param {
    num_output: 4096
    weight_filler {
      type: "gaussian"
      std: 0.005
    }
    bias_filler {
      type: "constant"
      value: 0.1
    }
  }
}
layer {
  name: "relu7"
  type: "ReLU"
  bottom: "fc7"
  top: "fc7"
}
layer {
  name: "drop7"
  type: "Dropout"
  bottom: "fc7"
  top: "fc7"
  dropout_param {
    dropout_ratio: 0.5
  }
}
layer {
  name: "fc8_plantvillage"
  type: "InnerProduct"
  bottom: "fc7"
  top: "fc8_plantvillage"
  param {
    lr_mult: 1
    decay_mult: 1
  }
  param {
    lr_mult: 2
    decay_mult: 0
  }
  inner_product_param {
    num_output: 38
    weight_filler {
      type: "gaussian"
      std: 0.01
    }
    bias_filler {
      type: "constant"
      value: 0
    }
  }
}
layer {
  name: "prob"
  type: "Softmax"
  bottom: "fc8_plantvillage"
  top: "prob"
  include {
    phase: TEST
  }
}
layer {
  name: "hdf5out"
  type: "HDF5Output"
  bottom: "prob"
  bottom: "label"
  include {
    phase: TEST
  }
  hdf5_output_param {
    file_name: "hdf5_dumps/iter_3942.h5"
  }
}
layer {
  name: "loss"
  type: "SoftmaxWithLoss"
  bottom: "fc8_plantvillage"
  bottom: "label"
  top: "loss"
}
layer {
  name: "accuracy"
  type: "Accuracy"
  bottom: "fc8_plantvillage"
  bottom: "label"
  top: "accuracy"
  include {
    phase: TEST
  }
}
I0403 14:45:10.375087 30263 layer_factory.hpp:77] Creating layer data
I0403 14:45:10.375735 30263 net.cpp:91] Creating Layer data
I0403 14:45:10.375767 30263 net.cpp:399] data -> data
I0403 14:45:10.375823 30263 net.cpp:399] data -> label
I0403 14:45:10.375860 30263 data_transformer.cpp:25] Loading mean file from: /home/mohanty/data/final_dataset/lmdb/segmented-40-60/mean.binaryproto
I0403 14:45:10.378959 30265 db_lmdb.cpp:38] Opened lmdb /home/mohanty/data/final_dataset/lmdb/segmented-40-60/test_db
I0403 14:45:10.389998 30263 data_layer.cpp:41] output data size: 100,3,227,227
I0403 14:45:10.506201 30263 net.cpp:141] Setting up data
I0403 14:45:10.506299 30263 net.cpp:148] Top shape: 100 3 227 227 (15458700)
I0403 14:45:10.506321 30263 net.cpp:148] Top shape: 100 (100)
I0403 14:45:10.506337 30263 net.cpp:156] Memory required for data: 61835200
I0403 14:45:10.506368 30263 layer_factory.hpp:77] Creating layer label_data_1_split
I0403 14:45:10.506397 30263 net.cpp:91] Creating Layer label_data_1_split
I0403 14:45:10.506417 30263 net.cpp:425] label_data_1_split <- label
I0403 14:45:10.506453 30263 net.cpp:399] label_data_1_split -> label_data_1_split_0
I0403 14:45:10.506480 30263 net.cpp:399] label_data_1_split -> label_data_1_split_1
I0403 14:45:10.506501 30263 net.cpp:399] label_data_1_split -> label_data_1_split_2
I0403 14:45:10.506567 30263 net.cpp:141] Setting up label_data_1_split
I0403 14:45:10.506592 30263 net.cpp:148] Top shape: 100 (100)
I0403 14:45:10.506608 30263 net.cpp:148] Top shape: 100 (100)
I0403 14:45:10.506624 30263 net.cpp:148] Top shape: 100 (100)
I0403 14:45:10.506639 30263 net.cpp:156] Memory required for data: 61836400
I0403 14:45:10.506655 30263 layer_factory.hpp:77] Creating layer conv1
I0403 14:45:10.506690 30263 net.cpp:91] Creating Layer conv1
I0403 14:45:10.506708 30263 net.cpp:425] conv1 <- data
I0403 14:45:10.506727 30263 net.cpp:399] conv1 -> conv1
I0403 14:45:10.645938 30263 net.cpp:141] Setting up conv1
I0403 14:45:10.646034 30263 net.cpp:148] Top shape: 100 96 55 55 (29040000)
I0403 14:45:10.646051 30263 net.cpp:156] Memory required for data: 177996400
I0403 14:45:10.646087 30263 layer_factory.hpp:77] Creating layer relu1
I0403 14:45:10.646116 30263 net.cpp:91] Creating Layer relu1
I0403 14:45:10.646134 30263 net.cpp:425] relu1 <- conv1
I0403 14:45:10.646153 30263 net.cpp:386] relu1 -> conv1 (in-place)
I0403 14:45:10.646410 30263 net.cpp:141] Setting up relu1
I0403 14:45:10.646436 30263 net.cpp:148] Top shape: 100 96 55 55 (29040000)
I0403 14:45:10.646492 30263 net.cpp:156] Memory required for data: 294156400
I0403 14:45:10.646508 30263 layer_factory.hpp:77] Creating layer norm1
I0403 14:45:10.646541 30263 net.cpp:91] Creating Layer norm1
I0403 14:45:10.646560 30263 net.cpp:425] norm1 <- conv1
I0403 14:45:10.646579 30263 net.cpp:399] norm1 -> norm1
I0403 14:45:10.646893 30263 net.cpp:141] Setting up norm1
I0403 14:45:10.646919 30263 net.cpp:148] Top shape: 100 96 55 55 (29040000)
I0403 14:45:10.646934 30263 net.cpp:156] Memory required for data: 410316400
I0403 14:45:10.646950 30263 layer_factory.hpp:77] Creating layer pool1
I0403 14:45:10.647006 30263 net.cpp:91] Creating Layer pool1
I0403 14:45:10.647027 30263 net.cpp:425] pool1 <- norm1
I0403 14:45:10.647045 30263 net.cpp:399] pool1 -> pool1
I0403 14:45:10.647115 30263 net.cpp:141] Setting up pool1
I0403 14:45:10.647140 30263 net.cpp:148] Top shape: 100 96 27 27 (6998400)
I0403 14:45:10.647153 30263 net.cpp:156] Memory required for data: 438310000
I0403 14:45:10.647168 30263 layer_factory.hpp:77] Creating layer conv2
I0403 14:45:10.647195 30263 net.cpp:91] Creating Layer conv2
I0403 14:45:10.647212 30263 net.cpp:425] conv2 <- pool1
I0403 14:45:10.647229 30263 net.cpp:399] conv2 -> conv2
I0403 14:45:10.661934 30263 net.cpp:141] Setting up conv2
I0403 14:45:10.661972 30263 net.cpp:148] Top shape: 100 256 27 27 (18662400)
I0403 14:45:10.661988 30263 net.cpp:156] Memory required for data: 512959600
I0403 14:45:10.662009 30263 layer_factory.hpp:77] Creating layer relu2
I0403 14:45:10.662027 30263 net.cpp:91] Creating Layer relu2
I0403 14:45:10.662044 30263 net.cpp:425] relu2 <- conv2
I0403 14:45:10.662063 30263 net.cpp:386] relu2 -> conv2 (in-place)
I0403 14:45:10.662339 30263 net.cpp:141] Setting up relu2
I0403 14:45:10.662364 30263 net.cpp:148] Top shape: 100 256 27 27 (18662400)
I0403 14:45:10.662380 30263 net.cpp:156] Memory required for data: 587609200
I0403 14:45:10.662395 30263 layer_factory.hpp:77] Creating layer norm2
I0403 14:45:10.662416 30263 net.cpp:91] Creating Layer norm2
I0403 14:45:10.662434 30263 net.cpp:425] norm2 <- conv2
I0403 14:45:10.662454 30263 net.cpp:399] norm2 -> norm2
I0403 14:45:10.662649 30263 net.cpp:141] Setting up norm2
I0403 14:45:10.662674 30263 net.cpp:148] Top shape: 100 256 27 27 (18662400)
I0403 14:45:10.662689 30263 net.cpp:156] Memory required for data: 662258800
I0403 14:45:10.662705 30263 layer_factory.hpp:77] Creating layer pool2
I0403 14:45:10.662722 30263 net.cpp:91] Creating Layer pool2
I0403 14:45:10.662737 30263 net.cpp:425] pool2 <- norm2
I0403 14:45:10.662756 30263 net.cpp:399] pool2 -> pool2
I0403 14:45:10.662808 30263 net.cpp:141] Setting up pool2
I0403 14:45:10.662830 30263 net.cpp:148] Top shape: 100 256 13 13 (4326400)
I0403 14:45:10.662844 30263 net.cpp:156] Memory required for data: 679564400
I0403 14:45:10.662859 30263 layer_factory.hpp:77] Creating layer conv3
I0403 14:45:10.662904 30263 net.cpp:91] Creating Layer conv3
I0403 14:45:10.662932 30263 net.cpp:425] conv3 <- pool2
I0403 14:45:10.662950 30263 net.cpp:399] conv3 -> conv3
I0403 14:45:10.700012 30263 net.cpp:141] Setting up conv3
I0403 14:45:10.700070 30263 net.cpp:148] Top shape: 100 384 13 13 (6489600)
I0403 14:45:10.700086 30263 net.cpp:156] Memory required for data: 705522800
I0403 14:45:10.700110 30263 layer_factory.hpp:77] Creating layer relu3
I0403 14:45:10.700134 30263 net.cpp:91] Creating Layer relu3
I0403 14:45:10.700151 30263 net.cpp:425] relu3 <- conv3
I0403 14:45:10.700170 30263 net.cpp:386] relu3 -> conv3 (in-place)
I0403 14:45:10.700462 30263 net.cpp:141] Setting up relu3
I0403 14:45:10.700489 30263 net.cpp:148] Top shape: 100 384 13 13 (6489600)
I0403 14:45:10.700503 30263 net.cpp:156] Memory required for data: 731481200
I0403 14:45:10.700525 30263 layer_factory.hpp:77] Creating layer conv4
I0403 14:45:10.700554 30263 net.cpp:91] Creating Layer conv4
I0403 14:45:10.700574 30263 net.cpp:425] conv4 <- conv3
I0403 14:45:10.700595 30263 net.cpp:399] conv4 -> conv4
I0403 14:45:10.729272 30263 net.cpp:141] Setting up conv4
I0403 14:45:10.729327 30263 net.cpp:148] Top shape: 100 384 13 13 (6489600)
I0403 14:45:10.729383 30263 net.cpp:156] Memory required for data: 757439600
I0403 14:45:10.729405 30263 layer_factory.hpp:77] Creating layer relu4
I0403 14:45:10.729429 30263 net.cpp:91] Creating Layer relu4
I0403 14:45:10.729446 30263 net.cpp:425] relu4 <- conv4
I0403 14:45:10.729466 30263 net.cpp:386] relu4 -> conv4 (in-place)
I0403 14:45:10.729738 30263 net.cpp:141] Setting up relu4
I0403 14:45:10.729769 30263 net.cpp:148] Top shape: 100 384 13 13 (6489600)
I0403 14:45:10.729785 30263 net.cpp:156] Memory required for data: 783398000
I0403 14:45:10.729800 30263 layer_factory.hpp:77] Creating layer conv5
I0403 14:45:10.729825 30263 net.cpp:91] Creating Layer conv5
I0403 14:45:10.729841 30263 net.cpp:425] conv5 <- conv4
I0403 14:45:10.729862 30263 net.cpp:399] conv5 -> conv5
I0403 14:45:10.749819 30263 net.cpp:141] Setting up conv5
I0403 14:45:10.749855 30263 net.cpp:148] Top shape: 100 256 13 13 (4326400)
I0403 14:45:10.749872 30263 net.cpp:156] Memory required for data: 800703600
I0403 14:45:10.749897 30263 layer_factory.hpp:77] Creating layer relu5
I0403 14:45:10.749917 30263 net.cpp:91] Creating Layer relu5
I0403 14:45:10.749933 30263 net.cpp:425] relu5 <- conv5
I0403 14:45:10.749953 30263 net.cpp:386] relu5 -> conv5 (in-place)
I0403 14:45:10.750232 30263 net.cpp:141] Setting up relu5
I0403 14:45:10.750258 30263 net.cpp:148] Top shape: 100 256 13 13 (4326400)
I0403 14:45:10.750274 30263 net.cpp:156] Memory required for data: 818009200
I0403 14:45:10.750289 30263 layer_factory.hpp:77] Creating layer pool5
I0403 14:45:10.750313 30263 net.cpp:91] Creating Layer pool5
I0403 14:45:10.750330 30263 net.cpp:425] pool5 <- conv5
I0403 14:45:10.750349 30263 net.cpp:399] pool5 -> pool5
I0403 14:45:10.750411 30263 net.cpp:141] Setting up pool5
I0403 14:45:10.750433 30263 net.cpp:148] Top shape: 100 256 6 6 (921600)
I0403 14:45:10.750448 30263 net.cpp:156] Memory required for data: 821695600
I0403 14:45:10.750464 30263 layer_factory.hpp:77] Creating layer fc6
I0403 14:45:10.750494 30263 net.cpp:91] Creating Layer fc6
I0403 14:45:10.750512 30263 net.cpp:425] fc6 <- pool5
I0403 14:45:10.750530 30263 net.cpp:399] fc6 -> fc6
I0403 14:45:12.287019 30263 net.cpp:141] Setting up fc6
I0403 14:45:12.287102 30263 net.cpp:148] Top shape: 100 4096 (409600)
I0403 14:45:12.287118 30263 net.cpp:156] Memory required for data: 823334000
I0403 14:45:12.287140 30263 layer_factory.hpp:77] Creating layer relu6
I0403 14:45:12.287164 30263 net.cpp:91] Creating Layer relu6
I0403 14:45:12.287181 30263 net.cpp:425] relu6 <- fc6
I0403 14:45:12.287204 30263 net.cpp:386] relu6 -> fc6 (in-place)
I0403 14:45:12.287425 30263 net.cpp:141] Setting up relu6
I0403 14:45:12.287448 30263 net.cpp:148] Top shape: 100 4096 (409600)
I0403 14:45:12.287462 30263 net.cpp:156] Memory required for data: 824972400
I0403 14:45:12.287477 30263 layer_factory.hpp:77] Creating layer drop6
I0403 14:45:12.287502 30263 net.cpp:91] Creating Layer drop6
I0403 14:45:12.287516 30263 net.cpp:425] drop6 <- fc6
I0403 14:45:12.287539 30263 net.cpp:386] drop6 -> fc6 (in-place)
I0403 14:45:12.287593 30263 net.cpp:141] Setting up drop6
I0403 14:45:12.287617 30263 net.cpp:148] Top shape: 100 4096 (409600)
I0403 14:45:12.287633 30263 net.cpp:156] Memory required for data: 826610800
I0403 14:45:12.287647 30263 layer_factory.hpp:77] Creating layer fc7
I0403 14:45:12.287667 30263 net.cpp:91] Creating Layer fc7
I0403 14:45:12.287683 30263 net.cpp:425] fc7 <- fc6
I0403 14:45:12.287703 30263 net.cpp:399] fc7 -> fc7
I0403 14:45:12.953377 30263 net.cpp:141] Setting up fc7
I0403 14:45:12.953464 30263 net.cpp:148] Top shape: 100 4096 (409600)
I0403 14:45:12.953480 30263 net.cpp:156] Memory required for data: 828249200
I0403 14:45:12.953503 30263 layer_factory.hpp:77] Creating layer relu7
I0403 14:45:12.953526 30263 net.cpp:91] Creating Layer relu7
I0403 14:45:12.953547 30263 net.cpp:425] relu7 <- fc7
I0403 14:45:12.953570 30263 net.cpp:386] relu7 -> fc7 (in-place)
I0403 14:45:12.953969 30263 net.cpp:141] Setting up relu7
I0403 14:45:12.953994 30263 net.cpp:148] Top shape: 100 4096 (409600)
I0403 14:45:12.954047 30263 net.cpp:156] Memory required for data: 829887600
I0403 14:45:12.954063 30263 layer_factory.hpp:77] Creating layer drop7
I0403 14:45:12.954082 30263 net.cpp:91] Creating Layer drop7
I0403 14:45:12.954097 30263 net.cpp:425] drop7 <- fc7
I0403 14:45:12.954115 30263 net.cpp:386] drop7 -> fc7 (in-place)
I0403 14:45:12.954159 30263 net.cpp:141] Setting up drop7
I0403 14:45:12.954182 30263 net.cpp:148] Top shape: 100 4096 (409600)
I0403 14:45:12.954197 30263 net.cpp:156] Memory required for data: 831526000
I0403 14:45:12.954212 30263 layer_factory.hpp:77] Creating layer fc8_plantvillage
I0403 14:45:12.954231 30263 net.cpp:91] Creating Layer fc8_plantvillage
I0403 14:45:12.954246 30263 net.cpp:425] fc8_plantvillage <- fc7
I0403 14:45:12.954267 30263 net.cpp:399] fc8_plantvillage -> fc8_plantvillage
I0403 14:45:12.960880 30263 net.cpp:141] Setting up fc8_plantvillage
I0403 14:45:12.960907 30263 net.cpp:148] Top shape: 100 38 (3800)
I0403 14:45:12.960923 30263 net.cpp:156] Memory required for data: 831541200
I0403 14:45:12.960940 30263 layer_factory.hpp:77] Creating layer fc8_plantvillage_fc8_plantvillage_0_split
I0403 14:45:12.960971 30263 net.cpp:91] Creating Layer fc8_plantvillage_fc8_plantvillage_0_split
I0403 14:45:12.960986 30263 net.cpp:425] fc8_plantvillage_fc8_plantvillage_0_split <- fc8_plantvillage
I0403 14:45:12.961005 30263 net.cpp:399] fc8_plantvillage_fc8_plantvillage_0_split -> fc8_plantvillage_fc8_plantvillage_0_split_0
I0403 14:45:12.961024 30263 net.cpp:399] fc8_plantvillage_fc8_plantvillage_0_split -> fc8_plantvillage_fc8_plantvillage_0_split_1
I0403 14:45:12.961045 30263 net.cpp:399] fc8_plantvillage_fc8_plantvillage_0_split -> fc8_plantvillage_fc8_plantvillage_0_split_2
I0403 14:45:12.961122 30263 net.cpp:141] Setting up fc8_plantvillage_fc8_plantvillage_0_split
I0403 14:45:12.961144 30263 net.cpp:148] Top shape: 100 38 (3800)
I0403 14:45:12.961159 30263 net.cpp:148] Top shape: 100 38 (3800)
I0403 14:45:12.961174 30263 net.cpp:148] Top shape: 100 38 (3800)
I0403 14:45:12.961187 30263 net.cpp:156] Memory required for data: 831586800
I0403 14:45:12.961201 30263 layer_factory.hpp:77] Creating layer prob
I0403 14:45:12.961220 30263 net.cpp:91] Creating Layer prob
I0403 14:45:12.961235 30263 net.cpp:425] prob <- fc8_plantvillage_fc8_plantvillage_0_split_0
I0403 14:45:12.961253 30263 net.cpp:399] prob -> prob
I0403 14:45:12.961472 30263 net.cpp:141] Setting up prob
I0403 14:45:12.961498 30263 net.cpp:148] Top shape: 100 38 (3800)
I0403 14:45:12.961511 30263 net.cpp:156] Memory required for data: 831602000
I0403 14:45:12.961526 30263 layer_factory.hpp:77] Creating layer hdf5out
I0403 14:45:12.961558 30263 net.cpp:91] Creating Layer hdf5out
I0403 14:45:12.961576 30263 net.cpp:425] hdf5out <- prob
I0403 14:45:12.961593 30263 net.cpp:425] hdf5out <- label_data_1_split_0
I0403 14:45:12.965862 30263 net.cpp:141] Setting up hdf5out
…
