…
I0403 14:30:10.674361 29892 net.cpp:313] The NetState phase (1) differed from the phase (0) specified by a rule in layer data
I0403 14:30:10.674922 29892 net.cpp:49] Initializing net from parameters: 
state {
  phase: TEST
}
layer {
  name: "data"
  type: "Data"
  top: "data"
  top: "label"
  include {
    phase: TEST
  }
  transform_param {
    crop_size: 227
    mean_file: "/home/mohanty/data/final_dataset/lmdb/segmented-40-60/mean.binaryproto"
  }
  data_param {
    source: "/home/mohanty/data/final_dataset/lmdb/segmented-40-60/test_db"
    batch_size: 100
    backend: LMDB
  }
}
layer {
  name: "conv1"
  type: "Convolution"
  bottom: "data"
  top: "conv1"
  param {
    lr_mult: 1
    decay_mult: 1
  }
  param {
    lr_mult: 2
    decay_mult: 0
  }
  convolution_param {
    num_output: 96
    kernel_size: 11
    stride: 4
    weight_filler {
      type: "gaussian"
      std: 0.01
    }
    bias_filler {
      type: "constant"
      value: 0
    }
  }
}
layer {
  name: "relu1"
  type: "ReLU"
  bottom: "conv1"
  top: "conv1"
}
layer {
  name: "norm1"
  type: "LRN"
  bottom: "conv1"
  top: "norm1"
  lrn_param {
    local_size: 5
    alpha: 0.0001
    beta: 0.75
  }
}
layer {
  name: "pool1"
  type: "Pooling"
  bottom: "norm1"
  top: "pool1"
  pooling_param {
    pool: MAX
    kernel_size: 3
    stride: 2
  }
}
layer {
  name: "conv2"
  type: "Convolution"
  bottom: "pool1"
  top: "conv2"
  param {
    lr_mult: 1
    decay_mult: 1
  }
  param {
    lr_mult: 2
    decay_mult: 0
  }
  convolution_param {
    num_output: 256
    pad: 2
    kernel_size: 5
    group: 2
    weight_filler {
      type: "gaussian"
      std: 0.01
    }
    bias_filler {
      type: "constant"
      value: 0.1
    }
  }
}
layer {
  name: "relu2"
  type: "ReLU"
  bottom: "conv2"
  top: "conv2"
}
layer {
  name: "norm2"
  type: "LRN"
  bottom: "conv2"
  top: "norm2"
  lrn_param {
    local_size: 5
    alpha: 0.0001
    beta: 0.75
  }
}
layer {
  name: "pool2"
  type: "Pooling"
  bottom: "norm2"
  top: "pool2"
  pooling_param {
    pool: MAX
    kernel_size: 3
    stride: 2
  }
}
layer {
  name: "conv3"
  type: "Convolution"
  bottom: "pool2"
  top: "conv3"
  param {
    lr_mult: 1
    decay_mult: 1
  }
  param {
    lr_mult: 2
    decay_mult: 0
  }
  convolution_param {
    num_output: 384
    pad: 1
    kernel_size: 3
    weight_filler {
      type: "gaussian"
      std: 0.01
    }
    bias_filler {
      type: "constant"
      value: 0
    }
  }
}
layer {
  name: "relu3"
  type: "ReLU"
  bottom: "conv3"
  top: "conv3"
}
layer {
  name: "conv4"
  type: "Convolution"
  bottom: "conv3"
  top: "conv4"
  param {
    lr_mult: 1
    decay_mult: 1
  }
  param {
    lr_mult: 2
    decay_mult: 0
  }
  convolution_param {
    num_output: 384
    pad: 1
    kernel_size: 3
    group: 2
    weight_filler {
      type: "gaussian"
      std: 0.01
    }
    bias_filler {
      type: "constant"
      value: 0.1
    }
  }
}
layer {
  name: "relu4"
  type: "ReLU"
  bottom: "conv4"
  top: "conv4"
}
layer {
  name: "conv5"
  type: "Convolution"
  bottom: "conv4"
  top: "conv5"
  param {
    lr_mult: 1
    decay_mult: 1
  }
  param {
    lr_mult: 2
    decay_mult: 0
  }
  convolution_param {
    num_output: 256
    pad: 1
    kernel_size: 3
    group: 2
    weight_filler {
      type: "gaussian"
      std: 0.01
    }
    bias_filler {
      type: "constant"
      value: 0.1
    }
  }
}
layer {
  name: "relu5"
  type: "ReLU"
  bottom: "conv5"
  top: "conv5"
}
layer {
  name: "pool5"
  type: "Pooling"
  bottom: "conv5"
  top: "pool5"
  pooling_param {
    pool: MAX
    kernel_size: 3
    stride: 2
  }
}
layer {
  name: "fc6"
  type: "InnerProduct"
  bottom: "pool5"
  top: "fc6"
  param {
    lr_mult: 1
    decay_mult: 1
  }
  param {
    lr_mult: 2
    decay_mult: 0
  }
  inner_product_param {
    num_output: 4096
    weight_filler {
      type: "gaussian"
      std: 0.005
    }
    bias_filler {
      type: "constant"
      value: 0.1
    }
  }
}
layer {
  name: "relu6"
  type: "ReLU"
  bottom: "fc6"
  top: "fc6"
}
layer {
  name: "drop6"
  type: "Dropout"
  bottom: "fc6"
  top: "fc6"
  dropout_param {
    dropout_ratio: 0.5
  }
}
layer {
  name: "fc7"
  type: "InnerProduct"
  bottom: "fc6"
  top: "fc7"
  param {
    lr_mult: 1
    decay_mult: 1
  }
  param {
    lr_mult: 2
    decay_mult: 0
  }
  inner_product_param {
    num_output: 4096
    weight_filler {
      type: "gaussian"
      std: 0.005
    }
    bias_filler {
      type: "constant"
      value: 0.1
    }
  }
}
layer {
  name: "relu7"
  type: "ReLU"
  bottom: "fc7"
  top: "fc7"
}
layer {
  name: "drop7"
  type: "Dropout"
  bottom: "fc7"
  top: "fc7"
  dropout_param {
    dropout_ratio: 0.5
  }
}
layer {
  name: "fc8_plantvillage"
  type: "InnerProduct"
  bottom: "fc7"
  top: "fc8_plantvillage"
  param {
    lr_mult: 1
    decay_mult: 1
  }
  param {
    lr_mult: 2
    decay_mult: 0
  }
  inner_product_param {
    num_output: 38
    weight_filler {
      type: "gaussian"
      std: 0.01
    }
    bias_filler {
      type: "constant"
      value: 0
    }
  }
}
layer {
  name: "prob"
  type: "Softmax"
  bottom: "fc8_plantvillage"
  top: "prob"
  include {
    phase: TEST
  }
}
layer {
  name: "hdf5out"
  type: "HDF5Output"
  bottom: "prob"
  bottom: "label"
  include {
    phase: TEST
  }
  hdf5_output_param {
    file_name: "hdf5_dumps/iter_438.h5"
  }
}
layer {
  name: "loss"
  type: "SoftmaxWithLoss"
  bottom: "fc8_plantvillage"
  bottom: "label"
  top: "loss"
}
layer {
  name: "accuracy"
  type: "Accuracy"
  bottom: "fc8_plantvillage"
  bottom: "label"
  top: "accuracy"
  include {
    phase: TEST
  }
}
I0403 14:30:10.675976 29892 layer_factory.hpp:77] Creating layer data
I0403 14:30:10.677604 29892 net.cpp:91] Creating Layer data
I0403 14:30:10.677659 29892 net.cpp:399] data -> data
I0403 14:30:10.677717 29892 net.cpp:399] data -> label
I0403 14:30:10.677755 29892 data_transformer.cpp:25] Loading mean file from: /home/mohanty/data/final_dataset/lmdb/segmented-40-60/mean.binaryproto
I0403 14:30:10.681198 29896 db_lmdb.cpp:38] Opened lmdb /home/mohanty/data/final_dataset/lmdb/segmented-40-60/test_db
I0403 14:30:10.694937 29892 data_layer.cpp:41] output data size: 100,3,227,227
I0403 14:30:10.812750 29892 net.cpp:141] Setting up data
I0403 14:30:10.812856 29892 net.cpp:148] Top shape: 100 3 227 227 (15458700)
I0403 14:30:10.812880 29892 net.cpp:148] Top shape: 100 (100)
I0403 14:30:10.812896 29892 net.cpp:156] Memory required for data: 61835200
I0403 14:30:10.812929 29892 layer_factory.hpp:77] Creating layer label_data_1_split
I0403 14:30:10.812959 29892 net.cpp:91] Creating Layer label_data_1_split
I0403 14:30:10.812979 29892 net.cpp:425] label_data_1_split <- label
I0403 14:30:10.813015 29892 net.cpp:399] label_data_1_split -> label_data_1_split_0
I0403 14:30:10.813045 29892 net.cpp:399] label_data_1_split -> label_data_1_split_1
I0403 14:30:10.813066 29892 net.cpp:399] label_data_1_split -> label_data_1_split_2
I0403 14:30:10.813130 29892 net.cpp:141] Setting up label_data_1_split
I0403 14:30:10.813155 29892 net.cpp:148] Top shape: 100 (100)
I0403 14:30:10.813182 29892 net.cpp:148] Top shape: 100 (100)
I0403 14:30:10.813199 29892 net.cpp:148] Top shape: 100 (100)
I0403 14:30:10.813213 29892 net.cpp:156] Memory required for data: 61836400
I0403 14:30:10.813228 29892 layer_factory.hpp:77] Creating layer conv1
I0403 14:30:10.813264 29892 net.cpp:91] Creating Layer conv1
I0403 14:30:10.813282 29892 net.cpp:425] conv1 <- data
I0403 14:30:10.813302 29892 net.cpp:399] conv1 -> conv1
I0403 14:30:10.952889 29892 net.cpp:141] Setting up conv1
I0403 14:30:10.952962 29892 net.cpp:148] Top shape: 100 96 55 55 (29040000)
I0403 14:30:10.952980 29892 net.cpp:156] Memory required for data: 177996400
I0403 14:30:10.953028 29892 layer_factory.hpp:77] Creating layer relu1
I0403 14:30:10.953061 29892 net.cpp:91] Creating Layer relu1
I0403 14:30:10.953080 29892 net.cpp:425] relu1 <- conv1
I0403 14:30:10.953104 29892 net.cpp:386] relu1 -> conv1 (in-place)
I0403 14:30:10.953428 29892 net.cpp:141] Setting up relu1
I0403 14:30:10.953456 29892 net.cpp:148] Top shape: 100 96 55 55 (29040000)
I0403 14:30:10.953512 29892 net.cpp:156] Memory required for data: 294156400
I0403 14:30:10.953529 29892 layer_factory.hpp:77] Creating layer norm1
I0403 14:30:10.953572 29892 net.cpp:91] Creating Layer norm1
I0403 14:30:10.953598 29892 net.cpp:425] norm1 <- conv1
I0403 14:30:10.953632 29892 net.cpp:399] norm1 -> norm1
I0403 14:30:10.953958 29892 net.cpp:141] Setting up norm1
I0403 14:30:10.953984 29892 net.cpp:148] Top shape: 100 96 55 55 (29040000)
I0403 14:30:10.954000 29892 net.cpp:156] Memory required for data: 410316400
I0403 14:30:10.954015 29892 layer_factory.hpp:77] Creating layer pool1
I0403 14:30:10.954038 29892 net.cpp:91] Creating Layer pool1
I0403 14:30:10.954066 29892 net.cpp:425] pool1 <- norm1
I0403 14:30:10.954087 29892 net.cpp:399] pool1 -> pool1
I0403 14:30:10.954154 29892 net.cpp:141] Setting up pool1
I0403 14:30:10.954193 29892 net.cpp:148] Top shape: 100 96 27 27 (6998400)
I0403 14:30:10.954208 29892 net.cpp:156] Memory required for data: 438310000
I0403 14:30:10.954226 29892 layer_factory.hpp:77] Creating layer conv2
I0403 14:30:10.954254 29892 net.cpp:91] Creating Layer conv2
I0403 14:30:10.954272 29892 net.cpp:425] conv2 <- pool1
I0403 14:30:10.954290 29892 net.cpp:399] conv2 -> conv2
I0403 14:30:10.969818 29892 net.cpp:141] Setting up conv2
I0403 14:30:10.969868 29892 net.cpp:148] Top shape: 100 256 27 27 (18662400)
I0403 14:30:10.969885 29892 net.cpp:156] Memory required for data: 512959600
I0403 14:30:10.969907 29892 layer_factory.hpp:77] Creating layer relu2
I0403 14:30:10.969928 29892 net.cpp:91] Creating Layer relu2
I0403 14:30:10.969944 29892 net.cpp:425] relu2 <- conv2
I0403 14:30:10.969962 29892 net.cpp:386] relu2 -> conv2 (in-place)
I0403 14:30:10.970257 29892 net.cpp:141] Setting up relu2
I0403 14:30:10.970283 29892 net.cpp:148] Top shape: 100 256 27 27 (18662400)
I0403 14:30:10.970299 29892 net.cpp:156] Memory required for data: 587609200
I0403 14:30:10.970315 29892 layer_factory.hpp:77] Creating layer norm2
I0403 14:30:10.970335 29892 net.cpp:91] Creating Layer norm2
I0403 14:30:10.970351 29892 net.cpp:425] norm2 <- conv2
I0403 14:30:10.970369 29892 net.cpp:399] norm2 -> norm2
I0403 14:30:10.970566 29892 net.cpp:141] Setting up norm2
I0403 14:30:10.970593 29892 net.cpp:148] Top shape: 100 256 27 27 (18662400)
I0403 14:30:10.970608 29892 net.cpp:156] Memory required for data: 662258800
I0403 14:30:10.970624 29892 layer_factory.hpp:77] Creating layer pool2
I0403 14:30:10.970643 29892 net.cpp:91] Creating Layer pool2
I0403 14:30:10.970659 29892 net.cpp:425] pool2 <- norm2
I0403 14:30:10.970679 29892 net.cpp:399] pool2 -> pool2
I0403 14:30:10.970728 29892 net.cpp:141] Setting up pool2
I0403 14:30:10.970752 29892 net.cpp:148] Top shape: 100 256 13 13 (4326400)
I0403 14:30:10.970767 29892 net.cpp:156] Memory required for data: 679564400
I0403 14:30:10.970783 29892 layer_factory.hpp:77] Creating layer conv3
I0403 14:30:10.970804 29892 net.cpp:91] Creating Layer conv3
I0403 14:30:10.970823 29892 net.cpp:425] conv3 <- pool2
I0403 14:30:10.970841 29892 net.cpp:399] conv3 -> conv3
I0403 14:30:11.009766 29892 net.cpp:141] Setting up conv3
I0403 14:30:11.009825 29892 net.cpp:148] Top shape: 100 384 13 13 (6489600)
I0403 14:30:11.009855 29892 net.cpp:156] Memory required for data: 705522800
I0403 14:30:11.009879 29892 layer_factory.hpp:77] Creating layer relu3
I0403 14:30:11.009901 29892 net.cpp:91] Creating Layer relu3
I0403 14:30:11.009917 29892 net.cpp:425] relu3 <- conv3
I0403 14:30:11.009935 29892 net.cpp:386] relu3 -> conv3 (in-place)
I0403 14:30:11.010210 29892 net.cpp:141] Setting up relu3
I0403 14:30:11.010248 29892 net.cpp:148] Top shape: 100 384 13 13 (6489600)
I0403 14:30:11.010267 29892 net.cpp:156] Memory required for data: 731481200
I0403 14:30:11.010283 29892 layer_factory.hpp:77] Creating layer conv4
I0403 14:30:11.010308 29892 net.cpp:91] Creating Layer conv4
I0403 14:30:11.010327 29892 net.cpp:425] conv4 <- conv3
I0403 14:30:11.010349 29892 net.cpp:399] conv4 -> conv4
I0403 14:30:11.040485 29892 net.cpp:141] Setting up conv4
I0403 14:30:11.040527 29892 net.cpp:148] Top shape: 100 384 13 13 (6489600)
I0403 14:30:11.040578 29892 net.cpp:156] Memory required for data: 757439600
I0403 14:30:11.040601 29892 layer_factory.hpp:77] Creating layer relu4
I0403 14:30:11.040619 29892 net.cpp:91] Creating Layer relu4
I0403 14:30:11.040637 29892 net.cpp:425] relu4 <- conv4
I0403 14:30:11.040657 29892 net.cpp:386] relu4 -> conv4 (in-place)
I0403 14:30:11.040943 29892 net.cpp:141] Setting up relu4
I0403 14:30:11.040971 29892 net.cpp:148] Top shape: 100 384 13 13 (6489600)
I0403 14:30:11.040985 29892 net.cpp:156] Memory required for data: 783398000
I0403 14:30:11.041002 29892 layer_factory.hpp:77] Creating layer conv5
I0403 14:30:11.041026 29892 net.cpp:91] Creating Layer conv5
I0403 14:30:11.041044 29892 net.cpp:425] conv5 <- conv4
I0403 14:30:11.041066 29892 net.cpp:399] conv5 -> conv5
I0403 14:30:11.061161 29892 net.cpp:141] Setting up conv5
I0403 14:30:11.061197 29892 net.cpp:148] Top shape: 100 256 13 13 (4326400)
I0403 14:30:11.061213 29892 net.cpp:156] Memory required for data: 800703600
I0403 14:30:11.061238 29892 layer_factory.hpp:77] Creating layer relu5
I0403 14:30:11.061260 29892 net.cpp:91] Creating Layer relu5
I0403 14:30:11.061277 29892 net.cpp:425] relu5 <- conv5
I0403 14:30:11.061295 29892 net.cpp:386] relu5 -> conv5 (in-place)
I0403 14:30:11.061580 29892 net.cpp:141] Setting up relu5
I0403 14:30:11.061606 29892 net.cpp:148] Top shape: 100 256 13 13 (4326400)
I0403 14:30:11.061621 29892 net.cpp:156] Memory required for data: 818009200
I0403 14:30:11.061636 29892 layer_factory.hpp:77] Creating layer pool5
I0403 14:30:11.061662 29892 net.cpp:91] Creating Layer pool5
I0403 14:30:11.061679 29892 net.cpp:425] pool5 <- conv5
I0403 14:30:11.061698 29892 net.cpp:399] pool5 -> pool5
I0403 14:30:11.061758 29892 net.cpp:141] Setting up pool5
I0403 14:30:11.061780 29892 net.cpp:148] Top shape: 100 256 6 6 (921600)
I0403 14:30:11.061794 29892 net.cpp:156] Memory required for data: 821695600
I0403 14:30:11.061810 29892 layer_factory.hpp:77] Creating layer fc6
I0403 14:30:11.061841 29892 net.cpp:91] Creating Layer fc6
I0403 14:30:11.061857 29892 net.cpp:425] fc6 <- pool5
I0403 14:30:11.061875 29892 net.cpp:399] fc6 -> fc6
I0403 14:30:12.544209 29892 net.cpp:141] Setting up fc6
I0403 14:30:12.544283 29892 net.cpp:148] Top shape: 100 4096 (409600)
I0403 14:30:12.544312 29892 net.cpp:156] Memory required for data: 823334000
I0403 14:30:12.544333 29892 layer_factory.hpp:77] Creating layer relu6
I0403 14:30:12.544358 29892 net.cpp:91] Creating Layer relu6
I0403 14:30:12.544373 29892 net.cpp:425] relu6 <- fc6
I0403 14:30:12.544395 29892 net.cpp:386] relu6 -> fc6 (in-place)
I0403 14:30:12.544641 29892 net.cpp:141] Setting up relu6
I0403 14:30:12.544664 29892 net.cpp:148] Top shape: 100 4096 (409600)
I0403 14:30:12.544678 29892 net.cpp:156] Memory required for data: 824972400
I0403 14:30:12.544692 29892 layer_factory.hpp:77] Creating layer drop6
I0403 14:30:12.544711 29892 net.cpp:91] Creating Layer drop6
I0403 14:30:12.544728 29892 net.cpp:425] drop6 <- fc6
I0403 14:30:12.544744 29892 net.cpp:386] drop6 -> fc6 (in-place)
I0403 14:30:12.544795 29892 net.cpp:141] Setting up drop6
I0403 14:30:12.544818 29892 net.cpp:148] Top shape: 100 4096 (409600)
I0403 14:30:12.544833 29892 net.cpp:156] Memory required for data: 826610800
I0403 14:30:12.544847 29892 layer_factory.hpp:77] Creating layer fc7
I0403 14:30:12.544867 29892 net.cpp:91] Creating Layer fc7
I0403 14:30:12.544881 29892 net.cpp:425] fc7 <- fc6
I0403 14:30:12.544900 29892 net.cpp:399] fc7 -> fc7
I0403 14:30:13.196252 29892 net.cpp:141] Setting up fc7
I0403 14:30:13.196353 29892 net.cpp:148] Top shape: 100 4096 (409600)
I0403 14:30:13.196370 29892 net.cpp:156] Memory required for data: 828249200
I0403 14:30:13.196391 29892 layer_factory.hpp:77] Creating layer relu7
I0403 14:30:13.196415 29892 net.cpp:91] Creating Layer relu7
I0403 14:30:13.196432 29892 net.cpp:425] relu7 <- fc7
I0403 14:30:13.196455 29892 net.cpp:386] relu7 -> fc7 (in-place)
I0403 14:30:13.196887 29892 net.cpp:141] Setting up relu7
I0403 14:30:13.196912 29892 net.cpp:148] Top shape: 100 4096 (409600)
I0403 14:30:13.196964 29892 net.cpp:156] Memory required for data: 829887600
I0403 14:30:13.196979 29892 layer_factory.hpp:77] Creating layer drop7
I0403 14:30:13.196998 29892 net.cpp:91] Creating Layer drop7
I0403 14:30:13.197012 29892 net.cpp:425] drop7 <- fc7
I0403 14:30:13.197031 29892 net.cpp:386] drop7 -> fc7 (in-place)
I0403 14:30:13.197072 29892 net.cpp:141] Setting up drop7
I0403 14:30:13.197095 29892 net.cpp:148] Top shape: 100 4096 (409600)
I0403 14:30:13.197109 29892 net.cpp:156] Memory required for data: 831526000
I0403 14:30:13.197124 29892 layer_factory.hpp:77] Creating layer fc8_plantvillage
I0403 14:30:13.197144 29892 net.cpp:91] Creating Layer fc8_plantvillage
I0403 14:30:13.197157 29892 net.cpp:425] fc8_plantvillage <- fc7
I0403 14:30:13.197177 29892 net.cpp:399] fc8_plantvillage -> fc8_plantvillage
I0403 14:30:13.203577 29892 net.cpp:141] Setting up fc8_plantvillage
I0403 14:30:13.203603 29892 net.cpp:148] Top shape: 100 38 (3800)
I0403 14:30:13.203616 29892 net.cpp:156] Memory required for data: 831541200
I0403 14:30:13.203634 29892 layer_factory.hpp:77] Creating layer fc8_plantvillage_fc8_plantvillage_0_split
I0403 14:30:13.203655 29892 net.cpp:91] Creating Layer fc8_plantvillage_fc8_plantvillage_0_split
I0403 14:30:13.203670 29892 net.cpp:425] fc8_plantvillage_fc8_plantvillage_0_split <- fc8_plantvillage
I0403 14:30:13.203685 29892 net.cpp:399] fc8_plantvillage_fc8_plantvillage_0_split -> fc8_plantvillage_fc8_plantvillage_0_split_0
I0403 14:30:13.203703 29892 net.cpp:399] fc8_plantvillage_fc8_plantvillage_0_split -> fc8_plantvillage_fc8_plantvillage_0_split_1
I0403 14:30:13.203722 29892 net.cpp:399] fc8_plantvillage_fc8_plantvillage_0_split -> fc8_plantvillage_fc8_plantvillage_0_split_2
I0403 14:30:13.203799 29892 net.cpp:141] Setting up fc8_plantvillage_fc8_plantvillage_0_split
I0403 14:30:13.203821 29892 net.cpp:148] Top shape: 100 38 (3800)
I0403 14:30:13.203835 29892 net.cpp:148] Top shape: 100 38 (3800)
I0403 14:30:13.203850 29892 net.cpp:148] Top shape: 100 38 (3800)
I0403 14:30:13.203862 29892 net.cpp:156] Memory required for data: 831586800
I0403 14:30:13.203876 29892 layer_factory.hpp:77] Creating layer prob
I0403 14:30:13.203894 29892 net.cpp:91] Creating Layer prob
I0403 14:30:13.203908 29892 net.cpp:425] prob <- fc8_plantvillage_fc8_plantvillage_0_split_0
I0403 14:30:13.203925 29892 net.cpp:399] prob -> prob
I0403 14:30:13.204138 29892 net.cpp:141] Setting up prob
I0403 14:30:13.204161 29892 net.cpp:148] Top shape: 100 38 (3800)
I0403 14:30:13.204175 29892 net.cpp:156] Memory required for data: 831602000
I0403 14:30:13.204190 29892 layer_factory.hpp:77] Creating layer hdf5out
I0403 14:30:13.204207 29892 net.cpp:91] Creating Layer hdf5out
I0403 14:30:13.204221 29892 net.cpp:425] hdf5out <- prob
I0403 14:30:13.204236 29892 net.cpp:425] hdf5out <- label_data_1_split_0
I0403 14:30:13.208261 29892 net.cpp:141] Setting up hdf5out
…
