…
I0403 14:41:22.199756 30125 net.cpp:313] The NetState phase (1) differed from the phase (0) specified by a rule in layer data
I0403 14:41:22.200510 30125 net.cpp:49] Initializing net from parameters: 
state {
  phase: TEST
}
layer {
  name: "data"
  type: "Data"
  top: "data"
  top: "label"
  include {
    phase: TEST
  }
  transform_param {
    crop_size: 227
    mean_file: "/home/mohanty/data/final_dataset/lmdb/segmented-40-60/mean.binaryproto"
  }
  data_param {
    source: "/home/mohanty/data/final_dataset/lmdb/segmented-40-60/test_db"
    batch_size: 100
    backend: LMDB
  }
}
layer {
  name: "conv1"
  type: "Convolution"
  bottom: "data"
  top: "conv1"
  param {
    lr_mult: 1
    decay_mult: 1
  }
  param {
    lr_mult: 2
    decay_mult: 0
  }
  convolution_param {
    num_output: 96
    kernel_size: 11
    stride: 4
    weight_filler {
      type: "gaussian"
      std: 0.01
    }
    bias_filler {
      type: "constant"
      value: 0
    }
  }
}
layer {
  name: "relu1"
  type: "ReLU"
  bottom: "conv1"
  top: "conv1"
}
layer {
  name: "norm1"
  type: "LRN"
  bottom: "conv1"
  top: "norm1"
  lrn_param {
    local_size: 5
    alpha: 0.0001
    beta: 0.75
  }
}
layer {
  name: "pool1"
  type: "Pooling"
  bottom: "norm1"
  top: "pool1"
  pooling_param {
    pool: MAX
    kernel_size: 3
    stride: 2
  }
}
layer {
  name: "conv2"
  type: "Convolution"
  bottom: "pool1"
  top: "conv2"
  param {
    lr_mult: 1
    decay_mult: 1
  }
  param {
    lr_mult: 2
    decay_mult: 0
  }
  convolution_param {
    num_output: 256
    pad: 2
    kernel_size: 5
    group: 2
    weight_filler {
      type: "gaussian"
      std: 0.01
    }
    bias_filler {
      type: "constant"
      value: 0.1
    }
  }
}
layer {
  name: "relu2"
  type: "ReLU"
  bottom: "conv2"
  top: "conv2"
}
layer {
  name: "norm2"
  type: "LRN"
  bottom: "conv2"
  top: "norm2"
  lrn_param {
    local_size: 5
    alpha: 0.0001
    beta: 0.75
  }
}
layer {
  name: "pool2"
  type: "Pooling"
  bottom: "norm2"
  top: "pool2"
  pooling_param {
    pool: MAX
    kernel_size: 3
    stride: 2
  }
}
layer {
  name: "conv3"
  type: "Convolution"
  bottom: "pool2"
  top: "conv3"
  param {
    lr_mult: 1
    decay_mult: 1
  }
  param {
    lr_mult: 2
    decay_mult: 0
  }
  convolution_param {
    num_output: 384
    pad: 1
    kernel_size: 3
    weight_filler {
      type: "gaussian"
      std: 0.01
    }
    bias_filler {
      type: "constant"
      value: 0
    }
  }
}
layer {
  name: "relu3"
  type: "ReLU"
  bottom: "conv3"
  top: "conv3"
}
layer {
  name: "conv4"
  type: "Convolution"
  bottom: "conv3"
  top: "conv4"
  param {
    lr_mult: 1
    decay_mult: 1
  }
  param {
    lr_mult: 2
    decay_mult: 0
  }
  convolution_param {
    num_output: 384
    pad: 1
    kernel_size: 3
    group: 2
    weight_filler {
      type: "gaussian"
      std: 0.01
    }
    bias_filler {
      type: "constant"
      value: 0.1
    }
  }
}
layer {
  name: "relu4"
  type: "ReLU"
  bottom: "conv4"
  top: "conv4"
}
layer {
  name: "conv5"
  type: "Convolution"
  bottom: "conv4"
  top: "conv5"
  param {
    lr_mult: 1
    decay_mult: 1
  }
  param {
    lr_mult: 2
    decay_mult: 0
  }
  convolution_param {
    num_output: 256
    pad: 1
    kernel_size: 3
    group: 2
    weight_filler {
      type: "gaussian"
      std: 0.01
    }
    bias_filler {
      type: "constant"
      value: 0.1
    }
  }
}
layer {
  name: "relu5"
  type: "ReLU"
  bottom: "conv5"
  top: "conv5"
}
layer {
  name: "pool5"
  type: "Pooling"
  bottom: "conv5"
  top: "pool5"
  pooling_param {
    pool: MAX
    kernel_size: 3
    stride: 2
  }
}
layer {
  name: "fc6"
  type: "InnerProduct"
  bottom: "pool5"
  top: "fc6"
  param {
    lr_mult: 1
    decay_mult: 1
  }
  param {
    lr_mult: 2
    decay_mult: 0
  }
  inner_product_param {
    num_output: 4096
    weight_filler {
      type: "gaussian"
      std: 0.005
    }
    bias_filler {
      type: "constant"
      value: 0.1
    }
  }
}
layer {
  name: "relu6"
  type: "ReLU"
  bottom: "fc6"
  top: "fc6"
}
layer {
  name: "drop6"
  type: "Dropout"
  bottom: "fc6"
  top: "fc6"
  dropout_param {
    dropout_ratio: 0.5
  }
}
layer {
  name: "fc7"
  type: "InnerProduct"
  bottom: "fc6"
  top: "fc7"
  param {
    lr_mult: 1
    decay_mult: 1
  }
  param {
    lr_mult: 2
    decay_mult: 0
  }
  inner_product_param {
    num_output: 4096
    weight_filler {
      type: "gaussian"
      std: 0.005
    }
    bias_filler {
      type: "constant"
      value: 0.1
    }
  }
}
layer {
  name: "relu7"
  type: "ReLU"
  bottom: "fc7"
  top: "fc7"
}
layer {
  name: "drop7"
  type: "Dropout"
  bottom: "fc7"
  top: "fc7"
  dropout_param {
    dropout_ratio: 0.5
  }
}
layer {
  name: "fc8_plantvillage"
  type: "InnerProduct"
  bottom: "fc7"
  top: "fc8_plantvillage"
  param {
    lr_mult: 1
    decay_mult: 1
  }
  param {
    lr_mult: 2
    decay_mult: 0
  }
  inner_product_param {
    num_output: 38
    weight_filler {
      type: "gaussian"
      std: 0.01
    }
    bias_filler {
      type: "constant"
      value: 0
    }
  }
}
layer {
  name: "prob"
  type: "Softmax"
  bottom: "fc8_plantvillage"
  top: "prob"
  include {
    phase: TEST
  }
}
layer {
  name: "hdf5out"
  type: "HDF5Output"
  bottom: "prob"
  bottom: "label"
  include {
    phase: TEST
  }
  hdf5_output_param {
    file_name: "hdf5_dumps/iter_3066.h5"
  }
}
layer {
  name: "loss"
  type: "SoftmaxWithLoss"
  bottom: "fc8_plantvillage"
  bottom: "label"
  top: "loss"
}
layer {
  name: "accuracy"
  type: "Accuracy"
  bottom: "fc8_plantvillage"
  bottom: "label"
  top: "accuracy"
  include {
    phase: TEST
  }
}
I0403 14:41:22.201521 30125 layer_factory.hpp:77] Creating layer data
I0403 14:41:22.203160 30125 net.cpp:91] Creating Layer data
I0403 14:41:22.203235 30125 net.cpp:399] data -> data
I0403 14:41:22.203357 30125 net.cpp:399] data -> label
I0403 14:41:22.203454 30125 data_transformer.cpp:25] Loading mean file from: /home/mohanty/data/final_dataset/lmdb/segmented-40-60/mean.binaryproto
I0403 14:41:22.206189 30127 db_lmdb.cpp:38] Opened lmdb /home/mohanty/data/final_dataset/lmdb/segmented-40-60/test_db
I0403 14:41:22.221850 30125 data_layer.cpp:41] output data size: 100,3,227,227
I0403 14:41:22.357440 30125 net.cpp:141] Setting up data
I0403 14:41:22.357553 30125 net.cpp:148] Top shape: 100 3 227 227 (15458700)
I0403 14:41:22.357583 30125 net.cpp:148] Top shape: 100 (100)
I0403 14:41:22.357602 30125 net.cpp:156] Memory required for data: 61835200
I0403 14:41:22.357640 30125 layer_factory.hpp:77] Creating layer label_data_1_split
I0403 14:41:22.357673 30125 net.cpp:91] Creating Layer label_data_1_split
I0403 14:41:22.357697 30125 net.cpp:425] label_data_1_split <- label
I0403 14:41:22.357738 30125 net.cpp:399] label_data_1_split -> label_data_1_split_0
I0403 14:41:22.357772 30125 net.cpp:399] label_data_1_split -> label_data_1_split_1
I0403 14:41:22.357798 30125 net.cpp:399] label_data_1_split -> label_data_1_split_2
I0403 14:41:22.357878 30125 net.cpp:141] Setting up label_data_1_split
I0403 14:41:22.357910 30125 net.cpp:148] Top shape: 100 (100)
I0403 14:41:22.357931 30125 net.cpp:148] Top shape: 100 (100)
I0403 14:41:22.357951 30125 net.cpp:148] Top shape: 100 (100)
I0403 14:41:22.357969 30125 net.cpp:156] Memory required for data: 61836400
I0403 14:41:22.357988 30125 layer_factory.hpp:77] Creating layer conv1
I0403 14:41:22.358028 30125 net.cpp:91] Creating Layer conv1
I0403 14:41:22.358052 30125 net.cpp:425] conv1 <- data
I0403 14:41:22.358078 30125 net.cpp:399] conv1 -> conv1
I0403 14:41:22.521427 30125 net.cpp:141] Setting up conv1
I0403 14:41:22.521530 30125 net.cpp:148] Top shape: 100 96 55 55 (29040000)
I0403 14:41:22.521559 30125 net.cpp:156] Memory required for data: 177996400
I0403 14:41:22.521600 30125 layer_factory.hpp:77] Creating layer relu1
I0403 14:41:22.521633 30125 net.cpp:91] Creating Layer relu1
I0403 14:41:22.521656 30125 net.cpp:425] relu1 <- conv1
I0403 14:41:22.521680 30125 net.cpp:386] relu1 -> conv1 (in-place)
I0403 14:41:22.521982 30125 net.cpp:141] Setting up relu1
I0403 14:41:22.522016 30125 net.cpp:148] Top shape: 100 96 55 55 (29040000)
I0403 14:41:22.522075 30125 net.cpp:156] Memory required for data: 294156400
I0403 14:41:22.522094 30125 layer_factory.hpp:77] Creating layer norm1
I0403 14:41:22.522128 30125 net.cpp:91] Creating Layer norm1
I0403 14:41:22.522150 30125 net.cpp:425] norm1 <- conv1
I0403 14:41:22.522171 30125 net.cpp:399] norm1 -> norm1
I0403 14:41:22.522572 30125 net.cpp:141] Setting up norm1
I0403 14:41:22.522606 30125 net.cpp:148] Top shape: 100 96 55 55 (29040000)
I0403 14:41:22.522626 30125 net.cpp:156] Memory required for data: 410316400
I0403 14:41:22.522644 30125 layer_factory.hpp:77] Creating layer pool1
I0403 14:41:22.522673 30125 net.cpp:91] Creating Layer pool1
I0403 14:41:22.522694 30125 net.cpp:425] pool1 <- norm1
I0403 14:41:22.522716 30125 net.cpp:399] pool1 -> pool1
I0403 14:41:22.522799 30125 net.cpp:141] Setting up pool1
I0403 14:41:22.522828 30125 net.cpp:148] Top shape: 100 96 27 27 (6998400)
I0403 14:41:22.522846 30125 net.cpp:156] Memory required for data: 438310000
I0403 14:41:22.522864 30125 layer_factory.hpp:77] Creating layer conv2
I0403 14:41:22.522896 30125 net.cpp:91] Creating Layer conv2
I0403 14:41:22.522914 30125 net.cpp:425] conv2 <- pool1
I0403 14:41:22.522936 30125 net.cpp:399] conv2 -> conv2
I0403 14:41:22.540829 30125 net.cpp:141] Setting up conv2
I0403 14:41:22.540874 30125 net.cpp:148] Top shape: 100 256 27 27 (18662400)
I0403 14:41:22.540894 30125 net.cpp:156] Memory required for data: 512959600
I0403 14:41:22.540920 30125 layer_factory.hpp:77] Creating layer relu2
I0403 14:41:22.540943 30125 net.cpp:91] Creating Layer relu2
I0403 14:41:22.540962 30125 net.cpp:425] relu2 <- conv2
I0403 14:41:22.540987 30125 net.cpp:386] relu2 -> conv2 (in-place)
I0403 14:41:22.541321 30125 net.cpp:141] Setting up relu2
I0403 14:41:22.541353 30125 net.cpp:148] Top shape: 100 256 27 27 (18662400)
I0403 14:41:22.541373 30125 net.cpp:156] Memory required for data: 587609200
I0403 14:41:22.541390 30125 layer_factory.hpp:77] Creating layer norm2
I0403 14:41:22.541416 30125 net.cpp:91] Creating Layer norm2
I0403 14:41:22.541436 30125 net.cpp:425] norm2 <- conv2
I0403 14:41:22.541458 30125 net.cpp:399] norm2 -> norm2
I0403 14:41:22.541703 30125 net.cpp:141] Setting up norm2
I0403 14:41:22.541733 30125 net.cpp:148] Top shape: 100 256 27 27 (18662400)
I0403 14:41:22.541752 30125 net.cpp:156] Memory required for data: 662258800
I0403 14:41:22.541770 30125 layer_factory.hpp:77] Creating layer pool2
I0403 14:41:22.541791 30125 net.cpp:91] Creating Layer pool2
I0403 14:41:22.541810 30125 net.cpp:425] pool2 <- norm2
I0403 14:41:22.541833 30125 net.cpp:399] pool2 -> pool2
I0403 14:41:22.541923 30125 net.cpp:141] Setting up pool2
I0403 14:41:22.541952 30125 net.cpp:148] Top shape: 100 256 13 13 (4326400)
I0403 14:41:22.541970 30125 net.cpp:156] Memory required for data: 679564400
I0403 14:41:22.541988 30125 layer_factory.hpp:77] Creating layer conv3
I0403 14:41:22.542018 30125 net.cpp:91] Creating Layer conv3
I0403 14:41:22.542042 30125 net.cpp:425] conv3 <- pool2
I0403 14:41:22.542063 30125 net.cpp:399] conv3 -> conv3
I0403 14:41:22.588268 30125 net.cpp:141] Setting up conv3
I0403 14:41:22.588333 30125 net.cpp:148] Top shape: 100 384 13 13 (6489600)
I0403 14:41:22.588354 30125 net.cpp:156] Memory required for data: 705522800
I0403 14:41:22.588384 30125 layer_factory.hpp:77] Creating layer relu3
I0403 14:41:22.588408 30125 net.cpp:91] Creating Layer relu3
I0403 14:41:22.588434 30125 net.cpp:425] relu3 <- conv3
I0403 14:41:22.588462 30125 net.cpp:386] relu3 -> conv3 (in-place)
I0403 14:41:22.588786 30125 net.cpp:141] Setting up relu3
I0403 14:41:22.588820 30125 net.cpp:148] Top shape: 100 384 13 13 (6489600)
I0403 14:41:22.588840 30125 net.cpp:156] Memory required for data: 731481200
I0403 14:41:22.588857 30125 layer_factory.hpp:77] Creating layer conv4
I0403 14:41:22.588886 30125 net.cpp:91] Creating Layer conv4
I0403 14:41:22.588907 30125 net.cpp:425] conv4 <- conv3
I0403 14:41:22.588932 30125 net.cpp:399] conv4 -> conv4
I0403 14:41:22.624905 30125 net.cpp:141] Setting up conv4
I0403 14:41:22.624959 30125 net.cpp:148] Top shape: 100 384 13 13 (6489600)
I0403 14:41:22.625020 30125 net.cpp:156] Memory required for data: 757439600
I0403 14:41:22.625046 30125 layer_factory.hpp:77] Creating layer relu4
I0403 14:41:22.625069 30125 net.cpp:91] Creating Layer relu4
I0403 14:41:22.625089 30125 net.cpp:425] relu4 <- conv4
I0403 14:41:22.625114 30125 net.cpp:386] relu4 -> conv4 (in-place)
I0403 14:41:22.625435 30125 net.cpp:141] Setting up relu4
I0403 14:41:22.625470 30125 net.cpp:148] Top shape: 100 384 13 13 (6489600)
I0403 14:41:22.625489 30125 net.cpp:156] Memory required for data: 783398000
I0403 14:41:22.625509 30125 layer_factory.hpp:77] Creating layer conv5
I0403 14:41:22.625540 30125 net.cpp:91] Creating Layer conv5
I0403 14:41:22.625562 30125 net.cpp:425] conv5 <- conv4
I0403 14:41:22.625584 30125 net.cpp:399] conv5 -> conv5
I0403 14:41:22.650391 30125 net.cpp:141] Setting up conv5
I0403 14:41:22.650436 30125 net.cpp:148] Top shape: 100 256 13 13 (4326400)
I0403 14:41:22.650455 30125 net.cpp:156] Memory required for data: 800703600
I0403 14:41:22.650483 30125 layer_factory.hpp:77] Creating layer relu5
I0403 14:41:22.650506 30125 net.cpp:91] Creating Layer relu5
I0403 14:41:22.650526 30125 net.cpp:425] relu5 <- conv5
I0403 14:41:22.650554 30125 net.cpp:386] relu5 -> conv5 (in-place)
I0403 14:41:22.650882 30125 net.cpp:141] Setting up relu5
I0403 14:41:22.650913 30125 net.cpp:148] Top shape: 100 256 13 13 (4326400)
I0403 14:41:22.650931 30125 net.cpp:156] Memory required for data: 818009200
I0403 14:41:22.650950 30125 layer_factory.hpp:77] Creating layer pool5
I0403 14:41:22.651021 30125 net.cpp:91] Creating Layer pool5
I0403 14:41:22.651046 30125 net.cpp:425] pool5 <- conv5
I0403 14:41:22.651068 30125 net.cpp:399] pool5 -> pool5
I0403 14:41:22.651142 30125 net.cpp:141] Setting up pool5
I0403 14:41:22.651171 30125 net.cpp:148] Top shape: 100 256 6 6 (921600)
I0403 14:41:22.651190 30125 net.cpp:156] Memory required for data: 821695600
I0403 14:41:22.651208 30125 layer_factory.hpp:77] Creating layer fc6
I0403 14:41:22.651242 30125 net.cpp:91] Creating Layer fc6
I0403 14:41:22.651267 30125 net.cpp:425] fc6 <- pool5
I0403 14:41:22.651291 30125 net.cpp:399] fc6 -> fc6
I0403 14:41:24.226943 30125 net.cpp:141] Setting up fc6
I0403 14:41:24.227040 30125 net.cpp:148] Top shape: 100 4096 (409600)
I0403 14:41:24.227056 30125 net.cpp:156] Memory required for data: 823334000
I0403 14:41:24.227078 30125 layer_factory.hpp:77] Creating layer relu6
I0403 14:41:24.227104 30125 net.cpp:91] Creating Layer relu6
I0403 14:41:24.227123 30125 net.cpp:425] relu6 <- fc6
I0403 14:41:24.227144 30125 net.cpp:386] relu6 -> fc6 (in-place)
I0403 14:41:24.227378 30125 net.cpp:141] Setting up relu6
I0403 14:41:24.227403 30125 net.cpp:148] Top shape: 100 4096 (409600)
I0403 14:41:24.227417 30125 net.cpp:156] Memory required for data: 824972400
I0403 14:41:24.227432 30125 layer_factory.hpp:77] Creating layer drop6
I0403 14:41:24.227452 30125 net.cpp:91] Creating Layer drop6
I0403 14:41:24.227466 30125 net.cpp:425] drop6 <- fc6
I0403 14:41:24.227484 30125 net.cpp:386] drop6 -> fc6 (in-place)
I0403 14:41:24.227545 30125 net.cpp:141] Setting up drop6
I0403 14:41:24.227572 30125 net.cpp:148] Top shape: 100 4096 (409600)
I0403 14:41:24.227587 30125 net.cpp:156] Memory required for data: 826610800
I0403 14:41:24.227602 30125 layer_factory.hpp:77] Creating layer fc7
I0403 14:41:24.227622 30125 net.cpp:91] Creating Layer fc7
I0403 14:41:24.227638 30125 net.cpp:425] fc7 <- fc6
I0403 14:41:24.227656 30125 net.cpp:399] fc7 -> fc7
I0403 14:41:24.890501 30125 net.cpp:141] Setting up fc7
I0403 14:41:24.890595 30125 net.cpp:148] Top shape: 100 4096 (409600)
I0403 14:41:24.890610 30125 net.cpp:156] Memory required for data: 828249200
I0403 14:41:24.890632 30125 layer_factory.hpp:77] Creating layer relu7
I0403 14:41:24.890655 30125 net.cpp:91] Creating Layer relu7
I0403 14:41:24.890672 30125 net.cpp:425] relu7 <- fc7
I0403 14:41:24.890694 30125 net.cpp:386] relu7 -> fc7 (in-place)
I0403 14:41:24.891091 30125 net.cpp:141] Setting up relu7
I0403 14:41:24.891116 30125 net.cpp:148] Top shape: 100 4096 (409600)
I0403 14:41:24.891171 30125 net.cpp:156] Memory required for data: 829887600
I0403 14:41:24.891186 30125 layer_factory.hpp:77] Creating layer drop7
I0403 14:41:24.891204 30125 net.cpp:91] Creating Layer drop7
I0403 14:41:24.891219 30125 net.cpp:425] drop7 <- fc7
I0403 14:41:24.891238 30125 net.cpp:386] drop7 -> fc7 (in-place)
I0403 14:41:24.891293 30125 net.cpp:141] Setting up drop7
I0403 14:41:24.891314 30125 net.cpp:148] Top shape: 100 4096 (409600)
I0403 14:41:24.891329 30125 net.cpp:156] Memory required for data: 831526000
I0403 14:41:24.891342 30125 layer_factory.hpp:77] Creating layer fc8_plantvillage
I0403 14:41:24.891365 30125 net.cpp:91] Creating Layer fc8_plantvillage
I0403 14:41:24.891378 30125 net.cpp:425] fc8_plantvillage <- fc7
I0403 14:41:24.891397 30125 net.cpp:399] fc8_plantvillage -> fc8_plantvillage
I0403 14:41:24.897804 30125 net.cpp:141] Setting up fc8_plantvillage
I0403 14:41:24.897831 30125 net.cpp:148] Top shape: 100 38 (3800)
I0403 14:41:24.897845 30125 net.cpp:156] Memory required for data: 831541200
I0403 14:41:24.897862 30125 layer_factory.hpp:77] Creating layer fc8_plantvillage_fc8_plantvillage_0_split
I0403 14:41:24.897879 30125 net.cpp:91] Creating Layer fc8_plantvillage_fc8_plantvillage_0_split
I0403 14:41:24.897893 30125 net.cpp:425] fc8_plantvillage_fc8_plantvillage_0_split <- fc8_plantvillage
I0403 14:41:24.897914 30125 net.cpp:399] fc8_plantvillage_fc8_plantvillage_0_split -> fc8_plantvillage_fc8_plantvillage_0_split_0
I0403 14:41:24.897934 30125 net.cpp:399] fc8_plantvillage_fc8_plantvillage_0_split -> fc8_plantvillage_fc8_plantvillage_0_split_1
I0403 14:41:24.897953 30125 net.cpp:399] fc8_plantvillage_fc8_plantvillage_0_split -> fc8_plantvillage_fc8_plantvillage_0_split_2
I0403 14:41:24.898027 30125 net.cpp:141] Setting up fc8_plantvillage_fc8_plantvillage_0_split
I0403 14:41:24.898049 30125 net.cpp:148] Top shape: 100 38 (3800)
I0403 14:41:24.898064 30125 net.cpp:148] Top shape: 100 38 (3800)
I0403 14:41:24.898079 30125 net.cpp:148] Top shape: 100 38 (3800)
I0403 14:41:24.898092 30125 net.cpp:156] Memory required for data: 831586800
I0403 14:41:24.898105 30125 layer_factory.hpp:77] Creating layer prob
I0403 14:41:24.898123 30125 net.cpp:91] Creating Layer prob
I0403 14:41:24.898138 30125 net.cpp:425] prob <- fc8_plantvillage_fc8_plantvillage_0_split_0
I0403 14:41:24.898156 30125 net.cpp:399] prob -> prob
I0403 14:41:24.898365 30125 net.cpp:141] Setting up prob
I0403 14:41:24.898391 30125 net.cpp:148] Top shape: 100 38 (3800)
I0403 14:41:24.898406 30125 net.cpp:156] Memory required for data: 831602000
I0403 14:41:24.898421 30125 layer_factory.hpp:77] Creating layer hdf5out
I0403 14:41:24.898438 30125 net.cpp:91] Creating Layer hdf5out
I0403 14:41:24.898452 30125 net.cpp:425] hdf5out <- prob
I0403 14:41:24.898468 30125 net.cpp:425] hdf5out <- label_data_1_split_0
I0403 14:41:24.901995 30125 net.cpp:141] Setting up hdf5out
…
