…
I0403 14:32:02.904135 29924 net.cpp:313] The NetState phase (1) differed from the phase (0) specified by a rule in layer data
I0403 14:32:02.904887 29924 net.cpp:49] Initializing net from parameters: 
state {
  phase: TEST
}
layer {
  name: "data"
  type: "Data"
  top: "data"
  top: "label"
  include {
    phase: TEST
  }
  transform_param {
    crop_size: 227
    mean_file: "/home/mohanty/data/final_dataset/lmdb/segmented-40-60/mean.binaryproto"
  }
  data_param {
    source: "/home/mohanty/data/final_dataset/lmdb/segmented-40-60/test_db"
    batch_size: 100
    backend: LMDB
  }
}
layer {
  name: "conv1"
  type: "Convolution"
  bottom: "data"
  top: "conv1"
  param {
    lr_mult: 1
    decay_mult: 1
  }
  param {
    lr_mult: 2
    decay_mult: 0
  }
  convolution_param {
    num_output: 96
    kernel_size: 11
    stride: 4
    weight_filler {
      type: "gaussian"
      std: 0.01
    }
    bias_filler {
      type: "constant"
      value: 0
    }
  }
}
layer {
  name: "relu1"
  type: "ReLU"
  bottom: "conv1"
  top: "conv1"
}
layer {
  name: "norm1"
  type: "LRN"
  bottom: "conv1"
  top: "norm1"
  lrn_param {
    local_size: 5
    alpha: 0.0001
    beta: 0.75
  }
}
layer {
  name: "pool1"
  type: "Pooling"
  bottom: "norm1"
  top: "pool1"
  pooling_param {
    pool: MAX
    kernel_size: 3
    stride: 2
  }
}
layer {
  name: "conv2"
  type: "Convolution"
  bottom: "pool1"
  top: "conv2"
  param {
    lr_mult: 1
    decay_mult: 1
  }
  param {
    lr_mult: 2
    decay_mult: 0
  }
  convolution_param {
    num_output: 256
    pad: 2
    kernel_size: 5
    group: 2
    weight_filler {
      type: "gaussian"
      std: 0.01
    }
    bias_filler {
      type: "constant"
      value: 0.1
    }
  }
}
layer {
  name: "relu2"
  type: "ReLU"
  bottom: "conv2"
  top: "conv2"
}
layer {
  name: "norm2"
  type: "LRN"
  bottom: "conv2"
  top: "norm2"
  lrn_param {
    local_size: 5
    alpha: 0.0001
    beta: 0.75
  }
}
layer {
  name: "pool2"
  type: "Pooling"
  bottom: "norm2"
  top: "pool2"
  pooling_param {
    pool: MAX
    kernel_size: 3
    stride: 2
  }
}
layer {
  name: "conv3"
  type: "Convolution"
  bottom: "pool2"
  top: "conv3"
  param {
    lr_mult: 1
    decay_mult: 1
  }
  param {
    lr_mult: 2
    decay_mult: 0
  }
  convolution_param {
    num_output: 384
    pad: 1
    kernel_size: 3
    weight_filler {
      type: "gaussian"
      std: 0.01
    }
    bias_filler {
      type: "constant"
      value: 0
    }
  }
}
layer {
  name: "relu3"
  type: "ReLU"
  bottom: "conv3"
  top: "conv3"
}
layer {
  name: "conv4"
  type: "Convolution"
  bottom: "conv3"
  top: "conv4"
  param {
    lr_mult: 1
    decay_mult: 1
  }
  param {
    lr_mult: 2
    decay_mult: 0
  }
  convolution_param {
    num_output: 384
    pad: 1
    kernel_size: 3
    group: 2
    weight_filler {
      type: "gaussian"
      std: 0.01
    }
    bias_filler {
      type: "constant"
      value: 0.1
    }
  }
}
layer {
  name: "relu4"
  type: "ReLU"
  bottom: "conv4"
  top: "conv4"
}
layer {
  name: "conv5"
  type: "Convolution"
  bottom: "conv4"
  top: "conv5"
  param {
    lr_mult: 1
    decay_mult: 1
  }
  param {
    lr_mult: 2
    decay_mult: 0
  }
  convolution_param {
    num_output: 256
    pad: 1
    kernel_size: 3
    group: 2
    weight_filler {
      type: "gaussian"
      std: 0.01
    }
    bias_filler {
      type: "constant"
      value: 0.1
    }
  }
}
layer {
  name: "relu5"
  type: "ReLU"
  bottom: "conv5"
  top: "conv5"
}
layer {
  name: "pool5"
  type: "Pooling"
  bottom: "conv5"
  top: "pool5"
  pooling_param {
    pool: MAX
    kernel_size: 3
    stride: 2
  }
}
layer {
  name: "fc6"
  type: "InnerProduct"
  bottom: "pool5"
  top: "fc6"
  param {
    lr_mult: 1
    decay_mult: 1
  }
  param {
    lr_mult: 2
    decay_mult: 0
  }
  inner_product_param {
    num_output: 4096
    weight_filler {
      type: "gaussian"
      std: 0.005
    }
    bias_filler {
      type: "constant"
      value: 0.1
    }
  }
}
layer {
  name: "relu6"
  type: "ReLU"
  bottom: "fc6"
  top: "fc6"
}
layer {
  name: "drop6"
  type: "Dropout"
  bottom: "fc6"
  top: "fc6"
  dropout_param {
    dropout_ratio: 0.5
  }
}
layer {
  name: "fc7"
  type: "InnerProduct"
  bottom: "fc6"
  top: "fc7"
  param {
    lr_mult: 1
    decay_mult: 1
  }
  param {
    lr_mult: 2
    decay_mult: 0
  }
  inner_product_param {
    num_output: 4096
    weight_filler {
      type: "gaussian"
      std: 0.005
    }
    bias_filler {
      type: "constant"
      value: 0.1
    }
  }
}
layer {
  name: "relu7"
  type: "ReLU"
  bottom: "fc7"
  top: "fc7"
}
layer {
  name: "drop7"
  type: "Dropout"
  bottom: "fc7"
  top: "fc7"
  dropout_param {
    dropout_ratio: 0.5
  }
}
layer {
  name: "fc8_plantvillage"
  type: "InnerProduct"
  bottom: "fc7"
  top: "fc8_plantvillage"
  param {
    lr_mult: 1
    decay_mult: 1
  }
  param {
    lr_mult: 2
    decay_mult: 0
  }
  inner_product_param {
    num_output: 38
    weight_filler {
      type: "gaussian"
      std: 0.01
    }
    bias_filler {
      type: "constant"
      value: 0
    }
  }
}
layer {
  name: "prob"
  type: "Softmax"
  bottom: "fc8_plantvillage"
  top: "prob"
  include {
    phase: TEST
  }
}
layer {
  name: "hdf5out"
  type: "HDF5Output"
  bottom: "prob"
  bottom: "label"
  include {
    phase: TEST
  }
  hdf5_output_param {
    file_name: "hdf5_dumps/iter_876.h5"
  }
}
layer {
  name: "loss"
  type: "SoftmaxWithLoss"
  bottom: "fc8_plantvillage"
  bottom: "label"
  top: "loss"
}
layer {
  name: "accuracy"
  type: "Accuracy"
  bottom: "fc8_plantvillage"
  bottom: "label"
  top: "accuracy"
  include {
    phase: TEST
  }
}
I0403 14:32:02.906107 29924 layer_factory.hpp:77] Creating layer data
I0403 14:32:02.907724 29924 net.cpp:91] Creating Layer data
I0403 14:32:02.907783 29924 net.cpp:399] data -> data
I0403 14:32:02.907842 29924 net.cpp:399] data -> label
I0403 14:32:02.907881 29924 data_transformer.cpp:25] Loading mean file from: /home/mohanty/data/final_dataset/lmdb/segmented-40-60/mean.binaryproto
I0403 14:32:02.911522 29926 db_lmdb.cpp:38] Opened lmdb /home/mohanty/data/final_dataset/lmdb/segmented-40-60/test_db
I0403 14:32:02.925039 29924 data_layer.cpp:41] output data size: 100,3,227,227
I0403 14:32:03.044638 29924 net.cpp:141] Setting up data
I0403 14:32:03.044756 29924 net.cpp:148] Top shape: 100 3 227 227 (15458700)
I0403 14:32:03.044780 29924 net.cpp:148] Top shape: 100 (100)
I0403 14:32:03.044795 29924 net.cpp:156] Memory required for data: 61835200
I0403 14:32:03.044826 29924 layer_factory.hpp:77] Creating layer label_data_1_split
I0403 14:32:03.044855 29924 net.cpp:91] Creating Layer label_data_1_split
I0403 14:32:03.044874 29924 net.cpp:425] label_data_1_split <- label
I0403 14:32:03.044910 29924 net.cpp:399] label_data_1_split -> label_data_1_split_0
I0403 14:32:03.044941 29924 net.cpp:399] label_data_1_split -> label_data_1_split_1
I0403 14:32:03.044963 29924 net.cpp:399] label_data_1_split -> label_data_1_split_2
I0403 14:32:03.045029 29924 net.cpp:141] Setting up label_data_1_split
I0403 14:32:03.045053 29924 net.cpp:148] Top shape: 100 (100)
I0403 14:32:03.045070 29924 net.cpp:148] Top shape: 100 (100)
I0403 14:32:03.045086 29924 net.cpp:148] Top shape: 100 (100)
I0403 14:32:03.045101 29924 net.cpp:156] Memory required for data: 61836400
I0403 14:32:03.045117 29924 layer_factory.hpp:77] Creating layer conv1
I0403 14:32:03.045152 29924 net.cpp:91] Creating Layer conv1
I0403 14:32:03.045177 29924 net.cpp:425] conv1 <- data
I0403 14:32:03.045198 29924 net.cpp:399] conv1 -> conv1
I0403 14:32:03.183063 29924 net.cpp:141] Setting up conv1
I0403 14:32:03.183130 29924 net.cpp:148] Top shape: 100 96 55 55 (29040000)
I0403 14:32:03.183147 29924 net.cpp:156] Memory required for data: 177996400
I0403 14:32:03.183182 29924 layer_factory.hpp:77] Creating layer relu1
I0403 14:32:03.183210 29924 net.cpp:91] Creating Layer relu1
I0403 14:32:03.183228 29924 net.cpp:425] relu1 <- conv1
I0403 14:32:03.183248 29924 net.cpp:386] relu1 -> conv1 (in-place)
I0403 14:32:03.183501 29924 net.cpp:141] Setting up relu1
I0403 14:32:03.183526 29924 net.cpp:148] Top shape: 100 96 55 55 (29040000)
I0403 14:32:03.183589 29924 net.cpp:156] Memory required for data: 294156400
I0403 14:32:03.183606 29924 layer_factory.hpp:77] Creating layer norm1
I0403 14:32:03.183635 29924 net.cpp:91] Creating Layer norm1
I0403 14:32:03.183653 29924 net.cpp:425] norm1 <- conv1
I0403 14:32:03.183671 29924 net.cpp:399] norm1 -> norm1
I0403 14:32:03.183975 29924 net.cpp:141] Setting up norm1
I0403 14:32:03.184003 29924 net.cpp:148] Top shape: 100 96 55 55 (29040000)
I0403 14:32:03.184018 29924 net.cpp:156] Memory required for data: 410316400
I0403 14:32:03.184034 29924 layer_factory.hpp:77] Creating layer pool1
I0403 14:32:03.184057 29924 net.cpp:91] Creating Layer pool1
I0403 14:32:03.184074 29924 net.cpp:425] pool1 <- norm1
I0403 14:32:03.184092 29924 net.cpp:399] pool1 -> pool1
I0403 14:32:03.184178 29924 net.cpp:141] Setting up pool1
I0403 14:32:03.184202 29924 net.cpp:148] Top shape: 100 96 27 27 (6998400)
I0403 14:32:03.184218 29924 net.cpp:156] Memory required for data: 438310000
I0403 14:32:03.184233 29924 layer_factory.hpp:77] Creating layer conv2
I0403 14:32:03.184259 29924 net.cpp:91] Creating Layer conv2
I0403 14:32:03.184274 29924 net.cpp:425] conv2 <- pool1
I0403 14:32:03.184291 29924 net.cpp:399] conv2 -> conv2
I0403 14:32:03.198839 29924 net.cpp:141] Setting up conv2
I0403 14:32:03.198876 29924 net.cpp:148] Top shape: 100 256 27 27 (18662400)
I0403 14:32:03.198894 29924 net.cpp:156] Memory required for data: 512959600
I0403 14:32:03.198915 29924 layer_factory.hpp:77] Creating layer relu2
I0403 14:32:03.198935 29924 net.cpp:91] Creating Layer relu2
I0403 14:32:03.198950 29924 net.cpp:425] relu2 <- conv2
I0403 14:32:03.198966 29924 net.cpp:386] relu2 -> conv2 (in-place)
I0403 14:32:03.199221 29924 net.cpp:141] Setting up relu2
I0403 14:32:03.199247 29924 net.cpp:148] Top shape: 100 256 27 27 (18662400)
I0403 14:32:03.199262 29924 net.cpp:156] Memory required for data: 587609200
I0403 14:32:03.199278 29924 layer_factory.hpp:77] Creating layer norm2
I0403 14:32:03.199297 29924 net.cpp:91] Creating Layer norm2
I0403 14:32:03.199313 29924 net.cpp:425] norm2 <- conv2
I0403 14:32:03.199331 29924 net.cpp:399] norm2 -> norm2
I0403 14:32:03.199506 29924 net.cpp:141] Setting up norm2
I0403 14:32:03.199537 29924 net.cpp:148] Top shape: 100 256 27 27 (18662400)
I0403 14:32:03.199553 29924 net.cpp:156] Memory required for data: 662258800
I0403 14:32:03.199568 29924 layer_factory.hpp:77] Creating layer pool2
I0403 14:32:03.199585 29924 net.cpp:91] Creating Layer pool2
I0403 14:32:03.199601 29924 net.cpp:425] pool2 <- norm2
I0403 14:32:03.199618 29924 net.cpp:399] pool2 -> pool2
I0403 14:32:03.199666 29924 net.cpp:141] Setting up pool2
I0403 14:32:03.199688 29924 net.cpp:148] Top shape: 100 256 13 13 (4326400)
I0403 14:32:03.199705 29924 net.cpp:156] Memory required for data: 679564400
I0403 14:32:03.199720 29924 layer_factory.hpp:77] Creating layer conv3
I0403 14:32:03.199740 29924 net.cpp:91] Creating Layer conv3
I0403 14:32:03.199756 29924 net.cpp:425] conv3 <- pool2
I0403 14:32:03.199774 29924 net.cpp:399] conv3 -> conv3
I0403 14:32:03.237196 29924 net.cpp:141] Setting up conv3
I0403 14:32:03.237249 29924 net.cpp:148] Top shape: 100 384 13 13 (6489600)
I0403 14:32:03.237272 29924 net.cpp:156] Memory required for data: 705522800
I0403 14:32:03.237295 29924 layer_factory.hpp:77] Creating layer relu3
I0403 14:32:03.237315 29924 net.cpp:91] Creating Layer relu3
I0403 14:32:03.237332 29924 net.cpp:425] relu3 <- conv3
I0403 14:32:03.237351 29924 net.cpp:386] relu3 -> conv3 (in-place)
I0403 14:32:03.237642 29924 net.cpp:141] Setting up relu3
I0403 14:32:03.237668 29924 net.cpp:148] Top shape: 100 384 13 13 (6489600)
I0403 14:32:03.237682 29924 net.cpp:156] Memory required for data: 731481200
I0403 14:32:03.237697 29924 layer_factory.hpp:77] Creating layer conv4
I0403 14:32:03.237722 29924 net.cpp:91] Creating Layer conv4
I0403 14:32:03.237740 29924 net.cpp:425] conv4 <- conv3
I0403 14:32:03.237757 29924 net.cpp:399] conv4 -> conv4
I0403 14:32:03.267040 29924 net.cpp:141] Setting up conv4
I0403 14:32:03.267082 29924 net.cpp:148] Top shape: 100 384 13 13 (6489600)
I0403 14:32:03.267134 29924 net.cpp:156] Memory required for data: 757439600
I0403 14:32:03.267156 29924 layer_factory.hpp:77] Creating layer relu4
I0403 14:32:03.267175 29924 net.cpp:91] Creating Layer relu4
I0403 14:32:03.267191 29924 net.cpp:425] relu4 <- conv4
I0403 14:32:03.267210 29924 net.cpp:386] relu4 -> conv4 (in-place)
I0403 14:32:03.267485 29924 net.cpp:141] Setting up relu4
I0403 14:32:03.267513 29924 net.cpp:148] Top shape: 100 384 13 13 (6489600)
I0403 14:32:03.267529 29924 net.cpp:156] Memory required for data: 783398000
I0403 14:32:03.267551 29924 layer_factory.hpp:77] Creating layer conv5
I0403 14:32:03.267575 29924 net.cpp:91] Creating Layer conv5
I0403 14:32:03.267590 29924 net.cpp:425] conv5 <- conv4
I0403 14:32:03.267613 29924 net.cpp:399] conv5 -> conv5
I0403 14:32:03.287812 29924 net.cpp:141] Setting up conv5
I0403 14:32:03.287847 29924 net.cpp:148] Top shape: 100 256 13 13 (4326400)
I0403 14:32:03.287864 29924 net.cpp:156] Memory required for data: 800703600
I0403 14:32:03.287889 29924 layer_factory.hpp:77] Creating layer relu5
I0403 14:32:03.287907 29924 net.cpp:91] Creating Layer relu5
I0403 14:32:03.287924 29924 net.cpp:425] relu5 <- conv5
I0403 14:32:03.287942 29924 net.cpp:386] relu5 -> conv5 (in-place)
I0403 14:32:03.288211 29924 net.cpp:141] Setting up relu5
I0403 14:32:03.288239 29924 net.cpp:148] Top shape: 100 256 13 13 (4326400)
I0403 14:32:03.288254 29924 net.cpp:156] Memory required for data: 818009200
I0403 14:32:03.288269 29924 layer_factory.hpp:77] Creating layer pool5
I0403 14:32:03.288293 29924 net.cpp:91] Creating Layer pool5
I0403 14:32:03.288339 29924 net.cpp:425] pool5 <- conv5
I0403 14:32:03.288360 29924 net.cpp:399] pool5 -> pool5
I0403 14:32:03.288419 29924 net.cpp:141] Setting up pool5
I0403 14:32:03.288445 29924 net.cpp:148] Top shape: 100 256 6 6 (921600)
I0403 14:32:03.288460 29924 net.cpp:156] Memory required for data: 821695600
I0403 14:32:03.288475 29924 layer_factory.hpp:77] Creating layer fc6
I0403 14:32:03.288502 29924 net.cpp:91] Creating Layer fc6
I0403 14:32:03.288519 29924 net.cpp:425] fc6 <- pool5
I0403 14:32:03.288544 29924 net.cpp:399] fc6 -> fc6
I0403 14:32:04.776005 29924 net.cpp:141] Setting up fc6
I0403 14:32:04.776103 29924 net.cpp:148] Top shape: 100 4096 (409600)
I0403 14:32:04.776121 29924 net.cpp:156] Memory required for data: 823334000
I0403 14:32:04.776144 29924 layer_factory.hpp:77] Creating layer relu6
I0403 14:32:04.776166 29924 net.cpp:91] Creating Layer relu6
I0403 14:32:04.776183 29924 net.cpp:425] relu6 <- fc6
I0403 14:32:04.776202 29924 net.cpp:386] relu6 -> fc6 (in-place)
I0403 14:32:04.776434 29924 net.cpp:141] Setting up relu6
I0403 14:32:04.776459 29924 net.cpp:148] Top shape: 100 4096 (409600)
I0403 14:32:04.776474 29924 net.cpp:156] Memory required for data: 824972400
I0403 14:32:04.776489 29924 layer_factory.hpp:77] Creating layer drop6
I0403 14:32:04.776510 29924 net.cpp:91] Creating Layer drop6
I0403 14:32:04.776525 29924 net.cpp:425] drop6 <- fc6
I0403 14:32:04.776545 29924 net.cpp:386] drop6 -> fc6 (in-place)
I0403 14:32:04.776597 29924 net.cpp:141] Setting up drop6
I0403 14:32:04.776618 29924 net.cpp:148] Top shape: 100 4096 (409600)
I0403 14:32:04.776630 29924 net.cpp:156] Memory required for data: 826610800
I0403 14:32:04.776644 29924 layer_factory.hpp:77] Creating layer fc7
I0403 14:32:04.776674 29924 net.cpp:91] Creating Layer fc7
I0403 14:32:04.776689 29924 net.cpp:425] fc7 <- fc6
I0403 14:32:04.776707 29924 net.cpp:399] fc7 -> fc7
I0403 14:32:05.436697 29924 net.cpp:141] Setting up fc7
I0403 14:32:05.436789 29924 net.cpp:148] Top shape: 100 4096 (409600)
I0403 14:32:05.436805 29924 net.cpp:156] Memory required for data: 828249200
I0403 14:32:05.436826 29924 layer_factory.hpp:77] Creating layer relu7
I0403 14:32:05.436848 29924 net.cpp:91] Creating Layer relu7
I0403 14:32:05.436866 29924 net.cpp:425] relu7 <- fc7
I0403 14:32:05.436883 29924 net.cpp:386] relu7 -> fc7 (in-place)
I0403 14:32:05.437294 29924 net.cpp:141] Setting up relu7
I0403 14:32:05.437319 29924 net.cpp:148] Top shape: 100 4096 (409600)
I0403 14:32:05.437371 29924 net.cpp:156] Memory required for data: 829887600
I0403 14:32:05.437391 29924 layer_factory.hpp:77] Creating layer drop7
I0403 14:32:05.437409 29924 net.cpp:91] Creating Layer drop7
I0403 14:32:05.437424 29924 net.cpp:425] drop7 <- fc7
I0403 14:32:05.437440 29924 net.cpp:386] drop7 -> fc7 (in-place)
I0403 14:32:05.437484 29924 net.cpp:141] Setting up drop7
I0403 14:32:05.437510 29924 net.cpp:148] Top shape: 100 4096 (409600)
I0403 14:32:05.437525 29924 net.cpp:156] Memory required for data: 831526000
I0403 14:32:05.437539 29924 layer_factory.hpp:77] Creating layer fc8_plantvillage
I0403 14:32:05.437561 29924 net.cpp:91] Creating Layer fc8_plantvillage
I0403 14:32:05.437575 29924 net.cpp:425] fc8_plantvillage <- fc7
I0403 14:32:05.437592 29924 net.cpp:399] fc8_plantvillage -> fc8_plantvillage
I0403 14:32:05.443927 29924 net.cpp:141] Setting up fc8_plantvillage
I0403 14:32:05.443953 29924 net.cpp:148] Top shape: 100 38 (3800)
I0403 14:32:05.443967 29924 net.cpp:156] Memory required for data: 831541200
I0403 14:32:05.443984 29924 layer_factory.hpp:77] Creating layer fc8_plantvillage_fc8_plantvillage_0_split
I0403 14:32:05.444002 29924 net.cpp:91] Creating Layer fc8_plantvillage_fc8_plantvillage_0_split
I0403 14:32:05.444017 29924 net.cpp:425] fc8_plantvillage_fc8_plantvillage_0_split <- fc8_plantvillage
I0403 14:32:05.444036 29924 net.cpp:399] fc8_plantvillage_fc8_plantvillage_0_split -> fc8_plantvillage_fc8_plantvillage_0_split_0
I0403 14:32:05.444056 29924 net.cpp:399] fc8_plantvillage_fc8_plantvillage_0_split -> fc8_plantvillage_fc8_plantvillage_0_split_1
I0403 14:32:05.444073 29924 net.cpp:399] fc8_plantvillage_fc8_plantvillage_0_split -> fc8_plantvillage_fc8_plantvillage_0_split_2
I0403 14:32:05.444149 29924 net.cpp:141] Setting up fc8_plantvillage_fc8_plantvillage_0_split
I0403 14:32:05.444170 29924 net.cpp:148] Top shape: 100 38 (3800)
I0403 14:32:05.444185 29924 net.cpp:148] Top shape: 100 38 (3800)
I0403 14:32:05.444200 29924 net.cpp:148] Top shape: 100 38 (3800)
I0403 14:32:05.444212 29924 net.cpp:156] Memory required for data: 831586800
I0403 14:32:05.444226 29924 layer_factory.hpp:77] Creating layer prob
I0403 14:32:05.444245 29924 net.cpp:91] Creating Layer prob
I0403 14:32:05.444260 29924 net.cpp:425] prob <- fc8_plantvillage_fc8_plantvillage_0_split_0
I0403 14:32:05.444278 29924 net.cpp:399] prob -> prob
I0403 14:32:05.444486 29924 net.cpp:141] Setting up prob
I0403 14:32:05.444519 29924 net.cpp:148] Top shape: 100 38 (3800)
I0403 14:32:05.444535 29924 net.cpp:156] Memory required for data: 831602000
I0403 14:32:05.444548 29924 layer_factory.hpp:77] Creating layer hdf5out
I0403 14:32:05.444566 29924 net.cpp:91] Creating Layer hdf5out
I0403 14:32:05.444581 29924 net.cpp:425] hdf5out <- prob
I0403 14:32:05.444597 29924 net.cpp:425] hdf5out <- label_data_1_split_0
I0403 14:32:05.449023 29924 net.cpp:141] Setting up hdf5out
…
