…
I0403 14:47:08.284183 30302 net.cpp:313] The NetState phase (1) differed from the phase (0) specified by a rule in layer data
I0403 14:47:08.284504 30302 net.cpp:49] Initializing net from parameters: 
state {
  phase: TEST
}
layer {
  name: "data"
  type: "Data"
  top: "data"
  top: "label"
  include {
    phase: TEST
  }
  transform_param {
    crop_size: 227
    mean_file: "/home/mohanty/data/final_dataset/lmdb/segmented-40-60/mean.binaryproto"
  }
  data_param {
    source: "/home/mohanty/data/final_dataset/lmdb/segmented-40-60/test_db"
    batch_size: 100
    backend: LMDB
  }
}
layer {
  name: "conv1"
  type: "Convolution"
  bottom: "data"
  top: "conv1"
  param {
    lr_mult: 1
    decay_mult: 1
  }
  param {
    lr_mult: 2
    decay_mult: 0
  }
  convolution_param {
    num_output: 96
    kernel_size: 11
    stride: 4
    weight_filler {
      type: "gaussian"
      std: 0.01
    }
    bias_filler {
      type: "constant"
      value: 0
    }
  }
}
layer {
  name: "relu1"
  type: "ReLU"
  bottom: "conv1"
  top: "conv1"
}
layer {
  name: "norm1"
  type: "LRN"
  bottom: "conv1"
  top: "norm1"
  lrn_param {
    local_size: 5
    alpha: 0.0001
    beta: 0.75
  }
}
layer {
  name: "pool1"
  type: "Pooling"
  bottom: "norm1"
  top: "pool1"
  pooling_param {
    pool: MAX
    kernel_size: 3
    stride: 2
  }
}
layer {
  name: "conv2"
  type: "Convolution"
  bottom: "pool1"
  top: "conv2"
  param {
    lr_mult: 1
    decay_mult: 1
  }
  param {
    lr_mult: 2
    decay_mult: 0
  }
  convolution_param {
    num_output: 256
    pad: 2
    kernel_size: 5
    group: 2
    weight_filler {
      type: "gaussian"
      std: 0.01
    }
    bias_filler {
      type: "constant"
      value: 0.1
    }
  }
}
layer {
  name: "relu2"
  type: "ReLU"
  bottom: "conv2"
  top: "conv2"
}
layer {
  name: "norm2"
  type: "LRN"
  bottom: "conv2"
  top: "norm2"
  lrn_param {
    local_size: 5
    alpha: 0.0001
    beta: 0.75
  }
}
layer {
  name: "pool2"
  type: "Pooling"
  bottom: "norm2"
  top: "pool2"
  pooling_param {
    pool: MAX
    kernel_size: 3
    stride: 2
  }
}
layer {
  name: "conv3"
  type: "Convolution"
  bottom: "pool2"
  top: "conv3"
  param {
    lr_mult: 1
    decay_mult: 1
  }
  param {
    lr_mult: 2
    decay_mult: 0
  }
  convolution_param {
    num_output: 384
    pad: 1
    kernel_size: 3
    weight_filler {
      type: "gaussian"
      std: 0.01
    }
    bias_filler {
      type: "constant"
      value: 0
    }
  }
}
layer {
  name: "relu3"
  type: "ReLU"
  bottom: "conv3"
  top: "conv3"
}
layer {
  name: "conv4"
  type: "Convolution"
  bottom: "conv3"
  top: "conv4"
  param {
    lr_mult: 1
    decay_mult: 1
  }
  param {
    lr_mult: 2
    decay_mult: 0
  }
  convolution_param {
    num_output: 384
    pad: 1
    kernel_size: 3
    group: 2
    weight_filler {
      type: "gaussian"
      std: 0.01
    }
    bias_filler {
      type: "constant"
      value: 0.1
    }
  }
}
layer {
  name: "relu4"
  type: "ReLU"
  bottom: "conv4"
  top: "conv4"
}
layer {
  name: "conv5"
  type: "Convolution"
  bottom: "conv4"
  top: "conv5"
  param {
    lr_mult: 1
    decay_mult: 1
  }
  param {
    lr_mult: 2
    decay_mult: 0
  }
  convolution_param {
    num_output: 256
    pad: 1
    kernel_size: 3
    group: 2
    weight_filler {
      type: "gaussian"
      std: 0.01
    }
    bias_filler {
      type: "constant"
      value: 0.1
    }
  }
}
layer {
  name: "relu5"
  type: "ReLU"
  bottom: "conv5"
  top: "conv5"
}
layer {
  name: "pool5"
  type: "Pooling"
  bottom: "conv5"
  top: "pool5"
  pooling_param {
    pool: MAX
    kernel_size: 3
    stride: 2
  }
}
layer {
  name: "fc6"
  type: "InnerProduct"
  bottom: "pool5"
  top: "fc6"
  param {
    lr_mult: 1
    decay_mult: 1
  }
  param {
    lr_mult: 2
    decay_mult: 0
  }
  inner_product_param {
    num_output: 4096
    weight_filler {
      type: "gaussian"
      std: 0.005
    }
    bias_filler {
      type: "constant"
      value: 0.1
    }
  }
}
layer {
  name: "relu6"
  type: "ReLU"
  bottom: "fc6"
  top: "fc6"
}
layer {
  name: "drop6"
  type: "Dropout"
  bottom: "fc6"
  top: "fc6"
  dropout_param {
    dropout_ratio: 0.5
  }
}
layer {
  name: "fc7"
  type: "InnerProduct"
  bottom: "fc6"
  top: "fc7"
  param {
    lr_mult: 1
    decay_mult: 1
  }
  param {
    lr_mult: 2
    decay_mult: 0
  }
  inner_product_param {
    num_output: 4096
    weight_filler {
      type: "gaussian"
      std: 0.005
    }
    bias_filler {
      type: "constant"
      value: 0.1
    }
  }
}
layer {
  name: "relu7"
  type: "ReLU"
  bottom: "fc7"
  top: "fc7"
}
layer {
  name: "drop7"
  type: "Dropout"
  bottom: "fc7"
  top: "fc7"
  dropout_param {
    dropout_ratio: 0.5
  }
}
layer {
  name: "fc8_plantvillage"
  type: "InnerProduct"
  bottom: "fc7"
  top: "fc8_plantvillage"
  param {
    lr_mult: 1
    decay_mult: 1
  }
  param {
    lr_mult: 2
    decay_mult: 0
  }
  inner_product_param {
    num_output: 38
    weight_filler {
      type: "gaussian"
      std: 0.01
    }
    bias_filler {
      type: "constant"
      value: 0
    }
  }
}
layer {
  name: "prob"
  type: "Softmax"
  bottom: "fc8_plantvillage"
  top: "prob"
  include {
    phase: TEST
  }
}
layer {
  name: "hdf5out"
  type: "HDF5Output"
  bottom: "prob"
  bottom: "label"
  include {
    phase: TEST
  }
  hdf5_output_param {
    file_name: "hdf5_dumps/iter_4380.h5"
  }
}
layer {
  name: "loss"
  type: "SoftmaxWithLoss"
  bottom: "fc8_plantvillage"
  bottom: "label"
  top: "loss"
}
layer {
  name: "accuracy"
  type: "Accuracy"
  bottom: "fc8_plantvillage"
  bottom: "label"
  top: "accuracy"
  include {
    phase: TEST
  }
}
I0403 14:47:08.285115 30302 layer_factory.hpp:77] Creating layer data
I0403 14:47:08.285754 30302 net.cpp:91] Creating Layer data
I0403 14:47:08.285786 30302 net.cpp:399] data -> data
I0403 14:47:08.285842 30302 net.cpp:399] data -> label
I0403 14:47:08.285879 30302 data_transformer.cpp:25] Loading mean file from: /home/mohanty/data/final_dataset/lmdb/segmented-40-60/mean.binaryproto
I0403 14:47:08.288297 30304 db_lmdb.cpp:38] Opened lmdb /home/mohanty/data/final_dataset/lmdb/segmented-40-60/test_db
I0403 14:47:08.299885 30302 data_layer.cpp:41] output data size: 100,3,227,227
I0403 14:47:08.416327 30302 net.cpp:141] Setting up data
I0403 14:47:08.416447 30302 net.cpp:148] Top shape: 100 3 227 227 (15458700)
I0403 14:47:08.416472 30302 net.cpp:148] Top shape: 100 (100)
I0403 14:47:08.416491 30302 net.cpp:156] Memory required for data: 61835200
I0403 14:47:08.416523 30302 layer_factory.hpp:77] Creating layer label_data_1_split
I0403 14:47:08.416556 30302 net.cpp:91] Creating Layer label_data_1_split
I0403 14:47:08.416576 30302 net.cpp:425] label_data_1_split <- label
I0403 14:47:08.416612 30302 net.cpp:399] label_data_1_split -> label_data_1_split_0
I0403 14:47:08.416640 30302 net.cpp:399] label_data_1_split -> label_data_1_split_1
I0403 14:47:08.416659 30302 net.cpp:399] label_data_1_split -> label_data_1_split_2
I0403 14:47:08.416723 30302 net.cpp:141] Setting up label_data_1_split
I0403 14:47:08.416746 30302 net.cpp:148] Top shape: 100 (100)
I0403 14:47:08.416764 30302 net.cpp:148] Top shape: 100 (100)
I0403 14:47:08.416779 30302 net.cpp:148] Top shape: 100 (100)
I0403 14:47:08.416793 30302 net.cpp:156] Memory required for data: 61836400
I0403 14:47:08.416808 30302 layer_factory.hpp:77] Creating layer conv1
I0403 14:47:08.416843 30302 net.cpp:91] Creating Layer conv1
I0403 14:47:08.416862 30302 net.cpp:425] conv1 <- data
I0403 14:47:08.416882 30302 net.cpp:399] conv1 -> conv1
I0403 14:47:08.554225 30302 net.cpp:141] Setting up conv1
I0403 14:47:08.554322 30302 net.cpp:148] Top shape: 100 96 55 55 (29040000)
I0403 14:47:08.554339 30302 net.cpp:156] Memory required for data: 177996400
I0403 14:47:08.554374 30302 layer_factory.hpp:77] Creating layer relu1
I0403 14:47:08.554404 30302 net.cpp:91] Creating Layer relu1
I0403 14:47:08.554421 30302 net.cpp:425] relu1 <- conv1
I0403 14:47:08.554440 30302 net.cpp:386] relu1 -> conv1 (in-place)
I0403 14:47:08.554710 30302 net.cpp:141] Setting up relu1
I0403 14:47:08.554738 30302 net.cpp:148] Top shape: 100 96 55 55 (29040000)
I0403 14:47:08.554827 30302 net.cpp:156] Memory required for data: 294156400
I0403 14:47:08.554844 30302 layer_factory.hpp:77] Creating layer norm1
I0403 14:47:08.554872 30302 net.cpp:91] Creating Layer norm1
I0403 14:47:08.554890 30302 net.cpp:425] norm1 <- conv1
I0403 14:47:08.554908 30302 net.cpp:399] norm1 -> norm1
I0403 14:47:08.555212 30302 net.cpp:141] Setting up norm1
I0403 14:47:08.555240 30302 net.cpp:148] Top shape: 100 96 55 55 (29040000)
I0403 14:47:08.555255 30302 net.cpp:156] Memory required for data: 410316400
I0403 14:47:08.555270 30302 layer_factory.hpp:77] Creating layer pool1
I0403 14:47:08.555294 30302 net.cpp:91] Creating Layer pool1
I0403 14:47:08.555311 30302 net.cpp:425] pool1 <- norm1
I0403 14:47:08.555330 30302 net.cpp:399] pool1 -> pool1
I0403 14:47:08.555397 30302 net.cpp:141] Setting up pool1
I0403 14:47:08.555419 30302 net.cpp:148] Top shape: 100 96 27 27 (6998400)
I0403 14:47:08.555434 30302 net.cpp:156] Memory required for data: 438310000
I0403 14:47:08.555449 30302 layer_factory.hpp:77] Creating layer conv2
I0403 14:47:08.555474 30302 net.cpp:91] Creating Layer conv2
I0403 14:47:08.555490 30302 net.cpp:425] conv2 <- pool1
I0403 14:47:08.555507 30302 net.cpp:399] conv2 -> conv2
I0403 14:47:08.570183 30302 net.cpp:141] Setting up conv2
I0403 14:47:08.570224 30302 net.cpp:148] Top shape: 100 256 27 27 (18662400)
I0403 14:47:08.570241 30302 net.cpp:156] Memory required for data: 512959600
I0403 14:47:08.570264 30302 layer_factory.hpp:77] Creating layer relu2
I0403 14:47:08.570283 30302 net.cpp:91] Creating Layer relu2
I0403 14:47:08.570300 30302 net.cpp:425] relu2 <- conv2
I0403 14:47:08.570320 30302 net.cpp:386] relu2 -> conv2 (in-place)
I0403 14:47:08.570600 30302 net.cpp:141] Setting up relu2
I0403 14:47:08.570629 30302 net.cpp:148] Top shape: 100 256 27 27 (18662400)
I0403 14:47:08.570667 30302 net.cpp:156] Memory required for data: 587609200
I0403 14:47:08.570684 30302 layer_factory.hpp:77] Creating layer norm2
I0403 14:47:08.570706 30302 net.cpp:91] Creating Layer norm2
I0403 14:47:08.570724 30302 net.cpp:425] norm2 <- conv2
I0403 14:47:08.570744 30302 net.cpp:399] norm2 -> norm2
I0403 14:47:08.570938 30302 net.cpp:141] Setting up norm2
I0403 14:47:08.570965 30302 net.cpp:148] Top shape: 100 256 27 27 (18662400)
I0403 14:47:08.570979 30302 net.cpp:156] Memory required for data: 662258800
I0403 14:47:08.570993 30302 layer_factory.hpp:77] Creating layer pool2
I0403 14:47:08.571013 30302 net.cpp:91] Creating Layer pool2
I0403 14:47:08.571030 30302 net.cpp:425] pool2 <- norm2
I0403 14:47:08.571049 30302 net.cpp:399] pool2 -> pool2
I0403 14:47:08.571100 30302 net.cpp:141] Setting up pool2
I0403 14:47:08.571125 30302 net.cpp:148] Top shape: 100 256 13 13 (4326400)
I0403 14:47:08.571138 30302 net.cpp:156] Memory required for data: 679564400
I0403 14:47:08.571152 30302 layer_factory.hpp:77] Creating layer conv3
I0403 14:47:08.571176 30302 net.cpp:91] Creating Layer conv3
I0403 14:47:08.571192 30302 net.cpp:425] conv3 <- pool2
I0403 14:47:08.571211 30302 net.cpp:399] conv3 -> conv3
I0403 14:47:08.608525 30302 net.cpp:141] Setting up conv3
I0403 14:47:08.608587 30302 net.cpp:148] Top shape: 100 384 13 13 (6489600)
I0403 14:47:08.608605 30302 net.cpp:156] Memory required for data: 705522800
I0403 14:47:08.608628 30302 layer_factory.hpp:77] Creating layer relu3
I0403 14:47:08.608649 30302 net.cpp:91] Creating Layer relu3
I0403 14:47:08.608665 30302 net.cpp:425] relu3 <- conv3
I0403 14:47:08.608682 30302 net.cpp:386] relu3 -> conv3 (in-place)
I0403 14:47:08.608954 30302 net.cpp:141] Setting up relu3
I0403 14:47:08.608983 30302 net.cpp:148] Top shape: 100 384 13 13 (6489600)
I0403 14:47:08.608999 30302 net.cpp:156] Memory required for data: 731481200
I0403 14:47:08.609014 30302 layer_factory.hpp:77] Creating layer conv4
I0403 14:47:08.609040 30302 net.cpp:91] Creating Layer conv4
I0403 14:47:08.609055 30302 net.cpp:425] conv4 <- conv3
I0403 14:47:08.609073 30302 net.cpp:399] conv4 -> conv4
I0403 14:47:08.638015 30302 net.cpp:141] Setting up conv4
I0403 14:47:08.638062 30302 net.cpp:148] Top shape: 100 384 13 13 (6489600)
I0403 14:47:08.638115 30302 net.cpp:156] Memory required for data: 757439600
I0403 14:47:08.638136 30302 layer_factory.hpp:77] Creating layer relu4
I0403 14:47:08.638164 30302 net.cpp:91] Creating Layer relu4
I0403 14:47:08.638181 30302 net.cpp:425] relu4 <- conv4
I0403 14:47:08.638200 30302 net.cpp:386] relu4 -> conv4 (in-place)
I0403 14:47:08.638479 30302 net.cpp:141] Setting up relu4
I0403 14:47:08.638505 30302 net.cpp:148] Top shape: 100 384 13 13 (6489600)
I0403 14:47:08.638520 30302 net.cpp:156] Memory required for data: 783398000
I0403 14:47:08.638540 30302 layer_factory.hpp:77] Creating layer conv5
I0403 14:47:08.638563 30302 net.cpp:91] Creating Layer conv5
I0403 14:47:08.638581 30302 net.cpp:425] conv5 <- conv4
I0403 14:47:08.638602 30302 net.cpp:399] conv5 -> conv5
I0403 14:47:08.658542 30302 net.cpp:141] Setting up conv5
I0403 14:47:08.658581 30302 net.cpp:148] Top shape: 100 256 13 13 (4326400)
I0403 14:47:08.658597 30302 net.cpp:156] Memory required for data: 800703600
I0403 14:47:08.658622 30302 layer_factory.hpp:77] Creating layer relu5
I0403 14:47:08.658644 30302 net.cpp:91] Creating Layer relu5
I0403 14:47:08.658661 30302 net.cpp:425] relu5 <- conv5
I0403 14:47:08.658681 30302 net.cpp:386] relu5 -> conv5 (in-place)
I0403 14:47:08.658954 30302 net.cpp:141] Setting up relu5
I0403 14:47:08.658984 30302 net.cpp:148] Top shape: 100 256 13 13 (4326400)
I0403 14:47:08.659001 30302 net.cpp:156] Memory required for data: 818009200
I0403 14:47:08.659016 30302 layer_factory.hpp:77] Creating layer pool5
I0403 14:47:08.659039 30302 net.cpp:91] Creating Layer pool5
I0403 14:47:08.659054 30302 net.cpp:425] pool5 <- conv5
I0403 14:47:08.659075 30302 net.cpp:399] pool5 -> pool5
I0403 14:47:08.659134 30302 net.cpp:141] Setting up pool5
I0403 14:47:08.659162 30302 net.cpp:148] Top shape: 100 256 6 6 (921600)
I0403 14:47:08.659178 30302 net.cpp:156] Memory required for data: 821695600
I0403 14:47:08.659193 30302 layer_factory.hpp:77] Creating layer fc6
I0403 14:47:08.659220 30302 net.cpp:91] Creating Layer fc6
I0403 14:47:08.659237 30302 net.cpp:425] fc6 <- pool5
I0403 14:47:08.659257 30302 net.cpp:399] fc6 -> fc6
I0403 14:47:10.321609 30302 net.cpp:141] Setting up fc6
I0403 14:47:10.321683 30302 net.cpp:148] Top shape: 100 4096 (409600)
I0403 14:47:10.321699 30302 net.cpp:156] Memory required for data: 823334000
I0403 14:47:10.321720 30302 layer_factory.hpp:77] Creating layer relu6
I0403 14:47:10.321746 30302 net.cpp:91] Creating Layer relu6
I0403 14:47:10.321764 30302 net.cpp:425] relu6 <- fc6
I0403 14:47:10.321784 30302 net.cpp:386] relu6 -> fc6 (in-place)
I0403 14:47:10.322001 30302 net.cpp:141] Setting up relu6
I0403 14:47:10.322027 30302 net.cpp:148] Top shape: 100 4096 (409600)
I0403 14:47:10.322043 30302 net.cpp:156] Memory required for data: 824972400
I0403 14:47:10.322057 30302 layer_factory.hpp:77] Creating layer drop6
I0403 14:47:10.322077 30302 net.cpp:91] Creating Layer drop6
I0403 14:47:10.322090 30302 net.cpp:425] drop6 <- fc6
I0403 14:47:10.322106 30302 net.cpp:386] drop6 -> fc6 (in-place)
I0403 14:47:10.322160 30302 net.cpp:141] Setting up drop6
I0403 14:47:10.322183 30302 net.cpp:148] Top shape: 100 4096 (409600)
I0403 14:47:10.322196 30302 net.cpp:156] Memory required for data: 826610800
I0403 14:47:10.322211 30302 layer_factory.hpp:77] Creating layer fc7
I0403 14:47:10.322233 30302 net.cpp:91] Creating Layer fc7
I0403 14:47:10.322248 30302 net.cpp:425] fc7 <- fc6
I0403 14:47:10.322265 30302 net.cpp:399] fc7 -> fc7
I0403 14:47:11.072103 30302 net.cpp:141] Setting up fc7
I0403 14:47:11.072177 30302 net.cpp:148] Top shape: 100 4096 (409600)
I0403 14:47:11.072196 30302 net.cpp:156] Memory required for data: 828249200
I0403 14:47:11.072219 30302 layer_factory.hpp:77] Creating layer relu7
I0403 14:47:11.072244 30302 net.cpp:91] Creating Layer relu7
I0403 14:47:11.072263 30302 net.cpp:425] relu7 <- fc7
I0403 14:47:11.072283 30302 net.cpp:386] relu7 -> fc7 (in-place)
I0403 14:47:11.072705 30302 net.cpp:141] Setting up relu7
I0403 14:47:11.072736 30302 net.cpp:148] Top shape: 100 4096 (409600)
I0403 14:47:11.072794 30302 net.cpp:156] Memory required for data: 829887600
I0403 14:47:11.072811 30302 layer_factory.hpp:77] Creating layer drop7
I0403 14:47:11.072831 30302 net.cpp:91] Creating Layer drop7
I0403 14:47:11.072849 30302 net.cpp:425] drop7 <- fc7
I0403 14:47:11.072868 30302 net.cpp:386] drop7 -> fc7 (in-place)
I0403 14:47:11.072917 30302 net.cpp:141] Setting up drop7
I0403 14:47:11.072942 30302 net.cpp:148] Top shape: 100 4096 (409600)
I0403 14:47:11.072957 30302 net.cpp:156] Memory required for data: 831526000
I0403 14:47:11.072973 30302 layer_factory.hpp:77] Creating layer fc8_plantvillage
I0403 14:47:11.072996 30302 net.cpp:91] Creating Layer fc8_plantvillage
I0403 14:47:11.073014 30302 net.cpp:425] fc8_plantvillage <- fc7
I0403 14:47:11.073031 30302 net.cpp:399] fc8_plantvillage -> fc8_plantvillage
I0403 14:47:11.080899 30302 net.cpp:141] Setting up fc8_plantvillage
I0403 14:47:11.080929 30302 net.cpp:148] Top shape: 100 38 (3800)
I0403 14:47:11.080945 30302 net.cpp:156] Memory required for data: 831541200
I0403 14:47:11.080965 30302 layer_factory.hpp:77] Creating layer fc8_plantvillage_fc8_plantvillage_0_split
I0403 14:47:11.080983 30302 net.cpp:91] Creating Layer fc8_plantvillage_fc8_plantvillage_0_split
I0403 14:47:11.081001 30302 net.cpp:425] fc8_plantvillage_fc8_plantvillage_0_split <- fc8_plantvillage
I0403 14:47:11.081020 30302 net.cpp:399] fc8_plantvillage_fc8_plantvillage_0_split -> fc8_plantvillage_fc8_plantvillage_0_split_0
I0403 14:47:11.081043 30302 net.cpp:399] fc8_plantvillage_fc8_plantvillage_0_split -> fc8_plantvillage_fc8_plantvillage_0_split_1
I0403 14:47:11.081063 30302 net.cpp:399] fc8_plantvillage_fc8_plantvillage_0_split -> fc8_plantvillage_fc8_plantvillage_0_split_2
I0403 14:47:11.081146 30302 net.cpp:141] Setting up fc8_plantvillage_fc8_plantvillage_0_split
I0403 14:47:11.081171 30302 net.cpp:148] Top shape: 100 38 (3800)
I0403 14:47:11.081187 30302 net.cpp:148] Top shape: 100 38 (3800)
I0403 14:47:11.081204 30302 net.cpp:148] Top shape: 100 38 (3800)
I0403 14:47:11.081218 30302 net.cpp:156] Memory required for data: 831586800
I0403 14:47:11.081233 30302 layer_factory.hpp:77] Creating layer prob
I0403 14:47:11.081255 30302 net.cpp:91] Creating Layer prob
I0403 14:47:11.081271 30302 net.cpp:425] prob <- fc8_plantvillage_fc8_plantvillage_0_split_0
I0403 14:47:11.081290 30302 net.cpp:399] prob -> prob
I0403 14:47:11.081527 30302 net.cpp:141] Setting up prob
I0403 14:47:11.081562 30302 net.cpp:148] Top shape: 100 38 (3800)
I0403 14:47:11.081579 30302 net.cpp:156] Memory required for data: 831602000
I0403 14:47:11.081595 30302 layer_factory.hpp:77] Creating layer hdf5out
I0403 14:47:11.081615 30302 net.cpp:91] Creating Layer hdf5out
I0403 14:47:11.081631 30302 net.cpp:425] hdf5out <- prob
I0403 14:47:11.081648 30302 net.cpp:425] hdf5out <- label_data_1_split_0
I0403 14:47:11.084569 30302 net.cpp:141] Setting up hdf5out
…
