…
I0403 14:44:13.429522 30244 net.cpp:313] The NetState phase (1) differed from the phase (0) specified by a rule in layer data
I0403 14:44:13.429862 30244 net.cpp:49] Initializing net from parameters: 
state {
  phase: TEST
}
layer {
  name: "data"
  type: "Data"
  top: "data"
  top: "label"
  include {
    phase: TEST
  }
  transform_param {
    crop_size: 227
    mean_file: "/home/mohanty/data/final_dataset/lmdb/segmented-40-60/mean.binaryproto"
  }
  data_param {
    source: "/home/mohanty/data/final_dataset/lmdb/segmented-40-60/test_db"
    batch_size: 100
    backend: LMDB
  }
}
layer {
  name: "conv1"
  type: "Convolution"
  bottom: "data"
  top: "conv1"
  param {
    lr_mult: 1
    decay_mult: 1
  }
  param {
    lr_mult: 2
    decay_mult: 0
  }
  convolution_param {
    num_output: 96
    kernel_size: 11
    stride: 4
    weight_filler {
      type: "gaussian"
      std: 0.01
    }
    bias_filler {
      type: "constant"
      value: 0
    }
  }
}
layer {
  name: "relu1"
  type: "ReLU"
  bottom: "conv1"
  top: "conv1"
}
layer {
  name: "norm1"
  type: "LRN"
  bottom: "conv1"
  top: "norm1"
  lrn_param {
    local_size: 5
    alpha: 0.0001
    beta: 0.75
  }
}
layer {
  name: "pool1"
  type: "Pooling"
  bottom: "norm1"
  top: "pool1"
  pooling_param {
    pool: MAX
    kernel_size: 3
    stride: 2
  }
}
layer {
  name: "conv2"
  type: "Convolution"
  bottom: "pool1"
  top: "conv2"
  param {
    lr_mult: 1
    decay_mult: 1
  }
  param {
    lr_mult: 2
    decay_mult: 0
  }
  convolution_param {
    num_output: 256
    pad: 2
    kernel_size: 5
    group: 2
    weight_filler {
      type: "gaussian"
      std: 0.01
    }
    bias_filler {
      type: "constant"
      value: 0.1
    }
  }
}
layer {
  name: "relu2"
  type: "ReLU"
  bottom: "conv2"
  top: "conv2"
}
layer {
  name: "norm2"
  type: "LRN"
  bottom: "conv2"
  top: "norm2"
  lrn_param {
    local_size: 5
    alpha: 0.0001
    beta: 0.75
  }
}
layer {
  name: "pool2"
  type: "Pooling"
  bottom: "norm2"
  top: "pool2"
  pooling_param {
    pool: MAX
    kernel_size: 3
    stride: 2
  }
}
layer {
  name: "conv3"
  type: "Convolution"
  bottom: "pool2"
  top: "conv3"
  param {
    lr_mult: 1
    decay_mult: 1
  }
  param {
    lr_mult: 2
    decay_mult: 0
  }
  convolution_param {
    num_output: 384
    pad: 1
    kernel_size: 3
    weight_filler {
      type: "gaussian"
      std: 0.01
    }
    bias_filler {
      type: "constant"
      value: 0
    }
  }
}
layer {
  name: "relu3"
  type: "ReLU"
  bottom: "conv3"
  top: "conv3"
}
layer {
  name: "conv4"
  type: "Convolution"
  bottom: "conv3"
  top: "conv4"
  param {
    lr_mult: 1
    decay_mult: 1
  }
  param {
    lr_mult: 2
    decay_mult: 0
  }
  convolution_param {
    num_output: 384
    pad: 1
    kernel_size: 3
    group: 2
    weight_filler {
      type: "gaussian"
      std: 0.01
    }
    bias_filler {
      type: "constant"
      value: 0.1
    }
  }
}
layer {
  name: "relu4"
  type: "ReLU"
  bottom: "conv4"
  top: "conv4"
}
layer {
  name: "conv5"
  type: "Convolution"
  bottom: "conv4"
  top: "conv5"
  param {
    lr_mult: 1
    decay_mult: 1
  }
  param {
    lr_mult: 2
    decay_mult: 0
  }
  convolution_param {
    num_output: 256
    pad: 1
    kernel_size: 3
    group: 2
    weight_filler {
      type: "gaussian"
      std: 0.01
    }
    bias_filler {
      type: "constant"
      value: 0.1
    }
  }
}
layer {
  name: "relu5"
  type: "ReLU"
  bottom: "conv5"
  top: "conv5"
}
layer {
  name: "pool5"
  type: "Pooling"
  bottom: "conv5"
  top: "pool5"
  pooling_param {
    pool: MAX
    kernel_size: 3
    stride: 2
  }
}
layer {
  name: "fc6"
  type: "InnerProduct"
  bottom: "pool5"
  top: "fc6"
  param {
    lr_mult: 1
    decay_mult: 1
  }
  param {
    lr_mult: 2
    decay_mult: 0
  }
  inner_product_param {
    num_output: 4096
    weight_filler {
      type: "gaussian"
      std: 0.005
    }
    bias_filler {
      type: "constant"
      value: 0.1
    }
  }
}
layer {
  name: "relu6"
  type: "ReLU"
  bottom: "fc6"
  top: "fc6"
}
layer {
  name: "drop6"
  type: "Dropout"
  bottom: "fc6"
  top: "fc6"
  dropout_param {
    dropout_ratio: 0.5
  }
}
layer {
  name: "fc7"
  type: "InnerProduct"
  bottom: "fc6"
  top: "fc7"
  param {
    lr_mult: 1
    decay_mult: 1
  }
  param {
    lr_mult: 2
    decay_mult: 0
  }
  inner_product_param {
    num_output: 4096
    weight_filler {
      type: "gaussian"
      std: 0.005
    }
    bias_filler {
      type: "constant"
      value: 0.1
    }
  }
}
layer {
  name: "relu7"
  type: "ReLU"
  bottom: "fc7"
  top: "fc7"
}
layer {
  name: "drop7"
  type: "Dropout"
  bottom: "fc7"
  top: "fc7"
  dropout_param {
    dropout_ratio: 0.5
  }
}
layer {
  name: "fc8_plantvillage"
  type: "InnerProduct"
  bottom: "fc7"
  top: "fc8_plantvillage"
  param {
    lr_mult: 1
    decay_mult: 1
  }
  param {
    lr_mult: 2
    decay_mult: 0
  }
  inner_product_param {
    num_output: 38
    weight_filler {
      type: "gaussian"
      std: 0.01
    }
    bias_filler {
      type: "constant"
      value: 0
    }
  }
}
layer {
  name: "prob"
  type: "Softmax"
  bottom: "fc8_plantvillage"
  top: "prob"
  include {
    phase: TEST
  }
}
layer {
  name: "hdf5out"
  type: "HDF5Output"
  bottom: "prob"
  bottom: "label"
  include {
    phase: TEST
  }
  hdf5_output_param {
    file_name: "hdf5_dumps/iter_3723.h5"
  }
}
layer {
  name: "loss"
  type: "SoftmaxWithLoss"
  bottom: "fc8_plantvillage"
  bottom: "label"
  top: "loss"
}
layer {
  name: "accuracy"
  type: "Accuracy"
  bottom: "fc8_plantvillage"
  bottom: "label"
  top: "accuracy"
  include {
    phase: TEST
  }
}
I0403 14:44:13.430433 30244 layer_factory.hpp:77] Creating layer data
I0403 14:44:13.431082 30244 net.cpp:91] Creating Layer data
I0403 14:44:13.431114 30244 net.cpp:399] data -> data
I0403 14:44:13.431171 30244 net.cpp:399] data -> label
I0403 14:44:13.431210 30244 data_transformer.cpp:25] Loading mean file from: /home/mohanty/data/final_dataset/lmdb/segmented-40-60/mean.binaryproto
I0403 14:44:13.433960 30250 db_lmdb.cpp:38] Opened lmdb /home/mohanty/data/final_dataset/lmdb/segmented-40-60/test_db
I0403 14:44:13.445206 30244 data_layer.cpp:41] output data size: 100,3,227,227
I0403 14:44:13.561180 30244 net.cpp:141] Setting up data
I0403 14:44:13.561277 30244 net.cpp:148] Top shape: 100 3 227 227 (15458700)
I0403 14:44:13.561310 30244 net.cpp:148] Top shape: 100 (100)
I0403 14:44:13.561327 30244 net.cpp:156] Memory required for data: 61835200
I0403 14:44:13.561360 30244 layer_factory.hpp:77] Creating layer label_data_1_split
I0403 14:44:13.561393 30244 net.cpp:91] Creating Layer label_data_1_split
I0403 14:44:13.561410 30244 net.cpp:425] label_data_1_split <- label
I0403 14:44:13.561445 30244 net.cpp:399] label_data_1_split -> label_data_1_split_0
I0403 14:44:13.561473 30244 net.cpp:399] label_data_1_split -> label_data_1_split_1
I0403 14:44:13.561493 30244 net.cpp:399] label_data_1_split -> label_data_1_split_2
I0403 14:44:13.561563 30244 net.cpp:141] Setting up label_data_1_split
I0403 14:44:13.561585 30244 net.cpp:148] Top shape: 100 (100)
I0403 14:44:13.561611 30244 net.cpp:148] Top shape: 100 (100)
I0403 14:44:13.561627 30244 net.cpp:148] Top shape: 100 (100)
I0403 14:44:13.561642 30244 net.cpp:156] Memory required for data: 61836400
I0403 14:44:13.561666 30244 layer_factory.hpp:77] Creating layer conv1
I0403 14:44:13.561702 30244 net.cpp:91] Creating Layer conv1
I0403 14:44:13.561719 30244 net.cpp:425] conv1 <- data
I0403 14:44:13.561738 30244 net.cpp:399] conv1 -> conv1
I0403 14:44:13.700824 30244 net.cpp:141] Setting up conv1
I0403 14:44:13.700916 30244 net.cpp:148] Top shape: 100 96 55 55 (29040000)
I0403 14:44:13.700933 30244 net.cpp:156] Memory required for data: 177996400
I0403 14:44:13.700968 30244 layer_factory.hpp:77] Creating layer relu1
I0403 14:44:13.700997 30244 net.cpp:91] Creating Layer relu1
I0403 14:44:13.701016 30244 net.cpp:425] relu1 <- conv1
I0403 14:44:13.701035 30244 net.cpp:386] relu1 -> conv1 (in-place)
I0403 14:44:13.701289 30244 net.cpp:141] Setting up relu1
I0403 14:44:13.701316 30244 net.cpp:148] Top shape: 100 96 55 55 (29040000)
I0403 14:44:13.701371 30244 net.cpp:156] Memory required for data: 294156400
I0403 14:44:13.701387 30244 layer_factory.hpp:77] Creating layer norm1
I0403 14:44:13.701416 30244 net.cpp:91] Creating Layer norm1
I0403 14:44:13.701433 30244 net.cpp:425] norm1 <- conv1
I0403 14:44:13.701452 30244 net.cpp:399] norm1 -> norm1
I0403 14:44:13.701759 30244 net.cpp:141] Setting up norm1
I0403 14:44:13.701787 30244 net.cpp:148] Top shape: 100 96 55 55 (29040000)
I0403 14:44:13.701810 30244 net.cpp:156] Memory required for data: 410316400
I0403 14:44:13.701825 30244 layer_factory.hpp:77] Creating layer pool1
I0403 14:44:13.701848 30244 net.cpp:91] Creating Layer pool1
I0403 14:44:13.701865 30244 net.cpp:425] pool1 <- norm1
I0403 14:44:13.701887 30244 net.cpp:399] pool1 -> pool1
I0403 14:44:13.701956 30244 net.cpp:141] Setting up pool1
I0403 14:44:13.701979 30244 net.cpp:148] Top shape: 100 96 27 27 (6998400)
I0403 14:44:13.701994 30244 net.cpp:156] Memory required for data: 438310000
I0403 14:44:13.702009 30244 layer_factory.hpp:77] Creating layer conv2
I0403 14:44:13.702034 30244 net.cpp:91] Creating Layer conv2
I0403 14:44:13.702050 30244 net.cpp:425] conv2 <- pool1
I0403 14:44:13.702069 30244 net.cpp:399] conv2 -> conv2
I0403 14:44:13.716696 30244 net.cpp:141] Setting up conv2
I0403 14:44:13.716728 30244 net.cpp:148] Top shape: 100 256 27 27 (18662400)
I0403 14:44:13.716747 30244 net.cpp:156] Memory required for data: 512959600
I0403 14:44:13.716769 30244 layer_factory.hpp:77] Creating layer relu2
I0403 14:44:13.716790 30244 net.cpp:91] Creating Layer relu2
I0403 14:44:13.716807 30244 net.cpp:425] relu2 <- conv2
I0403 14:44:13.716826 30244 net.cpp:386] relu2 -> conv2 (in-place)
I0403 14:44:13.717092 30244 net.cpp:141] Setting up relu2
I0403 14:44:13.717119 30244 net.cpp:148] Top shape: 100 256 27 27 (18662400)
I0403 14:44:13.717135 30244 net.cpp:156] Memory required for data: 587609200
I0403 14:44:13.717151 30244 layer_factory.hpp:77] Creating layer norm2
I0403 14:44:13.717172 30244 net.cpp:91] Creating Layer norm2
I0403 14:44:13.717190 30244 net.cpp:425] norm2 <- conv2
I0403 14:44:13.717209 30244 net.cpp:399] norm2 -> norm2
I0403 14:44:13.717401 30244 net.cpp:141] Setting up norm2
I0403 14:44:13.717428 30244 net.cpp:148] Top shape: 100 256 27 27 (18662400)
I0403 14:44:13.717444 30244 net.cpp:156] Memory required for data: 662258800
I0403 14:44:13.717460 30244 layer_factory.hpp:77] Creating layer pool2
I0403 14:44:13.717478 30244 net.cpp:91] Creating Layer pool2
I0403 14:44:13.717495 30244 net.cpp:425] pool2 <- norm2
I0403 14:44:13.717521 30244 net.cpp:399] pool2 -> pool2
I0403 14:44:13.717576 30244 net.cpp:141] Setting up pool2
I0403 14:44:13.717602 30244 net.cpp:148] Top shape: 100 256 13 13 (4326400)
I0403 14:44:13.717617 30244 net.cpp:156] Memory required for data: 679564400
I0403 14:44:13.717631 30244 layer_factory.hpp:77] Creating layer conv3
I0403 14:44:13.717655 30244 net.cpp:91] Creating Layer conv3
I0403 14:44:13.717674 30244 net.cpp:425] conv3 <- pool2
I0403 14:44:13.717694 30244 net.cpp:399] conv3 -> conv3
I0403 14:44:13.755717 30244 net.cpp:141] Setting up conv3
I0403 14:44:13.755779 30244 net.cpp:148] Top shape: 100 384 13 13 (6489600)
I0403 14:44:13.755795 30244 net.cpp:156] Memory required for data: 705522800
I0403 14:44:13.755822 30244 layer_factory.hpp:77] Creating layer relu3
I0403 14:44:13.755843 30244 net.cpp:91] Creating Layer relu3
I0403 14:44:13.755861 30244 net.cpp:425] relu3 <- conv3
I0403 14:44:13.755879 30244 net.cpp:386] relu3 -> conv3 (in-place)
I0403 14:44:13.756148 30244 net.cpp:141] Setting up relu3
I0403 14:44:13.756175 30244 net.cpp:148] Top shape: 100 384 13 13 (6489600)
I0403 14:44:13.756189 30244 net.cpp:156] Memory required for data: 731481200
I0403 14:44:13.756206 30244 layer_factory.hpp:77] Creating layer conv4
I0403 14:44:13.756230 30244 net.cpp:91] Creating Layer conv4
I0403 14:44:13.756247 30244 net.cpp:425] conv4 <- conv3
I0403 14:44:13.756268 30244 net.cpp:399] conv4 -> conv4
I0403 14:44:13.785508 30244 net.cpp:141] Setting up conv4
I0403 14:44:13.785559 30244 net.cpp:148] Top shape: 100 384 13 13 (6489600)
I0403 14:44:13.785615 30244 net.cpp:156] Memory required for data: 757439600
I0403 14:44:13.785637 30244 layer_factory.hpp:77] Creating layer relu4
I0403 14:44:13.785661 30244 net.cpp:91] Creating Layer relu4
I0403 14:44:13.785678 30244 net.cpp:425] relu4 <- conv4
I0403 14:44:13.785696 30244 net.cpp:386] relu4 -> conv4 (in-place)
I0403 14:44:13.785967 30244 net.cpp:141] Setting up relu4
I0403 14:44:13.785994 30244 net.cpp:148] Top shape: 100 384 13 13 (6489600)
I0403 14:44:13.786008 30244 net.cpp:156] Memory required for data: 783398000
I0403 14:44:13.786025 30244 layer_factory.hpp:77] Creating layer conv5
I0403 14:44:13.786051 30244 net.cpp:91] Creating Layer conv5
I0403 14:44:13.786068 30244 net.cpp:425] conv5 <- conv4
I0403 14:44:13.786089 30244 net.cpp:399] conv5 -> conv5
I0403 14:44:13.806372 30244 net.cpp:141] Setting up conv5
I0403 14:44:13.806407 30244 net.cpp:148] Top shape: 100 256 13 13 (4326400)
I0403 14:44:13.806424 30244 net.cpp:156] Memory required for data: 800703600
I0403 14:44:13.806448 30244 layer_factory.hpp:77] Creating layer relu5
I0403 14:44:13.806469 30244 net.cpp:91] Creating Layer relu5
I0403 14:44:13.806488 30244 net.cpp:425] relu5 <- conv5
I0403 14:44:13.806509 30244 net.cpp:386] relu5 -> conv5 (in-place)
I0403 14:44:13.806784 30244 net.cpp:141] Setting up relu5
I0403 14:44:13.806812 30244 net.cpp:148] Top shape: 100 256 13 13 (4326400)
I0403 14:44:13.806826 30244 net.cpp:156] Memory required for data: 818009200
I0403 14:44:13.806843 30244 layer_factory.hpp:77] Creating layer pool5
I0403 14:44:13.806866 30244 net.cpp:91] Creating Layer pool5
I0403 14:44:13.806884 30244 net.cpp:425] pool5 <- conv5
I0403 14:44:13.806902 30244 net.cpp:399] pool5 -> pool5
I0403 14:44:13.806963 30244 net.cpp:141] Setting up pool5
I0403 14:44:13.806987 30244 net.cpp:148] Top shape: 100 256 6 6 (921600)
I0403 14:44:13.807001 30244 net.cpp:156] Memory required for data: 821695600
I0403 14:44:13.807015 30244 layer_factory.hpp:77] Creating layer fc6
I0403 14:44:13.807047 30244 net.cpp:91] Creating Layer fc6
I0403 14:44:13.807065 30244 net.cpp:425] fc6 <- pool5
I0403 14:44:13.807082 30244 net.cpp:399] fc6 -> fc6
I0403 14:44:15.316088 30244 net.cpp:141] Setting up fc6
I0403 14:44:15.316164 30244 net.cpp:148] Top shape: 100 4096 (409600)
I0403 14:44:15.316180 30244 net.cpp:156] Memory required for data: 823334000
I0403 14:44:15.316203 30244 layer_factory.hpp:77] Creating layer relu6
I0403 14:44:15.316227 30244 net.cpp:91] Creating Layer relu6
I0403 14:44:15.316246 30244 net.cpp:425] relu6 <- fc6
I0403 14:44:15.316267 30244 net.cpp:386] relu6 -> fc6 (in-place)
I0403 14:44:15.316488 30244 net.cpp:141] Setting up relu6
I0403 14:44:15.316514 30244 net.cpp:148] Top shape: 100 4096 (409600)
I0403 14:44:15.316530 30244 net.cpp:156] Memory required for data: 824972400
I0403 14:44:15.316545 30244 layer_factory.hpp:77] Creating layer drop6
I0403 14:44:15.316565 30244 net.cpp:91] Creating Layer drop6
I0403 14:44:15.316581 30244 net.cpp:425] drop6 <- fc6
I0403 14:44:15.316601 30244 net.cpp:386] drop6 -> fc6 (in-place)
I0403 14:44:15.316658 30244 net.cpp:141] Setting up drop6
I0403 14:44:15.316679 30244 net.cpp:148] Top shape: 100 4096 (409600)
I0403 14:44:15.316694 30244 net.cpp:156] Memory required for data: 826610800
I0403 14:44:15.316709 30244 layer_factory.hpp:77] Creating layer fc7
I0403 14:44:15.316728 30244 net.cpp:91] Creating Layer fc7
I0403 14:44:15.316742 30244 net.cpp:425] fc7 <- fc6
I0403 14:44:15.316768 30244 net.cpp:399] fc7 -> fc7
I0403 14:44:15.982774 30244 net.cpp:141] Setting up fc7
I0403 14:44:15.982847 30244 net.cpp:148] Top shape: 100 4096 (409600)
I0403 14:44:15.982864 30244 net.cpp:156] Memory required for data: 828249200
I0403 14:44:15.982887 30244 layer_factory.hpp:77] Creating layer relu7
I0403 14:44:15.982914 30244 net.cpp:91] Creating Layer relu7
I0403 14:44:15.982933 30244 net.cpp:425] relu7 <- fc7
I0403 14:44:15.982954 30244 net.cpp:386] relu7 -> fc7 (in-place)
I0403 14:44:15.983364 30244 net.cpp:141] Setting up relu7
I0403 14:44:15.983391 30244 net.cpp:148] Top shape: 100 4096 (409600)
I0403 14:44:15.983445 30244 net.cpp:156] Memory required for data: 829887600
I0403 14:44:15.983465 30244 layer_factory.hpp:77] Creating layer drop7
I0403 14:44:15.983490 30244 net.cpp:91] Creating Layer drop7
I0403 14:44:15.983531 30244 net.cpp:425] drop7 <- fc7
I0403 14:44:15.983552 30244 net.cpp:386] drop7 -> fc7 (in-place)
I0403 14:44:15.983595 30244 net.cpp:141] Setting up drop7
I0403 14:44:15.983619 30244 net.cpp:148] Top shape: 100 4096 (409600)
I0403 14:44:15.983634 30244 net.cpp:156] Memory required for data: 831526000
I0403 14:44:15.983650 30244 layer_factory.hpp:77] Creating layer fc8_plantvillage
I0403 14:44:15.983671 30244 net.cpp:91] Creating Layer fc8_plantvillage
I0403 14:44:15.983686 30244 net.cpp:425] fc8_plantvillage <- fc7
I0403 14:44:15.983706 30244 net.cpp:399] fc8_plantvillage -> fc8_plantvillage
I0403 14:44:15.990432 30244 net.cpp:141] Setting up fc8_plantvillage
I0403 14:44:15.990460 30244 net.cpp:148] Top shape: 100 38 (3800)
I0403 14:44:15.990476 30244 net.cpp:156] Memory required for data: 831541200
I0403 14:44:15.990494 30244 layer_factory.hpp:77] Creating layer fc8_plantvillage_fc8_plantvillage_0_split
I0403 14:44:15.990520 30244 net.cpp:91] Creating Layer fc8_plantvillage_fc8_plantvillage_0_split
I0403 14:44:15.990537 30244 net.cpp:425] fc8_plantvillage_fc8_plantvillage_0_split <- fc8_plantvillage
I0403 14:44:15.990568 30244 net.cpp:399] fc8_plantvillage_fc8_plantvillage_0_split -> fc8_plantvillage_fc8_plantvillage_0_split_0
I0403 14:44:15.990588 30244 net.cpp:399] fc8_plantvillage_fc8_plantvillage_0_split -> fc8_plantvillage_fc8_plantvillage_0_split_1
I0403 14:44:15.990609 30244 net.cpp:399] fc8_plantvillage_fc8_plantvillage_0_split -> fc8_plantvillage_fc8_plantvillage_0_split_2
I0403 14:44:15.990703 30244 net.cpp:141] Setting up fc8_plantvillage_fc8_plantvillage_0_split
I0403 14:44:15.990732 30244 net.cpp:148] Top shape: 100 38 (3800)
I0403 14:44:15.990749 30244 net.cpp:148] Top shape: 100 38 (3800)
I0403 14:44:15.990766 30244 net.cpp:148] Top shape: 100 38 (3800)
I0403 14:44:15.990780 30244 net.cpp:156] Memory required for data: 831586800
I0403 14:44:15.990794 30244 layer_factory.hpp:77] Creating layer prob
I0403 14:44:15.990814 30244 net.cpp:91] Creating Layer prob
I0403 14:44:15.990830 30244 net.cpp:425] prob <- fc8_plantvillage_fc8_plantvillage_0_split_0
I0403 14:44:15.990851 30244 net.cpp:399] prob -> prob
I0403 14:44:15.991091 30244 net.cpp:141] Setting up prob
I0403 14:44:15.991117 30244 net.cpp:148] Top shape: 100 38 (3800)
I0403 14:44:15.991132 30244 net.cpp:156] Memory required for data: 831602000
I0403 14:44:15.991147 30244 layer_factory.hpp:77] Creating layer hdf5out
I0403 14:44:15.991168 30244 net.cpp:91] Creating Layer hdf5out
I0403 14:44:15.991185 30244 net.cpp:425] hdf5out <- prob
I0403 14:44:15.991202 30244 net.cpp:425] hdf5out <- label_data_1_split_0
I0403 14:44:15.994415 30244 net.cpp:141] Setting up hdf5out
…
