…
I0403 14:51:58.742177 30513 net.cpp:313] The NetState phase (1) differed from the phase (0) specified by a rule in layer data
I0403 14:51:58.742494 30513 net.cpp:49] Initializing net from parameters: 
state {
  phase: TEST
}
layer {
  name: "data"
  type: "Data"
  top: "data"
  top: "label"
  include {
    phase: TEST
  }
  transform_param {
    crop_size: 227
    mean_file: "/home/mohanty/data/final_dataset/lmdb/segmented-40-60/mean.binaryproto"
  }
  data_param {
    source: "/home/mohanty/data/final_dataset/lmdb/segmented-40-60/test_db"
    batch_size: 100
    backend: LMDB
  }
}
layer {
  name: "conv1"
  type: "Convolution"
  bottom: "data"
  top: "conv1"
  param {
    lr_mult: 1
    decay_mult: 1
  }
  param {
    lr_mult: 2
    decay_mult: 0
  }
  convolution_param {
    num_output: 96
    kernel_size: 11
    stride: 4
    weight_filler {
      type: "gaussian"
      std: 0.01
    }
    bias_filler {
      type: "constant"
      value: 0
    }
  }
}
layer {
  name: "relu1"
  type: "ReLU"
  bottom: "conv1"
  top: "conv1"
}
layer {
  name: "norm1"
  type: "LRN"
  bottom: "conv1"
  top: "norm1"
  lrn_param {
    local_size: 5
    alpha: 0.0001
    beta: 0.75
  }
}
layer {
  name: "pool1"
  type: "Pooling"
  bottom: "norm1"
  top: "pool1"
  pooling_param {
    pool: MAX
    kernel_size: 3
    stride: 2
  }
}
layer {
  name: "conv2"
  type: "Convolution"
  bottom: "pool1"
  top: "conv2"
  param {
    lr_mult: 1
    decay_mult: 1
  }
  param {
    lr_mult: 2
    decay_mult: 0
  }
  convolution_param {
    num_output: 256
    pad: 2
    kernel_size: 5
    group: 2
    weight_filler {
      type: "gaussian"
      std: 0.01
    }
    bias_filler {
      type: "constant"
      value: 0.1
    }
  }
}
layer {
  name: "relu2"
  type: "ReLU"
  bottom: "conv2"
  top: "conv2"
}
layer {
  name: "norm2"
  type: "LRN"
  bottom: "conv2"
  top: "norm2"
  lrn_param {
    local_size: 5
    alpha: 0.0001
    beta: 0.75
  }
}
layer {
  name: "pool2"
  type: "Pooling"
  bottom: "norm2"
  top: "pool2"
  pooling_param {
    pool: MAX
    kernel_size: 3
    stride: 2
  }
}
layer {
  name: "conv3"
  type: "Convolution"
  bottom: "pool2"
  top: "conv3"
  param {
    lr_mult: 1
    decay_mult: 1
  }
  param {
    lr_mult: 2
    decay_mult: 0
  }
  convolution_param {
    num_output: 384
    pad: 1
    kernel_size: 3
    weight_filler {
      type: "gaussian"
      std: 0.01
    }
    bias_filler {
      type: "constant"
      value: 0
    }
  }
}
layer {
  name: "relu3"
  type: "ReLU"
  bottom: "conv3"
  top: "conv3"
}
layer {
  name: "conv4"
  type: "Convolution"
  bottom: "conv3"
  top: "conv4"
  param {
    lr_mult: 1
    decay_mult: 1
  }
  param {
    lr_mult: 2
    decay_mult: 0
  }
  convolution_param {
    num_output: 384
    pad: 1
    kernel_size: 3
    group: 2
    weight_filler {
      type: "gaussian"
      std: 0.01
    }
    bias_filler {
      type: "constant"
      value: 0.1
    }
  }
}
layer {
  name: "relu4"
  type: "ReLU"
  bottom: "conv4"
  top: "conv4"
}
layer {
  name: "conv5"
  type: "Convolution"
  bottom: "conv4"
  top: "conv5"
  param {
    lr_mult: 1
    decay_mult: 1
  }
  param {
    lr_mult: 2
    decay_mult: 0
  }
  convolution_param {
    num_output: 256
    pad: 1
    kernel_size: 3
    group: 2
    weight_filler {
      type: "gaussian"
      std: 0.01
    }
    bias_filler {
      type: "constant"
      value: 0.1
    }
  }
}
layer {
  name: "relu5"
  type: "ReLU"
  bottom: "conv5"
  top: "conv5"
}
layer {
  name: "pool5"
  type: "Pooling"
  bottom: "conv5"
  top: "pool5"
  pooling_param {
    pool: MAX
    kernel_size: 3
    stride: 2
  }
}
layer {
  name: "fc6"
  type: "InnerProduct"
  bottom: "pool5"
  top: "fc6"
  param {
    lr_mult: 1
    decay_mult: 1
  }
  param {
    lr_mult: 2
    decay_mult: 0
  }
  inner_product_param {
    num_output: 4096
    weight_filler {
      type: "gaussian"
      std: 0.005
    }
    bias_filler {
      type: "constant"
      value: 0.1
    }
  }
}
layer {
  name: "relu6"
  type: "ReLU"
  bottom: "fc6"
  top: "fc6"
}
layer {
  name: "drop6"
  type: "Dropout"
  bottom: "fc6"
  top: "fc6"
  dropout_param {
    dropout_ratio: 0.5
  }
}
layer {
  name: "fc7"
  type: "InnerProduct"
  bottom: "fc6"
  top: "fc7"
  param {
    lr_mult: 1
    decay_mult: 1
  }
  param {
    lr_mult: 2
    decay_mult: 0
  }
  inner_product_param {
    num_output: 4096
    weight_filler {
      type: "gaussian"
      std: 0.005
    }
    bias_filler {
      type: "constant"
      value: 0.1
    }
  }
}
layer {
  name: "relu7"
  type: "ReLU"
  bottom: "fc7"
  top: "fc7"
}
layer {
  name: "drop7"
  type: "Dropout"
  bottom: "fc7"
  top: "fc7"
  dropout_param {
    dropout_ratio: 0.5
  }
}
layer {
  name: "fc8_plantvillage"
  type: "InnerProduct"
  bottom: "fc7"
  top: "fc8_plantvillage"
  param {
    lr_mult: 1
    decay_mult: 1
  }
  param {
    lr_mult: 2
    decay_mult: 0
  }
  inner_product_param {
    num_output: 38
    weight_filler {
      type: "gaussian"
      std: 0.01
    }
    bias_filler {
      type: "constant"
      value: 0
    }
  }
}
layer {
  name: "prob"
  type: "Softmax"
  bottom: "fc8_plantvillage"
  top: "prob"
  include {
    phase: TEST
  }
}
layer {
  name: "hdf5out"
  type: "HDF5Output"
  bottom: "prob"
  bottom: "label"
  include {
    phase: TEST
  }
  hdf5_output_param {
    file_name: "hdf5_dumps/iter_5475.h5"
  }
}
layer {
  name: "loss"
  type: "SoftmaxWithLoss"
  bottom: "fc8_plantvillage"
  bottom: "label"
  top: "loss"
}
layer {
  name: "accuracy"
  type: "Accuracy"
  bottom: "fc8_plantvillage"
  bottom: "label"
  top: "accuracy"
  include {
    phase: TEST
  }
}
I0403 14:51:58.743093 30513 layer_factory.hpp:77] Creating layer data
I0403 14:51:58.743739 30513 net.cpp:91] Creating Layer data
I0403 14:51:58.743773 30513 net.cpp:399] data -> data
I0403 14:51:58.743829 30513 net.cpp:399] data -> label
I0403 14:51:58.743865 30513 data_transformer.cpp:25] Loading mean file from: /home/mohanty/data/final_dataset/lmdb/segmented-40-60/mean.binaryproto
I0403 14:51:58.748550 30517 db_lmdb.cpp:38] Opened lmdb /home/mohanty/data/final_dataset/lmdb/segmented-40-60/test_db
I0403 14:51:58.757764 30513 data_layer.cpp:41] output data size: 100,3,227,227
I0403 14:51:58.876936 30513 net.cpp:141] Setting up data
I0403 14:51:58.877044 30513 net.cpp:148] Top shape: 100 3 227 227 (15458700)
I0403 14:51:58.877068 30513 net.cpp:148] Top shape: 100 (100)
I0403 14:51:58.877084 30513 net.cpp:156] Memory required for data: 61835200
I0403 14:51:58.877115 30513 layer_factory.hpp:77] Creating layer label_data_1_split
I0403 14:51:58.877143 30513 net.cpp:91] Creating Layer label_data_1_split
I0403 14:51:58.877162 30513 net.cpp:425] label_data_1_split <- label
I0403 14:51:58.877198 30513 net.cpp:399] label_data_1_split -> label_data_1_split_0
I0403 14:51:58.877229 30513 net.cpp:399] label_data_1_split -> label_data_1_split_1
I0403 14:51:58.877249 30513 net.cpp:399] label_data_1_split -> label_data_1_split_2
I0403 14:51:58.877315 30513 net.cpp:141] Setting up label_data_1_split
I0403 14:51:58.877339 30513 net.cpp:148] Top shape: 100 (100)
I0403 14:51:58.877358 30513 net.cpp:148] Top shape: 100 (100)
I0403 14:51:58.877374 30513 net.cpp:148] Top shape: 100 (100)
I0403 14:51:58.877389 30513 net.cpp:156] Memory required for data: 61836400
I0403 14:51:58.877405 30513 layer_factory.hpp:77] Creating layer conv1
I0403 14:51:58.877440 30513 net.cpp:91] Creating Layer conv1
I0403 14:51:58.877460 30513 net.cpp:425] conv1 <- data
I0403 14:51:58.877480 30513 net.cpp:399] conv1 -> conv1
I0403 14:51:59.018174 30513 net.cpp:141] Setting up conv1
I0403 14:51:59.018265 30513 net.cpp:148] Top shape: 100 96 55 55 (29040000)
I0403 14:51:59.018283 30513 net.cpp:156] Memory required for data: 177996400
I0403 14:51:59.018324 30513 layer_factory.hpp:77] Creating layer relu1
I0403 14:51:59.018355 30513 net.cpp:91] Creating Layer relu1
I0403 14:51:59.018374 30513 net.cpp:425] relu1 <- conv1
I0403 14:51:59.018393 30513 net.cpp:386] relu1 -> conv1 (in-place)
I0403 14:51:59.018715 30513 net.cpp:141] Setting up relu1
I0403 14:51:59.018760 30513 net.cpp:148] Top shape: 100 96 55 55 (29040000)
I0403 14:51:59.018811 30513 net.cpp:156] Memory required for data: 294156400
I0403 14:51:59.018827 30513 layer_factory.hpp:77] Creating layer norm1
I0403 14:51:59.018857 30513 net.cpp:91] Creating Layer norm1
I0403 14:51:59.018889 30513 net.cpp:425] norm1 <- conv1
I0403 14:51:59.018928 30513 net.cpp:399] norm1 -> norm1
I0403 14:51:59.019237 30513 net.cpp:141] Setting up norm1
I0403 14:51:59.019278 30513 net.cpp:148] Top shape: 100 96 55 55 (29040000)
I0403 14:51:59.019295 30513 net.cpp:156] Memory required for data: 410316400
I0403 14:51:59.019310 30513 layer_factory.hpp:77] Creating layer pool1
I0403 14:51:59.019335 30513 net.cpp:91] Creating Layer pool1
I0403 14:51:59.019353 30513 net.cpp:425] pool1 <- norm1
I0403 14:51:59.019371 30513 net.cpp:399] pool1 -> pool1
I0403 14:51:59.019443 30513 net.cpp:141] Setting up pool1
I0403 14:51:59.019470 30513 net.cpp:148] Top shape: 100 96 27 27 (6998400)
I0403 14:51:59.019485 30513 net.cpp:156] Memory required for data: 438310000
I0403 14:51:59.019500 30513 layer_factory.hpp:77] Creating layer conv2
I0403 14:51:59.019527 30513 net.cpp:91] Creating Layer conv2
I0403 14:51:59.019548 30513 net.cpp:425] conv2 <- pool1
I0403 14:51:59.019567 30513 net.cpp:399] conv2 -> conv2
I0403 14:51:59.035038 30513 net.cpp:141] Setting up conv2
I0403 14:51:59.035076 30513 net.cpp:148] Top shape: 100 256 27 27 (18662400)
I0403 14:51:59.035094 30513 net.cpp:156] Memory required for data: 512959600
I0403 14:51:59.035116 30513 layer_factory.hpp:77] Creating layer relu2
I0403 14:51:59.035136 30513 net.cpp:91] Creating Layer relu2
I0403 14:51:59.035152 30513 net.cpp:425] relu2 <- conv2
I0403 14:51:59.035171 30513 net.cpp:386] relu2 -> conv2 (in-place)
I0403 14:51:59.035434 30513 net.cpp:141] Setting up relu2
I0403 14:51:59.035461 30513 net.cpp:148] Top shape: 100 256 27 27 (18662400)
I0403 14:51:59.035477 30513 net.cpp:156] Memory required for data: 587609200
I0403 14:51:59.035492 30513 layer_factory.hpp:77] Creating layer norm2
I0403 14:51:59.035512 30513 net.cpp:91] Creating Layer norm2
I0403 14:51:59.035528 30513 net.cpp:425] norm2 <- conv2
I0403 14:51:59.035552 30513 net.cpp:399] norm2 -> norm2
I0403 14:51:59.035743 30513 net.cpp:141] Setting up norm2
I0403 14:51:59.035769 30513 net.cpp:148] Top shape: 100 256 27 27 (18662400)
I0403 14:51:59.035784 30513 net.cpp:156] Memory required for data: 662258800
I0403 14:51:59.035799 30513 layer_factory.hpp:77] Creating layer pool2
I0403 14:51:59.035818 30513 net.cpp:91] Creating Layer pool2
I0403 14:51:59.035835 30513 net.cpp:425] pool2 <- norm2
I0403 14:51:59.035853 30513 net.cpp:399] pool2 -> pool2
I0403 14:51:59.035907 30513 net.cpp:141] Setting up pool2
I0403 14:51:59.035929 30513 net.cpp:148] Top shape: 100 256 13 13 (4326400)
I0403 14:51:59.035944 30513 net.cpp:156] Memory required for data: 679564400
I0403 14:51:59.035959 30513 layer_factory.hpp:77] Creating layer conv3
I0403 14:51:59.035982 30513 net.cpp:91] Creating Layer conv3
I0403 14:51:59.036000 30513 net.cpp:425] conv3 <- pool2
I0403 14:51:59.036020 30513 net.cpp:399] conv3 -> conv3
I0403 14:51:59.075196 30513 net.cpp:141] Setting up conv3
I0403 14:51:59.075250 30513 net.cpp:148] Top shape: 100 384 13 13 (6489600)
I0403 14:51:59.075266 30513 net.cpp:156] Memory required for data: 705522800
I0403 14:51:59.075294 30513 layer_factory.hpp:77] Creating layer relu3
I0403 14:51:59.075320 30513 net.cpp:91] Creating Layer relu3
I0403 14:51:59.075336 30513 net.cpp:425] relu3 <- conv3
I0403 14:51:59.075355 30513 net.cpp:386] relu3 -> conv3 (in-place)
I0403 14:51:59.075637 30513 net.cpp:141] Setting up relu3
I0403 14:51:59.075664 30513 net.cpp:148] Top shape: 100 384 13 13 (6489600)
I0403 14:51:59.075680 30513 net.cpp:156] Memory required for data: 731481200
I0403 14:51:59.075695 30513 layer_factory.hpp:77] Creating layer conv4
I0403 14:51:59.075721 30513 net.cpp:91] Creating Layer conv4
I0403 14:51:59.075742 30513 net.cpp:425] conv4 <- conv3
I0403 14:51:59.075762 30513 net.cpp:399] conv4 -> conv4
I0403 14:51:59.106674 30513 net.cpp:141] Setting up conv4
I0403 14:51:59.106724 30513 net.cpp:148] Top shape: 100 384 13 13 (6489600)
I0403 14:51:59.106789 30513 net.cpp:156] Memory required for data: 757439600
I0403 14:51:59.106812 30513 layer_factory.hpp:77] Creating layer relu4
I0403 14:51:59.106839 30513 net.cpp:91] Creating Layer relu4
I0403 14:51:59.106856 30513 net.cpp:425] relu4 <- conv4
I0403 14:51:59.106875 30513 net.cpp:386] relu4 -> conv4 (in-place)
I0403 14:51:59.107156 30513 net.cpp:141] Setting up relu4
I0403 14:51:59.107187 30513 net.cpp:148] Top shape: 100 384 13 13 (6489600)
I0403 14:51:59.107213 30513 net.cpp:156] Memory required for data: 783398000
I0403 14:51:59.107234 30513 layer_factory.hpp:77] Creating layer conv5
I0403 14:51:59.107260 30513 net.cpp:91] Creating Layer conv5
I0403 14:51:59.107280 30513 net.cpp:425] conv5 <- conv4
I0403 14:51:59.107300 30513 net.cpp:399] conv5 -> conv5
I0403 14:51:59.129160 30513 net.cpp:141] Setting up conv5
I0403 14:51:59.129199 30513 net.cpp:148] Top shape: 100 256 13 13 (4326400)
I0403 14:51:59.129216 30513 net.cpp:156] Memory required for data: 800703600
I0403 14:51:59.129245 30513 layer_factory.hpp:77] Creating layer relu5
I0403 14:51:59.129266 30513 net.cpp:91] Creating Layer relu5
I0403 14:51:59.129283 30513 net.cpp:425] relu5 <- conv5
I0403 14:51:59.129302 30513 net.cpp:386] relu5 -> conv5 (in-place)
I0403 14:51:59.129598 30513 net.cpp:141] Setting up relu5
I0403 14:51:59.129626 30513 net.cpp:148] Top shape: 100 256 13 13 (4326400)
I0403 14:51:59.129642 30513 net.cpp:156] Memory required for data: 818009200
I0403 14:51:59.129658 30513 layer_factory.hpp:77] Creating layer pool5
I0403 14:51:59.129685 30513 net.cpp:91] Creating Layer pool5
I0403 14:51:59.129703 30513 net.cpp:425] pool5 <- conv5
I0403 14:51:59.129721 30513 net.cpp:399] pool5 -> pool5
I0403 14:51:59.129786 30513 net.cpp:141] Setting up pool5
I0403 14:51:59.129812 30513 net.cpp:148] Top shape: 100 256 6 6 (921600)
I0403 14:51:59.129827 30513 net.cpp:156] Memory required for data: 821695600
I0403 14:51:59.129842 30513 layer_factory.hpp:77] Creating layer fc6
I0403 14:51:59.129874 30513 net.cpp:91] Creating Layer fc6
I0403 14:51:59.129894 30513 net.cpp:425] fc6 <- pool5
I0403 14:51:59.129914 30513 net.cpp:399] fc6 -> fc6
I0403 14:52:00.702512 30513 net.cpp:141] Setting up fc6
I0403 14:52:00.702611 30513 net.cpp:148] Top shape: 100 4096 (409600)
I0403 14:52:00.702628 30513 net.cpp:156] Memory required for data: 823334000
I0403 14:52:00.702649 30513 layer_factory.hpp:77] Creating layer relu6
I0403 14:52:00.702673 30513 net.cpp:91] Creating Layer relu6
I0403 14:52:00.702689 30513 net.cpp:425] relu6 <- fc6
I0403 14:52:00.702713 30513 net.cpp:386] relu6 -> fc6 (in-place)
I0403 14:52:00.702924 30513 net.cpp:141] Setting up relu6
I0403 14:52:00.702947 30513 net.cpp:148] Top shape: 100 4096 (409600)
I0403 14:52:00.702961 30513 net.cpp:156] Memory required for data: 824972400
I0403 14:52:00.702975 30513 layer_factory.hpp:77] Creating layer drop6
I0403 14:52:00.702996 30513 net.cpp:91] Creating Layer drop6
I0403 14:52:00.703011 30513 net.cpp:425] drop6 <- fc6
I0403 14:52:00.703028 30513 net.cpp:386] drop6 -> fc6 (in-place)
I0403 14:52:00.703084 30513 net.cpp:141] Setting up drop6
I0403 14:52:00.703107 30513 net.cpp:148] Top shape: 100 4096 (409600)
I0403 14:52:00.703121 30513 net.cpp:156] Memory required for data: 826610800
I0403 14:52:00.703135 30513 layer_factory.hpp:77] Creating layer fc7
I0403 14:52:00.703155 30513 net.cpp:91] Creating Layer fc7
I0403 14:52:00.703169 30513 net.cpp:425] fc7 <- fc6
I0403 14:52:00.703188 30513 net.cpp:399] fc7 -> fc7
I0403 14:52:01.397610 30513 net.cpp:141] Setting up fc7
I0403 14:52:01.397699 30513 net.cpp:148] Top shape: 100 4096 (409600)
I0403 14:52:01.397716 30513 net.cpp:156] Memory required for data: 828249200
I0403 14:52:01.397737 30513 layer_factory.hpp:77] Creating layer relu7
I0403 14:52:01.397763 30513 net.cpp:91] Creating Layer relu7
I0403 14:52:01.397781 30513 net.cpp:425] relu7 <- fc7
I0403 14:52:01.397800 30513 net.cpp:386] relu7 -> fc7 (in-place)
I0403 14:52:01.398200 30513 net.cpp:141] Setting up relu7
I0403 14:52:01.398226 30513 net.cpp:148] Top shape: 100 4096 (409600)
I0403 14:52:01.398279 30513 net.cpp:156] Memory required for data: 829887600
I0403 14:52:01.398295 30513 layer_factory.hpp:77] Creating layer drop7
I0403 14:52:01.398316 30513 net.cpp:91] Creating Layer drop7
I0403 14:52:01.398331 30513 net.cpp:425] drop7 <- fc7
I0403 14:52:01.398349 30513 net.cpp:386] drop7 -> fc7 (in-place)
I0403 14:52:01.398392 30513 net.cpp:141] Setting up drop7
I0403 14:52:01.398414 30513 net.cpp:148] Top shape: 100 4096 (409600)
I0403 14:52:01.398428 30513 net.cpp:156] Memory required for data: 831526000
I0403 14:52:01.398442 30513 layer_factory.hpp:77] Creating layer fc8_plantvillage
I0403 14:52:01.398463 30513 net.cpp:91] Creating Layer fc8_plantvillage
I0403 14:52:01.398476 30513 net.cpp:425] fc8_plantvillage <- fc7
I0403 14:52:01.398497 30513 net.cpp:399] fc8_plantvillage -> fc8_plantvillage
I0403 14:52:01.405311 30513 net.cpp:141] Setting up fc8_plantvillage
I0403 14:52:01.405342 30513 net.cpp:148] Top shape: 100 38 (3800)
I0403 14:52:01.405357 30513 net.cpp:156] Memory required for data: 831541200
I0403 14:52:01.405375 30513 layer_factory.hpp:77] Creating layer fc8_plantvillage_fc8_plantvillage_0_split
I0403 14:52:01.405393 30513 net.cpp:91] Creating Layer fc8_plantvillage_fc8_plantvillage_0_split
I0403 14:52:01.405408 30513 net.cpp:425] fc8_plantvillage_fc8_plantvillage_0_split <- fc8_plantvillage
I0403 14:52:01.405426 30513 net.cpp:399] fc8_plantvillage_fc8_plantvillage_0_split -> fc8_plantvillage_fc8_plantvillage_0_split_0
I0403 14:52:01.405444 30513 net.cpp:399] fc8_plantvillage_fc8_plantvillage_0_split -> fc8_plantvillage_fc8_plantvillage_0_split_1
I0403 14:52:01.405463 30513 net.cpp:399] fc8_plantvillage_fc8_plantvillage_0_split -> fc8_plantvillage_fc8_plantvillage_0_split_2
I0403 14:52:01.405544 30513 net.cpp:141] Setting up fc8_plantvillage_fc8_plantvillage_0_split
I0403 14:52:01.405566 30513 net.cpp:148] Top shape: 100 38 (3800)
I0403 14:52:01.405581 30513 net.cpp:148] Top shape: 100 38 (3800)
I0403 14:52:01.405596 30513 net.cpp:148] Top shape: 100 38 (3800)
I0403 14:52:01.405609 30513 net.cpp:156] Memory required for data: 831586800
I0403 14:52:01.405623 30513 layer_factory.hpp:77] Creating layer prob
I0403 14:52:01.405642 30513 net.cpp:91] Creating Layer prob
I0403 14:52:01.405657 30513 net.cpp:425] prob <- fc8_plantvillage_fc8_plantvillage_0_split_0
I0403 14:52:01.405673 30513 net.cpp:399] prob -> prob
I0403 14:52:01.405894 30513 net.cpp:141] Setting up prob
I0403 14:52:01.405918 30513 net.cpp:148] Top shape: 100 38 (3800)
I0403 14:52:01.405932 30513 net.cpp:156] Memory required for data: 831602000
I0403 14:52:01.405946 30513 layer_factory.hpp:77] Creating layer hdf5out
I0403 14:52:01.405968 30513 net.cpp:91] Creating Layer hdf5out
I0403 14:52:01.405985 30513 net.cpp:425] hdf5out <- prob
I0403 14:52:01.406000 30513 net.cpp:425] hdf5out <- label_data_1_split_0
I0403 14:52:01.409435 30513 net.cpp:141] Setting up hdf5out
…
