…
I0403 14:50:01.862965 30372 net.cpp:313] The NetState phase (1) differed from the phase (0) specified by a rule in layer data
I0403 14:50:01.863292 30372 net.cpp:49] Initializing net from parameters: 
state {
  phase: TEST
}
layer {
  name: "data"
  type: "Data"
  top: "data"
  top: "label"
  include {
    phase: TEST
  }
  transform_param {
    crop_size: 227
    mean_file: "/home/mohanty/data/final_dataset/lmdb/segmented-40-60/mean.binaryproto"
  }
  data_param {
    source: "/home/mohanty/data/final_dataset/lmdb/segmented-40-60/test_db"
    batch_size: 100
    backend: LMDB
  }
}
layer {
  name: "conv1"
  type: "Convolution"
  bottom: "data"
  top: "conv1"
  param {
    lr_mult: 1
    decay_mult: 1
  }
  param {
    lr_mult: 2
    decay_mult: 0
  }
  convolution_param {
    num_output: 96
    kernel_size: 11
    stride: 4
    weight_filler {
      type: "gaussian"
      std: 0.01
    }
    bias_filler {
      type: "constant"
      value: 0
    }
  }
}
layer {
  name: "relu1"
  type: "ReLU"
  bottom: "conv1"
  top: "conv1"
}
layer {
  name: "norm1"
  type: "LRN"
  bottom: "conv1"
  top: "norm1"
  lrn_param {
    local_size: 5
    alpha: 0.0001
    beta: 0.75
  }
}
layer {
  name: "pool1"
  type: "Pooling"
  bottom: "norm1"
  top: "pool1"
  pooling_param {
    pool: MAX
    kernel_size: 3
    stride: 2
  }
}
layer {
  name: "conv2"
  type: "Convolution"
  bottom: "pool1"
  top: "conv2"
  param {
    lr_mult: 1
    decay_mult: 1
  }
  param {
    lr_mult: 2
    decay_mult: 0
  }
  convolution_param {
    num_output: 256
    pad: 2
    kernel_size: 5
    group: 2
    weight_filler {
      type: "gaussian"
      std: 0.01
    }
    bias_filler {
      type: "constant"
      value: 0.1
    }
  }
}
layer {
  name: "relu2"
  type: "ReLU"
  bottom: "conv2"
  top: "conv2"
}
layer {
  name: "norm2"
  type: "LRN"
  bottom: "conv2"
  top: "norm2"
  lrn_param {
    local_size: 5
    alpha: 0.0001
    beta: 0.75
  }
}
layer {
  name: "pool2"
  type: "Pooling"
  bottom: "norm2"
  top: "pool2"
  pooling_param {
    pool: MAX
    kernel_size: 3
    stride: 2
  }
}
layer {
  name: "conv3"
  type: "Convolution"
  bottom: "pool2"
  top: "conv3"
  param {
    lr_mult: 1
    decay_mult: 1
  }
  param {
    lr_mult: 2
    decay_mult: 0
  }
  convolution_param {
    num_output: 384
    pad: 1
    kernel_size: 3
    weight_filler {
      type: "gaussian"
      std: 0.01
    }
    bias_filler {
      type: "constant"
      value: 0
    }
  }
}
layer {
  name: "relu3"
  type: "ReLU"
  bottom: "conv3"
  top: "conv3"
}
layer {
  name: "conv4"
  type: "Convolution"
  bottom: "conv3"
  top: "conv4"
  param {
    lr_mult: 1
    decay_mult: 1
  }
  param {
    lr_mult: 2
    decay_mult: 0
  }
  convolution_param {
    num_output: 384
    pad: 1
    kernel_size: 3
    group: 2
    weight_filler {
      type: "gaussian"
      std: 0.01
    }
    bias_filler {
      type: "constant"
      value: 0.1
    }
  }
}
layer {
  name: "relu4"
  type: "ReLU"
  bottom: "conv4"
  top: "conv4"
}
layer {
  name: "conv5"
  type: "Convolution"
  bottom: "conv4"
  top: "conv5"
  param {
    lr_mult: 1
    decay_mult: 1
  }
  param {
    lr_mult: 2
    decay_mult: 0
  }
  convolution_param {
    num_output: 256
    pad: 1
    kernel_size: 3
    group: 2
    weight_filler {
      type: "gaussian"
      std: 0.01
    }
    bias_filler {
      type: "constant"
      value: 0.1
    }
  }
}
layer {
  name: "relu5"
  type: "ReLU"
  bottom: "conv5"
  top: "conv5"
}
layer {
  name: "pool5"
  type: "Pooling"
  bottom: "conv5"
  top: "pool5"
  pooling_param {
    pool: MAX
    kernel_size: 3
    stride: 2
  }
}
layer {
  name: "fc6"
  type: "InnerProduct"
  bottom: "pool5"
  top: "fc6"
  param {
    lr_mult: 1
    decay_mult: 1
  }
  param {
    lr_mult: 2
    decay_mult: 0
  }
  inner_product_param {
    num_output: 4096
    weight_filler {
      type: "gaussian"
      std: 0.005
    }
    bias_filler {
      type: "constant"
      value: 0.1
    }
  }
}
layer {
  name: "relu6"
  type: "ReLU"
  bottom: "fc6"
  top: "fc6"
}
layer {
  name: "drop6"
  type: "Dropout"
  bottom: "fc6"
  top: "fc6"
  dropout_param {
    dropout_ratio: 0.5
  }
}
layer {
  name: "fc7"
  type: "InnerProduct"
  bottom: "fc6"
  top: "fc7"
  param {
    lr_mult: 1
    decay_mult: 1
  }
  param {
    lr_mult: 2
    decay_mult: 0
  }
  inner_product_param {
    num_output: 4096
    weight_filler {
      type: "gaussian"
      std: 0.005
    }
    bias_filler {
      type: "constant"
      value: 0.1
    }
  }
}
layer {
  name: "relu7"
  type: "ReLU"
  bottom: "fc7"
  top: "fc7"
}
layer {
  name: "drop7"
  type: "Dropout"
  bottom: "fc7"
  top: "fc7"
  dropout_param {
    dropout_ratio: 0.5
  }
}
layer {
  name: "fc8_plantvillage"
  type: "InnerProduct"
  bottom: "fc7"
  top: "fc8_plantvillage"
  param {
    lr_mult: 1
    decay_mult: 1
  }
  param {
    lr_mult: 2
    decay_mult: 0
  }
  inner_product_param {
    num_output: 38
    weight_filler {
      type: "gaussian"
      std: 0.01
    }
    bias_filler {
      type: "constant"
      value: 0
    }
  }
}
layer {
  name: "prob"
  type: "Softmax"
  bottom: "fc8_plantvillage"
  top: "prob"
  include {
    phase: TEST
  }
}
layer {
  name: "hdf5out"
  type: "HDF5Output"
  bottom: "prob"
  bottom: "label"
  include {
    phase: TEST
  }
  hdf5_output_param {
    file_name: "hdf5_dumps/iter_5037.h5"
  }
}
layer {
  name: "loss"
  type: "SoftmaxWithLoss"
  bottom: "fc8_plantvillage"
  bottom: "label"
  top: "loss"
}
layer {
  name: "accuracy"
  type: "Accuracy"
  bottom: "fc8_plantvillage"
  bottom: "label"
  top: "accuracy"
  include {
    phase: TEST
  }
}
I0403 14:50:01.863831 30372 layer_factory.hpp:77] Creating layer data
I0403 14:50:01.864475 30372 net.cpp:91] Creating Layer data
I0403 14:50:01.864507 30372 net.cpp:399] data -> data
I0403 14:50:01.864572 30372 net.cpp:399] data -> label
I0403 14:50:01.864610 30372 data_transformer.cpp:25] Loading mean file from: /home/mohanty/data/final_dataset/lmdb/segmented-40-60/mean.binaryproto
I0403 14:50:01.867516 30379 db_lmdb.cpp:38] Opened lmdb /home/mohanty/data/final_dataset/lmdb/segmented-40-60/test_db
I0403 14:50:01.878984 30372 data_layer.cpp:41] output data size: 100,3,227,227
I0403 14:50:01.997706 30372 net.cpp:141] Setting up data
I0403 14:50:01.997815 30372 net.cpp:148] Top shape: 100 3 227 227 (15458700)
I0403 14:50:01.997840 30372 net.cpp:148] Top shape: 100 (100)
I0403 14:50:01.997859 30372 net.cpp:156] Memory required for data: 61835200
I0403 14:50:01.997890 30372 layer_factory.hpp:77] Creating layer label_data_1_split
I0403 14:50:01.997920 30372 net.cpp:91] Creating Layer label_data_1_split
I0403 14:50:01.997941 30372 net.cpp:425] label_data_1_split <- label
I0403 14:50:01.997977 30372 net.cpp:399] label_data_1_split -> label_data_1_split_0
I0403 14:50:01.998005 30372 net.cpp:399] label_data_1_split -> label_data_1_split_1
I0403 14:50:01.998028 30372 net.cpp:399] label_data_1_split -> label_data_1_split_2
I0403 14:50:01.998095 30372 net.cpp:141] Setting up label_data_1_split
I0403 14:50:01.998119 30372 net.cpp:148] Top shape: 100 (100)
I0403 14:50:01.998137 30372 net.cpp:148] Top shape: 100 (100)
I0403 14:50:01.998154 30372 net.cpp:148] Top shape: 100 (100)
I0403 14:50:01.998169 30372 net.cpp:156] Memory required for data: 61836400
I0403 14:50:01.998186 30372 layer_factory.hpp:77] Creating layer conv1
I0403 14:50:01.998222 30372 net.cpp:91] Creating Layer conv1
I0403 14:50:01.998241 30372 net.cpp:425] conv1 <- data
I0403 14:50:01.998262 30372 net.cpp:399] conv1 -> conv1
I0403 14:50:02.141183 30372 net.cpp:141] Setting up conv1
I0403 14:50:02.141278 30372 net.cpp:148] Top shape: 100 96 55 55 (29040000)
I0403 14:50:02.141297 30372 net.cpp:156] Memory required for data: 177996400
I0403 14:50:02.141333 30372 layer_factory.hpp:77] Creating layer relu1
I0403 14:50:02.141363 30372 net.cpp:91] Creating Layer relu1
I0403 14:50:02.141419 30372 net.cpp:425] relu1 <- conv1
I0403 14:50:02.141445 30372 net.cpp:386] relu1 -> conv1 (in-place)
I0403 14:50:02.141710 30372 net.cpp:141] Setting up relu1
I0403 14:50:02.141738 30372 net.cpp:148] Top shape: 100 96 55 55 (29040000)
I0403 14:50:02.141793 30372 net.cpp:156] Memory required for data: 294156400
I0403 14:50:02.141810 30372 layer_factory.hpp:77] Creating layer norm1
I0403 14:50:02.141841 30372 net.cpp:91] Creating Layer norm1
I0403 14:50:02.141860 30372 net.cpp:425] norm1 <- conv1
I0403 14:50:02.141880 30372 net.cpp:399] norm1 -> norm1
I0403 14:50:02.142196 30372 net.cpp:141] Setting up norm1
I0403 14:50:02.142225 30372 net.cpp:148] Top shape: 100 96 55 55 (29040000)
I0403 14:50:02.142254 30372 net.cpp:156] Memory required for data: 410316400
I0403 14:50:02.142272 30372 layer_factory.hpp:77] Creating layer pool1
I0403 14:50:02.142298 30372 net.cpp:91] Creating Layer pool1
I0403 14:50:02.142316 30372 net.cpp:425] pool1 <- norm1
I0403 14:50:02.142336 30372 net.cpp:399] pool1 -> pool1
I0403 14:50:02.142410 30372 net.cpp:141] Setting up pool1
I0403 14:50:02.142434 30372 net.cpp:148] Top shape: 100 96 27 27 (6998400)
I0403 14:50:02.142451 30372 net.cpp:156] Memory required for data: 438310000
I0403 14:50:02.142467 30372 layer_factory.hpp:77] Creating layer conv2
I0403 14:50:02.142495 30372 net.cpp:91] Creating Layer conv2
I0403 14:50:02.142513 30372 net.cpp:425] conv2 <- pool1
I0403 14:50:02.142541 30372 net.cpp:399] conv2 -> conv2
I0403 14:50:02.157691 30372 net.cpp:141] Setting up conv2
I0403 14:50:02.157727 30372 net.cpp:148] Top shape: 100 256 27 27 (18662400)
I0403 14:50:02.157743 30372 net.cpp:156] Memory required for data: 512959600
I0403 14:50:02.157769 30372 layer_factory.hpp:77] Creating layer relu2
I0403 14:50:02.157791 30372 net.cpp:91] Creating Layer relu2
I0403 14:50:02.157807 30372 net.cpp:425] relu2 <- conv2
I0403 14:50:02.157832 30372 net.cpp:386] relu2 -> conv2 (in-place)
I0403 14:50:02.158145 30372 net.cpp:141] Setting up relu2
I0403 14:50:02.158175 30372 net.cpp:148] Top shape: 100 256 27 27 (18662400)
I0403 14:50:02.158191 30372 net.cpp:156] Memory required for data: 587609200
I0403 14:50:02.158208 30372 layer_factory.hpp:77] Creating layer norm2
I0403 14:50:02.158229 30372 net.cpp:91] Creating Layer norm2
I0403 14:50:02.158246 30372 net.cpp:425] norm2 <- conv2
I0403 14:50:02.158267 30372 net.cpp:399] norm2 -> norm2
I0403 14:50:02.158471 30372 net.cpp:141] Setting up norm2
I0403 14:50:02.158498 30372 net.cpp:148] Top shape: 100 256 27 27 (18662400)
I0403 14:50:02.158514 30372 net.cpp:156] Memory required for data: 662258800
I0403 14:50:02.158529 30372 layer_factory.hpp:77] Creating layer pool2
I0403 14:50:02.158555 30372 net.cpp:91] Creating Layer pool2
I0403 14:50:02.158576 30372 net.cpp:425] pool2 <- norm2
I0403 14:50:02.158593 30372 net.cpp:399] pool2 -> pool2
I0403 14:50:02.158648 30372 net.cpp:141] Setting up pool2
I0403 14:50:02.158670 30372 net.cpp:148] Top shape: 100 256 13 13 (4326400)
I0403 14:50:02.158686 30372 net.cpp:156] Memory required for data: 679564400
I0403 14:50:02.158704 30372 layer_factory.hpp:77] Creating layer conv3
I0403 14:50:02.158726 30372 net.cpp:91] Creating Layer conv3
I0403 14:50:02.158745 30372 net.cpp:425] conv3 <- pool2
I0403 14:50:02.158766 30372 net.cpp:399] conv3 -> conv3
I0403 14:50:02.197114 30372 net.cpp:141] Setting up conv3
I0403 14:50:02.197175 30372 net.cpp:148] Top shape: 100 384 13 13 (6489600)
I0403 14:50:02.197193 30372 net.cpp:156] Memory required for data: 705522800
I0403 14:50:02.197219 30372 layer_factory.hpp:77] Creating layer relu3
I0403 14:50:02.197244 30372 net.cpp:91] Creating Layer relu3
I0403 14:50:02.197263 30372 net.cpp:425] relu3 <- conv3
I0403 14:50:02.197283 30372 net.cpp:386] relu3 -> conv3 (in-place)
I0403 14:50:02.197563 30372 net.cpp:141] Setting up relu3
I0403 14:50:02.197592 30372 net.cpp:148] Top shape: 100 384 13 13 (6489600)
I0403 14:50:02.197607 30372 net.cpp:156] Memory required for data: 731481200
I0403 14:50:02.197623 30372 layer_factory.hpp:77] Creating layer conv4
I0403 14:50:02.197649 30372 net.cpp:91] Creating Layer conv4
I0403 14:50:02.197669 30372 net.cpp:425] conv4 <- conv3
I0403 14:50:02.197687 30372 net.cpp:399] conv4 -> conv4
I0403 14:50:02.226415 30372 net.cpp:141] Setting up conv4
I0403 14:50:02.226467 30372 net.cpp:148] Top shape: 100 384 13 13 (6489600)
I0403 14:50:02.226523 30372 net.cpp:156] Memory required for data: 757439600
I0403 14:50:02.226552 30372 layer_factory.hpp:77] Creating layer relu4
I0403 14:50:02.226582 30372 net.cpp:91] Creating Layer relu4
I0403 14:50:02.226601 30372 net.cpp:425] relu4 <- conv4
I0403 14:50:02.226620 30372 net.cpp:386] relu4 -> conv4 (in-place)
I0403 14:50:02.226891 30372 net.cpp:141] Setting up relu4
I0403 14:50:02.226918 30372 net.cpp:148] Top shape: 100 384 13 13 (6489600)
I0403 14:50:02.226933 30372 net.cpp:156] Memory required for data: 783398000
I0403 14:50:02.226949 30372 layer_factory.hpp:77] Creating layer conv5
I0403 14:50:02.226975 30372 net.cpp:91] Creating Layer conv5
I0403 14:50:02.226994 30372 net.cpp:425] conv5 <- conv4
I0403 14:50:02.227015 30372 net.cpp:399] conv5 -> conv5
I0403 14:50:02.246971 30372 net.cpp:141] Setting up conv5
I0403 14:50:02.247009 30372 net.cpp:148] Top shape: 100 256 13 13 (4326400)
I0403 14:50:02.247026 30372 net.cpp:156] Memory required for data: 800703600
I0403 14:50:02.247054 30372 layer_factory.hpp:77] Creating layer relu5
I0403 14:50:02.247076 30372 net.cpp:91] Creating Layer relu5
I0403 14:50:02.247092 30372 net.cpp:425] relu5 <- conv5
I0403 14:50:02.247109 30372 net.cpp:386] relu5 -> conv5 (in-place)
I0403 14:50:02.247390 30372 net.cpp:141] Setting up relu5
I0403 14:50:02.247421 30372 net.cpp:148] Top shape: 100 256 13 13 (4326400)
I0403 14:50:02.247437 30372 net.cpp:156] Memory required for data: 818009200
I0403 14:50:02.247453 30372 layer_factory.hpp:77] Creating layer pool5
I0403 14:50:02.247478 30372 net.cpp:91] Creating Layer pool5
I0403 14:50:02.247496 30372 net.cpp:425] pool5 <- conv5
I0403 14:50:02.247515 30372 net.cpp:399] pool5 -> pool5
I0403 14:50:02.247583 30372 net.cpp:141] Setting up pool5
I0403 14:50:02.247607 30372 net.cpp:148] Top shape: 100 256 6 6 (921600)
I0403 14:50:02.247623 30372 net.cpp:156] Memory required for data: 821695600
I0403 14:50:02.247649 30372 layer_factory.hpp:77] Creating layer fc6
I0403 14:50:02.247680 30372 net.cpp:91] Creating Layer fc6
I0403 14:50:02.247699 30372 net.cpp:425] fc6 <- pool5
I0403 14:50:02.247721 30372 net.cpp:399] fc6 -> fc6
I0403 14:50:03.752707 30372 net.cpp:141] Setting up fc6
I0403 14:50:03.752784 30372 net.cpp:148] Top shape: 100 4096 (409600)
I0403 14:50:03.752800 30372 net.cpp:156] Memory required for data: 823334000
I0403 14:50:03.752825 30372 layer_factory.hpp:77] Creating layer relu6
I0403 14:50:03.752848 30372 net.cpp:91] Creating Layer relu6
I0403 14:50:03.752873 30372 net.cpp:425] relu6 <- fc6
I0403 14:50:03.752895 30372 net.cpp:386] relu6 -> fc6 (in-place)
I0403 14:50:03.753109 30372 net.cpp:141] Setting up relu6
I0403 14:50:03.753139 30372 net.cpp:148] Top shape: 100 4096 (409600)
I0403 14:50:03.753154 30372 net.cpp:156] Memory required for data: 824972400
I0403 14:50:03.753168 30372 layer_factory.hpp:77] Creating layer drop6
I0403 14:50:03.753190 30372 net.cpp:91] Creating Layer drop6
I0403 14:50:03.753206 30372 net.cpp:425] drop6 <- fc6
I0403 14:50:03.753223 30372 net.cpp:386] drop6 -> fc6 (in-place)
I0403 14:50:03.753278 30372 net.cpp:141] Setting up drop6
I0403 14:50:03.753300 30372 net.cpp:148] Top shape: 100 4096 (409600)
I0403 14:50:03.753315 30372 net.cpp:156] Memory required for data: 826610800
I0403 14:50:03.753330 30372 layer_factory.hpp:77] Creating layer fc7
I0403 14:50:03.753351 30372 net.cpp:91] Creating Layer fc7
I0403 14:50:03.753366 30372 net.cpp:425] fc7 <- fc6
I0403 14:50:03.753386 30372 net.cpp:399] fc7 -> fc7
I0403 14:50:04.419596 30372 net.cpp:141] Setting up fc7
I0403 14:50:04.419692 30372 net.cpp:148] Top shape: 100 4096 (409600)
I0403 14:50:04.419709 30372 net.cpp:156] Memory required for data: 828249200
I0403 14:50:04.419734 30372 layer_factory.hpp:77] Creating layer relu7
I0403 14:50:04.419759 30372 net.cpp:91] Creating Layer relu7
I0403 14:50:04.419778 30372 net.cpp:425] relu7 <- fc7
I0403 14:50:04.419798 30372 net.cpp:386] relu7 -> fc7 (in-place)
I0403 14:50:04.420197 30372 net.cpp:141] Setting up relu7
I0403 14:50:04.420222 30372 net.cpp:148] Top shape: 100 4096 (409600)
I0403 14:50:04.420276 30372 net.cpp:156] Memory required for data: 829887600
I0403 14:50:04.420292 30372 layer_factory.hpp:77] Creating layer drop7
I0403 14:50:04.420315 30372 net.cpp:91] Creating Layer drop7
I0403 14:50:04.420331 30372 net.cpp:425] drop7 <- fc7
I0403 14:50:04.420348 30372 net.cpp:386] drop7 -> fc7 (in-place)
I0403 14:50:04.420392 30372 net.cpp:141] Setting up drop7
I0403 14:50:04.420415 30372 net.cpp:148] Top shape: 100 4096 (409600)
I0403 14:50:04.420430 30372 net.cpp:156] Memory required for data: 831526000
I0403 14:50:04.420445 30372 layer_factory.hpp:77] Creating layer fc8_plantvillage
I0403 14:50:04.420465 30372 net.cpp:91] Creating Layer fc8_plantvillage
I0403 14:50:04.420481 30372 net.cpp:425] fc8_plantvillage <- fc7
I0403 14:50:04.420502 30372 net.cpp:399] fc8_plantvillage -> fc8_plantvillage
I0403 14:50:04.427011 30372 net.cpp:141] Setting up fc8_plantvillage
I0403 14:50:04.427042 30372 net.cpp:148] Top shape: 100 38 (3800)
I0403 14:50:04.427059 30372 net.cpp:156] Memory required for data: 831541200
I0403 14:50:04.427078 30372 layer_factory.hpp:77] Creating layer fc8_plantvillage_fc8_plantvillage_0_split
I0403 14:50:04.427096 30372 net.cpp:91] Creating Layer fc8_plantvillage_fc8_plantvillage_0_split
I0403 14:50:04.427112 30372 net.cpp:425] fc8_plantvillage_fc8_plantvillage_0_split <- fc8_plantvillage
I0403 14:50:04.427129 30372 net.cpp:399] fc8_plantvillage_fc8_plantvillage_0_split -> fc8_plantvillage_fc8_plantvillage_0_split_0
I0403 14:50:04.427150 30372 net.cpp:399] fc8_plantvillage_fc8_plantvillage_0_split -> fc8_plantvillage_fc8_plantvillage_0_split_1
I0403 14:50:04.427170 30372 net.cpp:399] fc8_plantvillage_fc8_plantvillage_0_split -> fc8_plantvillage_fc8_plantvillage_0_split_2
I0403 14:50:04.427248 30372 net.cpp:141] Setting up fc8_plantvillage_fc8_plantvillage_0_split
I0403 14:50:04.427270 30372 net.cpp:148] Top shape: 100 38 (3800)
I0403 14:50:04.427286 30372 net.cpp:148] Top shape: 100 38 (3800)
I0403 14:50:04.427302 30372 net.cpp:148] Top shape: 100 38 (3800)
I0403 14:50:04.427316 30372 net.cpp:156] Memory required for data: 831586800
I0403 14:50:04.427331 30372 layer_factory.hpp:77] Creating layer prob
I0403 14:50:04.427350 30372 net.cpp:91] Creating Layer prob
I0403 14:50:04.427364 30372 net.cpp:425] prob <- fc8_plantvillage_fc8_plantvillage_0_split_0
I0403 14:50:04.427382 30372 net.cpp:399] prob -> prob
I0403 14:50:04.427606 30372 net.cpp:141] Setting up prob
I0403 14:50:04.427631 30372 net.cpp:148] Top shape: 100 38 (3800)
I0403 14:50:04.427646 30372 net.cpp:156] Memory required for data: 831602000
I0403 14:50:04.427662 30372 layer_factory.hpp:77] Creating layer hdf5out
I0403 14:50:04.427685 30372 net.cpp:91] Creating Layer hdf5out
I0403 14:50:04.427701 30372 net.cpp:425] hdf5out <- prob
I0403 14:50:04.427717 30372 net.cpp:425] hdf5out <- label_data_1_split_0
I0403 14:50:04.432248 30372 net.cpp:141] Setting up hdf5out
…
