…
I0403 02:30:37.044119 32199 net.cpp:313] The NetState phase (0) differed from the phase (1) specified by a rule in layer accuracy
I0403 02:30:37.045817 32199 net.cpp:49] Initializing net from parameters: 
state {
  phase: TRAIN
}
layer {
  name: "data"
  type: "Data"
  top: "data"
  top: "label"
  include {
    phase: TRAIN
  }
  transform_param {
    mirror: true
    crop_size: 227
    mean_file: "/home/mohanty/data/final_dataset/lmdb/grayscale-40-60/mean.binaryproto"
  }
  data_param {
    source: "/home/mohanty/data/final_dataset/lmdb/grayscale-40-60/train_db"
    batch_size: 100
    backend: LMDB
  }
}
layer {
  name: "conv1"
  type: "Convolution"
  bottom: "data"
  top: "conv1"
  param {
    lr_mult: 1
    decay_mult: 1
  }
  param {
    lr_mult: 2
    decay_mult: 0
  }
  convolution_param {
    num_output: 96
    kernel_size: 11
    stride: 4
    weight_filler {
      type: "gaussian"
      std: 0.01
    }
    bias_filler {
      type: "constant"
      value: 0
    }
  }
}
layer {
  name: "relu1"
  type: "ReLU"
  bottom: "conv1"
  top: "conv1"
}
layer {
  name: "norm1"
  type: "LRN"
  bottom: "conv1"
  top: "norm1"
  lrn_param {
    local_size: 5
    alpha: 0.0001
    beta: 0.75
  }
}
layer {
  name: "pool1"
  type: "Pooling"
  bottom: "norm1"
  top: "pool1"
  pooling_param {
    pool: MAX
    kernel_size: 3
    stride: 2
  }
}
layer {
  name: "conv2"
  type: "Convolution"
  bottom: "pool1"
  top: "conv2"
  param {
    lr_mult: 1
    decay_mult: 1
  }
  param {
    lr_mult: 2
    decay_mult: 0
  }
  convolution_param {
    num_output: 256
    pad: 2
    kernel_size: 5
    group: 2
    weight_filler {
      type: "gaussian"
      std: 0.01
    }
    bias_filler {
      type: "constant"
      value: 0.1
    }
  }
}
layer {
  name: "relu2"
  type: "ReLU"
  bottom: "conv2"
  top: "conv2"
}
layer {
  name: "norm2"
  type: "LRN"
  bottom: "conv2"
  top: "norm2"
  lrn_param {
    local_size: 5
    alpha: 0.0001
    beta: 0.75
  }
}
layer {
  name: "pool2"
  type: "Pooling"
  bottom: "norm2"
  top: "pool2"
  pooling_param {
    pool: MAX
    kernel_size: 3
    stride: 2
  }
}
layer {
  name: "conv3"
  type: "Convolution"
  bottom: "pool2"
  top: "conv3"
  param {
    lr_mult: 1
    decay_mult: 1
  }
  param {
    lr_mult: 2
    decay_mult: 0
  }
  convolution_param {
    num_output: 384
    pad: 1
    kernel_size: 3
    weight_filler {
      type: "gaussian"
      std: 0.01
    }
    bias_filler {
      type: "constant"
      value: 0
    }
  }
}
layer {
  name: "relu3"
  type: "ReLU"
  bottom: "conv3"
  top: "conv3"
}
layer {
  name: "conv4"
  type: "Convolution"
  bottom: "conv3"
  top: "conv4"
  param {
    lr_mult: 1
    decay_mult: 1
  }
  param {
    lr_mult: 2
    decay_mult: 0
  }
  convolution_param {
    num_output: 384
    pad: 1
    kernel_size: 3
    group: 2
    weight_filler {
      type: "gaussian"
      std: 0.01
    }
    bias_filler {
      type: "constant"
      value: 0.1
    }
  }
}
layer {
  name: "relu4"
  type: "ReLU"
  bottom: "conv4"
  top: "conv4"
}
layer {
  name: "conv5"
  type: "Convolution"
  bottom: "conv4"
  top: "conv5"
  param {
    lr_mult: 1
    decay_mult: 1
  }
  param {
    lr_mult: 2
    decay_mult: 0
  }
  convolution_param {
    num_output: 256
    pad: 1
    kernel_size: 3
    group: 2
    weight_filler {
      type: "gaussian"
      std: 0.01
    }
    bias_filler {
      type: "constant"
      value: 0.1
    }
  }
}
layer {
  name: "relu5"
  type: "ReLU"
  bottom: "conv5"
  top: "conv5"
}
layer {
  name: "pool5"
  type: "Pooling"
  bottom: "conv5"
  top: "pool5"
  pooling_param {
    pool: MAX
    kernel_size: 3
    stride: 2
  }
}
layer {
  name: "fc6"
  type: "InnerProduct"
  bottom: "pool5"
  top: "fc6"
  param {
    lr_mult: 1
    decay_mult: 1
  }
  param {
    lr_mult: 2
    decay_mult: 0
  }
  inner_product_param {
    num_output: 4096
    weight_filler {
      type: "gaussian"
      std: 0.005
    }
    bias_filler {
      type: "constant"
      value: 0.1
    }
  }
}
layer {
  name: "relu6"
  type: "ReLU"
  bottom: "fc6"
  top: "fc6"
}
layer {
  name: "drop6"
  type: "Dropout"
  bottom: "fc6"
  top: "fc6"
  dropout_param {
    dropout_ratio: 0.5
  }
}
layer {
  name: "fc7"
  type: "InnerProduct"
  bottom: "fc6"
  top: "fc7"
  param {
    lr_mult: 1
    decay_mult: 1
  }
  param {
    lr_mult: 2
    decay_mult: 0
  }
  inner_product_param {
    num_output: 4096
    weight_filler {
      type: "gaussian"
      std: 0.005
    }
    bias_filler {
      type: "constant"
      value: 0.1
    }
  }
}
layer {
  name: "relu7"
  type: "ReLU"
  bottom: "fc7"
  top: "fc7"
}
layer {
  name: "drop7"
  type: "Dropout"
  bottom: "fc7"
  top: "fc7"
  dropout_param {
    dropout_ratio: 0.5
  }
}
layer {
  name: "fc8_plantvillage"
  type: "InnerProduct"
  bottom: "fc7"
  top: "fc8_plantvillage"
  param {
    lr_mult: 1
    decay_mult: 1
  }
  param {
    lr_mult: 2
    decay_mult: 0
  }
  inner_product_param {
    num_output: 38
    weight_filler {
      type: "gaussian"
      std: 0.01
    }
    bias_filler {
      type: "constant"
      value: 0
    }
  }
}
layer {
  name: "loss"
  type: "SoftmaxWithLoss"
  bottom: "fc8_plantvillage"
  bottom: "label"
  top: "loss"
}
I0403 02:30:37.047000 32199 layer_factory.hpp:77] Creating layer data
I0403 02:30:37.048666 32199 net.cpp:91] Creating Layer data
I0403 02:30:37.048738 32199 net.cpp:399] data -> data
I0403 02:30:37.048816 32199 net.cpp:399] data -> label
I0403 02:30:37.048883 32199 data_transformer.cpp:25] Loading mean file from: /home/mohanty/data/final_dataset/lmdb/grayscale-40-60/mean.binaryproto
I0403 02:30:37.090299 32204 db_lmdb.cpp:38] Opened lmdb /home/mohanty/data/final_dataset/lmdb/grayscale-40-60/train_db
I0403 02:30:37.108870 32199 data_layer.cpp:41] output data size: 100,3,227,227
I0403 02:30:37.247458 32199 net.cpp:141] Setting up data
I0403 02:30:37.247576 32199 net.cpp:148] Top shape: 100 3 227 227 (15458700)
I0403 02:30:37.247604 32199 net.cpp:148] Top shape: 100 (100)
I0403 02:30:37.247623 32199 net.cpp:156] Memory required for data: 61835200
I0403 02:30:37.247663 32199 layer_factory.hpp:77] Creating layer conv1
I0403 02:30:37.247717 32199 net.cpp:91] Creating Layer conv1
I0403 02:30:37.247745 32199 net.cpp:425] conv1 <- data
I0403 02:30:37.247786 32199 net.cpp:399] conv1 -> conv1
I0403 02:30:37.251385 32199 net.cpp:141] Setting up conv1
I0403 02:30:37.251423 32199 net.cpp:148] Top shape: 100 96 55 55 (29040000)
I0403 02:30:37.251444 32199 net.cpp:156] Memory required for data: 177995200
I0403 02:30:37.251503 32199 layer_factory.hpp:77] Creating layer relu1
I0403 02:30:37.251551 32199 net.cpp:91] Creating Layer relu1
I0403 02:30:37.251574 32199 net.cpp:425] relu1 <- conv1
I0403 02:30:37.251596 32199 net.cpp:386] relu1 -> conv1 (in-place)
I0403 02:30:37.251639 32199 net.cpp:141] Setting up relu1
I0403 02:30:37.251662 32199 net.cpp:148] Top shape: 100 96 55 55 (29040000)
I0403 02:30:37.251680 32199 net.cpp:156] Memory required for data: 294155200
I0403 02:30:37.251698 32199 layer_factory.hpp:77] Creating layer norm1
I0403 02:30:37.251721 32199 net.cpp:91] Creating Layer norm1
I0403 02:30:37.251787 32199 net.cpp:425] norm1 <- conv1
I0403 02:30:37.251811 32199 net.cpp:399] norm1 -> norm1
I0403 02:30:37.257331 32199 net.cpp:141] Setting up norm1
I0403 02:30:37.257380 32199 net.cpp:148] Top shape: 100 96 55 55 (29040000)
I0403 02:30:37.257400 32199 net.cpp:156] Memory required for data: 410315200
I0403 02:30:37.257418 32199 layer_factory.hpp:77] Creating layer pool1
I0403 02:30:37.257444 32199 net.cpp:91] Creating Layer pool1
I0403 02:30:37.257465 32199 net.cpp:425] pool1 <- norm1
I0403 02:30:37.257488 32199 net.cpp:399] pool1 -> pool1
I0403 02:30:37.257580 32199 net.cpp:141] Setting up pool1
I0403 02:30:37.257611 32199 net.cpp:148] Top shape: 100 96 27 27 (6998400)
I0403 02:30:37.257630 32199 net.cpp:156] Memory required for data: 438308800
I0403 02:30:37.257648 32199 layer_factory.hpp:77] Creating layer conv2
I0403 02:30:37.257676 32199 net.cpp:91] Creating Layer conv2
I0403 02:30:37.257699 32199 net.cpp:425] conv2 <- pool1
I0403 02:30:37.257722 32199 net.cpp:399] conv2 -> conv2
I0403 02:30:37.259619 32205 blocking_queue.cpp:50] Waiting for data
I0403 02:30:37.273674 32199 net.cpp:141] Setting up conv2
I0403 02:30:37.273710 32199 net.cpp:148] Top shape: 100 256 27 27 (18662400)
I0403 02:30:37.273731 32199 net.cpp:156] Memory required for data: 512958400
I0403 02:30:37.273757 32199 layer_factory.hpp:77] Creating layer relu2
I0403 02:30:37.273782 32199 net.cpp:91] Creating Layer relu2
I0403 02:30:37.273802 32199 net.cpp:425] relu2 <- conv2
I0403 02:30:37.273824 32199 net.cpp:386] relu2 -> conv2 (in-place)
I0403 02:30:37.273849 32199 net.cpp:141] Setting up relu2
I0403 02:30:37.273869 32199 net.cpp:148] Top shape: 100 256 27 27 (18662400)
I0403 02:30:37.273887 32199 net.cpp:156] Memory required for data: 587608000
I0403 02:30:37.273905 32199 layer_factory.hpp:77] Creating layer norm2
I0403 02:30:37.273927 32199 net.cpp:91] Creating Layer norm2
I0403 02:30:37.273947 32199 net.cpp:425] norm2 <- conv2
I0403 02:30:37.273967 32199 net.cpp:399] norm2 -> norm2
I0403 02:30:37.274024 32199 net.cpp:141] Setting up norm2
I0403 02:30:37.274050 32199 net.cpp:148] Top shape: 100 256 27 27 (18662400)
I0403 02:30:37.274068 32199 net.cpp:156] Memory required for data: 662257600
I0403 02:30:37.274087 32199 layer_factory.hpp:77] Creating layer pool2
I0403 02:30:37.274113 32199 net.cpp:91] Creating Layer pool2
I0403 02:30:37.274134 32199 net.cpp:425] pool2 <- norm2
I0403 02:30:37.274158 32199 net.cpp:399] pool2 -> pool2
I0403 02:30:37.274210 32199 net.cpp:141] Setting up pool2
I0403 02:30:37.274237 32199 net.cpp:148] Top shape: 100 256 13 13 (4326400)
I0403 02:30:37.274255 32199 net.cpp:156] Memory required for data: 679563200
I0403 02:30:37.274273 32199 layer_factory.hpp:77] Creating layer conv3
I0403 02:30:37.274301 32199 net.cpp:91] Creating Layer conv3
I0403 02:30:37.274322 32199 net.cpp:425] conv3 <- pool2
I0403 02:30:37.274354 32199 net.cpp:399] conv3 -> conv3
I0403 02:30:37.316129 32199 net.cpp:141] Setting up conv3
I0403 02:30:37.316171 32199 net.cpp:148] Top shape: 100 384 13 13 (6489600)
I0403 02:30:37.316191 32199 net.cpp:156] Memory required for data: 705521600
I0403 02:30:37.316218 32199 layer_factory.hpp:77] Creating layer relu3
I0403 02:30:37.316242 32199 net.cpp:91] Creating Layer relu3
I0403 02:30:37.316262 32199 net.cpp:425] relu3 <- conv3
I0403 02:30:37.316285 32199 net.cpp:386] relu3 -> conv3 (in-place)
I0403 02:30:37.316309 32199 net.cpp:141] Setting up relu3
I0403 02:30:37.316330 32199 net.cpp:148] Top shape: 100 384 13 13 (6489600)
I0403 02:30:37.316355 32199 net.cpp:156] Memory required for data: 731480000
I0403 02:30:37.316375 32199 layer_factory.hpp:77] Creating layer conv4
I0403 02:30:37.316401 32199 net.cpp:91] Creating Layer conv4
I0403 02:30:37.316422 32199 net.cpp:425] conv4 <- conv3
I0403 02:30:37.316447 32199 net.cpp:399] conv4 -> conv4
I0403 02:30:37.347924 32199 net.cpp:141] Setting up conv4
I0403 02:30:37.347965 32199 net.cpp:148] Top shape: 100 384 13 13 (6489600)
I0403 02:30:37.347985 32199 net.cpp:156] Memory required for data: 757438400
I0403 02:30:37.348026 32199 layer_factory.hpp:77] Creating layer relu4
I0403 02:30:37.348052 32199 net.cpp:91] Creating Layer relu4
I0403 02:30:37.348069 32199 net.cpp:425] relu4 <- conv4
I0403 02:30:37.348093 32199 net.cpp:386] relu4 -> conv4 (in-place)
I0403 02:30:37.348115 32199 net.cpp:141] Setting up relu4
I0403 02:30:37.348137 32199 net.cpp:148] Top shape: 100 384 13 13 (6489600)
I0403 02:30:37.348155 32199 net.cpp:156] Memory required for data: 783396800
I0403 02:30:37.348175 32199 layer_factory.hpp:77] Creating layer conv5
I0403 02:30:37.348201 32199 net.cpp:91] Creating Layer conv5
I0403 02:30:37.348222 32199 net.cpp:425] conv5 <- conv4
I0403 02:30:37.348247 32199 net.cpp:399] conv5 -> conv5
I0403 02:30:37.369352 32199 net.cpp:141] Setting up conv5
I0403 02:30:37.369392 32199 net.cpp:148] Top shape: 100 256 13 13 (4326400)
I0403 02:30:37.369412 32199 net.cpp:156] Memory required for data: 800702400
I0403 02:30:37.369439 32199 layer_factory.hpp:77] Creating layer relu5
I0403 02:30:37.369463 32199 net.cpp:91] Creating Layer relu5
I0403 02:30:37.369484 32199 net.cpp:425] relu5 <- conv5
I0403 02:30:37.369508 32199 net.cpp:386] relu5 -> conv5 (in-place)
I0403 02:30:37.369532 32199 net.cpp:141] Setting up relu5
I0403 02:30:37.369554 32199 net.cpp:148] Top shape: 100 256 13 13 (4326400)
I0403 02:30:37.369571 32199 net.cpp:156] Memory required for data: 818008000
I0403 02:30:37.369590 32199 layer_factory.hpp:77] Creating layer pool5
I0403 02:30:37.369611 32199 net.cpp:91] Creating Layer pool5
I0403 02:30:37.369632 32199 net.cpp:425] pool5 <- conv5
I0403 02:30:37.369653 32199 net.cpp:399] pool5 -> pool5
I0403 02:30:37.369712 32199 net.cpp:141] Setting up pool5
I0403 02:30:37.369740 32199 net.cpp:148] Top shape: 100 256 6 6 (921600)
I0403 02:30:37.369758 32199 net.cpp:156] Memory required for data: 821694400
I0403 02:30:37.369777 32199 layer_factory.hpp:77] Creating layer fc6
I0403 02:30:37.369827 32199 net.cpp:91] Creating Layer fc6
I0403 02:30:37.369853 32199 net.cpp:425] fc6 <- pool5
I0403 02:30:37.369879 32199 net.cpp:399] fc6 -> fc6
I0403 02:30:38.893580 32199 net.cpp:141] Setting up fc6
I0403 02:30:38.893664 32199 net.cpp:148] Top shape: 100 4096 (409600)
I0403 02:30:38.893682 32199 net.cpp:156] Memory required for data: 823332800
I0403 02:30:38.893702 32199 layer_factory.hpp:77] Creating layer relu6
I0403 02:30:38.893726 32199 net.cpp:91] Creating Layer relu6
I0403 02:30:38.893746 32199 net.cpp:425] relu6 <- fc6
I0403 02:30:38.893766 32199 net.cpp:386] relu6 -> fc6 (in-place)
I0403 02:30:38.893787 32199 net.cpp:141] Setting up relu6
I0403 02:30:38.893803 32199 net.cpp:148] Top shape: 100 4096 (409600)
I0403 02:30:38.893816 32199 net.cpp:156] Memory required for data: 824971200
I0403 02:30:38.893831 32199 layer_factory.hpp:77] Creating layer drop6
I0403 02:30:38.893882 32199 net.cpp:91] Creating Layer drop6
I0403 02:30:38.893900 32199 net.cpp:425] drop6 <- fc6
I0403 02:30:38.893916 32199 net.cpp:386] drop6 -> fc6 (in-place)
I0403 02:30:38.893975 32199 net.cpp:141] Setting up drop6
I0403 02:30:38.893996 32199 net.cpp:148] Top shape: 100 4096 (409600)
I0403 02:30:38.894009 32199 net.cpp:156] Memory required for data: 826609600
I0403 02:30:38.894023 32199 layer_factory.hpp:77] Creating layer fc7
I0403 02:30:38.894042 32199 net.cpp:91] Creating Layer fc7
I0403 02:30:38.894057 32199 net.cpp:425] fc7 <- fc6
I0403 02:30:38.894075 32199 net.cpp:399] fc7 -> fc7
I0403 02:30:39.502823 32199 net.cpp:141] Setting up fc7
I0403 02:30:39.502904 32199 net.cpp:148] Top shape: 100 4096 (409600)
I0403 02:30:39.502919 32199 net.cpp:156] Memory required for data: 828248000
I0403 02:30:39.502940 32199 layer_factory.hpp:77] Creating layer relu7
I0403 02:30:39.502966 32199 net.cpp:91] Creating Layer relu7
I0403 02:30:39.502985 32199 net.cpp:425] relu7 <- fc7
I0403 02:30:39.503003 32199 net.cpp:386] relu7 -> fc7 (in-place)
I0403 02:30:39.503024 32199 net.cpp:141] Setting up relu7
I0403 02:30:39.503041 32199 net.cpp:148] Top shape: 100 4096 (409600)
I0403 02:30:39.503053 32199 net.cpp:156] Memory required for data: 829886400
I0403 02:30:39.503067 32199 layer_factory.hpp:77] Creating layer drop7
I0403 02:30:39.503125 32199 net.cpp:91] Creating Layer drop7
I0403 02:30:39.503154 32199 net.cpp:425] drop7 <- fc7
I0403 02:30:39.503170 32199 net.cpp:386] drop7 -> fc7 (in-place)
I0403 02:30:39.503207 32199 net.cpp:141] Setting up drop7
I0403 02:30:39.503231 32199 net.cpp:148] Top shape: 100 4096 (409600)
I0403 02:30:39.503245 32199 net.cpp:156] Memory required for data: 831524800
I0403 02:30:39.503258 32199 layer_factory.hpp:77] Creating layer fc8_plantvillage
I0403 02:30:39.503278 32199 net.cpp:91] Creating Layer fc8_plantvillage
I0403 02:30:39.503293 32199 net.cpp:425] fc8_plantvillage <- fc7
I0403 02:30:39.503314 32199 net.cpp:399] fc8_plantvillage -> fc8_plantvillage
I0403 02:30:39.509361 32199 net.cpp:141] Setting up fc8_plantvillage
I0403 02:30:39.509387 32199 net.cpp:148] Top shape: 100 38 (3800)
I0403 02:30:39.509402 32199 net.cpp:156] Memory required for data: 831540000
I0403 02:30:39.509419 32199 layer_factory.hpp:77] Creating layer loss
I0403 02:30:39.509464 32199 net.cpp:91] Creating Layer loss
I0403 02:30:39.509482 32199 net.cpp:425] loss <- fc8_plantvillage
I0403 02:30:39.509497 32199 net.cpp:425] loss <- label
I0403 02:30:39.509521 32199 net.cpp:399] loss -> loss
I0403 02:30:39.509557 32199 layer_factory.hpp:77] Creating layer loss
…
I0403 02:30:39.511271 32199 net.cpp:313] The NetState phase (1) differed from the phase (0) specified by a rule in layer data
I0403 02:30:39.511890 32199 net.cpp:49] Initializing net from parameters: 
state {
  phase: TEST
}
layer {
  name: "data"
  type: "Data"
  top: "data"
  top: "label"
  include {
    phase: TEST
  }
  transform_param {
    crop_size: 227
    mean_file: "/home/mohanty/data/final_dataset/lmdb/grayscale-40-60/mean.binaryproto"
  }
  data_param {
    source: "/home/mohanty/data/final_dataset/lmdb/grayscale-40-60/test_db"
    batch_size: 100
    backend: LMDB
  }
}
layer {
  name: "conv1"
  type: "Convolution"
  bottom: "data"
  top: "conv1"
  param {
    lr_mult: 1
    decay_mult: 1
  }
  param {
    lr_mult: 2
    decay_mult: 0
  }
  convolution_param {
    num_output: 96
    kernel_size: 11
    stride: 4
    weight_filler {
      type: "gaussian"
      std: 0.01
    }
    bias_filler {
      type: "constant"
      value: 0
    }
  }
}
layer {
  name: "relu1"
  type: "ReLU"
  bottom: "conv1"
  top: "conv1"
}
layer {
  name: "norm1"
  type: "LRN"
  bottom: "conv1"
  top: "norm1"
  lrn_param {
    local_size: 5
    alpha: 0.0001
    beta: 0.75
  }
}
layer {
  name: "pool1"
  type: "Pooling"
  bottom: "norm1"
  top: "pool1"
  pooling_param {
    pool: MAX
    kernel_size: 3
    stride: 2
  }
}
layer {
  name: "conv2"
  type: "Convolution"
  bottom: "pool1"
  top: "conv2"
  param {
    lr_mult: 1
    decay_mult: 1
  }
  param {
    lr_mult: 2
    decay_mult: 0
  }
  convolution_param {
    num_output: 256
    pad: 2
    kernel_size: 5
    group: 2
    weight_filler {
      type: "gaussian"
      std: 0.01
    }
    bias_filler {
      type: "constant"
      value: 0.1
    }
  }
}
layer {
  name: "relu2"
  type: "ReLU"
  bottom: "conv2"
  top: "conv2"
}
layer {
  name: "norm2"
  type: "LRN"
  bottom: "conv2"
  top: "norm2"
  lrn_param {
    local_size: 5
    alpha: 0.0001
    beta: 0.75
  }
}
layer {
  name: "pool2"
  type: "Pooling"
  bottom: "norm2"
  top: "pool2"
  pooling_param {
    pool: MAX
    kernel_size: 3
    stride: 2
  }
}
layer {
  name: "conv3"
  type: "Convolution"
  bottom: "pool2"
  top: "conv3"
  param {
    lr_mult: 1
    decay_mult: 1
  }
  param {
    lr_mult: 2
    decay_mult: 0
  }
  convolution_param {
    num_output: 384
    pad: 1
    kernel_size: 3
    weight_filler {
      type: "gaussian"
      std: 0.01
    }
    bias_filler {
      type: "constant"
      value: 0
    }
  }
}
layer {
  name: "relu3"
  type: "ReLU"
  bottom: "conv3"
  top: "conv3"
}
layer {
  name: "conv4"
  type: "Convolution"
  bottom: "conv3"
  top: "conv4"
  param {
    lr_mult: 1
    decay_mult: 1
  }
  param {
    lr_mult: 2
    decay_mult: 0
  }
  convolution_param {
    num_output: 384
    pad: 1
    kernel_size: 3
    group: 2
    weight_filler {
      type: "gaussian"
      std: 0.01
    }
    bias_filler {
      type: "constant"
      value: 0.1
    }
  }
}
layer {
  name: "relu4"
  type: "ReLU"
  bottom: "conv4"
  top: "conv4"
}
layer {
  name: "conv5"
  type: "Convolution"
  bottom: "conv4"
  top: "conv5"
  param {
    lr_mult: 1
    decay_mult: 1
  }
  param {
    lr_mult: 2
    decay_mult: 0
  }
  convolution_param {
    num_output: 256
    pad: 1
    kernel_size: 3
    group: 2
    weight_filler {
      type: "gaussian"
      std: 0.01
    }
    bias_filler {
      type: "constant"
      value: 0.1
    }
  }
}
layer {
  name: "relu5"
  type: "ReLU"
  bottom: "conv5"
  top: "conv5"
}
layer {
  name: "pool5"
  type: "Pooling"
  bottom: "conv5"
  top: "pool5"
  pooling_param {
    pool: MAX
    kernel_size: 3
    stride: 2
  }
}
layer {
  name: "fc6"
  type: "InnerProduct"
  bottom: "pool5"
  top: "fc6"
  param {
    lr_mult: 1
    decay_mult: 1
  }
  param {
    lr_mult: 2
    decay_mult: 0
  }
  inner_product_param {
    num_output: 4096
    weight_filler {
      type: "gaussian"
      std: 0.005
    }
    bias_filler {
      type: "constant"
      value: 0.1
    }
  }
}
layer {
  name: "relu6"
  type: "ReLU"
  bottom: "fc6"
  top: "fc6"
}
layer {
  name: "drop6"
  type: "Dropout"
  bottom: "fc6"
  top: "fc6"
  dropout_param {
    dropout_ratio: 0.5
  }
}
layer {
  name: "fc7"
  type: "InnerProduct"
  bottom: "fc6"
  top: "fc7"
  param {
    lr_mult: 1
    decay_mult: 1
  }
  param {
    lr_mult: 2
    decay_mult: 0
  }
  inner_product_param {
    num_output: 4096
    weight_filler {
      type: "gaussian"
      std: 0.005
    }
    bias_filler {
      type: "constant"
      value: 0.1
    }
  }
}
layer {
  name: "relu7"
  type: "ReLU"
  bottom: "fc7"
  top: "fc7"
}
layer {
  name: "drop7"
  type: "Dropout"
  bottom: "fc7"
  top: "fc7"
  dropout_param {
    dropout_ratio: 0.5
  }
}
layer {
  name: "fc8_plantvillage"
  type: "InnerProduct"
  bottom: "fc7"
  top: "fc8_plantvillage"
  param {
    lr_mult: 1
    decay_mult: 1
  }
  param {
    lr_mult: 2
    decay_mult: 0
  }
  inner_product_param {
    num_output: 38
    weight_filler {
      type: "gaussian"
      std: 0.01
    }
    bias_filler {
      type: "constant"
      value: 0
    }
  }
}
layer {
  name: "loss"
  type: "SoftmaxWithLoss"
  bottom: "fc8_plantvillage"
  bottom: "label"
  top: "loss"
}
layer {
  name: "accuracy"
  type: "Accuracy"
  bottom: "fc8_plantvillage"
  bottom: "label"
  top: "accuracy"
  include {
    phase: TEST
  }
}
I0403 02:30:39.512058 32199 layer_factory.hpp:77] Creating layer data
I0403 02:30:39.512222 32199 net.cpp:91] Creating Layer data
I0403 02:30:39.512246 32199 net.cpp:399] data -> data
I0403 02:30:39.512275 32199 net.cpp:399] data -> label
I0403 02:30:39.512298 32199 data_transformer.cpp:25] Loading mean file from: /home/mohanty/data/final_dataset/lmdb/grayscale-40-60/mean.binaryproto
I0403 02:30:39.527808 32207 db_lmdb.cpp:38] Opened lmdb /home/mohanty/data/final_dataset/lmdb/grayscale-40-60/test_db
I0403 02:30:39.534864 32199 data_layer.cpp:41] output data size: 100,3,227,227
I0403 02:30:39.733429 32199 net.cpp:141] Setting up data
I0403 02:30:39.733537 32199 net.cpp:148] Top shape: 100 3 227 227 (15458700)
I0403 02:30:39.733651 32199 net.cpp:148] Top shape: 100 (100)
I0403 02:30:39.733772 32199 net.cpp:156] Memory required for data: 61835200
I0403 02:30:39.733873 32199 layer_factory.hpp:77] Creating layer label_data_1_split
I0403 02:30:39.733994 32199 net.cpp:91] Creating Layer label_data_1_split
I0403 02:30:39.734132 32199 net.cpp:425] label_data_1_split <- label
I0403 02:30:39.734164 32199 net.cpp:399] label_data_1_split -> label_data_1_split_0
I0403 02:30:39.734266 32199 net.cpp:399] label_data_1_split -> label_data_1_split_1
I0403 02:30:39.734477 32199 net.cpp:141] Setting up label_data_1_split
I0403 02:30:39.734638 32199 net.cpp:148] Top shape: 100 (100)
I0403 02:30:39.735128 32199 net.cpp:148] Top shape: 100 (100)
I0403 02:30:39.735507 32199 net.cpp:156] Memory required for data: 61836000
I0403 02:30:39.735589 32199 layer_factory.hpp:77] Creating layer conv1
I0403 02:30:39.735716 32199 net.cpp:91] Creating Layer conv1
I0403 02:30:39.735874 32199 net.cpp:425] conv1 <- data
I0403 02:30:39.735975 32199 net.cpp:399] conv1 -> conv1
I0403 02:30:39.748699 32199 net.cpp:141] Setting up conv1
I0403 02:30:39.773144 32199 net.cpp:148] Top shape: 100 96 55 55 (29040000)
I0403 02:30:39.773270 32199 net.cpp:156] Memory required for data: 177996000
I0403 02:30:39.773334 32199 layer_factory.hpp:77] Creating layer relu1
I0403 02:30:39.773459 32199 net.cpp:91] Creating Layer relu1
I0403 02:30:39.773710 32199 net.cpp:425] relu1 <- conv1
I0403 02:30:39.773907 32199 net.cpp:386] relu1 -> conv1 (in-place)
I0403 02:30:39.774204 32199 net.cpp:141] Setting up relu1
I0403 02:30:39.774420 32199 net.cpp:148] Top shape: 100 96 55 55 (29040000)
I0403 02:30:39.774521 32199 net.cpp:156] Memory required for data: 294156000
I0403 02:30:39.774847 32199 layer_factory.hpp:77] Creating layer norm1
I0403 02:30:39.774958 32199 net.cpp:91] Creating Layer norm1
I0403 02:30:39.775056 32199 net.cpp:425] norm1 <- conv1
I0403 02:30:39.775135 32199 net.cpp:399] norm1 -> norm1
I0403 02:30:39.775285 32199 net.cpp:141] Setting up norm1
I0403 02:30:39.775391 32199 net.cpp:148] Top shape: 100 96 55 55 (29040000)
I0403 02:30:39.775436 32199 net.cpp:156] Memory required for data: 410316000
I0403 02:30:39.775509 32199 layer_factory.hpp:77] Creating layer pool1
I0403 02:30:39.775593 32199 net.cpp:91] Creating Layer pool1
I0403 02:30:39.775670 32199 net.cpp:425] pool1 <- norm1
I0403 02:30:39.775748 32199 net.cpp:399] pool1 -> pool1
I0403 02:30:39.775951 32199 net.cpp:141] Setting up pool1
I0403 02:30:39.776029 32199 net.cpp:148] Top shape: 100 96 27 27 (6998400)
I0403 02:30:39.776108 32199 net.cpp:156] Memory required for data: 438309600
I0403 02:30:39.776265 32199 layer_factory.hpp:77] Creating layer conv2
I0403 02:30:39.776404 32199 net.cpp:91] Creating Layer conv2
I0403 02:30:39.776497 32199 net.cpp:425] conv2 <- pool1
I0403 02:30:39.776593 32199 net.cpp:399] conv2 -> conv2
I0403 02:30:39.806195 32199 net.cpp:141] Setting up conv2
I0403 02:30:39.874553 32199 net.cpp:148] Top shape: 100 256 27 27 (18662400)
I0403 02:30:39.874617 32199 net.cpp:156] Memory required for data: 512959200
I0403 02:30:39.874680 32199 layer_factory.hpp:77] Creating layer relu2
I0403 02:30:39.874733 32199 net.cpp:91] Creating Layer relu2
I0403 02:30:39.874775 32199 net.cpp:425] relu2 <- conv2
I0403 02:30:39.874824 32199 net.cpp:386] relu2 -> conv2 (in-place)
I0403 02:30:39.874876 32199 net.cpp:141] Setting up relu2
I0403 02:30:39.874925 32199 net.cpp:148] Top shape: 100 256 27 27 (18662400)
I0403 02:30:39.874969 32199 net.cpp:156] Memory required for data: 587608800
I0403 02:30:39.875008 32199 layer_factory.hpp:77] Creating layer norm2
I0403 02:30:39.875066 32199 net.cpp:91] Creating Layer norm2
I0403 02:30:39.875108 32199 net.cpp:425] norm2 <- conv2
I0403 02:30:39.875155 32199 net.cpp:399] norm2 -> norm2
I0403 02:30:39.875335 32199 net.cpp:141] Setting up norm2
I0403 02:30:39.875406 32199 net.cpp:148] Top shape: 100 256 27 27 (18662400)
I0403 02:30:39.875445 32199 net.cpp:156] Memory required for data: 662258400
I0403 02:30:39.875483 32199 layer_factory.hpp:77] Creating layer pool2
I0403 02:30:39.875751 32199 net.cpp:91] Creating Layer pool2
I0403 02:30:39.875844 32199 net.cpp:425] pool2 <- norm2
I0403 02:30:39.875895 32199 net.cpp:399] pool2 -> pool2
I0403 02:30:39.876067 32199 net.cpp:141] Setting up pool2
I0403 02:30:39.876147 32199 net.cpp:148] Top shape: 100 256 13 13 (4326400)
I0403 02:30:39.876222 32199 net.cpp:156] Memory required for data: 679564000
I0403 02:30:39.876305 32199 layer_factory.hpp:77] Creating layer conv3
I0403 02:30:39.876407 32199 net.cpp:91] Creating Layer conv3
I0403 02:30:39.876505 32199 net.cpp:425] conv3 <- pool2
I0403 02:30:39.876591 32199 net.cpp:399] conv3 -> conv3
I0403 02:30:39.919322 32199 net.cpp:141] Setting up conv3
I0403 02:30:39.919356 32199 net.cpp:148] Top shape: 100 384 13 13 (6489600)
I0403 02:30:39.919414 32199 net.cpp:156] Memory required for data: 705522400
I0403 02:30:39.919522 32199 layer_factory.hpp:77] Creating layer relu3
I0403 02:30:39.919679 32199 net.cpp:91] Creating Layer relu3
I0403 02:30:39.919739 32199 net.cpp:425] relu3 <- conv3
I0403 02:30:39.919780 32199 net.cpp:386] relu3 -> conv3 (in-place)
I0403 02:30:39.919878 32199 net.cpp:141] Setting up relu3
I0403 02:30:39.919934 32199 net.cpp:148] Top shape: 100 384 13 13 (6489600)
I0403 02:30:39.919965 32199 net.cpp:156] Memory required for data: 731480800
I0403 02:30:39.920016 32199 layer_factory.hpp:77] Creating layer conv4
I0403 02:30:39.920138 32199 net.cpp:91] Creating Layer conv4
I0403 02:30:39.920469 32199 net.cpp:425] conv4 <- conv3
I0403 02:30:39.920521 32199 net.cpp:399] conv4 -> conv4
I0403 02:30:39.949388 32199 net.cpp:141] Setting up conv4
I0403 02:30:39.949429 32199 net.cpp:148] Top shape: 100 384 13 13 (6489600)
I0403 02:30:39.949446 32199 net.cpp:156] Memory required for data: 757439200
I0403 02:30:39.949466 32199 layer_factory.hpp:77] Creating layer relu4
I0403 02:30:39.949488 32199 net.cpp:91] Creating Layer relu4
I0403 02:30:39.949506 32199 net.cpp:425] relu4 <- conv4
I0403 02:30:39.949524 32199 net.cpp:386] relu4 -> conv4 (in-place)
I0403 02:30:39.949545 32199 net.cpp:141] Setting up relu4
I0403 02:30:39.949563 32199 net.cpp:148] Top shape: 100 384 13 13 (6489600)
I0403 02:30:39.949578 32199 net.cpp:156] Memory required for data: 783397600
I0403 02:30:39.949592 32199 layer_factory.hpp:77] Creating layer conv5
I0403 02:30:39.949616 32199 net.cpp:91] Creating Layer conv5
I0403 02:30:39.949633 32199 net.cpp:425] conv5 <- conv4
I0403 02:30:39.949653 32199 net.cpp:399] conv5 -> conv5
I0403 02:30:39.968399 32199 net.cpp:141] Setting up conv5
I0403 02:30:39.968430 32199 net.cpp:148] Top shape: 100 256 13 13 (4326400)
I0403 02:30:39.968474 32199 net.cpp:156] Memory required for data: 800703200
I0403 02:30:39.968500 32199 layer_factory.hpp:77] Creating layer relu5
I0403 02:30:39.968524 32199 net.cpp:91] Creating Layer relu5
I0403 02:30:39.968543 32199 net.cpp:425] relu5 <- conv5
I0403 02:30:39.968561 32199 net.cpp:386] relu5 -> conv5 (in-place)
I0403 02:30:39.968581 32199 net.cpp:141] Setting up relu5
I0403 02:30:39.968600 32199 net.cpp:148] Top shape: 100 256 13 13 (4326400)
I0403 02:30:39.968614 32199 net.cpp:156] Memory required for data: 818008800
I0403 02:30:39.968628 32199 layer_factory.hpp:77] Creating layer pool5
I0403 02:30:39.968650 32199 net.cpp:91] Creating Layer pool5
I0403 02:30:39.968667 32199 net.cpp:425] pool5 <- conv5
I0403 02:30:39.968686 32199 net.cpp:399] pool5 -> pool5
I0403 02:30:39.968832 32199 net.cpp:141] Setting up pool5
I0403 02:30:39.968858 32199 net.cpp:148] Top shape: 100 256 6 6 (921600)
I0403 02:30:39.968873 32199 net.cpp:156] Memory required for data: 821695200
I0403 02:30:39.968888 32199 layer_factory.hpp:77] Creating layer fc6
I0403 02:30:39.968909 32199 net.cpp:91] Creating Layer fc6
I0403 02:30:39.968926 32199 net.cpp:425] fc6 <- pool5
I0403 02:30:39.968948 32199 net.cpp:399] fc6 -> fc6
I0403 02:30:41.394845 32199 net.cpp:141] Setting up fc6
I0403 02:30:41.394934 32199 net.cpp:148] Top shape: 100 4096 (409600)
I0403 02:30:41.394949 32199 net.cpp:156] Memory required for data: 823333600
I0403 02:30:41.394973 32199 layer_factory.hpp:77] Creating layer relu6
I0403 02:30:41.394999 32199 net.cpp:91] Creating Layer relu6
I0403 02:30:41.395015 32199 net.cpp:425] relu6 <- fc6
I0403 02:30:41.395037 32199 net.cpp:386] relu6 -> fc6 (in-place)
I0403 02:30:41.395061 32199 net.cpp:141] Setting up relu6
I0403 02:30:41.395076 32199 net.cpp:148] Top shape: 100 4096 (409600)
I0403 02:30:41.395090 32199 net.cpp:156] Memory required for data: 824972000
I0403 02:30:41.395104 32199 layer_factory.hpp:77] Creating layer drop6
I0403 02:30:41.395123 32199 net.cpp:91] Creating Layer drop6
I0403 02:30:41.395149 32199 net.cpp:425] drop6 <- fc6
I0403 02:30:41.395165 32199 net.cpp:386] drop6 -> fc6 (in-place)
I0403 02:30:41.395208 32199 net.cpp:141] Setting up drop6
I0403 02:30:41.395231 32199 net.cpp:148] Top shape: 100 4096 (409600)
I0403 02:30:41.395243 32199 net.cpp:156] Memory required for data: 826610400
I0403 02:30:41.395258 32199 layer_factory.hpp:77] Creating layer fc7
I0403 02:30:41.395279 32199 net.cpp:91] Creating Layer fc7
I0403 02:30:41.395294 32199 net.cpp:425] fc7 <- fc6
I0403 02:30:41.395313 32199 net.cpp:399] fc7 -> fc7
I0403 02:30:42.002950 32199 net.cpp:141] Setting up fc7
I0403 02:30:42.003039 32199 net.cpp:148] Top shape: 100 4096 (409600)
I0403 02:30:42.003075 32199 net.cpp:156] Memory required for data: 828248800
I0403 02:30:42.003109 32199 layer_factory.hpp:77] Creating layer relu7
I0403 02:30:42.003185 32199 net.cpp:91] Creating Layer relu7
I0403 02:30:42.003237 32199 net.cpp:425] relu7 <- fc7
I0403 02:30:42.003262 32199 net.cpp:386] relu7 -> fc7 (in-place)
I0403 02:30:42.003285 32199 net.cpp:141] Setting up relu7
I0403 02:30:42.003303 32199 net.cpp:148] Top shape: 100 4096 (409600)
I0403 02:30:42.003316 32199 net.cpp:156] Memory required for data: 829887200
I0403 02:30:42.003330 32199 layer_factory.hpp:77] Creating layer drop7
I0403 02:30:42.003355 32199 net.cpp:91] Creating Layer drop7
I0403 02:30:42.003372 32199 net.cpp:425] drop7 <- fc7
I0403 02:30:42.003389 32199 net.cpp:386] drop7 -> fc7 (in-place)
I0403 02:30:42.003427 32199 net.cpp:141] Setting up drop7
I0403 02:30:42.003448 32199 net.cpp:148] Top shape: 100 4096 (409600)
I0403 02:30:42.003463 32199 net.cpp:156] Memory required for data: 831525600
I0403 02:30:42.003482 32199 layer_factory.hpp:77] Creating layer fc8_plantvillage
I0403 02:30:42.003516 32199 net.cpp:91] Creating Layer fc8_plantvillage
I0403 02:30:42.003538 32199 net.cpp:425] fc8_plantvillage <- fc7
I0403 02:30:42.003571 32199 net.cpp:399] fc8_plantvillage -> fc8_plantvillage
I0403 02:30:42.009855 32199 net.cpp:141] Setting up fc8_plantvillage
I0403 02:30:42.009883 32199 net.cpp:148] Top shape: 100 38 (3800)
I0403 02:30:42.009928 32199 net.cpp:156] Memory required for data: 831540800
I0403 02:30:42.009946 32199 layer_factory.hpp:77] Creating layer fc8_plantvillage_fc8_plantvillage_0_split
I0403 02:30:42.009968 32199 net.cpp:91] Creating Layer fc8_plantvillage_fc8_plantvillage_0_split
I0403 02:30:42.010004 32199 net.cpp:425] fc8_plantvillage_fc8_plantvillage_0_split <- fc8_plantvillage
I0403 02:30:42.010025 32199 net.cpp:399] fc8_plantvillage_fc8_plantvillage_0_split -> fc8_plantvillage_fc8_plantvillage_0_split_0
I0403 02:30:42.010049 32199 net.cpp:399] fc8_plantvillage_fc8_plantvillage_0_split -> fc8_plantvillage_fc8_plantvillage_0_split_1
I0403 02:30:42.010098 32199 net.cpp:141] Setting up fc8_plantvillage_fc8_plantvillage_0_split
I0403 02:30:42.010123 32199 net.cpp:148] Top shape: 100 38 (3800)
I0403 02:30:42.010140 32199 net.cpp:148] Top shape: 100 38 (3800)
I0403 02:30:42.010156 32199 net.cpp:156] Memory required for data: 831571200
I0403 02:30:42.010170 32199 layer_factory.hpp:77] Creating layer loss
I0403 02:30:42.010187 32199 net.cpp:91] Creating Layer loss
I0403 02:30:42.010202 32199 net.cpp:425] loss <- fc8_plantvillage_fc8_plantvillage_0_split_0
I0403 02:30:42.010217 32199 net.cpp:425] loss <- label_data_1_split_0
I0403 02:30:42.010233 32199 net.cpp:399] loss -> loss
…
