…
I0403 12:50:40.071049 30884 net.cpp:313] The NetState phase (1) differed from the phase (0) specified by a rule in layer data
I0403 12:50:40.071367 30884 net.cpp:49] Initializing net from parameters: 
state {
  phase: TEST
}
layer {
  name: "data"
  type: "Data"
  top: "data"
  top: "label"
  include {
    phase: TEST
  }
  transform_param {
    crop_size: 227
    mean_file: "/home/mohanty/data/final_dataset/lmdb/grayscale-40-60/mean.binaryproto"
  }
  data_param {
    source: "/home/mohanty/data/final_dataset/lmdb/grayscale-40-60/test_db"
    batch_size: 100
    backend: LMDB
  }
}
layer {
  name: "conv1"
  type: "Convolution"
  bottom: "data"
  top: "conv1"
  param {
    lr_mult: 1
    decay_mult: 1
  }
  param {
    lr_mult: 2
    decay_mult: 0
  }
  convolution_param {
    num_output: 96
    kernel_size: 11
    stride: 4
    weight_filler {
      type: "gaussian"
      std: 0.01
    }
    bias_filler {
      type: "constant"
      value: 0
    }
  }
}
layer {
  name: "relu1"
  type: "ReLU"
  bottom: "conv1"
  top: "conv1"
}
layer {
  name: "norm1"
  type: "LRN"
  bottom: "conv1"
  top: "norm1"
  lrn_param {
    local_size: 5
    alpha: 0.0001
    beta: 0.75
  }
}
layer {
  name: "pool1"
  type: "Pooling"
  bottom: "norm1"
  top: "pool1"
  pooling_param {
    pool: MAX
    kernel_size: 3
    stride: 2
  }
}
layer {
  name: "conv2"
  type: "Convolution"
  bottom: "pool1"
  top: "conv2"
  param {
    lr_mult: 1
    decay_mult: 1
  }
  param {
    lr_mult: 2
    decay_mult: 0
  }
  convolution_param {
    num_output: 256
    pad: 2
    kernel_size: 5
    group: 2
    weight_filler {
      type: "gaussian"
      std: 0.01
    }
    bias_filler {
      type: "constant"
      value: 0.1
    }
  }
}
layer {
  name: "relu2"
  type: "ReLU"
  bottom: "conv2"
  top: "conv2"
}
layer {
  name: "norm2"
  type: "LRN"
  bottom: "conv2"
  top: "norm2"
  lrn_param {
    local_size: 5
    alpha: 0.0001
    beta: 0.75
  }
}
layer {
  name: "pool2"
  type: "Pooling"
  bottom: "norm2"
  top: "pool2"
  pooling_param {
    pool: MAX
    kernel_size: 3
    stride: 2
  }
}
layer {
  name: "conv3"
  type: "Convolution"
  bottom: "pool2"
  top: "conv3"
  param {
    lr_mult: 1
    decay_mult: 1
  }
  param {
    lr_mult: 2
    decay_mult: 0
  }
  convolution_param {
    num_output: 384
    pad: 1
    kernel_size: 3
    weight_filler {
      type: "gaussian"
      std: 0.01
    }
    bias_filler {
      type: "constant"
      value: 0
    }
  }
}
layer {
  name: "relu3"
  type: "ReLU"
  bottom: "conv3"
  top: "conv3"
}
layer {
  name: "conv4"
  type: "Convolution"
  bottom: "conv3"
  top: "conv4"
  param {
    lr_mult: 1
    decay_mult: 1
  }
  param {
    lr_mult: 2
    decay_mult: 0
  }
  convolution_param {
    num_output: 384
    pad: 1
    kernel_size: 3
    group: 2
    weight_filler {
      type: "gaussian"
      std: 0.01
    }
    bias_filler {
      type: "constant"
      value: 0.1
    }
  }
}
layer {
  name: "relu4"
  type: "ReLU"
  bottom: "conv4"
  top: "conv4"
}
layer {
  name: "conv5"
  type: "Convolution"
  bottom: "conv4"
  top: "conv5"
  param {
    lr_mult: 1
    decay_mult: 1
  }
  param {
    lr_mult: 2
    decay_mult: 0
  }
  convolution_param {
    num_output: 256
    pad: 1
    kernel_size: 3
    group: 2
    weight_filler {
      type: "gaussian"
      std: 0.01
    }
    bias_filler {
      type: "constant"
      value: 0.1
    }
  }
}
layer {
  name: "relu5"
  type: "ReLU"
  bottom: "conv5"
  top: "conv5"
}
layer {
  name: "pool5"
  type: "Pooling"
  bottom: "conv5"
  top: "pool5"
  pooling_param {
    pool: MAX
    kernel_size: 3
    stride: 2
  }
}
layer {
  name: "fc6"
  type: "InnerProduct"
  bottom: "pool5"
  top: "fc6"
  param {
    lr_mult: 1
    decay_mult: 1
  }
  param {
    lr_mult: 2
    decay_mult: 0
  }
  inner_product_param {
    num_output: 4096
    weight_filler {
      type: "gaussian"
      std: 0.005
    }
    bias_filler {
      type: "constant"
      value: 0.1
    }
  }
}
layer {
  name: "relu6"
  type: "ReLU"
  bottom: "fc6"
  top: "fc6"
}
layer {
  name: "drop6"
  type: "Dropout"
  bottom: "fc6"
  top: "fc6"
  dropout_param {
    dropout_ratio: 0.5
  }
}
layer {
  name: "fc7"
  type: "InnerProduct"
  bottom: "fc6"
  top: "fc7"
  param {
    lr_mult: 1
    decay_mult: 1
  }
  param {
    lr_mult: 2
    decay_mult: 0
  }
  inner_product_param {
    num_output: 4096
    weight_filler {
      type: "gaussian"
      std: 0.005
    }
    bias_filler {
      type: "constant"
      value: 0.1
    }
  }
}
layer {
  name: "relu7"
  type: "ReLU"
  bottom: "fc7"
  top: "fc7"
}
layer {
  name: "drop7"
  type: "Dropout"
  bottom: "fc7"
  top: "fc7"
  dropout_param {
    dropout_ratio: 0.5
  }
}
layer {
  name: "fc8_plantvillage"
  type: "InnerProduct"
  bottom: "fc7"
  top: "fc8_plantvillage"
  param {
    lr_mult: 1
    decay_mult: 1
  }
  param {
    lr_mult: 2
    decay_mult: 0
  }
  inner_product_param {
    num_output: 38
    weight_filler {
      type: "gaussian"
      std: 0.01
    }
    bias_filler {
      type: "constant"
      value: 0
    }
  }
}
layer {
  name: "prob"
  type: "Softmax"
  bottom: "fc8_plantvillage"
  top: "prob"
  include {
    phase: TEST
  }
}
layer {
  name: "hdf5out"
  type: "HDF5Output"
  bottom: "prob"
  bottom: "label"
  include {
    phase: TEST
  }
  hdf5_output_param {
    file_name: "hdf5_dumps/iter_3504.h5"
  }
}
layer {
  name: "loss"
  type: "SoftmaxWithLoss"
  bottom: "fc8_plantvillage"
  bottom: "label"
  top: "loss"
}
layer {
  name: "accuracy"
  type: "Accuracy"
  bottom: "fc8_plantvillage"
  bottom: "label"
  top: "accuracy"
  include {
    phase: TEST
  }
}
I0403 12:50:40.071902 30884 layer_factory.hpp:77] Creating layer data
I0403 12:50:40.072546 30884 net.cpp:91] Creating Layer data
I0403 12:50:40.072579 30884 net.cpp:399] data -> data
I0403 12:50:40.072631 30884 net.cpp:399] data -> label
I0403 12:50:40.072669 30884 data_transformer.cpp:25] Loading mean file from: /home/mohanty/data/final_dataset/lmdb/grayscale-40-60/mean.binaryproto
I0403 12:50:40.075299 30887 db_lmdb.cpp:38] Opened lmdb /home/mohanty/data/final_dataset/lmdb/grayscale-40-60/test_db
I0403 12:50:40.087585 30884 data_layer.cpp:41] output data size: 100,3,227,227
I0403 12:50:40.205226 30884 net.cpp:141] Setting up data
I0403 12:50:40.205328 30884 net.cpp:148] Top shape: 100 3 227 227 (15458700)
I0403 12:50:40.205350 30884 net.cpp:148] Top shape: 100 (100)
I0403 12:50:40.205366 30884 net.cpp:156] Memory required for data: 61835200
I0403 12:50:40.205392 30884 layer_factory.hpp:77] Creating layer label_data_1_split
I0403 12:50:40.205417 30884 net.cpp:91] Creating Layer label_data_1_split
I0403 12:50:40.205435 30884 net.cpp:425] label_data_1_split <- label
I0403 12:50:40.205466 30884 net.cpp:399] label_data_1_split -> label_data_1_split_0
I0403 12:50:40.205492 30884 net.cpp:399] label_data_1_split -> label_data_1_split_1
I0403 12:50:40.205513 30884 net.cpp:399] label_data_1_split -> label_data_1_split_2
I0403 12:50:40.205576 30884 net.cpp:141] Setting up label_data_1_split
I0403 12:50:40.205600 30884 net.cpp:148] Top shape: 100 (100)
I0403 12:50:40.205616 30884 net.cpp:148] Top shape: 100 (100)
I0403 12:50:40.205632 30884 net.cpp:148] Top shape: 100 (100)
I0403 12:50:40.205646 30884 net.cpp:156] Memory required for data: 61836400
I0403 12:50:40.205662 30884 layer_factory.hpp:77] Creating layer conv1
I0403 12:50:40.205693 30884 net.cpp:91] Creating Layer conv1
I0403 12:50:40.205711 30884 net.cpp:425] conv1 <- data
I0403 12:50:40.205730 30884 net.cpp:399] conv1 -> conv1
I0403 12:50:40.347993 30884 net.cpp:141] Setting up conv1
I0403 12:50:40.348083 30884 net.cpp:148] Top shape: 100 96 55 55 (29040000)
I0403 12:50:40.348103 30884 net.cpp:156] Memory required for data: 177996400
I0403 12:50:40.348137 30884 layer_factory.hpp:77] Creating layer relu1
I0403 12:50:40.348165 30884 net.cpp:91] Creating Layer relu1
I0403 12:50:40.348184 30884 net.cpp:425] relu1 <- conv1
I0403 12:50:40.348202 30884 net.cpp:386] relu1 -> conv1 (in-place)
I0403 12:50:40.348472 30884 net.cpp:141] Setting up relu1
I0403 12:50:40.348498 30884 net.cpp:148] Top shape: 100 96 55 55 (29040000)
I0403 12:50:40.348546 30884 net.cpp:156] Memory required for data: 294156400
I0403 12:50:40.348562 30884 layer_factory.hpp:77] Creating layer norm1
I0403 12:50:40.348587 30884 net.cpp:91] Creating Layer norm1
I0403 12:50:40.348604 30884 net.cpp:425] norm1 <- conv1
I0403 12:50:40.348660 30884 net.cpp:399] norm1 -> norm1
I0403 12:50:40.348963 30884 net.cpp:141] Setting up norm1
I0403 12:50:40.348990 30884 net.cpp:148] Top shape: 100 96 55 55 (29040000)
I0403 12:50:40.349005 30884 net.cpp:156] Memory required for data: 410316400
I0403 12:50:40.349020 30884 layer_factory.hpp:77] Creating layer pool1
I0403 12:50:40.349043 30884 net.cpp:91] Creating Layer pool1
I0403 12:50:40.349061 30884 net.cpp:425] pool1 <- norm1
I0403 12:50:40.349077 30884 net.cpp:399] pool1 -> pool1
I0403 12:50:40.349143 30884 net.cpp:141] Setting up pool1
I0403 12:50:40.349176 30884 net.cpp:148] Top shape: 100 96 27 27 (6998400)
I0403 12:50:40.349192 30884 net.cpp:156] Memory required for data: 438310000
I0403 12:50:40.349206 30884 layer_factory.hpp:77] Creating layer conv2
I0403 12:50:40.349237 30884 net.cpp:91] Creating Layer conv2
I0403 12:50:40.349253 30884 net.cpp:425] conv2 <- pool1
I0403 12:50:40.349272 30884 net.cpp:399] conv2 -> conv2
I0403 12:50:40.364272 30884 net.cpp:141] Setting up conv2
I0403 12:50:40.364321 30884 net.cpp:148] Top shape: 100 256 27 27 (18662400)
I0403 12:50:40.364338 30884 net.cpp:156] Memory required for data: 512959600
I0403 12:50:40.364362 30884 layer_factory.hpp:77] Creating layer relu2
I0403 12:50:40.364382 30884 net.cpp:91] Creating Layer relu2
I0403 12:50:40.364398 30884 net.cpp:425] relu2 <- conv2
I0403 12:50:40.364418 30884 net.cpp:386] relu2 -> conv2 (in-place)
I0403 12:50:40.364701 30884 net.cpp:141] Setting up relu2
I0403 12:50:40.364730 30884 net.cpp:148] Top shape: 100 256 27 27 (18662400)
I0403 12:50:40.364747 30884 net.cpp:156] Memory required for data: 587609200
I0403 12:50:40.364761 30884 layer_factory.hpp:77] Creating layer norm2
I0403 12:50:40.364786 30884 net.cpp:91] Creating Layer norm2
I0403 12:50:40.364804 30884 net.cpp:425] norm2 <- conv2
I0403 12:50:40.364822 30884 net.cpp:399] norm2 -> norm2
I0403 12:50:40.365020 30884 net.cpp:141] Setting up norm2
I0403 12:50:40.365047 30884 net.cpp:148] Top shape: 100 256 27 27 (18662400)
I0403 12:50:40.365063 30884 net.cpp:156] Memory required for data: 662258800
I0403 12:50:40.365078 30884 layer_factory.hpp:77] Creating layer pool2
I0403 12:50:40.365097 30884 net.cpp:91] Creating Layer pool2
I0403 12:50:40.365111 30884 net.cpp:425] pool2 <- norm2
I0403 12:50:40.365130 30884 net.cpp:399] pool2 -> pool2
I0403 12:50:40.365183 30884 net.cpp:141] Setting up pool2
I0403 12:50:40.365206 30884 net.cpp:148] Top shape: 100 256 13 13 (4326400)
I0403 12:50:40.365226 30884 net.cpp:156] Memory required for data: 679564400
I0403 12:50:40.365242 30884 layer_factory.hpp:77] Creating layer conv3
I0403 12:50:40.365264 30884 net.cpp:91] Creating Layer conv3
I0403 12:50:40.365283 30884 net.cpp:425] conv3 <- pool2
I0403 12:50:40.365303 30884 net.cpp:399] conv3 -> conv3
I0403 12:50:40.404258 30884 net.cpp:141] Setting up conv3
I0403 12:50:40.404350 30884 net.cpp:148] Top shape: 100 384 13 13 (6489600)
I0403 12:50:40.404366 30884 net.cpp:156] Memory required for data: 705522800
I0403 12:50:40.404393 30884 layer_factory.hpp:77] Creating layer relu3
I0403 12:50:40.404440 30884 net.cpp:91] Creating Layer relu3
I0403 12:50:40.404460 30884 net.cpp:425] relu3 <- conv3
I0403 12:50:40.404480 30884 net.cpp:386] relu3 -> conv3 (in-place)
I0403 12:50:40.404762 30884 net.cpp:141] Setting up relu3
I0403 12:50:40.404790 30884 net.cpp:148] Top shape: 100 384 13 13 (6489600)
I0403 12:50:40.404806 30884 net.cpp:156] Memory required for data: 731481200
I0403 12:50:40.404821 30884 layer_factory.hpp:77] Creating layer conv4
I0403 12:50:40.404847 30884 net.cpp:91] Creating Layer conv4
I0403 12:50:40.404865 30884 net.cpp:425] conv4 <- conv3
I0403 12:50:40.404884 30884 net.cpp:399] conv4 -> conv4
I0403 12:50:40.435274 30884 net.cpp:141] Setting up conv4
I0403 12:50:40.435351 30884 net.cpp:148] Top shape: 100 384 13 13 (6489600)
I0403 12:50:40.435400 30884 net.cpp:156] Memory required for data: 757439600
I0403 12:50:40.435423 30884 layer_factory.hpp:77] Creating layer relu4
I0403 12:50:40.435448 30884 net.cpp:91] Creating Layer relu4
I0403 12:50:40.435466 30884 net.cpp:425] relu4 <- conv4
I0403 12:50:40.435485 30884 net.cpp:386] relu4 -> conv4 (in-place)
I0403 12:50:40.435804 30884 net.cpp:141] Setting up relu4
I0403 12:50:40.435832 30884 net.cpp:148] Top shape: 100 384 13 13 (6489600)
I0403 12:50:40.435847 30884 net.cpp:156] Memory required for data: 783398000
I0403 12:50:40.435863 30884 layer_factory.hpp:77] Creating layer conv5
I0403 12:50:40.435889 30884 net.cpp:91] Creating Layer conv5
I0403 12:50:40.435906 30884 net.cpp:425] conv5 <- conv4
I0403 12:50:40.435928 30884 net.cpp:399] conv5 -> conv5
I0403 12:50:40.456856 30884 net.cpp:141] Setting up conv5
I0403 12:50:40.456918 30884 net.cpp:148] Top shape: 100 256 13 13 (4326400)
I0403 12:50:40.456935 30884 net.cpp:156] Memory required for data: 800703600
I0403 12:50:40.456961 30884 layer_factory.hpp:77] Creating layer relu5
I0403 12:50:40.456986 30884 net.cpp:91] Creating Layer relu5
I0403 12:50:40.457005 30884 net.cpp:425] relu5 <- conv5
I0403 12:50:40.457026 30884 net.cpp:386] relu5 -> conv5 (in-place)
I0403 12:50:40.457312 30884 net.cpp:141] Setting up relu5
I0403 12:50:40.457341 30884 net.cpp:148] Top shape: 100 256 13 13 (4326400)
I0403 12:50:40.457358 30884 net.cpp:156] Memory required for data: 818009200
I0403 12:50:40.457375 30884 layer_factory.hpp:77] Creating layer pool5
I0403 12:50:40.457396 30884 net.cpp:91] Creating Layer pool5
I0403 12:50:40.457412 30884 net.cpp:425] pool5 <- conv5
I0403 12:50:40.457433 30884 net.cpp:399] pool5 -> pool5
I0403 12:50:40.457495 30884 net.cpp:141] Setting up pool5
I0403 12:50:40.457521 30884 net.cpp:148] Top shape: 100 256 6 6 (921600)
I0403 12:50:40.457537 30884 net.cpp:156] Memory required for data: 821695600
I0403 12:50:40.457552 30884 layer_factory.hpp:77] Creating layer fc6
I0403 12:50:40.457579 30884 net.cpp:91] Creating Layer fc6
I0403 12:50:40.457597 30884 net.cpp:425] fc6 <- pool5
I0403 12:50:40.457618 30884 net.cpp:399] fc6 -> fc6
I0403 12:50:42.051816 30884 net.cpp:141] Setting up fc6
I0403 12:50:42.051928 30884 net.cpp:148] Top shape: 100 4096 (409600)
I0403 12:50:42.051944 30884 net.cpp:156] Memory required for data: 823334000
I0403 12:50:42.051966 30884 layer_factory.hpp:77] Creating layer relu6
I0403 12:50:42.051990 30884 net.cpp:91] Creating Layer relu6
I0403 12:50:42.052007 30884 net.cpp:425] relu6 <- fc6
I0403 12:50:42.052028 30884 net.cpp:386] relu6 -> fc6 (in-place)
I0403 12:50:42.052278 30884 net.cpp:141] Setting up relu6
I0403 12:50:42.052306 30884 net.cpp:148] Top shape: 100 4096 (409600)
I0403 12:50:42.052322 30884 net.cpp:156] Memory required for data: 824972400
I0403 12:50:42.052337 30884 layer_factory.hpp:77] Creating layer drop6
I0403 12:50:42.052356 30884 net.cpp:91] Creating Layer drop6
I0403 12:50:42.052371 30884 net.cpp:425] drop6 <- fc6
I0403 12:50:42.052391 30884 net.cpp:386] drop6 -> fc6 (in-place)
I0403 12:50:42.052445 30884 net.cpp:141] Setting up drop6
I0403 12:50:42.052467 30884 net.cpp:148] Top shape: 100 4096 (409600)
I0403 12:50:42.052484 30884 net.cpp:156] Memory required for data: 826610800
I0403 12:50:42.052500 30884 layer_factory.hpp:77] Creating layer fc7
I0403 12:50:42.052522 30884 net.cpp:91] Creating Layer fc7
I0403 12:50:42.052538 30884 net.cpp:425] fc7 <- fc6
I0403 12:50:42.052558 30884 net.cpp:399] fc7 -> fc7
I0403 12:50:42.777619 30884 net.cpp:141] Setting up fc7
I0403 12:50:42.777683 30884 net.cpp:148] Top shape: 100 4096 (409600)
I0403 12:50:42.777699 30884 net.cpp:156] Memory required for data: 828249200
I0403 12:50:42.777721 30884 layer_factory.hpp:77] Creating layer relu7
I0403 12:50:42.777745 30884 net.cpp:91] Creating Layer relu7
I0403 12:50:42.777761 30884 net.cpp:425] relu7 <- fc7
I0403 12:50:42.777781 30884 net.cpp:386] relu7 -> fc7 (in-place)
I0403 12:50:42.778198 30884 net.cpp:141] Setting up relu7
I0403 12:50:42.778234 30884 net.cpp:148] Top shape: 100 4096 (409600)
I0403 12:50:42.778282 30884 net.cpp:156] Memory required for data: 829887600
I0403 12:50:42.778300 30884 layer_factory.hpp:77] Creating layer drop7
I0403 12:50:42.778318 30884 net.cpp:91] Creating Layer drop7
I0403 12:50:42.778334 30884 net.cpp:425] drop7 <- fc7
I0403 12:50:42.778352 30884 net.cpp:386] drop7 -> fc7 (in-place)
I0403 12:50:42.778398 30884 net.cpp:141] Setting up drop7
I0403 12:50:42.778420 30884 net.cpp:148] Top shape: 100 4096 (409600)
I0403 12:50:42.778435 30884 net.cpp:156] Memory required for data: 831526000
I0403 12:50:42.778451 30884 layer_factory.hpp:77] Creating layer fc8_plantvillage
I0403 12:50:42.778475 30884 net.cpp:91] Creating Layer fc8_plantvillage
I0403 12:50:42.778492 30884 net.cpp:425] fc8_plantvillage <- fc7
I0403 12:50:42.778511 30884 net.cpp:399] fc8_plantvillage -> fc8_plantvillage
I0403 12:50:42.785696 30884 net.cpp:141] Setting up fc8_plantvillage
I0403 12:50:42.785737 30884 net.cpp:148] Top shape: 100 38 (3800)
I0403 12:50:42.785753 30884 net.cpp:156] Memory required for data: 831541200
I0403 12:50:42.785771 30884 layer_factory.hpp:77] Creating layer fc8_plantvillage_fc8_plantvillage_0_split
I0403 12:50:42.785804 30884 net.cpp:91] Creating Layer fc8_plantvillage_fc8_plantvillage_0_split
I0403 12:50:42.785820 30884 net.cpp:425] fc8_plantvillage_fc8_plantvillage_0_split <- fc8_plantvillage
I0403 12:50:42.785840 30884 net.cpp:399] fc8_plantvillage_fc8_plantvillage_0_split -> fc8_plantvillage_fc8_plantvillage_0_split_0
I0403 12:50:42.785862 30884 net.cpp:399] fc8_plantvillage_fc8_plantvillage_0_split -> fc8_plantvillage_fc8_plantvillage_0_split_1
I0403 12:50:42.785883 30884 net.cpp:399] fc8_plantvillage_fc8_plantvillage_0_split -> fc8_plantvillage_fc8_plantvillage_0_split_2
I0403 12:50:42.785960 30884 net.cpp:141] Setting up fc8_plantvillage_fc8_plantvillage_0_split
I0403 12:50:42.785984 30884 net.cpp:148] Top shape: 100 38 (3800)
I0403 12:50:42.786002 30884 net.cpp:148] Top shape: 100 38 (3800)
I0403 12:50:42.786018 30884 net.cpp:148] Top shape: 100 38 (3800)
I0403 12:50:42.786033 30884 net.cpp:156] Memory required for data: 831586800
I0403 12:50:42.786048 30884 layer_factory.hpp:77] Creating layer prob
I0403 12:50:42.786070 30884 net.cpp:91] Creating Layer prob
I0403 12:50:42.786087 30884 net.cpp:425] prob <- fc8_plantvillage_fc8_plantvillage_0_split_0
I0403 12:50:42.786106 30884 net.cpp:399] prob -> prob
I0403 12:50:42.786350 30884 net.cpp:141] Setting up prob
I0403 12:50:42.786392 30884 net.cpp:148] Top shape: 100 38 (3800)
I0403 12:50:42.786408 30884 net.cpp:156] Memory required for data: 831602000
I0403 12:50:42.786424 30884 layer_factory.hpp:77] Creating layer hdf5out
I0403 12:50:42.786443 30884 net.cpp:91] Creating Layer hdf5out
I0403 12:50:42.786459 30884 net.cpp:425] hdf5out <- prob
I0403 12:50:42.786476 30884 net.cpp:425] hdf5out <- label_data_1_split_0
I0403 12:50:42.788573 30884 net.cpp:141] Setting up hdf5out
…
