…
I0403 13:05:02.429661 31348 net.cpp:313] The NetState phase (1) differed from the phase (0) specified by a rule in layer data
I0403 13:05:02.430408 31348 net.cpp:49] Initializing net from parameters: 
state {
  phase: TEST
}
layer {
  name: "data"
  type: "Data"
  top: "data"
  top: "label"
  include {
    phase: TEST
  }
  transform_param {
    crop_size: 227
    mean_file: "/home/mohanty/data/final_dataset/lmdb/grayscale-40-60/mean.binaryproto"
  }
  data_param {
    source: "/home/mohanty/data/final_dataset/lmdb/grayscale-40-60/test_db"
    batch_size: 100
    backend: LMDB
  }
}
layer {
  name: "conv1"
  type: "Convolution"
  bottom: "data"
  top: "conv1"
  param {
    lr_mult: 1
    decay_mult: 1
  }
  param {
    lr_mult: 2
    decay_mult: 0
  }
  convolution_param {
    num_output: 96
    kernel_size: 11
    stride: 4
    weight_filler {
      type: "gaussian"
      std: 0.01
    }
    bias_filler {
      type: "constant"
      value: 0
    }
  }
}
layer {
  name: "relu1"
  type: "ReLU"
  bottom: "conv1"
  top: "conv1"
}
layer {
  name: "norm1"
  type: "LRN"
  bottom: "conv1"
  top: "norm1"
  lrn_param {
    local_size: 5
    alpha: 0.0001
    beta: 0.75
  }
}
layer {
  name: "pool1"
  type: "Pooling"
  bottom: "norm1"
  top: "pool1"
  pooling_param {
    pool: MAX
    kernel_size: 3
    stride: 2
  }
}
layer {
  name: "conv2"
  type: "Convolution"
  bottom: "pool1"
  top: "conv2"
  param {
    lr_mult: 1
    decay_mult: 1
  }
  param {
    lr_mult: 2
    decay_mult: 0
  }
  convolution_param {
    num_output: 256
    pad: 2
    kernel_size: 5
    group: 2
    weight_filler {
      type: "gaussian"
      std: 0.01
    }
    bias_filler {
      type: "constant"
      value: 0.1
    }
  }
}
layer {
  name: "relu2"
  type: "ReLU"
  bottom: "conv2"
  top: "conv2"
}
layer {
  name: "norm2"
  type: "LRN"
  bottom: "conv2"
  top: "norm2"
  lrn_param {
    local_size: 5
    alpha: 0.0001
    beta: 0.75
  }
}
layer {
  name: "pool2"
  type: "Pooling"
  bottom: "norm2"
  top: "pool2"
  pooling_param {
    pool: MAX
    kernel_size: 3
    stride: 2
  }
}
layer {
  name: "conv3"
  type: "Convolution"
  bottom: "pool2"
  top: "conv3"
  param {
    lr_mult: 1
    decay_mult: 1
  }
  param {
    lr_mult: 2
    decay_mult: 0
  }
  convolution_param {
    num_output: 384
    pad: 1
    kernel_size: 3
    weight_filler {
      type: "gaussian"
      std: 0.01
    }
    bias_filler {
      type: "constant"
      value: 0
    }
  }
}
layer {
  name: "relu3"
  type: "ReLU"
  bottom: "conv3"
  top: "conv3"
}
layer {
  name: "conv4"
  type: "Convolution"
  bottom: "conv3"
  top: "conv4"
  param {
    lr_mult: 1
    decay_mult: 1
  }
  param {
    lr_mult: 2
    decay_mult: 0
  }
  convolution_param {
    num_output: 384
    pad: 1
    kernel_size: 3
    group: 2
    weight_filler {
      type: "gaussian"
      std: 0.01
    }
    bias_filler {
      type: "constant"
      value: 0.1
    }
  }
}
layer {
  name: "relu4"
  type: "ReLU"
  bottom: "conv4"
  top: "conv4"
}
layer {
  name: "conv5"
  type: "Convolution"
  bottom: "conv4"
  top: "conv5"
  param {
    lr_mult: 1
    decay_mult: 1
  }
  param {
    lr_mult: 2
    decay_mult: 0
  }
  convolution_param {
    num_output: 256
    pad: 1
    kernel_size: 3
    group: 2
    weight_filler {
      type: "gaussian"
      std: 0.01
    }
    bias_filler {
      type: "constant"
      value: 0.1
    }
  }
}
layer {
  name: "relu5"
  type: "ReLU"
  bottom: "conv5"
  top: "conv5"
}
layer {
  name: "pool5"
  type: "Pooling"
  bottom: "conv5"
  top: "pool5"
  pooling_param {
    pool: MAX
    kernel_size: 3
    stride: 2
  }
}
layer {
  name: "fc6"
  type: "InnerProduct"
  bottom: "pool5"
  top: "fc6"
  param {
    lr_mult: 1
    decay_mult: 1
  }
  param {
    lr_mult: 2
    decay_mult: 0
  }
  inner_product_param {
    num_output: 4096
    weight_filler {
      type: "gaussian"
      std: 0.005
    }
    bias_filler {
      type: "constant"
      value: 0.1
    }
  }
}
layer {
  name: "relu6"
  type: "ReLU"
  bottom: "fc6"
  top: "fc6"
}
layer {
  name: "drop6"
  type: "Dropout"
  bottom: "fc6"
  top: "fc6"
  dropout_param {
    dropout_ratio: 0.5
  }
}
layer {
  name: "fc7"
  type: "InnerProduct"
  bottom: "fc6"
  top: "fc7"
  param {
    lr_mult: 1
    decay_mult: 1
  }
  param {
    lr_mult: 2
    decay_mult: 0
  }
  inner_product_param {
    num_output: 4096
    weight_filler {
      type: "gaussian"
      std: 0.005
    }
    bias_filler {
      type: "constant"
      value: 0.1
    }
  }
}
layer {
  name: "relu7"
  type: "ReLU"
  bottom: "fc7"
  top: "fc7"
}
layer {
  name: "drop7"
  type: "Dropout"
  bottom: "fc7"
  top: "fc7"
  dropout_param {
    dropout_ratio: 0.5
  }
}
layer {
  name: "fc8_plantvillage"
  type: "InnerProduct"
  bottom: "fc7"
  top: "fc8_plantvillage"
  param {
    lr_mult: 1
    decay_mult: 1
  }
  param {
    lr_mult: 2
    decay_mult: 0
  }
  inner_product_param {
    num_output: 38
    weight_filler {
      type: "gaussian"
      std: 0.01
    }
    bias_filler {
      type: "constant"
      value: 0
    }
  }
}
layer {
  name: "prob"
  type: "Softmax"
  bottom: "fc8_plantvillage"
  top: "prob"
  include {
    phase: TEST
  }
}
layer {
  name: "hdf5out"
  type: "HDF5Output"
  bottom: "prob"
  bottom: "label"
  include {
    phase: TEST
  }
  hdf5_output_param {
    file_name: "hdf5_dumps/iter_6351.h5"
  }
}
layer {
  name: "loss"
  type: "SoftmaxWithLoss"
  bottom: "fc8_plantvillage"
  bottom: "label"
  top: "loss"
}
layer {
  name: "accuracy"
  type: "Accuracy"
  bottom: "fc8_plantvillage"
  bottom: "label"
  top: "accuracy"
  include {
    phase: TEST
  }
}
I0403 13:05:02.431587 31348 layer_factory.hpp:77] Creating layer data
I0403 13:05:02.433176 31348 net.cpp:91] Creating Layer data
I0403 13:05:02.433234 31348 net.cpp:399] data -> data
I0403 13:05:02.433353 31348 net.cpp:399] data -> label
I0403 13:05:02.433442 31348 data_transformer.cpp:25] Loading mean file from: /home/mohanty/data/final_dataset/lmdb/grayscale-40-60/mean.binaryproto
I0403 13:05:02.438555 31350 db_lmdb.cpp:38] Opened lmdb /home/mohanty/data/final_dataset/lmdb/grayscale-40-60/test_db
I0403 13:05:02.462945 31348 data_layer.cpp:41] output data size: 100,3,227,227
I0403 13:05:02.587265 31348 net.cpp:141] Setting up data
I0403 13:05:02.587374 31348 net.cpp:148] Top shape: 100 3 227 227 (15458700)
I0403 13:05:02.587398 31348 net.cpp:148] Top shape: 100 (100)
I0403 13:05:02.587412 31348 net.cpp:156] Memory required for data: 61835200
I0403 13:05:02.587440 31348 layer_factory.hpp:77] Creating layer label_data_1_split
I0403 13:05:02.587466 31348 net.cpp:91] Creating Layer label_data_1_split
I0403 13:05:02.587484 31348 net.cpp:425] label_data_1_split <- label
I0403 13:05:02.587515 31348 net.cpp:399] label_data_1_split -> label_data_1_split_0
I0403 13:05:02.587543 31348 net.cpp:399] label_data_1_split -> label_data_1_split_1
I0403 13:05:02.587563 31348 net.cpp:399] label_data_1_split -> label_data_1_split_2
I0403 13:05:02.587630 31348 net.cpp:141] Setting up label_data_1_split
I0403 13:05:02.587653 31348 net.cpp:148] Top shape: 100 (100)
I0403 13:05:02.587671 31348 net.cpp:148] Top shape: 100 (100)
I0403 13:05:02.587687 31348 net.cpp:148] Top shape: 100 (100)
I0403 13:05:02.587702 31348 net.cpp:156] Memory required for data: 61836400
I0403 13:05:02.587716 31348 layer_factory.hpp:77] Creating layer conv1
I0403 13:05:02.587749 31348 net.cpp:91] Creating Layer conv1
I0403 13:05:02.587767 31348 net.cpp:425] conv1 <- data
I0403 13:05:02.587787 31348 net.cpp:399] conv1 -> conv1
I0403 13:05:02.733567 31348 net.cpp:141] Setting up conv1
I0403 13:05:02.733656 31348 net.cpp:148] Top shape: 100 96 55 55 (29040000)
I0403 13:05:02.733675 31348 net.cpp:156] Memory required for data: 177996400
I0403 13:05:02.733706 31348 layer_factory.hpp:77] Creating layer relu1
I0403 13:05:02.733734 31348 net.cpp:91] Creating Layer relu1
I0403 13:05:02.733752 31348 net.cpp:425] relu1 <- conv1
I0403 13:05:02.733772 31348 net.cpp:386] relu1 -> conv1 (in-place)
I0403 13:05:02.734025 31348 net.cpp:141] Setting up relu1
I0403 13:05:02.734052 31348 net.cpp:148] Top shape: 100 96 55 55 (29040000)
I0403 13:05:02.734098 31348 net.cpp:156] Memory required for data: 294156400
I0403 13:05:02.734114 31348 layer_factory.hpp:77] Creating layer norm1
I0403 13:05:02.734143 31348 net.cpp:91] Creating Layer norm1
I0403 13:05:02.734160 31348 net.cpp:425] norm1 <- conv1
I0403 13:05:02.734179 31348 net.cpp:399] norm1 -> norm1
I0403 13:05:02.734529 31348 net.cpp:141] Setting up norm1
I0403 13:05:02.734556 31348 net.cpp:148] Top shape: 100 96 55 55 (29040000)
I0403 13:05:02.734572 31348 net.cpp:156] Memory required for data: 410316400
I0403 13:05:02.734587 31348 layer_factory.hpp:77] Creating layer pool1
I0403 13:05:02.734611 31348 net.cpp:91] Creating Layer pool1
I0403 13:05:02.734629 31348 net.cpp:425] pool1 <- norm1
I0403 13:05:02.734647 31348 net.cpp:399] pool1 -> pool1
I0403 13:05:02.734714 31348 net.cpp:141] Setting up pool1
I0403 13:05:02.734737 31348 net.cpp:148] Top shape: 100 96 27 27 (6998400)
I0403 13:05:02.734752 31348 net.cpp:156] Memory required for data: 438310000
I0403 13:05:02.734768 31348 layer_factory.hpp:77] Creating layer conv2
I0403 13:05:02.734791 31348 net.cpp:91] Creating Layer conv2
I0403 13:05:02.734807 31348 net.cpp:425] conv2 <- pool1
I0403 13:05:02.734827 31348 net.cpp:399] conv2 -> conv2
I0403 13:05:02.749933 31348 net.cpp:141] Setting up conv2
I0403 13:05:02.749974 31348 net.cpp:148] Top shape: 100 256 27 27 (18662400)
I0403 13:05:02.749991 31348 net.cpp:156] Memory required for data: 512959600
I0403 13:05:02.750013 31348 layer_factory.hpp:77] Creating layer relu2
I0403 13:05:02.750031 31348 net.cpp:91] Creating Layer relu2
I0403 13:05:02.750047 31348 net.cpp:425] relu2 <- conv2
I0403 13:05:02.750066 31348 net.cpp:386] relu2 -> conv2 (in-place)
I0403 13:05:02.750354 31348 net.cpp:141] Setting up relu2
I0403 13:05:02.750380 31348 net.cpp:148] Top shape: 100 256 27 27 (18662400)
I0403 13:05:02.750396 31348 net.cpp:156] Memory required for data: 587609200
I0403 13:05:02.750411 31348 layer_factory.hpp:77] Creating layer norm2
I0403 13:05:02.750433 31348 net.cpp:91] Creating Layer norm2
I0403 13:05:02.750452 31348 net.cpp:425] norm2 <- conv2
I0403 13:05:02.750468 31348 net.cpp:399] norm2 -> norm2
I0403 13:05:02.750668 31348 net.cpp:141] Setting up norm2
I0403 13:05:02.750695 31348 net.cpp:148] Top shape: 100 256 27 27 (18662400)
I0403 13:05:02.750711 31348 net.cpp:156] Memory required for data: 662258800
I0403 13:05:02.750726 31348 layer_factory.hpp:77] Creating layer pool2
I0403 13:05:02.750744 31348 net.cpp:91] Creating Layer pool2
I0403 13:05:02.750759 31348 net.cpp:425] pool2 <- norm2
I0403 13:05:02.750779 31348 net.cpp:399] pool2 -> pool2
I0403 13:05:02.750831 31348 net.cpp:141] Setting up pool2
I0403 13:05:02.750854 31348 net.cpp:148] Top shape: 100 256 13 13 (4326400)
I0403 13:05:02.750869 31348 net.cpp:156] Memory required for data: 679564400
I0403 13:05:02.750885 31348 layer_factory.hpp:77] Creating layer conv3
I0403 13:05:02.750907 31348 net.cpp:91] Creating Layer conv3
I0403 13:05:02.750924 31348 net.cpp:425] conv3 <- pool2
I0403 13:05:02.750944 31348 net.cpp:399] conv3 -> conv3
I0403 13:05:02.790792 31348 net.cpp:141] Setting up conv3
I0403 13:05:02.790853 31348 net.cpp:148] Top shape: 100 384 13 13 (6489600)
I0403 13:05:02.790871 31348 net.cpp:156] Memory required for data: 705522800
I0403 13:05:02.790894 31348 layer_factory.hpp:77] Creating layer relu3
I0403 13:05:02.790915 31348 net.cpp:91] Creating Layer relu3
I0403 13:05:02.790931 31348 net.cpp:425] relu3 <- conv3
I0403 13:05:02.790951 31348 net.cpp:386] relu3 -> conv3 (in-place)
I0403 13:05:02.791236 31348 net.cpp:141] Setting up relu3
I0403 13:05:02.791263 31348 net.cpp:148] Top shape: 100 384 13 13 (6489600)
I0403 13:05:02.791278 31348 net.cpp:156] Memory required for data: 731481200
I0403 13:05:02.791295 31348 layer_factory.hpp:77] Creating layer conv4
I0403 13:05:02.791318 31348 net.cpp:91] Creating Layer conv4
I0403 13:05:02.791335 31348 net.cpp:425] conv4 <- conv3
I0403 13:05:02.791358 31348 net.cpp:399] conv4 -> conv4
I0403 13:05:02.821583 31348 net.cpp:141] Setting up conv4
I0403 13:05:02.821630 31348 net.cpp:148] Top shape: 100 384 13 13 (6489600)
I0403 13:05:02.821676 31348 net.cpp:156] Memory required for data: 757439600
I0403 13:05:02.821696 31348 layer_factory.hpp:77] Creating layer relu4
I0403 13:05:02.821715 31348 net.cpp:91] Creating Layer relu4
I0403 13:05:02.821732 31348 net.cpp:425] relu4 <- conv4
I0403 13:05:02.821749 31348 net.cpp:386] relu4 -> conv4 (in-place)
I0403 13:05:02.822023 31348 net.cpp:141] Setting up relu4
I0403 13:05:02.822052 31348 net.cpp:148] Top shape: 100 384 13 13 (6489600)
I0403 13:05:02.822068 31348 net.cpp:156] Memory required for data: 783398000
I0403 13:05:02.822083 31348 layer_factory.hpp:77] Creating layer conv5
I0403 13:05:02.822104 31348 net.cpp:91] Creating Layer conv5
I0403 13:05:02.822119 31348 net.cpp:425] conv5 <- conv4
I0403 13:05:02.822140 31348 net.cpp:399] conv5 -> conv5
I0403 13:05:02.842411 31348 net.cpp:141] Setting up conv5
I0403 13:05:02.842448 31348 net.cpp:148] Top shape: 100 256 13 13 (4326400)
I0403 13:05:02.842465 31348 net.cpp:156] Memory required for data: 800703600
I0403 13:05:02.842490 31348 layer_factory.hpp:77] Creating layer relu5
I0403 13:05:02.842510 31348 net.cpp:91] Creating Layer relu5
I0403 13:05:02.842526 31348 net.cpp:425] relu5 <- conv5
I0403 13:05:02.842545 31348 net.cpp:386] relu5 -> conv5 (in-place)
I0403 13:05:02.842815 31348 net.cpp:141] Setting up relu5
I0403 13:05:02.842844 31348 net.cpp:148] Top shape: 100 256 13 13 (4326400)
I0403 13:05:02.842860 31348 net.cpp:156] Memory required for data: 818009200
I0403 13:05:02.842875 31348 layer_factory.hpp:77] Creating layer pool5
I0403 13:05:02.842896 31348 net.cpp:91] Creating Layer pool5
I0403 13:05:02.842918 31348 net.cpp:425] pool5 <- conv5
I0403 13:05:02.842936 31348 net.cpp:399] pool5 -> pool5
I0403 13:05:02.842994 31348 net.cpp:141] Setting up pool5
I0403 13:05:02.843019 31348 net.cpp:148] Top shape: 100 256 6 6 (921600)
I0403 13:05:02.843034 31348 net.cpp:156] Memory required for data: 821695600
I0403 13:05:02.843049 31348 layer_factory.hpp:77] Creating layer fc6
I0403 13:05:02.843075 31348 net.cpp:91] Creating Layer fc6
I0403 13:05:02.843092 31348 net.cpp:425] fc6 <- pool5
I0403 13:05:02.843112 31348 net.cpp:399] fc6 -> fc6
I0403 13:05:04.314898 31348 net.cpp:141] Setting up fc6
I0403 13:05:04.314987 31348 net.cpp:148] Top shape: 100 4096 (409600)
I0403 13:05:04.315003 31348 net.cpp:156] Memory required for data: 823334000
I0403 13:05:04.315024 31348 layer_factory.hpp:77] Creating layer relu6
I0403 13:05:04.315045 31348 net.cpp:91] Creating Layer relu6
I0403 13:05:04.315062 31348 net.cpp:425] relu6 <- fc6
I0403 13:05:04.315079 31348 net.cpp:386] relu6 -> fc6 (in-place)
I0403 13:05:04.315313 31348 net.cpp:141] Setting up relu6
I0403 13:05:04.315340 31348 net.cpp:148] Top shape: 100 4096 (409600)
I0403 13:05:04.315356 31348 net.cpp:156] Memory required for data: 824972400
I0403 13:05:04.315369 31348 layer_factory.hpp:77] Creating layer drop6
I0403 13:05:04.315388 31348 net.cpp:91] Creating Layer drop6
I0403 13:05:04.315403 31348 net.cpp:425] drop6 <- fc6
I0403 13:05:04.315423 31348 net.cpp:386] drop6 -> fc6 (in-place)
I0403 13:05:04.315485 31348 net.cpp:141] Setting up drop6
I0403 13:05:04.315506 31348 net.cpp:148] Top shape: 100 4096 (409600)
I0403 13:05:04.315521 31348 net.cpp:156] Memory required for data: 826610800
I0403 13:05:04.315534 31348 layer_factory.hpp:77] Creating layer fc7
I0403 13:05:04.315556 31348 net.cpp:91] Creating Layer fc7
I0403 13:05:04.315570 31348 net.cpp:425] fc7 <- fc6
I0403 13:05:04.315589 31348 net.cpp:399] fc7 -> fc7
I0403 13:05:04.978658 31348 net.cpp:141] Setting up fc7
I0403 13:05:04.978739 31348 net.cpp:148] Top shape: 100 4096 (409600)
I0403 13:05:04.978755 31348 net.cpp:156] Memory required for data: 828249200
I0403 13:05:04.978776 31348 layer_factory.hpp:77] Creating layer relu7
I0403 13:05:04.978798 31348 net.cpp:91] Creating Layer relu7
I0403 13:05:04.978816 31348 net.cpp:425] relu7 <- fc7
I0403 13:05:04.978834 31348 net.cpp:386] relu7 -> fc7 (in-place)
I0403 13:05:04.979250 31348 net.cpp:141] Setting up relu7
I0403 13:05:04.979279 31348 net.cpp:148] Top shape: 100 4096 (409600)
I0403 13:05:04.979316 31348 net.cpp:156] Memory required for data: 829887600
I0403 13:05:04.979331 31348 layer_factory.hpp:77] Creating layer drop7
I0403 13:05:04.979351 31348 net.cpp:91] Creating Layer drop7
I0403 13:05:04.979367 31348 net.cpp:425] drop7 <- fc7
I0403 13:05:04.979383 31348 net.cpp:386] drop7 -> fc7 (in-place)
I0403 13:05:04.979429 31348 net.cpp:141] Setting up drop7
I0403 13:05:04.979450 31348 net.cpp:148] Top shape: 100 4096 (409600)
I0403 13:05:04.979465 31348 net.cpp:156] Memory required for data: 831526000
I0403 13:05:04.979478 31348 layer_factory.hpp:77] Creating layer fc8_plantvillage
I0403 13:05:04.979502 31348 net.cpp:91] Creating Layer fc8_plantvillage
I0403 13:05:04.979519 31348 net.cpp:425] fc8_plantvillage <- fc7
I0403 13:05:04.979537 31348 net.cpp:399] fc8_plantvillage -> fc8_plantvillage
I0403 13:05:04.986312 31348 net.cpp:141] Setting up fc8_plantvillage
I0403 13:05:04.986341 31348 net.cpp:148] Top shape: 100 38 (3800)
I0403 13:05:04.986356 31348 net.cpp:156] Memory required for data: 831541200
I0403 13:05:04.986374 31348 layer_factory.hpp:77] Creating layer fc8_plantvillage_fc8_plantvillage_0_split
I0403 13:05:04.986392 31348 net.cpp:91] Creating Layer fc8_plantvillage_fc8_plantvillage_0_split
I0403 13:05:04.986407 31348 net.cpp:425] fc8_plantvillage_fc8_plantvillage_0_split <- fc8_plantvillage
I0403 13:05:04.986428 31348 net.cpp:399] fc8_plantvillage_fc8_plantvillage_0_split -> fc8_plantvillage_fc8_plantvillage_0_split_0
I0403 13:05:04.986449 31348 net.cpp:399] fc8_plantvillage_fc8_plantvillage_0_split -> fc8_plantvillage_fc8_plantvillage_0_split_1
I0403 13:05:04.986467 31348 net.cpp:399] fc8_plantvillage_fc8_plantvillage_0_split -> fc8_plantvillage_fc8_plantvillage_0_split_2
I0403 13:05:04.986543 31348 net.cpp:141] Setting up fc8_plantvillage_fc8_plantvillage_0_split
I0403 13:05:04.986567 31348 net.cpp:148] Top shape: 100 38 (3800)
I0403 13:05:04.986582 31348 net.cpp:148] Top shape: 100 38 (3800)
I0403 13:05:04.986598 31348 net.cpp:148] Top shape: 100 38 (3800)
I0403 13:05:04.986611 31348 net.cpp:156] Memory required for data: 831586800
I0403 13:05:04.986625 31348 layer_factory.hpp:77] Creating layer prob
I0403 13:05:04.986646 31348 net.cpp:91] Creating Layer prob
I0403 13:05:04.986661 31348 net.cpp:425] prob <- fc8_plantvillage_fc8_plantvillage_0_split_0
I0403 13:05:04.986680 31348 net.cpp:399] prob -> prob
I0403 13:05:04.986901 31348 net.cpp:141] Setting up prob
I0403 13:05:04.986928 31348 net.cpp:148] Top shape: 100 38 (3800)
I0403 13:05:04.986944 31348 net.cpp:156] Memory required for data: 831602000
I0403 13:05:04.986959 31348 layer_factory.hpp:77] Creating layer hdf5out
I0403 13:05:04.986977 31348 net.cpp:91] Creating Layer hdf5out
I0403 13:05:04.986994 31348 net.cpp:425] hdf5out <- prob
I0403 13:05:04.987010 31348 net.cpp:425] hdf5out <- label_data_1_split_0
I0403 13:05:04.989347 31348 net.cpp:141] Setting up hdf5out
…
