…
I0403 13:01:46.102087 31176 net.cpp:313] The NetState phase (1) differed from the phase (0) specified by a rule in layer data
I0403 13:01:46.102401 31176 net.cpp:49] Initializing net from parameters: 
state {
  phase: TEST
}
layer {
  name: "data"
  type: "Data"
  top: "data"
  top: "label"
  include {
    phase: TEST
  }
  transform_param {
    crop_size: 227
    mean_file: "/home/mohanty/data/final_dataset/lmdb/grayscale-40-60/mean.binaryproto"
  }
  data_param {
    source: "/home/mohanty/data/final_dataset/lmdb/grayscale-40-60/test_db"
    batch_size: 100
    backend: LMDB
  }
}
layer {
  name: "conv1"
  type: "Convolution"
  bottom: "data"
  top: "conv1"
  param {
    lr_mult: 1
    decay_mult: 1
  }
  param {
    lr_mult: 2
    decay_mult: 0
  }
  convolution_param {
    num_output: 96
    kernel_size: 11
    stride: 4
    weight_filler {
      type: "gaussian"
      std: 0.01
    }
    bias_filler {
      type: "constant"
      value: 0
    }
  }
}
layer {
  name: "relu1"
  type: "ReLU"
  bottom: "conv1"
  top: "conv1"
}
layer {
  name: "norm1"
  type: "LRN"
  bottom: "conv1"
  top: "norm1"
  lrn_param {
    local_size: 5
    alpha: 0.0001
    beta: 0.75
  }
}
layer {
  name: "pool1"
  type: "Pooling"
  bottom: "norm1"
  top: "pool1"
  pooling_param {
    pool: MAX
    kernel_size: 3
    stride: 2
  }
}
layer {
  name: "conv2"
  type: "Convolution"
  bottom: "pool1"
  top: "conv2"
  param {
    lr_mult: 1
    decay_mult: 1
  }
  param {
    lr_mult: 2
    decay_mult: 0
  }
  convolution_param {
    num_output: 256
    pad: 2
    kernel_size: 5
    group: 2
    weight_filler {
      type: "gaussian"
      std: 0.01
    }
    bias_filler {
      type: "constant"
      value: 0.1
    }
  }
}
layer {
  name: "relu2"
  type: "ReLU"
  bottom: "conv2"
  top: "conv2"
}
layer {
  name: "norm2"
  type: "LRN"
  bottom: "conv2"
  top: "norm2"
  lrn_param {
    local_size: 5
    alpha: 0.0001
    beta: 0.75
  }
}
layer {
  name: "pool2"
  type: "Pooling"
  bottom: "norm2"
  top: "pool2"
  pooling_param {
    pool: MAX
    kernel_size: 3
    stride: 2
  }
}
layer {
  name: "conv3"
  type: "Convolution"
  bottom: "pool2"
  top: "conv3"
  param {
    lr_mult: 1
    decay_mult: 1
  }
  param {
    lr_mult: 2
    decay_mult: 0
  }
  convolution_param {
    num_output: 384
    pad: 1
    kernel_size: 3
    weight_filler {
      type: "gaussian"
      std: 0.01
    }
    bias_filler {
      type: "constant"
      value: 0
    }
  }
}
layer {
  name: "relu3"
  type: "ReLU"
  bottom: "conv3"
  top: "conv3"
}
layer {
  name: "conv4"
  type: "Convolution"
  bottom: "conv3"
  top: "conv4"
  param {
    lr_mult: 1
    decay_mult: 1
  }
  param {
    lr_mult: 2
    decay_mult: 0
  }
  convolution_param {
    num_output: 384
    pad: 1
    kernel_size: 3
    group: 2
    weight_filler {
      type: "gaussian"
      std: 0.01
    }
    bias_filler {
      type: "constant"
      value: 0.1
    }
  }
}
layer {
  name: "relu4"
  type: "ReLU"
  bottom: "conv4"
  top: "conv4"
}
layer {
  name: "conv5"
  type: "Convolution"
  bottom: "conv4"
  top: "conv5"
  param {
    lr_mult: 1
    decay_mult: 1
  }
  param {
    lr_mult: 2
    decay_mult: 0
  }
  convolution_param {
    num_output: 256
    pad: 1
    kernel_size: 3
    group: 2
    weight_filler {
      type: "gaussian"
      std: 0.01
    }
    bias_filler {
      type: "constant"
      value: 0.1
    }
  }
}
layer {
  name: "relu5"
  type: "ReLU"
  bottom: "conv5"
  top: "conv5"
}
layer {
  name: "pool5"
  type: "Pooling"
  bottom: "conv5"
  top: "pool5"
  pooling_param {
    pool: MAX
    kernel_size: 3
    stride: 2
  }
}
layer {
  name: "fc6"
  type: "InnerProduct"
  bottom: "pool5"
  top: "fc6"
  param {
    lr_mult: 1
    decay_mult: 1
  }
  param {
    lr_mult: 2
    decay_mult: 0
  }
  inner_product_param {
    num_output: 4096
    weight_filler {
      type: "gaussian"
      std: 0.005
    }
    bias_filler {
      type: "constant"
      value: 0.1
    }
  }
}
layer {
  name: "relu6"
  type: "ReLU"
  bottom: "fc6"
  top: "fc6"
}
layer {
  name: "drop6"
  type: "Dropout"
  bottom: "fc6"
  top: "fc6"
  dropout_param {
    dropout_ratio: 0.5
  }
}
layer {
  name: "fc7"
  type: "InnerProduct"
  bottom: "fc6"
  top: "fc7"
  param {
    lr_mult: 1
    decay_mult: 1
  }
  param {
    lr_mult: 2
    decay_mult: 0
  }
  inner_product_param {
    num_output: 4096
    weight_filler {
      type: "gaussian"
      std: 0.005
    }
    bias_filler {
      type: "constant"
      value: 0.1
    }
  }
}
layer {
  name: "relu7"
  type: "ReLU"
  bottom: "fc7"
  top: "fc7"
}
layer {
  name: "drop7"
  type: "Dropout"
  bottom: "fc7"
  top: "fc7"
  dropout_param {
    dropout_ratio: 0.5
  }
}
layer {
  name: "fc8_plantvillage"
  type: "InnerProduct"
  bottom: "fc7"
  top: "fc8_plantvillage"
  param {
    lr_mult: 1
    decay_mult: 1
  }
  param {
    lr_mult: 2
    decay_mult: 0
  }
  inner_product_param {
    num_output: 38
    weight_filler {
      type: "gaussian"
      std: 0.01
    }
    bias_filler {
      type: "constant"
      value: 0
    }
  }
}
layer {
  name: "prob"
  type: "Softmax"
  bottom: "fc8_plantvillage"
  top: "prob"
  include {
    phase: TEST
  }
}
layer {
  name: "hdf5out"
  type: "HDF5Output"
  bottom: "prob"
  bottom: "label"
  include {
    phase: TEST
  }
  hdf5_output_param {
    file_name: "hdf5_dumps/iter_5694.h5"
  }
}
layer {
  name: "loss"
  type: "SoftmaxWithLoss"
  bottom: "fc8_plantvillage"
  bottom: "label"
  top: "loss"
}
layer {
  name: "accuracy"
  type: "Accuracy"
  bottom: "fc8_plantvillage"
  bottom: "label"
  top: "accuracy"
  include {
    phase: TEST
  }
}
I0403 13:01:46.102957 31176 layer_factory.hpp:77] Creating layer data
I0403 13:01:46.103612 31176 net.cpp:91] Creating Layer data
I0403 13:01:46.103646 31176 net.cpp:399] data -> data
I0403 13:01:46.103698 31176 net.cpp:399] data -> label
I0403 13:01:46.103734 31176 data_transformer.cpp:25] Loading mean file from: /home/mohanty/data/final_dataset/lmdb/grayscale-40-60/mean.binaryproto
I0403 13:01:46.106555 31179 db_lmdb.cpp:38] Opened lmdb /home/mohanty/data/final_dataset/lmdb/grayscale-40-60/test_db
I0403 13:01:46.118330 31176 data_layer.cpp:41] output data size: 100,3,227,227
I0403 13:01:46.238203 31176 net.cpp:141] Setting up data
I0403 13:01:46.238276 31176 net.cpp:148] Top shape: 100 3 227 227 (15458700)
I0403 13:01:46.238299 31176 net.cpp:148] Top shape: 100 (100)
I0403 13:01:46.238314 31176 net.cpp:156] Memory required for data: 61835200
I0403 13:01:46.238343 31176 layer_factory.hpp:77] Creating layer label_data_1_split
I0403 13:01:46.238368 31176 net.cpp:91] Creating Layer label_data_1_split
I0403 13:01:46.238386 31176 net.cpp:425] label_data_1_split <- label
I0403 13:01:46.238418 31176 net.cpp:399] label_data_1_split -> label_data_1_split_0
I0403 13:01:46.238445 31176 net.cpp:399] label_data_1_split -> label_data_1_split_1
I0403 13:01:46.238466 31176 net.cpp:399] label_data_1_split -> label_data_1_split_2
I0403 13:01:46.238541 31176 net.cpp:141] Setting up label_data_1_split
I0403 13:01:46.238564 31176 net.cpp:148] Top shape: 100 (100)
I0403 13:01:46.238580 31176 net.cpp:148] Top shape: 100 (100)
I0403 13:01:46.238596 31176 net.cpp:148] Top shape: 100 (100)
I0403 13:01:46.238610 31176 net.cpp:156] Memory required for data: 61836400
I0403 13:01:46.238625 31176 layer_factory.hpp:77] Creating layer conv1
I0403 13:01:46.238656 31176 net.cpp:91] Creating Layer conv1
I0403 13:01:46.238673 31176 net.cpp:425] conv1 <- data
I0403 13:01:46.238692 31176 net.cpp:399] conv1 -> conv1
I0403 13:01:46.378703 31176 net.cpp:141] Setting up conv1
I0403 13:01:46.378790 31176 net.cpp:148] Top shape: 100 96 55 55 (29040000)
I0403 13:01:46.378808 31176 net.cpp:156] Memory required for data: 177996400
I0403 13:01:46.378840 31176 layer_factory.hpp:77] Creating layer relu1
I0403 13:01:46.378870 31176 net.cpp:91] Creating Layer relu1
I0403 13:01:46.378887 31176 net.cpp:425] relu1 <- conv1
I0403 13:01:46.378907 31176 net.cpp:386] relu1 -> conv1 (in-place)
I0403 13:01:46.379166 31176 net.cpp:141] Setting up relu1
I0403 13:01:46.379194 31176 net.cpp:148] Top shape: 100 96 55 55 (29040000)
I0403 13:01:46.379247 31176 net.cpp:156] Memory required for data: 294156400
I0403 13:01:46.379266 31176 layer_factory.hpp:77] Creating layer norm1
I0403 13:01:46.379292 31176 net.cpp:91] Creating Layer norm1
I0403 13:01:46.379312 31176 net.cpp:425] norm1 <- conv1
I0403 13:01:46.379330 31176 net.cpp:399] norm1 -> norm1
I0403 13:01:46.379680 31176 net.cpp:141] Setting up norm1
I0403 13:01:46.379709 31176 net.cpp:148] Top shape: 100 96 55 55 (29040000)
I0403 13:01:46.379724 31176 net.cpp:156] Memory required for data: 410316400
I0403 13:01:46.379740 31176 layer_factory.hpp:77] Creating layer pool1
I0403 13:01:46.379765 31176 net.cpp:91] Creating Layer pool1
I0403 13:01:46.379782 31176 net.cpp:425] pool1 <- norm1
I0403 13:01:46.379801 31176 net.cpp:399] pool1 -> pool1
I0403 13:01:46.379868 31176 net.cpp:141] Setting up pool1
I0403 13:01:46.379891 31176 net.cpp:148] Top shape: 100 96 27 27 (6998400)
I0403 13:01:46.379906 31176 net.cpp:156] Memory required for data: 438310000
I0403 13:01:46.379921 31176 layer_factory.hpp:77] Creating layer conv2
I0403 13:01:46.379945 31176 net.cpp:91] Creating Layer conv2
I0403 13:01:46.379962 31176 net.cpp:425] conv2 <- pool1
I0403 13:01:46.379981 31176 net.cpp:399] conv2 -> conv2
I0403 13:01:46.395139 31176 net.cpp:141] Setting up conv2
I0403 13:01:46.395197 31176 net.cpp:148] Top shape: 100 256 27 27 (18662400)
I0403 13:01:46.395220 31176 net.cpp:156] Memory required for data: 512959600
I0403 13:01:46.395244 31176 layer_factory.hpp:77] Creating layer relu2
I0403 13:01:46.395267 31176 net.cpp:91] Creating Layer relu2
I0403 13:01:46.395284 31176 net.cpp:425] relu2 <- conv2
I0403 13:01:46.395303 31176 net.cpp:386] relu2 -> conv2 (in-place)
I0403 13:01:46.395573 31176 net.cpp:141] Setting up relu2
I0403 13:01:46.395602 31176 net.cpp:148] Top shape: 100 256 27 27 (18662400)
I0403 13:01:46.395618 31176 net.cpp:156] Memory required for data: 587609200
I0403 13:01:46.395634 31176 layer_factory.hpp:77] Creating layer norm2
I0403 13:01:46.395655 31176 net.cpp:91] Creating Layer norm2
I0403 13:01:46.395673 31176 net.cpp:425] norm2 <- conv2
I0403 13:01:46.395691 31176 net.cpp:399] norm2 -> norm2
I0403 13:01:46.395881 31176 net.cpp:141] Setting up norm2
I0403 13:01:46.395908 31176 net.cpp:148] Top shape: 100 256 27 27 (18662400)
I0403 13:01:46.395923 31176 net.cpp:156] Memory required for data: 662258800
I0403 13:01:46.395938 31176 layer_factory.hpp:77] Creating layer pool2
I0403 13:01:46.395957 31176 net.cpp:91] Creating Layer pool2
I0403 13:01:46.395973 31176 net.cpp:425] pool2 <- norm2
I0403 13:01:46.395992 31176 net.cpp:399] pool2 -> pool2
I0403 13:01:46.396042 31176 net.cpp:141] Setting up pool2
I0403 13:01:46.396066 31176 net.cpp:148] Top shape: 100 256 13 13 (4326400)
I0403 13:01:46.396082 31176 net.cpp:156] Memory required for data: 679564400
I0403 13:01:46.396097 31176 layer_factory.hpp:77] Creating layer conv3
I0403 13:01:46.396121 31176 net.cpp:91] Creating Layer conv3
I0403 13:01:46.396137 31176 net.cpp:425] conv3 <- pool2
I0403 13:01:46.396157 31176 net.cpp:399] conv3 -> conv3
I0403 13:01:46.434939 31176 net.cpp:141] Setting up conv3
I0403 13:01:46.435014 31176 net.cpp:148] Top shape: 100 384 13 13 (6489600)
I0403 13:01:46.435031 31176 net.cpp:156] Memory required for data: 705522800
I0403 13:01:46.435060 31176 layer_factory.hpp:77] Creating layer relu3
I0403 13:01:46.435082 31176 net.cpp:91] Creating Layer relu3
I0403 13:01:46.435101 31176 net.cpp:425] relu3 <- conv3
I0403 13:01:46.435120 31176 net.cpp:386] relu3 -> conv3 (in-place)
I0403 13:01:46.435395 31176 net.cpp:141] Setting up relu3
I0403 13:01:46.435423 31176 net.cpp:148] Top shape: 100 384 13 13 (6489600)
I0403 13:01:46.435439 31176 net.cpp:156] Memory required for data: 731481200
I0403 13:01:46.435454 31176 layer_factory.hpp:77] Creating layer conv4
I0403 13:01:46.435479 31176 net.cpp:91] Creating Layer conv4
I0403 13:01:46.435497 31176 net.cpp:425] conv4 <- conv3
I0403 13:01:46.435515 31176 net.cpp:399] conv4 -> conv4
I0403 13:01:46.465628 31176 net.cpp:141] Setting up conv4
I0403 13:01:46.465703 31176 net.cpp:148] Top shape: 100 384 13 13 (6489600)
I0403 13:01:46.465750 31176 net.cpp:156] Memory required for data: 757439600
I0403 13:01:46.465772 31176 layer_factory.hpp:77] Creating layer relu4
I0403 13:01:46.465796 31176 net.cpp:91] Creating Layer relu4
I0403 13:01:46.465814 31176 net.cpp:425] relu4 <- conv4
I0403 13:01:46.465834 31176 net.cpp:386] relu4 -> conv4 (in-place)
I0403 13:01:46.466161 31176 net.cpp:141] Setting up relu4
I0403 13:01:46.466189 31176 net.cpp:148] Top shape: 100 384 13 13 (6489600)
I0403 13:01:46.466205 31176 net.cpp:156] Memory required for data: 783398000
I0403 13:01:46.466226 31176 layer_factory.hpp:77] Creating layer conv5
I0403 13:01:46.466253 31176 net.cpp:91] Creating Layer conv5
I0403 13:01:46.466270 31176 net.cpp:425] conv5 <- conv4
I0403 13:01:46.466292 31176 net.cpp:399] conv5 -> conv5
I0403 13:01:46.487375 31176 net.cpp:141] Setting up conv5
I0403 13:01:46.487437 31176 net.cpp:148] Top shape: 100 256 13 13 (4326400)
I0403 13:01:46.487452 31176 net.cpp:156] Memory required for data: 800703600
I0403 13:01:46.487490 31176 layer_factory.hpp:77] Creating layer relu5
I0403 13:01:46.487515 31176 net.cpp:91] Creating Layer relu5
I0403 13:01:46.487534 31176 net.cpp:425] relu5 <- conv5
I0403 13:01:46.487552 31176 net.cpp:386] relu5 -> conv5 (in-place)
I0403 13:01:46.487854 31176 net.cpp:141] Setting up relu5
I0403 13:01:46.487882 31176 net.cpp:148] Top shape: 100 256 13 13 (4326400)
I0403 13:01:46.487897 31176 net.cpp:156] Memory required for data: 818009200
I0403 13:01:46.487912 31176 layer_factory.hpp:77] Creating layer pool5
I0403 13:01:46.487937 31176 net.cpp:91] Creating Layer pool5
I0403 13:01:46.487954 31176 net.cpp:425] pool5 <- conv5
I0403 13:01:46.487974 31176 net.cpp:399] pool5 -> pool5
I0403 13:01:46.488039 31176 net.cpp:141] Setting up pool5
I0403 13:01:46.488062 31176 net.cpp:148] Top shape: 100 256 6 6 (921600)
I0403 13:01:46.488077 31176 net.cpp:156] Memory required for data: 821695600
I0403 13:01:46.488092 31176 layer_factory.hpp:77] Creating layer fc6
I0403 13:01:46.488121 31176 net.cpp:91] Creating Layer fc6
I0403 13:01:46.488140 31176 net.cpp:425] fc6 <- pool5
I0403 13:01:46.488159 31176 net.cpp:399] fc6 -> fc6
I0403 13:01:48.137200 31176 net.cpp:141] Setting up fc6
I0403 13:01:48.137307 31176 net.cpp:148] Top shape: 100 4096 (409600)
I0403 13:01:48.137326 31176 net.cpp:156] Memory required for data: 823334000
I0403 13:01:48.137346 31176 layer_factory.hpp:77] Creating layer relu6
I0403 13:01:48.137368 31176 net.cpp:91] Creating Layer relu6
I0403 13:01:48.137387 31176 net.cpp:425] relu6 <- fc6
I0403 13:01:48.137409 31176 net.cpp:386] relu6 -> fc6 (in-place)
I0403 13:01:48.137646 31176 net.cpp:141] Setting up relu6
I0403 13:01:48.137671 31176 net.cpp:148] Top shape: 100 4096 (409600)
I0403 13:01:48.137686 31176 net.cpp:156] Memory required for data: 824972400
I0403 13:01:48.137701 31176 layer_factory.hpp:77] Creating layer drop6
I0403 13:01:48.137719 31176 net.cpp:91] Creating Layer drop6
I0403 13:01:48.137734 31176 net.cpp:425] drop6 <- fc6
I0403 13:01:48.137755 31176 net.cpp:386] drop6 -> fc6 (in-place)
I0403 13:01:48.137810 31176 net.cpp:141] Setting up drop6
I0403 13:01:48.137833 31176 net.cpp:148] Top shape: 100 4096 (409600)
I0403 13:01:48.137847 31176 net.cpp:156] Memory required for data: 826610800
I0403 13:01:48.137864 31176 layer_factory.hpp:77] Creating layer fc7
I0403 13:01:48.137884 31176 net.cpp:91] Creating Layer fc7
I0403 13:01:48.137899 31176 net.cpp:425] fc7 <- fc6
I0403 13:01:48.137922 31176 net.cpp:399] fc7 -> fc7
I0403 13:01:48.847406 31176 net.cpp:141] Setting up fc7
I0403 13:01:48.847496 31176 net.cpp:148] Top shape: 100 4096 (409600)
I0403 13:01:48.847512 31176 net.cpp:156] Memory required for data: 828249200
I0403 13:01:48.847532 31176 layer_factory.hpp:77] Creating layer relu7
I0403 13:01:48.847556 31176 net.cpp:91] Creating Layer relu7
I0403 13:01:48.847574 31176 net.cpp:425] relu7 <- fc7
I0403 13:01:48.847594 31176 net.cpp:386] relu7 -> fc7 (in-place)
I0403 13:01:48.848016 31176 net.cpp:141] Setting up relu7
I0403 13:01:48.848042 31176 net.cpp:148] Top shape: 100 4096 (409600)
I0403 13:01:48.848089 31176 net.cpp:156] Memory required for data: 829887600
I0403 13:01:48.848105 31176 layer_factory.hpp:77] Creating layer drop7
I0403 13:01:48.848129 31176 net.cpp:91] Creating Layer drop7
I0403 13:01:48.848146 31176 net.cpp:425] drop7 <- fc7
I0403 13:01:48.848165 31176 net.cpp:386] drop7 -> fc7 (in-place)
I0403 13:01:48.848213 31176 net.cpp:141] Setting up drop7
I0403 13:01:48.848239 31176 net.cpp:148] Top shape: 100 4096 (409600)
I0403 13:01:48.848254 31176 net.cpp:156] Memory required for data: 831526000
I0403 13:01:48.848269 31176 layer_factory.hpp:77] Creating layer fc8_plantvillage
I0403 13:01:48.848289 31176 net.cpp:91] Creating Layer fc8_plantvillage
I0403 13:01:48.848305 31176 net.cpp:425] fc8_plantvillage <- fc7
I0403 13:01:48.848325 31176 net.cpp:399] fc8_plantvillage -> fc8_plantvillage
I0403 13:01:48.859973 31176 net.cpp:141] Setting up fc8_plantvillage
I0403 13:01:48.860004 31176 net.cpp:148] Top shape: 100 38 (3800)
I0403 13:01:48.860020 31176 net.cpp:156] Memory required for data: 831541200
I0403 13:01:48.860039 31176 layer_factory.hpp:77] Creating layer fc8_plantvillage_fc8_plantvillage_0_split
I0403 13:01:48.860060 31176 net.cpp:91] Creating Layer fc8_plantvillage_fc8_plantvillage_0_split
I0403 13:01:48.860077 31176 net.cpp:425] fc8_plantvillage_fc8_plantvillage_0_split <- fc8_plantvillage
I0403 13:01:48.860095 31176 net.cpp:399] fc8_plantvillage_fc8_plantvillage_0_split -> fc8_plantvillage_fc8_plantvillage_0_split_0
I0403 13:01:48.860116 31176 net.cpp:399] fc8_plantvillage_fc8_plantvillage_0_split -> fc8_plantvillage_fc8_plantvillage_0_split_1
I0403 13:01:48.860136 31176 net.cpp:399] fc8_plantvillage_fc8_plantvillage_0_split -> fc8_plantvillage_fc8_plantvillage_0_split_2
I0403 13:01:48.860218 31176 net.cpp:141] Setting up fc8_plantvillage_fc8_plantvillage_0_split
I0403 13:01:48.860241 31176 net.cpp:148] Top shape: 100 38 (3800)
I0403 13:01:48.860258 31176 net.cpp:148] Top shape: 100 38 (3800)
I0403 13:01:48.860275 31176 net.cpp:148] Top shape: 100 38 (3800)
I0403 13:01:48.860288 31176 net.cpp:156] Memory required for data: 831586800
I0403 13:01:48.860302 31176 layer_factory.hpp:77] Creating layer prob
I0403 13:01:48.860321 31176 net.cpp:91] Creating Layer prob
I0403 13:01:48.860337 31176 net.cpp:425] prob <- fc8_plantvillage_fc8_plantvillage_0_split_0
I0403 13:01:48.860357 31176 net.cpp:399] prob -> prob
I0403 13:01:48.860582 31176 net.cpp:141] Setting up prob
I0403 13:01:48.860608 31176 net.cpp:148] Top shape: 100 38 (3800)
I0403 13:01:48.860622 31176 net.cpp:156] Memory required for data: 831602000
I0403 13:01:48.860637 31176 layer_factory.hpp:77] Creating layer hdf5out
I0403 13:01:48.860658 31176 net.cpp:91] Creating Layer hdf5out
I0403 13:01:48.860676 31176 net.cpp:425] hdf5out <- prob
I0403 13:01:48.860692 31176 net.cpp:425] hdf5out <- label_data_1_split_0
I0403 13:01:48.862988 31176 net.cpp:141] Setting up hdf5out
…
