…
I0403 12:49:33.802120 30854 net.cpp:313] The NetState phase (1) differed from the phase (0) specified by a rule in layer data
I0403 12:49:33.802441 30854 net.cpp:49] Initializing net from parameters: 
state {
  phase: TEST
}
layer {
  name: "data"
  type: "Data"
  top: "data"
  top: "label"
  include {
    phase: TEST
  }
  transform_param {
    crop_size: 227
    mean_file: "/home/mohanty/data/final_dataset/lmdb/grayscale-40-60/mean.binaryproto"
  }
  data_param {
    source: "/home/mohanty/data/final_dataset/lmdb/grayscale-40-60/test_db"
    batch_size: 100
    backend: LMDB
  }
}
layer {
  name: "conv1"
  type: "Convolution"
  bottom: "data"
  top: "conv1"
  param {
    lr_mult: 1
    decay_mult: 1
  }
  param {
    lr_mult: 2
    decay_mult: 0
  }
  convolution_param {
    num_output: 96
    kernel_size: 11
    stride: 4
    weight_filler {
      type: "gaussian"
      std: 0.01
    }
    bias_filler {
      type: "constant"
      value: 0
    }
  }
}
layer {
  name: "relu1"
  type: "ReLU"
  bottom: "conv1"
  top: "conv1"
}
layer {
  name: "norm1"
  type: "LRN"
  bottom: "conv1"
  top: "norm1"
  lrn_param {
    local_size: 5
    alpha: 0.0001
    beta: 0.75
  }
}
layer {
  name: "pool1"
  type: "Pooling"
  bottom: "norm1"
  top: "pool1"
  pooling_param {
    pool: MAX
    kernel_size: 3
    stride: 2
  }
}
layer {
  name: "conv2"
  type: "Convolution"
  bottom: "pool1"
  top: "conv2"
  param {
    lr_mult: 1
    decay_mult: 1
  }
  param {
    lr_mult: 2
    decay_mult: 0
  }
  convolution_param {
    num_output: 256
    pad: 2
    kernel_size: 5
    group: 2
    weight_filler {
      type: "gaussian"
      std: 0.01
    }
    bias_filler {
      type: "constant"
      value: 0.1
    }
  }
}
layer {
  name: "relu2"
  type: "ReLU"
  bottom: "conv2"
  top: "conv2"
}
layer {
  name: "norm2"
  type: "LRN"
  bottom: "conv2"
  top: "norm2"
  lrn_param {
    local_size: 5
    alpha: 0.0001
    beta: 0.75
  }
}
layer {
  name: "pool2"
  type: "Pooling"
  bottom: "norm2"
  top: "pool2"
  pooling_param {
    pool: MAX
    kernel_size: 3
    stride: 2
  }
}
layer {
  name: "conv3"
  type: "Convolution"
  bottom: "pool2"
  top: "conv3"
  param {
    lr_mult: 1
    decay_mult: 1
  }
  param {
    lr_mult: 2
    decay_mult: 0
  }
  convolution_param {
    num_output: 384
    pad: 1
    kernel_size: 3
    weight_filler {
      type: "gaussian"
      std: 0.01
    }
    bias_filler {
      type: "constant"
      value: 0
    }
  }
}
layer {
  name: "relu3"
  type: "ReLU"
  bottom: "conv3"
  top: "conv3"
}
layer {
  name: "conv4"
  type: "Convolution"
  bottom: "conv3"
  top: "conv4"
  param {
    lr_mult: 1
    decay_mult: 1
  }
  param {
    lr_mult: 2
    decay_mult: 0
  }
  convolution_param {
    num_output: 384
    pad: 1
    kernel_size: 3
    group: 2
    weight_filler {
      type: "gaussian"
      std: 0.01
    }
    bias_filler {
      type: "constant"
      value: 0.1
    }
  }
}
layer {
  name: "relu4"
  type: "ReLU"
  bottom: "conv4"
  top: "conv4"
}
layer {
  name: "conv5"
  type: "Convolution"
  bottom: "conv4"
  top: "conv5"
  param {
    lr_mult: 1
    decay_mult: 1
  }
  param {
    lr_mult: 2
    decay_mult: 0
  }
  convolution_param {
    num_output: 256
    pad: 1
    kernel_size: 3
    group: 2
    weight_filler {
      type: "gaussian"
      std: 0.01
    }
    bias_filler {
      type: "constant"
      value: 0.1
    }
  }
}
layer {
  name: "relu5"
  type: "ReLU"
  bottom: "conv5"
  top: "conv5"
}
layer {
  name: "pool5"
  type: "Pooling"
  bottom: "conv5"
  top: "pool5"
  pooling_param {
    pool: MAX
    kernel_size: 3
    stride: 2
  }
}
layer {
  name: "fc6"
  type: "InnerProduct"
  bottom: "pool5"
  top: "fc6"
  param {
    lr_mult: 1
    decay_mult: 1
  }
  param {
    lr_mult: 2
    decay_mult: 0
  }
  inner_product_param {
    num_output: 4096
    weight_filler {
      type: "gaussian"
      std: 0.005
    }
    bias_filler {
      type: "constant"
      value: 0.1
    }
  }
}
layer {
  name: "relu6"
  type: "ReLU"
  bottom: "fc6"
  top: "fc6"
}
layer {
  name: "drop6"
  type: "Dropout"
  bottom: "fc6"
  top: "fc6"
  dropout_param {
    dropout_ratio: 0.5
  }
}
layer {
  name: "fc7"
  type: "InnerProduct"
  bottom: "fc6"
  top: "fc7"
  param {
    lr_mult: 1
    decay_mult: 1
  }
  param {
    lr_mult: 2
    decay_mult: 0
  }
  inner_product_param {
    num_output: 4096
    weight_filler {
      type: "gaussian"
      std: 0.005
    }
    bias_filler {
      type: "constant"
      value: 0.1
    }
  }
}
layer {
  name: "relu7"
  type: "ReLU"
  bottom: "fc7"
  top: "fc7"
}
layer {
  name: "drop7"
  type: "Dropout"
  bottom: "fc7"
  top: "fc7"
  dropout_param {
    dropout_ratio: 0.5
  }
}
layer {
  name: "fc8_plantvillage"
  type: "InnerProduct"
  bottom: "fc7"
  top: "fc8_plantvillage"
  param {
    lr_mult: 1
    decay_mult: 1
  }
  param {
    lr_mult: 2
    decay_mult: 0
  }
  inner_product_param {
    num_output: 38
    weight_filler {
      type: "gaussian"
      std: 0.01
    }
    bias_filler {
      type: "constant"
      value: 0
    }
  }
}
layer {
  name: "prob"
  type: "Softmax"
  bottom: "fc8_plantvillage"
  top: "prob"
  include {
    phase: TEST
  }
}
layer {
  name: "hdf5out"
  type: "HDF5Output"
  bottom: "prob"
  bottom: "label"
  include {
    phase: TEST
  }
  hdf5_output_param {
    file_name: "hdf5_dumps/iter_3285.h5"
  }
}
layer {
  name: "loss"
  type: "SoftmaxWithLoss"
  bottom: "fc8_plantvillage"
  bottom: "label"
  top: "loss"
}
layer {
  name: "accuracy"
  type: "Accuracy"
  bottom: "fc8_plantvillage"
  bottom: "label"
  top: "accuracy"
  include {
    phase: TEST
  }
}
I0403 12:49:33.803038 30854 layer_factory.hpp:77] Creating layer data
I0403 12:49:33.803697 30854 net.cpp:91] Creating Layer data
I0403 12:49:33.803728 30854 net.cpp:399] data -> data
I0403 12:49:33.803777 30854 net.cpp:399] data -> label
I0403 12:49:33.803817 30854 data_transformer.cpp:25] Loading mean file from: /home/mohanty/data/final_dataset/lmdb/grayscale-40-60/mean.binaryproto
I0403 12:49:33.806768 30859 db_lmdb.cpp:38] Opened lmdb /home/mohanty/data/final_dataset/lmdb/grayscale-40-60/test_db
I0403 12:49:33.818284 30854 data_layer.cpp:41] output data size: 100,3,227,227
I0403 12:49:33.936031 30854 net.cpp:141] Setting up data
I0403 12:49:33.936138 30854 net.cpp:148] Top shape: 100 3 227 227 (15458700)
I0403 12:49:33.936161 30854 net.cpp:148] Top shape: 100 (100)
I0403 12:49:33.936182 30854 net.cpp:156] Memory required for data: 61835200
I0403 12:49:33.936211 30854 layer_factory.hpp:77] Creating layer label_data_1_split
I0403 12:49:33.936238 30854 net.cpp:91] Creating Layer label_data_1_split
I0403 12:49:33.936255 30854 net.cpp:425] label_data_1_split <- label
I0403 12:49:33.936287 30854 net.cpp:399] label_data_1_split -> label_data_1_split_0
I0403 12:49:33.936316 30854 net.cpp:399] label_data_1_split -> label_data_1_split_1
I0403 12:49:33.936336 30854 net.cpp:399] label_data_1_split -> label_data_1_split_2
I0403 12:49:33.936401 30854 net.cpp:141] Setting up label_data_1_split
I0403 12:49:33.936424 30854 net.cpp:148] Top shape: 100 (100)
I0403 12:49:33.936442 30854 net.cpp:148] Top shape: 100 (100)
I0403 12:49:33.936460 30854 net.cpp:148] Top shape: 100 (100)
I0403 12:49:33.936475 30854 net.cpp:156] Memory required for data: 61836400
I0403 12:49:33.936489 30854 layer_factory.hpp:77] Creating layer conv1
I0403 12:49:33.936522 30854 net.cpp:91] Creating Layer conv1
I0403 12:49:33.936540 30854 net.cpp:425] conv1 <- data
I0403 12:49:33.936560 30854 net.cpp:399] conv1 -> conv1
I0403 12:49:34.078553 30854 net.cpp:141] Setting up conv1
I0403 12:49:34.078658 30854 net.cpp:148] Top shape: 100 96 55 55 (29040000)
I0403 12:49:34.078680 30854 net.cpp:156] Memory required for data: 177996400
I0403 12:49:34.078713 30854 layer_factory.hpp:77] Creating layer relu1
I0403 12:49:34.078742 30854 net.cpp:91] Creating Layer relu1
I0403 12:49:34.078760 30854 net.cpp:425] relu1 <- conv1
I0403 12:49:34.078780 30854 net.cpp:386] relu1 -> conv1 (in-place)
I0403 12:49:34.079043 30854 net.cpp:141] Setting up relu1
I0403 12:49:34.079071 30854 net.cpp:148] Top shape: 100 96 55 55 (29040000)
I0403 12:49:34.079118 30854 net.cpp:156] Memory required for data: 294156400
I0403 12:49:34.079134 30854 layer_factory.hpp:77] Creating layer norm1
I0403 12:49:34.079164 30854 net.cpp:91] Creating Layer norm1
I0403 12:49:34.079195 30854 net.cpp:425] norm1 <- conv1
I0403 12:49:34.079216 30854 net.cpp:399] norm1 -> norm1
I0403 12:49:34.079531 30854 net.cpp:141] Setting up norm1
I0403 12:49:34.079560 30854 net.cpp:148] Top shape: 100 96 55 55 (29040000)
I0403 12:49:34.079576 30854 net.cpp:156] Memory required for data: 410316400
I0403 12:49:34.079591 30854 layer_factory.hpp:77] Creating layer pool1
I0403 12:49:34.079615 30854 net.cpp:91] Creating Layer pool1
I0403 12:49:34.079634 30854 net.cpp:425] pool1 <- norm1
I0403 12:49:34.079653 30854 net.cpp:399] pool1 -> pool1
I0403 12:49:34.079721 30854 net.cpp:141] Setting up pool1
I0403 12:49:34.079746 30854 net.cpp:148] Top shape: 100 96 27 27 (6998400)
I0403 12:49:34.079761 30854 net.cpp:156] Memory required for data: 438310000
I0403 12:49:34.079777 30854 layer_factory.hpp:77] Creating layer conv2
I0403 12:49:34.079802 30854 net.cpp:91] Creating Layer conv2
I0403 12:49:34.079819 30854 net.cpp:425] conv2 <- pool1
I0403 12:49:34.079839 30854 net.cpp:399] conv2 -> conv2
I0403 12:49:34.095082 30854 net.cpp:141] Setting up conv2
I0403 12:49:34.095139 30854 net.cpp:148] Top shape: 100 256 27 27 (18662400)
I0403 12:49:34.095155 30854 net.cpp:156] Memory required for data: 512959600
I0403 12:49:34.095183 30854 layer_factory.hpp:77] Creating layer relu2
I0403 12:49:34.095206 30854 net.cpp:91] Creating Layer relu2
I0403 12:49:34.095224 30854 net.cpp:425] relu2 <- conv2
I0403 12:49:34.095243 30854 net.cpp:386] relu2 -> conv2 (in-place)
I0403 12:49:34.095589 30854 net.cpp:141] Setting up relu2
I0403 12:49:34.095618 30854 net.cpp:148] Top shape: 100 256 27 27 (18662400)
I0403 12:49:34.095633 30854 net.cpp:156] Memory required for data: 587609200
I0403 12:49:34.095649 30854 layer_factory.hpp:77] Creating layer norm2
I0403 12:49:34.095670 30854 net.cpp:91] Creating Layer norm2
I0403 12:49:34.095687 30854 net.cpp:425] norm2 <- conv2
I0403 12:49:34.095705 30854 net.cpp:399] norm2 -> norm2
I0403 12:49:34.095899 30854 net.cpp:141] Setting up norm2
I0403 12:49:34.095928 30854 net.cpp:148] Top shape: 100 256 27 27 (18662400)
I0403 12:49:34.095944 30854 net.cpp:156] Memory required for data: 662258800
I0403 12:49:34.095960 30854 layer_factory.hpp:77] Creating layer pool2
I0403 12:49:34.095979 30854 net.cpp:91] Creating Layer pool2
I0403 12:49:34.095996 30854 net.cpp:425] pool2 <- norm2
I0403 12:49:34.096014 30854 net.cpp:399] pool2 -> pool2
I0403 12:49:34.096072 30854 net.cpp:141] Setting up pool2
I0403 12:49:34.096096 30854 net.cpp:148] Top shape: 100 256 13 13 (4326400)
I0403 12:49:34.096112 30854 net.cpp:156] Memory required for data: 679564400
I0403 12:49:34.096127 30854 layer_factory.hpp:77] Creating layer conv3
I0403 12:49:34.096150 30854 net.cpp:91] Creating Layer conv3
I0403 12:49:34.096168 30854 net.cpp:425] conv3 <- pool2
I0403 12:49:34.096197 30854 net.cpp:399] conv3 -> conv3
I0403 12:49:34.136024 30854 net.cpp:141] Setting up conv3
I0403 12:49:34.136108 30854 net.cpp:148] Top shape: 100 384 13 13 (6489600)
I0403 12:49:34.136127 30854 net.cpp:156] Memory required for data: 705522800
I0403 12:49:34.136154 30854 layer_factory.hpp:77] Creating layer relu3
I0403 12:49:34.136183 30854 net.cpp:91] Creating Layer relu3
I0403 12:49:34.136204 30854 net.cpp:425] relu3 <- conv3
I0403 12:49:34.136226 30854 net.cpp:386] relu3 -> conv3 (in-place)
I0403 12:49:34.136507 30854 net.cpp:141] Setting up relu3
I0403 12:49:34.136538 30854 net.cpp:148] Top shape: 100 384 13 13 (6489600)
I0403 12:49:34.136554 30854 net.cpp:156] Memory required for data: 731481200
I0403 12:49:34.136570 30854 layer_factory.hpp:77] Creating layer conv4
I0403 12:49:34.136598 30854 net.cpp:91] Creating Layer conv4
I0403 12:49:34.136616 30854 net.cpp:425] conv4 <- conv3
I0403 12:49:34.136636 30854 net.cpp:399] conv4 -> conv4
I0403 12:49:34.167248 30854 net.cpp:141] Setting up conv4
I0403 12:49:34.167290 30854 net.cpp:148] Top shape: 100 384 13 13 (6489600)
I0403 12:49:34.167338 30854 net.cpp:156] Memory required for data: 757439600
I0403 12:49:34.167373 30854 layer_factory.hpp:77] Creating layer relu4
I0403 12:49:34.167397 30854 net.cpp:91] Creating Layer relu4
I0403 12:49:34.167417 30854 net.cpp:425] relu4 <- conv4
I0403 12:49:34.167435 30854 net.cpp:386] relu4 -> conv4 (in-place)
I0403 12:49:34.167717 30854 net.cpp:141] Setting up relu4
I0403 12:49:34.167743 30854 net.cpp:148] Top shape: 100 384 13 13 (6489600)
I0403 12:49:34.167759 30854 net.cpp:156] Memory required for data: 783398000
I0403 12:49:34.167774 30854 layer_factory.hpp:77] Creating layer conv5
I0403 12:49:34.167800 30854 net.cpp:91] Creating Layer conv5
I0403 12:49:34.167819 30854 net.cpp:425] conv5 <- conv4
I0403 12:49:34.167837 30854 net.cpp:399] conv5 -> conv5
I0403 12:49:34.188781 30854 net.cpp:141] Setting up conv5
I0403 12:49:34.188849 30854 net.cpp:148] Top shape: 100 256 13 13 (4326400)
I0403 12:49:34.188868 30854 net.cpp:156] Memory required for data: 800703600
I0403 12:49:34.188891 30854 layer_factory.hpp:77] Creating layer relu5
I0403 12:49:34.188915 30854 net.cpp:91] Creating Layer relu5
I0403 12:49:34.188943 30854 net.cpp:425] relu5 <- conv5
I0403 12:49:34.188963 30854 net.cpp:386] relu5 -> conv5 (in-place)
I0403 12:49:34.189265 30854 net.cpp:141] Setting up relu5
I0403 12:49:34.189292 30854 net.cpp:148] Top shape: 100 256 13 13 (4326400)
I0403 12:49:34.189307 30854 net.cpp:156] Memory required for data: 818009200
I0403 12:49:34.189323 30854 layer_factory.hpp:77] Creating layer pool5
I0403 12:49:34.189345 30854 net.cpp:91] Creating Layer pool5
I0403 12:49:34.189362 30854 net.cpp:425] pool5 <- conv5
I0403 12:49:34.189383 30854 net.cpp:399] pool5 -> pool5
I0403 12:49:34.189445 30854 net.cpp:141] Setting up pool5
I0403 12:49:34.189468 30854 net.cpp:148] Top shape: 100 256 6 6 (921600)
I0403 12:49:34.189483 30854 net.cpp:156] Memory required for data: 821695600
I0403 12:49:34.189498 30854 layer_factory.hpp:77] Creating layer fc6
I0403 12:49:34.189527 30854 net.cpp:91] Creating Layer fc6
I0403 12:49:34.189546 30854 net.cpp:425] fc6 <- pool5
I0403 12:49:34.189568 30854 net.cpp:399] fc6 -> fc6
I0403 12:49:35.780261 30854 net.cpp:141] Setting up fc6
I0403 12:49:35.780351 30854 net.cpp:148] Top shape: 100 4096 (409600)
I0403 12:49:35.780369 30854 net.cpp:156] Memory required for data: 823334000
I0403 12:49:35.780390 30854 layer_factory.hpp:77] Creating layer relu6
I0403 12:49:35.780416 30854 net.cpp:91] Creating Layer relu6
I0403 12:49:35.780433 30854 net.cpp:425] relu6 <- fc6
I0403 12:49:35.780453 30854 net.cpp:386] relu6 -> fc6 (in-place)
I0403 12:49:35.780685 30854 net.cpp:141] Setting up relu6
I0403 12:49:35.780712 30854 net.cpp:148] Top shape: 100 4096 (409600)
I0403 12:49:35.780728 30854 net.cpp:156] Memory required for data: 824972400
I0403 12:49:35.780742 30854 layer_factory.hpp:77] Creating layer drop6
I0403 12:49:35.780761 30854 net.cpp:91] Creating Layer drop6
I0403 12:49:35.780777 30854 net.cpp:425] drop6 <- fc6
I0403 12:49:35.780796 30854 net.cpp:386] drop6 -> fc6 (in-place)
I0403 12:49:35.780849 30854 net.cpp:141] Setting up drop6
I0403 12:49:35.780872 30854 net.cpp:148] Top shape: 100 4096 (409600)
I0403 12:49:35.780886 30854 net.cpp:156] Memory required for data: 826610800
I0403 12:49:35.780901 30854 layer_factory.hpp:77] Creating layer fc7
I0403 12:49:35.780922 30854 net.cpp:91] Creating Layer fc7
I0403 12:49:35.780938 30854 net.cpp:425] fc7 <- fc6
I0403 12:49:35.780957 30854 net.cpp:399] fc7 -> fc7
I0403 12:49:36.469450 30854 net.cpp:141] Setting up fc7
I0403 12:49:36.469521 30854 net.cpp:148] Top shape: 100 4096 (409600)
I0403 12:49:36.469537 30854 net.cpp:156] Memory required for data: 828249200
I0403 12:49:36.469558 30854 layer_factory.hpp:77] Creating layer relu7
I0403 12:49:36.469583 30854 net.cpp:91] Creating Layer relu7
I0403 12:49:36.469600 30854 net.cpp:425] relu7 <- fc7
I0403 12:49:36.469620 30854 net.cpp:386] relu7 -> fc7 (in-place)
I0403 12:49:36.470029 30854 net.cpp:141] Setting up relu7
I0403 12:49:36.470057 30854 net.cpp:148] Top shape: 100 4096 (409600)
I0403 12:49:36.470104 30854 net.cpp:156] Memory required for data: 829887600
I0403 12:49:36.470121 30854 layer_factory.hpp:77] Creating layer drop7
I0403 12:49:36.470140 30854 net.cpp:91] Creating Layer drop7
I0403 12:49:36.470168 30854 net.cpp:425] drop7 <- fc7
I0403 12:49:36.470196 30854 net.cpp:386] drop7 -> fc7 (in-place)
I0403 12:49:36.470242 30854 net.cpp:141] Setting up drop7
I0403 12:49:36.470263 30854 net.cpp:148] Top shape: 100 4096 (409600)
I0403 12:49:36.470278 30854 net.cpp:156] Memory required for data: 831526000
I0403 12:49:36.470293 30854 layer_factory.hpp:77] Creating layer fc8_plantvillage
I0403 12:49:36.470316 30854 net.cpp:91] Creating Layer fc8_plantvillage
I0403 12:49:36.470332 30854 net.cpp:425] fc8_plantvillage <- fc7
I0403 12:49:36.470355 30854 net.cpp:399] fc8_plantvillage -> fc8_plantvillage
I0403 12:49:36.476956 30854 net.cpp:141] Setting up fc8_plantvillage
I0403 12:49:36.476984 30854 net.cpp:148] Top shape: 100 38 (3800)
I0403 12:49:36.476999 30854 net.cpp:156] Memory required for data: 831541200
I0403 12:49:36.477017 30854 layer_factory.hpp:77] Creating layer fc8_plantvillage_fc8_plantvillage_0_split
I0403 12:49:36.477036 30854 net.cpp:91] Creating Layer fc8_plantvillage_fc8_plantvillage_0_split
I0403 12:49:36.477052 30854 net.cpp:425] fc8_plantvillage_fc8_plantvillage_0_split <- fc8_plantvillage
I0403 12:49:36.477072 30854 net.cpp:399] fc8_plantvillage_fc8_plantvillage_0_split -> fc8_plantvillage_fc8_plantvillage_0_split_0
I0403 12:49:36.477093 30854 net.cpp:399] fc8_plantvillage_fc8_plantvillage_0_split -> fc8_plantvillage_fc8_plantvillage_0_split_1
I0403 12:49:36.477113 30854 net.cpp:399] fc8_plantvillage_fc8_plantvillage_0_split -> fc8_plantvillage_fc8_plantvillage_0_split_2
I0403 12:49:36.477196 30854 net.cpp:141] Setting up fc8_plantvillage_fc8_plantvillage_0_split
I0403 12:49:36.477221 30854 net.cpp:148] Top shape: 100 38 (3800)
I0403 12:49:36.477236 30854 net.cpp:148] Top shape: 100 38 (3800)
I0403 12:49:36.477252 30854 net.cpp:148] Top shape: 100 38 (3800)
I0403 12:49:36.477265 30854 net.cpp:156] Memory required for data: 831586800
I0403 12:49:36.477280 30854 layer_factory.hpp:77] Creating layer prob
I0403 12:49:36.477298 30854 net.cpp:91] Creating Layer prob
I0403 12:49:36.477314 30854 net.cpp:425] prob <- fc8_plantvillage_fc8_plantvillage_0_split_0
I0403 12:49:36.477332 30854 net.cpp:399] prob -> prob
I0403 12:49:36.477552 30854 net.cpp:141] Setting up prob
I0403 12:49:36.477581 30854 net.cpp:148] Top shape: 100 38 (3800)
I0403 12:49:36.477596 30854 net.cpp:156] Memory required for data: 831602000
I0403 12:49:36.477612 30854 layer_factory.hpp:77] Creating layer hdf5out
I0403 12:49:36.477632 30854 net.cpp:91] Creating Layer hdf5out
I0403 12:49:36.477646 30854 net.cpp:425] hdf5out <- prob
I0403 12:49:36.477663 30854 net.cpp:425] hdf5out <- label_data_1_split_0
I0403 12:49:36.479905 30854 net.cpp:141] Setting up hdf5out
…
