…
I0403 12:39:35.959101 30601 net.cpp:313] The NetState phase (1) differed from the phase (0) specified by a rule in layer data
I0403 12:39:35.959439 30601 net.cpp:49] Initializing net from parameters: 
state {
  phase: TEST
}
layer {
  name: "data"
  type: "Data"
  top: "data"
  top: "label"
  include {
    phase: TEST
  }
  transform_param {
    crop_size: 227
    mean_file: "/home/mohanty/data/final_dataset/lmdb/grayscale-40-60/mean.binaryproto"
  }
  data_param {
    source: "/home/mohanty/data/final_dataset/lmdb/grayscale-40-60/test_db"
    batch_size: 100
    backend: LMDB
  }
}
layer {
  name: "conv1"
  type: "Convolution"
  bottom: "data"
  top: "conv1"
  param {
    lr_mult: 1
    decay_mult: 1
  }
  param {
    lr_mult: 2
    decay_mult: 0
  }
  convolution_param {
    num_output: 96
    kernel_size: 11
    stride: 4
    weight_filler {
      type: "gaussian"
      std: 0.01
    }
    bias_filler {
      type: "constant"
      value: 0
    }
  }
}
layer {
  name: "relu1"
  type: "ReLU"
  bottom: "conv1"
  top: "conv1"
}
layer {
  name: "norm1"
  type: "LRN"
  bottom: "conv1"
  top: "norm1"
  lrn_param {
    local_size: 5
    alpha: 0.0001
    beta: 0.75
  }
}
layer {
  name: "pool1"
  type: "Pooling"
  bottom: "norm1"
  top: "pool1"
  pooling_param {
    pool: MAX
    kernel_size: 3
    stride: 2
  }
}
layer {
  name: "conv2"
  type: "Convolution"
  bottom: "pool1"
  top: "conv2"
  param {
    lr_mult: 1
    decay_mult: 1
  }
  param {
    lr_mult: 2
    decay_mult: 0
  }
  convolution_param {
    num_output: 256
    pad: 2
    kernel_size: 5
    group: 2
    weight_filler {
      type: "gaussian"
      std: 0.01
    }
    bias_filler {
      type: "constant"
      value: 0.1
    }
  }
}
layer {
  name: "relu2"
  type: "ReLU"
  bottom: "conv2"
  top: "conv2"
}
layer {
  name: "norm2"
  type: "LRN"
  bottom: "conv2"
  top: "norm2"
  lrn_param {
    local_size: 5
    alpha: 0.0001
    beta: 0.75
  }
}
layer {
  name: "pool2"
  type: "Pooling"
  bottom: "norm2"
  top: "pool2"
  pooling_param {
    pool: MAX
    kernel_size: 3
    stride: 2
  }
}
layer {
  name: "conv3"
  type: "Convolution"
  bottom: "pool2"
  top: "conv3"
  param {
    lr_mult: 1
    decay_mult: 1
  }
  param {
    lr_mult: 2
    decay_mult: 0
  }
  convolution_param {
    num_output: 384
    pad: 1
    kernel_size: 3
    weight_filler {
      type: "gaussian"
      std: 0.01
    }
    bias_filler {
      type: "constant"
      value: 0
    }
  }
}
layer {
  name: "relu3"
  type: "ReLU"
  bottom: "conv3"
  top: "conv3"
}
layer {
  name: "conv4"
  type: "Convolution"
  bottom: "conv3"
  top: "conv4"
  param {
    lr_mult: 1
    decay_mult: 1
  }
  param {
    lr_mult: 2
    decay_mult: 0
  }
  convolution_param {
    num_output: 384
    pad: 1
    kernel_size: 3
    group: 2
    weight_filler {
      type: "gaussian"
      std: 0.01
    }
    bias_filler {
      type: "constant"
      value: 0.1
    }
  }
}
layer {
  name: "relu4"
  type: "ReLU"
  bottom: "conv4"
  top: "conv4"
}
layer {
  name: "conv5"
  type: "Convolution"
  bottom: "conv4"
  top: "conv5"
  param {
    lr_mult: 1
    decay_mult: 1
  }
  param {
    lr_mult: 2
    decay_mult: 0
  }
  convolution_param {
    num_output: 256
    pad: 1
    kernel_size: 3
    group: 2
    weight_filler {
      type: "gaussian"
      std: 0.01
    }
    bias_filler {
      type: "constant"
      value: 0.1
    }
  }
}
layer {
  name: "relu5"
  type: "ReLU"
  bottom: "conv5"
  top: "conv5"
}
layer {
  name: "pool5"
  type: "Pooling"
  bottom: "conv5"
  top: "pool5"
  pooling_param {
    pool: MAX
    kernel_size: 3
    stride: 2
  }
}
layer {
  name: "fc6"
  type: "InnerProduct"
  bottom: "pool5"
  top: "fc6"
  param {
    lr_mult: 1
    decay_mult: 1
  }
  param {
    lr_mult: 2
    decay_mult: 0
  }
  inner_product_param {
    num_output: 4096
    weight_filler {
      type: "gaussian"
      std: 0.005
    }
    bias_filler {
      type: "constant"
      value: 0.1
    }
  }
}
layer {
  name: "relu6"
  type: "ReLU"
  bottom: "fc6"
  top: "fc6"
}
layer {
  name: "drop6"
  type: "Dropout"
  bottom: "fc6"
  top: "fc6"
  dropout_param {
    dropout_ratio: 0.5
  }
}
layer {
  name: "fc7"
  type: "InnerProduct"
  bottom: "fc6"
  top: "fc7"
  param {
    lr_mult: 1
    decay_mult: 1
  }
  param {
    lr_mult: 2
    decay_mult: 0
  }
  inner_product_param {
    num_output: 4096
    weight_filler {
      type: "gaussian"
      std: 0.005
    }
    bias_filler {
      type: "constant"
      value: 0.1
    }
  }
}
layer {
  name: "relu7"
  type: "ReLU"
  bottom: "fc7"
  top: "fc7"
}
layer {
  name: "drop7"
  type: "Dropout"
  bottom: "fc7"
  top: "fc7"
  dropout_param {
    dropout_ratio: 0.5
  }
}
layer {
  name: "fc8_plantvillage"
  type: "InnerProduct"
  bottom: "fc7"
  top: "fc8_plantvillage"
  param {
    lr_mult: 1
    decay_mult: 1
  }
  param {
    lr_mult: 2
    decay_mult: 0
  }
  inner_product_param {
    num_output: 38
    weight_filler {
      type: "gaussian"
      std: 0.01
    }
    bias_filler {
      type: "constant"
      value: 0
    }
  }
}
layer {
  name: "prob"
  type: "Softmax"
  bottom: "fc8_plantvillage"
  top: "prob"
  include {
    phase: TEST
  }
}
layer {
  name: "hdf5out"
  type: "HDF5Output"
  bottom: "prob"
  bottom: "label"
  include {
    phase: TEST
  }
  hdf5_output_param {
    file_name: "hdf5_dumps/iter_1314.h5"
  }
}
layer {
  name: "loss"
  type: "SoftmaxWithLoss"
  bottom: "fc8_plantvillage"
  bottom: "label"
  top: "loss"
}
layer {
  name: "accuracy"
  type: "Accuracy"
  bottom: "fc8_plantvillage"
  bottom: "label"
  top: "accuracy"
  include {
    phase: TEST
  }
}
I0403 12:39:35.960007 30601 layer_factory.hpp:77] Creating layer data
I0403 12:39:35.960677 30601 net.cpp:91] Creating Layer data
I0403 12:39:35.960708 30601 net.cpp:399] data -> data
I0403 12:39:35.960760 30601 net.cpp:399] data -> label
I0403 12:39:35.960798 30601 data_transformer.cpp:25] Loading mean file from: /home/mohanty/data/final_dataset/lmdb/grayscale-40-60/mean.binaryproto
I0403 12:39:35.964439 30604 db_lmdb.cpp:38] Opened lmdb /home/mohanty/data/final_dataset/lmdb/grayscale-40-60/test_db
I0403 12:39:35.975422 30601 data_layer.cpp:41] output data size: 100,3,227,227
I0403 12:39:36.098204 30601 net.cpp:141] Setting up data
I0403 12:39:36.098320 30601 net.cpp:148] Top shape: 100 3 227 227 (15458700)
I0403 12:39:36.098345 30601 net.cpp:148] Top shape: 100 (100)
I0403 12:39:36.098361 30601 net.cpp:156] Memory required for data: 61835200
I0403 12:39:36.098392 30601 layer_factory.hpp:77] Creating layer label_data_1_split
I0403 12:39:36.098419 30601 net.cpp:91] Creating Layer label_data_1_split
I0403 12:39:36.098439 30601 net.cpp:425] label_data_1_split <- label
I0403 12:39:36.098471 30601 net.cpp:399] label_data_1_split -> label_data_1_split_0
I0403 12:39:36.098500 30601 net.cpp:399] label_data_1_split -> label_data_1_split_1
I0403 12:39:36.098521 30601 net.cpp:399] label_data_1_split -> label_data_1_split_2
I0403 12:39:36.098587 30601 net.cpp:141] Setting up label_data_1_split
I0403 12:39:36.098613 30601 net.cpp:148] Top shape: 100 (100)
I0403 12:39:36.098629 30601 net.cpp:148] Top shape: 100 (100)
I0403 12:39:36.098645 30601 net.cpp:148] Top shape: 100 (100)
I0403 12:39:36.098659 30601 net.cpp:156] Memory required for data: 61836400
I0403 12:39:36.098675 30601 layer_factory.hpp:77] Creating layer conv1
I0403 12:39:36.098707 30601 net.cpp:91] Creating Layer conv1
I0403 12:39:36.098726 30601 net.cpp:425] conv1 <- data
I0403 12:39:36.098747 30601 net.cpp:399] conv1 -> conv1
I0403 12:39:36.247113 30601 net.cpp:141] Setting up conv1
I0403 12:39:36.247205 30601 net.cpp:148] Top shape: 100 96 55 55 (29040000)
I0403 12:39:36.247228 30601 net.cpp:156] Memory required for data: 177996400
I0403 12:39:36.247261 30601 layer_factory.hpp:77] Creating layer relu1
I0403 12:39:36.247290 30601 net.cpp:91] Creating Layer relu1
I0403 12:39:36.247310 30601 net.cpp:425] relu1 <- conv1
I0403 12:39:36.247333 30601 net.cpp:386] relu1 -> conv1 (in-place)
I0403 12:39:36.247623 30601 net.cpp:141] Setting up relu1
I0403 12:39:36.247651 30601 net.cpp:148] Top shape: 100 96 55 55 (29040000)
I0403 12:39:36.247699 30601 net.cpp:156] Memory required for data: 294156400
I0403 12:39:36.247716 30601 layer_factory.hpp:77] Creating layer norm1
I0403 12:39:36.247746 30601 net.cpp:91] Creating Layer norm1
I0403 12:39:36.247766 30601 net.cpp:425] norm1 <- conv1
I0403 12:39:36.247784 30601 net.cpp:399] norm1 -> norm1
I0403 12:39:36.248113 30601 net.cpp:141] Setting up norm1
I0403 12:39:36.248142 30601 net.cpp:148] Top shape: 100 96 55 55 (29040000)
I0403 12:39:36.248157 30601 net.cpp:156] Memory required for data: 410316400
I0403 12:39:36.248172 30601 layer_factory.hpp:77] Creating layer pool1
I0403 12:39:36.248196 30601 net.cpp:91] Creating Layer pool1
I0403 12:39:36.248220 30601 net.cpp:425] pool1 <- norm1
I0403 12:39:36.248239 30601 net.cpp:399] pool1 -> pool1
I0403 12:39:36.248311 30601 net.cpp:141] Setting up pool1
I0403 12:39:36.248334 30601 net.cpp:148] Top shape: 100 96 27 27 (6998400)
I0403 12:39:36.248350 30601 net.cpp:156] Memory required for data: 438310000
I0403 12:39:36.248366 30601 layer_factory.hpp:77] Creating layer conv2
I0403 12:39:36.248396 30601 net.cpp:91] Creating Layer conv2
I0403 12:39:36.248417 30601 net.cpp:425] conv2 <- pool1
I0403 12:39:36.248438 30601 net.cpp:399] conv2 -> conv2
I0403 12:39:36.263694 30601 net.cpp:141] Setting up conv2
I0403 12:39:36.263749 30601 net.cpp:148] Top shape: 100 256 27 27 (18662400)
I0403 12:39:36.263767 30601 net.cpp:156] Memory required for data: 512959600
I0403 12:39:36.263792 30601 layer_factory.hpp:77] Creating layer relu2
I0403 12:39:36.263813 30601 net.cpp:91] Creating Layer relu2
I0403 12:39:36.263831 30601 net.cpp:425] relu2 <- conv2
I0403 12:39:36.263849 30601 net.cpp:386] relu2 -> conv2 (in-place)
I0403 12:39:36.264153 30601 net.cpp:141] Setting up relu2
I0403 12:39:36.264183 30601 net.cpp:148] Top shape: 100 256 27 27 (18662400)
I0403 12:39:36.264199 30601 net.cpp:156] Memory required for data: 587609200
I0403 12:39:36.264219 30601 layer_factory.hpp:77] Creating layer norm2
I0403 12:39:36.264242 30601 net.cpp:91] Creating Layer norm2
I0403 12:39:36.264258 30601 net.cpp:425] norm2 <- conv2
I0403 12:39:36.264279 30601 net.cpp:399] norm2 -> norm2
I0403 12:39:36.264478 30601 net.cpp:141] Setting up norm2
I0403 12:39:36.264504 30601 net.cpp:148] Top shape: 100 256 27 27 (18662400)
I0403 12:39:36.264519 30601 net.cpp:156] Memory required for data: 662258800
I0403 12:39:36.264535 30601 layer_factory.hpp:77] Creating layer pool2
I0403 12:39:36.264555 30601 net.cpp:91] Creating Layer pool2
I0403 12:39:36.264572 30601 net.cpp:425] pool2 <- norm2
I0403 12:39:36.264590 30601 net.cpp:399] pool2 -> pool2
I0403 12:39:36.264647 30601 net.cpp:141] Setting up pool2
I0403 12:39:36.264668 30601 net.cpp:148] Top shape: 100 256 13 13 (4326400)
I0403 12:39:36.264684 30601 net.cpp:156] Memory required for data: 679564400
I0403 12:39:36.264699 30601 layer_factory.hpp:77] Creating layer conv3
I0403 12:39:36.264721 30601 net.cpp:91] Creating Layer conv3
I0403 12:39:36.264739 30601 net.cpp:425] conv3 <- pool2
I0403 12:39:36.264760 30601 net.cpp:399] conv3 -> conv3
I0403 12:39:36.304517 30601 net.cpp:141] Setting up conv3
I0403 12:39:36.304605 30601 net.cpp:148] Top shape: 100 384 13 13 (6489600)
I0403 12:39:36.304621 30601 net.cpp:156] Memory required for data: 705522800
I0403 12:39:36.304647 30601 layer_factory.hpp:77] Creating layer relu3
I0403 12:39:36.304673 30601 net.cpp:91] Creating Layer relu3
I0403 12:39:36.304693 30601 net.cpp:425] relu3 <- conv3
I0403 12:39:36.304713 30601 net.cpp:386] relu3 -> conv3 (in-place)
I0403 12:39:36.304989 30601 net.cpp:141] Setting up relu3
I0403 12:39:36.305016 30601 net.cpp:148] Top shape: 100 384 13 13 (6489600)
I0403 12:39:36.305032 30601 net.cpp:156] Memory required for data: 731481200
I0403 12:39:36.305047 30601 layer_factory.hpp:77] Creating layer conv4
I0403 12:39:36.305073 30601 net.cpp:91] Creating Layer conv4
I0403 12:39:36.305090 30601 net.cpp:425] conv4 <- conv3
I0403 12:39:36.305112 30601 net.cpp:399] conv4 -> conv4
I0403 12:39:36.335676 30601 net.cpp:141] Setting up conv4
I0403 12:39:36.335757 30601 net.cpp:148] Top shape: 100 384 13 13 (6489600)
I0403 12:39:36.335806 30601 net.cpp:156] Memory required for data: 757439600
I0403 12:39:36.335829 30601 layer_factory.hpp:77] Creating layer relu4
I0403 12:39:36.335852 30601 net.cpp:91] Creating Layer relu4
I0403 12:39:36.335870 30601 net.cpp:425] relu4 <- conv4
I0403 12:39:36.335893 30601 net.cpp:386] relu4 -> conv4 (in-place)
I0403 12:39:36.336236 30601 net.cpp:141] Setting up relu4
I0403 12:39:36.336264 30601 net.cpp:148] Top shape: 100 384 13 13 (6489600)
I0403 12:39:36.336279 30601 net.cpp:156] Memory required for data: 783398000
I0403 12:39:36.336294 30601 layer_factory.hpp:77] Creating layer conv5
I0403 12:39:36.336320 30601 net.cpp:91] Creating Layer conv5
I0403 12:39:36.336338 30601 net.cpp:425] conv5 <- conv4
I0403 12:39:36.336359 30601 net.cpp:399] conv5 -> conv5
I0403 12:39:36.357275 30601 net.cpp:141] Setting up conv5
I0403 12:39:36.357311 30601 net.cpp:148] Top shape: 100 256 13 13 (4326400)
I0403 12:39:36.357327 30601 net.cpp:156] Memory required for data: 800703600
I0403 12:39:36.357355 30601 layer_factory.hpp:77] Creating layer relu5
I0403 12:39:36.357378 30601 net.cpp:91] Creating Layer relu5
I0403 12:39:36.357394 30601 net.cpp:425] relu5 <- conv5
I0403 12:39:36.357412 30601 net.cpp:386] relu5 -> conv5 (in-place)
I0403 12:39:36.357691 30601 net.cpp:141] Setting up relu5
I0403 12:39:36.357717 30601 net.cpp:148] Top shape: 100 256 13 13 (4326400)
I0403 12:39:36.357733 30601 net.cpp:156] Memory required for data: 818009200
I0403 12:39:36.357748 30601 layer_factory.hpp:77] Creating layer pool5
I0403 12:39:36.357770 30601 net.cpp:91] Creating Layer pool5
I0403 12:39:36.357787 30601 net.cpp:425] pool5 <- conv5
I0403 12:39:36.357805 30601 net.cpp:399] pool5 -> pool5
I0403 12:39:36.357866 30601 net.cpp:141] Setting up pool5
I0403 12:39:36.357888 30601 net.cpp:148] Top shape: 100 256 6 6 (921600)
I0403 12:39:36.357903 30601 net.cpp:156] Memory required for data: 821695600
I0403 12:39:36.357916 30601 layer_factory.hpp:77] Creating layer fc6
I0403 12:39:36.357946 30601 net.cpp:91] Creating Layer fc6
I0403 12:39:36.357964 30601 net.cpp:425] fc6 <- pool5
I0403 12:39:36.357982 30601 net.cpp:399] fc6 -> fc6
I0403 12:39:37.935276 30601 net.cpp:141] Setting up fc6
I0403 12:39:37.935365 30601 net.cpp:148] Top shape: 100 4096 (409600)
I0403 12:39:37.935384 30601 net.cpp:156] Memory required for data: 823334000
I0403 12:39:37.935405 30601 layer_factory.hpp:77] Creating layer relu6
I0403 12:39:37.935430 30601 net.cpp:91] Creating Layer relu6
I0403 12:39:37.935446 30601 net.cpp:425] relu6 <- fc6
I0403 12:39:37.935469 30601 net.cpp:386] relu6 -> fc6 (in-place)
I0403 12:39:37.935709 30601 net.cpp:141] Setting up relu6
I0403 12:39:37.935734 30601 net.cpp:148] Top shape: 100 4096 (409600)
I0403 12:39:37.935750 30601 net.cpp:156] Memory required for data: 824972400
I0403 12:39:37.935763 30601 layer_factory.hpp:77] Creating layer drop6
I0403 12:39:37.935783 30601 net.cpp:91] Creating Layer drop6
I0403 12:39:37.935799 30601 net.cpp:425] drop6 <- fc6
I0403 12:39:37.935817 30601 net.cpp:386] drop6 -> fc6 (in-place)
I0403 12:39:37.935869 30601 net.cpp:141] Setting up drop6
I0403 12:39:37.935891 30601 net.cpp:148] Top shape: 100 4096 (409600)
I0403 12:39:37.935906 30601 net.cpp:156] Memory required for data: 826610800
I0403 12:39:37.935921 30601 layer_factory.hpp:77] Creating layer fc7
I0403 12:39:37.935941 30601 net.cpp:91] Creating Layer fc7
I0403 12:39:37.935956 30601 net.cpp:425] fc7 <- fc6
I0403 12:39:37.935976 30601 net.cpp:399] fc7 -> fc7
I0403 12:39:38.627022 30601 net.cpp:141] Setting up fc7
I0403 12:39:38.627071 30601 net.cpp:148] Top shape: 100 4096 (409600)
I0403 12:39:38.627086 30601 net.cpp:156] Memory required for data: 828249200
I0403 12:39:38.627107 30601 layer_factory.hpp:77] Creating layer relu7
I0403 12:39:38.627131 30601 net.cpp:91] Creating Layer relu7
I0403 12:39:38.627148 30601 net.cpp:425] relu7 <- fc7
I0403 12:39:38.627166 30601 net.cpp:386] relu7 -> fc7 (in-place)
I0403 12:39:38.627598 30601 net.cpp:141] Setting up relu7
I0403 12:39:38.627624 30601 net.cpp:148] Top shape: 100 4096 (409600)
I0403 12:39:38.627686 30601 net.cpp:156] Memory required for data: 829887600
I0403 12:39:38.627701 30601 layer_factory.hpp:77] Creating layer drop7
I0403 12:39:38.627720 30601 net.cpp:91] Creating Layer drop7
I0403 12:39:38.627735 30601 net.cpp:425] drop7 <- fc7
I0403 12:39:38.627755 30601 net.cpp:386] drop7 -> fc7 (in-place)
I0403 12:39:38.627800 30601 net.cpp:141] Setting up drop7
I0403 12:39:38.627823 30601 net.cpp:148] Top shape: 100 4096 (409600)
I0403 12:39:38.627836 30601 net.cpp:156] Memory required for data: 831526000
I0403 12:39:38.627851 30601 layer_factory.hpp:77] Creating layer fc8_plantvillage
I0403 12:39:38.627871 30601 net.cpp:91] Creating Layer fc8_plantvillage
I0403 12:39:38.627887 30601 net.cpp:425] fc8_plantvillage <- fc7
I0403 12:39:38.627907 30601 net.cpp:399] fc8_plantvillage -> fc8_plantvillage
I0403 12:39:38.634829 30601 net.cpp:141] Setting up fc8_plantvillage
I0403 12:39:38.634858 30601 net.cpp:148] Top shape: 100 38 (3800)
I0403 12:39:38.634873 30601 net.cpp:156] Memory required for data: 831541200
I0403 12:39:38.634891 30601 layer_factory.hpp:77] Creating layer fc8_plantvillage_fc8_plantvillage_0_split
I0403 12:39:38.634908 30601 net.cpp:91] Creating Layer fc8_plantvillage_fc8_plantvillage_0_split
I0403 12:39:38.634923 30601 net.cpp:425] fc8_plantvillage_fc8_plantvillage_0_split <- fc8_plantvillage
I0403 12:39:38.634940 30601 net.cpp:399] fc8_plantvillage_fc8_plantvillage_0_split -> fc8_plantvillage_fc8_plantvillage_0_split_0
I0403 12:39:38.634958 30601 net.cpp:399] fc8_plantvillage_fc8_plantvillage_0_split -> fc8_plantvillage_fc8_plantvillage_0_split_1
I0403 12:39:38.634977 30601 net.cpp:399] fc8_plantvillage_fc8_plantvillage_0_split -> fc8_plantvillage_fc8_plantvillage_0_split_2
I0403 12:39:38.635054 30601 net.cpp:141] Setting up fc8_plantvillage_fc8_plantvillage_0_split
I0403 12:39:38.635077 30601 net.cpp:148] Top shape: 100 38 (3800)
I0403 12:39:38.635092 30601 net.cpp:148] Top shape: 100 38 (3800)
I0403 12:39:38.635107 30601 net.cpp:148] Top shape: 100 38 (3800)
I0403 12:39:38.635119 30601 net.cpp:156] Memory required for data: 831586800
I0403 12:39:38.635133 30601 layer_factory.hpp:77] Creating layer prob
I0403 12:39:38.635151 30601 net.cpp:91] Creating Layer prob
I0403 12:39:38.635166 30601 net.cpp:425] prob <- fc8_plantvillage_fc8_plantvillage_0_split_0
I0403 12:39:38.635184 30601 net.cpp:399] prob -> prob
I0403 12:39:38.635406 30601 net.cpp:141] Setting up prob
I0403 12:39:38.635431 30601 net.cpp:148] Top shape: 100 38 (3800)
I0403 12:39:38.635444 30601 net.cpp:156] Memory required for data: 831602000
I0403 12:39:38.635458 30601 layer_factory.hpp:77] Creating layer hdf5out
I0403 12:39:38.635479 30601 net.cpp:91] Creating Layer hdf5out
I0403 12:39:38.635496 30601 net.cpp:425] hdf5out <- prob
I0403 12:39:38.635511 30601 net.cpp:425] hdf5out <- label_data_1_split_0
I0403 12:39:38.637817 30601 net.cpp:141] Setting up hdf5out
…
