…
I0403 12:37:23.228369 30537 net.cpp:313] The NetState phase (1) differed from the phase (0) specified by a rule in layer data
I0403 12:37:23.228693 30537 net.cpp:49] Initializing net from parameters: 
state {
  phase: TEST
}
layer {
  name: "data"
  type: "Data"
  top: "data"
  top: "label"
  include {
    phase: TEST
  }
  transform_param {
    crop_size: 227
    mean_file: "/home/mohanty/data/final_dataset/lmdb/grayscale-40-60/mean.binaryproto"
  }
  data_param {
    source: "/home/mohanty/data/final_dataset/lmdb/grayscale-40-60/test_db"
    batch_size: 100
    backend: LMDB
  }
}
layer {
  name: "conv1"
  type: "Convolution"
  bottom: "data"
  top: "conv1"
  param {
    lr_mult: 1
    decay_mult: 1
  }
  param {
    lr_mult: 2
    decay_mult: 0
  }
  convolution_param {
    num_output: 96
    kernel_size: 11
    stride: 4
    weight_filler {
      type: "gaussian"
      std: 0.01
    }
    bias_filler {
      type: "constant"
      value: 0
    }
  }
}
layer {
  name: "relu1"
  type: "ReLU"
  bottom: "conv1"
  top: "conv1"
}
layer {
  name: "norm1"
  type: "LRN"
  bottom: "conv1"
  top: "norm1"
  lrn_param {
    local_size: 5
    alpha: 0.0001
    beta: 0.75
  }
}
layer {
  name: "pool1"
  type: "Pooling"
  bottom: "norm1"
  top: "pool1"
  pooling_param {
    pool: MAX
    kernel_size: 3
    stride: 2
  }
}
layer {
  name: "conv2"
  type: "Convolution"
  bottom: "pool1"
  top: "conv2"
  param {
    lr_mult: 1
    decay_mult: 1
  }
  param {
    lr_mult: 2
    decay_mult: 0
  }
  convolution_param {
    num_output: 256
    pad: 2
    kernel_size: 5
    group: 2
    weight_filler {
      type: "gaussian"
      std: 0.01
    }
    bias_filler {
      type: "constant"
      value: 0.1
    }
  }
}
layer {
  name: "relu2"
  type: "ReLU"
  bottom: "conv2"
  top: "conv2"
}
layer {
  name: "norm2"
  type: "LRN"
  bottom: "conv2"
  top: "norm2"
  lrn_param {
    local_size: 5
    alpha: 0.0001
    beta: 0.75
  }
}
layer {
  name: "pool2"
  type: "Pooling"
  bottom: "norm2"
  top: "pool2"
  pooling_param {
    pool: MAX
    kernel_size: 3
    stride: 2
  }
}
layer {
  name: "conv3"
  type: "Convolution"
  bottom: "pool2"
  top: "conv3"
  param {
    lr_mult: 1
    decay_mult: 1
  }
  param {
    lr_mult: 2
    decay_mult: 0
  }
  convolution_param {
    num_output: 384
    pad: 1
    kernel_size: 3
    weight_filler {
      type: "gaussian"
      std: 0.01
    }
    bias_filler {
      type: "constant"
      value: 0
    }
  }
}
layer {
  name: "relu3"
  type: "ReLU"
  bottom: "conv3"
  top: "conv3"
}
layer {
  name: "conv4"
  type: "Convolution"
  bottom: "conv3"
  top: "conv4"
  param {
    lr_mult: 1
    decay_mult: 1
  }
  param {
    lr_mult: 2
    decay_mult: 0
  }
  convolution_param {
    num_output: 384
    pad: 1
    kernel_size: 3
    group: 2
    weight_filler {
      type: "gaussian"
      std: 0.01
    }
    bias_filler {
      type: "constant"
      value: 0.1
    }
  }
}
layer {
  name: "relu4"
  type: "ReLU"
  bottom: "conv4"
  top: "conv4"
}
layer {
  name: "conv5"
  type: "Convolution"
  bottom: "conv4"
  top: "conv5"
  param {
    lr_mult: 1
    decay_mult: 1
  }
  param {
    lr_mult: 2
    decay_mult: 0
  }
  convolution_param {
    num_output: 256
    pad: 1
    kernel_size: 3
    group: 2
    weight_filler {
      type: "gaussian"
      std: 0.01
    }
    bias_filler {
      type: "constant"
      value: 0.1
    }
  }
}
layer {
  name: "relu5"
  type: "ReLU"
  bottom: "conv5"
  top: "conv5"
}
layer {
  name: "pool5"
  type: "Pooling"
  bottom: "conv5"
  top: "pool5"
  pooling_param {
    pool: MAX
    kernel_size: 3
    stride: 2
  }
}
layer {
  name: "fc6"
  type: "InnerProduct"
  bottom: "pool5"
  top: "fc6"
  param {
    lr_mult: 1
    decay_mult: 1
  }
  param {
    lr_mult: 2
    decay_mult: 0
  }
  inner_product_param {
    num_output: 4096
    weight_filler {
      type: "gaussian"
      std: 0.005
    }
    bias_filler {
      type: "constant"
      value: 0.1
    }
  }
}
layer {
  name: "relu6"
  type: "ReLU"
  bottom: "fc6"
  top: "fc6"
}
layer {
  name: "drop6"
  type: "Dropout"
  bottom: "fc6"
  top: "fc6"
  dropout_param {
    dropout_ratio: 0.5
  }
}
layer {
  name: "fc7"
  type: "InnerProduct"
  bottom: "fc6"
  top: "fc7"
  param {
    lr_mult: 1
    decay_mult: 1
  }
  param {
    lr_mult: 2
    decay_mult: 0
  }
  inner_product_param {
    num_output: 4096
    weight_filler {
      type: "gaussian"
      std: 0.005
    }
    bias_filler {
      type: "constant"
      value: 0.1
    }
  }
}
layer {
  name: "relu7"
  type: "ReLU"
  bottom: "fc7"
  top: "fc7"
}
layer {
  name: "drop7"
  type: "Dropout"
  bottom: "fc7"
  top: "fc7"
  dropout_param {
    dropout_ratio: 0.5
  }
}
layer {
  name: "fc8_plantvillage"
  type: "InnerProduct"
  bottom: "fc7"
  top: "fc8_plantvillage"
  param {
    lr_mult: 1
    decay_mult: 1
  }
  param {
    lr_mult: 2
    decay_mult: 0
  }
  inner_product_param {
    num_output: 38
    weight_filler {
      type: "gaussian"
      std: 0.01
    }
    bias_filler {
      type: "constant"
      value: 0
    }
  }
}
layer {
  name: "prob"
  type: "Softmax"
  bottom: "fc8_plantvillage"
  top: "prob"
  include {
    phase: TEST
  }
}
layer {
  name: "hdf5out"
  type: "HDF5Output"
  bottom: "prob"
  bottom: "label"
  include {
    phase: TEST
  }
  hdf5_output_param {
    file_name: "hdf5_dumps/iter_876.h5"
  }
}
layer {
  name: "loss"
  type: "SoftmaxWithLoss"
  bottom: "fc8_plantvillage"
  bottom: "label"
  top: "loss"
}
layer {
  name: "accuracy"
  type: "Accuracy"
  bottom: "fc8_plantvillage"
  bottom: "label"
  top: "accuracy"
  include {
    phase: TEST
  }
}
I0403 12:37:23.229266 30537 layer_factory.hpp:77] Creating layer data
I0403 12:37:23.229919 30537 net.cpp:91] Creating Layer data
I0403 12:37:23.229954 30537 net.cpp:399] data -> data
I0403 12:37:23.230006 30537 net.cpp:399] data -> label
I0403 12:37:23.230043 30537 data_transformer.cpp:25] Loading mean file from: /home/mohanty/data/final_dataset/lmdb/grayscale-40-60/mean.binaryproto
I0403 12:37:23.232856 30540 db_lmdb.cpp:38] Opened lmdb /home/mohanty/data/final_dataset/lmdb/grayscale-40-60/test_db
I0403 12:37:23.244802 30537 data_layer.cpp:41] output data size: 100,3,227,227
I0403 12:37:23.367337 30537 net.cpp:141] Setting up data
I0403 12:37:23.367447 30537 net.cpp:148] Top shape: 100 3 227 227 (15458700)
I0403 12:37:23.367470 30537 net.cpp:148] Top shape: 100 (100)
I0403 12:37:23.367486 30537 net.cpp:156] Memory required for data: 61835200
I0403 12:37:23.367514 30537 layer_factory.hpp:77] Creating layer label_data_1_split
I0403 12:37:23.367542 30537 net.cpp:91] Creating Layer label_data_1_split
I0403 12:37:23.367560 30537 net.cpp:425] label_data_1_split <- label
I0403 12:37:23.367593 30537 net.cpp:399] label_data_1_split -> label_data_1_split_0
I0403 12:37:23.367619 30537 net.cpp:399] label_data_1_split -> label_data_1_split_1
I0403 12:37:23.367640 30537 net.cpp:399] label_data_1_split -> label_data_1_split_2
I0403 12:37:23.367707 30537 net.cpp:141] Setting up label_data_1_split
I0403 12:37:23.367730 30537 net.cpp:148] Top shape: 100 (100)
I0403 12:37:23.367748 30537 net.cpp:148] Top shape: 100 (100)
I0403 12:37:23.367765 30537 net.cpp:148] Top shape: 100 (100)
I0403 12:37:23.367780 30537 net.cpp:156] Memory required for data: 61836400
I0403 12:37:23.367794 30537 layer_factory.hpp:77] Creating layer conv1
I0403 12:37:23.367826 30537 net.cpp:91] Creating Layer conv1
I0403 12:37:23.367846 30537 net.cpp:425] conv1 <- data
I0403 12:37:23.367866 30537 net.cpp:399] conv1 -> conv1
I0403 12:37:23.514535 30537 net.cpp:141] Setting up conv1
I0403 12:37:23.514636 30537 net.cpp:148] Top shape: 100 96 55 55 (29040000)
I0403 12:37:23.514654 30537 net.cpp:156] Memory required for data: 177996400
I0403 12:37:23.514685 30537 layer_factory.hpp:77] Creating layer relu1
I0403 12:37:23.514713 30537 net.cpp:91] Creating Layer relu1
I0403 12:37:23.514731 30537 net.cpp:425] relu1 <- conv1
I0403 12:37:23.514750 30537 net.cpp:386] relu1 -> conv1 (in-place)
I0403 12:37:23.515009 30537 net.cpp:141] Setting up relu1
I0403 12:37:23.515036 30537 net.cpp:148] Top shape: 100 96 55 55 (29040000)
I0403 12:37:23.515084 30537 net.cpp:156] Memory required for data: 294156400
I0403 12:37:23.515100 30537 layer_factory.hpp:77] Creating layer norm1
I0403 12:37:23.515127 30537 net.cpp:91] Creating Layer norm1
I0403 12:37:23.515146 30537 net.cpp:425] norm1 <- conv1
I0403 12:37:23.515164 30537 net.cpp:399] norm1 -> norm1
I0403 12:37:23.515497 30537 net.cpp:141] Setting up norm1
I0403 12:37:23.515525 30537 net.cpp:148] Top shape: 100 96 55 55 (29040000)
I0403 12:37:23.515542 30537 net.cpp:156] Memory required for data: 410316400
I0403 12:37:23.515558 30537 layer_factory.hpp:77] Creating layer pool1
I0403 12:37:23.515580 30537 net.cpp:91] Creating Layer pool1
I0403 12:37:23.515597 30537 net.cpp:425] pool1 <- norm1
I0403 12:37:23.515616 30537 net.cpp:399] pool1 -> pool1
I0403 12:37:23.515682 30537 net.cpp:141] Setting up pool1
I0403 12:37:23.515707 30537 net.cpp:148] Top shape: 100 96 27 27 (6998400)
I0403 12:37:23.515722 30537 net.cpp:156] Memory required for data: 438310000
I0403 12:37:23.515736 30537 layer_factory.hpp:77] Creating layer conv2
I0403 12:37:23.515761 30537 net.cpp:91] Creating Layer conv2
I0403 12:37:23.515790 30537 net.cpp:425] conv2 <- pool1
I0403 12:37:23.515810 30537 net.cpp:399] conv2 -> conv2
I0403 12:37:23.531486 30537 net.cpp:141] Setting up conv2
I0403 12:37:23.531546 30537 net.cpp:148] Top shape: 100 256 27 27 (18662400)
I0403 12:37:23.531564 30537 net.cpp:156] Memory required for data: 512959600
I0403 12:37:23.531587 30537 layer_factory.hpp:77] Creating layer relu2
I0403 12:37:23.531623 30537 net.cpp:91] Creating Layer relu2
I0403 12:37:23.531641 30537 net.cpp:425] relu2 <- conv2
I0403 12:37:23.531661 30537 net.cpp:386] relu2 -> conv2 (in-place)
I0403 12:37:23.531971 30537 net.cpp:141] Setting up relu2
I0403 12:37:23.531999 30537 net.cpp:148] Top shape: 100 256 27 27 (18662400)
I0403 12:37:23.532016 30537 net.cpp:156] Memory required for data: 587609200
I0403 12:37:23.532030 30537 layer_factory.hpp:77] Creating layer norm2
I0403 12:37:23.532053 30537 net.cpp:91] Creating Layer norm2
I0403 12:37:23.532070 30537 net.cpp:425] norm2 <- conv2
I0403 12:37:23.532088 30537 net.cpp:399] norm2 -> norm2
I0403 12:37:23.532297 30537 net.cpp:141] Setting up norm2
I0403 12:37:23.532323 30537 net.cpp:148] Top shape: 100 256 27 27 (18662400)
I0403 12:37:23.532338 30537 net.cpp:156] Memory required for data: 662258800
I0403 12:37:23.532353 30537 layer_factory.hpp:77] Creating layer pool2
I0403 12:37:23.532376 30537 net.cpp:91] Creating Layer pool2
I0403 12:37:23.532392 30537 net.cpp:425] pool2 <- norm2
I0403 12:37:23.532410 30537 net.cpp:399] pool2 -> pool2
I0403 12:37:23.532464 30537 net.cpp:141] Setting up pool2
I0403 12:37:23.532487 30537 net.cpp:148] Top shape: 100 256 13 13 (4326400)
I0403 12:37:23.532502 30537 net.cpp:156] Memory required for data: 679564400
I0403 12:37:23.532517 30537 layer_factory.hpp:77] Creating layer conv3
I0403 12:37:23.532541 30537 net.cpp:91] Creating Layer conv3
I0403 12:37:23.532558 30537 net.cpp:425] conv3 <- pool2
I0403 12:37:23.532579 30537 net.cpp:399] conv3 -> conv3
I0403 12:37:23.572979 30537 net.cpp:141] Setting up conv3
I0403 12:37:23.573066 30537 net.cpp:148] Top shape: 100 384 13 13 (6489600)
I0403 12:37:23.573087 30537 net.cpp:156] Memory required for data: 705522800
I0403 12:37:23.573113 30537 layer_factory.hpp:77] Creating layer relu3
I0403 12:37:23.573137 30537 net.cpp:91] Creating Layer relu3
I0403 12:37:23.573156 30537 net.cpp:425] relu3 <- conv3
I0403 12:37:23.573176 30537 net.cpp:386] relu3 -> conv3 (in-place)
I0403 12:37:23.573482 30537 net.cpp:141] Setting up relu3
I0403 12:37:23.573513 30537 net.cpp:148] Top shape: 100 384 13 13 (6489600)
I0403 12:37:23.573529 30537 net.cpp:156] Memory required for data: 731481200
I0403 12:37:23.573545 30537 layer_factory.hpp:77] Creating layer conv4
I0403 12:37:23.573571 30537 net.cpp:91] Creating Layer conv4
I0403 12:37:23.573590 30537 net.cpp:425] conv4 <- conv3
I0403 12:37:23.573609 30537 net.cpp:399] conv4 -> conv4
I0403 12:37:23.605073 30537 net.cpp:141] Setting up conv4
I0403 12:37:23.605152 30537 net.cpp:148] Top shape: 100 384 13 13 (6489600)
I0403 12:37:23.605204 30537 net.cpp:156] Memory required for data: 757439600
I0403 12:37:23.605227 30537 layer_factory.hpp:77] Creating layer relu4
I0403 12:37:23.605253 30537 net.cpp:91] Creating Layer relu4
I0403 12:37:23.605273 30537 net.cpp:425] relu4 <- conv4
I0403 12:37:23.605293 30537 net.cpp:386] relu4 -> conv4 (in-place)
I0403 12:37:23.605587 30537 net.cpp:141] Setting up relu4
I0403 12:37:23.605614 30537 net.cpp:148] Top shape: 100 384 13 13 (6489600)
I0403 12:37:23.605630 30537 net.cpp:156] Memory required for data: 783398000
I0403 12:37:23.605645 30537 layer_factory.hpp:77] Creating layer conv5
I0403 12:37:23.605674 30537 net.cpp:91] Creating Layer conv5
I0403 12:37:23.605690 30537 net.cpp:425] conv5 <- conv4
I0403 12:37:23.605712 30537 net.cpp:399] conv5 -> conv5
I0403 12:37:23.627329 30537 net.cpp:141] Setting up conv5
I0403 12:37:23.627395 30537 net.cpp:148] Top shape: 100 256 13 13 (4326400)
I0403 12:37:23.627413 30537 net.cpp:156] Memory required for data: 800703600
I0403 12:37:23.627439 30537 layer_factory.hpp:77] Creating layer relu5
I0403 12:37:23.627466 30537 net.cpp:91] Creating Layer relu5
I0403 12:37:23.627486 30537 net.cpp:425] relu5 <- conv5
I0403 12:37:23.627506 30537 net.cpp:386] relu5 -> conv5 (in-place)
I0403 12:37:23.627799 30537 net.cpp:141] Setting up relu5
I0403 12:37:23.627827 30537 net.cpp:148] Top shape: 100 256 13 13 (4326400)
I0403 12:37:23.627845 30537 net.cpp:156] Memory required for data: 818009200
I0403 12:37:23.627861 30537 layer_factory.hpp:77] Creating layer pool5
I0403 12:37:23.627884 30537 net.cpp:91] Creating Layer pool5
I0403 12:37:23.627900 30537 net.cpp:425] pool5 <- conv5
I0403 12:37:23.627923 30537 net.cpp:399] pool5 -> pool5
I0403 12:37:23.627985 30537 net.cpp:141] Setting up pool5
I0403 12:37:23.628011 30537 net.cpp:148] Top shape: 100 256 6 6 (921600)
I0403 12:37:23.628026 30537 net.cpp:156] Memory required for data: 821695600
I0403 12:37:23.628042 30537 layer_factory.hpp:77] Creating layer fc6
I0403 12:37:23.628072 30537 net.cpp:91] Creating Layer fc6
I0403 12:37:23.628089 30537 net.cpp:425] fc6 <- pool5
I0403 12:37:23.628110 30537 net.cpp:399] fc6 -> fc6
I0403 12:37:25.207399 30537 net.cpp:141] Setting up fc6
I0403 12:37:25.207489 30537 net.cpp:148] Top shape: 100 4096 (409600)
I0403 12:37:25.207506 30537 net.cpp:156] Memory required for data: 823334000
I0403 12:37:25.207528 30537 layer_factory.hpp:77] Creating layer relu6
I0403 12:37:25.207552 30537 net.cpp:91] Creating Layer relu6
I0403 12:37:25.207571 30537 net.cpp:425] relu6 <- fc6
I0403 12:37:25.207590 30537 net.cpp:386] relu6 -> fc6 (in-place)
I0403 12:37:25.207815 30537 net.cpp:141] Setting up relu6
I0403 12:37:25.207840 30537 net.cpp:148] Top shape: 100 4096 (409600)
I0403 12:37:25.207855 30537 net.cpp:156] Memory required for data: 824972400
I0403 12:37:25.207870 30537 layer_factory.hpp:77] Creating layer drop6
I0403 12:37:25.207890 30537 net.cpp:91] Creating Layer drop6
I0403 12:37:25.207906 30537 net.cpp:425] drop6 <- fc6
I0403 12:37:25.207923 30537 net.cpp:386] drop6 -> fc6 (in-place)
I0403 12:37:25.207976 30537 net.cpp:141] Setting up drop6
I0403 12:37:25.207999 30537 net.cpp:148] Top shape: 100 4096 (409600)
I0403 12:37:25.208014 30537 net.cpp:156] Memory required for data: 826610800
I0403 12:37:25.208029 30537 layer_factory.hpp:77] Creating layer fc7
I0403 12:37:25.208050 30537 net.cpp:91] Creating Layer fc7
I0403 12:37:25.208066 30537 net.cpp:425] fc7 <- fc6
I0403 12:37:25.208084 30537 net.cpp:399] fc7 -> fc7
I0403 12:37:25.896656 30537 net.cpp:141] Setting up fc7
I0403 12:37:25.896747 30537 net.cpp:148] Top shape: 100 4096 (409600)
I0403 12:37:25.896764 30537 net.cpp:156] Memory required for data: 828249200
I0403 12:37:25.896786 30537 layer_factory.hpp:77] Creating layer relu7
I0403 12:37:25.896807 30537 net.cpp:91] Creating Layer relu7
I0403 12:37:25.896824 30537 net.cpp:425] relu7 <- fc7
I0403 12:37:25.896843 30537 net.cpp:386] relu7 -> fc7 (in-place)
I0403 12:37:25.897265 30537 net.cpp:141] Setting up relu7
I0403 12:37:25.897294 30537 net.cpp:148] Top shape: 100 4096 (409600)
I0403 12:37:25.897341 30537 net.cpp:156] Memory required for data: 829887600
I0403 12:37:25.897356 30537 layer_factory.hpp:77] Creating layer drop7
I0403 12:37:25.897375 30537 net.cpp:91] Creating Layer drop7
I0403 12:37:25.897390 30537 net.cpp:425] drop7 <- fc7
I0403 12:37:25.897408 30537 net.cpp:386] drop7 -> fc7 (in-place)
I0403 12:37:25.897452 30537 net.cpp:141] Setting up drop7
I0403 12:37:25.897475 30537 net.cpp:148] Top shape: 100 4096 (409600)
I0403 12:37:25.897488 30537 net.cpp:156] Memory required for data: 831526000
I0403 12:37:25.897503 30537 layer_factory.hpp:77] Creating layer fc8_plantvillage
I0403 12:37:25.897526 30537 net.cpp:91] Creating Layer fc8_plantvillage
I0403 12:37:25.897541 30537 net.cpp:425] fc8_plantvillage <- fc7
I0403 12:37:25.897558 30537 net.cpp:399] fc8_plantvillage -> fc8_plantvillage
I0403 12:37:25.904319 30537 net.cpp:141] Setting up fc8_plantvillage
I0403 12:37:25.904347 30537 net.cpp:148] Top shape: 100 38 (3800)
I0403 12:37:25.904361 30537 net.cpp:156] Memory required for data: 831541200
I0403 12:37:25.904381 30537 layer_factory.hpp:77] Creating layer fc8_plantvillage_fc8_plantvillage_0_split
I0403 12:37:25.904402 30537 net.cpp:91] Creating Layer fc8_plantvillage_fc8_plantvillage_0_split
I0403 12:37:25.904417 30537 net.cpp:425] fc8_plantvillage_fc8_plantvillage_0_split <- fc8_plantvillage
I0403 12:37:25.904434 30537 net.cpp:399] fc8_plantvillage_fc8_plantvillage_0_split -> fc8_plantvillage_fc8_plantvillage_0_split_0
I0403 12:37:25.904456 30537 net.cpp:399] fc8_plantvillage_fc8_plantvillage_0_split -> fc8_plantvillage_fc8_plantvillage_0_split_1
I0403 12:37:25.904476 30537 net.cpp:399] fc8_plantvillage_fc8_plantvillage_0_split -> fc8_plantvillage_fc8_plantvillage_0_split_2
I0403 12:37:25.904552 30537 net.cpp:141] Setting up fc8_plantvillage_fc8_plantvillage_0_split
I0403 12:37:25.904575 30537 net.cpp:148] Top shape: 100 38 (3800)
I0403 12:37:25.904592 30537 net.cpp:148] Top shape: 100 38 (3800)
I0403 12:37:25.904606 30537 net.cpp:148] Top shape: 100 38 (3800)
I0403 12:37:25.904619 30537 net.cpp:156] Memory required for data: 831586800
I0403 12:37:25.904634 30537 layer_factory.hpp:77] Creating layer prob
I0403 12:37:25.904654 30537 net.cpp:91] Creating Layer prob
I0403 12:37:25.904670 30537 net.cpp:425] prob <- fc8_plantvillage_fc8_plantvillage_0_split_0
I0403 12:37:25.904688 30537 net.cpp:399] prob -> prob
I0403 12:37:25.904912 30537 net.cpp:141] Setting up prob
I0403 12:37:25.904937 30537 net.cpp:148] Top shape: 100 38 (3800)
I0403 12:37:25.904953 30537 net.cpp:156] Memory required for data: 831602000
I0403 12:37:25.904966 30537 layer_factory.hpp:77] Creating layer hdf5out
I0403 12:37:25.904988 30537 net.cpp:91] Creating Layer hdf5out
I0403 12:37:25.905004 30537 net.cpp:425] hdf5out <- prob
I0403 12:37:25.905020 30537 net.cpp:425] hdf5out <- label_data_1_split_0
I0403 12:37:26.080129 30537 net.cpp:141] Setting up hdf5out
…
