…
I0403 12:47:21.392896 30794 net.cpp:313] The NetState phase (1) differed from the phase (0) specified by a rule in layer data
I0403 12:47:21.393200 30794 net.cpp:49] Initializing net from parameters: 
state {
  phase: TEST
}
layer {
  name: "data"
  type: "Data"
  top: "data"
  top: "label"
  include {
    phase: TEST
  }
  transform_param {
    crop_size: 227
    mean_file: "/home/mohanty/data/final_dataset/lmdb/grayscale-40-60/mean.binaryproto"
  }
  data_param {
    source: "/home/mohanty/data/final_dataset/lmdb/grayscale-40-60/test_db"
    batch_size: 100
    backend: LMDB
  }
}
layer {
  name: "conv1"
  type: "Convolution"
  bottom: "data"
  top: "conv1"
  param {
    lr_mult: 1
    decay_mult: 1
  }
  param {
    lr_mult: 2
    decay_mult: 0
  }
  convolution_param {
    num_output: 96
    kernel_size: 11
    stride: 4
    weight_filler {
      type: "gaussian"
      std: 0.01
    }
    bias_filler {
      type: "constant"
      value: 0
    }
  }
}
layer {
  name: "relu1"
  type: "ReLU"
  bottom: "conv1"
  top: "conv1"
}
layer {
  name: "norm1"
  type: "LRN"
  bottom: "conv1"
  top: "norm1"
  lrn_param {
    local_size: 5
    alpha: 0.0001
    beta: 0.75
  }
}
layer {
  name: "pool1"
  type: "Pooling"
  bottom: "norm1"
  top: "pool1"
  pooling_param {
    pool: MAX
    kernel_size: 3
    stride: 2
  }
}
layer {
  name: "conv2"
  type: "Convolution"
  bottom: "pool1"
  top: "conv2"
  param {
    lr_mult: 1
    decay_mult: 1
  }
  param {
    lr_mult: 2
    decay_mult: 0
  }
  convolution_param {
    num_output: 256
    pad: 2
    kernel_size: 5
    group: 2
    weight_filler {
      type: "gaussian"
      std: 0.01
    }
    bias_filler {
      type: "constant"
      value: 0.1
    }
  }
}
layer {
  name: "relu2"
  type: "ReLU"
  bottom: "conv2"
  top: "conv2"
}
layer {
  name: "norm2"
  type: "LRN"
  bottom: "conv2"
  top: "norm2"
  lrn_param {
    local_size: 5
    alpha: 0.0001
    beta: 0.75
  }
}
layer {
  name: "pool2"
  type: "Pooling"
  bottom: "norm2"
  top: "pool2"
  pooling_param {
    pool: MAX
    kernel_size: 3
    stride: 2
  }
}
layer {
  name: "conv3"
  type: "Convolution"
  bottom: "pool2"
  top: "conv3"
  param {
    lr_mult: 1
    decay_mult: 1
  }
  param {
    lr_mult: 2
    decay_mult: 0
  }
  convolution_param {
    num_output: 384
    pad: 1
    kernel_size: 3
    weight_filler {
      type: "gaussian"
      std: 0.01
    }
    bias_filler {
      type: "constant"
      value: 0
    }
  }
}
layer {
  name: "relu3"
  type: "ReLU"
  bottom: "conv3"
  top: "conv3"
}
layer {
  name: "conv4"
  type: "Convolution"
  bottom: "conv3"
  top: "conv4"
  param {
    lr_mult: 1
    decay_mult: 1
  }
  param {
    lr_mult: 2
    decay_mult: 0
  }
  convolution_param {
    num_output: 384
    pad: 1
    kernel_size: 3
    group: 2
    weight_filler {
      type: "gaussian"
      std: 0.01
    }
    bias_filler {
      type: "constant"
      value: 0.1
    }
  }
}
layer {
  name: "relu4"
  type: "ReLU"
  bottom: "conv4"
  top: "conv4"
}
layer {
  name: "conv5"
  type: "Convolution"
  bottom: "conv4"
  top: "conv5"
  param {
    lr_mult: 1
    decay_mult: 1
  }
  param {
    lr_mult: 2
    decay_mult: 0
  }
  convolution_param {
    num_output: 256
    pad: 1
    kernel_size: 3
    group: 2
    weight_filler {
      type: "gaussian"
      std: 0.01
    }
    bias_filler {
      type: "constant"
      value: 0.1
    }
  }
}
layer {
  name: "relu5"
  type: "ReLU"
  bottom: "conv5"
  top: "conv5"
}
layer {
  name: "pool5"
  type: "Pooling"
  bottom: "conv5"
  top: "pool5"
  pooling_param {
    pool: MAX
    kernel_size: 3
    stride: 2
  }
}
layer {
  name: "fc6"
  type: "InnerProduct"
  bottom: "pool5"
  top: "fc6"
  param {
    lr_mult: 1
    decay_mult: 1
  }
  param {
    lr_mult: 2
    decay_mult: 0
  }
  inner_product_param {
    num_output: 4096
    weight_filler {
      type: "gaussian"
      std: 0.005
    }
    bias_filler {
      type: "constant"
      value: 0.1
    }
  }
}
layer {
  name: "relu6"
  type: "ReLU"
  bottom: "fc6"
  top: "fc6"
}
layer {
  name: "drop6"
  type: "Dropout"
  bottom: "fc6"
  top: "fc6"
  dropout_param {
    dropout_ratio: 0.5
  }
}
layer {
  name: "fc7"
  type: "InnerProduct"
  bottom: "fc6"
  top: "fc7"
  param {
    lr_mult: 1
    decay_mult: 1
  }
  param {
    lr_mult: 2
    decay_mult: 0
  }
  inner_product_param {
    num_output: 4096
    weight_filler {
      type: "gaussian"
      std: 0.005
    }
    bias_filler {
      type: "constant"
      value: 0.1
    }
  }
}
layer {
  name: "relu7"
  type: "ReLU"
  bottom: "fc7"
  top: "fc7"
}
layer {
  name: "drop7"
  type: "Dropout"
  bottom: "fc7"
  top: "fc7"
  dropout_param {
    dropout_ratio: 0.5
  }
}
layer {
  name: "fc8_plantvillage"
  type: "InnerProduct"
  bottom: "fc7"
  top: "fc8_plantvillage"
  param {
    lr_mult: 1
    decay_mult: 1
  }
  param {
    lr_mult: 2
    decay_mult: 0
  }
  inner_product_param {
    num_output: 38
    weight_filler {
      type: "gaussian"
      std: 0.01
    }
    bias_filler {
      type: "constant"
      value: 0
    }
  }
}
layer {
  name: "prob"
  type: "Softmax"
  bottom: "fc8_plantvillage"
  top: "prob"
  include {
    phase: TEST
  }
}
layer {
  name: "hdf5out"
  type: "HDF5Output"
  bottom: "prob"
  bottom: "label"
  include {
    phase: TEST
  }
  hdf5_output_param {
    file_name: "hdf5_dumps/iter_2847.h5"
  }
}
layer {
  name: "loss"
  type: "SoftmaxWithLoss"
  bottom: "fc8_plantvillage"
  bottom: "label"
  top: "loss"
}
layer {
  name: "accuracy"
  type: "Accuracy"
  bottom: "fc8_plantvillage"
  bottom: "label"
  top: "accuracy"
  include {
    phase: TEST
  }
}
I0403 12:47:21.393826 30794 layer_factory.hpp:77] Creating layer data
I0403 12:47:21.394476 30794 net.cpp:91] Creating Layer data
I0403 12:47:21.394506 30794 net.cpp:399] data -> data
I0403 12:47:21.394558 30794 net.cpp:399] data -> label
I0403 12:47:21.394596 30794 data_transformer.cpp:25] Loading mean file from: /home/mohanty/data/final_dataset/lmdb/grayscale-40-60/mean.binaryproto
I0403 12:47:21.398263 30797 db_lmdb.cpp:38] Opened lmdb /home/mohanty/data/final_dataset/lmdb/grayscale-40-60/test_db
I0403 12:47:21.408942 30794 data_layer.cpp:41] output data size: 100,3,227,227
I0403 12:47:21.527158 30794 net.cpp:141] Setting up data
I0403 12:47:21.527220 30794 net.cpp:148] Top shape: 100 3 227 227 (15458700)
I0403 12:47:21.527243 30794 net.cpp:148] Top shape: 100 (100)
I0403 12:47:21.527258 30794 net.cpp:156] Memory required for data: 61835200
I0403 12:47:21.527286 30794 layer_factory.hpp:77] Creating layer label_data_1_split
I0403 12:47:21.527310 30794 net.cpp:91] Creating Layer label_data_1_split
I0403 12:47:21.527328 30794 net.cpp:425] label_data_1_split <- label
I0403 12:47:21.527357 30794 net.cpp:399] label_data_1_split -> label_data_1_split_0
I0403 12:47:21.527384 30794 net.cpp:399] label_data_1_split -> label_data_1_split_1
I0403 12:47:21.527405 30794 net.cpp:399] label_data_1_split -> label_data_1_split_2
I0403 12:47:21.527464 30794 net.cpp:141] Setting up label_data_1_split
I0403 12:47:21.527487 30794 net.cpp:148] Top shape: 100 (100)
I0403 12:47:21.527503 30794 net.cpp:148] Top shape: 100 (100)
I0403 12:47:21.527518 30794 net.cpp:148] Top shape: 100 (100)
I0403 12:47:21.527532 30794 net.cpp:156] Memory required for data: 61836400
I0403 12:47:21.527547 30794 layer_factory.hpp:77] Creating layer conv1
I0403 12:47:21.527580 30794 net.cpp:91] Creating Layer conv1
I0403 12:47:21.527596 30794 net.cpp:425] conv1 <- data
I0403 12:47:21.527628 30794 net.cpp:399] conv1 -> conv1
I0403 12:47:21.670197 30794 net.cpp:141] Setting up conv1
I0403 12:47:21.670281 30794 net.cpp:148] Top shape: 100 96 55 55 (29040000)
I0403 12:47:21.670300 30794 net.cpp:156] Memory required for data: 177996400
I0403 12:47:21.670332 30794 layer_factory.hpp:77] Creating layer relu1
I0403 12:47:21.670372 30794 net.cpp:91] Creating Layer relu1
I0403 12:47:21.670393 30794 net.cpp:425] relu1 <- conv1
I0403 12:47:21.670413 30794 net.cpp:386] relu1 -> conv1 (in-place)
I0403 12:47:21.670720 30794 net.cpp:141] Setting up relu1
I0403 12:47:21.670747 30794 net.cpp:148] Top shape: 100 96 55 55 (29040000)
I0403 12:47:21.670794 30794 net.cpp:156] Memory required for data: 294156400
I0403 12:47:21.670810 30794 layer_factory.hpp:77] Creating layer norm1
I0403 12:47:21.670840 30794 net.cpp:91] Creating Layer norm1
I0403 12:47:21.670857 30794 net.cpp:425] norm1 <- conv1
I0403 12:47:21.670877 30794 net.cpp:399] norm1 -> norm1
I0403 12:47:21.671200 30794 net.cpp:141] Setting up norm1
I0403 12:47:21.671231 30794 net.cpp:148] Top shape: 100 96 55 55 (29040000)
I0403 12:47:21.671247 30794 net.cpp:156] Memory required for data: 410316400
I0403 12:47:21.671262 30794 layer_factory.hpp:77] Creating layer pool1
I0403 12:47:21.671285 30794 net.cpp:91] Creating Layer pool1
I0403 12:47:21.671303 30794 net.cpp:425] pool1 <- norm1
I0403 12:47:21.671322 30794 net.cpp:399] pool1 -> pool1
I0403 12:47:21.671393 30794 net.cpp:141] Setting up pool1
I0403 12:47:21.671419 30794 net.cpp:148] Top shape: 100 96 27 27 (6998400)
I0403 12:47:21.671437 30794 net.cpp:156] Memory required for data: 438310000
I0403 12:47:21.671452 30794 layer_factory.hpp:77] Creating layer conv2
I0403 12:47:21.671478 30794 net.cpp:91] Creating Layer conv2
I0403 12:47:21.671495 30794 net.cpp:425] conv2 <- pool1
I0403 12:47:21.671514 30794 net.cpp:399] conv2 -> conv2
I0403 12:47:21.686702 30794 net.cpp:141] Setting up conv2
I0403 12:47:21.686755 30794 net.cpp:148] Top shape: 100 256 27 27 (18662400)
I0403 12:47:21.686771 30794 net.cpp:156] Memory required for data: 512959600
I0403 12:47:21.686795 30794 layer_factory.hpp:77] Creating layer relu2
I0403 12:47:21.686815 30794 net.cpp:91] Creating Layer relu2
I0403 12:47:21.686831 30794 net.cpp:425] relu2 <- conv2
I0403 12:47:21.686854 30794 net.cpp:386] relu2 -> conv2 (in-place)
I0403 12:47:21.687131 30794 net.cpp:141] Setting up relu2
I0403 12:47:21.687242 30794 net.cpp:148] Top shape: 100 256 27 27 (18662400)
I0403 12:47:21.687264 30794 net.cpp:156] Memory required for data: 587609200
I0403 12:47:21.687279 30794 layer_factory.hpp:77] Creating layer norm2
I0403 12:47:21.687304 30794 net.cpp:91] Creating Layer norm2
I0403 12:47:21.687320 30794 net.cpp:425] norm2 <- conv2
I0403 12:47:21.687340 30794 net.cpp:399] norm2 -> norm2
I0403 12:47:21.687551 30794 net.cpp:141] Setting up norm2
I0403 12:47:21.687575 30794 net.cpp:148] Top shape: 100 256 27 27 (18662400)
I0403 12:47:21.687589 30794 net.cpp:156] Memory required for data: 662258800
I0403 12:47:21.687604 30794 layer_factory.hpp:77] Creating layer pool2
I0403 12:47:21.687623 30794 net.cpp:91] Creating Layer pool2
I0403 12:47:21.687638 30794 net.cpp:425] pool2 <- norm2
I0403 12:47:21.687657 30794 net.cpp:399] pool2 -> pool2
I0403 12:47:21.687711 30794 net.cpp:141] Setting up pool2
I0403 12:47:21.687732 30794 net.cpp:148] Top shape: 100 256 13 13 (4326400)
I0403 12:47:21.687747 30794 net.cpp:156] Memory required for data: 679564400
I0403 12:47:21.687762 30794 layer_factory.hpp:77] Creating layer conv3
I0403 12:47:21.687785 30794 net.cpp:91] Creating Layer conv3
I0403 12:47:21.687803 30794 net.cpp:425] conv3 <- pool2
I0403 12:47:21.687820 30794 net.cpp:399] conv3 -> conv3
I0403 12:47:21.727437 30794 net.cpp:141] Setting up conv3
I0403 12:47:21.727520 30794 net.cpp:148] Top shape: 100 384 13 13 (6489600)
I0403 12:47:21.727538 30794 net.cpp:156] Memory required for data: 705522800
I0403 12:47:21.727566 30794 layer_factory.hpp:77] Creating layer relu3
I0403 12:47:21.727587 30794 net.cpp:91] Creating Layer relu3
I0403 12:47:21.727605 30794 net.cpp:425] relu3 <- conv3
I0403 12:47:21.727628 30794 net.cpp:386] relu3 -> conv3 (in-place)
I0403 12:47:21.727901 30794 net.cpp:141] Setting up relu3
I0403 12:47:21.727929 30794 net.cpp:148] Top shape: 100 384 13 13 (6489600)
I0403 12:47:21.727944 30794 net.cpp:156] Memory required for data: 731481200
I0403 12:47:21.727959 30794 layer_factory.hpp:77] Creating layer conv4
I0403 12:47:21.727987 30794 net.cpp:91] Creating Layer conv4
I0403 12:47:21.728004 30794 net.cpp:425] conv4 <- conv3
I0403 12:47:21.728025 30794 net.cpp:399] conv4 -> conv4
I0403 12:47:21.758419 30794 net.cpp:141] Setting up conv4
I0403 12:47:21.758497 30794 net.cpp:148] Top shape: 100 384 13 13 (6489600)
I0403 12:47:21.758546 30794 net.cpp:156] Memory required for data: 757439600
I0403 12:47:21.758569 30794 layer_factory.hpp:77] Creating layer relu4
I0403 12:47:21.758591 30794 net.cpp:91] Creating Layer relu4
I0403 12:47:21.758608 30794 net.cpp:425] relu4 <- conv4
I0403 12:47:21.758631 30794 net.cpp:386] relu4 -> conv4 (in-place)
I0403 12:47:21.758913 30794 net.cpp:141] Setting up relu4
I0403 12:47:21.758941 30794 net.cpp:148] Top shape: 100 384 13 13 (6489600)
I0403 12:47:21.758957 30794 net.cpp:156] Memory required for data: 783398000
I0403 12:47:21.758973 30794 layer_factory.hpp:77] Creating layer conv5
I0403 12:47:21.758999 30794 net.cpp:91] Creating Layer conv5
I0403 12:47:21.759016 30794 net.cpp:425] conv5 <- conv4
I0403 12:47:21.759037 30794 net.cpp:399] conv5 -> conv5
I0403 12:47:21.779953 30794 net.cpp:141] Setting up conv5
I0403 12:47:21.780011 30794 net.cpp:148] Top shape: 100 256 13 13 (4326400)
I0403 12:47:21.780028 30794 net.cpp:156] Memory required for data: 800703600
I0403 12:47:21.780055 30794 layer_factory.hpp:77] Creating layer relu5
I0403 12:47:21.780076 30794 net.cpp:91] Creating Layer relu5
I0403 12:47:21.780092 30794 net.cpp:425] relu5 <- conv5
I0403 12:47:21.780113 30794 net.cpp:386] relu5 -> conv5 (in-place)
I0403 12:47:21.780402 30794 net.cpp:141] Setting up relu5
I0403 12:47:21.780431 30794 net.cpp:148] Top shape: 100 256 13 13 (4326400)
I0403 12:47:21.780446 30794 net.cpp:156] Memory required for data: 818009200
I0403 12:47:21.780462 30794 layer_factory.hpp:77] Creating layer pool5
I0403 12:47:21.780486 30794 net.cpp:91] Creating Layer pool5
I0403 12:47:21.780504 30794 net.cpp:425] pool5 <- conv5
I0403 12:47:21.780524 30794 net.cpp:399] pool5 -> pool5
I0403 12:47:21.780586 30794 net.cpp:141] Setting up pool5
I0403 12:47:21.780609 30794 net.cpp:148] Top shape: 100 256 6 6 (921600)
I0403 12:47:21.780624 30794 net.cpp:156] Memory required for data: 821695600
I0403 12:47:21.780639 30794 layer_factory.hpp:77] Creating layer fc6
I0403 12:47:21.780668 30794 net.cpp:91] Creating Layer fc6
I0403 12:47:21.780683 30794 net.cpp:425] fc6 <- pool5
I0403 12:47:21.780705 30794 net.cpp:399] fc6 -> fc6
I0403 12:47:23.364296 30794 net.cpp:141] Setting up fc6
I0403 12:47:23.364387 30794 net.cpp:148] Top shape: 100 4096 (409600)
I0403 12:47:23.364403 30794 net.cpp:156] Memory required for data: 823334000
I0403 12:47:23.364423 30794 layer_factory.hpp:77] Creating layer relu6
I0403 12:47:23.364449 30794 net.cpp:91] Creating Layer relu6
I0403 12:47:23.364466 30794 net.cpp:425] relu6 <- fc6
I0403 12:47:23.364486 30794 net.cpp:386] relu6 -> fc6 (in-place)
I0403 12:47:23.364711 30794 net.cpp:141] Setting up relu6
I0403 12:47:23.364734 30794 net.cpp:148] Top shape: 100 4096 (409600)
I0403 12:47:23.364749 30794 net.cpp:156] Memory required for data: 824972400
I0403 12:47:23.364764 30794 layer_factory.hpp:77] Creating layer drop6
I0403 12:47:23.364784 30794 net.cpp:91] Creating Layer drop6
I0403 12:47:23.364799 30794 net.cpp:425] drop6 <- fc6
I0403 12:47:23.364819 30794 net.cpp:386] drop6 -> fc6 (in-place)
I0403 12:47:23.364869 30794 net.cpp:141] Setting up drop6
I0403 12:47:23.364893 30794 net.cpp:148] Top shape: 100 4096 (409600)
I0403 12:47:23.364909 30794 net.cpp:156] Memory required for data: 826610800
I0403 12:47:23.364924 30794 layer_factory.hpp:77] Creating layer fc7
I0403 12:47:23.364943 30794 net.cpp:91] Creating Layer fc7
I0403 12:47:23.364959 30794 net.cpp:425] fc7 <- fc6
I0403 12:47:23.364979 30794 net.cpp:399] fc7 -> fc7
I0403 12:47:24.051195 30794 net.cpp:141] Setting up fc7
I0403 12:47:24.051291 30794 net.cpp:148] Top shape: 100 4096 (409600)
I0403 12:47:24.051308 30794 net.cpp:156] Memory required for data: 828249200
I0403 12:47:24.051331 30794 layer_factory.hpp:77] Creating layer relu7
I0403 12:47:24.051354 30794 net.cpp:91] Creating Layer relu7
I0403 12:47:24.051373 30794 net.cpp:425] relu7 <- fc7
I0403 12:47:24.051396 30794 net.cpp:386] relu7 -> fc7 (in-place)
I0403 12:47:24.053642 30794 net.cpp:141] Setting up relu7
I0403 12:47:24.053669 30794 net.cpp:148] Top shape: 100 4096 (409600)
I0403 12:47:24.053719 30794 net.cpp:156] Memory required for data: 829887600
I0403 12:47:24.053747 30794 layer_factory.hpp:77] Creating layer drop7
I0403 12:47:24.053767 30794 net.cpp:91] Creating Layer drop7
I0403 12:47:24.053783 30794 net.cpp:425] drop7 <- fc7
I0403 12:47:24.053803 30794 net.cpp:386] drop7 -> fc7 (in-place)
I0403 12:47:24.053846 30794 net.cpp:141] Setting up drop7
I0403 12:47:24.053867 30794 net.cpp:148] Top shape: 100 4096 (409600)
I0403 12:47:24.053882 30794 net.cpp:156] Memory required for data: 831526000
I0403 12:47:24.053896 30794 layer_factory.hpp:77] Creating layer fc8_plantvillage
I0403 12:47:24.053918 30794 net.cpp:91] Creating Layer fc8_plantvillage
I0403 12:47:24.053936 30794 net.cpp:425] fc8_plantvillage <- fc7
I0403 12:47:24.053956 30794 net.cpp:399] fc8_plantvillage -> fc8_plantvillage
I0403 12:47:24.060726 30794 net.cpp:141] Setting up fc8_plantvillage
I0403 12:47:24.060755 30794 net.cpp:148] Top shape: 100 38 (3800)
I0403 12:47:24.060770 30794 net.cpp:156] Memory required for data: 831541200
I0403 12:47:24.060789 30794 layer_factory.hpp:77] Creating layer fc8_plantvillage_fc8_plantvillage_0_split
I0403 12:47:24.060808 30794 net.cpp:91] Creating Layer fc8_plantvillage_fc8_plantvillage_0_split
I0403 12:47:24.060823 30794 net.cpp:425] fc8_plantvillage_fc8_plantvillage_0_split <- fc8_plantvillage
I0403 12:47:24.060844 30794 net.cpp:399] fc8_plantvillage_fc8_plantvillage_0_split -> fc8_plantvillage_fc8_plantvillage_0_split_0
I0403 12:47:24.060866 30794 net.cpp:399] fc8_plantvillage_fc8_plantvillage_0_split -> fc8_plantvillage_fc8_plantvillage_0_split_1
I0403 12:47:24.060888 30794 net.cpp:399] fc8_plantvillage_fc8_plantvillage_0_split -> fc8_plantvillage_fc8_plantvillage_0_split_2
I0403 12:47:24.060964 30794 net.cpp:141] Setting up fc8_plantvillage_fc8_plantvillage_0_split
I0403 12:47:24.060987 30794 net.cpp:148] Top shape: 100 38 (3800)
I0403 12:47:24.061003 30794 net.cpp:148] Top shape: 100 38 (3800)
I0403 12:47:24.061019 30794 net.cpp:148] Top shape: 100 38 (3800)
I0403 12:47:24.061033 30794 net.cpp:156] Memory required for data: 831586800
I0403 12:47:24.061048 30794 layer_factory.hpp:77] Creating layer prob
I0403 12:47:24.061066 30794 net.cpp:91] Creating Layer prob
I0403 12:47:24.061081 30794 net.cpp:425] prob <- fc8_plantvillage_fc8_plantvillage_0_split_0
I0403 12:47:24.061102 30794 net.cpp:399] prob -> prob
I0403 12:47:24.061331 30794 net.cpp:141] Setting up prob
I0403 12:47:24.061359 30794 net.cpp:148] Top shape: 100 38 (3800)
I0403 12:47:24.061375 30794 net.cpp:156] Memory required for data: 831602000
I0403 12:47:24.061391 30794 layer_factory.hpp:77] Creating layer hdf5out
I0403 12:47:24.061411 30794 net.cpp:91] Creating Layer hdf5out
I0403 12:47:24.061426 30794 net.cpp:425] hdf5out <- prob
I0403 12:47:24.061442 30794 net.cpp:425] hdf5out <- label_data_1_split_0
I0403 12:47:24.063833 30794 net.cpp:141] Setting up hdf5out
…
