…
I0403 12:33:59.606058 30434 net.cpp:313] The NetState phase (1) differed from the phase (0) specified by a rule in layer data
I0403 12:33:59.606778 30434 net.cpp:49] Initializing net from parameters: 
state {
  phase: TEST
}
layer {
  name: "data"
  type: "Data"
  top: "data"
  top: "label"
  include {
    phase: TEST
  }
  transform_param {
    crop_size: 227
    mean_file: "/home/mohanty/data/final_dataset/lmdb/grayscale-40-60/mean.binaryproto"
  }
  data_param {
    source: "/home/mohanty/data/final_dataset/lmdb/grayscale-40-60/test_db"
    batch_size: 100
    backend: LMDB
  }
}
layer {
  name: "conv1"
  type: "Convolution"
  bottom: "data"
  top: "conv1"
  param {
    lr_mult: 1
    decay_mult: 1
  }
  param {
    lr_mult: 2
    decay_mult: 0
  }
  convolution_param {
    num_output: 96
    kernel_size: 11
    stride: 4
    weight_filler {
      type: "gaussian"
      std: 0.01
    }
    bias_filler {
      type: "constant"
      value: 0
    }
  }
}
layer {
  name: "relu1"
  type: "ReLU"
  bottom: "conv1"
  top: "conv1"
}
layer {
  name: "norm1"
  type: "LRN"
  bottom: "conv1"
  top: "norm1"
  lrn_param {
    local_size: 5
    alpha: 0.0001
    beta: 0.75
  }
}
layer {
  name: "pool1"
  type: "Pooling"
  bottom: "norm1"
  top: "pool1"
  pooling_param {
    pool: MAX
    kernel_size: 3
    stride: 2
  }
}
layer {
  name: "conv2"
  type: "Convolution"
  bottom: "pool1"
  top: "conv2"
  param {
    lr_mult: 1
    decay_mult: 1
  }
  param {
    lr_mult: 2
    decay_mult: 0
  }
  convolution_param {
    num_output: 256
    pad: 2
    kernel_size: 5
    group: 2
    weight_filler {
      type: "gaussian"
      std: 0.01
    }
    bias_filler {
      type: "constant"
      value: 0.1
    }
  }
}
layer {
  name: "relu2"
  type: "ReLU"
  bottom: "conv2"
  top: "conv2"
}
layer {
  name: "norm2"
  type: "LRN"
  bottom: "conv2"
  top: "norm2"
  lrn_param {
    local_size: 5
    alpha: 0.0001
    beta: 0.75
  }
}
layer {
  name: "pool2"
  type: "Pooling"
  bottom: "norm2"
  top: "pool2"
  pooling_param {
    pool: MAX
    kernel_size: 3
    stride: 2
  }
}
layer {
  name: "conv3"
  type: "Convolution"
  bottom: "pool2"
  top: "conv3"
  param {
    lr_mult: 1
    decay_mult: 1
  }
  param {
    lr_mult: 2
    decay_mult: 0
  }
  convolution_param {
    num_output: 384
    pad: 1
    kernel_size: 3
    weight_filler {
      type: "gaussian"
      std: 0.01
    }
    bias_filler {
      type: "constant"
      value: 0
    }
  }
}
layer {
  name: "relu3"
  type: "ReLU"
  bottom: "conv3"
  top: "conv3"
}
layer {
  name: "conv4"
  type: "Convolution"
  bottom: "conv3"
  top: "conv4"
  param {
    lr_mult: 1
    decay_mult: 1
  }
  param {
    lr_mult: 2
    decay_mult: 0
  }
  convolution_param {
    num_output: 384
    pad: 1
    kernel_size: 3
    group: 2
    weight_filler {
      type: "gaussian"
      std: 0.01
    }
    bias_filler {
      type: "constant"
      value: 0.1
    }
  }
}
layer {
  name: "relu4"
  type: "ReLU"
  bottom: "conv4"
  top: "conv4"
}
layer {
  name: "conv5"
  type: "Convolution"
  bottom: "conv4"
  top: "conv5"
  param {
    lr_mult: 1
    decay_mult: 1
  }
  param {
    lr_mult: 2
    decay_mult: 0
  }
  convolution_param {
    num_output: 256
    pad: 1
    kernel_size: 3
    group: 2
    weight_filler {
      type: "gaussian"
      std: 0.01
    }
    bias_filler {
      type: "constant"
      value: 0.1
    }
  }
}
layer {
  name: "relu5"
  type: "ReLU"
  bottom: "conv5"
  top: "conv5"
}
layer {
  name: "pool5"
  type: "Pooling"
  bottom: "conv5"
  top: "pool5"
  pooling_param {
    pool: MAX
    kernel_size: 3
    stride: 2
  }
}
layer {
  name: "fc6"
  type: "InnerProduct"
  bottom: "pool5"
  top: "fc6"
  param {
    lr_mult: 1
    decay_mult: 1
  }
  param {
    lr_mult: 2
    decay_mult: 0
  }
  inner_product_param {
    num_output: 4096
    weight_filler {
      type: "gaussian"
      std: 0.005
    }
    bias_filler {
      type: "constant"
      value: 0.1
    }
  }
}
layer {
  name: "relu6"
  type: "ReLU"
  bottom: "fc6"
  top: "fc6"
}
layer {
  name: "drop6"
  type: "Dropout"
  bottom: "fc6"
  top: "fc6"
  dropout_param {
    dropout_ratio: 0.5
  }
}
layer {
  name: "fc7"
  type: "InnerProduct"
  bottom: "fc6"
  top: "fc7"
  param {
    lr_mult: 1
    decay_mult: 1
  }
  param {
    lr_mult: 2
    decay_mult: 0
  }
  inner_product_param {
    num_output: 4096
    weight_filler {
      type: "gaussian"
      std: 0.005
    }
    bias_filler {
      type: "constant"
      value: 0.1
    }
  }
}
layer {
  name: "relu7"
  type: "ReLU"
  bottom: "fc7"
  top: "fc7"
}
layer {
  name: "drop7"
  type: "Dropout"
  bottom: "fc7"
  top: "fc7"
  dropout_param {
    dropout_ratio: 0.5
  }
}
layer {
  name: "fc8_plantvillage"
  type: "InnerProduct"
  bottom: "fc7"
  top: "fc8_plantvillage"
  param {
    lr_mult: 1
    decay_mult: 1
  }
  param {
    lr_mult: 2
    decay_mult: 0
  }
  inner_product_param {
    num_output: 38
    weight_filler {
      type: "gaussian"
      std: 0.01
    }
    bias_filler {
      type: "constant"
      value: 0
    }
  }
}
layer {
  name: "prob"
  type: "Softmax"
  bottom: "fc8_plantvillage"
  top: "prob"
  include {
    phase: TEST
  }
}
layer {
  name: "hdf5out"
  type: "HDF5Output"
  bottom: "prob"
  bottom: "label"
  include {
    phase: TEST
  }
  hdf5_output_param {
    file_name: "hdf5_dumps/iter_219.h5"
  }
}
layer {
  name: "loss"
  type: "SoftmaxWithLoss"
  bottom: "fc8_plantvillage"
  bottom: "label"
  top: "loss"
}
layer {
  name: "accuracy"
  type: "Accuracy"
  bottom: "fc8_plantvillage"
  bottom: "label"
  top: "accuracy"
  include {
    phase: TEST
  }
}
I0403 12:33:59.608218 30434 layer_factory.hpp:77] Creating layer data
I0403 12:33:59.610146 30434 net.cpp:91] Creating Layer data
I0403 12:33:59.610219 30434 net.cpp:399] data -> data
I0403 12:33:59.610512 30434 net.cpp:399] data -> label
I0403 12:33:59.610715 30434 data_transformer.cpp:25] Loading mean file from: /home/mohanty/data/final_dataset/lmdb/grayscale-40-60/mean.binaryproto
I0403 12:33:59.666908 30438 db_lmdb.cpp:38] Opened lmdb /home/mohanty/data/final_dataset/lmdb/grayscale-40-60/test_db
I0403 12:33:59.685142 30434 data_layer.cpp:41] output data size: 100,3,227,227
I0403 12:33:59.922401 30434 net.cpp:141] Setting up data
I0403 12:33:59.922497 30434 net.cpp:148] Top shape: 100 3 227 227 (15458700)
I0403 12:33:59.922524 30434 net.cpp:148] Top shape: 100 (100)
I0403 12:33:59.922544 30434 net.cpp:156] Memory required for data: 61835200
I0403 12:33:59.922576 30434 layer_factory.hpp:77] Creating layer label_data_1_split
I0403 12:33:59.922607 30434 net.cpp:91] Creating Layer label_data_1_split
I0403 12:33:59.922628 30434 net.cpp:425] label_data_1_split <- label
I0403 12:33:59.922667 30434 net.cpp:399] label_data_1_split -> label_data_1_split_0
I0403 12:33:59.922699 30434 net.cpp:399] label_data_1_split -> label_data_1_split_1
I0403 12:33:59.922726 30434 net.cpp:399] label_data_1_split -> label_data_1_split_2
I0403 12:33:59.922814 30434 net.cpp:141] Setting up label_data_1_split
I0403 12:33:59.922843 30434 net.cpp:148] Top shape: 100 (100)
I0403 12:33:59.922864 30434 net.cpp:148] Top shape: 100 (100)
I0403 12:33:59.922884 30434 net.cpp:148] Top shape: 100 (100)
I0403 12:33:59.922901 30434 net.cpp:156] Memory required for data: 61836400
I0403 12:33:59.922920 30434 layer_factory.hpp:77] Creating layer conv1
I0403 12:33:59.922957 30434 net.cpp:91] Creating Layer conv1
I0403 12:33:59.922978 30434 net.cpp:425] conv1 <- data
I0403 12:33:59.923002 30434 net.cpp:399] conv1 -> conv1
I0403 12:34:00.276775 30434 net.cpp:141] Setting up conv1
I0403 12:34:00.276830 30434 net.cpp:148] Top shape: 100 96 55 55 (29040000)
I0403 12:34:00.276852 30434 net.cpp:156] Memory required for data: 177996400
I0403 12:34:00.276890 30434 layer_factory.hpp:77] Creating layer relu1
I0403 12:34:00.276921 30434 net.cpp:91] Creating Layer relu1
I0403 12:34:00.276943 30434 net.cpp:425] relu1 <- conv1
I0403 12:34:00.276965 30434 net.cpp:386] relu1 -> conv1 (in-place)
I0403 12:34:00.277397 30434 net.cpp:141] Setting up relu1
I0403 12:34:00.277431 30434 net.cpp:148] Top shape: 100 96 55 55 (29040000)
I0403 12:34:00.277487 30434 net.cpp:156] Memory required for data: 294156400
I0403 12:34:00.277508 30434 layer_factory.hpp:77] Creating layer norm1
I0403 12:34:00.277539 30434 net.cpp:91] Creating Layer norm1
I0403 12:34:00.277561 30434 net.cpp:425] norm1 <- conv1
I0403 12:34:00.277586 30434 net.cpp:399] norm1 -> norm1
I0403 12:34:00.277981 30434 net.cpp:141] Setting up norm1
I0403 12:34:00.278014 30434 net.cpp:148] Top shape: 100 96 55 55 (29040000)
I0403 12:34:00.278033 30434 net.cpp:156] Memory required for data: 410316400
I0403 12:34:00.278053 30434 layer_factory.hpp:77] Creating layer pool1
I0403 12:34:00.278079 30434 net.cpp:91] Creating Layer pool1
I0403 12:34:00.278100 30434 net.cpp:425] pool1 <- norm1
I0403 12:34:00.278126 30434 net.cpp:399] pool1 -> pool1
I0403 12:34:00.278214 30434 net.cpp:141] Setting up pool1
I0403 12:34:00.278245 30434 net.cpp:148] Top shape: 100 96 27 27 (6998400)
I0403 12:34:00.278264 30434 net.cpp:156] Memory required for data: 438310000
I0403 12:34:00.278281 30434 layer_factory.hpp:77] Creating layer conv2
I0403 12:34:00.278314 30434 net.cpp:91] Creating Layer conv2
I0403 12:34:00.278336 30434 net.cpp:425] conv2 <- pool1
I0403 12:34:00.278357 30434 net.cpp:399] conv2 -> conv2
I0403 12:34:00.297101 30434 net.cpp:141] Setting up conv2
I0403 12:34:00.297168 30434 net.cpp:148] Top shape: 100 256 27 27 (18662400)
I0403 12:34:00.297190 30434 net.cpp:156] Memory required for data: 512959600
I0403 12:34:00.297224 30434 layer_factory.hpp:77] Creating layer relu2
I0403 12:34:00.297251 30434 net.cpp:91] Creating Layer relu2
I0403 12:34:00.297399 30434 net.cpp:425] relu2 <- conv2
I0403 12:34:00.297431 30434 net.cpp:386] relu2 -> conv2 (in-place)
I0403 12:34:00.297770 30434 net.cpp:141] Setting up relu2
I0403 12:34:00.297803 30434 net.cpp:148] Top shape: 100 256 27 27 (18662400)
I0403 12:34:00.297822 30434 net.cpp:156] Memory required for data: 587609200
I0403 12:34:00.297842 30434 layer_factory.hpp:77] Creating layer norm2
I0403 12:34:00.297870 30434 net.cpp:91] Creating Layer norm2
I0403 12:34:00.297893 30434 net.cpp:425] norm2 <- conv2
I0403 12:34:00.297915 30434 net.cpp:399] norm2 -> norm2
I0403 12:34:00.298154 30434 net.cpp:141] Setting up norm2
I0403 12:34:00.298187 30434 net.cpp:148] Top shape: 100 256 27 27 (18662400)
I0403 12:34:00.298207 30434 net.cpp:156] Memory required for data: 662258800
I0403 12:34:00.298231 30434 layer_factory.hpp:77] Creating layer pool2
I0403 12:34:00.298255 30434 net.cpp:91] Creating Layer pool2
I0403 12:34:00.298274 30434 net.cpp:425] pool2 <- norm2
I0403 12:34:00.298298 30434 net.cpp:399] pool2 -> pool2
I0403 12:34:00.298363 30434 net.cpp:141] Setting up pool2
I0403 12:34:00.298391 30434 net.cpp:148] Top shape: 100 256 13 13 (4326400)
I0403 12:34:00.298409 30434 net.cpp:156] Memory required for data: 679564400
I0403 12:34:00.298429 30434 layer_factory.hpp:77] Creating layer conv3
I0403 12:34:00.298457 30434 net.cpp:91] Creating Layer conv3
I0403 12:34:00.298478 30434 net.cpp:425] conv3 <- pool2
I0403 12:34:00.298503 30434 net.cpp:399] conv3 -> conv3
I0403 12:34:00.346405 30434 net.cpp:141] Setting up conv3
I0403 12:34:00.346506 30434 net.cpp:148] Top shape: 100 384 13 13 (6489600)
I0403 12:34:00.346526 30434 net.cpp:156] Memory required for data: 705522800
I0403 12:34:00.346557 30434 layer_factory.hpp:77] Creating layer relu3
I0403 12:34:00.346585 30434 net.cpp:91] Creating Layer relu3
I0403 12:34:00.346606 30434 net.cpp:425] relu3 <- conv3
I0403 12:34:00.346632 30434 net.cpp:386] relu3 -> conv3 (in-place)
I0403 12:34:00.346966 30434 net.cpp:141] Setting up relu3
I0403 12:34:00.346997 30434 net.cpp:148] Top shape: 100 384 13 13 (6489600)
I0403 12:34:00.347015 30434 net.cpp:156] Memory required for data: 731481200
I0403 12:34:00.347034 30434 layer_factory.hpp:77] Creating layer conv4
I0403 12:34:00.347065 30434 net.cpp:91] Creating Layer conv4
I0403 12:34:00.347086 30434 net.cpp:425] conv4 <- conv3
I0403 12:34:00.347111 30434 net.cpp:399] conv4 -> conv4
I0403 12:34:00.384719 30434 net.cpp:141] Setting up conv4
I0403 12:34:00.384799 30434 net.cpp:148] Top shape: 100 384 13 13 (6489600)
I0403 12:34:00.384878 30434 net.cpp:156] Memory required for data: 757439600
I0403 12:34:00.384907 30434 layer_factory.hpp:77] Creating layer relu4
I0403 12:34:00.384933 30434 net.cpp:91] Creating Layer relu4
I0403 12:34:00.384955 30434 net.cpp:425] relu4 <- conv4
I0403 12:34:00.384979 30434 net.cpp:386] relu4 -> conv4 (in-place)
I0403 12:34:00.385318 30434 net.cpp:141] Setting up relu4
I0403 12:34:00.385352 30434 net.cpp:148] Top shape: 100 384 13 13 (6489600)
I0403 12:34:00.385372 30434 net.cpp:156] Memory required for data: 783398000
I0403 12:34:00.385390 30434 layer_factory.hpp:77] Creating layer conv5
I0403 12:34:00.385422 30434 net.cpp:91] Creating Layer conv5
I0403 12:34:00.385444 30434 net.cpp:425] conv5 <- conv4
I0403 12:34:00.385468 30434 net.cpp:399] conv5 -> conv5
I0403 12:34:00.411530 30434 net.cpp:141] Setting up conv5
I0403 12:34:00.411609 30434 net.cpp:148] Top shape: 100 256 13 13 (4326400)
I0403 12:34:00.411630 30434 net.cpp:156] Memory required for data: 800703600
I0403 12:34:00.411662 30434 layer_factory.hpp:77] Creating layer relu5
I0403 12:34:00.411690 30434 net.cpp:91] Creating Layer relu5
I0403 12:34:00.411711 30434 net.cpp:425] relu5 <- conv5
I0403 12:34:00.411737 30434 net.cpp:386] relu5 -> conv5 (in-place)
I0403 12:34:00.412068 30434 net.cpp:141] Setting up relu5
I0403 12:34:00.412101 30434 net.cpp:148] Top shape: 100 256 13 13 (4326400)
I0403 12:34:00.412120 30434 net.cpp:156] Memory required for data: 818009200
I0403 12:34:00.412138 30434 layer_factory.hpp:77] Creating layer pool5
I0403 12:34:00.412166 30434 net.cpp:91] Creating Layer pool5
I0403 12:34:00.412189 30434 net.cpp:425] pool5 <- conv5
I0403 12:34:00.412215 30434 net.cpp:399] pool5 -> pool5
I0403 12:34:00.412292 30434 net.cpp:141] Setting up pool5
I0403 12:34:00.412319 30434 net.cpp:148] Top shape: 100 256 6 6 (921600)
I0403 12:34:00.412338 30434 net.cpp:156] Memory required for data: 821695600
I0403 12:34:00.412355 30434 layer_factory.hpp:77] Creating layer fc6
I0403 12:34:00.412387 30434 net.cpp:91] Creating Layer fc6
I0403 12:34:00.412410 30434 net.cpp:425] fc6 <- pool5
I0403 12:34:00.412434 30434 net.cpp:399] fc6 -> fc6
I0403 12:34:02.105453 30434 net.cpp:141] Setting up fc6
I0403 12:34:02.105550 30434 net.cpp:148] Top shape: 100 4096 (409600)
I0403 12:34:02.105566 30434 net.cpp:156] Memory required for data: 823334000
I0403 12:34:02.105588 30434 layer_factory.hpp:77] Creating layer relu6
I0403 12:34:02.105609 30434 net.cpp:91] Creating Layer relu6
I0403 12:34:02.105626 30434 net.cpp:425] relu6 <- fc6
I0403 12:34:02.105645 30434 net.cpp:386] relu6 -> fc6 (in-place)
I0403 12:34:02.105865 30434 net.cpp:141] Setting up relu6
I0403 12:34:02.105891 30434 net.cpp:148] Top shape: 100 4096 (409600)
I0403 12:34:02.105906 30434 net.cpp:156] Memory required for data: 824972400
I0403 12:34:02.105921 30434 layer_factory.hpp:77] Creating layer drop6
I0403 12:34:02.105938 30434 net.cpp:91] Creating Layer drop6
I0403 12:34:02.105953 30434 net.cpp:425] drop6 <- fc6
I0403 12:34:02.105973 30434 net.cpp:386] drop6 -> fc6 (in-place)
I0403 12:34:02.106024 30434 net.cpp:141] Setting up drop6
I0403 12:34:02.106046 30434 net.cpp:148] Top shape: 100 4096 (409600)
I0403 12:34:02.106060 30434 net.cpp:156] Memory required for data: 826610800
I0403 12:34:02.106075 30434 layer_factory.hpp:77] Creating layer fc7
I0403 12:34:02.106096 30434 net.cpp:91] Creating Layer fc7
I0403 12:34:02.106112 30434 net.cpp:425] fc7 <- fc6
I0403 12:34:02.106132 30434 net.cpp:399] fc7 -> fc7
I0403 12:34:02.822584 30434 net.cpp:141] Setting up fc7
I0403 12:34:02.822659 30434 net.cpp:148] Top shape: 100 4096 (409600)
I0403 12:34:02.822676 30434 net.cpp:156] Memory required for data: 828249200
I0403 12:34:02.822700 30434 layer_factory.hpp:77] Creating layer relu7
I0403 12:34:02.822726 30434 net.cpp:91] Creating Layer relu7
I0403 12:34:02.822746 30434 net.cpp:425] relu7 <- fc7
I0403 12:34:02.822767 30434 net.cpp:386] relu7 -> fc7 (in-place)
I0403 12:34:02.823218 30434 net.cpp:141] Setting up relu7
I0403 12:34:02.823247 30434 net.cpp:148] Top shape: 100 4096 (409600)
I0403 12:34:02.823293 30434 net.cpp:156] Memory required for data: 829887600
I0403 12:34:02.823312 30434 layer_factory.hpp:77] Creating layer drop7
I0403 12:34:02.823333 30434 net.cpp:91] Creating Layer drop7
I0403 12:34:02.823348 30434 net.cpp:425] drop7 <- fc7
I0403 12:34:02.823369 30434 net.cpp:386] drop7 -> fc7 (in-place)
I0403 12:34:02.823415 30434 net.cpp:141] Setting up drop7
I0403 12:34:02.823439 30434 net.cpp:148] Top shape: 100 4096 (409600)
I0403 12:34:02.823457 30434 net.cpp:156] Memory required for data: 831526000
I0403 12:34:02.823473 30434 layer_factory.hpp:77] Creating layer fc8_plantvillage
I0403 12:34:02.823498 30434 net.cpp:91] Creating Layer fc8_plantvillage
I0403 12:34:02.823514 30434 net.cpp:425] fc8_plantvillage <- fc7
I0403 12:34:02.823539 30434 net.cpp:399] fc8_plantvillage -> fc8_plantvillage
I0403 12:34:02.831084 30434 net.cpp:141] Setting up fc8_plantvillage
I0403 12:34:02.831133 30434 net.cpp:148] Top shape: 100 38 (3800)
I0403 12:34:02.831151 30434 net.cpp:156] Memory required for data: 831541200
I0403 12:34:02.831173 30434 layer_factory.hpp:77] Creating layer fc8_plantvillage_fc8_plantvillage_0_split
I0403 12:34:02.831195 30434 net.cpp:91] Creating Layer fc8_plantvillage_fc8_plantvillage_0_split
I0403 12:34:02.831219 30434 net.cpp:425] fc8_plantvillage_fc8_plantvillage_0_split <- fc8_plantvillage
I0403 12:34:02.831243 30434 net.cpp:399] fc8_plantvillage_fc8_plantvillage_0_split -> fc8_plantvillage_fc8_plantvillage_0_split_0
I0403 12:34:02.831269 30434 net.cpp:399] fc8_plantvillage_fc8_plantvillage_0_split -> fc8_plantvillage_fc8_plantvillage_0_split_1
I0403 12:34:02.831293 30434 net.cpp:399] fc8_plantvillage_fc8_plantvillage_0_split -> fc8_plantvillage_fc8_plantvillage_0_split_2
I0403 12:34:02.831377 30434 net.cpp:141] Setting up fc8_plantvillage_fc8_plantvillage_0_split
I0403 12:34:02.831405 30434 net.cpp:148] Top shape: 100 38 (3800)
I0403 12:34:02.831424 30434 net.cpp:148] Top shape: 100 38 (3800)
I0403 12:34:02.831444 30434 net.cpp:148] Top shape: 100 38 (3800)
I0403 12:34:02.831460 30434 net.cpp:156] Memory required for data: 831586800
I0403 12:34:02.831476 30434 layer_factory.hpp:77] Creating layer prob
I0403 12:34:02.831496 30434 net.cpp:91] Creating Layer prob
I0403 12:34:02.831513 30434 net.cpp:425] prob <- fc8_plantvillage_fc8_plantvillage_0_split_0
I0403 12:34:02.831533 30434 net.cpp:399] prob -> prob
I0403 12:34:02.831809 30434 net.cpp:141] Setting up prob
I0403 12:34:02.831838 30434 net.cpp:148] Top shape: 100 38 (3800)
I0403 12:34:02.831856 30434 net.cpp:156] Memory required for data: 831602000
I0403 12:34:02.831872 30434 layer_factory.hpp:77] Creating layer hdf5out
I0403 12:34:02.831893 30434 net.cpp:91] Creating Layer hdf5out
I0403 12:34:02.831912 30434 net.cpp:425] hdf5out <- prob
I0403 12:34:02.831933 30434 net.cpp:425] hdf5out <- label_data_1_split_0
I0403 12:34:02.842712 30434 net.cpp:141] Setting up hdf5out
…
