…
I0403 12:51:47.790348 30910 net.cpp:313] The NetState phase (1) differed from the phase (0) specified by a rule in layer data
I0403 12:51:47.790664 30910 net.cpp:49] Initializing net from parameters: 
state {
  phase: TEST
}
layer {
  name: "data"
  type: "Data"
  top: "data"
  top: "label"
  include {
    phase: TEST
  }
  transform_param {
    crop_size: 227
    mean_file: "/home/mohanty/data/final_dataset/lmdb/grayscale-40-60/mean.binaryproto"
  }
  data_param {
    source: "/home/mohanty/data/final_dataset/lmdb/grayscale-40-60/test_db"
    batch_size: 100
    backend: LMDB
  }
}
layer {
  name: "conv1"
  type: "Convolution"
  bottom: "data"
  top: "conv1"
  param {
    lr_mult: 1
    decay_mult: 1
  }
  param {
    lr_mult: 2
    decay_mult: 0
  }
  convolution_param {
    num_output: 96
    kernel_size: 11
    stride: 4
    weight_filler {
      type: "gaussian"
      std: 0.01
    }
    bias_filler {
      type: "constant"
      value: 0
    }
  }
}
layer {
  name: "relu1"
  type: "ReLU"
  bottom: "conv1"
  top: "conv1"
}
layer {
  name: "norm1"
  type: "LRN"
  bottom: "conv1"
  top: "norm1"
  lrn_param {
    local_size: 5
    alpha: 0.0001
    beta: 0.75
  }
}
layer {
  name: "pool1"
  type: "Pooling"
  bottom: "norm1"
  top: "pool1"
  pooling_param {
    pool: MAX
    kernel_size: 3
    stride: 2
  }
}
layer {
  name: "conv2"
  type: "Convolution"
  bottom: "pool1"
  top: "conv2"
  param {
    lr_mult: 1
    decay_mult: 1
  }
  param {
    lr_mult: 2
    decay_mult: 0
  }
  convolution_param {
    num_output: 256
    pad: 2
    kernel_size: 5
    group: 2
    weight_filler {
      type: "gaussian"
      std: 0.01
    }
    bias_filler {
      type: "constant"
      value: 0.1
    }
  }
}
layer {
  name: "relu2"
  type: "ReLU"
  bottom: "conv2"
  top: "conv2"
}
layer {
  name: "norm2"
  type: "LRN"
  bottom: "conv2"
  top: "norm2"
  lrn_param {
    local_size: 5
    alpha: 0.0001
    beta: 0.75
  }
}
layer {
  name: "pool2"
  type: "Pooling"
  bottom: "norm2"
  top: "pool2"
  pooling_param {
    pool: MAX
    kernel_size: 3
    stride: 2
  }
}
layer {
  name: "conv3"
  type: "Convolution"
  bottom: "pool2"
  top: "conv3"
  param {
    lr_mult: 1
    decay_mult: 1
  }
  param {
    lr_mult: 2
    decay_mult: 0
  }
  convolution_param {
    num_output: 384
    pad: 1
    kernel_size: 3
    weight_filler {
      type: "gaussian"
      std: 0.01
    }
    bias_filler {
      type: "constant"
      value: 0
    }
  }
}
layer {
  name: "relu3"
  type: "ReLU"
  bottom: "conv3"
  top: "conv3"
}
layer {
  name: "conv4"
  type: "Convolution"
  bottom: "conv3"
  top: "conv4"
  param {
    lr_mult: 1
    decay_mult: 1
  }
  param {
    lr_mult: 2
    decay_mult: 0
  }
  convolution_param {
    num_output: 384
    pad: 1
    kernel_size: 3
    group: 2
    weight_filler {
      type: "gaussian"
      std: 0.01
    }
    bias_filler {
      type: "constant"
      value: 0.1
    }
  }
}
layer {
  name: "relu4"
  type: "ReLU"
  bottom: "conv4"
  top: "conv4"
}
layer {
  name: "conv5"
  type: "Convolution"
  bottom: "conv4"
  top: "conv5"
  param {
    lr_mult: 1
    decay_mult: 1
  }
  param {
    lr_mult: 2
    decay_mult: 0
  }
  convolution_param {
    num_output: 256
    pad: 1
    kernel_size: 3
    group: 2
    weight_filler {
      type: "gaussian"
      std: 0.01
    }
    bias_filler {
      type: "constant"
      value: 0.1
    }
  }
}
layer {
  name: "relu5"
  type: "ReLU"
  bottom: "conv5"
  top: "conv5"
}
layer {
  name: "pool5"
  type: "Pooling"
  bottom: "conv5"
  top: "pool5"
  pooling_param {
    pool: MAX
    kernel_size: 3
    stride: 2
  }
}
layer {
  name: "fc6"
  type: "InnerProduct"
  bottom: "pool5"
  top: "fc6"
  param {
    lr_mult: 1
    decay_mult: 1
  }
  param {
    lr_mult: 2
    decay_mult: 0
  }
  inner_product_param {
    num_output: 4096
    weight_filler {
      type: "gaussian"
      std: 0.005
    }
    bias_filler {
      type: "constant"
      value: 0.1
    }
  }
}
layer {
  name: "relu6"
  type: "ReLU"
  bottom: "fc6"
  top: "fc6"
}
layer {
  name: "drop6"
  type: "Dropout"
  bottom: "fc6"
  top: "fc6"
  dropout_param {
    dropout_ratio: 0.5
  }
}
layer {
  name: "fc7"
  type: "InnerProduct"
  bottom: "fc6"
  top: "fc7"
  param {
    lr_mult: 1
    decay_mult: 1
  }
  param {
    lr_mult: 2
    decay_mult: 0
  }
  inner_product_param {
    num_output: 4096
    weight_filler {
      type: "gaussian"
      std: 0.005
    }
    bias_filler {
      type: "constant"
      value: 0.1
    }
  }
}
layer {
  name: "relu7"
  type: "ReLU"
  bottom: "fc7"
  top: "fc7"
}
layer {
  name: "drop7"
  type: "Dropout"
  bottom: "fc7"
  top: "fc7"
  dropout_param {
    dropout_ratio: 0.5
  }
}
layer {
  name: "fc8_plantvillage"
  type: "InnerProduct"
  bottom: "fc7"
  top: "fc8_plantvillage"
  param {
    lr_mult: 1
    decay_mult: 1
  }
  param {
    lr_mult: 2
    decay_mult: 0
  }
  inner_product_param {
    num_output: 38
    weight_filler {
      type: "gaussian"
      std: 0.01
    }
    bias_filler {
      type: "constant"
      value: 0
    }
  }
}
layer {
  name: "prob"
  type: "Softmax"
  bottom: "fc8_plantvillage"
  top: "prob"
  include {
    phase: TEST
  }
}
layer {
  name: "hdf5out"
  type: "HDF5Output"
  bottom: "prob"
  bottom: "label"
  include {
    phase: TEST
  }
  hdf5_output_param {
    file_name: "hdf5_dumps/iter_3723.h5"
  }
}
layer {
  name: "loss"
  type: "SoftmaxWithLoss"
  bottom: "fc8_plantvillage"
  bottom: "label"
  top: "loss"
}
layer {
  name: "accuracy"
  type: "Accuracy"
  bottom: "fc8_plantvillage"
  bottom: "label"
  top: "accuracy"
  include {
    phase: TEST
  }
}
I0403 12:51:47.791265 30910 layer_factory.hpp:77] Creating layer data
I0403 12:51:47.791918 30910 net.cpp:91] Creating Layer data
I0403 12:51:47.791957 30910 net.cpp:399] data -> data
I0403 12:51:47.792011 30910 net.cpp:399] data -> label
I0403 12:51:47.792048 30910 data_transformer.cpp:25] Loading mean file from: /home/mohanty/data/final_dataset/lmdb/grayscale-40-60/mean.binaryproto
I0403 12:51:47.794404 30913 db_lmdb.cpp:38] Opened lmdb /home/mohanty/data/final_dataset/lmdb/grayscale-40-60/test_db
I0403 12:51:47.806711 30910 data_layer.cpp:41] output data size: 100,3,227,227
I0403 12:51:47.924604 30910 net.cpp:141] Setting up data
I0403 12:51:47.924711 30910 net.cpp:148] Top shape: 100 3 227 227 (15458700)
I0403 12:51:47.924734 30910 net.cpp:148] Top shape: 100 (100)
I0403 12:51:47.924751 30910 net.cpp:156] Memory required for data: 61835200
I0403 12:51:47.924790 30910 layer_factory.hpp:77] Creating layer label_data_1_split
I0403 12:51:47.924816 30910 net.cpp:91] Creating Layer label_data_1_split
I0403 12:51:47.924834 30910 net.cpp:425] label_data_1_split <- label
I0403 12:51:47.924866 30910 net.cpp:399] label_data_1_split -> label_data_1_split_0
I0403 12:51:47.924893 30910 net.cpp:399] label_data_1_split -> label_data_1_split_1
I0403 12:51:47.924914 30910 net.cpp:399] label_data_1_split -> label_data_1_split_2
I0403 12:51:47.924979 30910 net.cpp:141] Setting up label_data_1_split
I0403 12:51:47.925003 30910 net.cpp:148] Top shape: 100 (100)
I0403 12:51:47.925019 30910 net.cpp:148] Top shape: 100 (100)
I0403 12:51:47.925034 30910 net.cpp:148] Top shape: 100 (100)
I0403 12:51:47.925048 30910 net.cpp:156] Memory required for data: 61836400
I0403 12:51:47.925063 30910 layer_factory.hpp:77] Creating layer conv1
I0403 12:51:47.925096 30910 net.cpp:91] Creating Layer conv1
I0403 12:51:47.925113 30910 net.cpp:425] conv1 <- data
I0403 12:51:47.925132 30910 net.cpp:399] conv1 -> conv1
I0403 12:51:48.066344 30910 net.cpp:141] Setting up conv1
I0403 12:51:48.066421 30910 net.cpp:148] Top shape: 100 96 55 55 (29040000)
I0403 12:51:48.066438 30910 net.cpp:156] Memory required for data: 177996400
I0403 12:51:48.066469 30910 layer_factory.hpp:77] Creating layer relu1
I0403 12:51:48.066496 30910 net.cpp:91] Creating Layer relu1
I0403 12:51:48.066515 30910 net.cpp:425] relu1 <- conv1
I0403 12:51:48.066536 30910 net.cpp:386] relu1 -> conv1 (in-place)
I0403 12:51:48.066807 30910 net.cpp:141] Setting up relu1
I0403 12:51:48.066834 30910 net.cpp:148] Top shape: 100 96 55 55 (29040000)
I0403 12:51:48.066881 30910 net.cpp:156] Memory required for data: 294156400
I0403 12:51:48.066897 30910 layer_factory.hpp:77] Creating layer norm1
I0403 12:51:48.066926 30910 net.cpp:91] Creating Layer norm1
I0403 12:51:48.066946 30910 net.cpp:425] norm1 <- conv1
I0403 12:51:48.066967 30910 net.cpp:399] norm1 -> norm1
I0403 12:51:48.067288 30910 net.cpp:141] Setting up norm1
I0403 12:51:48.067318 30910 net.cpp:148] Top shape: 100 96 55 55 (29040000)
I0403 12:51:48.067334 30910 net.cpp:156] Memory required for data: 410316400
I0403 12:51:48.067349 30910 layer_factory.hpp:77] Creating layer pool1
I0403 12:51:48.067371 30910 net.cpp:91] Creating Layer pool1
I0403 12:51:48.067389 30910 net.cpp:425] pool1 <- norm1
I0403 12:51:48.067409 30910 net.cpp:399] pool1 -> pool1
I0403 12:51:48.067492 30910 net.cpp:141] Setting up pool1
I0403 12:51:48.067515 30910 net.cpp:148] Top shape: 100 96 27 27 (6998400)
I0403 12:51:48.067531 30910 net.cpp:156] Memory required for data: 438310000
I0403 12:51:48.067546 30910 layer_factory.hpp:77] Creating layer conv2
I0403 12:51:48.067572 30910 net.cpp:91] Creating Layer conv2
I0403 12:51:48.067589 30910 net.cpp:425] conv2 <- pool1
I0403 12:51:48.067613 30910 net.cpp:399] conv2 -> conv2
I0403 12:51:48.082581 30910 net.cpp:141] Setting up conv2
I0403 12:51:48.082623 30910 net.cpp:148] Top shape: 100 256 27 27 (18662400)
I0403 12:51:48.082639 30910 net.cpp:156] Memory required for data: 512959600
I0403 12:51:48.082662 30910 layer_factory.hpp:77] Creating layer relu2
I0403 12:51:48.082682 30910 net.cpp:91] Creating Layer relu2
I0403 12:51:48.082698 30910 net.cpp:425] relu2 <- conv2
I0403 12:51:48.082717 30910 net.cpp:386] relu2 -> conv2 (in-place)
I0403 12:51:48.083022 30910 net.cpp:141] Setting up relu2
I0403 12:51:48.083051 30910 net.cpp:148] Top shape: 100 256 27 27 (18662400)
I0403 12:51:48.083067 30910 net.cpp:156] Memory required for data: 587609200
I0403 12:51:48.083082 30910 layer_factory.hpp:77] Creating layer norm2
I0403 12:51:48.083102 30910 net.cpp:91] Creating Layer norm2
I0403 12:51:48.083118 30910 net.cpp:425] norm2 <- conv2
I0403 12:51:48.083139 30910 net.cpp:399] norm2 -> norm2
I0403 12:51:48.083350 30910 net.cpp:141] Setting up norm2
I0403 12:51:48.083392 30910 net.cpp:148] Top shape: 100 256 27 27 (18662400)
I0403 12:51:48.083408 30910 net.cpp:156] Memory required for data: 662258800
I0403 12:51:48.083423 30910 layer_factory.hpp:77] Creating layer pool2
I0403 12:51:48.083441 30910 net.cpp:91] Creating Layer pool2
I0403 12:51:48.083457 30910 net.cpp:425] pool2 <- norm2
I0403 12:51:48.083487 30910 net.cpp:399] pool2 -> pool2
I0403 12:51:48.083541 30910 net.cpp:141] Setting up pool2
I0403 12:51:48.083565 30910 net.cpp:148] Top shape: 100 256 13 13 (4326400)
I0403 12:51:48.083580 30910 net.cpp:156] Memory required for data: 679564400
I0403 12:51:48.083595 30910 layer_factory.hpp:77] Creating layer conv3
I0403 12:51:48.083618 30910 net.cpp:91] Creating Layer conv3
I0403 12:51:48.083636 30910 net.cpp:425] conv3 <- pool2
I0403 12:51:48.083657 30910 net.cpp:399] conv3 -> conv3
I0403 12:51:48.122601 30910 net.cpp:141] Setting up conv3
I0403 12:51:48.122666 30910 net.cpp:148] Top shape: 100 384 13 13 (6489600)
I0403 12:51:48.122683 30910 net.cpp:156] Memory required for data: 705522800
I0403 12:51:48.122705 30910 layer_factory.hpp:77] Creating layer relu3
I0403 12:51:48.122728 30910 net.cpp:91] Creating Layer relu3
I0403 12:51:48.122745 30910 net.cpp:425] relu3 <- conv3
I0403 12:51:48.122763 30910 net.cpp:386] relu3 -> conv3 (in-place)
I0403 12:51:48.123030 30910 net.cpp:141] Setting up relu3
I0403 12:51:48.123059 30910 net.cpp:148] Top shape: 100 384 13 13 (6489600)
I0403 12:51:48.123075 30910 net.cpp:156] Memory required for data: 731481200
I0403 12:51:48.123090 30910 layer_factory.hpp:77] Creating layer conv4
I0403 12:51:48.123116 30910 net.cpp:91] Creating Layer conv4
I0403 12:51:48.123133 30910 net.cpp:425] conv4 <- conv3
I0403 12:51:48.123152 30910 net.cpp:399] conv4 -> conv4
I0403 12:51:48.152779 30910 net.cpp:141] Setting up conv4
I0403 12:51:48.152832 30910 net.cpp:148] Top shape: 100 384 13 13 (6489600)
I0403 12:51:48.152879 30910 net.cpp:156] Memory required for data: 757439600
I0403 12:51:48.152901 30910 layer_factory.hpp:77] Creating layer relu4
I0403 12:51:48.152925 30910 net.cpp:91] Creating Layer relu4
I0403 12:51:48.152941 30910 net.cpp:425] relu4 <- conv4
I0403 12:51:48.152961 30910 net.cpp:386] relu4 -> conv4 (in-place)
I0403 12:51:48.153244 30910 net.cpp:141] Setting up relu4
I0403 12:51:48.153270 30910 net.cpp:148] Top shape: 100 384 13 13 (6489600)
I0403 12:51:48.153286 30910 net.cpp:156] Memory required for data: 783398000
I0403 12:51:48.153301 30910 layer_factory.hpp:77] Creating layer conv5
I0403 12:51:48.153324 30910 net.cpp:91] Creating Layer conv5
I0403 12:51:48.153342 30910 net.cpp:425] conv5 <- conv4
I0403 12:51:48.153363 30910 net.cpp:399] conv5 -> conv5
I0403 12:51:48.174304 30910 net.cpp:141] Setting up conv5
I0403 12:51:48.174345 30910 net.cpp:148] Top shape: 100 256 13 13 (4326400)
I0403 12:51:48.174362 30910 net.cpp:156] Memory required for data: 800703600
I0403 12:51:48.174388 30910 layer_factory.hpp:77] Creating layer relu5
I0403 12:51:48.174408 30910 net.cpp:91] Creating Layer relu5
I0403 12:51:48.174424 30910 net.cpp:425] relu5 <- conv5
I0403 12:51:48.174443 30910 net.cpp:386] relu5 -> conv5 (in-place)
I0403 12:51:48.174712 30910 net.cpp:141] Setting up relu5
I0403 12:51:48.174741 30910 net.cpp:148] Top shape: 100 256 13 13 (4326400)
I0403 12:51:48.174757 30910 net.cpp:156] Memory required for data: 818009200
I0403 12:51:48.174772 30910 layer_factory.hpp:77] Creating layer pool5
I0403 12:51:48.174793 30910 net.cpp:91] Creating Layer pool5
I0403 12:51:48.174809 30910 net.cpp:425] pool5 <- conv5
I0403 12:51:48.174829 30910 net.cpp:399] pool5 -> pool5
I0403 12:51:48.174890 30910 net.cpp:141] Setting up pool5
I0403 12:51:48.174912 30910 net.cpp:148] Top shape: 100 256 6 6 (921600)
I0403 12:51:48.174927 30910 net.cpp:156] Memory required for data: 821695600
I0403 12:51:48.174942 30910 layer_factory.hpp:77] Creating layer fc6
I0403 12:51:48.174971 30910 net.cpp:91] Creating Layer fc6
I0403 12:51:48.174988 30910 net.cpp:425] fc6 <- pool5
I0403 12:51:48.175009 30910 net.cpp:399] fc6 -> fc6
I0403 12:51:49.856830 30910 net.cpp:141] Setting up fc6
I0403 12:51:49.856904 30910 net.cpp:148] Top shape: 100 4096 (409600)
I0403 12:51:49.856921 30910 net.cpp:156] Memory required for data: 823334000
I0403 12:51:49.856941 30910 layer_factory.hpp:77] Creating layer relu6
I0403 12:51:49.856967 30910 net.cpp:91] Creating Layer relu6
I0403 12:51:49.856986 30910 net.cpp:425] relu6 <- fc6
I0403 12:51:49.857005 30910 net.cpp:386] relu6 -> fc6 (in-place)
I0403 12:51:49.857224 30910 net.cpp:141] Setting up relu6
I0403 12:51:49.857251 30910 net.cpp:148] Top shape: 100 4096 (409600)
I0403 12:51:49.857269 30910 net.cpp:156] Memory required for data: 824972400
I0403 12:51:49.857283 30910 layer_factory.hpp:77] Creating layer drop6
I0403 12:51:49.857301 30910 net.cpp:91] Creating Layer drop6
I0403 12:51:49.857317 30910 net.cpp:425] drop6 <- fc6
I0403 12:51:49.857336 30910 net.cpp:386] drop6 -> fc6 (in-place)
I0403 12:51:49.857388 30910 net.cpp:141] Setting up drop6
I0403 12:51:49.857411 30910 net.cpp:148] Top shape: 100 4096 (409600)
I0403 12:51:49.857426 30910 net.cpp:156] Memory required for data: 826610800
I0403 12:51:49.857441 30910 layer_factory.hpp:77] Creating layer fc7
I0403 12:51:49.857463 30910 net.cpp:91] Creating Layer fc7
I0403 12:51:49.857481 30910 net.cpp:425] fc7 <- fc6
I0403 12:51:49.857498 30910 net.cpp:399] fc7 -> fc7
I0403 12:51:50.585847 30910 net.cpp:141] Setting up fc7
I0403 12:51:50.585937 30910 net.cpp:148] Top shape: 100 4096 (409600)
I0403 12:51:50.585954 30910 net.cpp:156] Memory required for data: 828249200
I0403 12:51:50.585976 30910 layer_factory.hpp:77] Creating layer relu7
I0403 12:51:50.586002 30910 net.cpp:91] Creating Layer relu7
I0403 12:51:50.586021 30910 net.cpp:425] relu7 <- fc7
I0403 12:51:50.586040 30910 net.cpp:386] relu7 -> fc7 (in-place)
I0403 12:51:50.586488 30910 net.cpp:141] Setting up relu7
I0403 12:51:50.586513 30910 net.cpp:148] Top shape: 100 4096 (409600)
I0403 12:51:50.586561 30910 net.cpp:156] Memory required for data: 829887600
I0403 12:51:50.586578 30910 layer_factory.hpp:77] Creating layer drop7
I0403 12:51:50.586599 30910 net.cpp:91] Creating Layer drop7
I0403 12:51:50.586616 30910 net.cpp:425] drop7 <- fc7
I0403 12:51:50.586634 30910 net.cpp:386] drop7 -> fc7 (in-place)
I0403 12:51:50.586679 30910 net.cpp:141] Setting up drop7
I0403 12:51:50.586702 30910 net.cpp:148] Top shape: 100 4096 (409600)
I0403 12:51:50.586716 30910 net.cpp:156] Memory required for data: 831526000
I0403 12:51:50.586731 30910 layer_factory.hpp:77] Creating layer fc8_plantvillage
I0403 12:51:50.586753 30910 net.cpp:91] Creating Layer fc8_plantvillage
I0403 12:51:50.586771 30910 net.cpp:425] fc8_plantvillage <- fc7
I0403 12:51:50.586788 30910 net.cpp:399] fc8_plantvillage -> fc8_plantvillage
I0403 12:51:50.593899 30910 net.cpp:141] Setting up fc8_plantvillage
I0403 12:51:50.593926 30910 net.cpp:148] Top shape: 100 38 (3800)
I0403 12:51:50.593942 30910 net.cpp:156] Memory required for data: 831541200
I0403 12:51:50.593961 30910 layer_factory.hpp:77] Creating layer fc8_plantvillage_fc8_plantvillage_0_split
I0403 12:51:50.593978 30910 net.cpp:91] Creating Layer fc8_plantvillage_fc8_plantvillage_0_split
I0403 12:51:50.593993 30910 net.cpp:425] fc8_plantvillage_fc8_plantvillage_0_split <- fc8_plantvillage
I0403 12:51:50.594012 30910 net.cpp:399] fc8_plantvillage_fc8_plantvillage_0_split -> fc8_plantvillage_fc8_plantvillage_0_split_0
I0403 12:51:50.594033 30910 net.cpp:399] fc8_plantvillage_fc8_plantvillage_0_split -> fc8_plantvillage_fc8_plantvillage_0_split_1
I0403 12:51:50.594055 30910 net.cpp:399] fc8_plantvillage_fc8_plantvillage_0_split -> fc8_plantvillage_fc8_plantvillage_0_split_2
I0403 12:51:50.594130 30910 net.cpp:141] Setting up fc8_plantvillage_fc8_plantvillage_0_split
I0403 12:51:50.594154 30910 net.cpp:148] Top shape: 100 38 (3800)
I0403 12:51:50.594171 30910 net.cpp:148] Top shape: 100 38 (3800)
I0403 12:51:50.594192 30910 net.cpp:148] Top shape: 100 38 (3800)
I0403 12:51:50.594208 30910 net.cpp:156] Memory required for data: 831586800
I0403 12:51:50.594223 30910 layer_factory.hpp:77] Creating layer prob
I0403 12:51:50.594240 30910 net.cpp:91] Creating Layer prob
I0403 12:51:50.594256 30910 net.cpp:425] prob <- fc8_plantvillage_fc8_plantvillage_0_split_0
I0403 12:51:50.594274 30910 net.cpp:399] prob -> prob
I0403 12:51:50.594497 30910 net.cpp:141] Setting up prob
I0403 12:51:50.594521 30910 net.cpp:148] Top shape: 100 38 (3800)
I0403 12:51:50.594537 30910 net.cpp:156] Memory required for data: 831602000
I0403 12:51:50.594552 30910 layer_factory.hpp:77] Creating layer hdf5out
I0403 12:51:50.594573 30910 net.cpp:91] Creating Layer hdf5out
I0403 12:51:50.594589 30910 net.cpp:425] hdf5out <- prob
I0403 12:51:50.594606 30910 net.cpp:425] hdf5out <- label_data_1_split_0
I0403 12:51:50.596817 30910 net.cpp:141] Setting up hdf5out
…
