…
I0403 12:57:19.195531 31047 net.cpp:313] The NetState phase (1) differed from the phase (0) specified by a rule in layer data
I0403 12:57:19.195853 31047 net.cpp:49] Initializing net from parameters: 
state {
  phase: TEST
}
layer {
  name: "data"
  type: "Data"
  top: "data"
  top: "label"
  include {
    phase: TEST
  }
  transform_param {
    crop_size: 227
    mean_file: "/home/mohanty/data/final_dataset/lmdb/grayscale-40-60/mean.binaryproto"
  }
  data_param {
    source: "/home/mohanty/data/final_dataset/lmdb/grayscale-40-60/test_db"
    batch_size: 100
    backend: LMDB
  }
}
layer {
  name: "conv1"
  type: "Convolution"
  bottom: "data"
  top: "conv1"
  param {
    lr_mult: 1
    decay_mult: 1
  }
  param {
    lr_mult: 2
    decay_mult: 0
  }
  convolution_param {
    num_output: 96
    kernel_size: 11
    stride: 4
    weight_filler {
      type: "gaussian"
      std: 0.01
    }
    bias_filler {
      type: "constant"
      value: 0
    }
  }
}
layer {
  name: "relu1"
  type: "ReLU"
  bottom: "conv1"
  top: "conv1"
}
layer {
  name: "norm1"
  type: "LRN"
  bottom: "conv1"
  top: "norm1"
  lrn_param {
    local_size: 5
    alpha: 0.0001
    beta: 0.75
  }
}
layer {
  name: "pool1"
  type: "Pooling"
  bottom: "norm1"
  top: "pool1"
  pooling_param {
    pool: MAX
    kernel_size: 3
    stride: 2
  }
}
layer {
  name: "conv2"
  type: "Convolution"
  bottom: "pool1"
  top: "conv2"
  param {
    lr_mult: 1
    decay_mult: 1
  }
  param {
    lr_mult: 2
    decay_mult: 0
  }
  convolution_param {
    num_output: 256
    pad: 2
    kernel_size: 5
    group: 2
    weight_filler {
      type: "gaussian"
      std: 0.01
    }
    bias_filler {
      type: "constant"
      value: 0.1
    }
  }
}
layer {
  name: "relu2"
  type: "ReLU"
  bottom: "conv2"
  top: "conv2"
}
layer {
  name: "norm2"
  type: "LRN"
  bottom: "conv2"
  top: "norm2"
  lrn_param {
    local_size: 5
    alpha: 0.0001
    beta: 0.75
  }
}
layer {
  name: "pool2"
  type: "Pooling"
  bottom: "norm2"
  top: "pool2"
  pooling_param {
    pool: MAX
    kernel_size: 3
    stride: 2
  }
}
layer {
  name: "conv3"
  type: "Convolution"
  bottom: "pool2"
  top: "conv3"
  param {
    lr_mult: 1
    decay_mult: 1
  }
  param {
    lr_mult: 2
    decay_mult: 0
  }
  convolution_param {
    num_output: 384
    pad: 1
    kernel_size: 3
    weight_filler {
      type: "gaussian"
      std: 0.01
    }
    bias_filler {
      type: "constant"
      value: 0
    }
  }
}
layer {
  name: "relu3"
  type: "ReLU"
  bottom: "conv3"
  top: "conv3"
}
layer {
  name: "conv4"
  type: "Convolution"
  bottom: "conv3"
  top: "conv4"
  param {
    lr_mult: 1
    decay_mult: 1
  }
  param {
    lr_mult: 2
    decay_mult: 0
  }
  convolution_param {
    num_output: 384
    pad: 1
    kernel_size: 3
    group: 2
    weight_filler {
      type: "gaussian"
      std: 0.01
    }
    bias_filler {
      type: "constant"
      value: 0.1
    }
  }
}
layer {
  name: "relu4"
  type: "ReLU"
  bottom: "conv4"
  top: "conv4"
}
layer {
  name: "conv5"
  type: "Convolution"
  bottom: "conv4"
  top: "conv5"
  param {
    lr_mult: 1
    decay_mult: 1
  }
  param {
    lr_mult: 2
    decay_mult: 0
  }
  convolution_param {
    num_output: 256
    pad: 1
    kernel_size: 3
    group: 2
    weight_filler {
      type: "gaussian"
      std: 0.01
    }
    bias_filler {
      type: "constant"
      value: 0.1
    }
  }
}
layer {
  name: "relu5"
  type: "ReLU"
  bottom: "conv5"
  top: "conv5"
}
layer {
  name: "pool5"
  type: "Pooling"
  bottom: "conv5"
  top: "pool5"
  pooling_param {
    pool: MAX
    kernel_size: 3
    stride: 2
  }
}
layer {
  name: "fc6"
  type: "InnerProduct"
  bottom: "pool5"
  top: "fc6"
  param {
    lr_mult: 1
    decay_mult: 1
  }
  param {
    lr_mult: 2
    decay_mult: 0
  }
  inner_product_param {
    num_output: 4096
    weight_filler {
      type: "gaussian"
      std: 0.005
    }
    bias_filler {
      type: "constant"
      value: 0.1
    }
  }
}
layer {
  name: "relu6"
  type: "ReLU"
  bottom: "fc6"
  top: "fc6"
}
layer {
  name: "drop6"
  type: "Dropout"
  bottom: "fc6"
  top: "fc6"
  dropout_param {
    dropout_ratio: 0.5
  }
}
layer {
  name: "fc7"
  type: "InnerProduct"
  bottom: "fc6"
  top: "fc7"
  param {
    lr_mult: 1
    decay_mult: 1
  }
  param {
    lr_mult: 2
    decay_mult: 0
  }
  inner_product_param {
    num_output: 4096
    weight_filler {
      type: "gaussian"
      std: 0.005
    }
    bias_filler {
      type: "constant"
      value: 0.1
    }
  }
}
layer {
  name: "relu7"
  type: "ReLU"
  bottom: "fc7"
  top: "fc7"
}
layer {
  name: "drop7"
  type: "Dropout"
  bottom: "fc7"
  top: "fc7"
  dropout_param {
    dropout_ratio: 0.5
  }
}
layer {
  name: "fc8_plantvillage"
  type: "InnerProduct"
  bottom: "fc7"
  top: "fc8_plantvillage"
  param {
    lr_mult: 1
    decay_mult: 1
  }
  param {
    lr_mult: 2
    decay_mult: 0
  }
  inner_product_param {
    num_output: 38
    weight_filler {
      type: "gaussian"
      std: 0.01
    }
    bias_filler {
      type: "constant"
      value: 0
    }
  }
}
layer {
  name: "prob"
  type: "Softmax"
  bottom: "fc8_plantvillage"
  top: "prob"
  include {
    phase: TEST
  }
}
layer {
  name: "hdf5out"
  type: "HDF5Output"
  bottom: "prob"
  bottom: "label"
  include {
    phase: TEST
  }
  hdf5_output_param {
    file_name: "hdf5_dumps/iter_4818.h5"
  }
}
layer {
  name: "loss"
  type: "SoftmaxWithLoss"
  bottom: "fc8_plantvillage"
  bottom: "label"
  top: "loss"
}
layer {
  name: "accuracy"
  type: "Accuracy"
  bottom: "fc8_plantvillage"
  bottom: "label"
  top: "accuracy"
  include {
    phase: TEST
  }
}
I0403 12:57:19.196449 31047 layer_factory.hpp:77] Creating layer data
I0403 12:57:19.197088 31047 net.cpp:91] Creating Layer data
I0403 12:57:19.197120 31047 net.cpp:399] data -> data
I0403 12:57:19.197171 31047 net.cpp:399] data -> label
I0403 12:57:19.197224 31047 data_transformer.cpp:25] Loading mean file from: /home/mohanty/data/final_dataset/lmdb/grayscale-40-60/mean.binaryproto
I0403 12:57:19.200155 31052 db_lmdb.cpp:38] Opened lmdb /home/mohanty/data/final_dataset/lmdb/grayscale-40-60/test_db
I0403 12:57:19.211848 31047 data_layer.cpp:41] output data size: 100,3,227,227
I0403 12:57:19.332382 31047 net.cpp:141] Setting up data
I0403 12:57:19.332444 31047 net.cpp:148] Top shape: 100 3 227 227 (15458700)
I0403 12:57:19.332469 31047 net.cpp:148] Top shape: 100 (100)
I0403 12:57:19.332486 31047 net.cpp:156] Memory required for data: 61835200
I0403 12:57:19.332515 31047 layer_factory.hpp:77] Creating layer label_data_1_split
I0403 12:57:19.332542 31047 net.cpp:91] Creating Layer label_data_1_split
I0403 12:57:19.332561 31047 net.cpp:425] label_data_1_split <- label
I0403 12:57:19.332595 31047 net.cpp:399] label_data_1_split -> label_data_1_split_0
I0403 12:57:19.332623 31047 net.cpp:399] label_data_1_split -> label_data_1_split_1
I0403 12:57:19.332644 31047 net.cpp:399] label_data_1_split -> label_data_1_split_2
I0403 12:57:19.332710 31047 net.cpp:141] Setting up label_data_1_split
I0403 12:57:19.332736 31047 net.cpp:148] Top shape: 100 (100)
I0403 12:57:19.332752 31047 net.cpp:148] Top shape: 100 (100)
I0403 12:57:19.332769 31047 net.cpp:148] Top shape: 100 (100)
I0403 12:57:19.332784 31047 net.cpp:156] Memory required for data: 61836400
I0403 12:57:19.332799 31047 layer_factory.hpp:77] Creating layer conv1
I0403 12:57:19.332833 31047 net.cpp:91] Creating Layer conv1
I0403 12:57:19.332850 31047 net.cpp:425] conv1 <- data
I0403 12:57:19.332870 31047 net.cpp:399] conv1 -> conv1
I0403 12:57:19.480662 31047 net.cpp:141] Setting up conv1
I0403 12:57:19.480752 31047 net.cpp:148] Top shape: 100 96 55 55 (29040000)
I0403 12:57:19.480770 31047 net.cpp:156] Memory required for data: 177996400
I0403 12:57:19.480803 31047 layer_factory.hpp:77] Creating layer relu1
I0403 12:57:19.480831 31047 net.cpp:91] Creating Layer relu1
I0403 12:57:19.480851 31047 net.cpp:425] relu1 <- conv1
I0403 12:57:19.480871 31047 net.cpp:386] relu1 -> conv1 (in-place)
I0403 12:57:19.481135 31047 net.cpp:141] Setting up relu1
I0403 12:57:19.481163 31047 net.cpp:148] Top shape: 100 96 55 55 (29040000)
I0403 12:57:19.481218 31047 net.cpp:156] Memory required for data: 294156400
I0403 12:57:19.481237 31047 layer_factory.hpp:77] Creating layer norm1
I0403 12:57:19.481266 31047 net.cpp:91] Creating Layer norm1
I0403 12:57:19.481323 31047 net.cpp:425] norm1 <- conv1
I0403 12:57:19.481348 31047 net.cpp:399] norm1 -> norm1
I0403 12:57:19.481673 31047 net.cpp:141] Setting up norm1
I0403 12:57:19.481703 31047 net.cpp:148] Top shape: 100 96 55 55 (29040000)
I0403 12:57:19.481719 31047 net.cpp:156] Memory required for data: 410316400
I0403 12:57:19.481734 31047 layer_factory.hpp:77] Creating layer pool1
I0403 12:57:19.481758 31047 net.cpp:91] Creating Layer pool1
I0403 12:57:19.481777 31047 net.cpp:425] pool1 <- norm1
I0403 12:57:19.481796 31047 net.cpp:399] pool1 -> pool1
I0403 12:57:19.481863 31047 net.cpp:141] Setting up pool1
I0403 12:57:19.481889 31047 net.cpp:148] Top shape: 100 96 27 27 (6998400)
I0403 12:57:19.481904 31047 net.cpp:156] Memory required for data: 438310000
I0403 12:57:19.481920 31047 layer_factory.hpp:77] Creating layer conv2
I0403 12:57:19.481945 31047 net.cpp:91] Creating Layer conv2
I0403 12:57:19.481961 31047 net.cpp:425] conv2 <- pool1
I0403 12:57:19.481981 31047 net.cpp:399] conv2 -> conv2
I0403 12:57:19.497566 31047 net.cpp:141] Setting up conv2
I0403 12:57:19.497613 31047 net.cpp:148] Top shape: 100 256 27 27 (18662400)
I0403 12:57:19.497630 31047 net.cpp:156] Memory required for data: 512959600
I0403 12:57:19.497654 31047 layer_factory.hpp:77] Creating layer relu2
I0403 12:57:19.497676 31047 net.cpp:91] Creating Layer relu2
I0403 12:57:19.497694 31047 net.cpp:425] relu2 <- conv2
I0403 12:57:19.497712 31047 net.cpp:386] relu2 -> conv2 (in-place)
I0403 12:57:19.498002 31047 net.cpp:141] Setting up relu2
I0403 12:57:19.498030 31047 net.cpp:148] Top shape: 100 256 27 27 (18662400)
I0403 12:57:19.498046 31047 net.cpp:156] Memory required for data: 587609200
I0403 12:57:19.498075 31047 layer_factory.hpp:77] Creating layer norm2
I0403 12:57:19.498097 31047 net.cpp:91] Creating Layer norm2
I0403 12:57:19.498113 31047 net.cpp:425] norm2 <- conv2
I0403 12:57:19.498132 31047 net.cpp:399] norm2 -> norm2
I0403 12:57:19.498328 31047 net.cpp:141] Setting up norm2
I0403 12:57:19.498354 31047 net.cpp:148] Top shape: 100 256 27 27 (18662400)
I0403 12:57:19.498369 31047 net.cpp:156] Memory required for data: 662258800
I0403 12:57:19.498384 31047 layer_factory.hpp:77] Creating layer pool2
I0403 12:57:19.498404 31047 net.cpp:91] Creating Layer pool2
I0403 12:57:19.498419 31047 net.cpp:425] pool2 <- norm2
I0403 12:57:19.498436 31047 net.cpp:399] pool2 -> pool2
I0403 12:57:19.498488 31047 net.cpp:141] Setting up pool2
I0403 12:57:19.498512 31047 net.cpp:148] Top shape: 100 256 13 13 (4326400)
I0403 12:57:19.498528 31047 net.cpp:156] Memory required for data: 679564400
I0403 12:57:19.498543 31047 layer_factory.hpp:77] Creating layer conv3
I0403 12:57:19.498564 31047 net.cpp:91] Creating Layer conv3
I0403 12:57:19.498580 31047 net.cpp:425] conv3 <- pool2
I0403 12:57:19.498600 31047 net.cpp:399] conv3 -> conv3
I0403 12:57:19.538764 31047 net.cpp:141] Setting up conv3
I0403 12:57:19.538859 31047 net.cpp:148] Top shape: 100 384 13 13 (6489600)
I0403 12:57:19.538877 31047 net.cpp:156] Memory required for data: 705522800
I0403 12:57:19.538904 31047 layer_factory.hpp:77] Creating layer relu3
I0403 12:57:19.538930 31047 net.cpp:91] Creating Layer relu3
I0403 12:57:19.538950 31047 net.cpp:425] relu3 <- conv3
I0403 12:57:19.538970 31047 net.cpp:386] relu3 -> conv3 (in-place)
I0403 12:57:19.539290 31047 net.cpp:141] Setting up relu3
I0403 12:57:19.539317 31047 net.cpp:148] Top shape: 100 384 13 13 (6489600)
I0403 12:57:19.539333 31047 net.cpp:156] Memory required for data: 731481200
I0403 12:57:19.539350 31047 layer_factory.hpp:77] Creating layer conv4
I0403 12:57:19.539377 31047 net.cpp:91] Creating Layer conv4
I0403 12:57:19.539396 31047 net.cpp:425] conv4 <- conv3
I0403 12:57:19.539415 31047 net.cpp:399] conv4 -> conv4
I0403 12:57:19.570893 31047 net.cpp:141] Setting up conv4
I0403 12:57:19.570971 31047 net.cpp:148] Top shape: 100 384 13 13 (6489600)
I0403 12:57:19.571022 31047 net.cpp:156] Memory required for data: 757439600
I0403 12:57:19.571045 31047 layer_factory.hpp:77] Creating layer relu4
I0403 12:57:19.571071 31047 net.cpp:91] Creating Layer relu4
I0403 12:57:19.571090 31047 net.cpp:425] relu4 <- conv4
I0403 12:57:19.571110 31047 net.cpp:386] relu4 -> conv4 (in-place)
I0403 12:57:19.571444 31047 net.cpp:141] Setting up relu4
I0403 12:57:19.571471 31047 net.cpp:148] Top shape: 100 384 13 13 (6489600)
I0403 12:57:19.571488 31047 net.cpp:156] Memory required for data: 783398000
I0403 12:57:19.571504 31047 layer_factory.hpp:77] Creating layer conv5
I0403 12:57:19.571530 31047 net.cpp:91] Creating Layer conv5
I0403 12:57:19.571549 31047 net.cpp:425] conv5 <- conv4
I0403 12:57:19.571571 31047 net.cpp:399] conv5 -> conv5
I0403 12:57:19.593253 31047 net.cpp:141] Setting up conv5
I0403 12:57:19.593318 31047 net.cpp:148] Top shape: 100 256 13 13 (4326400)
I0403 12:57:19.593335 31047 net.cpp:156] Memory required for data: 800703600
I0403 12:57:19.593364 31047 layer_factory.hpp:77] Creating layer relu5
I0403 12:57:19.593387 31047 net.cpp:91] Creating Layer relu5
I0403 12:57:19.593405 31047 net.cpp:425] relu5 <- conv5
I0403 12:57:19.593423 31047 net.cpp:386] relu5 -> conv5 (in-place)
I0403 12:57:19.593718 31047 net.cpp:141] Setting up relu5
I0403 12:57:19.593747 31047 net.cpp:148] Top shape: 100 256 13 13 (4326400)
I0403 12:57:19.593765 31047 net.cpp:156] Memory required for data: 818009200
I0403 12:57:19.593781 31047 layer_factory.hpp:77] Creating layer pool5
I0403 12:57:19.593804 31047 net.cpp:91] Creating Layer pool5
I0403 12:57:19.593822 31047 net.cpp:425] pool5 <- conv5
I0403 12:57:19.593843 31047 net.cpp:399] pool5 -> pool5
I0403 12:57:19.593909 31047 net.cpp:141] Setting up pool5
I0403 12:57:19.593933 31047 net.cpp:148] Top shape: 100 256 6 6 (921600)
I0403 12:57:19.593948 31047 net.cpp:156] Memory required for data: 821695600
I0403 12:57:19.593964 31047 layer_factory.hpp:77] Creating layer fc6
I0403 12:57:19.593996 31047 net.cpp:91] Creating Layer fc6
I0403 12:57:19.594015 31047 net.cpp:425] fc6 <- pool5
I0403 12:57:19.594036 31047 net.cpp:399] fc6 -> fc6
I0403 12:57:21.167904 31047 net.cpp:141] Setting up fc6
I0403 12:57:21.167981 31047 net.cpp:148] Top shape: 100 4096 (409600)
I0403 12:57:21.167997 31047 net.cpp:156] Memory required for data: 823334000
I0403 12:57:21.168018 31047 layer_factory.hpp:77] Creating layer relu6
I0403 12:57:21.168040 31047 net.cpp:91] Creating Layer relu6
I0403 12:57:21.168056 31047 net.cpp:425] relu6 <- fc6
I0403 12:57:21.168077 31047 net.cpp:386] relu6 -> fc6 (in-place)
I0403 12:57:21.168294 31047 net.cpp:141] Setting up relu6
I0403 12:57:21.168319 31047 net.cpp:148] Top shape: 100 4096 (409600)
I0403 12:57:21.168335 31047 net.cpp:156] Memory required for data: 824972400
I0403 12:57:21.168350 31047 layer_factory.hpp:77] Creating layer drop6
I0403 12:57:21.168368 31047 net.cpp:91] Creating Layer drop6
I0403 12:57:21.168382 31047 net.cpp:425] drop6 <- fc6
I0403 12:57:21.168400 31047 net.cpp:386] drop6 -> fc6 (in-place)
I0403 12:57:21.168450 31047 net.cpp:141] Setting up drop6
I0403 12:57:21.168473 31047 net.cpp:148] Top shape: 100 4096 (409600)
I0403 12:57:21.168485 31047 net.cpp:156] Memory required for data: 826610800
I0403 12:57:21.168499 31047 layer_factory.hpp:77] Creating layer fc7
I0403 12:57:21.168520 31047 net.cpp:91] Creating Layer fc7
I0403 12:57:21.168536 31047 net.cpp:425] fc7 <- fc6
I0403 12:57:21.168553 31047 net.cpp:399] fc7 -> fc7
I0403 12:57:21.858793 31047 net.cpp:141] Setting up fc7
I0403 12:57:21.858891 31047 net.cpp:148] Top shape: 100 4096 (409600)
I0403 12:57:21.858907 31047 net.cpp:156] Memory required for data: 828249200
I0403 12:57:21.858929 31047 layer_factory.hpp:77] Creating layer relu7
I0403 12:57:21.858953 31047 net.cpp:91] Creating Layer relu7
I0403 12:57:21.858971 31047 net.cpp:425] relu7 <- fc7
I0403 12:57:21.858990 31047 net.cpp:386] relu7 -> fc7 (in-place)
I0403 12:57:21.859423 31047 net.cpp:141] Setting up relu7
I0403 12:57:21.859452 31047 net.cpp:148] Top shape: 100 4096 (409600)
I0403 12:57:21.859495 31047 net.cpp:156] Memory required for data: 829887600
I0403 12:57:21.859513 31047 layer_factory.hpp:77] Creating layer drop7
I0403 12:57:21.859534 31047 net.cpp:91] Creating Layer drop7
I0403 12:57:21.859562 31047 net.cpp:425] drop7 <- fc7
I0403 12:57:21.859580 31047 net.cpp:386] drop7 -> fc7 (in-place)
I0403 12:57:21.859624 31047 net.cpp:141] Setting up drop7
I0403 12:57:21.859647 31047 net.cpp:148] Top shape: 100 4096 (409600)
I0403 12:57:21.859660 31047 net.cpp:156] Memory required for data: 831526000
I0403 12:57:21.859674 31047 layer_factory.hpp:77] Creating layer fc8_plantvillage
I0403 12:57:21.859694 31047 net.cpp:91] Creating Layer fc8_plantvillage
I0403 12:57:21.859709 31047 net.cpp:425] fc8_plantvillage <- fc7
I0403 12:57:21.859729 31047 net.cpp:399] fc8_plantvillage -> fc8_plantvillage
I0403 12:57:21.866468 31047 net.cpp:141] Setting up fc8_plantvillage
I0403 12:57:21.866498 31047 net.cpp:148] Top shape: 100 38 (3800)
I0403 12:57:21.866514 31047 net.cpp:156] Memory required for data: 831541200
I0403 12:57:21.866533 31047 layer_factory.hpp:77] Creating layer fc8_plantvillage_fc8_plantvillage_0_split
I0403 12:57:21.866551 31047 net.cpp:91] Creating Layer fc8_plantvillage_fc8_plantvillage_0_split
I0403 12:57:21.866566 31047 net.cpp:425] fc8_plantvillage_fc8_plantvillage_0_split <- fc8_plantvillage
I0403 12:57:21.866583 31047 net.cpp:399] fc8_plantvillage_fc8_plantvillage_0_split -> fc8_plantvillage_fc8_plantvillage_0_split_0
I0403 12:57:21.866603 31047 net.cpp:399] fc8_plantvillage_fc8_plantvillage_0_split -> fc8_plantvillage_fc8_plantvillage_0_split_1
I0403 12:57:21.866628 31047 net.cpp:399] fc8_plantvillage_fc8_plantvillage_0_split -> fc8_plantvillage_fc8_plantvillage_0_split_2
I0403 12:57:21.866708 31047 net.cpp:141] Setting up fc8_plantvillage_fc8_plantvillage_0_split
I0403 12:57:21.866730 31047 net.cpp:148] Top shape: 100 38 (3800)
I0403 12:57:21.866746 31047 net.cpp:148] Top shape: 100 38 (3800)
I0403 12:57:21.866761 31047 net.cpp:148] Top shape: 100 38 (3800)
I0403 12:57:21.866775 31047 net.cpp:156] Memory required for data: 831586800
I0403 12:57:21.866789 31047 layer_factory.hpp:77] Creating layer prob
I0403 12:57:21.866808 31047 net.cpp:91] Creating Layer prob
I0403 12:57:21.866823 31047 net.cpp:425] prob <- fc8_plantvillage_fc8_plantvillage_0_split_0
I0403 12:57:21.866842 31047 net.cpp:399] prob -> prob
I0403 12:57:21.867069 31047 net.cpp:141] Setting up prob
I0403 12:57:21.867094 31047 net.cpp:148] Top shape: 100 38 (3800)
I0403 12:57:21.867108 31047 net.cpp:156] Memory required for data: 831602000
I0403 12:57:21.867123 31047 layer_factory.hpp:77] Creating layer hdf5out
I0403 12:57:21.867146 31047 net.cpp:91] Creating Layer hdf5out
I0403 12:57:21.867162 31047 net.cpp:425] hdf5out <- prob
I0403 12:57:21.867178 31047 net.cpp:425] hdf5out <- label_data_1_split_0
I0403 12:57:21.869562 31047 net.cpp:141] Setting up hdf5out
…
