…
I0403 12:45:08.879634 30742 net.cpp:313] The NetState phase (1) differed from the phase (0) specified by a rule in layer data
I0403 12:45:08.879963 30742 net.cpp:49] Initializing net from parameters: 
state {
  phase: TEST
}
layer {
  name: "data"
  type: "Data"
  top: "data"
  top: "label"
  include {
    phase: TEST
  }
  transform_param {
    crop_size: 227
    mean_file: "/home/mohanty/data/final_dataset/lmdb/grayscale-40-60/mean.binaryproto"
  }
  data_param {
    source: "/home/mohanty/data/final_dataset/lmdb/grayscale-40-60/test_db"
    batch_size: 100
    backend: LMDB
  }
}
layer {
  name: "conv1"
  type: "Convolution"
  bottom: "data"
  top: "conv1"
  param {
    lr_mult: 1
    decay_mult: 1
  }
  param {
    lr_mult: 2
    decay_mult: 0
  }
  convolution_param {
    num_output: 96
    kernel_size: 11
    stride: 4
    weight_filler {
      type: "gaussian"
      std: 0.01
    }
    bias_filler {
      type: "constant"
      value: 0
    }
  }
}
layer {
  name: "relu1"
  type: "ReLU"
  bottom: "conv1"
  top: "conv1"
}
layer {
  name: "norm1"
  type: "LRN"
  bottom: "conv1"
  top: "norm1"
  lrn_param {
    local_size: 5
    alpha: 0.0001
    beta: 0.75
  }
}
layer {
  name: "pool1"
  type: "Pooling"
  bottom: "norm1"
  top: "pool1"
  pooling_param {
    pool: MAX
    kernel_size: 3
    stride: 2
  }
}
layer {
  name: "conv2"
  type: "Convolution"
  bottom: "pool1"
  top: "conv2"
  param {
    lr_mult: 1
    decay_mult: 1
  }
  param {
    lr_mult: 2
    decay_mult: 0
  }
  convolution_param {
    num_output: 256
    pad: 2
    kernel_size: 5
    group: 2
    weight_filler {
      type: "gaussian"
      std: 0.01
    }
    bias_filler {
      type: "constant"
      value: 0.1
    }
  }
}
layer {
  name: "relu2"
  type: "ReLU"
  bottom: "conv2"
  top: "conv2"
}
layer {
  name: "norm2"
  type: "LRN"
  bottom: "conv2"
  top: "norm2"
  lrn_param {
    local_size: 5
    alpha: 0.0001
    beta: 0.75
  }
}
layer {
  name: "pool2"
  type: "Pooling"
  bottom: "norm2"
  top: "pool2"
  pooling_param {
    pool: MAX
    kernel_size: 3
    stride: 2
  }
}
layer {
  name: "conv3"
  type: "Convolution"
  bottom: "pool2"
  top: "conv3"
  param {
    lr_mult: 1
    decay_mult: 1
  }
  param {
    lr_mult: 2
    decay_mult: 0
  }
  convolution_param {
    num_output: 384
    pad: 1
    kernel_size: 3
    weight_filler {
      type: "gaussian"
      std: 0.01
    }
    bias_filler {
      type: "constant"
      value: 0
    }
  }
}
layer {
  name: "relu3"
  type: "ReLU"
  bottom: "conv3"
  top: "conv3"
}
layer {
  name: "conv4"
  type: "Convolution"
  bottom: "conv3"
  top: "conv4"
  param {
    lr_mult: 1
    decay_mult: 1
  }
  param {
    lr_mult: 2
    decay_mult: 0
  }
  convolution_param {
    num_output: 384
    pad: 1
    kernel_size: 3
    group: 2
    weight_filler {
      type: "gaussian"
      std: 0.01
    }
    bias_filler {
      type: "constant"
      value: 0.1
    }
  }
}
layer {
  name: "relu4"
  type: "ReLU"
  bottom: "conv4"
  top: "conv4"
}
layer {
  name: "conv5"
  type: "Convolution"
  bottom: "conv4"
  top: "conv5"
  param {
    lr_mult: 1
    decay_mult: 1
  }
  param {
    lr_mult: 2
    decay_mult: 0
  }
  convolution_param {
    num_output: 256
    pad: 1
    kernel_size: 3
    group: 2
    weight_filler {
      type: "gaussian"
      std: 0.01
    }
    bias_filler {
      type: "constant"
      value: 0.1
    }
  }
}
layer {
  name: "relu5"
  type: "ReLU"
  bottom: "conv5"
  top: "conv5"
}
layer {
  name: "pool5"
  type: "Pooling"
  bottom: "conv5"
  top: "pool5"
  pooling_param {
    pool: MAX
    kernel_size: 3
    stride: 2
  }
}
layer {
  name: "fc6"
  type: "InnerProduct"
  bottom: "pool5"
  top: "fc6"
  param {
    lr_mult: 1
    decay_mult: 1
  }
  param {
    lr_mult: 2
    decay_mult: 0
  }
  inner_product_param {
    num_output: 4096
    weight_filler {
      type: "gaussian"
      std: 0.005
    }
    bias_filler {
      type: "constant"
      value: 0.1
    }
  }
}
layer {
  name: "relu6"
  type: "ReLU"
  bottom: "fc6"
  top: "fc6"
}
layer {
  name: "drop6"
  type: "Dropout"
  bottom: "fc6"
  top: "fc6"
  dropout_param {
    dropout_ratio: 0.5
  }
}
layer {
  name: "fc7"
  type: "InnerProduct"
  bottom: "fc6"
  top: "fc7"
  param {
    lr_mult: 1
    decay_mult: 1
  }
  param {
    lr_mult: 2
    decay_mult: 0
  }
  inner_product_param {
    num_output: 4096
    weight_filler {
      type: "gaussian"
      std: 0.005
    }
    bias_filler {
      type: "constant"
      value: 0.1
    }
  }
}
layer {
  name: "relu7"
  type: "ReLU"
  bottom: "fc7"
  top: "fc7"
}
layer {
  name: "drop7"
  type: "Dropout"
  bottom: "fc7"
  top: "fc7"
  dropout_param {
    dropout_ratio: 0.5
  }
}
layer {
  name: "fc8_plantvillage"
  type: "InnerProduct"
  bottom: "fc7"
  top: "fc8_plantvillage"
  param {
    lr_mult: 1
    decay_mult: 1
  }
  param {
    lr_mult: 2
    decay_mult: 0
  }
  inner_product_param {
    num_output: 38
    weight_filler {
      type: "gaussian"
      std: 0.01
    }
    bias_filler {
      type: "constant"
      value: 0
    }
  }
}
layer {
  name: "prob"
  type: "Softmax"
  bottom: "fc8_plantvillage"
  top: "prob"
  include {
    phase: TEST
  }
}
layer {
  name: "hdf5out"
  type: "HDF5Output"
  bottom: "prob"
  bottom: "label"
  include {
    phase: TEST
  }
  hdf5_output_param {
    file_name: "hdf5_dumps/iter_2409.h5"
  }
}
layer {
  name: "loss"
  type: "SoftmaxWithLoss"
  bottom: "fc8_plantvillage"
  bottom: "label"
  top: "loss"
}
layer {
  name: "accuracy"
  type: "Accuracy"
  bottom: "fc8_plantvillage"
  bottom: "label"
  top: "accuracy"
  include {
    phase: TEST
  }
}
I0403 12:45:08.880522 30742 layer_factory.hpp:77] Creating layer data
I0403 12:45:08.881155 30742 net.cpp:91] Creating Layer data
I0403 12:45:08.881192 30742 net.cpp:399] data -> data
I0403 12:45:08.881243 30742 net.cpp:399] data -> label
I0403 12:45:08.881280 30742 data_transformer.cpp:25] Loading mean file from: /home/mohanty/data/final_dataset/lmdb/grayscale-40-60/mean.binaryproto
I0403 12:45:08.884039 30745 db_lmdb.cpp:38] Opened lmdb /home/mohanty/data/final_dataset/lmdb/grayscale-40-60/test_db
I0403 12:45:08.896119 30742 data_layer.cpp:41] output data size: 100,3,227,227
I0403 12:45:09.013909 30742 net.cpp:141] Setting up data
I0403 12:45:09.014014 30742 net.cpp:148] Top shape: 100 3 227 227 (15458700)
I0403 12:45:09.014039 30742 net.cpp:148] Top shape: 100 (100)
I0403 12:45:09.014055 30742 net.cpp:156] Memory required for data: 61835200
I0403 12:45:09.014083 30742 layer_factory.hpp:77] Creating layer label_data_1_split
I0403 12:45:09.014111 30742 net.cpp:91] Creating Layer label_data_1_split
I0403 12:45:09.014130 30742 net.cpp:425] label_data_1_split <- label
I0403 12:45:09.014174 30742 net.cpp:399] label_data_1_split -> label_data_1_split_0
I0403 12:45:09.014210 30742 net.cpp:399] label_data_1_split -> label_data_1_split_1
I0403 12:45:09.014232 30742 net.cpp:399] label_data_1_split -> label_data_1_split_2
I0403 12:45:09.014324 30742 net.cpp:141] Setting up label_data_1_split
I0403 12:45:09.014350 30742 net.cpp:148] Top shape: 100 (100)
I0403 12:45:09.014369 30742 net.cpp:148] Top shape: 100 (100)
I0403 12:45:09.014385 30742 net.cpp:148] Top shape: 100 (100)
I0403 12:45:09.014400 30742 net.cpp:156] Memory required for data: 61836400
I0403 12:45:09.014415 30742 layer_factory.hpp:77] Creating layer conv1
I0403 12:45:09.014451 30742 net.cpp:91] Creating Layer conv1
I0403 12:45:09.014470 30742 net.cpp:425] conv1 <- data
I0403 12:45:09.014490 30742 net.cpp:399] conv1 -> conv1
I0403 12:45:09.158416 30742 net.cpp:141] Setting up conv1
I0403 12:45:09.158504 30742 net.cpp:148] Top shape: 100 96 55 55 (29040000)
I0403 12:45:09.158522 30742 net.cpp:156] Memory required for data: 177996400
I0403 12:45:09.158553 30742 layer_factory.hpp:77] Creating layer relu1
I0403 12:45:09.158582 30742 net.cpp:91] Creating Layer relu1
I0403 12:45:09.158601 30742 net.cpp:425] relu1 <- conv1
I0403 12:45:09.158620 30742 net.cpp:386] relu1 -> conv1 (in-place)
I0403 12:45:09.158880 30742 net.cpp:141] Setting up relu1
I0403 12:45:09.158907 30742 net.cpp:148] Top shape: 100 96 55 55 (29040000)
I0403 12:45:09.158953 30742 net.cpp:156] Memory required for data: 294156400
I0403 12:45:09.158970 30742 layer_factory.hpp:77] Creating layer norm1
I0403 12:45:09.158998 30742 net.cpp:91] Creating Layer norm1
I0403 12:45:09.159018 30742 net.cpp:425] norm1 <- conv1
I0403 12:45:09.159037 30742 net.cpp:399] norm1 -> norm1
I0403 12:45:09.159360 30742 net.cpp:141] Setting up norm1
I0403 12:45:09.159389 30742 net.cpp:148] Top shape: 100 96 55 55 (29040000)
I0403 12:45:09.159404 30742 net.cpp:156] Memory required for data: 410316400
I0403 12:45:09.159420 30742 layer_factory.hpp:77] Creating layer pool1
I0403 12:45:09.159443 30742 net.cpp:91] Creating Layer pool1
I0403 12:45:09.159461 30742 net.cpp:425] pool1 <- norm1
I0403 12:45:09.159479 30742 net.cpp:399] pool1 -> pool1
I0403 12:45:09.159548 30742 net.cpp:141] Setting up pool1
I0403 12:45:09.159572 30742 net.cpp:148] Top shape: 100 96 27 27 (6998400)
I0403 12:45:09.159587 30742 net.cpp:156] Memory required for data: 438310000
I0403 12:45:09.159602 30742 layer_factory.hpp:77] Creating layer conv2
I0403 12:45:09.159626 30742 net.cpp:91] Creating Layer conv2
I0403 12:45:09.159643 30742 net.cpp:425] conv2 <- pool1
I0403 12:45:09.159662 30742 net.cpp:399] conv2 -> conv2
I0403 12:45:09.176661 30742 net.cpp:141] Setting up conv2
I0403 12:45:09.176710 30742 net.cpp:148] Top shape: 100 256 27 27 (18662400)
I0403 12:45:09.176728 30742 net.cpp:156] Memory required for data: 512959600
I0403 12:45:09.176750 30742 layer_factory.hpp:77] Creating layer relu2
I0403 12:45:09.176770 30742 net.cpp:91] Creating Layer relu2
I0403 12:45:09.176789 30742 net.cpp:425] relu2 <- conv2
I0403 12:45:09.176806 30742 net.cpp:386] relu2 -> conv2 (in-place)
I0403 12:45:09.177072 30742 net.cpp:141] Setting up relu2
I0403 12:45:09.177099 30742 net.cpp:148] Top shape: 100 256 27 27 (18662400)
I0403 12:45:09.177115 30742 net.cpp:156] Memory required for data: 587609200
I0403 12:45:09.177131 30742 layer_factory.hpp:77] Creating layer norm2
I0403 12:45:09.177153 30742 net.cpp:91] Creating Layer norm2
I0403 12:45:09.177170 30742 net.cpp:425] norm2 <- conv2
I0403 12:45:09.177188 30742 net.cpp:399] norm2 -> norm2
I0403 12:45:09.177408 30742 net.cpp:141] Setting up norm2
I0403 12:45:09.177435 30742 net.cpp:148] Top shape: 100 256 27 27 (18662400)
I0403 12:45:09.177450 30742 net.cpp:156] Memory required for data: 662258800
I0403 12:45:09.177467 30742 layer_factory.hpp:77] Creating layer pool2
I0403 12:45:09.177486 30742 net.cpp:91] Creating Layer pool2
I0403 12:45:09.177502 30742 net.cpp:425] pool2 <- norm2
I0403 12:45:09.177520 30742 net.cpp:399] pool2 -> pool2
I0403 12:45:09.177569 30742 net.cpp:141] Setting up pool2
I0403 12:45:09.177593 30742 net.cpp:148] Top shape: 100 256 13 13 (4326400)
I0403 12:45:09.177608 30742 net.cpp:156] Memory required for data: 679564400
I0403 12:45:09.177623 30742 layer_factory.hpp:77] Creating layer conv3
I0403 12:45:09.177645 30742 net.cpp:91] Creating Layer conv3
I0403 12:45:09.177662 30742 net.cpp:425] conv3 <- pool2
I0403 12:45:09.177681 30742 net.cpp:399] conv3 -> conv3
I0403 12:45:09.216832 30742 net.cpp:141] Setting up conv3
I0403 12:45:09.216918 30742 net.cpp:148] Top shape: 100 384 13 13 (6489600)
I0403 12:45:09.216936 30742 net.cpp:156] Memory required for data: 705522800
I0403 12:45:09.216963 30742 layer_factory.hpp:77] Creating layer relu3
I0403 12:45:09.216985 30742 net.cpp:91] Creating Layer relu3
I0403 12:45:09.217005 30742 net.cpp:425] relu3 <- conv3
I0403 12:45:09.217025 30742 net.cpp:386] relu3 -> conv3 (in-place)
I0403 12:45:09.217308 30742 net.cpp:141] Setting up relu3
I0403 12:45:09.217335 30742 net.cpp:148] Top shape: 100 384 13 13 (6489600)
I0403 12:45:09.217351 30742 net.cpp:156] Memory required for data: 731481200
I0403 12:45:09.217367 30742 layer_factory.hpp:77] Creating layer conv4
I0403 12:45:09.217393 30742 net.cpp:91] Creating Layer conv4
I0403 12:45:09.217411 30742 net.cpp:425] conv4 <- conv3
I0403 12:45:09.217433 30742 net.cpp:399] conv4 -> conv4
I0403 12:45:09.248288 30742 net.cpp:141] Setting up conv4
I0403 12:45:09.248370 30742 net.cpp:148] Top shape: 100 384 13 13 (6489600)
I0403 12:45:09.248423 30742 net.cpp:156] Memory required for data: 757439600
I0403 12:45:09.248446 30742 layer_factory.hpp:77] Creating layer relu4
I0403 12:45:09.248471 30742 net.cpp:91] Creating Layer relu4
I0403 12:45:09.248487 30742 net.cpp:425] relu4 <- conv4
I0403 12:45:09.248508 30742 net.cpp:386] relu4 -> conv4 (in-place)
I0403 12:45:09.248843 30742 net.cpp:141] Setting up relu4
I0403 12:45:09.248874 30742 net.cpp:148] Top shape: 100 384 13 13 (6489600)
I0403 12:45:09.248890 30742 net.cpp:156] Memory required for data: 783398000
I0403 12:45:09.248906 30742 layer_factory.hpp:77] Creating layer conv5
I0403 12:45:09.248932 30742 net.cpp:91] Creating Layer conv5
I0403 12:45:09.248950 30742 net.cpp:425] conv5 <- conv4
I0403 12:45:09.248970 30742 net.cpp:399] conv5 -> conv5
I0403 12:45:09.269965 30742 net.cpp:141] Setting up conv5
I0403 12:45:09.270030 30742 net.cpp:148] Top shape: 100 256 13 13 (4326400)
I0403 12:45:09.270051 30742 net.cpp:156] Memory required for data: 800703600
I0403 12:45:09.270076 30742 layer_factory.hpp:77] Creating layer relu5
I0403 12:45:09.270100 30742 net.cpp:91] Creating Layer relu5
I0403 12:45:09.270118 30742 net.cpp:425] relu5 <- conv5
I0403 12:45:09.270140 30742 net.cpp:386] relu5 -> conv5 (in-place)
I0403 12:45:09.270427 30742 net.cpp:141] Setting up relu5
I0403 12:45:09.270455 30742 net.cpp:148] Top shape: 100 256 13 13 (4326400)
I0403 12:45:09.270472 30742 net.cpp:156] Memory required for data: 818009200
I0403 12:45:09.270488 30742 layer_factory.hpp:77] Creating layer pool5
I0403 12:45:09.270511 30742 net.cpp:91] Creating Layer pool5
I0403 12:45:09.270529 30742 net.cpp:425] pool5 <- conv5
I0403 12:45:09.270547 30742 net.cpp:399] pool5 -> pool5
I0403 12:45:09.270611 30742 net.cpp:141] Setting up pool5
I0403 12:45:09.270634 30742 net.cpp:148] Top shape: 100 256 6 6 (921600)
I0403 12:45:09.270649 30742 net.cpp:156] Memory required for data: 821695600
I0403 12:45:09.270663 30742 layer_factory.hpp:77] Creating layer fc6
I0403 12:45:09.270691 30742 net.cpp:91] Creating Layer fc6
I0403 12:45:09.270709 30742 net.cpp:425] fc6 <- pool5
I0403 12:45:09.270730 30742 net.cpp:399] fc6 -> fc6
I0403 12:45:10.846707 30742 net.cpp:141] Setting up fc6
I0403 12:45:10.846792 30742 net.cpp:148] Top shape: 100 4096 (409600)
I0403 12:45:10.846810 30742 net.cpp:156] Memory required for data: 823334000
I0403 12:45:10.846833 30742 layer_factory.hpp:77] Creating layer relu6
I0403 12:45:10.846856 30742 net.cpp:91] Creating Layer relu6
I0403 12:45:10.846875 30742 net.cpp:425] relu6 <- fc6
I0403 12:45:10.846895 30742 net.cpp:386] relu6 -> fc6 (in-place)
I0403 12:45:10.847132 30742 net.cpp:141] Setting up relu6
I0403 12:45:10.847162 30742 net.cpp:148] Top shape: 100 4096 (409600)
I0403 12:45:10.847178 30742 net.cpp:156] Memory required for data: 824972400
I0403 12:45:10.847194 30742 layer_factory.hpp:77] Creating layer drop6
I0403 12:45:10.847219 30742 net.cpp:91] Creating Layer drop6
I0403 12:45:10.847237 30742 net.cpp:425] drop6 <- fc6
I0403 12:45:10.847259 30742 net.cpp:386] drop6 -> fc6 (in-place)
I0403 12:45:10.847312 30742 net.cpp:141] Setting up drop6
I0403 12:45:10.847337 30742 net.cpp:148] Top shape: 100 4096 (409600)
I0403 12:45:10.847352 30742 net.cpp:156] Memory required for data: 826610800
I0403 12:45:10.847367 30742 layer_factory.hpp:77] Creating layer fc7
I0403 12:45:10.847390 30742 net.cpp:91] Creating Layer fc7
I0403 12:45:10.847409 30742 net.cpp:425] fc7 <- fc6
I0403 12:45:10.847429 30742 net.cpp:399] fc7 -> fc7
I0403 12:45:11.554888 30742 net.cpp:141] Setting up fc7
I0403 12:45:11.554930 30742 net.cpp:148] Top shape: 100 4096 (409600)
I0403 12:45:11.554947 30742 net.cpp:156] Memory required for data: 828249200
I0403 12:45:11.554967 30742 layer_factory.hpp:77] Creating layer relu7
I0403 12:45:11.554989 30742 net.cpp:91] Creating Layer relu7
I0403 12:45:11.555006 30742 net.cpp:425] relu7 <- fc7
I0403 12:45:11.555027 30742 net.cpp:386] relu7 -> fc7 (in-place)
I0403 12:45:11.555444 30742 net.cpp:141] Setting up relu7
I0403 12:45:11.555469 30742 net.cpp:148] Top shape: 100 4096 (409600)
I0403 12:45:11.555516 30742 net.cpp:156] Memory required for data: 829887600
I0403 12:45:11.555532 30742 layer_factory.hpp:77] Creating layer drop7
I0403 12:45:11.555551 30742 net.cpp:91] Creating Layer drop7
I0403 12:45:11.555567 30742 net.cpp:425] drop7 <- fc7
I0403 12:45:11.555585 30742 net.cpp:386] drop7 -> fc7 (in-place)
I0403 12:45:11.555629 30742 net.cpp:141] Setting up drop7
I0403 12:45:11.555651 30742 net.cpp:148] Top shape: 100 4096 (409600)
I0403 12:45:11.555668 30742 net.cpp:156] Memory required for data: 831526000
I0403 12:45:11.555696 30742 layer_factory.hpp:77] Creating layer fc8_plantvillage
I0403 12:45:11.555714 30742 net.cpp:91] Creating Layer fc8_plantvillage
I0403 12:45:11.555729 30742 net.cpp:425] fc8_plantvillage <- fc7
I0403 12:45:11.555749 30742 net.cpp:399] fc8_plantvillage -> fc8_plantvillage
I0403 12:45:11.562425 30742 net.cpp:141] Setting up fc8_plantvillage
I0403 12:45:11.562453 30742 net.cpp:148] Top shape: 100 38 (3800)
I0403 12:45:11.562468 30742 net.cpp:156] Memory required for data: 831541200
I0403 12:45:11.562485 30742 layer_factory.hpp:77] Creating layer fc8_plantvillage_fc8_plantvillage_0_split
I0403 12:45:11.562504 30742 net.cpp:91] Creating Layer fc8_plantvillage_fc8_plantvillage_0_split
I0403 12:45:11.562518 30742 net.cpp:425] fc8_plantvillage_fc8_plantvillage_0_split <- fc8_plantvillage
I0403 12:45:11.562537 30742 net.cpp:399] fc8_plantvillage_fc8_plantvillage_0_split -> fc8_plantvillage_fc8_plantvillage_0_split_0
I0403 12:45:11.562557 30742 net.cpp:399] fc8_plantvillage_fc8_plantvillage_0_split -> fc8_plantvillage_fc8_plantvillage_0_split_1
I0403 12:45:11.562577 30742 net.cpp:399] fc8_plantvillage_fc8_plantvillage_0_split -> fc8_plantvillage_fc8_plantvillage_0_split_2
I0403 12:45:11.562654 30742 net.cpp:141] Setting up fc8_plantvillage_fc8_plantvillage_0_split
I0403 12:45:11.562679 30742 net.cpp:148] Top shape: 100 38 (3800)
I0403 12:45:11.562695 30742 net.cpp:148] Top shape: 100 38 (3800)
I0403 12:45:11.562710 30742 net.cpp:148] Top shape: 100 38 (3800)
I0403 12:45:11.562722 30742 net.cpp:156] Memory required for data: 831586800
I0403 12:45:11.562736 30742 layer_factory.hpp:77] Creating layer prob
I0403 12:45:11.562754 30742 net.cpp:91] Creating Layer prob
I0403 12:45:11.562769 30742 net.cpp:425] prob <- fc8_plantvillage_fc8_plantvillage_0_split_0
I0403 12:45:11.562786 30742 net.cpp:399] prob -> prob
I0403 12:45:11.563014 30742 net.cpp:141] Setting up prob
I0403 12:45:11.563041 30742 net.cpp:148] Top shape: 100 38 (3800)
I0403 12:45:11.563056 30742 net.cpp:156] Memory required for data: 831602000
I0403 12:45:11.563071 30742 layer_factory.hpp:77] Creating layer hdf5out
I0403 12:45:11.563091 30742 net.cpp:91] Creating Layer hdf5out
I0403 12:45:11.563107 30742 net.cpp:425] hdf5out <- prob
I0403 12:45:11.563122 30742 net.cpp:425] hdf5out <- label_data_1_split_0
I0403 12:45:11.565557 30742 net.cpp:141] Setting up hdf5out
…
