…
I0403 12:44:02.532084 30716 net.cpp:313] The NetState phase (1) differed from the phase (0) specified by a rule in layer data
I0403 12:44:02.532393 30716 net.cpp:49] Initializing net from parameters: 
state {
  phase: TEST
}
layer {
  name: "data"
  type: "Data"
  top: "data"
  top: "label"
  include {
    phase: TEST
  }
  transform_param {
    crop_size: 227
    mean_file: "/home/mohanty/data/final_dataset/lmdb/grayscale-40-60/mean.binaryproto"
  }
  data_param {
    source: "/home/mohanty/data/final_dataset/lmdb/grayscale-40-60/test_db"
    batch_size: 100
    backend: LMDB
  }
}
layer {
  name: "conv1"
  type: "Convolution"
  bottom: "data"
  top: "conv1"
  param {
    lr_mult: 1
    decay_mult: 1
  }
  param {
    lr_mult: 2
    decay_mult: 0
  }
  convolution_param {
    num_output: 96
    kernel_size: 11
    stride: 4
    weight_filler {
      type: "gaussian"
      std: 0.01
    }
    bias_filler {
      type: "constant"
      value: 0
    }
  }
}
layer {
  name: "relu1"
  type: "ReLU"
  bottom: "conv1"
  top: "conv1"
}
layer {
  name: "norm1"
  type: "LRN"
  bottom: "conv1"
  top: "norm1"
  lrn_param {
    local_size: 5
    alpha: 0.0001
    beta: 0.75
  }
}
layer {
  name: "pool1"
  type: "Pooling"
  bottom: "norm1"
  top: "pool1"
  pooling_param {
    pool: MAX
    kernel_size: 3
    stride: 2
  }
}
layer {
  name: "conv2"
  type: "Convolution"
  bottom: "pool1"
  top: "conv2"
  param {
    lr_mult: 1
    decay_mult: 1
  }
  param {
    lr_mult: 2
    decay_mult: 0
  }
  convolution_param {
    num_output: 256
    pad: 2
    kernel_size: 5
    group: 2
    weight_filler {
      type: "gaussian"
      std: 0.01
    }
    bias_filler {
      type: "constant"
      value: 0.1
    }
  }
}
layer {
  name: "relu2"
  type: "ReLU"
  bottom: "conv2"
  top: "conv2"
}
layer {
  name: "norm2"
  type: "LRN"
  bottom: "conv2"
  top: "norm2"
  lrn_param {
    local_size: 5
    alpha: 0.0001
    beta: 0.75
  }
}
layer {
  name: "pool2"
  type: "Pooling"
  bottom: "norm2"
  top: "pool2"
  pooling_param {
    pool: MAX
    kernel_size: 3
    stride: 2
  }
}
layer {
  name: "conv3"
  type: "Convolution"
  bottom: "pool2"
  top: "conv3"
  param {
    lr_mult: 1
    decay_mult: 1
  }
  param {
    lr_mult: 2
    decay_mult: 0
  }
  convolution_param {
    num_output: 384
    pad: 1
    kernel_size: 3
    weight_filler {
      type: "gaussian"
      std: 0.01
    }
    bias_filler {
      type: "constant"
      value: 0
    }
  }
}
layer {
  name: "relu3"
  type: "ReLU"
  bottom: "conv3"
  top: "conv3"
}
layer {
  name: "conv4"
  type: "Convolution"
  bottom: "conv3"
  top: "conv4"
  param {
    lr_mult: 1
    decay_mult: 1
  }
  param {
    lr_mult: 2
    decay_mult: 0
  }
  convolution_param {
    num_output: 384
    pad: 1
    kernel_size: 3
    group: 2
    weight_filler {
      type: "gaussian"
      std: 0.01
    }
    bias_filler {
      type: "constant"
      value: 0.1
    }
  }
}
layer {
  name: "relu4"
  type: "ReLU"
  bottom: "conv4"
  top: "conv4"
}
layer {
  name: "conv5"
  type: "Convolution"
  bottom: "conv4"
  top: "conv5"
  param {
    lr_mult: 1
    decay_mult: 1
  }
  param {
    lr_mult: 2
    decay_mult: 0
  }
  convolution_param {
    num_output: 256
    pad: 1
    kernel_size: 3
    group: 2
    weight_filler {
      type: "gaussian"
      std: 0.01
    }
    bias_filler {
      type: "constant"
      value: 0.1
    }
  }
}
layer {
  name: "relu5"
  type: "ReLU"
  bottom: "conv5"
  top: "conv5"
}
layer {
  name: "pool5"
  type: "Pooling"
  bottom: "conv5"
  top: "pool5"
  pooling_param {
    pool: MAX
    kernel_size: 3
    stride: 2
  }
}
layer {
  name: "fc6"
  type: "InnerProduct"
  bottom: "pool5"
  top: "fc6"
  param {
    lr_mult: 1
    decay_mult: 1
  }
  param {
    lr_mult: 2
    decay_mult: 0
  }
  inner_product_param {
    num_output: 4096
    weight_filler {
      type: "gaussian"
      std: 0.005
    }
    bias_filler {
      type: "constant"
      value: 0.1
    }
  }
}
layer {
  name: "relu6"
  type: "ReLU"
  bottom: "fc6"
  top: "fc6"
}
layer {
  name: "drop6"
  type: "Dropout"
  bottom: "fc6"
  top: "fc6"
  dropout_param {
    dropout_ratio: 0.5
  }
}
layer {
  name: "fc7"
  type: "InnerProduct"
  bottom: "fc6"
  top: "fc7"
  param {
    lr_mult: 1
    decay_mult: 1
  }
  param {
    lr_mult: 2
    decay_mult: 0
  }
  inner_product_param {
    num_output: 4096
    weight_filler {
      type: "gaussian"
      std: 0.005
    }
    bias_filler {
      type: "constant"
      value: 0.1
    }
  }
}
layer {
  name: "relu7"
  type: "ReLU"
  bottom: "fc7"
  top: "fc7"
}
layer {
  name: "drop7"
  type: "Dropout"
  bottom: "fc7"
  top: "fc7"
  dropout_param {
    dropout_ratio: 0.5
  }
}
layer {
  name: "fc8_plantvillage"
  type: "InnerProduct"
  bottom: "fc7"
  top: "fc8_plantvillage"
  param {
    lr_mult: 1
    decay_mult: 1
  }
  param {
    lr_mult: 2
    decay_mult: 0
  }
  inner_product_param {
    num_output: 38
    weight_filler {
      type: "gaussian"
      std: 0.01
    }
    bias_filler {
      type: "constant"
      value: 0
    }
  }
}
layer {
  name: "prob"
  type: "Softmax"
  bottom: "fc8_plantvillage"
  top: "prob"
  include {
    phase: TEST
  }
}
layer {
  name: "hdf5out"
  type: "HDF5Output"
  bottom: "prob"
  bottom: "label"
  include {
    phase: TEST
  }
  hdf5_output_param {
    file_name: "hdf5_dumps/iter_2190.h5"
  }
}
layer {
  name: "loss"
  type: "SoftmaxWithLoss"
  bottom: "fc8_plantvillage"
  bottom: "label"
  top: "loss"
}
layer {
  name: "accuracy"
  type: "Accuracy"
  bottom: "fc8_plantvillage"
  bottom: "label"
  top: "accuracy"
  include {
    phase: TEST
  }
}
I0403 12:44:02.532908 30716 layer_factory.hpp:77] Creating layer data
I0403 12:44:02.533571 30716 net.cpp:91] Creating Layer data
I0403 12:44:02.533603 30716 net.cpp:399] data -> data
I0403 12:44:02.533653 30716 net.cpp:399] data -> label
I0403 12:44:02.533690 30716 data_transformer.cpp:25] Loading mean file from: /home/mohanty/data/final_dataset/lmdb/grayscale-40-60/mean.binaryproto
I0403 12:44:02.536666 30719 db_lmdb.cpp:38] Opened lmdb /home/mohanty/data/final_dataset/lmdb/grayscale-40-60/test_db
I0403 12:44:02.548271 30716 data_layer.cpp:41] output data size: 100,3,227,227
I0403 12:44:02.668372 30716 net.cpp:141] Setting up data
I0403 12:44:02.668478 30716 net.cpp:148] Top shape: 100 3 227 227 (15458700)
I0403 12:44:02.668503 30716 net.cpp:148] Top shape: 100 (100)
I0403 12:44:02.668517 30716 net.cpp:156] Memory required for data: 61835200
I0403 12:44:02.668545 30716 layer_factory.hpp:77] Creating layer label_data_1_split
I0403 12:44:02.668570 30716 net.cpp:91] Creating Layer label_data_1_split
I0403 12:44:02.668588 30716 net.cpp:425] label_data_1_split <- label
I0403 12:44:02.668622 30716 net.cpp:399] label_data_1_split -> label_data_1_split_0
I0403 12:44:02.668648 30716 net.cpp:399] label_data_1_split -> label_data_1_split_1
I0403 12:44:02.668669 30716 net.cpp:399] label_data_1_split -> label_data_1_split_2
I0403 12:44:02.668735 30716 net.cpp:141] Setting up label_data_1_split
I0403 12:44:02.668757 30716 net.cpp:148] Top shape: 100 (100)
I0403 12:44:02.668774 30716 net.cpp:148] Top shape: 100 (100)
I0403 12:44:02.668792 30716 net.cpp:148] Top shape: 100 (100)
I0403 12:44:02.668805 30716 net.cpp:156] Memory required for data: 61836400
I0403 12:44:02.668820 30716 layer_factory.hpp:77] Creating layer conv1
I0403 12:44:02.668854 30716 net.cpp:91] Creating Layer conv1
I0403 12:44:02.668872 30716 net.cpp:425] conv1 <- data
I0403 12:44:02.668892 30716 net.cpp:399] conv1 -> conv1
I0403 12:44:02.814260 30716 net.cpp:141] Setting up conv1
I0403 12:44:02.814348 30716 net.cpp:148] Top shape: 100 96 55 55 (29040000)
I0403 12:44:02.814366 30716 net.cpp:156] Memory required for data: 177996400
I0403 12:44:02.814399 30716 layer_factory.hpp:77] Creating layer relu1
I0403 12:44:02.814429 30716 net.cpp:91] Creating Layer relu1
I0403 12:44:02.814447 30716 net.cpp:425] relu1 <- conv1
I0403 12:44:02.814467 30716 net.cpp:386] relu1 -> conv1 (in-place)
I0403 12:44:02.814746 30716 net.cpp:141] Setting up relu1
I0403 12:44:02.814774 30716 net.cpp:148] Top shape: 100 96 55 55 (29040000)
I0403 12:44:02.814821 30716 net.cpp:156] Memory required for data: 294156400
I0403 12:44:02.814837 30716 layer_factory.hpp:77] Creating layer norm1
I0403 12:44:02.814865 30716 net.cpp:91] Creating Layer norm1
I0403 12:44:02.814883 30716 net.cpp:425] norm1 <- conv1
I0403 12:44:02.814901 30716 net.cpp:399] norm1 -> norm1
I0403 12:44:02.815217 30716 net.cpp:141] Setting up norm1
I0403 12:44:02.815244 30716 net.cpp:148] Top shape: 100 96 55 55 (29040000)
I0403 12:44:02.815260 30716 net.cpp:156] Memory required for data: 410316400
I0403 12:44:02.815275 30716 layer_factory.hpp:77] Creating layer pool1
I0403 12:44:02.815299 30716 net.cpp:91] Creating Layer pool1
I0403 12:44:02.815317 30716 net.cpp:425] pool1 <- norm1
I0403 12:44:02.815335 30716 net.cpp:399] pool1 -> pool1
I0403 12:44:02.815403 30716 net.cpp:141] Setting up pool1
I0403 12:44:02.815428 30716 net.cpp:148] Top shape: 100 96 27 27 (6998400)
I0403 12:44:02.815443 30716 net.cpp:156] Memory required for data: 438310000
I0403 12:44:02.815457 30716 layer_factory.hpp:77] Creating layer conv2
I0403 12:44:02.815481 30716 net.cpp:91] Creating Layer conv2
I0403 12:44:02.815497 30716 net.cpp:425] conv2 <- pool1
I0403 12:44:02.815515 30716 net.cpp:399] conv2 -> conv2
I0403 12:44:02.830790 30716 net.cpp:141] Setting up conv2
I0403 12:44:02.830842 30716 net.cpp:148] Top shape: 100 256 27 27 (18662400)
I0403 12:44:02.830858 30716 net.cpp:156] Memory required for data: 512959600
I0403 12:44:02.830883 30716 layer_factory.hpp:77] Creating layer relu2
I0403 12:44:02.830904 30716 net.cpp:91] Creating Layer relu2
I0403 12:44:02.830919 30716 net.cpp:425] relu2 <- conv2
I0403 12:44:02.830937 30716 net.cpp:386] relu2 -> conv2 (in-place)
I0403 12:44:02.831207 30716 net.cpp:141] Setting up relu2
I0403 12:44:02.831239 30716 net.cpp:148] Top shape: 100 256 27 27 (18662400)
I0403 12:44:02.831254 30716 net.cpp:156] Memory required for data: 587609200
I0403 12:44:02.831269 30716 layer_factory.hpp:77] Creating layer norm2
I0403 12:44:02.831291 30716 net.cpp:91] Creating Layer norm2
I0403 12:44:02.831307 30716 net.cpp:425] norm2 <- conv2
I0403 12:44:02.831326 30716 net.cpp:399] norm2 -> norm2
I0403 12:44:02.831512 30716 net.cpp:141] Setting up norm2
I0403 12:44:02.831538 30716 net.cpp:148] Top shape: 100 256 27 27 (18662400)
I0403 12:44:02.831554 30716 net.cpp:156] Memory required for data: 662258800
I0403 12:44:02.831569 30716 layer_factory.hpp:77] Creating layer pool2
I0403 12:44:02.831589 30716 net.cpp:91] Creating Layer pool2
I0403 12:44:02.831604 30716 net.cpp:425] pool2 <- norm2
I0403 12:44:02.831624 30716 net.cpp:399] pool2 -> pool2
I0403 12:44:02.831676 30716 net.cpp:141] Setting up pool2
I0403 12:44:02.831698 30716 net.cpp:148] Top shape: 100 256 13 13 (4326400)
I0403 12:44:02.831712 30716 net.cpp:156] Memory required for data: 679564400
I0403 12:44:02.831727 30716 layer_factory.hpp:77] Creating layer conv3
I0403 12:44:02.831749 30716 net.cpp:91] Creating Layer conv3
I0403 12:44:02.831765 30716 net.cpp:425] conv3 <- pool2
I0403 12:44:02.831784 30716 net.cpp:399] conv3 -> conv3
I0403 12:44:02.872556 30716 net.cpp:141] Setting up conv3
I0403 12:44:02.872602 30716 net.cpp:148] Top shape: 100 384 13 13 (6489600)
I0403 12:44:02.872618 30716 net.cpp:156] Memory required for data: 705522800
I0403 12:44:02.872656 30716 layer_factory.hpp:77] Creating layer relu3
I0403 12:44:02.872679 30716 net.cpp:91] Creating Layer relu3
I0403 12:44:02.872697 30716 net.cpp:425] relu3 <- conv3
I0403 12:44:02.872717 30716 net.cpp:386] relu3 -> conv3 (in-place)
I0403 12:44:02.873005 30716 net.cpp:141] Setting up relu3
I0403 12:44:02.873035 30716 net.cpp:148] Top shape: 100 384 13 13 (6489600)
I0403 12:44:02.873051 30716 net.cpp:156] Memory required for data: 731481200
I0403 12:44:02.873066 30716 layer_factory.hpp:77] Creating layer conv4
I0403 12:44:02.873091 30716 net.cpp:91] Creating Layer conv4
I0403 12:44:02.873107 30716 net.cpp:425] conv4 <- conv3
I0403 12:44:02.873126 30716 net.cpp:399] conv4 -> conv4
I0403 12:44:02.902652 30716 net.cpp:141] Setting up conv4
I0403 12:44:02.902731 30716 net.cpp:148] Top shape: 100 384 13 13 (6489600)
I0403 12:44:02.902777 30716 net.cpp:156] Memory required for data: 757439600
I0403 12:44:02.902798 30716 layer_factory.hpp:77] Creating layer relu4
I0403 12:44:02.902823 30716 net.cpp:91] Creating Layer relu4
I0403 12:44:02.902842 30716 net.cpp:425] relu4 <- conv4
I0403 12:44:02.902859 30716 net.cpp:386] relu4 -> conv4 (in-place)
I0403 12:44:02.903134 30716 net.cpp:141] Setting up relu4
I0403 12:44:02.903161 30716 net.cpp:148] Top shape: 100 384 13 13 (6489600)
I0403 12:44:02.903175 30716 net.cpp:156] Memory required for data: 783398000
I0403 12:44:02.903190 30716 layer_factory.hpp:77] Creating layer conv5
I0403 12:44:02.903226 30716 net.cpp:91] Creating Layer conv5
I0403 12:44:02.903246 30716 net.cpp:425] conv5 <- conv4
I0403 12:44:02.903270 30716 net.cpp:399] conv5 -> conv5
I0403 12:44:02.923634 30716 net.cpp:141] Setting up conv5
I0403 12:44:02.923691 30716 net.cpp:148] Top shape: 100 256 13 13 (4326400)
I0403 12:44:02.923709 30716 net.cpp:156] Memory required for data: 800703600
I0403 12:44:02.923735 30716 layer_factory.hpp:77] Creating layer relu5
I0403 12:44:02.923756 30716 net.cpp:91] Creating Layer relu5
I0403 12:44:02.923773 30716 net.cpp:425] relu5 <- conv5
I0403 12:44:02.923790 30716 net.cpp:386] relu5 -> conv5 (in-place)
I0403 12:44:02.924074 30716 net.cpp:141] Setting up relu5
I0403 12:44:02.924101 30716 net.cpp:148] Top shape: 100 256 13 13 (4326400)
I0403 12:44:02.924118 30716 net.cpp:156] Memory required for data: 818009200
I0403 12:44:02.924132 30716 layer_factory.hpp:77] Creating layer pool5
I0403 12:44:02.924154 30716 net.cpp:91] Creating Layer pool5
I0403 12:44:02.924170 30716 net.cpp:425] pool5 <- conv5
I0403 12:44:02.924196 30716 net.cpp:399] pool5 -> pool5
I0403 12:44:02.924269 30716 net.cpp:141] Setting up pool5
I0403 12:44:02.924293 30716 net.cpp:148] Top shape: 100 256 6 6 (921600)
I0403 12:44:02.924307 30716 net.cpp:156] Memory required for data: 821695600
I0403 12:44:02.924322 30716 layer_factory.hpp:77] Creating layer fc6
I0403 12:44:02.924351 30716 net.cpp:91] Creating Layer fc6
I0403 12:44:02.924370 30716 net.cpp:425] fc6 <- pool5
I0403 12:44:02.924389 30716 net.cpp:399] fc6 -> fc6
I0403 12:44:04.487493 30716 net.cpp:141] Setting up fc6
I0403 12:44:04.487539 30716 net.cpp:148] Top shape: 100 4096 (409600)
I0403 12:44:04.487553 30716 net.cpp:156] Memory required for data: 823334000
I0403 12:44:04.487574 30716 layer_factory.hpp:77] Creating layer relu6
I0403 12:44:04.487597 30716 net.cpp:91] Creating Layer relu6
I0403 12:44:04.487615 30716 net.cpp:425] relu6 <- fc6
I0403 12:44:04.487634 30716 net.cpp:386] relu6 -> fc6 (in-place)
I0403 12:44:04.487864 30716 net.cpp:141] Setting up relu6
I0403 12:44:04.487890 30716 net.cpp:148] Top shape: 100 4096 (409600)
I0403 12:44:04.487905 30716 net.cpp:156] Memory required for data: 824972400
I0403 12:44:04.487920 30716 layer_factory.hpp:77] Creating layer drop6
I0403 12:44:04.487939 30716 net.cpp:91] Creating Layer drop6
I0403 12:44:04.487953 30716 net.cpp:425] drop6 <- fc6
I0403 12:44:04.487970 30716 net.cpp:386] drop6 -> fc6 (in-place)
I0403 12:44:04.488023 30716 net.cpp:141] Setting up drop6
I0403 12:44:04.488044 30716 net.cpp:148] Top shape: 100 4096 (409600)
I0403 12:44:04.488057 30716 net.cpp:156] Memory required for data: 826610800
I0403 12:44:04.488072 30716 layer_factory.hpp:77] Creating layer fc7
I0403 12:44:04.488106 30716 net.cpp:91] Creating Layer fc7
I0403 12:44:04.488119 30716 net.cpp:425] fc7 <- fc6
I0403 12:44:04.488137 30716 net.cpp:399] fc7 -> fc7
I0403 12:44:05.198333 30716 net.cpp:141] Setting up fc7
I0403 12:44:05.198418 30716 net.cpp:148] Top shape: 100 4096 (409600)
I0403 12:44:05.198434 30716 net.cpp:156] Memory required for data: 828249200
I0403 12:44:05.198457 30716 layer_factory.hpp:77] Creating layer relu7
I0403 12:44:05.198480 30716 net.cpp:91] Creating Layer relu7
I0403 12:44:05.198498 30716 net.cpp:425] relu7 <- fc7
I0403 12:44:05.198518 30716 net.cpp:386] relu7 -> fc7 (in-place)
I0403 12:44:05.198945 30716 net.cpp:141] Setting up relu7
I0403 12:44:05.198973 30716 net.cpp:148] Top shape: 100 4096 (409600)
I0403 12:44:05.199021 30716 net.cpp:156] Memory required for data: 829887600
I0403 12:44:05.199038 30716 layer_factory.hpp:77] Creating layer drop7
I0403 12:44:05.199056 30716 net.cpp:91] Creating Layer drop7
I0403 12:44:05.199072 30716 net.cpp:425] drop7 <- fc7
I0403 12:44:05.199091 30716 net.cpp:386] drop7 -> fc7 (in-place)
I0403 12:44:05.199136 30716 net.cpp:141] Setting up drop7
I0403 12:44:05.199159 30716 net.cpp:148] Top shape: 100 4096 (409600)
I0403 12:44:05.199174 30716 net.cpp:156] Memory required for data: 831526000
I0403 12:44:05.199188 30716 layer_factory.hpp:77] Creating layer fc8_plantvillage
I0403 12:44:05.199218 30716 net.cpp:91] Creating Layer fc8_plantvillage
I0403 12:44:05.199235 30716 net.cpp:425] fc8_plantvillage <- fc7
I0403 12:44:05.199259 30716 net.cpp:399] fc8_plantvillage -> fc8_plantvillage
I0403 12:44:05.206182 30716 net.cpp:141] Setting up fc8_plantvillage
I0403 12:44:05.206217 30716 net.cpp:148] Top shape: 100 38 (3800)
I0403 12:44:05.206233 30716 net.cpp:156] Memory required for data: 831541200
I0403 12:44:05.206253 30716 layer_factory.hpp:77] Creating layer fc8_plantvillage_fc8_plantvillage_0_split
I0403 12:44:05.206271 30716 net.cpp:91] Creating Layer fc8_plantvillage_fc8_plantvillage_0_split
I0403 12:44:05.206286 30716 net.cpp:425] fc8_plantvillage_fc8_plantvillage_0_split <- fc8_plantvillage
I0403 12:44:05.206306 30716 net.cpp:399] fc8_plantvillage_fc8_plantvillage_0_split -> fc8_plantvillage_fc8_plantvillage_0_split_0
I0403 12:44:05.206328 30716 net.cpp:399] fc8_plantvillage_fc8_plantvillage_0_split -> fc8_plantvillage_fc8_plantvillage_0_split_1
I0403 12:44:05.206348 30716 net.cpp:399] fc8_plantvillage_fc8_plantvillage_0_split -> fc8_plantvillage_fc8_plantvillage_0_split_2
I0403 12:44:05.206429 30716 net.cpp:141] Setting up fc8_plantvillage_fc8_plantvillage_0_split
I0403 12:44:05.206451 30716 net.cpp:148] Top shape: 100 38 (3800)
I0403 12:44:05.206468 30716 net.cpp:148] Top shape: 100 38 (3800)
I0403 12:44:05.206485 30716 net.cpp:148] Top shape: 100 38 (3800)
I0403 12:44:05.206499 30716 net.cpp:156] Memory required for data: 831586800
I0403 12:44:05.206513 30716 layer_factory.hpp:77] Creating layer prob
I0403 12:44:05.206532 30716 net.cpp:91] Creating Layer prob
I0403 12:44:05.206547 30716 net.cpp:425] prob <- fc8_plantvillage_fc8_plantvillage_0_split_0
I0403 12:44:05.206565 30716 net.cpp:399] prob -> prob
I0403 12:44:05.206797 30716 net.cpp:141] Setting up prob
I0403 12:44:05.206828 30716 net.cpp:148] Top shape: 100 38 (3800)
I0403 12:44:05.206845 30716 net.cpp:156] Memory required for data: 831602000
I0403 12:44:05.206859 30716 layer_factory.hpp:77] Creating layer hdf5out
I0403 12:44:05.206878 30716 net.cpp:91] Creating Layer hdf5out
I0403 12:44:05.206894 30716 net.cpp:425] hdf5out <- prob
I0403 12:44:05.206910 30716 net.cpp:425] hdf5out <- label_data_1_split_0
I0403 12:44:05.209111 30716 net.cpp:141] Setting up hdf5out
…
