…
I0403 12:55:06.935472 30998 net.cpp:313] The NetState phase (1) differed from the phase (0) specified by a rule in layer data
I0403 12:55:06.935787 30998 net.cpp:49] Initializing net from parameters: 
state {
  phase: TEST
}
layer {
  name: "data"
  type: "Data"
  top: "data"
  top: "label"
  include {
    phase: TEST
  }
  transform_param {
    crop_size: 227
    mean_file: "/home/mohanty/data/final_dataset/lmdb/grayscale-40-60/mean.binaryproto"
  }
  data_param {
    source: "/home/mohanty/data/final_dataset/lmdb/grayscale-40-60/test_db"
    batch_size: 100
    backend: LMDB
  }
}
layer {
  name: "conv1"
  type: "Convolution"
  bottom: "data"
  top: "conv1"
  param {
    lr_mult: 1
    decay_mult: 1
  }
  param {
    lr_mult: 2
    decay_mult: 0
  }
  convolution_param {
    num_output: 96
    kernel_size: 11
    stride: 4
    weight_filler {
      type: "gaussian"
      std: 0.01
    }
    bias_filler {
      type: "constant"
      value: 0
    }
  }
}
layer {
  name: "relu1"
  type: "ReLU"
  bottom: "conv1"
  top: "conv1"
}
layer {
  name: "norm1"
  type: "LRN"
  bottom: "conv1"
  top: "norm1"
  lrn_param {
    local_size: 5
    alpha: 0.0001
    beta: 0.75
  }
}
layer {
  name: "pool1"
  type: "Pooling"
  bottom: "norm1"
  top: "pool1"
  pooling_param {
    pool: MAX
    kernel_size: 3
    stride: 2
  }
}
layer {
  name: "conv2"
  type: "Convolution"
  bottom: "pool1"
  top: "conv2"
  param {
    lr_mult: 1
    decay_mult: 1
  }
  param {
    lr_mult: 2
    decay_mult: 0
  }
  convolution_param {
    num_output: 256
    pad: 2
    kernel_size: 5
    group: 2
    weight_filler {
      type: "gaussian"
      std: 0.01
    }
    bias_filler {
      type: "constant"
      value: 0.1
    }
  }
}
layer {
  name: "relu2"
  type: "ReLU"
  bottom: "conv2"
  top: "conv2"
}
layer {
  name: "norm2"
  type: "LRN"
  bottom: "conv2"
  top: "norm2"
  lrn_param {
    local_size: 5
    alpha: 0.0001
    beta: 0.75
  }
}
layer {
  name: "pool2"
  type: "Pooling"
  bottom: "norm2"
  top: "pool2"
  pooling_param {
    pool: MAX
    kernel_size: 3
    stride: 2
  }
}
layer {
  name: "conv3"
  type: "Convolution"
  bottom: "pool2"
  top: "conv3"
  param {
    lr_mult: 1
    decay_mult: 1
  }
  param {
    lr_mult: 2
    decay_mult: 0
  }
  convolution_param {
    num_output: 384
    pad: 1
    kernel_size: 3
    weight_filler {
      type: "gaussian"
      std: 0.01
    }
    bias_filler {
      type: "constant"
      value: 0
    }
  }
}
layer {
  name: "relu3"
  type: "ReLU"
  bottom: "conv3"
  top: "conv3"
}
layer {
  name: "conv4"
  type: "Convolution"
  bottom: "conv3"
  top: "conv4"
  param {
    lr_mult: 1
    decay_mult: 1
  }
  param {
    lr_mult: 2
    decay_mult: 0
  }
  convolution_param {
    num_output: 384
    pad: 1
    kernel_size: 3
    group: 2
    weight_filler {
      type: "gaussian"
      std: 0.01
    }
    bias_filler {
      type: "constant"
      value: 0.1
    }
  }
}
layer {
  name: "relu4"
  type: "ReLU"
  bottom: "conv4"
  top: "conv4"
}
layer {
  name: "conv5"
  type: "Convolution"
  bottom: "conv4"
  top: "conv5"
  param {
    lr_mult: 1
    decay_mult: 1
  }
  param {
    lr_mult: 2
    decay_mult: 0
  }
  convolution_param {
    num_output: 256
    pad: 1
    kernel_size: 3
    group: 2
    weight_filler {
      type: "gaussian"
      std: 0.01
    }
    bias_filler {
      type: "constant"
      value: 0.1
    }
  }
}
layer {
  name: "relu5"
  type: "ReLU"
  bottom: "conv5"
  top: "conv5"
}
layer {
  name: "pool5"
  type: "Pooling"
  bottom: "conv5"
  top: "pool5"
  pooling_param {
    pool: MAX
    kernel_size: 3
    stride: 2
  }
}
layer {
  name: "fc6"
  type: "InnerProduct"
  bottom: "pool5"
  top: "fc6"
  param {
    lr_mult: 1
    decay_mult: 1
  }
  param {
    lr_mult: 2
    decay_mult: 0
  }
  inner_product_param {
    num_output: 4096
    weight_filler {
      type: "gaussian"
      std: 0.005
    }
    bias_filler {
      type: "constant"
      value: 0.1
    }
  }
}
layer {
  name: "relu6"
  type: "ReLU"
  bottom: "fc6"
  top: "fc6"
}
layer {
  name: "drop6"
  type: "Dropout"
  bottom: "fc6"
  top: "fc6"
  dropout_param {
    dropout_ratio: 0.5
  }
}
layer {
  name: "fc7"
  type: "InnerProduct"
  bottom: "fc6"
  top: "fc7"
  param {
    lr_mult: 1
    decay_mult: 1
  }
  param {
    lr_mult: 2
    decay_mult: 0
  }
  inner_product_param {
    num_output: 4096
    weight_filler {
      type: "gaussian"
      std: 0.005
    }
    bias_filler {
      type: "constant"
      value: 0.1
    }
  }
}
layer {
  name: "relu7"
  type: "ReLU"
  bottom: "fc7"
  top: "fc7"
}
layer {
  name: "drop7"
  type: "Dropout"
  bottom: "fc7"
  top: "fc7"
  dropout_param {
    dropout_ratio: 0.5
  }
}
layer {
  name: "fc8_plantvillage"
  type: "InnerProduct"
  bottom: "fc7"
  top: "fc8_plantvillage"
  param {
    lr_mult: 1
    decay_mult: 1
  }
  param {
    lr_mult: 2
    decay_mult: 0
  }
  inner_product_param {
    num_output: 38
    weight_filler {
      type: "gaussian"
      std: 0.01
    }
    bias_filler {
      type: "constant"
      value: 0
    }
  }
}
layer {
  name: "prob"
  type: "Softmax"
  bottom: "fc8_plantvillage"
  top: "prob"
  include {
    phase: TEST
  }
}
layer {
  name: "hdf5out"
  type: "HDF5Output"
  bottom: "prob"
  bottom: "label"
  include {
    phase: TEST
  }
  hdf5_output_param {
    file_name: "hdf5_dumps/iter_4380.h5"
  }
}
layer {
  name: "loss"
  type: "SoftmaxWithLoss"
  bottom: "fc8_plantvillage"
  bottom: "label"
  top: "loss"
}
layer {
  name: "accuracy"
  type: "Accuracy"
  bottom: "fc8_plantvillage"
  bottom: "label"
  top: "accuracy"
  include {
    phase: TEST
  }
}
I0403 12:55:06.936499 30998 layer_factory.hpp:77] Creating layer data
I0403 12:55:06.937137 30998 net.cpp:91] Creating Layer data
I0403 12:55:06.937170 30998 net.cpp:399] data -> data
I0403 12:55:06.937224 30998 net.cpp:399] data -> label
I0403 12:55:06.937263 30998 data_transformer.cpp:25] Loading mean file from: /home/mohanty/data/final_dataset/lmdb/grayscale-40-60/mean.binaryproto
I0403 12:55:06.940076 31001 db_lmdb.cpp:38] Opened lmdb /home/mohanty/data/final_dataset/lmdb/grayscale-40-60/test_db
I0403 12:55:06.952113 30998 data_layer.cpp:41] output data size: 100,3,227,227
I0403 12:55:07.073225 30998 net.cpp:141] Setting up data
I0403 12:55:07.073297 30998 net.cpp:148] Top shape: 100 3 227 227 (15458700)
I0403 12:55:07.073320 30998 net.cpp:148] Top shape: 100 (100)
I0403 12:55:07.073336 30998 net.cpp:156] Memory required for data: 61835200
I0403 12:55:07.073364 30998 layer_factory.hpp:77] Creating layer label_data_1_split
I0403 12:55:07.073402 30998 net.cpp:91] Creating Layer label_data_1_split
I0403 12:55:07.073421 30998 net.cpp:425] label_data_1_split <- label
I0403 12:55:07.073451 30998 net.cpp:399] label_data_1_split -> label_data_1_split_0
I0403 12:55:07.073477 30998 net.cpp:399] label_data_1_split -> label_data_1_split_1
I0403 12:55:07.073498 30998 net.cpp:399] label_data_1_split -> label_data_1_split_2
I0403 12:55:07.073565 30998 net.cpp:141] Setting up label_data_1_split
I0403 12:55:07.073590 30998 net.cpp:148] Top shape: 100 (100)
I0403 12:55:07.073616 30998 net.cpp:148] Top shape: 100 (100)
I0403 12:55:07.073633 30998 net.cpp:148] Top shape: 100 (100)
I0403 12:55:07.073647 30998 net.cpp:156] Memory required for data: 61836400
I0403 12:55:07.073662 30998 layer_factory.hpp:77] Creating layer conv1
I0403 12:55:07.073694 30998 net.cpp:91] Creating Layer conv1
I0403 12:55:07.073712 30998 net.cpp:425] conv1 <- data
I0403 12:55:07.073731 30998 net.cpp:399] conv1 -> conv1
I0403 12:55:07.219560 30998 net.cpp:141] Setting up conv1
I0403 12:55:07.219650 30998 net.cpp:148] Top shape: 100 96 55 55 (29040000)
I0403 12:55:07.219667 30998 net.cpp:156] Memory required for data: 177996400
I0403 12:55:07.219701 30998 layer_factory.hpp:77] Creating layer relu1
I0403 12:55:07.219729 30998 net.cpp:91] Creating Layer relu1
I0403 12:55:07.219749 30998 net.cpp:425] relu1 <- conv1
I0403 12:55:07.219769 30998 net.cpp:386] relu1 -> conv1 (in-place)
I0403 12:55:07.220033 30998 net.cpp:141] Setting up relu1
I0403 12:55:07.220062 30998 net.cpp:148] Top shape: 100 96 55 55 (29040000)
I0403 12:55:07.220110 30998 net.cpp:156] Memory required for data: 294156400
I0403 12:55:07.220129 30998 layer_factory.hpp:77] Creating layer norm1
I0403 12:55:07.220157 30998 net.cpp:91] Creating Layer norm1
I0403 12:55:07.220176 30998 net.cpp:425] norm1 <- conv1
I0403 12:55:07.220194 30998 net.cpp:399] norm1 -> norm1
I0403 12:55:07.220564 30998 net.cpp:141] Setting up norm1
I0403 12:55:07.220594 30998 net.cpp:148] Top shape: 100 96 55 55 (29040000)
I0403 12:55:07.220610 30998 net.cpp:156] Memory required for data: 410316400
I0403 12:55:07.220626 30998 layer_factory.hpp:77] Creating layer pool1
I0403 12:55:07.220651 30998 net.cpp:91] Creating Layer pool1
I0403 12:55:07.220669 30998 net.cpp:425] pool1 <- norm1
I0403 12:55:07.220688 30998 net.cpp:399] pool1 -> pool1
I0403 12:55:07.220757 30998 net.cpp:141] Setting up pool1
I0403 12:55:07.220782 30998 net.cpp:148] Top shape: 100 96 27 27 (6998400)
I0403 12:55:07.220798 30998 net.cpp:156] Memory required for data: 438310000
I0403 12:55:07.220813 30998 layer_factory.hpp:77] Creating layer conv2
I0403 12:55:07.220837 30998 net.cpp:91] Creating Layer conv2
I0403 12:55:07.220855 30998 net.cpp:425] conv2 <- pool1
I0403 12:55:07.220875 30998 net.cpp:399] conv2 -> conv2
I0403 12:55:07.236543 30998 net.cpp:141] Setting up conv2
I0403 12:55:07.236595 30998 net.cpp:148] Top shape: 100 256 27 27 (18662400)
I0403 12:55:07.236613 30998 net.cpp:156] Memory required for data: 512959600
I0403 12:55:07.236649 30998 layer_factory.hpp:77] Creating layer relu2
I0403 12:55:07.236672 30998 net.cpp:91] Creating Layer relu2
I0403 12:55:07.236690 30998 net.cpp:425] relu2 <- conv2
I0403 12:55:07.236708 30998 net.cpp:386] relu2 -> conv2 (in-place)
I0403 12:55:07.236992 30998 net.cpp:141] Setting up relu2
I0403 12:55:07.237020 30998 net.cpp:148] Top shape: 100 256 27 27 (18662400)
I0403 12:55:07.237035 30998 net.cpp:156] Memory required for data: 587609200
I0403 12:55:07.237051 30998 layer_factory.hpp:77] Creating layer norm2
I0403 12:55:07.237073 30998 net.cpp:91] Creating Layer norm2
I0403 12:55:07.237090 30998 net.cpp:425] norm2 <- conv2
I0403 12:55:07.237108 30998 net.cpp:399] norm2 -> norm2
I0403 12:55:07.237320 30998 net.cpp:141] Setting up norm2
I0403 12:55:07.237345 30998 net.cpp:148] Top shape: 100 256 27 27 (18662400)
I0403 12:55:07.237361 30998 net.cpp:156] Memory required for data: 662258800
I0403 12:55:07.237376 30998 layer_factory.hpp:77] Creating layer pool2
I0403 12:55:07.237396 30998 net.cpp:91] Creating Layer pool2
I0403 12:55:07.237411 30998 net.cpp:425] pool2 <- norm2
I0403 12:55:07.237432 30998 net.cpp:399] pool2 -> pool2
I0403 12:55:07.237486 30998 net.cpp:141] Setting up pool2
I0403 12:55:07.237512 30998 net.cpp:148] Top shape: 100 256 13 13 (4326400)
I0403 12:55:07.237527 30998 net.cpp:156] Memory required for data: 679564400
I0403 12:55:07.237543 30998 layer_factory.hpp:77] Creating layer conv3
I0403 12:55:07.237567 30998 net.cpp:91] Creating Layer conv3
I0403 12:55:07.237584 30998 net.cpp:425] conv3 <- pool2
I0403 12:55:07.237603 30998 net.cpp:399] conv3 -> conv3
I0403 12:55:07.277781 30998 net.cpp:141] Setting up conv3
I0403 12:55:07.277865 30998 net.cpp:148] Top shape: 100 384 13 13 (6489600)
I0403 12:55:07.277883 30998 net.cpp:156] Memory required for data: 705522800
I0403 12:55:07.277909 30998 layer_factory.hpp:77] Creating layer relu3
I0403 12:55:07.277932 30998 net.cpp:91] Creating Layer relu3
I0403 12:55:07.277950 30998 net.cpp:425] relu3 <- conv3
I0403 12:55:07.277971 30998 net.cpp:386] relu3 -> conv3 (in-place)
I0403 12:55:07.278254 30998 net.cpp:141] Setting up relu3
I0403 12:55:07.278281 30998 net.cpp:148] Top shape: 100 384 13 13 (6489600)
I0403 12:55:07.278297 30998 net.cpp:156] Memory required for data: 731481200
I0403 12:55:07.278312 30998 layer_factory.hpp:77] Creating layer conv4
I0403 12:55:07.278338 30998 net.cpp:91] Creating Layer conv4
I0403 12:55:07.278357 30998 net.cpp:425] conv4 <- conv3
I0403 12:55:07.278379 30998 net.cpp:399] conv4 -> conv4
I0403 12:55:07.308914 30998 net.cpp:141] Setting up conv4
I0403 12:55:07.308987 30998 net.cpp:148] Top shape: 100 384 13 13 (6489600)
I0403 12:55:07.309037 30998 net.cpp:156] Memory required for data: 757439600
I0403 12:55:07.309061 30998 layer_factory.hpp:77] Creating layer relu4
I0403 12:55:07.309082 30998 net.cpp:91] Creating Layer relu4
I0403 12:55:07.309098 30998 net.cpp:425] relu4 <- conv4
I0403 12:55:07.309120 30998 net.cpp:386] relu4 -> conv4 (in-place)
I0403 12:55:07.309409 30998 net.cpp:141] Setting up relu4
I0403 12:55:07.309438 30998 net.cpp:148] Top shape: 100 384 13 13 (6489600)
I0403 12:55:07.309453 30998 net.cpp:156] Memory required for data: 783398000
I0403 12:55:07.309469 30998 layer_factory.hpp:77] Creating layer conv5
I0403 12:55:07.309494 30998 net.cpp:91] Creating Layer conv5
I0403 12:55:07.309512 30998 net.cpp:425] conv5 <- conv4
I0403 12:55:07.309533 30998 net.cpp:399] conv5 -> conv5
I0403 12:55:07.330688 30998 net.cpp:141] Setting up conv5
I0403 12:55:07.330754 30998 net.cpp:148] Top shape: 100 256 13 13 (4326400)
I0403 12:55:07.330771 30998 net.cpp:156] Memory required for data: 800703600
I0403 12:55:07.330796 30998 layer_factory.hpp:77] Creating layer relu5
I0403 12:55:07.330816 30998 net.cpp:91] Creating Layer relu5
I0403 12:55:07.330839 30998 net.cpp:425] relu5 <- conv5
I0403 12:55:07.330858 30998 net.cpp:386] relu5 -> conv5 (in-place)
I0403 12:55:07.331142 30998 net.cpp:141] Setting up relu5
I0403 12:55:07.331169 30998 net.cpp:148] Top shape: 100 256 13 13 (4326400)
I0403 12:55:07.331187 30998 net.cpp:156] Memory required for data: 818009200
I0403 12:55:07.331202 30998 layer_factory.hpp:77] Creating layer pool5
I0403 12:55:07.331233 30998 net.cpp:91] Creating Layer pool5
I0403 12:55:07.331251 30998 net.cpp:425] pool5 <- conv5
I0403 12:55:07.331269 30998 net.cpp:399] pool5 -> pool5
I0403 12:55:07.331332 30998 net.cpp:141] Setting up pool5
I0403 12:55:07.331357 30998 net.cpp:148] Top shape: 100 256 6 6 (921600)
I0403 12:55:07.331370 30998 net.cpp:156] Memory required for data: 821695600
I0403 12:55:07.331385 30998 layer_factory.hpp:77] Creating layer fc6
I0403 12:55:07.331413 30998 net.cpp:91] Creating Layer fc6
I0403 12:55:07.331470 30998 net.cpp:425] fc6 <- pool5
I0403 12:55:07.331497 30998 net.cpp:399] fc6 -> fc6
I0403 12:55:08.889581 30998 net.cpp:141] Setting up fc6
I0403 12:55:08.889655 30998 net.cpp:148] Top shape: 100 4096 (409600)
I0403 12:55:08.889670 30998 net.cpp:156] Memory required for data: 823334000
I0403 12:55:08.889691 30998 layer_factory.hpp:77] Creating layer relu6
I0403 12:55:08.889713 30998 net.cpp:91] Creating Layer relu6
I0403 12:55:08.889729 30998 net.cpp:425] relu6 <- fc6
I0403 12:55:08.889747 30998 net.cpp:386] relu6 -> fc6 (in-place)
I0403 12:55:08.889964 30998 net.cpp:141] Setting up relu6
I0403 12:55:08.889988 30998 net.cpp:148] Top shape: 100 4096 (409600)
I0403 12:55:08.890002 30998 net.cpp:156] Memory required for data: 824972400
I0403 12:55:08.890017 30998 layer_factory.hpp:77] Creating layer drop6
I0403 12:55:08.890034 30998 net.cpp:91] Creating Layer drop6
I0403 12:55:08.890049 30998 net.cpp:425] drop6 <- fc6
I0403 12:55:08.890067 30998 net.cpp:386] drop6 -> fc6 (in-place)
I0403 12:55:08.890117 30998 net.cpp:141] Setting up drop6
I0403 12:55:08.890141 30998 net.cpp:148] Top shape: 100 4096 (409600)
I0403 12:55:08.890156 30998 net.cpp:156] Memory required for data: 826610800
I0403 12:55:08.890171 30998 layer_factory.hpp:77] Creating layer fc7
I0403 12:55:08.890189 30998 net.cpp:91] Creating Layer fc7
I0403 12:55:08.890204 30998 net.cpp:425] fc7 <- fc6
I0403 12:55:08.890244 30998 net.cpp:399] fc7 -> fc7
I0403 12:55:09.576730 30998 net.cpp:141] Setting up fc7
I0403 12:55:09.576819 30998 net.cpp:148] Top shape: 100 4096 (409600)
I0403 12:55:09.576835 30998 net.cpp:156] Memory required for data: 828249200
I0403 12:55:09.576856 30998 layer_factory.hpp:77] Creating layer relu7
I0403 12:55:09.576879 30998 net.cpp:91] Creating Layer relu7
I0403 12:55:09.576896 30998 net.cpp:425] relu7 <- fc7
I0403 12:55:09.576917 30998 net.cpp:386] relu7 -> fc7 (in-place)
I0403 12:55:09.577347 30998 net.cpp:141] Setting up relu7
I0403 12:55:09.577374 30998 net.cpp:148] Top shape: 100 4096 (409600)
I0403 12:55:09.577422 30998 net.cpp:156] Memory required for data: 829887600
I0403 12:55:09.577438 30998 layer_factory.hpp:77] Creating layer drop7
I0403 12:55:09.577457 30998 net.cpp:91] Creating Layer drop7
I0403 12:55:09.577472 30998 net.cpp:425] drop7 <- fc7
I0403 12:55:09.577492 30998 net.cpp:386] drop7 -> fc7 (in-place)
I0403 12:55:09.577536 30998 net.cpp:141] Setting up drop7
I0403 12:55:09.577560 30998 net.cpp:148] Top shape: 100 4096 (409600)
I0403 12:55:09.577576 30998 net.cpp:156] Memory required for data: 831526000
I0403 12:55:09.577590 30998 layer_factory.hpp:77] Creating layer fc8_plantvillage
I0403 12:55:09.577610 30998 net.cpp:91] Creating Layer fc8_plantvillage
I0403 12:55:09.577625 30998 net.cpp:425] fc8_plantvillage <- fc7
I0403 12:55:09.577646 30998 net.cpp:399] fc8_plantvillage -> fc8_plantvillage
I0403 12:55:09.584372 30998 net.cpp:141] Setting up fc8_plantvillage
I0403 12:55:09.584400 30998 net.cpp:148] Top shape: 100 38 (3800)
I0403 12:55:09.584414 30998 net.cpp:156] Memory required for data: 831541200
I0403 12:55:09.584434 30998 layer_factory.hpp:77] Creating layer fc8_plantvillage_fc8_plantvillage_0_split
I0403 12:55:09.584455 30998 net.cpp:91] Creating Layer fc8_plantvillage_fc8_plantvillage_0_split
I0403 12:55:09.584471 30998 net.cpp:425] fc8_plantvillage_fc8_plantvillage_0_split <- fc8_plantvillage
I0403 12:55:09.584487 30998 net.cpp:399] fc8_plantvillage_fc8_plantvillage_0_split -> fc8_plantvillage_fc8_plantvillage_0_split_0
I0403 12:55:09.584507 30998 net.cpp:399] fc8_plantvillage_fc8_plantvillage_0_split -> fc8_plantvillage_fc8_plantvillage_0_split_1
I0403 12:55:09.584527 30998 net.cpp:399] fc8_plantvillage_fc8_plantvillage_0_split -> fc8_plantvillage_fc8_plantvillage_0_split_2
I0403 12:55:09.584604 30998 net.cpp:141] Setting up fc8_plantvillage_fc8_plantvillage_0_split
I0403 12:55:09.584628 30998 net.cpp:148] Top shape: 100 38 (3800)
I0403 12:55:09.584645 30998 net.cpp:148] Top shape: 100 38 (3800)
I0403 12:55:09.584661 30998 net.cpp:148] Top shape: 100 38 (3800)
I0403 12:55:09.584674 30998 net.cpp:156] Memory required for data: 831586800
I0403 12:55:09.584689 30998 layer_factory.hpp:77] Creating layer prob
I0403 12:55:09.584707 30998 net.cpp:91] Creating Layer prob
I0403 12:55:09.584723 30998 net.cpp:425] prob <- fc8_plantvillage_fc8_plantvillage_0_split_0
I0403 12:55:09.584740 30998 net.cpp:399] prob -> prob
I0403 12:55:09.584965 30998 net.cpp:141] Setting up prob
I0403 12:55:09.584990 30998 net.cpp:148] Top shape: 100 38 (3800)
I0403 12:55:09.585005 30998 net.cpp:156] Memory required for data: 831602000
I0403 12:55:09.585018 30998 layer_factory.hpp:77] Creating layer hdf5out
I0403 12:55:09.585037 30998 net.cpp:91] Creating Layer hdf5out
I0403 12:55:09.585052 30998 net.cpp:425] hdf5out <- prob
I0403 12:55:09.585068 30998 net.cpp:425] hdf5out <- label_data_1_split_0
I0403 12:55:09.587461 30998 net.cpp:141] Setting up hdf5out
…
