…
I0403 12:52:54.142921 30936 net.cpp:313] The NetState phase (1) differed from the phase (0) specified by a rule in layer data
I0403 12:52:54.143246 30936 net.cpp:49] Initializing net from parameters: 
state {
  phase: TEST
}
layer {
  name: "data"
  type: "Data"
  top: "data"
  top: "label"
  include {
    phase: TEST
  }
  transform_param {
    crop_size: 227
    mean_file: "/home/mohanty/data/final_dataset/lmdb/grayscale-40-60/mean.binaryproto"
  }
  data_param {
    source: "/home/mohanty/data/final_dataset/lmdb/grayscale-40-60/test_db"
    batch_size: 100
    backend: LMDB
  }
}
layer {
  name: "conv1"
  type: "Convolution"
  bottom: "data"
  top: "conv1"
  param {
    lr_mult: 1
    decay_mult: 1
  }
  param {
    lr_mult: 2
    decay_mult: 0
  }
  convolution_param {
    num_output: 96
    kernel_size: 11
    stride: 4
    weight_filler {
      type: "gaussian"
      std: 0.01
    }
    bias_filler {
      type: "constant"
      value: 0
    }
  }
}
layer {
  name: "relu1"
  type: "ReLU"
  bottom: "conv1"
  top: "conv1"
}
layer {
  name: "norm1"
  type: "LRN"
  bottom: "conv1"
  top: "norm1"
  lrn_param {
    local_size: 5
    alpha: 0.0001
    beta: 0.75
  }
}
layer {
  name: "pool1"
  type: "Pooling"
  bottom: "norm1"
  top: "pool1"
  pooling_param {
    pool: MAX
    kernel_size: 3
    stride: 2
  }
}
layer {
  name: "conv2"
  type: "Convolution"
  bottom: "pool1"
  top: "conv2"
  param {
    lr_mult: 1
    decay_mult: 1
  }
  param {
    lr_mult: 2
    decay_mult: 0
  }
  convolution_param {
    num_output: 256
    pad: 2
    kernel_size: 5
    group: 2
    weight_filler {
      type: "gaussian"
      std: 0.01
    }
    bias_filler {
      type: "constant"
      value: 0.1
    }
  }
}
layer {
  name: "relu2"
  type: "ReLU"
  bottom: "conv2"
  top: "conv2"
}
layer {
  name: "norm2"
  type: "LRN"
  bottom: "conv2"
  top: "norm2"
  lrn_param {
    local_size: 5
    alpha: 0.0001
    beta: 0.75
  }
}
layer {
  name: "pool2"
  type: "Pooling"
  bottom: "norm2"
  top: "pool2"
  pooling_param {
    pool: MAX
    kernel_size: 3
    stride: 2
  }
}
layer {
  name: "conv3"
  type: "Convolution"
  bottom: "pool2"
  top: "conv3"
  param {
    lr_mult: 1
    decay_mult: 1
  }
  param {
    lr_mult: 2
    decay_mult: 0
  }
  convolution_param {
    num_output: 384
    pad: 1
    kernel_size: 3
    weight_filler {
      type: "gaussian"
      std: 0.01
    }
    bias_filler {
      type: "constant"
      value: 0
    }
  }
}
layer {
  name: "relu3"
  type: "ReLU"
  bottom: "conv3"
  top: "conv3"
}
layer {
  name: "conv4"
  type: "Convolution"
  bottom: "conv3"
  top: "conv4"
  param {
    lr_mult: 1
    decay_mult: 1
  }
  param {
    lr_mult: 2
    decay_mult: 0
  }
  convolution_param {
    num_output: 384
    pad: 1
    kernel_size: 3
    group: 2
    weight_filler {
      type: "gaussian"
      std: 0.01
    }
    bias_filler {
      type: "constant"
      value: 0.1
    }
  }
}
layer {
  name: "relu4"
  type: "ReLU"
  bottom: "conv4"
  top: "conv4"
}
layer {
  name: "conv5"
  type: "Convolution"
  bottom: "conv4"
  top: "conv5"
  param {
    lr_mult: 1
    decay_mult: 1
  }
  param {
    lr_mult: 2
    decay_mult: 0
  }
  convolution_param {
    num_output: 256
    pad: 1
    kernel_size: 3
    group: 2
    weight_filler {
      type: "gaussian"
      std: 0.01
    }
    bias_filler {
      type: "constant"
      value: 0.1
    }
  }
}
layer {
  name: "relu5"
  type: "ReLU"
  bottom: "conv5"
  top: "conv5"
}
layer {
  name: "pool5"
  type: "Pooling"
  bottom: "conv5"
  top: "pool5"
  pooling_param {
    pool: MAX
    kernel_size: 3
    stride: 2
  }
}
layer {
  name: "fc6"
  type: "InnerProduct"
  bottom: "pool5"
  top: "fc6"
  param {
    lr_mult: 1
    decay_mult: 1
  }
  param {
    lr_mult: 2
    decay_mult: 0
  }
  inner_product_param {
    num_output: 4096
    weight_filler {
      type: "gaussian"
      std: 0.005
    }
    bias_filler {
      type: "constant"
      value: 0.1
    }
  }
}
layer {
  name: "relu6"
  type: "ReLU"
  bottom: "fc6"
  top: "fc6"
}
layer {
  name: "drop6"
  type: "Dropout"
  bottom: "fc6"
  top: "fc6"
  dropout_param {
    dropout_ratio: 0.5
  }
}
layer {
  name: "fc7"
  type: "InnerProduct"
  bottom: "fc6"
  top: "fc7"
  param {
    lr_mult: 1
    decay_mult: 1
  }
  param {
    lr_mult: 2
    decay_mult: 0
  }
  inner_product_param {
    num_output: 4096
    weight_filler {
      type: "gaussian"
      std: 0.005
    }
    bias_filler {
      type: "constant"
      value: 0.1
    }
  }
}
layer {
  name: "relu7"
  type: "ReLU"
  bottom: "fc7"
  top: "fc7"
}
layer {
  name: "drop7"
  type: "Dropout"
  bottom: "fc7"
  top: "fc7"
  dropout_param {
    dropout_ratio: 0.5
  }
}
layer {
  name: "fc8_plantvillage"
  type: "InnerProduct"
  bottom: "fc7"
  top: "fc8_plantvillage"
  param {
    lr_mult: 1
    decay_mult: 1
  }
  param {
    lr_mult: 2
    decay_mult: 0
  }
  inner_product_param {
    num_output: 38
    weight_filler {
      type: "gaussian"
      std: 0.01
    }
    bias_filler {
      type: "constant"
      value: 0
    }
  }
}
layer {
  name: "prob"
  type: "Softmax"
  bottom: "fc8_plantvillage"
  top: "prob"
  include {
    phase: TEST
  }
}
layer {
  name: "hdf5out"
  type: "HDF5Output"
  bottom: "prob"
  bottom: "label"
  include {
    phase: TEST
  }
  hdf5_output_param {
    file_name: "hdf5_dumps/iter_3942.h5"
  }
}
layer {
  name: "loss"
  type: "SoftmaxWithLoss"
  bottom: "fc8_plantvillage"
  bottom: "label"
  top: "loss"
}
layer {
  name: "accuracy"
  type: "Accuracy"
  bottom: "fc8_plantvillage"
  bottom: "label"
  top: "accuracy"
  include {
    phase: TEST
  }
}
I0403 12:52:54.143790 30936 layer_factory.hpp:77] Creating layer data
I0403 12:52:54.144443 30936 net.cpp:91] Creating Layer data
I0403 12:52:54.144476 30936 net.cpp:399] data -> data
I0403 12:52:54.144529 30936 net.cpp:399] data -> label
I0403 12:52:54.144567 30936 data_transformer.cpp:25] Loading mean file from: /home/mohanty/data/final_dataset/lmdb/grayscale-40-60/mean.binaryproto
I0403 12:52:54.148154 30940 db_lmdb.cpp:38] Opened lmdb /home/mohanty/data/final_dataset/lmdb/grayscale-40-60/test_db
I0403 12:52:54.159284 30936 data_layer.cpp:41] output data size: 100,3,227,227
I0403 12:52:54.280997 30936 net.cpp:141] Setting up data
I0403 12:52:54.281103 30936 net.cpp:148] Top shape: 100 3 227 227 (15458700)
I0403 12:52:54.281127 30936 net.cpp:148] Top shape: 100 (100)
I0403 12:52:54.281143 30936 net.cpp:156] Memory required for data: 61835200
I0403 12:52:54.281172 30936 layer_factory.hpp:77] Creating layer label_data_1_split
I0403 12:52:54.281203 30936 net.cpp:91] Creating Layer label_data_1_split
I0403 12:52:54.281222 30936 net.cpp:425] label_data_1_split <- label
I0403 12:52:54.281256 30936 net.cpp:399] label_data_1_split -> label_data_1_split_0
I0403 12:52:54.281285 30936 net.cpp:399] label_data_1_split -> label_data_1_split_1
I0403 12:52:54.281306 30936 net.cpp:399] label_data_1_split -> label_data_1_split_2
I0403 12:52:54.281373 30936 net.cpp:141] Setting up label_data_1_split
I0403 12:52:54.281396 30936 net.cpp:148] Top shape: 100 (100)
I0403 12:52:54.281414 30936 net.cpp:148] Top shape: 100 (100)
I0403 12:52:54.281430 30936 net.cpp:148] Top shape: 100 (100)
I0403 12:52:54.281446 30936 net.cpp:156] Memory required for data: 61836400
I0403 12:52:54.281461 30936 layer_factory.hpp:77] Creating layer conv1
I0403 12:52:54.281494 30936 net.cpp:91] Creating Layer conv1
I0403 12:52:54.281513 30936 net.cpp:425] conv1 <- data
I0403 12:52:54.281533 30936 net.cpp:399] conv1 -> conv1
I0403 12:52:54.424552 30936 net.cpp:141] Setting up conv1
I0403 12:52:54.424639 30936 net.cpp:148] Top shape: 100 96 55 55 (29040000)
I0403 12:52:54.424656 30936 net.cpp:156] Memory required for data: 177996400
I0403 12:52:54.424690 30936 layer_factory.hpp:77] Creating layer relu1
I0403 12:52:54.424720 30936 net.cpp:91] Creating Layer relu1
I0403 12:52:54.424737 30936 net.cpp:425] relu1 <- conv1
I0403 12:52:54.424757 30936 net.cpp:386] relu1 -> conv1 (in-place)
I0403 12:52:54.425032 30936 net.cpp:141] Setting up relu1
I0403 12:52:54.425060 30936 net.cpp:148] Top shape: 100 96 55 55 (29040000)
I0403 12:52:54.425107 30936 net.cpp:156] Memory required for data: 294156400
I0403 12:52:54.425123 30936 layer_factory.hpp:77] Creating layer norm1
I0403 12:52:54.425151 30936 net.cpp:91] Creating Layer norm1
I0403 12:52:54.425170 30936 net.cpp:425] norm1 <- conv1
I0403 12:52:54.425194 30936 net.cpp:399] norm1 -> norm1
I0403 12:52:54.425505 30936 net.cpp:141] Setting up norm1
I0403 12:52:54.425534 30936 net.cpp:148] Top shape: 100 96 55 55 (29040000)
I0403 12:52:54.425549 30936 net.cpp:156] Memory required for data: 410316400
I0403 12:52:54.425565 30936 layer_factory.hpp:77] Creating layer pool1
I0403 12:52:54.425588 30936 net.cpp:91] Creating Layer pool1
I0403 12:52:54.425606 30936 net.cpp:425] pool1 <- norm1
I0403 12:52:54.425626 30936 net.cpp:399] pool1 -> pool1
I0403 12:52:54.425691 30936 net.cpp:141] Setting up pool1
I0403 12:52:54.425715 30936 net.cpp:148] Top shape: 100 96 27 27 (6998400)
I0403 12:52:54.425731 30936 net.cpp:156] Memory required for data: 438310000
I0403 12:52:54.425746 30936 layer_factory.hpp:77] Creating layer conv2
I0403 12:52:54.425771 30936 net.cpp:91] Creating Layer conv2
I0403 12:52:54.425788 30936 net.cpp:425] conv2 <- pool1
I0403 12:52:54.425807 30936 net.cpp:399] conv2 -> conv2
I0403 12:52:54.440789 30936 net.cpp:141] Setting up conv2
I0403 12:52:54.440843 30936 net.cpp:148] Top shape: 100 256 27 27 (18662400)
I0403 12:52:54.440860 30936 net.cpp:156] Memory required for data: 512959600
I0403 12:52:54.440884 30936 layer_factory.hpp:77] Creating layer relu2
I0403 12:52:54.440904 30936 net.cpp:91] Creating Layer relu2
I0403 12:52:54.440920 30936 net.cpp:425] relu2 <- conv2
I0403 12:52:54.440942 30936 net.cpp:386] relu2 -> conv2 (in-place)
I0403 12:52:54.441234 30936 net.cpp:141] Setting up relu2
I0403 12:52:54.441262 30936 net.cpp:148] Top shape: 100 256 27 27 (18662400)
I0403 12:52:54.441278 30936 net.cpp:156] Memory required for data: 587609200
I0403 12:52:54.441294 30936 layer_factory.hpp:77] Creating layer norm2
I0403 12:52:54.441318 30936 net.cpp:91] Creating Layer norm2
I0403 12:52:54.441335 30936 net.cpp:425] norm2 <- conv2
I0403 12:52:54.441354 30936 net.cpp:399] norm2 -> norm2
I0403 12:52:54.441557 30936 net.cpp:141] Setting up norm2
I0403 12:52:54.441583 30936 net.cpp:148] Top shape: 100 256 27 27 (18662400)
I0403 12:52:54.441599 30936 net.cpp:156] Memory required for data: 662258800
I0403 12:52:54.441614 30936 layer_factory.hpp:77] Creating layer pool2
I0403 12:52:54.441632 30936 net.cpp:91] Creating Layer pool2
I0403 12:52:54.441648 30936 net.cpp:425] pool2 <- norm2
I0403 12:52:54.441668 30936 net.cpp:399] pool2 -> pool2
I0403 12:52:54.441722 30936 net.cpp:141] Setting up pool2
I0403 12:52:54.441746 30936 net.cpp:148] Top shape: 100 256 13 13 (4326400)
I0403 12:52:54.441761 30936 net.cpp:156] Memory required for data: 679564400
I0403 12:52:54.441776 30936 layer_factory.hpp:77] Creating layer conv3
I0403 12:52:54.441802 30936 net.cpp:91] Creating Layer conv3
I0403 12:52:54.441820 30936 net.cpp:425] conv3 <- pool2
I0403 12:52:54.441838 30936 net.cpp:399] conv3 -> conv3
I0403 12:52:54.482419 30936 net.cpp:141] Setting up conv3
I0403 12:52:54.482475 30936 net.cpp:148] Top shape: 100 384 13 13 (6489600)
I0403 12:52:54.482493 30936 net.cpp:156] Memory required for data: 705522800
I0403 12:52:54.482519 30936 layer_factory.hpp:77] Creating layer relu3
I0403 12:52:54.482542 30936 net.cpp:91] Creating Layer relu3
I0403 12:52:54.482559 30936 net.cpp:425] relu3 <- conv3
I0403 12:52:54.482581 30936 net.cpp:386] relu3 -> conv3 (in-place)
I0403 12:52:54.482848 30936 net.cpp:141] Setting up relu3
I0403 12:52:54.482874 30936 net.cpp:148] Top shape: 100 384 13 13 (6489600)
I0403 12:52:54.482890 30936 net.cpp:156] Memory required for data: 731481200
I0403 12:52:54.482904 30936 layer_factory.hpp:77] Creating layer conv4
I0403 12:52:54.482931 30936 net.cpp:91] Creating Layer conv4
I0403 12:52:54.482949 30936 net.cpp:425] conv4 <- conv3
I0403 12:52:54.482969 30936 net.cpp:399] conv4 -> conv4
I0403 12:52:54.512483 30936 net.cpp:141] Setting up conv4
I0403 12:52:54.512562 30936 net.cpp:148] Top shape: 100 384 13 13 (6489600)
I0403 12:52:54.512610 30936 net.cpp:156] Memory required for data: 757439600
I0403 12:52:54.512632 30936 layer_factory.hpp:77] Creating layer relu4
I0403 12:52:54.512655 30936 net.cpp:91] Creating Layer relu4
I0403 12:52:54.512672 30936 net.cpp:425] relu4 <- conv4
I0403 12:52:54.512693 30936 net.cpp:386] relu4 -> conv4 (in-place)
I0403 12:52:54.512964 30936 net.cpp:141] Setting up relu4
I0403 12:52:54.512995 30936 net.cpp:148] Top shape: 100 384 13 13 (6489600)
I0403 12:52:54.513010 30936 net.cpp:156] Memory required for data: 783398000
I0403 12:52:54.513026 30936 layer_factory.hpp:77] Creating layer conv5
I0403 12:52:54.513056 30936 net.cpp:91] Creating Layer conv5
I0403 12:52:54.513072 30936 net.cpp:425] conv5 <- conv4
I0403 12:52:54.513095 30936 net.cpp:399] conv5 -> conv5
I0403 12:52:54.533489 30936 net.cpp:141] Setting up conv5
I0403 12:52:54.533551 30936 net.cpp:148] Top shape: 100 256 13 13 (4326400)
I0403 12:52:54.533568 30936 net.cpp:156] Memory required for data: 800703600
I0403 12:52:54.533594 30936 layer_factory.hpp:77] Creating layer relu5
I0403 12:52:54.533615 30936 net.cpp:91] Creating Layer relu5
I0403 12:52:54.533632 30936 net.cpp:425] relu5 <- conv5
I0403 12:52:54.533653 30936 net.cpp:386] relu5 -> conv5 (in-place)
I0403 12:52:54.533933 30936 net.cpp:141] Setting up relu5
I0403 12:52:54.533963 30936 net.cpp:148] Top shape: 100 256 13 13 (4326400)
I0403 12:52:54.533979 30936 net.cpp:156] Memory required for data: 818009200
I0403 12:52:54.533998 30936 layer_factory.hpp:77] Creating layer pool5
I0403 12:52:54.534021 30936 net.cpp:91] Creating Layer pool5
I0403 12:52:54.534039 30936 net.cpp:425] pool5 <- conv5
I0403 12:52:54.534061 30936 net.cpp:399] pool5 -> pool5
I0403 12:52:54.534126 30936 net.cpp:141] Setting up pool5
I0403 12:52:54.534149 30936 net.cpp:148] Top shape: 100 256 6 6 (921600)
I0403 12:52:54.534164 30936 net.cpp:156] Memory required for data: 821695600
I0403 12:52:54.534183 30936 layer_factory.hpp:77] Creating layer fc6
I0403 12:52:54.534214 30936 net.cpp:91] Creating Layer fc6
I0403 12:52:54.534234 30936 net.cpp:425] fc6 <- pool5
I0403 12:52:54.534255 30936 net.cpp:399] fc6 -> fc6
I0403 12:52:56.099870 30936 net.cpp:141] Setting up fc6
I0403 12:52:56.099920 30936 net.cpp:148] Top shape: 100 4096 (409600)
I0403 12:52:56.099936 30936 net.cpp:156] Memory required for data: 823334000
I0403 12:52:56.099957 30936 layer_factory.hpp:77] Creating layer relu6
I0403 12:52:56.099982 30936 net.cpp:91] Creating Layer relu6
I0403 12:52:56.100002 30936 net.cpp:425] relu6 <- fc6
I0403 12:52:56.100020 30936 net.cpp:386] relu6 -> fc6 (in-place)
I0403 12:52:56.100242 30936 net.cpp:141] Setting up relu6
I0403 12:52:56.100267 30936 net.cpp:148] Top shape: 100 4096 (409600)
I0403 12:52:56.100282 30936 net.cpp:156] Memory required for data: 824972400
I0403 12:52:56.100297 30936 layer_factory.hpp:77] Creating layer drop6
I0403 12:52:56.100316 30936 net.cpp:91] Creating Layer drop6
I0403 12:52:56.100332 30936 net.cpp:425] drop6 <- fc6
I0403 12:52:56.100353 30936 net.cpp:386] drop6 -> fc6 (in-place)
I0403 12:52:56.100404 30936 net.cpp:141] Setting up drop6
I0403 12:52:56.100427 30936 net.cpp:148] Top shape: 100 4096 (409600)
I0403 12:52:56.100448 30936 net.cpp:156] Memory required for data: 826610800
I0403 12:52:56.100464 30936 layer_factory.hpp:77] Creating layer fc7
I0403 12:52:56.100484 30936 net.cpp:91] Creating Layer fc7
I0403 12:52:56.100499 30936 net.cpp:425] fc7 <- fc6
I0403 12:52:56.100520 30936 net.cpp:399] fc7 -> fc7
I0403 12:52:56.788346 30936 net.cpp:141] Setting up fc7
I0403 12:52:56.788432 30936 net.cpp:148] Top shape: 100 4096 (409600)
I0403 12:52:56.788449 30936 net.cpp:156] Memory required for data: 828249200
I0403 12:52:56.788470 30936 layer_factory.hpp:77] Creating layer relu7
I0403 12:52:56.788492 30936 net.cpp:91] Creating Layer relu7
I0403 12:52:56.788511 30936 net.cpp:425] relu7 <- fc7
I0403 12:52:56.788532 30936 net.cpp:386] relu7 -> fc7 (in-place)
I0403 12:52:56.788946 30936 net.cpp:141] Setting up relu7
I0403 12:52:56.788975 30936 net.cpp:148] Top shape: 100 4096 (409600)
I0403 12:52:56.789023 30936 net.cpp:156] Memory required for data: 829887600
I0403 12:52:56.789039 30936 layer_factory.hpp:77] Creating layer drop7
I0403 12:52:56.789058 30936 net.cpp:91] Creating Layer drop7
I0403 12:52:56.789074 30936 net.cpp:425] drop7 <- fc7
I0403 12:52:56.789093 30936 net.cpp:386] drop7 -> fc7 (in-place)
I0403 12:52:56.789136 30936 net.cpp:141] Setting up drop7
I0403 12:52:56.789158 30936 net.cpp:148] Top shape: 100 4096 (409600)
I0403 12:52:56.789173 30936 net.cpp:156] Memory required for data: 831526000
I0403 12:52:56.789194 30936 layer_factory.hpp:77] Creating layer fc8_plantvillage
I0403 12:52:56.789221 30936 net.cpp:91] Creating Layer fc8_plantvillage
I0403 12:52:56.789237 30936 net.cpp:425] fc8_plantvillage <- fc7
I0403 12:52:56.789258 30936 net.cpp:399] fc8_plantvillage -> fc8_plantvillage
I0403 12:52:56.796078 30936 net.cpp:141] Setting up fc8_plantvillage
I0403 12:52:56.796106 30936 net.cpp:148] Top shape: 100 38 (3800)
I0403 12:52:56.796123 30936 net.cpp:156] Memory required for data: 831541200
I0403 12:52:56.796141 30936 layer_factory.hpp:77] Creating layer fc8_plantvillage_fc8_plantvillage_0_split
I0403 12:52:56.796160 30936 net.cpp:91] Creating Layer fc8_plantvillage_fc8_plantvillage_0_split
I0403 12:52:56.796175 30936 net.cpp:425] fc8_plantvillage_fc8_plantvillage_0_split <- fc8_plantvillage
I0403 12:52:56.796202 30936 net.cpp:399] fc8_plantvillage_fc8_plantvillage_0_split -> fc8_plantvillage_fc8_plantvillage_0_split_0
I0403 12:52:56.796226 30936 net.cpp:399] fc8_plantvillage_fc8_plantvillage_0_split -> fc8_plantvillage_fc8_plantvillage_0_split_1
I0403 12:52:56.796246 30936 net.cpp:399] fc8_plantvillage_fc8_plantvillage_0_split -> fc8_plantvillage_fc8_plantvillage_0_split_2
I0403 12:52:56.796322 30936 net.cpp:141] Setting up fc8_plantvillage_fc8_plantvillage_0_split
I0403 12:52:56.796346 30936 net.cpp:148] Top shape: 100 38 (3800)
I0403 12:52:56.796362 30936 net.cpp:148] Top shape: 100 38 (3800)
I0403 12:52:56.796378 30936 net.cpp:148] Top shape: 100 38 (3800)
I0403 12:52:56.796392 30936 net.cpp:156] Memory required for data: 831586800
I0403 12:52:56.796407 30936 layer_factory.hpp:77] Creating layer prob
I0403 12:52:56.796425 30936 net.cpp:91] Creating Layer prob
I0403 12:52:56.796440 30936 net.cpp:425] prob <- fc8_plantvillage_fc8_plantvillage_0_split_0
I0403 12:52:56.796460 30936 net.cpp:399] prob -> prob
I0403 12:52:56.796684 30936 net.cpp:141] Setting up prob
I0403 12:52:56.796713 30936 net.cpp:148] Top shape: 100 38 (3800)
I0403 12:52:56.796728 30936 net.cpp:156] Memory required for data: 831602000
I0403 12:52:56.796743 30936 layer_factory.hpp:77] Creating layer hdf5out
I0403 12:52:56.796761 30936 net.cpp:91] Creating Layer hdf5out
I0403 12:52:56.796777 30936 net.cpp:425] hdf5out <- prob
I0403 12:52:56.796793 30936 net.cpp:425] hdf5out <- label_data_1_split_0
I0403 12:52:56.799029 30936 net.cpp:141] Setting up hdf5out
…
