…
I0403 12:41:48.534970 30654 net.cpp:313] The NetState phase (1) differed from the phase (0) specified by a rule in layer data
I0403 12:41:48.535296 30654 net.cpp:49] Initializing net from parameters: 
state {
  phase: TEST
}
layer {
  name: "data"
  type: "Data"
  top: "data"
  top: "label"
  include {
    phase: TEST
  }
  transform_param {
    crop_size: 227
    mean_file: "/home/mohanty/data/final_dataset/lmdb/grayscale-40-60/mean.binaryproto"
  }
  data_param {
    source: "/home/mohanty/data/final_dataset/lmdb/grayscale-40-60/test_db"
    batch_size: 100
    backend: LMDB
  }
}
layer {
  name: "conv1"
  type: "Convolution"
  bottom: "data"
  top: "conv1"
  param {
    lr_mult: 1
    decay_mult: 1
  }
  param {
    lr_mult: 2
    decay_mult: 0
  }
  convolution_param {
    num_output: 96
    kernel_size: 11
    stride: 4
    weight_filler {
      type: "gaussian"
      std: 0.01
    }
    bias_filler {
      type: "constant"
      value: 0
    }
  }
}
layer {
  name: "relu1"
  type: "ReLU"
  bottom: "conv1"
  top: "conv1"
}
layer {
  name: "norm1"
  type: "LRN"
  bottom: "conv1"
  top: "norm1"
  lrn_param {
    local_size: 5
    alpha: 0.0001
    beta: 0.75
  }
}
layer {
  name: "pool1"
  type: "Pooling"
  bottom: "norm1"
  top: "pool1"
  pooling_param {
    pool: MAX
    kernel_size: 3
    stride: 2
  }
}
layer {
  name: "conv2"
  type: "Convolution"
  bottom: "pool1"
  top: "conv2"
  param {
    lr_mult: 1
    decay_mult: 1
  }
  param {
    lr_mult: 2
    decay_mult: 0
  }
  convolution_param {
    num_output: 256
    pad: 2
    kernel_size: 5
    group: 2
    weight_filler {
      type: "gaussian"
      std: 0.01
    }
    bias_filler {
      type: "constant"
      value: 0.1
    }
  }
}
layer {
  name: "relu2"
  type: "ReLU"
  bottom: "conv2"
  top: "conv2"
}
layer {
  name: "norm2"
  type: "LRN"
  bottom: "conv2"
  top: "norm2"
  lrn_param {
    local_size: 5
    alpha: 0.0001
    beta: 0.75
  }
}
layer {
  name: "pool2"
  type: "Pooling"
  bottom: "norm2"
  top: "pool2"
  pooling_param {
    pool: MAX
    kernel_size: 3
    stride: 2
  }
}
layer {
  name: "conv3"
  type: "Convolution"
  bottom: "pool2"
  top: "conv3"
  param {
    lr_mult: 1
    decay_mult: 1
  }
  param {
    lr_mult: 2
    decay_mult: 0
  }
  convolution_param {
    num_output: 384
    pad: 1
    kernel_size: 3
    weight_filler {
      type: "gaussian"
      std: 0.01
    }
    bias_filler {
      type: "constant"
      value: 0
    }
  }
}
layer {
  name: "relu3"
  type: "ReLU"
  bottom: "conv3"
  top: "conv3"
}
layer {
  name: "conv4"
  type: "Convolution"
  bottom: "conv3"
  top: "conv4"
  param {
    lr_mult: 1
    decay_mult: 1
  }
  param {
    lr_mult: 2
    decay_mult: 0
  }
  convolution_param {
    num_output: 384
    pad: 1
    kernel_size: 3
    group: 2
    weight_filler {
      type: "gaussian"
      std: 0.01
    }
    bias_filler {
      type: "constant"
      value: 0.1
    }
  }
}
layer {
  name: "relu4"
  type: "ReLU"
  bottom: "conv4"
  top: "conv4"
}
layer {
  name: "conv5"
  type: "Convolution"
  bottom: "conv4"
  top: "conv5"
  param {
    lr_mult: 1
    decay_mult: 1
  }
  param {
    lr_mult: 2
    decay_mult: 0
  }
  convolution_param {
    num_output: 256
    pad: 1
    kernel_size: 3
    group: 2
    weight_filler {
      type: "gaussian"
      std: 0.01
    }
    bias_filler {
      type: "constant"
      value: 0.1
    }
  }
}
layer {
  name: "relu5"
  type: "ReLU"
  bottom: "conv5"
  top: "conv5"
}
layer {
  name: "pool5"
  type: "Pooling"
  bottom: "conv5"
  top: "pool5"
  pooling_param {
    pool: MAX
    kernel_size: 3
    stride: 2
  }
}
layer {
  name: "fc6"
  type: "InnerProduct"
  bottom: "pool5"
  top: "fc6"
  param {
    lr_mult: 1
    decay_mult: 1
  }
  param {
    lr_mult: 2
    decay_mult: 0
  }
  inner_product_param {
    num_output: 4096
    weight_filler {
      type: "gaussian"
      std: 0.005
    }
    bias_filler {
      type: "constant"
      value: 0.1
    }
  }
}
layer {
  name: "relu6"
  type: "ReLU"
  bottom: "fc6"
  top: "fc6"
}
layer {
  name: "drop6"
  type: "Dropout"
  bottom: "fc6"
  top: "fc6"
  dropout_param {
    dropout_ratio: 0.5
  }
}
layer {
  name: "fc7"
  type: "InnerProduct"
  bottom: "fc6"
  top: "fc7"
  param {
    lr_mult: 1
    decay_mult: 1
  }
  param {
    lr_mult: 2
    decay_mult: 0
  }
  inner_product_param {
    num_output: 4096
    weight_filler {
      type: "gaussian"
      std: 0.005
    }
    bias_filler {
      type: "constant"
      value: 0.1
    }
  }
}
layer {
  name: "relu7"
  type: "ReLU"
  bottom: "fc7"
  top: "fc7"
}
layer {
  name: "drop7"
  type: "Dropout"
  bottom: "fc7"
  top: "fc7"
  dropout_param {
    dropout_ratio: 0.5
  }
}
layer {
  name: "fc8_plantvillage"
  type: "InnerProduct"
  bottom: "fc7"
  top: "fc8_plantvillage"
  param {
    lr_mult: 1
    decay_mult: 1
  }
  param {
    lr_mult: 2
    decay_mult: 0
  }
  inner_product_param {
    num_output: 38
    weight_filler {
      type: "gaussian"
      std: 0.01
    }
    bias_filler {
      type: "constant"
      value: 0
    }
  }
}
layer {
  name: "prob"
  type: "Softmax"
  bottom: "fc8_plantvillage"
  top: "prob"
  include {
    phase: TEST
  }
}
layer {
  name: "hdf5out"
  type: "HDF5Output"
  bottom: "prob"
  bottom: "label"
  include {
    phase: TEST
  }
  hdf5_output_param {
    file_name: "hdf5_dumps/iter_1752.h5"
  }
}
layer {
  name: "loss"
  type: "SoftmaxWithLoss"
  bottom: "fc8_plantvillage"
  bottom: "label"
  top: "loss"
}
layer {
  name: "accuracy"
  type: "Accuracy"
  bottom: "fc8_plantvillage"
  bottom: "label"
  top: "accuracy"
  include {
    phase: TEST
  }
}
I0403 12:41:48.535889 30654 layer_factory.hpp:77] Creating layer data
I0403 12:41:48.536525 30654 net.cpp:91] Creating Layer data
I0403 12:41:48.536557 30654 net.cpp:399] data -> data
I0403 12:41:48.536620 30654 net.cpp:399] data -> label
I0403 12:41:48.536658 30654 data_transformer.cpp:25] Loading mean file from: /home/mohanty/data/final_dataset/lmdb/grayscale-40-60/mean.binaryproto
I0403 12:41:48.540073 30659 db_lmdb.cpp:38] Opened lmdb /home/mohanty/data/final_dataset/lmdb/grayscale-40-60/test_db
I0403 12:41:48.551704 30654 data_layer.cpp:41] output data size: 100,3,227,227
I0403 12:41:48.671540 30654 net.cpp:141] Setting up data
I0403 12:41:48.671612 30654 net.cpp:148] Top shape: 100 3 227 227 (15458700)
I0403 12:41:48.671634 30654 net.cpp:148] Top shape: 100 (100)
I0403 12:41:48.671649 30654 net.cpp:156] Memory required for data: 61835200
I0403 12:41:48.671676 30654 layer_factory.hpp:77] Creating layer label_data_1_split
I0403 12:41:48.671701 30654 net.cpp:91] Creating Layer label_data_1_split
I0403 12:41:48.671720 30654 net.cpp:425] label_data_1_split <- label
I0403 12:41:48.671751 30654 net.cpp:399] label_data_1_split -> label_data_1_split_0
I0403 12:41:48.671777 30654 net.cpp:399] label_data_1_split -> label_data_1_split_1
I0403 12:41:48.671798 30654 net.cpp:399] label_data_1_split -> label_data_1_split_2
I0403 12:41:48.671859 30654 net.cpp:141] Setting up label_data_1_split
I0403 12:41:48.671880 30654 net.cpp:148] Top shape: 100 (100)
I0403 12:41:48.671897 30654 net.cpp:148] Top shape: 100 (100)
I0403 12:41:48.671914 30654 net.cpp:148] Top shape: 100 (100)
I0403 12:41:48.671929 30654 net.cpp:156] Memory required for data: 61836400
I0403 12:41:48.671943 30654 layer_factory.hpp:77] Creating layer conv1
I0403 12:41:48.671975 30654 net.cpp:91] Creating Layer conv1
I0403 12:41:48.671993 30654 net.cpp:425] conv1 <- data
I0403 12:41:48.672013 30654 net.cpp:399] conv1 -> conv1
I0403 12:41:48.814471 30654 net.cpp:141] Setting up conv1
I0403 12:41:48.814518 30654 net.cpp:148] Top shape: 100 96 55 55 (29040000)
I0403 12:41:48.814549 30654 net.cpp:156] Memory required for data: 177996400
I0403 12:41:48.814582 30654 layer_factory.hpp:77] Creating layer relu1
I0403 12:41:48.814610 30654 net.cpp:91] Creating Layer relu1
I0403 12:41:48.814630 30654 net.cpp:425] relu1 <- conv1
I0403 12:41:48.814649 30654 net.cpp:386] relu1 -> conv1 (in-place)
I0403 12:41:48.814935 30654 net.cpp:141] Setting up relu1
I0403 12:41:48.814965 30654 net.cpp:148] Top shape: 100 96 55 55 (29040000)
I0403 12:41:48.815002 30654 net.cpp:156] Memory required for data: 294156400
I0403 12:41:48.815019 30654 layer_factory.hpp:77] Creating layer norm1
I0403 12:41:48.815047 30654 net.cpp:91] Creating Layer norm1
I0403 12:41:48.815065 30654 net.cpp:425] norm1 <- conv1
I0403 12:41:48.815083 30654 net.cpp:399] norm1 -> norm1
I0403 12:41:48.815428 30654 net.cpp:141] Setting up norm1
I0403 12:41:48.815456 30654 net.cpp:148] Top shape: 100 96 55 55 (29040000)
I0403 12:41:48.815481 30654 net.cpp:156] Memory required for data: 410316400
I0403 12:41:48.815497 30654 layer_factory.hpp:77] Creating layer pool1
I0403 12:41:48.815533 30654 net.cpp:91] Creating Layer pool1
I0403 12:41:48.815551 30654 net.cpp:425] pool1 <- norm1
I0403 12:41:48.815569 30654 net.cpp:399] pool1 -> pool1
I0403 12:41:48.815635 30654 net.cpp:141] Setting up pool1
I0403 12:41:48.815660 30654 net.cpp:148] Top shape: 100 96 27 27 (6998400)
I0403 12:41:48.815676 30654 net.cpp:156] Memory required for data: 438310000
I0403 12:41:48.815691 30654 layer_factory.hpp:77] Creating layer conv2
I0403 12:41:48.815717 30654 net.cpp:91] Creating Layer conv2
I0403 12:41:48.815734 30654 net.cpp:425] conv2 <- pool1
I0403 12:41:48.815754 30654 net.cpp:399] conv2 -> conv2
I0403 12:41:48.831075 30654 net.cpp:141] Setting up conv2
I0403 12:41:48.831132 30654 net.cpp:148] Top shape: 100 256 27 27 (18662400)
I0403 12:41:48.831149 30654 net.cpp:156] Memory required for data: 512959600
I0403 12:41:48.831173 30654 layer_factory.hpp:77] Creating layer relu2
I0403 12:41:48.831200 30654 net.cpp:91] Creating Layer relu2
I0403 12:41:48.831218 30654 net.cpp:425] relu2 <- conv2
I0403 12:41:48.831236 30654 net.cpp:386] relu2 -> conv2 (in-place)
I0403 12:41:48.831498 30654 net.cpp:141] Setting up relu2
I0403 12:41:48.831524 30654 net.cpp:148] Top shape: 100 256 27 27 (18662400)
I0403 12:41:48.831540 30654 net.cpp:156] Memory required for data: 587609200
I0403 12:41:48.831555 30654 layer_factory.hpp:77] Creating layer norm2
I0403 12:41:48.831578 30654 net.cpp:91] Creating Layer norm2
I0403 12:41:48.831593 30654 net.cpp:425] norm2 <- conv2
I0403 12:41:48.831612 30654 net.cpp:399] norm2 -> norm2
I0403 12:41:48.831866 30654 net.cpp:141] Setting up norm2
I0403 12:41:48.831892 30654 net.cpp:148] Top shape: 100 256 27 27 (18662400)
I0403 12:41:48.831907 30654 net.cpp:156] Memory required for data: 662258800
I0403 12:41:48.831923 30654 layer_factory.hpp:77] Creating layer pool2
I0403 12:41:48.831941 30654 net.cpp:91] Creating Layer pool2
I0403 12:41:48.831956 30654 net.cpp:425] pool2 <- norm2
I0403 12:41:48.831974 30654 net.cpp:399] pool2 -> pool2
I0403 12:41:48.832025 30654 net.cpp:141] Setting up pool2
I0403 12:41:48.832047 30654 net.cpp:148] Top shape: 100 256 13 13 (4326400)
I0403 12:41:48.832062 30654 net.cpp:156] Memory required for data: 679564400
I0403 12:41:48.832077 30654 layer_factory.hpp:77] Creating layer conv3
I0403 12:41:48.832099 30654 net.cpp:91] Creating Layer conv3
I0403 12:41:48.832116 30654 net.cpp:425] conv3 <- pool2
I0403 12:41:48.832135 30654 net.cpp:399] conv3 -> conv3
I0403 12:41:48.872285 30654 net.cpp:141] Setting up conv3
I0403 12:41:48.872370 30654 net.cpp:148] Top shape: 100 384 13 13 (6489600)
I0403 12:41:48.872387 30654 net.cpp:156] Memory required for data: 705522800
I0403 12:41:48.872414 30654 layer_factory.hpp:77] Creating layer relu3
I0403 12:41:48.872438 30654 net.cpp:91] Creating Layer relu3
I0403 12:41:48.872457 30654 net.cpp:425] relu3 <- conv3
I0403 12:41:48.872479 30654 net.cpp:386] relu3 -> conv3 (in-place)
I0403 12:41:48.872761 30654 net.cpp:141] Setting up relu3
I0403 12:41:48.872788 30654 net.cpp:148] Top shape: 100 384 13 13 (6489600)
I0403 12:41:48.872805 30654 net.cpp:156] Memory required for data: 731481200
I0403 12:41:48.872820 30654 layer_factory.hpp:77] Creating layer conv4
I0403 12:41:48.872848 30654 net.cpp:91] Creating Layer conv4
I0403 12:41:48.872866 30654 net.cpp:425] conv4 <- conv3
I0403 12:41:48.872889 30654 net.cpp:399] conv4 -> conv4
I0403 12:41:48.903713 30654 net.cpp:141] Setting up conv4
I0403 12:41:48.903795 30654 net.cpp:148] Top shape: 100 384 13 13 (6489600)
I0403 12:41:48.903843 30654 net.cpp:156] Memory required for data: 757439600
I0403 12:41:48.903867 30654 layer_factory.hpp:77] Creating layer relu4
I0403 12:41:48.903887 30654 net.cpp:91] Creating Layer relu4
I0403 12:41:48.903905 30654 net.cpp:425] relu4 <- conv4
I0403 12:41:48.903925 30654 net.cpp:386] relu4 -> conv4 (in-place)
I0403 12:41:48.904217 30654 net.cpp:141] Setting up relu4
I0403 12:41:48.904247 30654 net.cpp:148] Top shape: 100 384 13 13 (6489600)
I0403 12:41:48.904263 30654 net.cpp:156] Memory required for data: 783398000
I0403 12:41:48.904279 30654 layer_factory.hpp:77] Creating layer conv5
I0403 12:41:48.904305 30654 net.cpp:91] Creating Layer conv5
I0403 12:41:48.904323 30654 net.cpp:425] conv5 <- conv4
I0403 12:41:48.904343 30654 net.cpp:399] conv5 -> conv5
I0403 12:41:48.925398 30654 net.cpp:141] Setting up conv5
I0403 12:41:48.925462 30654 net.cpp:148] Top shape: 100 256 13 13 (4326400)
I0403 12:41:48.925480 30654 net.cpp:156] Memory required for data: 800703600
I0403 12:41:48.925506 30654 layer_factory.hpp:77] Creating layer relu5
I0403 12:41:48.925528 30654 net.cpp:91] Creating Layer relu5
I0403 12:41:48.925544 30654 net.cpp:425] relu5 <- conv5
I0403 12:41:48.925565 30654 net.cpp:386] relu5 -> conv5 (in-place)
I0403 12:41:48.925850 30654 net.cpp:141] Setting up relu5
I0403 12:41:48.925878 30654 net.cpp:148] Top shape: 100 256 13 13 (4326400)
I0403 12:41:48.925894 30654 net.cpp:156] Memory required for data: 818009200
I0403 12:41:48.925910 30654 layer_factory.hpp:77] Creating layer pool5
I0403 12:41:48.925935 30654 net.cpp:91] Creating Layer pool5
I0403 12:41:48.925952 30654 net.cpp:425] pool5 <- conv5
I0403 12:41:48.925971 30654 net.cpp:399] pool5 -> pool5
I0403 12:41:48.926036 30654 net.cpp:141] Setting up pool5
I0403 12:41:48.926060 30654 net.cpp:148] Top shape: 100 256 6 6 (921600)
I0403 12:41:48.926110 30654 net.cpp:156] Memory required for data: 821695600
I0403 12:41:48.926131 30654 layer_factory.hpp:77] Creating layer fc6
I0403 12:41:48.926158 30654 net.cpp:91] Creating Layer fc6
I0403 12:41:48.926180 30654 net.cpp:425] fc6 <- pool5
I0403 12:41:48.926204 30654 net.cpp:399] fc6 -> fc6
I0403 12:41:50.498991 30654 net.cpp:141] Setting up fc6
I0403 12:41:50.499084 30654 net.cpp:148] Top shape: 100 4096 (409600)
I0403 12:41:50.499102 30654 net.cpp:156] Memory required for data: 823334000
I0403 12:41:50.499125 30654 layer_factory.hpp:77] Creating layer relu6
I0403 12:41:50.499146 30654 net.cpp:91] Creating Layer relu6
I0403 12:41:50.499164 30654 net.cpp:425] relu6 <- fc6
I0403 12:41:50.499188 30654 net.cpp:386] relu6 -> fc6 (in-place)
I0403 12:41:50.499408 30654 net.cpp:141] Setting up relu6
I0403 12:41:50.499435 30654 net.cpp:148] Top shape: 100 4096 (409600)
I0403 12:41:50.499451 30654 net.cpp:156] Memory required for data: 824972400
I0403 12:41:50.499466 30654 layer_factory.hpp:77] Creating layer drop6
I0403 12:41:50.499485 30654 net.cpp:91] Creating Layer drop6
I0403 12:41:50.499500 30654 net.cpp:425] drop6 <- fc6
I0403 12:41:50.499521 30654 net.cpp:386] drop6 -> fc6 (in-place)
I0403 12:41:50.499573 30654 net.cpp:141] Setting up drop6
I0403 12:41:50.499595 30654 net.cpp:148] Top shape: 100 4096 (409600)
I0403 12:41:50.499610 30654 net.cpp:156] Memory required for data: 826610800
I0403 12:41:50.499625 30654 layer_factory.hpp:77] Creating layer fc7
I0403 12:41:50.499649 30654 net.cpp:91] Creating Layer fc7
I0403 12:41:50.499665 30654 net.cpp:425] fc7 <- fc6
I0403 12:41:50.499687 30654 net.cpp:399] fc7 -> fc7
I0403 12:41:51.191217 30654 net.cpp:141] Setting up fc7
I0403 12:41:51.191269 30654 net.cpp:148] Top shape: 100 4096 (409600)
I0403 12:41:51.191287 30654 net.cpp:156] Memory required for data: 828249200
I0403 12:41:51.191309 30654 layer_factory.hpp:77] Creating layer relu7
I0403 12:41:51.191332 30654 net.cpp:91] Creating Layer relu7
I0403 12:41:51.191349 30654 net.cpp:425] relu7 <- fc7
I0403 12:41:51.191372 30654 net.cpp:386] relu7 -> fc7 (in-place)
I0403 12:41:51.191761 30654 net.cpp:141] Setting up relu7
I0403 12:41:51.191788 30654 net.cpp:148] Top shape: 100 4096 (409600)
I0403 12:41:51.191838 30654 net.cpp:156] Memory required for data: 829887600
I0403 12:41:51.191854 30654 layer_factory.hpp:77] Creating layer drop7
I0403 12:41:51.191874 30654 net.cpp:91] Creating Layer drop7
I0403 12:41:51.191890 30654 net.cpp:425] drop7 <- fc7
I0403 12:41:51.191911 30654 net.cpp:386] drop7 -> fc7 (in-place)
I0403 12:41:51.191956 30654 net.cpp:141] Setting up drop7
I0403 12:41:51.191978 30654 net.cpp:148] Top shape: 100 4096 (409600)
I0403 12:41:51.191993 30654 net.cpp:156] Memory required for data: 831526000
I0403 12:41:51.192009 30654 layer_factory.hpp:77] Creating layer fc8_plantvillage
I0403 12:41:51.192033 30654 net.cpp:91] Creating Layer fc8_plantvillage
I0403 12:41:51.192050 30654 net.cpp:425] fc8_plantvillage <- fc7
I0403 12:41:51.192071 30654 net.cpp:399] fc8_plantvillage -> fc8_plantvillage
I0403 12:41:51.199013 30654 net.cpp:141] Setting up fc8_plantvillage
I0403 12:41:51.199043 30654 net.cpp:148] Top shape: 100 38 (3800)
I0403 12:41:51.199059 30654 net.cpp:156] Memory required for data: 831541200
I0403 12:41:51.199079 30654 layer_factory.hpp:77] Creating layer fc8_plantvillage_fc8_plantvillage_0_split
I0403 12:41:51.199097 30654 net.cpp:91] Creating Layer fc8_plantvillage_fc8_plantvillage_0_split
I0403 12:41:51.199113 30654 net.cpp:425] fc8_plantvillage_fc8_plantvillage_0_split <- fc8_plantvillage
I0403 12:41:51.199134 30654 net.cpp:399] fc8_plantvillage_fc8_plantvillage_0_split -> fc8_plantvillage_fc8_plantvillage_0_split_0
I0403 12:41:51.199156 30654 net.cpp:399] fc8_plantvillage_fc8_plantvillage_0_split -> fc8_plantvillage_fc8_plantvillage_0_split_1
I0403 12:41:51.199182 30654 net.cpp:399] fc8_plantvillage_fc8_plantvillage_0_split -> fc8_plantvillage_fc8_plantvillage_0_split_2
I0403 12:41:51.199272 30654 net.cpp:141] Setting up fc8_plantvillage_fc8_plantvillage_0_split
I0403 12:41:51.199302 30654 net.cpp:148] Top shape: 100 38 (3800)
I0403 12:41:51.199321 30654 net.cpp:148] Top shape: 100 38 (3800)
I0403 12:41:51.199339 30654 net.cpp:148] Top shape: 100 38 (3800)
I0403 12:41:51.199355 30654 net.cpp:156] Memory required for data: 831586800
I0403 12:41:51.199372 30654 layer_factory.hpp:77] Creating layer prob
I0403 12:41:51.199390 30654 net.cpp:91] Creating Layer prob
I0403 12:41:51.199406 30654 net.cpp:425] prob <- fc8_plantvillage_fc8_plantvillage_0_split_0
I0403 12:41:51.199425 30654 net.cpp:399] prob -> prob
I0403 12:41:51.199666 30654 net.cpp:141] Setting up prob
I0403 12:41:51.199693 30654 net.cpp:148] Top shape: 100 38 (3800)
I0403 12:41:51.199709 30654 net.cpp:156] Memory required for data: 831602000
I0403 12:41:51.199724 30654 layer_factory.hpp:77] Creating layer hdf5out
I0403 12:41:51.199743 30654 net.cpp:91] Creating Layer hdf5out
I0403 12:41:51.199759 30654 net.cpp:425] hdf5out <- prob
I0403 12:41:51.199775 30654 net.cpp:425] hdf5out <- label_data_1_split_0
I0403 12:41:51.201829 30654 net.cpp:141] Setting up hdf5out
…
