…
I0403 13:03:58.456598 31235 net.cpp:313] The NetState phase (1) differed from the phase (0) specified by a rule in layer data
I0403 13:03:58.456902 31235 net.cpp:49] Initializing net from parameters: 
state {
  phase: TEST
}
layer {
  name: "data"
  type: "Data"
  top: "data"
  top: "label"
  include {
    phase: TEST
  }
  transform_param {
    crop_size: 227
    mean_file: "/home/mohanty/data/final_dataset/lmdb/grayscale-40-60/mean.binaryproto"
  }
  data_param {
    source: "/home/mohanty/data/final_dataset/lmdb/grayscale-40-60/test_db"
    batch_size: 100
    backend: LMDB
  }
}
layer {
  name: "conv1"
  type: "Convolution"
  bottom: "data"
  top: "conv1"
  param {
    lr_mult: 1
    decay_mult: 1
  }
  param {
    lr_mult: 2
    decay_mult: 0
  }
  convolution_param {
    num_output: 96
    kernel_size: 11
    stride: 4
    weight_filler {
      type: "gaussian"
      std: 0.01
    }
    bias_filler {
      type: "constant"
      value: 0
    }
  }
}
layer {
  name: "relu1"
  type: "ReLU"
  bottom: "conv1"
  top: "conv1"
}
layer {
  name: "norm1"
  type: "LRN"
  bottom: "conv1"
  top: "norm1"
  lrn_param {
    local_size: 5
    alpha: 0.0001
    beta: 0.75
  }
}
layer {
  name: "pool1"
  type: "Pooling"
  bottom: "norm1"
  top: "pool1"
  pooling_param {
    pool: MAX
    kernel_size: 3
    stride: 2
  }
}
layer {
  name: "conv2"
  type: "Convolution"
  bottom: "pool1"
  top: "conv2"
  param {
    lr_mult: 1
    decay_mult: 1
  }
  param {
    lr_mult: 2
    decay_mult: 0
  }
  convolution_param {
    num_output: 256
    pad: 2
    kernel_size: 5
    group: 2
    weight_filler {
      type: "gaussian"
      std: 0.01
    }
    bias_filler {
      type: "constant"
      value: 0.1
    }
  }
}
layer {
  name: "relu2"
  type: "ReLU"
  bottom: "conv2"
  top: "conv2"
}
layer {
  name: "norm2"
  type: "LRN"
  bottom: "conv2"
  top: "norm2"
  lrn_param {
    local_size: 5
    alpha: 0.0001
    beta: 0.75
  }
}
layer {
  name: "pool2"
  type: "Pooling"
  bottom: "norm2"
  top: "pool2"
  pooling_param {
    pool: MAX
    kernel_size: 3
    stride: 2
  }
}
layer {
  name: "conv3"
  type: "Convolution"
  bottom: "pool2"
  top: "conv3"
  param {
    lr_mult: 1
    decay_mult: 1
  }
  param {
    lr_mult: 2
    decay_mult: 0
  }
  convolution_param {
    num_output: 384
    pad: 1
    kernel_size: 3
    weight_filler {
      type: "gaussian"
      std: 0.01
    }
    bias_filler {
      type: "constant"
      value: 0
    }
  }
}
layer {
  name: "relu3"
  type: "ReLU"
  bottom: "conv3"
  top: "conv3"
}
layer {
  name: "conv4"
  type: "Convolution"
  bottom: "conv3"
  top: "conv4"
  param {
    lr_mult: 1
    decay_mult: 1
  }
  param {
    lr_mult: 2
    decay_mult: 0
  }
  convolution_param {
    num_output: 384
    pad: 1
    kernel_size: 3
    group: 2
    weight_filler {
      type: "gaussian"
      std: 0.01
    }
    bias_filler {
      type: "constant"
      value: 0.1
    }
  }
}
layer {
  name: "relu4"
  type: "ReLU"
  bottom: "conv4"
  top: "conv4"
}
layer {
  name: "conv5"
  type: "Convolution"
  bottom: "conv4"
  top: "conv5"
  param {
    lr_mult: 1
    decay_mult: 1
  }
  param {
    lr_mult: 2
    decay_mult: 0
  }
  convolution_param {
    num_output: 256
    pad: 1
    kernel_size: 3
    group: 2
    weight_filler {
      type: "gaussian"
      std: 0.01
    }
    bias_filler {
      type: "constant"
      value: 0.1
    }
  }
}
layer {
  name: "relu5"
  type: "ReLU"
  bottom: "conv5"
  top: "conv5"
}
layer {
  name: "pool5"
  type: "Pooling"
  bottom: "conv5"
  top: "pool5"
  pooling_param {
    pool: MAX
    kernel_size: 3
    stride: 2
  }
}
layer {
  name: "fc6"
  type: "InnerProduct"
  bottom: "pool5"
  top: "fc6"
  param {
    lr_mult: 1
    decay_mult: 1
  }
  param {
    lr_mult: 2
    decay_mult: 0
  }
  inner_product_param {
    num_output: 4096
    weight_filler {
      type: "gaussian"
      std: 0.005
    }
    bias_filler {
      type: "constant"
      value: 0.1
    }
  }
}
layer {
  name: "relu6"
  type: "ReLU"
  bottom: "fc6"
  top: "fc6"
}
layer {
  name: "drop6"
  type: "Dropout"
  bottom: "fc6"
  top: "fc6"
  dropout_param {
    dropout_ratio: 0.5
  }
}
layer {
  name: "fc7"
  type: "InnerProduct"
  bottom: "fc6"
  top: "fc7"
  param {
    lr_mult: 1
    decay_mult: 1
  }
  param {
    lr_mult: 2
    decay_mult: 0
  }
  inner_product_param {
    num_output: 4096
    weight_filler {
      type: "gaussian"
      std: 0.005
    }
    bias_filler {
      type: "constant"
      value: 0.1
    }
  }
}
layer {
  name: "relu7"
  type: "ReLU"
  bottom: "fc7"
  top: "fc7"
}
layer {
  name: "drop7"
  type: "Dropout"
  bottom: "fc7"
  top: "fc7"
  dropout_param {
    dropout_ratio: 0.5
  }
}
layer {
  name: "fc8_plantvillage"
  type: "InnerProduct"
  bottom: "fc7"
  top: "fc8_plantvillage"
  param {
    lr_mult: 1
    decay_mult: 1
  }
  param {
    lr_mult: 2
    decay_mult: 0
  }
  inner_product_param {
    num_output: 38
    weight_filler {
      type: "gaussian"
      std: 0.01
    }
    bias_filler {
      type: "constant"
      value: 0
    }
  }
}
layer {
  name: "prob"
  type: "Softmax"
  bottom: "fc8_plantvillage"
  top: "prob"
  include {
    phase: TEST
  }
}
layer {
  name: "hdf5out"
  type: "HDF5Output"
  bottom: "prob"
  bottom: "label"
  include {
    phase: TEST
  }
  hdf5_output_param {
    file_name: "hdf5_dumps/iter_6132.h5"
  }
}
layer {
  name: "loss"
  type: "SoftmaxWithLoss"
  bottom: "fc8_plantvillage"
  bottom: "label"
  top: "loss"
}
layer {
  name: "accuracy"
  type: "Accuracy"
  bottom: "fc8_plantvillage"
  bottom: "label"
  top: "accuracy"
  include {
    phase: TEST
  }
}
I0403 13:03:58.457463 31235 layer_factory.hpp:77] Creating layer data
I0403 13:03:58.458122 31235 net.cpp:91] Creating Layer data
I0403 13:03:58.458154 31235 net.cpp:399] data -> data
I0403 13:03:58.458206 31235 net.cpp:399] data -> label
I0403 13:03:58.458250 31235 data_transformer.cpp:25] Loading mean file from: /home/mohanty/data/final_dataset/lmdb/grayscale-40-60/mean.binaryproto
I0403 13:03:58.460752 31239 db_lmdb.cpp:38] Opened lmdb /home/mohanty/data/final_dataset/lmdb/grayscale-40-60/test_db
I0403 13:03:58.472982 31235 data_layer.cpp:41] output data size: 100,3,227,227
I0403 13:03:58.590700 31235 net.cpp:141] Setting up data
I0403 13:03:58.590819 31235 net.cpp:148] Top shape: 100 3 227 227 (15458700)
I0403 13:03:58.590843 31235 net.cpp:148] Top shape: 100 (100)
I0403 13:03:58.590859 31235 net.cpp:156] Memory required for data: 61835200
I0403 13:03:58.590888 31235 layer_factory.hpp:77] Creating layer label_data_1_split
I0403 13:03:58.590914 31235 net.cpp:91] Creating Layer label_data_1_split
I0403 13:03:58.590934 31235 net.cpp:425] label_data_1_split <- label
I0403 13:03:58.590966 31235 net.cpp:399] label_data_1_split -> label_data_1_split_0
I0403 13:03:58.590994 31235 net.cpp:399] label_data_1_split -> label_data_1_split_1
I0403 13:03:58.591017 31235 net.cpp:399] label_data_1_split -> label_data_1_split_2
I0403 13:03:58.591083 31235 net.cpp:141] Setting up label_data_1_split
I0403 13:03:58.591105 31235 net.cpp:148] Top shape: 100 (100)
I0403 13:03:58.591122 31235 net.cpp:148] Top shape: 100 (100)
I0403 13:03:58.591140 31235 net.cpp:148] Top shape: 100 (100)
I0403 13:03:58.591155 31235 net.cpp:156] Memory required for data: 61836400
I0403 13:03:58.591169 31235 layer_factory.hpp:77] Creating layer conv1
I0403 13:03:58.591202 31235 net.cpp:91] Creating Layer conv1
I0403 13:03:58.591225 31235 net.cpp:425] conv1 <- data
I0403 13:03:58.591246 31235 net.cpp:399] conv1 -> conv1
I0403 13:03:58.732468 31235 net.cpp:141] Setting up conv1
I0403 13:03:58.732556 31235 net.cpp:148] Top shape: 100 96 55 55 (29040000)
I0403 13:03:58.732574 31235 net.cpp:156] Memory required for data: 177996400
I0403 13:03:58.732606 31235 layer_factory.hpp:77] Creating layer relu1
I0403 13:03:58.732633 31235 net.cpp:91] Creating Layer relu1
I0403 13:03:58.732652 31235 net.cpp:425] relu1 <- conv1
I0403 13:03:58.732671 31235 net.cpp:386] relu1 -> conv1 (in-place)
I0403 13:03:58.732939 31235 net.cpp:141] Setting up relu1
I0403 13:03:58.732967 31235 net.cpp:148] Top shape: 100 96 55 55 (29040000)
I0403 13:03:58.733016 31235 net.cpp:156] Memory required for data: 294156400
I0403 13:03:58.733032 31235 layer_factory.hpp:77] Creating layer norm1
I0403 13:03:58.733062 31235 net.cpp:91] Creating Layer norm1
I0403 13:03:58.733079 31235 net.cpp:425] norm1 <- conv1
I0403 13:03:58.733098 31235 net.cpp:399] norm1 -> norm1
I0403 13:03:58.733429 31235 net.cpp:141] Setting up norm1
I0403 13:03:58.733458 31235 net.cpp:148] Top shape: 100 96 55 55 (29040000)
I0403 13:03:58.733474 31235 net.cpp:156] Memory required for data: 410316400
I0403 13:03:58.733489 31235 layer_factory.hpp:77] Creating layer pool1
I0403 13:03:58.733513 31235 net.cpp:91] Creating Layer pool1
I0403 13:03:58.733531 31235 net.cpp:425] pool1 <- norm1
I0403 13:03:58.733551 31235 net.cpp:399] pool1 -> pool1
I0403 13:03:58.733618 31235 net.cpp:141] Setting up pool1
I0403 13:03:58.733642 31235 net.cpp:148] Top shape: 100 96 27 27 (6998400)
I0403 13:03:58.733659 31235 net.cpp:156] Memory required for data: 438310000
I0403 13:03:58.733674 31235 layer_factory.hpp:77] Creating layer conv2
I0403 13:03:58.733698 31235 net.cpp:91] Creating Layer conv2
I0403 13:03:58.733716 31235 net.cpp:425] conv2 <- pool1
I0403 13:03:58.733734 31235 net.cpp:399] conv2 -> conv2
I0403 13:03:58.748973 31235 net.cpp:141] Setting up conv2
I0403 13:03:58.749060 31235 net.cpp:148] Top shape: 100 256 27 27 (18662400)
I0403 13:03:58.749078 31235 net.cpp:156] Memory required for data: 512959600
I0403 13:03:58.749101 31235 layer_factory.hpp:77] Creating layer relu2
I0403 13:03:58.749124 31235 net.cpp:91] Creating Layer relu2
I0403 13:03:58.749140 31235 net.cpp:425] relu2 <- conv2
I0403 13:03:58.749158 31235 net.cpp:386] relu2 -> conv2 (in-place)
I0403 13:03:58.749441 31235 net.cpp:141] Setting up relu2
I0403 13:03:58.749469 31235 net.cpp:148] Top shape: 100 256 27 27 (18662400)
I0403 13:03:58.749485 31235 net.cpp:156] Memory required for data: 587609200
I0403 13:03:58.749500 31235 layer_factory.hpp:77] Creating layer norm2
I0403 13:03:58.749524 31235 net.cpp:91] Creating Layer norm2
I0403 13:03:58.749541 31235 net.cpp:425] norm2 <- conv2
I0403 13:03:58.749560 31235 net.cpp:399] norm2 -> norm2
I0403 13:03:58.749760 31235 net.cpp:141] Setting up norm2
I0403 13:03:58.749788 31235 net.cpp:148] Top shape: 100 256 27 27 (18662400)
I0403 13:03:58.749802 31235 net.cpp:156] Memory required for data: 662258800
I0403 13:03:58.749817 31235 layer_factory.hpp:77] Creating layer pool2
I0403 13:03:58.749836 31235 net.cpp:91] Creating Layer pool2
I0403 13:03:58.749852 31235 net.cpp:425] pool2 <- norm2
I0403 13:03:58.749871 31235 net.cpp:399] pool2 -> pool2
I0403 13:03:58.749923 31235 net.cpp:141] Setting up pool2
I0403 13:03:58.749946 31235 net.cpp:148] Top shape: 100 256 13 13 (4326400)
I0403 13:03:58.749961 31235 net.cpp:156] Memory required for data: 679564400
I0403 13:03:58.749977 31235 layer_factory.hpp:77] Creating layer conv3
I0403 13:03:58.749999 31235 net.cpp:91] Creating Layer conv3
I0403 13:03:58.750015 31235 net.cpp:425] conv3 <- pool2
I0403 13:03:58.750033 31235 net.cpp:399] conv3 -> conv3
I0403 13:03:58.791818 31235 net.cpp:141] Setting up conv3
I0403 13:03:58.791903 31235 net.cpp:148] Top shape: 100 384 13 13 (6489600)
I0403 13:03:58.791919 31235 net.cpp:156] Memory required for data: 705522800
I0403 13:03:58.791945 31235 layer_factory.hpp:77] Creating layer relu3
I0403 13:03:58.791970 31235 net.cpp:91] Creating Layer relu3
I0403 13:03:58.791987 31235 net.cpp:425] relu3 <- conv3
I0403 13:03:58.792011 31235 net.cpp:386] relu3 -> conv3 (in-place)
I0403 13:03:58.792302 31235 net.cpp:141] Setting up relu3
I0403 13:03:58.792330 31235 net.cpp:148] Top shape: 100 384 13 13 (6489600)
I0403 13:03:58.792346 31235 net.cpp:156] Memory required for data: 731481200
I0403 13:03:58.792361 31235 layer_factory.hpp:77] Creating layer conv4
I0403 13:03:58.792388 31235 net.cpp:91] Creating Layer conv4
I0403 13:03:58.792407 31235 net.cpp:425] conv4 <- conv3
I0403 13:03:58.792428 31235 net.cpp:399] conv4 -> conv4
I0403 13:03:58.823287 31235 net.cpp:141] Setting up conv4
I0403 13:03:58.823355 31235 net.cpp:148] Top shape: 100 384 13 13 (6489600)
I0403 13:03:58.823403 31235 net.cpp:156] Memory required for data: 757439600
I0403 13:03:58.823424 31235 layer_factory.hpp:77] Creating layer relu4
I0403 13:03:58.823447 31235 net.cpp:91] Creating Layer relu4
I0403 13:03:58.823465 31235 net.cpp:425] relu4 <- conv4
I0403 13:03:58.823487 31235 net.cpp:386] relu4 -> conv4 (in-place)
I0403 13:03:58.823781 31235 net.cpp:141] Setting up relu4
I0403 13:03:58.823808 31235 net.cpp:148] Top shape: 100 384 13 13 (6489600)
I0403 13:03:58.823823 31235 net.cpp:156] Memory required for data: 783398000
I0403 13:03:58.823838 31235 layer_factory.hpp:77] Creating layer conv5
I0403 13:03:58.823865 31235 net.cpp:91] Creating Layer conv5
I0403 13:03:58.823882 31235 net.cpp:425] conv5 <- conv4
I0403 13:03:58.823904 31235 net.cpp:399] conv5 -> conv5
I0403 13:03:58.844889 31235 net.cpp:141] Setting up conv5
I0403 13:03:58.844954 31235 net.cpp:148] Top shape: 100 256 13 13 (4326400)
I0403 13:03:58.844970 31235 net.cpp:156] Memory required for data: 800703600
I0403 13:03:58.844996 31235 layer_factory.hpp:77] Creating layer relu5
I0403 13:03:58.845019 31235 net.cpp:91] Creating Layer relu5
I0403 13:03:58.845036 31235 net.cpp:425] relu5 <- conv5
I0403 13:03:58.845058 31235 net.cpp:386] relu5 -> conv5 (in-place)
I0403 13:03:58.845340 31235 net.cpp:141] Setting up relu5
I0403 13:03:58.845369 31235 net.cpp:148] Top shape: 100 256 13 13 (4326400)
I0403 13:03:58.845386 31235 net.cpp:156] Memory required for data: 818009200
I0403 13:03:58.845401 31235 layer_factory.hpp:77] Creating layer pool5
I0403 13:03:58.845425 31235 net.cpp:91] Creating Layer pool5
I0403 13:03:58.845443 31235 net.cpp:425] pool5 <- conv5
I0403 13:03:58.845463 31235 net.cpp:399] pool5 -> pool5
I0403 13:03:58.845525 31235 net.cpp:141] Setting up pool5
I0403 13:03:58.845549 31235 net.cpp:148] Top shape: 100 256 6 6 (921600)
I0403 13:03:58.845600 31235 net.cpp:156] Memory required for data: 821695600
I0403 13:03:58.845620 31235 layer_factory.hpp:77] Creating layer fc6
I0403 13:03:58.845649 31235 net.cpp:91] Creating Layer fc6
I0403 13:03:58.845667 31235 net.cpp:425] fc6 <- pool5
I0403 13:03:58.845690 31235 net.cpp:399] fc6 -> fc6
I0403 13:04:00.416535 31235 net.cpp:141] Setting up fc6
I0403 13:04:00.416602 31235 net.cpp:148] Top shape: 100 4096 (409600)
I0403 13:04:00.416630 31235 net.cpp:156] Memory required for data: 823334000
I0403 13:04:00.416651 31235 layer_factory.hpp:77] Creating layer relu6
I0403 13:04:00.416673 31235 net.cpp:91] Creating Layer relu6
I0403 13:04:00.416704 31235 net.cpp:425] relu6 <- fc6
I0403 13:04:00.416724 31235 net.cpp:386] relu6 -> fc6 (in-place)
I0403 13:04:00.416975 31235 net.cpp:141] Setting up relu6
I0403 13:04:00.417011 31235 net.cpp:148] Top shape: 100 4096 (409600)
I0403 13:04:00.417026 31235 net.cpp:156] Memory required for data: 824972400
I0403 13:04:00.417040 31235 layer_factory.hpp:77] Creating layer drop6
I0403 13:04:00.417058 31235 net.cpp:91] Creating Layer drop6
I0403 13:04:00.417073 31235 net.cpp:425] drop6 <- fc6
I0403 13:04:00.417090 31235 net.cpp:386] drop6 -> fc6 (in-place)
I0403 13:04:00.417140 31235 net.cpp:141] Setting up drop6
I0403 13:04:00.417177 31235 net.cpp:148] Top shape: 100 4096 (409600)
I0403 13:04:00.417194 31235 net.cpp:156] Memory required for data: 826610800
I0403 13:04:00.417213 31235 layer_factory.hpp:77] Creating layer fc7
I0403 13:04:00.417235 31235 net.cpp:91] Creating Layer fc7
I0403 13:04:00.417251 31235 net.cpp:425] fc7 <- fc6
I0403 13:04:00.417273 31235 net.cpp:399] fc7 -> fc7
I0403 13:04:01.103778 31235 net.cpp:141] Setting up fc7
I0403 13:04:01.103869 31235 net.cpp:148] Top shape: 100 4096 (409600)
I0403 13:04:01.103888 31235 net.cpp:156] Memory required for data: 828249200
I0403 13:04:01.103909 31235 layer_factory.hpp:77] Creating layer relu7
I0403 13:04:01.103931 31235 net.cpp:91] Creating Layer relu7
I0403 13:04:01.103948 31235 net.cpp:425] relu7 <- fc7
I0403 13:04:01.103971 31235 net.cpp:386] relu7 -> fc7 (in-place)
I0403 13:04:01.104393 31235 net.cpp:141] Setting up relu7
I0403 13:04:01.104420 31235 net.cpp:148] Top shape: 100 4096 (409600)
I0403 13:04:01.104472 31235 net.cpp:156] Memory required for data: 829887600
I0403 13:04:01.104488 31235 layer_factory.hpp:77] Creating layer drop7
I0403 13:04:01.104507 31235 net.cpp:91] Creating Layer drop7
I0403 13:04:01.104526 31235 net.cpp:425] drop7 <- fc7
I0403 13:04:01.104547 31235 net.cpp:386] drop7 -> fc7 (in-place)
I0403 13:04:01.104590 31235 net.cpp:141] Setting up drop7
I0403 13:04:01.104615 31235 net.cpp:148] Top shape: 100 4096 (409600)
I0403 13:04:01.104630 31235 net.cpp:156] Memory required for data: 831526000
I0403 13:04:01.104645 31235 layer_factory.hpp:77] Creating layer fc8_plantvillage
I0403 13:04:01.104665 31235 net.cpp:91] Creating Layer fc8_plantvillage
I0403 13:04:01.104681 31235 net.cpp:425] fc8_plantvillage <- fc7
I0403 13:04:01.104701 31235 net.cpp:399] fc8_plantvillage -> fc8_plantvillage
I0403 13:04:01.111505 31235 net.cpp:141] Setting up fc8_plantvillage
I0403 13:04:01.111536 31235 net.cpp:148] Top shape: 100 38 (3800)
I0403 13:04:01.111552 31235 net.cpp:156] Memory required for data: 831541200
I0403 13:04:01.111572 31235 layer_factory.hpp:77] Creating layer fc8_plantvillage_fc8_plantvillage_0_split
I0403 13:04:01.111593 31235 net.cpp:91] Creating Layer fc8_plantvillage_fc8_plantvillage_0_split
I0403 13:04:01.111610 31235 net.cpp:425] fc8_plantvillage_fc8_plantvillage_0_split <- fc8_plantvillage
I0403 13:04:01.111630 31235 net.cpp:399] fc8_plantvillage_fc8_plantvillage_0_split -> fc8_plantvillage_fc8_plantvillage_0_split_0
I0403 13:04:01.111651 31235 net.cpp:399] fc8_plantvillage_fc8_plantvillage_0_split -> fc8_plantvillage_fc8_plantvillage_0_split_1
I0403 13:04:01.111672 31235 net.cpp:399] fc8_plantvillage_fc8_plantvillage_0_split -> fc8_plantvillage_fc8_plantvillage_0_split_2
I0403 13:04:01.111750 31235 net.cpp:141] Setting up fc8_plantvillage_fc8_plantvillage_0_split
I0403 13:04:01.111778 31235 net.cpp:148] Top shape: 100 38 (3800)
I0403 13:04:01.111795 31235 net.cpp:148] Top shape: 100 38 (3800)
I0403 13:04:01.111811 31235 net.cpp:148] Top shape: 100 38 (3800)
I0403 13:04:01.111825 31235 net.cpp:156] Memory required for data: 831586800
I0403 13:04:01.111840 31235 layer_factory.hpp:77] Creating layer prob
I0403 13:04:01.111857 31235 net.cpp:91] Creating Layer prob
I0403 13:04:01.111874 31235 net.cpp:425] prob <- fc8_plantvillage_fc8_plantvillage_0_split_0
I0403 13:04:01.111892 31235 net.cpp:399] prob -> prob
I0403 13:04:01.112121 31235 net.cpp:141] Setting up prob
I0403 13:04:01.112146 31235 net.cpp:148] Top shape: 100 38 (3800)
I0403 13:04:01.112162 31235 net.cpp:156] Memory required for data: 831602000
I0403 13:04:01.112176 31235 layer_factory.hpp:77] Creating layer hdf5out
I0403 13:04:01.112195 31235 net.cpp:91] Creating Layer hdf5out
I0403 13:04:01.112221 31235 net.cpp:425] hdf5out <- prob
I0403 13:04:01.112241 31235 net.cpp:425] hdf5out <- label_data_1_split_0
I0403 13:04:01.114609 31235 net.cpp:141] Setting up hdf5out
…
