…
I0403 12:59:31.692368 31109 net.cpp:313] The NetState phase (1) differed from the phase (0) specified by a rule in layer data
I0403 12:59:31.692682 31109 net.cpp:49] Initializing net from parameters: 
state {
  phase: TEST
}
layer {
  name: "data"
  type: "Data"
  top: "data"
  top: "label"
  include {
    phase: TEST
  }
  transform_param {
    crop_size: 227
    mean_file: "/home/mohanty/data/final_dataset/lmdb/grayscale-40-60/mean.binaryproto"
  }
  data_param {
    source: "/home/mohanty/data/final_dataset/lmdb/grayscale-40-60/test_db"
    batch_size: 100
    backend: LMDB
  }
}
layer {
  name: "conv1"
  type: "Convolution"
  bottom: "data"
  top: "conv1"
  param {
    lr_mult: 1
    decay_mult: 1
  }
  param {
    lr_mult: 2
    decay_mult: 0
  }
  convolution_param {
    num_output: 96
    kernel_size: 11
    stride: 4
    weight_filler {
      type: "gaussian"
      std: 0.01
    }
    bias_filler {
      type: "constant"
      value: 0
    }
  }
}
layer {
  name: "relu1"
  type: "ReLU"
  bottom: "conv1"
  top: "conv1"
}
layer {
  name: "norm1"
  type: "LRN"
  bottom: "conv1"
  top: "norm1"
  lrn_param {
    local_size: 5
    alpha: 0.0001
    beta: 0.75
  }
}
layer {
  name: "pool1"
  type: "Pooling"
  bottom: "norm1"
  top: "pool1"
  pooling_param {
    pool: MAX
    kernel_size: 3
    stride: 2
  }
}
layer {
  name: "conv2"
  type: "Convolution"
  bottom: "pool1"
  top: "conv2"
  param {
    lr_mult: 1
    decay_mult: 1
  }
  param {
    lr_mult: 2
    decay_mult: 0
  }
  convolution_param {
    num_output: 256
    pad: 2
    kernel_size: 5
    group: 2
    weight_filler {
      type: "gaussian"
      std: 0.01
    }
    bias_filler {
      type: "constant"
      value: 0.1
    }
  }
}
layer {
  name: "relu2"
  type: "ReLU"
  bottom: "conv2"
  top: "conv2"
}
layer {
  name: "norm2"
  type: "LRN"
  bottom: "conv2"
  top: "norm2"
  lrn_param {
    local_size: 5
    alpha: 0.0001
    beta: 0.75
  }
}
layer {
  name: "pool2"
  type: "Pooling"
  bottom: "norm2"
  top: "pool2"
  pooling_param {
    pool: MAX
    kernel_size: 3
    stride: 2
  }
}
layer {
  name: "conv3"
  type: "Convolution"
  bottom: "pool2"
  top: "conv3"
  param {
    lr_mult: 1
    decay_mult: 1
  }
  param {
    lr_mult: 2
    decay_mult: 0
  }
  convolution_param {
    num_output: 384
    pad: 1
    kernel_size: 3
    weight_filler {
      type: "gaussian"
      std: 0.01
    }
    bias_filler {
      type: "constant"
      value: 0
    }
  }
}
layer {
  name: "relu3"
  type: "ReLU"
  bottom: "conv3"
  top: "conv3"
}
layer {
  name: "conv4"
  type: "Convolution"
  bottom: "conv3"
  top: "conv4"
  param {
    lr_mult: 1
    decay_mult: 1
  }
  param {
    lr_mult: 2
    decay_mult: 0
  }
  convolution_param {
    num_output: 384
    pad: 1
    kernel_size: 3
    group: 2
    weight_filler {
      type: "gaussian"
      std: 0.01
    }
    bias_filler {
      type: "constant"
      value: 0.1
    }
  }
}
layer {
  name: "relu4"
  type: "ReLU"
  bottom: "conv4"
  top: "conv4"
}
layer {
  name: "conv5"
  type: "Convolution"
  bottom: "conv4"
  top: "conv5"
  param {
    lr_mult: 1
    decay_mult: 1
  }
  param {
    lr_mult: 2
    decay_mult: 0
  }
  convolution_param {
    num_output: 256
    pad: 1
    kernel_size: 3
    group: 2
    weight_filler {
      type: "gaussian"
      std: 0.01
    }
    bias_filler {
      type: "constant"
      value: 0.1
    }
  }
}
layer {
  name: "relu5"
  type: "ReLU"
  bottom: "conv5"
  top: "conv5"
}
layer {
  name: "pool5"
  type: "Pooling"
  bottom: "conv5"
  top: "pool5"
  pooling_param {
    pool: MAX
    kernel_size: 3
    stride: 2
  }
}
layer {
  name: "fc6"
  type: "InnerProduct"
  bottom: "pool5"
  top: "fc6"
  param {
    lr_mult: 1
    decay_mult: 1
  }
  param {
    lr_mult: 2
    decay_mult: 0
  }
  inner_product_param {
    num_output: 4096
    weight_filler {
      type: "gaussian"
      std: 0.005
    }
    bias_filler {
      type: "constant"
      value: 0.1
    }
  }
}
layer {
  name: "relu6"
  type: "ReLU"
  bottom: "fc6"
  top: "fc6"
}
layer {
  name: "drop6"
  type: "Dropout"
  bottom: "fc6"
  top: "fc6"
  dropout_param {
    dropout_ratio: 0.5
  }
}
layer {
  name: "fc7"
  type: "InnerProduct"
  bottom: "fc6"
  top: "fc7"
  param {
    lr_mult: 1
    decay_mult: 1
  }
  param {
    lr_mult: 2
    decay_mult: 0
  }
  inner_product_param {
    num_output: 4096
    weight_filler {
      type: "gaussian"
      std: 0.005
    }
    bias_filler {
      type: "constant"
      value: 0.1
    }
  }
}
layer {
  name: "relu7"
  type: "ReLU"
  bottom: "fc7"
  top: "fc7"
}
layer {
  name: "drop7"
  type: "Dropout"
  bottom: "fc7"
  top: "fc7"
  dropout_param {
    dropout_ratio: 0.5
  }
}
layer {
  name: "fc8_plantvillage"
  type: "InnerProduct"
  bottom: "fc7"
  top: "fc8_plantvillage"
  param {
    lr_mult: 1
    decay_mult: 1
  }
  param {
    lr_mult: 2
    decay_mult: 0
  }
  inner_product_param {
    num_output: 38
    weight_filler {
      type: "gaussian"
      std: 0.01
    }
    bias_filler {
      type: "constant"
      value: 0
    }
  }
}
layer {
  name: "prob"
  type: "Softmax"
  bottom: "fc8_plantvillage"
  top: "prob"
  include {
    phase: TEST
  }
}
layer {
  name: "hdf5out"
  type: "HDF5Output"
  bottom: "prob"
  bottom: "label"
  include {
    phase: TEST
  }
  hdf5_output_param {
    file_name: "hdf5_dumps/iter_5256.h5"
  }
}
layer {
  name: "loss"
  type: "SoftmaxWithLoss"
  bottom: "fc8_plantvillage"
  bottom: "label"
  top: "loss"
}
layer {
  name: "accuracy"
  type: "Accuracy"
  bottom: "fc8_plantvillage"
  bottom: "label"
  top: "accuracy"
  include {
    phase: TEST
  }
}
I0403 12:59:31.693296 31109 layer_factory.hpp:77] Creating layer data
I0403 12:59:31.693964 31109 net.cpp:91] Creating Layer data
I0403 12:59:31.693995 31109 net.cpp:399] data -> data
I0403 12:59:31.694046 31109 net.cpp:399] data -> label
I0403 12:59:31.694087 31109 data_transformer.cpp:25] Loading mean file from: /home/mohanty/data/final_dataset/lmdb/grayscale-40-60/mean.binaryproto
I0403 12:59:31.697401 31112 db_lmdb.cpp:38] Opened lmdb /home/mohanty/data/final_dataset/lmdb/grayscale-40-60/test_db
I0403 12:59:31.708600 31109 data_layer.cpp:41] output data size: 100,3,227,227
I0403 12:59:31.827714 31109 net.cpp:141] Setting up data
I0403 12:59:31.827819 31109 net.cpp:148] Top shape: 100 3 227 227 (15458700)
I0403 12:59:31.827842 31109 net.cpp:148] Top shape: 100 (100)
I0403 12:59:31.827859 31109 net.cpp:156] Memory required for data: 61835200
I0403 12:59:31.827886 31109 layer_factory.hpp:77] Creating layer label_data_1_split
I0403 12:59:31.827913 31109 net.cpp:91] Creating Layer label_data_1_split
I0403 12:59:31.827931 31109 net.cpp:425] label_data_1_split <- label
I0403 12:59:31.827963 31109 net.cpp:399] label_data_1_split -> label_data_1_split_0
I0403 12:59:31.827991 31109 net.cpp:399] label_data_1_split -> label_data_1_split_1
I0403 12:59:31.828012 31109 net.cpp:399] label_data_1_split -> label_data_1_split_2
I0403 12:59:31.828088 31109 net.cpp:141] Setting up label_data_1_split
I0403 12:59:31.828114 31109 net.cpp:148] Top shape: 100 (100)
I0403 12:59:31.828130 31109 net.cpp:148] Top shape: 100 (100)
I0403 12:59:31.828148 31109 net.cpp:148] Top shape: 100 (100)
I0403 12:59:31.828164 31109 net.cpp:156] Memory required for data: 61836400
I0403 12:59:31.828181 31109 layer_factory.hpp:77] Creating layer conv1
I0403 12:59:31.828217 31109 net.cpp:91] Creating Layer conv1
I0403 12:59:31.828238 31109 net.cpp:425] conv1 <- data
I0403 12:59:31.828258 31109 net.cpp:399] conv1 -> conv1
I0403 12:59:31.971050 31109 net.cpp:141] Setting up conv1
I0403 12:59:31.971139 31109 net.cpp:148] Top shape: 100 96 55 55 (29040000)
I0403 12:59:31.971156 31109 net.cpp:156] Memory required for data: 177996400
I0403 12:59:31.971189 31109 layer_factory.hpp:77] Creating layer relu1
I0403 12:59:31.971220 31109 net.cpp:91] Creating Layer relu1
I0403 12:59:31.971240 31109 net.cpp:425] relu1 <- conv1
I0403 12:59:31.971259 31109 net.cpp:386] relu1 -> conv1 (in-place)
I0403 12:59:31.971518 31109 net.cpp:141] Setting up relu1
I0403 12:59:31.971545 31109 net.cpp:148] Top shape: 100 96 55 55 (29040000)
I0403 12:59:31.971593 31109 net.cpp:156] Memory required for data: 294156400
I0403 12:59:31.971611 31109 layer_factory.hpp:77] Creating layer norm1
I0403 12:59:31.971638 31109 net.cpp:91] Creating Layer norm1
I0403 12:59:31.971668 31109 net.cpp:425] norm1 <- conv1
I0403 12:59:31.971688 31109 net.cpp:399] norm1 -> norm1
I0403 12:59:31.972066 31109 net.cpp:141] Setting up norm1
I0403 12:59:31.972095 31109 net.cpp:148] Top shape: 100 96 55 55 (29040000)
I0403 12:59:31.972110 31109 net.cpp:156] Memory required for data: 410316400
I0403 12:59:31.972126 31109 layer_factory.hpp:77] Creating layer pool1
I0403 12:59:31.972148 31109 net.cpp:91] Creating Layer pool1
I0403 12:59:31.972165 31109 net.cpp:425] pool1 <- norm1
I0403 12:59:31.972184 31109 net.cpp:399] pool1 -> pool1
I0403 12:59:31.972254 31109 net.cpp:141] Setting up pool1
I0403 12:59:31.972278 31109 net.cpp:148] Top shape: 100 96 27 27 (6998400)
I0403 12:59:31.972293 31109 net.cpp:156] Memory required for data: 438310000
I0403 12:59:31.972308 31109 layer_factory.hpp:77] Creating layer conv2
I0403 12:59:31.972333 31109 net.cpp:91] Creating Layer conv2
I0403 12:59:31.972350 31109 net.cpp:425] conv2 <- pool1
I0403 12:59:31.972369 31109 net.cpp:399] conv2 -> conv2
I0403 12:59:31.987321 31109 net.cpp:141] Setting up conv2
I0403 12:59:31.987376 31109 net.cpp:148] Top shape: 100 256 27 27 (18662400)
I0403 12:59:31.987393 31109 net.cpp:156] Memory required for data: 512959600
I0403 12:59:31.987421 31109 layer_factory.hpp:77] Creating layer relu2
I0403 12:59:31.987440 31109 net.cpp:91] Creating Layer relu2
I0403 12:59:31.987457 31109 net.cpp:425] relu2 <- conv2
I0403 12:59:31.987476 31109 net.cpp:386] relu2 -> conv2 (in-place)
I0403 12:59:31.987751 31109 net.cpp:141] Setting up relu2
I0403 12:59:31.987781 31109 net.cpp:148] Top shape: 100 256 27 27 (18662400)
I0403 12:59:31.987797 31109 net.cpp:156] Memory required for data: 587609200
I0403 12:59:31.987812 31109 layer_factory.hpp:77] Creating layer norm2
I0403 12:59:31.987833 31109 net.cpp:91] Creating Layer norm2
I0403 12:59:31.987849 31109 net.cpp:425] norm2 <- conv2
I0403 12:59:31.987870 31109 net.cpp:399] norm2 -> norm2
I0403 12:59:31.988066 31109 net.cpp:141] Setting up norm2
I0403 12:59:31.988091 31109 net.cpp:148] Top shape: 100 256 27 27 (18662400)
I0403 12:59:31.988107 31109 net.cpp:156] Memory required for data: 662258800
I0403 12:59:31.988122 31109 layer_factory.hpp:77] Creating layer pool2
I0403 12:59:31.988143 31109 net.cpp:91] Creating Layer pool2
I0403 12:59:31.988160 31109 net.cpp:425] pool2 <- norm2
I0403 12:59:31.988178 31109 net.cpp:399] pool2 -> pool2
I0403 12:59:31.988235 31109 net.cpp:141] Setting up pool2
I0403 12:59:31.988260 31109 net.cpp:148] Top shape: 100 256 13 13 (4326400)
I0403 12:59:31.988276 31109 net.cpp:156] Memory required for data: 679564400
I0403 12:59:31.988291 31109 layer_factory.hpp:77] Creating layer conv3
I0403 12:59:31.988314 31109 net.cpp:91] Creating Layer conv3
I0403 12:59:31.988332 31109 net.cpp:425] conv3 <- pool2
I0403 12:59:31.988353 31109 net.cpp:399] conv3 -> conv3
I0403 12:59:32.028182 31109 net.cpp:141] Setting up conv3
I0403 12:59:32.028272 31109 net.cpp:148] Top shape: 100 384 13 13 (6489600)
I0403 12:59:32.028290 31109 net.cpp:156] Memory required for data: 705522800
I0403 12:59:32.028317 31109 layer_factory.hpp:77] Creating layer relu3
I0403 12:59:32.028343 31109 net.cpp:91] Creating Layer relu3
I0403 12:59:32.028363 31109 net.cpp:425] relu3 <- conv3
I0403 12:59:32.028384 31109 net.cpp:386] relu3 -> conv3 (in-place)
I0403 12:59:32.028662 31109 net.cpp:141] Setting up relu3
I0403 12:59:32.028689 31109 net.cpp:148] Top shape: 100 384 13 13 (6489600)
I0403 12:59:32.028707 31109 net.cpp:156] Memory required for data: 731481200
I0403 12:59:32.028723 31109 layer_factory.hpp:77] Creating layer conv4
I0403 12:59:32.028749 31109 net.cpp:91] Creating Layer conv4
I0403 12:59:32.028772 31109 net.cpp:425] conv4 <- conv3
I0403 12:59:32.028792 31109 net.cpp:399] conv4 -> conv4
I0403 12:59:32.059337 31109 net.cpp:141] Setting up conv4
I0403 12:59:32.059417 31109 net.cpp:148] Top shape: 100 384 13 13 (6489600)
I0403 12:59:32.059466 31109 net.cpp:156] Memory required for data: 757439600
I0403 12:59:32.059489 31109 layer_factory.hpp:77] Creating layer relu4
I0403 12:59:32.059511 31109 net.cpp:91] Creating Layer relu4
I0403 12:59:32.059530 31109 net.cpp:425] relu4 <- conv4
I0403 12:59:32.059552 31109 net.cpp:386] relu4 -> conv4 (in-place)
I0403 12:59:32.059834 31109 net.cpp:141] Setting up relu4
I0403 12:59:32.059860 31109 net.cpp:148] Top shape: 100 384 13 13 (6489600)
I0403 12:59:32.059877 31109 net.cpp:156] Memory required for data: 783398000
I0403 12:59:32.059892 31109 layer_factory.hpp:77] Creating layer conv5
I0403 12:59:32.059918 31109 net.cpp:91] Creating Layer conv5
I0403 12:59:32.059937 31109 net.cpp:425] conv5 <- conv4
I0403 12:59:32.059959 31109 net.cpp:399] conv5 -> conv5
I0403 12:59:32.080878 31109 net.cpp:141] Setting up conv5
I0403 12:59:32.080940 31109 net.cpp:148] Top shape: 100 256 13 13 (4326400)
I0403 12:59:32.080956 31109 net.cpp:156] Memory required for data: 800703600
I0403 12:59:32.080986 31109 layer_factory.hpp:77] Creating layer relu5
I0403 12:59:32.081007 31109 net.cpp:91] Creating Layer relu5
I0403 12:59:32.081025 31109 net.cpp:425] relu5 <- conv5
I0403 12:59:32.081043 31109 net.cpp:386] relu5 -> conv5 (in-place)
I0403 12:59:32.081334 31109 net.cpp:141] Setting up relu5
I0403 12:59:32.081362 31109 net.cpp:148] Top shape: 100 256 13 13 (4326400)
I0403 12:59:32.081378 31109 net.cpp:156] Memory required for data: 818009200
I0403 12:59:32.081394 31109 layer_factory.hpp:77] Creating layer pool5
I0403 12:59:32.081420 31109 net.cpp:91] Creating Layer pool5
I0403 12:59:32.081437 31109 net.cpp:425] pool5 <- conv5
I0403 12:59:32.081457 31109 net.cpp:399] pool5 -> pool5
I0403 12:59:32.081521 31109 net.cpp:141] Setting up pool5
I0403 12:59:32.081545 31109 net.cpp:148] Top shape: 100 256 6 6 (921600)
I0403 12:59:32.081562 31109 net.cpp:156] Memory required for data: 821695600
I0403 12:59:32.081578 31109 layer_factory.hpp:77] Creating layer fc6
I0403 12:59:32.081606 31109 net.cpp:91] Creating Layer fc6
I0403 12:59:32.081625 31109 net.cpp:425] fc6 <- pool5
I0403 12:59:32.081646 31109 net.cpp:399] fc6 -> fc6
I0403 12:59:33.654306 31109 net.cpp:141] Setting up fc6
I0403 12:59:33.654399 31109 net.cpp:148] Top shape: 100 4096 (409600)
I0403 12:59:33.654417 31109 net.cpp:156] Memory required for data: 823334000
I0403 12:59:33.654438 31109 layer_factory.hpp:77] Creating layer relu6
I0403 12:59:33.654459 31109 net.cpp:91] Creating Layer relu6
I0403 12:59:33.654477 31109 net.cpp:425] relu6 <- fc6
I0403 12:59:33.654500 31109 net.cpp:386] relu6 -> fc6 (in-place)
I0403 12:59:33.654732 31109 net.cpp:141] Setting up relu6
I0403 12:59:33.654757 31109 net.cpp:148] Top shape: 100 4096 (409600)
I0403 12:59:33.654773 31109 net.cpp:156] Memory required for data: 824972400
I0403 12:59:33.654789 31109 layer_factory.hpp:77] Creating layer drop6
I0403 12:59:33.654810 31109 net.cpp:91] Creating Layer drop6
I0403 12:59:33.654827 31109 net.cpp:425] drop6 <- fc6
I0403 12:59:33.654844 31109 net.cpp:386] drop6 -> fc6 (in-place)
I0403 12:59:33.654898 31109 net.cpp:141] Setting up drop6
I0403 12:59:33.654922 31109 net.cpp:148] Top shape: 100 4096 (409600)
I0403 12:59:33.654937 31109 net.cpp:156] Memory required for data: 826610800
I0403 12:59:33.654953 31109 layer_factory.hpp:77] Creating layer fc7
I0403 12:59:33.654973 31109 net.cpp:91] Creating Layer fc7
I0403 12:59:33.654989 31109 net.cpp:425] fc7 <- fc6
I0403 12:59:33.655010 31109 net.cpp:399] fc7 -> fc7
I0403 12:59:34.343119 31109 net.cpp:141] Setting up fc7
I0403 12:59:34.343176 31109 net.cpp:148] Top shape: 100 4096 (409600)
I0403 12:59:34.343194 31109 net.cpp:156] Memory required for data: 828249200
I0403 12:59:34.343221 31109 layer_factory.hpp:77] Creating layer relu7
I0403 12:59:34.343247 31109 net.cpp:91] Creating Layer relu7
I0403 12:59:34.343266 31109 net.cpp:425] relu7 <- fc7
I0403 12:59:34.343286 31109 net.cpp:386] relu7 -> fc7 (in-place)
I0403 12:59:34.343693 31109 net.cpp:141] Setting up relu7
I0403 12:59:34.343720 31109 net.cpp:148] Top shape: 100 4096 (409600)
I0403 12:59:34.343768 31109 net.cpp:156] Memory required for data: 829887600
I0403 12:59:34.343786 31109 layer_factory.hpp:77] Creating layer drop7
I0403 12:59:34.343806 31109 net.cpp:91] Creating Layer drop7
I0403 12:59:34.343823 31109 net.cpp:425] drop7 <- fc7
I0403 12:59:34.343842 31109 net.cpp:386] drop7 -> fc7 (in-place)
I0403 12:59:34.343899 31109 net.cpp:141] Setting up drop7
I0403 12:59:34.343921 31109 net.cpp:148] Top shape: 100 4096 (409600)
I0403 12:59:34.343936 31109 net.cpp:156] Memory required for data: 831526000
I0403 12:59:34.343951 31109 layer_factory.hpp:77] Creating layer fc8_plantvillage
I0403 12:59:34.343969 31109 net.cpp:91] Creating Layer fc8_plantvillage
I0403 12:59:34.343986 31109 net.cpp:425] fc8_plantvillage <- fc7
I0403 12:59:34.344007 31109 net.cpp:399] fc8_plantvillage -> fc8_plantvillage
I0403 12:59:34.350733 31109 net.cpp:141] Setting up fc8_plantvillage
I0403 12:59:34.350764 31109 net.cpp:148] Top shape: 100 38 (3800)
I0403 12:59:34.350780 31109 net.cpp:156] Memory required for data: 831541200
I0403 12:59:34.350798 31109 layer_factory.hpp:77] Creating layer fc8_plantvillage_fc8_plantvillage_0_split
I0403 12:59:34.350817 31109 net.cpp:91] Creating Layer fc8_plantvillage_fc8_plantvillage_0_split
I0403 12:59:34.350833 31109 net.cpp:425] fc8_plantvillage_fc8_plantvillage_0_split <- fc8_plantvillage
I0403 12:59:34.350850 31109 net.cpp:399] fc8_plantvillage_fc8_plantvillage_0_split -> fc8_plantvillage_fc8_plantvillage_0_split_0
I0403 12:59:34.350870 31109 net.cpp:399] fc8_plantvillage_fc8_plantvillage_0_split -> fc8_plantvillage_fc8_plantvillage_0_split_1
I0403 12:59:34.350889 31109 net.cpp:399] fc8_plantvillage_fc8_plantvillage_0_split -> fc8_plantvillage_fc8_plantvillage_0_split_2
I0403 12:59:34.350966 31109 net.cpp:141] Setting up fc8_plantvillage_fc8_plantvillage_0_split
I0403 12:59:34.350989 31109 net.cpp:148] Top shape: 100 38 (3800)
I0403 12:59:34.351006 31109 net.cpp:148] Top shape: 100 38 (3800)
I0403 12:59:34.351022 31109 net.cpp:148] Top shape: 100 38 (3800)
I0403 12:59:34.351035 31109 net.cpp:156] Memory required for data: 831586800
I0403 12:59:34.351050 31109 layer_factory.hpp:77] Creating layer prob
I0403 12:59:34.351068 31109 net.cpp:91] Creating Layer prob
I0403 12:59:34.351083 31109 net.cpp:425] prob <- fc8_plantvillage_fc8_plantvillage_0_split_0
I0403 12:59:34.351101 31109 net.cpp:399] prob -> prob
I0403 12:59:34.351325 31109 net.cpp:141] Setting up prob
I0403 12:59:34.351351 31109 net.cpp:148] Top shape: 100 38 (3800)
I0403 12:59:34.351366 31109 net.cpp:156] Memory required for data: 831602000
I0403 12:59:34.351379 31109 layer_factory.hpp:77] Creating layer hdf5out
I0403 12:59:34.351414 31109 net.cpp:91] Creating Layer hdf5out
I0403 12:59:34.351431 31109 net.cpp:425] hdf5out <- prob
I0403 12:59:34.351449 31109 net.cpp:425] hdf5out <- label_data_1_split_0
I0403 12:59:34.353785 31109 net.cpp:141] Setting up hdf5out
…
