…
I0403 13:00:39.819799 31142 net.cpp:313] The NetState phase (1) differed from the phase (0) specified by a rule in layer data
I0403 13:00:39.820138 31142 net.cpp:49] Initializing net from parameters: 
state {
  phase: TEST
}
layer {
  name: "data"
  type: "Data"
  top: "data"
  top: "label"
  include {
    phase: TEST
  }
  transform_param {
    crop_size: 227
    mean_file: "/home/mohanty/data/final_dataset/lmdb/grayscale-40-60/mean.binaryproto"
  }
  data_param {
    source: "/home/mohanty/data/final_dataset/lmdb/grayscale-40-60/test_db"
    batch_size: 100
    backend: LMDB
  }
}
layer {
  name: "conv1"
  type: "Convolution"
  bottom: "data"
  top: "conv1"
  param {
    lr_mult: 1
    decay_mult: 1
  }
  param {
    lr_mult: 2
    decay_mult: 0
  }
  convolution_param {
    num_output: 96
    kernel_size: 11
    stride: 4
    weight_filler {
      type: "gaussian"
      std: 0.01
    }
    bias_filler {
      type: "constant"
      value: 0
    }
  }
}
layer {
  name: "relu1"
  type: "ReLU"
  bottom: "conv1"
  top: "conv1"
}
layer {
  name: "norm1"
  type: "LRN"
  bottom: "conv1"
  top: "norm1"
  lrn_param {
    local_size: 5
    alpha: 0.0001
    beta: 0.75
  }
}
layer {
  name: "pool1"
  type: "Pooling"
  bottom: "norm1"
  top: "pool1"
  pooling_param {
    pool: MAX
    kernel_size: 3
    stride: 2
  }
}
layer {
  name: "conv2"
  type: "Convolution"
  bottom: "pool1"
  top: "conv2"
  param {
    lr_mult: 1
    decay_mult: 1
  }
  param {
    lr_mult: 2
    decay_mult: 0
  }
  convolution_param {
    num_output: 256
    pad: 2
    kernel_size: 5
    group: 2
    weight_filler {
      type: "gaussian"
      std: 0.01
    }
    bias_filler {
      type: "constant"
      value: 0.1
    }
  }
}
layer {
  name: "relu2"
  type: "ReLU"
  bottom: "conv2"
  top: "conv2"
}
layer {
  name: "norm2"
  type: "LRN"
  bottom: "conv2"
  top: "norm2"
  lrn_param {
    local_size: 5
    alpha: 0.0001
    beta: 0.75
  }
}
layer {
  name: "pool2"
  type: "Pooling"
  bottom: "norm2"
  top: "pool2"
  pooling_param {
    pool: MAX
    kernel_size: 3
    stride: 2
  }
}
layer {
  name: "conv3"
  type: "Convolution"
  bottom: "pool2"
  top: "conv3"
  param {
    lr_mult: 1
    decay_mult: 1
  }
  param {
    lr_mult: 2
    decay_mult: 0
  }
  convolution_param {
    num_output: 384
    pad: 1
    kernel_size: 3
    weight_filler {
      type: "gaussian"
      std: 0.01
    }
    bias_filler {
      type: "constant"
      value: 0
    }
  }
}
layer {
  name: "relu3"
  type: "ReLU"
  bottom: "conv3"
  top: "conv3"
}
layer {
  name: "conv4"
  type: "Convolution"
  bottom: "conv3"
  top: "conv4"
  param {
    lr_mult: 1
    decay_mult: 1
  }
  param {
    lr_mult: 2
    decay_mult: 0
  }
  convolution_param {
    num_output: 384
    pad: 1
    kernel_size: 3
    group: 2
    weight_filler {
      type: "gaussian"
      std: 0.01
    }
    bias_filler {
      type: "constant"
      value: 0.1
    }
  }
}
layer {
  name: "relu4"
  type: "ReLU"
  bottom: "conv4"
  top: "conv4"
}
layer {
  name: "conv5"
  type: "Convolution"
  bottom: "conv4"
  top: "conv5"
  param {
    lr_mult: 1
    decay_mult: 1
  }
  param {
    lr_mult: 2
    decay_mult: 0
  }
  convolution_param {
    num_output: 256
    pad: 1
    kernel_size: 3
    group: 2
    weight_filler {
      type: "gaussian"
      std: 0.01
    }
    bias_filler {
      type: "constant"
      value: 0.1
    }
  }
}
layer {
  name: "relu5"
  type: "ReLU"
  bottom: "conv5"
  top: "conv5"
}
layer {
  name: "pool5"
  type: "Pooling"
  bottom: "conv5"
  top: "pool5"
  pooling_param {
    pool: MAX
    kernel_size: 3
    stride: 2
  }
}
layer {
  name: "fc6"
  type: "InnerProduct"
  bottom: "pool5"
  top: "fc6"
  param {
    lr_mult: 1
    decay_mult: 1
  }
  param {
    lr_mult: 2
    decay_mult: 0
  }
  inner_product_param {
    num_output: 4096
    weight_filler {
      type: "gaussian"
      std: 0.005
    }
    bias_filler {
      type: "constant"
      value: 0.1
    }
  }
}
layer {
  name: "relu6"
  type: "ReLU"
  bottom: "fc6"
  top: "fc6"
}
layer {
  name: "drop6"
  type: "Dropout"
  bottom: "fc6"
  top: "fc6"
  dropout_param {
    dropout_ratio: 0.5
  }
}
layer {
  name: "fc7"
  type: "InnerProduct"
  bottom: "fc6"
  top: "fc7"
  param {
    lr_mult: 1
    decay_mult: 1
  }
  param {
    lr_mult: 2
    decay_mult: 0
  }
  inner_product_param {
    num_output: 4096
    weight_filler {
      type: "gaussian"
      std: 0.005
    }
    bias_filler {
      type: "constant"
      value: 0.1
    }
  }
}
layer {
  name: "relu7"
  type: "ReLU"
  bottom: "fc7"
  top: "fc7"
}
layer {
  name: "drop7"
  type: "Dropout"
  bottom: "fc7"
  top: "fc7"
  dropout_param {
    dropout_ratio: 0.5
  }
}
layer {
  name: "fc8_plantvillage"
  type: "InnerProduct"
  bottom: "fc7"
  top: "fc8_plantvillage"
  param {
    lr_mult: 1
    decay_mult: 1
  }
  param {
    lr_mult: 2
    decay_mult: 0
  }
  inner_product_param {
    num_output: 38
    weight_filler {
      type: "gaussian"
      std: 0.01
    }
    bias_filler {
      type: "constant"
      value: 0
    }
  }
}
layer {
  name: "prob"
  type: "Softmax"
  bottom: "fc8_plantvillage"
  top: "prob"
  include {
    phase: TEST
  }
}
layer {
  name: "hdf5out"
  type: "HDF5Output"
  bottom: "prob"
  bottom: "label"
  include {
    phase: TEST
  }
  hdf5_output_param {
    file_name: "hdf5_dumps/iter_5475.h5"
  }
}
layer {
  name: "loss"
  type: "SoftmaxWithLoss"
  bottom: "fc8_plantvillage"
  bottom: "label"
  top: "loss"
}
layer {
  name: "accuracy"
  type: "Accuracy"
  bottom: "fc8_plantvillage"
  bottom: "label"
  top: "accuracy"
  include {
    phase: TEST
  }
}
I0403 13:00:39.820823 31142 layer_factory.hpp:77] Creating layer data
I0403 13:00:39.821493 31142 net.cpp:91] Creating Layer data
I0403 13:00:39.821523 31142 net.cpp:399] data -> data
I0403 13:00:39.821578 31142 net.cpp:399] data -> label
I0403 13:00:39.821614 31142 data_transformer.cpp:25] Loading mean file from: /home/mohanty/data/final_dataset/lmdb/grayscale-40-60/mean.binaryproto
I0403 13:00:39.841460 31145 db_lmdb.cpp:38] Opened lmdb /home/mohanty/data/final_dataset/lmdb/grayscale-40-60/test_db
I0403 13:00:39.853549 31142 data_layer.cpp:41] output data size: 100,3,227,227
I0403 13:00:39.974818 31142 net.cpp:141] Setting up data
I0403 13:00:39.974925 31142 net.cpp:148] Top shape: 100 3 227 227 (15458700)
I0403 13:00:39.974948 31142 net.cpp:148] Top shape: 100 (100)
I0403 13:00:39.974964 31142 net.cpp:156] Memory required for data: 61835200
I0403 13:00:39.974992 31142 layer_factory.hpp:77] Creating layer label_data_1_split
I0403 13:00:39.975019 31142 net.cpp:91] Creating Layer label_data_1_split
I0403 13:00:39.975039 31142 net.cpp:425] label_data_1_split <- label
I0403 13:00:39.975069 31142 net.cpp:399] label_data_1_split -> label_data_1_split_0
I0403 13:00:39.975097 31142 net.cpp:399] label_data_1_split -> label_data_1_split_1
I0403 13:00:39.975118 31142 net.cpp:399] label_data_1_split -> label_data_1_split_2
I0403 13:00:39.975189 31142 net.cpp:141] Setting up label_data_1_split
I0403 13:00:39.975214 31142 net.cpp:148] Top shape: 100 (100)
I0403 13:00:39.975231 31142 net.cpp:148] Top shape: 100 (100)
I0403 13:00:39.975247 31142 net.cpp:148] Top shape: 100 (100)
I0403 13:00:39.975262 31142 net.cpp:156] Memory required for data: 61836400
I0403 13:00:39.975281 31142 layer_factory.hpp:77] Creating layer conv1
I0403 13:00:39.975313 31142 net.cpp:91] Creating Layer conv1
I0403 13:00:39.975332 31142 net.cpp:425] conv1 <- data
I0403 13:00:39.975352 31142 net.cpp:399] conv1 -> conv1
I0403 13:00:40.114500 31142 net.cpp:141] Setting up conv1
I0403 13:00:40.114585 31142 net.cpp:148] Top shape: 100 96 55 55 (29040000)
I0403 13:00:40.114603 31142 net.cpp:156] Memory required for data: 177996400
I0403 13:00:40.114634 31142 layer_factory.hpp:77] Creating layer relu1
I0403 13:00:40.114662 31142 net.cpp:91] Creating Layer relu1
I0403 13:00:40.114681 31142 net.cpp:425] relu1 <- conv1
I0403 13:00:40.114699 31142 net.cpp:386] relu1 -> conv1 (in-place)
I0403 13:00:40.114964 31142 net.cpp:141] Setting up relu1
I0403 13:00:40.114990 31142 net.cpp:148] Top shape: 100 96 55 55 (29040000)
I0403 13:00:40.115038 31142 net.cpp:156] Memory required for data: 294156400
I0403 13:00:40.115056 31142 layer_factory.hpp:77] Creating layer norm1
I0403 13:00:40.115083 31142 net.cpp:91] Creating Layer norm1
I0403 13:00:40.115102 31142 net.cpp:425] norm1 <- conv1
I0403 13:00:40.115120 31142 net.cpp:399] norm1 -> norm1
I0403 13:00:40.115432 31142 net.cpp:141] Setting up norm1
I0403 13:00:40.115460 31142 net.cpp:148] Top shape: 100 96 55 55 (29040000)
I0403 13:00:40.115476 31142 net.cpp:156] Memory required for data: 410316400
I0403 13:00:40.115491 31142 layer_factory.hpp:77] Creating layer pool1
I0403 13:00:40.115514 31142 net.cpp:91] Creating Layer pool1
I0403 13:00:40.115532 31142 net.cpp:425] pool1 <- norm1
I0403 13:00:40.115551 31142 net.cpp:399] pool1 -> pool1
I0403 13:00:40.115619 31142 net.cpp:141] Setting up pool1
I0403 13:00:40.115643 31142 net.cpp:148] Top shape: 100 96 27 27 (6998400)
I0403 13:00:40.115658 31142 net.cpp:156] Memory required for data: 438310000
I0403 13:00:40.115674 31142 layer_factory.hpp:77] Creating layer conv2
I0403 13:00:40.115699 31142 net.cpp:91] Creating Layer conv2
I0403 13:00:40.115715 31142 net.cpp:425] conv2 <- pool1
I0403 13:00:40.115733 31142 net.cpp:399] conv2 -> conv2
I0403 13:00:40.130657 31142 net.cpp:141] Setting up conv2
I0403 13:00:40.130693 31142 net.cpp:148] Top shape: 100 256 27 27 (18662400)
I0403 13:00:40.130710 31142 net.cpp:156] Memory required for data: 512959600
I0403 13:00:40.130731 31142 layer_factory.hpp:77] Creating layer relu2
I0403 13:00:40.130751 31142 net.cpp:91] Creating Layer relu2
I0403 13:00:40.130769 31142 net.cpp:425] relu2 <- conv2
I0403 13:00:40.130785 31142 net.cpp:386] relu2 -> conv2 (in-place)
I0403 13:00:40.131052 31142 net.cpp:141] Setting up relu2
I0403 13:00:40.131079 31142 net.cpp:148] Top shape: 100 256 27 27 (18662400)
I0403 13:00:40.131094 31142 net.cpp:156] Memory required for data: 587609200
I0403 13:00:40.131109 31142 layer_factory.hpp:77] Creating layer norm2
I0403 13:00:40.131129 31142 net.cpp:91] Creating Layer norm2
I0403 13:00:40.131146 31142 net.cpp:425] norm2 <- conv2
I0403 13:00:40.131165 31142 net.cpp:399] norm2 -> norm2
I0403 13:00:40.131355 31142 net.cpp:141] Setting up norm2
I0403 13:00:40.131381 31142 net.cpp:148] Top shape: 100 256 27 27 (18662400)
I0403 13:00:40.131395 31142 net.cpp:156] Memory required for data: 662258800
I0403 13:00:40.131410 31142 layer_factory.hpp:77] Creating layer pool2
I0403 13:00:40.131428 31142 net.cpp:91] Creating Layer pool2
I0403 13:00:40.131444 31142 net.cpp:425] pool2 <- norm2
I0403 13:00:40.131461 31142 net.cpp:399] pool2 -> pool2
I0403 13:00:40.131511 31142 net.cpp:141] Setting up pool2
I0403 13:00:40.131534 31142 net.cpp:148] Top shape: 100 256 13 13 (4326400)
I0403 13:00:40.131548 31142 net.cpp:156] Memory required for data: 679564400
I0403 13:00:40.131564 31142 layer_factory.hpp:77] Creating layer conv3
I0403 13:00:40.131587 31142 net.cpp:91] Creating Layer conv3
I0403 13:00:40.131603 31142 net.cpp:425] conv3 <- pool2
I0403 13:00:40.131623 31142 net.cpp:399] conv3 -> conv3
I0403 13:00:40.175348 31142 net.cpp:141] Setting up conv3
I0403 13:00:40.175423 31142 net.cpp:148] Top shape: 100 384 13 13 (6489600)
I0403 13:00:40.175441 31142 net.cpp:156] Memory required for data: 705522800
I0403 13:00:40.175468 31142 layer_factory.hpp:77] Creating layer relu3
I0403 13:00:40.175490 31142 net.cpp:91] Creating Layer relu3
I0403 13:00:40.175508 31142 net.cpp:425] relu3 <- conv3
I0403 13:00:40.175530 31142 net.cpp:386] relu3 -> conv3 (in-place)
I0403 13:00:40.175823 31142 net.cpp:141] Setting up relu3
I0403 13:00:40.175850 31142 net.cpp:148] Top shape: 100 384 13 13 (6489600)
I0403 13:00:40.175866 31142 net.cpp:156] Memory required for data: 731481200
I0403 13:00:40.175881 31142 layer_factory.hpp:77] Creating layer conv4
I0403 13:00:40.175906 31142 net.cpp:91] Creating Layer conv4
I0403 13:00:40.175925 31142 net.cpp:425] conv4 <- conv3
I0403 13:00:40.175947 31142 net.cpp:399] conv4 -> conv4
I0403 13:00:40.205747 31142 net.cpp:141] Setting up conv4
I0403 13:00:40.205797 31142 net.cpp:148] Top shape: 100 384 13 13 (6489600)
I0403 13:00:40.205847 31142 net.cpp:156] Memory required for data: 757439600
I0403 13:00:40.205868 31142 layer_factory.hpp:77] Creating layer relu4
I0403 13:00:40.205888 31142 net.cpp:91] Creating Layer relu4
I0403 13:00:40.205904 31142 net.cpp:425] relu4 <- conv4
I0403 13:00:40.205925 31142 net.cpp:386] relu4 -> conv4 (in-place)
I0403 13:00:40.206207 31142 net.cpp:141] Setting up relu4
I0403 13:00:40.206234 31142 net.cpp:148] Top shape: 100 384 13 13 (6489600)
I0403 13:00:40.206250 31142 net.cpp:156] Memory required for data: 783398000
I0403 13:00:40.206266 31142 layer_factory.hpp:77] Creating layer conv5
I0403 13:00:40.206291 31142 net.cpp:91] Creating Layer conv5
I0403 13:00:40.206308 31142 net.cpp:425] conv5 <- conv4
I0403 13:00:40.206329 31142 net.cpp:399] conv5 -> conv5
I0403 13:00:40.226877 31142 net.cpp:141] Setting up conv5
I0403 13:00:40.226917 31142 net.cpp:148] Top shape: 100 256 13 13 (4326400)
I0403 13:00:40.226934 31142 net.cpp:156] Memory required for data: 800703600
I0403 13:00:40.226958 31142 layer_factory.hpp:77] Creating layer relu5
I0403 13:00:40.226979 31142 net.cpp:91] Creating Layer relu5
I0403 13:00:40.226997 31142 net.cpp:425] relu5 <- conv5
I0403 13:00:40.227016 31142 net.cpp:386] relu5 -> conv5 (in-place)
I0403 13:00:40.227300 31142 net.cpp:141] Setting up relu5
I0403 13:00:40.227326 31142 net.cpp:148] Top shape: 100 256 13 13 (4326400)
I0403 13:00:40.227342 31142 net.cpp:156] Memory required for data: 818009200
I0403 13:00:40.227358 31142 layer_factory.hpp:77] Creating layer pool5
I0403 13:00:40.227383 31142 net.cpp:91] Creating Layer pool5
I0403 13:00:40.227401 31142 net.cpp:425] pool5 <- conv5
I0403 13:00:40.227421 31142 net.cpp:399] pool5 -> pool5
I0403 13:00:40.227485 31142 net.cpp:141] Setting up pool5
I0403 13:00:40.227512 31142 net.cpp:148] Top shape: 100 256 6 6 (921600)
I0403 13:00:40.227529 31142 net.cpp:156] Memory required for data: 821695600
I0403 13:00:40.227542 31142 layer_factory.hpp:77] Creating layer fc6
I0403 13:00:40.227571 31142 net.cpp:91] Creating Layer fc6
I0403 13:00:40.227587 31142 net.cpp:425] fc6 <- pool5
I0403 13:00:40.227608 31142 net.cpp:399] fc6 -> fc6
I0403 13:00:41.773480 31142 net.cpp:141] Setting up fc6
I0403 13:00:41.773574 31142 net.cpp:148] Top shape: 100 4096 (409600)
I0403 13:00:41.773591 31142 net.cpp:156] Memory required for data: 823334000
I0403 13:00:41.773610 31142 layer_factory.hpp:77] Creating layer relu6
I0403 13:00:41.773632 31142 net.cpp:91] Creating Layer relu6
I0403 13:00:41.773648 31142 net.cpp:425] relu6 <- fc6
I0403 13:00:41.773669 31142 net.cpp:386] relu6 -> fc6 (in-place)
I0403 13:00:41.773895 31142 net.cpp:141] Setting up relu6
I0403 13:00:41.773919 31142 net.cpp:148] Top shape: 100 4096 (409600)
I0403 13:00:41.773933 31142 net.cpp:156] Memory required for data: 824972400
I0403 13:00:41.773947 31142 layer_factory.hpp:77] Creating layer drop6
I0403 13:00:41.773965 31142 net.cpp:91] Creating Layer drop6
I0403 13:00:41.773980 31142 net.cpp:425] drop6 <- fc6
I0403 13:00:41.773999 31142 net.cpp:386] drop6 -> fc6 (in-place)
I0403 13:00:41.774052 31142 net.cpp:141] Setting up drop6
I0403 13:00:41.774076 31142 net.cpp:148] Top shape: 100 4096 (409600)
I0403 13:00:41.774091 31142 net.cpp:156] Memory required for data: 826610800
I0403 13:00:41.774106 31142 layer_factory.hpp:77] Creating layer fc7
I0403 13:00:41.774126 31142 net.cpp:91] Creating Layer fc7
I0403 13:00:41.774140 31142 net.cpp:425] fc7 <- fc6
I0403 13:00:41.774160 31142 net.cpp:399] fc7 -> fc7
I0403 13:00:42.482130 31142 net.cpp:141] Setting up fc7
I0403 13:00:42.482218 31142 net.cpp:148] Top shape: 100 4096 (409600)
I0403 13:00:42.482239 31142 net.cpp:156] Memory required for data: 828249200
I0403 13:00:42.482264 31142 layer_factory.hpp:77] Creating layer relu7
I0403 13:00:42.482288 31142 net.cpp:91] Creating Layer relu7
I0403 13:00:42.482309 31142 net.cpp:425] relu7 <- fc7
I0403 13:00:42.482333 31142 net.cpp:386] relu7 -> fc7 (in-place)
I0403 13:00:42.482779 31142 net.cpp:141] Setting up relu7
I0403 13:00:42.482810 31142 net.cpp:148] Top shape: 100 4096 (409600)
I0403 13:00:42.482859 31142 net.cpp:156] Memory required for data: 829887600
I0403 13:00:42.482878 31142 layer_factory.hpp:77] Creating layer drop7
I0403 13:00:42.482900 31142 net.cpp:91] Creating Layer drop7
I0403 13:00:42.482918 31142 net.cpp:425] drop7 <- fc7
I0403 13:00:42.482940 31142 net.cpp:386] drop7 -> fc7 (in-place)
I0403 13:00:42.482987 31142 net.cpp:141] Setting up drop7
I0403 13:00:42.483016 31142 net.cpp:148] Top shape: 100 4096 (409600)
I0403 13:00:42.483033 31142 net.cpp:156] Memory required for data: 831526000
I0403 13:00:42.483050 31142 layer_factory.hpp:77] Creating layer fc8_plantvillage
I0403 13:00:42.483073 31142 net.cpp:91] Creating Layer fc8_plantvillage
I0403 13:00:42.483089 31142 net.cpp:425] fc8_plantvillage <- fc7
I0403 13:00:42.483114 31142 net.cpp:399] fc8_plantvillage -> fc8_plantvillage
I0403 13:00:42.490278 31142 net.cpp:141] Setting up fc8_plantvillage
I0403 13:00:42.490317 31142 net.cpp:148] Top shape: 100 38 (3800)
I0403 13:00:42.490335 31142 net.cpp:156] Memory required for data: 831541200
I0403 13:00:42.490355 31142 layer_factory.hpp:77] Creating layer fc8_plantvillage_fc8_plantvillage_0_split
I0403 13:00:42.490380 31142 net.cpp:91] Creating Layer fc8_plantvillage_fc8_plantvillage_0_split
I0403 13:00:42.490397 31142 net.cpp:425] fc8_plantvillage_fc8_plantvillage_0_split <- fc8_plantvillage
I0403 13:00:42.490418 31142 net.cpp:399] fc8_plantvillage_fc8_plantvillage_0_split -> fc8_plantvillage_fc8_plantvillage_0_split_0
I0403 13:00:42.490440 31142 net.cpp:399] fc8_plantvillage_fc8_plantvillage_0_split -> fc8_plantvillage_fc8_plantvillage_0_split_1
I0403 13:00:42.490463 31142 net.cpp:399] fc8_plantvillage_fc8_plantvillage_0_split -> fc8_plantvillage_fc8_plantvillage_0_split_2
I0403 13:00:42.490550 31142 net.cpp:141] Setting up fc8_plantvillage_fc8_plantvillage_0_split
I0403 13:00:42.490576 31142 net.cpp:148] Top shape: 100 38 (3800)
I0403 13:00:42.490595 31142 net.cpp:148] Top shape: 100 38 (3800)
I0403 13:00:42.490613 31142 net.cpp:148] Top shape: 100 38 (3800)
I0403 13:00:42.490629 31142 net.cpp:156] Memory required for data: 831586800
I0403 13:00:42.490645 31142 layer_factory.hpp:77] Creating layer prob
I0403 13:00:42.490666 31142 net.cpp:91] Creating Layer prob
I0403 13:00:42.490685 31142 net.cpp:425] prob <- fc8_plantvillage_fc8_plantvillage_0_split_0
I0403 13:00:42.490706 31142 net.cpp:399] prob -> prob
I0403 13:00:42.490965 31142 net.cpp:141] Setting up prob
I0403 13:00:42.490993 31142 net.cpp:148] Top shape: 100 38 (3800)
I0403 13:00:42.491008 31142 net.cpp:156] Memory required for data: 831602000
I0403 13:00:42.491024 31142 layer_factory.hpp:77] Creating layer hdf5out
I0403 13:00:42.491046 31142 net.cpp:91] Creating Layer hdf5out
I0403 13:00:42.491065 31142 net.cpp:425] hdf5out <- prob
I0403 13:00:42.491082 31142 net.cpp:425] hdf5out <- label_data_1_split_0
I0403 13:00:42.493342 31142 net.cpp:141] Setting up hdf5out
…
