…
I0403 12:42:56.320945 30682 net.cpp:313] The NetState phase (1) differed from the phase (0) specified by a rule in layer data
I0403 12:42:56.321249 30682 net.cpp:49] Initializing net from parameters: 
state {
  phase: TEST
}
layer {
  name: "data"
  type: "Data"
  top: "data"
  top: "label"
  include {
    phase: TEST
  }
  transform_param {
    crop_size: 227
    mean_file: "/home/mohanty/data/final_dataset/lmdb/grayscale-40-60/mean.binaryproto"
  }
  data_param {
    source: "/home/mohanty/data/final_dataset/lmdb/grayscale-40-60/test_db"
    batch_size: 100
    backend: LMDB
  }
}
layer {
  name: "conv1"
  type: "Convolution"
  bottom: "data"
  top: "conv1"
  param {
    lr_mult: 1
    decay_mult: 1
  }
  param {
    lr_mult: 2
    decay_mult: 0
  }
  convolution_param {
    num_output: 96
    kernel_size: 11
    stride: 4
    weight_filler {
      type: "gaussian"
      std: 0.01
    }
    bias_filler {
      type: "constant"
      value: 0
    }
  }
}
layer {
  name: "relu1"
  type: "ReLU"
  bottom: "conv1"
  top: "conv1"
}
layer {
  name: "norm1"
  type: "LRN"
  bottom: "conv1"
  top: "norm1"
  lrn_param {
    local_size: 5
    alpha: 0.0001
    beta: 0.75
  }
}
layer {
  name: "pool1"
  type: "Pooling"
  bottom: "norm1"
  top: "pool1"
  pooling_param {
    pool: MAX
    kernel_size: 3
    stride: 2
  }
}
layer {
  name: "conv2"
  type: "Convolution"
  bottom: "pool1"
  top: "conv2"
  param {
    lr_mult: 1
    decay_mult: 1
  }
  param {
    lr_mult: 2
    decay_mult: 0
  }
  convolution_param {
    num_output: 256
    pad: 2
    kernel_size: 5
    group: 2
    weight_filler {
      type: "gaussian"
      std: 0.01
    }
    bias_filler {
      type: "constant"
      value: 0.1
    }
  }
}
layer {
  name: "relu2"
  type: "ReLU"
  bottom: "conv2"
  top: "conv2"
}
layer {
  name: "norm2"
  type: "LRN"
  bottom: "conv2"
  top: "norm2"
  lrn_param {
    local_size: 5
    alpha: 0.0001
    beta: 0.75
  }
}
layer {
  name: "pool2"
  type: "Pooling"
  bottom: "norm2"
  top: "pool2"
  pooling_param {
    pool: MAX
    kernel_size: 3
    stride: 2
  }
}
layer {
  name: "conv3"
  type: "Convolution"
  bottom: "pool2"
  top: "conv3"
  param {
    lr_mult: 1
    decay_mult: 1
  }
  param {
    lr_mult: 2
    decay_mult: 0
  }
  convolution_param {
    num_output: 384
    pad: 1
    kernel_size: 3
    weight_filler {
      type: "gaussian"
      std: 0.01
    }
    bias_filler {
      type: "constant"
      value: 0
    }
  }
}
layer {
  name: "relu3"
  type: "ReLU"
  bottom: "conv3"
  top: "conv3"
}
layer {
  name: "conv4"
  type: "Convolution"
  bottom: "conv3"
  top: "conv4"
  param {
    lr_mult: 1
    decay_mult: 1
  }
  param {
    lr_mult: 2
    decay_mult: 0
  }
  convolution_param {
    num_output: 384
    pad: 1
    kernel_size: 3
    group: 2
    weight_filler {
      type: "gaussian"
      std: 0.01
    }
    bias_filler {
      type: "constant"
      value: 0.1
    }
  }
}
layer {
  name: "relu4"
  type: "ReLU"
  bottom: "conv4"
  top: "conv4"
}
layer {
  name: "conv5"
  type: "Convolution"
  bottom: "conv4"
  top: "conv5"
  param {
    lr_mult: 1
    decay_mult: 1
  }
  param {
    lr_mult: 2
    decay_mult: 0
  }
  convolution_param {
    num_output: 256
    pad: 1
    kernel_size: 3
    group: 2
    weight_filler {
      type: "gaussian"
      std: 0.01
    }
    bias_filler {
      type: "constant"
      value: 0.1
    }
  }
}
layer {
  name: "relu5"
  type: "ReLU"
  bottom: "conv5"
  top: "conv5"
}
layer {
  name: "pool5"
  type: "Pooling"
  bottom: "conv5"
  top: "pool5"
  pooling_param {
    pool: MAX
    kernel_size: 3
    stride: 2
  }
}
layer {
  name: "fc6"
  type: "InnerProduct"
  bottom: "pool5"
  top: "fc6"
  param {
    lr_mult: 1
    decay_mult: 1
  }
  param {
    lr_mult: 2
    decay_mult: 0
  }
  inner_product_param {
    num_output: 4096
    weight_filler {
      type: "gaussian"
      std: 0.005
    }
    bias_filler {
      type: "constant"
      value: 0.1
    }
  }
}
layer {
  name: "relu6"
  type: "ReLU"
  bottom: "fc6"
  top: "fc6"
}
layer {
  name: "drop6"
  type: "Dropout"
  bottom: "fc6"
  top: "fc6"
  dropout_param {
    dropout_ratio: 0.5
  }
}
layer {
  name: "fc7"
  type: "InnerProduct"
  bottom: "fc6"
  top: "fc7"
  param {
    lr_mult: 1
    decay_mult: 1
  }
  param {
    lr_mult: 2
    decay_mult: 0
  }
  inner_product_param {
    num_output: 4096
    weight_filler {
      type: "gaussian"
      std: 0.005
    }
    bias_filler {
      type: "constant"
      value: 0.1
    }
  }
}
layer {
  name: "relu7"
  type: "ReLU"
  bottom: "fc7"
  top: "fc7"
}
layer {
  name: "drop7"
  type: "Dropout"
  bottom: "fc7"
  top: "fc7"
  dropout_param {
    dropout_ratio: 0.5
  }
}
layer {
  name: "fc8_plantvillage"
  type: "InnerProduct"
  bottom: "fc7"
  top: "fc8_plantvillage"
  param {
    lr_mult: 1
    decay_mult: 1
  }
  param {
    lr_mult: 2
    decay_mult: 0
  }
  inner_product_param {
    num_output: 38
    weight_filler {
      type: "gaussian"
      std: 0.01
    }
    bias_filler {
      type: "constant"
      value: 0
    }
  }
}
layer {
  name: "prob"
  type: "Softmax"
  bottom: "fc8_plantvillage"
  top: "prob"
  include {
    phase: TEST
  }
}
layer {
  name: "hdf5out"
  type: "HDF5Output"
  bottom: "prob"
  bottom: "label"
  include {
    phase: TEST
  }
  hdf5_output_param {
    file_name: "hdf5_dumps/iter_1971.h5"
  }
}
layer {
  name: "loss"
  type: "SoftmaxWithLoss"
  bottom: "fc8_plantvillage"
  bottom: "label"
  top: "loss"
}
layer {
  name: "accuracy"
  type: "Accuracy"
  bottom: "fc8_plantvillage"
  bottom: "label"
  top: "accuracy"
  include {
    phase: TEST
  }
}
I0403 12:42:56.321759 30682 layer_factory.hpp:77] Creating layer data
I0403 12:42:56.322376 30682 net.cpp:91] Creating Layer data
I0403 12:42:56.322408 30682 net.cpp:399] data -> data
I0403 12:42:56.322456 30682 net.cpp:399] data -> label
I0403 12:42:56.322491 30682 data_transformer.cpp:25] Loading mean file from: /home/mohanty/data/final_dataset/lmdb/grayscale-40-60/mean.binaryproto
I0403 12:42:56.325853 30685 db_lmdb.cpp:38] Opened lmdb /home/mohanty/data/final_dataset/lmdb/grayscale-40-60/test_db
I0403 12:42:56.336771 30682 data_layer.cpp:41] output data size: 100,3,227,227
I0403 12:42:56.452519 30682 net.cpp:141] Setting up data
I0403 12:42:56.452621 30682 net.cpp:148] Top shape: 100 3 227 227 (15458700)
I0403 12:42:56.452646 30682 net.cpp:148] Top shape: 100 (100)
I0403 12:42:56.452661 30682 net.cpp:156] Memory required for data: 61835200
I0403 12:42:56.452687 30682 layer_factory.hpp:77] Creating layer label_data_1_split
I0403 12:42:56.452713 30682 net.cpp:91] Creating Layer label_data_1_split
I0403 12:42:56.452730 30682 net.cpp:425] label_data_1_split <- label
I0403 12:42:56.452760 30682 net.cpp:399] label_data_1_split -> label_data_1_split_0
I0403 12:42:56.452787 30682 net.cpp:399] label_data_1_split -> label_data_1_split_1
I0403 12:42:56.452807 30682 net.cpp:399] label_data_1_split -> label_data_1_split_2
I0403 12:42:56.452867 30682 net.cpp:141] Setting up label_data_1_split
I0403 12:42:56.452890 30682 net.cpp:148] Top shape: 100 (100)
I0403 12:42:56.452906 30682 net.cpp:148] Top shape: 100 (100)
I0403 12:42:56.452922 30682 net.cpp:148] Top shape: 100 (100)
I0403 12:42:56.452937 30682 net.cpp:156] Memory required for data: 61836400
I0403 12:42:56.452951 30682 layer_factory.hpp:77] Creating layer conv1
I0403 12:42:56.452982 30682 net.cpp:91] Creating Layer conv1
I0403 12:42:56.452999 30682 net.cpp:425] conv1 <- data
I0403 12:42:56.453017 30682 net.cpp:399] conv1 -> conv1
I0403 12:42:56.588225 30682 net.cpp:141] Setting up conv1
I0403 12:42:56.588310 30682 net.cpp:148] Top shape: 100 96 55 55 (29040000)
I0403 12:42:56.588327 30682 net.cpp:156] Memory required for data: 177996400
I0403 12:42:56.588358 30682 layer_factory.hpp:77] Creating layer relu1
I0403 12:42:56.588385 30682 net.cpp:91] Creating Layer relu1
I0403 12:42:56.588404 30682 net.cpp:425] relu1 <- conv1
I0403 12:42:56.588423 30682 net.cpp:386] relu1 -> conv1 (in-place)
I0403 12:42:56.588698 30682 net.cpp:141] Setting up relu1
I0403 12:42:56.588726 30682 net.cpp:148] Top shape: 100 96 55 55 (29040000)
I0403 12:42:56.588784 30682 net.cpp:156] Memory required for data: 294156400
I0403 12:42:56.588800 30682 layer_factory.hpp:77] Creating layer norm1
I0403 12:42:56.588826 30682 net.cpp:91] Creating Layer norm1
I0403 12:42:56.588843 30682 net.cpp:425] norm1 <- conv1
I0403 12:42:56.588861 30682 net.cpp:399] norm1 -> norm1
I0403 12:42:56.589174 30682 net.cpp:141] Setting up norm1
I0403 12:42:56.589202 30682 net.cpp:148] Top shape: 100 96 55 55 (29040000)
I0403 12:42:56.589223 30682 net.cpp:156] Memory required for data: 410316400
I0403 12:42:56.589239 30682 layer_factory.hpp:77] Creating layer pool1
I0403 12:42:56.589263 30682 net.cpp:91] Creating Layer pool1
I0403 12:42:56.589280 30682 net.cpp:425] pool1 <- norm1
I0403 12:42:56.589298 30682 net.cpp:399] pool1 -> pool1
I0403 12:42:56.589362 30682 net.cpp:141] Setting up pool1
I0403 12:42:56.589385 30682 net.cpp:148] Top shape: 100 96 27 27 (6998400)
I0403 12:42:56.589400 30682 net.cpp:156] Memory required for data: 438310000
I0403 12:42:56.589414 30682 layer_factory.hpp:77] Creating layer conv2
I0403 12:42:56.589438 30682 net.cpp:91] Creating Layer conv2
I0403 12:42:56.589454 30682 net.cpp:425] conv2 <- pool1
I0403 12:42:56.589481 30682 net.cpp:399] conv2 -> conv2
I0403 12:42:56.604122 30682 net.cpp:141] Setting up conv2
I0403 12:42:56.604161 30682 net.cpp:148] Top shape: 100 256 27 27 (18662400)
I0403 12:42:56.604177 30682 net.cpp:156] Memory required for data: 512959600
I0403 12:42:56.604199 30682 layer_factory.hpp:77] Creating layer relu2
I0403 12:42:56.604224 30682 net.cpp:91] Creating Layer relu2
I0403 12:42:56.604243 30682 net.cpp:425] relu2 <- conv2
I0403 12:42:56.604262 30682 net.cpp:386] relu2 -> conv2 (in-place)
I0403 12:42:56.604559 30682 net.cpp:141] Setting up relu2
I0403 12:42:56.604586 30682 net.cpp:148] Top shape: 100 256 27 27 (18662400)
I0403 12:42:56.604603 30682 net.cpp:156] Memory required for data: 587609200
I0403 12:42:56.604617 30682 layer_factory.hpp:77] Creating layer norm2
I0403 12:42:56.604640 30682 net.cpp:91] Creating Layer norm2
I0403 12:42:56.604656 30682 net.cpp:425] norm2 <- conv2
I0403 12:42:56.604674 30682 net.cpp:399] norm2 -> norm2
I0403 12:42:56.604882 30682 net.cpp:141] Setting up norm2
I0403 12:42:56.604907 30682 net.cpp:148] Top shape: 100 256 27 27 (18662400)
I0403 12:42:56.604920 30682 net.cpp:156] Memory required for data: 662258800
I0403 12:42:56.604935 30682 layer_factory.hpp:77] Creating layer pool2
I0403 12:42:56.604953 30682 net.cpp:91] Creating Layer pool2
I0403 12:42:56.604969 30682 net.cpp:425] pool2 <- norm2
I0403 12:42:56.604991 30682 net.cpp:399] pool2 -> pool2
I0403 12:42:56.605052 30682 net.cpp:141] Setting up pool2
I0403 12:42:56.605075 30682 net.cpp:148] Top shape: 100 256 13 13 (4326400)
I0403 12:42:56.605090 30682 net.cpp:156] Memory required for data: 679564400
I0403 12:42:56.605105 30682 layer_factory.hpp:77] Creating layer conv3
I0403 12:42:56.605129 30682 net.cpp:91] Creating Layer conv3
I0403 12:42:56.605145 30682 net.cpp:425] conv3 <- pool2
I0403 12:42:56.605164 30682 net.cpp:399] conv3 -> conv3
I0403 12:42:56.648308 30682 net.cpp:141] Setting up conv3
I0403 12:42:56.648371 30682 net.cpp:148] Top shape: 100 384 13 13 (6489600)
I0403 12:42:56.648388 30682 net.cpp:156] Memory required for data: 705522800
I0403 12:42:56.648413 30682 layer_factory.hpp:77] Creating layer relu3
I0403 12:42:56.648433 30682 net.cpp:91] Creating Layer relu3
I0403 12:42:56.648450 30682 net.cpp:425] relu3 <- conv3
I0403 12:42:56.648470 30682 net.cpp:386] relu3 -> conv3 (in-place)
I0403 12:42:56.648741 30682 net.cpp:141] Setting up relu3
I0403 12:42:56.648766 30682 net.cpp:148] Top shape: 100 384 13 13 (6489600)
I0403 12:42:56.648782 30682 net.cpp:156] Memory required for data: 731481200
I0403 12:42:56.648797 30682 layer_factory.hpp:77] Creating layer conv4
I0403 12:42:56.648821 30682 net.cpp:91] Creating Layer conv4
I0403 12:42:56.648838 30682 net.cpp:425] conv4 <- conv3
I0403 12:42:56.648859 30682 net.cpp:399] conv4 -> conv4
I0403 12:42:56.677773 30682 net.cpp:141] Setting up conv4
I0403 12:42:56.677824 30682 net.cpp:148] Top shape: 100 384 13 13 (6489600)
I0403 12:42:56.677875 30682 net.cpp:156] Memory required for data: 757439600
I0403 12:42:56.677894 30682 layer_factory.hpp:77] Creating layer relu4
I0403 12:42:56.677913 30682 net.cpp:91] Creating Layer relu4
I0403 12:42:56.677928 30682 net.cpp:425] relu4 <- conv4
I0403 12:42:56.677949 30682 net.cpp:386] relu4 -> conv4 (in-place)
I0403 12:42:56.678225 30682 net.cpp:141] Setting up relu4
I0403 12:42:56.678256 30682 net.cpp:148] Top shape: 100 384 13 13 (6489600)
I0403 12:42:56.678272 30682 net.cpp:156] Memory required for data: 783398000
I0403 12:42:56.678287 30682 layer_factory.hpp:77] Creating layer conv5
I0403 12:42:56.678311 30682 net.cpp:91] Creating Layer conv5
I0403 12:42:56.678328 30682 net.cpp:425] conv5 <- conv4
I0403 12:42:56.678346 30682 net.cpp:399] conv5 -> conv5
I0403 12:42:56.698180 30682 net.cpp:141] Setting up conv5
I0403 12:42:56.698225 30682 net.cpp:148] Top shape: 100 256 13 13 (4326400)
I0403 12:42:56.698243 30682 net.cpp:156] Memory required for data: 800703600
I0403 12:42:56.698266 30682 layer_factory.hpp:77] Creating layer relu5
I0403 12:42:56.698287 30682 net.cpp:91] Creating Layer relu5
I0403 12:42:56.698302 30682 net.cpp:425] relu5 <- conv5
I0403 12:42:56.698323 30682 net.cpp:386] relu5 -> conv5 (in-place)
I0403 12:42:56.698608 30682 net.cpp:141] Setting up relu5
I0403 12:42:56.698637 30682 net.cpp:148] Top shape: 100 256 13 13 (4326400)
I0403 12:42:56.698652 30682 net.cpp:156] Memory required for data: 818009200
I0403 12:42:56.698667 30682 layer_factory.hpp:77] Creating layer pool5
I0403 12:42:56.698688 30682 net.cpp:91] Creating Layer pool5
I0403 12:42:56.698704 30682 net.cpp:425] pool5 <- conv5
I0403 12:42:56.698726 30682 net.cpp:399] pool5 -> pool5
I0403 12:42:56.698798 30682 net.cpp:141] Setting up pool5
I0403 12:42:56.698822 30682 net.cpp:148] Top shape: 100 256 6 6 (921600)
I0403 12:42:56.698837 30682 net.cpp:156] Memory required for data: 821695600
I0403 12:42:56.698851 30682 layer_factory.hpp:77] Creating layer fc6
I0403 12:42:56.698879 30682 net.cpp:91] Creating Layer fc6
I0403 12:42:56.698897 30682 net.cpp:425] fc6 <- pool5
I0403 12:42:56.698917 30682 net.cpp:399] fc6 -> fc6
I0403 12:42:58.281051 30682 net.cpp:141] Setting up fc6
I0403 12:42:58.281138 30682 net.cpp:148] Top shape: 100 4096 (409600)
I0403 12:42:58.281155 30682 net.cpp:156] Memory required for data: 823334000
I0403 12:42:58.281177 30682 layer_factory.hpp:77] Creating layer relu6
I0403 12:42:58.281200 30682 net.cpp:91] Creating Layer relu6
I0403 12:42:58.281225 30682 net.cpp:425] relu6 <- fc6
I0403 12:42:58.281244 30682 net.cpp:386] relu6 -> fc6 (in-place)
I0403 12:42:58.281467 30682 net.cpp:141] Setting up relu6
I0403 12:42:58.281491 30682 net.cpp:148] Top shape: 100 4096 (409600)
I0403 12:42:58.281507 30682 net.cpp:156] Memory required for data: 824972400
I0403 12:42:58.281522 30682 layer_factory.hpp:77] Creating layer drop6
I0403 12:42:58.281539 30682 net.cpp:91] Creating Layer drop6
I0403 12:42:58.281554 30682 net.cpp:425] drop6 <- fc6
I0403 12:42:58.281574 30682 net.cpp:386] drop6 -> fc6 (in-place)
I0403 12:42:58.281625 30682 net.cpp:141] Setting up drop6
I0403 12:42:58.281651 30682 net.cpp:148] Top shape: 100 4096 (409600)
I0403 12:42:58.281666 30682 net.cpp:156] Memory required for data: 826610800
I0403 12:42:58.281682 30682 layer_factory.hpp:77] Creating layer fc7
I0403 12:42:58.281702 30682 net.cpp:91] Creating Layer fc7
I0403 12:42:58.281718 30682 net.cpp:425] fc7 <- fc6
I0403 12:42:58.281736 30682 net.cpp:399] fc7 -> fc7
I0403 12:42:58.974925 30682 net.cpp:141] Setting up fc7
I0403 12:42:58.975023 30682 net.cpp:148] Top shape: 100 4096 (409600)
I0403 12:42:58.975040 30682 net.cpp:156] Memory required for data: 828249200
I0403 12:42:58.975062 30682 layer_factory.hpp:77] Creating layer relu7
I0403 12:42:58.975085 30682 net.cpp:91] Creating Layer relu7
I0403 12:42:58.975102 30682 net.cpp:425] relu7 <- fc7
I0403 12:42:58.975137 30682 net.cpp:386] relu7 -> fc7 (in-place)
I0403 12:42:58.975594 30682 net.cpp:141] Setting up relu7
I0403 12:42:58.975636 30682 net.cpp:148] Top shape: 100 4096 (409600)
I0403 12:42:58.975683 30682 net.cpp:156] Memory required for data: 829887600
I0403 12:42:58.975700 30682 layer_factory.hpp:77] Creating layer drop7
I0403 12:42:58.975723 30682 net.cpp:91] Creating Layer drop7
I0403 12:42:58.975754 30682 net.cpp:425] drop7 <- fc7
I0403 12:42:58.975776 30682 net.cpp:386] drop7 -> fc7 (in-place)
I0403 12:42:58.975824 30682 net.cpp:141] Setting up drop7
I0403 12:42:58.975852 30682 net.cpp:148] Top shape: 100 4096 (409600)
I0403 12:42:58.975867 30682 net.cpp:156] Memory required for data: 831526000
I0403 12:42:58.975883 30682 layer_factory.hpp:77] Creating layer fc8_plantvillage
I0403 12:42:58.975906 30682 net.cpp:91] Creating Layer fc8_plantvillage
I0403 12:42:58.975924 30682 net.cpp:425] fc8_plantvillage <- fc7
I0403 12:42:58.975944 30682 net.cpp:399] fc8_plantvillage -> fc8_plantvillage
I0403 12:42:58.983094 30682 net.cpp:141] Setting up fc8_plantvillage
I0403 12:42:58.983135 30682 net.cpp:148] Top shape: 100 38 (3800)
I0403 12:42:58.983151 30682 net.cpp:156] Memory required for data: 831541200
I0403 12:42:58.983170 30682 layer_factory.hpp:77] Creating layer fc8_plantvillage_fc8_plantvillage_0_split
I0403 12:42:58.983192 30682 net.cpp:91] Creating Layer fc8_plantvillage_fc8_plantvillage_0_split
I0403 12:42:58.983222 30682 net.cpp:425] fc8_plantvillage_fc8_plantvillage_0_split <- fc8_plantvillage
I0403 12:42:58.983253 30682 net.cpp:399] fc8_plantvillage_fc8_plantvillage_0_split -> fc8_plantvillage_fc8_plantvillage_0_split_0
I0403 12:42:58.983276 30682 net.cpp:399] fc8_plantvillage_fc8_plantvillage_0_split -> fc8_plantvillage_fc8_plantvillage_0_split_1
I0403 12:42:58.983297 30682 net.cpp:399] fc8_plantvillage_fc8_plantvillage_0_split -> fc8_plantvillage_fc8_plantvillage_0_split_2
I0403 12:42:58.983381 30682 net.cpp:141] Setting up fc8_plantvillage_fc8_plantvillage_0_split
I0403 12:42:58.983407 30682 net.cpp:148] Top shape: 100 38 (3800)
I0403 12:42:58.983424 30682 net.cpp:148] Top shape: 100 38 (3800)
I0403 12:42:58.983440 30682 net.cpp:148] Top shape: 100 38 (3800)
I0403 12:42:58.983454 30682 net.cpp:156] Memory required for data: 831586800
I0403 12:42:58.983469 30682 layer_factory.hpp:77] Creating layer prob
I0403 12:42:58.983489 30682 net.cpp:91] Creating Layer prob
I0403 12:42:58.983505 30682 net.cpp:425] prob <- fc8_plantvillage_fc8_plantvillage_0_split_0
I0403 12:42:58.983526 30682 net.cpp:399] prob -> prob
I0403 12:42:58.983767 30682 net.cpp:141] Setting up prob
I0403 12:42:58.983803 30682 net.cpp:148] Top shape: 100 38 (3800)
I0403 12:42:58.983819 30682 net.cpp:156] Memory required for data: 831602000
I0403 12:42:58.983835 30682 layer_factory.hpp:77] Creating layer hdf5out
I0403 12:42:58.983855 30682 net.cpp:91] Creating Layer hdf5out
I0403 12:42:58.983871 30682 net.cpp:425] hdf5out <- prob
I0403 12:42:58.983888 30682 net.cpp:425] hdf5out <- label_data_1_split_0
I0403 12:42:58.986173 30682 net.cpp:141] Setting up hdf5out
…
