…
I0403 12:38:29.522614 30563 net.cpp:313] The NetState phase (1) differed from the phase (0) specified by a rule in layer data
I0403 12:38:29.522924 30563 net.cpp:49] Initializing net from parameters: 
state {
  phase: TEST
}
layer {
  name: "data"
  type: "Data"
  top: "data"
  top: "label"
  include {
    phase: TEST
  }
  transform_param {
    crop_size: 227
    mean_file: "/home/mohanty/data/final_dataset/lmdb/grayscale-40-60/mean.binaryproto"
  }
  data_param {
    source: "/home/mohanty/data/final_dataset/lmdb/grayscale-40-60/test_db"
    batch_size: 100
    backend: LMDB
  }
}
layer {
  name: "conv1"
  type: "Convolution"
  bottom: "data"
  top: "conv1"
  param {
    lr_mult: 1
    decay_mult: 1
  }
  param {
    lr_mult: 2
    decay_mult: 0
  }
  convolution_param {
    num_output: 96
    kernel_size: 11
    stride: 4
    weight_filler {
      type: "gaussian"
      std: 0.01
    }
    bias_filler {
      type: "constant"
      value: 0
    }
  }
}
layer {
  name: "relu1"
  type: "ReLU"
  bottom: "conv1"
  top: "conv1"
}
layer {
  name: "norm1"
  type: "LRN"
  bottom: "conv1"
  top: "norm1"
  lrn_param {
    local_size: 5
    alpha: 0.0001
    beta: 0.75
  }
}
layer {
  name: "pool1"
  type: "Pooling"
  bottom: "norm1"
  top: "pool1"
  pooling_param {
    pool: MAX
    kernel_size: 3
    stride: 2
  }
}
layer {
  name: "conv2"
  type: "Convolution"
  bottom: "pool1"
  top: "conv2"
  param {
    lr_mult: 1
    decay_mult: 1
  }
  param {
    lr_mult: 2
    decay_mult: 0
  }
  convolution_param {
    num_output: 256
    pad: 2
    kernel_size: 5
    group: 2
    weight_filler {
      type: "gaussian"
      std: 0.01
    }
    bias_filler {
      type: "constant"
      value: 0.1
    }
  }
}
layer {
  name: "relu2"
  type: "ReLU"
  bottom: "conv2"
  top: "conv2"
}
layer {
  name: "norm2"
  type: "LRN"
  bottom: "conv2"
  top: "norm2"
  lrn_param {
    local_size: 5
    alpha: 0.0001
    beta: 0.75
  }
}
layer {
  name: "pool2"
  type: "Pooling"
  bottom: "norm2"
  top: "pool2"
  pooling_param {
    pool: MAX
    kernel_size: 3
    stride: 2
  }
}
layer {
  name: "conv3"
  type: "Convolution"
  bottom: "pool2"
  top: "conv3"
  param {
    lr_mult: 1
    decay_mult: 1
  }
  param {
    lr_mult: 2
    decay_mult: 0
  }
  convolution_param {
    num_output: 384
    pad: 1
    kernel_size: 3
    weight_filler {
      type: "gaussian"
      std: 0.01
    }
    bias_filler {
      type: "constant"
      value: 0
    }
  }
}
layer {
  name: "relu3"
  type: "ReLU"
  bottom: "conv3"
  top: "conv3"
}
layer {
  name: "conv4"
  type: "Convolution"
  bottom: "conv3"
  top: "conv4"
  param {
    lr_mult: 1
    decay_mult: 1
  }
  param {
    lr_mult: 2
    decay_mult: 0
  }
  convolution_param {
    num_output: 384
    pad: 1
    kernel_size: 3
    group: 2
    weight_filler {
      type: "gaussian"
      std: 0.01
    }
    bias_filler {
      type: "constant"
      value: 0.1
    }
  }
}
layer {
  name: "relu4"
  type: "ReLU"
  bottom: "conv4"
  top: "conv4"
}
layer {
  name: "conv5"
  type: "Convolution"
  bottom: "conv4"
  top: "conv5"
  param {
    lr_mult: 1
    decay_mult: 1
  }
  param {
    lr_mult: 2
    decay_mult: 0
  }
  convolution_param {
    num_output: 256
    pad: 1
    kernel_size: 3
    group: 2
    weight_filler {
      type: "gaussian"
      std: 0.01
    }
    bias_filler {
      type: "constant"
      value: 0.1
    }
  }
}
layer {
  name: "relu5"
  type: "ReLU"
  bottom: "conv5"
  top: "conv5"
}
layer {
  name: "pool5"
  type: "Pooling"
  bottom: "conv5"
  top: "pool5"
  pooling_param {
    pool: MAX
    kernel_size: 3
    stride: 2
  }
}
layer {
  name: "fc6"
  type: "InnerProduct"
  bottom: "pool5"
  top: "fc6"
  param {
    lr_mult: 1
    decay_mult: 1
  }
  param {
    lr_mult: 2
    decay_mult: 0
  }
  inner_product_param {
    num_output: 4096
    weight_filler {
      type: "gaussian"
      std: 0.005
    }
    bias_filler {
      type: "constant"
      value: 0.1
    }
  }
}
layer {
  name: "relu6"
  type: "ReLU"
  bottom: "fc6"
  top: "fc6"
}
layer {
  name: "drop6"
  type: "Dropout"
  bottom: "fc6"
  top: "fc6"
  dropout_param {
    dropout_ratio: 0.5
  }
}
layer {
  name: "fc7"
  type: "InnerProduct"
  bottom: "fc6"
  top: "fc7"
  param {
    lr_mult: 1
    decay_mult: 1
  }
  param {
    lr_mult: 2
    decay_mult: 0
  }
  inner_product_param {
    num_output: 4096
    weight_filler {
      type: "gaussian"
      std: 0.005
    }
    bias_filler {
      type: "constant"
      value: 0.1
    }
  }
}
layer {
  name: "relu7"
  type: "ReLU"
  bottom: "fc7"
  top: "fc7"
}
layer {
  name: "drop7"
  type: "Dropout"
  bottom: "fc7"
  top: "fc7"
  dropout_param {
    dropout_ratio: 0.5
  }
}
layer {
  name: "fc8_plantvillage"
  type: "InnerProduct"
  bottom: "fc7"
  top: "fc8_plantvillage"
  param {
    lr_mult: 1
    decay_mult: 1
  }
  param {
    lr_mult: 2
    decay_mult: 0
  }
  inner_product_param {
    num_output: 38
    weight_filler {
      type: "gaussian"
      std: 0.01
    }
    bias_filler {
      type: "constant"
      value: 0
    }
  }
}
layer {
  name: "prob"
  type: "Softmax"
  bottom: "fc8_plantvillage"
  top: "prob"
  include {
    phase: TEST
  }
}
layer {
  name: "hdf5out"
  type: "HDF5Output"
  bottom: "prob"
  bottom: "label"
  include {
    phase: TEST
  }
  hdf5_output_param {
    file_name: "hdf5_dumps/iter_1095.h5"
  }
}
layer {
  name: "loss"
  type: "SoftmaxWithLoss"
  bottom: "fc8_plantvillage"
  bottom: "label"
  top: "loss"
}
layer {
  name: "accuracy"
  type: "Accuracy"
  bottom: "fc8_plantvillage"
  bottom: "label"
  top: "accuracy"
  include {
    phase: TEST
  }
}
I0403 12:38:29.523510 30563 layer_factory.hpp:77] Creating layer data
I0403 12:38:29.524186 30563 net.cpp:91] Creating Layer data
I0403 12:38:29.524227 30563 net.cpp:399] data -> data
I0403 12:38:29.524282 30563 net.cpp:399] data -> label
I0403 12:38:29.524322 30563 data_transformer.cpp:25] Loading mean file from: /home/mohanty/data/final_dataset/lmdb/grayscale-40-60/mean.binaryproto
I0403 12:38:29.527387 30566 db_lmdb.cpp:38] Opened lmdb /home/mohanty/data/final_dataset/lmdb/grayscale-40-60/test_db
I0403 12:38:29.538969 30563 data_layer.cpp:41] output data size: 100,3,227,227
I0403 12:38:29.662549 30563 net.cpp:141] Setting up data
I0403 12:38:29.662657 30563 net.cpp:148] Top shape: 100 3 227 227 (15458700)
I0403 12:38:29.662680 30563 net.cpp:148] Top shape: 100 (100)
I0403 12:38:29.662696 30563 net.cpp:156] Memory required for data: 61835200
I0403 12:38:29.662724 30563 layer_factory.hpp:77] Creating layer label_data_1_split
I0403 12:38:29.662750 30563 net.cpp:91] Creating Layer label_data_1_split
I0403 12:38:29.662768 30563 net.cpp:425] label_data_1_split <- label
I0403 12:38:29.662799 30563 net.cpp:399] label_data_1_split -> label_data_1_split_0
I0403 12:38:29.662827 30563 net.cpp:399] label_data_1_split -> label_data_1_split_1
I0403 12:38:29.662850 30563 net.cpp:399] label_data_1_split -> label_data_1_split_2
I0403 12:38:29.662915 30563 net.cpp:141] Setting up label_data_1_split
I0403 12:38:29.662940 30563 net.cpp:148] Top shape: 100 (100)
I0403 12:38:29.662957 30563 net.cpp:148] Top shape: 100 (100)
I0403 12:38:29.662974 30563 net.cpp:148] Top shape: 100 (100)
I0403 12:38:29.662989 30563 net.cpp:156] Memory required for data: 61836400
I0403 12:38:29.663005 30563 layer_factory.hpp:77] Creating layer conv1
I0403 12:38:29.663038 30563 net.cpp:91] Creating Layer conv1
I0403 12:38:29.663058 30563 net.cpp:425] conv1 <- data
I0403 12:38:29.663077 30563 net.cpp:399] conv1 -> conv1
I0403 12:38:29.808307 30563 net.cpp:141] Setting up conv1
I0403 12:38:29.808396 30563 net.cpp:148] Top shape: 100 96 55 55 (29040000)
I0403 12:38:29.808414 30563 net.cpp:156] Memory required for data: 177996400
I0403 12:38:29.808445 30563 layer_factory.hpp:77] Creating layer relu1
I0403 12:38:29.808475 30563 net.cpp:91] Creating Layer relu1
I0403 12:38:29.808492 30563 net.cpp:425] relu1 <- conv1
I0403 12:38:29.808511 30563 net.cpp:386] relu1 -> conv1 (in-place)
I0403 12:38:29.808816 30563 net.cpp:141] Setting up relu1
I0403 12:38:29.808845 30563 net.cpp:148] Top shape: 100 96 55 55 (29040000)
I0403 12:38:29.808892 30563 net.cpp:156] Memory required for data: 294156400
I0403 12:38:29.808907 30563 layer_factory.hpp:77] Creating layer norm1
I0403 12:38:29.808935 30563 net.cpp:91] Creating Layer norm1
I0403 12:38:29.808954 30563 net.cpp:425] norm1 <- conv1
I0403 12:38:29.808974 30563 net.cpp:399] norm1 -> norm1
I0403 12:38:29.809289 30563 net.cpp:141] Setting up norm1
I0403 12:38:29.809317 30563 net.cpp:148] Top shape: 100 96 55 55 (29040000)
I0403 12:38:29.809332 30563 net.cpp:156] Memory required for data: 410316400
I0403 12:38:29.809348 30563 layer_factory.hpp:77] Creating layer pool1
I0403 12:38:29.809371 30563 net.cpp:91] Creating Layer pool1
I0403 12:38:29.809389 30563 net.cpp:425] pool1 <- norm1
I0403 12:38:29.809407 30563 net.cpp:399] pool1 -> pool1
I0403 12:38:29.809474 30563 net.cpp:141] Setting up pool1
I0403 12:38:29.809499 30563 net.cpp:148] Top shape: 100 96 27 27 (6998400)
I0403 12:38:29.809514 30563 net.cpp:156] Memory required for data: 438310000
I0403 12:38:29.809528 30563 layer_factory.hpp:77] Creating layer conv2
I0403 12:38:29.809553 30563 net.cpp:91] Creating Layer conv2
I0403 12:38:29.809571 30563 net.cpp:425] conv2 <- pool1
I0403 12:38:29.809588 30563 net.cpp:399] conv2 -> conv2
I0403 12:38:29.824625 30563 net.cpp:141] Setting up conv2
I0403 12:38:29.824679 30563 net.cpp:148] Top shape: 100 256 27 27 (18662400)
I0403 12:38:29.824697 30563 net.cpp:156] Memory required for data: 512959600
I0403 12:38:29.824719 30563 layer_factory.hpp:77] Creating layer relu2
I0403 12:38:29.824743 30563 net.cpp:91] Creating Layer relu2
I0403 12:38:29.824761 30563 net.cpp:425] relu2 <- conv2
I0403 12:38:29.824779 30563 net.cpp:386] relu2 -> conv2 (in-place)
I0403 12:38:29.825062 30563 net.cpp:141] Setting up relu2
I0403 12:38:29.825091 30563 net.cpp:148] Top shape: 100 256 27 27 (18662400)
I0403 12:38:29.825108 30563 net.cpp:156] Memory required for data: 587609200
I0403 12:38:29.825124 30563 layer_factory.hpp:77] Creating layer norm2
I0403 12:38:29.825147 30563 net.cpp:91] Creating Layer norm2
I0403 12:38:29.825165 30563 net.cpp:425] norm2 <- conv2
I0403 12:38:29.825183 30563 net.cpp:399] norm2 -> norm2
I0403 12:38:29.825389 30563 net.cpp:141] Setting up norm2
I0403 12:38:29.825415 30563 net.cpp:148] Top shape: 100 256 27 27 (18662400)
I0403 12:38:29.825431 30563 net.cpp:156] Memory required for data: 662258800
I0403 12:38:29.825459 30563 layer_factory.hpp:77] Creating layer pool2
I0403 12:38:29.825480 30563 net.cpp:91] Creating Layer pool2
I0403 12:38:29.825497 30563 net.cpp:425] pool2 <- norm2
I0403 12:38:29.825515 30563 net.cpp:399] pool2 -> pool2
I0403 12:38:29.825570 30563 net.cpp:141] Setting up pool2
I0403 12:38:29.825594 30563 net.cpp:148] Top shape: 100 256 13 13 (4326400)
I0403 12:38:29.825610 30563 net.cpp:156] Memory required for data: 679564400
I0403 12:38:29.825625 30563 layer_factory.hpp:77] Creating layer conv3
I0403 12:38:29.825650 30563 net.cpp:91] Creating Layer conv3
I0403 12:38:29.825669 30563 net.cpp:425] conv3 <- pool2
I0403 12:38:29.825690 30563 net.cpp:399] conv3 -> conv3
I0403 12:38:29.864861 30563 net.cpp:141] Setting up conv3
I0403 12:38:29.864950 30563 net.cpp:148] Top shape: 100 384 13 13 (6489600)
I0403 12:38:29.864969 30563 net.cpp:156] Memory required for data: 705522800
I0403 12:38:29.864995 30563 layer_factory.hpp:77] Creating layer relu3
I0403 12:38:29.865020 30563 net.cpp:91] Creating Layer relu3
I0403 12:38:29.865036 30563 net.cpp:425] relu3 <- conv3
I0403 12:38:29.865067 30563 net.cpp:386] relu3 -> conv3 (in-place)
I0403 12:38:29.865357 30563 net.cpp:141] Setting up relu3
I0403 12:38:29.865391 30563 net.cpp:148] Top shape: 100 384 13 13 (6489600)
I0403 12:38:29.865411 30563 net.cpp:156] Memory required for data: 731481200
I0403 12:38:29.865427 30563 layer_factory.hpp:77] Creating layer conv4
I0403 12:38:29.865453 30563 net.cpp:91] Creating Layer conv4
I0403 12:38:29.865473 30563 net.cpp:425] conv4 <- conv3
I0403 12:38:29.865491 30563 net.cpp:399] conv4 -> conv4
I0403 12:38:29.895508 30563 net.cpp:141] Setting up conv4
I0403 12:38:29.895586 30563 net.cpp:148] Top shape: 100 384 13 13 (6489600)
I0403 12:38:29.895632 30563 net.cpp:156] Memory required for data: 757439600
I0403 12:38:29.895655 30563 layer_factory.hpp:77] Creating layer relu4
I0403 12:38:29.895683 30563 net.cpp:91] Creating Layer relu4
I0403 12:38:29.895701 30563 net.cpp:425] relu4 <- conv4
I0403 12:38:29.895720 30563 net.cpp:386] relu4 -> conv4 (in-place)
I0403 12:38:29.895998 30563 net.cpp:141] Setting up relu4
I0403 12:38:29.896025 30563 net.cpp:148] Top shape: 100 384 13 13 (6489600)
I0403 12:38:29.896041 30563 net.cpp:156] Memory required for data: 783398000
I0403 12:38:29.896056 30563 layer_factory.hpp:77] Creating layer conv5
I0403 12:38:29.896082 30563 net.cpp:91] Creating Layer conv5
I0403 12:38:29.896100 30563 net.cpp:425] conv5 <- conv4
I0403 12:38:29.896122 30563 net.cpp:399] conv5 -> conv5
I0403 12:38:29.916712 30563 net.cpp:141] Setting up conv5
I0403 12:38:29.916770 30563 net.cpp:148] Top shape: 100 256 13 13 (4326400)
I0403 12:38:29.916787 30563 net.cpp:156] Memory required for data: 800703600
I0403 12:38:29.916813 30563 layer_factory.hpp:77] Creating layer relu5
I0403 12:38:29.916837 30563 net.cpp:91] Creating Layer relu5
I0403 12:38:29.916856 30563 net.cpp:425] relu5 <- conv5
I0403 12:38:29.916874 30563 net.cpp:386] relu5 -> conv5 (in-place)
I0403 12:38:29.917151 30563 net.cpp:141] Setting up relu5
I0403 12:38:29.917181 30563 net.cpp:148] Top shape: 100 256 13 13 (4326400)
I0403 12:38:29.917198 30563 net.cpp:156] Memory required for data: 818009200
I0403 12:38:29.917217 30563 layer_factory.hpp:77] Creating layer pool5
I0403 12:38:29.917240 30563 net.cpp:91] Creating Layer pool5
I0403 12:38:29.917258 30563 net.cpp:425] pool5 <- conv5
I0403 12:38:29.917279 30563 net.cpp:399] pool5 -> pool5
I0403 12:38:29.917340 30563 net.cpp:141] Setting up pool5
I0403 12:38:29.917366 30563 net.cpp:148] Top shape: 100 256 6 6 (921600)
I0403 12:38:29.917382 30563 net.cpp:156] Memory required for data: 821695600
I0403 12:38:29.917397 30563 layer_factory.hpp:77] Creating layer fc6
I0403 12:38:29.917424 30563 net.cpp:91] Creating Layer fc6
I0403 12:38:29.917454 30563 net.cpp:425] fc6 <- pool5
I0403 12:38:29.917475 30563 net.cpp:399] fc6 -> fc6
I0403 12:38:31.479755 30563 net.cpp:141] Setting up fc6
I0403 12:38:31.479845 30563 net.cpp:148] Top shape: 100 4096 (409600)
I0403 12:38:31.479861 30563 net.cpp:156] Memory required for data: 823334000
I0403 12:38:31.479882 30563 layer_factory.hpp:77] Creating layer relu6
I0403 12:38:31.479907 30563 net.cpp:91] Creating Layer relu6
I0403 12:38:31.479925 30563 net.cpp:425] relu6 <- fc6
I0403 12:38:31.479945 30563 net.cpp:386] relu6 -> fc6 (in-place)
I0403 12:38:31.480165 30563 net.cpp:141] Setting up relu6
I0403 12:38:31.480192 30563 net.cpp:148] Top shape: 100 4096 (409600)
I0403 12:38:31.480213 30563 net.cpp:156] Memory required for data: 824972400
I0403 12:38:31.480229 30563 layer_factory.hpp:77] Creating layer drop6
I0403 12:38:31.480248 30563 net.cpp:91] Creating Layer drop6
I0403 12:38:31.480264 30563 net.cpp:425] drop6 <- fc6
I0403 12:38:31.480281 30563 net.cpp:386] drop6 -> fc6 (in-place)
I0403 12:38:31.480334 30563 net.cpp:141] Setting up drop6
I0403 12:38:31.480357 30563 net.cpp:148] Top shape: 100 4096 (409600)
I0403 12:38:31.480372 30563 net.cpp:156] Memory required for data: 826610800
I0403 12:38:31.480386 30563 layer_factory.hpp:77] Creating layer fc7
I0403 12:38:31.480412 30563 net.cpp:91] Creating Layer fc7
I0403 12:38:31.480429 30563 net.cpp:425] fc7 <- fc6
I0403 12:38:31.480448 30563 net.cpp:399] fc7 -> fc7
I0403 12:38:32.165256 30563 net.cpp:141] Setting up fc7
I0403 12:38:32.165352 30563 net.cpp:148] Top shape: 100 4096 (409600)
I0403 12:38:32.165371 30563 net.cpp:156] Memory required for data: 828249200
I0403 12:38:32.165395 30563 layer_factory.hpp:77] Creating layer relu7
I0403 12:38:32.165416 30563 net.cpp:91] Creating Layer relu7
I0403 12:38:32.165434 30563 net.cpp:425] relu7 <- fc7
I0403 12:38:32.165453 30563 net.cpp:386] relu7 -> fc7 (in-place)
I0403 12:38:32.165874 30563 net.cpp:141] Setting up relu7
I0403 12:38:32.165902 30563 net.cpp:148] Top shape: 100 4096 (409600)
I0403 12:38:32.165952 30563 net.cpp:156] Memory required for data: 829887600
I0403 12:38:32.165968 30563 layer_factory.hpp:77] Creating layer drop7
I0403 12:38:32.165987 30563 net.cpp:91] Creating Layer drop7
I0403 12:38:32.166002 30563 net.cpp:425] drop7 <- fc7
I0403 12:38:32.166019 30563 net.cpp:386] drop7 -> fc7 (in-place)
I0403 12:38:32.166064 30563 net.cpp:141] Setting up drop7
I0403 12:38:32.166087 30563 net.cpp:148] Top shape: 100 4096 (409600)
I0403 12:38:32.166101 30563 net.cpp:156] Memory required for data: 831526000
I0403 12:38:32.166115 30563 layer_factory.hpp:77] Creating layer fc8_plantvillage
I0403 12:38:32.166139 30563 net.cpp:91] Creating Layer fc8_plantvillage
I0403 12:38:32.166157 30563 net.cpp:425] fc8_plantvillage <- fc7
I0403 12:38:32.166174 30563 net.cpp:399] fc8_plantvillage -> fc8_plantvillage
I0403 12:38:32.173152 30563 net.cpp:141] Setting up fc8_plantvillage
I0403 12:38:32.173180 30563 net.cpp:148] Top shape: 100 38 (3800)
I0403 12:38:32.173197 30563 net.cpp:156] Memory required for data: 831541200
I0403 12:38:32.173221 30563 layer_factory.hpp:77] Creating layer fc8_plantvillage_fc8_plantvillage_0_split
I0403 12:38:32.173244 30563 net.cpp:91] Creating Layer fc8_plantvillage_fc8_plantvillage_0_split
I0403 12:38:32.173261 30563 net.cpp:425] fc8_plantvillage_fc8_plantvillage_0_split <- fc8_plantvillage
I0403 12:38:32.173282 30563 net.cpp:399] fc8_plantvillage_fc8_plantvillage_0_split -> fc8_plantvillage_fc8_plantvillage_0_split_0
I0403 12:38:32.173303 30563 net.cpp:399] fc8_plantvillage_fc8_plantvillage_0_split -> fc8_plantvillage_fc8_plantvillage_0_split_1
I0403 12:38:32.173324 30563 net.cpp:399] fc8_plantvillage_fc8_plantvillage_0_split -> fc8_plantvillage_fc8_plantvillage_0_split_2
I0403 12:38:32.173403 30563 net.cpp:141] Setting up fc8_plantvillage_fc8_plantvillage_0_split
I0403 12:38:32.173427 30563 net.cpp:148] Top shape: 100 38 (3800)
I0403 12:38:32.173444 30563 net.cpp:148] Top shape: 100 38 (3800)
I0403 12:38:32.173460 30563 net.cpp:148] Top shape: 100 38 (3800)
I0403 12:38:32.173475 30563 net.cpp:156] Memory required for data: 831586800
I0403 12:38:32.173490 30563 layer_factory.hpp:77] Creating layer prob
I0403 12:38:32.173511 30563 net.cpp:91] Creating Layer prob
I0403 12:38:32.173527 30563 net.cpp:425] prob <- fc8_plantvillage_fc8_plantvillage_0_split_0
I0403 12:38:32.173547 30563 net.cpp:399] prob -> prob
I0403 12:38:32.173774 30563 net.cpp:141] Setting up prob
I0403 12:38:32.173804 30563 net.cpp:148] Top shape: 100 38 (3800)
I0403 12:38:32.173825 30563 net.cpp:156] Memory required for data: 831602000
I0403 12:38:32.173843 30563 layer_factory.hpp:77] Creating layer hdf5out
I0403 12:38:32.173863 30563 net.cpp:91] Creating Layer hdf5out
I0403 12:38:32.173879 30563 net.cpp:425] hdf5out <- prob
I0403 12:38:32.173895 30563 net.cpp:425] hdf5out <- label_data_1_split_0
I0403 12:38:32.177014 30563 net.cpp:141] Setting up hdf5out
…
