…
I0403 12:54:00.690784 30972 net.cpp:313] The NetState phase (1) differed from the phase (0) specified by a rule in layer data
I0403 12:54:00.691113 30972 net.cpp:49] Initializing net from parameters: 
state {
  phase: TEST
}
layer {
  name: "data"
  type: "Data"
  top: "data"
  top: "label"
  include {
    phase: TEST
  }
  transform_param {
    crop_size: 227
    mean_file: "/home/mohanty/data/final_dataset/lmdb/grayscale-40-60/mean.binaryproto"
  }
  data_param {
    source: "/home/mohanty/data/final_dataset/lmdb/grayscale-40-60/test_db"
    batch_size: 100
    backend: LMDB
  }
}
layer {
  name: "conv1"
  type: "Convolution"
  bottom: "data"
  top: "conv1"
  param {
    lr_mult: 1
    decay_mult: 1
  }
  param {
    lr_mult: 2
    decay_mult: 0
  }
  convolution_param {
    num_output: 96
    kernel_size: 11
    stride: 4
    weight_filler {
      type: "gaussian"
      std: 0.01
    }
    bias_filler {
      type: "constant"
      value: 0
    }
  }
}
layer {
  name: "relu1"
  type: "ReLU"
  bottom: "conv1"
  top: "conv1"
}
layer {
  name: "norm1"
  type: "LRN"
  bottom: "conv1"
  top: "norm1"
  lrn_param {
    local_size: 5
    alpha: 0.0001
    beta: 0.75
  }
}
layer {
  name: "pool1"
  type: "Pooling"
  bottom: "norm1"
  top: "pool1"
  pooling_param {
    pool: MAX
    kernel_size: 3
    stride: 2
  }
}
layer {
  name: "conv2"
  type: "Convolution"
  bottom: "pool1"
  top: "conv2"
  param {
    lr_mult: 1
    decay_mult: 1
  }
  param {
    lr_mult: 2
    decay_mult: 0
  }
  convolution_param {
    num_output: 256
    pad: 2
    kernel_size: 5
    group: 2
    weight_filler {
      type: "gaussian"
      std: 0.01
    }
    bias_filler {
      type: "constant"
      value: 0.1
    }
  }
}
layer {
  name: "relu2"
  type: "ReLU"
  bottom: "conv2"
  top: "conv2"
}
layer {
  name: "norm2"
  type: "LRN"
  bottom: "conv2"
  top: "norm2"
  lrn_param {
    local_size: 5
    alpha: 0.0001
    beta: 0.75
  }
}
layer {
  name: "pool2"
  type: "Pooling"
  bottom: "norm2"
  top: "pool2"
  pooling_param {
    pool: MAX
    kernel_size: 3
    stride: 2
  }
}
layer {
  name: "conv3"
  type: "Convolution"
  bottom: "pool2"
  top: "conv3"
  param {
    lr_mult: 1
    decay_mult: 1
  }
  param {
    lr_mult: 2
    decay_mult: 0
  }
  convolution_param {
    num_output: 384
    pad: 1
    kernel_size: 3
    weight_filler {
      type: "gaussian"
      std: 0.01
    }
    bias_filler {
      type: "constant"
      value: 0
    }
  }
}
layer {
  name: "relu3"
  type: "ReLU"
  bottom: "conv3"
  top: "conv3"
}
layer {
  name: "conv4"
  type: "Convolution"
  bottom: "conv3"
  top: "conv4"
  param {
    lr_mult: 1
    decay_mult: 1
  }
  param {
    lr_mult: 2
    decay_mult: 0
  }
  convolution_param {
    num_output: 384
    pad: 1
    kernel_size: 3
    group: 2
    weight_filler {
      type: "gaussian"
      std: 0.01
    }
    bias_filler {
      type: "constant"
      value: 0.1
    }
  }
}
layer {
  name: "relu4"
  type: "ReLU"
  bottom: "conv4"
  top: "conv4"
}
layer {
  name: "conv5"
  type: "Convolution"
  bottom: "conv4"
  top: "conv5"
  param {
    lr_mult: 1
    decay_mult: 1
  }
  param {
    lr_mult: 2
    decay_mult: 0
  }
  convolution_param {
    num_output: 256
    pad: 1
    kernel_size: 3
    group: 2
    weight_filler {
      type: "gaussian"
      std: 0.01
    }
    bias_filler {
      type: "constant"
      value: 0.1
    }
  }
}
layer {
  name: "relu5"
  type: "ReLU"
  bottom: "conv5"
  top: "conv5"
}
layer {
  name: "pool5"
  type: "Pooling"
  bottom: "conv5"
  top: "pool5"
  pooling_param {
    pool: MAX
    kernel_size: 3
    stride: 2
  }
}
layer {
  name: "fc6"
  type: "InnerProduct"
  bottom: "pool5"
  top: "fc6"
  param {
    lr_mult: 1
    decay_mult: 1
  }
  param {
    lr_mult: 2
    decay_mult: 0
  }
  inner_product_param {
    num_output: 4096
    weight_filler {
      type: "gaussian"
      std: 0.005
    }
    bias_filler {
      type: "constant"
      value: 0.1
    }
  }
}
layer {
  name: "relu6"
  type: "ReLU"
  bottom: "fc6"
  top: "fc6"
}
layer {
  name: "drop6"
  type: "Dropout"
  bottom: "fc6"
  top: "fc6"
  dropout_param {
    dropout_ratio: 0.5
  }
}
layer {
  name: "fc7"
  type: "InnerProduct"
  bottom: "fc6"
  top: "fc7"
  param {
    lr_mult: 1
    decay_mult: 1
  }
  param {
    lr_mult: 2
    decay_mult: 0
  }
  inner_product_param {
    num_output: 4096
    weight_filler {
      type: "gaussian"
      std: 0.005
    }
    bias_filler {
      type: "constant"
      value: 0.1
    }
  }
}
layer {
  name: "relu7"
  type: "ReLU"
  bottom: "fc7"
  top: "fc7"
}
layer {
  name: "drop7"
  type: "Dropout"
  bottom: "fc7"
  top: "fc7"
  dropout_param {
    dropout_ratio: 0.5
  }
}
layer {
  name: "fc8_plantvillage"
  type: "InnerProduct"
  bottom: "fc7"
  top: "fc8_plantvillage"
  param {
    lr_mult: 1
    decay_mult: 1
  }
  param {
    lr_mult: 2
    decay_mult: 0
  }
  inner_product_param {
    num_output: 38
    weight_filler {
      type: "gaussian"
      std: 0.01
    }
    bias_filler {
      type: "constant"
      value: 0
    }
  }
}
layer {
  name: "prob"
  type: "Softmax"
  bottom: "fc8_plantvillage"
  top: "prob"
  include {
    phase: TEST
  }
}
layer {
  name: "hdf5out"
  type: "HDF5Output"
  bottom: "prob"
  bottom: "label"
  include {
    phase: TEST
  }
  hdf5_output_param {
    file_name: "hdf5_dumps/iter_4161.h5"
  }
}
layer {
  name: "loss"
  type: "SoftmaxWithLoss"
  bottom: "fc8_plantvillage"
  bottom: "label"
  top: "loss"
}
layer {
  name: "accuracy"
  type: "Accuracy"
  bottom: "fc8_plantvillage"
  bottom: "label"
  top: "accuracy"
  include {
    phase: TEST
  }
}
I0403 12:54:00.691751 30972 layer_factory.hpp:77] Creating layer data
I0403 12:54:00.692431 30972 net.cpp:91] Creating Layer data
I0403 12:54:00.692466 30972 net.cpp:399] data -> data
I0403 12:54:00.692517 30972 net.cpp:399] data -> label
I0403 12:54:00.692553 30972 data_transformer.cpp:25] Loading mean file from: /home/mohanty/data/final_dataset/lmdb/grayscale-40-60/mean.binaryproto
I0403 12:54:00.694766 30975 db_lmdb.cpp:38] Opened lmdb /home/mohanty/data/final_dataset/lmdb/grayscale-40-60/test_db
I0403 12:54:00.707154 30972 data_layer.cpp:41] output data size: 100,3,227,227
I0403 12:54:00.826501 30972 net.cpp:141] Setting up data
I0403 12:54:00.826577 30972 net.cpp:148] Top shape: 100 3 227 227 (15458700)
I0403 12:54:00.826601 30972 net.cpp:148] Top shape: 100 (100)
I0403 12:54:00.826617 30972 net.cpp:156] Memory required for data: 61835200
I0403 12:54:00.826645 30972 layer_factory.hpp:77] Creating layer label_data_1_split
I0403 12:54:00.826678 30972 net.cpp:91] Creating Layer label_data_1_split
I0403 12:54:00.826696 30972 net.cpp:425] label_data_1_split <- label
I0403 12:54:00.826728 30972 net.cpp:399] label_data_1_split -> label_data_1_split_0
I0403 12:54:00.826755 30972 net.cpp:399] label_data_1_split -> label_data_1_split_1
I0403 12:54:00.826776 30972 net.cpp:399] label_data_1_split -> label_data_1_split_2
I0403 12:54:00.826850 30972 net.cpp:141] Setting up label_data_1_split
I0403 12:54:00.826874 30972 net.cpp:148] Top shape: 100 (100)
I0403 12:54:00.826890 30972 net.cpp:148] Top shape: 100 (100)
I0403 12:54:00.826905 30972 net.cpp:148] Top shape: 100 (100)
I0403 12:54:00.826920 30972 net.cpp:156] Memory required for data: 61836400
I0403 12:54:00.826936 30972 layer_factory.hpp:77] Creating layer conv1
I0403 12:54:00.826967 30972 net.cpp:91] Creating Layer conv1
I0403 12:54:00.826993 30972 net.cpp:425] conv1 <- data
I0403 12:54:00.827011 30972 net.cpp:399] conv1 -> conv1
I0403 12:54:00.967584 30972 net.cpp:141] Setting up conv1
I0403 12:54:00.967670 30972 net.cpp:148] Top shape: 100 96 55 55 (29040000)
I0403 12:54:00.967689 30972 net.cpp:156] Memory required for data: 177996400
I0403 12:54:00.967720 30972 layer_factory.hpp:77] Creating layer relu1
I0403 12:54:00.967748 30972 net.cpp:91] Creating Layer relu1
I0403 12:54:00.967767 30972 net.cpp:425] relu1 <- conv1
I0403 12:54:00.967787 30972 net.cpp:386] relu1 -> conv1 (in-place)
I0403 12:54:00.968050 30972 net.cpp:141] Setting up relu1
I0403 12:54:00.968078 30972 net.cpp:148] Top shape: 100 96 55 55 (29040000)
I0403 12:54:00.968125 30972 net.cpp:156] Memory required for data: 294156400
I0403 12:54:00.968142 30972 layer_factory.hpp:77] Creating layer norm1
I0403 12:54:00.968170 30972 net.cpp:91] Creating Layer norm1
I0403 12:54:00.968194 30972 net.cpp:425] norm1 <- conv1
I0403 12:54:00.968212 30972 net.cpp:399] norm1 -> norm1
I0403 12:54:00.968540 30972 net.cpp:141] Setting up norm1
I0403 12:54:00.968569 30972 net.cpp:148] Top shape: 100 96 55 55 (29040000)
I0403 12:54:00.968586 30972 net.cpp:156] Memory required for data: 410316400
I0403 12:54:00.968602 30972 layer_factory.hpp:77] Creating layer pool1
I0403 12:54:00.968626 30972 net.cpp:91] Creating Layer pool1
I0403 12:54:00.968644 30972 net.cpp:425] pool1 <- norm1
I0403 12:54:00.968674 30972 net.cpp:399] pool1 -> pool1
I0403 12:54:00.968742 30972 net.cpp:141] Setting up pool1
I0403 12:54:00.968766 30972 net.cpp:148] Top shape: 100 96 27 27 (6998400)
I0403 12:54:00.968781 30972 net.cpp:156] Memory required for data: 438310000
I0403 12:54:00.968796 30972 layer_factory.hpp:77] Creating layer conv2
I0403 12:54:00.968821 30972 net.cpp:91] Creating Layer conv2
I0403 12:54:00.968837 30972 net.cpp:425] conv2 <- pool1
I0403 12:54:00.968854 30972 net.cpp:399] conv2 -> conv2
I0403 12:54:00.984041 30972 net.cpp:141] Setting up conv2
I0403 12:54:00.984078 30972 net.cpp:148] Top shape: 100 256 27 27 (18662400)
I0403 12:54:00.984096 30972 net.cpp:156] Memory required for data: 512959600
I0403 12:54:00.984118 30972 layer_factory.hpp:77] Creating layer relu2
I0403 12:54:00.984139 30972 net.cpp:91] Creating Layer relu2
I0403 12:54:00.984155 30972 net.cpp:425] relu2 <- conv2
I0403 12:54:00.984174 30972 net.cpp:386] relu2 -> conv2 (in-place)
I0403 12:54:00.984458 30972 net.cpp:141] Setting up relu2
I0403 12:54:00.984485 30972 net.cpp:148] Top shape: 100 256 27 27 (18662400)
I0403 12:54:00.984501 30972 net.cpp:156] Memory required for data: 587609200
I0403 12:54:00.984518 30972 layer_factory.hpp:77] Creating layer norm2
I0403 12:54:00.984539 30972 net.cpp:91] Creating Layer norm2
I0403 12:54:00.984556 30972 net.cpp:425] norm2 <- conv2
I0403 12:54:00.984575 30972 net.cpp:399] norm2 -> norm2
I0403 12:54:00.984772 30972 net.cpp:141] Setting up norm2
I0403 12:54:00.984805 30972 net.cpp:148] Top shape: 100 256 27 27 (18662400)
I0403 12:54:00.984822 30972 net.cpp:156] Memory required for data: 662258800
I0403 12:54:00.984840 30972 layer_factory.hpp:77] Creating layer pool2
I0403 12:54:00.984860 30972 net.cpp:91] Creating Layer pool2
I0403 12:54:00.984877 30972 net.cpp:425] pool2 <- norm2
I0403 12:54:00.984897 30972 net.cpp:399] pool2 -> pool2
I0403 12:54:00.984952 30972 net.cpp:141] Setting up pool2
I0403 12:54:00.984978 30972 net.cpp:148] Top shape: 100 256 13 13 (4326400)
I0403 12:54:00.984993 30972 net.cpp:156] Memory required for data: 679564400
I0403 12:54:00.985008 30972 layer_factory.hpp:77] Creating layer conv3
I0403 12:54:00.985030 30972 net.cpp:91] Creating Layer conv3
I0403 12:54:00.985046 30972 net.cpp:425] conv3 <- pool2
I0403 12:54:00.985066 30972 net.cpp:399] conv3 -> conv3
I0403 12:54:01.027173 30972 net.cpp:141] Setting up conv3
I0403 12:54:01.027261 30972 net.cpp:148] Top shape: 100 384 13 13 (6489600)
I0403 12:54:01.027278 30972 net.cpp:156] Memory required for data: 705522800
I0403 12:54:01.027303 30972 layer_factory.hpp:77] Creating layer relu3
I0403 12:54:01.027328 30972 net.cpp:91] Creating Layer relu3
I0403 12:54:01.027344 30972 net.cpp:425] relu3 <- conv3
I0403 12:54:01.027365 30972 net.cpp:386] relu3 -> conv3 (in-place)
I0403 12:54:01.027639 30972 net.cpp:141] Setting up relu3
I0403 12:54:01.027667 30972 net.cpp:148] Top shape: 100 384 13 13 (6489600)
I0403 12:54:01.027683 30972 net.cpp:156] Memory required for data: 731481200
I0403 12:54:01.027696 30972 layer_factory.hpp:77] Creating layer conv4
I0403 12:54:01.027722 30972 net.cpp:91] Creating Layer conv4
I0403 12:54:01.027739 30972 net.cpp:425] conv4 <- conv3
I0403 12:54:01.027760 30972 net.cpp:399] conv4 -> conv4
I0403 12:54:01.057466 30972 net.cpp:141] Setting up conv4
I0403 12:54:01.057546 30972 net.cpp:148] Top shape: 100 384 13 13 (6489600)
I0403 12:54:01.057595 30972 net.cpp:156] Memory required for data: 757439600
I0403 12:54:01.057617 30972 layer_factory.hpp:77] Creating layer relu4
I0403 12:54:01.057641 30972 net.cpp:91] Creating Layer relu4
I0403 12:54:01.057657 30972 net.cpp:425] relu4 <- conv4
I0403 12:54:01.057677 30972 net.cpp:386] relu4 -> conv4 (in-place)
I0403 12:54:01.057961 30972 net.cpp:141] Setting up relu4
I0403 12:54:01.057994 30972 net.cpp:148] Top shape: 100 384 13 13 (6489600)
I0403 12:54:01.058012 30972 net.cpp:156] Memory required for data: 783398000
I0403 12:54:01.058027 30972 layer_factory.hpp:77] Creating layer conv5
I0403 12:54:01.058053 30972 net.cpp:91] Creating Layer conv5
I0403 12:54:01.058070 30972 net.cpp:425] conv5 <- conv4
I0403 12:54:01.058089 30972 net.cpp:399] conv5 -> conv5
I0403 12:54:01.078655 30972 net.cpp:141] Setting up conv5
I0403 12:54:01.078722 30972 net.cpp:148] Top shape: 100 256 13 13 (4326400)
I0403 12:54:01.078740 30972 net.cpp:156] Memory required for data: 800703600
I0403 12:54:01.078765 30972 layer_factory.hpp:77] Creating layer relu5
I0403 12:54:01.078786 30972 net.cpp:91] Creating Layer relu5
I0403 12:54:01.078804 30972 net.cpp:425] relu5 <- conv5
I0403 12:54:01.078825 30972 net.cpp:386] relu5 -> conv5 (in-place)
I0403 12:54:01.079113 30972 net.cpp:141] Setting up relu5
I0403 12:54:01.079140 30972 net.cpp:148] Top shape: 100 256 13 13 (4326400)
I0403 12:54:01.079156 30972 net.cpp:156] Memory required for data: 818009200
I0403 12:54:01.079172 30972 layer_factory.hpp:77] Creating layer pool5
I0403 12:54:01.079203 30972 net.cpp:91] Creating Layer pool5
I0403 12:54:01.079221 30972 net.cpp:425] pool5 <- conv5
I0403 12:54:01.079241 30972 net.cpp:399] pool5 -> pool5
I0403 12:54:01.079303 30972 net.cpp:141] Setting up pool5
I0403 12:54:01.079327 30972 net.cpp:148] Top shape: 100 256 6 6 (921600)
I0403 12:54:01.079342 30972 net.cpp:156] Memory required for data: 821695600
I0403 12:54:01.079356 30972 layer_factory.hpp:77] Creating layer fc6
I0403 12:54:01.079385 30972 net.cpp:91] Creating Layer fc6
I0403 12:54:01.079401 30972 net.cpp:425] fc6 <- pool5
I0403 12:54:01.079426 30972 net.cpp:399] fc6 -> fc6
I0403 12:54:02.636343 30972 net.cpp:141] Setting up fc6
I0403 12:54:02.636430 30972 net.cpp:148] Top shape: 100 4096 (409600)
I0403 12:54:02.636448 30972 net.cpp:156] Memory required for data: 823334000
I0403 12:54:02.636471 30972 layer_factory.hpp:77] Creating layer relu6
I0403 12:54:02.636494 30972 net.cpp:91] Creating Layer relu6
I0403 12:54:02.636513 30972 net.cpp:425] relu6 <- fc6
I0403 12:54:02.636544 30972 net.cpp:386] relu6 -> fc6 (in-place)
I0403 12:54:02.636761 30972 net.cpp:141] Setting up relu6
I0403 12:54:02.636788 30972 net.cpp:148] Top shape: 100 4096 (409600)
I0403 12:54:02.636804 30972 net.cpp:156] Memory required for data: 824972400
I0403 12:54:02.636819 30972 layer_factory.hpp:77] Creating layer drop6
I0403 12:54:02.636838 30972 net.cpp:91] Creating Layer drop6
I0403 12:54:02.636853 30972 net.cpp:425] drop6 <- fc6
I0403 12:54:02.636873 30972 net.cpp:386] drop6 -> fc6 (in-place)
I0403 12:54:02.636924 30972 net.cpp:141] Setting up drop6
I0403 12:54:02.636945 30972 net.cpp:148] Top shape: 100 4096 (409600)
I0403 12:54:02.636960 30972 net.cpp:156] Memory required for data: 826610800
I0403 12:54:02.636973 30972 layer_factory.hpp:77] Creating layer fc7
I0403 12:54:02.636996 30972 net.cpp:91] Creating Layer fc7
I0403 12:54:02.637012 30972 net.cpp:425] fc7 <- fc6
I0403 12:54:02.637032 30972 net.cpp:399] fc7 -> fc7
I0403 12:54:03.325558 30972 net.cpp:141] Setting up fc7
I0403 12:54:03.325650 30972 net.cpp:148] Top shape: 100 4096 (409600)
I0403 12:54:03.325667 30972 net.cpp:156] Memory required for data: 828249200
I0403 12:54:03.325687 30972 layer_factory.hpp:77] Creating layer relu7
I0403 12:54:03.325711 30972 net.cpp:91] Creating Layer relu7
I0403 12:54:03.325728 30972 net.cpp:425] relu7 <- fc7
I0403 12:54:03.325752 30972 net.cpp:386] relu7 -> fc7 (in-place)
I0403 12:54:03.326200 30972 net.cpp:141] Setting up relu7
I0403 12:54:03.326228 30972 net.cpp:148] Top shape: 100 4096 (409600)
I0403 12:54:03.326277 30972 net.cpp:156] Memory required for data: 829887600
I0403 12:54:03.326293 30972 layer_factory.hpp:77] Creating layer drop7
I0403 12:54:03.326324 30972 net.cpp:91] Creating Layer drop7
I0403 12:54:03.326340 30972 net.cpp:425] drop7 <- fc7
I0403 12:54:03.326359 30972 net.cpp:386] drop7 -> fc7 (in-place)
I0403 12:54:03.326402 30972 net.cpp:141] Setting up drop7
I0403 12:54:03.326424 30972 net.cpp:148] Top shape: 100 4096 (409600)
I0403 12:54:03.326442 30972 net.cpp:156] Memory required for data: 831526000
I0403 12:54:03.326457 30972 layer_factory.hpp:77] Creating layer fc8_plantvillage
I0403 12:54:03.326478 30972 net.cpp:91] Creating Layer fc8_plantvillage
I0403 12:54:03.326493 30972 net.cpp:425] fc8_plantvillage <- fc7
I0403 12:54:03.326513 30972 net.cpp:399] fc8_plantvillage -> fc8_plantvillage
I0403 12:54:03.333317 30972 net.cpp:141] Setting up fc8_plantvillage
I0403 12:54:03.333346 30972 net.cpp:148] Top shape: 100 38 (3800)
I0403 12:54:03.333364 30972 net.cpp:156] Memory required for data: 831541200
I0403 12:54:03.333382 30972 layer_factory.hpp:77] Creating layer fc8_plantvillage_fc8_plantvillage_0_split
I0403 12:54:03.333402 30972 net.cpp:91] Creating Layer fc8_plantvillage_fc8_plantvillage_0_split
I0403 12:54:03.333420 30972 net.cpp:425] fc8_plantvillage_fc8_plantvillage_0_split <- fc8_plantvillage
I0403 12:54:03.333441 30972 net.cpp:399] fc8_plantvillage_fc8_plantvillage_0_split -> fc8_plantvillage_fc8_plantvillage_0_split_0
I0403 12:54:03.333461 30972 net.cpp:399] fc8_plantvillage_fc8_plantvillage_0_split -> fc8_plantvillage_fc8_plantvillage_0_split_1
I0403 12:54:03.333482 30972 net.cpp:399] fc8_plantvillage_fc8_plantvillage_0_split -> fc8_plantvillage_fc8_plantvillage_0_split_2
I0403 12:54:03.333564 30972 net.cpp:141] Setting up fc8_plantvillage_fc8_plantvillage_0_split
I0403 12:54:03.333588 30972 net.cpp:148] Top shape: 100 38 (3800)
I0403 12:54:03.333606 30972 net.cpp:148] Top shape: 100 38 (3800)
I0403 12:54:03.333622 30972 net.cpp:148] Top shape: 100 38 (3800)
I0403 12:54:03.333636 30972 net.cpp:156] Memory required for data: 831586800
I0403 12:54:03.333650 30972 layer_factory.hpp:77] Creating layer prob
I0403 12:54:03.333668 30972 net.cpp:91] Creating Layer prob
I0403 12:54:03.333683 30972 net.cpp:425] prob <- fc8_plantvillage_fc8_plantvillage_0_split_0
I0403 12:54:03.333701 30972 net.cpp:399] prob -> prob
I0403 12:54:03.333925 30972 net.cpp:141] Setting up prob
I0403 12:54:03.333951 30972 net.cpp:148] Top shape: 100 38 (3800)
I0403 12:54:03.333966 30972 net.cpp:156] Memory required for data: 831602000
I0403 12:54:03.333981 30972 layer_factory.hpp:77] Creating layer hdf5out
I0403 12:54:03.334000 30972 net.cpp:91] Creating Layer hdf5out
I0403 12:54:03.334017 30972 net.cpp:425] hdf5out <- prob
I0403 12:54:03.334033 30972 net.cpp:425] hdf5out <- label_data_1_split_0
I0403 12:54:03.336596 30972 net.cpp:141] Setting up hdf5out
…
