…
I0403 12:35:11.356539 30460 net.cpp:313] The NetState phase (1) differed from the phase (0) specified by a rule in layer data
I0403 12:35:11.356848 30460 net.cpp:49] Initializing net from parameters: 
state {
  phase: TEST
}
layer {
  name: "data"
  type: "Data"
  top: "data"
  top: "label"
  include {
    phase: TEST
  }
  transform_param {
    crop_size: 227
    mean_file: "/home/mohanty/data/final_dataset/lmdb/grayscale-40-60/mean.binaryproto"
  }
  data_param {
    source: "/home/mohanty/data/final_dataset/lmdb/grayscale-40-60/test_db"
    batch_size: 100
    backend: LMDB
  }
}
layer {
  name: "conv1"
  type: "Convolution"
  bottom: "data"
  top: "conv1"
  param {
    lr_mult: 1
    decay_mult: 1
  }
  param {
    lr_mult: 2
    decay_mult: 0
  }
  convolution_param {
    num_output: 96
    kernel_size: 11
    stride: 4
    weight_filler {
      type: "gaussian"
      std: 0.01
    }
    bias_filler {
      type: "constant"
      value: 0
    }
  }
}
layer {
  name: "relu1"
  type: "ReLU"
  bottom: "conv1"
  top: "conv1"
}
layer {
  name: "norm1"
  type: "LRN"
  bottom: "conv1"
  top: "norm1"
  lrn_param {
    local_size: 5
    alpha: 0.0001
    beta: 0.75
  }
}
layer {
  name: "pool1"
  type: "Pooling"
  bottom: "norm1"
  top: "pool1"
  pooling_param {
    pool: MAX
    kernel_size: 3
    stride: 2
  }
}
layer {
  name: "conv2"
  type: "Convolution"
  bottom: "pool1"
  top: "conv2"
  param {
    lr_mult: 1
    decay_mult: 1
  }
  param {
    lr_mult: 2
    decay_mult: 0
  }
  convolution_param {
    num_output: 256
    pad: 2
    kernel_size: 5
    group: 2
    weight_filler {
      type: "gaussian"
      std: 0.01
    }
    bias_filler {
      type: "constant"
      value: 0.1
    }
  }
}
layer {
  name: "relu2"
  type: "ReLU"
  bottom: "conv2"
  top: "conv2"
}
layer {
  name: "norm2"
  type: "LRN"
  bottom: "conv2"
  top: "norm2"
  lrn_param {
    local_size: 5
    alpha: 0.0001
    beta: 0.75
  }
}
layer {
  name: "pool2"
  type: "Pooling"
  bottom: "norm2"
  top: "pool2"
  pooling_param {
    pool: MAX
    kernel_size: 3
    stride: 2
  }
}
layer {
  name: "conv3"
  type: "Convolution"
  bottom: "pool2"
  top: "conv3"
  param {
    lr_mult: 1
    decay_mult: 1
  }
  param {
    lr_mult: 2
    decay_mult: 0
  }
  convolution_param {
    num_output: 384
    pad: 1
    kernel_size: 3
    weight_filler {
      type: "gaussian"
      std: 0.01
    }
    bias_filler {
      type: "constant"
      value: 0
    }
  }
}
layer {
  name: "relu3"
  type: "ReLU"
  bottom: "conv3"
  top: "conv3"
}
layer {
  name: "conv4"
  type: "Convolution"
  bottom: "conv3"
  top: "conv4"
  param {
    lr_mult: 1
    decay_mult: 1
  }
  param {
    lr_mult: 2
    decay_mult: 0
  }
  convolution_param {
    num_output: 384
    pad: 1
    kernel_size: 3
    group: 2
    weight_filler {
      type: "gaussian"
      std: 0.01
    }
    bias_filler {
      type: "constant"
      value: 0.1
    }
  }
}
layer {
  name: "relu4"
  type: "ReLU"
  bottom: "conv4"
  top: "conv4"
}
layer {
  name: "conv5"
  type: "Convolution"
  bottom: "conv4"
  top: "conv5"
  param {
    lr_mult: 1
    decay_mult: 1
  }
  param {
    lr_mult: 2
    decay_mult: 0
  }
  convolution_param {
    num_output: 256
    pad: 1
    kernel_size: 3
    group: 2
    weight_filler {
      type: "gaussian"
      std: 0.01
    }
    bias_filler {
      type: "constant"
      value: 0.1
    }
  }
}
layer {
  name: "relu5"
  type: "ReLU"
  bottom: "conv5"
  top: "conv5"
}
layer {
  name: "pool5"
  type: "Pooling"
  bottom: "conv5"
  top: "pool5"
  pooling_param {
    pool: MAX
    kernel_size: 3
    stride: 2
  }
}
layer {
  name: "fc6"
  type: "InnerProduct"
  bottom: "pool5"
  top: "fc6"
  param {
    lr_mult: 1
    decay_mult: 1
  }
  param {
    lr_mult: 2
    decay_mult: 0
  }
  inner_product_param {
    num_output: 4096
    weight_filler {
      type: "gaussian"
      std: 0.005
    }
    bias_filler {
      type: "constant"
      value: 0.1
    }
  }
}
layer {
  name: "relu6"
  type: "ReLU"
  bottom: "fc6"
  top: "fc6"
}
layer {
  name: "drop6"
  type: "Dropout"
  bottom: "fc6"
  top: "fc6"
  dropout_param {
    dropout_ratio: 0.5
  }
}
layer {
  name: "fc7"
  type: "InnerProduct"
  bottom: "fc6"
  top: "fc7"
  param {
    lr_mult: 1
    decay_mult: 1
  }
  param {
    lr_mult: 2
    decay_mult: 0
  }
  inner_product_param {
    num_output: 4096
    weight_filler {
      type: "gaussian"
      std: 0.005
    }
    bias_filler {
      type: "constant"
      value: 0.1
    }
  }
}
layer {
  name: "relu7"
  type: "ReLU"
  bottom: "fc7"
  top: "fc7"
}
layer {
  name: "drop7"
  type: "Dropout"
  bottom: "fc7"
  top: "fc7"
  dropout_param {
    dropout_ratio: 0.5
  }
}
layer {
  name: "fc8_plantvillage"
  type: "InnerProduct"
  bottom: "fc7"
  top: "fc8_plantvillage"
  param {
    lr_mult: 1
    decay_mult: 1
  }
  param {
    lr_mult: 2
    decay_mult: 0
  }
  inner_product_param {
    num_output: 38
    weight_filler {
      type: "gaussian"
      std: 0.01
    }
    bias_filler {
      type: "constant"
      value: 0
    }
  }
}
layer {
  name: "prob"
  type: "Softmax"
  bottom: "fc8_plantvillage"
  top: "prob"
  include {
    phase: TEST
  }
}
layer {
  name: "hdf5out"
  type: "HDF5Output"
  bottom: "prob"
  bottom: "label"
  include {
    phase: TEST
  }
  hdf5_output_param {
    file_name: "hdf5_dumps/iter_438.h5"
  }
}
layer {
  name: "loss"
  type: "SoftmaxWithLoss"
  bottom: "fc8_plantvillage"
  bottom: "label"
  top: "loss"
}
layer {
  name: "accuracy"
  type: "Accuracy"
  bottom: "fc8_plantvillage"
  bottom: "label"
  top: "accuracy"
  include {
    phase: TEST
  }
}
I0403 12:35:11.357391 30460 layer_factory.hpp:77] Creating layer data
I0403 12:35:11.358050 30460 net.cpp:91] Creating Layer data
I0403 12:35:11.358083 30460 net.cpp:399] data -> data
I0403 12:35:11.358136 30460 net.cpp:399] data -> label
I0403 12:35:11.358172 30460 data_transformer.cpp:25] Loading mean file from: /home/mohanty/data/final_dataset/lmdb/grayscale-40-60/mean.binaryproto
I0403 12:35:11.364243 30463 db_lmdb.cpp:38] Opened lmdb /home/mohanty/data/final_dataset/lmdb/grayscale-40-60/test_db
I0403 12:35:11.377015 30460 data_layer.cpp:41] output data size: 100,3,227,227
I0403 12:35:11.500161 30460 net.cpp:141] Setting up data
I0403 12:35:11.500270 30460 net.cpp:148] Top shape: 100 3 227 227 (15458700)
I0403 12:35:11.500294 30460 net.cpp:148] Top shape: 100 (100)
I0403 12:35:11.500310 30460 net.cpp:156] Memory required for data: 61835200
I0403 12:35:11.500337 30460 layer_factory.hpp:77] Creating layer label_data_1_split
I0403 12:35:11.500365 30460 net.cpp:91] Creating Layer label_data_1_split
I0403 12:35:11.500382 30460 net.cpp:425] label_data_1_split <- label
I0403 12:35:11.500414 30460 net.cpp:399] label_data_1_split -> label_data_1_split_0
I0403 12:35:11.500443 30460 net.cpp:399] label_data_1_split -> label_data_1_split_1
I0403 12:35:11.500464 30460 net.cpp:399] label_data_1_split -> label_data_1_split_2
I0403 12:35:11.500529 30460 net.cpp:141] Setting up label_data_1_split
I0403 12:35:11.500551 30460 net.cpp:148] Top shape: 100 (100)
I0403 12:35:11.500568 30460 net.cpp:148] Top shape: 100 (100)
I0403 12:35:11.500584 30460 net.cpp:148] Top shape: 100 (100)
I0403 12:35:11.500599 30460 net.cpp:156] Memory required for data: 61836400
I0403 12:35:11.500614 30460 layer_factory.hpp:77] Creating layer conv1
I0403 12:35:11.500646 30460 net.cpp:91] Creating Layer conv1
I0403 12:35:11.500664 30460 net.cpp:425] conv1 <- data
I0403 12:35:11.500684 30460 net.cpp:399] conv1 -> conv1
I0403 12:35:11.645347 30460 net.cpp:141] Setting up conv1
I0403 12:35:11.645437 30460 net.cpp:148] Top shape: 100 96 55 55 (29040000)
I0403 12:35:11.645455 30460 net.cpp:156] Memory required for data: 177996400
I0403 12:35:11.645495 30460 layer_factory.hpp:77] Creating layer relu1
I0403 12:35:11.645524 30460 net.cpp:91] Creating Layer relu1
I0403 12:35:11.645542 30460 net.cpp:425] relu1 <- conv1
I0403 12:35:11.645562 30460 net.cpp:386] relu1 -> conv1 (in-place)
I0403 12:35:11.645829 30460 net.cpp:141] Setting up relu1
I0403 12:35:11.645856 30460 net.cpp:148] Top shape: 100 96 55 55 (29040000)
I0403 12:35:11.645905 30460 net.cpp:156] Memory required for data: 294156400
I0403 12:35:11.645922 30460 layer_factory.hpp:77] Creating layer norm1
I0403 12:35:11.645951 30460 net.cpp:91] Creating Layer norm1
I0403 12:35:11.645969 30460 net.cpp:425] norm1 <- conv1
I0403 12:35:11.645988 30460 net.cpp:399] norm1 -> norm1
I0403 12:35:11.646306 30460 net.cpp:141] Setting up norm1
I0403 12:35:11.646334 30460 net.cpp:148] Top shape: 100 96 55 55 (29040000)
I0403 12:35:11.646350 30460 net.cpp:156] Memory required for data: 410316400
I0403 12:35:11.646366 30460 layer_factory.hpp:77] Creating layer pool1
I0403 12:35:11.646390 30460 net.cpp:91] Creating Layer pool1
I0403 12:35:11.646407 30460 net.cpp:425] pool1 <- norm1
I0403 12:35:11.646426 30460 net.cpp:399] pool1 -> pool1
I0403 12:35:11.646497 30460 net.cpp:141] Setting up pool1
I0403 12:35:11.646522 30460 net.cpp:148] Top shape: 100 96 27 27 (6998400)
I0403 12:35:11.646538 30460 net.cpp:156] Memory required for data: 438310000
I0403 12:35:11.646551 30460 layer_factory.hpp:77] Creating layer conv2
I0403 12:35:11.646576 30460 net.cpp:91] Creating Layer conv2
I0403 12:35:11.646594 30460 net.cpp:425] conv2 <- pool1
I0403 12:35:11.646612 30460 net.cpp:399] conv2 -> conv2
I0403 12:35:11.662364 30460 net.cpp:141] Setting up conv2
I0403 12:35:11.662420 30460 net.cpp:148] Top shape: 100 256 27 27 (18662400)
I0403 12:35:11.662438 30460 net.cpp:156] Memory required for data: 512959600
I0403 12:35:11.662461 30460 layer_factory.hpp:77] Creating layer relu2
I0403 12:35:11.662484 30460 net.cpp:91] Creating Layer relu2
I0403 12:35:11.662503 30460 net.cpp:425] relu2 <- conv2
I0403 12:35:11.662519 30460 net.cpp:386] relu2 -> conv2 (in-place)
I0403 12:35:11.662811 30460 net.cpp:141] Setting up relu2
I0403 12:35:11.662837 30460 net.cpp:148] Top shape: 100 256 27 27 (18662400)
I0403 12:35:11.662853 30460 net.cpp:156] Memory required for data: 587609200
I0403 12:35:11.662868 30460 layer_factory.hpp:77] Creating layer norm2
I0403 12:35:11.662892 30460 net.cpp:91] Creating Layer norm2
I0403 12:35:11.662909 30460 net.cpp:425] norm2 <- conv2
I0403 12:35:11.662930 30460 net.cpp:399] norm2 -> norm2
I0403 12:35:11.663136 30460 net.cpp:141] Setting up norm2
I0403 12:35:11.663162 30460 net.cpp:148] Top shape: 100 256 27 27 (18662400)
I0403 12:35:11.663177 30460 net.cpp:156] Memory required for data: 662258800
I0403 12:35:11.663193 30460 layer_factory.hpp:77] Creating layer pool2
I0403 12:35:11.663215 30460 net.cpp:91] Creating Layer pool2
I0403 12:35:11.663233 30460 net.cpp:425] pool2 <- norm2
I0403 12:35:11.663254 30460 net.cpp:399] pool2 -> pool2
I0403 12:35:11.663311 30460 net.cpp:141] Setting up pool2
I0403 12:35:11.663336 30460 net.cpp:148] Top shape: 100 256 13 13 (4326400)
I0403 12:35:11.663350 30460 net.cpp:156] Memory required for data: 679564400
I0403 12:35:11.663365 30460 layer_factory.hpp:77] Creating layer conv3
I0403 12:35:11.663388 30460 net.cpp:91] Creating Layer conv3
I0403 12:35:11.663405 30460 net.cpp:425] conv3 <- pool2
I0403 12:35:11.663426 30460 net.cpp:399] conv3 -> conv3
I0403 12:35:11.705907 30460 net.cpp:141] Setting up conv3
I0403 12:35:11.705950 30460 net.cpp:148] Top shape: 100 384 13 13 (6489600)
I0403 12:35:11.705966 30460 net.cpp:156] Memory required for data: 705522800
I0403 12:35:11.705992 30460 layer_factory.hpp:77] Creating layer relu3
I0403 12:35:11.706017 30460 net.cpp:91] Creating Layer relu3
I0403 12:35:11.706035 30460 net.cpp:425] relu3 <- conv3
I0403 12:35:11.706054 30460 net.cpp:386] relu3 -> conv3 (in-place)
I0403 12:35:11.706351 30460 net.cpp:141] Setting up relu3
I0403 12:35:11.706378 30460 net.cpp:148] Top shape: 100 384 13 13 (6489600)
I0403 12:35:11.706394 30460 net.cpp:156] Memory required for data: 731481200
I0403 12:35:11.706410 30460 layer_factory.hpp:77] Creating layer conv4
I0403 12:35:11.706437 30460 net.cpp:91] Creating Layer conv4
I0403 12:35:11.706455 30460 net.cpp:425] conv4 <- conv3
I0403 12:35:11.706477 30460 net.cpp:399] conv4 -> conv4
I0403 12:35:11.737928 30460 net.cpp:141] Setting up conv4
I0403 12:35:11.738011 30460 net.cpp:148] Top shape: 100 384 13 13 (6489600)
I0403 12:35:11.738059 30460 net.cpp:156] Memory required for data: 757439600
I0403 12:35:11.738083 30460 layer_factory.hpp:77] Creating layer relu4
I0403 12:35:11.738106 30460 net.cpp:91] Creating Layer relu4
I0403 12:35:11.738127 30460 net.cpp:425] relu4 <- conv4
I0403 12:35:11.738148 30460 net.cpp:386] relu4 -> conv4 (in-place)
I0403 12:35:11.738442 30460 net.cpp:141] Setting up relu4
I0403 12:35:11.738469 30460 net.cpp:148] Top shape: 100 384 13 13 (6489600)
I0403 12:35:11.738486 30460 net.cpp:156] Memory required for data: 783398000
I0403 12:35:11.738502 30460 layer_factory.hpp:77] Creating layer conv5
I0403 12:35:11.738529 30460 net.cpp:91] Creating Layer conv5
I0403 12:35:11.738546 30460 net.cpp:425] conv5 <- conv4
I0403 12:35:11.738569 30460 net.cpp:399] conv5 -> conv5
I0403 12:35:11.760048 30460 net.cpp:141] Setting up conv5
I0403 12:35:11.760107 30460 net.cpp:148] Top shape: 100 256 13 13 (4326400)
I0403 12:35:11.760123 30460 net.cpp:156] Memory required for data: 800703600
I0403 12:35:11.760149 30460 layer_factory.hpp:77] Creating layer relu5
I0403 12:35:11.760174 30460 net.cpp:91] Creating Layer relu5
I0403 12:35:11.760192 30460 net.cpp:425] relu5 <- conv5
I0403 12:35:11.760215 30460 net.cpp:386] relu5 -> conv5 (in-place)
I0403 12:35:11.760524 30460 net.cpp:141] Setting up relu5
I0403 12:35:11.760551 30460 net.cpp:148] Top shape: 100 256 13 13 (4326400)
I0403 12:35:11.760567 30460 net.cpp:156] Memory required for data: 818009200
I0403 12:35:11.760583 30460 layer_factory.hpp:77] Creating layer pool5
I0403 12:35:11.760607 30460 net.cpp:91] Creating Layer pool5
I0403 12:35:11.760625 30460 net.cpp:425] pool5 <- conv5
I0403 12:35:11.760644 30460 net.cpp:399] pool5 -> pool5
I0403 12:35:11.760709 30460 net.cpp:141] Setting up pool5
I0403 12:35:11.760733 30460 net.cpp:148] Top shape: 100 256 6 6 (921600)
I0403 12:35:11.760748 30460 net.cpp:156] Memory required for data: 821695600
I0403 12:35:11.760766 30460 layer_factory.hpp:77] Creating layer fc6
I0403 12:35:11.760797 30460 net.cpp:91] Creating Layer fc6
I0403 12:35:11.760815 30460 net.cpp:425] fc6 <- pool5
I0403 12:35:11.760869 30460 net.cpp:399] fc6 -> fc6
I0403 12:35:13.325989 30460 net.cpp:141] Setting up fc6
I0403 12:35:13.326030 30460 net.cpp:148] Top shape: 100 4096 (409600)
I0403 12:35:13.326046 30460 net.cpp:156] Memory required for data: 823334000
I0403 12:35:13.326066 30460 layer_factory.hpp:77] Creating layer relu6
I0403 12:35:13.326088 30460 net.cpp:91] Creating Layer relu6
I0403 12:35:13.326104 30460 net.cpp:425] relu6 <- fc6
I0403 12:35:13.326125 30460 net.cpp:386] relu6 -> fc6 (in-place)
I0403 12:35:13.326346 30460 net.cpp:141] Setting up relu6
I0403 12:35:13.326370 30460 net.cpp:148] Top shape: 100 4096 (409600)
I0403 12:35:13.326385 30460 net.cpp:156] Memory required for data: 824972400
I0403 12:35:13.326400 30460 layer_factory.hpp:77] Creating layer drop6
I0403 12:35:13.326418 30460 net.cpp:91] Creating Layer drop6
I0403 12:35:13.326433 30460 net.cpp:425] drop6 <- fc6
I0403 12:35:13.326452 30460 net.cpp:386] drop6 -> fc6 (in-place)
I0403 12:35:13.326506 30460 net.cpp:141] Setting up drop6
I0403 12:35:13.326529 30460 net.cpp:148] Top shape: 100 4096 (409600)
I0403 12:35:13.326542 30460 net.cpp:156] Memory required for data: 826610800
I0403 12:35:13.326557 30460 layer_factory.hpp:77] Creating layer fc7
I0403 12:35:13.326575 30460 net.cpp:91] Creating Layer fc7
I0403 12:35:13.326591 30460 net.cpp:425] fc7 <- fc6
I0403 12:35:13.326611 30460 net.cpp:399] fc7 -> fc7
I0403 12:35:14.013145 30460 net.cpp:141] Setting up fc7
I0403 12:35:14.013234 30460 net.cpp:148] Top shape: 100 4096 (409600)
I0403 12:35:14.013252 30460 net.cpp:156] Memory required for data: 828249200
I0403 12:35:14.013273 30460 layer_factory.hpp:77] Creating layer relu7
I0403 12:35:14.013295 30460 net.cpp:91] Creating Layer relu7
I0403 12:35:14.013314 30460 net.cpp:425] relu7 <- fc7
I0403 12:35:14.013332 30460 net.cpp:386] relu7 -> fc7 (in-place)
I0403 12:35:14.013731 30460 net.cpp:141] Setting up relu7
I0403 12:35:14.013757 30460 net.cpp:148] Top shape: 100 4096 (409600)
I0403 12:35:14.013804 30460 net.cpp:156] Memory required for data: 829887600
I0403 12:35:14.013820 30460 layer_factory.hpp:77] Creating layer drop7
I0403 12:35:14.013841 30460 net.cpp:91] Creating Layer drop7
I0403 12:35:14.013857 30460 net.cpp:425] drop7 <- fc7
I0403 12:35:14.013875 30460 net.cpp:386] drop7 -> fc7 (in-place)
I0403 12:35:14.013918 30460 net.cpp:141] Setting up drop7
I0403 12:35:14.013942 30460 net.cpp:148] Top shape: 100 4096 (409600)
I0403 12:35:14.013957 30460 net.cpp:156] Memory required for data: 831526000
I0403 12:35:14.013972 30460 layer_factory.hpp:77] Creating layer fc8_plantvillage
I0403 12:35:14.013991 30460 net.cpp:91] Creating Layer fc8_plantvillage
I0403 12:35:14.014008 30460 net.cpp:425] fc8_plantvillage <- fc7
I0403 12:35:14.014027 30460 net.cpp:399] fc8_plantvillage -> fc8_plantvillage
I0403 12:35:14.020772 30460 net.cpp:141] Setting up fc8_plantvillage
I0403 12:35:14.020802 30460 net.cpp:148] Top shape: 100 38 (3800)
I0403 12:35:14.020817 30460 net.cpp:156] Memory required for data: 831541200
I0403 12:35:14.020834 30460 layer_factory.hpp:77] Creating layer fc8_plantvillage_fc8_plantvillage_0_split
I0403 12:35:14.020854 30460 net.cpp:91] Creating Layer fc8_plantvillage_fc8_plantvillage_0_split
I0403 12:35:14.020869 30460 net.cpp:425] fc8_plantvillage_fc8_plantvillage_0_split <- fc8_plantvillage
I0403 12:35:14.020886 30460 net.cpp:399] fc8_plantvillage_fc8_plantvillage_0_split -> fc8_plantvillage_fc8_plantvillage_0_split_0
I0403 12:35:14.020906 30460 net.cpp:399] fc8_plantvillage_fc8_plantvillage_0_split -> fc8_plantvillage_fc8_plantvillage_0_split_1
I0403 12:35:14.020926 30460 net.cpp:399] fc8_plantvillage_fc8_plantvillage_0_split -> fc8_plantvillage_fc8_plantvillage_0_split_2
I0403 12:35:14.021005 30460 net.cpp:141] Setting up fc8_plantvillage_fc8_plantvillage_0_split
I0403 12:35:14.021028 30460 net.cpp:148] Top shape: 100 38 (3800)
I0403 12:35:14.021044 30460 net.cpp:148] Top shape: 100 38 (3800)
I0403 12:35:14.021059 30460 net.cpp:148] Top shape: 100 38 (3800)
I0403 12:35:14.021073 30460 net.cpp:156] Memory required for data: 831586800
I0403 12:35:14.021087 30460 layer_factory.hpp:77] Creating layer prob
I0403 12:35:14.021106 30460 net.cpp:91] Creating Layer prob
I0403 12:35:14.021119 30460 net.cpp:425] prob <- fc8_plantvillage_fc8_plantvillage_0_split_0
I0403 12:35:14.021139 30460 net.cpp:399] prob -> prob
I0403 12:35:14.021375 30460 net.cpp:141] Setting up prob
I0403 12:35:14.021400 30460 net.cpp:148] Top shape: 100 38 (3800)
I0403 12:35:14.021415 30460 net.cpp:156] Memory required for data: 831602000
I0403 12:35:14.021430 30460 layer_factory.hpp:77] Creating layer hdf5out
I0403 12:35:14.021451 30460 net.cpp:91] Creating Layer hdf5out
I0403 12:35:14.021467 30460 net.cpp:425] hdf5out <- prob
I0403 12:35:14.021482 30460 net.cpp:425] hdf5out <- label_data_1_split_0
I0403 12:35:14.024093 30460 net.cpp:141] Setting up hdf5out
…
