…
I0403 12:56:12.921155 31021 net.cpp:313] The NetState phase (1) differed from the phase (0) specified by a rule in layer data
I0403 12:56:12.921468 31021 net.cpp:49] Initializing net from parameters: 
state {
  phase: TEST
}
layer {
  name: "data"
  type: "Data"
  top: "data"
  top: "label"
  include {
    phase: TEST
  }
  transform_param {
    crop_size: 227
    mean_file: "/home/mohanty/data/final_dataset/lmdb/grayscale-40-60/mean.binaryproto"
  }
  data_param {
    source: "/home/mohanty/data/final_dataset/lmdb/grayscale-40-60/test_db"
    batch_size: 100
    backend: LMDB
  }
}
layer {
  name: "conv1"
  type: "Convolution"
  bottom: "data"
  top: "conv1"
  param {
    lr_mult: 1
    decay_mult: 1
  }
  param {
    lr_mult: 2
    decay_mult: 0
  }
  convolution_param {
    num_output: 96
    kernel_size: 11
    stride: 4
    weight_filler {
      type: "gaussian"
      std: 0.01
    }
    bias_filler {
      type: "constant"
      value: 0
    }
  }
}
layer {
  name: "relu1"
  type: "ReLU"
  bottom: "conv1"
  top: "conv1"
}
layer {
  name: "norm1"
  type: "LRN"
  bottom: "conv1"
  top: "norm1"
  lrn_param {
    local_size: 5
    alpha: 0.0001
    beta: 0.75
  }
}
layer {
  name: "pool1"
  type: "Pooling"
  bottom: "norm1"
  top: "pool1"
  pooling_param {
    pool: MAX
    kernel_size: 3
    stride: 2
  }
}
layer {
  name: "conv2"
  type: "Convolution"
  bottom: "pool1"
  top: "conv2"
  param {
    lr_mult: 1
    decay_mult: 1
  }
  param {
    lr_mult: 2
    decay_mult: 0
  }
  convolution_param {
    num_output: 256
    pad: 2
    kernel_size: 5
    group: 2
    weight_filler {
      type: "gaussian"
      std: 0.01
    }
    bias_filler {
      type: "constant"
      value: 0.1
    }
  }
}
layer {
  name: "relu2"
  type: "ReLU"
  bottom: "conv2"
  top: "conv2"
}
layer {
  name: "norm2"
  type: "LRN"
  bottom: "conv2"
  top: "norm2"
  lrn_param {
    local_size: 5
    alpha: 0.0001
    beta: 0.75
  }
}
layer {
  name: "pool2"
  type: "Pooling"
  bottom: "norm2"
  top: "pool2"
  pooling_param {
    pool: MAX
    kernel_size: 3
    stride: 2
  }
}
layer {
  name: "conv3"
  type: "Convolution"
  bottom: "pool2"
  top: "conv3"
  param {
    lr_mult: 1
    decay_mult: 1
  }
  param {
    lr_mult: 2
    decay_mult: 0
  }
  convolution_param {
    num_output: 384
    pad: 1
    kernel_size: 3
    weight_filler {
      type: "gaussian"
      std: 0.01
    }
    bias_filler {
      type: "constant"
      value: 0
    }
  }
}
layer {
  name: "relu3"
  type: "ReLU"
  bottom: "conv3"
  top: "conv3"
}
layer {
  name: "conv4"
  type: "Convolution"
  bottom: "conv3"
  top: "conv4"
  param {
    lr_mult: 1
    decay_mult: 1
  }
  param {
    lr_mult: 2
    decay_mult: 0
  }
  convolution_param {
    num_output: 384
    pad: 1
    kernel_size: 3
    group: 2
    weight_filler {
      type: "gaussian"
      std: 0.01
    }
    bias_filler {
      type: "constant"
      value: 0.1
    }
  }
}
layer {
  name: "relu4"
  type: "ReLU"
  bottom: "conv4"
  top: "conv4"
}
layer {
  name: "conv5"
  type: "Convolution"
  bottom: "conv4"
  top: "conv5"
  param {
    lr_mult: 1
    decay_mult: 1
  }
  param {
    lr_mult: 2
    decay_mult: 0
  }
  convolution_param {
    num_output: 256
    pad: 1
    kernel_size: 3
    group: 2
    weight_filler {
      type: "gaussian"
      std: 0.01
    }
    bias_filler {
      type: "constant"
      value: 0.1
    }
  }
}
layer {
  name: "relu5"
  type: "ReLU"
  bottom: "conv5"
  top: "conv5"
}
layer {
  name: "pool5"
  type: "Pooling"
  bottom: "conv5"
  top: "pool5"
  pooling_param {
    pool: MAX
    kernel_size: 3
    stride: 2
  }
}
layer {
  name: "fc6"
  type: "InnerProduct"
  bottom: "pool5"
  top: "fc6"
  param {
    lr_mult: 1
    decay_mult: 1
  }
  param {
    lr_mult: 2
    decay_mult: 0
  }
  inner_product_param {
    num_output: 4096
    weight_filler {
      type: "gaussian"
      std: 0.005
    }
    bias_filler {
      type: "constant"
      value: 0.1
    }
  }
}
layer {
  name: "relu6"
  type: "ReLU"
  bottom: "fc6"
  top: "fc6"
}
layer {
  name: "drop6"
  type: "Dropout"
  bottom: "fc6"
  top: "fc6"
  dropout_param {
    dropout_ratio: 0.5
  }
}
layer {
  name: "fc7"
  type: "InnerProduct"
  bottom: "fc6"
  top: "fc7"
  param {
    lr_mult: 1
    decay_mult: 1
  }
  param {
    lr_mult: 2
    decay_mult: 0
  }
  inner_product_param {
    num_output: 4096
    weight_filler {
      type: "gaussian"
      std: 0.005
    }
    bias_filler {
      type: "constant"
      value: 0.1
    }
  }
}
layer {
  name: "relu7"
  type: "ReLU"
  bottom: "fc7"
  top: "fc7"
}
layer {
  name: "drop7"
  type: "Dropout"
  bottom: "fc7"
  top: "fc7"
  dropout_param {
    dropout_ratio: 0.5
  }
}
layer {
  name: "fc8_plantvillage"
  type: "InnerProduct"
  bottom: "fc7"
  top: "fc8_plantvillage"
  param {
    lr_mult: 1
    decay_mult: 1
  }
  param {
    lr_mult: 2
    decay_mult: 0
  }
  inner_product_param {
    num_output: 38
    weight_filler {
      type: "gaussian"
      std: 0.01
    }
    bias_filler {
      type: "constant"
      value: 0
    }
  }
}
layer {
  name: "prob"
  type: "Softmax"
  bottom: "fc8_plantvillage"
  top: "prob"
  include {
    phase: TEST
  }
}
layer {
  name: "hdf5out"
  type: "HDF5Output"
  bottom: "prob"
  bottom: "label"
  include {
    phase: TEST
  }
  hdf5_output_param {
    file_name: "hdf5_dumps/iter_4599.h5"
  }
}
layer {
  name: "loss"
  type: "SoftmaxWithLoss"
  bottom: "fc8_plantvillage"
  bottom: "label"
  top: "loss"
}
layer {
  name: "accuracy"
  type: "Accuracy"
  bottom: "fc8_plantvillage"
  bottom: "label"
  top: "accuracy"
  include {
    phase: TEST
  }
}
I0403 12:56:12.921985 31021 layer_factory.hpp:77] Creating layer data
I0403 12:56:12.922626 31021 net.cpp:91] Creating Layer data
I0403 12:56:12.922655 31021 net.cpp:399] data -> data
I0403 12:56:12.922708 31021 net.cpp:399] data -> label
I0403 12:56:12.922744 31021 data_transformer.cpp:25] Loading mean file from: /home/mohanty/data/final_dataset/lmdb/grayscale-40-60/mean.binaryproto
I0403 12:56:12.925056 31024 db_lmdb.cpp:38] Opened lmdb /home/mohanty/data/final_dataset/lmdb/grayscale-40-60/test_db
I0403 12:56:12.937183 31021 data_layer.cpp:41] output data size: 100,3,227,227
I0403 12:56:13.054502 31021 net.cpp:141] Setting up data
I0403 12:56:13.054605 31021 net.cpp:148] Top shape: 100 3 227 227 (15458700)
I0403 12:56:13.054626 31021 net.cpp:148] Top shape: 100 (100)
I0403 12:56:13.054641 31021 net.cpp:156] Memory required for data: 61835200
I0403 12:56:13.054668 31021 layer_factory.hpp:77] Creating layer label_data_1_split
I0403 12:56:13.054693 31021 net.cpp:91] Creating Layer label_data_1_split
I0403 12:56:13.054710 31021 net.cpp:425] label_data_1_split <- label
I0403 12:56:13.054743 31021 net.cpp:399] label_data_1_split -> label_data_1_split_0
I0403 12:56:13.054769 31021 net.cpp:399] label_data_1_split -> label_data_1_split_1
I0403 12:56:13.054790 31021 net.cpp:399] label_data_1_split -> label_data_1_split_2
I0403 12:56:13.054850 31021 net.cpp:141] Setting up label_data_1_split
I0403 12:56:13.054873 31021 net.cpp:148] Top shape: 100 (100)
I0403 12:56:13.054890 31021 net.cpp:148] Top shape: 100 (100)
I0403 12:56:13.054905 31021 net.cpp:148] Top shape: 100 (100)
I0403 12:56:13.054919 31021 net.cpp:156] Memory required for data: 61836400
I0403 12:56:13.054934 31021 layer_factory.hpp:77] Creating layer conv1
I0403 12:56:13.054965 31021 net.cpp:91] Creating Layer conv1
I0403 12:56:13.054982 31021 net.cpp:425] conv1 <- data
I0403 12:56:13.055001 31021 net.cpp:399] conv1 -> conv1
I0403 12:56:13.197619 31021 net.cpp:141] Setting up conv1
I0403 12:56:13.197708 31021 net.cpp:148] Top shape: 100 96 55 55 (29040000)
I0403 12:56:13.197726 31021 net.cpp:156] Memory required for data: 177996400
I0403 12:56:13.197757 31021 layer_factory.hpp:77] Creating layer relu1
I0403 12:56:13.197788 31021 net.cpp:91] Creating Layer relu1
I0403 12:56:13.197805 31021 net.cpp:425] relu1 <- conv1
I0403 12:56:13.197829 31021 net.cpp:386] relu1 -> conv1 (in-place)
I0403 12:56:13.198143 31021 net.cpp:141] Setting up relu1
I0403 12:56:13.198170 31021 net.cpp:148] Top shape: 100 96 55 55 (29040000)
I0403 12:56:13.198222 31021 net.cpp:156] Memory required for data: 294156400
I0403 12:56:13.198240 31021 layer_factory.hpp:77] Creating layer norm1
I0403 12:56:13.198266 31021 net.cpp:91] Creating Layer norm1
I0403 12:56:13.198284 31021 net.cpp:425] norm1 <- conv1
I0403 12:56:13.198308 31021 net.cpp:399] norm1 -> norm1
I0403 12:56:13.198643 31021 net.cpp:141] Setting up norm1
I0403 12:56:13.198671 31021 net.cpp:148] Top shape: 100 96 55 55 (29040000)
I0403 12:56:13.198688 31021 net.cpp:156] Memory required for data: 410316400
I0403 12:56:13.198703 31021 layer_factory.hpp:77] Creating layer pool1
I0403 12:56:13.198724 31021 net.cpp:91] Creating Layer pool1
I0403 12:56:13.198741 31021 net.cpp:425] pool1 <- norm1
I0403 12:56:13.198762 31021 net.cpp:399] pool1 -> pool1
I0403 12:56:13.198835 31021 net.cpp:141] Setting up pool1
I0403 12:56:13.198859 31021 net.cpp:148] Top shape: 100 96 27 27 (6998400)
I0403 12:56:13.198874 31021 net.cpp:156] Memory required for data: 438310000
I0403 12:56:13.198889 31021 layer_factory.hpp:77] Creating layer conv2
I0403 12:56:13.198920 31021 net.cpp:91] Creating Layer conv2
I0403 12:56:13.198937 31021 net.cpp:425] conv2 <- pool1
I0403 12:56:13.198958 31021 net.cpp:399] conv2 -> conv2
I0403 12:56:13.215010 31021 net.cpp:141] Setting up conv2
I0403 12:56:13.215067 31021 net.cpp:148] Top shape: 100 256 27 27 (18662400)
I0403 12:56:13.215085 31021 net.cpp:156] Memory required for data: 512959600
I0403 12:56:13.215107 31021 layer_factory.hpp:77] Creating layer relu2
I0403 12:56:13.215129 31021 net.cpp:91] Creating Layer relu2
I0403 12:56:13.215147 31021 net.cpp:425] relu2 <- conv2
I0403 12:56:13.215165 31021 net.cpp:386] relu2 -> conv2 (in-place)
I0403 12:56:13.215447 31021 net.cpp:141] Setting up relu2
I0403 12:56:13.215474 31021 net.cpp:148] Top shape: 100 256 27 27 (18662400)
I0403 12:56:13.215490 31021 net.cpp:156] Memory required for data: 587609200
I0403 12:56:13.215505 31021 layer_factory.hpp:77] Creating layer norm2
I0403 12:56:13.215529 31021 net.cpp:91] Creating Layer norm2
I0403 12:56:13.215548 31021 net.cpp:425] norm2 <- conv2
I0403 12:56:13.215567 31021 net.cpp:399] norm2 -> norm2
I0403 12:56:13.215770 31021 net.cpp:141] Setting up norm2
I0403 12:56:13.215795 31021 net.cpp:148] Top shape: 100 256 27 27 (18662400)
I0403 12:56:13.215811 31021 net.cpp:156] Memory required for data: 662258800
I0403 12:56:13.215831 31021 layer_factory.hpp:77] Creating layer pool2
I0403 12:56:13.215852 31021 net.cpp:91] Creating Layer pool2
I0403 12:56:13.215867 31021 net.cpp:425] pool2 <- norm2
I0403 12:56:13.215888 31021 net.cpp:399] pool2 -> pool2
I0403 12:56:13.215942 31021 net.cpp:141] Setting up pool2
I0403 12:56:13.215970 31021 net.cpp:148] Top shape: 100 256 13 13 (4326400)
I0403 12:56:13.215986 31021 net.cpp:156] Memory required for data: 679564400
I0403 12:56:13.216002 31021 layer_factory.hpp:77] Creating layer conv3
I0403 12:56:13.216027 31021 net.cpp:91] Creating Layer conv3
I0403 12:56:13.216044 31021 net.cpp:425] conv3 <- pool2
I0403 12:56:13.216068 31021 net.cpp:399] conv3 -> conv3
I0403 12:56:13.257242 31021 net.cpp:141] Setting up conv3
I0403 12:56:13.257328 31021 net.cpp:148] Top shape: 100 384 13 13 (6489600)
I0403 12:56:13.257344 31021 net.cpp:156] Memory required for data: 705522800
I0403 12:56:13.257369 31021 layer_factory.hpp:77] Creating layer relu3
I0403 12:56:13.257392 31021 net.cpp:91] Creating Layer relu3
I0403 12:56:13.257411 31021 net.cpp:425] relu3 <- conv3
I0403 12:56:13.257432 31021 net.cpp:386] relu3 -> conv3 (in-place)
I0403 12:56:13.257719 31021 net.cpp:141] Setting up relu3
I0403 12:56:13.257745 31021 net.cpp:148] Top shape: 100 384 13 13 (6489600)
I0403 12:56:13.257761 31021 net.cpp:156] Memory required for data: 731481200
I0403 12:56:13.257774 31021 layer_factory.hpp:77] Creating layer conv4
I0403 12:56:13.257799 31021 net.cpp:91] Creating Layer conv4
I0403 12:56:13.257817 31021 net.cpp:425] conv4 <- conv3
I0403 12:56:13.257838 31021 net.cpp:399] conv4 -> conv4
I0403 12:56:13.289638 31021 net.cpp:141] Setting up conv4
I0403 12:56:13.289716 31021 net.cpp:148] Top shape: 100 384 13 13 (6489600)
I0403 12:56:13.289765 31021 net.cpp:156] Memory required for data: 757439600
I0403 12:56:13.289788 31021 layer_factory.hpp:77] Creating layer relu4
I0403 12:56:13.289810 31021 net.cpp:91] Creating Layer relu4
I0403 12:56:13.289829 31021 net.cpp:425] relu4 <- conv4
I0403 12:56:13.289850 31021 net.cpp:386] relu4 -> conv4 (in-place)
I0403 12:56:13.290180 31021 net.cpp:141] Setting up relu4
I0403 12:56:13.290212 31021 net.cpp:148] Top shape: 100 384 13 13 (6489600)
I0403 12:56:13.290230 31021 net.cpp:156] Memory required for data: 783398000
I0403 12:56:13.290246 31021 layer_factory.hpp:77] Creating layer conv5
I0403 12:56:13.290271 31021 net.cpp:91] Creating Layer conv5
I0403 12:56:13.290289 31021 net.cpp:425] conv5 <- conv4
I0403 12:56:13.290312 31021 net.cpp:399] conv5 -> conv5
I0403 12:56:13.312309 31021 net.cpp:141] Setting up conv5
I0403 12:56:13.312373 31021 net.cpp:148] Top shape: 100 256 13 13 (4326400)
I0403 12:56:13.312389 31021 net.cpp:156] Memory required for data: 800703600
I0403 12:56:13.312414 31021 layer_factory.hpp:77] Creating layer relu5
I0403 12:56:13.312440 31021 net.cpp:91] Creating Layer relu5
I0403 12:56:13.312458 31021 net.cpp:425] relu5 <- conv5
I0403 12:56:13.312477 31021 net.cpp:386] relu5 -> conv5 (in-place)
I0403 12:56:13.312809 31021 net.cpp:141] Setting up relu5
I0403 12:56:13.312839 31021 net.cpp:148] Top shape: 100 256 13 13 (4326400)
I0403 12:56:13.312854 31021 net.cpp:156] Memory required for data: 818009200
I0403 12:56:13.312868 31021 layer_factory.hpp:77] Creating layer pool5
I0403 12:56:13.312893 31021 net.cpp:91] Creating Layer pool5
I0403 12:56:13.312911 31021 net.cpp:425] pool5 <- conv5
I0403 12:56:13.312930 31021 net.cpp:399] pool5 -> pool5
I0403 12:56:13.312994 31021 net.cpp:141] Setting up pool5
I0403 12:56:13.313019 31021 net.cpp:148] Top shape: 100 256 6 6 (921600)
I0403 12:56:13.313035 31021 net.cpp:156] Memory required for data: 821695600
I0403 12:56:13.313048 31021 layer_factory.hpp:77] Creating layer fc6
I0403 12:56:13.313076 31021 net.cpp:91] Creating Layer fc6
I0403 12:56:13.313093 31021 net.cpp:425] fc6 <- pool5
I0403 12:56:13.313117 31021 net.cpp:399] fc6 -> fc6
I0403 12:56:14.875525 31021 net.cpp:141] Setting up fc6
I0403 12:56:14.875613 31021 net.cpp:148] Top shape: 100 4096 (409600)
I0403 12:56:14.875629 31021 net.cpp:156] Memory required for data: 823334000
I0403 12:56:14.875650 31021 layer_factory.hpp:77] Creating layer relu6
I0403 12:56:14.875672 31021 net.cpp:91] Creating Layer relu6
I0403 12:56:14.875689 31021 net.cpp:425] relu6 <- fc6
I0403 12:56:14.875707 31021 net.cpp:386] relu6 -> fc6 (in-place)
I0403 12:56:14.875931 31021 net.cpp:141] Setting up relu6
I0403 12:56:14.875957 31021 net.cpp:148] Top shape: 100 4096 (409600)
I0403 12:56:14.875972 31021 net.cpp:156] Memory required for data: 824972400
I0403 12:56:14.875985 31021 layer_factory.hpp:77] Creating layer drop6
I0403 12:56:14.876003 31021 net.cpp:91] Creating Layer drop6
I0403 12:56:14.876019 31021 net.cpp:425] drop6 <- fc6
I0403 12:56:14.876037 31021 net.cpp:386] drop6 -> fc6 (in-place)
I0403 12:56:14.876088 31021 net.cpp:141] Setting up drop6
I0403 12:56:14.876114 31021 net.cpp:148] Top shape: 100 4096 (409600)
I0403 12:56:14.876130 31021 net.cpp:156] Memory required for data: 826610800
I0403 12:56:14.876145 31021 layer_factory.hpp:77] Creating layer fc7
I0403 12:56:14.876165 31021 net.cpp:91] Creating Layer fc7
I0403 12:56:14.876181 31021 net.cpp:425] fc7 <- fc6
I0403 12:56:14.876201 31021 net.cpp:399] fc7 -> fc7
I0403 12:56:15.564028 31021 net.cpp:141] Setting up fc7
I0403 12:56:15.564116 31021 net.cpp:148] Top shape: 100 4096 (409600)
I0403 12:56:15.564133 31021 net.cpp:156] Memory required for data: 828249200
I0403 12:56:15.564154 31021 layer_factory.hpp:77] Creating layer relu7
I0403 12:56:15.564177 31021 net.cpp:91] Creating Layer relu7
I0403 12:56:15.564193 31021 net.cpp:425] relu7 <- fc7
I0403 12:56:15.564219 31021 net.cpp:386] relu7 -> fc7 (in-place)
I0403 12:56:15.564645 31021 net.cpp:141] Setting up relu7
I0403 12:56:15.564671 31021 net.cpp:148] Top shape: 100 4096 (409600)
I0403 12:56:15.564733 31021 net.cpp:156] Memory required for data: 829887600
I0403 12:56:15.564750 31021 layer_factory.hpp:77] Creating layer drop7
I0403 12:56:15.564770 31021 net.cpp:91] Creating Layer drop7
I0403 12:56:15.564786 31021 net.cpp:425] drop7 <- fc7
I0403 12:56:15.564806 31021 net.cpp:386] drop7 -> fc7 (in-place)
I0403 12:56:15.564852 31021 net.cpp:141] Setting up drop7
I0403 12:56:15.564878 31021 net.cpp:148] Top shape: 100 4096 (409600)
I0403 12:56:15.564893 31021 net.cpp:156] Memory required for data: 831526000
I0403 12:56:15.564908 31021 layer_factory.hpp:77] Creating layer fc8_plantvillage
I0403 12:56:15.564929 31021 net.cpp:91] Creating Layer fc8_plantvillage
I0403 12:56:15.564944 31021 net.cpp:425] fc8_plantvillage <- fc7
I0403 12:56:15.564966 31021 net.cpp:399] fc8_plantvillage -> fc8_plantvillage
I0403 12:56:15.571939 31021 net.cpp:141] Setting up fc8_plantvillage
I0403 12:56:15.571967 31021 net.cpp:148] Top shape: 100 38 (3800)
I0403 12:56:15.571982 31021 net.cpp:156] Memory required for data: 831541200
I0403 12:56:15.572000 31021 layer_factory.hpp:77] Creating layer fc8_plantvillage_fc8_plantvillage_0_split
I0403 12:56:15.572021 31021 net.cpp:91] Creating Layer fc8_plantvillage_fc8_plantvillage_0_split
I0403 12:56:15.572037 31021 net.cpp:425] fc8_plantvillage_fc8_plantvillage_0_split <- fc8_plantvillage
I0403 12:56:15.572054 31021 net.cpp:399] fc8_plantvillage_fc8_plantvillage_0_split -> fc8_plantvillage_fc8_plantvillage_0_split_0
I0403 12:56:15.572074 31021 net.cpp:399] fc8_plantvillage_fc8_plantvillage_0_split -> fc8_plantvillage_fc8_plantvillage_0_split_1
I0403 12:56:15.572093 31021 net.cpp:399] fc8_plantvillage_fc8_plantvillage_0_split -> fc8_plantvillage_fc8_plantvillage_0_split_2
I0403 12:56:15.572171 31021 net.cpp:141] Setting up fc8_plantvillage_fc8_plantvillage_0_split
I0403 12:56:15.572195 31021 net.cpp:148] Top shape: 100 38 (3800)
I0403 12:56:15.572221 31021 net.cpp:148] Top shape: 100 38 (3800)
I0403 12:56:15.572239 31021 net.cpp:148] Top shape: 100 38 (3800)
I0403 12:56:15.572253 31021 net.cpp:156] Memory required for data: 831586800
I0403 12:56:15.572268 31021 layer_factory.hpp:77] Creating layer prob
I0403 12:56:15.572285 31021 net.cpp:91] Creating Layer prob
I0403 12:56:15.572301 31021 net.cpp:425] prob <- fc8_plantvillage_fc8_plantvillage_0_split_0
I0403 12:56:15.572319 31021 net.cpp:399] prob -> prob
I0403 12:56:15.572541 31021 net.cpp:141] Setting up prob
I0403 12:56:15.572566 31021 net.cpp:148] Top shape: 100 38 (3800)
I0403 12:56:15.572581 31021 net.cpp:156] Memory required for data: 831602000
I0403 12:56:15.572594 31021 layer_factory.hpp:77] Creating layer hdf5out
I0403 12:56:15.572614 31021 net.cpp:91] Creating Layer hdf5out
I0403 12:56:15.572629 31021 net.cpp:425] hdf5out <- prob
I0403 12:56:15.572646 31021 net.cpp:425] hdf5out <- label_data_1_split_0
I0403 12:56:15.575146 31021 net.cpp:141] Setting up hdf5out
…
