…
I0403 13:07:18.649256 31422 net.cpp:313] The NetState phase (1) differed from the phase (0) specified by a rule in layer data
I0403 13:07:18.649580 31422 net.cpp:49] Initializing net from parameters: 
state {
  phase: TEST
}
layer {
  name: "data"
  type: "Data"
  top: "data"
  top: "label"
  include {
    phase: TEST
  }
  transform_param {
    crop_size: 227
    mean_file: "/home/mohanty/data/final_dataset/lmdb/grayscale-40-60/mean.binaryproto"
  }
  data_param {
    source: "/home/mohanty/data/final_dataset/lmdb/grayscale-40-60/test_db"
    batch_size: 100
    backend: LMDB
  }
}
layer {
  name: "conv1"
  type: "Convolution"
  bottom: "data"
  top: "conv1"
  param {
    lr_mult: 1
    decay_mult: 1
  }
  param {
    lr_mult: 2
    decay_mult: 0
  }
  convolution_param {
    num_output: 96
    kernel_size: 11
    stride: 4
    weight_filler {
      type: "gaussian"
      std: 0.01
    }
    bias_filler {
      type: "constant"
      value: 0
    }
  }
}
layer {
  name: "relu1"
  type: "ReLU"
  bottom: "conv1"
  top: "conv1"
}
layer {
  name: "norm1"
  type: "LRN"
  bottom: "conv1"
  top: "norm1"
  lrn_param {
    local_size: 5
    alpha: 0.0001
    beta: 0.75
  }
}
layer {
  name: "pool1"
  type: "Pooling"
  bottom: "norm1"
  top: "pool1"
  pooling_param {
    pool: MAX
    kernel_size: 3
    stride: 2
  }
}
layer {
  name: "conv2"
  type: "Convolution"
  bottom: "pool1"
  top: "conv2"
  param {
    lr_mult: 1
    decay_mult: 1
  }
  param {
    lr_mult: 2
    decay_mult: 0
  }
  convolution_param {
    num_output: 256
    pad: 2
    kernel_size: 5
    group: 2
    weight_filler {
      type: "gaussian"
      std: 0.01
    }
    bias_filler {
      type: "constant"
      value: 0.1
    }
  }
}
layer {
  name: "relu2"
  type: "ReLU"
  bottom: "conv2"
  top: "conv2"
}
layer {
  name: "norm2"
  type: "LRN"
  bottom: "conv2"
  top: "norm2"
  lrn_param {
    local_size: 5
    alpha: 0.0001
    beta: 0.75
  }
}
layer {
  name: "pool2"
  type: "Pooling"
  bottom: "norm2"
  top: "pool2"
  pooling_param {
    pool: MAX
    kernel_size: 3
    stride: 2
  }
}
layer {
  name: "conv3"
  type: "Convolution"
  bottom: "pool2"
  top: "conv3"
  param {
    lr_mult: 1
    decay_mult: 1
  }
  param {
    lr_mult: 2
    decay_mult: 0
  }
  convolution_param {
    num_output: 384
    pad: 1
    kernel_size: 3
    weight_filler {
      type: "gaussian"
      std: 0.01
    }
    bias_filler {
      type: "constant"
      value: 0
    }
  }
}
layer {
  name: "relu3"
  type: "ReLU"
  bottom: "conv3"
  top: "conv3"
}
layer {
  name: "conv4"
  type: "Convolution"
  bottom: "conv3"
  top: "conv4"
  param {
    lr_mult: 1
    decay_mult: 1
  }
  param {
    lr_mult: 2
    decay_mult: 0
  }
  convolution_param {
    num_output: 384
    pad: 1
    kernel_size: 3
    group: 2
    weight_filler {
      type: "gaussian"
      std: 0.01
    }
    bias_filler {
      type: "constant"
      value: 0.1
    }
  }
}
layer {
  name: "relu4"
  type: "ReLU"
  bottom: "conv4"
  top: "conv4"
}
layer {
  name: "conv5"
  type: "Convolution"
  bottom: "conv4"
  top: "conv5"
  param {
    lr_mult: 1
    decay_mult: 1
  }
  param {
    lr_mult: 2
    decay_mult: 0
  }
  convolution_param {
    num_output: 256
    pad: 1
    kernel_size: 3
    group: 2
    weight_filler {
      type: "gaussian"
      std: 0.01
    }
    bias_filler {
      type: "constant"
      value: 0.1
    }
  }
}
layer {
  name: "relu5"
  type: "ReLU"
  bottom: "conv5"
  top: "conv5"
}
layer {
  name: "pool5"
  type: "Pooling"
  bottom: "conv5"
  top: "pool5"
  pooling_param {
    pool: MAX
    kernel_size: 3
    stride: 2
  }
}
layer {
  name: "fc6"
  type: "InnerProduct"
  bottom: "pool5"
  top: "fc6"
  param {
    lr_mult: 1
    decay_mult: 1
  }
  param {
    lr_mult: 2
    decay_mult: 0
  }
  inner_product_param {
    num_output: 4096
    weight_filler {
      type: "gaussian"
      std: 0.005
    }
    bias_filler {
      type: "constant"
      value: 0.1
    }
  }
}
layer {
  name: "relu6"
  type: "ReLU"
  bottom: "fc6"
  top: "fc6"
}
layer {
  name: "drop6"
  type: "Dropout"
  bottom: "fc6"
  top: "fc6"
  dropout_param {
    dropout_ratio: 0.5
  }
}
layer {
  name: "fc7"
  type: "InnerProduct"
  bottom: "fc6"
  top: "fc7"
  param {
    lr_mult: 1
    decay_mult: 1
  }
  param {
    lr_mult: 2
    decay_mult: 0
  }
  inner_product_param {
    num_output: 4096
    weight_filler {
      type: "gaussian"
      std: 0.005
    }
    bias_filler {
      type: "constant"
      value: 0.1
    }
  }
}
layer {
  name: "relu7"
  type: "ReLU"
  bottom: "fc7"
  top: "fc7"
}
layer {
  name: "drop7"
  type: "Dropout"
  bottom: "fc7"
  top: "fc7"
  dropout_param {
    dropout_ratio: 0.5
  }
}
layer {
  name: "fc8_plantvillage"
  type: "InnerProduct"
  bottom: "fc7"
  top: "fc8_plantvillage"
  param {
    lr_mult: 1
    decay_mult: 1
  }
  param {
    lr_mult: 2
    decay_mult: 0
  }
  inner_product_param {
    num_output: 38
    weight_filler {
      type: "gaussian"
      std: 0.01
    }
    bias_filler {
      type: "constant"
      value: 0
    }
  }
}
layer {
  name: "prob"
  type: "Softmax"
  bottom: "fc8_plantvillage"
  top: "prob"
  include {
    phase: TEST
  }
}
layer {
  name: "hdf5out"
  type: "HDF5Output"
  bottom: "prob"
  bottom: "label"
  include {
    phase: TEST
  }
  hdf5_output_param {
    file_name: "hdf5_dumps/iter_6589.h5"
  }
}
layer {
  name: "loss"
  type: "SoftmaxWithLoss"
  bottom: "fc8_plantvillage"
  bottom: "label"
  top: "loss"
}
layer {
  name: "accuracy"
  type: "Accuracy"
  bottom: "fc8_plantvillage"
  bottom: "label"
  top: "accuracy"
  include {
    phase: TEST
  }
}
I0403 13:07:18.650187 31422 layer_factory.hpp:77] Creating layer data
I0403 13:07:18.650871 31422 net.cpp:91] Creating Layer data
I0403 13:07:18.650905 31422 net.cpp:399] data -> data
I0403 13:07:18.650957 31422 net.cpp:399] data -> label
I0403 13:07:18.650993 31422 data_transformer.cpp:25] Loading mean file from: /home/mohanty/data/final_dataset/lmdb/grayscale-40-60/mean.binaryproto
I0403 13:07:18.653606 31428 db_lmdb.cpp:38] Opened lmdb /home/mohanty/data/final_dataset/lmdb/grayscale-40-60/test_db
I0403 13:07:18.665747 31422 data_layer.cpp:41] output data size: 100,3,227,227
I0403 13:07:18.788627 31422 net.cpp:141] Setting up data
I0403 13:07:18.788746 31422 net.cpp:148] Top shape: 100 3 227 227 (15458700)
I0403 13:07:18.788770 31422 net.cpp:148] Top shape: 100 (100)
I0403 13:07:18.788786 31422 net.cpp:156] Memory required for data: 61835200
I0403 13:07:18.788815 31422 layer_factory.hpp:77] Creating layer label_data_1_split
I0403 13:07:18.788843 31422 net.cpp:91] Creating Layer label_data_1_split
I0403 13:07:18.788861 31422 net.cpp:425] label_data_1_split <- label
I0403 13:07:18.788895 31422 net.cpp:399] label_data_1_split -> label_data_1_split_0
I0403 13:07:18.788923 31422 net.cpp:399] label_data_1_split -> label_data_1_split_1
I0403 13:07:18.788945 31422 net.cpp:399] label_data_1_split -> label_data_1_split_2
I0403 13:07:18.789018 31422 net.cpp:141] Setting up label_data_1_split
I0403 13:07:18.789043 31422 net.cpp:148] Top shape: 100 (100)
I0403 13:07:18.789060 31422 net.cpp:148] Top shape: 100 (100)
I0403 13:07:18.789078 31422 net.cpp:148] Top shape: 100 (100)
I0403 13:07:18.789094 31422 net.cpp:156] Memory required for data: 61836400
I0403 13:07:18.789110 31422 layer_factory.hpp:77] Creating layer conv1
I0403 13:07:18.789145 31422 net.cpp:91] Creating Layer conv1
I0403 13:07:18.789165 31422 net.cpp:425] conv1 <- data
I0403 13:07:18.789186 31422 net.cpp:399] conv1 -> conv1
I0403 13:07:18.936123 31422 net.cpp:141] Setting up conv1
I0403 13:07:18.936226 31422 net.cpp:148] Top shape: 100 96 55 55 (29040000)
I0403 13:07:18.936245 31422 net.cpp:156] Memory required for data: 177996400
I0403 13:07:18.936280 31422 layer_factory.hpp:77] Creating layer relu1
I0403 13:07:18.936310 31422 net.cpp:91] Creating Layer relu1
I0403 13:07:18.936328 31422 net.cpp:425] relu1 <- conv1
I0403 13:07:18.936349 31422 net.cpp:386] relu1 -> conv1 (in-place)
I0403 13:07:18.936627 31422 net.cpp:141] Setting up relu1
I0403 13:07:18.936656 31422 net.cpp:148] Top shape: 100 96 55 55 (29040000)
I0403 13:07:18.936707 31422 net.cpp:156] Memory required for data: 294156400
I0403 13:07:18.936724 31422 layer_factory.hpp:77] Creating layer norm1
I0403 13:07:18.936755 31422 net.cpp:91] Creating Layer norm1
I0403 13:07:18.936777 31422 net.cpp:425] norm1 <- conv1
I0403 13:07:18.936803 31422 net.cpp:399] norm1 -> norm1
I0403 13:07:18.937144 31422 net.cpp:141] Setting up norm1
I0403 13:07:18.937177 31422 net.cpp:148] Top shape: 100 96 55 55 (29040000)
I0403 13:07:18.937196 31422 net.cpp:156] Memory required for data: 410316400
I0403 13:07:18.937217 31422 layer_factory.hpp:77] Creating layer pool1
I0403 13:07:18.937242 31422 net.cpp:91] Creating Layer pool1
I0403 13:07:18.937263 31422 net.cpp:425] pool1 <- norm1
I0403 13:07:18.937284 31422 net.cpp:399] pool1 -> pool1
I0403 13:07:18.937360 31422 net.cpp:141] Setting up pool1
I0403 13:07:18.937387 31422 net.cpp:148] Top shape: 100 96 27 27 (6998400)
I0403 13:07:18.937404 31422 net.cpp:156] Memory required for data: 438310000
I0403 13:07:18.937422 31422 layer_factory.hpp:77] Creating layer conv2
I0403 13:07:18.937449 31422 net.cpp:91] Creating Layer conv2
I0403 13:07:18.937468 31422 net.cpp:425] conv2 <- pool1
I0403 13:07:18.937489 31422 net.cpp:399] conv2 -> conv2
I0403 13:07:18.952973 31422 net.cpp:141] Setting up conv2
I0403 13:07:18.953037 31422 net.cpp:148] Top shape: 100 256 27 27 (18662400)
I0403 13:07:18.953055 31422 net.cpp:156] Memory required for data: 512959600
I0403 13:07:18.953081 31422 layer_factory.hpp:77] Creating layer relu2
I0403 13:07:18.953104 31422 net.cpp:91] Creating Layer relu2
I0403 13:07:18.953124 31422 net.cpp:425] relu2 <- conv2
I0403 13:07:18.953145 31422 net.cpp:386] relu2 -> conv2 (in-place)
I0403 13:07:18.953449 31422 net.cpp:141] Setting up relu2
I0403 13:07:18.953479 31422 net.cpp:148] Top shape: 100 256 27 27 (18662400)
I0403 13:07:18.953495 31422 net.cpp:156] Memory required for data: 587609200
I0403 13:07:18.953513 31422 layer_factory.hpp:77] Creating layer norm2
I0403 13:07:18.953541 31422 net.cpp:91] Creating Layer norm2
I0403 13:07:18.953559 31422 net.cpp:425] norm2 <- conv2
I0403 13:07:18.953578 31422 net.cpp:399] norm2 -> norm2
I0403 13:07:18.953788 31422 net.cpp:141] Setting up norm2
I0403 13:07:18.953814 31422 net.cpp:148] Top shape: 100 256 27 27 (18662400)
I0403 13:07:18.953831 31422 net.cpp:156] Memory required for data: 662258800
I0403 13:07:18.953848 31422 layer_factory.hpp:77] Creating layer pool2
I0403 13:07:18.953868 31422 net.cpp:91] Creating Layer pool2
I0403 13:07:18.953886 31422 net.cpp:425] pool2 <- norm2
I0403 13:07:18.953907 31422 net.cpp:399] pool2 -> pool2
I0403 13:07:18.953964 31422 net.cpp:141] Setting up pool2
I0403 13:07:18.953989 31422 net.cpp:148] Top shape: 100 256 13 13 (4326400)
I0403 13:07:18.954005 31422 net.cpp:156] Memory required for data: 679564400
I0403 13:07:18.954020 31422 layer_factory.hpp:77] Creating layer conv3
I0403 13:07:18.954047 31422 net.cpp:91] Creating Layer conv3
I0403 13:07:18.954066 31422 net.cpp:425] conv3 <- pool2
I0403 13:07:18.954087 31422 net.cpp:399] conv3 -> conv3
I0403 13:07:18.995230 31422 net.cpp:141] Setting up conv3
I0403 13:07:18.995321 31422 net.cpp:148] Top shape: 100 384 13 13 (6489600)
I0403 13:07:18.995339 31422 net.cpp:156] Memory required for data: 705522800
I0403 13:07:18.995368 31422 layer_factory.hpp:77] Creating layer relu3
I0403 13:07:18.995391 31422 net.cpp:91] Creating Layer relu3
I0403 13:07:18.995410 31422 net.cpp:425] relu3 <- conv3
I0403 13:07:18.995434 31422 net.cpp:386] relu3 -> conv3 (in-place)
I0403 13:07:18.995723 31422 net.cpp:141] Setting up relu3
I0403 13:07:18.995753 31422 net.cpp:148] Top shape: 100 384 13 13 (6489600)
I0403 13:07:18.995769 31422 net.cpp:156] Memory required for data: 731481200
I0403 13:07:18.995784 31422 layer_factory.hpp:77] Creating layer conv4
I0403 13:07:18.995813 31422 net.cpp:91] Creating Layer conv4
I0403 13:07:18.995832 31422 net.cpp:425] conv4 <- conv3
I0403 13:07:18.995856 31422 net.cpp:399] conv4 -> conv4
I0403 13:07:19.026610 31422 net.cpp:141] Setting up conv4
I0403 13:07:19.026696 31422 net.cpp:148] Top shape: 100 384 13 13 (6489600)
I0403 13:07:19.026747 31422 net.cpp:156] Memory required for data: 757439600
I0403 13:07:19.026772 31422 layer_factory.hpp:77] Creating layer relu4
I0403 13:07:19.026796 31422 net.cpp:91] Creating Layer relu4
I0403 13:07:19.026814 31422 net.cpp:425] relu4 <- conv4
I0403 13:07:19.026837 31422 net.cpp:386] relu4 -> conv4 (in-place)
I0403 13:07:19.027127 31422 net.cpp:141] Setting up relu4
I0403 13:07:19.027158 31422 net.cpp:148] Top shape: 100 384 13 13 (6489600)
I0403 13:07:19.027174 31422 net.cpp:156] Memory required for data: 783398000
I0403 13:07:19.027194 31422 layer_factory.hpp:77] Creating layer conv5
I0403 13:07:19.027231 31422 net.cpp:91] Creating Layer conv5
I0403 13:07:19.027256 31422 net.cpp:425] conv5 <- conv4
I0403 13:07:19.027278 31422 net.cpp:399] conv5 -> conv5
I0403 13:07:19.048333 31422 net.cpp:141] Setting up conv5
I0403 13:07:19.048393 31422 net.cpp:148] Top shape: 100 256 13 13 (4326400)
I0403 13:07:19.048411 31422 net.cpp:156] Memory required for data: 800703600
I0403 13:07:19.048436 31422 layer_factory.hpp:77] Creating layer relu5
I0403 13:07:19.048459 31422 net.cpp:91] Creating Layer relu5
I0403 13:07:19.048475 31422 net.cpp:425] relu5 <- conv5
I0403 13:07:19.048497 31422 net.cpp:386] relu5 -> conv5 (in-place)
I0403 13:07:19.048777 31422 net.cpp:141] Setting up relu5
I0403 13:07:19.048806 31422 net.cpp:148] Top shape: 100 256 13 13 (4326400)
I0403 13:07:19.048827 31422 net.cpp:156] Memory required for data: 818009200
I0403 13:07:19.048843 31422 layer_factory.hpp:77] Creating layer pool5
I0403 13:07:19.048871 31422 net.cpp:91] Creating Layer pool5
I0403 13:07:19.048887 31422 net.cpp:425] pool5 <- conv5
I0403 13:07:19.048909 31422 net.cpp:399] pool5 -> pool5
I0403 13:07:19.048974 31422 net.cpp:141] Setting up pool5
I0403 13:07:19.048997 31422 net.cpp:148] Top shape: 100 256 6 6 (921600)
I0403 13:07:19.049013 31422 net.cpp:156] Memory required for data: 821695600
I0403 13:07:19.049028 31422 layer_factory.hpp:77] Creating layer fc6
I0403 13:07:19.049058 31422 net.cpp:91] Creating Layer fc6
I0403 13:07:19.049077 31422 net.cpp:425] fc6 <- pool5
I0403 13:07:19.049098 31422 net.cpp:399] fc6 -> fc6
I0403 13:07:20.606858 31422 net.cpp:141] Setting up fc6
I0403 13:07:20.606950 31422 net.cpp:148] Top shape: 100 4096 (409600)
I0403 13:07:20.606966 31422 net.cpp:156] Memory required for data: 823334000
I0403 13:07:20.606988 31422 layer_factory.hpp:77] Creating layer relu6
I0403 13:07:20.607012 31422 net.cpp:91] Creating Layer relu6
I0403 13:07:20.607030 31422 net.cpp:425] relu6 <- fc6
I0403 13:07:20.607050 31422 net.cpp:386] relu6 -> fc6 (in-place)
I0403 13:07:20.607290 31422 net.cpp:141] Setting up relu6
I0403 13:07:20.607316 31422 net.cpp:148] Top shape: 100 4096 (409600)
I0403 13:07:20.607331 31422 net.cpp:156] Memory required for data: 824972400
I0403 13:07:20.607347 31422 layer_factory.hpp:77] Creating layer drop6
I0403 13:07:20.607367 31422 net.cpp:91] Creating Layer drop6
I0403 13:07:20.607383 31422 net.cpp:425] drop6 <- fc6
I0403 13:07:20.607405 31422 net.cpp:386] drop6 -> fc6 (in-place)
I0403 13:07:20.607460 31422 net.cpp:141] Setting up drop6
I0403 13:07:20.607482 31422 net.cpp:148] Top shape: 100 4096 (409600)
I0403 13:07:20.607501 31422 net.cpp:156] Memory required for data: 826610800
I0403 13:07:20.607517 31422 layer_factory.hpp:77] Creating layer fc7
I0403 13:07:20.607537 31422 net.cpp:91] Creating Layer fc7
I0403 13:07:20.607553 31422 net.cpp:425] fc7 <- fc6
I0403 13:07:20.607586 31422 net.cpp:399] fc7 -> fc7
I0403 13:07:21.316504 31422 net.cpp:141] Setting up fc7
I0403 13:07:21.316587 31422 net.cpp:148] Top shape: 100 4096 (409600)
I0403 13:07:21.316606 31422 net.cpp:156] Memory required for data: 828249200
I0403 13:07:21.316633 31422 layer_factory.hpp:77] Creating layer relu7
I0403 13:07:21.316659 31422 net.cpp:91] Creating Layer relu7
I0403 13:07:21.316679 31422 net.cpp:425] relu7 <- fc7
I0403 13:07:21.316704 31422 net.cpp:386] relu7 -> fc7 (in-place)
I0403 13:07:21.317144 31422 net.cpp:141] Setting up relu7
I0403 13:07:21.317178 31422 net.cpp:148] Top shape: 100 4096 (409600)
I0403 13:07:21.317230 31422 net.cpp:156] Memory required for data: 829887600
I0403 13:07:21.317250 31422 layer_factory.hpp:77] Creating layer drop7
I0403 13:07:21.317272 31422 net.cpp:91] Creating Layer drop7
I0403 13:07:21.317291 31422 net.cpp:425] drop7 <- fc7
I0403 13:07:21.317317 31422 net.cpp:386] drop7 -> fc7 (in-place)
I0403 13:07:21.317365 31422 net.cpp:141] Setting up drop7
I0403 13:07:21.317391 31422 net.cpp:148] Top shape: 100 4096 (409600)
I0403 13:07:21.317409 31422 net.cpp:156] Memory required for data: 831526000
I0403 13:07:21.317425 31422 layer_factory.hpp:77] Creating layer fc8_plantvillage
I0403 13:07:21.317452 31422 net.cpp:91] Creating Layer fc8_plantvillage
I0403 13:07:21.317471 31422 net.cpp:425] fc8_plantvillage <- fc7
I0403 13:07:21.317495 31422 net.cpp:399] fc8_plantvillage -> fc8_plantvillage
I0403 13:07:21.324813 31422 net.cpp:141] Setting up fc8_plantvillage
I0403 13:07:21.324867 31422 net.cpp:148] Top shape: 100 38 (3800)
I0403 13:07:21.324883 31422 net.cpp:156] Memory required for data: 831541200
I0403 13:07:21.324905 31422 layer_factory.hpp:77] Creating layer fc8_plantvillage_fc8_plantvillage_0_split
I0403 13:07:21.324928 31422 net.cpp:91] Creating Layer fc8_plantvillage_fc8_plantvillage_0_split
I0403 13:07:21.324949 31422 net.cpp:425] fc8_plantvillage_fc8_plantvillage_0_split <- fc8_plantvillage
I0403 13:07:21.324975 31422 net.cpp:399] fc8_plantvillage_fc8_plantvillage_0_split -> fc8_plantvillage_fc8_plantvillage_0_split_0
I0403 13:07:21.325001 31422 net.cpp:399] fc8_plantvillage_fc8_plantvillage_0_split -> fc8_plantvillage_fc8_plantvillage_0_split_1
I0403 13:07:21.325024 31422 net.cpp:399] fc8_plantvillage_fc8_plantvillage_0_split -> fc8_plantvillage_fc8_plantvillage_0_split_2
I0403 13:07:21.325109 31422 net.cpp:141] Setting up fc8_plantvillage_fc8_plantvillage_0_split
I0403 13:07:21.325135 31422 net.cpp:148] Top shape: 100 38 (3800)
I0403 13:07:21.325155 31422 net.cpp:148] Top shape: 100 38 (3800)
I0403 13:07:21.325175 31422 net.cpp:148] Top shape: 100 38 (3800)
I0403 13:07:21.325192 31422 net.cpp:156] Memory required for data: 831586800
I0403 13:07:21.325217 31422 layer_factory.hpp:77] Creating layer prob
I0403 13:07:21.325242 31422 net.cpp:91] Creating Layer prob
I0403 13:07:21.325260 31422 net.cpp:425] prob <- fc8_plantvillage_fc8_plantvillage_0_split_0
I0403 13:07:21.325284 31422 net.cpp:399] prob -> prob
I0403 13:07:21.325553 31422 net.cpp:141] Setting up prob
I0403 13:07:21.325587 31422 net.cpp:148] Top shape: 100 38 (3800)
I0403 13:07:21.325604 31422 net.cpp:156] Memory required for data: 831602000
I0403 13:07:21.325623 31422 layer_factory.hpp:77] Creating layer hdf5out
I0403 13:07:21.325646 31422 net.cpp:91] Creating Layer hdf5out
I0403 13:07:21.325664 31422 net.cpp:425] hdf5out <- prob
I0403 13:07:21.325683 31422 net.cpp:425] hdf5out <- label_data_1_split_0
I0403 13:07:21.328016 31422 net.cpp:141] Setting up hdf5out
…
