…
I0403 13:06:09.946303 31395 net.cpp:313] The NetState phase (1) differed from the phase (0) specified by a rule in layer data
I0403 13:06:09.946609 31395 net.cpp:49] Initializing net from parameters: 
state {
  phase: TEST
}
layer {
  name: "data"
  type: "Data"
  top: "data"
  top: "label"
  include {
    phase: TEST
  }
  transform_param {
    crop_size: 227
    mean_file: "/home/mohanty/data/final_dataset/lmdb/grayscale-40-60/mean.binaryproto"
  }
  data_param {
    source: "/home/mohanty/data/final_dataset/lmdb/grayscale-40-60/test_db"
    batch_size: 100
    backend: LMDB
  }
}
layer {
  name: "conv1"
  type: "Convolution"
  bottom: "data"
  top: "conv1"
  param {
    lr_mult: 1
    decay_mult: 1
  }
  param {
    lr_mult: 2
    decay_mult: 0
  }
  convolution_param {
    num_output: 96
    kernel_size: 11
    stride: 4
    weight_filler {
      type: "gaussian"
      std: 0.01
    }
    bias_filler {
      type: "constant"
      value: 0
    }
  }
}
layer {
  name: "relu1"
  type: "ReLU"
  bottom: "conv1"
  top: "conv1"
}
layer {
  name: "norm1"
  type: "LRN"
  bottom: "conv1"
  top: "norm1"
  lrn_param {
    local_size: 5
    alpha: 0.0001
    beta: 0.75
  }
}
layer {
  name: "pool1"
  type: "Pooling"
  bottom: "norm1"
  top: "pool1"
  pooling_param {
    pool: MAX
    kernel_size: 3
    stride: 2
  }
}
layer {
  name: "conv2"
  type: "Convolution"
  bottom: "pool1"
  top: "conv2"
  param {
    lr_mult: 1
    decay_mult: 1
  }
  param {
    lr_mult: 2
    decay_mult: 0
  }
  convolution_param {
    num_output: 256
    pad: 2
    kernel_size: 5
    group: 2
    weight_filler {
      type: "gaussian"
      std: 0.01
    }
    bias_filler {
      type: "constant"
      value: 0.1
    }
  }
}
layer {
  name: "relu2"
  type: "ReLU"
  bottom: "conv2"
  top: "conv2"
}
layer {
  name: "norm2"
  type: "LRN"
  bottom: "conv2"
  top: "norm2"
  lrn_param {
    local_size: 5
    alpha: 0.0001
    beta: 0.75
  }
}
layer {
  name: "pool2"
  type: "Pooling"
  bottom: "norm2"
  top: "pool2"
  pooling_param {
    pool: MAX
    kernel_size: 3
    stride: 2
  }
}
layer {
  name: "conv3"
  type: "Convolution"
  bottom: "pool2"
  top: "conv3"
  param {
    lr_mult: 1
    decay_mult: 1
  }
  param {
    lr_mult: 2
    decay_mult: 0
  }
  convolution_param {
    num_output: 384
    pad: 1
    kernel_size: 3
    weight_filler {
      type: "gaussian"
      std: 0.01
    }
    bias_filler {
      type: "constant"
      value: 0
    }
  }
}
layer {
  name: "relu3"
  type: "ReLU"
  bottom: "conv3"
  top: "conv3"
}
layer {
  name: "conv4"
  type: "Convolution"
  bottom: "conv3"
  top: "conv4"
  param {
    lr_mult: 1
    decay_mult: 1
  }
  param {
    lr_mult: 2
    decay_mult: 0
  }
  convolution_param {
    num_output: 384
    pad: 1
    kernel_size: 3
    group: 2
    weight_filler {
      type: "gaussian"
      std: 0.01
    }
    bias_filler {
      type: "constant"
      value: 0.1
    }
  }
}
layer {
  name: "relu4"
  type: "ReLU"
  bottom: "conv4"
  top: "conv4"
}
layer {
  name: "conv5"
  type: "Convolution"
  bottom: "conv4"
  top: "conv5"
  param {
    lr_mult: 1
    decay_mult: 1
  }
  param {
    lr_mult: 2
    decay_mult: 0
  }
  convolution_param {
    num_output: 256
    pad: 1
    kernel_size: 3
    group: 2
    weight_filler {
      type: "gaussian"
      std: 0.01
    }
    bias_filler {
      type: "constant"
      value: 0.1
    }
  }
}
layer {
  name: "relu5"
  type: "ReLU"
  bottom: "conv5"
  top: "conv5"
}
layer {
  name: "pool5"
  type: "Pooling"
  bottom: "conv5"
  top: "pool5"
  pooling_param {
    pool: MAX
    kernel_size: 3
    stride: 2
  }
}
layer {
  name: "fc6"
  type: "InnerProduct"
  bottom: "pool5"
  top: "fc6"
  param {
    lr_mult: 1
    decay_mult: 1
  }
  param {
    lr_mult: 2
    decay_mult: 0
  }
  inner_product_param {
    num_output: 4096
    weight_filler {
      type: "gaussian"
      std: 0.005
    }
    bias_filler {
      type: "constant"
      value: 0.1
    }
  }
}
layer {
  name: "relu6"
  type: "ReLU"
  bottom: "fc6"
  top: "fc6"
}
layer {
  name: "drop6"
  type: "Dropout"
  bottom: "fc6"
  top: "fc6"
  dropout_param {
    dropout_ratio: 0.5
  }
}
layer {
  name: "fc7"
  type: "InnerProduct"
  bottom: "fc6"
  top: "fc7"
  param {
    lr_mult: 1
    decay_mult: 1
  }
  param {
    lr_mult: 2
    decay_mult: 0
  }
  inner_product_param {
    num_output: 4096
    weight_filler {
      type: "gaussian"
      std: 0.005
    }
    bias_filler {
      type: "constant"
      value: 0.1
    }
  }
}
layer {
  name: "relu7"
  type: "ReLU"
  bottom: "fc7"
  top: "fc7"
}
layer {
  name: "drop7"
  type: "Dropout"
  bottom: "fc7"
  top: "fc7"
  dropout_param {
    dropout_ratio: 0.5
  }
}
layer {
  name: "fc8_plantvillage"
  type: "InnerProduct"
  bottom: "fc7"
  top: "fc8_plantvillage"
  param {
    lr_mult: 1
    decay_mult: 1
  }
  param {
    lr_mult: 2
    decay_mult: 0
  }
  inner_product_param {
    num_output: 38
    weight_filler {
      type: "gaussian"
      std: 0.01
    }
    bias_filler {
      type: "constant"
      value: 0
    }
  }
}
layer {
  name: "prob"
  type: "Softmax"
  bottom: "fc8_plantvillage"
  top: "prob"
  include {
    phase: TEST
  }
}
layer {
  name: "hdf5out"
  type: "HDF5Output"
  bottom: "prob"
  bottom: "label"
  include {
    phase: TEST
  }
  hdf5_output_param {
    file_name: "hdf5_dumps/iter_6570.h5"
  }
}
layer {
  name: "loss"
  type: "SoftmaxWithLoss"
  bottom: "fc8_plantvillage"
  bottom: "label"
  top: "loss"
}
layer {
  name: "accuracy"
  type: "Accuracy"
  bottom: "fc8_plantvillage"
  bottom: "label"
  top: "accuracy"
  include {
    phase: TEST
  }
}
I0403 13:06:09.947178 31395 layer_factory.hpp:77] Creating layer data
I0403 13:06:09.947834 31395 net.cpp:91] Creating Layer data
I0403 13:06:09.947865 31395 net.cpp:399] data -> data
I0403 13:06:09.947916 31395 net.cpp:399] data -> label
I0403 13:06:09.947954 31395 data_transformer.cpp:25] Loading mean file from: /home/mohanty/data/final_dataset/lmdb/grayscale-40-60/mean.binaryproto
I0403 13:06:09.950593 31398 db_lmdb.cpp:38] Opened lmdb /home/mohanty/data/final_dataset/lmdb/grayscale-40-60/test_db
I0403 13:06:09.962601 31395 data_layer.cpp:41] output data size: 100,3,227,227
I0403 13:06:10.083935 31395 net.cpp:141] Setting up data
I0403 13:06:10.084043 31395 net.cpp:148] Top shape: 100 3 227 227 (15458700)
I0403 13:06:10.084065 31395 net.cpp:148] Top shape: 100 (100)
I0403 13:06:10.084080 31395 net.cpp:156] Memory required for data: 61835200
I0403 13:06:10.084108 31395 layer_factory.hpp:77] Creating layer label_data_1_split
I0403 13:06:10.084134 31395 net.cpp:91] Creating Layer label_data_1_split
I0403 13:06:10.084151 31395 net.cpp:425] label_data_1_split <- label
I0403 13:06:10.084183 31395 net.cpp:399] label_data_1_split -> label_data_1_split_0
I0403 13:06:10.084215 31395 net.cpp:399] label_data_1_split -> label_data_1_split_1
I0403 13:06:10.084238 31395 net.cpp:399] label_data_1_split -> label_data_1_split_2
I0403 13:06:10.084302 31395 net.cpp:141] Setting up label_data_1_split
I0403 13:06:10.084326 31395 net.cpp:148] Top shape: 100 (100)
I0403 13:06:10.084342 31395 net.cpp:148] Top shape: 100 (100)
I0403 13:06:10.084358 31395 net.cpp:148] Top shape: 100 (100)
I0403 13:06:10.084372 31395 net.cpp:156] Memory required for data: 61836400
I0403 13:06:10.084388 31395 layer_factory.hpp:77] Creating layer conv1
I0403 13:06:10.084420 31395 net.cpp:91] Creating Layer conv1
I0403 13:06:10.084440 31395 net.cpp:425] conv1 <- data
I0403 13:06:10.084460 31395 net.cpp:399] conv1 -> conv1
I0403 13:06:10.229063 31395 net.cpp:141] Setting up conv1
I0403 13:06:10.229151 31395 net.cpp:148] Top shape: 100 96 55 55 (29040000)
I0403 13:06:10.229169 31395 net.cpp:156] Memory required for data: 177996400
I0403 13:06:10.229207 31395 layer_factory.hpp:77] Creating layer relu1
I0403 13:06:10.229238 31395 net.cpp:91] Creating Layer relu1
I0403 13:06:10.229257 31395 net.cpp:425] relu1 <- conv1
I0403 13:06:10.229279 31395 net.cpp:386] relu1 -> conv1 (in-place)
I0403 13:06:10.229535 31395 net.cpp:141] Setting up relu1
I0403 13:06:10.229562 31395 net.cpp:148] Top shape: 100 96 55 55 (29040000)
I0403 13:06:10.229611 31395 net.cpp:156] Memory required for data: 294156400
I0403 13:06:10.229629 31395 layer_factory.hpp:77] Creating layer norm1
I0403 13:06:10.229656 31395 net.cpp:91] Creating Layer norm1
I0403 13:06:10.229674 31395 net.cpp:425] norm1 <- conv1
I0403 13:06:10.229693 31395 net.cpp:399] norm1 -> norm1
I0403 13:06:10.230047 31395 net.cpp:141] Setting up norm1
I0403 13:06:10.230077 31395 net.cpp:148] Top shape: 100 96 55 55 (29040000)
I0403 13:06:10.230095 31395 net.cpp:156] Memory required for data: 410316400
I0403 13:06:10.230110 31395 layer_factory.hpp:77] Creating layer pool1
I0403 13:06:10.230134 31395 net.cpp:91] Creating Layer pool1
I0403 13:06:10.230150 31395 net.cpp:425] pool1 <- norm1
I0403 13:06:10.230171 31395 net.cpp:399] pool1 -> pool1
I0403 13:06:10.230248 31395 net.cpp:141] Setting up pool1
I0403 13:06:10.230273 31395 net.cpp:148] Top shape: 100 96 27 27 (6998400)
I0403 13:06:10.230288 31395 net.cpp:156] Memory required for data: 438310000
I0403 13:06:10.230304 31395 layer_factory.hpp:77] Creating layer conv2
I0403 13:06:10.230330 31395 net.cpp:91] Creating Layer conv2
I0403 13:06:10.230348 31395 net.cpp:425] conv2 <- pool1
I0403 13:06:10.230370 31395 net.cpp:399] conv2 -> conv2
I0403 13:06:10.245748 31395 net.cpp:141] Setting up conv2
I0403 13:06:10.245802 31395 net.cpp:148] Top shape: 100 256 27 27 (18662400)
I0403 13:06:10.245820 31395 net.cpp:156] Memory required for data: 512959600
I0403 13:06:10.245844 31395 layer_factory.hpp:77] Creating layer relu2
I0403 13:06:10.245865 31395 net.cpp:91] Creating Layer relu2
I0403 13:06:10.245882 31395 net.cpp:425] relu2 <- conv2
I0403 13:06:10.245903 31395 net.cpp:386] relu2 -> conv2 (in-place)
I0403 13:06:10.246191 31395 net.cpp:141] Setting up relu2
I0403 13:06:10.246220 31395 net.cpp:148] Top shape: 100 256 27 27 (18662400)
I0403 13:06:10.246237 31395 net.cpp:156] Memory required for data: 587609200
I0403 13:06:10.246253 31395 layer_factory.hpp:77] Creating layer norm2
I0403 13:06:10.246276 31395 net.cpp:91] Creating Layer norm2
I0403 13:06:10.246294 31395 net.cpp:425] norm2 <- conv2
I0403 13:06:10.246312 31395 net.cpp:399] norm2 -> norm2
I0403 13:06:10.246507 31395 net.cpp:141] Setting up norm2
I0403 13:06:10.246536 31395 net.cpp:148] Top shape: 100 256 27 27 (18662400)
I0403 13:06:10.246552 31395 net.cpp:156] Memory required for data: 662258800
I0403 13:06:10.246568 31395 layer_factory.hpp:77] Creating layer pool2
I0403 13:06:10.246587 31395 net.cpp:91] Creating Layer pool2
I0403 13:06:10.246603 31395 net.cpp:425] pool2 <- norm2
I0403 13:06:10.246623 31395 net.cpp:399] pool2 -> pool2
I0403 13:06:10.246675 31395 net.cpp:141] Setting up pool2
I0403 13:06:10.246700 31395 net.cpp:148] Top shape: 100 256 13 13 (4326400)
I0403 13:06:10.246717 31395 net.cpp:156] Memory required for data: 679564400
I0403 13:06:10.246732 31395 layer_factory.hpp:77] Creating layer conv3
I0403 13:06:10.246760 31395 net.cpp:91] Creating Layer conv3
I0403 13:06:10.246778 31395 net.cpp:425] conv3 <- pool2
I0403 13:06:10.246798 31395 net.cpp:399] conv3 -> conv3
I0403 13:06:10.285850 31395 net.cpp:141] Setting up conv3
I0403 13:06:10.285935 31395 net.cpp:148] Top shape: 100 384 13 13 (6489600)
I0403 13:06:10.285953 31395 net.cpp:156] Memory required for data: 705522800
I0403 13:06:10.285979 31395 layer_factory.hpp:77] Creating layer relu3
I0403 13:06:10.286003 31395 net.cpp:91] Creating Layer relu3
I0403 13:06:10.286020 31395 net.cpp:425] relu3 <- conv3
I0403 13:06:10.286041 31395 net.cpp:386] relu3 -> conv3 (in-place)
I0403 13:06:10.286322 31395 net.cpp:141] Setting up relu3
I0403 13:06:10.286355 31395 net.cpp:148] Top shape: 100 384 13 13 (6489600)
I0403 13:06:10.286372 31395 net.cpp:156] Memory required for data: 731481200
I0403 13:06:10.286391 31395 layer_factory.hpp:77] Creating layer conv4
I0403 13:06:10.286419 31395 net.cpp:91] Creating Layer conv4
I0403 13:06:10.286438 31395 net.cpp:425] conv4 <- conv3
I0403 13:06:10.286458 31395 net.cpp:399] conv4 -> conv4
I0403 13:06:10.316452 31395 net.cpp:141] Setting up conv4
I0403 13:06:10.316511 31395 net.cpp:148] Top shape: 100 384 13 13 (6489600)
I0403 13:06:10.316562 31395 net.cpp:156] Memory required for data: 757439600
I0403 13:06:10.316584 31395 layer_factory.hpp:77] Creating layer relu4
I0403 13:06:10.316609 31395 net.cpp:91] Creating Layer relu4
I0403 13:06:10.316627 31395 net.cpp:425] relu4 <- conv4
I0403 13:06:10.316647 31395 net.cpp:386] relu4 -> conv4 (in-place)
I0403 13:06:10.316920 31395 net.cpp:141] Setting up relu4
I0403 13:06:10.316946 31395 net.cpp:148] Top shape: 100 384 13 13 (6489600)
I0403 13:06:10.316962 31395 net.cpp:156] Memory required for data: 783398000
I0403 13:06:10.316977 31395 layer_factory.hpp:77] Creating layer conv5
I0403 13:06:10.317003 31395 net.cpp:91] Creating Layer conv5
I0403 13:06:10.317019 31395 net.cpp:425] conv5 <- conv4
I0403 13:06:10.317040 31395 net.cpp:399] conv5 -> conv5
I0403 13:06:10.337596 31395 net.cpp:141] Setting up conv5
I0403 13:06:10.337676 31395 net.cpp:148] Top shape: 100 256 13 13 (4326400)
I0403 13:06:10.337695 31395 net.cpp:156] Memory required for data: 800703600
I0403 13:06:10.337724 31395 layer_factory.hpp:77] Creating layer relu5
I0403 13:06:10.337749 31395 net.cpp:91] Creating Layer relu5
I0403 13:06:10.337766 31395 net.cpp:425] relu5 <- conv5
I0403 13:06:10.337787 31395 net.cpp:386] relu5 -> conv5 (in-place)
I0403 13:06:10.338073 31395 net.cpp:141] Setting up relu5
I0403 13:06:10.338102 31395 net.cpp:148] Top shape: 100 256 13 13 (4326400)
I0403 13:06:10.338117 31395 net.cpp:156] Memory required for data: 818009200
I0403 13:06:10.338132 31395 layer_factory.hpp:77] Creating layer pool5
I0403 13:06:10.338155 31395 net.cpp:91] Creating Layer pool5
I0403 13:06:10.338170 31395 net.cpp:425] pool5 <- conv5
I0403 13:06:10.338194 31395 net.cpp:399] pool5 -> pool5
I0403 13:06:10.338255 31395 net.cpp:141] Setting up pool5
I0403 13:06:10.338280 31395 net.cpp:148] Top shape: 100 256 6 6 (921600)
I0403 13:06:10.338296 31395 net.cpp:156] Memory required for data: 821695600
I0403 13:06:10.338310 31395 layer_factory.hpp:77] Creating layer fc6
I0403 13:06:10.338337 31395 net.cpp:91] Creating Layer fc6
I0403 13:06:10.338354 31395 net.cpp:425] fc6 <- pool5
I0403 13:06:10.338374 31395 net.cpp:399] fc6 -> fc6
I0403 13:06:11.970063 31395 net.cpp:141] Setting up fc6
I0403 13:06:11.970113 31395 net.cpp:148] Top shape: 100 4096 (409600)
I0403 13:06:11.970134 31395 net.cpp:156] Memory required for data: 823334000
I0403 13:06:11.970156 31395 layer_factory.hpp:77] Creating layer relu6
I0403 13:06:11.970183 31395 net.cpp:91] Creating Layer relu6
I0403 13:06:11.970202 31395 net.cpp:425] relu6 <- fc6
I0403 13:06:11.970222 31395 net.cpp:386] relu6 -> fc6 (in-place)
I0403 13:06:11.970441 31395 net.cpp:141] Setting up relu6
I0403 13:06:11.970468 31395 net.cpp:148] Top shape: 100 4096 (409600)
I0403 13:06:11.970485 31395 net.cpp:156] Memory required for data: 824972400
I0403 13:06:11.970500 31395 layer_factory.hpp:77] Creating layer drop6
I0403 13:06:11.970520 31395 net.cpp:91] Creating Layer drop6
I0403 13:06:11.970536 31395 net.cpp:425] drop6 <- fc6
I0403 13:06:11.970556 31395 net.cpp:386] drop6 -> fc6 (in-place)
I0403 13:06:11.970607 31395 net.cpp:141] Setting up drop6
I0403 13:06:11.970630 31395 net.cpp:148] Top shape: 100 4096 (409600)
I0403 13:06:11.970645 31395 net.cpp:156] Memory required for data: 826610800
I0403 13:06:11.970659 31395 layer_factory.hpp:77] Creating layer fc7
I0403 13:06:11.970684 31395 net.cpp:91] Creating Layer fc7
I0403 13:06:11.970701 31395 net.cpp:425] fc7 <- fc6
I0403 13:06:11.970722 31395 net.cpp:399] fc7 -> fc7
I0403 13:06:12.663586 31395 net.cpp:141] Setting up fc7
I0403 13:06:12.663672 31395 net.cpp:148] Top shape: 100 4096 (409600)
I0403 13:06:12.663688 31395 net.cpp:156] Memory required for data: 828249200
I0403 13:06:12.663709 31395 layer_factory.hpp:77] Creating layer relu7
I0403 13:06:12.663732 31395 net.cpp:91] Creating Layer relu7
I0403 13:06:12.663748 31395 net.cpp:425] relu7 <- fc7
I0403 13:06:12.663766 31395 net.cpp:386] relu7 -> fc7 (in-place)
I0403 13:06:12.664170 31395 net.cpp:141] Setting up relu7
I0403 13:06:12.664204 31395 net.cpp:148] Top shape: 100 4096 (409600)
I0403 13:06:12.664263 31395 net.cpp:156] Memory required for data: 829887600
I0403 13:06:12.664280 31395 layer_factory.hpp:77] Creating layer drop7
I0403 13:06:12.664299 31395 net.cpp:91] Creating Layer drop7
I0403 13:06:12.664314 31395 net.cpp:425] drop7 <- fc7
I0403 13:06:12.664330 31395 net.cpp:386] drop7 -> fc7 (in-place)
I0403 13:06:12.664376 31395 net.cpp:141] Setting up drop7
I0403 13:06:12.664397 31395 net.cpp:148] Top shape: 100 4096 (409600)
I0403 13:06:12.664412 31395 net.cpp:156] Memory required for data: 831526000
I0403 13:06:12.664427 31395 layer_factory.hpp:77] Creating layer fc8_plantvillage
I0403 13:06:12.664448 31395 net.cpp:91] Creating Layer fc8_plantvillage
I0403 13:06:12.664465 31395 net.cpp:425] fc8_plantvillage <- fc7
I0403 13:06:12.664484 31395 net.cpp:399] fc8_plantvillage -> fc8_plantvillage
I0403 13:06:12.671342 31395 net.cpp:141] Setting up fc8_plantvillage
I0403 13:06:12.671372 31395 net.cpp:148] Top shape: 100 38 (3800)
I0403 13:06:12.671389 31395 net.cpp:156] Memory required for data: 831541200
I0403 13:06:12.671407 31395 layer_factory.hpp:77] Creating layer fc8_plantvillage_fc8_plantvillage_0_split
I0403 13:06:12.671427 31395 net.cpp:91] Creating Layer fc8_plantvillage_fc8_plantvillage_0_split
I0403 13:06:12.671443 31395 net.cpp:425] fc8_plantvillage_fc8_plantvillage_0_split <- fc8_plantvillage
I0403 13:06:12.671464 31395 net.cpp:399] fc8_plantvillage_fc8_plantvillage_0_split -> fc8_plantvillage_fc8_plantvillage_0_split_0
I0403 13:06:12.671494 31395 net.cpp:399] fc8_plantvillage_fc8_plantvillage_0_split -> fc8_plantvillage_fc8_plantvillage_0_split_1
I0403 13:06:12.671514 31395 net.cpp:399] fc8_plantvillage_fc8_plantvillage_0_split -> fc8_plantvillage_fc8_plantvillage_0_split_2
I0403 13:06:12.671593 31395 net.cpp:141] Setting up fc8_plantvillage_fc8_plantvillage_0_split
I0403 13:06:12.671617 31395 net.cpp:148] Top shape: 100 38 (3800)
I0403 13:06:12.671633 31395 net.cpp:148] Top shape: 100 38 (3800)
I0403 13:06:12.671649 31395 net.cpp:148] Top shape: 100 38 (3800)
I0403 13:06:12.671663 31395 net.cpp:156] Memory required for data: 831586800
I0403 13:06:12.671679 31395 layer_factory.hpp:77] Creating layer prob
I0403 13:06:12.671700 31395 net.cpp:91] Creating Layer prob
I0403 13:06:12.671717 31395 net.cpp:425] prob <- fc8_plantvillage_fc8_plantvillage_0_split_0
I0403 13:06:12.671736 31395 net.cpp:399] prob -> prob
I0403 13:06:12.671963 31395 net.cpp:141] Setting up prob
I0403 13:06:12.671993 31395 net.cpp:148] Top shape: 100 38 (3800)
I0403 13:06:12.672008 31395 net.cpp:156] Memory required for data: 831602000
I0403 13:06:12.672024 31395 layer_factory.hpp:77] Creating layer hdf5out
I0403 13:06:12.672044 31395 net.cpp:91] Creating Layer hdf5out
I0403 13:06:12.672060 31395 net.cpp:425] hdf5out <- prob
I0403 13:06:12.672077 31395 net.cpp:425] hdf5out <- label_data_1_split_0
I0403 13:06:12.674341 31395 net.cpp:141] Setting up hdf5out
…
