…
I0403 12:58:25.348059 31073 net.cpp:313] The NetState phase (1) differed from the phase (0) specified by a rule in layer data
I0403 12:58:25.348383 31073 net.cpp:49] Initializing net from parameters: 
state {
  phase: TEST
}
layer {
  name: "data"
  type: "Data"
  top: "data"
  top: "label"
  include {
    phase: TEST
  }
  transform_param {
    crop_size: 227
    mean_file: "/home/mohanty/data/final_dataset/lmdb/grayscale-40-60/mean.binaryproto"
  }
  data_param {
    source: "/home/mohanty/data/final_dataset/lmdb/grayscale-40-60/test_db"
    batch_size: 100
    backend: LMDB
  }
}
layer {
  name: "conv1"
  type: "Convolution"
  bottom: "data"
  top: "conv1"
  param {
    lr_mult: 1
    decay_mult: 1
  }
  param {
    lr_mult: 2
    decay_mult: 0
  }
  convolution_param {
    num_output: 96
    kernel_size: 11
    stride: 4
    weight_filler {
      type: "gaussian"
      std: 0.01
    }
    bias_filler {
      type: "constant"
      value: 0
    }
  }
}
layer {
  name: "relu1"
  type: "ReLU"
  bottom: "conv1"
  top: "conv1"
}
layer {
  name: "norm1"
  type: "LRN"
  bottom: "conv1"
  top: "norm1"
  lrn_param {
    local_size: 5
    alpha: 0.0001
    beta: 0.75
  }
}
layer {
  name: "pool1"
  type: "Pooling"
  bottom: "norm1"
  top: "pool1"
  pooling_param {
    pool: MAX
    kernel_size: 3
    stride: 2
  }
}
layer {
  name: "conv2"
  type: "Convolution"
  bottom: "pool1"
  top: "conv2"
  param {
    lr_mult: 1
    decay_mult: 1
  }
  param {
    lr_mult: 2
    decay_mult: 0
  }
  convolution_param {
    num_output: 256
    pad: 2
    kernel_size: 5
    group: 2
    weight_filler {
      type: "gaussian"
      std: 0.01
    }
    bias_filler {
      type: "constant"
      value: 0.1
    }
  }
}
layer {
  name: "relu2"
  type: "ReLU"
  bottom: "conv2"
  top: "conv2"
}
layer {
  name: "norm2"
  type: "LRN"
  bottom: "conv2"
  top: "norm2"
  lrn_param {
    local_size: 5
    alpha: 0.0001
    beta: 0.75
  }
}
layer {
  name: "pool2"
  type: "Pooling"
  bottom: "norm2"
  top: "pool2"
  pooling_param {
    pool: MAX
    kernel_size: 3
    stride: 2
  }
}
layer {
  name: "conv3"
  type: "Convolution"
  bottom: "pool2"
  top: "conv3"
  param {
    lr_mult: 1
    decay_mult: 1
  }
  param {
    lr_mult: 2
    decay_mult: 0
  }
  convolution_param {
    num_output: 384
    pad: 1
    kernel_size: 3
    weight_filler {
      type: "gaussian"
      std: 0.01
    }
    bias_filler {
      type: "constant"
      value: 0
    }
  }
}
layer {
  name: "relu3"
  type: "ReLU"
  bottom: "conv3"
  top: "conv3"
}
layer {
  name: "conv4"
  type: "Convolution"
  bottom: "conv3"
  top: "conv4"
  param {
    lr_mult: 1
    decay_mult: 1
  }
  param {
    lr_mult: 2
    decay_mult: 0
  }
  convolution_param {
    num_output: 384
    pad: 1
    kernel_size: 3
    group: 2
    weight_filler {
      type: "gaussian"
      std: 0.01
    }
    bias_filler {
      type: "constant"
      value: 0.1
    }
  }
}
layer {
  name: "relu4"
  type: "ReLU"
  bottom: "conv4"
  top: "conv4"
}
layer {
  name: "conv5"
  type: "Convolution"
  bottom: "conv4"
  top: "conv5"
  param {
    lr_mult: 1
    decay_mult: 1
  }
  param {
    lr_mult: 2
    decay_mult: 0
  }
  convolution_param {
    num_output: 256
    pad: 1
    kernel_size: 3
    group: 2
    weight_filler {
      type: "gaussian"
      std: 0.01
    }
    bias_filler {
      type: "constant"
      value: 0.1
    }
  }
}
layer {
  name: "relu5"
  type: "ReLU"
  bottom: "conv5"
  top: "conv5"
}
layer {
  name: "pool5"
  type: "Pooling"
  bottom: "conv5"
  top: "pool5"
  pooling_param {
    pool: MAX
    kernel_size: 3
    stride: 2
  }
}
layer {
  name: "fc6"
  type: "InnerProduct"
  bottom: "pool5"
  top: "fc6"
  param {
    lr_mult: 1
    decay_mult: 1
  }
  param {
    lr_mult: 2
    decay_mult: 0
  }
  inner_product_param {
    num_output: 4096
    weight_filler {
      type: "gaussian"
      std: 0.005
    }
    bias_filler {
      type: "constant"
      value: 0.1
    }
  }
}
layer {
  name: "relu6"
  type: "ReLU"
  bottom: "fc6"
  top: "fc6"
}
layer {
  name: "drop6"
  type: "Dropout"
  bottom: "fc6"
  top: "fc6"
  dropout_param {
    dropout_ratio: 0.5
  }
}
layer {
  name: "fc7"
  type: "InnerProduct"
  bottom: "fc6"
  top: "fc7"
  param {
    lr_mult: 1
    decay_mult: 1
  }
  param {
    lr_mult: 2
    decay_mult: 0
  }
  inner_product_param {
    num_output: 4096
    weight_filler {
      type: "gaussian"
      std: 0.005
    }
    bias_filler {
      type: "constant"
      value: 0.1
    }
  }
}
layer {
  name: "relu7"
  type: "ReLU"
  bottom: "fc7"
  top: "fc7"
}
layer {
  name: "drop7"
  type: "Dropout"
  bottom: "fc7"
  top: "fc7"
  dropout_param {
    dropout_ratio: 0.5
  }
}
layer {
  name: "fc8_plantvillage"
  type: "InnerProduct"
  bottom: "fc7"
  top: "fc8_plantvillage"
  param {
    lr_mult: 1
    decay_mult: 1
  }
  param {
    lr_mult: 2
    decay_mult: 0
  }
  inner_product_param {
    num_output: 38
    weight_filler {
      type: "gaussian"
      std: 0.01
    }
    bias_filler {
      type: "constant"
      value: 0
    }
  }
}
layer {
  name: "prob"
  type: "Softmax"
  bottom: "fc8_plantvillage"
  top: "prob"
  include {
    phase: TEST
  }
}
layer {
  name: "hdf5out"
  type: "HDF5Output"
  bottom: "prob"
  bottom: "label"
  include {
    phase: TEST
  }
  hdf5_output_param {
    file_name: "hdf5_dumps/iter_5037.h5"
  }
}
layer {
  name: "loss"
  type: "SoftmaxWithLoss"
  bottom: "fc8_plantvillage"
  bottom: "label"
  top: "loss"
}
layer {
  name: "accuracy"
  type: "Accuracy"
  bottom: "fc8_plantvillage"
  bottom: "label"
  top: "accuracy"
  include {
    phase: TEST
  }
}
I0403 12:58:25.348922 31073 layer_factory.hpp:77] Creating layer data
I0403 12:58:25.349577 31073 net.cpp:91] Creating Layer data
I0403 12:58:25.349611 31073 net.cpp:399] data -> data
I0403 12:58:25.349664 31073 net.cpp:399] data -> label
I0403 12:58:25.349702 31073 data_transformer.cpp:25] Loading mean file from: /home/mohanty/data/final_dataset/lmdb/grayscale-40-60/mean.binaryproto
I0403 12:58:25.352342 31076 db_lmdb.cpp:38] Opened lmdb /home/mohanty/data/final_dataset/lmdb/grayscale-40-60/test_db
I0403 12:58:25.364294 31073 data_layer.cpp:41] output data size: 100,3,227,227
I0403 12:58:25.481866 31073 net.cpp:141] Setting up data
I0403 12:58:25.481927 31073 net.cpp:148] Top shape: 100 3 227 227 (15458700)
I0403 12:58:25.481951 31073 net.cpp:148] Top shape: 100 (100)
I0403 12:58:25.481967 31073 net.cpp:156] Memory required for data: 61835200
I0403 12:58:25.481997 31073 layer_factory.hpp:77] Creating layer label_data_1_split
I0403 12:58:25.482023 31073 net.cpp:91] Creating Layer label_data_1_split
I0403 12:58:25.482043 31073 net.cpp:425] label_data_1_split <- label
I0403 12:58:25.482074 31073 net.cpp:399] label_data_1_split -> label_data_1_split_0
I0403 12:58:25.482102 31073 net.cpp:399] label_data_1_split -> label_data_1_split_1
I0403 12:58:25.482123 31073 net.cpp:399] label_data_1_split -> label_data_1_split_2
I0403 12:58:25.482190 31073 net.cpp:141] Setting up label_data_1_split
I0403 12:58:25.482228 31073 net.cpp:148] Top shape: 100 (100)
I0403 12:58:25.482249 31073 net.cpp:148] Top shape: 100 (100)
I0403 12:58:25.482265 31073 net.cpp:148] Top shape: 100 (100)
I0403 12:58:25.482280 31073 net.cpp:156] Memory required for data: 61836400
I0403 12:58:25.482295 31073 layer_factory.hpp:77] Creating layer conv1
I0403 12:58:25.482326 31073 net.cpp:91] Creating Layer conv1
I0403 12:58:25.482345 31073 net.cpp:425] conv1 <- data
I0403 12:58:25.482364 31073 net.cpp:399] conv1 -> conv1
I0403 12:58:25.629166 31073 net.cpp:141] Setting up conv1
I0403 12:58:25.629207 31073 net.cpp:148] Top shape: 100 96 55 55 (29040000)
I0403 12:58:25.629230 31073 net.cpp:156] Memory required for data: 177996400
I0403 12:58:25.629261 31073 layer_factory.hpp:77] Creating layer relu1
I0403 12:58:25.629287 31073 net.cpp:91] Creating Layer relu1
I0403 12:58:25.629305 31073 net.cpp:425] relu1 <- conv1
I0403 12:58:25.629324 31073 net.cpp:386] relu1 -> conv1 (in-place)
I0403 12:58:25.629591 31073 net.cpp:141] Setting up relu1
I0403 12:58:25.629618 31073 net.cpp:148] Top shape: 100 96 55 55 (29040000)
I0403 12:58:25.629665 31073 net.cpp:156] Memory required for data: 294156400
I0403 12:58:25.629683 31073 layer_factory.hpp:77] Creating layer norm1
I0403 12:58:25.629710 31073 net.cpp:91] Creating Layer norm1
I0403 12:58:25.629729 31073 net.cpp:425] norm1 <- conv1
I0403 12:58:25.629747 31073 net.cpp:399] norm1 -> norm1
I0403 12:58:25.630058 31073 net.cpp:141] Setting up norm1
I0403 12:58:25.630084 31073 net.cpp:148] Top shape: 100 96 55 55 (29040000)
I0403 12:58:25.630100 31073 net.cpp:156] Memory required for data: 410316400
I0403 12:58:25.630116 31073 layer_factory.hpp:77] Creating layer pool1
I0403 12:58:25.630138 31073 net.cpp:91] Creating Layer pool1
I0403 12:58:25.630156 31073 net.cpp:425] pool1 <- norm1
I0403 12:58:25.630173 31073 net.cpp:399] pool1 -> pool1
I0403 12:58:25.630241 31073 net.cpp:141] Setting up pool1
I0403 12:58:25.630265 31073 net.cpp:148] Top shape: 100 96 27 27 (6998400)
I0403 12:58:25.630280 31073 net.cpp:156] Memory required for data: 438310000
I0403 12:58:25.630295 31073 layer_factory.hpp:77] Creating layer conv2
I0403 12:58:25.630318 31073 net.cpp:91] Creating Layer conv2
I0403 12:58:25.630334 31073 net.cpp:425] conv2 <- pool1
I0403 12:58:25.630353 31073 net.cpp:399] conv2 -> conv2
I0403 12:58:25.646457 31073 net.cpp:141] Setting up conv2
I0403 12:58:25.646517 31073 net.cpp:148] Top shape: 100 256 27 27 (18662400)
I0403 12:58:25.646533 31073 net.cpp:156] Memory required for data: 512959600
I0403 12:58:25.646559 31073 layer_factory.hpp:77] Creating layer relu2
I0403 12:58:25.646579 31073 net.cpp:91] Creating Layer relu2
I0403 12:58:25.646596 31073 net.cpp:425] relu2 <- conv2
I0403 12:58:25.646613 31073 net.cpp:386] relu2 -> conv2 (in-place)
I0403 12:58:25.646888 31073 net.cpp:141] Setting up relu2
I0403 12:58:25.646929 31073 net.cpp:148] Top shape: 100 256 27 27 (18662400)
I0403 12:58:25.646945 31073 net.cpp:156] Memory required for data: 587609200
I0403 12:58:25.646961 31073 layer_factory.hpp:77] Creating layer norm2
I0403 12:58:25.646981 31073 net.cpp:91] Creating Layer norm2
I0403 12:58:25.646997 31073 net.cpp:425] norm2 <- conv2
I0403 12:58:25.647017 31073 net.cpp:399] norm2 -> norm2
I0403 12:58:25.647236 31073 net.cpp:141] Setting up norm2
I0403 12:58:25.647263 31073 net.cpp:148] Top shape: 100 256 27 27 (18662400)
I0403 12:58:25.647276 31073 net.cpp:156] Memory required for data: 662258800
I0403 12:58:25.647291 31073 layer_factory.hpp:77] Creating layer pool2
I0403 12:58:25.647311 31073 net.cpp:91] Creating Layer pool2
I0403 12:58:25.647327 31073 net.cpp:425] pool2 <- norm2
I0403 12:58:25.647344 31073 net.cpp:399] pool2 -> pool2
I0403 12:58:25.647397 31073 net.cpp:141] Setting up pool2
I0403 12:58:25.647419 31073 net.cpp:148] Top shape: 100 256 13 13 (4326400)
I0403 12:58:25.647434 31073 net.cpp:156] Memory required for data: 679564400
I0403 12:58:25.647449 31073 layer_factory.hpp:77] Creating layer conv3
I0403 12:58:25.647475 31073 net.cpp:91] Creating Layer conv3
I0403 12:58:25.647493 31073 net.cpp:425] conv3 <- pool2
I0403 12:58:25.647513 31073 net.cpp:399] conv3 -> conv3
I0403 12:58:25.689221 31073 net.cpp:141] Setting up conv3
I0403 12:58:25.689304 31073 net.cpp:148] Top shape: 100 384 13 13 (6489600)
I0403 12:58:25.689322 31073 net.cpp:156] Memory required for data: 705522800
I0403 12:58:25.689348 31073 layer_factory.hpp:77] Creating layer relu3
I0403 12:58:25.689374 31073 net.cpp:91] Creating Layer relu3
I0403 12:58:25.689393 31073 net.cpp:425] relu3 <- conv3
I0403 12:58:25.689412 31073 net.cpp:386] relu3 -> conv3 (in-place)
I0403 12:58:25.689688 31073 net.cpp:141] Setting up relu3
I0403 12:58:25.689716 31073 net.cpp:148] Top shape: 100 384 13 13 (6489600)
I0403 12:58:25.689731 31073 net.cpp:156] Memory required for data: 731481200
I0403 12:58:25.689748 31073 layer_factory.hpp:77] Creating layer conv4
I0403 12:58:25.689774 31073 net.cpp:91] Creating Layer conv4
I0403 12:58:25.689793 31073 net.cpp:425] conv4 <- conv3
I0403 12:58:25.689813 31073 net.cpp:399] conv4 -> conv4
I0403 12:58:25.722414 31073 net.cpp:141] Setting up conv4
I0403 12:58:25.722506 31073 net.cpp:148] Top shape: 100 384 13 13 (6489600)
I0403 12:58:25.722558 31073 net.cpp:156] Memory required for data: 757439600
I0403 12:58:25.722580 31073 layer_factory.hpp:77] Creating layer relu4
I0403 12:58:25.722605 31073 net.cpp:91] Creating Layer relu4
I0403 12:58:25.722625 31073 net.cpp:425] relu4 <- conv4
I0403 12:58:25.722645 31073 net.cpp:386] relu4 -> conv4 (in-place)
I0403 12:58:25.722942 31073 net.cpp:141] Setting up relu4
I0403 12:58:25.722970 31073 net.cpp:148] Top shape: 100 384 13 13 (6489600)
I0403 12:58:25.722985 31073 net.cpp:156] Memory required for data: 783398000
I0403 12:58:25.723003 31073 layer_factory.hpp:77] Creating layer conv5
I0403 12:58:25.723034 31073 net.cpp:91] Creating Layer conv5
I0403 12:58:25.723057 31073 net.cpp:425] conv5 <- conv4
I0403 12:58:25.723079 31073 net.cpp:399] conv5 -> conv5
I0403 12:58:25.745445 31073 net.cpp:141] Setting up conv5
I0403 12:58:25.745508 31073 net.cpp:148] Top shape: 100 256 13 13 (4326400)
I0403 12:58:25.745525 31073 net.cpp:156] Memory required for data: 800703600
I0403 12:58:25.745553 31073 layer_factory.hpp:77] Creating layer relu5
I0403 12:58:25.745575 31073 net.cpp:91] Creating Layer relu5
I0403 12:58:25.745592 31073 net.cpp:425] relu5 <- conv5
I0403 12:58:25.745610 31073 net.cpp:386] relu5 -> conv5 (in-place)
I0403 12:58:25.745894 31073 net.cpp:141] Setting up relu5
I0403 12:58:25.745921 31073 net.cpp:148] Top shape: 100 256 13 13 (4326400)
I0403 12:58:25.745937 31073 net.cpp:156] Memory required for data: 818009200
I0403 12:58:25.745954 31073 layer_factory.hpp:77] Creating layer pool5
I0403 12:58:25.745978 31073 net.cpp:91] Creating Layer pool5
I0403 12:58:25.745995 31073 net.cpp:425] pool5 <- conv5
I0403 12:58:25.746013 31073 net.cpp:399] pool5 -> pool5
I0403 12:58:25.746093 31073 net.cpp:141] Setting up pool5
I0403 12:58:25.746120 31073 net.cpp:148] Top shape: 100 256 6 6 (921600)
I0403 12:58:25.746139 31073 net.cpp:156] Memory required for data: 821695600
I0403 12:58:25.746156 31073 layer_factory.hpp:77] Creating layer fc6
I0403 12:58:25.746186 31073 net.cpp:91] Creating Layer fc6
I0403 12:58:25.746206 31073 net.cpp:425] fc6 <- pool5
I0403 12:58:25.746232 31073 net.cpp:399] fc6 -> fc6
I0403 12:58:27.319037 31073 net.cpp:141] Setting up fc6
I0403 12:58:27.319126 31073 net.cpp:148] Top shape: 100 4096 (409600)
I0403 12:58:27.319144 31073 net.cpp:156] Memory required for data: 823334000
I0403 12:58:27.319166 31073 layer_factory.hpp:77] Creating layer relu6
I0403 12:58:27.319187 31073 net.cpp:91] Creating Layer relu6
I0403 12:58:27.319205 31073 net.cpp:425] relu6 <- fc6
I0403 12:58:27.319234 31073 net.cpp:386] relu6 -> fc6 (in-place)
I0403 12:58:27.319455 31073 net.cpp:141] Setting up relu6
I0403 12:58:27.319480 31073 net.cpp:148] Top shape: 100 4096 (409600)
I0403 12:58:27.319495 31073 net.cpp:156] Memory required for data: 824972400
I0403 12:58:27.319510 31073 layer_factory.hpp:77] Creating layer drop6
I0403 12:58:27.319531 31073 net.cpp:91] Creating Layer drop6
I0403 12:58:27.319547 31073 net.cpp:425] drop6 <- fc6
I0403 12:58:27.319564 31073 net.cpp:386] drop6 -> fc6 (in-place)
I0403 12:58:27.319617 31073 net.cpp:141] Setting up drop6
I0403 12:58:27.319639 31073 net.cpp:148] Top shape: 100 4096 (409600)
I0403 12:58:27.319654 31073 net.cpp:156] Memory required for data: 826610800
I0403 12:58:27.319669 31073 layer_factory.hpp:77] Creating layer fc7
I0403 12:58:27.319689 31073 net.cpp:91] Creating Layer fc7
I0403 12:58:27.319710 31073 net.cpp:425] fc7 <- fc6
I0403 12:58:27.319728 31073 net.cpp:399] fc7 -> fc7
I0403 12:58:28.012228 31073 net.cpp:141] Setting up fc7
I0403 12:58:28.012315 31073 net.cpp:148] Top shape: 100 4096 (409600)
I0403 12:58:28.012332 31073 net.cpp:156] Memory required for data: 828249200
I0403 12:58:28.012354 31073 layer_factory.hpp:77] Creating layer relu7
I0403 12:58:28.012379 31073 net.cpp:91] Creating Layer relu7
I0403 12:58:28.012398 31073 net.cpp:425] relu7 <- fc7
I0403 12:58:28.012419 31073 net.cpp:386] relu7 -> fc7 (in-place)
I0403 12:58:28.012830 31073 net.cpp:141] Setting up relu7
I0403 12:58:28.012856 31073 net.cpp:148] Top shape: 100 4096 (409600)
I0403 12:58:28.012905 31073 net.cpp:156] Memory required for data: 829887600
I0403 12:58:28.012922 31073 layer_factory.hpp:77] Creating layer drop7
I0403 12:58:28.012943 31073 net.cpp:91] Creating Layer drop7
I0403 12:58:28.012959 31073 net.cpp:425] drop7 <- fc7
I0403 12:58:28.012976 31073 net.cpp:386] drop7 -> fc7 (in-place)
I0403 12:58:28.013022 31073 net.cpp:141] Setting up drop7
I0403 12:58:28.013046 31073 net.cpp:148] Top shape: 100 4096 (409600)
I0403 12:58:28.013059 31073 net.cpp:156] Memory required for data: 831526000
I0403 12:58:28.013073 31073 layer_factory.hpp:77] Creating layer fc8_plantvillage
I0403 12:58:28.013092 31073 net.cpp:91] Creating Layer fc8_plantvillage
I0403 12:58:28.013108 31073 net.cpp:425] fc8_plantvillage <- fc7
I0403 12:58:28.013131 31073 net.cpp:399] fc8_plantvillage -> fc8_plantvillage
I0403 12:58:28.019914 31073 net.cpp:141] Setting up fc8_plantvillage
I0403 12:58:28.019947 31073 net.cpp:148] Top shape: 100 38 (3800)
I0403 12:58:28.019963 31073 net.cpp:156] Memory required for data: 831541200
I0403 12:58:28.019984 31073 layer_factory.hpp:77] Creating layer fc8_plantvillage_fc8_plantvillage_0_split
I0403 12:58:28.020002 31073 net.cpp:91] Creating Layer fc8_plantvillage_fc8_plantvillage_0_split
I0403 12:58:28.020018 31073 net.cpp:425] fc8_plantvillage_fc8_plantvillage_0_split <- fc8_plantvillage
I0403 12:58:28.020037 31073 net.cpp:399] fc8_plantvillage_fc8_plantvillage_0_split -> fc8_plantvillage_fc8_plantvillage_0_split_0
I0403 12:58:28.020058 31073 net.cpp:399] fc8_plantvillage_fc8_plantvillage_0_split -> fc8_plantvillage_fc8_plantvillage_0_split_1
I0403 12:58:28.020077 31073 net.cpp:399] fc8_plantvillage_fc8_plantvillage_0_split -> fc8_plantvillage_fc8_plantvillage_0_split_2
I0403 12:58:28.020156 31073 net.cpp:141] Setting up fc8_plantvillage_fc8_plantvillage_0_split
I0403 12:58:28.020181 31073 net.cpp:148] Top shape: 100 38 (3800)
I0403 12:58:28.020200 31073 net.cpp:148] Top shape: 100 38 (3800)
I0403 12:58:28.020222 31073 net.cpp:148] Top shape: 100 38 (3800)
I0403 12:58:28.020238 31073 net.cpp:156] Memory required for data: 831586800
I0403 12:58:28.020265 31073 layer_factory.hpp:77] Creating layer prob
I0403 12:58:28.020285 31073 net.cpp:91] Creating Layer prob
I0403 12:58:28.020303 31073 net.cpp:425] prob <- fc8_plantvillage_fc8_plantvillage_0_split_0
I0403 12:58:28.020323 31073 net.cpp:399] prob -> prob
I0403 12:58:28.020567 31073 net.cpp:141] Setting up prob
I0403 12:58:28.020593 31073 net.cpp:148] Top shape: 100 38 (3800)
I0403 12:58:28.020607 31073 net.cpp:156] Memory required for data: 831602000
I0403 12:58:28.020622 31073 layer_factory.hpp:77] Creating layer hdf5out
I0403 12:58:28.020644 31073 net.cpp:91] Creating Layer hdf5out
I0403 12:58:28.020661 31073 net.cpp:425] hdf5out <- prob
I0403 12:58:28.020678 31073 net.cpp:425] hdf5out <- label_data_1_split_0
I0403 12:58:28.023154 31073 net.cpp:141] Setting up hdf5out
…
