…
I0403 12:40:42.440332 30629 net.cpp:313] The NetState phase (1) differed from the phase (0) specified by a rule in layer data
I0403 12:40:42.440659 30629 net.cpp:49] Initializing net from parameters: 
state {
  phase: TEST
}
layer {
  name: "data"
  type: "Data"
  top: "data"
  top: "label"
  include {
    phase: TEST
  }
  transform_param {
    crop_size: 227
    mean_file: "/home/mohanty/data/final_dataset/lmdb/grayscale-40-60/mean.binaryproto"
  }
  data_param {
    source: "/home/mohanty/data/final_dataset/lmdb/grayscale-40-60/test_db"
    batch_size: 100
    backend: LMDB
  }
}
layer {
  name: "conv1"
  type: "Convolution"
  bottom: "data"
  top: "conv1"
  param {
    lr_mult: 1
    decay_mult: 1
  }
  param {
    lr_mult: 2
    decay_mult: 0
  }
  convolution_param {
    num_output: 96
    kernel_size: 11
    stride: 4
    weight_filler {
      type: "gaussian"
      std: 0.01
    }
    bias_filler {
      type: "constant"
      value: 0
    }
  }
}
layer {
  name: "relu1"
  type: "ReLU"
  bottom: "conv1"
  top: "conv1"
}
layer {
  name: "norm1"
  type: "LRN"
  bottom: "conv1"
  top: "norm1"
  lrn_param {
    local_size: 5
    alpha: 0.0001
    beta: 0.75
  }
}
layer {
  name: "pool1"
  type: "Pooling"
  bottom: "norm1"
  top: "pool1"
  pooling_param {
    pool: MAX
    kernel_size: 3
    stride: 2
  }
}
layer {
  name: "conv2"
  type: "Convolution"
  bottom: "pool1"
  top: "conv2"
  param {
    lr_mult: 1
    decay_mult: 1
  }
  param {
    lr_mult: 2
    decay_mult: 0
  }
  convolution_param {
    num_output: 256
    pad: 2
    kernel_size: 5
    group: 2
    weight_filler {
      type: "gaussian"
      std: 0.01
    }
    bias_filler {
      type: "constant"
      value: 0.1
    }
  }
}
layer {
  name: "relu2"
  type: "ReLU"
  bottom: "conv2"
  top: "conv2"
}
layer {
  name: "norm2"
  type: "LRN"
  bottom: "conv2"
  top: "norm2"
  lrn_param {
    local_size: 5
    alpha: 0.0001
    beta: 0.75
  }
}
layer {
  name: "pool2"
  type: "Pooling"
  bottom: "norm2"
  top: "pool2"
  pooling_param {
    pool: MAX
    kernel_size: 3
    stride: 2
  }
}
layer {
  name: "conv3"
  type: "Convolution"
  bottom: "pool2"
  top: "conv3"
  param {
    lr_mult: 1
    decay_mult: 1
  }
  param {
    lr_mult: 2
    decay_mult: 0
  }
  convolution_param {
    num_output: 384
    pad: 1
    kernel_size: 3
    weight_filler {
      type: "gaussian"
      std: 0.01
    }
    bias_filler {
      type: "constant"
      value: 0
    }
  }
}
layer {
  name: "relu3"
  type: "ReLU"
  bottom: "conv3"
  top: "conv3"
}
layer {
  name: "conv4"
  type: "Convolution"
  bottom: "conv3"
  top: "conv4"
  param {
    lr_mult: 1
    decay_mult: 1
  }
  param {
    lr_mult: 2
    decay_mult: 0
  }
  convolution_param {
    num_output: 384
    pad: 1
    kernel_size: 3
    group: 2
    weight_filler {
      type: "gaussian"
      std: 0.01
    }
    bias_filler {
      type: "constant"
      value: 0.1
    }
  }
}
layer {
  name: "relu4"
  type: "ReLU"
  bottom: "conv4"
  top: "conv4"
}
layer {
  name: "conv5"
  type: "Convolution"
  bottom: "conv4"
  top: "conv5"
  param {
    lr_mult: 1
    decay_mult: 1
  }
  param {
    lr_mult: 2
    decay_mult: 0
  }
  convolution_param {
    num_output: 256
    pad: 1
    kernel_size: 3
    group: 2
    weight_filler {
      type: "gaussian"
      std: 0.01
    }
    bias_filler {
      type: "constant"
      value: 0.1
    }
  }
}
layer {
  name: "relu5"
  type: "ReLU"
  bottom: "conv5"
  top: "conv5"
}
layer {
  name: "pool5"
  type: "Pooling"
  bottom: "conv5"
  top: "pool5"
  pooling_param {
    pool: MAX
    kernel_size: 3
    stride: 2
  }
}
layer {
  name: "fc6"
  type: "InnerProduct"
  bottom: "pool5"
  top: "fc6"
  param {
    lr_mult: 1
    decay_mult: 1
  }
  param {
    lr_mult: 2
    decay_mult: 0
  }
  inner_product_param {
    num_output: 4096
    weight_filler {
      type: "gaussian"
      std: 0.005
    }
    bias_filler {
      type: "constant"
      value: 0.1
    }
  }
}
layer {
  name: "relu6"
  type: "ReLU"
  bottom: "fc6"
  top: "fc6"
}
layer {
  name: "drop6"
  type: "Dropout"
  bottom: "fc6"
  top: "fc6"
  dropout_param {
    dropout_ratio: 0.5
  }
}
layer {
  name: "fc7"
  type: "InnerProduct"
  bottom: "fc6"
  top: "fc7"
  param {
    lr_mult: 1
    decay_mult: 1
  }
  param {
    lr_mult: 2
    decay_mult: 0
  }
  inner_product_param {
    num_output: 4096
    weight_filler {
      type: "gaussian"
      std: 0.005
    }
    bias_filler {
      type: "constant"
      value: 0.1
    }
  }
}
layer {
  name: "relu7"
  type: "ReLU"
  bottom: "fc7"
  top: "fc7"
}
layer {
  name: "drop7"
  type: "Dropout"
  bottom: "fc7"
  top: "fc7"
  dropout_param {
    dropout_ratio: 0.5
  }
}
layer {
  name: "fc8_plantvillage"
  type: "InnerProduct"
  bottom: "fc7"
  top: "fc8_plantvillage"
  param {
    lr_mult: 1
    decay_mult: 1
  }
  param {
    lr_mult: 2
    decay_mult: 0
  }
  inner_product_param {
    num_output: 38
    weight_filler {
      type: "gaussian"
      std: 0.01
    }
    bias_filler {
      type: "constant"
      value: 0
    }
  }
}
layer {
  name: "prob"
  type: "Softmax"
  bottom: "fc8_plantvillage"
  top: "prob"
  include {
    phase: TEST
  }
}
layer {
  name: "hdf5out"
  type: "HDF5Output"
  bottom: "prob"
  bottom: "label"
  include {
    phase: TEST
  }
  hdf5_output_param {
    file_name: "hdf5_dumps/iter_1533.h5"
  }
}
layer {
  name: "loss"
  type: "SoftmaxWithLoss"
  bottom: "fc8_plantvillage"
  bottom: "label"
  top: "loss"
}
layer {
  name: "accuracy"
  type: "Accuracy"
  bottom: "fc8_plantvillage"
  bottom: "label"
  top: "accuracy"
  include {
    phase: TEST
  }
}
I0403 12:40:42.441223 30629 layer_factory.hpp:77] Creating layer data
I0403 12:40:42.441892 30629 net.cpp:91] Creating Layer data
I0403 12:40:42.441925 30629 net.cpp:399] data -> data
I0403 12:40:42.441974 30629 net.cpp:399] data -> label
I0403 12:40:42.442011 30629 data_transformer.cpp:25] Loading mean file from: /home/mohanty/data/final_dataset/lmdb/grayscale-40-60/mean.binaryproto
I0403 12:40:42.444713 30633 db_lmdb.cpp:38] Opened lmdb /home/mohanty/data/final_dataset/lmdb/grayscale-40-60/test_db
I0403 12:40:42.456889 30629 data_layer.cpp:41] output data size: 100,3,227,227
I0403 12:40:42.577811 30629 net.cpp:141] Setting up data
I0403 12:40:42.577916 30629 net.cpp:148] Top shape: 100 3 227 227 (15458700)
I0403 12:40:42.577940 30629 net.cpp:148] Top shape: 100 (100)
I0403 12:40:42.577956 30629 net.cpp:156] Memory required for data: 61835200
I0403 12:40:42.577985 30629 layer_factory.hpp:77] Creating layer label_data_1_split
I0403 12:40:42.578011 30629 net.cpp:91] Creating Layer label_data_1_split
I0403 12:40:42.578028 30629 net.cpp:425] label_data_1_split <- label
I0403 12:40:42.578060 30629 net.cpp:399] label_data_1_split -> label_data_1_split_0
I0403 12:40:42.578088 30629 net.cpp:399] label_data_1_split -> label_data_1_split_1
I0403 12:40:42.578109 30629 net.cpp:399] label_data_1_split -> label_data_1_split_2
I0403 12:40:42.578176 30629 net.cpp:141] Setting up label_data_1_split
I0403 12:40:42.578203 30629 net.cpp:148] Top shape: 100 (100)
I0403 12:40:42.578222 30629 net.cpp:148] Top shape: 100 (100)
I0403 12:40:42.578238 30629 net.cpp:148] Top shape: 100 (100)
I0403 12:40:42.578253 30629 net.cpp:156] Memory required for data: 61836400
I0403 12:40:42.578269 30629 layer_factory.hpp:77] Creating layer conv1
I0403 12:40:42.578301 30629 net.cpp:91] Creating Layer conv1
I0403 12:40:42.578320 30629 net.cpp:425] conv1 <- data
I0403 12:40:42.578341 30629 net.cpp:399] conv1 -> conv1
I0403 12:40:42.725092 30629 net.cpp:141] Setting up conv1
I0403 12:40:42.725158 30629 net.cpp:148] Top shape: 100 96 55 55 (29040000)
I0403 12:40:42.725177 30629 net.cpp:156] Memory required for data: 177996400
I0403 12:40:42.725217 30629 layer_factory.hpp:77] Creating layer relu1
I0403 12:40:42.725247 30629 net.cpp:91] Creating Layer relu1
I0403 12:40:42.725265 30629 net.cpp:425] relu1 <- conv1
I0403 12:40:42.725284 30629 net.cpp:386] relu1 -> conv1 (in-place)
I0403 12:40:42.725561 30629 net.cpp:141] Setting up relu1
I0403 12:40:42.725591 30629 net.cpp:148] Top shape: 100 96 55 55 (29040000)
I0403 12:40:42.725637 30629 net.cpp:156] Memory required for data: 294156400
I0403 12:40:42.725653 30629 layer_factory.hpp:77] Creating layer norm1
I0403 12:40:42.725680 30629 net.cpp:91] Creating Layer norm1
I0403 12:40:42.725698 30629 net.cpp:425] norm1 <- conv1
I0403 12:40:42.725719 30629 net.cpp:399] norm1 -> norm1
I0403 12:40:42.726084 30629 net.cpp:141] Setting up norm1
I0403 12:40:42.726114 30629 net.cpp:148] Top shape: 100 96 55 55 (29040000)
I0403 12:40:42.726128 30629 net.cpp:156] Memory required for data: 410316400
I0403 12:40:42.726143 30629 layer_factory.hpp:77] Creating layer pool1
I0403 12:40:42.726167 30629 net.cpp:91] Creating Layer pool1
I0403 12:40:42.726184 30629 net.cpp:425] pool1 <- norm1
I0403 12:40:42.726204 30629 net.cpp:399] pool1 -> pool1
I0403 12:40:42.726281 30629 net.cpp:141] Setting up pool1
I0403 12:40:42.726305 30629 net.cpp:148] Top shape: 100 96 27 27 (6998400)
I0403 12:40:42.726321 30629 net.cpp:156] Memory required for data: 438310000
I0403 12:40:42.726337 30629 layer_factory.hpp:77] Creating layer conv2
I0403 12:40:42.726366 30629 net.cpp:91] Creating Layer conv2
I0403 12:40:42.726383 30629 net.cpp:425] conv2 <- pool1
I0403 12:40:42.726402 30629 net.cpp:399] conv2 -> conv2
I0403 12:40:42.741770 30629 net.cpp:141] Setting up conv2
I0403 12:40:42.741825 30629 net.cpp:148] Top shape: 100 256 27 27 (18662400)
I0403 12:40:42.741843 30629 net.cpp:156] Memory required for data: 512959600
I0403 12:40:42.741866 30629 layer_factory.hpp:77] Creating layer relu2
I0403 12:40:42.741888 30629 net.cpp:91] Creating Layer relu2
I0403 12:40:42.741904 30629 net.cpp:425] relu2 <- conv2
I0403 12:40:42.741925 30629 net.cpp:386] relu2 -> conv2 (in-place)
I0403 12:40:42.742213 30629 net.cpp:141] Setting up relu2
I0403 12:40:42.742240 30629 net.cpp:148] Top shape: 100 256 27 27 (18662400)
I0403 12:40:42.742256 30629 net.cpp:156] Memory required for data: 587609200
I0403 12:40:42.742272 30629 layer_factory.hpp:77] Creating layer norm2
I0403 12:40:42.742296 30629 net.cpp:91] Creating Layer norm2
I0403 12:40:42.742313 30629 net.cpp:425] norm2 <- conv2
I0403 12:40:42.742332 30629 net.cpp:399] norm2 -> norm2
I0403 12:40:42.742537 30629 net.cpp:141] Setting up norm2
I0403 12:40:42.742564 30629 net.cpp:148] Top shape: 100 256 27 27 (18662400)
I0403 12:40:42.742580 30629 net.cpp:156] Memory required for data: 662258800
I0403 12:40:42.742595 30629 layer_factory.hpp:77] Creating layer pool2
I0403 12:40:42.742614 30629 net.cpp:91] Creating Layer pool2
I0403 12:40:42.742630 30629 net.cpp:425] pool2 <- norm2
I0403 12:40:42.742650 30629 net.cpp:399] pool2 -> pool2
I0403 12:40:42.742704 30629 net.cpp:141] Setting up pool2
I0403 12:40:42.742729 30629 net.cpp:148] Top shape: 100 256 13 13 (4326400)
I0403 12:40:42.742744 30629 net.cpp:156] Memory required for data: 679564400
I0403 12:40:42.742760 30629 layer_factory.hpp:77] Creating layer conv3
I0403 12:40:42.742781 30629 net.cpp:91] Creating Layer conv3
I0403 12:40:42.742797 30629 net.cpp:425] conv3 <- pool2
I0403 12:40:42.742817 30629 net.cpp:399] conv3 -> conv3
I0403 12:40:42.782148 30629 net.cpp:141] Setting up conv3
I0403 12:40:42.782235 30629 net.cpp:148] Top shape: 100 384 13 13 (6489600)
I0403 12:40:42.782253 30629 net.cpp:156] Memory required for data: 705522800
I0403 12:40:42.782279 30629 layer_factory.hpp:77] Creating layer relu3
I0403 12:40:42.782304 30629 net.cpp:91] Creating Layer relu3
I0403 12:40:42.782320 30629 net.cpp:425] relu3 <- conv3
I0403 12:40:42.782342 30629 net.cpp:386] relu3 -> conv3 (in-place)
I0403 12:40:42.782627 30629 net.cpp:141] Setting up relu3
I0403 12:40:42.782655 30629 net.cpp:148] Top shape: 100 384 13 13 (6489600)
I0403 12:40:42.782670 30629 net.cpp:156] Memory required for data: 731481200
I0403 12:40:42.782685 30629 layer_factory.hpp:77] Creating layer conv4
I0403 12:40:42.782711 30629 net.cpp:91] Creating Layer conv4
I0403 12:40:42.782729 30629 net.cpp:425] conv4 <- conv3
I0403 12:40:42.782750 30629 net.cpp:399] conv4 -> conv4
I0403 12:40:42.813377 30629 net.cpp:141] Setting up conv4
I0403 12:40:42.813462 30629 net.cpp:148] Top shape: 100 384 13 13 (6489600)
I0403 12:40:42.813511 30629 net.cpp:156] Memory required for data: 757439600
I0403 12:40:42.813534 30629 layer_factory.hpp:77] Creating layer relu4
I0403 12:40:42.813570 30629 net.cpp:91] Creating Layer relu4
I0403 12:40:42.813586 30629 net.cpp:425] relu4 <- conv4
I0403 12:40:42.813606 30629 net.cpp:386] relu4 -> conv4 (in-place)
I0403 12:40:42.813943 30629 net.cpp:141] Setting up relu4
I0403 12:40:42.813973 30629 net.cpp:148] Top shape: 100 384 13 13 (6489600)
I0403 12:40:42.813990 30629 net.cpp:156] Memory required for data: 783398000
I0403 12:40:42.814007 30629 layer_factory.hpp:77] Creating layer conv5
I0403 12:40:42.814034 30629 net.cpp:91] Creating Layer conv5
I0403 12:40:42.814052 30629 net.cpp:425] conv5 <- conv4
I0403 12:40:42.814071 30629 net.cpp:399] conv5 -> conv5
I0403 12:40:42.835062 30629 net.cpp:141] Setting up conv5
I0403 12:40:42.835129 30629 net.cpp:148] Top shape: 100 256 13 13 (4326400)
I0403 12:40:42.835145 30629 net.cpp:156] Memory required for data: 800703600
I0403 12:40:42.835170 30629 layer_factory.hpp:77] Creating layer relu5
I0403 12:40:42.835191 30629 net.cpp:91] Creating Layer relu5
I0403 12:40:42.835207 30629 net.cpp:425] relu5 <- conv5
I0403 12:40:42.835247 30629 net.cpp:386] relu5 -> conv5 (in-place)
I0403 12:40:42.835537 30629 net.cpp:141] Setting up relu5
I0403 12:40:42.835564 30629 net.cpp:148] Top shape: 100 256 13 13 (4326400)
I0403 12:40:42.835579 30629 net.cpp:156] Memory required for data: 818009200
I0403 12:40:42.835593 30629 layer_factory.hpp:77] Creating layer pool5
I0403 12:40:42.835616 30629 net.cpp:91] Creating Layer pool5
I0403 12:40:42.835633 30629 net.cpp:425] pool5 <- conv5
I0403 12:40:42.835651 30629 net.cpp:399] pool5 -> pool5
I0403 12:40:42.835714 30629 net.cpp:141] Setting up pool5
I0403 12:40:42.835736 30629 net.cpp:148] Top shape: 100 256 6 6 (921600)
I0403 12:40:42.835752 30629 net.cpp:156] Memory required for data: 821695600
I0403 12:40:42.835767 30629 layer_factory.hpp:77] Creating layer fc6
I0403 12:40:42.835793 30629 net.cpp:91] Creating Layer fc6
I0403 12:40:42.835811 30629 net.cpp:425] fc6 <- pool5
I0403 12:40:42.835834 30629 net.cpp:399] fc6 -> fc6
I0403 12:40:44.406635 30629 net.cpp:141] Setting up fc6
I0403 12:40:44.406729 30629 net.cpp:148] Top shape: 100 4096 (409600)
I0403 12:40:44.406746 30629 net.cpp:156] Memory required for data: 823334000
I0403 12:40:44.406769 30629 layer_factory.hpp:77] Creating layer relu6
I0403 12:40:44.406791 30629 net.cpp:91] Creating Layer relu6
I0403 12:40:44.406808 30629 net.cpp:425] relu6 <- fc6
I0403 12:40:44.406828 30629 net.cpp:386] relu6 -> fc6 (in-place)
I0403 12:40:44.407055 30629 net.cpp:141] Setting up relu6
I0403 12:40:44.407083 30629 net.cpp:148] Top shape: 100 4096 (409600)
I0403 12:40:44.407097 30629 net.cpp:156] Memory required for data: 824972400
I0403 12:40:44.407112 30629 layer_factory.hpp:77] Creating layer drop6
I0403 12:40:44.407130 30629 net.cpp:91] Creating Layer drop6
I0403 12:40:44.407146 30629 net.cpp:425] drop6 <- fc6
I0403 12:40:44.407166 30629 net.cpp:386] drop6 -> fc6 (in-place)
I0403 12:40:44.407223 30629 net.cpp:141] Setting up drop6
I0403 12:40:44.407246 30629 net.cpp:148] Top shape: 100 4096 (409600)
I0403 12:40:44.407260 30629 net.cpp:156] Memory required for data: 826610800
I0403 12:40:44.407275 30629 layer_factory.hpp:77] Creating layer fc7
I0403 12:40:44.407297 30629 net.cpp:91] Creating Layer fc7
I0403 12:40:44.407315 30629 net.cpp:425] fc7 <- fc6
I0403 12:40:44.407335 30629 net.cpp:399] fc7 -> fc7
I0403 12:40:45.093957 30629 net.cpp:141] Setting up fc7
I0403 12:40:45.094007 30629 net.cpp:148] Top shape: 100 4096 (409600)
I0403 12:40:45.094023 30629 net.cpp:156] Memory required for data: 828249200
I0403 12:40:45.094045 30629 layer_factory.hpp:77] Creating layer relu7
I0403 12:40:45.094066 30629 net.cpp:91] Creating Layer relu7
I0403 12:40:45.094084 30629 net.cpp:425] relu7 <- fc7
I0403 12:40:45.094105 30629 net.cpp:386] relu7 -> fc7 (in-place)
I0403 12:40:45.094583 30629 net.cpp:141] Setting up relu7
I0403 12:40:45.094610 30629 net.cpp:148] Top shape: 100 4096 (409600)
I0403 12:40:45.094673 30629 net.cpp:156] Memory required for data: 829887600
I0403 12:40:45.094702 30629 layer_factory.hpp:77] Creating layer drop7
I0403 12:40:45.094722 30629 net.cpp:91] Creating Layer drop7
I0403 12:40:45.094738 30629 net.cpp:425] drop7 <- fc7
I0403 12:40:45.094758 30629 net.cpp:386] drop7 -> fc7 (in-place)
I0403 12:40:45.094815 30629 net.cpp:141] Setting up drop7
I0403 12:40:45.094836 30629 net.cpp:148] Top shape: 100 4096 (409600)
I0403 12:40:45.094854 30629 net.cpp:156] Memory required for data: 831526000
I0403 12:40:45.094869 30629 layer_factory.hpp:77] Creating layer fc8_plantvillage
I0403 12:40:45.094888 30629 net.cpp:91] Creating Layer fc8_plantvillage
I0403 12:40:45.094903 30629 net.cpp:425] fc8_plantvillage <- fc7
I0403 12:40:45.094924 30629 net.cpp:399] fc8_plantvillage -> fc8_plantvillage
I0403 12:40:45.101723 30629 net.cpp:141] Setting up fc8_plantvillage
I0403 12:40:45.101750 30629 net.cpp:148] Top shape: 100 38 (3800)
I0403 12:40:45.101765 30629 net.cpp:156] Memory required for data: 831541200
I0403 12:40:45.101783 30629 layer_factory.hpp:77] Creating layer fc8_plantvillage_fc8_plantvillage_0_split
I0403 12:40:45.101801 30629 net.cpp:91] Creating Layer fc8_plantvillage_fc8_plantvillage_0_split
I0403 12:40:45.101816 30629 net.cpp:425] fc8_plantvillage_fc8_plantvillage_0_split <- fc8_plantvillage
I0403 12:40:45.101835 30629 net.cpp:399] fc8_plantvillage_fc8_plantvillage_0_split -> fc8_plantvillage_fc8_plantvillage_0_split_0
I0403 12:40:45.101867 30629 net.cpp:399] fc8_plantvillage_fc8_plantvillage_0_split -> fc8_plantvillage_fc8_plantvillage_0_split_1
I0403 12:40:45.101888 30629 net.cpp:399] fc8_plantvillage_fc8_plantvillage_0_split -> fc8_plantvillage_fc8_plantvillage_0_split_2
I0403 12:40:45.101965 30629 net.cpp:141] Setting up fc8_plantvillage_fc8_plantvillage_0_split
I0403 12:40:45.101994 30629 net.cpp:148] Top shape: 100 38 (3800)
I0403 12:40:45.102011 30629 net.cpp:148] Top shape: 100 38 (3800)
I0403 12:40:45.102027 30629 net.cpp:148] Top shape: 100 38 (3800)
I0403 12:40:45.102041 30629 net.cpp:156] Memory required for data: 831586800
I0403 12:40:45.102056 30629 layer_factory.hpp:77] Creating layer prob
I0403 12:40:45.102073 30629 net.cpp:91] Creating Layer prob
I0403 12:40:45.102088 30629 net.cpp:425] prob <- fc8_plantvillage_fc8_plantvillage_0_split_0
I0403 12:40:45.102105 30629 net.cpp:399] prob -> prob
I0403 12:40:45.102363 30629 net.cpp:141] Setting up prob
I0403 12:40:45.102391 30629 net.cpp:148] Top shape: 100 38 (3800)
I0403 12:40:45.102406 30629 net.cpp:156] Memory required for data: 831602000
I0403 12:40:45.102421 30629 layer_factory.hpp:77] Creating layer hdf5out
I0403 12:40:45.102440 30629 net.cpp:91] Creating Layer hdf5out
I0403 12:40:45.102455 30629 net.cpp:425] hdf5out <- prob
I0403 12:40:45.102471 30629 net.cpp:425] hdf5out <- label_data_1_split_0
I0403 12:40:45.104647 30629 net.cpp:141] Setting up hdf5out
…
