…
I0403 12:46:15.057018 30766 net.cpp:313] The NetState phase (1) differed from the phase (0) specified by a rule in layer data
I0403 12:46:15.057343 30766 net.cpp:49] Initializing net from parameters: 
state {
  phase: TEST
}
layer {
  name: "data"
  type: "Data"
  top: "data"
  top: "label"
  include {
    phase: TEST
  }
  transform_param {
    crop_size: 227
    mean_file: "/home/mohanty/data/final_dataset/lmdb/grayscale-40-60/mean.binaryproto"
  }
  data_param {
    source: "/home/mohanty/data/final_dataset/lmdb/grayscale-40-60/test_db"
    batch_size: 100
    backend: LMDB
  }
}
layer {
  name: "conv1"
  type: "Convolution"
  bottom: "data"
  top: "conv1"
  param {
    lr_mult: 1
    decay_mult: 1
  }
  param {
    lr_mult: 2
    decay_mult: 0
  }
  convolution_param {
    num_output: 96
    kernel_size: 11
    stride: 4
    weight_filler {
      type: "gaussian"
      std: 0.01
    }
    bias_filler {
      type: "constant"
      value: 0
    }
  }
}
layer {
  name: "relu1"
  type: "ReLU"
  bottom: "conv1"
  top: "conv1"
}
layer {
  name: "norm1"
  type: "LRN"
  bottom: "conv1"
  top: "norm1"
  lrn_param {
    local_size: 5
    alpha: 0.0001
    beta: 0.75
  }
}
layer {
  name: "pool1"
  type: "Pooling"
  bottom: "norm1"
  top: "pool1"
  pooling_param {
    pool: MAX
    kernel_size: 3
    stride: 2
  }
}
layer {
  name: "conv2"
  type: "Convolution"
  bottom: "pool1"
  top: "conv2"
  param {
    lr_mult: 1
    decay_mult: 1
  }
  param {
    lr_mult: 2
    decay_mult: 0
  }
  convolution_param {
    num_output: 256
    pad: 2
    kernel_size: 5
    group: 2
    weight_filler {
      type: "gaussian"
      std: 0.01
    }
    bias_filler {
      type: "constant"
      value: 0.1
    }
  }
}
layer {
  name: "relu2"
  type: "ReLU"
  bottom: "conv2"
  top: "conv2"
}
layer {
  name: "norm2"
  type: "LRN"
  bottom: "conv2"
  top: "norm2"
  lrn_param {
    local_size: 5
    alpha: 0.0001
    beta: 0.75
  }
}
layer {
  name: "pool2"
  type: "Pooling"
  bottom: "norm2"
  top: "pool2"
  pooling_param {
    pool: MAX
    kernel_size: 3
    stride: 2
  }
}
layer {
  name: "conv3"
  type: "Convolution"
  bottom: "pool2"
  top: "conv3"
  param {
    lr_mult: 1
    decay_mult: 1
  }
  param {
    lr_mult: 2
    decay_mult: 0
  }
  convolution_param {
    num_output: 384
    pad: 1
    kernel_size: 3
    weight_filler {
      type: "gaussian"
      std: 0.01
    }
    bias_filler {
      type: "constant"
      value: 0
    }
  }
}
layer {
  name: "relu3"
  type: "ReLU"
  bottom: "conv3"
  top: "conv3"
}
layer {
  name: "conv4"
  type: "Convolution"
  bottom: "conv3"
  top: "conv4"
  param {
    lr_mult: 1
    decay_mult: 1
  }
  param {
    lr_mult: 2
    decay_mult: 0
  }
  convolution_param {
    num_output: 384
    pad: 1
    kernel_size: 3
    group: 2
    weight_filler {
      type: "gaussian"
      std: 0.01
    }
    bias_filler {
      type: "constant"
      value: 0.1
    }
  }
}
layer {
  name: "relu4"
  type: "ReLU"
  bottom: "conv4"
  top: "conv4"
}
layer {
  name: "conv5"
  type: "Convolution"
  bottom: "conv4"
  top: "conv5"
  param {
    lr_mult: 1
    decay_mult: 1
  }
  param {
    lr_mult: 2
    decay_mult: 0
  }
  convolution_param {
    num_output: 256
    pad: 1
    kernel_size: 3
    group: 2
    weight_filler {
      type: "gaussian"
      std: 0.01
    }
    bias_filler {
      type: "constant"
      value: 0.1
    }
  }
}
layer {
  name: "relu5"
  type: "ReLU"
  bottom: "conv5"
  top: "conv5"
}
layer {
  name: "pool5"
  type: "Pooling"
  bottom: "conv5"
  top: "pool5"
  pooling_param {
    pool: MAX
    kernel_size: 3
    stride: 2
  }
}
layer {
  name: "fc6"
  type: "InnerProduct"
  bottom: "pool5"
  top: "fc6"
  param {
    lr_mult: 1
    decay_mult: 1
  }
  param {
    lr_mult: 2
    decay_mult: 0
  }
  inner_product_param {
    num_output: 4096
    weight_filler {
      type: "gaussian"
      std: 0.005
    }
    bias_filler {
      type: "constant"
      value: 0.1
    }
  }
}
layer {
  name: "relu6"
  type: "ReLU"
  bottom: "fc6"
  top: "fc6"
}
layer {
  name: "drop6"
  type: "Dropout"
  bottom: "fc6"
  top: "fc6"
  dropout_param {
    dropout_ratio: 0.5
  }
}
layer {
  name: "fc7"
  type: "InnerProduct"
  bottom: "fc6"
  top: "fc7"
  param {
    lr_mult: 1
    decay_mult: 1
  }
  param {
    lr_mult: 2
    decay_mult: 0
  }
  inner_product_param {
    num_output: 4096
    weight_filler {
      type: "gaussian"
      std: 0.005
    }
    bias_filler {
      type: "constant"
      value: 0.1
    }
  }
}
layer {
  name: "relu7"
  type: "ReLU"
  bottom: "fc7"
  top: "fc7"
}
layer {
  name: "drop7"
  type: "Dropout"
  bottom: "fc7"
  top: "fc7"
  dropout_param {
    dropout_ratio: 0.5
  }
}
layer {
  name: "fc8_plantvillage"
  type: "InnerProduct"
  bottom: "fc7"
  top: "fc8_plantvillage"
  param {
    lr_mult: 1
    decay_mult: 1
  }
  param {
    lr_mult: 2
    decay_mult: 0
  }
  inner_product_param {
    num_output: 38
    weight_filler {
      type: "gaussian"
      std: 0.01
    }
    bias_filler {
      type: "constant"
      value: 0
    }
  }
}
layer {
  name: "prob"
  type: "Softmax"
  bottom: "fc8_plantvillage"
  top: "prob"
  include {
    phase: TEST
  }
}
layer {
  name: "hdf5out"
  type: "HDF5Output"
  bottom: "prob"
  bottom: "label"
  include {
    phase: TEST
  }
  hdf5_output_param {
    file_name: "hdf5_dumps/iter_2628.h5"
  }
}
layer {
  name: "loss"
  type: "SoftmaxWithLoss"
  bottom: "fc8_plantvillage"
  bottom: "label"
  top: "loss"
}
layer {
  name: "accuracy"
  type: "Accuracy"
  bottom: "fc8_plantvillage"
  bottom: "label"
  top: "accuracy"
  include {
    phase: TEST
  }
}
I0403 12:46:15.057907 30766 layer_factory.hpp:77] Creating layer data
I0403 12:46:15.058555 30766 net.cpp:91] Creating Layer data
I0403 12:46:15.058588 30766 net.cpp:399] data -> data
I0403 12:46:15.058640 30766 net.cpp:399] data -> label
I0403 12:46:15.058676 30766 data_transformer.cpp:25] Loading mean file from: /home/mohanty/data/final_dataset/lmdb/grayscale-40-60/mean.binaryproto
I0403 12:46:15.061857 30769 db_lmdb.cpp:38] Opened lmdb /home/mohanty/data/final_dataset/lmdb/grayscale-40-60/test_db
I0403 12:46:15.073253 30766 data_layer.cpp:41] output data size: 100,3,227,227
I0403 12:46:15.191108 30766 net.cpp:141] Setting up data
I0403 12:46:15.191218 30766 net.cpp:148] Top shape: 100 3 227 227 (15458700)
I0403 12:46:15.191244 30766 net.cpp:148] Top shape: 100 (100)
I0403 12:46:15.191261 30766 net.cpp:156] Memory required for data: 61835200
I0403 12:46:15.191289 30766 layer_factory.hpp:77] Creating layer label_data_1_split
I0403 12:46:15.191316 30766 net.cpp:91] Creating Layer label_data_1_split
I0403 12:46:15.191334 30766 net.cpp:425] label_data_1_split <- label
I0403 12:46:15.191365 30766 net.cpp:399] label_data_1_split -> label_data_1_split_0
I0403 12:46:15.191391 30766 net.cpp:399] label_data_1_split -> label_data_1_split_1
I0403 12:46:15.191412 30766 net.cpp:399] label_data_1_split -> label_data_1_split_2
I0403 12:46:15.191475 30766 net.cpp:141] Setting up label_data_1_split
I0403 12:46:15.191500 30766 net.cpp:148] Top shape: 100 (100)
I0403 12:46:15.191517 30766 net.cpp:148] Top shape: 100 (100)
I0403 12:46:15.191532 30766 net.cpp:148] Top shape: 100 (100)
I0403 12:46:15.191547 30766 net.cpp:156] Memory required for data: 61836400
I0403 12:46:15.191562 30766 layer_factory.hpp:77] Creating layer conv1
I0403 12:46:15.191596 30766 net.cpp:91] Creating Layer conv1
I0403 12:46:15.191615 30766 net.cpp:425] conv1 <- data
I0403 12:46:15.191635 30766 net.cpp:399] conv1 -> conv1
I0403 12:46:15.333111 30766 net.cpp:141] Setting up conv1
I0403 12:46:15.333200 30766 net.cpp:148] Top shape: 100 96 55 55 (29040000)
I0403 12:46:15.333225 30766 net.cpp:156] Memory required for data: 177996400
I0403 12:46:15.333258 30766 layer_factory.hpp:77] Creating layer relu1
I0403 12:46:15.333288 30766 net.cpp:91] Creating Layer relu1
I0403 12:46:15.333309 30766 net.cpp:425] relu1 <- conv1
I0403 12:46:15.333333 30766 net.cpp:386] relu1 -> conv1 (in-place)
I0403 12:46:15.333590 30766 net.cpp:141] Setting up relu1
I0403 12:46:15.333618 30766 net.cpp:148] Top shape: 100 96 55 55 (29040000)
I0403 12:46:15.333668 30766 net.cpp:156] Memory required for data: 294156400
I0403 12:46:15.333686 30766 layer_factory.hpp:77] Creating layer norm1
I0403 12:46:15.333714 30766 net.cpp:91] Creating Layer norm1
I0403 12:46:15.333732 30766 net.cpp:425] norm1 <- conv1
I0403 12:46:15.333750 30766 net.cpp:399] norm1 -> norm1
I0403 12:46:15.334051 30766 net.cpp:141] Setting up norm1
I0403 12:46:15.334080 30766 net.cpp:148] Top shape: 100 96 55 55 (29040000)
I0403 12:46:15.334096 30766 net.cpp:156] Memory required for data: 410316400
I0403 12:46:15.334113 30766 layer_factory.hpp:77] Creating layer pool1
I0403 12:46:15.334136 30766 net.cpp:91] Creating Layer pool1
I0403 12:46:15.334153 30766 net.cpp:425] pool1 <- norm1
I0403 12:46:15.334172 30766 net.cpp:399] pool1 -> pool1
I0403 12:46:15.334241 30766 net.cpp:141] Setting up pool1
I0403 12:46:15.334266 30766 net.cpp:148] Top shape: 100 96 27 27 (6998400)
I0403 12:46:15.334282 30766 net.cpp:156] Memory required for data: 438310000
I0403 12:46:15.334300 30766 layer_factory.hpp:77] Creating layer conv2
I0403 12:46:15.334324 30766 net.cpp:91] Creating Layer conv2
I0403 12:46:15.334342 30766 net.cpp:425] conv2 <- pool1
I0403 12:46:15.334360 30766 net.cpp:399] conv2 -> conv2
I0403 12:46:15.349318 30766 net.cpp:141] Setting up conv2
I0403 12:46:15.349371 30766 net.cpp:148] Top shape: 100 256 27 27 (18662400)
I0403 12:46:15.349390 30766 net.cpp:156] Memory required for data: 512959600
I0403 12:46:15.349416 30766 layer_factory.hpp:77] Creating layer relu2
I0403 12:46:15.349441 30766 net.cpp:91] Creating Layer relu2
I0403 12:46:15.349458 30766 net.cpp:425] relu2 <- conv2
I0403 12:46:15.349478 30766 net.cpp:386] relu2 -> conv2 (in-place)
I0403 12:46:15.349763 30766 net.cpp:141] Setting up relu2
I0403 12:46:15.349791 30766 net.cpp:148] Top shape: 100 256 27 27 (18662400)
I0403 12:46:15.349809 30766 net.cpp:156] Memory required for data: 587609200
I0403 12:46:15.349825 30766 layer_factory.hpp:77] Creating layer norm2
I0403 12:46:15.349846 30766 net.cpp:91] Creating Layer norm2
I0403 12:46:15.349863 30766 net.cpp:425] norm2 <- conv2
I0403 12:46:15.349884 30766 net.cpp:399] norm2 -> norm2
I0403 12:46:15.350085 30766 net.cpp:141] Setting up norm2
I0403 12:46:15.350111 30766 net.cpp:148] Top shape: 100 256 27 27 (18662400)
I0403 12:46:15.350126 30766 net.cpp:156] Memory required for data: 662258800
I0403 12:46:15.350142 30766 layer_factory.hpp:77] Creating layer pool2
I0403 12:46:15.350162 30766 net.cpp:91] Creating Layer pool2
I0403 12:46:15.350179 30766 net.cpp:425] pool2 <- norm2
I0403 12:46:15.350198 30766 net.cpp:399] pool2 -> pool2
I0403 12:46:15.350260 30766 net.cpp:141] Setting up pool2
I0403 12:46:15.350284 30766 net.cpp:148] Top shape: 100 256 13 13 (4326400)
I0403 12:46:15.350303 30766 net.cpp:156] Memory required for data: 679564400
I0403 12:46:15.350319 30766 layer_factory.hpp:77] Creating layer conv3
I0403 12:46:15.350342 30766 net.cpp:91] Creating Layer conv3
I0403 12:46:15.350360 30766 net.cpp:425] conv3 <- pool2
I0403 12:46:15.350383 30766 net.cpp:399] conv3 -> conv3
I0403 12:46:15.390825 30766 net.cpp:141] Setting up conv3
I0403 12:46:15.390908 30766 net.cpp:148] Top shape: 100 384 13 13 (6489600)
I0403 12:46:15.390924 30766 net.cpp:156] Memory required for data: 705522800
I0403 12:46:15.390950 30766 layer_factory.hpp:77] Creating layer relu3
I0403 12:46:15.390976 30766 net.cpp:91] Creating Layer relu3
I0403 12:46:15.390995 30766 net.cpp:425] relu3 <- conv3
I0403 12:46:15.391015 30766 net.cpp:386] relu3 -> conv3 (in-place)
I0403 12:46:15.391295 30766 net.cpp:141] Setting up relu3
I0403 12:46:15.391322 30766 net.cpp:148] Top shape: 100 384 13 13 (6489600)
I0403 12:46:15.391338 30766 net.cpp:156] Memory required for data: 731481200
I0403 12:46:15.391355 30766 layer_factory.hpp:77] Creating layer conv4
I0403 12:46:15.391381 30766 net.cpp:91] Creating Layer conv4
I0403 12:46:15.391399 30766 net.cpp:425] conv4 <- conv3
I0403 12:46:15.391420 30766 net.cpp:399] conv4 -> conv4
I0403 12:46:15.421141 30766 net.cpp:141] Setting up conv4
I0403 12:46:15.421221 30766 net.cpp:148] Top shape: 100 384 13 13 (6489600)
I0403 12:46:15.421272 30766 net.cpp:156] Memory required for data: 757439600
I0403 12:46:15.421295 30766 layer_factory.hpp:77] Creating layer relu4
I0403 12:46:15.421317 30766 net.cpp:91] Creating Layer relu4
I0403 12:46:15.421335 30766 net.cpp:425] relu4 <- conv4
I0403 12:46:15.421357 30766 net.cpp:386] relu4 -> conv4 (in-place)
I0403 12:46:15.421641 30766 net.cpp:141] Setting up relu4
I0403 12:46:15.421669 30766 net.cpp:148] Top shape: 100 384 13 13 (6489600)
I0403 12:46:15.421684 30766 net.cpp:156] Memory required for data: 783398000
I0403 12:46:15.421699 30766 layer_factory.hpp:77] Creating layer conv5
I0403 12:46:15.421723 30766 net.cpp:91] Creating Layer conv5
I0403 12:46:15.421741 30766 net.cpp:425] conv5 <- conv4
I0403 12:46:15.421764 30766 net.cpp:399] conv5 -> conv5
I0403 12:46:15.442358 30766 net.cpp:141] Setting up conv5
I0403 12:46:15.442417 30766 net.cpp:148] Top shape: 100 256 13 13 (4326400)
I0403 12:46:15.442433 30766 net.cpp:156] Memory required for data: 800703600
I0403 12:46:15.442459 30766 layer_factory.hpp:77] Creating layer relu5
I0403 12:46:15.442483 30766 net.cpp:91] Creating Layer relu5
I0403 12:46:15.442502 30766 net.cpp:425] relu5 <- conv5
I0403 12:46:15.442522 30766 net.cpp:386] relu5 -> conv5 (in-place)
I0403 12:46:15.442800 30766 net.cpp:141] Setting up relu5
I0403 12:46:15.442826 30766 net.cpp:148] Top shape: 100 256 13 13 (4326400)
I0403 12:46:15.442842 30766 net.cpp:156] Memory required for data: 818009200
I0403 12:46:15.442857 30766 layer_factory.hpp:77] Creating layer pool5
I0403 12:46:15.442883 30766 net.cpp:91] Creating Layer pool5
I0403 12:46:15.442899 30766 net.cpp:425] pool5 <- conv5
I0403 12:46:15.442919 30766 net.cpp:399] pool5 -> pool5
I0403 12:46:15.442984 30766 net.cpp:141] Setting up pool5
I0403 12:46:15.443012 30766 net.cpp:148] Top shape: 100 256 6 6 (921600)
I0403 12:46:15.443027 30766 net.cpp:156] Memory required for data: 821695600
I0403 12:46:15.443042 30766 layer_factory.hpp:77] Creating layer fc6
I0403 12:46:15.443073 30766 net.cpp:91] Creating Layer fc6
I0403 12:46:15.443091 30766 net.cpp:425] fc6 <- pool5
I0403 12:46:15.443109 30766 net.cpp:399] fc6 -> fc6
I0403 12:46:17.009506 30766 net.cpp:141] Setting up fc6
I0403 12:46:17.009552 30766 net.cpp:148] Top shape: 100 4096 (409600)
I0403 12:46:17.009569 30766 net.cpp:156] Memory required for data: 823334000
I0403 12:46:17.009593 30766 layer_factory.hpp:77] Creating layer relu6
I0403 12:46:17.009615 30766 net.cpp:91] Creating Layer relu6
I0403 12:46:17.009645 30766 net.cpp:425] relu6 <- fc6
I0403 12:46:17.009667 30766 net.cpp:386] relu6 -> fc6 (in-place)
I0403 12:46:17.009913 30766 net.cpp:141] Setting up relu6
I0403 12:46:17.009939 30766 net.cpp:148] Top shape: 100 4096 (409600)
I0403 12:46:17.009955 30766 net.cpp:156] Memory required for data: 824972400
I0403 12:46:17.009971 30766 layer_factory.hpp:77] Creating layer drop6
I0403 12:46:17.009994 30766 net.cpp:91] Creating Layer drop6
I0403 12:46:17.010011 30766 net.cpp:425] drop6 <- fc6
I0403 12:46:17.010030 30766 net.cpp:386] drop6 -> fc6 (in-place)
I0403 12:46:17.010083 30766 net.cpp:141] Setting up drop6
I0403 12:46:17.010109 30766 net.cpp:148] Top shape: 100 4096 (409600)
I0403 12:46:17.010126 30766 net.cpp:156] Memory required for data: 826610800
I0403 12:46:17.010143 30766 layer_factory.hpp:77] Creating layer fc7
I0403 12:46:17.010162 30766 net.cpp:91] Creating Layer fc7
I0403 12:46:17.010179 30766 net.cpp:425] fc7 <- fc6
I0403 12:46:17.010200 30766 net.cpp:399] fc7 -> fc7
I0403 12:46:17.698294 30766 net.cpp:141] Setting up fc7
I0403 12:46:17.698382 30766 net.cpp:148] Top shape: 100 4096 (409600)
I0403 12:46:17.698400 30766 net.cpp:156] Memory required for data: 828249200
I0403 12:46:17.698421 30766 layer_factory.hpp:77] Creating layer relu7
I0403 12:46:17.698444 30766 net.cpp:91] Creating Layer relu7
I0403 12:46:17.698462 30766 net.cpp:425] relu7 <- fc7
I0403 12:46:17.698482 30766 net.cpp:386] relu7 -> fc7 (in-place)
I0403 12:46:17.698899 30766 net.cpp:141] Setting up relu7
I0403 12:46:17.698926 30766 net.cpp:148] Top shape: 100 4096 (409600)
I0403 12:46:17.698992 30766 net.cpp:156] Memory required for data: 829887600
I0403 12:46:17.699009 30766 layer_factory.hpp:77] Creating layer drop7
I0403 12:46:17.699028 30766 net.cpp:91] Creating Layer drop7
I0403 12:46:17.699044 30766 net.cpp:425] drop7 <- fc7
I0403 12:46:17.699064 30766 net.cpp:386] drop7 -> fc7 (in-place)
I0403 12:46:17.699112 30766 net.cpp:141] Setting up drop7
I0403 12:46:17.699136 30766 net.cpp:148] Top shape: 100 4096 (409600)
I0403 12:46:17.699153 30766 net.cpp:156] Memory required for data: 831526000
I0403 12:46:17.699169 30766 layer_factory.hpp:77] Creating layer fc8_plantvillage
I0403 12:46:17.699189 30766 net.cpp:91] Creating Layer fc8_plantvillage
I0403 12:46:17.699204 30766 net.cpp:425] fc8_plantvillage <- fc7
I0403 12:46:17.699234 30766 net.cpp:399] fc8_plantvillage -> fc8_plantvillage
I0403 12:46:17.706140 30766 net.cpp:141] Setting up fc8_plantvillage
I0403 12:46:17.706172 30766 net.cpp:148] Top shape: 100 38 (3800)
I0403 12:46:17.706189 30766 net.cpp:156] Memory required for data: 831541200
I0403 12:46:17.706212 30766 layer_factory.hpp:77] Creating layer fc8_plantvillage_fc8_plantvillage_0_split
I0403 12:46:17.706234 30766 net.cpp:91] Creating Layer fc8_plantvillage_fc8_plantvillage_0_split
I0403 12:46:17.706250 30766 net.cpp:425] fc8_plantvillage_fc8_plantvillage_0_split <- fc8_plantvillage
I0403 12:46:17.706269 30766 net.cpp:399] fc8_plantvillage_fc8_plantvillage_0_split -> fc8_plantvillage_fc8_plantvillage_0_split_0
I0403 12:46:17.706289 30766 net.cpp:399] fc8_plantvillage_fc8_plantvillage_0_split -> fc8_plantvillage_fc8_plantvillage_0_split_1
I0403 12:46:17.706307 30766 net.cpp:399] fc8_plantvillage_fc8_plantvillage_0_split -> fc8_plantvillage_fc8_plantvillage_0_split_2
I0403 12:46:17.706385 30766 net.cpp:141] Setting up fc8_plantvillage_fc8_plantvillage_0_split
I0403 12:46:17.706408 30766 net.cpp:148] Top shape: 100 38 (3800)
I0403 12:46:17.706425 30766 net.cpp:148] Top shape: 100 38 (3800)
I0403 12:46:17.706441 30766 net.cpp:148] Top shape: 100 38 (3800)
I0403 12:46:17.706455 30766 net.cpp:156] Memory required for data: 831586800
I0403 12:46:17.706470 30766 layer_factory.hpp:77] Creating layer prob
I0403 12:46:17.706488 30766 net.cpp:91] Creating Layer prob
I0403 12:46:17.706504 30766 net.cpp:425] prob <- fc8_plantvillage_fc8_plantvillage_0_split_0
I0403 12:46:17.706521 30766 net.cpp:399] prob -> prob
I0403 12:46:17.706743 30766 net.cpp:141] Setting up prob
I0403 12:46:17.706768 30766 net.cpp:148] Top shape: 100 38 (3800)
I0403 12:46:17.706784 30766 net.cpp:156] Memory required for data: 831602000
I0403 12:46:17.706799 30766 layer_factory.hpp:77] Creating layer hdf5out
I0403 12:46:17.706817 30766 net.cpp:91] Creating Layer hdf5out
I0403 12:46:17.706832 30766 net.cpp:425] hdf5out <- prob
I0403 12:46:17.706851 30766 net.cpp:425] hdf5out <- label_data_1_split_0
I0403 12:46:17.709059 30766 net.cpp:141] Setting up hdf5out
…
