…
I0403 13:02:52.271301 31202 net.cpp:313] The NetState phase (1) differed from the phase (0) specified by a rule in layer data
I0403 13:02:52.271621 31202 net.cpp:49] Initializing net from parameters: 
state {
  phase: TEST
}
layer {
  name: "data"
  type: "Data"
  top: "data"
  top: "label"
  include {
    phase: TEST
  }
  transform_param {
    crop_size: 227
    mean_file: "/home/mohanty/data/final_dataset/lmdb/grayscale-40-60/mean.binaryproto"
  }
  data_param {
    source: "/home/mohanty/data/final_dataset/lmdb/grayscale-40-60/test_db"
    batch_size: 100
    backend: LMDB
  }
}
layer {
  name: "conv1"
  type: "Convolution"
  bottom: "data"
  top: "conv1"
  param {
    lr_mult: 1
    decay_mult: 1
  }
  param {
    lr_mult: 2
    decay_mult: 0
  }
  convolution_param {
    num_output: 96
    kernel_size: 11
    stride: 4
    weight_filler {
      type: "gaussian"
      std: 0.01
    }
    bias_filler {
      type: "constant"
      value: 0
    }
  }
}
layer {
  name: "relu1"
  type: "ReLU"
  bottom: "conv1"
  top: "conv1"
}
layer {
  name: "norm1"
  type: "LRN"
  bottom: "conv1"
  top: "norm1"
  lrn_param {
    local_size: 5
    alpha: 0.0001
    beta: 0.75
  }
}
layer {
  name: "pool1"
  type: "Pooling"
  bottom: "norm1"
  top: "pool1"
  pooling_param {
    pool: MAX
    kernel_size: 3
    stride: 2
  }
}
layer {
  name: "conv2"
  type: "Convolution"
  bottom: "pool1"
  top: "conv2"
  param {
    lr_mult: 1
    decay_mult: 1
  }
  param {
    lr_mult: 2
    decay_mult: 0
  }
  convolution_param {
    num_output: 256
    pad: 2
    kernel_size: 5
    group: 2
    weight_filler {
      type: "gaussian"
      std: 0.01
    }
    bias_filler {
      type: "constant"
      value: 0.1
    }
  }
}
layer {
  name: "relu2"
  type: "ReLU"
  bottom: "conv2"
  top: "conv2"
}
layer {
  name: "norm2"
  type: "LRN"
  bottom: "conv2"
  top: "norm2"
  lrn_param {
    local_size: 5
    alpha: 0.0001
    beta: 0.75
  }
}
layer {
  name: "pool2"
  type: "Pooling"
  bottom: "norm2"
  top: "pool2"
  pooling_param {
    pool: MAX
    kernel_size: 3
    stride: 2
  }
}
layer {
  name: "conv3"
  type: "Convolution"
  bottom: "pool2"
  top: "conv3"
  param {
    lr_mult: 1
    decay_mult: 1
  }
  param {
    lr_mult: 2
    decay_mult: 0
  }
  convolution_param {
    num_output: 384
    pad: 1
    kernel_size: 3
    weight_filler {
      type: "gaussian"
      std: 0.01
    }
    bias_filler {
      type: "constant"
      value: 0
    }
  }
}
layer {
  name: "relu3"
  type: "ReLU"
  bottom: "conv3"
  top: "conv3"
}
layer {
  name: "conv4"
  type: "Convolution"
  bottom: "conv3"
  top: "conv4"
  param {
    lr_mult: 1
    decay_mult: 1
  }
  param {
    lr_mult: 2
    decay_mult: 0
  }
  convolution_param {
    num_output: 384
    pad: 1
    kernel_size: 3
    group: 2
    weight_filler {
      type: "gaussian"
      std: 0.01
    }
    bias_filler {
      type: "constant"
      value: 0.1
    }
  }
}
layer {
  name: "relu4"
  type: "ReLU"
  bottom: "conv4"
  top: "conv4"
}
layer {
  name: "conv5"
  type: "Convolution"
  bottom: "conv4"
  top: "conv5"
  param {
    lr_mult: 1
    decay_mult: 1
  }
  param {
    lr_mult: 2
    decay_mult: 0
  }
  convolution_param {
    num_output: 256
    pad: 1
    kernel_size: 3
    group: 2
    weight_filler {
      type: "gaussian"
      std: 0.01
    }
    bias_filler {
      type: "constant"
      value: 0.1
    }
  }
}
layer {
  name: "relu5"
  type: "ReLU"
  bottom: "conv5"
  top: "conv5"
}
layer {
  name: "pool5"
  type: "Pooling"
  bottom: "conv5"
  top: "pool5"
  pooling_param {
    pool: MAX
    kernel_size: 3
    stride: 2
  }
}
layer {
  name: "fc6"
  type: "InnerProduct"
  bottom: "pool5"
  top: "fc6"
  param {
    lr_mult: 1
    decay_mult: 1
  }
  param {
    lr_mult: 2
    decay_mult: 0
  }
  inner_product_param {
    num_output: 4096
    weight_filler {
      type: "gaussian"
      std: 0.005
    }
    bias_filler {
      type: "constant"
      value: 0.1
    }
  }
}
layer {
  name: "relu6"
  type: "ReLU"
  bottom: "fc6"
  top: "fc6"
}
layer {
  name: "drop6"
  type: "Dropout"
  bottom: "fc6"
  top: "fc6"
  dropout_param {
    dropout_ratio: 0.5
  }
}
layer {
  name: "fc7"
  type: "InnerProduct"
  bottom: "fc6"
  top: "fc7"
  param {
    lr_mult: 1
    decay_mult: 1
  }
  param {
    lr_mult: 2
    decay_mult: 0
  }
  inner_product_param {
    num_output: 4096
    weight_filler {
      type: "gaussian"
      std: 0.005
    }
    bias_filler {
      type: "constant"
      value: 0.1
    }
  }
}
layer {
  name: "relu7"
  type: "ReLU"
  bottom: "fc7"
  top: "fc7"
}
layer {
  name: "drop7"
  type: "Dropout"
  bottom: "fc7"
  top: "fc7"
  dropout_param {
    dropout_ratio: 0.5
  }
}
layer {
  name: "fc8_plantvillage"
  type: "InnerProduct"
  bottom: "fc7"
  top: "fc8_plantvillage"
  param {
    lr_mult: 1
    decay_mult: 1
  }
  param {
    lr_mult: 2
    decay_mult: 0
  }
  inner_product_param {
    num_output: 38
    weight_filler {
      type: "gaussian"
      std: 0.01
    }
    bias_filler {
      type: "constant"
      value: 0
    }
  }
}
layer {
  name: "prob"
  type: "Softmax"
  bottom: "fc8_plantvillage"
  top: "prob"
  include {
    phase: TEST
  }
}
layer {
  name: "hdf5out"
  type: "HDF5Output"
  bottom: "prob"
  bottom: "label"
  include {
    phase: TEST
  }
  hdf5_output_param {
    file_name: "hdf5_dumps/iter_5913.h5"
  }
}
layer {
  name: "loss"
  type: "SoftmaxWithLoss"
  bottom: "fc8_plantvillage"
  bottom: "label"
  top: "loss"
}
layer {
  name: "accuracy"
  type: "Accuracy"
  bottom: "fc8_plantvillage"
  bottom: "label"
  top: "accuracy"
  include {
    phase: TEST
  }
}
I0403 13:02:52.272178 31202 layer_factory.hpp:77] Creating layer data
I0403 13:02:52.272835 31202 net.cpp:91] Creating Layer data
I0403 13:02:52.272867 31202 net.cpp:399] data -> data
I0403 13:02:52.272918 31202 net.cpp:399] data -> label
I0403 13:02:52.272958 31202 data_transformer.cpp:25] Loading mean file from: /home/mohanty/data/final_dataset/lmdb/grayscale-40-60/mean.binaryproto
I0403 13:02:52.275501 31205 db_lmdb.cpp:38] Opened lmdb /home/mohanty/data/final_dataset/lmdb/grayscale-40-60/test_db
I0403 13:02:52.287611 31202 data_layer.cpp:41] output data size: 100,3,227,227
I0403 13:02:52.411061 31202 net.cpp:141] Setting up data
I0403 13:02:52.411169 31202 net.cpp:148] Top shape: 100 3 227 227 (15458700)
I0403 13:02:52.411191 31202 net.cpp:148] Top shape: 100 (100)
I0403 13:02:52.411212 31202 net.cpp:156] Memory required for data: 61835200
I0403 13:02:52.411243 31202 layer_factory.hpp:77] Creating layer label_data_1_split
I0403 13:02:52.411269 31202 net.cpp:91] Creating Layer label_data_1_split
I0403 13:02:52.411288 31202 net.cpp:425] label_data_1_split <- label
I0403 13:02:52.411320 31202 net.cpp:399] label_data_1_split -> label_data_1_split_0
I0403 13:02:52.411348 31202 net.cpp:399] label_data_1_split -> label_data_1_split_1
I0403 13:02:52.411370 31202 net.cpp:399] label_data_1_split -> label_data_1_split_2
I0403 13:02:52.411434 31202 net.cpp:141] Setting up label_data_1_split
I0403 13:02:52.411458 31202 net.cpp:148] Top shape: 100 (100)
I0403 13:02:52.411475 31202 net.cpp:148] Top shape: 100 (100)
I0403 13:02:52.411492 31202 net.cpp:148] Top shape: 100 (100)
I0403 13:02:52.411507 31202 net.cpp:156] Memory required for data: 61836400
I0403 13:02:52.411522 31202 layer_factory.hpp:77] Creating layer conv1
I0403 13:02:52.411556 31202 net.cpp:91] Creating Layer conv1
I0403 13:02:52.411574 31202 net.cpp:425] conv1 <- data
I0403 13:02:52.411594 31202 net.cpp:399] conv1 -> conv1
I0403 13:02:52.556128 31202 net.cpp:141] Setting up conv1
I0403 13:02:52.556222 31202 net.cpp:148] Top shape: 100 96 55 55 (29040000)
I0403 13:02:52.556243 31202 net.cpp:156] Memory required for data: 177996400
I0403 13:02:52.556275 31202 layer_factory.hpp:77] Creating layer relu1
I0403 13:02:52.556304 31202 net.cpp:91] Creating Layer relu1
I0403 13:02:52.556324 31202 net.cpp:425] relu1 <- conv1
I0403 13:02:52.556346 31202 net.cpp:386] relu1 -> conv1 (in-place)
I0403 13:02:52.556638 31202 net.cpp:141] Setting up relu1
I0403 13:02:52.556665 31202 net.cpp:148] Top shape: 100 96 55 55 (29040000)
I0403 13:02:52.556712 31202 net.cpp:156] Memory required for data: 294156400
I0403 13:02:52.556730 31202 layer_factory.hpp:77] Creating layer norm1
I0403 13:02:52.556757 31202 net.cpp:91] Creating Layer norm1
I0403 13:02:52.556777 31202 net.cpp:425] norm1 <- conv1
I0403 13:02:52.556798 31202 net.cpp:399] norm1 -> norm1
I0403 13:02:52.557149 31202 net.cpp:141] Setting up norm1
I0403 13:02:52.557178 31202 net.cpp:148] Top shape: 100 96 55 55 (29040000)
I0403 13:02:52.557194 31202 net.cpp:156] Memory required for data: 410316400
I0403 13:02:52.557214 31202 layer_factory.hpp:77] Creating layer pool1
I0403 13:02:52.557240 31202 net.cpp:91] Creating Layer pool1
I0403 13:02:52.557258 31202 net.cpp:425] pool1 <- norm1
I0403 13:02:52.557281 31202 net.cpp:399] pool1 -> pool1
I0403 13:02:52.557354 31202 net.cpp:141] Setting up pool1
I0403 13:02:52.557380 31202 net.cpp:148] Top shape: 100 96 27 27 (6998400)
I0403 13:02:52.557395 31202 net.cpp:156] Memory required for data: 438310000
I0403 13:02:52.557411 31202 layer_factory.hpp:77] Creating layer conv2
I0403 13:02:52.557440 31202 net.cpp:91] Creating Layer conv2
I0403 13:02:52.557457 31202 net.cpp:425] conv2 <- pool1
I0403 13:02:52.557478 31202 net.cpp:399] conv2 -> conv2
I0403 13:02:52.573248 31202 net.cpp:141] Setting up conv2
I0403 13:02:52.573307 31202 net.cpp:148] Top shape: 100 256 27 27 (18662400)
I0403 13:02:52.573325 31202 net.cpp:156] Memory required for data: 512959600
I0403 13:02:52.573348 31202 layer_factory.hpp:77] Creating layer relu2
I0403 13:02:52.573372 31202 net.cpp:91] Creating Layer relu2
I0403 13:02:52.573390 31202 net.cpp:425] relu2 <- conv2
I0403 13:02:52.573408 31202 net.cpp:386] relu2 -> conv2 (in-place)
I0403 13:02:52.573701 31202 net.cpp:141] Setting up relu2
I0403 13:02:52.573730 31202 net.cpp:148] Top shape: 100 256 27 27 (18662400)
I0403 13:02:52.573747 31202 net.cpp:156] Memory required for data: 587609200
I0403 13:02:52.573762 31202 layer_factory.hpp:77] Creating layer norm2
I0403 13:02:52.573786 31202 net.cpp:91] Creating Layer norm2
I0403 13:02:52.573804 31202 net.cpp:425] norm2 <- conv2
I0403 13:02:52.573825 31202 net.cpp:399] norm2 -> norm2
I0403 13:02:52.574038 31202 net.cpp:141] Setting up norm2
I0403 13:02:52.574064 31202 net.cpp:148] Top shape: 100 256 27 27 (18662400)
I0403 13:02:52.574079 31202 net.cpp:156] Memory required for data: 662258800
I0403 13:02:52.574095 31202 layer_factory.hpp:77] Creating layer pool2
I0403 13:02:52.574116 31202 net.cpp:91] Creating Layer pool2
I0403 13:02:52.574133 31202 net.cpp:425] pool2 <- norm2
I0403 13:02:52.574151 31202 net.cpp:399] pool2 -> pool2
I0403 13:02:52.574206 31202 net.cpp:141] Setting up pool2
I0403 13:02:52.574235 31202 net.cpp:148] Top shape: 100 256 13 13 (4326400)
I0403 13:02:52.574250 31202 net.cpp:156] Memory required for data: 679564400
I0403 13:02:52.574267 31202 layer_factory.hpp:77] Creating layer conv3
I0403 13:02:52.574292 31202 net.cpp:91] Creating Layer conv3
I0403 13:02:52.574311 31202 net.cpp:425] conv3 <- pool2
I0403 13:02:52.574331 31202 net.cpp:399] conv3 -> conv3
I0403 13:02:52.617264 31202 net.cpp:141] Setting up conv3
I0403 13:02:52.617353 31202 net.cpp:148] Top shape: 100 384 13 13 (6489600)
I0403 13:02:52.617370 31202 net.cpp:156] Memory required for data: 705522800
I0403 13:02:52.617396 31202 layer_factory.hpp:77] Creating layer relu3
I0403 13:02:52.617421 31202 net.cpp:91] Creating Layer relu3
I0403 13:02:52.617441 31202 net.cpp:425] relu3 <- conv3
I0403 13:02:52.617460 31202 net.cpp:386] relu3 -> conv3 (in-place)
I0403 13:02:52.617739 31202 net.cpp:141] Setting up relu3
I0403 13:02:52.617768 31202 net.cpp:148] Top shape: 100 384 13 13 (6489600)
I0403 13:02:52.617782 31202 net.cpp:156] Memory required for data: 731481200
I0403 13:02:52.617797 31202 layer_factory.hpp:77] Creating layer conv4
I0403 13:02:52.617823 31202 net.cpp:91] Creating Layer conv4
I0403 13:02:52.617843 31202 net.cpp:425] conv4 <- conv3
I0403 13:02:52.617866 31202 net.cpp:399] conv4 -> conv4
I0403 13:02:52.647666 31202 net.cpp:141] Setting up conv4
I0403 13:02:52.647742 31202 net.cpp:148] Top shape: 100 384 13 13 (6489600)
I0403 13:02:52.647794 31202 net.cpp:156] Memory required for data: 757439600
I0403 13:02:52.647816 31202 layer_factory.hpp:77] Creating layer relu4
I0403 13:02:52.647838 31202 net.cpp:91] Creating Layer relu4
I0403 13:02:52.647856 31202 net.cpp:425] relu4 <- conv4
I0403 13:02:52.647879 31202 net.cpp:386] relu4 -> conv4 (in-place)
I0403 13:02:52.648177 31202 net.cpp:141] Setting up relu4
I0403 13:02:52.648212 31202 net.cpp:148] Top shape: 100 384 13 13 (6489600)
I0403 13:02:52.648231 31202 net.cpp:156] Memory required for data: 783398000
I0403 13:02:52.648250 31202 layer_factory.hpp:77] Creating layer conv5
I0403 13:02:52.648288 31202 net.cpp:91] Creating Layer conv5
I0403 13:02:52.648308 31202 net.cpp:425] conv5 <- conv4
I0403 13:02:52.648331 31202 net.cpp:399] conv5 -> conv5
I0403 13:02:52.669288 31202 net.cpp:141] Setting up conv5
I0403 13:02:52.669359 31202 net.cpp:148] Top shape: 100 256 13 13 (4326400)
I0403 13:02:52.669376 31202 net.cpp:156] Memory required for data: 800703600
I0403 13:02:52.669401 31202 layer_factory.hpp:77] Creating layer relu5
I0403 13:02:52.669425 31202 net.cpp:91] Creating Layer relu5
I0403 13:02:52.669443 31202 net.cpp:425] relu5 <- conv5
I0403 13:02:52.669462 31202 net.cpp:386] relu5 -> conv5 (in-place)
I0403 13:02:52.669752 31202 net.cpp:141] Setting up relu5
I0403 13:02:52.669780 31202 net.cpp:148] Top shape: 100 256 13 13 (4326400)
I0403 13:02:52.669795 31202 net.cpp:156] Memory required for data: 818009200
I0403 13:02:52.669811 31202 layer_factory.hpp:77] Creating layer pool5
I0403 13:02:52.669836 31202 net.cpp:91] Creating Layer pool5
I0403 13:02:52.669852 31202 net.cpp:425] pool5 <- conv5
I0403 13:02:52.669872 31202 net.cpp:399] pool5 -> pool5
I0403 13:02:52.669934 31202 net.cpp:141] Setting up pool5
I0403 13:02:52.669957 31202 net.cpp:148] Top shape: 100 256 6 6 (921600)
I0403 13:02:52.669972 31202 net.cpp:156] Memory required for data: 821695600
I0403 13:02:52.669987 31202 layer_factory.hpp:77] Creating layer fc6
I0403 13:02:52.670016 31202 net.cpp:91] Creating Layer fc6
I0403 13:02:52.670033 31202 net.cpp:425] fc6 <- pool5
I0403 13:02:52.670053 31202 net.cpp:399] fc6 -> fc6
I0403 13:02:54.241161 31202 net.cpp:141] Setting up fc6
I0403 13:02:54.241255 31202 net.cpp:148] Top shape: 100 4096 (409600)
I0403 13:02:54.241271 31202 net.cpp:156] Memory required for data: 823334000
I0403 13:02:54.241292 31202 layer_factory.hpp:77] Creating layer relu6
I0403 13:02:54.241314 31202 net.cpp:91] Creating Layer relu6
I0403 13:02:54.241330 31202 net.cpp:425] relu6 <- fc6
I0403 13:02:54.241353 31202 net.cpp:386] relu6 -> fc6 (in-place)
I0403 13:02:54.241575 31202 net.cpp:141] Setting up relu6
I0403 13:02:54.241600 31202 net.cpp:148] Top shape: 100 4096 (409600)
I0403 13:02:54.241614 31202 net.cpp:156] Memory required for data: 824972400
I0403 13:02:54.241629 31202 layer_factory.hpp:77] Creating layer drop6
I0403 13:02:54.241649 31202 net.cpp:91] Creating Layer drop6
I0403 13:02:54.241667 31202 net.cpp:425] drop6 <- fc6
I0403 13:02:54.241683 31202 net.cpp:386] drop6 -> fc6 (in-place)
I0403 13:02:54.241734 31202 net.cpp:141] Setting up drop6
I0403 13:02:54.241758 31202 net.cpp:148] Top shape: 100 4096 (409600)
I0403 13:02:54.241773 31202 net.cpp:156] Memory required for data: 826610800
I0403 13:02:54.241788 31202 layer_factory.hpp:77] Creating layer fc7
I0403 13:02:54.241808 31202 net.cpp:91] Creating Layer fc7
I0403 13:02:54.241822 31202 net.cpp:425] fc7 <- fc6
I0403 13:02:54.241842 31202 net.cpp:399] fc7 -> fc7
I0403 13:02:54.926662 31202 net.cpp:141] Setting up fc7
I0403 13:02:54.926736 31202 net.cpp:148] Top shape: 100 4096 (409600)
I0403 13:02:54.926753 31202 net.cpp:156] Memory required for data: 828249200
I0403 13:02:54.926774 31202 layer_factory.hpp:77] Creating layer relu7
I0403 13:02:54.926796 31202 net.cpp:91] Creating Layer relu7
I0403 13:02:54.926813 31202 net.cpp:425] relu7 <- fc7
I0403 13:02:54.926838 31202 net.cpp:386] relu7 -> fc7 (in-place)
I0403 13:02:54.927261 31202 net.cpp:141] Setting up relu7
I0403 13:02:54.927289 31202 net.cpp:148] Top shape: 100 4096 (409600)
I0403 13:02:54.927335 31202 net.cpp:156] Memory required for data: 829887600
I0403 13:02:54.927351 31202 layer_factory.hpp:77] Creating layer drop7
I0403 13:02:54.927371 31202 net.cpp:91] Creating Layer drop7
I0403 13:02:54.927386 31202 net.cpp:425] drop7 <- fc7
I0403 13:02:54.927405 31202 net.cpp:386] drop7 -> fc7 (in-place)
I0403 13:02:54.927448 31202 net.cpp:141] Setting up drop7
I0403 13:02:54.927474 31202 net.cpp:148] Top shape: 100 4096 (409600)
I0403 13:02:54.927487 31202 net.cpp:156] Memory required for data: 831526000
I0403 13:02:54.927502 31202 layer_factory.hpp:77] Creating layer fc8_plantvillage
I0403 13:02:54.927523 31202 net.cpp:91] Creating Layer fc8_plantvillage
I0403 13:02:54.927539 31202 net.cpp:425] fc8_plantvillage <- fc7
I0403 13:02:54.927561 31202 net.cpp:399] fc8_plantvillage -> fc8_plantvillage
I0403 13:02:54.934509 31202 net.cpp:141] Setting up fc8_plantvillage
I0403 13:02:54.934540 31202 net.cpp:148] Top shape: 100 38 (3800)
I0403 13:02:54.934554 31202 net.cpp:156] Memory required for data: 831541200
I0403 13:02:54.934573 31202 layer_factory.hpp:77] Creating layer fc8_plantvillage_fc8_plantvillage_0_split
I0403 13:02:54.934597 31202 net.cpp:91] Creating Layer fc8_plantvillage_fc8_plantvillage_0_split
I0403 13:02:54.934613 31202 net.cpp:425] fc8_plantvillage_fc8_plantvillage_0_split <- fc8_plantvillage
I0403 13:02:54.934631 31202 net.cpp:399] fc8_plantvillage_fc8_plantvillage_0_split -> fc8_plantvillage_fc8_plantvillage_0_split_0
I0403 13:02:54.934653 31202 net.cpp:399] fc8_plantvillage_fc8_plantvillage_0_split -> fc8_plantvillage_fc8_plantvillage_0_split_1
I0403 13:02:54.934672 31202 net.cpp:399] fc8_plantvillage_fc8_plantvillage_0_split -> fc8_plantvillage_fc8_plantvillage_0_split_2
I0403 13:02:54.934753 31202 net.cpp:141] Setting up fc8_plantvillage_fc8_plantvillage_0_split
I0403 13:02:54.934779 31202 net.cpp:148] Top shape: 100 38 (3800)
I0403 13:02:54.934797 31202 net.cpp:148] Top shape: 100 38 (3800)
I0403 13:02:54.934813 31202 net.cpp:148] Top shape: 100 38 (3800)
I0403 13:02:54.934826 31202 net.cpp:156] Memory required for data: 831586800
I0403 13:02:54.934841 31202 layer_factory.hpp:77] Creating layer prob
I0403 13:02:54.934860 31202 net.cpp:91] Creating Layer prob
I0403 13:02:54.934875 31202 net.cpp:425] prob <- fc8_plantvillage_fc8_plantvillage_0_split_0
I0403 13:02:54.934893 31202 net.cpp:399] prob -> prob
I0403 13:02:54.935125 31202 net.cpp:141] Setting up prob
I0403 13:02:54.935151 31202 net.cpp:148] Top shape: 100 38 (3800)
I0403 13:02:54.935166 31202 net.cpp:156] Memory required for data: 831602000
I0403 13:02:54.935183 31202 layer_factory.hpp:77] Creating layer hdf5out
I0403 13:02:54.935202 31202 net.cpp:91] Creating Layer hdf5out
I0403 13:02:54.935225 31202 net.cpp:425] hdf5out <- prob
I0403 13:02:54.935241 31202 net.cpp:425] hdf5out <- label_data_1_split_0
I0403 13:02:54.937474 31202 net.cpp:141] Setting up hdf5out
…
