…
I0403 12:36:17.234210 30487 net.cpp:313] The NetState phase (1) differed from the phase (0) specified by a rule in layer data
I0403 12:36:17.234520 30487 net.cpp:49] Initializing net from parameters: 
state {
  phase: TEST
}
layer {
  name: "data"
  type: "Data"
  top: "data"
  top: "label"
  include {
    phase: TEST
  }
  transform_param {
    crop_size: 227
    mean_file: "/home/mohanty/data/final_dataset/lmdb/grayscale-40-60/mean.binaryproto"
  }
  data_param {
    source: "/home/mohanty/data/final_dataset/lmdb/grayscale-40-60/test_db"
    batch_size: 100
    backend: LMDB
  }
}
layer {
  name: "conv1"
  type: "Convolution"
  bottom: "data"
  top: "conv1"
  param {
    lr_mult: 1
    decay_mult: 1
  }
  param {
    lr_mult: 2
    decay_mult: 0
  }
  convolution_param {
    num_output: 96
    kernel_size: 11
    stride: 4
    weight_filler {
      type: "gaussian"
      std: 0.01
    }
    bias_filler {
      type: "constant"
      value: 0
    }
  }
}
layer {
  name: "relu1"
  type: "ReLU"
  bottom: "conv1"
  top: "conv1"
}
layer {
  name: "norm1"
  type: "LRN"
  bottom: "conv1"
  top: "norm1"
  lrn_param {
    local_size: 5
    alpha: 0.0001
    beta: 0.75
  }
}
layer {
  name: "pool1"
  type: "Pooling"
  bottom: "norm1"
  top: "pool1"
  pooling_param {
    pool: MAX
    kernel_size: 3
    stride: 2
  }
}
layer {
  name: "conv2"
  type: "Convolution"
  bottom: "pool1"
  top: "conv2"
  param {
    lr_mult: 1
    decay_mult: 1
  }
  param {
    lr_mult: 2
    decay_mult: 0
  }
  convolution_param {
    num_output: 256
    pad: 2
    kernel_size: 5
    group: 2
    weight_filler {
      type: "gaussian"
      std: 0.01
    }
    bias_filler {
      type: "constant"
      value: 0.1
    }
  }
}
layer {
  name: "relu2"
  type: "ReLU"
  bottom: "conv2"
  top: "conv2"
}
layer {
  name: "norm2"
  type: "LRN"
  bottom: "conv2"
  top: "norm2"
  lrn_param {
    local_size: 5
    alpha: 0.0001
    beta: 0.75
  }
}
layer {
  name: "pool2"
  type: "Pooling"
  bottom: "norm2"
  top: "pool2"
  pooling_param {
    pool: MAX
    kernel_size: 3
    stride: 2
  }
}
layer {
  name: "conv3"
  type: "Convolution"
  bottom: "pool2"
  top: "conv3"
  param {
    lr_mult: 1
    decay_mult: 1
  }
  param {
    lr_mult: 2
    decay_mult: 0
  }
  convolution_param {
    num_output: 384
    pad: 1
    kernel_size: 3
    weight_filler {
      type: "gaussian"
      std: 0.01
    }
    bias_filler {
      type: "constant"
      value: 0
    }
  }
}
layer {
  name: "relu3"
  type: "ReLU"
  bottom: "conv3"
  top: "conv3"
}
layer {
  name: "conv4"
  type: "Convolution"
  bottom: "conv3"
  top: "conv4"
  param {
    lr_mult: 1
    decay_mult: 1
  }
  param {
    lr_mult: 2
    decay_mult: 0
  }
  convolution_param {
    num_output: 384
    pad: 1
    kernel_size: 3
    group: 2
    weight_filler {
      type: "gaussian"
      std: 0.01
    }
    bias_filler {
      type: "constant"
      value: 0.1
    }
  }
}
layer {
  name: "relu4"
  type: "ReLU"
  bottom: "conv4"
  top: "conv4"
}
layer {
  name: "conv5"
  type: "Convolution"
  bottom: "conv4"
  top: "conv5"
  param {
    lr_mult: 1
    decay_mult: 1
  }
  param {
    lr_mult: 2
    decay_mult: 0
  }
  convolution_param {
    num_output: 256
    pad: 1
    kernel_size: 3
    group: 2
    weight_filler {
      type: "gaussian"
      std: 0.01
    }
    bias_filler {
      type: "constant"
      value: 0.1
    }
  }
}
layer {
  name: "relu5"
  type: "ReLU"
  bottom: "conv5"
  top: "conv5"
}
layer {
  name: "pool5"
  type: "Pooling"
  bottom: "conv5"
  top: "pool5"
  pooling_param {
    pool: MAX
    kernel_size: 3
    stride: 2
  }
}
layer {
  name: "fc6"
  type: "InnerProduct"
  bottom: "pool5"
  top: "fc6"
  param {
    lr_mult: 1
    decay_mult: 1
  }
  param {
    lr_mult: 2
    decay_mult: 0
  }
  inner_product_param {
    num_output: 4096
    weight_filler {
      type: "gaussian"
      std: 0.005
    }
    bias_filler {
      type: "constant"
      value: 0.1
    }
  }
}
layer {
  name: "relu6"
  type: "ReLU"
  bottom: "fc6"
  top: "fc6"
}
layer {
  name: "drop6"
  type: "Dropout"
  bottom: "fc6"
  top: "fc6"
  dropout_param {
    dropout_ratio: 0.5
  }
}
layer {
  name: "fc7"
  type: "InnerProduct"
  bottom: "fc6"
  top: "fc7"
  param {
    lr_mult: 1
    decay_mult: 1
  }
  param {
    lr_mult: 2
    decay_mult: 0
  }
  inner_product_param {
    num_output: 4096
    weight_filler {
      type: "gaussian"
      std: 0.005
    }
    bias_filler {
      type: "constant"
      value: 0.1
    }
  }
}
layer {
  name: "relu7"
  type: "ReLU"
  bottom: "fc7"
  top: "fc7"
}
layer {
  name: "drop7"
  type: "Dropout"
  bottom: "fc7"
  top: "fc7"
  dropout_param {
    dropout_ratio: 0.5
  }
}
layer {
  name: "fc8_plantvillage"
  type: "InnerProduct"
  bottom: "fc7"
  top: "fc8_plantvillage"
  param {
    lr_mult: 1
    decay_mult: 1
  }
  param {
    lr_mult: 2
    decay_mult: 0
  }
  inner_product_param {
    num_output: 38
    weight_filler {
      type: "gaussian"
      std: 0.01
    }
    bias_filler {
      type: "constant"
      value: 0
    }
  }
}
layer {
  name: "prob"
  type: "Softmax"
  bottom: "fc8_plantvillage"
  top: "prob"
  include {
    phase: TEST
  }
}
layer {
  name: "hdf5out"
  type: "HDF5Output"
  bottom: "prob"
  bottom: "label"
  include {
    phase: TEST
  }
  hdf5_output_param {
    file_name: "hdf5_dumps/iter_657.h5"
  }
}
layer {
  name: "loss"
  type: "SoftmaxWithLoss"
  bottom: "fc8_plantvillage"
  bottom: "label"
  top: "loss"
}
layer {
  name: "accuracy"
  type: "Accuracy"
  bottom: "fc8_plantvillage"
  bottom: "label"
  top: "accuracy"
  include {
    phase: TEST
  }
}
I0403 12:36:17.235126 30487 layer_factory.hpp:77] Creating layer data
I0403 12:36:17.235797 30487 net.cpp:91] Creating Layer data
I0403 12:36:17.235831 30487 net.cpp:399] data -> data
I0403 12:36:17.235883 30487 net.cpp:399] data -> label
I0403 12:36:17.235920 30487 data_transformer.cpp:25] Loading mean file from: /home/mohanty/data/final_dataset/lmdb/grayscale-40-60/mean.binaryproto
I0403 12:36:17.238445 30490 db_lmdb.cpp:38] Opened lmdb /home/mohanty/data/final_dataset/lmdb/grayscale-40-60/test_db
I0403 12:36:17.250847 30487 data_layer.cpp:41] output data size: 100,3,227,227
I0403 12:36:17.372316 30487 net.cpp:141] Setting up data
I0403 12:36:17.372407 30487 net.cpp:148] Top shape: 100 3 227 227 (15458700)
I0403 12:36:17.372432 30487 net.cpp:148] Top shape: 100 (100)
I0403 12:36:17.372448 30487 net.cpp:156] Memory required for data: 61835200
I0403 12:36:17.372476 30487 layer_factory.hpp:77] Creating layer label_data_1_split
I0403 12:36:17.372503 30487 net.cpp:91] Creating Layer label_data_1_split
I0403 12:36:17.372521 30487 net.cpp:425] label_data_1_split <- label
I0403 12:36:17.372556 30487 net.cpp:399] label_data_1_split -> label_data_1_split_0
I0403 12:36:17.372583 30487 net.cpp:399] label_data_1_split -> label_data_1_split_1
I0403 12:36:17.372604 30487 net.cpp:399] label_data_1_split -> label_data_1_split_2
I0403 12:36:17.372669 30487 net.cpp:141] Setting up label_data_1_split
I0403 12:36:17.372694 30487 net.cpp:148] Top shape: 100 (100)
I0403 12:36:17.372711 30487 net.cpp:148] Top shape: 100 (100)
I0403 12:36:17.372730 30487 net.cpp:148] Top shape: 100 (100)
I0403 12:36:17.372746 30487 net.cpp:156] Memory required for data: 61836400
I0403 12:36:17.372762 30487 layer_factory.hpp:77] Creating layer conv1
I0403 12:36:17.372795 30487 net.cpp:91] Creating Layer conv1
I0403 12:36:17.372814 30487 net.cpp:425] conv1 <- data
I0403 12:36:17.372836 30487 net.cpp:399] conv1 -> conv1
I0403 12:36:17.515135 30487 net.cpp:141] Setting up conv1
I0403 12:36:17.515214 30487 net.cpp:148] Top shape: 100 96 55 55 (29040000)
I0403 12:36:17.515233 30487 net.cpp:156] Memory required for data: 177996400
I0403 12:36:17.515265 30487 layer_factory.hpp:77] Creating layer relu1
I0403 12:36:17.515295 30487 net.cpp:91] Creating Layer relu1
I0403 12:36:17.515314 30487 net.cpp:425] relu1 <- conv1
I0403 12:36:17.515334 30487 net.cpp:386] relu1 -> conv1 (in-place)
I0403 12:36:17.515601 30487 net.cpp:141] Setting up relu1
I0403 12:36:17.515630 30487 net.cpp:148] Top shape: 100 96 55 55 (29040000)
I0403 12:36:17.515676 30487 net.cpp:156] Memory required for data: 294156400
I0403 12:36:17.515693 30487 layer_factory.hpp:77] Creating layer norm1
I0403 12:36:17.515723 30487 net.cpp:91] Creating Layer norm1
I0403 12:36:17.515743 30487 net.cpp:425] norm1 <- conv1
I0403 12:36:17.515763 30487 net.cpp:399] norm1 -> norm1
I0403 12:36:17.516077 30487 net.cpp:141] Setting up norm1
I0403 12:36:17.516105 30487 net.cpp:148] Top shape: 100 96 55 55 (29040000)
I0403 12:36:17.516121 30487 net.cpp:156] Memory required for data: 410316400
I0403 12:36:17.516137 30487 layer_factory.hpp:77] Creating layer pool1
I0403 12:36:17.516161 30487 net.cpp:91] Creating Layer pool1
I0403 12:36:17.516183 30487 net.cpp:425] pool1 <- norm1
I0403 12:36:17.516204 30487 net.cpp:399] pool1 -> pool1
I0403 12:36:17.516274 30487 net.cpp:141] Setting up pool1
I0403 12:36:17.516299 30487 net.cpp:148] Top shape: 100 96 27 27 (6998400)
I0403 12:36:17.516314 30487 net.cpp:156] Memory required for data: 438310000
I0403 12:36:17.516330 30487 layer_factory.hpp:77] Creating layer conv2
I0403 12:36:17.516355 30487 net.cpp:91] Creating Layer conv2
I0403 12:36:17.516372 30487 net.cpp:425] conv2 <- pool1
I0403 12:36:17.516392 30487 net.cpp:399] conv2 -> conv2
I0403 12:36:17.531680 30487 net.cpp:141] Setting up conv2
I0403 12:36:17.531734 30487 net.cpp:148] Top shape: 100 256 27 27 (18662400)
I0403 12:36:17.531754 30487 net.cpp:156] Memory required for data: 512959600
I0403 12:36:17.531776 30487 layer_factory.hpp:77] Creating layer relu2
I0403 12:36:17.531801 30487 net.cpp:91] Creating Layer relu2
I0403 12:36:17.531819 30487 net.cpp:425] relu2 <- conv2
I0403 12:36:17.531837 30487 net.cpp:386] relu2 -> conv2 (in-place)
I0403 12:36:17.532124 30487 net.cpp:141] Setting up relu2
I0403 12:36:17.532152 30487 net.cpp:148] Top shape: 100 256 27 27 (18662400)
I0403 12:36:17.532168 30487 net.cpp:156] Memory required for data: 587609200
I0403 12:36:17.532189 30487 layer_factory.hpp:77] Creating layer norm2
I0403 12:36:17.532215 30487 net.cpp:91] Creating Layer norm2
I0403 12:36:17.532233 30487 net.cpp:425] norm2 <- conv2
I0403 12:36:17.532253 30487 net.cpp:399] norm2 -> norm2
I0403 12:36:17.532454 30487 net.cpp:141] Setting up norm2
I0403 12:36:17.532480 30487 net.cpp:148] Top shape: 100 256 27 27 (18662400)
I0403 12:36:17.532495 30487 net.cpp:156] Memory required for data: 662258800
I0403 12:36:17.532510 30487 layer_factory.hpp:77] Creating layer pool2
I0403 12:36:17.532531 30487 net.cpp:91] Creating Layer pool2
I0403 12:36:17.532548 30487 net.cpp:425] pool2 <- norm2
I0403 12:36:17.532568 30487 net.cpp:399] pool2 -> pool2
I0403 12:36:17.532621 30487 net.cpp:141] Setting up pool2
I0403 12:36:17.532644 30487 net.cpp:148] Top shape: 100 256 13 13 (4326400)
I0403 12:36:17.532660 30487 net.cpp:156] Memory required for data: 679564400
I0403 12:36:17.532675 30487 layer_factory.hpp:77] Creating layer conv3
I0403 12:36:17.532711 30487 net.cpp:91] Creating Layer conv3
I0403 12:36:17.532733 30487 net.cpp:425] conv3 <- pool2
I0403 12:36:17.532755 30487 net.cpp:399] conv3 -> conv3
I0403 12:36:17.573397 30487 net.cpp:141] Setting up conv3
I0403 12:36:17.573487 30487 net.cpp:148] Top shape: 100 384 13 13 (6489600)
I0403 12:36:17.573504 30487 net.cpp:156] Memory required for data: 705522800
I0403 12:36:17.573531 30487 layer_factory.hpp:77] Creating layer relu3
I0403 12:36:17.573554 30487 net.cpp:91] Creating Layer relu3
I0403 12:36:17.573572 30487 net.cpp:425] relu3 <- conv3
I0403 12:36:17.573591 30487 net.cpp:386] relu3 -> conv3 (in-place)
I0403 12:36:17.573873 30487 net.cpp:141] Setting up relu3
I0403 12:36:17.573902 30487 net.cpp:148] Top shape: 100 384 13 13 (6489600)
I0403 12:36:17.573918 30487 net.cpp:156] Memory required for data: 731481200
I0403 12:36:17.573935 30487 layer_factory.hpp:77] Creating layer conv4
I0403 12:36:17.573961 30487 net.cpp:91] Creating Layer conv4
I0403 12:36:17.573978 30487 net.cpp:425] conv4 <- conv3
I0403 12:36:17.573997 30487 net.cpp:399] conv4 -> conv4
I0403 12:36:17.604017 30487 net.cpp:141] Setting up conv4
I0403 12:36:17.604095 30487 net.cpp:148] Top shape: 100 384 13 13 (6489600)
I0403 12:36:17.604145 30487 net.cpp:156] Memory required for data: 757439600
I0403 12:36:17.604167 30487 layer_factory.hpp:77] Creating layer relu4
I0403 12:36:17.604197 30487 net.cpp:91] Creating Layer relu4
I0403 12:36:17.604217 30487 net.cpp:425] relu4 <- conv4
I0403 12:36:17.604238 30487 net.cpp:386] relu4 -> conv4 (in-place)
I0403 12:36:17.604535 30487 net.cpp:141] Setting up relu4
I0403 12:36:17.604562 30487 net.cpp:148] Top shape: 100 384 13 13 (6489600)
I0403 12:36:17.604578 30487 net.cpp:156] Memory required for data: 783398000
I0403 12:36:17.604593 30487 layer_factory.hpp:77] Creating layer conv5
I0403 12:36:17.604619 30487 net.cpp:91] Creating Layer conv5
I0403 12:36:17.604637 30487 net.cpp:425] conv5 <- conv4
I0403 12:36:17.604658 30487 net.cpp:399] conv5 -> conv5
I0403 12:36:17.625110 30487 net.cpp:141] Setting up conv5
I0403 12:36:17.625150 30487 net.cpp:148] Top shape: 100 256 13 13 (4326400)
I0403 12:36:17.625167 30487 net.cpp:156] Memory required for data: 800703600
I0403 12:36:17.625198 30487 layer_factory.hpp:77] Creating layer relu5
I0403 12:36:17.625226 30487 net.cpp:91] Creating Layer relu5
I0403 12:36:17.625247 30487 net.cpp:425] relu5 <- conv5
I0403 12:36:17.625267 30487 net.cpp:386] relu5 -> conv5 (in-place)
I0403 12:36:17.625563 30487 net.cpp:141] Setting up relu5
I0403 12:36:17.625593 30487 net.cpp:148] Top shape: 100 256 13 13 (4326400)
I0403 12:36:17.625609 30487 net.cpp:156] Memory required for data: 818009200
I0403 12:36:17.625624 30487 layer_factory.hpp:77] Creating layer pool5
I0403 12:36:17.625646 30487 net.cpp:91] Creating Layer pool5
I0403 12:36:17.625663 30487 net.cpp:425] pool5 <- conv5
I0403 12:36:17.625684 30487 net.cpp:399] pool5 -> pool5
I0403 12:36:17.625741 30487 net.cpp:141] Setting up pool5
I0403 12:36:17.625766 30487 net.cpp:148] Top shape: 100 256 6 6 (921600)
I0403 12:36:17.625782 30487 net.cpp:156] Memory required for data: 821695600
I0403 12:36:17.625797 30487 layer_factory.hpp:77] Creating layer fc6
I0403 12:36:17.625823 30487 net.cpp:91] Creating Layer fc6
I0403 12:36:17.625841 30487 net.cpp:425] fc6 <- pool5
I0403 12:36:17.625861 30487 net.cpp:399] fc6 -> fc6
I0403 12:36:19.184834 30487 net.cpp:141] Setting up fc6
I0403 12:36:19.184923 30487 net.cpp:148] Top shape: 100 4096 (409600)
I0403 12:36:19.184940 30487 net.cpp:156] Memory required for data: 823334000
I0403 12:36:19.184962 30487 layer_factory.hpp:77] Creating layer relu6
I0403 12:36:19.184989 30487 net.cpp:91] Creating Layer relu6
I0403 12:36:19.185009 30487 net.cpp:425] relu6 <- fc6
I0403 12:36:19.185030 30487 net.cpp:386] relu6 -> fc6 (in-place)
I0403 12:36:19.185267 30487 net.cpp:141] Setting up relu6
I0403 12:36:19.185295 30487 net.cpp:148] Top shape: 100 4096 (409600)
I0403 12:36:19.185310 30487 net.cpp:156] Memory required for data: 824972400
I0403 12:36:19.185325 30487 layer_factory.hpp:77] Creating layer drop6
I0403 12:36:19.185343 30487 net.cpp:91] Creating Layer drop6
I0403 12:36:19.185359 30487 net.cpp:425] drop6 <- fc6
I0403 12:36:19.185376 30487 net.cpp:386] drop6 -> fc6 (in-place)
I0403 12:36:19.185430 30487 net.cpp:141] Setting up drop6
I0403 12:36:19.185451 30487 net.cpp:148] Top shape: 100 4096 (409600)
I0403 12:36:19.185467 30487 net.cpp:156] Memory required for data: 826610800
I0403 12:36:19.185482 30487 layer_factory.hpp:77] Creating layer fc7
I0403 12:36:19.185503 30487 net.cpp:91] Creating Layer fc7
I0403 12:36:19.185520 30487 net.cpp:425] fc7 <- fc6
I0403 12:36:19.185539 30487 net.cpp:399] fc7 -> fc7
I0403 12:36:19.873677 30487 net.cpp:141] Setting up fc7
I0403 12:36:19.873724 30487 net.cpp:148] Top shape: 100 4096 (409600)
I0403 12:36:19.873741 30487 net.cpp:156] Memory required for data: 828249200
I0403 12:36:19.873762 30487 layer_factory.hpp:77] Creating layer relu7
I0403 12:36:19.873785 30487 net.cpp:91] Creating Layer relu7
I0403 12:36:19.873801 30487 net.cpp:425] relu7 <- fc7
I0403 12:36:19.873821 30487 net.cpp:386] relu7 -> fc7 (in-place)
I0403 12:36:19.874266 30487 net.cpp:141] Setting up relu7
I0403 12:36:19.874295 30487 net.cpp:148] Top shape: 100 4096 (409600)
I0403 12:36:19.874342 30487 net.cpp:156] Memory required for data: 829887600
I0403 12:36:19.874358 30487 layer_factory.hpp:77] Creating layer drop7
I0403 12:36:19.874377 30487 net.cpp:91] Creating Layer drop7
I0403 12:36:19.874393 30487 net.cpp:425] drop7 <- fc7
I0403 12:36:19.874410 30487 net.cpp:386] drop7 -> fc7 (in-place)
I0403 12:36:19.874454 30487 net.cpp:141] Setting up drop7
I0403 12:36:19.874476 30487 net.cpp:148] Top shape: 100 4096 (409600)
I0403 12:36:19.874490 30487 net.cpp:156] Memory required for data: 831526000
I0403 12:36:19.874505 30487 layer_factory.hpp:77] Creating layer fc8_plantvillage
I0403 12:36:19.874526 30487 net.cpp:91] Creating Layer fc8_plantvillage
I0403 12:36:19.874543 30487 net.cpp:425] fc8_plantvillage <- fc7
I0403 12:36:19.874562 30487 net.cpp:399] fc8_plantvillage -> fc8_plantvillage
I0403 12:36:19.881412 30487 net.cpp:141] Setting up fc8_plantvillage
I0403 12:36:19.881443 30487 net.cpp:148] Top shape: 100 38 (3800)
I0403 12:36:19.881458 30487 net.cpp:156] Memory required for data: 831541200
I0403 12:36:19.881476 30487 layer_factory.hpp:77] Creating layer fc8_plantvillage_fc8_plantvillage_0_split
I0403 12:36:19.881497 30487 net.cpp:91] Creating Layer fc8_plantvillage_fc8_plantvillage_0_split
I0403 12:36:19.881515 30487 net.cpp:425] fc8_plantvillage_fc8_plantvillage_0_split <- fc8_plantvillage
I0403 12:36:19.881534 30487 net.cpp:399] fc8_plantvillage_fc8_plantvillage_0_split -> fc8_plantvillage_fc8_plantvillage_0_split_0
I0403 12:36:19.881554 30487 net.cpp:399] fc8_plantvillage_fc8_plantvillage_0_split -> fc8_plantvillage_fc8_plantvillage_0_split_1
I0403 12:36:19.881575 30487 net.cpp:399] fc8_plantvillage_fc8_plantvillage_0_split -> fc8_plantvillage_fc8_plantvillage_0_split_2
I0403 12:36:19.881650 30487 net.cpp:141] Setting up fc8_plantvillage_fc8_plantvillage_0_split
I0403 12:36:19.881675 30487 net.cpp:148] Top shape: 100 38 (3800)
I0403 12:36:19.881690 30487 net.cpp:148] Top shape: 100 38 (3800)
I0403 12:36:19.881705 30487 net.cpp:148] Top shape: 100 38 (3800)
I0403 12:36:19.881718 30487 net.cpp:156] Memory required for data: 831586800
I0403 12:36:19.881732 30487 layer_factory.hpp:77] Creating layer prob
I0403 12:36:19.881753 30487 net.cpp:91] Creating Layer prob
I0403 12:36:19.881769 30487 net.cpp:425] prob <- fc8_plantvillage_fc8_plantvillage_0_split_0
I0403 12:36:19.881788 30487 net.cpp:399] prob -> prob
I0403 12:36:19.882028 30487 net.cpp:141] Setting up prob
I0403 12:36:19.882057 30487 net.cpp:148] Top shape: 100 38 (3800)
I0403 12:36:19.882074 30487 net.cpp:156] Memory required for data: 831602000
I0403 12:36:19.882089 30487 layer_factory.hpp:77] Creating layer hdf5out
I0403 12:36:19.882109 30487 net.cpp:91] Creating Layer hdf5out
I0403 12:36:19.882138 30487 net.cpp:425] hdf5out <- prob
I0403 12:36:19.882153 30487 net.cpp:425] hdf5out <- label_data_1_split_0
I0403 12:36:19.886881 30487 net.cpp:141] Setting up hdf5out
…
