…
I0403 12:48:27.636912 30820 net.cpp:313] The NetState phase (1) differed from the phase (0) specified by a rule in layer data
I0403 12:48:27.637218 30820 net.cpp:49] Initializing net from parameters: 
state {
  phase: TEST
}
layer {
  name: "data"
  type: "Data"
  top: "data"
  top: "label"
  include {
    phase: TEST
  }
  transform_param {
    crop_size: 227
    mean_file: "/home/mohanty/data/final_dataset/lmdb/grayscale-40-60/mean.binaryproto"
  }
  data_param {
    source: "/home/mohanty/data/final_dataset/lmdb/grayscale-40-60/test_db"
    batch_size: 100
    backend: LMDB
  }
}
layer {
  name: "conv1"
  type: "Convolution"
  bottom: "data"
  top: "conv1"
  param {
    lr_mult: 1
    decay_mult: 1
  }
  param {
    lr_mult: 2
    decay_mult: 0
  }
  convolution_param {
    num_output: 96
    kernel_size: 11
    stride: 4
    weight_filler {
      type: "gaussian"
      std: 0.01
    }
    bias_filler {
      type: "constant"
      value: 0
    }
  }
}
layer {
  name: "relu1"
  type: "ReLU"
  bottom: "conv1"
  top: "conv1"
}
layer {
  name: "norm1"
  type: "LRN"
  bottom: "conv1"
  top: "norm1"
  lrn_param {
    local_size: 5
    alpha: 0.0001
    beta: 0.75
  }
}
layer {
  name: "pool1"
  type: "Pooling"
  bottom: "norm1"
  top: "pool1"
  pooling_param {
    pool: MAX
    kernel_size: 3
    stride: 2
  }
}
layer {
  name: "conv2"
  type: "Convolution"
  bottom: "pool1"
  top: "conv2"
  param {
    lr_mult: 1
    decay_mult: 1
  }
  param {
    lr_mult: 2
    decay_mult: 0
  }
  convolution_param {
    num_output: 256
    pad: 2
    kernel_size: 5
    group: 2
    weight_filler {
      type: "gaussian"
      std: 0.01
    }
    bias_filler {
      type: "constant"
      value: 0.1
    }
  }
}
layer {
  name: "relu2"
  type: "ReLU"
  bottom: "conv2"
  top: "conv2"
}
layer {
  name: "norm2"
  type: "LRN"
  bottom: "conv2"
  top: "norm2"
  lrn_param {
    local_size: 5
    alpha: 0.0001
    beta: 0.75
  }
}
layer {
  name: "pool2"
  type: "Pooling"
  bottom: "norm2"
  top: "pool2"
  pooling_param {
    pool: MAX
    kernel_size: 3
    stride: 2
  }
}
layer {
  name: "conv3"
  type: "Convolution"
  bottom: "pool2"
  top: "conv3"
  param {
    lr_mult: 1
    decay_mult: 1
  }
  param {
    lr_mult: 2
    decay_mult: 0
  }
  convolution_param {
    num_output: 384
    pad: 1
    kernel_size: 3
    weight_filler {
      type: "gaussian"
      std: 0.01
    }
    bias_filler {
      type: "constant"
      value: 0
    }
  }
}
layer {
  name: "relu3"
  type: "ReLU"
  bottom: "conv3"
  top: "conv3"
}
layer {
  name: "conv4"
  type: "Convolution"
  bottom: "conv3"
  top: "conv4"
  param {
    lr_mult: 1
    decay_mult: 1
  }
  param {
    lr_mult: 2
    decay_mult: 0
  }
  convolution_param {
    num_output: 384
    pad: 1
    kernel_size: 3
    group: 2
    weight_filler {
      type: "gaussian"
      std: 0.01
    }
    bias_filler {
      type: "constant"
      value: 0.1
    }
  }
}
layer {
  name: "relu4"
  type: "ReLU"
  bottom: "conv4"
  top: "conv4"
}
layer {
  name: "conv5"
  type: "Convolution"
  bottom: "conv4"
  top: "conv5"
  param {
    lr_mult: 1
    decay_mult: 1
  }
  param {
    lr_mult: 2
    decay_mult: 0
  }
  convolution_param {
    num_output: 256
    pad: 1
    kernel_size: 3
    group: 2
    weight_filler {
      type: "gaussian"
      std: 0.01
    }
    bias_filler {
      type: "constant"
      value: 0.1
    }
  }
}
layer {
  name: "relu5"
  type: "ReLU"
  bottom: "conv5"
  top: "conv5"
}
layer {
  name: "pool5"
  type: "Pooling"
  bottom: "conv5"
  top: "pool5"
  pooling_param {
    pool: MAX
    kernel_size: 3
    stride: 2
  }
}
layer {
  name: "fc6"
  type: "InnerProduct"
  bottom: "pool5"
  top: "fc6"
  param {
    lr_mult: 1
    decay_mult: 1
  }
  param {
    lr_mult: 2
    decay_mult: 0
  }
  inner_product_param {
    num_output: 4096
    weight_filler {
      type: "gaussian"
      std: 0.005
    }
    bias_filler {
      type: "constant"
      value: 0.1
    }
  }
}
layer {
  name: "relu6"
  type: "ReLU"
  bottom: "fc6"
  top: "fc6"
}
layer {
  name: "drop6"
  type: "Dropout"
  bottom: "fc6"
  top: "fc6"
  dropout_param {
    dropout_ratio: 0.5
  }
}
layer {
  name: "fc7"
  type: "InnerProduct"
  bottom: "fc6"
  top: "fc7"
  param {
    lr_mult: 1
    decay_mult: 1
  }
  param {
    lr_mult: 2
    decay_mult: 0
  }
  inner_product_param {
    num_output: 4096
    weight_filler {
      type: "gaussian"
      std: 0.005
    }
    bias_filler {
      type: "constant"
      value: 0.1
    }
  }
}
layer {
  name: "relu7"
  type: "ReLU"
  bottom: "fc7"
  top: "fc7"
}
layer {
  name: "drop7"
  type: "Dropout"
  bottom: "fc7"
  top: "fc7"
  dropout_param {
    dropout_ratio: 0.5
  }
}
layer {
  name: "fc8_plantvillage"
  type: "InnerProduct"
  bottom: "fc7"
  top: "fc8_plantvillage"
  param {
    lr_mult: 1
    decay_mult: 1
  }
  param {
    lr_mult: 2
    decay_mult: 0
  }
  inner_product_param {
    num_output: 38
    weight_filler {
      type: "gaussian"
      std: 0.01
    }
    bias_filler {
      type: "constant"
      value: 0
    }
  }
}
layer {
  name: "prob"
  type: "Softmax"
  bottom: "fc8_plantvillage"
  top: "prob"
  include {
    phase: TEST
  }
}
layer {
  name: "hdf5out"
  type: "HDF5Output"
  bottom: "prob"
  bottom: "label"
  include {
    phase: TEST
  }
  hdf5_output_param {
    file_name: "hdf5_dumps/iter_3066.h5"
  }
}
layer {
  name: "loss"
  type: "SoftmaxWithLoss"
  bottom: "fc8_plantvillage"
  bottom: "label"
  top: "loss"
}
layer {
  name: "accuracy"
  type: "Accuracy"
  bottom: "fc8_plantvillage"
  bottom: "label"
  top: "accuracy"
  include {
    phase: TEST
  }
}
I0403 12:48:27.637801 30820 layer_factory.hpp:77] Creating layer data
I0403 12:48:27.638456 30820 net.cpp:91] Creating Layer data
I0403 12:48:27.638489 30820 net.cpp:399] data -> data
I0403 12:48:27.638538 30820 net.cpp:399] data -> label
I0403 12:48:27.638572 30820 data_transformer.cpp:25] Loading mean file from: /home/mohanty/data/final_dataset/lmdb/grayscale-40-60/mean.binaryproto
I0403 12:48:27.641269 30823 db_lmdb.cpp:38] Opened lmdb /home/mohanty/data/final_dataset/lmdb/grayscale-40-60/test_db
I0403 12:48:27.653297 30820 data_layer.cpp:41] output data size: 100,3,227,227
I0403 12:48:27.772536 30820 net.cpp:141] Setting up data
I0403 12:48:27.772655 30820 net.cpp:148] Top shape: 100 3 227 227 (15458700)
I0403 12:48:27.772678 30820 net.cpp:148] Top shape: 100 (100)
I0403 12:48:27.772694 30820 net.cpp:156] Memory required for data: 61835200
I0403 12:48:27.772723 30820 layer_factory.hpp:77] Creating layer label_data_1_split
I0403 12:48:27.772750 30820 net.cpp:91] Creating Layer label_data_1_split
I0403 12:48:27.772769 30820 net.cpp:425] label_data_1_split <- label
I0403 12:48:27.772802 30820 net.cpp:399] label_data_1_split -> label_data_1_split_0
I0403 12:48:27.772831 30820 net.cpp:399] label_data_1_split -> label_data_1_split_1
I0403 12:48:27.772851 30820 net.cpp:399] label_data_1_split -> label_data_1_split_2
I0403 12:48:27.772915 30820 net.cpp:141] Setting up label_data_1_split
I0403 12:48:27.772939 30820 net.cpp:148] Top shape: 100 (100)
I0403 12:48:27.772956 30820 net.cpp:148] Top shape: 100 (100)
I0403 12:48:27.772972 30820 net.cpp:148] Top shape: 100 (100)
I0403 12:48:27.772987 30820 net.cpp:156] Memory required for data: 61836400
I0403 12:48:27.773002 30820 layer_factory.hpp:77] Creating layer conv1
I0403 12:48:27.773036 30820 net.cpp:91] Creating Layer conv1
I0403 12:48:27.773054 30820 net.cpp:425] conv1 <- data
I0403 12:48:27.773074 30820 net.cpp:399] conv1 -> conv1
I0403 12:48:27.916020 30820 net.cpp:141] Setting up conv1
I0403 12:48:27.916108 30820 net.cpp:148] Top shape: 100 96 55 55 (29040000)
I0403 12:48:27.916126 30820 net.cpp:156] Memory required for data: 177996400
I0403 12:48:27.916158 30820 layer_factory.hpp:77] Creating layer relu1
I0403 12:48:27.916193 30820 net.cpp:91] Creating Layer relu1
I0403 12:48:27.916213 30820 net.cpp:425] relu1 <- conv1
I0403 12:48:27.916234 30820 net.cpp:386] relu1 -> conv1 (in-place)
I0403 12:48:27.916512 30820 net.cpp:141] Setting up relu1
I0403 12:48:27.916540 30820 net.cpp:148] Top shape: 100 96 55 55 (29040000)
I0403 12:48:27.916585 30820 net.cpp:156] Memory required for data: 294156400
I0403 12:48:27.916602 30820 layer_factory.hpp:77] Creating layer norm1
I0403 12:48:27.916632 30820 net.cpp:91] Creating Layer norm1
I0403 12:48:27.916651 30820 net.cpp:425] norm1 <- conv1
I0403 12:48:27.916672 30820 net.cpp:399] norm1 -> norm1
I0403 12:48:27.917003 30820 net.cpp:141] Setting up norm1
I0403 12:48:27.917032 30820 net.cpp:148] Top shape: 100 96 55 55 (29040000)
I0403 12:48:27.917047 30820 net.cpp:156] Memory required for data: 410316400
I0403 12:48:27.917062 30820 layer_factory.hpp:77] Creating layer pool1
I0403 12:48:27.917084 30820 net.cpp:91] Creating Layer pool1
I0403 12:48:27.917101 30820 net.cpp:425] pool1 <- norm1
I0403 12:48:27.917122 30820 net.cpp:399] pool1 -> pool1
I0403 12:48:27.917198 30820 net.cpp:141] Setting up pool1
I0403 12:48:27.917225 30820 net.cpp:148] Top shape: 100 96 27 27 (6998400)
I0403 12:48:27.917242 30820 net.cpp:156] Memory required for data: 438310000
I0403 12:48:27.917258 30820 layer_factory.hpp:77] Creating layer conv2
I0403 12:48:27.917284 30820 net.cpp:91] Creating Layer conv2
I0403 12:48:27.917302 30820 net.cpp:425] conv2 <- pool1
I0403 12:48:27.917321 30820 net.cpp:399] conv2 -> conv2
I0403 12:48:27.932590 30820 net.cpp:141] Setting up conv2
I0403 12:48:27.932643 30820 net.cpp:148] Top shape: 100 256 27 27 (18662400)
I0403 12:48:27.932660 30820 net.cpp:156] Memory required for data: 512959600
I0403 12:48:27.932683 30820 layer_factory.hpp:77] Creating layer relu2
I0403 12:48:27.932703 30820 net.cpp:91] Creating Layer relu2
I0403 12:48:27.932720 30820 net.cpp:425] relu2 <- conv2
I0403 12:48:27.932740 30820 net.cpp:386] relu2 -> conv2 (in-place)
I0403 12:48:27.933020 30820 net.cpp:141] Setting up relu2
I0403 12:48:27.933048 30820 net.cpp:148] Top shape: 100 256 27 27 (18662400)
I0403 12:48:27.933064 30820 net.cpp:156] Memory required for data: 587609200
I0403 12:48:27.933080 30820 layer_factory.hpp:77] Creating layer norm2
I0403 12:48:27.933104 30820 net.cpp:91] Creating Layer norm2
I0403 12:48:27.933121 30820 net.cpp:425] norm2 <- conv2
I0403 12:48:27.933140 30820 net.cpp:399] norm2 -> norm2
I0403 12:48:27.933400 30820 net.cpp:141] Setting up norm2
I0403 12:48:27.933429 30820 net.cpp:148] Top shape: 100 256 27 27 (18662400)
I0403 12:48:27.933444 30820 net.cpp:156] Memory required for data: 662258800
I0403 12:48:27.933460 30820 layer_factory.hpp:77] Creating layer pool2
I0403 12:48:27.933491 30820 net.cpp:91] Creating Layer pool2
I0403 12:48:27.933507 30820 net.cpp:425] pool2 <- norm2
I0403 12:48:27.933527 30820 net.cpp:399] pool2 -> pool2
I0403 12:48:27.933581 30820 net.cpp:141] Setting up pool2
I0403 12:48:27.933604 30820 net.cpp:148] Top shape: 100 256 13 13 (4326400)
I0403 12:48:27.933619 30820 net.cpp:156] Memory required for data: 679564400
I0403 12:48:27.933637 30820 layer_factory.hpp:77] Creating layer conv3
I0403 12:48:27.933662 30820 net.cpp:91] Creating Layer conv3
I0403 12:48:27.933681 30820 net.cpp:425] conv3 <- pool2
I0403 12:48:27.933699 30820 net.cpp:399] conv3 -> conv3
I0403 12:48:27.974066 30820 net.cpp:141] Setting up conv3
I0403 12:48:27.974115 30820 net.cpp:148] Top shape: 100 384 13 13 (6489600)
I0403 12:48:27.974133 30820 net.cpp:156] Memory required for data: 705522800
I0403 12:48:27.974159 30820 layer_factory.hpp:77] Creating layer relu3
I0403 12:48:27.974184 30820 net.cpp:91] Creating Layer relu3
I0403 12:48:27.974203 30820 net.cpp:425] relu3 <- conv3
I0403 12:48:27.974225 30820 net.cpp:386] relu3 -> conv3 (in-place)
I0403 12:48:27.974493 30820 net.cpp:141] Setting up relu3
I0403 12:48:27.974520 30820 net.cpp:148] Top shape: 100 384 13 13 (6489600)
I0403 12:48:27.974535 30820 net.cpp:156] Memory required for data: 731481200
I0403 12:48:27.974550 30820 layer_factory.hpp:77] Creating layer conv4
I0403 12:48:27.974576 30820 net.cpp:91] Creating Layer conv4
I0403 12:48:27.974593 30820 net.cpp:425] conv4 <- conv3
I0403 12:48:27.974614 30820 net.cpp:399] conv4 -> conv4
I0403 12:48:28.004751 30820 net.cpp:141] Setting up conv4
I0403 12:48:28.004832 30820 net.cpp:148] Top shape: 100 384 13 13 (6489600)
I0403 12:48:28.004880 30820 net.cpp:156] Memory required for data: 757439600
I0403 12:48:28.004904 30820 layer_factory.hpp:77] Creating layer relu4
I0403 12:48:28.004925 30820 net.cpp:91] Creating Layer relu4
I0403 12:48:28.004945 30820 net.cpp:425] relu4 <- conv4
I0403 12:48:28.004968 30820 net.cpp:386] relu4 -> conv4 (in-place)
I0403 12:48:28.005264 30820 net.cpp:141] Setting up relu4
I0403 12:48:28.005293 30820 net.cpp:148] Top shape: 100 384 13 13 (6489600)
I0403 12:48:28.005309 30820 net.cpp:156] Memory required for data: 783398000
I0403 12:48:28.005326 30820 layer_factory.hpp:77] Creating layer conv5
I0403 12:48:28.005349 30820 net.cpp:91] Creating Layer conv5
I0403 12:48:28.005367 30820 net.cpp:425] conv5 <- conv4
I0403 12:48:28.005386 30820 net.cpp:399] conv5 -> conv5
I0403 12:48:28.026003 30820 net.cpp:141] Setting up conv5
I0403 12:48:28.026057 30820 net.cpp:148] Top shape: 100 256 13 13 (4326400)
I0403 12:48:28.026074 30820 net.cpp:156] Memory required for data: 800703600
I0403 12:48:28.026099 30820 layer_factory.hpp:77] Creating layer relu5
I0403 12:48:28.026121 30820 net.cpp:91] Creating Layer relu5
I0403 12:48:28.026139 30820 net.cpp:425] relu5 <- conv5
I0403 12:48:28.026160 30820 net.cpp:386] relu5 -> conv5 (in-place)
I0403 12:48:28.026448 30820 net.cpp:141] Setting up relu5
I0403 12:48:28.026478 30820 net.cpp:148] Top shape: 100 256 13 13 (4326400)
I0403 12:48:28.026494 30820 net.cpp:156] Memory required for data: 818009200
I0403 12:48:28.026510 30820 layer_factory.hpp:77] Creating layer pool5
I0403 12:48:28.026535 30820 net.cpp:91] Creating Layer pool5
I0403 12:48:28.026552 30820 net.cpp:425] pool5 <- conv5
I0403 12:48:28.026571 30820 net.cpp:399] pool5 -> pool5
I0403 12:48:28.026633 30820 net.cpp:141] Setting up pool5
I0403 12:48:28.026656 30820 net.cpp:148] Top shape: 100 256 6 6 (921600)
I0403 12:48:28.026671 30820 net.cpp:156] Memory required for data: 821695600
I0403 12:48:28.026687 30820 layer_factory.hpp:77] Creating layer fc6
I0403 12:48:28.026715 30820 net.cpp:91] Creating Layer fc6
I0403 12:48:28.026733 30820 net.cpp:425] fc6 <- pool5
I0403 12:48:28.026754 30820 net.cpp:399] fc6 -> fc6
I0403 12:48:29.618082 30820 net.cpp:141] Setting up fc6
I0403 12:48:29.618129 30820 net.cpp:148] Top shape: 100 4096 (409600)
I0403 12:48:29.618144 30820 net.cpp:156] Memory required for data: 823334000
I0403 12:48:29.618165 30820 layer_factory.hpp:77] Creating layer relu6
I0403 12:48:29.618196 30820 net.cpp:91] Creating Layer relu6
I0403 12:48:29.618214 30820 net.cpp:425] relu6 <- fc6
I0403 12:48:29.618233 30820 net.cpp:386] relu6 -> fc6 (in-place)
I0403 12:48:29.618453 30820 net.cpp:141] Setting up relu6
I0403 12:48:29.618476 30820 net.cpp:148] Top shape: 100 4096 (409600)
I0403 12:48:29.618491 30820 net.cpp:156] Memory required for data: 824972400
I0403 12:48:29.618505 30820 layer_factory.hpp:77] Creating layer drop6
I0403 12:48:29.618523 30820 net.cpp:91] Creating Layer drop6
I0403 12:48:29.618538 30820 net.cpp:425] drop6 <- fc6
I0403 12:48:29.618557 30820 net.cpp:386] drop6 -> fc6 (in-place)
I0403 12:48:29.618607 30820 net.cpp:141] Setting up drop6
I0403 12:48:29.618630 30820 net.cpp:148] Top shape: 100 4096 (409600)
I0403 12:48:29.618646 30820 net.cpp:156] Memory required for data: 826610800
I0403 12:48:29.618660 30820 layer_factory.hpp:77] Creating layer fc7
I0403 12:48:29.618680 30820 net.cpp:91] Creating Layer fc7
I0403 12:48:29.618695 30820 net.cpp:425] fc7 <- fc6
I0403 12:48:29.618715 30820 net.cpp:399] fc7 -> fc7
I0403 12:48:30.308325 30820 net.cpp:141] Setting up fc7
I0403 12:48:30.308411 30820 net.cpp:148] Top shape: 100 4096 (409600)
I0403 12:48:30.308428 30820 net.cpp:156] Memory required for data: 828249200
I0403 12:48:30.308449 30820 layer_factory.hpp:77] Creating layer relu7
I0403 12:48:30.308470 30820 net.cpp:91] Creating Layer relu7
I0403 12:48:30.308488 30820 net.cpp:425] relu7 <- fc7
I0403 12:48:30.308511 30820 net.cpp:386] relu7 -> fc7 (in-place)
I0403 12:48:30.308917 30820 net.cpp:141] Setting up relu7
I0403 12:48:30.308945 30820 net.cpp:148] Top shape: 100 4096 (409600)
I0403 12:48:30.308993 30820 net.cpp:156] Memory required for data: 829887600
I0403 12:48:30.309010 30820 layer_factory.hpp:77] Creating layer drop7
I0403 12:48:30.309028 30820 net.cpp:91] Creating Layer drop7
I0403 12:48:30.309043 30820 net.cpp:425] drop7 <- fc7
I0403 12:48:30.309064 30820 net.cpp:386] drop7 -> fc7 (in-place)
I0403 12:48:30.309108 30820 net.cpp:141] Setting up drop7
I0403 12:48:30.309129 30820 net.cpp:148] Top shape: 100 4096 (409600)
I0403 12:48:30.309144 30820 net.cpp:156] Memory required for data: 831526000
I0403 12:48:30.309159 30820 layer_factory.hpp:77] Creating layer fc8_plantvillage
I0403 12:48:30.309186 30820 net.cpp:91] Creating Layer fc8_plantvillage
I0403 12:48:30.309204 30820 net.cpp:425] fc8_plantvillage <- fc7
I0403 12:48:30.309224 30820 net.cpp:399] fc8_plantvillage -> fc8_plantvillage
I0403 12:48:30.316068 30820 net.cpp:141] Setting up fc8_plantvillage
I0403 12:48:30.316097 30820 net.cpp:148] Top shape: 100 38 (3800)
I0403 12:48:30.316113 30820 net.cpp:156] Memory required for data: 831541200
I0403 12:48:30.316133 30820 layer_factory.hpp:77] Creating layer fc8_plantvillage_fc8_plantvillage_0_split
I0403 12:48:30.316151 30820 net.cpp:91] Creating Layer fc8_plantvillage_fc8_plantvillage_0_split
I0403 12:48:30.316166 30820 net.cpp:425] fc8_plantvillage_fc8_plantvillage_0_split <- fc8_plantvillage
I0403 12:48:30.316193 30820 net.cpp:399] fc8_plantvillage_fc8_plantvillage_0_split -> fc8_plantvillage_fc8_plantvillage_0_split_0
I0403 12:48:30.316215 30820 net.cpp:399] fc8_plantvillage_fc8_plantvillage_0_split -> fc8_plantvillage_fc8_plantvillage_0_split_1
I0403 12:48:30.316236 30820 net.cpp:399] fc8_plantvillage_fc8_plantvillage_0_split -> fc8_plantvillage_fc8_plantvillage_0_split_2
I0403 12:48:30.316313 30820 net.cpp:141] Setting up fc8_plantvillage_fc8_plantvillage_0_split
I0403 12:48:30.316335 30820 net.cpp:148] Top shape: 100 38 (3800)
I0403 12:48:30.316351 30820 net.cpp:148] Top shape: 100 38 (3800)
I0403 12:48:30.316368 30820 net.cpp:148] Top shape: 100 38 (3800)
I0403 12:48:30.316382 30820 net.cpp:156] Memory required for data: 831586800
I0403 12:48:30.316397 30820 layer_factory.hpp:77] Creating layer prob
I0403 12:48:30.316416 30820 net.cpp:91] Creating Layer prob
I0403 12:48:30.316431 30820 net.cpp:425] prob <- fc8_plantvillage_fc8_plantvillage_0_split_0
I0403 12:48:30.316450 30820 net.cpp:399] prob -> prob
I0403 12:48:30.316675 30820 net.cpp:141] Setting up prob
I0403 12:48:30.316704 30820 net.cpp:148] Top shape: 100 38 (3800)
I0403 12:48:30.316720 30820 net.cpp:156] Memory required for data: 831602000
I0403 12:48:30.316735 30820 layer_factory.hpp:77] Creating layer hdf5out
I0403 12:48:30.316753 30820 net.cpp:91] Creating Layer hdf5out
I0403 12:48:30.316769 30820 net.cpp:425] hdf5out <- prob
I0403 12:48:30.316784 30820 net.cpp:425] hdf5out <- label_data_1_split_0
I0403 12:48:30.319243 30820 net.cpp:141] Setting up hdf5out
…
