…
I0403 07:49:15.872100  4887 net.cpp:313] The NetState phase (0) differed from the phase (1) specified by a rule in layer accuracy
I0403 07:49:15.873841  4887 net.cpp:49] Initializing net from parameters: 
state {
  phase: TRAIN
}
layer {
  name: "data"
  type: "Data"
  top: "data"
  top: "label"
  include {
    phase: TRAIN
  }
  transform_param {
    mirror: true
    crop_size: 227
    mean_file: "/home/mohanty/data/final_dataset/lmdb/segmented-40-60/mean.binaryproto"
  }
  data_param {
    source: "/home/mohanty/data/final_dataset/lmdb/segmented-40-60/train_db"
    batch_size: 100
    backend: LMDB
  }
}
layer {
  name: "conv1"
  type: "Convolution"
  bottom: "data"
  top: "conv1"
  param {
    lr_mult: 1
    decay_mult: 1
  }
  param {
    lr_mult: 2
    decay_mult: 0
  }
  convolution_param {
    num_output: 96
    kernel_size: 11
    stride: 4
    weight_filler {
      type: "gaussian"
      std: 0.01
    }
    bias_filler {
      type: "constant"
      value: 0
    }
  }
}
layer {
  name: "relu1"
  type: "ReLU"
  bottom: "conv1"
  top: "conv1"
}
layer {
  name: "norm1"
  type: "LRN"
  bottom: "conv1"
  top: "norm1"
  lrn_param {
    local_size: 5
    alpha: 0.0001
    beta: 0.75
  }
}
layer {
  name: "pool1"
  type: "Pooling"
  bottom: "norm1"
  top: "pool1"
  pooling_param {
    pool: MAX
    kernel_size: 3
    stride: 2
  }
}
layer {
  name: "conv2"
  type: "Convolution"
  bottom: "pool1"
  top: "conv2"
  param {
    lr_mult: 1
    decay_mult: 1
  }
  param {
    lr_mult: 2
    decay_mult: 0
  }
  convolution_param {
    num_output: 256
    pad: 2
    kernel_size: 5
    group: 2
    weight_filler {
      type: "gaussian"
      std: 0.01
    }
    bias_filler {
      type: "constant"
      value: 0.1
    }
  }
}
layer {
  name: "relu2"
  type: "ReLU"
  bottom: "conv2"
  top: "conv2"
}
layer {
  name: "norm2"
  type: "LRN"
  bottom: "conv2"
  top: "norm2"
  lrn_param {
    local_size: 5
    alpha: 0.0001
    beta: 0.75
  }
}
layer {
  name: "pool2"
  type: "Pooling"
  bottom: "norm2"
  top: "pool2"
  pooling_param {
    pool: MAX
    kernel_size: 3
    stride: 2
  }
}
layer {
  name: "conv3"
  type: "Convolution"
  bottom: "pool2"
  top: "conv3"
  param {
    lr_mult: 1
    decay_mult: 1
  }
  param {
    lr_mult: 2
    decay_mult: 0
  }
  convolution_param {
    num_output: 384
    pad: 1
    kernel_size: 3
    weight_filler {
      type: "gaussian"
      std: 0.01
    }
    bias_filler {
      type: "constant"
      value: 0
    }
  }
}
layer {
  name: "relu3"
  type: "ReLU"
  bottom: "conv3"
  top: "conv3"
}
layer {
  name: "conv4"
  type: "Convolution"
  bottom: "conv3"
  top: "conv4"
  param {
    lr_mult: 1
    decay_mult: 1
  }
  param {
    lr_mult: 2
    decay_mult: 0
  }
  convolution_param {
    num_output: 384
    pad: 1
    kernel_size: 3
    group: 2
    weight_filler {
      type: "gaussian"
      std: 0.01
    }
    bias_filler {
      type: "constant"
      value: 0.1
    }
  }
}
layer {
  name: "relu4"
  type: "ReLU"
  bottom: "conv4"
  top: "conv4"
}
layer {
  name: "conv5"
  type: "Convolution"
  bottom: "conv4"
  top: "conv5"
  param {
    lr_mult: 1
    decay_mult: 1
  }
  param {
    lr_mult: 2
    decay_mult: 0
  }
  convolution_param {
    num_output: 256
    pad: 1
    kernel_size: 3
    group: 2
    weight_filler {
      type: "gaussian"
      std: 0.01
    }
    bias_filler {
      type: "constant"
      value: 0.1
    }
  }
}
layer {
  name: "relu5"
  type: "ReLU"
  bottom: "conv5"
  top: "conv5"
}
layer {
  name: "pool5"
  type: "Pooling"
  bottom: "conv5"
  top: "pool5"
  pooling_param {
    pool: MAX
    kernel_size: 3
    stride: 2
  }
}
layer {
  name: "fc6"
  type: "InnerProduct"
  bottom: "pool5"
  top: "fc6"
  param {
    lr_mult: 1
    decay_mult: 1
  }
  param {
    lr_mult: 2
    decay_mult: 0
  }
  inner_product_param {
    num_output: 4096
    weight_filler {
      type: "gaussian"
      std: 0.005
    }
    bias_filler {
      type: "constant"
      value: 0.1
    }
  }
}
layer {
  name: "relu6"
  type: "ReLU"
  bottom: "fc6"
  top: "fc6"
}
layer {
  name: "drop6"
  type: "Dropout"
  bottom: "fc6"
  top: "fc6"
  dropout_param {
    dropout_ratio: 0.5
  }
}
layer {
  name: "fc7"
  type: "InnerProduct"
  bottom: "fc6"
  top: "fc7"
  param {
    lr_mult: 1
    decay_mult: 1
  }
  param {
    lr_mult: 2
    decay_mult: 0
  }
  inner_product_param {
    num_output: 4096
    weight_filler {
      type: "gaussian"
      std: 0.005
    }
    bias_filler {
      type: "constant"
      value: 0.1
    }
  }
}
layer {
  name: "relu7"
  type: "ReLU"
  bottom: "fc7"
  top: "fc7"
}
layer {
  name: "drop7"
  type: "Dropout"
  bottom: "fc7"
  top: "fc7"
  dropout_param {
    dropout_ratio: 0.5
  }
}
layer {
  name: "fc8_plantvillage"
  type: "InnerProduct"
  bottom: "fc7"
  top: "fc8_plantvillage"
  param {
    lr_mult: 1
    decay_mult: 1
  }
  param {
    lr_mult: 2
    decay_mult: 0
  }
  inner_product_param {
    num_output: 38
    weight_filler {
      type: "gaussian"
      std: 0.01
    }
    bias_filler {
      type: "constant"
      value: 0
    }
  }
}
layer {
  name: "loss"
  type: "SoftmaxWithLoss"
  bottom: "fc8_plantvillage"
  bottom: "label"
  top: "loss"
}
I0403 07:49:15.892784  4887 layer_factory.hpp:77] Creating layer data
I0403 07:49:15.893607  4887 net.cpp:91] Creating Layer data
I0403 07:49:15.893651  4887 net.cpp:399] data -> data
I0403 07:49:15.893712  4887 net.cpp:399] data -> label
I0403 07:49:15.893754  4887 data_transformer.cpp:25] Loading mean file from: /home/mohanty/data/final_dataset/lmdb/segmented-40-60/mean.binaryproto
I0403 07:49:15.929532  4890 db_lmdb.cpp:38] Opened lmdb /home/mohanty/data/final_dataset/lmdb/segmented-40-60/train_db
I0403 07:49:15.950831  4887 data_layer.cpp:41] output data size: 100,3,227,227
I0403 07:49:16.087740  4887 net.cpp:141] Setting up data
I0403 07:49:16.087853  4887 net.cpp:148] Top shape: 100 3 227 227 (15458700)
I0403 07:49:16.087878  4887 net.cpp:148] Top shape: 100 (100)
I0403 07:49:16.087898  4887 net.cpp:156] Memory required for data: 61835200
I0403 07:49:16.087935  4887 layer_factory.hpp:77] Creating layer conv1
I0403 07:49:16.087986  4887 net.cpp:91] Creating Layer conv1
I0403 07:49:16.088013  4887 net.cpp:425] conv1 <- data
I0403 07:49:16.088052  4887 net.cpp:399] conv1 -> conv1
I0403 07:49:16.091212  4887 net.cpp:141] Setting up conv1
I0403 07:49:16.091249  4887 net.cpp:148] Top shape: 100 96 55 55 (29040000)
I0403 07:49:16.091269  4887 net.cpp:156] Memory required for data: 177995200
I0403 07:49:16.091312  4887 layer_factory.hpp:77] Creating layer relu1
I0403 07:49:16.091346  4887 net.cpp:91] Creating Layer relu1
I0403 07:49:16.091373  4887 net.cpp:425] relu1 <- conv1
I0403 07:49:16.091395  4887 net.cpp:386] relu1 -> conv1 (in-place)
I0403 07:49:16.091424  4887 net.cpp:141] Setting up relu1
I0403 07:49:16.091447  4887 net.cpp:148] Top shape: 100 96 55 55 (29040000)
I0403 07:49:16.091465  4887 net.cpp:156] Memory required for data: 294155200
I0403 07:49:16.091483  4887 layer_factory.hpp:77] Creating layer norm1
I0403 07:49:16.091544  4887 net.cpp:91] Creating Layer norm1
I0403 07:49:16.091564  4887 net.cpp:425] norm1 <- conv1
I0403 07:49:16.091588  4887 net.cpp:399] norm1 -> norm1
I0403 07:49:16.097188  4887 net.cpp:141] Setting up norm1
I0403 07:49:16.097231  4887 net.cpp:148] Top shape: 100 96 55 55 (29040000)
I0403 07:49:16.097252  4887 net.cpp:156] Memory required for data: 410315200
I0403 07:49:16.097272  4887 layer_factory.hpp:77] Creating layer pool1
I0403 07:49:16.097300  4887 net.cpp:91] Creating Layer pool1
I0403 07:49:16.097319  4887 net.cpp:425] pool1 <- norm1
I0403 07:49:16.097342  4887 net.cpp:399] pool1 -> pool1
I0403 07:49:16.097427  4887 net.cpp:141] Setting up pool1
I0403 07:49:16.097457  4887 net.cpp:148] Top shape: 100 96 27 27 (6998400)
I0403 07:49:16.097476  4887 net.cpp:156] Memory required for data: 438308800
I0403 07:49:16.097494  4887 layer_factory.hpp:77] Creating layer conv2
I0403 07:49:16.097522  4887 net.cpp:91] Creating Layer conv2
I0403 07:49:16.097544  4887 net.cpp:425] conv2 <- pool1
I0403 07:49:16.097568  4887 net.cpp:399] conv2 -> conv2
I0403 07:49:16.099114  4892 blocking_queue.cpp:50] Waiting for data
I0403 07:49:16.115783  4887 net.cpp:141] Setting up conv2
I0403 07:49:16.115819  4887 net.cpp:148] Top shape: 100 256 27 27 (18662400)
I0403 07:49:16.115839  4887 net.cpp:156] Memory required for data: 512958400
I0403 07:49:16.115866  4887 layer_factory.hpp:77] Creating layer relu2
I0403 07:49:16.115892  4887 net.cpp:91] Creating Layer relu2
I0403 07:49:16.115913  4887 net.cpp:425] relu2 <- conv2
I0403 07:49:16.115934  4887 net.cpp:386] relu2 -> conv2 (in-place)
I0403 07:49:16.115957  4887 net.cpp:141] Setting up relu2
I0403 07:49:16.115978  4887 net.cpp:148] Top shape: 100 256 27 27 (18662400)
I0403 07:49:16.115996  4887 net.cpp:156] Memory required for data: 587608000
I0403 07:49:16.116014  4887 layer_factory.hpp:77] Creating layer norm2
I0403 07:49:16.116036  4887 net.cpp:91] Creating Layer norm2
I0403 07:49:16.116055  4887 net.cpp:425] norm2 <- conv2
I0403 07:49:16.116077  4887 net.cpp:399] norm2 -> norm2
I0403 07:49:16.116133  4887 net.cpp:141] Setting up norm2
I0403 07:49:16.116163  4887 net.cpp:148] Top shape: 100 256 27 27 (18662400)
I0403 07:49:16.116181  4887 net.cpp:156] Memory required for data: 662257600
I0403 07:49:16.116199  4887 layer_factory.hpp:77] Creating layer pool2
I0403 07:49:16.116225  4887 net.cpp:91] Creating Layer pool2
I0403 07:49:16.116245  4887 net.cpp:425] pool2 <- norm2
I0403 07:49:16.116266  4887 net.cpp:399] pool2 -> pool2
I0403 07:49:16.116320  4887 net.cpp:141] Setting up pool2
I0403 07:49:16.116351  4887 net.cpp:148] Top shape: 100 256 13 13 (4326400)
I0403 07:49:16.116372  4887 net.cpp:156] Memory required for data: 679563200
I0403 07:49:16.116390  4887 layer_factory.hpp:77] Creating layer conv3
I0403 07:49:16.116417  4887 net.cpp:91] Creating Layer conv3
I0403 07:49:16.116441  4887 net.cpp:425] conv3 <- pool2
I0403 07:49:16.116464  4887 net.cpp:399] conv3 -> conv3
I0403 07:49:16.157991  4887 net.cpp:141] Setting up conv3
I0403 07:49:16.158030  4887 net.cpp:148] Top shape: 100 384 13 13 (6489600)
I0403 07:49:16.158051  4887 net.cpp:156] Memory required for data: 705521600
I0403 07:49:16.158077  4887 layer_factory.hpp:77] Creating layer relu3
I0403 07:49:16.158100  4887 net.cpp:91] Creating Layer relu3
I0403 07:49:16.158120  4887 net.cpp:425] relu3 <- conv3
I0403 07:49:16.158141  4887 net.cpp:386] relu3 -> conv3 (in-place)
I0403 07:49:16.158165  4887 net.cpp:141] Setting up relu3
I0403 07:49:16.158186  4887 net.cpp:148] Top shape: 100 384 13 13 (6489600)
I0403 07:49:16.158205  4887 net.cpp:156] Memory required for data: 731480000
I0403 07:49:16.158222  4887 layer_factory.hpp:77] Creating layer conv4
I0403 07:49:16.158248  4887 net.cpp:91] Creating Layer conv4
I0403 07:49:16.158268  4887 net.cpp:425] conv4 <- conv3
I0403 07:49:16.158294  4887 net.cpp:399] conv4 -> conv4
I0403 07:49:16.189643  4887 net.cpp:141] Setting up conv4
I0403 07:49:16.189685  4887 net.cpp:148] Top shape: 100 384 13 13 (6489600)
I0403 07:49:16.189705  4887 net.cpp:156] Memory required for data: 757438400
I0403 07:49:16.189749  4887 layer_factory.hpp:77] Creating layer relu4
I0403 07:49:16.189774  4887 net.cpp:91] Creating Layer relu4
I0403 07:49:16.189795  4887 net.cpp:425] relu4 <- conv4
I0403 07:49:16.189817  4887 net.cpp:386] relu4 -> conv4 (in-place)
I0403 07:49:16.189839  4887 net.cpp:141] Setting up relu4
I0403 07:49:16.189860  4887 net.cpp:148] Top shape: 100 384 13 13 (6489600)
I0403 07:49:16.189878  4887 net.cpp:156] Memory required for data: 783396800
I0403 07:49:16.189895  4887 layer_factory.hpp:77] Creating layer conv5
I0403 07:49:16.189923  4887 net.cpp:91] Creating Layer conv5
I0403 07:49:16.189944  4887 net.cpp:425] conv5 <- conv4
I0403 07:49:16.189967  4887 net.cpp:399] conv5 -> conv5
I0403 07:49:16.210970  4887 net.cpp:141] Setting up conv5
I0403 07:49:16.211010  4887 net.cpp:148] Top shape: 100 256 13 13 (4326400)
I0403 07:49:16.211030  4887 net.cpp:156] Memory required for data: 800702400
I0403 07:49:16.211055  4887 layer_factory.hpp:77] Creating layer relu5
I0403 07:49:16.211081  4887 net.cpp:91] Creating Layer relu5
I0403 07:49:16.211099  4887 net.cpp:425] relu5 <- conv5
I0403 07:49:16.211122  4887 net.cpp:386] relu5 -> conv5 (in-place)
I0403 07:49:16.211146  4887 net.cpp:141] Setting up relu5
I0403 07:49:16.211168  4887 net.cpp:148] Top shape: 100 256 13 13 (4326400)
I0403 07:49:16.211185  4887 net.cpp:156] Memory required for data: 818008000
I0403 07:49:16.211204  4887 layer_factory.hpp:77] Creating layer pool5
I0403 07:49:16.211226  4887 net.cpp:91] Creating Layer pool5
I0403 07:49:16.211246  4887 net.cpp:425] pool5 <- conv5
I0403 07:49:16.211272  4887 net.cpp:399] pool5 -> pool5
I0403 07:49:16.211329  4887 net.cpp:141] Setting up pool5
I0403 07:49:16.211362  4887 net.cpp:148] Top shape: 100 256 6 6 (921600)
I0403 07:49:16.211381  4887 net.cpp:156] Memory required for data: 821694400
I0403 07:49:16.211400  4887 layer_factory.hpp:77] Creating layer fc6
I0403 07:49:16.211436  4887 net.cpp:91] Creating Layer fc6
I0403 07:49:16.211457  4887 net.cpp:425] fc6 <- pool5
I0403 07:49:16.211482  4887 net.cpp:399] fc6 -> fc6
I0403 07:49:17.760102  4887 net.cpp:141] Setting up fc6
I0403 07:49:17.760193  4887 net.cpp:148] Top shape: 100 4096 (409600)
I0403 07:49:17.760210  4887 net.cpp:156] Memory required for data: 823332800
I0403 07:49:17.760231  4887 layer_factory.hpp:77] Creating layer relu6
I0403 07:49:17.760256  4887 net.cpp:91] Creating Layer relu6
I0403 07:49:17.760273  4887 net.cpp:425] relu6 <- fc6
I0403 07:49:17.760293  4887 net.cpp:386] relu6 -> fc6 (in-place)
I0403 07:49:17.760313  4887 net.cpp:141] Setting up relu6
I0403 07:49:17.760327  4887 net.cpp:148] Top shape: 100 4096 (409600)
I0403 07:49:17.760341  4887 net.cpp:156] Memory required for data: 824971200
I0403 07:49:17.760361  4887 layer_factory.hpp:77] Creating layer drop6
I0403 07:49:17.760387  4887 net.cpp:91] Creating Layer drop6
I0403 07:49:17.760404  4887 net.cpp:425] drop6 <- fc6
I0403 07:49:17.760421  4887 net.cpp:386] drop6 -> fc6 (in-place)
I0403 07:49:17.760465  4887 net.cpp:141] Setting up drop6
I0403 07:49:17.760489  4887 net.cpp:148] Top shape: 100 4096 (409600)
I0403 07:49:17.760504  4887 net.cpp:156] Memory required for data: 826609600
I0403 07:49:17.760519  4887 layer_factory.hpp:77] Creating layer fc7
I0403 07:49:17.760538  4887 net.cpp:91] Creating Layer fc7
I0403 07:49:17.760552  4887 net.cpp:425] fc7 <- fc6
I0403 07:49:17.760571  4887 net.cpp:399] fc7 -> fc7
I0403 07:49:18.405238  4887 net.cpp:141] Setting up fc7
I0403 07:49:18.405333  4887 net.cpp:148] Top shape: 100 4096 (409600)
I0403 07:49:18.405354  4887 net.cpp:156] Memory required for data: 828248000
I0403 07:49:18.405378  4887 layer_factory.hpp:77] Creating layer relu7
I0403 07:49:18.405402  4887 net.cpp:91] Creating Layer relu7
I0403 07:49:18.405418  4887 net.cpp:425] relu7 <- fc7
I0403 07:49:18.405437  4887 net.cpp:386] relu7 -> fc7 (in-place)
I0403 07:49:18.405458  4887 net.cpp:141] Setting up relu7
I0403 07:49:18.405475  4887 net.cpp:148] Top shape: 100 4096 (409600)
I0403 07:49:18.405489  4887 net.cpp:156] Memory required for data: 829886400
I0403 07:49:18.405534  4887 layer_factory.hpp:77] Creating layer drop7
I0403 07:49:18.405561  4887 net.cpp:91] Creating Layer drop7
I0403 07:49:18.405577  4887 net.cpp:425] drop7 <- fc7
I0403 07:49:18.405594  4887 net.cpp:386] drop7 -> fc7 (in-place)
I0403 07:49:18.405643  4887 net.cpp:141] Setting up drop7
I0403 07:49:18.405664  4887 net.cpp:148] Top shape: 100 4096 (409600)
I0403 07:49:18.405678  4887 net.cpp:156] Memory required for data: 831524800
I0403 07:49:18.405694  4887 layer_factory.hpp:77] Creating layer fc8_plantvillage
I0403 07:49:18.405712  4887 net.cpp:91] Creating Layer fc8_plantvillage
I0403 07:49:18.405727  4887 net.cpp:425] fc8_plantvillage <- fc7
I0403 07:49:18.405747  4887 net.cpp:399] fc8_plantvillage -> fc8_plantvillage
I0403 07:49:18.411885  4887 net.cpp:141] Setting up fc8_plantvillage
I0403 07:49:18.411914  4887 net.cpp:148] Top shape: 100 38 (3800)
I0403 07:49:18.411931  4887 net.cpp:156] Memory required for data: 831540000
I0403 07:49:18.411948  4887 layer_factory.hpp:77] Creating layer loss
I0403 07:49:18.411973  4887 net.cpp:91] Creating Layer loss
I0403 07:49:18.411989  4887 net.cpp:425] loss <- fc8_plantvillage
I0403 07:49:18.412005  4887 net.cpp:425] loss <- label
I0403 07:49:18.412026  4887 net.cpp:399] loss -> loss
I0403 07:49:18.412052  4887 layer_factory.hpp:77] Creating layer loss
…
I0403 07:49:18.413784  4887 net.cpp:313] The NetState phase (1) differed from the phase (0) specified by a rule in layer data
I0403 07:49:18.414441  4887 net.cpp:49] Initializing net from parameters: 
state {
  phase: TEST
}
layer {
  name: "data"
  type: "Data"
  top: "data"
  top: "label"
  include {
    phase: TEST
  }
  transform_param {
    crop_size: 227
    mean_file: "/home/mohanty/data/final_dataset/lmdb/segmented-40-60/mean.binaryproto"
  }
  data_param {
    source: "/home/mohanty/data/final_dataset/lmdb/segmented-40-60/test_db"
    batch_size: 100
    backend: LMDB
  }
}
layer {
  name: "conv1"
  type: "Convolution"
  bottom: "data"
  top: "conv1"
  param {
    lr_mult: 1
    decay_mult: 1
  }
  param {
    lr_mult: 2
    decay_mult: 0
  }
  convolution_param {
    num_output: 96
    kernel_size: 11
    stride: 4
    weight_filler {
      type: "gaussian"
      std: 0.01
    }
    bias_filler {
      type: "constant"
      value: 0
    }
  }
}
layer {
  name: "relu1"
  type: "ReLU"
  bottom: "conv1"
  top: "conv1"
}
layer {
  name: "norm1"
  type: "LRN"
  bottom: "conv1"
  top: "norm1"
  lrn_param {
    local_size: 5
    alpha: 0.0001
    beta: 0.75
  }
}
layer {
  name: "pool1"
  type: "Pooling"
  bottom: "norm1"
  top: "pool1"
  pooling_param {
    pool: MAX
    kernel_size: 3
    stride: 2
  }
}
layer {
  name: "conv2"
  type: "Convolution"
  bottom: "pool1"
  top: "conv2"
  param {
    lr_mult: 1
    decay_mult: 1
  }
  param {
    lr_mult: 2
    decay_mult: 0
  }
  convolution_param {
    num_output: 256
    pad: 2
    kernel_size: 5
    group: 2
    weight_filler {
      type: "gaussian"
      std: 0.01
    }
    bias_filler {
      type: "constant"
      value: 0.1
    }
  }
}
layer {
  name: "relu2"
  type: "ReLU"
  bottom: "conv2"
  top: "conv2"
}
layer {
  name: "norm2"
  type: "LRN"
  bottom: "conv2"
  top: "norm2"
  lrn_param {
    local_size: 5
    alpha: 0.0001
    beta: 0.75
  }
}
layer {
  name: "pool2"
  type: "Pooling"
  bottom: "norm2"
  top: "pool2"
  pooling_param {
    pool: MAX
    kernel_size: 3
    stride: 2
  }
}
layer {
  name: "conv3"
  type: "Convolution"
  bottom: "pool2"
  top: "conv3"
  param {
    lr_mult: 1
    decay_mult: 1
  }
  param {
    lr_mult: 2
    decay_mult: 0
  }
  convolution_param {
    num_output: 384
    pad: 1
    kernel_size: 3
    weight_filler {
      type: "gaussian"
      std: 0.01
    }
    bias_filler {
      type: "constant"
      value: 0
    }
  }
}
layer {
  name: "relu3"
  type: "ReLU"
  bottom: "conv3"
  top: "conv3"
}
layer {
  name: "conv4"
  type: "Convolution"
  bottom: "conv3"
  top: "conv4"
  param {
    lr_mult: 1
    decay_mult: 1
  }
  param {
    lr_mult: 2
    decay_mult: 0
  }
  convolution_param {
    num_output: 384
    pad: 1
    kernel_size: 3
    group: 2
    weight_filler {
      type: "gaussian"
      std: 0.01
    }
    bias_filler {
      type: "constant"
      value: 0.1
    }
  }
}
layer {
  name: "relu4"
  type: "ReLU"
  bottom: "conv4"
  top: "conv4"
}
layer {
  name: "conv5"
  type: "Convolution"
  bottom: "conv4"
  top: "conv5"
  param {
    lr_mult: 1
    decay_mult: 1
  }
  param {
    lr_mult: 2
    decay_mult: 0
  }
  convolution_param {
    num_output: 256
    pad: 1
    kernel_size: 3
    group: 2
    weight_filler {
      type: "gaussian"
      std: 0.01
    }
    bias_filler {
      type: "constant"
      value: 0.1
    }
  }
}
layer {
  name: "relu5"
  type: "ReLU"
  bottom: "conv5"
  top: "conv5"
}
layer {
  name: "pool5"
  type: "Pooling"
  bottom: "conv5"
  top: "pool5"
  pooling_param {
    pool: MAX
    kernel_size: 3
    stride: 2
  }
}
layer {
  name: "fc6"
  type: "InnerProduct"
  bottom: "pool5"
  top: "fc6"
  param {
    lr_mult: 1
    decay_mult: 1
  }
  param {
    lr_mult: 2
    decay_mult: 0
  }
  inner_product_param {
    num_output: 4096
    weight_filler {
      type: "gaussian"
      std: 0.005
    }
    bias_filler {
      type: "constant"
      value: 0.1
    }
  }
}
layer {
  name: "relu6"
  type: "ReLU"
  bottom: "fc6"
  top: "fc6"
}
layer {
  name: "drop6"
  type: "Dropout"
  bottom: "fc6"
  top: "fc6"
  dropout_param {
    dropout_ratio: 0.5
  }
}
layer {
  name: "fc7"
  type: "InnerProduct"
  bottom: "fc6"
  top: "fc7"
  param {
    lr_mult: 1
    decay_mult: 1
  }
  param {
    lr_mult: 2
    decay_mult: 0
  }
  inner_product_param {
    num_output: 4096
    weight_filler {
      type: "gaussian"
      std: 0.005
    }
    bias_filler {
      type: "constant"
      value: 0.1
    }
  }
}
layer {
  name: "relu7"
  type: "ReLU"
  bottom: "fc7"
  top: "fc7"
}
layer {
  name: "drop7"
  type: "Dropout"
  bottom: "fc7"
  top: "fc7"
  dropout_param {
    dropout_ratio: 0.5
  }
}
layer {
  name: "fc8_plantvillage"
  type: "InnerProduct"
  bottom: "fc7"
  top: "fc8_plantvillage"
  param {
    lr_mult: 1
    decay_mult: 1
  }
  param {
    lr_mult: 2
    decay_mult: 0
  }
  inner_product_param {
    num_output: 38
    weight_filler {
      type: "gaussian"
      std: 0.01
    }
    bias_filler {
      type: "constant"
      value: 0
    }
  }
}
layer {
  name: "loss"
  type: "SoftmaxWithLoss"
  bottom: "fc8_plantvillage"
  bottom: "label"
  top: "loss"
}
layer {
  name: "accuracy"
  type: "Accuracy"
  bottom: "fc8_plantvillage"
  bottom: "label"
  top: "accuracy"
  include {
    phase: TEST
  }
}
I0403 07:49:18.414604  4887 layer_factory.hpp:77] Creating layer data
I0403 07:49:18.414774  4887 net.cpp:91] Creating Layer data
I0403 07:49:18.414804  4887 net.cpp:399] data -> data
I0403 07:49:18.414829  4887 net.cpp:399] data -> label
I0403 07:49:18.414852  4887 data_transformer.cpp:25] Loading mean file from: /home/mohanty/data/final_dataset/lmdb/segmented-40-60/mean.binaryproto
I0403 07:49:18.454862  4895 db_lmdb.cpp:38] Opened lmdb /home/mohanty/data/final_dataset/lmdb/segmented-40-60/test_db
I0403 07:49:18.472077  4887 data_layer.cpp:41] output data size: 100,3,227,227
I0403 07:49:18.609894  4887 net.cpp:141] Setting up data
I0403 07:49:18.609982  4887 net.cpp:148] Top shape: 100 3 227 227 (15458700)
I0403 07:49:18.610002  4887 net.cpp:148] Top shape: 100 (100)
I0403 07:49:18.610018  4887 net.cpp:156] Memory required for data: 61835200
I0403 07:49:18.610038  4887 layer_factory.hpp:77] Creating layer label_data_1_split
I0403 07:49:18.610066  4887 net.cpp:91] Creating Layer label_data_1_split
I0403 07:49:18.610083  4887 net.cpp:425] label_data_1_split <- label
I0403 07:49:18.610105  4887 net.cpp:399] label_data_1_split -> label_data_1_split_0
I0403 07:49:18.610129  4887 net.cpp:399] label_data_1_split -> label_data_1_split_1
I0403 07:49:18.610188  4887 net.cpp:141] Setting up label_data_1_split
I0403 07:49:18.610211  4887 net.cpp:148] Top shape: 100 (100)
I0403 07:49:18.610229  4887 net.cpp:148] Top shape: 100 (100)
I0403 07:49:18.610244  4887 net.cpp:156] Memory required for data: 61836000
I0403 07:49:18.610258  4887 layer_factory.hpp:77] Creating layer conv1
I0403 07:49:18.610285  4887 net.cpp:91] Creating Layer conv1
I0403 07:49:18.610304  4887 net.cpp:425] conv1 <- data
I0403 07:49:18.610330  4887 net.cpp:399] conv1 -> conv1
I0403 07:49:18.611938  4887 net.cpp:141] Setting up conv1
I0403 07:49:18.611968  4887 net.cpp:148] Top shape: 100 96 55 55 (29040000)
I0403 07:49:18.611984  4887 net.cpp:156] Memory required for data: 177996000
I0403 07:49:18.612009  4887 layer_factory.hpp:77] Creating layer relu1
I0403 07:49:18.612030  4887 net.cpp:91] Creating Layer relu1
I0403 07:49:18.612047  4887 net.cpp:425] relu1 <- conv1
I0403 07:49:18.612066  4887 net.cpp:386] relu1 -> conv1 (in-place)
I0403 07:49:18.612087  4887 net.cpp:141] Setting up relu1
I0403 07:49:18.612104  4887 net.cpp:148] Top shape: 100 96 55 55 (29040000)
I0403 07:49:18.612119  4887 net.cpp:156] Memory required for data: 294156000
I0403 07:49:18.612135  4887 layer_factory.hpp:77] Creating layer norm1
I0403 07:49:18.612157  4887 net.cpp:91] Creating Layer norm1
I0403 07:49:18.612174  4887 net.cpp:425] norm1 <- conv1
I0403 07:49:18.612195  4887 net.cpp:399] norm1 -> norm1
I0403 07:49:18.618134  4887 net.cpp:141] Setting up norm1
I0403 07:49:18.618173  4887 net.cpp:148] Top shape: 100 96 55 55 (29040000)
I0403 07:49:18.618191  4887 net.cpp:156] Memory required for data: 410316000
I0403 07:49:18.618206  4887 layer_factory.hpp:77] Creating layer pool1
I0403 07:49:18.618227  4887 net.cpp:91] Creating Layer pool1
I0403 07:49:18.618244  4887 net.cpp:425] pool1 <- norm1
I0403 07:49:18.618264  4887 net.cpp:399] pool1 -> pool1
I0403 07:49:18.618331  4887 net.cpp:141] Setting up pool1
I0403 07:49:18.618357  4887 net.cpp:148] Top shape: 100 96 27 27 (6998400)
I0403 07:49:18.618374  4887 net.cpp:156] Memory required for data: 438309600
I0403 07:49:18.618413  4887 layer_factory.hpp:77] Creating layer conv2
I0403 07:49:18.618438  4887 net.cpp:91] Creating Layer conv2
I0403 07:49:18.618456  4887 net.cpp:425] conv2 <- pool1
I0403 07:49:18.618476  4887 net.cpp:399] conv2 -> conv2
I0403 07:49:18.631734  4887 net.cpp:141] Setting up conv2
I0403 07:49:18.631773  4887 net.cpp:148] Top shape: 100 256 27 27 (18662400)
I0403 07:49:18.631791  4887 net.cpp:156] Memory required for data: 512959200
I0403 07:49:18.631814  4887 layer_factory.hpp:77] Creating layer relu2
I0403 07:49:18.631834  4887 net.cpp:91] Creating Layer relu2
I0403 07:49:18.631851  4887 net.cpp:425] relu2 <- conv2
I0403 07:49:18.631868  4887 net.cpp:386] relu2 -> conv2 (in-place)
I0403 07:49:18.631888  4887 net.cpp:141] Setting up relu2
I0403 07:49:18.631906  4887 net.cpp:148] Top shape: 100 256 27 27 (18662400)
I0403 07:49:18.631921  4887 net.cpp:156] Memory required for data: 587608800
I0403 07:49:18.631935  4887 layer_factory.hpp:77] Creating layer norm2
I0403 07:49:18.631955  4887 net.cpp:91] Creating Layer norm2
I0403 07:49:18.631971  4887 net.cpp:425] norm2 <- conv2
I0403 07:49:18.631989  4887 net.cpp:399] norm2 -> norm2
I0403 07:49:18.632038  4887 net.cpp:141] Setting up norm2
I0403 07:49:18.632061  4887 net.cpp:148] Top shape: 100 256 27 27 (18662400)
I0403 07:49:18.632076  4887 net.cpp:156] Memory required for data: 662258400
I0403 07:49:18.632091  4887 layer_factory.hpp:77] Creating layer pool2
I0403 07:49:18.632110  4887 net.cpp:91] Creating Layer pool2
I0403 07:49:18.632125  4887 net.cpp:425] pool2 <- norm2
I0403 07:49:18.632144  4887 net.cpp:399] pool2 -> pool2
I0403 07:49:18.632192  4887 net.cpp:141] Setting up pool2
I0403 07:49:18.632215  4887 net.cpp:148] Top shape: 100 256 13 13 (4326400)
I0403 07:49:18.632230  4887 net.cpp:156] Memory required for data: 679564000
I0403 07:49:18.632244  4887 layer_factory.hpp:77] Creating layer conv3
I0403 07:49:18.632266  4887 net.cpp:91] Creating Layer conv3
I0403 07:49:18.632283  4887 net.cpp:425] conv3 <- pool2
I0403 07:49:18.632303  4887 net.cpp:399] conv3 -> conv3
I0403 07:49:18.668051  4887 net.cpp:141] Setting up conv3
I0403 07:49:18.668112  4887 net.cpp:148] Top shape: 100 384 13 13 (6489600)
I0403 07:49:18.668129  4887 net.cpp:156] Memory required for data: 705522400
I0403 07:49:18.668155  4887 layer_factory.hpp:77] Creating layer relu3
I0403 07:49:18.668179  4887 net.cpp:91] Creating Layer relu3
I0403 07:49:18.668197  4887 net.cpp:425] relu3 <- conv3
I0403 07:49:18.668217  4887 net.cpp:386] relu3 -> conv3 (in-place)
I0403 07:49:18.668239  4887 net.cpp:141] Setting up relu3
I0403 07:49:18.668257  4887 net.cpp:148] Top shape: 100 384 13 13 (6489600)
I0403 07:49:18.668272  4887 net.cpp:156] Memory required for data: 731480800
I0403 07:49:18.668287  4887 layer_factory.hpp:77] Creating layer conv4
I0403 07:49:18.668313  4887 net.cpp:91] Creating Layer conv4
I0403 07:49:18.668344  4887 net.cpp:425] conv4 <- conv3
I0403 07:49:18.668366  4887 net.cpp:399] conv4 -> conv4
I0403 07:49:18.695617  4887 net.cpp:141] Setting up conv4
I0403 07:49:18.695660  4887 net.cpp:148] Top shape: 100 384 13 13 (6489600)
I0403 07:49:18.695677  4887 net.cpp:156] Memory required for data: 757439200
I0403 07:49:18.695698  4887 layer_factory.hpp:77] Creating layer relu4
I0403 07:49:18.695720  4887 net.cpp:91] Creating Layer relu4
I0403 07:49:18.695737  4887 net.cpp:425] relu4 <- conv4
I0403 07:49:18.695757  4887 net.cpp:386] relu4 -> conv4 (in-place)
I0403 07:49:18.695777  4887 net.cpp:141] Setting up relu4
I0403 07:49:18.695797  4887 net.cpp:148] Top shape: 100 384 13 13 (6489600)
I0403 07:49:18.695813  4887 net.cpp:156] Memory required for data: 783397600
I0403 07:49:18.695828  4887 layer_factory.hpp:77] Creating layer conv5
I0403 07:49:18.695852  4887 net.cpp:91] Creating Layer conv5
I0403 07:49:18.695869  4887 net.cpp:425] conv5 <- conv4
I0403 07:49:18.695890  4887 net.cpp:399] conv5 -> conv5
I0403 07:49:18.714174  4887 net.cpp:141] Setting up conv5
I0403 07:49:18.714207  4887 net.cpp:148] Top shape: 100 256 13 13 (4326400)
I0403 07:49:18.714257  4887 net.cpp:156] Memory required for data: 800703200
I0403 07:49:18.714282  4887 layer_factory.hpp:77] Creating layer relu5
I0403 07:49:18.714303  4887 net.cpp:91] Creating Layer relu5
I0403 07:49:18.714323  4887 net.cpp:425] relu5 <- conv5
I0403 07:49:18.714344  4887 net.cpp:386] relu5 -> conv5 (in-place)
I0403 07:49:18.714365  4887 net.cpp:141] Setting up relu5
I0403 07:49:18.714382  4887 net.cpp:148] Top shape: 100 256 13 13 (4326400)
I0403 07:49:18.714398  4887 net.cpp:156] Memory required for data: 818008800
I0403 07:49:18.714413  4887 layer_factory.hpp:77] Creating layer pool5
I0403 07:49:18.714438  4887 net.cpp:91] Creating Layer pool5
I0403 07:49:18.714457  4887 net.cpp:425] pool5 <- conv5
I0403 07:49:18.714475  4887 net.cpp:399] pool5 -> pool5
I0403 07:49:18.714531  4887 net.cpp:141] Setting up pool5
I0403 07:49:18.714556  4887 net.cpp:148] Top shape: 100 256 6 6 (921600)
I0403 07:49:18.714572  4887 net.cpp:156] Memory required for data: 821695200
I0403 07:49:18.714587  4887 layer_factory.hpp:77] Creating layer fc6
I0403 07:49:18.714609  4887 net.cpp:91] Creating Layer fc6
I0403 07:49:18.714627  4887 net.cpp:425] fc6 <- pool5
I0403 07:49:18.714646  4887 net.cpp:399] fc6 -> fc6
I0403 07:49:20.135776  4887 net.cpp:141] Setting up fc6
I0403 07:49:20.135876  4887 net.cpp:148] Top shape: 100 4096 (409600)
I0403 07:49:20.135892  4887 net.cpp:156] Memory required for data: 823333600
I0403 07:49:20.135922  4887 layer_factory.hpp:77] Creating layer relu6
I0403 07:49:20.135948  4887 net.cpp:91] Creating Layer relu6
I0403 07:49:20.135965  4887 net.cpp:425] relu6 <- fc6
I0403 07:49:20.135985  4887 net.cpp:386] relu6 -> fc6 (in-place)
I0403 07:49:20.136006  4887 net.cpp:141] Setting up relu6
I0403 07:49:20.136023  4887 net.cpp:148] Top shape: 100 4096 (409600)
I0403 07:49:20.136036  4887 net.cpp:156] Memory required for data: 824972000
I0403 07:49:20.136049  4887 layer_factory.hpp:77] Creating layer drop6
I0403 07:49:20.136072  4887 net.cpp:91] Creating Layer drop6
I0403 07:49:20.136088  4887 net.cpp:425] drop6 <- fc6
I0403 07:49:20.136104  4887 net.cpp:386] drop6 -> fc6 (in-place)
I0403 07:49:20.136142  4887 net.cpp:141] Setting up drop6
I0403 07:49:20.136164  4887 net.cpp:148] Top shape: 100 4096 (409600)
I0403 07:49:20.136179  4887 net.cpp:156] Memory required for data: 826610400
I0403 07:49:20.136193  4887 layer_factory.hpp:77] Creating layer fc7
I0403 07:49:20.136212  4887 net.cpp:91] Creating Layer fc7
I0403 07:49:20.136226  4887 net.cpp:425] fc7 <- fc6
I0403 07:49:20.136245  4887 net.cpp:399] fc7 -> fc7
I0403 07:49:20.743154  4887 net.cpp:141] Setting up fc7
I0403 07:49:20.743248  4887 net.cpp:148] Top shape: 100 4096 (409600)
I0403 07:49:20.743264  4887 net.cpp:156] Memory required for data: 828248800
I0403 07:49:20.743286  4887 layer_factory.hpp:77] Creating layer relu7
I0403 07:49:20.743309  4887 net.cpp:91] Creating Layer relu7
I0403 07:49:20.743325  4887 net.cpp:425] relu7 <- fc7
I0403 07:49:20.743343  4887 net.cpp:386] relu7 -> fc7 (in-place)
I0403 07:49:20.743372  4887 net.cpp:141] Setting up relu7
I0403 07:49:20.743389  4887 net.cpp:148] Top shape: 100 4096 (409600)
I0403 07:49:20.743403  4887 net.cpp:156] Memory required for data: 829887200
I0403 07:49:20.743417  4887 layer_factory.hpp:77] Creating layer drop7
I0403 07:49:20.743438  4887 net.cpp:91] Creating Layer drop7
I0403 07:49:20.743453  4887 net.cpp:425] drop7 <- fc7
I0403 07:49:20.743469  4887 net.cpp:386] drop7 -> fc7 (in-place)
I0403 07:49:20.743510  4887 net.cpp:141] Setting up drop7
I0403 07:49:20.743531  4887 net.cpp:148] Top shape: 100 4096 (409600)
I0403 07:49:20.743544  4887 net.cpp:156] Memory required for data: 831525600
I0403 07:49:20.743558  4887 layer_factory.hpp:77] Creating layer fc8_plantvillage
I0403 07:49:20.743578  4887 net.cpp:91] Creating Layer fc8_plantvillage
I0403 07:49:20.743592  4887 net.cpp:425] fc8_plantvillage <- fc7
I0403 07:49:20.743613  4887 net.cpp:399] fc8_plantvillage -> fc8_plantvillage
I0403 07:49:20.749591  4887 net.cpp:141] Setting up fc8_plantvillage
I0403 07:49:20.749624  4887 net.cpp:148] Top shape: 100 38 (3800)
I0403 07:49:20.749670  4887 net.cpp:156] Memory required for data: 831540800
I0403 07:49:20.749688  4887 layer_factory.hpp:77] Creating layer fc8_plantvillage_fc8_plantvillage_0_split
I0403 07:49:20.749707  4887 net.cpp:91] Creating Layer fc8_plantvillage_fc8_plantvillage_0_split
I0403 07:49:20.749723  4887 net.cpp:425] fc8_plantvillage_fc8_plantvillage_0_split <- fc8_plantvillage
I0403 07:49:20.749740  4887 net.cpp:399] fc8_plantvillage_fc8_plantvillage_0_split -> fc8_plantvillage_fc8_plantvillage_0_split_0
I0403 07:49:20.749759  4887 net.cpp:399] fc8_plantvillage_fc8_plantvillage_0_split -> fc8_plantvillage_fc8_plantvillage_0_split_1
I0403 07:49:20.749807  4887 net.cpp:141] Setting up fc8_plantvillage_fc8_plantvillage_0_split
I0403 07:49:20.749830  4887 net.cpp:148] Top shape: 100 38 (3800)
I0403 07:49:20.749845  4887 net.cpp:148] Top shape: 100 38 (3800)
I0403 07:49:20.749858  4887 net.cpp:156] Memory required for data: 831571200
I0403 07:49:20.749872  4887 layer_factory.hpp:77] Creating layer loss
I0403 07:49:20.749889  4887 net.cpp:91] Creating Layer loss
I0403 07:49:20.749904  4887 net.cpp:425] loss <- fc8_plantvillage_fc8_plantvillage_0_split_0
I0403 07:49:20.749919  4887 net.cpp:425] loss <- label_data_1_split_0
I0403 07:49:20.749938  4887 net.cpp:399] loss -> loss
…
