…
I0403 13:26:07.132774 32107 net.cpp:313] The NetState phase (1) differed from the phase (0) specified by a rule in layer data
I0403 13:26:07.133067 32107 net.cpp:49] Initializing net from parameters: 
state {
  phase: TEST
}
layer {
  name: "data"
  type: "Data"
  top: "data"
  top: "label"
  include {
    phase: TEST
  }
  transform_param {
    crop_size: 227
    mean_file: "/home/mohanty/data/final_dataset/lmdb/segmented-60-40/mean.binaryproto"
  }
  data_param {
    source: "/home/mohanty/data/final_dataset/lmdb/segmented-60-40/test_db"
    batch_size: 100
    backend: LMDB
  }
}
layer {
  name: "conv1"
  type: "Convolution"
  bottom: "data"
  top: "conv1"
  param {
    lr_mult: 1
    decay_mult: 1
  }
  param {
    lr_mult: 2
    decay_mult: 0
  }
  convolution_param {
    num_output: 96
    kernel_size: 11
    stride: 4
    weight_filler {
      type: "gaussian"
      std: 0.01
    }
    bias_filler {
      type: "constant"
      value: 0
    }
  }
}
layer {
  name: "relu1"
  type: "ReLU"
  bottom: "conv1"
  top: "conv1"
}
layer {
  name: "norm1"
  type: "LRN"
  bottom: "conv1"
  top: "norm1"
  lrn_param {
    local_size: 5
    alpha: 0.0001
    beta: 0.75
  }
}
layer {
  name: "pool1"
  type: "Pooling"
  bottom: "norm1"
  top: "pool1"
  pooling_param {
    pool: MAX
    kernel_size: 3
    stride: 2
  }
}
layer {
  name: "conv2"
  type: "Convolution"
  bottom: "pool1"
  top: "conv2"
  param {
    lr_mult: 1
    decay_mult: 1
  }
  param {
    lr_mult: 2
    decay_mult: 0
  }
  convolution_param {
    num_output: 256
    pad: 2
    kernel_size: 5
    group: 2
    weight_filler {
      type: "gaussian"
      std: 0.01
    }
    bias_filler {
      type: "constant"
      value: 0.1
    }
  }
}
layer {
  name: "relu2"
  type: "ReLU"
  bottom: "conv2"
  top: "conv2"
}
layer {
  name: "norm2"
  type: "LRN"
  bottom: "conv2"
  top: "norm2"
  lrn_param {
    local_size: 5
    alpha: 0.0001
    beta: 0.75
  }
}
layer {
  name: "pool2"
  type: "Pooling"
  bottom: "norm2"
  top: "pool2"
  pooling_param {
    pool: MAX
    kernel_size: 3
    stride: 2
  }
}
layer {
  name: "conv3"
  type: "Convolution"
  bottom: "pool2"
  top: "conv3"
  param {
    lr_mult: 1
    decay_mult: 1
  }
  param {
    lr_mult: 2
    decay_mult: 0
  }
  convolution_param {
    num_output: 384
    pad: 1
    kernel_size: 3
    weight_filler {
      type: "gaussian"
      std: 0.01
    }
    bias_filler {
      type: "constant"
      value: 0
    }
  }
}
layer {
  name: "relu3"
  type: "ReLU"
  bottom: "conv3"
  top: "conv3"
}
layer {
  name: "conv4"
  type: "Convolution"
  bottom: "conv3"
  top: "conv4"
  param {
    lr_mult: 1
    decay_mult: 1
  }
  param {
    lr_mult: 2
    decay_mult: 0
  }
  convolution_param {
    num_output: 384
    pad: 1
    kernel_size: 3
    group: 2
    weight_filler {
      type: "gaussian"
      std: 0.01
    }
    bias_filler {
      type: "constant"
      value: 0.1
    }
  }
}
layer {
  name: "relu4"
  type: "ReLU"
  bottom: "conv4"
  top: "conv4"
}
layer {
  name: "conv5"
  type: "Convolution"
  bottom: "conv4"
  top: "conv5"
  param {
    lr_mult: 1
    decay_mult: 1
  }
  param {
    lr_mult: 2
    decay_mult: 0
  }
  convolution_param {
    num_output: 256
    pad: 1
    kernel_size: 3
    group: 2
    weight_filler {
      type: "gaussian"
      std: 0.01
    }
    bias_filler {
      type: "constant"
      value: 0.1
    }
  }
}
layer {
  name: "relu5"
  type: "ReLU"
  bottom: "conv5"
  top: "conv5"
}
layer {
  name: "pool5"
  type: "Pooling"
  bottom: "conv5"
  top: "pool5"
  pooling_param {
    pool: MAX
    kernel_size: 3
    stride: 2
  }
}
layer {
  name: "fc6"
  type: "InnerProduct"
  bottom: "pool5"
  top: "fc6"
  param {
    lr_mult: 1
    decay_mult: 1
  }
  param {
    lr_mult: 2
    decay_mult: 0
  }
  inner_product_param {
    num_output: 4096
    weight_filler {
      type: "gaussian"
      std: 0.005
    }
    bias_filler {
      type: "constant"
      value: 0.1
    }
  }
}
layer {
  name: "relu6"
  type: "ReLU"
  bottom: "fc6"
  top: "fc6"
}
layer {
  name: "drop6"
  type: "Dropout"
  bottom: "fc6"
  top: "fc6"
  dropout_param {
    dropout_ratio: 0.5
  }
}
layer {
  name: "fc7"
  type: "InnerProduct"
  bottom: "fc6"
  top: "fc7"
  param {
    lr_mult: 1
    decay_mult: 1
  }
  param {
    lr_mult: 2
    decay_mult: 0
  }
  inner_product_param {
    num_output: 4096
    weight_filler {
      type: "gaussian"
      std: 0.005
    }
    bias_filler {
      type: "constant"
      value: 0.1
    }
  }
}
layer {
  name: "relu7"
  type: "ReLU"
  bottom: "fc7"
  top: "fc7"
}
layer {
  name: "drop7"
  type: "Dropout"
  bottom: "fc7"
  top: "fc7"
  dropout_param {
    dropout_ratio: 0.5
  }
}
layer {
  name: "fc8_plantvillage"
  type: "InnerProduct"
  bottom: "fc7"
  top: "fc8_plantvillage"
  param {
    lr_mult: 1
    decay_mult: 1
  }
  param {
    lr_mult: 2
    decay_mult: 0
  }
  inner_product_param {
    num_output: 38
    weight_filler {
      type: "gaussian"
      std: 0.01
    }
    bias_filler {
      type: "constant"
      value: 0
    }
  }
}
layer {
  name: "prob"
  type: "Softmax"
  bottom: "fc8_plantvillage"
  top: "prob"
  include {
    phase: TEST
  }
}
layer {
  name: "hdf5out"
  type: "HDF5Output"
  bottom: "prob"
  bottom: "label"
  include {
    phase: TEST
  }
  hdf5_output_param {
    file_name: "hdf5_dumps/iter_9762.h5"
  }
}
layer {
  name: "loss"
  type: "SoftmaxWithLoss"
  bottom: "fc8_plantvillage"
  bottom: "label"
  top: "loss"
}
layer {
  name: "accuracy"
  type: "Accuracy"
  bottom: "fc8_plantvillage"
  bottom: "label"
  top: "accuracy"
  include {
    phase: TEST
  }
}
I0403 13:26:07.133651 32107 layer_factory.hpp:77] Creating layer data
I0403 13:26:07.134276 32107 net.cpp:91] Creating Layer data
I0403 13:26:07.134310 32107 net.cpp:399] data -> data
I0403 13:26:07.134358 32107 net.cpp:399] data -> label
I0403 13:26:07.134393 32107 data_transformer.cpp:25] Loading mean file from: /home/mohanty/data/final_dataset/lmdb/segmented-60-40/mean.binaryproto
I0403 13:26:07.137183 32112 db_lmdb.cpp:38] Opened lmdb /home/mohanty/data/final_dataset/lmdb/segmented-60-40/test_db
I0403 13:26:07.148459 32107 data_layer.cpp:41] output data size: 100,3,227,227
I0403 13:26:07.267238 32107 net.cpp:141] Setting up data
I0403 13:26:07.267343 32107 net.cpp:148] Top shape: 100 3 227 227 (15458700)
I0403 13:26:07.267364 32107 net.cpp:148] Top shape: 100 (100)
I0403 13:26:07.267379 32107 net.cpp:156] Memory required for data: 61835200
I0403 13:26:07.267405 32107 layer_factory.hpp:77] Creating layer label_data_1_split
I0403 13:26:07.267429 32107 net.cpp:91] Creating Layer label_data_1_split
I0403 13:26:07.267446 32107 net.cpp:425] label_data_1_split <- label
I0403 13:26:07.267477 32107 net.cpp:399] label_data_1_split -> label_data_1_split_0
I0403 13:26:07.267503 32107 net.cpp:399] label_data_1_split -> label_data_1_split_1
I0403 13:26:07.267524 32107 net.cpp:399] label_data_1_split -> label_data_1_split_2
I0403 13:26:07.267585 32107 net.cpp:141] Setting up label_data_1_split
I0403 13:26:07.267606 32107 net.cpp:148] Top shape: 100 (100)
I0403 13:26:07.267623 32107 net.cpp:148] Top shape: 100 (100)
I0403 13:26:07.267638 32107 net.cpp:148] Top shape: 100 (100)
I0403 13:26:07.267652 32107 net.cpp:156] Memory required for data: 61836400
I0403 13:26:07.267666 32107 layer_factory.hpp:77] Creating layer conv1
I0403 13:26:07.267698 32107 net.cpp:91] Creating Layer conv1
I0403 13:26:07.267714 32107 net.cpp:425] conv1 <- data
I0403 13:26:07.267732 32107 net.cpp:399] conv1 -> conv1
I0403 13:26:07.410380 32107 net.cpp:141] Setting up conv1
I0403 13:26:07.410470 32107 net.cpp:148] Top shape: 100 96 55 55 (29040000)
I0403 13:26:07.410486 32107 net.cpp:156] Memory required for data: 177996400
I0403 13:26:07.410518 32107 layer_factory.hpp:77] Creating layer relu1
I0403 13:26:07.410545 32107 net.cpp:91] Creating Layer relu1
I0403 13:26:07.410564 32107 net.cpp:425] relu1 <- conv1
I0403 13:26:07.410583 32107 net.cpp:386] relu1 -> conv1 (in-place)
I0403 13:26:07.410871 32107 net.cpp:141] Setting up relu1
I0403 13:26:07.410898 32107 net.cpp:148] Top shape: 100 96 55 55 (29040000)
I0403 13:26:07.410946 32107 net.cpp:156] Memory required for data: 294156400
I0403 13:26:07.410962 32107 layer_factory.hpp:77] Creating layer norm1
I0403 13:26:07.410991 32107 net.cpp:91] Creating Layer norm1
I0403 13:26:07.411010 32107 net.cpp:425] norm1 <- conv1
I0403 13:26:07.411027 32107 net.cpp:399] norm1 -> norm1
I0403 13:26:07.411348 32107 net.cpp:141] Setting up norm1
I0403 13:26:07.411376 32107 net.cpp:148] Top shape: 100 96 55 55 (29040000)
I0403 13:26:07.411392 32107 net.cpp:156] Memory required for data: 410316400
I0403 13:26:07.411407 32107 layer_factory.hpp:77] Creating layer pool1
I0403 13:26:07.411430 32107 net.cpp:91] Creating Layer pool1
I0403 13:26:07.411448 32107 net.cpp:425] pool1 <- norm1
I0403 13:26:07.411466 32107 net.cpp:399] pool1 -> pool1
I0403 13:26:07.411531 32107 net.cpp:141] Setting up pool1
I0403 13:26:07.411556 32107 net.cpp:148] Top shape: 100 96 27 27 (6998400)
I0403 13:26:07.411571 32107 net.cpp:156] Memory required for data: 438310000
I0403 13:26:07.411586 32107 layer_factory.hpp:77] Creating layer conv2
I0403 13:26:07.411609 32107 net.cpp:91] Creating Layer conv2
I0403 13:26:07.411626 32107 net.cpp:425] conv2 <- pool1
I0403 13:26:07.411645 32107 net.cpp:399] conv2 -> conv2
I0403 13:26:07.426825 32107 net.cpp:141] Setting up conv2
I0403 13:26:07.426878 32107 net.cpp:148] Top shape: 100 256 27 27 (18662400)
I0403 13:26:07.426895 32107 net.cpp:156] Memory required for data: 512959600
I0403 13:26:07.426918 32107 layer_factory.hpp:77] Creating layer relu2
I0403 13:26:07.426939 32107 net.cpp:91] Creating Layer relu2
I0403 13:26:07.426955 32107 net.cpp:425] relu2 <- conv2
I0403 13:26:07.426972 32107 net.cpp:386] relu2 -> conv2 (in-place)
I0403 13:26:07.427243 32107 net.cpp:141] Setting up relu2
I0403 13:26:07.427271 32107 net.cpp:148] Top shape: 100 256 27 27 (18662400)
I0403 13:26:07.427287 32107 net.cpp:156] Memory required for data: 587609200
I0403 13:26:07.427302 32107 layer_factory.hpp:77] Creating layer norm2
I0403 13:26:07.427325 32107 net.cpp:91] Creating Layer norm2
I0403 13:26:07.427340 32107 net.cpp:425] norm2 <- conv2
I0403 13:26:07.427358 32107 net.cpp:399] norm2 -> norm2
I0403 13:26:07.427568 32107 net.cpp:141] Setting up norm2
I0403 13:26:07.427595 32107 net.cpp:148] Top shape: 100 256 27 27 (18662400)
I0403 13:26:07.427610 32107 net.cpp:156] Memory required for data: 662258800
I0403 13:26:07.427625 32107 layer_factory.hpp:77] Creating layer pool2
I0403 13:26:07.427644 32107 net.cpp:91] Creating Layer pool2
I0403 13:26:07.427659 32107 net.cpp:425] pool2 <- norm2
I0403 13:26:07.427677 32107 net.cpp:399] pool2 -> pool2
I0403 13:26:07.427727 32107 net.cpp:141] Setting up pool2
I0403 13:26:07.427750 32107 net.cpp:148] Top shape: 100 256 13 13 (4326400)
I0403 13:26:07.427765 32107 net.cpp:156] Memory required for data: 679564400
I0403 13:26:07.427779 32107 layer_factory.hpp:77] Creating layer conv3
I0403 13:26:07.427801 32107 net.cpp:91] Creating Layer conv3
I0403 13:26:07.427817 32107 net.cpp:425] conv3 <- pool2
I0403 13:26:07.427836 32107 net.cpp:399] conv3 -> conv3
I0403 13:26:07.466812 32107 net.cpp:141] Setting up conv3
I0403 13:26:07.466867 32107 net.cpp:148] Top shape: 100 384 13 13 (6489600)
I0403 13:26:07.466884 32107 net.cpp:156] Memory required for data: 705522800
I0403 13:26:07.466910 32107 layer_factory.hpp:77] Creating layer relu3
I0403 13:26:07.466933 32107 net.cpp:91] Creating Layer relu3
I0403 13:26:07.466950 32107 net.cpp:425] relu3 <- conv3
I0403 13:26:07.466969 32107 net.cpp:386] relu3 -> conv3 (in-place)
I0403 13:26:07.467255 32107 net.cpp:141] Setting up relu3
I0403 13:26:07.467283 32107 net.cpp:148] Top shape: 100 384 13 13 (6489600)
I0403 13:26:07.467298 32107 net.cpp:156] Memory required for data: 731481200
I0403 13:26:07.467314 32107 layer_factory.hpp:77] Creating layer conv4
I0403 13:26:07.467339 32107 net.cpp:91] Creating Layer conv4
I0403 13:26:07.467356 32107 net.cpp:425] conv4 <- conv3
I0403 13:26:07.467377 32107 net.cpp:399] conv4 -> conv4
I0403 13:26:07.497786 32107 net.cpp:141] Setting up conv4
I0403 13:26:07.497867 32107 net.cpp:148] Top shape: 100 384 13 13 (6489600)
I0403 13:26:07.497915 32107 net.cpp:156] Memory required for data: 757439600
I0403 13:26:07.497951 32107 layer_factory.hpp:77] Creating layer relu4
I0403 13:26:07.497972 32107 net.cpp:91] Creating Layer relu4
I0403 13:26:07.497988 32107 net.cpp:425] relu4 <- conv4
I0403 13:26:07.498008 32107 net.cpp:386] relu4 -> conv4 (in-place)
I0403 13:26:07.498327 32107 net.cpp:141] Setting up relu4
I0403 13:26:07.498355 32107 net.cpp:148] Top shape: 100 384 13 13 (6489600)
I0403 13:26:07.498373 32107 net.cpp:156] Memory required for data: 783398000
I0403 13:26:07.498388 32107 layer_factory.hpp:77] Creating layer conv5
I0403 13:26:07.498412 32107 net.cpp:91] Creating Layer conv5
I0403 13:26:07.498430 32107 net.cpp:425] conv5 <- conv4
I0403 13:26:07.498450 32107 net.cpp:399] conv5 -> conv5
I0403 13:26:07.519368 32107 net.cpp:141] Setting up conv5
I0403 13:26:07.519429 32107 net.cpp:148] Top shape: 100 256 13 13 (4326400)
I0403 13:26:07.519445 32107 net.cpp:156] Memory required for data: 800703600
I0403 13:26:07.519470 32107 layer_factory.hpp:77] Creating layer relu5
I0403 13:26:07.519490 32107 net.cpp:91] Creating Layer relu5
I0403 13:26:07.519507 32107 net.cpp:425] relu5 <- conv5
I0403 13:26:07.519526 32107 net.cpp:386] relu5 -> conv5 (in-place)
I0403 13:26:07.519814 32107 net.cpp:141] Setting up relu5
I0403 13:26:07.519842 32107 net.cpp:148] Top shape: 100 256 13 13 (4326400)
I0403 13:26:07.519858 32107 net.cpp:156] Memory required for data: 818009200
I0403 13:26:07.519873 32107 layer_factory.hpp:77] Creating layer pool5
I0403 13:26:07.519901 32107 net.cpp:91] Creating Layer pool5
I0403 13:26:07.519973 32107 net.cpp:425] pool5 <- conv5
I0403 13:26:07.519997 32107 net.cpp:399] pool5 -> pool5
I0403 13:26:07.520062 32107 net.cpp:141] Setting up pool5
I0403 13:26:07.520086 32107 net.cpp:148] Top shape: 100 256 6 6 (921600)
I0403 13:26:07.520112 32107 net.cpp:156] Memory required for data: 821695600
I0403 13:26:07.520128 32107 layer_factory.hpp:77] Creating layer fc6
I0403 13:26:07.520158 32107 net.cpp:91] Creating Layer fc6
I0403 13:26:07.520175 32107 net.cpp:425] fc6 <- pool5
I0403 13:26:07.520193 32107 net.cpp:399] fc6 -> fc6
I0403 13:26:09.078356 32107 net.cpp:141] Setting up fc6
I0403 13:26:09.078400 32107 net.cpp:148] Top shape: 100 4096 (409600)
I0403 13:26:09.078416 32107 net.cpp:156] Memory required for data: 823334000
I0403 13:26:09.078438 32107 layer_factory.hpp:77] Creating layer relu6
I0403 13:26:09.078459 32107 net.cpp:91] Creating Layer relu6
I0403 13:26:09.078475 32107 net.cpp:425] relu6 <- fc6
I0403 13:26:09.078497 32107 net.cpp:386] relu6 -> fc6 (in-place)
I0403 13:26:09.078712 32107 net.cpp:141] Setting up relu6
I0403 13:26:09.078737 32107 net.cpp:148] Top shape: 100 4096 (409600)
I0403 13:26:09.078750 32107 net.cpp:156] Memory required for data: 824972400
I0403 13:26:09.078765 32107 layer_factory.hpp:77] Creating layer drop6
I0403 13:26:09.078783 32107 net.cpp:91] Creating Layer drop6
I0403 13:26:09.078797 32107 net.cpp:425] drop6 <- fc6
I0403 13:26:09.078815 32107 net.cpp:386] drop6 -> fc6 (in-place)
I0403 13:26:09.078866 32107 net.cpp:141] Setting up drop6
I0403 13:26:09.078891 32107 net.cpp:148] Top shape: 100 4096 (409600)
I0403 13:26:09.078905 32107 net.cpp:156] Memory required for data: 826610800
I0403 13:26:09.078919 32107 layer_factory.hpp:77] Creating layer fc7
I0403 13:26:09.078938 32107 net.cpp:91] Creating Layer fc7
I0403 13:26:09.078953 32107 net.cpp:425] fc7 <- fc6
I0403 13:26:09.078971 32107 net.cpp:399] fc7 -> fc7
I0403 13:26:09.763464 32107 net.cpp:141] Setting up fc7
I0403 13:26:09.763556 32107 net.cpp:148] Top shape: 100 4096 (409600)
I0403 13:26:09.763573 32107 net.cpp:156] Memory required for data: 828249200
I0403 13:26:09.763594 32107 layer_factory.hpp:77] Creating layer relu7
I0403 13:26:09.763615 32107 net.cpp:91] Creating Layer relu7
I0403 13:26:09.763633 32107 net.cpp:425] relu7 <- fc7
I0403 13:26:09.763655 32107 net.cpp:386] relu7 -> fc7 (in-place)
I0403 13:26:09.764097 32107 net.cpp:141] Setting up relu7
I0403 13:26:09.764123 32107 net.cpp:148] Top shape: 100 4096 (409600)
I0403 13:26:09.764171 32107 net.cpp:156] Memory required for data: 829887600
I0403 13:26:09.764188 32107 layer_factory.hpp:77] Creating layer drop7
I0403 13:26:09.764206 32107 net.cpp:91] Creating Layer drop7
I0403 13:26:09.764221 32107 net.cpp:425] drop7 <- fc7
I0403 13:26:09.764246 32107 net.cpp:386] drop7 -> fc7 (in-place)
I0403 13:26:09.764292 32107 net.cpp:141] Setting up drop7
I0403 13:26:09.764317 32107 net.cpp:148] Top shape: 100 4096 (409600)
I0403 13:26:09.764333 32107 net.cpp:156] Memory required for data: 831526000
I0403 13:26:09.764346 32107 layer_factory.hpp:77] Creating layer fc8_plantvillage
I0403 13:26:09.764365 32107 net.cpp:91] Creating Layer fc8_plantvillage
I0403 13:26:09.764380 32107 net.cpp:425] fc8_plantvillage <- fc7
I0403 13:26:09.764400 32107 net.cpp:399] fc8_plantvillage -> fc8_plantvillage
I0403 13:26:09.771134 32107 net.cpp:141] Setting up fc8_plantvillage
I0403 13:26:09.771162 32107 net.cpp:148] Top shape: 100 38 (3800)
I0403 13:26:09.771178 32107 net.cpp:156] Memory required for data: 831541200
I0403 13:26:09.771195 32107 layer_factory.hpp:77] Creating layer fc8_plantvillage_fc8_plantvillage_0_split
I0403 13:26:09.771214 32107 net.cpp:91] Creating Layer fc8_plantvillage_fc8_plantvillage_0_split
I0403 13:26:09.771229 32107 net.cpp:425] fc8_plantvillage_fc8_plantvillage_0_split <- fc8_plantvillage
I0403 13:26:09.771252 32107 net.cpp:399] fc8_plantvillage_fc8_plantvillage_0_split -> fc8_plantvillage_fc8_plantvillage_0_split_0
I0403 13:26:09.771275 32107 net.cpp:399] fc8_plantvillage_fc8_plantvillage_0_split -> fc8_plantvillage_fc8_plantvillage_0_split_1
I0403 13:26:09.771296 32107 net.cpp:399] fc8_plantvillage_fc8_plantvillage_0_split -> fc8_plantvillage_fc8_plantvillage_0_split_2
I0403 13:26:09.771373 32107 net.cpp:141] Setting up fc8_plantvillage_fc8_plantvillage_0_split
I0403 13:26:09.771395 32107 net.cpp:148] Top shape: 100 38 (3800)
I0403 13:26:09.771411 32107 net.cpp:148] Top shape: 100 38 (3800)
I0403 13:26:09.771426 32107 net.cpp:148] Top shape: 100 38 (3800)
I0403 13:26:09.771440 32107 net.cpp:156] Memory required for data: 831586800
I0403 13:26:09.771455 32107 layer_factory.hpp:77] Creating layer prob
I0403 13:26:09.771472 32107 net.cpp:91] Creating Layer prob
I0403 13:26:09.771487 32107 net.cpp:425] prob <- fc8_plantvillage_fc8_plantvillage_0_split_0
I0403 13:26:09.771509 32107 net.cpp:399] prob -> prob
I0403 13:26:09.771736 32107 net.cpp:141] Setting up prob
I0403 13:26:09.771764 32107 net.cpp:148] Top shape: 100 38 (3800)
I0403 13:26:09.771777 32107 net.cpp:156] Memory required for data: 831602000
I0403 13:26:09.771792 32107 layer_factory.hpp:77] Creating layer hdf5out
I0403 13:26:09.771812 32107 net.cpp:91] Creating Layer hdf5out
I0403 13:26:09.771828 32107 net.cpp:425] hdf5out <- prob
I0403 13:26:09.771844 32107 net.cpp:425] hdf5out <- label_data_1_split_0
I0403 13:26:09.774027 32107 net.cpp:141] Setting up hdf5out
…
