…
I0403 13:13:33.843165 31725 net.cpp:313] The NetState phase (1) differed from the phase (0) specified by a rule in layer data
I0403 13:13:33.843463 31725 net.cpp:49] Initializing net from parameters: 
state {
  phase: TEST
}
layer {
  name: "data"
  type: "Data"
  top: "data"
  top: "label"
  include {
    phase: TEST
  }
  transform_param {
    crop_size: 227
    mean_file: "/home/mohanty/data/final_dataset/lmdb/segmented-60-40/mean.binaryproto"
  }
  data_param {
    source: "/home/mohanty/data/final_dataset/lmdb/segmented-60-40/test_db"
    batch_size: 100
    backend: LMDB
  }
}
layer {
  name: "conv1"
  type: "Convolution"
  bottom: "data"
  top: "conv1"
  param {
    lr_mult: 1
    decay_mult: 1
  }
  param {
    lr_mult: 2
    decay_mult: 0
  }
  convolution_param {
    num_output: 96
    kernel_size: 11
    stride: 4
    weight_filler {
      type: "gaussian"
      std: 0.01
    }
    bias_filler {
      type: "constant"
      value: 0
    }
  }
}
layer {
  name: "relu1"
  type: "ReLU"
  bottom: "conv1"
  top: "conv1"
}
layer {
  name: "norm1"
  type: "LRN"
  bottom: "conv1"
  top: "norm1"
  lrn_param {
    local_size: 5
    alpha: 0.0001
    beta: 0.75
  }
}
layer {
  name: "pool1"
  type: "Pooling"
  bottom: "norm1"
  top: "pool1"
  pooling_param {
    pool: MAX
    kernel_size: 3
    stride: 2
  }
}
layer {
  name: "conv2"
  type: "Convolution"
  bottom: "pool1"
  top: "conv2"
  param {
    lr_mult: 1
    decay_mult: 1
  }
  param {
    lr_mult: 2
    decay_mult: 0
  }
  convolution_param {
    num_output: 256
    pad: 2
    kernel_size: 5
    group: 2
    weight_filler {
      type: "gaussian"
      std: 0.01
    }
    bias_filler {
      type: "constant"
      value: 0.1
    }
  }
}
layer {
  name: "relu2"
  type: "ReLU"
  bottom: "conv2"
  top: "conv2"
}
layer {
  name: "norm2"
  type: "LRN"
  bottom: "conv2"
  top: "norm2"
  lrn_param {
    local_size: 5
    alpha: 0.0001
    beta: 0.75
  }
}
layer {
  name: "pool2"
  type: "Pooling"
  bottom: "norm2"
  top: "pool2"
  pooling_param {
    pool: MAX
    kernel_size: 3
    stride: 2
  }
}
layer {
  name: "conv3"
  type: "Convolution"
  bottom: "pool2"
  top: "conv3"
  param {
    lr_mult: 1
    decay_mult: 1
  }
  param {
    lr_mult: 2
    decay_mult: 0
  }
  convolution_param {
    num_output: 384
    pad: 1
    kernel_size: 3
    weight_filler {
      type: "gaussian"
      std: 0.01
    }
    bias_filler {
      type: "constant"
      value: 0
    }
  }
}
layer {
  name: "relu3"
  type: "ReLU"
  bottom: "conv3"
  top: "conv3"
}
layer {
  name: "conv4"
  type: "Convolution"
  bottom: "conv3"
  top: "conv4"
  param {
    lr_mult: 1
    decay_mult: 1
  }
  param {
    lr_mult: 2
    decay_mult: 0
  }
  convolution_param {
    num_output: 384
    pad: 1
    kernel_size: 3
    group: 2
    weight_filler {
      type: "gaussian"
      std: 0.01
    }
    bias_filler {
      type: "constant"
      value: 0.1
    }
  }
}
layer {
  name: "relu4"
  type: "ReLU"
  bottom: "conv4"
  top: "conv4"
}
layer {
  name: "conv5"
  type: "Convolution"
  bottom: "conv4"
  top: "conv5"
  param {
    lr_mult: 1
    decay_mult: 1
  }
  param {
    lr_mult: 2
    decay_mult: 0
  }
  convolution_param {
    num_output: 256
    pad: 1
    kernel_size: 3
    group: 2
    weight_filler {
      type: "gaussian"
      std: 0.01
    }
    bias_filler {
      type: "constant"
      value: 0.1
    }
  }
}
layer {
  name: "relu5"
  type: "ReLU"
  bottom: "conv5"
  top: "conv5"
}
layer {
  name: "pool5"
  type: "Pooling"
  bottom: "conv5"
  top: "pool5"
  pooling_param {
    pool: MAX
    kernel_size: 3
    stride: 2
  }
}
layer {
  name: "fc6"
  type: "InnerProduct"
  bottom: "pool5"
  top: "fc6"
  param {
    lr_mult: 1
    decay_mult: 1
  }
  param {
    lr_mult: 2
    decay_mult: 0
  }
  inner_product_param {
    num_output: 4096
    weight_filler {
      type: "gaussian"
      std: 0.005
    }
    bias_filler {
      type: "constant"
      value: 0.1
    }
  }
}
layer {
  name: "relu6"
  type: "ReLU"
  bottom: "fc6"
  top: "fc6"
}
layer {
  name: "drop6"
  type: "Dropout"
  bottom: "fc6"
  top: "fc6"
  dropout_param {
    dropout_ratio: 0.5
  }
}
layer {
  name: "fc7"
  type: "InnerProduct"
  bottom: "fc6"
  top: "fc7"
  param {
    lr_mult: 1
    decay_mult: 1
  }
  param {
    lr_mult: 2
    decay_mult: 0
  }
  inner_product_param {
    num_output: 4096
    weight_filler {
      type: "gaussian"
      std: 0.005
    }
    bias_filler {
      type: "constant"
      value: 0.1
    }
  }
}
layer {
  name: "relu7"
  type: "ReLU"
  bottom: "fc7"
  top: "fc7"
}
layer {
  name: "drop7"
  type: "Dropout"
  bottom: "fc7"
  top: "fc7"
  dropout_param {
    dropout_ratio: 0.5
  }
}
layer {
  name: "fc8_plantvillage"
  type: "InnerProduct"
  bottom: "fc7"
  top: "fc8_plantvillage"
  param {
    lr_mult: 1
    decay_mult: 1
  }
  param {
    lr_mult: 2
    decay_mult: 0
  }
  inner_product_param {
    num_output: 38
    weight_filler {
      type: "gaussian"
      std: 0.01
    }
    bias_filler {
      type: "constant"
      value: 0
    }
  }
}
layer {
  name: "prob"
  type: "Softmax"
  bottom: "fc8_plantvillage"
  top: "prob"
  include {
    phase: TEST
  }
}
layer {
  name: "hdf5out"
  type: "HDF5Output"
  bottom: "prob"
  bottom: "label"
  include {
    phase: TEST
  }
  hdf5_output_param {
    file_name: "hdf5_dumps/iter_4225.h5"
  }
}
layer {
  name: "loss"
  type: "SoftmaxWithLoss"
  bottom: "fc8_plantvillage"
  bottom: "label"
  top: "loss"
}
layer {
  name: "accuracy"
  type: "Accuracy"
  bottom: "fc8_plantvillage"
  bottom: "label"
  top: "accuracy"
  include {
    phase: TEST
  }
}
I0403 13:13:33.843993 31725 layer_factory.hpp:77] Creating layer data
I0403 13:13:33.844622 31725 net.cpp:91] Creating Layer data
I0403 13:13:33.844656 31725 net.cpp:399] data -> data
I0403 13:13:33.844707 31725 net.cpp:399] data -> label
I0403 13:13:33.844743 31725 data_transformer.cpp:25] Loading mean file from: /home/mohanty/data/final_dataset/lmdb/segmented-60-40/mean.binaryproto
I0403 13:13:33.847492 31728 db_lmdb.cpp:38] Opened lmdb /home/mohanty/data/final_dataset/lmdb/segmented-60-40/test_db
I0403 13:13:33.859046 31725 data_layer.cpp:41] output data size: 100,3,227,227
I0403 13:13:33.979766 31725 net.cpp:141] Setting up data
I0403 13:13:33.979871 31725 net.cpp:148] Top shape: 100 3 227 227 (15458700)
I0403 13:13:33.979893 31725 net.cpp:148] Top shape: 100 (100)
I0403 13:13:33.979908 31725 net.cpp:156] Memory required for data: 61835200
I0403 13:13:33.979938 31725 layer_factory.hpp:77] Creating layer label_data_1_split
I0403 13:13:33.979964 31725 net.cpp:91] Creating Layer label_data_1_split
I0403 13:13:33.979981 31725 net.cpp:425] label_data_1_split <- label
I0403 13:13:33.980012 31725 net.cpp:399] label_data_1_split -> label_data_1_split_0
I0403 13:13:33.980039 31725 net.cpp:399] label_data_1_split -> label_data_1_split_1
I0403 13:13:33.980059 31725 net.cpp:399] label_data_1_split -> label_data_1_split_2
I0403 13:13:33.980123 31725 net.cpp:141] Setting up label_data_1_split
I0403 13:13:33.980145 31725 net.cpp:148] Top shape: 100 (100)
I0403 13:13:33.980161 31725 net.cpp:148] Top shape: 100 (100)
I0403 13:13:33.980178 31725 net.cpp:148] Top shape: 100 (100)
I0403 13:13:33.980198 31725 net.cpp:156] Memory required for data: 61836400
I0403 13:13:33.980216 31725 layer_factory.hpp:77] Creating layer conv1
I0403 13:13:33.980247 31725 net.cpp:91] Creating Layer conv1
I0403 13:13:33.980264 31725 net.cpp:425] conv1 <- data
I0403 13:13:33.980288 31725 net.cpp:399] conv1 -> conv1
I0403 13:13:34.118247 31725 net.cpp:141] Setting up conv1
I0403 13:13:34.118340 31725 net.cpp:148] Top shape: 100 96 55 55 (29040000)
I0403 13:13:34.118360 31725 net.cpp:156] Memory required for data: 177996400
I0403 13:13:34.118391 31725 layer_factory.hpp:77] Creating layer relu1
I0403 13:13:34.118419 31725 net.cpp:91] Creating Layer relu1
I0403 13:13:34.118440 31725 net.cpp:425] relu1 <- conv1
I0403 13:13:34.118463 31725 net.cpp:386] relu1 -> conv1 (in-place)
I0403 13:13:34.118722 31725 net.cpp:141] Setting up relu1
I0403 13:13:34.118749 31725 net.cpp:148] Top shape: 100 96 55 55 (29040000)
I0403 13:13:34.118798 31725 net.cpp:156] Memory required for data: 294156400
I0403 13:13:34.118813 31725 layer_factory.hpp:77] Creating layer norm1
I0403 13:13:34.118841 31725 net.cpp:91] Creating Layer norm1
I0403 13:13:34.118860 31725 net.cpp:425] norm1 <- conv1
I0403 13:13:34.118877 31725 net.cpp:399] norm1 -> norm1
I0403 13:13:34.119190 31725 net.cpp:141] Setting up norm1
I0403 13:13:34.119218 31725 net.cpp:148] Top shape: 100 96 55 55 (29040000)
I0403 13:13:34.119235 31725 net.cpp:156] Memory required for data: 410316400
I0403 13:13:34.119251 31725 layer_factory.hpp:77] Creating layer pool1
I0403 13:13:34.119277 31725 net.cpp:91] Creating Layer pool1
I0403 13:13:34.119295 31725 net.cpp:425] pool1 <- norm1
I0403 13:13:34.119315 31725 net.cpp:399] pool1 -> pool1
I0403 13:13:34.119382 31725 net.cpp:141] Setting up pool1
I0403 13:13:34.119406 31725 net.cpp:148] Top shape: 100 96 27 27 (6998400)
I0403 13:13:34.119421 31725 net.cpp:156] Memory required for data: 438310000
I0403 13:13:34.119439 31725 layer_factory.hpp:77] Creating layer conv2
I0403 13:13:34.119463 31725 net.cpp:91] Creating Layer conv2
I0403 13:13:34.119480 31725 net.cpp:425] conv2 <- pool1
I0403 13:13:34.119498 31725 net.cpp:399] conv2 -> conv2
I0403 13:13:34.134886 31725 net.cpp:141] Setting up conv2
I0403 13:13:34.134943 31725 net.cpp:148] Top shape: 100 256 27 27 (18662400)
I0403 13:13:34.134963 31725 net.cpp:156] Memory required for data: 512959600
I0403 13:13:34.134986 31725 layer_factory.hpp:77] Creating layer relu2
I0403 13:13:34.135010 31725 net.cpp:91] Creating Layer relu2
I0403 13:13:34.135026 31725 net.cpp:425] relu2 <- conv2
I0403 13:13:34.135046 31725 net.cpp:386] relu2 -> conv2 (in-place)
I0403 13:13:34.135346 31725 net.cpp:141] Setting up relu2
I0403 13:13:34.135375 31725 net.cpp:148] Top shape: 100 256 27 27 (18662400)
I0403 13:13:34.135391 31725 net.cpp:156] Memory required for data: 587609200
I0403 13:13:34.135408 31725 layer_factory.hpp:77] Creating layer norm2
I0403 13:13:34.135432 31725 net.cpp:91] Creating Layer norm2
I0403 13:13:34.135452 31725 net.cpp:425] norm2 <- conv2
I0403 13:13:34.135470 31725 net.cpp:399] norm2 -> norm2
I0403 13:13:34.135679 31725 net.cpp:141] Setting up norm2
I0403 13:13:34.135710 31725 net.cpp:148] Top shape: 100 256 27 27 (18662400)
I0403 13:13:34.135726 31725 net.cpp:156] Memory required for data: 662258800
I0403 13:13:34.135742 31725 layer_factory.hpp:77] Creating layer pool2
I0403 13:13:34.135761 31725 net.cpp:91] Creating Layer pool2
I0403 13:13:34.135778 31725 net.cpp:425] pool2 <- norm2
I0403 13:13:34.135798 31725 net.cpp:399] pool2 -> pool2
I0403 13:13:34.135854 31725 net.cpp:141] Setting up pool2
I0403 13:13:34.135880 31725 net.cpp:148] Top shape: 100 256 13 13 (4326400)
I0403 13:13:34.135897 31725 net.cpp:156] Memory required for data: 679564400
I0403 13:13:34.135912 31725 layer_factory.hpp:77] Creating layer conv3
I0403 13:13:34.135936 31725 net.cpp:91] Creating Layer conv3
I0403 13:13:34.135954 31725 net.cpp:425] conv3 <- pool2
I0403 13:13:34.135975 31725 net.cpp:399] conv3 -> conv3
I0403 13:13:34.174500 31725 net.cpp:141] Setting up conv3
I0403 13:13:34.174585 31725 net.cpp:148] Top shape: 100 384 13 13 (6489600)
I0403 13:13:34.174602 31725 net.cpp:156] Memory required for data: 705522800
I0403 13:13:34.174628 31725 layer_factory.hpp:77] Creating layer relu3
I0403 13:13:34.174651 31725 net.cpp:91] Creating Layer relu3
I0403 13:13:34.174669 31725 net.cpp:425] relu3 <- conv3
I0403 13:13:34.174691 31725 net.cpp:386] relu3 -> conv3 (in-place)
I0403 13:13:34.174978 31725 net.cpp:141] Setting up relu3
I0403 13:13:34.175006 31725 net.cpp:148] Top shape: 100 384 13 13 (6489600)
I0403 13:13:34.175021 31725 net.cpp:156] Memory required for data: 731481200
I0403 13:13:34.175037 31725 layer_factory.hpp:77] Creating layer conv4
I0403 13:13:34.175063 31725 net.cpp:91] Creating Layer conv4
I0403 13:13:34.175081 31725 net.cpp:425] conv4 <- conv3
I0403 13:13:34.175104 31725 net.cpp:399] conv4 -> conv4
I0403 13:13:34.204869 31725 net.cpp:141] Setting up conv4
I0403 13:13:34.204910 31725 net.cpp:148] Top shape: 100 384 13 13 (6489600)
I0403 13:13:34.204957 31725 net.cpp:156] Memory required for data: 757439600
I0403 13:13:34.204978 31725 layer_factory.hpp:77] Creating layer relu4
I0403 13:13:34.205011 31725 net.cpp:91] Creating Layer relu4
I0403 13:13:34.205029 31725 net.cpp:425] relu4 <- conv4
I0403 13:13:34.205049 31725 net.cpp:386] relu4 -> conv4 (in-place)
I0403 13:13:34.205344 31725 net.cpp:141] Setting up relu4
I0403 13:13:34.205375 31725 net.cpp:148] Top shape: 100 384 13 13 (6489600)
I0403 13:13:34.205392 31725 net.cpp:156] Memory required for data: 783398000
I0403 13:13:34.205409 31725 layer_factory.hpp:77] Creating layer conv5
I0403 13:13:34.205435 31725 net.cpp:91] Creating Layer conv5
I0403 13:13:34.205452 31725 net.cpp:425] conv5 <- conv4
I0403 13:13:34.205471 31725 net.cpp:399] conv5 -> conv5
I0403 13:13:34.225808 31725 net.cpp:141] Setting up conv5
I0403 13:13:34.225875 31725 net.cpp:148] Top shape: 100 256 13 13 (4326400)
I0403 13:13:34.225893 31725 net.cpp:156] Memory required for data: 800703600
I0403 13:13:34.225919 31725 layer_factory.hpp:77] Creating layer relu5
I0403 13:13:34.225941 31725 net.cpp:91] Creating Layer relu5
I0403 13:13:34.225958 31725 net.cpp:425] relu5 <- conv5
I0403 13:13:34.225980 31725 net.cpp:386] relu5 -> conv5 (in-place)
I0403 13:13:34.226263 31725 net.cpp:141] Setting up relu5
I0403 13:13:34.226294 31725 net.cpp:148] Top shape: 100 256 13 13 (4326400)
I0403 13:13:34.226310 31725 net.cpp:156] Memory required for data: 818009200
I0403 13:13:34.226325 31725 layer_factory.hpp:77] Creating layer pool5
I0403 13:13:34.226351 31725 net.cpp:91] Creating Layer pool5
I0403 13:13:34.226367 31725 net.cpp:425] pool5 <- conv5
I0403 13:13:34.226387 31725 net.cpp:399] pool5 -> pool5
I0403 13:13:34.226454 31725 net.cpp:141] Setting up pool5
I0403 13:13:34.226477 31725 net.cpp:148] Top shape: 100 256 6 6 (921600)
I0403 13:13:34.226493 31725 net.cpp:156] Memory required for data: 821695600
I0403 13:13:34.226508 31725 layer_factory.hpp:77] Creating layer fc6
I0403 13:13:34.226537 31725 net.cpp:91] Creating Layer fc6
I0403 13:13:34.226559 31725 net.cpp:425] fc6 <- pool5
I0403 13:13:34.226580 31725 net.cpp:399] fc6 -> fc6
I0403 13:13:35.802388 31725 net.cpp:141] Setting up fc6
I0403 13:13:35.802481 31725 net.cpp:148] Top shape: 100 4096 (409600)
I0403 13:13:35.802507 31725 net.cpp:156] Memory required for data: 823334000
I0403 13:13:35.802527 31725 layer_factory.hpp:77] Creating layer relu6
I0403 13:13:35.802549 31725 net.cpp:91] Creating Layer relu6
I0403 13:13:35.802567 31725 net.cpp:425] relu6 <- fc6
I0403 13:13:35.802587 31725 net.cpp:386] relu6 -> fc6 (in-place)
I0403 13:13:35.802814 31725 net.cpp:141] Setting up relu6
I0403 13:13:35.802841 31725 net.cpp:148] Top shape: 100 4096 (409600)
I0403 13:13:35.802857 31725 net.cpp:156] Memory required for data: 824972400
I0403 13:13:35.802872 31725 layer_factory.hpp:77] Creating layer drop6
I0403 13:13:35.802891 31725 net.cpp:91] Creating Layer drop6
I0403 13:13:35.802907 31725 net.cpp:425] drop6 <- fc6
I0403 13:13:35.802927 31725 net.cpp:386] drop6 -> fc6 (in-place)
I0403 13:13:35.802978 31725 net.cpp:141] Setting up drop6
I0403 13:13:35.803000 31725 net.cpp:148] Top shape: 100 4096 (409600)
I0403 13:13:35.803016 31725 net.cpp:156] Memory required for data: 826610800
I0403 13:13:35.803030 31725 layer_factory.hpp:77] Creating layer fc7
I0403 13:13:35.803056 31725 net.cpp:91] Creating Layer fc7
I0403 13:13:35.803072 31725 net.cpp:425] fc7 <- fc6
I0403 13:13:35.803093 31725 net.cpp:399] fc7 -> fc7
I0403 13:13:36.491874 31725 net.cpp:141] Setting up fc7
I0403 13:13:36.491964 31725 net.cpp:148] Top shape: 100 4096 (409600)
I0403 13:13:36.491981 31725 net.cpp:156] Memory required for data: 828249200
I0403 13:13:36.492003 31725 layer_factory.hpp:77] Creating layer relu7
I0403 13:13:36.492025 31725 net.cpp:91] Creating Layer relu7
I0403 13:13:36.492043 31725 net.cpp:425] relu7 <- fc7
I0403 13:13:36.492065 31725 net.cpp:386] relu7 -> fc7 (in-place)
I0403 13:13:36.492504 31725 net.cpp:141] Setting up relu7
I0403 13:13:36.492539 31725 net.cpp:148] Top shape: 100 4096 (409600)
I0403 13:13:36.492597 31725 net.cpp:156] Memory required for data: 829887600
I0403 13:13:36.492614 31725 layer_factory.hpp:77] Creating layer drop7
I0403 13:13:36.492632 31725 net.cpp:91] Creating Layer drop7
I0403 13:13:36.492647 31725 net.cpp:425] drop7 <- fc7
I0403 13:13:36.492666 31725 net.cpp:386] drop7 -> fc7 (in-place)
I0403 13:13:36.492709 31725 net.cpp:141] Setting up drop7
I0403 13:13:36.492732 31725 net.cpp:148] Top shape: 100 4096 (409600)
I0403 13:13:36.492749 31725 net.cpp:156] Memory required for data: 831526000
I0403 13:13:36.492764 31725 layer_factory.hpp:77] Creating layer fc8_plantvillage
I0403 13:13:36.492784 31725 net.cpp:91] Creating Layer fc8_plantvillage
I0403 13:13:36.492800 31725 net.cpp:425] fc8_plantvillage <- fc7
I0403 13:13:36.492820 31725 net.cpp:399] fc8_plantvillage -> fc8_plantvillage
I0403 13:13:36.499521 31725 net.cpp:141] Setting up fc8_plantvillage
I0403 13:13:36.499548 31725 net.cpp:148] Top shape: 100 38 (3800)
I0403 13:13:36.499564 31725 net.cpp:156] Memory required for data: 831541200
I0403 13:13:36.499583 31725 layer_factory.hpp:77] Creating layer fc8_plantvillage_fc8_plantvillage_0_split
I0403 13:13:36.499601 31725 net.cpp:91] Creating Layer fc8_plantvillage_fc8_plantvillage_0_split
I0403 13:13:36.499616 31725 net.cpp:425] fc8_plantvillage_fc8_plantvillage_0_split <- fc8_plantvillage
I0403 13:13:36.499635 31725 net.cpp:399] fc8_plantvillage_fc8_plantvillage_0_split -> fc8_plantvillage_fc8_plantvillage_0_split_0
I0403 13:13:36.499655 31725 net.cpp:399] fc8_plantvillage_fc8_plantvillage_0_split -> fc8_plantvillage_fc8_plantvillage_0_split_1
I0403 13:13:36.499675 31725 net.cpp:399] fc8_plantvillage_fc8_plantvillage_0_split -> fc8_plantvillage_fc8_plantvillage_0_split_2
I0403 13:13:36.499752 31725 net.cpp:141] Setting up fc8_plantvillage_fc8_plantvillage_0_split
I0403 13:13:36.499779 31725 net.cpp:148] Top shape: 100 38 (3800)
I0403 13:13:36.499796 31725 net.cpp:148] Top shape: 100 38 (3800)
I0403 13:13:36.499812 31725 net.cpp:148] Top shape: 100 38 (3800)
I0403 13:13:36.499826 31725 net.cpp:156] Memory required for data: 831586800
I0403 13:13:36.499841 31725 layer_factory.hpp:77] Creating layer prob
I0403 13:13:36.499860 31725 net.cpp:91] Creating Layer prob
I0403 13:13:36.499874 31725 net.cpp:425] prob <- fc8_plantvillage_fc8_plantvillage_0_split_0
I0403 13:13:36.499891 31725 net.cpp:399] prob -> prob
I0403 13:13:36.500118 31725 net.cpp:141] Setting up prob
I0403 13:13:36.500145 31725 net.cpp:148] Top shape: 100 38 (3800)
I0403 13:13:36.500160 31725 net.cpp:156] Memory required for data: 831602000
I0403 13:13:36.500175 31725 layer_factory.hpp:77] Creating layer hdf5out
I0403 13:13:36.500195 31725 net.cpp:91] Creating Layer hdf5out
I0403 13:13:36.500211 31725 net.cpp:425] hdf5out <- prob
I0403 13:13:36.500226 31725 net.cpp:425] hdf5out <- label_data_1_split_0
I0403 13:13:36.502478 31725 net.cpp:141] Setting up hdf5out
…
