…
I0403 13:11:29.053844 31663 net.cpp:313] The NetState phase (1) differed from the phase (0) specified by a rule in layer data
I0403 13:11:29.054142 31663 net.cpp:49] Initializing net from parameters: 
state {
  phase: TEST
}
layer {
  name: "data"
  type: "Data"
  top: "data"
  top: "label"
  include {
    phase: TEST
  }
  transform_param {
    crop_size: 227
    mean_file: "/home/mohanty/data/final_dataset/lmdb/segmented-60-40/mean.binaryproto"
  }
  data_param {
    source: "/home/mohanty/data/final_dataset/lmdb/segmented-60-40/test_db"
    batch_size: 100
    backend: LMDB
  }
}
layer {
  name: "conv1"
  type: "Convolution"
  bottom: "data"
  top: "conv1"
  param {
    lr_mult: 1
    decay_mult: 1
  }
  param {
    lr_mult: 2
    decay_mult: 0
  }
  convolution_param {
    num_output: 96
    kernel_size: 11
    stride: 4
    weight_filler {
      type: "gaussian"
      std: 0.01
    }
    bias_filler {
      type: "constant"
      value: 0
    }
  }
}
layer {
  name: "relu1"
  type: "ReLU"
  bottom: "conv1"
  top: "conv1"
}
layer {
  name: "norm1"
  type: "LRN"
  bottom: "conv1"
  top: "norm1"
  lrn_param {
    local_size: 5
    alpha: 0.0001
    beta: 0.75
  }
}
layer {
  name: "pool1"
  type: "Pooling"
  bottom: "norm1"
  top: "pool1"
  pooling_param {
    pool: MAX
    kernel_size: 3
    stride: 2
  }
}
layer {
  name: "conv2"
  type: "Convolution"
  bottom: "pool1"
  top: "conv2"
  param {
    lr_mult: 1
    decay_mult: 1
  }
  param {
    lr_mult: 2
    decay_mult: 0
  }
  convolution_param {
    num_output: 256
    pad: 2
    kernel_size: 5
    group: 2
    weight_filler {
      type: "gaussian"
      std: 0.01
    }
    bias_filler {
      type: "constant"
      value: 0.1
    }
  }
}
layer {
  name: "relu2"
  type: "ReLU"
  bottom: "conv2"
  top: "conv2"
}
layer {
  name: "norm2"
  type: "LRN"
  bottom: "conv2"
  top: "norm2"
  lrn_param {
    local_size: 5
    alpha: 0.0001
    beta: 0.75
  }
}
layer {
  name: "pool2"
  type: "Pooling"
  bottom: "norm2"
  top: "pool2"
  pooling_param {
    pool: MAX
    kernel_size: 3
    stride: 2
  }
}
layer {
  name: "conv3"
  type: "Convolution"
  bottom: "pool2"
  top: "conv3"
  param {
    lr_mult: 1
    decay_mult: 1
  }
  param {
    lr_mult: 2
    decay_mult: 0
  }
  convolution_param {
    num_output: 384
    pad: 1
    kernel_size: 3
    weight_filler {
      type: "gaussian"
      std: 0.01
    }
    bias_filler {
      type: "constant"
      value: 0
    }
  }
}
layer {
  name: "relu3"
  type: "ReLU"
  bottom: "conv3"
  top: "conv3"
}
layer {
  name: "conv4"
  type: "Convolution"
  bottom: "conv3"
  top: "conv4"
  param {
    lr_mult: 1
    decay_mult: 1
  }
  param {
    lr_mult: 2
    decay_mult: 0
  }
  convolution_param {
    num_output: 384
    pad: 1
    kernel_size: 3
    group: 2
    weight_filler {
      type: "gaussian"
      std: 0.01
    }
    bias_filler {
      type: "constant"
      value: 0.1
    }
  }
}
layer {
  name: "relu4"
  type: "ReLU"
  bottom: "conv4"
  top: "conv4"
}
layer {
  name: "conv5"
  type: "Convolution"
  bottom: "conv4"
  top: "conv5"
  param {
    lr_mult: 1
    decay_mult: 1
  }
  param {
    lr_mult: 2
    decay_mult: 0
  }
  convolution_param {
    num_output: 256
    pad: 1
    kernel_size: 3
    group: 2
    weight_filler {
      type: "gaussian"
      std: 0.01
    }
    bias_filler {
      type: "constant"
      value: 0.1
    }
  }
}
layer {
  name: "relu5"
  type: "ReLU"
  bottom: "conv5"
  top: "conv5"
}
layer {
  name: "pool5"
  type: "Pooling"
  bottom: "conv5"
  top: "pool5"
  pooling_param {
    pool: MAX
    kernel_size: 3
    stride: 2
  }
}
layer {
  name: "fc6"
  type: "InnerProduct"
  bottom: "pool5"
  top: "fc6"
  param {
    lr_mult: 1
    decay_mult: 1
  }
  param {
    lr_mult: 2
    decay_mult: 0
  }
  inner_product_param {
    num_output: 4096
    weight_filler {
      type: "gaussian"
      std: 0.005
    }
    bias_filler {
      type: "constant"
      value: 0.1
    }
  }
}
layer {
  name: "relu6"
  type: "ReLU"
  bottom: "fc6"
  top: "fc6"
}
layer {
  name: "drop6"
  type: "Dropout"
  bottom: "fc6"
  top: "fc6"
  dropout_param {
    dropout_ratio: 0.5
  }
}
layer {
  name: "fc7"
  type: "InnerProduct"
  bottom: "fc6"
  top: "fc7"
  param {
    lr_mult: 1
    decay_mult: 1
  }
  param {
    lr_mult: 2
    decay_mult: 0
  }
  inner_product_param {
    num_output: 4096
    weight_filler {
      type: "gaussian"
      std: 0.005
    }
    bias_filler {
      type: "constant"
      value: 0.1
    }
  }
}
layer {
  name: "relu7"
  type: "ReLU"
  bottom: "fc7"
  top: "fc7"
}
layer {
  name: "drop7"
  type: "Dropout"
  bottom: "fc7"
  top: "fc7"
  dropout_param {
    dropout_ratio: 0.5
  }
}
layer {
  name: "fc8_plantvillage"
  type: "InnerProduct"
  bottom: "fc7"
  top: "fc8_plantvillage"
  param {
    lr_mult: 1
    decay_mult: 1
  }
  param {
    lr_mult: 2
    decay_mult: 0
  }
  inner_product_param {
    num_output: 38
    weight_filler {
      type: "gaussian"
      std: 0.01
    }
    bias_filler {
      type: "constant"
      value: 0
    }
  }
}
layer {
  name: "prob"
  type: "Softmax"
  bottom: "fc8_plantvillage"
  top: "prob"
  include {
    phase: TEST
  }
}
layer {
  name: "hdf5out"
  type: "HDF5Output"
  bottom: "prob"
  bottom: "label"
  include {
    phase: TEST
  }
  hdf5_output_param {
    file_name: "hdf5_dumps/iter_3250.h5"
  }
}
layer {
  name: "loss"
  type: "SoftmaxWithLoss"
  bottom: "fc8_plantvillage"
  bottom: "label"
  top: "loss"
}
layer {
  name: "accuracy"
  type: "Accuracy"
  bottom: "fc8_plantvillage"
  bottom: "label"
  top: "accuracy"
  include {
    phase: TEST
  }
}
I0403 13:11:29.054816 31663 layer_factory.hpp:77] Creating layer data
I0403 13:11:29.055496 31663 net.cpp:91] Creating Layer data
I0403 13:11:29.055527 31663 net.cpp:399] data -> data
I0403 13:11:29.055582 31663 net.cpp:399] data -> label
I0403 13:11:29.055618 31663 data_transformer.cpp:25] Loading mean file from: /home/mohanty/data/final_dataset/lmdb/segmented-60-40/mean.binaryproto
I0403 13:11:29.058478 31666 db_lmdb.cpp:38] Opened lmdb /home/mohanty/data/final_dataset/lmdb/segmented-60-40/test_db
I0403 13:11:29.070065 31663 data_layer.cpp:41] output data size: 100,3,227,227
I0403 13:11:29.195402 31663 net.cpp:141] Setting up data
I0403 13:11:29.195508 31663 net.cpp:148] Top shape: 100 3 227 227 (15458700)
I0403 13:11:29.195530 31663 net.cpp:148] Top shape: 100 (100)
I0403 13:11:29.195546 31663 net.cpp:156] Memory required for data: 61835200
I0403 13:11:29.195575 31663 layer_factory.hpp:77] Creating layer label_data_1_split
I0403 13:11:29.195601 31663 net.cpp:91] Creating Layer label_data_1_split
I0403 13:11:29.195621 31663 net.cpp:425] label_data_1_split <- label
I0403 13:11:29.195653 31663 net.cpp:399] label_data_1_split -> label_data_1_split_0
I0403 13:11:29.195682 31663 net.cpp:399] label_data_1_split -> label_data_1_split_1
I0403 13:11:29.195703 31663 net.cpp:399] label_data_1_split -> label_data_1_split_2
I0403 13:11:29.195770 31663 net.cpp:141] Setting up label_data_1_split
I0403 13:11:29.195793 31663 net.cpp:148] Top shape: 100 (100)
I0403 13:11:29.195811 31663 net.cpp:148] Top shape: 100 (100)
I0403 13:11:29.195828 31663 net.cpp:148] Top shape: 100 (100)
I0403 13:11:29.195843 31663 net.cpp:156] Memory required for data: 61836400
I0403 13:11:29.195859 31663 layer_factory.hpp:77] Creating layer conv1
I0403 13:11:29.195893 31663 net.cpp:91] Creating Layer conv1
I0403 13:11:29.195911 31663 net.cpp:425] conv1 <- data
I0403 13:11:29.195931 31663 net.cpp:399] conv1 -> conv1
I0403 13:11:29.341645 31663 net.cpp:141] Setting up conv1
I0403 13:11:29.341735 31663 net.cpp:148] Top shape: 100 96 55 55 (29040000)
I0403 13:11:29.341753 31663 net.cpp:156] Memory required for data: 177996400
I0403 13:11:29.341786 31663 layer_factory.hpp:77] Creating layer relu1
I0403 13:11:29.341814 31663 net.cpp:91] Creating Layer relu1
I0403 13:11:29.341832 31663 net.cpp:425] relu1 <- conv1
I0403 13:11:29.341852 31663 net.cpp:386] relu1 -> conv1 (in-place)
I0403 13:11:29.342121 31663 net.cpp:141] Setting up relu1
I0403 13:11:29.342150 31663 net.cpp:148] Top shape: 100 96 55 55 (29040000)
I0403 13:11:29.342198 31663 net.cpp:156] Memory required for data: 294156400
I0403 13:11:29.342216 31663 layer_factory.hpp:77] Creating layer norm1
I0403 13:11:29.342243 31663 net.cpp:91] Creating Layer norm1
I0403 13:11:29.342263 31663 net.cpp:425] norm1 <- conv1
I0403 13:11:29.342300 31663 net.cpp:399] norm1 -> norm1
I0403 13:11:29.342624 31663 net.cpp:141] Setting up norm1
I0403 13:11:29.342653 31663 net.cpp:148] Top shape: 100 96 55 55 (29040000)
I0403 13:11:29.342670 31663 net.cpp:156] Memory required for data: 410316400
I0403 13:11:29.342708 31663 layer_factory.hpp:77] Creating layer pool1
I0403 13:11:29.342737 31663 net.cpp:91] Creating Layer pool1
I0403 13:11:29.342756 31663 net.cpp:425] pool1 <- norm1
I0403 13:11:29.342774 31663 net.cpp:399] pool1 -> pool1
I0403 13:11:29.342850 31663 net.cpp:141] Setting up pool1
I0403 13:11:29.342875 31663 net.cpp:148] Top shape: 100 96 27 27 (6998400)
I0403 13:11:29.342891 31663 net.cpp:156] Memory required for data: 438310000
I0403 13:11:29.342907 31663 layer_factory.hpp:77] Creating layer conv2
I0403 13:11:29.342932 31663 net.cpp:91] Creating Layer conv2
I0403 13:11:29.342949 31663 net.cpp:425] conv2 <- pool1
I0403 13:11:29.342968 31663 net.cpp:399] conv2 -> conv2
I0403 13:11:29.358657 31663 net.cpp:141] Setting up conv2
I0403 13:11:29.358713 31663 net.cpp:148] Top shape: 100 256 27 27 (18662400)
I0403 13:11:29.358731 31663 net.cpp:156] Memory required for data: 512959600
I0403 13:11:29.358754 31663 layer_factory.hpp:77] Creating layer relu2
I0403 13:11:29.358778 31663 net.cpp:91] Creating Layer relu2
I0403 13:11:29.358795 31663 net.cpp:425] relu2 <- conv2
I0403 13:11:29.358815 31663 net.cpp:386] relu2 -> conv2 (in-place)
I0403 13:11:29.359107 31663 net.cpp:141] Setting up relu2
I0403 13:11:29.359136 31663 net.cpp:148] Top shape: 100 256 27 27 (18662400)
I0403 13:11:29.359151 31663 net.cpp:156] Memory required for data: 587609200
I0403 13:11:29.359168 31663 layer_factory.hpp:77] Creating layer norm2
I0403 13:11:29.359192 31663 net.cpp:91] Creating Layer norm2
I0403 13:11:29.359210 31663 net.cpp:425] norm2 <- conv2
I0403 13:11:29.359231 31663 net.cpp:399] norm2 -> norm2
I0403 13:11:29.359447 31663 net.cpp:141] Setting up norm2
I0403 13:11:29.359474 31663 net.cpp:148] Top shape: 100 256 27 27 (18662400)
I0403 13:11:29.359490 31663 net.cpp:156] Memory required for data: 662258800
I0403 13:11:29.359506 31663 layer_factory.hpp:77] Creating layer pool2
I0403 13:11:29.359526 31663 net.cpp:91] Creating Layer pool2
I0403 13:11:29.359542 31663 net.cpp:425] pool2 <- norm2
I0403 13:11:29.359563 31663 net.cpp:399] pool2 -> pool2
I0403 13:11:29.359622 31663 net.cpp:141] Setting up pool2
I0403 13:11:29.359647 31663 net.cpp:148] Top shape: 100 256 13 13 (4326400)
I0403 13:11:29.359663 31663 net.cpp:156] Memory required for data: 679564400
I0403 13:11:29.359678 31663 layer_factory.hpp:77] Creating layer conv3
I0403 13:11:29.359730 31663 net.cpp:91] Creating Layer conv3
I0403 13:11:29.359752 31663 net.cpp:425] conv3 <- pool2
I0403 13:11:29.359776 31663 net.cpp:399] conv3 -> conv3
I0403 13:11:29.400056 31663 net.cpp:141] Setting up conv3
I0403 13:11:29.400141 31663 net.cpp:148] Top shape: 100 384 13 13 (6489600)
I0403 13:11:29.400158 31663 net.cpp:156] Memory required for data: 705522800
I0403 13:11:29.400188 31663 layer_factory.hpp:77] Creating layer relu3
I0403 13:11:29.400213 31663 net.cpp:91] Creating Layer relu3
I0403 13:11:29.400252 31663 net.cpp:425] relu3 <- conv3
I0403 13:11:29.400280 31663 net.cpp:386] relu3 -> conv3 (in-place)
I0403 13:11:29.400634 31663 net.cpp:141] Setting up relu3
I0403 13:11:29.400662 31663 net.cpp:148] Top shape: 100 384 13 13 (6489600)
I0403 13:11:29.400678 31663 net.cpp:156] Memory required for data: 731481200
I0403 13:11:29.400694 31663 layer_factory.hpp:77] Creating layer conv4
I0403 13:11:29.400722 31663 net.cpp:91] Creating Layer conv4
I0403 13:11:29.400741 31663 net.cpp:425] conv4 <- conv3
I0403 13:11:29.400763 31663 net.cpp:399] conv4 -> conv4
I0403 13:11:29.431977 31663 net.cpp:141] Setting up conv4
I0403 13:11:29.432044 31663 net.cpp:148] Top shape: 100 384 13 13 (6489600)
I0403 13:11:29.432091 31663 net.cpp:156] Memory required for data: 757439600
I0403 13:11:29.432114 31663 layer_factory.hpp:77] Creating layer relu4
I0403 13:11:29.432139 31663 net.cpp:91] Creating Layer relu4
I0403 13:11:29.432157 31663 net.cpp:425] relu4 <- conv4
I0403 13:11:29.432176 31663 net.cpp:386] relu4 -> conv4 (in-place)
I0403 13:11:29.432514 31663 net.cpp:141] Setting up relu4
I0403 13:11:29.432543 31663 net.cpp:148] Top shape: 100 384 13 13 (6489600)
I0403 13:11:29.432559 31663 net.cpp:156] Memory required for data: 783398000
I0403 13:11:29.432574 31663 layer_factory.hpp:77] Creating layer conv5
I0403 13:11:29.432601 31663 net.cpp:91] Creating Layer conv5
I0403 13:11:29.432618 31663 net.cpp:425] conv5 <- conv4
I0403 13:11:29.432641 31663 net.cpp:399] conv5 -> conv5
I0403 13:11:29.454150 31663 net.cpp:141] Setting up conv5
I0403 13:11:29.454210 31663 net.cpp:148] Top shape: 100 256 13 13 (4326400)
I0403 13:11:29.454226 31663 net.cpp:156] Memory required for data: 800703600
I0403 13:11:29.454252 31663 layer_factory.hpp:77] Creating layer relu5
I0403 13:11:29.454287 31663 net.cpp:91] Creating Layer relu5
I0403 13:11:29.454308 31663 net.cpp:425] relu5 <- conv5
I0403 13:11:29.454326 31663 net.cpp:386] relu5 -> conv5 (in-place)
I0403 13:11:29.454618 31663 net.cpp:141] Setting up relu5
I0403 13:11:29.454646 31663 net.cpp:148] Top shape: 100 256 13 13 (4326400)
I0403 13:11:29.454663 31663 net.cpp:156] Memory required for data: 818009200
I0403 13:11:29.454733 31663 layer_factory.hpp:77] Creating layer pool5
I0403 13:11:29.454766 31663 net.cpp:91] Creating Layer pool5
I0403 13:11:29.454784 31663 net.cpp:425] pool5 <- conv5
I0403 13:11:29.454804 31663 net.cpp:399] pool5 -> pool5
I0403 13:11:29.454870 31663 net.cpp:141] Setting up pool5
I0403 13:11:29.454895 31663 net.cpp:148] Top shape: 100 256 6 6 (921600)
I0403 13:11:29.454911 31663 net.cpp:156] Memory required for data: 821695600
I0403 13:11:29.454927 31663 layer_factory.hpp:77] Creating layer fc6
I0403 13:11:29.454957 31663 net.cpp:91] Creating Layer fc6
I0403 13:11:29.454977 31663 net.cpp:425] fc6 <- pool5
I0403 13:11:29.454996 31663 net.cpp:399] fc6 -> fc6
I0403 13:11:31.015931 31663 net.cpp:141] Setting up fc6
I0403 13:11:31.016023 31663 net.cpp:148] Top shape: 100 4096 (409600)
I0403 13:11:31.016039 31663 net.cpp:156] Memory required for data: 823334000
I0403 13:11:31.016062 31663 layer_factory.hpp:77] Creating layer relu6
I0403 13:11:31.016084 31663 net.cpp:91] Creating Layer relu6
I0403 13:11:31.016103 31663 net.cpp:425] relu6 <- fc6
I0403 13:11:31.016124 31663 net.cpp:386] relu6 -> fc6 (in-place)
I0403 13:11:31.016361 31663 net.cpp:141] Setting up relu6
I0403 13:11:31.016387 31663 net.cpp:148] Top shape: 100 4096 (409600)
I0403 13:11:31.016402 31663 net.cpp:156] Memory required for data: 824972400
I0403 13:11:31.016417 31663 layer_factory.hpp:77] Creating layer drop6
I0403 13:11:31.016435 31663 net.cpp:91] Creating Layer drop6
I0403 13:11:31.016451 31663 net.cpp:425] drop6 <- fc6
I0403 13:11:31.016470 31663 net.cpp:386] drop6 -> fc6 (in-place)
I0403 13:11:31.016525 31663 net.cpp:141] Setting up drop6
I0403 13:11:31.016548 31663 net.cpp:148] Top shape: 100 4096 (409600)
I0403 13:11:31.016562 31663 net.cpp:156] Memory required for data: 826610800
I0403 13:11:31.016577 31663 layer_factory.hpp:77] Creating layer fc7
I0403 13:11:31.016597 31663 net.cpp:91] Creating Layer fc7
I0403 13:11:31.016613 31663 net.cpp:425] fc7 <- fc6
I0403 13:11:31.016633 31663 net.cpp:399] fc7 -> fc7
I0403 13:11:31.702915 31663 net.cpp:141] Setting up fc7
I0403 13:11:31.703006 31663 net.cpp:148] Top shape: 100 4096 (409600)
I0403 13:11:31.703022 31663 net.cpp:156] Memory required for data: 828249200
I0403 13:11:31.703043 31663 layer_factory.hpp:77] Creating layer relu7
I0403 13:11:31.703068 31663 net.cpp:91] Creating Layer relu7
I0403 13:11:31.703085 31663 net.cpp:425] relu7 <- fc7
I0403 13:11:31.703104 31663 net.cpp:386] relu7 -> fc7 (in-place)
I0403 13:11:31.703572 31663 net.cpp:141] Setting up relu7
I0403 13:11:31.703598 31663 net.cpp:148] Top shape: 100 4096 (409600)
I0403 13:11:31.703634 31663 net.cpp:156] Memory required for data: 829887600
I0403 13:11:31.703650 31663 layer_factory.hpp:77] Creating layer drop7
I0403 13:11:31.703671 31663 net.cpp:91] Creating Layer drop7
I0403 13:11:31.703688 31663 net.cpp:425] drop7 <- fc7
I0403 13:11:31.703706 31663 net.cpp:386] drop7 -> fc7 (in-place)
I0403 13:11:31.703749 31663 net.cpp:141] Setting up drop7
I0403 13:11:31.703776 31663 net.cpp:148] Top shape: 100 4096 (409600)
I0403 13:11:31.703791 31663 net.cpp:156] Memory required for data: 831526000
I0403 13:11:31.703807 31663 layer_factory.hpp:77] Creating layer fc8_plantvillage
I0403 13:11:31.703826 31663 net.cpp:91] Creating Layer fc8_plantvillage
I0403 13:11:31.703841 31663 net.cpp:425] fc8_plantvillage <- fc7
I0403 13:11:31.703861 31663 net.cpp:399] fc8_plantvillage -> fc8_plantvillage
I0403 13:11:31.710603 31663 net.cpp:141] Setting up fc8_plantvillage
I0403 13:11:31.710633 31663 net.cpp:148] Top shape: 100 38 (3800)
I0403 13:11:31.710647 31663 net.cpp:156] Memory required for data: 831541200
I0403 13:11:31.710665 31663 layer_factory.hpp:77] Creating layer fc8_plantvillage_fc8_plantvillage_0_split
I0403 13:11:31.710686 31663 net.cpp:91] Creating Layer fc8_plantvillage_fc8_plantvillage_0_split
I0403 13:11:31.710702 31663 net.cpp:425] fc8_plantvillage_fc8_plantvillage_0_split <- fc8_plantvillage
I0403 13:11:31.710721 31663 net.cpp:399] fc8_plantvillage_fc8_plantvillage_0_split -> fc8_plantvillage_fc8_plantvillage_0_split_0
I0403 13:11:31.710739 31663 net.cpp:399] fc8_plantvillage_fc8_plantvillage_0_split -> fc8_plantvillage_fc8_plantvillage_0_split_1
I0403 13:11:31.710759 31663 net.cpp:399] fc8_plantvillage_fc8_plantvillage_0_split -> fc8_plantvillage_fc8_plantvillage_0_split_2
I0403 13:11:31.710839 31663 net.cpp:141] Setting up fc8_plantvillage_fc8_plantvillage_0_split
I0403 13:11:31.710861 31663 net.cpp:148] Top shape: 100 38 (3800)
I0403 13:11:31.710877 31663 net.cpp:148] Top shape: 100 38 (3800)
I0403 13:11:31.710892 31663 net.cpp:148] Top shape: 100 38 (3800)
I0403 13:11:31.710906 31663 net.cpp:156] Memory required for data: 831586800
I0403 13:11:31.710921 31663 layer_factory.hpp:77] Creating layer prob
I0403 13:11:31.710939 31663 net.cpp:91] Creating Layer prob
I0403 13:11:31.710954 31663 net.cpp:425] prob <- fc8_plantvillage_fc8_plantvillage_0_split_0
I0403 13:11:31.710973 31663 net.cpp:399] prob -> prob
I0403 13:11:31.711199 31663 net.cpp:141] Setting up prob
I0403 13:11:31.711225 31663 net.cpp:148] Top shape: 100 38 (3800)
I0403 13:11:31.711239 31663 net.cpp:156] Memory required for data: 831602000
I0403 13:11:31.711254 31663 layer_factory.hpp:77] Creating layer hdf5out
I0403 13:11:31.711280 31663 net.cpp:91] Creating Layer hdf5out
I0403 13:11:31.711298 31663 net.cpp:425] hdf5out <- prob
I0403 13:11:31.711314 31663 net.cpp:425] hdf5out <- label_data_1_split_0
I0403 13:11:31.713479 31663 net.cpp:141] Setting up hdf5out
…
