…
I0403 13:12:10.580464 31685 net.cpp:313] The NetState phase (1) differed from the phase (0) specified by a rule in layer data
I0403 13:12:10.580785 31685 net.cpp:49] Initializing net from parameters: 
state {
  phase: TEST
}
layer {
  name: "data"
  type: "Data"
  top: "data"
  top: "label"
  include {
    phase: TEST
  }
  transform_param {
    crop_size: 227
    mean_file: "/home/mohanty/data/final_dataset/lmdb/segmented-60-40/mean.binaryproto"
  }
  data_param {
    source: "/home/mohanty/data/final_dataset/lmdb/segmented-60-40/test_db"
    batch_size: 100
    backend: LMDB
  }
}
layer {
  name: "conv1"
  type: "Convolution"
  bottom: "data"
  top: "conv1"
  param {
    lr_mult: 1
    decay_mult: 1
  }
  param {
    lr_mult: 2
    decay_mult: 0
  }
  convolution_param {
    num_output: 96
    kernel_size: 11
    stride: 4
    weight_filler {
      type: "gaussian"
      std: 0.01
    }
    bias_filler {
      type: "constant"
      value: 0
    }
  }
}
layer {
  name: "relu1"
  type: "ReLU"
  bottom: "conv1"
  top: "conv1"
}
layer {
  name: "norm1"
  type: "LRN"
  bottom: "conv1"
  top: "norm1"
  lrn_param {
    local_size: 5
    alpha: 0.0001
    beta: 0.75
  }
}
layer {
  name: "pool1"
  type: "Pooling"
  bottom: "norm1"
  top: "pool1"
  pooling_param {
    pool: MAX
    kernel_size: 3
    stride: 2
  }
}
layer {
  name: "conv2"
  type: "Convolution"
  bottom: "pool1"
  top: "conv2"
  param {
    lr_mult: 1
    decay_mult: 1
  }
  param {
    lr_mult: 2
    decay_mult: 0
  }
  convolution_param {
    num_output: 256
    pad: 2
    kernel_size: 5
    group: 2
    weight_filler {
      type: "gaussian"
      std: 0.01
    }
    bias_filler {
      type: "constant"
      value: 0.1
    }
  }
}
layer {
  name: "relu2"
  type: "ReLU"
  bottom: "conv2"
  top: "conv2"
}
layer {
  name: "norm2"
  type: "LRN"
  bottom: "conv2"
  top: "norm2"
  lrn_param {
    local_size: 5
    alpha: 0.0001
    beta: 0.75
  }
}
layer {
  name: "pool2"
  type: "Pooling"
  bottom: "norm2"
  top: "pool2"
  pooling_param {
    pool: MAX
    kernel_size: 3
    stride: 2
  }
}
layer {
  name: "conv3"
  type: "Convolution"
  bottom: "pool2"
  top: "conv3"
  param {
    lr_mult: 1
    decay_mult: 1
  }
  param {
    lr_mult: 2
    decay_mult: 0
  }
  convolution_param {
    num_output: 384
    pad: 1
    kernel_size: 3
    weight_filler {
      type: "gaussian"
      std: 0.01
    }
    bias_filler {
      type: "constant"
      value: 0
    }
  }
}
layer {
  name: "relu3"
  type: "ReLU"
  bottom: "conv3"
  top: "conv3"
}
layer {
  name: "conv4"
  type: "Convolution"
  bottom: "conv3"
  top: "conv4"
  param {
    lr_mult: 1
    decay_mult: 1
  }
  param {
    lr_mult: 2
    decay_mult: 0
  }
  convolution_param {
    num_output: 384
    pad: 1
    kernel_size: 3
    group: 2
    weight_filler {
      type: "gaussian"
      std: 0.01
    }
    bias_filler {
      type: "constant"
      value: 0.1
    }
  }
}
layer {
  name: "relu4"
  type: "ReLU"
  bottom: "conv4"
  top: "conv4"
}
layer {
  name: "conv5"
  type: "Convolution"
  bottom: "conv4"
  top: "conv5"
  param {
    lr_mult: 1
    decay_mult: 1
  }
  param {
    lr_mult: 2
    decay_mult: 0
  }
  convolution_param {
    num_output: 256
    pad: 1
    kernel_size: 3
    group: 2
    weight_filler {
      type: "gaussian"
      std: 0.01
    }
    bias_filler {
      type: "constant"
      value: 0.1
    }
  }
}
layer {
  name: "relu5"
  type: "ReLU"
  bottom: "conv5"
  top: "conv5"
}
layer {
  name: "pool5"
  type: "Pooling"
  bottom: "conv5"
  top: "pool5"
  pooling_param {
    pool: MAX
    kernel_size: 3
    stride: 2
  }
}
layer {
  name: "fc6"
  type: "InnerProduct"
  bottom: "pool5"
  top: "fc6"
  param {
    lr_mult: 1
    decay_mult: 1
  }
  param {
    lr_mult: 2
    decay_mult: 0
  }
  inner_product_param {
    num_output: 4096
    weight_filler {
      type: "gaussian"
      std: 0.005
    }
    bias_filler {
      type: "constant"
      value: 0.1
    }
  }
}
layer {
  name: "relu6"
  type: "ReLU"
  bottom: "fc6"
  top: "fc6"
}
layer {
  name: "drop6"
  type: "Dropout"
  bottom: "fc6"
  top: "fc6"
  dropout_param {
    dropout_ratio: 0.5
  }
}
layer {
  name: "fc7"
  type: "InnerProduct"
  bottom: "fc6"
  top: "fc7"
  param {
    lr_mult: 1
    decay_mult: 1
  }
  param {
    lr_mult: 2
    decay_mult: 0
  }
  inner_product_param {
    num_output: 4096
    weight_filler {
      type: "gaussian"
      std: 0.005
    }
    bias_filler {
      type: "constant"
      value: 0.1
    }
  }
}
layer {
  name: "relu7"
  type: "ReLU"
  bottom: "fc7"
  top: "fc7"
}
layer {
  name: "drop7"
  type: "Dropout"
  bottom: "fc7"
  top: "fc7"
  dropout_param {
    dropout_ratio: 0.5
  }
}
layer {
  name: "fc8_plantvillage"
  type: "InnerProduct"
  bottom: "fc7"
  top: "fc8_plantvillage"
  param {
    lr_mult: 1
    decay_mult: 1
  }
  param {
    lr_mult: 2
    decay_mult: 0
  }
  inner_product_param {
    num_output: 38
    weight_filler {
      type: "gaussian"
      std: 0.01
    }
    bias_filler {
      type: "constant"
      value: 0
    }
  }
}
layer {
  name: "prob"
  type: "Softmax"
  bottom: "fc8_plantvillage"
  top: "prob"
  include {
    phase: TEST
  }
}
layer {
  name: "hdf5out"
  type: "HDF5Output"
  bottom: "prob"
  bottom: "label"
  include {
    phase: TEST
  }
  hdf5_output_param {
    file_name: "hdf5_dumps/iter_3575.h5"
  }
}
layer {
  name: "loss"
  type: "SoftmaxWithLoss"
  bottom: "fc8_plantvillage"
  bottom: "label"
  top: "loss"
}
layer {
  name: "accuracy"
  type: "Accuracy"
  bottom: "fc8_plantvillage"
  bottom: "label"
  top: "accuracy"
  include {
    phase: TEST
  }
}
I0403 13:12:10.581383 31685 layer_factory.hpp:77] Creating layer data
I0403 13:12:10.582048 31685 net.cpp:91] Creating Layer data
I0403 13:12:10.582083 31685 net.cpp:399] data -> data
I0403 13:12:10.582134 31685 net.cpp:399] data -> label
I0403 13:12:10.582171 31685 data_transformer.cpp:25] Loading mean file from: /home/mohanty/data/final_dataset/lmdb/segmented-60-40/mean.binaryproto
I0403 13:12:10.584899 31688 db_lmdb.cpp:38] Opened lmdb /home/mohanty/data/final_dataset/lmdb/segmented-60-40/test_db
I0403 13:12:10.596858 31685 data_layer.cpp:41] output data size: 100,3,227,227
I0403 13:12:10.723762 31685 net.cpp:141] Setting up data
I0403 13:12:10.723860 31685 net.cpp:148] Top shape: 100 3 227 227 (15458700)
I0403 13:12:10.723886 31685 net.cpp:148] Top shape: 100 (100)
I0403 13:12:10.723903 31685 net.cpp:156] Memory required for data: 61835200
I0403 13:12:10.723933 31685 layer_factory.hpp:77] Creating layer label_data_1_split
I0403 13:12:10.723960 31685 net.cpp:91] Creating Layer label_data_1_split
I0403 13:12:10.723979 31685 net.cpp:425] label_data_1_split <- label
I0403 13:12:10.724011 31685 net.cpp:399] label_data_1_split -> label_data_1_split_0
I0403 13:12:10.724042 31685 net.cpp:399] label_data_1_split -> label_data_1_split_1
I0403 13:12:10.724064 31685 net.cpp:399] label_data_1_split -> label_data_1_split_2
I0403 13:12:10.724133 31685 net.cpp:141] Setting up label_data_1_split
I0403 13:12:10.724158 31685 net.cpp:148] Top shape: 100 (100)
I0403 13:12:10.724175 31685 net.cpp:148] Top shape: 100 (100)
I0403 13:12:10.724194 31685 net.cpp:148] Top shape: 100 (100)
I0403 13:12:10.724208 31685 net.cpp:156] Memory required for data: 61836400
I0403 13:12:10.724225 31685 layer_factory.hpp:77] Creating layer conv1
I0403 13:12:10.724262 31685 net.cpp:91] Creating Layer conv1
I0403 13:12:10.724284 31685 net.cpp:425] conv1 <- data
I0403 13:12:10.724305 31685 net.cpp:399] conv1 -> conv1
I0403 13:12:10.869415 31685 net.cpp:141] Setting up conv1
I0403 13:12:10.869506 31685 net.cpp:148] Top shape: 100 96 55 55 (29040000)
I0403 13:12:10.869524 31685 net.cpp:156] Memory required for data: 177996400
I0403 13:12:10.869557 31685 layer_factory.hpp:77] Creating layer relu1
I0403 13:12:10.869586 31685 net.cpp:91] Creating Layer relu1
I0403 13:12:10.869606 31685 net.cpp:425] relu1 <- conv1
I0403 13:12:10.869624 31685 net.cpp:386] relu1 -> conv1 (in-place)
I0403 13:12:10.869881 31685 net.cpp:141] Setting up relu1
I0403 13:12:10.869910 31685 net.cpp:148] Top shape: 100 96 55 55 (29040000)
I0403 13:12:10.869957 31685 net.cpp:156] Memory required for data: 294156400
I0403 13:12:10.869976 31685 layer_factory.hpp:77] Creating layer norm1
I0403 13:12:10.870003 31685 net.cpp:91] Creating Layer norm1
I0403 13:12:10.870023 31685 net.cpp:425] norm1 <- conv1
I0403 13:12:10.870041 31685 net.cpp:399] norm1 -> norm1
I0403 13:12:10.870355 31685 net.cpp:141] Setting up norm1
I0403 13:12:10.870404 31685 net.cpp:148] Top shape: 100 96 55 55 (29040000)
I0403 13:12:10.870424 31685 net.cpp:156] Memory required for data: 410316400
I0403 13:12:10.870440 31685 layer_factory.hpp:77] Creating layer pool1
I0403 13:12:10.870463 31685 net.cpp:91] Creating Layer pool1
I0403 13:12:10.870482 31685 net.cpp:425] pool1 <- norm1
I0403 13:12:10.870501 31685 net.cpp:399] pool1 -> pool1
I0403 13:12:10.870569 31685 net.cpp:141] Setting up pool1
I0403 13:12:10.870594 31685 net.cpp:148] Top shape: 100 96 27 27 (6998400)
I0403 13:12:10.870610 31685 net.cpp:156] Memory required for data: 438310000
I0403 13:12:10.870625 31685 layer_factory.hpp:77] Creating layer conv2
I0403 13:12:10.870651 31685 net.cpp:91] Creating Layer conv2
I0403 13:12:10.870668 31685 net.cpp:425] conv2 <- pool1
I0403 13:12:10.870687 31685 net.cpp:399] conv2 -> conv2
I0403 13:12:10.886289 31685 net.cpp:141] Setting up conv2
I0403 13:12:10.886327 31685 net.cpp:148] Top shape: 100 256 27 27 (18662400)
I0403 13:12:10.886345 31685 net.cpp:156] Memory required for data: 512959600
I0403 13:12:10.886370 31685 layer_factory.hpp:77] Creating layer relu2
I0403 13:12:10.886392 31685 net.cpp:91] Creating Layer relu2
I0403 13:12:10.886410 31685 net.cpp:425] relu2 <- conv2
I0403 13:12:10.886430 31685 net.cpp:386] relu2 -> conv2 (in-place)
I0403 13:12:10.886706 31685 net.cpp:141] Setting up relu2
I0403 13:12:10.886735 31685 net.cpp:148] Top shape: 100 256 27 27 (18662400)
I0403 13:12:10.886751 31685 net.cpp:156] Memory required for data: 587609200
I0403 13:12:10.886768 31685 layer_factory.hpp:77] Creating layer norm2
I0403 13:12:10.886790 31685 net.cpp:91] Creating Layer norm2
I0403 13:12:10.886808 31685 net.cpp:425] norm2 <- conv2
I0403 13:12:10.886827 31685 net.cpp:399] norm2 -> norm2
I0403 13:12:10.887033 31685 net.cpp:141] Setting up norm2
I0403 13:12:10.887060 31685 net.cpp:148] Top shape: 100 256 27 27 (18662400)
I0403 13:12:10.887078 31685 net.cpp:156] Memory required for data: 662258800
I0403 13:12:10.887094 31685 layer_factory.hpp:77] Creating layer pool2
I0403 13:12:10.887115 31685 net.cpp:91] Creating Layer pool2
I0403 13:12:10.887131 31685 net.cpp:425] pool2 <- norm2
I0403 13:12:10.887151 31685 net.cpp:399] pool2 -> pool2
I0403 13:12:10.887243 31685 net.cpp:141] Setting up pool2
I0403 13:12:10.887270 31685 net.cpp:148] Top shape: 100 256 13 13 (4326400)
I0403 13:12:10.887286 31685 net.cpp:156] Memory required for data: 679564400
I0403 13:12:10.887302 31685 layer_factory.hpp:77] Creating layer conv3
I0403 13:12:10.887327 31685 net.cpp:91] Creating Layer conv3
I0403 13:12:10.887346 31685 net.cpp:425] conv3 <- pool2
I0403 13:12:10.887367 31685 net.cpp:399] conv3 -> conv3
I0403 13:12:10.928413 31685 net.cpp:141] Setting up conv3
I0403 13:12:10.928514 31685 net.cpp:148] Top shape: 100 384 13 13 (6489600)
I0403 13:12:10.928532 31685 net.cpp:156] Memory required for data: 705522800
I0403 13:12:10.928561 31685 layer_factory.hpp:77] Creating layer relu3
I0403 13:12:10.928586 31685 net.cpp:91] Creating Layer relu3
I0403 13:12:10.928604 31685 net.cpp:425] relu3 <- conv3
I0403 13:12:10.928627 31685 net.cpp:386] relu3 -> conv3 (in-place)
I0403 13:12:10.928922 31685 net.cpp:141] Setting up relu3
I0403 13:12:10.928951 31685 net.cpp:148] Top shape: 100 384 13 13 (6489600)
I0403 13:12:10.928968 31685 net.cpp:156] Memory required for data: 731481200
I0403 13:12:10.928985 31685 layer_factory.hpp:77] Creating layer conv4
I0403 13:12:10.929013 31685 net.cpp:91] Creating Layer conv4
I0403 13:12:10.929033 31685 net.cpp:425] conv4 <- conv3
I0403 13:12:10.929056 31685 net.cpp:399] conv4 -> conv4
I0403 13:12:10.961717 31685 net.cpp:141] Setting up conv4
I0403 13:12:10.961808 31685 net.cpp:148] Top shape: 100 384 13 13 (6489600)
I0403 13:12:10.961858 31685 net.cpp:156] Memory required for data: 757439600
I0403 13:12:10.961884 31685 layer_factory.hpp:77] Creating layer relu4
I0403 13:12:10.961908 31685 net.cpp:91] Creating Layer relu4
I0403 13:12:10.961927 31685 net.cpp:425] relu4 <- conv4
I0403 13:12:10.961947 31685 net.cpp:386] relu4 -> conv4 (in-place)
I0403 13:12:10.962246 31685 net.cpp:141] Setting up relu4
I0403 13:12:10.962278 31685 net.cpp:148] Top shape: 100 384 13 13 (6489600)
I0403 13:12:10.962296 31685 net.cpp:156] Memory required for data: 783398000
I0403 13:12:10.962314 31685 layer_factory.hpp:77] Creating layer conv5
I0403 13:12:10.962342 31685 net.cpp:91] Creating Layer conv5
I0403 13:12:10.962363 31685 net.cpp:425] conv5 <- conv4
I0403 13:12:10.962384 31685 net.cpp:399] conv5 -> conv5
I0403 13:12:10.984474 31685 net.cpp:141] Setting up conv5
I0403 13:12:10.984540 31685 net.cpp:148] Top shape: 100 256 13 13 (4326400)
I0403 13:12:10.984560 31685 net.cpp:156] Memory required for data: 800703600
I0403 13:12:10.984586 31685 layer_factory.hpp:77] Creating layer relu5
I0403 13:12:10.984608 31685 net.cpp:91] Creating Layer relu5
I0403 13:12:10.984627 31685 net.cpp:425] relu5 <- conv5
I0403 13:12:10.984649 31685 net.cpp:386] relu5 -> conv5 (in-place)
I0403 13:12:10.984941 31685 net.cpp:141] Setting up relu5
I0403 13:12:10.984968 31685 net.cpp:148] Top shape: 100 256 13 13 (4326400)
I0403 13:12:10.984985 31685 net.cpp:156] Memory required for data: 818009200
I0403 13:12:10.985000 31685 layer_factory.hpp:77] Creating layer pool5
I0403 13:12:10.985028 31685 net.cpp:91] Creating Layer pool5
I0403 13:12:10.985045 31685 net.cpp:425] pool5 <- conv5
I0403 13:12:10.985066 31685 net.cpp:399] pool5 -> pool5
I0403 13:12:10.985132 31685 net.cpp:141] Setting up pool5
I0403 13:12:10.985157 31685 net.cpp:148] Top shape: 100 256 6 6 (921600)
I0403 13:12:10.985173 31685 net.cpp:156] Memory required for data: 821695600
I0403 13:12:10.985188 31685 layer_factory.hpp:77] Creating layer fc6
I0403 13:12:10.985218 31685 net.cpp:91] Creating Layer fc6
I0403 13:12:10.985236 31685 net.cpp:425] fc6 <- pool5
I0403 13:12:10.985265 31685 net.cpp:399] fc6 -> fc6
I0403 13:12:12.574285 31685 net.cpp:141] Setting up fc6
I0403 13:12:12.574347 31685 net.cpp:148] Top shape: 100 4096 (409600)
I0403 13:12:12.574362 31685 net.cpp:156] Memory required for data: 823334000
I0403 13:12:12.574383 31685 layer_factory.hpp:77] Creating layer relu6
I0403 13:12:12.574406 31685 net.cpp:91] Creating Layer relu6
I0403 13:12:12.574424 31685 net.cpp:425] relu6 <- fc6
I0403 13:12:12.574443 31685 net.cpp:386] relu6 -> fc6 (in-place)
I0403 13:12:12.574676 31685 net.cpp:141] Setting up relu6
I0403 13:12:12.574700 31685 net.cpp:148] Top shape: 100 4096 (409600)
I0403 13:12:12.574715 31685 net.cpp:156] Memory required for data: 824972400
I0403 13:12:12.574730 31685 layer_factory.hpp:77] Creating layer drop6
I0403 13:12:12.574749 31685 net.cpp:91] Creating Layer drop6
I0403 13:12:12.574765 31685 net.cpp:425] drop6 <- fc6
I0403 13:12:12.574784 31685 net.cpp:386] drop6 -> fc6 (in-place)
I0403 13:12:12.574836 31685 net.cpp:141] Setting up drop6
I0403 13:12:12.574858 31685 net.cpp:148] Top shape: 100 4096 (409600)
I0403 13:12:12.574873 31685 net.cpp:156] Memory required for data: 826610800
I0403 13:12:12.574888 31685 layer_factory.hpp:77] Creating layer fc7
I0403 13:12:12.574913 31685 net.cpp:91] Creating Layer fc7
I0403 13:12:12.574930 31685 net.cpp:425] fc7 <- fc6
I0403 13:12:12.574950 31685 net.cpp:399] fc7 -> fc7
I0403 13:12:13.267791 31685 net.cpp:141] Setting up fc7
I0403 13:12:13.267832 31685 net.cpp:148] Top shape: 100 4096 (409600)
I0403 13:12:13.267848 31685 net.cpp:156] Memory required for data: 828249200
I0403 13:12:13.267869 31685 layer_factory.hpp:77] Creating layer relu7
I0403 13:12:13.267891 31685 net.cpp:91] Creating Layer relu7
I0403 13:12:13.267909 31685 net.cpp:425] relu7 <- fc7
I0403 13:12:13.267930 31685 net.cpp:386] relu7 -> fc7 (in-place)
I0403 13:12:13.268353 31685 net.cpp:141] Setting up relu7
I0403 13:12:13.268380 31685 net.cpp:148] Top shape: 100 4096 (409600)
I0403 13:12:13.268438 31685 net.cpp:156] Memory required for data: 829887600
I0403 13:12:13.268455 31685 layer_factory.hpp:77] Creating layer drop7
I0403 13:12:13.268473 31685 net.cpp:91] Creating Layer drop7
I0403 13:12:13.268489 31685 net.cpp:425] drop7 <- fc7
I0403 13:12:13.268508 31685 net.cpp:386] drop7 -> fc7 (in-place)
I0403 13:12:13.268550 31685 net.cpp:141] Setting up drop7
I0403 13:12:13.268574 31685 net.cpp:148] Top shape: 100 4096 (409600)
I0403 13:12:13.268589 31685 net.cpp:156] Memory required for data: 831526000
I0403 13:12:13.268604 31685 layer_factory.hpp:77] Creating layer fc8_plantvillage
I0403 13:12:13.268623 31685 net.cpp:91] Creating Layer fc8_plantvillage
I0403 13:12:13.268637 31685 net.cpp:425] fc8_plantvillage <- fc7
I0403 13:12:13.268658 31685 net.cpp:399] fc8_plantvillage -> fc8_plantvillage
I0403 13:12:13.275329 31685 net.cpp:141] Setting up fc8_plantvillage
I0403 13:12:13.275359 31685 net.cpp:148] Top shape: 100 38 (3800)
I0403 13:12:13.275374 31685 net.cpp:156] Memory required for data: 831541200
I0403 13:12:13.275393 31685 layer_factory.hpp:77] Creating layer fc8_plantvillage_fc8_plantvillage_0_split
I0403 13:12:13.275411 31685 net.cpp:91] Creating Layer fc8_plantvillage_fc8_plantvillage_0_split
I0403 13:12:13.275427 31685 net.cpp:425] fc8_plantvillage_fc8_plantvillage_0_split <- fc8_plantvillage
I0403 13:12:13.275447 31685 net.cpp:399] fc8_plantvillage_fc8_plantvillage_0_split -> fc8_plantvillage_fc8_plantvillage_0_split_0
I0403 13:12:13.275468 31685 net.cpp:399] fc8_plantvillage_fc8_plantvillage_0_split -> fc8_plantvillage_fc8_plantvillage_0_split_1
I0403 13:12:13.275490 31685 net.cpp:399] fc8_plantvillage_fc8_plantvillage_0_split -> fc8_plantvillage_fc8_plantvillage_0_split_2
I0403 13:12:13.275575 31685 net.cpp:141] Setting up fc8_plantvillage_fc8_plantvillage_0_split
I0403 13:12:13.275601 31685 net.cpp:148] Top shape: 100 38 (3800)
I0403 13:12:13.275619 31685 net.cpp:148] Top shape: 100 38 (3800)
I0403 13:12:13.275635 31685 net.cpp:148] Top shape: 100 38 (3800)
I0403 13:12:13.275650 31685 net.cpp:156] Memory required for data: 831586800
I0403 13:12:13.275665 31685 layer_factory.hpp:77] Creating layer prob
I0403 13:12:13.275683 31685 net.cpp:91] Creating Layer prob
I0403 13:12:13.275699 31685 net.cpp:425] prob <- fc8_plantvillage_fc8_plantvillage_0_split_0
I0403 13:12:13.275717 31685 net.cpp:399] prob -> prob
I0403 13:12:13.275941 31685 net.cpp:141] Setting up prob
I0403 13:12:13.275967 31685 net.cpp:148] Top shape: 100 38 (3800)
I0403 13:12:13.275981 31685 net.cpp:156] Memory required for data: 831602000
I0403 13:12:13.275997 31685 layer_factory.hpp:77] Creating layer hdf5out
I0403 13:12:13.276016 31685 net.cpp:91] Creating Layer hdf5out
I0403 13:12:13.276032 31685 net.cpp:425] hdf5out <- prob
I0403 13:12:13.276048 31685 net.cpp:425] hdf5out <- label_data_1_split_0
I0403 13:12:13.278285 31685 net.cpp:141] Setting up hdf5out
…
