…
I0403 13:05:52.613181 31386 net.cpp:313] The NetState phase (1) differed from the phase (0) specified by a rule in layer data
I0403 13:05:52.613490 31386 net.cpp:49] Initializing net from parameters: 
state {
  phase: TEST
}
layer {
  name: "data"
  type: "Data"
  top: "data"
  top: "label"
  include {
    phase: TEST
  }
  transform_param {
    crop_size: 227
    mean_file: "/home/mohanty/data/final_dataset/lmdb/segmented-60-40/mean.binaryproto"
  }
  data_param {
    source: "/home/mohanty/data/final_dataset/lmdb/segmented-60-40/test_db"
    batch_size: 100
    backend: LMDB
  }
}
layer {
  name: "conv1"
  type: "Convolution"
  bottom: "data"
  top: "conv1"
  param {
    lr_mult: 1
    decay_mult: 1
  }
  param {
    lr_mult: 2
    decay_mult: 0
  }
  convolution_param {
    num_output: 96
    kernel_size: 11
    stride: 4
    weight_filler {
      type: "gaussian"
      std: 0.01
    }
    bias_filler {
      type: "constant"
      value: 0
    }
  }
}
layer {
  name: "relu1"
  type: "ReLU"
  bottom: "conv1"
  top: "conv1"
}
layer {
  name: "norm1"
  type: "LRN"
  bottom: "conv1"
  top: "norm1"
  lrn_param {
    local_size: 5
    alpha: 0.0001
    beta: 0.75
  }
}
layer {
  name: "pool1"
  type: "Pooling"
  bottom: "norm1"
  top: "pool1"
  pooling_param {
    pool: MAX
    kernel_size: 3
    stride: 2
  }
}
layer {
  name: "conv2"
  type: "Convolution"
  bottom: "pool1"
  top: "conv2"
  param {
    lr_mult: 1
    decay_mult: 1
  }
  param {
    lr_mult: 2
    decay_mult: 0
  }
  convolution_param {
    num_output: 256
    pad: 2
    kernel_size: 5
    group: 2
    weight_filler {
      type: "gaussian"
      std: 0.01
    }
    bias_filler {
      type: "constant"
      value: 0.1
    }
  }
}
layer {
  name: "relu2"
  type: "ReLU"
  bottom: "conv2"
  top: "conv2"
}
layer {
  name: "norm2"
  type: "LRN"
  bottom: "conv2"
  top: "norm2"
  lrn_param {
    local_size: 5
    alpha: 0.0001
    beta: 0.75
  }
}
layer {
  name: "pool2"
  type: "Pooling"
  bottom: "norm2"
  top: "pool2"
  pooling_param {
    pool: MAX
    kernel_size: 3
    stride: 2
  }
}
layer {
  name: "conv3"
  type: "Convolution"
  bottom: "pool2"
  top: "conv3"
  param {
    lr_mult: 1
    decay_mult: 1
  }
  param {
    lr_mult: 2
    decay_mult: 0
  }
  convolution_param {
    num_output: 384
    pad: 1
    kernel_size: 3
    weight_filler {
      type: "gaussian"
      std: 0.01
    }
    bias_filler {
      type: "constant"
      value: 0
    }
  }
}
layer {
  name: "relu3"
  type: "ReLU"
  bottom: "conv3"
  top: "conv3"
}
layer {
  name: "conv4"
  type: "Convolution"
  bottom: "conv3"
  top: "conv4"
  param {
    lr_mult: 1
    decay_mult: 1
  }
  param {
    lr_mult: 2
    decay_mult: 0
  }
  convolution_param {
    num_output: 384
    pad: 1
    kernel_size: 3
    group: 2
    weight_filler {
      type: "gaussian"
      std: 0.01
    }
    bias_filler {
      type: "constant"
      value: 0.1
    }
  }
}
layer {
  name: "relu4"
  type: "ReLU"
  bottom: "conv4"
  top: "conv4"
}
layer {
  name: "conv5"
  type: "Convolution"
  bottom: "conv4"
  top: "conv5"
  param {
    lr_mult: 1
    decay_mult: 1
  }
  param {
    lr_mult: 2
    decay_mult: 0
  }
  convolution_param {
    num_output: 256
    pad: 1
    kernel_size: 3
    group: 2
    weight_filler {
      type: "gaussian"
      std: 0.01
    }
    bias_filler {
      type: "constant"
      value: 0.1
    }
  }
}
layer {
  name: "relu5"
  type: "ReLU"
  bottom: "conv5"
  top: "conv5"
}
layer {
  name: "pool5"
  type: "Pooling"
  bottom: "conv5"
  top: "pool5"
  pooling_param {
    pool: MAX
    kernel_size: 3
    stride: 2
  }
}
layer {
  name: "fc6"
  type: "InnerProduct"
  bottom: "pool5"
  top: "fc6"
  param {
    lr_mult: 1
    decay_mult: 1
  }
  param {
    lr_mult: 2
    decay_mult: 0
  }
  inner_product_param {
    num_output: 4096
    weight_filler {
      type: "gaussian"
      std: 0.005
    }
    bias_filler {
      type: "constant"
      value: 0.1
    }
  }
}
layer {
  name: "relu6"
  type: "ReLU"
  bottom: "fc6"
  top: "fc6"
}
layer {
  name: "drop6"
  type: "Dropout"
  bottom: "fc6"
  top: "fc6"
  dropout_param {
    dropout_ratio: 0.5
  }
}
layer {
  name: "fc7"
  type: "InnerProduct"
  bottom: "fc6"
  top: "fc7"
  param {
    lr_mult: 1
    decay_mult: 1
  }
  param {
    lr_mult: 2
    decay_mult: 0
  }
  inner_product_param {
    num_output: 4096
    weight_filler {
      type: "gaussian"
      std: 0.005
    }
    bias_filler {
      type: "constant"
      value: 0.1
    }
  }
}
layer {
  name: "relu7"
  type: "ReLU"
  bottom: "fc7"
  top: "fc7"
}
layer {
  name: "drop7"
  type: "Dropout"
  bottom: "fc7"
  top: "fc7"
  dropout_param {
    dropout_ratio: 0.5
  }
}
layer {
  name: "fc8_plantvillage"
  type: "InnerProduct"
  bottom: "fc7"
  top: "fc8_plantvillage"
  param {
    lr_mult: 1
    decay_mult: 1
  }
  param {
    lr_mult: 2
    decay_mult: 0
  }
  inner_product_param {
    num_output: 38
    weight_filler {
      type: "gaussian"
      std: 0.01
    }
    bias_filler {
      type: "constant"
      value: 0
    }
  }
}
layer {
  name: "prob"
  type: "Softmax"
  bottom: "fc8_plantvillage"
  top: "prob"
  include {
    phase: TEST
  }
}
layer {
  name: "hdf5out"
  type: "HDF5Output"
  bottom: "prob"
  bottom: "label"
  include {
    phase: TEST
  }
  hdf5_output_param {
    file_name: "hdf5_dumps/iter_650.h5"
  }
}
layer {
  name: "loss"
  type: "SoftmaxWithLoss"
  bottom: "fc8_plantvillage"
  bottom: "label"
  top: "loss"
}
layer {
  name: "accuracy"
  type: "Accuracy"
  bottom: "fc8_plantvillage"
  bottom: "label"
  top: "accuracy"
  include {
    phase: TEST
  }
}
I0403 13:05:52.614002 31386 layer_factory.hpp:77] Creating layer data
I0403 13:05:52.614632 31386 net.cpp:91] Creating Layer data
I0403 13:05:52.614675 31386 net.cpp:399] data -> data
I0403 13:05:52.614738 31386 net.cpp:399] data -> label
I0403 13:05:52.614775 31386 data_transformer.cpp:25] Loading mean file from: /home/mohanty/data/final_dataset/lmdb/segmented-60-40/mean.binaryproto
I0403 13:05:52.617393 31389 db_lmdb.cpp:38] Opened lmdb /home/mohanty/data/final_dataset/lmdb/segmented-60-40/test_db
I0403 13:05:52.628657 31386 data_layer.cpp:41] output data size: 100,3,227,227
I0403 13:05:52.746362 31386 net.cpp:141] Setting up data
I0403 13:05:52.746420 31386 net.cpp:148] Top shape: 100 3 227 227 (15458700)
I0403 13:05:52.746443 31386 net.cpp:148] Top shape: 100 (100)
I0403 13:05:52.746457 31386 net.cpp:156] Memory required for data: 61835200
I0403 13:05:52.746484 31386 layer_factory.hpp:77] Creating layer label_data_1_split
I0403 13:05:52.746510 31386 net.cpp:91] Creating Layer label_data_1_split
I0403 13:05:52.746527 31386 net.cpp:425] label_data_1_split <- label
I0403 13:05:52.746558 31386 net.cpp:399] label_data_1_split -> label_data_1_split_0
I0403 13:05:52.746603 31386 net.cpp:399] label_data_1_split -> label_data_1_split_1
I0403 13:05:52.746623 31386 net.cpp:399] label_data_1_split -> label_data_1_split_2
I0403 13:05:52.746686 31386 net.cpp:141] Setting up label_data_1_split
I0403 13:05:52.746711 31386 net.cpp:148] Top shape: 100 (100)
I0403 13:05:52.746727 31386 net.cpp:148] Top shape: 100 (100)
I0403 13:05:52.746744 31386 net.cpp:148] Top shape: 100 (100)
I0403 13:05:52.746758 31386 net.cpp:156] Memory required for data: 61836400
I0403 13:05:52.746773 31386 layer_factory.hpp:77] Creating layer conv1
I0403 13:05:52.746806 31386 net.cpp:91] Creating Layer conv1
I0403 13:05:52.746824 31386 net.cpp:425] conv1 <- data
I0403 13:05:52.746845 31386 net.cpp:399] conv1 -> conv1
I0403 13:05:52.887320 31386 net.cpp:141] Setting up conv1
I0403 13:05:52.887406 31386 net.cpp:148] Top shape: 100 96 55 55 (29040000)
I0403 13:05:52.887424 31386 net.cpp:156] Memory required for data: 177996400
I0403 13:05:52.887456 31386 layer_factory.hpp:77] Creating layer relu1
I0403 13:05:52.887485 31386 net.cpp:91] Creating Layer relu1
I0403 13:05:52.887503 31386 net.cpp:425] relu1 <- conv1
I0403 13:05:52.887523 31386 net.cpp:386] relu1 -> conv1 (in-place)
I0403 13:05:52.887779 31386 net.cpp:141] Setting up relu1
I0403 13:05:52.887807 31386 net.cpp:148] Top shape: 100 96 55 55 (29040000)
I0403 13:05:52.887855 31386 net.cpp:156] Memory required for data: 294156400
I0403 13:05:52.887871 31386 layer_factory.hpp:77] Creating layer norm1
I0403 13:05:52.887898 31386 net.cpp:91] Creating Layer norm1
I0403 13:05:52.887918 31386 net.cpp:425] norm1 <- conv1
I0403 13:05:52.887938 31386 net.cpp:399] norm1 -> norm1
I0403 13:05:52.888247 31386 net.cpp:141] Setting up norm1
I0403 13:05:52.888278 31386 net.cpp:148] Top shape: 100 96 55 55 (29040000)
I0403 13:05:52.888296 31386 net.cpp:156] Memory required for data: 410316400
I0403 13:05:52.888312 31386 layer_factory.hpp:77] Creating layer pool1
I0403 13:05:52.888336 31386 net.cpp:91] Creating Layer pool1
I0403 13:05:52.888355 31386 net.cpp:425] pool1 <- norm1
I0403 13:05:52.888375 31386 net.cpp:399] pool1 -> pool1
I0403 13:05:52.888440 31386 net.cpp:141] Setting up pool1
I0403 13:05:52.888468 31386 net.cpp:148] Top shape: 100 96 27 27 (6998400)
I0403 13:05:52.888484 31386 net.cpp:156] Memory required for data: 438310000
I0403 13:05:52.888499 31386 layer_factory.hpp:77] Creating layer conv2
I0403 13:05:52.888525 31386 net.cpp:91] Creating Layer conv2
I0403 13:05:52.888541 31386 net.cpp:425] conv2 <- pool1
I0403 13:05:52.888561 31386 net.cpp:399] conv2 -> conv2
I0403 13:05:52.903789 31386 net.cpp:141] Setting up conv2
I0403 13:05:52.903846 31386 net.cpp:148] Top shape: 100 256 27 27 (18662400)
I0403 13:05:52.903862 31386 net.cpp:156] Memory required for data: 512959600
I0403 13:05:52.903887 31386 layer_factory.hpp:77] Creating layer relu2
I0403 13:05:52.903908 31386 net.cpp:91] Creating Layer relu2
I0403 13:05:52.903925 31386 net.cpp:425] relu2 <- conv2
I0403 13:05:52.903945 31386 net.cpp:386] relu2 -> conv2 (in-place)
I0403 13:05:52.904211 31386 net.cpp:141] Setting up relu2
I0403 13:05:52.904238 31386 net.cpp:148] Top shape: 100 256 27 27 (18662400)
I0403 13:05:52.904254 31386 net.cpp:156] Memory required for data: 587609200
I0403 13:05:52.904274 31386 layer_factory.hpp:77] Creating layer norm2
I0403 13:05:52.904297 31386 net.cpp:91] Creating Layer norm2
I0403 13:05:52.904315 31386 net.cpp:425] norm2 <- conv2
I0403 13:05:52.904335 31386 net.cpp:399] norm2 -> norm2
I0403 13:05:52.904516 31386 net.cpp:141] Setting up norm2
I0403 13:05:52.904543 31386 net.cpp:148] Top shape: 100 256 27 27 (18662400)
I0403 13:05:52.904558 31386 net.cpp:156] Memory required for data: 662258800
I0403 13:05:52.904574 31386 layer_factory.hpp:77] Creating layer pool2
I0403 13:05:52.904593 31386 net.cpp:91] Creating Layer pool2
I0403 13:05:52.904610 31386 net.cpp:425] pool2 <- norm2
I0403 13:05:52.904628 31386 net.cpp:399] pool2 -> pool2
I0403 13:05:52.904680 31386 net.cpp:141] Setting up pool2
I0403 13:05:52.904703 31386 net.cpp:148] Top shape: 100 256 13 13 (4326400)
I0403 13:05:52.904718 31386 net.cpp:156] Memory required for data: 679564400
I0403 13:05:52.904736 31386 layer_factory.hpp:77] Creating layer conv3
I0403 13:05:52.904758 31386 net.cpp:91] Creating Layer conv3
I0403 13:05:52.904775 31386 net.cpp:425] conv3 <- pool2
I0403 13:05:52.904794 31386 net.cpp:399] conv3 -> conv3
I0403 13:05:52.944516 31386 net.cpp:141] Setting up conv3
I0403 13:05:52.944593 31386 net.cpp:148] Top shape: 100 384 13 13 (6489600)
I0403 13:05:52.944610 31386 net.cpp:156] Memory required for data: 705522800
I0403 13:05:52.944636 31386 layer_factory.hpp:77] Creating layer relu3
I0403 13:05:52.944660 31386 net.cpp:91] Creating Layer relu3
I0403 13:05:52.944679 31386 net.cpp:425] relu3 <- conv3
I0403 13:05:52.944699 31386 net.cpp:386] relu3 -> conv3 (in-place)
I0403 13:05:52.944957 31386 net.cpp:141] Setting up relu3
I0403 13:05:52.944983 31386 net.cpp:148] Top shape: 100 384 13 13 (6489600)
I0403 13:05:52.944999 31386 net.cpp:156] Memory required for data: 731481200
I0403 13:05:52.945015 31386 layer_factory.hpp:77] Creating layer conv4
I0403 13:05:52.945040 31386 net.cpp:91] Creating Layer conv4
I0403 13:05:52.945057 31386 net.cpp:425] conv4 <- conv3
I0403 13:05:52.945076 31386 net.cpp:399] conv4 -> conv4
I0403 13:05:52.976385 31386 net.cpp:141] Setting up conv4
I0403 13:05:52.976465 31386 net.cpp:148] Top shape: 100 384 13 13 (6489600)
I0403 13:05:52.976516 31386 net.cpp:156] Memory required for data: 757439600
I0403 13:05:52.976539 31386 layer_factory.hpp:77] Creating layer relu4
I0403 13:05:52.976567 31386 net.cpp:91] Creating Layer relu4
I0403 13:05:52.976588 31386 net.cpp:425] relu4 <- conv4
I0403 13:05:52.976609 31386 net.cpp:386] relu4 -> conv4 (in-place)
I0403 13:05:52.976898 31386 net.cpp:141] Setting up relu4
I0403 13:05:52.976927 31386 net.cpp:148] Top shape: 100 384 13 13 (6489600)
I0403 13:05:52.976943 31386 net.cpp:156] Memory required for data: 783398000
I0403 13:05:52.976959 31386 layer_factory.hpp:77] Creating layer conv5
I0403 13:05:52.977015 31386 net.cpp:91] Creating Layer conv5
I0403 13:05:52.977038 31386 net.cpp:425] conv5 <- conv4
I0403 13:05:52.977061 31386 net.cpp:399] conv5 -> conv5
I0403 13:05:52.998787 31386 net.cpp:141] Setting up conv5
I0403 13:05:52.998849 31386 net.cpp:148] Top shape: 100 256 13 13 (4326400)
I0403 13:05:52.998867 31386 net.cpp:156] Memory required for data: 800703600
I0403 13:05:52.998893 31386 layer_factory.hpp:77] Creating layer relu5
I0403 13:05:52.998917 31386 net.cpp:91] Creating Layer relu5
I0403 13:05:52.998937 31386 net.cpp:425] relu5 <- conv5
I0403 13:05:52.998957 31386 net.cpp:386] relu5 -> conv5 (in-place)
I0403 13:05:52.999248 31386 net.cpp:141] Setting up relu5
I0403 13:05:52.999282 31386 net.cpp:148] Top shape: 100 256 13 13 (4326400)
I0403 13:05:52.999301 31386 net.cpp:156] Memory required for data: 818009200
I0403 13:05:52.999318 31386 layer_factory.hpp:77] Creating layer pool5
I0403 13:05:52.999342 31386 net.cpp:91] Creating Layer pool5
I0403 13:05:52.999359 31386 net.cpp:425] pool5 <- conv5
I0403 13:05:52.999382 31386 net.cpp:399] pool5 -> pool5
I0403 13:05:52.999444 31386 net.cpp:141] Setting up pool5
I0403 13:05:52.999529 31386 net.cpp:148] Top shape: 100 256 6 6 (921600)
I0403 13:05:52.999550 31386 net.cpp:156] Memory required for data: 821695600
I0403 13:05:52.999567 31386 layer_factory.hpp:77] Creating layer fc6
I0403 13:05:52.999594 31386 net.cpp:91] Creating Layer fc6
I0403 13:05:52.999614 31386 net.cpp:425] fc6 <- pool5
I0403 13:05:52.999636 31386 net.cpp:399] fc6 -> fc6
I0403 13:05:54.557320 31386 net.cpp:141] Setting up fc6
I0403 13:05:54.557361 31386 net.cpp:148] Top shape: 100 4096 (409600)
I0403 13:05:54.557377 31386 net.cpp:156] Memory required for data: 823334000
I0403 13:05:54.557399 31386 layer_factory.hpp:77] Creating layer relu6
I0403 13:05:54.557422 31386 net.cpp:91] Creating Layer relu6
I0403 13:05:54.557441 31386 net.cpp:425] relu6 <- fc6
I0403 13:05:54.557461 31386 net.cpp:386] relu6 -> fc6 (in-place)
I0403 13:05:54.557669 31386 net.cpp:141] Setting up relu6
I0403 13:05:54.557694 31386 net.cpp:148] Top shape: 100 4096 (409600)
I0403 13:05:54.557709 31386 net.cpp:156] Memory required for data: 824972400
I0403 13:05:54.557723 31386 layer_factory.hpp:77] Creating layer drop6
I0403 13:05:54.557745 31386 net.cpp:91] Creating Layer drop6
I0403 13:05:54.557762 31386 net.cpp:425] drop6 <- fc6
I0403 13:05:54.557780 31386 net.cpp:386] drop6 -> fc6 (in-place)
I0403 13:05:54.557829 31386 net.cpp:141] Setting up drop6
I0403 13:05:54.557852 31386 net.cpp:148] Top shape: 100 4096 (409600)
I0403 13:05:54.557868 31386 net.cpp:156] Memory required for data: 826610800
I0403 13:05:54.557881 31386 layer_factory.hpp:77] Creating layer fc7
I0403 13:05:54.557906 31386 net.cpp:91] Creating Layer fc7
I0403 13:05:54.557924 31386 net.cpp:425] fc7 <- fc6
I0403 13:05:54.557940 31386 net.cpp:399] fc7 -> fc7
I0403 13:05:55.241096 31386 net.cpp:141] Setting up fc7
I0403 13:05:55.241189 31386 net.cpp:148] Top shape: 100 4096 (409600)
I0403 13:05:55.241205 31386 net.cpp:156] Memory required for data: 828249200
I0403 13:05:55.241227 31386 layer_factory.hpp:77] Creating layer relu7
I0403 13:05:55.241250 31386 net.cpp:91] Creating Layer relu7
I0403 13:05:55.241267 31386 net.cpp:425] relu7 <- fc7
I0403 13:05:55.241300 31386 net.cpp:386] relu7 -> fc7 (in-place)
I0403 13:05:55.241715 31386 net.cpp:141] Setting up relu7
I0403 13:05:55.241744 31386 net.cpp:148] Top shape: 100 4096 (409600)
I0403 13:05:55.241793 31386 net.cpp:156] Memory required for data: 829887600
I0403 13:05:55.241811 31386 layer_factory.hpp:77] Creating layer drop7
I0403 13:05:55.241829 31386 net.cpp:91] Creating Layer drop7
I0403 13:05:55.241845 31386 net.cpp:425] drop7 <- fc7
I0403 13:05:55.241863 31386 net.cpp:386] drop7 -> fc7 (in-place)
I0403 13:05:55.241906 31386 net.cpp:141] Setting up drop7
I0403 13:05:55.241928 31386 net.cpp:148] Top shape: 100 4096 (409600)
I0403 13:05:55.241943 31386 net.cpp:156] Memory required for data: 831526000
I0403 13:05:55.241957 31386 layer_factory.hpp:77] Creating layer fc8_plantvillage
I0403 13:05:55.241979 31386 net.cpp:91] Creating Layer fc8_plantvillage
I0403 13:05:55.241996 31386 net.cpp:425] fc8_plantvillage <- fc7
I0403 13:05:55.242013 31386 net.cpp:399] fc8_plantvillage -> fc8_plantvillage
I0403 13:05:55.248728 31386 net.cpp:141] Setting up fc8_plantvillage
I0403 13:05:55.248757 31386 net.cpp:148] Top shape: 100 38 (3800)
I0403 13:05:55.248772 31386 net.cpp:156] Memory required for data: 831541200
I0403 13:05:55.248791 31386 layer_factory.hpp:77] Creating layer fc8_plantvillage_fc8_plantvillage_0_split
I0403 13:05:55.248812 31386 net.cpp:91] Creating Layer fc8_plantvillage_fc8_plantvillage_0_split
I0403 13:05:55.248829 31386 net.cpp:425] fc8_plantvillage_fc8_plantvillage_0_split <- fc8_plantvillage
I0403 13:05:55.248847 31386 net.cpp:399] fc8_plantvillage_fc8_plantvillage_0_split -> fc8_plantvillage_fc8_plantvillage_0_split_0
I0403 13:05:55.248869 31386 net.cpp:399] fc8_plantvillage_fc8_plantvillage_0_split -> fc8_plantvillage_fc8_plantvillage_0_split_1
I0403 13:05:55.248889 31386 net.cpp:399] fc8_plantvillage_fc8_plantvillage_0_split -> fc8_plantvillage_fc8_plantvillage_0_split_2
I0403 13:05:55.248966 31386 net.cpp:141] Setting up fc8_plantvillage_fc8_plantvillage_0_split
I0403 13:05:55.248991 31386 net.cpp:148] Top shape: 100 38 (3800)
I0403 13:05:55.249007 31386 net.cpp:148] Top shape: 100 38 (3800)
I0403 13:05:55.249022 31386 net.cpp:148] Top shape: 100 38 (3800)
I0403 13:05:55.249037 31386 net.cpp:156] Memory required for data: 831586800
I0403 13:05:55.249053 31386 layer_factory.hpp:77] Creating layer prob
I0403 13:05:55.249073 31386 net.cpp:91] Creating Layer prob
I0403 13:05:55.249089 31386 net.cpp:425] prob <- fc8_plantvillage_fc8_plantvillage_0_split_0
I0403 13:05:55.249109 31386 net.cpp:399] prob -> prob
I0403 13:05:55.249336 31386 net.cpp:141] Setting up prob
I0403 13:05:55.249361 31386 net.cpp:148] Top shape: 100 38 (3800)
I0403 13:05:55.249377 31386 net.cpp:156] Memory required for data: 831602000
I0403 13:05:55.249392 31386 layer_factory.hpp:77] Creating layer hdf5out
I0403 13:05:55.249413 31386 net.cpp:91] Creating Layer hdf5out
I0403 13:05:55.249430 31386 net.cpp:425] hdf5out <- prob
I0403 13:05:55.249446 31386 net.cpp:425] hdf5out <- label_data_1_split_0
I0403 13:05:55.252059 31386 net.cpp:141] Setting up hdf5out
…
