…
I0403 13:14:57.604934 31772 net.cpp:313] The NetState phase (1) differed from the phase (0) specified by a rule in layer data
I0403 13:14:57.605340 31772 net.cpp:49] Initializing net from parameters: 
state {
  phase: TEST
}
layer {
  name: "data"
  type: "Data"
  top: "data"
  top: "label"
  include {
    phase: TEST
  }
  transform_param {
    crop_size: 227
    mean_file: "/home/mohanty/data/final_dataset/lmdb/segmented-60-40/mean.binaryproto"
  }
  data_param {
    source: "/home/mohanty/data/final_dataset/lmdb/segmented-60-40/test_db"
    batch_size: 100
    backend: LMDB
  }
}
layer {
  name: "conv1"
  type: "Convolution"
  bottom: "data"
  top: "conv1"
  param {
    lr_mult: 1
    decay_mult: 1
  }
  param {
    lr_mult: 2
    decay_mult: 0
  }
  convolution_param {
    num_output: 96
    kernel_size: 11
    stride: 4
    weight_filler {
      type: "gaussian"
      std: 0.01
    }
    bias_filler {
      type: "constant"
      value: 0
    }
  }
}
layer {
  name: "relu1"
  type: "ReLU"
  bottom: "conv1"
  top: "conv1"
}
layer {
  name: "norm1"
  type: "LRN"
  bottom: "conv1"
  top: "norm1"
  lrn_param {
    local_size: 5
    alpha: 0.0001
    beta: 0.75
  }
}
layer {
  name: "pool1"
  type: "Pooling"
  bottom: "norm1"
  top: "pool1"
  pooling_param {
    pool: MAX
    kernel_size: 3
    stride: 2
  }
}
layer {
  name: "conv2"
  type: "Convolution"
  bottom: "pool1"
  top: "conv2"
  param {
    lr_mult: 1
    decay_mult: 1
  }
  param {
    lr_mult: 2
    decay_mult: 0
  }
  convolution_param {
    num_output: 256
    pad: 2
    kernel_size: 5
    group: 2
    weight_filler {
      type: "gaussian"
      std: 0.01
    }
    bias_filler {
      type: "constant"
      value: 0.1
    }
  }
}
layer {
  name: "relu2"
  type: "ReLU"
  bottom: "conv2"
  top: "conv2"
}
layer {
  name: "norm2"
  type: "LRN"
  bottom: "conv2"
  top: "norm2"
  lrn_param {
    local_size: 5
    alpha: 0.0001
    beta: 0.75
  }
}
layer {
  name: "pool2"
  type: "Pooling"
  bottom: "norm2"
  top: "pool2"
  pooling_param {
    pool: MAX
    kernel_size: 3
    stride: 2
  }
}
layer {
  name: "conv3"
  type: "Convolution"
  bottom: "pool2"
  top: "conv3"
  param {
    lr_mult: 1
    decay_mult: 1
  }
  param {
    lr_mult: 2
    decay_mult: 0
  }
  convolution_param {
    num_output: 384
    pad: 1
    kernel_size: 3
    weight_filler {
      type: "gaussian"
      std: 0.01
    }
    bias_filler {
      type: "constant"
      value: 0
    }
  }
}
layer {
  name: "relu3"
  type: "ReLU"
  bottom: "conv3"
  top: "conv3"
}
layer {
  name: "conv4"
  type: "Convolution"
  bottom: "conv3"
  top: "conv4"
  param {
    lr_mult: 1
    decay_mult: 1
  }
  param {
    lr_mult: 2
    decay_mult: 0
  }
  convolution_param {
    num_output: 384
    pad: 1
    kernel_size: 3
    group: 2
    weight_filler {
      type: "gaussian"
      std: 0.01
    }
    bias_filler {
      type: "constant"
      value: 0.1
    }
  }
}
layer {
  name: "relu4"
  type: "ReLU"
  bottom: "conv4"
  top: "conv4"
}
layer {
  name: "conv5"
  type: "Convolution"
  bottom: "conv4"
  top: "conv5"
  param {
    lr_mult: 1
    decay_mult: 1
  }
  param {
    lr_mult: 2
    decay_mult: 0
  }
  convolution_param {
    num_output: 256
    pad: 1
    kernel_size: 3
    group: 2
    weight_filler {
      type: "gaussian"
      std: 0.01
    }
    bias_filler {
      type: "constant"
      value: 0.1
    }
  }
}
layer {
  name: "relu5"
  type: "ReLU"
  bottom: "conv5"
  top: "conv5"
}
layer {
  name: "pool5"
  type: "Pooling"
  bottom: "conv5"
  top: "pool5"
  pooling_param {
    pool: MAX
    kernel_size: 3
    stride: 2
  }
}
layer {
  name: "fc6"
  type: "InnerProduct"
  bottom: "pool5"
  top: "fc6"
  param {
    lr_mult: 1
    decay_mult: 1
  }
  param {
    lr_mult: 2
    decay_mult: 0
  }
  inner_product_param {
    num_output: 4096
    weight_filler {
      type: "gaussian"
      std: 0.005
    }
    bias_filler {
      type: "constant"
      value: 0.1
    }
  }
}
layer {
  name: "relu6"
  type: "ReLU"
  bottom: "fc6"
  top: "fc6"
}
layer {
  name: "drop6"
  type: "Dropout"
  bottom: "fc6"
  top: "fc6"
  dropout_param {
    dropout_ratio: 0.5
  }
}
layer {
  name: "fc7"
  type: "InnerProduct"
  bottom: "fc6"
  top: "fc7"
  param {
    lr_mult: 1
    decay_mult: 1
  }
  param {
    lr_mult: 2
    decay_mult: 0
  }
  inner_product_param {
    num_output: 4096
    weight_filler {
      type: "gaussian"
      std: 0.005
    }
    bias_filler {
      type: "constant"
      value: 0.1
    }
  }
}
layer {
  name: "relu7"
  type: "ReLU"
  bottom: "fc7"
  top: "fc7"
}
layer {
  name: "drop7"
  type: "Dropout"
  bottom: "fc7"
  top: "fc7"
  dropout_param {
    dropout_ratio: 0.5
  }
}
layer {
  name: "fc8_plantvillage"
  type: "InnerProduct"
  bottom: "fc7"
  top: "fc8_plantvillage"
  param {
    lr_mult: 1
    decay_mult: 1
  }
  param {
    lr_mult: 2
    decay_mult: 0
  }
  inner_product_param {
    num_output: 38
    weight_filler {
      type: "gaussian"
      std: 0.01
    }
    bias_filler {
      type: "constant"
      value: 0
    }
  }
}
layer {
  name: "prob"
  type: "Softmax"
  bottom: "fc8_plantvillage"
  top: "prob"
  include {
    phase: TEST
  }
}
layer {
  name: "hdf5out"
  type: "HDF5Output"
  bottom: "prob"
  bottom: "label"
  include {
    phase: TEST
  }
  hdf5_output_param {
    file_name: "hdf5_dumps/iter_4875.h5"
  }
}
layer {
  name: "loss"
  type: "SoftmaxWithLoss"
  bottom: "fc8_plantvillage"
  bottom: "label"
  top: "loss"
}
layer {
  name: "accuracy"
  type: "Accuracy"
  bottom: "fc8_plantvillage"
  bottom: "label"
  top: "accuracy"
  include {
    phase: TEST
  }
}
I0403 13:14:57.605973 31772 layer_factory.hpp:77] Creating layer data
I0403 13:14:57.606771 31772 net.cpp:91] Creating Layer data
I0403 13:14:57.606807 31772 net.cpp:399] data -> data
I0403 13:14:57.606868 31772 net.cpp:399] data -> label
I0403 13:14:57.606911 31772 data_transformer.cpp:25] Loading mean file from: /home/mohanty/data/final_dataset/lmdb/segmented-60-40/mean.binaryproto
I0403 13:14:57.610152 31776 db_lmdb.cpp:38] Opened lmdb /home/mohanty/data/final_dataset/lmdb/segmented-60-40/test_db
I0403 13:14:57.625185 31772 data_layer.cpp:41] output data size: 100,3,227,227
I0403 13:14:57.758733 31772 net.cpp:141] Setting up data
I0403 13:14:57.758851 31772 net.cpp:148] Top shape: 100 3 227 227 (15458700)
I0403 13:14:57.758878 31772 net.cpp:148] Top shape: 100 (100)
I0403 13:14:57.758896 31772 net.cpp:156] Memory required for data: 61835200
I0403 13:14:57.758929 31772 layer_factory.hpp:77] Creating layer label_data_1_split
I0403 13:14:57.758960 31772 net.cpp:91] Creating Layer label_data_1_split
I0403 13:14:57.758981 31772 net.cpp:425] label_data_1_split <- label
I0403 13:14:57.759018 31772 net.cpp:399] label_data_1_split -> label_data_1_split_0
I0403 13:14:57.759052 31772 net.cpp:399] label_data_1_split -> label_data_1_split_1
I0403 13:14:57.759076 31772 net.cpp:399] label_data_1_split -> label_data_1_split_2
I0403 13:14:57.759152 31772 net.cpp:141] Setting up label_data_1_split
I0403 13:14:57.759179 31772 net.cpp:148] Top shape: 100 (100)
I0403 13:14:57.759199 31772 net.cpp:148] Top shape: 100 (100)
I0403 13:14:57.759218 31772 net.cpp:148] Top shape: 100 (100)
I0403 13:14:57.759235 31772 net.cpp:156] Memory required for data: 61836400
I0403 13:14:57.759259 31772 layer_factory.hpp:77] Creating layer conv1
I0403 13:14:57.759297 31772 net.cpp:91] Creating Layer conv1
I0403 13:14:57.759320 31772 net.cpp:425] conv1 <- data
I0403 13:14:57.759342 31772 net.cpp:399] conv1 -> conv1
I0403 13:14:57.922823 31772 net.cpp:141] Setting up conv1
I0403 13:14:57.922914 31772 net.cpp:148] Top shape: 100 96 55 55 (29040000)
I0403 13:14:57.922935 31772 net.cpp:156] Memory required for data: 177996400
I0403 13:14:57.922971 31772 layer_factory.hpp:77] Creating layer relu1
I0403 13:14:57.923004 31772 net.cpp:91] Creating Layer relu1
I0403 13:14:57.923027 31772 net.cpp:425] relu1 <- conv1
I0403 13:14:57.923049 31772 net.cpp:386] relu1 -> conv1 (in-place)
I0403 13:14:57.923395 31772 net.cpp:141] Setting up relu1
I0403 13:14:57.923429 31772 net.cpp:148] Top shape: 100 96 55 55 (29040000)
I0403 13:14:57.923483 31772 net.cpp:156] Memory required for data: 294156400
I0403 13:14:57.923504 31772 layer_factory.hpp:77] Creating layer norm1
I0403 13:14:57.923537 31772 net.cpp:91] Creating Layer norm1
I0403 13:14:57.923559 31772 net.cpp:425] norm1 <- conv1
I0403 13:14:57.923581 31772 net.cpp:399] norm1 -> norm1
I0403 13:14:57.923949 31772 net.cpp:141] Setting up norm1
I0403 13:14:57.923981 31772 net.cpp:148] Top shape: 100 96 55 55 (29040000)
I0403 13:14:57.924001 31772 net.cpp:156] Memory required for data: 410316400
I0403 13:14:57.924021 31772 layer_factory.hpp:77] Creating layer pool1
I0403 13:14:57.924048 31772 net.cpp:91] Creating Layer pool1
I0403 13:14:57.924068 31772 net.cpp:425] pool1 <- norm1
I0403 13:14:57.924090 31772 net.cpp:399] pool1 -> pool1
I0403 13:14:57.924170 31772 net.cpp:141] Setting up pool1
I0403 13:14:57.924198 31772 net.cpp:148] Top shape: 100 96 27 27 (6998400)
I0403 13:14:57.924217 31772 net.cpp:156] Memory required for data: 438310000
I0403 13:14:57.924237 31772 layer_factory.hpp:77] Creating layer conv2
I0403 13:14:57.924273 31772 net.cpp:91] Creating Layer conv2
I0403 13:14:57.924293 31772 net.cpp:425] conv2 <- pool1
I0403 13:14:57.924315 31772 net.cpp:399] conv2 -> conv2
I0403 13:14:57.942263 31772 net.cpp:141] Setting up conv2
I0403 13:14:57.942309 31772 net.cpp:148] Top shape: 100 256 27 27 (18662400)
I0403 13:14:57.942332 31772 net.cpp:156] Memory required for data: 512959600
I0403 13:14:57.942358 31772 layer_factory.hpp:77] Creating layer relu2
I0403 13:14:57.942380 31772 net.cpp:91] Creating Layer relu2
I0403 13:14:57.942400 31772 net.cpp:425] relu2 <- conv2
I0403 13:14:57.942425 31772 net.cpp:386] relu2 -> conv2 (in-place)
I0403 13:14:57.942756 31772 net.cpp:141] Setting up relu2
I0403 13:14:57.942790 31772 net.cpp:148] Top shape: 100 256 27 27 (18662400)
I0403 13:14:57.942807 31772 net.cpp:156] Memory required for data: 587609200
I0403 13:14:57.942849 31772 layer_factory.hpp:77] Creating layer norm2
I0403 13:14:57.942883 31772 net.cpp:91] Creating Layer norm2
I0403 13:14:57.942905 31772 net.cpp:425] norm2 <- conv2
I0403 13:14:57.942927 31772 net.cpp:399] norm2 -> norm2
I0403 13:14:57.943171 31772 net.cpp:141] Setting up norm2
I0403 13:14:57.943204 31772 net.cpp:148] Top shape: 100 256 27 27 (18662400)
I0403 13:14:57.943223 31772 net.cpp:156] Memory required for data: 662258800
I0403 13:14:57.943256 31772 layer_factory.hpp:77] Creating layer pool2
I0403 13:14:57.943282 31772 net.cpp:91] Creating Layer pool2
I0403 13:14:57.943302 31772 net.cpp:425] pool2 <- norm2
I0403 13:14:57.943327 31772 net.cpp:399] pool2 -> pool2
I0403 13:14:57.943392 31772 net.cpp:141] Setting up pool2
I0403 13:14:57.943421 31772 net.cpp:148] Top shape: 100 256 13 13 (4326400)
I0403 13:14:57.943440 31772 net.cpp:156] Memory required for data: 679564400
I0403 13:14:57.943457 31772 layer_factory.hpp:77] Creating layer conv3
I0403 13:14:57.943485 31772 net.cpp:91] Creating Layer conv3
I0403 13:14:57.943506 31772 net.cpp:425] conv3 <- pool2
I0403 13:14:57.943532 31772 net.cpp:399] conv3 -> conv3
I0403 13:14:57.991693 31772 net.cpp:141] Setting up conv3
I0403 13:14:57.991778 31772 net.cpp:148] Top shape: 100 384 13 13 (6489600)
I0403 13:14:57.991801 31772 net.cpp:156] Memory required for data: 705522800
I0403 13:14:57.991829 31772 layer_factory.hpp:77] Creating layer relu3
I0403 13:14:57.991855 31772 net.cpp:91] Creating Layer relu3
I0403 13:14:57.991876 31772 net.cpp:425] relu3 <- conv3
I0403 13:14:57.991902 31772 net.cpp:386] relu3 -> conv3 (in-place)
I0403 13:14:57.992252 31772 net.cpp:141] Setting up relu3
I0403 13:14:57.992286 31772 net.cpp:148] Top shape: 100 384 13 13 (6489600)
I0403 13:14:57.992305 31772 net.cpp:156] Memory required for data: 731481200
I0403 13:14:57.992323 31772 layer_factory.hpp:77] Creating layer conv4
I0403 13:14:57.992354 31772 net.cpp:91] Creating Layer conv4
I0403 13:14:57.992377 31772 net.cpp:425] conv4 <- conv3
I0403 13:14:57.992403 31772 net.cpp:399] conv4 -> conv4
I0403 13:14:58.028470 31772 net.cpp:141] Setting up conv4
I0403 13:14:58.028540 31772 net.cpp:148] Top shape: 100 384 13 13 (6489600)
I0403 13:14:58.028595 31772 net.cpp:156] Memory required for data: 757439600
I0403 13:14:58.028621 31772 layer_factory.hpp:77] Creating layer relu4
I0403 13:14:58.028645 31772 net.cpp:91] Creating Layer relu4
I0403 13:14:58.028666 31772 net.cpp:425] relu4 <- conv4
I0403 13:14:58.028688 31772 net.cpp:386] relu4 -> conv4 (in-place)
I0403 13:14:58.029019 31772 net.cpp:141] Setting up relu4
I0403 13:14:58.029054 31772 net.cpp:148] Top shape: 100 384 13 13 (6489600)
I0403 13:14:58.029074 31772 net.cpp:156] Memory required for data: 783398000
I0403 13:14:58.029093 31772 layer_factory.hpp:77] Creating layer conv5
I0403 13:14:58.029120 31772 net.cpp:91] Creating Layer conv5
I0403 13:14:58.029142 31772 net.cpp:425] conv5 <- conv4
I0403 13:14:58.029165 31772 net.cpp:399] conv5 -> conv5
I0403 13:14:58.052850 31772 net.cpp:141] Setting up conv5
I0403 13:14:58.052894 31772 net.cpp:148] Top shape: 100 256 13 13 (4326400)
I0403 13:14:58.052911 31772 net.cpp:156] Memory required for data: 800703600
I0403 13:14:58.052934 31772 layer_factory.hpp:77] Creating layer relu5
I0403 13:14:58.052953 31772 net.cpp:91] Creating Layer relu5
I0403 13:14:58.052969 31772 net.cpp:425] relu5 <- conv5
I0403 13:14:58.052989 31772 net.cpp:386] relu5 -> conv5 (in-place)
I0403 13:14:58.053270 31772 net.cpp:141] Setting up relu5
I0403 13:14:58.053299 31772 net.cpp:148] Top shape: 100 256 13 13 (4326400)
I0403 13:14:58.053314 31772 net.cpp:156] Memory required for data: 818009200
I0403 13:14:58.053329 31772 layer_factory.hpp:77] Creating layer pool5
I0403 13:14:58.053354 31772 net.cpp:91] Creating Layer pool5
I0403 13:14:58.053371 31772 net.cpp:425] pool5 <- conv5
I0403 13:14:58.053390 31772 net.cpp:399] pool5 -> pool5
I0403 13:14:58.053448 31772 net.cpp:141] Setting up pool5
I0403 13:14:58.053472 31772 net.cpp:148] Top shape: 100 256 6 6 (921600)
I0403 13:14:58.053485 31772 net.cpp:156] Memory required for data: 821695600
I0403 13:14:58.053500 31772 layer_factory.hpp:77] Creating layer fc6
I0403 13:14:58.053526 31772 net.cpp:91] Creating Layer fc6
I0403 13:14:58.053544 31772 net.cpp:425] fc6 <- pool5
I0403 13:14:58.053565 31772 net.cpp:399] fc6 -> fc6
I0403 13:14:59.604753 31772 net.cpp:141] Setting up fc6
I0403 13:14:59.604846 31772 net.cpp:148] Top shape: 100 4096 (409600)
I0403 13:14:59.604863 31772 net.cpp:156] Memory required for data: 823334000
I0403 13:14:59.604884 31772 layer_factory.hpp:77] Creating layer relu6
I0403 13:14:59.604907 31772 net.cpp:91] Creating Layer relu6
I0403 13:14:59.604923 31772 net.cpp:425] relu6 <- fc6
I0403 13:14:59.604943 31772 net.cpp:386] relu6 -> fc6 (in-place)
I0403 13:14:59.605161 31772 net.cpp:141] Setting up relu6
I0403 13:14:59.605187 31772 net.cpp:148] Top shape: 100 4096 (409600)
I0403 13:14:59.605202 31772 net.cpp:156] Memory required for data: 824972400
I0403 13:14:59.605218 31772 layer_factory.hpp:77] Creating layer drop6
I0403 13:14:59.605237 31772 net.cpp:91] Creating Layer drop6
I0403 13:14:59.605255 31772 net.cpp:425] drop6 <- fc6
I0403 13:14:59.605274 31772 net.cpp:386] drop6 -> fc6 (in-place)
I0403 13:14:59.605327 31772 net.cpp:141] Setting up drop6
I0403 13:14:59.605348 31772 net.cpp:148] Top shape: 100 4096 (409600)
I0403 13:14:59.605363 31772 net.cpp:156] Memory required for data: 826610800
I0403 13:14:59.605377 31772 layer_factory.hpp:77] Creating layer fc7
I0403 13:14:59.605399 31772 net.cpp:91] Creating Layer fc7
I0403 13:14:59.605415 31772 net.cpp:425] fc7 <- fc6
I0403 13:14:59.605437 31772 net.cpp:399] fc7 -> fc7
I0403 13:15:00.308745 31772 net.cpp:141] Setting up fc7
I0403 13:15:00.308825 31772 net.cpp:148] Top shape: 100 4096 (409600)
I0403 13:15:00.308842 31772 net.cpp:156] Memory required for data: 828249200
I0403 13:15:00.308866 31772 layer_factory.hpp:77] Creating layer relu7
I0403 13:15:00.308889 31772 net.cpp:91] Creating Layer relu7
I0403 13:15:00.308908 31772 net.cpp:425] relu7 <- fc7
I0403 13:15:00.308929 31772 net.cpp:386] relu7 -> fc7 (in-place)
I0403 13:15:00.309368 31772 net.cpp:141] Setting up relu7
I0403 13:15:00.309398 31772 net.cpp:148] Top shape: 100 4096 (409600)
I0403 13:15:00.309449 31772 net.cpp:156] Memory required for data: 829887600
I0403 13:15:00.309466 31772 layer_factory.hpp:77] Creating layer drop7
I0403 13:15:00.309486 31772 net.cpp:91] Creating Layer drop7
I0403 13:15:00.309504 31772 net.cpp:425] drop7 <- fc7
I0403 13:15:00.309521 31772 net.cpp:386] drop7 -> fc7 (in-place)
I0403 13:15:00.309568 31772 net.cpp:141] Setting up drop7
I0403 13:15:00.309592 31772 net.cpp:148] Top shape: 100 4096 (409600)
I0403 13:15:00.309608 31772 net.cpp:156] Memory required for data: 831526000
I0403 13:15:00.309624 31772 layer_factory.hpp:77] Creating layer fc8_plantvillage
I0403 13:15:00.309648 31772 net.cpp:91] Creating Layer fc8_plantvillage
I0403 13:15:00.309665 31772 net.cpp:425] fc8_plantvillage <- fc7
I0403 13:15:00.309684 31772 net.cpp:399] fc8_plantvillage -> fc8_plantvillage
I0403 13:15:00.316879 31772 net.cpp:141] Setting up fc8_plantvillage
I0403 13:15:00.316946 31772 net.cpp:148] Top shape: 100 38 (3800)
I0403 13:15:00.316963 31772 net.cpp:156] Memory required for data: 831541200
I0403 13:15:00.316985 31772 layer_factory.hpp:77] Creating layer fc8_plantvillage_fc8_plantvillage_0_split
I0403 13:15:00.317006 31772 net.cpp:91] Creating Layer fc8_plantvillage_fc8_plantvillage_0_split
I0403 13:15:00.317024 31772 net.cpp:425] fc8_plantvillage_fc8_plantvillage_0_split <- fc8_plantvillage
I0403 13:15:00.317047 31772 net.cpp:399] fc8_plantvillage_fc8_plantvillage_0_split -> fc8_plantvillage_fc8_plantvillage_0_split_0
I0403 13:15:00.317072 31772 net.cpp:399] fc8_plantvillage_fc8_plantvillage_0_split -> fc8_plantvillage_fc8_plantvillage_0_split_1
I0403 13:15:00.317095 31772 net.cpp:399] fc8_plantvillage_fc8_plantvillage_0_split -> fc8_plantvillage_fc8_plantvillage_0_split_2
I0403 13:15:00.317186 31772 net.cpp:141] Setting up fc8_plantvillage_fc8_plantvillage_0_split
I0403 13:15:00.317215 31772 net.cpp:148] Top shape: 100 38 (3800)
I0403 13:15:00.317234 31772 net.cpp:148] Top shape: 100 38 (3800)
I0403 13:15:00.317256 31772 net.cpp:148] Top shape: 100 38 (3800)
I0403 13:15:00.317273 31772 net.cpp:156] Memory required for data: 831586800
I0403 13:15:00.317288 31772 layer_factory.hpp:77] Creating layer prob
I0403 13:15:00.317309 31772 net.cpp:91] Creating Layer prob
I0403 13:15:00.317327 31772 net.cpp:425] prob <- fc8_plantvillage_fc8_plantvillage_0_split_0
I0403 13:15:00.317345 31772 net.cpp:399] prob -> prob
I0403 13:15:00.317615 31772 net.cpp:141] Setting up prob
I0403 13:15:00.317646 31772 net.cpp:148] Top shape: 100 38 (3800)
I0403 13:15:00.317662 31772 net.cpp:156] Memory required for data: 831602000
I0403 13:15:00.317678 31772 layer_factory.hpp:77] Creating layer hdf5out
I0403 13:15:00.317698 31772 net.cpp:91] Creating Layer hdf5out
I0403 13:15:00.317715 31772 net.cpp:425] hdf5out <- prob
I0403 13:15:00.317733 31772 net.cpp:425] hdf5out <- label_data_1_split_0
I0403 13:15:00.319828 31772 net.cpp:141] Setting up hdf5out
…
