…
I0403 13:18:27.461253 31870 net.cpp:313] The NetState phase (1) differed from the phase (0) specified by a rule in layer data
I0403 13:18:27.461580 31870 net.cpp:49] Initializing net from parameters: 
state {
  phase: TEST
}
layer {
  name: "data"
  type: "Data"
  top: "data"
  top: "label"
  include {
    phase: TEST
  }
  transform_param {
    crop_size: 227
    mean_file: "/home/mohanty/data/final_dataset/lmdb/segmented-60-40/mean.binaryproto"
  }
  data_param {
    source: "/home/mohanty/data/final_dataset/lmdb/segmented-60-40/test_db"
    batch_size: 100
    backend: LMDB
  }
}
layer {
  name: "conv1"
  type: "Convolution"
  bottom: "data"
  top: "conv1"
  param {
    lr_mult: 1
    decay_mult: 1
  }
  param {
    lr_mult: 2
    decay_mult: 0
  }
  convolution_param {
    num_output: 96
    kernel_size: 11
    stride: 4
    weight_filler {
      type: "gaussian"
      std: 0.01
    }
    bias_filler {
      type: "constant"
      value: 0
    }
  }
}
layer {
  name: "relu1"
  type: "ReLU"
  bottom: "conv1"
  top: "conv1"
}
layer {
  name: "norm1"
  type: "LRN"
  bottom: "conv1"
  top: "norm1"
  lrn_param {
    local_size: 5
    alpha: 0.0001
    beta: 0.75
  }
}
layer {
  name: "pool1"
  type: "Pooling"
  bottom: "norm1"
  top: "pool1"
  pooling_param {
    pool: MAX
    kernel_size: 3
    stride: 2
  }
}
layer {
  name: "conv2"
  type: "Convolution"
  bottom: "pool1"
  top: "conv2"
  param {
    lr_mult: 1
    decay_mult: 1
  }
  param {
    lr_mult: 2
    decay_mult: 0
  }
  convolution_param {
    num_output: 256
    pad: 2
    kernel_size: 5
    group: 2
    weight_filler {
      type: "gaussian"
      std: 0.01
    }
    bias_filler {
      type: "constant"
      value: 0.1
    }
  }
}
layer {
  name: "relu2"
  type: "ReLU"
  bottom: "conv2"
  top: "conv2"
}
layer {
  name: "norm2"
  type: "LRN"
  bottom: "conv2"
  top: "norm2"
  lrn_param {
    local_size: 5
    alpha: 0.0001
    beta: 0.75
  }
}
layer {
  name: "pool2"
  type: "Pooling"
  bottom: "norm2"
  top: "pool2"
  pooling_param {
    pool: MAX
    kernel_size: 3
    stride: 2
  }
}
layer {
  name: "conv3"
  type: "Convolution"
  bottom: "pool2"
  top: "conv3"
  param {
    lr_mult: 1
    decay_mult: 1
  }
  param {
    lr_mult: 2
    decay_mult: 0
  }
  convolution_param {
    num_output: 384
    pad: 1
    kernel_size: 3
    weight_filler {
      type: "gaussian"
      std: 0.01
    }
    bias_filler {
      type: "constant"
      value: 0
    }
  }
}
layer {
  name: "relu3"
  type: "ReLU"
  bottom: "conv3"
  top: "conv3"
}
layer {
  name: "conv4"
  type: "Convolution"
  bottom: "conv3"
  top: "conv4"
  param {
    lr_mult: 1
    decay_mult: 1
  }
  param {
    lr_mult: 2
    decay_mult: 0
  }
  convolution_param {
    num_output: 384
    pad: 1
    kernel_size: 3
    group: 2
    weight_filler {
      type: "gaussian"
      std: 0.01
    }
    bias_filler {
      type: "constant"
      value: 0.1
    }
  }
}
layer {
  name: "relu4"
  type: "ReLU"
  bottom: "conv4"
  top: "conv4"
}
layer {
  name: "conv5"
  type: "Convolution"
  bottom: "conv4"
  top: "conv5"
  param {
    lr_mult: 1
    decay_mult: 1
  }
  param {
    lr_mult: 2
    decay_mult: 0
  }
  convolution_param {
    num_output: 256
    pad: 1
    kernel_size: 3
    group: 2
    weight_filler {
      type: "gaussian"
      std: 0.01
    }
    bias_filler {
      type: "constant"
      value: 0.1
    }
  }
}
layer {
  name: "relu5"
  type: "ReLU"
  bottom: "conv5"
  top: "conv5"
}
layer {
  name: "pool5"
  type: "Pooling"
  bottom: "conv5"
  top: "pool5"
  pooling_param {
    pool: MAX
    kernel_size: 3
    stride: 2
  }
}
layer {
  name: "fc6"
  type: "InnerProduct"
  bottom: "pool5"
  top: "fc6"
  param {
    lr_mult: 1
    decay_mult: 1
  }
  param {
    lr_mult: 2
    decay_mult: 0
  }
  inner_product_param {
    num_output: 4096
    weight_filler {
      type: "gaussian"
      std: 0.005
    }
    bias_filler {
      type: "constant"
      value: 0.1
    }
  }
}
layer {
  name: "relu6"
  type: "ReLU"
  bottom: "fc6"
  top: "fc6"
}
layer {
  name: "drop6"
  type: "Dropout"
  bottom: "fc6"
  top: "fc6"
  dropout_param {
    dropout_ratio: 0.5
  }
}
layer {
  name: "fc7"
  type: "InnerProduct"
  bottom: "fc6"
  top: "fc7"
  param {
    lr_mult: 1
    decay_mult: 1
  }
  param {
    lr_mult: 2
    decay_mult: 0
  }
  inner_product_param {
    num_output: 4096
    weight_filler {
      type: "gaussian"
      std: 0.005
    }
    bias_filler {
      type: "constant"
      value: 0.1
    }
  }
}
layer {
  name: "relu7"
  type: "ReLU"
  bottom: "fc7"
  top: "fc7"
}
layer {
  name: "drop7"
  type: "Dropout"
  bottom: "fc7"
  top: "fc7"
  dropout_param {
    dropout_ratio: 0.5
  }
}
layer {
  name: "fc8_plantvillage"
  type: "InnerProduct"
  bottom: "fc7"
  top: "fc8_plantvillage"
  param {
    lr_mult: 1
    decay_mult: 1
  }
  param {
    lr_mult: 2
    decay_mult: 0
  }
  inner_product_param {
    num_output: 38
    weight_filler {
      type: "gaussian"
      std: 0.01
    }
    bias_filler {
      type: "constant"
      value: 0
    }
  }
}
layer {
  name: "prob"
  type: "Softmax"
  bottom: "fc8_plantvillage"
  top: "prob"
  include {
    phase: TEST
  }
}
layer {
  name: "hdf5out"
  type: "HDF5Output"
  bottom: "prob"
  bottom: "label"
  include {
    phase: TEST
  }
  hdf5_output_param {
    file_name: "hdf5_dumps/iter_6500.h5"
  }
}
layer {
  name: "loss"
  type: "SoftmaxWithLoss"
  bottom: "fc8_plantvillage"
  bottom: "label"
  top: "loss"
}
layer {
  name: "accuracy"
  type: "Accuracy"
  bottom: "fc8_plantvillage"
  bottom: "label"
  top: "accuracy"
  include {
    phase: TEST
  }
}
I0403 13:18:27.462196 31870 layer_factory.hpp:77] Creating layer data
I0403 13:18:27.462885 31870 net.cpp:91] Creating Layer data
I0403 13:18:27.462916 31870 net.cpp:399] data -> data
I0403 13:18:27.462970 31870 net.cpp:399] data -> label
I0403 13:18:27.463006 31870 data_transformer.cpp:25] Loading mean file from: /home/mohanty/data/final_dataset/lmdb/segmented-60-40/mean.binaryproto
I0403 13:18:27.465977 31873 db_lmdb.cpp:38] Opened lmdb /home/mohanty/data/final_dataset/lmdb/segmented-60-40/test_db
I0403 13:18:27.477478 31870 data_layer.cpp:41] output data size: 100,3,227,227
I0403 13:18:27.597681 31870 net.cpp:141] Setting up data
I0403 13:18:27.597741 31870 net.cpp:148] Top shape: 100 3 227 227 (15458700)
I0403 13:18:27.597766 31870 net.cpp:148] Top shape: 100 (100)
I0403 13:18:27.597784 31870 net.cpp:156] Memory required for data: 61835200
I0403 13:18:27.597812 31870 layer_factory.hpp:77] Creating layer label_data_1_split
I0403 13:18:27.597839 31870 net.cpp:91] Creating Layer label_data_1_split
I0403 13:18:27.597857 31870 net.cpp:425] label_data_1_split <- label
I0403 13:18:27.597890 31870 net.cpp:399] label_data_1_split -> label_data_1_split_0
I0403 13:18:27.597918 31870 net.cpp:399] label_data_1_split -> label_data_1_split_1
I0403 13:18:27.597939 31870 net.cpp:399] label_data_1_split -> label_data_1_split_2
I0403 13:18:27.598003 31870 net.cpp:141] Setting up label_data_1_split
I0403 13:18:27.598027 31870 net.cpp:148] Top shape: 100 (100)
I0403 13:18:27.598044 31870 net.cpp:148] Top shape: 100 (100)
I0403 13:18:27.598062 31870 net.cpp:148] Top shape: 100 (100)
I0403 13:18:27.598076 31870 net.cpp:156] Memory required for data: 61836400
I0403 13:18:27.598091 31870 layer_factory.hpp:77] Creating layer conv1
I0403 13:18:27.598124 31870 net.cpp:91] Creating Layer conv1
I0403 13:18:27.598143 31870 net.cpp:425] conv1 <- data
I0403 13:18:27.598165 31870 net.cpp:399] conv1 -> conv1
I0403 13:18:27.740505 31870 net.cpp:141] Setting up conv1
I0403 13:18:27.740595 31870 net.cpp:148] Top shape: 100 96 55 55 (29040000)
I0403 13:18:27.740613 31870 net.cpp:156] Memory required for data: 177996400
I0403 13:18:27.740648 31870 layer_factory.hpp:77] Creating layer relu1
I0403 13:18:27.740676 31870 net.cpp:91] Creating Layer relu1
I0403 13:18:27.740696 31870 net.cpp:425] relu1 <- conv1
I0403 13:18:27.740717 31870 net.cpp:386] relu1 -> conv1 (in-place)
I0403 13:18:27.741005 31870 net.cpp:141] Setting up relu1
I0403 13:18:27.741034 31870 net.cpp:148] Top shape: 100 96 55 55 (29040000)
I0403 13:18:27.741086 31870 net.cpp:156] Memory required for data: 294156400
I0403 13:18:27.741106 31870 layer_factory.hpp:77] Creating layer norm1
I0403 13:18:27.741133 31870 net.cpp:91] Creating Layer norm1
I0403 13:18:27.741153 31870 net.cpp:425] norm1 <- conv1
I0403 13:18:27.741173 31870 net.cpp:399] norm1 -> norm1
I0403 13:18:27.741497 31870 net.cpp:141] Setting up norm1
I0403 13:18:27.741525 31870 net.cpp:148] Top shape: 100 96 55 55 (29040000)
I0403 13:18:27.741542 31870 net.cpp:156] Memory required for data: 410316400
I0403 13:18:27.741559 31870 layer_factory.hpp:77] Creating layer pool1
I0403 13:18:27.741583 31870 net.cpp:91] Creating Layer pool1
I0403 13:18:27.741602 31870 net.cpp:425] pool1 <- norm1
I0403 13:18:27.741622 31870 net.cpp:399] pool1 -> pool1
I0403 13:18:27.741693 31870 net.cpp:141] Setting up pool1
I0403 13:18:27.741719 31870 net.cpp:148] Top shape: 100 96 27 27 (6998400)
I0403 13:18:27.741735 31870 net.cpp:156] Memory required for data: 438310000
I0403 13:18:27.741752 31870 layer_factory.hpp:77] Creating layer conv2
I0403 13:18:27.741778 31870 net.cpp:91] Creating Layer conv2
I0403 13:18:27.741796 31870 net.cpp:425] conv2 <- pool1
I0403 13:18:27.741816 31870 net.cpp:399] conv2 -> conv2
I0403 13:18:27.757446 31870 net.cpp:141] Setting up conv2
I0403 13:18:27.757529 31870 net.cpp:148] Top shape: 100 256 27 27 (18662400)
I0403 13:18:27.757550 31870 net.cpp:156] Memory required for data: 512959600
I0403 13:18:27.757576 31870 layer_factory.hpp:77] Creating layer relu2
I0403 13:18:27.757598 31870 net.cpp:91] Creating Layer relu2
I0403 13:18:27.757616 31870 net.cpp:425] relu2 <- conv2
I0403 13:18:27.757637 31870 net.cpp:386] relu2 -> conv2 (in-place)
I0403 13:18:27.757927 31870 net.cpp:141] Setting up relu2
I0403 13:18:27.757961 31870 net.cpp:148] Top shape: 100 256 27 27 (18662400)
I0403 13:18:27.757978 31870 net.cpp:156] Memory required for data: 587609200
I0403 13:18:27.757995 31870 layer_factory.hpp:77] Creating layer norm2
I0403 13:18:27.758018 31870 net.cpp:91] Creating Layer norm2
I0403 13:18:27.758036 31870 net.cpp:425] norm2 <- conv2
I0403 13:18:27.758059 31870 net.cpp:399] norm2 -> norm2
I0403 13:18:27.758266 31870 net.cpp:141] Setting up norm2
I0403 13:18:27.758301 31870 net.cpp:148] Top shape: 100 256 27 27 (18662400)
I0403 13:18:27.758318 31870 net.cpp:156] Memory required for data: 662258800
I0403 13:18:27.758335 31870 layer_factory.hpp:77] Creating layer pool2
I0403 13:18:27.758355 31870 net.cpp:91] Creating Layer pool2
I0403 13:18:27.758373 31870 net.cpp:425] pool2 <- norm2
I0403 13:18:27.758391 31870 net.cpp:399] pool2 -> pool2
I0403 13:18:27.758457 31870 net.cpp:141] Setting up pool2
I0403 13:18:27.758482 31870 net.cpp:148] Top shape: 100 256 13 13 (4326400)
I0403 13:18:27.758498 31870 net.cpp:156] Memory required for data: 679564400
I0403 13:18:27.758514 31870 layer_factory.hpp:77] Creating layer conv3
I0403 13:18:27.758539 31870 net.cpp:91] Creating Layer conv3
I0403 13:18:27.758558 31870 net.cpp:425] conv3 <- pool2
I0403 13:18:27.758580 31870 net.cpp:399] conv3 -> conv3
I0403 13:18:27.799012 31870 net.cpp:141] Setting up conv3
I0403 13:18:27.799105 31870 net.cpp:148] Top shape: 100 384 13 13 (6489600)
I0403 13:18:27.799125 31870 net.cpp:156] Memory required for data: 705522800
I0403 13:18:27.799154 31870 layer_factory.hpp:77] Creating layer relu3
I0403 13:18:27.799183 31870 net.cpp:91] Creating Layer relu3
I0403 13:18:27.799204 31870 net.cpp:425] relu3 <- conv3
I0403 13:18:27.799226 31870 net.cpp:386] relu3 -> conv3 (in-place)
I0403 13:18:27.799571 31870 net.cpp:141] Setting up relu3
I0403 13:18:27.799602 31870 net.cpp:148] Top shape: 100 384 13 13 (6489600)
I0403 13:18:27.799619 31870 net.cpp:156] Memory required for data: 731481200
I0403 13:18:27.799635 31870 layer_factory.hpp:77] Creating layer conv4
I0403 13:18:27.799662 31870 net.cpp:91] Creating Layer conv4
I0403 13:18:27.799680 31870 net.cpp:425] conv4 <- conv3
I0403 13:18:27.799700 31870 net.cpp:399] conv4 -> conv4
I0403 13:18:27.830687 31870 net.cpp:141] Setting up conv4
I0403 13:18:27.830766 31870 net.cpp:148] Top shape: 100 384 13 13 (6489600)
I0403 13:18:27.830816 31870 net.cpp:156] Memory required for data: 757439600
I0403 13:18:27.830839 31870 layer_factory.hpp:77] Creating layer relu4
I0403 13:18:27.830865 31870 net.cpp:91] Creating Layer relu4
I0403 13:18:27.830884 31870 net.cpp:425] relu4 <- conv4
I0403 13:18:27.830904 31870 net.cpp:386] relu4 -> conv4 (in-place)
I0403 13:18:27.831249 31870 net.cpp:141] Setting up relu4
I0403 13:18:27.831284 31870 net.cpp:148] Top shape: 100 384 13 13 (6489600)
I0403 13:18:27.831302 31870 net.cpp:156] Memory required for data: 783398000
I0403 13:18:27.831320 31870 layer_factory.hpp:77] Creating layer conv5
I0403 13:18:27.831347 31870 net.cpp:91] Creating Layer conv5
I0403 13:18:27.831367 31870 net.cpp:425] conv5 <- conv4
I0403 13:18:27.831390 31870 net.cpp:399] conv5 -> conv5
I0403 13:18:27.852099 31870 net.cpp:141] Setting up conv5
I0403 13:18:27.852152 31870 net.cpp:148] Top shape: 100 256 13 13 (4326400)
I0403 13:18:27.852169 31870 net.cpp:156] Memory required for data: 800703600
I0403 13:18:27.852197 31870 layer_factory.hpp:77] Creating layer relu5
I0403 13:18:27.852221 31870 net.cpp:91] Creating Layer relu5
I0403 13:18:27.852237 31870 net.cpp:425] relu5 <- conv5
I0403 13:18:27.852255 31870 net.cpp:386] relu5 -> conv5 (in-place)
I0403 13:18:27.852550 31870 net.cpp:141] Setting up relu5
I0403 13:18:27.852579 31870 net.cpp:148] Top shape: 100 256 13 13 (4326400)
I0403 13:18:27.852597 31870 net.cpp:156] Memory required for data: 818009200
I0403 13:18:27.852613 31870 layer_factory.hpp:77] Creating layer pool5
I0403 13:18:27.852637 31870 net.cpp:91] Creating Layer pool5
I0403 13:18:27.852654 31870 net.cpp:425] pool5 <- conv5
I0403 13:18:27.852675 31870 net.cpp:399] pool5 -> pool5
I0403 13:18:27.852738 31870 net.cpp:141] Setting up pool5
I0403 13:18:27.852762 31870 net.cpp:148] Top shape: 100 256 6 6 (921600)
I0403 13:18:27.852803 31870 net.cpp:156] Memory required for data: 821695600
I0403 13:18:27.852826 31870 layer_factory.hpp:77] Creating layer fc6
I0403 13:18:27.852857 31870 net.cpp:91] Creating Layer fc6
I0403 13:18:27.852876 31870 net.cpp:425] fc6 <- pool5
I0403 13:18:27.852898 31870 net.cpp:399] fc6 -> fc6
I0403 13:18:29.437319 31870 net.cpp:141] Setting up fc6
I0403 13:18:29.437367 31870 net.cpp:148] Top shape: 100 4096 (409600)
I0403 13:18:29.437386 31870 net.cpp:156] Memory required for data: 823334000
I0403 13:18:29.437407 31870 layer_factory.hpp:77] Creating layer relu6
I0403 13:18:29.437433 31870 net.cpp:91] Creating Layer relu6
I0403 13:18:29.437459 31870 net.cpp:425] relu6 <- fc6
I0403 13:18:29.437481 31870 net.cpp:386] relu6 -> fc6 (in-place)
I0403 13:18:29.437714 31870 net.cpp:141] Setting up relu6
I0403 13:18:29.437741 31870 net.cpp:148] Top shape: 100 4096 (409600)
I0403 13:18:29.437757 31870 net.cpp:156] Memory required for data: 824972400
I0403 13:18:29.437772 31870 layer_factory.hpp:77] Creating layer drop6
I0403 13:18:29.437791 31870 net.cpp:91] Creating Layer drop6
I0403 13:18:29.437806 31870 net.cpp:425] drop6 <- fc6
I0403 13:18:29.437824 31870 net.cpp:386] drop6 -> fc6 (in-place)
I0403 13:18:29.437877 31870 net.cpp:141] Setting up drop6
I0403 13:18:29.437901 31870 net.cpp:148] Top shape: 100 4096 (409600)
I0403 13:18:29.437916 31870 net.cpp:156] Memory required for data: 826610800
I0403 13:18:29.437930 31870 layer_factory.hpp:77] Creating layer fc7
I0403 13:18:29.437952 31870 net.cpp:91] Creating Layer fc7
I0403 13:18:29.437969 31870 net.cpp:425] fc7 <- fc6
I0403 13:18:29.437988 31870 net.cpp:399] fc7 -> fc7
I0403 13:18:30.129067 31870 net.cpp:141] Setting up fc7
I0403 13:18:30.129156 31870 net.cpp:148] Top shape: 100 4096 (409600)
I0403 13:18:30.129173 31870 net.cpp:156] Memory required for data: 828249200
I0403 13:18:30.129196 31870 layer_factory.hpp:77] Creating layer relu7
I0403 13:18:30.129222 31870 net.cpp:91] Creating Layer relu7
I0403 13:18:30.129241 31870 net.cpp:425] relu7 <- fc7
I0403 13:18:30.129262 31870 net.cpp:386] relu7 -> fc7 (in-place)
I0403 13:18:30.129688 31870 net.cpp:141] Setting up relu7
I0403 13:18:30.129714 31870 net.cpp:148] Top shape: 100 4096 (409600)
I0403 13:18:30.129763 31870 net.cpp:156] Memory required for data: 829887600
I0403 13:18:30.129781 31870 layer_factory.hpp:77] Creating layer drop7
I0403 13:18:30.129802 31870 net.cpp:91] Creating Layer drop7
I0403 13:18:30.129820 31870 net.cpp:425] drop7 <- fc7
I0403 13:18:30.129838 31870 net.cpp:386] drop7 -> fc7 (in-place)
I0403 13:18:30.129884 31870 net.cpp:141] Setting up drop7
I0403 13:18:30.129906 31870 net.cpp:148] Top shape: 100 4096 (409600)
I0403 13:18:30.129921 31870 net.cpp:156] Memory required for data: 831526000
I0403 13:18:30.129936 31870 layer_factory.hpp:77] Creating layer fc8_plantvillage
I0403 13:18:30.129959 31870 net.cpp:91] Creating Layer fc8_plantvillage
I0403 13:18:30.129976 31870 net.cpp:425] fc8_plantvillage <- fc7
I0403 13:18:30.129995 31870 net.cpp:399] fc8_plantvillage -> fc8_plantvillage
I0403 13:18:30.136731 31870 net.cpp:141] Setting up fc8_plantvillage
I0403 13:18:30.136759 31870 net.cpp:148] Top shape: 100 38 (3800)
I0403 13:18:30.136775 31870 net.cpp:156] Memory required for data: 831541200
I0403 13:18:30.136795 31870 layer_factory.hpp:77] Creating layer fc8_plantvillage_fc8_plantvillage_0_split
I0403 13:18:30.136812 31870 net.cpp:91] Creating Layer fc8_plantvillage_fc8_plantvillage_0_split
I0403 13:18:30.136828 31870 net.cpp:425] fc8_plantvillage_fc8_plantvillage_0_split <- fc8_plantvillage
I0403 13:18:30.136845 31870 net.cpp:399] fc8_plantvillage_fc8_plantvillage_0_split -> fc8_plantvillage_fc8_plantvillage_0_split_0
I0403 13:18:30.136869 31870 net.cpp:399] fc8_plantvillage_fc8_plantvillage_0_split -> fc8_plantvillage_fc8_plantvillage_0_split_1
I0403 13:18:30.136891 31870 net.cpp:399] fc8_plantvillage_fc8_plantvillage_0_split -> fc8_plantvillage_fc8_plantvillage_0_split_2
I0403 13:18:30.136968 31870 net.cpp:141] Setting up fc8_plantvillage_fc8_plantvillage_0_split
I0403 13:18:30.136991 31870 net.cpp:148] Top shape: 100 38 (3800)
I0403 13:18:30.137007 31870 net.cpp:148] Top shape: 100 38 (3800)
I0403 13:18:30.137023 31870 net.cpp:148] Top shape: 100 38 (3800)
I0403 13:18:30.137037 31870 net.cpp:156] Memory required for data: 831586800
I0403 13:18:30.137053 31870 layer_factory.hpp:77] Creating layer prob
I0403 13:18:30.137071 31870 net.cpp:91] Creating Layer prob
I0403 13:18:30.137086 31870 net.cpp:425] prob <- fc8_plantvillage_fc8_plantvillage_0_split_0
I0403 13:18:30.137105 31870 net.cpp:399] prob -> prob
I0403 13:18:30.137331 31870 net.cpp:141] Setting up prob
I0403 13:18:30.137356 31870 net.cpp:148] Top shape: 100 38 (3800)
I0403 13:18:30.137372 31870 net.cpp:156] Memory required for data: 831602000
I0403 13:18:30.137387 31870 layer_factory.hpp:77] Creating layer hdf5out
I0403 13:18:30.137408 31870 net.cpp:91] Creating Layer hdf5out
I0403 13:18:30.137425 31870 net.cpp:425] hdf5out <- prob
I0403 13:18:30.137442 31870 net.cpp:425] hdf5out <- label_data_1_split_0
I0403 13:18:30.139653 31870 net.cpp:141] Setting up hdf5out
…
