…
I0403 13:14:15.544792 31753 net.cpp:313] The NetState phase (1) differed from the phase (0) specified by a rule in layer data
I0403 13:14:15.545094 31753 net.cpp:49] Initializing net from parameters: 
state {
  phase: TEST
}
layer {
  name: "data"
  type: "Data"
  top: "data"
  top: "label"
  include {
    phase: TEST
  }
  transform_param {
    crop_size: 227
    mean_file: "/home/mohanty/data/final_dataset/lmdb/segmented-60-40/mean.binaryproto"
  }
  data_param {
    source: "/home/mohanty/data/final_dataset/lmdb/segmented-60-40/test_db"
    batch_size: 100
    backend: LMDB
  }
}
layer {
  name: "conv1"
  type: "Convolution"
  bottom: "data"
  top: "conv1"
  param {
    lr_mult: 1
    decay_mult: 1
  }
  param {
    lr_mult: 2
    decay_mult: 0
  }
  convolution_param {
    num_output: 96
    kernel_size: 11
    stride: 4
    weight_filler {
      type: "gaussian"
      std: 0.01
    }
    bias_filler {
      type: "constant"
      value: 0
    }
  }
}
layer {
  name: "relu1"
  type: "ReLU"
  bottom: "conv1"
  top: "conv1"
}
layer {
  name: "norm1"
  type: "LRN"
  bottom: "conv1"
  top: "norm1"
  lrn_param {
    local_size: 5
    alpha: 0.0001
    beta: 0.75
  }
}
layer {
  name: "pool1"
  type: "Pooling"
  bottom: "norm1"
  top: "pool1"
  pooling_param {
    pool: MAX
    kernel_size: 3
    stride: 2
  }
}
layer {
  name: "conv2"
  type: "Convolution"
  bottom: "pool1"
  top: "conv2"
  param {
    lr_mult: 1
    decay_mult: 1
  }
  param {
    lr_mult: 2
    decay_mult: 0
  }
  convolution_param {
    num_output: 256
    pad: 2
    kernel_size: 5
    group: 2
    weight_filler {
      type: "gaussian"
      std: 0.01
    }
    bias_filler {
      type: "constant"
      value: 0.1
    }
  }
}
layer {
  name: "relu2"
  type: "ReLU"
  bottom: "conv2"
  top: "conv2"
}
layer {
  name: "norm2"
  type: "LRN"
  bottom: "conv2"
  top: "norm2"
  lrn_param {
    local_size: 5
    alpha: 0.0001
    beta: 0.75
  }
}
layer {
  name: "pool2"
  type: "Pooling"
  bottom: "norm2"
  top: "pool2"
  pooling_param {
    pool: MAX
    kernel_size: 3
    stride: 2
  }
}
layer {
  name: "conv3"
  type: "Convolution"
  bottom: "pool2"
  top: "conv3"
  param {
    lr_mult: 1
    decay_mult: 1
  }
  param {
    lr_mult: 2
    decay_mult: 0
  }
  convolution_param {
    num_output: 384
    pad: 1
    kernel_size: 3
    weight_filler {
      type: "gaussian"
      std: 0.01
    }
    bias_filler {
      type: "constant"
      value: 0
    }
  }
}
layer {
  name: "relu3"
  type: "ReLU"
  bottom: "conv3"
  top: "conv3"
}
layer {
  name: "conv4"
  type: "Convolution"
  bottom: "conv3"
  top: "conv4"
  param {
    lr_mult: 1
    decay_mult: 1
  }
  param {
    lr_mult: 2
    decay_mult: 0
  }
  convolution_param {
    num_output: 384
    pad: 1
    kernel_size: 3
    group: 2
    weight_filler {
      type: "gaussian"
      std: 0.01
    }
    bias_filler {
      type: "constant"
      value: 0.1
    }
  }
}
layer {
  name: "relu4"
  type: "ReLU"
  bottom: "conv4"
  top: "conv4"
}
layer {
  name: "conv5"
  type: "Convolution"
  bottom: "conv4"
  top: "conv5"
  param {
    lr_mult: 1
    decay_mult: 1
  }
  param {
    lr_mult: 2
    decay_mult: 0
  }
  convolution_param {
    num_output: 256
    pad: 1
    kernel_size: 3
    group: 2
    weight_filler {
      type: "gaussian"
      std: 0.01
    }
    bias_filler {
      type: "constant"
      value: 0.1
    }
  }
}
layer {
  name: "relu5"
  type: "ReLU"
  bottom: "conv5"
  top: "conv5"
}
layer {
  name: "pool5"
  type: "Pooling"
  bottom: "conv5"
  top: "pool5"
  pooling_param {
    pool: MAX
    kernel_size: 3
    stride: 2
  }
}
layer {
  name: "fc6"
  type: "InnerProduct"
  bottom: "pool5"
  top: "fc6"
  param {
    lr_mult: 1
    decay_mult: 1
  }
  param {
    lr_mult: 2
    decay_mult: 0
  }
  inner_product_param {
    num_output: 4096
    weight_filler {
      type: "gaussian"
      std: 0.005
    }
    bias_filler {
      type: "constant"
      value: 0.1
    }
  }
}
layer {
  name: "relu6"
  type: "ReLU"
  bottom: "fc6"
  top: "fc6"
}
layer {
  name: "drop6"
  type: "Dropout"
  bottom: "fc6"
  top: "fc6"
  dropout_param {
    dropout_ratio: 0.5
  }
}
layer {
  name: "fc7"
  type: "InnerProduct"
  bottom: "fc6"
  top: "fc7"
  param {
    lr_mult: 1
    decay_mult: 1
  }
  param {
    lr_mult: 2
    decay_mult: 0
  }
  inner_product_param {
    num_output: 4096
    weight_filler {
      type: "gaussian"
      std: 0.005
    }
    bias_filler {
      type: "constant"
      value: 0.1
    }
  }
}
layer {
  name: "relu7"
  type: "ReLU"
  bottom: "fc7"
  top: "fc7"
}
layer {
  name: "drop7"
  type: "Dropout"
  bottom: "fc7"
  top: "fc7"
  dropout_param {
    dropout_ratio: 0.5
  }
}
layer {
  name: "fc8_plantvillage"
  type: "InnerProduct"
  bottom: "fc7"
  top: "fc8_plantvillage"
  param {
    lr_mult: 1
    decay_mult: 1
  }
  param {
    lr_mult: 2
    decay_mult: 0
  }
  inner_product_param {
    num_output: 38
    weight_filler {
      type: "gaussian"
      std: 0.01
    }
    bias_filler {
      type: "constant"
      value: 0
    }
  }
}
layer {
  name: "prob"
  type: "Softmax"
  bottom: "fc8_plantvillage"
  top: "prob"
  include {
    phase: TEST
  }
}
layer {
  name: "hdf5out"
  type: "HDF5Output"
  bottom: "prob"
  bottom: "label"
  include {
    phase: TEST
  }
  hdf5_output_param {
    file_name: "hdf5_dumps/iter_4550.h5"
  }
}
layer {
  name: "loss"
  type: "SoftmaxWithLoss"
  bottom: "fc8_plantvillage"
  bottom: "label"
  top: "loss"
}
layer {
  name: "accuracy"
  type: "Accuracy"
  bottom: "fc8_plantvillage"
  bottom: "label"
  top: "accuracy"
  include {
    phase: TEST
  }
}
I0403 13:14:15.545650 31753 layer_factory.hpp:77] Creating layer data
I0403 13:14:15.546278 31753 net.cpp:91] Creating Layer data
I0403 13:14:15.546310 31753 net.cpp:399] data -> data
I0403 13:14:15.546361 31753 net.cpp:399] data -> label
I0403 13:14:15.546398 31753 data_transformer.cpp:25] Loading mean file from: /home/mohanty/data/final_dataset/lmdb/segmented-60-40/mean.binaryproto
I0403 13:14:15.549784 31756 db_lmdb.cpp:38] Opened lmdb /home/mohanty/data/final_dataset/lmdb/segmented-60-40/test_db
I0403 13:14:15.560454 31753 data_layer.cpp:41] output data size: 100,3,227,227
I0403 13:14:15.680663 31753 net.cpp:141] Setting up data
I0403 13:14:15.680771 31753 net.cpp:148] Top shape: 100 3 227 227 (15458700)
I0403 13:14:15.680793 31753 net.cpp:148] Top shape: 100 (100)
I0403 13:14:15.680809 31753 net.cpp:156] Memory required for data: 61835200
I0403 13:14:15.680835 31753 layer_factory.hpp:77] Creating layer label_data_1_split
I0403 13:14:15.680860 31753 net.cpp:91] Creating Layer label_data_1_split
I0403 13:14:15.680878 31753 net.cpp:425] label_data_1_split <- label
I0403 13:14:15.680909 31753 net.cpp:399] label_data_1_split -> label_data_1_split_0
I0403 13:14:15.680935 31753 net.cpp:399] label_data_1_split -> label_data_1_split_1
I0403 13:14:15.680956 31753 net.cpp:399] label_data_1_split -> label_data_1_split_2
I0403 13:14:15.681020 31753 net.cpp:141] Setting up label_data_1_split
I0403 13:14:15.681043 31753 net.cpp:148] Top shape: 100 (100)
I0403 13:14:15.681061 31753 net.cpp:148] Top shape: 100 (100)
I0403 13:14:15.681077 31753 net.cpp:148] Top shape: 100 (100)
I0403 13:14:15.681092 31753 net.cpp:156] Memory required for data: 61836400
I0403 13:14:15.681107 31753 layer_factory.hpp:77] Creating layer conv1
I0403 13:14:15.681138 31753 net.cpp:91] Creating Layer conv1
I0403 13:14:15.681156 31753 net.cpp:425] conv1 <- data
I0403 13:14:15.681175 31753 net.cpp:399] conv1 -> conv1
I0403 13:14:15.821121 31753 net.cpp:141] Setting up conv1
I0403 13:14:15.821208 31753 net.cpp:148] Top shape: 100 96 55 55 (29040000)
I0403 13:14:15.821226 31753 net.cpp:156] Memory required for data: 177996400
I0403 13:14:15.821262 31753 layer_factory.hpp:77] Creating layer relu1
I0403 13:14:15.821290 31753 net.cpp:91] Creating Layer relu1
I0403 13:14:15.821310 31753 net.cpp:425] relu1 <- conv1
I0403 13:14:15.821331 31753 net.cpp:386] relu1 -> conv1 (in-place)
I0403 13:14:15.821591 31753 net.cpp:141] Setting up relu1
I0403 13:14:15.821619 31753 net.cpp:148] Top shape: 100 96 55 55 (29040000)
I0403 13:14:15.821682 31753 net.cpp:156] Memory required for data: 294156400
I0403 13:14:15.821699 31753 layer_factory.hpp:77] Creating layer norm1
I0403 13:14:15.821727 31753 net.cpp:91] Creating Layer norm1
I0403 13:14:15.821748 31753 net.cpp:425] norm1 <- conv1
I0403 13:14:15.821766 31753 net.cpp:399] norm1 -> norm1
I0403 13:14:15.822084 31753 net.cpp:141] Setting up norm1
I0403 13:14:15.822113 31753 net.cpp:148] Top shape: 100 96 55 55 (29040000)
I0403 13:14:15.822141 31753 net.cpp:156] Memory required for data: 410316400
I0403 13:14:15.822157 31753 layer_factory.hpp:77] Creating layer pool1
I0403 13:14:15.822180 31753 net.cpp:91] Creating Layer pool1
I0403 13:14:15.822197 31753 net.cpp:425] pool1 <- norm1
I0403 13:14:15.822216 31753 net.cpp:399] pool1 -> pool1
I0403 13:14:15.822286 31753 net.cpp:141] Setting up pool1
I0403 13:14:15.822329 31753 net.cpp:148] Top shape: 100 96 27 27 (6998400)
I0403 13:14:15.822350 31753 net.cpp:156] Memory required for data: 438310000
I0403 13:14:15.822365 31753 layer_factory.hpp:77] Creating layer conv2
I0403 13:14:15.822389 31753 net.cpp:91] Creating Layer conv2
I0403 13:14:15.822405 31753 net.cpp:425] conv2 <- pool1
I0403 13:14:15.822423 31753 net.cpp:399] conv2 -> conv2
I0403 13:14:15.837597 31753 net.cpp:141] Setting up conv2
I0403 13:14:15.837656 31753 net.cpp:148] Top shape: 100 256 27 27 (18662400)
I0403 13:14:15.837672 31753 net.cpp:156] Memory required for data: 512959600
I0403 13:14:15.837695 31753 layer_factory.hpp:77] Creating layer relu2
I0403 13:14:15.837718 31753 net.cpp:91] Creating Layer relu2
I0403 13:14:15.837735 31753 net.cpp:425] relu2 <- conv2
I0403 13:14:15.837754 31753 net.cpp:386] relu2 -> conv2 (in-place)
I0403 13:14:15.838034 31753 net.cpp:141] Setting up relu2
I0403 13:14:15.838062 31753 net.cpp:148] Top shape: 100 256 27 27 (18662400)
I0403 13:14:15.838078 31753 net.cpp:156] Memory required for data: 587609200
I0403 13:14:15.838093 31753 layer_factory.hpp:77] Creating layer norm2
I0403 13:14:15.838116 31753 net.cpp:91] Creating Layer norm2
I0403 13:14:15.838135 31753 net.cpp:425] norm2 <- conv2
I0403 13:14:15.838155 31753 net.cpp:399] norm2 -> norm2
I0403 13:14:15.838358 31753 net.cpp:141] Setting up norm2
I0403 13:14:15.838385 31753 net.cpp:148] Top shape: 100 256 27 27 (18662400)
I0403 13:14:15.838400 31753 net.cpp:156] Memory required for data: 662258800
I0403 13:14:15.838415 31753 layer_factory.hpp:77] Creating layer pool2
I0403 13:14:15.838435 31753 net.cpp:91] Creating Layer pool2
I0403 13:14:15.838457 31753 net.cpp:425] pool2 <- norm2
I0403 13:14:15.838475 31753 net.cpp:399] pool2 -> pool2
I0403 13:14:15.838529 31753 net.cpp:141] Setting up pool2
I0403 13:14:15.838552 31753 net.cpp:148] Top shape: 100 256 13 13 (4326400)
I0403 13:14:15.838567 31753 net.cpp:156] Memory required for data: 679564400
I0403 13:14:15.838582 31753 layer_factory.hpp:77] Creating layer conv3
I0403 13:14:15.838606 31753 net.cpp:91] Creating Layer conv3
I0403 13:14:15.838624 31753 net.cpp:425] conv3 <- pool2
I0403 13:14:15.838645 31753 net.cpp:399] conv3 -> conv3
I0403 13:14:15.877640 31753 net.cpp:141] Setting up conv3
I0403 13:14:15.877722 31753 net.cpp:148] Top shape: 100 384 13 13 (6489600)
I0403 13:14:15.877739 31753 net.cpp:156] Memory required for data: 705522800
I0403 13:14:15.877765 31753 layer_factory.hpp:77] Creating layer relu3
I0403 13:14:15.877790 31753 net.cpp:91] Creating Layer relu3
I0403 13:14:15.877810 31753 net.cpp:425] relu3 <- conv3
I0403 13:14:15.877828 31753 net.cpp:386] relu3 -> conv3 (in-place)
I0403 13:14:15.878109 31753 net.cpp:141] Setting up relu3
I0403 13:14:15.878137 31753 net.cpp:148] Top shape: 100 384 13 13 (6489600)
I0403 13:14:15.878156 31753 net.cpp:156] Memory required for data: 731481200
I0403 13:14:15.878172 31753 layer_factory.hpp:77] Creating layer conv4
I0403 13:14:15.878201 31753 net.cpp:91] Creating Layer conv4
I0403 13:14:15.878218 31753 net.cpp:425] conv4 <- conv3
I0403 13:14:15.878243 31753 net.cpp:399] conv4 -> conv4
I0403 13:14:15.908627 31753 net.cpp:141] Setting up conv4
I0403 13:14:15.908707 31753 net.cpp:148] Top shape: 100 384 13 13 (6489600)
I0403 13:14:15.908757 31753 net.cpp:156] Memory required for data: 757439600
I0403 13:14:15.908781 31753 layer_factory.hpp:77] Creating layer relu4
I0403 13:14:15.908803 31753 net.cpp:91] Creating Layer relu4
I0403 13:14:15.908821 31753 net.cpp:425] relu4 <- conv4
I0403 13:14:15.908843 31753 net.cpp:386] relu4 -> conv4 (in-place)
I0403 13:14:15.909171 31753 net.cpp:141] Setting up relu4
I0403 13:14:15.909199 31753 net.cpp:148] Top shape: 100 384 13 13 (6489600)
I0403 13:14:15.909216 31753 net.cpp:156] Memory required for data: 783398000
I0403 13:14:15.909232 31753 layer_factory.hpp:77] Creating layer conv5
I0403 13:14:15.909263 31753 net.cpp:91] Creating Layer conv5
I0403 13:14:15.909281 31753 net.cpp:425] conv5 <- conv4
I0403 13:14:15.909304 31753 net.cpp:399] conv5 -> conv5
I0403 13:14:15.930225 31753 net.cpp:141] Setting up conv5
I0403 13:14:15.930289 31753 net.cpp:148] Top shape: 100 256 13 13 (4326400)
I0403 13:14:15.930306 31753 net.cpp:156] Memory required for data: 800703600
I0403 13:14:15.930333 31753 layer_factory.hpp:77] Creating layer relu5
I0403 13:14:15.930356 31753 net.cpp:91] Creating Layer relu5
I0403 13:14:15.930374 31753 net.cpp:425] relu5 <- conv5
I0403 13:14:15.930394 31753 net.cpp:386] relu5 -> conv5 (in-place)
I0403 13:14:15.930680 31753 net.cpp:141] Setting up relu5
I0403 13:14:15.930706 31753 net.cpp:148] Top shape: 100 256 13 13 (4326400)
I0403 13:14:15.930721 31753 net.cpp:156] Memory required for data: 818009200
I0403 13:14:15.930737 31753 layer_factory.hpp:77] Creating layer pool5
I0403 13:14:15.930765 31753 net.cpp:91] Creating Layer pool5
I0403 13:14:15.930845 31753 net.cpp:425] pool5 <- conv5
I0403 13:14:15.930869 31753 net.cpp:399] pool5 -> pool5
I0403 13:14:15.930938 31753 net.cpp:141] Setting up pool5
I0403 13:14:15.930961 31753 net.cpp:148] Top shape: 100 256 6 6 (921600)
I0403 13:14:15.930976 31753 net.cpp:156] Memory required for data: 821695600
I0403 13:14:15.930991 31753 layer_factory.hpp:77] Creating layer fc6
I0403 13:14:15.931018 31753 net.cpp:91] Creating Layer fc6
I0403 13:14:15.931036 31753 net.cpp:425] fc6 <- pool5
I0403 13:14:15.931058 31753 net.cpp:399] fc6 -> fc6
I0403 13:14:17.534564 31753 net.cpp:141] Setting up fc6
I0403 13:14:17.534605 31753 net.cpp:148] Top shape: 100 4096 (409600)
I0403 13:14:17.534621 31753 net.cpp:156] Memory required for data: 823334000
I0403 13:14:17.534642 31753 layer_factory.hpp:77] Creating layer relu6
I0403 13:14:17.534664 31753 net.cpp:91] Creating Layer relu6
I0403 13:14:17.534683 31753 net.cpp:425] relu6 <- fc6
I0403 13:14:17.534703 31753 net.cpp:386] relu6 -> fc6 (in-place)
I0403 13:14:17.534926 31753 net.cpp:141] Setting up relu6
I0403 13:14:17.534952 31753 net.cpp:148] Top shape: 100 4096 (409600)
I0403 13:14:17.534966 31753 net.cpp:156] Memory required for data: 824972400
I0403 13:14:17.534982 31753 layer_factory.hpp:77] Creating layer drop6
I0403 13:14:17.535001 31753 net.cpp:91] Creating Layer drop6
I0403 13:14:17.535018 31753 net.cpp:425] drop6 <- fc6
I0403 13:14:17.535037 31753 net.cpp:386] drop6 -> fc6 (in-place)
I0403 13:14:17.535089 31753 net.cpp:141] Setting up drop6
I0403 13:14:17.535115 31753 net.cpp:148] Top shape: 100 4096 (409600)
I0403 13:14:17.535130 31753 net.cpp:156] Memory required for data: 826610800
I0403 13:14:17.535145 31753 layer_factory.hpp:77] Creating layer fc7
I0403 13:14:17.535166 31753 net.cpp:91] Creating Layer fc7
I0403 13:14:17.535181 31753 net.cpp:425] fc7 <- fc6
I0403 13:14:17.535202 31753 net.cpp:399] fc7 -> fc7
I0403 13:14:18.230886 31753 net.cpp:141] Setting up fc7
I0403 13:14:18.230975 31753 net.cpp:148] Top shape: 100 4096 (409600)
I0403 13:14:18.230991 31753 net.cpp:156] Memory required for data: 828249200
I0403 13:14:18.231012 31753 layer_factory.hpp:77] Creating layer relu7
I0403 13:14:18.231034 31753 net.cpp:91] Creating Layer relu7
I0403 13:14:18.231051 31753 net.cpp:425] relu7 <- fc7
I0403 13:14:18.231073 31753 net.cpp:386] relu7 -> fc7 (in-place)
I0403 13:14:18.231500 31753 net.cpp:141] Setting up relu7
I0403 13:14:18.231526 31753 net.cpp:148] Top shape: 100 4096 (409600)
I0403 13:14:18.231573 31753 net.cpp:156] Memory required for data: 829887600
I0403 13:14:18.231590 31753 layer_factory.hpp:77] Creating layer drop7
I0403 13:14:18.231609 31753 net.cpp:91] Creating Layer drop7
I0403 13:14:18.231626 31753 net.cpp:425] drop7 <- fc7
I0403 13:14:18.231647 31753 net.cpp:386] drop7 -> fc7 (in-place)
I0403 13:14:18.231689 31753 net.cpp:141] Setting up drop7
I0403 13:14:18.231714 31753 net.cpp:148] Top shape: 100 4096 (409600)
I0403 13:14:18.231730 31753 net.cpp:156] Memory required for data: 831526000
I0403 13:14:18.231745 31753 layer_factory.hpp:77] Creating layer fc8_plantvillage
I0403 13:14:18.231763 31753 net.cpp:91] Creating Layer fc8_plantvillage
I0403 13:14:18.231778 31753 net.cpp:425] fc8_plantvillage <- fc7
I0403 13:14:18.231799 31753 net.cpp:399] fc8_plantvillage -> fc8_plantvillage
I0403 13:14:18.238505 31753 net.cpp:141] Setting up fc8_plantvillage
I0403 13:14:18.238533 31753 net.cpp:148] Top shape: 100 38 (3800)
I0403 13:14:18.238548 31753 net.cpp:156] Memory required for data: 831541200
I0403 13:14:18.238566 31753 layer_factory.hpp:77] Creating layer fc8_plantvillage_fc8_plantvillage_0_split
I0403 13:14:18.238587 31753 net.cpp:91] Creating Layer fc8_plantvillage_fc8_plantvillage_0_split
I0403 13:14:18.238603 31753 net.cpp:425] fc8_plantvillage_fc8_plantvillage_0_split <- fc8_plantvillage
I0403 13:14:18.238621 31753 net.cpp:399] fc8_plantvillage_fc8_plantvillage_0_split -> fc8_plantvillage_fc8_plantvillage_0_split_0
I0403 13:14:18.238641 31753 net.cpp:399] fc8_plantvillage_fc8_plantvillage_0_split -> fc8_plantvillage_fc8_plantvillage_0_split_1
I0403 13:14:18.238663 31753 net.cpp:399] fc8_plantvillage_fc8_plantvillage_0_split -> fc8_plantvillage_fc8_plantvillage_0_split_2
I0403 13:14:18.238741 31753 net.cpp:141] Setting up fc8_plantvillage_fc8_plantvillage_0_split
I0403 13:14:18.238765 31753 net.cpp:148] Top shape: 100 38 (3800)
I0403 13:14:18.238780 31753 net.cpp:148] Top shape: 100 38 (3800)
I0403 13:14:18.238795 31753 net.cpp:148] Top shape: 100 38 (3800)
I0403 13:14:18.238808 31753 net.cpp:156] Memory required for data: 831586800
I0403 13:14:18.238822 31753 layer_factory.hpp:77] Creating layer prob
I0403 13:14:18.238840 31753 net.cpp:91] Creating Layer prob
I0403 13:14:18.238855 31753 net.cpp:425] prob <- fc8_plantvillage_fc8_plantvillage_0_split_0
I0403 13:14:18.238873 31753 net.cpp:399] prob -> prob
I0403 13:14:18.239097 31753 net.cpp:141] Setting up prob
I0403 13:14:18.239122 31753 net.cpp:148] Top shape: 100 38 (3800)
I0403 13:14:18.239137 31753 net.cpp:156] Memory required for data: 831602000
I0403 13:14:18.239152 31753 layer_factory.hpp:77] Creating layer hdf5out
I0403 13:14:18.239171 31753 net.cpp:91] Creating Layer hdf5out
I0403 13:14:18.239187 31753 net.cpp:425] hdf5out <- prob
I0403 13:14:18.239202 31753 net.cpp:425] hdf5out <- label_data_1_split_0
I0403 13:14:18.241483 31753 net.cpp:141] Setting up hdf5out
…
