…
I0403 13:19:09.070799 31902 net.cpp:313] The NetState phase (1) differed from the phase (0) specified by a rule in layer data
I0403 13:19:09.071111 31902 net.cpp:49] Initializing net from parameters: 
state {
  phase: TEST
}
layer {
  name: "data"
  type: "Data"
  top: "data"
  top: "label"
  include {
    phase: TEST
  }
  transform_param {
    crop_size: 227
    mean_file: "/home/mohanty/data/final_dataset/lmdb/segmented-60-40/mean.binaryproto"
  }
  data_param {
    source: "/home/mohanty/data/final_dataset/lmdb/segmented-60-40/test_db"
    batch_size: 100
    backend: LMDB
  }
}
layer {
  name: "conv1"
  type: "Convolution"
  bottom: "data"
  top: "conv1"
  param {
    lr_mult: 1
    decay_mult: 1
  }
  param {
    lr_mult: 2
    decay_mult: 0
  }
  convolution_param {
    num_output: 96
    kernel_size: 11
    stride: 4
    weight_filler {
      type: "gaussian"
      std: 0.01
    }
    bias_filler {
      type: "constant"
      value: 0
    }
  }
}
layer {
  name: "relu1"
  type: "ReLU"
  bottom: "conv1"
  top: "conv1"
}
layer {
  name: "norm1"
  type: "LRN"
  bottom: "conv1"
  top: "norm1"
  lrn_param {
    local_size: 5
    alpha: 0.0001
    beta: 0.75
  }
}
layer {
  name: "pool1"
  type: "Pooling"
  bottom: "norm1"
  top: "pool1"
  pooling_param {
    pool: MAX
    kernel_size: 3
    stride: 2
  }
}
layer {
  name: "conv2"
  type: "Convolution"
  bottom: "pool1"
  top: "conv2"
  param {
    lr_mult: 1
    decay_mult: 1
  }
  param {
    lr_mult: 2
    decay_mult: 0
  }
  convolution_param {
    num_output: 256
    pad: 2
    kernel_size: 5
    group: 2
    weight_filler {
      type: "gaussian"
      std: 0.01
    }
    bias_filler {
      type: "constant"
      value: 0.1
    }
  }
}
layer {
  name: "relu2"
  type: "ReLU"
  bottom: "conv2"
  top: "conv2"
}
layer {
  name: "norm2"
  type: "LRN"
  bottom: "conv2"
  top: "norm2"
  lrn_param {
    local_size: 5
    alpha: 0.0001
    beta: 0.75
  }
}
layer {
  name: "pool2"
  type: "Pooling"
  bottom: "norm2"
  top: "pool2"
  pooling_param {
    pool: MAX
    kernel_size: 3
    stride: 2
  }
}
layer {
  name: "conv3"
  type: "Convolution"
  bottom: "pool2"
  top: "conv3"
  param {
    lr_mult: 1
    decay_mult: 1
  }
  param {
    lr_mult: 2
    decay_mult: 0
  }
  convolution_param {
    num_output: 384
    pad: 1
    kernel_size: 3
    weight_filler {
      type: "gaussian"
      std: 0.01
    }
    bias_filler {
      type: "constant"
      value: 0
    }
  }
}
layer {
  name: "relu3"
  type: "ReLU"
  bottom: "conv3"
  top: "conv3"
}
layer {
  name: "conv4"
  type: "Convolution"
  bottom: "conv3"
  top: "conv4"
  param {
    lr_mult: 1
    decay_mult: 1
  }
  param {
    lr_mult: 2
    decay_mult: 0
  }
  convolution_param {
    num_output: 384
    pad: 1
    kernel_size: 3
    group: 2
    weight_filler {
      type: "gaussian"
      std: 0.01
    }
    bias_filler {
      type: "constant"
      value: 0.1
    }
  }
}
layer {
  name: "relu4"
  type: "ReLU"
  bottom: "conv4"
  top: "conv4"
}
layer {
  name: "conv5"
  type: "Convolution"
  bottom: "conv4"
  top: "conv5"
  param {
    lr_mult: 1
    decay_mult: 1
  }
  param {
    lr_mult: 2
    decay_mult: 0
  }
  convolution_param {
    num_output: 256
    pad: 1
    kernel_size: 3
    group: 2
    weight_filler {
      type: "gaussian"
      std: 0.01
    }
    bias_filler {
      type: "constant"
      value: 0.1
    }
  }
}
layer {
  name: "relu5"
  type: "ReLU"
  bottom: "conv5"
  top: "conv5"
}
layer {
  name: "pool5"
  type: "Pooling"
  bottom: "conv5"
  top: "pool5"
  pooling_param {
    pool: MAX
    kernel_size: 3
    stride: 2
  }
}
layer {
  name: "fc6"
  type: "InnerProduct"
  bottom: "pool5"
  top: "fc6"
  param {
    lr_mult: 1
    decay_mult: 1
  }
  param {
    lr_mult: 2
    decay_mult: 0
  }
  inner_product_param {
    num_output: 4096
    weight_filler {
      type: "gaussian"
      std: 0.005
    }
    bias_filler {
      type: "constant"
      value: 0.1
    }
  }
}
layer {
  name: "relu6"
  type: "ReLU"
  bottom: "fc6"
  top: "fc6"
}
layer {
  name: "drop6"
  type: "Dropout"
  bottom: "fc6"
  top: "fc6"
  dropout_param {
    dropout_ratio: 0.5
  }
}
layer {
  name: "fc7"
  type: "InnerProduct"
  bottom: "fc6"
  top: "fc7"
  param {
    lr_mult: 1
    decay_mult: 1
  }
  param {
    lr_mult: 2
    decay_mult: 0
  }
  inner_product_param {
    num_output: 4096
    weight_filler {
      type: "gaussian"
      std: 0.005
    }
    bias_filler {
      type: "constant"
      value: 0.1
    }
  }
}
layer {
  name: "relu7"
  type: "ReLU"
  bottom: "fc7"
  top: "fc7"
}
layer {
  name: "drop7"
  type: "Dropout"
  bottom: "fc7"
  top: "fc7"
  dropout_param {
    dropout_ratio: 0.5
  }
}
layer {
  name: "fc8_plantvillage"
  type: "InnerProduct"
  bottom: "fc7"
  top: "fc8_plantvillage"
  param {
    lr_mult: 1
    decay_mult: 1
  }
  param {
    lr_mult: 2
    decay_mult: 0
  }
  inner_product_param {
    num_output: 38
    weight_filler {
      type: "gaussian"
      std: 0.01
    }
    bias_filler {
      type: "constant"
      value: 0
    }
  }
}
layer {
  name: "prob"
  type: "Softmax"
  bottom: "fc8_plantvillage"
  top: "prob"
  include {
    phase: TEST
  }
}
layer {
  name: "hdf5out"
  type: "HDF5Output"
  bottom: "prob"
  bottom: "label"
  include {
    phase: TEST
  }
  hdf5_output_param {
    file_name: "hdf5_dumps/iter_6825.h5"
  }
}
layer {
  name: "loss"
  type: "SoftmaxWithLoss"
  bottom: "fc8_plantvillage"
  bottom: "label"
  top: "loss"
}
layer {
  name: "accuracy"
  type: "Accuracy"
  bottom: "fc8_plantvillage"
  bottom: "label"
  top: "accuracy"
  include {
    phase: TEST
  }
}
I0403 13:19:09.071816 31902 layer_factory.hpp:77] Creating layer data
I0403 13:19:09.072485 31902 net.cpp:91] Creating Layer data
I0403 13:19:09.072520 31902 net.cpp:399] data -> data
I0403 13:19:09.072571 31902 net.cpp:399] data -> label
I0403 13:19:09.072608 31902 data_transformer.cpp:25] Loading mean file from: /home/mohanty/data/final_dataset/lmdb/segmented-60-40/mean.binaryproto
I0403 13:19:09.075624 31905 db_lmdb.cpp:38] Opened lmdb /home/mohanty/data/final_dataset/lmdb/segmented-60-40/test_db
I0403 13:19:09.086882 31902 data_layer.cpp:41] output data size: 100,3,227,227
I0403 13:19:09.207021 31902 net.cpp:141] Setting up data
I0403 13:19:09.207129 31902 net.cpp:148] Top shape: 100 3 227 227 (15458700)
I0403 13:19:09.207150 31902 net.cpp:148] Top shape: 100 (100)
I0403 13:19:09.207166 31902 net.cpp:156] Memory required for data: 61835200
I0403 13:19:09.207193 31902 layer_factory.hpp:77] Creating layer label_data_1_split
I0403 13:19:09.207219 31902 net.cpp:91] Creating Layer label_data_1_split
I0403 13:19:09.207238 31902 net.cpp:425] label_data_1_split <- label
I0403 13:19:09.207274 31902 net.cpp:399] label_data_1_split -> label_data_1_split_0
I0403 13:19:09.207303 31902 net.cpp:399] label_data_1_split -> label_data_1_split_1
I0403 13:19:09.207324 31902 net.cpp:399] label_data_1_split -> label_data_1_split_2
I0403 13:19:09.207386 31902 net.cpp:141] Setting up label_data_1_split
I0403 13:19:09.207409 31902 net.cpp:148] Top shape: 100 (100)
I0403 13:19:09.207427 31902 net.cpp:148] Top shape: 100 (100)
I0403 13:19:09.207442 31902 net.cpp:148] Top shape: 100 (100)
I0403 13:19:09.207456 31902 net.cpp:156] Memory required for data: 61836400
I0403 13:19:09.207471 31902 layer_factory.hpp:77] Creating layer conv1
I0403 13:19:09.207504 31902 net.cpp:91] Creating Layer conv1
I0403 13:19:09.207521 31902 net.cpp:425] conv1 <- data
I0403 13:19:09.207541 31902 net.cpp:399] conv1 -> conv1
I0403 13:19:09.349115 31902 net.cpp:141] Setting up conv1
I0403 13:19:09.349205 31902 net.cpp:148] Top shape: 100 96 55 55 (29040000)
I0403 13:19:09.349223 31902 net.cpp:156] Memory required for data: 177996400
I0403 13:19:09.349254 31902 layer_factory.hpp:77] Creating layer relu1
I0403 13:19:09.349287 31902 net.cpp:91] Creating Layer relu1
I0403 13:19:09.349306 31902 net.cpp:425] relu1 <- conv1
I0403 13:19:09.349326 31902 net.cpp:386] relu1 -> conv1 (in-place)
I0403 13:19:09.349601 31902 net.cpp:141] Setting up relu1
I0403 13:19:09.349628 31902 net.cpp:148] Top shape: 100 96 55 55 (29040000)
I0403 13:19:09.349683 31902 net.cpp:156] Memory required for data: 294156400
I0403 13:19:09.349699 31902 layer_factory.hpp:77] Creating layer norm1
I0403 13:19:09.349728 31902 net.cpp:91] Creating Layer norm1
I0403 13:19:09.349747 31902 net.cpp:425] norm1 <- conv1
I0403 13:19:09.349766 31902 net.cpp:399] norm1 -> norm1
I0403 13:19:09.350116 31902 net.cpp:141] Setting up norm1
I0403 13:19:09.350144 31902 net.cpp:148] Top shape: 100 96 55 55 (29040000)
I0403 13:19:09.350160 31902 net.cpp:156] Memory required for data: 410316400
I0403 13:19:09.350177 31902 layer_factory.hpp:77] Creating layer pool1
I0403 13:19:09.350200 31902 net.cpp:91] Creating Layer pool1
I0403 13:19:09.350219 31902 net.cpp:425] pool1 <- norm1
I0403 13:19:09.350237 31902 net.cpp:399] pool1 -> pool1
I0403 13:19:09.350311 31902 net.cpp:141] Setting up pool1
I0403 13:19:09.350335 31902 net.cpp:148] Top shape: 100 96 27 27 (6998400)
I0403 13:19:09.350350 31902 net.cpp:156] Memory required for data: 438310000
I0403 13:19:09.350366 31902 layer_factory.hpp:77] Creating layer conv2
I0403 13:19:09.350392 31902 net.cpp:91] Creating Layer conv2
I0403 13:19:09.350409 31902 net.cpp:425] conv2 <- pool1
I0403 13:19:09.350428 31902 net.cpp:399] conv2 -> conv2
I0403 13:19:09.366003 31902 net.cpp:141] Setting up conv2
I0403 13:19:09.366060 31902 net.cpp:148] Top shape: 100 256 27 27 (18662400)
I0403 13:19:09.366077 31902 net.cpp:156] Memory required for data: 512959600
I0403 13:19:09.366101 31902 layer_factory.hpp:77] Creating layer relu2
I0403 13:19:09.366122 31902 net.cpp:91] Creating Layer relu2
I0403 13:19:09.366140 31902 net.cpp:425] relu2 <- conv2
I0403 13:19:09.366159 31902 net.cpp:386] relu2 -> conv2 (in-place)
I0403 13:19:09.366452 31902 net.cpp:141] Setting up relu2
I0403 13:19:09.366480 31902 net.cpp:148] Top shape: 100 256 27 27 (18662400)
I0403 13:19:09.366495 31902 net.cpp:156] Memory required for data: 587609200
I0403 13:19:09.366511 31902 layer_factory.hpp:77] Creating layer norm2
I0403 13:19:09.366533 31902 net.cpp:91] Creating Layer norm2
I0403 13:19:09.366549 31902 net.cpp:425] norm2 <- conv2
I0403 13:19:09.366570 31902 net.cpp:399] norm2 -> norm2
I0403 13:19:09.366758 31902 net.cpp:141] Setting up norm2
I0403 13:19:09.366785 31902 net.cpp:148] Top shape: 100 256 27 27 (18662400)
I0403 13:19:09.366801 31902 net.cpp:156] Memory required for data: 662258800
I0403 13:19:09.366816 31902 layer_factory.hpp:77] Creating layer pool2
I0403 13:19:09.366834 31902 net.cpp:91] Creating Layer pool2
I0403 13:19:09.366850 31902 net.cpp:425] pool2 <- norm2
I0403 13:19:09.366869 31902 net.cpp:399] pool2 -> pool2
I0403 13:19:09.366921 31902 net.cpp:141] Setting up pool2
I0403 13:19:09.366966 31902 net.cpp:148] Top shape: 100 256 13 13 (4326400)
I0403 13:19:09.366983 31902 net.cpp:156] Memory required for data: 679564400
I0403 13:19:09.366998 31902 layer_factory.hpp:77] Creating layer conv3
I0403 13:19:09.367022 31902 net.cpp:91] Creating Layer conv3
I0403 13:19:09.367038 31902 net.cpp:425] conv3 <- pool2
I0403 13:19:09.367056 31902 net.cpp:399] conv3 -> conv3
I0403 13:19:09.407124 31902 net.cpp:141] Setting up conv3
I0403 13:19:09.407210 31902 net.cpp:148] Top shape: 100 384 13 13 (6489600)
I0403 13:19:09.407228 31902 net.cpp:156] Memory required for data: 705522800
I0403 13:19:09.407254 31902 layer_factory.hpp:77] Creating layer relu3
I0403 13:19:09.407281 31902 net.cpp:91] Creating Layer relu3
I0403 13:19:09.407301 31902 net.cpp:425] relu3 <- conv3
I0403 13:19:09.407325 31902 net.cpp:386] relu3 -> conv3 (in-place)
I0403 13:19:09.407675 31902 net.cpp:141] Setting up relu3
I0403 13:19:09.407704 31902 net.cpp:148] Top shape: 100 384 13 13 (6489600)
I0403 13:19:09.407721 31902 net.cpp:156] Memory required for data: 731481200
I0403 13:19:09.407737 31902 layer_factory.hpp:77] Creating layer conv4
I0403 13:19:09.407763 31902 net.cpp:91] Creating Layer conv4
I0403 13:19:09.407783 31902 net.cpp:425] conv4 <- conv3
I0403 13:19:09.407804 31902 net.cpp:399] conv4 -> conv4
I0403 13:19:09.439220 31902 net.cpp:141] Setting up conv4
I0403 13:19:09.439308 31902 net.cpp:148] Top shape: 100 384 13 13 (6489600)
I0403 13:19:09.439360 31902 net.cpp:156] Memory required for data: 757439600
I0403 13:19:09.439384 31902 layer_factory.hpp:77] Creating layer relu4
I0403 13:19:09.439407 31902 net.cpp:91] Creating Layer relu4
I0403 13:19:09.439426 31902 net.cpp:425] relu4 <- conv4
I0403 13:19:09.439450 31902 net.cpp:386] relu4 -> conv4 (in-place)
I0403 13:19:09.439774 31902 net.cpp:141] Setting up relu4
I0403 13:19:09.439805 31902 net.cpp:148] Top shape: 100 384 13 13 (6489600)
I0403 13:19:09.439821 31902 net.cpp:156] Memory required for data: 783398000
I0403 13:19:09.439838 31902 layer_factory.hpp:77] Creating layer conv5
I0403 13:19:09.439865 31902 net.cpp:91] Creating Layer conv5
I0403 13:19:09.439884 31902 net.cpp:425] conv5 <- conv4
I0403 13:19:09.439904 31902 net.cpp:399] conv5 -> conv5
I0403 13:19:09.461510 31902 net.cpp:141] Setting up conv5
I0403 13:19:09.461575 31902 net.cpp:148] Top shape: 100 256 13 13 (4326400)
I0403 13:19:09.461592 31902 net.cpp:156] Memory required for data: 800703600
I0403 13:19:09.461618 31902 layer_factory.hpp:77] Creating layer relu5
I0403 13:19:09.461640 31902 net.cpp:91] Creating Layer relu5
I0403 13:19:09.461658 31902 net.cpp:425] relu5 <- conv5
I0403 13:19:09.461679 31902 net.cpp:386] relu5 -> conv5 (in-place)
I0403 13:19:09.461971 31902 net.cpp:141] Setting up relu5
I0403 13:19:09.461999 31902 net.cpp:148] Top shape: 100 256 13 13 (4326400)
I0403 13:19:09.462015 31902 net.cpp:156] Memory required for data: 818009200
I0403 13:19:09.462031 31902 layer_factory.hpp:77] Creating layer pool5
I0403 13:19:09.462056 31902 net.cpp:91] Creating Layer pool5
I0403 13:19:09.462074 31902 net.cpp:425] pool5 <- conv5
I0403 13:19:09.462093 31902 net.cpp:399] pool5 -> pool5
I0403 13:19:09.462221 31902 net.cpp:141] Setting up pool5
I0403 13:19:09.462247 31902 net.cpp:148] Top shape: 100 256 6 6 (921600)
I0403 13:19:09.462263 31902 net.cpp:156] Memory required for data: 821695600
I0403 13:19:09.462285 31902 layer_factory.hpp:77] Creating layer fc6
I0403 13:19:09.462312 31902 net.cpp:91] Creating Layer fc6
I0403 13:19:09.462332 31902 net.cpp:425] fc6 <- pool5
I0403 13:19:09.462354 31902 net.cpp:399] fc6 -> fc6
I0403 13:19:11.038776 31902 net.cpp:141] Setting up fc6
I0403 13:19:11.038857 31902 net.cpp:148] Top shape: 100 4096 (409600)
I0403 13:19:11.038875 31902 net.cpp:156] Memory required for data: 823334000
I0403 13:19:11.038898 31902 layer_factory.hpp:77] Creating layer relu6
I0403 13:19:11.038924 31902 net.cpp:91] Creating Layer relu6
I0403 13:19:11.038944 31902 net.cpp:425] relu6 <- fc6
I0403 13:19:11.038964 31902 net.cpp:386] relu6 -> fc6 (in-place)
I0403 13:19:11.039193 31902 net.cpp:141] Setting up relu6
I0403 13:19:11.039222 31902 net.cpp:148] Top shape: 100 4096 (409600)
I0403 13:19:11.039237 31902 net.cpp:156] Memory required for data: 824972400
I0403 13:19:11.039252 31902 layer_factory.hpp:77] Creating layer drop6
I0403 13:19:11.039278 31902 net.cpp:91] Creating Layer drop6
I0403 13:19:11.039295 31902 net.cpp:425] drop6 <- fc6
I0403 13:19:11.039319 31902 net.cpp:386] drop6 -> fc6 (in-place)
I0403 13:19:11.039373 31902 net.cpp:141] Setting up drop6
I0403 13:19:11.039402 31902 net.cpp:148] Top shape: 100 4096 (409600)
I0403 13:19:11.039418 31902 net.cpp:156] Memory required for data: 826610800
I0403 13:19:11.039434 31902 layer_factory.hpp:77] Creating layer fc7
I0403 13:19:11.039454 31902 net.cpp:91] Creating Layer fc7
I0403 13:19:11.039472 31902 net.cpp:425] fc7 <- fc6
I0403 13:19:11.039494 31902 net.cpp:399] fc7 -> fc7
I0403 13:19:11.747870 31902 net.cpp:141] Setting up fc7
I0403 13:19:11.747947 31902 net.cpp:148] Top shape: 100 4096 (409600)
I0403 13:19:11.747964 31902 net.cpp:156] Memory required for data: 828249200
I0403 13:19:11.747985 31902 layer_factory.hpp:77] Creating layer relu7
I0403 13:19:11.748008 31902 net.cpp:91] Creating Layer relu7
I0403 13:19:11.748025 31902 net.cpp:425] relu7 <- fc7
I0403 13:19:11.748047 31902 net.cpp:386] relu7 -> fc7 (in-place)
I0403 13:19:11.748473 31902 net.cpp:141] Setting up relu7
I0403 13:19:11.748499 31902 net.cpp:148] Top shape: 100 4096 (409600)
I0403 13:19:11.748544 31902 net.cpp:156] Memory required for data: 829887600
I0403 13:19:11.748559 31902 layer_factory.hpp:77] Creating layer drop7
I0403 13:19:11.748577 31902 net.cpp:91] Creating Layer drop7
I0403 13:19:11.748592 31902 net.cpp:425] drop7 <- fc7
I0403 13:19:11.748612 31902 net.cpp:386] drop7 -> fc7 (in-place)
I0403 13:19:11.748654 31902 net.cpp:141] Setting up drop7
I0403 13:19:11.748675 31902 net.cpp:148] Top shape: 100 4096 (409600)
I0403 13:19:11.748689 31902 net.cpp:156] Memory required for data: 831526000
I0403 13:19:11.748703 31902 layer_factory.hpp:77] Creating layer fc8_plantvillage
I0403 13:19:11.748724 31902 net.cpp:91] Creating Layer fc8_plantvillage
I0403 13:19:11.748740 31902 net.cpp:425] fc8_plantvillage <- fc7
I0403 13:19:11.748759 31902 net.cpp:399] fc8_plantvillage -> fc8_plantvillage
I0403 13:19:11.755539 31902 net.cpp:141] Setting up fc8_plantvillage
I0403 13:19:11.755566 31902 net.cpp:148] Top shape: 100 38 (3800)
I0403 13:19:11.755581 31902 net.cpp:156] Memory required for data: 831541200
I0403 13:19:11.755599 31902 layer_factory.hpp:77] Creating layer fc8_plantvillage_fc8_plantvillage_0_split
I0403 13:19:11.755619 31902 net.cpp:91] Creating Layer fc8_plantvillage_fc8_plantvillage_0_split
I0403 13:19:11.755633 31902 net.cpp:425] fc8_plantvillage_fc8_plantvillage_0_split <- fc8_plantvillage
I0403 13:19:11.755655 31902 net.cpp:399] fc8_plantvillage_fc8_plantvillage_0_split -> fc8_plantvillage_fc8_plantvillage_0_split_0
I0403 13:19:11.755676 31902 net.cpp:399] fc8_plantvillage_fc8_plantvillage_0_split -> fc8_plantvillage_fc8_plantvillage_0_split_1
I0403 13:19:11.755695 31902 net.cpp:399] fc8_plantvillage_fc8_plantvillage_0_split -> fc8_plantvillage_fc8_plantvillage_0_split_2
I0403 13:19:11.755771 31902 net.cpp:141] Setting up fc8_plantvillage_fc8_plantvillage_0_split
I0403 13:19:11.755795 31902 net.cpp:148] Top shape: 100 38 (3800)
I0403 13:19:11.755810 31902 net.cpp:148] Top shape: 100 38 (3800)
I0403 13:19:11.755825 31902 net.cpp:148] Top shape: 100 38 (3800)
I0403 13:19:11.755838 31902 net.cpp:156] Memory required for data: 831586800
I0403 13:19:11.755851 31902 layer_factory.hpp:77] Creating layer prob
I0403 13:19:11.755869 31902 net.cpp:91] Creating Layer prob
I0403 13:19:11.755885 31902 net.cpp:425] prob <- fc8_plantvillage_fc8_plantvillage_0_split_0
I0403 13:19:11.755904 31902 net.cpp:399] prob -> prob
I0403 13:19:11.756122 31902 net.cpp:141] Setting up prob
I0403 13:19:11.756147 31902 net.cpp:148] Top shape: 100 38 (3800)
I0403 13:19:11.756161 31902 net.cpp:156] Memory required for data: 831602000
I0403 13:19:11.756176 31902 layer_factory.hpp:77] Creating layer hdf5out
I0403 13:19:11.756194 31902 net.cpp:91] Creating Layer hdf5out
I0403 13:19:11.756222 31902 net.cpp:425] hdf5out <- prob
I0403 13:19:11.756240 31902 net.cpp:425] hdf5out <- label_data_1_split_0
I0403 13:19:11.758522 31902 net.cpp:141] Setting up hdf5out
…
