…
I0403 13:08:41.356864 31543 net.cpp:313] The NetState phase (1) differed from the phase (0) specified by a rule in layer data
I0403 13:08:41.357601 31543 net.cpp:49] Initializing net from parameters: 
state {
  phase: TEST
}
layer {
  name: "data"
  type: "Data"
  top: "data"
  top: "label"
  include {
    phase: TEST
  }
  transform_param {
    crop_size: 227
    mean_file: "/home/mohanty/data/final_dataset/lmdb/segmented-60-40/mean.binaryproto"
  }
  data_param {
    source: "/home/mohanty/data/final_dataset/lmdb/segmented-60-40/test_db"
    batch_size: 100
    backend: LMDB
  }
}
layer {
  name: "conv1"
  type: "Convolution"
  bottom: "data"
  top: "conv1"
  param {
    lr_mult: 1
    decay_mult: 1
  }
  param {
    lr_mult: 2
    decay_mult: 0
  }
  convolution_param {
    num_output: 96
    kernel_size: 11
    stride: 4
    weight_filler {
      type: "gaussian"
      std: 0.01
    }
    bias_filler {
      type: "constant"
      value: 0
    }
  }
}
layer {
  name: "relu1"
  type: "ReLU"
  bottom: "conv1"
  top: "conv1"
}
layer {
  name: "norm1"
  type: "LRN"
  bottom: "conv1"
  top: "norm1"
  lrn_param {
    local_size: 5
    alpha: 0.0001
    beta: 0.75
  }
}
layer {
  name: "pool1"
  type: "Pooling"
  bottom: "norm1"
  top: "pool1"
  pooling_param {
    pool: MAX
    kernel_size: 3
    stride: 2
  }
}
layer {
  name: "conv2"
  type: "Convolution"
  bottom: "pool1"
  top: "conv2"
  param {
    lr_mult: 1
    decay_mult: 1
  }
  param {
    lr_mult: 2
    decay_mult: 0
  }
  convolution_param {
    num_output: 256
    pad: 2
    kernel_size: 5
    group: 2
    weight_filler {
      type: "gaussian"
      std: 0.01
    }
    bias_filler {
      type: "constant"
      value: 0.1
    }
  }
}
layer {
  name: "relu2"
  type: "ReLU"
  bottom: "conv2"
  top: "conv2"
}
layer {
  name: "norm2"
  type: "LRN"
  bottom: "conv2"
  top: "norm2"
  lrn_param {
    local_size: 5
    alpha: 0.0001
    beta: 0.75
  }
}
layer {
  name: "pool2"
  type: "Pooling"
  bottom: "norm2"
  top: "pool2"
  pooling_param {
    pool: MAX
    kernel_size: 3
    stride: 2
  }
}
layer {
  name: "conv3"
  type: "Convolution"
  bottom: "pool2"
  top: "conv3"
  param {
    lr_mult: 1
    decay_mult: 1
  }
  param {
    lr_mult: 2
    decay_mult: 0
  }
  convolution_param {
    num_output: 384
    pad: 1
    kernel_size: 3
    weight_filler {
      type: "gaussian"
      std: 0.01
    }
    bias_filler {
      type: "constant"
      value: 0
    }
  }
}
layer {
  name: "relu3"
  type: "ReLU"
  bottom: "conv3"
  top: "conv3"
}
layer {
  name: "conv4"
  type: "Convolution"
  bottom: "conv3"
  top: "conv4"
  param {
    lr_mult: 1
    decay_mult: 1
  }
  param {
    lr_mult: 2
    decay_mult: 0
  }
  convolution_param {
    num_output: 384
    pad: 1
    kernel_size: 3
    group: 2
    weight_filler {
      type: "gaussian"
      std: 0.01
    }
    bias_filler {
      type: "constant"
      value: 0.1
    }
  }
}
layer {
  name: "relu4"
  type: "ReLU"
  bottom: "conv4"
  top: "conv4"
}
layer {
  name: "conv5"
  type: "Convolution"
  bottom: "conv4"
  top: "conv5"
  param {
    lr_mult: 1
    decay_mult: 1
  }
  param {
    lr_mult: 2
    decay_mult: 0
  }
  convolution_param {
    num_output: 256
    pad: 1
    kernel_size: 3
    group: 2
    weight_filler {
      type: "gaussian"
      std: 0.01
    }
    bias_filler {
      type: "constant"
      value: 0.1
    }
  }
}
layer {
  name: "relu5"
  type: "ReLU"
  bottom: "conv5"
  top: "conv5"
}
layer {
  name: "pool5"
  type: "Pooling"
  bottom: "conv5"
  top: "pool5"
  pooling_param {
    pool: MAX
    kernel_size: 3
    stride: 2
  }
}
layer {
  name: "fc6"
  type: "InnerProduct"
  bottom: "pool5"
  top: "fc6"
  param {
    lr_mult: 1
    decay_mult: 1
  }
  param {
    lr_mult: 2
    decay_mult: 0
  }
  inner_product_param {
    num_output: 4096
    weight_filler {
      type: "gaussian"
      std: 0.005
    }
    bias_filler {
      type: "constant"
      value: 0.1
    }
  }
}
layer {
  name: "relu6"
  type: "ReLU"
  bottom: "fc6"
  top: "fc6"
}
layer {
  name: "drop6"
  type: "Dropout"
  bottom: "fc6"
  top: "fc6"
  dropout_param {
    dropout_ratio: 0.5
  }
}
layer {
  name: "fc7"
  type: "InnerProduct"
  bottom: "fc6"
  top: "fc7"
  param {
    lr_mult: 1
    decay_mult: 1
  }
  param {
    lr_mult: 2
    decay_mult: 0
  }
  inner_product_param {
    num_output: 4096
    weight_filler {
      type: "gaussian"
      std: 0.005
    }
    bias_filler {
      type: "constant"
      value: 0.1
    }
  }
}
layer {
  name: "relu7"
  type: "ReLU"
  bottom: "fc7"
  top: "fc7"
}
layer {
  name: "drop7"
  type: "Dropout"
  bottom: "fc7"
  top: "fc7"
  dropout_param {
    dropout_ratio: 0.5
  }
}
layer {
  name: "fc8_plantvillage"
  type: "InnerProduct"
  bottom: "fc7"
  top: "fc8_plantvillage"
  param {
    lr_mult: 1
    decay_mult: 1
  }
  param {
    lr_mult: 2
    decay_mult: 0
  }
  inner_product_param {
    num_output: 38
    weight_filler {
      type: "gaussian"
      std: 0.01
    }
    bias_filler {
      type: "constant"
      value: 0
    }
  }
}
layer {
  name: "prob"
  type: "Softmax"
  bottom: "fc8_plantvillage"
  top: "prob"
  include {
    phase: TEST
  }
}
layer {
  name: "hdf5out"
  type: "HDF5Output"
  bottom: "prob"
  bottom: "label"
  include {
    phase: TEST
  }
  hdf5_output_param {
    file_name: "hdf5_dumps/iter_1950.h5"
  }
}
layer {
  name: "loss"
  type: "SoftmaxWithLoss"
  bottom: "fc8_plantvillage"
  bottom: "label"
  top: "loss"
}
layer {
  name: "accuracy"
  type: "Accuracy"
  bottom: "fc8_plantvillage"
  bottom: "label"
  top: "accuracy"
  include {
    phase: TEST
  }
}
I0403 13:08:41.358798 31543 layer_factory.hpp:77] Creating layer data
I0403 13:08:41.360394 31543 net.cpp:91] Creating Layer data
I0403 13:08:41.360476 31543 net.cpp:399] data -> data
I0403 13:08:41.360605 31543 net.cpp:399] data -> label
I0403 13:08:41.360693 31543 data_transformer.cpp:25] Loading mean file from: /home/mohanty/data/final_dataset/lmdb/segmented-60-40/mean.binaryproto
I0403 13:08:41.364946 31547 db_lmdb.cpp:38] Opened lmdb /home/mohanty/data/final_dataset/lmdb/segmented-60-40/test_db
I0403 13:08:41.380007 31543 data_layer.cpp:41] output data size: 100,3,227,227
I0403 13:08:41.517885 31543 net.cpp:141] Setting up data
I0403 13:08:41.518005 31543 net.cpp:148] Top shape: 100 3 227 227 (15458700)
I0403 13:08:41.518033 31543 net.cpp:148] Top shape: 100 (100)
I0403 13:08:41.518052 31543 net.cpp:156] Memory required for data: 61835200
I0403 13:08:41.518086 31543 layer_factory.hpp:77] Creating layer label_data_1_split
I0403 13:08:41.518116 31543 net.cpp:91] Creating Layer label_data_1_split
I0403 13:08:41.518138 31543 net.cpp:425] label_data_1_split <- label
I0403 13:08:41.518177 31543 net.cpp:399] label_data_1_split -> label_data_1_split_0
I0403 13:08:41.518209 31543 net.cpp:399] label_data_1_split -> label_data_1_split_1
I0403 13:08:41.518234 31543 net.cpp:399] label_data_1_split -> label_data_1_split_2
I0403 13:08:41.518322 31543 net.cpp:141] Setting up label_data_1_split
I0403 13:08:41.518352 31543 net.cpp:148] Top shape: 100 (100)
I0403 13:08:41.518373 31543 net.cpp:148] Top shape: 100 (100)
I0403 13:08:41.518393 31543 net.cpp:148] Top shape: 100 (100)
I0403 13:08:41.518411 31543 net.cpp:156] Memory required for data: 61836400
I0403 13:08:41.518429 31543 layer_factory.hpp:77] Creating layer conv1
I0403 13:08:41.518466 31543 net.cpp:91] Creating Layer conv1
I0403 13:08:41.518489 31543 net.cpp:425] conv1 <- data
I0403 13:08:41.518514 31543 net.cpp:399] conv1 -> conv1
I0403 13:08:41.684340 31543 net.cpp:141] Setting up conv1
I0403 13:08:41.684435 31543 net.cpp:148] Top shape: 100 96 55 55 (29040000)
I0403 13:08:41.684456 31543 net.cpp:156] Memory required for data: 177996400
I0403 13:08:41.684495 31543 layer_factory.hpp:77] Creating layer relu1
I0403 13:08:41.684528 31543 net.cpp:91] Creating Layer relu1
I0403 13:08:41.684551 31543 net.cpp:425] relu1 <- conv1
I0403 13:08:41.684573 31543 net.cpp:386] relu1 -> conv1 (in-place)
I0403 13:08:41.684913 31543 net.cpp:141] Setting up relu1
I0403 13:08:41.684947 31543 net.cpp:148] Top shape: 100 96 55 55 (29040000)
I0403 13:08:41.685001 31543 net.cpp:156] Memory required for data: 294156400
I0403 13:08:41.685021 31543 layer_factory.hpp:77] Creating layer norm1
I0403 13:08:41.685055 31543 net.cpp:91] Creating Layer norm1
I0403 13:08:41.685076 31543 net.cpp:425] norm1 <- conv1
I0403 13:08:41.685098 31543 net.cpp:399] norm1 -> norm1
I0403 13:08:41.685498 31543 net.cpp:141] Setting up norm1
I0403 13:08:41.685533 31543 net.cpp:148] Top shape: 100 96 55 55 (29040000)
I0403 13:08:41.685552 31543 net.cpp:156] Memory required for data: 410316400
I0403 13:08:41.685572 31543 layer_factory.hpp:77] Creating layer pool1
I0403 13:08:41.685600 31543 net.cpp:91] Creating Layer pool1
I0403 13:08:41.685621 31543 net.cpp:425] pool1 <- norm1
I0403 13:08:41.685647 31543 net.cpp:399] pool1 -> pool1
I0403 13:08:41.685732 31543 net.cpp:141] Setting up pool1
I0403 13:08:41.685772 31543 net.cpp:148] Top shape: 100 96 27 27 (6998400)
I0403 13:08:41.685791 31543 net.cpp:156] Memory required for data: 438310000
I0403 13:08:41.685809 31543 layer_factory.hpp:77] Creating layer conv2
I0403 13:08:41.685843 31543 net.cpp:91] Creating Layer conv2
I0403 13:08:41.685864 31543 net.cpp:425] conv2 <- pool1
I0403 13:08:41.685888 31543 net.cpp:399] conv2 -> conv2
I0403 13:08:41.703879 31543 net.cpp:141] Setting up conv2
I0403 13:08:41.703924 31543 net.cpp:148] Top shape: 100 256 27 27 (18662400)
I0403 13:08:41.703944 31543 net.cpp:156] Memory required for data: 512959600
I0403 13:08:41.703971 31543 layer_factory.hpp:77] Creating layer relu2
I0403 13:08:41.703997 31543 net.cpp:91] Creating Layer relu2
I0403 13:08:41.704018 31543 net.cpp:425] relu2 <- conv2
I0403 13:08:41.704040 31543 net.cpp:386] relu2 -> conv2 (in-place)
I0403 13:08:41.704365 31543 net.cpp:141] Setting up relu2
I0403 13:08:41.704397 31543 net.cpp:148] Top shape: 100 256 27 27 (18662400)
I0403 13:08:41.704416 31543 net.cpp:156] Memory required for data: 587609200
I0403 13:08:41.704460 31543 layer_factory.hpp:77] Creating layer norm2
I0403 13:08:41.704493 31543 net.cpp:91] Creating Layer norm2
I0403 13:08:41.704515 31543 net.cpp:425] norm2 <- conv2
I0403 13:08:41.704540 31543 net.cpp:399] norm2 -> norm2
I0403 13:08:41.704778 31543 net.cpp:141] Setting up norm2
I0403 13:08:41.704812 31543 net.cpp:148] Top shape: 100 256 27 27 (18662400)
I0403 13:08:41.704830 31543 net.cpp:156] Memory required for data: 662258800
I0403 13:08:41.704849 31543 layer_factory.hpp:77] Creating layer pool2
I0403 13:08:41.704870 31543 net.cpp:91] Creating Layer pool2
I0403 13:08:41.704890 31543 net.cpp:425] pool2 <- norm2
I0403 13:08:41.704915 31543 net.cpp:399] pool2 -> pool2
I0403 13:08:41.704978 31543 net.cpp:141] Setting up pool2
I0403 13:08:41.705006 31543 net.cpp:148] Top shape: 100 256 13 13 (4326400)
I0403 13:08:41.705024 31543 net.cpp:156] Memory required for data: 679564400
I0403 13:08:41.705042 31543 layer_factory.hpp:77] Creating layer conv3
I0403 13:08:41.705072 31543 net.cpp:91] Creating Layer conv3
I0403 13:08:41.705093 31543 net.cpp:425] conv3 <- pool2
I0403 13:08:41.705118 31543 net.cpp:399] conv3 -> conv3
I0403 13:08:41.751507 31543 net.cpp:141] Setting up conv3
I0403 13:08:41.751571 31543 net.cpp:148] Top shape: 100 384 13 13 (6489600)
I0403 13:08:41.751591 31543 net.cpp:156] Memory required for data: 705522800
I0403 13:08:41.751619 31543 layer_factory.hpp:77] Creating layer relu3
I0403 13:08:41.751646 31543 net.cpp:91] Creating Layer relu3
I0403 13:08:41.751667 31543 net.cpp:425] relu3 <- conv3
I0403 13:08:41.751689 31543 net.cpp:386] relu3 -> conv3 (in-place)
I0403 13:08:41.752009 31543 net.cpp:141] Setting up relu3
I0403 13:08:41.752043 31543 net.cpp:148] Top shape: 100 384 13 13 (6489600)
I0403 13:08:41.752061 31543 net.cpp:156] Memory required for data: 731481200
I0403 13:08:41.752080 31543 layer_factory.hpp:77] Creating layer conv4
I0403 13:08:41.752110 31543 net.cpp:91] Creating Layer conv4
I0403 13:08:41.752132 31543 net.cpp:425] conv4 <- conv3
I0403 13:08:41.752157 31543 net.cpp:399] conv4 -> conv4
I0403 13:08:41.788439 31543 net.cpp:141] Setting up conv4
I0403 13:08:41.788496 31543 net.cpp:148] Top shape: 100 384 13 13 (6489600)
I0403 13:08:41.788552 31543 net.cpp:156] Memory required for data: 757439600
I0403 13:08:41.788578 31543 layer_factory.hpp:77] Creating layer relu4
I0403 13:08:41.788602 31543 net.cpp:91] Creating Layer relu4
I0403 13:08:41.788622 31543 net.cpp:425] relu4 <- conv4
I0403 13:08:41.788646 31543 net.cpp:386] relu4 -> conv4 (in-place)
I0403 13:08:41.788977 31543 net.cpp:141] Setting up relu4
I0403 13:08:41.789039 31543 net.cpp:148] Top shape: 100 384 13 13 (6489600)
I0403 13:08:41.789063 31543 net.cpp:156] Memory required for data: 783398000
I0403 13:08:41.789083 31543 layer_factory.hpp:77] Creating layer conv5
I0403 13:08:41.789114 31543 net.cpp:91] Creating Layer conv5
I0403 13:08:41.789135 31543 net.cpp:425] conv5 <- conv4
I0403 13:08:41.789161 31543 net.cpp:399] conv5 -> conv5
I0403 13:08:41.814127 31543 net.cpp:141] Setting up conv5
I0403 13:08:41.814172 31543 net.cpp:148] Top shape: 100 256 13 13 (4326400)
I0403 13:08:41.814191 31543 net.cpp:156] Memory required for data: 800703600
I0403 13:08:41.814220 31543 layer_factory.hpp:77] Creating layer relu5
I0403 13:08:41.814255 31543 net.cpp:91] Creating Layer relu5
I0403 13:08:41.814277 31543 net.cpp:425] relu5 <- conv5
I0403 13:08:41.814299 31543 net.cpp:386] relu5 -> conv5 (in-place)
I0403 13:08:41.814632 31543 net.cpp:141] Setting up relu5
I0403 13:08:41.814666 31543 net.cpp:148] Top shape: 100 256 13 13 (4326400)
I0403 13:08:41.814684 31543 net.cpp:156] Memory required for data: 818009200
I0403 13:08:41.814702 31543 layer_factory.hpp:77] Creating layer pool5
I0403 13:08:41.814731 31543 net.cpp:91] Creating Layer pool5
I0403 13:08:41.814751 31543 net.cpp:425] pool5 <- conv5
I0403 13:08:41.814774 31543 net.cpp:399] pool5 -> pool5
I0403 13:08:41.814847 31543 net.cpp:141] Setting up pool5
I0403 13:08:41.814875 31543 net.cpp:148] Top shape: 100 256 6 6 (921600)
I0403 13:08:41.814893 31543 net.cpp:156] Memory required for data: 821695600
I0403 13:08:41.814911 31543 layer_factory.hpp:77] Creating layer fc6
I0403 13:08:41.814942 31543 net.cpp:91] Creating Layer fc6
I0403 13:08:41.814963 31543 net.cpp:425] fc6 <- pool5
I0403 13:08:41.814988 31543 net.cpp:399] fc6 -> fc6
I0403 13:08:43.367015 31543 net.cpp:141] Setting up fc6
I0403 13:08:43.367105 31543 net.cpp:148] Top shape: 100 4096 (409600)
I0403 13:08:43.367121 31543 net.cpp:156] Memory required for data: 823334000
I0403 13:08:43.367143 31543 layer_factory.hpp:77] Creating layer relu6
I0403 13:08:43.367166 31543 net.cpp:91] Creating Layer relu6
I0403 13:08:43.367182 31543 net.cpp:425] relu6 <- fc6
I0403 13:08:43.367202 31543 net.cpp:386] relu6 -> fc6 (in-place)
I0403 13:08:43.367446 31543 net.cpp:141] Setting up relu6
I0403 13:08:43.367483 31543 net.cpp:148] Top shape: 100 4096 (409600)
I0403 13:08:43.367499 31543 net.cpp:156] Memory required for data: 824972400
I0403 13:08:43.367514 31543 layer_factory.hpp:77] Creating layer drop6
I0403 13:08:43.367533 31543 net.cpp:91] Creating Layer drop6
I0403 13:08:43.367548 31543 net.cpp:425] drop6 <- fc6
I0403 13:08:43.367568 31543 net.cpp:386] drop6 -> fc6 (in-place)
I0403 13:08:43.367622 31543 net.cpp:141] Setting up drop6
I0403 13:08:43.367647 31543 net.cpp:148] Top shape: 100 4096 (409600)
I0403 13:08:43.367663 31543 net.cpp:156] Memory required for data: 826610800
I0403 13:08:43.367678 31543 layer_factory.hpp:77] Creating layer fc7
I0403 13:08:43.367698 31543 net.cpp:91] Creating Layer fc7
I0403 13:08:43.367713 31543 net.cpp:425] fc7 <- fc6
I0403 13:08:43.367733 31543 net.cpp:399] fc7 -> fc7
I0403 13:08:44.034111 31543 net.cpp:141] Setting up fc7
I0403 13:08:44.034200 31543 net.cpp:148] Top shape: 100 4096 (409600)
I0403 13:08:44.034216 31543 net.cpp:156] Memory required for data: 828249200
I0403 13:08:44.034237 31543 layer_factory.hpp:77] Creating layer relu7
I0403 13:08:44.034265 31543 net.cpp:91] Creating Layer relu7
I0403 13:08:44.034282 31543 net.cpp:425] relu7 <- fc7
I0403 13:08:44.034303 31543 net.cpp:386] relu7 -> fc7 (in-place)
I0403 13:08:44.034703 31543 net.cpp:141] Setting up relu7
I0403 13:08:44.034729 31543 net.cpp:148] Top shape: 100 4096 (409600)
I0403 13:08:44.034775 31543 net.cpp:156] Memory required for data: 829887600
I0403 13:08:44.034791 31543 layer_factory.hpp:77] Creating layer drop7
I0403 13:08:44.034811 31543 net.cpp:91] Creating Layer drop7
I0403 13:08:44.034826 31543 net.cpp:425] drop7 <- fc7
I0403 13:08:44.034844 31543 net.cpp:386] drop7 -> fc7 (in-place)
I0403 13:08:44.034888 31543 net.cpp:141] Setting up drop7
I0403 13:08:44.034911 31543 net.cpp:148] Top shape: 100 4096 (409600)
I0403 13:08:44.034926 31543 net.cpp:156] Memory required for data: 831526000
I0403 13:08:44.034940 31543 layer_factory.hpp:77] Creating layer fc8_plantvillage
I0403 13:08:44.034960 31543 net.cpp:91] Creating Layer fc8_plantvillage
I0403 13:08:44.034976 31543 net.cpp:425] fc8_plantvillage <- fc7
I0403 13:08:44.034994 31543 net.cpp:399] fc8_plantvillage -> fc8_plantvillage
I0403 13:08:44.041510 31543 net.cpp:141] Setting up fc8_plantvillage
I0403 13:08:44.041538 31543 net.cpp:148] Top shape: 100 38 (3800)
I0403 13:08:44.041553 31543 net.cpp:156] Memory required for data: 831541200
I0403 13:08:44.041570 31543 layer_factory.hpp:77] Creating layer fc8_plantvillage_fc8_plantvillage_0_split
I0403 13:08:44.041591 31543 net.cpp:91] Creating Layer fc8_plantvillage_fc8_plantvillage_0_split
I0403 13:08:44.041606 31543 net.cpp:425] fc8_plantvillage_fc8_plantvillage_0_split <- fc8_plantvillage
I0403 13:08:44.041625 31543 net.cpp:399] fc8_plantvillage_fc8_plantvillage_0_split -> fc8_plantvillage_fc8_plantvillage_0_split_0
I0403 13:08:44.041646 31543 net.cpp:399] fc8_plantvillage_fc8_plantvillage_0_split -> fc8_plantvillage_fc8_plantvillage_0_split_1
I0403 13:08:44.041664 31543 net.cpp:399] fc8_plantvillage_fc8_plantvillage_0_split -> fc8_plantvillage_fc8_plantvillage_0_split_2
I0403 13:08:44.041743 31543 net.cpp:141] Setting up fc8_plantvillage_fc8_plantvillage_0_split
I0403 13:08:44.041766 31543 net.cpp:148] Top shape: 100 38 (3800)
I0403 13:08:44.041782 31543 net.cpp:148] Top shape: 100 38 (3800)
I0403 13:08:44.041797 31543 net.cpp:148] Top shape: 100 38 (3800)
I0403 13:08:44.041811 31543 net.cpp:156] Memory required for data: 831586800
I0403 13:08:44.041826 31543 layer_factory.hpp:77] Creating layer prob
I0403 13:08:44.041843 31543 net.cpp:91] Creating Layer prob
I0403 13:08:44.041858 31543 net.cpp:425] prob <- fc8_plantvillage_fc8_plantvillage_0_split_0
I0403 13:08:44.041877 31543 net.cpp:399] prob -> prob
I0403 13:08:44.042093 31543 net.cpp:141] Setting up prob
I0403 13:08:44.042117 31543 net.cpp:148] Top shape: 100 38 (3800)
I0403 13:08:44.042134 31543 net.cpp:156] Memory required for data: 831602000
I0403 13:08:44.042148 31543 layer_factory.hpp:77] Creating layer hdf5out
I0403 13:08:44.042178 31543 net.cpp:91] Creating Layer hdf5out
I0403 13:08:44.042196 31543 net.cpp:425] hdf5out <- prob
I0403 13:08:44.042213 31543 net.cpp:425] hdf5out <- label_data_1_split_0
I0403 13:08:44.044464 31543 net.cpp:141] Setting up hdf5out
…
