…
I0403 13:06:34.524082 31404 net.cpp:313] The NetState phase (1) differed from the phase (0) specified by a rule in layer data
I0403 13:06:34.524411 31404 net.cpp:49] Initializing net from parameters: 
state {
  phase: TEST
}
layer {
  name: "data"
  type: "Data"
  top: "data"
  top: "label"
  include {
    phase: TEST
  }
  transform_param {
    crop_size: 227
    mean_file: "/home/mohanty/data/final_dataset/lmdb/segmented-60-40/mean.binaryproto"
  }
  data_param {
    source: "/home/mohanty/data/final_dataset/lmdb/segmented-60-40/test_db"
    batch_size: 100
    backend: LMDB
  }
}
layer {
  name: "conv1"
  type: "Convolution"
  bottom: "data"
  top: "conv1"
  param {
    lr_mult: 1
    decay_mult: 1
  }
  param {
    lr_mult: 2
    decay_mult: 0
  }
  convolution_param {
    num_output: 96
    kernel_size: 11
    stride: 4
    weight_filler {
      type: "gaussian"
      std: 0.01
    }
    bias_filler {
      type: "constant"
      value: 0
    }
  }
}
layer {
  name: "relu1"
  type: "ReLU"
  bottom: "conv1"
  top: "conv1"
}
layer {
  name: "norm1"
  type: "LRN"
  bottom: "conv1"
  top: "norm1"
  lrn_param {
    local_size: 5
    alpha: 0.0001
    beta: 0.75
  }
}
layer {
  name: "pool1"
  type: "Pooling"
  bottom: "norm1"
  top: "pool1"
  pooling_param {
    pool: MAX
    kernel_size: 3
    stride: 2
  }
}
layer {
  name: "conv2"
  type: "Convolution"
  bottom: "pool1"
  top: "conv2"
  param {
    lr_mult: 1
    decay_mult: 1
  }
  param {
    lr_mult: 2
    decay_mult: 0
  }
  convolution_param {
    num_output: 256
    pad: 2
    kernel_size: 5
    group: 2
    weight_filler {
      type: "gaussian"
      std: 0.01
    }
    bias_filler {
      type: "constant"
      value: 0.1
    }
  }
}
layer {
  name: "relu2"
  type: "ReLU"
  bottom: "conv2"
  top: "conv2"
}
layer {
  name: "norm2"
  type: "LRN"
  bottom: "conv2"
  top: "norm2"
  lrn_param {
    local_size: 5
    alpha: 0.0001
    beta: 0.75
  }
}
layer {
  name: "pool2"
  type: "Pooling"
  bottom: "norm2"
  top: "pool2"
  pooling_param {
    pool: MAX
    kernel_size: 3
    stride: 2
  }
}
layer {
  name: "conv3"
  type: "Convolution"
  bottom: "pool2"
  top: "conv3"
  param {
    lr_mult: 1
    decay_mult: 1
  }
  param {
    lr_mult: 2
    decay_mult: 0
  }
  convolution_param {
    num_output: 384
    pad: 1
    kernel_size: 3
    weight_filler {
      type: "gaussian"
      std: 0.01
    }
    bias_filler {
      type: "constant"
      value: 0
    }
  }
}
layer {
  name: "relu3"
  type: "ReLU"
  bottom: "conv3"
  top: "conv3"
}
layer {
  name: "conv4"
  type: "Convolution"
  bottom: "conv3"
  top: "conv4"
  param {
    lr_mult: 1
    decay_mult: 1
  }
  param {
    lr_mult: 2
    decay_mult: 0
  }
  convolution_param {
    num_output: 384
    pad: 1
    kernel_size: 3
    group: 2
    weight_filler {
      type: "gaussian"
      std: 0.01
    }
    bias_filler {
      type: "constant"
      value: 0.1
    }
  }
}
layer {
  name: "relu4"
  type: "ReLU"
  bottom: "conv4"
  top: "conv4"
}
layer {
  name: "conv5"
  type: "Convolution"
  bottom: "conv4"
  top: "conv5"
  param {
    lr_mult: 1
    decay_mult: 1
  }
  param {
    lr_mult: 2
    decay_mult: 0
  }
  convolution_param {
    num_output: 256
    pad: 1
    kernel_size: 3
    group: 2
    weight_filler {
      type: "gaussian"
      std: 0.01
    }
    bias_filler {
      type: "constant"
      value: 0.1
    }
  }
}
layer {
  name: "relu5"
  type: "ReLU"
  bottom: "conv5"
  top: "conv5"
}
layer {
  name: "pool5"
  type: "Pooling"
  bottom: "conv5"
  top: "pool5"
  pooling_param {
    pool: MAX
    kernel_size: 3
    stride: 2
  }
}
layer {
  name: "fc6"
  type: "InnerProduct"
  bottom: "pool5"
  top: "fc6"
  param {
    lr_mult: 1
    decay_mult: 1
  }
  param {
    lr_mult: 2
    decay_mult: 0
  }
  inner_product_param {
    num_output: 4096
    weight_filler {
      type: "gaussian"
      std: 0.005
    }
    bias_filler {
      type: "constant"
      value: 0.1
    }
  }
}
layer {
  name: "relu6"
  type: "ReLU"
  bottom: "fc6"
  top: "fc6"
}
layer {
  name: "drop6"
  type: "Dropout"
  bottom: "fc6"
  top: "fc6"
  dropout_param {
    dropout_ratio: 0.5
  }
}
layer {
  name: "fc7"
  type: "InnerProduct"
  bottom: "fc6"
  top: "fc7"
  param {
    lr_mult: 1
    decay_mult: 1
  }
  param {
    lr_mult: 2
    decay_mult: 0
  }
  inner_product_param {
    num_output: 4096
    weight_filler {
      type: "gaussian"
      std: 0.005
    }
    bias_filler {
      type: "constant"
      value: 0.1
    }
  }
}
layer {
  name: "relu7"
  type: "ReLU"
  bottom: "fc7"
  top: "fc7"
}
layer {
  name: "drop7"
  type: "Dropout"
  bottom: "fc7"
  top: "fc7"
  dropout_param {
    dropout_ratio: 0.5
  }
}
layer {
  name: "fc8_plantvillage"
  type: "InnerProduct"
  bottom: "fc7"
  top: "fc8_plantvillage"
  param {
    lr_mult: 1
    decay_mult: 1
  }
  param {
    lr_mult: 2
    decay_mult: 0
  }
  inner_product_param {
    num_output: 38
    weight_filler {
      type: "gaussian"
      std: 0.01
    }
    bias_filler {
      type: "constant"
      value: 0
    }
  }
}
layer {
  name: "prob"
  type: "Softmax"
  bottom: "fc8_plantvillage"
  top: "prob"
  include {
    phase: TEST
  }
}
layer {
  name: "hdf5out"
  type: "HDF5Output"
  bottom: "prob"
  bottom: "label"
  include {
    phase: TEST
  }
  hdf5_output_param {
    file_name: "hdf5_dumps/iter_975.h5"
  }
}
layer {
  name: "loss"
  type: "SoftmaxWithLoss"
  bottom: "fc8_plantvillage"
  bottom: "label"
  top: "loss"
}
layer {
  name: "accuracy"
  type: "Accuracy"
  bottom: "fc8_plantvillage"
  bottom: "label"
  top: "accuracy"
  include {
    phase: TEST
  }
}
I0403 13:06:34.524971 31404 layer_factory.hpp:77] Creating layer data
I0403 13:06:34.525634 31404 net.cpp:91] Creating Layer data
I0403 13:06:34.525665 31404 net.cpp:399] data -> data
I0403 13:06:34.525718 31404 net.cpp:399] data -> label
I0403 13:06:34.525755 31404 data_transformer.cpp:25] Loading mean file from: /home/mohanty/data/final_dataset/lmdb/segmented-60-40/mean.binaryproto
I0403 13:06:34.528381 31409 db_lmdb.cpp:38] Opened lmdb /home/mohanty/data/final_dataset/lmdb/segmented-60-40/test_db
I0403 13:06:34.539930 31404 data_layer.cpp:41] output data size: 100,3,227,227
I0403 13:06:34.658793 31404 net.cpp:141] Setting up data
I0403 13:06:34.658900 31404 net.cpp:148] Top shape: 100 3 227 227 (15458700)
I0403 13:06:34.658924 31404 net.cpp:148] Top shape: 100 (100)
I0403 13:06:34.658952 31404 net.cpp:156] Memory required for data: 61835200
I0403 13:06:34.658979 31404 layer_factory.hpp:77] Creating layer label_data_1_split
I0403 13:06:34.659005 31404 net.cpp:91] Creating Layer label_data_1_split
I0403 13:06:34.659023 31404 net.cpp:425] label_data_1_split <- label
I0403 13:06:34.659054 31404 net.cpp:399] label_data_1_split -> label_data_1_split_0
I0403 13:06:34.659080 31404 net.cpp:399] label_data_1_split -> label_data_1_split_1
I0403 13:06:34.659101 31404 net.cpp:399] label_data_1_split -> label_data_1_split_2
I0403 13:06:34.659162 31404 net.cpp:141] Setting up label_data_1_split
I0403 13:06:34.659185 31404 net.cpp:148] Top shape: 100 (100)
I0403 13:06:34.659203 31404 net.cpp:148] Top shape: 100 (100)
I0403 13:06:34.659219 31404 net.cpp:148] Top shape: 100 (100)
I0403 13:06:34.659234 31404 net.cpp:156] Memory required for data: 61836400
I0403 13:06:34.659252 31404 layer_factory.hpp:77] Creating layer conv1
I0403 13:06:34.659284 31404 net.cpp:91] Creating Layer conv1
I0403 13:06:34.659302 31404 net.cpp:425] conv1 <- data
I0403 13:06:34.659322 31404 net.cpp:399] conv1 -> conv1
I0403 13:06:34.800719 31404 net.cpp:141] Setting up conv1
I0403 13:06:34.800778 31404 net.cpp:148] Top shape: 100 96 55 55 (29040000)
I0403 13:06:34.800796 31404 net.cpp:156] Memory required for data: 177996400
I0403 13:06:34.800827 31404 layer_factory.hpp:77] Creating layer relu1
I0403 13:06:34.800853 31404 net.cpp:91] Creating Layer relu1
I0403 13:06:34.800871 31404 net.cpp:425] relu1 <- conv1
I0403 13:06:34.800890 31404 net.cpp:386] relu1 -> conv1 (in-place)
I0403 13:06:34.801151 31404 net.cpp:141] Setting up relu1
I0403 13:06:34.801177 31404 net.cpp:148] Top shape: 100 96 55 55 (29040000)
I0403 13:06:34.801225 31404 net.cpp:156] Memory required for data: 294156400
I0403 13:06:34.801245 31404 layer_factory.hpp:77] Creating layer norm1
I0403 13:06:34.801273 31404 net.cpp:91] Creating Layer norm1
I0403 13:06:34.801291 31404 net.cpp:425] norm1 <- conv1
I0403 13:06:34.801309 31404 net.cpp:399] norm1 -> norm1
I0403 13:06:34.801616 31404 net.cpp:141] Setting up norm1
I0403 13:06:34.801664 31404 net.cpp:148] Top shape: 100 96 55 55 (29040000)
I0403 13:06:34.801681 31404 net.cpp:156] Memory required for data: 410316400
I0403 13:06:34.801697 31404 layer_factory.hpp:77] Creating layer pool1
I0403 13:06:34.801718 31404 net.cpp:91] Creating Layer pool1
I0403 13:06:34.801735 31404 net.cpp:425] pool1 <- norm1
I0403 13:06:34.801753 31404 net.cpp:399] pool1 -> pool1
I0403 13:06:34.801818 31404 net.cpp:141] Setting up pool1
I0403 13:06:34.801842 31404 net.cpp:148] Top shape: 100 96 27 27 (6998400)
I0403 13:06:34.801857 31404 net.cpp:156] Memory required for data: 438310000
I0403 13:06:34.801872 31404 layer_factory.hpp:77] Creating layer conv2
I0403 13:06:34.801909 31404 net.cpp:91] Creating Layer conv2
I0403 13:06:34.801928 31404 net.cpp:425] conv2 <- pool1
I0403 13:06:34.801946 31404 net.cpp:399] conv2 -> conv2
I0403 13:06:34.817458 31404 net.cpp:141] Setting up conv2
I0403 13:06:34.817524 31404 net.cpp:148] Top shape: 100 256 27 27 (18662400)
I0403 13:06:34.817543 31404 net.cpp:156] Memory required for data: 512959600
I0403 13:06:34.817567 31404 layer_factory.hpp:77] Creating layer relu2
I0403 13:06:34.817590 31404 net.cpp:91] Creating Layer relu2
I0403 13:06:34.817607 31404 net.cpp:425] relu2 <- conv2
I0403 13:06:34.817626 31404 net.cpp:386] relu2 -> conv2 (in-place)
I0403 13:06:34.817914 31404 net.cpp:141] Setting up relu2
I0403 13:06:34.817941 31404 net.cpp:148] Top shape: 100 256 27 27 (18662400)
I0403 13:06:34.817958 31404 net.cpp:156] Memory required for data: 587609200
I0403 13:06:34.817975 31404 layer_factory.hpp:77] Creating layer norm2
I0403 13:06:34.817997 31404 net.cpp:91] Creating Layer norm2
I0403 13:06:34.818014 31404 net.cpp:425] norm2 <- conv2
I0403 13:06:34.818033 31404 net.cpp:399] norm2 -> norm2
I0403 13:06:34.818246 31404 net.cpp:141] Setting up norm2
I0403 13:06:34.818274 31404 net.cpp:148] Top shape: 100 256 27 27 (18662400)
I0403 13:06:34.818289 31404 net.cpp:156] Memory required for data: 662258800
I0403 13:06:34.818305 31404 layer_factory.hpp:77] Creating layer pool2
I0403 13:06:34.818325 31404 net.cpp:91] Creating Layer pool2
I0403 13:06:34.818339 31404 net.cpp:425] pool2 <- norm2
I0403 13:06:34.818357 31404 net.cpp:399] pool2 -> pool2
I0403 13:06:34.818409 31404 net.cpp:141] Setting up pool2
I0403 13:06:34.818433 31404 net.cpp:148] Top shape: 100 256 13 13 (4326400)
I0403 13:06:34.818446 31404 net.cpp:156] Memory required for data: 679564400
I0403 13:06:34.818461 31404 layer_factory.hpp:77] Creating layer conv3
I0403 13:06:34.818485 31404 net.cpp:91] Creating Layer conv3
I0403 13:06:34.818500 31404 net.cpp:425] conv3 <- pool2
I0403 13:06:34.818519 31404 net.cpp:399] conv3 -> conv3
I0403 13:06:34.858703 31404 net.cpp:141] Setting up conv3
I0403 13:06:34.858789 31404 net.cpp:148] Top shape: 100 384 13 13 (6489600)
I0403 13:06:34.858806 31404 net.cpp:156] Memory required for data: 705522800
I0403 13:06:34.858834 31404 layer_factory.hpp:77] Creating layer relu3
I0403 13:06:34.858860 31404 net.cpp:91] Creating Layer relu3
I0403 13:06:34.858877 31404 net.cpp:425] relu3 <- conv3
I0403 13:06:34.858901 31404 net.cpp:386] relu3 -> conv3 (in-place)
I0403 13:06:34.859194 31404 net.cpp:141] Setting up relu3
I0403 13:06:34.859222 31404 net.cpp:148] Top shape: 100 384 13 13 (6489600)
I0403 13:06:34.859238 31404 net.cpp:156] Memory required for data: 731481200
I0403 13:06:34.859261 31404 layer_factory.hpp:77] Creating layer conv4
I0403 13:06:34.859288 31404 net.cpp:91] Creating Layer conv4
I0403 13:06:34.859307 31404 net.cpp:425] conv4 <- conv3
I0403 13:06:34.859328 31404 net.cpp:399] conv4 -> conv4
I0403 13:06:34.890748 31404 net.cpp:141] Setting up conv4
I0403 13:06:34.890827 31404 net.cpp:148] Top shape: 100 384 13 13 (6489600)
I0403 13:06:34.890877 31404 net.cpp:156] Memory required for data: 757439600
I0403 13:06:34.890899 31404 layer_factory.hpp:77] Creating layer relu4
I0403 13:06:34.890923 31404 net.cpp:91] Creating Layer relu4
I0403 13:06:34.890940 31404 net.cpp:425] relu4 <- conv4
I0403 13:06:34.890964 31404 net.cpp:386] relu4 -> conv4 (in-place)
I0403 13:06:34.891263 31404 net.cpp:141] Setting up relu4
I0403 13:06:34.891293 31404 net.cpp:148] Top shape: 100 384 13 13 (6489600)
I0403 13:06:34.891309 31404 net.cpp:156] Memory required for data: 783398000
I0403 13:06:34.891325 31404 layer_factory.hpp:77] Creating layer conv5
I0403 13:06:34.891352 31404 net.cpp:91] Creating Layer conv5
I0403 13:06:34.891371 31404 net.cpp:425] conv5 <- conv4
I0403 13:06:34.891392 31404 net.cpp:399] conv5 -> conv5
I0403 13:06:34.912701 31404 net.cpp:141] Setting up conv5
I0403 13:06:34.912775 31404 net.cpp:148] Top shape: 100 256 13 13 (4326400)
I0403 13:06:34.912791 31404 net.cpp:156] Memory required for data: 800703600
I0403 13:06:34.912818 31404 layer_factory.hpp:77] Creating layer relu5
I0403 13:06:34.912847 31404 net.cpp:91] Creating Layer relu5
I0403 13:06:34.912865 31404 net.cpp:425] relu5 <- conv5
I0403 13:06:34.912885 31404 net.cpp:386] relu5 -> conv5 (in-place)
I0403 13:06:34.913177 31404 net.cpp:141] Setting up relu5
I0403 13:06:34.913206 31404 net.cpp:148] Top shape: 100 256 13 13 (4326400)
I0403 13:06:34.913221 31404 net.cpp:156] Memory required for data: 818009200
I0403 13:06:34.913238 31404 layer_factory.hpp:77] Creating layer pool5
I0403 13:06:34.913270 31404 net.cpp:91] Creating Layer pool5
I0403 13:06:34.913288 31404 net.cpp:425] pool5 <- conv5
I0403 13:06:34.913307 31404 net.cpp:399] pool5 -> pool5
I0403 13:06:34.913377 31404 net.cpp:141] Setting up pool5
I0403 13:06:34.913401 31404 net.cpp:148] Top shape: 100 256 6 6 (921600)
I0403 13:06:34.913420 31404 net.cpp:156] Memory required for data: 821695600
I0403 13:06:34.913439 31404 layer_factory.hpp:77] Creating layer fc6
I0403 13:06:34.913466 31404 net.cpp:91] Creating Layer fc6
I0403 13:06:34.913485 31404 net.cpp:425] fc6 <- pool5
I0403 13:06:34.913506 31404 net.cpp:399] fc6 -> fc6
I0403 13:06:36.487385 31404 net.cpp:141] Setting up fc6
I0403 13:06:36.487463 31404 net.cpp:148] Top shape: 100 4096 (409600)
I0403 13:06:36.487479 31404 net.cpp:156] Memory required for data: 823334000
I0403 13:06:36.487500 31404 layer_factory.hpp:77] Creating layer relu6
I0403 13:06:36.487522 31404 net.cpp:91] Creating Layer relu6
I0403 13:06:36.487540 31404 net.cpp:425] relu6 <- fc6
I0403 13:06:36.487557 31404 net.cpp:386] relu6 -> fc6 (in-place)
I0403 13:06:36.487787 31404 net.cpp:141] Setting up relu6
I0403 13:06:36.487812 31404 net.cpp:148] Top shape: 100 4096 (409600)
I0403 13:06:36.487826 31404 net.cpp:156] Memory required for data: 824972400
I0403 13:06:36.487840 31404 layer_factory.hpp:77] Creating layer drop6
I0403 13:06:36.487871 31404 net.cpp:91] Creating Layer drop6
I0403 13:06:36.487887 31404 net.cpp:425] drop6 <- fc6
I0403 13:06:36.487907 31404 net.cpp:386] drop6 -> fc6 (in-place)
I0403 13:06:36.487957 31404 net.cpp:141] Setting up drop6
I0403 13:06:36.487982 31404 net.cpp:148] Top shape: 100 4096 (409600)
I0403 13:06:36.487998 31404 net.cpp:156] Memory required for data: 826610800
I0403 13:06:36.488013 31404 layer_factory.hpp:77] Creating layer fc7
I0403 13:06:36.488031 31404 net.cpp:91] Creating Layer fc7
I0403 13:06:36.488046 31404 net.cpp:425] fc7 <- fc6
I0403 13:06:36.488066 31404 net.cpp:399] fc7 -> fc7
I0403 13:06:37.175735 31404 net.cpp:141] Setting up fc7
I0403 13:06:37.175781 31404 net.cpp:148] Top shape: 100 4096 (409600)
I0403 13:06:37.175796 31404 net.cpp:156] Memory required for data: 828249200
I0403 13:06:37.175817 31404 layer_factory.hpp:77] Creating layer relu7
I0403 13:06:37.175838 31404 net.cpp:91] Creating Layer relu7
I0403 13:06:37.175854 31404 net.cpp:425] relu7 <- fc7
I0403 13:06:37.175875 31404 net.cpp:386] relu7 -> fc7 (in-place)
I0403 13:06:37.176295 31404 net.cpp:141] Setting up relu7
I0403 13:06:37.176321 31404 net.cpp:148] Top shape: 100 4096 (409600)
I0403 13:06:37.176383 31404 net.cpp:156] Memory required for data: 829887600
I0403 13:06:37.176399 31404 layer_factory.hpp:77] Creating layer drop7
I0403 13:06:37.176419 31404 net.cpp:91] Creating Layer drop7
I0403 13:06:37.176434 31404 net.cpp:425] drop7 <- fc7
I0403 13:06:37.176455 31404 net.cpp:386] drop7 -> fc7 (in-place)
I0403 13:06:37.176511 31404 net.cpp:141] Setting up drop7
I0403 13:06:37.176537 31404 net.cpp:148] Top shape: 100 4096 (409600)
I0403 13:06:37.176553 31404 net.cpp:156] Memory required for data: 831526000
I0403 13:06:37.176568 31404 layer_factory.hpp:77] Creating layer fc8_plantvillage
I0403 13:06:37.176599 31404 net.cpp:91] Creating Layer fc8_plantvillage
I0403 13:06:37.176616 31404 net.cpp:425] fc8_plantvillage <- fc7
I0403 13:06:37.176638 31404 net.cpp:399] fc8_plantvillage -> fc8_plantvillage
I0403 13:06:37.183399 31404 net.cpp:141] Setting up fc8_plantvillage
I0403 13:06:37.183429 31404 net.cpp:148] Top shape: 100 38 (3800)
I0403 13:06:37.183444 31404 net.cpp:156] Memory required for data: 831541200
I0403 13:06:37.183461 31404 layer_factory.hpp:77] Creating layer fc8_plantvillage_fc8_plantvillage_0_split
I0403 13:06:37.183482 31404 net.cpp:91] Creating Layer fc8_plantvillage_fc8_plantvillage_0_split
I0403 13:06:37.183497 31404 net.cpp:425] fc8_plantvillage_fc8_plantvillage_0_split <- fc8_plantvillage
I0403 13:06:37.183514 31404 net.cpp:399] fc8_plantvillage_fc8_plantvillage_0_split -> fc8_plantvillage_fc8_plantvillage_0_split_0
I0403 13:06:37.183534 31404 net.cpp:399] fc8_plantvillage_fc8_plantvillage_0_split -> fc8_plantvillage_fc8_plantvillage_0_split_1
I0403 13:06:37.183553 31404 net.cpp:399] fc8_plantvillage_fc8_plantvillage_0_split -> fc8_plantvillage_fc8_plantvillage_0_split_2
I0403 13:06:37.183630 31404 net.cpp:141] Setting up fc8_plantvillage_fc8_plantvillage_0_split
I0403 13:06:37.183653 31404 net.cpp:148] Top shape: 100 38 (3800)
I0403 13:06:37.183668 31404 net.cpp:148] Top shape: 100 38 (3800)
I0403 13:06:37.183696 31404 net.cpp:148] Top shape: 100 38 (3800)
I0403 13:06:37.183711 31404 net.cpp:156] Memory required for data: 831586800
I0403 13:06:37.183727 31404 layer_factory.hpp:77] Creating layer prob
I0403 13:06:37.183744 31404 net.cpp:91] Creating Layer prob
I0403 13:06:37.183760 31404 net.cpp:425] prob <- fc8_plantvillage_fc8_plantvillage_0_split_0
I0403 13:06:37.183778 31404 net.cpp:399] prob -> prob
I0403 13:06:37.184006 31404 net.cpp:141] Setting up prob
I0403 13:06:37.184031 31404 net.cpp:148] Top shape: 100 38 (3800)
I0403 13:06:37.184046 31404 net.cpp:156] Memory required for data: 831602000
I0403 13:06:37.184062 31404 layer_factory.hpp:77] Creating layer hdf5out
I0403 13:06:37.184080 31404 net.cpp:91] Creating Layer hdf5out
I0403 13:06:37.184097 31404 net.cpp:425] hdf5out <- prob
I0403 13:06:37.184113 31404 net.cpp:425] hdf5out <- label_data_1_split_0
I0403 13:06:37.186259 31404 net.cpp:141] Setting up hdf5out
…
