…
I0403 13:20:32.808287 31944 net.cpp:313] The NetState phase (1) differed from the phase (0) specified by a rule in layer data
I0403 13:20:32.808588 31944 net.cpp:49] Initializing net from parameters: 
state {
  phase: TEST
}
layer {
  name: "data"
  type: "Data"
  top: "data"
  top: "label"
  include {
    phase: TEST
  }
  transform_param {
    crop_size: 227
    mean_file: "/home/mohanty/data/final_dataset/lmdb/segmented-60-40/mean.binaryproto"
  }
  data_param {
    source: "/home/mohanty/data/final_dataset/lmdb/segmented-60-40/test_db"
    batch_size: 100
    backend: LMDB
  }
}
layer {
  name: "conv1"
  type: "Convolution"
  bottom: "data"
  top: "conv1"
  param {
    lr_mult: 1
    decay_mult: 1
  }
  param {
    lr_mult: 2
    decay_mult: 0
  }
  convolution_param {
    num_output: 96
    kernel_size: 11
    stride: 4
    weight_filler {
      type: "gaussian"
      std: 0.01
    }
    bias_filler {
      type: "constant"
      value: 0
    }
  }
}
layer {
  name: "relu1"
  type: "ReLU"
  bottom: "conv1"
  top: "conv1"
}
layer {
  name: "norm1"
  type: "LRN"
  bottom: "conv1"
  top: "norm1"
  lrn_param {
    local_size: 5
    alpha: 0.0001
    beta: 0.75
  }
}
layer {
  name: "pool1"
  type: "Pooling"
  bottom: "norm1"
  top: "pool1"
  pooling_param {
    pool: MAX
    kernel_size: 3
    stride: 2
  }
}
layer {
  name: "conv2"
  type: "Convolution"
  bottom: "pool1"
  top: "conv2"
  param {
    lr_mult: 1
    decay_mult: 1
  }
  param {
    lr_mult: 2
    decay_mult: 0
  }
  convolution_param {
    num_output: 256
    pad: 2
    kernel_size: 5
    group: 2
    weight_filler {
      type: "gaussian"
      std: 0.01
    }
    bias_filler {
      type: "constant"
      value: 0.1
    }
  }
}
layer {
  name: "relu2"
  type: "ReLU"
  bottom: "conv2"
  top: "conv2"
}
layer {
  name: "norm2"
  type: "LRN"
  bottom: "conv2"
  top: "norm2"
  lrn_param {
    local_size: 5
    alpha: 0.0001
    beta: 0.75
  }
}
layer {
  name: "pool2"
  type: "Pooling"
  bottom: "norm2"
  top: "pool2"
  pooling_param {
    pool: MAX
    kernel_size: 3
    stride: 2
  }
}
layer {
  name: "conv3"
  type: "Convolution"
  bottom: "pool2"
  top: "conv3"
  param {
    lr_mult: 1
    decay_mult: 1
  }
  param {
    lr_mult: 2
    decay_mult: 0
  }
  convolution_param {
    num_output: 384
    pad: 1
    kernel_size: 3
    weight_filler {
      type: "gaussian"
      std: 0.01
    }
    bias_filler {
      type: "constant"
      value: 0
    }
  }
}
layer {
  name: "relu3"
  type: "ReLU"
  bottom: "conv3"
  top: "conv3"
}
layer {
  name: "conv4"
  type: "Convolution"
  bottom: "conv3"
  top: "conv4"
  param {
    lr_mult: 1
    decay_mult: 1
  }
  param {
    lr_mult: 2
    decay_mult: 0
  }
  convolution_param {
    num_output: 384
    pad: 1
    kernel_size: 3
    group: 2
    weight_filler {
      type: "gaussian"
      std: 0.01
    }
    bias_filler {
      type: "constant"
      value: 0.1
    }
  }
}
layer {
  name: "relu4"
  type: "ReLU"
  bottom: "conv4"
  top: "conv4"
}
layer {
  name: "conv5"
  type: "Convolution"
  bottom: "conv4"
  top: "conv5"
  param {
    lr_mult: 1
    decay_mult: 1
  }
  param {
    lr_mult: 2
    decay_mult: 0
  }
  convolution_param {
    num_output: 256
    pad: 1
    kernel_size: 3
    group: 2
    weight_filler {
      type: "gaussian"
      std: 0.01
    }
    bias_filler {
      type: "constant"
      value: 0.1
    }
  }
}
layer {
  name: "relu5"
  type: "ReLU"
  bottom: "conv5"
  top: "conv5"
}
layer {
  name: "pool5"
  type: "Pooling"
  bottom: "conv5"
  top: "pool5"
  pooling_param {
    pool: MAX
    kernel_size: 3
    stride: 2
  }
}
layer {
  name: "fc6"
  type: "InnerProduct"
  bottom: "pool5"
  top: "fc6"
  param {
    lr_mult: 1
    decay_mult: 1
  }
  param {
    lr_mult: 2
    decay_mult: 0
  }
  inner_product_param {
    num_output: 4096
    weight_filler {
      type: "gaussian"
      std: 0.005
    }
    bias_filler {
      type: "constant"
      value: 0.1
    }
  }
}
layer {
  name: "relu6"
  type: "ReLU"
  bottom: "fc6"
  top: "fc6"
}
layer {
  name: "drop6"
  type: "Dropout"
  bottom: "fc6"
  top: "fc6"
  dropout_param {
    dropout_ratio: 0.5
  }
}
layer {
  name: "fc7"
  type: "InnerProduct"
  bottom: "fc6"
  top: "fc7"
  param {
    lr_mult: 1
    decay_mult: 1
  }
  param {
    lr_mult: 2
    decay_mult: 0
  }
  inner_product_param {
    num_output: 4096
    weight_filler {
      type: "gaussian"
      std: 0.005
    }
    bias_filler {
      type: "constant"
      value: 0.1
    }
  }
}
layer {
  name: "relu7"
  type: "ReLU"
  bottom: "fc7"
  top: "fc7"
}
layer {
  name: "drop7"
  type: "Dropout"
  bottom: "fc7"
  top: "fc7"
  dropout_param {
    dropout_ratio: 0.5
  }
}
layer {
  name: "fc8_plantvillage"
  type: "InnerProduct"
  bottom: "fc7"
  top: "fc8_plantvillage"
  param {
    lr_mult: 1
    decay_mult: 1
  }
  param {
    lr_mult: 2
    decay_mult: 0
  }
  inner_product_param {
    num_output: 38
    weight_filler {
      type: "gaussian"
      std: 0.01
    }
    bias_filler {
      type: "constant"
      value: 0
    }
  }
}
layer {
  name: "prob"
  type: "Softmax"
  bottom: "fc8_plantvillage"
  top: "prob"
  include {
    phase: TEST
  }
}
layer {
  name: "hdf5out"
  type: "HDF5Output"
  bottom: "prob"
  bottom: "label"
  include {
    phase: TEST
  }
  hdf5_output_param {
    file_name: "hdf5_dumps/iter_7475.h5"
  }
}
layer {
  name: "loss"
  type: "SoftmaxWithLoss"
  bottom: "fc8_plantvillage"
  bottom: "label"
  top: "loss"
}
layer {
  name: "accuracy"
  type: "Accuracy"
  bottom: "fc8_plantvillage"
  bottom: "label"
  top: "accuracy"
  include {
    phase: TEST
  }
}
I0403 13:20:32.809139 31944 layer_factory.hpp:77] Creating layer data
I0403 13:20:32.809792 31944 net.cpp:91] Creating Layer data
I0403 13:20:32.809823 31944 net.cpp:399] data -> data
I0403 13:20:32.809873 31944 net.cpp:399] data -> label
I0403 13:20:32.809907 31944 data_transformer.cpp:25] Loading mean file from: /home/mohanty/data/final_dataset/lmdb/segmented-60-40/mean.binaryproto
I0403 13:20:32.813159 31947 db_lmdb.cpp:38] Opened lmdb /home/mohanty/data/final_dataset/lmdb/segmented-60-40/test_db
I0403 13:20:32.824185 31944 data_layer.cpp:41] output data size: 100,3,227,227
I0403 13:20:32.941959 31944 net.cpp:141] Setting up data
I0403 13:20:32.942070 31944 net.cpp:148] Top shape: 100 3 227 227 (15458700)
I0403 13:20:32.942091 31944 net.cpp:148] Top shape: 100 (100)
I0403 13:20:32.942106 31944 net.cpp:156] Memory required for data: 61835200
I0403 13:20:32.942134 31944 layer_factory.hpp:77] Creating layer label_data_1_split
I0403 13:20:32.942160 31944 net.cpp:91] Creating Layer label_data_1_split
I0403 13:20:32.942178 31944 net.cpp:425] label_data_1_split <- label
I0403 13:20:32.942214 31944 net.cpp:399] label_data_1_split -> label_data_1_split_0
I0403 13:20:32.942240 31944 net.cpp:399] label_data_1_split -> label_data_1_split_1
I0403 13:20:32.942261 31944 net.cpp:399] label_data_1_split -> label_data_1_split_2
I0403 13:20:32.942337 31944 net.cpp:141] Setting up label_data_1_split
I0403 13:20:32.942359 31944 net.cpp:148] Top shape: 100 (100)
I0403 13:20:32.942376 31944 net.cpp:148] Top shape: 100 (100)
I0403 13:20:32.942392 31944 net.cpp:148] Top shape: 100 (100)
I0403 13:20:32.942406 31944 net.cpp:156] Memory required for data: 61836400
I0403 13:20:32.942421 31944 layer_factory.hpp:77] Creating layer conv1
I0403 13:20:32.942454 31944 net.cpp:91] Creating Layer conv1
I0403 13:20:32.942472 31944 net.cpp:425] conv1 <- data
I0403 13:20:32.942492 31944 net.cpp:399] conv1 -> conv1
I0403 13:20:33.082319 31944 net.cpp:141] Setting up conv1
I0403 13:20:33.082412 31944 net.cpp:148] Top shape: 100 96 55 55 (29040000)
I0403 13:20:33.082430 31944 net.cpp:156] Memory required for data: 177996400
I0403 13:20:33.082461 31944 layer_factory.hpp:77] Creating layer relu1
I0403 13:20:33.082489 31944 net.cpp:91] Creating Layer relu1
I0403 13:20:33.082509 31944 net.cpp:425] relu1 <- conv1
I0403 13:20:33.082527 31944 net.cpp:386] relu1 -> conv1 (in-place)
I0403 13:20:33.082787 31944 net.cpp:141] Setting up relu1
I0403 13:20:33.082815 31944 net.cpp:148] Top shape: 100 96 55 55 (29040000)
I0403 13:20:33.082862 31944 net.cpp:156] Memory required for data: 294156400
I0403 13:20:33.082880 31944 layer_factory.hpp:77] Creating layer norm1
I0403 13:20:33.082906 31944 net.cpp:91] Creating Layer norm1
I0403 13:20:33.082924 31944 net.cpp:425] norm1 <- conv1
I0403 13:20:33.082943 31944 net.cpp:399] norm1 -> norm1
I0403 13:20:33.083257 31944 net.cpp:141] Setting up norm1
I0403 13:20:33.083290 31944 net.cpp:148] Top shape: 100 96 55 55 (29040000)
I0403 13:20:33.083307 31944 net.cpp:156] Memory required for data: 410316400
I0403 13:20:33.083323 31944 layer_factory.hpp:77] Creating layer pool1
I0403 13:20:33.083346 31944 net.cpp:91] Creating Layer pool1
I0403 13:20:33.083364 31944 net.cpp:425] pool1 <- norm1
I0403 13:20:33.083382 31944 net.cpp:399] pool1 -> pool1
I0403 13:20:33.083449 31944 net.cpp:141] Setting up pool1
I0403 13:20:33.083473 31944 net.cpp:148] Top shape: 100 96 27 27 (6998400)
I0403 13:20:33.083488 31944 net.cpp:156] Memory required for data: 438310000
I0403 13:20:33.083504 31944 layer_factory.hpp:77] Creating layer conv2
I0403 13:20:33.083528 31944 net.cpp:91] Creating Layer conv2
I0403 13:20:33.083544 31944 net.cpp:425] conv2 <- pool1
I0403 13:20:33.083562 31944 net.cpp:399] conv2 -> conv2
I0403 13:20:33.099005 31944 net.cpp:141] Setting up conv2
I0403 13:20:33.099066 31944 net.cpp:148] Top shape: 100 256 27 27 (18662400)
I0403 13:20:33.099083 31944 net.cpp:156] Memory required for data: 512959600
I0403 13:20:33.099108 31944 layer_factory.hpp:77] Creating layer relu2
I0403 13:20:33.099128 31944 net.cpp:91] Creating Layer relu2
I0403 13:20:33.099145 31944 net.cpp:425] relu2 <- conv2
I0403 13:20:33.099164 31944 net.cpp:386] relu2 -> conv2 (in-place)
I0403 13:20:33.099467 31944 net.cpp:141] Setting up relu2
I0403 13:20:33.099494 31944 net.cpp:148] Top shape: 100 256 27 27 (18662400)
I0403 13:20:33.099511 31944 net.cpp:156] Memory required for data: 587609200
I0403 13:20:33.099527 31944 layer_factory.hpp:77] Creating layer norm2
I0403 13:20:33.099550 31944 net.cpp:91] Creating Layer norm2
I0403 13:20:33.099565 31944 net.cpp:425] norm2 <- conv2
I0403 13:20:33.099584 31944 net.cpp:399] norm2 -> norm2
I0403 13:20:33.099786 31944 net.cpp:141] Setting up norm2
I0403 13:20:33.099812 31944 net.cpp:148] Top shape: 100 256 27 27 (18662400)
I0403 13:20:33.099828 31944 net.cpp:156] Memory required for data: 662258800
I0403 13:20:33.099844 31944 layer_factory.hpp:77] Creating layer pool2
I0403 13:20:33.099864 31944 net.cpp:91] Creating Layer pool2
I0403 13:20:33.099879 31944 net.cpp:425] pool2 <- norm2
I0403 13:20:33.099898 31944 net.cpp:399] pool2 -> pool2
I0403 13:20:33.099951 31944 net.cpp:141] Setting up pool2
I0403 13:20:33.099975 31944 net.cpp:148] Top shape: 100 256 13 13 (4326400)
I0403 13:20:33.099992 31944 net.cpp:156] Memory required for data: 679564400
I0403 13:20:33.100006 31944 layer_factory.hpp:77] Creating layer conv3
I0403 13:20:33.100029 31944 net.cpp:91] Creating Layer conv3
I0403 13:20:33.100046 31944 net.cpp:425] conv3 <- pool2
I0403 13:20:33.100066 31944 net.cpp:399] conv3 -> conv3
I0403 13:20:33.140717 31944 net.cpp:141] Setting up conv3
I0403 13:20:33.140805 31944 net.cpp:148] Top shape: 100 384 13 13 (6489600)
I0403 13:20:33.140822 31944 net.cpp:156] Memory required for data: 705522800
I0403 13:20:33.140852 31944 layer_factory.hpp:77] Creating layer relu3
I0403 13:20:33.140877 31944 net.cpp:91] Creating Layer relu3
I0403 13:20:33.140894 31944 net.cpp:425] relu3 <- conv3
I0403 13:20:33.140914 31944 net.cpp:386] relu3 -> conv3 (in-place)
I0403 13:20:33.141211 31944 net.cpp:141] Setting up relu3
I0403 13:20:33.141243 31944 net.cpp:148] Top shape: 100 384 13 13 (6489600)
I0403 13:20:33.141260 31944 net.cpp:156] Memory required for data: 731481200
I0403 13:20:33.141280 31944 layer_factory.hpp:77] Creating layer conv4
I0403 13:20:33.141309 31944 net.cpp:91] Creating Layer conv4
I0403 13:20:33.141329 31944 net.cpp:425] conv4 <- conv3
I0403 13:20:33.141350 31944 net.cpp:399] conv4 -> conv4
I0403 13:20:33.172163 31944 net.cpp:141] Setting up conv4
I0403 13:20:33.172257 31944 net.cpp:148] Top shape: 100 384 13 13 (6489600)
I0403 13:20:33.172317 31944 net.cpp:156] Memory required for data: 757439600
I0403 13:20:33.172339 31944 layer_factory.hpp:77] Creating layer relu4
I0403 13:20:33.172365 31944 net.cpp:91] Creating Layer relu4
I0403 13:20:33.172384 31944 net.cpp:425] relu4 <- conv4
I0403 13:20:33.172405 31944 net.cpp:386] relu4 -> conv4 (in-place)
I0403 13:20:33.172703 31944 net.cpp:141] Setting up relu4
I0403 13:20:33.172730 31944 net.cpp:148] Top shape: 100 384 13 13 (6489600)
I0403 13:20:33.172746 31944 net.cpp:156] Memory required for data: 783398000
I0403 13:20:33.172761 31944 layer_factory.hpp:77] Creating layer conv5
I0403 13:20:33.172787 31944 net.cpp:91] Creating Layer conv5
I0403 13:20:33.172806 31944 net.cpp:425] conv5 <- conv4
I0403 13:20:33.172839 31944 net.cpp:399] conv5 -> conv5
I0403 13:20:33.194085 31944 net.cpp:141] Setting up conv5
I0403 13:20:33.194159 31944 net.cpp:148] Top shape: 100 256 13 13 (4326400)
I0403 13:20:33.194175 31944 net.cpp:156] Memory required for data: 800703600
I0403 13:20:33.194200 31944 layer_factory.hpp:77] Creating layer relu5
I0403 13:20:33.194224 31944 net.cpp:91] Creating Layer relu5
I0403 13:20:33.194242 31944 net.cpp:425] relu5 <- conv5
I0403 13:20:33.194260 31944 net.cpp:386] relu5 -> conv5 (in-place)
I0403 13:20:33.194535 31944 net.cpp:141] Setting up relu5
I0403 13:20:33.194562 31944 net.cpp:148] Top shape: 100 256 13 13 (4326400)
I0403 13:20:33.194576 31944 net.cpp:156] Memory required for data: 818009200
I0403 13:20:33.194591 31944 layer_factory.hpp:77] Creating layer pool5
I0403 13:20:33.194617 31944 net.cpp:91] Creating Layer pool5
I0403 13:20:33.194633 31944 net.cpp:425] pool5 <- conv5
I0403 13:20:33.194654 31944 net.cpp:399] pool5 -> pool5
I0403 13:20:33.194715 31944 net.cpp:141] Setting up pool5
I0403 13:20:33.194737 31944 net.cpp:148] Top shape: 100 256 6 6 (921600)
I0403 13:20:33.194751 31944 net.cpp:156] Memory required for data: 821695600
I0403 13:20:33.194766 31944 layer_factory.hpp:77] Creating layer fc6
I0403 13:20:33.194794 31944 net.cpp:91] Creating Layer fc6
I0403 13:20:33.194813 31944 net.cpp:425] fc6 <- pool5
I0403 13:20:33.194833 31944 net.cpp:399] fc6 -> fc6
I0403 13:20:34.742719 31944 net.cpp:141] Setting up fc6
I0403 13:20:34.742810 31944 net.cpp:148] Top shape: 100 4096 (409600)
I0403 13:20:34.742826 31944 net.cpp:156] Memory required for data: 823334000
I0403 13:20:34.742847 31944 layer_factory.hpp:77] Creating layer relu6
I0403 13:20:34.742872 31944 net.cpp:91] Creating Layer relu6
I0403 13:20:34.742892 31944 net.cpp:425] relu6 <- fc6
I0403 13:20:34.742911 31944 net.cpp:386] relu6 -> fc6 (in-place)
I0403 13:20:34.743137 31944 net.cpp:141] Setting up relu6
I0403 13:20:34.743162 31944 net.cpp:148] Top shape: 100 4096 (409600)
I0403 13:20:34.743176 31944 net.cpp:156] Memory required for data: 824972400
I0403 13:20:34.743191 31944 layer_factory.hpp:77] Creating layer drop6
I0403 13:20:34.743211 31944 net.cpp:91] Creating Layer drop6
I0403 13:20:34.743228 31944 net.cpp:425] drop6 <- fc6
I0403 13:20:34.743245 31944 net.cpp:386] drop6 -> fc6 (in-place)
I0403 13:20:34.743304 31944 net.cpp:141] Setting up drop6
I0403 13:20:34.743327 31944 net.cpp:148] Top shape: 100 4096 (409600)
I0403 13:20:34.743342 31944 net.cpp:156] Memory required for data: 826610800
I0403 13:20:34.743357 31944 layer_factory.hpp:77] Creating layer fc7
I0403 13:20:34.743381 31944 net.cpp:91] Creating Layer fc7
I0403 13:20:34.743398 31944 net.cpp:425] fc7 <- fc6
I0403 13:20:34.743417 31944 net.cpp:399] fc7 -> fc7
I0403 13:20:35.456696 31944 net.cpp:141] Setting up fc7
I0403 13:20:35.456802 31944 net.cpp:148] Top shape: 100 4096 (409600)
I0403 13:20:35.456820 31944 net.cpp:156] Memory required for data: 828249200
I0403 13:20:35.456841 31944 layer_factory.hpp:77] Creating layer relu7
I0403 13:20:35.456864 31944 net.cpp:91] Creating Layer relu7
I0403 13:20:35.456882 31944 net.cpp:425] relu7 <- fc7
I0403 13:20:35.456900 31944 net.cpp:386] relu7 -> fc7 (in-place)
I0403 13:20:35.457327 31944 net.cpp:141] Setting up relu7
I0403 13:20:35.457353 31944 net.cpp:148] Top shape: 100 4096 (409600)
I0403 13:20:35.457402 31944 net.cpp:156] Memory required for data: 829887600
I0403 13:20:35.457418 31944 layer_factory.hpp:77] Creating layer drop7
I0403 13:20:35.457437 31944 net.cpp:91] Creating Layer drop7
I0403 13:20:35.457453 31944 net.cpp:425] drop7 <- fc7
I0403 13:20:35.457470 31944 net.cpp:386] drop7 -> fc7 (in-place)
I0403 13:20:35.457515 31944 net.cpp:141] Setting up drop7
I0403 13:20:35.457537 31944 net.cpp:148] Top shape: 100 4096 (409600)
I0403 13:20:35.457552 31944 net.cpp:156] Memory required for data: 831526000
I0403 13:20:35.457566 31944 layer_factory.hpp:77] Creating layer fc8_plantvillage
I0403 13:20:35.457588 31944 net.cpp:91] Creating Layer fc8_plantvillage
I0403 13:20:35.457604 31944 net.cpp:425] fc8_plantvillage <- fc7
I0403 13:20:35.457623 31944 net.cpp:399] fc8_plantvillage -> fc8_plantvillage
I0403 13:20:35.464381 31944 net.cpp:141] Setting up fc8_plantvillage
I0403 13:20:35.464408 31944 net.cpp:148] Top shape: 100 38 (3800)
I0403 13:20:35.464424 31944 net.cpp:156] Memory required for data: 831541200
I0403 13:20:35.464442 31944 layer_factory.hpp:77] Creating layer fc8_plantvillage_fc8_plantvillage_0_split
I0403 13:20:35.464462 31944 net.cpp:91] Creating Layer fc8_plantvillage_fc8_plantvillage_0_split
I0403 13:20:35.464478 31944 net.cpp:425] fc8_plantvillage_fc8_plantvillage_0_split <- fc8_plantvillage
I0403 13:20:35.464496 31944 net.cpp:399] fc8_plantvillage_fc8_plantvillage_0_split -> fc8_plantvillage_fc8_plantvillage_0_split_0
I0403 13:20:35.464519 31944 net.cpp:399] fc8_plantvillage_fc8_plantvillage_0_split -> fc8_plantvillage_fc8_plantvillage_0_split_1
I0403 13:20:35.464540 31944 net.cpp:399] fc8_plantvillage_fc8_plantvillage_0_split -> fc8_plantvillage_fc8_plantvillage_0_split_2
I0403 13:20:35.464617 31944 net.cpp:141] Setting up fc8_plantvillage_fc8_plantvillage_0_split
I0403 13:20:35.464639 31944 net.cpp:148] Top shape: 100 38 (3800)
I0403 13:20:35.464655 31944 net.cpp:148] Top shape: 100 38 (3800)
I0403 13:20:35.464671 31944 net.cpp:148] Top shape: 100 38 (3800)
I0403 13:20:35.464685 31944 net.cpp:156] Memory required for data: 831586800
I0403 13:20:35.464699 31944 layer_factory.hpp:77] Creating layer prob
I0403 13:20:35.464720 31944 net.cpp:91] Creating Layer prob
I0403 13:20:35.464737 31944 net.cpp:425] prob <- fc8_plantvillage_fc8_plantvillage_0_split_0
I0403 13:20:35.464756 31944 net.cpp:399] prob -> prob
I0403 13:20:35.464982 31944 net.cpp:141] Setting up prob
I0403 13:20:35.465006 31944 net.cpp:148] Top shape: 100 38 (3800)
I0403 13:20:35.465021 31944 net.cpp:156] Memory required for data: 831602000
I0403 13:20:35.465035 31944 layer_factory.hpp:77] Creating layer hdf5out
I0403 13:20:35.465056 31944 net.cpp:91] Creating Layer hdf5out
I0403 13:20:35.465073 31944 net.cpp:425] hdf5out <- prob
I0403 13:20:35.465090 31944 net.cpp:425] hdf5out <- label_data_1_split_0
I0403 13:20:35.467391 31944 net.cpp:141] Setting up hdf5out
…
