…
I0403 13:16:22.650569 31806 net.cpp:313] The NetState phase (1) differed from the phase (0) specified by a rule in layer data
I0403 13:16:22.650895 31806 net.cpp:49] Initializing net from parameters: 
state {
  phase: TEST
}
layer {
  name: "data"
  type: "Data"
  top: "data"
  top: "label"
  include {
    phase: TEST
  }
  transform_param {
    crop_size: 227
    mean_file: "/home/mohanty/data/final_dataset/lmdb/segmented-60-40/mean.binaryproto"
  }
  data_param {
    source: "/home/mohanty/data/final_dataset/lmdb/segmented-60-40/test_db"
    batch_size: 100
    backend: LMDB
  }
}
layer {
  name: "conv1"
  type: "Convolution"
  bottom: "data"
  top: "conv1"
  param {
    lr_mult: 1
    decay_mult: 1
  }
  param {
    lr_mult: 2
    decay_mult: 0
  }
  convolution_param {
    num_output: 96
    kernel_size: 11
    stride: 4
    weight_filler {
      type: "gaussian"
      std: 0.01
    }
    bias_filler {
      type: "constant"
      value: 0
    }
  }
}
layer {
  name: "relu1"
  type: "ReLU"
  bottom: "conv1"
  top: "conv1"
}
layer {
  name: "norm1"
  type: "LRN"
  bottom: "conv1"
  top: "norm1"
  lrn_param {
    local_size: 5
    alpha: 0.0001
    beta: 0.75
  }
}
layer {
  name: "pool1"
  type: "Pooling"
  bottom: "norm1"
  top: "pool1"
  pooling_param {
    pool: MAX
    kernel_size: 3
    stride: 2
  }
}
layer {
  name: "conv2"
  type: "Convolution"
  bottom: "pool1"
  top: "conv2"
  param {
    lr_mult: 1
    decay_mult: 1
  }
  param {
    lr_mult: 2
    decay_mult: 0
  }
  convolution_param {
    num_output: 256
    pad: 2
    kernel_size: 5
    group: 2
    weight_filler {
      type: "gaussian"
      std: 0.01
    }
    bias_filler {
      type: "constant"
      value: 0.1
    }
  }
}
layer {
  name: "relu2"
  type: "ReLU"
  bottom: "conv2"
  top: "conv2"
}
layer {
  name: "norm2"
  type: "LRN"
  bottom: "conv2"
  top: "norm2"
  lrn_param {
    local_size: 5
    alpha: 0.0001
    beta: 0.75
  }
}
layer {
  name: "pool2"
  type: "Pooling"
  bottom: "norm2"
  top: "pool2"
  pooling_param {
    pool: MAX
    kernel_size: 3
    stride: 2
  }
}
layer {
  name: "conv3"
  type: "Convolution"
  bottom: "pool2"
  top: "conv3"
  param {
    lr_mult: 1
    decay_mult: 1
  }
  param {
    lr_mult: 2
    decay_mult: 0
  }
  convolution_param {
    num_output: 384
    pad: 1
    kernel_size: 3
    weight_filler {
      type: "gaussian"
      std: 0.01
    }
    bias_filler {
      type: "constant"
      value: 0
    }
  }
}
layer {
  name: "relu3"
  type: "ReLU"
  bottom: "conv3"
  top: "conv3"
}
layer {
  name: "conv4"
  type: "Convolution"
  bottom: "conv3"
  top: "conv4"
  param {
    lr_mult: 1
    decay_mult: 1
  }
  param {
    lr_mult: 2
    decay_mult: 0
  }
  convolution_param {
    num_output: 384
    pad: 1
    kernel_size: 3
    group: 2
    weight_filler {
      type: "gaussian"
      std: 0.01
    }
    bias_filler {
      type: "constant"
      value: 0.1
    }
  }
}
layer {
  name: "relu4"
  type: "ReLU"
  bottom: "conv4"
  top: "conv4"
}
layer {
  name: "conv5"
  type: "Convolution"
  bottom: "conv4"
  top: "conv5"
  param {
    lr_mult: 1
    decay_mult: 1
  }
  param {
    lr_mult: 2
    decay_mult: 0
  }
  convolution_param {
    num_output: 256
    pad: 1
    kernel_size: 3
    group: 2
    weight_filler {
      type: "gaussian"
      std: 0.01
    }
    bias_filler {
      type: "constant"
      value: 0.1
    }
  }
}
layer {
  name: "relu5"
  type: "ReLU"
  bottom: "conv5"
  top: "conv5"
}
layer {
  name: "pool5"
  type: "Pooling"
  bottom: "conv5"
  top: "pool5"
  pooling_param {
    pool: MAX
    kernel_size: 3
    stride: 2
  }
}
layer {
  name: "fc6"
  type: "InnerProduct"
  bottom: "pool5"
  top: "fc6"
  param {
    lr_mult: 1
    decay_mult: 1
  }
  param {
    lr_mult: 2
    decay_mult: 0
  }
  inner_product_param {
    num_output: 4096
    weight_filler {
      type: "gaussian"
      std: 0.005
    }
    bias_filler {
      type: "constant"
      value: 0.1
    }
  }
}
layer {
  name: "relu6"
  type: "ReLU"
  bottom: "fc6"
  top: "fc6"
}
layer {
  name: "drop6"
  type: "Dropout"
  bottom: "fc6"
  top: "fc6"
  dropout_param {
    dropout_ratio: 0.5
  }
}
layer {
  name: "fc7"
  type: "InnerProduct"
  bottom: "fc6"
  top: "fc7"
  param {
    lr_mult: 1
    decay_mult: 1
  }
  param {
    lr_mult: 2
    decay_mult: 0
  }
  inner_product_param {
    num_output: 4096
    weight_filler {
      type: "gaussian"
      std: 0.005
    }
    bias_filler {
      type: "constant"
      value: 0.1
    }
  }
}
layer {
  name: "relu7"
  type: "ReLU"
  bottom: "fc7"
  top: "fc7"
}
layer {
  name: "drop7"
  type: "Dropout"
  bottom: "fc7"
  top: "fc7"
  dropout_param {
    dropout_ratio: 0.5
  }
}
layer {
  name: "fc8_plantvillage"
  type: "InnerProduct"
  bottom: "fc7"
  top: "fc8_plantvillage"
  param {
    lr_mult: 1
    decay_mult: 1
  }
  param {
    lr_mult: 2
    decay_mult: 0
  }
  inner_product_param {
    num_output: 38
    weight_filler {
      type: "gaussian"
      std: 0.01
    }
    bias_filler {
      type: "constant"
      value: 0
    }
  }
}
layer {
  name: "prob"
  type: "Softmax"
  bottom: "fc8_plantvillage"
  top: "prob"
  include {
    phase: TEST
  }
}
layer {
  name: "hdf5out"
  type: "HDF5Output"
  bottom: "prob"
  bottom: "label"
  include {
    phase: TEST
  }
  hdf5_output_param {
    file_name: "hdf5_dumps/iter_5525.h5"
  }
}
layer {
  name: "loss"
  type: "SoftmaxWithLoss"
  bottom: "fc8_plantvillage"
  bottom: "label"
  top: "loss"
}
layer {
  name: "accuracy"
  type: "Accuracy"
  bottom: "fc8_plantvillage"
  bottom: "label"
  top: "accuracy"
  include {
    phase: TEST
  }
}
I0403 13:16:22.651511 31806 layer_factory.hpp:77] Creating layer data
I0403 13:16:22.652184 31806 net.cpp:91] Creating Layer data
I0403 13:16:22.652215 31806 net.cpp:399] data -> data
I0403 13:16:22.652268 31806 net.cpp:399] data -> label
I0403 13:16:22.652310 31806 data_transformer.cpp:25] Loading mean file from: /home/mohanty/data/final_dataset/lmdb/segmented-60-40/mean.binaryproto
I0403 13:16:22.655405 31809 db_lmdb.cpp:38] Opened lmdb /home/mohanty/data/final_dataset/lmdb/segmented-60-40/test_db
I0403 13:16:22.666757 31806 data_layer.cpp:41] output data size: 100,3,227,227
I0403 13:16:22.786576 31806 net.cpp:141] Setting up data
I0403 13:16:22.786680 31806 net.cpp:148] Top shape: 100 3 227 227 (15458700)
I0403 13:16:22.786702 31806 net.cpp:148] Top shape: 100 (100)
I0403 13:16:22.786717 31806 net.cpp:156] Memory required for data: 61835200
I0403 13:16:22.786744 31806 layer_factory.hpp:77] Creating layer label_data_1_split
I0403 13:16:22.786770 31806 net.cpp:91] Creating Layer label_data_1_split
I0403 13:16:22.786788 31806 net.cpp:425] label_data_1_split <- label
I0403 13:16:22.786818 31806 net.cpp:399] label_data_1_split -> label_data_1_split_0
I0403 13:16:22.786844 31806 net.cpp:399] label_data_1_split -> label_data_1_split_1
I0403 13:16:22.786864 31806 net.cpp:399] label_data_1_split -> label_data_1_split_2
I0403 13:16:22.786927 31806 net.cpp:141] Setting up label_data_1_split
I0403 13:16:22.786950 31806 net.cpp:148] Top shape: 100 (100)
I0403 13:16:22.786967 31806 net.cpp:148] Top shape: 100 (100)
I0403 13:16:22.786983 31806 net.cpp:148] Top shape: 100 (100)
I0403 13:16:22.786998 31806 net.cpp:156] Memory required for data: 61836400
I0403 13:16:22.787012 31806 layer_factory.hpp:77] Creating layer conv1
I0403 13:16:22.787045 31806 net.cpp:91] Creating Layer conv1
I0403 13:16:22.787063 31806 net.cpp:425] conv1 <- data
I0403 13:16:22.787082 31806 net.cpp:399] conv1 -> conv1
I0403 13:16:22.928685 31806 net.cpp:141] Setting up conv1
I0403 13:16:22.928752 31806 net.cpp:148] Top shape: 100 96 55 55 (29040000)
I0403 13:16:22.928769 31806 net.cpp:156] Memory required for data: 177996400
I0403 13:16:22.928800 31806 layer_factory.hpp:77] Creating layer relu1
I0403 13:16:22.928828 31806 net.cpp:91] Creating Layer relu1
I0403 13:16:22.928844 31806 net.cpp:425] relu1 <- conv1
I0403 13:16:22.928864 31806 net.cpp:386] relu1 -> conv1 (in-place)
I0403 13:16:22.929116 31806 net.cpp:141] Setting up relu1
I0403 13:16:22.929142 31806 net.cpp:148] Top shape: 100 96 55 55 (29040000)
I0403 13:16:22.929188 31806 net.cpp:156] Memory required for data: 294156400
I0403 13:16:22.929204 31806 layer_factory.hpp:77] Creating layer norm1
I0403 13:16:22.929230 31806 net.cpp:91] Creating Layer norm1
I0403 13:16:22.929247 31806 net.cpp:425] norm1 <- conv1
I0403 13:16:22.929265 31806 net.cpp:399] norm1 -> norm1
I0403 13:16:22.929574 31806 net.cpp:141] Setting up norm1
I0403 13:16:22.929601 31806 net.cpp:148] Top shape: 100 96 55 55 (29040000)
I0403 13:16:22.929638 31806 net.cpp:156] Memory required for data: 410316400
I0403 13:16:22.929654 31806 layer_factory.hpp:77] Creating layer pool1
I0403 13:16:22.929677 31806 net.cpp:91] Creating Layer pool1
I0403 13:16:22.929693 31806 net.cpp:425] pool1 <- norm1
I0403 13:16:22.929710 31806 net.cpp:399] pool1 -> pool1
I0403 13:16:22.929787 31806 net.cpp:141] Setting up pool1
I0403 13:16:22.929812 31806 net.cpp:148] Top shape: 100 96 27 27 (6998400)
I0403 13:16:22.929827 31806 net.cpp:156] Memory required for data: 438310000
I0403 13:16:22.929842 31806 layer_factory.hpp:77] Creating layer conv2
I0403 13:16:22.929867 31806 net.cpp:91] Creating Layer conv2
I0403 13:16:22.929883 31806 net.cpp:425] conv2 <- pool1
I0403 13:16:22.929901 31806 net.cpp:399] conv2 -> conv2
I0403 13:16:22.945029 31806 net.cpp:141] Setting up conv2
I0403 13:16:22.945096 31806 net.cpp:148] Top shape: 100 256 27 27 (18662400)
I0403 13:16:22.945112 31806 net.cpp:156] Memory required for data: 512959600
I0403 13:16:22.945137 31806 layer_factory.hpp:77] Creating layer relu2
I0403 13:16:22.945159 31806 net.cpp:91] Creating Layer relu2
I0403 13:16:22.945183 31806 net.cpp:425] relu2 <- conv2
I0403 13:16:22.945207 31806 net.cpp:386] relu2 -> conv2 (in-place)
I0403 13:16:22.945535 31806 net.cpp:141] Setting up relu2
I0403 13:16:22.945595 31806 net.cpp:148] Top shape: 100 256 27 27 (18662400)
I0403 13:16:22.945622 31806 net.cpp:156] Memory required for data: 587609200
I0403 13:16:22.945638 31806 layer_factory.hpp:77] Creating layer norm2
I0403 13:16:22.945660 31806 net.cpp:91] Creating Layer norm2
I0403 13:16:22.945685 31806 net.cpp:425] norm2 <- conv2
I0403 13:16:22.945709 31806 net.cpp:399] norm2 -> norm2
I0403 13:16:22.945953 31806 net.cpp:141] Setting up norm2
I0403 13:16:22.945983 31806 net.cpp:148] Top shape: 100 256 27 27 (18662400)
I0403 13:16:22.946001 31806 net.cpp:156] Memory required for data: 662258800
I0403 13:16:22.946027 31806 layer_factory.hpp:77] Creating layer pool2
I0403 13:16:22.946046 31806 net.cpp:91] Creating Layer pool2
I0403 13:16:22.946063 31806 net.cpp:425] pool2 <- norm2
I0403 13:16:22.946125 31806 net.cpp:399] pool2 -> pool2
I0403 13:16:22.946182 31806 net.cpp:141] Setting up pool2
I0403 13:16:22.946208 31806 net.cpp:148] Top shape: 100 256 13 13 (4326400)
I0403 13:16:22.946231 31806 net.cpp:156] Memory required for data: 679564400
I0403 13:16:22.946264 31806 layer_factory.hpp:77] Creating layer conv3
I0403 13:16:22.946303 31806 net.cpp:91] Creating Layer conv3
I0403 13:16:22.946326 31806 net.cpp:425] conv3 <- pool2
I0403 13:16:22.946353 31806 net.cpp:399] conv3 -> conv3
I0403 13:16:22.987555 31806 net.cpp:141] Setting up conv3
I0403 13:16:22.987628 31806 net.cpp:148] Top shape: 100 384 13 13 (6489600)
I0403 13:16:22.987646 31806 net.cpp:156] Memory required for data: 705522800
I0403 13:16:22.987674 31806 layer_factory.hpp:77] Creating layer relu3
I0403 13:16:22.987697 31806 net.cpp:91] Creating Layer relu3
I0403 13:16:22.987715 31806 net.cpp:425] relu3 <- conv3
I0403 13:16:22.987736 31806 net.cpp:386] relu3 -> conv3 (in-place)
I0403 13:16:22.988029 31806 net.cpp:141] Setting up relu3
I0403 13:16:22.988057 31806 net.cpp:148] Top shape: 100 384 13 13 (6489600)
I0403 13:16:22.988075 31806 net.cpp:156] Memory required for data: 731481200
I0403 13:16:22.988090 31806 layer_factory.hpp:77] Creating layer conv4
I0403 13:16:22.988116 31806 net.cpp:91] Creating Layer conv4
I0403 13:16:22.988134 31806 net.cpp:425] conv4 <- conv3
I0403 13:16:22.988157 31806 net.cpp:399] conv4 -> conv4
I0403 13:16:23.019637 31806 net.cpp:141] Setting up conv4
I0403 13:16:23.019718 31806 net.cpp:148] Top shape: 100 384 13 13 (6489600)
I0403 13:16:23.019759 31806 net.cpp:156] Memory required for data: 757439600
I0403 13:16:23.019783 31806 layer_factory.hpp:77] Creating layer relu4
I0403 13:16:23.019806 31806 net.cpp:91] Creating Layer relu4
I0403 13:16:23.019824 31806 net.cpp:425] relu4 <- conv4
I0403 13:16:23.019843 31806 net.cpp:386] relu4 -> conv4 (in-place)
I0403 13:16:23.020181 31806 net.cpp:141] Setting up relu4
I0403 13:16:23.020212 31806 net.cpp:148] Top shape: 100 384 13 13 (6489600)
I0403 13:16:23.020229 31806 net.cpp:156] Memory required for data: 783398000
I0403 13:16:23.020246 31806 layer_factory.hpp:77] Creating layer conv5
I0403 13:16:23.020277 31806 net.cpp:91] Creating Layer conv5
I0403 13:16:23.020297 31806 net.cpp:425] conv5 <- conv4
I0403 13:16:23.020316 31806 net.cpp:399] conv5 -> conv5
I0403 13:16:23.041952 31806 net.cpp:141] Setting up conv5
I0403 13:16:23.042017 31806 net.cpp:148] Top shape: 100 256 13 13 (4326400)
I0403 13:16:23.042037 31806 net.cpp:156] Memory required for data: 800703600
I0403 13:16:23.042062 31806 layer_factory.hpp:77] Creating layer relu5
I0403 13:16:23.042084 31806 net.cpp:91] Creating Layer relu5
I0403 13:16:23.042101 31806 net.cpp:425] relu5 <- conv5
I0403 13:16:23.042122 31806 net.cpp:386] relu5 -> conv5 (in-place)
I0403 13:16:23.042428 31806 net.cpp:141] Setting up relu5
I0403 13:16:23.042455 31806 net.cpp:148] Top shape: 100 256 13 13 (4326400)
I0403 13:16:23.042474 31806 net.cpp:156] Memory required for data: 818009200
I0403 13:16:23.042490 31806 layer_factory.hpp:77] Creating layer pool5
I0403 13:16:23.042515 31806 net.cpp:91] Creating Layer pool5
I0403 13:16:23.042534 31806 net.cpp:425] pool5 <- conv5
I0403 13:16:23.042584 31806 net.cpp:399] pool5 -> pool5
I0403 13:16:23.042652 31806 net.cpp:141] Setting up pool5
I0403 13:16:23.042676 31806 net.cpp:148] Top shape: 100 256 6 6 (921600)
I0403 13:16:23.042692 31806 net.cpp:156] Memory required for data: 821695600
I0403 13:16:23.042707 31806 layer_factory.hpp:77] Creating layer fc6
I0403 13:16:23.042734 31806 net.cpp:91] Creating Layer fc6
I0403 13:16:23.042752 31806 net.cpp:425] fc6 <- pool5
I0403 13:16:23.042774 31806 net.cpp:399] fc6 -> fc6
I0403 13:16:24.604085 31806 net.cpp:141] Setting up fc6
I0403 13:16:24.604178 31806 net.cpp:148] Top shape: 100 4096 (409600)
I0403 13:16:24.604195 31806 net.cpp:156] Memory required for data: 823334000
I0403 13:16:24.604217 31806 layer_factory.hpp:77] Creating layer relu6
I0403 13:16:24.604239 31806 net.cpp:91] Creating Layer relu6
I0403 13:16:24.604257 31806 net.cpp:425] relu6 <- fc6
I0403 13:16:24.604282 31806 net.cpp:386] relu6 -> fc6 (in-place)
I0403 13:16:24.604503 31806 net.cpp:141] Setting up relu6
I0403 13:16:24.604528 31806 net.cpp:148] Top shape: 100 4096 (409600)
I0403 13:16:24.604542 31806 net.cpp:156] Memory required for data: 824972400
I0403 13:16:24.604557 31806 layer_factory.hpp:77] Creating layer drop6
I0403 13:16:24.604575 31806 net.cpp:91] Creating Layer drop6
I0403 13:16:24.604589 31806 net.cpp:425] drop6 <- fc6
I0403 13:16:24.604609 31806 net.cpp:386] drop6 -> fc6 (in-place)
I0403 13:16:24.604660 31806 net.cpp:141] Setting up drop6
I0403 13:16:24.604681 31806 net.cpp:148] Top shape: 100 4096 (409600)
I0403 13:16:24.604696 31806 net.cpp:156] Memory required for data: 826610800
I0403 13:16:24.604709 31806 layer_factory.hpp:77] Creating layer fc7
I0403 13:16:24.604732 31806 net.cpp:91] Creating Layer fc7
I0403 13:16:24.604748 31806 net.cpp:425] fc7 <- fc6
I0403 13:16:24.604766 31806 net.cpp:399] fc7 -> fc7
I0403 13:16:25.292460 31806 net.cpp:141] Setting up fc7
I0403 13:16:25.292546 31806 net.cpp:148] Top shape: 100 4096 (409600)
I0403 13:16:25.292562 31806 net.cpp:156] Memory required for data: 828249200
I0403 13:16:25.292582 31806 layer_factory.hpp:77] Creating layer relu7
I0403 13:16:25.292603 31806 net.cpp:91] Creating Layer relu7
I0403 13:16:25.292620 31806 net.cpp:425] relu7 <- fc7
I0403 13:16:25.292641 31806 net.cpp:386] relu7 -> fc7 (in-place)
I0403 13:16:25.293058 31806 net.cpp:141] Setting up relu7
I0403 13:16:25.293084 31806 net.cpp:148] Top shape: 100 4096 (409600)
I0403 13:16:25.293131 31806 net.cpp:156] Memory required for data: 829887600
I0403 13:16:25.293148 31806 layer_factory.hpp:77] Creating layer drop7
I0403 13:16:25.293165 31806 net.cpp:91] Creating Layer drop7
I0403 13:16:25.293180 31806 net.cpp:425] drop7 <- fc7
I0403 13:16:25.293200 31806 net.cpp:386] drop7 -> fc7 (in-place)
I0403 13:16:25.293244 31806 net.cpp:141] Setting up drop7
I0403 13:16:25.293268 31806 net.cpp:148] Top shape: 100 4096 (409600)
I0403 13:16:25.293289 31806 net.cpp:156] Memory required for data: 831526000
I0403 13:16:25.293305 31806 layer_factory.hpp:77] Creating layer fc8_plantvillage
I0403 13:16:25.293324 31806 net.cpp:91] Creating Layer fc8_plantvillage
I0403 13:16:25.293340 31806 net.cpp:425] fc8_plantvillage <- fc7
I0403 13:16:25.293359 31806 net.cpp:399] fc8_plantvillage -> fc8_plantvillage
I0403 13:16:25.300094 31806 net.cpp:141] Setting up fc8_plantvillage
I0403 13:16:25.300122 31806 net.cpp:148] Top shape: 100 38 (3800)
I0403 13:16:25.300137 31806 net.cpp:156] Memory required for data: 831541200
I0403 13:16:25.300154 31806 layer_factory.hpp:77] Creating layer fc8_plantvillage_fc8_plantvillage_0_split
I0403 13:16:25.300173 31806 net.cpp:91] Creating Layer fc8_plantvillage_fc8_plantvillage_0_split
I0403 13:16:25.300189 31806 net.cpp:425] fc8_plantvillage_fc8_plantvillage_0_split <- fc8_plantvillage
I0403 13:16:25.300207 31806 net.cpp:399] fc8_plantvillage_fc8_plantvillage_0_split -> fc8_plantvillage_fc8_plantvillage_0_split_0
I0403 13:16:25.300228 31806 net.cpp:399] fc8_plantvillage_fc8_plantvillage_0_split -> fc8_plantvillage_fc8_plantvillage_0_split_1
I0403 13:16:25.300247 31806 net.cpp:399] fc8_plantvillage_fc8_plantvillage_0_split -> fc8_plantvillage_fc8_plantvillage_0_split_2
I0403 13:16:25.300329 31806 net.cpp:141] Setting up fc8_plantvillage_fc8_plantvillage_0_split
I0403 13:16:25.300356 31806 net.cpp:148] Top shape: 100 38 (3800)
I0403 13:16:25.300374 31806 net.cpp:148] Top shape: 100 38 (3800)
I0403 13:16:25.300390 31806 net.cpp:148] Top shape: 100 38 (3800)
I0403 13:16:25.300403 31806 net.cpp:156] Memory required for data: 831586800
I0403 13:16:25.300418 31806 layer_factory.hpp:77] Creating layer prob
I0403 13:16:25.300436 31806 net.cpp:91] Creating Layer prob
I0403 13:16:25.300451 31806 net.cpp:425] prob <- fc8_plantvillage_fc8_plantvillage_0_split_0
I0403 13:16:25.300468 31806 net.cpp:399] prob -> prob
I0403 13:16:25.300694 31806 net.cpp:141] Setting up prob
I0403 13:16:25.300719 31806 net.cpp:148] Top shape: 100 38 (3800)
I0403 13:16:25.300734 31806 net.cpp:156] Memory required for data: 831602000
I0403 13:16:25.300748 31806 layer_factory.hpp:77] Creating layer hdf5out
I0403 13:16:25.300766 31806 net.cpp:91] Creating Layer hdf5out
I0403 13:16:25.300782 31806 net.cpp:425] hdf5out <- prob
I0403 13:16:25.300798 31806 net.cpp:425] hdf5out <- label_data_1_split_0
I0403 13:16:25.303128 31806 net.cpp:141] Setting up hdf5out
…
