…
I0403 13:17:45.839772 31848 net.cpp:313] The NetState phase (1) differed from the phase (0) specified by a rule in layer data
I0403 13:17:45.840083 31848 net.cpp:49] Initializing net from parameters: 
state {
  phase: TEST
}
layer {
  name: "data"
  type: "Data"
  top: "data"
  top: "label"
  include {
    phase: TEST
  }
  transform_param {
    crop_size: 227
    mean_file: "/home/mohanty/data/final_dataset/lmdb/segmented-60-40/mean.binaryproto"
  }
  data_param {
    source: "/home/mohanty/data/final_dataset/lmdb/segmented-60-40/test_db"
    batch_size: 100
    backend: LMDB
  }
}
layer {
  name: "conv1"
  type: "Convolution"
  bottom: "data"
  top: "conv1"
  param {
    lr_mult: 1
    decay_mult: 1
  }
  param {
    lr_mult: 2
    decay_mult: 0
  }
  convolution_param {
    num_output: 96
    kernel_size: 11
    stride: 4
    weight_filler {
      type: "gaussian"
      std: 0.01
    }
    bias_filler {
      type: "constant"
      value: 0
    }
  }
}
layer {
  name: "relu1"
  type: "ReLU"
  bottom: "conv1"
  top: "conv1"
}
layer {
  name: "norm1"
  type: "LRN"
  bottom: "conv1"
  top: "norm1"
  lrn_param {
    local_size: 5
    alpha: 0.0001
    beta: 0.75
  }
}
layer {
  name: "pool1"
  type: "Pooling"
  bottom: "norm1"
  top: "pool1"
  pooling_param {
    pool: MAX
    kernel_size: 3
    stride: 2
  }
}
layer {
  name: "conv2"
  type: "Convolution"
  bottom: "pool1"
  top: "conv2"
  param {
    lr_mult: 1
    decay_mult: 1
  }
  param {
    lr_mult: 2
    decay_mult: 0
  }
  convolution_param {
    num_output: 256
    pad: 2
    kernel_size: 5
    group: 2
    weight_filler {
      type: "gaussian"
      std: 0.01
    }
    bias_filler {
      type: "constant"
      value: 0.1
    }
  }
}
layer {
  name: "relu2"
  type: "ReLU"
  bottom: "conv2"
  top: "conv2"
}
layer {
  name: "norm2"
  type: "LRN"
  bottom: "conv2"
  top: "norm2"
  lrn_param {
    local_size: 5
    alpha: 0.0001
    beta: 0.75
  }
}
layer {
  name: "pool2"
  type: "Pooling"
  bottom: "norm2"
  top: "pool2"
  pooling_param {
    pool: MAX
    kernel_size: 3
    stride: 2
  }
}
layer {
  name: "conv3"
  type: "Convolution"
  bottom: "pool2"
  top: "conv3"
  param {
    lr_mult: 1
    decay_mult: 1
  }
  param {
    lr_mult: 2
    decay_mult: 0
  }
  convolution_param {
    num_output: 384
    pad: 1
    kernel_size: 3
    weight_filler {
      type: "gaussian"
      std: 0.01
    }
    bias_filler {
      type: "constant"
      value: 0
    }
  }
}
layer {
  name: "relu3"
  type: "ReLU"
  bottom: "conv3"
  top: "conv3"
}
layer {
  name: "conv4"
  type: "Convolution"
  bottom: "conv3"
  top: "conv4"
  param {
    lr_mult: 1
    decay_mult: 1
  }
  param {
    lr_mult: 2
    decay_mult: 0
  }
  convolution_param {
    num_output: 384
    pad: 1
    kernel_size: 3
    group: 2
    weight_filler {
      type: "gaussian"
      std: 0.01
    }
    bias_filler {
      type: "constant"
      value: 0.1
    }
  }
}
layer {
  name: "relu4"
  type: "ReLU"
  bottom: "conv4"
  top: "conv4"
}
layer {
  name: "conv5"
  type: "Convolution"
  bottom: "conv4"
  top: "conv5"
  param {
    lr_mult: 1
    decay_mult: 1
  }
  param {
    lr_mult: 2
    decay_mult: 0
  }
  convolution_param {
    num_output: 256
    pad: 1
    kernel_size: 3
    group: 2
    weight_filler {
      type: "gaussian"
      std: 0.01
    }
    bias_filler {
      type: "constant"
      value: 0.1
    }
  }
}
layer {
  name: "relu5"
  type: "ReLU"
  bottom: "conv5"
  top: "conv5"
}
layer {
  name: "pool5"
  type: "Pooling"
  bottom: "conv5"
  top: "pool5"
  pooling_param {
    pool: MAX
    kernel_size: 3
    stride: 2
  }
}
layer {
  name: "fc6"
  type: "InnerProduct"
  bottom: "pool5"
  top: "fc6"
  param {
    lr_mult: 1
    decay_mult: 1
  }
  param {
    lr_mult: 2
    decay_mult: 0
  }
  inner_product_param {
    num_output: 4096
    weight_filler {
      type: "gaussian"
      std: 0.005
    }
    bias_filler {
      type: "constant"
      value: 0.1
    }
  }
}
layer {
  name: "relu6"
  type: "ReLU"
  bottom: "fc6"
  top: "fc6"
}
layer {
  name: "drop6"
  type: "Dropout"
  bottom: "fc6"
  top: "fc6"
  dropout_param {
    dropout_ratio: 0.5
  }
}
layer {
  name: "fc7"
  type: "InnerProduct"
  bottom: "fc6"
  top: "fc7"
  param {
    lr_mult: 1
    decay_mult: 1
  }
  param {
    lr_mult: 2
    decay_mult: 0
  }
  inner_product_param {
    num_output: 4096
    weight_filler {
      type: "gaussian"
      std: 0.005
    }
    bias_filler {
      type: "constant"
      value: 0.1
    }
  }
}
layer {
  name: "relu7"
  type: "ReLU"
  bottom: "fc7"
  top: "fc7"
}
layer {
  name: "drop7"
  type: "Dropout"
  bottom: "fc7"
  top: "fc7"
  dropout_param {
    dropout_ratio: 0.5
  }
}
layer {
  name: "fc8_plantvillage"
  type: "InnerProduct"
  bottom: "fc7"
  top: "fc8_plantvillage"
  param {
    lr_mult: 1
    decay_mult: 1
  }
  param {
    lr_mult: 2
    decay_mult: 0
  }
  inner_product_param {
    num_output: 38
    weight_filler {
      type: "gaussian"
      std: 0.01
    }
    bias_filler {
      type: "constant"
      value: 0
    }
  }
}
layer {
  name: "prob"
  type: "Softmax"
  bottom: "fc8_plantvillage"
  top: "prob"
  include {
    phase: TEST
  }
}
layer {
  name: "hdf5out"
  type: "HDF5Output"
  bottom: "prob"
  bottom: "label"
  include {
    phase: TEST
  }
  hdf5_output_param {
    file_name: "hdf5_dumps/iter_6175.h5"
  }
}
layer {
  name: "loss"
  type: "SoftmaxWithLoss"
  bottom: "fc8_plantvillage"
  bottom: "label"
  top: "loss"
}
layer {
  name: "accuracy"
  type: "Accuracy"
  bottom: "fc8_plantvillage"
  bottom: "label"
  top: "accuracy"
  include {
    phase: TEST
  }
}
I0403 13:17:45.840693 31848 layer_factory.hpp:77] Creating layer data
I0403 13:17:45.841323 31848 net.cpp:91] Creating Layer data
I0403 13:17:45.841353 31848 net.cpp:399] data -> data
I0403 13:17:45.841406 31848 net.cpp:399] data -> label
I0403 13:17:45.841447 31848 data_transformer.cpp:25] Loading mean file from: /home/mohanty/data/final_dataset/lmdb/segmented-60-40/mean.binaryproto
I0403 13:17:45.844631 31851 db_lmdb.cpp:38] Opened lmdb /home/mohanty/data/final_dataset/lmdb/segmented-60-40/test_db
I0403 13:17:45.855824 31848 data_layer.cpp:41] output data size: 100,3,227,227
I0403 13:17:45.977362 31848 net.cpp:141] Setting up data
I0403 13:17:45.977468 31848 net.cpp:148] Top shape: 100 3 227 227 (15458700)
I0403 13:17:45.977491 31848 net.cpp:148] Top shape: 100 (100)
I0403 13:17:45.977506 31848 net.cpp:156] Memory required for data: 61835200
I0403 13:17:45.977535 31848 layer_factory.hpp:77] Creating layer label_data_1_split
I0403 13:17:45.977562 31848 net.cpp:91] Creating Layer label_data_1_split
I0403 13:17:45.977581 31848 net.cpp:425] label_data_1_split <- label
I0403 13:17:45.977612 31848 net.cpp:399] label_data_1_split -> label_data_1_split_0
I0403 13:17:45.977639 31848 net.cpp:399] label_data_1_split -> label_data_1_split_1
I0403 13:17:45.977660 31848 net.cpp:399] label_data_1_split -> label_data_1_split_2
I0403 13:17:45.977725 31848 net.cpp:141] Setting up label_data_1_split
I0403 13:17:45.977748 31848 net.cpp:148] Top shape: 100 (100)
I0403 13:17:45.977766 31848 net.cpp:148] Top shape: 100 (100)
I0403 13:17:45.977782 31848 net.cpp:148] Top shape: 100 (100)
I0403 13:17:45.977797 31848 net.cpp:156] Memory required for data: 61836400
I0403 13:17:45.977812 31848 layer_factory.hpp:77] Creating layer conv1
I0403 13:17:45.977844 31848 net.cpp:91] Creating Layer conv1
I0403 13:17:45.977864 31848 net.cpp:425] conv1 <- data
I0403 13:17:45.977883 31848 net.cpp:399] conv1 -> conv1
I0403 13:17:46.122159 31848 net.cpp:141] Setting up conv1
I0403 13:17:46.122252 31848 net.cpp:148] Top shape: 100 96 55 55 (29040000)
I0403 13:17:46.122282 31848 net.cpp:156] Memory required for data: 177996400
I0403 13:17:46.122318 31848 layer_factory.hpp:77] Creating layer relu1
I0403 13:17:46.122349 31848 net.cpp:91] Creating Layer relu1
I0403 13:17:46.122367 31848 net.cpp:425] relu1 <- conv1
I0403 13:17:46.122390 31848 net.cpp:386] relu1 -> conv1 (in-place)
I0403 13:17:46.122661 31848 net.cpp:141] Setting up relu1
I0403 13:17:46.122689 31848 net.cpp:148] Top shape: 100 96 55 55 (29040000)
I0403 13:17:46.122740 31848 net.cpp:156] Memory required for data: 294156400
I0403 13:17:46.122756 31848 layer_factory.hpp:77] Creating layer norm1
I0403 13:17:46.122786 31848 net.cpp:91] Creating Layer norm1
I0403 13:17:46.122804 31848 net.cpp:425] norm1 <- conv1
I0403 13:17:46.122823 31848 net.cpp:399] norm1 -> norm1
I0403 13:17:46.123174 31848 net.cpp:141] Setting up norm1
I0403 13:17:46.123203 31848 net.cpp:148] Top shape: 100 96 55 55 (29040000)
I0403 13:17:46.123219 31848 net.cpp:156] Memory required for data: 410316400
I0403 13:17:46.123235 31848 layer_factory.hpp:77] Creating layer pool1
I0403 13:17:46.123260 31848 net.cpp:91] Creating Layer pool1
I0403 13:17:46.123282 31848 net.cpp:425] pool1 <- norm1
I0403 13:17:46.123302 31848 net.cpp:399] pool1 -> pool1
I0403 13:17:46.123371 31848 net.cpp:141] Setting up pool1
I0403 13:17:46.123395 31848 net.cpp:148] Top shape: 100 96 27 27 (6998400)
I0403 13:17:46.123411 31848 net.cpp:156] Memory required for data: 438310000
I0403 13:17:46.123426 31848 layer_factory.hpp:77] Creating layer conv2
I0403 13:17:46.123452 31848 net.cpp:91] Creating Layer conv2
I0403 13:17:46.123468 31848 net.cpp:425] conv2 <- pool1
I0403 13:17:46.123487 31848 net.cpp:399] conv2 -> conv2
I0403 13:17:46.139045 31848 net.cpp:141] Setting up conv2
I0403 13:17:46.139099 31848 net.cpp:148] Top shape: 100 256 27 27 (18662400)
I0403 13:17:46.139117 31848 net.cpp:156] Memory required for data: 512959600
I0403 13:17:46.139142 31848 layer_factory.hpp:77] Creating layer relu2
I0403 13:17:46.139161 31848 net.cpp:91] Creating Layer relu2
I0403 13:17:46.139178 31848 net.cpp:425] relu2 <- conv2
I0403 13:17:46.139197 31848 net.cpp:386] relu2 -> conv2 (in-place)
I0403 13:17:46.139482 31848 net.cpp:141] Setting up relu2
I0403 13:17:46.139510 31848 net.cpp:148] Top shape: 100 256 27 27 (18662400)
I0403 13:17:46.139526 31848 net.cpp:156] Memory required for data: 587609200
I0403 13:17:46.139542 31848 layer_factory.hpp:77] Creating layer norm2
I0403 13:17:46.139564 31848 net.cpp:91] Creating Layer norm2
I0403 13:17:46.139582 31848 net.cpp:425] norm2 <- conv2
I0403 13:17:46.139602 31848 net.cpp:399] norm2 -> norm2
I0403 13:17:46.139801 31848 net.cpp:141] Setting up norm2
I0403 13:17:46.139828 31848 net.cpp:148] Top shape: 100 256 27 27 (18662400)
I0403 13:17:46.139843 31848 net.cpp:156] Memory required for data: 662258800
I0403 13:17:46.139858 31848 layer_factory.hpp:77] Creating layer pool2
I0403 13:17:46.139878 31848 net.cpp:91] Creating Layer pool2
I0403 13:17:46.139895 31848 net.cpp:425] pool2 <- norm2
I0403 13:17:46.139914 31848 net.cpp:399] pool2 -> pool2
I0403 13:17:46.139966 31848 net.cpp:141] Setting up pool2
I0403 13:17:46.139989 31848 net.cpp:148] Top shape: 100 256 13 13 (4326400)
I0403 13:17:46.140024 31848 net.cpp:156] Memory required for data: 679564400
I0403 13:17:46.140045 31848 layer_factory.hpp:77] Creating layer conv3
I0403 13:17:46.140069 31848 net.cpp:91] Creating Layer conv3
I0403 13:17:46.140086 31848 net.cpp:425] conv3 <- pool2
I0403 13:17:46.140106 31848 net.cpp:399] conv3 -> conv3
I0403 13:17:46.180200 31848 net.cpp:141] Setting up conv3
I0403 13:17:46.180244 31848 net.cpp:148] Top shape: 100 384 13 13 (6489600)
I0403 13:17:46.180261 31848 net.cpp:156] Memory required for data: 705522800
I0403 13:17:46.180295 31848 layer_factory.hpp:77] Creating layer relu3
I0403 13:17:46.180320 31848 net.cpp:91] Creating Layer relu3
I0403 13:17:46.180338 31848 net.cpp:425] relu3 <- conv3
I0403 13:17:46.180361 31848 net.cpp:386] relu3 -> conv3 (in-place)
I0403 13:17:46.180727 31848 net.cpp:141] Setting up relu3
I0403 13:17:46.180757 31848 net.cpp:148] Top shape: 100 384 13 13 (6489600)
I0403 13:17:46.180773 31848 net.cpp:156] Memory required for data: 731481200
I0403 13:17:46.180788 31848 layer_factory.hpp:77] Creating layer conv4
I0403 13:17:46.180814 31848 net.cpp:91] Creating Layer conv4
I0403 13:17:46.180831 31848 net.cpp:425] conv4 <- conv3
I0403 13:17:46.180850 31848 net.cpp:399] conv4 -> conv4
I0403 13:17:46.212100 31848 net.cpp:141] Setting up conv4
I0403 13:17:46.212182 31848 net.cpp:148] Top shape: 100 384 13 13 (6489600)
I0403 13:17:46.212230 31848 net.cpp:156] Memory required for data: 757439600
I0403 13:17:46.212254 31848 layer_factory.hpp:77] Creating layer relu4
I0403 13:17:46.212282 31848 net.cpp:91] Creating Layer relu4
I0403 13:17:46.212302 31848 net.cpp:425] relu4 <- conv4
I0403 13:17:46.212322 31848 net.cpp:386] relu4 -> conv4 (in-place)
I0403 13:17:46.212620 31848 net.cpp:141] Setting up relu4
I0403 13:17:46.212677 31848 net.cpp:148] Top shape: 100 384 13 13 (6489600)
I0403 13:17:46.212695 31848 net.cpp:156] Memory required for data: 783398000
I0403 13:17:46.212712 31848 layer_factory.hpp:77] Creating layer conv5
I0403 13:17:46.212738 31848 net.cpp:91] Creating Layer conv5
I0403 13:17:46.212755 31848 net.cpp:425] conv5 <- conv4
I0403 13:17:46.212774 31848 net.cpp:399] conv5 -> conv5
I0403 13:17:46.233952 31848 net.cpp:141] Setting up conv5
I0403 13:17:46.234015 31848 net.cpp:148] Top shape: 100 256 13 13 (4326400)
I0403 13:17:46.234032 31848 net.cpp:156] Memory required for data: 800703600
I0403 13:17:46.234058 31848 layer_factory.hpp:77] Creating layer relu5
I0403 13:17:46.234092 31848 net.cpp:91] Creating Layer relu5
I0403 13:17:46.234108 31848 net.cpp:425] relu5 <- conv5
I0403 13:17:46.234128 31848 net.cpp:386] relu5 -> conv5 (in-place)
I0403 13:17:46.234413 31848 net.cpp:141] Setting up relu5
I0403 13:17:46.234441 31848 net.cpp:148] Top shape: 100 256 13 13 (4326400)
I0403 13:17:46.234457 31848 net.cpp:156] Memory required for data: 818009200
I0403 13:17:46.234470 31848 layer_factory.hpp:77] Creating layer pool5
I0403 13:17:46.234493 31848 net.cpp:91] Creating Layer pool5
I0403 13:17:46.234508 31848 net.cpp:425] pool5 <- conv5
I0403 13:17:46.234529 31848 net.cpp:399] pool5 -> pool5
I0403 13:17:46.234606 31848 net.cpp:141] Setting up pool5
I0403 13:17:46.234668 31848 net.cpp:148] Top shape: 100 256 6 6 (921600)
I0403 13:17:46.234683 31848 net.cpp:156] Memory required for data: 821695600
I0403 13:17:46.234697 31848 layer_factory.hpp:77] Creating layer fc6
I0403 13:17:46.234727 31848 net.cpp:91] Creating Layer fc6
I0403 13:17:46.234745 31848 net.cpp:425] fc6 <- pool5
I0403 13:17:46.234766 31848 net.cpp:399] fc6 -> fc6
I0403 13:17:47.828464 31848 net.cpp:141] Setting up fc6
I0403 13:17:47.828554 31848 net.cpp:148] Top shape: 100 4096 (409600)
I0403 13:17:47.828572 31848 net.cpp:156] Memory required for data: 823334000
I0403 13:17:47.828593 31848 layer_factory.hpp:77] Creating layer relu6
I0403 13:17:47.828619 31848 net.cpp:91] Creating Layer relu6
I0403 13:17:47.828637 31848 net.cpp:425] relu6 <- fc6
I0403 13:17:47.828657 31848 net.cpp:386] relu6 -> fc6 (in-place)
I0403 13:17:47.828896 31848 net.cpp:141] Setting up relu6
I0403 13:17:47.828924 31848 net.cpp:148] Top shape: 100 4096 (409600)
I0403 13:17:47.828939 31848 net.cpp:156] Memory required for data: 824972400
I0403 13:17:47.828954 31848 layer_factory.hpp:77] Creating layer drop6
I0403 13:17:47.828974 31848 net.cpp:91] Creating Layer drop6
I0403 13:17:47.828989 31848 net.cpp:425] drop6 <- fc6
I0403 13:17:47.829006 31848 net.cpp:386] drop6 -> fc6 (in-place)
I0403 13:17:47.829061 31848 net.cpp:141] Setting up drop6
I0403 13:17:47.829085 31848 net.cpp:148] Top shape: 100 4096 (409600)
I0403 13:17:47.829099 31848 net.cpp:156] Memory required for data: 826610800
I0403 13:17:47.829114 31848 layer_factory.hpp:77] Creating layer fc7
I0403 13:17:47.829138 31848 net.cpp:91] Creating Layer fc7
I0403 13:17:47.829154 31848 net.cpp:425] fc7 <- fc6
I0403 13:17:47.829172 31848 net.cpp:399] fc7 -> fc7
I0403 13:17:48.519287 31848 net.cpp:141] Setting up fc7
I0403 13:17:48.519376 31848 net.cpp:148] Top shape: 100 4096 (409600)
I0403 13:17:48.519392 31848 net.cpp:156] Memory required for data: 828249200
I0403 13:17:48.519413 31848 layer_factory.hpp:77] Creating layer relu7
I0403 13:17:48.519435 31848 net.cpp:91] Creating Layer relu7
I0403 13:17:48.519451 31848 net.cpp:425] relu7 <- fc7
I0403 13:17:48.519472 31848 net.cpp:386] relu7 -> fc7 (in-place)
I0403 13:17:48.519903 31848 net.cpp:141] Setting up relu7
I0403 13:17:48.519932 31848 net.cpp:148] Top shape: 100 4096 (409600)
I0403 13:17:48.519980 31848 net.cpp:156] Memory required for data: 829887600
I0403 13:17:48.519996 31848 layer_factory.hpp:77] Creating layer drop7
I0403 13:17:48.520015 31848 net.cpp:91] Creating Layer drop7
I0403 13:17:48.520031 31848 net.cpp:425] drop7 <- fc7
I0403 13:17:48.520051 31848 net.cpp:386] drop7 -> fc7 (in-place)
I0403 13:17:48.520094 31848 net.cpp:141] Setting up drop7
I0403 13:17:48.520117 31848 net.cpp:148] Top shape: 100 4096 (409600)
I0403 13:17:48.520131 31848 net.cpp:156] Memory required for data: 831526000
I0403 13:17:48.520145 31848 layer_factory.hpp:77] Creating layer fc8_plantvillage
I0403 13:17:48.520167 31848 net.cpp:91] Creating Layer fc8_plantvillage
I0403 13:17:48.520184 31848 net.cpp:425] fc8_plantvillage <- fc7
I0403 13:17:48.520205 31848 net.cpp:399] fc8_plantvillage -> fc8_plantvillage
I0403 13:17:48.526960 31848 net.cpp:141] Setting up fc8_plantvillage
I0403 13:17:48.526988 31848 net.cpp:148] Top shape: 100 38 (3800)
I0403 13:17:48.527004 31848 net.cpp:156] Memory required for data: 831541200
I0403 13:17:48.527022 31848 layer_factory.hpp:77] Creating layer fc8_plantvillage_fc8_plantvillage_0_split
I0403 13:17:48.527040 31848 net.cpp:91] Creating Layer fc8_plantvillage_fc8_plantvillage_0_split
I0403 13:17:48.527055 31848 net.cpp:425] fc8_plantvillage_fc8_plantvillage_0_split <- fc8_plantvillage
I0403 13:17:48.527076 31848 net.cpp:399] fc8_plantvillage_fc8_plantvillage_0_split -> fc8_plantvillage_fc8_plantvillage_0_split_0
I0403 13:17:48.527097 31848 net.cpp:399] fc8_plantvillage_fc8_plantvillage_0_split -> fc8_plantvillage_fc8_plantvillage_0_split_1
I0403 13:17:48.527117 31848 net.cpp:399] fc8_plantvillage_fc8_plantvillage_0_split -> fc8_plantvillage_fc8_plantvillage_0_split_2
I0403 13:17:48.527194 31848 net.cpp:141] Setting up fc8_plantvillage_fc8_plantvillage_0_split
I0403 13:17:48.527215 31848 net.cpp:148] Top shape: 100 38 (3800)
I0403 13:17:48.527231 31848 net.cpp:148] Top shape: 100 38 (3800)
I0403 13:17:48.527247 31848 net.cpp:148] Top shape: 100 38 (3800)
I0403 13:17:48.527261 31848 net.cpp:156] Memory required for data: 831586800
I0403 13:17:48.527281 31848 layer_factory.hpp:77] Creating layer prob
I0403 13:17:48.527300 31848 net.cpp:91] Creating Layer prob
I0403 13:17:48.527315 31848 net.cpp:425] prob <- fc8_plantvillage_fc8_plantvillage_0_split_0
I0403 13:17:48.527333 31848 net.cpp:399] prob -> prob
I0403 13:17:48.527564 31848 net.cpp:141] Setting up prob
I0403 13:17:48.527591 31848 net.cpp:148] Top shape: 100 38 (3800)
I0403 13:17:48.527607 31848 net.cpp:156] Memory required for data: 831602000
I0403 13:17:48.527622 31848 layer_factory.hpp:77] Creating layer hdf5out
I0403 13:17:48.527642 31848 net.cpp:91] Creating Layer hdf5out
I0403 13:17:48.527657 31848 net.cpp:425] hdf5out <- prob
I0403 13:17:48.527672 31848 net.cpp:425] hdf5out <- label_data_1_split_0
I0403 13:17:48.530242 31848 net.cpp:141] Setting up hdf5out
…
