…
I0403 13:17:04.276648 31828 net.cpp:313] The NetState phase (1) differed from the phase (0) specified by a rule in layer data
I0403 13:17:04.276958 31828 net.cpp:49] Initializing net from parameters: 
state {
  phase: TEST
}
layer {
  name: "data"
  type: "Data"
  top: "data"
  top: "label"
  include {
    phase: TEST
  }
  transform_param {
    crop_size: 227
    mean_file: "/home/mohanty/data/final_dataset/lmdb/segmented-60-40/mean.binaryproto"
  }
  data_param {
    source: "/home/mohanty/data/final_dataset/lmdb/segmented-60-40/test_db"
    batch_size: 100
    backend: LMDB
  }
}
layer {
  name: "conv1"
  type: "Convolution"
  bottom: "data"
  top: "conv1"
  param {
    lr_mult: 1
    decay_mult: 1
  }
  param {
    lr_mult: 2
    decay_mult: 0
  }
  convolution_param {
    num_output: 96
    kernel_size: 11
    stride: 4
    weight_filler {
      type: "gaussian"
      std: 0.01
    }
    bias_filler {
      type: "constant"
      value: 0
    }
  }
}
layer {
  name: "relu1"
  type: "ReLU"
  bottom: "conv1"
  top: "conv1"
}
layer {
  name: "norm1"
  type: "LRN"
  bottom: "conv1"
  top: "norm1"
  lrn_param {
    local_size: 5
    alpha: 0.0001
    beta: 0.75
  }
}
layer {
  name: "pool1"
  type: "Pooling"
  bottom: "norm1"
  top: "pool1"
  pooling_param {
    pool: MAX
    kernel_size: 3
    stride: 2
  }
}
layer {
  name: "conv2"
  type: "Convolution"
  bottom: "pool1"
  top: "conv2"
  param {
    lr_mult: 1
    decay_mult: 1
  }
  param {
    lr_mult: 2
    decay_mult: 0
  }
  convolution_param {
    num_output: 256
    pad: 2
    kernel_size: 5
    group: 2
    weight_filler {
      type: "gaussian"
      std: 0.01
    }
    bias_filler {
      type: "constant"
      value: 0.1
    }
  }
}
layer {
  name: "relu2"
  type: "ReLU"
  bottom: "conv2"
  top: "conv2"
}
layer {
  name: "norm2"
  type: "LRN"
  bottom: "conv2"
  top: "norm2"
  lrn_param {
    local_size: 5
    alpha: 0.0001
    beta: 0.75
  }
}
layer {
  name: "pool2"
  type: "Pooling"
  bottom: "norm2"
  top: "pool2"
  pooling_param {
    pool: MAX
    kernel_size: 3
    stride: 2
  }
}
layer {
  name: "conv3"
  type: "Convolution"
  bottom: "pool2"
  top: "conv3"
  param {
    lr_mult: 1
    decay_mult: 1
  }
  param {
    lr_mult: 2
    decay_mult: 0
  }
  convolution_param {
    num_output: 384
    pad: 1
    kernel_size: 3
    weight_filler {
      type: "gaussian"
      std: 0.01
    }
    bias_filler {
      type: "constant"
      value: 0
    }
  }
}
layer {
  name: "relu3"
  type: "ReLU"
  bottom: "conv3"
  top: "conv3"
}
layer {
  name: "conv4"
  type: "Convolution"
  bottom: "conv3"
  top: "conv4"
  param {
    lr_mult: 1
    decay_mult: 1
  }
  param {
    lr_mult: 2
    decay_mult: 0
  }
  convolution_param {
    num_output: 384
    pad: 1
    kernel_size: 3
    group: 2
    weight_filler {
      type: "gaussian"
      std: 0.01
    }
    bias_filler {
      type: "constant"
      value: 0.1
    }
  }
}
layer {
  name: "relu4"
  type: "ReLU"
  bottom: "conv4"
  top: "conv4"
}
layer {
  name: "conv5"
  type: "Convolution"
  bottom: "conv4"
  top: "conv5"
  param {
    lr_mult: 1
    decay_mult: 1
  }
  param {
    lr_mult: 2
    decay_mult: 0
  }
  convolution_param {
    num_output: 256
    pad: 1
    kernel_size: 3
    group: 2
    weight_filler {
      type: "gaussian"
      std: 0.01
    }
    bias_filler {
      type: "constant"
      value: 0.1
    }
  }
}
layer {
  name: "relu5"
  type: "ReLU"
  bottom: "conv5"
  top: "conv5"
}
layer {
  name: "pool5"
  type: "Pooling"
  bottom: "conv5"
  top: "pool5"
  pooling_param {
    pool: MAX
    kernel_size: 3
    stride: 2
  }
}
layer {
  name: "fc6"
  type: "InnerProduct"
  bottom: "pool5"
  top: "fc6"
  param {
    lr_mult: 1
    decay_mult: 1
  }
  param {
    lr_mult: 2
    decay_mult: 0
  }
  inner_product_param {
    num_output: 4096
    weight_filler {
      type: "gaussian"
      std: 0.005
    }
    bias_filler {
      type: "constant"
      value: 0.1
    }
  }
}
layer {
  name: "relu6"
  type: "ReLU"
  bottom: "fc6"
  top: "fc6"
}
layer {
  name: "drop6"
  type: "Dropout"
  bottom: "fc6"
  top: "fc6"
  dropout_param {
    dropout_ratio: 0.5
  }
}
layer {
  name: "fc7"
  type: "InnerProduct"
  bottom: "fc6"
  top: "fc7"
  param {
    lr_mult: 1
    decay_mult: 1
  }
  param {
    lr_mult: 2
    decay_mult: 0
  }
  inner_product_param {
    num_output: 4096
    weight_filler {
      type: "gaussian"
      std: 0.005
    }
    bias_filler {
      type: "constant"
      value: 0.1
    }
  }
}
layer {
  name: "relu7"
  type: "ReLU"
  bottom: "fc7"
  top: "fc7"
}
layer {
  name: "drop7"
  type: "Dropout"
  bottom: "fc7"
  top: "fc7"
  dropout_param {
    dropout_ratio: 0.5
  }
}
layer {
  name: "fc8_plantvillage"
  type: "InnerProduct"
  bottom: "fc7"
  top: "fc8_plantvillage"
  param {
    lr_mult: 1
    decay_mult: 1
  }
  param {
    lr_mult: 2
    decay_mult: 0
  }
  inner_product_param {
    num_output: 38
    weight_filler {
      type: "gaussian"
      std: 0.01
    }
    bias_filler {
      type: "constant"
      value: 0
    }
  }
}
layer {
  name: "prob"
  type: "Softmax"
  bottom: "fc8_plantvillage"
  top: "prob"
  include {
    phase: TEST
  }
}
layer {
  name: "hdf5out"
  type: "HDF5Output"
  bottom: "prob"
  bottom: "label"
  include {
    phase: TEST
  }
  hdf5_output_param {
    file_name: "hdf5_dumps/iter_5850.h5"
  }
}
layer {
  name: "loss"
  type: "SoftmaxWithLoss"
  bottom: "fc8_plantvillage"
  bottom: "label"
  top: "loss"
}
layer {
  name: "accuracy"
  type: "Accuracy"
  bottom: "fc8_plantvillage"
  bottom: "label"
  top: "accuracy"
  include {
    phase: TEST
  }
}
I0403 13:17:04.277578 31828 layer_factory.hpp:77] Creating layer data
I0403 13:17:04.278236 31828 net.cpp:91] Creating Layer data
I0403 13:17:04.278267 31828 net.cpp:399] data -> data
I0403 13:17:04.278326 31828 net.cpp:399] data -> label
I0403 13:17:04.278363 31828 data_transformer.cpp:25] Loading mean file from: /home/mohanty/data/final_dataset/lmdb/segmented-60-40/mean.binaryproto
I0403 13:17:04.283094 31831 db_lmdb.cpp:38] Opened lmdb /home/mohanty/data/final_dataset/lmdb/segmented-60-40/test_db
I0403 13:17:04.292238 31828 data_layer.cpp:41] output data size: 100,3,227,227
I0403 13:17:04.412233 31828 net.cpp:141] Setting up data
I0403 13:17:04.412302 31828 net.cpp:148] Top shape: 100 3 227 227 (15458700)
I0403 13:17:04.412328 31828 net.cpp:148] Top shape: 100 (100)
I0403 13:17:04.412344 31828 net.cpp:156] Memory required for data: 61835200
I0403 13:17:04.412375 31828 layer_factory.hpp:77] Creating layer label_data_1_split
I0403 13:17:04.412401 31828 net.cpp:91] Creating Layer label_data_1_split
I0403 13:17:04.412420 31828 net.cpp:425] label_data_1_split <- label
I0403 13:17:04.412453 31828 net.cpp:399] label_data_1_split -> label_data_1_split_0
I0403 13:17:04.412482 31828 net.cpp:399] label_data_1_split -> label_data_1_split_1
I0403 13:17:04.412503 31828 net.cpp:399] label_data_1_split -> label_data_1_split_2
I0403 13:17:04.412569 31828 net.cpp:141] Setting up label_data_1_split
I0403 13:17:04.412592 31828 net.cpp:148] Top shape: 100 (100)
I0403 13:17:04.412611 31828 net.cpp:148] Top shape: 100 (100)
I0403 13:17:04.412627 31828 net.cpp:148] Top shape: 100 (100)
I0403 13:17:04.412643 31828 net.cpp:156] Memory required for data: 61836400
I0403 13:17:04.412659 31828 layer_factory.hpp:77] Creating layer conv1
I0403 13:17:04.412693 31828 net.cpp:91] Creating Layer conv1
I0403 13:17:04.412711 31828 net.cpp:425] conv1 <- data
I0403 13:17:04.412732 31828 net.cpp:399] conv1 -> conv1
I0403 13:17:04.558351 31828 net.cpp:141] Setting up conv1
I0403 13:17:04.558439 31828 net.cpp:148] Top shape: 100 96 55 55 (29040000)
I0403 13:17:04.558456 31828 net.cpp:156] Memory required for data: 177996400
I0403 13:17:04.558490 31828 layer_factory.hpp:77] Creating layer relu1
I0403 13:17:04.558518 31828 net.cpp:91] Creating Layer relu1
I0403 13:17:04.558537 31828 net.cpp:425] relu1 <- conv1
I0403 13:17:04.558557 31828 net.cpp:386] relu1 -> conv1 (in-place)
I0403 13:17:04.558823 31828 net.cpp:141] Setting up relu1
I0403 13:17:04.558851 31828 net.cpp:148] Top shape: 100 96 55 55 (29040000)
I0403 13:17:04.558899 31828 net.cpp:156] Memory required for data: 294156400
I0403 13:17:04.558917 31828 layer_factory.hpp:77] Creating layer norm1
I0403 13:17:04.558946 31828 net.cpp:91] Creating Layer norm1
I0403 13:17:04.558965 31828 net.cpp:425] norm1 <- conv1
I0403 13:17:04.558984 31828 net.cpp:399] norm1 -> norm1
I0403 13:17:04.559363 31828 net.cpp:141] Setting up norm1
I0403 13:17:04.559391 31828 net.cpp:148] Top shape: 100 96 55 55 (29040000)
I0403 13:17:04.559408 31828 net.cpp:156] Memory required for data: 410316400
I0403 13:17:04.559424 31828 layer_factory.hpp:77] Creating layer pool1
I0403 13:17:04.559451 31828 net.cpp:91] Creating Layer pool1
I0403 13:17:04.559470 31828 net.cpp:425] pool1 <- norm1
I0403 13:17:04.559489 31828 net.cpp:399] pool1 -> pool1
I0403 13:17:04.559561 31828 net.cpp:141] Setting up pool1
I0403 13:17:04.559587 31828 net.cpp:148] Top shape: 100 96 27 27 (6998400)
I0403 13:17:04.559602 31828 net.cpp:156] Memory required for data: 438310000
I0403 13:17:04.559617 31828 layer_factory.hpp:77] Creating layer conv2
I0403 13:17:04.559644 31828 net.cpp:91] Creating Layer conv2
I0403 13:17:04.559662 31828 net.cpp:425] conv2 <- pool1
I0403 13:17:04.559684 31828 net.cpp:399] conv2 -> conv2
I0403 13:17:04.574885 31828 net.cpp:141] Setting up conv2
I0403 13:17:04.574946 31828 net.cpp:148] Top shape: 100 256 27 27 (18662400)
I0403 13:17:04.574965 31828 net.cpp:156] Memory required for data: 512959600
I0403 13:17:04.574990 31828 layer_factory.hpp:77] Creating layer relu2
I0403 13:17:04.575009 31828 net.cpp:91] Creating Layer relu2
I0403 13:17:04.575026 31828 net.cpp:425] relu2 <- conv2
I0403 13:17:04.575045 31828 net.cpp:386] relu2 -> conv2 (in-place)
I0403 13:17:04.575340 31828 net.cpp:141] Setting up relu2
I0403 13:17:04.575369 31828 net.cpp:148] Top shape: 100 256 27 27 (18662400)
I0403 13:17:04.575387 31828 net.cpp:156] Memory required for data: 587609200
I0403 13:17:04.575402 31828 layer_factory.hpp:77] Creating layer norm2
I0403 13:17:04.575424 31828 net.cpp:91] Creating Layer norm2
I0403 13:17:04.575441 31828 net.cpp:425] norm2 <- conv2
I0403 13:17:04.575462 31828 net.cpp:399] norm2 -> norm2
I0403 13:17:04.575666 31828 net.cpp:141] Setting up norm2
I0403 13:17:04.575692 31828 net.cpp:148] Top shape: 100 256 27 27 (18662400)
I0403 13:17:04.575711 31828 net.cpp:156] Memory required for data: 662258800
I0403 13:17:04.575727 31828 layer_factory.hpp:77] Creating layer pool2
I0403 13:17:04.575747 31828 net.cpp:91] Creating Layer pool2
I0403 13:17:04.575763 31828 net.cpp:425] pool2 <- norm2
I0403 13:17:04.575781 31828 net.cpp:399] pool2 -> pool2
I0403 13:17:04.575836 31828 net.cpp:141] Setting up pool2
I0403 13:17:04.575860 31828 net.cpp:148] Top shape: 100 256 13 13 (4326400)
I0403 13:17:04.575875 31828 net.cpp:156] Memory required for data: 679564400
I0403 13:17:04.575891 31828 layer_factory.hpp:77] Creating layer conv3
I0403 13:17:04.575917 31828 net.cpp:91] Creating Layer conv3
I0403 13:17:04.575934 31828 net.cpp:425] conv3 <- pool2
I0403 13:17:04.575955 31828 net.cpp:399] conv3 -> conv3
I0403 13:17:04.614773 31828 net.cpp:141] Setting up conv3
I0403 13:17:04.614845 31828 net.cpp:148] Top shape: 100 384 13 13 (6489600)
I0403 13:17:04.614862 31828 net.cpp:156] Memory required for data: 705522800
I0403 13:17:04.614888 31828 layer_factory.hpp:77] Creating layer relu3
I0403 13:17:04.614914 31828 net.cpp:91] Creating Layer relu3
I0403 13:17:04.614933 31828 net.cpp:425] relu3 <- conv3
I0403 13:17:04.614953 31828 net.cpp:386] relu3 -> conv3 (in-place)
I0403 13:17:04.615228 31828 net.cpp:141] Setting up relu3
I0403 13:17:04.615255 31828 net.cpp:148] Top shape: 100 384 13 13 (6489600)
I0403 13:17:04.615275 31828 net.cpp:156] Memory required for data: 731481200
I0403 13:17:04.615293 31828 layer_factory.hpp:77] Creating layer conv4
I0403 13:17:04.615321 31828 net.cpp:91] Creating Layer conv4
I0403 13:17:04.615339 31828 net.cpp:425] conv4 <- conv3
I0403 13:17:04.615358 31828 net.cpp:399] conv4 -> conv4
I0403 13:17:04.645452 31828 net.cpp:141] Setting up conv4
I0403 13:17:04.645531 31828 net.cpp:148] Top shape: 100 384 13 13 (6489600)
I0403 13:17:04.645581 31828 net.cpp:156] Memory required for data: 757439600
I0403 13:17:04.645602 31828 layer_factory.hpp:77] Creating layer relu4
I0403 13:17:04.645627 31828 net.cpp:91] Creating Layer relu4
I0403 13:17:04.645645 31828 net.cpp:425] relu4 <- conv4
I0403 13:17:04.645665 31828 net.cpp:386] relu4 -> conv4 (in-place)
I0403 13:17:04.645943 31828 net.cpp:141] Setting up relu4
I0403 13:17:04.646003 31828 net.cpp:148] Top shape: 100 384 13 13 (6489600)
I0403 13:17:04.646023 31828 net.cpp:156] Memory required for data: 783398000
I0403 13:17:04.646039 31828 layer_factory.hpp:77] Creating layer conv5
I0403 13:17:04.646064 31828 net.cpp:91] Creating Layer conv5
I0403 13:17:04.646082 31828 net.cpp:425] conv5 <- conv4
I0403 13:17:04.646103 31828 net.cpp:399] conv5 -> conv5
I0403 13:17:04.666888 31828 net.cpp:141] Setting up conv5
I0403 13:17:04.666945 31828 net.cpp:148] Top shape: 100 256 13 13 (4326400)
I0403 13:17:04.666962 31828 net.cpp:156] Memory required for data: 800703600
I0403 13:17:04.666991 31828 layer_factory.hpp:77] Creating layer relu5
I0403 13:17:04.667013 31828 net.cpp:91] Creating Layer relu5
I0403 13:17:04.667032 31828 net.cpp:425] relu5 <- conv5
I0403 13:17:04.667050 31828 net.cpp:386] relu5 -> conv5 (in-place)
I0403 13:17:04.667336 31828 net.cpp:141] Setting up relu5
I0403 13:17:04.667366 31828 net.cpp:148] Top shape: 100 256 13 13 (4326400)
I0403 13:17:04.667383 31828 net.cpp:156] Memory required for data: 818009200
I0403 13:17:04.667399 31828 layer_factory.hpp:77] Creating layer pool5
I0403 13:17:04.667423 31828 net.cpp:91] Creating Layer pool5
I0403 13:17:04.667440 31828 net.cpp:425] pool5 <- conv5
I0403 13:17:04.667515 31828 net.cpp:399] pool5 -> pool5
I0403 13:17:04.667583 31828 net.cpp:141] Setting up pool5
I0403 13:17:04.667608 31828 net.cpp:148] Top shape: 100 256 6 6 (921600)
I0403 13:17:04.667623 31828 net.cpp:156] Memory required for data: 821695600
I0403 13:17:04.667639 31828 layer_factory.hpp:77] Creating layer fc6
I0403 13:17:04.667670 31828 net.cpp:91] Creating Layer fc6
I0403 13:17:04.667687 31828 net.cpp:425] fc6 <- pool5
I0403 13:17:04.667709 31828 net.cpp:399] fc6 -> fc6
I0403 13:17:06.232669 31828 net.cpp:141] Setting up fc6
I0403 13:17:06.232712 31828 net.cpp:148] Top shape: 100 4096 (409600)
I0403 13:17:06.232728 31828 net.cpp:156] Memory required for data: 823334000
I0403 13:17:06.232750 31828 layer_factory.hpp:77] Creating layer relu6
I0403 13:17:06.232772 31828 net.cpp:91] Creating Layer relu6
I0403 13:17:06.232789 31828 net.cpp:425] relu6 <- fc6
I0403 13:17:06.232810 31828 net.cpp:386] relu6 -> fc6 (in-place)
I0403 13:17:06.233023 31828 net.cpp:141] Setting up relu6
I0403 13:17:06.233050 31828 net.cpp:148] Top shape: 100 4096 (409600)
I0403 13:17:06.233065 31828 net.cpp:156] Memory required for data: 824972400
I0403 13:17:06.233080 31828 layer_factory.hpp:77] Creating layer drop6
I0403 13:17:06.233098 31828 net.cpp:91] Creating Layer drop6
I0403 13:17:06.233114 31828 net.cpp:425] drop6 <- fc6
I0403 13:17:06.233131 31828 net.cpp:386] drop6 -> fc6 (in-place)
I0403 13:17:06.233182 31828 net.cpp:141] Setting up drop6
I0403 13:17:06.233204 31828 net.cpp:148] Top shape: 100 4096 (409600)
I0403 13:17:06.233218 31828 net.cpp:156] Memory required for data: 826610800
I0403 13:17:06.233233 31828 layer_factory.hpp:77] Creating layer fc7
I0403 13:17:06.233255 31828 net.cpp:91] Creating Layer fc7
I0403 13:17:06.233278 31828 net.cpp:425] fc7 <- fc6
I0403 13:17:06.233297 31828 net.cpp:399] fc7 -> fc7
I0403 13:17:06.918849 31828 net.cpp:141] Setting up fc7
I0403 13:17:06.918941 31828 net.cpp:148] Top shape: 100 4096 (409600)
I0403 13:17:06.918957 31828 net.cpp:156] Memory required for data: 828249200
I0403 13:17:06.918979 31828 layer_factory.hpp:77] Creating layer relu7
I0403 13:17:06.919005 31828 net.cpp:91] Creating Layer relu7
I0403 13:17:06.919024 31828 net.cpp:425] relu7 <- fc7
I0403 13:17:06.919044 31828 net.cpp:386] relu7 -> fc7 (in-place)
I0403 13:17:06.919464 31828 net.cpp:141] Setting up relu7
I0403 13:17:06.919492 31828 net.cpp:148] Top shape: 100 4096 (409600)
I0403 13:17:06.919553 31828 net.cpp:156] Memory required for data: 829887600
I0403 13:17:06.919571 31828 layer_factory.hpp:77] Creating layer drop7
I0403 13:17:06.919594 31828 net.cpp:91] Creating Layer drop7
I0403 13:17:06.919611 31828 net.cpp:425] drop7 <- fc7
I0403 13:17:06.919630 31828 net.cpp:386] drop7 -> fc7 (in-place)
I0403 13:17:06.919675 31828 net.cpp:141] Setting up drop7
I0403 13:17:06.919699 31828 net.cpp:148] Top shape: 100 4096 (409600)
I0403 13:17:06.919714 31828 net.cpp:156] Memory required for data: 831526000
I0403 13:17:06.919734 31828 layer_factory.hpp:77] Creating layer fc8_plantvillage
I0403 13:17:06.919759 31828 net.cpp:91] Creating Layer fc8_plantvillage
I0403 13:17:06.919775 31828 net.cpp:425] fc8_plantvillage <- fc7
I0403 13:17:06.919797 31828 net.cpp:399] fc8_plantvillage -> fc8_plantvillage
I0403 13:17:06.926843 31828 net.cpp:141] Setting up fc8_plantvillage
I0403 13:17:06.926873 31828 net.cpp:148] Top shape: 100 38 (3800)
I0403 13:17:06.926898 31828 net.cpp:156] Memory required for data: 831541200
I0403 13:17:06.926931 31828 layer_factory.hpp:77] Creating layer fc8_plantvillage_fc8_plantvillage_0_split
I0403 13:17:06.926950 31828 net.cpp:91] Creating Layer fc8_plantvillage_fc8_plantvillage_0_split
I0403 13:17:06.926966 31828 net.cpp:425] fc8_plantvillage_fc8_plantvillage_0_split <- fc8_plantvillage
I0403 13:17:06.926983 31828 net.cpp:399] fc8_plantvillage_fc8_plantvillage_0_split -> fc8_plantvillage_fc8_plantvillage_0_split_0
I0403 13:17:06.927003 31828 net.cpp:399] fc8_plantvillage_fc8_plantvillage_0_split -> fc8_plantvillage_fc8_plantvillage_0_split_1
I0403 13:17:06.927026 31828 net.cpp:399] fc8_plantvillage_fc8_plantvillage_0_split -> fc8_plantvillage_fc8_plantvillage_0_split_2
I0403 13:17:06.927103 31828 net.cpp:141] Setting up fc8_plantvillage_fc8_plantvillage_0_split
I0403 13:17:06.927125 31828 net.cpp:148] Top shape: 100 38 (3800)
I0403 13:17:06.927141 31828 net.cpp:148] Top shape: 100 38 (3800)
I0403 13:17:06.927157 31828 net.cpp:148] Top shape: 100 38 (3800)
I0403 13:17:06.927170 31828 net.cpp:156] Memory required for data: 831586800
I0403 13:17:06.927186 31828 layer_factory.hpp:77] Creating layer prob
I0403 13:17:06.927203 31828 net.cpp:91] Creating Layer prob
I0403 13:17:06.927219 31828 net.cpp:425] prob <- fc8_plantvillage_fc8_plantvillage_0_split_0
I0403 13:17:06.927237 31828 net.cpp:399] prob -> prob
I0403 13:17:06.927462 31828 net.cpp:141] Setting up prob
I0403 13:17:06.927486 31828 net.cpp:148] Top shape: 100 38 (3800)
I0403 13:17:06.927502 31828 net.cpp:156] Memory required for data: 831602000
I0403 13:17:06.927517 31828 layer_factory.hpp:77] Creating layer hdf5out
I0403 13:17:06.927539 31828 net.cpp:91] Creating Layer hdf5out
I0403 13:17:06.927556 31828 net.cpp:425] hdf5out <- prob
I0403 13:17:06.927572 31828 net.cpp:425] hdf5out <- label_data_1_split_0
I0403 13:17:06.929936 31828 net.cpp:141] Setting up hdf5out
…
