…
I0403 13:24:43.564301 32067 net.cpp:313] The NetState phase (1) differed from the phase (0) specified by a rule in layer data
I0403 13:24:43.564620 32067 net.cpp:49] Initializing net from parameters: 
state {
  phase: TEST
}
layer {
  name: "data"
  type: "Data"
  top: "data"
  top: "label"
  include {
    phase: TEST
  }
  transform_param {
    crop_size: 227
    mean_file: "/home/mohanty/data/final_dataset/lmdb/segmented-60-40/mean.binaryproto"
  }
  data_param {
    source: "/home/mohanty/data/final_dataset/lmdb/segmented-60-40/test_db"
    batch_size: 100
    backend: LMDB
  }
}
layer {
  name: "conv1"
  type: "Convolution"
  bottom: "data"
  top: "conv1"
  param {
    lr_mult: 1
    decay_mult: 1
  }
  param {
    lr_mult: 2
    decay_mult: 0
  }
  convolution_param {
    num_output: 96
    kernel_size: 11
    stride: 4
    weight_filler {
      type: "gaussian"
      std: 0.01
    }
    bias_filler {
      type: "constant"
      value: 0
    }
  }
}
layer {
  name: "relu1"
  type: "ReLU"
  bottom: "conv1"
  top: "conv1"
}
layer {
  name: "norm1"
  type: "LRN"
  bottom: "conv1"
  top: "norm1"
  lrn_param {
    local_size: 5
    alpha: 0.0001
    beta: 0.75
  }
}
layer {
  name: "pool1"
  type: "Pooling"
  bottom: "norm1"
  top: "pool1"
  pooling_param {
    pool: MAX
    kernel_size: 3
    stride: 2
  }
}
layer {
  name: "conv2"
  type: "Convolution"
  bottom: "pool1"
  top: "conv2"
  param {
    lr_mult: 1
    decay_mult: 1
  }
  param {
    lr_mult: 2
    decay_mult: 0
  }
  convolution_param {
    num_output: 256
    pad: 2
    kernel_size: 5
    group: 2
    weight_filler {
      type: "gaussian"
      std: 0.01
    }
    bias_filler {
      type: "constant"
      value: 0.1
    }
  }
}
layer {
  name: "relu2"
  type: "ReLU"
  bottom: "conv2"
  top: "conv2"
}
layer {
  name: "norm2"
  type: "LRN"
  bottom: "conv2"
  top: "norm2"
  lrn_param {
    local_size: 5
    alpha: 0.0001
    beta: 0.75
  }
}
layer {
  name: "pool2"
  type: "Pooling"
  bottom: "norm2"
  top: "pool2"
  pooling_param {
    pool: MAX
    kernel_size: 3
    stride: 2
  }
}
layer {
  name: "conv3"
  type: "Convolution"
  bottom: "pool2"
  top: "conv3"
  param {
    lr_mult: 1
    decay_mult: 1
  }
  param {
    lr_mult: 2
    decay_mult: 0
  }
  convolution_param {
    num_output: 384
    pad: 1
    kernel_size: 3
    weight_filler {
      type: "gaussian"
      std: 0.01
    }
    bias_filler {
      type: "constant"
      value: 0
    }
  }
}
layer {
  name: "relu3"
  type: "ReLU"
  bottom: "conv3"
  top: "conv3"
}
layer {
  name: "conv4"
  type: "Convolution"
  bottom: "conv3"
  top: "conv4"
  param {
    lr_mult: 1
    decay_mult: 1
  }
  param {
    lr_mult: 2
    decay_mult: 0
  }
  convolution_param {
    num_output: 384
    pad: 1
    kernel_size: 3
    group: 2
    weight_filler {
      type: "gaussian"
      std: 0.01
    }
    bias_filler {
      type: "constant"
      value: 0.1
    }
  }
}
layer {
  name: "relu4"
  type: "ReLU"
  bottom: "conv4"
  top: "conv4"
}
layer {
  name: "conv5"
  type: "Convolution"
  bottom: "conv4"
  top: "conv5"
  param {
    lr_mult: 1
    decay_mult: 1
  }
  param {
    lr_mult: 2
    decay_mult: 0
  }
  convolution_param {
    num_output: 256
    pad: 1
    kernel_size: 3
    group: 2
    weight_filler {
      type: "gaussian"
      std: 0.01
    }
    bias_filler {
      type: "constant"
      value: 0.1
    }
  }
}
layer {
  name: "relu5"
  type: "ReLU"
  bottom: "conv5"
  top: "conv5"
}
layer {
  name: "pool5"
  type: "Pooling"
  bottom: "conv5"
  top: "pool5"
  pooling_param {
    pool: MAX
    kernel_size: 3
    stride: 2
  }
}
layer {
  name: "fc6"
  type: "InnerProduct"
  bottom: "pool5"
  top: "fc6"
  param {
    lr_mult: 1
    decay_mult: 1
  }
  param {
    lr_mult: 2
    decay_mult: 0
  }
  inner_product_param {
    num_output: 4096
    weight_filler {
      type: "gaussian"
      std: 0.005
    }
    bias_filler {
      type: "constant"
      value: 0.1
    }
  }
}
layer {
  name: "relu6"
  type: "ReLU"
  bottom: "fc6"
  top: "fc6"
}
layer {
  name: "drop6"
  type: "Dropout"
  bottom: "fc6"
  top: "fc6"
  dropout_param {
    dropout_ratio: 0.5
  }
}
layer {
  name: "fc7"
  type: "InnerProduct"
  bottom: "fc6"
  top: "fc7"
  param {
    lr_mult: 1
    decay_mult: 1
  }
  param {
    lr_mult: 2
    decay_mult: 0
  }
  inner_product_param {
    num_output: 4096
    weight_filler {
      type: "gaussian"
      std: 0.005
    }
    bias_filler {
      type: "constant"
      value: 0.1
    }
  }
}
layer {
  name: "relu7"
  type: "ReLU"
  bottom: "fc7"
  top: "fc7"
}
layer {
  name: "drop7"
  type: "Dropout"
  bottom: "fc7"
  top: "fc7"
  dropout_param {
    dropout_ratio: 0.5
  }
}
layer {
  name: "fc8_plantvillage"
  type: "InnerProduct"
  bottom: "fc7"
  top: "fc8_plantvillage"
  param {
    lr_mult: 1
    decay_mult: 1
  }
  param {
    lr_mult: 2
    decay_mult: 0
  }
  inner_product_param {
    num_output: 38
    weight_filler {
      type: "gaussian"
      std: 0.01
    }
    bias_filler {
      type: "constant"
      value: 0
    }
  }
}
layer {
  name: "prob"
  type: "Softmax"
  bottom: "fc8_plantvillage"
  top: "prob"
  include {
    phase: TEST
  }
}
layer {
  name: "hdf5out"
  type: "HDF5Output"
  bottom: "prob"
  bottom: "label"
  include {
    phase: TEST
  }
  hdf5_output_param {
    file_name: "hdf5_dumps/iter_9425.h5"
  }
}
layer {
  name: "loss"
  type: "SoftmaxWithLoss"
  bottom: "fc8_plantvillage"
  bottom: "label"
  top: "loss"
}
layer {
  name: "accuracy"
  type: "Accuracy"
  bottom: "fc8_plantvillage"
  bottom: "label"
  top: "accuracy"
  include {
    phase: TEST
  }
}
I0403 13:24:43.565156 32067 layer_factory.hpp:77] Creating layer data
I0403 13:24:43.565788 32067 net.cpp:91] Creating Layer data
I0403 13:24:43.565817 32067 net.cpp:399] data -> data
I0403 13:24:43.565866 32067 net.cpp:399] data -> label
I0403 13:24:43.565901 32067 data_transformer.cpp:25] Loading mean file from: /home/mohanty/data/final_dataset/lmdb/segmented-60-40/mean.binaryproto
I0403 13:24:43.569345 32070 db_lmdb.cpp:38] Opened lmdb /home/mohanty/data/final_dataset/lmdb/segmented-60-40/test_db
I0403 13:24:43.580298 32067 data_layer.cpp:41] output data size: 100,3,227,227
I0403 13:24:43.705224 32067 net.cpp:141] Setting up data
I0403 13:24:43.705287 32067 net.cpp:148] Top shape: 100 3 227 227 (15458700)
I0403 13:24:43.705310 32067 net.cpp:148] Top shape: 100 (100)
I0403 13:24:43.705327 32067 net.cpp:156] Memory required for data: 61835200
I0403 13:24:43.705354 32067 layer_factory.hpp:77] Creating layer label_data_1_split
I0403 13:24:43.705381 32067 net.cpp:91] Creating Layer label_data_1_split
I0403 13:24:43.705401 32067 net.cpp:425] label_data_1_split <- label
I0403 13:24:43.705432 32067 net.cpp:399] label_data_1_split -> label_data_1_split_0
I0403 13:24:43.705459 32067 net.cpp:399] label_data_1_split -> label_data_1_split_1
I0403 13:24:43.705481 32067 net.cpp:399] label_data_1_split -> label_data_1_split_2
I0403 13:24:43.705543 32067 net.cpp:141] Setting up label_data_1_split
I0403 13:24:43.705567 32067 net.cpp:148] Top shape: 100 (100)
I0403 13:24:43.705585 32067 net.cpp:148] Top shape: 100 (100)
I0403 13:24:43.705600 32067 net.cpp:148] Top shape: 100 (100)
I0403 13:24:43.705615 32067 net.cpp:156] Memory required for data: 61836400
I0403 13:24:43.705631 32067 layer_factory.hpp:77] Creating layer conv1
I0403 13:24:43.705662 32067 net.cpp:91] Creating Layer conv1
I0403 13:24:43.705680 32067 net.cpp:425] conv1 <- data
I0403 13:24:43.705700 32067 net.cpp:399] conv1 -> conv1
I0403 13:24:43.850594 32067 net.cpp:141] Setting up conv1
I0403 13:24:43.850683 32067 net.cpp:148] Top shape: 100 96 55 55 (29040000)
I0403 13:24:43.850702 32067 net.cpp:156] Memory required for data: 177996400
I0403 13:24:43.850734 32067 layer_factory.hpp:77] Creating layer relu1
I0403 13:24:43.850762 32067 net.cpp:91] Creating Layer relu1
I0403 13:24:43.850781 32067 net.cpp:425] relu1 <- conv1
I0403 13:24:43.850800 32067 net.cpp:386] relu1 -> conv1 (in-place)
I0403 13:24:43.851068 32067 net.cpp:141] Setting up relu1
I0403 13:24:43.851095 32067 net.cpp:148] Top shape: 100 96 55 55 (29040000)
I0403 13:24:43.851143 32067 net.cpp:156] Memory required for data: 294156400
I0403 13:24:43.851161 32067 layer_factory.hpp:77] Creating layer norm1
I0403 13:24:43.851189 32067 net.cpp:91] Creating Layer norm1
I0403 13:24:43.851208 32067 net.cpp:425] norm1 <- conv1
I0403 13:24:43.851227 32067 net.cpp:399] norm1 -> norm1
I0403 13:24:43.851550 32067 net.cpp:141] Setting up norm1
I0403 13:24:43.851578 32067 net.cpp:148] Top shape: 100 96 55 55 (29040000)
I0403 13:24:43.851595 32067 net.cpp:156] Memory required for data: 410316400
I0403 13:24:43.851630 32067 layer_factory.hpp:77] Creating layer pool1
I0403 13:24:43.851660 32067 net.cpp:91] Creating Layer pool1
I0403 13:24:43.851678 32067 net.cpp:425] pool1 <- norm1
I0403 13:24:43.851697 32067 net.cpp:399] pool1 -> pool1
I0403 13:24:43.851766 32067 net.cpp:141] Setting up pool1
I0403 13:24:43.851790 32067 net.cpp:148] Top shape: 100 96 27 27 (6998400)
I0403 13:24:43.851806 32067 net.cpp:156] Memory required for data: 438310000
I0403 13:24:43.851822 32067 layer_factory.hpp:77] Creating layer conv2
I0403 13:24:43.851848 32067 net.cpp:91] Creating Layer conv2
I0403 13:24:43.851864 32067 net.cpp:425] conv2 <- pool1
I0403 13:24:43.851883 32067 net.cpp:399] conv2 -> conv2
I0403 13:24:43.867440 32067 net.cpp:141] Setting up conv2
I0403 13:24:43.867506 32067 net.cpp:148] Top shape: 100 256 27 27 (18662400)
I0403 13:24:43.867523 32067 net.cpp:156] Memory required for data: 512959600
I0403 13:24:43.867547 32067 layer_factory.hpp:77] Creating layer relu2
I0403 13:24:43.867568 32067 net.cpp:91] Creating Layer relu2
I0403 13:24:43.867584 32067 net.cpp:425] relu2 <- conv2
I0403 13:24:43.867604 32067 net.cpp:386] relu2 -> conv2 (in-place)
I0403 13:24:43.867878 32067 net.cpp:141] Setting up relu2
I0403 13:24:43.867907 32067 net.cpp:148] Top shape: 100 256 27 27 (18662400)
I0403 13:24:43.867923 32067 net.cpp:156] Memory required for data: 587609200
I0403 13:24:43.867939 32067 layer_factory.hpp:77] Creating layer norm2
I0403 13:24:43.867962 32067 net.cpp:91] Creating Layer norm2
I0403 13:24:43.867980 32067 net.cpp:425] norm2 <- conv2
I0403 13:24:43.867998 32067 net.cpp:399] norm2 -> norm2
I0403 13:24:43.868191 32067 net.cpp:141] Setting up norm2
I0403 13:24:43.868217 32067 net.cpp:148] Top shape: 100 256 27 27 (18662400)
I0403 13:24:43.868233 32067 net.cpp:156] Memory required for data: 662258800
I0403 13:24:43.868254 32067 layer_factory.hpp:77] Creating layer pool2
I0403 13:24:43.868275 32067 net.cpp:91] Creating Layer pool2
I0403 13:24:43.868291 32067 net.cpp:425] pool2 <- norm2
I0403 13:24:43.868310 32067 net.cpp:399] pool2 -> pool2
I0403 13:24:43.868362 32067 net.cpp:141] Setting up pool2
I0403 13:24:43.868386 32067 net.cpp:148] Top shape: 100 256 13 13 (4326400)
I0403 13:24:43.868402 32067 net.cpp:156] Memory required for data: 679564400
I0403 13:24:43.868417 32067 layer_factory.hpp:77] Creating layer conv3
I0403 13:24:43.868438 32067 net.cpp:91] Creating Layer conv3
I0403 13:24:43.868455 32067 net.cpp:425] conv3 <- pool2
I0403 13:24:43.868476 32067 net.cpp:399] conv3 -> conv3
I0403 13:24:43.908222 32067 net.cpp:141] Setting up conv3
I0403 13:24:43.908284 32067 net.cpp:148] Top shape: 100 384 13 13 (6489600)
I0403 13:24:43.908301 32067 net.cpp:156] Memory required for data: 705522800
I0403 13:24:43.908327 32067 layer_factory.hpp:77] Creating layer relu3
I0403 13:24:43.908350 32067 net.cpp:91] Creating Layer relu3
I0403 13:24:43.908367 32067 net.cpp:425] relu3 <- conv3
I0403 13:24:43.908386 32067 net.cpp:386] relu3 -> conv3 (in-place)
I0403 13:24:43.908663 32067 net.cpp:141] Setting up relu3
I0403 13:24:43.908689 32067 net.cpp:148] Top shape: 100 384 13 13 (6489600)
I0403 13:24:43.908705 32067 net.cpp:156] Memory required for data: 731481200
I0403 13:24:43.908720 32067 layer_factory.hpp:77] Creating layer conv4
I0403 13:24:43.908746 32067 net.cpp:91] Creating Layer conv4
I0403 13:24:43.908761 32067 net.cpp:425] conv4 <- conv3
I0403 13:24:43.908784 32067 net.cpp:399] conv4 -> conv4
I0403 13:24:43.939962 32067 net.cpp:141] Setting up conv4
I0403 13:24:43.940048 32067 net.cpp:148] Top shape: 100 384 13 13 (6489600)
I0403 13:24:43.940098 32067 net.cpp:156] Memory required for data: 757439600
I0403 13:24:43.940121 32067 layer_factory.hpp:77] Creating layer relu4
I0403 13:24:43.940145 32067 net.cpp:91] Creating Layer relu4
I0403 13:24:43.940162 32067 net.cpp:425] relu4 <- conv4
I0403 13:24:43.940186 32067 net.cpp:386] relu4 -> conv4 (in-place)
I0403 13:24:43.940490 32067 net.cpp:141] Setting up relu4
I0403 13:24:43.940521 32067 net.cpp:148] Top shape: 100 384 13 13 (6489600)
I0403 13:24:43.940537 32067 net.cpp:156] Memory required for data: 783398000
I0403 13:24:43.940552 32067 layer_factory.hpp:77] Creating layer conv5
I0403 13:24:43.940578 32067 net.cpp:91] Creating Layer conv5
I0403 13:24:43.940595 32067 net.cpp:425] conv5 <- conv4
I0403 13:24:43.940616 32067 net.cpp:399] conv5 -> conv5
I0403 13:24:43.962291 32067 net.cpp:141] Setting up conv5
I0403 13:24:43.962359 32067 net.cpp:148] Top shape: 100 256 13 13 (4326400)
I0403 13:24:43.962376 32067 net.cpp:156] Memory required for data: 800703600
I0403 13:24:43.962402 32067 layer_factory.hpp:77] Creating layer relu5
I0403 13:24:43.962424 32067 net.cpp:91] Creating Layer relu5
I0403 13:24:43.962440 32067 net.cpp:425] relu5 <- conv5
I0403 13:24:43.962461 32067 net.cpp:386] relu5 -> conv5 (in-place)
I0403 13:24:43.962754 32067 net.cpp:141] Setting up relu5
I0403 13:24:43.962782 32067 net.cpp:148] Top shape: 100 256 13 13 (4326400)
I0403 13:24:43.962798 32067 net.cpp:156] Memory required for data: 818009200
I0403 13:24:43.962815 32067 layer_factory.hpp:77] Creating layer pool5
I0403 13:24:43.962841 32067 net.cpp:91] Creating Layer pool5
I0403 13:24:43.962859 32067 net.cpp:425] pool5 <- conv5
I0403 13:24:43.962879 32067 net.cpp:399] pool5 -> pool5
I0403 13:24:43.962944 32067 net.cpp:141] Setting up pool5
I0403 13:24:43.962966 32067 net.cpp:148] Top shape: 100 256 6 6 (921600)
I0403 13:24:43.962981 32067 net.cpp:156] Memory required for data: 821695600
I0403 13:24:43.962996 32067 layer_factory.hpp:77] Creating layer fc6
I0403 13:24:43.963027 32067 net.cpp:91] Creating Layer fc6
I0403 13:24:43.963095 32067 net.cpp:425] fc6 <- pool5
I0403 13:24:43.963121 32067 net.cpp:399] fc6 -> fc6
I0403 13:24:45.514464 32067 net.cpp:141] Setting up fc6
I0403 13:24:45.514549 32067 net.cpp:148] Top shape: 100 4096 (409600)
I0403 13:24:45.514564 32067 net.cpp:156] Memory required for data: 823334000
I0403 13:24:45.514586 32067 layer_factory.hpp:77] Creating layer relu6
I0403 13:24:45.514607 32067 net.cpp:91] Creating Layer relu6
I0403 13:24:45.514624 32067 net.cpp:425] relu6 <- fc6
I0403 13:24:45.514647 32067 net.cpp:386] relu6 -> fc6 (in-place)
I0403 13:24:45.514873 32067 net.cpp:141] Setting up relu6
I0403 13:24:45.514899 32067 net.cpp:148] Top shape: 100 4096 (409600)
I0403 13:24:45.514912 32067 net.cpp:156] Memory required for data: 824972400
I0403 13:24:45.514927 32067 layer_factory.hpp:77] Creating layer drop6
I0403 13:24:45.514945 32067 net.cpp:91] Creating Layer drop6
I0403 13:24:45.514961 32067 net.cpp:425] drop6 <- fc6
I0403 13:24:45.514981 32067 net.cpp:386] drop6 -> fc6 (in-place)
I0403 13:24:45.515032 32067 net.cpp:141] Setting up drop6
I0403 13:24:45.515058 32067 net.cpp:148] Top shape: 100 4096 (409600)
I0403 13:24:45.515072 32067 net.cpp:156] Memory required for data: 826610800
I0403 13:24:45.515087 32067 layer_factory.hpp:77] Creating layer fc7
I0403 13:24:45.515107 32067 net.cpp:91] Creating Layer fc7
I0403 13:24:45.515122 32067 net.cpp:425] fc7 <- fc6
I0403 13:24:45.515142 32067 net.cpp:399] fc7 -> fc7
I0403 13:24:46.198432 32067 net.cpp:141] Setting up fc7
I0403 13:24:46.198530 32067 net.cpp:148] Top shape: 100 4096 (409600)
I0403 13:24:46.198546 32067 net.cpp:156] Memory required for data: 828249200
I0403 13:24:46.198567 32067 layer_factory.hpp:77] Creating layer relu7
I0403 13:24:46.198590 32067 net.cpp:91] Creating Layer relu7
I0403 13:24:46.198606 32067 net.cpp:425] relu7 <- fc7
I0403 13:24:46.198627 32067 net.cpp:386] relu7 -> fc7 (in-place)
I0403 13:24:46.199074 32067 net.cpp:141] Setting up relu7
I0403 13:24:46.199100 32067 net.cpp:148] Top shape: 100 4096 (409600)
I0403 13:24:46.199148 32067 net.cpp:156] Memory required for data: 829887600
I0403 13:24:46.199164 32067 layer_factory.hpp:77] Creating layer drop7
I0403 13:24:46.199183 32067 net.cpp:91] Creating Layer drop7
I0403 13:24:46.199199 32067 net.cpp:425] drop7 <- fc7
I0403 13:24:46.199218 32067 net.cpp:386] drop7 -> fc7 (in-place)
I0403 13:24:46.199266 32067 net.cpp:141] Setting up drop7
I0403 13:24:46.199291 32067 net.cpp:148] Top shape: 100 4096 (409600)
I0403 13:24:46.199306 32067 net.cpp:156] Memory required for data: 831526000
I0403 13:24:46.199321 32067 layer_factory.hpp:77] Creating layer fc8_plantvillage
I0403 13:24:46.199340 32067 net.cpp:91] Creating Layer fc8_plantvillage
I0403 13:24:46.199355 32067 net.cpp:425] fc8_plantvillage <- fc7
I0403 13:24:46.199375 32067 net.cpp:399] fc8_plantvillage -> fc8_plantvillage
I0403 13:24:46.206085 32067 net.cpp:141] Setting up fc8_plantvillage
I0403 13:24:46.206112 32067 net.cpp:148] Top shape: 100 38 (3800)
I0403 13:24:46.206128 32067 net.cpp:156] Memory required for data: 831541200
I0403 13:24:46.206146 32067 layer_factory.hpp:77] Creating layer fc8_plantvillage_fc8_plantvillage_0_split
I0403 13:24:46.206164 32067 net.cpp:91] Creating Layer fc8_plantvillage_fc8_plantvillage_0_split
I0403 13:24:46.206181 32067 net.cpp:425] fc8_plantvillage_fc8_plantvillage_0_split <- fc8_plantvillage
I0403 13:24:46.206199 32067 net.cpp:399] fc8_plantvillage_fc8_plantvillage_0_split -> fc8_plantvillage_fc8_plantvillage_0_split_0
I0403 13:24:46.206220 32067 net.cpp:399] fc8_plantvillage_fc8_plantvillage_0_split -> fc8_plantvillage_fc8_plantvillage_0_split_1
I0403 13:24:46.206245 32067 net.cpp:399] fc8_plantvillage_fc8_plantvillage_0_split -> fc8_plantvillage_fc8_plantvillage_0_split_2
I0403 13:24:46.206324 32067 net.cpp:141] Setting up fc8_plantvillage_fc8_plantvillage_0_split
I0403 13:24:46.206346 32067 net.cpp:148] Top shape: 100 38 (3800)
I0403 13:24:46.206363 32067 net.cpp:148] Top shape: 100 38 (3800)
I0403 13:24:46.206378 32067 net.cpp:148] Top shape: 100 38 (3800)
I0403 13:24:46.206393 32067 net.cpp:156] Memory required for data: 831586800
I0403 13:24:46.206406 32067 layer_factory.hpp:77] Creating layer prob
I0403 13:24:46.206424 32067 net.cpp:91] Creating Layer prob
I0403 13:24:46.206439 32067 net.cpp:425] prob <- fc8_plantvillage_fc8_plantvillage_0_split_0
I0403 13:24:46.206459 32067 net.cpp:399] prob -> prob
I0403 13:24:46.206689 32067 net.cpp:141] Setting up prob
I0403 13:24:46.206714 32067 net.cpp:148] Top shape: 100 38 (3800)
I0403 13:24:46.206737 32067 net.cpp:156] Memory required for data: 831602000
I0403 13:24:46.206753 32067 layer_factory.hpp:77] Creating layer hdf5out
I0403 13:24:46.206770 32067 net.cpp:91] Creating Layer hdf5out
I0403 13:24:46.206786 32067 net.cpp:425] hdf5out <- prob
I0403 13:24:46.206802 32067 net.cpp:425] hdf5out <- label_data_1_split_0
I0403 13:24:46.209161 32067 net.cpp:141] Setting up hdf5out
…
