…
I0403 13:09:21.100386 31586 net.cpp:313] The NetState phase (1) differed from the phase (0) specified by a rule in layer data
I0403 13:09:21.101122 31586 net.cpp:49] Initializing net from parameters: 
state {
  phase: TEST
}
layer {
  name: "data"
  type: "Data"
  top: "data"
  top: "label"
  include {
    phase: TEST
  }
  transform_param {
    crop_size: 227
    mean_file: "/home/mohanty/data/final_dataset/lmdb/segmented-60-40/mean.binaryproto"
  }
  data_param {
    source: "/home/mohanty/data/final_dataset/lmdb/segmented-60-40/test_db"
    batch_size: 100
    backend: LMDB
  }
}
layer {
  name: "conv1"
  type: "Convolution"
  bottom: "data"
  top: "conv1"
  param {
    lr_mult: 1
    decay_mult: 1
  }
  param {
    lr_mult: 2
    decay_mult: 0
  }
  convolution_param {
    num_output: 96
    kernel_size: 11
    stride: 4
    weight_filler {
      type: "gaussian"
      std: 0.01
    }
    bias_filler {
      type: "constant"
      value: 0
    }
  }
}
layer {
  name: "relu1"
  type: "ReLU"
  bottom: "conv1"
  top: "conv1"
}
layer {
  name: "norm1"
  type: "LRN"
  bottom: "conv1"
  top: "norm1"
  lrn_param {
    local_size: 5
    alpha: 0.0001
    beta: 0.75
  }
}
layer {
  name: "pool1"
  type: "Pooling"
  bottom: "norm1"
  top: "pool1"
  pooling_param {
    pool: MAX
    kernel_size: 3
    stride: 2
  }
}
layer {
  name: "conv2"
  type: "Convolution"
  bottom: "pool1"
  top: "conv2"
  param {
    lr_mult: 1
    decay_mult: 1
  }
  param {
    lr_mult: 2
    decay_mult: 0
  }
  convolution_param {
    num_output: 256
    pad: 2
    kernel_size: 5
    group: 2
    weight_filler {
      type: "gaussian"
      std: 0.01
    }
    bias_filler {
      type: "constant"
      value: 0.1
    }
  }
}
layer {
  name: "relu2"
  type: "ReLU"
  bottom: "conv2"
  top: "conv2"
}
layer {
  name: "norm2"
  type: "LRN"
  bottom: "conv2"
  top: "norm2"
  lrn_param {
    local_size: 5
    alpha: 0.0001
    beta: 0.75
  }
}
layer {
  name: "pool2"
  type: "Pooling"
  bottom: "norm2"
  top: "pool2"
  pooling_param {
    pool: MAX
    kernel_size: 3
    stride: 2
  }
}
layer {
  name: "conv3"
  type: "Convolution"
  bottom: "pool2"
  top: "conv3"
  param {
    lr_mult: 1
    decay_mult: 1
  }
  param {
    lr_mult: 2
    decay_mult: 0
  }
  convolution_param {
    num_output: 384
    pad: 1
    kernel_size: 3
    weight_filler {
      type: "gaussian"
      std: 0.01
    }
    bias_filler {
      type: "constant"
      value: 0
    }
  }
}
layer {
  name: "relu3"
  type: "ReLU"
  bottom: "conv3"
  top: "conv3"
}
layer {
  name: "conv4"
  type: "Convolution"
  bottom: "conv3"
  top: "conv4"
  param {
    lr_mult: 1
    decay_mult: 1
  }
  param {
    lr_mult: 2
    decay_mult: 0
  }
  convolution_param {
    num_output: 384
    pad: 1
    kernel_size: 3
    group: 2
    weight_filler {
      type: "gaussian"
      std: 0.01
    }
    bias_filler {
      type: "constant"
      value: 0.1
    }
  }
}
layer {
  name: "relu4"
  type: "ReLU"
  bottom: "conv4"
  top: "conv4"
}
layer {
  name: "conv5"
  type: "Convolution"
  bottom: "conv4"
  top: "conv5"
  param {
    lr_mult: 1
    decay_mult: 1
  }
  param {
    lr_mult: 2
    decay_mult: 0
  }
  convolution_param {
    num_output: 256
    pad: 1
    kernel_size: 3
    group: 2
    weight_filler {
      type: "gaussian"
      std: 0.01
    }
    bias_filler {
      type: "constant"
      value: 0.1
    }
  }
}
layer {
  name: "relu5"
  type: "ReLU"
  bottom: "conv5"
  top: "conv5"
}
layer {
  name: "pool5"
  type: "Pooling"
  bottom: "conv5"
  top: "pool5"
  pooling_param {
    pool: MAX
    kernel_size: 3
    stride: 2
  }
}
layer {
  name: "fc6"
  type: "InnerProduct"
  bottom: "pool5"
  top: "fc6"
  param {
    lr_mult: 1
    decay_mult: 1
  }
  param {
    lr_mult: 2
    decay_mult: 0
  }
  inner_product_param {
    num_output: 4096
    weight_filler {
      type: "gaussian"
      std: 0.005
    }
    bias_filler {
      type: "constant"
      value: 0.1
    }
  }
}
layer {
  name: "relu6"
  type: "ReLU"
  bottom: "fc6"
  top: "fc6"
}
layer {
  name: "drop6"
  type: "Dropout"
  bottom: "fc6"
  top: "fc6"
  dropout_param {
    dropout_ratio: 0.5
  }
}
layer {
  name: "fc7"
  type: "InnerProduct"
  bottom: "fc6"
  top: "fc7"
  param {
    lr_mult: 1
    decay_mult: 1
  }
  param {
    lr_mult: 2
    decay_mult: 0
  }
  inner_product_param {
    num_output: 4096
    weight_filler {
      type: "gaussian"
      std: 0.005
    }
    bias_filler {
      type: "constant"
      value: 0.1
    }
  }
}
layer {
  name: "relu7"
  type: "ReLU"
  bottom: "fc7"
  top: "fc7"
}
layer {
  name: "drop7"
  type: "Dropout"
  bottom: "fc7"
  top: "fc7"
  dropout_param {
    dropout_ratio: 0.5
  }
}
layer {
  name: "fc8_plantvillage"
  type: "InnerProduct"
  bottom: "fc7"
  top: "fc8_plantvillage"
  param {
    lr_mult: 1
    decay_mult: 1
  }
  param {
    lr_mult: 2
    decay_mult: 0
  }
  inner_product_param {
    num_output: 38
    weight_filler {
      type: "gaussian"
      std: 0.01
    }
    bias_filler {
      type: "constant"
      value: 0
    }
  }
}
layer {
  name: "prob"
  type: "Softmax"
  bottom: "fc8_plantvillage"
  top: "prob"
  include {
    phase: TEST
  }
}
layer {
  name: "hdf5out"
  type: "HDF5Output"
  bottom: "prob"
  bottom: "label"
  include {
    phase: TEST
  }
  hdf5_output_param {
    file_name: "hdf5_dumps/iter_2275.h5"
  }
}
layer {
  name: "loss"
  type: "SoftmaxWithLoss"
  bottom: "fc8_plantvillage"
  bottom: "label"
  top: "loss"
}
layer {
  name: "accuracy"
  type: "Accuracy"
  bottom: "fc8_plantvillage"
  bottom: "label"
  top: "accuracy"
  include {
    phase: TEST
  }
}
I0403 13:09:21.102361 31586 layer_factory.hpp:77] Creating layer data
I0403 13:09:21.104017 31586 net.cpp:91] Creating Layer data
I0403 13:09:21.104094 31586 net.cpp:399] data -> data
I0403 13:09:21.104219 31586 net.cpp:399] data -> label
I0403 13:09:21.104323 31586 data_transformer.cpp:25] Loading mean file from: /home/mohanty/data/final_dataset/lmdb/segmented-60-40/mean.binaryproto
I0403 13:09:21.109174 31592 db_lmdb.cpp:38] Opened lmdb /home/mohanty/data/final_dataset/lmdb/segmented-60-40/test_db
I0403 13:09:21.126623 31586 data_layer.cpp:41] output data size: 100,3,227,227
I0403 13:09:21.267227 31586 net.cpp:141] Setting up data
I0403 13:09:21.267362 31586 net.cpp:148] Top shape: 100 3 227 227 (15458700)
I0403 13:09:21.267393 31586 net.cpp:148] Top shape: 100 (100)
I0403 13:09:21.267415 31586 net.cpp:156] Memory required for data: 61835200
I0403 13:09:21.267452 31586 layer_factory.hpp:77] Creating layer label_data_1_split
I0403 13:09:21.267485 31586 net.cpp:91] Creating Layer label_data_1_split
I0403 13:09:21.267509 31586 net.cpp:425] label_data_1_split <- label
I0403 13:09:21.267549 31586 net.cpp:399] label_data_1_split -> label_data_1_split_0
I0403 13:09:21.267585 31586 net.cpp:399] label_data_1_split -> label_data_1_split_1
I0403 13:09:21.267613 31586 net.cpp:399] label_data_1_split -> label_data_1_split_2
I0403 13:09:21.267699 31586 net.cpp:141] Setting up label_data_1_split
I0403 13:09:21.267730 31586 net.cpp:148] Top shape: 100 (100)
I0403 13:09:21.267752 31586 net.cpp:148] Top shape: 100 (100)
I0403 13:09:21.267773 31586 net.cpp:148] Top shape: 100 (100)
I0403 13:09:21.267792 31586 net.cpp:156] Memory required for data: 61836400
I0403 13:09:21.267813 31586 layer_factory.hpp:77] Creating layer conv1
I0403 13:09:21.267855 31586 net.cpp:91] Creating Layer conv1
I0403 13:09:21.267881 31586 net.cpp:425] conv1 <- data
I0403 13:09:21.267907 31586 net.cpp:399] conv1 -> conv1
I0403 13:09:21.433346 31586 net.cpp:141] Setting up conv1
I0403 13:09:21.433445 31586 net.cpp:148] Top shape: 100 96 55 55 (29040000)
I0403 13:09:21.433467 31586 net.cpp:156] Memory required for data: 177996400
I0403 13:09:21.433506 31586 layer_factory.hpp:77] Creating layer relu1
I0403 13:09:21.433538 31586 net.cpp:91] Creating Layer relu1
I0403 13:09:21.433562 31586 net.cpp:425] relu1 <- conv1
I0403 13:09:21.433585 31586 net.cpp:386] relu1 -> conv1 (in-place)
I0403 13:09:21.433889 31586 net.cpp:141] Setting up relu1
I0403 13:09:21.433923 31586 net.cpp:148] Top shape: 100 96 55 55 (29040000)
I0403 13:09:21.433977 31586 net.cpp:156] Memory required for data: 294156400
I0403 13:09:21.433996 31586 layer_factory.hpp:77] Creating layer norm1
I0403 13:09:21.434029 31586 net.cpp:91] Creating Layer norm1
I0403 13:09:21.434051 31586 net.cpp:425] norm1 <- conv1
I0403 13:09:21.434074 31586 net.cpp:399] norm1 -> norm1
I0403 13:09:21.434445 31586 net.cpp:141] Setting up norm1
I0403 13:09:21.434478 31586 net.cpp:148] Top shape: 100 96 55 55 (29040000)
I0403 13:09:21.434499 31586 net.cpp:156] Memory required for data: 410316400
I0403 13:09:21.434517 31586 layer_factory.hpp:77] Creating layer pool1
I0403 13:09:21.434545 31586 net.cpp:91] Creating Layer pool1
I0403 13:09:21.434567 31586 net.cpp:425] pool1 <- norm1
I0403 13:09:21.434589 31586 net.cpp:399] pool1 -> pool1
I0403 13:09:21.434694 31586 net.cpp:141] Setting up pool1
I0403 13:09:21.434725 31586 net.cpp:148] Top shape: 100 96 27 27 (6998400)
I0403 13:09:21.434746 31586 net.cpp:156] Memory required for data: 438310000
I0403 13:09:21.434764 31586 layer_factory.hpp:77] Creating layer conv2
I0403 13:09:21.434795 31586 net.cpp:91] Creating Layer conv2
I0403 13:09:21.434815 31586 net.cpp:425] conv2 <- pool1
I0403 13:09:21.434839 31586 net.cpp:399] conv2 -> conv2
I0403 13:09:21.452723 31586 net.cpp:141] Setting up conv2
I0403 13:09:21.452766 31586 net.cpp:148] Top shape: 100 256 27 27 (18662400)
I0403 13:09:21.452787 31586 net.cpp:156] Memory required for data: 512959600
I0403 13:09:21.452814 31586 layer_factory.hpp:77] Creating layer relu2
I0403 13:09:21.452837 31586 net.cpp:91] Creating Layer relu2
I0403 13:09:21.452857 31586 net.cpp:425] relu2 <- conv2
I0403 13:09:21.452883 31586 net.cpp:386] relu2 -> conv2 (in-place)
I0403 13:09:21.453214 31586 net.cpp:141] Setting up relu2
I0403 13:09:21.453248 31586 net.cpp:148] Top shape: 100 256 27 27 (18662400)
I0403 13:09:21.453265 31586 net.cpp:156] Memory required for data: 587609200
I0403 13:09:21.453290 31586 layer_factory.hpp:77] Creating layer norm2
I0403 13:09:21.453320 31586 net.cpp:91] Creating Layer norm2
I0403 13:09:21.453341 31586 net.cpp:425] norm2 <- conv2
I0403 13:09:21.453363 31586 net.cpp:399] norm2 -> norm2
I0403 13:09:21.453610 31586 net.cpp:141] Setting up norm2
I0403 13:09:21.453642 31586 net.cpp:148] Top shape: 100 256 27 27 (18662400)
I0403 13:09:21.453660 31586 net.cpp:156] Memory required for data: 662258800
I0403 13:09:21.453680 31586 layer_factory.hpp:77] Creating layer pool2
I0403 13:09:21.453701 31586 net.cpp:91] Creating Layer pool2
I0403 13:09:21.453721 31586 net.cpp:425] pool2 <- norm2
I0403 13:09:21.453744 31586 net.cpp:399] pool2 -> pool2
I0403 13:09:21.453809 31586 net.cpp:141] Setting up pool2
I0403 13:09:21.453838 31586 net.cpp:148] Top shape: 100 256 13 13 (4326400)
I0403 13:09:21.453856 31586 net.cpp:156] Memory required for data: 679564400
I0403 13:09:21.453876 31586 layer_factory.hpp:77] Creating layer conv3
I0403 13:09:21.453902 31586 net.cpp:91] Creating Layer conv3
I0403 13:09:21.453923 31586 net.cpp:425] conv3 <- pool2
I0403 13:09:21.453946 31586 net.cpp:399] conv3 -> conv3
I0403 13:09:21.500295 31586 net.cpp:141] Setting up conv3
I0403 13:09:21.500361 31586 net.cpp:148] Top shape: 100 384 13 13 (6489600)
I0403 13:09:21.500381 31586 net.cpp:156] Memory required for data: 705522800
I0403 13:09:21.500411 31586 layer_factory.hpp:77] Creating layer relu3
I0403 13:09:21.500438 31586 net.cpp:91] Creating Layer relu3
I0403 13:09:21.500459 31586 net.cpp:425] relu3 <- conv3
I0403 13:09:21.500484 31586 net.cpp:386] relu3 -> conv3 (in-place)
I0403 13:09:21.500813 31586 net.cpp:141] Setting up relu3
I0403 13:09:21.500846 31586 net.cpp:148] Top shape: 100 384 13 13 (6489600)
I0403 13:09:21.500865 31586 net.cpp:156] Memory required for data: 731481200
I0403 13:09:21.500883 31586 layer_factory.hpp:77] Creating layer conv4
I0403 13:09:21.500915 31586 net.cpp:91] Creating Layer conv4
I0403 13:09:21.500936 31586 net.cpp:425] conv4 <- conv3
I0403 13:09:21.500962 31586 net.cpp:399] conv4 -> conv4
I0403 13:09:21.537153 31586 net.cpp:141] Setting up conv4
I0403 13:09:21.537210 31586 net.cpp:148] Top shape: 100 384 13 13 (6489600)
I0403 13:09:21.537266 31586 net.cpp:156] Memory required for data: 757439600
I0403 13:09:21.537297 31586 layer_factory.hpp:77] Creating layer relu4
I0403 13:09:21.537322 31586 net.cpp:91] Creating Layer relu4
I0403 13:09:21.537343 31586 net.cpp:425] relu4 <- conv4
I0403 13:09:21.537369 31586 net.cpp:386] relu4 -> conv4 (in-place)
I0403 13:09:21.537698 31586 net.cpp:141] Setting up relu4
I0403 13:09:21.537734 31586 net.cpp:148] Top shape: 100 384 13 13 (6489600)
I0403 13:09:21.537755 31586 net.cpp:156] Memory required for data: 783398000
I0403 13:09:21.537773 31586 layer_factory.hpp:77] Creating layer conv5
I0403 13:09:21.537842 31586 net.cpp:91] Creating Layer conv5
I0403 13:09:21.537871 31586 net.cpp:425] conv5 <- conv4
I0403 13:09:21.537900 31586 net.cpp:399] conv5 -> conv5
I0403 13:09:21.562830 31586 net.cpp:141] Setting up conv5
I0403 13:09:21.562877 31586 net.cpp:148] Top shape: 100 256 13 13 (4326400)
I0403 13:09:21.562899 31586 net.cpp:156] Memory required for data: 800703600
I0403 13:09:21.562929 31586 layer_factory.hpp:77] Creating layer relu5
I0403 13:09:21.562955 31586 net.cpp:91] Creating Layer relu5
I0403 13:09:21.562975 31586 net.cpp:425] relu5 <- conv5
I0403 13:09:21.562999 31586 net.cpp:386] relu5 -> conv5 (in-place)
I0403 13:09:21.563349 31586 net.cpp:141] Setting up relu5
I0403 13:09:21.563381 31586 net.cpp:148] Top shape: 100 256 13 13 (4326400)
I0403 13:09:21.563400 31586 net.cpp:156] Memory required for data: 818009200
I0403 13:09:21.563419 31586 layer_factory.hpp:77] Creating layer pool5
I0403 13:09:21.563448 31586 net.cpp:91] Creating Layer pool5
I0403 13:09:21.563470 31586 net.cpp:425] pool5 <- conv5
I0403 13:09:21.563493 31586 net.cpp:399] pool5 -> pool5
I0403 13:09:21.563565 31586 net.cpp:141] Setting up pool5
I0403 13:09:21.563594 31586 net.cpp:148] Top shape: 100 256 6 6 (921600)
I0403 13:09:21.563612 31586 net.cpp:156] Memory required for data: 821695600
I0403 13:09:21.563630 31586 layer_factory.hpp:77] Creating layer fc6
I0403 13:09:21.563663 31586 net.cpp:91] Creating Layer fc6
I0403 13:09:21.563684 31586 net.cpp:425] fc6 <- pool5
I0403 13:09:21.563710 31586 net.cpp:399] fc6 -> fc6
I0403 13:09:23.159498 31586 net.cpp:141] Setting up fc6
I0403 13:09:23.159591 31586 net.cpp:148] Top shape: 100 4096 (409600)
I0403 13:09:23.159608 31586 net.cpp:156] Memory required for data: 823334000
I0403 13:09:23.159631 31586 layer_factory.hpp:77] Creating layer relu6
I0403 13:09:23.159653 31586 net.cpp:91] Creating Layer relu6
I0403 13:09:23.159672 31586 net.cpp:425] relu6 <- fc6
I0403 13:09:23.159690 31586 net.cpp:386] relu6 -> fc6 (in-place)
I0403 13:09:23.159924 31586 net.cpp:141] Setting up relu6
I0403 13:09:23.159950 31586 net.cpp:148] Top shape: 100 4096 (409600)
I0403 13:09:23.159966 31586 net.cpp:156] Memory required for data: 824972400
I0403 13:09:23.159981 31586 layer_factory.hpp:77] Creating layer drop6
I0403 13:09:23.160001 31586 net.cpp:91] Creating Layer drop6
I0403 13:09:23.160017 31586 net.cpp:425] drop6 <- fc6
I0403 13:09:23.160037 31586 net.cpp:386] drop6 -> fc6 (in-place)
I0403 13:09:23.160089 31586 net.cpp:141] Setting up drop6
I0403 13:09:23.160117 31586 net.cpp:148] Top shape: 100 4096 (409600)
I0403 13:09:23.160135 31586 net.cpp:156] Memory required for data: 826610800
I0403 13:09:23.160150 31586 layer_factory.hpp:77] Creating layer fc7
I0403 13:09:23.160169 31586 net.cpp:91] Creating Layer fc7
I0403 13:09:23.160186 31586 net.cpp:425] fc7 <- fc6
I0403 13:09:23.160207 31586 net.cpp:399] fc7 -> fc7
I0403 13:09:25.755255 31586 net.cpp:141] Setting up fc7
I0403 13:09:25.755313 31586 net.cpp:148] Top shape: 100 4096 (409600)
I0403 13:09:25.755332 31586 net.cpp:156] Memory required for data: 828249200
I0403 13:09:25.755355 31586 layer_factory.hpp:77] Creating layer relu7
I0403 13:09:25.755378 31586 net.cpp:91] Creating Layer relu7
I0403 13:09:25.755396 31586 net.cpp:425] relu7 <- fc7
I0403 13:09:25.755417 31586 net.cpp:386] relu7 -> fc7 (in-place)
I0403 13:09:25.755784 31586 net.cpp:141] Setting up relu7
I0403 13:09:25.755812 31586 net.cpp:148] Top shape: 100 4096 (409600)
I0403 13:09:25.755853 31586 net.cpp:156] Memory required for data: 829887600
I0403 13:09:25.755877 31586 layer_factory.hpp:77] Creating layer drop7
I0403 13:09:25.755903 31586 net.cpp:91] Creating Layer drop7
I0403 13:09:25.755924 31586 net.cpp:425] drop7 <- fc7
I0403 13:09:25.755945 31586 net.cpp:386] drop7 -> fc7 (in-place)
I0403 13:09:25.755995 31586 net.cpp:141] Setting up drop7
I0403 13:09:25.756021 31586 net.cpp:148] Top shape: 100 4096 (409600)
I0403 13:09:25.756036 31586 net.cpp:156] Memory required for data: 831526000
I0403 13:09:25.756052 31586 layer_factory.hpp:77] Creating layer fc8_plantvillage
I0403 13:09:25.756070 31586 net.cpp:91] Creating Layer fc8_plantvillage
I0403 13:09:25.756086 31586 net.cpp:425] fc8_plantvillage <- fc7
I0403 13:09:25.756108 31586 net.cpp:399] fc8_plantvillage -> fc8_plantvillage
I0403 13:09:25.763095 31586 net.cpp:141] Setting up fc8_plantvillage
I0403 13:09:25.763170 31586 net.cpp:148] Top shape: 100 38 (3800)
I0403 13:09:25.763188 31586 net.cpp:156] Memory required for data: 831541200
I0403 13:09:25.763211 31586 layer_factory.hpp:77] Creating layer fc8_plantvillage_fc8_plantvillage_0_split
I0403 13:09:25.763232 31586 net.cpp:91] Creating Layer fc8_plantvillage_fc8_plantvillage_0_split
I0403 13:09:25.763249 31586 net.cpp:425] fc8_plantvillage_fc8_plantvillage_0_split <- fc8_plantvillage
I0403 13:09:25.763276 31586 net.cpp:399] fc8_plantvillage_fc8_plantvillage_0_split -> fc8_plantvillage_fc8_plantvillage_0_split_0
I0403 13:09:25.763301 31586 net.cpp:399] fc8_plantvillage_fc8_plantvillage_0_split -> fc8_plantvillage_fc8_plantvillage_0_split_1
I0403 13:09:25.763324 31586 net.cpp:399] fc8_plantvillage_fc8_plantvillage_0_split -> fc8_plantvillage_fc8_plantvillage_0_split_2
I0403 13:09:25.763406 31586 net.cpp:141] Setting up fc8_plantvillage_fc8_plantvillage_0_split
I0403 13:09:25.763434 31586 net.cpp:148] Top shape: 100 38 (3800)
I0403 13:09:25.763453 31586 net.cpp:148] Top shape: 100 38 (3800)
I0403 13:09:25.763470 31586 net.cpp:148] Top shape: 100 38 (3800)
I0403 13:09:25.763485 31586 net.cpp:156] Memory required for data: 831586800
I0403 13:09:25.763500 31586 layer_factory.hpp:77] Creating layer prob
I0403 13:09:25.763520 31586 net.cpp:91] Creating Layer prob
I0403 13:09:25.763535 31586 net.cpp:425] prob <- fc8_plantvillage_fc8_plantvillage_0_split_0
I0403 13:09:25.763556 31586 net.cpp:399] prob -> prob
I0403 13:09:25.763833 31586 net.cpp:141] Setting up prob
I0403 13:09:25.763859 31586 net.cpp:148] Top shape: 100 38 (3800)
I0403 13:09:25.763875 31586 net.cpp:156] Memory required for data: 831602000
I0403 13:09:25.763891 31586 layer_factory.hpp:77] Creating layer hdf5out
I0403 13:09:25.763911 31586 net.cpp:91] Creating Layer hdf5out
I0403 13:09:25.763927 31586 net.cpp:425] hdf5out <- prob
I0403 13:09:25.763944 31586 net.cpp:425] hdf5out <- label_data_1_split_0
I0403 13:09:25.766949 31586 net.cpp:141] Setting up hdf5out
…
