…
I0403 13:05:08.958616 31372 net.cpp:313] The NetState phase (1) differed from the phase (0) specified by a rule in layer data
I0403 13:05:08.958930 31372 net.cpp:49] Initializing net from parameters: 
state {
  phase: TEST
}
layer {
  name: "data"
  type: "Data"
  top: "data"
  top: "label"
  include {
    phase: TEST
  }
  transform_param {
    crop_size: 227
    mean_file: "/home/mohanty/data/final_dataset/lmdb/segmented-60-40/mean.binaryproto"
  }
  data_param {
    source: "/home/mohanty/data/final_dataset/lmdb/segmented-60-40/test_db"
    batch_size: 100
    backend: LMDB
  }
}
layer {
  name: "conv1"
  type: "Convolution"
  bottom: "data"
  top: "conv1"
  param {
    lr_mult: 1
    decay_mult: 1
  }
  param {
    lr_mult: 2
    decay_mult: 0
  }
  convolution_param {
    num_output: 96
    kernel_size: 11
    stride: 4
    weight_filler {
      type: "gaussian"
      std: 0.01
    }
    bias_filler {
      type: "constant"
      value: 0
    }
  }
}
layer {
  name: "relu1"
  type: "ReLU"
  bottom: "conv1"
  top: "conv1"
}
layer {
  name: "norm1"
  type: "LRN"
  bottom: "conv1"
  top: "norm1"
  lrn_param {
    local_size: 5
    alpha: 0.0001
    beta: 0.75
  }
}
layer {
  name: "pool1"
  type: "Pooling"
  bottom: "norm1"
  top: "pool1"
  pooling_param {
    pool: MAX
    kernel_size: 3
    stride: 2
  }
}
layer {
  name: "conv2"
  type: "Convolution"
  bottom: "pool1"
  top: "conv2"
  param {
    lr_mult: 1
    decay_mult: 1
  }
  param {
    lr_mult: 2
    decay_mult: 0
  }
  convolution_param {
    num_output: 256
    pad: 2
    kernel_size: 5
    group: 2
    weight_filler {
      type: "gaussian"
      std: 0.01
    }
    bias_filler {
      type: "constant"
      value: 0.1
    }
  }
}
layer {
  name: "relu2"
  type: "ReLU"
  bottom: "conv2"
  top: "conv2"
}
layer {
  name: "norm2"
  type: "LRN"
  bottom: "conv2"
  top: "norm2"
  lrn_param {
    local_size: 5
    alpha: 0.0001
    beta: 0.75
  }
}
layer {
  name: "pool2"
  type: "Pooling"
  bottom: "norm2"
  top: "pool2"
  pooling_param {
    pool: MAX
    kernel_size: 3
    stride: 2
  }
}
layer {
  name: "conv3"
  type: "Convolution"
  bottom: "pool2"
  top: "conv3"
  param {
    lr_mult: 1
    decay_mult: 1
  }
  param {
    lr_mult: 2
    decay_mult: 0
  }
  convolution_param {
    num_output: 384
    pad: 1
    kernel_size: 3
    weight_filler {
      type: "gaussian"
      std: 0.01
    }
    bias_filler {
      type: "constant"
      value: 0
    }
  }
}
layer {
  name: "relu3"
  type: "ReLU"
  bottom: "conv3"
  top: "conv3"
}
layer {
  name: "conv4"
  type: "Convolution"
  bottom: "conv3"
  top: "conv4"
  param {
    lr_mult: 1
    decay_mult: 1
  }
  param {
    lr_mult: 2
    decay_mult: 0
  }
  convolution_param {
    num_output: 384
    pad: 1
    kernel_size: 3
    group: 2
    weight_filler {
      type: "gaussian"
      std: 0.01
    }
    bias_filler {
      type: "constant"
      value: 0.1
    }
  }
}
layer {
  name: "relu4"
  type: "ReLU"
  bottom: "conv4"
  top: "conv4"
}
layer {
  name: "conv5"
  type: "Convolution"
  bottom: "conv4"
  top: "conv5"
  param {
    lr_mult: 1
    decay_mult: 1
  }
  param {
    lr_mult: 2
    decay_mult: 0
  }
  convolution_param {
    num_output: 256
    pad: 1
    kernel_size: 3
    group: 2
    weight_filler {
      type: "gaussian"
      std: 0.01
    }
    bias_filler {
      type: "constant"
      value: 0.1
    }
  }
}
layer {
  name: "relu5"
  type: "ReLU"
  bottom: "conv5"
  top: "conv5"
}
layer {
  name: "pool5"
  type: "Pooling"
  bottom: "conv5"
  top: "pool5"
  pooling_param {
    pool: MAX
    kernel_size: 3
    stride: 2
  }
}
layer {
  name: "fc6"
  type: "InnerProduct"
  bottom: "pool5"
  top: "fc6"
  param {
    lr_mult: 1
    decay_mult: 1
  }
  param {
    lr_mult: 2
    decay_mult: 0
  }
  inner_product_param {
    num_output: 4096
    weight_filler {
      type: "gaussian"
      std: 0.005
    }
    bias_filler {
      type: "constant"
      value: 0.1
    }
  }
}
layer {
  name: "relu6"
  type: "ReLU"
  bottom: "fc6"
  top: "fc6"
}
layer {
  name: "drop6"
  type: "Dropout"
  bottom: "fc6"
  top: "fc6"
  dropout_param {
    dropout_ratio: 0.5
  }
}
layer {
  name: "fc7"
  type: "InnerProduct"
  bottom: "fc6"
  top: "fc7"
  param {
    lr_mult: 1
    decay_mult: 1
  }
  param {
    lr_mult: 2
    decay_mult: 0
  }
  inner_product_param {
    num_output: 4096
    weight_filler {
      type: "gaussian"
      std: 0.005
    }
    bias_filler {
      type: "constant"
      value: 0.1
    }
  }
}
layer {
  name: "relu7"
  type: "ReLU"
  bottom: "fc7"
  top: "fc7"
}
layer {
  name: "drop7"
  type: "Dropout"
  bottom: "fc7"
  top: "fc7"
  dropout_param {
    dropout_ratio: 0.5
  }
}
layer {
  name: "fc8_plantvillage"
  type: "InnerProduct"
  bottom: "fc7"
  top: "fc8_plantvillage"
  param {
    lr_mult: 1
    decay_mult: 1
  }
  param {
    lr_mult: 2
    decay_mult: 0
  }
  inner_product_param {
    num_output: 38
    weight_filler {
      type: "gaussian"
      std: 0.01
    }
    bias_filler {
      type: "constant"
      value: 0
    }
  }
}
layer {
  name: "prob"
  type: "Softmax"
  bottom: "fc8_plantvillage"
  top: "prob"
  include {
    phase: TEST
  }
}
layer {
  name: "hdf5out"
  type: "HDF5Output"
  bottom: "prob"
  bottom: "label"
  include {
    phase: TEST
  }
  hdf5_output_param {
    file_name: "hdf5_dumps/iter_325.h5"
  }
}
layer {
  name: "loss"
  type: "SoftmaxWithLoss"
  bottom: "fc8_plantvillage"
  bottom: "label"
  top: "loss"
}
layer {
  name: "accuracy"
  type: "Accuracy"
  bottom: "fc8_plantvillage"
  bottom: "label"
  top: "accuracy"
  include {
    phase: TEST
  }
}
I0403 13:05:08.959504 31372 layer_factory.hpp:77] Creating layer data
I0403 13:05:08.960176 31372 net.cpp:91] Creating Layer data
I0403 13:05:08.960209 31372 net.cpp:399] data -> data
I0403 13:05:08.960278 31372 net.cpp:399] data -> label
I0403 13:05:08.960315 31372 data_transformer.cpp:25] Loading mean file from: /home/mohanty/data/final_dataset/lmdb/segmented-60-40/mean.binaryproto
I0403 13:05:09.046339 31375 db_lmdb.cpp:38] Opened lmdb /home/mohanty/data/final_dataset/lmdb/segmented-60-40/test_db
I0403 13:05:09.051084 31372 data_layer.cpp:41] output data size: 100,3,227,227
I0403 13:05:09.200575 31372 net.cpp:141] Setting up data
I0403 13:05:09.200682 31372 net.cpp:148] Top shape: 100 3 227 227 (15458700)
I0403 13:05:09.200706 31372 net.cpp:148] Top shape: 100 (100)
I0403 13:05:09.200721 31372 net.cpp:156] Memory required for data: 61835200
I0403 13:05:09.200752 31372 layer_factory.hpp:77] Creating layer label_data_1_split
I0403 13:05:09.200778 31372 net.cpp:91] Creating Layer label_data_1_split
I0403 13:05:09.200796 31372 net.cpp:425] label_data_1_split <- label
I0403 13:05:09.200829 31372 net.cpp:399] label_data_1_split -> label_data_1_split_0
I0403 13:05:09.200856 31372 net.cpp:399] label_data_1_split -> label_data_1_split_1
I0403 13:05:09.200877 31372 net.cpp:399] label_data_1_split -> label_data_1_split_2
I0403 13:05:09.200944 31372 net.cpp:141] Setting up label_data_1_split
I0403 13:05:09.200968 31372 net.cpp:148] Top shape: 100 (100)
I0403 13:05:09.200984 31372 net.cpp:148] Top shape: 100 (100)
I0403 13:05:09.201001 31372 net.cpp:148] Top shape: 100 (100)
I0403 13:05:09.201015 31372 net.cpp:156] Memory required for data: 61836400
I0403 13:05:09.201030 31372 layer_factory.hpp:77] Creating layer conv1
I0403 13:05:09.201061 31372 net.cpp:91] Creating Layer conv1
I0403 13:05:09.201081 31372 net.cpp:425] conv1 <- data
I0403 13:05:09.201100 31372 net.cpp:399] conv1 -> conv1
I0403 13:05:09.346999 31372 net.cpp:141] Setting up conv1
I0403 13:05:09.347074 31372 net.cpp:148] Top shape: 100 96 55 55 (29040000)
I0403 13:05:09.347091 31372 net.cpp:156] Memory required for data: 177996400
I0403 13:05:09.347123 31372 layer_factory.hpp:77] Creating layer relu1
I0403 13:05:09.347152 31372 net.cpp:91] Creating Layer relu1
I0403 13:05:09.347172 31372 net.cpp:425] relu1 <- conv1
I0403 13:05:09.347196 31372 net.cpp:386] relu1 -> conv1 (in-place)
I0403 13:05:09.347491 31372 net.cpp:141] Setting up relu1
I0403 13:05:09.347519 31372 net.cpp:148] Top shape: 100 96 55 55 (29040000)
I0403 13:05:09.347568 31372 net.cpp:156] Memory required for data: 294156400
I0403 13:05:09.347584 31372 layer_factory.hpp:77] Creating layer norm1
I0403 13:05:09.347615 31372 net.cpp:91] Creating Layer norm1
I0403 13:05:09.347683 31372 net.cpp:425] norm1 <- conv1
I0403 13:05:09.347709 31372 net.cpp:399] norm1 -> norm1
I0403 13:05:09.348052 31372 net.cpp:141] Setting up norm1
I0403 13:05:09.348081 31372 net.cpp:148] Top shape: 100 96 55 55 (29040000)
I0403 13:05:09.348098 31372 net.cpp:156] Memory required for data: 410316400
I0403 13:05:09.348114 31372 layer_factory.hpp:77] Creating layer pool1
I0403 13:05:09.348137 31372 net.cpp:91] Creating Layer pool1
I0403 13:05:09.348155 31372 net.cpp:425] pool1 <- norm1
I0403 13:05:09.348176 31372 net.cpp:399] pool1 -> pool1
I0403 13:05:09.348248 31372 net.cpp:141] Setting up pool1
I0403 13:05:09.348281 31372 net.cpp:148] Top shape: 100 96 27 27 (6998400)
I0403 13:05:09.348300 31372 net.cpp:156] Memory required for data: 438310000
I0403 13:05:09.348315 31372 layer_factory.hpp:77] Creating layer conv2
I0403 13:05:09.348343 31372 net.cpp:91] Creating Layer conv2
I0403 13:05:09.348361 31372 net.cpp:425] conv2 <- pool1
I0403 13:05:09.348383 31372 net.cpp:399] conv2 -> conv2
I0403 13:05:09.364413 31372 net.cpp:141] Setting up conv2
I0403 13:05:09.364470 31372 net.cpp:148] Top shape: 100 256 27 27 (18662400)
I0403 13:05:09.364488 31372 net.cpp:156] Memory required for data: 512959600
I0403 13:05:09.364512 31372 layer_factory.hpp:77] Creating layer relu2
I0403 13:05:09.364533 31372 net.cpp:91] Creating Layer relu2
I0403 13:05:09.364550 31372 net.cpp:425] relu2 <- conv2
I0403 13:05:09.364569 31372 net.cpp:386] relu2 -> conv2 (in-place)
I0403 13:05:09.364977 31372 net.cpp:141] Setting up relu2
I0403 13:05:09.365006 31372 net.cpp:148] Top shape: 100 256 27 27 (18662400)
I0403 13:05:09.365022 31372 net.cpp:156] Memory required for data: 587609200
I0403 13:05:09.365038 31372 layer_factory.hpp:77] Creating layer norm2
I0403 13:05:09.365062 31372 net.cpp:91] Creating Layer norm2
I0403 13:05:09.365080 31372 net.cpp:425] norm2 <- conv2
I0403 13:05:09.365099 31372 net.cpp:399] norm2 -> norm2
I0403 13:05:09.365314 31372 net.cpp:141] Setting up norm2
I0403 13:05:09.365344 31372 net.cpp:148] Top shape: 100 256 27 27 (18662400)
I0403 13:05:09.365360 31372 net.cpp:156] Memory required for data: 662258800
I0403 13:05:09.365375 31372 layer_factory.hpp:77] Creating layer pool2
I0403 13:05:09.365394 31372 net.cpp:91] Creating Layer pool2
I0403 13:05:09.365411 31372 net.cpp:425] pool2 <- norm2
I0403 13:05:09.365428 31372 net.cpp:399] pool2 -> pool2
I0403 13:05:09.365484 31372 net.cpp:141] Setting up pool2
I0403 13:05:09.365507 31372 net.cpp:148] Top shape: 100 256 13 13 (4326400)
I0403 13:05:09.365522 31372 net.cpp:156] Memory required for data: 679564400
I0403 13:05:09.365538 31372 layer_factory.hpp:77] Creating layer conv3
I0403 13:05:09.365563 31372 net.cpp:91] Creating Layer conv3
I0403 13:05:09.365581 31372 net.cpp:425] conv3 <- pool2
I0403 13:05:09.365602 31372 net.cpp:399] conv3 -> conv3
I0403 13:05:09.405406 31372 net.cpp:141] Setting up conv3
I0403 13:05:09.405472 31372 net.cpp:148] Top shape: 100 384 13 13 (6489600)
I0403 13:05:09.405488 31372 net.cpp:156] Memory required for data: 705522800
I0403 13:05:09.405517 31372 layer_factory.hpp:77] Creating layer relu3
I0403 13:05:09.405541 31372 net.cpp:91] Creating Layer relu3
I0403 13:05:09.405560 31372 net.cpp:425] relu3 <- conv3
I0403 13:05:09.405578 31372 net.cpp:386] relu3 -> conv3 (in-place)
I0403 13:05:09.405859 31372 net.cpp:141] Setting up relu3
I0403 13:05:09.405889 31372 net.cpp:148] Top shape: 100 384 13 13 (6489600)
I0403 13:05:09.405905 31372 net.cpp:156] Memory required for data: 731481200
I0403 13:05:09.405921 31372 layer_factory.hpp:77] Creating layer conv4
I0403 13:05:09.405947 31372 net.cpp:91] Creating Layer conv4
I0403 13:05:09.405966 31372 net.cpp:425] conv4 <- conv3
I0403 13:05:09.405983 31372 net.cpp:399] conv4 -> conv4
I0403 13:05:09.437351 31372 net.cpp:141] Setting up conv4
I0403 13:05:09.437417 31372 net.cpp:148] Top shape: 100 384 13 13 (6489600)
I0403 13:05:09.437466 31372 net.cpp:156] Memory required for data: 757439600
I0403 13:05:09.437489 31372 layer_factory.hpp:77] Creating layer relu4
I0403 13:05:09.437515 31372 net.cpp:91] Creating Layer relu4
I0403 13:05:09.437533 31372 net.cpp:425] relu4 <- conv4
I0403 13:05:09.437554 31372 net.cpp:386] relu4 -> conv4 (in-place)
I0403 13:05:09.437938 31372 net.cpp:141] Setting up relu4
I0403 13:05:09.437966 31372 net.cpp:148] Top shape: 100 384 13 13 (6489600)
I0403 13:05:09.437991 31372 net.cpp:156] Memory required for data: 783398000
I0403 13:05:09.438006 31372 layer_factory.hpp:77] Creating layer conv5
I0403 13:05:09.438032 31372 net.cpp:91] Creating Layer conv5
I0403 13:05:09.438055 31372 net.cpp:425] conv5 <- conv4
I0403 13:05:09.438073 31372 net.cpp:399] conv5 -> conv5
I0403 13:05:09.462664 31372 net.cpp:141] Setting up conv5
I0403 13:05:09.462707 31372 net.cpp:148] Top shape: 100 256 13 13 (4326400)
I0403 13:05:09.462728 31372 net.cpp:156] Memory required for data: 800703600
I0403 13:05:09.462826 31372 layer_factory.hpp:77] Creating layer relu5
I0403 13:05:09.462853 31372 net.cpp:91] Creating Layer relu5
I0403 13:05:09.462872 31372 net.cpp:425] relu5 <- conv5
I0403 13:05:09.462889 31372 net.cpp:386] relu5 -> conv5 (in-place)
I0403 13:05:09.463196 31372 net.cpp:141] Setting up relu5
I0403 13:05:09.463227 31372 net.cpp:148] Top shape: 100 256 13 13 (4326400)
I0403 13:05:09.463258 31372 net.cpp:156] Memory required for data: 818009200
I0403 13:05:09.463277 31372 layer_factory.hpp:77] Creating layer pool5
I0403 13:05:09.463300 31372 net.cpp:91] Creating Layer pool5
I0403 13:05:09.463317 31372 net.cpp:425] pool5 <- conv5
I0403 13:05:09.463340 31372 net.cpp:399] pool5 -> pool5
I0403 13:05:09.463405 31372 net.cpp:141] Setting up pool5
I0403 13:05:09.463429 31372 net.cpp:148] Top shape: 100 256 6 6 (921600)
I0403 13:05:09.463445 31372 net.cpp:156] Memory required for data: 821695600
I0403 13:05:09.463460 31372 layer_factory.hpp:77] Creating layer fc6
I0403 13:05:09.463490 31372 net.cpp:91] Creating Layer fc6
I0403 13:05:09.463510 31372 net.cpp:425] fc6 <- pool5
I0403 13:05:09.463531 31372 net.cpp:399] fc6 -> fc6
I0403 13:05:11.053073 31372 net.cpp:141] Setting up fc6
I0403 13:05:11.053163 31372 net.cpp:148] Top shape: 100 4096 (409600)
I0403 13:05:11.053179 31372 net.cpp:156] Memory required for data: 823334000
I0403 13:05:11.053202 31372 layer_factory.hpp:77] Creating layer relu6
I0403 13:05:11.053228 31372 net.cpp:91] Creating Layer relu6
I0403 13:05:11.053252 31372 net.cpp:425] relu6 <- fc6
I0403 13:05:11.053274 31372 net.cpp:386] relu6 -> fc6 (in-place)
I0403 13:05:11.053514 31372 net.cpp:141] Setting up relu6
I0403 13:05:11.053542 31372 net.cpp:148] Top shape: 100 4096 (409600)
I0403 13:05:11.053560 31372 net.cpp:156] Memory required for data: 824972400
I0403 13:05:11.053575 31372 layer_factory.hpp:77] Creating layer drop6
I0403 13:05:11.053596 31372 net.cpp:91] Creating Layer drop6
I0403 13:05:11.053612 31372 net.cpp:425] drop6 <- fc6
I0403 13:05:11.053630 31372 net.cpp:386] drop6 -> fc6 (in-place)
I0403 13:05:11.053685 31372 net.cpp:141] Setting up drop6
I0403 13:05:11.053709 31372 net.cpp:148] Top shape: 100 4096 (409600)
I0403 13:05:11.053725 31372 net.cpp:156] Memory required for data: 826610800
I0403 13:05:11.053740 31372 layer_factory.hpp:77] Creating layer fc7
I0403 13:05:11.053762 31372 net.cpp:91] Creating Layer fc7
I0403 13:05:11.053781 31372 net.cpp:425] fc7 <- fc6
I0403 13:05:11.053798 31372 net.cpp:399] fc7 -> fc7
I0403 13:05:11.772801 31372 net.cpp:141] Setting up fc7
I0403 13:05:11.772891 31372 net.cpp:148] Top shape: 100 4096 (409600)
I0403 13:05:11.772908 31372 net.cpp:156] Memory required for data: 828249200
I0403 13:05:11.772929 31372 layer_factory.hpp:77] Creating layer relu7
I0403 13:05:11.772953 31372 net.cpp:91] Creating Layer relu7
I0403 13:05:11.772972 31372 net.cpp:425] relu7 <- fc7
I0403 13:05:11.772991 31372 net.cpp:386] relu7 -> fc7 (in-place)
I0403 13:05:11.773427 31372 net.cpp:141] Setting up relu7
I0403 13:05:11.773457 31372 net.cpp:148] Top shape: 100 4096 (409600)
I0403 13:05:11.773509 31372 net.cpp:156] Memory required for data: 829887600
I0403 13:05:11.773524 31372 layer_factory.hpp:77] Creating layer drop7
I0403 13:05:11.773543 31372 net.cpp:91] Creating Layer drop7
I0403 13:05:11.773560 31372 net.cpp:425] drop7 <- fc7
I0403 13:05:11.773576 31372 net.cpp:386] drop7 -> fc7 (in-place)
I0403 13:05:11.773622 31372 net.cpp:141] Setting up drop7
I0403 13:05:11.773645 31372 net.cpp:148] Top shape: 100 4096 (409600)
I0403 13:05:11.773660 31372 net.cpp:156] Memory required for data: 831526000
I0403 13:05:11.773674 31372 layer_factory.hpp:77] Creating layer fc8_plantvillage
I0403 13:05:11.773697 31372 net.cpp:91] Creating Layer fc8_plantvillage
I0403 13:05:11.773715 31372 net.cpp:425] fc8_plantvillage <- fc7
I0403 13:05:11.773732 31372 net.cpp:399] fc8_plantvillage -> fc8_plantvillage
I0403 13:05:11.780659 31372 net.cpp:141] Setting up fc8_plantvillage
I0403 13:05:11.780689 31372 net.cpp:148] Top shape: 100 38 (3800)
I0403 13:05:11.780704 31372 net.cpp:156] Memory required for data: 831541200
I0403 13:05:11.780722 31372 layer_factory.hpp:77] Creating layer fc8_plantvillage_fc8_plantvillage_0_split
I0403 13:05:11.780741 31372 net.cpp:91] Creating Layer fc8_plantvillage_fc8_plantvillage_0_split
I0403 13:05:11.780757 31372 net.cpp:425] fc8_plantvillage_fc8_plantvillage_0_split <- fc8_plantvillage
I0403 13:05:11.780776 31372 net.cpp:399] fc8_plantvillage_fc8_plantvillage_0_split -> fc8_plantvillage_fc8_plantvillage_0_split_0
I0403 13:05:11.780797 31372 net.cpp:399] fc8_plantvillage_fc8_plantvillage_0_split -> fc8_plantvillage_fc8_plantvillage_0_split_1
I0403 13:05:11.780818 31372 net.cpp:399] fc8_plantvillage_fc8_plantvillage_0_split -> fc8_plantvillage_fc8_plantvillage_0_split_2
I0403 13:05:11.780897 31372 net.cpp:141] Setting up fc8_plantvillage_fc8_plantvillage_0_split
I0403 13:05:11.780921 31372 net.cpp:148] Top shape: 100 38 (3800)
I0403 13:05:11.780938 31372 net.cpp:148] Top shape: 100 38 (3800)
I0403 13:05:11.780953 31372 net.cpp:148] Top shape: 100 38 (3800)
I0403 13:05:11.780966 31372 net.cpp:156] Memory required for data: 831586800
I0403 13:05:11.780982 31372 layer_factory.hpp:77] Creating layer prob
I0403 13:05:11.780999 31372 net.cpp:91] Creating Layer prob
I0403 13:05:11.781015 31372 net.cpp:425] prob <- fc8_plantvillage_fc8_plantvillage_0_split_0
I0403 13:05:11.781034 31372 net.cpp:399] prob -> prob
I0403 13:05:11.781271 31372 net.cpp:141] Setting up prob
I0403 13:05:11.781297 31372 net.cpp:148] Top shape: 100 38 (3800)
I0403 13:05:11.781312 31372 net.cpp:156] Memory required for data: 831602000
I0403 13:05:11.781327 31372 layer_factory.hpp:77] Creating layer hdf5out
I0403 13:05:11.781349 31372 net.cpp:91] Creating Layer hdf5out
I0403 13:05:11.781366 31372 net.cpp:425] hdf5out <- prob
I0403 13:05:11.781383 31372 net.cpp:425] hdf5out <- label_data_1_split_0
I0403 13:05:11.789609 31372 net.cpp:141] Setting up hdf5out
…
