…
I0403 13:10:05.583379 31626 net.cpp:313] The NetState phase (1) differed from the phase (0) specified by a rule in layer data
I0403 13:10:05.583696 31626 net.cpp:49] Initializing net from parameters: 
state {
  phase: TEST
}
layer {
  name: "data"
  type: "Data"
  top: "data"
  top: "label"
  include {
    phase: TEST
  }
  transform_param {
    crop_size: 227
    mean_file: "/home/mohanty/data/final_dataset/lmdb/segmented-60-40/mean.binaryproto"
  }
  data_param {
    source: "/home/mohanty/data/final_dataset/lmdb/segmented-60-40/test_db"
    batch_size: 100
    backend: LMDB
  }
}
layer {
  name: "conv1"
  type: "Convolution"
  bottom: "data"
  top: "conv1"
  param {
    lr_mult: 1
    decay_mult: 1
  }
  param {
    lr_mult: 2
    decay_mult: 0
  }
  convolution_param {
    num_output: 96
    kernel_size: 11
    stride: 4
    weight_filler {
      type: "gaussian"
      std: 0.01
    }
    bias_filler {
      type: "constant"
      value: 0
    }
  }
}
layer {
  name: "relu1"
  type: "ReLU"
  bottom: "conv1"
  top: "conv1"
}
layer {
  name: "norm1"
  type: "LRN"
  bottom: "conv1"
  top: "norm1"
  lrn_param {
    local_size: 5
    alpha: 0.0001
    beta: 0.75
  }
}
layer {
  name: "pool1"
  type: "Pooling"
  bottom: "norm1"
  top: "pool1"
  pooling_param {
    pool: MAX
    kernel_size: 3
    stride: 2
  }
}
layer {
  name: "conv2"
  type: "Convolution"
  bottom: "pool1"
  top: "conv2"
  param {
    lr_mult: 1
    decay_mult: 1
  }
  param {
    lr_mult: 2
    decay_mult: 0
  }
  convolution_param {
    num_output: 256
    pad: 2
    kernel_size: 5
    group: 2
    weight_filler {
      type: "gaussian"
      std: 0.01
    }
    bias_filler {
      type: "constant"
      value: 0.1
    }
  }
}
layer {
  name: "relu2"
  type: "ReLU"
  bottom: "conv2"
  top: "conv2"
}
layer {
  name: "norm2"
  type: "LRN"
  bottom: "conv2"
  top: "norm2"
  lrn_param {
    local_size: 5
    alpha: 0.0001
    beta: 0.75
  }
}
layer {
  name: "pool2"
  type: "Pooling"
  bottom: "norm2"
  top: "pool2"
  pooling_param {
    pool: MAX
    kernel_size: 3
    stride: 2
  }
}
layer {
  name: "conv3"
  type: "Convolution"
  bottom: "pool2"
  top: "conv3"
  param {
    lr_mult: 1
    decay_mult: 1
  }
  param {
    lr_mult: 2
    decay_mult: 0
  }
  convolution_param {
    num_output: 384
    pad: 1
    kernel_size: 3
    weight_filler {
      type: "gaussian"
      std: 0.01
    }
    bias_filler {
      type: "constant"
      value: 0
    }
  }
}
layer {
  name: "relu3"
  type: "ReLU"
  bottom: "conv3"
  top: "conv3"
}
layer {
  name: "conv4"
  type: "Convolution"
  bottom: "conv3"
  top: "conv4"
  param {
    lr_mult: 1
    decay_mult: 1
  }
  param {
    lr_mult: 2
    decay_mult: 0
  }
  convolution_param {
    num_output: 384
    pad: 1
    kernel_size: 3
    group: 2
    weight_filler {
      type: "gaussian"
      std: 0.01
    }
    bias_filler {
      type: "constant"
      value: 0.1
    }
  }
}
layer {
  name: "relu4"
  type: "ReLU"
  bottom: "conv4"
  top: "conv4"
}
layer {
  name: "conv5"
  type: "Convolution"
  bottom: "conv4"
  top: "conv5"
  param {
    lr_mult: 1
    decay_mult: 1
  }
  param {
    lr_mult: 2
    decay_mult: 0
  }
  convolution_param {
    num_output: 256
    pad: 1
    kernel_size: 3
    group: 2
    weight_filler {
      type: "gaussian"
      std: 0.01
    }
    bias_filler {
      type: "constant"
      value: 0.1
    }
  }
}
layer {
  name: "relu5"
  type: "ReLU"
  bottom: "conv5"
  top: "conv5"
}
layer {
  name: "pool5"
  type: "Pooling"
  bottom: "conv5"
  top: "pool5"
  pooling_param {
    pool: MAX
    kernel_size: 3
    stride: 2
  }
}
layer {
  name: "fc6"
  type: "InnerProduct"
  bottom: "pool5"
  top: "fc6"
  param {
    lr_mult: 1
    decay_mult: 1
  }
  param {
    lr_mult: 2
    decay_mult: 0
  }
  inner_product_param {
    num_output: 4096
    weight_filler {
      type: "gaussian"
      std: 0.005
    }
    bias_filler {
      type: "constant"
      value: 0.1
    }
  }
}
layer {
  name: "relu6"
  type: "ReLU"
  bottom: "fc6"
  top: "fc6"
}
layer {
  name: "drop6"
  type: "Dropout"
  bottom: "fc6"
  top: "fc6"
  dropout_param {
    dropout_ratio: 0.5
  }
}
layer {
  name: "fc7"
  type: "InnerProduct"
  bottom: "fc6"
  top: "fc7"
  param {
    lr_mult: 1
    decay_mult: 1
  }
  param {
    lr_mult: 2
    decay_mult: 0
  }
  inner_product_param {
    num_output: 4096
    weight_filler {
      type: "gaussian"
      std: 0.005
    }
    bias_filler {
      type: "constant"
      value: 0.1
    }
  }
}
layer {
  name: "relu7"
  type: "ReLU"
  bottom: "fc7"
  top: "fc7"
}
layer {
  name: "drop7"
  type: "Dropout"
  bottom: "fc7"
  top: "fc7"
  dropout_param {
    dropout_ratio: 0.5
  }
}
layer {
  name: "fc8_plantvillage"
  type: "InnerProduct"
  bottom: "fc7"
  top: "fc8_plantvillage"
  param {
    lr_mult: 1
    decay_mult: 1
  }
  param {
    lr_mult: 2
    decay_mult: 0
  }
  inner_product_param {
    num_output: 38
    weight_filler {
      type: "gaussian"
      std: 0.01
    }
    bias_filler {
      type: "constant"
      value: 0
    }
  }
}
layer {
  name: "prob"
  type: "Softmax"
  bottom: "fc8_plantvillage"
  top: "prob"
  include {
    phase: TEST
  }
}
layer {
  name: "hdf5out"
  type: "HDF5Output"
  bottom: "prob"
  bottom: "label"
  include {
    phase: TEST
  }
  hdf5_output_param {
    file_name: "hdf5_dumps/iter_2600.h5"
  }
}
layer {
  name: "loss"
  type: "SoftmaxWithLoss"
  bottom: "fc8_plantvillage"
  bottom: "label"
  top: "loss"
}
layer {
  name: "accuracy"
  type: "Accuracy"
  bottom: "fc8_plantvillage"
  bottom: "label"
  top: "accuracy"
  include {
    phase: TEST
  }
}
I0403 13:10:05.584506 31626 layer_factory.hpp:77] Creating layer data
I0403 13:10:05.585527 31626 net.cpp:91] Creating Layer data
I0403 13:10:05.585611 31626 net.cpp:399] data -> data
I0403 13:10:05.585683 31626 net.cpp:399] data -> label
I0403 13:10:05.585744 31626 data_transformer.cpp:25] Loading mean file from: /home/mohanty/data/final_dataset/lmdb/segmented-60-40/mean.binaryproto
I0403 13:10:05.600989 31630 db_lmdb.cpp:38] Opened lmdb /home/mohanty/data/final_dataset/lmdb/segmented-60-40/test_db
I0403 13:10:05.603955 31626 data_layer.cpp:41] output data size: 100,3,227,227
I0403 13:10:05.729725 31626 net.cpp:141] Setting up data
I0403 13:10:05.729812 31626 net.cpp:148] Top shape: 100 3 227 227 (15458700)
I0403 13:10:05.729835 31626 net.cpp:148] Top shape: 100 (100)
I0403 13:10:05.729851 31626 net.cpp:156] Memory required for data: 61835200
I0403 13:10:05.729881 31626 layer_factory.hpp:77] Creating layer label_data_1_split
I0403 13:10:05.729907 31626 net.cpp:91] Creating Layer label_data_1_split
I0403 13:10:05.729924 31626 net.cpp:425] label_data_1_split <- label
I0403 13:10:05.729956 31626 net.cpp:399] label_data_1_split -> label_data_1_split_0
I0403 13:10:05.729984 31626 net.cpp:399] label_data_1_split -> label_data_1_split_1
I0403 13:10:05.730005 31626 net.cpp:399] label_data_1_split -> label_data_1_split_2
I0403 13:10:05.730070 31626 net.cpp:141] Setting up label_data_1_split
I0403 13:10:05.730094 31626 net.cpp:148] Top shape: 100 (100)
I0403 13:10:05.730111 31626 net.cpp:148] Top shape: 100 (100)
I0403 13:10:05.730128 31626 net.cpp:148] Top shape: 100 (100)
I0403 13:10:05.730141 31626 net.cpp:156] Memory required for data: 61836400
I0403 13:10:05.730156 31626 layer_factory.hpp:77] Creating layer conv1
I0403 13:10:05.730188 31626 net.cpp:91] Creating Layer conv1
I0403 13:10:05.730206 31626 net.cpp:425] conv1 <- data
I0403 13:10:05.730227 31626 net.cpp:399] conv1 -> conv1
I0403 13:10:05.874157 31626 net.cpp:141] Setting up conv1
I0403 13:10:05.874204 31626 net.cpp:148] Top shape: 100 96 55 55 (29040000)
I0403 13:10:05.874223 31626 net.cpp:156] Memory required for data: 177996400
I0403 13:10:05.874260 31626 layer_factory.hpp:77] Creating layer relu1
I0403 13:10:05.874290 31626 net.cpp:91] Creating Layer relu1
I0403 13:10:05.874310 31626 net.cpp:425] relu1 <- conv1
I0403 13:10:05.874330 31626 net.cpp:386] relu1 -> conv1 (in-place)
I0403 13:10:05.874599 31626 net.cpp:141] Setting up relu1
I0403 13:10:05.874627 31626 net.cpp:148] Top shape: 100 96 55 55 (29040000)
I0403 13:10:05.874675 31626 net.cpp:156] Memory required for data: 294156400
I0403 13:10:05.874691 31626 layer_factory.hpp:77] Creating layer norm1
I0403 13:10:05.874718 31626 net.cpp:91] Creating Layer norm1
I0403 13:10:05.874737 31626 net.cpp:425] norm1 <- conv1
I0403 13:10:05.874754 31626 net.cpp:399] norm1 -> norm1
I0403 13:10:05.875061 31626 net.cpp:141] Setting up norm1
I0403 13:10:05.875089 31626 net.cpp:148] Top shape: 100 96 55 55 (29040000)
I0403 13:10:05.875105 31626 net.cpp:156] Memory required for data: 410316400
I0403 13:10:05.875121 31626 layer_factory.hpp:77] Creating layer pool1
I0403 13:10:05.875144 31626 net.cpp:91] Creating Layer pool1
I0403 13:10:05.875162 31626 net.cpp:425] pool1 <- norm1
I0403 13:10:05.875180 31626 net.cpp:399] pool1 -> pool1
I0403 13:10:05.875252 31626 net.cpp:141] Setting up pool1
I0403 13:10:05.875277 31626 net.cpp:148] Top shape: 100 96 27 27 (6998400)
I0403 13:10:05.875293 31626 net.cpp:156] Memory required for data: 438310000
I0403 13:10:05.875306 31626 layer_factory.hpp:77] Creating layer conv2
I0403 13:10:05.875331 31626 net.cpp:91] Creating Layer conv2
I0403 13:10:05.875347 31626 net.cpp:425] conv2 <- pool1
I0403 13:10:05.875366 31626 net.cpp:399] conv2 -> conv2
I0403 13:10:05.890270 31626 net.cpp:141] Setting up conv2
I0403 13:10:05.890326 31626 net.cpp:148] Top shape: 100 256 27 27 (18662400)
I0403 13:10:05.890346 31626 net.cpp:156] Memory required for data: 512959600
I0403 13:10:05.890370 31626 layer_factory.hpp:77] Creating layer relu2
I0403 13:10:05.890396 31626 net.cpp:91] Creating Layer relu2
I0403 13:10:05.890413 31626 net.cpp:425] relu2 <- conv2
I0403 13:10:05.890430 31626 net.cpp:386] relu2 -> conv2 (in-place)
I0403 13:10:05.890699 31626 net.cpp:141] Setting up relu2
I0403 13:10:05.890727 31626 net.cpp:148] Top shape: 100 256 27 27 (18662400)
I0403 13:10:05.890743 31626 net.cpp:156] Memory required for data: 587609200
I0403 13:10:05.890758 31626 layer_factory.hpp:77] Creating layer norm2
I0403 13:10:05.890780 31626 net.cpp:91] Creating Layer norm2
I0403 13:10:05.890796 31626 net.cpp:425] norm2 <- conv2
I0403 13:10:05.890816 31626 net.cpp:399] norm2 -> norm2
I0403 13:10:05.891001 31626 net.cpp:141] Setting up norm2
I0403 13:10:05.891027 31626 net.cpp:148] Top shape: 100 256 27 27 (18662400)
I0403 13:10:05.891042 31626 net.cpp:156] Memory required for data: 662258800
I0403 13:10:05.891057 31626 layer_factory.hpp:77] Creating layer pool2
I0403 13:10:05.891077 31626 net.cpp:91] Creating Layer pool2
I0403 13:10:05.891091 31626 net.cpp:425] pool2 <- norm2
I0403 13:10:05.891109 31626 net.cpp:399] pool2 -> pool2
I0403 13:10:05.891160 31626 net.cpp:141] Setting up pool2
I0403 13:10:05.891182 31626 net.cpp:148] Top shape: 100 256 13 13 (4326400)
I0403 13:10:05.891197 31626 net.cpp:156] Memory required for data: 679564400
I0403 13:10:05.891211 31626 layer_factory.hpp:77] Creating layer conv3
I0403 13:10:05.891233 31626 net.cpp:91] Creating Layer conv3
I0403 13:10:05.891254 31626 net.cpp:425] conv3 <- pool2
I0403 13:10:05.891274 31626 net.cpp:399] conv3 -> conv3
I0403 13:10:05.930281 31626 net.cpp:141] Setting up conv3
I0403 13:10:05.930352 31626 net.cpp:148] Top shape: 100 384 13 13 (6489600)
I0403 13:10:05.930371 31626 net.cpp:156] Memory required for data: 705522800
I0403 13:10:05.930405 31626 layer_factory.hpp:77] Creating layer relu3
I0403 13:10:05.930429 31626 net.cpp:91] Creating Layer relu3
I0403 13:10:05.930447 31626 net.cpp:425] relu3 <- conv3
I0403 13:10:05.930485 31626 net.cpp:386] relu3 -> conv3 (in-place)
I0403 13:10:05.930788 31626 net.cpp:141] Setting up relu3
I0403 13:10:05.930817 31626 net.cpp:148] Top shape: 100 384 13 13 (6489600)
I0403 13:10:05.930835 31626 net.cpp:156] Memory required for data: 731481200
I0403 13:10:05.930851 31626 layer_factory.hpp:77] Creating layer conv4
I0403 13:10:05.930881 31626 net.cpp:91] Creating Layer conv4
I0403 13:10:05.930899 31626 net.cpp:425] conv4 <- conv3
I0403 13:10:05.930919 31626 net.cpp:399] conv4 -> conv4
I0403 13:10:05.961428 31626 net.cpp:141] Setting up conv4
I0403 13:10:05.961491 31626 net.cpp:148] Top shape: 100 384 13 13 (6489600)
I0403 13:10:05.961529 31626 net.cpp:156] Memory required for data: 757439600
I0403 13:10:05.961551 31626 layer_factory.hpp:77] Creating layer relu4
I0403 13:10:05.961576 31626 net.cpp:91] Creating Layer relu4
I0403 13:10:05.961596 31626 net.cpp:425] relu4 <- conv4
I0403 13:10:05.961614 31626 net.cpp:386] relu4 -> conv4 (in-place)
I0403 13:10:05.961897 31626 net.cpp:141] Setting up relu4
I0403 13:10:05.961925 31626 net.cpp:148] Top shape: 100 384 13 13 (6489600)
I0403 13:10:05.961941 31626 net.cpp:156] Memory required for data: 783398000
I0403 13:10:05.961956 31626 layer_factory.hpp:77] Creating layer conv5
I0403 13:10:05.961980 31626 net.cpp:91] Creating Layer conv5
I0403 13:10:05.961998 31626 net.cpp:425] conv5 <- conv4
I0403 13:10:05.962020 31626 net.cpp:399] conv5 -> conv5
I0403 13:10:05.982694 31626 net.cpp:141] Setting up conv5
I0403 13:10:05.982743 31626 net.cpp:148] Top shape: 100 256 13 13 (4326400)
I0403 13:10:05.982759 31626 net.cpp:156] Memory required for data: 800703600
I0403 13:10:05.982784 31626 layer_factory.hpp:77] Creating layer relu5
I0403 13:10:05.982807 31626 net.cpp:91] Creating Layer relu5
I0403 13:10:05.982825 31626 net.cpp:425] relu5 <- conv5
I0403 13:10:05.982844 31626 net.cpp:386] relu5 -> conv5 (in-place)
I0403 13:10:05.983124 31626 net.cpp:141] Setting up relu5
I0403 13:10:05.983155 31626 net.cpp:148] Top shape: 100 256 13 13 (4326400)
I0403 13:10:05.983170 31626 net.cpp:156] Memory required for data: 818009200
I0403 13:10:05.983186 31626 layer_factory.hpp:77] Creating layer pool5
I0403 13:10:05.983208 31626 net.cpp:91] Creating Layer pool5
I0403 13:10:05.983225 31626 net.cpp:425] pool5 <- conv5
I0403 13:10:05.983253 31626 net.cpp:399] pool5 -> pool5
I0403 13:10:05.983315 31626 net.cpp:141] Setting up pool5
I0403 13:10:05.983340 31626 net.cpp:148] Top shape: 100 256 6 6 (921600)
I0403 13:10:05.983356 31626 net.cpp:156] Memory required for data: 821695600
I0403 13:10:05.983371 31626 layer_factory.hpp:77] Creating layer fc6
I0403 13:10:05.983398 31626 net.cpp:91] Creating Layer fc6
I0403 13:10:05.983418 31626 net.cpp:425] fc6 <- pool5
I0403 13:10:05.983461 31626 net.cpp:399] fc6 -> fc6
I0403 13:10:07.605504 31626 net.cpp:141] Setting up fc6
I0403 13:10:07.605545 31626 net.cpp:148] Top shape: 100 4096 (409600)
I0403 13:10:07.605562 31626 net.cpp:156] Memory required for data: 823334000
I0403 13:10:07.605583 31626 layer_factory.hpp:77] Creating layer relu6
I0403 13:10:07.605607 31626 net.cpp:91] Creating Layer relu6
I0403 13:10:07.605625 31626 net.cpp:425] relu6 <- fc6
I0403 13:10:07.605644 31626 net.cpp:386] relu6 -> fc6 (in-place)
I0403 13:10:07.605861 31626 net.cpp:141] Setting up relu6
I0403 13:10:07.605886 31626 net.cpp:148] Top shape: 100 4096 (409600)
I0403 13:10:07.605901 31626 net.cpp:156] Memory required for data: 824972400
I0403 13:10:07.605916 31626 layer_factory.hpp:77] Creating layer drop6
I0403 13:10:07.605937 31626 net.cpp:91] Creating Layer drop6
I0403 13:10:07.605952 31626 net.cpp:425] drop6 <- fc6
I0403 13:10:07.605968 31626 net.cpp:386] drop6 -> fc6 (in-place)
I0403 13:10:07.606022 31626 net.cpp:141] Setting up drop6
I0403 13:10:07.606045 31626 net.cpp:148] Top shape: 100 4096 (409600)
I0403 13:10:07.606058 31626 net.cpp:156] Memory required for data: 826610800
I0403 13:10:07.606073 31626 layer_factory.hpp:77] Creating layer fc7
I0403 13:10:07.606097 31626 net.cpp:91] Creating Layer fc7
I0403 13:10:07.606114 31626 net.cpp:425] fc7 <- fc6
I0403 13:10:07.606132 31626 net.cpp:399] fc7 -> fc7
I0403 13:10:08.317476 31626 net.cpp:141] Setting up fc7
I0403 13:10:08.317546 31626 net.cpp:148] Top shape: 100 4096 (409600)
I0403 13:10:08.317564 31626 net.cpp:156] Memory required for data: 828249200
I0403 13:10:08.317584 31626 layer_factory.hpp:77] Creating layer relu7
I0403 13:10:08.317606 31626 net.cpp:91] Creating Layer relu7
I0403 13:10:08.317623 31626 net.cpp:425] relu7 <- fc7
I0403 13:10:08.317643 31626 net.cpp:386] relu7 -> fc7 (in-place)
I0403 13:10:08.318066 31626 net.cpp:141] Setting up relu7
I0403 13:10:08.318094 31626 net.cpp:148] Top shape: 100 4096 (409600)
I0403 13:10:08.318138 31626 net.cpp:156] Memory required for data: 829887600
I0403 13:10:08.318155 31626 layer_factory.hpp:77] Creating layer drop7
I0403 13:10:08.318173 31626 net.cpp:91] Creating Layer drop7
I0403 13:10:08.318189 31626 net.cpp:425] drop7 <- fc7
I0403 13:10:08.318207 31626 net.cpp:386] drop7 -> fc7 (in-place)
I0403 13:10:08.318258 31626 net.cpp:141] Setting up drop7
I0403 13:10:08.318279 31626 net.cpp:148] Top shape: 100 4096 (409600)
I0403 13:10:08.318294 31626 net.cpp:156] Memory required for data: 831526000
I0403 13:10:08.318307 31626 layer_factory.hpp:77] Creating layer fc8_plantvillage
I0403 13:10:08.318330 31626 net.cpp:91] Creating Layer fc8_plantvillage
I0403 13:10:08.318346 31626 net.cpp:425] fc8_plantvillage <- fc7
I0403 13:10:08.318362 31626 net.cpp:399] fc8_plantvillage -> fc8_plantvillage
I0403 13:10:08.325146 31626 net.cpp:141] Setting up fc8_plantvillage
I0403 13:10:08.325175 31626 net.cpp:148] Top shape: 100 38 (3800)
I0403 13:10:08.325189 31626 net.cpp:156] Memory required for data: 831541200
I0403 13:10:08.325208 31626 layer_factory.hpp:77] Creating layer fc8_plantvillage_fc8_plantvillage_0_split
I0403 13:10:08.325233 31626 net.cpp:91] Creating Layer fc8_plantvillage_fc8_plantvillage_0_split
I0403 13:10:08.325263 31626 net.cpp:425] fc8_plantvillage_fc8_plantvillage_0_split <- fc8_plantvillage
I0403 13:10:08.325286 31626 net.cpp:399] fc8_plantvillage_fc8_plantvillage_0_split -> fc8_plantvillage_fc8_plantvillage_0_split_0
I0403 13:10:08.325310 31626 net.cpp:399] fc8_plantvillage_fc8_plantvillage_0_split -> fc8_plantvillage_fc8_plantvillage_0_split_1
I0403 13:10:08.325330 31626 net.cpp:399] fc8_plantvillage_fc8_plantvillage_0_split -> fc8_plantvillage_fc8_plantvillage_0_split_2
I0403 13:10:08.325405 31626 net.cpp:141] Setting up fc8_plantvillage_fc8_plantvillage_0_split
I0403 13:10:08.325428 31626 net.cpp:148] Top shape: 100 38 (3800)
I0403 13:10:08.325443 31626 net.cpp:148] Top shape: 100 38 (3800)
I0403 13:10:08.325459 31626 net.cpp:148] Top shape: 100 38 (3800)
I0403 13:10:08.325472 31626 net.cpp:156] Memory required for data: 831586800
I0403 13:10:08.325486 31626 layer_factory.hpp:77] Creating layer prob
I0403 13:10:08.325506 31626 net.cpp:91] Creating Layer prob
I0403 13:10:08.325522 31626 net.cpp:425] prob <- fc8_plantvillage_fc8_plantvillage_0_split_0
I0403 13:10:08.325541 31626 net.cpp:399] prob -> prob
I0403 13:10:08.325767 31626 net.cpp:141] Setting up prob
I0403 13:10:08.325791 31626 net.cpp:148] Top shape: 100 38 (3800)
I0403 13:10:08.325809 31626 net.cpp:156] Memory required for data: 831602000
I0403 13:10:08.325824 31626 layer_factory.hpp:77] Creating layer hdf5out
I0403 13:10:08.325842 31626 net.cpp:91] Creating Layer hdf5out
I0403 13:10:08.325857 31626 net.cpp:425] hdf5out <- prob
I0403 13:10:08.325873 31626 net.cpp:425] hdf5out <- label_data_1_split_0
I0403 13:10:08.328121 31626 net.cpp:141] Setting up hdf5out
…
