…
I0403 13:08:00.094719 31437 net.cpp:313] The NetState phase (1) differed from the phase (0) specified by a rule in layer data
I0403 13:08:00.095019 31437 net.cpp:49] Initializing net from parameters: 
state {
  phase: TEST
}
layer {
  name: "data"
  type: "Data"
  top: "data"
  top: "label"
  include {
    phase: TEST
  }
  transform_param {
    crop_size: 227
    mean_file: "/home/mohanty/data/final_dataset/lmdb/segmented-60-40/mean.binaryproto"
  }
  data_param {
    source: "/home/mohanty/data/final_dataset/lmdb/segmented-60-40/test_db"
    batch_size: 100
    backend: LMDB
  }
}
layer {
  name: "conv1"
  type: "Convolution"
  bottom: "data"
  top: "conv1"
  param {
    lr_mult: 1
    decay_mult: 1
  }
  param {
    lr_mult: 2
    decay_mult: 0
  }
  convolution_param {
    num_output: 96
    kernel_size: 11
    stride: 4
    weight_filler {
      type: "gaussian"
      std: 0.01
    }
    bias_filler {
      type: "constant"
      value: 0
    }
  }
}
layer {
  name: "relu1"
  type: "ReLU"
  bottom: "conv1"
  top: "conv1"
}
layer {
  name: "norm1"
  type: "LRN"
  bottom: "conv1"
  top: "norm1"
  lrn_param {
    local_size: 5
    alpha: 0.0001
    beta: 0.75
  }
}
layer {
  name: "pool1"
  type: "Pooling"
  bottom: "norm1"
  top: "pool1"
  pooling_param {
    pool: MAX
    kernel_size: 3
    stride: 2
  }
}
layer {
  name: "conv2"
  type: "Convolution"
  bottom: "pool1"
  top: "conv2"
  param {
    lr_mult: 1
    decay_mult: 1
  }
  param {
    lr_mult: 2
    decay_mult: 0
  }
  convolution_param {
    num_output: 256
    pad: 2
    kernel_size: 5
    group: 2
    weight_filler {
      type: "gaussian"
      std: 0.01
    }
    bias_filler {
      type: "constant"
      value: 0.1
    }
  }
}
layer {
  name: "relu2"
  type: "ReLU"
  bottom: "conv2"
  top: "conv2"
}
layer {
  name: "norm2"
  type: "LRN"
  bottom: "conv2"
  top: "norm2"
  lrn_param {
    local_size: 5
    alpha: 0.0001
    beta: 0.75
  }
}
layer {
  name: "pool2"
  type: "Pooling"
  bottom: "norm2"
  top: "pool2"
  pooling_param {
    pool: MAX
    kernel_size: 3
    stride: 2
  }
}
layer {
  name: "conv3"
  type: "Convolution"
  bottom: "pool2"
  top: "conv3"
  param {
    lr_mult: 1
    decay_mult: 1
  }
  param {
    lr_mult: 2
    decay_mult: 0
  }
  convolution_param {
    num_output: 384
    pad: 1
    kernel_size: 3
    weight_filler {
      type: "gaussian"
      std: 0.01
    }
    bias_filler {
      type: "constant"
      value: 0
    }
  }
}
layer {
  name: "relu3"
  type: "ReLU"
  bottom: "conv3"
  top: "conv3"
}
layer {
  name: "conv4"
  type: "Convolution"
  bottom: "conv3"
  top: "conv4"
  param {
    lr_mult: 1
    decay_mult: 1
  }
  param {
    lr_mult: 2
    decay_mult: 0
  }
  convolution_param {
    num_output: 384
    pad: 1
    kernel_size: 3
    group: 2
    weight_filler {
      type: "gaussian"
      std: 0.01
    }
    bias_filler {
      type: "constant"
      value: 0.1
    }
  }
}
layer {
  name: "relu4"
  type: "ReLU"
  bottom: "conv4"
  top: "conv4"
}
layer {
  name: "conv5"
  type: "Convolution"
  bottom: "conv4"
  top: "conv5"
  param {
    lr_mult: 1
    decay_mult: 1
  }
  param {
    lr_mult: 2
    decay_mult: 0
  }
  convolution_param {
    num_output: 256
    pad: 1
    kernel_size: 3
    group: 2
    weight_filler {
      type: "gaussian"
      std: 0.01
    }
    bias_filler {
      type: "constant"
      value: 0.1
    }
  }
}
layer {
  name: "relu5"
  type: "ReLU"
  bottom: "conv5"
  top: "conv5"
}
layer {
  name: "pool5"
  type: "Pooling"
  bottom: "conv5"
  top: "pool5"
  pooling_param {
    pool: MAX
    kernel_size: 3
    stride: 2
  }
}
layer {
  name: "fc6"
  type: "InnerProduct"
  bottom: "pool5"
  top: "fc6"
  param {
    lr_mult: 1
    decay_mult: 1
  }
  param {
    lr_mult: 2
    decay_mult: 0
  }
  inner_product_param {
    num_output: 4096
    weight_filler {
      type: "gaussian"
      std: 0.005
    }
    bias_filler {
      type: "constant"
      value: 0.1
    }
  }
}
layer {
  name: "relu6"
  type: "ReLU"
  bottom: "fc6"
  top: "fc6"
}
layer {
  name: "drop6"
  type: "Dropout"
  bottom: "fc6"
  top: "fc6"
  dropout_param {
    dropout_ratio: 0.5
  }
}
layer {
  name: "fc7"
  type: "InnerProduct"
  bottom: "fc6"
  top: "fc7"
  param {
    lr_mult: 1
    decay_mult: 1
  }
  param {
    lr_mult: 2
    decay_mult: 0
  }
  inner_product_param {
    num_output: 4096
    weight_filler {
      type: "gaussian"
      std: 0.005
    }
    bias_filler {
      type: "constant"
      value: 0.1
    }
  }
}
layer {
  name: "relu7"
  type: "ReLU"
  bottom: "fc7"
  top: "fc7"
}
layer {
  name: "drop7"
  type: "Dropout"
  bottom: "fc7"
  top: "fc7"
  dropout_param {
    dropout_ratio: 0.5
  }
}
layer {
  name: "fc8_plantvillage"
  type: "InnerProduct"
  bottom: "fc7"
  top: "fc8_plantvillage"
  param {
    lr_mult: 1
    decay_mult: 1
  }
  param {
    lr_mult: 2
    decay_mult: 0
  }
  inner_product_param {
    num_output: 38
    weight_filler {
      type: "gaussian"
      std: 0.01
    }
    bias_filler {
      type: "constant"
      value: 0
    }
  }
}
layer {
  name: "prob"
  type: "Softmax"
  bottom: "fc8_plantvillage"
  top: "prob"
  include {
    phase: TEST
  }
}
layer {
  name: "hdf5out"
  type: "HDF5Output"
  bottom: "prob"
  bottom: "label"
  include {
    phase: TEST
  }
  hdf5_output_param {
    file_name: "hdf5_dumps/iter_1625.h5"
  }
}
layer {
  name: "loss"
  type: "SoftmaxWithLoss"
  bottom: "fc8_plantvillage"
  bottom: "label"
  top: "loss"
}
layer {
  name: "accuracy"
  type: "Accuracy"
  bottom: "fc8_plantvillage"
  bottom: "label"
  top: "accuracy"
  include {
    phase: TEST
  }
}
I0403 13:08:00.095538 31437 layer_factory.hpp:77] Creating layer data
I0403 13:08:00.096144 31437 net.cpp:91] Creating Layer data
I0403 13:08:00.096176 31437 net.cpp:399] data -> data
I0403 13:08:00.096226 31437 net.cpp:399] data -> label
I0403 13:08:00.096261 31437 data_transformer.cpp:25] Loading mean file from: /home/mohanty/data/final_dataset/lmdb/segmented-60-40/mean.binaryproto
I0403 13:08:00.098959 31441 db_lmdb.cpp:38] Opened lmdb /home/mohanty/data/final_dataset/lmdb/segmented-60-40/test_db
I0403 13:08:00.110679 31437 data_layer.cpp:41] output data size: 100,3,227,227
I0403 13:08:00.233759 31437 net.cpp:141] Setting up data
I0403 13:08:00.233866 31437 net.cpp:148] Top shape: 100 3 227 227 (15458700)
I0403 13:08:00.233889 31437 net.cpp:148] Top shape: 100 (100)
I0403 13:08:00.233906 31437 net.cpp:156] Memory required for data: 61835200
I0403 13:08:00.233933 31437 layer_factory.hpp:77] Creating layer label_data_1_split
I0403 13:08:00.233959 31437 net.cpp:91] Creating Layer label_data_1_split
I0403 13:08:00.233978 31437 net.cpp:425] label_data_1_split <- label
I0403 13:08:00.234009 31437 net.cpp:399] label_data_1_split -> label_data_1_split_0
I0403 13:08:00.234037 31437 net.cpp:399] label_data_1_split -> label_data_1_split_1
I0403 13:08:00.234057 31437 net.cpp:399] label_data_1_split -> label_data_1_split_2
I0403 13:08:00.234123 31437 net.cpp:141] Setting up label_data_1_split
I0403 13:08:00.234148 31437 net.cpp:148] Top shape: 100 (100)
I0403 13:08:00.234164 31437 net.cpp:148] Top shape: 100 (100)
I0403 13:08:00.234181 31437 net.cpp:148] Top shape: 100 (100)
I0403 13:08:00.234196 31437 net.cpp:156] Memory required for data: 61836400
I0403 13:08:00.234212 31437 layer_factory.hpp:77] Creating layer conv1
I0403 13:08:00.234244 31437 net.cpp:91] Creating Layer conv1
I0403 13:08:00.234263 31437 net.cpp:425] conv1 <- data
I0403 13:08:00.234289 31437 net.cpp:399] conv1 -> conv1
I0403 13:08:00.379111 31437 net.cpp:141] Setting up conv1
I0403 13:08:00.379200 31437 net.cpp:148] Top shape: 100 96 55 55 (29040000)
I0403 13:08:00.379218 31437 net.cpp:156] Memory required for data: 177996400
I0403 13:08:00.379250 31437 layer_factory.hpp:77] Creating layer relu1
I0403 13:08:00.379283 31437 net.cpp:91] Creating Layer relu1
I0403 13:08:00.379305 31437 net.cpp:425] relu1 <- conv1
I0403 13:08:00.379325 31437 net.cpp:386] relu1 -> conv1 (in-place)
I0403 13:08:00.379613 31437 net.cpp:141] Setting up relu1
I0403 13:08:00.379642 31437 net.cpp:148] Top shape: 100 96 55 55 (29040000)
I0403 13:08:00.379690 31437 net.cpp:156] Memory required for data: 294156400
I0403 13:08:00.379708 31437 layer_factory.hpp:77] Creating layer norm1
I0403 13:08:00.379737 31437 net.cpp:91] Creating Layer norm1
I0403 13:08:00.379757 31437 net.cpp:425] norm1 <- conv1
I0403 13:08:00.379777 31437 net.cpp:399] norm1 -> norm1
I0403 13:08:00.380139 31437 net.cpp:141] Setting up norm1
I0403 13:08:00.380170 31437 net.cpp:148] Top shape: 100 96 55 55 (29040000)
I0403 13:08:00.380187 31437 net.cpp:156] Memory required for data: 410316400
I0403 13:08:00.380203 31437 layer_factory.hpp:77] Creating layer pool1
I0403 13:08:00.380226 31437 net.cpp:91] Creating Layer pool1
I0403 13:08:00.380245 31437 net.cpp:425] pool1 <- norm1
I0403 13:08:00.380266 31437 net.cpp:399] pool1 -> pool1
I0403 13:08:00.380344 31437 net.cpp:141] Setting up pool1
I0403 13:08:00.380369 31437 net.cpp:148] Top shape: 100 96 27 27 (6998400)
I0403 13:08:00.380384 31437 net.cpp:156] Memory required for data: 438310000
I0403 13:08:00.380400 31437 layer_factory.hpp:77] Creating layer conv2
I0403 13:08:00.380427 31437 net.cpp:91] Creating Layer conv2
I0403 13:08:00.380445 31437 net.cpp:425] conv2 <- pool1
I0403 13:08:00.380466 31437 net.cpp:399] conv2 -> conv2
I0403 13:08:00.395807 31437 net.cpp:141] Setting up conv2
I0403 13:08:00.395866 31437 net.cpp:148] Top shape: 100 256 27 27 (18662400)
I0403 13:08:00.395884 31437 net.cpp:156] Memory required for data: 512959600
I0403 13:08:00.395908 31437 layer_factory.hpp:77] Creating layer relu2
I0403 13:08:00.395928 31437 net.cpp:91] Creating Layer relu2
I0403 13:08:00.395944 31437 net.cpp:425] relu2 <- conv2
I0403 13:08:00.395962 31437 net.cpp:386] relu2 -> conv2 (in-place)
I0403 13:08:00.396253 31437 net.cpp:141] Setting up relu2
I0403 13:08:00.396286 31437 net.cpp:148] Top shape: 100 256 27 27 (18662400)
I0403 13:08:00.396301 31437 net.cpp:156] Memory required for data: 587609200
I0403 13:08:00.396317 31437 layer_factory.hpp:77] Creating layer norm2
I0403 13:08:00.396342 31437 net.cpp:91] Creating Layer norm2
I0403 13:08:00.396359 31437 net.cpp:425] norm2 <- conv2
I0403 13:08:00.396378 31437 net.cpp:399] norm2 -> norm2
I0403 13:08:00.396649 31437 net.cpp:141] Setting up norm2
I0403 13:08:00.396678 31437 net.cpp:148] Top shape: 100 256 27 27 (18662400)
I0403 13:08:00.396694 31437 net.cpp:156] Memory required for data: 662258800
I0403 13:08:00.396710 31437 layer_factory.hpp:77] Creating layer pool2
I0403 13:08:00.396729 31437 net.cpp:91] Creating Layer pool2
I0403 13:08:00.396745 31437 net.cpp:425] pool2 <- norm2
I0403 13:08:00.396765 31437 net.cpp:399] pool2 -> pool2
I0403 13:08:00.396819 31437 net.cpp:141] Setting up pool2
I0403 13:08:00.396842 31437 net.cpp:148] Top shape: 100 256 13 13 (4326400)
I0403 13:08:00.396857 31437 net.cpp:156] Memory required for data: 679564400
I0403 13:08:00.396873 31437 layer_factory.hpp:77] Creating layer conv3
I0403 13:08:00.396898 31437 net.cpp:91] Creating Layer conv3
I0403 13:08:00.396914 31437 net.cpp:425] conv3 <- pool2
I0403 13:08:00.396935 31437 net.cpp:399] conv3 -> conv3
I0403 13:08:00.436023 31437 net.cpp:141] Setting up conv3
I0403 13:08:00.436069 31437 net.cpp:148] Top shape: 100 384 13 13 (6489600)
I0403 13:08:00.436086 31437 net.cpp:156] Memory required for data: 705522800
I0403 13:08:00.436111 31437 layer_factory.hpp:77] Creating layer relu3
I0403 13:08:00.436133 31437 net.cpp:91] Creating Layer relu3
I0403 13:08:00.436151 31437 net.cpp:425] relu3 <- conv3
I0403 13:08:00.436172 31437 net.cpp:386] relu3 -> conv3 (in-place)
I0403 13:08:00.436512 31437 net.cpp:141] Setting up relu3
I0403 13:08:00.436540 31437 net.cpp:148] Top shape: 100 384 13 13 (6489600)
I0403 13:08:00.436558 31437 net.cpp:156] Memory required for data: 731481200
I0403 13:08:00.436573 31437 layer_factory.hpp:77] Creating layer conv4
I0403 13:08:00.436597 31437 net.cpp:91] Creating Layer conv4
I0403 13:08:00.436615 31437 net.cpp:425] conv4 <- conv3
I0403 13:08:00.436635 31437 net.cpp:399] conv4 -> conv4
I0403 13:08:00.467051 31437 net.cpp:141] Setting up conv4
I0403 13:08:00.467128 31437 net.cpp:148] Top shape: 100 384 13 13 (6489600)
I0403 13:08:00.467176 31437 net.cpp:156] Memory required for data: 757439600
I0403 13:08:00.467200 31437 layer_factory.hpp:77] Creating layer relu4
I0403 13:08:00.467226 31437 net.cpp:91] Creating Layer relu4
I0403 13:08:00.467244 31437 net.cpp:425] relu4 <- conv4
I0403 13:08:00.467263 31437 net.cpp:386] relu4 -> conv4 (in-place)
I0403 13:08:00.467558 31437 net.cpp:141] Setting up relu4
I0403 13:08:00.467586 31437 net.cpp:148] Top shape: 100 384 13 13 (6489600)
I0403 13:08:00.467603 31437 net.cpp:156] Memory required for data: 783398000
I0403 13:08:00.467618 31437 layer_factory.hpp:77] Creating layer conv5
I0403 13:08:00.467689 31437 net.cpp:91] Creating Layer conv5
I0403 13:08:00.467712 31437 net.cpp:425] conv5 <- conv4
I0403 13:08:00.467733 31437 net.cpp:399] conv5 -> conv5
I0403 13:08:00.488384 31437 net.cpp:141] Setting up conv5
I0403 13:08:00.488445 31437 net.cpp:148] Top shape: 100 256 13 13 (4326400)
I0403 13:08:00.488463 31437 net.cpp:156] Memory required for data: 800703600
I0403 13:08:00.488487 31437 layer_factory.hpp:77] Creating layer relu5
I0403 13:08:00.488507 31437 net.cpp:91] Creating Layer relu5
I0403 13:08:00.488523 31437 net.cpp:425] relu5 <- conv5
I0403 13:08:00.488543 31437 net.cpp:386] relu5 -> conv5 (in-place)
I0403 13:08:00.488838 31437 net.cpp:141] Setting up relu5
I0403 13:08:00.488865 31437 net.cpp:148] Top shape: 100 256 13 13 (4326400)
I0403 13:08:00.488880 31437 net.cpp:156] Memory required for data: 818009200
I0403 13:08:00.488894 31437 layer_factory.hpp:77] Creating layer pool5
I0403 13:08:00.488916 31437 net.cpp:91] Creating Layer pool5
I0403 13:08:00.488932 31437 net.cpp:425] pool5 <- conv5
I0403 13:08:00.488953 31437 net.cpp:399] pool5 -> pool5
I0403 13:08:00.489015 31437 net.cpp:141] Setting up pool5
I0403 13:08:00.489039 31437 net.cpp:148] Top shape: 100 256 6 6 (921600)
I0403 13:08:00.489053 31437 net.cpp:156] Memory required for data: 821695600
I0403 13:08:00.489068 31437 layer_factory.hpp:77] Creating layer fc6
I0403 13:08:00.489096 31437 net.cpp:91] Creating Layer fc6
I0403 13:08:00.489114 31437 net.cpp:425] fc6 <- pool5
I0403 13:08:00.489135 31437 net.cpp:399] fc6 -> fc6
I0403 13:08:02.052356 31437 net.cpp:141] Setting up fc6
I0403 13:08:02.052397 31437 net.cpp:148] Top shape: 100 4096 (409600)
I0403 13:08:02.052412 31437 net.cpp:156] Memory required for data: 823334000
I0403 13:08:02.052433 31437 layer_factory.hpp:77] Creating layer relu6
I0403 13:08:02.052458 31437 net.cpp:91] Creating Layer relu6
I0403 13:08:02.052474 31437 net.cpp:425] relu6 <- fc6
I0403 13:08:02.052494 31437 net.cpp:386] relu6 -> fc6 (in-place)
I0403 13:08:02.052712 31437 net.cpp:141] Setting up relu6
I0403 13:08:02.052738 31437 net.cpp:148] Top shape: 100 4096 (409600)
I0403 13:08:02.052753 31437 net.cpp:156] Memory required for data: 824972400
I0403 13:08:02.052768 31437 layer_factory.hpp:77] Creating layer drop6
I0403 13:08:02.052786 31437 net.cpp:91] Creating Layer drop6
I0403 13:08:02.052801 31437 net.cpp:425] drop6 <- fc6
I0403 13:08:02.052817 31437 net.cpp:386] drop6 -> fc6 (in-place)
I0403 13:08:02.052871 31437 net.cpp:141] Setting up drop6
I0403 13:08:02.052894 31437 net.cpp:148] Top shape: 100 4096 (409600)
I0403 13:08:02.052908 31437 net.cpp:156] Memory required for data: 826610800
I0403 13:08:02.052923 31437 layer_factory.hpp:77] Creating layer fc7
I0403 13:08:02.052955 31437 net.cpp:91] Creating Layer fc7
I0403 13:08:02.052971 31437 net.cpp:425] fc7 <- fc6
I0403 13:08:02.052990 31437 net.cpp:399] fc7 -> fc7
I0403 13:08:02.743559 31437 net.cpp:141] Setting up fc7
I0403 13:08:02.743651 31437 net.cpp:148] Top shape: 100 4096 (409600)
I0403 13:08:02.743667 31437 net.cpp:156] Memory required for data: 828249200
I0403 13:08:02.743691 31437 layer_factory.hpp:77] Creating layer relu7
I0403 13:08:02.743716 31437 net.cpp:91] Creating Layer relu7
I0403 13:08:02.743733 31437 net.cpp:425] relu7 <- fc7
I0403 13:08:02.743754 31437 net.cpp:386] relu7 -> fc7 (in-place)
I0403 13:08:02.744189 31437 net.cpp:141] Setting up relu7
I0403 13:08:02.744218 31437 net.cpp:148] Top shape: 100 4096 (409600)
I0403 13:08:02.744267 31437 net.cpp:156] Memory required for data: 829887600
I0403 13:08:02.744290 31437 layer_factory.hpp:77] Creating layer drop7
I0403 13:08:02.744309 31437 net.cpp:91] Creating Layer drop7
I0403 13:08:02.744324 31437 net.cpp:425] drop7 <- fc7
I0403 13:08:02.744343 31437 net.cpp:386] drop7 -> fc7 (in-place)
I0403 13:08:02.744390 31437 net.cpp:141] Setting up drop7
I0403 13:08:02.744412 31437 net.cpp:148] Top shape: 100 4096 (409600)
I0403 13:08:02.744426 31437 net.cpp:156] Memory required for data: 831526000
I0403 13:08:02.744441 31437 layer_factory.hpp:77] Creating layer fc8_plantvillage
I0403 13:08:02.744462 31437 net.cpp:91] Creating Layer fc8_plantvillage
I0403 13:08:02.744478 31437 net.cpp:425] fc8_plantvillage <- fc7
I0403 13:08:02.744500 31437 net.cpp:399] fc8_plantvillage -> fc8_plantvillage
I0403 13:08:02.751222 31437 net.cpp:141] Setting up fc8_plantvillage
I0403 13:08:02.751253 31437 net.cpp:148] Top shape: 100 38 (3800)
I0403 13:08:02.751276 31437 net.cpp:156] Memory required for data: 831541200
I0403 13:08:02.751296 31437 layer_factory.hpp:77] Creating layer fc8_plantvillage_fc8_plantvillage_0_split
I0403 13:08:02.751315 31437 net.cpp:91] Creating Layer fc8_plantvillage_fc8_plantvillage_0_split
I0403 13:08:02.751332 31437 net.cpp:425] fc8_plantvillage_fc8_plantvillage_0_split <- fc8_plantvillage
I0403 13:08:02.751353 31437 net.cpp:399] fc8_plantvillage_fc8_plantvillage_0_split -> fc8_plantvillage_fc8_plantvillage_0_split_0
I0403 13:08:02.751376 31437 net.cpp:399] fc8_plantvillage_fc8_plantvillage_0_split -> fc8_plantvillage_fc8_plantvillage_0_split_1
I0403 13:08:02.751397 31437 net.cpp:399] fc8_plantvillage_fc8_plantvillage_0_split -> fc8_plantvillage_fc8_plantvillage_0_split_2
I0403 13:08:02.751476 31437 net.cpp:141] Setting up fc8_plantvillage_fc8_plantvillage_0_split
I0403 13:08:02.751498 31437 net.cpp:148] Top shape: 100 38 (3800)
I0403 13:08:02.751515 31437 net.cpp:148] Top shape: 100 38 (3800)
I0403 13:08:02.751530 31437 net.cpp:148] Top shape: 100 38 (3800)
I0403 13:08:02.751545 31437 net.cpp:156] Memory required for data: 831586800
I0403 13:08:02.751567 31437 layer_factory.hpp:77] Creating layer prob
I0403 13:08:02.751585 31437 net.cpp:91] Creating Layer prob
I0403 13:08:02.751600 31437 net.cpp:425] prob <- fc8_plantvillage_fc8_plantvillage_0_split_0
I0403 13:08:02.751618 31437 net.cpp:399] prob -> prob
I0403 13:08:02.751852 31437 net.cpp:141] Setting up prob
I0403 13:08:02.751881 31437 net.cpp:148] Top shape: 100 38 (3800)
I0403 13:08:02.751898 31437 net.cpp:156] Memory required for data: 831602000
I0403 13:08:02.751911 31437 layer_factory.hpp:77] Creating layer hdf5out
I0403 13:08:02.751930 31437 net.cpp:91] Creating Layer hdf5out
I0403 13:08:02.751945 31437 net.cpp:425] hdf5out <- prob
I0403 13:08:02.751962 31437 net.cpp:425] hdf5out <- label_data_1_split_0
I0403 13:08:02.754210 31437 net.cpp:141] Setting up hdf5out
…
