…
I0403 13:23:20.218996 32015 net.cpp:313] The NetState phase (1) differed from the phase (0) specified by a rule in layer data
I0403 13:23:20.219324 32015 net.cpp:49] Initializing net from parameters: 
state {
  phase: TEST
}
layer {
  name: "data"
  type: "Data"
  top: "data"
  top: "label"
  include {
    phase: TEST
  }
  transform_param {
    crop_size: 227
    mean_file: "/home/mohanty/data/final_dataset/lmdb/segmented-60-40/mean.binaryproto"
  }
  data_param {
    source: "/home/mohanty/data/final_dataset/lmdb/segmented-60-40/test_db"
    batch_size: 100
    backend: LMDB
  }
}
layer {
  name: "conv1"
  type: "Convolution"
  bottom: "data"
  top: "conv1"
  param {
    lr_mult: 1
    decay_mult: 1
  }
  param {
    lr_mult: 2
    decay_mult: 0
  }
  convolution_param {
    num_output: 96
    kernel_size: 11
    stride: 4
    weight_filler {
      type: "gaussian"
      std: 0.01
    }
    bias_filler {
      type: "constant"
      value: 0
    }
  }
}
layer {
  name: "relu1"
  type: "ReLU"
  bottom: "conv1"
  top: "conv1"
}
layer {
  name: "norm1"
  type: "LRN"
  bottom: "conv1"
  top: "norm1"
  lrn_param {
    local_size: 5
    alpha: 0.0001
    beta: 0.75
  }
}
layer {
  name: "pool1"
  type: "Pooling"
  bottom: "norm1"
  top: "pool1"
  pooling_param {
    pool: MAX
    kernel_size: 3
    stride: 2
  }
}
layer {
  name: "conv2"
  type: "Convolution"
  bottom: "pool1"
  top: "conv2"
  param {
    lr_mult: 1
    decay_mult: 1
  }
  param {
    lr_mult: 2
    decay_mult: 0
  }
  convolution_param {
    num_output: 256
    pad: 2
    kernel_size: 5
    group: 2
    weight_filler {
      type: "gaussian"
      std: 0.01
    }
    bias_filler {
      type: "constant"
      value: 0.1
    }
  }
}
layer {
  name: "relu2"
  type: "ReLU"
  bottom: "conv2"
  top: "conv2"
}
layer {
  name: "norm2"
  type: "LRN"
  bottom: "conv2"
  top: "norm2"
  lrn_param {
    local_size: 5
    alpha: 0.0001
    beta: 0.75
  }
}
layer {
  name: "pool2"
  type: "Pooling"
  bottom: "norm2"
  top: "pool2"
  pooling_param {
    pool: MAX
    kernel_size: 3
    stride: 2
  }
}
layer {
  name: "conv3"
  type: "Convolution"
  bottom: "pool2"
  top: "conv3"
  param {
    lr_mult: 1
    decay_mult: 1
  }
  param {
    lr_mult: 2
    decay_mult: 0
  }
  convolution_param {
    num_output: 384
    pad: 1
    kernel_size: 3
    weight_filler {
      type: "gaussian"
      std: 0.01
    }
    bias_filler {
      type: "constant"
      value: 0
    }
  }
}
layer {
  name: "relu3"
  type: "ReLU"
  bottom: "conv3"
  top: "conv3"
}
layer {
  name: "conv4"
  type: "Convolution"
  bottom: "conv3"
  top: "conv4"
  param {
    lr_mult: 1
    decay_mult: 1
  }
  param {
    lr_mult: 2
    decay_mult: 0
  }
  convolution_param {
    num_output: 384
    pad: 1
    kernel_size: 3
    group: 2
    weight_filler {
      type: "gaussian"
      std: 0.01
    }
    bias_filler {
      type: "constant"
      value: 0.1
    }
  }
}
layer {
  name: "relu4"
  type: "ReLU"
  bottom: "conv4"
  top: "conv4"
}
layer {
  name: "conv5"
  type: "Convolution"
  bottom: "conv4"
  top: "conv5"
  param {
    lr_mult: 1
    decay_mult: 1
  }
  param {
    lr_mult: 2
    decay_mult: 0
  }
  convolution_param {
    num_output: 256
    pad: 1
    kernel_size: 3
    group: 2
    weight_filler {
      type: "gaussian"
      std: 0.01
    }
    bias_filler {
      type: "constant"
      value: 0.1
    }
  }
}
layer {
  name: "relu5"
  type: "ReLU"
  bottom: "conv5"
  top: "conv5"
}
layer {
  name: "pool5"
  type: "Pooling"
  bottom: "conv5"
  top: "pool5"
  pooling_param {
    pool: MAX
    kernel_size: 3
    stride: 2
  }
}
layer {
  name: "fc6"
  type: "InnerProduct"
  bottom: "pool5"
  top: "fc6"
  param {
    lr_mult: 1
    decay_mult: 1
  }
  param {
    lr_mult: 2
    decay_mult: 0
  }
  inner_product_param {
    num_output: 4096
    weight_filler {
      type: "gaussian"
      std: 0.005
    }
    bias_filler {
      type: "constant"
      value: 0.1
    }
  }
}
layer {
  name: "relu6"
  type: "ReLU"
  bottom: "fc6"
  top: "fc6"
}
layer {
  name: "drop6"
  type: "Dropout"
  bottom: "fc6"
  top: "fc6"
  dropout_param {
    dropout_ratio: 0.5
  }
}
layer {
  name: "fc7"
  type: "InnerProduct"
  bottom: "fc6"
  top: "fc7"
  param {
    lr_mult: 1
    decay_mult: 1
  }
  param {
    lr_mult: 2
    decay_mult: 0
  }
  inner_product_param {
    num_output: 4096
    weight_filler {
      type: "gaussian"
      std: 0.005
    }
    bias_filler {
      type: "constant"
      value: 0.1
    }
  }
}
layer {
  name: "relu7"
  type: "ReLU"
  bottom: "fc7"
  top: "fc7"
}
layer {
  name: "drop7"
  type: "Dropout"
  bottom: "fc7"
  top: "fc7"
  dropout_param {
    dropout_ratio: 0.5
  }
}
layer {
  name: "fc8_plantvillage"
  type: "InnerProduct"
  bottom: "fc7"
  top: "fc8_plantvillage"
  param {
    lr_mult: 1
    decay_mult: 1
  }
  param {
    lr_mult: 2
    decay_mult: 0
  }
  inner_product_param {
    num_output: 38
    weight_filler {
      type: "gaussian"
      std: 0.01
    }
    bias_filler {
      type: "constant"
      value: 0
    }
  }
}
layer {
  name: "prob"
  type: "Softmax"
  bottom: "fc8_plantvillage"
  top: "prob"
  include {
    phase: TEST
  }
}
layer {
  name: "hdf5out"
  type: "HDF5Output"
  bottom: "prob"
  bottom: "label"
  include {
    phase: TEST
  }
  hdf5_output_param {
    file_name: "hdf5_dumps/iter_8775.h5"
  }
}
layer {
  name: "loss"
  type: "SoftmaxWithLoss"
  bottom: "fc8_plantvillage"
  bottom: "label"
  top: "loss"
}
layer {
  name: "accuracy"
  type: "Accuracy"
  bottom: "fc8_plantvillage"
  bottom: "label"
  top: "accuracy"
  include {
    phase: TEST
  }
}
I0403 13:23:20.219880 32015 layer_factory.hpp:77] Creating layer data
I0403 13:23:20.220521 32015 net.cpp:91] Creating Layer data
I0403 13:23:20.220554 32015 net.cpp:399] data -> data
I0403 13:23:20.220605 32015 net.cpp:399] data -> label
I0403 13:23:20.220643 32015 data_transformer.cpp:25] Loading mean file from: /home/mohanty/data/final_dataset/lmdb/segmented-60-40/mean.binaryproto
I0403 13:23:20.222865 32018 db_lmdb.cpp:38] Opened lmdb /home/mohanty/data/final_dataset/lmdb/segmented-60-40/test_db
I0403 13:23:20.235467 32015 data_layer.cpp:41] output data size: 100,3,227,227
I0403 13:23:20.356889 32015 net.cpp:141] Setting up data
I0403 13:23:20.356994 32015 net.cpp:148] Top shape: 100 3 227 227 (15458700)
I0403 13:23:20.357017 32015 net.cpp:148] Top shape: 100 (100)
I0403 13:23:20.357031 32015 net.cpp:156] Memory required for data: 61835200
I0403 13:23:20.357059 32015 layer_factory.hpp:77] Creating layer label_data_1_split
I0403 13:23:20.357084 32015 net.cpp:91] Creating Layer label_data_1_split
I0403 13:23:20.357103 32015 net.cpp:425] label_data_1_split <- label
I0403 13:23:20.357134 32015 net.cpp:399] label_data_1_split -> label_data_1_split_0
I0403 13:23:20.357161 32015 net.cpp:399] label_data_1_split -> label_data_1_split_1
I0403 13:23:20.357182 32015 net.cpp:399] label_data_1_split -> label_data_1_split_2
I0403 13:23:20.357246 32015 net.cpp:141] Setting up label_data_1_split
I0403 13:23:20.357270 32015 net.cpp:148] Top shape: 100 (100)
I0403 13:23:20.357306 32015 net.cpp:148] Top shape: 100 (100)
I0403 13:23:20.357323 32015 net.cpp:148] Top shape: 100 (100)
I0403 13:23:20.357339 32015 net.cpp:156] Memory required for data: 61836400
I0403 13:23:20.357354 32015 layer_factory.hpp:77] Creating layer conv1
I0403 13:23:20.357388 32015 net.cpp:91] Creating Layer conv1
I0403 13:23:20.357408 32015 net.cpp:425] conv1 <- data
I0403 13:23:20.357426 32015 net.cpp:399] conv1 -> conv1
I0403 13:23:20.501902 32015 net.cpp:141] Setting up conv1
I0403 13:23:20.501994 32015 net.cpp:148] Top shape: 100 96 55 55 (29040000)
I0403 13:23:20.502012 32015 net.cpp:156] Memory required for data: 177996400
I0403 13:23:20.502043 32015 layer_factory.hpp:77] Creating layer relu1
I0403 13:23:20.502071 32015 net.cpp:91] Creating Layer relu1
I0403 13:23:20.502090 32015 net.cpp:425] relu1 <- conv1
I0403 13:23:20.502113 32015 net.cpp:386] relu1 -> conv1 (in-place)
I0403 13:23:20.502426 32015 net.cpp:141] Setting up relu1
I0403 13:23:20.502455 32015 net.cpp:148] Top shape: 100 96 55 55 (29040000)
I0403 13:23:20.502523 32015 net.cpp:156] Memory required for data: 294156400
I0403 13:23:20.502539 32015 layer_factory.hpp:77] Creating layer norm1
I0403 13:23:20.502573 32015 net.cpp:91] Creating Layer norm1
I0403 13:23:20.502589 32015 net.cpp:425] norm1 <- conv1
I0403 13:23:20.502611 32015 net.cpp:399] norm1 -> norm1
I0403 13:23:20.502970 32015 net.cpp:141] Setting up norm1
I0403 13:23:20.502998 32015 net.cpp:148] Top shape: 100 96 55 55 (29040000)
I0403 13:23:20.503015 32015 net.cpp:156] Memory required for data: 410316400
I0403 13:23:20.503031 32015 layer_factory.hpp:77] Creating layer pool1
I0403 13:23:20.503052 32015 net.cpp:91] Creating Layer pool1
I0403 13:23:20.503092 32015 net.cpp:425] pool1 <- norm1
I0403 13:23:20.503116 32015 net.cpp:399] pool1 -> pool1
I0403 13:23:20.503191 32015 net.cpp:141] Setting up pool1
I0403 13:23:20.503216 32015 net.cpp:148] Top shape: 100 96 27 27 (6998400)
I0403 13:23:20.503231 32015 net.cpp:156] Memory required for data: 438310000
I0403 13:23:20.503245 32015 layer_factory.hpp:77] Creating layer conv2
I0403 13:23:20.503281 32015 net.cpp:91] Creating Layer conv2
I0403 13:23:20.503303 32015 net.cpp:425] conv2 <- pool1
I0403 13:23:20.503324 32015 net.cpp:399] conv2 -> conv2
I0403 13:23:20.518954 32015 net.cpp:141] Setting up conv2
I0403 13:23:20.519004 32015 net.cpp:148] Top shape: 100 256 27 27 (18662400)
I0403 13:23:20.519021 32015 net.cpp:156] Memory required for data: 512959600
I0403 13:23:20.519043 32015 layer_factory.hpp:77] Creating layer relu2
I0403 13:23:20.519067 32015 net.cpp:91] Creating Layer relu2
I0403 13:23:20.519083 32015 net.cpp:425] relu2 <- conv2
I0403 13:23:20.519101 32015 net.cpp:386] relu2 -> conv2 (in-place)
I0403 13:23:20.519395 32015 net.cpp:141] Setting up relu2
I0403 13:23:20.519433 32015 net.cpp:148] Top shape: 100 256 27 27 (18662400)
I0403 13:23:20.519448 32015 net.cpp:156] Memory required for data: 587609200
I0403 13:23:20.519464 32015 layer_factory.hpp:77] Creating layer norm2
I0403 13:23:20.519490 32015 net.cpp:91] Creating Layer norm2
I0403 13:23:20.519516 32015 net.cpp:425] norm2 <- conv2
I0403 13:23:20.519536 32015 net.cpp:399] norm2 -> norm2
I0403 13:23:20.519747 32015 net.cpp:141] Setting up norm2
I0403 13:23:20.519773 32015 net.cpp:148] Top shape: 100 256 27 27 (18662400)
I0403 13:23:20.519788 32015 net.cpp:156] Memory required for data: 662258800
I0403 13:23:20.519804 32015 layer_factory.hpp:77] Creating layer pool2
I0403 13:23:20.519824 32015 net.cpp:91] Creating Layer pool2
I0403 13:23:20.519840 32015 net.cpp:425] pool2 <- norm2
I0403 13:23:20.519858 32015 net.cpp:399] pool2 -> pool2
I0403 13:23:20.519925 32015 net.cpp:141] Setting up pool2
I0403 13:23:20.519949 32015 net.cpp:148] Top shape: 100 256 13 13 (4326400)
I0403 13:23:20.519986 32015 net.cpp:156] Memory required for data: 679564400
I0403 13:23:20.520004 32015 layer_factory.hpp:77] Creating layer conv3
I0403 13:23:20.520030 32015 net.cpp:91] Creating Layer conv3
I0403 13:23:20.520048 32015 net.cpp:425] conv3 <- pool2
I0403 13:23:20.520071 32015 net.cpp:399] conv3 -> conv3
I0403 13:23:20.559955 32015 net.cpp:141] Setting up conv3
I0403 13:23:20.560036 32015 net.cpp:148] Top shape: 100 384 13 13 (6489600)
I0403 13:23:20.560055 32015 net.cpp:156] Memory required for data: 705522800
I0403 13:23:20.560081 32015 layer_factory.hpp:77] Creating layer relu3
I0403 13:23:20.560107 32015 net.cpp:91] Creating Layer relu3
I0403 13:23:20.560127 32015 net.cpp:425] relu3 <- conv3
I0403 13:23:20.560147 32015 net.cpp:386] relu3 -> conv3 (in-place)
I0403 13:23:20.560451 32015 net.cpp:141] Setting up relu3
I0403 13:23:20.560482 32015 net.cpp:148] Top shape: 100 384 13 13 (6489600)
I0403 13:23:20.560498 32015 net.cpp:156] Memory required for data: 731481200
I0403 13:23:20.560514 32015 layer_factory.hpp:77] Creating layer conv4
I0403 13:23:20.560541 32015 net.cpp:91] Creating Layer conv4
I0403 13:23:20.560559 32015 net.cpp:425] conv4 <- conv3
I0403 13:23:20.560582 32015 net.cpp:399] conv4 -> conv4
I0403 13:23:20.592094 32015 net.cpp:141] Setting up conv4
I0403 13:23:20.592175 32015 net.cpp:148] Top shape: 100 384 13 13 (6489600)
I0403 13:23:20.592226 32015 net.cpp:156] Memory required for data: 757439600
I0403 13:23:20.592248 32015 layer_factory.hpp:77] Creating layer relu4
I0403 13:23:20.592280 32015 net.cpp:91] Creating Layer relu4
I0403 13:23:20.592301 32015 net.cpp:425] relu4 <- conv4
I0403 13:23:20.592324 32015 net.cpp:386] relu4 -> conv4 (in-place)
I0403 13:23:20.592660 32015 net.cpp:141] Setting up relu4
I0403 13:23:20.592689 32015 net.cpp:148] Top shape: 100 384 13 13 (6489600)
I0403 13:23:20.592705 32015 net.cpp:156] Memory required for data: 783398000
I0403 13:23:20.592720 32015 layer_factory.hpp:77] Creating layer conv5
I0403 13:23:20.592747 32015 net.cpp:91] Creating Layer conv5
I0403 13:23:20.592766 32015 net.cpp:425] conv5 <- conv4
I0403 13:23:20.592787 32015 net.cpp:399] conv5 -> conv5
I0403 13:23:20.614482 32015 net.cpp:141] Setting up conv5
I0403 13:23:20.614547 32015 net.cpp:148] Top shape: 100 256 13 13 (4326400)
I0403 13:23:20.614564 32015 net.cpp:156] Memory required for data: 800703600
I0403 13:23:20.614590 32015 layer_factory.hpp:77] Creating layer relu5
I0403 13:23:20.614615 32015 net.cpp:91] Creating Layer relu5
I0403 13:23:20.614634 32015 net.cpp:425] relu5 <- conv5
I0403 13:23:20.614652 32015 net.cpp:386] relu5 -> conv5 (in-place)
I0403 13:23:20.614948 32015 net.cpp:141] Setting up relu5
I0403 13:23:20.615038 32015 net.cpp:148] Top shape: 100 256 13 13 (4326400)
I0403 13:23:20.615061 32015 net.cpp:156] Memory required for data: 818009200
I0403 13:23:20.615077 32015 layer_factory.hpp:77] Creating layer pool5
I0403 13:23:20.615102 32015 net.cpp:91] Creating Layer pool5
I0403 13:23:20.615119 32015 net.cpp:425] pool5 <- conv5
I0403 13:23:20.615139 32015 net.cpp:399] pool5 -> pool5
I0403 13:23:20.615206 32015 net.cpp:141] Setting up pool5
I0403 13:23:20.615229 32015 net.cpp:148] Top shape: 100 256 6 6 (921600)
I0403 13:23:20.615245 32015 net.cpp:156] Memory required for data: 821695600
I0403 13:23:20.615260 32015 layer_factory.hpp:77] Creating layer fc6
I0403 13:23:20.615296 32015 net.cpp:91] Creating Layer fc6
I0403 13:23:20.615316 32015 net.cpp:425] fc6 <- pool5
I0403 13:23:20.615335 32015 net.cpp:399] fc6 -> fc6
I0403 13:23:22.192961 32015 net.cpp:141] Setting up fc6
I0403 13:23:22.193042 32015 net.cpp:148] Top shape: 100 4096 (409600)
I0403 13:23:22.193058 32015 net.cpp:156] Memory required for data: 823334000
I0403 13:23:22.193080 32015 layer_factory.hpp:77] Creating layer relu6
I0403 13:23:22.193104 32015 net.cpp:91] Creating Layer relu6
I0403 13:23:22.193120 32015 net.cpp:425] relu6 <- fc6
I0403 13:23:22.193142 32015 net.cpp:386] relu6 -> fc6 (in-place)
I0403 13:23:22.193389 32015 net.cpp:141] Setting up relu6
I0403 13:23:22.193414 32015 net.cpp:148] Top shape: 100 4096 (409600)
I0403 13:23:22.193433 32015 net.cpp:156] Memory required for data: 824972400
I0403 13:23:22.193447 32015 layer_factory.hpp:77] Creating layer drop6
I0403 13:23:22.193469 32015 net.cpp:91] Creating Layer drop6
I0403 13:23:22.193485 32015 net.cpp:425] drop6 <- fc6
I0403 13:23:22.193501 32015 net.cpp:386] drop6 -> fc6 (in-place)
I0403 13:23:22.193553 32015 net.cpp:141] Setting up drop6
I0403 13:23:22.193578 32015 net.cpp:148] Top shape: 100 4096 (409600)
I0403 13:23:22.193593 32015 net.cpp:156] Memory required for data: 826610800
I0403 13:23:22.193608 32015 layer_factory.hpp:77] Creating layer fc7
I0403 13:23:22.193627 32015 net.cpp:91] Creating Layer fc7
I0403 13:23:22.193642 32015 net.cpp:425] fc7 <- fc6
I0403 13:23:22.193662 32015 net.cpp:399] fc7 -> fc7
I0403 13:23:22.879925 32015 net.cpp:141] Setting up fc7
I0403 13:23:22.879976 32015 net.cpp:148] Top shape: 100 4096 (409600)
I0403 13:23:22.879990 32015 net.cpp:156] Memory required for data: 828249200
I0403 13:23:22.880012 32015 layer_factory.hpp:77] Creating layer relu7
I0403 13:23:22.880044 32015 net.cpp:91] Creating Layer relu7
I0403 13:23:22.880061 32015 net.cpp:425] relu7 <- fc7
I0403 13:23:22.880084 32015 net.cpp:386] relu7 -> fc7 (in-place)
I0403 13:23:22.880584 32015 net.cpp:141] Setting up relu7
I0403 13:23:22.880614 32015 net.cpp:148] Top shape: 100 4096 (409600)
I0403 13:23:22.880662 32015 net.cpp:156] Memory required for data: 829887600
I0403 13:23:22.880679 32015 layer_factory.hpp:77] Creating layer drop7
I0403 13:23:22.880709 32015 net.cpp:91] Creating Layer drop7
I0403 13:23:22.880738 32015 net.cpp:425] drop7 <- fc7
I0403 13:23:22.880758 32015 net.cpp:386] drop7 -> fc7 (in-place)
I0403 13:23:22.880815 32015 net.cpp:141] Setting up drop7
I0403 13:23:22.880839 32015 net.cpp:148] Top shape: 100 4096 (409600)
I0403 13:23:22.880853 32015 net.cpp:156] Memory required for data: 831526000
I0403 13:23:22.880867 32015 layer_factory.hpp:77] Creating layer fc8_plantvillage
I0403 13:23:22.880887 32015 net.cpp:91] Creating Layer fc8_plantvillage
I0403 13:23:22.880914 32015 net.cpp:425] fc8_plantvillage <- fc7
I0403 13:23:22.880935 32015 net.cpp:399] fc8_plantvillage -> fc8_plantvillage
I0403 13:23:22.888576 32015 net.cpp:141] Setting up fc8_plantvillage
I0403 13:23:22.888610 32015 net.cpp:148] Top shape: 100 38 (3800)
I0403 13:23:22.888630 32015 net.cpp:156] Memory required for data: 831541200
I0403 13:23:22.888654 32015 layer_factory.hpp:77] Creating layer fc8_plantvillage_fc8_plantvillage_0_split
I0403 13:23:22.888676 32015 net.cpp:91] Creating Layer fc8_plantvillage_fc8_plantvillage_0_split
I0403 13:23:22.888695 32015 net.cpp:425] fc8_plantvillage_fc8_plantvillage_0_split <- fc8_plantvillage
I0403 13:23:22.888712 32015 net.cpp:399] fc8_plantvillage_fc8_plantvillage_0_split -> fc8_plantvillage_fc8_plantvillage_0_split_0
I0403 13:23:22.888744 32015 net.cpp:399] fc8_plantvillage_fc8_plantvillage_0_split -> fc8_plantvillage_fc8_plantvillage_0_split_1
I0403 13:23:22.888772 32015 net.cpp:399] fc8_plantvillage_fc8_plantvillage_0_split -> fc8_plantvillage_fc8_plantvillage_0_split_2
I0403 13:23:22.888878 32015 net.cpp:141] Setting up fc8_plantvillage_fc8_plantvillage_0_split
I0403 13:23:22.888906 32015 net.cpp:148] Top shape: 100 38 (3800)
I0403 13:23:22.888937 32015 net.cpp:148] Top shape: 100 38 (3800)
I0403 13:23:22.888957 32015 net.cpp:148] Top shape: 100 38 (3800)
I0403 13:23:22.888972 32015 net.cpp:156] Memory required for data: 831586800
I0403 13:23:22.888988 32015 layer_factory.hpp:77] Creating layer prob
I0403 13:23:22.889008 32015 net.cpp:91] Creating Layer prob
I0403 13:23:22.889024 32015 net.cpp:425] prob <- fc8_plantvillage_fc8_plantvillage_0_split_0
I0403 13:23:22.889041 32015 net.cpp:399] prob -> prob
I0403 13:23:22.889322 32015 net.cpp:141] Setting up prob
I0403 13:23:22.889349 32015 net.cpp:148] Top shape: 100 38 (3800)
I0403 13:23:22.889365 32015 net.cpp:156] Memory required for data: 831602000
I0403 13:23:22.889382 32015 layer_factory.hpp:77] Creating layer hdf5out
I0403 13:23:22.889405 32015 net.cpp:91] Creating Layer hdf5out
I0403 13:23:22.889423 32015 net.cpp:425] hdf5out <- prob
I0403 13:23:22.889446 32015 net.cpp:425] hdf5out <- label_data_1_split_0
I0403 13:23:22.891985 32015 net.cpp:141] Setting up hdf5out
…
