…
I0403 13:15:39.333933 31786 net.cpp:313] The NetState phase (1) differed from the phase (0) specified by a rule in layer data
I0403 13:15:39.334262 31786 net.cpp:49] Initializing net from parameters: 
state {
  phase: TEST
}
layer {
  name: "data"
  type: "Data"
  top: "data"
  top: "label"
  include {
    phase: TEST
  }
  transform_param {
    crop_size: 227
    mean_file: "/home/mohanty/data/final_dataset/lmdb/segmented-60-40/mean.binaryproto"
  }
  data_param {
    source: "/home/mohanty/data/final_dataset/lmdb/segmented-60-40/test_db"
    batch_size: 100
    backend: LMDB
  }
}
layer {
  name: "conv1"
  type: "Convolution"
  bottom: "data"
  top: "conv1"
  param {
    lr_mult: 1
    decay_mult: 1
  }
  param {
    lr_mult: 2
    decay_mult: 0
  }
  convolution_param {
    num_output: 96
    kernel_size: 11
    stride: 4
    weight_filler {
      type: "gaussian"
      std: 0.01
    }
    bias_filler {
      type: "constant"
      value: 0
    }
  }
}
layer {
  name: "relu1"
  type: "ReLU"
  bottom: "conv1"
  top: "conv1"
}
layer {
  name: "norm1"
  type: "LRN"
  bottom: "conv1"
  top: "norm1"
  lrn_param {
    local_size: 5
    alpha: 0.0001
    beta: 0.75
  }
}
layer {
  name: "pool1"
  type: "Pooling"
  bottom: "norm1"
  top: "pool1"
  pooling_param {
    pool: MAX
    kernel_size: 3
    stride: 2
  }
}
layer {
  name: "conv2"
  type: "Convolution"
  bottom: "pool1"
  top: "conv2"
  param {
    lr_mult: 1
    decay_mult: 1
  }
  param {
    lr_mult: 2
    decay_mult: 0
  }
  convolution_param {
    num_output: 256
    pad: 2
    kernel_size: 5
    group: 2
    weight_filler {
      type: "gaussian"
      std: 0.01
    }
    bias_filler {
      type: "constant"
      value: 0.1
    }
  }
}
layer {
  name: "relu2"
  type: "ReLU"
  bottom: "conv2"
  top: "conv2"
}
layer {
  name: "norm2"
  type: "LRN"
  bottom: "conv2"
  top: "norm2"
  lrn_param {
    local_size: 5
    alpha: 0.0001
    beta: 0.75
  }
}
layer {
  name: "pool2"
  type: "Pooling"
  bottom: "norm2"
  top: "pool2"
  pooling_param {
    pool: MAX
    kernel_size: 3
    stride: 2
  }
}
layer {
  name: "conv3"
  type: "Convolution"
  bottom: "pool2"
  top: "conv3"
  param {
    lr_mult: 1
    decay_mult: 1
  }
  param {
    lr_mult: 2
    decay_mult: 0
  }
  convolution_param {
    num_output: 384
    pad: 1
    kernel_size: 3
    weight_filler {
      type: "gaussian"
      std: 0.01
    }
    bias_filler {
      type: "constant"
      value: 0
    }
  }
}
layer {
  name: "relu3"
  type: "ReLU"
  bottom: "conv3"
  top: "conv3"
}
layer {
  name: "conv4"
  type: "Convolution"
  bottom: "conv3"
  top: "conv4"
  param {
    lr_mult: 1
    decay_mult: 1
  }
  param {
    lr_mult: 2
    decay_mult: 0
  }
  convolution_param {
    num_output: 384
    pad: 1
    kernel_size: 3
    group: 2
    weight_filler {
      type: "gaussian"
      std: 0.01
    }
    bias_filler {
      type: "constant"
      value: 0.1
    }
  }
}
layer {
  name: "relu4"
  type: "ReLU"
  bottom: "conv4"
  top: "conv4"
}
layer {
  name: "conv5"
  type: "Convolution"
  bottom: "conv4"
  top: "conv5"
  param {
    lr_mult: 1
    decay_mult: 1
  }
  param {
    lr_mult: 2
    decay_mult: 0
  }
  convolution_param {
    num_output: 256
    pad: 1
    kernel_size: 3
    group: 2
    weight_filler {
      type: "gaussian"
      std: 0.01
    }
    bias_filler {
      type: "constant"
      value: 0.1
    }
  }
}
layer {
  name: "relu5"
  type: "ReLU"
  bottom: "conv5"
  top: "conv5"
}
layer {
  name: "pool5"
  type: "Pooling"
  bottom: "conv5"
  top: "pool5"
  pooling_param {
    pool: MAX
    kernel_size: 3
    stride: 2
  }
}
layer {
  name: "fc6"
  type: "InnerProduct"
  bottom: "pool5"
  top: "fc6"
  param {
    lr_mult: 1
    decay_mult: 1
  }
  param {
    lr_mult: 2
    decay_mult: 0
  }
  inner_product_param {
    num_output: 4096
    weight_filler {
      type: "gaussian"
      std: 0.005
    }
    bias_filler {
      type: "constant"
      value: 0.1
    }
  }
}
layer {
  name: "relu6"
  type: "ReLU"
  bottom: "fc6"
  top: "fc6"
}
layer {
  name: "drop6"
  type: "Dropout"
  bottom: "fc6"
  top: "fc6"
  dropout_param {
    dropout_ratio: 0.5
  }
}
layer {
  name: "fc7"
  type: "InnerProduct"
  bottom: "fc6"
  top: "fc7"
  param {
    lr_mult: 1
    decay_mult: 1
  }
  param {
    lr_mult: 2
    decay_mult: 0
  }
  inner_product_param {
    num_output: 4096
    weight_filler {
      type: "gaussian"
      std: 0.005
    }
    bias_filler {
      type: "constant"
      value: 0.1
    }
  }
}
layer {
  name: "relu7"
  type: "ReLU"
  bottom: "fc7"
  top: "fc7"
}
layer {
  name: "drop7"
  type: "Dropout"
  bottom: "fc7"
  top: "fc7"
  dropout_param {
    dropout_ratio: 0.5
  }
}
layer {
  name: "fc8_plantvillage"
  type: "InnerProduct"
  bottom: "fc7"
  top: "fc8_plantvillage"
  param {
    lr_mult: 1
    decay_mult: 1
  }
  param {
    lr_mult: 2
    decay_mult: 0
  }
  inner_product_param {
    num_output: 38
    weight_filler {
      type: "gaussian"
      std: 0.01
    }
    bias_filler {
      type: "constant"
      value: 0
    }
  }
}
layer {
  name: "prob"
  type: "Softmax"
  bottom: "fc8_plantvillage"
  top: "prob"
  include {
    phase: TEST
  }
}
layer {
  name: "hdf5out"
  type: "HDF5Output"
  bottom: "prob"
  bottom: "label"
  include {
    phase: TEST
  }
  hdf5_output_param {
    file_name: "hdf5_dumps/iter_5200.h5"
  }
}
layer {
  name: "loss"
  type: "SoftmaxWithLoss"
  bottom: "fc8_plantvillage"
  bottom: "label"
  top: "loss"
}
layer {
  name: "accuracy"
  type: "Accuracy"
  bottom: "fc8_plantvillage"
  bottom: "label"
  top: "accuracy"
  include {
    phase: TEST
  }
}
I0403 13:15:39.334836 31786 layer_factory.hpp:77] Creating layer data
I0403 13:15:39.335510 31786 net.cpp:91] Creating Layer data
I0403 13:15:39.335543 31786 net.cpp:399] data -> data
I0403 13:15:39.335595 31786 net.cpp:399] data -> label
I0403 13:15:39.335633 31786 data_transformer.cpp:25] Loading mean file from: /home/mohanty/data/final_dataset/lmdb/segmented-60-40/mean.binaryproto
I0403 13:15:39.338446 31789 db_lmdb.cpp:38] Opened lmdb /home/mohanty/data/final_dataset/lmdb/segmented-60-40/test_db
I0403 13:15:39.354425 31786 data_layer.cpp:41] output data size: 100,3,227,227
I0403 13:15:39.475378 31786 net.cpp:141] Setting up data
I0403 13:15:39.475484 31786 net.cpp:148] Top shape: 100 3 227 227 (15458700)
I0403 13:15:39.475508 31786 net.cpp:148] Top shape: 100 (100)
I0403 13:15:39.475523 31786 net.cpp:156] Memory required for data: 61835200
I0403 13:15:39.475553 31786 layer_factory.hpp:77] Creating layer label_data_1_split
I0403 13:15:39.475577 31786 net.cpp:91] Creating Layer label_data_1_split
I0403 13:15:39.475596 31786 net.cpp:425] label_data_1_split <- label
I0403 13:15:39.475627 31786 net.cpp:399] label_data_1_split -> label_data_1_split_0
I0403 13:15:39.475656 31786 net.cpp:399] label_data_1_split -> label_data_1_split_1
I0403 13:15:39.475677 31786 net.cpp:399] label_data_1_split -> label_data_1_split_2
I0403 13:15:39.475739 31786 net.cpp:141] Setting up label_data_1_split
I0403 13:15:39.475764 31786 net.cpp:148] Top shape: 100 (100)
I0403 13:15:39.475781 31786 net.cpp:148] Top shape: 100 (100)
I0403 13:15:39.475797 31786 net.cpp:148] Top shape: 100 (100)
I0403 13:15:39.475811 31786 net.cpp:156] Memory required for data: 61836400
I0403 13:15:39.475826 31786 layer_factory.hpp:77] Creating layer conv1
I0403 13:15:39.475859 31786 net.cpp:91] Creating Layer conv1
I0403 13:15:39.475878 31786 net.cpp:425] conv1 <- data
I0403 13:15:39.475899 31786 net.cpp:399] conv1 -> conv1
I0403 13:15:39.617074 31786 net.cpp:141] Setting up conv1
I0403 13:15:39.617164 31786 net.cpp:148] Top shape: 100 96 55 55 (29040000)
I0403 13:15:39.617182 31786 net.cpp:156] Memory required for data: 177996400
I0403 13:15:39.617214 31786 layer_factory.hpp:77] Creating layer relu1
I0403 13:15:39.617246 31786 net.cpp:91] Creating Layer relu1
I0403 13:15:39.617266 31786 net.cpp:425] relu1 <- conv1
I0403 13:15:39.617286 31786 net.cpp:386] relu1 -> conv1 (in-place)
I0403 13:15:39.617544 31786 net.cpp:141] Setting up relu1
I0403 13:15:39.617573 31786 net.cpp:148] Top shape: 100 96 55 55 (29040000)
I0403 13:15:39.617619 31786 net.cpp:156] Memory required for data: 294156400
I0403 13:15:39.617636 31786 layer_factory.hpp:77] Creating layer norm1
I0403 13:15:39.617663 31786 net.cpp:91] Creating Layer norm1
I0403 13:15:39.617682 31786 net.cpp:425] norm1 <- conv1
I0403 13:15:39.617700 31786 net.cpp:399] norm1 -> norm1
I0403 13:15:39.618013 31786 net.cpp:141] Setting up norm1
I0403 13:15:39.618042 31786 net.cpp:148] Top shape: 100 96 55 55 (29040000)
I0403 13:15:39.618058 31786 net.cpp:156] Memory required for data: 410316400
I0403 13:15:39.618074 31786 layer_factory.hpp:77] Creating layer pool1
I0403 13:15:39.618098 31786 net.cpp:91] Creating Layer pool1
I0403 13:15:39.618115 31786 net.cpp:425] pool1 <- norm1
I0403 13:15:39.618134 31786 net.cpp:399] pool1 -> pool1
I0403 13:15:39.618199 31786 net.cpp:141] Setting up pool1
I0403 13:15:39.618224 31786 net.cpp:148] Top shape: 100 96 27 27 (6998400)
I0403 13:15:39.618244 31786 net.cpp:156] Memory required for data: 438310000
I0403 13:15:39.618260 31786 layer_factory.hpp:77] Creating layer conv2
I0403 13:15:39.618286 31786 net.cpp:91] Creating Layer conv2
I0403 13:15:39.618304 31786 net.cpp:425] conv2 <- pool1
I0403 13:15:39.618324 31786 net.cpp:399] conv2 -> conv2
I0403 13:15:39.633391 31786 net.cpp:141] Setting up conv2
I0403 13:15:39.633462 31786 net.cpp:148] Top shape: 100 256 27 27 (18662400)
I0403 13:15:39.633482 31786 net.cpp:156] Memory required for data: 512959600
I0403 13:15:39.633507 31786 layer_factory.hpp:77] Creating layer relu2
I0403 13:15:39.633527 31786 net.cpp:91] Creating Layer relu2
I0403 13:15:39.633544 31786 net.cpp:425] relu2 <- conv2
I0403 13:15:39.633563 31786 net.cpp:386] relu2 -> conv2 (in-place)
I0403 13:15:39.633839 31786 net.cpp:141] Setting up relu2
I0403 13:15:39.633867 31786 net.cpp:148] Top shape: 100 256 27 27 (18662400)
I0403 13:15:39.633882 31786 net.cpp:156] Memory required for data: 587609200
I0403 13:15:39.633898 31786 layer_factory.hpp:77] Creating layer norm2
I0403 13:15:39.633919 31786 net.cpp:91] Creating Layer norm2
I0403 13:15:39.633935 31786 net.cpp:425] norm2 <- conv2
I0403 13:15:39.633955 31786 net.cpp:399] norm2 -> norm2
I0403 13:15:39.634147 31786 net.cpp:141] Setting up norm2
I0403 13:15:39.634173 31786 net.cpp:148] Top shape: 100 256 27 27 (18662400)
I0403 13:15:39.634188 31786 net.cpp:156] Memory required for data: 662258800
I0403 13:15:39.634204 31786 layer_factory.hpp:77] Creating layer pool2
I0403 13:15:39.634222 31786 net.cpp:91] Creating Layer pool2
I0403 13:15:39.634243 31786 net.cpp:425] pool2 <- norm2
I0403 13:15:39.634263 31786 net.cpp:399] pool2 -> pool2
I0403 13:15:39.634317 31786 net.cpp:141] Setting up pool2
I0403 13:15:39.634341 31786 net.cpp:148] Top shape: 100 256 13 13 (4326400)
I0403 13:15:39.634356 31786 net.cpp:156] Memory required for data: 679564400
I0403 13:15:39.634371 31786 layer_factory.hpp:77] Creating layer conv3
I0403 13:15:39.634397 31786 net.cpp:91] Creating Layer conv3
I0403 13:15:39.634414 31786 net.cpp:425] conv3 <- pool2
I0403 13:15:39.634433 31786 net.cpp:399] conv3 -> conv3
I0403 13:15:39.673367 31786 net.cpp:141] Setting up conv3
I0403 13:15:39.673451 31786 net.cpp:148] Top shape: 100 384 13 13 (6489600)
I0403 13:15:39.673470 31786 net.cpp:156] Memory required for data: 705522800
I0403 13:15:39.673496 31786 layer_factory.hpp:77] Creating layer relu3
I0403 13:15:39.673522 31786 net.cpp:91] Creating Layer relu3
I0403 13:15:39.673542 31786 net.cpp:425] relu3 <- conv3
I0403 13:15:39.673560 31786 net.cpp:386] relu3 -> conv3 (in-place)
I0403 13:15:39.673845 31786 net.cpp:141] Setting up relu3
I0403 13:15:39.673872 31786 net.cpp:148] Top shape: 100 384 13 13 (6489600)
I0403 13:15:39.673887 31786 net.cpp:156] Memory required for data: 731481200
I0403 13:15:39.673903 31786 layer_factory.hpp:77] Creating layer conv4
I0403 13:15:39.673929 31786 net.cpp:91] Creating Layer conv4
I0403 13:15:39.673946 31786 net.cpp:425] conv4 <- conv3
I0403 13:15:39.673969 31786 net.cpp:399] conv4 -> conv4
I0403 13:15:39.704809 31786 net.cpp:141] Setting up conv4
I0403 13:15:39.704887 31786 net.cpp:148] Top shape: 100 384 13 13 (6489600)
I0403 13:15:39.704937 31786 net.cpp:156] Memory required for data: 757439600
I0403 13:15:39.704962 31786 layer_factory.hpp:77] Creating layer relu4
I0403 13:15:39.704984 31786 net.cpp:91] Creating Layer relu4
I0403 13:15:39.705003 31786 net.cpp:425] relu4 <- conv4
I0403 13:15:39.705025 31786 net.cpp:386] relu4 -> conv4 (in-place)
I0403 13:15:39.705358 31786 net.cpp:141] Setting up relu4
I0403 13:15:39.705386 31786 net.cpp:148] Top shape: 100 384 13 13 (6489600)
I0403 13:15:39.705402 31786 net.cpp:156] Memory required for data: 783398000
I0403 13:15:39.705418 31786 layer_factory.hpp:77] Creating layer conv5
I0403 13:15:39.705446 31786 net.cpp:91] Creating Layer conv5
I0403 13:15:39.705464 31786 net.cpp:425] conv5 <- conv4
I0403 13:15:39.705487 31786 net.cpp:399] conv5 -> conv5
I0403 13:15:39.727100 31786 net.cpp:141] Setting up conv5
I0403 13:15:39.727170 31786 net.cpp:148] Top shape: 100 256 13 13 (4326400)
I0403 13:15:39.727188 31786 net.cpp:156] Memory required for data: 800703600
I0403 13:15:39.727215 31786 layer_factory.hpp:77] Creating layer relu5
I0403 13:15:39.727237 31786 net.cpp:91] Creating Layer relu5
I0403 13:15:39.727260 31786 net.cpp:425] relu5 <- conv5
I0403 13:15:39.727283 31786 net.cpp:386] relu5 -> conv5 (in-place)
I0403 13:15:39.727576 31786 net.cpp:141] Setting up relu5
I0403 13:15:39.727604 31786 net.cpp:148] Top shape: 100 256 13 13 (4326400)
I0403 13:15:39.727622 31786 net.cpp:156] Memory required for data: 818009200
I0403 13:15:39.727638 31786 layer_factory.hpp:77] Creating layer pool5
I0403 13:15:39.727663 31786 net.cpp:91] Creating Layer pool5
I0403 13:15:39.727681 31786 net.cpp:425] pool5 <- conv5
I0403 13:15:39.727701 31786 net.cpp:399] pool5 -> pool5
I0403 13:15:39.727831 31786 net.cpp:141] Setting up pool5
I0403 13:15:39.727859 31786 net.cpp:148] Top shape: 100 256 6 6 (921600)
I0403 13:15:39.727874 31786 net.cpp:156] Memory required for data: 821695600
I0403 13:15:39.727890 31786 layer_factory.hpp:77] Creating layer fc6
I0403 13:15:39.727921 31786 net.cpp:91] Creating Layer fc6
I0403 13:15:39.727941 31786 net.cpp:425] fc6 <- pool5
I0403 13:15:39.727960 31786 net.cpp:399] fc6 -> fc6
I0403 13:15:41.314841 31786 net.cpp:141] Setting up fc6
I0403 13:15:41.314919 31786 net.cpp:148] Top shape: 100 4096 (409600)
I0403 13:15:41.314935 31786 net.cpp:156] Memory required for data: 823334000
I0403 13:15:41.314956 31786 layer_factory.hpp:77] Creating layer relu6
I0403 13:15:41.314980 31786 net.cpp:91] Creating Layer relu6
I0403 13:15:41.314996 31786 net.cpp:425] relu6 <- fc6
I0403 13:15:41.315017 31786 net.cpp:386] relu6 -> fc6 (in-place)
I0403 13:15:41.315235 31786 net.cpp:141] Setting up relu6
I0403 13:15:41.315265 31786 net.cpp:148] Top shape: 100 4096 (409600)
I0403 13:15:41.315280 31786 net.cpp:156] Memory required for data: 824972400
I0403 13:15:41.315295 31786 layer_factory.hpp:77] Creating layer drop6
I0403 13:15:41.315313 31786 net.cpp:91] Creating Layer drop6
I0403 13:15:41.315328 31786 net.cpp:425] drop6 <- fc6
I0403 13:15:41.315347 31786 net.cpp:386] drop6 -> fc6 (in-place)
I0403 13:15:41.315400 31786 net.cpp:141] Setting up drop6
I0403 13:15:41.315423 31786 net.cpp:148] Top shape: 100 4096 (409600)
I0403 13:15:41.315438 31786 net.cpp:156] Memory required for data: 826610800
I0403 13:15:41.315453 31786 layer_factory.hpp:77] Creating layer fc7
I0403 13:15:41.315471 31786 net.cpp:91] Creating Layer fc7
I0403 13:15:41.315487 31786 net.cpp:425] fc7 <- fc6
I0403 13:15:41.315510 31786 net.cpp:399] fc7 -> fc7
I0403 13:15:42.051067 31786 net.cpp:141] Setting up fc7
I0403 13:15:42.051167 31786 net.cpp:148] Top shape: 100 4096 (409600)
I0403 13:15:42.051184 31786 net.cpp:156] Memory required for data: 828249200
I0403 13:15:42.051206 31786 layer_factory.hpp:77] Creating layer relu7
I0403 13:15:42.051231 31786 net.cpp:91] Creating Layer relu7
I0403 13:15:42.051255 31786 net.cpp:425] relu7 <- fc7
I0403 13:15:42.051276 31786 net.cpp:386] relu7 -> fc7 (in-place)
I0403 13:15:43.650259 31786 net.cpp:141] Setting up relu7
I0403 13:15:43.650398 31786 net.cpp:148] Top shape: 100 4096 (409600)
I0403 13:15:43.650462 31786 net.cpp:156] Memory required for data: 829887600
I0403 13:15:43.650508 31786 layer_factory.hpp:77] Creating layer drop7
I0403 13:15:43.650547 31786 net.cpp:91] Creating Layer drop7
I0403 13:15:43.650590 31786 net.cpp:425] drop7 <- fc7
I0403 13:15:43.650615 31786 net.cpp:386] drop7 -> fc7 (in-place)
I0403 13:15:43.650712 31786 net.cpp:141] Setting up drop7
I0403 13:15:43.650751 31786 net.cpp:148] Top shape: 100 4096 (409600)
I0403 13:15:43.650768 31786 net.cpp:156] Memory required for data: 831526000
I0403 13:15:43.650781 31786 layer_factory.hpp:77] Creating layer fc8_plantvillage
I0403 13:15:43.650800 31786 net.cpp:91] Creating Layer fc8_plantvillage
I0403 13:15:43.650815 31786 net.cpp:425] fc8_plantvillage <- fc7
I0403 13:15:43.650835 31786 net.cpp:399] fc8_plantvillage -> fc8_plantvillage
I0403 13:15:43.658121 31786 net.cpp:141] Setting up fc8_plantvillage
I0403 13:15:43.658151 31786 net.cpp:148] Top shape: 100 38 (3800)
I0403 13:15:43.658166 31786 net.cpp:156] Memory required for data: 831541200
I0403 13:15:43.658185 31786 layer_factory.hpp:77] Creating layer fc8_plantvillage_fc8_plantvillage_0_split
I0403 13:15:43.658207 31786 net.cpp:91] Creating Layer fc8_plantvillage_fc8_plantvillage_0_split
I0403 13:15:43.658224 31786 net.cpp:425] fc8_plantvillage_fc8_plantvillage_0_split <- fc8_plantvillage
I0403 13:15:43.658246 31786 net.cpp:399] fc8_plantvillage_fc8_plantvillage_0_split -> fc8_plantvillage_fc8_plantvillage_0_split_0
I0403 13:15:43.658267 31786 net.cpp:399] fc8_plantvillage_fc8_plantvillage_0_split -> fc8_plantvillage_fc8_plantvillage_0_split_1
I0403 13:15:43.658288 31786 net.cpp:399] fc8_plantvillage_fc8_plantvillage_0_split -> fc8_plantvillage_fc8_plantvillage_0_split_2
I0403 13:15:43.658363 31786 net.cpp:141] Setting up fc8_plantvillage_fc8_plantvillage_0_split
I0403 13:15:43.658387 31786 net.cpp:148] Top shape: 100 38 (3800)
I0403 13:15:43.658403 31786 net.cpp:148] Top shape: 100 38 (3800)
I0403 13:15:43.658419 31786 net.cpp:148] Top shape: 100 38 (3800)
I0403 13:15:43.658434 31786 net.cpp:156] Memory required for data: 831586800
I0403 13:15:43.658448 31786 layer_factory.hpp:77] Creating layer prob
I0403 13:15:43.658466 31786 net.cpp:91] Creating Layer prob
I0403 13:15:43.658483 31786 net.cpp:425] prob <- fc8_plantvillage_fc8_plantvillage_0_split_0
I0403 13:15:43.658502 31786 net.cpp:399] prob -> prob
I0403 13:15:43.658733 31786 net.cpp:141] Setting up prob
I0403 13:15:43.658759 31786 net.cpp:148] Top shape: 100 38 (3800)
I0403 13:15:43.658773 31786 net.cpp:156] Memory required for data: 831602000
I0403 13:15:43.658788 31786 layer_factory.hpp:77] Creating layer hdf5out
I0403 13:15:43.658807 31786 net.cpp:91] Creating Layer hdf5out
I0403 13:15:43.658826 31786 net.cpp:425] hdf5out <- prob
I0403 13:15:43.658843 31786 net.cpp:425] hdf5out <- label_data_1_split_0
I0403 13:15:43.661862 31786 net.cpp:141] Setting up hdf5out
…
