…
I0403 13:22:38.367033 31994 net.cpp:313] The NetState phase (1) differed from the phase (0) specified by a rule in layer data
I0403 13:22:38.367360 31994 net.cpp:49] Initializing net from parameters: 
state {
  phase: TEST
}
layer {
  name: "data"
  type: "Data"
  top: "data"
  top: "label"
  include {
    phase: TEST
  }
  transform_param {
    crop_size: 227
    mean_file: "/home/mohanty/data/final_dataset/lmdb/segmented-60-40/mean.binaryproto"
  }
  data_param {
    source: "/home/mohanty/data/final_dataset/lmdb/segmented-60-40/test_db"
    batch_size: 100
    backend: LMDB
  }
}
layer {
  name: "conv1"
  type: "Convolution"
  bottom: "data"
  top: "conv1"
  param {
    lr_mult: 1
    decay_mult: 1
  }
  param {
    lr_mult: 2
    decay_mult: 0
  }
  convolution_param {
    num_output: 96
    kernel_size: 11
    stride: 4
    weight_filler {
      type: "gaussian"
      std: 0.01
    }
    bias_filler {
      type: "constant"
      value: 0
    }
  }
}
layer {
  name: "relu1"
  type: "ReLU"
  bottom: "conv1"
  top: "conv1"
}
layer {
  name: "norm1"
  type: "LRN"
  bottom: "conv1"
  top: "norm1"
  lrn_param {
    local_size: 5
    alpha: 0.0001
    beta: 0.75
  }
}
layer {
  name: "pool1"
  type: "Pooling"
  bottom: "norm1"
  top: "pool1"
  pooling_param {
    pool: MAX
    kernel_size: 3
    stride: 2
  }
}
layer {
  name: "conv2"
  type: "Convolution"
  bottom: "pool1"
  top: "conv2"
  param {
    lr_mult: 1
    decay_mult: 1
  }
  param {
    lr_mult: 2
    decay_mult: 0
  }
  convolution_param {
    num_output: 256
    pad: 2
    kernel_size: 5
    group: 2
    weight_filler {
      type: "gaussian"
      std: 0.01
    }
    bias_filler {
      type: "constant"
      value: 0.1
    }
  }
}
layer {
  name: "relu2"
  type: "ReLU"
  bottom: "conv2"
  top: "conv2"
}
layer {
  name: "norm2"
  type: "LRN"
  bottom: "conv2"
  top: "norm2"
  lrn_param {
    local_size: 5
    alpha: 0.0001
    beta: 0.75
  }
}
layer {
  name: "pool2"
  type: "Pooling"
  bottom: "norm2"
  top: "pool2"
  pooling_param {
    pool: MAX
    kernel_size: 3
    stride: 2
  }
}
layer {
  name: "conv3"
  type: "Convolution"
  bottom: "pool2"
  top: "conv3"
  param {
    lr_mult: 1
    decay_mult: 1
  }
  param {
    lr_mult: 2
    decay_mult: 0
  }
  convolution_param {
    num_output: 384
    pad: 1
    kernel_size: 3
    weight_filler {
      type: "gaussian"
      std: 0.01
    }
    bias_filler {
      type: "constant"
      value: 0
    }
  }
}
layer {
  name: "relu3"
  type: "ReLU"
  bottom: "conv3"
  top: "conv3"
}
layer {
  name: "conv4"
  type: "Convolution"
  bottom: "conv3"
  top: "conv4"
  param {
    lr_mult: 1
    decay_mult: 1
  }
  param {
    lr_mult: 2
    decay_mult: 0
  }
  convolution_param {
    num_output: 384
    pad: 1
    kernel_size: 3
    group: 2
    weight_filler {
      type: "gaussian"
      std: 0.01
    }
    bias_filler {
      type: "constant"
      value: 0.1
    }
  }
}
layer {
  name: "relu4"
  type: "ReLU"
  bottom: "conv4"
  top: "conv4"
}
layer {
  name: "conv5"
  type: "Convolution"
  bottom: "conv4"
  top: "conv5"
  param {
    lr_mult: 1
    decay_mult: 1
  }
  param {
    lr_mult: 2
    decay_mult: 0
  }
  convolution_param {
    num_output: 256
    pad: 1
    kernel_size: 3
    group: 2
    weight_filler {
      type: "gaussian"
      std: 0.01
    }
    bias_filler {
      type: "constant"
      value: 0.1
    }
  }
}
layer {
  name: "relu5"
  type: "ReLU"
  bottom: "conv5"
  top: "conv5"
}
layer {
  name: "pool5"
  type: "Pooling"
  bottom: "conv5"
  top: "pool5"
  pooling_param {
    pool: MAX
    kernel_size: 3
    stride: 2
  }
}
layer {
  name: "fc6"
  type: "InnerProduct"
  bottom: "pool5"
  top: "fc6"
  param {
    lr_mult: 1
    decay_mult: 1
  }
  param {
    lr_mult: 2
    decay_mult: 0
  }
  inner_product_param {
    num_output: 4096
    weight_filler {
      type: "gaussian"
      std: 0.005
    }
    bias_filler {
      type: "constant"
      value: 0.1
    }
  }
}
layer {
  name: "relu6"
  type: "ReLU"
  bottom: "fc6"
  top: "fc6"
}
layer {
  name: "drop6"
  type: "Dropout"
  bottom: "fc6"
  top: "fc6"
  dropout_param {
    dropout_ratio: 0.5
  }
}
layer {
  name: "fc7"
  type: "InnerProduct"
  bottom: "fc6"
  top: "fc7"
  param {
    lr_mult: 1
    decay_mult: 1
  }
  param {
    lr_mult: 2
    decay_mult: 0
  }
  inner_product_param {
    num_output: 4096
    weight_filler {
      type: "gaussian"
      std: 0.005
    }
    bias_filler {
      type: "constant"
      value: 0.1
    }
  }
}
layer {
  name: "relu7"
  type: "ReLU"
  bottom: "fc7"
  top: "fc7"
}
layer {
  name: "drop7"
  type: "Dropout"
  bottom: "fc7"
  top: "fc7"
  dropout_param {
    dropout_ratio: 0.5
  }
}
layer {
  name: "fc8_plantvillage"
  type: "InnerProduct"
  bottom: "fc7"
  top: "fc8_plantvillage"
  param {
    lr_mult: 1
    decay_mult: 1
  }
  param {
    lr_mult: 2
    decay_mult: 0
  }
  inner_product_param {
    num_output: 38
    weight_filler {
      type: "gaussian"
      std: 0.01
    }
    bias_filler {
      type: "constant"
      value: 0
    }
  }
}
layer {
  name: "prob"
  type: "Softmax"
  bottom: "fc8_plantvillage"
  top: "prob"
  include {
    phase: TEST
  }
}
layer {
  name: "hdf5out"
  type: "HDF5Output"
  bottom: "prob"
  bottom: "label"
  include {
    phase: TEST
  }
  hdf5_output_param {
    file_name: "hdf5_dumps/iter_8450.h5"
  }
}
layer {
  name: "loss"
  type: "SoftmaxWithLoss"
  bottom: "fc8_plantvillage"
  bottom: "label"
  top: "loss"
}
layer {
  name: "accuracy"
  type: "Accuracy"
  bottom: "fc8_plantvillage"
  bottom: "label"
  top: "accuracy"
  include {
    phase: TEST
  }
}
I0403 13:22:38.367897 31994 layer_factory.hpp:77] Creating layer data
I0403 13:22:38.368558 31994 net.cpp:91] Creating Layer data
I0403 13:22:38.368590 31994 net.cpp:399] data -> data
I0403 13:22:38.368644 31994 net.cpp:399] data -> label
I0403 13:22:38.368683 31994 data_transformer.cpp:25] Loading mean file from: /home/mohanty/data/final_dataset/lmdb/segmented-60-40/mean.binaryproto
I0403 13:22:38.371462 31997 db_lmdb.cpp:38] Opened lmdb /home/mohanty/data/final_dataset/lmdb/segmented-60-40/test_db
I0403 13:22:38.383422 31994 data_layer.cpp:41] output data size: 100,3,227,227
I0403 13:22:38.504976 31994 net.cpp:141] Setting up data
I0403 13:22:38.505064 31994 net.cpp:148] Top shape: 100 3 227 227 (15458700)
I0403 13:22:38.505087 31994 net.cpp:148] Top shape: 100 (100)
I0403 13:22:38.505105 31994 net.cpp:156] Memory required for data: 61835200
I0403 13:22:38.505133 31994 layer_factory.hpp:77] Creating layer label_data_1_split
I0403 13:22:38.505161 31994 net.cpp:91] Creating Layer label_data_1_split
I0403 13:22:38.505179 31994 net.cpp:425] label_data_1_split <- label
I0403 13:22:38.505213 31994 net.cpp:399] label_data_1_split -> label_data_1_split_0
I0403 13:22:38.505241 31994 net.cpp:399] label_data_1_split -> label_data_1_split_1
I0403 13:22:38.505264 31994 net.cpp:399] label_data_1_split -> label_data_1_split_2
I0403 13:22:38.505336 31994 net.cpp:141] Setting up label_data_1_split
I0403 13:22:38.505362 31994 net.cpp:148] Top shape: 100 (100)
I0403 13:22:38.505380 31994 net.cpp:148] Top shape: 100 (100)
I0403 13:22:38.505398 31994 net.cpp:148] Top shape: 100 (100)
I0403 13:22:38.505414 31994 net.cpp:156] Memory required for data: 61836400
I0403 13:22:38.505429 31994 layer_factory.hpp:77] Creating layer conv1
I0403 13:22:38.505462 31994 net.cpp:91] Creating Layer conv1
I0403 13:22:38.505481 31994 net.cpp:425] conv1 <- data
I0403 13:22:38.505502 31994 net.cpp:399] conv1 -> conv1
I0403 13:22:38.649920 31994 net.cpp:141] Setting up conv1
I0403 13:22:38.650032 31994 net.cpp:148] Top shape: 100 96 55 55 (29040000)
I0403 13:22:38.650053 31994 net.cpp:156] Memory required for data: 177996400
I0403 13:22:38.650085 31994 layer_factory.hpp:77] Creating layer relu1
I0403 13:22:38.650115 31994 net.cpp:91] Creating Layer relu1
I0403 13:22:38.650135 31994 net.cpp:425] relu1 <- conv1
I0403 13:22:38.650154 31994 net.cpp:386] relu1 -> conv1 (in-place)
I0403 13:22:38.650424 31994 net.cpp:141] Setting up relu1
I0403 13:22:38.650454 31994 net.cpp:148] Top shape: 100 96 55 55 (29040000)
I0403 13:22:38.650502 31994 net.cpp:156] Memory required for data: 294156400
I0403 13:22:38.650519 31994 layer_factory.hpp:77] Creating layer norm1
I0403 13:22:38.650548 31994 net.cpp:91] Creating Layer norm1
I0403 13:22:38.650568 31994 net.cpp:425] norm1 <- conv1
I0403 13:22:38.650588 31994 net.cpp:399] norm1 -> norm1
I0403 13:22:38.650904 31994 net.cpp:141] Setting up norm1
I0403 13:22:38.650933 31994 net.cpp:148] Top shape: 100 96 55 55 (29040000)
I0403 13:22:38.650950 31994 net.cpp:156] Memory required for data: 410316400
I0403 13:22:38.650967 31994 layer_factory.hpp:77] Creating layer pool1
I0403 13:22:38.650992 31994 net.cpp:91] Creating Layer pool1
I0403 13:22:38.651010 31994 net.cpp:425] pool1 <- norm1
I0403 13:22:38.651031 31994 net.cpp:399] pool1 -> pool1
I0403 13:22:38.651100 31994 net.cpp:141] Setting up pool1
I0403 13:22:38.651125 31994 net.cpp:148] Top shape: 100 96 27 27 (6998400)
I0403 13:22:38.651141 31994 net.cpp:156] Memory required for data: 438310000
I0403 13:22:38.651159 31994 layer_factory.hpp:77] Creating layer conv2
I0403 13:22:38.651185 31994 net.cpp:91] Creating Layer conv2
I0403 13:22:38.651202 31994 net.cpp:425] conv2 <- pool1
I0403 13:22:38.651223 31994 net.cpp:399] conv2 -> conv2
I0403 13:22:38.666601 31994 net.cpp:141] Setting up conv2
I0403 13:22:38.666654 31994 net.cpp:148] Top shape: 100 256 27 27 (18662400)
I0403 13:22:38.666672 31994 net.cpp:156] Memory required for data: 512959600
I0403 13:22:38.666697 31994 layer_factory.hpp:77] Creating layer relu2
I0403 13:22:38.666718 31994 net.cpp:91] Creating Layer relu2
I0403 13:22:38.666736 31994 net.cpp:425] relu2 <- conv2
I0403 13:22:38.666756 31994 net.cpp:386] relu2 -> conv2 (in-place)
I0403 13:22:38.667062 31994 net.cpp:141] Setting up relu2
I0403 13:22:38.667090 31994 net.cpp:148] Top shape: 100 256 27 27 (18662400)
I0403 13:22:38.667107 31994 net.cpp:156] Memory required for data: 587609200
I0403 13:22:38.667124 31994 layer_factory.hpp:77] Creating layer norm2
I0403 13:22:38.667145 31994 net.cpp:91] Creating Layer norm2
I0403 13:22:38.667162 31994 net.cpp:425] norm2 <- conv2
I0403 13:22:38.667182 31994 net.cpp:399] norm2 -> norm2
I0403 13:22:38.667392 31994 net.cpp:141] Setting up norm2
I0403 13:22:38.667420 31994 net.cpp:148] Top shape: 100 256 27 27 (18662400)
I0403 13:22:38.667436 31994 net.cpp:156] Memory required for data: 662258800
I0403 13:22:38.667454 31994 layer_factory.hpp:77] Creating layer pool2
I0403 13:22:38.667474 31994 net.cpp:91] Creating Layer pool2
I0403 13:22:38.667491 31994 net.cpp:425] pool2 <- norm2
I0403 13:22:38.667511 31994 net.cpp:399] pool2 -> pool2
I0403 13:22:38.667565 31994 net.cpp:141] Setting up pool2
I0403 13:22:38.667588 31994 net.cpp:148] Top shape: 100 256 13 13 (4326400)
I0403 13:22:38.667604 31994 net.cpp:156] Memory required for data: 679564400
I0403 13:22:38.667621 31994 layer_factory.hpp:77] Creating layer conv3
I0403 13:22:38.667644 31994 net.cpp:91] Creating Layer conv3
I0403 13:22:38.667662 31994 net.cpp:425] conv3 <- pool2
I0403 13:22:38.667682 31994 net.cpp:399] conv3 -> conv3
I0403 13:22:38.707707 31994 net.cpp:141] Setting up conv3
I0403 13:22:38.707794 31994 net.cpp:148] Top shape: 100 384 13 13 (6489600)
I0403 13:22:38.707811 31994 net.cpp:156] Memory required for data: 705522800
I0403 13:22:38.707839 31994 layer_factory.hpp:77] Creating layer relu3
I0403 13:22:38.707862 31994 net.cpp:91] Creating Layer relu3
I0403 13:22:38.707881 31994 net.cpp:425] relu3 <- conv3
I0403 13:22:38.707901 31994 net.cpp:386] relu3 -> conv3 (in-place)
I0403 13:22:38.708190 31994 net.cpp:141] Setting up relu3
I0403 13:22:38.708220 31994 net.cpp:148] Top shape: 100 384 13 13 (6489600)
I0403 13:22:38.708237 31994 net.cpp:156] Memory required for data: 731481200
I0403 13:22:38.708255 31994 layer_factory.hpp:77] Creating layer conv4
I0403 13:22:38.708290 31994 net.cpp:91] Creating Layer conv4
I0403 13:22:38.708312 31994 net.cpp:425] conv4 <- conv3
I0403 13:22:38.708333 31994 net.cpp:399] conv4 -> conv4
I0403 13:22:38.739482 31994 net.cpp:141] Setting up conv4
I0403 13:22:38.739559 31994 net.cpp:148] Top shape: 100 384 13 13 (6489600)
I0403 13:22:38.739610 31994 net.cpp:156] Memory required for data: 757439600
I0403 13:22:38.739634 31994 layer_factory.hpp:77] Creating layer relu4
I0403 13:22:38.739660 31994 net.cpp:91] Creating Layer relu4
I0403 13:22:38.739680 31994 net.cpp:425] relu4 <- conv4
I0403 13:22:38.739701 31994 net.cpp:386] relu4 -> conv4 (in-place)
I0403 13:22:38.739998 31994 net.cpp:141] Setting up relu4
I0403 13:22:38.740054 31994 net.cpp:148] Top shape: 100 384 13 13 (6489600)
I0403 13:22:38.740075 31994 net.cpp:156] Memory required for data: 783398000
I0403 13:22:38.740092 31994 layer_factory.hpp:77] Creating layer conv5
I0403 13:22:38.740119 31994 net.cpp:91] Creating Layer conv5
I0403 13:22:38.740139 31994 net.cpp:425] conv5 <- conv4
I0403 13:22:38.740162 31994 net.cpp:399] conv5 -> conv5
I0403 13:22:38.761780 31994 net.cpp:141] Setting up conv5
I0403 13:22:38.761849 31994 net.cpp:148] Top shape: 100 256 13 13 (4326400)
I0403 13:22:38.761867 31994 net.cpp:156] Memory required for data: 800703600
I0403 13:22:38.761896 31994 layer_factory.hpp:77] Creating layer relu5
I0403 13:22:38.761919 31994 net.cpp:91] Creating Layer relu5
I0403 13:22:38.761940 31994 net.cpp:425] relu5 <- conv5
I0403 13:22:38.761958 31994 net.cpp:386] relu5 -> conv5 (in-place)
I0403 13:22:38.762258 31994 net.cpp:141] Setting up relu5
I0403 13:22:38.762300 31994 net.cpp:148] Top shape: 100 256 13 13 (4326400)
I0403 13:22:38.762320 31994 net.cpp:156] Memory required for data: 818009200
I0403 13:22:38.762336 31994 layer_factory.hpp:77] Creating layer pool5
I0403 13:22:38.762359 31994 net.cpp:91] Creating Layer pool5
I0403 13:22:38.762378 31994 net.cpp:425] pool5 <- conv5
I0403 13:22:38.762401 31994 net.cpp:399] pool5 -> pool5
I0403 13:22:38.762538 31994 net.cpp:141] Setting up pool5
I0403 13:22:38.762564 31994 net.cpp:148] Top shape: 100 256 6 6 (921600)
I0403 13:22:38.762581 31994 net.cpp:156] Memory required for data: 821695600
I0403 13:22:38.762598 31994 layer_factory.hpp:77] Creating layer fc6
I0403 13:22:38.762630 31994 net.cpp:91] Creating Layer fc6
I0403 13:22:38.762650 31994 net.cpp:425] fc6 <- pool5
I0403 13:22:38.762672 31994 net.cpp:399] fc6 -> fc6
I0403 13:22:40.344072 31994 net.cpp:141] Setting up fc6
I0403 13:22:40.344146 31994 net.cpp:148] Top shape: 100 4096 (409600)
I0403 13:22:40.344161 31994 net.cpp:156] Memory required for data: 823334000
I0403 13:22:40.344184 31994 layer_factory.hpp:77] Creating layer relu6
I0403 13:22:40.344207 31994 net.cpp:91] Creating Layer relu6
I0403 13:22:40.344223 31994 net.cpp:425] relu6 <- fc6
I0403 13:22:40.344245 31994 net.cpp:386] relu6 -> fc6 (in-place)
I0403 13:22:40.344491 31994 net.cpp:141] Setting up relu6
I0403 13:22:40.344519 31994 net.cpp:148] Top shape: 100 4096 (409600)
I0403 13:22:40.344535 31994 net.cpp:156] Memory required for data: 824972400
I0403 13:22:40.344552 31994 layer_factory.hpp:77] Creating layer drop6
I0403 13:22:40.344571 31994 net.cpp:91] Creating Layer drop6
I0403 13:22:40.344588 31994 net.cpp:425] drop6 <- fc6
I0403 13:22:40.344604 31994 net.cpp:386] drop6 -> fc6 (in-place)
I0403 13:22:40.344668 31994 net.cpp:141] Setting up drop6
I0403 13:22:40.344691 31994 net.cpp:148] Top shape: 100 4096 (409600)
I0403 13:22:40.344705 31994 net.cpp:156] Memory required for data: 826610800
I0403 13:22:40.344720 31994 layer_factory.hpp:77] Creating layer fc7
I0403 13:22:40.344743 31994 net.cpp:91] Creating Layer fc7
I0403 13:22:40.344760 31994 net.cpp:425] fc7 <- fc6
I0403 13:22:40.344779 31994 net.cpp:399] fc7 -> fc7
I0403 13:22:41.046301 31994 net.cpp:141] Setting up fc7
I0403 13:22:41.046360 31994 net.cpp:148] Top shape: 100 4096 (409600)
I0403 13:22:41.046378 31994 net.cpp:156] Memory required for data: 828249200
I0403 13:22:41.046402 31994 layer_factory.hpp:77] Creating layer relu7
I0403 13:22:41.046429 31994 net.cpp:91] Creating Layer relu7
I0403 13:22:41.046449 31994 net.cpp:425] relu7 <- fc7
I0403 13:22:41.046471 31994 net.cpp:386] relu7 -> fc7 (in-place)
I0403 13:22:41.046897 31994 net.cpp:141] Setting up relu7
I0403 13:22:41.046928 31994 net.cpp:148] Top shape: 100 4096 (409600)
I0403 13:22:41.046977 31994 net.cpp:156] Memory required for data: 829887600
I0403 13:22:41.046994 31994 layer_factory.hpp:77] Creating layer drop7
I0403 13:22:41.047018 31994 net.cpp:91] Creating Layer drop7
I0403 13:22:41.047035 31994 net.cpp:425] drop7 <- fc7
I0403 13:22:41.047055 31994 net.cpp:386] drop7 -> fc7 (in-place)
I0403 13:22:41.047103 31994 net.cpp:141] Setting up drop7
I0403 13:22:41.047127 31994 net.cpp:148] Top shape: 100 4096 (409600)
I0403 13:22:41.047143 31994 net.cpp:156] Memory required for data: 831526000
I0403 13:22:41.047159 31994 layer_factory.hpp:77] Creating layer fc8_plantvillage
I0403 13:22:41.047180 31994 net.cpp:91] Creating Layer fc8_plantvillage
I0403 13:22:41.047197 31994 net.cpp:425] fc8_plantvillage <- fc7
I0403 13:22:41.047224 31994 net.cpp:399] fc8_plantvillage -> fc8_plantvillage
I0403 13:22:41.054430 31994 net.cpp:141] Setting up fc8_plantvillage
I0403 13:22:41.054461 31994 net.cpp:148] Top shape: 100 38 (3800)
I0403 13:22:41.054478 31994 net.cpp:156] Memory required for data: 831541200
I0403 13:22:41.054497 31994 layer_factory.hpp:77] Creating layer fc8_plantvillage_fc8_plantvillage_0_split
I0403 13:22:41.054518 31994 net.cpp:91] Creating Layer fc8_plantvillage_fc8_plantvillage_0_split
I0403 13:22:41.054535 31994 net.cpp:425] fc8_plantvillage_fc8_plantvillage_0_split <- fc8_plantvillage
I0403 13:22:41.054554 31994 net.cpp:399] fc8_plantvillage_fc8_plantvillage_0_split -> fc8_plantvillage_fc8_plantvillage_0_split_0
I0403 13:22:41.054576 31994 net.cpp:399] fc8_plantvillage_fc8_plantvillage_0_split -> fc8_plantvillage_fc8_plantvillage_0_split_1
I0403 13:22:41.054600 31994 net.cpp:399] fc8_plantvillage_fc8_plantvillage_0_split -> fc8_plantvillage_fc8_plantvillage_0_split_2
I0403 13:22:41.054682 31994 net.cpp:141] Setting up fc8_plantvillage_fc8_plantvillage_0_split
I0403 13:22:41.054707 31994 net.cpp:148] Top shape: 100 38 (3800)
I0403 13:22:41.054724 31994 net.cpp:148] Top shape: 100 38 (3800)
I0403 13:22:41.054741 31994 net.cpp:148] Top shape: 100 38 (3800)
I0403 13:22:41.054756 31994 net.cpp:156] Memory required for data: 831586800
I0403 13:22:41.054772 31994 layer_factory.hpp:77] Creating layer prob
I0403 13:22:41.054792 31994 net.cpp:91] Creating Layer prob
I0403 13:22:41.054810 31994 net.cpp:425] prob <- fc8_plantvillage_fc8_plantvillage_0_split_0
I0403 13:22:41.054828 31994 net.cpp:399] prob -> prob
I0403 13:22:41.055069 31994 net.cpp:141] Setting up prob
I0403 13:22:41.055096 31994 net.cpp:148] Top shape: 100 38 (3800)
I0403 13:22:41.055112 31994 net.cpp:156] Memory required for data: 831602000
I0403 13:22:41.055130 31994 layer_factory.hpp:77] Creating layer hdf5out
I0403 13:22:41.055153 31994 net.cpp:91] Creating Layer hdf5out
I0403 13:22:41.055171 31994 net.cpp:425] hdf5out <- prob
I0403 13:22:41.055189 31994 net.cpp:425] hdf5out <- label_data_1_split_0
I0403 13:22:41.057525 31994 net.cpp:141] Setting up hdf5out
…
