…
I0403 13:12:52.225093 31702 net.cpp:313] The NetState phase (1) differed from the phase (0) specified by a rule in layer data
I0403 13:12:52.225422 31702 net.cpp:49] Initializing net from parameters: 
state {
  phase: TEST
}
layer {
  name: "data"
  type: "Data"
  top: "data"
  top: "label"
  include {
    phase: TEST
  }
  transform_param {
    crop_size: 227
    mean_file: "/home/mohanty/data/final_dataset/lmdb/segmented-60-40/mean.binaryproto"
  }
  data_param {
    source: "/home/mohanty/data/final_dataset/lmdb/segmented-60-40/test_db"
    batch_size: 100
    backend: LMDB
  }
}
layer {
  name: "conv1"
  type: "Convolution"
  bottom: "data"
  top: "conv1"
  param {
    lr_mult: 1
    decay_mult: 1
  }
  param {
    lr_mult: 2
    decay_mult: 0
  }
  convolution_param {
    num_output: 96
    kernel_size: 11
    stride: 4
    weight_filler {
      type: "gaussian"
      std: 0.01
    }
    bias_filler {
      type: "constant"
      value: 0
    }
  }
}
layer {
  name: "relu1"
  type: "ReLU"
  bottom: "conv1"
  top: "conv1"
}
layer {
  name: "norm1"
  type: "LRN"
  bottom: "conv1"
  top: "norm1"
  lrn_param {
    local_size: 5
    alpha: 0.0001
    beta: 0.75
  }
}
layer {
  name: "pool1"
  type: "Pooling"
  bottom: "norm1"
  top: "pool1"
  pooling_param {
    pool: MAX
    kernel_size: 3
    stride: 2
  }
}
layer {
  name: "conv2"
  type: "Convolution"
  bottom: "pool1"
  top: "conv2"
  param {
    lr_mult: 1
    decay_mult: 1
  }
  param {
    lr_mult: 2
    decay_mult: 0
  }
  convolution_param {
    num_output: 256
    pad: 2
    kernel_size: 5
    group: 2
    weight_filler {
      type: "gaussian"
      std: 0.01
    }
    bias_filler {
      type: "constant"
      value: 0.1
    }
  }
}
layer {
  name: "relu2"
  type: "ReLU"
  bottom: "conv2"
  top: "conv2"
}
layer {
  name: "norm2"
  type: "LRN"
  bottom: "conv2"
  top: "norm2"
  lrn_param {
    local_size: 5
    alpha: 0.0001
    beta: 0.75
  }
}
layer {
  name: "pool2"
  type: "Pooling"
  bottom: "norm2"
  top: "pool2"
  pooling_param {
    pool: MAX
    kernel_size: 3
    stride: 2
  }
}
layer {
  name: "conv3"
  type: "Convolution"
  bottom: "pool2"
  top: "conv3"
  param {
    lr_mult: 1
    decay_mult: 1
  }
  param {
    lr_mult: 2
    decay_mult: 0
  }
  convolution_param {
    num_output: 384
    pad: 1
    kernel_size: 3
    weight_filler {
      type: "gaussian"
      std: 0.01
    }
    bias_filler {
      type: "constant"
      value: 0
    }
  }
}
layer {
  name: "relu3"
  type: "ReLU"
  bottom: "conv3"
  top: "conv3"
}
layer {
  name: "conv4"
  type: "Convolution"
  bottom: "conv3"
  top: "conv4"
  param {
    lr_mult: 1
    decay_mult: 1
  }
  param {
    lr_mult: 2
    decay_mult: 0
  }
  convolution_param {
    num_output: 384
    pad: 1
    kernel_size: 3
    group: 2
    weight_filler {
      type: "gaussian"
      std: 0.01
    }
    bias_filler {
      type: "constant"
      value: 0.1
    }
  }
}
layer {
  name: "relu4"
  type: "ReLU"
  bottom: "conv4"
  top: "conv4"
}
layer {
  name: "conv5"
  type: "Convolution"
  bottom: "conv4"
  top: "conv5"
  param {
    lr_mult: 1
    decay_mult: 1
  }
  param {
    lr_mult: 2
    decay_mult: 0
  }
  convolution_param {
    num_output: 256
    pad: 1
    kernel_size: 3
    group: 2
    weight_filler {
      type: "gaussian"
      std: 0.01
    }
    bias_filler {
      type: "constant"
      value: 0.1
    }
  }
}
layer {
  name: "relu5"
  type: "ReLU"
  bottom: "conv5"
  top: "conv5"
}
layer {
  name: "pool5"
  type: "Pooling"
  bottom: "conv5"
  top: "pool5"
  pooling_param {
    pool: MAX
    kernel_size: 3
    stride: 2
  }
}
layer {
  name: "fc6"
  type: "InnerProduct"
  bottom: "pool5"
  top: "fc6"
  param {
    lr_mult: 1
    decay_mult: 1
  }
  param {
    lr_mult: 2
    decay_mult: 0
  }
  inner_product_param {
    num_output: 4096
    weight_filler {
      type: "gaussian"
      std: 0.005
    }
    bias_filler {
      type: "constant"
      value: 0.1
    }
  }
}
layer {
  name: "relu6"
  type: "ReLU"
  bottom: "fc6"
  top: "fc6"
}
layer {
  name: "drop6"
  type: "Dropout"
  bottom: "fc6"
  top: "fc6"
  dropout_param {
    dropout_ratio: 0.5
  }
}
layer {
  name: "fc7"
  type: "InnerProduct"
  bottom: "fc6"
  top: "fc7"
  param {
    lr_mult: 1
    decay_mult: 1
  }
  param {
    lr_mult: 2
    decay_mult: 0
  }
  inner_product_param {
    num_output: 4096
    weight_filler {
      type: "gaussian"
      std: 0.005
    }
    bias_filler {
      type: "constant"
      value: 0.1
    }
  }
}
layer {
  name: "relu7"
  type: "ReLU"
  bottom: "fc7"
  top: "fc7"
}
layer {
  name: "drop7"
  type: "Dropout"
  bottom: "fc7"
  top: "fc7"
  dropout_param {
    dropout_ratio: 0.5
  }
}
layer {
  name: "fc8_plantvillage"
  type: "InnerProduct"
  bottom: "fc7"
  top: "fc8_plantvillage"
  param {
    lr_mult: 1
    decay_mult: 1
  }
  param {
    lr_mult: 2
    decay_mult: 0
  }
  inner_product_param {
    num_output: 38
    weight_filler {
      type: "gaussian"
      std: 0.01
    }
    bias_filler {
      type: "constant"
      value: 0
    }
  }
}
layer {
  name: "prob"
  type: "Softmax"
  bottom: "fc8_plantvillage"
  top: "prob"
  include {
    phase: TEST
  }
}
layer {
  name: "hdf5out"
  type: "HDF5Output"
  bottom: "prob"
  bottom: "label"
  include {
    phase: TEST
  }
  hdf5_output_param {
    file_name: "hdf5_dumps/iter_3900.h5"
  }
}
layer {
  name: "loss"
  type: "SoftmaxWithLoss"
  bottom: "fc8_plantvillage"
  bottom: "label"
  top: "loss"
}
layer {
  name: "accuracy"
  type: "Accuracy"
  bottom: "fc8_plantvillage"
  bottom: "label"
  top: "accuracy"
  include {
    phase: TEST
  }
}
I0403 13:12:52.226016 31702 layer_factory.hpp:77] Creating layer data
I0403 13:12:52.226683 31702 net.cpp:91] Creating Layer data
I0403 13:12:52.226716 31702 net.cpp:399] data -> data
I0403 13:12:52.226769 31702 net.cpp:399] data -> label
I0403 13:12:52.226805 31702 data_transformer.cpp:25] Loading mean file from: /home/mohanty/data/final_dataset/lmdb/segmented-60-40/mean.binaryproto
I0403 13:12:52.229459 31707 db_lmdb.cpp:38] Opened lmdb /home/mohanty/data/final_dataset/lmdb/segmented-60-40/test_db
I0403 13:12:52.241358 31702 data_layer.cpp:41] output data size: 100,3,227,227
I0403 13:12:52.364424 31702 net.cpp:141] Setting up data
I0403 13:12:52.364532 31702 net.cpp:148] Top shape: 100 3 227 227 (15458700)
I0403 13:12:52.364557 31702 net.cpp:148] Top shape: 100 (100)
I0403 13:12:52.364572 31702 net.cpp:156] Memory required for data: 61835200
I0403 13:12:52.364600 31702 layer_factory.hpp:77] Creating layer label_data_1_split
I0403 13:12:52.364625 31702 net.cpp:91] Creating Layer label_data_1_split
I0403 13:12:52.364644 31702 net.cpp:425] label_data_1_split <- label
I0403 13:12:52.364675 31702 net.cpp:399] label_data_1_split -> label_data_1_split_0
I0403 13:12:52.364702 31702 net.cpp:399] label_data_1_split -> label_data_1_split_1
I0403 13:12:52.364724 31702 net.cpp:399] label_data_1_split -> label_data_1_split_2
I0403 13:12:52.364787 31702 net.cpp:141] Setting up label_data_1_split
I0403 13:12:52.364811 31702 net.cpp:148] Top shape: 100 (100)
I0403 13:12:52.364828 31702 net.cpp:148] Top shape: 100 (100)
I0403 13:12:52.364845 31702 net.cpp:148] Top shape: 100 (100)
I0403 13:12:52.364859 31702 net.cpp:156] Memory required for data: 61836400
I0403 13:12:52.364876 31702 layer_factory.hpp:77] Creating layer conv1
I0403 13:12:52.364909 31702 net.cpp:91] Creating Layer conv1
I0403 13:12:52.364928 31702 net.cpp:425] conv1 <- data
I0403 13:12:52.364949 31702 net.cpp:399] conv1 -> conv1
I0403 13:12:52.507725 31702 net.cpp:141] Setting up conv1
I0403 13:12:52.507815 31702 net.cpp:148] Top shape: 100 96 55 55 (29040000)
I0403 13:12:52.507834 31702 net.cpp:156] Memory required for data: 177996400
I0403 13:12:52.507868 31702 layer_factory.hpp:77] Creating layer relu1
I0403 13:12:52.507895 31702 net.cpp:91] Creating Layer relu1
I0403 13:12:52.507915 31702 net.cpp:425] relu1 <- conv1
I0403 13:12:52.507935 31702 net.cpp:386] relu1 -> conv1 (in-place)
I0403 13:12:52.508196 31702 net.cpp:141] Setting up relu1
I0403 13:12:52.508225 31702 net.cpp:148] Top shape: 100 96 55 55 (29040000)
I0403 13:12:52.508277 31702 net.cpp:156] Memory required for data: 294156400
I0403 13:12:52.508296 31702 layer_factory.hpp:77] Creating layer norm1
I0403 13:12:52.508324 31702 net.cpp:91] Creating Layer norm1
I0403 13:12:52.508343 31702 net.cpp:425] norm1 <- conv1
I0403 13:12:52.508363 31702 net.cpp:399] norm1 -> norm1
I0403 13:12:52.508678 31702 net.cpp:141] Setting up norm1
I0403 13:12:52.508707 31702 net.cpp:148] Top shape: 100 96 55 55 (29040000)
I0403 13:12:52.508723 31702 net.cpp:156] Memory required for data: 410316400
I0403 13:12:52.508739 31702 layer_factory.hpp:77] Creating layer pool1
I0403 13:12:52.508764 31702 net.cpp:91] Creating Layer pool1
I0403 13:12:52.508803 31702 net.cpp:425] pool1 <- norm1
I0403 13:12:52.508826 31702 net.cpp:399] pool1 -> pool1
I0403 13:12:52.508895 31702 net.cpp:141] Setting up pool1
I0403 13:12:52.508921 31702 net.cpp:148] Top shape: 100 96 27 27 (6998400)
I0403 13:12:52.508936 31702 net.cpp:156] Memory required for data: 438310000
I0403 13:12:52.508952 31702 layer_factory.hpp:77] Creating layer conv2
I0403 13:12:52.508976 31702 net.cpp:91] Creating Layer conv2
I0403 13:12:52.508993 31702 net.cpp:425] conv2 <- pool1
I0403 13:12:52.509012 31702 net.cpp:399] conv2 -> conv2
I0403 13:12:52.524652 31702 net.cpp:141] Setting up conv2
I0403 13:12:52.524713 31702 net.cpp:148] Top shape: 100 256 27 27 (18662400)
I0403 13:12:52.524731 31702 net.cpp:156] Memory required for data: 512959600
I0403 13:12:52.524755 31702 layer_factory.hpp:77] Creating layer relu2
I0403 13:12:52.524775 31702 net.cpp:91] Creating Layer relu2
I0403 13:12:52.524791 31702 net.cpp:425] relu2 <- conv2
I0403 13:12:52.524812 31702 net.cpp:386] relu2 -> conv2 (in-place)
I0403 13:12:52.525104 31702 net.cpp:141] Setting up relu2
I0403 13:12:52.525135 31702 net.cpp:148] Top shape: 100 256 27 27 (18662400)
I0403 13:12:52.525152 31702 net.cpp:156] Memory required for data: 587609200
I0403 13:12:52.525168 31702 layer_factory.hpp:77] Creating layer norm2
I0403 13:12:52.525192 31702 net.cpp:91] Creating Layer norm2
I0403 13:12:52.525209 31702 net.cpp:425] norm2 <- conv2
I0403 13:12:52.525228 31702 net.cpp:399] norm2 -> norm2
I0403 13:12:52.525441 31702 net.cpp:141] Setting up norm2
I0403 13:12:52.525472 31702 net.cpp:148] Top shape: 100 256 27 27 (18662400)
I0403 13:12:52.525490 31702 net.cpp:156] Memory required for data: 662258800
I0403 13:12:52.525506 31702 layer_factory.hpp:77] Creating layer pool2
I0403 13:12:52.525524 31702 net.cpp:91] Creating Layer pool2
I0403 13:12:52.525540 31702 net.cpp:425] pool2 <- norm2
I0403 13:12:52.525562 31702 net.cpp:399] pool2 -> pool2
I0403 13:12:52.525616 31702 net.cpp:141] Setting up pool2
I0403 13:12:52.525640 31702 net.cpp:148] Top shape: 100 256 13 13 (4326400)
I0403 13:12:52.525655 31702 net.cpp:156] Memory required for data: 679564400
I0403 13:12:52.525671 31702 layer_factory.hpp:77] Creating layer conv3
I0403 13:12:52.525696 31702 net.cpp:91] Creating Layer conv3
I0403 13:12:52.525712 31702 net.cpp:425] conv3 <- pool2
I0403 13:12:52.525734 31702 net.cpp:399] conv3 -> conv3
I0403 13:12:52.565765 31702 net.cpp:141] Setting up conv3
I0403 13:12:52.565853 31702 net.cpp:148] Top shape: 100 384 13 13 (6489600)
I0403 13:12:52.565871 31702 net.cpp:156] Memory required for data: 705522800
I0403 13:12:52.565897 31702 layer_factory.hpp:77] Creating layer relu3
I0403 13:12:52.565920 31702 net.cpp:91] Creating Layer relu3
I0403 13:12:52.565938 31702 net.cpp:425] relu3 <- conv3
I0403 13:12:52.565958 31702 net.cpp:386] relu3 -> conv3 (in-place)
I0403 13:12:52.566243 31702 net.cpp:141] Setting up relu3
I0403 13:12:52.566278 31702 net.cpp:148] Top shape: 100 384 13 13 (6489600)
I0403 13:12:52.566296 31702 net.cpp:156] Memory required for data: 731481200
I0403 13:12:52.566313 31702 layer_factory.hpp:77] Creating layer conv4
I0403 13:12:52.566339 31702 net.cpp:91] Creating Layer conv4
I0403 13:12:52.566357 31702 net.cpp:425] conv4 <- conv3
I0403 13:12:52.566377 31702 net.cpp:399] conv4 -> conv4
I0403 13:12:52.597460 31702 net.cpp:141] Setting up conv4
I0403 13:12:52.597540 31702 net.cpp:148] Top shape: 100 384 13 13 (6489600)
I0403 13:12:52.597589 31702 net.cpp:156] Memory required for data: 757439600
I0403 13:12:52.597612 31702 layer_factory.hpp:77] Creating layer relu4
I0403 13:12:52.597637 31702 net.cpp:91] Creating Layer relu4
I0403 13:12:52.597656 31702 net.cpp:425] relu4 <- conv4
I0403 13:12:52.597676 31702 net.cpp:386] relu4 -> conv4 (in-place)
I0403 13:12:52.597970 31702 net.cpp:141] Setting up relu4
I0403 13:12:52.597997 31702 net.cpp:148] Top shape: 100 384 13 13 (6489600)
I0403 13:12:52.598014 31702 net.cpp:156] Memory required for data: 783398000
I0403 13:12:52.598029 31702 layer_factory.hpp:77] Creating layer conv5
I0403 13:12:52.598055 31702 net.cpp:91] Creating Layer conv5
I0403 13:12:52.598073 31702 net.cpp:425] conv5 <- conv4
I0403 13:12:52.598095 31702 net.cpp:399] conv5 -> conv5
I0403 13:12:52.619336 31702 net.cpp:141] Setting up conv5
I0403 13:12:52.619396 31702 net.cpp:148] Top shape: 100 256 13 13 (4326400)
I0403 13:12:52.619413 31702 net.cpp:156] Memory required for data: 800703600
I0403 13:12:52.619441 31702 layer_factory.hpp:77] Creating layer relu5
I0403 13:12:52.619464 31702 net.cpp:91] Creating Layer relu5
I0403 13:12:52.619483 31702 net.cpp:425] relu5 <- conv5
I0403 13:12:52.619505 31702 net.cpp:386] relu5 -> conv5 (in-place)
I0403 13:12:52.619794 31702 net.cpp:141] Setting up relu5
I0403 13:12:52.619827 31702 net.cpp:148] Top shape: 100 256 13 13 (4326400)
I0403 13:12:52.619843 31702 net.cpp:156] Memory required for data: 818009200
I0403 13:12:52.619860 31702 layer_factory.hpp:77] Creating layer pool5
I0403 13:12:52.619882 31702 net.cpp:91] Creating Layer pool5
I0403 13:12:52.619899 31702 net.cpp:425] pool5 <- conv5
I0403 13:12:52.619921 31702 net.cpp:399] pool5 -> pool5
I0403 13:12:52.619984 31702 net.cpp:141] Setting up pool5
I0403 13:12:52.620012 31702 net.cpp:148] Top shape: 100 256 6 6 (921600)
I0403 13:12:52.620028 31702 net.cpp:156] Memory required for data: 821695600
I0403 13:12:52.620043 31702 layer_factory.hpp:77] Creating layer fc6
I0403 13:12:52.620071 31702 net.cpp:91] Creating Layer fc6
I0403 13:12:52.620090 31702 net.cpp:425] fc6 <- pool5
I0403 13:12:52.620111 31702 net.cpp:399] fc6 -> fc6
I0403 13:12:54.195647 31702 net.cpp:141] Setting up fc6
I0403 13:12:54.195735 31702 net.cpp:148] Top shape: 100 4096 (409600)
I0403 13:12:54.195751 31702 net.cpp:156] Memory required for data: 823334000
I0403 13:12:54.195773 31702 layer_factory.hpp:77] Creating layer relu6
I0403 13:12:54.195797 31702 net.cpp:91] Creating Layer relu6
I0403 13:12:54.195816 31702 net.cpp:425] relu6 <- fc6
I0403 13:12:54.195834 31702 net.cpp:386] relu6 -> fc6 (in-place)
I0403 13:12:54.196044 31702 net.cpp:141] Setting up relu6
I0403 13:12:54.196071 31702 net.cpp:148] Top shape: 100 4096 (409600)
I0403 13:12:54.196086 31702 net.cpp:156] Memory required for data: 824972400
I0403 13:12:54.196100 31702 layer_factory.hpp:77] Creating layer drop6
I0403 13:12:54.196118 31702 net.cpp:91] Creating Layer drop6
I0403 13:12:54.196135 31702 net.cpp:425] drop6 <- fc6
I0403 13:12:54.196151 31702 net.cpp:386] drop6 -> fc6 (in-place)
I0403 13:12:54.196204 31702 net.cpp:141] Setting up drop6
I0403 13:12:54.196228 31702 net.cpp:148] Top shape: 100 4096 (409600)
I0403 13:12:54.196241 31702 net.cpp:156] Memory required for data: 826610800
I0403 13:12:54.196255 31702 layer_factory.hpp:77] Creating layer fc7
I0403 13:12:54.196286 31702 net.cpp:91] Creating Layer fc7
I0403 13:12:54.196305 31702 net.cpp:425] fc7 <- fc6
I0403 13:12:54.196322 31702 net.cpp:399] fc7 -> fc7
I0403 13:12:54.885217 31702 net.cpp:141] Setting up fc7
I0403 13:12:54.885300 31702 net.cpp:148] Top shape: 100 4096 (409600)
I0403 13:12:54.885318 31702 net.cpp:156] Memory required for data: 828249200
I0403 13:12:54.885340 31702 layer_factory.hpp:77] Creating layer relu7
I0403 13:12:54.885362 31702 net.cpp:91] Creating Layer relu7
I0403 13:12:54.885380 31702 net.cpp:425] relu7 <- fc7
I0403 13:12:54.885398 31702 net.cpp:386] relu7 -> fc7 (in-place)
I0403 13:12:54.885857 31702 net.cpp:141] Setting up relu7
I0403 13:12:54.885885 31702 net.cpp:148] Top shape: 100 4096 (409600)
I0403 13:12:54.885947 31702 net.cpp:156] Memory required for data: 829887600
I0403 13:12:54.885964 31702 layer_factory.hpp:77] Creating layer drop7
I0403 13:12:54.885983 31702 net.cpp:91] Creating Layer drop7
I0403 13:12:54.885999 31702 net.cpp:425] drop7 <- fc7
I0403 13:12:54.886018 31702 net.cpp:386] drop7 -> fc7 (in-place)
I0403 13:12:54.886065 31702 net.cpp:141] Setting up drop7
I0403 13:12:54.886088 31702 net.cpp:148] Top shape: 100 4096 (409600)
I0403 13:12:54.886103 31702 net.cpp:156] Memory required for data: 831526000
I0403 13:12:54.886118 31702 layer_factory.hpp:77] Creating layer fc8_plantvillage
I0403 13:12:54.886139 31702 net.cpp:91] Creating Layer fc8_plantvillage
I0403 13:12:54.886157 31702 net.cpp:425] fc8_plantvillage <- fc7
I0403 13:12:54.886175 31702 net.cpp:399] fc8_plantvillage -> fc8_plantvillage
I0403 13:12:54.893160 31702 net.cpp:141] Setting up fc8_plantvillage
I0403 13:12:54.893189 31702 net.cpp:148] Top shape: 100 38 (3800)
I0403 13:12:54.893205 31702 net.cpp:156] Memory required for data: 831541200
I0403 13:12:54.893224 31702 layer_factory.hpp:77] Creating layer fc8_plantvillage_fc8_plantvillage_0_split
I0403 13:12:54.893242 31702 net.cpp:91] Creating Layer fc8_plantvillage_fc8_plantvillage_0_split
I0403 13:12:54.893259 31702 net.cpp:425] fc8_plantvillage_fc8_plantvillage_0_split <- fc8_plantvillage
I0403 13:12:54.893283 31702 net.cpp:399] fc8_plantvillage_fc8_plantvillage_0_split -> fc8_plantvillage_fc8_plantvillage_0_split_0
I0403 13:12:54.893306 31702 net.cpp:399] fc8_plantvillage_fc8_plantvillage_0_split -> fc8_plantvillage_fc8_plantvillage_0_split_1
I0403 13:12:54.893327 31702 net.cpp:399] fc8_plantvillage_fc8_plantvillage_0_split -> fc8_plantvillage_fc8_plantvillage_0_split_2
I0403 13:12:54.893405 31702 net.cpp:141] Setting up fc8_plantvillage_fc8_plantvillage_0_split
I0403 13:12:54.893429 31702 net.cpp:148] Top shape: 100 38 (3800)
I0403 13:12:54.893445 31702 net.cpp:148] Top shape: 100 38 (3800)
I0403 13:12:54.893462 31702 net.cpp:148] Top shape: 100 38 (3800)
I0403 13:12:54.893476 31702 net.cpp:156] Memory required for data: 831586800
I0403 13:12:54.893491 31702 layer_factory.hpp:77] Creating layer prob
I0403 13:12:54.893512 31702 net.cpp:91] Creating Layer prob
I0403 13:12:54.893529 31702 net.cpp:425] prob <- fc8_plantvillage_fc8_plantvillage_0_split_0
I0403 13:12:54.893548 31702 net.cpp:399] prob -> prob
I0403 13:12:54.893776 31702 net.cpp:141] Setting up prob
I0403 13:12:54.893806 31702 net.cpp:148] Top shape: 100 38 (3800)
I0403 13:12:54.893822 31702 net.cpp:156] Memory required for data: 831602000
I0403 13:12:54.893838 31702 layer_factory.hpp:77] Creating layer hdf5out
I0403 13:12:54.893857 31702 net.cpp:91] Creating Layer hdf5out
I0403 13:12:54.893872 31702 net.cpp:425] hdf5out <- prob
I0403 13:12:54.893888 31702 net.cpp:425] hdf5out <- label_data_1_split_0
I0403 13:12:54.896412 31702 net.cpp:141] Setting up hdf5out
…
