…
I0403 13:19:51.063984 31920 net.cpp:313] The NetState phase (1) differed from the phase (0) specified by a rule in layer data
I0403 13:19:51.064306 31920 net.cpp:49] Initializing net from parameters: 
state {
  phase: TEST
}
layer {
  name: "data"
  type: "Data"
  top: "data"
  top: "label"
  include {
    phase: TEST
  }
  transform_param {
    crop_size: 227
    mean_file: "/home/mohanty/data/final_dataset/lmdb/segmented-60-40/mean.binaryproto"
  }
  data_param {
    source: "/home/mohanty/data/final_dataset/lmdb/segmented-60-40/test_db"
    batch_size: 100
    backend: LMDB
  }
}
layer {
  name: "conv1"
  type: "Convolution"
  bottom: "data"
  top: "conv1"
  param {
    lr_mult: 1
    decay_mult: 1
  }
  param {
    lr_mult: 2
    decay_mult: 0
  }
  convolution_param {
    num_output: 96
    kernel_size: 11
    stride: 4
    weight_filler {
      type: "gaussian"
      std: 0.01
    }
    bias_filler {
      type: "constant"
      value: 0
    }
  }
}
layer {
  name: "relu1"
  type: "ReLU"
  bottom: "conv1"
  top: "conv1"
}
layer {
  name: "norm1"
  type: "LRN"
  bottom: "conv1"
  top: "norm1"
  lrn_param {
    local_size: 5
    alpha: 0.0001
    beta: 0.75
  }
}
layer {
  name: "pool1"
  type: "Pooling"
  bottom: "norm1"
  top: "pool1"
  pooling_param {
    pool: MAX
    kernel_size: 3
    stride: 2
  }
}
layer {
  name: "conv2"
  type: "Convolution"
  bottom: "pool1"
  top: "conv2"
  param {
    lr_mult: 1
    decay_mult: 1
  }
  param {
    lr_mult: 2
    decay_mult: 0
  }
  convolution_param {
    num_output: 256
    pad: 2
    kernel_size: 5
    group: 2
    weight_filler {
      type: "gaussian"
      std: 0.01
    }
    bias_filler {
      type: "constant"
      value: 0.1
    }
  }
}
layer {
  name: "relu2"
  type: "ReLU"
  bottom: "conv2"
  top: "conv2"
}
layer {
  name: "norm2"
  type: "LRN"
  bottom: "conv2"
  top: "norm2"
  lrn_param {
    local_size: 5
    alpha: 0.0001
    beta: 0.75
  }
}
layer {
  name: "pool2"
  type: "Pooling"
  bottom: "norm2"
  top: "pool2"
  pooling_param {
    pool: MAX
    kernel_size: 3
    stride: 2
  }
}
layer {
  name: "conv3"
  type: "Convolution"
  bottom: "pool2"
  top: "conv3"
  param {
    lr_mult: 1
    decay_mult: 1
  }
  param {
    lr_mult: 2
    decay_mult: 0
  }
  convolution_param {
    num_output: 384
    pad: 1
    kernel_size: 3
    weight_filler {
      type: "gaussian"
      std: 0.01
    }
    bias_filler {
      type: "constant"
      value: 0
    }
  }
}
layer {
  name: "relu3"
  type: "ReLU"
  bottom: "conv3"
  top: "conv3"
}
layer {
  name: "conv4"
  type: "Convolution"
  bottom: "conv3"
  top: "conv4"
  param {
    lr_mult: 1
    decay_mult: 1
  }
  param {
    lr_mult: 2
    decay_mult: 0
  }
  convolution_param {
    num_output: 384
    pad: 1
    kernel_size: 3
    group: 2
    weight_filler {
      type: "gaussian"
      std: 0.01
    }
    bias_filler {
      type: "constant"
      value: 0.1
    }
  }
}
layer {
  name: "relu4"
  type: "ReLU"
  bottom: "conv4"
  top: "conv4"
}
layer {
  name: "conv5"
  type: "Convolution"
  bottom: "conv4"
  top: "conv5"
  param {
    lr_mult: 1
    decay_mult: 1
  }
  param {
    lr_mult: 2
    decay_mult: 0
  }
  convolution_param {
    num_output: 256
    pad: 1
    kernel_size: 3
    group: 2
    weight_filler {
      type: "gaussian"
      std: 0.01
    }
    bias_filler {
      type: "constant"
      value: 0.1
    }
  }
}
layer {
  name: "relu5"
  type: "ReLU"
  bottom: "conv5"
  top: "conv5"
}
layer {
  name: "pool5"
  type: "Pooling"
  bottom: "conv5"
  top: "pool5"
  pooling_param {
    pool: MAX
    kernel_size: 3
    stride: 2
  }
}
layer {
  name: "fc6"
  type: "InnerProduct"
  bottom: "pool5"
  top: "fc6"
  param {
    lr_mult: 1
    decay_mult: 1
  }
  param {
    lr_mult: 2
    decay_mult: 0
  }
  inner_product_param {
    num_output: 4096
    weight_filler {
      type: "gaussian"
      std: 0.005
    }
    bias_filler {
      type: "constant"
      value: 0.1
    }
  }
}
layer {
  name: "relu6"
  type: "ReLU"
  bottom: "fc6"
  top: "fc6"
}
layer {
  name: "drop6"
  type: "Dropout"
  bottom: "fc6"
  top: "fc6"
  dropout_param {
    dropout_ratio: 0.5
  }
}
layer {
  name: "fc7"
  type: "InnerProduct"
  bottom: "fc6"
  top: "fc7"
  param {
    lr_mult: 1
    decay_mult: 1
  }
  param {
    lr_mult: 2
    decay_mult: 0
  }
  inner_product_param {
    num_output: 4096
    weight_filler {
      type: "gaussian"
      std: 0.005
    }
    bias_filler {
      type: "constant"
      value: 0.1
    }
  }
}
layer {
  name: "relu7"
  type: "ReLU"
  bottom: "fc7"
  top: "fc7"
}
layer {
  name: "drop7"
  type: "Dropout"
  bottom: "fc7"
  top: "fc7"
  dropout_param {
    dropout_ratio: 0.5
  }
}
layer {
  name: "fc8_plantvillage"
  type: "InnerProduct"
  bottom: "fc7"
  top: "fc8_plantvillage"
  param {
    lr_mult: 1
    decay_mult: 1
  }
  param {
    lr_mult: 2
    decay_mult: 0
  }
  inner_product_param {
    num_output: 38
    weight_filler {
      type: "gaussian"
      std: 0.01
    }
    bias_filler {
      type: "constant"
      value: 0
    }
  }
}
layer {
  name: "prob"
  type: "Softmax"
  bottom: "fc8_plantvillage"
  top: "prob"
  include {
    phase: TEST
  }
}
layer {
  name: "hdf5out"
  type: "HDF5Output"
  bottom: "prob"
  bottom: "label"
  include {
    phase: TEST
  }
  hdf5_output_param {
    file_name: "hdf5_dumps/iter_7150.h5"
  }
}
layer {
  name: "loss"
  type: "SoftmaxWithLoss"
  bottom: "fc8_plantvillage"
  bottom: "label"
  top: "loss"
}
layer {
  name: "accuracy"
  type: "Accuracy"
  bottom: "fc8_plantvillage"
  bottom: "label"
  top: "accuracy"
  include {
    phase: TEST
  }
}
I0403 13:19:51.064906 31920 layer_factory.hpp:77] Creating layer data
I0403 13:19:51.065575 31920 net.cpp:91] Creating Layer data
I0403 13:19:51.065606 31920 net.cpp:399] data -> data
I0403 13:19:51.065657 31920 net.cpp:399] data -> label
I0403 13:19:51.065696 31920 data_transformer.cpp:25] Loading mean file from: /home/mohanty/data/final_dataset/lmdb/segmented-60-40/mean.binaryproto
I0403 13:19:51.068573 31925 db_lmdb.cpp:38] Opened lmdb /home/mohanty/data/final_dataset/lmdb/segmented-60-40/test_db
I0403 13:19:51.079906 31920 data_layer.cpp:41] output data size: 100,3,227,227
I0403 13:19:51.199820 31920 net.cpp:141] Setting up data
I0403 13:19:51.199928 31920 net.cpp:148] Top shape: 100 3 227 227 (15458700)
I0403 13:19:51.199950 31920 net.cpp:148] Top shape: 100 (100)
I0403 13:19:51.199966 31920 net.cpp:156] Memory required for data: 61835200
I0403 13:19:51.199997 31920 layer_factory.hpp:77] Creating layer label_data_1_split
I0403 13:19:51.200023 31920 net.cpp:91] Creating Layer label_data_1_split
I0403 13:19:51.200042 31920 net.cpp:425] label_data_1_split <- label
I0403 13:19:51.200073 31920 net.cpp:399] label_data_1_split -> label_data_1_split_0
I0403 13:19:51.200101 31920 net.cpp:399] label_data_1_split -> label_data_1_split_1
I0403 13:19:51.200122 31920 net.cpp:399] label_data_1_split -> label_data_1_split_2
I0403 13:19:51.200188 31920 net.cpp:141] Setting up label_data_1_split
I0403 13:19:51.200212 31920 net.cpp:148] Top shape: 100 (100)
I0403 13:19:51.200229 31920 net.cpp:148] Top shape: 100 (100)
I0403 13:19:51.200245 31920 net.cpp:148] Top shape: 100 (100)
I0403 13:19:51.200260 31920 net.cpp:156] Memory required for data: 61836400
I0403 13:19:51.200279 31920 layer_factory.hpp:77] Creating layer conv1
I0403 13:19:51.200314 31920 net.cpp:91] Creating Layer conv1
I0403 13:19:51.200333 31920 net.cpp:425] conv1 <- data
I0403 13:19:51.200353 31920 net.cpp:399] conv1 -> conv1
I0403 13:19:51.343751 31920 net.cpp:141] Setting up conv1
I0403 13:19:51.343842 31920 net.cpp:148] Top shape: 100 96 55 55 (29040000)
I0403 13:19:51.343859 31920 net.cpp:156] Memory required for data: 177996400
I0403 13:19:51.343893 31920 layer_factory.hpp:77] Creating layer relu1
I0403 13:19:51.343920 31920 net.cpp:91] Creating Layer relu1
I0403 13:19:51.343940 31920 net.cpp:425] relu1 <- conv1
I0403 13:19:51.343961 31920 net.cpp:386] relu1 -> conv1 (in-place)
I0403 13:19:51.344234 31920 net.cpp:141] Setting up relu1
I0403 13:19:51.344262 31920 net.cpp:148] Top shape: 100 96 55 55 (29040000)
I0403 13:19:51.344316 31920 net.cpp:156] Memory required for data: 294156400
I0403 13:19:51.344336 31920 layer_factory.hpp:77] Creating layer norm1
I0403 13:19:51.344365 31920 net.cpp:91] Creating Layer norm1
I0403 13:19:51.344385 31920 net.cpp:425] norm1 <- conv1
I0403 13:19:51.344404 31920 net.cpp:399] norm1 -> norm1
I0403 13:19:51.344751 31920 net.cpp:141] Setting up norm1
I0403 13:19:51.344781 31920 net.cpp:148] Top shape: 100 96 55 55 (29040000)
I0403 13:19:51.344797 31920 net.cpp:156] Memory required for data: 410316400
I0403 13:19:51.344815 31920 layer_factory.hpp:77] Creating layer pool1
I0403 13:19:51.344838 31920 net.cpp:91] Creating Layer pool1
I0403 13:19:51.344857 31920 net.cpp:425] pool1 <- norm1
I0403 13:19:51.344877 31920 net.cpp:399] pool1 -> pool1
I0403 13:19:51.344946 31920 net.cpp:141] Setting up pool1
I0403 13:19:51.344971 31920 net.cpp:148] Top shape: 100 96 27 27 (6998400)
I0403 13:19:51.344987 31920 net.cpp:156] Memory required for data: 438310000
I0403 13:19:51.345002 31920 layer_factory.hpp:77] Creating layer conv2
I0403 13:19:51.345028 31920 net.cpp:91] Creating Layer conv2
I0403 13:19:51.345047 31920 net.cpp:425] conv2 <- pool1
I0403 13:19:51.345067 31920 net.cpp:399] conv2 -> conv2
I0403 13:19:51.360628 31920 net.cpp:141] Setting up conv2
I0403 13:19:51.360693 31920 net.cpp:148] Top shape: 100 256 27 27 (18662400)
I0403 13:19:51.360710 31920 net.cpp:156] Memory required for data: 512959600
I0403 13:19:51.360736 31920 layer_factory.hpp:77] Creating layer relu2
I0403 13:19:51.360757 31920 net.cpp:91] Creating Layer relu2
I0403 13:19:51.360775 31920 net.cpp:425] relu2 <- conv2
I0403 13:19:51.360795 31920 net.cpp:386] relu2 -> conv2 (in-place)
I0403 13:19:51.361078 31920 net.cpp:141] Setting up relu2
I0403 13:19:51.361105 31920 net.cpp:148] Top shape: 100 256 27 27 (18662400)
I0403 13:19:51.361122 31920 net.cpp:156] Memory required for data: 587609200
I0403 13:19:51.361138 31920 layer_factory.hpp:77] Creating layer norm2
I0403 13:19:51.361161 31920 net.cpp:91] Creating Layer norm2
I0403 13:19:51.361178 31920 net.cpp:425] norm2 <- conv2
I0403 13:19:51.361198 31920 net.cpp:399] norm2 -> norm2
I0403 13:19:51.361400 31920 net.cpp:141] Setting up norm2
I0403 13:19:51.361428 31920 net.cpp:148] Top shape: 100 256 27 27 (18662400)
I0403 13:19:51.361443 31920 net.cpp:156] Memory required for data: 662258800
I0403 13:19:51.361459 31920 layer_factory.hpp:77] Creating layer pool2
I0403 13:19:51.361479 31920 net.cpp:91] Creating Layer pool2
I0403 13:19:51.361496 31920 net.cpp:425] pool2 <- norm2
I0403 13:19:51.361515 31920 net.cpp:399] pool2 -> pool2
I0403 13:19:51.361591 31920 net.cpp:141] Setting up pool2
I0403 13:19:51.361618 31920 net.cpp:148] Top shape: 100 256 13 13 (4326400)
I0403 13:19:51.361634 31920 net.cpp:156] Memory required for data: 679564400
I0403 13:19:51.361649 31920 layer_factory.hpp:77] Creating layer conv3
I0403 13:19:51.361673 31920 net.cpp:91] Creating Layer conv3
I0403 13:19:51.361691 31920 net.cpp:425] conv3 <- pool2
I0403 13:19:51.361711 31920 net.cpp:399] conv3 -> conv3
I0403 13:19:51.401834 31920 net.cpp:141] Setting up conv3
I0403 13:19:51.401918 31920 net.cpp:148] Top shape: 100 384 13 13 (6489600)
I0403 13:19:51.401937 31920 net.cpp:156] Memory required for data: 705522800
I0403 13:19:51.401967 31920 layer_factory.hpp:77] Creating layer relu3
I0403 13:19:51.401991 31920 net.cpp:91] Creating Layer relu3
I0403 13:19:51.402010 31920 net.cpp:425] relu3 <- conv3
I0403 13:19:51.402030 31920 net.cpp:386] relu3 -> conv3 (in-place)
I0403 13:19:51.402396 31920 net.cpp:141] Setting up relu3
I0403 13:19:51.402425 31920 net.cpp:148] Top shape: 100 384 13 13 (6489600)
I0403 13:19:51.402441 31920 net.cpp:156] Memory required for data: 731481200
I0403 13:19:51.402457 31920 layer_factory.hpp:77] Creating layer conv4
I0403 13:19:51.402484 31920 net.cpp:91] Creating Layer conv4
I0403 13:19:51.402503 31920 net.cpp:425] conv4 <- conv3
I0403 13:19:51.402524 31920 net.cpp:399] conv4 -> conv4
I0403 13:19:51.433684 31920 net.cpp:141] Setting up conv4
I0403 13:19:51.433761 31920 net.cpp:148] Top shape: 100 384 13 13 (6489600)
I0403 13:19:51.433809 31920 net.cpp:156] Memory required for data: 757439600
I0403 13:19:51.433832 31920 layer_factory.hpp:77] Creating layer relu4
I0403 13:19:51.433859 31920 net.cpp:91] Creating Layer relu4
I0403 13:19:51.433878 31920 net.cpp:425] relu4 <- conv4
I0403 13:19:51.433899 31920 net.cpp:386] relu4 -> conv4 (in-place)
I0403 13:19:51.434244 31920 net.cpp:141] Setting up relu4
I0403 13:19:51.434278 31920 net.cpp:148] Top shape: 100 384 13 13 (6489600)
I0403 13:19:51.434296 31920 net.cpp:156] Memory required for data: 783398000
I0403 13:19:51.434312 31920 layer_factory.hpp:77] Creating layer conv5
I0403 13:19:51.434339 31920 net.cpp:91] Creating Layer conv5
I0403 13:19:51.434356 31920 net.cpp:425] conv5 <- conv4
I0403 13:19:51.434379 31920 net.cpp:399] conv5 -> conv5
I0403 13:19:51.455828 31920 net.cpp:141] Setting up conv5
I0403 13:19:51.455885 31920 net.cpp:148] Top shape: 100 256 13 13 (4326400)
I0403 13:19:51.455904 31920 net.cpp:156] Memory required for data: 800703600
I0403 13:19:51.455929 31920 layer_factory.hpp:77] Creating layer relu5
I0403 13:19:51.455955 31920 net.cpp:91] Creating Layer relu5
I0403 13:19:51.455972 31920 net.cpp:425] relu5 <- conv5
I0403 13:19:51.455992 31920 net.cpp:386] relu5 -> conv5 (in-place)
I0403 13:19:51.456280 31920 net.cpp:141] Setting up relu5
I0403 13:19:51.456307 31920 net.cpp:148] Top shape: 100 256 13 13 (4326400)
I0403 13:19:51.456323 31920 net.cpp:156] Memory required for data: 818009200
I0403 13:19:51.456339 31920 layer_factory.hpp:77] Creating layer pool5
I0403 13:19:51.456364 31920 net.cpp:91] Creating Layer pool5
I0403 13:19:51.456382 31920 net.cpp:425] pool5 <- conv5
I0403 13:19:51.456403 31920 net.cpp:399] pool5 -> pool5
I0403 13:19:51.456503 31920 net.cpp:141] Setting up pool5
I0403 13:19:51.456552 31920 net.cpp:148] Top shape: 100 256 6 6 (921600)
I0403 13:19:51.456568 31920 net.cpp:156] Memory required for data: 821695600
I0403 13:19:51.456583 31920 layer_factory.hpp:77] Creating layer fc6
I0403 13:19:51.456614 31920 net.cpp:91] Creating Layer fc6
I0403 13:19:51.456634 31920 net.cpp:425] fc6 <- pool5
I0403 13:19:51.456652 31920 net.cpp:399] fc6 -> fc6
I0403 13:19:53.030537 31920 net.cpp:141] Setting up fc6
I0403 13:19:53.030621 31920 net.cpp:148] Top shape: 100 4096 (409600)
I0403 13:19:53.030637 31920 net.cpp:156] Memory required for data: 823334000
I0403 13:19:53.030660 31920 layer_factory.hpp:77] Creating layer relu6
I0403 13:19:53.030684 31920 net.cpp:91] Creating Layer relu6
I0403 13:19:53.030702 31920 net.cpp:425] relu6 <- fc6
I0403 13:19:53.030726 31920 net.cpp:386] relu6 -> fc6 (in-place)
I0403 13:19:53.030957 31920 net.cpp:141] Setting up relu6
I0403 13:19:53.030984 31920 net.cpp:148] Top shape: 100 4096 (409600)
I0403 13:19:53.030999 31920 net.cpp:156] Memory required for data: 824972400
I0403 13:19:53.031015 31920 layer_factory.hpp:77] Creating layer drop6
I0403 13:19:53.031038 31920 net.cpp:91] Creating Layer drop6
I0403 13:19:53.031055 31920 net.cpp:425] drop6 <- fc6
I0403 13:19:53.031074 31920 net.cpp:386] drop6 -> fc6 (in-place)
I0403 13:19:53.031131 31920 net.cpp:141] Setting up drop6
I0403 13:19:53.031154 31920 net.cpp:148] Top shape: 100 4096 (409600)
I0403 13:19:53.031169 31920 net.cpp:156] Memory required for data: 826610800
I0403 13:19:53.031185 31920 layer_factory.hpp:77] Creating layer fc7
I0403 13:19:53.031206 31920 net.cpp:91] Creating Layer fc7
I0403 13:19:53.031224 31920 net.cpp:425] fc7 <- fc6
I0403 13:19:53.031247 31920 net.cpp:399] fc7 -> fc7
I0403 13:19:53.726672 31920 net.cpp:141] Setting up fc7
I0403 13:19:53.726771 31920 net.cpp:148] Top shape: 100 4096 (409600)
I0403 13:19:53.726788 31920 net.cpp:156] Memory required for data: 828249200
I0403 13:19:53.726810 31920 layer_factory.hpp:77] Creating layer relu7
I0403 13:19:53.726835 31920 net.cpp:91] Creating Layer relu7
I0403 13:19:53.726852 31920 net.cpp:425] relu7 <- fc7
I0403 13:19:53.726872 31920 net.cpp:386] relu7 -> fc7 (in-place)
I0403 13:19:53.727300 31920 net.cpp:141] Setting up relu7
I0403 13:19:53.727327 31920 net.cpp:148] Top shape: 100 4096 (409600)
I0403 13:19:53.727375 31920 net.cpp:156] Memory required for data: 829887600
I0403 13:19:53.727391 31920 layer_factory.hpp:77] Creating layer drop7
I0403 13:19:53.727411 31920 net.cpp:91] Creating Layer drop7
I0403 13:19:53.727427 31920 net.cpp:425] drop7 <- fc7
I0403 13:19:53.727445 31920 net.cpp:386] drop7 -> fc7 (in-place)
I0403 13:19:53.727493 31920 net.cpp:141] Setting up drop7
I0403 13:19:53.727515 31920 net.cpp:148] Top shape: 100 4096 (409600)
I0403 13:19:53.727530 31920 net.cpp:156] Memory required for data: 831526000
I0403 13:19:53.727543 31920 layer_factory.hpp:77] Creating layer fc8_plantvillage
I0403 13:19:53.727563 31920 net.cpp:91] Creating Layer fc8_plantvillage
I0403 13:19:53.727579 31920 net.cpp:425] fc8_plantvillage <- fc7
I0403 13:19:53.727599 31920 net.cpp:399] fc8_plantvillage -> fc8_plantvillage
I0403 13:19:53.734323 31920 net.cpp:141] Setting up fc8_plantvillage
I0403 13:19:53.734354 31920 net.cpp:148] Top shape: 100 38 (3800)
I0403 13:19:53.734371 31920 net.cpp:156] Memory required for data: 831541200
I0403 13:19:53.734390 31920 layer_factory.hpp:77] Creating layer fc8_plantvillage_fc8_plantvillage_0_split
I0403 13:19:53.734411 31920 net.cpp:91] Creating Layer fc8_plantvillage_fc8_plantvillage_0_split
I0403 13:19:53.734427 31920 net.cpp:425] fc8_plantvillage_fc8_plantvillage_0_split <- fc8_plantvillage
I0403 13:19:53.734446 31920 net.cpp:399] fc8_plantvillage_fc8_plantvillage_0_split -> fc8_plantvillage_fc8_plantvillage_0_split_0
I0403 13:19:53.734465 31920 net.cpp:399] fc8_plantvillage_fc8_plantvillage_0_split -> fc8_plantvillage_fc8_plantvillage_0_split_1
I0403 13:19:53.734488 31920 net.cpp:399] fc8_plantvillage_fc8_plantvillage_0_split -> fc8_plantvillage_fc8_plantvillage_0_split_2
I0403 13:19:53.734567 31920 net.cpp:141] Setting up fc8_plantvillage_fc8_plantvillage_0_split
I0403 13:19:53.734591 31920 net.cpp:148] Top shape: 100 38 (3800)
I0403 13:19:53.734607 31920 net.cpp:148] Top shape: 100 38 (3800)
I0403 13:19:53.734622 31920 net.cpp:148] Top shape: 100 38 (3800)
I0403 13:19:53.734637 31920 net.cpp:156] Memory required for data: 831586800
I0403 13:19:53.734652 31920 layer_factory.hpp:77] Creating layer prob
I0403 13:19:53.734670 31920 net.cpp:91] Creating Layer prob
I0403 13:19:53.734685 31920 net.cpp:425] prob <- fc8_plantvillage_fc8_plantvillage_0_split_0
I0403 13:19:53.734705 31920 net.cpp:399] prob -> prob
I0403 13:19:53.734935 31920 net.cpp:141] Setting up prob
I0403 13:19:53.734959 31920 net.cpp:148] Top shape: 100 38 (3800)
I0403 13:19:53.734974 31920 net.cpp:156] Memory required for data: 831602000
I0403 13:19:53.734989 31920 layer_factory.hpp:77] Creating layer hdf5out
I0403 13:19:53.735010 31920 net.cpp:91] Creating Layer hdf5out
I0403 13:19:53.735026 31920 net.cpp:425] hdf5out <- prob
I0403 13:19:53.735043 31920 net.cpp:425] hdf5out <- label_data_1_split_0
I0403 13:19:53.737368 31920 net.cpp:141] Setting up hdf5out
…
