…
I0403 13:25:25.497601 32087 net.cpp:313] The NetState phase (1) differed from the phase (0) specified by a rule in layer data
I0403 13:25:25.497901 32087 net.cpp:49] Initializing net from parameters: 
state {
  phase: TEST
}
layer {
  name: "data"
  type: "Data"
  top: "data"
  top: "label"
  include {
    phase: TEST
  }
  transform_param {
    crop_size: 227
    mean_file: "/home/mohanty/data/final_dataset/lmdb/segmented-60-40/mean.binaryproto"
  }
  data_param {
    source: "/home/mohanty/data/final_dataset/lmdb/segmented-60-40/test_db"
    batch_size: 100
    backend: LMDB
  }
}
layer {
  name: "conv1"
  type: "Convolution"
  bottom: "data"
  top: "conv1"
  param {
    lr_mult: 1
    decay_mult: 1
  }
  param {
    lr_mult: 2
    decay_mult: 0
  }
  convolution_param {
    num_output: 96
    kernel_size: 11
    stride: 4
    weight_filler {
      type: "gaussian"
      std: 0.01
    }
    bias_filler {
      type: "constant"
      value: 0
    }
  }
}
layer {
  name: "relu1"
  type: "ReLU"
  bottom: "conv1"
  top: "conv1"
}
layer {
  name: "norm1"
  type: "LRN"
  bottom: "conv1"
  top: "norm1"
  lrn_param {
    local_size: 5
    alpha: 0.0001
    beta: 0.75
  }
}
layer {
  name: "pool1"
  type: "Pooling"
  bottom: "norm1"
  top: "pool1"
  pooling_param {
    pool: MAX
    kernel_size: 3
    stride: 2
  }
}
layer {
  name: "conv2"
  type: "Convolution"
  bottom: "pool1"
  top: "conv2"
  param {
    lr_mult: 1
    decay_mult: 1
  }
  param {
    lr_mult: 2
    decay_mult: 0
  }
  convolution_param {
    num_output: 256
    pad: 2
    kernel_size: 5
    group: 2
    weight_filler {
      type: "gaussian"
      std: 0.01
    }
    bias_filler {
      type: "constant"
      value: 0.1
    }
  }
}
layer {
  name: "relu2"
  type: "ReLU"
  bottom: "conv2"
  top: "conv2"
}
layer {
  name: "norm2"
  type: "LRN"
  bottom: "conv2"
  top: "norm2"
  lrn_param {
    local_size: 5
    alpha: 0.0001
    beta: 0.75
  }
}
layer {
  name: "pool2"
  type: "Pooling"
  bottom: "norm2"
  top: "pool2"
  pooling_param {
    pool: MAX
    kernel_size: 3
    stride: 2
  }
}
layer {
  name: "conv3"
  type: "Convolution"
  bottom: "pool2"
  top: "conv3"
  param {
    lr_mult: 1
    decay_mult: 1
  }
  param {
    lr_mult: 2
    decay_mult: 0
  }
  convolution_param {
    num_output: 384
    pad: 1
    kernel_size: 3
    weight_filler {
      type: "gaussian"
      std: 0.01
    }
    bias_filler {
      type: "constant"
      value: 0
    }
  }
}
layer {
  name: "relu3"
  type: "ReLU"
  bottom: "conv3"
  top: "conv3"
}
layer {
  name: "conv4"
  type: "Convolution"
  bottom: "conv3"
  top: "conv4"
  param {
    lr_mult: 1
    decay_mult: 1
  }
  param {
    lr_mult: 2
    decay_mult: 0
  }
  convolution_param {
    num_output: 384
    pad: 1
    kernel_size: 3
    group: 2
    weight_filler {
      type: "gaussian"
      std: 0.01
    }
    bias_filler {
      type: "constant"
      value: 0.1
    }
  }
}
layer {
  name: "relu4"
  type: "ReLU"
  bottom: "conv4"
  top: "conv4"
}
layer {
  name: "conv5"
  type: "Convolution"
  bottom: "conv4"
  top: "conv5"
  param {
    lr_mult: 1
    decay_mult: 1
  }
  param {
    lr_mult: 2
    decay_mult: 0
  }
  convolution_param {
    num_output: 256
    pad: 1
    kernel_size: 3
    group: 2
    weight_filler {
      type: "gaussian"
      std: 0.01
    }
    bias_filler {
      type: "constant"
      value: 0.1
    }
  }
}
layer {
  name: "relu5"
  type: "ReLU"
  bottom: "conv5"
  top: "conv5"
}
layer {
  name: "pool5"
  type: "Pooling"
  bottom: "conv5"
  top: "pool5"
  pooling_param {
    pool: MAX
    kernel_size: 3
    stride: 2
  }
}
layer {
  name: "fc6"
  type: "InnerProduct"
  bottom: "pool5"
  top: "fc6"
  param {
    lr_mult: 1
    decay_mult: 1
  }
  param {
    lr_mult: 2
    decay_mult: 0
  }
  inner_product_param {
    num_output: 4096
    weight_filler {
      type: "gaussian"
      std: 0.005
    }
    bias_filler {
      type: "constant"
      value: 0.1
    }
  }
}
layer {
  name: "relu6"
  type: "ReLU"
  bottom: "fc6"
  top: "fc6"
}
layer {
  name: "drop6"
  type: "Dropout"
  bottom: "fc6"
  top: "fc6"
  dropout_param {
    dropout_ratio: 0.5
  }
}
layer {
  name: "fc7"
  type: "InnerProduct"
  bottom: "fc6"
  top: "fc7"
  param {
    lr_mult: 1
    decay_mult: 1
  }
  param {
    lr_mult: 2
    decay_mult: 0
  }
  inner_product_param {
    num_output: 4096
    weight_filler {
      type: "gaussian"
      std: 0.005
    }
    bias_filler {
      type: "constant"
      value: 0.1
    }
  }
}
layer {
  name: "relu7"
  type: "ReLU"
  bottom: "fc7"
  top: "fc7"
}
layer {
  name: "drop7"
  type: "Dropout"
  bottom: "fc7"
  top: "fc7"
  dropout_param {
    dropout_ratio: 0.5
  }
}
layer {
  name: "fc8_plantvillage"
  type: "InnerProduct"
  bottom: "fc7"
  top: "fc8_plantvillage"
  param {
    lr_mult: 1
    decay_mult: 1
  }
  param {
    lr_mult: 2
    decay_mult: 0
  }
  inner_product_param {
    num_output: 38
    weight_filler {
      type: "gaussian"
      std: 0.01
    }
    bias_filler {
      type: "constant"
      value: 0
    }
  }
}
layer {
  name: "prob"
  type: "Softmax"
  bottom: "fc8_plantvillage"
  top: "prob"
  include {
    phase: TEST
  }
}
layer {
  name: "hdf5out"
  type: "HDF5Output"
  bottom: "prob"
  bottom: "label"
  include {
    phase: TEST
  }
  hdf5_output_param {
    file_name: "hdf5_dumps/iter_9750.h5"
  }
}
layer {
  name: "loss"
  type: "SoftmaxWithLoss"
  bottom: "fc8_plantvillage"
  bottom: "label"
  top: "loss"
}
layer {
  name: "accuracy"
  type: "Accuracy"
  bottom: "fc8_plantvillage"
  bottom: "label"
  top: "accuracy"
  include {
    phase: TEST
  }
}
I0403 13:25:25.498486 32087 layer_factory.hpp:77] Creating layer data
I0403 13:25:25.499130 32087 net.cpp:91] Creating Layer data
I0403 13:25:25.499164 32087 net.cpp:399] data -> data
I0403 13:25:25.499217 32087 net.cpp:399] data -> label
I0403 13:25:25.499253 32087 data_transformer.cpp:25] Loading mean file from: /home/mohanty/data/final_dataset/lmdb/segmented-60-40/mean.binaryproto
I0403 13:25:25.506207 32090 db_lmdb.cpp:38] Opened lmdb /home/mohanty/data/final_dataset/lmdb/segmented-60-40/test_db
I0403 13:25:25.514612 32087 data_layer.cpp:41] output data size: 100,3,227,227
I0403 13:25:25.635781 32087 net.cpp:141] Setting up data
I0403 13:25:25.635888 32087 net.cpp:148] Top shape: 100 3 227 227 (15458700)
I0403 13:25:25.635913 32087 net.cpp:148] Top shape: 100 (100)
I0403 13:25:25.635929 32087 net.cpp:156] Memory required for data: 61835200
I0403 13:25:25.635958 32087 layer_factory.hpp:77] Creating layer label_data_1_split
I0403 13:25:25.635987 32087 net.cpp:91] Creating Layer label_data_1_split
I0403 13:25:25.636006 32087 net.cpp:425] label_data_1_split <- label
I0403 13:25:25.636039 32087 net.cpp:399] label_data_1_split -> label_data_1_split_0
I0403 13:25:25.636068 32087 net.cpp:399] label_data_1_split -> label_data_1_split_1
I0403 13:25:25.636091 32087 net.cpp:399] label_data_1_split -> label_data_1_split_2
I0403 13:25:25.636157 32087 net.cpp:141] Setting up label_data_1_split
I0403 13:25:25.636183 32087 net.cpp:148] Top shape: 100 (100)
I0403 13:25:25.636201 32087 net.cpp:148] Top shape: 100 (100)
I0403 13:25:25.636219 32087 net.cpp:148] Top shape: 100 (100)
I0403 13:25:25.636235 32087 net.cpp:156] Memory required for data: 61836400
I0403 13:25:25.636251 32087 layer_factory.hpp:77] Creating layer conv1
I0403 13:25:25.636288 32087 net.cpp:91] Creating Layer conv1
I0403 13:25:25.636307 32087 net.cpp:425] conv1 <- data
I0403 13:25:25.636327 32087 net.cpp:399] conv1 -> conv1
I0403 13:25:25.777292 32087 net.cpp:141] Setting up conv1
I0403 13:25:25.777385 32087 net.cpp:148] Top shape: 100 96 55 55 (29040000)
I0403 13:25:25.777403 32087 net.cpp:156] Memory required for data: 177996400
I0403 13:25:25.777436 32087 layer_factory.hpp:77] Creating layer relu1
I0403 13:25:25.777464 32087 net.cpp:91] Creating Layer relu1
I0403 13:25:25.777483 32087 net.cpp:425] relu1 <- conv1
I0403 13:25:25.777503 32087 net.cpp:386] relu1 -> conv1 (in-place)
I0403 13:25:25.777778 32087 net.cpp:141] Setting up relu1
I0403 13:25:25.777809 32087 net.cpp:148] Top shape: 100 96 55 55 (29040000)
I0403 13:25:25.777859 32087 net.cpp:156] Memory required for data: 294156400
I0403 13:25:25.777876 32087 layer_factory.hpp:77] Creating layer norm1
I0403 13:25:25.777907 32087 net.cpp:91] Creating Layer norm1
I0403 13:25:25.777926 32087 net.cpp:425] norm1 <- conv1
I0403 13:25:25.777946 32087 net.cpp:399] norm1 -> norm1
I0403 13:25:25.778290 32087 net.cpp:141] Setting up norm1
I0403 13:25:25.778319 32087 net.cpp:148] Top shape: 100 96 55 55 (29040000)
I0403 13:25:25.778337 32087 net.cpp:156] Memory required for data: 410316400
I0403 13:25:25.778354 32087 layer_factory.hpp:77] Creating layer pool1
I0403 13:25:25.778380 32087 net.cpp:91] Creating Layer pool1
I0403 13:25:25.778400 32087 net.cpp:425] pool1 <- norm1
I0403 13:25:25.778419 32087 net.cpp:399] pool1 -> pool1
I0403 13:25:25.778496 32087 net.cpp:141] Setting up pool1
I0403 13:25:25.778520 32087 net.cpp:148] Top shape: 100 96 27 27 (6998400)
I0403 13:25:25.778535 32087 net.cpp:156] Memory required for data: 438310000
I0403 13:25:25.778551 32087 layer_factory.hpp:77] Creating layer conv2
I0403 13:25:25.778579 32087 net.cpp:91] Creating Layer conv2
I0403 13:25:25.778599 32087 net.cpp:425] conv2 <- pool1
I0403 13:25:25.778620 32087 net.cpp:399] conv2 -> conv2
I0403 13:25:25.794045 32087 net.cpp:141] Setting up conv2
I0403 13:25:25.794100 32087 net.cpp:148] Top shape: 100 256 27 27 (18662400)
I0403 13:25:25.794118 32087 net.cpp:156] Memory required for data: 512959600
I0403 13:25:25.794142 32087 layer_factory.hpp:77] Creating layer relu2
I0403 13:25:25.794167 32087 net.cpp:91] Creating Layer relu2
I0403 13:25:25.794185 32087 net.cpp:425] relu2 <- conv2
I0403 13:25:25.794203 32087 net.cpp:386] relu2 -> conv2 (in-place)
I0403 13:25:25.794497 32087 net.cpp:141] Setting up relu2
I0403 13:25:25.794525 32087 net.cpp:148] Top shape: 100 256 27 27 (18662400)
I0403 13:25:25.794541 32087 net.cpp:156] Memory required for data: 587609200
I0403 13:25:25.794558 32087 layer_factory.hpp:77] Creating layer norm2
I0403 13:25:25.794581 32087 net.cpp:91] Creating Layer norm2
I0403 13:25:25.794600 32087 net.cpp:425] norm2 <- conv2
I0403 13:25:25.794621 32087 net.cpp:399] norm2 -> norm2
I0403 13:25:25.794831 32087 net.cpp:141] Setting up norm2
I0403 13:25:25.794857 32087 net.cpp:148] Top shape: 100 256 27 27 (18662400)
I0403 13:25:25.794873 32087 net.cpp:156] Memory required for data: 662258800
I0403 13:25:25.794889 32087 layer_factory.hpp:77] Creating layer pool2
I0403 13:25:25.794908 32087 net.cpp:91] Creating Layer pool2
I0403 13:25:25.794924 32087 net.cpp:425] pool2 <- norm2
I0403 13:25:25.794945 32087 net.cpp:399] pool2 -> pool2
I0403 13:25:25.795001 32087 net.cpp:141] Setting up pool2
I0403 13:25:25.795024 32087 net.cpp:148] Top shape: 100 256 13 13 (4326400)
I0403 13:25:25.795039 32087 net.cpp:156] Memory required for data: 679564400
I0403 13:25:25.795055 32087 layer_factory.hpp:77] Creating layer conv3
I0403 13:25:25.795083 32087 net.cpp:91] Creating Layer conv3
I0403 13:25:25.795100 32087 net.cpp:425] conv3 <- pool2
I0403 13:25:25.795120 32087 net.cpp:399] conv3 -> conv3
I0403 13:25:25.834297 32087 net.cpp:141] Setting up conv3
I0403 13:25:25.834336 32087 net.cpp:148] Top shape: 100 384 13 13 (6489600)
I0403 13:25:25.834352 32087 net.cpp:156] Memory required for data: 705522800
I0403 13:25:25.834378 32087 layer_factory.hpp:77] Creating layer relu3
I0403 13:25:25.834403 32087 net.cpp:91] Creating Layer relu3
I0403 13:25:25.834420 32087 net.cpp:425] relu3 <- conv3
I0403 13:25:25.834440 32087 net.cpp:386] relu3 -> conv3 (in-place)
I0403 13:25:25.834727 32087 net.cpp:141] Setting up relu3
I0403 13:25:25.834753 32087 net.cpp:148] Top shape: 100 384 13 13 (6489600)
I0403 13:25:25.834767 32087 net.cpp:156] Memory required for data: 731481200
I0403 13:25:25.834782 32087 layer_factory.hpp:77] Creating layer conv4
I0403 13:25:25.834808 32087 net.cpp:91] Creating Layer conv4
I0403 13:25:25.834825 32087 net.cpp:425] conv4 <- conv3
I0403 13:25:25.834846 32087 net.cpp:399] conv4 -> conv4
I0403 13:25:25.864287 32087 net.cpp:141] Setting up conv4
I0403 13:25:25.864367 32087 net.cpp:148] Top shape: 100 384 13 13 (6489600)
I0403 13:25:25.864418 32087 net.cpp:156] Memory required for data: 757439600
I0403 13:25:25.864445 32087 layer_factory.hpp:77] Creating layer relu4
I0403 13:25:25.864467 32087 net.cpp:91] Creating Layer relu4
I0403 13:25:25.864485 32087 net.cpp:425] relu4 <- conv4
I0403 13:25:25.864507 32087 net.cpp:386] relu4 -> conv4 (in-place)
I0403 13:25:25.864784 32087 net.cpp:141] Setting up relu4
I0403 13:25:25.864822 32087 net.cpp:148] Top shape: 100 384 13 13 (6489600)
I0403 13:25:25.864838 32087 net.cpp:156] Memory required for data: 783398000
I0403 13:25:25.864853 32087 layer_factory.hpp:77] Creating layer conv5
I0403 13:25:25.864879 32087 net.cpp:91] Creating Layer conv5
I0403 13:25:25.864897 32087 net.cpp:425] conv5 <- conv4
I0403 13:25:25.864920 32087 net.cpp:399] conv5 -> conv5
I0403 13:25:25.885231 32087 net.cpp:141] Setting up conv5
I0403 13:25:25.885293 32087 net.cpp:148] Top shape: 100 256 13 13 (4326400)
I0403 13:25:25.885313 32087 net.cpp:156] Memory required for data: 800703600
I0403 13:25:25.885339 32087 layer_factory.hpp:77] Creating layer relu5
I0403 13:25:25.885360 32087 net.cpp:91] Creating Layer relu5
I0403 13:25:25.885378 32087 net.cpp:425] relu5 <- conv5
I0403 13:25:25.885401 32087 net.cpp:386] relu5 -> conv5 (in-place)
I0403 13:25:25.885692 32087 net.cpp:141] Setting up relu5
I0403 13:25:25.885720 32087 net.cpp:148] Top shape: 100 256 13 13 (4326400)
I0403 13:25:25.885735 32087 net.cpp:156] Memory required for data: 818009200
I0403 13:25:25.885751 32087 layer_factory.hpp:77] Creating layer pool5
I0403 13:25:25.885776 32087 net.cpp:91] Creating Layer pool5
I0403 13:25:25.885794 32087 net.cpp:425] pool5 <- conv5
I0403 13:25:25.885812 32087 net.cpp:399] pool5 -> pool5
I0403 13:25:25.885879 32087 net.cpp:141] Setting up pool5
I0403 13:25:25.885902 32087 net.cpp:148] Top shape: 100 256 6 6 (921600)
I0403 13:25:25.885917 32087 net.cpp:156] Memory required for data: 821695600
I0403 13:25:25.885931 32087 layer_factory.hpp:77] Creating layer fc6
I0403 13:25:25.885962 32087 net.cpp:91] Creating Layer fc6
I0403 13:25:25.885980 32087 net.cpp:425] fc6 <- pool5
I0403 13:25:25.885999 32087 net.cpp:399] fc6 -> fc6
I0403 13:25:27.444607 32087 net.cpp:141] Setting up fc6
I0403 13:25:27.444696 32087 net.cpp:148] Top shape: 100 4096 (409600)
I0403 13:25:27.444712 32087 net.cpp:156] Memory required for data: 823334000
I0403 13:25:27.444733 32087 layer_factory.hpp:77] Creating layer relu6
I0403 13:25:27.444756 32087 net.cpp:91] Creating Layer relu6
I0403 13:25:27.444772 32087 net.cpp:425] relu6 <- fc6
I0403 13:25:27.444794 32087 net.cpp:386] relu6 -> fc6 (in-place)
I0403 13:25:27.445021 32087 net.cpp:141] Setting up relu6
I0403 13:25:27.445046 32087 net.cpp:148] Top shape: 100 4096 (409600)
I0403 13:25:27.445060 32087 net.cpp:156] Memory required for data: 824972400
I0403 13:25:27.445075 32087 layer_factory.hpp:77] Creating layer drop6
I0403 13:25:27.445093 32087 net.cpp:91] Creating Layer drop6
I0403 13:25:27.445109 32087 net.cpp:425] drop6 <- fc6
I0403 13:25:27.445128 32087 net.cpp:386] drop6 -> fc6 (in-place)
I0403 13:25:27.445181 32087 net.cpp:141] Setting up drop6
I0403 13:25:27.445204 32087 net.cpp:148] Top shape: 100 4096 (409600)
I0403 13:25:27.445219 32087 net.cpp:156] Memory required for data: 826610800
I0403 13:25:27.445233 32087 layer_factory.hpp:77] Creating layer fc7
I0403 13:25:27.445253 32087 net.cpp:91] Creating Layer fc7
I0403 13:25:27.445268 32087 net.cpp:425] fc7 <- fc6
I0403 13:25:27.445299 32087 net.cpp:399] fc7 -> fc7
I0403 13:25:28.130493 32087 net.cpp:141] Setting up fc7
I0403 13:25:28.130585 32087 net.cpp:148] Top shape: 100 4096 (409600)
I0403 13:25:28.130602 32087 net.cpp:156] Memory required for data: 828249200
I0403 13:25:28.130625 32087 layer_factory.hpp:77] Creating layer relu7
I0403 13:25:28.130650 32087 net.cpp:91] Creating Layer relu7
I0403 13:25:28.130668 32087 net.cpp:425] relu7 <- fc7
I0403 13:25:28.130687 32087 net.cpp:386] relu7 -> fc7 (in-place)
I0403 13:25:28.131109 32087 net.cpp:141] Setting up relu7
I0403 13:25:28.131136 32087 net.cpp:148] Top shape: 100 4096 (409600)
I0403 13:25:28.131183 32087 net.cpp:156] Memory required for data: 829887600
I0403 13:25:28.131199 32087 layer_factory.hpp:77] Creating layer drop7
I0403 13:25:28.131217 32087 net.cpp:91] Creating Layer drop7
I0403 13:25:28.131233 32087 net.cpp:425] drop7 <- fc7
I0403 13:25:28.131253 32087 net.cpp:386] drop7 -> fc7 (in-place)
I0403 13:25:28.131300 32087 net.cpp:141] Setting up drop7
I0403 13:25:28.131325 32087 net.cpp:148] Top shape: 100 4096 (409600)
I0403 13:25:28.131340 32087 net.cpp:156] Memory required for data: 831526000
I0403 13:25:28.131356 32087 layer_factory.hpp:77] Creating layer fc8_plantvillage
I0403 13:25:28.131376 32087 net.cpp:91] Creating Layer fc8_plantvillage
I0403 13:25:28.131391 32087 net.cpp:425] fc8_plantvillage <- fc7
I0403 13:25:28.131410 32087 net.cpp:399] fc8_plantvillage -> fc8_plantvillage
I0403 13:25:28.138151 32087 net.cpp:141] Setting up fc8_plantvillage
I0403 13:25:28.138180 32087 net.cpp:148] Top shape: 100 38 (3800)
I0403 13:25:28.138197 32087 net.cpp:156] Memory required for data: 831541200
I0403 13:25:28.138216 32087 layer_factory.hpp:77] Creating layer fc8_plantvillage_fc8_plantvillage_0_split
I0403 13:25:28.138241 32087 net.cpp:91] Creating Layer fc8_plantvillage_fc8_plantvillage_0_split
I0403 13:25:28.138258 32087 net.cpp:425] fc8_plantvillage_fc8_plantvillage_0_split <- fc8_plantvillage
I0403 13:25:28.138280 32087 net.cpp:399] fc8_plantvillage_fc8_plantvillage_0_split -> fc8_plantvillage_fc8_plantvillage_0_split_0
I0403 13:25:28.138303 32087 net.cpp:399] fc8_plantvillage_fc8_plantvillage_0_split -> fc8_plantvillage_fc8_plantvillage_0_split_1
I0403 13:25:28.138322 32087 net.cpp:399] fc8_plantvillage_fc8_plantvillage_0_split -> fc8_plantvillage_fc8_plantvillage_0_split_2
I0403 13:25:28.138402 32087 net.cpp:141] Setting up fc8_plantvillage_fc8_plantvillage_0_split
I0403 13:25:28.138427 32087 net.cpp:148] Top shape: 100 38 (3800)
I0403 13:25:28.138442 32087 net.cpp:148] Top shape: 100 38 (3800)
I0403 13:25:28.138458 32087 net.cpp:148] Top shape: 100 38 (3800)
I0403 13:25:28.138470 32087 net.cpp:156] Memory required for data: 831586800
I0403 13:25:28.138484 32087 layer_factory.hpp:77] Creating layer prob
I0403 13:25:28.138504 32087 net.cpp:91] Creating Layer prob
I0403 13:25:28.138519 32087 net.cpp:425] prob <- fc8_plantvillage_fc8_plantvillage_0_split_0
I0403 13:25:28.138538 32087 net.cpp:399] prob -> prob
I0403 13:25:28.138782 32087 net.cpp:141] Setting up prob
I0403 13:25:28.138808 32087 net.cpp:148] Top shape: 100 38 (3800)
I0403 13:25:28.138823 32087 net.cpp:156] Memory required for data: 831602000
I0403 13:25:28.138838 32087 layer_factory.hpp:77] Creating layer hdf5out
I0403 13:25:28.138857 32087 net.cpp:91] Creating Layer hdf5out
I0403 13:25:28.138876 32087 net.cpp:425] hdf5out <- prob
I0403 13:25:28.138892 32087 net.cpp:425] hdf5out <- label_data_1_split_0
I0403 13:25:28.141178 32087 net.cpp:141] Setting up hdf5out
…
