…
I0403 13:07:16.260015 31420 net.cpp:313] The NetState phase (1) differed from the phase (0) specified by a rule in layer data
I0403 13:07:16.260757 31420 net.cpp:49] Initializing net from parameters: 
state {
  phase: TEST
}
layer {
  name: "data"
  type: "Data"
  top: "data"
  top: "label"
  include {
    phase: TEST
  }
  transform_param {
    crop_size: 227
    mean_file: "/home/mohanty/data/final_dataset/lmdb/segmented-60-40/mean.binaryproto"
  }
  data_param {
    source: "/home/mohanty/data/final_dataset/lmdb/segmented-60-40/test_db"
    batch_size: 100
    backend: LMDB
  }
}
layer {
  name: "conv1"
  type: "Convolution"
  bottom: "data"
  top: "conv1"
  param {
    lr_mult: 1
    decay_mult: 1
  }
  param {
    lr_mult: 2
    decay_mult: 0
  }
  convolution_param {
    num_output: 96
    kernel_size: 11
    stride: 4
    weight_filler {
      type: "gaussian"
      std: 0.01
    }
    bias_filler {
      type: "constant"
      value: 0
    }
  }
}
layer {
  name: "relu1"
  type: "ReLU"
  bottom: "conv1"
  top: "conv1"
}
layer {
  name: "norm1"
  type: "LRN"
  bottom: "conv1"
  top: "norm1"
  lrn_param {
    local_size: 5
    alpha: 0.0001
    beta: 0.75
  }
}
layer {
  name: "pool1"
  type: "Pooling"
  bottom: "norm1"
  top: "pool1"
  pooling_param {
    pool: MAX
    kernel_size: 3
    stride: 2
  }
}
layer {
  name: "conv2"
  type: "Convolution"
  bottom: "pool1"
  top: "conv2"
  param {
    lr_mult: 1
    decay_mult: 1
  }
  param {
    lr_mult: 2
    decay_mult: 0
  }
  convolution_param {
    num_output: 256
    pad: 2
    kernel_size: 5
    group: 2
    weight_filler {
      type: "gaussian"
      std: 0.01
    }
    bias_filler {
      type: "constant"
      value: 0.1
    }
  }
}
layer {
  name: "relu2"
  type: "ReLU"
  bottom: "conv2"
  top: "conv2"
}
layer {
  name: "norm2"
  type: "LRN"
  bottom: "conv2"
  top: "norm2"
  lrn_param {
    local_size: 5
    alpha: 0.0001
    beta: 0.75
  }
}
layer {
  name: "pool2"
  type: "Pooling"
  bottom: "norm2"
  top: "pool2"
  pooling_param {
    pool: MAX
    kernel_size: 3
    stride: 2
  }
}
layer {
  name: "conv3"
  type: "Convolution"
  bottom: "pool2"
  top: "conv3"
  param {
    lr_mult: 1
    decay_mult: 1
  }
  param {
    lr_mult: 2
    decay_mult: 0
  }
  convolution_param {
    num_output: 384
    pad: 1
    kernel_size: 3
    weight_filler {
      type: "gaussian"
      std: 0.01
    }
    bias_filler {
      type: "constant"
      value: 0
    }
  }
}
layer {
  name: "relu3"
  type: "ReLU"
  bottom: "conv3"
  top: "conv3"
}
layer {
  name: "conv4"
  type: "Convolution"
  bottom: "conv3"
  top: "conv4"
  param {
    lr_mult: 1
    decay_mult: 1
  }
  param {
    lr_mult: 2
    decay_mult: 0
  }
  convolution_param {
    num_output: 384
    pad: 1
    kernel_size: 3
    group: 2
    weight_filler {
      type: "gaussian"
      std: 0.01
    }
    bias_filler {
      type: "constant"
      value: 0.1
    }
  }
}
layer {
  name: "relu4"
  type: "ReLU"
  bottom: "conv4"
  top: "conv4"
}
layer {
  name: "conv5"
  type: "Convolution"
  bottom: "conv4"
  top: "conv5"
  param {
    lr_mult: 1
    decay_mult: 1
  }
  param {
    lr_mult: 2
    decay_mult: 0
  }
  convolution_param {
    num_output: 256
    pad: 1
    kernel_size: 3
    group: 2
    weight_filler {
      type: "gaussian"
      std: 0.01
    }
    bias_filler {
      type: "constant"
      value: 0.1
    }
  }
}
layer {
  name: "relu5"
  type: "ReLU"
  bottom: "conv5"
  top: "conv5"
}
layer {
  name: "pool5"
  type: "Pooling"
  bottom: "conv5"
  top: "pool5"
  pooling_param {
    pool: MAX
    kernel_size: 3
    stride: 2
  }
}
layer {
  name: "fc6"
  type: "InnerProduct"
  bottom: "pool5"
  top: "fc6"
  param {
    lr_mult: 1
    decay_mult: 1
  }
  param {
    lr_mult: 2
    decay_mult: 0
  }
  inner_product_param {
    num_output: 4096
    weight_filler {
      type: "gaussian"
      std: 0.005
    }
    bias_filler {
      type: "constant"
      value: 0.1
    }
  }
}
layer {
  name: "relu6"
  type: "ReLU"
  bottom: "fc6"
  top: "fc6"
}
layer {
  name: "drop6"
  type: "Dropout"
  bottom: "fc6"
  top: "fc6"
  dropout_param {
    dropout_ratio: 0.5
  }
}
layer {
  name: "fc7"
  type: "InnerProduct"
  bottom: "fc6"
  top: "fc7"
  param {
    lr_mult: 1
    decay_mult: 1
  }
  param {
    lr_mult: 2
    decay_mult: 0
  }
  inner_product_param {
    num_output: 4096
    weight_filler {
      type: "gaussian"
      std: 0.005
    }
    bias_filler {
      type: "constant"
      value: 0.1
    }
  }
}
layer {
  name: "relu7"
  type: "ReLU"
  bottom: "fc7"
  top: "fc7"
}
layer {
  name: "drop7"
  type: "Dropout"
  bottom: "fc7"
  top: "fc7"
  dropout_param {
    dropout_ratio: 0.5
  }
}
layer {
  name: "fc8_plantvillage"
  type: "InnerProduct"
  bottom: "fc7"
  top: "fc8_plantvillage"
  param {
    lr_mult: 1
    decay_mult: 1
  }
  param {
    lr_mult: 2
    decay_mult: 0
  }
  inner_product_param {
    num_output: 38
    weight_filler {
      type: "gaussian"
      std: 0.01
    }
    bias_filler {
      type: "constant"
      value: 0
    }
  }
}
layer {
  name: "prob"
  type: "Softmax"
  bottom: "fc8_plantvillage"
  top: "prob"
  include {
    phase: TEST
  }
}
layer {
  name: "hdf5out"
  type: "HDF5Output"
  bottom: "prob"
  bottom: "label"
  include {
    phase: TEST
  }
  hdf5_output_param {
    file_name: "hdf5_dumps/iter_1300.h5"
  }
}
layer {
  name: "loss"
  type: "SoftmaxWithLoss"
  bottom: "fc8_plantvillage"
  bottom: "label"
  top: "loss"
}
layer {
  name: "accuracy"
  type: "Accuracy"
  bottom: "fc8_plantvillage"
  bottom: "label"
  top: "accuracy"
  include {
    phase: TEST
  }
}
I0403 13:07:16.261694 31420 layer_factory.hpp:77] Creating layer data
I0403 13:07:16.263329 31420 net.cpp:91] Creating Layer data
I0403 13:07:16.263406 31420 net.cpp:399] data -> data
I0403 13:07:16.263531 31420 net.cpp:399] data -> label
I0403 13:07:16.263622 31420 data_transformer.cpp:25] Loading mean file from: /home/mohanty/data/final_dataset/lmdb/segmented-60-40/mean.binaryproto
I0403 13:07:16.267676 31424 db_lmdb.cpp:38] Opened lmdb /home/mohanty/data/final_dataset/lmdb/segmented-60-40/test_db
I0403 13:07:16.284253 31420 data_layer.cpp:41] output data size: 100,3,227,227
I0403 13:07:18.459395 31420 net.cpp:141] Setting up data
I0403 13:07:18.459518 31420 net.cpp:148] Top shape: 100 3 227 227 (15458700)
I0403 13:07:18.459542 31420 net.cpp:148] Top shape: 100 (100)
I0403 13:07:18.459558 31420 net.cpp:156] Memory required for data: 61835200
I0403 13:07:18.459588 31420 layer_factory.hpp:77] Creating layer label_data_1_split
I0403 13:07:18.459614 31420 net.cpp:91] Creating Layer label_data_1_split
I0403 13:07:18.459631 31420 net.cpp:425] label_data_1_split <- label
I0403 13:07:18.459663 31420 net.cpp:399] label_data_1_split -> label_data_1_split_0
I0403 13:07:18.459691 31420 net.cpp:399] label_data_1_split -> label_data_1_split_1
I0403 13:07:18.459712 31420 net.cpp:399] label_data_1_split -> label_data_1_split_2
I0403 13:07:18.459782 31420 net.cpp:141] Setting up label_data_1_split
I0403 13:07:18.459806 31420 net.cpp:148] Top shape: 100 (100)
I0403 13:07:18.459823 31420 net.cpp:148] Top shape: 100 (100)
I0403 13:07:18.459841 31420 net.cpp:148] Top shape: 100 (100)
I0403 13:07:18.459854 31420 net.cpp:156] Memory required for data: 61836400
I0403 13:07:18.459870 31420 layer_factory.hpp:77] Creating layer conv1
I0403 13:07:18.459903 31420 net.cpp:91] Creating Layer conv1
I0403 13:07:18.459921 31420 net.cpp:425] conv1 <- data
I0403 13:07:18.459940 31420 net.cpp:399] conv1 -> conv1
I0403 13:07:18.624377 31420 net.cpp:141] Setting up conv1
I0403 13:07:18.624441 31420 net.cpp:148] Top shape: 100 96 55 55 (29040000)
I0403 13:07:18.624459 31420 net.cpp:156] Memory required for data: 177996400
I0403 13:07:18.624490 31420 layer_factory.hpp:77] Creating layer relu1
I0403 13:07:18.624518 31420 net.cpp:91] Creating Layer relu1
I0403 13:07:18.624538 31420 net.cpp:425] relu1 <- conv1
I0403 13:07:18.624557 31420 net.cpp:386] relu1 -> conv1 (in-place)
I0403 13:07:18.624814 31420 net.cpp:141] Setting up relu1
I0403 13:07:18.624841 31420 net.cpp:148] Top shape: 100 96 55 55 (29040000)
I0403 13:07:18.624888 31420 net.cpp:156] Memory required for data: 294156400
I0403 13:07:18.624905 31420 layer_factory.hpp:77] Creating layer norm1
I0403 13:07:18.624956 31420 net.cpp:91] Creating Layer norm1
I0403 13:07:18.624979 31420 net.cpp:425] norm1 <- conv1
I0403 13:07:18.624997 31420 net.cpp:399] norm1 -> norm1
I0403 13:07:18.625313 31420 net.cpp:141] Setting up norm1
I0403 13:07:18.625340 31420 net.cpp:148] Top shape: 100 96 55 55 (29040000)
I0403 13:07:18.625357 31420 net.cpp:156] Memory required for data: 410316400
I0403 13:07:18.625373 31420 layer_factory.hpp:77] Creating layer pool1
I0403 13:07:18.625397 31420 net.cpp:91] Creating Layer pool1
I0403 13:07:18.625416 31420 net.cpp:425] pool1 <- norm1
I0403 13:07:18.625433 31420 net.cpp:399] pool1 -> pool1
I0403 13:07:18.625501 31420 net.cpp:141] Setting up pool1
I0403 13:07:18.625526 31420 net.cpp:148] Top shape: 100 96 27 27 (6998400)
I0403 13:07:18.625542 31420 net.cpp:156] Memory required for data: 438310000
I0403 13:07:18.625557 31420 layer_factory.hpp:77] Creating layer conv2
I0403 13:07:18.625583 31420 net.cpp:91] Creating Layer conv2
I0403 13:07:18.625600 31420 net.cpp:425] conv2 <- pool1
I0403 13:07:18.625619 31420 net.cpp:399] conv2 -> conv2
I0403 13:07:18.640491 31420 net.cpp:141] Setting up conv2
I0403 13:07:18.640524 31420 net.cpp:148] Top shape: 100 256 27 27 (18662400)
I0403 13:07:18.640542 31420 net.cpp:156] Memory required for data: 512959600
I0403 13:07:18.640564 31420 layer_factory.hpp:77] Creating layer relu2
I0403 13:07:18.640584 31420 net.cpp:91] Creating Layer relu2
I0403 13:07:18.640601 31420 net.cpp:425] relu2 <- conv2
I0403 13:07:18.640619 31420 net.cpp:386] relu2 -> conv2 (in-place)
I0403 13:07:18.646785 31420 net.cpp:141] Setting up relu2
I0403 13:07:18.646821 31420 net.cpp:148] Top shape: 100 256 27 27 (18662400)
I0403 13:07:18.646837 31420 net.cpp:156] Memory required for data: 587609200
I0403 13:07:18.646853 31420 layer_factory.hpp:77] Creating layer norm2
I0403 13:07:18.646875 31420 net.cpp:91] Creating Layer norm2
I0403 13:07:18.646893 31420 net.cpp:425] norm2 <- conv2
I0403 13:07:18.646911 31420 net.cpp:399] norm2 -> norm2
I0403 13:07:18.647100 31420 net.cpp:141] Setting up norm2
I0403 13:07:18.647126 31420 net.cpp:148] Top shape: 100 256 27 27 (18662400)
I0403 13:07:18.647142 31420 net.cpp:156] Memory required for data: 662258800
I0403 13:07:18.647157 31420 layer_factory.hpp:77] Creating layer pool2
I0403 13:07:18.647176 31420 net.cpp:91] Creating Layer pool2
I0403 13:07:18.647192 31420 net.cpp:425] pool2 <- norm2
I0403 13:07:18.647210 31420 net.cpp:399] pool2 -> pool2
I0403 13:07:18.647259 31420 net.cpp:141] Setting up pool2
I0403 13:07:18.647297 31420 net.cpp:148] Top shape: 100 256 13 13 (4326400)
I0403 13:07:18.647315 31420 net.cpp:156] Memory required for data: 679564400
I0403 13:07:18.647330 31420 layer_factory.hpp:77] Creating layer conv3
I0403 13:07:18.647351 31420 net.cpp:91] Creating Layer conv3
I0403 13:07:18.647368 31420 net.cpp:425] conv3 <- pool2
I0403 13:07:18.647387 31420 net.cpp:399] conv3 -> conv3
I0403 13:07:18.688078 31420 net.cpp:141] Setting up conv3
I0403 13:07:18.688169 31420 net.cpp:148] Top shape: 100 384 13 13 (6489600)
I0403 13:07:18.688185 31420 net.cpp:156] Memory required for data: 705522800
I0403 13:07:18.688213 31420 layer_factory.hpp:77] Creating layer relu3
I0403 13:07:18.688240 31420 net.cpp:91] Creating Layer relu3
I0403 13:07:18.688257 31420 net.cpp:425] relu3 <- conv3
I0403 13:07:18.688283 31420 net.cpp:386] relu3 -> conv3 (in-place)
I0403 13:07:18.689945 31420 net.cpp:141] Setting up relu3
I0403 13:07:18.689975 31420 net.cpp:148] Top shape: 100 384 13 13 (6489600)
I0403 13:07:18.689993 31420 net.cpp:156] Memory required for data: 731481200
I0403 13:07:18.690012 31420 layer_factory.hpp:77] Creating layer conv4
I0403 13:07:18.690040 31420 net.cpp:91] Creating Layer conv4
I0403 13:07:18.690060 31420 net.cpp:425] conv4 <- conv3
I0403 13:07:18.690080 31420 net.cpp:399] conv4 -> conv4
I0403 13:07:18.721531 31420 net.cpp:141] Setting up conv4
I0403 13:07:18.721621 31420 net.cpp:148] Top shape: 100 384 13 13 (6489600)
I0403 13:07:18.721671 31420 net.cpp:156] Memory required for data: 757439600
I0403 13:07:18.721696 31420 layer_factory.hpp:77] Creating layer relu4
I0403 13:07:18.721722 31420 net.cpp:91] Creating Layer relu4
I0403 13:07:18.721740 31420 net.cpp:425] relu4 <- conv4
I0403 13:07:18.721765 31420 net.cpp:386] relu4 -> conv4 (in-place)
I0403 13:07:18.722096 31420 net.cpp:141] Setting up relu4
I0403 13:07:18.722126 31420 net.cpp:148] Top shape: 100 384 13 13 (6489600)
I0403 13:07:18.722141 31420 net.cpp:156] Memory required for data: 783398000
I0403 13:07:18.722158 31420 layer_factory.hpp:77] Creating layer conv5
I0403 13:07:18.722185 31420 net.cpp:91] Creating Layer conv5
I0403 13:07:18.722204 31420 net.cpp:425] conv5 <- conv4
I0403 13:07:18.722229 31420 net.cpp:399] conv5 -> conv5
I0403 13:07:18.745383 31420 net.cpp:141] Setting up conv5
I0403 13:07:18.745473 31420 net.cpp:148] Top shape: 100 256 13 13 (4326400)
I0403 13:07:18.745491 31420 net.cpp:156] Memory required for data: 800703600
I0403 13:07:18.745522 31420 layer_factory.hpp:77] Creating layer relu5
I0403 13:07:18.745549 31420 net.cpp:91] Creating Layer relu5
I0403 13:07:18.745569 31420 net.cpp:425] relu5 <- conv5
I0403 13:07:18.745590 31420 net.cpp:386] relu5 -> conv5 (in-place)
I0403 13:07:18.745884 31420 net.cpp:141] Setting up relu5
I0403 13:07:18.745913 31420 net.cpp:148] Top shape: 100 256 13 13 (4326400)
I0403 13:07:18.745929 31420 net.cpp:156] Memory required for data: 818009200
I0403 13:07:18.745945 31420 layer_factory.hpp:77] Creating layer pool5
I0403 13:07:18.745971 31420 net.cpp:91] Creating Layer pool5
I0403 13:07:18.745990 31420 net.cpp:425] pool5 <- conv5
I0403 13:07:18.746009 31420 net.cpp:399] pool5 -> pool5
I0403 13:07:18.746075 31420 net.cpp:141] Setting up pool5
I0403 13:07:18.746100 31420 net.cpp:148] Top shape: 100 256 6 6 (921600)
I0403 13:07:18.746116 31420 net.cpp:156] Memory required for data: 821695600
I0403 13:07:18.746132 31420 layer_factory.hpp:77] Creating layer fc6
I0403 13:07:18.746194 31420 net.cpp:91] Creating Layer fc6
I0403 13:07:18.746217 31420 net.cpp:425] fc6 <- pool5
I0403 13:07:18.746237 31420 net.cpp:399] fc6 -> fc6
I0403 13:07:20.298866 31420 net.cpp:141] Setting up fc6
I0403 13:07:20.298959 31420 net.cpp:148] Top shape: 100 4096 (409600)
I0403 13:07:20.298975 31420 net.cpp:156] Memory required for data: 823334000
I0403 13:07:20.298998 31420 layer_factory.hpp:77] Creating layer relu6
I0403 13:07:20.299021 31420 net.cpp:91] Creating Layer relu6
I0403 13:07:20.299039 31420 net.cpp:425] relu6 <- fc6
I0403 13:07:20.299062 31420 net.cpp:386] relu6 -> fc6 (in-place)
I0403 13:07:20.299301 31420 net.cpp:141] Setting up relu6
I0403 13:07:20.299326 31420 net.cpp:148] Top shape: 100 4096 (409600)
I0403 13:07:20.299341 31420 net.cpp:156] Memory required for data: 824972400
I0403 13:07:20.299357 31420 layer_factory.hpp:77] Creating layer drop6
I0403 13:07:20.299379 31420 net.cpp:91] Creating Layer drop6
I0403 13:07:20.299396 31420 net.cpp:425] drop6 <- fc6
I0403 13:07:20.299413 31420 net.cpp:386] drop6 -> fc6 (in-place)
I0403 13:07:20.299469 31420 net.cpp:141] Setting up drop6
I0403 13:07:20.299492 31420 net.cpp:148] Top shape: 100 4096 (409600)
I0403 13:07:20.299507 31420 net.cpp:156] Memory required for data: 826610800
I0403 13:07:20.299522 31420 layer_factory.hpp:77] Creating layer fc7
I0403 13:07:20.299542 31420 net.cpp:91] Creating Layer fc7
I0403 13:07:20.299558 31420 net.cpp:425] fc7 <- fc6
I0403 13:07:20.299593 31420 net.cpp:399] fc7 -> fc7
I0403 13:07:20.969717 31420 net.cpp:141] Setting up fc7
I0403 13:07:20.969810 31420 net.cpp:148] Top shape: 100 4096 (409600)
I0403 13:07:20.969825 31420 net.cpp:156] Memory required for data: 828249200
I0403 13:07:20.969847 31420 layer_factory.hpp:77] Creating layer relu7
I0403 13:07:20.969871 31420 net.cpp:91] Creating Layer relu7
I0403 13:07:20.969889 31420 net.cpp:425] relu7 <- fc7
I0403 13:07:20.969908 31420 net.cpp:386] relu7 -> fc7 (in-place)
I0403 13:07:20.970314 31420 net.cpp:141] Setting up relu7
I0403 13:07:20.970340 31420 net.cpp:148] Top shape: 100 4096 (409600)
I0403 13:07:20.970402 31420 net.cpp:156] Memory required for data: 829887600
I0403 13:07:20.970418 31420 layer_factory.hpp:77] Creating layer drop7
I0403 13:07:20.970438 31420 net.cpp:91] Creating Layer drop7
I0403 13:07:20.970453 31420 net.cpp:425] drop7 <- fc7
I0403 13:07:20.970474 31420 net.cpp:386] drop7 -> fc7 (in-place)
I0403 13:07:20.970520 31420 net.cpp:141] Setting up drop7
I0403 13:07:20.970542 31420 net.cpp:148] Top shape: 100 4096 (409600)
I0403 13:07:20.970557 31420 net.cpp:156] Memory required for data: 831526000
I0403 13:07:20.970572 31420 layer_factory.hpp:77] Creating layer fc8_plantvillage
I0403 13:07:20.970592 31420 net.cpp:91] Creating Layer fc8_plantvillage
I0403 13:07:20.970608 31420 net.cpp:425] fc8_plantvillage <- fc7
I0403 13:07:20.970633 31420 net.cpp:399] fc8_plantvillage -> fc8_plantvillage
I0403 13:07:20.977356 31420 net.cpp:141] Setting up fc8_plantvillage
I0403 13:07:20.977386 31420 net.cpp:148] Top shape: 100 38 (3800)
I0403 13:07:20.977402 31420 net.cpp:156] Memory required for data: 831541200
I0403 13:07:20.977422 31420 layer_factory.hpp:77] Creating layer fc8_plantvillage_fc8_plantvillage_0_split
I0403 13:07:20.977440 31420 net.cpp:91] Creating Layer fc8_plantvillage_fc8_plantvillage_0_split
I0403 13:07:20.977457 31420 net.cpp:425] fc8_plantvillage_fc8_plantvillage_0_split <- fc8_plantvillage
I0403 13:07:20.977473 31420 net.cpp:399] fc8_plantvillage_fc8_plantvillage_0_split -> fc8_plantvillage_fc8_plantvillage_0_split_0
I0403 13:07:20.977494 31420 net.cpp:399] fc8_plantvillage_fc8_plantvillage_0_split -> fc8_plantvillage_fc8_plantvillage_0_split_1
I0403 13:07:20.977514 31420 net.cpp:399] fc8_plantvillage_fc8_plantvillage_0_split -> fc8_plantvillage_fc8_plantvillage_0_split_2
I0403 13:07:20.977591 31420 net.cpp:141] Setting up fc8_plantvillage_fc8_plantvillage_0_split
I0403 13:07:20.977614 31420 net.cpp:148] Top shape: 100 38 (3800)
I0403 13:07:20.977630 31420 net.cpp:148] Top shape: 100 38 (3800)
I0403 13:07:20.977646 31420 net.cpp:148] Top shape: 100 38 (3800)
I0403 13:07:20.977669 31420 net.cpp:156] Memory required for data: 831586800
I0403 13:07:20.977684 31420 layer_factory.hpp:77] Creating layer prob
I0403 13:07:20.977701 31420 net.cpp:91] Creating Layer prob
I0403 13:07:20.977716 31420 net.cpp:425] prob <- fc8_plantvillage_fc8_plantvillage_0_split_0
I0403 13:07:20.977735 31420 net.cpp:399] prob -> prob
I0403 13:07:20.977957 31420 net.cpp:141] Setting up prob
I0403 13:07:20.977982 31420 net.cpp:148] Top shape: 100 38 (3800)
I0403 13:07:20.977996 31420 net.cpp:156] Memory required for data: 831602000
I0403 13:07:20.978011 31420 layer_factory.hpp:77] Creating layer hdf5out
I0403 13:07:20.978034 31420 net.cpp:91] Creating Layer hdf5out
I0403 13:07:20.978049 31420 net.cpp:425] hdf5out <- prob
I0403 13:07:20.978065 31420 net.cpp:425] hdf5out <- label_data_1_split_0
I0403 13:07:20.980267 31420 net.cpp:141] Setting up hdf5out
…
