…
I0403 13:21:55.783293 31977 net.cpp:313] The NetState phase (1) differed from the phase (0) specified by a rule in layer data
I0403 13:21:55.783608 31977 net.cpp:49] Initializing net from parameters: 
state {
  phase: TEST
}
layer {
  name: "data"
  type: "Data"
  top: "data"
  top: "label"
  include {
    phase: TEST
  }
  transform_param {
    crop_size: 227
    mean_file: "/home/mohanty/data/final_dataset/lmdb/segmented-60-40/mean.binaryproto"
  }
  data_param {
    source: "/home/mohanty/data/final_dataset/lmdb/segmented-60-40/test_db"
    batch_size: 100
    backend: LMDB
  }
}
layer {
  name: "conv1"
  type: "Convolution"
  bottom: "data"
  top: "conv1"
  param {
    lr_mult: 1
    decay_mult: 1
  }
  param {
    lr_mult: 2
    decay_mult: 0
  }
  convolution_param {
    num_output: 96
    kernel_size: 11
    stride: 4
    weight_filler {
      type: "gaussian"
      std: 0.01
    }
    bias_filler {
      type: "constant"
      value: 0
    }
  }
}
layer {
  name: "relu1"
  type: "ReLU"
  bottom: "conv1"
  top: "conv1"
}
layer {
  name: "norm1"
  type: "LRN"
  bottom: "conv1"
  top: "norm1"
  lrn_param {
    local_size: 5
    alpha: 0.0001
    beta: 0.75
  }
}
layer {
  name: "pool1"
  type: "Pooling"
  bottom: "norm1"
  top: "pool1"
  pooling_param {
    pool: MAX
    kernel_size: 3
    stride: 2
  }
}
layer {
  name: "conv2"
  type: "Convolution"
  bottom: "pool1"
  top: "conv2"
  param {
    lr_mult: 1
    decay_mult: 1
  }
  param {
    lr_mult: 2
    decay_mult: 0
  }
  convolution_param {
    num_output: 256
    pad: 2
    kernel_size: 5
    group: 2
    weight_filler {
      type: "gaussian"
      std: 0.01
    }
    bias_filler {
      type: "constant"
      value: 0.1
    }
  }
}
layer {
  name: "relu2"
  type: "ReLU"
  bottom: "conv2"
  top: "conv2"
}
layer {
  name: "norm2"
  type: "LRN"
  bottom: "conv2"
  top: "norm2"
  lrn_param {
    local_size: 5
    alpha: 0.0001
    beta: 0.75
  }
}
layer {
  name: "pool2"
  type: "Pooling"
  bottom: "norm2"
  top: "pool2"
  pooling_param {
    pool: MAX
    kernel_size: 3
    stride: 2
  }
}
layer {
  name: "conv3"
  type: "Convolution"
  bottom: "pool2"
  top: "conv3"
  param {
    lr_mult: 1
    decay_mult: 1
  }
  param {
    lr_mult: 2
    decay_mult: 0
  }
  convolution_param {
    num_output: 384
    pad: 1
    kernel_size: 3
    weight_filler {
      type: "gaussian"
      std: 0.01
    }
    bias_filler {
      type: "constant"
      value: 0
    }
  }
}
layer {
  name: "relu3"
  type: "ReLU"
  bottom: "conv3"
  top: "conv3"
}
layer {
  name: "conv4"
  type: "Convolution"
  bottom: "conv3"
  top: "conv4"
  param {
    lr_mult: 1
    decay_mult: 1
  }
  param {
    lr_mult: 2
    decay_mult: 0
  }
  convolution_param {
    num_output: 384
    pad: 1
    kernel_size: 3
    group: 2
    weight_filler {
      type: "gaussian"
      std: 0.01
    }
    bias_filler {
      type: "constant"
      value: 0.1
    }
  }
}
layer {
  name: "relu4"
  type: "ReLU"
  bottom: "conv4"
  top: "conv4"
}
layer {
  name: "conv5"
  type: "Convolution"
  bottom: "conv4"
  top: "conv5"
  param {
    lr_mult: 1
    decay_mult: 1
  }
  param {
    lr_mult: 2
    decay_mult: 0
  }
  convolution_param {
    num_output: 256
    pad: 1
    kernel_size: 3
    group: 2
    weight_filler {
      type: "gaussian"
      std: 0.01
    }
    bias_filler {
      type: "constant"
      value: 0.1
    }
  }
}
layer {
  name: "relu5"
  type: "ReLU"
  bottom: "conv5"
  top: "conv5"
}
layer {
  name: "pool5"
  type: "Pooling"
  bottom: "conv5"
  top: "pool5"
  pooling_param {
    pool: MAX
    kernel_size: 3
    stride: 2
  }
}
layer {
  name: "fc6"
  type: "InnerProduct"
  bottom: "pool5"
  top: "fc6"
  param {
    lr_mult: 1
    decay_mult: 1
  }
  param {
    lr_mult: 2
    decay_mult: 0
  }
  inner_product_param {
    num_output: 4096
    weight_filler {
      type: "gaussian"
      std: 0.005
    }
    bias_filler {
      type: "constant"
      value: 0.1
    }
  }
}
layer {
  name: "relu6"
  type: "ReLU"
  bottom: "fc6"
  top: "fc6"
}
layer {
  name: "drop6"
  type: "Dropout"
  bottom: "fc6"
  top: "fc6"
  dropout_param {
    dropout_ratio: 0.5
  }
}
layer {
  name: "fc7"
  type: "InnerProduct"
  bottom: "fc6"
  top: "fc7"
  param {
    lr_mult: 1
    decay_mult: 1
  }
  param {
    lr_mult: 2
    decay_mult: 0
  }
  inner_product_param {
    num_output: 4096
    weight_filler {
      type: "gaussian"
      std: 0.005
    }
    bias_filler {
      type: "constant"
      value: 0.1
    }
  }
}
layer {
  name: "relu7"
  type: "ReLU"
  bottom: "fc7"
  top: "fc7"
}
layer {
  name: "drop7"
  type: "Dropout"
  bottom: "fc7"
  top: "fc7"
  dropout_param {
    dropout_ratio: 0.5
  }
}
layer {
  name: "fc8_plantvillage"
  type: "InnerProduct"
  bottom: "fc7"
  top: "fc8_plantvillage"
  param {
    lr_mult: 1
    decay_mult: 1
  }
  param {
    lr_mult: 2
    decay_mult: 0
  }
  inner_product_param {
    num_output: 38
    weight_filler {
      type: "gaussian"
      std: 0.01
    }
    bias_filler {
      type: "constant"
      value: 0
    }
  }
}
layer {
  name: "prob"
  type: "Softmax"
  bottom: "fc8_plantvillage"
  top: "prob"
  include {
    phase: TEST
  }
}
layer {
  name: "hdf5out"
  type: "HDF5Output"
  bottom: "prob"
  bottom: "label"
  include {
    phase: TEST
  }
  hdf5_output_param {
    file_name: "hdf5_dumps/iter_8125.h5"
  }
}
layer {
  name: "loss"
  type: "SoftmaxWithLoss"
  bottom: "fc8_plantvillage"
  bottom: "label"
  top: "loss"
}
layer {
  name: "accuracy"
  type: "Accuracy"
  bottom: "fc8_plantvillage"
  bottom: "label"
  top: "accuracy"
  include {
    phase: TEST
  }
}
I0403 13:21:55.784204 31977 layer_factory.hpp:77] Creating layer data
I0403 13:21:55.784874 31977 net.cpp:91] Creating Layer data
I0403 13:21:55.784905 31977 net.cpp:399] data -> data
I0403 13:21:55.784958 31977 net.cpp:399] data -> label
I0403 13:21:55.784996 31977 data_transformer.cpp:25] Loading mean file from: /home/mohanty/data/final_dataset/lmdb/segmented-60-40/mean.binaryproto
I0403 13:21:55.788506 31981 db_lmdb.cpp:38] Opened lmdb /home/mohanty/data/final_dataset/lmdb/segmented-60-40/test_db
I0403 13:21:55.799203 31977 data_layer.cpp:41] output data size: 100,3,227,227
I0403 13:21:55.917835 31977 net.cpp:141] Setting up data
I0403 13:21:55.917937 31977 net.cpp:148] Top shape: 100 3 227 227 (15458700)
I0403 13:21:55.917958 31977 net.cpp:148] Top shape: 100 (100)
I0403 13:21:55.917973 31977 net.cpp:156] Memory required for data: 61835200
I0403 13:21:55.917999 31977 layer_factory.hpp:77] Creating layer label_data_1_split
I0403 13:21:55.918025 31977 net.cpp:91] Creating Layer label_data_1_split
I0403 13:21:55.918042 31977 net.cpp:425] label_data_1_split <- label
I0403 13:21:55.918073 31977 net.cpp:399] label_data_1_split -> label_data_1_split_0
I0403 13:21:55.918098 31977 net.cpp:399] label_data_1_split -> label_data_1_split_1
I0403 13:21:55.918118 31977 net.cpp:399] label_data_1_split -> label_data_1_split_2
I0403 13:21:55.918179 31977 net.cpp:141] Setting up label_data_1_split
I0403 13:21:55.918201 31977 net.cpp:148] Top shape: 100 (100)
I0403 13:21:55.918218 31977 net.cpp:148] Top shape: 100 (100)
I0403 13:21:55.918233 31977 net.cpp:148] Top shape: 100 (100)
I0403 13:21:55.918251 31977 net.cpp:156] Memory required for data: 61836400
I0403 13:21:55.918267 31977 layer_factory.hpp:77] Creating layer conv1
I0403 13:21:55.918298 31977 net.cpp:91] Creating Layer conv1
I0403 13:21:55.918315 31977 net.cpp:425] conv1 <- data
I0403 13:21:55.918334 31977 net.cpp:399] conv1 -> conv1
I0403 13:21:56.058420 31977 net.cpp:141] Setting up conv1
I0403 13:21:56.058488 31977 net.cpp:148] Top shape: 100 96 55 55 (29040000)
I0403 13:21:56.058506 31977 net.cpp:156] Memory required for data: 177996400
I0403 13:21:56.058538 31977 layer_factory.hpp:77] Creating layer relu1
I0403 13:21:56.058565 31977 net.cpp:91] Creating Layer relu1
I0403 13:21:56.058584 31977 net.cpp:425] relu1 <- conv1
I0403 13:21:56.058607 31977 net.cpp:386] relu1 -> conv1 (in-place)
I0403 13:21:56.058897 31977 net.cpp:141] Setting up relu1
I0403 13:21:56.058924 31977 net.cpp:148] Top shape: 100 96 55 55 (29040000)
I0403 13:21:56.058971 31977 net.cpp:156] Memory required for data: 294156400
I0403 13:21:56.058987 31977 layer_factory.hpp:77] Creating layer norm1
I0403 13:21:56.059017 31977 net.cpp:91] Creating Layer norm1
I0403 13:21:56.059036 31977 net.cpp:425] norm1 <- conv1
I0403 13:21:56.059058 31977 net.cpp:399] norm1 -> norm1
I0403 13:21:56.059418 31977 net.cpp:141] Setting up norm1
I0403 13:21:56.059450 31977 net.cpp:148] Top shape: 100 96 55 55 (29040000)
I0403 13:21:56.059468 31977 net.cpp:156] Memory required for data: 410316400
I0403 13:21:56.059483 31977 layer_factory.hpp:77] Creating layer pool1
I0403 13:21:56.059505 31977 net.cpp:91] Creating Layer pool1
I0403 13:21:56.059522 31977 net.cpp:425] pool1 <- norm1
I0403 13:21:56.059542 31977 net.cpp:399] pool1 -> pool1
I0403 13:21:56.059613 31977 net.cpp:141] Setting up pool1
I0403 13:21:56.059638 31977 net.cpp:148] Top shape: 100 96 27 27 (6998400)
I0403 13:21:56.059653 31977 net.cpp:156] Memory required for data: 438310000
I0403 13:21:56.059666 31977 layer_factory.hpp:77] Creating layer conv2
I0403 13:21:56.059694 31977 net.cpp:91] Creating Layer conv2
I0403 13:21:56.059710 31977 net.cpp:425] conv2 <- pool1
I0403 13:21:56.059731 31977 net.cpp:399] conv2 -> conv2
I0403 13:21:56.075196 31977 net.cpp:141] Setting up conv2
I0403 13:21:56.075256 31977 net.cpp:148] Top shape: 100 256 27 27 (18662400)
I0403 13:21:56.075274 31977 net.cpp:156] Memory required for data: 512959600
I0403 13:21:56.075299 31977 layer_factory.hpp:77] Creating layer relu2
I0403 13:21:56.075319 31977 net.cpp:91] Creating Layer relu2
I0403 13:21:56.075335 31977 net.cpp:425] relu2 <- conv2
I0403 13:21:56.075352 31977 net.cpp:386] relu2 -> conv2 (in-place)
I0403 13:21:56.075637 31977 net.cpp:141] Setting up relu2
I0403 13:21:56.075664 31977 net.cpp:148] Top shape: 100 256 27 27 (18662400)
I0403 13:21:56.075680 31977 net.cpp:156] Memory required for data: 587609200
I0403 13:21:56.075695 31977 layer_factory.hpp:77] Creating layer norm2
I0403 13:21:56.075717 31977 net.cpp:91] Creating Layer norm2
I0403 13:21:56.075733 31977 net.cpp:425] norm2 <- conv2
I0403 13:21:56.075753 31977 net.cpp:399] norm2 -> norm2
I0403 13:21:56.075978 31977 net.cpp:141] Setting up norm2
I0403 13:21:56.076007 31977 net.cpp:148] Top shape: 100 256 27 27 (18662400)
I0403 13:21:56.076023 31977 net.cpp:156] Memory required for data: 662258800
I0403 13:21:56.076038 31977 layer_factory.hpp:77] Creating layer pool2
I0403 13:21:56.076056 31977 net.cpp:91] Creating Layer pool2
I0403 13:21:56.076071 31977 net.cpp:425] pool2 <- norm2
I0403 13:21:56.076088 31977 net.cpp:399] pool2 -> pool2
I0403 13:21:56.076141 31977 net.cpp:141] Setting up pool2
I0403 13:21:56.076165 31977 net.cpp:148] Top shape: 100 256 13 13 (4326400)
I0403 13:21:56.076180 31977 net.cpp:156] Memory required for data: 679564400
I0403 13:21:56.076195 31977 layer_factory.hpp:77] Creating layer conv3
I0403 13:21:56.076220 31977 net.cpp:91] Creating Layer conv3
I0403 13:21:56.076236 31977 net.cpp:425] conv3 <- pool2
I0403 13:21:56.076262 31977 net.cpp:399] conv3 -> conv3
I0403 13:21:56.115896 31977 net.cpp:141] Setting up conv3
I0403 13:21:56.115983 31977 net.cpp:148] Top shape: 100 384 13 13 (6489600)
I0403 13:21:56.115999 31977 net.cpp:156] Memory required for data: 705522800
I0403 13:21:56.116025 31977 layer_factory.hpp:77] Creating layer relu3
I0403 13:21:56.116051 31977 net.cpp:91] Creating Layer relu3
I0403 13:21:56.116070 31977 net.cpp:425] relu3 <- conv3
I0403 13:21:56.116089 31977 net.cpp:386] relu3 -> conv3 (in-place)
I0403 13:21:56.116430 31977 net.cpp:141] Setting up relu3
I0403 13:21:56.116461 31977 net.cpp:148] Top shape: 100 384 13 13 (6489600)
I0403 13:21:56.116477 31977 net.cpp:156] Memory required for data: 731481200
I0403 13:21:56.116493 31977 layer_factory.hpp:77] Creating layer conv4
I0403 13:21:56.116533 31977 net.cpp:91] Creating Layer conv4
I0403 13:21:56.116549 31977 net.cpp:425] conv4 <- conv3
I0403 13:21:56.116569 31977 net.cpp:399] conv4 -> conv4
I0403 13:21:56.147785 31977 net.cpp:141] Setting up conv4
I0403 13:21:56.147864 31977 net.cpp:148] Top shape: 100 384 13 13 (6489600)
I0403 13:21:56.147914 31977 net.cpp:156] Memory required for data: 757439600
I0403 13:21:56.147936 31977 layer_factory.hpp:77] Creating layer relu4
I0403 13:21:56.147961 31977 net.cpp:91] Creating Layer relu4
I0403 13:21:56.147980 31977 net.cpp:425] relu4 <- conv4
I0403 13:21:56.148000 31977 net.cpp:386] relu4 -> conv4 (in-place)
I0403 13:21:56.148298 31977 net.cpp:141] Setting up relu4
I0403 13:21:56.148325 31977 net.cpp:148] Top shape: 100 384 13 13 (6489600)
I0403 13:21:56.148340 31977 net.cpp:156] Memory required for data: 783398000
I0403 13:21:56.148356 31977 layer_factory.hpp:77] Creating layer conv5
I0403 13:21:56.148385 31977 net.cpp:91] Creating Layer conv5
I0403 13:21:56.148438 31977 net.cpp:425] conv5 <- conv4
I0403 13:21:56.148468 31977 net.cpp:399] conv5 -> conv5
I0403 13:21:56.170080 31977 net.cpp:141] Setting up conv5
I0403 13:21:56.170140 31977 net.cpp:148] Top shape: 100 256 13 13 (4326400)
I0403 13:21:56.170158 31977 net.cpp:156] Memory required for data: 800703600
I0403 13:21:56.170186 31977 layer_factory.hpp:77] Creating layer relu5
I0403 13:21:56.170208 31977 net.cpp:91] Creating Layer relu5
I0403 13:21:56.170225 31977 net.cpp:425] relu5 <- conv5
I0403 13:21:56.170249 31977 net.cpp:386] relu5 -> conv5 (in-place)
I0403 13:21:56.170547 31977 net.cpp:141] Setting up relu5
I0403 13:21:56.170578 31977 net.cpp:148] Top shape: 100 256 13 13 (4326400)
I0403 13:21:56.170593 31977 net.cpp:156] Memory required for data: 818009200
I0403 13:21:56.170609 31977 layer_factory.hpp:77] Creating layer pool5
I0403 13:21:56.170632 31977 net.cpp:91] Creating Layer pool5
I0403 13:21:56.170650 31977 net.cpp:425] pool5 <- conv5
I0403 13:21:56.170670 31977 net.cpp:399] pool5 -> pool5
I0403 13:21:56.170733 31977 net.cpp:141] Setting up pool5
I0403 13:21:56.170758 31977 net.cpp:148] Top shape: 100 256 6 6 (921600)
I0403 13:21:56.170773 31977 net.cpp:156] Memory required for data: 821695600
I0403 13:21:56.170789 31977 layer_factory.hpp:77] Creating layer fc6
I0403 13:21:56.170819 31977 net.cpp:91] Creating Layer fc6
I0403 13:21:56.170836 31977 net.cpp:425] fc6 <- pool5
I0403 13:21:56.170857 31977 net.cpp:399] fc6 -> fc6
I0403 13:21:57.785382 31977 net.cpp:141] Setting up fc6
I0403 13:21:57.785483 31977 net.cpp:148] Top shape: 100 4096 (409600)
I0403 13:21:57.785501 31977 net.cpp:156] Memory required for data: 823334000
I0403 13:21:57.785522 31977 layer_factory.hpp:77] Creating layer relu6
I0403 13:21:57.785548 31977 net.cpp:91] Creating Layer relu6
I0403 13:21:57.785565 31977 net.cpp:425] relu6 <- fc6
I0403 13:21:57.785585 31977 net.cpp:386] relu6 -> fc6 (in-place)
I0403 13:21:57.785820 31977 net.cpp:141] Setting up relu6
I0403 13:21:57.785846 31977 net.cpp:148] Top shape: 100 4096 (409600)
I0403 13:21:57.785861 31977 net.cpp:156] Memory required for data: 824972400
I0403 13:21:57.785876 31977 layer_factory.hpp:77] Creating layer drop6
I0403 13:21:57.785894 31977 net.cpp:91] Creating Layer drop6
I0403 13:21:57.785909 31977 net.cpp:425] drop6 <- fc6
I0403 13:21:57.785926 31977 net.cpp:386] drop6 -> fc6 (in-place)
I0403 13:21:57.785982 31977 net.cpp:141] Setting up drop6
I0403 13:21:57.786005 31977 net.cpp:148] Top shape: 100 4096 (409600)
I0403 13:21:57.786020 31977 net.cpp:156] Memory required for data: 826610800
I0403 13:21:57.786033 31977 layer_factory.hpp:77] Creating layer fc7
I0403 13:21:57.786058 31977 net.cpp:91] Creating Layer fc7
I0403 13:21:57.786074 31977 net.cpp:425] fc7 <- fc6
I0403 13:21:57.786092 31977 net.cpp:399] fc7 -> fc7
I0403 13:21:59.448751 31977 net.cpp:141] Setting up fc7
I0403 13:21:59.448848 31977 net.cpp:148] Top shape: 100 4096 (409600)
I0403 13:21:59.448864 31977 net.cpp:156] Memory required for data: 828249200
I0403 13:21:59.448887 31977 layer_factory.hpp:77] Creating layer relu7
I0403 13:21:59.448914 31977 net.cpp:91] Creating Layer relu7
I0403 13:21:59.448932 31977 net.cpp:425] relu7 <- fc7
I0403 13:21:59.448951 31977 net.cpp:386] relu7 -> fc7 (in-place)
I0403 13:21:59.449357 31977 net.cpp:141] Setting up relu7
I0403 13:21:59.449384 31977 net.cpp:148] Top shape: 100 4096 (409600)
I0403 13:21:59.449434 31977 net.cpp:156] Memory required for data: 829887600
I0403 13:21:59.449450 31977 layer_factory.hpp:77] Creating layer drop7
I0403 13:21:59.449472 31977 net.cpp:91] Creating Layer drop7
I0403 13:21:59.449489 31977 net.cpp:425] drop7 <- fc7
I0403 13:21:59.449507 31977 net.cpp:386] drop7 -> fc7 (in-place)
I0403 13:21:59.449554 31977 net.cpp:141] Setting up drop7
I0403 13:21:59.449578 31977 net.cpp:148] Top shape: 100 4096 (409600)
I0403 13:21:59.449592 31977 net.cpp:156] Memory required for data: 831526000
I0403 13:21:59.449607 31977 layer_factory.hpp:77] Creating layer fc8_plantvillage
I0403 13:21:59.449633 31977 net.cpp:91] Creating Layer fc8_plantvillage
I0403 13:21:59.449651 31977 net.cpp:425] fc8_plantvillage <- fc7
I0403 13:21:59.449668 31977 net.cpp:399] fc8_plantvillage -> fc8_plantvillage
I0403 13:21:59.456595 31977 net.cpp:141] Setting up fc8_plantvillage
I0403 13:21:59.456624 31977 net.cpp:148] Top shape: 100 38 (3800)
I0403 13:21:59.456640 31977 net.cpp:156] Memory required for data: 831541200
I0403 13:21:59.456658 31977 layer_factory.hpp:77] Creating layer fc8_plantvillage_fc8_plantvillage_0_split
I0403 13:21:59.456678 31977 net.cpp:91] Creating Layer fc8_plantvillage_fc8_plantvillage_0_split
I0403 13:21:59.456694 31977 net.cpp:425] fc8_plantvillage_fc8_plantvillage_0_split <- fc8_plantvillage
I0403 13:21:59.456712 31977 net.cpp:399] fc8_plantvillage_fc8_plantvillage_0_split -> fc8_plantvillage_fc8_plantvillage_0_split_0
I0403 13:21:59.456734 31977 net.cpp:399] fc8_plantvillage_fc8_plantvillage_0_split -> fc8_plantvillage_fc8_plantvillage_0_split_1
I0403 13:21:59.456755 31977 net.cpp:399] fc8_plantvillage_fc8_plantvillage_0_split -> fc8_plantvillage_fc8_plantvillage_0_split_2
I0403 13:21:59.456832 31977 net.cpp:141] Setting up fc8_plantvillage_fc8_plantvillage_0_split
I0403 13:21:59.456856 31977 net.cpp:148] Top shape: 100 38 (3800)
I0403 13:21:59.456872 31977 net.cpp:148] Top shape: 100 38 (3800)
I0403 13:21:59.456888 31977 net.cpp:148] Top shape: 100 38 (3800)
I0403 13:21:59.456902 31977 net.cpp:156] Memory required for data: 831586800
I0403 13:21:59.456918 31977 layer_factory.hpp:77] Creating layer prob
I0403 13:21:59.456935 31977 net.cpp:91] Creating Layer prob
I0403 13:21:59.456951 31977 net.cpp:425] prob <- fc8_plantvillage_fc8_plantvillage_0_split_0
I0403 13:21:59.456970 31977 net.cpp:399] prob -> prob
I0403 13:21:59.457206 31977 net.cpp:141] Setting up prob
I0403 13:21:59.457231 31977 net.cpp:148] Top shape: 100 38 (3800)
I0403 13:21:59.457253 31977 net.cpp:156] Memory required for data: 831602000
I0403 13:21:59.457269 31977 layer_factory.hpp:77] Creating layer hdf5out
I0403 13:21:59.457291 31977 net.cpp:91] Creating Layer hdf5out
I0403 13:21:59.457309 31977 net.cpp:425] hdf5out <- prob
I0403 13:21:59.457325 31977 net.cpp:425] hdf5out <- label_data_1_split_0
I0403 13:21:59.459494 31977 net.cpp:141] Setting up hdf5out
…
