…
I0403 13:21:14.181433 31962 net.cpp:313] The NetState phase (1) differed from the phase (0) specified by a rule in layer data
I0403 13:21:14.181725 31962 net.cpp:49] Initializing net from parameters: 
state {
  phase: TEST
}
layer {
  name: "data"
  type: "Data"
  top: "data"
  top: "label"
  include {
    phase: TEST
  }
  transform_param {
    crop_size: 227
    mean_file: "/home/mohanty/data/final_dataset/lmdb/segmented-60-40/mean.binaryproto"
  }
  data_param {
    source: "/home/mohanty/data/final_dataset/lmdb/segmented-60-40/test_db"
    batch_size: 100
    backend: LMDB
  }
}
layer {
  name: "conv1"
  type: "Convolution"
  bottom: "data"
  top: "conv1"
  param {
    lr_mult: 1
    decay_mult: 1
  }
  param {
    lr_mult: 2
    decay_mult: 0
  }
  convolution_param {
    num_output: 96
    kernel_size: 11
    stride: 4
    weight_filler {
      type: "gaussian"
      std: 0.01
    }
    bias_filler {
      type: "constant"
      value: 0
    }
  }
}
layer {
  name: "relu1"
  type: "ReLU"
  bottom: "conv1"
  top: "conv1"
}
layer {
  name: "norm1"
  type: "LRN"
  bottom: "conv1"
  top: "norm1"
  lrn_param {
    local_size: 5
    alpha: 0.0001
    beta: 0.75
  }
}
layer {
  name: "pool1"
  type: "Pooling"
  bottom: "norm1"
  top: "pool1"
  pooling_param {
    pool: MAX
    kernel_size: 3
    stride: 2
  }
}
layer {
  name: "conv2"
  type: "Convolution"
  bottom: "pool1"
  top: "conv2"
  param {
    lr_mult: 1
    decay_mult: 1
  }
  param {
    lr_mult: 2
    decay_mult: 0
  }
  convolution_param {
    num_output: 256
    pad: 2
    kernel_size: 5
    group: 2
    weight_filler {
      type: "gaussian"
      std: 0.01
    }
    bias_filler {
      type: "constant"
      value: 0.1
    }
  }
}
layer {
  name: "relu2"
  type: "ReLU"
  bottom: "conv2"
  top: "conv2"
}
layer {
  name: "norm2"
  type: "LRN"
  bottom: "conv2"
  top: "norm2"
  lrn_param {
    local_size: 5
    alpha: 0.0001
    beta: 0.75
  }
}
layer {
  name: "pool2"
  type: "Pooling"
  bottom: "norm2"
  top: "pool2"
  pooling_param {
    pool: MAX
    kernel_size: 3
    stride: 2
  }
}
layer {
  name: "conv3"
  type: "Convolution"
  bottom: "pool2"
  top: "conv3"
  param {
    lr_mult: 1
    decay_mult: 1
  }
  param {
    lr_mult: 2
    decay_mult: 0
  }
  convolution_param {
    num_output: 384
    pad: 1
    kernel_size: 3
    weight_filler {
      type: "gaussian"
      std: 0.01
    }
    bias_filler {
      type: "constant"
      value: 0
    }
  }
}
layer {
  name: "relu3"
  type: "ReLU"
  bottom: "conv3"
  top: "conv3"
}
layer {
  name: "conv4"
  type: "Convolution"
  bottom: "conv3"
  top: "conv4"
  param {
    lr_mult: 1
    decay_mult: 1
  }
  param {
    lr_mult: 2
    decay_mult: 0
  }
  convolution_param {
    num_output: 384
    pad: 1
    kernel_size: 3
    group: 2
    weight_filler {
      type: "gaussian"
      std: 0.01
    }
    bias_filler {
      type: "constant"
      value: 0.1
    }
  }
}
layer {
  name: "relu4"
  type: "ReLU"
  bottom: "conv4"
  top: "conv4"
}
layer {
  name: "conv5"
  type: "Convolution"
  bottom: "conv4"
  top: "conv5"
  param {
    lr_mult: 1
    decay_mult: 1
  }
  param {
    lr_mult: 2
    decay_mult: 0
  }
  convolution_param {
    num_output: 256
    pad: 1
    kernel_size: 3
    group: 2
    weight_filler {
      type: "gaussian"
      std: 0.01
    }
    bias_filler {
      type: "constant"
      value: 0.1
    }
  }
}
layer {
  name: "relu5"
  type: "ReLU"
  bottom: "conv5"
  top: "conv5"
}
layer {
  name: "pool5"
  type: "Pooling"
  bottom: "conv5"
  top: "pool5"
  pooling_param {
    pool: MAX
    kernel_size: 3
    stride: 2
  }
}
layer {
  name: "fc6"
  type: "InnerProduct"
  bottom: "pool5"
  top: "fc6"
  param {
    lr_mult: 1
    decay_mult: 1
  }
  param {
    lr_mult: 2
    decay_mult: 0
  }
  inner_product_param {
    num_output: 4096
    weight_filler {
      type: "gaussian"
      std: 0.005
    }
    bias_filler {
      type: "constant"
      value: 0.1
    }
  }
}
layer {
  name: "relu6"
  type: "ReLU"
  bottom: "fc6"
  top: "fc6"
}
layer {
  name: "drop6"
  type: "Dropout"
  bottom: "fc6"
  top: "fc6"
  dropout_param {
    dropout_ratio: 0.5
  }
}
layer {
  name: "fc7"
  type: "InnerProduct"
  bottom: "fc6"
  top: "fc7"
  param {
    lr_mult: 1
    decay_mult: 1
  }
  param {
    lr_mult: 2
    decay_mult: 0
  }
  inner_product_param {
    num_output: 4096
    weight_filler {
      type: "gaussian"
      std: 0.005
    }
    bias_filler {
      type: "constant"
      value: 0.1
    }
  }
}
layer {
  name: "relu7"
  type: "ReLU"
  bottom: "fc7"
  top: "fc7"
}
layer {
  name: "drop7"
  type: "Dropout"
  bottom: "fc7"
  top: "fc7"
  dropout_param {
    dropout_ratio: 0.5
  }
}
layer {
  name: "fc8_plantvillage"
  type: "InnerProduct"
  bottom: "fc7"
  top: "fc8_plantvillage"
  param {
    lr_mult: 1
    decay_mult: 1
  }
  param {
    lr_mult: 2
    decay_mult: 0
  }
  inner_product_param {
    num_output: 38
    weight_filler {
      type: "gaussian"
      std: 0.01
    }
    bias_filler {
      type: "constant"
      value: 0
    }
  }
}
layer {
  name: "prob"
  type: "Softmax"
  bottom: "fc8_plantvillage"
  top: "prob"
  include {
    phase: TEST
  }
}
layer {
  name: "hdf5out"
  type: "HDF5Output"
  bottom: "prob"
  bottom: "label"
  include {
    phase: TEST
  }
  hdf5_output_param {
    file_name: "hdf5_dumps/iter_7800.h5"
  }
}
layer {
  name: "loss"
  type: "SoftmaxWithLoss"
  bottom: "fc8_plantvillage"
  bottom: "label"
  top: "loss"
}
layer {
  name: "accuracy"
  type: "Accuracy"
  bottom: "fc8_plantvillage"
  bottom: "label"
  top: "accuracy"
  include {
    phase: TEST
  }
}
I0403 13:21:14.182229 31962 layer_factory.hpp:77] Creating layer data
I0403 13:21:14.182852 31962 net.cpp:91] Creating Layer data
I0403 13:21:14.182879 31962 net.cpp:399] data -> data
I0403 13:21:14.182927 31962 net.cpp:399] data -> label
I0403 13:21:14.182962 31962 data_transformer.cpp:25] Loading mean file from: /home/mohanty/data/final_dataset/lmdb/segmented-60-40/mean.binaryproto
I0403 13:21:14.186499 31964 db_lmdb.cpp:38] Opened lmdb /home/mohanty/data/final_dataset/lmdb/segmented-60-40/test_db
I0403 13:21:14.196534 31962 data_layer.cpp:41] output data size: 100,3,227,227
I0403 13:21:14.312039 31962 net.cpp:141] Setting up data
I0403 13:21:14.312144 31962 net.cpp:148] Top shape: 100 3 227 227 (15458700)
I0403 13:21:14.312176 31962 net.cpp:148] Top shape: 100 (100)
I0403 13:21:14.312192 31962 net.cpp:156] Memory required for data: 61835200
I0403 13:21:14.312219 31962 layer_factory.hpp:77] Creating layer label_data_1_split
I0403 13:21:14.312268 31962 net.cpp:91] Creating Layer label_data_1_split
I0403 13:21:14.312288 31962 net.cpp:425] label_data_1_split <- label
I0403 13:21:14.312321 31962 net.cpp:399] label_data_1_split -> label_data_1_split_0
I0403 13:21:14.312350 31962 net.cpp:399] label_data_1_split -> label_data_1_split_1
I0403 13:21:14.312371 31962 net.cpp:399] label_data_1_split -> label_data_1_split_2
I0403 13:21:14.312433 31962 net.cpp:141] Setting up label_data_1_split
I0403 13:21:14.312458 31962 net.cpp:148] Top shape: 100 (100)
I0403 13:21:14.312474 31962 net.cpp:148] Top shape: 100 (100)
I0403 13:21:14.312499 31962 net.cpp:148] Top shape: 100 (100)
I0403 13:21:14.312512 31962 net.cpp:156] Memory required for data: 61836400
I0403 13:21:14.312527 31962 layer_factory.hpp:77] Creating layer conv1
I0403 13:21:14.312572 31962 net.cpp:91] Creating Layer conv1
I0403 13:21:14.312589 31962 net.cpp:425] conv1 <- data
I0403 13:21:14.312608 31962 net.cpp:399] conv1 -> conv1
I0403 13:21:14.446060 31962 net.cpp:141] Setting up conv1
I0403 13:21:14.446146 31962 net.cpp:148] Top shape: 100 96 55 55 (29040000)
I0403 13:21:14.446163 31962 net.cpp:156] Memory required for data: 177996400
I0403 13:21:14.446195 31962 layer_factory.hpp:77] Creating layer relu1
I0403 13:21:14.446224 31962 net.cpp:91] Creating Layer relu1
I0403 13:21:14.446246 31962 net.cpp:425] relu1 <- conv1
I0403 13:21:14.446267 31962 net.cpp:386] relu1 -> conv1 (in-place)
I0403 13:21:14.446521 31962 net.cpp:141] Setting up relu1
I0403 13:21:14.446547 31962 net.cpp:148] Top shape: 100 96 55 55 (29040000)
I0403 13:21:14.446594 31962 net.cpp:156] Memory required for data: 294156400
I0403 13:21:14.446610 31962 layer_factory.hpp:77] Creating layer norm1
I0403 13:21:14.446637 31962 net.cpp:91] Creating Layer norm1
I0403 13:21:14.446655 31962 net.cpp:425] norm1 <- conv1
I0403 13:21:14.446673 31962 net.cpp:399] norm1 -> norm1
I0403 13:21:14.446979 31962 net.cpp:141] Setting up norm1
I0403 13:21:14.447006 31962 net.cpp:148] Top shape: 100 96 55 55 (29040000)
I0403 13:21:14.447022 31962 net.cpp:156] Memory required for data: 410316400
I0403 13:21:14.447037 31962 layer_factory.hpp:77] Creating layer pool1
I0403 13:21:14.447060 31962 net.cpp:91] Creating Layer pool1
I0403 13:21:14.447077 31962 net.cpp:425] pool1 <- norm1
I0403 13:21:14.447096 31962 net.cpp:399] pool1 -> pool1
I0403 13:21:14.447161 31962 net.cpp:141] Setting up pool1
I0403 13:21:14.447185 31962 net.cpp:148] Top shape: 100 96 27 27 (6998400)
I0403 13:21:14.447201 31962 net.cpp:156] Memory required for data: 438310000
I0403 13:21:14.447216 31962 layer_factory.hpp:77] Creating layer conv2
I0403 13:21:14.447243 31962 net.cpp:91] Creating Layer conv2
I0403 13:21:14.447262 31962 net.cpp:425] conv2 <- pool1
I0403 13:21:14.447280 31962 net.cpp:399] conv2 -> conv2
I0403 13:21:14.462003 31962 net.cpp:141] Setting up conv2
I0403 13:21:14.462044 31962 net.cpp:148] Top shape: 100 256 27 27 (18662400)
I0403 13:21:14.462061 31962 net.cpp:156] Memory required for data: 512959600
I0403 13:21:14.462083 31962 layer_factory.hpp:77] Creating layer relu2
I0403 13:21:14.462102 31962 net.cpp:91] Creating Layer relu2
I0403 13:21:14.462118 31962 net.cpp:425] relu2 <- conv2
I0403 13:21:14.462136 31962 net.cpp:386] relu2 -> conv2 (in-place)
I0403 13:21:14.462425 31962 net.cpp:141] Setting up relu2
I0403 13:21:14.462452 31962 net.cpp:148] Top shape: 100 256 27 27 (18662400)
I0403 13:21:14.462467 31962 net.cpp:156] Memory required for data: 587609200
I0403 13:21:14.462482 31962 layer_factory.hpp:77] Creating layer norm2
I0403 13:21:14.462504 31962 net.cpp:91] Creating Layer norm2
I0403 13:21:14.462522 31962 net.cpp:425] norm2 <- conv2
I0403 13:21:14.462539 31962 net.cpp:399] norm2 -> norm2
I0403 13:21:14.462730 31962 net.cpp:141] Setting up norm2
I0403 13:21:14.462759 31962 net.cpp:148] Top shape: 100 256 27 27 (18662400)
I0403 13:21:14.462774 31962 net.cpp:156] Memory required for data: 662258800
I0403 13:21:14.462790 31962 layer_factory.hpp:77] Creating layer pool2
I0403 13:21:14.462808 31962 net.cpp:91] Creating Layer pool2
I0403 13:21:14.462823 31962 net.cpp:425] pool2 <- norm2
I0403 13:21:14.462841 31962 net.cpp:399] pool2 -> pool2
I0403 13:21:14.462893 31962 net.cpp:141] Setting up pool2
I0403 13:21:14.462916 31962 net.cpp:148] Top shape: 100 256 13 13 (4326400)
I0403 13:21:14.462931 31962 net.cpp:156] Memory required for data: 679564400
I0403 13:21:14.462947 31962 layer_factory.hpp:77] Creating layer conv3
I0403 13:21:14.462970 31962 net.cpp:91] Creating Layer conv3
I0403 13:21:14.462987 31962 net.cpp:425] conv3 <- pool2
I0403 13:21:14.463008 31962 net.cpp:399] conv3 -> conv3
I0403 13:21:14.500805 31962 net.cpp:141] Setting up conv3
I0403 13:21:14.500867 31962 net.cpp:148] Top shape: 100 384 13 13 (6489600)
I0403 13:21:14.500885 31962 net.cpp:156] Memory required for data: 705522800
I0403 13:21:14.500908 31962 layer_factory.hpp:77] Creating layer relu3
I0403 13:21:14.500929 31962 net.cpp:91] Creating Layer relu3
I0403 13:21:14.500946 31962 net.cpp:425] relu3 <- conv3
I0403 13:21:14.500968 31962 net.cpp:386] relu3 -> conv3 (in-place)
I0403 13:21:14.501236 31962 net.cpp:141] Setting up relu3
I0403 13:21:14.501281 31962 net.cpp:148] Top shape: 100 384 13 13 (6489600)
I0403 13:21:14.501298 31962 net.cpp:156] Memory required for data: 731481200
I0403 13:21:14.501313 31962 layer_factory.hpp:77] Creating layer conv4
I0403 13:21:14.501339 31962 net.cpp:91] Creating Layer conv4
I0403 13:21:14.501358 31962 net.cpp:425] conv4 <- conv3
I0403 13:21:14.501377 31962 net.cpp:399] conv4 -> conv4
I0403 13:21:14.530665 31962 net.cpp:141] Setting up conv4
I0403 13:21:14.530714 31962 net.cpp:148] Top shape: 100 384 13 13 (6489600)
I0403 13:21:14.530761 31962 net.cpp:156] Memory required for data: 757439600
I0403 13:21:14.530782 31962 layer_factory.hpp:77] Creating layer relu4
I0403 13:21:14.530805 31962 net.cpp:91] Creating Layer relu4
I0403 13:21:14.530823 31962 net.cpp:425] relu4 <- conv4
I0403 13:21:14.530841 31962 net.cpp:386] relu4 -> conv4 (in-place)
I0403 13:21:14.531118 31962 net.cpp:141] Setting up relu4
I0403 13:21:14.531146 31962 net.cpp:148] Top shape: 100 384 13 13 (6489600)
I0403 13:21:14.531159 31962 net.cpp:156] Memory required for data: 783398000
I0403 13:21:14.531174 31962 layer_factory.hpp:77] Creating layer conv5
I0403 13:21:14.531200 31962 net.cpp:91] Creating Layer conv5
I0403 13:21:14.531219 31962 net.cpp:425] conv5 <- conv4
I0403 13:21:14.531239 31962 net.cpp:399] conv5 -> conv5
I0403 13:21:14.551378 31962 net.cpp:141] Setting up conv5
I0403 13:21:14.551416 31962 net.cpp:148] Top shape: 100 256 13 13 (4326400)
I0403 13:21:14.551434 31962 net.cpp:156] Memory required for data: 800703600
I0403 13:21:14.551456 31962 layer_factory.hpp:77] Creating layer relu5
I0403 13:21:14.551477 31962 net.cpp:91] Creating Layer relu5
I0403 13:21:14.551493 31962 net.cpp:425] relu5 <- conv5
I0403 13:21:14.551513 31962 net.cpp:386] relu5 -> conv5 (in-place)
I0403 13:21:14.551784 31962 net.cpp:141] Setting up relu5
I0403 13:21:14.551811 31962 net.cpp:148] Top shape: 100 256 13 13 (4326400)
I0403 13:21:14.551826 31962 net.cpp:156] Memory required for data: 818009200
I0403 13:21:14.551841 31962 layer_factory.hpp:77] Creating layer pool5
I0403 13:21:14.551862 31962 net.cpp:91] Creating Layer pool5
I0403 13:21:14.551877 31962 net.cpp:425] pool5 <- conv5
I0403 13:21:14.551899 31962 net.cpp:399] pool5 -> pool5
I0403 13:21:14.551959 31962 net.cpp:141] Setting up pool5
I0403 13:21:14.551983 31962 net.cpp:148] Top shape: 100 256 6 6 (921600)
I0403 13:21:14.551997 31962 net.cpp:156] Memory required for data: 821695600
I0403 13:21:14.552014 31962 layer_factory.hpp:77] Creating layer fc6
I0403 13:21:14.552044 31962 net.cpp:91] Creating Layer fc6
I0403 13:21:14.552062 31962 net.cpp:425] fc6 <- pool5
I0403 13:21:14.552084 31962 net.cpp:399] fc6 -> fc6
I0403 13:21:16.142091 31962 net.cpp:141] Setting up fc6
I0403 13:21:16.142177 31962 net.cpp:148] Top shape: 100 4096 (409600)
I0403 13:21:16.142194 31962 net.cpp:156] Memory required for data: 823334000
I0403 13:21:16.142216 31962 layer_factory.hpp:77] Creating layer relu6
I0403 13:21:16.142251 31962 net.cpp:91] Creating Layer relu6
I0403 13:21:16.142272 31962 net.cpp:425] relu6 <- fc6
I0403 13:21:16.142292 31962 net.cpp:386] relu6 -> fc6 (in-place)
I0403 13:21:16.142519 31962 net.cpp:141] Setting up relu6
I0403 13:21:16.142546 31962 net.cpp:148] Top shape: 100 4096 (409600)
I0403 13:21:16.142562 31962 net.cpp:156] Memory required for data: 824972400
I0403 13:21:16.142577 31962 layer_factory.hpp:77] Creating layer drop6
I0403 13:21:16.142596 31962 net.cpp:91] Creating Layer drop6
I0403 13:21:16.142611 31962 net.cpp:425] drop6 <- fc6
I0403 13:21:16.142628 31962 net.cpp:386] drop6 -> fc6 (in-place)
I0403 13:21:16.142683 31962 net.cpp:141] Setting up drop6
I0403 13:21:16.142706 31962 net.cpp:148] Top shape: 100 4096 (409600)
I0403 13:21:16.142721 31962 net.cpp:156] Memory required for data: 826610800
I0403 13:21:16.142735 31962 layer_factory.hpp:77] Creating layer fc7
I0403 13:21:16.142758 31962 net.cpp:91] Creating Layer fc7
I0403 13:21:16.142773 31962 net.cpp:425] fc7 <- fc6
I0403 13:21:16.142792 31962 net.cpp:399] fc7 -> fc7
I0403 13:21:16.827430 31962 net.cpp:141] Setting up fc7
I0403 13:21:16.827509 31962 net.cpp:148] Top shape: 100 4096 (409600)
I0403 13:21:16.827527 31962 net.cpp:156] Memory required for data: 828249200
I0403 13:21:16.827549 31962 layer_factory.hpp:77] Creating layer relu7
I0403 13:21:16.827574 31962 net.cpp:91] Creating Layer relu7
I0403 13:21:16.827594 31962 net.cpp:425] relu7 <- fc7
I0403 13:21:16.827618 31962 net.cpp:386] relu7 -> fc7 (in-place)
I0403 13:21:16.828034 31962 net.cpp:141] Setting up relu7
I0403 13:21:16.828065 31962 net.cpp:148] Top shape: 100 4096 (409600)
I0403 13:21:16.828115 31962 net.cpp:156] Memory required for data: 829887600
I0403 13:21:16.828132 31962 layer_factory.hpp:77] Creating layer drop7
I0403 13:21:16.828152 31962 net.cpp:91] Creating Layer drop7
I0403 13:21:16.828168 31962 net.cpp:425] drop7 <- fc7
I0403 13:21:16.828189 31962 net.cpp:386] drop7 -> fc7 (in-place)
I0403 13:21:16.828236 31962 net.cpp:141] Setting up drop7
I0403 13:21:16.828264 31962 net.cpp:148] Top shape: 100 4096 (409600)
I0403 13:21:16.828280 31962 net.cpp:156] Memory required for data: 831526000
I0403 13:21:16.828295 31962 layer_factory.hpp:77] Creating layer fc8_plantvillage
I0403 13:21:16.828318 31962 net.cpp:91] Creating Layer fc8_plantvillage
I0403 13:21:16.828336 31962 net.cpp:425] fc8_plantvillage <- fc7
I0403 13:21:16.828361 31962 net.cpp:399] fc8_plantvillage -> fc8_plantvillage
I0403 13:21:16.835505 31962 net.cpp:141] Setting up fc8_plantvillage
I0403 13:21:16.835533 31962 net.cpp:148] Top shape: 100 38 (3800)
I0403 13:21:16.835551 31962 net.cpp:156] Memory required for data: 831541200
I0403 13:21:16.835571 31962 layer_factory.hpp:77] Creating layer fc8_plantvillage_fc8_plantvillage_0_split
I0403 13:21:16.835589 31962 net.cpp:91] Creating Layer fc8_plantvillage_fc8_plantvillage_0_split
I0403 13:21:16.835607 31962 net.cpp:425] fc8_plantvillage_fc8_plantvillage_0_split <- fc8_plantvillage
I0403 13:21:16.835629 31962 net.cpp:399] fc8_plantvillage_fc8_plantvillage_0_split -> fc8_plantvillage_fc8_plantvillage_0_split_0
I0403 13:21:16.835652 31962 net.cpp:399] fc8_plantvillage_fc8_plantvillage_0_split -> fc8_plantvillage_fc8_plantvillage_0_split_1
I0403 13:21:16.835674 31962 net.cpp:399] fc8_plantvillage_fc8_plantvillage_0_split -> fc8_plantvillage_fc8_plantvillage_0_split_2
I0403 13:21:16.835757 31962 net.cpp:141] Setting up fc8_plantvillage_fc8_plantvillage_0_split
I0403 13:21:16.835782 31962 net.cpp:148] Top shape: 100 38 (3800)
I0403 13:21:16.835799 31962 net.cpp:148] Top shape: 100 38 (3800)
I0403 13:21:16.835815 31962 net.cpp:148] Top shape: 100 38 (3800)
I0403 13:21:16.835829 31962 net.cpp:156] Memory required for data: 831586800
I0403 13:21:16.835844 31962 layer_factory.hpp:77] Creating layer prob
I0403 13:21:16.835866 31962 net.cpp:91] Creating Layer prob
I0403 13:21:16.835883 31962 net.cpp:425] prob <- fc8_plantvillage_fc8_plantvillage_0_split_0
I0403 13:21:16.835902 31962 net.cpp:399] prob -> prob
I0403 13:21:16.836138 31962 net.cpp:141] Setting up prob
I0403 13:21:16.836169 31962 net.cpp:148] Top shape: 100 38 (3800)
I0403 13:21:16.836186 31962 net.cpp:156] Memory required for data: 831602000
I0403 13:21:16.836202 31962 layer_factory.hpp:77] Creating layer hdf5out
I0403 13:21:16.836221 31962 net.cpp:91] Creating Layer hdf5out
I0403 13:21:16.836238 31962 net.cpp:425] hdf5out <- prob
I0403 13:21:16.836263 31962 net.cpp:425] hdf5out <- label_data_1_split_0
I0403 13:21:16.838407 31962 net.cpp:141] Setting up hdf5out
…
