…
I0403 13:10:47.460208 31643 net.cpp:313] The NetState phase (1) differed from the phase (0) specified by a rule in layer data
I0403 13:10:47.460530 31643 net.cpp:49] Initializing net from parameters: 
state {
  phase: TEST
}
layer {
  name: "data"
  type: "Data"
  top: "data"
  top: "label"
  include {
    phase: TEST
  }
  transform_param {
    crop_size: 227
    mean_file: "/home/mohanty/data/final_dataset/lmdb/segmented-60-40/mean.binaryproto"
  }
  data_param {
    source: "/home/mohanty/data/final_dataset/lmdb/segmented-60-40/test_db"
    batch_size: 100
    backend: LMDB
  }
}
layer {
  name: "conv1"
  type: "Convolution"
  bottom: "data"
  top: "conv1"
  param {
    lr_mult: 1
    decay_mult: 1
  }
  param {
    lr_mult: 2
    decay_mult: 0
  }
  convolution_param {
    num_output: 96
    kernel_size: 11
    stride: 4
    weight_filler {
      type: "gaussian"
      std: 0.01
    }
    bias_filler {
      type: "constant"
      value: 0
    }
  }
}
layer {
  name: "relu1"
  type: "ReLU"
  bottom: "conv1"
  top: "conv1"
}
layer {
  name: "norm1"
  type: "LRN"
  bottom: "conv1"
  top: "norm1"
  lrn_param {
    local_size: 5
    alpha: 0.0001
    beta: 0.75
  }
}
layer {
  name: "pool1"
  type: "Pooling"
  bottom: "norm1"
  top: "pool1"
  pooling_param {
    pool: MAX
    kernel_size: 3
    stride: 2
  }
}
layer {
  name: "conv2"
  type: "Convolution"
  bottom: "pool1"
  top: "conv2"
  param {
    lr_mult: 1
    decay_mult: 1
  }
  param {
    lr_mult: 2
    decay_mult: 0
  }
  convolution_param {
    num_output: 256
    pad: 2
    kernel_size: 5
    group: 2
    weight_filler {
      type: "gaussian"
      std: 0.01
    }
    bias_filler {
      type: "constant"
      value: 0.1
    }
  }
}
layer {
  name: "relu2"
  type: "ReLU"
  bottom: "conv2"
  top: "conv2"
}
layer {
  name: "norm2"
  type: "LRN"
  bottom: "conv2"
  top: "norm2"
  lrn_param {
    local_size: 5
    alpha: 0.0001
    beta: 0.75
  }
}
layer {
  name: "pool2"
  type: "Pooling"
  bottom: "norm2"
  top: "pool2"
  pooling_param {
    pool: MAX
    kernel_size: 3
    stride: 2
  }
}
layer {
  name: "conv3"
  type: "Convolution"
  bottom: "pool2"
  top: "conv3"
  param {
    lr_mult: 1
    decay_mult: 1
  }
  param {
    lr_mult: 2
    decay_mult: 0
  }
  convolution_param {
    num_output: 384
    pad: 1
    kernel_size: 3
    weight_filler {
      type: "gaussian"
      std: 0.01
    }
    bias_filler {
      type: "constant"
      value: 0
    }
  }
}
layer {
  name: "relu3"
  type: "ReLU"
  bottom: "conv3"
  top: "conv3"
}
layer {
  name: "conv4"
  type: "Convolution"
  bottom: "conv3"
  top: "conv4"
  param {
    lr_mult: 1
    decay_mult: 1
  }
  param {
    lr_mult: 2
    decay_mult: 0
  }
  convolution_param {
    num_output: 384
    pad: 1
    kernel_size: 3
    group: 2
    weight_filler {
      type: "gaussian"
      std: 0.01
    }
    bias_filler {
      type: "constant"
      value: 0.1
    }
  }
}
layer {
  name: "relu4"
  type: "ReLU"
  bottom: "conv4"
  top: "conv4"
}
layer {
  name: "conv5"
  type: "Convolution"
  bottom: "conv4"
  top: "conv5"
  param {
    lr_mult: 1
    decay_mult: 1
  }
  param {
    lr_mult: 2
    decay_mult: 0
  }
  convolution_param {
    num_output: 256
    pad: 1
    kernel_size: 3
    group: 2
    weight_filler {
      type: "gaussian"
      std: 0.01
    }
    bias_filler {
      type: "constant"
      value: 0.1
    }
  }
}
layer {
  name: "relu5"
  type: "ReLU"
  bottom: "conv5"
  top: "conv5"
}
layer {
  name: "pool5"
  type: "Pooling"
  bottom: "conv5"
  top: "pool5"
  pooling_param {
    pool: MAX
    kernel_size: 3
    stride: 2
  }
}
layer {
  name: "fc6"
  type: "InnerProduct"
  bottom: "pool5"
  top: "fc6"
  param {
    lr_mult: 1
    decay_mult: 1
  }
  param {
    lr_mult: 2
    decay_mult: 0
  }
  inner_product_param {
    num_output: 4096
    weight_filler {
      type: "gaussian"
      std: 0.005
    }
    bias_filler {
      type: "constant"
      value: 0.1
    }
  }
}
layer {
  name: "relu6"
  type: "ReLU"
  bottom: "fc6"
  top: "fc6"
}
layer {
  name: "drop6"
  type: "Dropout"
  bottom: "fc6"
  top: "fc6"
  dropout_param {
    dropout_ratio: 0.5
  }
}
layer {
  name: "fc7"
  type: "InnerProduct"
  bottom: "fc6"
  top: "fc7"
  param {
    lr_mult: 1
    decay_mult: 1
  }
  param {
    lr_mult: 2
    decay_mult: 0
  }
  inner_product_param {
    num_output: 4096
    weight_filler {
      type: "gaussian"
      std: 0.005
    }
    bias_filler {
      type: "constant"
      value: 0.1
    }
  }
}
layer {
  name: "relu7"
  type: "ReLU"
  bottom: "fc7"
  top: "fc7"
}
layer {
  name: "drop7"
  type: "Dropout"
  bottom: "fc7"
  top: "fc7"
  dropout_param {
    dropout_ratio: 0.5
  }
}
layer {
  name: "fc8_plantvillage"
  type: "InnerProduct"
  bottom: "fc7"
  top: "fc8_plantvillage"
  param {
    lr_mult: 1
    decay_mult: 1
  }
  param {
    lr_mult: 2
    decay_mult: 0
  }
  inner_product_param {
    num_output: 38
    weight_filler {
      type: "gaussian"
      std: 0.01
    }
    bias_filler {
      type: "constant"
      value: 0
    }
  }
}
layer {
  name: "prob"
  type: "Softmax"
  bottom: "fc8_plantvillage"
  top: "prob"
  include {
    phase: TEST
  }
}
layer {
  name: "hdf5out"
  type: "HDF5Output"
  bottom: "prob"
  bottom: "label"
  include {
    phase: TEST
  }
  hdf5_output_param {
    file_name: "hdf5_dumps/iter_2925.h5"
  }
}
layer {
  name: "loss"
  type: "SoftmaxWithLoss"
  bottom: "fc8_plantvillage"
  bottom: "label"
  top: "loss"
}
layer {
  name: "accuracy"
  type: "Accuracy"
  bottom: "fc8_plantvillage"
  bottom: "label"
  top: "accuracy"
  include {
    phase: TEST
  }
}
I0403 13:10:47.461114 31643 layer_factory.hpp:77] Creating layer data
I0403 13:10:47.461776 31643 net.cpp:91] Creating Layer data
I0403 13:10:47.461809 31643 net.cpp:399] data -> data
I0403 13:10:47.461863 31643 net.cpp:399] data -> label
I0403 13:10:47.461897 31643 data_transformer.cpp:25] Loading mean file from: /home/mohanty/data/final_dataset/lmdb/segmented-60-40/mean.binaryproto
I0403 13:10:47.464879 31646 db_lmdb.cpp:38] Opened lmdb /home/mohanty/data/final_dataset/lmdb/segmented-60-40/test_db
I0403 13:10:47.475935 31643 data_layer.cpp:41] output data size: 100,3,227,227
I0403 13:10:47.597136 31643 net.cpp:141] Setting up data
I0403 13:10:47.597257 31643 net.cpp:148] Top shape: 100 3 227 227 (15458700)
I0403 13:10:47.597280 31643 net.cpp:148] Top shape: 100 (100)
I0403 13:10:47.597295 31643 net.cpp:156] Memory required for data: 61835200
I0403 13:10:47.597323 31643 layer_factory.hpp:77] Creating layer label_data_1_split
I0403 13:10:47.597349 31643 net.cpp:91] Creating Layer label_data_1_split
I0403 13:10:47.597368 31643 net.cpp:425] label_data_1_split <- label
I0403 13:10:47.597398 31643 net.cpp:399] label_data_1_split -> label_data_1_split_0
I0403 13:10:47.597425 31643 net.cpp:399] label_data_1_split -> label_data_1_split_1
I0403 13:10:47.597445 31643 net.cpp:399] label_data_1_split -> label_data_1_split_2
I0403 13:10:47.597508 31643 net.cpp:141] Setting up label_data_1_split
I0403 13:10:47.597543 31643 net.cpp:148] Top shape: 100 (100)
I0403 13:10:47.597559 31643 net.cpp:148] Top shape: 100 (100)
I0403 13:10:47.597590 31643 net.cpp:148] Top shape: 100 (100)
I0403 13:10:47.597605 31643 net.cpp:156] Memory required for data: 61836400
I0403 13:10:47.597621 31643 layer_factory.hpp:77] Creating layer conv1
I0403 13:10:47.597654 31643 net.cpp:91] Creating Layer conv1
I0403 13:10:47.597672 31643 net.cpp:425] conv1 <- data
I0403 13:10:47.597692 31643 net.cpp:399] conv1 -> conv1
I0403 13:10:47.740150 31643 net.cpp:141] Setting up conv1
I0403 13:10:47.740221 31643 net.cpp:148] Top shape: 100 96 55 55 (29040000)
I0403 13:10:47.740238 31643 net.cpp:156] Memory required for data: 177996400
I0403 13:10:47.740275 31643 layer_factory.hpp:77] Creating layer relu1
I0403 13:10:47.740303 31643 net.cpp:91] Creating Layer relu1
I0403 13:10:47.740321 31643 net.cpp:425] relu1 <- conv1
I0403 13:10:47.740340 31643 net.cpp:386] relu1 -> conv1 (in-place)
I0403 13:10:47.740594 31643 net.cpp:141] Setting up relu1
I0403 13:10:47.740622 31643 net.cpp:148] Top shape: 100 96 55 55 (29040000)
I0403 13:10:47.740669 31643 net.cpp:156] Memory required for data: 294156400
I0403 13:10:47.740684 31643 layer_factory.hpp:77] Creating layer norm1
I0403 13:10:47.740712 31643 net.cpp:91] Creating Layer norm1
I0403 13:10:47.740730 31643 net.cpp:425] norm1 <- conv1
I0403 13:10:47.740748 31643 net.cpp:399] norm1 -> norm1
I0403 13:10:47.741050 31643 net.cpp:141] Setting up norm1
I0403 13:10:47.741076 31643 net.cpp:148] Top shape: 100 96 55 55 (29040000)
I0403 13:10:47.741091 31643 net.cpp:156] Memory required for data: 410316400
I0403 13:10:47.741106 31643 layer_factory.hpp:77] Creating layer pool1
I0403 13:10:47.741129 31643 net.cpp:91] Creating Layer pool1
I0403 13:10:47.741166 31643 net.cpp:425] pool1 <- norm1
I0403 13:10:47.741189 31643 net.cpp:399] pool1 -> pool1
I0403 13:10:47.741271 31643 net.cpp:141] Setting up pool1
I0403 13:10:47.741297 31643 net.cpp:148] Top shape: 100 96 27 27 (6998400)
I0403 13:10:47.741313 31643 net.cpp:156] Memory required for data: 438310000
I0403 13:10:47.741328 31643 layer_factory.hpp:77] Creating layer conv2
I0403 13:10:47.741353 31643 net.cpp:91] Creating Layer conv2
I0403 13:10:47.741370 31643 net.cpp:425] conv2 <- pool1
I0403 13:10:47.741389 31643 net.cpp:399] conv2 -> conv2
I0403 13:10:47.756358 31643 net.cpp:141] Setting up conv2
I0403 13:10:47.756417 31643 net.cpp:148] Top shape: 100 256 27 27 (18662400)
I0403 13:10:47.756434 31643 net.cpp:156] Memory required for data: 512959600
I0403 13:10:47.756456 31643 layer_factory.hpp:77] Creating layer relu2
I0403 13:10:47.756476 31643 net.cpp:91] Creating Layer relu2
I0403 13:10:47.756494 31643 net.cpp:425] relu2 <- conv2
I0403 13:10:47.756513 31643 net.cpp:386] relu2 -> conv2 (in-place)
I0403 13:10:47.756789 31643 net.cpp:141] Setting up relu2
I0403 13:10:47.756816 31643 net.cpp:148] Top shape: 100 256 27 27 (18662400)
I0403 13:10:47.756831 31643 net.cpp:156] Memory required for data: 587609200
I0403 13:10:47.756846 31643 layer_factory.hpp:77] Creating layer norm2
I0403 13:10:47.756870 31643 net.cpp:91] Creating Layer norm2
I0403 13:10:47.756886 31643 net.cpp:425] norm2 <- conv2
I0403 13:10:47.756904 31643 net.cpp:399] norm2 -> norm2
I0403 13:10:47.757102 31643 net.cpp:141] Setting up norm2
I0403 13:10:47.757130 31643 net.cpp:148] Top shape: 100 256 27 27 (18662400)
I0403 13:10:47.757146 31643 net.cpp:156] Memory required for data: 662258800
I0403 13:10:47.757161 31643 layer_factory.hpp:77] Creating layer pool2
I0403 13:10:47.757179 31643 net.cpp:91] Creating Layer pool2
I0403 13:10:47.757194 31643 net.cpp:425] pool2 <- norm2
I0403 13:10:47.757213 31643 net.cpp:399] pool2 -> pool2
I0403 13:10:47.757283 31643 net.cpp:141] Setting up pool2
I0403 13:10:47.757310 31643 net.cpp:148] Top shape: 100 256 13 13 (4326400)
I0403 13:10:47.757326 31643 net.cpp:156] Memory required for data: 679564400
I0403 13:10:47.757341 31643 layer_factory.hpp:77] Creating layer conv3
I0403 13:10:47.757364 31643 net.cpp:91] Creating Layer conv3
I0403 13:10:47.757380 31643 net.cpp:425] conv3 <- pool2
I0403 13:10:47.757405 31643 net.cpp:399] conv3 -> conv3
I0403 13:10:47.795959 31643 net.cpp:141] Setting up conv3
I0403 13:10:47.796042 31643 net.cpp:148] Top shape: 100 384 13 13 (6489600)
I0403 13:10:47.796058 31643 net.cpp:156] Memory required for data: 705522800
I0403 13:10:47.796085 31643 layer_factory.hpp:77] Creating layer relu3
I0403 13:10:47.796108 31643 net.cpp:91] Creating Layer relu3
I0403 13:10:47.796124 31643 net.cpp:425] relu3 <- conv3
I0403 13:10:47.796146 31643 net.cpp:386] relu3 -> conv3 (in-place)
I0403 13:10:47.796458 31643 net.cpp:141] Setting up relu3
I0403 13:10:47.796483 31643 net.cpp:148] Top shape: 100 384 13 13 (6489600)
I0403 13:10:47.796499 31643 net.cpp:156] Memory required for data: 731481200
I0403 13:10:47.796524 31643 layer_factory.hpp:77] Creating layer conv4
I0403 13:10:47.796548 31643 net.cpp:91] Creating Layer conv4
I0403 13:10:47.796566 31643 net.cpp:425] conv4 <- conv3
I0403 13:10:47.796586 31643 net.cpp:399] conv4 -> conv4
I0403 13:10:47.827029 31643 net.cpp:141] Setting up conv4
I0403 13:10:47.827108 31643 net.cpp:148] Top shape: 100 384 13 13 (6489600)
I0403 13:10:47.827157 31643 net.cpp:156] Memory required for data: 757439600
I0403 13:10:47.827180 31643 layer_factory.hpp:77] Creating layer relu4
I0403 13:10:47.827203 31643 net.cpp:91] Creating Layer relu4
I0403 13:10:47.827219 31643 net.cpp:425] relu4 <- conv4
I0403 13:10:47.827273 31643 net.cpp:386] relu4 -> conv4 (in-place)
I0403 13:10:47.827597 31643 net.cpp:141] Setting up relu4
I0403 13:10:47.827628 31643 net.cpp:148] Top shape: 100 384 13 13 (6489600)
I0403 13:10:47.827644 31643 net.cpp:156] Memory required for data: 783398000
I0403 13:10:47.827661 31643 layer_factory.hpp:77] Creating layer conv5
I0403 13:10:47.827687 31643 net.cpp:91] Creating Layer conv5
I0403 13:10:47.827704 31643 net.cpp:425] conv5 <- conv4
I0403 13:10:47.827724 31643 net.cpp:399] conv5 -> conv5
I0403 13:10:47.848723 31643 net.cpp:141] Setting up conv5
I0403 13:10:47.848791 31643 net.cpp:148] Top shape: 100 256 13 13 (4326400)
I0403 13:10:47.848809 31643 net.cpp:156] Memory required for data: 800703600
I0403 13:10:47.848834 31643 layer_factory.hpp:77] Creating layer relu5
I0403 13:10:47.848856 31643 net.cpp:91] Creating Layer relu5
I0403 13:10:47.848873 31643 net.cpp:425] relu5 <- conv5
I0403 13:10:47.848893 31643 net.cpp:386] relu5 -> conv5 (in-place)
I0403 13:10:47.849181 31643 net.cpp:141] Setting up relu5
I0403 13:10:47.849208 31643 net.cpp:148] Top shape: 100 256 13 13 (4326400)
I0403 13:10:47.849223 31643 net.cpp:156] Memory required for data: 818009200
I0403 13:10:47.849272 31643 layer_factory.hpp:77] Creating layer pool5
I0403 13:10:47.849303 31643 net.cpp:91] Creating Layer pool5
I0403 13:10:47.849320 31643 net.cpp:425] pool5 <- conv5
I0403 13:10:47.849339 31643 net.cpp:399] pool5 -> pool5
I0403 13:10:47.849405 31643 net.cpp:141] Setting up pool5
I0403 13:10:47.849428 31643 net.cpp:148] Top shape: 100 256 6 6 (921600)
I0403 13:10:47.849443 31643 net.cpp:156] Memory required for data: 821695600
I0403 13:10:47.849457 31643 layer_factory.hpp:77] Creating layer fc6
I0403 13:10:47.849485 31643 net.cpp:91] Creating Layer fc6
I0403 13:10:47.849503 31643 net.cpp:425] fc6 <- pool5
I0403 13:10:47.849524 31643 net.cpp:399] fc6 -> fc6
I0403 13:10:49.405048 31643 net.cpp:141] Setting up fc6
I0403 13:10:49.405129 31643 net.cpp:148] Top shape: 100 4096 (409600)
I0403 13:10:49.405146 31643 net.cpp:156] Memory required for data: 823334000
I0403 13:10:49.405169 31643 layer_factory.hpp:77] Creating layer relu6
I0403 13:10:49.405190 31643 net.cpp:91] Creating Layer relu6
I0403 13:10:49.405208 31643 net.cpp:425] relu6 <- fc6
I0403 13:10:49.405227 31643 net.cpp:386] relu6 -> fc6 (in-place)
I0403 13:10:49.405463 31643 net.cpp:141] Setting up relu6
I0403 13:10:49.405493 31643 net.cpp:148] Top shape: 100 4096 (409600)
I0403 13:10:49.405508 31643 net.cpp:156] Memory required for data: 824972400
I0403 13:10:49.405524 31643 layer_factory.hpp:77] Creating layer drop6
I0403 13:10:49.405541 31643 net.cpp:91] Creating Layer drop6
I0403 13:10:49.405557 31643 net.cpp:425] drop6 <- fc6
I0403 13:10:49.405575 31643 net.cpp:386] drop6 -> fc6 (in-place)
I0403 13:10:49.405627 31643 net.cpp:141] Setting up drop6
I0403 13:10:49.405650 31643 net.cpp:148] Top shape: 100 4096 (409600)
I0403 13:10:49.405676 31643 net.cpp:156] Memory required for data: 826610800
I0403 13:10:49.405691 31643 layer_factory.hpp:77] Creating layer fc7
I0403 13:10:49.405719 31643 net.cpp:91] Creating Layer fc7
I0403 13:10:49.405737 31643 net.cpp:425] fc7 <- fc6
I0403 13:10:49.405757 31643 net.cpp:399] fc7 -> fc7
I0403 13:10:50.092373 31643 net.cpp:141] Setting up fc7
I0403 13:10:50.092422 31643 net.cpp:148] Top shape: 100 4096 (409600)
I0403 13:10:50.092439 31643 net.cpp:156] Memory required for data: 828249200
I0403 13:10:50.092459 31643 layer_factory.hpp:77] Creating layer relu7
I0403 13:10:50.092480 31643 net.cpp:91] Creating Layer relu7
I0403 13:10:50.092499 31643 net.cpp:425] relu7 <- fc7
I0403 13:10:50.092520 31643 net.cpp:386] relu7 -> fc7 (in-place)
I0403 13:10:50.092929 31643 net.cpp:141] Setting up relu7
I0403 13:10:50.092954 31643 net.cpp:148] Top shape: 100 4096 (409600)
I0403 13:10:50.093000 31643 net.cpp:156] Memory required for data: 829887600
I0403 13:10:50.093015 31643 layer_factory.hpp:77] Creating layer drop7
I0403 13:10:50.093034 31643 net.cpp:91] Creating Layer drop7
I0403 13:10:50.093050 31643 net.cpp:425] drop7 <- fc7
I0403 13:10:50.093070 31643 net.cpp:386] drop7 -> fc7 (in-place)
I0403 13:10:50.093112 31643 net.cpp:141] Setting up drop7
I0403 13:10:50.093133 31643 net.cpp:148] Top shape: 100 4096 (409600)
I0403 13:10:50.093147 31643 net.cpp:156] Memory required for data: 831526000
I0403 13:10:50.093163 31643 layer_factory.hpp:77] Creating layer fc8_plantvillage
I0403 13:10:50.093183 31643 net.cpp:91] Creating Layer fc8_plantvillage
I0403 13:10:50.093200 31643 net.cpp:425] fc8_plantvillage <- fc7
I0403 13:10:50.093222 31643 net.cpp:399] fc8_plantvillage -> fc8_plantvillage
I0403 13:10:50.099882 31643 net.cpp:141] Setting up fc8_plantvillage
I0403 13:10:50.099910 31643 net.cpp:148] Top shape: 100 38 (3800)
I0403 13:10:50.099926 31643 net.cpp:156] Memory required for data: 831541200
I0403 13:10:50.099944 31643 layer_factory.hpp:77] Creating layer fc8_plantvillage_fc8_plantvillage_0_split
I0403 13:10:50.099962 31643 net.cpp:91] Creating Layer fc8_plantvillage_fc8_plantvillage_0_split
I0403 13:10:50.099977 31643 net.cpp:425] fc8_plantvillage_fc8_plantvillage_0_split <- fc8_plantvillage
I0403 13:10:50.099997 31643 net.cpp:399] fc8_plantvillage_fc8_plantvillage_0_split -> fc8_plantvillage_fc8_plantvillage_0_split_0
I0403 13:10:50.100018 31643 net.cpp:399] fc8_plantvillage_fc8_plantvillage_0_split -> fc8_plantvillage_fc8_plantvillage_0_split_1
I0403 13:10:50.100039 31643 net.cpp:399] fc8_plantvillage_fc8_plantvillage_0_split -> fc8_plantvillage_fc8_plantvillage_0_split_2
I0403 13:10:50.100118 31643 net.cpp:141] Setting up fc8_plantvillage_fc8_plantvillage_0_split
I0403 13:10:50.100145 31643 net.cpp:148] Top shape: 100 38 (3800)
I0403 13:10:50.100162 31643 net.cpp:148] Top shape: 100 38 (3800)
I0403 13:10:50.100178 31643 net.cpp:148] Top shape: 100 38 (3800)
I0403 13:10:50.100193 31643 net.cpp:156] Memory required for data: 831586800
I0403 13:10:50.100206 31643 layer_factory.hpp:77] Creating layer prob
I0403 13:10:50.100224 31643 net.cpp:91] Creating Layer prob
I0403 13:10:50.100244 31643 net.cpp:425] prob <- fc8_plantvillage_fc8_plantvillage_0_split_0
I0403 13:10:50.100265 31643 net.cpp:399] prob -> prob
I0403 13:10:50.100500 31643 net.cpp:141] Setting up prob
I0403 13:10:50.100528 31643 net.cpp:148] Top shape: 100 38 (3800)
I0403 13:10:50.100543 31643 net.cpp:156] Memory required for data: 831602000
I0403 13:10:50.100558 31643 layer_factory.hpp:77] Creating layer hdf5out
I0403 13:10:50.100575 31643 net.cpp:91] Creating Layer hdf5out
I0403 13:10:50.100591 31643 net.cpp:425] hdf5out <- prob
I0403 13:10:50.100606 31643 net.cpp:425] hdf5out <- label_data_1_split_0
I0403 13:10:50.102715 31643 net.cpp:141] Setting up hdf5out
…
