…
I0403 13:24:01.970993 32045 net.cpp:313] The NetState phase (1) differed from the phase (0) specified by a rule in layer data
I0403 13:24:01.971304 32045 net.cpp:49] Initializing net from parameters: 
state {
  phase: TEST
}
layer {
  name: "data"
  type: "Data"
  top: "data"
  top: "label"
  include {
    phase: TEST
  }
  transform_param {
    crop_size: 227
    mean_file: "/home/mohanty/data/final_dataset/lmdb/segmented-60-40/mean.binaryproto"
  }
  data_param {
    source: "/home/mohanty/data/final_dataset/lmdb/segmented-60-40/test_db"
    batch_size: 100
    backend: LMDB
  }
}
layer {
  name: "conv1"
  type: "Convolution"
  bottom: "data"
  top: "conv1"
  param {
    lr_mult: 1
    decay_mult: 1
  }
  param {
    lr_mult: 2
    decay_mult: 0
  }
  convolution_param {
    num_output: 96
    kernel_size: 11
    stride: 4
    weight_filler {
      type: "gaussian"
      std: 0.01
    }
    bias_filler {
      type: "constant"
      value: 0
    }
  }
}
layer {
  name: "relu1"
  type: "ReLU"
  bottom: "conv1"
  top: "conv1"
}
layer {
  name: "norm1"
  type: "LRN"
  bottom: "conv1"
  top: "norm1"
  lrn_param {
    local_size: 5
    alpha: 0.0001
    beta: 0.75
  }
}
layer {
  name: "pool1"
  type: "Pooling"
  bottom: "norm1"
  top: "pool1"
  pooling_param {
    pool: MAX
    kernel_size: 3
    stride: 2
  }
}
layer {
  name: "conv2"
  type: "Convolution"
  bottom: "pool1"
  top: "conv2"
  param {
    lr_mult: 1
    decay_mult: 1
  }
  param {
    lr_mult: 2
    decay_mult: 0
  }
  convolution_param {
    num_output: 256
    pad: 2
    kernel_size: 5
    group: 2
    weight_filler {
      type: "gaussian"
      std: 0.01
    }
    bias_filler {
      type: "constant"
      value: 0.1
    }
  }
}
layer {
  name: "relu2"
  type: "ReLU"
  bottom: "conv2"
  top: "conv2"
}
layer {
  name: "norm2"
  type: "LRN"
  bottom: "conv2"
  top: "norm2"
  lrn_param {
    local_size: 5
    alpha: 0.0001
    beta: 0.75
  }
}
layer {
  name: "pool2"
  type: "Pooling"
  bottom: "norm2"
  top: "pool2"
  pooling_param {
    pool: MAX
    kernel_size: 3
    stride: 2
  }
}
layer {
  name: "conv3"
  type: "Convolution"
  bottom: "pool2"
  top: "conv3"
  param {
    lr_mult: 1
    decay_mult: 1
  }
  param {
    lr_mult: 2
    decay_mult: 0
  }
  convolution_param {
    num_output: 384
    pad: 1
    kernel_size: 3
    weight_filler {
      type: "gaussian"
      std: 0.01
    }
    bias_filler {
      type: "constant"
      value: 0
    }
  }
}
layer {
  name: "relu3"
  type: "ReLU"
  bottom: "conv3"
  top: "conv3"
}
layer {
  name: "conv4"
  type: "Convolution"
  bottom: "conv3"
  top: "conv4"
  param {
    lr_mult: 1
    decay_mult: 1
  }
  param {
    lr_mult: 2
    decay_mult: 0
  }
  convolution_param {
    num_output: 384
    pad: 1
    kernel_size: 3
    group: 2
    weight_filler {
      type: "gaussian"
      std: 0.01
    }
    bias_filler {
      type: "constant"
      value: 0.1
    }
  }
}
layer {
  name: "relu4"
  type: "ReLU"
  bottom: "conv4"
  top: "conv4"
}
layer {
  name: "conv5"
  type: "Convolution"
  bottom: "conv4"
  top: "conv5"
  param {
    lr_mult: 1
    decay_mult: 1
  }
  param {
    lr_mult: 2
    decay_mult: 0
  }
  convolution_param {
    num_output: 256
    pad: 1
    kernel_size: 3
    group: 2
    weight_filler {
      type: "gaussian"
      std: 0.01
    }
    bias_filler {
      type: "constant"
      value: 0.1
    }
  }
}
layer {
  name: "relu5"
  type: "ReLU"
  bottom: "conv5"
  top: "conv5"
}
layer {
  name: "pool5"
  type: "Pooling"
  bottom: "conv5"
  top: "pool5"
  pooling_param {
    pool: MAX
    kernel_size: 3
    stride: 2
  }
}
layer {
  name: "fc6"
  type: "InnerProduct"
  bottom: "pool5"
  top: "fc6"
  param {
    lr_mult: 1
    decay_mult: 1
  }
  param {
    lr_mult: 2
    decay_mult: 0
  }
  inner_product_param {
    num_output: 4096
    weight_filler {
      type: "gaussian"
      std: 0.005
    }
    bias_filler {
      type: "constant"
      value: 0.1
    }
  }
}
layer {
  name: "relu6"
  type: "ReLU"
  bottom: "fc6"
  top: "fc6"
}
layer {
  name: "drop6"
  type: "Dropout"
  bottom: "fc6"
  top: "fc6"
  dropout_param {
    dropout_ratio: 0.5
  }
}
layer {
  name: "fc7"
  type: "InnerProduct"
  bottom: "fc6"
  top: "fc7"
  param {
    lr_mult: 1
    decay_mult: 1
  }
  param {
    lr_mult: 2
    decay_mult: 0
  }
  inner_product_param {
    num_output: 4096
    weight_filler {
      type: "gaussian"
      std: 0.005
    }
    bias_filler {
      type: "constant"
      value: 0.1
    }
  }
}
layer {
  name: "relu7"
  type: "ReLU"
  bottom: "fc7"
  top: "fc7"
}
layer {
  name: "drop7"
  type: "Dropout"
  bottom: "fc7"
  top: "fc7"
  dropout_param {
    dropout_ratio: 0.5
  }
}
layer {
  name: "fc8_plantvillage"
  type: "InnerProduct"
  bottom: "fc7"
  top: "fc8_plantvillage"
  param {
    lr_mult: 1
    decay_mult: 1
  }
  param {
    lr_mult: 2
    decay_mult: 0
  }
  inner_product_param {
    num_output: 38
    weight_filler {
      type: "gaussian"
      std: 0.01
    }
    bias_filler {
      type: "constant"
      value: 0
    }
  }
}
layer {
  name: "prob"
  type: "Softmax"
  bottom: "fc8_plantvillage"
  top: "prob"
  include {
    phase: TEST
  }
}
layer {
  name: "hdf5out"
  type: "HDF5Output"
  bottom: "prob"
  bottom: "label"
  include {
    phase: TEST
  }
  hdf5_output_param {
    file_name: "hdf5_dumps/iter_9100.h5"
  }
}
layer {
  name: "loss"
  type: "SoftmaxWithLoss"
  bottom: "fc8_plantvillage"
  bottom: "label"
  top: "loss"
}
layer {
  name: "accuracy"
  type: "Accuracy"
  bottom: "fc8_plantvillage"
  bottom: "label"
  top: "accuracy"
  include {
    phase: TEST
  }
}
I0403 13:24:01.971882 32045 layer_factory.hpp:77] Creating layer data
I0403 13:24:01.972520 32045 net.cpp:91] Creating Layer data
I0403 13:24:01.972553 32045 net.cpp:399] data -> data
I0403 13:24:01.972604 32045 net.cpp:399] data -> label
I0403 13:24:01.972640 32045 data_transformer.cpp:25] Loading mean file from: /home/mohanty/data/final_dataset/lmdb/segmented-60-40/mean.binaryproto
I0403 13:24:01.975572 32048 db_lmdb.cpp:38] Opened lmdb /home/mohanty/data/final_dataset/lmdb/segmented-60-40/test_db
I0403 13:24:01.986687 32045 data_layer.cpp:41] output data size: 100,3,227,227
I0403 13:24:02.104948 32045 net.cpp:141] Setting up data
I0403 13:24:02.105051 32045 net.cpp:148] Top shape: 100 3 227 227 (15458700)
I0403 13:24:02.105073 32045 net.cpp:148] Top shape: 100 (100)
I0403 13:24:02.105089 32045 net.cpp:156] Memory required for data: 61835200
I0403 13:24:02.105115 32045 layer_factory.hpp:77] Creating layer label_data_1_split
I0403 13:24:02.105140 32045 net.cpp:91] Creating Layer label_data_1_split
I0403 13:24:02.105159 32045 net.cpp:425] label_data_1_split <- label
I0403 13:24:02.105188 32045 net.cpp:399] label_data_1_split -> label_data_1_split_0
I0403 13:24:02.105214 32045 net.cpp:399] label_data_1_split -> label_data_1_split_1
I0403 13:24:02.105234 32045 net.cpp:399] label_data_1_split -> label_data_1_split_2
I0403 13:24:02.105299 32045 net.cpp:141] Setting up label_data_1_split
I0403 13:24:02.105324 32045 net.cpp:148] Top shape: 100 (100)
I0403 13:24:02.105340 32045 net.cpp:148] Top shape: 100 (100)
I0403 13:24:02.105355 32045 net.cpp:148] Top shape: 100 (100)
I0403 13:24:02.105370 32045 net.cpp:156] Memory required for data: 61836400
I0403 13:24:02.105384 32045 layer_factory.hpp:77] Creating layer conv1
I0403 13:24:02.105415 32045 net.cpp:91] Creating Layer conv1
I0403 13:24:02.105433 32045 net.cpp:425] conv1 <- data
I0403 13:24:02.105453 32045 net.cpp:399] conv1 -> conv1
I0403 13:24:02.246561 32045 net.cpp:141] Setting up conv1
I0403 13:24:02.246646 32045 net.cpp:148] Top shape: 100 96 55 55 (29040000)
I0403 13:24:02.246665 32045 net.cpp:156] Memory required for data: 177996400
I0403 13:24:02.246695 32045 layer_factory.hpp:77] Creating layer relu1
I0403 13:24:02.246721 32045 net.cpp:91] Creating Layer relu1
I0403 13:24:02.246739 32045 net.cpp:425] relu1 <- conv1
I0403 13:24:02.246757 32045 net.cpp:386] relu1 -> conv1 (in-place)
I0403 13:24:02.247011 32045 net.cpp:141] Setting up relu1
I0403 13:24:02.247038 32045 net.cpp:148] Top shape: 100 96 55 55 (29040000)
I0403 13:24:02.247086 32045 net.cpp:156] Memory required for data: 294156400
I0403 13:24:02.247102 32045 layer_factory.hpp:77] Creating layer norm1
I0403 13:24:02.247128 32045 net.cpp:91] Creating Layer norm1
I0403 13:24:02.247146 32045 net.cpp:425] norm1 <- conv1
I0403 13:24:02.247164 32045 net.cpp:399] norm1 -> norm1
I0403 13:24:02.247514 32045 net.cpp:141] Setting up norm1
I0403 13:24:02.247542 32045 net.cpp:148] Top shape: 100 96 55 55 (29040000)
I0403 13:24:02.247557 32045 net.cpp:156] Memory required for data: 410316400
I0403 13:24:02.247573 32045 layer_factory.hpp:77] Creating layer pool1
I0403 13:24:02.247596 32045 net.cpp:91] Creating Layer pool1
I0403 13:24:02.247613 32045 net.cpp:425] pool1 <- norm1
I0403 13:24:02.247632 32045 net.cpp:399] pool1 -> pool1
I0403 13:24:02.247699 32045 net.cpp:141] Setting up pool1
I0403 13:24:02.247723 32045 net.cpp:148] Top shape: 100 96 27 27 (6998400)
I0403 13:24:02.247738 32045 net.cpp:156] Memory required for data: 438310000
I0403 13:24:02.247753 32045 layer_factory.hpp:77] Creating layer conv2
I0403 13:24:02.247778 32045 net.cpp:91] Creating Layer conv2
I0403 13:24:02.247807 32045 net.cpp:425] conv2 <- pool1
I0403 13:24:02.247824 32045 net.cpp:399] conv2 -> conv2
I0403 13:24:02.262737 32045 net.cpp:141] Setting up conv2
I0403 13:24:02.262786 32045 net.cpp:148] Top shape: 100 256 27 27 (18662400)
I0403 13:24:02.262804 32045 net.cpp:156] Memory required for data: 512959600
I0403 13:24:02.262825 32045 layer_factory.hpp:77] Creating layer relu2
I0403 13:24:02.262846 32045 net.cpp:91] Creating Layer relu2
I0403 13:24:02.262862 32045 net.cpp:425] relu2 <- conv2
I0403 13:24:02.262881 32045 net.cpp:386] relu2 -> conv2 (in-place)
I0403 13:24:02.263146 32045 net.cpp:141] Setting up relu2
I0403 13:24:02.263185 32045 net.cpp:148] Top shape: 100 256 27 27 (18662400)
I0403 13:24:02.263201 32045 net.cpp:156] Memory required for data: 587609200
I0403 13:24:02.263217 32045 layer_factory.hpp:77] Creating layer norm2
I0403 13:24:02.263238 32045 net.cpp:91] Creating Layer norm2
I0403 13:24:02.263255 32045 net.cpp:425] norm2 <- conv2
I0403 13:24:02.263283 32045 net.cpp:399] norm2 -> norm2
I0403 13:24:02.263478 32045 net.cpp:141] Setting up norm2
I0403 13:24:02.263502 32045 net.cpp:148] Top shape: 100 256 27 27 (18662400)
I0403 13:24:02.263519 32045 net.cpp:156] Memory required for data: 662258800
I0403 13:24:02.263532 32045 layer_factory.hpp:77] Creating layer pool2
I0403 13:24:02.263553 32045 net.cpp:91] Creating Layer pool2
I0403 13:24:02.263571 32045 net.cpp:425] pool2 <- norm2
I0403 13:24:02.263588 32045 net.cpp:399] pool2 -> pool2
I0403 13:24:02.263643 32045 net.cpp:141] Setting up pool2
I0403 13:24:02.263665 32045 net.cpp:148] Top shape: 100 256 13 13 (4326400)
I0403 13:24:02.263680 32045 net.cpp:156] Memory required for data: 679564400
I0403 13:24:02.263695 32045 layer_factory.hpp:77] Creating layer conv3
I0403 13:24:02.263720 32045 net.cpp:91] Creating Layer conv3
I0403 13:24:02.263736 32045 net.cpp:425] conv3 <- pool2
I0403 13:24:02.263756 32045 net.cpp:399] conv3 -> conv3
I0403 13:24:02.303051 32045 net.cpp:141] Setting up conv3
I0403 13:24:02.303133 32045 net.cpp:148] Top shape: 100 384 13 13 (6489600)
I0403 13:24:02.303151 32045 net.cpp:156] Memory required for data: 705522800
I0403 13:24:02.303177 32045 layer_factory.hpp:77] Creating layer relu3
I0403 13:24:02.303200 32045 net.cpp:91] Creating Layer relu3
I0403 13:24:02.303216 32045 net.cpp:425] relu3 <- conv3
I0403 13:24:02.303236 32045 net.cpp:386] relu3 -> conv3 (in-place)
I0403 13:24:02.303529 32045 net.cpp:141] Setting up relu3
I0403 13:24:02.303560 32045 net.cpp:148] Top shape: 100 384 13 13 (6489600)
I0403 13:24:02.303575 32045 net.cpp:156] Memory required for data: 731481200
I0403 13:24:02.303591 32045 layer_factory.hpp:77] Creating layer conv4
I0403 13:24:02.303619 32045 net.cpp:91] Creating Layer conv4
I0403 13:24:02.303637 32045 net.cpp:425] conv4 <- conv3
I0403 13:24:02.303656 32045 net.cpp:399] conv4 -> conv4
I0403 13:24:02.334244 32045 net.cpp:141] Setting up conv4
I0403 13:24:02.334329 32045 net.cpp:148] Top shape: 100 384 13 13 (6489600)
I0403 13:24:02.334379 32045 net.cpp:156] Memory required for data: 757439600
I0403 13:24:02.334403 32045 layer_factory.hpp:77] Creating layer relu4
I0403 13:24:02.334426 32045 net.cpp:91] Creating Layer relu4
I0403 13:24:02.334444 32045 net.cpp:425] relu4 <- conv4
I0403 13:24:02.334465 32045 net.cpp:386] relu4 -> conv4 (in-place)
I0403 13:24:02.334792 32045 net.cpp:141] Setting up relu4
I0403 13:24:02.334820 32045 net.cpp:148] Top shape: 100 384 13 13 (6489600)
I0403 13:24:02.334836 32045 net.cpp:156] Memory required for data: 783398000
I0403 13:24:02.334851 32045 layer_factory.hpp:77] Creating layer conv5
I0403 13:24:02.334877 32045 net.cpp:91] Creating Layer conv5
I0403 13:24:02.334894 32045 net.cpp:425] conv5 <- conv4
I0403 13:24:02.334915 32045 net.cpp:399] conv5 -> conv5
I0403 13:24:02.355937 32045 net.cpp:141] Setting up conv5
I0403 13:24:02.356000 32045 net.cpp:148] Top shape: 100 256 13 13 (4326400)
I0403 13:24:02.356016 32045 net.cpp:156] Memory required for data: 800703600
I0403 13:24:02.356041 32045 layer_factory.hpp:77] Creating layer relu5
I0403 13:24:02.356067 32045 net.cpp:91] Creating Layer relu5
I0403 13:24:02.356086 32045 net.cpp:425] relu5 <- conv5
I0403 13:24:02.356104 32045 net.cpp:386] relu5 -> conv5 (in-place)
I0403 13:24:02.356465 32045 net.cpp:141] Setting up relu5
I0403 13:24:02.356495 32045 net.cpp:148] Top shape: 100 256 13 13 (4326400)
I0403 13:24:02.356511 32045 net.cpp:156] Memory required for data: 818009200
I0403 13:24:02.356526 32045 layer_factory.hpp:77] Creating layer pool5
I0403 13:24:02.356549 32045 net.cpp:91] Creating Layer pool5
I0403 13:24:02.356565 32045 net.cpp:425] pool5 <- conv5
I0403 13:24:02.356586 32045 net.cpp:399] pool5 -> pool5
I0403 13:24:02.356648 32045 net.cpp:141] Setting up pool5
I0403 13:24:02.356674 32045 net.cpp:148] Top shape: 100 256 6 6 (921600)
I0403 13:24:02.356689 32045 net.cpp:156] Memory required for data: 821695600
I0403 13:24:02.356704 32045 layer_factory.hpp:77] Creating layer fc6
I0403 13:24:02.356731 32045 net.cpp:91] Creating Layer fc6
I0403 13:24:02.356750 32045 net.cpp:425] fc6 <- pool5
I0403 13:24:02.356770 32045 net.cpp:399] fc6 -> fc6
I0403 13:24:03.914436 32045 net.cpp:141] Setting up fc6
I0403 13:24:03.914526 32045 net.cpp:148] Top shape: 100 4096 (409600)
I0403 13:24:03.914542 32045 net.cpp:156] Memory required for data: 823334000
I0403 13:24:03.914563 32045 layer_factory.hpp:77] Creating layer relu6
I0403 13:24:03.914588 32045 net.cpp:91] Creating Layer relu6
I0403 13:24:03.914607 32045 net.cpp:425] relu6 <- fc6
I0403 13:24:03.914626 32045 net.cpp:386] relu6 -> fc6 (in-place)
I0403 13:24:03.914839 32045 net.cpp:141] Setting up relu6
I0403 13:24:03.914863 32045 net.cpp:148] Top shape: 100 4096 (409600)
I0403 13:24:03.914877 32045 net.cpp:156] Memory required for data: 824972400
I0403 13:24:03.914891 32045 layer_factory.hpp:77] Creating layer drop6
I0403 13:24:03.914913 32045 net.cpp:91] Creating Layer drop6
I0403 13:24:03.914930 32045 net.cpp:425] drop6 <- fc6
I0403 13:24:03.914947 32045 net.cpp:386] drop6 -> fc6 (in-place)
I0403 13:24:03.914999 32045 net.cpp:141] Setting up drop6
I0403 13:24:03.915022 32045 net.cpp:148] Top shape: 100 4096 (409600)
I0403 13:24:03.915036 32045 net.cpp:156] Memory required for data: 826610800
I0403 13:24:03.915050 32045 layer_factory.hpp:77] Creating layer fc7
I0403 13:24:03.915072 32045 net.cpp:91] Creating Layer fc7
I0403 13:24:03.915088 32045 net.cpp:425] fc7 <- fc6
I0403 13:24:03.915105 32045 net.cpp:399] fc7 -> fc7
I0403 13:24:04.602764 32045 net.cpp:141] Setting up fc7
I0403 13:24:04.602849 32045 net.cpp:148] Top shape: 100 4096 (409600)
I0403 13:24:04.602866 32045 net.cpp:156] Memory required for data: 828249200
I0403 13:24:04.602886 32045 layer_factory.hpp:77] Creating layer relu7
I0403 13:24:04.602908 32045 net.cpp:91] Creating Layer relu7
I0403 13:24:04.602926 32045 net.cpp:425] relu7 <- fc7
I0403 13:24:04.602946 32045 net.cpp:386] relu7 -> fc7 (in-place)
I0403 13:24:04.603373 32045 net.cpp:141] Setting up relu7
I0403 13:24:04.603401 32045 net.cpp:148] Top shape: 100 4096 (409600)
I0403 13:24:04.603448 32045 net.cpp:156] Memory required for data: 829887600
I0403 13:24:04.603464 32045 layer_factory.hpp:77] Creating layer drop7
I0403 13:24:04.603483 32045 net.cpp:91] Creating Layer drop7
I0403 13:24:04.603498 32045 net.cpp:425] drop7 <- fc7
I0403 13:24:04.603515 32045 net.cpp:386] drop7 -> fc7 (in-place)
I0403 13:24:04.603559 32045 net.cpp:141] Setting up drop7
I0403 13:24:04.603581 32045 net.cpp:148] Top shape: 100 4096 (409600)
I0403 13:24:04.603595 32045 net.cpp:156] Memory required for data: 831526000
I0403 13:24:04.603610 32045 layer_factory.hpp:77] Creating layer fc8_plantvillage
I0403 13:24:04.603631 32045 net.cpp:91] Creating Layer fc8_plantvillage
I0403 13:24:04.603659 32045 net.cpp:425] fc8_plantvillage <- fc7
I0403 13:24:04.603677 32045 net.cpp:399] fc8_plantvillage -> fc8_plantvillage
I0403 13:24:04.610239 32045 net.cpp:141] Setting up fc8_plantvillage
I0403 13:24:04.610266 32045 net.cpp:148] Top shape: 100 38 (3800)
I0403 13:24:04.610286 32045 net.cpp:156] Memory required for data: 831541200
I0403 13:24:04.610304 32045 layer_factory.hpp:77] Creating layer fc8_plantvillage_fc8_plantvillage_0_split
I0403 13:24:04.610323 32045 net.cpp:91] Creating Layer fc8_plantvillage_fc8_plantvillage_0_split
I0403 13:24:04.610339 32045 net.cpp:425] fc8_plantvillage_fc8_plantvillage_0_split <- fc8_plantvillage
I0403 13:24:04.610357 32045 net.cpp:399] fc8_plantvillage_fc8_plantvillage_0_split -> fc8_plantvillage_fc8_plantvillage_0_split_0
I0403 13:24:04.610378 32045 net.cpp:399] fc8_plantvillage_fc8_plantvillage_0_split -> fc8_plantvillage_fc8_plantvillage_0_split_1
I0403 13:24:04.610397 32045 net.cpp:399] fc8_plantvillage_fc8_plantvillage_0_split -> fc8_plantvillage_fc8_plantvillage_0_split_2
I0403 13:24:04.610471 32045 net.cpp:141] Setting up fc8_plantvillage_fc8_plantvillage_0_split
I0403 13:24:04.610493 32045 net.cpp:148] Top shape: 100 38 (3800)
I0403 13:24:04.610520 32045 net.cpp:148] Top shape: 100 38 (3800)
I0403 13:24:04.610537 32045 net.cpp:148] Top shape: 100 38 (3800)
I0403 13:24:04.610549 32045 net.cpp:156] Memory required for data: 831586800
I0403 13:24:04.610563 32045 layer_factory.hpp:77] Creating layer prob
I0403 13:24:04.610584 32045 net.cpp:91] Creating Layer prob
I0403 13:24:04.610600 32045 net.cpp:425] prob <- fc8_plantvillage_fc8_plantvillage_0_split_0
I0403 13:24:04.610618 32045 net.cpp:399] prob -> prob
I0403 13:24:04.610839 32045 net.cpp:141] Setting up prob
I0403 13:24:04.610864 32045 net.cpp:148] Top shape: 100 38 (3800)
I0403 13:24:04.610878 32045 net.cpp:156] Memory required for data: 831602000
I0403 13:24:04.610893 32045 layer_factory.hpp:77] Creating layer hdf5out
I0403 13:24:04.610914 32045 net.cpp:91] Creating Layer hdf5out
I0403 13:24:04.610929 32045 net.cpp:425] hdf5out <- prob
I0403 13:24:04.610945 32045 net.cpp:425] hdf5out <- label_data_1_split_0
I0403 13:24:04.613348 32045 net.cpp:141] Setting up hdf5out
…
