…
I0403 15:24:46.664208  3063 net.cpp:313] The NetState phase (1) differed from the phase (0) specified by a rule in layer data
I0403 15:24:46.665390  3063 net.cpp:49] Initializing net from parameters: 
state {
  phase: TEST
}
layer {
  name: "data"
  type: "Data"
  top: "data"
  top: "label"
  include {
    phase: TEST
  }
  transform_param {
    mirror: false
    crop_size: 224
    mean_file: "/home/mohanty/data/final_dataset/lmdb/grayscale-50-50/mean.binaryproto"
  }
  data_param {
    source: "/home/mohanty/data/final_dataset/lmdb/grayscale-50-50/test_db"
    batch_size: 24
    backend: LMDB
  }
}
layer {
  name: "conv1/7x7_s2"
  type: "Convolution"
  bottom: "data"
  top: "conv1/7x7_s2"
  param {
    lr_mult: 1
    decay_mult: 1
  }
  param {
    lr_mult: 2
    decay_mult: 0
  }
  convolution_param {
    num_output: 64
    pad: 3
    kernel_size: 7
    stride: 2
    weight_filler {
      type: "xavier"
      std: 0.1
    }
    bias_filler {
      type: "constant"
      value: 0.2
    }
  }
}
layer {
  name: "conv1/relu_7x7"
  type: "ReLU"
  bottom: "conv1/7x7_s2"
  top: "conv1/7x7_s2"
}
layer {
  name: "pool1/3x3_s2"
  type: "Pooling"
  bottom: "conv1/7x7_s2"
  top: "pool1/3x3_s2"
  pooling_param {
    pool: MAX
    kernel_size: 3
    stride: 2
  }
}
layer {
  name: "pool1/norm1"
  type: "LRN"
  bottom: "pool1/3x3_s2"
  top: "pool1/norm1"
  lrn_param {
    local_size: 5
    alpha: 0.0001
    beta: 0.75
  }
}
layer {
  name: "conv2/3x3_reduce"
  type: "Convolution"
  bottom: "pool1/norm1"
  top: "conv2/3x3_reduce"
  param {
    lr_mult: 1
    decay_mult: 1
  }
  param {
    lr_mult: 2
    decay_mult: 0
  }
  convolution_param {
    num_output: 64
    kernel_size: 1
    weight_filler {
      type: "xavier"
      std: 0.1
    }
    bias_filler {
      type: "constant"
      value: 0.2
    }
  }
}
layer {
  name: "conv2/relu_3x3_reduce"
  type: "ReLU"
  bottom: "conv2/3x3_reduce"
  top: "conv2/3x3_reduce"
}
layer {
  name: "conv2/3x3"
  type: "Convolution"
  bottom: "conv2/3x3_reduce"
  top: "conv2/3x3"
  param {
    lr_mult: 1
    decay_mult: 1
  }
  param {
    lr_mult: 2
    decay_mult: 0
  }
  convolution_param {
    num_output: 192
    pad: 1
    kernel_size: 3
    weight_filler {
      type: "xavier"
      std: 0.03
    }
    bias_filler {
      type: "constant"
      value: 0.2
    }
  }
}
layer {
  name: "conv2/relu_3x3"
  type: "ReLU"
  bottom: "conv2/3x3"
  top: "conv2/3x3"
}
layer {
  name: "conv2/norm2"
  type: "LRN"
  bottom: "conv2/3x3"
  top: "conv2/norm2"
  lrn_param {
    local_size: 5
    alpha: 0.0001
    beta: 0.75
  }
}
layer {
  name: "pool2/3x3_s2"
  type: "Pooling"
  bottom: "conv2/norm2"
  top: "pool2/3x3_s2"
  pooling_param {
    pool: MAX
    kernel_size: 3
    stride: 2
  }
}
layer {
  name: "inception_3a/1x1"
  type: "Convolution"
  bottom: "pool2/3x3_s2"
  top: "inception_3a/1x1"
  param {
    lr_mult: 1
    decay_mult: 1
  }
  param {
    lr_mult: 2
    decay_mult: 0
  }
  convolution_param {
    num_output: 64
    kernel_size: 1
    weight_filler {
      type: "xavier"
      std: 0.03
    }
    bias_filler {
      type: "constant"
      value: 0.2
    }
  }
}
layer {
  name: "inception_3a/relu_1x1"
  type: "ReLU"
  bottom: "inception_3a/1x1"
  top: "inception_3a/1x1"
}
layer {
  name: "inception_3a/3x3_reduce"
  type: "Convolution"
  bottom: "pool2/3x3_s2"
  top: "inception_3a/3x3_reduce"
  param {
    lr_mult: 1
    decay_mult: 1
  }
  param {
    lr_mult: 2
    decay_mult: 0
  }
  convolution_param {
    num_output: 96
    kernel_size: 1
    weight_filler {
      type: "xavier"
      std: 0.09
    }
    bias_filler {
      type: "constant"
      value: 0.2
    }
  }
}
layer {
  name: "inception_3a/relu_3x3_reduce"
  type: "ReLU"
  bottom: "inception_3a/3x3_reduce"
  top: "inception_3a/3x3_reduce"
}
layer {
  name: "inception_3a/3x3"
  type: "Convolution"
  bottom: "inception_3a/3x3_reduce"
  top: "inception_3a/3x3"
  param {
    lr_mult: 1
    decay_mult: 1
  }
  param {
    lr_mult: 2
    decay_mult: 0
  }
  convolution_param {
    num_output: 128
    pad: 1
    kernel_size: 3
    weight_filler {
      type: "xavier"
      std: 0.03
    }
    bias_filler {
      type: "constant"
      value: 0.2
    }
  }
}
layer {
  name: "inception_3a/relu_3x3"
  type: "ReLU"
  bottom: "inception_3a/3x3"
  top: "inception_3a/3x3"
}
layer {
  name: "inception_3a/5x5_reduce"
  type: "Convolution"
  bottom: "pool2/3x3_s2"
  top: "inception_3a/5x5_reduce"
  param {
    lr_mult: 1
    decay_mult: 1
  }
  param {
    lr_mult: 2
    decay_mult: 0
  }
  convolution_param {
    num_output: 16
    kernel_size: 1
    weight_filler {
      type: "xavier"
      std: 0.2
    }
    bias_filler {
      type: "constant"
      value: 0.2
    }
  }
}
layer {
  name: "inception_3a/relu_5x5_reduce"
  type: "ReLU"
  bottom: "inception_3a/5x5_reduce"
  top: "inception_3a/5x5_reduce"
}
layer {
  name: "inception_3a/5x5"
  type: "Convolution"
  bottom: "inception_3a/5x5_reduce"
  top: "inception_3a/5x5"
  param {
    lr_mult: 1
    decay_mult: 1
  }
  param {
    lr_mult: 2
    decay_mult: 0
  }
  convolution_param {
    num_output: 32
    pad: 2
    kernel_size: 5
    weight_filler {
      type: "xavier"
      std: 0.03
    }
    bias_filler {
      type: "constant"
      value: 0.2
    }
  }
}
layer {
  name: "inception_3a/relu_5x5"
  type: "ReLU"
  bottom: "inception_3a/5x5"
  top: "inception_3a/5x5"
}
layer {
  name: "inception_3a/pool"
  type: "Pooling"
  bottom: "pool2/3x3_s2"
  top: "inception_3a/pool"
  pooling_param {
    pool: MAX
    kernel_size: 3
    stride: 1
    pad: 1
  }
}
layer {
  name: "inception_3a/pool_proj"
  type: "Convolution"
  bottom: "inception_3a/pool"
  top: "inception_3a/pool_proj"
  param {
    lr_mult: 1
    decay_mult: 1
  }
  param {
    lr_mult: 2
    decay_mult: 0
  }
  convolution_param {
    num_output: 32
    kernel_size: 1
    weight_filler {
      type: "xavier"
      std: 0.1
    }
    bias_filler {
      type: "constant"
      value: 0.2
    }
  }
}
layer {
  name: "inception_3a/relu_pool_proj"
  type: "ReLU"
  bottom: "inception_3a/pool_proj"
  top: "inception_3a/pool_proj"
}
layer {
  name: "inception_3a/output"
  type: "Concat"
  bottom: "inception_3a/1x1"
  bottom: "inception_3a/3x3"
  bottom: "inception_3a/5x5"
  bottom: "inception_3a/pool_proj"
  top: "inception_3a/output"
}
layer {
  name: "inception_3b/1x1"
  type: "Convolution"
  bottom: "inception_3a/output"
  top: "inception_3b/1x1"
  param {
    lr_mult: 1
    decay_mult: 1
  }
  param {
    lr_mult: 2
    decay_mult: 0
  }
  convolution_param {
    num_output: 128
    kernel_size: 1
    weight_filler {
      type: "xavier"
      std: 0.03
    }
    bias_filler {
      type: "constant"
      value: 0.2
    }
  }
}
layer {
  name: "inception_3b/relu_1x1"
  type: "ReLU"
  bottom: "inception_3b/1x1"
  top: "inception_3b/1x1"
}
layer {
  name: "inception_3b/3x3_reduce"
  type: "Convolution"
  bottom: "inception_3a/output"
  top: "inception_3b/3x3_reduce"
  param {
    lr_mult: 1
    decay_mult: 1
  }
  param {
    lr_mult: 2
    decay_mult: 0
  }
  convolution_param {
    num_output: 128
    kernel_size: 1
    weight_filler {
      type: "xavier"
      std: 0.09
    }
    bias_filler {
      type: "constant"
      value: 0.2
    }
  }
}
layer {
  name: "inception_3b/relu_3x3_reduce"
  type: "ReLU"
  bottom: "inception_3b/3x3_reduce"
  top: "inception_3b/3x3_reduce"
}
layer {
  name: "inception_3b/3x3"
  type: "Convolution"
  bottom: "inception_3b/3x3_reduce"
  top: "inception_3b/3x3"
  param {
    lr_mult: 1
    decay_mult: 1
  }
  param {
    lr_mult: 2
    decay_mult: 0
  }
  convolution_param {
    num_output: 192
    pad: 1
    kernel_size: 3
    weight_filler {
      type: "xavier"
      std: 0.03
    }
    bias_filler {
      type: "constant"
      value: 0.2
    }
  }
}
layer {
  name: "inception_3b/relu_3x3"
  type: "ReLU"
  bottom: "inception_3b/3x3"
  top: "inception_3b/3x3"
}
layer {
  name: "inception_3b/5x5_reduce"
  type: "Convolution"
  bottom: "inception_3a/output"
  top: "inception_3b/5x5_reduce"
  param {
    lr_mult: 1
    decay_mult: 1
  }
  param {
    lr_mult: 2
    decay_mult: 0
  }
  convolution_param {
    num_output: 32
    kernel_size: 1
    weight_filler {
      type: "xavier"
      std: 0.2
    }
    bias_filler {
      type: "constant"
      value: 0.2
    }
  }
}
layer {
  name: "inception_3b/relu_5x5_reduce"
  type: "ReLU"
  bottom: "inception_3b/5x5_reduce"
  top: "inception_3b/5x5_reduce"
}
layer {
  name: "inception_3b/5x5"
  type: "Convolution"
  bottom: "inception_3b/5x5_reduce"
  top: "inception_3b/5x5"
  param {
    lr_mult: 1
    decay_mult: 1
  }
  param {
    lr_mult: 2
    decay_mult: 0
  }
  convolution_param {
    num_output: 96
    pad: 2
    kernel_size: 5
    weight_filler {
      type: "xavier"
      std: 0.03
    }
    bias_filler {
      type: "constant"
      value: 0.2
    }
  }
}
layer {
  name: "inception_3b/relu_5x5"
  type: "ReLU"
  bottom: "inception_3b/5x5"
  top: "inception_3b/5x5"
}
layer {
  name: "inception_3b/pool"
  type: "Pooling"
  bottom: "inception_3a/output"
  top: "inception_3b/pool"
  pooling_param {
    pool: MAX
    kernel_size: 3
    stride: 1
    pad: 1
  }
}
layer {
  name: "inception_3b/pool_proj"
  type: "Convolution"
  bottom: "inception_3b/pool"
  top: "inception_3b/pool_proj"
  param {
    lr_mult: 1
    decay_mult: 1
  }
  param {
    lr_mult: 2
    decay_mult: 0
  }
  convolution_param {
    num_output: 64
    kernel_size: 1
    weight_filler {
      type: "xavier"
      std: 0.1
    }
    bias_filler {
      type: "constant"
      value: 0.2
    }
  }
}
layer {
  name: "inception_3b/relu_pool_proj"
  type: "ReLU"
  bottom: "inception_3b/pool_proj"
  top: "inception_3b/pool_proj"
}
layer {
  name: "inception_3b/output"
  type: "Concat"
  bottom: "inception_3b/1x1"
  bottom: "inception_3b/3x3"
  bottom: "inception_3b/5x5"
  bottom: "inception_3b/pool_proj"
  top: "inception_3b/output"
}
layer {
  name: "pool3/3x3_s2"
  type: "Pooling"
  bottom: "inception_3b/output"
  top: "pool3/3x3_s2"
  pooling_param {
    pool: MAX
    kernel_size: 3
    stride: 2
  }
}
layer {
  name: "inception_4a/1x1"
  type: "Convolution"
  bottom: "pool3/3x3_s2"
  top: "inception_4a/1x1"
  param {
    lr_mult: 1
    decay_mult: 1
  }
  param {
    lr_mult: 2
    decay_mult: 0
  }
  convolution_param {
    num_output: 192
    kernel_size: 1
    weight_filler {
      type: "xavier"
      std: 0.03
    }
    bias_filler {
      type: "constant"
      value: 0.2
    }
  }
}
layer {
  name: "inception_4a/relu_1x1"
  type: "ReLU"
  bottom: "inception_4a/1x1"
  top: "inception_4a/1x1"
}
layer {
  name: "inception_4a/3x3_reduce"
  type: "Convolution"
  bottom: "pool3/3x3_s2"
  top: "inception_4a/3x3_reduce"
  param {
    lr_mult: 1
    decay_mult: 1
  }
  param {
    lr_mult: 2
    decay_mult: 0
  }
  convolution_param {
    num_output: 96
    kernel_size: 1
    weight_filler {
      type: "xavier"
      std: 0.09
    }
    bias_filler {
      type: "constant"
      value: 0.2
    }
  }
}
layer {
  name: "inception_4a/relu_3x3_reduce"
  type: "ReLU"
  bottom: "inception_4a/3x3_reduce"
  top: "inception_4a/3x3_reduce"
}
layer {
  name: "inception_4a/3x3"
  type: "Convolution"
  bottom: "inception_4a/3x3_reduce"
  top: "inception_4a/3x3"
  param {
    lr_mult: 1
    decay_mult: 1
  }
  param {
    lr_mult: 2
    decay_mult: 0
  }
  convolution_param {
    num_output: 208
    pad: 1
    kernel_size: 3
    weight_filler {
      type: "xavier"
      std: 0.03
    }
    bias_filler {
      type: "constant"
      value: 0.2
    }
  }
}
layer {
  name: "inception_4a/relu_3x3"
  type: "ReLU"
  bottom: "inception_4a/3x3"
  top: "inception_4a/3x3"
}
layer {
  name: "inception_4a/5x5_reduce"
  type: "Convolution"
  bottom: "pool3/3x3_s2"
  top: "inception_4a/5x5_reduce"
  param {
    lr_mult: 1
    decay_mult: 1
  }
  param {
    lr_mult: 2
    decay_mult: 0
  }
  convolution_param {
    num_output: 16
    kernel_size: 1
    weight_filler {
      type: "xavier"
      std: 0.2
    }
    bias_filler {
      type: "constant"
      value: 0.2
    }
  }
}
layer {
  name: "inception_4a/relu_5x5_reduce"
  type: "ReLU"
  bottom: "inception_4a/5x5_reduce"
  top: "inception_4a/5x5_reduce"
}
layer {
  name: "inception_4a/5x5"
  type: "Convolution"
  bottom: "inception_4a/5x5_reduce"
  top: "inception_4a/5x5"
  param {
    lr_mult: 1
    decay_mult: 1
  }
  param {
    lr_mult: 2
    decay_mult: 0
  }
  convolution_param {
    num_output: 48
    pad: 2
    kernel_size: 5
    weight_filler {
      type: "xavier"
      std: 0.03
    }
    bias_filler {
      type: "constant"
      value: 0.2
    }
  }
}
layer {
  name: "inception_4a/relu_5x5"
  type: "ReLU"
  bottom: "inception_4a/5x5"
  top: "inception_4a/5x5"
}
layer {
  name: "inception_4a/pool"
  type: "Pooling"
  bottom: "pool3/3x3_s2"
  top: "inception_4a/pool"
  pooling_param {
    pool: MAX
    kernel_size: 3
    stride: 1
    pad: 1
  }
}
layer {
  name: "inception_4a/pool_proj"
  type: "Convolution"
  bottom: "inception_4a/pool"
  top: "inception_4a/pool_proj"
  param {
    lr_mult: 1
    decay_mult: 1
  }
  param {
    lr_mult: 2
    decay_mult: 0
  }
  convolution_param {
    num_output: 64
    kernel_size: 1
    weight_filler {
      type: "xavier"
      std: 0.1
    }
    bias_filler {
      type: "constant"
      value: 0.2
    }
  }
}
layer {
  name: "inception_4a/relu_pool_proj"
  type: "ReLU"
  bottom: "inception_4a/pool_proj"
  top: "inception_4a/pool_proj"
}
layer {
  name: "inception_4a/output"
  type: "Concat"
  bottom: "inception_4a/1x1"
  bottom: "inception_4a/3x3"
  bottom: "inception_4a/5x5"
  bottom: "inception_4a/pool_proj"
  top: "inception_4a/output"
}
layer {
  name: "loss1/ave_pool"
  type: "Pooling"
  bottom: "inception_4a/output"
  top: "loss1/ave_pool"
  pooling_param {
    pool: AVE
    kernel_size: 5
    stride: 3
  }
}
layer {
  name: "loss1/conv"
  type: "Convolution"
  bottom: "loss1/ave_pool"
  top: "loss1/conv"
  param {
    lr_mult: 1
    decay_mult: 1
  }
  param {
    lr_mult: 2
    decay_mult: 0
  }
  convolution_param {
    num_output: 128
    kernel_size: 1
    weight_filler {
      type: "xavier"
      std: 0.08
    }
    bias_filler {
      type: "constant"
      value: 0.2
    }
  }
}
layer {
  name: "loss1/relu_conv"
  type: "ReLU"
  bottom: "loss1/conv"
  top: "loss1/conv"
}
layer {
  name: "loss1/fc"
  type: "InnerProduct"
  bottom: "loss1/conv"
  top: "loss1/fc"
  param {
    lr_mult: 1
    decay_mult: 1
  }
  param {
    lr_mult: 2
    decay_mult: 0
  }
  inner_product_param {
    num_output: 1024
    weight_filler {
      type: "xavier"
      std: 0.02
    }
    bias_filler {
      type: "constant"
      value: 0.2
    }
  }
}
layer {
  name: "loss1/relu_fc"
  type: "ReLU"
  bottom: "loss1/fc"
  top: "loss1/fc"
}
layer {
  name: "loss1/drop_fc"
  type: "Dropout"
  bottom: "loss1/fc"
  top: "loss1/fc"
  dropout_param {
    dropout_ratio: 0.7
  }
}
layer {
  name: "loss1/classifier_plantvillage"
  type: "InnerProduct"
  bottom: "loss1/fc"
  top: "loss1/classifier_plantvillage"
  param {
    lr_mult: 1
    decay_mult: 1
  }
  param {
    lr_mult: 2
    decay_mult: 0
  }
  inner_product_param {
    num_output: 38
    weight_filler {
      type: "xavier"
      std: 0.0009765625
    }
    bias_filler {
      type: "constant"
      value: 0
    }
  }
}
layer {
  name: "inception_4b/1x1"
  type: "Convolution"
  bottom: "inception_4a/output"
  top: "inception_4b/1x1"
  param {
    lr_mult: 1
    decay_mult: 1
  }
  param {
    lr_mult: 2
    decay_mult: 0
  }
  convolution_param {
    num_output: 160
    kernel_size: 1
    weight_filler {
      type: "xavier"
      std: 0.03
    }
    bias_filler {
      type: "constant"
      value: 0.2
    }
  }
}
layer {
  name: "inception_4b/relu_1x1"
  type: "ReLU"
  bottom: "inception_4b/1x1"
  top: "inception_4b/1x1"
}
layer {
  name: "inception_4b/3x3_reduce"
  type: "Convolution"
  bottom: "inception_4a/output"
  top: "inception_4b/3x3_reduce"
  param {
    lr_mult: 1
    decay_mult: 1
  }
  param {
    lr_mult: 2
    decay_mult: 0
  }
  convolution_param {
    num_output: 112
    kernel_size: 1
    weight_filler {
      type: "xavier"
      std: 0.09
    }
    bias_filler {
      type: "constant"
      value: 0.2
    }
  }
}
layer {
  name: "inception_4b/relu_3x3_reduce"
  type: "ReLU"
  bottom: "inception_4b/3x3_reduce"
  top: "inception_4b/3x3_reduce"
}
layer {
  name: "inception_4b/3x3"
  type: "Convolution"
  bottom: "inception_4b/3x3_reduce"
  top: "inception_4b/3x3"
  param {
    lr_mult: 1
    decay_mult: 1
  }
  param {
    lr_mult: 2
    decay_mult: 0
  }
  convolution_param {
    num_output: 224
    pad: 1
    kernel_size: 3
    weight_filler {
      type: "xavier"
      std: 0.03
    }
    bias_filler {
      type: "constant"
      value: 0.2
    }
  }
}
layer {
  name: "inception_4b/relu_3x3"
  type: "ReLU"
  bottom: "inception_4b/3x3"
  top: "inception_4b/3x3"
}
layer {
  name: "inception_4b/5x5_reduce"
  type: "Convolution"
  bottom: "inception_4a/output"
  top: "inception_4b/5x5_reduce"
  param {
    lr_mult: 1
    decay_mult: 1
  }
  param {
    lr_mult: 2
    decay_mult: 0
  }
  convolution_param {
    num_output: 24
    kernel_size: 1
    weight_filler {
      type: "xavier"
      std: 0.2
    }
    bias_filler {
      type: "constant"
      value: 0.2
    }
  }
}
layer {
  name: "inception_4b/relu_5x5_reduce"
  type: "ReLU"
  bottom: "inception_4b/5x5_reduce"
  top: "inception_4b/5x5_reduce"
}
layer {
  name: "inception_4b/5x5"
  type: "Convolution"
  bottom: "inception_4b/5x5_reduce"
  top: "inception_4b/5x5"
  param {
    lr_mult: 1
    decay_mult: 1
  }
  param {
    lr_mult: 2
    decay_mult: 0
  }
  convolution_param {
    num_output: 64
    pad: 2
    kernel_size: 5
    weight_filler {
      type: "xavier"
      std: 0.03
    }
    bias_filler {
      type: "constant"
      value: 0.2
    }
  }
}
layer {
  name: "inception_4b/relu_5x5"
  type: "ReLU"
  bottom: "inception_4b/5x5"
  top: "inception_4b/5x5"
}
layer {
  name: "inception_4b/pool"
  type: "Pooling"
  bottom: "inception_4a/output"
  top: "inception_4b/pool"
  pooling_param {
    pool: MAX
    kernel_size: 3
    stride: 1
    pad: 1
  }
}
layer {
  name: "inception_4b/pool_proj"
  type: "Convolution"
  bottom: "inception_4b/pool"
  top: "inception_4b/pool_proj"
  param {
    lr_mult: 1
    decay_mult: 1
  }
  param {
    lr_mult: 2
    decay_mult: 0
  }
  convolution_param {
    num_output: 64
    kernel_size: 1
    weight_filler {
      type: "xavier"
      std: 0.1
    }
    bias_filler {
      type: "constant"
      value: 0.2
    }
  }
}
layer {
  name: "inception_4b/relu_pool_proj"
  type: "ReLU"
  bottom: "inception_4b/pool_proj"
  top: "inception_4b/pool_proj"
}
layer {
  name: "inception_4b/output"
  type: "Concat"
  bottom: "inception_4b/1x1"
  bottom: "inception_4b/3x3"
  bottom: "inception_4b/5x5"
  bottom: "inception_4b/pool_proj"
  top: "inception_4b/output"
}
layer {
  name: "inception_4c/1x1"
  type: "Convolution"
  bottom: "inception_4b/output"
  top: "inception_4c/1x1"
  param {
    lr_mult: 1
    decay_mult: 1
  }
  param {
    lr_mult: 2
    decay_mult: 0
  }
  convolution_param {
    num_output: 128
    kernel_size: 1
    weight_filler {
      type: "xavier"
      std: 0.03
    }
    bias_filler {
      type: "constant"
      value: 0.2
    }
  }
}
layer {
  name: "inception_4c/relu_1x1"
  type: "ReLU"
  bottom: "inception_4c/1x1"
  top: "inception_4c/1x1"
}
layer {
  name: "inception_4c/3x3_reduce"
  type: "Convolution"
  bottom: "inception_4b/output"
  top: "inception_4c/3x3_reduce"
  param {
    lr_mult: 1
    decay_mult: 1
  }
  param {
    lr_mult: 2
    decay_mult: 0
  }
  convolution_param {
    num_output: 128
    kernel_size: 1
    weight_filler {
      type: "xavier"
      std: 0.09
    }
    bias_filler {
      type: "constant"
      value: 0.2
    }
  }
}
layer {
  name: "inception_4c/relu_3x3_reduce"
  type: "ReLU"
  bottom: "inception_4c/3x3_reduce"
  top: "inception_4c/3x3_reduce"
}
layer {
  name: "inception_4c/3x3"
  type: "Convolution"
  bottom: "inception_4c/3x3_reduce"
  top: "inception_4c/3x3"
  param {
    lr_mult: 1
    decay_mult: 1
  }
  param {
    lr_mult: 2
    decay_mult: 0
  }
  convolution_param {
    num_output: 256
    pad: 1
    kernel_size: 3
    weight_filler {
      type: "xavier"
      std: 0.03
    }
    bias_filler {
      type: "constant"
      value: 0.2
    }
  }
}
layer {
  name: "inception_4c/relu_3x3"
  type: "ReLU"
  bottom: "inception_4c/3x3"
  top: "inception_4c/3x3"
}
layer {
  name: "inception_4c/5x5_reduce"
  type: "Convolution"
  bottom: "inception_4b/output"
  top: "inception_4c/5x5_reduce"
  param {
    lr_mult: 1
    decay_mult: 1
  }
  param {
    lr_mult: 2
    decay_mult: 0
  }
  convolution_param {
    num_output: 24
    kernel_size: 1
    weight_filler {
      type: "xavier"
      std: 0.2
    }
    bias_filler {
      type: "constant"
      value: 0.2
    }
  }
}
layer {
  name: "inception_4c/relu_5x5_reduce"
  type: "ReLU"
  bottom: "inception_4c/5x5_reduce"
  top: "inception_4c/5x5_reduce"
}
layer {
  name: "inception_4c/5x5"
  type: "Convolution"
  bottom: "inception_4c/5x5_reduce"
  top: "inception_4c/5x5"
  param {
    lr_mult: 1
    decay_mult: 1
  }
  param {
    lr_mult: 2
    decay_mult: 0
  }
  convolution_param {
    num_output: 64
    pad: 2
    kernel_size: 5
    weight_filler {
      type: "xavier"
      std: 0.03
    }
    bias_filler {
      type: "constant"
      value: 0.2
    }
  }
}
layer {
  name: "inception_4c/relu_5x5"
  type: "ReLU"
  bottom: "inception_4c/5x5"
  top: "inception_4c/5x5"
}
layer {
  name: "inception_4c/pool"
  type: "Pooling"
  bottom: "inception_4b/output"
  top: "inception_4c/pool"
  pooling_param {
    pool: MAX
    kernel_size: 3
    stride: 1
    pad: 1
  }
}
layer {
  name: "inception_4c/pool_proj"
  type: "Convolution"
  bottom: "inception_4c/pool"
  top: "inception_4c/pool_proj"
  param {
    lr_mult: 1
    decay_mult: 1
  }
  param {
    lr_mult: 2
    decay_mult: 0
  }
  convolution_param {
    num_output: 64
    kernel_size: 1
    weight_filler {
      type: "xavier"
      std: 0.1
    }
    bias_filler {
      type: "constant"
      value: 0.2
    }
  }
}
layer {
  name: "inception_4c/relu_pool_proj"
  type: "ReLU"
  bottom: "inception_4c/pool_proj"
  top: "inception_4c/pool_proj"
}
layer {
  name: "inception_4c/output"
  type: "Concat"
  bottom: "inception_4c/1x1"
  bottom: "inception_4c/3x3"
  bottom: "inception_4c/5x5"
  bottom: "inception_4c/pool_proj"
  top: "inception_4c/output"
}
layer {
  name: "inception_4d/1x1"
  type: "Convolution"
  bottom: "inception_4c/output"
  top: "inception_4d/1x1"
  param {
    lr_mult: 1
    decay_mult: 1
  }
  param {
    lr_mult: 2
    decay_mult: 0
  }
  convolution_param {
    num_output: 112
    kernel_size: 1
    weight_filler {
      type: "xavier"
      std: 0.03
    }
    bias_filler {
      type: "constant"
      value: 0.2
    }
  }
}
layer {
  name: "inception_4d/relu_1x1"
  type: "ReLU"
  bottom: "inception_4d/1x1"
  top: "inception_4d/1x1"
}
layer {
  name: "inception_4d/3x3_reduce"
  type: "Convolution"
  bottom: "inception_4c/output"
  top: "inception_4d/3x3_reduce"
  param {
    lr_mult: 1
    decay_mult: 1
  }
  param {
    lr_mult: 2
    decay_mult: 0
  }
  convolution_param {
    num_output: 144
    kernel_size: 1
    weight_filler {
      type: "xavier"
      std: 0.09
    }
    bias_filler {
      type: "constant"
      value: 0.2
    }
  }
}
layer {
  name: "inception_4d/relu_3x3_reduce"
  type: "ReLU"
  bottom: "inception_4d/3x3_reduce"
  top: "inception_4d/3x3_reduce"
}
layer {
  name: "inception_4d/3x3"
  type: "Convolution"
  bottom: "inception_4d/3x3_reduce"
  top: "inception_4d/3x3"
  param {
    lr_mult: 1
    decay_mult: 1
  }
  param {
    lr_mult: 2
    decay_mult: 0
  }
  convolution_param {
    num_output: 288
    pad: 1
    kernel_size: 3
    weight_filler {
      type: "xavier"
      std: 0.03
    }
    bias_filler {
      type: "constant"
      value: 0.2
    }
  }
}
layer {
  name: "inception_4d/relu_3x3"
  type: "ReLU"
  bottom: "inception_4d/3x3"
  top: "inception_4d/3x3"
}
layer {
  name: "inception_4d/5x5_reduce"
  type: "Convolution"
  bottom: "inception_4c/output"
  top: "inception_4d/5x5_reduce"
  param {
    lr_mult: 1
    decay_mult: 1
  }
  param {
    lr_mult: 2
    decay_mult: 0
  }
  convolution_param {
    num_output: 32
    kernel_size: 1
    weight_filler {
      type: "xavier"
      std: 0.2
    }
    bias_filler {
      type: "constant"
      value: 0.2
    }
  }
}
layer {
  name: "inception_4d/relu_5x5_reduce"
  type: "ReLU"
  bottom: "inception_4d/5x5_reduce"
  top: "inception_4d/5x5_reduce"
}
layer {
  name: "inception_4d/5x5"
  type: "Convolution"
  bottom: "inception_4d/5x5_reduce"
  top: "inception_4d/5x5"
  param {
    lr_mult: 1
    decay_mult: 1
  }
  param {
    lr_mult: 2
    decay_mult: 0
  }
  convolution_param {
    num_output: 64
    pad: 2
    kernel_size: 5
    weight_filler {
      type: "xavier"
      std: 0.03
    }
    bias_filler {
      type: "constant"
      value: 0.2
    }
  }
}
layer {
  name: "inception_4d/relu_5x5"
  type: "ReLU"
  bottom: "inception_4d/5x5"
  top: "inception_4d/5x5"
}
layer {
  name: "inception_4d/pool"
  type: "Pooling"
  bottom: "inception_4c/output"
  top: "inception_4d/pool"
  pooling_param {
    pool: MAX
    kernel_size: 3
    stride: 1
    pad: 1
  }
}
layer {
  name: "inception_4d/pool_proj"
  type: "Convolution"
  bottom: "inception_4d/pool"
  top: "inception_4d/pool_proj"
  param {
    lr_mult: 1
    decay_mult: 1
  }
  param {
    lr_mult: 2
    decay_mult: 0
  }
  convolution_param {
    num_output: 64
    kernel_size: 1
    weight_filler {
      type: "xavier"
      std: 0.1
    }
    bias_filler {
      type: "constant"
      value: 0.2
    }
  }
}
layer {
  name: "inception_4d/relu_pool_proj"
  type: "ReLU"
  bottom: "inception_4d/pool_proj"
  top: "inception_4d/pool_proj"
}
layer {
  name: "inception_4d/output"
  type: "Concat"
  bottom: "inception_4d/1x1"
  bottom: "inception_4d/3x3"
  bottom: "inception_4d/5x5"
  bottom: "inception_4d/pool_proj"
  top: "inception_4d/output"
}
layer {
  name: "loss2/ave_pool"
  type: "Pooling"
  bottom: "inception_4d/output"
  top: "loss2/ave_pool"
  pooling_param {
    pool: AVE
    kernel_size: 5
    stride: 3
  }
}
layer {
  name: "loss2/conv"
  type: "Convolution"
  bottom: "loss2/ave_pool"
  top: "loss2/conv"
  param {
    lr_mult: 1
    decay_mult: 1
  }
  param {
    lr_mult: 2
    decay_mult: 0
  }
  convolution_param {
    num_output: 128
    kernel_size: 1
    weight_filler {
      type: "xavier"
      std: 0.08
    }
    bias_filler {
      type: "constant"
      value: 0.2
    }
  }
}
layer {
  name: "loss2/relu_conv"
  type: "ReLU"
  bottom: "loss2/conv"
  top: "loss2/conv"
}
layer {
  name: "loss2/fc"
  type: "InnerProduct"
  bottom: "loss2/conv"
  top: "loss2/fc"
  param {
    lr_mult: 1
    decay_mult: 1
  }
  param {
    lr_mult: 2
    decay_mult: 0
  }
  inner_product_param {
    num_output: 1024
    weight_filler {
      type: "xavier"
      std: 0.02
    }
    bias_filler {
      type: "constant"
      value: 0.2
    }
  }
}
layer {
  name: "loss2/relu_fc"
  type: "ReLU"
  bottom: "loss2/fc"
  top: "loss2/fc"
}
layer {
  name: "loss2/drop_fc"
  type: "Dropout"
  bottom: "loss2/fc"
  top: "loss2/fc"
  dropout_param {
    dropout_ratio: 0.7
  }
}
layer {
  name: "loss2/classifier_plantvillage"
  type: "InnerProduct"
  bottom: "loss2/fc"
  top: "loss2/classifier_plantvillage"
  param {
    lr_mult: 1
    decay_mult: 1
  }
  param {
    lr_mult: 2
    decay_mult: 0
  }
  inner_product_param {
    num_output: 38
    weight_filler {
      type: "xavier"
      std: 0.0009765625
    }
    bias_filler {
      type: "constant"
      value: 0
    }
  }
}
layer {
  name: "inception_4e/1x1"
  type: "Convolution"
  bottom: "inception_4d/output"
  top: "inception_4e/1x1"
  param {
    lr_mult: 1
    decay_mult: 1
  }
  param {
    lr_mult: 2
    decay_mult: 0
  }
  convolution_param {
    num_output: 256
    kernel_size: 1
    weight_filler {
      type: "xavier"
      std: 0.03
    }
    bias_filler {
      type: "constant"
      value: 0.2
    }
  }
}
layer {
  name: "inception_4e/relu_1x1"
  type: "ReLU"
  bottom: "inception_4e/1x1"
  top: "inception_4e/1x1"
}
layer {
  name: "inception_4e/3x3_reduce"
  type: "Convolution"
  bottom: "inception_4d/output"
  top: "inception_4e/3x3_reduce"
  param {
    lr_mult: 1
    decay_mult: 1
  }
  param {
    lr_mult: 2
    decay_mult: 0
  }
  convolution_param {
    num_output: 160
    kernel_size: 1
    weight_filler {
      type: "xavier"
      std: 0.09
    }
    bias_filler {
      type: "constant"
      value: 0.2
    }
  }
}
layer {
  name: "inception_4e/relu_3x3_reduce"
  type: "ReLU"
  bottom: "inception_4e/3x3_reduce"
  top: "inception_4e/3x3_reduce"
}
layer {
  name: "inception_4e/3x3"
  type: "Convolution"
  bottom: "inception_4e/3x3_reduce"
  top: "inception_4e/3x3"
  param {
    lr_mult: 1
    decay_mult: 1
  }
  param {
    lr_mult: 2
    decay_mult: 0
  }
  convolution_param {
    num_output: 320
    pad: 1
    kernel_size: 3
    weight_filler {
      type: "xavier"
      std: 0.03
    }
    bias_filler {
      type: "constant"
      value: 0.2
    }
  }
}
layer {
  name: "inception_4e/relu_3x3"
  type: "ReLU"
  bottom: "inception_4e/3x3"
  top: "inception_4e/3x3"
}
layer {
  name: "inception_4e/5x5_reduce"
  type: "Convolution"
  bottom: "inception_4d/output"
  top: "inception_4e/5x5_reduce"
  param {
    lr_mult: 1
    decay_mult: 1
  }
  param {
    lr_mult: 2
    decay_mult: 0
  }
  convolution_param {
    num_output: 32
    kernel_size: 1
    weight_filler {
      type: "xavier"
      std: 0.2
    }
    bias_filler {
      type: "constant"
      value: 0.2
    }
  }
}
layer {
  name: "inception_4e/relu_5x5_reduce"
  type: "ReLU"
  bottom: "inception_4e/5x5_reduce"
  top: "inception_4e/5x5_reduce"
}
layer {
  name: "inception_4e/5x5"
  type: "Convolution"
  bottom: "inception_4e/5x5_reduce"
  top: "inception_4e/
I0403 15:24:46.666590  3063 layer_factory.hpp:77] Creating layer data
I0403 15:24:46.667177  3063 net.cpp:91] Creating Layer data
I0403 15:24:46.667207  3063 net.cpp:399] data -> data
I0403 15:24:46.667258  3063 net.cpp:399] data -> label
I0403 15:24:46.667300  3063 data_transformer.cpp:25] Loading mean file from: /home/mohanty/data/final_dataset/lmdb/grayscale-50-50/mean.binaryproto
I0403 15:24:46.670408  3066 db_lmdb.cpp:38] Opened lmdb /home/mohanty/data/final_dataset/lmdb/grayscale-50-50/test_db
I0403 15:24:46.680408  3063 data_layer.cpp:41] output data size: 24,3,224,224
I0403 15:24:46.707480  3063 net.cpp:141] Setting up data
I0403 15:24:46.707543  3063 net.cpp:148] Top shape: 24 3 224 224 (3612672)
I0403 15:24:46.707567  3063 net.cpp:148] Top shape: 24 (24)
I0403 15:24:46.707584  3063 net.cpp:156] Memory required for data: 14450784
I0403 15:24:46.707612  3063 layer_factory.hpp:77] Creating layer label_data_1_split
I0403 15:24:46.707640  3063 net.cpp:91] Creating Layer label_data_1_split
I0403 15:24:46.707660  3063 net.cpp:425] label_data_1_split <- label
I0403 15:24:46.707692  3063 net.cpp:399] label_data_1_split -> label_data_1_split_0
I0403 15:24:46.707720  3063 net.cpp:399] label_data_1_split -> label_data_1_split_1
I0403 15:24:46.707742  3063 net.cpp:399] label_data_1_split -> label_data_1_split_2
I0403 15:24:46.707765  3063 net.cpp:399] label_data_1_split -> label_data_1_split_3
I0403 15:24:46.707787  3063 net.cpp:399] label_data_1_split -> label_data_1_split_4
I0403 15:24:46.707808  3063 net.cpp:399] label_data_1_split -> label_data_1_split_5
I0403 15:24:46.707828  3063 net.cpp:399] label_data_1_split -> label_data_1_split_6
I0403 15:24:46.707850  3063 net.cpp:399] label_data_1_split -> label_data_1_split_7
I0403 15:24:46.707870  3063 net.cpp:399] label_data_1_split -> label_data_1_split_8
I0403 15:24:46.707891  3063 net.cpp:399] label_data_1_split -> label_data_1_split_9
I0403 15:24:46.708012  3063 net.cpp:141] Setting up label_data_1_split
I0403 15:24:46.708039  3063 net.cpp:148] Top shape: 24 (24)
I0403 15:24:46.708056  3063 net.cpp:148] Top shape: 24 (24)
I0403 15:24:46.708073  3063 net.cpp:148] Top shape: 24 (24)
I0403 15:24:46.708089  3063 net.cpp:148] Top shape: 24 (24)
I0403 15:24:46.708106  3063 net.cpp:148] Top shape: 24 (24)
I0403 15:24:46.708122  3063 net.cpp:148] Top shape: 24 (24)
I0403 15:24:46.708138  3063 net.cpp:148] Top shape: 24 (24)
I0403 15:24:46.708154  3063 net.cpp:148] Top shape: 24 (24)
I0403 15:24:46.708171  3063 net.cpp:148] Top shape: 24 (24)
I0403 15:24:46.708189  3063 net.cpp:148] Top shape: 24 (24)
I0403 15:24:46.708222  3063 net.cpp:156] Memory required for data: 14451744
I0403 15:24:46.708240  3063 layer_factory.hpp:77] Creating layer conv1/7x7_s2
I0403 15:24:46.708276  3063 net.cpp:91] Creating Layer conv1/7x7_s2
I0403 15:24:46.708295  3063 net.cpp:425] conv1/7x7_s2 <- data
I0403 15:24:46.708317  3063 net.cpp:399] conv1/7x7_s2 -> conv1/7x7_s2
I0403 15:24:46.848407  3063 net.cpp:141] Setting up conv1/7x7_s2
I0403 15:24:46.848495  3063 net.cpp:148] Top shape: 24 64 112 112 (19267584)
I0403 15:24:46.848510  3063 net.cpp:156] Memory required for data: 91522080
I0403 15:24:46.848541  3063 layer_factory.hpp:77] Creating layer conv1/relu_7x7
I0403 15:24:46.848567  3063 net.cpp:91] Creating Layer conv1/relu_7x7
I0403 15:24:46.848585  3063 net.cpp:425] conv1/relu_7x7 <- conv1/7x7_s2
I0403 15:24:46.848604  3063 net.cpp:386] conv1/relu_7x7 -> conv1/7x7_s2 (in-place)
I0403 15:24:46.848855  3063 net.cpp:141] Setting up conv1/relu_7x7
I0403 15:24:46.848881  3063 net.cpp:148] Top shape: 24 64 112 112 (19267584)
I0403 15:24:46.848896  3063 net.cpp:156] Memory required for data: 168592416
I0403 15:24:46.848912  3063 layer_factory.hpp:77] Creating layer pool1/3x3_s2
I0403 15:24:46.848937  3063 net.cpp:91] Creating Layer pool1/3x3_s2
I0403 15:24:46.848953  3063 net.cpp:425] pool1/3x3_s2 <- conv1/7x7_s2
I0403 15:24:46.848971  3063 net.cpp:399] pool1/3x3_s2 -> pool1/3x3_s2
I0403 15:24:46.849042  3063 net.cpp:141] Setting up pool1/3x3_s2
I0403 15:24:46.849066  3063 net.cpp:148] Top shape: 24 64 56 56 (4816896)
I0403 15:24:46.849081  3063 net.cpp:156] Memory required for data: 187860000
I0403 15:24:46.849097  3063 layer_factory.hpp:77] Creating layer pool1/norm1
I0403 15:24:46.849120  3063 net.cpp:91] Creating Layer pool1/norm1
I0403 15:24:46.849138  3063 net.cpp:425] pool1/norm1 <- pool1/3x3_s2
I0403 15:24:46.849155  3063 net.cpp:399] pool1/norm1 -> pool1/norm1
I0403 15:24:46.849444  3063 net.cpp:141] Setting up pool1/norm1
I0403 15:24:46.849473  3063 net.cpp:148] Top shape: 24 64 56 56 (4816896)
I0403 15:24:46.849489  3063 net.cpp:156] Memory required for data: 207127584
I0403 15:24:46.849503  3063 layer_factory.hpp:77] Creating layer conv2/3x3_reduce
I0403 15:24:46.849527  3063 net.cpp:91] Creating Layer conv2/3x3_reduce
I0403 15:24:46.849544  3063 net.cpp:425] conv2/3x3_reduce <- pool1/norm1
I0403 15:24:46.849561  3063 net.cpp:399] conv2/3x3_reduce -> conv2/3x3_reduce
I0403 15:24:46.850883  3063 net.cpp:141] Setting up conv2/3x3_reduce
I0403 15:24:46.850911  3063 net.cpp:148] Top shape: 24 64 56 56 (4816896)
I0403 15:24:46.850927  3063 net.cpp:156] Memory required for data: 226395168
I0403 15:24:46.850949  3063 layer_factory.hpp:77] Creating layer conv2/relu_3x3_reduce
I0403 15:24:46.850966  3063 net.cpp:91] Creating Layer conv2/relu_3x3_reduce
I0403 15:24:46.850983  3063 net.cpp:425] conv2/relu_3x3_reduce <- conv2/3x3_reduce
I0403 15:24:46.851004  3063 net.cpp:386] conv2/relu_3x3_reduce -> conv2/3x3_reduce (in-place)
I0403 15:24:46.851294  3063 net.cpp:141] Setting up conv2/relu_3x3_reduce
I0403 15:24:46.851321  3063 net.cpp:148] Top shape: 24 64 56 56 (4816896)
I0403 15:24:46.851337  3063 net.cpp:156] Memory required for data: 245662752
I0403 15:24:46.851353  3063 layer_factory.hpp:77] Creating layer conv2/3x3
I0403 15:24:46.851377  3063 net.cpp:91] Creating Layer conv2/3x3
I0403 15:24:46.851393  3063 net.cpp:425] conv2/3x3 <- conv2/3x3_reduce
I0403 15:24:46.851424  3063 net.cpp:399] conv2/3x3 -> conv2/3x3
I0403 15:24:46.853715  3063 net.cpp:141] Setting up conv2/3x3
I0403 15:24:46.853746  3063 net.cpp:148] Top shape: 24 192 56 56 (14450688)
I0403 15:24:46.853775  3063 net.cpp:156] Memory required for data: 303465504
I0403 15:24:46.853796  3063 layer_factory.hpp:77] Creating layer conv2/relu_3x3
I0403 15:24:46.853814  3063 net.cpp:91] Creating Layer conv2/relu_3x3
I0403 15:24:46.853831  3063 net.cpp:425] conv2/relu_3x3 <- conv2/3x3
I0403 15:24:46.853847  3063 net.cpp:386] conv2/relu_3x3 -> conv2/3x3 (in-place)
I0403 15:24:46.854006  3063 net.cpp:141] Setting up conv2/relu_3x3
I0403 15:24:46.854030  3063 net.cpp:148] Top shape: 24 192 56 56 (14450688)
I0403 15:24:46.854076  3063 net.cpp:156] Memory required for data: 361268256
I0403 15:24:46.854091  3063 layer_factory.hpp:77] Creating layer conv2/norm2
I0403 15:24:46.854110  3063 net.cpp:91] Creating Layer conv2/norm2
I0403 15:24:46.854126  3063 net.cpp:425] conv2/norm2 <- conv2/3x3
I0403 15:24:46.854145  3063 net.cpp:399] conv2/norm2 -> conv2/norm2
I0403 15:24:46.854431  3063 net.cpp:141] Setting up conv2/norm2
I0403 15:24:46.854459  3063 net.cpp:148] Top shape: 24 192 56 56 (14450688)
I0403 15:24:46.854486  3063 net.cpp:156] Memory required for data: 419071008
I0403 15:24:46.854501  3063 layer_factory.hpp:77] Creating layer pool2/3x3_s2
I0403 15:24:46.854519  3063 net.cpp:91] Creating Layer pool2/3x3_s2
I0403 15:24:46.854535  3063 net.cpp:425] pool2/3x3_s2 <- conv2/norm2
I0403 15:24:46.854553  3063 net.cpp:399] pool2/3x3_s2 -> pool2/3x3_s2
I0403 15:24:46.854604  3063 net.cpp:141] Setting up pool2/3x3_s2
I0403 15:24:46.854626  3063 net.cpp:148] Top shape: 24 192 28 28 (3612672)
I0403 15:24:46.854641  3063 net.cpp:156] Memory required for data: 433521696
I0403 15:24:46.854655  3063 layer_factory.hpp:77] Creating layer pool2/3x3_s2_pool2/3x3_s2_0_split
I0403 15:24:46.854673  3063 net.cpp:91] Creating Layer pool2/3x3_s2_pool2/3x3_s2_0_split
I0403 15:24:46.854689  3063 net.cpp:425] pool2/3x3_s2_pool2/3x3_s2_0_split <- pool2/3x3_s2
I0403 15:24:46.854707  3063 net.cpp:399] pool2/3x3_s2_pool2/3x3_s2_0_split -> pool2/3x3_s2_pool2/3x3_s2_0_split_0
I0403 15:24:46.854725  3063 net.cpp:399] pool2/3x3_s2_pool2/3x3_s2_0_split -> pool2/3x3_s2_pool2/3x3_s2_0_split_1
I0403 15:24:46.854744  3063 net.cpp:399] pool2/3x3_s2_pool2/3x3_s2_0_split -> pool2/3x3_s2_pool2/3x3_s2_0_split_2
I0403 15:24:46.854776  3063 net.cpp:399] pool2/3x3_s2_pool2/3x3_s2_0_split -> pool2/3x3_s2_pool2/3x3_s2_0_split_3
I0403 15:24:46.854837  3063 net.cpp:141] Setting up pool2/3x3_s2_pool2/3x3_s2_0_split
I0403 15:24:46.854861  3063 net.cpp:148] Top shape: 24 192 28 28 (3612672)
I0403 15:24:46.854876  3063 net.cpp:148] Top shape: 24 192 28 28 (3612672)
I0403 15:24:46.854892  3063 net.cpp:148] Top shape: 24 192 28 28 (3612672)
I0403 15:24:46.854907  3063 net.cpp:148] Top shape: 24 192 28 28 (3612672)
I0403 15:24:46.854920  3063 net.cpp:156] Memory required for data: 491324448
I0403 15:24:46.854934  3063 layer_factory.hpp:77] Creating layer inception_3a/1x1
I0403 15:24:46.854955  3063 net.cpp:91] Creating Layer inception_3a/1x1
I0403 15:24:46.854971  3063 net.cpp:425] inception_3a/1x1 <- pool2/3x3_s2_pool2/3x3_s2_0_split_0
I0403 15:24:46.854990  3063 net.cpp:399] inception_3a/1x1 -> inception_3a/1x1
I0403 15:24:46.856511  3063 net.cpp:141] Setting up inception_3a/1x1
I0403 15:24:46.856544  3063 net.cpp:148] Top shape: 24 64 28 28 (1204224)
I0403 15:24:46.856564  3063 net.cpp:156] Memory required for data: 496141344
I0403 15:24:46.856582  3063 layer_factory.hpp:77] Creating layer inception_3a/relu_1x1
I0403 15:24:46.856600  3063 net.cpp:91] Creating Layer inception_3a/relu_1x1
I0403 15:24:46.856616  3063 net.cpp:425] inception_3a/relu_1x1 <- inception_3a/1x1
I0403 15:24:46.856633  3063 net.cpp:386] inception_3a/relu_1x1 -> inception_3a/1x1 (in-place)
I0403 15:24:46.856807  3063 net.cpp:141] Setting up inception_3a/relu_1x1
I0403 15:24:46.856833  3063 net.cpp:148] Top shape: 24 64 28 28 (1204224)
I0403 15:24:46.856849  3063 net.cpp:156] Memory required for data: 500958240
I0403 15:24:46.856864  3063 layer_factory.hpp:77] Creating layer inception_3a/3x3_reduce
I0403 15:24:46.856886  3063 net.cpp:91] Creating Layer inception_3a/3x3_reduce
I0403 15:24:46.856904  3063 net.cpp:425] inception_3a/3x3_reduce <- pool2/3x3_s2_pool2/3x3_s2_0_split_1
I0403 15:24:46.856922  3063 net.cpp:399] inception_3a/3x3_reduce -> inception_3a/3x3_reduce
I0403 15:24:46.858656  3063 net.cpp:141] Setting up inception_3a/3x3_reduce
I0403 15:24:46.858688  3063 net.cpp:148] Top shape: 24 96 28 28 (1806336)
I0403 15:24:46.858706  3063 net.cpp:156] Memory required for data: 508183584
I0403 15:24:46.858731  3063 layer_factory.hpp:77] Creating layer inception_3a/relu_3x3_reduce
I0403 15:24:46.858779  3063 net.cpp:91] Creating Layer inception_3a/relu_3x3_reduce
I0403 15:24:46.858798  3063 net.cpp:425] inception_3a/relu_3x3_reduce <- inception_3a/3x3_reduce
I0403 15:24:46.858817  3063 net.cpp:386] inception_3a/relu_3x3_reduce -> inception_3a/3x3_reduce (in-place)
I0403 15:24:46.858999  3063 net.cpp:141] Setting up inception_3a/relu_3x3_reduce
I0403 15:24:46.859024  3063 net.cpp:148] Top shape: 24 96 28 28 (1806336)
I0403 15:24:46.859037  3063 net.cpp:156] Memory required for data: 515408928
I0403 15:24:46.859052  3063 layer_factory.hpp:77] Creating layer inception_3a/3x3
I0403 15:24:46.859074  3063 net.cpp:91] Creating Layer inception_3a/3x3
I0403 15:24:46.859092  3063 net.cpp:425] inception_3a/3x3 <- inception_3a/3x3_reduce
I0403 15:24:46.859114  3063 net.cpp:399] inception_3a/3x3 -> inception_3a/3x3
I0403 15:24:46.860837  3063 net.cpp:141] Setting up inception_3a/3x3
I0403 15:24:46.860869  3063 net.cpp:148] Top shape: 24 128 28 28 (2408448)
I0403 15:24:46.860888  3063 net.cpp:156] Memory required for data: 525042720
I0403 15:24:46.860908  3063 layer_factory.hpp:77] Creating layer inception_3a/relu_3x3
I0403 15:24:46.860925  3063 net.cpp:91] Creating Layer inception_3a/relu_3x3
I0403 15:24:46.860940  3063 net.cpp:425] inception_3a/relu_3x3 <- inception_3a/3x3
I0403 15:24:46.860957  3063 net.cpp:386] inception_3a/relu_3x3 -> inception_3a/3x3 (in-place)
I0403 15:24:46.861235  3063 net.cpp:141] Setting up inception_3a/relu_3x3
I0403 15:24:46.861265  3063 net.cpp:148] Top shape: 24 128 28 28 (2408448)
I0403 15:24:46.861286  3063 net.cpp:156] Memory required for data: 534676512
I0403 15:24:46.861302  3063 layer_factory.hpp:77] Creating layer inception_3a/5x5_reduce
I0403 15:24:46.861325  3063 net.cpp:91] Creating Layer inception_3a/5x5_reduce
I0403 15:24:46.861342  3063 net.cpp:425] inception_3a/5x5_reduce <- pool2/3x3_s2_pool2/3x3_s2_0_split_2
I0403 15:24:46.861361  3063 net.cpp:399] inception_3a/5x5_reduce -> inception_3a/5x5_reduce
I0403 15:24:46.862313  3063 net.cpp:141] Setting up inception_3a/5x5_reduce
I0403 15:24:46.862339  3063 net.cpp:148] Top shape: 24 16 28 28 (301056)
I0403 15:24:46.862354  3063 net.cpp:156] Memory required for data: 535880736
I0403 15:24:46.862372  3063 layer_factory.hpp:77] Creating layer inception_3a/relu_5x5_reduce
I0403 15:24:46.862390  3063 net.cpp:91] Creating Layer inception_3a/relu_5x5_reduce
I0403 15:24:46.862406  3063 net.cpp:425] inception_3a/relu_5x5_reduce <- inception_3a/5x5_reduce
I0403 15:24:46.862423  3063 net.cpp:386] inception_3a/relu_5x5_reduce -> inception_3a/5x5_reduce (in-place)
I0403 15:24:46.862733  3063 net.cpp:141] Setting up inception_3a/relu_5x5_reduce
I0403 15:24:46.862771  3063 net.cpp:148] Top shape: 24 16 28 28 (301056)
I0403 15:24:46.862787  3063 net.cpp:156] Memory required for data: 537084960
I0403 15:24:46.862800  3063 layer_factory.hpp:77] Creating layer inception_3a/5x5
I0403 15:24:46.862821  3063 net.cpp:91] Creating Layer inception_3a/5x5
I0403 15:24:46.862838  3063 net.cpp:425] inception_3a/5x5 <- inception_3a/5x5_reduce
I0403 15:24:46.862859  3063 net.cpp:399] inception_3a/5x5 -> inception_3a/5x5
I0403 15:24:46.863873  3063 net.cpp:141] Setting up inception_3a/5x5
I0403 15:24:46.863903  3063 net.cpp:148] Top shape: 24 32 28 28 (602112)
I0403 15:24:46.863920  3063 net.cpp:156] Memory required for data: 539493408
I0403 15:24:46.863939  3063 layer_factory.hpp:77] Creating layer inception_3a/relu_5x5
I0403 15:24:46.863956  3063 net.cpp:91] Creating Layer inception_3a/relu_5x5
I0403 15:24:46.863971  3063 net.cpp:425] inception_3a/relu_5x5 <- inception_3a/5x5
I0403 15:24:46.863988  3063 net.cpp:386] inception_3a/relu_5x5 -> inception_3a/5x5 (in-place)
I0403 15:24:46.864156  3063 net.cpp:141] Setting up inception_3a/relu_5x5
I0403 15:24:46.864179  3063 net.cpp:148] Top shape: 24 32 28 28 (602112)
I0403 15:24:46.864193  3063 net.cpp:156] Memory required for data: 541901856
I0403 15:24:46.864207  3063 layer_factory.hpp:77] Creating layer inception_3a/pool
I0403 15:24:46.864224  3063 net.cpp:91] Creating Layer inception_3a/pool
I0403 15:24:46.864253  3063 net.cpp:425] inception_3a/pool <- pool2/3x3_s2_pool2/3x3_s2_0_split_3
I0403 15:24:46.864279  3063 net.cpp:399] inception_3a/pool -> inception_3a/pool
I0403 15:24:46.864336  3063 net.cpp:141] Setting up inception_3a/pool
I0403 15:24:46.864361  3063 net.cpp:148] Top shape: 24 192 28 28 (3612672)
I0403 15:24:46.864375  3063 net.cpp:156] Memory required for data: 556352544
I0403 15:24:46.864389  3063 layer_factory.hpp:77] Creating layer inception_3a/pool_proj
I0403 15:24:46.864414  3063 net.cpp:91] Creating Layer inception_3a/pool_proj
I0403 15:24:46.864433  3063 net.cpp:425] inception_3a/pool_proj <- inception_3a/pool
I0403 15:24:46.864451  3063 net.cpp:399] inception_3a/pool_proj -> inception_3a/pool_proj
I0403 15:24:46.865398  3063 net.cpp:141] Setting up inception_3a/pool_proj
I0403 15:24:46.865427  3063 net.cpp:148] Top shape: 24 32 28 28 (602112)
I0403 15:24:46.865443  3063 net.cpp:156] Memory required for data: 558760992
I0403 15:24:46.865479  3063 layer_factory.hpp:77] Creating layer inception_3a/relu_pool_proj
I0403 15:24:46.865499  3063 net.cpp:91] Creating Layer inception_3a/relu_pool_proj
I0403 15:24:46.865515  3063 net.cpp:425] inception_3a/relu_pool_proj <- inception_3a/pool_proj
I0403 15:24:46.865535  3063 net.cpp:386] inception_3a/relu_pool_proj -> inception_3a/pool_proj (in-place)
I0403 15:24:46.865799  3063 net.cpp:141] Setting up inception_3a/relu_pool_proj
I0403 15:24:46.865828  3063 net.cpp:148] Top shape: 24 32 28 28 (602112)
I0403 15:24:46.865842  3063 net.cpp:156] Memory required for data: 561169440
I0403 15:24:46.865857  3063 layer_factory.hpp:77] Creating layer inception_3a/output
I0403 15:24:46.865875  3063 net.cpp:91] Creating Layer inception_3a/output
I0403 15:24:46.865890  3063 net.cpp:425] inception_3a/output <- inception_3a/1x1
I0403 15:24:46.865906  3063 net.cpp:425] inception_3a/output <- inception_3a/3x3
I0403 15:24:46.865919  3063 net.cpp:425] inception_3a/output <- inception_3a/5x5
I0403 15:24:46.865936  3063 net.cpp:425] inception_3a/output <- inception_3a/pool_proj
I0403 15:24:46.865952  3063 net.cpp:399] inception_3a/output -> inception_3a/output
I0403 15:24:46.865998  3063 net.cpp:141] Setting up inception_3a/output
I0403 15:24:46.866019  3063 net.cpp:148] Top shape: 24 256 28 28 (4816896)
I0403 15:24:46.866034  3063 net.cpp:156] Memory required for data: 580437024
I0403 15:24:46.866047  3063 layer_factory.hpp:77] Creating layer inception_3a/output_inception_3a/output_0_split
I0403 15:24:46.866065  3063 net.cpp:91] Creating Layer inception_3a/output_inception_3a/output_0_split
I0403 15:24:46.866080  3063 net.cpp:425] inception_3a/output_inception_3a/output_0_split <- inception_3a/output
I0403 15:24:46.866097  3063 net.cpp:399] inception_3a/output_inception_3a/output_0_split -> inception_3a/output_inception_3a/output_0_split_0
I0403 15:24:46.866117  3063 net.cpp:399] inception_3a/output_inception_3a/output_0_split -> inception_3a/output_inception_3a/output_0_split_1
I0403 15:24:46.866153  3063 net.cpp:399] inception_3a/output_inception_3a/output_0_split -> inception_3a/output_inception_3a/output_0_split_2
I0403 15:24:46.866173  3063 net.cpp:399] inception_3a/output_inception_3a/output_0_split -> inception_3a/output_inception_3a/output_0_split_3
I0403 15:24:46.866261  3063 net.cpp:141] Setting up inception_3a/output_inception_3a/output_0_split
I0403 15:24:46.866294  3063 net.cpp:148] Top shape: 24 256 28 28 (4816896)
I0403 15:24:46.866313  3063 net.cpp:148] Top shape: 24 256 28 28 (4816896)
I0403 15:24:46.866329  3063 net.cpp:148] Top shape: 24 256 28 28 (4816896)
I0403 15:24:46.866345  3063 net.cpp:148] Top shape: 24 256 28 28 (4816896)
I0403 15:24:46.866358  3063 net.cpp:156] Memory required for data: 657507360
I0403 15:24:46.866374  3063 layer_factory.hpp:77] Creating layer inception_3b/1x1
I0403 15:24:46.866399  3063 net.cpp:91] Creating Layer inception_3b/1x1
I0403 15:24:46.866417  3063 net.cpp:425] inception_3b/1x1 <- inception_3a/output_inception_3a/output_0_split_0
I0403 15:24:46.866436  3063 net.cpp:399] inception_3b/1x1 -> inception_3b/1x1
I0403 15:24:46.867712  3063 net.cpp:141] Setting up inception_3b/1x1
I0403 15:24:46.867763  3063 net.cpp:148] Top shape: 24 128 28 28 (2408448)
I0403 15:24:46.867782  3063 net.cpp:156] Memory required for data: 667141152
I0403 15:24:46.867802  3063 layer_factory.hpp:77] Creating layer inception_3b/relu_1x1
I0403 15:24:46.867823  3063 net.cpp:91] Creating Layer inception_3b/relu_1x1
I0403 15:24:46.867841  3063 net.cpp:425] inception_3b/relu_1x1 <- inception_3b/1x1
I0403 15:24:46.867861  3063 net.cpp:386] inception_3b/relu_1x1 -> inception_3b/1x1 (in-place)
I0403 15:24:46.868094  3063 net.cpp:141] Setting up inception_3b/relu_1x1
I0403 15:24:46.868129  3063 net.cpp:148] Top shape: 24 128 28 28 (2408448)
I0403 15:24:46.868167  3063 net.cpp:156] Memory required for data: 676774944
I0403 15:24:46.868218  3063 layer_factory.hpp:77] Creating layer inception_3b/3x3_reduce
I0403 15:24:46.868255  3063 net.cpp:91] Creating Layer inception_3b/3x3_reduce
I0403 15:24:46.868279  3063 net.cpp:425] inception_3b/3x3_reduce <- inception_3a/output_inception_3a/output_0_split_1
I0403 15:24:46.868319  3063 net.cpp:399] inception_3b/3x3_reduce -> inception_3b/3x3_reduce
I0403 15:24:46.869552  3063 net.cpp:141] Setting up inception_3b/3x3_reduce
I0403 15:24:46.869582  3063 net.cpp:148] Top shape: 24 128 28 28 (2408448)
I0403 15:24:46.869608  3063 net.cpp:156] Memory required for data: 686408736
I0403 15:24:46.869627  3063 layer_factory.hpp:77] Creating layer inception_3b/relu_3x3_reduce
I0403 15:24:46.869648  3063 net.cpp:91] Creating Layer inception_3b/relu_3x3_reduce
I0403 15:24:46.869666  3063 net.cpp:425] inception_3b/relu_3x3_reduce <- inception_3b/3x3_reduce
I0403 15:24:46.869684  3063 net.cpp:386] inception_3b/relu_3x3_reduce -> inception_3b/3x3_reduce (in-place)
I0403 15:24:46.869868  3063 net.cpp:141] Setting up inception_3b/relu_3x3_reduce
I0403 15:24:46.869897  3063 net.cpp:148] Top shape: 24 128 28 28 (2408448)
I0403 15:24:46.869913  3063 net.cpp:156] Memory required for data: 696042528
I0403 15:24:46.869930  3063 layer_factory.hpp:77] Creating layer inception_3b/3x3
I0403 15:24:46.869956  3063 net.cpp:91] Creating Layer inception_3b/3x3
I0403 15:24:46.869973  3063 net.cpp:425] inception_3b/3x3 <- inception_3b/3x3_reduce
I0403 15:24:46.869995  3063 net.cpp:399] inception_3b/3x3 -> inception_3b/3x3
I0403 15:24:46.873088  3063 net.cpp:141] Setting up inception_3b/3x3
I0403 15:24:46.873122  3063 net.cpp:148] Top shape: 24 192 28 28 (3612672)
I0403 15:24:46.873142  3063 net.cpp:156] Memory required for data: 710493216
I0403 15:24:46.873162  3063 layer_factory.hpp:77] Creating layer inception_3b/relu_3x3
I0403 15:24:46.873180  3063 net.cpp:91] Creating Layer inception_3b/relu_3x3
I0403 15:24:46.873198  3063 net.cpp:425] inception_3b/relu_3x3 <- inception_3b/3x3
I0403 15:24:46.873217  3063 net.cpp:386] inception_3b/relu_3x3 -> inception_3b/3x3 (in-place)
I0403 15:24:46.873530  3063 net.cpp:141] Setting up inception_3b/relu_3x3
I0403 15:24:46.873561  3063 net.cpp:148] Top shape: 24 192 28 28 (3612672)
I0403 15:24:46.873581  3063 net.cpp:156] Memory required for data: 724943904
I0403 15:24:46.873597  3063 layer_factory.hpp:77] Creating layer inception_3b/5x5_reduce
I0403 15:24:46.873620  3063 net.cpp:91] Creating Layer inception_3b/5x5_reduce
I0403 15:24:46.873641  3063 net.cpp:425] inception_3b/5x5_reduce <- inception_3a/output_inception_3a/output_0_split_2
I0403 15:24:46.873664  3063 net.cpp:399] inception_3b/5x5_reduce -> inception_3b/5x5_reduce
I0403 15:24:46.874728  3063 net.cpp:141] Setting up inception_3b/5x5_reduce
I0403 15:24:46.874761  3063 net.cpp:148] Top shape: 24 32 28 28 (602112)
I0403 15:24:46.874779  3063 net.cpp:156] Memory required for data: 727352352
I0403 15:24:46.874807  3063 layer_factory.hpp:77] Creating layer inception_3b/relu_5x5_reduce
I0403 15:24:46.874827  3063 net.cpp:91] Creating Layer inception_3b/relu_5x5_reduce
I0403 15:24:46.874845  3063 net.cpp:425] inception_3b/relu_5x5_reduce <- inception_3b/5x5_reduce
I0403 15:24:46.874863  3063 net.cpp:386] inception_3b/relu_5x5_reduce -> inception_3b/5x5_reduce (in-place)
I0403 15:24:46.875071  3063 net.cpp:141] Setting up inception_3b/relu_5x5_reduce
I0403 15:24:46.875097  3063 net.cpp:148] Top shape: 24 32 28 28 (602112)
I0403 15:24:46.875113  3063 net.cpp:156] Memory required for data: 729760800
I0403 15:24:46.875128  3063 layer_factory.hpp:77] Creating layer inception_3b/5x5
I0403 15:24:46.875152  3063 net.cpp:91] Creating Layer inception_3b/5x5
I0403 15:24:46.875172  3063 net.cpp:425] inception_3b/5x5 <- inception_3b/5x5_reduce
I0403 15:24:46.875195  3063 net.cpp:399] inception_3b/5x5 -> inception_3b/5x5
I0403 15:24:46.877308  3063 net.cpp:141] Setting up inception_3b/5x5
I0403 15:24:46.877339  3063 net.cpp:148] Top shape: 24 96 28 28 (1806336)
I0403 15:24:46.877357  3063 net.cpp:156] Memory required for data: 736986144
I0403 15:24:46.877377  3063 layer_factory.hpp:77] Creating layer inception_3b/relu_5x5
I0403 15:24:46.877398  3063 net.cpp:91] Creating Layer inception_3b/relu_5x5
I0403 15:24:46.877415  3063 net.cpp:425] inception_3b/relu_5x5 <- inception_3b/5x5
I0403 15:24:46.877435  3063 net.cpp:386] inception_3b/relu_5x5 -> inception_3b/5x5 (in-place)
I0403 15:24:46.877637  3063 net.cpp:141] Setting up inception_3b/relu_5x5
I0403 15:24:46.877665  3063 net.cpp:148] Top shape: 24 96 28 28 (1806336)
I0403 15:24:46.877682  3063 net.cpp:156] Memory required for data: 744211488
I0403 15:24:46.877699  3063 layer_factory.hpp:77] Creating layer inception_3b/pool
I0403 15:24:46.877717  3063 net.cpp:91] Creating Layer inception_3b/pool
I0403 15:24:46.877733  3063 net.cpp:425] inception_3b/pool <- inception_3a/output_inception_3a/output_0_split_3
I0403 15:24:46.877753  3063 net.cpp:399] inception_3b/pool -> inception_3b/pool
I0403 15:24:46.877812  3063 net.cpp:141] Setting up inception_3b/pool
I0403 15:24:46.877836  3063 net.cpp:148] Top shape: 24 256 28 28 (4816896)
I0403 15:24:46.877852  3063 net.cpp:156] Memory required for data: 763479072
I0403 15:24:46.877867  3063 layer_factory.hpp:77] Creating layer inception_3b/pool_proj
I0403 15:24:46.877892  3063 net.cpp:91] Creating Layer inception_3b/pool_proj
I0403 15:24:46.877910  3063 net.cpp:425] inception_3b/pool_proj <- inception_3b/pool
I0403 15:24:46.877933  3063 net.cpp:399] inception_3b/pool_proj -> inception_3b/pool_proj
I0403 15:24:46.879061  3063 net.cpp:141] Setting up inception_3b/pool_proj
I0403 15:24:46.879092  3063 net.cpp:148] Top shape: 24 64 28 28 (1204224)
I0403 15:24:46.879112  3063 net.cpp:156] Memory required for data: 768295968
I0403 15:24:46.879132  3063 layer_factory.hpp:77] Creating layer inception_3b/relu_pool_proj
I0403 15:24:46.879156  3063 net.cpp:91] Creating Layer inception_3b/relu_pool_proj
I0403 15:24:46.879176  3063 net.cpp:425] inception_3b/relu_pool_proj <- inception_3b/pool_proj
I0403 15:24:46.879195  3063 net.cpp:386] inception_3b/relu_pool_proj -> inception_3b/pool_proj (in-place)
I0403 15:24:46.879621  3063 net.cpp:141] Setting up inception_3b/relu_pool_proj
I0403 15:24:46.879650  3063 net.cpp:148] Top shape: 24 64 28 28 (1204224)
I0403 15:24:46.879667  3063 net.cpp:156] Memory required for data: 773112864
I0403 15:24:46.879683  3063 layer_factory.hpp:77] Creating layer inception_3b/output
I0403 15:24:46.879703  3063 net.cpp:91] Creating Layer inception_3b/output
I0403 15:24:46.879721  3063 net.cpp:425] inception_3b/output <- inception_3b/1x1
I0403 15:24:46.879739  3063 net.cpp:425] inception_3b/output <- inception_3b/3x3
I0403 15:24:46.879761  3063 net.cpp:425] inception_3b/output <- inception_3b/5x5
I0403 15:24:46.879777  3063 net.cpp:425] inception_3b/output <- inception_3b/pool_proj
I0403 15:24:46.879797  3063 net.cpp:399] inception_3b/output -> inception_3b/output
I0403 15:24:46.879844  3063 net.cpp:141] Setting up inception_3b/output
I0403 15:24:46.879871  3063 net.cpp:148] Top shape: 24 480 28 28 (9031680)
I0403 15:24:46.879889  3063 net.cpp:156] Memory required for data: 809239584
I0403 15:24:46.879905  3063 layer_factory.hpp:77] Creating layer pool3/3x3_s2
I0403 15:24:46.879925  3063 net.cpp:91] Creating Layer pool3/3x3_s2
I0403 15:24:46.879942  3063 net.cpp:425] pool3/3x3_s2 <- inception_3b/output
I0403 15:24:46.879977  3063 net.cpp:399] pool3/3x3_s2 -> pool3/3x3_s2
I0403 15:24:46.880041  3063 net.cpp:141] Setting up pool3/3x3_s2
I0403 15:24:46.880066  3063 net.cpp:148] Top shape: 24 480 14 14 (2257920)
I0403 15:24:46.880081  3063 net.cpp:156] Memory required for data: 818271264
I0403 15:24:46.880097  3063 layer_factory.hpp:77] Creating layer pool3/3x3_s2_pool3/3x3_s2_0_split
I0403 15:24:46.880115  3063 net.cpp:91] Creating Layer pool3/3x3_s2_pool3/3x3_s2_0_split
I0403 15:24:46.880131  3063 net.cpp:425] pool3/3x3_s2_pool3/3x3_s2_0_split <- pool3/3x3_s2
I0403 15:24:46.880151  3063 net.cpp:399] pool3/3x3_s2_pool3/3x3_s2_0_split -> pool3/3x3_s2_pool3/3x3_s2_0_split_0
I0403 15:24:46.880172  3063 net.cpp:399] pool3/3x3_s2_pool3/3x3_s2_0_split -> pool3/3x3_s2_pool3/3x3_s2_0_split_1
I0403 15:24:46.880193  3063 net.cpp:399] pool3/3x3_s2_pool3/3x3_s2_0_split -> pool3/3x3_s2_pool3/3x3_s2_0_split_2
I0403 15:24:46.880213  3063 net.cpp:399] pool3/3x3_s2_pool3/3x3_s2_0_split -> pool3/3x3_s2_pool3/3x3_s2_0_split_3
I0403 15:24:46.880301  3063 net.cpp:141] Setting up pool3/3x3_s2_pool3/3x3_s2_0_split
I0403 15:24:46.880329  3063 net.cpp:148] Top shape: 24 480 14 14 (2257920)
I0403 15:24:46.880348  3063 net.cpp:148] Top shape: 24 480 14 14 (2257920)
I0403 15:24:46.880364  3063 net.cpp:148] Top shape: 24 480 14 14 (2257920)
I0403 15:24:46.880381  3063 net.cpp:148] Top shape: 24 480 14 14 (2257920)
I0403 15:24:46.880395  3063 net.cpp:156] Memory required for data: 854397984
I0403 15:24:46.880410  3063 layer_factory.hpp:77] Creating layer inception_4a/1x1
I0403 15:24:46.880434  3063 net.cpp:91] Creating Layer inception_4a/1x1
I0403 15:24:46.880453  3063 net.cpp:425] inception_4a/1x1 <- pool3/3x3_s2_pool3/3x3_s2_0_split_0
I0403 15:24:46.880476  3063 net.cpp:399] inception_4a/1x1 -> inception_4a/1x1
I0403 15:24:46.882158  3063 net.cpp:141] Setting up inception_4a/1x1
I0403 15:24:46.882189  3063 net.cpp:148] Top shape: 24 192 14 14 (903168)
I0403 15:24:46.882205  3063 net.cpp:156] Memory required for data: 858010656
I0403 15:24:46.882225  3063 layer_factory.hpp:77] Creating layer inception_4a/relu_1x1
I0403 15:24:46.882247  3063 net.cpp:91] Creating Layer inception_4a/relu_1x1
I0403 15:24:46.882264  3063 net.cpp:425] inception_4a/relu_1x1 <- inception_4a/1x1
I0403 15:24:46.882287  3063 net.cpp:386] inception_4a/relu_1x1 -> inception_4a/1x1 (in-place)
I0403 15:24:46.882483  3063 net.cpp:141] Setting up inception_4a/relu_1x1
I0403 15:24:46.882509  3063 net.cpp:148] Top shape: 24 192 14 14 (903168)
I0403 15:24:46.882527  3063 net.cpp:156] Memory required for data: 861623328
I0403 15:24:46.882544  3063 layer_factory.hpp:77] Creating layer inception_4a/3x3_reduce
I0403 15:24:46.882571  3063 net.cpp:91] Creating Layer inception_4a/3x3_reduce
I0403 15:24:46.882591  3063 net.cpp:425] inception_4a/3x3_reduce <- pool3/3x3_s2_pool3/3x3_s2_0_split_1
I0403 15:24:46.882611  3063 net.cpp:399] inception_4a/3x3_reduce -> inception_4a/3x3_reduce
I0403 15:24:46.883961  3063 net.cpp:141] Setting up inception_4a/3x3_reduce
I0403 15:24:46.883993  3063 net.cpp:148] Top shape: 24 96 14 14 (451584)
I0403 15:24:46.884011  3063 net.cpp:156] Memory required for data: 863429664
I0403 15:24:46.884038  3063 layer_factory.hpp:77] Creating layer inception_4a/relu_3x3_reduce
I0403 15:24:46.884059  3063 net.cpp:91] Creating Layer inception_4a/relu_3x3_reduce
I0403 15:24:46.884078  3063 net.cpp:425] inception_4a/relu_3x3_reduce <- inception_4a/3x3_reduce
I0403 15:24:46.884098  3063 net.cpp:386] inception_4a/relu_3x3_reduce -> inception_4a/3x3_reduce (in-place)
I0403 15:24:46.884289  3063 net.cpp:141] Setting up inception_4a/relu_3x3_reduce
I0403 15:24:46.884316  3063 net.cpp:148] Top shape: 24 96 14 14 (451584)
I0403 15:24:46.884332  3063 net.cpp:156] Memory required for data: 865236000
I0403 15:24:46.884348  3063 layer_factory.hpp:77] Creating layer inception_4a/3x3
I0403 15:24:46.884371  3063 net.cpp:91] Creating Layer inception_4a/3x3
I0403 15:24:46.884390  3063 net.cpp:425] inception_4a/3x3 <- inception_4a/3x3_reduce
I0403 15:24:46.884413  3063 net.cpp:399] inception_4a/3x3 -> inception_4a/3x3
I0403 15:24:46.887251  3063 net.cpp:141] Setting up inception_4a/3x3
I0403 15:24:46.887286  3063 net.cpp:148] Top shape: 24 208 14 14 (978432)
I0403 15:24:46.887306  3063 net.cpp:156] Memory required for data: 869149728
I0403 15:24:46.887327  3063 layer_factory.hpp:77] Creating layer inception_4a/relu_3x3
I0403 15:24:46.887359  3063 net.cpp:91] Creating Layer inception_4a/relu_3x3
I0403 15:24:46.887377  3063 net.cpp:425] inception_4a/relu_3x3 <- inception_4a/3x3
I0403 15:24:46.887394  3063 net.cpp:386] inception_4a/relu_3x3 -> inception_4a/3x3 (in-place)
I0403 15:24:46.887691  3063 net.cpp:141] Setting up inception_4a/relu_3x3
I0403 15:24:46.887718  3063 net.cpp:148] Top shape: 24 208 14 14 (978432)
I0403 15:24:46.887734  3063 net.cpp:156] Memory required for data: 873063456
I0403 15:24:46.887750  3063 layer_factory.hpp:77] Creating layer inception_4a/5x5_reduce
I0403 15:24:46.887775  3063 net.cpp:91] Creating Layer inception_4a/5x5_reduce
I0403 15:24:46.887794  3063 net.cpp:425] inception_4a/5x5_reduce <- pool3/3x3_s2_pool3/3x3_s2_0_split_2
I0403 15:24:46.887815  3063 net.cpp:399] inception_4a/5x5_reduce -> inception_4a/5x5_reduce
I0403 15:24:46.888912  3063 net.cpp:141] Setting up inception_4a/5x5_reduce
I0403 15:24:46.888945  3063 net.cpp:148] Top shape: 24 16 14 14 (75264)
I0403 15:24:46.888963  3063 net.cpp:156] Memory required for data: 873364512
I0403 15:24:46.888983  3063 layer_factory.hpp:77] Creating layer inception_4a/relu_5x5_reduce
I0403 15:24:46.889005  3063 net.cpp:91] Creating Layer inception_4a/relu_5x5_reduce
I0403 15:24:46.889024  3063 net.cpp:425] inception_4a/relu_5x5_reduce <- inception_4a/5x5_reduce
I0403 15:24:46.889042  3063 net.cpp:386] inception_4a/relu_5x5_reduce -> inception_4a/5x5_reduce (in-place)
I0403 15:24:46.889230  3063 net.cpp:141] Setting up inception_4a/relu_5x5_reduce
I0403 15:24:46.889259  3063 net.cpp:148] Top shape: 24 16 14 14 (75264)
I0403 15:24:46.889279  3063 net.cpp:156] Memory required for data: 873665568
I0403 15:24:46.889298  3063 layer_factory.hpp:77] Creating layer inception_4a/5x5
I0403 15:24:46.889322  3063 net.cpp:91] Creating Layer inception_4a/5x5
I0403 15:24:46.889340  3063 net.cpp:425] inception_4a/5x5 <- inception_4a/5x5_reduce
I0403 15:24:46.889364  3063 net.cpp:399] inception_4a/5x5 -> inception_4a/5x5
I0403 15:24:46.890522  3063 net.cpp:141] Setting up inception_4a/5x5
I0403 15:24:46.890552  3063 net.cpp:148] Top shape: 24 48 14 14 (225792)
I0403 15:24:46.890568  3063 net.cpp:156] Memory required for data: 874568736
I0403 15:24:46.890590  3063 layer_factory.hpp:77] Creating layer inception_4a/relu_5x5
I0403 15:24:46.890609  3063 net.cpp:91] Creating Layer inception_4a/relu_5x5
I0403 15:24:46.890626  3063 net.cpp:425] inception_4a/relu_5x5 <- inception_4a/5x5
I0403 15:24:46.890647  3063 net.cpp:386] inception_4a/relu_5x5 -> inception_4a/5x5 (in-place)
I0403 15:24:46.890841  3063 net.cpp:141] Setting up inception_4a/relu_5x5
I0403 15:24:46.890871  3063 net.cpp:148] Top shape: 24 48 14 14 (225792)
I0403 15:24:46.890887  3063 net.cpp:156] Memory required for data: 875471904
I0403 15:24:46.890903  3063 layer_factory.hpp:77] Creating layer inception_4a/pool
I0403 15:24:46.890924  3063 net.cpp:91] Creating Layer inception_4a/pool
I0403 15:24:46.890943  3063 net.cpp:425] inception_4a/pool <- pool3/3x3_s2_pool3/3x3_s2_0_split_3
I0403 15:24:46.890962  3063 net.cpp:399] inception_4a/pool -> inception_4a/pool
I0403 15:24:46.891027  3063 net.cpp:141] Setting up inception_4a/pool
I0403 15:24:46.891057  3063 net.cpp:148] Top shape: 24 480 14 14 (2257920)
I0403 15:24:46.891072  3063 net.cpp:156] Memory required for data: 884503584
I0403 15:24:46.891098  3063 layer_factory.hpp:77] Creating layer inception_4a/pool_proj
I0403 15:24:46.891120  3063 net.cpp:91] Creating Layer inception_4a/pool_proj
I0403 15:24:46.891139  3063 net.cpp:425] inception_4a/pool_proj <- inception_4a/pool
I0403 15:24:46.891160  3063 net.cpp:399] inception_4a/pool_proj -> inception_4a/pool_proj
I0403 15:24:46.892457  3063 net.cpp:141] Setting up inception_4a/pool_proj
I0403 15:24:46.892489  3063 net.cpp:148] Top shape: 24 64 14 14 (301056)
I0403 15:24:46.892526  3063 net.cpp:156] Memory required for data: 885707808
I0403 15:24:46.892549  3063 layer_factory.hpp:77] Creating layer inception_4a/relu_pool_proj
I0403 15:24:46.892567  3063 net.cpp:91] Creating Layer inception_4a/relu_pool_proj
I0403 15:24:46.892585  3063 net.cpp:425] inception_4a/relu_pool_proj <- inception_4a/pool_proj
I0403 15:24:46.892606  3063 net.cpp:386] inception_4a/relu_pool_proj -> inception_4a/pool_proj (in-place)
I0403 15:24:46.892907  3063 net.cpp:141] Setting up inception_4a/relu_pool_proj
I0403 15:24:46.892936  3063 net.cpp:148] Top shape: 24 64 14 14 (301056)
I0403 15:24:46.892952  3063 net.cpp:156] Memory required for data: 886912032
I0403 15:24:46.892968  3063 layer_factory.hpp:77] Creating layer inception_4a/output
I0403 15:24:46.892987  3063 net.cpp:91] Creating Layer inception_4a/output
I0403 15:24:46.893003  3063 net.cpp:425] inception_4a/output <- inception_4a/1x1
I0403 15:24:46.893020  3063 net.cpp:425] inception_4a/output <- inception_4a/3x3
I0403 15:24:46.893039  3063 net.cpp:425] inception_4a/output <- inception_4a/5x5
I0403 15:24:46.893057  3063 net.cpp:425] inception_4a/output <- inception_4a/pool_proj
I0403 15:24:46.893079  3063 net.cpp:399] inception_4a/output -> inception_4a/output
I0403 15:24:46.893126  3063 net.cpp:141] Setting up inception_4a/output
I0403 15:24:46.893152  3063 net.cpp:148] Top shape: 24 512 14 14 (2408448)
I0403 15:24:46.893168  3063 net.cpp:156] Memory required for data: 896545824
I0403 15:24:46.893183  3063 layer_factory.hpp:77] Creating layer inception_4a/output_inception_4a/output_0_split
I0403 15:24:46.893203  3063 net.cpp:91] Creating Layer inception_4a/output_inception_4a/output_0_split
I0403 15:24:46.893219  3063 net.cpp:425] inception_4a/output_inception_4a/output_0_split <- inception_4a/output
I0403 15:24:46.893240  3063 net.cpp:399] inception_4a/output_inception_4a/output_0_split -> inception_4a/output_inception_4a/output_0_split_0
I0403 15:24:46.893263  3063 net.cpp:399] inception_4a/output_inception_4a/output_0_split -> inception_4a/output_inception_4a/output_0_split_1
I0403 15:24:46.893298  3063 net.cpp:399] inception_4a/output_inception_4a/output_0_split -> inception_4a/output_inception_4a/output_0_split_2
I0403 15:24:46.893321  3063 net.cpp:399] inception_4a/output_inception_4a/output_0_split -> inception_4a/output_inception_4a/output_0_split_3
I0403 15:24:46.893352  3063 net.cpp:399] inception_4a/output_inception_4a/output_0_split -> inception_4a/output_inception_4a/output_0_split_4
I0403 15:24:46.893450  3063 net.cpp:141] Setting up inception_4a/output_inception_4a/output_0_split
I0403 15:24:46.893477  3063 net.cpp:148] Top shape: 24 512 14 14 (2408448)
I0403 15:24:46.893496  3063 net.cpp:148] Top shape: 24 512 14 14 (2408448)
I0403 15:24:46.893513  3063 net.cpp:148] Top shape: 24 512 14 14 (2408448)
I0403 15:24:46.893529  3063 net.cpp:148] Top shape: 24 512 14 14 (2408448)
I0403 15:24:46.893546  3063 net.cpp:148] Top shape: 24 512 14 14 (2408448)
I0403 15:24:46.893560  3063 net.cpp:156] Memory required for data: 944714784
I0403 15:24:46.893576  3063 layer_factory.hpp:77] Creating layer loss1/ave_pool
I0403 15:24:46.893597  3063 net.cpp:91] Creating Layer loss1/ave_pool
I0403 15:24:46.893613  3063 net.cpp:425] loss1/ave_pool <- inception_4a/output_inception_4a/output_0_split_0
I0403 15:24:46.893635  3063 net.cpp:399] loss1/ave_pool -> loss1/ave_pool
I0403 15:24:46.893868  3063 net.cpp:141] Setting up loss1/ave_pool
I0403 15:24:46.893895  3063 net.cpp:148] Top shape: 24 512 4 4 (196608)
I0403 15:24:46.893911  3063 net.cpp:156] Memory required for data: 945501216
I0403 15:24:46.893928  3063 layer_factory.hpp:77] Creating layer loss1/conv
I0403 15:24:46.893951  3063 net.cpp:91] Creating Layer loss1/conv
I0403 15:24:46.893970  3063 net.cpp:425] loss1/conv <- loss1/ave_pool
I0403 15:24:46.893991  3063 net.cpp:399] loss1/conv -> loss1/conv
I0403 15:24:46.895512  3063 net.cpp:141] Setting up loss1/conv
I0403 15:24:46.895545  3063 net.cpp:148] Top shape: 24 128 4 4 (49152)
I0403 15:24:46.895578  3063 net.cpp:156] Memory required for data: 945697824
I0403 15:24:46.895602  3063 layer_factory.hpp:77] Creating layer loss1/relu_conv
I0403 15:24:46.895622  3063 net.cpp:91] Creating Layer loss1/relu_conv
I0403 15:24:46.895643  3063 net.cpp:425] loss1/relu_conv <- loss1/conv
I0403 15:24:46.895664  3063 net.cpp:386] loss1/relu_conv -> loss1/conv (in-place)
I0403 15:24:46.895969  3063 net.cpp:141] Setting up loss1/relu_conv
I0403 15:24:46.895998  3063 net.cpp:148] Top shape: 24 128 4 4 (49152)
I0403 15:24:46.896015  3063 net.cpp:156] Memory required for data: 945894432
I0403 15:24:46.896031  3063 layer_factory.hpp:77] Creating layer loss1/fc
I0403 15:24:46.896056  3063 net.cpp:91] Creating Layer loss1/fc
I0403 15:24:46.896075  3063 net.cpp:425] loss1/fc <- loss1/conv
I0403 15:24:46.896097  3063 net.cpp:399] loss1/fc -> loss1/fc
I0403 15:24:46.915184  3063 net.cpp:141] Setting up loss1/fc
I0403 15:24:46.915263  3063 net.cpp:148] Top shape: 24 1024 (24576)
I0403 15:24:46.915283  3063 net.cpp:156] Memory required for data: 945992736
I0403 15:24:46.915307  3063 layer_factory.hpp:77] Creating layer loss1/relu_fc
I0403 15:24:46.915333  3063 net.cpp:91] Creating Layer loss1/relu_fc
I0403 15:24:46.915355  3063 net.cpp:425] loss1/relu_fc <- loss1/fc
I0403 15:24:46.915374  3063 net.cpp:386] loss1/relu_fc -> loss1/fc (in-place)
I0403 15:24:46.915623  3063 net.cpp:141] Setting up loss1/relu_fc
I0403 15:24:46.915663  3063 net.cpp:148] Top shape: 24 1024 (24576)
I0403 15:24:46.915679  3063 net.cpp:156] Memory required for data: 946091040
I0403 15:24:46.915695  3063 layer_factory.hpp:77] Creating layer loss1/drop_fc
I0403 15:24:46.915730  3063 net.cpp:91] Creating Layer loss1/drop_fc
I0403 15:24:46.915748  3063 net.cpp:425] loss1/drop_fc <- loss1/fc
I0403 15:24:46.915769  3063 net.cpp:386] loss1/drop_fc -> loss1/fc (in-place)
I0403 15:24:46.915825  3063 net.cpp:141] Setting up loss1/drop_fc
I0403 15:24:46.915861  3063 net.cpp:148] Top shape: 24 1024 (24576)
I0403 15:24:46.915879  3063 net.cpp:156] Memory required for data: 946189344
I0403 15:24:46.915896  3063 layer_factory.hpp:77] Creating layer loss1/classifier_plantvillage
I0403 15:24:46.915917  3063 net.cpp:91] Creating Layer loss1/classifier_plantvillage
I0403 15:24:46.915935  3063 net.cpp:425] loss1/classifier_plantvillage <- loss1/fc
I0403 15:24:46.915957  3063 net.cpp:399] loss1/classifier_plantvillage -> loss1/classifier_plantvillage
I0403 15:24:46.916960  3063 net.cpp:141] Setting up loss1/classifier_plantvillage
I0403 15:24:46.916993  3063 net.cpp:148] Top shape: 24 38 (912)
I0403 15:24:46.917011  3063 net.cpp:156] Memory required for data: 946192992
I0403 15:24:46.917029  3063 layer_factory.hpp:77] Creating layer loss1/classifier_plantvillage_loss1/classifier_plantvillage_0_split
I0403 15:24:46.917049  3063 net.cpp:91] Creating Layer loss1/classifier_plantvillage_loss1/classifier_plantvillage_0_split
I0403 15:24:46.917065  3063 net.cpp:425] loss1/classifier_plantvillage_loss1/classifier_plantvillage_0_split <- loss1/classifier_plantvillage
I0403 15:24:46.917084  3063 net.cpp:399] loss1/classifier_plantvillage_loss1/classifier_plantvillage_0_split -> loss1/classifier_plantvillage_loss1/classifier_plantvillage_0_split_0
I0403 15:24:46.917105  3063 net.cpp:399] loss1/classifier_plantvillage_loss1/classifier_plantvillage_0_split -> loss1/classifier_plantvillage_loss1/classifier_plantvillage_0_split_1
I0403 15:24:46.917127  3063 net.cpp:399] loss1/classifier_plantvillage_loss1/classifier_plantvillage_0_split -> loss1/classifier_plantvillage_loss1/classifier_plantvillage_0_split_2
I0403 15:24:46.917198  3063 net.cpp:141] Setting up loss1/classifier_plantvillage_loss1/classifier_plantvillage_0_split
I0403 15:24:46.917224  3063 net.cpp:148] Top shape: 24 38 (912)
I0403 15:24:46.917242  3063 net.cpp:148] Top shape: 24 38 (912)
I0403 15:24:46.917261  3063 net.cpp:148] Top shape: 24 38 (912)
I0403 15:24:46.917281  3063 net.cpp:156] Memory required for data: 946203936
I0403 15:24:46.917299  3063 layer_factory.hpp:77] Creating layer inception_4b/1x1
I0403 15:24:46.917321  3063 net.cpp:91] Creating Layer inception_4b/1x1
I0403 15:24:46.917366  3063 net.cpp:425] inception_4b/1x1 <- inception_4a/output_inception_4a/output_0_split_1
I0403 15:24:46.917392  3063 net.cpp:399] inception_4b/1x1 -> inception_4b/1x1
I0403 15:24:46.919189  3063 net.cpp:141] Setting up inception_4b/1x1
I0403 15:24:46.919225  3063 net.cpp:148] Top shape: 24 160 14 14 (752640)
I0403 15:24:46.919244  3063 net.cpp:156] Memory required for data: 949214496
I0403 15:24:46.919265  3063 layer_factory.hpp:77] Creating layer inception_4b/relu_1x1
I0403 15:24:46.919287  3063 net.cpp:91] Creating Layer inception_4b/relu_1x1
I0403 15:24:46.919306  3063 net.cpp:425] inception_4b/relu_1x1 <- inception_4b/1x1
I0403 15:24:46.919324  3063 net.cpp:386] inception_4b/relu_1x1 -> inception_4b/1x1 (in-place)
I0403 15:24:46.919515  3063 net.cpp:141] Setting up inception_4b/relu_1x1
I0403 15:24:46.919544  3063 net.cpp:148] Top shape: 24 160 14 14 (752640)
I0403 15:24:46.919561  3063 net.cpp:156] Memory required for data: 952225056
I0403 15:24:46.919579  3063 layer_factory.hpp:77] Creating layer inception_4b/3x3_reduce
I0403 15:24:46.919615  3063 net.cpp:91] Creating Layer inception_4b/3x3_reduce
I0403 15:24:46.919648  3063 net.cpp:425] inception_4b/3x3_reduce <- inception_4a/output_inception_4a/output_0_split_2
I0403 15:24:46.919672  3063 net.cpp:399] inception_4b/3x3_reduce -> inception_4b/3x3_reduce
I0403 15:24:46.921113  3063 net.cpp:141] Setting up inception_4b/3x3_reduce
I0403 15:24:46.921145  3063 net.cpp:148] Top shape: 24 112 14 14 (526848)
I0403 15:24:46.921164  3063 net.cpp:156] Memory required for data: 954332448
I0403 15:24:46.921183  3063 layer_factory.hpp:77] Creating layer inception_4b/relu_3x3_reduce
I0403 15:24:46.921203  3063 net.cpp:91] Creating Layer inception_4b/relu_3x3_reduce
I0403 15:24:46.921221  3063 net.cpp:425] inception_4b/relu_3x3_reduce <- inception_4b/3x3_reduce
I0403 15:24:46.921241  3063 net.cpp:386] inception_4b/relu_3x3_reduce -> inception_4b/3x3_reduce (in-place)
I0403 15:24:46.921546  3063 net.cpp:141] Setting up inception_4b/relu_3x3_reduce
I0403 15:24:46.921577  3063 net.cpp:148] Top shape: 24 112 14 14 (526848)
I0403 15:24:46.921594  3063 net.cpp:156] Memory required for data: 956439840
I0403 15:24:46.921610  3063 layer_factory.hpp:77] Creating layer inception_4b/3x3
I0403 15:24:46.921633  3063 net.cpp:91] Creating Layer inception_4b/3x3
I0403 15:24:46.921651  3063 net.cpp:425] inception_4b/3x3 <- inception_4b/3x3_reduce
I0403 15:24:46.921672  3063 net.cpp:399] inception_4b/3x3 -> inception_4b/3x3
I0403 15:24:46.924846  3063 net.cpp:141] Setting up inception_4b/3x3
I0403 15:24:46.924877  3063 net.cpp:148] Top shape: 24 224 14 14 (1053696)
I0403 15:24:46.924895  3063 net.cpp:156] Memory required for data: 960654624
I0403 15:24:46.924913  3063 layer_factory.hpp:77] Creating layer inception_4b/relu_3x3
I0403 15:24:46.924935  3063 net.cpp:91] Creating Layer inception_4b/relu_3x3
I0403 15:24:46.924953  3063 net.cpp:425] inception_4b/relu_3x3 <- inception_4b/3x3
I0403 15:24:46.924978  3063 net.cpp:386] inception_4b/relu_3x3 -> inception_4b/3x3 (in-place)
I0403 15:24:46.925173  3063 net.cpp:141] Setting up inception_4b/relu_3x3
I0403 15:24:46.925202  3063 net.cpp:148] Top shape: 24 224 14 14 (1053696)
I0403 15:24:46.925220  3063 net.cpp:156] Memory required for data: 964869408
I0403 15:24:46.925236  3063 layer_factory.hpp:77] Creating layer inception_4b/5x5_reduce
I0403 15:24:46.925262  3063 net.cpp:91] Creating Layer inception_4b/5x5_reduce
I0403 15:24:46.925287  3063 net.cpp:425] inception_4b/5x5_reduce <- inception_4a/output_inception_4a/output_0_split_3
I0403 15:24:46.925309  3063 net.cpp:399] inception_4b/5x5_reduce -> inception_4b/5x5_reduce
I0403 15:24:46.926462  3063 net.cpp:141] Setting up inception_4b/5x5_reduce
I0403 15:24:46.926493  3063 net.cpp:148] Top shape: 24 24 14 14 (112896)
I0403 15:24:46.926512  3063 net.cpp:156] Memory required for data: 965320992
I0403 15:24:46.926530  3063 layer_factory.hpp:77] Creating layer inception_4b/relu_5x5_reduce
I0403 15:24:46.926549  3063 net.cpp:91] Creating Layer inception_4b/relu_5x5_reduce
I0403 15:24:46.926581  3063 net.cpp:425] inception_4b/relu_5x5_reduce <- inception_4b/5x5_reduce
I0403 15:24:46.926604  3063 net.cpp:386] inception_4b/relu_5x5_reduce -> inception_4b/5x5_reduce (in-place)
I0403 15:24:46.926798  3063 net.cpp:141] Setting up inception_4b/relu_5x5_reduce
I0403 15:24:46.926828  3063 net.cpp:148] Top shape: 24 24 14 14 (112896)
I0403 15:24:46.926846  3063 net.cpp:156] Memory required for data: 965772576
I0403 15:24:46.926862  3063 layer_factory.hpp:77] Creating layer inception_4b/5x5
I0403 15:24:46.926885  3063 net.cpp:91] Creating Layer inception_4b/5x5
I0403 15:24:46.926903  3063 net.cpp:425] inception_4b/5x5 <- inception_4b/5x5_reduce
I0403 15:24:46.926926  3063 net.cpp:399] inception_4b/5x5 -> inception_4b/5x5
I0403 15:24:46.928241  3063 net.cpp:141] Setting up inception_4b/5x5
I0403 15:24:46.928288  3063 net.cpp:148] Top shape: 24 64 14 14 (301056)
I0403 15:24:46.928319  3063 net.cpp:156] Memory required for data: 966976800
I0403 15:24:46.928350  3063 layer_factory.hpp:77] Creating layer inception_4b/relu_5x5
I0403 15:24:46.928370  3063 net.cpp:91] Creating Layer inception_4b/relu_5x5
I0403 15:24:46.928388  3063 net.cpp:425] inception_4b/relu_5x5 <- inception_4b/5x5
I0403 15:24:46.928407  3063 net.cpp:386] inception_4b/relu_5x5 -> inception_4b/5x5 (in-place)
I0403 15:24:46.928716  3063 net.cpp:141] Setting up inception_4b/relu_5x5
I0403 15:24:46.928747  3063 net.cpp:148] Top shape: 24 64 14 14 (301056)
I0403 15:24:46.928764  3063 net.cpp:156] Memory required for data: 968181024
I0403 15:24:46.928781  3063 layer_factory.hpp:77] Creating layer inception_4b/pool
I0403 15:24:46.928800  3063 net.cpp:91] Creating Layer inception_4b/pool
I0403 15:24:46.928823  3063 net.cpp:425] inception_4b/pool <- inception_4a/output_inception_4a/output_0_split_4
I0403 15:24:46.928848  3063 net.cpp:399] inception_4b/pool -> inception_4b/pool
I0403 15:24:46.928920  3063 net.cpp:141] Setting up inception_4b/pool
I0403 15:24:46.928946  3063 net.cpp:148] Top shape: 24 512 14 14 (2408448)
I0403 15:24:46.928961  3063 net.cpp:156] Memory required for data: 977814816
I0403 15:24:46.928977  3063 layer_factory.hpp:77] Creating layer inception_4b/pool_proj
I0403 15:24:46.928999  3063 net.cpp:91] Creating Layer inception_4b/pool_proj
I0403 15:24:46.929018  3063 net.cpp:425] inception_4b/pool_proj <- inception_4b/pool
I0403 15:24:46.929039  3063 net.cpp:399] inception_4b/pool_proj -> inception_4b/pool_proj
I0403 15:24:46.930321  3063 net.cpp:141] Setting up inception_4b/pool_proj
I0403 15:24:46.930356  3063 net.cpp:148] Top shape: 24 64 14 14 (301056)
I0403 15:24:46.930377  3063 net.cpp:156] Memory required for data: 979019040
I0403 15:24:46.930397  3063 layer_factory.hpp:77] Creating layer inception_4b/relu_pool_proj
I0403 15:24:46.930415  3063 net.cpp:91] Creating Layer inception_4b/relu_pool_proj
I0403 15:24:46.930433  3063 net.cpp:425] inception_4b/relu_pool_proj <- inception_4b/pool_proj
I0403 15:24:46.930450  3063 net.cpp:386] inception_4b/relu_pool_proj -> inception_4b/pool_proj (in-place)
I0403 15:24:46.930644  3063 net.cpp:141] Setting up inception_4b/relu_pool_proj
I0403 15:24:46.930670  3063 net.cpp:148] Top shape: 24 64 14 14 (301056)
I0403 15:24:46.930685  3063 net.cpp:156] Memory required for data: 980223264
I0403 15:24:46.930701  3063 layer_factory.hpp:77] Creating layer inception_4b/output
I0403 15:24:46.930719  3063 net.cpp:91] Creating Layer inception_4b/output
I0403 15:24:46.930735  3063 net.cpp:425] inception_4b/output <- inception_4b/1x1
I0403 15:24:46.930752  3063 net.cpp:425] inception_4b/output <- inception_4b/3x3
I0403 15:24:46.930769  3063 net.cpp:425] inception_4b/output <- inception_4b/5x5
I0403 15:24:46.930785  3063 net.cpp:425] inception_4b/output <- inception_4b/pool_proj
I0403 15:24:46.930807  3063 net.cpp:399] inception_4b/output -> inception_4b/output
I0403 15:24:46.930855  3063 net.cpp:141] Setting up inception_4b/output
I0403 15:24:46.930883  3063 net.cpp:148] Top shape: 24 512 14 14 (2408448)
I0403 15:24:46.930899  3063 net.cpp:156] Memory required for data: 989857056
I0403 15:24:46.930930  3063 layer_factory.hpp:77] Creating layer inception_4b/output_inception_4b/output_0_split
I0403 15:24:46.930949  3063 net.cpp:91] Creating Layer inception_4b/output_inception_4b/output_0_split
I0403 15:24:46.930966  3063 net.cpp:425] inception_4b/output_inception_4b/output_0_split <- inception_4b/output
I0403 15:24:46.930986  3063 net.cpp:399] inception_4b/output_inception_4b/output_0_split -> inception_4b/output_inception_4b/output_0_split_0
I0403 15:24:46.931011  3063 net.cpp:399] inception_4b/output_inception_4b/output_0_split -> inception_4b/output_inception_4b/output_0_split_1
I0403 15:24:46.931035  3063 net.cpp:399] inception_4b/output_inception_4b/output_0_split -> inception_4b/output_inception_4b/output_0_split_2
I0403 15:24:46.931056  3063 net.cpp:399] inception_4b/output_inception_4b/output_0_split -> inception_4b/output_inception_4b/output_0_split_3
I0403 15:24:46.931143  3063 net.cpp:141] Setting up inception_4b/output_inception_4b/output_0_split
I0403 15:24:46.931169  3063 net.cpp:148] Top shape: 24 512 14 14 (2408448)
I0403 15:24:46.931186  3063 net.cpp:148] Top shape: 24 512 14 14 (2408448)
I0403 15:24:46.931202  3063 net.cpp:148] Top shape: 24 512 14 14 (2408448)
I0403 15:24:46.931219  3063 net.cpp:148] Top shape: 24 512 14 14 (2408448)
I0403 15:24:46.931234  3063 net.cpp:156] Memory required for data: 1028392224
I0403 15:24:46.931249  3063 layer_factory.hpp:77] Creating layer inception_4c/1x1
I0403 15:24:46.931277  3063 net.cpp:91] Creating Layer inception_4c/1x1
I0403 15:24:46.931296  3063 net.cpp:425] inception_4c/1x1 <- inception_4b/output_inception_4b/output_0_split_0
I0403 15:24:46.931318  3063 net.cpp:399] inception_4c/1x1 -> inception_4c/1x1
I0403 15:24:46.932860  3063 net.cpp:141] Setting up inception_4c/1x1
I0403 15:24:46.932901  3063 net.cpp:148] Top shape: 24 128 14 14 (602112)
I0403 15:24:46.932919  3063 net.cpp:156] Memory required for data: 1030800672
I0403 15:24:46.932937  3063 layer_factory.hpp:77] Creating layer inception_4c/relu_1x1
I0403 15:24:46.932960  3063 net.cpp:91] Creating Layer inception_4c/relu_1x1
I0403 15:24:46.932976  3063 net.cpp:425] inception_4c/relu_1x1 <- inception_4c/1x1
I0403 15:24:46.932996  3063 net.cpp:386] inception_4c/relu_1x1 -> inception_4c/1x1 (in-place)
I0403 15:24:46.933192  3063 net.cpp:141] Setting up inception_4c/relu_1x1
I0403 15:24:46.933219  3063 net.cpp:148] Top shape: 24 128 14 14 (602112)
I0403 15:24:46.933234  3063 net.cpp:156] Memory required for data: 1033209120
I0403 15:24:46.933250  3063 layer_factory.hpp:77] Creating layer inception_4c/3x3_reduce
I0403 15:24:46.933277  3063 net.cpp:91] Creating Layer inception_4c/3x3_reduce
I0403 15:24:46.933298  3063 net.cpp:425] inception_4c/3x3_reduce <- inception_4b/output_inception_4b/output_0_split_1
I0403 15:24:46.933320  3063 net.cpp:399] inception_4c/3x3_reduce -> inception_4c/3x3_reduce
I0403 15:24:46.935426  3063 net.cpp:141] Setting up inception_4c/3x3_reduce
I0403 15:24:46.935457  3063 net.cpp:148] Top shape: 24 128 14 14 (602112)
I0403 15:24:46.935473  3063 net.cpp:156] Memory required for data: 1035617568
I0403 15:24:46.935493  3063 layer_factory.hpp:77] Creating layer inception_4c/relu_3x3_reduce
I0403 15:24:46.935514  3063 net.cpp:91] Creating Layer inception_4c/relu_3x3_reduce
I0403 15:24:46.935531  3063 net.cpp:425] inception_4c/relu_3x3_reduce <- inception_4c/3x3_reduce
I0403 15:24:46.935551  3063 net.cpp:386] inception_4c/relu_3x3_reduce -> inception_4c/3x3_reduce (in-place)
I0403 15:24:46.935861  3063 net.cpp:141] Setting up inception_4c/relu_3x3_reduce
I0403 15:24:46.935889  3063 net.cpp:148] Top shape: 24 128 14 14 (602112)
I0403 15:24:46.935905  3063 net.cpp:156] Memory required for data: 1038026016
I0403 15:24:46.935921  3063 layer_factory.hpp:77] Creating layer inception_4c/3x3
I0403 15:24:46.935947  3063 net.cpp:91] Creating Layer inception_4c/3x3
I0403 15:24:46.935966  3063 net.cpp:425] inception_4c/3x3 <- inception_4c/3x3_reduce
I0403 15:24:46.935986  3063 net.cpp:399] inception_4c/3x3 -> inception_4c/3x3
I0403 15:24:46.939828  3063 net.cpp:141] Setting up inception_4c/3x3
I0403 15:24:46.939875  3063 net.cpp:148] Top shape: 24 256 14 14 (1204224)
I0403 15:24:46.939893  3063 net.cpp:156] Memory required for data: 1042842912
I0403 15:24:46.939930  3063 layer_factory.hpp:77] Creating layer inception_4c/relu_3x3
I0403 15:24:46.939952  3063 net.cpp:91] Creating Layer inception_4c/relu_3x3
I0403 15:24:46.939970  3063 net.cpp:425] inception_4c/relu_3x3 <- inception_4c/3x3
I0403 15:24:46.939987  3063 net.cpp:386] inception_4c/relu_3x3 -> inception_4c/3x3 (in-place)
I0403 15:24:46.940186  3063 net.cpp:141] Setting up inception_4c/relu_3x3
I0403 15:24:46.940215  3063 net.cpp:148] Top shape: 24 256 14 14 (1204224)
I0403 15:24:46.940232  3063 net.cpp:156] Memory required for data: 1047659808
I0403 15:24:46.940248  3063 layer_factory.hpp:77] Creating layer inception_4c/5x5_reduce
I0403 15:24:46.940276  3063 net.cpp:91] Creating Layer inception_4c/5x5_reduce
I0403 15:24:46.940297  3063 net.cpp:425] inception_4c/5x5_reduce <- inception_4b/output_inception_4b/output_0_split_2
I0403 15:24:46.940317  3063 net.cpp:399] inception_4c/5x5_reduce -> inception_4c/5x5_reduce
I0403 15:24:46.941488  3063 net.cpp:141] Setting up inception_4c/5x5_reduce
I0403 15:24:46.941520  3063 net.cpp:148] Top shape: 24 24 14 14 (112896)
I0403 15:24:46.941537  3063 net.cpp:156] Memory required for data: 1048111392
I0403 15:24:46.941557  3063 layer_factory.hpp:77] Creating layer inception_4c/relu_5x5_reduce
I0403 15:24:46.941576  3063 net.cpp:91] Creating Layer inception_4c/relu_5x5_reduce
I0403 15:24:46.941593  3063 net.cpp:425] inception_4c/relu_5x5_reduce <- inception_4c/5x5_reduce
I0403 15:24:46.941614  3063 net.cpp:386] inception_4c/relu_5x5_reduce -> inception_4c/5x5_reduce (in-place)
I0403 15:24:46.941812  3063 net.cpp:141] Setting up inception_4c/relu_5x5_reduce
I0403 15:24:46.941838  3063 net.cpp:148] Top shape: 24 24 14 14 (112896)
I0403 15:24:46.941854  3063 net.cpp:156] Memory required for data: 1048562976
I0403 15:24:46.941869  3063 layer_factory.hpp:77] Creating layer inception_4c/5x5
I0403 15:24:46.941892  3063 net.cpp:91] Creating Layer inception_4c/5x5
I0403 15:24:46.941911  3063 net.cpp:425] inception_4c/5x5 <- inception_4c/5x5_reduce
I0403 15:24:46.941934  3063 net.cpp:399] inception_4c/5x5 -> inception_4c/5x5
I0403 15:24:46.943282  3063 net.cpp:141] Setting up inception_4c/5x5
I0403 15:24:46.943315  3063 net.cpp:148] Top shape: 24 64 14 14 (301056)
I0403 15:24:46.943336  3063 net.cpp:156] Memory required for data: 1049767200
I0403 15:24:46.943356  3063 layer_factory.hpp:77] Creating layer inception_4c/relu_5x5
I0403 15:24:46.943380  3063 net.cpp:91] Creating Layer inception_4c/relu_5x5
I0403 15:24:46.943400  3063 net.cpp:425] inception_4c/relu_5x5 <- inception_4c/5x5
I0403 15:24:46.943419  3063 net.cpp:386] inception_4c/relu_5x5 -> inception_4c/5x5 (in-place)
I0403 15:24:46.943730  3063 net.cpp:141] Setting up inception_4c/relu_5x5
I0403 15:24:46.943758  3063 net.cpp:148] Top shape: 24 64 14 14 (301056)
I0403 15:24:46.943774  3063 net.cpp:156] Memory required for data: 1050971424
I0403 15:24:46.943789  3063 layer_factory.hpp:77] Creating layer inception_4c/pool
I0403 15:24:46.943809  3063 net.cpp:91] Creating Layer inception_4c/pool
I0403 15:24:46.943825  3063 net.cpp:425] inception_4c/pool <- inception_4b/output_inception_4b/output_0_split_3
I0403 15:24:46.943847  3063 net.cpp:399] inception_4c/pool -> inception_4c/pool
I0403 15:24:46.943917  3063 net.cpp:141] Setting up inception_4c/pool
I0403 15:24:46.943944  3063 net.cpp:148] Top shape: 24 512 14 14 (2408448)
I0403 15:24:46.943961  3063 net.cpp:156] Memory required for data: 1060605216
I0403 15:24:46.943979  3063 layer_factory.hpp:77] Creating layer inception_4c/pool_proj
I0403 15:24:46.944005  3063 net.cpp:91] Creating Layer inception_4c/pool_proj
I0403 15:24:46.944023  3063 net.cpp:425] inception_4c/pool_proj <- inception_4c/pool
I0403 15:24:46.944043  3063 net.cpp:399] inception_4c/pool_proj -> inception_4c/pool_proj
I0403 15:24:46.945361  3063 net.cpp:141] Setting up inception_4c/pool_proj
I0403 15:24:46.945405  3063 net.cpp:148] Top shape: 24 64 14 14 (301056)
I0403 15:24:46.945438  3063 net.cpp:156] Memory required for data: 1061809440
I0403 15:24:46.945459  3063 layer_factory.hpp:77] Creating layer inception_4c/relu_pool_proj
I0403 15:24:46.945487  3063 net.cpp:91] Creating Layer inception_4c/relu_pool_proj
I0403 15:24:46.945504  3063 net.cpp:425] inception_4c/relu_pool_proj <- inception_4c/pool_proj
I0403 15:24:46.945523  3063 net.cpp:386] inception_4c/relu_pool_proj -> inception_4c/pool_proj (in-place)
I0403 15:24:46.945729  3063 net.cpp:141] Setting up inception_4c/relu_pool_proj
I0403 15:24:46.945756  3063 net.cpp:148] Top shape: 24 64 14 14 (301056)
I0403 15:24:46.945771  3063 net.cpp:156] Memory required for data: 1063013664
I0403 15:24:46.945786  3063 layer_factory.hpp:77] Creating layer inception_4c/output
I0403 15:24:46.945804  3063 net.cpp:91] Creating Layer inception_4c/output
I0403 15:24:46.945823  3063 net.cpp:425] inception_4c/output <- inception_4c/1x1
I0403 15:24:46.945847  3063 net.cpp:425] inception_4c/output <- inception_4c/3x3
I0403 15:24:46.945865  3063 net.cpp:425] inception_4c/output <- inception_4c/5x5
I0403 15:24:46.945883  3063 net.cpp:425] inception_4c/output <- inception_4c/pool_proj
I0403 15:24:46.945907  3063 net.cpp:399] inception_4c/output -> inception_4c/output
I0403 15:24:46.945957  3063 net.cpp:141] Setting up inception_4c/output
I0403 15:24:46.945984  3063 net.cpp:148] Top shape: 24 512 14 14 (2408448)
I0403 15:24:46.946001  3063 net.cpp:156] Memory required for data: 1072647456
I0403 15:24:46.946017  3063 layer_factory.hpp:77] Creating layer inception_4c/output_inception_4c/output_0_split
I0403 15:24:46.946033  3063 net.cpp:91] Creating Layer inception_4c/output_inception_4c/output_0_split
I0403 15:24:46.946050  3063 net.cpp:425] inception_4c/output_inception_4c/output_0_split <- inception_4c/output
I0403 15:24:46.946069  3063 net.cpp:399] inception_4c/output_inception_4c/output_0_split -> inception_4c/output_inception_4c/output_0_split_0
I0403 15:24:46.946094  3063 net.cpp:399] inception_4c/output_inception_4c/output_0_split -> inception_4c/output_inception_4c/output_0_split_1
I0403 15:24:46.946115  3063 net.cpp:399] inception_4c/output_inception_4c/output_0_split -> inception_4c/output_inception_4c/output_0_split_2
I0403 15:24:46.946136  3063 net.cpp:399] inception_4c/output_inception_4c/output_0_split -> inception_4c/output_inception_4c/output_0_split_3
I0403 15:24:46.946233  3063 net.cpp:141] Setting up inception_4c/output_inception_4c/output_0_split
I0403 15:24:46.946260  3063 net.cpp:148] Top shape: 24 512 14 14 (2408448)
I0403 15:24:46.946283  3063 net.cpp:148] Top shape: 24 512 14 14 (2408448)
I0403 15:24:46.946300  3063 net.cpp:148] Top shape: 24 512 14 14 (2408448)
I0403 15:24:46.946316  3063 net.cpp:148] Top shape: 24 512 14 14 (2408448)
I0403 15:24:46.946331  3063 net.cpp:156] Memory required for data: 1111182624
I0403 15:24:46.946347  3063 layer_factory.hpp:77] Creating layer inception_4d/1x1
I0403 15:24:46.946372  3063 net.cpp:91] Creating Layer inception_4d/1x1
I0403 15:24:46.946389  3063 net.cpp:425] inception_4d/1x1 <- inception_4c/output_inception_4c/output_0_split_0
I0403 15:24:46.946411  3063 net.cpp:399] inception_4d/1x1 -> inception_4d/1x1
I0403 15:24:46.947921  3063 net.cpp:141] Setting up inception_4d/1x1
I0403 15:24:46.947957  3063 net.cpp:148] Top shape: 24 112 14 14 (526848)
I0403 15:24:46.947974  3063 net.cpp:156] Memory required for data: 1113290016
I0403 15:24:46.947998  3063 layer_factory.hpp:77] Creating layer inception_4d/relu_1x1
I0403 15:24:46.948019  3063 net.cpp:91] Creating Layer inception_4d/relu_1x1
I0403 15:24:46.948056  3063 net.cpp:425] inception_4d/relu_1x1 <- inception_4d/1x1
I0403 15:24:46.948078  3063 net.cpp:386] inception_4d/relu_1x1 -> inception_4d/1x1 (in-place)
I0403 15:24:46.948281  3063 net.cpp:141] Setting up inception_4d/relu_1x1
I0403 15:24:46.948313  3063 net.cpp:148] Top shape: 24 112 14 14 (526848)
I0403 15:24:46.948334  3063 net.cpp:156] Memory required for data: 1115397408
I0403 15:24:46.948354  3063 layer_factory.hpp:77] Creating layer inception_4d/3x3_reduce
I0403 15:24:46.948392  3063 net.cpp:91] Creating Layer inception_4d/3x3_reduce
I0403 15:24:46.948412  3063 net.cpp:425] inception_4d/3x3_reduce <- inception_4c/output_inception_4c/output_0_split_1
I0403 15:24:46.948433  3063 net.cpp:399] inception_4d/3x3_reduce -> inception_4d/3x3_reduce
I0403 15:24:46.950073  3063 net.cpp:141] Setting up inception_4d/3x3_reduce
I0403 15:24:46.950109  3063 net.cpp:148] Top shape: 24 144 14 14 (677376)
I0403 15:24:46.950130  3063 net.cpp:156] Memory required for data: 1118106912
I0403 15:24:46.950153  3063 layer_factory.hpp:77] Creating layer inception_4d/relu_3x3_reduce
I0403 15:24:46.950173  3063 net.cpp:91] Creating Layer inception_4d/relu_3x3_reduce
I0403 15:24:46.950191  3063 net.cpp:425] inception_4d/relu_3x3_reduce <- inception_4d/3x3_reduce
I0403 15:24:46.950212  3063 net.cpp:386] inception_4d/relu_3x3_reduce -> inception_4d/3x3_reduce (in-place)
I0403 15:24:46.950541  3063 net.cpp:141] Setting up inception_4d/relu_3x3_reduce
I0403 15:24:46.950570  3063 net.cpp:148] Top shape: 24 144 14 14 (677376)
I0403 15:24:46.950587  3063 net.cpp:156] Memory required for data: 1120816416
I0403 15:24:46.950603  3063 layer_factory.hpp:77] Creating layer inception_4d/3x3
I0403 15:24:46.950625  3063 net.cpp:91] Creating Layer inception_4d/3x3
I0403 15:24:46.950644  3063 net.cpp:425] inception_4d/3x3 <- inception_4d/3x3_reduce
I0403 15:24:46.950665  3063 net.cpp:399] inception_4d/3x3 -> inception_4d/3x3
I0403 15:24:46.955268  3063 net.cpp:141] Setting up inception_4d/3x3
I0403 15:24:46.955303  3063 net.cpp:148] Top shape: 24 288 14 14 (1354752)
I0403 15:24:46.955322  3063 net.cpp:156] Memory required for data: 1126235424
I0403 15:24:46.955341  3063 layer_factory.hpp:77] Creating layer inception_4d/relu_3x3
I0403 15:24:46.955363  3063 net.cpp:91] Creating Layer inception_4d/relu_3x3
I0403 15:24:46.955382  3063 net.cpp:425] inception_4d/relu_3x3 <- inception_4d/3x3
I0403 15:24:46.955402  3063 net.cpp:386] inception_4d/relu_3x3 -> inception_4d/3x3 (in-place)
I0403 15:24:46.955620  3063 net.cpp:141] Setting up inception_4d/relu_3x3
I0403 15:24:46.955648  3063 net.cpp:148] Top shape: 24 288 14 14 (1354752)
I0403 15:24:46.955669  3063 net.cpp:156] Memory required for data: 1131654432
I0403 15:24:46.955688  3063 layer_factory.hpp:77] Creating layer inception_4d/5x5_reduce
I0403 15:24:46.955718  3063 net.cpp:91] Creating Layer inception_4d/5x5_reduce
I0403 15:24:46.955737  3063 net.cpp:425] inception_4d/5x5_reduce <- inception_4c/output_inception_4c/output_0_split_2
I0403 15:24:46.955757  3063 net.cpp:399] inception_4d/5x5_reduce -> inception_4d/5x5_reduce
I0403 15:24:46.957026  3063 net.cpp:141] Setting up inception_4d/5x5_reduce
I0403 15:24:46.957056  3063 net.cpp:148] Top shape: 24 32 14 14 (150528)
I0403 15:24:46.957072  3063 net.cpp:156] Memory required for data: 1132256544
I0403 15:24:46.957093  3063 layer_factory.hpp:77] Creating layer inception_4d/relu_5x5_reduce
I0403 15:24:46.957113  3063 net.cpp:91] Creating Layer inception_4d/relu_5x5_reduce
I0403 15:24:46.957131  3063 net.cpp:425] inception_4d/relu_5x5_reduce <- inception_4d/5x5_reduce
I0403 15:24:46.957149  3063 net.cpp:386] inception_4d/relu_5x5_reduce -> inception_4d/5x5_reduce (in-place)
I0403 15:24:46.957356  3063 net.cpp:141] Setting up inception_4d/relu_5x5_reduce
I0403 15:24:46.957387  3063 net.cpp:148] Top shape: 24 32 14 14 (150528)
I0403 15:24:46.957404  3063 net.cpp:156] Memory required for data: 1132858656
I0403 15:24:46.957420  3063 layer_factory.hpp:77] Creating layer inception_4d/5x5
I0403 15:24:46.957443  3063 net.cpp:91] Creating Layer inception_4d/5x5
I0403 15:24:46.957461  3063 net.cpp:425] inception_4d/5x5 <- inception_4d/5x5_reduce
I0403 15:24:46.957482  3063 net.cpp:399] inception_4d/5x5 -> inception_4d/5x5
I0403 15:24:46.959064  3063 net.cpp:141] Setting up inception_4d/5x5
I0403 15:24:46.959097  3063 net.cpp:148] Top shape: 24 64 14 14 (301056)
I0403 15:24:46.959115  3063 net.cpp:156] Memory required for data: 1134062880
I0403 15:24:46.959136  3063 layer_factory.hpp:77] Creating layer inception_4d/relu_5x5
I0403 15:24:46.959169  3063 net.cpp:91] Creating Layer inception_4d/relu_5x5
I0403 15:24:46.959187  3063 net.cpp:425] inception_4d/relu_5x5 <- inception_4d/5x5
I0403 15:24:46.959209  3063 net.cpp:386] inception_4d/relu_5x5 -> inception_4d/5x5 (in-place)
I0403 15:24:46.959545  3063 net.cpp:141] Setting up inception_4d/relu_5x5
I0403 15:24:46.959575  3063 net.cpp:148] Top shape: 24 64 14 14 (301056)
I0403 15:24:46.959592  3063 net.cpp:156] Memory required for data: 1135267104
I0403 15:24:46.959609  3063 layer_factory.hpp:77] Creating layer inception_4d/pool
I0403 15:24:46.959627  3063 net.cpp:91] Creating Layer inception_4d/pool
I0403 15:24:46.959645  3063 net.cpp:425] inception_4d/pool <- inception_4c/output_inception_4c/output_0_split_3
I0403 15:24:46.959666  3063 net.cpp:399] inception_4d/pool -> inception_4d/pool
I0403 15:24:46.959736  3063 net.cpp:141] Setting up inception_4d/pool
I0403 15:24:46.959764  3063 net.cpp:148] Top shape: 24 512 14 14 (2408448)
I0403 15:24:46.959779  3063 net.cpp:156] Memory required for data: 1144900896
I0403 15:24:46.959795  3063 layer_factory.hpp:77] Creating layer inception_4d/pool_proj
I0403 15:24:46.959816  3063 net.cpp:91] Creating Layer inception_4d/pool_proj
I0403 15:24:46.959835  3063 net.cpp:425] inception_4d/pool_proj <- inception_4d/pool
I0403 15:24:46.959857  3063 net.cpp:399] inception_4d/pool_proj -> inception_4d/pool_proj
I0403 15:24:46.961774  3063 net.cpp:141] Setting up inception_4d/pool_proj
I0403 15:24:46.961805  3063 net.cpp:148] Top shape: 24 64 14 14 (301056)
I0403 15:24:46.961822  3063 net.cpp:156] Memory required for data: 1146105120
I0403 15:24:46.961843  3063 layer_factory.hpp:77] Creating layer inception_4d/relu_pool_proj
I0403 15:24:46.961863  3063 net.cpp:91] Creating Layer inception_4d/relu_pool_proj
I0403 15:24:46.961881  3063 net.cpp:425] inception_4d/relu_pool_proj <- inception_4d/pool_proj
I0403 15:24:46.961900  3063 net.cpp:386] inception_4d/relu_pool_proj -> inception_4d/pool_proj (in-place)
I0403 15:24:46.962100  3063 net.cpp:141] Setting up inception_4d/relu_pool_proj
I0403 15:24:46.962138  3063 net.cpp:148] Top shape: 24 64 14 14 (301056)
I0403 15:24:46.962154  3063 net.cpp:156] Memory required for data: 1147309344
I0403 15:24:46.962170  3063 layer_factory.hpp:77] Creating layer inception_4d/output
I0403 15:24:46.962191  3063 net.cpp:91] Creating Layer inception_4d/output
I0403 15:24:46.962208  3063 net.cpp:425] inception_4d/output <- inception_4d/1x1
I0403 15:24:46.962227  3063 net.cpp:425] inception_4d/output <- inception_4d/3x3
I0403 15:24:46.962247  3063 net.cpp:425] inception_4d/output <- inception_4d/5x5
I0403 15:24:46.962265  3063 net.cpp:425] inception_4d/output <- inception_4d/pool_proj
I0403 15:24:46.962306  3063 net.cpp:399] inception_4d/output -> inception_4d/output
I0403 15:24:46.962371  3063 net.cpp:141] Setting up inception_4d/output
I0403 15:24:46.962396  3063 net.cpp:148] Top shape: 24 528 14 14 (2483712)
I0403 15:24:46.962411  3063 net.cpp:156] Memory required for data: 1157244192
I0403 15:24:46.962426  3063 layer_factory.hpp:77] Creating layer inception_4d/output_inception_4d/output_0_split
I0403 15:24:46.962456  3063 net.cpp:91] Creating Layer inception_4d/output_inception_4d/output_0_split
I0403 15:24:46.962473  3063 net.cpp:425] inception_4d/output_inception_4d/output_0_split <- inception_4d/output
I0403 15:24:46.962492  3063 net.cpp:399] inception_4d/output_inception_4d/output_0_split -> inception_4d/output_inception_4d/output_0_split_0
I0403 15:24:46.962514  3063 net.cpp:399] inception_4d/output_inception_4d/output_0_split -> inception_4d/output_inception_4d/output_0_split_1
I0403 15:24:46.962538  3063 net.cpp:399] inception_4d/output_inception_4d/output_0_split -> inception_4d/output_inception_4d/output_0_split_2
I0403 15:24:46.962566  3063 net.cpp:399] inception_4d/output_inception_4d/output_0_split -> inception_4d/output_inception_4d/output_0_split_3
I0403 15:24:46.962589  3063 net.cpp:399] inception_4d/output_inception_4d/output_0_split -> inception_4d/output_inception_4d/output_0_split_4
I0403 15:24:46.962699  3063 net.cpp:141] Setting up inception_4d/output_inception_4d/output_0_split
I0403 15:24:46.962739  3063 net.cpp:148] Top shape: 24 528 14 14 (2483712)
I0403 15:24:46.962759  3063 net.cpp:148] Top shape: 24 528 14 14 (2483712)
I0403 15:24:46.962775  3063 net.cpp:148] Top shape: 24 528 14 14 (2483712)
I0403 15:24:46.962792  3063 net.cpp:148] Top shape: 24 528 14 14 (2483712)
I0403 15:24:46.962820  3063 net.cpp:148] Top shape: 24 528 14 14 (2483712)
I0403 15:24:46.962834  3063 net.cpp:156] Memory required for data: 1206918432
I0403 15:24:46.962849  3063 layer_factory.hpp:77] Creating layer loss2/ave_pool
I0403 15:24:46.962878  3063 net.cpp:91] Creating Layer loss2/ave_pool
I0403 15:24:46.962896  3063 net.cpp:425] loss2/ave_pool <- inception_4d/output_inception_4d/output_0_split_0
I0403 15:24:46.962916  3063 net.cpp:399] loss2/ave_pool -> loss2/ave_pool
I0403 15:24:46.963248  3063 net.cpp:141] Setting up loss2/ave_pool
I0403 15:24:46.963280  3063 net.cpp:148] Top shape: 24 528 4 4 (202752)
I0403 15:24:46.963299  3063 net.cpp:156] Memory required for data: 1207729440
I0403 15:24:46.963315  3063 layer_factory.hpp:77] Creating layer loss2/conv
I0403 15:24:46.963342  3063 net.cpp:91] Creating Layer loss2/conv
I0403 15:24:46.963367  3063 net.cpp:425] loss2/conv <- loss2/ave_pool
I0403 15:24:46.963388  3063 net.cpp:399] loss2/conv -> loss2/conv
I0403 15:24:46.965451  3063 net.cpp:141] Setting up loss2/conv
I0403 15:24:46.965482  3063 net.cpp:148] Top shape: 24 128 4 4 (49152)
I0403 15:24:46.965498  3063 net.cpp:156] Memory required for data: 1207926048
I0403 15:24:46.965518  3063 layer_factory.hpp:77] Creating layer loss2/relu_conv
I0403 15:24:46.965538  3063 net.cpp:91] Creating Layer loss2/relu_conv
I0403 15:24:46.965553  3063 net.cpp:425] loss2/relu_conv <- loss2/conv
I0403 15:24:46.965577  3063 net.cpp:386] loss2/relu_conv -> loss2/conv (in-place)
I0403 15:24:46.965885  3063 net.cpp:141] Setting up loss2/relu_conv
I0403 15:24:46.965914  3063 net.cpp:148] Top shape: 24 128 4 4 (49152)
I0403 15:24:46.965929  3063 net.cpp:156] Memory required for data: 1208122656
I0403 15:24:46.965945  3063 layer_factory.hpp:77] Creating layer loss2/fc
I0403 15:24:46.965965  3063 net.cpp:91] Creating Layer loss2/fc
I0403 15:24:46.965983  3063 net.cpp:425] loss2/fc <- loss2/conv
I0403 15:24:46.966006  3063 net.cpp:399] loss2/fc -> loss2/fc
I0403 15:24:46.984819  3063 net.cpp:141] Setting up loss2/fc
I0403 15:24:46.984855  3063 net.cpp:148] Top shape: 24 1024 (24576)
I0403 15:24:46.984874  3063 net.cpp:156] Memory required for data: 1208220960
I0403 15:24:46.984895  3063 layer_factory.hpp:77] Creating layer loss2/relu_fc
I0403 15:24:46.984915  3063 net.cpp:91] Creating Layer loss2/relu_fc
I0403 15:24:46.984933  3063 net.cpp:425] loss2/relu_fc <- loss2/fc
I0403 15:24:46.984953  3063 net.cpp:386] loss2/relu_fc -> loss2/fc (in-place)
I0403 15:24:46.985299  3063 net.cpp:141] Setting up loss2/relu_fc
I0403 15:24:46.985340  3063 net.cpp:148] Top shape: 24 1024 (24576)
I0403 15:24:46.985357  3063 net.cpp:156] Memory required for data: 1208319264
I0403 15:24:46.985373  3063 layer_factory.hpp:77] Creating layer loss2/drop_fc
I0403 15:24:46.985391  3063 net.cpp:91] Creating Layer loss2/drop_fc
I0403 15:24:46.985409  3063 net.cpp:425] loss2/drop_fc <- loss2/fc
I0403 15:24:46.985426  3063 net.cpp:386] loss2/drop_fc -> loss2/fc (in-place)
I0403 15:24:46.985481  3063 net.cpp:141] Setting up loss2/drop_fc
I0403 15:24:46.985505  3063 net.cpp:148] Top shape: 24 1024 (24576)
I0403 15:24:46.985522  3063 net.cpp:156] Memory required for data: 1208417568
I0403 15:24:46.985538  3063 layer_factory.hpp:77] Creating layer loss2/classifier_plantvillage
I0403 15:24:46.985560  3063 net.cpp:91] Creating Layer loss2/classifier_plantvillage
I0403 15:24:46.985577  3063 net.cpp:425] loss2/classifier_plantvillage <- loss2/fc
I0403 15:24:46.985597  3063 net.cpp:399] loss2/classifier_plantvillage -> loss2/classifier_plantvillage
I0403 15:24:46.986037  3063 net.cpp:141] Setting up loss2/classifier_plantvillage
I0403 15:24:46.986063  3063 net.cpp:148] Top shape: 24 38 (912)
I0403 15:24:46.986099  3063 net.cpp:156] Memory required for data: 1208421216
I0403 15:24:46.986119  3063 layer_factory.hpp:77] Creating layer loss2/classifier_plantvillage_loss2/classifier_plantvillage_0_split
I0403 15:24:46.986147  3063 net.cpp:91] Creating Layer loss2/classifier_plantvillage_loss2/classifier_plantvillage_0_split
I0403 15:24:46.986168  3063 net.cpp:425] loss2/classifier_plantvillage_loss2/classifier_plantvillage_0_split <- loss2/classifier_plantvillage
I0403 15:24:46.986201  3063 net.cpp:399] loss2/classifier_plantvillage_loss2/classifier_plantvillage_0_split -> loss2/classifier_plantvillage_loss2/classifier_plantvillage_0_split_0
I0403 15:24:46.986224  3063 net.cpp:399] loss2/classifier_plantvillage_loss2/classifier_plantvillage_0_split -> loss2/classifier_plantvillage_loss2/classifier_plantvillage_0_split_1
I0403 15:24:46.986251  3063 net.cpp:399] loss2/classifier_plantvillage_loss2/classifier_plantvillage_0_split -> loss2/classifier_plantvillage_loss2/classifier_plantvillage_0_split_2
I0403 15:24:46.986341  3063 net.cpp:141] Setting up loss2/classifier_plantvillage_loss2/classifier_plantvillage_0_split
I0403 15:24:46.986369  3063 net.cpp:148] Top shape: 24 38 (912)
I0403 15:24:46.986387  3063 net.cpp:148] Top shape: 24 38 (912)
I0403 15:24:46.986403  3063 net.cpp:148] Top shape: 24 38 (912)
I0403 15:24:46.986418  3063 net.cpp:156] Memory required for data: 1208432160
I0403 15:24:46.986433  3063 layer_factory.hpp:77] Creating layer inception_4e/1x1
I0403 15:24:46.986455  3063 net.cpp:91] Creating Layer inception_4e/1x1
I0403 15:24:46.986477  3063 net.cpp:425] inception_4e/1x1 <- inception_4d/output_inception_4d/output_0_split_1
I0403 15:24:46.986497  3063 net.cpp:399] inception_4e/1x1 -> inception_4e/1x1
I0403 15:24:46.988502  3063 net.cpp:141] Setting up inception_4e/1x1
I0403 15:24:46.988533  3063 net.cpp:148] Top shape: 24 256 14 14 (1204224)
I0403 15:24:46.988549  3063 net.cpp:156] Memory required for data: 1213249056
I0403 15:24:46.988576  3063 layer_factory.hpp:77] Creating layer inception_4e/relu_1x1
I0403 15:24:46.988596  3063 net.cpp:91] Creating Layer inception_4e/relu_1x1
I0403 15:24:46.988613  3063 net.cpp:425] inception_4e/relu_1x1 <- inception_4e/1x1
I0403 15:24:46.988641  3063 net.cpp:386] inception_4e/relu_1x1 -> inception_4e/1x1 (in-place)
I0403 15:24:46.988971  3063 net.cpp:141] Setting up inception_4e/relu_1x1
I0403 15:24:46.988999  3063 net.cpp:148] Top shape: 24 256 14 14 (1204224)
I0403 15:24:46.989015  3063 net.cpp:156] Memory required for data: 1218065952
I0403 15:24:46.989032  3063 layer_factory.hpp:77] Creating layer inception_4e/3x3_reduce
I0403 15:24:46.989054  3063 net.cpp:91] Creating Layer inception_4e/3x3_reduce
I0403 15:24:46.989075  3063 net.cpp:425] inception_4e/3x3_reduce <- inception_4d/output_inception_4d/output_0_split_2
I0403 15:24:46.989097  3063 net.cpp:399] inception_4e/3x3_reduce -> inception_4e/3x3_reduce
I0403 15:24:46.991392  3063 net.cpp:141] Setting up inception_4e/3x3_reduce
I0403 15:24:46.991427  3063 net.cpp:148] Top shape: 24 160 14 14 (752640)
I0403 15:24:46.991446  3063 net.cpp:156] Memory required for data: 1221076512
I0403 15:24:46.991466  3063 layer_factory.hpp:77] Creating layer inception_4e/relu_3x3_reduce
I0403 15:24:46.991485  3063 net.cpp:91] Creating Layer inception_4e/relu_3x3_reduce
I0403 15:24:46.991503  3063 net.cpp:425] inception_4e/relu_3x3_reduce <- inception_4e/3x3_reduce
I0403 15:24:46.991523  3063 net.cpp:386] inception_4e/relu_3x3_reduce -> inception_4e/3x3_reduce (in-place)
I0403 15:24:46.991727  3063 net.cpp:141] Setting up inception_4e/relu_3x3_reduce
I0403 15:24:46.991755  3063 net.cpp:148] Top shape: 24 160 14 14 (752640)
I0403 15:24:46.991770  3063 net.cpp:156] Memory required for data: 1224087072
I0403 15:24:46.991785  3063 layer_factory.hpp:77] Creating layer inception_4e/3x3
I0403 15:24:46.991807  3063 net.cpp:91] Creating Layer inception_4e/3x3
I0403 15:24:46.991825  3063 net.cpp:425] inception_4e/3x3 <- inception_4e/3x3_reduce
I0403 15:24:46.991847  3063 net.cpp:399] inception_4e/3x3 -> inception_4e/3x3
I0403 15:24:46.997359  3063 net.cpp:141] Setting up inception_4e/3x3
I0403 15:24:46.997416  3063 net.cpp:148] Top shape: 24 320 14 14 (1505280)
I0403 15:24:46.997444  3063 net.cpp:156] Memory required for data: 1230108192
I0403 15:24:46.997469  3063 layer_factory.hpp:77] Creating layer inception_4e/relu_3x3
I0403 15:24:46.997505  3063 net.cpp:91] Creating Layer inception_4e/relu_3x3
I0403 15:24:46.997529  3063 net.cpp:425] inception_4e/relu_3x3 <- inception_4e/3x3
I0403 15:24:46.997558  3063 net.cpp:386] inception_4e/relu_3x3 -> inception_4e/3x3 (in-place)
I0403 15:24:46.997891  3063 net.cpp:141] Setting up inception_4e/relu_3x3
I0403 15:24:46.997920  3063 net.cpp:148] Top shape: 24 320 14 14 (1505280)
I0403 15:24:46.997936  3063 net.cpp:156] Memory required for data: 1236129312
I0403 15:24:46.997951  3063 layer_factory.hpp:77] Creating layer inception_4e/5x5_reduce
I0403 15:24:46.997974  3063 net.cpp:91] Creating Layer inception_4e/5x5_reduce
I0403 15:24:46.997992  3063 net.cpp:425] inception_4e/5x5_reduce <- inception_4d/output_inception_4d/output_0_split_3
I0403 15:24:46.998015  3063 net.cpp:399] inception_4e/5x5_reduce -> inception_4e/5x5_reduce
I0403 15:24:46.999205  3063 net.cpp:141] Setting up inception_4e/5x5_reduce
I0403 15:24:46.999238  3063 net.cpp:148] Top shape: 24 32 14 14 (150528)
I0403 15:24:46.999259  3063 net.cpp:156] Memory required for data: 1236731424
I0403 15:24:46.999294  3063 layer_factory.hpp:77] Creating layer inception_4e/relu_5x5_reduce
I0403 15:24:46.999315  3063 net.cpp:91] Creating Layer inception_4e/relu_5x5_reduce
I0403 15:24:46.999332  3063 net.cpp:425] inception_4e/relu_5x5_reduce <- inception_4e/5x5_reduce
I0403 15:24:46.999354  3063 net.cpp:386] inception_4e/relu_5x5_reduce -> inception_4e/5x5_reduce (in-place)
I0403 15:24:46.999672  3063 net.cpp:141] Setting up inception_4e/relu_5x5_reduce
I0403 15:24:46.999703  3063 net.cpp:148] Top shape: 24 32 14 14 (150528)
I0403 15:24:46.999721  3063 net.cpp:156] Memory required for data: 1237333536
I0403 15:24:46.999737  3063 layer_factory.hpp:77] Creating layer inception_4e/5x5
I0403 15:24:46.999779  3063 net.cpp:91] Creating Layer inception_4e/5x5
I0403 15:24:46.999799  3063 net.cpp:425] inception_4e/5x5 <- inception_4e/5x5_reduce
I0403 15:24:46.999820  3063 net.cpp:399] inception_4e/5x5 -> inception_4e/5x5
I0403 15:24:47.001801  3063 net.cpp:141] Setting up inception_4e/5x5
I0403 15:24:47.001830  3063 net.cpp:148] Top shape: 24 128 14 14 (602112)
I0403 15:24:47.001849  3063 net.cpp:156] Memory required for data: 1239741984
I0403 15:24:47.001869  3063 layer_factory.hpp:77] Creating layer inception_4e/relu_5x5
I0403 15:24:47.001891  3063 net.cpp:91] Creating Layer inception_4e/relu_5x5
I0403 15:24:47.001909  3063 net.cpp:425] inception_4e/relu_5x5 <- inception_4e/5x5
I0403 15:24:47.001929  3063 net.cpp:386] inception_4e/relu_5x5 -> inception_4e/5x5 (in-place)
I0403 15:24:47.002143  3063 net.cpp:141] Setting up inception_4e/relu_5x5
I0403 15:24:47.002171  3063 net.cpp:148] Top shape: 24 128 14 14 (602112)
I0403 15:24:47.002187  3063 net.cpp:156] Memory required for data: 1242150432
I0403 15:24:47.002203  3063 layer_factory.hpp:77] Creating layer inception_4e/pool
I0403 15:24:47.002223  3063 net.cpp:91] Creating Layer inception_4e/pool
I0403 15:24:47.002239  3063 net.cpp:425] inception_4e/pool <- inception_4d/output_inception_4d/output_0_split_4
I0403 15:24:47.002261  3063 net.cpp:399] inception_4e/pool -> inception_4e/pool
I0403 15:24:47.002351  3063 net.cpp:141] Setting up inception_4e/pool
I0403 15:24:47.002377  3063 net.cpp:148] Top shape: 24 528 14 14 (2483712)
I0403 15:24:47.002391  3063 net.cpp:156] Memory required for data: 1252085280
I0403 15:24:47.002406  3063 layer_factory.hpp:77] Creating layer inception_4e/pool_proj
I0403 15:24:47.002432  3063 net.cpp:91] Creating Layer inception_4e/pool_proj
I0403 15:24:47.002450  3063 net.cpp:425] inception_4e/pool_proj <- inception_4e/pool
I0403 15:24:47.002470  3063 net.cpp:399] inception_4e/pool_proj -> inception_4e/pool_proj
I0403 15:24:47.004081  3063 net.cpp:141] Setting up inception_4e/pool_proj
I0403 15:24:47.004124  3063 net.cpp:148] Top shape: 24 128 14 14 (602112)
I0403 15:24:47.004142  3063 net.cpp:156] Memory required for data: 1254493728
I0403 15:24:47.004163  3063 layer_factory.hpp:77] Creating layer inception_4e/relu_pool_proj
I0403 15:24:47.004185  3063 net.cpp:91] Creating Layer inception_4e/relu_pool_proj
I0403 15:24:47.004205  3063 net.cpp:425] inception_4e/relu_pool_proj <- inception_4e/pool_proj
I0403 15:24:47.004226  3063 net.cpp:386] inception_4e/relu_pool_proj -> inception_4e/pool_proj (in-place)
I0403 15:24:47.004544  3063 net.cpp:141] Setting up inception_4e/relu_pool_proj
I0403 15:24:47.004575  3063 net.cpp:148] Top shape: 24 128 14 14 (602112)
I0403 15:24:47.004591  3063 net.cpp:156] Memory required for data: 1256902176
I0403 15:24:47.004607  3063 layer_factory.hpp:77] Creating layer inception_4e/output
I0403 15:24:47.004629  3063 net.cpp:91] Creating Layer inception_4e/output
I0403 15:24:47.004647  3063 net.cpp:425] inception_4e/output <- inception_4e/1x1
I0403 15:24:47.004667  3063 net.cpp:425] inception_4e/output <- inception_4e/3x3
I0403 15:24:47.004683  3063 net.cpp:425] inception_4e/output <- inception_4e/5x5
I0403 15:24:47.004700  3063 net.cpp:425] inception_4e/output <- inception_4e/pool_proj
I0403 15:24:47.004719  3063 net.cpp:399] inception_4e/output -> inception_4e/output
I0403 15:24:47.004775  3063 net.cpp:141] Setting up inception_4e/output
I0403 15:24:47.004799  3063 net.cpp:148] Top shape: 24 832 14 14 (3913728)
I0403 15:24:47.004814  3063 net.cpp:156] Memory required for data: 1272557088
I0403 15:24:47.004830  3063 layer_factory.hpp:77] Creating layer pool4/3x3_s2
I0403 15:24:47.004848  3063 net.cpp:91] Creating Layer pool4/3x3_s2
I0403 15:24:47.004865  3063 net.cpp:425] pool4/3x3_s2 <- inception_4e/output
I0403 15:24:47.004886  3063 net.cpp:399] pool4/3x3_s2 -> pool4/3x3_s2
I0403 15:24:47.004958  3063 net.cpp:141] Setting up pool4/3x3_s2
I0403 15:24:47.004983  3063 net.cpp:148] Top shape: 24 832 7 7 (978432)
I0403 15:24:47.004998  3063 net.cpp:156] Memory required for data: 1276470816
I0403 15:24:47.005013  3063 layer_factory.hpp:77] Creating layer pool4/3x3_s2_pool4/3x3_s2_0_split
I0403 15:24:47.005035  3063 net.cpp:91] Creating Layer pool4/3x3_s2_pool4/3x3_s2_0_split
I0403 15:24:47.005053  3063 net.cpp:425] pool4/3x3_s2_pool4/3x3_s2_0_split <- pool4/3x3_s2
I0403 15:24:47.005074  3063 net.cpp:399] pool4/3x3_s2_pool4/3x3_s2_0_split -> pool4/3x3_s2_pool4/3x3_s2_0_split_0
I0403 15:24:47.005095  3063 net.cpp:399] pool4/3x3_s2_pool4/3x3_s2_0_split -> pool4/3x3_s2_pool4/3x3_s2_0_split_1
I0403 15:24:47.005116  3063 net.cpp:399] pool4/3x3_s2_pool4/3x3_s2_0_split -> pool4/3x3_s2_pool4/3x3_s2_0_split_2
I0403 15:24:47.005137  3063 net.cpp:399] pool4/3x3_s2_pool4/3x3_s2_0_split -> pool4/3x3_s2_pool4/3x3_s2_0_split_3
I0403 15:24:47.005233  3063 net.cpp:141] Setting up pool4/3x3_s2_pool4/3x3_s2_0_split
I0403 15:24:47.005259  3063 net.cpp:148] Top shape: 24 832 7 7 (978432)
I0403 15:24:47.005282  3063 net.cpp:148] Top shape: 24 832 7 7 (978432)
I0403 15:24:47.005300  3063 net.cpp:148] Top shape: 24 832 7 7 (978432)
I0403 15:24:47.005317  3063 net.cpp:148] Top shape: 24 832 7 7 (978432)
I0403 15:24:47.005331  3063 net.cpp:156] Memory required for data: 1292125728
I0403 15:24:47.005347  3063 layer_factory.hpp:77] Creating layer inception_5a/1x1
I0403 15:24:47.005370  3063 net.cpp:91] Creating Layer inception_5a/1x1
I0403 15:24:47.005388  3063 net.cpp:425] inception_5a/1x1 <- pool4/3x3_s2_pool4/3x3_s2_0_split_0
I0403 15:24:47.005409  3063 net.cpp:399] inception_5a/1x1 -> inception_5a/1x1
I0403 15:24:47.008496  3063 net.cpp:141] Setting up inception_5a/1x1
I0403 15:24:47.008533  3063 net.cpp:148] Top shape: 24 256 7 7 (301056)
I0403 15:24:47.008549  3063 net.cpp:156] Memory required for data: 1293329952
I0403 15:24:47.008570  3063 layer_factory.hpp:77] Creating layer inception_5a/relu_1x1
I0403 15:24:47.008589  3063 net.cpp:91] Creating Layer inception_5a/relu_1x1
I0403 15:24:47.008606  3063 net.cpp:425] inception_5a/relu_1x1 <- inception_5a/1x1
I0403 15:24:47.008625  3063 net.cpp:386] inception_5a/relu_1x1 -> inception_5a/1x1 (in-place)
I0403 15:24:47.008960  3063 net.cpp:141] Setting up inception_5a/relu_1x1
I0403 15:24:47.008990  3063 net.cpp:148] Top shape: 24 256 7 7 (301056)
I0403 15:24:47.009006  3063 net.cpp:156] Memory required for data: 1294534176
I0403 15:24:47.009022  3063 layer_factory.hpp:77] Creating layer inception_5a/3x3_reduce
I0403 15:24:47.009045  3063 net.cpp:91] Creating Layer inception_5a/3x3_reduce
I0403 15:24:47.009064  3063 net.cpp:425] inception_5a/3x3_reduce <- pool4/3x3_s2_pool4/3x3_s2_0_split_1
I0403 15:24:47.009084  3063 net.cpp:399] inception_5a/3x3_reduce -> inception_5a/3x3_reduce
I0403 15:24:47.011730  3063 net.cpp:141] Setting up inception_5a/3x3_reduce
I0403 15:24:47.011761  3063 net.cpp:148] Top shape: 24 160 7 7 (188160)
I0403 15:24:47.011778  3063 net.cpp:156] Memory required for data: 1295286816
I0403 15:24:47.011797  3063 layer_factory.hpp:77] Creating layer inception_5a/relu_3x3_reduce
I0403 15:24:47.011821  3063 net.cpp:91] Creating Layer inception_5a/relu_3x3_reduce
I0403 15:24:47.011839  3063 net.cpp:425] inception_5a/relu_3x3_reduce <- inception_5a/3x3_reduce
I0403 15:24:47.011857  3063 net.cpp:386] inception_5a/relu_3x3_reduce -> inception_5a/3x3_reduce (in-place)
I0403 15:24:47.012059  3063 net.cpp:141] Setting up inception_5a/relu_3x3_reduce
I0403 15:24:47.012087  3063 net.cpp:148] Top shape: 24 160 7 7 (188160)
I0403 15:24:47.012104  3063 net.cpp:156] Memory required for data: 1296039456
I0403 15:24:47.012120  3063 layer_factory.hpp:77] Creating layer inception_5a/3x3
I0403 15:24:47.012145  3063 net.cpp:91] Creating Layer inception_5a/3x3
I0403 15:24:47.012163  3063 net.cpp:425] inception_5a/3x3 <- inception_5a/3x3_reduce
I0403 15:24:47.012183  3063 net.cpp:399] inception_5a/3x3 -> inception_5a/3x3
I0403 15:24:47.017554  3063 net.cpp:141] Setting up inception_5a/3x3
I0403 15:24:47.017588  3063 net.cpp:148] Top shape: 24 320 7 7 (376320)
I0403 15:24:47.017606  3063 net.cpp:156] Memory required for data: 1297544736
I0403 15:24:47.017627  3063 layer_factory.hpp:77] Creating layer inception_5a/relu_3x3
I0403 15:24:47.017647  3063 net.cpp:91] Creating Layer inception_5a/relu_3x3
I0403 15:24:47.017663  3063 net.cpp:425] inception_5a/relu_3x3 <- inception_5a/3x3
I0403 15:24:47.017686  3063 net.cpp:386] inception_5a/relu_3x3 -> inception_5a/3x3 (in-place)
I0403 15:24:47.018002  3063 net.cpp:141] Setting up inception_5a/relu_3x3
I0403 15:24:47.018033  3063 net.cpp:148] Top shape: 24 320 7 7 (376320)
I0403 15:24:47.018049  3063 net.cpp:156] Memory required for data: 1299050016
I0403 15:24:47.018064  3063 layer_factory.hpp:77] Creating layer inception_5a/5x5_reduce
I0403 15:24:47.018090  3063 net.cpp:91] Creating Layer inception_5a/5x5_reduce
I0403 15:24:47.018108  3063 net.cpp:425] inception_5a/5x5_reduce <- pool4/3x3_s2_pool4/3x3_s2_0_split_2
I0403 15:24:47.018129  3063 net.cpp:399] inception_5a/5x5_reduce -> inception_5a/5x5_reduce
I0403 15:24:47.019397  3063 net.cpp:141] Setting up inception_5a/5x5_reduce
I0403 15:24:47.019430  3063 net.cpp:148] Top shape: 24 32 7 7 (37632)
I0403 15:24:47.019448  3063 net.cpp:156] Memory required for data: 1299200544
I0403 15:24:47.019469  3063 layer_factory.hpp:77] Creating layer inception_5a/relu_5x5_reduce
I0403 15:24:47.019487  3063 net.cpp:91] Creating Layer inception_5a/relu_5x5_reduce
I0403 15:24:47.019505  3063 net.cpp:425] inception_5a/relu_5x5_reduce <- inception_5a/5x5_reduce
I0403 15:24:47.019526  3063 net.cpp:386] inception_5a/relu_5x5_reduce -> inception_5a/5x5_reduce (in-place)
I0403 15:24:47.019847  3063 net.cpp:141] Setting up inception_5a/relu_5x5_reduce
I0403 15:24:47.019876  3063 net.cpp:148] Top shape: 24 32 7 7 (37632)
I0403 15:24:47.019891  3063 net.cpp:156] Memory required for data: 1299351072
I0403 15:24:47.019907  3063 layer_factory.hpp:77] Creating layer inception_5a/5x5
I0403 15:24:47.019930  3063 net.cpp:91] Creating Layer inception_5a/5x5
I0403 15:24:47.019949  3063 net.cpp:425] inception_5a/5x5 <- inception_5a/5x5_reduce
I0403 15:24:47.019971  3063 net.cpp:399] inception_5a/5x5 -> inception_5a/5x5
I0403 15:24:47.021824  3063 net.cpp:141] Setting up inception_5a/5x5
I0403 15:24:47.021870  3063 net.cpp:148] Top shape: 24 128 7 7 (150528)
I0403 15:24:47.021888  3063 net.cpp:156] Memory required for data: 1299953184
I0403 15:24:47.021908  3063 layer_factory.hpp:77] Creating layer inception_5a/relu_5x5
I0403 15:24:47.021927  3063 net.cpp:91] Creating Layer inception_5a/relu_5x5
I0403 15:24:47.021944  3063 net.cpp:425] inception_5a/relu_5x5 <- inception_5a/5x5
I0403 15:24:47.021965  3063 net.cpp:386] inception_5a/relu_5x5 -> inception_5a/5x5 (in-place)
I0403 15:24:47.022172  3063 net.cpp:141] Setting up inception_5a/relu_5x5
I0403 15:24:47.022199  3063 net.cpp:148] Top shape: 24 128 7 7 (150528)
I0403 15:24:47.022219  3063 net.cpp:156] Memory required for data: 1300555296
I0403 15:24:47.022235  3063 layer_factory.hpp:77] Creating layer inception_5a/pool
I0403 15:24:47.022253  3063 net.cpp:91] Creating Layer inception_5a/pool
I0403 15:24:47.022274  3063 net.cpp:425] inception_5a/pool <- pool4/3x3_s2_pool4/3x3_s2_0_split_3
I0403 15:24:47.022297  3063 net.cpp:399] inception_5a/pool -> inception_5a/pool
I0403 15:24:47.022375  3063 net.cpp:141] Setting up inception_5a/pool
I0403 15:24:47.022400  3063 net.cpp:148] Top shape: 24 832 7 7 (978432)
I0403 15:24:47.022415  3063 net.cpp:156] Memory required for data: 1304469024
I0403 15:24:47.022433  3063 layer_factory.hpp:77] Creating layer inception_5a/pool_proj
I0403 15:24:47.022459  3063 net.cpp:91] Creating Layer inception_5a/pool_proj
I0403 15:24:47.022477  3063 net.cpp:425] inception_5a/pool_proj <- inception_5a/pool
I0403 15:24:47.022497  3063 net.cpp:399] inception_5a/pool_proj -> inception_5a/pool_proj
I0403 15:24:47.024956  3063 net.cpp:141] Setting up inception_5a/pool_proj
I0403 15:24:47.024988  3063 net.cpp:148] Top shape: 24 128 7 7 (150528)
I0403 15:24:47.025004  3063 net.cpp:156] Memory required for data: 1305071136
I0403 15:24:47.025024  3063 layer_factory.hpp:77] Creating layer inception_5a/relu_pool_proj
I0403 15:24:47.025046  3063 net.cpp:91] Creating Layer inception_5a/relu_pool_proj
I0403 15:24:47.025063  3063 net.cpp:425] inception_5a/relu_pool_proj <- inception_5a/pool_proj
I0403 15:24:47.025081  3063 net.cpp:386] inception_5a/relu_pool_proj -> inception_5a/pool_proj (in-place)
I0403 15:24:47.025408  3063 net.cpp:141] Setting up inception_5a/relu_pool_proj
I0403 15:24:47.025437  3063 net.cpp:148] Top shape: 24 128 7 7 (150528)
I0403 15:24:47.025454  3063 net.cpp:156] Memory required for data: 1305673248
I0403 15:24:47.025470  3063 layer_factory.hpp:77] Creating layer inception_5a/output
I0403 15:24:47.025490  3063 net.cpp:91] Creating Layer inception_5a/output
I0403 15:24:47.025507  3063 net.cpp:425] inception_5a/output <- inception_5a/1x1
I0403 15:24:47.025526  3063 net.cpp:425] inception_5a/output <- inception_5a/3x3
I0403 15:24:47.025542  3063 net.cpp:425] inception_5a/output <- inception_5a/5x5
I0403 15:24:47.025559  3063 net.cpp:425] inception_5a/output <- inception_5a/pool_proj
I0403 15:24:47.025576  3063 net.cpp:399] inception_5a/output -> inception_5a/output
I0403 15:24:47.025635  3063 net.cpp:141] Setting up inception_5a/output
I0403 15:24:47.025660  3063 net.cpp:148] Top shape: 24 832 7 7 (978432)
I0403 15:24:47.025674  3063 net.cpp:156] Memory required for data: 1309586976
I0403 15:24:47.025691  3063 layer_factory.hpp:77] Creating layer inception_5a/output_inception_5a/output_0_split
I0403 15:24:47.025707  3063 net.cpp:91] Creating Layer inception_5a/output_inception_5a/output_0_split
I0403 15:24:47.025723  3063 net.cpp:425] inception_5a/output_inception_5a/output_0_split <- inception_5a/output
I0403 15:24:47.025745  3063 net.cpp:399] inception_5a/output_inception_5a/output_0_split -> inception_5a/output_inception_5a/output_0_split_0
I0403 15:24:47.025766  3063 net.cpp:399] inception_5a/output_inception_5a/output_0_split -> inception_5a/output_inception_5a/output_0_split_1
I0403 15:24:47.025789  3063 net.cpp:399] inception_5a/output_inception_5a/output_0_split -> inception_5a/output_inception_5a/output_0_split_2
I0403 15:24:47.025810  3063 net.cpp:399] inception_5a/output_inception_5a/output_0_split -> inception_5a/output_inception_5a/output_0_split_3
I0403 15:24:47.025930  3063 net.cpp:141] Setting up inception_5a/output_inception_5a/output_0_split
I0403 15:24:47.025955  3063 net.cpp:148] Top shape: 24 832 7 7 (978432)
I0403 15:24:47.025974  3063 net.cpp:148] Top shape: 24 832 7 7 (978432)
I0403 15:24:47.025990  3063 net.cpp:148] Top shape: 24 832 7 7 (978432)
I0403 15:24:47.026005  3063 net.cpp:148] Top shape: 24 832 7 7 (978432)
I0403 15:24:47.026021  3063 net.cpp:156] Memory required for data: 1325241888
I0403 15:24:47.026036  3063 layer_factory.hpp:77] Creating layer inception_5b/1x1
I0403 15:24:47.026059  3063 net.cpp:91] Creating Layer inception_5b/1x1
I0403 15:24:47.026078  3063 net.cpp:425] inception_5b/1x1 <- inception_5a/output_inception_5a/output_0_split_0
I0403 15:24:47.026100  3063 net.cpp:399] inception_5b/1x1 -> inception_5b/1x1
I0403 15:24:47.030136  3063 net.cpp:141] Setting up inception_5b/1x1
I0403 15:24:47.030169  3063 net.cpp:148] Top shape: 24 384 7 7 (451584)
I0403 15:24:47.030184  3063 net.cpp:156] Memory required for data: 1327048224
I0403 15:24:47.030205  3063 layer_factory.hpp:77] Creating layer inception_5b/relu_1x1
I0403 15:24:47.030226  3063 net.cpp:91] Creating Layer inception_5b/relu_1x1
I0403 15:24:47.030244  3063 net.cpp:425] inception_5b/relu_1x1 <- inception_5b/1x1
I0403 15:24:47.030263  3063 net.cpp:386] inception_5b/relu_1x1 -> inception_5b/1x1 (in-place)
I0403 15:24:47.030601  3063 net.cpp:141] Setting up inception_5b/relu_1x1
I0403 15:24:47.030627  3063 net.cpp:148] Top shape: 24 384 7 7 (451584)
I0403 15:24:47.030643  3063 net.cpp:156] Memory required for data: 1328854560
I0403 15:24:47.030659  3063 layer_factory.hpp:77] Creating layer inception_5b/3x3_reduce
I0403 15:24:47.030683  3063 net.cpp:91] Creating Layer inception_5b/3x3_reduce
I0403 15:24:47.030701  3063 net.cpp:425] inception_5b/3x3_reduce <- inception_5a/output_inception_5a/output_0_split_1
I0403 15:24:47.030725  3063 net.cpp:399] inception_5b/3x3_reduce -> inception_5b/3x3_reduce
I0403 15:24:47.033596  3063 net.cpp:141] Setting up inception_5b/3x3_reduce
I0403 15:24:47.033627  3063 net.cpp:148] Top shape: 24 192 7 7 (225792)
I0403 15:24:47.033644  3063 net.cpp:156] Memory required for data: 1329757728
I0403 15:24:47.033664  3063 layer_factory.hpp:77] Creating layer inception_5b/relu_3x3_reduce
I0403 15:24:47.033686  3063 net.cpp:91] Creating Layer inception_5b/relu_3x3_reduce
I0403 15:24:47.033704  3063 net.cpp:425] inception_5b/relu_3x3_reduce <- inception_5b/3x3_reduce
I0403 15:24:47.033722  3063 net.cpp:386] inception_5b/relu_3x3_reduce -> inception_5b/3x3_reduce (in-place)
I0403 15:24:47.033932  3063 net.cpp:141] Setting up inception_5b/relu_3x3_reduce
I0403 15:24:47.033962  3063 net.cpp:148] Top shape: 24 192 7 7 (225792)
I0403 15:24:47.033978  3063 net.cpp:156] Memory required for data: 1330660896
I0403 15:24:47.033994  3063 layer_factory.hpp:77] Creating layer inception_5b/3x3
I0403 15:24:47.034018  3063 net.cpp:91] Creating Layer inception_5b/3x3
I0403 15:24:47.034037  3063 net.cpp:425] inception_5b/3x3 <- inception_5b/3x3_reduce
I0403 15:24:47.034057  3063 net.cpp:399] inception_5b/3x3 -> inception_5b/3x3
I0403 15:24:47.041286  3063 net.cpp:141] Setting up inception_5b/3x3
I0403 15:24:47.041317  3063 net.cpp:148] Top shape: 24 384 7 7 (451584)
I0403 15:24:47.041334  3063 net.cpp:156] Memory required for data: 1332467232
I0403 15:24:47.041354  3063 layer_factory.hpp:77] Creating layer inception_5b/relu_3x3
I0403 15:24:47.041376  3063 net.cpp:91] Creating Layer inception_5b/relu_3x3
I0403 15:24:47.041394  3063 net.cpp:425] inception_5b/relu_3x3 <- inception_5b/3x3
I0403 15:24:47.041412  3063 net.cpp:386] inception_5b/relu_3x3 -> inception_5b/3x3 (in-place)
I0403 15:24:47.041749  3063 net.cpp:141] Setting up inception_5b/relu_3x3
I0403 15:24:47.041777  3063 net.cpp:148] Top shape: 24 384 7 7 (451584)
I0403 15:24:47.041797  3063 net.cpp:156] Memory required for data: 1334273568
I0403 15:24:47.041812  3063 layer_factory.hpp:77] Creating layer inception_5b/5x5_reduce
I0403 15:24:47.041851  3063 net.cpp:91] Creating Layer inception_5b/5x5_reduce
I0403 15:24:47.041869  3063 net.cpp:425] inception_5b/5x5_reduce <- inception_5a/output_inception_5a/output_0_split_2
I0403 15:24:47.041893  3063 net.cpp:399] inception_5b/5x5_reduce -> inception_5b/5x5_reduce
I0403 15:24:47.043287  3063 net.cpp:141] Setting up inception_5b/5x5_reduce
I0403 15:24:47.043318  3063 net.cpp:148] Top shape: 24 48 7 7 (56448)
I0403 15:24:47.043334  3063 net.cpp:156] Memory required for data: 1334499360
I0403 15:24:47.043354  3063 layer_factory.hpp:77] Creating layer inception_5b/relu_5x5_reduce
I0403 15:24:47.043375  3063 net.cpp:91] Creating Layer inception_5b/relu_5x5_reduce
I0403 15:24:47.043393  3063 net.cpp:425] inception_5b/relu_5x5_reduce <- inception_5b/5x5_reduce
I0403 15:24:47.043412  3063 net.cpp:386] inception_5b/relu_5x5_reduce -> inception_5b/5x5_reduce (in-place)
I0403 15:24:47.043818  3063 net.cpp:141] Setting up inception_5b/relu_5x5_reduce
I0403 15:24:47.043846  3063 net.cpp:148] Top shape: 24 48 7 7 (56448)
I0403 15:24:47.043862  3063 net.cpp:156] Memory required for data: 1334725152
I0403 15:24:47.043879  3063 layer_factory.hpp:77] Creating layer inception_5b/5x5
I0403 15:24:47.043900  3063 net.cpp:91] Creating Layer inception_5b/5x5
I0403 15:24:47.043918  3063 net.cpp:425] inception_5b/5x5 <- inception_5b/5x5_reduce
I0403 15:24:47.043939  3063 net.cpp:399] inception_5b/5x5 -> inception_5b/5x5
I0403 15:24:47.046149  3063 net.cpp:141] Setting up inception_5b/5x5
I0403 15:24:47.046180  3063 net.cpp:148] Top shape: 24 128 7 7 (150528)
I0403 15:24:47.046197  3063 net.cpp:156] Memory required for data: 1335327264
I0403 15:24:47.046217  3063 layer_factory.hpp:77] Creating layer inception_5b/relu_5x5
I0403 15:24:47.046237  3063 net.cpp:91] Creating Layer inception_5b/relu_5x5
I0403 15:24:47.046254  3063 net.cpp:425] inception_5b/relu_5x5 <- inception_5b/5x5
I0403 15:24:47.046277  3063 net.cpp:386] inception_5b/relu_5x5 -> inception_5b/5x5 (in-place)
I0403 15:24:47.046494  3063 net.cpp:141] Setting up inception_5b/relu_5x5
I0403 15:24:47.046519  3063 net.cpp:148] Top shape: 24 128 7 7 (150528)
I0403 15:24:47.046535  3063 net.cpp:156] Memory required for data: 1335929376
I0403 15:24:47.046550  3063 layer_factory.hpp:77] Creating layer inception_5b/pool
I0403 15:24:47.046569  3063 net.cpp:91] Creating Layer inception_5b/pool
I0403 15:24:47.046586  3063 net.cpp:425] inception_5b/pool <- inception_5a/output_inception_5a/output_0_split_3
I0403 15:24:47.046607  3063 net.cpp:399] inception_5b/pool -> inception_5b/pool
I0403 15:24:47.046685  3063 net.cpp:141] Setting up inception_5b/pool
I0403 15:24:47.046713  3063 net.cpp:148] Top shape: 24 832 7 7 (978432)
I0403 15:24:47.046730  3063 net.cpp:156] Memory required for data: 1339843104
I0403 15:24:47.046746  3063 layer_factory.hpp:77] Creating layer inception_5b/pool_proj
I0403 15:24:47.046768  3063 net.cpp:91] Creating Layer inception_5b/pool_proj
I0403 15:24:47.046787  3063 net.cpp:425] inception_5b/pool_proj <- inception_5b/pool
I0403 15:24:47.046808  3063 net.cpp:399] inception_5b/pool_proj -> inception_5b/pool_proj
I0403 15:24:47.049268  3063 net.cpp:141] Setting up inception_5b/pool_proj
I0403 15:24:47.049302  3063 net.cpp:148] Top shape: 24 128 7 7 (150528)
I0403 15:24:47.049319  3063 net.cpp:156] Memory required for data: 1340445216
I0403 15:24:47.049340  3063 layer_factory.hpp:77] Creating layer inception_5b/relu_pool_proj
I0403 15:24:47.049361  3063 net.cpp:91] Creating Layer inception_5b/relu_pool_proj
I0403 15:24:47.049379  3063 net.cpp:425] inception_5b/relu_pool_proj <- inception_5b/pool_proj
I0403 15:24:47.049397  3063 net.cpp:386] inception_5b/relu_pool_proj -> inception_5b/pool_proj (in-place)
I0403 15:24:47.049721  3063 net.cpp:141] Setting up inception_5b/relu_pool_proj
I0403 15:24:47.049749  3063 net.cpp:148] Top shape: 24 128 7 7 (150528)
I0403 15:24:47.049765  3063 net.cpp:156] Memory required for data: 1341047328
I0403 15:24:47.049782  3063 layer_factory.hpp:77] Creating layer inception_5b/output
I0403 15:24:47.049803  3063 net.cpp:91] Creating Layer inception_5b/output
I0403 15:24:47.049836  3063 net.cpp:425] inception_5b/output <- inception_5b/1x1
I0403 15:24:47.049854  3063 net.cpp:425] inception_5b/output <- inception_5b/3x3
I0403 15:24:47.049872  3063 net.cpp:425] inception_5b/output <- inception_5b/5x5
I0403 15:24:47.049890  3063 net.cpp:425] inception_5b/output <- inception_5b/pool_proj
I0403 15:24:47.049907  3063 net.cpp:399] inception_5b/output -> inception_5b/output
I0403 15:24:47.049964  3063 net.cpp:141] Setting up inception_5b/output
I0403 15:24:47.049989  3063 net.cpp:148] Top shape: 24 1024 7 7 (1204224)
I0403 15:24:47.050005  3063 net.cpp:156] Memory required for data: 1345864224
I0403 15:24:47.050020  3063 layer_factory.hpp:77] Creating layer pool5/7x7_s1
I0403 15:24:47.050040  3063 net.cpp:91] Creating Layer pool5/7x7_s1
I0403 15:24:47.050056  3063 net.cpp:425] pool5/7x7_s1 <- inception_5b/output
I0403 15:24:47.050076  3063 net.cpp:399] pool5/7x7_s1 -> pool5/7x7_s1
I0403 15:24:47.050326  3063 net.cpp:141] Setting up pool5/7x7_s1
I0403 15:24:47.050356  3063 net.cpp:148] Top shape: 24 1024 1 1 (24576)
I0403 15:24:47.050372  3063 net.cpp:156] Memory required for data: 1345962528
I0403 15:24:47.050389  3063 layer_factory.hpp:77] Creating layer pool5/drop_7x7_s1
I0403 15:24:47.050407  3063 net.cpp:91] Creating Layer pool5/drop_7x7_s1
I0403 15:24:47.050425  3063 net.cpp:425] pool5/drop_7x7_s1 <- pool5/7x7_s1
I0403 15:24:47.050443  3063 net.cpp:386] pool5/drop_7x7_s1 -> pool5/7x7_s1 (in-place)
I0403 15:24:47.050499  3063 net.cpp:141] Setting up pool5/drop_7x7_s1
I0403 15:24:47.050523  3063 net.cpp:148] Top shape: 24 1024 1 1 (24576)
I0403 15:24:47.050539  3063 net.cpp:156] Memory required for data: 1346060832
I0403 15:24:47.050554  3063 layer_factory.hpp:77] Creating layer loss3/classifier_plantvillage
I0403 15:24:47.050577  3063 net.cpp:91] Creating Layer loss3/classifier_plantvillage
I0403 15:24:47.050595  3063 net.cpp:425] loss3/classifier_plantvillage <- pool5/7x7_s1
I0403 15:24:47.050616  3063 net.cpp:399] loss3/classifier_plantvillage -> loss3/classifier_plantvillage
I0403 15:24:47.051072  3063 net.cpp:141] Setting up loss3/classifier_plantvillage
I0403 15:24:47.051097  3063 net.cpp:148] Top shape: 24 38 (912)
I0403 15:24:47.051113  3063 net.cpp:156] Memory required for data: 1346064480
I0403 15:24:47.051132  3063 layer_factory.hpp:77] Creating layer loss3/classifier_plantvillage_loss3/classifier_plantvillage_0_split
I0403 15:24:47.051151  3063 net.cpp:91] Creating Layer loss3/classifier_plantvillage_loss3/classifier_plantvillage_0_split
I0403 15:24:47.051168  3063 net.cpp:425] loss3/classifier_plantvillage_loss3/classifier_plantvillage_0_split <- loss3/classifier_plantvillage
I0403 15:24:47.051192  3063 net.cpp:399] loss3/classifier_plantvillage_loss3/classifier_plantvillage_0_split -> loss3/classifier_plantvillage_loss3/classifier_plantvillage_0_split_0
I0403 15:24:47.051213  3063 net.cpp:399] loss3/classifier_plantvillage_loss3/classifier_plantvillage_0_split -> loss3/classifier_plantvillage_loss3/classifier_plantvillage_0_split_1
I0403 15:24:47.051234  3063 net.cpp:399] loss3/classifier_plantvillage_loss3/classifier_plantvillage_0_split -> loss3/classifier_plantvillage_loss3/classifier_plantvillage_0_split_2
I0403 15:24:47.051255  3063 net.cpp:399] loss3/classifier_plantvillage_loss3/classifier_plantvillage_0_split -> loss3/classifier_plantvillage_loss3/classifier_plantvillage_0_split_3
I0403 15:24:47.051367  3063 net.cpp:141] Setting up loss3/classifier_plantvillage_loss3/classifier_plantvillage_0_split
I0403 15:24:47.051393  3063 net.cpp:148] Top shape: 24 38 (912)
I0403 15:24:47.051409  3063 net.cpp:148] Top shape: 24 38 (912)
I0403 15:24:47.051426  3063 net.cpp:148] Top shape: 24 38 (912)
I0403 15:24:47.051443  3063 net.cpp:148] Top shape: 24 38 (912)
I0403 15:24:47.051458  3063 net.cpp:156] Memory required for data: 1346079072
I0403 15:24:47.051473  3063 layer_factory.hpp:77] Creating layer loss1/loss
I0403 15:24:47.051496  3063 net.cpp:91] Creating Layer loss1/loss
I0403 15:24:47.051514  3063 net.cpp:425] loss1/loss <- loss1/classifier_plantvillage_loss1/classifier_plantvillage_0_split_0
I0403 15:24:47.051548  3063 net.cpp:425] loss1/loss <- label_data_1_split_0
…
