…
I0403 15:42:22.964982  3386 net.cpp:313] The NetState phase (1) differed from the phase (0) specified by a rule in layer data
I0403 15:42:22.966215  3386 net.cpp:49] Initializing net from parameters: 
state {
  phase: TEST
}
layer {
  name: "data"
  type: "Data"
  top: "data"
  top: "label"
  include {
    phase: TEST
  }
  transform_param {
    mirror: false
    crop_size: 224
    mean_file: "/home/mohanty/data/final_dataset/lmdb/grayscale-50-50/mean.binaryproto"
  }
  data_param {
    source: "/home/mohanty/data/final_dataset/lmdb/grayscale-50-50/test_db"
    batch_size: 24
    backend: LMDB
  }
}
layer {
  name: "conv1/7x7_s2"
  type: "Convolution"
  bottom: "data"
  top: "conv1/7x7_s2"
  param {
    lr_mult: 1
    decay_mult: 1
  }
  param {
    lr_mult: 2
    decay_mult: 0
  }
  convolution_param {
    num_output: 64
    pad: 3
    kernel_size: 7
    stride: 2
    weight_filler {
      type: "xavier"
      std: 0.1
    }
    bias_filler {
      type: "constant"
      value: 0.2
    }
  }
}
layer {
  name: "conv1/relu_7x7"
  type: "ReLU"
  bottom: "conv1/7x7_s2"
  top: "conv1/7x7_s2"
}
layer {
  name: "pool1/3x3_s2"
  type: "Pooling"
  bottom: "conv1/7x7_s2"
  top: "pool1/3x3_s2"
  pooling_param {
    pool: MAX
    kernel_size: 3
    stride: 2
  }
}
layer {
  name: "pool1/norm1"
  type: "LRN"
  bottom: "pool1/3x3_s2"
  top: "pool1/norm1"
  lrn_param {
    local_size: 5
    alpha: 0.0001
    beta: 0.75
  }
}
layer {
  name: "conv2/3x3_reduce"
  type: "Convolution"
  bottom: "pool1/norm1"
  top: "conv2/3x3_reduce"
  param {
    lr_mult: 1
    decay_mult: 1
  }
  param {
    lr_mult: 2
    decay_mult: 0
  }
  convolution_param {
    num_output: 64
    kernel_size: 1
    weight_filler {
      type: "xavier"
      std: 0.1
    }
    bias_filler {
      type: "constant"
      value: 0.2
    }
  }
}
layer {
  name: "conv2/relu_3x3_reduce"
  type: "ReLU"
  bottom: "conv2/3x3_reduce"
  top: "conv2/3x3_reduce"
}
layer {
  name: "conv2/3x3"
  type: "Convolution"
  bottom: "conv2/3x3_reduce"
  top: "conv2/3x3"
  param {
    lr_mult: 1
    decay_mult: 1
  }
  param {
    lr_mult: 2
    decay_mult: 0
  }
  convolution_param {
    num_output: 192
    pad: 1
    kernel_size: 3
    weight_filler {
      type: "xavier"
      std: 0.03
    }
    bias_filler {
      type: "constant"
      value: 0.2
    }
  }
}
layer {
  name: "conv2/relu_3x3"
  type: "ReLU"
  bottom: "conv2/3x3"
  top: "conv2/3x3"
}
layer {
  name: "conv2/norm2"
  type: "LRN"
  bottom: "conv2/3x3"
  top: "conv2/norm2"
  lrn_param {
    local_size: 5
    alpha: 0.0001
    beta: 0.75
  }
}
layer {
  name: "pool2/3x3_s2"
  type: "Pooling"
  bottom: "conv2/norm2"
  top: "pool2/3x3_s2"
  pooling_param {
    pool: MAX
    kernel_size: 3
    stride: 2
  }
}
layer {
  name: "inception_3a/1x1"
  type: "Convolution"
  bottom: "pool2/3x3_s2"
  top: "inception_3a/1x1"
  param {
    lr_mult: 1
    decay_mult: 1
  }
  param {
    lr_mult: 2
    decay_mult: 0
  }
  convolution_param {
    num_output: 64
    kernel_size: 1
    weight_filler {
      type: "xavier"
      std: 0.03
    }
    bias_filler {
      type: "constant"
      value: 0.2
    }
  }
}
layer {
  name: "inception_3a/relu_1x1"
  type: "ReLU"
  bottom: "inception_3a/1x1"
  top: "inception_3a/1x1"
}
layer {
  name: "inception_3a/3x3_reduce"
  type: "Convolution"
  bottom: "pool2/3x3_s2"
  top: "inception_3a/3x3_reduce"
  param {
    lr_mult: 1
    decay_mult: 1
  }
  param {
    lr_mult: 2
    decay_mult: 0
  }
  convolution_param {
    num_output: 96
    kernel_size: 1
    weight_filler {
      type: "xavier"
      std: 0.09
    }
    bias_filler {
      type: "constant"
      value: 0.2
    }
  }
}
layer {
  name: "inception_3a/relu_3x3_reduce"
  type: "ReLU"
  bottom: "inception_3a/3x3_reduce"
  top: "inception_3a/3x3_reduce"
}
layer {
  name: "inception_3a/3x3"
  type: "Convolution"
  bottom: "inception_3a/3x3_reduce"
  top: "inception_3a/3x3"
  param {
    lr_mult: 1
    decay_mult: 1
  }
  param {
    lr_mult: 2
    decay_mult: 0
  }
  convolution_param {
    num_output: 128
    pad: 1
    kernel_size: 3
    weight_filler {
      type: "xavier"
      std: 0.03
    }
    bias_filler {
      type: "constant"
      value: 0.2
    }
  }
}
layer {
  name: "inception_3a/relu_3x3"
  type: "ReLU"
  bottom: "inception_3a/3x3"
  top: "inception_3a/3x3"
}
layer {
  name: "inception_3a/5x5_reduce"
  type: "Convolution"
  bottom: "pool2/3x3_s2"
  top: "inception_3a/5x5_reduce"
  param {
    lr_mult: 1
    decay_mult: 1
  }
  param {
    lr_mult: 2
    decay_mult: 0
  }
  convolution_param {
    num_output: 16
    kernel_size: 1
    weight_filler {
      type: "xavier"
      std: 0.2
    }
    bias_filler {
      type: "constant"
      value: 0.2
    }
  }
}
layer {
  name: "inception_3a/relu_5x5_reduce"
  type: "ReLU"
  bottom: "inception_3a/5x5_reduce"
  top: "inception_3a/5x5_reduce"
}
layer {
  name: "inception_3a/5x5"
  type: "Convolution"
  bottom: "inception_3a/5x5_reduce"
  top: "inception_3a/5x5"
  param {
    lr_mult: 1
    decay_mult: 1
  }
  param {
    lr_mult: 2
    decay_mult: 0
  }
  convolution_param {
    num_output: 32
    pad: 2
    kernel_size: 5
    weight_filler {
      type: "xavier"
      std: 0.03
    }
    bias_filler {
      type: "constant"
      value: 0.2
    }
  }
}
layer {
  name: "inception_3a/relu_5x5"
  type: "ReLU"
  bottom: "inception_3a/5x5"
  top: "inception_3a/5x5"
}
layer {
  name: "inception_3a/pool"
  type: "Pooling"
  bottom: "pool2/3x3_s2"
  top: "inception_3a/pool"
  pooling_param {
    pool: MAX
    kernel_size: 3
    stride: 1
    pad: 1
  }
}
layer {
  name: "inception_3a/pool_proj"
  type: "Convolution"
  bottom: "inception_3a/pool"
  top: "inception_3a/pool_proj"
  param {
    lr_mult: 1
    decay_mult: 1
  }
  param {
    lr_mult: 2
    decay_mult: 0
  }
  convolution_param {
    num_output: 32
    kernel_size: 1
    weight_filler {
      type: "xavier"
      std: 0.1
    }
    bias_filler {
      type: "constant"
      value: 0.2
    }
  }
}
layer {
  name: "inception_3a/relu_pool_proj"
  type: "ReLU"
  bottom: "inception_3a/pool_proj"
  top: "inception_3a/pool_proj"
}
layer {
  name: "inception_3a/output"
  type: "Concat"
  bottom: "inception_3a/1x1"
  bottom: "inception_3a/3x3"
  bottom: "inception_3a/5x5"
  bottom: "inception_3a/pool_proj"
  top: "inception_3a/output"
}
layer {
  name: "inception_3b/1x1"
  type: "Convolution"
  bottom: "inception_3a/output"
  top: "inception_3b/1x1"
  param {
    lr_mult: 1
    decay_mult: 1
  }
  param {
    lr_mult: 2
    decay_mult: 0
  }
  convolution_param {
    num_output: 128
    kernel_size: 1
    weight_filler {
      type: "xavier"
      std: 0.03
    }
    bias_filler {
      type: "constant"
      value: 0.2
    }
  }
}
layer {
  name: "inception_3b/relu_1x1"
  type: "ReLU"
  bottom: "inception_3b/1x1"
  top: "inception_3b/1x1"
}
layer {
  name: "inception_3b/3x3_reduce"
  type: "Convolution"
  bottom: "inception_3a/output"
  top: "inception_3b/3x3_reduce"
  param {
    lr_mult: 1
    decay_mult: 1
  }
  param {
    lr_mult: 2
    decay_mult: 0
  }
  convolution_param {
    num_output: 128
    kernel_size: 1
    weight_filler {
      type: "xavier"
      std: 0.09
    }
    bias_filler {
      type: "constant"
      value: 0.2
    }
  }
}
layer {
  name: "inception_3b/relu_3x3_reduce"
  type: "ReLU"
  bottom: "inception_3b/3x3_reduce"
  top: "inception_3b/3x3_reduce"
}
layer {
  name: "inception_3b/3x3"
  type: "Convolution"
  bottom: "inception_3b/3x3_reduce"
  top: "inception_3b/3x3"
  param {
    lr_mult: 1
    decay_mult: 1
  }
  param {
    lr_mult: 2
    decay_mult: 0
  }
  convolution_param {
    num_output: 192
    pad: 1
    kernel_size: 3
    weight_filler {
      type: "xavier"
      std: 0.03
    }
    bias_filler {
      type: "constant"
      value: 0.2
    }
  }
}
layer {
  name: "inception_3b/relu_3x3"
  type: "ReLU"
  bottom: "inception_3b/3x3"
  top: "inception_3b/3x3"
}
layer {
  name: "inception_3b/5x5_reduce"
  type: "Convolution"
  bottom: "inception_3a/output"
  top: "inception_3b/5x5_reduce"
  param {
    lr_mult: 1
    decay_mult: 1
  }
  param {
    lr_mult: 2
    decay_mult: 0
  }
  convolution_param {
    num_output: 32
    kernel_size: 1
    weight_filler {
      type: "xavier"
      std: 0.2
    }
    bias_filler {
      type: "constant"
      value: 0.2
    }
  }
}
layer {
  name: "inception_3b/relu_5x5_reduce"
  type: "ReLU"
  bottom: "inception_3b/5x5_reduce"
  top: "inception_3b/5x5_reduce"
}
layer {
  name: "inception_3b/5x5"
  type: "Convolution"
  bottom: "inception_3b/5x5_reduce"
  top: "inception_3b/5x5"
  param {
    lr_mult: 1
    decay_mult: 1
  }
  param {
    lr_mult: 2
    decay_mult: 0
  }
  convolution_param {
    num_output: 96
    pad: 2
    kernel_size: 5
    weight_filler {
      type: "xavier"
      std: 0.03
    }
    bias_filler {
      type: "constant"
      value: 0.2
    }
  }
}
layer {
  name: "inception_3b/relu_5x5"
  type: "ReLU"
  bottom: "inception_3b/5x5"
  top: "inception_3b/5x5"
}
layer {
  name: "inception_3b/pool"
  type: "Pooling"
  bottom: "inception_3a/output"
  top: "inception_3b/pool"
  pooling_param {
    pool: MAX
    kernel_size: 3
    stride: 1
    pad: 1
  }
}
layer {
  name: "inception_3b/pool_proj"
  type: "Convolution"
  bottom: "inception_3b/pool"
  top: "inception_3b/pool_proj"
  param {
    lr_mult: 1
    decay_mult: 1
  }
  param {
    lr_mult: 2
    decay_mult: 0
  }
  convolution_param {
    num_output: 64
    kernel_size: 1
    weight_filler {
      type: "xavier"
      std: 0.1
    }
    bias_filler {
      type: "constant"
      value: 0.2
    }
  }
}
layer {
  name: "inception_3b/relu_pool_proj"
  type: "ReLU"
  bottom: "inception_3b/pool_proj"
  top: "inception_3b/pool_proj"
}
layer {
  name: "inception_3b/output"
  type: "Concat"
  bottom: "inception_3b/1x1"
  bottom: "inception_3b/3x3"
  bottom: "inception_3b/5x5"
  bottom: "inception_3b/pool_proj"
  top: "inception_3b/output"
}
layer {
  name: "pool3/3x3_s2"
  type: "Pooling"
  bottom: "inception_3b/output"
  top: "pool3/3x3_s2"
  pooling_param {
    pool: MAX
    kernel_size: 3
    stride: 2
  }
}
layer {
  name: "inception_4a/1x1"
  type: "Convolution"
  bottom: "pool3/3x3_s2"
  top: "inception_4a/1x1"
  param {
    lr_mult: 1
    decay_mult: 1
  }
  param {
    lr_mult: 2
    decay_mult: 0
  }
  convolution_param {
    num_output: 192
    kernel_size: 1
    weight_filler {
      type: "xavier"
      std: 0.03
    }
    bias_filler {
      type: "constant"
      value: 0.2
    }
  }
}
layer {
  name: "inception_4a/relu_1x1"
  type: "ReLU"
  bottom: "inception_4a/1x1"
  top: "inception_4a/1x1"
}
layer {
  name: "inception_4a/3x3_reduce"
  type: "Convolution"
  bottom: "pool3/3x3_s2"
  top: "inception_4a/3x3_reduce"
  param {
    lr_mult: 1
    decay_mult: 1
  }
  param {
    lr_mult: 2
    decay_mult: 0
  }
  convolution_param {
    num_output: 96
    kernel_size: 1
    weight_filler {
      type: "xavier"
      std: 0.09
    }
    bias_filler {
      type: "constant"
      value: 0.2
    }
  }
}
layer {
  name: "inception_4a/relu_3x3_reduce"
  type: "ReLU"
  bottom: "inception_4a/3x3_reduce"
  top: "inception_4a/3x3_reduce"
}
layer {
  name: "inception_4a/3x3"
  type: "Convolution"
  bottom: "inception_4a/3x3_reduce"
  top: "inception_4a/3x3"
  param {
    lr_mult: 1
    decay_mult: 1
  }
  param {
    lr_mult: 2
    decay_mult: 0
  }
  convolution_param {
    num_output: 208
    pad: 1
    kernel_size: 3
    weight_filler {
      type: "xavier"
      std: 0.03
    }
    bias_filler {
      type: "constant"
      value: 0.2
    }
  }
}
layer {
  name: "inception_4a/relu_3x3"
  type: "ReLU"
  bottom: "inception_4a/3x3"
  top: "inception_4a/3x3"
}
layer {
  name: "inception_4a/5x5_reduce"
  type: "Convolution"
  bottom: "pool3/3x3_s2"
  top: "inception_4a/5x5_reduce"
  param {
    lr_mult: 1
    decay_mult: 1
  }
  param {
    lr_mult: 2
    decay_mult: 0
  }
  convolution_param {
    num_output: 16
    kernel_size: 1
    weight_filler {
      type: "xavier"
      std: 0.2
    }
    bias_filler {
      type: "constant"
      value: 0.2
    }
  }
}
layer {
  name: "inception_4a/relu_5x5_reduce"
  type: "ReLU"
  bottom: "inception_4a/5x5_reduce"
  top: "inception_4a/5x5_reduce"
}
layer {
  name: "inception_4a/5x5"
  type: "Convolution"
  bottom: "inception_4a/5x5_reduce"
  top: "inception_4a/5x5"
  param {
    lr_mult: 1
    decay_mult: 1
  }
  param {
    lr_mult: 2
    decay_mult: 0
  }
  convolution_param {
    num_output: 48
    pad: 2
    kernel_size: 5
    weight_filler {
      type: "xavier"
      std: 0.03
    }
    bias_filler {
      type: "constant"
      value: 0.2
    }
  }
}
layer {
  name: "inception_4a/relu_5x5"
  type: "ReLU"
  bottom: "inception_4a/5x5"
  top: "inception_4a/5x5"
}
layer {
  name: "inception_4a/pool"
  type: "Pooling"
  bottom: "pool3/3x3_s2"
  top: "inception_4a/pool"
  pooling_param {
    pool: MAX
    kernel_size: 3
    stride: 1
    pad: 1
  }
}
layer {
  name: "inception_4a/pool_proj"
  type: "Convolution"
  bottom: "inception_4a/pool"
  top: "inception_4a/pool_proj"
  param {
    lr_mult: 1
    decay_mult: 1
  }
  param {
    lr_mult: 2
    decay_mult: 0
  }
  convolution_param {
    num_output: 64
    kernel_size: 1
    weight_filler {
      type: "xavier"
      std: 0.1
    }
    bias_filler {
      type: "constant"
      value: 0.2
    }
  }
}
layer {
  name: "inception_4a/relu_pool_proj"
  type: "ReLU"
  bottom: "inception_4a/pool_proj"
  top: "inception_4a/pool_proj"
}
layer {
  name: "inception_4a/output"
  type: "Concat"
  bottom: "inception_4a/1x1"
  bottom: "inception_4a/3x3"
  bottom: "inception_4a/5x5"
  bottom: "inception_4a/pool_proj"
  top: "inception_4a/output"
}
layer {
  name: "loss1/ave_pool"
  type: "Pooling"
  bottom: "inception_4a/output"
  top: "loss1/ave_pool"
  pooling_param {
    pool: AVE
    kernel_size: 5
    stride: 3
  }
}
layer {
  name: "loss1/conv"
  type: "Convolution"
  bottom: "loss1/ave_pool"
  top: "loss1/conv"
  param {
    lr_mult: 1
    decay_mult: 1
  }
  param {
    lr_mult: 2
    decay_mult: 0
  }
  convolution_param {
    num_output: 128
    kernel_size: 1
    weight_filler {
      type: "xavier"
      std: 0.08
    }
    bias_filler {
      type: "constant"
      value: 0.2
    }
  }
}
layer {
  name: "loss1/relu_conv"
  type: "ReLU"
  bottom: "loss1/conv"
  top: "loss1/conv"
}
layer {
  name: "loss1/fc"
  type: "InnerProduct"
  bottom: "loss1/conv"
  top: "loss1/fc"
  param {
    lr_mult: 1
    decay_mult: 1
  }
  param {
    lr_mult: 2
    decay_mult: 0
  }
  inner_product_param {
    num_output: 1024
    weight_filler {
      type: "xavier"
      std: 0.02
    }
    bias_filler {
      type: "constant"
      value: 0.2
    }
  }
}
layer {
  name: "loss1/relu_fc"
  type: "ReLU"
  bottom: "loss1/fc"
  top: "loss1/fc"
}
layer {
  name: "loss1/drop_fc"
  type: "Dropout"
  bottom: "loss1/fc"
  top: "loss1/fc"
  dropout_param {
    dropout_ratio: 0.7
  }
}
layer {
  name: "loss1/classifier_plantvillage"
  type: "InnerProduct"
  bottom: "loss1/fc"
  top: "loss1/classifier_plantvillage"
  param {
    lr_mult: 1
    decay_mult: 1
  }
  param {
    lr_mult: 2
    decay_mult: 0
  }
  inner_product_param {
    num_output: 38
    weight_filler {
      type: "xavier"
      std: 0.0009765625
    }
    bias_filler {
      type: "constant"
      value: 0
    }
  }
}
layer {
  name: "inception_4b/1x1"
  type: "Convolution"
  bottom: "inception_4a/output"
  top: "inception_4b/1x1"
  param {
    lr_mult: 1
    decay_mult: 1
  }
  param {
    lr_mult: 2
    decay_mult: 0
  }
  convolution_param {
    num_output: 160
    kernel_size: 1
    weight_filler {
      type: "xavier"
      std: 0.03
    }
    bias_filler {
      type: "constant"
      value: 0.2
    }
  }
}
layer {
  name: "inception_4b/relu_1x1"
  type: "ReLU"
  bottom: "inception_4b/1x1"
  top: "inception_4b/1x1"
}
layer {
  name: "inception_4b/3x3_reduce"
  type: "Convolution"
  bottom: "inception_4a/output"
  top: "inception_4b/3x3_reduce"
  param {
    lr_mult: 1
    decay_mult: 1
  }
  param {
    lr_mult: 2
    decay_mult: 0
  }
  convolution_param {
    num_output: 112
    kernel_size: 1
    weight_filler {
      type: "xavier"
      std: 0.09
    }
    bias_filler {
      type: "constant"
      value: 0.2
    }
  }
}
layer {
  name: "inception_4b/relu_3x3_reduce"
  type: "ReLU"
  bottom: "inception_4b/3x3_reduce"
  top: "inception_4b/3x3_reduce"
}
layer {
  name: "inception_4b/3x3"
  type: "Convolution"
  bottom: "inception_4b/3x3_reduce"
  top: "inception_4b/3x3"
  param {
    lr_mult: 1
    decay_mult: 1
  }
  param {
    lr_mult: 2
    decay_mult: 0
  }
  convolution_param {
    num_output: 224
    pad: 1
    kernel_size: 3
    weight_filler {
      type: "xavier"
      std: 0.03
    }
    bias_filler {
      type: "constant"
      value: 0.2
    }
  }
}
layer {
  name: "inception_4b/relu_3x3"
  type: "ReLU"
  bottom: "inception_4b/3x3"
  top: "inception_4b/3x3"
}
layer {
  name: "inception_4b/5x5_reduce"
  type: "Convolution"
  bottom: "inception_4a/output"
  top: "inception_4b/5x5_reduce"
  param {
    lr_mult: 1
    decay_mult: 1
  }
  param {
    lr_mult: 2
    decay_mult: 0
  }
  convolution_param {
    num_output: 24
    kernel_size: 1
    weight_filler {
      type: "xavier"
      std: 0.2
    }
    bias_filler {
      type: "constant"
      value: 0.2
    }
  }
}
layer {
  name: "inception_4b/relu_5x5_reduce"
  type: "ReLU"
  bottom: "inception_4b/5x5_reduce"
  top: "inception_4b/5x5_reduce"
}
layer {
  name: "inception_4b/5x5"
  type: "Convolution"
  bottom: "inception_4b/5x5_reduce"
  top: "inception_4b/5x5"
  param {
    lr_mult: 1
    decay_mult: 1
  }
  param {
    lr_mult: 2
    decay_mult: 0
  }
  convolution_param {
    num_output: 64
    pad: 2
    kernel_size: 5
    weight_filler {
      type: "xavier"
      std: 0.03
    }
    bias_filler {
      type: "constant"
      value: 0.2
    }
  }
}
layer {
  name: "inception_4b/relu_5x5"
  type: "ReLU"
  bottom: "inception_4b/5x5"
  top: "inception_4b/5x5"
}
layer {
  name: "inception_4b/pool"
  type: "Pooling"
  bottom: "inception_4a/output"
  top: "inception_4b/pool"
  pooling_param {
    pool: MAX
    kernel_size: 3
    stride: 1
    pad: 1
  }
}
layer {
  name: "inception_4b/pool_proj"
  type: "Convolution"
  bottom: "inception_4b/pool"
  top: "inception_4b/pool_proj"
  param {
    lr_mult: 1
    decay_mult: 1
  }
  param {
    lr_mult: 2
    decay_mult: 0
  }
  convolution_param {
    num_output: 64
    kernel_size: 1
    weight_filler {
      type: "xavier"
      std: 0.1
    }
    bias_filler {
      type: "constant"
      value: 0.2
    }
  }
}
layer {
  name: "inception_4b/relu_pool_proj"
  type: "ReLU"
  bottom: "inception_4b/pool_proj"
  top: "inception_4b/pool_proj"
}
layer {
  name: "inception_4b/output"
  type: "Concat"
  bottom: "inception_4b/1x1"
  bottom: "inception_4b/3x3"
  bottom: "inception_4b/5x5"
  bottom: "inception_4b/pool_proj"
  top: "inception_4b/output"
}
layer {
  name: "inception_4c/1x1"
  type: "Convolution"
  bottom: "inception_4b/output"
  top: "inception_4c/1x1"
  param {
    lr_mult: 1
    decay_mult: 1
  }
  param {
    lr_mult: 2
    decay_mult: 0
  }
  convolution_param {
    num_output: 128
    kernel_size: 1
    weight_filler {
      type: "xavier"
      std: 0.03
    }
    bias_filler {
      type: "constant"
      value: 0.2
    }
  }
}
layer {
  name: "inception_4c/relu_1x1"
  type: "ReLU"
  bottom: "inception_4c/1x1"
  top: "inception_4c/1x1"
}
layer {
  name: "inception_4c/3x3_reduce"
  type: "Convolution"
  bottom: "inception_4b/output"
  top: "inception_4c/3x3_reduce"
  param {
    lr_mult: 1
    decay_mult: 1
  }
  param {
    lr_mult: 2
    decay_mult: 0
  }
  convolution_param {
    num_output: 128
    kernel_size: 1
    weight_filler {
      type: "xavier"
      std: 0.09
    }
    bias_filler {
      type: "constant"
      value: 0.2
    }
  }
}
layer {
  name: "inception_4c/relu_3x3_reduce"
  type: "ReLU"
  bottom: "inception_4c/3x3_reduce"
  top: "inception_4c/3x3_reduce"
}
layer {
  name: "inception_4c/3x3"
  type: "Convolution"
  bottom: "inception_4c/3x3_reduce"
  top: "inception_4c/3x3"
  param {
    lr_mult: 1
    decay_mult: 1
  }
  param {
    lr_mult: 2
    decay_mult: 0
  }
  convolution_param {
    num_output: 256
    pad: 1
    kernel_size: 3
    weight_filler {
      type: "xavier"
      std: 0.03
    }
    bias_filler {
      type: "constant"
      value: 0.2
    }
  }
}
layer {
  name: "inception_4c/relu_3x3"
  type: "ReLU"
  bottom: "inception_4c/3x3"
  top: "inception_4c/3x3"
}
layer {
  name: "inception_4c/5x5_reduce"
  type: "Convolution"
  bottom: "inception_4b/output"
  top: "inception_4c/5x5_reduce"
  param {
    lr_mult: 1
    decay_mult: 1
  }
  param {
    lr_mult: 2
    decay_mult: 0
  }
  convolution_param {
    num_output: 24
    kernel_size: 1
    weight_filler {
      type: "xavier"
      std: 0.2
    }
    bias_filler {
      type: "constant"
      value: 0.2
    }
  }
}
layer {
  name: "inception_4c/relu_5x5_reduce"
  type: "ReLU"
  bottom: "inception_4c/5x5_reduce"
  top: "inception_4c/5x5_reduce"
}
layer {
  name: "inception_4c/5x5"
  type: "Convolution"
  bottom: "inception_4c/5x5_reduce"
  top: "inception_4c/5x5"
  param {
    lr_mult: 1
    decay_mult: 1
  }
  param {
    lr_mult: 2
    decay_mult: 0
  }
  convolution_param {
    num_output: 64
    pad: 2
    kernel_size: 5
    weight_filler {
      type: "xavier"
      std: 0.03
    }
    bias_filler {
      type: "constant"
      value: 0.2
    }
  }
}
layer {
  name: "inception_4c/relu_5x5"
  type: "ReLU"
  bottom: "inception_4c/5x5"
  top: "inception_4c/5x5"
}
layer {
  name: "inception_4c/pool"
  type: "Pooling"
  bottom: "inception_4b/output"
  top: "inception_4c/pool"
  pooling_param {
    pool: MAX
    kernel_size: 3
    stride: 1
    pad: 1
  }
}
layer {
  name: "inception_4c/pool_proj"
  type: "Convolution"
  bottom: "inception_4c/pool"
  top: "inception_4c/pool_proj"
  param {
    lr_mult: 1
    decay_mult: 1
  }
  param {
    lr_mult: 2
    decay_mult: 0
  }
  convolution_param {
    num_output: 64
    kernel_size: 1
    weight_filler {
      type: "xavier"
      std: 0.1
    }
    bias_filler {
      type: "constant"
      value: 0.2
    }
  }
}
layer {
  name: "inception_4c/relu_pool_proj"
  type: "ReLU"
  bottom: "inception_4c/pool_proj"
  top: "inception_4c/pool_proj"
}
layer {
  name: "inception_4c/output"
  type: "Concat"
  bottom: "inception_4c/1x1"
  bottom: "inception_4c/3x3"
  bottom: "inception_4c/5x5"
  bottom: "inception_4c/pool_proj"
  top: "inception_4c/output"
}
layer {
  name: "inception_4d/1x1"
  type: "Convolution"
  bottom: "inception_4c/output"
  top: "inception_4d/1x1"
  param {
    lr_mult: 1
    decay_mult: 1
  }
  param {
    lr_mult: 2
    decay_mult: 0
  }
  convolution_param {
    num_output: 112
    kernel_size: 1
    weight_filler {
      type: "xavier"
      std: 0.03
    }
    bias_filler {
      type: "constant"
      value: 0.2
    }
  }
}
layer {
  name: "inception_4d/relu_1x1"
  type: "ReLU"
  bottom: "inception_4d/1x1"
  top: "inception_4d/1x1"
}
layer {
  name: "inception_4d/3x3_reduce"
  type: "Convolution"
  bottom: "inception_4c/output"
  top: "inception_4d/3x3_reduce"
  param {
    lr_mult: 1
    decay_mult: 1
  }
  param {
    lr_mult: 2
    decay_mult: 0
  }
  convolution_param {
    num_output: 144
    kernel_size: 1
    weight_filler {
      type: "xavier"
      std: 0.09
    }
    bias_filler {
      type: "constant"
      value: 0.2
    }
  }
}
layer {
  name: "inception_4d/relu_3x3_reduce"
  type: "ReLU"
  bottom: "inception_4d/3x3_reduce"
  top: "inception_4d/3x3_reduce"
}
layer {
  name: "inception_4d/3x3"
  type: "Convolution"
  bottom: "inception_4d/3x3_reduce"
  top: "inception_4d/3x3"
  param {
    lr_mult: 1
    decay_mult: 1
  }
  param {
    lr_mult: 2
    decay_mult: 0
  }
  convolution_param {
    num_output: 288
    pad: 1
    kernel_size: 3
    weight_filler {
      type: "xavier"
      std: 0.03
    }
    bias_filler {
      type: "constant"
      value: 0.2
    }
  }
}
layer {
  name: "inception_4d/relu_3x3"
  type: "ReLU"
  bottom: "inception_4d/3x3"
  top: "inception_4d/3x3"
}
layer {
  name: "inception_4d/5x5_reduce"
  type: "Convolution"
  bottom: "inception_4c/output"
  top: "inception_4d/5x5_reduce"
  param {
    lr_mult: 1
    decay_mult: 1
  }
  param {
    lr_mult: 2
    decay_mult: 0
  }
  convolution_param {
    num_output: 32
    kernel_size: 1
    weight_filler {
      type: "xavier"
      std: 0.2
    }
    bias_filler {
      type: "constant"
      value: 0.2
    }
  }
}
layer {
  name: "inception_4d/relu_5x5_reduce"
  type: "ReLU"
  bottom: "inception_4d/5x5_reduce"
  top: "inception_4d/5x5_reduce"
}
layer {
  name: "inception_4d/5x5"
  type: "Convolution"
  bottom: "inception_4d/5x5_reduce"
  top: "inception_4d/5x5"
  param {
    lr_mult: 1
    decay_mult: 1
  }
  param {
    lr_mult: 2
    decay_mult: 0
  }
  convolution_param {
    num_output: 64
    pad: 2
    kernel_size: 5
    weight_filler {
      type: "xavier"
      std: 0.03
    }
    bias_filler {
      type: "constant"
      value: 0.2
    }
  }
}
layer {
  name: "inception_4d/relu_5x5"
  type: "ReLU"
  bottom: "inception_4d/5x5"
  top: "inception_4d/5x5"
}
layer {
  name: "inception_4d/pool"
  type: "Pooling"
  bottom: "inception_4c/output"
  top: "inception_4d/pool"
  pooling_param {
    pool: MAX
    kernel_size: 3
    stride: 1
    pad: 1
  }
}
layer {
  name: "inception_4d/pool_proj"
  type: "Convolution"
  bottom: "inception_4d/pool"
  top: "inception_4d/pool_proj"
  param {
    lr_mult: 1
    decay_mult: 1
  }
  param {
    lr_mult: 2
    decay_mult: 0
  }
  convolution_param {
    num_output: 64
    kernel_size: 1
    weight_filler {
      type: "xavier"
      std: 0.1
    }
    bias_filler {
      type: "constant"
      value: 0.2
    }
  }
}
layer {
  name: "inception_4d/relu_pool_proj"
  type: "ReLU"
  bottom: "inception_4d/pool_proj"
  top: "inception_4d/pool_proj"
}
layer {
  name: "inception_4d/output"
  type: "Concat"
  bottom: "inception_4d/1x1"
  bottom: "inception_4d/3x3"
  bottom: "inception_4d/5x5"
  bottom: "inception_4d/pool_proj"
  top: "inception_4d/output"
}
layer {
  name: "loss2/ave_pool"
  type: "Pooling"
  bottom: "inception_4d/output"
  top: "loss2/ave_pool"
  pooling_param {
    pool: AVE
    kernel_size: 5
    stride: 3
  }
}
layer {
  name: "loss2/conv"
  type: "Convolution"
  bottom: "loss2/ave_pool"
  top: "loss2/conv"
  param {
    lr_mult: 1
    decay_mult: 1
  }
  param {
    lr_mult: 2
    decay_mult: 0
  }
  convolution_param {
    num_output: 128
    kernel_size: 1
    weight_filler {
      type: "xavier"
      std: 0.08
    }
    bias_filler {
      type: "constant"
      value: 0.2
    }
  }
}
layer {
  name: "loss2/relu_conv"
  type: "ReLU"
  bottom: "loss2/conv"
  top: "loss2/conv"
}
layer {
  name: "loss2/fc"
  type: "InnerProduct"
  bottom: "loss2/conv"
  top: "loss2/fc"
  param {
    lr_mult: 1
    decay_mult: 1
  }
  param {
    lr_mult: 2
    decay_mult: 0
  }
  inner_product_param {
    num_output: 1024
    weight_filler {
      type: "xavier"
      std: 0.02
    }
    bias_filler {
      type: "constant"
      value: 0.2
    }
  }
}
layer {
  name: "loss2/relu_fc"
  type: "ReLU"
  bottom: "loss2/fc"
  top: "loss2/fc"
}
layer {
  name: "loss2/drop_fc"
  type: "Dropout"
  bottom: "loss2/fc"
  top: "loss2/fc"
  dropout_param {
    dropout_ratio: 0.7
  }
}
layer {
  name: "loss2/classifier_plantvillage"
  type: "InnerProduct"
  bottom: "loss2/fc"
  top: "loss2/classifier_plantvillage"
  param {
    lr_mult: 1
    decay_mult: 1
  }
  param {
    lr_mult: 2
    decay_mult: 0
  }
  inner_product_param {
    num_output: 38
    weight_filler {
      type: "xavier"
      std: 0.0009765625
    }
    bias_filler {
      type: "constant"
      value: 0
    }
  }
}
layer {
  name: "inception_4e/1x1"
  type: "Convolution"
  bottom: "inception_4d/output"
  top: "inception_4e/1x1"
  param {
    lr_mult: 1
    decay_mult: 1
  }
  param {
    lr_mult: 2
    decay_mult: 0
  }
  convolution_param {
    num_output: 256
    kernel_size: 1
    weight_filler {
      type: "xavier"
      std: 0.03
    }
    bias_filler {
      type: "constant"
      value: 0.2
    }
  }
}
layer {
  name: "inception_4e/relu_1x1"
  type: "ReLU"
  bottom: "inception_4e/1x1"
  top: "inception_4e/1x1"
}
layer {
  name: "inception_4e/3x3_reduce"
  type: "Convolution"
  bottom: "inception_4d/output"
  top: "inception_4e/3x3_reduce"
  param {
    lr_mult: 1
    decay_mult: 1
  }
  param {
    lr_mult: 2
    decay_mult: 0
  }
  convolution_param {
    num_output: 160
    kernel_size: 1
    weight_filler {
      type: "xavier"
      std: 0.09
    }
    bias_filler {
      type: "constant"
      value: 0.2
    }
  }
}
layer {
  name: "inception_4e/relu_3x3_reduce"
  type: "ReLU"
  bottom: "inception_4e/3x3_reduce"
  top: "inception_4e/3x3_reduce"
}
layer {
  name: "inception_4e/3x3"
  type: "Convolution"
  bottom: "inception_4e/3x3_reduce"
  top: "inception_4e/3x3"
  param {
    lr_mult: 1
    decay_mult: 1
  }
  param {
    lr_mult: 2
    decay_mult: 0
  }
  convolution_param {
    num_output: 320
    pad: 1
    kernel_size: 3
    weight_filler {
      type: "xavier"
      std: 0.03
    }
    bias_filler {
      type: "constant"
      value: 0.2
    }
  }
}
layer {
  name: "inception_4e/relu_3x3"
  type: "ReLU"
  bottom: "inception_4e/3x3"
  top: "inception_4e/3x3"
}
layer {
  name: "inception_4e/5x5_reduce"
  type: "Convolution"
  bottom: "inception_4d/output"
  top: "inception_4e/5x5_reduce"
  param {
    lr_mult: 1
    decay_mult: 1
  }
  param {
    lr_mult: 2
    decay_mult: 0
  }
  convolution_param {
    num_output: 32
    kernel_size: 1
    weight_filler {
      type: "xavier"
      std: 0.2
    }
    bias_filler {
      type: "constant"
      value: 0.2
    }
  }
}
layer {
  name: "inception_4e/relu_5x5_reduce"
  type: "ReLU"
  bottom: "inception_4e/5x5_reduce"
  top: "inception_4e/5x5_reduce"
}
layer {
  name: "inception_4e/5x5"
  type: "Convolution"
  bottom: "inception_4e/5x5_reduce"
  top: "inception_4e/
I0403 15:42:22.967474  3386 layer_factory.hpp:77] Creating layer data
I0403 15:42:22.968085  3386 net.cpp:91] Creating Layer data
I0403 15:42:22.968116  3386 net.cpp:399] data -> data
I0403 15:42:22.968166  3386 net.cpp:399] data -> label
I0403 15:42:22.968204  3386 data_transformer.cpp:25] Loading mean file from: /home/mohanty/data/final_dataset/lmdb/grayscale-50-50/mean.binaryproto
I0403 15:42:22.992318  3389 db_lmdb.cpp:38] Opened lmdb /home/mohanty/data/final_dataset/lmdb/grayscale-50-50/test_db
I0403 15:42:22.996811  3386 data_layer.cpp:41] output data size: 24,3,224,224
I0403 15:42:23.025712  3386 net.cpp:141] Setting up data
I0403 15:42:23.025809  3386 net.cpp:148] Top shape: 24 3 224 224 (3612672)
I0403 15:42:23.025831  3386 net.cpp:148] Top shape: 24 (24)
I0403 15:42:23.025848  3386 net.cpp:156] Memory required for data: 14450784
I0403 15:42:23.025876  3386 layer_factory.hpp:77] Creating layer label_data_1_split
I0403 15:42:23.025903  3386 net.cpp:91] Creating Layer label_data_1_split
I0403 15:42:23.025921  3386 net.cpp:425] label_data_1_split <- label
I0403 15:42:23.025954  3386 net.cpp:399] label_data_1_split -> label_data_1_split_0
I0403 15:42:23.025981  3386 net.cpp:399] label_data_1_split -> label_data_1_split_1
I0403 15:42:23.026003  3386 net.cpp:399] label_data_1_split -> label_data_1_split_2
I0403 15:42:23.026026  3386 net.cpp:399] label_data_1_split -> label_data_1_split_3
I0403 15:42:23.026046  3386 net.cpp:399] label_data_1_split -> label_data_1_split_4
I0403 15:42:23.026067  3386 net.cpp:399] label_data_1_split -> label_data_1_split_5
I0403 15:42:23.026089  3386 net.cpp:399] label_data_1_split -> label_data_1_split_6
I0403 15:42:23.026110  3386 net.cpp:399] label_data_1_split -> label_data_1_split_7
I0403 15:42:23.026131  3386 net.cpp:399] label_data_1_split -> label_data_1_split_8
I0403 15:42:23.026152  3386 net.cpp:399] label_data_1_split -> label_data_1_split_9
I0403 15:42:23.026278  3386 net.cpp:141] Setting up label_data_1_split
I0403 15:42:23.026304  3386 net.cpp:148] Top shape: 24 (24)
I0403 15:42:23.026321  3386 net.cpp:148] Top shape: 24 (24)
I0403 15:42:23.026338  3386 net.cpp:148] Top shape: 24 (24)
I0403 15:42:23.026355  3386 net.cpp:148] Top shape: 24 (24)
I0403 15:42:23.026372  3386 net.cpp:148] Top shape: 24 (24)
I0403 15:42:23.026389  3386 net.cpp:148] Top shape: 24 (24)
I0403 15:42:23.026406  3386 net.cpp:148] Top shape: 24 (24)
I0403 15:42:23.026422  3386 net.cpp:148] Top shape: 24 (24)
I0403 15:42:23.026438  3386 net.cpp:148] Top shape: 24 (24)
I0403 15:42:23.026455  3386 net.cpp:148] Top shape: 24 (24)
I0403 15:42:23.026499  3386 net.cpp:156] Memory required for data: 14451744
I0403 15:42:23.026516  3386 layer_factory.hpp:77] Creating layer conv1/7x7_s2
I0403 15:42:23.026549  3386 net.cpp:91] Creating Layer conv1/7x7_s2
I0403 15:42:23.026568  3386 net.cpp:425] conv1/7x7_s2 <- data
I0403 15:42:23.026588  3386 net.cpp:399] conv1/7x7_s2 -> conv1/7x7_s2
I0403 15:42:23.298612  3386 net.cpp:141] Setting up conv1/7x7_s2
I0403 15:42:23.298702  3386 net.cpp:148] Top shape: 24 64 112 112 (19267584)
I0403 15:42:23.298720  3386 net.cpp:156] Memory required for data: 91522080
I0403 15:42:23.298753  3386 layer_factory.hpp:77] Creating layer conv1/relu_7x7
I0403 15:42:23.298781  3386 net.cpp:91] Creating Layer conv1/relu_7x7
I0403 15:42:23.298802  3386 net.cpp:425] conv1/relu_7x7 <- conv1/7x7_s2
I0403 15:42:23.298822  3386 net.cpp:386] conv1/relu_7x7 -> conv1/7x7_s2 (in-place)
I0403 15:42:23.299090  3386 net.cpp:141] Setting up conv1/relu_7x7
I0403 15:42:23.299119  3386 net.cpp:148] Top shape: 24 64 112 112 (19267584)
I0403 15:42:23.299135  3386 net.cpp:156] Memory required for data: 168592416
I0403 15:42:23.299152  3386 layer_factory.hpp:77] Creating layer pool1/3x3_s2
I0403 15:42:23.299178  3386 net.cpp:91] Creating Layer pool1/3x3_s2
I0403 15:42:23.299197  3386 net.cpp:425] pool1/3x3_s2 <- conv1/7x7_s2
I0403 15:42:23.299217  3386 net.cpp:399] pool1/3x3_s2 -> pool1/3x3_s2
I0403 15:42:23.299298  3386 net.cpp:141] Setting up pool1/3x3_s2
I0403 15:42:23.299324  3386 net.cpp:148] Top shape: 24 64 56 56 (4816896)
I0403 15:42:23.299340  3386 net.cpp:156] Memory required for data: 187860000
I0403 15:42:23.299356  3386 layer_factory.hpp:77] Creating layer pool1/norm1
I0403 15:42:23.299381  3386 net.cpp:91] Creating Layer pool1/norm1
I0403 15:42:23.299399  3386 net.cpp:425] pool1/norm1 <- pool1/3x3_s2
I0403 15:42:23.299418  3386 net.cpp:399] pool1/norm1 -> pool1/norm1
I0403 15:42:23.299712  3386 net.cpp:141] Setting up pool1/norm1
I0403 15:42:23.299741  3386 net.cpp:148] Top shape: 24 64 56 56 (4816896)
I0403 15:42:23.299757  3386 net.cpp:156] Memory required for data: 207127584
I0403 15:42:23.299773  3386 layer_factory.hpp:77] Creating layer conv2/3x3_reduce
I0403 15:42:23.299800  3386 net.cpp:91] Creating Layer conv2/3x3_reduce
I0403 15:42:23.299818  3386 net.cpp:425] conv2/3x3_reduce <- pool1/norm1
I0403 15:42:23.299842  3386 net.cpp:399] conv2/3x3_reduce -> conv2/3x3_reduce
I0403 15:42:23.301301  3386 net.cpp:141] Setting up conv2/3x3_reduce
I0403 15:42:23.301333  3386 net.cpp:148] Top shape: 24 64 56 56 (4816896)
I0403 15:42:23.301350  3386 net.cpp:156] Memory required for data: 226395168
I0403 15:42:23.301373  3386 layer_factory.hpp:77] Creating layer conv2/relu_3x3_reduce
I0403 15:42:23.301395  3386 net.cpp:91] Creating Layer conv2/relu_3x3_reduce
I0403 15:42:23.301414  3386 net.cpp:425] conv2/relu_3x3_reduce <- conv2/3x3_reduce
I0403 15:42:23.301434  3386 net.cpp:386] conv2/relu_3x3_reduce -> conv2/3x3_reduce (in-place)
I0403 15:42:23.301717  3386 net.cpp:141] Setting up conv2/relu_3x3_reduce
I0403 15:42:23.301745  3386 net.cpp:148] Top shape: 24 64 56 56 (4816896)
I0403 15:42:23.301762  3386 net.cpp:156] Memory required for data: 245662752
I0403 15:42:23.301779  3386 layer_factory.hpp:77] Creating layer conv2/3x3
I0403 15:42:23.301803  3386 net.cpp:91] Creating Layer conv2/3x3
I0403 15:42:23.301822  3386 net.cpp:425] conv2/3x3 <- conv2/3x3_reduce
I0403 15:42:23.301846  3386 net.cpp:399] conv2/3x3 -> conv2/3x3
I0403 15:42:23.304280  3386 net.cpp:141] Setting up conv2/3x3
I0403 15:42:23.304313  3386 net.cpp:148] Top shape: 24 192 56 56 (14450688)
I0403 15:42:23.304330  3386 net.cpp:156] Memory required for data: 303465504
I0403 15:42:23.304357  3386 layer_factory.hpp:77] Creating layer conv2/relu_3x3
I0403 15:42:23.304378  3386 net.cpp:91] Creating Layer conv2/relu_3x3
I0403 15:42:23.304394  3386 net.cpp:425] conv2/relu_3x3 <- conv2/3x3
I0403 15:42:23.304414  3386 net.cpp:386] conv2/relu_3x3 -> conv2/3x3 (in-place)
I0403 15:42:23.304600  3386 net.cpp:141] Setting up conv2/relu_3x3
I0403 15:42:23.304628  3386 net.cpp:148] Top shape: 24 192 56 56 (14450688)
I0403 15:42:23.304677  3386 net.cpp:156] Memory required for data: 361268256
I0403 15:42:23.304693  3386 layer_factory.hpp:77] Creating layer conv2/norm2
I0403 15:42:23.304713  3386 net.cpp:91] Creating Layer conv2/norm2
I0403 15:42:23.304729  3386 net.cpp:425] conv2/norm2 <- conv2/3x3
I0403 15:42:23.304752  3386 net.cpp:399] conv2/norm2 -> conv2/norm2
I0403 15:42:23.305078  3386 net.cpp:141] Setting up conv2/norm2
I0403 15:42:23.305106  3386 net.cpp:148] Top shape: 24 192 56 56 (14450688)
I0403 15:42:23.305124  3386 net.cpp:156] Memory required for data: 419071008
I0403 15:42:23.305140  3386 layer_factory.hpp:77] Creating layer pool2/3x3_s2
I0403 15:42:23.305158  3386 net.cpp:91] Creating Layer pool2/3x3_s2
I0403 15:42:23.305176  3386 net.cpp:425] pool2/3x3_s2 <- conv2/norm2
I0403 15:42:23.305197  3386 net.cpp:399] pool2/3x3_s2 -> pool2/3x3_s2
I0403 15:42:23.305253  3386 net.cpp:141] Setting up pool2/3x3_s2
I0403 15:42:23.305284  3386 net.cpp:148] Top shape: 24 192 28 28 (3612672)
I0403 15:42:23.305302  3386 net.cpp:156] Memory required for data: 433521696
I0403 15:42:23.305320  3386 layer_factory.hpp:77] Creating layer pool2/3x3_s2_pool2/3x3_s2_0_split
I0403 15:42:23.305337  3386 net.cpp:91] Creating Layer pool2/3x3_s2_pool2/3x3_s2_0_split
I0403 15:42:23.305356  3386 net.cpp:425] pool2/3x3_s2_pool2/3x3_s2_0_split <- pool2/3x3_s2
I0403 15:42:23.305376  3386 net.cpp:399] pool2/3x3_s2_pool2/3x3_s2_0_split -> pool2/3x3_s2_pool2/3x3_s2_0_split_0
I0403 15:42:23.305399  3386 net.cpp:399] pool2/3x3_s2_pool2/3x3_s2_0_split -> pool2/3x3_s2_pool2/3x3_s2_0_split_1
I0403 15:42:23.305421  3386 net.cpp:399] pool2/3x3_s2_pool2/3x3_s2_0_split -> pool2/3x3_s2_pool2/3x3_s2_0_split_2
I0403 15:42:23.305444  3386 net.cpp:399] pool2/3x3_s2_pool2/3x3_s2_0_split -> pool2/3x3_s2_pool2/3x3_s2_0_split_3
I0403 15:42:23.305519  3386 net.cpp:141] Setting up pool2/3x3_s2_pool2/3x3_s2_0_split
I0403 15:42:23.305543  3386 net.cpp:148] Top shape: 24 192 28 28 (3612672)
I0403 15:42:23.305560  3386 net.cpp:148] Top shape: 24 192 28 28 (3612672)
I0403 15:42:23.305577  3386 net.cpp:148] Top shape: 24 192 28 28 (3612672)
I0403 15:42:23.305593  3386 net.cpp:148] Top shape: 24 192 28 28 (3612672)
I0403 15:42:23.305608  3386 net.cpp:156] Memory required for data: 491324448
I0403 15:42:23.305624  3386 layer_factory.hpp:77] Creating layer inception_3a/1x1
I0403 15:42:23.305651  3386 net.cpp:91] Creating Layer inception_3a/1x1
I0403 15:42:23.305672  3386 net.cpp:425] inception_3a/1x1 <- pool2/3x3_s2_pool2/3x3_s2_0_split_0
I0403 15:42:23.305692  3386 net.cpp:399] inception_3a/1x1 -> inception_3a/1x1
I0403 15:42:23.307307  3386 net.cpp:141] Setting up inception_3a/1x1
I0403 15:42:23.307337  3386 net.cpp:148] Top shape: 24 64 28 28 (1204224)
I0403 15:42:23.307354  3386 net.cpp:156] Memory required for data: 496141344
I0403 15:42:23.307374  3386 layer_factory.hpp:77] Creating layer inception_3a/relu_1x1
I0403 15:42:23.307394  3386 net.cpp:91] Creating Layer inception_3a/relu_1x1
I0403 15:42:23.307412  3386 net.cpp:425] inception_3a/relu_1x1 <- inception_3a/1x1
I0403 15:42:23.307433  3386 net.cpp:386] inception_3a/relu_1x1 -> inception_3a/1x1 (in-place)
I0403 15:42:23.307616  3386 net.cpp:141] Setting up inception_3a/relu_1x1
I0403 15:42:23.307642  3386 net.cpp:148] Top shape: 24 64 28 28 (1204224)
I0403 15:42:23.307658  3386 net.cpp:156] Memory required for data: 500958240
I0403 15:42:23.307674  3386 layer_factory.hpp:77] Creating layer inception_3a/3x3_reduce
I0403 15:42:23.307698  3386 net.cpp:91] Creating Layer inception_3a/3x3_reduce
I0403 15:42:23.307716  3386 net.cpp:425] inception_3a/3x3_reduce <- pool2/3x3_s2_pool2/3x3_s2_0_split_1
I0403 15:42:23.307739  3386 net.cpp:399] inception_3a/3x3_reduce -> inception_3a/3x3_reduce
I0403 15:42:23.309512  3386 net.cpp:141] Setting up inception_3a/3x3_reduce
I0403 15:42:23.309545  3386 net.cpp:148] Top shape: 24 96 28 28 (1806336)
I0403 15:42:23.309562  3386 net.cpp:156] Memory required for data: 508183584
I0403 15:42:23.309584  3386 layer_factory.hpp:77] Creating layer inception_3a/relu_3x3_reduce
I0403 15:42:23.309624  3386 net.cpp:91] Creating Layer inception_3a/relu_3x3_reduce
I0403 15:42:23.309643  3386 net.cpp:425] inception_3a/relu_3x3_reduce <- inception_3a/3x3_reduce
I0403 15:42:23.309662  3386 net.cpp:386] inception_3a/relu_3x3_reduce -> inception_3a/3x3_reduce (in-place)
I0403 15:42:23.309857  3386 net.cpp:141] Setting up inception_3a/relu_3x3_reduce
I0403 15:42:23.309885  3386 net.cpp:148] Top shape: 24 96 28 28 (1806336)
I0403 15:42:23.309900  3386 net.cpp:156] Memory required for data: 515408928
I0403 15:42:23.309916  3386 layer_factory.hpp:77] Creating layer inception_3a/3x3
I0403 15:42:23.309942  3386 net.cpp:91] Creating Layer inception_3a/3x3
I0403 15:42:23.309960  3386 net.cpp:425] inception_3a/3x3 <- inception_3a/3x3_reduce
I0403 15:42:23.309983  3386 net.cpp:399] inception_3a/3x3 -> inception_3a/3x3
I0403 15:42:23.311717  3386 net.cpp:141] Setting up inception_3a/3x3
I0403 15:42:23.311748  3386 net.cpp:148] Top shape: 24 128 28 28 (2408448)
I0403 15:42:23.311764  3386 net.cpp:156] Memory required for data: 525042720
I0403 15:42:23.311784  3386 layer_factory.hpp:77] Creating layer inception_3a/relu_3x3
I0403 15:42:23.311807  3386 net.cpp:91] Creating Layer inception_3a/relu_3x3
I0403 15:42:23.311825  3386 net.cpp:425] inception_3a/relu_3x3 <- inception_3a/3x3
I0403 15:42:23.311844  3386 net.cpp:386] inception_3a/relu_3x3 -> inception_3a/3x3 (in-place)
I0403 15:42:23.312132  3386 net.cpp:141] Setting up inception_3a/relu_3x3
I0403 15:42:23.312160  3386 net.cpp:148] Top shape: 24 128 28 28 (2408448)
I0403 15:42:23.312177  3386 net.cpp:156] Memory required for data: 534676512
I0403 15:42:23.312193  3386 layer_factory.hpp:77] Creating layer inception_3a/5x5_reduce
I0403 15:42:23.312217  3386 net.cpp:91] Creating Layer inception_3a/5x5_reduce
I0403 15:42:23.312235  3386 net.cpp:425] inception_3a/5x5_reduce <- pool2/3x3_s2_pool2/3x3_s2_0_split_2
I0403 15:42:23.312258  3386 net.cpp:399] inception_3a/5x5_reduce -> inception_3a/5x5_reduce
I0403 15:42:23.313287  3386 net.cpp:141] Setting up inception_3a/5x5_reduce
I0403 15:42:23.313318  3386 net.cpp:148] Top shape: 24 16 28 28 (301056)
I0403 15:42:23.313335  3386 net.cpp:156] Memory required for data: 535880736
I0403 15:42:23.313355  3386 layer_factory.hpp:77] Creating layer inception_3a/relu_5x5_reduce
I0403 15:42:23.313377  3386 net.cpp:91] Creating Layer inception_3a/relu_5x5_reduce
I0403 15:42:23.313395  3386 net.cpp:425] inception_3a/relu_5x5_reduce <- inception_3a/5x5_reduce
I0403 15:42:23.313415  3386 net.cpp:386] inception_3a/relu_5x5_reduce -> inception_3a/5x5_reduce (in-place)
I0403 15:42:23.313719  3386 net.cpp:141] Setting up inception_3a/relu_5x5_reduce
I0403 15:42:23.313748  3386 net.cpp:148] Top shape: 24 16 28 28 (301056)
I0403 15:42:23.313766  3386 net.cpp:156] Memory required for data: 537084960
I0403 15:42:23.313782  3386 layer_factory.hpp:77] Creating layer inception_3a/5x5
I0403 15:42:23.313807  3386 net.cpp:91] Creating Layer inception_3a/5x5
I0403 15:42:23.313825  3386 net.cpp:425] inception_3a/5x5 <- inception_3a/5x5_reduce
I0403 15:42:23.313845  3386 net.cpp:399] inception_3a/5x5 -> inception_3a/5x5
I0403 15:42:23.314905  3386 net.cpp:141] Setting up inception_3a/5x5
I0403 15:42:23.314936  3386 net.cpp:148] Top shape: 24 32 28 28 (602112)
I0403 15:42:23.314954  3386 net.cpp:156] Memory required for data: 539493408
I0403 15:42:23.314973  3386 layer_factory.hpp:77] Creating layer inception_3a/relu_5x5
I0403 15:42:23.314996  3386 net.cpp:91] Creating Layer inception_3a/relu_5x5
I0403 15:42:23.315013  3386 net.cpp:425] inception_3a/relu_5x5 <- inception_3a/5x5
I0403 15:42:23.315032  3386 net.cpp:386] inception_3a/relu_5x5 -> inception_3a/5x5 (in-place)
I0403 15:42:23.315213  3386 net.cpp:141] Setting up inception_3a/relu_5x5
I0403 15:42:23.315243  3386 net.cpp:148] Top shape: 24 32 28 28 (602112)
I0403 15:42:23.315259  3386 net.cpp:156] Memory required for data: 541901856
I0403 15:42:23.315280  3386 layer_factory.hpp:77] Creating layer inception_3a/pool
I0403 15:42:23.315301  3386 net.cpp:91] Creating Layer inception_3a/pool
I0403 15:42:23.315333  3386 net.cpp:425] inception_3a/pool <- pool2/3x3_s2_pool2/3x3_s2_0_split_3
I0403 15:42:23.315353  3386 net.cpp:399] inception_3a/pool -> inception_3a/pool
I0403 15:42:23.315418  3386 net.cpp:141] Setting up inception_3a/pool
I0403 15:42:23.315443  3386 net.cpp:148] Top shape: 24 192 28 28 (3612672)
I0403 15:42:23.315457  3386 net.cpp:156] Memory required for data: 556352544
I0403 15:42:23.315472  3386 layer_factory.hpp:77] Creating layer inception_3a/pool_proj
I0403 15:42:23.315496  3386 net.cpp:91] Creating Layer inception_3a/pool_proj
I0403 15:42:23.315515  3386 net.cpp:425] inception_3a/pool_proj <- inception_3a/pool
I0403 15:42:23.315539  3386 net.cpp:399] inception_3a/pool_proj -> inception_3a/pool_proj
I0403 15:42:23.316558  3386 net.cpp:141] Setting up inception_3a/pool_proj
I0403 15:42:23.316587  3386 net.cpp:148] Top shape: 24 32 28 28 (602112)
I0403 15:42:23.316604  3386 net.cpp:156] Memory required for data: 558760992
I0403 15:42:23.316628  3386 layer_factory.hpp:77] Creating layer inception_3a/relu_pool_proj
I0403 15:42:23.316651  3386 net.cpp:91] Creating Layer inception_3a/relu_pool_proj
I0403 15:42:23.316669  3386 net.cpp:425] inception_3a/relu_pool_proj <- inception_3a/pool_proj
I0403 15:42:23.316687  3386 net.cpp:386] inception_3a/relu_pool_proj -> inception_3a/pool_proj (in-place)
I0403 15:42:23.316982  3386 net.cpp:141] Setting up inception_3a/relu_pool_proj
I0403 15:42:23.317009  3386 net.cpp:148] Top shape: 24 32 28 28 (602112)
I0403 15:42:23.317025  3386 net.cpp:156] Memory required for data: 561169440
I0403 15:42:23.317041  3386 layer_factory.hpp:77] Creating layer inception_3a/output
I0403 15:42:23.317064  3386 net.cpp:91] Creating Layer inception_3a/output
I0403 15:42:23.317081  3386 net.cpp:425] inception_3a/output <- inception_3a/1x1
I0403 15:42:23.317100  3386 net.cpp:425] inception_3a/output <- inception_3a/3x3
I0403 15:42:23.317116  3386 net.cpp:425] inception_3a/output <- inception_3a/5x5
I0403 15:42:23.317132  3386 net.cpp:425] inception_3a/output <- inception_3a/pool_proj
I0403 15:42:23.317152  3386 net.cpp:399] inception_3a/output -> inception_3a/output
I0403 15:42:23.317203  3386 net.cpp:141] Setting up inception_3a/output
I0403 15:42:23.317227  3386 net.cpp:148] Top shape: 24 256 28 28 (4816896)
I0403 15:42:23.317245  3386 net.cpp:156] Memory required for data: 580437024
I0403 15:42:23.317260  3386 layer_factory.hpp:77] Creating layer inception_3a/output_inception_3a/output_0_split
I0403 15:42:23.317283  3386 net.cpp:91] Creating Layer inception_3a/output_inception_3a/output_0_split
I0403 15:42:23.317301  3386 net.cpp:425] inception_3a/output_inception_3a/output_0_split <- inception_3a/output
I0403 15:42:23.317323  3386 net.cpp:399] inception_3a/output_inception_3a/output_0_split -> inception_3a/output_inception_3a/output_0_split_0
I0403 15:42:23.317347  3386 net.cpp:399] inception_3a/output_inception_3a/output_0_split -> inception_3a/output_inception_3a/output_0_split_1
I0403 15:42:23.317373  3386 net.cpp:399] inception_3a/output_inception_3a/output_0_split -> inception_3a/output_inception_3a/output_0_split_2
I0403 15:42:23.317396  3386 net.cpp:399] inception_3a/output_inception_3a/output_0_split -> inception_3a/output_inception_3a/output_0_split_3
I0403 15:42:23.317476  3386 net.cpp:141] Setting up inception_3a/output_inception_3a/output_0_split
I0403 15:42:23.317500  3386 net.cpp:148] Top shape: 24 256 28 28 (4816896)
I0403 15:42:23.317518  3386 net.cpp:148] Top shape: 24 256 28 28 (4816896)
I0403 15:42:23.317535  3386 net.cpp:148] Top shape: 24 256 28 28 (4816896)
I0403 15:42:23.317553  3386 net.cpp:148] Top shape: 24 256 28 28 (4816896)
I0403 15:42:23.317567  3386 net.cpp:156] Memory required for data: 657507360
I0403 15:42:23.317582  3386 layer_factory.hpp:77] Creating layer inception_3b/1x1
I0403 15:42:23.317605  3386 net.cpp:91] Creating Layer inception_3b/1x1
I0403 15:42:23.317625  3386 net.cpp:425] inception_3b/1x1 <- inception_3a/output_inception_3a/output_0_split_0
I0403 15:42:23.317646  3386 net.cpp:399] inception_3b/1x1 -> inception_3b/1x1
I0403 15:42:23.318838  3386 net.cpp:141] Setting up inception_3b/1x1
I0403 15:42:23.318882  3386 net.cpp:148] Top shape: 24 128 28 28 (2408448)
I0403 15:42:23.318899  3386 net.cpp:156] Memory required for data: 667141152
I0403 15:42:23.318919  3386 layer_factory.hpp:77] Creating layer inception_3b/relu_1x1
I0403 15:42:23.318943  3386 net.cpp:91] Creating Layer inception_3b/relu_1x1
I0403 15:42:23.318963  3386 net.cpp:425] inception_3b/relu_1x1 <- inception_3b/1x1
I0403 15:42:23.318981  3386 net.cpp:386] inception_3b/relu_1x1 -> inception_3b/1x1 (in-place)
I0403 15:42:23.319162  3386 net.cpp:141] Setting up inception_3b/relu_1x1
I0403 15:42:23.319191  3386 net.cpp:148] Top shape: 24 128 28 28 (2408448)
I0403 15:42:23.319207  3386 net.cpp:156] Memory required for data: 676774944
I0403 15:42:23.319224  3386 layer_factory.hpp:77] Creating layer inception_3b/3x3_reduce
I0403 15:42:23.319247  3386 net.cpp:91] Creating Layer inception_3b/3x3_reduce
I0403 15:42:23.319267  3386 net.cpp:425] inception_3b/3x3_reduce <- inception_3a/output_inception_3a/output_0_split_1
I0403 15:42:23.319303  3386 net.cpp:399] inception_3b/3x3_reduce -> inception_3b/3x3_reduce
I0403 15:42:23.320499  3386 net.cpp:141] Setting up inception_3b/3x3_reduce
I0403 15:42:23.320529  3386 net.cpp:148] Top shape: 24 128 28 28 (2408448)
I0403 15:42:23.320545  3386 net.cpp:156] Memory required for data: 686408736
I0403 15:42:23.320565  3386 layer_factory.hpp:77] Creating layer inception_3b/relu_3x3_reduce
I0403 15:42:23.320585  3386 net.cpp:91] Creating Layer inception_3b/relu_3x3_reduce
I0403 15:42:23.320603  3386 net.cpp:425] inception_3b/relu_3x3_reduce <- inception_3b/3x3_reduce
I0403 15:42:23.320624  3386 net.cpp:386] inception_3b/relu_3x3_reduce -> inception_3b/3x3_reduce (in-place)
I0403 15:42:23.320806  3386 net.cpp:141] Setting up inception_3b/relu_3x3_reduce
I0403 15:42:23.320832  3386 net.cpp:148] Top shape: 24 128 28 28 (2408448)
I0403 15:42:23.320849  3386 net.cpp:156] Memory required for data: 696042528
I0403 15:42:23.320865  3386 layer_factory.hpp:77] Creating layer inception_3b/3x3
I0403 15:42:23.320893  3386 net.cpp:91] Creating Layer inception_3b/3x3
I0403 15:42:23.320911  3386 net.cpp:425] inception_3b/3x3 <- inception_3b/3x3_reduce
I0403 15:42:23.320932  3386 net.cpp:399] inception_3b/3x3 -> inception_3b/3x3
I0403 15:42:23.324004  3386 net.cpp:141] Setting up inception_3b/3x3
I0403 15:42:23.324034  3386 net.cpp:148] Top shape: 24 192 28 28 (3612672)
I0403 15:42:23.324051  3386 net.cpp:156] Memory required for data: 710493216
I0403 15:42:23.324071  3386 layer_factory.hpp:77] Creating layer inception_3b/relu_3x3
I0403 15:42:23.324093  3386 net.cpp:91] Creating Layer inception_3b/relu_3x3
I0403 15:42:23.324111  3386 net.cpp:425] inception_3b/relu_3x3 <- inception_3b/3x3
I0403 15:42:23.324131  3386 net.cpp:386] inception_3b/relu_3x3 -> inception_3b/3x3 (in-place)
I0403 15:42:23.324427  3386 net.cpp:141] Setting up inception_3b/relu_3x3
I0403 15:42:23.324460  3386 net.cpp:148] Top shape: 24 192 28 28 (3612672)
I0403 15:42:23.324476  3386 net.cpp:156] Memory required for data: 724943904
I0403 15:42:23.324493  3386 layer_factory.hpp:77] Creating layer inception_3b/5x5_reduce
I0403 15:42:23.324520  3386 net.cpp:91] Creating Layer inception_3b/5x5_reduce
I0403 15:42:23.324542  3386 net.cpp:425] inception_3b/5x5_reduce <- inception_3a/output_inception_3a/output_0_split_2
I0403 15:42:23.324568  3386 net.cpp:399] inception_3b/5x5_reduce -> inception_3b/5x5_reduce
I0403 15:42:23.325606  3386 net.cpp:141] Setting up inception_3b/5x5_reduce
I0403 15:42:23.325639  3386 net.cpp:148] Top shape: 24 32 28 28 (602112)
I0403 15:42:23.325657  3386 net.cpp:156] Memory required for data: 727352352
I0403 15:42:23.325678  3386 layer_factory.hpp:77] Creating layer inception_3b/relu_5x5_reduce
I0403 15:42:23.325703  3386 net.cpp:91] Creating Layer inception_3b/relu_5x5_reduce
I0403 15:42:23.325724  3386 net.cpp:425] inception_3b/relu_5x5_reduce <- inception_3b/5x5_reduce
I0403 15:42:23.325747  3386 net.cpp:386] inception_3b/relu_5x5_reduce -> inception_3b/5x5_reduce (in-place)
I0403 15:42:23.325947  3386 net.cpp:141] Setting up inception_3b/relu_5x5_reduce
I0403 15:42:23.325976  3386 net.cpp:148] Top shape: 24 32 28 28 (602112)
I0403 15:42:23.325995  3386 net.cpp:156] Memory required for data: 729760800
I0403 15:42:23.326014  3386 layer_factory.hpp:77] Creating layer inception_3b/5x5
I0403 15:42:23.326038  3386 net.cpp:91] Creating Layer inception_3b/5x5
I0403 15:42:23.326059  3386 net.cpp:425] inception_3b/5x5 <- inception_3b/5x5_reduce
I0403 15:42:23.326082  3386 net.cpp:399] inception_3b/5x5 -> inception_3b/5x5
I0403 15:42:23.328155  3386 net.cpp:141] Setting up inception_3b/5x5
I0403 15:42:23.328187  3386 net.cpp:148] Top shape: 24 96 28 28 (1806336)
I0403 15:42:23.328204  3386 net.cpp:156] Memory required for data: 736986144
I0403 15:42:23.328223  3386 layer_factory.hpp:77] Creating layer inception_3b/relu_5x5
I0403 15:42:23.328243  3386 net.cpp:91] Creating Layer inception_3b/relu_5x5
I0403 15:42:23.328260  3386 net.cpp:425] inception_3b/relu_5x5 <- inception_3b/5x5
I0403 15:42:23.328287  3386 net.cpp:386] inception_3b/relu_5x5 -> inception_3b/5x5 (in-place)
I0403 15:42:23.328493  3386 net.cpp:141] Setting up inception_3b/relu_5x5
I0403 15:42:23.328521  3386 net.cpp:148] Top shape: 24 96 28 28 (1806336)
I0403 15:42:23.328536  3386 net.cpp:156] Memory required for data: 744211488
I0403 15:42:23.328552  3386 layer_factory.hpp:77] Creating layer inception_3b/pool
I0403 15:42:23.328572  3386 net.cpp:91] Creating Layer inception_3b/pool
I0403 15:42:23.328588  3386 net.cpp:425] inception_3b/pool <- inception_3a/output_inception_3a/output_0_split_3
I0403 15:42:23.328608  3386 net.cpp:399] inception_3b/pool -> inception_3b/pool
I0403 15:42:23.328667  3386 net.cpp:141] Setting up inception_3b/pool
I0403 15:42:23.328691  3386 net.cpp:148] Top shape: 24 256 28 28 (4816896)
I0403 15:42:23.328707  3386 net.cpp:156] Memory required for data: 763479072
I0403 15:42:23.328723  3386 layer_factory.hpp:77] Creating layer inception_3b/pool_proj
I0403 15:42:23.328747  3386 net.cpp:91] Creating Layer inception_3b/pool_proj
I0403 15:42:23.328766  3386 net.cpp:425] inception_3b/pool_proj <- inception_3b/pool
I0403 15:42:23.328789  3386 net.cpp:399] inception_3b/pool_proj -> inception_3b/pool_proj
I0403 15:42:23.329895  3386 net.cpp:141] Setting up inception_3b/pool_proj
I0403 15:42:23.329927  3386 net.cpp:148] Top shape: 24 64 28 28 (1204224)
I0403 15:42:23.329946  3386 net.cpp:156] Memory required for data: 768295968
I0403 15:42:23.329965  3386 layer_factory.hpp:77] Creating layer inception_3b/relu_pool_proj
I0403 15:42:23.329985  3386 net.cpp:91] Creating Layer inception_3b/relu_pool_proj
I0403 15:42:23.330003  3386 net.cpp:425] inception_3b/relu_pool_proj <- inception_3b/pool_proj
I0403 15:42:23.330023  3386 net.cpp:386] inception_3b/relu_pool_proj -> inception_3b/pool_proj (in-place)
I0403 15:42:25.369158  3386 net.cpp:141] Setting up inception_3b/relu_pool_proj
I0403 15:42:25.369267  3386 net.cpp:148] Top shape: 24 64 28 28 (1204224)
I0403 15:42:25.369377  3386 net.cpp:156] Memory required for data: 773112864
I0403 15:42:25.369436  3386 layer_factory.hpp:77] Creating layer inception_3b/output
I0403 15:42:25.369467  3386 net.cpp:91] Creating Layer inception_3b/output
I0403 15:42:25.369501  3386 net.cpp:425] inception_3b/output <- inception_3b/1x1
I0403 15:42:25.369562  3386 net.cpp:425] inception_3b/output <- inception_3b/3x3
I0403 15:42:25.369580  3386 net.cpp:425] inception_3b/output <- inception_3b/5x5
I0403 15:42:25.369597  3386 net.cpp:425] inception_3b/output <- inception_3b/pool_proj
I0403 15:42:25.369631  3386 net.cpp:399] inception_3b/output -> inception_3b/output
I0403 15:42:25.369751  3386 net.cpp:141] Setting up inception_3b/output
I0403 15:42:25.369774  3386 net.cpp:148] Top shape: 24 480 28 28 (9031680)
I0403 15:42:25.369789  3386 net.cpp:156] Memory required for data: 809239584
I0403 15:42:25.369804  3386 layer_factory.hpp:77] Creating layer pool3/3x3_s2
I0403 15:42:25.369861  3386 net.cpp:91] Creating Layer pool3/3x3_s2
I0403 15:42:25.369894  3386 net.cpp:425] pool3/3x3_s2 <- inception_3b/output
I0403 15:42:25.369983  3386 net.cpp:399] pool3/3x3_s2 -> pool3/3x3_s2
I0403 15:42:25.370070  3386 net.cpp:141] Setting up pool3/3x3_s2
I0403 15:42:25.370093  3386 net.cpp:148] Top shape: 24 480 14 14 (2257920)
I0403 15:42:25.370108  3386 net.cpp:156] Memory required for data: 818271264
I0403 15:42:25.370123  3386 layer_factory.hpp:77] Creating layer pool3/3x3_s2_pool3/3x3_s2_0_split
I0403 15:42:25.370141  3386 net.cpp:91] Creating Layer pool3/3x3_s2_pool3/3x3_s2_0_split
I0403 15:42:25.370157  3386 net.cpp:425] pool3/3x3_s2_pool3/3x3_s2_0_split <- pool3/3x3_s2
I0403 15:42:25.370177  3386 net.cpp:399] pool3/3x3_s2_pool3/3x3_s2_0_split -> pool3/3x3_s2_pool3/3x3_s2_0_split_0
I0403 15:42:25.370198  3386 net.cpp:399] pool3/3x3_s2_pool3/3x3_s2_0_split -> pool3/3x3_s2_pool3/3x3_s2_0_split_1
I0403 15:42:25.370218  3386 net.cpp:399] pool3/3x3_s2_pool3/3x3_s2_0_split -> pool3/3x3_s2_pool3/3x3_s2_0_split_2
I0403 15:42:25.370239  3386 net.cpp:399] pool3/3x3_s2_pool3/3x3_s2_0_split -> pool3/3x3_s2_pool3/3x3_s2_0_split_3
I0403 15:42:25.370316  3386 net.cpp:141] Setting up pool3/3x3_s2_pool3/3x3_s2_0_split
I0403 15:42:25.370342  3386 net.cpp:148] Top shape: 24 480 14 14 (2257920)
I0403 15:42:25.370359  3386 net.cpp:148] Top shape: 24 480 14 14 (2257920)
I0403 15:42:25.370376  3386 net.cpp:148] Top shape: 24 480 14 14 (2257920)
I0403 15:42:25.370393  3386 net.cpp:148] Top shape: 24 480 14 14 (2257920)
I0403 15:42:25.370406  3386 net.cpp:156] Memory required for data: 854397984
I0403 15:42:25.370420  3386 layer_factory.hpp:77] Creating layer inception_4a/1x1
I0403 15:42:25.370446  3386 net.cpp:91] Creating Layer inception_4a/1x1
I0403 15:42:25.370465  3386 net.cpp:425] inception_4a/1x1 <- pool3/3x3_s2_pool3/3x3_s2_0_split_0
I0403 15:42:25.370486  3386 net.cpp:399] inception_4a/1x1 -> inception_4a/1x1
I0403 15:42:25.372279  3386 net.cpp:141] Setting up inception_4a/1x1
I0403 15:42:25.372311  3386 net.cpp:148] Top shape: 24 192 14 14 (903168)
I0403 15:42:25.372328  3386 net.cpp:156] Memory required for data: 858010656
I0403 15:42:25.372349  3386 layer_factory.hpp:77] Creating layer inception_4a/relu_1x1
I0403 15:42:25.372367  3386 net.cpp:91] Creating Layer inception_4a/relu_1x1
I0403 15:42:25.372385  3386 net.cpp:425] inception_4a/relu_1x1 <- inception_4a/1x1
I0403 15:42:25.372403  3386 net.cpp:386] inception_4a/relu_1x1 -> inception_4a/1x1 (in-place)
I0403 15:42:25.372577  3386 net.cpp:141] Setting up inception_4a/relu_1x1
I0403 15:42:25.372602  3386 net.cpp:148] Top shape: 24 192 14 14 (903168)
I0403 15:42:25.372617  3386 net.cpp:156] Memory required for data: 861623328
I0403 15:42:25.372632  3386 layer_factory.hpp:77] Creating layer inception_4a/3x3_reduce
I0403 15:42:25.372654  3386 net.cpp:91] Creating Layer inception_4a/3x3_reduce
I0403 15:42:25.372673  3386 net.cpp:425] inception_4a/3x3_reduce <- pool3/3x3_s2_pool3/3x3_s2_0_split_1
I0403 15:42:25.372694  3386 net.cpp:399] inception_4a/3x3_reduce -> inception_4a/3x3_reduce
I0403 15:42:25.374045  3386 net.cpp:141] Setting up inception_4a/3x3_reduce
I0403 15:42:25.374078  3386 net.cpp:148] Top shape: 24 96 14 14 (451584)
I0403 15:42:25.374102  3386 net.cpp:156] Memory required for data: 863429664
I0403 15:42:25.374133  3386 layer_factory.hpp:77] Creating layer inception_4a/relu_3x3_reduce
I0403 15:42:25.374161  3386 net.cpp:91] Creating Layer inception_4a/relu_3x3_reduce
I0403 15:42:25.374183  3386 net.cpp:425] inception_4a/relu_3x3_reduce <- inception_4a/3x3_reduce
I0403 15:42:25.374204  3386 net.cpp:386] inception_4a/relu_3x3_reduce -> inception_4a/3x3_reduce (in-place)
I0403 15:42:25.374389  3386 net.cpp:141] Setting up inception_4a/relu_3x3_reduce
I0403 15:42:25.374414  3386 net.cpp:148] Top shape: 24 96 14 14 (451584)
I0403 15:42:25.374429  3386 net.cpp:156] Memory required for data: 865236000
I0403 15:42:25.374444  3386 layer_factory.hpp:77] Creating layer inception_4a/3x3
I0403 15:42:25.374472  3386 net.cpp:91] Creating Layer inception_4a/3x3
I0403 15:42:25.374491  3386 net.cpp:425] inception_4a/3x3 <- inception_4a/3x3_reduce
I0403 15:42:25.374512  3386 net.cpp:399] inception_4a/3x3 -> inception_4a/3x3
I0403 15:42:25.377301  3386 net.cpp:141] Setting up inception_4a/3x3
I0403 15:42:25.377331  3386 net.cpp:148] Top shape: 24 208 14 14 (978432)
I0403 15:42:25.377347  3386 net.cpp:156] Memory required for data: 869149728
I0403 15:42:25.377365  3386 layer_factory.hpp:77] Creating layer inception_4a/relu_3x3
I0403 15:42:25.377384  3386 net.cpp:91] Creating Layer inception_4a/relu_3x3
I0403 15:42:25.377400  3386 net.cpp:425] inception_4a/relu_3x3 <- inception_4a/3x3
I0403 15:42:25.377420  3386 net.cpp:386] inception_4a/relu_3x3 -> inception_4a/3x3 (in-place)
I0403 15:42:25.383023  3386 net.cpp:141] Setting up inception_4a/relu_3x3
I0403 15:42:25.383119  3386 net.cpp:148] Top shape: 24 208 14 14 (978432)
I0403 15:42:25.383136  3386 net.cpp:156] Memory required for data: 873063456
I0403 15:42:25.383153  3386 layer_factory.hpp:77] Creating layer inception_4a/5x5_reduce
I0403 15:42:25.383184  3386 net.cpp:91] Creating Layer inception_4a/5x5_reduce
I0403 15:42:25.383204  3386 net.cpp:425] inception_4a/5x5_reduce <- pool3/3x3_s2_pool3/3x3_s2_0_split_2
I0403 15:42:25.383229  3386 net.cpp:399] inception_4a/5x5_reduce -> inception_4a/5x5_reduce
I0403 15:42:25.384677  3386 net.cpp:141] Setting up inception_4a/5x5_reduce
I0403 15:42:25.384706  3386 net.cpp:148] Top shape: 24 16 14 14 (75264)
I0403 15:42:25.384721  3386 net.cpp:156] Memory required for data: 873364512
I0403 15:42:25.384740  3386 layer_factory.hpp:77] Creating layer inception_4a/relu_5x5_reduce
I0403 15:42:25.384762  3386 net.cpp:91] Creating Layer inception_4a/relu_5x5_reduce
I0403 15:42:25.384779  3386 net.cpp:425] inception_4a/relu_5x5_reduce <- inception_4a/5x5_reduce
I0403 15:42:25.384796  3386 net.cpp:386] inception_4a/relu_5x5_reduce -> inception_4a/5x5_reduce (in-place)
I0403 15:42:25.384965  3386 net.cpp:141] Setting up inception_4a/relu_5x5_reduce
I0403 15:42:25.384994  3386 net.cpp:148] Top shape: 24 16 14 14 (75264)
I0403 15:42:25.385010  3386 net.cpp:156] Memory required for data: 873665568
I0403 15:42:25.385025  3386 layer_factory.hpp:77] Creating layer inception_4a/5x5
I0403 15:42:25.385045  3386 net.cpp:91] Creating Layer inception_4a/5x5
I0403 15:42:25.385061  3386 net.cpp:425] inception_4a/5x5 <- inception_4a/5x5_reduce
I0403 15:42:25.385082  3386 net.cpp:399] inception_4a/5x5 -> inception_4a/5x5
I0403 15:42:25.390468  3386 net.cpp:141] Setting up inception_4a/5x5
I0403 15:42:25.390563  3386 net.cpp:148] Top shape: 24 48 14 14 (225792)
I0403 15:42:25.390579  3386 net.cpp:156] Memory required for data: 874568736
I0403 15:42:25.390601  3386 layer_factory.hpp:77] Creating layer inception_4a/relu_5x5
I0403 15:42:25.390626  3386 net.cpp:91] Creating Layer inception_4a/relu_5x5
I0403 15:42:25.390645  3386 net.cpp:425] inception_4a/relu_5x5 <- inception_4a/5x5
I0403 15:42:25.390664  3386 net.cpp:386] inception_4a/relu_5x5 -> inception_4a/5x5 (in-place)
I0403 15:42:25.390842  3386 net.cpp:141] Setting up inception_4a/relu_5x5
I0403 15:42:25.390867  3386 net.cpp:148] Top shape: 24 48 14 14 (225792)
I0403 15:42:25.390882  3386 net.cpp:156] Memory required for data: 875471904
I0403 15:42:25.390897  3386 layer_factory.hpp:77] Creating layer inception_4a/pool
I0403 15:42:25.390914  3386 net.cpp:91] Creating Layer inception_4a/pool
I0403 15:42:25.390931  3386 net.cpp:425] inception_4a/pool <- pool3/3x3_s2_pool3/3x3_s2_0_split_3
I0403 15:42:25.390951  3386 net.cpp:399] inception_4a/pool -> inception_4a/pool
I0403 15:42:25.391017  3386 net.cpp:141] Setting up inception_4a/pool
I0403 15:42:25.391041  3386 net.cpp:148] Top shape: 24 480 14 14 (2257920)
I0403 15:42:25.391054  3386 net.cpp:156] Memory required for data: 884503584
I0403 15:42:25.391068  3386 layer_factory.hpp:77] Creating layer inception_4a/pool_proj
I0403 15:42:25.391095  3386 net.cpp:91] Creating Layer inception_4a/pool_proj
I0403 15:42:25.391113  3386 net.cpp:425] inception_4a/pool_proj <- inception_4a/pool
I0403 15:42:25.391132  3386 net.cpp:399] inception_4a/pool_proj -> inception_4a/pool_proj
I0403 15:42:25.397053  3386 net.cpp:141] Setting up inception_4a/pool_proj
I0403 15:42:25.397147  3386 net.cpp:148] Top shape: 24 64 14 14 (301056)
I0403 15:42:25.397199  3386 net.cpp:156] Memory required for data: 885707808
I0403 15:42:25.397222  3386 layer_factory.hpp:77] Creating layer inception_4a/relu_pool_proj
I0403 15:42:25.397246  3386 net.cpp:91] Creating Layer inception_4a/relu_pool_proj
I0403 15:42:25.397264  3386 net.cpp:425] inception_4a/relu_pool_proj <- inception_4a/pool_proj
I0403 15:42:25.397294  3386 net.cpp:386] inception_4a/relu_pool_proj -> inception_4a/pool_proj (in-place)
I0403 15:42:25.402729  3386 net.cpp:141] Setting up inception_4a/relu_pool_proj
I0403 15:42:25.402832  3386 net.cpp:148] Top shape: 24 64 14 14 (301056)
I0403 15:42:25.402849  3386 net.cpp:156] Memory required for data: 886912032
I0403 15:42:25.402868  3386 layer_factory.hpp:77] Creating layer inception_4a/output
I0403 15:42:25.402890  3386 net.cpp:91] Creating Layer inception_4a/output
I0403 15:42:25.402909  3386 net.cpp:425] inception_4a/output <- inception_4a/1x1
I0403 15:42:25.402927  3386 net.cpp:425] inception_4a/output <- inception_4a/3x3
I0403 15:42:25.402945  3386 net.cpp:425] inception_4a/output <- inception_4a/5x5
I0403 15:42:25.402961  3386 net.cpp:425] inception_4a/output <- inception_4a/pool_proj
I0403 15:42:25.402981  3386 net.cpp:399] inception_4a/output -> inception_4a/output
I0403 15:42:25.403046  3386 net.cpp:141] Setting up inception_4a/output
I0403 15:42:25.403069  3386 net.cpp:148] Top shape: 24 512 14 14 (2408448)
I0403 15:42:25.403084  3386 net.cpp:156] Memory required for data: 896545824
I0403 15:42:25.403097  3386 layer_factory.hpp:77] Creating layer inception_4a/output_inception_4a/output_0_split
I0403 15:42:25.403118  3386 net.cpp:91] Creating Layer inception_4a/output_inception_4a/output_0_split
I0403 15:42:25.403134  3386 net.cpp:425] inception_4a/output_inception_4a/output_0_split <- inception_4a/output
I0403 15:42:25.403151  3386 net.cpp:399] inception_4a/output_inception_4a/output_0_split -> inception_4a/output_inception_4a/output_0_split_0
I0403 15:42:25.403172  3386 net.cpp:399] inception_4a/output_inception_4a/output_0_split -> inception_4a/output_inception_4a/output_0_split_1
I0403 15:42:25.403198  3386 net.cpp:399] inception_4a/output_inception_4a/output_0_split -> inception_4a/output_inception_4a/output_0_split_2
I0403 15:42:25.403219  3386 net.cpp:399] inception_4a/output_inception_4a/output_0_split -> inception_4a/output_inception_4a/output_0_split_3
I0403 15:42:25.403239  3386 net.cpp:399] inception_4a/output_inception_4a/output_0_split -> inception_4a/output_inception_4a/output_0_split_4
I0403 15:42:25.403339  3386 net.cpp:141] Setting up inception_4a/output_inception_4a/output_0_split
I0403 15:42:25.403362  3386 net.cpp:148] Top shape: 24 512 14 14 (2408448)
I0403 15:42:25.403378  3386 net.cpp:148] Top shape: 24 512 14 14 (2408448)
I0403 15:42:25.403394  3386 net.cpp:148] Top shape: 24 512 14 14 (2408448)
I0403 15:42:25.403409  3386 net.cpp:148] Top shape: 24 512 14 14 (2408448)
I0403 15:42:25.403424  3386 net.cpp:148] Top shape: 24 512 14 14 (2408448)
I0403 15:42:25.403439  3386 net.cpp:156] Memory required for data: 944714784
I0403 15:42:25.403452  3386 layer_factory.hpp:77] Creating layer loss1/ave_pool
I0403 15:42:25.403475  3386 net.cpp:91] Creating Layer loss1/ave_pool
I0403 15:42:25.403491  3386 net.cpp:425] loss1/ave_pool <- inception_4a/output_inception_4a/output_0_split_0
I0403 15:42:25.403511  3386 net.cpp:399] loss1/ave_pool -> loss1/ave_pool
I0403 15:42:25.403717  3386 net.cpp:141] Setting up loss1/ave_pool
I0403 15:42:25.403744  3386 net.cpp:148] Top shape: 24 512 4 4 (196608)
I0403 15:42:25.403759  3386 net.cpp:156] Memory required for data: 945501216
I0403 15:42:25.403774  3386 layer_factory.hpp:77] Creating layer loss1/conv
I0403 15:42:25.403800  3386 net.cpp:91] Creating Layer loss1/conv
I0403 15:42:25.403816  3386 net.cpp:425] loss1/conv <- loss1/ave_pool
I0403 15:42:25.403834  3386 net.cpp:399] loss1/conv -> loss1/conv
I0403 15:42:25.410225  3386 net.cpp:141] Setting up loss1/conv
I0403 15:42:25.410327  3386 net.cpp:148] Top shape: 24 128 4 4 (49152)
I0403 15:42:25.410378  3386 net.cpp:156] Memory required for data: 945697824
I0403 15:42:25.410403  3386 layer_factory.hpp:77] Creating layer loss1/relu_conv
I0403 15:42:25.410425  3386 net.cpp:91] Creating Layer loss1/relu_conv
I0403 15:42:25.410444  3386 net.cpp:425] loss1/relu_conv <- loss1/conv
I0403 15:42:25.410465  3386 net.cpp:386] loss1/relu_conv -> loss1/conv (in-place)
I0403 15:42:25.416352  3386 net.cpp:141] Setting up loss1/relu_conv
I0403 15:42:25.416450  3386 net.cpp:148] Top shape: 24 128 4 4 (49152)
I0403 15:42:25.416468  3386 net.cpp:156] Memory required for data: 945894432
I0403 15:42:25.416487  3386 layer_factory.hpp:77] Creating layer loss1/fc
I0403 15:42:25.416523  3386 net.cpp:91] Creating Layer loss1/fc
I0403 15:42:25.416544  3386 net.cpp:425] loss1/fc <- loss1/conv
I0403 15:42:25.416569  3386 net.cpp:399] loss1/fc -> loss1/fc
I0403 15:42:25.445219  3386 net.cpp:141] Setting up loss1/fc
I0403 15:42:25.445320  3386 net.cpp:148] Top shape: 24 1024 (24576)
I0403 15:42:25.445338  3386 net.cpp:156] Memory required for data: 945992736
I0403 15:42:25.445360  3386 layer_factory.hpp:77] Creating layer loss1/relu_fc
I0403 15:42:25.445382  3386 net.cpp:91] Creating Layer loss1/relu_fc
I0403 15:42:25.445401  3386 net.cpp:425] loss1/relu_fc <- loss1/fc
I0403 15:42:25.445420  3386 net.cpp:386] loss1/relu_fc -> loss1/fc (in-place)
I0403 15:42:25.445659  3386 net.cpp:141] Setting up loss1/relu_fc
I0403 15:42:25.445684  3386 net.cpp:148] Top shape: 24 1024 (24576)
I0403 15:42:25.445699  3386 net.cpp:156] Memory required for data: 946091040
I0403 15:42:25.445713  3386 layer_factory.hpp:77] Creating layer loss1/drop_fc
I0403 15:42:25.445742  3386 net.cpp:91] Creating Layer loss1/drop_fc
I0403 15:42:25.445760  3386 net.cpp:425] loss1/drop_fc <- loss1/fc
I0403 15:42:25.445780  3386 net.cpp:386] loss1/drop_fc -> loss1/fc (in-place)
I0403 15:42:25.445835  3386 net.cpp:141] Setting up loss1/drop_fc
I0403 15:42:25.445861  3386 net.cpp:148] Top shape: 24 1024 (24576)
I0403 15:42:25.445878  3386 net.cpp:156] Memory required for data: 946189344
I0403 15:42:25.445893  3386 layer_factory.hpp:77] Creating layer loss1/classifier_plantvillage
I0403 15:42:25.445911  3386 net.cpp:91] Creating Layer loss1/classifier_plantvillage
I0403 15:42:25.445927  3386 net.cpp:425] loss1/classifier_plantvillage <- loss1/fc
I0403 15:42:25.445947  3386 net.cpp:399] loss1/classifier_plantvillage -> loss1/classifier_plantvillage
I0403 15:42:25.450887  3386 net.cpp:141] Setting up loss1/classifier_plantvillage
I0403 15:42:25.450986  3386 net.cpp:148] Top shape: 24 38 (912)
I0403 15:42:25.451002  3386 net.cpp:156] Memory required for data: 946192992
I0403 15:42:25.451025  3386 layer_factory.hpp:77] Creating layer loss1/classifier_plantvillage_loss1/classifier_plantvillage_0_split
I0403 15:42:25.451047  3386 net.cpp:91] Creating Layer loss1/classifier_plantvillage_loss1/classifier_plantvillage_0_split
I0403 15:42:25.451066  3386 net.cpp:425] loss1/classifier_plantvillage_loss1/classifier_plantvillage_0_split <- loss1/classifier_plantvillage
I0403 15:42:25.451088  3386 net.cpp:399] loss1/classifier_plantvillage_loss1/classifier_plantvillage_0_split -> loss1/classifier_plantvillage_loss1/classifier_plantvillage_0_split_0
I0403 15:42:25.451112  3386 net.cpp:399] loss1/classifier_plantvillage_loss1/classifier_plantvillage_0_split -> loss1/classifier_plantvillage_loss1/classifier_plantvillage_0_split_1
I0403 15:42:25.451133  3386 net.cpp:399] loss1/classifier_plantvillage_loss1/classifier_plantvillage_0_split -> loss1/classifier_plantvillage_loss1/classifier_plantvillage_0_split_2
I0403 15:42:25.451201  3386 net.cpp:141] Setting up loss1/classifier_plantvillage_loss1/classifier_plantvillage_0_split
I0403 15:42:25.451223  3386 net.cpp:148] Top shape: 24 38 (912)
I0403 15:42:25.451239  3386 net.cpp:148] Top shape: 24 38 (912)
I0403 15:42:25.451256  3386 net.cpp:148] Top shape: 24 38 (912)
I0403 15:42:25.451269  3386 net.cpp:156] Memory required for data: 946203936
I0403 15:42:25.451288  3386 layer_factory.hpp:77] Creating layer inception_4b/1x1
I0403 15:42:25.451316  3386 net.cpp:91] Creating Layer inception_4b/1x1
I0403 15:42:25.451367  3386 net.cpp:425] inception_4b/1x1 <- inception_4a/output_inception_4a/output_0_split_1
I0403 15:42:25.451388  3386 net.cpp:399] inception_4b/1x1 -> inception_4b/1x1
I0403 15:42:25.457989  3386 net.cpp:141] Setting up inception_4b/1x1
I0403 15:42:25.458079  3386 net.cpp:148] Top shape: 24 160 14 14 (752640)
I0403 15:42:25.458096  3386 net.cpp:156] Memory required for data: 949214496
I0403 15:42:25.458118  3386 layer_factory.hpp:77] Creating layer inception_4b/relu_1x1
I0403 15:42:25.458143  3386 net.cpp:91] Creating Layer inception_4b/relu_1x1
I0403 15:42:25.458163  3386 net.cpp:425] inception_4b/relu_1x1 <- inception_4b/1x1
I0403 15:42:25.458184  3386 net.cpp:386] inception_4b/relu_1x1 -> inception_4b/1x1 (in-place)
I0403 15:42:25.458364  3386 net.cpp:141] Setting up inception_4b/relu_1x1
I0403 15:42:25.458391  3386 net.cpp:148] Top shape: 24 160 14 14 (752640)
I0403 15:42:25.458420  3386 net.cpp:156] Memory required for data: 952225056
I0403 15:42:25.458436  3386 layer_factory.hpp:77] Creating layer inception_4b/3x3_reduce
I0403 15:42:25.458461  3386 net.cpp:91] Creating Layer inception_4b/3x3_reduce
I0403 15:42:25.458478  3386 net.cpp:425] inception_4b/3x3_reduce <- inception_4a/output_inception_4a/output_0_split_2
I0403 15:42:25.458503  3386 net.cpp:399] inception_4b/3x3_reduce -> inception_4b/3x3_reduce
I0403 15:42:25.465116  3386 net.cpp:141] Setting up inception_4b/3x3_reduce
I0403 15:42:25.465204  3386 net.cpp:148] Top shape: 24 112 14 14 (526848)
I0403 15:42:25.465219  3386 net.cpp:156] Memory required for data: 954332448
I0403 15:42:25.465241  3386 layer_factory.hpp:77] Creating layer inception_4b/relu_3x3_reduce
I0403 15:42:25.465266  3386 net.cpp:91] Creating Layer inception_4b/relu_3x3_reduce
I0403 15:42:25.465291  3386 net.cpp:425] inception_4b/relu_3x3_reduce <- inception_4b/3x3_reduce
I0403 15:42:25.465311  3386 net.cpp:386] inception_4b/relu_3x3_reduce -> inception_4b/3x3_reduce (in-place)
I0403 15:42:25.471096  3386 net.cpp:141] Setting up inception_4b/relu_3x3_reduce
I0403 15:42:25.471192  3386 net.cpp:148] Top shape: 24 112 14 14 (526848)
I0403 15:42:25.471210  3386 net.cpp:156] Memory required for data: 956439840
I0403 15:42:25.471227  3386 layer_factory.hpp:77] Creating layer inception_4b/3x3
I0403 15:42:25.471258  3386 net.cpp:91] Creating Layer inception_4b/3x3
I0403 15:42:25.471284  3386 net.cpp:425] inception_4b/3x3 <- inception_4b/3x3_reduce
I0403 15:42:25.471310  3386 net.cpp:399] inception_4b/3x3 -> inception_4b/3x3
I0403 15:42:25.484674  3386 net.cpp:141] Setting up inception_4b/3x3
I0403 15:42:25.484771  3386 net.cpp:148] Top shape: 24 224 14 14 (1053696)
I0403 15:42:25.484787  3386 net.cpp:156] Memory required for data: 960654624
I0403 15:42:25.484809  3386 layer_factory.hpp:77] Creating layer inception_4b/relu_3x3
I0403 15:42:25.484833  3386 net.cpp:91] Creating Layer inception_4b/relu_3x3
I0403 15:42:25.484851  3386 net.cpp:425] inception_4b/relu_3x3 <- inception_4b/3x3
I0403 15:42:25.484874  3386 net.cpp:386] inception_4b/relu_3x3 -> inception_4b/3x3 (in-place)
I0403 15:42:25.485051  3386 net.cpp:141] Setting up inception_4b/relu_3x3
I0403 15:42:25.485076  3386 net.cpp:148] Top shape: 24 224 14 14 (1053696)
I0403 15:42:25.485090  3386 net.cpp:156] Memory required for data: 964869408
I0403 15:42:25.485105  3386 layer_factory.hpp:77] Creating layer inception_4b/5x5_reduce
I0403 15:42:25.485131  3386 net.cpp:91] Creating Layer inception_4b/5x5_reduce
I0403 15:42:25.485149  3386 net.cpp:425] inception_4b/5x5_reduce <- inception_4a/output_inception_4a/output_0_split_3
I0403 15:42:25.485184  3386 net.cpp:399] inception_4b/5x5_reduce -> inception_4b/5x5_reduce
I0403 15:42:25.486428  3386 net.cpp:141] Setting up inception_4b/5x5_reduce
I0403 15:42:25.486457  3386 net.cpp:148] Top shape: 24 24 14 14 (112896)
I0403 15:42:25.486474  3386 net.cpp:156] Memory required for data: 965320992
I0403 15:42:25.486491  3386 layer_factory.hpp:77] Creating layer inception_4b/relu_5x5_reduce
I0403 15:42:25.486517  3386 net.cpp:91] Creating Layer inception_4b/relu_5x5_reduce
I0403 15:42:25.486564  3386 net.cpp:425] inception_4b/relu_5x5_reduce <- inception_4b/5x5_reduce
I0403 15:42:25.486583  3386 net.cpp:386] inception_4b/relu_5x5_reduce -> inception_4b/5x5_reduce (in-place)
I0403 15:42:25.486760  3386 net.cpp:141] Setting up inception_4b/relu_5x5_reduce
I0403 15:42:25.486788  3386 net.cpp:148] Top shape: 24 24 14 14 (112896)
I0403 15:42:25.486817  3386 net.cpp:156] Memory required for data: 965772576
I0403 15:42:25.486835  3386 layer_factory.hpp:77] Creating layer inception_4b/5x5
I0403 15:42:25.486860  3386 net.cpp:91] Creating Layer inception_4b/5x5
I0403 15:42:25.486891  3386 net.cpp:425] inception_4b/5x5 <- inception_4b/5x5_reduce
I0403 15:42:25.486912  3386 net.cpp:399] inception_4b/5x5 -> inception_4b/5x5
I0403 15:42:25.490926  3386 net.cpp:141] Setting up inception_4b/5x5
I0403 15:42:25.491021  3386 net.cpp:148] Top shape: 24 64 14 14 (301056)
I0403 15:42:25.491039  3386 net.cpp:156] Memory required for data: 966976800
I0403 15:42:25.491060  3386 layer_factory.hpp:77] Creating layer inception_4b/relu_5x5
I0403 15:42:25.491086  3386 net.cpp:91] Creating Layer inception_4b/relu_5x5
I0403 15:42:25.491106  3386 net.cpp:425] inception_4b/relu_5x5 <- inception_4b/5x5
I0403 15:42:25.491125  3386 net.cpp:386] inception_4b/relu_5x5 -> inception_4b/5x5 (in-place)
I0403 15:42:25.494153  3386 net.cpp:141] Setting up inception_4b/relu_5x5
I0403 15:42:25.494251  3386 net.cpp:148] Top shape: 24 64 14 14 (301056)
I0403 15:42:25.494266  3386 net.cpp:156] Memory required for data: 968181024
I0403 15:42:25.494303  3386 layer_factory.hpp:77] Creating layer inception_4b/pool
I0403 15:42:25.494329  3386 net.cpp:91] Creating Layer inception_4b/pool
I0403 15:42:25.494348  3386 net.cpp:425] inception_4b/pool <- inception_4a/output_inception_4a/output_0_split_4
I0403 15:42:25.494372  3386 net.cpp:399] inception_4b/pool -> inception_4b/pool
I0403 15:42:25.494464  3386 net.cpp:141] Setting up inception_4b/pool
I0403 15:42:25.494488  3386 net.cpp:148] Top shape: 24 512 14 14 (2408448)
I0403 15:42:25.494503  3386 net.cpp:156] Memory required for data: 977814816
I0403 15:42:25.494516  3386 layer_factory.hpp:77] Creating layer inception_4b/pool_proj
I0403 15:42:25.494544  3386 net.cpp:91] Creating Layer inception_4b/pool_proj
I0403 15:42:25.494561  3386 net.cpp:425] inception_4b/pool_proj <- inception_4b/pool
I0403 15:42:25.494582  3386 net.cpp:399] inception_4b/pool_proj -> inception_4b/pool_proj
I0403 15:42:25.495864  3386 net.cpp:141] Setting up inception_4b/pool_proj
I0403 15:42:25.495893  3386 net.cpp:148] Top shape: 24 64 14 14 (301056)
I0403 15:42:25.495909  3386 net.cpp:156] Memory required for data: 979019040
I0403 15:42:25.495929  3386 layer_factory.hpp:77] Creating layer inception_4b/relu_pool_proj
I0403 15:42:25.495954  3386 net.cpp:91] Creating Layer inception_4b/relu_pool_proj
I0403 15:42:25.495970  3386 net.cpp:425] inception_4b/relu_pool_proj <- inception_4b/pool_proj
I0403 15:42:25.495987  3386 net.cpp:386] inception_4b/relu_pool_proj -> inception_4b/pool_proj (in-place)
I0403 15:42:25.496160  3386 net.cpp:141] Setting up inception_4b/relu_pool_proj
I0403 15:42:25.496186  3386 net.cpp:148] Top shape: 24 64 14 14 (301056)
I0403 15:42:25.496201  3386 net.cpp:156] Memory required for data: 980223264
I0403 15:42:25.496215  3386 layer_factory.hpp:77] Creating layer inception_4b/output
I0403 15:42:25.496233  3386 net.cpp:91] Creating Layer inception_4b/output
I0403 15:42:25.496249  3386 net.cpp:425] inception_4b/output <- inception_4b/1x1
I0403 15:42:25.496265  3386 net.cpp:425] inception_4b/output <- inception_4b/3x3
I0403 15:42:25.496287  3386 net.cpp:425] inception_4b/output <- inception_4b/5x5
I0403 15:42:25.496304  3386 net.cpp:425] inception_4b/output <- inception_4b/pool_proj
I0403 15:42:25.496321  3386 net.cpp:399] inception_4b/output -> inception_4b/output
I0403 15:42:25.496368  3386 net.cpp:141] Setting up inception_4b/output
I0403 15:42:25.496392  3386 net.cpp:148] Top shape: 24 512 14 14 (2408448)
I0403 15:42:25.496405  3386 net.cpp:156] Memory required for data: 989857056
I0403 15:42:25.496449  3386 layer_factory.hpp:77] Creating layer inception_4b/output_inception_4b/output_0_split
I0403 15:42:25.496471  3386 net.cpp:91] Creating Layer inception_4b/output_inception_4b/output_0_split
I0403 15:42:25.496489  3386 net.cpp:425] inception_4b/output_inception_4b/output_0_split <- inception_4b/output
I0403 15:42:25.496506  3386 net.cpp:399] inception_4b/output_inception_4b/output_0_split -> inception_4b/output_inception_4b/output_0_split_0
I0403 15:42:25.496527  3386 net.cpp:399] inception_4b/output_inception_4b/output_0_split -> inception_4b/output_inception_4b/output_0_split_1
I0403 15:42:25.496547  3386 net.cpp:399] inception_4b/output_inception_4b/output_0_split -> inception_4b/output_inception_4b/output_0_split_2
I0403 15:42:25.496568  3386 net.cpp:399] inception_4b/output_inception_4b/output_0_split -> inception_4b/output_inception_4b/output_0_split_3
I0403 15:42:25.496650  3386 net.cpp:141] Setting up inception_4b/output_inception_4b/output_0_split
I0403 15:42:25.496673  3386 net.cpp:148] Top shape: 24 512 14 14 (2408448)
I0403 15:42:25.496690  3386 net.cpp:148] Top shape: 24 512 14 14 (2408448)
I0403 15:42:25.496706  3386 net.cpp:148] Top shape: 24 512 14 14 (2408448)
I0403 15:42:25.496721  3386 net.cpp:148] Top shape: 24 512 14 14 (2408448)
I0403 15:42:25.496734  3386 net.cpp:156] Memory required for data: 1028392224
I0403 15:42:25.496748  3386 layer_factory.hpp:77] Creating layer inception_4c/1x1
I0403 15:42:25.496770  3386 net.cpp:91] Creating Layer inception_4c/1x1
I0403 15:42:25.496788  3386 net.cpp:425] inception_4c/1x1 <- inception_4b/output_inception_4b/output_0_split_0
I0403 15:42:25.496809  3386 net.cpp:399] inception_4c/1x1 -> inception_4c/1x1
I0403 15:42:25.498199  3386 net.cpp:141] Setting up inception_4c/1x1
I0403 15:42:25.498230  3386 net.cpp:148] Top shape: 24 128 14 14 (602112)
I0403 15:42:25.498247  3386 net.cpp:156] Memory required for data: 1030800672
I0403 15:42:25.498265  3386 layer_factory.hpp:77] Creating layer inception_4c/relu_1x1
I0403 15:42:25.498289  3386 net.cpp:91] Creating Layer inception_4c/relu_1x1
I0403 15:42:25.498306  3386 net.cpp:425] inception_4c/relu_1x1 <- inception_4c/1x1
I0403 15:42:25.498323  3386 net.cpp:386] inception_4c/relu_1x1 -> inception_4c/1x1 (in-place)
I0403 15:42:25.498502  3386 net.cpp:141] Setting up inception_4c/relu_1x1
I0403 15:42:25.498527  3386 net.cpp:148] Top shape: 24 128 14 14 (602112)
I0403 15:42:25.498541  3386 net.cpp:156] Memory required for data: 1033209120
I0403 15:42:25.498555  3386 layer_factory.hpp:77] Creating layer inception_4c/3x3_reduce
I0403 15:42:25.498579  3386 net.cpp:91] Creating Layer inception_4c/3x3_reduce
I0403 15:42:25.498596  3386 net.cpp:425] inception_4c/3x3_reduce <- inception_4b/output_inception_4b/output_0_split_1
I0403 15:42:25.498617  3386 net.cpp:399] inception_4c/3x3_reduce -> inception_4c/3x3_reduce
I0403 15:42:25.500633  3386 net.cpp:141] Setting up inception_4c/3x3_reduce
I0403 15:42:25.500663  3386 net.cpp:148] Top shape: 24 128 14 14 (602112)
I0403 15:42:25.500679  3386 net.cpp:156] Memory required for data: 1035617568
I0403 15:42:25.500697  3386 layer_factory.hpp:77] Creating layer inception_4c/relu_3x3_reduce
I0403 15:42:25.500720  3386 net.cpp:91] Creating Layer inception_4c/relu_3x3_reduce
I0403 15:42:25.500737  3386 net.cpp:425] inception_4c/relu_3x3_reduce <- inception_4c/3x3_reduce
I0403 15:42:25.500756  3386 net.cpp:386] inception_4c/relu_3x3_reduce -> inception_4c/3x3_reduce (in-place)
I0403 15:42:25.501046  3386 net.cpp:141] Setting up inception_4c/relu_3x3_reduce
I0403 15:42:25.501072  3386 net.cpp:148] Top shape: 24 128 14 14 (602112)
I0403 15:42:25.501087  3386 net.cpp:156] Memory required for data: 1038026016
I0403 15:42:25.501101  3386 layer_factory.hpp:77] Creating layer inception_4c/3x3
I0403 15:42:25.501123  3386 net.cpp:91] Creating Layer inception_4c/3x3
I0403 15:42:25.501140  3386 net.cpp:425] inception_4c/3x3 <- inception_4c/3x3_reduce
I0403 15:42:25.501163  3386 net.cpp:399] inception_4c/3x3 -> inception_4c/3x3
I0403 15:42:25.504704  3386 net.cpp:141] Setting up inception_4c/3x3
I0403 15:42:25.504752  3386 net.cpp:148] Top shape: 24 256 14 14 (1204224)
I0403 15:42:25.504770  3386 net.cpp:156] Memory required for data: 1042842912
I0403 15:42:25.504802  3386 layer_factory.hpp:77] Creating layer inception_4c/relu_3x3
I0403 15:42:25.504825  3386 net.cpp:91] Creating Layer inception_4c/relu_3x3
I0403 15:42:25.504842  3386 net.cpp:425] inception_4c/relu_3x3 <- inception_4c/3x3
I0403 15:42:25.504860  3386 net.cpp:386] inception_4c/relu_3x3 -> inception_4c/3x3 (in-place)
I0403 15:42:25.505048  3386 net.cpp:141] Setting up inception_4c/relu_3x3
I0403 15:42:25.505074  3386 net.cpp:148] Top shape: 24 256 14 14 (1204224)
I0403 15:42:25.505089  3386 net.cpp:156] Memory required for data: 1047659808
I0403 15:42:25.505103  3386 layer_factory.hpp:77] Creating layer inception_4c/5x5_reduce
I0403 15:42:25.505127  3386 net.cpp:91] Creating Layer inception_4c/5x5_reduce
I0403 15:42:25.505146  3386 net.cpp:425] inception_4c/5x5_reduce <- inception_4b/output_inception_4b/output_0_split_2
I0403 15:42:25.505168  3386 net.cpp:399] inception_4c/5x5_reduce -> inception_4c/5x5_reduce
I0403 15:42:25.506250  3386 net.cpp:141] Setting up inception_4c/5x5_reduce
I0403 15:42:25.506283  3386 net.cpp:148] Top shape: 24 24 14 14 (112896)
I0403 15:42:25.506299  3386 net.cpp:156] Memory required for data: 1048111392
I0403 15:42:25.506319  3386 layer_factory.hpp:77] Creating layer inception_4c/relu_5x5_reduce
I0403 15:42:25.506340  3386 net.cpp:91] Creating Layer inception_4c/relu_5x5_reduce
I0403 15:42:25.506358  3386 net.cpp:425] inception_4c/relu_5x5_reduce <- inception_4c/5x5_reduce
I0403 15:42:25.506376  3386 net.cpp:386] inception_4c/relu_5x5_reduce -> inception_4c/5x5_reduce (in-place)
I0403 15:42:25.506556  3386 net.cpp:141] Setting up inception_4c/relu_5x5_reduce
I0403 15:42:25.506580  3386 net.cpp:148] Top shape: 24 24 14 14 (112896)
I0403 15:42:25.506594  3386 net.cpp:156] Memory required for data: 1048562976
I0403 15:42:25.506609  3386 layer_factory.hpp:77] Creating layer inception_4c/5x5
I0403 15:42:25.506633  3386 net.cpp:91] Creating Layer inception_4c/5x5
I0403 15:42:25.506650  3386 net.cpp:425] inception_4c/5x5 <- inception_4c/5x5_reduce
I0403 15:42:25.506669  3386 net.cpp:399] inception_4c/5x5 -> inception_4c/5x5
I0403 15:42:25.507863  3386 net.cpp:141] Setting up inception_4c/5x5
I0403 15:42:25.507894  3386 net.cpp:148] Top shape: 24 64 14 14 (301056)
I0403 15:42:25.507910  3386 net.cpp:156] Memory required for data: 1049767200
I0403 15:42:25.507927  3386 layer_factory.hpp:77] Creating layer inception_4c/relu_5x5
I0403 15:42:25.507946  3386 net.cpp:91] Creating Layer inception_4c/relu_5x5
I0403 15:42:25.507961  3386 net.cpp:425] inception_4c/relu_5x5 <- inception_4c/5x5
I0403 15:42:25.507978  3386 net.cpp:386] inception_4c/relu_5x5 -> inception_4c/5x5 (in-place)
I0403 15:42:25.508258  3386 net.cpp:141] Setting up inception_4c/relu_5x5
I0403 15:42:25.508291  3386 net.cpp:148] Top shape: 24 64 14 14 (301056)
I0403 15:42:25.508307  3386 net.cpp:156] Memory required for data: 1050971424
I0403 15:42:25.508322  3386 layer_factory.hpp:77] Creating layer inception_4c/pool
I0403 15:42:25.508342  3386 net.cpp:91] Creating Layer inception_4c/pool
I0403 15:42:25.508358  3386 net.cpp:425] inception_4c/pool <- inception_4b/output_inception_4b/output_0_split_3
I0403 15:42:25.508376  3386 net.cpp:399] inception_4c/pool -> inception_4c/pool
I0403 15:42:25.508440  3386 net.cpp:141] Setting up inception_4c/pool
I0403 15:42:25.508462  3386 net.cpp:148] Top shape: 24 512 14 14 (2408448)
I0403 15:42:25.508477  3386 net.cpp:156] Memory required for data: 1060605216
I0403 15:42:25.508491  3386 layer_factory.hpp:77] Creating layer inception_4c/pool_proj
I0403 15:42:25.508513  3386 net.cpp:91] Creating Layer inception_4c/pool_proj
I0403 15:42:25.508532  3386 net.cpp:425] inception_4c/pool_proj <- inception_4c/pool
I0403 15:42:25.508553  3386 net.cpp:399] inception_4c/pool_proj -> inception_4c/pool_proj
I0403 15:42:25.509718  3386 net.cpp:141] Setting up inception_4c/pool_proj
I0403 15:42:25.509747  3386 net.cpp:148] Top shape: 24 64 14 14 (301056)
I0403 15:42:25.509778  3386 net.cpp:156] Memory required for data: 1061809440
I0403 15:42:25.509796  3386 layer_factory.hpp:77] Creating layer inception_4c/relu_pool_proj
I0403 15:42:25.509816  3386 net.cpp:91] Creating Layer inception_4c/relu_pool_proj
I0403 15:42:25.509834  3386 net.cpp:425] inception_4c/relu_pool_proj <- inception_4c/pool_proj
I0403 15:42:25.509851  3386 net.cpp:386] inception_4c/relu_pool_proj -> inception_4c/pool_proj (in-place)
I0403 15:42:25.510025  3386 net.cpp:141] Setting up inception_4c/relu_pool_proj
I0403 15:42:25.510052  3386 net.cpp:148] Top shape: 24 64 14 14 (301056)
I0403 15:42:25.510067  3386 net.cpp:156] Memory required for data: 1063013664
I0403 15:42:25.510082  3386 layer_factory.hpp:77] Creating layer inception_4c/output
I0403 15:42:25.510099  3386 net.cpp:91] Creating Layer inception_4c/output
I0403 15:42:25.510114  3386 net.cpp:425] inception_4c/output <- inception_4c/1x1
I0403 15:42:25.510129  3386 net.cpp:425] inception_4c/output <- inception_4c/3x3
I0403 15:42:25.510145  3386 net.cpp:425] inception_4c/output <- inception_4c/5x5
I0403 15:42:25.510160  3386 net.cpp:425] inception_4c/output <- inception_4c/pool_proj
I0403 15:42:25.510179  3386 net.cpp:399] inception_4c/output -> inception_4c/output
I0403 15:42:25.510226  3386 net.cpp:141] Setting up inception_4c/output
I0403 15:42:25.510248  3386 net.cpp:148] Top shape: 24 512 14 14 (2408448)
I0403 15:42:25.510263  3386 net.cpp:156] Memory required for data: 1072647456
I0403 15:42:25.510283  3386 layer_factory.hpp:77] Creating layer inception_4c/output_inception_4c/output_0_split
I0403 15:42:25.510303  3386 net.cpp:91] Creating Layer inception_4c/output_inception_4c/output_0_split
I0403 15:42:25.510319  3386 net.cpp:425] inception_4c/output_inception_4c/output_0_split <- inception_4c/output
I0403 15:42:25.510337  3386 net.cpp:399] inception_4c/output_inception_4c/output_0_split -> inception_4c/output_inception_4c/output_0_split_0
I0403 15:42:25.510357  3386 net.cpp:399] inception_4c/output_inception_4c/output_0_split -> inception_4c/output_inception_4c/output_0_split_1
I0403 15:42:25.510380  3386 net.cpp:399] inception_4c/output_inception_4c/output_0_split -> inception_4c/output_inception_4c/output_0_split_2
I0403 15:42:25.510401  3386 net.cpp:399] inception_4c/output_inception_4c/output_0_split -> inception_4c/output_inception_4c/output_0_split_3
I0403 15:42:25.510484  3386 net.cpp:141] Setting up inception_4c/output_inception_4c/output_0_split
I0403 15:42:25.510507  3386 net.cpp:148] Top shape: 24 512 14 14 (2408448)
I0403 15:42:25.510524  3386 net.cpp:148] Top shape: 24 512 14 14 (2408448)
I0403 15:42:25.510540  3386 net.cpp:148] Top shape: 24 512 14 14 (2408448)
I0403 15:42:25.510555  3386 net.cpp:148] Top shape: 24 512 14 14 (2408448)
I0403 15:42:25.510568  3386 net.cpp:156] Memory required for data: 1111182624
I0403 15:42:25.510583  3386 layer_factory.hpp:77] Creating layer inception_4d/1x1
I0403 15:42:25.510607  3386 net.cpp:91] Creating Layer inception_4d/1x1
I0403 15:42:25.510623  3386 net.cpp:425] inception_4d/1x1 <- inception_4c/output_inception_4c/output_0_split_0
I0403 15:42:25.510644  3386 net.cpp:399] inception_4d/1x1 -> inception_4d/1x1
I0403 15:42:25.512017  3386 net.cpp:141] Setting up inception_4d/1x1
I0403 15:42:25.512045  3386 net.cpp:148] Top shape: 24 112 14 14 (526848)
I0403 15:42:25.512061  3386 net.cpp:156] Memory required for data: 1113290016
I0403 15:42:25.512079  3386 layer_factory.hpp:77] Creating layer inception_4d/relu_1x1
I0403 15:42:25.512099  3386 net.cpp:91] Creating Layer inception_4d/relu_1x1
I0403 15:42:25.512115  3386 net.cpp:425] inception_4d/relu_1x1 <- inception_4d/1x1
I0403 15:42:25.512135  3386 net.cpp:386] inception_4d/relu_1x1 -> inception_4d/1x1 (in-place)
I0403 15:42:25.512318  3386 net.cpp:141] Setting up inception_4d/relu_1x1
I0403 15:42:25.512343  3386 net.cpp:148] Top shape: 24 112 14 14 (526848)
I0403 15:42:25.512359  3386 net.cpp:156] Memory required for data: 1115397408
I0403 15:42:25.512374  3386 layer_factory.hpp:77] Creating layer inception_4d/3x3_reduce
I0403 15:42:25.512411  3386 net.cpp:91] Creating Layer inception_4d/3x3_reduce
I0403 15:42:25.512431  3386 net.cpp:425] inception_4d/3x3_reduce <- inception_4c/output_inception_4c/output_0_split_1
I0403 15:42:25.512454  3386 net.cpp:399] inception_4d/3x3_reduce -> inception_4d/3x3_reduce
I0403 15:42:25.513955  3386 net.cpp:141] Setting up inception_4d/3x3_reduce
I0403 15:42:25.513986  3386 net.cpp:148] Top shape: 24 144 14 14 (677376)
I0403 15:42:25.514003  3386 net.cpp:156] Memory required for data: 1118106912
I0403 15:42:25.514021  3386 layer_factory.hpp:77] Creating layer inception_4d/relu_3x3_reduce
I0403 15:42:25.514040  3386 net.cpp:91] Creating Layer inception_4d/relu_3x3_reduce
I0403 15:42:25.514056  3386 net.cpp:425] inception_4d/relu_3x3_reduce <- inception_4d/3x3_reduce
I0403 15:42:25.514076  3386 net.cpp:386] inception_4d/relu_3x3_reduce -> inception_4d/3x3_reduce (in-place)
I0403 15:42:25.514367  3386 net.cpp:141] Setting up inception_4d/relu_3x3_reduce
I0403 15:42:25.514396  3386 net.cpp:148] Top shape: 24 144 14 14 (677376)
I0403 15:42:25.514415  3386 net.cpp:156] Memory required for data: 1120816416
I0403 15:42:25.514430  3386 layer_factory.hpp:77] Creating layer inception_4d/3x3
I0403 15:42:25.514452  3386 net.cpp:91] Creating Layer inception_4d/3x3
I0403 15:42:25.514472  3386 net.cpp:425] inception_4d/3x3 <- inception_4d/3x3_reduce
I0403 15:42:25.514490  3386 net.cpp:399] inception_4d/3x3 -> inception_4d/3x3
I0403 15:42:25.518754  3386 net.cpp:141] Setting up inception_4d/3x3
I0403 15:42:25.518784  3386 net.cpp:148] Top shape: 24 288 14 14 (1354752)
I0403 15:42:25.518800  3386 net.cpp:156] Memory required for data: 1126235424
I0403 15:42:25.518818  3386 layer_factory.hpp:77] Creating layer inception_4d/relu_3x3
I0403 15:42:25.518838  3386 net.cpp:91] Creating Layer inception_4d/relu_3x3
I0403 15:42:25.518859  3386 net.cpp:425] inception_4d/relu_3x3 <- inception_4d/3x3
I0403 15:42:25.518877  3386 net.cpp:386] inception_4d/relu_3x3 -> inception_4d/3x3 (in-place)
I0403 15:42:25.519058  3386 net.cpp:141] Setting up inception_4d/relu_3x3
I0403 15:42:25.519084  3386 net.cpp:148] Top shape: 24 288 14 14 (1354752)
I0403 15:42:25.519099  3386 net.cpp:156] Memory required for data: 1131654432
I0403 15:42:25.519114  3386 layer_factory.hpp:77] Creating layer inception_4d/5x5_reduce
I0403 15:42:25.519137  3386 net.cpp:91] Creating Layer inception_4d/5x5_reduce
I0403 15:42:25.519155  3386 net.cpp:425] inception_4d/5x5_reduce <- inception_4c/output_inception_4c/output_0_split_2
I0403 15:42:25.519177  3386 net.cpp:399] inception_4d/5x5_reduce -> inception_4d/5x5_reduce
I0403 15:42:25.520316  3386 net.cpp:141] Setting up inception_4d/5x5_reduce
I0403 15:42:25.520344  3386 net.cpp:148] Top shape: 24 32 14 14 (150528)
I0403 15:42:25.520361  3386 net.cpp:156] Memory required for data: 1132256544
I0403 15:42:25.520380  3386 layer_factory.hpp:77] Creating layer inception_4d/relu_5x5_reduce
I0403 15:42:25.520398  3386 net.cpp:91] Creating Layer inception_4d/relu_5x5_reduce
I0403 15:42:25.520414  3386 net.cpp:425] inception_4d/relu_5x5_reduce <- inception_4d/5x5_reduce
I0403 15:42:25.520434  3386 net.cpp:386] inception_4d/relu_5x5_reduce -> inception_4d/5x5_reduce (in-place)
I0403 15:42:25.520619  3386 net.cpp:141] Setting up inception_4d/relu_5x5_reduce
I0403 15:42:25.520644  3386 net.cpp:148] Top shape: 24 32 14 14 (150528)
I0403 15:42:25.520659  3386 net.cpp:156] Memory required for data: 1132858656
I0403 15:42:25.520674  3386 layer_factory.hpp:77] Creating layer inception_4d/5x5
I0403 15:42:25.520697  3386 net.cpp:91] Creating Layer inception_4d/5x5
I0403 15:42:25.520715  3386 net.cpp:425] inception_4d/5x5 <- inception_4d/5x5_reduce
I0403 15:42:25.520736  3386 net.cpp:399] inception_4d/5x5 -> inception_4d/5x5
I0403 15:42:25.522259  3386 net.cpp:141] Setting up inception_4d/5x5
I0403 15:42:25.522291  3386 net.cpp:148] Top shape: 24 64 14 14 (301056)
I0403 15:42:25.522308  3386 net.cpp:156] Memory required for data: 1134062880
I0403 15:42:25.522328  3386 layer_factory.hpp:77] Creating layer inception_4d/relu_5x5
I0403 15:42:25.522370  3386 net.cpp:91] Creating Layer inception_4d/relu_5x5
I0403 15:42:25.522389  3386 net.cpp:425] inception_4d/relu_5x5 <- inception_4d/5x5
I0403 15:42:25.522406  3386 net.cpp:386] inception_4d/relu_5x5 -> inception_4d/5x5 (in-place)
I0403 15:42:25.522711  3386 net.cpp:141] Setting up inception_4d/relu_5x5
I0403 15:42:25.522738  3386 net.cpp:148] Top shape: 24 64 14 14 (301056)
I0403 15:42:25.522753  3386 net.cpp:156] Memory required for data: 1135267104
I0403 15:42:25.522768  3386 layer_factory.hpp:77] Creating layer inception_4d/pool
I0403 15:42:25.522790  3386 net.cpp:91] Creating Layer inception_4d/pool
I0403 15:42:25.522807  3386 net.cpp:425] inception_4d/pool <- inception_4c/output_inception_4c/output_0_split_3
I0403 15:42:25.522826  3386 net.cpp:399] inception_4d/pool -> inception_4d/pool
I0403 15:42:25.522894  3386 net.cpp:141] Setting up inception_4d/pool
I0403 15:42:25.522918  3386 net.cpp:148] Top shape: 24 512 14 14 (2408448)
I0403 15:42:25.522933  3386 net.cpp:156] Memory required for data: 1144900896
I0403 15:42:25.522948  3386 layer_factory.hpp:77] Creating layer inception_4d/pool_proj
I0403 15:42:25.522971  3386 net.cpp:91] Creating Layer inception_4d/pool_proj
I0403 15:42:25.522989  3386 net.cpp:425] inception_4d/pool_proj <- inception_4d/pool
I0403 15:42:25.523010  3386 net.cpp:399] inception_4d/pool_proj -> inception_4d/pool_proj
I0403 15:42:25.524797  3386 net.cpp:141] Setting up inception_4d/pool_proj
I0403 15:42:25.524827  3386 net.cpp:148] Top shape: 24 64 14 14 (301056)
I0403 15:42:25.524843  3386 net.cpp:156] Memory required for data: 1146105120
I0403 15:42:25.524862  3386 layer_factory.hpp:77] Creating layer inception_4d/relu_pool_proj
I0403 15:42:25.524880  3386 net.cpp:91] Creating Layer inception_4d/relu_pool_proj
I0403 15:42:25.524901  3386 net.cpp:425] inception_4d/relu_pool_proj <- inception_4d/pool_proj
I0403 15:42:25.524919  3386 net.cpp:386] inception_4d/relu_pool_proj -> inception_4d/pool_proj (in-place)
I0403 15:42:25.525102  3386 net.cpp:141] Setting up inception_4d/relu_pool_proj
I0403 15:42:25.525127  3386 net.cpp:148] Top shape: 24 64 14 14 (301056)
I0403 15:42:25.525142  3386 net.cpp:156] Memory required for data: 1147309344
I0403 15:42:25.525157  3386 layer_factory.hpp:77] Creating layer inception_4d/output
I0403 15:42:25.525177  3386 net.cpp:91] Creating Layer inception_4d/output
I0403 15:42:25.525194  3386 net.cpp:425] inception_4d/output <- inception_4d/1x1
I0403 15:42:25.525212  3386 net.cpp:425] inception_4d/output <- inception_4d/3x3
I0403 15:42:25.525228  3386 net.cpp:425] inception_4d/output <- inception_4d/5x5
I0403 15:42:25.525244  3386 net.cpp:425] inception_4d/output <- inception_4d/pool_proj
I0403 15:42:25.525261  3386 net.cpp:399] inception_4d/output -> inception_4d/output
I0403 15:42:25.525317  3386 net.cpp:141] Setting up inception_4d/output
I0403 15:42:25.525341  3386 net.cpp:148] Top shape: 24 528 14 14 (2483712)
I0403 15:42:25.525357  3386 net.cpp:156] Memory required for data: 1157244192
I0403 15:42:25.525372  3386 layer_factory.hpp:77] Creating layer inception_4d/output_inception_4d/output_0_split
I0403 15:42:25.525390  3386 net.cpp:91] Creating Layer inception_4d/output_inception_4d/output_0_split
I0403 15:42:25.525405  3386 net.cpp:425] inception_4d/output_inception_4d/output_0_split <- inception_4d/output
I0403 15:42:25.525425  3386 net.cpp:399] inception_4d/output_inception_4d/output_0_split -> inception_4d/output_inception_4d/output_0_split_0
I0403 15:42:25.525447  3386 net.cpp:399] inception_4d/output_inception_4d/output_0_split -> inception_4d/output_inception_4d/output_0_split_1
I0403 15:42:25.525470  3386 net.cpp:399] inception_4d/output_inception_4d/output_0_split -> inception_4d/output_inception_4d/output_0_split_2
I0403 15:42:25.525492  3386 net.cpp:399] inception_4d/output_inception_4d/output_0_split -> inception_4d/output_inception_4d/output_0_split_3
I0403 15:42:25.525513  3386 net.cpp:399] inception_4d/output_inception_4d/output_0_split -> inception_4d/output_inception_4d/output_0_split_4
I0403 15:42:25.525619  3386 net.cpp:141] Setting up inception_4d/output_inception_4d/output_0_split
I0403 15:42:25.525655  3386 net.cpp:148] Top shape: 24 528 14 14 (2483712)
I0403 15:42:25.525672  3386 net.cpp:148] Top shape: 24 528 14 14 (2483712)
I0403 15:42:25.525688  3386 net.cpp:148] Top shape: 24 528 14 14 (2483712)
I0403 15:42:25.525704  3386 net.cpp:148] Top shape: 24 528 14 14 (2483712)
I0403 15:42:25.525720  3386 net.cpp:148] Top shape: 24 528 14 14 (2483712)
I0403 15:42:25.525735  3386 net.cpp:156] Memory required for data: 1206918432
I0403 15:42:25.525749  3386 layer_factory.hpp:77] Creating layer loss2/ave_pool
I0403 15:42:25.525768  3386 net.cpp:91] Creating Layer loss2/ave_pool
I0403 15:42:25.525785  3386 net.cpp:425] loss2/ave_pool <- inception_4d/output_inception_4d/output_0_split_0
I0403 15:42:25.525806  3386 net.cpp:399] loss2/ave_pool -> loss2/ave_pool
I0403 15:42:25.526114  3386 net.cpp:141] Setting up loss2/ave_pool
I0403 15:42:25.526142  3386 net.cpp:148] Top shape: 24 528 4 4 (202752)
I0403 15:42:25.526159  3386 net.cpp:156] Memory required for data: 1207729440
I0403 15:42:25.526173  3386 layer_factory.hpp:77] Creating layer loss2/conv
I0403 15:42:25.526196  3386 net.cpp:91] Creating Layer loss2/conv
I0403 15:42:25.526216  3386 net.cpp:425] loss2/conv <- loss2/ave_pool
I0403 15:42:25.526238  3386 net.cpp:399] loss2/conv -> loss2/conv
I0403 15:42:25.528146  3386 net.cpp:141] Setting up loss2/conv
I0403 15:42:25.528177  3386 net.cpp:148] Top shape: 24 128 4 4 (49152)
I0403 15:42:25.528194  3386 net.cpp:156] Memory required for data: 1207926048
I0403 15:42:25.528214  3386 layer_factory.hpp:77] Creating layer loss2/relu_conv
I0403 15:42:25.528235  3386 net.cpp:91] Creating Layer loss2/relu_conv
I0403 15:42:25.528254  3386 net.cpp:425] loss2/relu_conv <- loss2/conv
I0403 15:42:25.528275  3386 net.cpp:386] loss2/relu_conv -> loss2/conv (in-place)
I0403 15:42:25.528563  3386 net.cpp:141] Setting up loss2/relu_conv
I0403 15:42:25.528589  3386 net.cpp:148] Top shape: 24 128 4 4 (49152)
I0403 15:42:25.528604  3386 net.cpp:156] Memory required for data: 1208122656
I0403 15:42:25.528620  3386 layer_factory.hpp:77] Creating layer loss2/fc
I0403 15:42:25.528642  3386 net.cpp:91] Creating Layer loss2/fc
I0403 15:42:25.528661  3386 net.cpp:425] loss2/fc <- loss2/conv
I0403 15:42:25.528687  3386 net.cpp:399] loss2/fc -> loss2/fc
I0403 15:42:25.546105  3386 net.cpp:141] Setting up loss2/fc
I0403 15:42:25.546186  3386 net.cpp:148] Top shape: 24 1024 (24576)
I0403 15:42:25.546202  3386 net.cpp:156] Memory required for data: 1208220960
I0403 15:42:25.546223  3386 layer_factory.hpp:77] Creating layer loss2/relu_fc
I0403 15:42:25.546246  3386 net.cpp:91] Creating Layer loss2/relu_fc
I0403 15:42:25.546267  3386 net.cpp:425] loss2/relu_fc <- loss2/fc
I0403 15:42:25.546293  3386 net.cpp:386] loss2/relu_fc -> loss2/fc (in-place)
I0403 15:42:25.546661  3386 net.cpp:141] Setting up loss2/relu_fc
I0403 15:42:25.546687  3386 net.cpp:148] Top shape: 24 1024 (24576)
I0403 15:42:25.546702  3386 net.cpp:156] Memory required for data: 1208319264
I0403 15:42:25.546717  3386 layer_factory.hpp:77] Creating layer loss2/drop_fc
I0403 15:42:25.546736  3386 net.cpp:91] Creating Layer loss2/drop_fc
I0403 15:42:25.546751  3386 net.cpp:425] loss2/drop_fc <- loss2/fc
I0403 15:42:25.546772  3386 net.cpp:386] loss2/drop_fc -> loss2/fc (in-place)
I0403 15:42:25.546820  3386 net.cpp:141] Setting up loss2/drop_fc
I0403 15:42:25.546845  3386 net.cpp:148] Top shape: 24 1024 (24576)
I0403 15:42:25.546860  3386 net.cpp:156] Memory required for data: 1208417568
I0403 15:42:25.546875  3386 layer_factory.hpp:77] Creating layer loss2/classifier_plantvillage
I0403 15:42:25.546895  3386 net.cpp:91] Creating Layer loss2/classifier_plantvillage
I0403 15:42:25.546910  3386 net.cpp:425] loss2/classifier_plantvillage <- loss2/fc
I0403 15:42:25.546931  3386 net.cpp:399] loss2/classifier_plantvillage -> loss2/classifier_plantvillage
I0403 15:42:25.547340  3386 net.cpp:141] Setting up loss2/classifier_plantvillage
I0403 15:42:25.547365  3386 net.cpp:148] Top shape: 24 38 (912)
I0403 15:42:25.547410  3386 net.cpp:156] Memory required for data: 1208421216
I0403 15:42:25.547428  3386 layer_factory.hpp:77] Creating layer loss2/classifier_plantvillage_loss2/classifier_plantvillage_0_split
I0403 15:42:25.547451  3386 net.cpp:91] Creating Layer loss2/classifier_plantvillage_loss2/classifier_plantvillage_0_split
I0403 15:42:25.547469  3386 net.cpp:425] loss2/classifier_plantvillage_loss2/classifier_plantvillage_0_split <- loss2/classifier_plantvillage
I0403 15:42:25.547488  3386 net.cpp:399] loss2/classifier_plantvillage_loss2/classifier_plantvillage_0_split -> loss2/classifier_plantvillage_loss2/classifier_plantvillage_0_split_0
I0403 15:42:25.547511  3386 net.cpp:399] loss2/classifier_plantvillage_loss2/classifier_plantvillage_0_split -> loss2/classifier_plantvillage_loss2/classifier_plantvillage_0_split_1
I0403 15:42:25.547533  3386 net.cpp:399] loss2/classifier_plantvillage_loss2/classifier_plantvillage_0_split -> loss2/classifier_plantvillage_loss2/classifier_plantvillage_0_split_2
I0403 15:42:25.547606  3386 net.cpp:141] Setting up loss2/classifier_plantvillage_loss2/classifier_plantvillage_0_split
I0403 15:42:25.547628  3386 net.cpp:148] Top shape: 24 38 (912)
I0403 15:42:25.547646  3386 net.cpp:148] Top shape: 24 38 (912)
I0403 15:42:25.547662  3386 net.cpp:148] Top shape: 24 38 (912)
I0403 15:42:25.547677  3386 net.cpp:156] Memory required for data: 1208432160
I0403 15:42:25.547691  3386 layer_factory.hpp:77] Creating layer inception_4e/1x1
I0403 15:42:25.547714  3386 net.cpp:91] Creating Layer inception_4e/1x1
I0403 15:42:25.547734  3386 net.cpp:425] inception_4e/1x1 <- inception_4d/output_inception_4d/output_0_split_1
I0403 15:42:25.547754  3386 net.cpp:399] inception_4e/1x1 -> inception_4e/1x1
I0403 15:42:25.549551  3386 net.cpp:141] Setting up inception_4e/1x1
I0403 15:42:25.549581  3386 net.cpp:148] Top shape: 24 256 14 14 (1204224)
I0403 15:42:25.549597  3386 net.cpp:156] Memory required for data: 1213249056
I0403 15:42:25.549614  3386 layer_factory.hpp:77] Creating layer inception_4e/relu_1x1
I0403 15:42:25.549633  3386 net.cpp:91] Creating Layer inception_4e/relu_1x1
I0403 15:42:25.549649  3386 net.cpp:425] inception_4e/relu_1x1 <- inception_4e/1x1
I0403 15:42:25.549666  3386 net.cpp:386] inception_4e/relu_1x1 -> inception_4e/1x1 (in-place)
I0403 15:42:25.549947  3386 net.cpp:141] Setting up inception_4e/relu_1x1
I0403 15:42:25.549975  3386 net.cpp:148] Top shape: 24 256 14 14 (1204224)
I0403 15:42:25.549991  3386 net.cpp:156] Memory required for data: 1218065952
I0403 15:42:25.550005  3386 layer_factory.hpp:77] Creating layer inception_4e/3x3_reduce
I0403 15:42:25.550025  3386 net.cpp:91] Creating Layer inception_4e/3x3_reduce
I0403 15:42:25.550042  3386 net.cpp:425] inception_4e/3x3_reduce <- inception_4d/output_inception_4d/output_0_split_2
I0403 15:42:25.550063  3386 net.cpp:399] inception_4e/3x3_reduce -> inception_4e/3x3_reduce
I0403 15:42:25.552170  3386 net.cpp:141] Setting up inception_4e/3x3_reduce
I0403 15:42:25.552198  3386 net.cpp:148] Top shape: 24 160 14 14 (752640)
I0403 15:42:25.552216  3386 net.cpp:156] Memory required for data: 1221076512
I0403 15:42:25.552233  3386 layer_factory.hpp:77] Creating layer inception_4e/relu_3x3_reduce
I0403 15:42:25.552253  3386 net.cpp:91] Creating Layer inception_4e/relu_3x3_reduce
I0403 15:42:25.552269  3386 net.cpp:425] inception_4e/relu_3x3_reduce <- inception_4e/3x3_reduce
I0403 15:42:25.552292  3386 net.cpp:386] inception_4e/relu_3x3_reduce -> inception_4e/3x3_reduce (in-place)
I0403 15:42:25.552470  3386 net.cpp:141] Setting up inception_4e/relu_3x3_reduce
I0403 15:42:25.552496  3386 net.cpp:148] Top shape: 24 160 14 14 (752640)
I0403 15:42:25.552512  3386 net.cpp:156] Memory required for data: 1224087072
I0403 15:42:25.552527  3386 layer_factory.hpp:77] Creating layer inception_4e/3x3
I0403 15:42:25.552549  3386 net.cpp:91] Creating Layer inception_4e/3x3
I0403 15:42:25.552567  3386 net.cpp:425] inception_4e/3x3 <- inception_4e/3x3_reduce
I0403 15:42:25.552587  3386 net.cpp:399] inception_4e/3x3 -> inception_4e/3x3
I0403 15:42:25.557459  3386 net.cpp:141] Setting up inception_4e/3x3
I0403 15:42:25.557507  3386 net.cpp:148] Top shape: 24 320 14 14 (1505280)
I0403 15:42:25.557523  3386 net.cpp:156] Memory required for data: 1230108192
I0403 15:42:25.557543  3386 layer_factory.hpp:77] Creating layer inception_4e/relu_3x3
I0403 15:42:25.557560  3386 net.cpp:91] Creating Layer inception_4e/relu_3x3
I0403 15:42:25.557576  3386 net.cpp:425] inception_4e/relu_3x3 <- inception_4e/3x3
I0403 15:42:25.557593  3386 net.cpp:386] inception_4e/relu_3x3 -> inception_4e/3x3 (in-place)
I0403 15:42:25.557884  3386 net.cpp:141] Setting up inception_4e/relu_3x3
I0403 15:42:25.557910  3386 net.cpp:148] Top shape: 24 320 14 14 (1505280)
I0403 15:42:25.557925  3386 net.cpp:156] Memory required for data: 1236129312
I0403 15:42:25.557940  3386 layer_factory.hpp:77] Creating layer inception_4e/5x5_reduce
I0403 15:42:25.557963  3386 net.cpp:91] Creating Layer inception_4e/5x5_reduce
I0403 15:42:25.557981  3386 net.cpp:425] inception_4e/5x5_reduce <- inception_4d/output_inception_4d/output_0_split_3
I0403 15:42:25.558002  3386 net.cpp:399] inception_4e/5x5_reduce -> inception_4e/5x5_reduce
I0403 15:42:25.559029  3386 net.cpp:141] Setting up inception_4e/5x5_reduce
I0403 15:42:25.559056  3386 net.cpp:148] Top shape: 24 32 14 14 (150528)
I0403 15:42:25.559072  3386 net.cpp:156] Memory required for data: 1236731424
I0403 15:42:25.559089  3386 layer_factory.hpp:77] Creating layer inception_4e/relu_5x5_reduce
I0403 15:42:25.559109  3386 net.cpp:91] Creating Layer inception_4e/relu_5x5_reduce
I0403 15:42:25.559126  3386 net.cpp:425] inception_4e/relu_5x5_reduce <- inception_4e/5x5_reduce
I0403 15:42:25.559144  3386 net.cpp:386] inception_4e/relu_5x5_reduce -> inception_4e/5x5_reduce (in-place)
I0403 15:42:25.559433  3386 net.cpp:141] Setting up inception_4e/relu_5x5_reduce
I0403 15:42:25.559459  3386 net.cpp:148] Top shape: 24 32 14 14 (150528)
I0403 15:42:25.559475  3386 net.cpp:156] Memory required for data: 1237333536
I0403 15:42:25.559489  3386 layer_factory.hpp:77] Creating layer inception_4e/5x5
I0403 15:42:25.559530  3386 net.cpp:91] Creating Layer inception_4e/5x5
I0403 15:42:25.559550  3386 net.cpp:425] inception_4e/5x5 <- inception_4e/5x5_reduce
I0403 15:42:25.559571  3386 net.cpp:399] inception_4e/5x5 -> inception_4e/5x5
I0403 15:42:25.561352  3386 net.cpp:141] Setting up inception_4e/5x5
I0403 15:42:25.561380  3386 net.cpp:148] Top shape: 24 128 14 14 (602112)
I0403 15:42:25.561396  3386 net.cpp:156] Memory required for data: 1239741984
I0403 15:42:25.561414  3386 layer_factory.hpp:77] Creating layer inception_4e/relu_5x5
I0403 15:42:25.561434  3386 net.cpp:91] Creating Layer inception_4e/relu_5x5
I0403 15:42:25.561451  3386 net.cpp:425] inception_4e/relu_5x5 <- inception_4e/5x5
I0403 15:42:25.561470  3386 net.cpp:386] inception_4e/relu_5x5 -> inception_4e/5x5 (in-place)
I0403 15:42:25.561661  3386 net.cpp:141] Setting up inception_4e/relu_5x5
I0403 15:42:25.561686  3386 net.cpp:148] Top shape: 24 128 14 14 (602112)
I0403 15:42:25.561699  3386 net.cpp:156] Memory required for data: 1242150432
I0403 15:42:25.561714  3386 layer_factory.hpp:77] Creating layer inception_4e/pool
I0403 15:42:25.561735  3386 net.cpp:91] Creating Layer inception_4e/pool
I0403 15:42:25.561751  3386 net.cpp:425] inception_4e/pool <- inception_4d/output_inception_4d/output_0_split_4
I0403 15:42:25.561770  3386 net.cpp:399] inception_4e/pool -> inception_4e/pool
I0403 15:42:25.561841  3386 net.cpp:141] Setting up inception_4e/pool
I0403 15:42:25.561863  3386 net.cpp:148] Top shape: 24 528 14 14 (2483712)
I0403 15:42:25.561878  3386 net.cpp:156] Memory required for data: 1252085280
I0403 15:42:25.561892  3386 layer_factory.hpp:77] Creating layer inception_4e/pool_proj
I0403 15:42:25.561913  3386 net.cpp:91] Creating Layer inception_4e/pool_proj
I0403 15:42:25.561931  3386 net.cpp:425] inception_4e/pool_proj <- inception_4e/pool
I0403 15:42:25.561954  3386 net.cpp:399] inception_4e/pool_proj -> inception_4e/pool_proj
I0403 15:42:25.563431  3386 net.cpp:141] Setting up inception_4e/pool_proj
I0403 15:42:25.563472  3386 net.cpp:148] Top shape: 24 128 14 14 (602112)
I0403 15:42:25.563488  3386 net.cpp:156] Memory required for data: 1254493728
I0403 15:42:25.563506  3386 layer_factory.hpp:77] Creating layer inception_4e/relu_pool_proj
I0403 15:42:25.563529  3386 net.cpp:91] Creating Layer inception_4e/relu_pool_proj
I0403 15:42:25.563546  3386 net.cpp:425] inception_4e/relu_pool_proj <- inception_4e/pool_proj
I0403 15:42:25.563565  3386 net.cpp:386] inception_4e/relu_pool_proj -> inception_4e/pool_proj (in-place)
I0403 15:42:25.563850  3386 net.cpp:141] Setting up inception_4e/relu_pool_proj
I0403 15:42:25.563876  3386 net.cpp:148] Top shape: 24 128 14 14 (602112)
I0403 15:42:25.563891  3386 net.cpp:156] Memory required for data: 1256902176
I0403 15:42:25.563906  3386 layer_factory.hpp:77] Creating layer inception_4e/output
I0403 15:42:25.563925  3386 net.cpp:91] Creating Layer inception_4e/output
I0403 15:42:25.563941  3386 net.cpp:425] inception_4e/output <- inception_4e/1x1
I0403 15:42:25.563956  3386 net.cpp:425] inception_4e/output <- inception_4e/3x3
I0403 15:42:25.563973  3386 net.cpp:425] inception_4e/output <- inception_4e/5x5
I0403 15:42:25.563989  3386 net.cpp:425] inception_4e/output <- inception_4e/pool_proj
I0403 15:42:25.564009  3386 net.cpp:399] inception_4e/output -> inception_4e/output
I0403 15:42:25.564060  3386 net.cpp:141] Setting up inception_4e/output
I0403 15:42:25.564087  3386 net.cpp:148] Top shape: 24 832 14 14 (3913728)
I0403 15:42:25.564103  3386 net.cpp:156] Memory required for data: 1272557088
I0403 15:42:25.564118  3386 layer_factory.hpp:77] Creating layer pool4/3x3_s2
I0403 15:42:25.564136  3386 net.cpp:91] Creating Layer pool4/3x3_s2
I0403 15:42:25.564152  3386 net.cpp:425] pool4/3x3_s2 <- inception_4e/output
I0403 15:42:25.564185  3386 net.cpp:399] pool4/3x3_s2 -> pool4/3x3_s2
I0403 15:42:25.564255  3386 net.cpp:141] Setting up pool4/3x3_s2
I0403 15:42:25.564285  3386 net.cpp:148] Top shape: 24 832 7 7 (978432)
I0403 15:42:25.564301  3386 net.cpp:156] Memory required for data: 1276470816
I0403 15:42:25.564316  3386 layer_factory.hpp:77] Creating layer pool4/3x3_s2_pool4/3x3_s2_0_split
I0403 15:42:25.564337  3386 net.cpp:91] Creating Layer pool4/3x3_s2_pool4/3x3_s2_0_split
I0403 15:42:25.564353  3386 net.cpp:425] pool4/3x3_s2_pool4/3x3_s2_0_split <- pool4/3x3_s2
I0403 15:42:25.564373  3386 net.cpp:399] pool4/3x3_s2_pool4/3x3_s2_0_split -> pool4/3x3_s2_pool4/3x3_s2_0_split_0
I0403 15:42:25.564393  3386 net.cpp:399] pool4/3x3_s2_pool4/3x3_s2_0_split -> pool4/3x3_s2_pool4/3x3_s2_0_split_1
I0403 15:42:25.564416  3386 net.cpp:399] pool4/3x3_s2_pool4/3x3_s2_0_split -> pool4/3x3_s2_pool4/3x3_s2_0_split_2
I0403 15:42:25.564453  3386 net.cpp:399] pool4/3x3_s2_pool4/3x3_s2_0_split -> pool4/3x3_s2_pool4/3x3_s2_0_split_3
I0403 15:42:25.564551  3386 net.cpp:141] Setting up pool4/3x3_s2_pool4/3x3_s2_0_split
I0403 15:42:25.564575  3386 net.cpp:148] Top shape: 24 832 7 7 (978432)
I0403 15:42:25.564595  3386 net.cpp:148] Top shape: 24 832 7 7 (978432)
I0403 15:42:25.564612  3386 net.cpp:148] Top shape: 24 832 7 7 (978432)
I0403 15:42:25.564630  3386 net.cpp:148] Top shape: 24 832 7 7 (978432)
I0403 15:42:25.564645  3386 net.cpp:156] Memory required for data: 1292125728
I0403 15:42:25.564659  3386 layer_factory.hpp:77] Creating layer inception_5a/1x1
I0403 15:42:25.564684  3386 net.cpp:91] Creating Layer inception_5a/1x1
I0403 15:42:25.564703  3386 net.cpp:425] inception_5a/1x1 <- pool4/3x3_s2_pool4/3x3_s2_0_split_0
I0403 15:42:25.564726  3386 net.cpp:399] inception_5a/1x1 -> inception_5a/1x1
I0403 15:42:25.567605  3386 net.cpp:141] Setting up inception_5a/1x1
I0403 15:42:25.567633  3386 net.cpp:148] Top shape: 24 256 7 7 (301056)
I0403 15:42:25.567649  3386 net.cpp:156] Memory required for data: 1293329952
I0403 15:42:25.567668  3386 layer_factory.hpp:77] Creating layer inception_5a/relu_1x1
I0403 15:42:25.567689  3386 net.cpp:91] Creating Layer inception_5a/relu_1x1
I0403 15:42:25.567706  3386 net.cpp:425] inception_5a/relu_1x1 <- inception_5a/1x1
I0403 15:42:25.567724  3386 net.cpp:386] inception_5a/relu_1x1 -> inception_5a/1x1 (in-place)
I0403 15:42:25.568040  3386 net.cpp:141] Setting up inception_5a/relu_1x1
I0403 15:42:25.568066  3386 net.cpp:148] Top shape: 24 256 7 7 (301056)
I0403 15:42:25.568083  3386 net.cpp:156] Memory required for data: 1294534176
I0403 15:42:25.568097  3386 layer_factory.hpp:77] Creating layer inception_5a/3x3_reduce
I0403 15:42:25.568120  3386 net.cpp:91] Creating Layer inception_5a/3x3_reduce
I0403 15:42:25.568138  3386 net.cpp:425] inception_5a/3x3_reduce <- pool4/3x3_s2_pool4/3x3_s2_0_split_1
I0403 15:42:25.568161  3386 net.cpp:399] inception_5a/3x3_reduce -> inception_5a/3x3_reduce
I0403 15:42:25.570616  3386 net.cpp:141] Setting up inception_5a/3x3_reduce
I0403 15:42:25.570647  3386 net.cpp:148] Top shape: 24 160 7 7 (188160)
I0403 15:42:25.570665  3386 net.cpp:156] Memory required for data: 1295286816
I0403 15:42:25.570683  3386 layer_factory.hpp:77] Creating layer inception_5a/relu_3x3_reduce
I0403 15:42:25.570703  3386 net.cpp:91] Creating Layer inception_5a/relu_3x3_reduce
I0403 15:42:25.570719  3386 net.cpp:425] inception_5a/relu_3x3_reduce <- inception_5a/3x3_reduce
I0403 15:42:25.570742  3386 net.cpp:386] inception_5a/relu_3x3_reduce -> inception_5a/3x3_reduce (in-place)
I0403 15:42:25.570926  3386 net.cpp:141] Setting up inception_5a/relu_3x3_reduce
I0403 15:42:25.570950  3386 net.cpp:148] Top shape: 24 160 7 7 (188160)
I0403 15:42:25.570966  3386 net.cpp:156] Memory required for data: 1296039456
I0403 15:42:25.570981  3386 layer_factory.hpp:77] Creating layer inception_5a/3x3
I0403 15:42:25.571004  3386 net.cpp:91] Creating Layer inception_5a/3x3
I0403 15:42:25.571022  3386 net.cpp:425] inception_5a/3x3 <- inception_5a/3x3_reduce
I0403 15:42:25.571045  3386 net.cpp:399] inception_5a/3x3 -> inception_5a/3x3
I0403 15:42:25.576093  3386 net.cpp:141] Setting up inception_5a/3x3
I0403 15:42:25.576128  3386 net.cpp:148] Top shape: 24 320 7 7 (376320)
I0403 15:42:25.576143  3386 net.cpp:156] Memory required for data: 1297544736
I0403 15:42:25.576162  3386 layer_factory.hpp:77] Creating layer inception_5a/relu_3x3
I0403 15:42:25.576189  3386 net.cpp:91] Creating Layer inception_5a/relu_3x3
I0403 15:42:25.576207  3386 net.cpp:425] inception_5a/relu_3x3 <- inception_5a/3x3
I0403 15:42:25.576226  3386 net.cpp:386] inception_5a/relu_3x3 -> inception_5a/3x3 (in-place)
I0403 15:42:25.576529  3386 net.cpp:141] Setting up inception_5a/relu_3x3
I0403 15:42:25.576555  3386 net.cpp:148] Top shape: 24 320 7 7 (376320)
I0403 15:42:25.576570  3386 net.cpp:156] Memory required for data: 1299050016
I0403 15:42:25.576586  3386 layer_factory.hpp:77] Creating layer inception_5a/5x5_reduce
I0403 15:42:25.576609  3386 net.cpp:91] Creating Layer inception_5a/5x5_reduce
I0403 15:42:25.576627  3386 net.cpp:425] inception_5a/5x5_reduce <- pool4/3x3_s2_pool4/3x3_s2_0_split_2
I0403 15:42:25.576649  3386 net.cpp:399] inception_5a/5x5_reduce -> inception_5a/5x5_reduce
I0403 15:42:25.577810  3386 net.cpp:141] Setting up inception_5a/5x5_reduce
I0403 15:42:25.577838  3386 net.cpp:148] Top shape: 24 32 7 7 (37632)
I0403 15:42:25.577854  3386 net.cpp:156] Memory required for data: 1299200544
I0403 15:42:25.577873  3386 layer_factory.hpp:77] Creating layer inception_5a/relu_5x5_reduce
I0403 15:42:25.577893  3386 net.cpp:91] Creating Layer inception_5a/relu_5x5_reduce
I0403 15:42:25.577911  3386 net.cpp:425] inception_5a/relu_5x5_reduce <- inception_5a/5x5_reduce
I0403 15:42:25.577929  3386 net.cpp:386] inception_5a/relu_5x5_reduce -> inception_5a/5x5_reduce (in-place)
I0403 15:42:25.578227  3386 net.cpp:141] Setting up inception_5a/relu_5x5_reduce
I0403 15:42:25.578253  3386 net.cpp:148] Top shape: 24 32 7 7 (37632)
I0403 15:42:25.578269  3386 net.cpp:156] Memory required for data: 1299351072
I0403 15:42:25.578290  3386 layer_factory.hpp:77] Creating layer inception_5a/5x5
I0403 15:42:25.578315  3386 net.cpp:91] Creating Layer inception_5a/5x5
I0403 15:42:25.578335  3386 net.cpp:425] inception_5a/5x5 <- inception_5a/5x5_reduce
I0403 15:42:25.578353  3386 net.cpp:399] inception_5a/5x5 -> inception_5a/5x5
I0403 15:42:25.580095  3386 net.cpp:141] Setting up inception_5a/5x5
I0403 15:42:25.580139  3386 net.cpp:148] Top shape: 24 128 7 7 (150528)
I0403 15:42:25.580157  3386 net.cpp:156] Memory required for data: 1299953184
I0403 15:42:25.580174  3386 layer_factory.hpp:77] Creating layer inception_5a/relu_5x5
I0403 15:42:25.580195  3386 net.cpp:91] Creating Layer inception_5a/relu_5x5
I0403 15:42:25.580214  3386 net.cpp:425] inception_5a/relu_5x5 <- inception_5a/5x5
I0403 15:42:25.580231  3386 net.cpp:386] inception_5a/relu_5x5 -> inception_5a/5x5 (in-place)
I0403 15:42:25.580426  3386 net.cpp:141] Setting up inception_5a/relu_5x5
I0403 15:42:25.580452  3386 net.cpp:148] Top shape: 24 128 7 7 (150528)
I0403 15:42:25.580469  3386 net.cpp:156] Memory required for data: 1300555296
I0403 15:42:25.580484  3386 layer_factory.hpp:77] Creating layer inception_5a/pool
I0403 15:42:25.580504  3386 net.cpp:91] Creating Layer inception_5a/pool
I0403 15:42:25.580521  3386 net.cpp:425] inception_5a/pool <- pool4/3x3_s2_pool4/3x3_s2_0_split_3
I0403 15:42:25.580539  3386 net.cpp:399] inception_5a/pool -> inception_5a/pool
I0403 15:42:25.580615  3386 net.cpp:141] Setting up inception_5a/pool
I0403 15:42:25.580638  3386 net.cpp:148] Top shape: 24 832 7 7 (978432)
I0403 15:42:25.580653  3386 net.cpp:156] Memory required for data: 1304469024
I0403 15:42:25.580668  3386 layer_factory.hpp:77] Creating layer inception_5a/pool_proj
I0403 15:42:25.580693  3386 net.cpp:91] Creating Layer inception_5a/pool_proj
I0403 15:42:25.580711  3386 net.cpp:425] inception_5a/pool_proj <- inception_5a/pool
I0403 15:42:25.580734  3386 net.cpp:399] inception_5a/pool_proj -> inception_5a/pool_proj
I0403 15:42:25.583040  3386 net.cpp:141] Setting up inception_5a/pool_proj
I0403 15:42:25.583068  3386 net.cpp:148] Top shape: 24 128 7 7 (150528)
I0403 15:42:25.583084  3386 net.cpp:156] Memory required for data: 1305071136
I0403 15:42:25.583102  3386 layer_factory.hpp:77] Creating layer inception_5a/relu_pool_proj
I0403 15:42:25.583120  3386 net.cpp:91] Creating Layer inception_5a/relu_pool_proj
I0403 15:42:25.583137  3386 net.cpp:425] inception_5a/relu_pool_proj <- inception_5a/pool_proj
I0403 15:42:25.583155  3386 net.cpp:386] inception_5a/relu_pool_proj -> inception_5a/pool_proj (in-place)
I0403 15:42:25.583456  3386 net.cpp:141] Setting up inception_5a/relu_pool_proj
I0403 15:42:25.583482  3386 net.cpp:148] Top shape: 24 128 7 7 (150528)
I0403 15:42:25.583497  3386 net.cpp:156] Memory required for data: 1305673248
I0403 15:42:25.583511  3386 layer_factory.hpp:77] Creating layer inception_5a/output
I0403 15:42:25.583529  3386 net.cpp:91] Creating Layer inception_5a/output
I0403 15:42:25.583545  3386 net.cpp:425] inception_5a/output <- inception_5a/1x1
I0403 15:42:25.583562  3386 net.cpp:425] inception_5a/output <- inception_5a/3x3
I0403 15:42:25.583578  3386 net.cpp:425] inception_5a/output <- inception_5a/5x5
I0403 15:42:25.583595  3386 net.cpp:425] inception_5a/output <- inception_5a/pool_proj
I0403 15:42:25.583613  3386 net.cpp:399] inception_5a/output -> inception_5a/output
I0403 15:42:25.583662  3386 net.cpp:141] Setting up inception_5a/output
I0403 15:42:25.583689  3386 net.cpp:148] Top shape: 24 832 7 7 (978432)
I0403 15:42:25.583705  3386 net.cpp:156] Memory required for data: 1309586976
I0403 15:42:25.583720  3386 layer_factory.hpp:77] Creating layer inception_5a/output_inception_5a/output_0_split
I0403 15:42:25.583737  3386 net.cpp:91] Creating Layer inception_5a/output_inception_5a/output_0_split
I0403 15:42:25.583752  3386 net.cpp:425] inception_5a/output_inception_5a/output_0_split <- inception_5a/output
I0403 15:42:25.583770  3386 net.cpp:399] inception_5a/output_inception_5a/output_0_split -> inception_5a/output_inception_5a/output_0_split_0
I0403 15:42:25.583792  3386 net.cpp:399] inception_5a/output_inception_5a/output_0_split -> inception_5a/output_inception_5a/output_0_split_1
I0403 15:42:25.583813  3386 net.cpp:399] inception_5a/output_inception_5a/output_0_split -> inception_5a/output_inception_5a/output_0_split_2
I0403 15:42:25.583834  3386 net.cpp:399] inception_5a/output_inception_5a/output_0_split -> inception_5a/output_inception_5a/output_0_split_3
I0403 15:42:25.583945  3386 net.cpp:141] Setting up inception_5a/output_inception_5a/output_0_split
I0403 15:42:25.583967  3386 net.cpp:148] Top shape: 24 832 7 7 (978432)
I0403 15:42:25.583983  3386 net.cpp:148] Top shape: 24 832 7 7 (978432)
I0403 15:42:25.583999  3386 net.cpp:148] Top shape: 24 832 7 7 (978432)
I0403 15:42:25.584015  3386 net.cpp:148] Top shape: 24 832 7 7 (978432)
I0403 15:42:25.584028  3386 net.cpp:156] Memory required for data: 1325241888
I0403 15:42:25.584043  3386 layer_factory.hpp:77] Creating layer inception_5b/1x1
I0403 15:42:25.584066  3386 net.cpp:91] Creating Layer inception_5b/1x1
I0403 15:42:25.584084  3386 net.cpp:425] inception_5b/1x1 <- inception_5a/output_inception_5a/output_0_split_0
I0403 15:42:25.584102  3386 net.cpp:399] inception_5b/1x1 -> inception_5b/1x1
I0403 15:42:25.587775  3386 net.cpp:141] Setting up inception_5b/1x1
I0403 15:42:25.587807  3386 net.cpp:148] Top shape: 24 384 7 7 (451584)
I0403 15:42:25.587824  3386 net.cpp:156] Memory required for data: 1327048224
I0403 15:42:25.587843  3386 layer_factory.hpp:77] Creating layer inception_5b/relu_1x1
I0403 15:42:25.587862  3386 net.cpp:91] Creating Layer inception_5b/relu_1x1
I0403 15:42:25.587877  3386 net.cpp:425] inception_5b/relu_1x1 <- inception_5b/1x1
I0403 15:42:25.587898  3386 net.cpp:386] inception_5b/relu_1x1 -> inception_5b/1x1 (in-place)
I0403 15:42:25.588188  3386 net.cpp:141] Setting up inception_5b/relu_1x1
I0403 15:42:25.588217  3386 net.cpp:148] Top shape: 24 384 7 7 (451584)
I0403 15:42:25.588233  3386 net.cpp:156] Memory required for data: 1328854560
I0403 15:42:25.588248  3386 layer_factory.hpp:77] Creating layer inception_5b/3x3_reduce
I0403 15:42:25.588269  3386 net.cpp:91] Creating Layer inception_5b/3x3_reduce
I0403 15:42:25.588292  3386 net.cpp:425] inception_5b/3x3_reduce <- inception_5a/output_inception_5a/output_0_split_1
I0403 15:42:25.588315  3386 net.cpp:399] inception_5b/3x3_reduce -> inception_5b/3x3_reduce
I0403 15:42:25.590951  3386 net.cpp:141] Setting up inception_5b/3x3_reduce
I0403 15:42:25.590981  3386 net.cpp:148] Top shape: 24 192 7 7 (225792)
I0403 15:42:25.590996  3386 net.cpp:156] Memory required for data: 1329757728
I0403 15:42:25.591014  3386 layer_factory.hpp:77] Creating layer inception_5b/relu_3x3_reduce
I0403 15:42:25.591032  3386 net.cpp:91] Creating Layer inception_5b/relu_3x3_reduce
I0403 15:42:25.591048  3386 net.cpp:425] inception_5b/relu_3x3_reduce <- inception_5b/3x3_reduce
I0403 15:42:25.591068  3386 net.cpp:386] inception_5b/relu_3x3_reduce -> inception_5b/3x3_reduce (in-place)
I0403 15:42:25.591249  3386 net.cpp:141] Setting up inception_5b/relu_3x3_reduce
I0403 15:42:25.591277  3386 net.cpp:148] Top shape: 24 192 7 7 (225792)
I0403 15:42:25.591294  3386 net.cpp:156] Memory required for data: 1330660896
I0403 15:42:25.591307  3386 layer_factory.hpp:77] Creating layer inception_5b/3x3
I0403 15:42:25.591331  3386 net.cpp:91] Creating Layer inception_5b/3x3
I0403 15:42:25.591347  3386 net.cpp:425] inception_5b/3x3 <- inception_5b/3x3_reduce
I0403 15:42:25.591368  3386 net.cpp:399] inception_5b/3x3 -> inception_5b/3x3
I0403 15:42:25.597960  3386 net.cpp:141] Setting up inception_5b/3x3
I0403 15:42:25.597997  3386 net.cpp:148] Top shape: 24 384 7 7 (451584)
I0403 15:42:25.598013  3386 net.cpp:156] Memory required for data: 1332467232
I0403 15:42:25.598032  3386 layer_factory.hpp:77] Creating layer inception_5b/relu_3x3
I0403 15:42:25.598050  3386 net.cpp:91] Creating Layer inception_5b/relu_3x3
I0403 15:42:25.598067  3386 net.cpp:425] inception_5b/relu_3x3 <- inception_5b/3x3
I0403 15:42:25.598085  3386 net.cpp:386] inception_5b/relu_3x3 -> inception_5b/3x3 (in-place)
I0403 15:42:25.598382  3386 net.cpp:141] Setting up inception_5b/relu_3x3
I0403 15:42:25.598408  3386 net.cpp:148] Top shape: 24 384 7 7 (451584)
I0403 15:42:25.598423  3386 net.cpp:156] Memory required for data: 1334273568
I0403 15:42:25.598438  3386 layer_factory.hpp:77] Creating layer inception_5b/5x5_reduce
I0403 15:42:25.598484  3386 net.cpp:91] Creating Layer inception_5b/5x5_reduce
I0403 15:42:25.598505  3386 net.cpp:425] inception_5b/5x5_reduce <- inception_5a/output_inception_5a/output_0_split_2
I0403 15:42:25.598526  3386 net.cpp:399] inception_5b/5x5_reduce -> inception_5b/5x5_reduce
I0403 15:42:25.599876  3386 net.cpp:141] Setting up inception_5b/5x5_reduce
I0403 15:42:25.599905  3386 net.cpp:148] Top shape: 24 48 7 7 (56448)
I0403 15:42:25.599921  3386 net.cpp:156] Memory required for data: 1334499360
I0403 15:42:25.599939  3386 layer_factory.hpp:77] Creating layer inception_5b/relu_5x5_reduce
I0403 15:42:25.599961  3386 net.cpp:91] Creating Layer inception_5b/relu_5x5_reduce
I0403 15:42:25.599978  3386 net.cpp:425] inception_5b/relu_5x5_reduce <- inception_5b/5x5_reduce
I0403 15:42:25.599997  3386 net.cpp:386] inception_5b/relu_5x5_reduce -> inception_5b/5x5_reduce (in-place)
I0403 15:42:25.600389  3386 net.cpp:141] Setting up inception_5b/relu_5x5_reduce
I0403 15:42:25.600421  3386 net.cpp:148] Top shape: 24 48 7 7 (56448)
I0403 15:42:25.600451  3386 net.cpp:156] Memory required for data: 1334725152
I0403 15:42:25.600466  3386 layer_factory.hpp:77] Creating layer inception_5b/5x5
I0403 15:42:25.600491  3386 net.cpp:91] Creating Layer inception_5b/5x5
I0403 15:42:25.600512  3386 net.cpp:425] inception_5b/5x5 <- inception_5b/5x5_reduce
I0403 15:42:25.600539  3386 net.cpp:399] inception_5b/5x5 -> inception_5b/5x5
I0403 15:42:25.602634  3386 net.cpp:141] Setting up inception_5b/5x5
I0403 15:42:25.602663  3386 net.cpp:148] Top shape: 24 128 7 7 (150528)
I0403 15:42:25.602679  3386 net.cpp:156] Memory required for data: 1335327264
I0403 15:42:25.602710  3386 layer_factory.hpp:77] Creating layer inception_5b/relu_5x5
I0403 15:42:25.602730  3386 net.cpp:91] Creating Layer inception_5b/relu_5x5
I0403 15:42:25.602747  3386 net.cpp:425] inception_5b/relu_5x5 <- inception_5b/5x5
I0403 15:42:25.602764  3386 net.cpp:386] inception_5b/relu_5x5 -> inception_5b/5x5 (in-place)
I0403 15:42:25.602951  3386 net.cpp:141] Setting up inception_5b/relu_5x5
I0403 15:42:25.602977  3386 net.cpp:148] Top shape: 24 128 7 7 (150528)
I0403 15:42:25.602993  3386 net.cpp:156] Memory required for data: 1335929376
I0403 15:42:25.603008  3386 layer_factory.hpp:77] Creating layer inception_5b/pool
I0403 15:42:25.603025  3386 net.cpp:91] Creating Layer inception_5b/pool
I0403 15:42:25.603041  3386 net.cpp:425] inception_5b/pool <- inception_5a/output_inception_5a/output_0_split_3
I0403 15:42:25.603060  3386 net.cpp:399] inception_5b/pool -> inception_5b/pool
I0403 15:42:25.603132  3386 net.cpp:141] Setting up inception_5b/pool
I0403 15:42:25.603154  3386 net.cpp:148] Top shape: 24 832 7 7 (978432)
I0403 15:42:25.603169  3386 net.cpp:156] Memory required for data: 1339843104
I0403 15:42:25.603183  3386 layer_factory.hpp:77] Creating layer inception_5b/pool_proj
I0403 15:42:25.603204  3386 net.cpp:91] Creating Layer inception_5b/pool_proj
I0403 15:42:25.603222  3386 net.cpp:425] inception_5b/pool_proj <- inception_5b/pool
I0403 15:42:25.603243  3386 net.cpp:399] inception_5b/pool_proj -> inception_5b/pool_proj
I0403 15:42:25.605533  3386 net.cpp:141] Setting up inception_5b/pool_proj
I0403 15:42:25.605564  3386 net.cpp:148] Top shape: 24 128 7 7 (150528)
I0403 15:42:25.605581  3386 net.cpp:156] Memory required for data: 1340445216
I0403 15:42:25.605599  3386 layer_factory.hpp:77] Creating layer inception_5b/relu_pool_proj
I0403 15:42:25.605620  3386 net.cpp:91] Creating Layer inception_5b/relu_pool_proj
I0403 15:42:25.605638  3386 net.cpp:425] inception_5b/relu_pool_proj <- inception_5b/pool_proj
I0403 15:42:25.605656  3386 net.cpp:386] inception_5b/relu_pool_proj -> inception_5b/pool_proj (in-place)
I0403 15:42:25.605948  3386 net.cpp:141] Setting up inception_5b/relu_pool_proj
I0403 15:42:25.605974  3386 net.cpp:148] Top shape: 24 128 7 7 (150528)
I0403 15:42:25.605990  3386 net.cpp:156] Memory required for data: 1341047328
I0403 15:42:25.606006  3386 layer_factory.hpp:77] Creating layer inception_5b/output
I0403 15:42:25.606024  3386 net.cpp:91] Creating Layer inception_5b/output
I0403 15:42:25.606055  3386 net.cpp:425] inception_5b/output <- inception_5b/1x1
I0403 15:42:25.606072  3386 net.cpp:425] inception_5b/output <- inception_5b/3x3
I0403 15:42:25.606089  3386 net.cpp:425] inception_5b/output <- inception_5b/5x5
I0403 15:42:25.606106  3386 net.cpp:425] inception_5b/output <- inception_5b/pool_proj
I0403 15:42:25.606128  3386 net.cpp:399] inception_5b/output -> inception_5b/output
I0403 15:42:25.606181  3386 net.cpp:141] Setting up inception_5b/output
I0403 15:42:25.606207  3386 net.cpp:148] Top shape: 24 1024 7 7 (1204224)
I0403 15:42:25.606222  3386 net.cpp:156] Memory required for data: 1345864224
I0403 15:42:25.606237  3386 layer_factory.hpp:77] Creating layer pool5/7x7_s1
I0403 15:42:25.606256  3386 net.cpp:91] Creating Layer pool5/7x7_s1
I0403 15:42:25.606276  3386 net.cpp:425] pool5/7x7_s1 <- inception_5b/output
I0403 15:42:25.606300  3386 net.cpp:399] pool5/7x7_s1 -> pool5/7x7_s1
I0403 15:42:25.606511  3386 net.cpp:141] Setting up pool5/7x7_s1
I0403 15:42:25.606537  3386 net.cpp:148] Top shape: 24 1024 1 1 (24576)
I0403 15:42:25.606554  3386 net.cpp:156] Memory required for data: 1345962528
I0403 15:42:25.606569  3386 layer_factory.hpp:77] Creating layer pool5/drop_7x7_s1
I0403 15:42:25.606588  3386 net.cpp:91] Creating Layer pool5/drop_7x7_s1
I0403 15:42:25.606606  3386 net.cpp:425] pool5/drop_7x7_s1 <- pool5/7x7_s1
I0403 15:42:25.606624  3386 net.cpp:386] pool5/drop_7x7_s1 -> pool5/7x7_s1 (in-place)
I0403 15:42:25.606673  3386 net.cpp:141] Setting up pool5/drop_7x7_s1
I0403 15:42:25.606699  3386 net.cpp:148] Top shape: 24 1024 1 1 (24576)
I0403 15:42:25.606715  3386 net.cpp:156] Memory required for data: 1346060832
I0403 15:42:25.606730  3386 layer_factory.hpp:77] Creating layer loss3/classifier_plantvillage
I0403 15:42:25.606750  3386 net.cpp:91] Creating Layer loss3/classifier_plantvillage
I0403 15:42:25.606765  3386 net.cpp:425] loss3/classifier_plantvillage <- pool5/7x7_s1
I0403 15:42:25.606786  3386 net.cpp:399] loss3/classifier_plantvillage -> loss3/classifier_plantvillage
I0403 15:42:25.607214  3386 net.cpp:141] Setting up loss3/classifier_plantvillage
I0403 15:42:25.607239  3386 net.cpp:148] Top shape: 24 38 (912)
I0403 15:42:25.607254  3386 net.cpp:156] Memory required for data: 1346064480
I0403 15:42:25.607276  3386 layer_factory.hpp:77] Creating layer loss3/classifier_plantvillage_loss3/classifier_plantvillage_0_split
I0403 15:42:25.607296  3386 net.cpp:91] Creating Layer loss3/classifier_plantvillage_loss3/classifier_plantvillage_0_split
I0403 15:42:25.607312  3386 net.cpp:425] loss3/classifier_plantvillage_loss3/classifier_plantvillage_0_split <- loss3/classifier_plantvillage
I0403 15:42:25.607331  3386 net.cpp:399] loss3/classifier_plantvillage_loss3/classifier_plantvillage_0_split -> loss3/classifier_plantvillage_loss3/classifier_plantvillage_0_split_0
I0403 15:42:25.607354  3386 net.cpp:399] loss3/classifier_plantvillage_loss3/classifier_plantvillage_0_split -> loss3/classifier_plantvillage_loss3/classifier_plantvillage_0_split_1
I0403 15:42:25.607377  3386 net.cpp:399] loss3/classifier_plantvillage_loss3/classifier_plantvillage_0_split -> loss3/classifier_plantvillage_loss3/classifier_plantvillage_0_split_2
I0403 15:42:25.607398  3386 net.cpp:399] loss3/classifier_plantvillage_loss3/classifier_plantvillage_0_split -> loss3/classifier_plantvillage_loss3/classifier_plantvillage_0_split_3
I0403 15:42:25.607499  3386 net.cpp:141] Setting up loss3/classifier_plantvillage_loss3/classifier_plantvillage_0_split
I0403 15:42:25.607523  3386 net.cpp:148] Top shape: 24 38 (912)
I0403 15:42:25.607539  3386 net.cpp:148] Top shape: 24 38 (912)
I0403 15:42:25.607555  3386 net.cpp:148] Top shape: 24 38 (912)
I0403 15:42:25.607570  3386 net.cpp:148] Top shape: 24 38 (912)
I0403 15:42:25.607584  3386 net.cpp:156] Memory required for data: 1346079072
I0403 15:42:25.607599  3386 layer_factory.hpp:77] Creating layer loss1/loss
I0403 15:42:25.607622  3386 net.cpp:91] Creating Layer loss1/loss
I0403 15:42:25.607640  3386 net.cpp:425] loss1/loss <- loss1/classifier_plantvillage_loss1/classifier_plantvillage_0_split_0
I0403 15:42:25.607671  3386 net.cpp:425] loss1/loss <- label_data_1_split_0
…
