…
I0403 15:30:04.618245  3165 net.cpp:313] The NetState phase (1) differed from the phase (0) specified by a rule in layer data
I0403 15:30:04.619670  3165 net.cpp:49] Initializing net from parameters: 
state {
  phase: TEST
}
layer {
  name: "data"
  type: "Data"
  top: "data"
  top: "label"
  include {
    phase: TEST
  }
  transform_param {
    mirror: false
    crop_size: 224
    mean_file: "/home/mohanty/data/final_dataset/lmdb/grayscale-50-50/mean.binaryproto"
  }
  data_param {
    source: "/home/mohanty/data/final_dataset/lmdb/grayscale-50-50/test_db"
    batch_size: 24
    backend: LMDB
  }
}
layer {
  name: "conv1/7x7_s2"
  type: "Convolution"
  bottom: "data"
  top: "conv1/7x7_s2"
  param {
    lr_mult: 1
    decay_mult: 1
  }
  param {
    lr_mult: 2
    decay_mult: 0
  }
  convolution_param {
    num_output: 64
    pad: 3
    kernel_size: 7
    stride: 2
    weight_filler {
      type: "xavier"
      std: 0.1
    }
    bias_filler {
      type: "constant"
      value: 0.2
    }
  }
}
layer {
  name: "conv1/relu_7x7"
  type: "ReLU"
  bottom: "conv1/7x7_s2"
  top: "conv1/7x7_s2"
}
layer {
  name: "pool1/3x3_s2"
  type: "Pooling"
  bottom: "conv1/7x7_s2"
  top: "pool1/3x3_s2"
  pooling_param {
    pool: MAX
    kernel_size: 3
    stride: 2
  }
}
layer {
  name: "pool1/norm1"
  type: "LRN"
  bottom: "pool1/3x3_s2"
  top: "pool1/norm1"
  lrn_param {
    local_size: 5
    alpha: 0.0001
    beta: 0.75
  }
}
layer {
  name: "conv2/3x3_reduce"
  type: "Convolution"
  bottom: "pool1/norm1"
  top: "conv2/3x3_reduce"
  param {
    lr_mult: 1
    decay_mult: 1
  }
  param {
    lr_mult: 2
    decay_mult: 0
  }
  convolution_param {
    num_output: 64
    kernel_size: 1
    weight_filler {
      type: "xavier"
      std: 0.1
    }
    bias_filler {
      type: "constant"
      value: 0.2
    }
  }
}
layer {
  name: "conv2/relu_3x3_reduce"
  type: "ReLU"
  bottom: "conv2/3x3_reduce"
  top: "conv2/3x3_reduce"
}
layer {
  name: "conv2/3x3"
  type: "Convolution"
  bottom: "conv2/3x3_reduce"
  top: "conv2/3x3"
  param {
    lr_mult: 1
    decay_mult: 1
  }
  param {
    lr_mult: 2
    decay_mult: 0
  }
  convolution_param {
    num_output: 192
    pad: 1
    kernel_size: 3
    weight_filler {
      type: "xavier"
      std: 0.03
    }
    bias_filler {
      type: "constant"
      value: 0.2
    }
  }
}
layer {
  name: "conv2/relu_3x3"
  type: "ReLU"
  bottom: "conv2/3x3"
  top: "conv2/3x3"
}
layer {
  name: "conv2/norm2"
  type: "LRN"
  bottom: "conv2/3x3"
  top: "conv2/norm2"
  lrn_param {
    local_size: 5
    alpha: 0.0001
    beta: 0.75
  }
}
layer {
  name: "pool2/3x3_s2"
  type: "Pooling"
  bottom: "conv2/norm2"
  top: "pool2/3x3_s2"
  pooling_param {
    pool: MAX
    kernel_size: 3
    stride: 2
  }
}
layer {
  name: "inception_3a/1x1"
  type: "Convolution"
  bottom: "pool2/3x3_s2"
  top: "inception_3a/1x1"
  param {
    lr_mult: 1
    decay_mult: 1
  }
  param {
    lr_mult: 2
    decay_mult: 0
  }
  convolution_param {
    num_output: 64
    kernel_size: 1
    weight_filler {
      type: "xavier"
      std: 0.03
    }
    bias_filler {
      type: "constant"
      value: 0.2
    }
  }
}
layer {
  name: "inception_3a/relu_1x1"
  type: "ReLU"
  bottom: "inception_3a/1x1"
  top: "inception_3a/1x1"
}
layer {
  name: "inception_3a/3x3_reduce"
  type: "Convolution"
  bottom: "pool2/3x3_s2"
  top: "inception_3a/3x3_reduce"
  param {
    lr_mult: 1
    decay_mult: 1
  }
  param {
    lr_mult: 2
    decay_mult: 0
  }
  convolution_param {
    num_output: 96
    kernel_size: 1
    weight_filler {
      type: "xavier"
      std: 0.09
    }
    bias_filler {
      type: "constant"
      value: 0.2
    }
  }
}
layer {
  name: "inception_3a/relu_3x3_reduce"
  type: "ReLU"
  bottom: "inception_3a/3x3_reduce"
  top: "inception_3a/3x3_reduce"
}
layer {
  name: "inception_3a/3x3"
  type: "Convolution"
  bottom: "inception_3a/3x3_reduce"
  top: "inception_3a/3x3"
  param {
    lr_mult: 1
    decay_mult: 1
  }
  param {
    lr_mult: 2
    decay_mult: 0
  }
  convolution_param {
    num_output: 128
    pad: 1
    kernel_size: 3
    weight_filler {
      type: "xavier"
      std: 0.03
    }
    bias_filler {
      type: "constant"
      value: 0.2
    }
  }
}
layer {
  name: "inception_3a/relu_3x3"
  type: "ReLU"
  bottom: "inception_3a/3x3"
  top: "inception_3a/3x3"
}
layer {
  name: "inception_3a/5x5_reduce"
  type: "Convolution"
  bottom: "pool2/3x3_s2"
  top: "inception_3a/5x5_reduce"
  param {
    lr_mult: 1
    decay_mult: 1
  }
  param {
    lr_mult: 2
    decay_mult: 0
  }
  convolution_param {
    num_output: 16
    kernel_size: 1
    weight_filler {
      type: "xavier"
      std: 0.2
    }
    bias_filler {
      type: "constant"
      value: 0.2
    }
  }
}
layer {
  name: "inception_3a/relu_5x5_reduce"
  type: "ReLU"
  bottom: "inception_3a/5x5_reduce"
  top: "inception_3a/5x5_reduce"
}
layer {
  name: "inception_3a/5x5"
  type: "Convolution"
  bottom: "inception_3a/5x5_reduce"
  top: "inception_3a/5x5"
  param {
    lr_mult: 1
    decay_mult: 1
  }
  param {
    lr_mult: 2
    decay_mult: 0
  }
  convolution_param {
    num_output: 32
    pad: 2
    kernel_size: 5
    weight_filler {
      type: "xavier"
      std: 0.03
    }
    bias_filler {
      type: "constant"
      value: 0.2
    }
  }
}
layer {
  name: "inception_3a/relu_5x5"
  type: "ReLU"
  bottom: "inception_3a/5x5"
  top: "inception_3a/5x5"
}
layer {
  name: "inception_3a/pool"
  type: "Pooling"
  bottom: "pool2/3x3_s2"
  top: "inception_3a/pool"
  pooling_param {
    pool: MAX
    kernel_size: 3
    stride: 1
    pad: 1
  }
}
layer {
  name: "inception_3a/pool_proj"
  type: "Convolution"
  bottom: "inception_3a/pool"
  top: "inception_3a/pool_proj"
  param {
    lr_mult: 1
    decay_mult: 1
  }
  param {
    lr_mult: 2
    decay_mult: 0
  }
  convolution_param {
    num_output: 32
    kernel_size: 1
    weight_filler {
      type: "xavier"
      std: 0.1
    }
    bias_filler {
      type: "constant"
      value: 0.2
    }
  }
}
layer {
  name: "inception_3a/relu_pool_proj"
  type: "ReLU"
  bottom: "inception_3a/pool_proj"
  top: "inception_3a/pool_proj"
}
layer {
  name: "inception_3a/output"
  type: "Concat"
  bottom: "inception_3a/1x1"
  bottom: "inception_3a/3x3"
  bottom: "inception_3a/5x5"
  bottom: "inception_3a/pool_proj"
  top: "inception_3a/output"
}
layer {
  name: "inception_3b/1x1"
  type: "Convolution"
  bottom: "inception_3a/output"
  top: "inception_3b/1x1"
  param {
    lr_mult: 1
    decay_mult: 1
  }
  param {
    lr_mult: 2
    decay_mult: 0
  }
  convolution_param {
    num_output: 128
    kernel_size: 1
    weight_filler {
      type: "xavier"
      std: 0.03
    }
    bias_filler {
      type: "constant"
      value: 0.2
    }
  }
}
layer {
  name: "inception_3b/relu_1x1"
  type: "ReLU"
  bottom: "inception_3b/1x1"
  top: "inception_3b/1x1"
}
layer {
  name: "inception_3b/3x3_reduce"
  type: "Convolution"
  bottom: "inception_3a/output"
  top: "inception_3b/3x3_reduce"
  param {
    lr_mult: 1
    decay_mult: 1
  }
  param {
    lr_mult: 2
    decay_mult: 0
  }
  convolution_param {
    num_output: 128
    kernel_size: 1
    weight_filler {
      type: "xavier"
      std: 0.09
    }
    bias_filler {
      type: "constant"
      value: 0.2
    }
  }
}
layer {
  name: "inception_3b/relu_3x3_reduce"
  type: "ReLU"
  bottom: "inception_3b/3x3_reduce"
  top: "inception_3b/3x3_reduce"
}
layer {
  name: "inception_3b/3x3"
  type: "Convolution"
  bottom: "inception_3b/3x3_reduce"
  top: "inception_3b/3x3"
  param {
    lr_mult: 1
    decay_mult: 1
  }
  param {
    lr_mult: 2
    decay_mult: 0
  }
  convolution_param {
    num_output: 192
    pad: 1
    kernel_size: 3
    weight_filler {
      type: "xavier"
      std: 0.03
    }
    bias_filler {
      type: "constant"
      value: 0.2
    }
  }
}
layer {
  name: "inception_3b/relu_3x3"
  type: "ReLU"
  bottom: "inception_3b/3x3"
  top: "inception_3b/3x3"
}
layer {
  name: "inception_3b/5x5_reduce"
  type: "Convolution"
  bottom: "inception_3a/output"
  top: "inception_3b/5x5_reduce"
  param {
    lr_mult: 1
    decay_mult: 1
  }
  param {
    lr_mult: 2
    decay_mult: 0
  }
  convolution_param {
    num_output: 32
    kernel_size: 1
    weight_filler {
      type: "xavier"
      std: 0.2
    }
    bias_filler {
      type: "constant"
      value: 0.2
    }
  }
}
layer {
  name: "inception_3b/relu_5x5_reduce"
  type: "ReLU"
  bottom: "inception_3b/5x5_reduce"
  top: "inception_3b/5x5_reduce"
}
layer {
  name: "inception_3b/5x5"
  type: "Convolution"
  bottom: "inception_3b/5x5_reduce"
  top: "inception_3b/5x5"
  param {
    lr_mult: 1
    decay_mult: 1
  }
  param {
    lr_mult: 2
    decay_mult: 0
  }
  convolution_param {
    num_output: 96
    pad: 2
    kernel_size: 5
    weight_filler {
      type: "xavier"
      std: 0.03
    }
    bias_filler {
      type: "constant"
      value: 0.2
    }
  }
}
layer {
  name: "inception_3b/relu_5x5"
  type: "ReLU"
  bottom: "inception_3b/5x5"
  top: "inception_3b/5x5"
}
layer {
  name: "inception_3b/pool"
  type: "Pooling"
  bottom: "inception_3a/output"
  top: "inception_3b/pool"
  pooling_param {
    pool: MAX
    kernel_size: 3
    stride: 1
    pad: 1
  }
}
layer {
  name: "inception_3b/pool_proj"
  type: "Convolution"
  bottom: "inception_3b/pool"
  top: "inception_3b/pool_proj"
  param {
    lr_mult: 1
    decay_mult: 1
  }
  param {
    lr_mult: 2
    decay_mult: 0
  }
  convolution_param {
    num_output: 64
    kernel_size: 1
    weight_filler {
      type: "xavier"
      std: 0.1
    }
    bias_filler {
      type: "constant"
      value: 0.2
    }
  }
}
layer {
  name: "inception_3b/relu_pool_proj"
  type: "ReLU"
  bottom: "inception_3b/pool_proj"
  top: "inception_3b/pool_proj"
}
layer {
  name: "inception_3b/output"
  type: "Concat"
  bottom: "inception_3b/1x1"
  bottom: "inception_3b/3x3"
  bottom: "inception_3b/5x5"
  bottom: "inception_3b/pool_proj"
  top: "inception_3b/output"
}
layer {
  name: "pool3/3x3_s2"
  type: "Pooling"
  bottom: "inception_3b/output"
  top: "pool3/3x3_s2"
  pooling_param {
    pool: MAX
    kernel_size: 3
    stride: 2
  }
}
layer {
  name: "inception_4a/1x1"
  type: "Convolution"
  bottom: "pool3/3x3_s2"
  top: "inception_4a/1x1"
  param {
    lr_mult: 1
    decay_mult: 1
  }
  param {
    lr_mult: 2
    decay_mult: 0
  }
  convolution_param {
    num_output: 192
    kernel_size: 1
    weight_filler {
      type: "xavier"
      std: 0.03
    }
    bias_filler {
      type: "constant"
      value: 0.2
    }
  }
}
layer {
  name: "inception_4a/relu_1x1"
  type: "ReLU"
  bottom: "inception_4a/1x1"
  top: "inception_4a/1x1"
}
layer {
  name: "inception_4a/3x3_reduce"
  type: "Convolution"
  bottom: "pool3/3x3_s2"
  top: "inception_4a/3x3_reduce"
  param {
    lr_mult: 1
    decay_mult: 1
  }
  param {
    lr_mult: 2
    decay_mult: 0
  }
  convolution_param {
    num_output: 96
    kernel_size: 1
    weight_filler {
      type: "xavier"
      std: 0.09
    }
    bias_filler {
      type: "constant"
      value: 0.2
    }
  }
}
layer {
  name: "inception_4a/relu_3x3_reduce"
  type: "ReLU"
  bottom: "inception_4a/3x3_reduce"
  top: "inception_4a/3x3_reduce"
}
layer {
  name: "inception_4a/3x3"
  type: "Convolution"
  bottom: "inception_4a/3x3_reduce"
  top: "inception_4a/3x3"
  param {
    lr_mult: 1
    decay_mult: 1
  }
  param {
    lr_mult: 2
    decay_mult: 0
  }
  convolution_param {
    num_output: 208
    pad: 1
    kernel_size: 3
    weight_filler {
      type: "xavier"
      std: 0.03
    }
    bias_filler {
      type: "constant"
      value: 0.2
    }
  }
}
layer {
  name: "inception_4a/relu_3x3"
  type: "ReLU"
  bottom: "inception_4a/3x3"
  top: "inception_4a/3x3"
}
layer {
  name: "inception_4a/5x5_reduce"
  type: "Convolution"
  bottom: "pool3/3x3_s2"
  top: "inception_4a/5x5_reduce"
  param {
    lr_mult: 1
    decay_mult: 1
  }
  param {
    lr_mult: 2
    decay_mult: 0
  }
  convolution_param {
    num_output: 16
    kernel_size: 1
    weight_filler {
      type: "xavier"
      std: 0.2
    }
    bias_filler {
      type: "constant"
      value: 0.2
    }
  }
}
layer {
  name: "inception_4a/relu_5x5_reduce"
  type: "ReLU"
  bottom: "inception_4a/5x5_reduce"
  top: "inception_4a/5x5_reduce"
}
layer {
  name: "inception_4a/5x5"
  type: "Convolution"
  bottom: "inception_4a/5x5_reduce"
  top: "inception_4a/5x5"
  param {
    lr_mult: 1
    decay_mult: 1
  }
  param {
    lr_mult: 2
    decay_mult: 0
  }
  convolution_param {
    num_output: 48
    pad: 2
    kernel_size: 5
    weight_filler {
      type: "xavier"
      std: 0.03
    }
    bias_filler {
      type: "constant"
      value: 0.2
    }
  }
}
layer {
  name: "inception_4a/relu_5x5"
  type: "ReLU"
  bottom: "inception_4a/5x5"
  top: "inception_4a/5x5"
}
layer {
  name: "inception_4a/pool"
  type: "Pooling"
  bottom: "pool3/3x3_s2"
  top: "inception_4a/pool"
  pooling_param {
    pool: MAX
    kernel_size: 3
    stride: 1
    pad: 1
  }
}
layer {
  name: "inception_4a/pool_proj"
  type: "Convolution"
  bottom: "inception_4a/pool"
  top: "inception_4a/pool_proj"
  param {
    lr_mult: 1
    decay_mult: 1
  }
  param {
    lr_mult: 2
    decay_mult: 0
  }
  convolution_param {
    num_output: 64
    kernel_size: 1
    weight_filler {
      type: "xavier"
      std: 0.1
    }
    bias_filler {
      type: "constant"
      value: 0.2
    }
  }
}
layer {
  name: "inception_4a/relu_pool_proj"
  type: "ReLU"
  bottom: "inception_4a/pool_proj"
  top: "inception_4a/pool_proj"
}
layer {
  name: "inception_4a/output"
  type: "Concat"
  bottom: "inception_4a/1x1"
  bottom: "inception_4a/3x3"
  bottom: "inception_4a/5x5"
  bottom: "inception_4a/pool_proj"
  top: "inception_4a/output"
}
layer {
  name: "loss1/ave_pool"
  type: "Pooling"
  bottom: "inception_4a/output"
  top: "loss1/ave_pool"
  pooling_param {
    pool: AVE
    kernel_size: 5
    stride: 3
  }
}
layer {
  name: "loss1/conv"
  type: "Convolution"
  bottom: "loss1/ave_pool"
  top: "loss1/conv"
  param {
    lr_mult: 1
    decay_mult: 1
  }
  param {
    lr_mult: 2
    decay_mult: 0
  }
  convolution_param {
    num_output: 128
    kernel_size: 1
    weight_filler {
      type: "xavier"
      std: 0.08
    }
    bias_filler {
      type: "constant"
      value: 0.2
    }
  }
}
layer {
  name: "loss1/relu_conv"
  type: "ReLU"
  bottom: "loss1/conv"
  top: "loss1/conv"
}
layer {
  name: "loss1/fc"
  type: "InnerProduct"
  bottom: "loss1/conv"
  top: "loss1/fc"
  param {
    lr_mult: 1
    decay_mult: 1
  }
  param {
    lr_mult: 2
    decay_mult: 0
  }
  inner_product_param {
    num_output: 1024
    weight_filler {
      type: "xavier"
      std: 0.02
    }
    bias_filler {
      type: "constant"
      value: 0.2
    }
  }
}
layer {
  name: "loss1/relu_fc"
  type: "ReLU"
  bottom: "loss1/fc"
  top: "loss1/fc"
}
layer {
  name: "loss1/drop_fc"
  type: "Dropout"
  bottom: "loss1/fc"
  top: "loss1/fc"
  dropout_param {
    dropout_ratio: 0.7
  }
}
layer {
  name: "loss1/classifier_plantvillage"
  type: "InnerProduct"
  bottom: "loss1/fc"
  top: "loss1/classifier_plantvillage"
  param {
    lr_mult: 1
    decay_mult: 1
  }
  param {
    lr_mult: 2
    decay_mult: 0
  }
  inner_product_param {
    num_output: 38
    weight_filler {
      type: "xavier"
      std: 0.0009765625
    }
    bias_filler {
      type: "constant"
      value: 0
    }
  }
}
layer {
  name: "inception_4b/1x1"
  type: "Convolution"
  bottom: "inception_4a/output"
  top: "inception_4b/1x1"
  param {
    lr_mult: 1
    decay_mult: 1
  }
  param {
    lr_mult: 2
    decay_mult: 0
  }
  convolution_param {
    num_output: 160
    kernel_size: 1
    weight_filler {
      type: "xavier"
      std: 0.03
    }
    bias_filler {
      type: "constant"
      value: 0.2
    }
  }
}
layer {
  name: "inception_4b/relu_1x1"
  type: "ReLU"
  bottom: "inception_4b/1x1"
  top: "inception_4b/1x1"
}
layer {
  name: "inception_4b/3x3_reduce"
  type: "Convolution"
  bottom: "inception_4a/output"
  top: "inception_4b/3x3_reduce"
  param {
    lr_mult: 1
    decay_mult: 1
  }
  param {
    lr_mult: 2
    decay_mult: 0
  }
  convolution_param {
    num_output: 112
    kernel_size: 1
    weight_filler {
      type: "xavier"
      std: 0.09
    }
    bias_filler {
      type: "constant"
      value: 0.2
    }
  }
}
layer {
  name: "inception_4b/relu_3x3_reduce"
  type: "ReLU"
  bottom: "inception_4b/3x3_reduce"
  top: "inception_4b/3x3_reduce"
}
layer {
  name: "inception_4b/3x3"
  type: "Convolution"
  bottom: "inception_4b/3x3_reduce"
  top: "inception_4b/3x3"
  param {
    lr_mult: 1
    decay_mult: 1
  }
  param {
    lr_mult: 2
    decay_mult: 0
  }
  convolution_param {
    num_output: 224
    pad: 1
    kernel_size: 3
    weight_filler {
      type: "xavier"
      std: 0.03
    }
    bias_filler {
      type: "constant"
      value: 0.2
    }
  }
}
layer {
  name: "inception_4b/relu_3x3"
  type: "ReLU"
  bottom: "inception_4b/3x3"
  top: "inception_4b/3x3"
}
layer {
  name: "inception_4b/5x5_reduce"
  type: "Convolution"
  bottom: "inception_4a/output"
  top: "inception_4b/5x5_reduce"
  param {
    lr_mult: 1
    decay_mult: 1
  }
  param {
    lr_mult: 2
    decay_mult: 0
  }
  convolution_param {
    num_output: 24
    kernel_size: 1
    weight_filler {
      type: "xavier"
      std: 0.2
    }
    bias_filler {
      type: "constant"
      value: 0.2
    }
  }
}
layer {
  name: "inception_4b/relu_5x5_reduce"
  type: "ReLU"
  bottom: "inception_4b/5x5_reduce"
  top: "inception_4b/5x5_reduce"
}
layer {
  name: "inception_4b/5x5"
  type: "Convolution"
  bottom: "inception_4b/5x5_reduce"
  top: "inception_4b/5x5"
  param {
    lr_mult: 1
    decay_mult: 1
  }
  param {
    lr_mult: 2
    decay_mult: 0
  }
  convolution_param {
    num_output: 64
    pad: 2
    kernel_size: 5
    weight_filler {
      type: "xavier"
      std: 0.03
    }
    bias_filler {
      type: "constant"
      value: 0.2
    }
  }
}
layer {
  name: "inception_4b/relu_5x5"
  type: "ReLU"
  bottom: "inception_4b/5x5"
  top: "inception_4b/5x5"
}
layer {
  name: "inception_4b/pool"
  type: "Pooling"
  bottom: "inception_4a/output"
  top: "inception_4b/pool"
  pooling_param {
    pool: MAX
    kernel_size: 3
    stride: 1
    pad: 1
  }
}
layer {
  name: "inception_4b/pool_proj"
  type: "Convolution"
  bottom: "inception_4b/pool"
  top: "inception_4b/pool_proj"
  param {
    lr_mult: 1
    decay_mult: 1
  }
  param {
    lr_mult: 2
    decay_mult: 0
  }
  convolution_param {
    num_output: 64
    kernel_size: 1
    weight_filler {
      type: "xavier"
      std: 0.1
    }
    bias_filler {
      type: "constant"
      value: 0.2
    }
  }
}
layer {
  name: "inception_4b/relu_pool_proj"
  type: "ReLU"
  bottom: "inception_4b/pool_proj"
  top: "inception_4b/pool_proj"
}
layer {
  name: "inception_4b/output"
  type: "Concat"
  bottom: "inception_4b/1x1"
  bottom: "inception_4b/3x3"
  bottom: "inception_4b/5x5"
  bottom: "inception_4b/pool_proj"
  top: "inception_4b/output"
}
layer {
  name: "inception_4c/1x1"
  type: "Convolution"
  bottom: "inception_4b/output"
  top: "inception_4c/1x1"
  param {
    lr_mult: 1
    decay_mult: 1
  }
  param {
    lr_mult: 2
    decay_mult: 0
  }
  convolution_param {
    num_output: 128
    kernel_size: 1
    weight_filler {
      type: "xavier"
      std: 0.03
    }
    bias_filler {
      type: "constant"
      value: 0.2
    }
  }
}
layer {
  name: "inception_4c/relu_1x1"
  type: "ReLU"
  bottom: "inception_4c/1x1"
  top: "inception_4c/1x1"
}
layer {
  name: "inception_4c/3x3_reduce"
  type: "Convolution"
  bottom: "inception_4b/output"
  top: "inception_4c/3x3_reduce"
  param {
    lr_mult: 1
    decay_mult: 1
  }
  param {
    lr_mult: 2
    decay_mult: 0
  }
  convolution_param {
    num_output: 128
    kernel_size: 1
    weight_filler {
      type: "xavier"
      std: 0.09
    }
    bias_filler {
      type: "constant"
      value: 0.2
    }
  }
}
layer {
  name: "inception_4c/relu_3x3_reduce"
  type: "ReLU"
  bottom: "inception_4c/3x3_reduce"
  top: "inception_4c/3x3_reduce"
}
layer {
  name: "inception_4c/3x3"
  type: "Convolution"
  bottom: "inception_4c/3x3_reduce"
  top: "inception_4c/3x3"
  param {
    lr_mult: 1
    decay_mult: 1
  }
  param {
    lr_mult: 2
    decay_mult: 0
  }
  convolution_param {
    num_output: 256
    pad: 1
    kernel_size: 3
    weight_filler {
      type: "xavier"
      std: 0.03
    }
    bias_filler {
      type: "constant"
      value: 0.2
    }
  }
}
layer {
  name: "inception_4c/relu_3x3"
  type: "ReLU"
  bottom: "inception_4c/3x3"
  top: "inception_4c/3x3"
}
layer {
  name: "inception_4c/5x5_reduce"
  type: "Convolution"
  bottom: "inception_4b/output"
  top: "inception_4c/5x5_reduce"
  param {
    lr_mult: 1
    decay_mult: 1
  }
  param {
    lr_mult: 2
    decay_mult: 0
  }
  convolution_param {
    num_output: 24
    kernel_size: 1
    weight_filler {
      type: "xavier"
      std: 0.2
    }
    bias_filler {
      type: "constant"
      value: 0.2
    }
  }
}
layer {
  name: "inception_4c/relu_5x5_reduce"
  type: "ReLU"
  bottom: "inception_4c/5x5_reduce"
  top: "inception_4c/5x5_reduce"
}
layer {
  name: "inception_4c/5x5"
  type: "Convolution"
  bottom: "inception_4c/5x5_reduce"
  top: "inception_4c/5x5"
  param {
    lr_mult: 1
    decay_mult: 1
  }
  param {
    lr_mult: 2
    decay_mult: 0
  }
  convolution_param {
    num_output: 64
    pad: 2
    kernel_size: 5
    weight_filler {
      type: "xavier"
      std: 0.03
    }
    bias_filler {
      type: "constant"
      value: 0.2
    }
  }
}
layer {
  name: "inception_4c/relu_5x5"
  type: "ReLU"
  bottom: "inception_4c/5x5"
  top: "inception_4c/5x5"
}
layer {
  name: "inception_4c/pool"
  type: "Pooling"
  bottom: "inception_4b/output"
  top: "inception_4c/pool"
  pooling_param {
    pool: MAX
    kernel_size: 3
    stride: 1
    pad: 1
  }
}
layer {
  name: "inception_4c/pool_proj"
  type: "Convolution"
  bottom: "inception_4c/pool"
  top: "inception_4c/pool_proj"
  param {
    lr_mult: 1
    decay_mult: 1
  }
  param {
    lr_mult: 2
    decay_mult: 0
  }
  convolution_param {
    num_output: 64
    kernel_size: 1
    weight_filler {
      type: "xavier"
      std: 0.1
    }
    bias_filler {
      type: "constant"
      value: 0.2
    }
  }
}
layer {
  name: "inception_4c/relu_pool_proj"
  type: "ReLU"
  bottom: "inception_4c/pool_proj"
  top: "inception_4c/pool_proj"
}
layer {
  name: "inception_4c/output"
  type: "Concat"
  bottom: "inception_4c/1x1"
  bottom: "inception_4c/3x3"
  bottom: "inception_4c/5x5"
  bottom: "inception_4c/pool_proj"
  top: "inception_4c/output"
}
layer {
  name: "inception_4d/1x1"
  type: "Convolution"
  bottom: "inception_4c/output"
  top: "inception_4d/1x1"
  param {
    lr_mult: 1
    decay_mult: 1
  }
  param {
    lr_mult: 2
    decay_mult: 0
  }
  convolution_param {
    num_output: 112
    kernel_size: 1
    weight_filler {
      type: "xavier"
      std: 0.03
    }
    bias_filler {
      type: "constant"
      value: 0.2
    }
  }
}
layer {
  name: "inception_4d/relu_1x1"
  type: "ReLU"
  bottom: "inception_4d/1x1"
  top: "inception_4d/1x1"
}
layer {
  name: "inception_4d/3x3_reduce"
  type: "Convolution"
  bottom: "inception_4c/output"
  top: "inception_4d/3x3_reduce"
  param {
    lr_mult: 1
    decay_mult: 1
  }
  param {
    lr_mult: 2
    decay_mult: 0
  }
  convolution_param {
    num_output: 144
    kernel_size: 1
    weight_filler {
      type: "xavier"
      std: 0.09
    }
    bias_filler {
      type: "constant"
      value: 0.2
    }
  }
}
layer {
  name: "inception_4d/relu_3x3_reduce"
  type: "ReLU"
  bottom: "inception_4d/3x3_reduce"
  top: "inception_4d/3x3_reduce"
}
layer {
  name: "inception_4d/3x3"
  type: "Convolution"
  bottom: "inception_4d/3x3_reduce"
  top: "inception_4d/3x3"
  param {
    lr_mult: 1
    decay_mult: 1
  }
  param {
    lr_mult: 2
    decay_mult: 0
  }
  convolution_param {
    num_output: 288
    pad: 1
    kernel_size: 3
    weight_filler {
      type: "xavier"
      std: 0.03
    }
    bias_filler {
      type: "constant"
      value: 0.2
    }
  }
}
layer {
  name: "inception_4d/relu_3x3"
  type: "ReLU"
  bottom: "inception_4d/3x3"
  top: "inception_4d/3x3"
}
layer {
  name: "inception_4d/5x5_reduce"
  type: "Convolution"
  bottom: "inception_4c/output"
  top: "inception_4d/5x5_reduce"
  param {
    lr_mult: 1
    decay_mult: 1
  }
  param {
    lr_mult: 2
    decay_mult: 0
  }
  convolution_param {
    num_output: 32
    kernel_size: 1
    weight_filler {
      type: "xavier"
      std: 0.2
    }
    bias_filler {
      type: "constant"
      value: 0.2
    }
  }
}
layer {
  name: "inception_4d/relu_5x5_reduce"
  type: "ReLU"
  bottom: "inception_4d/5x5_reduce"
  top: "inception_4d/5x5_reduce"
}
layer {
  name: "inception_4d/5x5"
  type: "Convolution"
  bottom: "inception_4d/5x5_reduce"
  top: "inception_4d/5x5"
  param {
    lr_mult: 1
    decay_mult: 1
  }
  param {
    lr_mult: 2
    decay_mult: 0
  }
  convolution_param {
    num_output: 64
    pad: 2
    kernel_size: 5
    weight_filler {
      type: "xavier"
      std: 0.03
    }
    bias_filler {
      type: "constant"
      value: 0.2
    }
  }
}
layer {
  name: "inception_4d/relu_5x5"
  type: "ReLU"
  bottom: "inception_4d/5x5"
  top: "inception_4d/5x5"
}
layer {
  name: "inception_4d/pool"
  type: "Pooling"
  bottom: "inception_4c/output"
  top: "inception_4d/pool"
  pooling_param {
    pool: MAX
    kernel_size: 3
    stride: 1
    pad: 1
  }
}
layer {
  name: "inception_4d/pool_proj"
  type: "Convolution"
  bottom: "inception_4d/pool"
  top: "inception_4d/pool_proj"
  param {
    lr_mult: 1
    decay_mult: 1
  }
  param {
    lr_mult: 2
    decay_mult: 0
  }
  convolution_param {
    num_output: 64
    kernel_size: 1
    weight_filler {
      type: "xavier"
      std: 0.1
    }
    bias_filler {
      type: "constant"
      value: 0.2
    }
  }
}
layer {
  name: "inception_4d/relu_pool_proj"
  type: "ReLU"
  bottom: "inception_4d/pool_proj"
  top: "inception_4d/pool_proj"
}
layer {
  name: "inception_4d/output"
  type: "Concat"
  bottom: "inception_4d/1x1"
  bottom: "inception_4d/3x3"
  bottom: "inception_4d/5x5"
  bottom: "inception_4d/pool_proj"
  top: "inception_4d/output"
}
layer {
  name: "loss2/ave_pool"
  type: "Pooling"
  bottom: "inception_4d/output"
  top: "loss2/ave_pool"
  pooling_param {
    pool: AVE
    kernel_size: 5
    stride: 3
  }
}
layer {
  name: "loss2/conv"
  type: "Convolution"
  bottom: "loss2/ave_pool"
  top: "loss2/conv"
  param {
    lr_mult: 1
    decay_mult: 1
  }
  param {
    lr_mult: 2
    decay_mult: 0
  }
  convolution_param {
    num_output: 128
    kernel_size: 1
    weight_filler {
      type: "xavier"
      std: 0.08
    }
    bias_filler {
      type: "constant"
      value: 0.2
    }
  }
}
layer {
  name: "loss2/relu_conv"
  type: "ReLU"
  bottom: "loss2/conv"
  top: "loss2/conv"
}
layer {
  name: "loss2/fc"
  type: "InnerProduct"
  bottom: "loss2/conv"
  top: "loss2/fc"
  param {
    lr_mult: 1
    decay_mult: 1
  }
  param {
    lr_mult: 2
    decay_mult: 0
  }
  inner_product_param {
    num_output: 1024
    weight_filler {
      type: "xavier"
      std: 0.02
    }
    bias_filler {
      type: "constant"
      value: 0.2
    }
  }
}
layer {
  name: "loss2/relu_fc"
  type: "ReLU"
  bottom: "loss2/fc"
  top: "loss2/fc"
}
layer {
  name: "loss2/drop_fc"
  type: "Dropout"
  bottom: "loss2/fc"
  top: "loss2/fc"
  dropout_param {
    dropout_ratio: 0.7
  }
}
layer {
  name: "loss2/classifier_plantvillage"
  type: "InnerProduct"
  bottom: "loss2/fc"
  top: "loss2/classifier_plantvillage"
  param {
    lr_mult: 1
    decay_mult: 1
  }
  param {
    lr_mult: 2
    decay_mult: 0
  }
  inner_product_param {
    num_output: 38
    weight_filler {
      type: "xavier"
      std: 0.0009765625
    }
    bias_filler {
      type: "constant"
      value: 0
    }
  }
}
layer {
  name: "inception_4e/1x1"
  type: "Convolution"
  bottom: "inception_4d/output"
  top: "inception_4e/1x1"
  param {
    lr_mult: 1
    decay_mult: 1
  }
  param {
    lr_mult: 2
    decay_mult: 0
  }
  convolution_param {
    num_output: 256
    kernel_size: 1
    weight_filler {
      type: "xavier"
      std: 0.03
    }
    bias_filler {
      type: "constant"
      value: 0.2
    }
  }
}
layer {
  name: "inception_4e/relu_1x1"
  type: "ReLU"
  bottom: "inception_4e/1x1"
  top: "inception_4e/1x1"
}
layer {
  name: "inception_4e/3x3_reduce"
  type: "Convolution"
  bottom: "inception_4d/output"
  top: "inception_4e/3x3_reduce"
  param {
    lr_mult: 1
    decay_mult: 1
  }
  param {
    lr_mult: 2
    decay_mult: 0
  }
  convolution_param {
    num_output: 160
    kernel_size: 1
    weight_filler {
      type: "xavier"
      std: 0.09
    }
    bias_filler {
      type: "constant"
      value: 0.2
    }
  }
}
layer {
  name: "inception_4e/relu_3x3_reduce"
  type: "ReLU"
  bottom: "inception_4e/3x3_reduce"
  top: "inception_4e/3x3_reduce"
}
layer {
  name: "inception_4e/3x3"
  type: "Convolution"
  bottom: "inception_4e/3x3_reduce"
  top: "inception_4e/3x3"
  param {
    lr_mult: 1
    decay_mult: 1
  }
  param {
    lr_mult: 2
    decay_mult: 0
  }
  convolution_param {
    num_output: 320
    pad: 1
    kernel_size: 3
    weight_filler {
      type: "xavier"
      std: 0.03
    }
    bias_filler {
      type: "constant"
      value: 0.2
    }
  }
}
layer {
  name: "inception_4e/relu_3x3"
  type: "ReLU"
  bottom: "inception_4e/3x3"
  top: "inception_4e/3x3"
}
layer {
  name: "inception_4e/5x5_reduce"
  type: "Convolution"
  bottom: "inception_4d/output"
  top: "inception_4e/5x5_reduce"
  param {
    lr_mult: 1
    decay_mult: 1
  }
  param {
    lr_mult: 2
    decay_mult: 0
  }
  convolution_param {
    num_output: 32
    kernel_size: 1
    weight_filler {
      type: "xavier"
      std: 0.2
    }
    bias_filler {
      type: "constant"
      value: 0.2
    }
  }
}
layer {
  name: "inception_4e/relu_5x5_reduce"
  type: "ReLU"
  bottom: "inception_4e/5x5_reduce"
  top: "inception_4e/5x5_reduce"
}
layer {
  name: "inception_4e/5x5"
  type: "Convolution"
  bottom: "inception_4e/5x5_reduce"
  top: "inception_4e/
I0403 15:30:04.621306  3165 layer_factory.hpp:77] Creating layer data
I0403 15:30:04.622014  3165 net.cpp:91] Creating Layer data
I0403 15:30:04.622052  3165 net.cpp:399] data -> data
I0403 15:30:04.622112  3165 net.cpp:399] data -> label
I0403 15:30:04.622153  3165 data_transformer.cpp:25] Loading mean file from: /home/mohanty/data/final_dataset/lmdb/grayscale-50-50/mean.binaryproto
I0403 15:30:04.625370  3168 db_lmdb.cpp:38] Opened lmdb /home/mohanty/data/final_dataset/lmdb/grayscale-50-50/test_db
I0403 15:30:04.636014  3165 data_layer.cpp:41] output data size: 24,3,224,224
I0403 15:30:04.665316  3165 net.cpp:141] Setting up data
I0403 15:30:04.665374  3165 net.cpp:148] Top shape: 24 3 224 224 (3612672)
I0403 15:30:04.665398  3165 net.cpp:148] Top shape: 24 (24)
I0403 15:30:04.665415  3165 net.cpp:156] Memory required for data: 14450784
I0403 15:30:04.665443  3165 layer_factory.hpp:77] Creating layer label_data_1_split
I0403 15:30:04.665483  3165 net.cpp:91] Creating Layer label_data_1_split
I0403 15:30:04.665501  3165 net.cpp:425] label_data_1_split <- label
I0403 15:30:04.665534  3165 net.cpp:399] label_data_1_split -> label_data_1_split_0
I0403 15:30:04.665562  3165 net.cpp:399] label_data_1_split -> label_data_1_split_1
I0403 15:30:04.665585  3165 net.cpp:399] label_data_1_split -> label_data_1_split_2
I0403 15:30:04.665606  3165 net.cpp:399] label_data_1_split -> label_data_1_split_3
I0403 15:30:04.665627  3165 net.cpp:399] label_data_1_split -> label_data_1_split_4
I0403 15:30:04.665647  3165 net.cpp:399] label_data_1_split -> label_data_1_split_5
I0403 15:30:04.665666  3165 net.cpp:399] label_data_1_split -> label_data_1_split_6
I0403 15:30:04.665688  3165 net.cpp:399] label_data_1_split -> label_data_1_split_7
I0403 15:30:04.665707  3165 net.cpp:399] label_data_1_split -> label_data_1_split_8
I0403 15:30:04.665729  3165 net.cpp:399] label_data_1_split -> label_data_1_split_9
I0403 15:30:04.665846  3165 net.cpp:141] Setting up label_data_1_split
I0403 15:30:04.665870  3165 net.cpp:148] Top shape: 24 (24)
I0403 15:30:04.665887  3165 net.cpp:148] Top shape: 24 (24)
I0403 15:30:04.665904  3165 net.cpp:148] Top shape: 24 (24)
I0403 15:30:04.665920  3165 net.cpp:148] Top shape: 24 (24)
I0403 15:30:04.665936  3165 net.cpp:148] Top shape: 24 (24)
I0403 15:30:04.665952  3165 net.cpp:148] Top shape: 24 (24)
I0403 15:30:04.665968  3165 net.cpp:148] Top shape: 24 (24)
I0403 15:30:04.665985  3165 net.cpp:148] Top shape: 24 (24)
I0403 15:30:04.666000  3165 net.cpp:148] Top shape: 24 (24)
I0403 15:30:04.666018  3165 net.cpp:148] Top shape: 24 (24)
I0403 15:30:04.666061  3165 net.cpp:156] Memory required for data: 14451744
I0403 15:30:04.666079  3165 layer_factory.hpp:77] Creating layer conv1/7x7_s2
I0403 15:30:04.666111  3165 net.cpp:91] Creating Layer conv1/7x7_s2
I0403 15:30:04.666129  3165 net.cpp:425] conv1/7x7_s2 <- data
I0403 15:30:04.666149  3165 net.cpp:399] conv1/7x7_s2 -> conv1/7x7_s2
I0403 15:30:04.809180  3165 net.cpp:141] Setting up conv1/7x7_s2
I0403 15:30:04.809281  3165 net.cpp:148] Top shape: 24 64 112 112 (19267584)
I0403 15:30:04.809301  3165 net.cpp:156] Memory required for data: 91522080
I0403 15:30:04.809334  3165 layer_factory.hpp:77] Creating layer conv1/relu_7x7
I0403 15:30:04.809362  3165 net.cpp:91] Creating Layer conv1/relu_7x7
I0403 15:30:04.809383  3165 net.cpp:425] conv1/relu_7x7 <- conv1/7x7_s2
I0403 15:30:04.809403  3165 net.cpp:386] conv1/relu_7x7 -> conv1/7x7_s2 (in-place)
I0403 15:30:04.809675  3165 net.cpp:141] Setting up conv1/relu_7x7
I0403 15:30:04.809705  3165 net.cpp:148] Top shape: 24 64 112 112 (19267584)
I0403 15:30:04.809721  3165 net.cpp:156] Memory required for data: 168592416
I0403 15:30:04.809737  3165 layer_factory.hpp:77] Creating layer pool1/3x3_s2
I0403 15:30:04.809763  3165 net.cpp:91] Creating Layer pool1/3x3_s2
I0403 15:30:04.809783  3165 net.cpp:425] pool1/3x3_s2 <- conv1/7x7_s2
I0403 15:30:04.809806  3165 net.cpp:399] pool1/3x3_s2 -> pool1/3x3_s2
I0403 15:30:04.809888  3165 net.cpp:141] Setting up pool1/3x3_s2
I0403 15:30:04.809913  3165 net.cpp:148] Top shape: 24 64 56 56 (4816896)
I0403 15:30:04.809931  3165 net.cpp:156] Memory required for data: 187860000
I0403 15:30:04.809947  3165 layer_factory.hpp:77] Creating layer pool1/norm1
I0403 15:30:04.809973  3165 net.cpp:91] Creating Layer pool1/norm1
I0403 15:30:04.809990  3165 net.cpp:425] pool1/norm1 <- pool1/3x3_s2
I0403 15:30:04.810010  3165 net.cpp:399] pool1/norm1 -> pool1/norm1
I0403 15:30:04.810314  3165 net.cpp:141] Setting up pool1/norm1
I0403 15:30:04.810343  3165 net.cpp:148] Top shape: 24 64 56 56 (4816896)
I0403 15:30:04.810359  3165 net.cpp:156] Memory required for data: 207127584
I0403 15:30:04.810375  3165 layer_factory.hpp:77] Creating layer conv2/3x3_reduce
I0403 15:30:04.810402  3165 net.cpp:91] Creating Layer conv2/3x3_reduce
I0403 15:30:04.810420  3165 net.cpp:425] conv2/3x3_reduce <- pool1/norm1
I0403 15:30:04.810441  3165 net.cpp:399] conv2/3x3_reduce -> conv2/3x3_reduce
I0403 15:30:04.811837  3165 net.cpp:141] Setting up conv2/3x3_reduce
I0403 15:30:04.811868  3165 net.cpp:148] Top shape: 24 64 56 56 (4816896)
I0403 15:30:04.811885  3165 net.cpp:156] Memory required for data: 226395168
I0403 15:30:04.811908  3165 layer_factory.hpp:77] Creating layer conv2/relu_3x3_reduce
I0403 15:30:04.811928  3165 net.cpp:91] Creating Layer conv2/relu_3x3_reduce
I0403 15:30:04.811946  3165 net.cpp:425] conv2/relu_3x3_reduce <- conv2/3x3_reduce
I0403 15:30:04.811965  3165 net.cpp:386] conv2/relu_3x3_reduce -> conv2/3x3_reduce (in-place)
I0403 15:30:04.812234  3165 net.cpp:141] Setting up conv2/relu_3x3_reduce
I0403 15:30:04.812266  3165 net.cpp:148] Top shape: 24 64 56 56 (4816896)
I0403 15:30:04.812283  3165 net.cpp:156] Memory required for data: 245662752
I0403 15:30:04.812299  3165 layer_factory.hpp:77] Creating layer conv2/3x3
I0403 15:30:04.812324  3165 net.cpp:91] Creating Layer conv2/3x3
I0403 15:30:04.812341  3165 net.cpp:425] conv2/3x3 <- conv2/3x3_reduce
I0403 15:30:04.812361  3165 net.cpp:399] conv2/3x3 -> conv2/3x3
I0403 15:30:04.814715  3165 net.cpp:141] Setting up conv2/3x3
I0403 15:30:04.814746  3165 net.cpp:148] Top shape: 24 192 56 56 (14450688)
I0403 15:30:04.814764  3165 net.cpp:156] Memory required for data: 303465504
I0403 15:30:04.814787  3165 layer_factory.hpp:77] Creating layer conv2/relu_3x3
I0403 15:30:04.814807  3165 net.cpp:91] Creating Layer conv2/relu_3x3
I0403 15:30:04.814824  3165 net.cpp:425] conv2/relu_3x3 <- conv2/3x3
I0403 15:30:04.814843  3165 net.cpp:386] conv2/relu_3x3 -> conv2/3x3 (in-place)
I0403 15:30:04.815012  3165 net.cpp:141] Setting up conv2/relu_3x3
I0403 15:30:04.815038  3165 net.cpp:148] Top shape: 24 192 56 56 (14450688)
I0403 15:30:04.815088  3165 net.cpp:156] Memory required for data: 361268256
I0403 15:30:04.815105  3165 layer_factory.hpp:77] Creating layer conv2/norm2
I0403 15:30:04.815126  3165 net.cpp:91] Creating Layer conv2/norm2
I0403 15:30:04.815145  3165 net.cpp:425] conv2/norm2 <- conv2/3x3
I0403 15:30:04.815163  3165 net.cpp:399] conv2/norm2 -> conv2/norm2
I0403 15:30:04.815467  3165 net.cpp:141] Setting up conv2/norm2
I0403 15:30:04.815496  3165 net.cpp:148] Top shape: 24 192 56 56 (14450688)
I0403 15:30:04.815513  3165 net.cpp:156] Memory required for data: 419071008
I0403 15:30:04.815529  3165 layer_factory.hpp:77] Creating layer pool2/3x3_s2
I0403 15:30:04.815549  3165 net.cpp:91] Creating Layer pool2/3x3_s2
I0403 15:30:04.815567  3165 net.cpp:425] pool2/3x3_s2 <- conv2/norm2
I0403 15:30:04.815585  3165 net.cpp:399] pool2/3x3_s2 -> pool2/3x3_s2
I0403 15:30:04.815637  3165 net.cpp:141] Setting up pool2/3x3_s2
I0403 15:30:04.815661  3165 net.cpp:148] Top shape: 24 192 28 28 (3612672)
I0403 15:30:04.815677  3165 net.cpp:156] Memory required for data: 433521696
I0403 15:30:04.815693  3165 layer_factory.hpp:77] Creating layer pool2/3x3_s2_pool2/3x3_s2_0_split
I0403 15:30:04.815712  3165 net.cpp:91] Creating Layer pool2/3x3_s2_pool2/3x3_s2_0_split
I0403 15:30:04.815729  3165 net.cpp:425] pool2/3x3_s2_pool2/3x3_s2_0_split <- pool2/3x3_s2
I0403 15:30:04.815747  3165 net.cpp:399] pool2/3x3_s2_pool2/3x3_s2_0_split -> pool2/3x3_s2_pool2/3x3_s2_0_split_0
I0403 15:30:04.815768  3165 net.cpp:399] pool2/3x3_s2_pool2/3x3_s2_0_split -> pool2/3x3_s2_pool2/3x3_s2_0_split_1
I0403 15:30:04.815789  3165 net.cpp:399] pool2/3x3_s2_pool2/3x3_s2_0_split -> pool2/3x3_s2_pool2/3x3_s2_0_split_2
I0403 15:30:04.815810  3165 net.cpp:399] pool2/3x3_s2_pool2/3x3_s2_0_split -> pool2/3x3_s2_pool2/3x3_s2_0_split_3
I0403 15:30:04.815878  3165 net.cpp:141] Setting up pool2/3x3_s2_pool2/3x3_s2_0_split
I0403 15:30:04.815902  3165 net.cpp:148] Top shape: 24 192 28 28 (3612672)
I0403 15:30:04.815920  3165 net.cpp:148] Top shape: 24 192 28 28 (3612672)
I0403 15:30:04.815937  3165 net.cpp:148] Top shape: 24 192 28 28 (3612672)
I0403 15:30:04.815954  3165 net.cpp:148] Top shape: 24 192 28 28 (3612672)
I0403 15:30:04.815969  3165 net.cpp:156] Memory required for data: 491324448
I0403 15:30:04.815985  3165 layer_factory.hpp:77] Creating layer inception_3a/1x1
I0403 15:30:04.816009  3165 net.cpp:91] Creating Layer inception_3a/1x1
I0403 15:30:04.816025  3165 net.cpp:425] inception_3a/1x1 <- pool2/3x3_s2_pool2/3x3_s2_0_split_0
I0403 15:30:04.816045  3165 net.cpp:399] inception_3a/1x1 -> inception_3a/1x1
I0403 15:30:04.817632  3165 net.cpp:141] Setting up inception_3a/1x1
I0403 15:30:04.817663  3165 net.cpp:148] Top shape: 24 64 28 28 (1204224)
I0403 15:30:04.817680  3165 net.cpp:156] Memory required for data: 496141344
I0403 15:30:04.817701  3165 layer_factory.hpp:77] Creating layer inception_3a/relu_1x1
I0403 15:30:04.817723  3165 net.cpp:91] Creating Layer inception_3a/relu_1x1
I0403 15:30:04.817742  3165 net.cpp:425] inception_3a/relu_1x1 <- inception_3a/1x1
I0403 15:30:04.817761  3165 net.cpp:386] inception_3a/relu_1x1 -> inception_3a/1x1 (in-place)
I0403 15:30:04.817948  3165 net.cpp:141] Setting up inception_3a/relu_1x1
I0403 15:30:04.817975  3165 net.cpp:148] Top shape: 24 64 28 28 (1204224)
I0403 15:30:04.817991  3165 net.cpp:156] Memory required for data: 500958240
I0403 15:30:04.818008  3165 layer_factory.hpp:77] Creating layer inception_3a/3x3_reduce
I0403 15:30:04.818032  3165 net.cpp:91] Creating Layer inception_3a/3x3_reduce
I0403 15:30:04.818051  3165 net.cpp:425] inception_3a/3x3_reduce <- pool2/3x3_s2_pool2/3x3_s2_0_split_1
I0403 15:30:04.818074  3165 net.cpp:399] inception_3a/3x3_reduce -> inception_3a/3x3_reduce
I0403 15:30:04.819841  3165 net.cpp:141] Setting up inception_3a/3x3_reduce
I0403 15:30:04.819876  3165 net.cpp:148] Top shape: 24 96 28 28 (1806336)
I0403 15:30:04.819895  3165 net.cpp:156] Memory required for data: 508183584
I0403 15:30:04.819918  3165 layer_factory.hpp:77] Creating layer inception_3a/relu_3x3_reduce
I0403 15:30:04.819955  3165 net.cpp:91] Creating Layer inception_3a/relu_3x3_reduce
I0403 15:30:04.819974  3165 net.cpp:425] inception_3a/relu_3x3_reduce <- inception_3a/3x3_reduce
I0403 15:30:04.819996  3165 net.cpp:386] inception_3a/relu_3x3_reduce -> inception_3a/3x3_reduce (in-place)
I0403 15:30:04.820185  3165 net.cpp:141] Setting up inception_3a/relu_3x3_reduce
I0403 15:30:04.820212  3165 net.cpp:148] Top shape: 24 96 28 28 (1806336)
I0403 15:30:04.820230  3165 net.cpp:156] Memory required for data: 515408928
I0403 15:30:04.820251  3165 layer_factory.hpp:77] Creating layer inception_3a/3x3
I0403 15:30:04.820277  3165 net.cpp:91] Creating Layer inception_3a/3x3
I0403 15:30:04.820302  3165 net.cpp:425] inception_3a/3x3 <- inception_3a/3x3_reduce
I0403 15:30:04.820329  3165 net.cpp:399] inception_3a/3x3 -> inception_3a/3x3
I0403 15:30:04.822082  3165 net.cpp:141] Setting up inception_3a/3x3
I0403 15:30:04.822118  3165 net.cpp:148] Top shape: 24 128 28 28 (2408448)
I0403 15:30:04.822136  3165 net.cpp:156] Memory required for data: 525042720
I0403 15:30:04.822157  3165 layer_factory.hpp:77] Creating layer inception_3a/relu_3x3
I0403 15:30:04.822176  3165 net.cpp:91] Creating Layer inception_3a/relu_3x3
I0403 15:30:04.822195  3165 net.cpp:425] inception_3a/relu_3x3 <- inception_3a/3x3
I0403 15:30:04.822216  3165 net.cpp:386] inception_3a/relu_3x3 -> inception_3a/3x3 (in-place)
I0403 15:30:04.822506  3165 net.cpp:141] Setting up inception_3a/relu_3x3
I0403 15:30:04.822537  3165 net.cpp:148] Top shape: 24 128 28 28 (2408448)
I0403 15:30:04.822554  3165 net.cpp:156] Memory required for data: 534676512
I0403 15:30:04.822571  3165 layer_factory.hpp:77] Creating layer inception_3a/5x5_reduce
I0403 15:30:04.822595  3165 net.cpp:91] Creating Layer inception_3a/5x5_reduce
I0403 15:30:04.822614  3165 net.cpp:425] inception_3a/5x5_reduce <- pool2/3x3_s2_pool2/3x3_s2_0_split_2
I0403 15:30:04.822634  3165 net.cpp:399] inception_3a/5x5_reduce -> inception_3a/5x5_reduce
I0403 15:30:04.823652  3165 net.cpp:141] Setting up inception_3a/5x5_reduce
I0403 15:30:04.823684  3165 net.cpp:148] Top shape: 24 16 28 28 (301056)
I0403 15:30:04.823703  3165 net.cpp:156] Memory required for data: 535880736
I0403 15:30:04.823722  3165 layer_factory.hpp:77] Creating layer inception_3a/relu_5x5_reduce
I0403 15:30:04.823742  3165 net.cpp:91] Creating Layer inception_3a/relu_5x5_reduce
I0403 15:30:04.823760  3165 net.cpp:425] inception_3a/relu_5x5_reduce <- inception_3a/5x5_reduce
I0403 15:30:04.823781  3165 net.cpp:386] inception_3a/relu_5x5_reduce -> inception_3a/5x5_reduce (in-place)
I0403 15:30:04.824092  3165 net.cpp:141] Setting up inception_3a/relu_5x5_reduce
I0403 15:30:04.824120  3165 net.cpp:148] Top shape: 24 16 28 28 (301056)
I0403 15:30:04.824137  3165 net.cpp:156] Memory required for data: 537084960
I0403 15:30:04.824153  3165 layer_factory.hpp:77] Creating layer inception_3a/5x5
I0403 15:30:04.824178  3165 net.cpp:91] Creating Layer inception_3a/5x5
I0403 15:30:04.824196  3165 net.cpp:425] inception_3a/5x5 <- inception_3a/5x5_reduce
I0403 15:30:04.824218  3165 net.cpp:399] inception_3a/5x5 -> inception_3a/5x5
I0403 15:30:04.825295  3165 net.cpp:141] Setting up inception_3a/5x5
I0403 15:30:04.825327  3165 net.cpp:148] Top shape: 24 32 28 28 (602112)
I0403 15:30:04.825345  3165 net.cpp:156] Memory required for data: 539493408
I0403 15:30:04.825366  3165 layer_factory.hpp:77] Creating layer inception_3a/relu_5x5
I0403 15:30:04.825384  3165 net.cpp:91] Creating Layer inception_3a/relu_5x5
I0403 15:30:04.825402  3165 net.cpp:425] inception_3a/relu_5x5 <- inception_3a/5x5
I0403 15:30:04.825424  3165 net.cpp:386] inception_3a/relu_5x5 -> inception_3a/5x5 (in-place)
I0403 15:30:04.825608  3165 net.cpp:141] Setting up inception_3a/relu_5x5
I0403 15:30:04.825635  3165 net.cpp:148] Top shape: 24 32 28 28 (602112)
I0403 15:30:04.825651  3165 net.cpp:156] Memory required for data: 541901856
I0403 15:30:04.825667  3165 layer_factory.hpp:77] Creating layer inception_3a/pool
I0403 15:30:04.825686  3165 net.cpp:91] Creating Layer inception_3a/pool
I0403 15:30:04.825718  3165 net.cpp:425] inception_3a/pool <- pool2/3x3_s2_pool2/3x3_s2_0_split_3
I0403 15:30:04.825742  3165 net.cpp:399] inception_3a/pool -> inception_3a/pool
I0403 15:30:04.825803  3165 net.cpp:141] Setting up inception_3a/pool
I0403 15:30:04.825827  3165 net.cpp:148] Top shape: 24 192 28 28 (3612672)
I0403 15:30:04.825844  3165 net.cpp:156] Memory required for data: 556352544
I0403 15:30:04.825860  3165 layer_factory.hpp:77] Creating layer inception_3a/pool_proj
I0403 15:30:04.825886  3165 net.cpp:91] Creating Layer inception_3a/pool_proj
I0403 15:30:04.825906  3165 net.cpp:425] inception_3a/pool_proj <- inception_3a/pool
I0403 15:30:04.825925  3165 net.cpp:399] inception_3a/pool_proj -> inception_3a/pool_proj
I0403 15:30:04.826947  3165 net.cpp:141] Setting up inception_3a/pool_proj
I0403 15:30:04.826977  3165 net.cpp:148] Top shape: 24 32 28 28 (602112)
I0403 15:30:04.826993  3165 net.cpp:156] Memory required for data: 558760992
I0403 15:30:04.827019  3165 layer_factory.hpp:77] Creating layer inception_3a/relu_pool_proj
I0403 15:30:04.827040  3165 net.cpp:91] Creating Layer inception_3a/relu_pool_proj
I0403 15:30:04.827057  3165 net.cpp:425] inception_3a/relu_pool_proj <- inception_3a/pool_proj
I0403 15:30:04.827078  3165 net.cpp:386] inception_3a/relu_pool_proj -> inception_3a/pool_proj (in-place)
I0403 15:30:04.827426  3165 net.cpp:141] Setting up inception_3a/relu_pool_proj
I0403 15:30:04.827457  3165 net.cpp:148] Top shape: 24 32 28 28 (602112)
I0403 15:30:04.827476  3165 net.cpp:156] Memory required for data: 561169440
I0403 15:30:04.827491  3165 layer_factory.hpp:77] Creating layer inception_3a/output
I0403 15:30:04.827512  3165 net.cpp:91] Creating Layer inception_3a/output
I0403 15:30:04.827527  3165 net.cpp:425] inception_3a/output <- inception_3a/1x1
I0403 15:30:04.827546  3165 net.cpp:425] inception_3a/output <- inception_3a/3x3
I0403 15:30:04.827564  3165 net.cpp:425] inception_3a/output <- inception_3a/5x5
I0403 15:30:04.827580  3165 net.cpp:425] inception_3a/output <- inception_3a/pool_proj
I0403 15:30:04.827601  3165 net.cpp:399] inception_3a/output -> inception_3a/output
I0403 15:30:04.827651  3165 net.cpp:141] Setting up inception_3a/output
I0403 15:30:04.827675  3165 net.cpp:148] Top shape: 24 256 28 28 (4816896)
I0403 15:30:04.827692  3165 net.cpp:156] Memory required for data: 580437024
I0403 15:30:04.827708  3165 layer_factory.hpp:77] Creating layer inception_3a/output_inception_3a/output_0_split
I0403 15:30:04.827728  3165 net.cpp:91] Creating Layer inception_3a/output_inception_3a/output_0_split
I0403 15:30:04.827746  3165 net.cpp:425] inception_3a/output_inception_3a/output_0_split <- inception_3a/output
I0403 15:30:04.827765  3165 net.cpp:399] inception_3a/output_inception_3a/output_0_split -> inception_3a/output_inception_3a/output_0_split_0
I0403 15:30:04.827786  3165 net.cpp:399] inception_3a/output_inception_3a/output_0_split -> inception_3a/output_inception_3a/output_0_split_1
I0403 15:30:04.827813  3165 net.cpp:399] inception_3a/output_inception_3a/output_0_split -> inception_3a/output_inception_3a/output_0_split_2
I0403 15:30:04.827836  3165 net.cpp:399] inception_3a/output_inception_3a/output_0_split -> inception_3a/output_inception_3a/output_0_split_3
I0403 15:30:04.827913  3165 net.cpp:141] Setting up inception_3a/output_inception_3a/output_0_split
I0403 15:30:04.827942  3165 net.cpp:148] Top shape: 24 256 28 28 (4816896)
I0403 15:30:04.827961  3165 net.cpp:148] Top shape: 24 256 28 28 (4816896)
I0403 15:30:04.827978  3165 net.cpp:148] Top shape: 24 256 28 28 (4816896)
I0403 15:30:04.827996  3165 net.cpp:148] Top shape: 24 256 28 28 (4816896)
I0403 15:30:04.828011  3165 net.cpp:156] Memory required for data: 657507360
I0403 15:30:04.828027  3165 layer_factory.hpp:77] Creating layer inception_3b/1x1
I0403 15:30:04.828052  3165 net.cpp:91] Creating Layer inception_3b/1x1
I0403 15:30:04.828070  3165 net.cpp:425] inception_3b/1x1 <- inception_3a/output_inception_3a/output_0_split_0
I0403 15:30:04.828090  3165 net.cpp:399] inception_3b/1x1 -> inception_3b/1x1
I0403 15:30:04.829288  3165 net.cpp:141] Setting up inception_3b/1x1
I0403 15:30:04.829330  3165 net.cpp:148] Top shape: 24 128 28 28 (2408448)
I0403 15:30:04.829349  3165 net.cpp:156] Memory required for data: 667141152
I0403 15:30:04.829368  3165 layer_factory.hpp:77] Creating layer inception_3b/relu_1x1
I0403 15:30:04.829391  3165 net.cpp:91] Creating Layer inception_3b/relu_1x1
I0403 15:30:04.829408  3165 net.cpp:425] inception_3b/relu_1x1 <- inception_3b/1x1
I0403 15:30:04.829427  3165 net.cpp:386] inception_3b/relu_1x1 -> inception_3b/1x1 (in-place)
I0403 15:30:04.829614  3165 net.cpp:141] Setting up inception_3b/relu_1x1
I0403 15:30:04.829643  3165 net.cpp:148] Top shape: 24 128 28 28 (2408448)
I0403 15:30:04.829659  3165 net.cpp:156] Memory required for data: 676774944
I0403 15:30:04.829676  3165 layer_factory.hpp:77] Creating layer inception_3b/3x3_reduce
I0403 15:30:04.829699  3165 net.cpp:91] Creating Layer inception_3b/3x3_reduce
I0403 15:30:04.829718  3165 net.cpp:425] inception_3b/3x3_reduce <- inception_3a/output_inception_3a/output_0_split_1
I0403 15:30:04.829738  3165 net.cpp:399] inception_3b/3x3_reduce -> inception_3b/3x3_reduce
I0403 15:30:04.830931  3165 net.cpp:141] Setting up inception_3b/3x3_reduce
I0403 15:30:04.830961  3165 net.cpp:148] Top shape: 24 128 28 28 (2408448)
I0403 15:30:04.830978  3165 net.cpp:156] Memory required for data: 686408736
I0403 15:30:04.830999  3165 layer_factory.hpp:77] Creating layer inception_3b/relu_3x3_reduce
I0403 15:30:04.831020  3165 net.cpp:91] Creating Layer inception_3b/relu_3x3_reduce
I0403 15:30:04.831038  3165 net.cpp:425] inception_3b/relu_3x3_reduce <- inception_3b/3x3_reduce
I0403 15:30:04.831058  3165 net.cpp:386] inception_3b/relu_3x3_reduce -> inception_3b/3x3_reduce (in-place)
I0403 15:30:04.831238  3165 net.cpp:141] Setting up inception_3b/relu_3x3_reduce
I0403 15:30:04.831271  3165 net.cpp:148] Top shape: 24 128 28 28 (2408448)
I0403 15:30:04.831289  3165 net.cpp:156] Memory required for data: 696042528
I0403 15:30:04.831305  3165 layer_factory.hpp:77] Creating layer inception_3b/3x3
I0403 15:30:04.831331  3165 net.cpp:91] Creating Layer inception_3b/3x3
I0403 15:30:04.831351  3165 net.cpp:425] inception_3b/3x3 <- inception_3b/3x3_reduce
I0403 15:30:04.831373  3165 net.cpp:399] inception_3b/3x3 -> inception_3b/3x3
I0403 15:30:04.834441  3165 net.cpp:141] Setting up inception_3b/3x3
I0403 15:30:04.834475  3165 net.cpp:148] Top shape: 24 192 28 28 (3612672)
I0403 15:30:04.834493  3165 net.cpp:156] Memory required for data: 710493216
I0403 15:30:04.834513  3165 layer_factory.hpp:77] Creating layer inception_3b/relu_3x3
I0403 15:30:04.834533  3165 net.cpp:91] Creating Layer inception_3b/relu_3x3
I0403 15:30:04.834552  3165 net.cpp:425] inception_3b/relu_3x3 <- inception_3b/3x3
I0403 15:30:04.834573  3165 net.cpp:386] inception_3b/relu_3x3 -> inception_3b/3x3 (in-place)
I0403 15:30:04.834864  3165 net.cpp:141] Setting up inception_3b/relu_3x3
I0403 15:30:04.834894  3165 net.cpp:148] Top shape: 24 192 28 28 (3612672)
I0403 15:30:04.834911  3165 net.cpp:156] Memory required for data: 724943904
I0403 15:30:04.834928  3165 layer_factory.hpp:77] Creating layer inception_3b/5x5_reduce
I0403 15:30:04.834952  3165 net.cpp:91] Creating Layer inception_3b/5x5_reduce
I0403 15:30:04.834971  3165 net.cpp:425] inception_3b/5x5_reduce <- inception_3a/output_inception_3a/output_0_split_2
I0403 15:30:04.834991  3165 net.cpp:399] inception_3b/5x5_reduce -> inception_3b/5x5_reduce
I0403 15:30:04.836032  3165 net.cpp:141] Setting up inception_3b/5x5_reduce
I0403 15:30:04.836064  3165 net.cpp:148] Top shape: 24 32 28 28 (602112)
I0403 15:30:04.836082  3165 net.cpp:156] Memory required for data: 727352352
I0403 15:30:04.836102  3165 layer_factory.hpp:77] Creating layer inception_3b/relu_5x5_reduce
I0403 15:30:04.836122  3165 net.cpp:91] Creating Layer inception_3b/relu_5x5_reduce
I0403 15:30:04.836139  3165 net.cpp:425] inception_3b/relu_5x5_reduce <- inception_3b/5x5_reduce
I0403 15:30:04.836160  3165 net.cpp:386] inception_3b/relu_5x5_reduce -> inception_3b/5x5_reduce (in-place)
I0403 15:30:04.836366  3165 net.cpp:141] Setting up inception_3b/relu_5x5_reduce
I0403 15:30:04.836395  3165 net.cpp:148] Top shape: 24 32 28 28 (602112)
I0403 15:30:04.836410  3165 net.cpp:156] Memory required for data: 729760800
I0403 15:30:04.836426  3165 layer_factory.hpp:77] Creating layer inception_3b/5x5
I0403 15:30:04.836450  3165 net.cpp:91] Creating Layer inception_3b/5x5
I0403 15:30:04.836469  3165 net.cpp:425] inception_3b/5x5 <- inception_3b/5x5_reduce
I0403 15:30:04.836491  3165 net.cpp:399] inception_3b/5x5 -> inception_3b/5x5
I0403 15:30:04.838557  3165 net.cpp:141] Setting up inception_3b/5x5
I0403 15:30:04.838588  3165 net.cpp:148] Top shape: 24 96 28 28 (1806336)
I0403 15:30:04.838605  3165 net.cpp:156] Memory required for data: 736986144
I0403 15:30:04.838625  3165 layer_factory.hpp:77] Creating layer inception_3b/relu_5x5
I0403 15:30:04.838646  3165 net.cpp:91] Creating Layer inception_3b/relu_5x5
I0403 15:30:04.838663  3165 net.cpp:425] inception_3b/relu_5x5 <- inception_3b/5x5
I0403 15:30:04.838682  3165 net.cpp:386] inception_3b/relu_5x5 -> inception_3b/5x5 (in-place)
I0403 15:30:04.838883  3165 net.cpp:141] Setting up inception_3b/relu_5x5
I0403 15:30:04.838912  3165 net.cpp:148] Top shape: 24 96 28 28 (1806336)
I0403 15:30:04.838927  3165 net.cpp:156] Memory required for data: 744211488
I0403 15:30:04.838943  3165 layer_factory.hpp:77] Creating layer inception_3b/pool
I0403 15:30:04.838963  3165 net.cpp:91] Creating Layer inception_3b/pool
I0403 15:30:04.838980  3165 net.cpp:425] inception_3b/pool <- inception_3a/output_inception_3a/output_0_split_3
I0403 15:30:04.838999  3165 net.cpp:399] inception_3b/pool -> inception_3b/pool
I0403 15:30:04.839058  3165 net.cpp:141] Setting up inception_3b/pool
I0403 15:30:04.839083  3165 net.cpp:148] Top shape: 24 256 28 28 (4816896)
I0403 15:30:04.839099  3165 net.cpp:156] Memory required for data: 763479072
I0403 15:30:04.839115  3165 layer_factory.hpp:77] Creating layer inception_3b/pool_proj
I0403 15:30:04.839139  3165 net.cpp:91] Creating Layer inception_3b/pool_proj
I0403 15:30:04.839164  3165 net.cpp:425] inception_3b/pool_proj <- inception_3b/pool
I0403 15:30:04.839186  3165 net.cpp:399] inception_3b/pool_proj -> inception_3b/pool_proj
I0403 15:30:04.840308  3165 net.cpp:141] Setting up inception_3b/pool_proj
I0403 15:30:04.840338  3165 net.cpp:148] Top shape: 24 64 28 28 (1204224)
I0403 15:30:04.840354  3165 net.cpp:156] Memory required for data: 768295968
I0403 15:30:04.840375  3165 layer_factory.hpp:77] Creating layer inception_3b/relu_pool_proj
I0403 15:30:04.840394  3165 net.cpp:91] Creating Layer inception_3b/relu_pool_proj
I0403 15:30:04.840411  3165 net.cpp:425] inception_3b/relu_pool_proj <- inception_3b/pool_proj
I0403 15:30:04.840432  3165 net.cpp:386] inception_3b/relu_pool_proj -> inception_3b/pool_proj (in-place)
I0403 15:30:04.840854  3165 net.cpp:141] Setting up inception_3b/relu_pool_proj
I0403 15:30:04.840883  3165 net.cpp:148] Top shape: 24 64 28 28 (1204224)
I0403 15:30:04.840899  3165 net.cpp:156] Memory required for data: 773112864
I0403 15:30:04.840916  3165 layer_factory.hpp:77] Creating layer inception_3b/output
I0403 15:30:04.840934  3165 net.cpp:91] Creating Layer inception_3b/output
I0403 15:30:04.840951  3165 net.cpp:425] inception_3b/output <- inception_3b/1x1
I0403 15:30:04.840970  3165 net.cpp:425] inception_3b/output <- inception_3b/3x3
I0403 15:30:04.840986  3165 net.cpp:425] inception_3b/output <- inception_3b/5x5
I0403 15:30:04.841003  3165 net.cpp:425] inception_3b/output <- inception_3b/pool_proj
I0403 15:30:04.841024  3165 net.cpp:399] inception_3b/output -> inception_3b/output
I0403 15:30:04.841070  3165 net.cpp:141] Setting up inception_3b/output
I0403 15:30:04.841097  3165 net.cpp:148] Top shape: 24 480 28 28 (9031680)
I0403 15:30:04.841114  3165 net.cpp:156] Memory required for data: 809239584
I0403 15:30:04.841130  3165 layer_factory.hpp:77] Creating layer pool3/3x3_s2
I0403 15:30:04.841148  3165 net.cpp:91] Creating Layer pool3/3x3_s2
I0403 15:30:04.841166  3165 net.cpp:425] pool3/3x3_s2 <- inception_3b/output
I0403 15:30:04.841202  3165 net.cpp:399] pool3/3x3_s2 -> pool3/3x3_s2
I0403 15:30:04.841270  3165 net.cpp:141] Setting up pool3/3x3_s2
I0403 15:30:04.841295  3165 net.cpp:148] Top shape: 24 480 14 14 (2257920)
I0403 15:30:04.841311  3165 net.cpp:156] Memory required for data: 818271264
I0403 15:30:04.841327  3165 layer_factory.hpp:77] Creating layer pool3/3x3_s2_pool3/3x3_s2_0_split
I0403 15:30:04.841348  3165 net.cpp:91] Creating Layer pool3/3x3_s2_pool3/3x3_s2_0_split
I0403 15:30:04.841366  3165 net.cpp:425] pool3/3x3_s2_pool3/3x3_s2_0_split <- pool3/3x3_s2
I0403 15:30:04.841384  3165 net.cpp:399] pool3/3x3_s2_pool3/3x3_s2_0_split -> pool3/3x3_s2_pool3/3x3_s2_0_split_0
I0403 15:30:04.841405  3165 net.cpp:399] pool3/3x3_s2_pool3/3x3_s2_0_split -> pool3/3x3_s2_pool3/3x3_s2_0_split_1
I0403 15:30:04.841426  3165 net.cpp:399] pool3/3x3_s2_pool3/3x3_s2_0_split -> pool3/3x3_s2_pool3/3x3_s2_0_split_2
I0403 15:30:04.841447  3165 net.cpp:399] pool3/3x3_s2_pool3/3x3_s2_0_split -> pool3/3x3_s2_pool3/3x3_s2_0_split_3
I0403 15:30:04.841527  3165 net.cpp:141] Setting up pool3/3x3_s2_pool3/3x3_s2_0_split
I0403 15:30:04.841552  3165 net.cpp:148] Top shape: 24 480 14 14 (2257920)
I0403 15:30:04.841569  3165 net.cpp:148] Top shape: 24 480 14 14 (2257920)
I0403 15:30:04.841586  3165 net.cpp:148] Top shape: 24 480 14 14 (2257920)
I0403 15:30:04.841603  3165 net.cpp:148] Top shape: 24 480 14 14 (2257920)
I0403 15:30:04.841619  3165 net.cpp:156] Memory required for data: 854397984
I0403 15:30:04.841634  3165 layer_factory.hpp:77] Creating layer inception_4a/1x1
I0403 15:30:04.841657  3165 net.cpp:91] Creating Layer inception_4a/1x1
I0403 15:30:04.841676  3165 net.cpp:425] inception_4a/1x1 <- pool3/3x3_s2_pool3/3x3_s2_0_split_0
I0403 15:30:04.841698  3165 net.cpp:399] inception_4a/1x1 -> inception_4a/1x1
I0403 15:30:04.843374  3165 net.cpp:141] Setting up inception_4a/1x1
I0403 15:30:04.843403  3165 net.cpp:148] Top shape: 24 192 14 14 (903168)
I0403 15:30:04.843420  3165 net.cpp:156] Memory required for data: 858010656
I0403 15:30:04.843439  3165 layer_factory.hpp:77] Creating layer inception_4a/relu_1x1
I0403 15:30:04.843462  3165 net.cpp:91] Creating Layer inception_4a/relu_1x1
I0403 15:30:04.843480  3165 net.cpp:425] inception_4a/relu_1x1 <- inception_4a/1x1
I0403 15:30:04.843499  3165 net.cpp:386] inception_4a/relu_1x1 -> inception_4a/1x1 (in-place)
I0403 15:30:04.843686  3165 net.cpp:141] Setting up inception_4a/relu_1x1
I0403 15:30:04.843715  3165 net.cpp:148] Top shape: 24 192 14 14 (903168)
I0403 15:30:04.843731  3165 net.cpp:156] Memory required for data: 861623328
I0403 15:30:04.843747  3165 layer_factory.hpp:77] Creating layer inception_4a/3x3_reduce
I0403 15:30:04.843768  3165 net.cpp:91] Creating Layer inception_4a/3x3_reduce
I0403 15:30:04.843786  3165 net.cpp:425] inception_4a/3x3_reduce <- pool3/3x3_s2_pool3/3x3_s2_0_split_1
I0403 15:30:04.843809  3165 net.cpp:399] inception_4a/3x3_reduce -> inception_4a/3x3_reduce
I0403 15:30:04.845151  3165 net.cpp:141] Setting up inception_4a/3x3_reduce
I0403 15:30:04.845180  3165 net.cpp:148] Top shape: 24 96 14 14 (451584)
I0403 15:30:04.845197  3165 net.cpp:156] Memory required for data: 863429664
I0403 15:30:04.845226  3165 layer_factory.hpp:77] Creating layer inception_4a/relu_3x3_reduce
I0403 15:30:04.845252  3165 net.cpp:91] Creating Layer inception_4a/relu_3x3_reduce
I0403 15:30:04.845270  3165 net.cpp:425] inception_4a/relu_3x3_reduce <- inception_4a/3x3_reduce
I0403 15:30:04.845291  3165 net.cpp:386] inception_4a/relu_3x3_reduce -> inception_4a/3x3_reduce (in-place)
I0403 15:30:04.845474  3165 net.cpp:141] Setting up inception_4a/relu_3x3_reduce
I0403 15:30:04.845500  3165 net.cpp:148] Top shape: 24 96 14 14 (451584)
I0403 15:30:04.845516  3165 net.cpp:156] Memory required for data: 865236000
I0403 15:30:04.845532  3165 layer_factory.hpp:77] Creating layer inception_4a/3x3
I0403 15:30:04.845557  3165 net.cpp:91] Creating Layer inception_4a/3x3
I0403 15:30:04.845576  3165 net.cpp:425] inception_4a/3x3 <- inception_4a/3x3_reduce
I0403 15:30:04.845597  3165 net.cpp:399] inception_4a/3x3 -> inception_4a/3x3
I0403 15:30:04.848412  3165 net.cpp:141] Setting up inception_4a/3x3
I0403 15:30:04.848443  3165 net.cpp:148] Top shape: 24 208 14 14 (978432)
I0403 15:30:04.848459  3165 net.cpp:156] Memory required for data: 869149728
I0403 15:30:04.848479  3165 layer_factory.hpp:77] Creating layer inception_4a/relu_3x3
I0403 15:30:04.848503  3165 net.cpp:91] Creating Layer inception_4a/relu_3x3
I0403 15:30:04.848522  3165 net.cpp:425] inception_4a/relu_3x3 <- inception_4a/3x3
I0403 15:30:04.848541  3165 net.cpp:386] inception_4a/relu_3x3 -> inception_4a/3x3 (in-place)
I0403 15:30:04.848827  3165 net.cpp:141] Setting up inception_4a/relu_3x3
I0403 15:30:04.848856  3165 net.cpp:148] Top shape: 24 208 14 14 (978432)
I0403 15:30:04.848872  3165 net.cpp:156] Memory required for data: 873063456
I0403 15:30:04.848888  3165 layer_factory.hpp:77] Creating layer inception_4a/5x5_reduce
I0403 15:30:04.848915  3165 net.cpp:91] Creating Layer inception_4a/5x5_reduce
I0403 15:30:04.848934  3165 net.cpp:425] inception_4a/5x5_reduce <- pool3/3x3_s2_pool3/3x3_s2_0_split_2
I0403 15:30:04.848954  3165 net.cpp:399] inception_4a/5x5_reduce -> inception_4a/5x5_reduce
I0403 15:30:04.850023  3165 net.cpp:141] Setting up inception_4a/5x5_reduce
I0403 15:30:04.850054  3165 net.cpp:148] Top shape: 24 16 14 14 (75264)
I0403 15:30:04.850071  3165 net.cpp:156] Memory required for data: 873364512
I0403 15:30:04.850090  3165 layer_factory.hpp:77] Creating layer inception_4a/relu_5x5_reduce
I0403 15:30:04.850109  3165 net.cpp:91] Creating Layer inception_4a/relu_5x5_reduce
I0403 15:30:04.850127  3165 net.cpp:425] inception_4a/relu_5x5_reduce <- inception_4a/5x5_reduce
I0403 15:30:04.850148  3165 net.cpp:386] inception_4a/relu_5x5_reduce -> inception_4a/5x5_reduce (in-place)
I0403 15:30:04.850342  3165 net.cpp:141] Setting up inception_4a/relu_5x5_reduce
I0403 15:30:04.850368  3165 net.cpp:148] Top shape: 24 16 14 14 (75264)
I0403 15:30:04.850384  3165 net.cpp:156] Memory required for data: 873665568
I0403 15:30:04.850400  3165 layer_factory.hpp:77] Creating layer inception_4a/5x5
I0403 15:30:04.850425  3165 net.cpp:91] Creating Layer inception_4a/5x5
I0403 15:30:04.850443  3165 net.cpp:425] inception_4a/5x5 <- inception_4a/5x5_reduce
I0403 15:30:04.850466  3165 net.cpp:399] inception_4a/5x5 -> inception_4a/5x5
I0403 15:30:04.851601  3165 net.cpp:141] Setting up inception_4a/5x5
I0403 15:30:04.851629  3165 net.cpp:148] Top shape: 24 48 14 14 (225792)
I0403 15:30:04.851646  3165 net.cpp:156] Memory required for data: 874568736
I0403 15:30:04.851665  3165 layer_factory.hpp:77] Creating layer inception_4a/relu_5x5
I0403 15:30:04.851685  3165 net.cpp:91] Creating Layer inception_4a/relu_5x5
I0403 15:30:04.851706  3165 net.cpp:425] inception_4a/relu_5x5 <- inception_4a/5x5
I0403 15:30:04.851725  3165 net.cpp:386] inception_4a/relu_5x5 -> inception_4a/5x5 (in-place)
I0403 15:30:04.851910  3165 net.cpp:141] Setting up inception_4a/relu_5x5
I0403 15:30:04.851938  3165 net.cpp:148] Top shape: 24 48 14 14 (225792)
I0403 15:30:04.851953  3165 net.cpp:156] Memory required for data: 875471904
I0403 15:30:04.851969  3165 layer_factory.hpp:77] Creating layer inception_4a/pool
I0403 15:30:04.851992  3165 net.cpp:91] Creating Layer inception_4a/pool
I0403 15:30:04.852010  3165 net.cpp:425] inception_4a/pool <- pool3/3x3_s2_pool3/3x3_s2_0_split_3
I0403 15:30:04.852030  3165 net.cpp:399] inception_4a/pool -> inception_4a/pool
I0403 15:30:04.852095  3165 net.cpp:141] Setting up inception_4a/pool
I0403 15:30:04.852120  3165 net.cpp:148] Top shape: 24 480 14 14 (2257920)
I0403 15:30:04.852136  3165 net.cpp:156] Memory required for data: 884503584
I0403 15:30:04.852151  3165 layer_factory.hpp:77] Creating layer inception_4a/pool_proj
I0403 15:30:04.852174  3165 net.cpp:91] Creating Layer inception_4a/pool_proj
I0403 15:30:04.852193  3165 net.cpp:425] inception_4a/pool_proj <- inception_4a/pool
I0403 15:30:04.852216  3165 net.cpp:399] inception_4a/pool_proj -> inception_4a/pool_proj
I0403 15:30:04.853448  3165 net.cpp:141] Setting up inception_4a/pool_proj
I0403 15:30:04.853478  3165 net.cpp:148] Top shape: 24 64 14 14 (301056)
I0403 15:30:04.853510  3165 net.cpp:156] Memory required for data: 885707808
I0403 15:30:04.853531  3165 layer_factory.hpp:77] Creating layer inception_4a/relu_pool_proj
I0403 15:30:04.853554  3165 net.cpp:91] Creating Layer inception_4a/relu_pool_proj
I0403 15:30:04.853572  3165 net.cpp:425] inception_4a/relu_pool_proj <- inception_4a/pool_proj
I0403 15:30:04.853591  3165 net.cpp:386] inception_4a/relu_pool_proj -> inception_4a/pool_proj (in-place)
I0403 15:30:04.853883  3165 net.cpp:141] Setting up inception_4a/relu_pool_proj
I0403 15:30:04.853911  3165 net.cpp:148] Top shape: 24 64 14 14 (301056)
I0403 15:30:04.853927  3165 net.cpp:156] Memory required for data: 886912032
I0403 15:30:04.853945  3165 layer_factory.hpp:77] Creating layer inception_4a/output
I0403 15:30:04.853962  3165 net.cpp:91] Creating Layer inception_4a/output
I0403 15:30:04.853979  3165 net.cpp:425] inception_4a/output <- inception_4a/1x1
I0403 15:30:04.853999  3165 net.cpp:425] inception_4a/output <- inception_4a/3x3
I0403 15:30:04.854017  3165 net.cpp:425] inception_4a/output <- inception_4a/5x5
I0403 15:30:04.854035  3165 net.cpp:425] inception_4a/output <- inception_4a/pool_proj
I0403 15:30:04.854053  3165 net.cpp:399] inception_4a/output -> inception_4a/output
I0403 15:30:04.854100  3165 net.cpp:141] Setting up inception_4a/output
I0403 15:30:04.854127  3165 net.cpp:148] Top shape: 24 512 14 14 (2408448)
I0403 15:30:04.854143  3165 net.cpp:156] Memory required for data: 896545824
I0403 15:30:04.854161  3165 layer_factory.hpp:77] Creating layer inception_4a/output_inception_4a/output_0_split
I0403 15:30:04.854178  3165 net.cpp:91] Creating Layer inception_4a/output_inception_4a/output_0_split
I0403 15:30:04.854195  3165 net.cpp:425] inception_4a/output_inception_4a/output_0_split <- inception_4a/output
I0403 15:30:04.854217  3165 net.cpp:399] inception_4a/output_inception_4a/output_0_split -> inception_4a/output_inception_4a/output_0_split_0
I0403 15:30:04.854243  3165 net.cpp:399] inception_4a/output_inception_4a/output_0_split -> inception_4a/output_inception_4a/output_0_split_1
I0403 15:30:04.854266  3165 net.cpp:399] inception_4a/output_inception_4a/output_0_split -> inception_4a/output_inception_4a/output_0_split_2
I0403 15:30:04.854288  3165 net.cpp:399] inception_4a/output_inception_4a/output_0_split -> inception_4a/output_inception_4a/output_0_split_3
I0403 15:30:04.854310  3165 net.cpp:399] inception_4a/output_inception_4a/output_0_split -> inception_4a/output_inception_4a/output_0_split_4
I0403 15:30:04.854408  3165 net.cpp:141] Setting up inception_4a/output_inception_4a/output_0_split
I0403 15:30:04.854431  3165 net.cpp:148] Top shape: 24 512 14 14 (2408448)
I0403 15:30:04.854451  3165 net.cpp:148] Top shape: 24 512 14 14 (2408448)
I0403 15:30:04.854470  3165 net.cpp:148] Top shape: 24 512 14 14 (2408448)
I0403 15:30:04.854486  3165 net.cpp:148] Top shape: 24 512 14 14 (2408448)
I0403 15:30:04.854503  3165 net.cpp:148] Top shape: 24 512 14 14 (2408448)
I0403 15:30:04.854518  3165 net.cpp:156] Memory required for data: 944714784
I0403 15:30:04.854534  3165 layer_factory.hpp:77] Creating layer loss1/ave_pool
I0403 15:30:04.854552  3165 net.cpp:91] Creating Layer loss1/ave_pool
I0403 15:30:04.854569  3165 net.cpp:425] loss1/ave_pool <- inception_4a/output_inception_4a/output_0_split_0
I0403 15:30:04.854591  3165 net.cpp:399] loss1/ave_pool -> loss1/ave_pool
I0403 15:30:04.854814  3165 net.cpp:141] Setting up loss1/ave_pool
I0403 15:30:04.854841  3165 net.cpp:148] Top shape: 24 512 4 4 (196608)
I0403 15:30:04.854857  3165 net.cpp:156] Memory required for data: 945501216
I0403 15:30:04.854873  3165 layer_factory.hpp:77] Creating layer loss1/conv
I0403 15:30:04.854897  3165 net.cpp:91] Creating Layer loss1/conv
I0403 15:30:04.854915  3165 net.cpp:425] loss1/conv <- loss1/ave_pool
I0403 15:30:04.854938  3165 net.cpp:399] loss1/conv -> loss1/conv
I0403 15:30:04.856434  3165 net.cpp:141] Setting up loss1/conv
I0403 15:30:04.856463  3165 net.cpp:148] Top shape: 24 128 4 4 (49152)
I0403 15:30:04.856495  3165 net.cpp:156] Memory required for data: 945697824
I0403 15:30:04.856516  3165 layer_factory.hpp:77] Creating layer loss1/relu_conv
I0403 15:30:04.856537  3165 net.cpp:91] Creating Layer loss1/relu_conv
I0403 15:30:04.856555  3165 net.cpp:425] loss1/relu_conv <- loss1/conv
I0403 15:30:04.856573  3165 net.cpp:386] loss1/relu_conv -> loss1/conv (in-place)
I0403 15:30:04.856874  3165 net.cpp:141] Setting up loss1/relu_conv
I0403 15:30:04.856902  3165 net.cpp:148] Top shape: 24 128 4 4 (49152)
I0403 15:30:04.856919  3165 net.cpp:156] Memory required for data: 945894432
I0403 15:30:04.856935  3165 layer_factory.hpp:77] Creating layer loss1/fc
I0403 15:30:04.856961  3165 net.cpp:91] Creating Layer loss1/fc
I0403 15:30:04.856981  3165 net.cpp:425] loss1/fc <- loss1/conv
I0403 15:30:04.857003  3165 net.cpp:399] loss1/fc -> loss1/fc
I0403 15:30:04.875067  3165 net.cpp:141] Setting up loss1/fc
I0403 15:30:04.875099  3165 net.cpp:148] Top shape: 24 1024 (24576)
I0403 15:30:04.875114  3165 net.cpp:156] Memory required for data: 945992736
I0403 15:30:04.875133  3165 layer_factory.hpp:77] Creating layer loss1/relu_fc
I0403 15:30:04.875151  3165 net.cpp:91] Creating Layer loss1/relu_fc
I0403 15:30:04.875169  3165 net.cpp:425] loss1/relu_fc <- loss1/fc
I0403 15:30:04.875187  3165 net.cpp:386] loss1/relu_fc -> loss1/fc (in-place)
I0403 15:30:04.875375  3165 net.cpp:141] Setting up loss1/relu_fc
I0403 15:30:04.875402  3165 net.cpp:148] Top shape: 24 1024 (24576)
I0403 15:30:04.875417  3165 net.cpp:156] Memory required for data: 946091040
I0403 15:30:04.875432  3165 layer_factory.hpp:77] Creating layer loss1/drop_fc
I0403 15:30:04.875458  3165 net.cpp:91] Creating Layer loss1/drop_fc
I0403 15:30:04.875475  3165 net.cpp:425] loss1/drop_fc <- loss1/fc
I0403 15:30:04.875494  3165 net.cpp:386] loss1/drop_fc -> loss1/fc (in-place)
I0403 15:30:04.875546  3165 net.cpp:141] Setting up loss1/drop_fc
I0403 15:30:04.875568  3165 net.cpp:148] Top shape: 24 1024 (24576)
I0403 15:30:04.875583  3165 net.cpp:156] Memory required for data: 946189344
I0403 15:30:04.875598  3165 layer_factory.hpp:77] Creating layer loss1/classifier_plantvillage
I0403 15:30:04.875617  3165 net.cpp:91] Creating Layer loss1/classifier_plantvillage
I0403 15:30:04.875632  3165 net.cpp:425] loss1/classifier_plantvillage <- loss1/fc
I0403 15:30:04.875653  3165 net.cpp:399] loss1/classifier_plantvillage -> loss1/classifier_plantvillage
I0403 15:30:04.876555  3165 net.cpp:141] Setting up loss1/classifier_plantvillage
I0403 15:30:04.876584  3165 net.cpp:148] Top shape: 24 38 (912)
I0403 15:30:04.876600  3165 net.cpp:156] Memory required for data: 946192992
I0403 15:30:04.876617  3165 layer_factory.hpp:77] Creating layer loss1/classifier_plantvillage_loss1/classifier_plantvillage_0_split
I0403 15:30:04.876638  3165 net.cpp:91] Creating Layer loss1/classifier_plantvillage_loss1/classifier_plantvillage_0_split
I0403 15:30:04.876655  3165 net.cpp:425] loss1/classifier_plantvillage_loss1/classifier_plantvillage_0_split <- loss1/classifier_plantvillage
I0403 15:30:04.876673  3165 net.cpp:399] loss1/classifier_plantvillage_loss1/classifier_plantvillage_0_split -> loss1/classifier_plantvillage_loss1/classifier_plantvillage_0_split_0
I0403 15:30:04.876693  3165 net.cpp:399] loss1/classifier_plantvillage_loss1/classifier_plantvillage_0_split -> loss1/classifier_plantvillage_loss1/classifier_plantvillage_0_split_1
I0403 15:30:04.876714  3165 net.cpp:399] loss1/classifier_plantvillage_loss1/classifier_plantvillage_0_split -> loss1/classifier_plantvillage_loss1/classifier_plantvillage_0_split_2
I0403 15:30:04.876783  3165 net.cpp:141] Setting up loss1/classifier_plantvillage_loss1/classifier_plantvillage_0_split
I0403 15:30:04.876806  3165 net.cpp:148] Top shape: 24 38 (912)
I0403 15:30:04.876823  3165 net.cpp:148] Top shape: 24 38 (912)
I0403 15:30:04.876838  3165 net.cpp:148] Top shape: 24 38 (912)
I0403 15:30:04.876852  3165 net.cpp:156] Memory required for data: 946203936
I0403 15:30:04.876868  3165 layer_factory.hpp:77] Creating layer inception_4b/1x1
I0403 15:30:04.876889  3165 net.cpp:91] Creating Layer inception_4b/1x1
I0403 15:30:04.876920  3165 net.cpp:425] inception_4b/1x1 <- inception_4a/output_inception_4a/output_0_split_1
I0403 15:30:04.876940  3165 net.cpp:399] inception_4b/1x1 -> inception_4b/1x1
I0403 15:30:04.878569  3165 net.cpp:141] Setting up inception_4b/1x1
I0403 15:30:04.878597  3165 net.cpp:148] Top shape: 24 160 14 14 (752640)
I0403 15:30:04.878613  3165 net.cpp:156] Memory required for data: 949214496
I0403 15:30:04.878634  3165 layer_factory.hpp:77] Creating layer inception_4b/relu_1x1
I0403 15:30:04.878654  3165 net.cpp:91] Creating Layer inception_4b/relu_1x1
I0403 15:30:04.878669  3165 net.cpp:425] inception_4b/relu_1x1 <- inception_4b/1x1
I0403 15:30:04.878686  3165 net.cpp:386] inception_4b/relu_1x1 -> inception_4b/1x1 (in-place)
I0403 15:30:04.878866  3165 net.cpp:141] Setting up inception_4b/relu_1x1
I0403 15:30:04.878891  3165 net.cpp:148] Top shape: 24 160 14 14 (752640)
I0403 15:30:04.878907  3165 net.cpp:156] Memory required for data: 952225056
I0403 15:30:04.878922  3165 layer_factory.hpp:77] Creating layer inception_4b/3x3_reduce
I0403 15:30:04.878947  3165 net.cpp:91] Creating Layer inception_4b/3x3_reduce
I0403 15:30:04.878964  3165 net.cpp:425] inception_4b/3x3_reduce <- inception_4a/output_inception_4a/output_0_split_2
I0403 15:30:04.878986  3165 net.cpp:399] inception_4b/3x3_reduce -> inception_4b/3x3_reduce
I0403 15:30:04.880326  3165 net.cpp:141] Setting up inception_4b/3x3_reduce
I0403 15:30:04.880353  3165 net.cpp:148] Top shape: 24 112 14 14 (526848)
I0403 15:30:04.880369  3165 net.cpp:156] Memory required for data: 954332448
I0403 15:30:04.880388  3165 layer_factory.hpp:77] Creating layer inception_4b/relu_3x3_reduce
I0403 15:30:04.880406  3165 net.cpp:91] Creating Layer inception_4b/relu_3x3_reduce
I0403 15:30:04.880422  3165 net.cpp:425] inception_4b/relu_3x3_reduce <- inception_4b/3x3_reduce
I0403 15:30:04.880442  3165 net.cpp:386] inception_4b/relu_3x3_reduce -> inception_4b/3x3_reduce (in-place)
I0403 15:30:04.880722  3165 net.cpp:141] Setting up inception_4b/relu_3x3_reduce
I0403 15:30:04.880748  3165 net.cpp:148] Top shape: 24 112 14 14 (526848)
I0403 15:30:04.880764  3165 net.cpp:156] Memory required for data: 956439840
I0403 15:30:04.880779  3165 layer_factory.hpp:77] Creating layer inception_4b/3x3
I0403 15:30:04.880801  3165 net.cpp:91] Creating Layer inception_4b/3x3
I0403 15:30:04.880820  3165 net.cpp:425] inception_4b/3x3 <- inception_4b/3x3_reduce
I0403 15:30:04.880841  3165 net.cpp:399] inception_4b/3x3 -> inception_4b/3x3
I0403 15:30:04.883800  3165 net.cpp:141] Setting up inception_4b/3x3
I0403 15:30:04.883828  3165 net.cpp:148] Top shape: 24 224 14 14 (1053696)
I0403 15:30:04.883844  3165 net.cpp:156] Memory required for data: 960654624
I0403 15:30:04.883863  3165 layer_factory.hpp:77] Creating layer inception_4b/relu_3x3
I0403 15:30:04.883885  3165 net.cpp:91] Creating Layer inception_4b/relu_3x3
I0403 15:30:04.883903  3165 net.cpp:425] inception_4b/relu_3x3 <- inception_4b/3x3
I0403 15:30:04.883920  3165 net.cpp:386] inception_4b/relu_3x3 -> inception_4b/3x3 (in-place)
I0403 15:30:04.884099  3165 net.cpp:141] Setting up inception_4b/relu_3x3
I0403 15:30:04.884126  3165 net.cpp:148] Top shape: 24 224 14 14 (1053696)
I0403 15:30:04.884141  3165 net.cpp:156] Memory required for data: 964869408
I0403 15:30:04.884156  3165 layer_factory.hpp:77] Creating layer inception_4b/5x5_reduce
I0403 15:30:04.884181  3165 net.cpp:91] Creating Layer inception_4b/5x5_reduce
I0403 15:30:04.884197  3165 net.cpp:425] inception_4b/5x5_reduce <- inception_4a/output_inception_4a/output_0_split_3
I0403 15:30:04.884217  3165 net.cpp:399] inception_4b/5x5_reduce -> inception_4b/5x5_reduce
I0403 15:30:04.885296  3165 net.cpp:141] Setting up inception_4b/5x5_reduce
I0403 15:30:04.885326  3165 net.cpp:148] Top shape: 24 24 14 14 (112896)
I0403 15:30:04.885345  3165 net.cpp:156] Memory required for data: 965320992
I0403 15:30:04.885365  3165 layer_factory.hpp:77] Creating layer inception_4b/relu_5x5_reduce
I0403 15:30:04.885382  3165 net.cpp:91] Creating Layer inception_4b/relu_5x5_reduce
I0403 15:30:04.885412  3165 net.cpp:425] inception_4b/relu_5x5_reduce <- inception_4b/5x5_reduce
I0403 15:30:04.885434  3165 net.cpp:386] inception_4b/relu_5x5_reduce -> inception_4b/5x5_reduce (in-place)
I0403 15:30:04.885617  3165 net.cpp:141] Setting up inception_4b/relu_5x5_reduce
I0403 15:30:04.885642  3165 net.cpp:148] Top shape: 24 24 14 14 (112896)
I0403 15:30:04.885656  3165 net.cpp:156] Memory required for data: 965772576
I0403 15:30:04.885671  3165 layer_factory.hpp:77] Creating layer inception_4b/5x5
I0403 15:30:04.885694  3165 net.cpp:91] Creating Layer inception_4b/5x5
I0403 15:30:04.885711  3165 net.cpp:425] inception_4b/5x5 <- inception_4b/5x5_reduce
I0403 15:30:04.885732  3165 net.cpp:399] inception_4b/5x5 -> inception_4b/5x5
I0403 15:30:04.886977  3165 net.cpp:141] Setting up inception_4b/5x5
I0403 15:30:04.887011  3165 net.cpp:148] Top shape: 24 64 14 14 (301056)
I0403 15:30:04.887027  3165 net.cpp:156] Memory required for data: 966976800
I0403 15:30:04.887071  3165 layer_factory.hpp:77] Creating layer inception_4b/relu_5x5
I0403 15:30:04.887092  3165 net.cpp:91] Creating Layer inception_4b/relu_5x5
I0403 15:30:04.887109  3165 net.cpp:425] inception_4b/relu_5x5 <- inception_4b/5x5
I0403 15:30:04.887128  3165 net.cpp:386] inception_4b/relu_5x5 -> inception_4b/5x5 (in-place)
I0403 15:30:04.887451  3165 net.cpp:141] Setting up inception_4b/relu_5x5
I0403 15:30:04.887480  3165 net.cpp:148] Top shape: 24 64 14 14 (301056)
I0403 15:30:04.887497  3165 net.cpp:156] Memory required for data: 968181024
I0403 15:30:04.887512  3165 layer_factory.hpp:77] Creating layer inception_4b/pool
I0403 15:30:04.887534  3165 net.cpp:91] Creating Layer inception_4b/pool
I0403 15:30:04.887553  3165 net.cpp:425] inception_4b/pool <- inception_4a/output_inception_4a/output_0_split_4
I0403 15:30:04.887575  3165 net.cpp:399] inception_4b/pool -> inception_4b/pool
I0403 15:30:04.887655  3165 net.cpp:141] Setting up inception_4b/pool
I0403 15:30:04.887681  3165 net.cpp:148] Top shape: 24 512 14 14 (2408448)
I0403 15:30:04.887697  3165 net.cpp:156] Memory required for data: 977814816
I0403 15:30:04.887712  3165 layer_factory.hpp:77] Creating layer inception_4b/pool_proj
I0403 15:30:04.887737  3165 net.cpp:91] Creating Layer inception_4b/pool_proj
I0403 15:30:04.887754  3165 net.cpp:425] inception_4b/pool_proj <- inception_4b/pool
I0403 15:30:04.887776  3165 net.cpp:399] inception_4b/pool_proj -> inception_4b/pool_proj
I0403 15:30:04.889053  3165 net.cpp:141] Setting up inception_4b/pool_proj
I0403 15:30:04.889086  3165 net.cpp:148] Top shape: 24 64 14 14 (301056)
I0403 15:30:04.889104  3165 net.cpp:156] Memory required for data: 979019040
I0403 15:30:04.889125  3165 layer_factory.hpp:77] Creating layer inception_4b/relu_pool_proj
I0403 15:30:04.889144  3165 net.cpp:91] Creating Layer inception_4b/relu_pool_proj
I0403 15:30:04.889168  3165 net.cpp:425] inception_4b/relu_pool_proj <- inception_4b/pool_proj
I0403 15:30:04.889190  3165 net.cpp:386] inception_4b/relu_pool_proj -> inception_4b/pool_proj (in-place)
I0403 15:30:04.889385  3165 net.cpp:141] Setting up inception_4b/relu_pool_proj
I0403 15:30:04.889412  3165 net.cpp:148] Top shape: 24 64 14 14 (301056)
I0403 15:30:04.889430  3165 net.cpp:156] Memory required for data: 980223264
I0403 15:30:04.889457  3165 layer_factory.hpp:77] Creating layer inception_4b/output
I0403 15:30:04.889475  3165 net.cpp:91] Creating Layer inception_4b/output
I0403 15:30:04.889493  3165 net.cpp:425] inception_4b/output <- inception_4b/1x1
I0403 15:30:04.889524  3165 net.cpp:425] inception_4b/output <- inception_4b/3x3
I0403 15:30:04.889542  3165 net.cpp:425] inception_4b/output <- inception_4b/5x5
I0403 15:30:04.889559  3165 net.cpp:425] inception_4b/output <- inception_4b/pool_proj
I0403 15:30:04.889580  3165 net.cpp:399] inception_4b/output -> inception_4b/output
I0403 15:30:04.889628  3165 net.cpp:141] Setting up inception_4b/output
I0403 15:30:04.889655  3165 net.cpp:148] Top shape: 24 512 14 14 (2408448)
I0403 15:30:04.889672  3165 net.cpp:156] Memory required for data: 989857056
I0403 15:30:04.889703  3165 layer_factory.hpp:77] Creating layer inception_4b/output_inception_4b/output_0_split
I0403 15:30:04.889722  3165 net.cpp:91] Creating Layer inception_4b/output_inception_4b/output_0_split
I0403 15:30:04.889739  3165 net.cpp:425] inception_4b/output_inception_4b/output_0_split <- inception_4b/output
I0403 15:30:04.889758  3165 net.cpp:399] inception_4b/output_inception_4b/output_0_split -> inception_4b/output_inception_4b/output_0_split_0
I0403 15:30:04.889782  3165 net.cpp:399] inception_4b/output_inception_4b/output_0_split -> inception_4b/output_inception_4b/output_0_split_1
I0403 15:30:04.889806  3165 net.cpp:399] inception_4b/output_inception_4b/output_0_split -> inception_4b/output_inception_4b/output_0_split_2
I0403 15:30:04.889827  3165 net.cpp:399] inception_4b/output_inception_4b/output_0_split -> inception_4b/output_inception_4b/output_0_split_3
I0403 15:30:04.889917  3165 net.cpp:141] Setting up inception_4b/output_inception_4b/output_0_split
I0403 15:30:04.889941  3165 net.cpp:148] Top shape: 24 512 14 14 (2408448)
I0403 15:30:04.889960  3165 net.cpp:148] Top shape: 24 512 14 14 (2408448)
I0403 15:30:04.889976  3165 net.cpp:148] Top shape: 24 512 14 14 (2408448)
I0403 15:30:04.889993  3165 net.cpp:148] Top shape: 24 512 14 14 (2408448)
I0403 15:30:04.890008  3165 net.cpp:156] Memory required for data: 1028392224
I0403 15:30:04.890023  3165 layer_factory.hpp:77] Creating layer inception_4c/1x1
I0403 15:30:04.890048  3165 net.cpp:91] Creating Layer inception_4c/1x1
I0403 15:30:04.890067  3165 net.cpp:425] inception_4c/1x1 <- inception_4b/output_inception_4b/output_0_split_0
I0403 15:30:04.890087  3165 net.cpp:399] inception_4c/1x1 -> inception_4c/1x1
I0403 15:30:04.891612  3165 net.cpp:141] Setting up inception_4c/1x1
I0403 15:30:04.891641  3165 net.cpp:148] Top shape: 24 128 14 14 (602112)
I0403 15:30:04.891657  3165 net.cpp:156] Memory required for data: 1030800672
I0403 15:30:04.891677  3165 layer_factory.hpp:77] Creating layer inception_4c/relu_1x1
I0403 15:30:04.891697  3165 net.cpp:91] Creating Layer inception_4c/relu_1x1
I0403 15:30:04.891715  3165 net.cpp:425] inception_4c/relu_1x1 <- inception_4c/1x1
I0403 15:30:04.891736  3165 net.cpp:386] inception_4c/relu_1x1 -> inception_4c/1x1 (in-place)
I0403 15:30:04.891927  3165 net.cpp:141] Setting up inception_4c/relu_1x1
I0403 15:30:04.891954  3165 net.cpp:148] Top shape: 24 128 14 14 (602112)
I0403 15:30:04.891970  3165 net.cpp:156] Memory required for data: 1033209120
I0403 15:30:04.891986  3165 layer_factory.hpp:77] Creating layer inception_4c/3x3_reduce
I0403 15:30:04.892009  3165 net.cpp:91] Creating Layer inception_4c/3x3_reduce
I0403 15:30:04.892029  3165 net.cpp:425] inception_4c/3x3_reduce <- inception_4b/output_inception_4b/output_0_split_1
I0403 15:30:04.892051  3165 net.cpp:399] inception_4c/3x3_reduce -> inception_4c/3x3_reduce
I0403 15:30:04.894109  3165 net.cpp:141] Setting up inception_4c/3x3_reduce
I0403 15:30:04.894142  3165 net.cpp:148] Top shape: 24 128 14 14 (602112)
I0403 15:30:04.894160  3165 net.cpp:156] Memory required for data: 1035617568
I0403 15:30:04.894179  3165 layer_factory.hpp:77] Creating layer inception_4c/relu_3x3_reduce
I0403 15:30:04.894198  3165 net.cpp:91] Creating Layer inception_4c/relu_3x3_reduce
I0403 15:30:04.894217  3165 net.cpp:425] inception_4c/relu_3x3_reduce <- inception_4c/3x3_reduce
I0403 15:30:04.894235  3165 net.cpp:386] inception_4c/relu_3x3_reduce -> inception_4c/3x3_reduce (in-place)
I0403 15:30:04.894544  3165 net.cpp:141] Setting up inception_4c/relu_3x3_reduce
I0403 15:30:04.894575  3165 net.cpp:148] Top shape: 24 128 14 14 (602112)
I0403 15:30:04.894593  3165 net.cpp:156] Memory required for data: 1038026016
I0403 15:30:04.894609  3165 layer_factory.hpp:77] Creating layer inception_4c/3x3
I0403 15:30:04.894634  3165 net.cpp:91] Creating Layer inception_4c/3x3
I0403 15:30:04.894654  3165 net.cpp:425] inception_4c/3x3 <- inception_4c/3x3_reduce
I0403 15:30:04.894673  3165 net.cpp:399] inception_4c/3x3 -> inception_4c/3x3
I0403 15:30:04.898494  3165 net.cpp:141] Setting up inception_4c/3x3
I0403 15:30:04.898540  3165 net.cpp:148] Top shape: 24 256 14 14 (1204224)
I0403 15:30:04.898558  3165 net.cpp:156] Memory required for data: 1042842912
I0403 15:30:04.898593  3165 layer_factory.hpp:77] Creating layer inception_4c/relu_3x3
I0403 15:30:04.898614  3165 net.cpp:91] Creating Layer inception_4c/relu_3x3
I0403 15:30:04.898633  3165 net.cpp:425] inception_4c/relu_3x3 <- inception_4c/3x3
I0403 15:30:04.898653  3165 net.cpp:386] inception_4c/relu_3x3 -> inception_4c/3x3 (in-place)
I0403 15:30:04.898846  3165 net.cpp:141] Setting up inception_4c/relu_3x3
I0403 15:30:04.898876  3165 net.cpp:148] Top shape: 24 256 14 14 (1204224)
I0403 15:30:04.898892  3165 net.cpp:156] Memory required for data: 1047659808
I0403 15:30:04.898910  3165 layer_factory.hpp:77] Creating layer inception_4c/5x5_reduce
I0403 15:30:04.898933  3165 net.cpp:91] Creating Layer inception_4c/5x5_reduce
I0403 15:30:04.898952  3165 net.cpp:425] inception_4c/5x5_reduce <- inception_4b/output_inception_4b/output_0_split_2
I0403 15:30:04.898973  3165 net.cpp:399] inception_4c/5x5_reduce -> inception_4c/5x5_reduce
I0403 15:30:04.900138  3165 net.cpp:141] Setting up inception_4c/5x5_reduce
I0403 15:30:04.900171  3165 net.cpp:148] Top shape: 24 24 14 14 (112896)
I0403 15:30:04.900188  3165 net.cpp:156] Memory required for data: 1048111392
I0403 15:30:04.900208  3165 layer_factory.hpp:77] Creating layer inception_4c/relu_5x5_reduce
I0403 15:30:04.900228  3165 net.cpp:91] Creating Layer inception_4c/relu_5x5_reduce
I0403 15:30:04.900250  3165 net.cpp:425] inception_4c/relu_5x5_reduce <- inception_4c/5x5_reduce
I0403 15:30:04.900269  3165 net.cpp:386] inception_4c/relu_5x5_reduce -> inception_4c/5x5_reduce (in-place)
I0403 15:30:04.900467  3165 net.cpp:141] Setting up inception_4c/relu_5x5_reduce
I0403 15:30:04.900495  3165 net.cpp:148] Top shape: 24 24 14 14 (112896)
I0403 15:30:04.900511  3165 net.cpp:156] Memory required for data: 1048562976
I0403 15:30:04.900528  3165 layer_factory.hpp:77] Creating layer inception_4c/5x5
I0403 15:30:04.900552  3165 net.cpp:91] Creating Layer inception_4c/5x5
I0403 15:30:04.900573  3165 net.cpp:425] inception_4c/5x5 <- inception_4c/5x5_reduce
I0403 15:30:04.900596  3165 net.cpp:399] inception_4c/5x5 -> inception_4c/5x5
I0403 15:30:04.901914  3165 net.cpp:141] Setting up inception_4c/5x5
I0403 15:30:04.901943  3165 net.cpp:148] Top shape: 24 64 14 14 (301056)
I0403 15:30:04.901959  3165 net.cpp:156] Memory required for data: 1049767200
I0403 15:30:04.901979  3165 layer_factory.hpp:77] Creating layer inception_4c/relu_5x5
I0403 15:30:04.901998  3165 net.cpp:91] Creating Layer inception_4c/relu_5x5
I0403 15:30:04.902016  3165 net.cpp:425] inception_4c/relu_5x5 <- inception_4c/5x5
I0403 15:30:04.902037  3165 net.cpp:386] inception_4c/relu_5x5 -> inception_4c/5x5 (in-place)
I0403 15:30:04.902348  3165 net.cpp:141] Setting up inception_4c/relu_5x5
I0403 15:30:04.902376  3165 net.cpp:148] Top shape: 24 64 14 14 (301056)
I0403 15:30:04.902393  3165 net.cpp:156] Memory required for data: 1050971424
I0403 15:30:04.902410  3165 layer_factory.hpp:77] Creating layer inception_4c/pool
I0403 15:30:04.902429  3165 net.cpp:91] Creating Layer inception_4c/pool
I0403 15:30:04.902447  3165 net.cpp:425] inception_4c/pool <- inception_4b/output_inception_4b/output_0_split_3
I0403 15:30:04.902473  3165 net.cpp:399] inception_4c/pool -> inception_4c/pool
I0403 15:30:04.902545  3165 net.cpp:141] Setting up inception_4c/pool
I0403 15:30:04.902571  3165 net.cpp:148] Top shape: 24 512 14 14 (2408448)
I0403 15:30:04.902587  3165 net.cpp:156] Memory required for data: 1060605216
I0403 15:30:04.902603  3165 layer_factory.hpp:77] Creating layer inception_4c/pool_proj
I0403 15:30:04.902628  3165 net.cpp:91] Creating Layer inception_4c/pool_proj
I0403 15:30:04.902647  3165 net.cpp:425] inception_4c/pool_proj <- inception_4c/pool
I0403 15:30:04.902668  3165 net.cpp:399] inception_4c/pool_proj -> inception_4c/pool_proj
I0403 15:30:04.903982  3165 net.cpp:141] Setting up inception_4c/pool_proj
I0403 15:30:04.904014  3165 net.cpp:148] Top shape: 24 64 14 14 (301056)
I0403 15:30:04.904045  3165 net.cpp:156] Memory required for data: 1061809440
I0403 15:30:04.904067  3165 layer_factory.hpp:77] Creating layer inception_4c/relu_pool_proj
I0403 15:30:04.904088  3165 net.cpp:91] Creating Layer inception_4c/relu_pool_proj
I0403 15:30:04.904104  3165 net.cpp:425] inception_4c/relu_pool_proj <- inception_4c/pool_proj
I0403 15:30:04.904126  3165 net.cpp:386] inception_4c/relu_pool_proj -> inception_4c/pool_proj (in-place)
I0403 15:30:04.904325  3165 net.cpp:141] Setting up inception_4c/relu_pool_proj
I0403 15:30:04.904351  3165 net.cpp:148] Top shape: 24 64 14 14 (301056)
I0403 15:30:04.904367  3165 net.cpp:156] Memory required for data: 1063013664
I0403 15:30:04.904383  3165 layer_factory.hpp:77] Creating layer inception_4c/output
I0403 15:30:04.904402  3165 net.cpp:91] Creating Layer inception_4c/output
I0403 15:30:04.904419  3165 net.cpp:425] inception_4c/output <- inception_4c/1x1
I0403 15:30:04.904438  3165 net.cpp:425] inception_4c/output <- inception_4c/3x3
I0403 15:30:04.904454  3165 net.cpp:425] inception_4c/output <- inception_4c/5x5
I0403 15:30:04.904471  3165 net.cpp:425] inception_4c/output <- inception_4c/pool_proj
I0403 15:30:04.904491  3165 net.cpp:399] inception_4c/output -> inception_4c/output
I0403 15:30:04.904541  3165 net.cpp:141] Setting up inception_4c/output
I0403 15:30:04.904569  3165 net.cpp:148] Top shape: 24 512 14 14 (2408448)
I0403 15:30:04.904587  3165 net.cpp:156] Memory required for data: 1072647456
I0403 15:30:04.904603  3165 layer_factory.hpp:77] Creating layer inception_4c/output_inception_4c/output_0_split
I0403 15:30:04.904620  3165 net.cpp:91] Creating Layer inception_4c/output_inception_4c/output_0_split
I0403 15:30:04.904636  3165 net.cpp:425] inception_4c/output_inception_4c/output_0_split <- inception_4c/output
I0403 15:30:04.904655  3165 net.cpp:399] inception_4c/output_inception_4c/output_0_split -> inception_4c/output_inception_4c/output_0_split_0
I0403 15:30:04.904680  3165 net.cpp:399] inception_4c/output_inception_4c/output_0_split -> inception_4c/output_inception_4c/output_0_split_1
I0403 15:30:04.904701  3165 net.cpp:399] inception_4c/output_inception_4c/output_0_split -> inception_4c/output_inception_4c/output_0_split_2
I0403 15:30:04.904723  3165 net.cpp:399] inception_4c/output_inception_4c/output_0_split -> inception_4c/output_inception_4c/output_0_split_3
I0403 15:30:04.904815  3165 net.cpp:141] Setting up inception_4c/output_inception_4c/output_0_split
I0403 15:30:04.904840  3165 net.cpp:148] Top shape: 24 512 14 14 (2408448)
I0403 15:30:04.904858  3165 net.cpp:148] Top shape: 24 512 14 14 (2408448)
I0403 15:30:04.904875  3165 net.cpp:148] Top shape: 24 512 14 14 (2408448)
I0403 15:30:04.904892  3165 net.cpp:148] Top shape: 24 512 14 14 (2408448)
I0403 15:30:04.904906  3165 net.cpp:156] Memory required for data: 1111182624
I0403 15:30:04.904922  3165 layer_factory.hpp:77] Creating layer inception_4d/1x1
I0403 15:30:04.904945  3165 net.cpp:91] Creating Layer inception_4d/1x1
I0403 15:30:04.904964  3165 net.cpp:425] inception_4d/1x1 <- inception_4c/output_inception_4c/output_0_split_0
I0403 15:30:04.904989  3165 net.cpp:399] inception_4d/1x1 -> inception_4d/1x1
I0403 15:30:04.906462  3165 net.cpp:141] Setting up inception_4d/1x1
I0403 15:30:04.906492  3165 net.cpp:148] Top shape: 24 112 14 14 (526848)
I0403 15:30:04.906509  3165 net.cpp:156] Memory required for data: 1113290016
I0403 15:30:04.906528  3165 layer_factory.hpp:77] Creating layer inception_4d/relu_1x1
I0403 15:30:04.906551  3165 net.cpp:91] Creating Layer inception_4d/relu_1x1
I0403 15:30:04.906569  3165 net.cpp:425] inception_4d/relu_1x1 <- inception_4d/1x1
I0403 15:30:04.906589  3165 net.cpp:386] inception_4d/relu_1x1 -> inception_4d/1x1 (in-place)
I0403 15:30:04.906785  3165 net.cpp:141] Setting up inception_4d/relu_1x1
I0403 15:30:04.906815  3165 net.cpp:148] Top shape: 24 112 14 14 (526848)
I0403 15:30:04.906831  3165 net.cpp:156] Memory required for data: 1115397408
I0403 15:30:04.906847  3165 layer_factory.hpp:77] Creating layer inception_4d/3x3_reduce
I0403 15:30:04.906886  3165 net.cpp:91] Creating Layer inception_4d/3x3_reduce
I0403 15:30:04.906905  3165 net.cpp:425] inception_4d/3x3_reduce <- inception_4c/output_inception_4c/output_0_split_1
I0403 15:30:04.906926  3165 net.cpp:399] inception_4d/3x3_reduce -> inception_4d/3x3_reduce
I0403 15:30:04.908536  3165 net.cpp:141] Setting up inception_4d/3x3_reduce
I0403 15:30:04.908566  3165 net.cpp:148] Top shape: 24 144 14 14 (677376)
I0403 15:30:04.908583  3165 net.cpp:156] Memory required for data: 1118106912
I0403 15:30:04.908603  3165 layer_factory.hpp:77] Creating layer inception_4d/relu_3x3_reduce
I0403 15:30:04.908624  3165 net.cpp:91] Creating Layer inception_4d/relu_3x3_reduce
I0403 15:30:04.908643  3165 net.cpp:425] inception_4d/relu_3x3_reduce <- inception_4d/3x3_reduce
I0403 15:30:04.908663  3165 net.cpp:386] inception_4d/relu_3x3_reduce -> inception_4d/3x3_reduce (in-place)
I0403 15:30:04.908967  3165 net.cpp:141] Setting up inception_4d/relu_3x3_reduce
I0403 15:30:04.908995  3165 net.cpp:148] Top shape: 24 144 14 14 (677376)
I0403 15:30:04.909011  3165 net.cpp:156] Memory required for data: 1120816416
I0403 15:30:04.909027  3165 layer_factory.hpp:77] Creating layer inception_4d/3x3
I0403 15:30:04.909051  3165 net.cpp:91] Creating Layer inception_4d/3x3
I0403 15:30:04.909070  3165 net.cpp:425] inception_4d/3x3 <- inception_4d/3x3_reduce
I0403 15:30:04.909092  3165 net.cpp:399] inception_4d/3x3 -> inception_4d/3x3
I0403 15:30:04.913542  3165 net.cpp:141] Setting up inception_4d/3x3
I0403 15:30:04.913573  3165 net.cpp:148] Top shape: 24 288 14 14 (1354752)
I0403 15:30:04.913589  3165 net.cpp:156] Memory required for data: 1126235424
I0403 15:30:04.913609  3165 layer_factory.hpp:77] Creating layer inception_4d/relu_3x3
I0403 15:30:04.913630  3165 net.cpp:91] Creating Layer inception_4d/relu_3x3
I0403 15:30:04.913647  3165 net.cpp:425] inception_4d/relu_3x3 <- inception_4d/3x3
I0403 15:30:04.913666  3165 net.cpp:386] inception_4d/relu_3x3 -> inception_4d/3x3 (in-place)
I0403 15:30:04.913856  3165 net.cpp:141] Setting up inception_4d/relu_3x3
I0403 15:30:04.913883  3165 net.cpp:148] Top shape: 24 288 14 14 (1354752)
I0403 15:30:04.913899  3165 net.cpp:156] Memory required for data: 1131654432
I0403 15:30:04.913916  3165 layer_factory.hpp:77] Creating layer inception_4d/5x5_reduce
I0403 15:30:04.913939  3165 net.cpp:91] Creating Layer inception_4d/5x5_reduce
I0403 15:30:04.913957  3165 net.cpp:425] inception_4d/5x5_reduce <- inception_4c/output_inception_4c/output_0_split_2
I0403 15:30:04.913977  3165 net.cpp:399] inception_4d/5x5_reduce -> inception_4d/5x5_reduce
I0403 15:30:04.915155  3165 net.cpp:141] Setting up inception_4d/5x5_reduce
I0403 15:30:04.915184  3165 net.cpp:148] Top shape: 24 32 14 14 (150528)
I0403 15:30:04.915200  3165 net.cpp:156] Memory required for data: 1132256544
I0403 15:30:04.915220  3165 layer_factory.hpp:77] Creating layer inception_4d/relu_5x5_reduce
I0403 15:30:04.915246  3165 net.cpp:91] Creating Layer inception_4d/relu_5x5_reduce
I0403 15:30:04.915264  3165 net.cpp:425] inception_4d/relu_5x5_reduce <- inception_4d/5x5_reduce
I0403 15:30:04.915282  3165 net.cpp:386] inception_4d/relu_5x5_reduce -> inception_4d/5x5_reduce (in-place)
I0403 15:30:04.915474  3165 net.cpp:141] Setting up inception_4d/relu_5x5_reduce
I0403 15:30:04.915504  3165 net.cpp:148] Top shape: 24 32 14 14 (150528)
I0403 15:30:04.915521  3165 net.cpp:156] Memory required for data: 1132858656
I0403 15:30:04.915537  3165 layer_factory.hpp:77] Creating layer inception_4d/5x5
I0403 15:30:04.915560  3165 net.cpp:91] Creating Layer inception_4d/5x5
I0403 15:30:04.915578  3165 net.cpp:425] inception_4d/5x5 <- inception_4d/5x5_reduce
I0403 15:30:04.915597  3165 net.cpp:399] inception_4d/5x5 -> inception_4d/5x5
I0403 15:30:04.917136  3165 net.cpp:141] Setting up inception_4d/5x5
I0403 15:30:04.917165  3165 net.cpp:148] Top shape: 24 64 14 14 (301056)
I0403 15:30:04.917182  3165 net.cpp:156] Memory required for data: 1134062880
I0403 15:30:04.917201  3165 layer_factory.hpp:77] Creating layer inception_4d/relu_5x5
I0403 15:30:04.917237  3165 net.cpp:91] Creating Layer inception_4d/relu_5x5
I0403 15:30:04.917260  3165 net.cpp:425] inception_4d/relu_5x5 <- inception_4d/5x5
I0403 15:30:04.917281  3165 net.cpp:386] inception_4d/relu_5x5 -> inception_4d/5x5 (in-place)
I0403 15:30:04.917598  3165 net.cpp:141] Setting up inception_4d/relu_5x5
I0403 15:30:04.917624  3165 net.cpp:148] Top shape: 24 64 14 14 (301056)
I0403 15:30:04.917640  3165 net.cpp:156] Memory required for data: 1135267104
I0403 15:30:04.917656  3165 layer_factory.hpp:77] Creating layer inception_4d/pool
I0403 15:30:04.917675  3165 net.cpp:91] Creating Layer inception_4d/pool
I0403 15:30:04.917692  3165 net.cpp:425] inception_4d/pool <- inception_4c/output_inception_4c/output_0_split_3
I0403 15:30:04.917713  3165 net.cpp:399] inception_4d/pool -> inception_4d/pool
I0403 15:30:04.917783  3165 net.cpp:141] Setting up inception_4d/pool
I0403 15:30:04.917809  3165 net.cpp:148] Top shape: 24 512 14 14 (2408448)
I0403 15:30:04.917824  3165 net.cpp:156] Memory required for data: 1144900896
I0403 15:30:04.917840  3165 layer_factory.hpp:77] Creating layer inception_4d/pool_proj
I0403 15:30:04.917863  3165 net.cpp:91] Creating Layer inception_4d/pool_proj
I0403 15:30:04.917881  3165 net.cpp:425] inception_4d/pool_proj <- inception_4d/pool
I0403 15:30:04.917901  3165 net.cpp:399] inception_4d/pool_proj -> inception_4d/pool_proj
I0403 15:30:04.919713  3165 net.cpp:141] Setting up inception_4d/pool_proj
I0403 15:30:04.919744  3165 net.cpp:148] Top shape: 24 64 14 14 (301056)
I0403 15:30:04.919760  3165 net.cpp:156] Memory required for data: 1146105120
I0403 15:30:04.919780  3165 layer_factory.hpp:77] Creating layer inception_4d/relu_pool_proj
I0403 15:30:04.919801  3165 net.cpp:91] Creating Layer inception_4d/relu_pool_proj
I0403 15:30:04.919819  3165 net.cpp:425] inception_4d/relu_pool_proj <- inception_4d/pool_proj
I0403 15:30:04.919836  3165 net.cpp:386] inception_4d/relu_pool_proj -> inception_4d/pool_proj (in-place)
I0403 15:30:04.920027  3165 net.cpp:141] Setting up inception_4d/relu_pool_proj
I0403 15:30:04.920054  3165 net.cpp:148] Top shape: 24 64 14 14 (301056)
I0403 15:30:04.920071  3165 net.cpp:156] Memory required for data: 1147309344
I0403 15:30:04.920088  3165 layer_factory.hpp:77] Creating layer inception_4d/output
I0403 15:30:04.920105  3165 net.cpp:91] Creating Layer inception_4d/output
I0403 15:30:04.920122  3165 net.cpp:425] inception_4d/output <- inception_4d/1x1
I0403 15:30:04.920140  3165 net.cpp:425] inception_4d/output <- inception_4d/3x3
I0403 15:30:04.920156  3165 net.cpp:425] inception_4d/output <- inception_4d/5x5
I0403 15:30:04.920173  3165 net.cpp:425] inception_4d/output <- inception_4d/pool_proj
I0403 15:30:04.920193  3165 net.cpp:399] inception_4d/output -> inception_4d/output
I0403 15:30:04.920248  3165 net.cpp:141] Setting up inception_4d/output
I0403 15:30:04.920272  3165 net.cpp:148] Top shape: 24 528 14 14 (2483712)
I0403 15:30:04.920287  3165 net.cpp:156] Memory required for data: 1157244192
I0403 15:30:04.920302  3165 layer_factory.hpp:77] Creating layer inception_4d/output_inception_4d/output_0_split
I0403 15:30:04.920323  3165 net.cpp:91] Creating Layer inception_4d/output_inception_4d/output_0_split
I0403 15:30:04.920341  3165 net.cpp:425] inception_4d/output_inception_4d/output_0_split <- inception_4d/output
I0403 15:30:04.920359  3165 net.cpp:399] inception_4d/output_inception_4d/output_0_split -> inception_4d/output_inception_4d/output_0_split_0
I0403 15:30:04.920379  3165 net.cpp:399] inception_4d/output_inception_4d/output_0_split -> inception_4d/output_inception_4d/output_0_split_1
I0403 15:30:04.920406  3165 net.cpp:399] inception_4d/output_inception_4d/output_0_split -> inception_4d/output_inception_4d/output_0_split_2
I0403 15:30:04.920428  3165 net.cpp:399] inception_4d/output_inception_4d/output_0_split -> inception_4d/output_inception_4d/output_0_split_3
I0403 15:30:04.920449  3165 net.cpp:399] inception_4d/output_inception_4d/output_0_split -> inception_4d/output_inception_4d/output_0_split_4
I0403 15:30:04.920555  3165 net.cpp:141] Setting up inception_4d/output_inception_4d/output_0_split
I0403 15:30:04.920593  3165 net.cpp:148] Top shape: 24 528 14 14 (2483712)
I0403 15:30:04.920610  3165 net.cpp:148] Top shape: 24 528 14 14 (2483712)
I0403 15:30:04.920626  3165 net.cpp:148] Top shape: 24 528 14 14 (2483712)
I0403 15:30:04.920644  3165 net.cpp:148] Top shape: 24 528 14 14 (2483712)
I0403 15:30:04.920660  3165 net.cpp:148] Top shape: 24 528 14 14 (2483712)
I0403 15:30:04.920673  3165 net.cpp:156] Memory required for data: 1206918432
I0403 15:30:04.920689  3165 layer_factory.hpp:77] Creating layer loss2/ave_pool
I0403 15:30:04.920711  3165 net.cpp:91] Creating Layer loss2/ave_pool
I0403 15:30:04.920728  3165 net.cpp:425] loss2/ave_pool <- inception_4d/output_inception_4d/output_0_split_0
I0403 15:30:04.920748  3165 net.cpp:399] loss2/ave_pool -> loss2/ave_pool
I0403 15:30:04.921067  3165 net.cpp:141] Setting up loss2/ave_pool
I0403 15:30:04.921094  3165 net.cpp:148] Top shape: 24 528 4 4 (202752)
I0403 15:30:04.921109  3165 net.cpp:156] Memory required for data: 1207729440
I0403 15:30:04.921125  3165 layer_factory.hpp:77] Creating layer loss2/conv
I0403 15:30:04.921149  3165 net.cpp:91] Creating Layer loss2/conv
I0403 15:30:04.921166  3165 net.cpp:425] loss2/conv <- loss2/ave_pool
I0403 15:30:04.921188  3165 net.cpp:399] loss2/conv -> loss2/conv
I0403 15:30:04.923142  3165 net.cpp:141] Setting up loss2/conv
I0403 15:30:04.923173  3165 net.cpp:148] Top shape: 24 128 4 4 (49152)
I0403 15:30:04.923190  3165 net.cpp:156] Memory required for data: 1207926048
I0403 15:30:04.923209  3165 layer_factory.hpp:77] Creating layer loss2/relu_conv
I0403 15:30:04.923228  3165 net.cpp:91] Creating Layer loss2/relu_conv
I0403 15:30:04.923256  3165 net.cpp:425] loss2/relu_conv <- loss2/conv
I0403 15:30:04.923280  3165 net.cpp:386] loss2/relu_conv -> loss2/conv (in-place)
I0403 15:30:04.923570  3165 net.cpp:141] Setting up loss2/relu_conv
I0403 15:30:04.923600  3165 net.cpp:148] Top shape: 24 128 4 4 (49152)
I0403 15:30:04.923617  3165 net.cpp:156] Memory required for data: 1208122656
I0403 15:30:04.923634  3165 layer_factory.hpp:77] Creating layer loss2/fc
I0403 15:30:04.923653  3165 net.cpp:91] Creating Layer loss2/fc
I0403 15:30:04.923669  3165 net.cpp:425] loss2/fc <- loss2/conv
I0403 15:30:04.923692  3165 net.cpp:399] loss2/fc -> loss2/fc
I0403 15:30:04.941584  3165 net.cpp:141] Setting up loss2/fc
I0403 15:30:04.941620  3165 net.cpp:148] Top shape: 24 1024 (24576)
I0403 15:30:04.941637  3165 net.cpp:156] Memory required for data: 1208220960
I0403 15:30:04.941659  3165 layer_factory.hpp:77] Creating layer loss2/relu_fc
I0403 15:30:04.941682  3165 net.cpp:91] Creating Layer loss2/relu_fc
I0403 15:30:04.941701  3165 net.cpp:425] loss2/relu_fc <- loss2/fc
I0403 15:30:04.941721  3165 net.cpp:386] loss2/relu_fc -> loss2/fc (in-place)
I0403 15:30:04.942088  3165 net.cpp:141] Setting up loss2/relu_fc
I0403 15:30:04.942117  3165 net.cpp:148] Top shape: 24 1024 (24576)
I0403 15:30:04.942136  3165 net.cpp:156] Memory required for data: 1208319264
I0403 15:30:04.942152  3165 layer_factory.hpp:77] Creating layer loss2/drop_fc
I0403 15:30:04.942178  3165 net.cpp:91] Creating Layer loss2/drop_fc
I0403 15:30:04.942201  3165 net.cpp:425] loss2/drop_fc <- loss2/fc
I0403 15:30:04.942221  3165 net.cpp:386] loss2/drop_fc -> loss2/fc (in-place)
I0403 15:30:04.942301  3165 net.cpp:141] Setting up loss2/drop_fc
I0403 15:30:04.942325  3165 net.cpp:148] Top shape: 24 1024 (24576)
I0403 15:30:04.942353  3165 net.cpp:156] Memory required for data: 1208417568
I0403 15:30:04.942369  3165 layer_factory.hpp:77] Creating layer loss2/classifier_plantvillage
I0403 15:30:04.942394  3165 net.cpp:91] Creating Layer loss2/classifier_plantvillage
I0403 15:30:04.942414  3165 net.cpp:425] loss2/classifier_plantvillage <- loss2/fc
I0403 15:30:04.942435  3165 net.cpp:399] loss2/classifier_plantvillage -> loss2/classifier_plantvillage
I0403 15:30:04.942903  3165 net.cpp:141] Setting up loss2/classifier_plantvillage
I0403 15:30:04.942931  3165 net.cpp:148] Top shape: 24 38 (912)
I0403 15:30:04.942975  3165 net.cpp:156] Memory required for data: 1208421216
I0403 15:30:04.942996  3165 layer_factory.hpp:77] Creating layer loss2/classifier_plantvillage_loss2/classifier_plantvillage_0_split
I0403 15:30:04.943016  3165 net.cpp:91] Creating Layer loss2/classifier_plantvillage_loss2/classifier_plantvillage_0_split
I0403 15:30:04.943033  3165 net.cpp:425] loss2/classifier_plantvillage_loss2/classifier_plantvillage_0_split <- loss2/classifier_plantvillage
I0403 15:30:04.943055  3165 net.cpp:399] loss2/classifier_plantvillage_loss2/classifier_plantvillage_0_split -> loss2/classifier_plantvillage_loss2/classifier_plantvillage_0_split_0
I0403 15:30:04.943079  3165 net.cpp:399] loss2/classifier_plantvillage_loss2/classifier_plantvillage_0_split -> loss2/classifier_plantvillage_loss2/classifier_plantvillage_0_split_1
I0403 15:30:04.943102  3165 net.cpp:399] loss2/classifier_plantvillage_loss2/classifier_plantvillage_0_split -> loss2/classifier_plantvillage_loss2/classifier_plantvillage_0_split_2
I0403 15:30:04.943193  3165 net.cpp:141] Setting up loss2/classifier_plantvillage_loss2/classifier_plantvillage_0_split
I0403 15:30:04.943233  3165 net.cpp:148] Top shape: 24 38 (912)
I0403 15:30:04.943255  3165 net.cpp:148] Top shape: 24 38 (912)
I0403 15:30:04.943285  3165 net.cpp:148] Top shape: 24 38 (912)
I0403 15:30:04.943301  3165 net.cpp:156] Memory required for data: 1208432160
I0403 15:30:04.943317  3165 layer_factory.hpp:77] Creating layer inception_4e/1x1
I0403 15:30:04.943341  3165 net.cpp:91] Creating Layer inception_4e/1x1
I0403 15:30:04.943359  3165 net.cpp:425] inception_4e/1x1 <- inception_4d/output_inception_4d/output_0_split_1
I0403 15:30:04.943380  3165 net.cpp:399] inception_4e/1x1 -> inception_4e/1x1
I0403 15:30:04.945436  3165 net.cpp:141] Setting up inception_4e/1x1
I0403 15:30:04.945466  3165 net.cpp:148] Top shape: 24 256 14 14 (1204224)
I0403 15:30:04.945495  3165 net.cpp:156] Memory required for data: 1213249056
I0403 15:30:04.945518  3165 layer_factory.hpp:77] Creating layer inception_4e/relu_1x1
I0403 15:30:04.945543  3165 net.cpp:91] Creating Layer inception_4e/relu_1x1
I0403 15:30:04.945560  3165 net.cpp:425] inception_4e/relu_1x1 <- inception_4e/1x1
I0403 15:30:04.945582  3165 net.cpp:386] inception_4e/relu_1x1 -> inception_4e/1x1 (in-place)
I0403 15:30:04.945914  3165 net.cpp:141] Setting up inception_4e/relu_1x1
I0403 15:30:04.945955  3165 net.cpp:148] Top shape: 24 256 14 14 (1204224)
I0403 15:30:04.945971  3165 net.cpp:156] Memory required for data: 1218065952
I0403 15:30:04.945988  3165 layer_factory.hpp:77] Creating layer inception_4e/3x3_reduce
I0403 15:30:04.946012  3165 net.cpp:91] Creating Layer inception_4e/3x3_reduce
I0403 15:30:04.946030  3165 net.cpp:425] inception_4e/3x3_reduce <- inception_4d/output_inception_4d/output_0_split_2
I0403 15:30:04.946053  3165 net.cpp:399] inception_4e/3x3_reduce -> inception_4e/3x3_reduce
I0403 15:30:04.948395  3165 net.cpp:141] Setting up inception_4e/3x3_reduce
I0403 15:30:04.948441  3165 net.cpp:148] Top shape: 24 160 14 14 (752640)
I0403 15:30:04.948465  3165 net.cpp:156] Memory required for data: 1221076512
I0403 15:30:04.948487  3165 layer_factory.hpp:77] Creating layer inception_4e/relu_3x3_reduce
I0403 15:30:04.948505  3165 net.cpp:91] Creating Layer inception_4e/relu_3x3_reduce
I0403 15:30:04.948525  3165 net.cpp:425] inception_4e/relu_3x3_reduce <- inception_4e/3x3_reduce
I0403 15:30:04.948572  3165 net.cpp:386] inception_4e/relu_3x3_reduce -> inception_4e/3x3_reduce (in-place)
I0403 15:30:04.948770  3165 net.cpp:141] Setting up inception_4e/relu_3x3_reduce
I0403 15:30:04.948798  3165 net.cpp:148] Top shape: 24 160 14 14 (752640)
I0403 15:30:04.948813  3165 net.cpp:156] Memory required for data: 1224087072
I0403 15:30:04.948829  3165 layer_factory.hpp:77] Creating layer inception_4e/3x3
I0403 15:30:04.948858  3165 net.cpp:91] Creating Layer inception_4e/3x3
I0403 15:30:04.948876  3165 net.cpp:425] inception_4e/3x3 <- inception_4e/3x3_reduce
I0403 15:30:04.948900  3165 net.cpp:399] inception_4e/3x3 -> inception_4e/3x3
I0403 15:30:04.954309  3165 net.cpp:141] Setting up inception_4e/3x3
I0403 15:30:04.954355  3165 net.cpp:148] Top shape: 24 320 14 14 (1505280)
I0403 15:30:04.954372  3165 net.cpp:156] Memory required for data: 1230108192
I0403 15:30:04.954391  3165 layer_factory.hpp:77] Creating layer inception_4e/relu_3x3
I0403 15:30:04.954414  3165 net.cpp:91] Creating Layer inception_4e/relu_3x3
I0403 15:30:04.954433  3165 net.cpp:425] inception_4e/relu_3x3 <- inception_4e/3x3
I0403 15:30:04.954452  3165 net.cpp:386] inception_4e/relu_3x3 -> inception_4e/3x3 (in-place)
I0403 15:30:04.957320  3165 net.cpp:141] Setting up inception_4e/relu_3x3
I0403 15:30:04.957348  3165 net.cpp:148] Top shape: 24 320 14 14 (1505280)
I0403 15:30:04.957365  3165 net.cpp:156] Memory required for data: 1236129312
I0403 15:30:04.957381  3165 layer_factory.hpp:77] Creating layer inception_4e/5x5_reduce
I0403 15:30:04.957407  3165 net.cpp:91] Creating Layer inception_4e/5x5_reduce
I0403 15:30:04.957427  3165 net.cpp:425] inception_4e/5x5_reduce <- inception_4d/output_inception_4d/output_0_split_3
I0403 15:30:04.957451  3165 net.cpp:399] inception_4e/5x5_reduce -> inception_4e/5x5_reduce
I0403 15:30:04.958609  3165 net.cpp:141] Setting up inception_4e/5x5_reduce
I0403 15:30:04.958638  3165 net.cpp:148] Top shape: 24 32 14 14 (150528)
I0403 15:30:04.958655  3165 net.cpp:156] Memory required for data: 1236731424
I0403 15:30:04.958675  3165 layer_factory.hpp:77] Creating layer inception_4e/relu_5x5_reduce
I0403 15:30:04.958694  3165 net.cpp:91] Creating Layer inception_4e/relu_5x5_reduce
I0403 15:30:04.958712  3165 net.cpp:425] inception_4e/relu_5x5_reduce <- inception_4e/5x5_reduce
I0403 15:30:04.958734  3165 net.cpp:386] inception_4e/relu_5x5_reduce -> inception_4e/5x5_reduce (in-place)
I0403 15:30:04.959050  3165 net.cpp:141] Setting up inception_4e/relu_5x5_reduce
I0403 15:30:04.959079  3165 net.cpp:148] Top shape: 24 32 14 14 (150528)
I0403 15:30:04.959095  3165 net.cpp:156] Memory required for data: 1237333536
I0403 15:30:04.959111  3165 layer_factory.hpp:77] Creating layer inception_4e/5x5
I0403 15:30:04.959152  3165 net.cpp:91] Creating Layer inception_4e/5x5
I0403 15:30:04.959172  3165 net.cpp:425] inception_4e/5x5 <- inception_4e/5x5_reduce
I0403 15:30:04.959193  3165 net.cpp:399] inception_4e/5x5 -> inception_4e/5x5
I0403 15:30:04.961190  3165 net.cpp:141] Setting up inception_4e/5x5
I0403 15:30:04.961231  3165 net.cpp:148] Top shape: 24 128 14 14 (602112)
I0403 15:30:04.961253  3165 net.cpp:156] Memory required for data: 1239741984
I0403 15:30:04.961274  3165 layer_factory.hpp:77] Creating layer inception_4e/relu_5x5
I0403 15:30:04.961294  3165 net.cpp:91] Creating Layer inception_4e/relu_5x5
I0403 15:30:04.961313  3165 net.cpp:425] inception_4e/relu_5x5 <- inception_4e/5x5
I0403 15:30:04.961330  3165 net.cpp:386] inception_4e/relu_5x5 -> inception_4e/5x5 (in-place)
I0403 15:30:04.961547  3165 net.cpp:141] Setting up inception_4e/relu_5x5
I0403 15:30:04.961575  3165 net.cpp:148] Top shape: 24 128 14 14 (602112)
I0403 15:30:04.961591  3165 net.cpp:156] Memory required for data: 1242150432
I0403 15:30:04.961607  3165 layer_factory.hpp:77] Creating layer inception_4e/pool
I0403 15:30:04.961627  3165 net.cpp:91] Creating Layer inception_4e/pool
I0403 15:30:04.961645  3165 net.cpp:425] inception_4e/pool <- inception_4d/output_inception_4d/output_0_split_4
I0403 15:30:04.961668  3165 net.cpp:399] inception_4e/pool -> inception_4e/pool
I0403 15:30:04.961745  3165 net.cpp:141] Setting up inception_4e/pool
I0403 15:30:04.961772  3165 net.cpp:148] Top shape: 24 528 14 14 (2483712)
I0403 15:30:04.961788  3165 net.cpp:156] Memory required for data: 1252085280
I0403 15:30:04.961804  3165 layer_factory.hpp:77] Creating layer inception_4e/pool_proj
I0403 15:30:04.961827  3165 net.cpp:91] Creating Layer inception_4e/pool_proj
I0403 15:30:04.961846  3165 net.cpp:425] inception_4e/pool_proj <- inception_4e/pool
I0403 15:30:04.961868  3165 net.cpp:399] inception_4e/pool_proj -> inception_4e/pool_proj
I0403 15:30:04.963490  3165 net.cpp:141] Setting up inception_4e/pool_proj
I0403 15:30:04.963533  3165 net.cpp:148] Top shape: 24 128 14 14 (602112)
I0403 15:30:04.963554  3165 net.cpp:156] Memory required for data: 1254493728
I0403 15:30:04.963574  3165 layer_factory.hpp:77] Creating layer inception_4e/relu_pool_proj
I0403 15:30:04.963594  3165 net.cpp:91] Creating Layer inception_4e/relu_pool_proj
I0403 15:30:04.963611  3165 net.cpp:425] inception_4e/relu_pool_proj <- inception_4e/pool_proj
I0403 15:30:04.963630  3165 net.cpp:386] inception_4e/relu_pool_proj -> inception_4e/pool_proj (in-place)
I0403 15:30:04.963951  3165 net.cpp:141] Setting up inception_4e/relu_pool_proj
I0403 15:30:04.963979  3165 net.cpp:148] Top shape: 24 128 14 14 (602112)
I0403 15:30:04.963999  3165 net.cpp:156] Memory required for data: 1256902176
I0403 15:30:04.964016  3165 layer_factory.hpp:77] Creating layer inception_4e/output
I0403 15:30:04.964035  3165 net.cpp:91] Creating Layer inception_4e/output
I0403 15:30:04.964052  3165 net.cpp:425] inception_4e/output <- inception_4e/1x1
I0403 15:30:04.964071  3165 net.cpp:425] inception_4e/output <- inception_4e/3x3
I0403 15:30:04.964087  3165 net.cpp:425] inception_4e/output <- inception_4e/5x5
I0403 15:30:04.964104  3165 net.cpp:425] inception_4e/output <- inception_4e/pool_proj
I0403 15:30:04.964123  3165 net.cpp:399] inception_4e/output -> inception_4e/output
I0403 15:30:04.964179  3165 net.cpp:141] Setting up inception_4e/output
I0403 15:30:04.964203  3165 net.cpp:148] Top shape: 24 832 14 14 (3913728)
I0403 15:30:04.964222  3165 net.cpp:156] Memory required for data: 1272557088
I0403 15:30:04.964237  3165 layer_factory.hpp:77] Creating layer pool4/3x3_s2
I0403 15:30:04.964262  3165 net.cpp:91] Creating Layer pool4/3x3_s2
I0403 15:30:04.964283  3165 net.cpp:425] pool4/3x3_s2 <- inception_4e/output
I0403 15:30:04.964303  3165 net.cpp:399] pool4/3x3_s2 -> pool4/3x3_s2
I0403 15:30:04.964376  3165 net.cpp:141] Setting up pool4/3x3_s2
I0403 15:30:04.964401  3165 net.cpp:148] Top shape: 24 832 7 7 (978432)
I0403 15:30:04.964416  3165 net.cpp:156] Memory required for data: 1276470816
I0403 15:30:04.964432  3165 layer_factory.hpp:77] Creating layer pool4/3x3_s2_pool4/3x3_s2_0_split
I0403 15:30:04.964450  3165 net.cpp:91] Creating Layer pool4/3x3_s2_pool4/3x3_s2_0_split
I0403 15:30:04.964468  3165 net.cpp:425] pool4/3x3_s2_pool4/3x3_s2_0_split <- pool4/3x3_s2
I0403 15:30:04.964488  3165 net.cpp:399] pool4/3x3_s2_pool4/3x3_s2_0_split -> pool4/3x3_s2_pool4/3x3_s2_0_split_0
I0403 15:30:04.964510  3165 net.cpp:399] pool4/3x3_s2_pool4/3x3_s2_0_split -> pool4/3x3_s2_pool4/3x3_s2_0_split_1
I0403 15:30:04.964531  3165 net.cpp:399] pool4/3x3_s2_pool4/3x3_s2_0_split -> pool4/3x3_s2_pool4/3x3_s2_0_split_2
I0403 15:30:04.964552  3165 net.cpp:399] pool4/3x3_s2_pool4/3x3_s2_0_split -> pool4/3x3_s2_pool4/3x3_s2_0_split_3
I0403 15:30:04.964648  3165 net.cpp:141] Setting up pool4/3x3_s2_pool4/3x3_s2_0_split
I0403 15:30:04.964673  3165 net.cpp:148] Top shape: 24 832 7 7 (978432)
I0403 15:30:04.964690  3165 net.cpp:148] Top shape: 24 832 7 7 (978432)
I0403 15:30:04.964707  3165 net.cpp:148] Top shape: 24 832 7 7 (978432)
I0403 15:30:04.964725  3165 net.cpp:148] Top shape: 24 832 7 7 (978432)
I0403 15:30:04.964740  3165 net.cpp:156] Memory required for data: 1292125728
I0403 15:30:04.964756  3165 layer_factory.hpp:77] Creating layer inception_5a/1x1
I0403 15:30:04.964781  3165 net.cpp:91] Creating Layer inception_5a/1x1
I0403 15:30:04.964799  3165 net.cpp:425] inception_5a/1x1 <- pool4/3x3_s2_pool4/3x3_s2_0_split_0
I0403 15:30:04.964820  3165 net.cpp:399] inception_5a/1x1 -> inception_5a/1x1
I0403 15:30:04.968559  3165 net.cpp:141] Setting up inception_5a/1x1
I0403 15:30:04.968591  3165 net.cpp:148] Top shape: 24 256 7 7 (301056)
I0403 15:30:04.968610  3165 net.cpp:156] Memory required for data: 1293329952
I0403 15:30:04.968629  3165 layer_factory.hpp:77] Creating layer inception_5a/relu_1x1
I0403 15:30:04.968648  3165 net.cpp:91] Creating Layer inception_5a/relu_1x1
I0403 15:30:04.968665  3165 net.cpp:425] inception_5a/relu_1x1 <- inception_5a/1x1
I0403 15:30:04.968686  3165 net.cpp:386] inception_5a/relu_1x1 -> inception_5a/1x1 (in-place)
I0403 15:30:04.969014  3165 net.cpp:141] Setting up inception_5a/relu_1x1
I0403 15:30:04.969044  3165 net.cpp:148] Top shape: 24 256 7 7 (301056)
I0403 15:30:04.969063  3165 net.cpp:156] Memory required for data: 1294534176
I0403 15:30:04.969079  3165 layer_factory.hpp:77] Creating layer inception_5a/3x3_reduce
I0403 15:30:04.969102  3165 net.cpp:91] Creating Layer inception_5a/3x3_reduce
I0403 15:30:04.969121  3165 net.cpp:425] inception_5a/3x3_reduce <- pool4/3x3_s2_pool4/3x3_s2_0_split_1
I0403 15:30:04.969141  3165 net.cpp:399] inception_5a/3x3_reduce -> inception_5a/3x3_reduce
I0403 15:30:04.971762  3165 net.cpp:141] Setting up inception_5a/3x3_reduce
I0403 15:30:04.971792  3165 net.cpp:148] Top shape: 24 160 7 7 (188160)
I0403 15:30:04.971808  3165 net.cpp:156] Memory required for data: 1295286816
I0403 15:30:04.971829  3165 layer_factory.hpp:77] Creating layer inception_5a/relu_3x3_reduce
I0403 15:30:04.971850  3165 net.cpp:91] Creating Layer inception_5a/relu_3x3_reduce
I0403 15:30:04.971868  3165 net.cpp:425] inception_5a/relu_3x3_reduce <- inception_5a/3x3_reduce
I0403 15:30:04.971887  3165 net.cpp:386] inception_5a/relu_3x3_reduce -> inception_5a/3x3_reduce (in-place)
I0403 15:30:04.972090  3165 net.cpp:141] Setting up inception_5a/relu_3x3_reduce
I0403 15:30:04.972118  3165 net.cpp:148] Top shape: 24 160 7 7 (188160)
I0403 15:30:04.972136  3165 net.cpp:156] Memory required for data: 1296039456
I0403 15:30:04.972151  3165 layer_factory.hpp:77] Creating layer inception_5a/3x3
I0403 15:30:04.972177  3165 net.cpp:91] Creating Layer inception_5a/3x3
I0403 15:30:04.972195  3165 net.cpp:425] inception_5a/3x3 <- inception_5a/3x3_reduce
I0403 15:30:04.972215  3165 net.cpp:399] inception_5a/3x3 -> inception_5a/3x3
I0403 15:30:04.977582  3165 net.cpp:141] Setting up inception_5a/3x3
I0403 15:30:04.977617  3165 net.cpp:148] Top shape: 24 320 7 7 (376320)
I0403 15:30:04.977633  3165 net.cpp:156] Memory required for data: 1297544736
I0403 15:30:04.977654  3165 layer_factory.hpp:77] Creating layer inception_5a/relu_3x3
I0403 15:30:04.977674  3165 net.cpp:91] Creating Layer inception_5a/relu_3x3
I0403 15:30:04.977691  3165 net.cpp:425] inception_5a/relu_3x3 <- inception_5a/3x3
I0403 15:30:04.977710  3165 net.cpp:386] inception_5a/relu_3x3 -> inception_5a/3x3 (in-place)
I0403 15:30:04.978026  3165 net.cpp:141] Setting up inception_5a/relu_3x3
I0403 15:30:04.978057  3165 net.cpp:148] Top shape: 24 320 7 7 (376320)
I0403 15:30:04.978075  3165 net.cpp:156] Memory required for data: 1299050016
I0403 15:30:04.978091  3165 layer_factory.hpp:77] Creating layer inception_5a/5x5_reduce
I0403 15:30:04.978116  3165 net.cpp:91] Creating Layer inception_5a/5x5_reduce
I0403 15:30:04.978134  3165 net.cpp:425] inception_5a/5x5_reduce <- pool4/3x3_s2_pool4/3x3_s2_0_split_2
I0403 15:30:04.978155  3165 net.cpp:399] inception_5a/5x5_reduce -> inception_5a/5x5_reduce
I0403 15:30:04.979416  3165 net.cpp:141] Setting up inception_5a/5x5_reduce
I0403 15:30:04.979450  3165 net.cpp:148] Top shape: 24 32 7 7 (37632)
I0403 15:30:04.979468  3165 net.cpp:156] Memory required for data: 1299200544
I0403 15:30:04.979488  3165 layer_factory.hpp:77] Creating layer inception_5a/relu_5x5_reduce
I0403 15:30:04.979507  3165 net.cpp:91] Creating Layer inception_5a/relu_5x5_reduce
I0403 15:30:04.979524  3165 net.cpp:425] inception_5a/relu_5x5_reduce <- inception_5a/5x5_reduce
I0403 15:30:04.979545  3165 net.cpp:386] inception_5a/relu_5x5_reduce -> inception_5a/5x5_reduce (in-place)
I0403 15:30:04.979864  3165 net.cpp:141] Setting up inception_5a/relu_5x5_reduce
I0403 15:30:04.979895  3165 net.cpp:148] Top shape: 24 32 7 7 (37632)
I0403 15:30:04.979913  3165 net.cpp:156] Memory required for data: 1299351072
I0403 15:30:04.979929  3165 layer_factory.hpp:77] Creating layer inception_5a/5x5
I0403 15:30:04.979954  3165 net.cpp:91] Creating Layer inception_5a/5x5
I0403 15:30:04.979972  3165 net.cpp:425] inception_5a/5x5 <- inception_5a/5x5_reduce
I0403 15:30:04.979995  3165 net.cpp:399] inception_5a/5x5 -> inception_5a/5x5
I0403 15:30:04.981832  3165 net.cpp:141] Setting up inception_5a/5x5
I0403 15:30:04.981875  3165 net.cpp:148] Top shape: 24 128 7 7 (150528)
I0403 15:30:04.981894  3165 net.cpp:156] Memory required for data: 1299953184
I0403 15:30:04.981914  3165 layer_factory.hpp:77] Creating layer inception_5a/relu_5x5
I0403 15:30:04.981932  3165 net.cpp:91] Creating Layer inception_5a/relu_5x5
I0403 15:30:04.981950  3165 net.cpp:425] inception_5a/relu_5x5 <- inception_5a/5x5
I0403 15:30:04.981969  3165 net.cpp:386] inception_5a/relu_5x5 -> inception_5a/5x5 (in-place)
I0403 15:30:04.982178  3165 net.cpp:141] Setting up inception_5a/relu_5x5
I0403 15:30:04.982204  3165 net.cpp:148] Top shape: 24 128 7 7 (150528)
I0403 15:30:04.982220  3165 net.cpp:156] Memory required for data: 1300555296
I0403 15:30:04.982236  3165 layer_factory.hpp:77] Creating layer inception_5a/pool
I0403 15:30:04.982269  3165 net.cpp:91] Creating Layer inception_5a/pool
I0403 15:30:04.982286  3165 net.cpp:425] inception_5a/pool <- pool4/3x3_s2_pool4/3x3_s2_0_split_3
I0403 15:30:04.982309  3165 net.cpp:399] inception_5a/pool -> inception_5a/pool
I0403 15:30:04.982385  3165 net.cpp:141] Setting up inception_5a/pool
I0403 15:30:04.982414  3165 net.cpp:148] Top shape: 24 832 7 7 (978432)
I0403 15:30:04.982429  3165 net.cpp:156] Memory required for data: 1304469024
I0403 15:30:04.982445  3165 layer_factory.hpp:77] Creating layer inception_5a/pool_proj
I0403 15:30:04.982470  3165 net.cpp:91] Creating Layer inception_5a/pool_proj
I0403 15:30:04.982491  3165 net.cpp:425] inception_5a/pool_proj <- inception_5a/pool
I0403 15:30:04.982511  3165 net.cpp:399] inception_5a/pool_proj -> inception_5a/pool_proj
I0403 15:30:04.984941  3165 net.cpp:141] Setting up inception_5a/pool_proj
I0403 15:30:04.984972  3165 net.cpp:148] Top shape: 24 128 7 7 (150528)
I0403 15:30:04.984989  3165 net.cpp:156] Memory required for data: 1305071136
I0403 15:30:04.985009  3165 layer_factory.hpp:77] Creating layer inception_5a/relu_pool_proj
I0403 15:30:04.985030  3165 net.cpp:91] Creating Layer inception_5a/relu_pool_proj
I0403 15:30:04.985049  3165 net.cpp:425] inception_5a/relu_pool_proj <- inception_5a/pool_proj
I0403 15:30:04.985069  3165 net.cpp:386] inception_5a/relu_pool_proj -> inception_5a/pool_proj (in-place)
I0403 15:30:04.985388  3165 net.cpp:141] Setting up inception_5a/relu_pool_proj
I0403 15:30:04.985417  3165 net.cpp:148] Top shape: 24 128 7 7 (150528)
I0403 15:30:04.985433  3165 net.cpp:156] Memory required for data: 1305673248
I0403 15:30:04.985450  3165 layer_factory.hpp:77] Creating layer inception_5a/output
I0403 15:30:04.985471  3165 net.cpp:91] Creating Layer inception_5a/output
I0403 15:30:04.985489  3165 net.cpp:425] inception_5a/output <- inception_5a/1x1
I0403 15:30:04.985507  3165 net.cpp:425] inception_5a/output <- inception_5a/3x3
I0403 15:30:04.985525  3165 net.cpp:425] inception_5a/output <- inception_5a/5x5
I0403 15:30:04.985543  3165 net.cpp:425] inception_5a/output <- inception_5a/pool_proj
I0403 15:30:04.985561  3165 net.cpp:399] inception_5a/output -> inception_5a/output
I0403 15:30:04.985617  3165 net.cpp:141] Setting up inception_5a/output
I0403 15:30:04.985643  3165 net.cpp:148] Top shape: 24 832 7 7 (978432)
I0403 15:30:04.985659  3165 net.cpp:156] Memory required for data: 1309586976
I0403 15:30:04.985676  3165 layer_factory.hpp:77] Creating layer inception_5a/output_inception_5a/output_0_split
I0403 15:30:04.985693  3165 net.cpp:91] Creating Layer inception_5a/output_inception_5a/output_0_split
I0403 15:30:04.985710  3165 net.cpp:425] inception_5a/output_inception_5a/output_0_split <- inception_5a/output
I0403 15:30:04.985733  3165 net.cpp:399] inception_5a/output_inception_5a/output_0_split -> inception_5a/output_inception_5a/output_0_split_0
I0403 15:30:04.985755  3165 net.cpp:399] inception_5a/output_inception_5a/output_0_split -> inception_5a/output_inception_5a/output_0_split_1
I0403 15:30:04.985777  3165 net.cpp:399] inception_5a/output_inception_5a/output_0_split -> inception_5a/output_inception_5a/output_0_split_2
I0403 15:30:04.985800  3165 net.cpp:399] inception_5a/output_inception_5a/output_0_split -> inception_5a/output_inception_5a/output_0_split_3
I0403 15:30:04.985923  3165 net.cpp:141] Setting up inception_5a/output_inception_5a/output_0_split
I0403 15:30:04.985950  3165 net.cpp:148] Top shape: 24 832 7 7 (978432)
I0403 15:30:04.985968  3165 net.cpp:148] Top shape: 24 832 7 7 (978432)
I0403 15:30:04.985986  3165 net.cpp:148] Top shape: 24 832 7 7 (978432)
I0403 15:30:04.986003  3165 net.cpp:148] Top shape: 24 832 7 7 (978432)
I0403 15:30:04.986018  3165 net.cpp:156] Memory required for data: 1325241888
I0403 15:30:04.986034  3165 layer_factory.hpp:77] Creating layer inception_5b/1x1
I0403 15:30:04.986058  3165 net.cpp:91] Creating Layer inception_5b/1x1
I0403 15:30:04.986078  3165 net.cpp:425] inception_5b/1x1 <- inception_5a/output_inception_5a/output_0_split_0
I0403 15:30:04.986099  3165 net.cpp:399] inception_5b/1x1 -> inception_5b/1x1
I0403 15:30:04.990121  3165 net.cpp:141] Setting up inception_5b/1x1
I0403 15:30:04.990154  3165 net.cpp:148] Top shape: 24 384 7 7 (451584)
I0403 15:30:04.990170  3165 net.cpp:156] Memory required for data: 1327048224
I0403 15:30:04.990193  3165 layer_factory.hpp:77] Creating layer inception_5b/relu_1x1
I0403 15:30:04.990216  3165 net.cpp:91] Creating Layer inception_5b/relu_1x1
I0403 15:30:04.990233  3165 net.cpp:425] inception_5b/relu_1x1 <- inception_5b/1x1
I0403 15:30:04.990257  3165 net.cpp:386] inception_5b/relu_1x1 -> inception_5b/1x1 (in-place)
I0403 15:30:04.990583  3165 net.cpp:141] Setting up inception_5b/relu_1x1
I0403 15:30:04.990612  3165 net.cpp:148] Top shape: 24 384 7 7 (451584)
I0403 15:30:04.990628  3165 net.cpp:156] Memory required for data: 1328854560
I0403 15:30:04.990645  3165 layer_factory.hpp:77] Creating layer inception_5b/3x3_reduce
I0403 15:30:04.990669  3165 net.cpp:91] Creating Layer inception_5b/3x3_reduce
I0403 15:30:04.990689  3165 net.cpp:425] inception_5b/3x3_reduce <- inception_5a/output_inception_5a/output_0_split_1
I0403 15:30:04.990711  3165 net.cpp:399] inception_5b/3x3_reduce -> inception_5b/3x3_reduce
I0403 15:30:04.993583  3165 net.cpp:141] Setting up inception_5b/3x3_reduce
I0403 15:30:04.993616  3165 net.cpp:148] Top shape: 24 192 7 7 (225792)
I0403 15:30:04.993634  3165 net.cpp:156] Memory required for data: 1329757728
I0403 15:30:04.993654  3165 layer_factory.hpp:77] Creating layer inception_5b/relu_3x3_reduce
I0403 15:30:04.993676  3165 net.cpp:91] Creating Layer inception_5b/relu_3x3_reduce
I0403 15:30:04.993695  3165 net.cpp:425] inception_5b/relu_3x3_reduce <- inception_5b/3x3_reduce
I0403 15:30:04.993715  3165 net.cpp:386] inception_5b/relu_3x3_reduce -> inception_5b/3x3_reduce (in-place)
I0403 15:30:04.993921  3165 net.cpp:141] Setting up inception_5b/relu_3x3_reduce
I0403 15:30:04.993949  3165 net.cpp:148] Top shape: 24 192 7 7 (225792)
I0403 15:30:04.993966  3165 net.cpp:156] Memory required for data: 1330660896
I0403 15:30:04.993983  3165 layer_factory.hpp:77] Creating layer inception_5b/3x3
I0403 15:30:04.994007  3165 net.cpp:91] Creating Layer inception_5b/3x3
I0403 15:30:04.994025  3165 net.cpp:425] inception_5b/3x3 <- inception_5b/3x3_reduce
I0403 15:30:04.994046  3165 net.cpp:399] inception_5b/3x3 -> inception_5b/3x3
I0403 15:30:05.001215  3165 net.cpp:141] Setting up inception_5b/3x3
I0403 15:30:05.001251  3165 net.cpp:148] Top shape: 24 384 7 7 (451584)
I0403 15:30:05.001269  3165 net.cpp:156] Memory required for data: 1332467232
I0403 15:30:05.001289  3165 layer_factory.hpp:77] Creating layer inception_5b/relu_3x3
I0403 15:30:05.001312  3165 net.cpp:91] Creating Layer inception_5b/relu_3x3
I0403 15:30:05.001330  3165 net.cpp:425] inception_5b/relu_3x3 <- inception_5b/3x3
I0403 15:30:05.001349  3165 net.cpp:386] inception_5b/relu_3x3 -> inception_5b/3x3 (in-place)
I0403 15:30:05.001672  3165 net.cpp:141] Setting up inception_5b/relu_3x3
I0403 15:30:05.001700  3165 net.cpp:148] Top shape: 24 384 7 7 (451584)
I0403 15:30:05.001716  3165 net.cpp:156] Memory required for data: 1334273568
I0403 15:30:05.001734  3165 layer_factory.hpp:77] Creating layer inception_5b/5x5_reduce
I0403 15:30:05.001780  3165 net.cpp:91] Creating Layer inception_5b/5x5_reduce
I0403 15:30:05.001801  3165 net.cpp:425] inception_5b/5x5_reduce <- inception_5a/output_inception_5a/output_0_split_2
I0403 15:30:05.001821  3165 net.cpp:399] inception_5b/5x5_reduce -> inception_5b/5x5_reduce
I0403 15:30:05.003192  3165 net.cpp:141] Setting up inception_5b/5x5_reduce
I0403 15:30:05.003222  3165 net.cpp:148] Top shape: 24 48 7 7 (56448)
I0403 15:30:05.003247  3165 net.cpp:156] Memory required for data: 1334499360
I0403 15:30:05.003268  3165 layer_factory.hpp:77] Creating layer inception_5b/relu_5x5_reduce
I0403 15:30:05.003288  3165 net.cpp:91] Creating Layer inception_5b/relu_5x5_reduce
I0403 15:30:05.003306  3165 net.cpp:425] inception_5b/relu_5x5_reduce <- inception_5b/5x5_reduce
I0403 15:30:05.003324  3165 net.cpp:386] inception_5b/relu_5x5_reduce -> inception_5b/5x5_reduce (in-place)
I0403 15:30:05.003728  3165 net.cpp:141] Setting up inception_5b/relu_5x5_reduce
I0403 15:30:05.003756  3165 net.cpp:148] Top shape: 24 48 7 7 (56448)
I0403 15:30:05.003773  3165 net.cpp:156] Memory required for data: 1334725152
I0403 15:30:05.003789  3165 layer_factory.hpp:77] Creating layer inception_5b/5x5
I0403 15:30:05.003811  3165 net.cpp:91] Creating Layer inception_5b/5x5
I0403 15:30:05.003829  3165 net.cpp:425] inception_5b/5x5 <- inception_5b/5x5_reduce
I0403 15:30:05.003849  3165 net.cpp:399] inception_5b/5x5 -> inception_5b/5x5
I0403 15:30:05.006072  3165 net.cpp:141] Setting up inception_5b/5x5
I0403 15:30:05.006104  3165 net.cpp:148] Top shape: 24 128 7 7 (150528)
I0403 15:30:05.006121  3165 net.cpp:156] Memory required for data: 1335327264
I0403 15:30:05.006141  3165 layer_factory.hpp:77] Creating layer inception_5b/relu_5x5
I0403 15:30:05.006161  3165 net.cpp:91] Creating Layer inception_5b/relu_5x5
I0403 15:30:05.006180  3165 net.cpp:425] inception_5b/relu_5x5 <- inception_5b/5x5
I0403 15:30:05.006201  3165 net.cpp:386] inception_5b/relu_5x5 -> inception_5b/5x5 (in-place)
I0403 15:30:05.006417  3165 net.cpp:141] Setting up inception_5b/relu_5x5
I0403 15:30:05.006443  3165 net.cpp:148] Top shape: 24 128 7 7 (150528)
I0403 15:30:05.006460  3165 net.cpp:156] Memory required for data: 1335929376
I0403 15:30:05.006475  3165 layer_factory.hpp:77] Creating layer inception_5b/pool
I0403 15:30:05.006495  3165 net.cpp:91] Creating Layer inception_5b/pool
I0403 15:30:05.006513  3165 net.cpp:425] inception_5b/pool <- inception_5a/output_inception_5a/output_0_split_3
I0403 15:30:05.006536  3165 net.cpp:399] inception_5b/pool -> inception_5b/pool
I0403 15:30:05.006616  3165 net.cpp:141] Setting up inception_5b/pool
I0403 15:30:05.006641  3165 net.cpp:148] Top shape: 24 832 7 7 (978432)
I0403 15:30:05.006657  3165 net.cpp:156] Memory required for data: 1339843104
I0403 15:30:05.006674  3165 layer_factory.hpp:77] Creating layer inception_5b/pool_proj
I0403 15:30:05.006700  3165 net.cpp:91] Creating Layer inception_5b/pool_proj
I0403 15:30:05.006718  3165 net.cpp:425] inception_5b/pool_proj <- inception_5b/pool
I0403 15:30:05.006738  3165 net.cpp:399] inception_5b/pool_proj -> inception_5b/pool_proj
I0403 15:30:05.009227  3165 net.cpp:141] Setting up inception_5b/pool_proj
I0403 15:30:05.009265  3165 net.cpp:148] Top shape: 24 128 7 7 (150528)
I0403 15:30:05.009284  3165 net.cpp:156] Memory required for data: 1340445216
I0403 15:30:05.009304  3165 layer_factory.hpp:77] Creating layer inception_5b/relu_pool_proj
I0403 15:30:05.009323  3165 net.cpp:91] Creating Layer inception_5b/relu_pool_proj
I0403 15:30:05.009341  3165 net.cpp:425] inception_5b/relu_pool_proj <- inception_5b/pool_proj
I0403 15:30:05.009361  3165 net.cpp:386] inception_5b/relu_pool_proj -> inception_5b/pool_proj (in-place)
I0403 15:30:05.009686  3165 net.cpp:141] Setting up inception_5b/relu_pool_proj
I0403 15:30:05.009717  3165 net.cpp:148] Top shape: 24 128 7 7 (150528)
I0403 15:30:05.009734  3165 net.cpp:156] Memory required for data: 1341047328
I0403 15:30:05.009750  3165 layer_factory.hpp:77] Creating layer inception_5b/output
I0403 15:30:05.009770  3165 net.cpp:91] Creating Layer inception_5b/output
I0403 15:30:05.009804  3165 net.cpp:425] inception_5b/output <- inception_5b/1x1
I0403 15:30:05.009822  3165 net.cpp:425] inception_5b/output <- inception_5b/3x3
I0403 15:30:05.009840  3165 net.cpp:425] inception_5b/output <- inception_5b/5x5
I0403 15:30:05.009857  3165 net.cpp:425] inception_5b/output <- inception_5b/pool_proj
I0403 15:30:05.009877  3165 net.cpp:399] inception_5b/output -> inception_5b/output
I0403 15:30:05.009935  3165 net.cpp:141] Setting up inception_5b/output
I0403 15:30:05.009961  3165 net.cpp:148] Top shape: 24 1024 7 7 (1204224)
I0403 15:30:05.009976  3165 net.cpp:156] Memory required for data: 1345864224
I0403 15:30:05.009992  3165 layer_factory.hpp:77] Creating layer pool5/7x7_s1
I0403 15:30:05.010013  3165 net.cpp:91] Creating Layer pool5/7x7_s1
I0403 15:30:05.010032  3165 net.cpp:425] pool5/7x7_s1 <- inception_5b/output
I0403 15:30:05.010052  3165 net.cpp:399] pool5/7x7_s1 -> pool5/7x7_s1
I0403 15:30:05.010290  3165 net.cpp:141] Setting up pool5/7x7_s1
I0403 15:30:05.010319  3165 net.cpp:148] Top shape: 24 1024 1 1 (24576)
I0403 15:30:05.010336  3165 net.cpp:156] Memory required for data: 1345962528
I0403 15:30:05.010352  3165 layer_factory.hpp:77] Creating layer pool5/drop_7x7_s1
I0403 15:30:05.010372  3165 net.cpp:91] Creating Layer pool5/drop_7x7_s1
I0403 15:30:05.010388  3165 net.cpp:425] pool5/drop_7x7_s1 <- pool5/7x7_s1
I0403 15:30:05.010407  3165 net.cpp:386] pool5/drop_7x7_s1 -> pool5/7x7_s1 (in-place)
I0403 15:30:05.010462  3165 net.cpp:141] Setting up pool5/drop_7x7_s1
I0403 15:30:05.010486  3165 net.cpp:148] Top shape: 24 1024 1 1 (24576)
I0403 15:30:05.010502  3165 net.cpp:156] Memory required for data: 1346060832
I0403 15:30:05.010517  3165 layer_factory.hpp:77] Creating layer loss3/classifier_plantvillage
I0403 15:30:05.010541  3165 net.cpp:91] Creating Layer loss3/classifier_plantvillage
I0403 15:30:05.010558  3165 net.cpp:425] loss3/classifier_plantvillage <- pool5/7x7_s1
I0403 15:30:05.010578  3165 net.cpp:399] loss3/classifier_plantvillage -> loss3/classifier_plantvillage
I0403 15:30:05.011035  3165 net.cpp:141] Setting up loss3/classifier_plantvillage
I0403 15:30:05.011061  3165 net.cpp:148] Top shape: 24 38 (912)
I0403 15:30:05.011077  3165 net.cpp:156] Memory required for data: 1346064480
I0403 15:30:05.011096  3165 layer_factory.hpp:77] Creating layer loss3/classifier_plantvillage_loss3/classifier_plantvillage_0_split
I0403 15:30:05.011116  3165 net.cpp:91] Creating Layer loss3/classifier_plantvillage_loss3/classifier_plantvillage_0_split
I0403 15:30:05.011132  3165 net.cpp:425] loss3/classifier_plantvillage_loss3/classifier_plantvillage_0_split <- loss3/classifier_plantvillage
I0403 15:30:05.011155  3165 net.cpp:399] loss3/classifier_plantvillage_loss3/classifier_plantvillage_0_split -> loss3/classifier_plantvillage_loss3/classifier_plantvillage_0_split_0
I0403 15:30:05.011178  3165 net.cpp:399] loss3/classifier_plantvillage_loss3/classifier_plantvillage_0_split -> loss3/classifier_plantvillage_loss3/classifier_plantvillage_0_split_1
I0403 15:30:05.011201  3165 net.cpp:399] loss3/classifier_plantvillage_loss3/classifier_plantvillage_0_split -> loss3/classifier_plantvillage_loss3/classifier_plantvillage_0_split_2
I0403 15:30:05.011222  3165 net.cpp:399] loss3/classifier_plantvillage_loss3/classifier_plantvillage_0_split -> loss3/classifier_plantvillage_loss3/classifier_plantvillage_0_split_3
I0403 15:30:05.011343  3165 net.cpp:141] Setting up loss3/classifier_plantvillage_loss3/classifier_plantvillage_0_split
I0403 15:30:05.011368  3165 net.cpp:148] Top shape: 24 38 (912)
I0403 15:30:05.011386  3165 net.cpp:148] Top shape: 24 38 (912)
I0403 15:30:05.011404  3165 net.cpp:148] Top shape: 24 38 (912)
I0403 15:30:05.011420  3165 net.cpp:148] Top shape: 24 38 (912)
I0403 15:30:05.011435  3165 net.cpp:156] Memory required for data: 1346079072
I0403 15:30:05.011451  3165 layer_factory.hpp:77] Creating layer loss1/loss
I0403 15:30:05.011476  3165 net.cpp:91] Creating Layer loss1/loss
I0403 15:30:05.011494  3165 net.cpp:425] loss1/loss <- loss1/classifier_plantvillage_loss1/classifier_plantvillage_0_split_0
I0403 15:30:05.011528  3165 net.cpp:425] loss1/loss <- label_data_1_split_0
…
