…
I0403 15:14:14.265758  2844 net.cpp:313] The NetState phase (1) differed from the phase (0) specified by a rule in layer data
I0403 15:14:14.267160  2844 net.cpp:49] Initializing net from parameters: 
state {
  phase: TEST
}
layer {
  name: "data"
  type: "Data"
  top: "data"
  top: "label"
  include {
    phase: TEST
  }
  transform_param {
    mirror: false
    crop_size: 224
    mean_file: "/home/mohanty/data/final_dataset/lmdb/grayscale-50-50/mean.binaryproto"
  }
  data_param {
    source: "/home/mohanty/data/final_dataset/lmdb/grayscale-50-50/test_db"
    batch_size: 24
    backend: LMDB
  }
}
layer {
  name: "conv1/7x7_s2"
  type: "Convolution"
  bottom: "data"
  top: "conv1/7x7_s2"
  param {
    lr_mult: 1
    decay_mult: 1
  }
  param {
    lr_mult: 2
    decay_mult: 0
  }
  convolution_param {
    num_output: 64
    pad: 3
    kernel_size: 7
    stride: 2
    weight_filler {
      type: "xavier"
      std: 0.1
    }
    bias_filler {
      type: "constant"
      value: 0.2
    }
  }
}
layer {
  name: "conv1/relu_7x7"
  type: "ReLU"
  bottom: "conv1/7x7_s2"
  top: "conv1/7x7_s2"
}
layer {
  name: "pool1/3x3_s2"
  type: "Pooling"
  bottom: "conv1/7x7_s2"
  top: "pool1/3x3_s2"
  pooling_param {
    pool: MAX
    kernel_size: 3
    stride: 2
  }
}
layer {
  name: "pool1/norm1"
  type: "LRN"
  bottom: "pool1/3x3_s2"
  top: "pool1/norm1"
  lrn_param {
    local_size: 5
    alpha: 0.0001
    beta: 0.75
  }
}
layer {
  name: "conv2/3x3_reduce"
  type: "Convolution"
  bottom: "pool1/norm1"
  top: "conv2/3x3_reduce"
  param {
    lr_mult: 1
    decay_mult: 1
  }
  param {
    lr_mult: 2
    decay_mult: 0
  }
  convolution_param {
    num_output: 64
    kernel_size: 1
    weight_filler {
      type: "xavier"
      std: 0.1
    }
    bias_filler {
      type: "constant"
      value: 0.2
    }
  }
}
layer {
  name: "conv2/relu_3x3_reduce"
  type: "ReLU"
  bottom: "conv2/3x3_reduce"
  top: "conv2/3x3_reduce"
}
layer {
  name: "conv2/3x3"
  type: "Convolution"
  bottom: "conv2/3x3_reduce"
  top: "conv2/3x3"
  param {
    lr_mult: 1
    decay_mult: 1
  }
  param {
    lr_mult: 2
    decay_mult: 0
  }
  convolution_param {
    num_output: 192
    pad: 1
    kernel_size: 3
    weight_filler {
      type: "xavier"
      std: 0.03
    }
    bias_filler {
      type: "constant"
      value: 0.2
    }
  }
}
layer {
  name: "conv2/relu_3x3"
  type: "ReLU"
  bottom: "conv2/3x3"
  top: "conv2/3x3"
}
layer {
  name: "conv2/norm2"
  type: "LRN"
  bottom: "conv2/3x3"
  top: "conv2/norm2"
  lrn_param {
    local_size: 5
    alpha: 0.0001
    beta: 0.75
  }
}
layer {
  name: "pool2/3x3_s2"
  type: "Pooling"
  bottom: "conv2/norm2"
  top: "pool2/3x3_s2"
  pooling_param {
    pool: MAX
    kernel_size: 3
    stride: 2
  }
}
layer {
  name: "inception_3a/1x1"
  type: "Convolution"
  bottom: "pool2/3x3_s2"
  top: "inception_3a/1x1"
  param {
    lr_mult: 1
    decay_mult: 1
  }
  param {
    lr_mult: 2
    decay_mult: 0
  }
  convolution_param {
    num_output: 64
    kernel_size: 1
    weight_filler {
      type: "xavier"
      std: 0.03
    }
    bias_filler {
      type: "constant"
      value: 0.2
    }
  }
}
layer {
  name: "inception_3a/relu_1x1"
  type: "ReLU"
  bottom: "inception_3a/1x1"
  top: "inception_3a/1x1"
}
layer {
  name: "inception_3a/3x3_reduce"
  type: "Convolution"
  bottom: "pool2/3x3_s2"
  top: "inception_3a/3x3_reduce"
  param {
    lr_mult: 1
    decay_mult: 1
  }
  param {
    lr_mult: 2
    decay_mult: 0
  }
  convolution_param {
    num_output: 96
    kernel_size: 1
    weight_filler {
      type: "xavier"
      std: 0.09
    }
    bias_filler {
      type: "constant"
      value: 0.2
    }
  }
}
layer {
  name: "inception_3a/relu_3x3_reduce"
  type: "ReLU"
  bottom: "inception_3a/3x3_reduce"
  top: "inception_3a/3x3_reduce"
}
layer {
  name: "inception_3a/3x3"
  type: "Convolution"
  bottom: "inception_3a/3x3_reduce"
  top: "inception_3a/3x3"
  param {
    lr_mult: 1
    decay_mult: 1
  }
  param {
    lr_mult: 2
    decay_mult: 0
  }
  convolution_param {
    num_output: 128
    pad: 1
    kernel_size: 3
    weight_filler {
      type: "xavier"
      std: 0.03
    }
    bias_filler {
      type: "constant"
      value: 0.2
    }
  }
}
layer {
  name: "inception_3a/relu_3x3"
  type: "ReLU"
  bottom: "inception_3a/3x3"
  top: "inception_3a/3x3"
}
layer {
  name: "inception_3a/5x5_reduce"
  type: "Convolution"
  bottom: "pool2/3x3_s2"
  top: "inception_3a/5x5_reduce"
  param {
    lr_mult: 1
    decay_mult: 1
  }
  param {
    lr_mult: 2
    decay_mult: 0
  }
  convolution_param {
    num_output: 16
    kernel_size: 1
    weight_filler {
      type: "xavier"
      std: 0.2
    }
    bias_filler {
      type: "constant"
      value: 0.2
    }
  }
}
layer {
  name: "inception_3a/relu_5x5_reduce"
  type: "ReLU"
  bottom: "inception_3a/5x5_reduce"
  top: "inception_3a/5x5_reduce"
}
layer {
  name: "inception_3a/5x5"
  type: "Convolution"
  bottom: "inception_3a/5x5_reduce"
  top: "inception_3a/5x5"
  param {
    lr_mult: 1
    decay_mult: 1
  }
  param {
    lr_mult: 2
    decay_mult: 0
  }
  convolution_param {
    num_output: 32
    pad: 2
    kernel_size: 5
    weight_filler {
      type: "xavier"
      std: 0.03
    }
    bias_filler {
      type: "constant"
      value: 0.2
    }
  }
}
layer {
  name: "inception_3a/relu_5x5"
  type: "ReLU"
  bottom: "inception_3a/5x5"
  top: "inception_3a/5x5"
}
layer {
  name: "inception_3a/pool"
  type: "Pooling"
  bottom: "pool2/3x3_s2"
  top: "inception_3a/pool"
  pooling_param {
    pool: MAX
    kernel_size: 3
    stride: 1
    pad: 1
  }
}
layer {
  name: "inception_3a/pool_proj"
  type: "Convolution"
  bottom: "inception_3a/pool"
  top: "inception_3a/pool_proj"
  param {
    lr_mult: 1
    decay_mult: 1
  }
  param {
    lr_mult: 2
    decay_mult: 0
  }
  convolution_param {
    num_output: 32
    kernel_size: 1
    weight_filler {
      type: "xavier"
      std: 0.1
    }
    bias_filler {
      type: "constant"
      value: 0.2
    }
  }
}
layer {
  name: "inception_3a/relu_pool_proj"
  type: "ReLU"
  bottom: "inception_3a/pool_proj"
  top: "inception_3a/pool_proj"
}
layer {
  name: "inception_3a/output"
  type: "Concat"
  bottom: "inception_3a/1x1"
  bottom: "inception_3a/3x3"
  bottom: "inception_3a/5x5"
  bottom: "inception_3a/pool_proj"
  top: "inception_3a/output"
}
layer {
  name: "inception_3b/1x1"
  type: "Convolution"
  bottom: "inception_3a/output"
  top: "inception_3b/1x1"
  param {
    lr_mult: 1
    decay_mult: 1
  }
  param {
    lr_mult: 2
    decay_mult: 0
  }
  convolution_param {
    num_output: 128
    kernel_size: 1
    weight_filler {
      type: "xavier"
      std: 0.03
    }
    bias_filler {
      type: "constant"
      value: 0.2
    }
  }
}
layer {
  name: "inception_3b/relu_1x1"
  type: "ReLU"
  bottom: "inception_3b/1x1"
  top: "inception_3b/1x1"
}
layer {
  name: "inception_3b/3x3_reduce"
  type: "Convolution"
  bottom: "inception_3a/output"
  top: "inception_3b/3x3_reduce"
  param {
    lr_mult: 1
    decay_mult: 1
  }
  param {
    lr_mult: 2
    decay_mult: 0
  }
  convolution_param {
    num_output: 128
    kernel_size: 1
    weight_filler {
      type: "xavier"
      std: 0.09
    }
    bias_filler {
      type: "constant"
      value: 0.2
    }
  }
}
layer {
  name: "inception_3b/relu_3x3_reduce"
  type: "ReLU"
  bottom: "inception_3b/3x3_reduce"
  top: "inception_3b/3x3_reduce"
}
layer {
  name: "inception_3b/3x3"
  type: "Convolution"
  bottom: "inception_3b/3x3_reduce"
  top: "inception_3b/3x3"
  param {
    lr_mult: 1
    decay_mult: 1
  }
  param {
    lr_mult: 2
    decay_mult: 0
  }
  convolution_param {
    num_output: 192
    pad: 1
    kernel_size: 3
    weight_filler {
      type: "xavier"
      std: 0.03
    }
    bias_filler {
      type: "constant"
      value: 0.2
    }
  }
}
layer {
  name: "inception_3b/relu_3x3"
  type: "ReLU"
  bottom: "inception_3b/3x3"
  top: "inception_3b/3x3"
}
layer {
  name: "inception_3b/5x5_reduce"
  type: "Convolution"
  bottom: "inception_3a/output"
  top: "inception_3b/5x5_reduce"
  param {
    lr_mult: 1
    decay_mult: 1
  }
  param {
    lr_mult: 2
    decay_mult: 0
  }
  convolution_param {
    num_output: 32
    kernel_size: 1
    weight_filler {
      type: "xavier"
      std: 0.2
    }
    bias_filler {
      type: "constant"
      value: 0.2
    }
  }
}
layer {
  name: "inception_3b/relu_5x5_reduce"
  type: "ReLU"
  bottom: "inception_3b/5x5_reduce"
  top: "inception_3b/5x5_reduce"
}
layer {
  name: "inception_3b/5x5"
  type: "Convolution"
  bottom: "inception_3b/5x5_reduce"
  top: "inception_3b/5x5"
  param {
    lr_mult: 1
    decay_mult: 1
  }
  param {
    lr_mult: 2
    decay_mult: 0
  }
  convolution_param {
    num_output: 96
    pad: 2
    kernel_size: 5
    weight_filler {
      type: "xavier"
      std: 0.03
    }
    bias_filler {
      type: "constant"
      value: 0.2
    }
  }
}
layer {
  name: "inception_3b/relu_5x5"
  type: "ReLU"
  bottom: "inception_3b/5x5"
  top: "inception_3b/5x5"
}
layer {
  name: "inception_3b/pool"
  type: "Pooling"
  bottom: "inception_3a/output"
  top: "inception_3b/pool"
  pooling_param {
    pool: MAX
    kernel_size: 3
    stride: 1
    pad: 1
  }
}
layer {
  name: "inception_3b/pool_proj"
  type: "Convolution"
  bottom: "inception_3b/pool"
  top: "inception_3b/pool_proj"
  param {
    lr_mult: 1
    decay_mult: 1
  }
  param {
    lr_mult: 2
    decay_mult: 0
  }
  convolution_param {
    num_output: 64
    kernel_size: 1
    weight_filler {
      type: "xavier"
      std: 0.1
    }
    bias_filler {
      type: "constant"
      value: 0.2
    }
  }
}
layer {
  name: "inception_3b/relu_pool_proj"
  type: "ReLU"
  bottom: "inception_3b/pool_proj"
  top: "inception_3b/pool_proj"
}
layer {
  name: "inception_3b/output"
  type: "Concat"
  bottom: "inception_3b/1x1"
  bottom: "inception_3b/3x3"
  bottom: "inception_3b/5x5"
  bottom: "inception_3b/pool_proj"
  top: "inception_3b/output"
}
layer {
  name: "pool3/3x3_s2"
  type: "Pooling"
  bottom: "inception_3b/output"
  top: "pool3/3x3_s2"
  pooling_param {
    pool: MAX
    kernel_size: 3
    stride: 2
  }
}
layer {
  name: "inception_4a/1x1"
  type: "Convolution"
  bottom: "pool3/3x3_s2"
  top: "inception_4a/1x1"
  param {
    lr_mult: 1
    decay_mult: 1
  }
  param {
    lr_mult: 2
    decay_mult: 0
  }
  convolution_param {
    num_output: 192
    kernel_size: 1
    weight_filler {
      type: "xavier"
      std: 0.03
    }
    bias_filler {
      type: "constant"
      value: 0.2
    }
  }
}
layer {
  name: "inception_4a/relu_1x1"
  type: "ReLU"
  bottom: "inception_4a/1x1"
  top: "inception_4a/1x1"
}
layer {
  name: "inception_4a/3x3_reduce"
  type: "Convolution"
  bottom: "pool3/3x3_s2"
  top: "inception_4a/3x3_reduce"
  param {
    lr_mult: 1
    decay_mult: 1
  }
  param {
    lr_mult: 2
    decay_mult: 0
  }
  convolution_param {
    num_output: 96
    kernel_size: 1
    weight_filler {
      type: "xavier"
      std: 0.09
    }
    bias_filler {
      type: "constant"
      value: 0.2
    }
  }
}
layer {
  name: "inception_4a/relu_3x3_reduce"
  type: "ReLU"
  bottom: "inception_4a/3x3_reduce"
  top: "inception_4a/3x3_reduce"
}
layer {
  name: "inception_4a/3x3"
  type: "Convolution"
  bottom: "inception_4a/3x3_reduce"
  top: "inception_4a/3x3"
  param {
    lr_mult: 1
    decay_mult: 1
  }
  param {
    lr_mult: 2
    decay_mult: 0
  }
  convolution_param {
    num_output: 208
    pad: 1
    kernel_size: 3
    weight_filler {
      type: "xavier"
      std: 0.03
    }
    bias_filler {
      type: "constant"
      value: 0.2
    }
  }
}
layer {
  name: "inception_4a/relu_3x3"
  type: "ReLU"
  bottom: "inception_4a/3x3"
  top: "inception_4a/3x3"
}
layer {
  name: "inception_4a/5x5_reduce"
  type: "Convolution"
  bottom: "pool3/3x3_s2"
  top: "inception_4a/5x5_reduce"
  param {
    lr_mult: 1
    decay_mult: 1
  }
  param {
    lr_mult: 2
    decay_mult: 0
  }
  convolution_param {
    num_output: 16
    kernel_size: 1
    weight_filler {
      type: "xavier"
      std: 0.2
    }
    bias_filler {
      type: "constant"
      value: 0.2
    }
  }
}
layer {
  name: "inception_4a/relu_5x5_reduce"
  type: "ReLU"
  bottom: "inception_4a/5x5_reduce"
  top: "inception_4a/5x5_reduce"
}
layer {
  name: "inception_4a/5x5"
  type: "Convolution"
  bottom: "inception_4a/5x5_reduce"
  top: "inception_4a/5x5"
  param {
    lr_mult: 1
    decay_mult: 1
  }
  param {
    lr_mult: 2
    decay_mult: 0
  }
  convolution_param {
    num_output: 48
    pad: 2
    kernel_size: 5
    weight_filler {
      type: "xavier"
      std: 0.03
    }
    bias_filler {
      type: "constant"
      value: 0.2
    }
  }
}
layer {
  name: "inception_4a/relu_5x5"
  type: "ReLU"
  bottom: "inception_4a/5x5"
  top: "inception_4a/5x5"
}
layer {
  name: "inception_4a/pool"
  type: "Pooling"
  bottom: "pool3/3x3_s2"
  top: "inception_4a/pool"
  pooling_param {
    pool: MAX
    kernel_size: 3
    stride: 1
    pad: 1
  }
}
layer {
  name: "inception_4a/pool_proj"
  type: "Convolution"
  bottom: "inception_4a/pool"
  top: "inception_4a/pool_proj"
  param {
    lr_mult: 1
    decay_mult: 1
  }
  param {
    lr_mult: 2
    decay_mult: 0
  }
  convolution_param {
    num_output: 64
    kernel_size: 1
    weight_filler {
      type: "xavier"
      std: 0.1
    }
    bias_filler {
      type: "constant"
      value: 0.2
    }
  }
}
layer {
  name: "inception_4a/relu_pool_proj"
  type: "ReLU"
  bottom: "inception_4a/pool_proj"
  top: "inception_4a/pool_proj"
}
layer {
  name: "inception_4a/output"
  type: "Concat"
  bottom: "inception_4a/1x1"
  bottom: "inception_4a/3x3"
  bottom: "inception_4a/5x5"
  bottom: "inception_4a/pool_proj"
  top: "inception_4a/output"
}
layer {
  name: "loss1/ave_pool"
  type: "Pooling"
  bottom: "inception_4a/output"
  top: "loss1/ave_pool"
  pooling_param {
    pool: AVE
    kernel_size: 5
    stride: 3
  }
}
layer {
  name: "loss1/conv"
  type: "Convolution"
  bottom: "loss1/ave_pool"
  top: "loss1/conv"
  param {
    lr_mult: 1
    decay_mult: 1
  }
  param {
    lr_mult: 2
    decay_mult: 0
  }
  convolution_param {
    num_output: 128
    kernel_size: 1
    weight_filler {
      type: "xavier"
      std: 0.08
    }
    bias_filler {
      type: "constant"
      value: 0.2
    }
  }
}
layer {
  name: "loss1/relu_conv"
  type: "ReLU"
  bottom: "loss1/conv"
  top: "loss1/conv"
}
layer {
  name: "loss1/fc"
  type: "InnerProduct"
  bottom: "loss1/conv"
  top: "loss1/fc"
  param {
    lr_mult: 1
    decay_mult: 1
  }
  param {
    lr_mult: 2
    decay_mult: 0
  }
  inner_product_param {
    num_output: 1024
    weight_filler {
      type: "xavier"
      std: 0.02
    }
    bias_filler {
      type: "constant"
      value: 0.2
    }
  }
}
layer {
  name: "loss1/relu_fc"
  type: "ReLU"
  bottom: "loss1/fc"
  top: "loss1/fc"
}
layer {
  name: "loss1/drop_fc"
  type: "Dropout"
  bottom: "loss1/fc"
  top: "loss1/fc"
  dropout_param {
    dropout_ratio: 0.7
  }
}
layer {
  name: "loss1/classifier_plantvillage"
  type: "InnerProduct"
  bottom: "loss1/fc"
  top: "loss1/classifier_plantvillage"
  param {
    lr_mult: 1
    decay_mult: 1
  }
  param {
    lr_mult: 2
    decay_mult: 0
  }
  inner_product_param {
    num_output: 38
    weight_filler {
      type: "xavier"
      std: 0.0009765625
    }
    bias_filler {
      type: "constant"
      value: 0
    }
  }
}
layer {
  name: "inception_4b/1x1"
  type: "Convolution"
  bottom: "inception_4a/output"
  top: "inception_4b/1x1"
  param {
    lr_mult: 1
    decay_mult: 1
  }
  param {
    lr_mult: 2
    decay_mult: 0
  }
  convolution_param {
    num_output: 160
    kernel_size: 1
    weight_filler {
      type: "xavier"
      std: 0.03
    }
    bias_filler {
      type: "constant"
      value: 0.2
    }
  }
}
layer {
  name: "inception_4b/relu_1x1"
  type: "ReLU"
  bottom: "inception_4b/1x1"
  top: "inception_4b/1x1"
}
layer {
  name: "inception_4b/3x3_reduce"
  type: "Convolution"
  bottom: "inception_4a/output"
  top: "inception_4b/3x3_reduce"
  param {
    lr_mult: 1
    decay_mult: 1
  }
  param {
    lr_mult: 2
    decay_mult: 0
  }
  convolution_param {
    num_output: 112
    kernel_size: 1
    weight_filler {
      type: "xavier"
      std: 0.09
    }
    bias_filler {
      type: "constant"
      value: 0.2
    }
  }
}
layer {
  name: "inception_4b/relu_3x3_reduce"
  type: "ReLU"
  bottom: "inception_4b/3x3_reduce"
  top: "inception_4b/3x3_reduce"
}
layer {
  name: "inception_4b/3x3"
  type: "Convolution"
  bottom: "inception_4b/3x3_reduce"
  top: "inception_4b/3x3"
  param {
    lr_mult: 1
    decay_mult: 1
  }
  param {
    lr_mult: 2
    decay_mult: 0
  }
  convolution_param {
    num_output: 224
    pad: 1
    kernel_size: 3
    weight_filler {
      type: "xavier"
      std: 0.03
    }
    bias_filler {
      type: "constant"
      value: 0.2
    }
  }
}
layer {
  name: "inception_4b/relu_3x3"
  type: "ReLU"
  bottom: "inception_4b/3x3"
  top: "inception_4b/3x3"
}
layer {
  name: "inception_4b/5x5_reduce"
  type: "Convolution"
  bottom: "inception_4a/output"
  top: "inception_4b/5x5_reduce"
  param {
    lr_mult: 1
    decay_mult: 1
  }
  param {
    lr_mult: 2
    decay_mult: 0
  }
  convolution_param {
    num_output: 24
    kernel_size: 1
    weight_filler {
      type: "xavier"
      std: 0.2
    }
    bias_filler {
      type: "constant"
      value: 0.2
    }
  }
}
layer {
  name: "inception_4b/relu_5x5_reduce"
  type: "ReLU"
  bottom: "inception_4b/5x5_reduce"
  top: "inception_4b/5x5_reduce"
}
layer {
  name: "inception_4b/5x5"
  type: "Convolution"
  bottom: "inception_4b/5x5_reduce"
  top: "inception_4b/5x5"
  param {
    lr_mult: 1
    decay_mult: 1
  }
  param {
    lr_mult: 2
    decay_mult: 0
  }
  convolution_param {
    num_output: 64
    pad: 2
    kernel_size: 5
    weight_filler {
      type: "xavier"
      std: 0.03
    }
    bias_filler {
      type: "constant"
      value: 0.2
    }
  }
}
layer {
  name: "inception_4b/relu_5x5"
  type: "ReLU"
  bottom: "inception_4b/5x5"
  top: "inception_4b/5x5"
}
layer {
  name: "inception_4b/pool"
  type: "Pooling"
  bottom: "inception_4a/output"
  top: "inception_4b/pool"
  pooling_param {
    pool: MAX
    kernel_size: 3
    stride: 1
    pad: 1
  }
}
layer {
  name: "inception_4b/pool_proj"
  type: "Convolution"
  bottom: "inception_4b/pool"
  top: "inception_4b/pool_proj"
  param {
    lr_mult: 1
    decay_mult: 1
  }
  param {
    lr_mult: 2
    decay_mult: 0
  }
  convolution_param {
    num_output: 64
    kernel_size: 1
    weight_filler {
      type: "xavier"
      std: 0.1
    }
    bias_filler {
      type: "constant"
      value: 0.2
    }
  }
}
layer {
  name: "inception_4b/relu_pool_proj"
  type: "ReLU"
  bottom: "inception_4b/pool_proj"
  top: "inception_4b/pool_proj"
}
layer {
  name: "inception_4b/output"
  type: "Concat"
  bottom: "inception_4b/1x1"
  bottom: "inception_4b/3x3"
  bottom: "inception_4b/5x5"
  bottom: "inception_4b/pool_proj"
  top: "inception_4b/output"
}
layer {
  name: "inception_4c/1x1"
  type: "Convolution"
  bottom: "inception_4b/output"
  top: "inception_4c/1x1"
  param {
    lr_mult: 1
    decay_mult: 1
  }
  param {
    lr_mult: 2
    decay_mult: 0
  }
  convolution_param {
    num_output: 128
    kernel_size: 1
    weight_filler {
      type: "xavier"
      std: 0.03
    }
    bias_filler {
      type: "constant"
      value: 0.2
    }
  }
}
layer {
  name: "inception_4c/relu_1x1"
  type: "ReLU"
  bottom: "inception_4c/1x1"
  top: "inception_4c/1x1"
}
layer {
  name: "inception_4c/3x3_reduce"
  type: "Convolution"
  bottom: "inception_4b/output"
  top: "inception_4c/3x3_reduce"
  param {
    lr_mult: 1
    decay_mult: 1
  }
  param {
    lr_mult: 2
    decay_mult: 0
  }
  convolution_param {
    num_output: 128
    kernel_size: 1
    weight_filler {
      type: "xavier"
      std: 0.09
    }
    bias_filler {
      type: "constant"
      value: 0.2
    }
  }
}
layer {
  name: "inception_4c/relu_3x3_reduce"
  type: "ReLU"
  bottom: "inception_4c/3x3_reduce"
  top: "inception_4c/3x3_reduce"
}
layer {
  name: "inception_4c/3x3"
  type: "Convolution"
  bottom: "inception_4c/3x3_reduce"
  top: "inception_4c/3x3"
  param {
    lr_mult: 1
    decay_mult: 1
  }
  param {
    lr_mult: 2
    decay_mult: 0
  }
  convolution_param {
    num_output: 256
    pad: 1
    kernel_size: 3
    weight_filler {
      type: "xavier"
      std: 0.03
    }
    bias_filler {
      type: "constant"
      value: 0.2
    }
  }
}
layer {
  name: "inception_4c/relu_3x3"
  type: "ReLU"
  bottom: "inception_4c/3x3"
  top: "inception_4c/3x3"
}
layer {
  name: "inception_4c/5x5_reduce"
  type: "Convolution"
  bottom: "inception_4b/output"
  top: "inception_4c/5x5_reduce"
  param {
    lr_mult: 1
    decay_mult: 1
  }
  param {
    lr_mult: 2
    decay_mult: 0
  }
  convolution_param {
    num_output: 24
    kernel_size: 1
    weight_filler {
      type: "xavier"
      std: 0.2
    }
    bias_filler {
      type: "constant"
      value: 0.2
    }
  }
}
layer {
  name: "inception_4c/relu_5x5_reduce"
  type: "ReLU"
  bottom: "inception_4c/5x5_reduce"
  top: "inception_4c/5x5_reduce"
}
layer {
  name: "inception_4c/5x5"
  type: "Convolution"
  bottom: "inception_4c/5x5_reduce"
  top: "inception_4c/5x5"
  param {
    lr_mult: 1
    decay_mult: 1
  }
  param {
    lr_mult: 2
    decay_mult: 0
  }
  convolution_param {
    num_output: 64
    pad: 2
    kernel_size: 5
    weight_filler {
      type: "xavier"
      std: 0.03
    }
    bias_filler {
      type: "constant"
      value: 0.2
    }
  }
}
layer {
  name: "inception_4c/relu_5x5"
  type: "ReLU"
  bottom: "inception_4c/5x5"
  top: "inception_4c/5x5"
}
layer {
  name: "inception_4c/pool"
  type: "Pooling"
  bottom: "inception_4b/output"
  top: "inception_4c/pool"
  pooling_param {
    pool: MAX
    kernel_size: 3
    stride: 1
    pad: 1
  }
}
layer {
  name: "inception_4c/pool_proj"
  type: "Convolution"
  bottom: "inception_4c/pool"
  top: "inception_4c/pool_proj"
  param {
    lr_mult: 1
    decay_mult: 1
  }
  param {
    lr_mult: 2
    decay_mult: 0
  }
  convolution_param {
    num_output: 64
    kernel_size: 1
    weight_filler {
      type: "xavier"
      std: 0.1
    }
    bias_filler {
      type: "constant"
      value: 0.2
    }
  }
}
layer {
  name: "inception_4c/relu_pool_proj"
  type: "ReLU"
  bottom: "inception_4c/pool_proj"
  top: "inception_4c/pool_proj"
}
layer {
  name: "inception_4c/output"
  type: "Concat"
  bottom: "inception_4c/1x1"
  bottom: "inception_4c/3x3"
  bottom: "inception_4c/5x5"
  bottom: "inception_4c/pool_proj"
  top: "inception_4c/output"
}
layer {
  name: "inception_4d/1x1"
  type: "Convolution"
  bottom: "inception_4c/output"
  top: "inception_4d/1x1"
  param {
    lr_mult: 1
    decay_mult: 1
  }
  param {
    lr_mult: 2
    decay_mult: 0
  }
  convolution_param {
    num_output: 112
    kernel_size: 1
    weight_filler {
      type: "xavier"
      std: 0.03
    }
    bias_filler {
      type: "constant"
      value: 0.2
    }
  }
}
layer {
  name: "inception_4d/relu_1x1"
  type: "ReLU"
  bottom: "inception_4d/1x1"
  top: "inception_4d/1x1"
}
layer {
  name: "inception_4d/3x3_reduce"
  type: "Convolution"
  bottom: "inception_4c/output"
  top: "inception_4d/3x3_reduce"
  param {
    lr_mult: 1
    decay_mult: 1
  }
  param {
    lr_mult: 2
    decay_mult: 0
  }
  convolution_param {
    num_output: 144
    kernel_size: 1
    weight_filler {
      type: "xavier"
      std: 0.09
    }
    bias_filler {
      type: "constant"
      value: 0.2
    }
  }
}
layer {
  name: "inception_4d/relu_3x3_reduce"
  type: "ReLU"
  bottom: "inception_4d/3x3_reduce"
  top: "inception_4d/3x3_reduce"
}
layer {
  name: "inception_4d/3x3"
  type: "Convolution"
  bottom: "inception_4d/3x3_reduce"
  top: "inception_4d/3x3"
  param {
    lr_mult: 1
    decay_mult: 1
  }
  param {
    lr_mult: 2
    decay_mult: 0
  }
  convolution_param {
    num_output: 288
    pad: 1
    kernel_size: 3
    weight_filler {
      type: "xavier"
      std: 0.03
    }
    bias_filler {
      type: "constant"
      value: 0.2
    }
  }
}
layer {
  name: "inception_4d/relu_3x3"
  type: "ReLU"
  bottom: "inception_4d/3x3"
  top: "inception_4d/3x3"
}
layer {
  name: "inception_4d/5x5_reduce"
  type: "Convolution"
  bottom: "inception_4c/output"
  top: "inception_4d/5x5_reduce"
  param {
    lr_mult: 1
    decay_mult: 1
  }
  param {
    lr_mult: 2
    decay_mult: 0
  }
  convolution_param {
    num_output: 32
    kernel_size: 1
    weight_filler {
      type: "xavier"
      std: 0.2
    }
    bias_filler {
      type: "constant"
      value: 0.2
    }
  }
}
layer {
  name: "inception_4d/relu_5x5_reduce"
  type: "ReLU"
  bottom: "inception_4d/5x5_reduce"
  top: "inception_4d/5x5_reduce"
}
layer {
  name: "inception_4d/5x5"
  type: "Convolution"
  bottom: "inception_4d/5x5_reduce"
  top: "inception_4d/5x5"
  param {
    lr_mult: 1
    decay_mult: 1
  }
  param {
    lr_mult: 2
    decay_mult: 0
  }
  convolution_param {
    num_output: 64
    pad: 2
    kernel_size: 5
    weight_filler {
      type: "xavier"
      std: 0.03
    }
    bias_filler {
      type: "constant"
      value: 0.2
    }
  }
}
layer {
  name: "inception_4d/relu_5x5"
  type: "ReLU"
  bottom: "inception_4d/5x5"
  top: "inception_4d/5x5"
}
layer {
  name: "inception_4d/pool"
  type: "Pooling"
  bottom: "inception_4c/output"
  top: "inception_4d/pool"
  pooling_param {
    pool: MAX
    kernel_size: 3
    stride: 1
    pad: 1
  }
}
layer {
  name: "inception_4d/pool_proj"
  type: "Convolution"
  bottom: "inception_4d/pool"
  top: "inception_4d/pool_proj"
  param {
    lr_mult: 1
    decay_mult: 1
  }
  param {
    lr_mult: 2
    decay_mult: 0
  }
  convolution_param {
    num_output: 64
    kernel_size: 1
    weight_filler {
      type: "xavier"
      std: 0.1
    }
    bias_filler {
      type: "constant"
      value: 0.2
    }
  }
}
layer {
  name: "inception_4d/relu_pool_proj"
  type: "ReLU"
  bottom: "inception_4d/pool_proj"
  top: "inception_4d/pool_proj"
}
layer {
  name: "inception_4d/output"
  type: "Concat"
  bottom: "inception_4d/1x1"
  bottom: "inception_4d/3x3"
  bottom: "inception_4d/5x5"
  bottom: "inception_4d/pool_proj"
  top: "inception_4d/output"
}
layer {
  name: "loss2/ave_pool"
  type: "Pooling"
  bottom: "inception_4d/output"
  top: "loss2/ave_pool"
  pooling_param {
    pool: AVE
    kernel_size: 5
    stride: 3
  }
}
layer {
  name: "loss2/conv"
  type: "Convolution"
  bottom: "loss2/ave_pool"
  top: "loss2/conv"
  param {
    lr_mult: 1
    decay_mult: 1
  }
  param {
    lr_mult: 2
    decay_mult: 0
  }
  convolution_param {
    num_output: 128
    kernel_size: 1
    weight_filler {
      type: "xavier"
      std: 0.08
    }
    bias_filler {
      type: "constant"
      value: 0.2
    }
  }
}
layer {
  name: "loss2/relu_conv"
  type: "ReLU"
  bottom: "loss2/conv"
  top: "loss2/conv"
}
layer {
  name: "loss2/fc"
  type: "InnerProduct"
  bottom: "loss2/conv"
  top: "loss2/fc"
  param {
    lr_mult: 1
    decay_mult: 1
  }
  param {
    lr_mult: 2
    decay_mult: 0
  }
  inner_product_param {
    num_output: 1024
    weight_filler {
      type: "xavier"
      std: 0.02
    }
    bias_filler {
      type: "constant"
      value: 0.2
    }
  }
}
layer {
  name: "loss2/relu_fc"
  type: "ReLU"
  bottom: "loss2/fc"
  top: "loss2/fc"
}
layer {
  name: "loss2/drop_fc"
  type: "Dropout"
  bottom: "loss2/fc"
  top: "loss2/fc"
  dropout_param {
    dropout_ratio: 0.7
  }
}
layer {
  name: "loss2/classifier_plantvillage"
  type: "InnerProduct"
  bottom: "loss2/fc"
  top: "loss2/classifier_plantvillage"
  param {
    lr_mult: 1
    decay_mult: 1
  }
  param {
    lr_mult: 2
    decay_mult: 0
  }
  inner_product_param {
    num_output: 38
    weight_filler {
      type: "xavier"
      std: 0.0009765625
    }
    bias_filler {
      type: "constant"
      value: 0
    }
  }
}
layer {
  name: "inception_4e/1x1"
  type: "Convolution"
  bottom: "inception_4d/output"
  top: "inception_4e/1x1"
  param {
    lr_mult: 1
    decay_mult: 1
  }
  param {
    lr_mult: 2
    decay_mult: 0
  }
  convolution_param {
    num_output: 256
    kernel_size: 1
    weight_filler {
      type: "xavier"
      std: 0.03
    }
    bias_filler {
      type: "constant"
      value: 0.2
    }
  }
}
layer {
  name: "inception_4e/relu_1x1"
  type: "ReLU"
  bottom: "inception_4e/1x1"
  top: "inception_4e/1x1"
}
layer {
  name: "inception_4e/3x3_reduce"
  type: "Convolution"
  bottom: "inception_4d/output"
  top: "inception_4e/3x3_reduce"
  param {
    lr_mult: 1
    decay_mult: 1
  }
  param {
    lr_mult: 2
    decay_mult: 0
  }
  convolution_param {
    num_output: 160
    kernel_size: 1
    weight_filler {
      type: "xavier"
      std: 0.09
    }
    bias_filler {
      type: "constant"
      value: 0.2
    }
  }
}
layer {
  name: "inception_4e/relu_3x3_reduce"
  type: "ReLU"
  bottom: "inception_4e/3x3_reduce"
  top: "inception_4e/3x3_reduce"
}
layer {
  name: "inception_4e/3x3"
  type: "Convolution"
  bottom: "inception_4e/3x3_reduce"
  top: "inception_4e/3x3"
  param {
    lr_mult: 1
    decay_mult: 1
  }
  param {
    lr_mult: 2
    decay_mult: 0
  }
  convolution_param {
    num_output: 320
    pad: 1
    kernel_size: 3
    weight_filler {
      type: "xavier"
      std: 0.03
    }
    bias_filler {
      type: "constant"
      value: 0.2
    }
  }
}
layer {
  name: "inception_4e/relu_3x3"
  type: "ReLU"
  bottom: "inception_4e/3x3"
  top: "inception_4e/3x3"
}
layer {
  name: "inception_4e/5x5_reduce"
  type: "Convolution"
  bottom: "inception_4d/output"
  top: "inception_4e/5x5_reduce"
  param {
    lr_mult: 1
    decay_mult: 1
  }
  param {
    lr_mult: 2
    decay_mult: 0
  }
  convolution_param {
    num_output: 32
    kernel_size: 1
    weight_filler {
      type: "xavier"
      std: 0.2
    }
    bias_filler {
      type: "constant"
      value: 0.2
    }
  }
}
layer {
  name: "inception_4e/relu_5x5_reduce"
  type: "ReLU"
  bottom: "inception_4e/5x5_reduce"
  top: "inception_4e/5x5_reduce"
}
layer {
  name: "inception_4e/5x5"
  type: "Convolution"
  bottom: "inception_4e/5x5_reduce"
  top: "inception_4e/
I0403 15:14:14.268592  2844 layer_factory.hpp:77] Creating layer data
I0403 15:14:14.269318  2844 net.cpp:91] Creating Layer data
I0403 15:14:14.269354  2844 net.cpp:399] data -> data
I0403 15:14:14.269413  2844 net.cpp:399] data -> label
I0403 15:14:14.269455  2844 data_transformer.cpp:25] Loading mean file from: /home/mohanty/data/final_dataset/lmdb/grayscale-50-50/mean.binaryproto
I0403 15:14:14.272616  2853 db_lmdb.cpp:38] Opened lmdb /home/mohanty/data/final_dataset/lmdb/grayscale-50-50/test_db
I0403 15:14:14.284823  2844 data_layer.cpp:41] output data size: 24,3,224,224
I0403 15:14:14.316653  2844 net.cpp:141] Setting up data
I0403 15:14:14.316720  2844 net.cpp:148] Top shape: 24 3 224 224 (3612672)
I0403 15:14:14.316747  2844 net.cpp:148] Top shape: 24 (24)
I0403 15:14:14.316766  2844 net.cpp:156] Memory required for data: 14450784
I0403 15:14:14.316798  2844 layer_factory.hpp:77] Creating layer label_data_1_split
I0403 15:14:14.316826  2844 net.cpp:91] Creating Layer label_data_1_split
I0403 15:14:14.316849  2844 net.cpp:425] label_data_1_split <- label
I0403 15:14:14.316885  2844 net.cpp:399] label_data_1_split -> label_data_1_split_0
I0403 15:14:14.316915  2844 net.cpp:399] label_data_1_split -> label_data_1_split_1
I0403 15:14:14.316941  2844 net.cpp:399] label_data_1_split -> label_data_1_split_2
I0403 15:14:14.316967  2844 net.cpp:399] label_data_1_split -> label_data_1_split_3
I0403 15:14:14.316990  2844 net.cpp:399] label_data_1_split -> label_data_1_split_4
I0403 15:14:14.317015  2844 net.cpp:399] label_data_1_split -> label_data_1_split_5
I0403 15:14:14.317039  2844 net.cpp:399] label_data_1_split -> label_data_1_split_6
I0403 15:14:14.317065  2844 net.cpp:399] label_data_1_split -> label_data_1_split_7
I0403 15:14:14.317088  2844 net.cpp:399] label_data_1_split -> label_data_1_split_8
I0403 15:14:14.317113  2844 net.cpp:399] label_data_1_split -> label_data_1_split_9
I0403 15:14:14.317261  2844 net.cpp:141] Setting up label_data_1_split
I0403 15:14:14.317291  2844 net.cpp:148] Top shape: 24 (24)
I0403 15:14:14.317312  2844 net.cpp:148] Top shape: 24 (24)
I0403 15:14:14.317332  2844 net.cpp:148] Top shape: 24 (24)
I0403 15:14:14.317350  2844 net.cpp:148] Top shape: 24 (24)
I0403 15:14:14.317369  2844 net.cpp:148] Top shape: 24 (24)
I0403 15:14:14.317387  2844 net.cpp:148] Top shape: 24 (24)
I0403 15:14:14.317407  2844 net.cpp:148] Top shape: 24 (24)
I0403 15:14:14.317427  2844 net.cpp:148] Top shape: 24 (24)
I0403 15:14:14.317446  2844 net.cpp:148] Top shape: 24 (24)
I0403 15:14:14.317466  2844 net.cpp:148] Top shape: 24 (24)
I0403 15:14:14.317507  2844 net.cpp:156] Memory required for data: 14451744
I0403 15:14:14.317525  2844 layer_factory.hpp:77] Creating layer conv1/7x7_s2
I0403 15:14:14.317560  2844 net.cpp:91] Creating Layer conv1/7x7_s2
I0403 15:14:14.317584  2844 net.cpp:425] conv1/7x7_s2 <- data
I0403 15:14:14.317608  2844 net.cpp:399] conv1/7x7_s2 -> conv1/7x7_s2
I0403 15:14:14.478693  2844 net.cpp:141] Setting up conv1/7x7_s2
I0403 15:14:14.478771  2844 net.cpp:148] Top shape: 24 64 112 112 (19267584)
I0403 15:14:14.478795  2844 net.cpp:156] Memory required for data: 91522080
I0403 15:14:14.478837  2844 layer_factory.hpp:77] Creating layer conv1/relu_7x7
I0403 15:14:14.478871  2844 net.cpp:91] Creating Layer conv1/relu_7x7
I0403 15:14:14.478896  2844 net.cpp:425] conv1/relu_7x7 <- conv1/7x7_s2
I0403 15:14:14.478921  2844 net.cpp:386] conv1/relu_7x7 -> conv1/7x7_s2 (in-place)
I0403 15:14:14.479262  2844 net.cpp:141] Setting up conv1/relu_7x7
I0403 15:14:14.479298  2844 net.cpp:148] Top shape: 24 64 112 112 (19267584)
I0403 15:14:14.479318  2844 net.cpp:156] Memory required for data: 168592416
I0403 15:14:14.479336  2844 layer_factory.hpp:77] Creating layer pool1/3x3_s2
I0403 15:14:14.479367  2844 net.cpp:91] Creating Layer pool1/3x3_s2
I0403 15:14:14.479388  2844 net.cpp:425] pool1/3x3_s2 <- conv1/7x7_s2
I0403 15:14:14.479410  2844 net.cpp:399] pool1/3x3_s2 -> pool1/3x3_s2
I0403 15:14:14.479503  2844 net.cpp:141] Setting up pool1/3x3_s2
I0403 15:14:14.479532  2844 net.cpp:148] Top shape: 24 64 56 56 (4816896)
I0403 15:14:14.479550  2844 net.cpp:156] Memory required for data: 187860000
I0403 15:14:14.479568  2844 layer_factory.hpp:77] Creating layer pool1/norm1
I0403 15:14:14.479600  2844 net.cpp:91] Creating Layer pool1/norm1
I0403 15:14:14.479622  2844 net.cpp:425] pool1/norm1 <- pool1/3x3_s2
I0403 15:14:14.479646  2844 net.cpp:399] pool1/norm1 -> pool1/norm1
I0403 15:14:14.480041  2844 net.cpp:141] Setting up pool1/norm1
I0403 15:14:14.480085  2844 net.cpp:148] Top shape: 24 64 56 56 (4816896)
I0403 15:14:14.480113  2844 net.cpp:156] Memory required for data: 207127584
I0403 15:14:14.480137  2844 layer_factory.hpp:77] Creating layer conv2/3x3_reduce
I0403 15:14:14.480180  2844 net.cpp:91] Creating Layer conv2/3x3_reduce
I0403 15:14:14.480206  2844 net.cpp:425] conv2/3x3_reduce <- pool1/norm1
I0403 15:14:14.480247  2844 net.cpp:399] conv2/3x3_reduce -> conv2/3x3_reduce
I0403 15:14:14.482033  2844 net.cpp:141] Setting up conv2/3x3_reduce
I0403 15:14:14.482072  2844 net.cpp:148] Top shape: 24 64 56 56 (4816896)
I0403 15:14:14.482094  2844 net.cpp:156] Memory required for data: 226395168
I0403 15:14:14.482121  2844 layer_factory.hpp:77] Creating layer conv2/relu_3x3_reduce
I0403 15:14:14.482151  2844 net.cpp:91] Creating Layer conv2/relu_3x3_reduce
I0403 15:14:14.482172  2844 net.cpp:425] conv2/relu_3x3_reduce <- conv2/3x3_reduce
I0403 15:14:14.482197  2844 net.cpp:386] conv2/relu_3x3_reduce -> conv2/3x3_reduce (in-place)
I0403 15:14:14.482529  2844 net.cpp:141] Setting up conv2/relu_3x3_reduce
I0403 15:14:14.482563  2844 net.cpp:148] Top shape: 24 64 56 56 (4816896)
I0403 15:14:14.482583  2844 net.cpp:156] Memory required for data: 245662752
I0403 15:14:14.482604  2844 layer_factory.hpp:77] Creating layer conv2/3x3
I0403 15:14:14.482636  2844 net.cpp:91] Creating Layer conv2/3x3
I0403 15:14:14.482659  2844 net.cpp:425] conv2/3x3 <- conv2/3x3_reduce
I0403 15:14:14.482686  2844 net.cpp:399] conv2/3x3 -> conv2/3x3
I0403 15:14:14.485496  2844 net.cpp:141] Setting up conv2/3x3
I0403 15:14:14.485533  2844 net.cpp:148] Top shape: 24 192 56 56 (14450688)
I0403 15:14:14.485558  2844 net.cpp:156] Memory required for data: 303465504
I0403 15:14:14.485585  2844 layer_factory.hpp:77] Creating layer conv2/relu_3x3
I0403 15:14:14.485613  2844 net.cpp:91] Creating Layer conv2/relu_3x3
I0403 15:14:14.485635  2844 net.cpp:425] conv2/relu_3x3 <- conv2/3x3
I0403 15:14:14.485657  2844 net.cpp:386] conv2/relu_3x3 -> conv2/3x3 (in-place)
I0403 15:14:14.485882  2844 net.cpp:141] Setting up conv2/relu_3x3
I0403 15:14:14.485913  2844 net.cpp:148] Top shape: 24 192 56 56 (14450688)
I0403 15:14:14.485966  2844 net.cpp:156] Memory required for data: 361268256
I0403 15:14:14.485988  2844 layer_factory.hpp:77] Creating layer conv2/norm2
I0403 15:14:14.486016  2844 net.cpp:91] Creating Layer conv2/norm2
I0403 15:14:14.486038  2844 net.cpp:425] conv2/norm2 <- conv2/3x3
I0403 15:14:14.486065  2844 net.cpp:399] conv2/norm2 -> conv2/norm2
I0403 15:14:14.486441  2844 net.cpp:141] Setting up conv2/norm2
I0403 15:14:14.486477  2844 net.cpp:148] Top shape: 24 192 56 56 (14450688)
I0403 15:14:14.486500  2844 net.cpp:156] Memory required for data: 419071008
I0403 15:14:14.486521  2844 layer_factory.hpp:77] Creating layer pool2/3x3_s2
I0403 15:14:14.486543  2844 net.cpp:91] Creating Layer pool2/3x3_s2
I0403 15:14:14.486563  2844 net.cpp:425] pool2/3x3_s2 <- conv2/norm2
I0403 15:14:14.486591  2844 net.cpp:399] pool2/3x3_s2 -> pool2/3x3_s2
I0403 15:14:14.486659  2844 net.cpp:141] Setting up pool2/3x3_s2
I0403 15:14:14.486687  2844 net.cpp:148] Top shape: 24 192 28 28 (3612672)
I0403 15:14:14.486708  2844 net.cpp:156] Memory required for data: 433521696
I0403 15:14:14.486729  2844 layer_factory.hpp:77] Creating layer pool2/3x3_s2_pool2/3x3_s2_0_split
I0403 15:14:14.486755  2844 net.cpp:91] Creating Layer pool2/3x3_s2_pool2/3x3_s2_0_split
I0403 15:14:14.486778  2844 net.cpp:425] pool2/3x3_s2_pool2/3x3_s2_0_split <- pool2/3x3_s2
I0403 15:14:14.486801  2844 net.cpp:399] pool2/3x3_s2_pool2/3x3_s2_0_split -> pool2/3x3_s2_pool2/3x3_s2_0_split_0
I0403 15:14:14.486826  2844 net.cpp:399] pool2/3x3_s2_pool2/3x3_s2_0_split -> pool2/3x3_s2_pool2/3x3_s2_0_split_1
I0403 15:14:14.486853  2844 net.cpp:399] pool2/3x3_s2_pool2/3x3_s2_0_split -> pool2/3x3_s2_pool2/3x3_s2_0_split_2
I0403 15:14:14.486882  2844 net.cpp:399] pool2/3x3_s2_pool2/3x3_s2_0_split -> pool2/3x3_s2_pool2/3x3_s2_0_split_3
I0403 15:14:14.486974  2844 net.cpp:141] Setting up pool2/3x3_s2_pool2/3x3_s2_0_split
I0403 15:14:14.487002  2844 net.cpp:148] Top shape: 24 192 28 28 (3612672)
I0403 15:14:14.487025  2844 net.cpp:148] Top shape: 24 192 28 28 (3612672)
I0403 15:14:14.487046  2844 net.cpp:148] Top shape: 24 192 28 28 (3612672)
I0403 15:14:14.487067  2844 net.cpp:148] Top shape: 24 192 28 28 (3612672)
I0403 15:14:14.487084  2844 net.cpp:156] Memory required for data: 491324448
I0403 15:14:14.487102  2844 layer_factory.hpp:77] Creating layer inception_3a/1x1
I0403 15:14:14.487129  2844 net.cpp:91] Creating Layer inception_3a/1x1
I0403 15:14:14.487154  2844 net.cpp:425] inception_3a/1x1 <- pool2/3x3_s2_pool2/3x3_s2_0_split_0
I0403 15:14:14.487179  2844 net.cpp:399] inception_3a/1x1 -> inception_3a/1x1
I0403 15:14:14.489032  2844 net.cpp:141] Setting up inception_3a/1x1
I0403 15:14:14.489068  2844 net.cpp:148] Top shape: 24 64 28 28 (1204224)
I0403 15:14:14.489089  2844 net.cpp:156] Memory required for data: 496141344
I0403 15:14:14.489114  2844 layer_factory.hpp:77] Creating layer inception_3a/relu_1x1
I0403 15:14:14.489137  2844 net.cpp:91] Creating Layer inception_3a/relu_1x1
I0403 15:14:14.489158  2844 net.cpp:425] inception_3a/relu_1x1 <- inception_3a/1x1
I0403 15:14:14.489184  2844 net.cpp:386] inception_3a/relu_1x1 -> inception_3a/1x1 (in-place)
I0403 15:14:14.489411  2844 net.cpp:141] Setting up inception_3a/relu_1x1
I0403 15:14:14.489445  2844 net.cpp:148] Top shape: 24 64 28 28 (1204224)
I0403 15:14:14.489467  2844 net.cpp:156] Memory required for data: 500958240
I0403 15:14:14.489487  2844 layer_factory.hpp:77] Creating layer inception_3a/3x3_reduce
I0403 15:14:14.489521  2844 net.cpp:91] Creating Layer inception_3a/3x3_reduce
I0403 15:14:14.489544  2844 net.cpp:425] inception_3a/3x3_reduce <- pool2/3x3_s2_pool2/3x3_s2_0_split_1
I0403 15:14:14.489572  2844 net.cpp:399] inception_3a/3x3_reduce -> inception_3a/3x3_reduce
I0403 15:14:14.491822  2844 net.cpp:141] Setting up inception_3a/3x3_reduce
I0403 15:14:14.491873  2844 net.cpp:148] Top shape: 24 96 28 28 (1806336)
I0403 15:14:14.491899  2844 net.cpp:156] Memory required for data: 508183584
I0403 15:14:14.491940  2844 layer_factory.hpp:77] Creating layer inception_3a/relu_3x3_reduce
I0403 15:14:14.492012  2844 net.cpp:91] Creating Layer inception_3a/relu_3x3_reduce
I0403 15:14:14.492041  2844 net.cpp:425] inception_3a/relu_3x3_reduce <- inception_3a/3x3_reduce
I0403 15:14:14.492069  2844 net.cpp:386] inception_3a/relu_3x3_reduce -> inception_3a/3x3_reduce (in-place)
I0403 15:14:14.492346  2844 net.cpp:141] Setting up inception_3a/relu_3x3_reduce
I0403 15:14:14.492380  2844 net.cpp:148] Top shape: 24 96 28 28 (1806336)
I0403 15:14:14.492408  2844 net.cpp:156] Memory required for data: 515408928
I0403 15:14:14.492429  2844 layer_factory.hpp:77] Creating layer inception_3a/3x3
I0403 15:14:14.492475  2844 net.cpp:91] Creating Layer inception_3a/3x3
I0403 15:14:14.492498  2844 net.cpp:425] inception_3a/3x3 <- inception_3a/3x3_reduce
I0403 15:14:14.492539  2844 net.cpp:399] inception_3a/3x3 -> inception_3a/3x3
I0403 15:14:14.494668  2844 net.cpp:141] Setting up inception_3a/3x3
I0403 15:14:14.494706  2844 net.cpp:148] Top shape: 24 128 28 28 (2408448)
I0403 15:14:14.494725  2844 net.cpp:156] Memory required for data: 525042720
I0403 15:14:14.494755  2844 layer_factory.hpp:77] Creating layer inception_3a/relu_3x3
I0403 15:14:14.494782  2844 net.cpp:91] Creating Layer inception_3a/relu_3x3
I0403 15:14:14.494807  2844 net.cpp:425] inception_3a/relu_3x3 <- inception_3a/3x3
I0403 15:14:14.494833  2844 net.cpp:386] inception_3a/relu_3x3 -> inception_3a/3x3 (in-place)
I0403 15:14:14.495182  2844 net.cpp:141] Setting up inception_3a/relu_3x3
I0403 15:14:14.495218  2844 net.cpp:148] Top shape: 24 128 28 28 (2408448)
I0403 15:14:14.495244  2844 net.cpp:156] Memory required for data: 534676512
I0403 15:14:14.495265  2844 layer_factory.hpp:77] Creating layer inception_3a/5x5_reduce
I0403 15:14:14.495295  2844 net.cpp:91] Creating Layer inception_3a/5x5_reduce
I0403 15:14:14.495318  2844 net.cpp:425] inception_3a/5x5_reduce <- pool2/3x3_s2_pool2/3x3_s2_0_split_2
I0403 15:14:14.495347  2844 net.cpp:399] inception_3a/5x5_reduce -> inception_3a/5x5_reduce
I0403 15:14:14.496532  2844 net.cpp:141] Setting up inception_3a/5x5_reduce
I0403 15:14:14.496568  2844 net.cpp:148] Top shape: 24 16 28 28 (301056)
I0403 15:14:14.496594  2844 net.cpp:156] Memory required for data: 535880736
I0403 15:14:14.496624  2844 layer_factory.hpp:77] Creating layer inception_3a/relu_5x5_reduce
I0403 15:14:14.496654  2844 net.cpp:91] Creating Layer inception_3a/relu_5x5_reduce
I0403 15:14:14.496675  2844 net.cpp:425] inception_3a/relu_5x5_reduce <- inception_3a/5x5_reduce
I0403 15:14:14.496711  2844 net.cpp:386] inception_3a/relu_5x5_reduce -> inception_3a/5x5_reduce (in-place)
I0403 15:14:14.497126  2844 net.cpp:141] Setting up inception_3a/relu_5x5_reduce
I0403 15:14:14.497164  2844 net.cpp:148] Top shape: 24 16 28 28 (301056)
I0403 15:14:14.497191  2844 net.cpp:156] Memory required for data: 537084960
I0403 15:14:14.497215  2844 layer_factory.hpp:77] Creating layer inception_3a/5x5
I0403 15:14:14.497257  2844 net.cpp:91] Creating Layer inception_3a/5x5
I0403 15:14:14.497282  2844 net.cpp:425] inception_3a/5x5 <- inception_3a/5x5_reduce
I0403 15:14:14.497311  2844 net.cpp:399] inception_3a/5x5 -> inception_3a/5x5
I0403 15:14:14.498705  2844 net.cpp:141] Setting up inception_3a/5x5
I0403 15:14:14.498750  2844 net.cpp:148] Top shape: 24 32 28 28 (602112)
I0403 15:14:14.498776  2844 net.cpp:156] Memory required for data: 539493408
I0403 15:14:14.498807  2844 layer_factory.hpp:77] Creating layer inception_3a/relu_5x5
I0403 15:14:14.498837  2844 net.cpp:91] Creating Layer inception_3a/relu_5x5
I0403 15:14:14.498870  2844 net.cpp:425] inception_3a/relu_5x5 <- inception_3a/5x5
I0403 15:14:14.498903  2844 net.cpp:386] inception_3a/relu_5x5 -> inception_3a/5x5 (in-place)
I0403 15:14:14.499189  2844 net.cpp:141] Setting up inception_3a/relu_5x5
I0403 15:14:14.499231  2844 net.cpp:148] Top shape: 24 32 28 28 (602112)
I0403 15:14:14.499260  2844 net.cpp:156] Memory required for data: 541901856
I0403 15:14:14.499290  2844 layer_factory.hpp:77] Creating layer inception_3a/pool
I0403 15:14:14.499321  2844 net.cpp:91] Creating Layer inception_3a/pool
I0403 15:14:14.499384  2844 net.cpp:425] inception_3a/pool <- pool2/3x3_s2_pool2/3x3_s2_0_split_3
I0403 15:14:14.499418  2844 net.cpp:399] inception_3a/pool -> inception_3a/pool
I0403 15:14:14.499503  2844 net.cpp:141] Setting up inception_3a/pool
I0403 15:14:14.499539  2844 net.cpp:148] Top shape: 24 192 28 28 (3612672)
I0403 15:14:14.499560  2844 net.cpp:156] Memory required for data: 556352544
I0403 15:14:14.499583  2844 layer_factory.hpp:77] Creating layer inception_3a/pool_proj
I0403 15:14:14.499617  2844 net.cpp:91] Creating Layer inception_3a/pool_proj
I0403 15:14:14.499645  2844 net.cpp:425] inception_3a/pool_proj <- inception_3a/pool
I0403 15:14:14.499680  2844 net.cpp:399] inception_3a/pool_proj -> inception_3a/pool_proj
I0403 15:14:14.500901  2844 net.cpp:141] Setting up inception_3a/pool_proj
I0403 15:14:14.500938  2844 net.cpp:148] Top shape: 24 32 28 28 (602112)
I0403 15:14:14.500958  2844 net.cpp:156] Memory required for data: 558760992
I0403 15:14:14.500988  2844 layer_factory.hpp:77] Creating layer inception_3a/relu_pool_proj
I0403 15:14:14.501013  2844 net.cpp:91] Creating Layer inception_3a/relu_pool_proj
I0403 15:14:14.501034  2844 net.cpp:425] inception_3a/relu_pool_proj <- inception_3a/pool_proj
I0403 15:14:14.501056  2844 net.cpp:386] inception_3a/relu_pool_proj -> inception_3a/pool_proj (in-place)
I0403 15:14:14.501416  2844 net.cpp:141] Setting up inception_3a/relu_pool_proj
I0403 15:14:14.501451  2844 net.cpp:148] Top shape: 24 32 28 28 (602112)
I0403 15:14:14.501471  2844 net.cpp:156] Memory required for data: 561169440
I0403 15:14:14.501492  2844 layer_factory.hpp:77] Creating layer inception_3a/output
I0403 15:14:14.501514  2844 net.cpp:91] Creating Layer inception_3a/output
I0403 15:14:14.501536  2844 net.cpp:425] inception_3a/output <- inception_3a/1x1
I0403 15:14:14.501556  2844 net.cpp:425] inception_3a/output <- inception_3a/3x3
I0403 15:14:14.501579  2844 net.cpp:425] inception_3a/output <- inception_3a/5x5
I0403 15:14:14.501598  2844 net.cpp:425] inception_3a/output <- inception_3a/pool_proj
I0403 15:14:14.501626  2844 net.cpp:399] inception_3a/output -> inception_3a/output
I0403 15:14:14.501687  2844 net.cpp:141] Setting up inception_3a/output
I0403 15:14:14.501718  2844 net.cpp:148] Top shape: 24 256 28 28 (4816896)
I0403 15:14:14.501739  2844 net.cpp:156] Memory required for data: 580437024
I0403 15:14:14.501759  2844 layer_factory.hpp:77] Creating layer inception_3a/output_inception_3a/output_0_split
I0403 15:14:14.501780  2844 net.cpp:91] Creating Layer inception_3a/output_inception_3a/output_0_split
I0403 15:14:14.501801  2844 net.cpp:425] inception_3a/output_inception_3a/output_0_split <- inception_3a/output
I0403 15:14:14.501824  2844 net.cpp:399] inception_3a/output_inception_3a/output_0_split -> inception_3a/output_inception_3a/output_0_split_0
I0403 15:14:14.501850  2844 net.cpp:399] inception_3a/output_inception_3a/output_0_split -> inception_3a/output_inception_3a/output_0_split_1
I0403 15:14:14.501880  2844 net.cpp:399] inception_3a/output_inception_3a/output_0_split -> inception_3a/output_inception_3a/output_0_split_2
I0403 15:14:14.501907  2844 net.cpp:399] inception_3a/output_inception_3a/output_0_split -> inception_3a/output_inception_3a/output_0_split_3
I0403 15:14:14.501999  2844 net.cpp:141] Setting up inception_3a/output_inception_3a/output_0_split
I0403 15:14:14.502032  2844 net.cpp:148] Top shape: 24 256 28 28 (4816896)
I0403 15:14:14.502056  2844 net.cpp:148] Top shape: 24 256 28 28 (4816896)
I0403 15:14:14.502077  2844 net.cpp:148] Top shape: 24 256 28 28 (4816896)
I0403 15:14:14.502097  2844 net.cpp:148] Top shape: 24 256 28 28 (4816896)
I0403 15:14:14.502115  2844 net.cpp:156] Memory required for data: 657507360
I0403 15:14:14.502136  2844 layer_factory.hpp:77] Creating layer inception_3b/1x1
I0403 15:14:14.502164  2844 net.cpp:91] Creating Layer inception_3b/1x1
I0403 15:14:14.502187  2844 net.cpp:425] inception_3b/1x1 <- inception_3a/output_inception_3a/output_0_split_0
I0403 15:14:14.502215  2844 net.cpp:399] inception_3b/1x1 -> inception_3b/1x1
I0403 15:14:14.503638  2844 net.cpp:141] Setting up inception_3b/1x1
I0403 15:14:14.503693  2844 net.cpp:148] Top shape: 24 128 28 28 (2408448)
I0403 15:14:14.503715  2844 net.cpp:156] Memory required for data: 667141152
I0403 15:14:14.503742  2844 layer_factory.hpp:77] Creating layer inception_3b/relu_1x1
I0403 15:14:14.503767  2844 net.cpp:91] Creating Layer inception_3b/relu_1x1
I0403 15:14:14.503787  2844 net.cpp:425] inception_3b/relu_1x1 <- inception_3b/1x1
I0403 15:14:14.503818  2844 net.cpp:386] inception_3b/relu_1x1 -> inception_3b/1x1 (in-place)
I0403 15:14:14.504029  2844 net.cpp:141] Setting up inception_3b/relu_1x1
I0403 15:14:14.504062  2844 net.cpp:148] Top shape: 24 128 28 28 (2408448)
I0403 15:14:14.504081  2844 net.cpp:156] Memory required for data: 676774944
I0403 15:14:14.504099  2844 layer_factory.hpp:77] Creating layer inception_3b/3x3_reduce
I0403 15:14:14.504129  2844 net.cpp:91] Creating Layer inception_3b/3x3_reduce
I0403 15:14:14.504153  2844 net.cpp:425] inception_3b/3x3_reduce <- inception_3a/output_inception_3a/output_0_split_1
I0403 15:14:14.504178  2844 net.cpp:399] inception_3b/3x3_reduce -> inception_3b/3x3_reduce
I0403 15:14:14.505589  2844 net.cpp:141] Setting up inception_3b/3x3_reduce
I0403 15:14:14.505626  2844 net.cpp:148] Top shape: 24 128 28 28 (2408448)
I0403 15:14:14.505646  2844 net.cpp:156] Memory required for data: 686408736
I0403 15:14:14.505673  2844 layer_factory.hpp:77] Creating layer inception_3b/relu_3x3_reduce
I0403 15:14:14.505694  2844 net.cpp:91] Creating Layer inception_3b/relu_3x3_reduce
I0403 15:14:14.505715  2844 net.cpp:425] inception_3b/relu_3x3_reduce <- inception_3b/3x3_reduce
I0403 15:14:14.505743  2844 net.cpp:386] inception_3b/relu_3x3_reduce -> inception_3b/3x3_reduce (in-place)
I0403 15:14:14.505955  2844 net.cpp:141] Setting up inception_3b/relu_3x3_reduce
I0403 15:14:14.505986  2844 net.cpp:148] Top shape: 24 128 28 28 (2408448)
I0403 15:14:14.506006  2844 net.cpp:156] Memory required for data: 696042528
I0403 15:14:14.506027  2844 layer_factory.hpp:77] Creating layer inception_3b/3x3
I0403 15:14:14.506064  2844 net.cpp:91] Creating Layer inception_3b/3x3
I0403 15:14:14.506086  2844 net.cpp:425] inception_3b/3x3 <- inception_3b/3x3_reduce
I0403 15:14:14.506108  2844 net.cpp:399] inception_3b/3x3 -> inception_3b/3x3
I0403 15:14:14.509696  2844 net.cpp:141] Setting up inception_3b/3x3
I0403 15:14:14.509742  2844 net.cpp:148] Top shape: 24 192 28 28 (3612672)
I0403 15:14:14.509763  2844 net.cpp:156] Memory required for data: 710493216
I0403 15:14:14.509788  2844 layer_factory.hpp:77] Creating layer inception_3b/relu_3x3
I0403 15:14:14.509811  2844 net.cpp:91] Creating Layer inception_3b/relu_3x3
I0403 15:14:14.509831  2844 net.cpp:425] inception_3b/relu_3x3 <- inception_3b/3x3
I0403 15:14:14.509856  2844 net.cpp:386] inception_3b/relu_3x3 -> inception_3b/3x3 (in-place)
I0403 15:14:14.510193  2844 net.cpp:141] Setting up inception_3b/relu_3x3
I0403 15:14:14.510226  2844 net.cpp:148] Top shape: 24 192 28 28 (3612672)
I0403 15:14:14.510251  2844 net.cpp:156] Memory required for data: 724943904
I0403 15:14:14.510270  2844 layer_factory.hpp:77] Creating layer inception_3b/5x5_reduce
I0403 15:14:14.510299  2844 net.cpp:91] Creating Layer inception_3b/5x5_reduce
I0403 15:14:14.510320  2844 net.cpp:425] inception_3b/5x5_reduce <- inception_3a/output_inception_3a/output_0_split_2
I0403 15:14:14.510349  2844 net.cpp:399] inception_3b/5x5_reduce -> inception_3b/5x5_reduce
I0403 15:14:14.511560  2844 net.cpp:141] Setting up inception_3b/5x5_reduce
I0403 15:14:14.511595  2844 net.cpp:148] Top shape: 24 32 28 28 (602112)
I0403 15:14:14.511616  2844 net.cpp:156] Memory required for data: 727352352
I0403 15:14:14.511641  2844 layer_factory.hpp:77] Creating layer inception_3b/relu_5x5_reduce
I0403 15:14:14.511664  2844 net.cpp:91] Creating Layer inception_3b/relu_5x5_reduce
I0403 15:14:14.511687  2844 net.cpp:425] inception_3b/relu_5x5_reduce <- inception_3b/5x5_reduce
I0403 15:14:14.511713  2844 net.cpp:386] inception_3b/relu_5x5_reduce -> inception_3b/5x5_reduce (in-place)
I0403 15:14:14.511955  2844 net.cpp:141] Setting up inception_3b/relu_5x5_reduce
I0403 15:14:14.511986  2844 net.cpp:148] Top shape: 24 32 28 28 (602112)
I0403 15:14:14.512006  2844 net.cpp:156] Memory required for data: 729760800
I0403 15:14:14.512028  2844 layer_factory.hpp:77] Creating layer inception_3b/5x5
I0403 15:14:14.512058  2844 net.cpp:91] Creating Layer inception_3b/5x5
I0403 15:14:14.512080  2844 net.cpp:425] inception_3b/5x5 <- inception_3b/5x5_reduce
I0403 15:14:14.512109  2844 net.cpp:399] inception_3b/5x5 -> inception_3b/5x5
I0403 15:14:14.514515  2844 net.cpp:141] Setting up inception_3b/5x5
I0403 15:14:14.514556  2844 net.cpp:148] Top shape: 24 96 28 28 (1806336)
I0403 15:14:14.514577  2844 net.cpp:156] Memory required for data: 736986144
I0403 15:14:14.514602  2844 layer_factory.hpp:77] Creating layer inception_3b/relu_5x5
I0403 15:14:14.514626  2844 net.cpp:91] Creating Layer inception_3b/relu_5x5
I0403 15:14:14.514647  2844 net.cpp:425] inception_3b/relu_5x5 <- inception_3b/5x5
I0403 15:14:14.514673  2844 net.cpp:386] inception_3b/relu_5x5 -> inception_3b/5x5 (in-place)
I0403 15:14:14.514910  2844 net.cpp:141] Setting up inception_3b/relu_5x5
I0403 15:14:14.514942  2844 net.cpp:148] Top shape: 24 96 28 28 (1806336)
I0403 15:14:14.514964  2844 net.cpp:156] Memory required for data: 744211488
I0403 15:14:14.514983  2844 layer_factory.hpp:77] Creating layer inception_3b/pool
I0403 15:14:14.515009  2844 net.cpp:91] Creating Layer inception_3b/pool
I0403 15:14:14.515029  2844 net.cpp:425] inception_3b/pool <- inception_3a/output_inception_3a/output_0_split_3
I0403 15:14:14.515053  2844 net.cpp:399] inception_3b/pool -> inception_3b/pool
I0403 15:14:14.515130  2844 net.cpp:141] Setting up inception_3b/pool
I0403 15:14:14.515161  2844 net.cpp:148] Top shape: 24 256 28 28 (4816896)
I0403 15:14:14.515180  2844 net.cpp:156] Memory required for data: 763479072
I0403 15:14:14.515200  2844 layer_factory.hpp:77] Creating layer inception_3b/pool_proj
I0403 15:14:14.515229  2844 net.cpp:91] Creating Layer inception_3b/pool_proj
I0403 15:14:14.515259  2844 net.cpp:425] inception_3b/pool_proj <- inception_3b/pool
I0403 15:14:14.515285  2844 net.cpp:399] inception_3b/pool_proj -> inception_3b/pool_proj
I0403 15:14:14.516569  2844 net.cpp:141] Setting up inception_3b/pool_proj
I0403 15:14:14.516603  2844 net.cpp:148] Top shape: 24 64 28 28 (1204224)
I0403 15:14:14.516624  2844 net.cpp:156] Memory required for data: 768295968
I0403 15:14:14.516649  2844 layer_factory.hpp:77] Creating layer inception_3b/relu_pool_proj
I0403 15:14:14.516674  2844 net.cpp:91] Creating Layer inception_3b/relu_pool_proj
I0403 15:14:14.516695  2844 net.cpp:425] inception_3b/relu_pool_proj <- inception_3b/pool_proj
I0403 15:14:14.516721  2844 net.cpp:386] inception_3b/relu_pool_proj -> inception_3b/pool_proj (in-place)
I0403 15:14:14.517195  2844 net.cpp:141] Setting up inception_3b/relu_pool_proj
I0403 15:14:14.517231  2844 net.cpp:148] Top shape: 24 64 28 28 (1204224)
I0403 15:14:14.517258  2844 net.cpp:156] Memory required for data: 773112864
I0403 15:14:14.517279  2844 layer_factory.hpp:77] Creating layer inception_3b/output
I0403 15:14:14.517304  2844 net.cpp:91] Creating Layer inception_3b/output
I0403 15:14:14.517326  2844 net.cpp:425] inception_3b/output <- inception_3b/1x1
I0403 15:14:14.517349  2844 net.cpp:425] inception_3b/output <- inception_3b/3x3
I0403 15:14:14.517369  2844 net.cpp:425] inception_3b/output <- inception_3b/5x5
I0403 15:14:14.517390  2844 net.cpp:425] inception_3b/output <- inception_3b/pool_proj
I0403 15:14:14.517410  2844 net.cpp:399] inception_3b/output -> inception_3b/output
I0403 15:14:14.517468  2844 net.cpp:141] Setting up inception_3b/output
I0403 15:14:14.517496  2844 net.cpp:148] Top shape: 24 480 28 28 (9031680)
I0403 15:14:14.517516  2844 net.cpp:156] Memory required for data: 809239584
I0403 15:14:14.517536  2844 layer_factory.hpp:77] Creating layer pool3/3x3_s2
I0403 15:14:14.517560  2844 net.cpp:91] Creating Layer pool3/3x3_s2
I0403 15:14:14.517578  2844 net.cpp:425] pool3/3x3_s2 <- inception_3b/output
I0403 15:14:14.517622  2844 net.cpp:399] pool3/3x3_s2 -> pool3/3x3_s2
I0403 15:14:14.517695  2844 net.cpp:141] Setting up pool3/3x3_s2
I0403 15:14:14.517726  2844 net.cpp:148] Top shape: 24 480 14 14 (2257920)
I0403 15:14:14.517745  2844 net.cpp:156] Memory required for data: 818271264
I0403 15:14:14.517762  2844 layer_factory.hpp:77] Creating layer pool3/3x3_s2_pool3/3x3_s2_0_split
I0403 15:14:14.517786  2844 net.cpp:91] Creating Layer pool3/3x3_s2_pool3/3x3_s2_0_split
I0403 15:14:14.517809  2844 net.cpp:425] pool3/3x3_s2_pool3/3x3_s2_0_split <- pool3/3x3_s2
I0403 15:14:14.517834  2844 net.cpp:399] pool3/3x3_s2_pool3/3x3_s2_0_split -> pool3/3x3_s2_pool3/3x3_s2_0_split_0
I0403 15:14:14.517858  2844 net.cpp:399] pool3/3x3_s2_pool3/3x3_s2_0_split -> pool3/3x3_s2_pool3/3x3_s2_0_split_1
I0403 15:14:14.517887  2844 net.cpp:399] pool3/3x3_s2_pool3/3x3_s2_0_split -> pool3/3x3_s2_pool3/3x3_s2_0_split_2
I0403 15:14:14.517910  2844 net.cpp:399] pool3/3x3_s2_pool3/3x3_s2_0_split -> pool3/3x3_s2_pool3/3x3_s2_0_split_3
I0403 15:14:14.518005  2844 net.cpp:141] Setting up pool3/3x3_s2_pool3/3x3_s2_0_split
I0403 15:14:14.518038  2844 net.cpp:148] Top shape: 24 480 14 14 (2257920)
I0403 15:14:14.518059  2844 net.cpp:148] Top shape: 24 480 14 14 (2257920)
I0403 15:14:14.518079  2844 net.cpp:148] Top shape: 24 480 14 14 (2257920)
I0403 15:14:14.518100  2844 net.cpp:148] Top shape: 24 480 14 14 (2257920)
I0403 15:14:14.518120  2844 net.cpp:156] Memory required for data: 854397984
I0403 15:14:14.518139  2844 layer_factory.hpp:77] Creating layer inception_4a/1x1
I0403 15:14:14.518169  2844 net.cpp:91] Creating Layer inception_4a/1x1
I0403 15:14:14.518192  2844 net.cpp:425] inception_4a/1x1 <- pool3/3x3_s2_pool3/3x3_s2_0_split_0
I0403 15:14:14.518218  2844 net.cpp:399] inception_4a/1x1 -> inception_4a/1x1
I0403 15:14:14.520123  2844 net.cpp:141] Setting up inception_4a/1x1
I0403 15:14:14.520160  2844 net.cpp:148] Top shape: 24 192 14 14 (903168)
I0403 15:14:14.520184  2844 net.cpp:156] Memory required for data: 858010656
I0403 15:14:14.520210  2844 layer_factory.hpp:77] Creating layer inception_4a/relu_1x1
I0403 15:14:14.520231  2844 net.cpp:91] Creating Layer inception_4a/relu_1x1
I0403 15:14:14.520259  2844 net.cpp:425] inception_4a/relu_1x1 <- inception_4a/1x1
I0403 15:14:14.520284  2844 net.cpp:386] inception_4a/relu_1x1 -> inception_4a/1x1 (in-place)
I0403 15:14:14.520500  2844 net.cpp:141] Setting up inception_4a/relu_1x1
I0403 15:14:14.520534  2844 net.cpp:148] Top shape: 24 192 14 14 (903168)
I0403 15:14:14.520556  2844 net.cpp:156] Memory required for data: 861623328
I0403 15:14:14.520576  2844 layer_factory.hpp:77] Creating layer inception_4a/3x3_reduce
I0403 15:14:14.520602  2844 net.cpp:91] Creating Layer inception_4a/3x3_reduce
I0403 15:14:14.520624  2844 net.cpp:425] inception_4a/3x3_reduce <- pool3/3x3_s2_pool3/3x3_s2_0_split_1
I0403 15:14:14.520653  2844 net.cpp:399] inception_4a/3x3_reduce -> inception_4a/3x3_reduce
I0403 15:14:14.522205  2844 net.cpp:141] Setting up inception_4a/3x3_reduce
I0403 15:14:14.522245  2844 net.cpp:148] Top shape: 24 96 14 14 (451584)
I0403 15:14:14.522267  2844 net.cpp:156] Memory required for data: 863429664
I0403 15:14:14.522303  2844 layer_factory.hpp:77] Creating layer inception_4a/relu_3x3_reduce
I0403 15:14:14.522330  2844 net.cpp:91] Creating Layer inception_4a/relu_3x3_reduce
I0403 15:14:14.522353  2844 net.cpp:425] inception_4a/relu_3x3_reduce <- inception_4a/3x3_reduce
I0403 15:14:14.522375  2844 net.cpp:386] inception_4a/relu_3x3_reduce -> inception_4a/3x3_reduce (in-place)
I0403 15:14:14.522590  2844 net.cpp:141] Setting up inception_4a/relu_3x3_reduce
I0403 15:14:14.522624  2844 net.cpp:148] Top shape: 24 96 14 14 (451584)
I0403 15:14:14.522644  2844 net.cpp:156] Memory required for data: 865236000
I0403 15:14:14.522663  2844 layer_factory.hpp:77] Creating layer inception_4a/3x3
I0403 15:14:14.522689  2844 net.cpp:91] Creating Layer inception_4a/3x3
I0403 15:14:14.522711  2844 net.cpp:425] inception_4a/3x3 <- inception_4a/3x3_reduce
I0403 15:14:14.522733  2844 net.cpp:399] inception_4a/3x3 -> inception_4a/3x3
I0403 15:14:14.525984  2844 net.cpp:141] Setting up inception_4a/3x3
I0403 15:14:14.526021  2844 net.cpp:148] Top shape: 24 208 14 14 (978432)
I0403 15:14:14.526044  2844 net.cpp:156] Memory required for data: 869149728
I0403 15:14:14.526069  2844 layer_factory.hpp:77] Creating layer inception_4a/relu_3x3
I0403 15:14:14.526093  2844 net.cpp:91] Creating Layer inception_4a/relu_3x3
I0403 15:14:14.526114  2844 net.cpp:425] inception_4a/relu_3x3 <- inception_4a/3x3
I0403 15:14:14.526140  2844 net.cpp:386] inception_4a/relu_3x3 -> inception_4a/3x3 (in-place)
I0403 15:14:14.526490  2844 net.cpp:141] Setting up inception_4a/relu_3x3
I0403 15:14:14.526525  2844 net.cpp:148] Top shape: 24 208 14 14 (978432)
I0403 15:14:14.526543  2844 net.cpp:156] Memory required for data: 873063456
I0403 15:14:14.526563  2844 layer_factory.hpp:77] Creating layer inception_4a/5x5_reduce
I0403 15:14:14.526592  2844 net.cpp:91] Creating Layer inception_4a/5x5_reduce
I0403 15:14:14.526617  2844 net.cpp:425] inception_4a/5x5_reduce <- pool3/3x3_s2_pool3/3x3_s2_0_split_2
I0403 15:14:14.526645  2844 net.cpp:399] inception_4a/5x5_reduce -> inception_4a/5x5_reduce
I0403 15:14:14.527890  2844 net.cpp:141] Setting up inception_4a/5x5_reduce
I0403 15:14:14.527925  2844 net.cpp:148] Top shape: 24 16 14 14 (75264)
I0403 15:14:14.527943  2844 net.cpp:156] Memory required for data: 873364512
I0403 15:14:14.527966  2844 layer_factory.hpp:77] Creating layer inception_4a/relu_5x5_reduce
I0403 15:14:14.527987  2844 net.cpp:91] Creating Layer inception_4a/relu_5x5_reduce
I0403 15:14:14.528007  2844 net.cpp:425] inception_4a/relu_5x5_reduce <- inception_4a/5x5_reduce
I0403 15:14:14.528030  2844 net.cpp:386] inception_4a/relu_5x5_reduce -> inception_4a/5x5_reduce (in-place)
I0403 15:14:14.528249  2844 net.cpp:141] Setting up inception_4a/relu_5x5_reduce
I0403 15:14:14.528280  2844 net.cpp:148] Top shape: 24 16 14 14 (75264)
I0403 15:14:14.528300  2844 net.cpp:156] Memory required for data: 873665568
I0403 15:14:14.528317  2844 layer_factory.hpp:77] Creating layer inception_4a/5x5
I0403 15:14:14.528345  2844 net.cpp:91] Creating Layer inception_4a/5x5
I0403 15:14:14.528369  2844 net.cpp:425] inception_4a/5x5 <- inception_4a/5x5_reduce
I0403 15:14:14.528394  2844 net.cpp:399] inception_4a/5x5 -> inception_4a/5x5
I0403 15:14:14.529711  2844 net.cpp:141] Setting up inception_4a/5x5
I0403 15:14:14.529744  2844 net.cpp:148] Top shape: 24 48 14 14 (225792)
I0403 15:14:14.529762  2844 net.cpp:156] Memory required for data: 874568736
I0403 15:14:14.529784  2844 layer_factory.hpp:77] Creating layer inception_4a/relu_5x5
I0403 15:14:14.529809  2844 net.cpp:91] Creating Layer inception_4a/relu_5x5
I0403 15:14:14.529830  2844 net.cpp:425] inception_4a/relu_5x5 <- inception_4a/5x5
I0403 15:14:14.529853  2844 net.cpp:386] inception_4a/relu_5x5 -> inception_4a/5x5 (in-place)
I0403 15:14:14.530073  2844 net.cpp:141] Setting up inception_4a/relu_5x5
I0403 15:14:14.530108  2844 net.cpp:148] Top shape: 24 48 14 14 (225792)
I0403 15:14:14.530128  2844 net.cpp:156] Memory required for data: 875471904
I0403 15:14:14.530149  2844 layer_factory.hpp:77] Creating layer inception_4a/pool
I0403 15:14:14.530174  2844 net.cpp:91] Creating Layer inception_4a/pool
I0403 15:14:14.530196  2844 net.cpp:425] inception_4a/pool <- pool3/3x3_s2_pool3/3x3_s2_0_split_3
I0403 15:14:14.530225  2844 net.cpp:399] inception_4a/pool -> inception_4a/pool
I0403 15:14:14.530306  2844 net.cpp:141] Setting up inception_4a/pool
I0403 15:14:14.530336  2844 net.cpp:148] Top shape: 24 480 14 14 (2257920)
I0403 15:14:14.530356  2844 net.cpp:156] Memory required for data: 884503584
I0403 15:14:14.530376  2844 layer_factory.hpp:77] Creating layer inception_4a/pool_proj
I0403 15:14:14.530405  2844 net.cpp:91] Creating Layer inception_4a/pool_proj
I0403 15:14:14.530429  2844 net.cpp:425] inception_4a/pool_proj <- inception_4a/pool
I0403 15:14:14.530458  2844 net.cpp:399] inception_4a/pool_proj -> inception_4a/pool_proj
I0403 15:14:14.531869  2844 net.cpp:141] Setting up inception_4a/pool_proj
I0403 15:14:14.531904  2844 net.cpp:148] Top shape: 24 64 14 14 (301056)
I0403 15:14:14.531945  2844 net.cpp:156] Memory required for data: 885707808
I0403 15:14:14.531971  2844 layer_factory.hpp:77] Creating layer inception_4a/relu_pool_proj
I0403 15:14:14.532001  2844 net.cpp:91] Creating Layer inception_4a/relu_pool_proj
I0403 15:14:14.532021  2844 net.cpp:425] inception_4a/relu_pool_proj <- inception_4a/pool_proj
I0403 15:14:14.532045  2844 net.cpp:386] inception_4a/relu_pool_proj -> inception_4a/pool_proj (in-place)
I0403 15:14:14.532385  2844 net.cpp:141] Setting up inception_4a/relu_pool_proj
I0403 15:14:14.532418  2844 net.cpp:148] Top shape: 24 64 14 14 (301056)
I0403 15:14:14.532438  2844 net.cpp:156] Memory required for data: 886912032
I0403 15:14:14.532455  2844 layer_factory.hpp:77] Creating layer inception_4a/output
I0403 15:14:14.532479  2844 net.cpp:91] Creating Layer inception_4a/output
I0403 15:14:14.532498  2844 net.cpp:425] inception_4a/output <- inception_4a/1x1
I0403 15:14:14.532519  2844 net.cpp:425] inception_4a/output <- inception_4a/3x3
I0403 15:14:14.532538  2844 net.cpp:425] inception_4a/output <- inception_4a/5x5
I0403 15:14:14.532558  2844 net.cpp:425] inception_4a/output <- inception_4a/pool_proj
I0403 15:14:14.532578  2844 net.cpp:399] inception_4a/output -> inception_4a/output
I0403 15:14:14.532634  2844 net.cpp:141] Setting up inception_4a/output
I0403 15:14:14.532663  2844 net.cpp:148] Top shape: 24 512 14 14 (2408448)
I0403 15:14:14.532681  2844 net.cpp:156] Memory required for data: 896545824
I0403 15:14:14.532698  2844 layer_factory.hpp:77] Creating layer inception_4a/output_inception_4a/output_0_split
I0403 15:14:14.532721  2844 net.cpp:91] Creating Layer inception_4a/output_inception_4a/output_0_split
I0403 15:14:14.532738  2844 net.cpp:425] inception_4a/output_inception_4a/output_0_split <- inception_4a/output
I0403 15:14:14.532763  2844 net.cpp:399] inception_4a/output_inception_4a/output_0_split -> inception_4a/output_inception_4a/output_0_split_0
I0403 15:14:14.532788  2844 net.cpp:399] inception_4a/output_inception_4a/output_0_split -> inception_4a/output_inception_4a/output_0_split_1
I0403 15:14:14.532814  2844 net.cpp:399] inception_4a/output_inception_4a/output_0_split -> inception_4a/output_inception_4a/output_0_split_2
I0403 15:14:14.532841  2844 net.cpp:399] inception_4a/output_inception_4a/output_0_split -> inception_4a/output_inception_4a/output_0_split_3
I0403 15:14:14.532867  2844 net.cpp:399] inception_4a/output_inception_4a/output_0_split -> inception_4a/output_inception_4a/output_0_split_4
I0403 15:14:14.532980  2844 net.cpp:141] Setting up inception_4a/output_inception_4a/output_0_split
I0403 15:14:14.533009  2844 net.cpp:148] Top shape: 24 512 14 14 (2408448)
I0403 15:14:14.533030  2844 net.cpp:148] Top shape: 24 512 14 14 (2408448)
I0403 15:14:14.533052  2844 net.cpp:148] Top shape: 24 512 14 14 (2408448)
I0403 15:14:14.533074  2844 net.cpp:148] Top shape: 24 512 14 14 (2408448)
I0403 15:14:14.533094  2844 net.cpp:148] Top shape: 24 512 14 14 (2408448)
I0403 15:14:14.533116  2844 net.cpp:156] Memory required for data: 944714784
I0403 15:14:14.533141  2844 layer_factory.hpp:77] Creating layer loss1/ave_pool
I0403 15:14:14.533165  2844 net.cpp:91] Creating Layer loss1/ave_pool
I0403 15:14:14.533185  2844 net.cpp:425] loss1/ave_pool <- inception_4a/output_inception_4a/output_0_split_0
I0403 15:14:14.533210  2844 net.cpp:399] loss1/ave_pool -> loss1/ave_pool
I0403 15:14:14.533481  2844 net.cpp:141] Setting up loss1/ave_pool
I0403 15:14:14.533516  2844 net.cpp:148] Top shape: 24 512 4 4 (196608)
I0403 15:14:14.533536  2844 net.cpp:156] Memory required for data: 945501216
I0403 15:14:14.533557  2844 layer_factory.hpp:77] Creating layer loss1/conv
I0403 15:14:14.533591  2844 net.cpp:91] Creating Layer loss1/conv
I0403 15:14:14.533615  2844 net.cpp:425] loss1/conv <- loss1/ave_pool
I0403 15:14:14.533641  2844 net.cpp:399] loss1/conv -> loss1/conv
I0403 15:14:14.535356  2844 net.cpp:141] Setting up loss1/conv
I0403 15:14:14.535392  2844 net.cpp:148] Top shape: 24 128 4 4 (49152)
I0403 15:14:14.535430  2844 net.cpp:156] Memory required for data: 945697824
I0403 15:14:14.535455  2844 layer_factory.hpp:77] Creating layer loss1/relu_conv
I0403 15:14:14.535480  2844 net.cpp:91] Creating Layer loss1/relu_conv
I0403 15:14:14.535501  2844 net.cpp:425] loss1/relu_conv <- loss1/conv
I0403 15:14:14.535523  2844 net.cpp:386] loss1/relu_conv -> loss1/conv (in-place)
I0403 15:14:14.535861  2844 net.cpp:141] Setting up loss1/relu_conv
I0403 15:14:14.535895  2844 net.cpp:148] Top shape: 24 128 4 4 (49152)
I0403 15:14:14.535915  2844 net.cpp:156] Memory required for data: 945894432
I0403 15:14:14.535933  2844 layer_factory.hpp:77] Creating layer loss1/fc
I0403 15:14:14.535966  2844 net.cpp:91] Creating Layer loss1/fc
I0403 15:14:14.535990  2844 net.cpp:425] loss1/fc <- loss1/conv
I0403 15:14:14.536015  2844 net.cpp:399] loss1/fc -> loss1/fc
I0403 15:14:14.557862  2844 net.cpp:141] Setting up loss1/fc
I0403 15:14:14.564959  2844 net.cpp:148] Top shape: 24 1024 (24576)
I0403 15:14:14.564980  2844 net.cpp:156] Memory required for data: 945992736
I0403 15:14:14.565006  2844 layer_factory.hpp:77] Creating layer loss1/relu_fc
I0403 15:14:14.565028  2844 net.cpp:91] Creating Layer loss1/relu_fc
I0403 15:14:14.565049  2844 net.cpp:425] loss1/relu_fc <- loss1/fc
I0403 15:14:14.565070  2844 net.cpp:386] loss1/relu_fc -> loss1/fc (in-place)
I0403 15:14:14.565323  2844 net.cpp:141] Setting up loss1/relu_fc
I0403 15:14:14.565356  2844 net.cpp:148] Top shape: 24 1024 (24576)
I0403 15:14:14.565376  2844 net.cpp:156] Memory required for data: 946091040
I0403 15:14:14.565405  2844 layer_factory.hpp:77] Creating layer loss1/drop_fc
I0403 15:14:14.565445  2844 net.cpp:91] Creating Layer loss1/drop_fc
I0403 15:14:14.565469  2844 net.cpp:425] loss1/drop_fc <- loss1/fc
I0403 15:14:14.565492  2844 net.cpp:386] loss1/drop_fc -> loss1/fc (in-place)
I0403 15:14:14.565557  2844 net.cpp:141] Setting up loss1/drop_fc
I0403 15:14:14.565587  2844 net.cpp:148] Top shape: 24 1024 (24576)
I0403 15:14:14.565605  2844 net.cpp:156] Memory required for data: 946189344
I0403 15:14:14.565623  2844 layer_factory.hpp:77] Creating layer loss1/classifier_plantvillage
I0403 15:14:14.565651  2844 net.cpp:91] Creating Layer loss1/classifier_plantvillage
I0403 15:14:14.565672  2844 net.cpp:425] loss1/classifier_plantvillage <- loss1/fc
I0403 15:14:14.565695  2844 net.cpp:399] loss1/classifier_plantvillage -> loss1/classifier_plantvillage
I0403 15:14:14.566819  2844 net.cpp:141] Setting up loss1/classifier_plantvillage
I0403 15:14:14.566869  2844 net.cpp:148] Top shape: 24 38 (912)
I0403 15:14:14.566889  2844 net.cpp:156] Memory required for data: 946192992
I0403 15:14:14.566911  2844 layer_factory.hpp:77] Creating layer loss1/classifier_plantvillage_loss1/classifier_plantvillage_0_split
I0403 15:14:14.566934  2844 net.cpp:91] Creating Layer loss1/classifier_plantvillage_loss1/classifier_plantvillage_0_split
I0403 15:14:14.566954  2844 net.cpp:425] loss1/classifier_plantvillage_loss1/classifier_plantvillage_0_split <- loss1/classifier_plantvillage
I0403 15:14:14.566975  2844 net.cpp:399] loss1/classifier_plantvillage_loss1/classifier_plantvillage_0_split -> loss1/classifier_plantvillage_loss1/classifier_plantvillage_0_split_0
I0403 15:14:14.567003  2844 net.cpp:399] loss1/classifier_plantvillage_loss1/classifier_plantvillage_0_split -> loss1/classifier_plantvillage_loss1/classifier_plantvillage_0_split_1
I0403 15:14:14.567029  2844 net.cpp:399] loss1/classifier_plantvillage_loss1/classifier_plantvillage_0_split -> loss1/classifier_plantvillage_loss1/classifier_plantvillage_0_split_2
I0403 15:14:14.567111  2844 net.cpp:141] Setting up loss1/classifier_plantvillage_loss1/classifier_plantvillage_0_split
I0403 15:14:14.567140  2844 net.cpp:148] Top shape: 24 38 (912)
I0403 15:14:14.567160  2844 net.cpp:148] Top shape: 24 38 (912)
I0403 15:14:14.567179  2844 net.cpp:148] Top shape: 24 38 (912)
I0403 15:14:14.567196  2844 net.cpp:156] Memory required for data: 946203936
I0403 15:14:14.567215  2844 layer_factory.hpp:77] Creating layer inception_4b/1x1
I0403 15:14:14.567248  2844 net.cpp:91] Creating Layer inception_4b/1x1
I0403 15:14:14.567301  2844 net.cpp:425] inception_4b/1x1 <- inception_4a/output_inception_4a/output_0_split_1
I0403 15:14:14.567329  2844 net.cpp:399] inception_4b/1x1 -> inception_4b/1x1
I0403 15:14:14.569545  2844 net.cpp:141] Setting up inception_4b/1x1
I0403 15:14:14.569613  2844 net.cpp:148] Top shape: 24 160 14 14 (752640)
I0403 15:14:14.569633  2844 net.cpp:156] Memory required for data: 949214496
I0403 15:14:14.569658  2844 layer_factory.hpp:77] Creating layer inception_4b/relu_1x1
I0403 15:14:14.569681  2844 net.cpp:91] Creating Layer inception_4b/relu_1x1
I0403 15:14:14.569702  2844 net.cpp:425] inception_4b/relu_1x1 <- inception_4b/1x1
I0403 15:14:14.569728  2844 net.cpp:386] inception_4b/relu_1x1 -> inception_4b/1x1 (in-place)
I0403 15:14:14.569949  2844 net.cpp:141] Setting up inception_4b/relu_1x1
I0403 15:14:14.569980  2844 net.cpp:148] Top shape: 24 160 14 14 (752640)
I0403 15:14:14.569998  2844 net.cpp:156] Memory required for data: 952225056
I0403 15:14:14.570015  2844 layer_factory.hpp:77] Creating layer inception_4b/3x3_reduce
I0403 15:14:14.570047  2844 net.cpp:91] Creating Layer inception_4b/3x3_reduce
I0403 15:14:14.570070  2844 net.cpp:425] inception_4b/3x3_reduce <- inception_4a/output_inception_4a/output_0_split_2
I0403 15:14:14.570098  2844 net.cpp:399] inception_4b/3x3_reduce -> inception_4b/3x3_reduce
I0403 15:14:14.571851  2844 net.cpp:141] Setting up inception_4b/3x3_reduce
I0403 15:14:14.571907  2844 net.cpp:148] Top shape: 24 112 14 14 (526848)
I0403 15:14:14.571924  2844 net.cpp:156] Memory required for data: 954332448
I0403 15:14:14.571949  2844 layer_factory.hpp:77] Creating layer inception_4b/relu_3x3_reduce
I0403 15:14:14.571976  2844 net.cpp:91] Creating Layer inception_4b/relu_3x3_reduce
I0403 15:14:14.571998  2844 net.cpp:425] inception_4b/relu_3x3_reduce <- inception_4b/3x3_reduce
I0403 15:14:14.572021  2844 net.cpp:386] inception_4b/relu_3x3_reduce -> inception_4b/3x3_reduce (in-place)
I0403 15:14:14.572371  2844 net.cpp:141] Setting up inception_4b/relu_3x3_reduce
I0403 15:14:14.572403  2844 net.cpp:148] Top shape: 24 112 14 14 (526848)
I0403 15:14:14.572422  2844 net.cpp:156] Memory required for data: 956439840
I0403 15:14:14.572441  2844 layer_factory.hpp:77] Creating layer inception_4b/3x3
I0403 15:14:14.572471  2844 net.cpp:91] Creating Layer inception_4b/3x3
I0403 15:14:14.572492  2844 net.cpp:425] inception_4b/3x3 <- inception_4b/3x3_reduce
I0403 15:14:14.572517  2844 net.cpp:399] inception_4b/3x3 -> inception_4b/3x3
I0403 15:14:14.576230  2844 net.cpp:141] Setting up inception_4b/3x3
I0403 15:14:14.576273  2844 net.cpp:148] Top shape: 24 224 14 14 (1053696)
I0403 15:14:14.576295  2844 net.cpp:156] Memory required for data: 960654624
I0403 15:14:14.576318  2844 layer_factory.hpp:77] Creating layer inception_4b/relu_3x3
I0403 15:14:14.576342  2844 net.cpp:91] Creating Layer inception_4b/relu_3x3
I0403 15:14:14.576362  2844 net.cpp:425] inception_4b/relu_3x3 <- inception_4b/3x3
I0403 15:14:14.576383  2844 net.cpp:386] inception_4b/relu_3x3 -> inception_4b/3x3 (in-place)
I0403 15:14:14.576606  2844 net.cpp:141] Setting up inception_4b/relu_3x3
I0403 15:14:14.576637  2844 net.cpp:148] Top shape: 24 224 14 14 (1053696)
I0403 15:14:14.576655  2844 net.cpp:156] Memory required for data: 964869408
I0403 15:14:14.576673  2844 layer_factory.hpp:77] Creating layer inception_4b/5x5_reduce
I0403 15:14:14.576702  2844 net.cpp:91] Creating Layer inception_4b/5x5_reduce
I0403 15:14:14.576725  2844 net.cpp:425] inception_4b/5x5_reduce <- inception_4a/output_inception_4a/output_0_split_3
I0403 15:14:14.576751  2844 net.cpp:399] inception_4b/5x5_reduce -> inception_4b/5x5_reduce
I0403 15:14:14.578068  2844 net.cpp:141] Setting up inception_4b/5x5_reduce
I0403 15:14:14.578102  2844 net.cpp:148] Top shape: 24 24 14 14 (112896)
I0403 15:14:14.578122  2844 net.cpp:156] Memory required for data: 965320992
I0403 15:14:14.578145  2844 layer_factory.hpp:77] Creating layer inception_4b/relu_5x5_reduce
I0403 15:14:14.578171  2844 net.cpp:91] Creating Layer inception_4b/relu_5x5_reduce
I0403 15:14:14.578224  2844 net.cpp:425] inception_4b/relu_5x5_reduce <- inception_4b/5x5_reduce
I0403 15:14:14.578253  2844 net.cpp:386] inception_4b/relu_5x5_reduce -> inception_4b/5x5_reduce (in-place)
I0403 15:14:14.578476  2844 net.cpp:141] Setting up inception_4b/relu_5x5_reduce
I0403 15:14:14.578507  2844 net.cpp:148] Top shape: 24 24 14 14 (112896)
I0403 15:14:14.578526  2844 net.cpp:156] Memory required for data: 965772576
I0403 15:14:14.578544  2844 layer_factory.hpp:77] Creating layer inception_4b/5x5
I0403 15:14:14.578572  2844 net.cpp:91] Creating Layer inception_4b/5x5
I0403 15:14:14.578596  2844 net.cpp:425] inception_4b/5x5 <- inception_4b/5x5_reduce
I0403 15:14:14.578619  2844 net.cpp:399] inception_4b/5x5 -> inception_4b/5x5
I0403 15:14:14.580109  2844 net.cpp:141] Setting up inception_4b/5x5
I0403 15:14:14.580144  2844 net.cpp:148] Top shape: 24 64 14 14 (301056)
I0403 15:14:14.580163  2844 net.cpp:156] Memory required for data: 966976800
I0403 15:14:14.580186  2844 layer_factory.hpp:77] Creating layer inception_4b/relu_5x5
I0403 15:14:14.580207  2844 net.cpp:91] Creating Layer inception_4b/relu_5x5
I0403 15:14:14.580227  2844 net.cpp:425] inception_4b/relu_5x5 <- inception_4b/5x5
I0403 15:14:14.580257  2844 net.cpp:386] inception_4b/relu_5x5 -> inception_4b/5x5 (in-place)
I0403 15:14:14.580601  2844 net.cpp:141] Setting up inception_4b/relu_5x5
I0403 15:14:14.580633  2844 net.cpp:148] Top shape: 24 64 14 14 (301056)
I0403 15:14:14.580651  2844 net.cpp:156] Memory required for data: 968181024
I0403 15:14:14.580670  2844 layer_factory.hpp:77] Creating layer inception_4b/pool
I0403 15:14:14.580693  2844 net.cpp:91] Creating Layer inception_4b/pool
I0403 15:14:14.580713  2844 net.cpp:425] inception_4b/pool <- inception_4a/output_inception_4a/output_0_split_4
I0403 15:14:14.580737  2844 net.cpp:399] inception_4b/pool -> inception_4b/pool
I0403 15:14:14.580816  2844 net.cpp:141] Setting up inception_4b/pool
I0403 15:14:14.580844  2844 net.cpp:148] Top shape: 24 512 14 14 (2408448)
I0403 15:14:14.580862  2844 net.cpp:156] Memory required for data: 977814816
I0403 15:14:14.580880  2844 layer_factory.hpp:77] Creating layer inception_4b/pool_proj
I0403 15:14:14.580909  2844 net.cpp:91] Creating Layer inception_4b/pool_proj
I0403 15:14:14.580929  2844 net.cpp:425] inception_4b/pool_proj <- inception_4b/pool
I0403 15:14:14.580951  2844 net.cpp:399] inception_4b/pool_proj -> inception_4b/pool_proj
I0403 15:14:14.582417  2844 net.cpp:141] Setting up inception_4b/pool_proj
I0403 15:14:14.582453  2844 net.cpp:148] Top shape: 24 64 14 14 (301056)
I0403 15:14:14.582471  2844 net.cpp:156] Memory required for data: 979019040
I0403 15:14:14.582494  2844 layer_factory.hpp:77] Creating layer inception_4b/relu_pool_proj
I0403 15:14:14.582515  2844 net.cpp:91] Creating Layer inception_4b/relu_pool_proj
I0403 15:14:14.582533  2844 net.cpp:425] inception_4b/relu_pool_proj <- inception_4b/pool_proj
I0403 15:14:14.582557  2844 net.cpp:386] inception_4b/relu_pool_proj -> inception_4b/pool_proj (in-place)
I0403 15:14:14.582775  2844 net.cpp:141] Setting up inception_4b/relu_pool_proj
I0403 15:14:14.582808  2844 net.cpp:148] Top shape: 24 64 14 14 (301056)
I0403 15:14:14.582826  2844 net.cpp:156] Memory required for data: 980223264
I0403 15:14:14.582844  2844 layer_factory.hpp:77] Creating layer inception_4b/output
I0403 15:14:14.582869  2844 net.cpp:91] Creating Layer inception_4b/output
I0403 15:14:14.582890  2844 net.cpp:425] inception_4b/output <- inception_4b/1x1
I0403 15:14:14.582909  2844 net.cpp:425] inception_4b/output <- inception_4b/3x3
I0403 15:14:14.582929  2844 net.cpp:425] inception_4b/output <- inception_4b/5x5
I0403 15:14:14.582949  2844 net.cpp:425] inception_4b/output <- inception_4b/pool_proj
I0403 15:14:14.582969  2844 net.cpp:399] inception_4b/output -> inception_4b/output
I0403 15:14:14.583026  2844 net.cpp:141] Setting up inception_4b/output
I0403 15:14:14.583055  2844 net.cpp:148] Top shape: 24 512 14 14 (2408448)
I0403 15:14:14.583075  2844 net.cpp:156] Memory required for data: 989857056
I0403 15:14:14.583109  2844 layer_factory.hpp:77] Creating layer inception_4b/output_inception_4b/output_0_split
I0403 15:14:14.583132  2844 net.cpp:91] Creating Layer inception_4b/output_inception_4b/output_0_split
I0403 15:14:14.583153  2844 net.cpp:425] inception_4b/output_inception_4b/output_0_split <- inception_4b/output
I0403 15:14:14.583176  2844 net.cpp:399] inception_4b/output_inception_4b/output_0_split -> inception_4b/output_inception_4b/output_0_split_0
I0403 15:14:14.583202  2844 net.cpp:399] inception_4b/output_inception_4b/output_0_split -> inception_4b/output_inception_4b/output_0_split_1
I0403 15:14:14.583226  2844 net.cpp:399] inception_4b/output_inception_4b/output_0_split -> inception_4b/output_inception_4b/output_0_split_2
I0403 15:14:14.583267  2844 net.cpp:399] inception_4b/output_inception_4b/output_0_split -> inception_4b/output_inception_4b/output_0_split_3
I0403 15:14:14.583375  2844 net.cpp:141] Setting up inception_4b/output_inception_4b/output_0_split
I0403 15:14:14.583405  2844 net.cpp:148] Top shape: 24 512 14 14 (2408448)
I0403 15:14:14.583426  2844 net.cpp:148] Top shape: 24 512 14 14 (2408448)
I0403 15:14:14.583446  2844 net.cpp:148] Top shape: 24 512 14 14 (2408448)
I0403 15:14:14.583466  2844 net.cpp:148] Top shape: 24 512 14 14 (2408448)
I0403 15:14:14.583482  2844 net.cpp:156] Memory required for data: 1028392224
I0403 15:14:14.583500  2844 layer_factory.hpp:77] Creating layer inception_4c/1x1
I0403 15:14:14.583528  2844 net.cpp:91] Creating Layer inception_4c/1x1
I0403 15:14:14.583550  2844 net.cpp:425] inception_4c/1x1 <- inception_4b/output_inception_4b/output_0_split_0
I0403 15:14:14.583575  2844 net.cpp:399] inception_4c/1x1 -> inception_4c/1x1
I0403 15:14:14.585331  2844 net.cpp:141] Setting up inception_4c/1x1
I0403 15:14:14.585366  2844 net.cpp:148] Top shape: 24 128 14 14 (602112)
I0403 15:14:14.585386  2844 net.cpp:156] Memory required for data: 1030800672
I0403 15:14:14.585408  2844 layer_factory.hpp:77] Creating layer inception_4c/relu_1x1
I0403 15:14:14.585438  2844 net.cpp:91] Creating Layer inception_4c/relu_1x1
I0403 15:14:14.585458  2844 net.cpp:425] inception_4c/relu_1x1 <- inception_4c/1x1
I0403 15:14:14.585479  2844 net.cpp:386] inception_4c/relu_1x1 -> inception_4c/1x1 (in-place)
I0403 15:14:14.585698  2844 net.cpp:141] Setting up inception_4c/relu_1x1
I0403 15:14:14.585731  2844 net.cpp:148] Top shape: 24 128 14 14 (602112)
I0403 15:14:14.585750  2844 net.cpp:156] Memory required for data: 1033209120
I0403 15:14:14.585768  2844 layer_factory.hpp:77] Creating layer inception_4c/3x3_reduce
I0403 15:14:14.585795  2844 net.cpp:91] Creating Layer inception_4c/3x3_reduce
I0403 15:14:14.585816  2844 net.cpp:425] inception_4c/3x3_reduce <- inception_4b/output_inception_4b/output_0_split_1
I0403 15:14:14.585839  2844 net.cpp:399] inception_4c/3x3_reduce -> inception_4c/3x3_reduce
I0403 15:14:14.594138  2844 net.cpp:141] Setting up inception_4c/3x3_reduce
I0403 15:14:14.594178  2844 net.cpp:148] Top shape: 24 128 14 14 (602112)
I0403 15:14:14.594200  2844 net.cpp:156] Memory required for data: 1035617568
I0403 15:14:14.594224  2844 layer_factory.hpp:77] Creating layer inception_4c/relu_3x3_reduce
I0403 15:14:14.594251  2844 net.cpp:91] Creating Layer inception_4c/relu_3x3_reduce
I0403 15:14:14.594274  2844 net.cpp:425] inception_4c/relu_3x3_reduce <- inception_4c/3x3_reduce
I0403 15:14:14.594300  2844 net.cpp:386] inception_4c/relu_3x3_reduce -> inception_4c/3x3_reduce (in-place)
I0403 15:14:14.594645  2844 net.cpp:141] Setting up inception_4c/relu_3x3_reduce
I0403 15:14:14.594681  2844 net.cpp:148] Top shape: 24 128 14 14 (602112)
I0403 15:14:14.594701  2844 net.cpp:156] Memory required for data: 1038026016
I0403 15:14:14.594719  2844 layer_factory.hpp:77] Creating layer inception_4c/3x3
I0403 15:14:14.594748  2844 net.cpp:91] Creating Layer inception_4c/3x3
I0403 15:14:14.594771  2844 net.cpp:425] inception_4c/3x3 <- inception_4c/3x3_reduce
I0403 15:14:14.594799  2844 net.cpp:399] inception_4c/3x3 -> inception_4c/3x3
I0403 15:14:14.599169  2844 net.cpp:141] Setting up inception_4c/3x3
I0403 15:14:14.599220  2844 net.cpp:148] Top shape: 24 256 14 14 (1204224)
I0403 15:14:14.599246  2844 net.cpp:156] Memory required for data: 1042842912
I0403 15:14:14.599287  2844 layer_factory.hpp:77] Creating layer inception_4c/relu_3x3
I0403 15:14:14.599313  2844 net.cpp:91] Creating Layer inception_4c/relu_3x3
I0403 15:14:14.599334  2844 net.cpp:425] inception_4c/relu_3x3 <- inception_4c/3x3
I0403 15:14:14.599359  2844 net.cpp:386] inception_4c/relu_3x3 -> inception_4c/3x3 (in-place)
I0403 15:14:14.599581  2844 net.cpp:141] Setting up inception_4c/relu_3x3
I0403 15:14:14.599611  2844 net.cpp:148] Top shape: 24 256 14 14 (1204224)
I0403 15:14:14.599630  2844 net.cpp:156] Memory required for data: 1047659808
I0403 15:14:14.599648  2844 layer_factory.hpp:77] Creating layer inception_4c/5x5_reduce
I0403 15:14:14.599675  2844 net.cpp:91] Creating Layer inception_4c/5x5_reduce
I0403 15:14:14.599697  2844 net.cpp:425] inception_4c/5x5_reduce <- inception_4b/output_inception_4b/output_0_split_2
I0403 15:14:14.599726  2844 net.cpp:399] inception_4c/5x5_reduce -> inception_4c/5x5_reduce
I0403 15:14:14.601044  2844 net.cpp:141] Setting up inception_4c/5x5_reduce
I0403 15:14:14.601079  2844 net.cpp:148] Top shape: 24 24 14 14 (112896)
I0403 15:14:14.601099  2844 net.cpp:156] Memory required for data: 1048111392
I0403 15:14:14.601122  2844 layer_factory.hpp:77] Creating layer inception_4c/relu_5x5_reduce
I0403 15:14:14.601146  2844 net.cpp:91] Creating Layer inception_4c/relu_5x5_reduce
I0403 15:14:14.601168  2844 net.cpp:425] inception_4c/relu_5x5_reduce <- inception_4c/5x5_reduce
I0403 15:14:14.601189  2844 net.cpp:386] inception_4c/relu_5x5_reduce -> inception_4c/5x5_reduce (in-place)
I0403 15:14:14.601418  2844 net.cpp:141] Setting up inception_4c/relu_5x5_reduce
I0403 15:14:14.601451  2844 net.cpp:148] Top shape: 24 24 14 14 (112896)
I0403 15:14:14.601469  2844 net.cpp:156] Memory required for data: 1048562976
I0403 15:14:14.601488  2844 layer_factory.hpp:77] Creating layer inception_4c/5x5
I0403 15:14:14.601516  2844 net.cpp:91] Creating Layer inception_4c/5x5
I0403 15:14:14.601536  2844 net.cpp:425] inception_4c/5x5 <- inception_4c/5x5_reduce
I0403 15:14:14.601562  2844 net.cpp:399] inception_4c/5x5 -> inception_4c/5x5
I0403 15:14:14.603072  2844 net.cpp:141] Setting up inception_4c/5x5
I0403 15:14:14.603106  2844 net.cpp:148] Top shape: 24 64 14 14 (301056)
I0403 15:14:14.603126  2844 net.cpp:156] Memory required for data: 1049767200
I0403 15:14:14.603148  2844 layer_factory.hpp:77] Creating layer inception_4c/relu_5x5
I0403 15:14:14.603173  2844 net.cpp:91] Creating Layer inception_4c/relu_5x5
I0403 15:14:14.603193  2844 net.cpp:425] inception_4c/relu_5x5 <- inception_4c/5x5
I0403 15:14:14.603214  2844 net.cpp:386] inception_4c/relu_5x5 -> inception_4c/5x5 (in-place)
I0403 15:14:14.603580  2844 net.cpp:141] Setting up inception_4c/relu_5x5
I0403 15:14:14.603613  2844 net.cpp:148] Top shape: 24 64 14 14 (301056)
I0403 15:14:14.603632  2844 net.cpp:156] Memory required for data: 1050971424
I0403 15:14:14.603651  2844 layer_factory.hpp:77] Creating layer inception_4c/pool
I0403 15:14:14.603677  2844 net.cpp:91] Creating Layer inception_4c/pool
I0403 15:14:14.603698  2844 net.cpp:425] inception_4c/pool <- inception_4b/output_inception_4b/output_0_split_3
I0403 15:14:14.603718  2844 net.cpp:399] inception_4c/pool -> inception_4c/pool
I0403 15:14:14.603801  2844 net.cpp:141] Setting up inception_4c/pool
I0403 15:14:14.603831  2844 net.cpp:148] Top shape: 24 512 14 14 (2408448)
I0403 15:14:14.603849  2844 net.cpp:156] Memory required for data: 1060605216
I0403 15:14:14.603868  2844 layer_factory.hpp:77] Creating layer inception_4c/pool_proj
I0403 15:14:14.603894  2844 net.cpp:91] Creating Layer inception_4c/pool_proj
I0403 15:14:14.603917  2844 net.cpp:425] inception_4c/pool_proj <- inception_4c/pool
I0403 15:14:14.603942  2844 net.cpp:399] inception_4c/pool_proj -> inception_4c/pool_proj
I0403 15:14:14.605443  2844 net.cpp:141] Setting up inception_4c/pool_proj
I0403 15:14:14.605478  2844 net.cpp:148] Top shape: 24 64 14 14 (301056)
I0403 15:14:14.605514  2844 net.cpp:156] Memory required for data: 1061809440
I0403 15:14:14.605537  2844 layer_factory.hpp:77] Creating layer inception_4c/relu_pool_proj
I0403 15:14:14.605561  2844 net.cpp:91] Creating Layer inception_4c/relu_pool_proj
I0403 15:14:14.605581  2844 net.cpp:425] inception_4c/relu_pool_proj <- inception_4c/pool_proj
I0403 15:14:14.605607  2844 net.cpp:386] inception_4c/relu_pool_proj -> inception_4c/pool_proj (in-place)
I0403 15:14:14.605831  2844 net.cpp:141] Setting up inception_4c/relu_pool_proj
I0403 15:14:14.605862  2844 net.cpp:148] Top shape: 24 64 14 14 (301056)
I0403 15:14:14.605881  2844 net.cpp:156] Memory required for data: 1063013664
I0403 15:14:14.605900  2844 layer_factory.hpp:77] Creating layer inception_4c/output
I0403 15:14:14.605923  2844 net.cpp:91] Creating Layer inception_4c/output
I0403 15:14:14.605943  2844 net.cpp:425] inception_4c/output <- inception_4c/1x1
I0403 15:14:14.605964  2844 net.cpp:425] inception_4c/output <- inception_4c/3x3
I0403 15:14:14.605983  2844 net.cpp:425] inception_4c/output <- inception_4c/5x5
I0403 15:14:14.606003  2844 net.cpp:425] inception_4c/output <- inception_4c/pool_proj
I0403 15:14:14.606024  2844 net.cpp:399] inception_4c/output -> inception_4c/output
I0403 15:14:14.606082  2844 net.cpp:141] Setting up inception_4c/output
I0403 15:14:14.606111  2844 net.cpp:148] Top shape: 24 512 14 14 (2408448)
I0403 15:14:14.606128  2844 net.cpp:156] Memory required for data: 1072647456
I0403 15:14:14.606148  2844 layer_factory.hpp:77] Creating layer inception_4c/output_inception_4c/output_0_split
I0403 15:14:14.606168  2844 net.cpp:91] Creating Layer inception_4c/output_inception_4c/output_0_split
I0403 15:14:14.606189  2844 net.cpp:425] inception_4c/output_inception_4c/output_0_split <- inception_4c/output
I0403 15:14:14.606212  2844 net.cpp:399] inception_4c/output_inception_4c/output_0_split -> inception_4c/output_inception_4c/output_0_split_0
I0403 15:14:14.606243  2844 net.cpp:399] inception_4c/output_inception_4c/output_0_split -> inception_4c/output_inception_4c/output_0_split_1
I0403 15:14:14.606271  2844 net.cpp:399] inception_4c/output_inception_4c/output_0_split -> inception_4c/output_inception_4c/output_0_split_2
I0403 15:14:14.606297  2844 net.cpp:399] inception_4c/output_inception_4c/output_0_split -> inception_4c/output_inception_4c/output_0_split_3
I0403 15:14:14.606401  2844 net.cpp:141] Setting up inception_4c/output_inception_4c/output_0_split
I0403 15:14:14.606433  2844 net.cpp:148] Top shape: 24 512 14 14 (2408448)
I0403 15:14:14.606454  2844 net.cpp:148] Top shape: 24 512 14 14 (2408448)
I0403 15:14:14.606473  2844 net.cpp:148] Top shape: 24 512 14 14 (2408448)
I0403 15:14:14.606492  2844 net.cpp:148] Top shape: 24 512 14 14 (2408448)
I0403 15:14:14.606508  2844 net.cpp:156] Memory required for data: 1111182624
I0403 15:14:14.606525  2844 layer_factory.hpp:77] Creating layer inception_4d/1x1
I0403 15:14:14.606554  2844 net.cpp:91] Creating Layer inception_4d/1x1
I0403 15:14:14.606575  2844 net.cpp:425] inception_4d/1x1 <- inception_4c/output_inception_4c/output_0_split_0
I0403 15:14:14.606598  2844 net.cpp:399] inception_4d/1x1 -> inception_4d/1x1
I0403 15:14:14.608295  2844 net.cpp:141] Setting up inception_4d/1x1
I0403 15:14:14.608333  2844 net.cpp:148] Top shape: 24 112 14 14 (526848)
I0403 15:14:14.608353  2844 net.cpp:156] Memory required for data: 1113290016
I0403 15:14:14.608376  2844 layer_factory.hpp:77] Creating layer inception_4d/relu_1x1
I0403 15:14:14.608397  2844 net.cpp:91] Creating Layer inception_4d/relu_1x1
I0403 15:14:14.608417  2844 net.cpp:425] inception_4d/relu_1x1 <- inception_4d/1x1
I0403 15:14:14.608438  2844 net.cpp:386] inception_4d/relu_1x1 -> inception_4d/1x1 (in-place)
I0403 15:14:14.608665  2844 net.cpp:141] Setting up inception_4d/relu_1x1
I0403 15:14:14.608696  2844 net.cpp:148] Top shape: 24 112 14 14 (526848)
I0403 15:14:14.608713  2844 net.cpp:156] Memory required for data: 1115397408
I0403 15:14:14.608732  2844 layer_factory.hpp:77] Creating layer inception_4d/3x3_reduce
I0403 15:14:14.608775  2844 net.cpp:91] Creating Layer inception_4d/3x3_reduce
I0403 15:14:14.608798  2844 net.cpp:425] inception_4d/3x3_reduce <- inception_4c/output_inception_4c/output_0_split_1
I0403 15:14:14.608827  2844 net.cpp:399] inception_4d/3x3_reduce -> inception_4d/3x3_reduce
I0403 15:14:14.610677  2844 net.cpp:141] Setting up inception_4d/3x3_reduce
I0403 15:14:14.610710  2844 net.cpp:148] Top shape: 24 144 14 14 (677376)
I0403 15:14:14.610730  2844 net.cpp:156] Memory required for data: 1118106912
I0403 15:14:14.610752  2844 layer_factory.hpp:77] Creating layer inception_4d/relu_3x3_reduce
I0403 15:14:14.610779  2844 net.cpp:91] Creating Layer inception_4d/relu_3x3_reduce
I0403 15:14:14.610800  2844 net.cpp:425] inception_4d/relu_3x3_reduce <- inception_4d/3x3_reduce
I0403 15:14:14.610821  2844 net.cpp:386] inception_4d/relu_3x3_reduce -> inception_4d/3x3_reduce (in-place)
I0403 15:14:14.611168  2844 net.cpp:141] Setting up inception_4d/relu_3x3_reduce
I0403 15:14:14.611201  2844 net.cpp:148] Top shape: 24 144 14 14 (677376)
I0403 15:14:14.611218  2844 net.cpp:156] Memory required for data: 1120816416
I0403 15:14:14.611238  2844 layer_factory.hpp:77] Creating layer inception_4d/3x3
I0403 15:14:14.611273  2844 net.cpp:91] Creating Layer inception_4d/3x3
I0403 15:14:14.611296  2844 net.cpp:425] inception_4d/3x3 <- inception_4d/3x3_reduce
I0403 15:14:14.611320  2844 net.cpp:399] inception_4d/3x3 -> inception_4d/3x3
I0403 15:14:14.616571  2844 net.cpp:141] Setting up inception_4d/3x3
I0403 15:14:14.616612  2844 net.cpp:148] Top shape: 24 288 14 14 (1354752)
I0403 15:14:14.616633  2844 net.cpp:156] Memory required for data: 1126235424
I0403 15:14:14.616657  2844 layer_factory.hpp:77] Creating layer inception_4d/relu_3x3
I0403 15:14:14.616677  2844 net.cpp:91] Creating Layer inception_4d/relu_3x3
I0403 15:14:14.616698  2844 net.cpp:425] inception_4d/relu_3x3 <- inception_4d/3x3
I0403 15:14:14.616722  2844 net.cpp:386] inception_4d/relu_3x3 -> inception_4d/3x3 (in-place)
I0403 15:14:14.616950  2844 net.cpp:141] Setting up inception_4d/relu_3x3
I0403 15:14:14.616981  2844 net.cpp:148] Top shape: 24 288 14 14 (1354752)
I0403 15:14:14.616998  2844 net.cpp:156] Memory required for data: 1131654432
I0403 15:14:14.617017  2844 layer_factory.hpp:77] Creating layer inception_4d/5x5_reduce
I0403 15:14:14.617044  2844 net.cpp:91] Creating Layer inception_4d/5x5_reduce
I0403 15:14:14.617066  2844 net.cpp:425] inception_4d/5x5_reduce <- inception_4c/output_inception_4c/output_0_split_2
I0403 15:14:14.617092  2844 net.cpp:399] inception_4d/5x5_reduce -> inception_4d/5x5_reduce
I0403 15:14:14.618510  2844 net.cpp:141] Setting up inception_4d/5x5_reduce
I0403 15:14:14.618547  2844 net.cpp:148] Top shape: 24 32 14 14 (150528)
I0403 15:14:14.618567  2844 net.cpp:156] Memory required for data: 1132256544
I0403 15:14:14.618590  2844 layer_factory.hpp:77] Creating layer inception_4d/relu_5x5_reduce
I0403 15:14:14.618612  2844 net.cpp:91] Creating Layer inception_4d/relu_5x5_reduce
I0403 15:14:14.618631  2844 net.cpp:425] inception_4d/relu_5x5_reduce <- inception_4d/5x5_reduce
I0403 15:14:14.618655  2844 net.cpp:386] inception_4d/relu_5x5_reduce -> inception_4d/5x5_reduce (in-place)
I0403 15:14:14.618890  2844 net.cpp:141] Setting up inception_4d/relu_5x5_reduce
I0403 15:14:14.618921  2844 net.cpp:148] Top shape: 24 32 14 14 (150528)
I0403 15:14:14.618938  2844 net.cpp:156] Memory required for data: 1132858656
I0403 15:14:14.618955  2844 layer_factory.hpp:77] Creating layer inception_4d/5x5
I0403 15:14:14.618983  2844 net.cpp:91] Creating Layer inception_4d/5x5
I0403 15:14:14.619004  2844 net.cpp:425] inception_4d/5x5 <- inception_4d/5x5_reduce
I0403 15:14:14.619029  2844 net.cpp:399] inception_4d/5x5 -> inception_4d/5x5
I0403 15:14:14.620846  2844 net.cpp:141] Setting up inception_4d/5x5
I0403 15:14:14.620880  2844 net.cpp:148] Top shape: 24 64 14 14 (301056)
I0403 15:14:14.620898  2844 net.cpp:156] Memory required for data: 1134062880
I0403 15:14:14.620921  2844 layer_factory.hpp:77] Creating layer inception_4d/relu_5x5
I0403 15:14:14.620965  2844 net.cpp:91] Creating Layer inception_4d/relu_5x5
I0403 15:14:14.620987  2844 net.cpp:425] inception_4d/relu_5x5 <- inception_4d/5x5
I0403 15:14:14.621008  2844 net.cpp:386] inception_4d/relu_5x5 -> inception_4d/5x5 (in-place)
I0403 15:14:14.621485  2844 net.cpp:141] Setting up inception_4d/relu_5x5
I0403 15:14:14.621520  2844 net.cpp:148] Top shape: 24 64 14 14 (301056)
I0403 15:14:14.621538  2844 net.cpp:156] Memory required for data: 1135267104
I0403 15:14:14.621557  2844 layer_factory.hpp:77] Creating layer inception_4d/pool
I0403 15:14:14.621582  2844 net.cpp:91] Creating Layer inception_4d/pool
I0403 15:14:14.621604  2844 net.cpp:425] inception_4d/pool <- inception_4c/output_inception_4c/output_0_split_3
I0403 15:14:14.621626  2844 net.cpp:399] inception_4d/pool -> inception_4d/pool
I0403 15:14:14.621709  2844 net.cpp:141] Setting up inception_4d/pool
I0403 15:14:14.621739  2844 net.cpp:148] Top shape: 24 512 14 14 (2408448)
I0403 15:14:14.621758  2844 net.cpp:156] Memory required for data: 1144900896
I0403 15:14:14.621776  2844 layer_factory.hpp:77] Creating layer inception_4d/pool_proj
I0403 15:14:14.621803  2844 net.cpp:91] Creating Layer inception_4d/pool_proj
I0403 15:14:14.621826  2844 net.cpp:425] inception_4d/pool_proj <- inception_4d/pool
I0403 15:14:14.621851  2844 net.cpp:399] inception_4d/pool_proj -> inception_4d/pool_proj
I0403 15:14:14.624023  2844 net.cpp:141] Setting up inception_4d/pool_proj
I0403 15:14:14.624063  2844 net.cpp:148] Top shape: 24 64 14 14 (301056)
I0403 15:14:14.624083  2844 net.cpp:156] Memory required for data: 1146105120
I0403 15:14:14.624106  2844 layer_factory.hpp:77] Creating layer inception_4d/relu_pool_proj
I0403 15:14:14.624128  2844 net.cpp:91] Creating Layer inception_4d/relu_pool_proj
I0403 15:14:14.624148  2844 net.cpp:425] inception_4d/relu_pool_proj <- inception_4d/pool_proj
I0403 15:14:14.624173  2844 net.cpp:386] inception_4d/relu_pool_proj -> inception_4d/pool_proj (in-place)
I0403 15:14:14.624413  2844 net.cpp:141] Setting up inception_4d/relu_pool_proj
I0403 15:14:14.624444  2844 net.cpp:148] Top shape: 24 64 14 14 (301056)
I0403 15:14:14.624464  2844 net.cpp:156] Memory required for data: 1147309344
I0403 15:14:14.624481  2844 layer_factory.hpp:77] Creating layer inception_4d/output
I0403 15:14:14.624502  2844 net.cpp:91] Creating Layer inception_4d/output
I0403 15:14:14.624521  2844 net.cpp:425] inception_4d/output <- inception_4d/1x1
I0403 15:14:14.624541  2844 net.cpp:425] inception_4d/output <- inception_4d/3x3
I0403 15:14:14.624562  2844 net.cpp:425] inception_4d/output <- inception_4d/5x5
I0403 15:14:14.624580  2844 net.cpp:425] inception_4d/output <- inception_4d/pool_proj
I0403 15:14:14.624604  2844 net.cpp:399] inception_4d/output -> inception_4d/output
I0403 15:14:14.624662  2844 net.cpp:141] Setting up inception_4d/output
I0403 15:14:14.624696  2844 net.cpp:148] Top shape: 24 528 14 14 (2483712)
I0403 15:14:14.624713  2844 net.cpp:156] Memory required for data: 1157244192
I0403 15:14:14.624732  2844 layer_factory.hpp:77] Creating layer inception_4d/output_inception_4d/output_0_split
I0403 15:14:14.624752  2844 net.cpp:91] Creating Layer inception_4d/output_inception_4d/output_0_split
I0403 15:14:14.624770  2844 net.cpp:425] inception_4d/output_inception_4d/output_0_split <- inception_4d/output
I0403 15:14:14.624796  2844 net.cpp:399] inception_4d/output_inception_4d/output_0_split -> inception_4d/output_inception_4d/output_0_split_0
I0403 15:14:14.624824  2844 net.cpp:399] inception_4d/output_inception_4d/output_0_split -> inception_4d/output_inception_4d/output_0_split_1
I0403 15:14:14.624850  2844 net.cpp:399] inception_4d/output_inception_4d/output_0_split -> inception_4d/output_inception_4d/output_0_split_2
I0403 15:14:14.624876  2844 net.cpp:399] inception_4d/output_inception_4d/output_0_split -> inception_4d/output_inception_4d/output_0_split_3
I0403 15:14:14.624902  2844 net.cpp:399] inception_4d/output_inception_4d/output_0_split -> inception_4d/output_inception_4d/output_0_split_4
I0403 15:14:14.625028  2844 net.cpp:141] Setting up inception_4d/output_inception_4d/output_0_split
I0403 15:14:14.625074  2844 net.cpp:148] Top shape: 24 528 14 14 (2483712)
I0403 15:14:14.625097  2844 net.cpp:148] Top shape: 24 528 14 14 (2483712)
I0403 15:14:14.625116  2844 net.cpp:148] Top shape: 24 528 14 14 (2483712)
I0403 15:14:14.625135  2844 net.cpp:148] Top shape: 24 528 14 14 (2483712)
I0403 15:14:14.625154  2844 net.cpp:148] Top shape: 24 528 14 14 (2483712)
I0403 15:14:14.625172  2844 net.cpp:156] Memory required for data: 1206918432
I0403 15:14:14.625190  2844 layer_factory.hpp:77] Creating layer loss2/ave_pool
I0403 15:14:14.625212  2844 net.cpp:91] Creating Layer loss2/ave_pool
I0403 15:14:14.625232  2844 net.cpp:425] loss2/ave_pool <- inception_4d/output_inception_4d/output_0_split_0
I0403 15:14:14.625262  2844 net.cpp:399] loss2/ave_pool -> loss2/ave_pool
I0403 15:14:14.625721  2844 net.cpp:141] Setting up loss2/ave_pool
I0403 15:14:14.625757  2844 net.cpp:148] Top shape: 24 528 4 4 (202752)
I0403 15:14:14.625777  2844 net.cpp:156] Memory required for data: 1207729440
I0403 15:14:14.625797  2844 layer_factory.hpp:77] Creating layer loss2/conv
I0403 15:14:14.625823  2844 net.cpp:91] Creating Layer loss2/conv
I0403 15:14:14.625846  2844 net.cpp:425] loss2/conv <- loss2/ave_pool
I0403 15:14:14.625870  2844 net.cpp:399] loss2/conv -> loss2/conv
I0403 15:14:14.628199  2844 net.cpp:141] Setting up loss2/conv
I0403 15:14:14.628234  2844 net.cpp:148] Top shape: 24 128 4 4 (49152)
I0403 15:14:14.628259  2844 net.cpp:156] Memory required for data: 1207926048
I0403 15:14:14.628283  2844 layer_factory.hpp:77] Creating layer loss2/relu_conv
I0403 15:14:14.628309  2844 net.cpp:91] Creating Layer loss2/relu_conv
I0403 15:14:14.628329  2844 net.cpp:425] loss2/relu_conv <- loss2/conv
I0403 15:14:14.628350  2844 net.cpp:386] loss2/relu_conv -> loss2/conv (in-place)
I0403 15:14:14.628698  2844 net.cpp:141] Setting up loss2/relu_conv
I0403 15:14:14.628731  2844 net.cpp:148] Top shape: 24 128 4 4 (49152)
I0403 15:14:14.628751  2844 net.cpp:156] Memory required for data: 1208122656
I0403 15:14:14.628767  2844 layer_factory.hpp:77] Creating layer loss2/fc
I0403 15:14:14.628794  2844 net.cpp:91] Creating Layer loss2/fc
I0403 15:14:14.628815  2844 net.cpp:425] loss2/fc <- loss2/conv
I0403 15:14:14.628839  2844 net.cpp:399] loss2/fc -> loss2/fc
I0403 15:14:14.650614  2844 net.cpp:141] Setting up loss2/fc
I0403 15:14:14.650656  2844 net.cpp:148] Top shape: 24 1024 (24576)
I0403 15:14:14.650676  2844 net.cpp:156] Memory required for data: 1208220960
I0403 15:14:14.650699  2844 layer_factory.hpp:77] Creating layer loss2/relu_fc
I0403 15:14:14.650722  2844 net.cpp:91] Creating Layer loss2/relu_fc
I0403 15:14:14.650743  2844 net.cpp:425] loss2/relu_fc <- loss2/fc
I0403 15:14:14.650773  2844 net.cpp:386] loss2/relu_fc -> loss2/fc (in-place)
I0403 15:14:14.651141  2844 net.cpp:141] Setting up loss2/relu_fc
I0403 15:14:14.651175  2844 net.cpp:148] Top shape: 24 1024 (24576)
I0403 15:14:14.651192  2844 net.cpp:156] Memory required for data: 1208319264
I0403 15:14:14.651211  2844 layer_factory.hpp:77] Creating layer loss2/drop_fc
I0403 15:14:14.651234  2844 net.cpp:91] Creating Layer loss2/drop_fc
I0403 15:14:14.651260  2844 net.cpp:425] loss2/drop_fc <- loss2/fc
I0403 15:14:14.651285  2844 net.cpp:386] loss2/drop_fc -> loss2/fc (in-place)
I0403 15:14:14.651348  2844 net.cpp:141] Setting up loss2/drop_fc
I0403 15:14:14.651381  2844 net.cpp:148] Top shape: 24 1024 (24576)
I0403 15:14:14.651399  2844 net.cpp:156] Memory required for data: 1208417568
I0403 15:14:14.651417  2844 layer_factory.hpp:77] Creating layer loss2/classifier_plantvillage
I0403 15:14:14.651439  2844 net.cpp:91] Creating Layer loss2/classifier_plantvillage
I0403 15:14:14.651459  2844 net.cpp:425] loss2/classifier_plantvillage <- loss2/fc
I0403 15:14:14.651485  2844 net.cpp:399] loss2/classifier_plantvillage -> loss2/classifier_plantvillage
I0403 15:14:14.651989  2844 net.cpp:141] Setting up loss2/classifier_plantvillage
I0403 15:14:14.652019  2844 net.cpp:148] Top shape: 24 38 (912)
I0403 15:14:14.652058  2844 net.cpp:156] Memory required for data: 1208421216
I0403 15:14:14.652082  2844 layer_factory.hpp:77] Creating layer loss2/classifier_plantvillage_loss2/classifier_plantvillage_0_split
I0403 15:14:14.652108  2844 net.cpp:91] Creating Layer loss2/classifier_plantvillage_loss2/classifier_plantvillage_0_split
I0403 15:14:14.652130  2844 net.cpp:425] loss2/classifier_plantvillage_loss2/classifier_plantvillage_0_split <- loss2/classifier_plantvillage
I0403 15:14:14.652151  2844 net.cpp:399] loss2/classifier_plantvillage_loss2/classifier_plantvillage_0_split -> loss2/classifier_plantvillage_loss2/classifier_plantvillage_0_split_0
I0403 15:14:14.652175  2844 net.cpp:399] loss2/classifier_plantvillage_loss2/classifier_plantvillage_0_split -> loss2/classifier_plantvillage_loss2/classifier_plantvillage_0_split_1
I0403 15:14:14.652201  2844 net.cpp:399] loss2/classifier_plantvillage_loss2/classifier_plantvillage_0_split -> loss2/classifier_plantvillage_loss2/classifier_plantvillage_0_split_2
I0403 15:14:14.652313  2844 net.cpp:141] Setting up loss2/classifier_plantvillage_loss2/classifier_plantvillage_0_split
I0403 15:14:14.652344  2844 net.cpp:148] Top shape: 24 38 (912)
I0403 15:14:14.652364  2844 net.cpp:148] Top shape: 24 38 (912)
I0403 15:14:14.652384  2844 net.cpp:148] Top shape: 24 38 (912)
I0403 15:14:14.652401  2844 net.cpp:156] Memory required for data: 1208432160
I0403 15:14:14.652418  2844 layer_factory.hpp:77] Creating layer inception_4e/1x1
I0403 15:14:14.652446  2844 net.cpp:91] Creating Layer inception_4e/1x1
I0403 15:14:14.652469  2844 net.cpp:425] inception_4e/1x1 <- inception_4d/output_inception_4d/output_0_split_1
I0403 15:14:14.652493  2844 net.cpp:399] inception_4e/1x1 -> inception_4e/1x1
I0403 15:14:14.654748  2844 net.cpp:141] Setting up inception_4e/1x1
I0403 15:14:14.654785  2844 net.cpp:148] Top shape: 24 256 14 14 (1204224)
I0403 15:14:14.654805  2844 net.cpp:156] Memory required for data: 1213249056
I0403 15:14:14.654829  2844 layer_factory.hpp:77] Creating layer inception_4e/relu_1x1
I0403 15:14:14.654853  2844 net.cpp:91] Creating Layer inception_4e/relu_1x1
I0403 15:14:14.654875  2844 net.cpp:425] inception_4e/relu_1x1 <- inception_4e/1x1
I0403 15:14:14.654896  2844 net.cpp:386] inception_4e/relu_1x1 -> inception_4e/1x1 (in-place)
I0403 15:14:14.655261  2844 net.cpp:141] Setting up inception_4e/relu_1x1
I0403 15:14:14.655294  2844 net.cpp:148] Top shape: 24 256 14 14 (1204224)
I0403 15:14:14.655313  2844 net.cpp:156] Memory required for data: 1218065952
I0403 15:14:14.655331  2844 layer_factory.hpp:77] Creating layer inception_4e/3x3_reduce
I0403 15:14:14.655359  2844 net.cpp:91] Creating Layer inception_4e/3x3_reduce
I0403 15:14:14.655380  2844 net.cpp:425] inception_4e/3x3_reduce <- inception_4d/output_inception_4d/output_0_split_2
I0403 15:14:14.655406  2844 net.cpp:399] inception_4e/3x3_reduce -> inception_4e/3x3_reduce
I0403 15:14:14.657994  2844 net.cpp:141] Setting up inception_4e/3x3_reduce
I0403 15:14:14.658030  2844 net.cpp:148] Top shape: 24 160 14 14 (752640)
I0403 15:14:14.658049  2844 net.cpp:156] Memory required for data: 1221076512
I0403 15:14:14.658072  2844 layer_factory.hpp:77] Creating layer inception_4e/relu_3x3_reduce
I0403 15:14:14.658097  2844 net.cpp:91] Creating Layer inception_4e/relu_3x3_reduce
I0403 15:14:14.658118  2844 net.cpp:425] inception_4e/relu_3x3_reduce <- inception_4e/3x3_reduce
I0403 15:14:14.658139  2844 net.cpp:386] inception_4e/relu_3x3_reduce -> inception_4e/3x3_reduce (in-place)
I0403 15:14:14.658375  2844 net.cpp:141] Setting up inception_4e/relu_3x3_reduce
I0403 15:14:14.658406  2844 net.cpp:148] Top shape: 24 160 14 14 (752640)
I0403 15:14:14.658429  2844 net.cpp:156] Memory required for data: 1224087072
I0403 15:14:14.658447  2844 layer_factory.hpp:77] Creating layer inception_4e/3x3
I0403 15:14:14.658471  2844 net.cpp:91] Creating Layer inception_4e/3x3
I0403 15:14:14.658491  2844 net.cpp:425] inception_4e/3x3 <- inception_4e/3x3_reduce
I0403 15:14:14.658516  2844 net.cpp:399] inception_4e/3x3 -> inception_4e/3x3
I0403 15:14:14.664752  2844 net.cpp:141] Setting up inception_4e/3x3
I0403 15:14:14.664801  2844 net.cpp:148] Top shape: 24 320 14 14 (1505280)
I0403 15:14:14.664826  2844 net.cpp:156] Memory required for data: 1230108192
I0403 15:14:14.664849  2844 layer_factory.hpp:77] Creating layer inception_4e/relu_3x3
I0403 15:14:14.664872  2844 net.cpp:91] Creating Layer inception_4e/relu_3x3
I0403 15:14:14.664892  2844 net.cpp:425] inception_4e/relu_3x3 <- inception_4e/3x3
I0403 15:14:14.664913  2844 net.cpp:386] inception_4e/relu_3x3 -> inception_4e/3x3 (in-place)
I0403 15:14:14.665293  2844 net.cpp:141] Setting up inception_4e/relu_3x3
I0403 15:14:14.665329  2844 net.cpp:148] Top shape: 24 320 14 14 (1505280)
I0403 15:14:14.665349  2844 net.cpp:156] Memory required for data: 1236129312
I0403 15:14:14.665369  2844 layer_factory.hpp:77] Creating layer inception_4e/5x5_reduce
I0403 15:14:14.665397  2844 net.cpp:91] Creating Layer inception_4e/5x5_reduce
I0403 15:14:14.665421  2844 net.cpp:425] inception_4e/5x5_reduce <- inception_4d/output_inception_4d/output_0_split_3
I0403 15:14:14.665444  2844 net.cpp:399] inception_4e/5x5_reduce -> inception_4e/5x5_reduce
I0403 15:14:14.666782  2844 net.cpp:141] Setting up inception_4e/5x5_reduce
I0403 15:14:14.666816  2844 net.cpp:148] Top shape: 24 32 14 14 (150528)
I0403 15:14:14.666836  2844 net.cpp:156] Memory required for data: 1236731424
I0403 15:14:14.666858  2844 layer_factory.hpp:77] Creating layer inception_4e/relu_5x5_reduce
I0403 15:14:14.666883  2844 net.cpp:91] Creating Layer inception_4e/relu_5x5_reduce
I0403 15:14:14.666905  2844 net.cpp:425] inception_4e/relu_5x5_reduce <- inception_4e/5x5_reduce
I0403 15:14:14.666928  2844 net.cpp:386] inception_4e/relu_5x5_reduce -> inception_4e/5x5_reduce (in-place)
I0403 15:14:14.667299  2844 net.cpp:141] Setting up inception_4e/relu_5x5_reduce
I0403 15:14:14.667330  2844 net.cpp:148] Top shape: 24 32 14 14 (150528)
I0403 15:14:14.667348  2844 net.cpp:156] Memory required for data: 1237333536
I0403 15:14:14.667366  2844 layer_factory.hpp:77] Creating layer inception_4e/5x5
I0403 15:14:14.667413  2844 net.cpp:91] Creating Layer inception_4e/5x5
I0403 15:14:14.667438  2844 net.cpp:425] inception_4e/5x5 <- inception_4e/5x5_reduce
I0403 15:14:14.667462  2844 net.cpp:399] inception_4e/5x5 -> inception_4e/5x5
I0403 15:14:14.669766  2844 net.cpp:141] Setting up inception_4e/5x5
I0403 15:14:14.669801  2844 net.cpp:148] Top shape: 24 128 14 14 (602112)
I0403 15:14:14.669821  2844 net.cpp:156] Memory required for data: 1239741984
I0403 15:14:14.669844  2844 layer_factory.hpp:77] Creating layer inception_4e/relu_5x5
I0403 15:14:14.669867  2844 net.cpp:91] Creating Layer inception_4e/relu_5x5
I0403 15:14:14.669888  2844 net.cpp:425] inception_4e/relu_5x5 <- inception_4e/5x5
I0403 15:14:14.669911  2844 net.cpp:386] inception_4e/relu_5x5 -> inception_4e/5x5 (in-place)
I0403 15:14:14.670156  2844 net.cpp:141] Setting up inception_4e/relu_5x5
I0403 15:14:14.670188  2844 net.cpp:148] Top shape: 24 128 14 14 (602112)
I0403 15:14:14.670207  2844 net.cpp:156] Memory required for data: 1242150432
I0403 15:14:14.670225  2844 layer_factory.hpp:77] Creating layer inception_4e/pool
I0403 15:14:14.670255  2844 net.cpp:91] Creating Layer inception_4e/pool
I0403 15:14:14.670277  2844 net.cpp:425] inception_4e/pool <- inception_4d/output_inception_4d/output_0_split_4
I0403 15:14:14.670300  2844 net.cpp:399] inception_4e/pool -> inception_4e/pool
I0403 15:14:14.670387  2844 net.cpp:141] Setting up inception_4e/pool
I0403 15:14:14.670418  2844 net.cpp:148] Top shape: 24 528 14 14 (2483712)
I0403 15:14:14.670436  2844 net.cpp:156] Memory required for data: 1252085280
I0403 15:14:14.670454  2844 layer_factory.hpp:77] Creating layer inception_4e/pool_proj
I0403 15:14:14.670482  2844 net.cpp:91] Creating Layer inception_4e/pool_proj
I0403 15:14:14.670503  2844 net.cpp:425] inception_4e/pool_proj <- inception_4e/pool
I0403 15:14:14.670528  2844 net.cpp:399] inception_4e/pool_proj -> inception_4e/pool_proj
I0403 15:14:14.672466  2844 net.cpp:141] Setting up inception_4e/pool_proj
I0403 15:14:14.672518  2844 net.cpp:148] Top shape: 24 128 14 14 (602112)
I0403 15:14:14.672540  2844 net.cpp:156] Memory required for data: 1254493728
I0403 15:14:14.672564  2844 layer_factory.hpp:77] Creating layer inception_4e/relu_pool_proj
I0403 15:14:14.672585  2844 net.cpp:91] Creating Layer inception_4e/relu_pool_proj
I0403 15:14:14.672605  2844 net.cpp:425] inception_4e/relu_pool_proj <- inception_4e/pool_proj
I0403 15:14:14.672628  2844 net.cpp:386] inception_4e/relu_pool_proj -> inception_4e/pool_proj (in-place)
I0403 15:14:14.673038  2844 net.cpp:141] Setting up inception_4e/relu_pool_proj
I0403 15:14:14.673074  2844 net.cpp:148] Top shape: 24 128 14 14 (602112)
I0403 15:14:14.673094  2844 net.cpp:156] Memory required for data: 1256902176
I0403 15:14:14.673111  2844 layer_factory.hpp:77] Creating layer inception_4e/output
I0403 15:14:14.673132  2844 net.cpp:91] Creating Layer inception_4e/output
I0403 15:14:14.673152  2844 net.cpp:425] inception_4e/output <- inception_4e/1x1
I0403 15:14:14.673173  2844 net.cpp:425] inception_4e/output <- inception_4e/3x3
I0403 15:14:14.673194  2844 net.cpp:425] inception_4e/output <- inception_4e/5x5
I0403 15:14:14.673214  2844 net.cpp:425] inception_4e/output <- inception_4e/pool_proj
I0403 15:14:14.673238  2844 net.cpp:399] inception_4e/output -> inception_4e/output
I0403 15:14:14.673315  2844 net.cpp:141] Setting up inception_4e/output
I0403 15:14:14.673343  2844 net.cpp:148] Top shape: 24 832 14 14 (3913728)
I0403 15:14:14.673362  2844 net.cpp:156] Memory required for data: 1272557088
I0403 15:14:14.673380  2844 layer_factory.hpp:77] Creating layer pool4/3x3_s2
I0403 15:14:14.673406  2844 net.cpp:91] Creating Layer pool4/3x3_s2
I0403 15:14:14.673427  2844 net.cpp:425] pool4/3x3_s2 <- inception_4e/output
I0403 15:14:14.673450  2844 net.cpp:399] pool4/3x3_s2 -> pool4/3x3_s2
I0403 15:14:14.673537  2844 net.cpp:141] Setting up pool4/3x3_s2
I0403 15:14:14.673568  2844 net.cpp:148] Top shape: 24 832 7 7 (978432)
I0403 15:14:14.673585  2844 net.cpp:156] Memory required for data: 1276470816
I0403 15:14:14.673604  2844 layer_factory.hpp:77] Creating layer pool4/3x3_s2_pool4/3x3_s2_0_split
I0403 15:14:14.673624  2844 net.cpp:91] Creating Layer pool4/3x3_s2_pool4/3x3_s2_0_split
I0403 15:14:14.673645  2844 net.cpp:425] pool4/3x3_s2_pool4/3x3_s2_0_split <- pool4/3x3_s2
I0403 15:14:14.673668  2844 net.cpp:399] pool4/3x3_s2_pool4/3x3_s2_0_split -> pool4/3x3_s2_pool4/3x3_s2_0_split_0
I0403 15:14:14.673694  2844 net.cpp:399] pool4/3x3_s2_pool4/3x3_s2_0_split -> pool4/3x3_s2_pool4/3x3_s2_0_split_1
I0403 15:14:14.673720  2844 net.cpp:399] pool4/3x3_s2_pool4/3x3_s2_0_split -> pool4/3x3_s2_pool4/3x3_s2_0_split_2
I0403 15:14:14.673746  2844 net.cpp:399] pool4/3x3_s2_pool4/3x3_s2_0_split -> pool4/3x3_s2_pool4/3x3_s2_0_split_3
I0403 15:14:14.673858  2844 net.cpp:141] Setting up pool4/3x3_s2_pool4/3x3_s2_0_split
I0403 15:14:14.673888  2844 net.cpp:148] Top shape: 24 832 7 7 (978432)
I0403 15:14:14.673908  2844 net.cpp:148] Top shape: 24 832 7 7 (978432)
I0403 15:14:14.673928  2844 net.cpp:148] Top shape: 24 832 7 7 (978432)
I0403 15:14:14.673946  2844 net.cpp:148] Top shape: 24 832 7 7 (978432)
I0403 15:14:14.673964  2844 net.cpp:156] Memory required for data: 1292125728
I0403 15:14:14.673981  2844 layer_factory.hpp:77] Creating layer inception_5a/1x1
I0403 15:14:14.674008  2844 net.cpp:91] Creating Layer inception_5a/1x1
I0403 15:14:14.674031  2844 net.cpp:425] inception_5a/1x1 <- pool4/3x3_s2_pool4/3x3_s2_0_split_0
I0403 15:14:14.674057  2844 net.cpp:399] inception_5a/1x1 -> inception_5a/1x1
I0403 15:14:14.677613  2844 net.cpp:141] Setting up inception_5a/1x1
I0403 15:14:14.677650  2844 net.cpp:148] Top shape: 24 256 7 7 (301056)
I0403 15:14:14.677670  2844 net.cpp:156] Memory required for data: 1293329952
I0403 15:14:14.677693  2844 layer_factory.hpp:77] Creating layer inception_5a/relu_1x1
I0403 15:14:14.677716  2844 net.cpp:91] Creating Layer inception_5a/relu_1x1
I0403 15:14:14.677736  2844 net.cpp:425] inception_5a/relu_1x1 <- inception_5a/1x1
I0403 15:14:14.677760  2844 net.cpp:386] inception_5a/relu_1x1 -> inception_5a/1x1 (in-place)
I0403 15:14:14.678144  2844 net.cpp:141] Setting up inception_5a/relu_1x1
I0403 15:14:14.678176  2844 net.cpp:148] Top shape: 24 256 7 7 (301056)
I0403 15:14:14.678196  2844 net.cpp:156] Memory required for data: 1294534176
I0403 15:14:14.678215  2844 layer_factory.hpp:77] Creating layer inception_5a/3x3_reduce
I0403 15:14:14.678246  2844 net.cpp:91] Creating Layer inception_5a/3x3_reduce
I0403 15:14:14.678270  2844 net.cpp:425] inception_5a/3x3_reduce <- pool4/3x3_s2_pool4/3x3_s2_0_split_1
I0403 15:14:14.678297  2844 net.cpp:399] inception_5a/3x3_reduce -> inception_5a/3x3_reduce
I0403 15:14:14.681370  2844 net.cpp:141] Setting up inception_5a/3x3_reduce
I0403 15:14:14.681409  2844 net.cpp:148] Top shape: 24 160 7 7 (188160)
I0403 15:14:14.681430  2844 net.cpp:156] Memory required for data: 1295286816
I0403 15:14:14.681453  2844 layer_factory.hpp:77] Creating layer inception_5a/relu_3x3_reduce
I0403 15:14:14.681475  2844 net.cpp:91] Creating Layer inception_5a/relu_3x3_reduce
I0403 15:14:14.681495  2844 net.cpp:425] inception_5a/relu_3x3_reduce <- inception_5a/3x3_reduce
I0403 15:14:14.681520  2844 net.cpp:386] inception_5a/relu_3x3_reduce -> inception_5a/3x3_reduce (in-place)
I0403 15:14:14.681754  2844 net.cpp:141] Setting up inception_5a/relu_3x3_reduce
I0403 15:14:14.681784  2844 net.cpp:148] Top shape: 24 160 7 7 (188160)
I0403 15:14:14.681803  2844 net.cpp:156] Memory required for data: 1296039456
I0403 15:14:14.681821  2844 layer_factory.hpp:77] Creating layer inception_5a/3x3
I0403 15:14:14.681848  2844 net.cpp:91] Creating Layer inception_5a/3x3
I0403 15:14:14.681869  2844 net.cpp:425] inception_5a/3x3 <- inception_5a/3x3_reduce
I0403 15:14:14.681896  2844 net.cpp:399] inception_5a/3x3 -> inception_5a/3x3
I0403 15:14:14.688119  2844 net.cpp:141] Setting up inception_5a/3x3
I0403 15:14:14.688156  2844 net.cpp:148] Top shape: 24 320 7 7 (376320)
I0403 15:14:14.688175  2844 net.cpp:156] Memory required for data: 1297544736
I0403 15:14:14.688200  2844 layer_factory.hpp:77] Creating layer inception_5a/relu_3x3
I0403 15:14:14.688222  2844 net.cpp:91] Creating Layer inception_5a/relu_3x3
I0403 15:14:14.688252  2844 net.cpp:425] inception_5a/relu_3x3 <- inception_5a/3x3
I0403 15:14:14.688276  2844 net.cpp:386] inception_5a/relu_3x3 -> inception_5a/3x3 (in-place)
I0403 15:14:14.688635  2844 net.cpp:141] Setting up inception_5a/relu_3x3
I0403 15:14:14.688668  2844 net.cpp:148] Top shape: 24 320 7 7 (376320)
I0403 15:14:14.688688  2844 net.cpp:156] Memory required for data: 1299050016
I0403 15:14:14.688705  2844 layer_factory.hpp:77] Creating layer inception_5a/5x5_reduce
I0403 15:14:14.688735  2844 net.cpp:91] Creating Layer inception_5a/5x5_reduce
I0403 15:14:14.688758  2844 net.cpp:425] inception_5a/5x5_reduce <- pool4/3x3_s2_pool4/3x3_s2_0_split_2
I0403 15:14:14.688784  2844 net.cpp:399] inception_5a/5x5_reduce -> inception_5a/5x5_reduce
I0403 15:14:14.690222  2844 net.cpp:141] Setting up inception_5a/5x5_reduce
I0403 15:14:14.690263  2844 net.cpp:148] Top shape: 24 32 7 7 (37632)
I0403 15:14:14.690282  2844 net.cpp:156] Memory required for data: 1299200544
I0403 15:14:14.690305  2844 layer_factory.hpp:77] Creating layer inception_5a/relu_5x5_reduce
I0403 15:14:14.690330  2844 net.cpp:91] Creating Layer inception_5a/relu_5x5_reduce
I0403 15:14:14.690351  2844 net.cpp:425] inception_5a/relu_5x5_reduce <- inception_5a/5x5_reduce
I0403 15:14:14.690373  2844 net.cpp:386] inception_5a/relu_5x5_reduce -> inception_5a/5x5_reduce (in-place)
I0403 15:14:14.690740  2844 net.cpp:141] Setting up inception_5a/relu_5x5_reduce
I0403 15:14:14.690773  2844 net.cpp:148] Top shape: 24 32 7 7 (37632)
I0403 15:14:14.690793  2844 net.cpp:156] Memory required for data: 1299351072
I0403 15:14:14.690811  2844 layer_factory.hpp:77] Creating layer inception_5a/5x5
I0403 15:14:14.690842  2844 net.cpp:91] Creating Layer inception_5a/5x5
I0403 15:14:14.690865  2844 net.cpp:425] inception_5a/5x5 <- inception_5a/5x5_reduce
I0403 15:14:14.690891  2844 net.cpp:399] inception_5a/5x5 -> inception_5a/5x5
I0403 15:14:14.693060  2844 net.cpp:141] Setting up inception_5a/5x5
I0403 15:14:14.693109  2844 net.cpp:148] Top shape: 24 128 7 7 (150528)
I0403 15:14:14.693128  2844 net.cpp:156] Memory required for data: 1299953184
I0403 15:14:14.693151  2844 layer_factory.hpp:77] Creating layer inception_5a/relu_5x5
I0403 15:14:14.693173  2844 net.cpp:91] Creating Layer inception_5a/relu_5x5
I0403 15:14:14.693197  2844 net.cpp:425] inception_5a/relu_5x5 <- inception_5a/5x5
I0403 15:14:14.693218  2844 net.cpp:386] inception_5a/relu_5x5 -> inception_5a/5x5 (in-place)
I0403 15:14:14.693465  2844 net.cpp:141] Setting up inception_5a/relu_5x5
I0403 15:14:14.693496  2844 net.cpp:148] Top shape: 24 128 7 7 (150528)
I0403 15:14:14.693516  2844 net.cpp:156] Memory required for data: 1300555296
I0403 15:14:14.693533  2844 layer_factory.hpp:77] Creating layer inception_5a/pool
I0403 15:14:14.693558  2844 net.cpp:91] Creating Layer inception_5a/pool
I0403 15:14:14.693580  2844 net.cpp:425] inception_5a/pool <- pool4/3x3_s2_pool4/3x3_s2_0_split_3
I0403 15:14:14.693603  2844 net.cpp:399] inception_5a/pool -> inception_5a/pool
I0403 15:14:14.693691  2844 net.cpp:141] Setting up inception_5a/pool
I0403 15:14:14.693720  2844 net.cpp:148] Top shape: 24 832 7 7 (978432)
I0403 15:14:14.693739  2844 net.cpp:156] Memory required for data: 1304469024
I0403 15:14:14.693756  2844 layer_factory.hpp:77] Creating layer inception_5a/pool_proj
I0403 15:14:14.693783  2844 net.cpp:91] Creating Layer inception_5a/pool_proj
I0403 15:14:14.693805  2844 net.cpp:425] inception_5a/pool_proj <- inception_5a/pool
I0403 15:14:14.693831  2844 net.cpp:399] inception_5a/pool_proj -> inception_5a/pool_proj
I0403 15:14:14.696732  2844 net.cpp:141] Setting up inception_5a/pool_proj
I0403 15:14:14.696769  2844 net.cpp:148] Top shape: 24 128 7 7 (150528)
I0403 15:14:14.696789  2844 net.cpp:156] Memory required for data: 1305071136
I0403 15:14:14.696813  2844 layer_factory.hpp:77] Creating layer inception_5a/relu_pool_proj
I0403 15:14:14.696835  2844 net.cpp:91] Creating Layer inception_5a/relu_pool_proj
I0403 15:14:14.696856  2844 net.cpp:425] inception_5a/relu_pool_proj <- inception_5a/pool_proj
I0403 15:14:14.696880  2844 net.cpp:386] inception_5a/relu_pool_proj -> inception_5a/pool_proj (in-place)
I0403 15:14:14.697319  2844 net.cpp:141] Setting up inception_5a/relu_pool_proj
I0403 15:14:14.697350  2844 net.cpp:148] Top shape: 24 128 7 7 (150528)
I0403 15:14:14.697371  2844 net.cpp:156] Memory required for data: 1305673248
I0403 15:14:14.697388  2844 layer_factory.hpp:77] Creating layer inception_5a/output
I0403 15:14:14.697409  2844 net.cpp:91] Creating Layer inception_5a/output
I0403 15:14:14.697429  2844 net.cpp:425] inception_5a/output <- inception_5a/1x1
I0403 15:14:14.697450  2844 net.cpp:425] inception_5a/output <- inception_5a/3x3
I0403 15:14:14.697473  2844 net.cpp:425] inception_5a/output <- inception_5a/5x5
I0403 15:14:14.697490  2844 net.cpp:425] inception_5a/output <- inception_5a/pool_proj
I0403 15:14:14.697515  2844 net.cpp:399] inception_5a/output -> inception_5a/output
I0403 15:14:14.697576  2844 net.cpp:141] Setting up inception_5a/output
I0403 15:14:14.697605  2844 net.cpp:148] Top shape: 24 832 7 7 (978432)
I0403 15:14:14.697628  2844 net.cpp:156] Memory required for data: 1309586976
I0403 15:14:14.697648  2844 layer_factory.hpp:77] Creating layer inception_5a/output_inception_5a/output_0_split
I0403 15:14:14.697669  2844 net.cpp:91] Creating Layer inception_5a/output_inception_5a/output_0_split
I0403 15:14:14.697687  2844 net.cpp:425] inception_5a/output_inception_5a/output_0_split <- inception_5a/output
I0403 15:14:14.697708  2844 net.cpp:399] inception_5a/output_inception_5a/output_0_split -> inception_5a/output_inception_5a/output_0_split_0
I0403 15:14:14.697732  2844 net.cpp:399] inception_5a/output_inception_5a/output_0_split -> inception_5a/output_inception_5a/output_0_split_1
I0403 15:14:14.697759  2844 net.cpp:399] inception_5a/output_inception_5a/output_0_split -> inception_5a/output_inception_5a/output_0_split_2
I0403 15:14:14.697788  2844 net.cpp:399] inception_5a/output_inception_5a/output_0_split -> inception_5a/output_inception_5a/output_0_split_3
I0403 15:14:14.697928  2844 net.cpp:141] Setting up inception_5a/output_inception_5a/output_0_split
I0403 15:14:14.697957  2844 net.cpp:148] Top shape: 24 832 7 7 (978432)
I0403 15:14:14.697978  2844 net.cpp:148] Top shape: 24 832 7 7 (978432)
I0403 15:14:14.697998  2844 net.cpp:148] Top shape: 24 832 7 7 (978432)
I0403 15:14:14.698016  2844 net.cpp:148] Top shape: 24 832 7 7 (978432)
I0403 15:14:14.698032  2844 net.cpp:156] Memory required for data: 1325241888
I0403 15:14:14.698050  2844 layer_factory.hpp:77] Creating layer inception_5b/1x1
I0403 15:14:14.698076  2844 net.cpp:91] Creating Layer inception_5b/1x1
I0403 15:14:14.698098  2844 net.cpp:425] inception_5b/1x1 <- inception_5a/output_inception_5a/output_0_split_0
I0403 15:14:14.698123  2844 net.cpp:399] inception_5b/1x1 -> inception_5b/1x1
I0403 15:14:14.702739  2844 net.cpp:141] Setting up inception_5b/1x1
I0403 15:14:14.702780  2844 net.cpp:148] Top shape: 24 384 7 7 (451584)
I0403 15:14:14.702800  2844 net.cpp:156] Memory required for data: 1327048224
I0403 15:14:14.702824  2844 layer_factory.hpp:77] Creating layer inception_5b/relu_1x1
I0403 15:14:14.702847  2844 net.cpp:91] Creating Layer inception_5b/relu_1x1
I0403 15:14:14.702867  2844 net.cpp:425] inception_5b/relu_1x1 <- inception_5b/1x1
I0403 15:14:14.702891  2844 net.cpp:386] inception_5b/relu_1x1 -> inception_5b/1x1 (in-place)
I0403 15:14:14.703354  2844 net.cpp:141] Setting up inception_5b/relu_1x1
I0403 15:14:14.703389  2844 net.cpp:148] Top shape: 24 384 7 7 (451584)
I0403 15:14:14.703410  2844 net.cpp:156] Memory required for data: 1328854560
I0403 15:14:14.703429  2844 layer_factory.hpp:77] Creating layer inception_5b/3x3_reduce
I0403 15:14:14.703457  2844 net.cpp:91] Creating Layer inception_5b/3x3_reduce
I0403 15:14:14.703481  2844 net.cpp:425] inception_5b/3x3_reduce <- inception_5a/output_inception_5a/output_0_split_1
I0403 15:14:14.703505  2844 net.cpp:399] inception_5b/3x3_reduce -> inception_5b/3x3_reduce
I0403 15:14:14.706820  2844 net.cpp:141] Setting up inception_5b/3x3_reduce
I0403 15:14:14.706859  2844 net.cpp:148] Top shape: 24 192 7 7 (225792)
I0403 15:14:14.706881  2844 net.cpp:156] Memory required for data: 1329757728
I0403 15:14:14.706903  2844 layer_factory.hpp:77] Creating layer inception_5b/relu_3x3_reduce
I0403 15:14:14.706926  2844 net.cpp:91] Creating Layer inception_5b/relu_3x3_reduce
I0403 15:14:14.706946  2844 net.cpp:425] inception_5b/relu_3x3_reduce <- inception_5b/3x3_reduce
I0403 15:14:14.706971  2844 net.cpp:386] inception_5b/relu_3x3_reduce -> inception_5b/3x3_reduce (in-place)
I0403 15:14:14.707211  2844 net.cpp:141] Setting up inception_5b/relu_3x3_reduce
I0403 15:14:14.707245  2844 net.cpp:148] Top shape: 24 192 7 7 (225792)
I0403 15:14:14.707267  2844 net.cpp:156] Memory required for data: 1330660896
I0403 15:14:14.707284  2844 layer_factory.hpp:77] Creating layer inception_5b/3x3
I0403 15:14:14.707312  2844 net.cpp:91] Creating Layer inception_5b/3x3
I0403 15:14:14.707334  2844 net.cpp:425] inception_5b/3x3 <- inception_5b/3x3_reduce
I0403 15:14:14.707360  2844 net.cpp:399] inception_5b/3x3 -> inception_5b/3x3
I0403 15:14:14.715664  2844 net.cpp:141] Setting up inception_5b/3x3
I0403 15:14:14.715701  2844 net.cpp:148] Top shape: 24 384 7 7 (451584)
I0403 15:14:14.715720  2844 net.cpp:156] Memory required for data: 1332467232
I0403 15:14:14.715744  2844 layer_factory.hpp:77] Creating layer inception_5b/relu_3x3
I0403 15:14:14.715766  2844 net.cpp:91] Creating Layer inception_5b/relu_3x3
I0403 15:14:14.715785  2844 net.cpp:425] inception_5b/relu_3x3 <- inception_5b/3x3
I0403 15:14:14.715809  2844 net.cpp:386] inception_5b/relu_3x3 -> inception_5b/3x3 (in-place)
I0403 15:14:14.716176  2844 net.cpp:141] Setting up inception_5b/relu_3x3
I0403 15:14:14.716207  2844 net.cpp:148] Top shape: 24 384 7 7 (451584)
I0403 15:14:14.716226  2844 net.cpp:156] Memory required for data: 1334273568
I0403 15:14:14.716259  2844 layer_factory.hpp:77] Creating layer inception_5b/5x5_reduce
I0403 15:14:14.716306  2844 net.cpp:91] Creating Layer inception_5b/5x5_reduce
I0403 15:14:14.716331  2844 net.cpp:425] inception_5b/5x5_reduce <- inception_5a/output_inception_5a/output_0_split_2
I0403 15:14:14.716357  2844 net.cpp:399] inception_5b/5x5_reduce -> inception_5b/5x5_reduce
I0403 15:14:14.717936  2844 net.cpp:141] Setting up inception_5b/5x5_reduce
I0403 15:14:14.717973  2844 net.cpp:148] Top shape: 24 48 7 7 (56448)
I0403 15:14:14.717993  2844 net.cpp:156] Memory required for data: 1334499360
I0403 15:14:14.718015  2844 layer_factory.hpp:77] Creating layer inception_5b/relu_5x5_reduce
I0403 15:14:14.718037  2844 net.cpp:91] Creating Layer inception_5b/relu_5x5_reduce
I0403 15:14:14.718056  2844 net.cpp:425] inception_5b/relu_5x5_reduce <- inception_5b/5x5_reduce
I0403 15:14:14.718080  2844 net.cpp:386] inception_5b/relu_5x5_reduce -> inception_5b/5x5_reduce (in-place)
I0403 15:14:14.718539  2844 net.cpp:141] Setting up inception_5b/relu_5x5_reduce
I0403 15:14:14.718572  2844 net.cpp:148] Top shape: 24 48 7 7 (56448)
I0403 15:14:14.718591  2844 net.cpp:156] Memory required for data: 1334725152
I0403 15:14:14.718610  2844 layer_factory.hpp:77] Creating layer inception_5b/5x5
I0403 15:14:14.718634  2844 net.cpp:91] Creating Layer inception_5b/5x5
I0403 15:14:14.718655  2844 net.cpp:425] inception_5b/5x5 <- inception_5b/5x5_reduce
I0403 15:14:14.718679  2844 net.cpp:399] inception_5b/5x5 -> inception_5b/5x5
I0403 15:14:14.721233  2844 net.cpp:141] Setting up inception_5b/5x5
I0403 15:14:14.721272  2844 net.cpp:148] Top shape: 24 128 7 7 (150528)
I0403 15:14:14.721292  2844 net.cpp:156] Memory required for data: 1335327264
I0403 15:14:14.721314  2844 layer_factory.hpp:77] Creating layer inception_5b/relu_5x5
I0403 15:14:14.721336  2844 net.cpp:91] Creating Layer inception_5b/relu_5x5
I0403 15:14:14.721357  2844 net.cpp:425] inception_5b/relu_5x5 <- inception_5b/5x5
I0403 15:14:14.721380  2844 net.cpp:386] inception_5b/relu_5x5 -> inception_5b/5x5 (in-place)
I0403 15:14:14.721622  2844 net.cpp:141] Setting up inception_5b/relu_5x5
I0403 15:14:14.721652  2844 net.cpp:148] Top shape: 24 128 7 7 (150528)
I0403 15:14:14.721670  2844 net.cpp:156] Memory required for data: 1335929376
I0403 15:14:14.721689  2844 layer_factory.hpp:77] Creating layer inception_5b/pool
I0403 15:14:14.721714  2844 net.cpp:91] Creating Layer inception_5b/pool
I0403 15:14:14.721735  2844 net.cpp:425] inception_5b/pool <- inception_5a/output_inception_5a/output_0_split_3
I0403 15:14:14.721757  2844 net.cpp:399] inception_5b/pool -> inception_5b/pool
I0403 15:14:14.721848  2844 net.cpp:141] Setting up inception_5b/pool
I0403 15:14:14.721878  2844 net.cpp:148] Top shape: 24 832 7 7 (978432)
I0403 15:14:14.721895  2844 net.cpp:156] Memory required for data: 1339843104
I0403 15:14:14.721914  2844 layer_factory.hpp:77] Creating layer inception_5b/pool_proj
I0403 15:14:14.721940  2844 net.cpp:91] Creating Layer inception_5b/pool_proj
I0403 15:14:14.721961  2844 net.cpp:425] inception_5b/pool_proj <- inception_5b/pool
I0403 15:14:14.721987  2844 net.cpp:399] inception_5b/pool_proj -> inception_5b/pool_proj
I0403 15:14:14.724829  2844 net.cpp:141] Setting up inception_5b/pool_proj
I0403 15:14:14.724869  2844 net.cpp:148] Top shape: 24 128 7 7 (150528)
I0403 15:14:14.724889  2844 net.cpp:156] Memory required for data: 1340445216
I0403 15:14:14.724912  2844 layer_factory.hpp:77] Creating layer inception_5b/relu_pool_proj
I0403 15:14:14.724934  2844 net.cpp:91] Creating Layer inception_5b/relu_pool_proj
I0403 15:14:14.724956  2844 net.cpp:425] inception_5b/relu_pool_proj <- inception_5b/pool_proj
I0403 15:14:14.724978  2844 net.cpp:386] inception_5b/relu_pool_proj -> inception_5b/pool_proj (in-place)
I0403 15:14:14.725353  2844 net.cpp:141] Setting up inception_5b/relu_pool_proj
I0403 15:14:14.725388  2844 net.cpp:148] Top shape: 24 128 7 7 (150528)
I0403 15:14:14.725407  2844 net.cpp:156] Memory required for data: 1341047328
I0403 15:14:14.725426  2844 layer_factory.hpp:77] Creating layer inception_5b/output
I0403 15:14:14.725447  2844 net.cpp:91] Creating Layer inception_5b/output
I0403 15:14:14.725486  2844 net.cpp:425] inception_5b/output <- inception_5b/1x1
I0403 15:14:14.725507  2844 net.cpp:425] inception_5b/output <- inception_5b/3x3
I0403 15:14:14.725528  2844 net.cpp:425] inception_5b/output <- inception_5b/5x5
I0403 15:14:14.725548  2844 net.cpp:425] inception_5b/output <- inception_5b/pool_proj
I0403 15:14:14.725572  2844 net.cpp:399] inception_5b/output -> inception_5b/output
I0403 15:14:14.725636  2844 net.cpp:141] Setting up inception_5b/output
I0403 15:14:14.725664  2844 net.cpp:148] Top shape: 24 1024 7 7 (1204224)
I0403 15:14:14.725683  2844 net.cpp:156] Memory required for data: 1345864224
I0403 15:14:14.725702  2844 layer_factory.hpp:77] Creating layer pool5/7x7_s1
I0403 15:14:14.725725  2844 net.cpp:91] Creating Layer pool5/7x7_s1
I0403 15:14:14.725747  2844 net.cpp:425] pool5/7x7_s1 <- inception_5b/output
I0403 15:14:14.725770  2844 net.cpp:399] pool5/7x7_s1 -> pool5/7x7_s1
I0403 15:14:14.726042  2844 net.cpp:141] Setting up pool5/7x7_s1
I0403 15:14:14.726073  2844 net.cpp:148] Top shape: 24 1024 1 1 (24576)
I0403 15:14:14.726091  2844 net.cpp:156] Memory required for data: 1345962528
I0403 15:14:14.726109  2844 layer_factory.hpp:77] Creating layer pool5/drop_7x7_s1
I0403 15:14:14.726131  2844 net.cpp:91] Creating Layer pool5/drop_7x7_s1
I0403 15:14:14.726151  2844 net.cpp:425] pool5/drop_7x7_s1 <- pool5/7x7_s1
I0403 15:14:14.726176  2844 net.cpp:386] pool5/drop_7x7_s1 -> pool5/7x7_s1 (in-place)
I0403 15:14:14.726238  2844 net.cpp:141] Setting up pool5/drop_7x7_s1
I0403 15:14:14.726274  2844 net.cpp:148] Top shape: 24 1024 1 1 (24576)
I0403 15:14:14.726294  2844 net.cpp:156] Memory required for data: 1346060832
I0403 15:14:14.726312  2844 layer_factory.hpp:77] Creating layer loss3/classifier_plantvillage
I0403 15:14:14.726336  2844 net.cpp:91] Creating Layer loss3/classifier_plantvillage
I0403 15:14:14.726356  2844 net.cpp:425] loss3/classifier_plantvillage <- pool5/7x7_s1
I0403 15:14:14.726382  2844 net.cpp:399] loss3/classifier_plantvillage -> loss3/classifier_plantvillage
I0403 15:14:14.726905  2844 net.cpp:141] Setting up loss3/classifier_plantvillage
I0403 15:14:14.726938  2844 net.cpp:148] Top shape: 24 38 (912)
I0403 15:14:14.726958  2844 net.cpp:156] Memory required for data: 1346064480
I0403 15:14:14.726979  2844 layer_factory.hpp:77] Creating layer loss3/classifier_plantvillage_loss3/classifier_plantvillage_0_split
I0403 15:14:14.727002  2844 net.cpp:91] Creating Layer loss3/classifier_plantvillage_loss3/classifier_plantvillage_0_split
I0403 15:14:14.727021  2844 net.cpp:425] loss3/classifier_plantvillage_loss3/classifier_plantvillage_0_split <- loss3/classifier_plantvillage
I0403 15:14:14.727043  2844 net.cpp:399] loss3/classifier_plantvillage_loss3/classifier_plantvillage_0_split -> loss3/classifier_plantvillage_loss3/classifier_plantvillage_0_split_0
I0403 15:14:14.727067  2844 net.cpp:399] loss3/classifier_plantvillage_loss3/classifier_plantvillage_0_split -> loss3/classifier_plantvillage_loss3/classifier_plantvillage_0_split_1
I0403 15:14:14.727095  2844 net.cpp:399] loss3/classifier_plantvillage_loss3/classifier_plantvillage_0_split -> loss3/classifier_plantvillage_loss3/classifier_plantvillage_0_split_2
I0403 15:14:14.727123  2844 net.cpp:399] loss3/classifier_plantvillage_loss3/classifier_plantvillage_0_split -> loss3/classifier_plantvillage_loss3/classifier_plantvillage_0_split_3
I0403 15:14:14.727254  2844 net.cpp:141] Setting up loss3/classifier_plantvillage_loss3/classifier_plantvillage_0_split
I0403 15:14:14.727283  2844 net.cpp:148] Top shape: 24 38 (912)
I0403 15:14:14.727303  2844 net.cpp:148] Top shape: 24 38 (912)
I0403 15:14:14.727320  2844 net.cpp:148] Top shape: 24 38 (912)
I0403 15:14:14.727339  2844 net.cpp:148] Top shape: 24 38 (912)
I0403 15:14:14.727355  2844 net.cpp:156] Memory required for data: 1346079072
I0403 15:14:14.727373  2844 layer_factory.hpp:77] Creating layer loss1/loss
I0403 15:14:14.727401  2844 net.cpp:91] Creating Layer loss1/loss
I0403 15:14:14.727421  2844 net.cpp:425] loss1/loss <- loss1/classifier_plantvillage_loss1/classifier_plantvillage_0_split_0
I0403 15:14:14.727461  2844 net.cpp:425] loss1/loss <- label_data_1_split_0
…
