…
I0403 15:51:12.687350  3732 net.cpp:313] The NetState phase (1) differed from the phase (0) specified by a rule in layer data
I0403 15:51:12.688478  3732 net.cpp:49] Initializing net from parameters: 
state {
  phase: TEST
}
layer {
  name: "data"
  type: "Data"
  top: "data"
  top: "label"
  include {
    phase: TEST
  }
  transform_param {
    mirror: false
    crop_size: 224
    mean_file: "/home/mohanty/data/final_dataset/lmdb/grayscale-50-50/mean.binaryproto"
  }
  data_param {
    source: "/home/mohanty/data/final_dataset/lmdb/grayscale-50-50/test_db"
    batch_size: 24
    backend: LMDB
  }
}
layer {
  name: "conv1/7x7_s2"
  type: "Convolution"
  bottom: "data"
  top: "conv1/7x7_s2"
  param {
    lr_mult: 1
    decay_mult: 1
  }
  param {
    lr_mult: 2
    decay_mult: 0
  }
  convolution_param {
    num_output: 64
    pad: 3
    kernel_size: 7
    stride: 2
    weight_filler {
      type: "xavier"
      std: 0.1
    }
    bias_filler {
      type: "constant"
      value: 0.2
    }
  }
}
layer {
  name: "conv1/relu_7x7"
  type: "ReLU"
  bottom: "conv1/7x7_s2"
  top: "conv1/7x7_s2"
}
layer {
  name: "pool1/3x3_s2"
  type: "Pooling"
  bottom: "conv1/7x7_s2"
  top: "pool1/3x3_s2"
  pooling_param {
    pool: MAX
    kernel_size: 3
    stride: 2
  }
}
layer {
  name: "pool1/norm1"
  type: "LRN"
  bottom: "pool1/3x3_s2"
  top: "pool1/norm1"
  lrn_param {
    local_size: 5
    alpha: 0.0001
    beta: 0.75
  }
}
layer {
  name: "conv2/3x3_reduce"
  type: "Convolution"
  bottom: "pool1/norm1"
  top: "conv2/3x3_reduce"
  param {
    lr_mult: 1
    decay_mult: 1
  }
  param {
    lr_mult: 2
    decay_mult: 0
  }
  convolution_param {
    num_output: 64
    kernel_size: 1
    weight_filler {
      type: "xavier"
      std: 0.1
    }
    bias_filler {
      type: "constant"
      value: 0.2
    }
  }
}
layer {
  name: "conv2/relu_3x3_reduce"
  type: "ReLU"
  bottom: "conv2/3x3_reduce"
  top: "conv2/3x3_reduce"
}
layer {
  name: "conv2/3x3"
  type: "Convolution"
  bottom: "conv2/3x3_reduce"
  top: "conv2/3x3"
  param {
    lr_mult: 1
    decay_mult: 1
  }
  param {
    lr_mult: 2
    decay_mult: 0
  }
  convolution_param {
    num_output: 192
    pad: 1
    kernel_size: 3
    weight_filler {
      type: "xavier"
      std: 0.03
    }
    bias_filler {
      type: "constant"
      value: 0.2
    }
  }
}
layer {
  name: "conv2/relu_3x3"
  type: "ReLU"
  bottom: "conv2/3x3"
  top: "conv2/3x3"
}
layer {
  name: "conv2/norm2"
  type: "LRN"
  bottom: "conv2/3x3"
  top: "conv2/norm2"
  lrn_param {
    local_size: 5
    alpha: 0.0001
    beta: 0.75
  }
}
layer {
  name: "pool2/3x3_s2"
  type: "Pooling"
  bottom: "conv2/norm2"
  top: "pool2/3x3_s2"
  pooling_param {
    pool: MAX
    kernel_size: 3
    stride: 2
  }
}
layer {
  name: "inception_3a/1x1"
  type: "Convolution"
  bottom: "pool2/3x3_s2"
  top: "inception_3a/1x1"
  param {
    lr_mult: 1
    decay_mult: 1
  }
  param {
    lr_mult: 2
    decay_mult: 0
  }
  convolution_param {
    num_output: 64
    kernel_size: 1
    weight_filler {
      type: "xavier"
      std: 0.03
    }
    bias_filler {
      type: "constant"
      value: 0.2
    }
  }
}
layer {
  name: "inception_3a/relu_1x1"
  type: "ReLU"
  bottom: "inception_3a/1x1"
  top: "inception_3a/1x1"
}
layer {
  name: "inception_3a/3x3_reduce"
  type: "Convolution"
  bottom: "pool2/3x3_s2"
  top: "inception_3a/3x3_reduce"
  param {
    lr_mult: 1
    decay_mult: 1
  }
  param {
    lr_mult: 2
    decay_mult: 0
  }
  convolution_param {
    num_output: 96
    kernel_size: 1
    weight_filler {
      type: "xavier"
      std: 0.09
    }
    bias_filler {
      type: "constant"
      value: 0.2
    }
  }
}
layer {
  name: "inception_3a/relu_3x3_reduce"
  type: "ReLU"
  bottom: "inception_3a/3x3_reduce"
  top: "inception_3a/3x3_reduce"
}
layer {
  name: "inception_3a/3x3"
  type: "Convolution"
  bottom: "inception_3a/3x3_reduce"
  top: "inception_3a/3x3"
  param {
    lr_mult: 1
    decay_mult: 1
  }
  param {
    lr_mult: 2
    decay_mult: 0
  }
  convolution_param {
    num_output: 128
    pad: 1
    kernel_size: 3
    weight_filler {
      type: "xavier"
      std: 0.03
    }
    bias_filler {
      type: "constant"
      value: 0.2
    }
  }
}
layer {
  name: "inception_3a/relu_3x3"
  type: "ReLU"
  bottom: "inception_3a/3x3"
  top: "inception_3a/3x3"
}
layer {
  name: "inception_3a/5x5_reduce"
  type: "Convolution"
  bottom: "pool2/3x3_s2"
  top: "inception_3a/5x5_reduce"
  param {
    lr_mult: 1
    decay_mult: 1
  }
  param {
    lr_mult: 2
    decay_mult: 0
  }
  convolution_param {
    num_output: 16
    kernel_size: 1
    weight_filler {
      type: "xavier"
      std: 0.2
    }
    bias_filler {
      type: "constant"
      value: 0.2
    }
  }
}
layer {
  name: "inception_3a/relu_5x5_reduce"
  type: "ReLU"
  bottom: "inception_3a/5x5_reduce"
  top: "inception_3a/5x5_reduce"
}
layer {
  name: "inception_3a/5x5"
  type: "Convolution"
  bottom: "inception_3a/5x5_reduce"
  top: "inception_3a/5x5"
  param {
    lr_mult: 1
    decay_mult: 1
  }
  param {
    lr_mult: 2
    decay_mult: 0
  }
  convolution_param {
    num_output: 32
    pad: 2
    kernel_size: 5
    weight_filler {
      type: "xavier"
      std: 0.03
    }
    bias_filler {
      type: "constant"
      value: 0.2
    }
  }
}
layer {
  name: "inception_3a/relu_5x5"
  type: "ReLU"
  bottom: "inception_3a/5x5"
  top: "inception_3a/5x5"
}
layer {
  name: "inception_3a/pool"
  type: "Pooling"
  bottom: "pool2/3x3_s2"
  top: "inception_3a/pool"
  pooling_param {
    pool: MAX
    kernel_size: 3
    stride: 1
    pad: 1
  }
}
layer {
  name: "inception_3a/pool_proj"
  type: "Convolution"
  bottom: "inception_3a/pool"
  top: "inception_3a/pool_proj"
  param {
    lr_mult: 1
    decay_mult: 1
  }
  param {
    lr_mult: 2
    decay_mult: 0
  }
  convolution_param {
    num_output: 32
    kernel_size: 1
    weight_filler {
      type: "xavier"
      std: 0.1
    }
    bias_filler {
      type: "constant"
      value: 0.2
    }
  }
}
layer {
  name: "inception_3a/relu_pool_proj"
  type: "ReLU"
  bottom: "inception_3a/pool_proj"
  top: "inception_3a/pool_proj"
}
layer {
  name: "inception_3a/output"
  type: "Concat"
  bottom: "inception_3a/1x1"
  bottom: "inception_3a/3x3"
  bottom: "inception_3a/5x5"
  bottom: "inception_3a/pool_proj"
  top: "inception_3a/output"
}
layer {
  name: "inception_3b/1x1"
  type: "Convolution"
  bottom: "inception_3a/output"
  top: "inception_3b/1x1"
  param {
    lr_mult: 1
    decay_mult: 1
  }
  param {
    lr_mult: 2
    decay_mult: 0
  }
  convolution_param {
    num_output: 128
    kernel_size: 1
    weight_filler {
      type: "xavier"
      std: 0.03
    }
    bias_filler {
      type: "constant"
      value: 0.2
    }
  }
}
layer {
  name: "inception_3b/relu_1x1"
  type: "ReLU"
  bottom: "inception_3b/1x1"
  top: "inception_3b/1x1"
}
layer {
  name: "inception_3b/3x3_reduce"
  type: "Convolution"
  bottom: "inception_3a/output"
  top: "inception_3b/3x3_reduce"
  param {
    lr_mult: 1
    decay_mult: 1
  }
  param {
    lr_mult: 2
    decay_mult: 0
  }
  convolution_param {
    num_output: 128
    kernel_size: 1
    weight_filler {
      type: "xavier"
      std: 0.09
    }
    bias_filler {
      type: "constant"
      value: 0.2
    }
  }
}
layer {
  name: "inception_3b/relu_3x3_reduce"
  type: "ReLU"
  bottom: "inception_3b/3x3_reduce"
  top: "inception_3b/3x3_reduce"
}
layer {
  name: "inception_3b/3x3"
  type: "Convolution"
  bottom: "inception_3b/3x3_reduce"
  top: "inception_3b/3x3"
  param {
    lr_mult: 1
    decay_mult: 1
  }
  param {
    lr_mult: 2
    decay_mult: 0
  }
  convolution_param {
    num_output: 192
    pad: 1
    kernel_size: 3
    weight_filler {
      type: "xavier"
      std: 0.03
    }
    bias_filler {
      type: "constant"
      value: 0.2
    }
  }
}
layer {
  name: "inception_3b/relu_3x3"
  type: "ReLU"
  bottom: "inception_3b/3x3"
  top: "inception_3b/3x3"
}
layer {
  name: "inception_3b/5x5_reduce"
  type: "Convolution"
  bottom: "inception_3a/output"
  top: "inception_3b/5x5_reduce"
  param {
    lr_mult: 1
    decay_mult: 1
  }
  param {
    lr_mult: 2
    decay_mult: 0
  }
  convolution_param {
    num_output: 32
    kernel_size: 1
    weight_filler {
      type: "xavier"
      std: 0.2
    }
    bias_filler {
      type: "constant"
      value: 0.2
    }
  }
}
layer {
  name: "inception_3b/relu_5x5_reduce"
  type: "ReLU"
  bottom: "inception_3b/5x5_reduce"
  top: "inception_3b/5x5_reduce"
}
layer {
  name: "inception_3b/5x5"
  type: "Convolution"
  bottom: "inception_3b/5x5_reduce"
  top: "inception_3b/5x5"
  param {
    lr_mult: 1
    decay_mult: 1
  }
  param {
    lr_mult: 2
    decay_mult: 0
  }
  convolution_param {
    num_output: 96
    pad: 2
    kernel_size: 5
    weight_filler {
      type: "xavier"
      std: 0.03
    }
    bias_filler {
      type: "constant"
      value: 0.2
    }
  }
}
layer {
  name: "inception_3b/relu_5x5"
  type: "ReLU"
  bottom: "inception_3b/5x5"
  top: "inception_3b/5x5"
}
layer {
  name: "inception_3b/pool"
  type: "Pooling"
  bottom: "inception_3a/output"
  top: "inception_3b/pool"
  pooling_param {
    pool: MAX
    kernel_size: 3
    stride: 1
    pad: 1
  }
}
layer {
  name: "inception_3b/pool_proj"
  type: "Convolution"
  bottom: "inception_3b/pool"
  top: "inception_3b/pool_proj"
  param {
    lr_mult: 1
    decay_mult: 1
  }
  param {
    lr_mult: 2
    decay_mult: 0
  }
  convolution_param {
    num_output: 64
    kernel_size: 1
    weight_filler {
      type: "xavier"
      std: 0.1
    }
    bias_filler {
      type: "constant"
      value: 0.2
    }
  }
}
layer {
  name: "inception_3b/relu_pool_proj"
  type: "ReLU"
  bottom: "inception_3b/pool_proj"
  top: "inception_3b/pool_proj"
}
layer {
  name: "inception_3b/output"
  type: "Concat"
  bottom: "inception_3b/1x1"
  bottom: "inception_3b/3x3"
  bottom: "inception_3b/5x5"
  bottom: "inception_3b/pool_proj"
  top: "inception_3b/output"
}
layer {
  name: "pool3/3x3_s2"
  type: "Pooling"
  bottom: "inception_3b/output"
  top: "pool3/3x3_s2"
  pooling_param {
    pool: MAX
    kernel_size: 3
    stride: 2
  }
}
layer {
  name: "inception_4a/1x1"
  type: "Convolution"
  bottom: "pool3/3x3_s2"
  top: "inception_4a/1x1"
  param {
    lr_mult: 1
    decay_mult: 1
  }
  param {
    lr_mult: 2
    decay_mult: 0
  }
  convolution_param {
    num_output: 192
    kernel_size: 1
    weight_filler {
      type: "xavier"
      std: 0.03
    }
    bias_filler {
      type: "constant"
      value: 0.2
    }
  }
}
layer {
  name: "inception_4a/relu_1x1"
  type: "ReLU"
  bottom: "inception_4a/1x1"
  top: "inception_4a/1x1"
}
layer {
  name: "inception_4a/3x3_reduce"
  type: "Convolution"
  bottom: "pool3/3x3_s2"
  top: "inception_4a/3x3_reduce"
  param {
    lr_mult: 1
    decay_mult: 1
  }
  param {
    lr_mult: 2
    decay_mult: 0
  }
  convolution_param {
    num_output: 96
    kernel_size: 1
    weight_filler {
      type: "xavier"
      std: 0.09
    }
    bias_filler {
      type: "constant"
      value: 0.2
    }
  }
}
layer {
  name: "inception_4a/relu_3x3_reduce"
  type: "ReLU"
  bottom: "inception_4a/3x3_reduce"
  top: "inception_4a/3x3_reduce"
}
layer {
  name: "inception_4a/3x3"
  type: "Convolution"
  bottom: "inception_4a/3x3_reduce"
  top: "inception_4a/3x3"
  param {
    lr_mult: 1
    decay_mult: 1
  }
  param {
    lr_mult: 2
    decay_mult: 0
  }
  convolution_param {
    num_output: 208
    pad: 1
    kernel_size: 3
    weight_filler {
      type: "xavier"
      std: 0.03
    }
    bias_filler {
      type: "constant"
      value: 0.2
    }
  }
}
layer {
  name: "inception_4a/relu_3x3"
  type: "ReLU"
  bottom: "inception_4a/3x3"
  top: "inception_4a/3x3"
}
layer {
  name: "inception_4a/5x5_reduce"
  type: "Convolution"
  bottom: "pool3/3x3_s2"
  top: "inception_4a/5x5_reduce"
  param {
    lr_mult: 1
    decay_mult: 1
  }
  param {
    lr_mult: 2
    decay_mult: 0
  }
  convolution_param {
    num_output: 16
    kernel_size: 1
    weight_filler {
      type: "xavier"
      std: 0.2
    }
    bias_filler {
      type: "constant"
      value: 0.2
    }
  }
}
layer {
  name: "inception_4a/relu_5x5_reduce"
  type: "ReLU"
  bottom: "inception_4a/5x5_reduce"
  top: "inception_4a/5x5_reduce"
}
layer {
  name: "inception_4a/5x5"
  type: "Convolution"
  bottom: "inception_4a/5x5_reduce"
  top: "inception_4a/5x5"
  param {
    lr_mult: 1
    decay_mult: 1
  }
  param {
    lr_mult: 2
    decay_mult: 0
  }
  convolution_param {
    num_output: 48
    pad: 2
    kernel_size: 5
    weight_filler {
      type: "xavier"
      std: 0.03
    }
    bias_filler {
      type: "constant"
      value: 0.2
    }
  }
}
layer {
  name: "inception_4a/relu_5x5"
  type: "ReLU"
  bottom: "inception_4a/5x5"
  top: "inception_4a/5x5"
}
layer {
  name: "inception_4a/pool"
  type: "Pooling"
  bottom: "pool3/3x3_s2"
  top: "inception_4a/pool"
  pooling_param {
    pool: MAX
    kernel_size: 3
    stride: 1
    pad: 1
  }
}
layer {
  name: "inception_4a/pool_proj"
  type: "Convolution"
  bottom: "inception_4a/pool"
  top: "inception_4a/pool_proj"
  param {
    lr_mult: 1
    decay_mult: 1
  }
  param {
    lr_mult: 2
    decay_mult: 0
  }
  convolution_param {
    num_output: 64
    kernel_size: 1
    weight_filler {
      type: "xavier"
      std: 0.1
    }
    bias_filler {
      type: "constant"
      value: 0.2
    }
  }
}
layer {
  name: "inception_4a/relu_pool_proj"
  type: "ReLU"
  bottom: "inception_4a/pool_proj"
  top: "inception_4a/pool_proj"
}
layer {
  name: "inception_4a/output"
  type: "Concat"
  bottom: "inception_4a/1x1"
  bottom: "inception_4a/3x3"
  bottom: "inception_4a/5x5"
  bottom: "inception_4a/pool_proj"
  top: "inception_4a/output"
}
layer {
  name: "loss1/ave_pool"
  type: "Pooling"
  bottom: "inception_4a/output"
  top: "loss1/ave_pool"
  pooling_param {
    pool: AVE
    kernel_size: 5
    stride: 3
  }
}
layer {
  name: "loss1/conv"
  type: "Convolution"
  bottom: "loss1/ave_pool"
  top: "loss1/conv"
  param {
    lr_mult: 1
    decay_mult: 1
  }
  param {
    lr_mult: 2
    decay_mult: 0
  }
  convolution_param {
    num_output: 128
    kernel_size: 1
    weight_filler {
      type: "xavier"
      std: 0.08
    }
    bias_filler {
      type: "constant"
      value: 0.2
    }
  }
}
layer {
  name: "loss1/relu_conv"
  type: "ReLU"
  bottom: "loss1/conv"
  top: "loss1/conv"
}
layer {
  name: "loss1/fc"
  type: "InnerProduct"
  bottom: "loss1/conv"
  top: "loss1/fc"
  param {
    lr_mult: 1
    decay_mult: 1
  }
  param {
    lr_mult: 2
    decay_mult: 0
  }
  inner_product_param {
    num_output: 1024
    weight_filler {
      type: "xavier"
      std: 0.02
    }
    bias_filler {
      type: "constant"
      value: 0.2
    }
  }
}
layer {
  name: "loss1/relu_fc"
  type: "ReLU"
  bottom: "loss1/fc"
  top: "loss1/fc"
}
layer {
  name: "loss1/drop_fc"
  type: "Dropout"
  bottom: "loss1/fc"
  top: "loss1/fc"
  dropout_param {
    dropout_ratio: 0.7
  }
}
layer {
  name: "loss1/classifier_plantvillage"
  type: "InnerProduct"
  bottom: "loss1/fc"
  top: "loss1/classifier_plantvillage"
  param {
    lr_mult: 1
    decay_mult: 1
  }
  param {
    lr_mult: 2
    decay_mult: 0
  }
  inner_product_param {
    num_output: 38
    weight_filler {
      type: "xavier"
      std: 0.0009765625
    }
    bias_filler {
      type: "constant"
      value: 0
    }
  }
}
layer {
  name: "inception_4b/1x1"
  type: "Convolution"
  bottom: "inception_4a/output"
  top: "inception_4b/1x1"
  param {
    lr_mult: 1
    decay_mult: 1
  }
  param {
    lr_mult: 2
    decay_mult: 0
  }
  convolution_param {
    num_output: 160
    kernel_size: 1
    weight_filler {
      type: "xavier"
      std: 0.03
    }
    bias_filler {
      type: "constant"
      value: 0.2
    }
  }
}
layer {
  name: "inception_4b/relu_1x1"
  type: "ReLU"
  bottom: "inception_4b/1x1"
  top: "inception_4b/1x1"
}
layer {
  name: "inception_4b/3x3_reduce"
  type: "Convolution"
  bottom: "inception_4a/output"
  top: "inception_4b/3x3_reduce"
  param {
    lr_mult: 1
    decay_mult: 1
  }
  param {
    lr_mult: 2
    decay_mult: 0
  }
  convolution_param {
    num_output: 112
    kernel_size: 1
    weight_filler {
      type: "xavier"
      std: 0.09
    }
    bias_filler {
      type: "constant"
      value: 0.2
    }
  }
}
layer {
  name: "inception_4b/relu_3x3_reduce"
  type: "ReLU"
  bottom: "inception_4b/3x3_reduce"
  top: "inception_4b/3x3_reduce"
}
layer {
  name: "inception_4b/3x3"
  type: "Convolution"
  bottom: "inception_4b/3x3_reduce"
  top: "inception_4b/3x3"
  param {
    lr_mult: 1
    decay_mult: 1
  }
  param {
    lr_mult: 2
    decay_mult: 0
  }
  convolution_param {
    num_output: 224
    pad: 1
    kernel_size: 3
    weight_filler {
      type: "xavier"
      std: 0.03
    }
    bias_filler {
      type: "constant"
      value: 0.2
    }
  }
}
layer {
  name: "inception_4b/relu_3x3"
  type: "ReLU"
  bottom: "inception_4b/3x3"
  top: "inception_4b/3x3"
}
layer {
  name: "inception_4b/5x5_reduce"
  type: "Convolution"
  bottom: "inception_4a/output"
  top: "inception_4b/5x5_reduce"
  param {
    lr_mult: 1
    decay_mult: 1
  }
  param {
    lr_mult: 2
    decay_mult: 0
  }
  convolution_param {
    num_output: 24
    kernel_size: 1
    weight_filler {
      type: "xavier"
      std: 0.2
    }
    bias_filler {
      type: "constant"
      value: 0.2
    }
  }
}
layer {
  name: "inception_4b/relu_5x5_reduce"
  type: "ReLU"
  bottom: "inception_4b/5x5_reduce"
  top: "inception_4b/5x5_reduce"
}
layer {
  name: "inception_4b/5x5"
  type: "Convolution"
  bottom: "inception_4b/5x5_reduce"
  top: "inception_4b/5x5"
  param {
    lr_mult: 1
    decay_mult: 1
  }
  param {
    lr_mult: 2
    decay_mult: 0
  }
  convolution_param {
    num_output: 64
    pad: 2
    kernel_size: 5
    weight_filler {
      type: "xavier"
      std: 0.03
    }
    bias_filler {
      type: "constant"
      value: 0.2
    }
  }
}
layer {
  name: "inception_4b/relu_5x5"
  type: "ReLU"
  bottom: "inception_4b/5x5"
  top: "inception_4b/5x5"
}
layer {
  name: "inception_4b/pool"
  type: "Pooling"
  bottom: "inception_4a/output"
  top: "inception_4b/pool"
  pooling_param {
    pool: MAX
    kernel_size: 3
    stride: 1
    pad: 1
  }
}
layer {
  name: "inception_4b/pool_proj"
  type: "Convolution"
  bottom: "inception_4b/pool"
  top: "inception_4b/pool_proj"
  param {
    lr_mult: 1
    decay_mult: 1
  }
  param {
    lr_mult: 2
    decay_mult: 0
  }
  convolution_param {
    num_output: 64
    kernel_size: 1
    weight_filler {
      type: "xavier"
      std: 0.1
    }
    bias_filler {
      type: "constant"
      value: 0.2
    }
  }
}
layer {
  name: "inception_4b/relu_pool_proj"
  type: "ReLU"
  bottom: "inception_4b/pool_proj"
  top: "inception_4b/pool_proj"
}
layer {
  name: "inception_4b/output"
  type: "Concat"
  bottom: "inception_4b/1x1"
  bottom: "inception_4b/3x3"
  bottom: "inception_4b/5x5"
  bottom: "inception_4b/pool_proj"
  top: "inception_4b/output"
}
layer {
  name: "inception_4c/1x1"
  type: "Convolution"
  bottom: "inception_4b/output"
  top: "inception_4c/1x1"
  param {
    lr_mult: 1
    decay_mult: 1
  }
  param {
    lr_mult: 2
    decay_mult: 0
  }
  convolution_param {
    num_output: 128
    kernel_size: 1
    weight_filler {
      type: "xavier"
      std: 0.03
    }
    bias_filler {
      type: "constant"
      value: 0.2
    }
  }
}
layer {
  name: "inception_4c/relu_1x1"
  type: "ReLU"
  bottom: "inception_4c/1x1"
  top: "inception_4c/1x1"
}
layer {
  name: "inception_4c/3x3_reduce"
  type: "Convolution"
  bottom: "inception_4b/output"
  top: "inception_4c/3x3_reduce"
  param {
    lr_mult: 1
    decay_mult: 1
  }
  param {
    lr_mult: 2
    decay_mult: 0
  }
  convolution_param {
    num_output: 128
    kernel_size: 1
    weight_filler {
      type: "xavier"
      std: 0.09
    }
    bias_filler {
      type: "constant"
      value: 0.2
    }
  }
}
layer {
  name: "inception_4c/relu_3x3_reduce"
  type: "ReLU"
  bottom: "inception_4c/3x3_reduce"
  top: "inception_4c/3x3_reduce"
}
layer {
  name: "inception_4c/3x3"
  type: "Convolution"
  bottom: "inception_4c/3x3_reduce"
  top: "inception_4c/3x3"
  param {
    lr_mult: 1
    decay_mult: 1
  }
  param {
    lr_mult: 2
    decay_mult: 0
  }
  convolution_param {
    num_output: 256
    pad: 1
    kernel_size: 3
    weight_filler {
      type: "xavier"
      std: 0.03
    }
    bias_filler {
      type: "constant"
      value: 0.2
    }
  }
}
layer {
  name: "inception_4c/relu_3x3"
  type: "ReLU"
  bottom: "inception_4c/3x3"
  top: "inception_4c/3x3"
}
layer {
  name: "inception_4c/5x5_reduce"
  type: "Convolution"
  bottom: "inception_4b/output"
  top: "inception_4c/5x5_reduce"
  param {
    lr_mult: 1
    decay_mult: 1
  }
  param {
    lr_mult: 2
    decay_mult: 0
  }
  convolution_param {
    num_output: 24
    kernel_size: 1
    weight_filler {
      type: "xavier"
      std: 0.2
    }
    bias_filler {
      type: "constant"
      value: 0.2
    }
  }
}
layer {
  name: "inception_4c/relu_5x5_reduce"
  type: "ReLU"
  bottom: "inception_4c/5x5_reduce"
  top: "inception_4c/5x5_reduce"
}
layer {
  name: "inception_4c/5x5"
  type: "Convolution"
  bottom: "inception_4c/5x5_reduce"
  top: "inception_4c/5x5"
  param {
    lr_mult: 1
    decay_mult: 1
  }
  param {
    lr_mult: 2
    decay_mult: 0
  }
  convolution_param {
    num_output: 64
    pad: 2
    kernel_size: 5
    weight_filler {
      type: "xavier"
      std: 0.03
    }
    bias_filler {
      type: "constant"
      value: 0.2
    }
  }
}
layer {
  name: "inception_4c/relu_5x5"
  type: "ReLU"
  bottom: "inception_4c/5x5"
  top: "inception_4c/5x5"
}
layer {
  name: "inception_4c/pool"
  type: "Pooling"
  bottom: "inception_4b/output"
  top: "inception_4c/pool"
  pooling_param {
    pool: MAX
    kernel_size: 3
    stride: 1
    pad: 1
  }
}
layer {
  name: "inception_4c/pool_proj"
  type: "Convolution"
  bottom: "inception_4c/pool"
  top: "inception_4c/pool_proj"
  param {
    lr_mult: 1
    decay_mult: 1
  }
  param {
    lr_mult: 2
    decay_mult: 0
  }
  convolution_param {
    num_output: 64
    kernel_size: 1
    weight_filler {
      type: "xavier"
      std: 0.1
    }
    bias_filler {
      type: "constant"
      value: 0.2
    }
  }
}
layer {
  name: "inception_4c/relu_pool_proj"
  type: "ReLU"
  bottom: "inception_4c/pool_proj"
  top: "inception_4c/pool_proj"
}
layer {
  name: "inception_4c/output"
  type: "Concat"
  bottom: "inception_4c/1x1"
  bottom: "inception_4c/3x3"
  bottom: "inception_4c/5x5"
  bottom: "inception_4c/pool_proj"
  top: "inception_4c/output"
}
layer {
  name: "inception_4d/1x1"
  type: "Convolution"
  bottom: "inception_4c/output"
  top: "inception_4d/1x1"
  param {
    lr_mult: 1
    decay_mult: 1
  }
  param {
    lr_mult: 2
    decay_mult: 0
  }
  convolution_param {
    num_output: 112
    kernel_size: 1
    weight_filler {
      type: "xavier"
      std: 0.03
    }
    bias_filler {
      type: "constant"
      value: 0.2
    }
  }
}
layer {
  name: "inception_4d/relu_1x1"
  type: "ReLU"
  bottom: "inception_4d/1x1"
  top: "inception_4d/1x1"
}
layer {
  name: "inception_4d/3x3_reduce"
  type: "Convolution"
  bottom: "inception_4c/output"
  top: "inception_4d/3x3_reduce"
  param {
    lr_mult: 1
    decay_mult: 1
  }
  param {
    lr_mult: 2
    decay_mult: 0
  }
  convolution_param {
    num_output: 144
    kernel_size: 1
    weight_filler {
      type: "xavier"
      std: 0.09
    }
    bias_filler {
      type: "constant"
      value: 0.2
    }
  }
}
layer {
  name: "inception_4d/relu_3x3_reduce"
  type: "ReLU"
  bottom: "inception_4d/3x3_reduce"
  top: "inception_4d/3x3_reduce"
}
layer {
  name: "inception_4d/3x3"
  type: "Convolution"
  bottom: "inception_4d/3x3_reduce"
  top: "inception_4d/3x3"
  param {
    lr_mult: 1
    decay_mult: 1
  }
  param {
    lr_mult: 2
    decay_mult: 0
  }
  convolution_param {
    num_output: 288
    pad: 1
    kernel_size: 3
    weight_filler {
      type: "xavier"
      std: 0.03
    }
    bias_filler {
      type: "constant"
      value: 0.2
    }
  }
}
layer {
  name: "inception_4d/relu_3x3"
  type: "ReLU"
  bottom: "inception_4d/3x3"
  top: "inception_4d/3x3"
}
layer {
  name: "inception_4d/5x5_reduce"
  type: "Convolution"
  bottom: "inception_4c/output"
  top: "inception_4d/5x5_reduce"
  param {
    lr_mult: 1
    decay_mult: 1
  }
  param {
    lr_mult: 2
    decay_mult: 0
  }
  convolution_param {
    num_output: 32
    kernel_size: 1
    weight_filler {
      type: "xavier"
      std: 0.2
    }
    bias_filler {
      type: "constant"
      value: 0.2
    }
  }
}
layer {
  name: "inception_4d/relu_5x5_reduce"
  type: "ReLU"
  bottom: "inception_4d/5x5_reduce"
  top: "inception_4d/5x5_reduce"
}
layer {
  name: "inception_4d/5x5"
  type: "Convolution"
  bottom: "inception_4d/5x5_reduce"
  top: "inception_4d/5x5"
  param {
    lr_mult: 1
    decay_mult: 1
  }
  param {
    lr_mult: 2
    decay_mult: 0
  }
  convolution_param {
    num_output: 64
    pad: 2
    kernel_size: 5
    weight_filler {
      type: "xavier"
      std: 0.03
    }
    bias_filler {
      type: "constant"
      value: 0.2
    }
  }
}
layer {
  name: "inception_4d/relu_5x5"
  type: "ReLU"
  bottom: "inception_4d/5x5"
  top: "inception_4d/5x5"
}
layer {
  name: "inception_4d/pool"
  type: "Pooling"
  bottom: "inception_4c/output"
  top: "inception_4d/pool"
  pooling_param {
    pool: MAX
    kernel_size: 3
    stride: 1
    pad: 1
  }
}
layer {
  name: "inception_4d/pool_proj"
  type: "Convolution"
  bottom: "inception_4d/pool"
  top: "inception_4d/pool_proj"
  param {
    lr_mult: 1
    decay_mult: 1
  }
  param {
    lr_mult: 2
    decay_mult: 0
  }
  convolution_param {
    num_output: 64
    kernel_size: 1
    weight_filler {
      type: "xavier"
      std: 0.1
    }
    bias_filler {
      type: "constant"
      value: 0.2
    }
  }
}
layer {
  name: "inception_4d/relu_pool_proj"
  type: "ReLU"
  bottom: "inception_4d/pool_proj"
  top: "inception_4d/pool_proj"
}
layer {
  name: "inception_4d/output"
  type: "Concat"
  bottom: "inception_4d/1x1"
  bottom: "inception_4d/3x3"
  bottom: "inception_4d/5x5"
  bottom: "inception_4d/pool_proj"
  top: "inception_4d/output"
}
layer {
  name: "loss2/ave_pool"
  type: "Pooling"
  bottom: "inception_4d/output"
  top: "loss2/ave_pool"
  pooling_param {
    pool: AVE
    kernel_size: 5
    stride: 3
  }
}
layer {
  name: "loss2/conv"
  type: "Convolution"
  bottom: "loss2/ave_pool"
  top: "loss2/conv"
  param {
    lr_mult: 1
    decay_mult: 1
  }
  param {
    lr_mult: 2
    decay_mult: 0
  }
  convolution_param {
    num_output: 128
    kernel_size: 1
    weight_filler {
      type: "xavier"
      std: 0.08
    }
    bias_filler {
      type: "constant"
      value: 0.2
    }
  }
}
layer {
  name: "loss2/relu_conv"
  type: "ReLU"
  bottom: "loss2/conv"
  top: "loss2/conv"
}
layer {
  name: "loss2/fc"
  type: "InnerProduct"
  bottom: "loss2/conv"
  top: "loss2/fc"
  param {
    lr_mult: 1
    decay_mult: 1
  }
  param {
    lr_mult: 2
    decay_mult: 0
  }
  inner_product_param {
    num_output: 1024
    weight_filler {
      type: "xavier"
      std: 0.02
    }
    bias_filler {
      type: "constant"
      value: 0.2
    }
  }
}
layer {
  name: "loss2/relu_fc"
  type: "ReLU"
  bottom: "loss2/fc"
  top: "loss2/fc"
}
layer {
  name: "loss2/drop_fc"
  type: "Dropout"
  bottom: "loss2/fc"
  top: "loss2/fc"
  dropout_param {
    dropout_ratio: 0.7
  }
}
layer {
  name: "loss2/classifier_plantvillage"
  type: "InnerProduct"
  bottom: "loss2/fc"
  top: "loss2/classifier_plantvillage"
  param {
    lr_mult: 1
    decay_mult: 1
  }
  param {
    lr_mult: 2
    decay_mult: 0
  }
  inner_product_param {
    num_output: 38
    weight_filler {
      type: "xavier"
      std: 0.0009765625
    }
    bias_filler {
      type: "constant"
      value: 0
    }
  }
}
layer {
  name: "inception_4e/1x1"
  type: "Convolution"
  bottom: "inception_4d/output"
  top: "inception_4e/1x1"
  param {
    lr_mult: 1
    decay_mult: 1
  }
  param {
    lr_mult: 2
    decay_mult: 0
  }
  convolution_param {
    num_output: 256
    kernel_size: 1
    weight_filler {
      type: "xavier"
      std: 0.03
    }
    bias_filler {
      type: "constant"
      value: 0.2
    }
  }
}
layer {
  name: "inception_4e/relu_1x1"
  type: "ReLU"
  bottom: "inception_4e/1x1"
  top: "inception_4e/1x1"
}
layer {
  name: "inception_4e/3x3_reduce"
  type: "Convolution"
  bottom: "inception_4d/output"
  top: "inception_4e/3x3_reduce"
  param {
    lr_mult: 1
    decay_mult: 1
  }
  param {
    lr_mult: 2
    decay_mult: 0
  }
  convolution_param {
    num_output: 160
    kernel_size: 1
    weight_filler {
      type: "xavier"
      std: 0.09
    }
    bias_filler {
      type: "constant"
      value: 0.2
    }
  }
}
layer {
  name: "inception_4e/relu_3x3_reduce"
  type: "ReLU"
  bottom: "inception_4e/3x3_reduce"
  top: "inception_4e/3x3_reduce"
}
layer {
  name: "inception_4e/3x3"
  type: "Convolution"
  bottom: "inception_4e/3x3_reduce"
  top: "inception_4e/3x3"
  param {
    lr_mult: 1
    decay_mult: 1
  }
  param {
    lr_mult: 2
    decay_mult: 0
  }
  convolution_param {
    num_output: 320
    pad: 1
    kernel_size: 3
    weight_filler {
      type: "xavier"
      std: 0.03
    }
    bias_filler {
      type: "constant"
      value: 0.2
    }
  }
}
layer {
  name: "inception_4e/relu_3x3"
  type: "ReLU"
  bottom: "inception_4e/3x3"
  top: "inception_4e/3x3"
}
layer {
  name: "inception_4e/5x5_reduce"
  type: "Convolution"
  bottom: "inception_4d/output"
  top: "inception_4e/5x5_reduce"
  param {
    lr_mult: 1
    decay_mult: 1
  }
  param {
    lr_mult: 2
    decay_mult: 0
  }
  convolution_param {
    num_output: 32
    kernel_size: 1
    weight_filler {
      type: "xavier"
      std: 0.2
    }
    bias_filler {
      type: "constant"
      value: 0.2
    }
  }
}
layer {
  name: "inception_4e/relu_5x5_reduce"
  type: "ReLU"
  bottom: "inception_4e/5x5_reduce"
  top: "inception_4e/5x5_reduce"
}
layer {
  name: "inception_4e/5x5"
  type: "Convolution"
  bottom: "inception_4e/5x5_reduce"
  top: "inception_4e/
I0403 15:51:12.689741  3732 layer_factory.hpp:77] Creating layer data
I0403 15:51:12.690357  3732 net.cpp:91] Creating Layer data
I0403 15:51:12.690392  3732 net.cpp:399] data -> data
I0403 15:51:12.690444  3732 net.cpp:399] data -> label
I0403 15:51:12.690482  3732 data_transformer.cpp:25] Loading mean file from: /home/mohanty/data/final_dataset/lmdb/grayscale-50-50/mean.binaryproto
I0403 15:51:12.693511  3734 db_lmdb.cpp:38] Opened lmdb /home/mohanty/data/final_dataset/lmdb/grayscale-50-50/test_db
I0403 15:51:12.703974  3732 data_layer.cpp:41] output data size: 24,3,224,224
I0403 15:51:12.731858  3732 net.cpp:141] Setting up data
I0403 15:51:12.731958  3732 net.cpp:148] Top shape: 24 3 224 224 (3612672)
I0403 15:51:12.731983  3732 net.cpp:148] Top shape: 24 (24)
I0403 15:51:12.732000  3732 net.cpp:156] Memory required for data: 14450784
I0403 15:51:12.732031  3732 layer_factory.hpp:77] Creating layer label_data_1_split
I0403 15:51:12.732059  3732 net.cpp:91] Creating Layer label_data_1_split
I0403 15:51:12.732077  3732 net.cpp:425] label_data_1_split <- label
I0403 15:51:12.732108  3732 net.cpp:399] label_data_1_split -> label_data_1_split_0
I0403 15:51:12.732137  3732 net.cpp:399] label_data_1_split -> label_data_1_split_1
I0403 15:51:12.732158  3732 net.cpp:399] label_data_1_split -> label_data_1_split_2
I0403 15:51:12.732182  3732 net.cpp:399] label_data_1_split -> label_data_1_split_3
I0403 15:51:12.732202  3732 net.cpp:399] label_data_1_split -> label_data_1_split_4
I0403 15:51:12.732223  3732 net.cpp:399] label_data_1_split -> label_data_1_split_5
I0403 15:51:12.732252  3732 net.cpp:399] label_data_1_split -> label_data_1_split_6
I0403 15:51:12.732278  3732 net.cpp:399] label_data_1_split -> label_data_1_split_7
I0403 15:51:12.732300  3732 net.cpp:399] label_data_1_split -> label_data_1_split_8
I0403 15:51:12.732321  3732 net.cpp:399] label_data_1_split -> label_data_1_split_9
I0403 15:51:12.732439  3732 net.cpp:141] Setting up label_data_1_split
I0403 15:51:12.732462  3732 net.cpp:148] Top shape: 24 (24)
I0403 15:51:12.732480  3732 net.cpp:148] Top shape: 24 (24)
I0403 15:51:12.732496  3732 net.cpp:148] Top shape: 24 (24)
I0403 15:51:12.732513  3732 net.cpp:148] Top shape: 24 (24)
I0403 15:51:12.732529  3732 net.cpp:148] Top shape: 24 (24)
I0403 15:51:12.732544  3732 net.cpp:148] Top shape: 24 (24)
I0403 15:51:12.732561  3732 net.cpp:148] Top shape: 24 (24)
I0403 15:51:12.732576  3732 net.cpp:148] Top shape: 24 (24)
I0403 15:51:12.732594  3732 net.cpp:148] Top shape: 24 (24)
I0403 15:51:12.732609  3732 net.cpp:148] Top shape: 24 (24)
I0403 15:51:12.732656  3732 net.cpp:156] Memory required for data: 14451744
I0403 15:51:12.732671  3732 layer_factory.hpp:77] Creating layer conv1/7x7_s2
I0403 15:51:12.732704  3732 net.cpp:91] Creating Layer conv1/7x7_s2
I0403 15:51:12.732723  3732 net.cpp:425] conv1/7x7_s2 <- data
I0403 15:51:12.732743  3732 net.cpp:399] conv1/7x7_s2 -> conv1/7x7_s2
I0403 15:51:12.878885  3732 net.cpp:141] Setting up conv1/7x7_s2
I0403 15:51:12.878975  3732 net.cpp:148] Top shape: 24 64 112 112 (19267584)
I0403 15:51:12.878996  3732 net.cpp:156] Memory required for data: 91522080
I0403 15:51:12.879030  3732 layer_factory.hpp:77] Creating layer conv1/relu_7x7
I0403 15:51:12.879060  3732 net.cpp:91] Creating Layer conv1/relu_7x7
I0403 15:51:12.879081  3732 net.cpp:425] conv1/relu_7x7 <- conv1/7x7_s2
I0403 15:51:12.879153  3732 net.cpp:386] conv1/relu_7x7 -> conv1/7x7_s2 (in-place)
I0403 15:51:12.879431  3732 net.cpp:141] Setting up conv1/relu_7x7
I0403 15:51:12.879458  3732 net.cpp:148] Top shape: 24 64 112 112 (19267584)
I0403 15:51:12.879474  3732 net.cpp:156] Memory required for data: 168592416
I0403 15:51:12.879490  3732 layer_factory.hpp:77] Creating layer pool1/3x3_s2
I0403 15:51:12.879521  3732 net.cpp:91] Creating Layer pool1/3x3_s2
I0403 15:51:12.879540  3732 net.cpp:425] pool1/3x3_s2 <- conv1/7x7_s2
I0403 15:51:12.879560  3732 net.cpp:399] pool1/3x3_s2 -> pool1/3x3_s2
I0403 15:51:12.879639  3732 net.cpp:141] Setting up pool1/3x3_s2
I0403 15:51:12.879664  3732 net.cpp:148] Top shape: 24 64 56 56 (4816896)
I0403 15:51:12.879680  3732 net.cpp:156] Memory required for data: 187860000
I0403 15:51:12.879695  3732 layer_factory.hpp:77] Creating layer pool1/norm1
I0403 15:51:12.879721  3732 net.cpp:91] Creating Layer pool1/norm1
I0403 15:51:12.879740  3732 net.cpp:425] pool1/norm1 <- pool1/3x3_s2
I0403 15:51:12.879760  3732 net.cpp:399] pool1/norm1 -> pool1/norm1
I0403 15:51:12.880067  3732 net.cpp:141] Setting up pool1/norm1
I0403 15:51:12.880096  3732 net.cpp:148] Top shape: 24 64 56 56 (4816896)
I0403 15:51:12.880118  3732 net.cpp:156] Memory required for data: 207127584
I0403 15:51:12.880136  3732 layer_factory.hpp:77] Creating layer conv2/3x3_reduce
I0403 15:51:12.880162  3732 net.cpp:91] Creating Layer conv2/3x3_reduce
I0403 15:51:12.880182  3732 net.cpp:425] conv2/3x3_reduce <- pool1/norm1
I0403 15:51:12.880204  3732 net.cpp:399] conv2/3x3_reduce -> conv2/3x3_reduce
I0403 15:51:12.881669  3732 net.cpp:141] Setting up conv2/3x3_reduce
I0403 15:51:12.881700  3732 net.cpp:148] Top shape: 24 64 56 56 (4816896)
I0403 15:51:12.881717  3732 net.cpp:156] Memory required for data: 226395168
I0403 15:51:12.881739  3732 layer_factory.hpp:77] Creating layer conv2/relu_3x3_reduce
I0403 15:51:12.881758  3732 net.cpp:91] Creating Layer conv2/relu_3x3_reduce
I0403 15:51:12.881775  3732 net.cpp:425] conv2/relu_3x3_reduce <- conv2/3x3_reduce
I0403 15:51:12.881796  3732 net.cpp:386] conv2/relu_3x3_reduce -> conv2/3x3_reduce (in-place)
I0403 15:51:12.882071  3732 net.cpp:141] Setting up conv2/relu_3x3_reduce
I0403 15:51:12.882097  3732 net.cpp:148] Top shape: 24 64 56 56 (4816896)
I0403 15:51:12.882113  3732 net.cpp:156] Memory required for data: 245662752
I0403 15:51:12.882129  3732 layer_factory.hpp:77] Creating layer conv2/3x3
I0403 15:51:12.882153  3732 net.cpp:91] Creating Layer conv2/3x3
I0403 15:51:12.882172  3732 net.cpp:425] conv2/3x3 <- conv2/3x3_reduce
I0403 15:51:12.882195  3732 net.cpp:399] conv2/3x3 -> conv2/3x3
I0403 15:51:12.884671  3732 net.cpp:141] Setting up conv2/3x3
I0403 15:51:12.884704  3732 net.cpp:148] Top shape: 24 192 56 56 (14450688)
I0403 15:51:12.884722  3732 net.cpp:156] Memory required for data: 303465504
I0403 15:51:12.884745  3732 layer_factory.hpp:77] Creating layer conv2/relu_3x3
I0403 15:51:12.884766  3732 net.cpp:91] Creating Layer conv2/relu_3x3
I0403 15:51:12.884783  3732 net.cpp:425] conv2/relu_3x3 <- conv2/3x3
I0403 15:51:12.884804  3732 net.cpp:386] conv2/relu_3x3 -> conv2/3x3 (in-place)
I0403 15:51:12.884986  3732 net.cpp:141] Setting up conv2/relu_3x3
I0403 15:51:12.885015  3732 net.cpp:148] Top shape: 24 192 56 56 (14450688)
I0403 15:51:12.885061  3732 net.cpp:156] Memory required for data: 361268256
I0403 15:51:12.885078  3732 layer_factory.hpp:77] Creating layer conv2/norm2
I0403 15:51:12.885097  3732 net.cpp:91] Creating Layer conv2/norm2
I0403 15:51:12.885113  3732 net.cpp:425] conv2/norm2 <- conv2/3x3
I0403 15:51:12.885134  3732 net.cpp:399] conv2/norm2 -> conv2/norm2
I0403 15:51:12.885458  3732 net.cpp:141] Setting up conv2/norm2
I0403 15:51:12.885486  3732 net.cpp:148] Top shape: 24 192 56 56 (14450688)
I0403 15:51:12.885504  3732 net.cpp:156] Memory required for data: 419071008
I0403 15:51:12.885520  3732 layer_factory.hpp:77] Creating layer pool2/3x3_s2
I0403 15:51:12.885538  3732 net.cpp:91] Creating Layer pool2/3x3_s2
I0403 15:51:12.885555  3732 net.cpp:425] pool2/3x3_s2 <- conv2/norm2
I0403 15:51:12.885576  3732 net.cpp:399] pool2/3x3_s2 -> pool2/3x3_s2
I0403 15:51:12.885630  3732 net.cpp:141] Setting up pool2/3x3_s2
I0403 15:51:12.885658  3732 net.cpp:148] Top shape: 24 192 28 28 (3612672)
I0403 15:51:12.885674  3732 net.cpp:156] Memory required for data: 433521696
I0403 15:51:12.885690  3732 layer_factory.hpp:77] Creating layer pool2/3x3_s2_pool2/3x3_s2_0_split
I0403 15:51:12.885713  3732 net.cpp:91] Creating Layer pool2/3x3_s2_pool2/3x3_s2_0_split
I0403 15:51:12.885732  3732 net.cpp:425] pool2/3x3_s2_pool2/3x3_s2_0_split <- pool2/3x3_s2
I0403 15:51:12.885751  3732 net.cpp:399] pool2/3x3_s2_pool2/3x3_s2_0_split -> pool2/3x3_s2_pool2/3x3_s2_0_split_0
I0403 15:51:12.885818  3732 net.cpp:399] pool2/3x3_s2_pool2/3x3_s2_0_split -> pool2/3x3_s2_pool2/3x3_s2_0_split_1
I0403 15:51:12.885848  3732 net.cpp:399] pool2/3x3_s2_pool2/3x3_s2_0_split -> pool2/3x3_s2_pool2/3x3_s2_0_split_2
I0403 15:51:12.885869  3732 net.cpp:399] pool2/3x3_s2_pool2/3x3_s2_0_split -> pool2/3x3_s2_pool2/3x3_s2_0_split_3
I0403 15:51:12.885941  3732 net.cpp:141] Setting up pool2/3x3_s2_pool2/3x3_s2_0_split
I0403 15:51:12.885965  3732 net.cpp:148] Top shape: 24 192 28 28 (3612672)
I0403 15:51:12.885982  3732 net.cpp:148] Top shape: 24 192 28 28 (3612672)
I0403 15:51:12.885999  3732 net.cpp:148] Top shape: 24 192 28 28 (3612672)
I0403 15:51:12.886015  3732 net.cpp:148] Top shape: 24 192 28 28 (3612672)
I0403 15:51:12.886029  3732 net.cpp:156] Memory required for data: 491324448
I0403 15:51:12.886045  3732 layer_factory.hpp:77] Creating layer inception_3a/1x1
I0403 15:51:12.886068  3732 net.cpp:91] Creating Layer inception_3a/1x1
I0403 15:51:12.886086  3732 net.cpp:425] inception_3a/1x1 <- pool2/3x3_s2_pool2/3x3_s2_0_split_0
I0403 15:51:12.886108  3732 net.cpp:399] inception_3a/1x1 -> inception_3a/1x1
I0403 15:51:12.887740  3732 net.cpp:141] Setting up inception_3a/1x1
I0403 15:51:12.887773  3732 net.cpp:148] Top shape: 24 64 28 28 (1204224)
I0403 15:51:12.887791  3732 net.cpp:156] Memory required for data: 496141344
I0403 15:51:12.887812  3732 layer_factory.hpp:77] Creating layer inception_3a/relu_1x1
I0403 15:51:12.887832  3732 net.cpp:91] Creating Layer inception_3a/relu_1x1
I0403 15:51:12.887856  3732 net.cpp:425] inception_3a/relu_1x1 <- inception_3a/1x1
I0403 15:51:12.887877  3732 net.cpp:386] inception_3a/relu_1x1 -> inception_3a/1x1 (in-place)
I0403 15:51:12.888056  3732 net.cpp:141] Setting up inception_3a/relu_1x1
I0403 15:51:12.888082  3732 net.cpp:148] Top shape: 24 64 28 28 (1204224)
I0403 15:51:12.888099  3732 net.cpp:156] Memory required for data: 500958240
I0403 15:51:12.888115  3732 layer_factory.hpp:77] Creating layer inception_3a/3x3_reduce
I0403 15:51:12.888137  3732 net.cpp:91] Creating Layer inception_3a/3x3_reduce
I0403 15:51:12.888156  3732 net.cpp:425] inception_3a/3x3_reduce <- pool2/3x3_s2_pool2/3x3_s2_0_split_1
I0403 15:51:12.888178  3732 net.cpp:399] inception_3a/3x3_reduce -> inception_3a/3x3_reduce
I0403 15:51:12.889892  3732 net.cpp:141] Setting up inception_3a/3x3_reduce
I0403 15:51:12.889924  3732 net.cpp:148] Top shape: 24 96 28 28 (1806336)
I0403 15:51:12.889940  3732 net.cpp:156] Memory required for data: 508183584
I0403 15:51:12.889962  3732 layer_factory.hpp:77] Creating layer inception_3a/relu_3x3_reduce
I0403 15:51:12.890002  3732 net.cpp:91] Creating Layer inception_3a/relu_3x3_reduce
I0403 15:51:12.890022  3732 net.cpp:425] inception_3a/relu_3x3_reduce <- inception_3a/3x3_reduce
I0403 15:51:12.890040  3732 net.cpp:386] inception_3a/relu_3x3_reduce -> inception_3a/3x3_reduce (in-place)
I0403 15:51:12.890229  3732 net.cpp:141] Setting up inception_3a/relu_3x3_reduce
I0403 15:51:12.890272  3732 net.cpp:148] Top shape: 24 96 28 28 (1806336)
I0403 15:51:12.890290  3732 net.cpp:156] Memory required for data: 515408928
I0403 15:51:12.890305  3732 layer_factory.hpp:77] Creating layer inception_3a/3x3
I0403 15:51:12.890331  3732 net.cpp:91] Creating Layer inception_3a/3x3
I0403 15:51:12.890348  3732 net.cpp:425] inception_3a/3x3 <- inception_3a/3x3_reduce
I0403 15:51:12.890372  3732 net.cpp:399] inception_3a/3x3 -> inception_3a/3x3
I0403 15:51:12.892061  3732 net.cpp:141] Setting up inception_3a/3x3
I0403 15:51:12.892091  3732 net.cpp:148] Top shape: 24 128 28 28 (2408448)
I0403 15:51:12.892107  3732 net.cpp:156] Memory required for data: 525042720
I0403 15:51:12.892127  3732 layer_factory.hpp:77] Creating layer inception_3a/relu_3x3
I0403 15:51:12.892146  3732 net.cpp:91] Creating Layer inception_3a/relu_3x3
I0403 15:51:12.892164  3732 net.cpp:425] inception_3a/relu_3x3 <- inception_3a/3x3
I0403 15:51:12.892182  3732 net.cpp:386] inception_3a/relu_3x3 -> inception_3a/3x3 (in-place)
I0403 15:51:12.892489  3732 net.cpp:141] Setting up inception_3a/relu_3x3
I0403 15:51:12.892518  3732 net.cpp:148] Top shape: 24 128 28 28 (2408448)
I0403 15:51:12.892546  3732 net.cpp:156] Memory required for data: 534676512
I0403 15:51:12.892565  3732 layer_factory.hpp:77] Creating layer inception_3a/5x5_reduce
I0403 15:51:12.892590  3732 net.cpp:91] Creating Layer inception_3a/5x5_reduce
I0403 15:51:12.892608  3732 net.cpp:425] inception_3a/5x5_reduce <- pool2/3x3_s2_pool2/3x3_s2_0_split_2
I0403 15:51:12.892632  3732 net.cpp:399] inception_3a/5x5_reduce -> inception_3a/5x5_reduce
I0403 15:51:12.893611  3732 net.cpp:141] Setting up inception_3a/5x5_reduce
I0403 15:51:12.893640  3732 net.cpp:148] Top shape: 24 16 28 28 (301056)
I0403 15:51:12.893657  3732 net.cpp:156] Memory required for data: 535880736
I0403 15:51:12.893677  3732 layer_factory.hpp:77] Creating layer inception_3a/relu_5x5_reduce
I0403 15:51:12.893699  3732 net.cpp:91] Creating Layer inception_3a/relu_5x5_reduce
I0403 15:51:12.893719  3732 net.cpp:425] inception_3a/relu_5x5_reduce <- inception_3a/5x5_reduce
I0403 15:51:12.893738  3732 net.cpp:386] inception_3a/relu_5x5_reduce -> inception_3a/5x5_reduce (in-place)
I0403 15:51:12.894037  3732 net.cpp:141] Setting up inception_3a/relu_5x5_reduce
I0403 15:51:12.894068  3732 net.cpp:148] Top shape: 24 16 28 28 (301056)
I0403 15:51:12.894084  3732 net.cpp:156] Memory required for data: 537084960
I0403 15:51:12.894100  3732 layer_factory.hpp:77] Creating layer inception_3a/5x5
I0403 15:51:12.894121  3732 net.cpp:91] Creating Layer inception_3a/5x5
I0403 15:51:12.894140  3732 net.cpp:425] inception_3a/5x5 <- inception_3a/5x5_reduce
I0403 15:51:12.894161  3732 net.cpp:399] inception_3a/5x5 -> inception_3a/5x5
I0403 15:51:12.895223  3732 net.cpp:141] Setting up inception_3a/5x5
I0403 15:51:12.895257  3732 net.cpp:148] Top shape: 24 32 28 28 (602112)
I0403 15:51:12.895275  3732 net.cpp:156] Memory required for data: 539493408
I0403 15:51:12.895294  3732 layer_factory.hpp:77] Creating layer inception_3a/relu_5x5
I0403 15:51:12.895318  3732 net.cpp:91] Creating Layer inception_3a/relu_5x5
I0403 15:51:12.895337  3732 net.cpp:425] inception_3a/relu_5x5 <- inception_3a/5x5
I0403 15:51:12.895356  3732 net.cpp:386] inception_3a/relu_5x5 -> inception_3a/5x5 (in-place)
I0403 15:51:12.895532  3732 net.cpp:141] Setting up inception_3a/relu_5x5
I0403 15:51:12.895558  3732 net.cpp:148] Top shape: 24 32 28 28 (602112)
I0403 15:51:12.895573  3732 net.cpp:156] Memory required for data: 541901856
I0403 15:51:12.895588  3732 layer_factory.hpp:77] Creating layer inception_3a/pool
I0403 15:51:12.895609  3732 net.cpp:91] Creating Layer inception_3a/pool
I0403 15:51:12.895639  3732 net.cpp:425] inception_3a/pool <- pool2/3x3_s2_pool2/3x3_s2_0_split_3
I0403 15:51:12.895658  3732 net.cpp:399] inception_3a/pool -> inception_3a/pool
I0403 15:51:12.895717  3732 net.cpp:141] Setting up inception_3a/pool
I0403 15:51:12.895741  3732 net.cpp:148] Top shape: 24 192 28 28 (3612672)
I0403 15:51:12.895757  3732 net.cpp:156] Memory required for data: 556352544
I0403 15:51:12.895772  3732 layer_factory.hpp:77] Creating layer inception_3a/pool_proj
I0403 15:51:12.895795  3732 net.cpp:91] Creating Layer inception_3a/pool_proj
I0403 15:51:12.895814  3732 net.cpp:425] inception_3a/pool_proj <- inception_3a/pool
I0403 15:51:12.895838  3732 net.cpp:399] inception_3a/pool_proj -> inception_3a/pool_proj
I0403 15:51:12.896831  3732 net.cpp:141] Setting up inception_3a/pool_proj
I0403 15:51:12.896862  3732 net.cpp:148] Top shape: 24 32 28 28 (602112)
I0403 15:51:12.896880  3732 net.cpp:156] Memory required for data: 558760992
I0403 15:51:12.896903  3732 layer_factory.hpp:77] Creating layer inception_3a/relu_pool_proj
I0403 15:51:12.896925  3732 net.cpp:91] Creating Layer inception_3a/relu_pool_proj
I0403 15:51:12.896944  3732 net.cpp:425] inception_3a/relu_pool_proj <- inception_3a/pool_proj
I0403 15:51:12.896962  3732 net.cpp:386] inception_3a/relu_pool_proj -> inception_3a/pool_proj (in-place)
I0403 15:51:12.897245  3732 net.cpp:141] Setting up inception_3a/relu_pool_proj
I0403 15:51:12.897272  3732 net.cpp:148] Top shape: 24 32 28 28 (602112)
I0403 15:51:12.897289  3732 net.cpp:156] Memory required for data: 561169440
I0403 15:51:12.897305  3732 layer_factory.hpp:77] Creating layer inception_3a/output
I0403 15:51:12.897323  3732 net.cpp:91] Creating Layer inception_3a/output
I0403 15:51:12.897339  3732 net.cpp:425] inception_3a/output <- inception_3a/1x1
I0403 15:51:12.897361  3732 net.cpp:425] inception_3a/output <- inception_3a/3x3
I0403 15:51:12.897377  3732 net.cpp:425] inception_3a/output <- inception_3a/5x5
I0403 15:51:12.897394  3732 net.cpp:425] inception_3a/output <- inception_3a/pool_proj
I0403 15:51:12.897411  3732 net.cpp:399] inception_3a/output -> inception_3a/output
I0403 15:51:12.897459  3732 net.cpp:141] Setting up inception_3a/output
I0403 15:51:12.897485  3732 net.cpp:148] Top shape: 24 256 28 28 (4816896)
I0403 15:51:12.897502  3732 net.cpp:156] Memory required for data: 580437024
I0403 15:51:12.897517  3732 layer_factory.hpp:77] Creating layer inception_3a/output_inception_3a/output_0_split
I0403 15:51:12.897536  3732 net.cpp:91] Creating Layer inception_3a/output_inception_3a/output_0_split
I0403 15:51:12.897552  3732 net.cpp:425] inception_3a/output_inception_3a/output_0_split <- inception_3a/output
I0403 15:51:12.897572  3732 net.cpp:399] inception_3a/output_inception_3a/output_0_split -> inception_3a/output_inception_3a/output_0_split_0
I0403 15:51:12.897594  3732 net.cpp:399] inception_3a/output_inception_3a/output_0_split -> inception_3a/output_inception_3a/output_0_split_1
I0403 15:51:12.897619  3732 net.cpp:399] inception_3a/output_inception_3a/output_0_split -> inception_3a/output_inception_3a/output_0_split_2
I0403 15:51:12.897644  3732 net.cpp:399] inception_3a/output_inception_3a/output_0_split -> inception_3a/output_inception_3a/output_0_split_3
I0403 15:51:12.897721  3732 net.cpp:141] Setting up inception_3a/output_inception_3a/output_0_split
I0403 15:51:12.897743  3732 net.cpp:148] Top shape: 24 256 28 28 (4816896)
I0403 15:51:12.897763  3732 net.cpp:148] Top shape: 24 256 28 28 (4816896)
I0403 15:51:12.897781  3732 net.cpp:148] Top shape: 24 256 28 28 (4816896)
I0403 15:51:12.897799  3732 net.cpp:148] Top shape: 24 256 28 28 (4816896)
I0403 15:51:12.897812  3732 net.cpp:156] Memory required for data: 657507360
I0403 15:51:12.897827  3732 layer_factory.hpp:77] Creating layer inception_3b/1x1
I0403 15:51:12.897850  3732 net.cpp:91] Creating Layer inception_3b/1x1
I0403 15:51:12.897867  3732 net.cpp:425] inception_3b/1x1 <- inception_3a/output_inception_3a/output_0_split_0
I0403 15:51:12.897891  3732 net.cpp:399] inception_3b/1x1 -> inception_3b/1x1
I0403 15:51:12.899051  3732 net.cpp:141] Setting up inception_3b/1x1
I0403 15:51:12.899091  3732 net.cpp:148] Top shape: 24 128 28 28 (2408448)
I0403 15:51:12.899108  3732 net.cpp:156] Memory required for data: 667141152
I0403 15:51:12.899127  3732 layer_factory.hpp:77] Creating layer inception_3b/relu_1x1
I0403 15:51:12.899147  3732 net.cpp:91] Creating Layer inception_3b/relu_1x1
I0403 15:51:12.899163  3732 net.cpp:425] inception_3b/relu_1x1 <- inception_3b/1x1
I0403 15:51:12.899183  3732 net.cpp:386] inception_3b/relu_1x1 -> inception_3b/1x1 (in-place)
I0403 15:51:12.899365  3732 net.cpp:141] Setting up inception_3b/relu_1x1
I0403 15:51:12.899394  3732 net.cpp:148] Top shape: 24 128 28 28 (2408448)
I0403 15:51:12.899410  3732 net.cpp:156] Memory required for data: 676774944
I0403 15:51:12.899425  3732 layer_factory.hpp:77] Creating layer inception_3b/3x3_reduce
I0403 15:51:12.899448  3732 net.cpp:91] Creating Layer inception_3b/3x3_reduce
I0403 15:51:12.899468  3732 net.cpp:425] inception_3b/3x3_reduce <- inception_3a/output_inception_3a/output_0_split_1
I0403 15:51:12.899492  3732 net.cpp:399] inception_3b/3x3_reduce -> inception_3b/3x3_reduce
I0403 15:51:12.900655  3732 net.cpp:141] Setting up inception_3b/3x3_reduce
I0403 15:51:12.900686  3732 net.cpp:148] Top shape: 24 128 28 28 (2408448)
I0403 15:51:12.900704  3732 net.cpp:156] Memory required for data: 686408736
I0403 15:51:12.900723  3732 layer_factory.hpp:77] Creating layer inception_3b/relu_3x3_reduce
I0403 15:51:12.900741  3732 net.cpp:91] Creating Layer inception_3b/relu_3x3_reduce
I0403 15:51:12.900758  3732 net.cpp:425] inception_3b/relu_3x3_reduce <- inception_3b/3x3_reduce
I0403 15:51:12.900780  3732 net.cpp:386] inception_3b/relu_3x3_reduce -> inception_3b/3x3_reduce (in-place)
I0403 15:51:12.900960  3732 net.cpp:141] Setting up inception_3b/relu_3x3_reduce
I0403 15:51:12.900986  3732 net.cpp:148] Top shape: 24 128 28 28 (2408448)
I0403 15:51:12.901002  3732 net.cpp:156] Memory required for data: 696042528
I0403 15:51:12.901017  3732 layer_factory.hpp:77] Creating layer inception_3b/3x3
I0403 15:51:12.901044  3732 net.cpp:91] Creating Layer inception_3b/3x3
I0403 15:51:12.901063  3732 net.cpp:425] inception_3b/3x3 <- inception_3b/3x3_reduce
I0403 15:51:12.901083  3732 net.cpp:399] inception_3b/3x3 -> inception_3b/3x3
I0403 15:51:12.904067  3732 net.cpp:141] Setting up inception_3b/3x3
I0403 15:51:12.904099  3732 net.cpp:148] Top shape: 24 192 28 28 (3612672)
I0403 15:51:12.904119  3732 net.cpp:156] Memory required for data: 710493216
I0403 15:51:12.904139  3732 layer_factory.hpp:77] Creating layer inception_3b/relu_3x3
I0403 15:51:12.904162  3732 net.cpp:91] Creating Layer inception_3b/relu_3x3
I0403 15:51:12.904183  3732 net.cpp:425] inception_3b/relu_3x3 <- inception_3b/3x3
I0403 15:51:12.904201  3732 net.cpp:386] inception_3b/relu_3x3 -> inception_3b/3x3 (in-place)
I0403 15:51:12.904489  3732 net.cpp:141] Setting up inception_3b/relu_3x3
I0403 15:51:12.904515  3732 net.cpp:148] Top shape: 24 192 28 28 (3612672)
I0403 15:51:12.904531  3732 net.cpp:156] Memory required for data: 724943904
I0403 15:51:12.904547  3732 layer_factory.hpp:77] Creating layer inception_3b/5x5_reduce
I0403 15:51:12.904570  3732 net.cpp:91] Creating Layer inception_3b/5x5_reduce
I0403 15:51:12.904589  3732 net.cpp:425] inception_3b/5x5_reduce <- inception_3a/output_inception_3a/output_0_split_2
I0403 15:51:12.904613  3732 net.cpp:399] inception_3b/5x5_reduce -> inception_3b/5x5_reduce
I0403 15:51:12.905627  3732 net.cpp:141] Setting up inception_3b/5x5_reduce
I0403 15:51:12.905654  3732 net.cpp:148] Top shape: 24 32 28 28 (602112)
I0403 15:51:12.905671  3732 net.cpp:156] Memory required for data: 727352352
I0403 15:51:12.905690  3732 layer_factory.hpp:77] Creating layer inception_3b/relu_5x5_reduce
I0403 15:51:12.905715  3732 net.cpp:91] Creating Layer inception_3b/relu_5x5_reduce
I0403 15:51:12.905733  3732 net.cpp:425] inception_3b/relu_5x5_reduce <- inception_3b/5x5_reduce
I0403 15:51:12.905751  3732 net.cpp:386] inception_3b/relu_5x5_reduce -> inception_3b/5x5_reduce (in-place)
I0403 15:51:12.905946  3732 net.cpp:141] Setting up inception_3b/relu_5x5_reduce
I0403 15:51:12.905972  3732 net.cpp:148] Top shape: 24 32 28 28 (602112)
I0403 15:51:12.905987  3732 net.cpp:156] Memory required for data: 729760800
I0403 15:51:12.906003  3732 layer_factory.hpp:77] Creating layer inception_3b/5x5
I0403 15:51:12.906029  3732 net.cpp:91] Creating Layer inception_3b/5x5
I0403 15:51:12.906051  3732 net.cpp:425] inception_3b/5x5 <- inception_3b/5x5_reduce
I0403 15:51:12.906072  3732 net.cpp:399] inception_3b/5x5 -> inception_3b/5x5
I0403 15:51:12.908084  3732 net.cpp:141] Setting up inception_3b/5x5
I0403 15:51:12.908116  3732 net.cpp:148] Top shape: 24 96 28 28 (1806336)
I0403 15:51:12.908135  3732 net.cpp:156] Memory required for data: 736986144
I0403 15:51:12.908154  3732 layer_factory.hpp:77] Creating layer inception_3b/relu_5x5
I0403 15:51:12.908172  3732 net.cpp:91] Creating Layer inception_3b/relu_5x5
I0403 15:51:12.908190  3732 net.cpp:425] inception_3b/relu_5x5 <- inception_3b/5x5
I0403 15:51:12.908210  3732 net.cpp:386] inception_3b/relu_5x5 -> inception_3b/5x5 (in-place)
I0403 15:51:12.908411  3732 net.cpp:141] Setting up inception_3b/relu_5x5
I0403 15:51:12.908437  3732 net.cpp:148] Top shape: 24 96 28 28 (1806336)
I0403 15:51:12.908453  3732 net.cpp:156] Memory required for data: 744211488
I0403 15:51:12.908469  3732 layer_factory.hpp:77] Creating layer inception_3b/pool
I0403 15:51:12.908488  3732 net.cpp:91] Creating Layer inception_3b/pool
I0403 15:51:12.908504  3732 net.cpp:425] inception_3b/pool <- inception_3a/output_inception_3a/output_0_split_3
I0403 15:51:12.908524  3732 net.cpp:399] inception_3b/pool -> inception_3b/pool
I0403 15:51:12.908581  3732 net.cpp:141] Setting up inception_3b/pool
I0403 15:51:12.908607  3732 net.cpp:148] Top shape: 24 256 28 28 (4816896)
I0403 15:51:12.908623  3732 net.cpp:156] Memory required for data: 763479072
I0403 15:51:12.908640  3732 layer_factory.hpp:77] Creating layer inception_3b/pool_proj
I0403 15:51:12.908666  3732 net.cpp:91] Creating Layer inception_3b/pool_proj
I0403 15:51:12.908685  3732 net.cpp:425] inception_3b/pool_proj <- inception_3b/pool
I0403 15:51:12.908704  3732 net.cpp:399] inception_3b/pool_proj -> inception_3b/pool_proj
I0403 15:51:12.909778  3732 net.cpp:141] Setting up inception_3b/pool_proj
I0403 15:51:12.909807  3732 net.cpp:148] Top shape: 24 64 28 28 (1204224)
I0403 15:51:12.909824  3732 net.cpp:156] Memory required for data: 768295968
I0403 15:51:12.909843  3732 layer_factory.hpp:77] Creating layer inception_3b/relu_pool_proj
I0403 15:51:12.909864  3732 net.cpp:91] Creating Layer inception_3b/relu_pool_proj
I0403 15:51:12.909883  3732 net.cpp:425] inception_3b/relu_pool_proj <- inception_3b/pool_proj
I0403 15:51:12.909900  3732 net.cpp:386] inception_3b/relu_pool_proj -> inception_3b/pool_proj (in-place)
I0403 15:51:12.910298  3732 net.cpp:141] Setting up inception_3b/relu_pool_proj
I0403 15:51:12.910326  3732 net.cpp:148] Top shape: 24 64 28 28 (1204224)
I0403 15:51:12.910341  3732 net.cpp:156] Memory required for data: 773112864
I0403 15:51:12.910356  3732 layer_factory.hpp:77] Creating layer inception_3b/output
I0403 15:51:12.910378  3732 net.cpp:91] Creating Layer inception_3b/output
I0403 15:51:12.910397  3732 net.cpp:425] inception_3b/output <- inception_3b/1x1
I0403 15:51:12.910416  3732 net.cpp:425] inception_3b/output <- inception_3b/3x3
I0403 15:51:12.910435  3732 net.cpp:425] inception_3b/output <- inception_3b/5x5
I0403 15:51:12.910454  3732 net.cpp:425] inception_3b/output <- inception_3b/pool_proj
I0403 15:51:12.910471  3732 net.cpp:399] inception_3b/output -> inception_3b/output
I0403 15:51:12.910519  3732 net.cpp:141] Setting up inception_3b/output
I0403 15:51:12.910544  3732 net.cpp:148] Top shape: 24 480 28 28 (9031680)
I0403 15:51:12.910562  3732 net.cpp:156] Memory required for data: 809239584
I0403 15:51:12.910578  3732 layer_factory.hpp:77] Creating layer pool3/3x3_s2
I0403 15:51:12.910596  3732 net.cpp:91] Creating Layer pool3/3x3_s2
I0403 15:51:12.910614  3732 net.cpp:425] pool3/3x3_s2 <- inception_3b/output
I0403 15:51:12.910652  3732 net.cpp:399] pool3/3x3_s2 -> pool3/3x3_s2
I0403 15:51:12.910713  3732 net.cpp:141] Setting up pool3/3x3_s2
I0403 15:51:12.910740  3732 net.cpp:148] Top shape: 24 480 14 14 (2257920)
I0403 15:51:12.910756  3732 net.cpp:156] Memory required for data: 818271264
I0403 15:51:12.910773  3732 layer_factory.hpp:77] Creating layer pool3/3x3_s2_pool3/3x3_s2_0_split
I0403 15:51:12.910790  3732 net.cpp:91] Creating Layer pool3/3x3_s2_pool3/3x3_s2_0_split
I0403 15:51:12.910806  3732 net.cpp:425] pool3/3x3_s2_pool3/3x3_s2_0_split <- pool3/3x3_s2
I0403 15:51:12.910823  3732 net.cpp:399] pool3/3x3_s2_pool3/3x3_s2_0_split -> pool3/3x3_s2_pool3/3x3_s2_0_split_0
I0403 15:51:12.910846  3732 net.cpp:399] pool3/3x3_s2_pool3/3x3_s2_0_split -> pool3/3x3_s2_pool3/3x3_s2_0_split_1
I0403 15:51:12.910868  3732 net.cpp:399] pool3/3x3_s2_pool3/3x3_s2_0_split -> pool3/3x3_s2_pool3/3x3_s2_0_split_2
I0403 15:51:12.910889  3732 net.cpp:399] pool3/3x3_s2_pool3/3x3_s2_0_split -> pool3/3x3_s2_pool3/3x3_s2_0_split_3
I0403 15:51:12.910969  3732 net.cpp:141] Setting up pool3/3x3_s2_pool3/3x3_s2_0_split
I0403 15:51:12.910992  3732 net.cpp:148] Top shape: 24 480 14 14 (2257920)
I0403 15:51:12.911010  3732 net.cpp:148] Top shape: 24 480 14 14 (2257920)
I0403 15:51:12.911026  3732 net.cpp:148] Top shape: 24 480 14 14 (2257920)
I0403 15:51:12.911042  3732 net.cpp:148] Top shape: 24 480 14 14 (2257920)
I0403 15:51:12.911056  3732 net.cpp:156] Memory required for data: 854397984
I0403 15:51:12.911072  3732 layer_factory.hpp:77] Creating layer inception_4a/1x1
I0403 15:51:12.911098  3732 net.cpp:91] Creating Layer inception_4a/1x1
I0403 15:51:12.911118  3732 net.cpp:425] inception_4a/1x1 <- pool3/3x3_s2_pool3/3x3_s2_0_split_0
I0403 15:51:12.911136  3732 net.cpp:399] inception_4a/1x1 -> inception_4a/1x1
I0403 15:51:12.912752  3732 net.cpp:141] Setting up inception_4a/1x1
I0403 15:51:12.912787  3732 net.cpp:148] Top shape: 24 192 14 14 (903168)
I0403 15:51:12.912806  3732 net.cpp:156] Memory required for data: 858010656
I0403 15:51:12.912824  3732 layer_factory.hpp:77] Creating layer inception_4a/relu_1x1
I0403 15:51:12.912843  3732 net.cpp:91] Creating Layer inception_4a/relu_1x1
I0403 15:51:12.912859  3732 net.cpp:425] inception_4a/relu_1x1 <- inception_4a/1x1
I0403 15:51:12.912880  3732 net.cpp:386] inception_4a/relu_1x1 -> inception_4a/1x1 (in-place)
I0403 15:51:12.913060  3732 net.cpp:141] Setting up inception_4a/relu_1x1
I0403 15:51:12.913086  3732 net.cpp:148] Top shape: 24 192 14 14 (903168)
I0403 15:51:12.913102  3732 net.cpp:156] Memory required for data: 861623328
I0403 15:51:12.913117  3732 layer_factory.hpp:77] Creating layer inception_4a/3x3_reduce
I0403 15:51:12.913141  3732 net.cpp:91] Creating Layer inception_4a/3x3_reduce
I0403 15:51:12.913158  3732 net.cpp:425] inception_4a/3x3_reduce <- pool3/3x3_s2_pool3/3x3_s2_0_split_1
I0403 15:51:12.913180  3732 net.cpp:399] inception_4a/3x3_reduce -> inception_4a/3x3_reduce
I0403 15:51:12.914532  3732 net.cpp:141] Setting up inception_4a/3x3_reduce
I0403 15:51:12.914563  3732 net.cpp:148] Top shape: 24 96 14 14 (451584)
I0403 15:51:12.914580  3732 net.cpp:156] Memory required for data: 863429664
I0403 15:51:12.914604  3732 layer_factory.hpp:77] Creating layer inception_4a/relu_3x3_reduce
I0403 15:51:12.914626  3732 net.cpp:91] Creating Layer inception_4a/relu_3x3_reduce
I0403 15:51:12.914644  3732 net.cpp:425] inception_4a/relu_3x3_reduce <- inception_4a/3x3_reduce
I0403 15:51:12.914664  3732 net.cpp:386] inception_4a/relu_3x3_reduce -> inception_4a/3x3_reduce (in-place)
I0403 15:51:12.914842  3732 net.cpp:141] Setting up inception_4a/relu_3x3_reduce
I0403 15:51:12.914868  3732 net.cpp:148] Top shape: 24 96 14 14 (451584)
I0403 15:51:12.914885  3732 net.cpp:156] Memory required for data: 865236000
I0403 15:51:12.914899  3732 layer_factory.hpp:77] Creating layer inception_4a/3x3
I0403 15:51:12.914923  3732 net.cpp:91] Creating Layer inception_4a/3x3
I0403 15:51:12.914942  3732 net.cpp:425] inception_4a/3x3 <- inception_4a/3x3_reduce
I0403 15:51:12.914963  3732 net.cpp:399] inception_4a/3x3 -> inception_4a/3x3
I0403 15:51:12.917738  3732 net.cpp:141] Setting up inception_4a/3x3
I0403 15:51:12.917770  3732 net.cpp:148] Top shape: 24 208 14 14 (978432)
I0403 15:51:12.917788  3732 net.cpp:156] Memory required for data: 869149728
I0403 15:51:12.917807  3732 layer_factory.hpp:77] Creating layer inception_4a/relu_3x3
I0403 15:51:12.917826  3732 net.cpp:91] Creating Layer inception_4a/relu_3x3
I0403 15:51:12.917843  3732 net.cpp:425] inception_4a/relu_3x3 <- inception_4a/3x3
I0403 15:51:12.917865  3732 net.cpp:386] inception_4a/relu_3x3 -> inception_4a/3x3 (in-place)
I0403 15:51:12.918149  3732 net.cpp:141] Setting up inception_4a/relu_3x3
I0403 15:51:12.918181  3732 net.cpp:148] Top shape: 24 208 14 14 (978432)
I0403 15:51:12.918200  3732 net.cpp:156] Memory required for data: 873063456
I0403 15:51:12.918216  3732 layer_factory.hpp:77] Creating layer inception_4a/5x5_reduce
I0403 15:51:12.918248  3732 net.cpp:91] Creating Layer inception_4a/5x5_reduce
I0403 15:51:12.918269  3732 net.cpp:425] inception_4a/5x5_reduce <- pool3/3x3_s2_pool3/3x3_s2_0_split_2
I0403 15:51:12.918293  3732 net.cpp:399] inception_4a/5x5_reduce -> inception_4a/5x5_reduce
I0403 15:51:12.919333  3732 net.cpp:141] Setting up inception_4a/5x5_reduce
I0403 15:51:12.919363  3732 net.cpp:148] Top shape: 24 16 14 14 (75264)
I0403 15:51:12.919378  3732 net.cpp:156] Memory required for data: 873364512
I0403 15:51:12.919397  3732 layer_factory.hpp:77] Creating layer inception_4a/relu_5x5_reduce
I0403 15:51:12.919419  3732 net.cpp:91] Creating Layer inception_4a/relu_5x5_reduce
I0403 15:51:12.919436  3732 net.cpp:425] inception_4a/relu_5x5_reduce <- inception_4a/5x5_reduce
I0403 15:51:12.919455  3732 net.cpp:386] inception_4a/relu_5x5_reduce -> inception_4a/5x5_reduce (in-place)
I0403 15:51:12.919634  3732 net.cpp:141] Setting up inception_4a/relu_5x5_reduce
I0403 15:51:12.919661  3732 net.cpp:148] Top shape: 24 16 14 14 (75264)
I0403 15:51:12.919677  3732 net.cpp:156] Memory required for data: 873665568
I0403 15:51:12.919692  3732 layer_factory.hpp:77] Creating layer inception_4a/5x5
I0403 15:51:12.919715  3732 net.cpp:91] Creating Layer inception_4a/5x5
I0403 15:51:12.919734  3732 net.cpp:425] inception_4a/5x5 <- inception_4a/5x5_reduce
I0403 15:51:12.919759  3732 net.cpp:399] inception_4a/5x5 -> inception_4a/5x5
I0403 15:51:12.920858  3732 net.cpp:141] Setting up inception_4a/5x5
I0403 15:51:12.920887  3732 net.cpp:148] Top shape: 24 48 14 14 (225792)
I0403 15:51:12.920907  3732 net.cpp:156] Memory required for data: 874568736
I0403 15:51:12.920927  3732 layer_factory.hpp:77] Creating layer inception_4a/relu_5x5
I0403 15:51:12.920953  3732 net.cpp:91] Creating Layer inception_4a/relu_5x5
I0403 15:51:12.920971  3732 net.cpp:425] inception_4a/relu_5x5 <- inception_4a/5x5
I0403 15:51:12.920990  3732 net.cpp:386] inception_4a/relu_5x5 -> inception_4a/5x5 (in-place)
I0403 15:51:12.921170  3732 net.cpp:141] Setting up inception_4a/relu_5x5
I0403 15:51:12.921198  3732 net.cpp:148] Top shape: 24 48 14 14 (225792)
I0403 15:51:12.921216  3732 net.cpp:156] Memory required for data: 875471904
I0403 15:51:12.921231  3732 layer_factory.hpp:77] Creating layer inception_4a/pool
I0403 15:51:12.921255  3732 net.cpp:91] Creating Layer inception_4a/pool
I0403 15:51:12.921273  3732 net.cpp:425] inception_4a/pool <- pool3/3x3_s2_pool3/3x3_s2_0_split_3
I0403 15:51:12.921295  3732 net.cpp:399] inception_4a/pool -> inception_4a/pool
I0403 15:51:12.921357  3732 net.cpp:141] Setting up inception_4a/pool
I0403 15:51:12.921382  3732 net.cpp:148] Top shape: 24 480 14 14 (2257920)
I0403 15:51:12.921397  3732 net.cpp:156] Memory required for data: 884503584
I0403 15:51:12.921412  3732 layer_factory.hpp:77] Creating layer inception_4a/pool_proj
I0403 15:51:12.921437  3732 net.cpp:91] Creating Layer inception_4a/pool_proj
I0403 15:51:12.921454  3732 net.cpp:425] inception_4a/pool_proj <- inception_4a/pool
I0403 15:51:12.921476  3732 net.cpp:399] inception_4a/pool_proj -> inception_4a/pool_proj
I0403 15:51:12.922665  3732 net.cpp:141] Setting up inception_4a/pool_proj
I0403 15:51:12.922698  3732 net.cpp:148] Top shape: 24 64 14 14 (301056)
I0403 15:51:12.922731  3732 net.cpp:156] Memory required for data: 885707808
I0403 15:51:12.922751  3732 layer_factory.hpp:77] Creating layer inception_4a/relu_pool_proj
I0403 15:51:12.922770  3732 net.cpp:91] Creating Layer inception_4a/relu_pool_proj
I0403 15:51:12.922788  3732 net.cpp:425] inception_4a/relu_pool_proj <- inception_4a/pool_proj
I0403 15:51:12.922806  3732 net.cpp:386] inception_4a/relu_pool_proj -> inception_4a/pool_proj (in-place)
I0403 15:51:12.923091  3732 net.cpp:141] Setting up inception_4a/relu_pool_proj
I0403 15:51:12.923121  3732 net.cpp:148] Top shape: 24 64 14 14 (301056)
I0403 15:51:12.923137  3732 net.cpp:156] Memory required for data: 886912032
I0403 15:51:12.923153  3732 layer_factory.hpp:77] Creating layer inception_4a/output
I0403 15:51:12.923172  3732 net.cpp:91] Creating Layer inception_4a/output
I0403 15:51:12.923188  3732 net.cpp:425] inception_4a/output <- inception_4a/1x1
I0403 15:51:12.923207  3732 net.cpp:425] inception_4a/output <- inception_4a/3x3
I0403 15:51:12.923223  3732 net.cpp:425] inception_4a/output <- inception_4a/5x5
I0403 15:51:12.923243  3732 net.cpp:425] inception_4a/output <- inception_4a/pool_proj
I0403 15:51:12.923264  3732 net.cpp:399] inception_4a/output -> inception_4a/output
I0403 15:51:12.923312  3732 net.cpp:141] Setting up inception_4a/output
I0403 15:51:12.923338  3732 net.cpp:148] Top shape: 24 512 14 14 (2408448)
I0403 15:51:12.923357  3732 net.cpp:156] Memory required for data: 896545824
I0403 15:51:12.923373  3732 layer_factory.hpp:77] Creating layer inception_4a/output_inception_4a/output_0_split
I0403 15:51:12.923398  3732 net.cpp:91] Creating Layer inception_4a/output_inception_4a/output_0_split
I0403 15:51:12.923418  3732 net.cpp:425] inception_4a/output_inception_4a/output_0_split <- inception_4a/output
I0403 15:51:12.923439  3732 net.cpp:399] inception_4a/output_inception_4a/output_0_split -> inception_4a/output_inception_4a/output_0_split_0
I0403 15:51:12.923461  3732 net.cpp:399] inception_4a/output_inception_4a/output_0_split -> inception_4a/output_inception_4a/output_0_split_1
I0403 15:51:12.923483  3732 net.cpp:399] inception_4a/output_inception_4a/output_0_split -> inception_4a/output_inception_4a/output_0_split_2
I0403 15:51:12.923504  3732 net.cpp:399] inception_4a/output_inception_4a/output_0_split -> inception_4a/output_inception_4a/output_0_split_3
I0403 15:51:12.923527  3732 net.cpp:399] inception_4a/output_inception_4a/output_0_split -> inception_4a/output_inception_4a/output_0_split_4
I0403 15:51:12.923625  3732 net.cpp:141] Setting up inception_4a/output_inception_4a/output_0_split
I0403 15:51:12.923650  3732 net.cpp:148] Top shape: 24 512 14 14 (2408448)
I0403 15:51:12.923667  3732 net.cpp:148] Top shape: 24 512 14 14 (2408448)
I0403 15:51:12.923686  3732 net.cpp:148] Top shape: 24 512 14 14 (2408448)
I0403 15:51:12.923702  3732 net.cpp:148] Top shape: 24 512 14 14 (2408448)
I0403 15:51:12.923718  3732 net.cpp:148] Top shape: 24 512 14 14 (2408448)
I0403 15:51:12.923732  3732 net.cpp:156] Memory required for data: 944714784
I0403 15:51:12.923748  3732 layer_factory.hpp:77] Creating layer loss1/ave_pool
I0403 15:51:12.923765  3732 net.cpp:91] Creating Layer loss1/ave_pool
I0403 15:51:12.923785  3732 net.cpp:425] loss1/ave_pool <- inception_4a/output_inception_4a/output_0_split_0
I0403 15:51:12.923804  3732 net.cpp:399] loss1/ave_pool -> loss1/ave_pool
I0403 15:51:12.924011  3732 net.cpp:141] Setting up loss1/ave_pool
I0403 15:51:12.924041  3732 net.cpp:148] Top shape: 24 512 4 4 (196608)
I0403 15:51:12.924057  3732 net.cpp:156] Memory required for data: 945501216
I0403 15:51:12.924073  3732 layer_factory.hpp:77] Creating layer loss1/conv
I0403 15:51:12.924096  3732 net.cpp:91] Creating Layer loss1/conv
I0403 15:51:12.924113  3732 net.cpp:425] loss1/conv <- loss1/ave_pool
I0403 15:51:12.924134  3732 net.cpp:399] loss1/conv -> loss1/conv
I0403 15:51:12.925575  3732 net.cpp:141] Setting up loss1/conv
I0403 15:51:12.925602  3732 net.cpp:148] Top shape: 24 128 4 4 (49152)
I0403 15:51:12.925633  3732 net.cpp:156] Memory required for data: 945697824
I0403 15:51:12.925654  3732 layer_factory.hpp:77] Creating layer loss1/relu_conv
I0403 15:51:12.925673  3732 net.cpp:91] Creating Layer loss1/relu_conv
I0403 15:51:12.925690  3732 net.cpp:425] loss1/relu_conv <- loss1/conv
I0403 15:51:12.925711  3732 net.cpp:386] loss1/relu_conv -> loss1/conv (in-place)
I0403 15:51:12.925997  3732 net.cpp:141] Setting up loss1/relu_conv
I0403 15:51:12.926025  3732 net.cpp:148] Top shape: 24 128 4 4 (49152)
I0403 15:51:12.926041  3732 net.cpp:156] Memory required for data: 945894432
I0403 15:51:12.926057  3732 layer_factory.hpp:77] Creating layer loss1/fc
I0403 15:51:12.926081  3732 net.cpp:91] Creating Layer loss1/fc
I0403 15:51:12.926100  3732 net.cpp:425] loss1/fc <- loss1/conv
I0403 15:51:12.926125  3732 net.cpp:399] loss1/fc -> loss1/fc
I0403 15:51:12.944453  3732 net.cpp:141] Setting up loss1/fc
I0403 15:51:12.944497  3732 net.cpp:148] Top shape: 24 1024 (24576)
I0403 15:51:12.944514  3732 net.cpp:156] Memory required for data: 945992736
I0403 15:51:12.944531  3732 layer_factory.hpp:77] Creating layer loss1/relu_fc
I0403 15:51:12.944551  3732 net.cpp:91] Creating Layer loss1/relu_fc
I0403 15:51:12.944569  3732 net.cpp:425] loss1/relu_fc <- loss1/fc
I0403 15:51:12.944586  3732 net.cpp:386] loss1/relu_fc -> loss1/fc (in-place)
I0403 15:51:12.944772  3732 net.cpp:141] Setting up loss1/relu_fc
I0403 15:51:12.944795  3732 net.cpp:148] Top shape: 24 1024 (24576)
I0403 15:51:12.944810  3732 net.cpp:156] Memory required for data: 946091040
I0403 15:51:12.944824  3732 layer_factory.hpp:77] Creating layer loss1/drop_fc
I0403 15:51:12.944850  3732 net.cpp:91] Creating Layer loss1/drop_fc
I0403 15:51:12.944869  3732 net.cpp:425] loss1/drop_fc <- loss1/fc
I0403 15:51:12.944886  3732 net.cpp:386] loss1/drop_fc -> loss1/fc (in-place)
I0403 15:51:12.944937  3732 net.cpp:141] Setting up loss1/drop_fc
I0403 15:51:12.944960  3732 net.cpp:148] Top shape: 24 1024 (24576)
I0403 15:51:12.944974  3732 net.cpp:156] Memory required for data: 946189344
I0403 15:51:12.944989  3732 layer_factory.hpp:77] Creating layer loss1/classifier_plantvillage
I0403 15:51:12.945011  3732 net.cpp:91] Creating Layer loss1/classifier_plantvillage
I0403 15:51:12.945029  3732 net.cpp:425] loss1/classifier_plantvillage <- loss1/fc
I0403 15:51:12.945049  3732 net.cpp:399] loss1/classifier_plantvillage -> loss1/classifier_plantvillage
I0403 15:51:12.945966  3732 net.cpp:141] Setting up loss1/classifier_plantvillage
I0403 15:51:12.945994  3732 net.cpp:148] Top shape: 24 38 (912)
I0403 15:51:12.946010  3732 net.cpp:156] Memory required for data: 946192992
I0403 15:51:12.946027  3732 layer_factory.hpp:77] Creating layer loss1/classifier_plantvillage_loss1/classifier_plantvillage_0_split
I0403 15:51:12.946045  3732 net.cpp:91] Creating Layer loss1/classifier_plantvillage_loss1/classifier_plantvillage_0_split
I0403 15:51:12.946061  3732 net.cpp:425] loss1/classifier_plantvillage_loss1/classifier_plantvillage_0_split <- loss1/classifier_plantvillage
I0403 15:51:12.946080  3732 net.cpp:399] loss1/classifier_plantvillage_loss1/classifier_plantvillage_0_split -> loss1/classifier_plantvillage_loss1/classifier_plantvillage_0_split_0
I0403 15:51:12.946101  3732 net.cpp:399] loss1/classifier_plantvillage_loss1/classifier_plantvillage_0_split -> loss1/classifier_plantvillage_loss1/classifier_plantvillage_0_split_1
I0403 15:51:12.946121  3732 net.cpp:399] loss1/classifier_plantvillage_loss1/classifier_plantvillage_0_split -> loss1/classifier_plantvillage_loss1/classifier_plantvillage_0_split_2
I0403 15:51:12.946185  3732 net.cpp:141] Setting up loss1/classifier_plantvillage_loss1/classifier_plantvillage_0_split
I0403 15:51:12.946208  3732 net.cpp:148] Top shape: 24 38 (912)
I0403 15:51:12.946224  3732 net.cpp:148] Top shape: 24 38 (912)
I0403 15:51:12.946244  3732 net.cpp:148] Top shape: 24 38 (912)
I0403 15:51:12.946259  3732 net.cpp:156] Memory required for data: 946203936
I0403 15:51:12.946274  3732 layer_factory.hpp:77] Creating layer inception_4b/1x1
I0403 15:51:12.946295  3732 net.cpp:91] Creating Layer inception_4b/1x1
I0403 15:51:12.946334  3732 net.cpp:425] inception_4b/1x1 <- inception_4a/output_inception_4a/output_0_split_1
I0403 15:51:12.946354  3732 net.cpp:399] inception_4b/1x1 -> inception_4b/1x1
I0403 15:51:12.947957  3732 net.cpp:141] Setting up inception_4b/1x1
I0403 15:51:12.947988  3732 net.cpp:148] Top shape: 24 160 14 14 (752640)
I0403 15:51:12.948004  3732 net.cpp:156] Memory required for data: 949214496
I0403 15:51:12.948022  3732 layer_factory.hpp:77] Creating layer inception_4b/relu_1x1
I0403 15:51:12.948042  3732 net.cpp:91] Creating Layer inception_4b/relu_1x1
I0403 15:51:12.948060  3732 net.cpp:425] inception_4b/relu_1x1 <- inception_4b/1x1
I0403 15:51:12.948077  3732 net.cpp:386] inception_4b/relu_1x1 -> inception_4b/1x1 (in-place)
I0403 15:51:12.948253  3732 net.cpp:141] Setting up inception_4b/relu_1x1
I0403 15:51:12.948278  3732 net.cpp:148] Top shape: 24 160 14 14 (752640)
I0403 15:51:12.948292  3732 net.cpp:156] Memory required for data: 952225056
I0403 15:51:12.948307  3732 layer_factory.hpp:77] Creating layer inception_4b/3x3_reduce
I0403 15:51:12.948328  3732 net.cpp:91] Creating Layer inception_4b/3x3_reduce
I0403 15:51:12.948345  3732 net.cpp:425] inception_4b/3x3_reduce <- inception_4a/output_inception_4a/output_0_split_2
I0403 15:51:12.948366  3732 net.cpp:399] inception_4b/3x3_reduce -> inception_4b/3x3_reduce
I0403 15:51:12.949669  3732 net.cpp:141] Setting up inception_4b/3x3_reduce
I0403 15:51:12.949697  3732 net.cpp:148] Top shape: 24 112 14 14 (526848)
I0403 15:51:12.949714  3732 net.cpp:156] Memory required for data: 954332448
I0403 15:51:12.949733  3732 layer_factory.hpp:77] Creating layer inception_4b/relu_3x3_reduce
I0403 15:51:12.949753  3732 net.cpp:91] Creating Layer inception_4b/relu_3x3_reduce
I0403 15:51:12.949772  3732 net.cpp:425] inception_4b/relu_3x3_reduce <- inception_4b/3x3_reduce
I0403 15:51:12.949790  3732 net.cpp:386] inception_4b/relu_3x3_reduce -> inception_4b/3x3_reduce (in-place)
I0403 15:51:12.950064  3732 net.cpp:141] Setting up inception_4b/relu_3x3_reduce
I0403 15:51:12.950089  3732 net.cpp:148] Top shape: 24 112 14 14 (526848)
I0403 15:51:12.950104  3732 net.cpp:156] Memory required for data: 956439840
I0403 15:51:12.950119  3732 layer_factory.hpp:77] Creating layer inception_4b/3x3
I0403 15:51:12.950141  3732 net.cpp:91] Creating Layer inception_4b/3x3
I0403 15:51:12.950158  3732 net.cpp:425] inception_4b/3x3 <- inception_4b/3x3_reduce
I0403 15:51:12.950179  3732 net.cpp:399] inception_4b/3x3 -> inception_4b/3x3
I0403 15:51:12.953084  3732 net.cpp:141] Setting up inception_4b/3x3
I0403 15:51:12.953115  3732 net.cpp:148] Top shape: 24 224 14 14 (1053696)
I0403 15:51:12.953132  3732 net.cpp:156] Memory required for data: 960654624
I0403 15:51:12.953150  3732 layer_factory.hpp:77] Creating layer inception_4b/relu_3x3
I0403 15:51:12.953167  3732 net.cpp:91] Creating Layer inception_4b/relu_3x3
I0403 15:51:12.953183  3732 net.cpp:425] inception_4b/relu_3x3 <- inception_4b/3x3
I0403 15:51:12.953202  3732 net.cpp:386] inception_4b/relu_3x3 -> inception_4b/3x3 (in-place)
I0403 15:51:12.953382  3732 net.cpp:141] Setting up inception_4b/relu_3x3
I0403 15:51:12.953407  3732 net.cpp:148] Top shape: 24 224 14 14 (1053696)
I0403 15:51:12.953421  3732 net.cpp:156] Memory required for data: 964869408
I0403 15:51:12.953438  3732 layer_factory.hpp:77] Creating layer inception_4b/5x5_reduce
I0403 15:51:12.953459  3732 net.cpp:91] Creating Layer inception_4b/5x5_reduce
I0403 15:51:12.953476  3732 net.cpp:425] inception_4b/5x5_reduce <- inception_4a/output_inception_4a/output_0_split_3
I0403 15:51:12.953497  3732 net.cpp:399] inception_4b/5x5_reduce -> inception_4b/5x5_reduce
I0403 15:51:12.954545  3732 net.cpp:141] Setting up inception_4b/5x5_reduce
I0403 15:51:12.954573  3732 net.cpp:148] Top shape: 24 24 14 14 (112896)
I0403 15:51:12.954591  3732 net.cpp:156] Memory required for data: 965320992
I0403 15:51:12.954610  3732 layer_factory.hpp:77] Creating layer inception_4b/relu_5x5_reduce
I0403 15:51:12.954632  3732 net.cpp:91] Creating Layer inception_4b/relu_5x5_reduce
I0403 15:51:12.954663  3732 net.cpp:425] inception_4b/relu_5x5_reduce <- inception_4b/5x5_reduce
I0403 15:51:12.954680  3732 net.cpp:386] inception_4b/relu_5x5_reduce -> inception_4b/5x5_reduce (in-place)
I0403 15:51:12.954855  3732 net.cpp:141] Setting up inception_4b/relu_5x5_reduce
I0403 15:51:12.954882  3732 net.cpp:148] Top shape: 24 24 14 14 (112896)
I0403 15:51:12.954897  3732 net.cpp:156] Memory required for data: 965772576
I0403 15:51:12.954912  3732 layer_factory.hpp:77] Creating layer inception_4b/5x5
I0403 15:51:12.954932  3732 net.cpp:91] Creating Layer inception_4b/5x5
I0403 15:51:12.954948  3732 net.cpp:425] inception_4b/5x5 <- inception_4b/5x5_reduce
I0403 15:51:12.954972  3732 net.cpp:399] inception_4b/5x5 -> inception_4b/5x5
I0403 15:51:12.956172  3732 net.cpp:141] Setting up inception_4b/5x5
I0403 15:51:12.956199  3732 net.cpp:148] Top shape: 24 64 14 14 (301056)
I0403 15:51:12.956217  3732 net.cpp:156] Memory required for data: 966976800
I0403 15:51:12.956234  3732 layer_factory.hpp:77] Creating layer inception_4b/relu_5x5
I0403 15:51:12.956260  3732 net.cpp:91] Creating Layer inception_4b/relu_5x5
I0403 15:51:12.956279  3732 net.cpp:425] inception_4b/relu_5x5 <- inception_4b/5x5
I0403 15:51:12.956296  3732 net.cpp:386] inception_4b/relu_5x5 -> inception_4b/5x5 (in-place)
I0403 15:51:12.956576  3732 net.cpp:141] Setting up inception_4b/relu_5x5
I0403 15:51:12.956601  3732 net.cpp:148] Top shape: 24 64 14 14 (301056)
I0403 15:51:12.956617  3732 net.cpp:156] Memory required for data: 968181024
I0403 15:51:12.956631  3732 layer_factory.hpp:77] Creating layer inception_4b/pool
I0403 15:51:12.956650  3732 net.cpp:91] Creating Layer inception_4b/pool
I0403 15:51:12.956665  3732 net.cpp:425] inception_4b/pool <- inception_4a/output_inception_4a/output_0_split_4
I0403 15:51:12.956686  3732 net.cpp:399] inception_4b/pool -> inception_4b/pool
I0403 15:51:12.956748  3732 net.cpp:141] Setting up inception_4b/pool
I0403 15:51:12.956773  3732 net.cpp:148] Top shape: 24 512 14 14 (2408448)
I0403 15:51:12.956789  3732 net.cpp:156] Memory required for data: 977814816
I0403 15:51:12.956804  3732 layer_factory.hpp:77] Creating layer inception_4b/pool_proj
I0403 15:51:12.956825  3732 net.cpp:91] Creating Layer inception_4b/pool_proj
I0403 15:51:12.956842  3732 net.cpp:425] inception_4b/pool_proj <- inception_4b/pool
I0403 15:51:12.956861  3732 net.cpp:399] inception_4b/pool_proj -> inception_4b/pool_proj
I0403 15:51:12.958025  3732 net.cpp:141] Setting up inception_4b/pool_proj
I0403 15:51:12.958052  3732 net.cpp:148] Top shape: 24 64 14 14 (301056)
I0403 15:51:12.958070  3732 net.cpp:156] Memory required for data: 979019040
I0403 15:51:12.958088  3732 layer_factory.hpp:77] Creating layer inception_4b/relu_pool_proj
I0403 15:51:12.958111  3732 net.cpp:91] Creating Layer inception_4b/relu_pool_proj
I0403 15:51:12.958128  3732 net.cpp:425] inception_4b/relu_pool_proj <- inception_4b/pool_proj
I0403 15:51:12.958145  3732 net.cpp:386] inception_4b/relu_pool_proj -> inception_4b/pool_proj (in-place)
I0403 15:51:12.958324  3732 net.cpp:141] Setting up inception_4b/relu_pool_proj
I0403 15:51:12.958349  3732 net.cpp:148] Top shape: 24 64 14 14 (301056)
I0403 15:51:12.958364  3732 net.cpp:156] Memory required for data: 980223264
I0403 15:51:12.958379  3732 layer_factory.hpp:77] Creating layer inception_4b/output
I0403 15:51:12.958398  3732 net.cpp:91] Creating Layer inception_4b/output
I0403 15:51:12.958415  3732 net.cpp:425] inception_4b/output <- inception_4b/1x1
I0403 15:51:12.958433  3732 net.cpp:425] inception_4b/output <- inception_4b/3x3
I0403 15:51:12.958449  3732 net.cpp:425] inception_4b/output <- inception_4b/5x5
I0403 15:51:12.958467  3732 net.cpp:425] inception_4b/output <- inception_4b/pool_proj
I0403 15:51:12.958482  3732 net.cpp:399] inception_4b/output -> inception_4b/output
I0403 15:51:12.958528  3732 net.cpp:141] Setting up inception_4b/output
I0403 15:51:12.958551  3732 net.cpp:148] Top shape: 24 512 14 14 (2408448)
I0403 15:51:12.958565  3732 net.cpp:156] Memory required for data: 989857056
I0403 15:51:12.958600  3732 layer_factory.hpp:77] Creating layer inception_4b/output_inception_4b/output_0_split
I0403 15:51:12.958617  3732 net.cpp:91] Creating Layer inception_4b/output_inception_4b/output_0_split
I0403 15:51:12.958633  3732 net.cpp:425] inception_4b/output_inception_4b/output_0_split <- inception_4b/output
I0403 15:51:12.958655  3732 net.cpp:399] inception_4b/output_inception_4b/output_0_split -> inception_4b/output_inception_4b/output_0_split_0
I0403 15:51:12.958679  3732 net.cpp:399] inception_4b/output_inception_4b/output_0_split -> inception_4b/output_inception_4b/output_0_split_1
I0403 15:51:12.958701  3732 net.cpp:399] inception_4b/output_inception_4b/output_0_split -> inception_4b/output_inception_4b/output_0_split_2
I0403 15:51:12.958722  3732 net.cpp:399] inception_4b/output_inception_4b/output_0_split -> inception_4b/output_inception_4b/output_0_split_3
I0403 15:51:12.958806  3732 net.cpp:141] Setting up inception_4b/output_inception_4b/output_0_split
I0403 15:51:12.958832  3732 net.cpp:148] Top shape: 24 512 14 14 (2408448)
I0403 15:51:12.958849  3732 net.cpp:148] Top shape: 24 512 14 14 (2408448)
I0403 15:51:12.958864  3732 net.cpp:148] Top shape: 24 512 14 14 (2408448)
I0403 15:51:12.958879  3732 net.cpp:148] Top shape: 24 512 14 14 (2408448)
I0403 15:51:12.958894  3732 net.cpp:156] Memory required for data: 1028392224
I0403 15:51:12.958907  3732 layer_factory.hpp:77] Creating layer inception_4c/1x1
I0403 15:51:12.958930  3732 net.cpp:91] Creating Layer inception_4c/1x1
I0403 15:51:12.958945  3732 net.cpp:425] inception_4c/1x1 <- inception_4b/output_inception_4b/output_0_split_0
I0403 15:51:12.958966  3732 net.cpp:399] inception_4c/1x1 -> inception_4c/1x1
I0403 15:51:12.960362  3732 net.cpp:141] Setting up inception_4c/1x1
I0403 15:51:12.960391  3732 net.cpp:148] Top shape: 24 128 14 14 (602112)
I0403 15:51:12.960409  3732 net.cpp:156] Memory required for data: 1030800672
I0403 15:51:12.960428  3732 layer_factory.hpp:77] Creating layer inception_4c/relu_1x1
I0403 15:51:12.960451  3732 net.cpp:91] Creating Layer inception_4c/relu_1x1
I0403 15:51:12.960470  3732 net.cpp:425] inception_4c/relu_1x1 <- inception_4c/1x1
I0403 15:51:12.960487  3732 net.cpp:386] inception_4c/relu_1x1 -> inception_4c/1x1 (in-place)
I0403 15:51:12.960662  3732 net.cpp:141] Setting up inception_4c/relu_1x1
I0403 15:51:12.960687  3732 net.cpp:148] Top shape: 24 128 14 14 (602112)
I0403 15:51:12.960702  3732 net.cpp:156] Memory required for data: 1033209120
I0403 15:51:12.960716  3732 layer_factory.hpp:77] Creating layer inception_4c/3x3_reduce
I0403 15:51:12.960739  3732 net.cpp:91] Creating Layer inception_4c/3x3_reduce
I0403 15:51:12.960757  3732 net.cpp:425] inception_4c/3x3_reduce <- inception_4b/output_inception_4b/output_0_split_1
I0403 15:51:12.960777  3732 net.cpp:399] inception_4c/3x3_reduce -> inception_4c/3x3_reduce
I0403 15:51:12.962721  3732 net.cpp:141] Setting up inception_4c/3x3_reduce
I0403 15:51:12.962750  3732 net.cpp:148] Top shape: 24 128 14 14 (602112)
I0403 15:51:12.962767  3732 net.cpp:156] Memory required for data: 1035617568
I0403 15:51:12.962797  3732 layer_factory.hpp:77] Creating layer inception_4c/relu_3x3_reduce
I0403 15:51:12.962815  3732 net.cpp:91] Creating Layer inception_4c/relu_3x3_reduce
I0403 15:51:12.962831  3732 net.cpp:425] inception_4c/relu_3x3_reduce <- inception_4c/3x3_reduce
I0403 15:51:12.962851  3732 net.cpp:386] inception_4c/relu_3x3_reduce -> inception_4c/3x3_reduce (in-place)
I0403 15:51:12.963127  3732 net.cpp:141] Setting up inception_4c/relu_3x3_reduce
I0403 15:51:12.963155  3732 net.cpp:148] Top shape: 24 128 14 14 (602112)
I0403 15:51:12.963171  3732 net.cpp:156] Memory required for data: 1038026016
I0403 15:51:12.963186  3732 layer_factory.hpp:77] Creating layer inception_4c/3x3
I0403 15:51:12.963209  3732 net.cpp:91] Creating Layer inception_4c/3x3
I0403 15:51:12.963227  3732 net.cpp:425] inception_4c/3x3 <- inception_4c/3x3_reduce
I0403 15:51:12.963253  3732 net.cpp:399] inception_4c/3x3 -> inception_4c/3x3
I0403 15:51:12.966791  3732 net.cpp:141] Setting up inception_4c/3x3
I0403 15:51:12.966835  3732 net.cpp:148] Top shape: 24 256 14 14 (1204224)
I0403 15:51:12.966851  3732 net.cpp:156] Memory required for data: 1042842912
I0403 15:51:12.966883  3732 layer_factory.hpp:77] Creating layer inception_4c/relu_3x3
I0403 15:51:12.966907  3732 net.cpp:91] Creating Layer inception_4c/relu_3x3
I0403 15:51:12.966923  3732 net.cpp:425] inception_4c/relu_3x3 <- inception_4c/3x3
I0403 15:51:12.966941  3732 net.cpp:386] inception_4c/relu_3x3 -> inception_4c/3x3 (in-place)
I0403 15:51:12.967116  3732 net.cpp:141] Setting up inception_4c/relu_3x3
I0403 15:51:12.967141  3732 net.cpp:148] Top shape: 24 256 14 14 (1204224)
I0403 15:51:12.967157  3732 net.cpp:156] Memory required for data: 1047659808
I0403 15:51:12.967172  3732 layer_factory.hpp:77] Creating layer inception_4c/5x5_reduce
I0403 15:51:12.967197  3732 net.cpp:91] Creating Layer inception_4c/5x5_reduce
I0403 15:51:12.967222  3732 net.cpp:425] inception_4c/5x5_reduce <- inception_4b/output_inception_4b/output_0_split_2
I0403 15:51:12.967248  3732 net.cpp:399] inception_4c/5x5_reduce -> inception_4c/5x5_reduce
I0403 15:51:12.968305  3732 net.cpp:141] Setting up inception_4c/5x5_reduce
I0403 15:51:12.968333  3732 net.cpp:148] Top shape: 24 24 14 14 (112896)
I0403 15:51:12.968350  3732 net.cpp:156] Memory required for data: 1048111392
I0403 15:51:12.968370  3732 layer_factory.hpp:77] Creating layer inception_4c/relu_5x5_reduce
I0403 15:51:12.968394  3732 net.cpp:91] Creating Layer inception_4c/relu_5x5_reduce
I0403 15:51:12.968410  3732 net.cpp:425] inception_4c/relu_5x5_reduce <- inception_4c/5x5_reduce
I0403 15:51:12.968427  3732 net.cpp:386] inception_4c/relu_5x5_reduce -> inception_4c/5x5_reduce (in-place)
I0403 15:51:12.968601  3732 net.cpp:141] Setting up inception_4c/relu_5x5_reduce
I0403 15:51:12.968626  3732 net.cpp:148] Top shape: 24 24 14 14 (112896)
I0403 15:51:12.968641  3732 net.cpp:156] Memory required for data: 1048562976
I0403 15:51:12.968655  3732 layer_factory.hpp:77] Creating layer inception_4c/5x5
I0403 15:51:12.968677  3732 net.cpp:91] Creating Layer inception_4c/5x5
I0403 15:51:12.968694  3732 net.cpp:425] inception_4c/5x5 <- inception_4c/5x5_reduce
I0403 15:51:12.968715  3732 net.cpp:399] inception_4c/5x5 -> inception_4c/5x5
I0403 15:51:12.969915  3732 net.cpp:141] Setting up inception_4c/5x5
I0403 15:51:12.969944  3732 net.cpp:148] Top shape: 24 64 14 14 (301056)
I0403 15:51:12.969959  3732 net.cpp:156] Memory required for data: 1049767200
I0403 15:51:12.969977  3732 layer_factory.hpp:77] Creating layer inception_4c/relu_5x5
I0403 15:51:12.969996  3732 net.cpp:91] Creating Layer inception_4c/relu_5x5
I0403 15:51:12.970013  3732 net.cpp:425] inception_4c/relu_5x5 <- inception_4c/5x5
I0403 15:51:12.970031  3732 net.cpp:386] inception_4c/relu_5x5 -> inception_4c/5x5 (in-place)
I0403 15:51:12.970319  3732 net.cpp:141] Setting up inception_4c/relu_5x5
I0403 15:51:12.970345  3732 net.cpp:148] Top shape: 24 64 14 14 (301056)
I0403 15:51:12.970361  3732 net.cpp:156] Memory required for data: 1050971424
I0403 15:51:12.970376  3732 layer_factory.hpp:77] Creating layer inception_4c/pool
I0403 15:51:12.970397  3732 net.cpp:91] Creating Layer inception_4c/pool
I0403 15:51:12.970417  3732 net.cpp:425] inception_4c/pool <- inception_4b/output_inception_4b/output_0_split_3
I0403 15:51:12.970437  3732 net.cpp:399] inception_4c/pool -> inception_4c/pool
I0403 15:51:12.970504  3732 net.cpp:141] Setting up inception_4c/pool
I0403 15:51:12.970526  3732 net.cpp:148] Top shape: 24 512 14 14 (2408448)
I0403 15:51:12.970541  3732 net.cpp:156] Memory required for data: 1060605216
I0403 15:51:12.970556  3732 layer_factory.hpp:77] Creating layer inception_4c/pool_proj
I0403 15:51:12.970577  3732 net.cpp:91] Creating Layer inception_4c/pool_proj
I0403 15:51:12.970594  3732 net.cpp:425] inception_4c/pool_proj <- inception_4c/pool
I0403 15:51:12.970615  3732 net.cpp:399] inception_4c/pool_proj -> inception_4c/pool_proj
I0403 15:51:12.971792  3732 net.cpp:141] Setting up inception_4c/pool_proj
I0403 15:51:12.971829  3732 net.cpp:148] Top shape: 24 64 14 14 (301056)
I0403 15:51:12.971859  3732 net.cpp:156] Memory required for data: 1061809440
I0403 15:51:12.971879  3732 layer_factory.hpp:77] Creating layer inception_4c/relu_pool_proj
I0403 15:51:12.971900  3732 net.cpp:91] Creating Layer inception_4c/relu_pool_proj
I0403 15:51:12.971920  3732 net.cpp:425] inception_4c/relu_pool_proj <- inception_4c/pool_proj
I0403 15:51:12.971938  3732 net.cpp:386] inception_4c/relu_pool_proj -> inception_4c/pool_proj (in-place)
I0403 15:51:12.972126  3732 net.cpp:141] Setting up inception_4c/relu_pool_proj
I0403 15:51:12.972159  3732 net.cpp:148] Top shape: 24 64 14 14 (301056)
I0403 15:51:12.972175  3732 net.cpp:156] Memory required for data: 1063013664
I0403 15:51:12.972190  3732 layer_factory.hpp:77] Creating layer inception_4c/output
I0403 15:51:12.972210  3732 net.cpp:91] Creating Layer inception_4c/output
I0403 15:51:12.972228  3732 net.cpp:425] inception_4c/output <- inception_4c/1x1
I0403 15:51:12.972254  3732 net.cpp:425] inception_4c/output <- inception_4c/3x3
I0403 15:51:12.972275  3732 net.cpp:425] inception_4c/output <- inception_4c/5x5
I0403 15:51:12.972290  3732 net.cpp:425] inception_4c/output <- inception_4c/pool_proj
I0403 15:51:12.972307  3732 net.cpp:399] inception_4c/output -> inception_4c/output
I0403 15:51:12.972368  3732 net.cpp:141] Setting up inception_4c/output
I0403 15:51:12.972400  3732 net.cpp:148] Top shape: 24 512 14 14 (2408448)
I0403 15:51:12.972414  3732 net.cpp:156] Memory required for data: 1072647456
I0403 15:51:12.972429  3732 layer_factory.hpp:77] Creating layer inception_4c/output_inception_4c/output_0_split
I0403 15:51:12.972445  3732 net.cpp:91] Creating Layer inception_4c/output_inception_4c/output_0_split
I0403 15:51:12.972461  3732 net.cpp:425] inception_4c/output_inception_4c/output_0_split <- inception_4c/output
I0403 15:51:12.972481  3732 net.cpp:399] inception_4c/output_inception_4c/output_0_split -> inception_4c/output_inception_4c/output_0_split_0
I0403 15:51:12.972501  3732 net.cpp:399] inception_4c/output_inception_4c/output_0_split -> inception_4c/output_inception_4c/output_0_split_1
I0403 15:51:12.972522  3732 net.cpp:399] inception_4c/output_inception_4c/output_0_split -> inception_4c/output_inception_4c/output_0_split_2
I0403 15:51:12.972543  3732 net.cpp:399] inception_4c/output_inception_4c/output_0_split -> inception_4c/output_inception_4c/output_0_split_3
I0403 15:51:12.972630  3732 net.cpp:141] Setting up inception_4c/output_inception_4c/output_0_split
I0403 15:51:12.972657  3732 net.cpp:148] Top shape: 24 512 14 14 (2408448)
I0403 15:51:12.972676  3732 net.cpp:148] Top shape: 24 512 14 14 (2408448)
I0403 15:51:12.972690  3732 net.cpp:148] Top shape: 24 512 14 14 (2408448)
I0403 15:51:12.972707  3732 net.cpp:148] Top shape: 24 512 14 14 (2408448)
I0403 15:51:12.972719  3732 net.cpp:156] Memory required for data: 1111182624
I0403 15:51:12.972733  3732 layer_factory.hpp:77] Creating layer inception_4d/1x1
I0403 15:51:12.972754  3732 net.cpp:91] Creating Layer inception_4d/1x1
I0403 15:51:12.972772  3732 net.cpp:425] inception_4d/1x1 <- inception_4c/output_inception_4c/output_0_split_0
I0403 15:51:12.972790  3732 net.cpp:399] inception_4d/1x1 -> inception_4d/1x1
I0403 15:51:12.974138  3732 net.cpp:141] Setting up inception_4d/1x1
I0403 15:51:12.974172  3732 net.cpp:148] Top shape: 24 112 14 14 (526848)
I0403 15:51:12.974189  3732 net.cpp:156] Memory required for data: 1113290016
I0403 15:51:12.974207  3732 layer_factory.hpp:77] Creating layer inception_4d/relu_1x1
I0403 15:51:12.974226  3732 net.cpp:91] Creating Layer inception_4d/relu_1x1
I0403 15:51:12.974248  3732 net.cpp:425] inception_4d/relu_1x1 <- inception_4d/1x1
I0403 15:51:12.974270  3732 net.cpp:386] inception_4d/relu_1x1 -> inception_4d/1x1 (in-place)
I0403 15:51:12.974452  3732 net.cpp:141] Setting up inception_4d/relu_1x1
I0403 15:51:12.974477  3732 net.cpp:148] Top shape: 24 112 14 14 (526848)
I0403 15:51:12.974490  3732 net.cpp:156] Memory required for data: 1115397408
I0403 15:51:12.974504  3732 layer_factory.hpp:77] Creating layer inception_4d/3x3_reduce
I0403 15:51:12.974540  3732 net.cpp:91] Creating Layer inception_4d/3x3_reduce
I0403 15:51:12.974560  3732 net.cpp:425] inception_4d/3x3_reduce <- inception_4c/output_inception_4c/output_0_split_1
I0403 15:51:12.974581  3732 net.cpp:399] inception_4d/3x3_reduce -> inception_4d/3x3_reduce
I0403 15:51:12.976057  3732 net.cpp:141] Setting up inception_4d/3x3_reduce
I0403 15:51:12.976088  3732 net.cpp:148] Top shape: 24 144 14 14 (677376)
I0403 15:51:12.976104  3732 net.cpp:156] Memory required for data: 1118106912
I0403 15:51:12.976121  3732 layer_factory.hpp:77] Creating layer inception_4d/relu_3x3_reduce
I0403 15:51:12.976140  3732 net.cpp:91] Creating Layer inception_4d/relu_3x3_reduce
I0403 15:51:12.976156  3732 net.cpp:425] inception_4d/relu_3x3_reduce <- inception_4d/3x3_reduce
I0403 15:51:12.976173  3732 net.cpp:386] inception_4d/relu_3x3_reduce -> inception_4d/3x3_reduce (in-place)
I0403 15:51:12.976465  3732 net.cpp:141] Setting up inception_4d/relu_3x3_reduce
I0403 15:51:12.976495  3732 net.cpp:148] Top shape: 24 144 14 14 (677376)
I0403 15:51:12.976511  3732 net.cpp:156] Memory required for data: 1120816416
I0403 15:51:12.976527  3732 layer_factory.hpp:77] Creating layer inception_4d/3x3
I0403 15:51:12.976552  3732 net.cpp:91] Creating Layer inception_4d/3x3
I0403 15:51:12.976569  3732 net.cpp:425] inception_4d/3x3 <- inception_4d/3x3_reduce
I0403 15:51:12.976588  3732 net.cpp:399] inception_4d/3x3 -> inception_4d/3x3
I0403 15:51:12.980758  3732 net.cpp:141] Setting up inception_4d/3x3
I0403 15:51:12.980788  3732 net.cpp:148] Top shape: 24 288 14 14 (1354752)
I0403 15:51:12.980803  3732 net.cpp:156] Memory required for data: 1126235424
I0403 15:51:12.980821  3732 layer_factory.hpp:77] Creating layer inception_4d/relu_3x3
I0403 15:51:12.980839  3732 net.cpp:91] Creating Layer inception_4d/relu_3x3
I0403 15:51:12.980856  3732 net.cpp:425] inception_4d/relu_3x3 <- inception_4d/3x3
I0403 15:51:12.980875  3732 net.cpp:386] inception_4d/relu_3x3 -> inception_4d/3x3 (in-place)
I0403 15:51:12.981055  3732 net.cpp:141] Setting up inception_4d/relu_3x3
I0403 15:51:12.981079  3732 net.cpp:148] Top shape: 24 288 14 14 (1354752)
I0403 15:51:12.981093  3732 net.cpp:156] Memory required for data: 1131654432
I0403 15:51:12.981108  3732 layer_factory.hpp:77] Creating layer inception_4d/5x5_reduce
I0403 15:51:12.981133  3732 net.cpp:91] Creating Layer inception_4d/5x5_reduce
I0403 15:51:12.981151  3732 net.cpp:425] inception_4d/5x5_reduce <- inception_4c/output_inception_4c/output_0_split_2
I0403 15:51:12.981173  3732 net.cpp:399] inception_4d/5x5_reduce -> inception_4d/5x5_reduce
I0403 15:51:12.982306  3732 net.cpp:141] Setting up inception_4d/5x5_reduce
I0403 15:51:12.982334  3732 net.cpp:148] Top shape: 24 32 14 14 (150528)
I0403 15:51:12.982352  3732 net.cpp:156] Memory required for data: 1132256544
I0403 15:51:12.982369  3732 layer_factory.hpp:77] Creating layer inception_4d/relu_5x5_reduce
I0403 15:51:12.982388  3732 net.cpp:91] Creating Layer inception_4d/relu_5x5_reduce
I0403 15:51:12.982404  3732 net.cpp:425] inception_4d/relu_5x5_reduce <- inception_4d/5x5_reduce
I0403 15:51:12.982424  3732 net.cpp:386] inception_4d/relu_5x5_reduce -> inception_4d/5x5_reduce (in-place)
I0403 15:51:12.982604  3732 net.cpp:141] Setting up inception_4d/relu_5x5_reduce
I0403 15:51:12.982632  3732 net.cpp:148] Top shape: 24 32 14 14 (150528)
I0403 15:51:12.982648  3732 net.cpp:156] Memory required for data: 1132858656
I0403 15:51:12.982663  3732 layer_factory.hpp:77] Creating layer inception_4d/5x5
I0403 15:51:12.982686  3732 net.cpp:91] Creating Layer inception_4d/5x5
I0403 15:51:12.982705  3732 net.cpp:425] inception_4d/5x5 <- inception_4d/5x5_reduce
I0403 15:51:12.982727  3732 net.cpp:399] inception_4d/5x5 -> inception_4d/5x5
I0403 15:51:12.984176  3732 net.cpp:141] Setting up inception_4d/5x5
I0403 15:51:12.984205  3732 net.cpp:148] Top shape: 24 64 14 14 (301056)
I0403 15:51:12.984221  3732 net.cpp:156] Memory required for data: 1134062880
I0403 15:51:12.984244  3732 layer_factory.hpp:77] Creating layer inception_4d/relu_5x5
I0403 15:51:12.984279  3732 net.cpp:91] Creating Layer inception_4d/relu_5x5
I0403 15:51:12.984298  3732 net.cpp:425] inception_4d/relu_5x5 <- inception_4d/5x5
I0403 15:51:12.984315  3732 net.cpp:386] inception_4d/relu_5x5 -> inception_4d/5x5 (in-place)
I0403 15:51:12.984624  3732 net.cpp:141] Setting up inception_4d/relu_5x5
I0403 15:51:12.984652  3732 net.cpp:148] Top shape: 24 64 14 14 (301056)
I0403 15:51:12.984668  3732 net.cpp:156] Memory required for data: 1135267104
I0403 15:51:12.984684  3732 layer_factory.hpp:77] Creating layer inception_4d/pool
I0403 15:51:12.984705  3732 net.cpp:91] Creating Layer inception_4d/pool
I0403 15:51:12.984724  3732 net.cpp:425] inception_4d/pool <- inception_4c/output_inception_4c/output_0_split_3
I0403 15:51:12.984740  3732 net.cpp:399] inception_4d/pool -> inception_4d/pool
I0403 15:51:12.984809  3732 net.cpp:141] Setting up inception_4d/pool
I0403 15:51:12.984836  3732 net.cpp:148] Top shape: 24 512 14 14 (2408448)
I0403 15:51:12.984851  3732 net.cpp:156] Memory required for data: 1144900896
I0403 15:51:12.984866  3732 layer_factory.hpp:77] Creating layer inception_4d/pool_proj
I0403 15:51:12.984889  3732 net.cpp:91] Creating Layer inception_4d/pool_proj
I0403 15:51:12.984906  3732 net.cpp:425] inception_4d/pool_proj <- inception_4d/pool
I0403 15:51:12.984927  3732 net.cpp:399] inception_4d/pool_proj -> inception_4d/pool_proj
I0403 15:51:12.986663  3732 net.cpp:141] Setting up inception_4d/pool_proj
I0403 15:51:12.986692  3732 net.cpp:148] Top shape: 24 64 14 14 (301056)
I0403 15:51:12.986708  3732 net.cpp:156] Memory required for data: 1146105120
I0403 15:51:12.986727  3732 layer_factory.hpp:77] Creating layer inception_4d/relu_pool_proj
I0403 15:51:12.986745  3732 net.cpp:91] Creating Layer inception_4d/relu_pool_proj
I0403 15:51:12.986763  3732 net.cpp:425] inception_4d/relu_pool_proj <- inception_4d/pool_proj
I0403 15:51:12.986783  3732 net.cpp:386] inception_4d/relu_pool_proj -> inception_4d/pool_proj (in-place)
I0403 15:51:12.986965  3732 net.cpp:141] Setting up inception_4d/relu_pool_proj
I0403 15:51:12.986989  3732 net.cpp:148] Top shape: 24 64 14 14 (301056)
I0403 15:51:12.987004  3732 net.cpp:156] Memory required for data: 1147309344
I0403 15:51:12.987020  3732 layer_factory.hpp:77] Creating layer inception_4d/output
I0403 15:51:12.987038  3732 net.cpp:91] Creating Layer inception_4d/output
I0403 15:51:12.987056  3732 net.cpp:425] inception_4d/output <- inception_4d/1x1
I0403 15:51:12.987072  3732 net.cpp:425] inception_4d/output <- inception_4d/3x3
I0403 15:51:12.987089  3732 net.cpp:425] inception_4d/output <- inception_4d/5x5
I0403 15:51:12.987105  3732 net.cpp:425] inception_4d/output <- inception_4d/pool_proj
I0403 15:51:12.987121  3732 net.cpp:399] inception_4d/output -> inception_4d/output
I0403 15:51:12.987167  3732 net.cpp:141] Setting up inception_4d/output
I0403 15:51:12.987192  3732 net.cpp:148] Top shape: 24 528 14 14 (2483712)
I0403 15:51:12.987208  3732 net.cpp:156] Memory required for data: 1157244192
I0403 15:51:12.987224  3732 layer_factory.hpp:77] Creating layer inception_4d/output_inception_4d/output_0_split
I0403 15:51:12.987247  3732 net.cpp:91] Creating Layer inception_4d/output_inception_4d/output_0_split
I0403 15:51:12.987265  3732 net.cpp:425] inception_4d/output_inception_4d/output_0_split <- inception_4d/output
I0403 15:51:12.987285  3732 net.cpp:399] inception_4d/output_inception_4d/output_0_split -> inception_4d/output_inception_4d/output_0_split_0
I0403 15:51:12.987308  3732 net.cpp:399] inception_4d/output_inception_4d/output_0_split -> inception_4d/output_inception_4d/output_0_split_1
I0403 15:51:12.987331  3732 net.cpp:399] inception_4d/output_inception_4d/output_0_split -> inception_4d/output_inception_4d/output_0_split_2
I0403 15:51:12.987354  3732 net.cpp:399] inception_4d/output_inception_4d/output_0_split -> inception_4d/output_inception_4d/output_0_split_3
I0403 15:51:12.987375  3732 net.cpp:399] inception_4d/output_inception_4d/output_0_split -> inception_4d/output_inception_4d/output_0_split_4
I0403 15:51:12.987476  3732 net.cpp:141] Setting up inception_4d/output_inception_4d/output_0_split
I0403 15:51:12.987511  3732 net.cpp:148] Top shape: 24 528 14 14 (2483712)
I0403 15:51:12.987530  3732 net.cpp:148] Top shape: 24 528 14 14 (2483712)
I0403 15:51:12.987547  3732 net.cpp:148] Top shape: 24 528 14 14 (2483712)
I0403 15:51:12.987563  3732 net.cpp:148] Top shape: 24 528 14 14 (2483712)
I0403 15:51:12.987579  3732 net.cpp:148] Top shape: 24 528 14 14 (2483712)
I0403 15:51:12.987593  3732 net.cpp:156] Memory required for data: 1206918432
I0403 15:51:12.987607  3732 layer_factory.hpp:77] Creating layer loss2/ave_pool
I0403 15:51:12.987625  3732 net.cpp:91] Creating Layer loss2/ave_pool
I0403 15:51:12.987642  3732 net.cpp:425] loss2/ave_pool <- inception_4d/output_inception_4d/output_0_split_0
I0403 15:51:12.987663  3732 net.cpp:399] loss2/ave_pool -> loss2/ave_pool
I0403 15:51:12.987969  3732 net.cpp:141] Setting up loss2/ave_pool
I0403 15:51:12.987995  3732 net.cpp:148] Top shape: 24 528 4 4 (202752)
I0403 15:51:12.988010  3732 net.cpp:156] Memory required for data: 1207729440
I0403 15:51:12.988025  3732 layer_factory.hpp:77] Creating layer loss2/conv
I0403 15:51:12.988047  3732 net.cpp:91] Creating Layer loss2/conv
I0403 15:51:12.988065  3732 net.cpp:425] loss2/conv <- loss2/ave_pool
I0403 15:51:12.988086  3732 net.cpp:399] loss2/conv -> loss2/conv
I0403 15:51:12.989959  3732 net.cpp:141] Setting up loss2/conv
I0403 15:51:12.989989  3732 net.cpp:148] Top shape: 24 128 4 4 (49152)
I0403 15:51:12.990005  3732 net.cpp:156] Memory required for data: 1207926048
I0403 15:51:12.990025  3732 layer_factory.hpp:77] Creating layer loss2/relu_conv
I0403 15:51:12.990046  3732 net.cpp:91] Creating Layer loss2/relu_conv
I0403 15:51:12.990066  3732 net.cpp:425] loss2/relu_conv <- loss2/conv
I0403 15:51:12.990084  3732 net.cpp:386] loss2/relu_conv -> loss2/conv (in-place)
I0403 15:51:12.990373  3732 net.cpp:141] Setting up loss2/relu_conv
I0403 15:51:12.990399  3732 net.cpp:148] Top shape: 24 128 4 4 (49152)
I0403 15:51:12.990414  3732 net.cpp:156] Memory required for data: 1208122656
I0403 15:51:12.990428  3732 layer_factory.hpp:77] Creating layer loss2/fc
I0403 15:51:12.990450  3732 net.cpp:91] Creating Layer loss2/fc
I0403 15:51:12.990468  3732 net.cpp:425] loss2/fc <- loss2/conv
I0403 15:51:12.990486  3732 net.cpp:399] loss2/fc -> loss2/fc
I0403 15:51:13.007941  3732 net.cpp:141] Setting up loss2/fc
I0403 15:51:13.007980  3732 net.cpp:148] Top shape: 24 1024 (24576)
I0403 15:51:13.007998  3732 net.cpp:156] Memory required for data: 1208220960
I0403 15:51:13.008018  3732 layer_factory.hpp:77] Creating layer loss2/relu_fc
I0403 15:51:13.008038  3732 net.cpp:91] Creating Layer loss2/relu_fc
I0403 15:51:13.008054  3732 net.cpp:425] loss2/relu_fc <- loss2/fc
I0403 15:51:13.008075  3732 net.cpp:386] loss2/relu_fc -> loss2/fc (in-place)
I0403 15:51:13.008397  3732 net.cpp:141] Setting up loss2/relu_fc
I0403 15:51:13.008424  3732 net.cpp:148] Top shape: 24 1024 (24576)
I0403 15:51:13.008440  3732 net.cpp:156] Memory required for data: 1208319264
I0403 15:51:13.008453  3732 layer_factory.hpp:77] Creating layer loss2/drop_fc
I0403 15:51:13.008471  3732 net.cpp:91] Creating Layer loss2/drop_fc
I0403 15:51:13.008488  3732 net.cpp:425] loss2/drop_fc <- loss2/fc
I0403 15:51:13.008508  3732 net.cpp:386] loss2/drop_fc -> loss2/fc (in-place)
I0403 15:51:13.008556  3732 net.cpp:141] Setting up loss2/drop_fc
I0403 15:51:13.008584  3732 net.cpp:148] Top shape: 24 1024 (24576)
I0403 15:51:13.008608  3732 net.cpp:156] Memory required for data: 1208417568
I0403 15:51:13.008623  3732 layer_factory.hpp:77] Creating layer loss2/classifier_plantvillage
I0403 15:51:13.008641  3732 net.cpp:91] Creating Layer loss2/classifier_plantvillage
I0403 15:51:13.008656  3732 net.cpp:425] loss2/classifier_plantvillage <- loss2/fc
I0403 15:51:13.008677  3732 net.cpp:399] loss2/classifier_plantvillage -> loss2/classifier_plantvillage
I0403 15:51:13.009068  3732 net.cpp:141] Setting up loss2/classifier_plantvillage
I0403 15:51:13.009095  3732 net.cpp:148] Top shape: 24 38 (912)
I0403 15:51:13.009130  3732 net.cpp:156] Memory required for data: 1208421216
I0403 15:51:13.009148  3732 layer_factory.hpp:77] Creating layer loss2/classifier_plantvillage_loss2/classifier_plantvillage_0_split
I0403 15:51:13.009166  3732 net.cpp:91] Creating Layer loss2/classifier_plantvillage_loss2/classifier_plantvillage_0_split
I0403 15:51:13.009182  3732 net.cpp:425] loss2/classifier_plantvillage_loss2/classifier_plantvillage_0_split <- loss2/classifier_plantvillage
I0403 15:51:13.009199  3732 net.cpp:399] loss2/classifier_plantvillage_loss2/classifier_plantvillage_0_split -> loss2/classifier_plantvillage_loss2/classifier_plantvillage_0_split_0
I0403 15:51:13.009222  3732 net.cpp:399] loss2/classifier_plantvillage_loss2/classifier_plantvillage_0_split -> loss2/classifier_plantvillage_loss2/classifier_plantvillage_0_split_1
I0403 15:51:13.009245  3732 net.cpp:399] loss2/classifier_plantvillage_loss2/classifier_plantvillage_0_split -> loss2/classifier_plantvillage_loss2/classifier_plantvillage_0_split_2
I0403 15:51:13.009323  3732 net.cpp:141] Setting up loss2/classifier_plantvillage_loss2/classifier_plantvillage_0_split
I0403 15:51:13.009346  3732 net.cpp:148] Top shape: 24 38 (912)
I0403 15:51:13.009363  3732 net.cpp:148] Top shape: 24 38 (912)
I0403 15:51:13.009378  3732 net.cpp:148] Top shape: 24 38 (912)
I0403 15:51:13.009392  3732 net.cpp:156] Memory required for data: 1208432160
I0403 15:51:13.009407  3732 layer_factory.hpp:77] Creating layer inception_4e/1x1
I0403 15:51:13.009426  3732 net.cpp:91] Creating Layer inception_4e/1x1
I0403 15:51:13.009443  3732 net.cpp:425] inception_4e/1x1 <- inception_4d/output_inception_4d/output_0_split_1
I0403 15:51:13.009464  3732 net.cpp:399] inception_4e/1x1 -> inception_4e/1x1
I0403 15:51:13.011251  3732 net.cpp:141] Setting up inception_4e/1x1
I0403 15:51:13.011278  3732 net.cpp:148] Top shape: 24 256 14 14 (1204224)
I0403 15:51:13.011294  3732 net.cpp:156] Memory required for data: 1213249056
I0403 15:51:13.011312  3732 layer_factory.hpp:77] Creating layer inception_4e/relu_1x1
I0403 15:51:13.011332  3732 net.cpp:91] Creating Layer inception_4e/relu_1x1
I0403 15:51:13.011350  3732 net.cpp:425] inception_4e/relu_1x1 <- inception_4e/1x1
I0403 15:51:13.011368  3732 net.cpp:386] inception_4e/relu_1x1 -> inception_4e/1x1 (in-place)
I0403 15:51:13.011658  3732 net.cpp:141] Setting up inception_4e/relu_1x1
I0403 15:51:13.011683  3732 net.cpp:148] Top shape: 24 256 14 14 (1204224)
I0403 15:51:13.011698  3732 net.cpp:156] Memory required for data: 1218065952
I0403 15:51:13.011713  3732 layer_factory.hpp:77] Creating layer inception_4e/3x3_reduce
I0403 15:51:13.011735  3732 net.cpp:91] Creating Layer inception_4e/3x3_reduce
I0403 15:51:13.011754  3732 net.cpp:425] inception_4e/3x3_reduce <- inception_4d/output_inception_4d/output_0_split_2
I0403 15:51:13.011773  3732 net.cpp:399] inception_4e/3x3_reduce -> inception_4e/3x3_reduce
I0403 15:51:13.013854  3732 net.cpp:141] Setting up inception_4e/3x3_reduce
I0403 15:51:13.013883  3732 net.cpp:148] Top shape: 24 160 14 14 (752640)
I0403 15:51:13.013898  3732 net.cpp:156] Memory required for data: 1221076512
I0403 15:51:13.013917  3732 layer_factory.hpp:77] Creating layer inception_4e/relu_3x3_reduce
I0403 15:51:13.013937  3732 net.cpp:91] Creating Layer inception_4e/relu_3x3_reduce
I0403 15:51:13.013954  3732 net.cpp:425] inception_4e/relu_3x3_reduce <- inception_4e/3x3_reduce
I0403 15:51:13.013972  3732 net.cpp:386] inception_4e/relu_3x3_reduce -> inception_4e/3x3_reduce (in-place)
I0403 15:51:13.014153  3732 net.cpp:141] Setting up inception_4e/relu_3x3_reduce
I0403 15:51:13.014176  3732 net.cpp:148] Top shape: 24 160 14 14 (752640)
I0403 15:51:13.014191  3732 net.cpp:156] Memory required for data: 1224087072
I0403 15:51:13.014206  3732 layer_factory.hpp:77] Creating layer inception_4e/3x3
I0403 15:51:13.014230  3732 net.cpp:91] Creating Layer inception_4e/3x3
I0403 15:51:13.014253  3732 net.cpp:425] inception_4e/3x3 <- inception_4e/3x3_reduce
I0403 15:51:13.014272  3732 net.cpp:399] inception_4e/3x3 -> inception_4e/3x3
I0403 15:51:13.019168  3732 net.cpp:141] Setting up inception_4e/3x3
I0403 15:51:13.019209  3732 net.cpp:148] Top shape: 24 320 14 14 (1505280)
I0403 15:51:13.019227  3732 net.cpp:156] Memory required for data: 1230108192
I0403 15:51:13.019249  3732 layer_factory.hpp:77] Creating layer inception_4e/relu_3x3
I0403 15:51:13.019271  3732 net.cpp:91] Creating Layer inception_4e/relu_3x3
I0403 15:51:13.019289  3732 net.cpp:425] inception_4e/relu_3x3 <- inception_4e/3x3
I0403 15:51:13.019305  3732 net.cpp:386] inception_4e/relu_3x3 -> inception_4e/3x3 (in-place)
I0403 15:51:13.019606  3732 net.cpp:141] Setting up inception_4e/relu_3x3
I0403 15:51:13.019634  3732 net.cpp:148] Top shape: 24 320 14 14 (1505280)
I0403 15:51:13.019650  3732 net.cpp:156] Memory required for data: 1236129312
I0403 15:51:13.019665  3732 layer_factory.hpp:77] Creating layer inception_4e/5x5_reduce
I0403 15:51:13.019687  3732 net.cpp:91] Creating Layer inception_4e/5x5_reduce
I0403 15:51:13.019706  3732 net.cpp:425] inception_4e/5x5_reduce <- inception_4d/output_inception_4d/output_0_split_3
I0403 15:51:13.019724  3732 net.cpp:399] inception_4e/5x5_reduce -> inception_4e/5x5_reduce
I0403 15:51:13.020781  3732 net.cpp:141] Setting up inception_4e/5x5_reduce
I0403 15:51:13.020807  3732 net.cpp:148] Top shape: 24 32 14 14 (150528)
I0403 15:51:13.020823  3732 net.cpp:156] Memory required for data: 1236731424
I0403 15:51:13.020841  3732 layer_factory.hpp:77] Creating layer inception_4e/relu_5x5_reduce
I0403 15:51:13.020860  3732 net.cpp:91] Creating Layer inception_4e/relu_5x5_reduce
I0403 15:51:13.020877  3732 net.cpp:425] inception_4e/relu_5x5_reduce <- inception_4e/5x5_reduce
I0403 15:51:13.020895  3732 net.cpp:386] inception_4e/relu_5x5_reduce -> inception_4e/5x5_reduce (in-place)
I0403 15:51:13.021195  3732 net.cpp:141] Setting up inception_4e/relu_5x5_reduce
I0403 15:51:13.021224  3732 net.cpp:148] Top shape: 24 32 14 14 (150528)
I0403 15:51:13.021239  3732 net.cpp:156] Memory required for data: 1237333536
I0403 15:51:13.021257  3732 layer_factory.hpp:77] Creating layer inception_4e/5x5
I0403 15:51:13.021296  3732 net.cpp:91] Creating Layer inception_4e/5x5
I0403 15:51:13.021317  3732 net.cpp:425] inception_4e/5x5 <- inception_4e/5x5_reduce
I0403 15:51:13.021338  3732 net.cpp:399] inception_4e/5x5 -> inception_4e/5x5
I0403 15:51:13.023156  3732 net.cpp:141] Setting up inception_4e/5x5
I0403 15:51:13.023185  3732 net.cpp:148] Top shape: 24 128 14 14 (602112)
I0403 15:51:13.023200  3732 net.cpp:156] Memory required for data: 1239741984
I0403 15:51:13.023221  3732 layer_factory.hpp:77] Creating layer inception_4e/relu_5x5
I0403 15:51:13.023238  3732 net.cpp:91] Creating Layer inception_4e/relu_5x5
I0403 15:51:13.023260  3732 net.cpp:425] inception_4e/relu_5x5 <- inception_4e/5x5
I0403 15:51:13.023280  3732 net.cpp:386] inception_4e/relu_5x5 -> inception_4e/5x5 (in-place)
I0403 15:51:13.023473  3732 net.cpp:141] Setting up inception_4e/relu_5x5
I0403 15:51:13.023499  3732 net.cpp:148] Top shape: 24 128 14 14 (602112)
I0403 15:51:13.023514  3732 net.cpp:156] Memory required for data: 1242150432
I0403 15:51:13.023527  3732 layer_factory.hpp:77] Creating layer inception_4e/pool
I0403 15:51:13.023547  3732 net.cpp:91] Creating Layer inception_4e/pool
I0403 15:51:13.023564  3732 net.cpp:425] inception_4e/pool <- inception_4d/output_inception_4d/output_0_split_4
I0403 15:51:13.023582  3732 net.cpp:399] inception_4e/pool -> inception_4e/pool
I0403 15:51:13.023651  3732 net.cpp:141] Setting up inception_4e/pool
I0403 15:51:13.023675  3732 net.cpp:148] Top shape: 24 528 14 14 (2483712)
I0403 15:51:13.023689  3732 net.cpp:156] Memory required for data: 1252085280
I0403 15:51:13.023705  3732 layer_factory.hpp:77] Creating layer inception_4e/pool_proj
I0403 15:51:13.023726  3732 net.cpp:91] Creating Layer inception_4e/pool_proj
I0403 15:51:13.023744  3732 net.cpp:425] inception_4e/pool_proj <- inception_4e/pool
I0403 15:51:13.023764  3732 net.cpp:399] inception_4e/pool_proj -> inception_4e/pool_proj
I0403 15:51:13.025290  3732 net.cpp:141] Setting up inception_4e/pool_proj
I0403 15:51:13.025328  3732 net.cpp:148] Top shape: 24 128 14 14 (602112)
I0403 15:51:13.025344  3732 net.cpp:156] Memory required for data: 1254493728
I0403 15:51:13.025362  3732 layer_factory.hpp:77] Creating layer inception_4e/relu_pool_proj
I0403 15:51:13.025379  3732 net.cpp:91] Creating Layer inception_4e/relu_pool_proj
I0403 15:51:13.025395  3732 net.cpp:425] inception_4e/relu_pool_proj <- inception_4e/pool_proj
I0403 15:51:13.025418  3732 net.cpp:386] inception_4e/relu_pool_proj -> inception_4e/pool_proj (in-place)
I0403 15:51:13.025706  3732 net.cpp:141] Setting up inception_4e/relu_pool_proj
I0403 15:51:13.025730  3732 net.cpp:148] Top shape: 24 128 14 14 (602112)
I0403 15:51:13.025745  3732 net.cpp:156] Memory required for data: 1256902176
I0403 15:51:13.025760  3732 layer_factory.hpp:77] Creating layer inception_4e/output
I0403 15:51:13.025777  3732 net.cpp:91] Creating Layer inception_4e/output
I0403 15:51:13.025792  3732 net.cpp:425] inception_4e/output <- inception_4e/1x1
I0403 15:51:13.025809  3732 net.cpp:425] inception_4e/output <- inception_4e/3x3
I0403 15:51:13.025825  3732 net.cpp:425] inception_4e/output <- inception_4e/5x5
I0403 15:51:13.025840  3732 net.cpp:425] inception_4e/output <- inception_4e/pool_proj
I0403 15:51:13.025859  3732 net.cpp:399] inception_4e/output -> inception_4e/output
I0403 15:51:13.025907  3732 net.cpp:141] Setting up inception_4e/output
I0403 15:51:13.025933  3732 net.cpp:148] Top shape: 24 832 14 14 (3913728)
I0403 15:51:13.025949  3732 net.cpp:156] Memory required for data: 1272557088
I0403 15:51:13.025962  3732 layer_factory.hpp:77] Creating layer pool4/3x3_s2
I0403 15:51:13.025979  3732 net.cpp:91] Creating Layer pool4/3x3_s2
I0403 15:51:13.025995  3732 net.cpp:425] pool4/3x3_s2 <- inception_4e/output
I0403 15:51:13.026013  3732 net.cpp:399] pool4/3x3_s2 -> pool4/3x3_s2
I0403 15:51:13.026080  3732 net.cpp:141] Setting up pool4/3x3_s2
I0403 15:51:13.026103  3732 net.cpp:148] Top shape: 24 832 7 7 (978432)
I0403 15:51:13.026118  3732 net.cpp:156] Memory required for data: 1276470816
I0403 15:51:13.026132  3732 layer_factory.hpp:77] Creating layer pool4/3x3_s2_pool4/3x3_s2_0_split
I0403 15:51:13.026149  3732 net.cpp:91] Creating Layer pool4/3x3_s2_pool4/3x3_s2_0_split
I0403 15:51:13.026165  3732 net.cpp:425] pool4/3x3_s2_pool4/3x3_s2_0_split <- pool4/3x3_s2
I0403 15:51:13.026183  3732 net.cpp:399] pool4/3x3_s2_pool4/3x3_s2_0_split -> pool4/3x3_s2_pool4/3x3_s2_0_split_0
I0403 15:51:13.026204  3732 net.cpp:399] pool4/3x3_s2_pool4/3x3_s2_0_split -> pool4/3x3_s2_pool4/3x3_s2_0_split_1
I0403 15:51:13.026226  3732 net.cpp:399] pool4/3x3_s2_pool4/3x3_s2_0_split -> pool4/3x3_s2_pool4/3x3_s2_0_split_2
I0403 15:51:13.026252  3732 net.cpp:399] pool4/3x3_s2_pool4/3x3_s2_0_split -> pool4/3x3_s2_pool4/3x3_s2_0_split_3
I0403 15:51:13.026345  3732 net.cpp:141] Setting up pool4/3x3_s2_pool4/3x3_s2_0_split
I0403 15:51:13.026367  3732 net.cpp:148] Top shape: 24 832 7 7 (978432)
I0403 15:51:13.026383  3732 net.cpp:148] Top shape: 24 832 7 7 (978432)
I0403 15:51:13.026398  3732 net.cpp:148] Top shape: 24 832 7 7 (978432)
I0403 15:51:13.026413  3732 net.cpp:148] Top shape: 24 832 7 7 (978432)
I0403 15:51:13.026427  3732 net.cpp:156] Memory required for data: 1292125728
I0403 15:51:13.026442  3732 layer_factory.hpp:77] Creating layer inception_5a/1x1
I0403 15:51:13.026463  3732 net.cpp:91] Creating Layer inception_5a/1x1
I0403 15:51:13.026480  3732 net.cpp:425] inception_5a/1x1 <- pool4/3x3_s2_pool4/3x3_s2_0_split_0
I0403 15:51:13.026500  3732 net.cpp:399] inception_5a/1x1 -> inception_5a/1x1
I0403 15:51:13.029300  3732 net.cpp:141] Setting up inception_5a/1x1
I0403 15:51:13.029328  3732 net.cpp:148] Top shape: 24 256 7 7 (301056)
I0403 15:51:13.029343  3732 net.cpp:156] Memory required for data: 1293329952
I0403 15:51:13.029361  3732 layer_factory.hpp:77] Creating layer inception_5a/relu_1x1
I0403 15:51:13.029381  3732 net.cpp:91] Creating Layer inception_5a/relu_1x1
I0403 15:51:13.029398  3732 net.cpp:425] inception_5a/relu_1x1 <- inception_5a/1x1
I0403 15:51:13.029415  3732 net.cpp:386] inception_5a/relu_1x1 -> inception_5a/1x1 (in-place)
I0403 15:51:13.029721  3732 net.cpp:141] Setting up inception_5a/relu_1x1
I0403 15:51:13.029747  3732 net.cpp:148] Top shape: 24 256 7 7 (301056)
I0403 15:51:13.029762  3732 net.cpp:156] Memory required for data: 1294534176
I0403 15:51:13.029778  3732 layer_factory.hpp:77] Creating layer inception_5a/3x3_reduce
I0403 15:51:13.029799  3732 net.cpp:91] Creating Layer inception_5a/3x3_reduce
I0403 15:51:13.029816  3732 net.cpp:425] inception_5a/3x3_reduce <- pool4/3x3_s2_pool4/3x3_s2_0_split_1
I0403 15:51:13.029837  3732 net.cpp:399] inception_5a/3x3_reduce -> inception_5a/3x3_reduce
I0403 15:51:13.032253  3732 net.cpp:141] Setting up inception_5a/3x3_reduce
I0403 15:51:13.032284  3732 net.cpp:148] Top shape: 24 160 7 7 (188160)
I0403 15:51:13.032300  3732 net.cpp:156] Memory required for data: 1295286816
I0403 15:51:13.032320  3732 layer_factory.hpp:77] Creating layer inception_5a/relu_3x3_reduce
I0403 15:51:13.032337  3732 net.cpp:91] Creating Layer inception_5a/relu_3x3_reduce
I0403 15:51:13.032353  3732 net.cpp:425] inception_5a/relu_3x3_reduce <- inception_5a/3x3_reduce
I0403 15:51:13.032372  3732 net.cpp:386] inception_5a/relu_3x3_reduce -> inception_5a/3x3_reduce (in-place)
I0403 15:51:13.032557  3732 net.cpp:141] Setting up inception_5a/relu_3x3_reduce
I0403 15:51:13.032582  3732 net.cpp:148] Top shape: 24 160 7 7 (188160)
I0403 15:51:13.032598  3732 net.cpp:156] Memory required for data: 1296039456
I0403 15:51:13.032611  3732 layer_factory.hpp:77] Creating layer inception_5a/3x3
I0403 15:51:13.032634  3732 net.cpp:91] Creating Layer inception_5a/3x3
I0403 15:51:13.032649  3732 net.cpp:425] inception_5a/3x3 <- inception_5a/3x3_reduce
I0403 15:51:13.032671  3732 net.cpp:399] inception_5a/3x3 -> inception_5a/3x3
I0403 15:51:13.037607  3732 net.cpp:141] Setting up inception_5a/3x3
I0403 15:51:13.037638  3732 net.cpp:148] Top shape: 24 320 7 7 (376320)
I0403 15:51:13.037655  3732 net.cpp:156] Memory required for data: 1297544736
I0403 15:51:13.037673  3732 layer_factory.hpp:77] Creating layer inception_5a/relu_3x3
I0403 15:51:13.037691  3732 net.cpp:91] Creating Layer inception_5a/relu_3x3
I0403 15:51:13.037708  3732 net.cpp:425] inception_5a/relu_3x3 <- inception_5a/3x3
I0403 15:51:13.037729  3732 net.cpp:386] inception_5a/relu_3x3 -> inception_5a/3x3 (in-place)
I0403 15:51:13.038022  3732 net.cpp:141] Setting up inception_5a/relu_3x3
I0403 15:51:13.038046  3732 net.cpp:148] Top shape: 24 320 7 7 (376320)
I0403 15:51:13.038061  3732 net.cpp:156] Memory required for data: 1299050016
I0403 15:51:13.038075  3732 layer_factory.hpp:77] Creating layer inception_5a/5x5_reduce
I0403 15:51:13.038097  3732 net.cpp:91] Creating Layer inception_5a/5x5_reduce
I0403 15:51:13.038115  3732 net.cpp:425] inception_5a/5x5_reduce <- pool4/3x3_s2_pool4/3x3_s2_0_split_2
I0403 15:51:13.038136  3732 net.cpp:399] inception_5a/5x5_reduce -> inception_5a/5x5_reduce
I0403 15:51:13.039299  3732 net.cpp:141] Setting up inception_5a/5x5_reduce
I0403 15:51:13.039330  3732 net.cpp:148] Top shape: 24 32 7 7 (37632)
I0403 15:51:13.039346  3732 net.cpp:156] Memory required for data: 1299200544
I0403 15:51:13.039364  3732 layer_factory.hpp:77] Creating layer inception_5a/relu_5x5_reduce
I0403 15:51:13.039382  3732 net.cpp:91] Creating Layer inception_5a/relu_5x5_reduce
I0403 15:51:13.039398  3732 net.cpp:425] inception_5a/relu_5x5_reduce <- inception_5a/5x5_reduce
I0403 15:51:13.039417  3732 net.cpp:386] inception_5a/relu_5x5_reduce -> inception_5a/5x5_reduce (in-place)
I0403 15:51:13.039707  3732 net.cpp:141] Setting up inception_5a/relu_5x5_reduce
I0403 15:51:13.039732  3732 net.cpp:148] Top shape: 24 32 7 7 (37632)
I0403 15:51:13.039747  3732 net.cpp:156] Memory required for data: 1299351072
I0403 15:51:13.039762  3732 layer_factory.hpp:77] Creating layer inception_5a/5x5
I0403 15:51:13.039785  3732 net.cpp:91] Creating Layer inception_5a/5x5
I0403 15:51:13.039803  3732 net.cpp:425] inception_5a/5x5 <- inception_5a/5x5_reduce
I0403 15:51:13.039824  3732 net.cpp:399] inception_5a/5x5 -> inception_5a/5x5
I0403 15:51:13.041509  3732 net.cpp:141] Setting up inception_5a/5x5
I0403 15:51:13.041548  3732 net.cpp:148] Top shape: 24 128 7 7 (150528)
I0403 15:51:13.041563  3732 net.cpp:156] Memory required for data: 1299953184
I0403 15:51:13.041582  3732 layer_factory.hpp:77] Creating layer inception_5a/relu_5x5
I0403 15:51:13.041600  3732 net.cpp:91] Creating Layer inception_5a/relu_5x5
I0403 15:51:13.041616  3732 net.cpp:425] inception_5a/relu_5x5 <- inception_5a/5x5
I0403 15:51:13.041635  3732 net.cpp:386] inception_5a/relu_5x5 -> inception_5a/5x5 (in-place)
I0403 15:51:13.041821  3732 net.cpp:141] Setting up inception_5a/relu_5x5
I0403 15:51:13.041846  3732 net.cpp:148] Top shape: 24 128 7 7 (150528)
I0403 15:51:13.041860  3732 net.cpp:156] Memory required for data: 1300555296
I0403 15:51:13.041875  3732 layer_factory.hpp:77] Creating layer inception_5a/pool
I0403 15:51:13.041894  3732 net.cpp:91] Creating Layer inception_5a/pool
I0403 15:51:13.041911  3732 net.cpp:425] inception_5a/pool <- pool4/3x3_s2_pool4/3x3_s2_0_split_3
I0403 15:51:13.041929  3732 net.cpp:399] inception_5a/pool -> inception_5a/pool
I0403 15:51:13.041999  3732 net.cpp:141] Setting up inception_5a/pool
I0403 15:51:13.042022  3732 net.cpp:148] Top shape: 24 832 7 7 (978432)
I0403 15:51:13.042037  3732 net.cpp:156] Memory required for data: 1304469024
I0403 15:51:13.042052  3732 layer_factory.hpp:77] Creating layer inception_5a/pool_proj
I0403 15:51:13.042073  3732 net.cpp:91] Creating Layer inception_5a/pool_proj
I0403 15:51:13.042090  3732 net.cpp:425] inception_5a/pool_proj <- inception_5a/pool
I0403 15:51:13.042110  3732 net.cpp:399] inception_5a/pool_proj -> inception_5a/pool_proj
I0403 15:51:13.044443  3732 net.cpp:141] Setting up inception_5a/pool_proj
I0403 15:51:13.044472  3732 net.cpp:148] Top shape: 24 128 7 7 (150528)
I0403 15:51:13.044488  3732 net.cpp:156] Memory required for data: 1305071136
I0403 15:51:13.044507  3732 layer_factory.hpp:77] Creating layer inception_5a/relu_pool_proj
I0403 15:51:13.044524  3732 net.cpp:91] Creating Layer inception_5a/relu_pool_proj
I0403 15:51:13.044540  3732 net.cpp:425] inception_5a/relu_pool_proj <- inception_5a/pool_proj
I0403 15:51:13.044560  3732 net.cpp:386] inception_5a/relu_pool_proj -> inception_5a/pool_proj (in-place)
I0403 15:51:13.044852  3732 net.cpp:141] Setting up inception_5a/relu_pool_proj
I0403 15:51:13.044878  3732 net.cpp:148] Top shape: 24 128 7 7 (150528)
I0403 15:51:13.044891  3732 net.cpp:156] Memory required for data: 1305673248
I0403 15:51:13.044905  3732 layer_factory.hpp:77] Creating layer inception_5a/output
I0403 15:51:13.044922  3732 net.cpp:91] Creating Layer inception_5a/output
I0403 15:51:13.044939  3732 net.cpp:425] inception_5a/output <- inception_5a/1x1
I0403 15:51:13.044955  3732 net.cpp:425] inception_5a/output <- inception_5a/3x3
I0403 15:51:13.044970  3732 net.cpp:425] inception_5a/output <- inception_5a/5x5
I0403 15:51:13.044986  3732 net.cpp:425] inception_5a/output <- inception_5a/pool_proj
I0403 15:51:13.045006  3732 net.cpp:399] inception_5a/output -> inception_5a/output
I0403 15:51:13.045054  3732 net.cpp:141] Setting up inception_5a/output
I0403 15:51:13.045078  3732 net.cpp:148] Top shape: 24 832 7 7 (978432)
I0403 15:51:13.045091  3732 net.cpp:156] Memory required for data: 1309586976
I0403 15:51:13.045105  3732 layer_factory.hpp:77] Creating layer inception_5a/output_inception_5a/output_0_split
I0403 15:51:13.045125  3732 net.cpp:91] Creating Layer inception_5a/output_inception_5a/output_0_split
I0403 15:51:13.045141  3732 net.cpp:425] inception_5a/output_inception_5a/output_0_split <- inception_5a/output
I0403 15:51:13.045159  3732 net.cpp:399] inception_5a/output_inception_5a/output_0_split -> inception_5a/output_inception_5a/output_0_split_0
I0403 15:51:13.045182  3732 net.cpp:399] inception_5a/output_inception_5a/output_0_split -> inception_5a/output_inception_5a/output_0_split_1
I0403 15:51:13.045204  3732 net.cpp:399] inception_5a/output_inception_5a/output_0_split -> inception_5a/output_inception_5a/output_0_split_2
I0403 15:51:13.045227  3732 net.cpp:399] inception_5a/output_inception_5a/output_0_split -> inception_5a/output_inception_5a/output_0_split_3
I0403 15:51:13.045341  3732 net.cpp:141] Setting up inception_5a/output_inception_5a/output_0_split
I0403 15:51:13.045364  3732 net.cpp:148] Top shape: 24 832 7 7 (978432)
I0403 15:51:13.045380  3732 net.cpp:148] Top shape: 24 832 7 7 (978432)
I0403 15:51:13.045395  3732 net.cpp:148] Top shape: 24 832 7 7 (978432)
I0403 15:51:13.045410  3732 net.cpp:148] Top shape: 24 832 7 7 (978432)
I0403 15:51:13.045424  3732 net.cpp:156] Memory required for data: 1325241888
I0403 15:51:13.045439  3732 layer_factory.hpp:77] Creating layer inception_5b/1x1
I0403 15:51:13.045459  3732 net.cpp:91] Creating Layer inception_5b/1x1
I0403 15:51:13.045476  3732 net.cpp:425] inception_5b/1x1 <- inception_5a/output_inception_5a/output_0_split_0
I0403 15:51:13.045498  3732 net.cpp:399] inception_5b/1x1 -> inception_5b/1x1
I0403 15:51:13.049190  3732 net.cpp:141] Setting up inception_5b/1x1
I0403 15:51:13.049226  3732 net.cpp:148] Top shape: 24 384 7 7 (451584)
I0403 15:51:13.049247  3732 net.cpp:156] Memory required for data: 1327048224
I0403 15:51:13.049266  3732 layer_factory.hpp:77] Creating layer inception_5b/relu_1x1
I0403 15:51:13.049284  3732 net.cpp:91] Creating Layer inception_5b/relu_1x1
I0403 15:51:13.049300  3732 net.cpp:425] inception_5b/relu_1x1 <- inception_5b/1x1
I0403 15:51:13.049320  3732 net.cpp:386] inception_5b/relu_1x1 -> inception_5b/1x1 (in-place)
I0403 15:51:13.049618  3732 net.cpp:141] Setting up inception_5b/relu_1x1
I0403 15:51:13.049645  3732 net.cpp:148] Top shape: 24 384 7 7 (451584)
I0403 15:51:13.049661  3732 net.cpp:156] Memory required for data: 1328854560
I0403 15:51:13.049676  3732 layer_factory.hpp:77] Creating layer inception_5b/3x3_reduce
I0403 15:51:13.049698  3732 net.cpp:91] Creating Layer inception_5b/3x3_reduce
I0403 15:51:13.049715  3732 net.cpp:425] inception_5b/3x3_reduce <- inception_5a/output_inception_5a/output_0_split_1
I0403 15:51:13.049738  3732 net.cpp:399] inception_5b/3x3_reduce -> inception_5b/3x3_reduce
I0403 15:51:13.052383  3732 net.cpp:141] Setting up inception_5b/3x3_reduce
I0403 15:51:13.052414  3732 net.cpp:148] Top shape: 24 192 7 7 (225792)
I0403 15:51:13.052431  3732 net.cpp:156] Memory required for data: 1329757728
I0403 15:51:13.052449  3732 layer_factory.hpp:77] Creating layer inception_5b/relu_3x3_reduce
I0403 15:51:13.052466  3732 net.cpp:91] Creating Layer inception_5b/relu_3x3_reduce
I0403 15:51:13.052482  3732 net.cpp:425] inception_5b/relu_3x3_reduce <- inception_5b/3x3_reduce
I0403 15:51:13.052502  3732 net.cpp:386] inception_5b/relu_3x3_reduce -> inception_5b/3x3_reduce (in-place)
I0403 15:51:13.052695  3732 net.cpp:141] Setting up inception_5b/relu_3x3_reduce
I0403 15:51:13.052718  3732 net.cpp:148] Top shape: 24 192 7 7 (225792)
I0403 15:51:13.052733  3732 net.cpp:156] Memory required for data: 1330660896
I0403 15:51:13.052747  3732 layer_factory.hpp:77] Creating layer inception_5b/3x3
I0403 15:51:13.052769  3732 net.cpp:91] Creating Layer inception_5b/3x3
I0403 15:51:13.052788  3732 net.cpp:425] inception_5b/3x3 <- inception_5b/3x3_reduce
I0403 15:51:13.052809  3732 net.cpp:399] inception_5b/3x3 -> inception_5b/3x3
I0403 15:51:13.059440  3732 net.cpp:141] Setting up inception_5b/3x3
I0403 15:51:13.059483  3732 net.cpp:148] Top shape: 24 384 7 7 (451584)
I0403 15:51:13.059500  3732 net.cpp:156] Memory required for data: 1332467232
I0403 15:51:13.059522  3732 layer_factory.hpp:77] Creating layer inception_5b/relu_3x3
I0403 15:51:13.059542  3732 net.cpp:91] Creating Layer inception_5b/relu_3x3
I0403 15:51:13.059561  3732 net.cpp:425] inception_5b/relu_3x3 <- inception_5b/3x3
I0403 15:51:13.059582  3732 net.cpp:386] inception_5b/relu_3x3 -> inception_5b/3x3 (in-place)
I0403 15:51:13.059877  3732 net.cpp:141] Setting up inception_5b/relu_3x3
I0403 15:51:13.059903  3732 net.cpp:148] Top shape: 24 384 7 7 (451584)
I0403 15:51:13.059918  3732 net.cpp:156] Memory required for data: 1334273568
I0403 15:51:13.059933  3732 layer_factory.hpp:77] Creating layer inception_5b/5x5_reduce
I0403 15:51:13.059978  3732 net.cpp:91] Creating Layer inception_5b/5x5_reduce
I0403 15:51:13.059996  3732 net.cpp:425] inception_5b/5x5_reduce <- inception_5a/output_inception_5a/output_0_split_2
I0403 15:51:13.060019  3732 net.cpp:399] inception_5b/5x5_reduce -> inception_5b/5x5_reduce
I0403 15:51:13.061298  3732 net.cpp:141] Setting up inception_5b/5x5_reduce
I0403 15:51:13.061326  3732 net.cpp:148] Top shape: 24 48 7 7 (56448)
I0403 15:51:13.061342  3732 net.cpp:156] Memory required for data: 1334499360
I0403 15:51:13.061359  3732 layer_factory.hpp:77] Creating layer inception_5b/relu_5x5_reduce
I0403 15:51:13.061378  3732 net.cpp:91] Creating Layer inception_5b/relu_5x5_reduce
I0403 15:51:13.061393  3732 net.cpp:425] inception_5b/relu_5x5_reduce <- inception_5b/5x5_reduce
I0403 15:51:13.061413  3732 net.cpp:386] inception_5b/relu_5x5_reduce -> inception_5b/5x5_reduce (in-place)
I0403 15:51:13.061784  3732 net.cpp:141] Setting up inception_5b/relu_5x5_reduce
I0403 15:51:13.061811  3732 net.cpp:148] Top shape: 24 48 7 7 (56448)
I0403 15:51:13.061830  3732 net.cpp:156] Memory required for data: 1334725152
I0403 15:51:13.061846  3732 layer_factory.hpp:77] Creating layer inception_5b/5x5
I0403 15:51:13.061867  3732 net.cpp:91] Creating Layer inception_5b/5x5
I0403 15:51:13.061884  3732 net.cpp:425] inception_5b/5x5 <- inception_5b/5x5_reduce
I0403 15:51:13.061902  3732 net.cpp:399] inception_5b/5x5 -> inception_5b/5x5
I0403 15:51:13.063959  3732 net.cpp:141] Setting up inception_5b/5x5
I0403 15:51:13.063988  3732 net.cpp:148] Top shape: 24 128 7 7 (150528)
I0403 15:51:13.064007  3732 net.cpp:156] Memory required for data: 1335327264
I0403 15:51:13.064026  3732 layer_factory.hpp:77] Creating layer inception_5b/relu_5x5
I0403 15:51:13.064049  3732 net.cpp:91] Creating Layer inception_5b/relu_5x5
I0403 15:51:13.064067  3732 net.cpp:425] inception_5b/relu_5x5 <- inception_5b/5x5
I0403 15:51:13.064086  3732 net.cpp:386] inception_5b/relu_5x5 -> inception_5b/5x5 (in-place)
I0403 15:51:13.064283  3732 net.cpp:141] Setting up inception_5b/relu_5x5
I0403 15:51:13.064308  3732 net.cpp:148] Top shape: 24 128 7 7 (150528)
I0403 15:51:13.064323  3732 net.cpp:156] Memory required for data: 1335929376
I0403 15:51:13.064338  3732 layer_factory.hpp:77] Creating layer inception_5b/pool
I0403 15:51:13.064359  3732 net.cpp:91] Creating Layer inception_5b/pool
I0403 15:51:13.064376  3732 net.cpp:425] inception_5b/pool <- inception_5a/output_inception_5a/output_0_split_3
I0403 15:51:13.064394  3732 net.cpp:399] inception_5b/pool -> inception_5b/pool
I0403 15:51:13.064467  3732 net.cpp:141] Setting up inception_5b/pool
I0403 15:51:13.064492  3732 net.cpp:148] Top shape: 24 832 7 7 (978432)
I0403 15:51:13.064507  3732 net.cpp:156] Memory required for data: 1339843104
I0403 15:51:13.064522  3732 layer_factory.hpp:77] Creating layer inception_5b/pool_proj
I0403 15:51:13.064543  3732 net.cpp:91] Creating Layer inception_5b/pool_proj
I0403 15:51:13.064563  3732 net.cpp:425] inception_5b/pool_proj <- inception_5b/pool
I0403 15:51:13.064585  3732 net.cpp:399] inception_5b/pool_proj -> inception_5b/pool_proj
I0403 15:51:13.066892  3732 net.cpp:141] Setting up inception_5b/pool_proj
I0403 15:51:13.066922  3732 net.cpp:148] Top shape: 24 128 7 7 (150528)
I0403 15:51:13.066938  3732 net.cpp:156] Memory required for data: 1340445216
I0403 15:51:13.066956  3732 layer_factory.hpp:77] Creating layer inception_5b/relu_pool_proj
I0403 15:51:13.066974  3732 net.cpp:91] Creating Layer inception_5b/relu_pool_proj
I0403 15:51:13.066990  3732 net.cpp:425] inception_5b/relu_pool_proj <- inception_5b/pool_proj
I0403 15:51:13.067010  3732 net.cpp:386] inception_5b/relu_pool_proj -> inception_5b/pool_proj (in-place)
I0403 15:51:13.067322  3732 net.cpp:141] Setting up inception_5b/relu_pool_proj
I0403 15:51:13.067349  3732 net.cpp:148] Top shape: 24 128 7 7 (150528)
I0403 15:51:13.067364  3732 net.cpp:156] Memory required for data: 1341047328
I0403 15:51:13.067379  3732 layer_factory.hpp:77] Creating layer inception_5b/output
I0403 15:51:13.067399  3732 net.cpp:91] Creating Layer inception_5b/output
I0403 15:51:13.067427  3732 net.cpp:425] inception_5b/output <- inception_5b/1x1
I0403 15:51:13.067445  3732 net.cpp:425] inception_5b/output <- inception_5b/3x3
I0403 15:51:13.067461  3732 net.cpp:425] inception_5b/output <- inception_5b/5x5
I0403 15:51:13.067487  3732 net.cpp:425] inception_5b/output <- inception_5b/pool_proj
I0403 15:51:13.067507  3732 net.cpp:399] inception_5b/output -> inception_5b/output
I0403 15:51:13.067559  3732 net.cpp:141] Setting up inception_5b/output
I0403 15:51:13.067584  3732 net.cpp:148] Top shape: 24 1024 7 7 (1204224)
I0403 15:51:13.067600  3732 net.cpp:156] Memory required for data: 1345864224
I0403 15:51:13.067615  3732 layer_factory.hpp:77] Creating layer pool5/7x7_s1
I0403 15:51:13.067633  3732 net.cpp:91] Creating Layer pool5/7x7_s1
I0403 15:51:13.067648  3732 net.cpp:425] pool5/7x7_s1 <- inception_5b/output
I0403 15:51:13.067667  3732 net.cpp:399] pool5/7x7_s1 -> pool5/7x7_s1
I0403 15:51:13.067879  3732 net.cpp:141] Setting up pool5/7x7_s1
I0403 15:51:13.067904  3732 net.cpp:148] Top shape: 24 1024 1 1 (24576)
I0403 15:51:13.067919  3732 net.cpp:156] Memory required for data: 1345962528
I0403 15:51:13.067934  3732 layer_factory.hpp:77] Creating layer pool5/drop_7x7_s1
I0403 15:51:13.067952  3732 net.cpp:91] Creating Layer pool5/drop_7x7_s1
I0403 15:51:13.067968  3732 net.cpp:425] pool5/drop_7x7_s1 <- pool5/7x7_s1
I0403 15:51:13.067987  3732 net.cpp:386] pool5/drop_7x7_s1 -> pool5/7x7_s1 (in-place)
I0403 15:51:13.068037  3732 net.cpp:141] Setting up pool5/drop_7x7_s1
I0403 15:51:13.068066  3732 net.cpp:148] Top shape: 24 1024 1 1 (24576)
I0403 15:51:13.068083  3732 net.cpp:156] Memory required for data: 1346060832
I0403 15:51:13.068097  3732 layer_factory.hpp:77] Creating layer loss3/classifier_plantvillage
I0403 15:51:13.068116  3732 net.cpp:91] Creating Layer loss3/classifier_plantvillage
I0403 15:51:13.068132  3732 net.cpp:425] loss3/classifier_plantvillage <- pool5/7x7_s1
I0403 15:51:13.068152  3732 net.cpp:399] loss3/classifier_plantvillage -> loss3/classifier_plantvillage
I0403 15:51:13.068578  3732 net.cpp:141] Setting up loss3/classifier_plantvillage
I0403 15:51:13.068603  3732 net.cpp:148] Top shape: 24 38 (912)
I0403 15:51:13.068617  3732 net.cpp:156] Memory required for data: 1346064480
I0403 15:51:13.068635  3732 layer_factory.hpp:77] Creating layer loss3/classifier_plantvillage_loss3/classifier_plantvillage_0_split
I0403 15:51:13.068657  3732 net.cpp:91] Creating Layer loss3/classifier_plantvillage_loss3/classifier_plantvillage_0_split
I0403 15:51:13.068675  3732 net.cpp:425] loss3/classifier_plantvillage_loss3/classifier_plantvillage_0_split <- loss3/classifier_plantvillage
I0403 15:51:13.068692  3732 net.cpp:399] loss3/classifier_plantvillage_loss3/classifier_plantvillage_0_split -> loss3/classifier_plantvillage_loss3/classifier_plantvillage_0_split_0
I0403 15:51:13.068716  3732 net.cpp:399] loss3/classifier_plantvillage_loss3/classifier_plantvillage_0_split -> loss3/classifier_plantvillage_loss3/classifier_plantvillage_0_split_1
I0403 15:51:13.068735  3732 net.cpp:399] loss3/classifier_plantvillage_loss3/classifier_plantvillage_0_split -> loss3/classifier_plantvillage_loss3/classifier_plantvillage_0_split_2
I0403 15:51:13.068755  3732 net.cpp:399] loss3/classifier_plantvillage_loss3/classifier_plantvillage_0_split -> loss3/classifier_plantvillage_loss3/classifier_plantvillage_0_split_3
I0403 15:51:13.068857  3732 net.cpp:141] Setting up loss3/classifier_plantvillage_loss3/classifier_plantvillage_0_split
I0403 15:51:13.068881  3732 net.cpp:148] Top shape: 24 38 (912)
I0403 15:51:13.068899  3732 net.cpp:148] Top shape: 24 38 (912)
I0403 15:51:13.068918  3732 net.cpp:148] Top shape: 24 38 (912)
I0403 15:51:13.068934  3732 net.cpp:148] Top shape: 24 38 (912)
I0403 15:51:13.068949  3732 net.cpp:156] Memory required for data: 1346079072
I0403 15:51:13.068965  3732 layer_factory.hpp:77] Creating layer loss1/loss
I0403 15:51:13.068989  3732 net.cpp:91] Creating Layer loss1/loss
I0403 15:51:13.069010  3732 net.cpp:425] loss1/loss <- loss1/classifier_plantvillage_loss1/classifier_plantvillage_0_split_0
I0403 15:51:13.069041  3732 net.cpp:425] loss1/loss <- label_data_1_split_0
…
