…
I0403 15:07:11.799275  2692 net.cpp:313] The NetState phase (1) differed from the phase (0) specified by a rule in layer data
I0403 15:07:11.800649  2692 net.cpp:49] Initializing net from parameters: 
state {
  phase: TEST
}
layer {
  name: "data"
  type: "Data"
  top: "data"
  top: "label"
  include {
    phase: TEST
  }
  transform_param {
    mirror: false
    crop_size: 224
    mean_file: "/home/mohanty/data/final_dataset/lmdb/grayscale-50-50/mean.binaryproto"
  }
  data_param {
    source: "/home/mohanty/data/final_dataset/lmdb/grayscale-50-50/test_db"
    batch_size: 24
    backend: LMDB
  }
}
layer {
  name: "conv1/7x7_s2"
  type: "Convolution"
  bottom: "data"
  top: "conv1/7x7_s2"
  param {
    lr_mult: 1
    decay_mult: 1
  }
  param {
    lr_mult: 2
    decay_mult: 0
  }
  convolution_param {
    num_output: 64
    pad: 3
    kernel_size: 7
    stride: 2
    weight_filler {
      type: "xavier"
      std: 0.1
    }
    bias_filler {
      type: "constant"
      value: 0.2
    }
  }
}
layer {
  name: "conv1/relu_7x7"
  type: "ReLU"
  bottom: "conv1/7x7_s2"
  top: "conv1/7x7_s2"
}
layer {
  name: "pool1/3x3_s2"
  type: "Pooling"
  bottom: "conv1/7x7_s2"
  top: "pool1/3x3_s2"
  pooling_param {
    pool: MAX
    kernel_size: 3
    stride: 2
  }
}
layer {
  name: "pool1/norm1"
  type: "LRN"
  bottom: "pool1/3x3_s2"
  top: "pool1/norm1"
  lrn_param {
    local_size: 5
    alpha: 0.0001
    beta: 0.75
  }
}
layer {
  name: "conv2/3x3_reduce"
  type: "Convolution"
  bottom: "pool1/norm1"
  top: "conv2/3x3_reduce"
  param {
    lr_mult: 1
    decay_mult: 1
  }
  param {
    lr_mult: 2
    decay_mult: 0
  }
  convolution_param {
    num_output: 64
    kernel_size: 1
    weight_filler {
      type: "xavier"
      std: 0.1
    }
    bias_filler {
      type: "constant"
      value: 0.2
    }
  }
}
layer {
  name: "conv2/relu_3x3_reduce"
  type: "ReLU"
  bottom: "conv2/3x3_reduce"
  top: "conv2/3x3_reduce"
}
layer {
  name: "conv2/3x3"
  type: "Convolution"
  bottom: "conv2/3x3_reduce"
  top: "conv2/3x3"
  param {
    lr_mult: 1
    decay_mult: 1
  }
  param {
    lr_mult: 2
    decay_mult: 0
  }
  convolution_param {
    num_output: 192
    pad: 1
    kernel_size: 3
    weight_filler {
      type: "xavier"
      std: 0.03
    }
    bias_filler {
      type: "constant"
      value: 0.2
    }
  }
}
layer {
  name: "conv2/relu_3x3"
  type: "ReLU"
  bottom: "conv2/3x3"
  top: "conv2/3x3"
}
layer {
  name: "conv2/norm2"
  type: "LRN"
  bottom: "conv2/3x3"
  top: "conv2/norm2"
  lrn_param {
    local_size: 5
    alpha: 0.0001
    beta: 0.75
  }
}
layer {
  name: "pool2/3x3_s2"
  type: "Pooling"
  bottom: "conv2/norm2"
  top: "pool2/3x3_s2"
  pooling_param {
    pool: MAX
    kernel_size: 3
    stride: 2
  }
}
layer {
  name: "inception_3a/1x1"
  type: "Convolution"
  bottom: "pool2/3x3_s2"
  top: "inception_3a/1x1"
  param {
    lr_mult: 1
    decay_mult: 1
  }
  param {
    lr_mult: 2
    decay_mult: 0
  }
  convolution_param {
    num_output: 64
    kernel_size: 1
    weight_filler {
      type: "xavier"
      std: 0.03
    }
    bias_filler {
      type: "constant"
      value: 0.2
    }
  }
}
layer {
  name: "inception_3a/relu_1x1"
  type: "ReLU"
  bottom: "inception_3a/1x1"
  top: "inception_3a/1x1"
}
layer {
  name: "inception_3a/3x3_reduce"
  type: "Convolution"
  bottom: "pool2/3x3_s2"
  top: "inception_3a/3x3_reduce"
  param {
    lr_mult: 1
    decay_mult: 1
  }
  param {
    lr_mult: 2
    decay_mult: 0
  }
  convolution_param {
    num_output: 96
    kernel_size: 1
    weight_filler {
      type: "xavier"
      std: 0.09
    }
    bias_filler {
      type: "constant"
      value: 0.2
    }
  }
}
layer {
  name: "inception_3a/relu_3x3_reduce"
  type: "ReLU"
  bottom: "inception_3a/3x3_reduce"
  top: "inception_3a/3x3_reduce"
}
layer {
  name: "inception_3a/3x3"
  type: "Convolution"
  bottom: "inception_3a/3x3_reduce"
  top: "inception_3a/3x3"
  param {
    lr_mult: 1
    decay_mult: 1
  }
  param {
    lr_mult: 2
    decay_mult: 0
  }
  convolution_param {
    num_output: 128
    pad: 1
    kernel_size: 3
    weight_filler {
      type: "xavier"
      std: 0.03
    }
    bias_filler {
      type: "constant"
      value: 0.2
    }
  }
}
layer {
  name: "inception_3a/relu_3x3"
  type: "ReLU"
  bottom: "inception_3a/3x3"
  top: "inception_3a/3x3"
}
layer {
  name: "inception_3a/5x5_reduce"
  type: "Convolution"
  bottom: "pool2/3x3_s2"
  top: "inception_3a/5x5_reduce"
  param {
    lr_mult: 1
    decay_mult: 1
  }
  param {
    lr_mult: 2
    decay_mult: 0
  }
  convolution_param {
    num_output: 16
    kernel_size: 1
    weight_filler {
      type: "xavier"
      std: 0.2
    }
    bias_filler {
      type: "constant"
      value: 0.2
    }
  }
}
layer {
  name: "inception_3a/relu_5x5_reduce"
  type: "ReLU"
  bottom: "inception_3a/5x5_reduce"
  top: "inception_3a/5x5_reduce"
}
layer {
  name: "inception_3a/5x5"
  type: "Convolution"
  bottom: "inception_3a/5x5_reduce"
  top: "inception_3a/5x5"
  param {
    lr_mult: 1
    decay_mult: 1
  }
  param {
    lr_mult: 2
    decay_mult: 0
  }
  convolution_param {
    num_output: 32
    pad: 2
    kernel_size: 5
    weight_filler {
      type: "xavier"
      std: 0.03
    }
    bias_filler {
      type: "constant"
      value: 0.2
    }
  }
}
layer {
  name: "inception_3a/relu_5x5"
  type: "ReLU"
  bottom: "inception_3a/5x5"
  top: "inception_3a/5x5"
}
layer {
  name: "inception_3a/pool"
  type: "Pooling"
  bottom: "pool2/3x3_s2"
  top: "inception_3a/pool"
  pooling_param {
    pool: MAX
    kernel_size: 3
    stride: 1
    pad: 1
  }
}
layer {
  name: "inception_3a/pool_proj"
  type: "Convolution"
  bottom: "inception_3a/pool"
  top: "inception_3a/pool_proj"
  param {
    lr_mult: 1
    decay_mult: 1
  }
  param {
    lr_mult: 2
    decay_mult: 0
  }
  convolution_param {
    num_output: 32
    kernel_size: 1
    weight_filler {
      type: "xavier"
      std: 0.1
    }
    bias_filler {
      type: "constant"
      value: 0.2
    }
  }
}
layer {
  name: "inception_3a/relu_pool_proj"
  type: "ReLU"
  bottom: "inception_3a/pool_proj"
  top: "inception_3a/pool_proj"
}
layer {
  name: "inception_3a/output"
  type: "Concat"
  bottom: "inception_3a/1x1"
  bottom: "inception_3a/3x3"
  bottom: "inception_3a/5x5"
  bottom: "inception_3a/pool_proj"
  top: "inception_3a/output"
}
layer {
  name: "inception_3b/1x1"
  type: "Convolution"
  bottom: "inception_3a/output"
  top: "inception_3b/1x1"
  param {
    lr_mult: 1
    decay_mult: 1
  }
  param {
    lr_mult: 2
    decay_mult: 0
  }
  convolution_param {
    num_output: 128
    kernel_size: 1
    weight_filler {
      type: "xavier"
      std: 0.03
    }
    bias_filler {
      type: "constant"
      value: 0.2
    }
  }
}
layer {
  name: "inception_3b/relu_1x1"
  type: "ReLU"
  bottom: "inception_3b/1x1"
  top: "inception_3b/1x1"
}
layer {
  name: "inception_3b/3x3_reduce"
  type: "Convolution"
  bottom: "inception_3a/output"
  top: "inception_3b/3x3_reduce"
  param {
    lr_mult: 1
    decay_mult: 1
  }
  param {
    lr_mult: 2
    decay_mult: 0
  }
  convolution_param {
    num_output: 128
    kernel_size: 1
    weight_filler {
      type: "xavier"
      std: 0.09
    }
    bias_filler {
      type: "constant"
      value: 0.2
    }
  }
}
layer {
  name: "inception_3b/relu_3x3_reduce"
  type: "ReLU"
  bottom: "inception_3b/3x3_reduce"
  top: "inception_3b/3x3_reduce"
}
layer {
  name: "inception_3b/3x3"
  type: "Convolution"
  bottom: "inception_3b/3x3_reduce"
  top: "inception_3b/3x3"
  param {
    lr_mult: 1
    decay_mult: 1
  }
  param {
    lr_mult: 2
    decay_mult: 0
  }
  convolution_param {
    num_output: 192
    pad: 1
    kernel_size: 3
    weight_filler {
      type: "xavier"
      std: 0.03
    }
    bias_filler {
      type: "constant"
      value: 0.2
    }
  }
}
layer {
  name: "inception_3b/relu_3x3"
  type: "ReLU"
  bottom: "inception_3b/3x3"
  top: "inception_3b/3x3"
}
layer {
  name: "inception_3b/5x5_reduce"
  type: "Convolution"
  bottom: "inception_3a/output"
  top: "inception_3b/5x5_reduce"
  param {
    lr_mult: 1
    decay_mult: 1
  }
  param {
    lr_mult: 2
    decay_mult: 0
  }
  convolution_param {
    num_output: 32
    kernel_size: 1
    weight_filler {
      type: "xavier"
      std: 0.2
    }
    bias_filler {
      type: "constant"
      value: 0.2
    }
  }
}
layer {
  name: "inception_3b/relu_5x5_reduce"
  type: "ReLU"
  bottom: "inception_3b/5x5_reduce"
  top: "inception_3b/5x5_reduce"
}
layer {
  name: "inception_3b/5x5"
  type: "Convolution"
  bottom: "inception_3b/5x5_reduce"
  top: "inception_3b/5x5"
  param {
    lr_mult: 1
    decay_mult: 1
  }
  param {
    lr_mult: 2
    decay_mult: 0
  }
  convolution_param {
    num_output: 96
    pad: 2
    kernel_size: 5
    weight_filler {
      type: "xavier"
      std: 0.03
    }
    bias_filler {
      type: "constant"
      value: 0.2
    }
  }
}
layer {
  name: "inception_3b/relu_5x5"
  type: "ReLU"
  bottom: "inception_3b/5x5"
  top: "inception_3b/5x5"
}
layer {
  name: "inception_3b/pool"
  type: "Pooling"
  bottom: "inception_3a/output"
  top: "inception_3b/pool"
  pooling_param {
    pool: MAX
    kernel_size: 3
    stride: 1
    pad: 1
  }
}
layer {
  name: "inception_3b/pool_proj"
  type: "Convolution"
  bottom: "inception_3b/pool"
  top: "inception_3b/pool_proj"
  param {
    lr_mult: 1
    decay_mult: 1
  }
  param {
    lr_mult: 2
    decay_mult: 0
  }
  convolution_param {
    num_output: 64
    kernel_size: 1
    weight_filler {
      type: "xavier"
      std: 0.1
    }
    bias_filler {
      type: "constant"
      value: 0.2
    }
  }
}
layer {
  name: "inception_3b/relu_pool_proj"
  type: "ReLU"
  bottom: "inception_3b/pool_proj"
  top: "inception_3b/pool_proj"
}
layer {
  name: "inception_3b/output"
  type: "Concat"
  bottom: "inception_3b/1x1"
  bottom: "inception_3b/3x3"
  bottom: "inception_3b/5x5"
  bottom: "inception_3b/pool_proj"
  top: "inception_3b/output"
}
layer {
  name: "pool3/3x3_s2"
  type: "Pooling"
  bottom: "inception_3b/output"
  top: "pool3/3x3_s2"
  pooling_param {
    pool: MAX
    kernel_size: 3
    stride: 2
  }
}
layer {
  name: "inception_4a/1x1"
  type: "Convolution"
  bottom: "pool3/3x3_s2"
  top: "inception_4a/1x1"
  param {
    lr_mult: 1
    decay_mult: 1
  }
  param {
    lr_mult: 2
    decay_mult: 0
  }
  convolution_param {
    num_output: 192
    kernel_size: 1
    weight_filler {
      type: "xavier"
      std: 0.03
    }
    bias_filler {
      type: "constant"
      value: 0.2
    }
  }
}
layer {
  name: "inception_4a/relu_1x1"
  type: "ReLU"
  bottom: "inception_4a/1x1"
  top: "inception_4a/1x1"
}
layer {
  name: "inception_4a/3x3_reduce"
  type: "Convolution"
  bottom: "pool3/3x3_s2"
  top: "inception_4a/3x3_reduce"
  param {
    lr_mult: 1
    decay_mult: 1
  }
  param {
    lr_mult: 2
    decay_mult: 0
  }
  convolution_param {
    num_output: 96
    kernel_size: 1
    weight_filler {
      type: "xavier"
      std: 0.09
    }
    bias_filler {
      type: "constant"
      value: 0.2
    }
  }
}
layer {
  name: "inception_4a/relu_3x3_reduce"
  type: "ReLU"
  bottom: "inception_4a/3x3_reduce"
  top: "inception_4a/3x3_reduce"
}
layer {
  name: "inception_4a/3x3"
  type: "Convolution"
  bottom: "inception_4a/3x3_reduce"
  top: "inception_4a/3x3"
  param {
    lr_mult: 1
    decay_mult: 1
  }
  param {
    lr_mult: 2
    decay_mult: 0
  }
  convolution_param {
    num_output: 208
    pad: 1
    kernel_size: 3
    weight_filler {
      type: "xavier"
      std: 0.03
    }
    bias_filler {
      type: "constant"
      value: 0.2
    }
  }
}
layer {
  name: "inception_4a/relu_3x3"
  type: "ReLU"
  bottom: "inception_4a/3x3"
  top: "inception_4a/3x3"
}
layer {
  name: "inception_4a/5x5_reduce"
  type: "Convolution"
  bottom: "pool3/3x3_s2"
  top: "inception_4a/5x5_reduce"
  param {
    lr_mult: 1
    decay_mult: 1
  }
  param {
    lr_mult: 2
    decay_mult: 0
  }
  convolution_param {
    num_output: 16
    kernel_size: 1
    weight_filler {
      type: "xavier"
      std: 0.2
    }
    bias_filler {
      type: "constant"
      value: 0.2
    }
  }
}
layer {
  name: "inception_4a/relu_5x5_reduce"
  type: "ReLU"
  bottom: "inception_4a/5x5_reduce"
  top: "inception_4a/5x5_reduce"
}
layer {
  name: "inception_4a/5x5"
  type: "Convolution"
  bottom: "inception_4a/5x5_reduce"
  top: "inception_4a/5x5"
  param {
    lr_mult: 1
    decay_mult: 1
  }
  param {
    lr_mult: 2
    decay_mult: 0
  }
  convolution_param {
    num_output: 48
    pad: 2
    kernel_size: 5
    weight_filler {
      type: "xavier"
      std: 0.03
    }
    bias_filler {
      type: "constant"
      value: 0.2
    }
  }
}
layer {
  name: "inception_4a/relu_5x5"
  type: "ReLU"
  bottom: "inception_4a/5x5"
  top: "inception_4a/5x5"
}
layer {
  name: "inception_4a/pool"
  type: "Pooling"
  bottom: "pool3/3x3_s2"
  top: "inception_4a/pool"
  pooling_param {
    pool: MAX
    kernel_size: 3
    stride: 1
    pad: 1
  }
}
layer {
  name: "inception_4a/pool_proj"
  type: "Convolution"
  bottom: "inception_4a/pool"
  top: "inception_4a/pool_proj"
  param {
    lr_mult: 1
    decay_mult: 1
  }
  param {
    lr_mult: 2
    decay_mult: 0
  }
  convolution_param {
    num_output: 64
    kernel_size: 1
    weight_filler {
      type: "xavier"
      std: 0.1
    }
    bias_filler {
      type: "constant"
      value: 0.2
    }
  }
}
layer {
  name: "inception_4a/relu_pool_proj"
  type: "ReLU"
  bottom: "inception_4a/pool_proj"
  top: "inception_4a/pool_proj"
}
layer {
  name: "inception_4a/output"
  type: "Concat"
  bottom: "inception_4a/1x1"
  bottom: "inception_4a/3x3"
  bottom: "inception_4a/5x5"
  bottom: "inception_4a/pool_proj"
  top: "inception_4a/output"
}
layer {
  name: "loss1/ave_pool"
  type: "Pooling"
  bottom: "inception_4a/output"
  top: "loss1/ave_pool"
  pooling_param {
    pool: AVE
    kernel_size: 5
    stride: 3
  }
}
layer {
  name: "loss1/conv"
  type: "Convolution"
  bottom: "loss1/ave_pool"
  top: "loss1/conv"
  param {
    lr_mult: 1
    decay_mult: 1
  }
  param {
    lr_mult: 2
    decay_mult: 0
  }
  convolution_param {
    num_output: 128
    kernel_size: 1
    weight_filler {
      type: "xavier"
      std: 0.08
    }
    bias_filler {
      type: "constant"
      value: 0.2
    }
  }
}
layer {
  name: "loss1/relu_conv"
  type: "ReLU"
  bottom: "loss1/conv"
  top: "loss1/conv"
}
layer {
  name: "loss1/fc"
  type: "InnerProduct"
  bottom: "loss1/conv"
  top: "loss1/fc"
  param {
    lr_mult: 1
    decay_mult: 1
  }
  param {
    lr_mult: 2
    decay_mult: 0
  }
  inner_product_param {
    num_output: 1024
    weight_filler {
      type: "xavier"
      std: 0.02
    }
    bias_filler {
      type: "constant"
      value: 0.2
    }
  }
}
layer {
  name: "loss1/relu_fc"
  type: "ReLU"
  bottom: "loss1/fc"
  top: "loss1/fc"
}
layer {
  name: "loss1/drop_fc"
  type: "Dropout"
  bottom: "loss1/fc"
  top: "loss1/fc"
  dropout_param {
    dropout_ratio: 0.7
  }
}
layer {
  name: "loss1/classifier_plantvillage"
  type: "InnerProduct"
  bottom: "loss1/fc"
  top: "loss1/classifier_plantvillage"
  param {
    lr_mult: 1
    decay_mult: 1
  }
  param {
    lr_mult: 2
    decay_mult: 0
  }
  inner_product_param {
    num_output: 38
    weight_filler {
      type: "xavier"
      std: 0.0009765625
    }
    bias_filler {
      type: "constant"
      value: 0
    }
  }
}
layer {
  name: "inception_4b/1x1"
  type: "Convolution"
  bottom: "inception_4a/output"
  top: "inception_4b/1x1"
  param {
    lr_mult: 1
    decay_mult: 1
  }
  param {
    lr_mult: 2
    decay_mult: 0
  }
  convolution_param {
    num_output: 160
    kernel_size: 1
    weight_filler {
      type: "xavier"
      std: 0.03
    }
    bias_filler {
      type: "constant"
      value: 0.2
    }
  }
}
layer {
  name: "inception_4b/relu_1x1"
  type: "ReLU"
  bottom: "inception_4b/1x1"
  top: "inception_4b/1x1"
}
layer {
  name: "inception_4b/3x3_reduce"
  type: "Convolution"
  bottom: "inception_4a/output"
  top: "inception_4b/3x3_reduce"
  param {
    lr_mult: 1
    decay_mult: 1
  }
  param {
    lr_mult: 2
    decay_mult: 0
  }
  convolution_param {
    num_output: 112
    kernel_size: 1
    weight_filler {
      type: "xavier"
      std: 0.09
    }
    bias_filler {
      type: "constant"
      value: 0.2
    }
  }
}
layer {
  name: "inception_4b/relu_3x3_reduce"
  type: "ReLU"
  bottom: "inception_4b/3x3_reduce"
  top: "inception_4b/3x3_reduce"
}
layer {
  name: "inception_4b/3x3"
  type: "Convolution"
  bottom: "inception_4b/3x3_reduce"
  top: "inception_4b/3x3"
  param {
    lr_mult: 1
    decay_mult: 1
  }
  param {
    lr_mult: 2
    decay_mult: 0
  }
  convolution_param {
    num_output: 224
    pad: 1
    kernel_size: 3
    weight_filler {
      type: "xavier"
      std: 0.03
    }
    bias_filler {
      type: "constant"
      value: 0.2
    }
  }
}
layer {
  name: "inception_4b/relu_3x3"
  type: "ReLU"
  bottom: "inception_4b/3x3"
  top: "inception_4b/3x3"
}
layer {
  name: "inception_4b/5x5_reduce"
  type: "Convolution"
  bottom: "inception_4a/output"
  top: "inception_4b/5x5_reduce"
  param {
    lr_mult: 1
    decay_mult: 1
  }
  param {
    lr_mult: 2
    decay_mult: 0
  }
  convolution_param {
    num_output: 24
    kernel_size: 1
    weight_filler {
      type: "xavier"
      std: 0.2
    }
    bias_filler {
      type: "constant"
      value: 0.2
    }
  }
}
layer {
  name: "inception_4b/relu_5x5_reduce"
  type: "ReLU"
  bottom: "inception_4b/5x5_reduce"
  top: "inception_4b/5x5_reduce"
}
layer {
  name: "inception_4b/5x5"
  type: "Convolution"
  bottom: "inception_4b/5x5_reduce"
  top: "inception_4b/5x5"
  param {
    lr_mult: 1
    decay_mult: 1
  }
  param {
    lr_mult: 2
    decay_mult: 0
  }
  convolution_param {
    num_output: 64
    pad: 2
    kernel_size: 5
    weight_filler {
      type: "xavier"
      std: 0.03
    }
    bias_filler {
      type: "constant"
      value: 0.2
    }
  }
}
layer {
  name: "inception_4b/relu_5x5"
  type: "ReLU"
  bottom: "inception_4b/5x5"
  top: "inception_4b/5x5"
}
layer {
  name: "inception_4b/pool"
  type: "Pooling"
  bottom: "inception_4a/output"
  top: "inception_4b/pool"
  pooling_param {
    pool: MAX
    kernel_size: 3
    stride: 1
    pad: 1
  }
}
layer {
  name: "inception_4b/pool_proj"
  type: "Convolution"
  bottom: "inception_4b/pool"
  top: "inception_4b/pool_proj"
  param {
    lr_mult: 1
    decay_mult: 1
  }
  param {
    lr_mult: 2
    decay_mult: 0
  }
  convolution_param {
    num_output: 64
    kernel_size: 1
    weight_filler {
      type: "xavier"
      std: 0.1
    }
    bias_filler {
      type: "constant"
      value: 0.2
    }
  }
}
layer {
  name: "inception_4b/relu_pool_proj"
  type: "ReLU"
  bottom: "inception_4b/pool_proj"
  top: "inception_4b/pool_proj"
}
layer {
  name: "inception_4b/output"
  type: "Concat"
  bottom: "inception_4b/1x1"
  bottom: "inception_4b/3x3"
  bottom: "inception_4b/5x5"
  bottom: "inception_4b/pool_proj"
  top: "inception_4b/output"
}
layer {
  name: "inception_4c/1x1"
  type: "Convolution"
  bottom: "inception_4b/output"
  top: "inception_4c/1x1"
  param {
    lr_mult: 1
    decay_mult: 1
  }
  param {
    lr_mult: 2
    decay_mult: 0
  }
  convolution_param {
    num_output: 128
    kernel_size: 1
    weight_filler {
      type: "xavier"
      std: 0.03
    }
    bias_filler {
      type: "constant"
      value: 0.2
    }
  }
}
layer {
  name: "inception_4c/relu_1x1"
  type: "ReLU"
  bottom: "inception_4c/1x1"
  top: "inception_4c/1x1"
}
layer {
  name: "inception_4c/3x3_reduce"
  type: "Convolution"
  bottom: "inception_4b/output"
  top: "inception_4c/3x3_reduce"
  param {
    lr_mult: 1
    decay_mult: 1
  }
  param {
    lr_mult: 2
    decay_mult: 0
  }
  convolution_param {
    num_output: 128
    kernel_size: 1
    weight_filler {
      type: "xavier"
      std: 0.09
    }
    bias_filler {
      type: "constant"
      value: 0.2
    }
  }
}
layer {
  name: "inception_4c/relu_3x3_reduce"
  type: "ReLU"
  bottom: "inception_4c/3x3_reduce"
  top: "inception_4c/3x3_reduce"
}
layer {
  name: "inception_4c/3x3"
  type: "Convolution"
  bottom: "inception_4c/3x3_reduce"
  top: "inception_4c/3x3"
  param {
    lr_mult: 1
    decay_mult: 1
  }
  param {
    lr_mult: 2
    decay_mult: 0
  }
  convolution_param {
    num_output: 256
    pad: 1
    kernel_size: 3
    weight_filler {
      type: "xavier"
      std: 0.03
    }
    bias_filler {
      type: "constant"
      value: 0.2
    }
  }
}
layer {
  name: "inception_4c/relu_3x3"
  type: "ReLU"
  bottom: "inception_4c/3x3"
  top: "inception_4c/3x3"
}
layer {
  name: "inception_4c/5x5_reduce"
  type: "Convolution"
  bottom: "inception_4b/output"
  top: "inception_4c/5x5_reduce"
  param {
    lr_mult: 1
    decay_mult: 1
  }
  param {
    lr_mult: 2
    decay_mult: 0
  }
  convolution_param {
    num_output: 24
    kernel_size: 1
    weight_filler {
      type: "xavier"
      std: 0.2
    }
    bias_filler {
      type: "constant"
      value: 0.2
    }
  }
}
layer {
  name: "inception_4c/relu_5x5_reduce"
  type: "ReLU"
  bottom: "inception_4c/5x5_reduce"
  top: "inception_4c/5x5_reduce"
}
layer {
  name: "inception_4c/5x5"
  type: "Convolution"
  bottom: "inception_4c/5x5_reduce"
  top: "inception_4c/5x5"
  param {
    lr_mult: 1
    decay_mult: 1
  }
  param {
    lr_mult: 2
    decay_mult: 0
  }
  convolution_param {
    num_output: 64
    pad: 2
    kernel_size: 5
    weight_filler {
      type: "xavier"
      std: 0.03
    }
    bias_filler {
      type: "constant"
      value: 0.2
    }
  }
}
layer {
  name: "inception_4c/relu_5x5"
  type: "ReLU"
  bottom: "inception_4c/5x5"
  top: "inception_4c/5x5"
}
layer {
  name: "inception_4c/pool"
  type: "Pooling"
  bottom: "inception_4b/output"
  top: "inception_4c/pool"
  pooling_param {
    pool: MAX
    kernel_size: 3
    stride: 1
    pad: 1
  }
}
layer {
  name: "inception_4c/pool_proj"
  type: "Convolution"
  bottom: "inception_4c/pool"
  top: "inception_4c/pool_proj"
  param {
    lr_mult: 1
    decay_mult: 1
  }
  param {
    lr_mult: 2
    decay_mult: 0
  }
  convolution_param {
    num_output: 64
    kernel_size: 1
    weight_filler {
      type: "xavier"
      std: 0.1
    }
    bias_filler {
      type: "constant"
      value: 0.2
    }
  }
}
layer {
  name: "inception_4c/relu_pool_proj"
  type: "ReLU"
  bottom: "inception_4c/pool_proj"
  top: "inception_4c/pool_proj"
}
layer {
  name: "inception_4c/output"
  type: "Concat"
  bottom: "inception_4c/1x1"
  bottom: "inception_4c/3x3"
  bottom: "inception_4c/5x5"
  bottom: "inception_4c/pool_proj"
  top: "inception_4c/output"
}
layer {
  name: "inception_4d/1x1"
  type: "Convolution"
  bottom: "inception_4c/output"
  top: "inception_4d/1x1"
  param {
    lr_mult: 1
    decay_mult: 1
  }
  param {
    lr_mult: 2
    decay_mult: 0
  }
  convolution_param {
    num_output: 112
    kernel_size: 1
    weight_filler {
      type: "xavier"
      std: 0.03
    }
    bias_filler {
      type: "constant"
      value: 0.2
    }
  }
}
layer {
  name: "inception_4d/relu_1x1"
  type: "ReLU"
  bottom: "inception_4d/1x1"
  top: "inception_4d/1x1"
}
layer {
  name: "inception_4d/3x3_reduce"
  type: "Convolution"
  bottom: "inception_4c/output"
  top: "inception_4d/3x3_reduce"
  param {
    lr_mult: 1
    decay_mult: 1
  }
  param {
    lr_mult: 2
    decay_mult: 0
  }
  convolution_param {
    num_output: 144
    kernel_size: 1
    weight_filler {
      type: "xavier"
      std: 0.09
    }
    bias_filler {
      type: "constant"
      value: 0.2
    }
  }
}
layer {
  name: "inception_4d/relu_3x3_reduce"
  type: "ReLU"
  bottom: "inception_4d/3x3_reduce"
  top: "inception_4d/3x3_reduce"
}
layer {
  name: "inception_4d/3x3"
  type: "Convolution"
  bottom: "inception_4d/3x3_reduce"
  top: "inception_4d/3x3"
  param {
    lr_mult: 1
    decay_mult: 1
  }
  param {
    lr_mult: 2
    decay_mult: 0
  }
  convolution_param {
    num_output: 288
    pad: 1
    kernel_size: 3
    weight_filler {
      type: "xavier"
      std: 0.03
    }
    bias_filler {
      type: "constant"
      value: 0.2
    }
  }
}
layer {
  name: "inception_4d/relu_3x3"
  type: "ReLU"
  bottom: "inception_4d/3x3"
  top: "inception_4d/3x3"
}
layer {
  name: "inception_4d/5x5_reduce"
  type: "Convolution"
  bottom: "inception_4c/output"
  top: "inception_4d/5x5_reduce"
  param {
    lr_mult: 1
    decay_mult: 1
  }
  param {
    lr_mult: 2
    decay_mult: 0
  }
  convolution_param {
    num_output: 32
    kernel_size: 1
    weight_filler {
      type: "xavier"
      std: 0.2
    }
    bias_filler {
      type: "constant"
      value: 0.2
    }
  }
}
layer {
  name: "inception_4d/relu_5x5_reduce"
  type: "ReLU"
  bottom: "inception_4d/5x5_reduce"
  top: "inception_4d/5x5_reduce"
}
layer {
  name: "inception_4d/5x5"
  type: "Convolution"
  bottom: "inception_4d/5x5_reduce"
  top: "inception_4d/5x5"
  param {
    lr_mult: 1
    decay_mult: 1
  }
  param {
    lr_mult: 2
    decay_mult: 0
  }
  convolution_param {
    num_output: 64
    pad: 2
    kernel_size: 5
    weight_filler {
      type: "xavier"
      std: 0.03
    }
    bias_filler {
      type: "constant"
      value: 0.2
    }
  }
}
layer {
  name: "inception_4d/relu_5x5"
  type: "ReLU"
  bottom: "inception_4d/5x5"
  top: "inception_4d/5x5"
}
layer {
  name: "inception_4d/pool"
  type: "Pooling"
  bottom: "inception_4c/output"
  top: "inception_4d/pool"
  pooling_param {
    pool: MAX
    kernel_size: 3
    stride: 1
    pad: 1
  }
}
layer {
  name: "inception_4d/pool_proj"
  type: "Convolution"
  bottom: "inception_4d/pool"
  top: "inception_4d/pool_proj"
  param {
    lr_mult: 1
    decay_mult: 1
  }
  param {
    lr_mult: 2
    decay_mult: 0
  }
  convolution_param {
    num_output: 64
    kernel_size: 1
    weight_filler {
      type: "xavier"
      std: 0.1
    }
    bias_filler {
      type: "constant"
      value: 0.2
    }
  }
}
layer {
  name: "inception_4d/relu_pool_proj"
  type: "ReLU"
  bottom: "inception_4d/pool_proj"
  top: "inception_4d/pool_proj"
}
layer {
  name: "inception_4d/output"
  type: "Concat"
  bottom: "inception_4d/1x1"
  bottom: "inception_4d/3x3"
  bottom: "inception_4d/5x5"
  bottom: "inception_4d/pool_proj"
  top: "inception_4d/output"
}
layer {
  name: "loss2/ave_pool"
  type: "Pooling"
  bottom: "inception_4d/output"
  top: "loss2/ave_pool"
  pooling_param {
    pool: AVE
    kernel_size: 5
    stride: 3
  }
}
layer {
  name: "loss2/conv"
  type: "Convolution"
  bottom: "loss2/ave_pool"
  top: "loss2/conv"
  param {
    lr_mult: 1
    decay_mult: 1
  }
  param {
    lr_mult: 2
    decay_mult: 0
  }
  convolution_param {
    num_output: 128
    kernel_size: 1
    weight_filler {
      type: "xavier"
      std: 0.08
    }
    bias_filler {
      type: "constant"
      value: 0.2
    }
  }
}
layer {
  name: "loss2/relu_conv"
  type: "ReLU"
  bottom: "loss2/conv"
  top: "loss2/conv"
}
layer {
  name: "loss2/fc"
  type: "InnerProduct"
  bottom: "loss2/conv"
  top: "loss2/fc"
  param {
    lr_mult: 1
    decay_mult: 1
  }
  param {
    lr_mult: 2
    decay_mult: 0
  }
  inner_product_param {
    num_output: 1024
    weight_filler {
      type: "xavier"
      std: 0.02
    }
    bias_filler {
      type: "constant"
      value: 0.2
    }
  }
}
layer {
  name: "loss2/relu_fc"
  type: "ReLU"
  bottom: "loss2/fc"
  top: "loss2/fc"
}
layer {
  name: "loss2/drop_fc"
  type: "Dropout"
  bottom: "loss2/fc"
  top: "loss2/fc"
  dropout_param {
    dropout_ratio: 0.7
  }
}
layer {
  name: "loss2/classifier_plantvillage"
  type: "InnerProduct"
  bottom: "loss2/fc"
  top: "loss2/classifier_plantvillage"
  param {
    lr_mult: 1
    decay_mult: 1
  }
  param {
    lr_mult: 2
    decay_mult: 0
  }
  inner_product_param {
    num_output: 38
    weight_filler {
      type: "xavier"
      std: 0.0009765625
    }
    bias_filler {
      type: "constant"
      value: 0
    }
  }
}
layer {
  name: "inception_4e/1x1"
  type: "Convolution"
  bottom: "inception_4d/output"
  top: "inception_4e/1x1"
  param {
    lr_mult: 1
    decay_mult: 1
  }
  param {
    lr_mult: 2
    decay_mult: 0
  }
  convolution_param {
    num_output: 256
    kernel_size: 1
    weight_filler {
      type: "xavier"
      std: 0.03
    }
    bias_filler {
      type: "constant"
      value: 0.2
    }
  }
}
layer {
  name: "inception_4e/relu_1x1"
  type: "ReLU"
  bottom: "inception_4e/1x1"
  top: "inception_4e/1x1"
}
layer {
  name: "inception_4e/3x3_reduce"
  type: "Convolution"
  bottom: "inception_4d/output"
  top: "inception_4e/3x3_reduce"
  param {
    lr_mult: 1
    decay_mult: 1
  }
  param {
    lr_mult: 2
    decay_mult: 0
  }
  convolution_param {
    num_output: 160
    kernel_size: 1
    weight_filler {
      type: "xavier"
      std: 0.09
    }
    bias_filler {
      type: "constant"
      value: 0.2
    }
  }
}
layer {
  name: "inception_4e/relu_3x3_reduce"
  type: "ReLU"
  bottom: "inception_4e/3x3_reduce"
  top: "inception_4e/3x3_reduce"
}
layer {
  name: "inception_4e/3x3"
  type: "Convolution"
  bottom: "inception_4e/3x3_reduce"
  top: "inception_4e/3x3"
  param {
    lr_mult: 1
    decay_mult: 1
  }
  param {
    lr_mult: 2
    decay_mult: 0
  }
  convolution_param {
    num_output: 320
    pad: 1
    kernel_size: 3
    weight_filler {
      type: "xavier"
      std: 0.03
    }
    bias_filler {
      type: "constant"
      value: 0.2
    }
  }
}
layer {
  name: "inception_4e/relu_3x3"
  type: "ReLU"
  bottom: "inception_4e/3x3"
  top: "inception_4e/3x3"
}
layer {
  name: "inception_4e/5x5_reduce"
  type: "Convolution"
  bottom: "inception_4d/output"
  top: "inception_4e/5x5_reduce"
  param {
    lr_mult: 1
    decay_mult: 1
  }
  param {
    lr_mult: 2
    decay_mult: 0
  }
  convolution_param {
    num_output: 32
    kernel_size: 1
    weight_filler {
      type: "xavier"
      std: 0.2
    }
    bias_filler {
      type: "constant"
      value: 0.2
    }
  }
}
layer {
  name: "inception_4e/relu_5x5_reduce"
  type: "ReLU"
  bottom: "inception_4e/5x5_reduce"
  top: "inception_4e/5x5_reduce"
}
layer {
  name: "inception_4e/5x5"
  type: "Convolution"
  bottom: "inception_4e/5x5_reduce"
  top: "inception_4e/
I0403 15:07:11.802104  2692 layer_factory.hpp:77] Creating layer data
I0403 15:07:11.802861  2692 net.cpp:91] Creating Layer data
I0403 15:07:11.802901  2692 net.cpp:399] data -> data
I0403 15:07:11.802958  2692 net.cpp:399] data -> label
I0403 15:07:11.803000  2692 data_transformer.cpp:25] Loading mean file from: /home/mohanty/data/final_dataset/lmdb/grayscale-50-50/mean.binaryproto
I0403 15:07:11.805814  2697 db_lmdb.cpp:38] Opened lmdb /home/mohanty/data/final_dataset/lmdb/grayscale-50-50/test_db
I0403 15:07:11.818473  2692 data_layer.cpp:41] output data size: 24,3,224,224
I0403 15:07:11.849910  2692 net.cpp:141] Setting up data
I0403 15:07:11.849978  2692 net.cpp:148] Top shape: 24 3 224 224 (3612672)
I0403 15:07:11.850006  2692 net.cpp:148] Top shape: 24 (24)
I0403 15:07:11.850026  2692 net.cpp:156] Memory required for data: 14450784
I0403 15:07:11.850057  2692 layer_factory.hpp:77] Creating layer label_data_1_split
I0403 15:07:11.850087  2692 net.cpp:91] Creating Layer label_data_1_split
I0403 15:07:11.850109  2692 net.cpp:425] label_data_1_split <- label
I0403 15:07:11.850147  2692 net.cpp:399] label_data_1_split -> label_data_1_split_0
I0403 15:07:11.850179  2692 net.cpp:399] label_data_1_split -> label_data_1_split_1
I0403 15:07:11.850208  2692 net.cpp:399] label_data_1_split -> label_data_1_split_2
I0403 15:07:11.850237  2692 net.cpp:399] label_data_1_split -> label_data_1_split_3
I0403 15:07:11.850262  2692 net.cpp:399] label_data_1_split -> label_data_1_split_4
I0403 15:07:11.850294  2692 net.cpp:399] label_data_1_split -> label_data_1_split_5
I0403 15:07:11.850320  2692 net.cpp:399] label_data_1_split -> label_data_1_split_6
I0403 15:07:11.850347  2692 net.cpp:399] label_data_1_split -> label_data_1_split_7
I0403 15:07:11.850373  2692 net.cpp:399] label_data_1_split -> label_data_1_split_8
I0403 15:07:11.850399  2692 net.cpp:399] label_data_1_split -> label_data_1_split_9
I0403 15:07:11.850550  2692 net.cpp:141] Setting up label_data_1_split
I0403 15:07:11.850580  2692 net.cpp:148] Top shape: 24 (24)
I0403 15:07:11.850601  2692 net.cpp:148] Top shape: 24 (24)
I0403 15:07:11.850620  2692 net.cpp:148] Top shape: 24 (24)
I0403 15:07:11.850641  2692 net.cpp:148] Top shape: 24 (24)
I0403 15:07:11.850659  2692 net.cpp:148] Top shape: 24 (24)
I0403 15:07:11.850678  2692 net.cpp:148] Top shape: 24 (24)
I0403 15:07:11.850698  2692 net.cpp:148] Top shape: 24 (24)
I0403 15:07:11.850718  2692 net.cpp:148] Top shape: 24 (24)
I0403 15:07:11.850736  2692 net.cpp:148] Top shape: 24 (24)
I0403 15:07:11.850755  2692 net.cpp:148] Top shape: 24 (24)
I0403 15:07:11.850796  2692 net.cpp:156] Memory required for data: 14451744
I0403 15:07:11.850816  2692 layer_factory.hpp:77] Creating layer conv1/7x7_s2
I0403 15:07:11.850852  2692 net.cpp:91] Creating Layer conv1/7x7_s2
I0403 15:07:11.850877  2692 net.cpp:425] conv1/7x7_s2 <- data
I0403 15:07:11.850900  2692 net.cpp:399] conv1/7x7_s2 -> conv1/7x7_s2
I0403 15:07:12.017820  2692 net.cpp:141] Setting up conv1/7x7_s2
I0403 15:07:12.017900  2692 net.cpp:148] Top shape: 24 64 112 112 (19267584)
I0403 15:07:12.017922  2692 net.cpp:156] Memory required for data: 91522080
I0403 15:07:12.017962  2692 layer_factory.hpp:77] Creating layer conv1/relu_7x7
I0403 15:07:12.017997  2692 net.cpp:91] Creating Layer conv1/relu_7x7
I0403 15:07:12.018024  2692 net.cpp:425] conv1/relu_7x7 <- conv1/7x7_s2
I0403 15:07:12.018051  2692 net.cpp:386] conv1/relu_7x7 -> conv1/7x7_s2 (in-place)
I0403 15:07:12.018375  2692 net.cpp:141] Setting up conv1/relu_7x7
I0403 15:07:12.018411  2692 net.cpp:148] Top shape: 24 64 112 112 (19267584)
I0403 15:07:12.018434  2692 net.cpp:156] Memory required for data: 168592416
I0403 15:07:12.018456  2692 layer_factory.hpp:77] Creating layer pool1/3x3_s2
I0403 15:07:12.018487  2692 net.cpp:91] Creating Layer pool1/3x3_s2
I0403 15:07:12.018510  2692 net.cpp:425] pool1/3x3_s2 <- conv1/7x7_s2
I0403 15:07:12.018534  2692 net.cpp:399] pool1/3x3_s2 -> pool1/3x3_s2
I0403 15:07:12.018623  2692 net.cpp:141] Setting up pool1/3x3_s2
I0403 15:07:12.018653  2692 net.cpp:148] Top shape: 24 64 56 56 (4816896)
I0403 15:07:12.018672  2692 net.cpp:156] Memory required for data: 187860000
I0403 15:07:12.018690  2692 layer_factory.hpp:77] Creating layer pool1/norm1
I0403 15:07:12.018719  2692 net.cpp:91] Creating Layer pool1/norm1
I0403 15:07:12.018741  2692 net.cpp:425] pool1/norm1 <- pool1/3x3_s2
I0403 15:07:12.018764  2692 net.cpp:399] pool1/norm1 -> pool1/norm1
I0403 15:07:12.019143  2692 net.cpp:141] Setting up pool1/norm1
I0403 15:07:12.019182  2692 net.cpp:148] Top shape: 24 64 56 56 (4816896)
I0403 15:07:12.019202  2692 net.cpp:156] Memory required for data: 207127584
I0403 15:07:12.019222  2692 layer_factory.hpp:77] Creating layer conv2/3x3_reduce
I0403 15:07:12.019253  2692 net.cpp:91] Creating Layer conv2/3x3_reduce
I0403 15:07:12.019280  2692 net.cpp:425] conv2/3x3_reduce <- pool1/norm1
I0403 15:07:12.019306  2692 net.cpp:399] conv2/3x3_reduce -> conv2/3x3_reduce
I0403 15:07:12.021014  2692 net.cpp:141] Setting up conv2/3x3_reduce
I0403 15:07:12.021054  2692 net.cpp:148] Top shape: 24 64 56 56 (4816896)
I0403 15:07:12.021073  2692 net.cpp:156] Memory required for data: 226395168
I0403 15:07:12.021102  2692 layer_factory.hpp:77] Creating layer conv2/relu_3x3_reduce
I0403 15:07:12.021132  2692 net.cpp:91] Creating Layer conv2/relu_3x3_reduce
I0403 15:07:12.021155  2692 net.cpp:425] conv2/relu_3x3_reduce <- conv2/3x3_reduce
I0403 15:07:12.021178  2692 net.cpp:386] conv2/relu_3x3_reduce -> conv2/3x3_reduce (in-place)
I0403 15:07:12.021512  2692 net.cpp:141] Setting up conv2/relu_3x3_reduce
I0403 15:07:12.021548  2692 net.cpp:148] Top shape: 24 64 56 56 (4816896)
I0403 15:07:12.021566  2692 net.cpp:156] Memory required for data: 245662752
I0403 15:07:12.021587  2692 layer_factory.hpp:77] Creating layer conv2/3x3
I0403 15:07:12.021616  2692 net.cpp:91] Creating Layer conv2/3x3
I0403 15:07:12.021639  2692 net.cpp:425] conv2/3x3 <- conv2/3x3_reduce
I0403 15:07:12.021667  2692 net.cpp:399] conv2/3x3 -> conv2/3x3
I0403 15:07:12.027757  2692 net.cpp:141] Setting up conv2/3x3
I0403 15:07:12.027820  2692 net.cpp:148] Top shape: 24 192 56 56 (14450688)
I0403 15:07:12.027840  2692 net.cpp:156] Memory required for data: 303465504
I0403 15:07:12.027876  2692 layer_factory.hpp:77] Creating layer conv2/relu_3x3
I0403 15:07:12.027904  2692 net.cpp:91] Creating Layer conv2/relu_3x3
I0403 15:07:12.027927  2692 net.cpp:425] conv2/relu_3x3 <- conv2/3x3
I0403 15:07:12.027951  2692 net.cpp:386] conv2/relu_3x3 -> conv2/3x3 (in-place)
I0403 15:07:12.028170  2692 net.cpp:141] Setting up conv2/relu_3x3
I0403 15:07:12.028206  2692 net.cpp:148] Top shape: 24 192 56 56 (14450688)
I0403 15:07:12.028261  2692 net.cpp:156] Memory required for data: 361268256
I0403 15:07:12.028288  2692 layer_factory.hpp:77] Creating layer conv2/norm2
I0403 15:07:12.028316  2692 net.cpp:91] Creating Layer conv2/norm2
I0403 15:07:12.028338  2692 net.cpp:425] conv2/norm2 <- conv2/3x3
I0403 15:07:12.028364  2692 net.cpp:399] conv2/norm2 -> conv2/norm2
I0403 15:07:12.028734  2692 net.cpp:141] Setting up conv2/norm2
I0403 15:07:12.028772  2692 net.cpp:148] Top shape: 24 192 56 56 (14450688)
I0403 15:07:12.028794  2692 net.cpp:156] Memory required for data: 419071008
I0403 15:07:12.028815  2692 layer_factory.hpp:77] Creating layer pool2/3x3_s2
I0403 15:07:12.028842  2692 net.cpp:91] Creating Layer pool2/3x3_s2
I0403 15:07:12.028861  2692 net.cpp:425] pool2/3x3_s2 <- conv2/norm2
I0403 15:07:12.028887  2692 net.cpp:399] pool2/3x3_s2 -> pool2/3x3_s2
I0403 15:07:12.028964  2692 net.cpp:141] Setting up pool2/3x3_s2
I0403 15:07:12.028996  2692 net.cpp:148] Top shape: 24 192 28 28 (3612672)
I0403 15:07:12.029021  2692 net.cpp:156] Memory required for data: 433521696
I0403 15:07:12.029039  2692 layer_factory.hpp:77] Creating layer pool2/3x3_s2_pool2/3x3_s2_0_split
I0403 15:07:12.029063  2692 net.cpp:91] Creating Layer pool2/3x3_s2_pool2/3x3_s2_0_split
I0403 15:07:12.029086  2692 net.cpp:425] pool2/3x3_s2_pool2/3x3_s2_0_split <- pool2/3x3_s2
I0403 15:07:12.029109  2692 net.cpp:399] pool2/3x3_s2_pool2/3x3_s2_0_split -> pool2/3x3_s2_pool2/3x3_s2_0_split_0
I0403 15:07:12.029139  2692 net.cpp:399] pool2/3x3_s2_pool2/3x3_s2_0_split -> pool2/3x3_s2_pool2/3x3_s2_0_split_1
I0403 15:07:12.029165  2692 net.cpp:399] pool2/3x3_s2_pool2/3x3_s2_0_split -> pool2/3x3_s2_pool2/3x3_s2_0_split_2
I0403 15:07:12.029189  2692 net.cpp:399] pool2/3x3_s2_pool2/3x3_s2_0_split -> pool2/3x3_s2_pool2/3x3_s2_0_split_3
I0403 15:07:12.029285  2692 net.cpp:141] Setting up pool2/3x3_s2_pool2/3x3_s2_0_split
I0403 15:07:12.029319  2692 net.cpp:148] Top shape: 24 192 28 28 (3612672)
I0403 15:07:12.029340  2692 net.cpp:148] Top shape: 24 192 28 28 (3612672)
I0403 15:07:12.029361  2692 net.cpp:148] Top shape: 24 192 28 28 (3612672)
I0403 15:07:12.029382  2692 net.cpp:148] Top shape: 24 192 28 28 (3612672)
I0403 15:07:12.029400  2692 net.cpp:156] Memory required for data: 491324448
I0403 15:07:12.029419  2692 layer_factory.hpp:77] Creating layer inception_3a/1x1
I0403 15:07:12.029453  2692 net.cpp:91] Creating Layer inception_3a/1x1
I0403 15:07:12.029476  2692 net.cpp:425] inception_3a/1x1 <- pool2/3x3_s2_pool2/3x3_s2_0_split_0
I0403 15:07:12.029502  2692 net.cpp:399] inception_3a/1x1 -> inception_3a/1x1
I0403 15:07:12.031378  2692 net.cpp:141] Setting up inception_3a/1x1
I0403 15:07:12.031422  2692 net.cpp:148] Top shape: 24 64 28 28 (1204224)
I0403 15:07:12.031442  2692 net.cpp:156] Memory required for data: 496141344
I0403 15:07:12.031466  2692 layer_factory.hpp:77] Creating layer inception_3a/relu_1x1
I0403 15:07:12.031497  2692 net.cpp:91] Creating Layer inception_3a/relu_1x1
I0403 15:07:12.031517  2692 net.cpp:425] inception_3a/relu_1x1 <- inception_3a/1x1
I0403 15:07:12.031538  2692 net.cpp:386] inception_3a/relu_1x1 -> inception_3a/1x1 (in-place)
I0403 15:07:12.031751  2692 net.cpp:141] Setting up inception_3a/relu_1x1
I0403 15:07:12.031785  2692 net.cpp:148] Top shape: 24 64 28 28 (1204224)
I0403 15:07:12.031805  2692 net.cpp:156] Memory required for data: 500958240
I0403 15:07:12.031822  2692 layer_factory.hpp:77] Creating layer inception_3a/3x3_reduce
I0403 15:07:12.031847  2692 net.cpp:91] Creating Layer inception_3a/3x3_reduce
I0403 15:07:12.031867  2692 net.cpp:425] inception_3a/3x3_reduce <- pool2/3x3_s2_pool2/3x3_s2_0_split_1
I0403 15:07:12.031893  2692 net.cpp:399] inception_3a/3x3_reduce -> inception_3a/3x3_reduce
I0403 15:07:12.034584  2692 net.cpp:141] Setting up inception_3a/3x3_reduce
I0403 15:07:12.034672  2692 net.cpp:148] Top shape: 24 96 28 28 (1806336)
I0403 15:07:12.034699  2692 net.cpp:156] Memory required for data: 508183584
I0403 15:07:12.034734  2692 layer_factory.hpp:77] Creating layer inception_3a/relu_3x3_reduce
I0403 15:07:12.034798  2692 net.cpp:91] Creating Layer inception_3a/relu_3x3_reduce
I0403 15:07:12.034842  2692 net.cpp:425] inception_3a/relu_3x3_reduce <- inception_3a/3x3_reduce
I0403 15:07:12.034901  2692 net.cpp:386] inception_3a/relu_3x3_reduce -> inception_3a/3x3_reduce (in-place)
I0403 15:07:12.035259  2692 net.cpp:141] Setting up inception_3a/relu_3x3_reduce
I0403 15:07:12.035310  2692 net.cpp:148] Top shape: 24 96 28 28 (1806336)
I0403 15:07:12.035331  2692 net.cpp:156] Memory required for data: 515408928
I0403 15:07:12.035352  2692 layer_factory.hpp:77] Creating layer inception_3a/3x3
I0403 15:07:12.035384  2692 net.cpp:91] Creating Layer inception_3a/3x3
I0403 15:07:12.035413  2692 net.cpp:425] inception_3a/3x3 <- inception_3a/3x3_reduce
I0403 15:07:12.035459  2692 net.cpp:399] inception_3a/3x3 -> inception_3a/3x3
I0403 15:07:12.038633  2692 net.cpp:141] Setting up inception_3a/3x3
I0403 15:07:12.038672  2692 net.cpp:148] Top shape: 24 128 28 28 (2408448)
I0403 15:07:12.038696  2692 net.cpp:156] Memory required for data: 525042720
I0403 15:07:12.038718  2692 layer_factory.hpp:77] Creating layer inception_3a/relu_3x3
I0403 15:07:12.038749  2692 net.cpp:91] Creating Layer inception_3a/relu_3x3
I0403 15:07:12.038772  2692 net.cpp:425] inception_3a/relu_3x3 <- inception_3a/3x3
I0403 15:07:12.038794  2692 net.cpp:386] inception_3a/relu_3x3 -> inception_3a/3x3 (in-place)
I0403 15:07:12.039130  2692 net.cpp:141] Setting up inception_3a/relu_3x3
I0403 15:07:12.039165  2692 net.cpp:148] Top shape: 24 128 28 28 (2408448)
I0403 15:07:12.039185  2692 net.cpp:156] Memory required for data: 534676512
I0403 15:07:12.039206  2692 layer_factory.hpp:77] Creating layer inception_3a/5x5_reduce
I0403 15:07:12.039235  2692 net.cpp:91] Creating Layer inception_3a/5x5_reduce
I0403 15:07:12.039260  2692 net.cpp:425] inception_3a/5x5_reduce <- pool2/3x3_s2_pool2/3x3_s2_0_split_2
I0403 15:07:12.039293  2692 net.cpp:399] inception_3a/5x5_reduce -> inception_3a/5x5_reduce
I0403 15:07:12.040460  2692 net.cpp:141] Setting up inception_3a/5x5_reduce
I0403 15:07:12.040495  2692 net.cpp:148] Top shape: 24 16 28 28 (301056)
I0403 15:07:12.040514  2692 net.cpp:156] Memory required for data: 535880736
I0403 15:07:12.040540  2692 layer_factory.hpp:77] Creating layer inception_3a/relu_5x5_reduce
I0403 15:07:12.040565  2692 net.cpp:91] Creating Layer inception_3a/relu_5x5_reduce
I0403 15:07:12.040588  2692 net.cpp:425] inception_3a/relu_5x5_reduce <- inception_3a/5x5_reduce
I0403 15:07:12.040613  2692 net.cpp:386] inception_3a/relu_5x5_reduce -> inception_3a/5x5_reduce (in-place)
I0403 15:07:12.040969  2692 net.cpp:141] Setting up inception_3a/relu_5x5_reduce
I0403 15:07:12.041005  2692 net.cpp:148] Top shape: 24 16 28 28 (301056)
I0403 15:07:12.041025  2692 net.cpp:156] Memory required for data: 537084960
I0403 15:07:12.041045  2692 layer_factory.hpp:77] Creating layer inception_3a/5x5
I0403 15:07:12.041075  2692 net.cpp:91] Creating Layer inception_3a/5x5
I0403 15:07:12.041098  2692 net.cpp:425] inception_3a/5x5 <- inception_3a/5x5_reduce
I0403 15:07:12.041124  2692 net.cpp:399] inception_3a/5x5 -> inception_3a/5x5
I0403 15:07:12.042361  2692 net.cpp:141] Setting up inception_3a/5x5
I0403 15:07:12.042395  2692 net.cpp:148] Top shape: 24 32 28 28 (602112)
I0403 15:07:12.042417  2692 net.cpp:156] Memory required for data: 539493408
I0403 15:07:12.042440  2692 layer_factory.hpp:77] Creating layer inception_3a/relu_5x5
I0403 15:07:12.042466  2692 net.cpp:91] Creating Layer inception_3a/relu_5x5
I0403 15:07:12.042490  2692 net.cpp:425] inception_3a/relu_5x5 <- inception_3a/5x5
I0403 15:07:12.042515  2692 net.cpp:386] inception_3a/relu_5x5 -> inception_3a/5x5 (in-place)
I0403 15:07:12.042728  2692 net.cpp:141] Setting up inception_3a/relu_5x5
I0403 15:07:12.042767  2692 net.cpp:148] Top shape: 24 32 28 28 (602112)
I0403 15:07:12.042786  2692 net.cpp:156] Memory required for data: 541901856
I0403 15:07:12.042806  2692 layer_factory.hpp:77] Creating layer inception_3a/pool
I0403 15:07:12.042830  2692 net.cpp:91] Creating Layer inception_3a/pool
I0403 15:07:12.042873  2692 net.cpp:425] inception_3a/pool <- pool2/3x3_s2_pool2/3x3_s2_0_split_3
I0403 15:07:12.042899  2692 net.cpp:399] inception_3a/pool -> inception_3a/pool
I0403 15:07:12.042973  2692 net.cpp:141] Setting up inception_3a/pool
I0403 15:07:12.043004  2692 net.cpp:148] Top shape: 24 192 28 28 (3612672)
I0403 15:07:12.043025  2692 net.cpp:156] Memory required for data: 556352544
I0403 15:07:12.043045  2692 layer_factory.hpp:77] Creating layer inception_3a/pool_proj
I0403 15:07:12.043072  2692 net.cpp:91] Creating Layer inception_3a/pool_proj
I0403 15:07:12.043097  2692 net.cpp:425] inception_3a/pool_proj <- inception_3a/pool
I0403 15:07:12.043123  2692 net.cpp:399] inception_3a/pool_proj -> inception_3a/pool_proj
I0403 15:07:12.044351  2692 net.cpp:141] Setting up inception_3a/pool_proj
I0403 15:07:12.044387  2692 net.cpp:148] Top shape: 24 32 28 28 (602112)
I0403 15:07:12.044412  2692 net.cpp:156] Memory required for data: 558760992
I0403 15:07:12.044442  2692 layer_factory.hpp:77] Creating layer inception_3a/relu_pool_proj
I0403 15:07:12.044469  2692 net.cpp:91] Creating Layer inception_3a/relu_pool_proj
I0403 15:07:12.044491  2692 net.cpp:425] inception_3a/relu_pool_proj <- inception_3a/pool_proj
I0403 15:07:12.044512  2692 net.cpp:386] inception_3a/relu_pool_proj -> inception_3a/pool_proj (in-place)
I0403 15:07:12.044843  2692 net.cpp:141] Setting up inception_3a/relu_pool_proj
I0403 15:07:12.044878  2692 net.cpp:148] Top shape: 24 32 28 28 (602112)
I0403 15:07:12.044898  2692 net.cpp:156] Memory required for data: 561169440
I0403 15:07:12.044919  2692 layer_factory.hpp:77] Creating layer inception_3a/output
I0403 15:07:12.044945  2692 net.cpp:91] Creating Layer inception_3a/output
I0403 15:07:12.044965  2692 net.cpp:425] inception_3a/output <- inception_3a/1x1
I0403 15:07:12.044988  2692 net.cpp:425] inception_3a/output <- inception_3a/3x3
I0403 15:07:12.045008  2692 net.cpp:425] inception_3a/output <- inception_3a/5x5
I0403 15:07:12.045032  2692 net.cpp:425] inception_3a/output <- inception_3a/pool_proj
I0403 15:07:12.045053  2692 net.cpp:399] inception_3a/output -> inception_3a/output
I0403 15:07:12.045115  2692 net.cpp:141] Setting up inception_3a/output
I0403 15:07:12.045145  2692 net.cpp:148] Top shape: 24 256 28 28 (4816896)
I0403 15:07:12.045164  2692 net.cpp:156] Memory required for data: 580437024
I0403 15:07:12.045197  2692 layer_factory.hpp:77] Creating layer inception_3a/output_inception_3a/output_0_split
I0403 15:07:12.045219  2692 net.cpp:91] Creating Layer inception_3a/output_inception_3a/output_0_split
I0403 15:07:12.045241  2692 net.cpp:425] inception_3a/output_inception_3a/output_0_split <- inception_3a/output
I0403 15:07:12.045269  2692 net.cpp:399] inception_3a/output_inception_3a/output_0_split -> inception_3a/output_inception_3a/output_0_split_0
I0403 15:07:12.045302  2692 net.cpp:399] inception_3a/output_inception_3a/output_0_split -> inception_3a/output_inception_3a/output_0_split_1
I0403 15:07:12.045334  2692 net.cpp:399] inception_3a/output_inception_3a/output_0_split -> inception_3a/output_inception_3a/output_0_split_2
I0403 15:07:12.045361  2692 net.cpp:399] inception_3a/output_inception_3a/output_0_split -> inception_3a/output_inception_3a/output_0_split_3
I0403 15:07:12.045452  2692 net.cpp:141] Setting up inception_3a/output_inception_3a/output_0_split
I0403 15:07:12.045481  2692 net.cpp:148] Top shape: 24 256 28 28 (4816896)
I0403 15:07:12.045502  2692 net.cpp:148] Top shape: 24 256 28 28 (4816896)
I0403 15:07:12.045526  2692 net.cpp:148] Top shape: 24 256 28 28 (4816896)
I0403 15:07:12.045545  2692 net.cpp:148] Top shape: 24 256 28 28 (4816896)
I0403 15:07:12.045563  2692 net.cpp:156] Memory required for data: 657507360
I0403 15:07:12.045584  2692 layer_factory.hpp:77] Creating layer inception_3b/1x1
I0403 15:07:12.045613  2692 net.cpp:91] Creating Layer inception_3b/1x1
I0403 15:07:12.045639  2692 net.cpp:425] inception_3b/1x1 <- inception_3a/output_inception_3a/output_0_split_0
I0403 15:07:12.045665  2692 net.cpp:399] inception_3b/1x1 -> inception_3b/1x1
I0403 15:07:12.047071  2692 net.cpp:141] Setting up inception_3b/1x1
I0403 15:07:12.047122  2692 net.cpp:148] Top shape: 24 128 28 28 (2408448)
I0403 15:07:12.047143  2692 net.cpp:156] Memory required for data: 667141152
I0403 15:07:12.047174  2692 layer_factory.hpp:77] Creating layer inception_3b/relu_1x1
I0403 15:07:12.047202  2692 net.cpp:91] Creating Layer inception_3b/relu_1x1
I0403 15:07:12.047225  2692 net.cpp:425] inception_3b/relu_1x1 <- inception_3b/1x1
I0403 15:07:12.047247  2692 net.cpp:386] inception_3b/relu_1x1 -> inception_3b/1x1 (in-place)
I0403 15:07:12.047473  2692 net.cpp:141] Setting up inception_3b/relu_1x1
I0403 15:07:12.047508  2692 net.cpp:148] Top shape: 24 128 28 28 (2408448)
I0403 15:07:12.047528  2692 net.cpp:156] Memory required for data: 676774944
I0403 15:07:12.047549  2692 layer_factory.hpp:77] Creating layer inception_3b/3x3_reduce
I0403 15:07:12.047580  2692 net.cpp:91] Creating Layer inception_3b/3x3_reduce
I0403 15:07:12.047605  2692 net.cpp:425] inception_3b/3x3_reduce <- inception_3a/output_inception_3a/output_0_split_1
I0403 15:07:12.047631  2692 net.cpp:399] inception_3b/3x3_reduce -> inception_3b/3x3_reduce
I0403 15:07:12.049028  2692 net.cpp:141] Setting up inception_3b/3x3_reduce
I0403 15:07:12.049065  2692 net.cpp:148] Top shape: 24 128 28 28 (2408448)
I0403 15:07:12.049085  2692 net.cpp:156] Memory required for data: 686408736
I0403 15:07:12.049109  2692 layer_factory.hpp:77] Creating layer inception_3b/relu_3x3_reduce
I0403 15:07:12.049132  2692 net.cpp:91] Creating Layer inception_3b/relu_3x3_reduce
I0403 15:07:12.049155  2692 net.cpp:425] inception_3b/relu_3x3_reduce <- inception_3b/3x3_reduce
I0403 15:07:12.049180  2692 net.cpp:386] inception_3b/relu_3x3_reduce -> inception_3b/3x3_reduce (in-place)
I0403 15:07:12.049404  2692 net.cpp:141] Setting up inception_3b/relu_3x3_reduce
I0403 15:07:12.049437  2692 net.cpp:148] Top shape: 24 128 28 28 (2408448)
I0403 15:07:12.049458  2692 net.cpp:156] Memory required for data: 696042528
I0403 15:07:12.049477  2692 layer_factory.hpp:77] Creating layer inception_3b/3x3
I0403 15:07:12.049513  2692 net.cpp:91] Creating Layer inception_3b/3x3
I0403 15:07:12.049535  2692 net.cpp:425] inception_3b/3x3 <- inception_3b/3x3_reduce
I0403 15:07:12.049564  2692 net.cpp:399] inception_3b/3x3 -> inception_3b/3x3
I0403 15:07:12.053125  2692 net.cpp:141] Setting up inception_3b/3x3
I0403 15:07:12.053164  2692 net.cpp:148] Top shape: 24 192 28 28 (3612672)
I0403 15:07:12.053185  2692 net.cpp:156] Memory required for data: 710493216
I0403 15:07:12.053210  2692 layer_factory.hpp:77] Creating layer inception_3b/relu_3x3
I0403 15:07:12.053234  2692 net.cpp:91] Creating Layer inception_3b/relu_3x3
I0403 15:07:12.053257  2692 net.cpp:425] inception_3b/relu_3x3 <- inception_3b/3x3
I0403 15:07:12.053297  2692 net.cpp:386] inception_3b/relu_3x3 -> inception_3b/3x3 (in-place)
I0403 15:07:12.053632  2692 net.cpp:141] Setting up inception_3b/relu_3x3
I0403 15:07:12.053665  2692 net.cpp:148] Top shape: 24 192 28 28 (3612672)
I0403 15:07:12.053684  2692 net.cpp:156] Memory required for data: 724943904
I0403 15:07:12.053702  2692 layer_factory.hpp:77] Creating layer inception_3b/5x5_reduce
I0403 15:07:12.053731  2692 net.cpp:91] Creating Layer inception_3b/5x5_reduce
I0403 15:07:12.053755  2692 net.cpp:425] inception_3b/5x5_reduce <- inception_3a/output_inception_3a/output_0_split_2
I0403 15:07:12.053782  2692 net.cpp:399] inception_3b/5x5_reduce -> inception_3b/5x5_reduce
I0403 15:07:12.055003  2692 net.cpp:141] Setting up inception_3b/5x5_reduce
I0403 15:07:12.055038  2692 net.cpp:148] Top shape: 24 32 28 28 (602112)
I0403 15:07:12.055058  2692 net.cpp:156] Memory required for data: 727352352
I0403 15:07:12.055080  2692 layer_factory.hpp:77] Creating layer inception_3b/relu_5x5_reduce
I0403 15:07:12.055106  2692 net.cpp:91] Creating Layer inception_3b/relu_5x5_reduce
I0403 15:07:12.055129  2692 net.cpp:425] inception_3b/relu_5x5_reduce <- inception_3b/5x5_reduce
I0403 15:07:12.055150  2692 net.cpp:386] inception_3b/relu_5x5_reduce -> inception_3b/5x5_reduce (in-place)
I0403 15:07:12.055393  2692 net.cpp:141] Setting up inception_3b/relu_5x5_reduce
I0403 15:07:12.055428  2692 net.cpp:148] Top shape: 24 32 28 28 (602112)
I0403 15:07:12.055449  2692 net.cpp:156] Memory required for data: 729760800
I0403 15:07:12.055472  2692 layer_factory.hpp:77] Creating layer inception_3b/5x5
I0403 15:07:12.055500  2692 net.cpp:91] Creating Layer inception_3b/5x5
I0403 15:07:12.055521  2692 net.cpp:425] inception_3b/5x5 <- inception_3b/5x5_reduce
I0403 15:07:12.055547  2692 net.cpp:399] inception_3b/5x5 -> inception_3b/5x5
I0403 15:07:12.057922  2692 net.cpp:141] Setting up inception_3b/5x5
I0403 15:07:12.057960  2692 net.cpp:148] Top shape: 24 96 28 28 (1806336)
I0403 15:07:12.057981  2692 net.cpp:156] Memory required for data: 736986144
I0403 15:07:12.058007  2692 layer_factory.hpp:77] Creating layer inception_3b/relu_5x5
I0403 15:07:12.058028  2692 net.cpp:91] Creating Layer inception_3b/relu_5x5
I0403 15:07:12.058050  2692 net.cpp:425] inception_3b/relu_5x5 <- inception_3b/5x5
I0403 15:07:12.058076  2692 net.cpp:386] inception_3b/relu_5x5 -> inception_3b/5x5 (in-place)
I0403 15:07:12.058322  2692 net.cpp:141] Setting up inception_3b/relu_5x5
I0403 15:07:12.058353  2692 net.cpp:148] Top shape: 24 96 28 28 (1806336)
I0403 15:07:12.058374  2692 net.cpp:156] Memory required for data: 744211488
I0403 15:07:12.058395  2692 layer_factory.hpp:77] Creating layer inception_3b/pool
I0403 15:07:12.058420  2692 net.cpp:91] Creating Layer inception_3b/pool
I0403 15:07:12.058440  2692 net.cpp:425] inception_3b/pool <- inception_3a/output_inception_3a/output_0_split_3
I0403 15:07:12.058464  2692 net.cpp:399] inception_3b/pool -> inception_3b/pool
I0403 15:07:12.058537  2692 net.cpp:141] Setting up inception_3b/pool
I0403 15:07:12.058567  2692 net.cpp:148] Top shape: 24 256 28 28 (4816896)
I0403 15:07:12.058586  2692 net.cpp:156] Memory required for data: 763479072
I0403 15:07:12.058606  2692 layer_factory.hpp:77] Creating layer inception_3b/pool_proj
I0403 15:07:12.058635  2692 net.cpp:91] Creating Layer inception_3b/pool_proj
I0403 15:07:12.058660  2692 net.cpp:425] inception_3b/pool_proj <- inception_3b/pool
I0403 15:07:12.058686  2692 net.cpp:399] inception_3b/pool_proj -> inception_3b/pool_proj
I0403 15:07:12.059976  2692 net.cpp:141] Setting up inception_3b/pool_proj
I0403 15:07:12.060014  2692 net.cpp:148] Top shape: 24 64 28 28 (1204224)
I0403 15:07:12.060036  2692 net.cpp:156] Memory required for data: 768295968
I0403 15:07:12.060058  2692 layer_factory.hpp:77] Creating layer inception_3b/relu_pool_proj
I0403 15:07:12.060082  2692 net.cpp:91] Creating Layer inception_3b/relu_pool_proj
I0403 15:07:12.060103  2692 net.cpp:425] inception_3b/relu_pool_proj <- inception_3b/pool_proj
I0403 15:07:12.060128  2692 net.cpp:386] inception_3b/relu_pool_proj -> inception_3b/pool_proj (in-place)
I0403 15:07:12.060614  2692 net.cpp:141] Setting up inception_3b/relu_pool_proj
I0403 15:07:12.060647  2692 net.cpp:148] Top shape: 24 64 28 28 (1204224)
I0403 15:07:12.060668  2692 net.cpp:156] Memory required for data: 773112864
I0403 15:07:12.060688  2692 layer_factory.hpp:77] Creating layer inception_3b/output
I0403 15:07:12.060714  2692 net.cpp:91] Creating Layer inception_3b/output
I0403 15:07:12.060735  2692 net.cpp:425] inception_3b/output <- inception_3b/1x1
I0403 15:07:12.060758  2692 net.cpp:425] inception_3b/output <- inception_3b/3x3
I0403 15:07:12.060778  2692 net.cpp:425] inception_3b/output <- inception_3b/5x5
I0403 15:07:12.060798  2692 net.cpp:425] inception_3b/output <- inception_3b/pool_proj
I0403 15:07:12.060820  2692 net.cpp:399] inception_3b/output -> inception_3b/output
I0403 15:07:12.060878  2692 net.cpp:141] Setting up inception_3b/output
I0403 15:07:12.060906  2692 net.cpp:148] Top shape: 24 480 28 28 (9031680)
I0403 15:07:12.060927  2692 net.cpp:156] Memory required for data: 809239584
I0403 15:07:12.060947  2692 layer_factory.hpp:77] Creating layer pool3/3x3_s2
I0403 15:07:12.060972  2692 net.cpp:91] Creating Layer pool3/3x3_s2
I0403 15:07:12.060993  2692 net.cpp:425] pool3/3x3_s2 <- inception_3b/output
I0403 15:07:12.061035  2692 net.cpp:399] pool3/3x3_s2 -> pool3/3x3_s2
I0403 15:07:12.061112  2692 net.cpp:141] Setting up pool3/3x3_s2
I0403 15:07:12.061143  2692 net.cpp:148] Top shape: 24 480 14 14 (2257920)
I0403 15:07:12.061161  2692 net.cpp:156] Memory required for data: 818271264
I0403 15:07:12.061180  2692 layer_factory.hpp:77] Creating layer pool3/3x3_s2_pool3/3x3_s2_0_split
I0403 15:07:12.061206  2692 net.cpp:91] Creating Layer pool3/3x3_s2_pool3/3x3_s2_0_split
I0403 15:07:12.061226  2692 net.cpp:425] pool3/3x3_s2_pool3/3x3_s2_0_split <- pool3/3x3_s2
I0403 15:07:12.061254  2692 net.cpp:399] pool3/3x3_s2_pool3/3x3_s2_0_split -> pool3/3x3_s2_pool3/3x3_s2_0_split_0
I0403 15:07:12.061283  2692 net.cpp:399] pool3/3x3_s2_pool3/3x3_s2_0_split -> pool3/3x3_s2_pool3/3x3_s2_0_split_1
I0403 15:07:12.061311  2692 net.cpp:399] pool3/3x3_s2_pool3/3x3_s2_0_split -> pool3/3x3_s2_pool3/3x3_s2_0_split_2
I0403 15:07:12.061336  2692 net.cpp:399] pool3/3x3_s2_pool3/3x3_s2_0_split -> pool3/3x3_s2_pool3/3x3_s2_0_split_3
I0403 15:07:12.061430  2692 net.cpp:141] Setting up pool3/3x3_s2_pool3/3x3_s2_0_split
I0403 15:07:12.061462  2692 net.cpp:148] Top shape: 24 480 14 14 (2257920)
I0403 15:07:12.061486  2692 net.cpp:148] Top shape: 24 480 14 14 (2257920)
I0403 15:07:12.061506  2692 net.cpp:148] Top shape: 24 480 14 14 (2257920)
I0403 15:07:12.061527  2692 net.cpp:148] Top shape: 24 480 14 14 (2257920)
I0403 15:07:12.061544  2692 net.cpp:156] Memory required for data: 854397984
I0403 15:07:12.061564  2692 layer_factory.hpp:77] Creating layer inception_4a/1x1
I0403 15:07:12.061594  2692 net.cpp:91] Creating Layer inception_4a/1x1
I0403 15:07:12.061614  2692 net.cpp:425] inception_4a/1x1 <- pool3/3x3_s2_pool3/3x3_s2_0_split_0
I0403 15:07:12.061637  2692 net.cpp:399] inception_4a/1x1 -> inception_4a/1x1
I0403 15:07:12.063575  2692 net.cpp:141] Setting up inception_4a/1x1
I0403 15:07:12.063611  2692 net.cpp:148] Top shape: 24 192 14 14 (903168)
I0403 15:07:12.063630  2692 net.cpp:156] Memory required for data: 858010656
I0403 15:07:12.063652  2692 layer_factory.hpp:77] Creating layer inception_4a/relu_1x1
I0403 15:07:12.063674  2692 net.cpp:91] Creating Layer inception_4a/relu_1x1
I0403 15:07:12.063694  2692 net.cpp:425] inception_4a/relu_1x1 <- inception_4a/1x1
I0403 15:07:12.063717  2692 net.cpp:386] inception_4a/relu_1x1 -> inception_4a/1x1 (in-place)
I0403 15:07:12.063933  2692 net.cpp:141] Setting up inception_4a/relu_1x1
I0403 15:07:12.063963  2692 net.cpp:148] Top shape: 24 192 14 14 (903168)
I0403 15:07:12.063982  2692 net.cpp:156] Memory required for data: 861623328
I0403 15:07:12.064000  2692 layer_factory.hpp:77] Creating layer inception_4a/3x3_reduce
I0403 15:07:12.064029  2692 net.cpp:91] Creating Layer inception_4a/3x3_reduce
I0403 15:07:12.064052  2692 net.cpp:425] inception_4a/3x3_reduce <- pool3/3x3_s2_pool3/3x3_s2_0_split_1
I0403 15:07:12.064082  2692 net.cpp:399] inception_4a/3x3_reduce -> inception_4a/3x3_reduce
I0403 15:07:12.065670  2692 net.cpp:141] Setting up inception_4a/3x3_reduce
I0403 15:07:12.065709  2692 net.cpp:148] Top shape: 24 96 14 14 (451584)
I0403 15:07:12.065733  2692 net.cpp:156] Memory required for data: 863429664
I0403 15:07:12.065769  2692 layer_factory.hpp:77] Creating layer inception_4a/relu_3x3_reduce
I0403 15:07:12.065796  2692 net.cpp:91] Creating Layer inception_4a/relu_3x3_reduce
I0403 15:07:12.065817  2692 net.cpp:425] inception_4a/relu_3x3_reduce <- inception_4a/3x3_reduce
I0403 15:07:12.065839  2692 net.cpp:386] inception_4a/relu_3x3_reduce -> inception_4a/3x3_reduce (in-place)
I0403 15:07:12.066061  2692 net.cpp:141] Setting up inception_4a/relu_3x3_reduce
I0403 15:07:12.066094  2692 net.cpp:148] Top shape: 24 96 14 14 (451584)
I0403 15:07:12.066112  2692 net.cpp:156] Memory required for data: 865236000
I0403 15:07:12.066130  2692 layer_factory.hpp:77] Creating layer inception_4a/3x3
I0403 15:07:12.066157  2692 net.cpp:91] Creating Layer inception_4a/3x3
I0403 15:07:12.066180  2692 net.cpp:425] inception_4a/3x3 <- inception_4a/3x3_reduce
I0403 15:07:12.066205  2692 net.cpp:399] inception_4a/3x3 -> inception_4a/3x3
I0403 15:07:12.069468  2692 net.cpp:141] Setting up inception_4a/3x3
I0403 15:07:12.069505  2692 net.cpp:148] Top shape: 24 208 14 14 (978432)
I0403 15:07:12.069525  2692 net.cpp:156] Memory required for data: 869149728
I0403 15:07:12.069550  2692 layer_factory.hpp:77] Creating layer inception_4a/relu_3x3
I0403 15:07:12.069578  2692 net.cpp:91] Creating Layer inception_4a/relu_3x3
I0403 15:07:12.069599  2692 net.cpp:425] inception_4a/relu_3x3 <- inception_4a/3x3
I0403 15:07:12.069622  2692 net.cpp:386] inception_4a/relu_3x3 -> inception_4a/3x3 (in-place)
I0403 15:07:12.069964  2692 net.cpp:141] Setting up inception_4a/relu_3x3
I0403 15:07:12.069996  2692 net.cpp:148] Top shape: 24 208 14 14 (978432)
I0403 15:07:12.070016  2692 net.cpp:156] Memory required for data: 873063456
I0403 15:07:12.070037  2692 layer_factory.hpp:77] Creating layer inception_4a/5x5_reduce
I0403 15:07:12.070065  2692 net.cpp:91] Creating Layer inception_4a/5x5_reduce
I0403 15:07:12.070088  2692 net.cpp:425] inception_4a/5x5_reduce <- pool3/3x3_s2_pool3/3x3_s2_0_split_2
I0403 15:07:12.070117  2692 net.cpp:399] inception_4a/5x5_reduce -> inception_4a/5x5_reduce
I0403 15:07:12.071385  2692 net.cpp:141] Setting up inception_4a/5x5_reduce
I0403 15:07:12.071424  2692 net.cpp:148] Top shape: 24 16 14 14 (75264)
I0403 15:07:12.071444  2692 net.cpp:156] Memory required for data: 873364512
I0403 15:07:12.071468  2692 layer_factory.hpp:77] Creating layer inception_4a/relu_5x5_reduce
I0403 15:07:12.071494  2692 net.cpp:91] Creating Layer inception_4a/relu_5x5_reduce
I0403 15:07:12.071516  2692 net.cpp:425] inception_4a/relu_5x5_reduce <- inception_4a/5x5_reduce
I0403 15:07:12.071540  2692 net.cpp:386] inception_4a/relu_5x5_reduce -> inception_4a/5x5_reduce (in-place)
I0403 15:07:12.071758  2692 net.cpp:141] Setting up inception_4a/relu_5x5_reduce
I0403 15:07:12.071794  2692 net.cpp:148] Top shape: 24 16 14 14 (75264)
I0403 15:07:12.071815  2692 net.cpp:156] Memory required for data: 873665568
I0403 15:07:12.071835  2692 layer_factory.hpp:77] Creating layer inception_4a/5x5
I0403 15:07:12.071863  2692 net.cpp:91] Creating Layer inception_4a/5x5
I0403 15:07:12.071887  2692 net.cpp:425] inception_4a/5x5 <- inception_4a/5x5_reduce
I0403 15:07:12.071912  2692 net.cpp:399] inception_4a/5x5 -> inception_4a/5x5
I0403 15:07:12.073293  2692 net.cpp:141] Setting up inception_4a/5x5
I0403 15:07:12.073341  2692 net.cpp:148] Top shape: 24 48 14 14 (225792)
I0403 15:07:12.073364  2692 net.cpp:156] Memory required for data: 874568736
I0403 15:07:12.073390  2692 layer_factory.hpp:77] Creating layer inception_4a/relu_5x5
I0403 15:07:12.073415  2692 net.cpp:91] Creating Layer inception_4a/relu_5x5
I0403 15:07:12.073437  2692 net.cpp:425] inception_4a/relu_5x5 <- inception_4a/5x5
I0403 15:07:12.073462  2692 net.cpp:386] inception_4a/relu_5x5 -> inception_4a/5x5 (in-place)
I0403 15:07:12.073686  2692 net.cpp:141] Setting up inception_4a/relu_5x5
I0403 15:07:12.073719  2692 net.cpp:148] Top shape: 24 48 14 14 (225792)
I0403 15:07:12.073740  2692 net.cpp:156] Memory required for data: 875471904
I0403 15:07:12.073758  2692 layer_factory.hpp:77] Creating layer inception_4a/pool
I0403 15:07:12.073783  2692 net.cpp:91] Creating Layer inception_4a/pool
I0403 15:07:12.073806  2692 net.cpp:425] inception_4a/pool <- pool3/3x3_s2_pool3/3x3_s2_0_split_3
I0403 15:07:12.073832  2692 net.cpp:399] inception_4a/pool -> inception_4a/pool
I0403 15:07:12.073916  2692 net.cpp:141] Setting up inception_4a/pool
I0403 15:07:12.073948  2692 net.cpp:148] Top shape: 24 480 14 14 (2257920)
I0403 15:07:12.073968  2692 net.cpp:156] Memory required for data: 884503584
I0403 15:07:12.073987  2692 layer_factory.hpp:77] Creating layer inception_4a/pool_proj
I0403 15:07:12.074018  2692 net.cpp:91] Creating Layer inception_4a/pool_proj
I0403 15:07:12.074040  2692 net.cpp:425] inception_4a/pool_proj <- inception_4a/pool
I0403 15:07:12.074064  2692 net.cpp:399] inception_4a/pool_proj -> inception_4a/pool_proj
I0403 15:07:12.075564  2692 net.cpp:141] Setting up inception_4a/pool_proj
I0403 15:07:12.075616  2692 net.cpp:148] Top shape: 24 64 14 14 (301056)
I0403 15:07:12.075664  2692 net.cpp:156] Memory required for data: 885707808
I0403 15:07:12.075690  2692 layer_factory.hpp:77] Creating layer inception_4a/relu_pool_proj
I0403 15:07:12.075714  2692 net.cpp:91] Creating Layer inception_4a/relu_pool_proj
I0403 15:07:12.075736  2692 net.cpp:425] inception_4a/relu_pool_proj <- inception_4a/pool_proj
I0403 15:07:12.075762  2692 net.cpp:386] inception_4a/relu_pool_proj -> inception_4a/pool_proj (in-place)
I0403 15:07:12.076107  2692 net.cpp:141] Setting up inception_4a/relu_pool_proj
I0403 15:07:12.076144  2692 net.cpp:148] Top shape: 24 64 14 14 (301056)
I0403 15:07:12.076164  2692 net.cpp:156] Memory required for data: 886912032
I0403 15:07:12.076184  2692 layer_factory.hpp:77] Creating layer inception_4a/output
I0403 15:07:12.076207  2692 net.cpp:91] Creating Layer inception_4a/output
I0403 15:07:12.076228  2692 net.cpp:425] inception_4a/output <- inception_4a/1x1
I0403 15:07:12.076251  2692 net.cpp:425] inception_4a/output <- inception_4a/3x3
I0403 15:07:12.076277  2692 net.cpp:425] inception_4a/output <- inception_4a/5x5
I0403 15:07:12.076299  2692 net.cpp:425] inception_4a/output <- inception_4a/pool_proj
I0403 15:07:12.076324  2692 net.cpp:399] inception_4a/output -> inception_4a/output
I0403 15:07:12.076387  2692 net.cpp:141] Setting up inception_4a/output
I0403 15:07:12.076418  2692 net.cpp:148] Top shape: 24 512 14 14 (2408448)
I0403 15:07:12.076437  2692 net.cpp:156] Memory required for data: 896545824
I0403 15:07:12.076457  2692 layer_factory.hpp:77] Creating layer inception_4a/output_inception_4a/output_0_split
I0403 15:07:12.076485  2692 net.cpp:91] Creating Layer inception_4a/output_inception_4a/output_0_split
I0403 15:07:12.076506  2692 net.cpp:425] inception_4a/output_inception_4a/output_0_split <- inception_4a/output
I0403 15:07:12.076530  2692 net.cpp:399] inception_4a/output_inception_4a/output_0_split -> inception_4a/output_inception_4a/output_0_split_0
I0403 15:07:12.076560  2692 net.cpp:399] inception_4a/output_inception_4a/output_0_split -> inception_4a/output_inception_4a/output_0_split_1
I0403 15:07:12.076586  2692 net.cpp:399] inception_4a/output_inception_4a/output_0_split -> inception_4a/output_inception_4a/output_0_split_2
I0403 15:07:12.076614  2692 net.cpp:399] inception_4a/output_inception_4a/output_0_split -> inception_4a/output_inception_4a/output_0_split_3
I0403 15:07:12.076642  2692 net.cpp:399] inception_4a/output_inception_4a/output_0_split -> inception_4a/output_inception_4a/output_0_split_4
I0403 15:07:12.076759  2692 net.cpp:141] Setting up inception_4a/output_inception_4a/output_0_split
I0403 15:07:12.076788  2692 net.cpp:148] Top shape: 24 512 14 14 (2408448)
I0403 15:07:12.076810  2692 net.cpp:148] Top shape: 24 512 14 14 (2408448)
I0403 15:07:12.076830  2692 net.cpp:148] Top shape: 24 512 14 14 (2408448)
I0403 15:07:12.076851  2692 net.cpp:148] Top shape: 24 512 14 14 (2408448)
I0403 15:07:12.076871  2692 net.cpp:148] Top shape: 24 512 14 14 (2408448)
I0403 15:07:12.076889  2692 net.cpp:156] Memory required for data: 944714784
I0403 15:07:12.076908  2692 layer_factory.hpp:77] Creating layer loss1/ave_pool
I0403 15:07:12.076936  2692 net.cpp:91] Creating Layer loss1/ave_pool
I0403 15:07:12.076958  2692 net.cpp:425] loss1/ave_pool <- inception_4a/output_inception_4a/output_0_split_0
I0403 15:07:12.076982  2692 net.cpp:399] loss1/ave_pool -> loss1/ave_pool
I0403 15:07:12.077249  2692 net.cpp:141] Setting up loss1/ave_pool
I0403 15:07:12.077291  2692 net.cpp:148] Top shape: 24 512 4 4 (196608)
I0403 15:07:12.077314  2692 net.cpp:156] Memory required for data: 945501216
I0403 15:07:12.077333  2692 layer_factory.hpp:77] Creating layer loss1/conv
I0403 15:07:12.077365  2692 net.cpp:91] Creating Layer loss1/conv
I0403 15:07:12.077389  2692 net.cpp:425] loss1/conv <- loss1/ave_pool
I0403 15:07:12.077414  2692 net.cpp:399] loss1/conv -> loss1/conv
I0403 15:07:12.079275  2692 net.cpp:141] Setting up loss1/conv
I0403 15:07:12.079318  2692 net.cpp:148] Top shape: 24 128 4 4 (49152)
I0403 15:07:12.079372  2692 net.cpp:156] Memory required for data: 945697824
I0403 15:07:12.079398  2692 layer_factory.hpp:77] Creating layer loss1/relu_conv
I0403 15:07:12.079424  2692 net.cpp:91] Creating Layer loss1/relu_conv
I0403 15:07:12.079445  2692 net.cpp:425] loss1/relu_conv <- loss1/conv
I0403 15:07:12.079468  2692 net.cpp:386] loss1/relu_conv -> loss1/conv (in-place)
I0403 15:07:12.079823  2692 net.cpp:141] Setting up loss1/relu_conv
I0403 15:07:12.079854  2692 net.cpp:148] Top shape: 24 128 4 4 (49152)
I0403 15:07:12.079874  2692 net.cpp:156] Memory required for data: 945894432
I0403 15:07:12.079891  2692 layer_factory.hpp:77] Creating layer loss1/fc
I0403 15:07:12.079924  2692 net.cpp:91] Creating Layer loss1/fc
I0403 15:07:12.079946  2692 net.cpp:425] loss1/fc <- loss1/conv
I0403 15:07:12.079970  2692 net.cpp:399] loss1/fc -> loss1/fc
I0403 15:07:12.101595  2692 net.cpp:141] Setting up loss1/fc
I0403 15:07:12.101656  2692 net.cpp:148] Top shape: 24 1024 (24576)
I0403 15:07:12.101676  2692 net.cpp:156] Memory required for data: 945992736
I0403 15:07:12.101701  2692 layer_factory.hpp:77] Creating layer loss1/relu_fc
I0403 15:07:12.101727  2692 net.cpp:91] Creating Layer loss1/relu_fc
I0403 15:07:12.101749  2692 net.cpp:425] loss1/relu_fc <- loss1/fc
I0403 15:07:12.101776  2692 net.cpp:386] loss1/relu_fc -> loss1/fc (in-place)
I0403 15:07:12.102030  2692 net.cpp:141] Setting up loss1/relu_fc
I0403 15:07:12.102059  2692 net.cpp:148] Top shape: 24 1024 (24576)
I0403 15:07:12.102078  2692 net.cpp:156] Memory required for data: 946091040
I0403 15:07:12.102097  2692 layer_factory.hpp:77] Creating layer loss1/drop_fc
I0403 15:07:12.102131  2692 net.cpp:91] Creating Layer loss1/drop_fc
I0403 15:07:12.102154  2692 net.cpp:425] loss1/drop_fc <- loss1/fc
I0403 15:07:12.102177  2692 net.cpp:386] loss1/drop_fc -> loss1/fc (in-place)
I0403 15:07:12.102241  2692 net.cpp:141] Setting up loss1/drop_fc
I0403 15:07:12.102277  2692 net.cpp:148] Top shape: 24 1024 (24576)
I0403 15:07:12.102298  2692 net.cpp:156] Memory required for data: 946189344
I0403 15:07:12.102316  2692 layer_factory.hpp:77] Creating layer loss1/classifier_plantvillage
I0403 15:07:12.102340  2692 net.cpp:91] Creating Layer loss1/classifier_plantvillage
I0403 15:07:12.102360  2692 net.cpp:425] loss1/classifier_plantvillage <- loss1/fc
I0403 15:07:12.102386  2692 net.cpp:399] loss1/classifier_plantvillage -> loss1/classifier_plantvillage
I0403 15:07:12.103531  2692 net.cpp:141] Setting up loss1/classifier_plantvillage
I0403 15:07:12.103566  2692 net.cpp:148] Top shape: 24 38 (912)
I0403 15:07:12.103586  2692 net.cpp:156] Memory required for data: 946192992
I0403 15:07:12.103608  2692 layer_factory.hpp:77] Creating layer loss1/classifier_plantvillage_loss1/classifier_plantvillage_0_split
I0403 15:07:12.103631  2692 net.cpp:91] Creating Layer loss1/classifier_plantvillage_loss1/classifier_plantvillage_0_split
I0403 15:07:12.103652  2692 net.cpp:425] loss1/classifier_plantvillage_loss1/classifier_plantvillage_0_split <- loss1/classifier_plantvillage
I0403 15:07:12.103677  2692 net.cpp:399] loss1/classifier_plantvillage_loss1/classifier_plantvillage_0_split -> loss1/classifier_plantvillage_loss1/classifier_plantvillage_0_split_0
I0403 15:07:12.103703  2692 net.cpp:399] loss1/classifier_plantvillage_loss1/classifier_plantvillage_0_split -> loss1/classifier_plantvillage_loss1/classifier_plantvillage_0_split_1
I0403 15:07:12.103727  2692 net.cpp:399] loss1/classifier_plantvillage_loss1/classifier_plantvillage_0_split -> loss1/classifier_plantvillage_loss1/classifier_plantvillage_0_split_2
I0403 15:07:12.103812  2692 net.cpp:141] Setting up loss1/classifier_plantvillage_loss1/classifier_plantvillage_0_split
I0403 15:07:12.103842  2692 net.cpp:148] Top shape: 24 38 (912)
I0403 15:07:12.103862  2692 net.cpp:148] Top shape: 24 38 (912)
I0403 15:07:12.103880  2692 net.cpp:148] Top shape: 24 38 (912)
I0403 15:07:12.103898  2692 net.cpp:156] Memory required for data: 946203936
I0403 15:07:12.103914  2692 layer_factory.hpp:77] Creating layer inception_4b/1x1
I0403 15:07:12.103943  2692 net.cpp:91] Creating Layer inception_4b/1x1
I0403 15:07:12.103987  2692 net.cpp:425] inception_4b/1x1 <- inception_4a/output_inception_4a/output_0_split_1
I0403 15:07:12.104012  2692 net.cpp:399] inception_4b/1x1 -> inception_4b/1x1
I0403 15:07:12.106060  2692 net.cpp:141] Setting up inception_4b/1x1
I0403 15:07:12.106096  2692 net.cpp:148] Top shape: 24 160 14 14 (752640)
I0403 15:07:12.106118  2692 net.cpp:156] Memory required for data: 949214496
I0403 15:07:12.106143  2692 layer_factory.hpp:77] Creating layer inception_4b/relu_1x1
I0403 15:07:12.106169  2692 net.cpp:91] Creating Layer inception_4b/relu_1x1
I0403 15:07:12.106194  2692 net.cpp:425] inception_4b/relu_1x1 <- inception_4b/1x1
I0403 15:07:12.106215  2692 net.cpp:386] inception_4b/relu_1x1 -> inception_4b/1x1 (in-place)
I0403 15:07:12.106444  2692 net.cpp:141] Setting up inception_4b/relu_1x1
I0403 15:07:12.106478  2692 net.cpp:148] Top shape: 24 160 14 14 (752640)
I0403 15:07:12.106498  2692 net.cpp:156] Memory required for data: 952225056
I0403 15:07:12.106516  2692 layer_factory.hpp:77] Creating layer inception_4b/3x3_reduce
I0403 15:07:12.106546  2692 net.cpp:91] Creating Layer inception_4b/3x3_reduce
I0403 15:07:12.106570  2692 net.cpp:425] inception_4b/3x3_reduce <- inception_4a/output_inception_4a/output_0_split_2
I0403 15:07:12.106593  2692 net.cpp:399] inception_4b/3x3_reduce -> inception_4b/3x3_reduce
I0403 15:07:12.108254  2692 net.cpp:141] Setting up inception_4b/3x3_reduce
I0403 15:07:12.108294  2692 net.cpp:148] Top shape: 24 112 14 14 (526848)
I0403 15:07:12.108320  2692 net.cpp:156] Memory required for data: 954332448
I0403 15:07:12.108345  2692 layer_factory.hpp:77] Creating layer inception_4b/relu_3x3_reduce
I0403 15:07:12.108367  2692 net.cpp:91] Creating Layer inception_4b/relu_3x3_reduce
I0403 15:07:12.108387  2692 net.cpp:425] inception_4b/relu_3x3_reduce <- inception_4b/3x3_reduce
I0403 15:07:12.108409  2692 net.cpp:386] inception_4b/relu_3x3_reduce -> inception_4b/3x3_reduce (in-place)
I0403 15:07:12.108757  2692 net.cpp:141] Setting up inception_4b/relu_3x3_reduce
I0403 15:07:12.108791  2692 net.cpp:148] Top shape: 24 112 14 14 (526848)
I0403 15:07:12.108811  2692 net.cpp:156] Memory required for data: 956439840
I0403 15:07:12.108829  2692 layer_factory.hpp:77] Creating layer inception_4b/3x3
I0403 15:07:12.108853  2692 net.cpp:91] Creating Layer inception_4b/3x3
I0403 15:07:12.108875  2692 net.cpp:425] inception_4b/3x3 <- inception_4b/3x3_reduce
I0403 15:07:12.108901  2692 net.cpp:399] inception_4b/3x3 -> inception_4b/3x3
I0403 15:07:12.112547  2692 net.cpp:141] Setting up inception_4b/3x3
I0403 15:07:12.112586  2692 net.cpp:148] Top shape: 24 224 14 14 (1053696)
I0403 15:07:12.112608  2692 net.cpp:156] Memory required for data: 960654624
I0403 15:07:12.112632  2692 layer_factory.hpp:77] Creating layer inception_4b/relu_3x3
I0403 15:07:12.112654  2692 net.cpp:91] Creating Layer inception_4b/relu_3x3
I0403 15:07:12.112673  2692 net.cpp:425] inception_4b/relu_3x3 <- inception_4b/3x3
I0403 15:07:12.112697  2692 net.cpp:386] inception_4b/relu_3x3 -> inception_4b/3x3 (in-place)
I0403 15:07:12.112923  2692 net.cpp:141] Setting up inception_4b/relu_3x3
I0403 15:07:12.112954  2692 net.cpp:148] Top shape: 24 224 14 14 (1053696)
I0403 15:07:12.112972  2692 net.cpp:156] Memory required for data: 964869408
I0403 15:07:12.112990  2692 layer_factory.hpp:77] Creating layer inception_4b/5x5_reduce
I0403 15:07:12.113018  2692 net.cpp:91] Creating Layer inception_4b/5x5_reduce
I0403 15:07:12.113040  2692 net.cpp:425] inception_4b/5x5_reduce <- inception_4a/output_inception_4a/output_0_split_3
I0403 15:07:12.113067  2692 net.cpp:399] inception_4b/5x5_reduce -> inception_4b/5x5_reduce
I0403 15:07:12.114578  2692 net.cpp:141] Setting up inception_4b/5x5_reduce
I0403 15:07:12.114611  2692 net.cpp:148] Top shape: 24 24 14 14 (112896)
I0403 15:07:12.114631  2692 net.cpp:156] Memory required for data: 965320992
I0403 15:07:12.114655  2692 layer_factory.hpp:77] Creating layer inception_4b/relu_5x5_reduce
I0403 15:07:12.114680  2692 net.cpp:91] Creating Layer inception_4b/relu_5x5_reduce
I0403 15:07:12.114717  2692 net.cpp:425] inception_4b/relu_5x5_reduce <- inception_4b/5x5_reduce
I0403 15:07:12.114738  2692 net.cpp:386] inception_4b/relu_5x5_reduce -> inception_4b/5x5_reduce (in-place)
I0403 15:07:12.114969  2692 net.cpp:141] Setting up inception_4b/relu_5x5_reduce
I0403 15:07:12.115001  2692 net.cpp:148] Top shape: 24 24 14 14 (112896)
I0403 15:07:12.115020  2692 net.cpp:156] Memory required for data: 965772576
I0403 15:07:12.115038  2692 layer_factory.hpp:77] Creating layer inception_4b/5x5
I0403 15:07:12.115066  2692 net.cpp:91] Creating Layer inception_4b/5x5
I0403 15:07:12.115087  2692 net.cpp:425] inception_4b/5x5 <- inception_4b/5x5_reduce
I0403 15:07:12.115109  2692 net.cpp:399] inception_4b/5x5 -> inception_4b/5x5
I0403 15:07:12.116619  2692 net.cpp:141] Setting up inception_4b/5x5
I0403 15:07:12.116654  2692 net.cpp:148] Top shape: 24 64 14 14 (301056)
I0403 15:07:12.116674  2692 net.cpp:156] Memory required for data: 966976800
I0403 15:07:12.116695  2692 layer_factory.hpp:77] Creating layer inception_4b/relu_5x5
I0403 15:07:12.116720  2692 net.cpp:91] Creating Layer inception_4b/relu_5x5
I0403 15:07:12.116742  2692 net.cpp:425] inception_4b/relu_5x5 <- inception_4b/5x5
I0403 15:07:12.116763  2692 net.cpp:386] inception_4b/relu_5x5 -> inception_4b/5x5 (in-place)
I0403 15:07:12.117199  2692 net.cpp:141] Setting up inception_4b/relu_5x5
I0403 15:07:12.117233  2692 net.cpp:148] Top shape: 24 64 14 14 (301056)
I0403 15:07:12.117250  2692 net.cpp:156] Memory required for data: 968181024
I0403 15:07:12.117269  2692 layer_factory.hpp:77] Creating layer inception_4b/pool
I0403 15:07:12.117297  2692 net.cpp:91] Creating Layer inception_4b/pool
I0403 15:07:12.117318  2692 net.cpp:425] inception_4b/pool <- inception_4a/output_inception_4a/output_0_split_4
I0403 15:07:12.117344  2692 net.cpp:399] inception_4b/pool -> inception_4b/pool
I0403 15:07:12.117429  2692 net.cpp:141] Setting up inception_4b/pool
I0403 15:07:12.117458  2692 net.cpp:148] Top shape: 24 512 14 14 (2408448)
I0403 15:07:12.117476  2692 net.cpp:156] Memory required for data: 977814816
I0403 15:07:12.117493  2692 layer_factory.hpp:77] Creating layer inception_4b/pool_proj
I0403 15:07:12.117521  2692 net.cpp:91] Creating Layer inception_4b/pool_proj
I0403 15:07:12.117542  2692 net.cpp:425] inception_4b/pool_proj <- inception_4b/pool
I0403 15:07:12.117568  2692 net.cpp:399] inception_4b/pool_proj -> inception_4b/pool_proj
I0403 15:07:12.119048  2692 net.cpp:141] Setting up inception_4b/pool_proj
I0403 15:07:12.119083  2692 net.cpp:148] Top shape: 24 64 14 14 (301056)
I0403 15:07:12.119103  2692 net.cpp:156] Memory required for data: 979019040
I0403 15:07:12.119125  2692 layer_factory.hpp:77] Creating layer inception_4b/relu_pool_proj
I0403 15:07:12.119150  2692 net.cpp:91] Creating Layer inception_4b/relu_pool_proj
I0403 15:07:12.119170  2692 net.cpp:425] inception_4b/relu_pool_proj <- inception_4b/pool_proj
I0403 15:07:12.119194  2692 net.cpp:386] inception_4b/relu_pool_proj -> inception_4b/pool_proj (in-place)
I0403 15:07:12.119422  2692 net.cpp:141] Setting up inception_4b/relu_pool_proj
I0403 15:07:12.119457  2692 net.cpp:148] Top shape: 24 64 14 14 (301056)
I0403 15:07:12.119475  2692 net.cpp:156] Memory required for data: 980223264
I0403 15:07:12.119493  2692 layer_factory.hpp:77] Creating layer inception_4b/output
I0403 15:07:12.119514  2692 net.cpp:91] Creating Layer inception_4b/output
I0403 15:07:12.119534  2692 net.cpp:425] inception_4b/output <- inception_4b/1x1
I0403 15:07:12.119554  2692 net.cpp:425] inception_4b/output <- inception_4b/3x3
I0403 15:07:12.119573  2692 net.cpp:425] inception_4b/output <- inception_4b/5x5
I0403 15:07:12.119592  2692 net.cpp:425] inception_4b/output <- inception_4b/pool_proj
I0403 15:07:12.119612  2692 net.cpp:399] inception_4b/output -> inception_4b/output
I0403 15:07:12.119670  2692 net.cpp:141] Setting up inception_4b/output
I0403 15:07:12.119699  2692 net.cpp:148] Top shape: 24 512 14 14 (2408448)
I0403 15:07:12.119717  2692 net.cpp:156] Memory required for data: 989857056
I0403 15:07:12.119752  2692 layer_factory.hpp:77] Creating layer inception_4b/output_inception_4b/output_0_split
I0403 15:07:12.119778  2692 net.cpp:91] Creating Layer inception_4b/output_inception_4b/output_0_split
I0403 15:07:12.119798  2692 net.cpp:425] inception_4b/output_inception_4b/output_0_split <- inception_4b/output
I0403 15:07:12.119820  2692 net.cpp:399] inception_4b/output_inception_4b/output_0_split -> inception_4b/output_inception_4b/output_0_split_0
I0403 15:07:12.119844  2692 net.cpp:399] inception_4b/output_inception_4b/output_0_split -> inception_4b/output_inception_4b/output_0_split_1
I0403 15:07:12.119869  2692 net.cpp:399] inception_4b/output_inception_4b/output_0_split -> inception_4b/output_inception_4b/output_0_split_2
I0403 15:07:12.119894  2692 net.cpp:399] inception_4b/output_inception_4b/output_0_split -> inception_4b/output_inception_4b/output_0_split_3
I0403 15:07:12.119997  2692 net.cpp:141] Setting up inception_4b/output_inception_4b/output_0_split
I0403 15:07:12.120025  2692 net.cpp:148] Top shape: 24 512 14 14 (2408448)
I0403 15:07:12.120045  2692 net.cpp:148] Top shape: 24 512 14 14 (2408448)
I0403 15:07:12.120064  2692 net.cpp:148] Top shape: 24 512 14 14 (2408448)
I0403 15:07:12.120082  2692 net.cpp:148] Top shape: 24 512 14 14 (2408448)
I0403 15:07:12.120098  2692 net.cpp:156] Memory required for data: 1028392224
I0403 15:07:12.120116  2692 layer_factory.hpp:77] Creating layer inception_4c/1x1
I0403 15:07:12.120143  2692 net.cpp:91] Creating Layer inception_4c/1x1
I0403 15:07:12.120164  2692 net.cpp:425] inception_4c/1x1 <- inception_4b/output_inception_4b/output_0_split_0
I0403 15:07:12.120192  2692 net.cpp:399] inception_4c/1x1 -> inception_4c/1x1
I0403 15:07:12.121954  2692 net.cpp:141] Setting up inception_4c/1x1
I0403 15:07:12.121999  2692 net.cpp:148] Top shape: 24 128 14 14 (602112)
I0403 15:07:12.122021  2692 net.cpp:156] Memory required for data: 1030800672
I0403 15:07:12.122045  2692 layer_factory.hpp:77] Creating layer inception_4c/relu_1x1
I0403 15:07:12.122067  2692 net.cpp:91] Creating Layer inception_4c/relu_1x1
I0403 15:07:12.122087  2692 net.cpp:425] inception_4c/relu_1x1 <- inception_4c/1x1
I0403 15:07:12.122112  2692 net.cpp:386] inception_4c/relu_1x1 -> inception_4c/1x1 (in-place)
I0403 15:07:12.122354  2692 net.cpp:141] Setting up inception_4c/relu_1x1
I0403 15:07:12.122385  2692 net.cpp:148] Top shape: 24 128 14 14 (602112)
I0403 15:07:12.122403  2692 net.cpp:156] Memory required for data: 1033209120
I0403 15:07:12.122422  2692 layer_factory.hpp:77] Creating layer inception_4c/3x3_reduce
I0403 15:07:12.122449  2692 net.cpp:91] Creating Layer inception_4c/3x3_reduce
I0403 15:07:12.122472  2692 net.cpp:425] inception_4c/3x3_reduce <- inception_4b/output_inception_4b/output_0_split_1
I0403 15:07:12.122496  2692 net.cpp:399] inception_4c/3x3_reduce -> inception_4c/3x3_reduce
I0403 15:07:12.124879  2692 net.cpp:141] Setting up inception_4c/3x3_reduce
I0403 15:07:12.124917  2692 net.cpp:148] Top shape: 24 128 14 14 (602112)
I0403 15:07:12.124936  2692 net.cpp:156] Memory required for data: 1035617568
I0403 15:07:12.124960  2692 layer_factory.hpp:77] Creating layer inception_4c/relu_3x3_reduce
I0403 15:07:12.124986  2692 net.cpp:91] Creating Layer inception_4c/relu_3x3_reduce
I0403 15:07:12.125006  2692 net.cpp:425] inception_4c/relu_3x3_reduce <- inception_4c/3x3_reduce
I0403 15:07:12.125028  2692 net.cpp:386] inception_4c/relu_3x3_reduce -> inception_4c/3x3_reduce (in-place)
I0403 15:07:12.125402  2692 net.cpp:141] Setting up inception_4c/relu_3x3_reduce
I0403 15:07:12.125435  2692 net.cpp:148] Top shape: 24 128 14 14 (602112)
I0403 15:07:12.125454  2692 net.cpp:156] Memory required for data: 1038026016
I0403 15:07:12.125473  2692 layer_factory.hpp:77] Creating layer inception_4c/3x3
I0403 15:07:12.125500  2692 net.cpp:91] Creating Layer inception_4c/3x3
I0403 15:07:12.125522  2692 net.cpp:425] inception_4c/3x3 <- inception_4c/3x3_reduce
I0403 15:07:12.125547  2692 net.cpp:399] inception_4c/3x3 -> inception_4c/3x3
I0403 15:07:12.129956  2692 net.cpp:141] Setting up inception_4c/3x3
I0403 15:07:12.130008  2692 net.cpp:148] Top shape: 24 256 14 14 (1204224)
I0403 15:07:12.130029  2692 net.cpp:156] Memory required for data: 1042842912
I0403 15:07:12.130069  2692 layer_factory.hpp:77] Creating layer inception_4c/relu_3x3
I0403 15:07:12.130098  2692 net.cpp:91] Creating Layer inception_4c/relu_3x3
I0403 15:07:12.130120  2692 net.cpp:425] inception_4c/relu_3x3 <- inception_4c/3x3
I0403 15:07:12.130141  2692 net.cpp:386] inception_4c/relu_3x3 -> inception_4c/3x3 (in-place)
I0403 15:07:12.130372  2692 net.cpp:141] Setting up inception_4c/relu_3x3
I0403 15:07:12.130403  2692 net.cpp:148] Top shape: 24 256 14 14 (1204224)
I0403 15:07:12.130420  2692 net.cpp:156] Memory required for data: 1047659808
I0403 15:07:12.130439  2692 layer_factory.hpp:77] Creating layer inception_4c/5x5_reduce
I0403 15:07:12.130466  2692 net.cpp:91] Creating Layer inception_4c/5x5_reduce
I0403 15:07:12.130487  2692 net.cpp:425] inception_4c/5x5_reduce <- inception_4b/output_inception_4b/output_0_split_2
I0403 15:07:12.130516  2692 net.cpp:399] inception_4c/5x5_reduce -> inception_4c/5x5_reduce
I0403 15:07:12.131866  2692 net.cpp:141] Setting up inception_4c/5x5_reduce
I0403 15:07:12.131901  2692 net.cpp:148] Top shape: 24 24 14 14 (112896)
I0403 15:07:12.131919  2692 net.cpp:156] Memory required for data: 1048111392
I0403 15:07:12.131942  2692 layer_factory.hpp:77] Creating layer inception_4c/relu_5x5_reduce
I0403 15:07:12.131970  2692 net.cpp:91] Creating Layer inception_4c/relu_5x5_reduce
I0403 15:07:12.131992  2692 net.cpp:425] inception_4c/relu_5x5_reduce <- inception_4c/5x5_reduce
I0403 15:07:12.132014  2692 net.cpp:386] inception_4c/relu_5x5_reduce -> inception_4c/5x5_reduce (in-place)
I0403 15:07:12.132242  2692 net.cpp:141] Setting up inception_4c/relu_5x5_reduce
I0403 15:07:12.132288  2692 net.cpp:148] Top shape: 24 24 14 14 (112896)
I0403 15:07:12.132311  2692 net.cpp:156] Memory required for data: 1048562976
I0403 15:07:12.132330  2692 layer_factory.hpp:77] Creating layer inception_4c/5x5
I0403 15:07:12.132357  2692 net.cpp:91] Creating Layer inception_4c/5x5
I0403 15:07:12.132380  2692 net.cpp:425] inception_4c/5x5 <- inception_4c/5x5_reduce
I0403 15:07:12.132401  2692 net.cpp:399] inception_4c/5x5 -> inception_4c/5x5
I0403 15:07:12.134023  2692 net.cpp:141] Setting up inception_4c/5x5
I0403 15:07:12.134062  2692 net.cpp:148] Top shape: 24 64 14 14 (301056)
I0403 15:07:12.134081  2692 net.cpp:156] Memory required for data: 1049767200
I0403 15:07:12.134104  2692 layer_factory.hpp:77] Creating layer inception_4c/relu_5x5
I0403 15:07:12.134127  2692 net.cpp:91] Creating Layer inception_4c/relu_5x5
I0403 15:07:12.134147  2692 net.cpp:425] inception_4c/relu_5x5 <- inception_4c/5x5
I0403 15:07:12.134168  2692 net.cpp:386] inception_4c/relu_5x5 -> inception_4c/5x5 (in-place)
I0403 15:07:12.134524  2692 net.cpp:141] Setting up inception_4c/relu_5x5
I0403 15:07:12.134559  2692 net.cpp:148] Top shape: 24 64 14 14 (301056)
I0403 15:07:12.134579  2692 net.cpp:156] Memory required for data: 1050971424
I0403 15:07:12.134598  2692 layer_factory.hpp:77] Creating layer inception_4c/pool
I0403 15:07:12.134619  2692 net.cpp:91] Creating Layer inception_4c/pool
I0403 15:07:12.134639  2692 net.cpp:425] inception_4c/pool <- inception_4b/output_inception_4b/output_0_split_3
I0403 15:07:12.134661  2692 net.cpp:399] inception_4c/pool -> inception_4c/pool
I0403 15:07:12.134743  2692 net.cpp:141] Setting up inception_4c/pool
I0403 15:07:12.134773  2692 net.cpp:148] Top shape: 24 512 14 14 (2408448)
I0403 15:07:12.134790  2692 net.cpp:156] Memory required for data: 1060605216
I0403 15:07:12.134809  2692 layer_factory.hpp:77] Creating layer inception_4c/pool_proj
I0403 15:07:12.134835  2692 net.cpp:91] Creating Layer inception_4c/pool_proj
I0403 15:07:12.134857  2692 net.cpp:425] inception_4c/pool_proj <- inception_4c/pool
I0403 15:07:12.134882  2692 net.cpp:399] inception_4c/pool_proj -> inception_4c/pool_proj
I0403 15:07:12.136387  2692 net.cpp:141] Setting up inception_4c/pool_proj
I0403 15:07:12.136425  2692 net.cpp:148] Top shape: 24 64 14 14 (301056)
I0403 15:07:12.136461  2692 net.cpp:156] Memory required for data: 1061809440
I0403 15:07:12.136485  2692 layer_factory.hpp:77] Creating layer inception_4c/relu_pool_proj
I0403 15:07:12.136512  2692 net.cpp:91] Creating Layer inception_4c/relu_pool_proj
I0403 15:07:12.136535  2692 net.cpp:425] inception_4c/relu_pool_proj <- inception_4c/pool_proj
I0403 15:07:12.136556  2692 net.cpp:386] inception_4c/relu_pool_proj -> inception_4c/pool_proj (in-place)
I0403 15:07:12.136782  2692 net.cpp:141] Setting up inception_4c/relu_pool_proj
I0403 15:07:12.136816  2692 net.cpp:148] Top shape: 24 64 14 14 (301056)
I0403 15:07:12.136836  2692 net.cpp:156] Memory required for data: 1063013664
I0403 15:07:12.136854  2692 layer_factory.hpp:77] Creating layer inception_4c/output
I0403 15:07:12.136875  2692 net.cpp:91] Creating Layer inception_4c/output
I0403 15:07:12.136894  2692 net.cpp:425] inception_4c/output <- inception_4c/1x1
I0403 15:07:12.136914  2692 net.cpp:425] inception_4c/output <- inception_4c/3x3
I0403 15:07:12.136934  2692 net.cpp:425] inception_4c/output <- inception_4c/5x5
I0403 15:07:12.136953  2692 net.cpp:425] inception_4c/output <- inception_4c/pool_proj
I0403 15:07:12.136973  2692 net.cpp:399] inception_4c/output -> inception_4c/output
I0403 15:07:12.137032  2692 net.cpp:141] Setting up inception_4c/output
I0403 15:07:12.137063  2692 net.cpp:148] Top shape: 24 512 14 14 (2408448)
I0403 15:07:12.137080  2692 net.cpp:156] Memory required for data: 1072647456
I0403 15:07:12.137099  2692 layer_factory.hpp:77] Creating layer inception_4c/output_inception_4c/output_0_split
I0403 15:07:12.137122  2692 net.cpp:91] Creating Layer inception_4c/output_inception_4c/output_0_split
I0403 15:07:12.137141  2692 net.cpp:425] inception_4c/output_inception_4c/output_0_split <- inception_4c/output
I0403 15:07:12.137162  2692 net.cpp:399] inception_4c/output_inception_4c/output_0_split -> inception_4c/output_inception_4c/output_0_split_0
I0403 15:07:12.137187  2692 net.cpp:399] inception_4c/output_inception_4c/output_0_split -> inception_4c/output_inception_4c/output_0_split_1
I0403 15:07:12.137212  2692 net.cpp:399] inception_4c/output_inception_4c/output_0_split -> inception_4c/output_inception_4c/output_0_split_2
I0403 15:07:12.137236  2692 net.cpp:399] inception_4c/output_inception_4c/output_0_split -> inception_4c/output_inception_4c/output_0_split_3
I0403 15:07:12.137349  2692 net.cpp:141] Setting up inception_4c/output_inception_4c/output_0_split
I0403 15:07:12.137379  2692 net.cpp:148] Top shape: 24 512 14 14 (2408448)
I0403 15:07:12.137399  2692 net.cpp:148] Top shape: 24 512 14 14 (2408448)
I0403 15:07:12.137419  2692 net.cpp:148] Top shape: 24 512 14 14 (2408448)
I0403 15:07:12.137439  2692 net.cpp:148] Top shape: 24 512 14 14 (2408448)
I0403 15:07:12.137456  2692 net.cpp:156] Memory required for data: 1111182624
I0403 15:07:12.137475  2692 layer_factory.hpp:77] Creating layer inception_4d/1x1
I0403 15:07:12.137501  2692 net.cpp:91] Creating Layer inception_4d/1x1
I0403 15:07:12.137523  2692 net.cpp:425] inception_4d/1x1 <- inception_4c/output_inception_4c/output_0_split_0
I0403 15:07:12.137549  2692 net.cpp:399] inception_4d/1x1 -> inception_4d/1x1
I0403 15:07:12.139252  2692 net.cpp:141] Setting up inception_4d/1x1
I0403 15:07:12.139293  2692 net.cpp:148] Top shape: 24 112 14 14 (526848)
I0403 15:07:12.139313  2692 net.cpp:156] Memory required for data: 1113290016
I0403 15:07:12.139335  2692 layer_factory.hpp:77] Creating layer inception_4d/relu_1x1
I0403 15:07:12.139359  2692 net.cpp:91] Creating Layer inception_4d/relu_1x1
I0403 15:07:12.139379  2692 net.cpp:425] inception_4d/relu_1x1 <- inception_4d/1x1
I0403 15:07:12.139402  2692 net.cpp:386] inception_4d/relu_1x1 -> inception_4d/1x1 (in-place)
I0403 15:07:12.139632  2692 net.cpp:141] Setting up inception_4d/relu_1x1
I0403 15:07:12.139664  2692 net.cpp:148] Top shape: 24 112 14 14 (526848)
I0403 15:07:12.139683  2692 net.cpp:156] Memory required for data: 1115397408
I0403 15:07:12.139701  2692 layer_factory.hpp:77] Creating layer inception_4d/3x3_reduce
I0403 15:07:12.139744  2692 net.cpp:91] Creating Layer inception_4d/3x3_reduce
I0403 15:07:12.139767  2692 net.cpp:425] inception_4d/3x3_reduce <- inception_4c/output_inception_4c/output_0_split_1
I0403 15:07:12.139793  2692 net.cpp:399] inception_4d/3x3_reduce -> inception_4d/3x3_reduce
I0403 15:07:12.141722  2692 net.cpp:141] Setting up inception_4d/3x3_reduce
I0403 15:07:12.141760  2692 net.cpp:148] Top shape: 24 144 14 14 (677376)
I0403 15:07:12.141782  2692 net.cpp:156] Memory required for data: 1118106912
I0403 15:07:12.141805  2692 layer_factory.hpp:77] Creating layer inception_4d/relu_3x3_reduce
I0403 15:07:12.141829  2692 net.cpp:91] Creating Layer inception_4d/relu_3x3_reduce
I0403 15:07:12.141847  2692 net.cpp:425] inception_4d/relu_3x3_reduce <- inception_4d/3x3_reduce
I0403 15:07:12.141872  2692 net.cpp:386] inception_4d/relu_3x3_reduce -> inception_4d/3x3_reduce (in-place)
I0403 15:07:12.142258  2692 net.cpp:141] Setting up inception_4d/relu_3x3_reduce
I0403 15:07:12.142307  2692 net.cpp:148] Top shape: 24 144 14 14 (677376)
I0403 15:07:12.142328  2692 net.cpp:156] Memory required for data: 1120816416
I0403 15:07:12.142346  2692 layer_factory.hpp:77] Creating layer inception_4d/3x3
I0403 15:07:12.142374  2692 net.cpp:91] Creating Layer inception_4d/3x3
I0403 15:07:12.142395  2692 net.cpp:425] inception_4d/3x3 <- inception_4d/3x3_reduce
I0403 15:07:12.142418  2692 net.cpp:399] inception_4d/3x3 -> inception_4d/3x3
I0403 15:07:12.147699  2692 net.cpp:141] Setting up inception_4d/3x3
I0403 15:07:12.147737  2692 net.cpp:148] Top shape: 24 288 14 14 (1354752)
I0403 15:07:12.147756  2692 net.cpp:156] Memory required for data: 1126235424
I0403 15:07:12.147779  2692 layer_factory.hpp:77] Creating layer inception_4d/relu_3x3
I0403 15:07:12.147804  2692 net.cpp:91] Creating Layer inception_4d/relu_3x3
I0403 15:07:12.147825  2692 net.cpp:425] inception_4d/relu_3x3 <- inception_4d/3x3
I0403 15:07:12.147848  2692 net.cpp:386] inception_4d/relu_3x3 -> inception_4d/3x3 (in-place)
I0403 15:07:12.148077  2692 net.cpp:141] Setting up inception_4d/relu_3x3
I0403 15:07:12.148108  2692 net.cpp:148] Top shape: 24 288 14 14 (1354752)
I0403 15:07:12.148126  2692 net.cpp:156] Memory required for data: 1131654432
I0403 15:07:12.148145  2692 layer_factory.hpp:77] Creating layer inception_4d/5x5_reduce
I0403 15:07:12.148171  2692 net.cpp:91] Creating Layer inception_4d/5x5_reduce
I0403 15:07:12.148193  2692 net.cpp:425] inception_4d/5x5_reduce <- inception_4c/output_inception_4c/output_0_split_2
I0403 15:07:12.148221  2692 net.cpp:399] inception_4d/5x5_reduce -> inception_4d/5x5_reduce
I0403 15:07:12.149648  2692 net.cpp:141] Setting up inception_4d/5x5_reduce
I0403 15:07:12.149683  2692 net.cpp:148] Top shape: 24 32 14 14 (150528)
I0403 15:07:12.149703  2692 net.cpp:156] Memory required for data: 1132256544
I0403 15:07:12.149725  2692 layer_factory.hpp:77] Creating layer inception_4d/relu_5x5_reduce
I0403 15:07:12.149749  2692 net.cpp:91] Creating Layer inception_4d/relu_5x5_reduce
I0403 15:07:12.149768  2692 net.cpp:425] inception_4d/relu_5x5_reduce <- inception_4d/5x5_reduce
I0403 15:07:12.149793  2692 net.cpp:386] inception_4d/relu_5x5_reduce -> inception_4d/5x5_reduce (in-place)
I0403 15:07:12.150027  2692 net.cpp:141] Setting up inception_4d/relu_5x5_reduce
I0403 15:07:12.150058  2692 net.cpp:148] Top shape: 24 32 14 14 (150528)
I0403 15:07:12.150077  2692 net.cpp:156] Memory required for data: 1132858656
I0403 15:07:12.150095  2692 layer_factory.hpp:77] Creating layer inception_4d/5x5
I0403 15:07:12.150125  2692 net.cpp:91] Creating Layer inception_4d/5x5
I0403 15:07:12.150147  2692 net.cpp:425] inception_4d/5x5 <- inception_4d/5x5_reduce
I0403 15:07:12.150173  2692 net.cpp:399] inception_4d/5x5 -> inception_4d/5x5
I0403 15:07:12.151998  2692 net.cpp:141] Setting up inception_4d/5x5
I0403 15:07:12.152034  2692 net.cpp:148] Top shape: 24 64 14 14 (301056)
I0403 15:07:12.152057  2692 net.cpp:156] Memory required for data: 1134062880
I0403 15:07:12.152081  2692 layer_factory.hpp:77] Creating layer inception_4d/relu_5x5
I0403 15:07:12.152122  2692 net.cpp:91] Creating Layer inception_4d/relu_5x5
I0403 15:07:12.152143  2692 net.cpp:425] inception_4d/relu_5x5 <- inception_4d/5x5
I0403 15:07:12.152165  2692 net.cpp:386] inception_4d/relu_5x5 -> inception_4d/5x5 (in-place)
I0403 15:07:12.152550  2692 net.cpp:141] Setting up inception_4d/relu_5x5
I0403 15:07:12.152583  2692 net.cpp:148] Top shape: 24 64 14 14 (301056)
I0403 15:07:12.152606  2692 net.cpp:156] Memory required for data: 1135267104
I0403 15:07:12.152626  2692 layer_factory.hpp:77] Creating layer inception_4d/pool
I0403 15:07:12.152647  2692 net.cpp:91] Creating Layer inception_4d/pool
I0403 15:07:12.152668  2692 net.cpp:425] inception_4d/pool <- inception_4c/output_inception_4c/output_0_split_3
I0403 15:07:12.152691  2692 net.cpp:399] inception_4d/pool -> inception_4d/pool
I0403 15:07:12.152776  2692 net.cpp:141] Setting up inception_4d/pool
I0403 15:07:12.152806  2692 net.cpp:148] Top shape: 24 512 14 14 (2408448)
I0403 15:07:12.152823  2692 net.cpp:156] Memory required for data: 1144900896
I0403 15:07:12.152842  2692 layer_factory.hpp:77] Creating layer inception_4d/pool_proj
I0403 15:07:12.152868  2692 net.cpp:91] Creating Layer inception_4d/pool_proj
I0403 15:07:12.152889  2692 net.cpp:425] inception_4d/pool_proj <- inception_4d/pool
I0403 15:07:12.152915  2692 net.cpp:399] inception_4d/pool_proj -> inception_4d/pool_proj
I0403 15:07:12.155077  2692 net.cpp:141] Setting up inception_4d/pool_proj
I0403 15:07:12.155113  2692 net.cpp:148] Top shape: 24 64 14 14 (301056)
I0403 15:07:12.155133  2692 net.cpp:156] Memory required for data: 1146105120
I0403 15:07:12.155158  2692 layer_factory.hpp:77] Creating layer inception_4d/relu_pool_proj
I0403 15:07:12.155185  2692 net.cpp:91] Creating Layer inception_4d/relu_pool_proj
I0403 15:07:12.155208  2692 net.cpp:425] inception_4d/relu_pool_proj <- inception_4d/pool_proj
I0403 15:07:12.155230  2692 net.cpp:386] inception_4d/relu_pool_proj -> inception_4d/pool_proj (in-place)
I0403 15:07:12.155465  2692 net.cpp:141] Setting up inception_4d/relu_pool_proj
I0403 15:07:12.155498  2692 net.cpp:148] Top shape: 24 64 14 14 (301056)
I0403 15:07:12.155515  2692 net.cpp:156] Memory required for data: 1147309344
I0403 15:07:12.155534  2692 layer_factory.hpp:77] Creating layer inception_4d/output
I0403 15:07:12.155557  2692 net.cpp:91] Creating Layer inception_4d/output
I0403 15:07:12.155580  2692 net.cpp:425] inception_4d/output <- inception_4d/1x1
I0403 15:07:12.155599  2692 net.cpp:425] inception_4d/output <- inception_4d/3x3
I0403 15:07:12.155619  2692 net.cpp:425] inception_4d/output <- inception_4d/5x5
I0403 15:07:12.155638  2692 net.cpp:425] inception_4d/output <- inception_4d/pool_proj
I0403 15:07:12.155660  2692 net.cpp:399] inception_4d/output -> inception_4d/output
I0403 15:07:12.155722  2692 net.cpp:141] Setting up inception_4d/output
I0403 15:07:12.155752  2692 net.cpp:148] Top shape: 24 528 14 14 (2483712)
I0403 15:07:12.155771  2692 net.cpp:156] Memory required for data: 1157244192
I0403 15:07:12.155788  2692 layer_factory.hpp:77] Creating layer inception_4d/output_inception_4d/output_0_split
I0403 15:07:12.155810  2692 net.cpp:91] Creating Layer inception_4d/output_inception_4d/output_0_split
I0403 15:07:12.155830  2692 net.cpp:425] inception_4d/output_inception_4d/output_0_split <- inception_4d/output
I0403 15:07:12.155854  2692 net.cpp:399] inception_4d/output_inception_4d/output_0_split -> inception_4d/output_inception_4d/output_0_split_0
I0403 15:07:12.155881  2692 net.cpp:399] inception_4d/output_inception_4d/output_0_split -> inception_4d/output_inception_4d/output_0_split_1
I0403 15:07:12.155908  2692 net.cpp:399] inception_4d/output_inception_4d/output_0_split -> inception_4d/output_inception_4d/output_0_split_2
I0403 15:07:12.155933  2692 net.cpp:399] inception_4d/output_inception_4d/output_0_split -> inception_4d/output_inception_4d/output_0_split_3
I0403 15:07:12.155958  2692 net.cpp:399] inception_4d/output_inception_4d/output_0_split -> inception_4d/output_inception_4d/output_0_split_4
I0403 15:07:12.156088  2692 net.cpp:141] Setting up inception_4d/output_inception_4d/output_0_split
I0403 15:07:12.156133  2692 net.cpp:148] Top shape: 24 528 14 14 (2483712)
I0403 15:07:12.156154  2692 net.cpp:148] Top shape: 24 528 14 14 (2483712)
I0403 15:07:12.156174  2692 net.cpp:148] Top shape: 24 528 14 14 (2483712)
I0403 15:07:12.156193  2692 net.cpp:148] Top shape: 24 528 14 14 (2483712)
I0403 15:07:12.156211  2692 net.cpp:148] Top shape: 24 528 14 14 (2483712)
I0403 15:07:12.156229  2692 net.cpp:156] Memory required for data: 1206918432
I0403 15:07:12.156246  2692 layer_factory.hpp:77] Creating layer loss2/ave_pool
I0403 15:07:12.156268  2692 net.cpp:91] Creating Layer loss2/ave_pool
I0403 15:07:12.156296  2692 net.cpp:425] loss2/ave_pool <- inception_4d/output_inception_4d/output_0_split_0
I0403 15:07:12.156323  2692 net.cpp:399] loss2/ave_pool -> loss2/ave_pool
I0403 15:07:12.156708  2692 net.cpp:141] Setting up loss2/ave_pool
I0403 15:07:12.156741  2692 net.cpp:148] Top shape: 24 528 4 4 (202752)
I0403 15:07:12.156760  2692 net.cpp:156] Memory required for data: 1207729440
I0403 15:07:12.156780  2692 layer_factory.hpp:77] Creating layer loss2/conv
I0403 15:07:12.156807  2692 net.cpp:91] Creating Layer loss2/conv
I0403 15:07:12.156828  2692 net.cpp:425] loss2/conv <- loss2/ave_pool
I0403 15:07:12.156854  2692 net.cpp:399] loss2/conv -> loss2/conv
I0403 15:07:12.159261  2692 net.cpp:141] Setting up loss2/conv
I0403 15:07:12.159304  2692 net.cpp:148] Top shape: 24 128 4 4 (49152)
I0403 15:07:12.159327  2692 net.cpp:156] Memory required for data: 1207926048
I0403 15:07:12.159350  2692 layer_factory.hpp:77] Creating layer loss2/relu_conv
I0403 15:07:12.159378  2692 net.cpp:91] Creating Layer loss2/relu_conv
I0403 15:07:12.159399  2692 net.cpp:425] loss2/relu_conv <- loss2/conv
I0403 15:07:12.159421  2692 net.cpp:386] loss2/relu_conv -> loss2/conv (in-place)
I0403 15:07:12.159772  2692 net.cpp:141] Setting up loss2/relu_conv
I0403 15:07:12.159806  2692 net.cpp:148] Top shape: 24 128 4 4 (49152)
I0403 15:07:12.159826  2692 net.cpp:156] Memory required for data: 1208122656
I0403 15:07:12.159844  2692 layer_factory.hpp:77] Creating layer loss2/fc
I0403 15:07:12.159869  2692 net.cpp:91] Creating Layer loss2/fc
I0403 15:07:12.159890  2692 net.cpp:425] loss2/fc <- loss2/conv
I0403 15:07:12.159916  2692 net.cpp:399] loss2/fc -> loss2/fc
I0403 15:07:12.181617  2692 net.cpp:141] Setting up loss2/fc
I0403 15:07:12.181656  2692 net.cpp:148] Top shape: 24 1024 (24576)
I0403 15:07:12.181679  2692 net.cpp:156] Memory required for data: 1208220960
I0403 15:07:12.181701  2692 layer_factory.hpp:77] Creating layer loss2/relu_fc
I0403 15:07:12.181725  2692 net.cpp:91] Creating Layer loss2/relu_fc
I0403 15:07:12.181747  2692 net.cpp:425] loss2/relu_fc <- loss2/fc
I0403 15:07:12.181773  2692 net.cpp:386] loss2/relu_fc -> loss2/fc (in-place)
I0403 15:07:12.182139  2692 net.cpp:141] Setting up loss2/relu_fc
I0403 15:07:12.182175  2692 net.cpp:148] Top shape: 24 1024 (24576)
I0403 15:07:12.182196  2692 net.cpp:156] Memory required for data: 1208319264
I0403 15:07:12.182219  2692 layer_factory.hpp:77] Creating layer loss2/drop_fc
I0403 15:07:12.182241  2692 net.cpp:91] Creating Layer loss2/drop_fc
I0403 15:07:12.182263  2692 net.cpp:425] loss2/drop_fc <- loss2/fc
I0403 15:07:12.182307  2692 net.cpp:386] loss2/drop_fc -> loss2/fc (in-place)
I0403 15:07:12.182374  2692 net.cpp:141] Setting up loss2/drop_fc
I0403 15:07:12.182405  2692 net.cpp:148] Top shape: 24 1024 (24576)
I0403 15:07:12.182423  2692 net.cpp:156] Memory required for data: 1208417568
I0403 15:07:12.182441  2692 layer_factory.hpp:77] Creating layer loss2/classifier_plantvillage
I0403 15:07:12.182463  2692 net.cpp:91] Creating Layer loss2/classifier_plantvillage
I0403 15:07:12.182484  2692 net.cpp:425] loss2/classifier_plantvillage <- loss2/fc
I0403 15:07:12.182515  2692 net.cpp:399] loss2/classifier_plantvillage -> loss2/classifier_plantvillage
I0403 15:07:12.183014  2692 net.cpp:141] Setting up loss2/classifier_plantvillage
I0403 15:07:12.183044  2692 net.cpp:148] Top shape: 24 38 (912)
I0403 15:07:12.183084  2692 net.cpp:156] Memory required for data: 1208421216
I0403 15:07:12.183109  2692 layer_factory.hpp:77] Creating layer loss2/classifier_plantvillage_loss2/classifier_plantvillage_0_split
I0403 15:07:12.183133  2692 net.cpp:91] Creating Layer loss2/classifier_plantvillage_loss2/classifier_plantvillage_0_split
I0403 15:07:12.183156  2692 net.cpp:425] loss2/classifier_plantvillage_loss2/classifier_plantvillage_0_split <- loss2/classifier_plantvillage
I0403 15:07:12.183177  2692 net.cpp:399] loss2/classifier_plantvillage_loss2/classifier_plantvillage_0_split -> loss2/classifier_plantvillage_loss2/classifier_plantvillage_0_split_0
I0403 15:07:12.183207  2692 net.cpp:399] loss2/classifier_plantvillage_loss2/classifier_plantvillage_0_split -> loss2/classifier_plantvillage_loss2/classifier_plantvillage_0_split_1
I0403 15:07:12.183236  2692 net.cpp:399] loss2/classifier_plantvillage_loss2/classifier_plantvillage_0_split -> loss2/classifier_plantvillage_loss2/classifier_plantvillage_0_split_2
I0403 15:07:12.183336  2692 net.cpp:141] Setting up loss2/classifier_plantvillage_loss2/classifier_plantvillage_0_split
I0403 15:07:12.183367  2692 net.cpp:148] Top shape: 24 38 (912)
I0403 15:07:12.183387  2692 net.cpp:148] Top shape: 24 38 (912)
I0403 15:07:12.183408  2692 net.cpp:148] Top shape: 24 38 (912)
I0403 15:07:12.183423  2692 net.cpp:156] Memory required for data: 1208432160
I0403 15:07:12.183441  2692 layer_factory.hpp:77] Creating layer inception_4e/1x1
I0403 15:07:12.183467  2692 net.cpp:91] Creating Layer inception_4e/1x1
I0403 15:07:12.183491  2692 net.cpp:425] inception_4e/1x1 <- inception_4d/output_inception_4d/output_0_split_1
I0403 15:07:12.183516  2692 net.cpp:399] inception_4e/1x1 -> inception_4e/1x1
I0403 15:07:12.185824  2692 net.cpp:141] Setting up inception_4e/1x1
I0403 15:07:12.185864  2692 net.cpp:148] Top shape: 24 256 14 14 (1204224)
I0403 15:07:12.185888  2692 net.cpp:156] Memory required for data: 1213249056
I0403 15:07:12.185910  2692 layer_factory.hpp:77] Creating layer inception_4e/relu_1x1
I0403 15:07:12.185933  2692 net.cpp:91] Creating Layer inception_4e/relu_1x1
I0403 15:07:12.185953  2692 net.cpp:425] inception_4e/relu_1x1 <- inception_4e/1x1
I0403 15:07:12.185976  2692 net.cpp:386] inception_4e/relu_1x1 -> inception_4e/1x1 (in-place)
I0403 15:07:12.186395  2692 net.cpp:141] Setting up inception_4e/relu_1x1
I0403 15:07:12.186431  2692 net.cpp:148] Top shape: 24 256 14 14 (1204224)
I0403 15:07:12.186451  2692 net.cpp:156] Memory required for data: 1218065952
I0403 15:07:12.186470  2692 layer_factory.hpp:77] Creating layer inception_4e/3x3_reduce
I0403 15:07:12.186497  2692 net.cpp:91] Creating Layer inception_4e/3x3_reduce
I0403 15:07:12.186519  2692 net.cpp:425] inception_4e/3x3_reduce <- inception_4d/output_inception_4d/output_0_split_2
I0403 15:07:12.186544  2692 net.cpp:399] inception_4e/3x3_reduce -> inception_4e/3x3_reduce
I0403 15:07:12.189143  2692 net.cpp:141] Setting up inception_4e/3x3_reduce
I0403 15:07:12.189182  2692 net.cpp:148] Top shape: 24 160 14 14 (752640)
I0403 15:07:12.189203  2692 net.cpp:156] Memory required for data: 1221076512
I0403 15:07:12.189226  2692 layer_factory.hpp:77] Creating layer inception_4e/relu_3x3_reduce
I0403 15:07:12.189251  2692 net.cpp:91] Creating Layer inception_4e/relu_3x3_reduce
I0403 15:07:12.189280  2692 net.cpp:425] inception_4e/relu_3x3_reduce <- inception_4e/3x3_reduce
I0403 15:07:12.189303  2692 net.cpp:386] inception_4e/relu_3x3_reduce -> inception_4e/3x3_reduce (in-place)
I0403 15:07:12.189535  2692 net.cpp:141] Setting up inception_4e/relu_3x3_reduce
I0403 15:07:12.189569  2692 net.cpp:148] Top shape: 24 160 14 14 (752640)
I0403 15:07:12.189587  2692 net.cpp:156] Memory required for data: 1224087072
I0403 15:07:12.189606  2692 layer_factory.hpp:77] Creating layer inception_4e/3x3
I0403 15:07:12.189635  2692 net.cpp:91] Creating Layer inception_4e/3x3
I0403 15:07:12.189656  2692 net.cpp:425] inception_4e/3x3 <- inception_4e/3x3_reduce
I0403 15:07:12.189680  2692 net.cpp:399] inception_4e/3x3 -> inception_4e/3x3
I0403 15:07:12.195894  2692 net.cpp:141] Setting up inception_4e/3x3
I0403 15:07:12.195951  2692 net.cpp:148] Top shape: 24 320 14 14 (1505280)
I0403 15:07:12.195973  2692 net.cpp:156] Memory required for data: 1230108192
I0403 15:07:12.195996  2692 layer_factory.hpp:77] Creating layer inception_4e/relu_3x3
I0403 15:07:12.196019  2692 net.cpp:91] Creating Layer inception_4e/relu_3x3
I0403 15:07:12.196039  2692 net.cpp:425] inception_4e/relu_3x3 <- inception_4e/3x3
I0403 15:07:12.196063  2692 net.cpp:386] inception_4e/relu_3x3 -> inception_4e/3x3 (in-place)
I0403 15:07:12.196437  2692 net.cpp:141] Setting up inception_4e/relu_3x3
I0403 15:07:12.196471  2692 net.cpp:148] Top shape: 24 320 14 14 (1505280)
I0403 15:07:12.196491  2692 net.cpp:156] Memory required for data: 1236129312
I0403 15:07:12.196508  2692 layer_factory.hpp:77] Creating layer inception_4e/5x5_reduce
I0403 15:07:12.196537  2692 net.cpp:91] Creating Layer inception_4e/5x5_reduce
I0403 15:07:12.196559  2692 net.cpp:425] inception_4e/5x5_reduce <- inception_4d/output_inception_4d/output_0_split_3
I0403 15:07:12.196585  2692 net.cpp:399] inception_4e/5x5_reduce -> inception_4e/5x5_reduce
I0403 15:07:12.197916  2692 net.cpp:141] Setting up inception_4e/5x5_reduce
I0403 15:07:12.197953  2692 net.cpp:148] Top shape: 24 32 14 14 (150528)
I0403 15:07:12.197974  2692 net.cpp:156] Memory required for data: 1236731424
I0403 15:07:12.197998  2692 layer_factory.hpp:77] Creating layer inception_4e/relu_5x5_reduce
I0403 15:07:12.198024  2692 net.cpp:91] Creating Layer inception_4e/relu_5x5_reduce
I0403 15:07:12.198045  2692 net.cpp:425] inception_4e/relu_5x5_reduce <- inception_4e/5x5_reduce
I0403 15:07:12.198067  2692 net.cpp:386] inception_4e/relu_5x5_reduce -> inception_4e/5x5_reduce (in-place)
I0403 15:07:12.198441  2692 net.cpp:141] Setting up inception_4e/relu_5x5_reduce
I0403 15:07:12.198477  2692 net.cpp:148] Top shape: 24 32 14 14 (150528)
I0403 15:07:12.198498  2692 net.cpp:156] Memory required for data: 1237333536
I0403 15:07:12.198515  2692 layer_factory.hpp:77] Creating layer inception_4e/5x5
I0403 15:07:12.198562  2692 net.cpp:91] Creating Layer inception_4e/5x5
I0403 15:07:12.198586  2692 net.cpp:425] inception_4e/5x5 <- inception_4e/5x5_reduce
I0403 15:07:12.198614  2692 net.cpp:399] inception_4e/5x5 -> inception_4e/5x5
I0403 15:07:12.200918  2692 net.cpp:141] Setting up inception_4e/5x5
I0403 15:07:12.200954  2692 net.cpp:148] Top shape: 24 128 14 14 (602112)
I0403 15:07:12.200974  2692 net.cpp:156] Memory required for data: 1239741984
I0403 15:07:12.200999  2692 layer_factory.hpp:77] Creating layer inception_4e/relu_5x5
I0403 15:07:12.201028  2692 net.cpp:91] Creating Layer inception_4e/relu_5x5
I0403 15:07:12.201051  2692 net.cpp:425] inception_4e/relu_5x5 <- inception_4e/5x5
I0403 15:07:12.201073  2692 net.cpp:386] inception_4e/relu_5x5 -> inception_4e/5x5 (in-place)
I0403 15:07:12.201329  2692 net.cpp:141] Setting up inception_4e/relu_5x5
I0403 15:07:12.201362  2692 net.cpp:148] Top shape: 24 128 14 14 (602112)
I0403 15:07:12.201383  2692 net.cpp:156] Memory required for data: 1242150432
I0403 15:07:12.201403  2692 layer_factory.hpp:77] Creating layer inception_4e/pool
I0403 15:07:12.201429  2692 net.cpp:91] Creating Layer inception_4e/pool
I0403 15:07:12.201450  2692 net.cpp:425] inception_4e/pool <- inception_4d/output_inception_4d/output_0_split_4
I0403 15:07:12.201474  2692 net.cpp:399] inception_4e/pool -> inception_4e/pool
I0403 15:07:12.201563  2692 net.cpp:141] Setting up inception_4e/pool
I0403 15:07:12.201594  2692 net.cpp:148] Top shape: 24 528 14 14 (2483712)
I0403 15:07:12.201613  2692 net.cpp:156] Memory required for data: 1252085280
I0403 15:07:12.201632  2692 layer_factory.hpp:77] Creating layer inception_4e/pool_proj
I0403 15:07:12.201658  2692 net.cpp:91] Creating Layer inception_4e/pool_proj
I0403 15:07:12.201679  2692 net.cpp:425] inception_4e/pool_proj <- inception_4e/pool
I0403 15:07:12.201705  2692 net.cpp:399] inception_4e/pool_proj -> inception_4e/pool_proj
I0403 15:07:12.203588  2692 net.cpp:141] Setting up inception_4e/pool_proj
I0403 15:07:12.203637  2692 net.cpp:148] Top shape: 24 128 14 14 (602112)
I0403 15:07:12.203657  2692 net.cpp:156] Memory required for data: 1254493728
I0403 15:07:12.203680  2692 layer_factory.hpp:77] Creating layer inception_4e/relu_pool_proj
I0403 15:07:12.203706  2692 net.cpp:91] Creating Layer inception_4e/relu_pool_proj
I0403 15:07:12.203727  2692 net.cpp:425] inception_4e/relu_pool_proj <- inception_4e/pool_proj
I0403 15:07:12.203748  2692 net.cpp:386] inception_4e/relu_pool_proj -> inception_4e/pool_proj (in-place)
I0403 15:07:12.204109  2692 net.cpp:141] Setting up inception_4e/relu_pool_proj
I0403 15:07:12.204143  2692 net.cpp:148] Top shape: 24 128 14 14 (602112)
I0403 15:07:12.204161  2692 net.cpp:156] Memory required for data: 1256902176
I0403 15:07:12.204180  2692 layer_factory.hpp:77] Creating layer inception_4e/output
I0403 15:07:12.204201  2692 net.cpp:91] Creating Layer inception_4e/output
I0403 15:07:12.204221  2692 net.cpp:425] inception_4e/output <- inception_4e/1x1
I0403 15:07:12.204241  2692 net.cpp:425] inception_4e/output <- inception_4e/3x3
I0403 15:07:12.204259  2692 net.cpp:425] inception_4e/output <- inception_4e/5x5
I0403 15:07:12.204284  2692 net.cpp:425] inception_4e/output <- inception_4e/pool_proj
I0403 15:07:12.204313  2692 net.cpp:399] inception_4e/output -> inception_4e/output
I0403 15:07:12.204376  2692 net.cpp:141] Setting up inception_4e/output
I0403 15:07:12.204408  2692 net.cpp:148] Top shape: 24 832 14 14 (3913728)
I0403 15:07:12.204428  2692 net.cpp:156] Memory required for data: 1272557088
I0403 15:07:12.204447  2692 layer_factory.hpp:77] Creating layer pool4/3x3_s2
I0403 15:07:12.204469  2692 net.cpp:91] Creating Layer pool4/3x3_s2
I0403 15:07:12.204488  2692 net.cpp:425] pool4/3x3_s2 <- inception_4e/output
I0403 15:07:12.204514  2692 net.cpp:399] pool4/3x3_s2 -> pool4/3x3_s2
I0403 15:07:12.204597  2692 net.cpp:141] Setting up pool4/3x3_s2
I0403 15:07:12.204627  2692 net.cpp:148] Top shape: 24 832 7 7 (978432)
I0403 15:07:12.204644  2692 net.cpp:156] Memory required for data: 1276470816
I0403 15:07:12.204663  2692 layer_factory.hpp:77] Creating layer pool4/3x3_s2_pool4/3x3_s2_0_split
I0403 15:07:12.204687  2692 net.cpp:91] Creating Layer pool4/3x3_s2_pool4/3x3_s2_0_split
I0403 15:07:12.204707  2692 net.cpp:425] pool4/3x3_s2_pool4/3x3_s2_0_split <- pool4/3x3_s2
I0403 15:07:12.204730  2692 net.cpp:399] pool4/3x3_s2_pool4/3x3_s2_0_split -> pool4/3x3_s2_pool4/3x3_s2_0_split_0
I0403 15:07:12.204753  2692 net.cpp:399] pool4/3x3_s2_pool4/3x3_s2_0_split -> pool4/3x3_s2_pool4/3x3_s2_0_split_1
I0403 15:07:12.204778  2692 net.cpp:399] pool4/3x3_s2_pool4/3x3_s2_0_split -> pool4/3x3_s2_pool4/3x3_s2_0_split_2
I0403 15:07:12.204808  2692 net.cpp:399] pool4/3x3_s2_pool4/3x3_s2_0_split -> pool4/3x3_s2_pool4/3x3_s2_0_split_3
I0403 15:07:12.204924  2692 net.cpp:141] Setting up pool4/3x3_s2_pool4/3x3_s2_0_split
I0403 15:07:12.204952  2692 net.cpp:148] Top shape: 24 832 7 7 (978432)
I0403 15:07:12.204973  2692 net.cpp:148] Top shape: 24 832 7 7 (978432)
I0403 15:07:12.204993  2692 net.cpp:148] Top shape: 24 832 7 7 (978432)
I0403 15:07:12.205013  2692 net.cpp:148] Top shape: 24 832 7 7 (978432)
I0403 15:07:12.205030  2692 net.cpp:156] Memory required for data: 1292125728
I0403 15:07:12.205049  2692 layer_factory.hpp:77] Creating layer inception_5a/1x1
I0403 15:07:12.205075  2692 net.cpp:91] Creating Layer inception_5a/1x1
I0403 15:07:12.205097  2692 net.cpp:425] inception_5a/1x1 <- pool4/3x3_s2_pool4/3x3_s2_0_split_0
I0403 15:07:12.205123  2692 net.cpp:399] inception_5a/1x1 -> inception_5a/1x1
I0403 15:07:12.208634  2692 net.cpp:141] Setting up inception_5a/1x1
I0403 15:07:12.208673  2692 net.cpp:148] Top shape: 24 256 7 7 (301056)
I0403 15:07:12.208693  2692 net.cpp:156] Memory required for data: 1293329952
I0403 15:07:12.208715  2692 layer_factory.hpp:77] Creating layer inception_5a/relu_1x1
I0403 15:07:12.208740  2692 net.cpp:91] Creating Layer inception_5a/relu_1x1
I0403 15:07:12.208760  2692 net.cpp:425] inception_5a/relu_1x1 <- inception_5a/1x1
I0403 15:07:12.208782  2692 net.cpp:386] inception_5a/relu_1x1 -> inception_5a/1x1 (in-place)
I0403 15:07:12.209168  2692 net.cpp:141] Setting up inception_5a/relu_1x1
I0403 15:07:12.209203  2692 net.cpp:148] Top shape: 24 256 7 7 (301056)
I0403 15:07:12.209223  2692 net.cpp:156] Memory required for data: 1294534176
I0403 15:07:12.209242  2692 layer_factory.hpp:77] Creating layer inception_5a/3x3_reduce
I0403 15:07:12.209275  2692 net.cpp:91] Creating Layer inception_5a/3x3_reduce
I0403 15:07:12.209300  2692 net.cpp:425] inception_5a/3x3_reduce <- pool4/3x3_s2_pool4/3x3_s2_0_split_1
I0403 15:07:12.209327  2692 net.cpp:399] inception_5a/3x3_reduce -> inception_5a/3x3_reduce
I0403 15:07:12.212352  2692 net.cpp:141] Setting up inception_5a/3x3_reduce
I0403 15:07:12.212389  2692 net.cpp:148] Top shape: 24 160 7 7 (188160)
I0403 15:07:12.212409  2692 net.cpp:156] Memory required for data: 1295286816
I0403 15:07:12.212432  2692 layer_factory.hpp:77] Creating layer inception_5a/relu_3x3_reduce
I0403 15:07:12.212455  2692 net.cpp:91] Creating Layer inception_5a/relu_3x3_reduce
I0403 15:07:12.212476  2692 net.cpp:425] inception_5a/relu_3x3_reduce <- inception_5a/3x3_reduce
I0403 15:07:12.212499  2692 net.cpp:386] inception_5a/relu_3x3_reduce -> inception_5a/3x3_reduce (in-place)
I0403 15:07:12.212736  2692 net.cpp:141] Setting up inception_5a/relu_3x3_reduce
I0403 15:07:12.212767  2692 net.cpp:148] Top shape: 24 160 7 7 (188160)
I0403 15:07:12.212785  2692 net.cpp:156] Memory required for data: 1296039456
I0403 15:07:12.212803  2692 layer_factory.hpp:77] Creating layer inception_5a/3x3
I0403 15:07:12.212831  2692 net.cpp:91] Creating Layer inception_5a/3x3
I0403 15:07:12.212853  2692 net.cpp:425] inception_5a/3x3 <- inception_5a/3x3_reduce
I0403 15:07:12.212880  2692 net.cpp:399] inception_5a/3x3 -> inception_5a/3x3
I0403 15:07:12.219108  2692 net.cpp:141] Setting up inception_5a/3x3
I0403 15:07:12.219148  2692 net.cpp:148] Top shape: 24 320 7 7 (376320)
I0403 15:07:12.219171  2692 net.cpp:156] Memory required for data: 1297544736
I0403 15:07:12.219192  2692 layer_factory.hpp:77] Creating layer inception_5a/relu_3x3
I0403 15:07:12.219218  2692 net.cpp:91] Creating Layer inception_5a/relu_3x3
I0403 15:07:12.219243  2692 net.cpp:425] inception_5a/relu_3x3 <- inception_5a/3x3
I0403 15:07:12.219267  2692 net.cpp:386] inception_5a/relu_3x3 -> inception_5a/3x3 (in-place)
I0403 15:07:12.219638  2692 net.cpp:141] Setting up inception_5a/relu_3x3
I0403 15:07:12.219672  2692 net.cpp:148] Top shape: 24 320 7 7 (376320)
I0403 15:07:12.219693  2692 net.cpp:156] Memory required for data: 1299050016
I0403 15:07:12.219712  2692 layer_factory.hpp:77] Creating layer inception_5a/5x5_reduce
I0403 15:07:12.219741  2692 net.cpp:91] Creating Layer inception_5a/5x5_reduce
I0403 15:07:12.219766  2692 net.cpp:425] inception_5a/5x5_reduce <- pool4/3x3_s2_pool4/3x3_s2_0_split_2
I0403 15:07:12.219794  2692 net.cpp:399] inception_5a/5x5_reduce -> inception_5a/5x5_reduce
I0403 15:07:12.221256  2692 net.cpp:141] Setting up inception_5a/5x5_reduce
I0403 15:07:12.221299  2692 net.cpp:148] Top shape: 24 32 7 7 (37632)
I0403 15:07:12.221321  2692 net.cpp:156] Memory required for data: 1299200544
I0403 15:07:12.221345  2692 layer_factory.hpp:77] Creating layer inception_5a/relu_5x5_reduce
I0403 15:07:12.221371  2692 net.cpp:91] Creating Layer inception_5a/relu_5x5_reduce
I0403 15:07:12.221395  2692 net.cpp:425] inception_5a/relu_5x5_reduce <- inception_5a/5x5_reduce
I0403 15:07:12.221415  2692 net.cpp:386] inception_5a/relu_5x5_reduce -> inception_5a/5x5_reduce (in-place)
I0403 15:07:12.221789  2692 net.cpp:141] Setting up inception_5a/relu_5x5_reduce
I0403 15:07:12.221822  2692 net.cpp:148] Top shape: 24 32 7 7 (37632)
I0403 15:07:12.221843  2692 net.cpp:156] Memory required for data: 1299351072
I0403 15:07:12.221861  2692 layer_factory.hpp:77] Creating layer inception_5a/5x5
I0403 15:07:12.221891  2692 net.cpp:91] Creating Layer inception_5a/5x5
I0403 15:07:12.221914  2692 net.cpp:425] inception_5a/5x5 <- inception_5a/5x5_reduce
I0403 15:07:12.221937  2692 net.cpp:399] inception_5a/5x5 -> inception_5a/5x5
I0403 15:07:12.224092  2692 net.cpp:141] Setting up inception_5a/5x5
I0403 15:07:12.224143  2692 net.cpp:148] Top shape: 24 128 7 7 (150528)
I0403 15:07:12.224164  2692 net.cpp:156] Memory required for data: 1299953184
I0403 15:07:12.224198  2692 layer_factory.hpp:77] Creating layer inception_5a/relu_5x5
I0403 15:07:12.224225  2692 net.cpp:91] Creating Layer inception_5a/relu_5x5
I0403 15:07:12.224249  2692 net.cpp:425] inception_5a/relu_5x5 <- inception_5a/5x5
I0403 15:07:12.224275  2692 net.cpp:386] inception_5a/relu_5x5 -> inception_5a/5x5 (in-place)
I0403 15:07:12.224519  2692 net.cpp:141] Setting up inception_5a/relu_5x5
I0403 15:07:12.224553  2692 net.cpp:148] Top shape: 24 128 7 7 (150528)
I0403 15:07:12.224573  2692 net.cpp:156] Memory required for data: 1300555296
I0403 15:07:12.224592  2692 layer_factory.hpp:77] Creating layer inception_5a/pool
I0403 15:07:12.224619  2692 net.cpp:91] Creating Layer inception_5a/pool
I0403 15:07:12.224640  2692 net.cpp:425] inception_5a/pool <- pool4/3x3_s2_pool4/3x3_s2_0_split_3
I0403 15:07:12.224665  2692 net.cpp:399] inception_5a/pool -> inception_5a/pool
I0403 15:07:12.224753  2692 net.cpp:141] Setting up inception_5a/pool
I0403 15:07:12.224783  2692 net.cpp:148] Top shape: 24 832 7 7 (978432)
I0403 15:07:12.224802  2692 net.cpp:156] Memory required for data: 1304469024
I0403 15:07:12.224819  2692 layer_factory.hpp:77] Creating layer inception_5a/pool_proj
I0403 15:07:12.224846  2692 net.cpp:91] Creating Layer inception_5a/pool_proj
I0403 15:07:12.224869  2692 net.cpp:425] inception_5a/pool_proj <- inception_5a/pool
I0403 15:07:12.224895  2692 net.cpp:399] inception_5a/pool_proj -> inception_5a/pool_proj
I0403 15:07:12.227699  2692 net.cpp:141] Setting up inception_5a/pool_proj
I0403 15:07:12.227736  2692 net.cpp:148] Top shape: 24 128 7 7 (150528)
I0403 15:07:12.227757  2692 net.cpp:156] Memory required for data: 1305071136
I0403 15:07:12.227780  2692 layer_factory.hpp:77] Creating layer inception_5a/relu_pool_proj
I0403 15:07:12.227803  2692 net.cpp:91] Creating Layer inception_5a/relu_pool_proj
I0403 15:07:12.227825  2692 net.cpp:425] inception_5a/relu_pool_proj <- inception_5a/pool_proj
I0403 15:07:12.227849  2692 net.cpp:386] inception_5a/relu_pool_proj -> inception_5a/pool_proj (in-place)
I0403 15:07:12.228215  2692 net.cpp:141] Setting up inception_5a/relu_pool_proj
I0403 15:07:12.228250  2692 net.cpp:148] Top shape: 24 128 7 7 (150528)
I0403 15:07:12.228268  2692 net.cpp:156] Memory required for data: 1305673248
I0403 15:07:12.228294  2692 layer_factory.hpp:77] Creating layer inception_5a/output
I0403 15:07:12.228319  2692 net.cpp:91] Creating Layer inception_5a/output
I0403 15:07:12.228338  2692 net.cpp:425] inception_5a/output <- inception_5a/1x1
I0403 15:07:12.228359  2692 net.cpp:425] inception_5a/output <- inception_5a/3x3
I0403 15:07:12.228379  2692 net.cpp:425] inception_5a/output <- inception_5a/5x5
I0403 15:07:12.228399  2692 net.cpp:425] inception_5a/output <- inception_5a/pool_proj
I0403 15:07:12.228423  2692 net.cpp:399] inception_5a/output -> inception_5a/output
I0403 15:07:12.228487  2692 net.cpp:141] Setting up inception_5a/output
I0403 15:07:12.228518  2692 net.cpp:148] Top shape: 24 832 7 7 (978432)
I0403 15:07:12.228538  2692 net.cpp:156] Memory required for data: 1309586976
I0403 15:07:12.228557  2692 layer_factory.hpp:77] Creating layer inception_5a/output_inception_5a/output_0_split
I0403 15:07:12.228579  2692 net.cpp:91] Creating Layer inception_5a/output_inception_5a/output_0_split
I0403 15:07:12.228597  2692 net.cpp:425] inception_5a/output_inception_5a/output_0_split <- inception_5a/output
I0403 15:07:12.228620  2692 net.cpp:399] inception_5a/output_inception_5a/output_0_split -> inception_5a/output_inception_5a/output_0_split_0
I0403 15:07:12.228646  2692 net.cpp:399] inception_5a/output_inception_5a/output_0_split -> inception_5a/output_inception_5a/output_0_split_1
I0403 15:07:12.228673  2692 net.cpp:399] inception_5a/output_inception_5a/output_0_split -> inception_5a/output_inception_5a/output_0_split_2
I0403 15:07:12.228698  2692 net.cpp:399] inception_5a/output_inception_5a/output_0_split -> inception_5a/output_inception_5a/output_0_split_3
I0403 15:07:12.228840  2692 net.cpp:141] Setting up inception_5a/output_inception_5a/output_0_split
I0403 15:07:12.228870  2692 net.cpp:148] Top shape: 24 832 7 7 (978432)
I0403 15:07:12.228891  2692 net.cpp:148] Top shape: 24 832 7 7 (978432)
I0403 15:07:12.228910  2692 net.cpp:148] Top shape: 24 832 7 7 (978432)
I0403 15:07:12.228929  2692 net.cpp:148] Top shape: 24 832 7 7 (978432)
I0403 15:07:12.228946  2692 net.cpp:156] Memory required for data: 1325241888
I0403 15:07:12.228965  2692 layer_factory.hpp:77] Creating layer inception_5b/1x1
I0403 15:07:12.228992  2692 net.cpp:91] Creating Layer inception_5b/1x1
I0403 15:07:12.229014  2692 net.cpp:425] inception_5b/1x1 <- inception_5a/output_inception_5a/output_0_split_0
I0403 15:07:12.229038  2692 net.cpp:399] inception_5b/1x1 -> inception_5b/1x1
I0403 15:07:12.233702  2692 net.cpp:141] Setting up inception_5b/1x1
I0403 15:07:12.233742  2692 net.cpp:148] Top shape: 24 384 7 7 (451584)
I0403 15:07:12.233764  2692 net.cpp:156] Memory required for data: 1327048224
I0403 15:07:12.233788  2692 layer_factory.hpp:77] Creating layer inception_5b/relu_1x1
I0403 15:07:12.233810  2692 net.cpp:91] Creating Layer inception_5b/relu_1x1
I0403 15:07:12.233831  2692 net.cpp:425] inception_5b/relu_1x1 <- inception_5b/1x1
I0403 15:07:12.233857  2692 net.cpp:386] inception_5b/relu_1x1 -> inception_5b/1x1 (in-place)
I0403 15:07:12.234237  2692 net.cpp:141] Setting up inception_5b/relu_1x1
I0403 15:07:12.234277  2692 net.cpp:148] Top shape: 24 384 7 7 (451584)
I0403 15:07:12.234298  2692 net.cpp:156] Memory required for data: 1328854560
I0403 15:07:12.234318  2692 layer_factory.hpp:77] Creating layer inception_5b/3x3_reduce
I0403 15:07:12.234345  2692 net.cpp:91] Creating Layer inception_5b/3x3_reduce
I0403 15:07:12.234369  2692 net.cpp:425] inception_5b/3x3_reduce <- inception_5a/output_inception_5a/output_0_split_1
I0403 15:07:12.234396  2692 net.cpp:399] inception_5b/3x3_reduce -> inception_5b/3x3_reduce
I0403 15:07:12.237678  2692 net.cpp:141] Setting up inception_5b/3x3_reduce
I0403 15:07:12.237715  2692 net.cpp:148] Top shape: 24 192 7 7 (225792)
I0403 15:07:12.237735  2692 net.cpp:156] Memory required for data: 1329757728
I0403 15:07:12.237758  2692 layer_factory.hpp:77] Creating layer inception_5b/relu_3x3_reduce
I0403 15:07:12.237782  2692 net.cpp:91] Creating Layer inception_5b/relu_3x3_reduce
I0403 15:07:12.237802  2692 net.cpp:425] inception_5b/relu_3x3_reduce <- inception_5b/3x3_reduce
I0403 15:07:12.237825  2692 net.cpp:386] inception_5b/relu_3x3_reduce -> inception_5b/3x3_reduce (in-place)
I0403 15:07:12.238061  2692 net.cpp:141] Setting up inception_5b/relu_3x3_reduce
I0403 15:07:12.238093  2692 net.cpp:148] Top shape: 24 192 7 7 (225792)
I0403 15:07:12.238111  2692 net.cpp:156] Memory required for data: 1330660896
I0403 15:07:12.238129  2692 layer_factory.hpp:77] Creating layer inception_5b/3x3
I0403 15:07:12.238157  2692 net.cpp:91] Creating Layer inception_5b/3x3
I0403 15:07:12.238178  2692 net.cpp:425] inception_5b/3x3 <- inception_5b/3x3_reduce
I0403 15:07:12.238204  2692 net.cpp:399] inception_5b/3x3 -> inception_5b/3x3
I0403 15:07:12.246493  2692 net.cpp:141] Setting up inception_5b/3x3
I0403 15:07:12.246531  2692 net.cpp:148] Top shape: 24 384 7 7 (451584)
I0403 15:07:12.246552  2692 net.cpp:156] Memory required for data: 1332467232
I0403 15:07:12.246577  2692 layer_factory.hpp:77] Creating layer inception_5b/relu_3x3
I0403 15:07:12.246600  2692 net.cpp:91] Creating Layer inception_5b/relu_3x3
I0403 15:07:12.246621  2692 net.cpp:425] inception_5b/relu_3x3 <- inception_5b/3x3
I0403 15:07:12.246647  2692 net.cpp:386] inception_5b/relu_3x3 -> inception_5b/3x3 (in-place)
I0403 15:07:12.247021  2692 net.cpp:141] Setting up inception_5b/relu_3x3
I0403 15:07:12.247056  2692 net.cpp:148] Top shape: 24 384 7 7 (451584)
I0403 15:07:12.247076  2692 net.cpp:156] Memory required for data: 1334273568
I0403 15:07:12.247097  2692 layer_factory.hpp:77] Creating layer inception_5b/5x5_reduce
I0403 15:07:12.247145  2692 net.cpp:91] Creating Layer inception_5b/5x5_reduce
I0403 15:07:12.247170  2692 net.cpp:425] inception_5b/5x5_reduce <- inception_5a/output_inception_5a/output_0_split_2
I0403 15:07:12.247201  2692 net.cpp:399] inception_5b/5x5_reduce -> inception_5b/5x5_reduce
I0403 15:07:12.248803  2692 net.cpp:141] Setting up inception_5b/5x5_reduce
I0403 15:07:12.248839  2692 net.cpp:148] Top shape: 24 48 7 7 (56448)
I0403 15:07:12.248860  2692 net.cpp:156] Memory required for data: 1334499360
I0403 15:07:12.248884  2692 layer_factory.hpp:77] Creating layer inception_5b/relu_5x5_reduce
I0403 15:07:12.248909  2692 net.cpp:91] Creating Layer inception_5b/relu_5x5_reduce
I0403 15:07:12.248930  2692 net.cpp:425] inception_5b/relu_5x5_reduce <- inception_5b/5x5_reduce
I0403 15:07:12.248953  2692 net.cpp:386] inception_5b/relu_5x5_reduce -> inception_5b/5x5_reduce (in-place)
I0403 15:07:12.249423  2692 net.cpp:141] Setting up inception_5b/relu_5x5_reduce
I0403 15:07:12.249456  2692 net.cpp:148] Top shape: 24 48 7 7 (56448)
I0403 15:07:12.249477  2692 net.cpp:156] Memory required for data: 1334725152
I0403 15:07:12.249495  2692 layer_factory.hpp:77] Creating layer inception_5b/5x5
I0403 15:07:12.249521  2692 net.cpp:91] Creating Layer inception_5b/5x5
I0403 15:07:12.249543  2692 net.cpp:425] inception_5b/5x5 <- inception_5b/5x5_reduce
I0403 15:07:12.249567  2692 net.cpp:399] inception_5b/5x5 -> inception_5b/5x5
I0403 15:07:12.252122  2692 net.cpp:141] Setting up inception_5b/5x5
I0403 15:07:12.252158  2692 net.cpp:148] Top shape: 24 128 7 7 (150528)
I0403 15:07:12.252178  2692 net.cpp:156] Memory required for data: 1335327264
I0403 15:07:12.252200  2692 layer_factory.hpp:77] Creating layer inception_5b/relu_5x5
I0403 15:07:12.252226  2692 net.cpp:91] Creating Layer inception_5b/relu_5x5
I0403 15:07:12.252251  2692 net.cpp:425] inception_5b/relu_5x5 <- inception_5b/5x5
I0403 15:07:12.252277  2692 net.cpp:386] inception_5b/relu_5x5 -> inception_5b/5x5 (in-place)
I0403 15:07:12.252521  2692 net.cpp:141] Setting up inception_5b/relu_5x5
I0403 15:07:12.252555  2692 net.cpp:148] Top shape: 24 128 7 7 (150528)
I0403 15:07:12.252574  2692 net.cpp:156] Memory required for data: 1335929376
I0403 15:07:12.252593  2692 layer_factory.hpp:77] Creating layer inception_5b/pool
I0403 15:07:12.252616  2692 net.cpp:91] Creating Layer inception_5b/pool
I0403 15:07:12.252636  2692 net.cpp:425] inception_5b/pool <- inception_5a/output_inception_5a/output_0_split_3
I0403 15:07:12.252658  2692 net.cpp:399] inception_5b/pool -> inception_5b/pool
I0403 15:07:12.252751  2692 net.cpp:141] Setting up inception_5b/pool
I0403 15:07:12.252780  2692 net.cpp:148] Top shape: 24 832 7 7 (978432)
I0403 15:07:12.252799  2692 net.cpp:156] Memory required for data: 1339843104
I0403 15:07:12.252818  2692 layer_factory.hpp:77] Creating layer inception_5b/pool_proj
I0403 15:07:12.252846  2692 net.cpp:91] Creating Layer inception_5b/pool_proj
I0403 15:07:12.252869  2692 net.cpp:425] inception_5b/pool_proj <- inception_5b/pool
I0403 15:07:12.252895  2692 net.cpp:399] inception_5b/pool_proj -> inception_5b/pool_proj
I0403 15:07:12.255740  2692 net.cpp:141] Setting up inception_5b/pool_proj
I0403 15:07:12.255777  2692 net.cpp:148] Top shape: 24 128 7 7 (150528)
I0403 15:07:12.255798  2692 net.cpp:156] Memory required for data: 1340445216
I0403 15:07:12.255823  2692 layer_factory.hpp:77] Creating layer inception_5b/relu_pool_proj
I0403 15:07:12.255849  2692 net.cpp:91] Creating Layer inception_5b/relu_pool_proj
I0403 15:07:12.255873  2692 net.cpp:425] inception_5b/relu_pool_proj <- inception_5b/pool_proj
I0403 15:07:12.255897  2692 net.cpp:386] inception_5b/relu_pool_proj -> inception_5b/pool_proj (in-place)
I0403 15:07:12.256274  2692 net.cpp:141] Setting up inception_5b/relu_pool_proj
I0403 15:07:12.256309  2692 net.cpp:148] Top shape: 24 128 7 7 (150528)
I0403 15:07:12.256330  2692 net.cpp:156] Memory required for data: 1341047328
I0403 15:07:12.256348  2692 layer_factory.hpp:77] Creating layer inception_5b/output
I0403 15:07:12.256371  2692 net.cpp:91] Creating Layer inception_5b/output
I0403 15:07:12.256407  2692 net.cpp:425] inception_5b/output <- inception_5b/1x1
I0403 15:07:12.256433  2692 net.cpp:425] inception_5b/output <- inception_5b/3x3
I0403 15:07:12.256453  2692 net.cpp:425] inception_5b/output <- inception_5b/5x5
I0403 15:07:12.256475  2692 net.cpp:425] inception_5b/output <- inception_5b/pool_proj
I0403 15:07:12.256496  2692 net.cpp:399] inception_5b/output -> inception_5b/output
I0403 15:07:12.256559  2692 net.cpp:141] Setting up inception_5b/output
I0403 15:07:12.256592  2692 net.cpp:148] Top shape: 24 1024 7 7 (1204224)
I0403 15:07:12.256611  2692 net.cpp:156] Memory required for data: 1345864224
I0403 15:07:12.256629  2692 layer_factory.hpp:77] Creating layer pool5/7x7_s1
I0403 15:07:12.256650  2692 net.cpp:91] Creating Layer pool5/7x7_s1
I0403 15:07:12.256670  2692 net.cpp:425] pool5/7x7_s1 <- inception_5b/output
I0403 15:07:12.256696  2692 net.cpp:399] pool5/7x7_s1 -> pool5/7x7_s1
I0403 15:07:12.256970  2692 net.cpp:141] Setting up pool5/7x7_s1
I0403 15:07:12.257001  2692 net.cpp:148] Top shape: 24 1024 1 1 (24576)
I0403 15:07:12.257019  2692 net.cpp:156] Memory required for data: 1345962528
I0403 15:07:12.257038  2692 layer_factory.hpp:77] Creating layer pool5/drop_7x7_s1
I0403 15:07:12.257064  2692 net.cpp:91] Creating Layer pool5/drop_7x7_s1
I0403 15:07:12.257086  2692 net.cpp:425] pool5/drop_7x7_s1 <- pool5/7x7_s1
I0403 15:07:12.257107  2692 net.cpp:386] pool5/drop_7x7_s1 -> pool5/7x7_s1 (in-place)
I0403 15:07:12.257170  2692 net.cpp:141] Setting up pool5/drop_7x7_s1
I0403 15:07:12.257200  2692 net.cpp:148] Top shape: 24 1024 1 1 (24576)
I0403 15:07:12.257217  2692 net.cpp:156] Memory required for data: 1346060832
I0403 15:07:12.257236  2692 layer_factory.hpp:77] Creating layer loss3/classifier_plantvillage
I0403 15:07:12.257259  2692 net.cpp:91] Creating Layer loss3/classifier_plantvillage
I0403 15:07:12.257285  2692 net.cpp:425] loss3/classifier_plantvillage <- pool5/7x7_s1
I0403 15:07:12.257313  2692 net.cpp:399] loss3/classifier_plantvillage -> loss3/classifier_plantvillage
I0403 15:07:12.257843  2692 net.cpp:141] Setting up loss3/classifier_plantvillage
I0403 15:07:12.257872  2692 net.cpp:148] Top shape: 24 38 (912)
I0403 15:07:12.257891  2692 net.cpp:156] Memory required for data: 1346064480
I0403 15:07:12.257913  2692 layer_factory.hpp:77] Creating layer loss3/classifier_plantvillage_loss3/classifier_plantvillage_0_split
I0403 15:07:12.257936  2692 net.cpp:91] Creating Layer loss3/classifier_plantvillage_loss3/classifier_plantvillage_0_split
I0403 15:07:12.257956  2692 net.cpp:425] loss3/classifier_plantvillage_loss3/classifier_plantvillage_0_split <- loss3/classifier_plantvillage
I0403 15:07:12.257980  2692 net.cpp:399] loss3/classifier_plantvillage_loss3/classifier_plantvillage_0_split -> loss3/classifier_plantvillage_loss3/classifier_plantvillage_0_split_0
I0403 15:07:12.258008  2692 net.cpp:399] loss3/classifier_plantvillage_loss3/classifier_plantvillage_0_split -> loss3/classifier_plantvillage_loss3/classifier_plantvillage_0_split_1
I0403 15:07:12.258033  2692 net.cpp:399] loss3/classifier_plantvillage_loss3/classifier_plantvillage_0_split -> loss3/classifier_plantvillage_loss3/classifier_plantvillage_0_split_2
I0403 15:07:12.258059  2692 net.cpp:399] loss3/classifier_plantvillage_loss3/classifier_plantvillage_0_split -> loss3/classifier_plantvillage_loss3/classifier_plantvillage_0_split_3
I0403 15:07:12.258188  2692 net.cpp:141] Setting up loss3/classifier_plantvillage_loss3/classifier_plantvillage_0_split
I0403 15:07:12.258216  2692 net.cpp:148] Top shape: 24 38 (912)
I0403 15:07:12.258236  2692 net.cpp:148] Top shape: 24 38 (912)
I0403 15:07:12.258255  2692 net.cpp:148] Top shape: 24 38 (912)
I0403 15:07:12.258280  2692 net.cpp:148] Top shape: 24 38 (912)
I0403 15:07:12.258297  2692 net.cpp:156] Memory required for data: 1346079072
I0403 15:07:12.258316  2692 layer_factory.hpp:77] Creating layer loss1/loss
I0403 15:07:12.258345  2692 net.cpp:91] Creating Layer loss1/loss
I0403 15:07:12.258368  2692 net.cpp:425] loss1/loss <- loss1/classifier_plantvillage_loss1/classifier_plantvillage_0_split_0
I0403 15:07:12.258406  2692 net.cpp:425] loss1/loss <- label_data_1_split_0
…
