…
I0403 15:01:55.176653  2570 net.cpp:313] The NetState phase (1) differed from the phase (0) specified by a rule in layer data
I0403 15:01:55.177829  2570 net.cpp:49] Initializing net from parameters: 
state {
  phase: TEST
}
layer {
  name: "data"
  type: "Data"
  top: "data"
  top: "label"
  include {
    phase: TEST
  }
  transform_param {
    mirror: false
    crop_size: 224
    mean_file: "/home/mohanty/data/final_dataset/lmdb/grayscale-50-50/mean.binaryproto"
  }
  data_param {
    source: "/home/mohanty/data/final_dataset/lmdb/grayscale-50-50/test_db"
    batch_size: 24
    backend: LMDB
  }
}
layer {
  name: "conv1/7x7_s2"
  type: "Convolution"
  bottom: "data"
  top: "conv1/7x7_s2"
  param {
    lr_mult: 1
    decay_mult: 1
  }
  param {
    lr_mult: 2
    decay_mult: 0
  }
  convolution_param {
    num_output: 64
    pad: 3
    kernel_size: 7
    stride: 2
    weight_filler {
      type: "xavier"
      std: 0.1
    }
    bias_filler {
      type: "constant"
      value: 0.2
    }
  }
}
layer {
  name: "conv1/relu_7x7"
  type: "ReLU"
  bottom: "conv1/7x7_s2"
  top: "conv1/7x7_s2"
}
layer {
  name: "pool1/3x3_s2"
  type: "Pooling"
  bottom: "conv1/7x7_s2"
  top: "pool1/3x3_s2"
  pooling_param {
    pool: MAX
    kernel_size: 3
    stride: 2
  }
}
layer {
  name: "pool1/norm1"
  type: "LRN"
  bottom: "pool1/3x3_s2"
  top: "pool1/norm1"
  lrn_param {
    local_size: 5
    alpha: 0.0001
    beta: 0.75
  }
}
layer {
  name: "conv2/3x3_reduce"
  type: "Convolution"
  bottom: "pool1/norm1"
  top: "conv2/3x3_reduce"
  param {
    lr_mult: 1
    decay_mult: 1
  }
  param {
    lr_mult: 2
    decay_mult: 0
  }
  convolution_param {
    num_output: 64
    kernel_size: 1
    weight_filler {
      type: "xavier"
      std: 0.1
    }
    bias_filler {
      type: "constant"
      value: 0.2
    }
  }
}
layer {
  name: "conv2/relu_3x3_reduce"
  type: "ReLU"
  bottom: "conv2/3x3_reduce"
  top: "conv2/3x3_reduce"
}
layer {
  name: "conv2/3x3"
  type: "Convolution"
  bottom: "conv2/3x3_reduce"
  top: "conv2/3x3"
  param {
    lr_mult: 1
    decay_mult: 1
  }
  param {
    lr_mult: 2
    decay_mult: 0
  }
  convolution_param {
    num_output: 192
    pad: 1
    kernel_size: 3
    weight_filler {
      type: "xavier"
      std: 0.03
    }
    bias_filler {
      type: "constant"
      value: 0.2
    }
  }
}
layer {
  name: "conv2/relu_3x3"
  type: "ReLU"
  bottom: "conv2/3x3"
  top: "conv2/3x3"
}
layer {
  name: "conv2/norm2"
  type: "LRN"
  bottom: "conv2/3x3"
  top: "conv2/norm2"
  lrn_param {
    local_size: 5
    alpha: 0.0001
    beta: 0.75
  }
}
layer {
  name: "pool2/3x3_s2"
  type: "Pooling"
  bottom: "conv2/norm2"
  top: "pool2/3x3_s2"
  pooling_param {
    pool: MAX
    kernel_size: 3
    stride: 2
  }
}
layer {
  name: "inception_3a/1x1"
  type: "Convolution"
  bottom: "pool2/3x3_s2"
  top: "inception_3a/1x1"
  param {
    lr_mult: 1
    decay_mult: 1
  }
  param {
    lr_mult: 2
    decay_mult: 0
  }
  convolution_param {
    num_output: 64
    kernel_size: 1
    weight_filler {
      type: "xavier"
      std: 0.03
    }
    bias_filler {
      type: "constant"
      value: 0.2
    }
  }
}
layer {
  name: "inception_3a/relu_1x1"
  type: "ReLU"
  bottom: "inception_3a/1x1"
  top: "inception_3a/1x1"
}
layer {
  name: "inception_3a/3x3_reduce"
  type: "Convolution"
  bottom: "pool2/3x3_s2"
  top: "inception_3a/3x3_reduce"
  param {
    lr_mult: 1
    decay_mult: 1
  }
  param {
    lr_mult: 2
    decay_mult: 0
  }
  convolution_param {
    num_output: 96
    kernel_size: 1
    weight_filler {
      type: "xavier"
      std: 0.09
    }
    bias_filler {
      type: "constant"
      value: 0.2
    }
  }
}
layer {
  name: "inception_3a/relu_3x3_reduce"
  type: "ReLU"
  bottom: "inception_3a/3x3_reduce"
  top: "inception_3a/3x3_reduce"
}
layer {
  name: "inception_3a/3x3"
  type: "Convolution"
  bottom: "inception_3a/3x3_reduce"
  top: "inception_3a/3x3"
  param {
    lr_mult: 1
    decay_mult: 1
  }
  param {
    lr_mult: 2
    decay_mult: 0
  }
  convolution_param {
    num_output: 128
    pad: 1
    kernel_size: 3
    weight_filler {
      type: "xavier"
      std: 0.03
    }
    bias_filler {
      type: "constant"
      value: 0.2
    }
  }
}
layer {
  name: "inception_3a/relu_3x3"
  type: "ReLU"
  bottom: "inception_3a/3x3"
  top: "inception_3a/3x3"
}
layer {
  name: "inception_3a/5x5_reduce"
  type: "Convolution"
  bottom: "pool2/3x3_s2"
  top: "inception_3a/5x5_reduce"
  param {
    lr_mult: 1
    decay_mult: 1
  }
  param {
    lr_mult: 2
    decay_mult: 0
  }
  convolution_param {
    num_output: 16
    kernel_size: 1
    weight_filler {
      type: "xavier"
      std: 0.2
    }
    bias_filler {
      type: "constant"
      value: 0.2
    }
  }
}
layer {
  name: "inception_3a/relu_5x5_reduce"
  type: "ReLU"
  bottom: "inception_3a/5x5_reduce"
  top: "inception_3a/5x5_reduce"
}
layer {
  name: "inception_3a/5x5"
  type: "Convolution"
  bottom: "inception_3a/5x5_reduce"
  top: "inception_3a/5x5"
  param {
    lr_mult: 1
    decay_mult: 1
  }
  param {
    lr_mult: 2
    decay_mult: 0
  }
  convolution_param {
    num_output: 32
    pad: 2
    kernel_size: 5
    weight_filler {
      type: "xavier"
      std: 0.03
    }
    bias_filler {
      type: "constant"
      value: 0.2
    }
  }
}
layer {
  name: "inception_3a/relu_5x5"
  type: "ReLU"
  bottom: "inception_3a/5x5"
  top: "inception_3a/5x5"
}
layer {
  name: "inception_3a/pool"
  type: "Pooling"
  bottom: "pool2/3x3_s2"
  top: "inception_3a/pool"
  pooling_param {
    pool: MAX
    kernel_size: 3
    stride: 1
    pad: 1
  }
}
layer {
  name: "inception_3a/pool_proj"
  type: "Convolution"
  bottom: "inception_3a/pool"
  top: "inception_3a/pool_proj"
  param {
    lr_mult: 1
    decay_mult: 1
  }
  param {
    lr_mult: 2
    decay_mult: 0
  }
  convolution_param {
    num_output: 32
    kernel_size: 1
    weight_filler {
      type: "xavier"
      std: 0.1
    }
    bias_filler {
      type: "constant"
      value: 0.2
    }
  }
}
layer {
  name: "inception_3a/relu_pool_proj"
  type: "ReLU"
  bottom: "inception_3a/pool_proj"
  top: "inception_3a/pool_proj"
}
layer {
  name: "inception_3a/output"
  type: "Concat"
  bottom: "inception_3a/1x1"
  bottom: "inception_3a/3x3"
  bottom: "inception_3a/5x5"
  bottom: "inception_3a/pool_proj"
  top: "inception_3a/output"
}
layer {
  name: "inception_3b/1x1"
  type: "Convolution"
  bottom: "inception_3a/output"
  top: "inception_3b/1x1"
  param {
    lr_mult: 1
    decay_mult: 1
  }
  param {
    lr_mult: 2
    decay_mult: 0
  }
  convolution_param {
    num_output: 128
    kernel_size: 1
    weight_filler {
      type: "xavier"
      std: 0.03
    }
    bias_filler {
      type: "constant"
      value: 0.2
    }
  }
}
layer {
  name: "inception_3b/relu_1x1"
  type: "ReLU"
  bottom: "inception_3b/1x1"
  top: "inception_3b/1x1"
}
layer {
  name: "inception_3b/3x3_reduce"
  type: "Convolution"
  bottom: "inception_3a/output"
  top: "inception_3b/3x3_reduce"
  param {
    lr_mult: 1
    decay_mult: 1
  }
  param {
    lr_mult: 2
    decay_mult: 0
  }
  convolution_param {
    num_output: 128
    kernel_size: 1
    weight_filler {
      type: "xavier"
      std: 0.09
    }
    bias_filler {
      type: "constant"
      value: 0.2
    }
  }
}
layer {
  name: "inception_3b/relu_3x3_reduce"
  type: "ReLU"
  bottom: "inception_3b/3x3_reduce"
  top: "inception_3b/3x3_reduce"
}
layer {
  name: "inception_3b/3x3"
  type: "Convolution"
  bottom: "inception_3b/3x3_reduce"
  top: "inception_3b/3x3"
  param {
    lr_mult: 1
    decay_mult: 1
  }
  param {
    lr_mult: 2
    decay_mult: 0
  }
  convolution_param {
    num_output: 192
    pad: 1
    kernel_size: 3
    weight_filler {
      type: "xavier"
      std: 0.03
    }
    bias_filler {
      type: "constant"
      value: 0.2
    }
  }
}
layer {
  name: "inception_3b/relu_3x3"
  type: "ReLU"
  bottom: "inception_3b/3x3"
  top: "inception_3b/3x3"
}
layer {
  name: "inception_3b/5x5_reduce"
  type: "Convolution"
  bottom: "inception_3a/output"
  top: "inception_3b/5x5_reduce"
  param {
    lr_mult: 1
    decay_mult: 1
  }
  param {
    lr_mult: 2
    decay_mult: 0
  }
  convolution_param {
    num_output: 32
    kernel_size: 1
    weight_filler {
      type: "xavier"
      std: 0.2
    }
    bias_filler {
      type: "constant"
      value: 0.2
    }
  }
}
layer {
  name: "inception_3b/relu_5x5_reduce"
  type: "ReLU"
  bottom: "inception_3b/5x5_reduce"
  top: "inception_3b/5x5_reduce"
}
layer {
  name: "inception_3b/5x5"
  type: "Convolution"
  bottom: "inception_3b/5x5_reduce"
  top: "inception_3b/5x5"
  param {
    lr_mult: 1
    decay_mult: 1
  }
  param {
    lr_mult: 2
    decay_mult: 0
  }
  convolution_param {
    num_output: 96
    pad: 2
    kernel_size: 5
    weight_filler {
      type: "xavier"
      std: 0.03
    }
    bias_filler {
      type: "constant"
      value: 0.2
    }
  }
}
layer {
  name: "inception_3b/relu_5x5"
  type: "ReLU"
  bottom: "inception_3b/5x5"
  top: "inception_3b/5x5"
}
layer {
  name: "inception_3b/pool"
  type: "Pooling"
  bottom: "inception_3a/output"
  top: "inception_3b/pool"
  pooling_param {
    pool: MAX
    kernel_size: 3
    stride: 1
    pad: 1
  }
}
layer {
  name: "inception_3b/pool_proj"
  type: "Convolution"
  bottom: "inception_3b/pool"
  top: "inception_3b/pool_proj"
  param {
    lr_mult: 1
    decay_mult: 1
  }
  param {
    lr_mult: 2
    decay_mult: 0
  }
  convolution_param {
    num_output: 64
    kernel_size: 1
    weight_filler {
      type: "xavier"
      std: 0.1
    }
    bias_filler {
      type: "constant"
      value: 0.2
    }
  }
}
layer {
  name: "inception_3b/relu_pool_proj"
  type: "ReLU"
  bottom: "inception_3b/pool_proj"
  top: "inception_3b/pool_proj"
}
layer {
  name: "inception_3b/output"
  type: "Concat"
  bottom: "inception_3b/1x1"
  bottom: "inception_3b/3x3"
  bottom: "inception_3b/5x5"
  bottom: "inception_3b/pool_proj"
  top: "inception_3b/output"
}
layer {
  name: "pool3/3x3_s2"
  type: "Pooling"
  bottom: "inception_3b/output"
  top: "pool3/3x3_s2"
  pooling_param {
    pool: MAX
    kernel_size: 3
    stride: 2
  }
}
layer {
  name: "inception_4a/1x1"
  type: "Convolution"
  bottom: "pool3/3x3_s2"
  top: "inception_4a/1x1"
  param {
    lr_mult: 1
    decay_mult: 1
  }
  param {
    lr_mult: 2
    decay_mult: 0
  }
  convolution_param {
    num_output: 192
    kernel_size: 1
    weight_filler {
      type: "xavier"
      std: 0.03
    }
    bias_filler {
      type: "constant"
      value: 0.2
    }
  }
}
layer {
  name: "inception_4a/relu_1x1"
  type: "ReLU"
  bottom: "inception_4a/1x1"
  top: "inception_4a/1x1"
}
layer {
  name: "inception_4a/3x3_reduce"
  type: "Convolution"
  bottom: "pool3/3x3_s2"
  top: "inception_4a/3x3_reduce"
  param {
    lr_mult: 1
    decay_mult: 1
  }
  param {
    lr_mult: 2
    decay_mult: 0
  }
  convolution_param {
    num_output: 96
    kernel_size: 1
    weight_filler {
      type: "xavier"
      std: 0.09
    }
    bias_filler {
      type: "constant"
      value: 0.2
    }
  }
}
layer {
  name: "inception_4a/relu_3x3_reduce"
  type: "ReLU"
  bottom: "inception_4a/3x3_reduce"
  top: "inception_4a/3x3_reduce"
}
layer {
  name: "inception_4a/3x3"
  type: "Convolution"
  bottom: "inception_4a/3x3_reduce"
  top: "inception_4a/3x3"
  param {
    lr_mult: 1
    decay_mult: 1
  }
  param {
    lr_mult: 2
    decay_mult: 0
  }
  convolution_param {
    num_output: 208
    pad: 1
    kernel_size: 3
    weight_filler {
      type: "xavier"
      std: 0.03
    }
    bias_filler {
      type: "constant"
      value: 0.2
    }
  }
}
layer {
  name: "inception_4a/relu_3x3"
  type: "ReLU"
  bottom: "inception_4a/3x3"
  top: "inception_4a/3x3"
}
layer {
  name: "inception_4a/5x5_reduce"
  type: "Convolution"
  bottom: "pool3/3x3_s2"
  top: "inception_4a/5x5_reduce"
  param {
    lr_mult: 1
    decay_mult: 1
  }
  param {
    lr_mult: 2
    decay_mult: 0
  }
  convolution_param {
    num_output: 16
    kernel_size: 1
    weight_filler {
      type: "xavier"
      std: 0.2
    }
    bias_filler {
      type: "constant"
      value: 0.2
    }
  }
}
layer {
  name: "inception_4a/relu_5x5_reduce"
  type: "ReLU"
  bottom: "inception_4a/5x5_reduce"
  top: "inception_4a/5x5_reduce"
}
layer {
  name: "inception_4a/5x5"
  type: "Convolution"
  bottom: "inception_4a/5x5_reduce"
  top: "inception_4a/5x5"
  param {
    lr_mult: 1
    decay_mult: 1
  }
  param {
    lr_mult: 2
    decay_mult: 0
  }
  convolution_param {
    num_output: 48
    pad: 2
    kernel_size: 5
    weight_filler {
      type: "xavier"
      std: 0.03
    }
    bias_filler {
      type: "constant"
      value: 0.2
    }
  }
}
layer {
  name: "inception_4a/relu_5x5"
  type: "ReLU"
  bottom: "inception_4a/5x5"
  top: "inception_4a/5x5"
}
layer {
  name: "inception_4a/pool"
  type: "Pooling"
  bottom: "pool3/3x3_s2"
  top: "inception_4a/pool"
  pooling_param {
    pool: MAX
    kernel_size: 3
    stride: 1
    pad: 1
  }
}
layer {
  name: "inception_4a/pool_proj"
  type: "Convolution"
  bottom: "inception_4a/pool"
  top: "inception_4a/pool_proj"
  param {
    lr_mult: 1
    decay_mult: 1
  }
  param {
    lr_mult: 2
    decay_mult: 0
  }
  convolution_param {
    num_output: 64
    kernel_size: 1
    weight_filler {
      type: "xavier"
      std: 0.1
    }
    bias_filler {
      type: "constant"
      value: 0.2
    }
  }
}
layer {
  name: "inception_4a/relu_pool_proj"
  type: "ReLU"
  bottom: "inception_4a/pool_proj"
  top: "inception_4a/pool_proj"
}
layer {
  name: "inception_4a/output"
  type: "Concat"
  bottom: "inception_4a/1x1"
  bottom: "inception_4a/3x3"
  bottom: "inception_4a/5x5"
  bottom: "inception_4a/pool_proj"
  top: "inception_4a/output"
}
layer {
  name: "loss1/ave_pool"
  type: "Pooling"
  bottom: "inception_4a/output"
  top: "loss1/ave_pool"
  pooling_param {
    pool: AVE
    kernel_size: 5
    stride: 3
  }
}
layer {
  name: "loss1/conv"
  type: "Convolution"
  bottom: "loss1/ave_pool"
  top: "loss1/conv"
  param {
    lr_mult: 1
    decay_mult: 1
  }
  param {
    lr_mult: 2
    decay_mult: 0
  }
  convolution_param {
    num_output: 128
    kernel_size: 1
    weight_filler {
      type: "xavier"
      std: 0.08
    }
    bias_filler {
      type: "constant"
      value: 0.2
    }
  }
}
layer {
  name: "loss1/relu_conv"
  type: "ReLU"
  bottom: "loss1/conv"
  top: "loss1/conv"
}
layer {
  name: "loss1/fc"
  type: "InnerProduct"
  bottom: "loss1/conv"
  top: "loss1/fc"
  param {
    lr_mult: 1
    decay_mult: 1
  }
  param {
    lr_mult: 2
    decay_mult: 0
  }
  inner_product_param {
    num_output: 1024
    weight_filler {
      type: "xavier"
      std: 0.02
    }
    bias_filler {
      type: "constant"
      value: 0.2
    }
  }
}
layer {
  name: "loss1/relu_fc"
  type: "ReLU"
  bottom: "loss1/fc"
  top: "loss1/fc"
}
layer {
  name: "loss1/drop_fc"
  type: "Dropout"
  bottom: "loss1/fc"
  top: "loss1/fc"
  dropout_param {
    dropout_ratio: 0.7
  }
}
layer {
  name: "loss1/classifier_plantvillage"
  type: "InnerProduct"
  bottom: "loss1/fc"
  top: "loss1/classifier_plantvillage"
  param {
    lr_mult: 1
    decay_mult: 1
  }
  param {
    lr_mult: 2
    decay_mult: 0
  }
  inner_product_param {
    num_output: 38
    weight_filler {
      type: "xavier"
      std: 0.0009765625
    }
    bias_filler {
      type: "constant"
      value: 0
    }
  }
}
layer {
  name: "inception_4b/1x1"
  type: "Convolution"
  bottom: "inception_4a/output"
  top: "inception_4b/1x1"
  param {
    lr_mult: 1
    decay_mult: 1
  }
  param {
    lr_mult: 2
    decay_mult: 0
  }
  convolution_param {
    num_output: 160
    kernel_size: 1
    weight_filler {
      type: "xavier"
      std: 0.03
    }
    bias_filler {
      type: "constant"
      value: 0.2
    }
  }
}
layer {
  name: "inception_4b/relu_1x1"
  type: "ReLU"
  bottom: "inception_4b/1x1"
  top: "inception_4b/1x1"
}
layer {
  name: "inception_4b/3x3_reduce"
  type: "Convolution"
  bottom: "inception_4a/output"
  top: "inception_4b/3x3_reduce"
  param {
    lr_mult: 1
    decay_mult: 1
  }
  param {
    lr_mult: 2
    decay_mult: 0
  }
  convolution_param {
    num_output: 112
    kernel_size: 1
    weight_filler {
      type: "xavier"
      std: 0.09
    }
    bias_filler {
      type: "constant"
      value: 0.2
    }
  }
}
layer {
  name: "inception_4b/relu_3x3_reduce"
  type: "ReLU"
  bottom: "inception_4b/3x3_reduce"
  top: "inception_4b/3x3_reduce"
}
layer {
  name: "inception_4b/3x3"
  type: "Convolution"
  bottom: "inception_4b/3x3_reduce"
  top: "inception_4b/3x3"
  param {
    lr_mult: 1
    decay_mult: 1
  }
  param {
    lr_mult: 2
    decay_mult: 0
  }
  convolution_param {
    num_output: 224
    pad: 1
    kernel_size: 3
    weight_filler {
      type: "xavier"
      std: 0.03
    }
    bias_filler {
      type: "constant"
      value: 0.2
    }
  }
}
layer {
  name: "inception_4b/relu_3x3"
  type: "ReLU"
  bottom: "inception_4b/3x3"
  top: "inception_4b/3x3"
}
layer {
  name: "inception_4b/5x5_reduce"
  type: "Convolution"
  bottom: "inception_4a/output"
  top: "inception_4b/5x5_reduce"
  param {
    lr_mult: 1
    decay_mult: 1
  }
  param {
    lr_mult: 2
    decay_mult: 0
  }
  convolution_param {
    num_output: 24
    kernel_size: 1
    weight_filler {
      type: "xavier"
      std: 0.2
    }
    bias_filler {
      type: "constant"
      value: 0.2
    }
  }
}
layer {
  name: "inception_4b/relu_5x5_reduce"
  type: "ReLU"
  bottom: "inception_4b/5x5_reduce"
  top: "inception_4b/5x5_reduce"
}
layer {
  name: "inception_4b/5x5"
  type: "Convolution"
  bottom: "inception_4b/5x5_reduce"
  top: "inception_4b/5x5"
  param {
    lr_mult: 1
    decay_mult: 1
  }
  param {
    lr_mult: 2
    decay_mult: 0
  }
  convolution_param {
    num_output: 64
    pad: 2
    kernel_size: 5
    weight_filler {
      type: "xavier"
      std: 0.03
    }
    bias_filler {
      type: "constant"
      value: 0.2
    }
  }
}
layer {
  name: "inception_4b/relu_5x5"
  type: "ReLU"
  bottom: "inception_4b/5x5"
  top: "inception_4b/5x5"
}
layer {
  name: "inception_4b/pool"
  type: "Pooling"
  bottom: "inception_4a/output"
  top: "inception_4b/pool"
  pooling_param {
    pool: MAX
    kernel_size: 3
    stride: 1
    pad: 1
  }
}
layer {
  name: "inception_4b/pool_proj"
  type: "Convolution"
  bottom: "inception_4b/pool"
  top: "inception_4b/pool_proj"
  param {
    lr_mult: 1
    decay_mult: 1
  }
  param {
    lr_mult: 2
    decay_mult: 0
  }
  convolution_param {
    num_output: 64
    kernel_size: 1
    weight_filler {
      type: "xavier"
      std: 0.1
    }
    bias_filler {
      type: "constant"
      value: 0.2
    }
  }
}
layer {
  name: "inception_4b/relu_pool_proj"
  type: "ReLU"
  bottom: "inception_4b/pool_proj"
  top: "inception_4b/pool_proj"
}
layer {
  name: "inception_4b/output"
  type: "Concat"
  bottom: "inception_4b/1x1"
  bottom: "inception_4b/3x3"
  bottom: "inception_4b/5x5"
  bottom: "inception_4b/pool_proj"
  top: "inception_4b/output"
}
layer {
  name: "inception_4c/1x1"
  type: "Convolution"
  bottom: "inception_4b/output"
  top: "inception_4c/1x1"
  param {
    lr_mult: 1
    decay_mult: 1
  }
  param {
    lr_mult: 2
    decay_mult: 0
  }
  convolution_param {
    num_output: 128
    kernel_size: 1
    weight_filler {
      type: "xavier"
      std: 0.03
    }
    bias_filler {
      type: "constant"
      value: 0.2
    }
  }
}
layer {
  name: "inception_4c/relu_1x1"
  type: "ReLU"
  bottom: "inception_4c/1x1"
  top: "inception_4c/1x1"
}
layer {
  name: "inception_4c/3x3_reduce"
  type: "Convolution"
  bottom: "inception_4b/output"
  top: "inception_4c/3x3_reduce"
  param {
    lr_mult: 1
    decay_mult: 1
  }
  param {
    lr_mult: 2
    decay_mult: 0
  }
  convolution_param {
    num_output: 128
    kernel_size: 1
    weight_filler {
      type: "xavier"
      std: 0.09
    }
    bias_filler {
      type: "constant"
      value: 0.2
    }
  }
}
layer {
  name: "inception_4c/relu_3x3_reduce"
  type: "ReLU"
  bottom: "inception_4c/3x3_reduce"
  top: "inception_4c/3x3_reduce"
}
layer {
  name: "inception_4c/3x3"
  type: "Convolution"
  bottom: "inception_4c/3x3_reduce"
  top: "inception_4c/3x3"
  param {
    lr_mult: 1
    decay_mult: 1
  }
  param {
    lr_mult: 2
    decay_mult: 0
  }
  convolution_param {
    num_output: 256
    pad: 1
    kernel_size: 3
    weight_filler {
      type: "xavier"
      std: 0.03
    }
    bias_filler {
      type: "constant"
      value: 0.2
    }
  }
}
layer {
  name: "inception_4c/relu_3x3"
  type: "ReLU"
  bottom: "inception_4c/3x3"
  top: "inception_4c/3x3"
}
layer {
  name: "inception_4c/5x5_reduce"
  type: "Convolution"
  bottom: "inception_4b/output"
  top: "inception_4c/5x5_reduce"
  param {
    lr_mult: 1
    decay_mult: 1
  }
  param {
    lr_mult: 2
    decay_mult: 0
  }
  convolution_param {
    num_output: 24
    kernel_size: 1
    weight_filler {
      type: "xavier"
      std: 0.2
    }
    bias_filler {
      type: "constant"
      value: 0.2
    }
  }
}
layer {
  name: "inception_4c/relu_5x5_reduce"
  type: "ReLU"
  bottom: "inception_4c/5x5_reduce"
  top: "inception_4c/5x5_reduce"
}
layer {
  name: "inception_4c/5x5"
  type: "Convolution"
  bottom: "inception_4c/5x5_reduce"
  top: "inception_4c/5x5"
  param {
    lr_mult: 1
    decay_mult: 1
  }
  param {
    lr_mult: 2
    decay_mult: 0
  }
  convolution_param {
    num_output: 64
    pad: 2
    kernel_size: 5
    weight_filler {
      type: "xavier"
      std: 0.03
    }
    bias_filler {
      type: "constant"
      value: 0.2
    }
  }
}
layer {
  name: "inception_4c/relu_5x5"
  type: "ReLU"
  bottom: "inception_4c/5x5"
  top: "inception_4c/5x5"
}
layer {
  name: "inception_4c/pool"
  type: "Pooling"
  bottom: "inception_4b/output"
  top: "inception_4c/pool"
  pooling_param {
    pool: MAX
    kernel_size: 3
    stride: 1
    pad: 1
  }
}
layer {
  name: "inception_4c/pool_proj"
  type: "Convolution"
  bottom: "inception_4c/pool"
  top: "inception_4c/pool_proj"
  param {
    lr_mult: 1
    decay_mult: 1
  }
  param {
    lr_mult: 2
    decay_mult: 0
  }
  convolution_param {
    num_output: 64
    kernel_size: 1
    weight_filler {
      type: "xavier"
      std: 0.1
    }
    bias_filler {
      type: "constant"
      value: 0.2
    }
  }
}
layer {
  name: "inception_4c/relu_pool_proj"
  type: "ReLU"
  bottom: "inception_4c/pool_proj"
  top: "inception_4c/pool_proj"
}
layer {
  name: "inception_4c/output"
  type: "Concat"
  bottom: "inception_4c/1x1"
  bottom: "inception_4c/3x3"
  bottom: "inception_4c/5x5"
  bottom: "inception_4c/pool_proj"
  top: "inception_4c/output"
}
layer {
  name: "inception_4d/1x1"
  type: "Convolution"
  bottom: "inception_4c/output"
  top: "inception_4d/1x1"
  param {
    lr_mult: 1
    decay_mult: 1
  }
  param {
    lr_mult: 2
    decay_mult: 0
  }
  convolution_param {
    num_output: 112
    kernel_size: 1
    weight_filler {
      type: "xavier"
      std: 0.03
    }
    bias_filler {
      type: "constant"
      value: 0.2
    }
  }
}
layer {
  name: "inception_4d/relu_1x1"
  type: "ReLU"
  bottom: "inception_4d/1x1"
  top: "inception_4d/1x1"
}
layer {
  name: "inception_4d/3x3_reduce"
  type: "Convolution"
  bottom: "inception_4c/output"
  top: "inception_4d/3x3_reduce"
  param {
    lr_mult: 1
    decay_mult: 1
  }
  param {
    lr_mult: 2
    decay_mult: 0
  }
  convolution_param {
    num_output: 144
    kernel_size: 1
    weight_filler {
      type: "xavier"
      std: 0.09
    }
    bias_filler {
      type: "constant"
      value: 0.2
    }
  }
}
layer {
  name: "inception_4d/relu_3x3_reduce"
  type: "ReLU"
  bottom: "inception_4d/3x3_reduce"
  top: "inception_4d/3x3_reduce"
}
layer {
  name: "inception_4d/3x3"
  type: "Convolution"
  bottom: "inception_4d/3x3_reduce"
  top: "inception_4d/3x3"
  param {
    lr_mult: 1
    decay_mult: 1
  }
  param {
    lr_mult: 2
    decay_mult: 0
  }
  convolution_param {
    num_output: 288
    pad: 1
    kernel_size: 3
    weight_filler {
      type: "xavier"
      std: 0.03
    }
    bias_filler {
      type: "constant"
      value: 0.2
    }
  }
}
layer {
  name: "inception_4d/relu_3x3"
  type: "ReLU"
  bottom: "inception_4d/3x3"
  top: "inception_4d/3x3"
}
layer {
  name: "inception_4d/5x5_reduce"
  type: "Convolution"
  bottom: "inception_4c/output"
  top: "inception_4d/5x5_reduce"
  param {
    lr_mult: 1
    decay_mult: 1
  }
  param {
    lr_mult: 2
    decay_mult: 0
  }
  convolution_param {
    num_output: 32
    kernel_size: 1
    weight_filler {
      type: "xavier"
      std: 0.2
    }
    bias_filler {
      type: "constant"
      value: 0.2
    }
  }
}
layer {
  name: "inception_4d/relu_5x5_reduce"
  type: "ReLU"
  bottom: "inception_4d/5x5_reduce"
  top: "inception_4d/5x5_reduce"
}
layer {
  name: "inception_4d/5x5"
  type: "Convolution"
  bottom: "inception_4d/5x5_reduce"
  top: "inception_4d/5x5"
  param {
    lr_mult: 1
    decay_mult: 1
  }
  param {
    lr_mult: 2
    decay_mult: 0
  }
  convolution_param {
    num_output: 64
    pad: 2
    kernel_size: 5
    weight_filler {
      type: "xavier"
      std: 0.03
    }
    bias_filler {
      type: "constant"
      value: 0.2
    }
  }
}
layer {
  name: "inception_4d/relu_5x5"
  type: "ReLU"
  bottom: "inception_4d/5x5"
  top: "inception_4d/5x5"
}
layer {
  name: "inception_4d/pool"
  type: "Pooling"
  bottom: "inception_4c/output"
  top: "inception_4d/pool"
  pooling_param {
    pool: MAX
    kernel_size: 3
    stride: 1
    pad: 1
  }
}
layer {
  name: "inception_4d/pool_proj"
  type: "Convolution"
  bottom: "inception_4d/pool"
  top: "inception_4d/pool_proj"
  param {
    lr_mult: 1
    decay_mult: 1
  }
  param {
    lr_mult: 2
    decay_mult: 0
  }
  convolution_param {
    num_output: 64
    kernel_size: 1
    weight_filler {
      type: "xavier"
      std: 0.1
    }
    bias_filler {
      type: "constant"
      value: 0.2
    }
  }
}
layer {
  name: "inception_4d/relu_pool_proj"
  type: "ReLU"
  bottom: "inception_4d/pool_proj"
  top: "inception_4d/pool_proj"
}
layer {
  name: "inception_4d/output"
  type: "Concat"
  bottom: "inception_4d/1x1"
  bottom: "inception_4d/3x3"
  bottom: "inception_4d/5x5"
  bottom: "inception_4d/pool_proj"
  top: "inception_4d/output"
}
layer {
  name: "loss2/ave_pool"
  type: "Pooling"
  bottom: "inception_4d/output"
  top: "loss2/ave_pool"
  pooling_param {
    pool: AVE
    kernel_size: 5
    stride: 3
  }
}
layer {
  name: "loss2/conv"
  type: "Convolution"
  bottom: "loss2/ave_pool"
  top: "loss2/conv"
  param {
    lr_mult: 1
    decay_mult: 1
  }
  param {
    lr_mult: 2
    decay_mult: 0
  }
  convolution_param {
    num_output: 128
    kernel_size: 1
    weight_filler {
      type: "xavier"
      std: 0.08
    }
    bias_filler {
      type: "constant"
      value: 0.2
    }
  }
}
layer {
  name: "loss2/relu_conv"
  type: "ReLU"
  bottom: "loss2/conv"
  top: "loss2/conv"
}
layer {
  name: "loss2/fc"
  type: "InnerProduct"
  bottom: "loss2/conv"
  top: "loss2/fc"
  param {
    lr_mult: 1
    decay_mult: 1
  }
  param {
    lr_mult: 2
    decay_mult: 0
  }
  inner_product_param {
    num_output: 1024
    weight_filler {
      type: "xavier"
      std: 0.02
    }
    bias_filler {
      type: "constant"
      value: 0.2
    }
  }
}
layer {
  name: "loss2/relu_fc"
  type: "ReLU"
  bottom: "loss2/fc"
  top: "loss2/fc"
}
layer {
  name: "loss2/drop_fc"
  type: "Dropout"
  bottom: "loss2/fc"
  top: "loss2/fc"
  dropout_param {
    dropout_ratio: 0.7
  }
}
layer {
  name: "loss2/classifier_plantvillage"
  type: "InnerProduct"
  bottom: "loss2/fc"
  top: "loss2/classifier_plantvillage"
  param {
    lr_mult: 1
    decay_mult: 1
  }
  param {
    lr_mult: 2
    decay_mult: 0
  }
  inner_product_param {
    num_output: 38
    weight_filler {
      type: "xavier"
      std: 0.0009765625
    }
    bias_filler {
      type: "constant"
      value: 0
    }
  }
}
layer {
  name: "inception_4e/1x1"
  type: "Convolution"
  bottom: "inception_4d/output"
  top: "inception_4e/1x1"
  param {
    lr_mult: 1
    decay_mult: 1
  }
  param {
    lr_mult: 2
    decay_mult: 0
  }
  convolution_param {
    num_output: 256
    kernel_size: 1
    weight_filler {
      type: "xavier"
      std: 0.03
    }
    bias_filler {
      type: "constant"
      value: 0.2
    }
  }
}
layer {
  name: "inception_4e/relu_1x1"
  type: "ReLU"
  bottom: "inception_4e/1x1"
  top: "inception_4e/1x1"
}
layer {
  name: "inception_4e/3x3_reduce"
  type: "Convolution"
  bottom: "inception_4d/output"
  top: "inception_4e/3x3_reduce"
  param {
    lr_mult: 1
    decay_mult: 1
  }
  param {
    lr_mult: 2
    decay_mult: 0
  }
  convolution_param {
    num_output: 160
    kernel_size: 1
    weight_filler {
      type: "xavier"
      std: 0.09
    }
    bias_filler {
      type: "constant"
      value: 0.2
    }
  }
}
layer {
  name: "inception_4e/relu_3x3_reduce"
  type: "ReLU"
  bottom: "inception_4e/3x3_reduce"
  top: "inception_4e/3x3_reduce"
}
layer {
  name: "inception_4e/3x3"
  type: "Convolution"
  bottom: "inception_4e/3x3_reduce"
  top: "inception_4e/3x3"
  param {
    lr_mult: 1
    decay_mult: 1
  }
  param {
    lr_mult: 2
    decay_mult: 0
  }
  convolution_param {
    num_output: 320
    pad: 1
    kernel_size: 3
    weight_filler {
      type: "xavier"
      std: 0.03
    }
    bias_filler {
      type: "constant"
      value: 0.2
    }
  }
}
layer {
  name: "inception_4e/relu_3x3"
  type: "ReLU"
  bottom: "inception_4e/3x3"
  top: "inception_4e/3x3"
}
layer {
  name: "inception_4e/5x5_reduce"
  type: "Convolution"
  bottom: "inception_4d/output"
  top: "inception_4e/5x5_reduce"
  param {
    lr_mult: 1
    decay_mult: 1
  }
  param {
    lr_mult: 2
    decay_mult: 0
  }
  convolution_param {
    num_output: 32
    kernel_size: 1
    weight_filler {
      type: "xavier"
      std: 0.2
    }
    bias_filler {
      type: "constant"
      value: 0.2
    }
  }
}
layer {
  name: "inception_4e/relu_5x5_reduce"
  type: "ReLU"
  bottom: "inception_4e/5x5_reduce"
  top: "inception_4e/5x5_reduce"
}
layer {
  name: "inception_4e/5x5"
  type: "Convolution"
  bottom: "inception_4e/5x5_reduce"
  top: "inception_4e/
I0403 15:01:55.179133  2570 layer_factory.hpp:77] Creating layer data
I0403 15:01:55.179754  2570 net.cpp:91] Creating Layer data
I0403 15:01:55.179788  2570 net.cpp:399] data -> data
I0403 15:01:55.179841  2570 net.cpp:399] data -> label
I0403 15:01:55.179877  2570 data_transformer.cpp:25] Loading mean file from: /home/mohanty/data/final_dataset/lmdb/grayscale-50-50/mean.binaryproto
I0403 15:01:55.188634  2573 db_lmdb.cpp:38] Opened lmdb /home/mohanty/data/final_dataset/lmdb/grayscale-50-50/test_db
I0403 15:01:55.193166  2570 data_layer.cpp:41] output data size: 24,3,224,224
I0403 15:01:55.221334  2570 net.cpp:141] Setting up data
I0403 15:01:55.221405  2570 net.cpp:148] Top shape: 24 3 224 224 (3612672)
I0403 15:01:55.221428  2570 net.cpp:148] Top shape: 24 (24)
I0403 15:01:55.221444  2570 net.cpp:156] Memory required for data: 14450784
I0403 15:01:55.221472  2570 layer_factory.hpp:77] Creating layer label_data_1_split
I0403 15:01:55.221499  2570 net.cpp:91] Creating Layer label_data_1_split
I0403 15:01:55.221518  2570 net.cpp:425] label_data_1_split <- label
I0403 15:01:55.221550  2570 net.cpp:399] label_data_1_split -> label_data_1_split_0
I0403 15:01:55.221578  2570 net.cpp:399] label_data_1_split -> label_data_1_split_1
I0403 15:01:55.221601  2570 net.cpp:399] label_data_1_split -> label_data_1_split_2
I0403 15:01:55.221622  2570 net.cpp:399] label_data_1_split -> label_data_1_split_3
I0403 15:01:55.221643  2570 net.cpp:399] label_data_1_split -> label_data_1_split_4
I0403 15:01:55.221663  2570 net.cpp:399] label_data_1_split -> label_data_1_split_5
I0403 15:01:55.221684  2570 net.cpp:399] label_data_1_split -> label_data_1_split_6
I0403 15:01:55.221706  2570 net.cpp:399] label_data_1_split -> label_data_1_split_7
I0403 15:01:55.221727  2570 net.cpp:399] label_data_1_split -> label_data_1_split_8
I0403 15:01:55.221750  2570 net.cpp:399] label_data_1_split -> label_data_1_split_9
I0403 15:01:55.221871  2570 net.cpp:141] Setting up label_data_1_split
I0403 15:01:55.221895  2570 net.cpp:148] Top shape: 24 (24)
I0403 15:01:55.221914  2570 net.cpp:148] Top shape: 24 (24)
I0403 15:01:55.221930  2570 net.cpp:148] Top shape: 24 (24)
I0403 15:01:55.221947  2570 net.cpp:148] Top shape: 24 (24)
I0403 15:01:55.221963  2570 net.cpp:148] Top shape: 24 (24)
I0403 15:01:55.221979  2570 net.cpp:148] Top shape: 24 (24)
I0403 15:01:55.221997  2570 net.cpp:148] Top shape: 24 (24)
I0403 15:01:55.222012  2570 net.cpp:148] Top shape: 24 (24)
I0403 15:01:55.222028  2570 net.cpp:148] Top shape: 24 (24)
I0403 15:01:55.222045  2570 net.cpp:148] Top shape: 24 (24)
I0403 15:01:55.222090  2570 net.cpp:156] Memory required for data: 14451744
I0403 15:01:55.222107  2570 layer_factory.hpp:77] Creating layer conv1/7x7_s2
I0403 15:01:55.222141  2570 net.cpp:91] Creating Layer conv1/7x7_s2
I0403 15:01:55.222160  2570 net.cpp:425] conv1/7x7_s2 <- data
I0403 15:01:55.222182  2570 net.cpp:399] conv1/7x7_s2 -> conv1/7x7_s2
I0403 15:01:55.364598  2570 net.cpp:141] Setting up conv1/7x7_s2
I0403 15:01:55.364665  2570 net.cpp:148] Top shape: 24 64 112 112 (19267584)
I0403 15:01:55.364683  2570 net.cpp:156] Memory required for data: 91522080
I0403 15:01:55.364714  2570 layer_factory.hpp:77] Creating layer conv1/relu_7x7
I0403 15:01:55.364743  2570 net.cpp:91] Creating Layer conv1/relu_7x7
I0403 15:01:55.364763  2570 net.cpp:425] conv1/relu_7x7 <- conv1/7x7_s2
I0403 15:01:55.364783  2570 net.cpp:386] conv1/relu_7x7 -> conv1/7x7_s2 (in-place)
I0403 15:01:55.365051  2570 net.cpp:141] Setting up conv1/relu_7x7
I0403 15:01:55.365079  2570 net.cpp:148] Top shape: 24 64 112 112 (19267584)
I0403 15:01:55.365095  2570 net.cpp:156] Memory required for data: 168592416
I0403 15:01:55.365111  2570 layer_factory.hpp:77] Creating layer pool1/3x3_s2
I0403 15:01:55.365137  2570 net.cpp:91] Creating Layer pool1/3x3_s2
I0403 15:01:55.365156  2570 net.cpp:425] pool1/3x3_s2 <- conv1/7x7_s2
I0403 15:01:55.365175  2570 net.cpp:399] pool1/3x3_s2 -> pool1/3x3_s2
I0403 15:01:55.365260  2570 net.cpp:141] Setting up pool1/3x3_s2
I0403 15:01:55.365285  2570 net.cpp:148] Top shape: 24 64 56 56 (4816896)
I0403 15:01:55.365300  2570 net.cpp:156] Memory required for data: 187860000
I0403 15:01:55.365315  2570 layer_factory.hpp:77] Creating layer pool1/norm1
I0403 15:01:55.365341  2570 net.cpp:91] Creating Layer pool1/norm1
I0403 15:01:55.365360  2570 net.cpp:425] pool1/norm1 <- pool1/3x3_s2
I0403 15:01:55.365378  2570 net.cpp:399] pool1/norm1 -> pool1/norm1
I0403 15:01:55.365731  2570 net.cpp:141] Setting up pool1/norm1
I0403 15:01:55.365758  2570 net.cpp:148] Top shape: 24 64 56 56 (4816896)
I0403 15:01:55.365775  2570 net.cpp:156] Memory required for data: 207127584
I0403 15:01:55.365792  2570 layer_factory.hpp:77] Creating layer conv2/3x3_reduce
I0403 15:01:55.365818  2570 net.cpp:91] Creating Layer conv2/3x3_reduce
I0403 15:01:55.365834  2570 net.cpp:425] conv2/3x3_reduce <- pool1/norm1
I0403 15:01:55.365854  2570 net.cpp:399] conv2/3x3_reduce -> conv2/3x3_reduce
I0403 15:01:55.367291  2570 net.cpp:141] Setting up conv2/3x3_reduce
I0403 15:01:55.367323  2570 net.cpp:148] Top shape: 24 64 56 56 (4816896)
I0403 15:01:55.367341  2570 net.cpp:156] Memory required for data: 226395168
I0403 15:01:55.367362  2570 layer_factory.hpp:77] Creating layer conv2/relu_3x3_reduce
I0403 15:01:55.367383  2570 net.cpp:91] Creating Layer conv2/relu_3x3_reduce
I0403 15:01:55.367399  2570 net.cpp:425] conv2/relu_3x3_reduce <- conv2/3x3_reduce
I0403 15:01:55.367418  2570 net.cpp:386] conv2/relu_3x3_reduce -> conv2/3x3_reduce (in-place)
I0403 15:01:55.367692  2570 net.cpp:141] Setting up conv2/relu_3x3_reduce
I0403 15:01:55.367720  2570 net.cpp:148] Top shape: 24 64 56 56 (4816896)
I0403 15:01:55.367736  2570 net.cpp:156] Memory required for data: 245662752
I0403 15:01:55.367753  2570 layer_factory.hpp:77] Creating layer conv2/3x3
I0403 15:01:55.367775  2570 net.cpp:91] Creating Layer conv2/3x3
I0403 15:01:55.367794  2570 net.cpp:425] conv2/3x3 <- conv2/3x3_reduce
I0403 15:01:55.367813  2570 net.cpp:399] conv2/3x3 -> conv2/3x3
I0403 15:01:55.370281  2570 net.cpp:141] Setting up conv2/3x3
I0403 15:01:55.370316  2570 net.cpp:148] Top shape: 24 192 56 56 (14450688)
I0403 15:01:55.370333  2570 net.cpp:156] Memory required for data: 303465504
I0403 15:01:55.370357  2570 layer_factory.hpp:77] Creating layer conv2/relu_3x3
I0403 15:01:55.370378  2570 net.cpp:91] Creating Layer conv2/relu_3x3
I0403 15:01:55.370394  2570 net.cpp:425] conv2/relu_3x3 <- conv2/3x3
I0403 15:01:55.370415  2570 net.cpp:386] conv2/relu_3x3 -> conv2/3x3 (in-place)
I0403 15:01:55.370606  2570 net.cpp:141] Setting up conv2/relu_3x3
I0403 15:01:55.370662  2570 net.cpp:148] Top shape: 24 192 56 56 (14450688)
I0403 15:01:55.370712  2570 net.cpp:156] Memory required for data: 361268256
I0403 15:01:55.370728  2570 layer_factory.hpp:77] Creating layer conv2/norm2
I0403 15:01:55.370751  2570 net.cpp:91] Creating Layer conv2/norm2
I0403 15:01:55.370769  2570 net.cpp:425] conv2/norm2 <- conv2/3x3
I0403 15:01:55.370791  2570 net.cpp:399] conv2/norm2 -> conv2/norm2
I0403 15:01:55.371114  2570 net.cpp:141] Setting up conv2/norm2
I0403 15:01:55.371143  2570 net.cpp:148] Top shape: 24 192 56 56 (14450688)
I0403 15:01:55.371160  2570 net.cpp:156] Memory required for data: 419071008
I0403 15:01:55.371176  2570 layer_factory.hpp:77] Creating layer pool2/3x3_s2
I0403 15:01:55.371196  2570 net.cpp:91] Creating Layer pool2/3x3_s2
I0403 15:01:55.371212  2570 net.cpp:425] pool2/3x3_s2 <- conv2/norm2
I0403 15:01:55.371232  2570 net.cpp:399] pool2/3x3_s2 -> pool2/3x3_s2
I0403 15:01:55.371295  2570 net.cpp:141] Setting up pool2/3x3_s2
I0403 15:01:55.371320  2570 net.cpp:148] Top shape: 24 192 28 28 (3612672)
I0403 15:01:55.371336  2570 net.cpp:156] Memory required for data: 433521696
I0403 15:01:55.371352  2570 layer_factory.hpp:77] Creating layer pool2/3x3_s2_pool2/3x3_s2_0_split
I0403 15:01:55.371373  2570 net.cpp:91] Creating Layer pool2/3x3_s2_pool2/3x3_s2_0_split
I0403 15:01:55.371392  2570 net.cpp:425] pool2/3x3_s2_pool2/3x3_s2_0_split <- pool2/3x3_s2
I0403 15:01:55.371409  2570 net.cpp:399] pool2/3x3_s2_pool2/3x3_s2_0_split -> pool2/3x3_s2_pool2/3x3_s2_0_split_0
I0403 15:01:55.371429  2570 net.cpp:399] pool2/3x3_s2_pool2/3x3_s2_0_split -> pool2/3x3_s2_pool2/3x3_s2_0_split_1
I0403 15:01:55.371450  2570 net.cpp:399] pool2/3x3_s2_pool2/3x3_s2_0_split -> pool2/3x3_s2_pool2/3x3_s2_0_split_2
I0403 15:01:55.371470  2570 net.cpp:399] pool2/3x3_s2_pool2/3x3_s2_0_split -> pool2/3x3_s2_pool2/3x3_s2_0_split_3
I0403 15:01:55.371547  2570 net.cpp:141] Setting up pool2/3x3_s2_pool2/3x3_s2_0_split
I0403 15:01:55.371572  2570 net.cpp:148] Top shape: 24 192 28 28 (3612672)
I0403 15:01:55.371590  2570 net.cpp:148] Top shape: 24 192 28 28 (3612672)
I0403 15:01:55.371608  2570 net.cpp:148] Top shape: 24 192 28 28 (3612672)
I0403 15:01:55.371624  2570 net.cpp:148] Top shape: 24 192 28 28 (3612672)
I0403 15:01:55.371639  2570 net.cpp:156] Memory required for data: 491324448
I0403 15:01:55.371654  2570 layer_factory.hpp:77] Creating layer inception_3a/1x1
I0403 15:01:55.371678  2570 net.cpp:91] Creating Layer inception_3a/1x1
I0403 15:01:55.371697  2570 net.cpp:425] inception_3a/1x1 <- pool2/3x3_s2_pool2/3x3_s2_0_split_0
I0403 15:01:55.371719  2570 net.cpp:399] inception_3a/1x1 -> inception_3a/1x1
I0403 15:01:55.373388  2570 net.cpp:141] Setting up inception_3a/1x1
I0403 15:01:55.373421  2570 net.cpp:148] Top shape: 24 64 28 28 (1204224)
I0403 15:01:55.373440  2570 net.cpp:156] Memory required for data: 496141344
I0403 15:01:55.373459  2570 layer_factory.hpp:77] Creating layer inception_3a/relu_1x1
I0403 15:01:55.373479  2570 net.cpp:91] Creating Layer inception_3a/relu_1x1
I0403 15:01:55.373495  2570 net.cpp:425] inception_3a/relu_1x1 <- inception_3a/1x1
I0403 15:01:55.373517  2570 net.cpp:386] inception_3a/relu_1x1 -> inception_3a/1x1 (in-place)
I0403 15:01:55.373708  2570 net.cpp:141] Setting up inception_3a/relu_1x1
I0403 15:01:55.373735  2570 net.cpp:148] Top shape: 24 64 28 28 (1204224)
I0403 15:01:55.373751  2570 net.cpp:156] Memory required for data: 500958240
I0403 15:01:55.373766  2570 layer_factory.hpp:77] Creating layer inception_3a/3x3_reduce
I0403 15:01:55.373790  2570 net.cpp:91] Creating Layer inception_3a/3x3_reduce
I0403 15:01:55.373807  2570 net.cpp:425] inception_3a/3x3_reduce <- pool2/3x3_s2_pool2/3x3_s2_0_split_1
I0403 15:01:55.373831  2570 net.cpp:399] inception_3a/3x3_reduce -> inception_3a/3x3_reduce
I0403 15:01:55.375679  2570 net.cpp:141] Setting up inception_3a/3x3_reduce
I0403 15:01:55.375711  2570 net.cpp:148] Top shape: 24 96 28 28 (1806336)
I0403 15:01:55.375730  2570 net.cpp:156] Memory required for data: 508183584
I0403 15:01:55.375754  2570 layer_factory.hpp:77] Creating layer inception_3a/relu_3x3_reduce
I0403 15:01:55.375794  2570 net.cpp:91] Creating Layer inception_3a/relu_3x3_reduce
I0403 15:01:55.375814  2570 net.cpp:425] inception_3a/relu_3x3_reduce <- inception_3a/3x3_reduce
I0403 15:01:55.375833  2570 net.cpp:386] inception_3a/relu_3x3_reduce -> inception_3a/3x3_reduce (in-place)
I0403 15:01:55.376027  2570 net.cpp:141] Setting up inception_3a/relu_3x3_reduce
I0403 15:01:55.376056  2570 net.cpp:148] Top shape: 24 96 28 28 (1806336)
I0403 15:01:55.376073  2570 net.cpp:156] Memory required for data: 515408928
I0403 15:01:55.376090  2570 layer_factory.hpp:77] Creating layer inception_3a/3x3
I0403 15:01:55.376112  2570 net.cpp:91] Creating Layer inception_3a/3x3
I0403 15:01:55.376130  2570 net.cpp:425] inception_3a/3x3 <- inception_3a/3x3_reduce
I0403 15:01:55.376150  2570 net.cpp:399] inception_3a/3x3 -> inception_3a/3x3
I0403 15:01:55.377904  2570 net.cpp:141] Setting up inception_3a/3x3
I0403 15:01:55.377934  2570 net.cpp:148] Top shape: 24 128 28 28 (2408448)
I0403 15:01:55.377951  2570 net.cpp:156] Memory required for data: 525042720
I0403 15:01:55.377970  2570 layer_factory.hpp:77] Creating layer inception_3a/relu_3x3
I0403 15:01:55.377990  2570 net.cpp:91] Creating Layer inception_3a/relu_3x3
I0403 15:01:55.378007  2570 net.cpp:425] inception_3a/relu_3x3 <- inception_3a/3x3
I0403 15:01:55.378027  2570 net.cpp:386] inception_3a/relu_3x3 -> inception_3a/3x3 (in-place)
I0403 15:01:55.378319  2570 net.cpp:141] Setting up inception_3a/relu_3x3
I0403 15:01:55.378346  2570 net.cpp:148] Top shape: 24 128 28 28 (2408448)
I0403 15:01:55.378362  2570 net.cpp:156] Memory required for data: 534676512
I0403 15:01:55.378377  2570 layer_factory.hpp:77] Creating layer inception_3a/5x5_reduce
I0403 15:01:55.378402  2570 net.cpp:91] Creating Layer inception_3a/5x5_reduce
I0403 15:01:55.378420  2570 net.cpp:425] inception_3a/5x5_reduce <- pool2/3x3_s2_pool2/3x3_s2_0_split_2
I0403 15:01:55.378443  2570 net.cpp:399] inception_3a/5x5_reduce -> inception_3a/5x5_reduce
I0403 15:01:55.379472  2570 net.cpp:141] Setting up inception_3a/5x5_reduce
I0403 15:01:55.379501  2570 net.cpp:148] Top shape: 24 16 28 28 (301056)
I0403 15:01:55.379518  2570 net.cpp:156] Memory required for data: 535880736
I0403 15:01:55.379539  2570 layer_factory.hpp:77] Creating layer inception_3a/relu_5x5_reduce
I0403 15:01:55.379560  2570 net.cpp:91] Creating Layer inception_3a/relu_5x5_reduce
I0403 15:01:55.379578  2570 net.cpp:425] inception_3a/relu_5x5_reduce <- inception_3a/5x5_reduce
I0403 15:01:55.379597  2570 net.cpp:386] inception_3a/relu_5x5_reduce -> inception_3a/5x5_reduce (in-place)
I0403 15:01:55.379909  2570 net.cpp:141] Setting up inception_3a/relu_5x5_reduce
I0403 15:01:55.379937  2570 net.cpp:148] Top shape: 24 16 28 28 (301056)
I0403 15:01:55.379952  2570 net.cpp:156] Memory required for data: 537084960
I0403 15:01:55.379968  2570 layer_factory.hpp:77] Creating layer inception_3a/5x5
I0403 15:01:55.379993  2570 net.cpp:91] Creating Layer inception_3a/5x5
I0403 15:01:55.380012  2570 net.cpp:425] inception_3a/5x5 <- inception_3a/5x5_reduce
I0403 15:01:55.380033  2570 net.cpp:399] inception_3a/5x5 -> inception_3a/5x5
I0403 15:01:55.381095  2570 net.cpp:141] Setting up inception_3a/5x5
I0403 15:01:55.381124  2570 net.cpp:148] Top shape: 24 32 28 28 (602112)
I0403 15:01:55.381140  2570 net.cpp:156] Memory required for data: 539493408
I0403 15:01:55.381161  2570 layer_factory.hpp:77] Creating layer inception_3a/relu_5x5
I0403 15:01:55.381186  2570 net.cpp:91] Creating Layer inception_3a/relu_5x5
I0403 15:01:55.381202  2570 net.cpp:425] inception_3a/relu_5x5 <- inception_3a/5x5
I0403 15:01:55.381224  2570 net.cpp:386] inception_3a/relu_5x5 -> inception_3a/5x5 (in-place)
I0403 15:01:55.381408  2570 net.cpp:141] Setting up inception_3a/relu_5x5
I0403 15:01:55.381435  2570 net.cpp:148] Top shape: 24 32 28 28 (602112)
I0403 15:01:55.381458  2570 net.cpp:156] Memory required for data: 541901856
I0403 15:01:55.381482  2570 layer_factory.hpp:77] Creating layer inception_3a/pool
I0403 15:01:55.381505  2570 net.cpp:91] Creating Layer inception_3a/pool
I0403 15:01:55.381536  2570 net.cpp:425] inception_3a/pool <- pool2/3x3_s2_pool2/3x3_s2_0_split_3
I0403 15:01:55.381556  2570 net.cpp:399] inception_3a/pool -> inception_3a/pool
I0403 15:01:55.381618  2570 net.cpp:141] Setting up inception_3a/pool
I0403 15:01:55.381644  2570 net.cpp:148] Top shape: 24 192 28 28 (3612672)
I0403 15:01:55.381659  2570 net.cpp:156] Memory required for data: 556352544
I0403 15:01:55.381676  2570 layer_factory.hpp:77] Creating layer inception_3a/pool_proj
I0403 15:01:55.381700  2570 net.cpp:91] Creating Layer inception_3a/pool_proj
I0403 15:01:55.381717  2570 net.cpp:425] inception_3a/pool_proj <- inception_3a/pool
I0403 15:01:55.381739  2570 net.cpp:399] inception_3a/pool_proj -> inception_3a/pool_proj
I0403 15:01:55.382761  2570 net.cpp:141] Setting up inception_3a/pool_proj
I0403 15:01:55.382792  2570 net.cpp:148] Top shape: 24 32 28 28 (602112)
I0403 15:01:55.382809  2570 net.cpp:156] Memory required for data: 558760992
I0403 15:01:55.382833  2570 layer_factory.hpp:77] Creating layer inception_3a/relu_pool_proj
I0403 15:01:55.382858  2570 net.cpp:91] Creating Layer inception_3a/relu_pool_proj
I0403 15:01:55.382875  2570 net.cpp:425] inception_3a/relu_pool_proj <- inception_3a/pool_proj
I0403 15:01:55.382894  2570 net.cpp:386] inception_3a/relu_pool_proj -> inception_3a/pool_proj (in-place)
I0403 15:01:55.383183  2570 net.cpp:141] Setting up inception_3a/relu_pool_proj
I0403 15:01:55.383213  2570 net.cpp:148] Top shape: 24 32 28 28 (602112)
I0403 15:01:55.383229  2570 net.cpp:156] Memory required for data: 561169440
I0403 15:01:55.383256  2570 layer_factory.hpp:77] Creating layer inception_3a/output
I0403 15:01:55.383278  2570 net.cpp:91] Creating Layer inception_3a/output
I0403 15:01:55.383294  2570 net.cpp:425] inception_3a/output <- inception_3a/1x1
I0403 15:01:55.383312  2570 net.cpp:425] inception_3a/output <- inception_3a/3x3
I0403 15:01:55.383330  2570 net.cpp:425] inception_3a/output <- inception_3a/5x5
I0403 15:01:55.383347  2570 net.cpp:425] inception_3a/output <- inception_3a/pool_proj
I0403 15:01:55.383368  2570 net.cpp:399] inception_3a/output -> inception_3a/output
I0403 15:01:55.383416  2570 net.cpp:141] Setting up inception_3a/output
I0403 15:01:55.383443  2570 net.cpp:148] Top shape: 24 256 28 28 (4816896)
I0403 15:01:55.383460  2570 net.cpp:156] Memory required for data: 580437024
I0403 15:01:55.383481  2570 layer_factory.hpp:77] Creating layer inception_3a/output_inception_3a/output_0_split
I0403 15:01:55.383499  2570 net.cpp:91] Creating Layer inception_3a/output_inception_3a/output_0_split
I0403 15:01:55.383517  2570 net.cpp:425] inception_3a/output_inception_3a/output_0_split <- inception_3a/output
I0403 15:01:55.383534  2570 net.cpp:399] inception_3a/output_inception_3a/output_0_split -> inception_3a/output_inception_3a/output_0_split_0
I0403 15:01:55.383555  2570 net.cpp:399] inception_3a/output_inception_3a/output_0_split -> inception_3a/output_inception_3a/output_0_split_1
I0403 15:01:55.383581  2570 net.cpp:399] inception_3a/output_inception_3a/output_0_split -> inception_3a/output_inception_3a/output_0_split_2
I0403 15:01:55.383605  2570 net.cpp:399] inception_3a/output_inception_3a/output_0_split -> inception_3a/output_inception_3a/output_0_split_3
I0403 15:01:55.383687  2570 net.cpp:141] Setting up inception_3a/output_inception_3a/output_0_split
I0403 15:01:55.383718  2570 net.cpp:148] Top shape: 24 256 28 28 (4816896)
I0403 15:01:55.383738  2570 net.cpp:148] Top shape: 24 256 28 28 (4816896)
I0403 15:01:55.383754  2570 net.cpp:148] Top shape: 24 256 28 28 (4816896)
I0403 15:01:55.383770  2570 net.cpp:148] Top shape: 24 256 28 28 (4816896)
I0403 15:01:55.383785  2570 net.cpp:156] Memory required for data: 657507360
I0403 15:01:55.383801  2570 layer_factory.hpp:77] Creating layer inception_3b/1x1
I0403 15:01:55.383826  2570 net.cpp:91] Creating Layer inception_3b/1x1
I0403 15:01:55.383846  2570 net.cpp:425] inception_3b/1x1 <- inception_3a/output_inception_3a/output_0_split_0
I0403 15:01:55.383868  2570 net.cpp:399] inception_3b/1x1 -> inception_3b/1x1
I0403 15:01:55.385072  2570 net.cpp:141] Setting up inception_3b/1x1
I0403 15:01:55.385116  2570 net.cpp:148] Top shape: 24 128 28 28 (2408448)
I0403 15:01:55.385133  2570 net.cpp:156] Memory required for data: 667141152
I0403 15:01:55.385154  2570 layer_factory.hpp:77] Creating layer inception_3b/relu_1x1
I0403 15:01:55.385172  2570 net.cpp:91] Creating Layer inception_3b/relu_1x1
I0403 15:01:55.385190  2570 net.cpp:425] inception_3b/relu_1x1 <- inception_3b/1x1
I0403 15:01:55.385211  2570 net.cpp:386] inception_3b/relu_1x1 -> inception_3b/1x1 (in-place)
I0403 15:01:55.385401  2570 net.cpp:141] Setting up inception_3b/relu_1x1
I0403 15:01:55.385426  2570 net.cpp:148] Top shape: 24 128 28 28 (2408448)
I0403 15:01:55.385442  2570 net.cpp:156] Memory required for data: 676774944
I0403 15:01:55.385458  2570 layer_factory.hpp:77] Creating layer inception_3b/3x3_reduce
I0403 15:01:55.385483  2570 net.cpp:91] Creating Layer inception_3b/3x3_reduce
I0403 15:01:55.385500  2570 net.cpp:425] inception_3b/3x3_reduce <- inception_3a/output_inception_3a/output_0_split_1
I0403 15:01:55.385522  2570 net.cpp:399] inception_3b/3x3_reduce -> inception_3b/3x3_reduce
I0403 15:01:55.386715  2570 net.cpp:141] Setting up inception_3b/3x3_reduce
I0403 15:01:55.386746  2570 net.cpp:148] Top shape: 24 128 28 28 (2408448)
I0403 15:01:55.386764  2570 net.cpp:156] Memory required for data: 686408736
I0403 15:01:55.386783  2570 layer_factory.hpp:77] Creating layer inception_3b/relu_3x3_reduce
I0403 15:01:55.386802  2570 net.cpp:91] Creating Layer inception_3b/relu_3x3_reduce
I0403 15:01:55.386818  2570 net.cpp:425] inception_3b/relu_3x3_reduce <- inception_3b/3x3_reduce
I0403 15:01:55.386837  2570 net.cpp:386] inception_3b/relu_3x3_reduce -> inception_3b/3x3_reduce (in-place)
I0403 15:01:55.387022  2570 net.cpp:141] Setting up inception_3b/relu_3x3_reduce
I0403 15:01:55.387048  2570 net.cpp:148] Top shape: 24 128 28 28 (2408448)
I0403 15:01:55.387063  2570 net.cpp:156] Memory required for data: 696042528
I0403 15:01:55.387079  2570 layer_factory.hpp:77] Creating layer inception_3b/3x3
I0403 15:01:55.387105  2570 net.cpp:91] Creating Layer inception_3b/3x3
I0403 15:01:55.387123  2570 net.cpp:425] inception_3b/3x3 <- inception_3b/3x3_reduce
I0403 15:01:55.387145  2570 net.cpp:399] inception_3b/3x3 -> inception_3b/3x3
I0403 15:01:55.390200  2570 net.cpp:141] Setting up inception_3b/3x3
I0403 15:01:55.390230  2570 net.cpp:148] Top shape: 24 192 28 28 (3612672)
I0403 15:01:55.390251  2570 net.cpp:156] Memory required for data: 710493216
I0403 15:01:55.390270  2570 layer_factory.hpp:77] Creating layer inception_3b/relu_3x3
I0403 15:01:55.390290  2570 net.cpp:91] Creating Layer inception_3b/relu_3x3
I0403 15:01:55.390305  2570 net.cpp:425] inception_3b/relu_3x3 <- inception_3b/3x3
I0403 15:01:55.390326  2570 net.cpp:386] inception_3b/relu_3x3 -> inception_3b/3x3 (in-place)
I0403 15:01:55.390605  2570 net.cpp:141] Setting up inception_3b/relu_3x3
I0403 15:01:55.390632  2570 net.cpp:148] Top shape: 24 192 28 28 (3612672)
I0403 15:01:55.390648  2570 net.cpp:156] Memory required for data: 724943904
I0403 15:01:55.390663  2570 layer_factory.hpp:77] Creating layer inception_3b/5x5_reduce
I0403 15:01:55.390686  2570 net.cpp:91] Creating Layer inception_3b/5x5_reduce
I0403 15:01:55.390704  2570 net.cpp:425] inception_3b/5x5_reduce <- inception_3a/output_inception_3a/output_0_split_2
I0403 15:01:55.390727  2570 net.cpp:399] inception_3b/5x5_reduce -> inception_3b/5x5_reduce
I0403 15:01:55.391741  2570 net.cpp:141] Setting up inception_3b/5x5_reduce
I0403 15:01:55.391770  2570 net.cpp:148] Top shape: 24 32 28 28 (602112)
I0403 15:01:55.391785  2570 net.cpp:156] Memory required for data: 727352352
I0403 15:01:55.391804  2570 layer_factory.hpp:77] Creating layer inception_3b/relu_5x5_reduce
I0403 15:01:55.391824  2570 net.cpp:91] Creating Layer inception_3b/relu_5x5_reduce
I0403 15:01:55.391839  2570 net.cpp:425] inception_3b/relu_5x5_reduce <- inception_3b/5x5_reduce
I0403 15:01:55.391861  2570 net.cpp:386] inception_3b/relu_5x5_reduce -> inception_3b/5x5_reduce (in-place)
I0403 15:01:55.392056  2570 net.cpp:141] Setting up inception_3b/relu_5x5_reduce
I0403 15:01:55.392081  2570 net.cpp:148] Top shape: 24 32 28 28 (602112)
I0403 15:01:55.392096  2570 net.cpp:156] Memory required for data: 729760800
I0403 15:01:55.392112  2570 layer_factory.hpp:77] Creating layer inception_3b/5x5
I0403 15:01:55.392135  2570 net.cpp:91] Creating Layer inception_3b/5x5
I0403 15:01:55.392153  2570 net.cpp:425] inception_3b/5x5 <- inception_3b/5x5_reduce
I0403 15:01:55.392174  2570 net.cpp:399] inception_3b/5x5 -> inception_3b/5x5
I0403 15:01:55.394212  2570 net.cpp:141] Setting up inception_3b/5x5
I0403 15:01:55.394246  2570 net.cpp:148] Top shape: 24 96 28 28 (1806336)
I0403 15:01:55.394264  2570 net.cpp:156] Memory required for data: 736986144
I0403 15:01:55.394284  2570 layer_factory.hpp:77] Creating layer inception_3b/relu_5x5
I0403 15:01:55.394301  2570 net.cpp:91] Creating Layer inception_3b/relu_5x5
I0403 15:01:55.394317  2570 net.cpp:425] inception_3b/relu_5x5 <- inception_3b/5x5
I0403 15:01:55.394335  2570 net.cpp:386] inception_3b/relu_5x5 -> inception_3b/5x5 (in-place)
I0403 15:01:55.394541  2570 net.cpp:141] Setting up inception_3b/relu_5x5
I0403 15:01:55.394567  2570 net.cpp:148] Top shape: 24 96 28 28 (1806336)
I0403 15:01:55.394582  2570 net.cpp:156] Memory required for data: 744211488
I0403 15:01:55.394598  2570 layer_factory.hpp:77] Creating layer inception_3b/pool
I0403 15:01:55.394616  2570 net.cpp:91] Creating Layer inception_3b/pool
I0403 15:01:55.394632  2570 net.cpp:425] inception_3b/pool <- inception_3a/output_inception_3a/output_0_split_3
I0403 15:01:55.394651  2570 net.cpp:399] inception_3b/pool -> inception_3b/pool
I0403 15:01:55.394709  2570 net.cpp:141] Setting up inception_3b/pool
I0403 15:01:55.394734  2570 net.cpp:148] Top shape: 24 256 28 28 (4816896)
I0403 15:01:55.394750  2570 net.cpp:156] Memory required for data: 763479072
I0403 15:01:55.394765  2570 layer_factory.hpp:77] Creating layer inception_3b/pool_proj
I0403 15:01:55.394788  2570 net.cpp:91] Creating Layer inception_3b/pool_proj
I0403 15:01:55.394805  2570 net.cpp:425] inception_3b/pool_proj <- inception_3b/pool
I0403 15:01:55.394825  2570 net.cpp:399] inception_3b/pool_proj -> inception_3b/pool_proj
I0403 15:01:55.395901  2570 net.cpp:141] Setting up inception_3b/pool_proj
I0403 15:01:55.395931  2570 net.cpp:148] Top shape: 24 64 28 28 (1204224)
I0403 15:01:55.395946  2570 net.cpp:156] Memory required for data: 768295968
I0403 15:01:55.395966  2570 layer_factory.hpp:77] Creating layer inception_3b/relu_pool_proj
I0403 15:01:55.395987  2570 net.cpp:91] Creating Layer inception_3b/relu_pool_proj
I0403 15:01:55.396004  2570 net.cpp:425] inception_3b/relu_pool_proj <- inception_3b/pool_proj
I0403 15:01:55.396023  2570 net.cpp:386] inception_3b/relu_pool_proj -> inception_3b/pool_proj (in-place)
I0403 15:01:55.396428  2570 net.cpp:141] Setting up inception_3b/relu_pool_proj
I0403 15:01:55.396456  2570 net.cpp:148] Top shape: 24 64 28 28 (1204224)
I0403 15:01:55.396471  2570 net.cpp:156] Memory required for data: 773112864
I0403 15:01:55.396486  2570 layer_factory.hpp:77] Creating layer inception_3b/output
I0403 15:01:55.396504  2570 net.cpp:91] Creating Layer inception_3b/output
I0403 15:01:55.396520  2570 net.cpp:425] inception_3b/output <- inception_3b/1x1
I0403 15:01:55.396538  2570 net.cpp:425] inception_3b/output <- inception_3b/3x3
I0403 15:01:55.396554  2570 net.cpp:425] inception_3b/output <- inception_3b/5x5
I0403 15:01:55.396570  2570 net.cpp:425] inception_3b/output <- inception_3b/pool_proj
I0403 15:01:55.396589  2570 net.cpp:399] inception_3b/output -> inception_3b/output
I0403 15:01:55.396636  2570 net.cpp:141] Setting up inception_3b/output
I0403 15:01:55.396659  2570 net.cpp:148] Top shape: 24 480 28 28 (9031680)
I0403 15:01:55.396674  2570 net.cpp:156] Memory required for data: 809239584
I0403 15:01:55.396690  2570 layer_factory.hpp:77] Creating layer pool3/3x3_s2
I0403 15:01:55.396708  2570 net.cpp:91] Creating Layer pool3/3x3_s2
I0403 15:01:55.396723  2570 net.cpp:425] pool3/3x3_s2 <- inception_3b/output
I0403 15:01:55.396759  2570 net.cpp:399] pool3/3x3_s2 -> pool3/3x3_s2
I0403 15:01:55.396821  2570 net.cpp:141] Setting up pool3/3x3_s2
I0403 15:01:55.396845  2570 net.cpp:148] Top shape: 24 480 14 14 (2257920)
I0403 15:01:55.396862  2570 net.cpp:156] Memory required for data: 818271264
I0403 15:01:55.396877  2570 layer_factory.hpp:77] Creating layer pool3/3x3_s2_pool3/3x3_s2_0_split
I0403 15:01:55.396896  2570 net.cpp:91] Creating Layer pool3/3x3_s2_pool3/3x3_s2_0_split
I0403 15:01:55.396913  2570 net.cpp:425] pool3/3x3_s2_pool3/3x3_s2_0_split <- pool3/3x3_s2
I0403 15:01:55.396930  2570 net.cpp:399] pool3/3x3_s2_pool3/3x3_s2_0_split -> pool3/3x3_s2_pool3/3x3_s2_0_split_0
I0403 15:01:55.396950  2570 net.cpp:399] pool3/3x3_s2_pool3/3x3_s2_0_split -> pool3/3x3_s2_pool3/3x3_s2_0_split_1
I0403 15:01:55.396973  2570 net.cpp:399] pool3/3x3_s2_pool3/3x3_s2_0_split -> pool3/3x3_s2_pool3/3x3_s2_0_split_2
I0403 15:01:55.396993  2570 net.cpp:399] pool3/3x3_s2_pool3/3x3_s2_0_split -> pool3/3x3_s2_pool3/3x3_s2_0_split_3
I0403 15:01:55.397071  2570 net.cpp:141] Setting up pool3/3x3_s2_pool3/3x3_s2_0_split
I0403 15:01:55.397095  2570 net.cpp:148] Top shape: 24 480 14 14 (2257920)
I0403 15:01:55.397111  2570 net.cpp:148] Top shape: 24 480 14 14 (2257920)
I0403 15:01:55.397128  2570 net.cpp:148] Top shape: 24 480 14 14 (2257920)
I0403 15:01:55.397145  2570 net.cpp:148] Top shape: 24 480 14 14 (2257920)
I0403 15:01:55.397159  2570 net.cpp:156] Memory required for data: 854397984
I0403 15:01:55.397173  2570 layer_factory.hpp:77] Creating layer inception_4a/1x1
I0403 15:01:55.397197  2570 net.cpp:91] Creating Layer inception_4a/1x1
I0403 15:01:55.397214  2570 net.cpp:425] inception_4a/1x1 <- pool3/3x3_s2_pool3/3x3_s2_0_split_0
I0403 15:01:55.397243  2570 net.cpp:399] inception_4a/1x1 -> inception_4a/1x1
I0403 15:01:55.398851  2570 net.cpp:141] Setting up inception_4a/1x1
I0403 15:01:55.398880  2570 net.cpp:148] Top shape: 24 192 14 14 (903168)
I0403 15:01:55.398895  2570 net.cpp:156] Memory required for data: 858010656
I0403 15:01:55.398913  2570 layer_factory.hpp:77] Creating layer inception_4a/relu_1x1
I0403 15:01:55.398937  2570 net.cpp:91] Creating Layer inception_4a/relu_1x1
I0403 15:01:55.398954  2570 net.cpp:425] inception_4a/relu_1x1 <- inception_4a/1x1
I0403 15:01:55.398972  2570 net.cpp:386] inception_4a/relu_1x1 -> inception_4a/1x1 (in-place)
I0403 15:01:55.399153  2570 net.cpp:141] Setting up inception_4a/relu_1x1
I0403 15:01:55.399180  2570 net.cpp:148] Top shape: 24 192 14 14 (903168)
I0403 15:01:55.399196  2570 net.cpp:156] Memory required for data: 861623328
I0403 15:01:55.399211  2570 layer_factory.hpp:77] Creating layer inception_4a/3x3_reduce
I0403 15:01:55.399233  2570 net.cpp:91] Creating Layer inception_4a/3x3_reduce
I0403 15:01:55.399255  2570 net.cpp:425] inception_4a/3x3_reduce <- pool3/3x3_s2_pool3/3x3_s2_0_split_1
I0403 15:01:55.399276  2570 net.cpp:399] inception_4a/3x3_reduce -> inception_4a/3x3_reduce
I0403 15:01:55.400588  2570 net.cpp:141] Setting up inception_4a/3x3_reduce
I0403 15:01:55.400615  2570 net.cpp:148] Top shape: 24 96 14 14 (451584)
I0403 15:01:55.400631  2570 net.cpp:156] Memory required for data: 863429664
I0403 15:01:55.400657  2570 layer_factory.hpp:77] Creating layer inception_4a/relu_3x3_reduce
I0403 15:01:55.400679  2570 net.cpp:91] Creating Layer inception_4a/relu_3x3_reduce
I0403 15:01:55.400696  2570 net.cpp:425] inception_4a/relu_3x3_reduce <- inception_4a/3x3_reduce
I0403 15:01:55.400715  2570 net.cpp:386] inception_4a/relu_3x3_reduce -> inception_4a/3x3_reduce (in-place)
I0403 15:01:55.400892  2570 net.cpp:141] Setting up inception_4a/relu_3x3_reduce
I0403 15:01:55.400919  2570 net.cpp:148] Top shape: 24 96 14 14 (451584)
I0403 15:01:55.400935  2570 net.cpp:156] Memory required for data: 865236000
I0403 15:01:55.400950  2570 layer_factory.hpp:77] Creating layer inception_4a/3x3
I0403 15:01:55.400972  2570 net.cpp:91] Creating Layer inception_4a/3x3
I0403 15:01:55.400990  2570 net.cpp:425] inception_4a/3x3 <- inception_4a/3x3_reduce
I0403 15:01:55.401008  2570 net.cpp:399] inception_4a/3x3 -> inception_4a/3x3
I0403 15:01:55.403771  2570 net.cpp:141] Setting up inception_4a/3x3
I0403 15:01:55.403803  2570 net.cpp:148] Top shape: 24 208 14 14 (978432)
I0403 15:01:55.403820  2570 net.cpp:156] Memory required for data: 869149728
I0403 15:01:55.403839  2570 layer_factory.hpp:77] Creating layer inception_4a/relu_3x3
I0403 15:01:55.403857  2570 net.cpp:91] Creating Layer inception_4a/relu_3x3
I0403 15:01:55.403874  2570 net.cpp:425] inception_4a/relu_3x3 <- inception_4a/3x3
I0403 15:01:55.403892  2570 net.cpp:386] inception_4a/relu_3x3 -> inception_4a/3x3 (in-place)
I0403 15:01:55.404180  2570 net.cpp:141] Setting up inception_4a/relu_3x3
I0403 15:01:55.404208  2570 net.cpp:148] Top shape: 24 208 14 14 (978432)
I0403 15:01:55.404224  2570 net.cpp:156] Memory required for data: 873063456
I0403 15:01:55.404243  2570 layer_factory.hpp:77] Creating layer inception_4a/5x5_reduce
I0403 15:01:55.404268  2570 net.cpp:91] Creating Layer inception_4a/5x5_reduce
I0403 15:01:55.404286  2570 net.cpp:425] inception_4a/5x5_reduce <- pool3/3x3_s2_pool3/3x3_s2_0_split_2
I0403 15:01:55.404305  2570 net.cpp:399] inception_4a/5x5_reduce -> inception_4a/5x5_reduce
I0403 15:01:55.405359  2570 net.cpp:141] Setting up inception_4a/5x5_reduce
I0403 15:01:55.405386  2570 net.cpp:148] Top shape: 24 16 14 14 (75264)
I0403 15:01:55.405402  2570 net.cpp:156] Memory required for data: 873364512
I0403 15:01:55.405422  2570 layer_factory.hpp:77] Creating layer inception_4a/relu_5x5_reduce
I0403 15:01:55.405441  2570 net.cpp:91] Creating Layer inception_4a/relu_5x5_reduce
I0403 15:01:55.405458  2570 net.cpp:425] inception_4a/relu_5x5_reduce <- inception_4a/5x5_reduce
I0403 15:01:55.405478  2570 net.cpp:386] inception_4a/relu_5x5_reduce -> inception_4a/5x5_reduce (in-place)
I0403 15:01:55.405663  2570 net.cpp:141] Setting up inception_4a/relu_5x5_reduce
I0403 15:01:55.405688  2570 net.cpp:148] Top shape: 24 16 14 14 (75264)
I0403 15:01:55.405702  2570 net.cpp:156] Memory required for data: 873665568
I0403 15:01:55.405717  2570 layer_factory.hpp:77] Creating layer inception_4a/5x5
I0403 15:01:55.405740  2570 net.cpp:91] Creating Layer inception_4a/5x5
I0403 15:01:55.405757  2570 net.cpp:425] inception_4a/5x5 <- inception_4a/5x5_reduce
I0403 15:01:55.405781  2570 net.cpp:399] inception_4a/5x5 -> inception_4a/5x5
I0403 15:01:55.406931  2570 net.cpp:141] Setting up inception_4a/5x5
I0403 15:01:55.406961  2570 net.cpp:148] Top shape: 24 48 14 14 (225792)
I0403 15:01:55.406977  2570 net.cpp:156] Memory required for data: 874568736
I0403 15:01:55.406996  2570 layer_factory.hpp:77] Creating layer inception_4a/relu_5x5
I0403 15:01:55.407018  2570 net.cpp:91] Creating Layer inception_4a/relu_5x5
I0403 15:01:55.407037  2570 net.cpp:425] inception_4a/relu_5x5 <- inception_4a/5x5
I0403 15:01:55.407054  2570 net.cpp:386] inception_4a/relu_5x5 -> inception_4a/5x5 (in-place)
I0403 15:01:55.407249  2570 net.cpp:141] Setting up inception_4a/relu_5x5
I0403 15:01:55.407277  2570 net.cpp:148] Top shape: 24 48 14 14 (225792)
I0403 15:01:55.407294  2570 net.cpp:156] Memory required for data: 875471904
I0403 15:01:55.407310  2570 layer_factory.hpp:77] Creating layer inception_4a/pool
I0403 15:01:55.407328  2570 net.cpp:91] Creating Layer inception_4a/pool
I0403 15:01:55.407346  2570 net.cpp:425] inception_4a/pool <- pool3/3x3_s2_pool3/3x3_s2_0_split_3
I0403 15:01:55.407364  2570 net.cpp:399] inception_4a/pool -> inception_4a/pool
I0403 15:01:55.407430  2570 net.cpp:141] Setting up inception_4a/pool
I0403 15:01:55.407455  2570 net.cpp:148] Top shape: 24 480 14 14 (2257920)
I0403 15:01:55.407470  2570 net.cpp:156] Memory required for data: 884503584
I0403 15:01:55.407485  2570 layer_factory.hpp:77] Creating layer inception_4a/pool_proj
I0403 15:01:55.407515  2570 net.cpp:91] Creating Layer inception_4a/pool_proj
I0403 15:01:55.407532  2570 net.cpp:425] inception_4a/pool_proj <- inception_4a/pool
I0403 15:01:55.407553  2570 net.cpp:399] inception_4a/pool_proj -> inception_4a/pool_proj
I0403 15:01:55.408792  2570 net.cpp:141] Setting up inception_4a/pool_proj
I0403 15:01:55.408823  2570 net.cpp:148] Top shape: 24 64 14 14 (301056)
I0403 15:01:55.408854  2570 net.cpp:156] Memory required for data: 885707808
I0403 15:01:55.408875  2570 layer_factory.hpp:77] Creating layer inception_4a/relu_pool_proj
I0403 15:01:55.408898  2570 net.cpp:91] Creating Layer inception_4a/relu_pool_proj
I0403 15:01:55.408916  2570 net.cpp:425] inception_4a/relu_pool_proj <- inception_4a/pool_proj
I0403 15:01:55.408936  2570 net.cpp:386] inception_4a/relu_pool_proj -> inception_4a/pool_proj (in-place)
I0403 15:01:55.409232  2570 net.cpp:141] Setting up inception_4a/relu_pool_proj
I0403 15:01:55.409263  2570 net.cpp:148] Top shape: 24 64 14 14 (301056)
I0403 15:01:55.409281  2570 net.cpp:156] Memory required for data: 886912032
I0403 15:01:55.409296  2570 layer_factory.hpp:77] Creating layer inception_4a/output
I0403 15:01:55.409317  2570 net.cpp:91] Creating Layer inception_4a/output
I0403 15:01:55.409335  2570 net.cpp:425] inception_4a/output <- inception_4a/1x1
I0403 15:01:55.409353  2570 net.cpp:425] inception_4a/output <- inception_4a/3x3
I0403 15:01:55.409370  2570 net.cpp:425] inception_4a/output <- inception_4a/5x5
I0403 15:01:55.409387  2570 net.cpp:425] inception_4a/output <- inception_4a/pool_proj
I0403 15:01:55.409405  2570 net.cpp:399] inception_4a/output -> inception_4a/output
I0403 15:01:55.409457  2570 net.cpp:141] Setting up inception_4a/output
I0403 15:01:55.409482  2570 net.cpp:148] Top shape: 24 512 14 14 (2408448)
I0403 15:01:55.409497  2570 net.cpp:156] Memory required for data: 896545824
I0403 15:01:55.409512  2570 layer_factory.hpp:77] Creating layer inception_4a/output_inception_4a/output_0_split
I0403 15:01:55.409529  2570 net.cpp:91] Creating Layer inception_4a/output_inception_4a/output_0_split
I0403 15:01:55.409546  2570 net.cpp:425] inception_4a/output_inception_4a/output_0_split <- inception_4a/output
I0403 15:01:55.409569  2570 net.cpp:399] inception_4a/output_inception_4a/output_0_split -> inception_4a/output_inception_4a/output_0_split_0
I0403 15:01:55.409591  2570 net.cpp:399] inception_4a/output_inception_4a/output_0_split -> inception_4a/output_inception_4a/output_0_split_1
I0403 15:01:55.409613  2570 net.cpp:399] inception_4a/output_inception_4a/output_0_split -> inception_4a/output_inception_4a/output_0_split_2
I0403 15:01:55.409636  2570 net.cpp:399] inception_4a/output_inception_4a/output_0_split -> inception_4a/output_inception_4a/output_0_split_3
I0403 15:01:55.409657  2570 net.cpp:399] inception_4a/output_inception_4a/output_0_split -> inception_4a/output_inception_4a/output_0_split_4
I0403 15:01:55.409757  2570 net.cpp:141] Setting up inception_4a/output_inception_4a/output_0_split
I0403 15:01:55.409782  2570 net.cpp:148] Top shape: 24 512 14 14 (2408448)
I0403 15:01:55.409800  2570 net.cpp:148] Top shape: 24 512 14 14 (2408448)
I0403 15:01:55.409816  2570 net.cpp:148] Top shape: 24 512 14 14 (2408448)
I0403 15:01:55.409832  2570 net.cpp:148] Top shape: 24 512 14 14 (2408448)
I0403 15:01:55.409849  2570 net.cpp:148] Top shape: 24 512 14 14 (2408448)
I0403 15:01:55.409864  2570 net.cpp:156] Memory required for data: 944714784
I0403 15:01:55.409879  2570 layer_factory.hpp:77] Creating layer loss1/ave_pool
I0403 15:01:55.409898  2570 net.cpp:91] Creating Layer loss1/ave_pool
I0403 15:01:55.409915  2570 net.cpp:425] loss1/ave_pool <- inception_4a/output_inception_4a/output_0_split_0
I0403 15:01:55.409936  2570 net.cpp:399] loss1/ave_pool -> loss1/ave_pool
I0403 15:01:55.410157  2570 net.cpp:141] Setting up loss1/ave_pool
I0403 15:01:55.410184  2570 net.cpp:148] Top shape: 24 512 4 4 (196608)
I0403 15:01:55.410199  2570 net.cpp:156] Memory required for data: 945501216
I0403 15:01:55.410215  2570 layer_factory.hpp:77] Creating layer loss1/conv
I0403 15:01:55.410243  2570 net.cpp:91] Creating Layer loss1/conv
I0403 15:01:55.410264  2570 net.cpp:425] loss1/conv <- loss1/ave_pool
I0403 15:01:55.410287  2570 net.cpp:399] loss1/conv -> loss1/conv
I0403 15:01:55.411783  2570 net.cpp:141] Setting up loss1/conv
I0403 15:01:55.411815  2570 net.cpp:148] Top shape: 24 128 4 4 (49152)
I0403 15:01:55.411846  2570 net.cpp:156] Memory required for data: 945697824
I0403 15:01:55.411867  2570 layer_factory.hpp:77] Creating layer loss1/relu_conv
I0403 15:01:55.411887  2570 net.cpp:91] Creating Layer loss1/relu_conv
I0403 15:01:55.411905  2570 net.cpp:425] loss1/relu_conv <- loss1/conv
I0403 15:01:55.411926  2570 net.cpp:386] loss1/relu_conv -> loss1/conv (in-place)
I0403 15:01:55.412228  2570 net.cpp:141] Setting up loss1/relu_conv
I0403 15:01:55.412271  2570 net.cpp:148] Top shape: 24 128 4 4 (49152)
I0403 15:01:55.412291  2570 net.cpp:156] Memory required for data: 945894432
I0403 15:01:55.412307  2570 layer_factory.hpp:77] Creating layer loss1/fc
I0403 15:01:55.412331  2570 net.cpp:91] Creating Layer loss1/fc
I0403 15:01:55.412350  2570 net.cpp:425] loss1/fc <- loss1/conv
I0403 15:01:55.412372  2570 net.cpp:399] loss1/fc -> loss1/fc
I0403 15:01:55.430932  2570 net.cpp:141] Setting up loss1/fc
I0403 15:01:55.430968  2570 net.cpp:148] Top shape: 24 1024 (24576)
I0403 15:01:55.430984  2570 net.cpp:156] Memory required for data: 945992736
I0403 15:01:55.431001  2570 layer_factory.hpp:77] Creating layer loss1/relu_fc
I0403 15:01:55.431020  2570 net.cpp:91] Creating Layer loss1/relu_fc
I0403 15:01:55.431035  2570 net.cpp:425] loss1/relu_fc <- loss1/fc
I0403 15:01:55.431051  2570 net.cpp:386] loss1/relu_fc -> loss1/fc (in-place)
I0403 15:01:55.431233  2570 net.cpp:141] Setting up loss1/relu_fc
I0403 15:01:55.431262  2570 net.cpp:148] Top shape: 24 1024 (24576)
I0403 15:01:55.431278  2570 net.cpp:156] Memory required for data: 946091040
I0403 15:01:55.431293  2570 layer_factory.hpp:77] Creating layer loss1/drop_fc
I0403 15:01:55.431319  2570 net.cpp:91] Creating Layer loss1/drop_fc
I0403 15:01:55.431336  2570 net.cpp:425] loss1/drop_fc <- loss1/fc
I0403 15:01:55.431354  2570 net.cpp:386] loss1/drop_fc -> loss1/fc (in-place)
I0403 15:01:55.431404  2570 net.cpp:141] Setting up loss1/drop_fc
I0403 15:01:55.431427  2570 net.cpp:148] Top shape: 24 1024 (24576)
I0403 15:01:55.431442  2570 net.cpp:156] Memory required for data: 946189344
I0403 15:01:55.431457  2570 layer_factory.hpp:77] Creating layer loss1/classifier_plantvillage
I0403 15:01:55.431478  2570 net.cpp:91] Creating Layer loss1/classifier_plantvillage
I0403 15:01:55.431493  2570 net.cpp:425] loss1/classifier_plantvillage <- loss1/fc
I0403 15:01:55.431511  2570 net.cpp:399] loss1/classifier_plantvillage -> loss1/classifier_plantvillage
I0403 15:01:55.432502  2570 net.cpp:141] Setting up loss1/classifier_plantvillage
I0403 15:01:55.432541  2570 net.cpp:148] Top shape: 24 38 (912)
I0403 15:01:55.432557  2570 net.cpp:156] Memory required for data: 946192992
I0403 15:01:55.432575  2570 layer_factory.hpp:77] Creating layer loss1/classifier_plantvillage_loss1/classifier_plantvillage_0_split
I0403 15:01:55.432593  2570 net.cpp:91] Creating Layer loss1/classifier_plantvillage_loss1/classifier_plantvillage_0_split
I0403 15:01:55.432610  2570 net.cpp:425] loss1/classifier_plantvillage_loss1/classifier_plantvillage_0_split <- loss1/classifier_plantvillage
I0403 15:01:55.432627  2570 net.cpp:399] loss1/classifier_plantvillage_loss1/classifier_plantvillage_0_split -> loss1/classifier_plantvillage_loss1/classifier_plantvillage_0_split_0
I0403 15:01:55.432646  2570 net.cpp:399] loss1/classifier_plantvillage_loss1/classifier_plantvillage_0_split -> loss1/classifier_plantvillage_loss1/classifier_plantvillage_0_split_1
I0403 15:01:55.432669  2570 net.cpp:399] loss1/classifier_plantvillage_loss1/classifier_plantvillage_0_split -> loss1/classifier_plantvillage_loss1/classifier_plantvillage_0_split_2
I0403 15:01:55.432734  2570 net.cpp:141] Setting up loss1/classifier_plantvillage_loss1/classifier_plantvillage_0_split
I0403 15:01:55.432757  2570 net.cpp:148] Top shape: 24 38 (912)
I0403 15:01:55.432773  2570 net.cpp:148] Top shape: 24 38 (912)
I0403 15:01:55.432788  2570 net.cpp:148] Top shape: 24 38 (912)
I0403 15:01:55.432802  2570 net.cpp:156] Memory required for data: 946203936
I0403 15:01:55.432816  2570 layer_factory.hpp:77] Creating layer inception_4b/1x1
I0403 15:01:55.432837  2570 net.cpp:91] Creating Layer inception_4b/1x1
I0403 15:01:55.432869  2570 net.cpp:425] inception_4b/1x1 <- inception_4a/output_inception_4a/output_0_split_1
I0403 15:01:55.432893  2570 net.cpp:399] inception_4b/1x1 -> inception_4b/1x1
I0403 15:01:55.434558  2570 net.cpp:141] Setting up inception_4b/1x1
I0403 15:01:55.434587  2570 net.cpp:148] Top shape: 24 160 14 14 (752640)
I0403 15:01:55.434600  2570 net.cpp:156] Memory required for data: 949214496
I0403 15:01:55.434618  2570 layer_factory.hpp:77] Creating layer inception_4b/relu_1x1
I0403 15:01:55.434636  2570 net.cpp:91] Creating Layer inception_4b/relu_1x1
I0403 15:01:55.434653  2570 net.cpp:425] inception_4b/relu_1x1 <- inception_4b/1x1
I0403 15:01:55.434672  2570 net.cpp:386] inception_4b/relu_1x1 -> inception_4b/1x1 (in-place)
I0403 15:01:55.434846  2570 net.cpp:141] Setting up inception_4b/relu_1x1
I0403 15:01:55.434870  2570 net.cpp:148] Top shape: 24 160 14 14 (752640)
I0403 15:01:55.434885  2570 net.cpp:156] Memory required for data: 952225056
I0403 15:01:55.434898  2570 layer_factory.hpp:77] Creating layer inception_4b/3x3_reduce
I0403 15:01:55.434921  2570 net.cpp:91] Creating Layer inception_4b/3x3_reduce
I0403 15:01:55.434937  2570 net.cpp:425] inception_4b/3x3_reduce <- inception_4a/output_inception_4a/output_0_split_2
I0403 15:01:55.434957  2570 net.cpp:399] inception_4b/3x3_reduce -> inception_4b/3x3_reduce
I0403 15:01:55.436293  2570 net.cpp:141] Setting up inception_4b/3x3_reduce
I0403 15:01:55.436321  2570 net.cpp:148] Top shape: 24 112 14 14 (526848)
I0403 15:01:55.436336  2570 net.cpp:156] Memory required for data: 954332448
I0403 15:01:55.436354  2570 layer_factory.hpp:77] Creating layer inception_4b/relu_3x3_reduce
I0403 15:01:55.436374  2570 net.cpp:91] Creating Layer inception_4b/relu_3x3_reduce
I0403 15:01:55.436393  2570 net.cpp:425] inception_4b/relu_3x3_reduce <- inception_4b/3x3_reduce
I0403 15:01:55.436409  2570 net.cpp:386] inception_4b/relu_3x3_reduce -> inception_4b/3x3_reduce (in-place)
I0403 15:01:55.436692  2570 net.cpp:141] Setting up inception_4b/relu_3x3_reduce
I0403 15:01:55.436718  2570 net.cpp:148] Top shape: 24 112 14 14 (526848)
I0403 15:01:55.436733  2570 net.cpp:156] Memory required for data: 956439840
I0403 15:01:55.436749  2570 layer_factory.hpp:77] Creating layer inception_4b/3x3
I0403 15:01:55.436772  2570 net.cpp:91] Creating Layer inception_4b/3x3
I0403 15:01:55.436789  2570 net.cpp:425] inception_4b/3x3 <- inception_4b/3x3_reduce
I0403 15:01:55.436812  2570 net.cpp:399] inception_4b/3x3 -> inception_4b/3x3
I0403 15:01:55.439796  2570 net.cpp:141] Setting up inception_4b/3x3
I0403 15:01:55.439826  2570 net.cpp:148] Top shape: 24 224 14 14 (1053696)
I0403 15:01:55.439844  2570 net.cpp:156] Memory required for data: 960654624
I0403 15:01:55.439863  2570 layer_factory.hpp:77] Creating layer inception_4b/relu_3x3
I0403 15:01:55.439882  2570 net.cpp:91] Creating Layer inception_4b/relu_3x3
I0403 15:01:55.439898  2570 net.cpp:425] inception_4b/relu_3x3 <- inception_4b/3x3
I0403 15:01:55.439915  2570 net.cpp:386] inception_4b/relu_3x3 -> inception_4b/3x3 (in-place)
I0403 15:01:55.440099  2570 net.cpp:141] Setting up inception_4b/relu_3x3
I0403 15:01:55.440126  2570 net.cpp:148] Top shape: 24 224 14 14 (1053696)
I0403 15:01:55.440142  2570 net.cpp:156] Memory required for data: 964869408
I0403 15:01:55.440157  2570 layer_factory.hpp:77] Creating layer inception_4b/5x5_reduce
I0403 15:01:55.440179  2570 net.cpp:91] Creating Layer inception_4b/5x5_reduce
I0403 15:01:55.440196  2570 net.cpp:425] inception_4b/5x5_reduce <- inception_4a/output_inception_4a/output_0_split_3
I0403 15:01:55.440215  2570 net.cpp:399] inception_4b/5x5_reduce -> inception_4b/5x5_reduce
I0403 15:01:55.441308  2570 net.cpp:141] Setting up inception_4b/5x5_reduce
I0403 15:01:55.441334  2570 net.cpp:148] Top shape: 24 24 14 14 (112896)
I0403 15:01:55.441350  2570 net.cpp:156] Memory required for data: 965320992
I0403 15:01:55.441370  2570 layer_factory.hpp:77] Creating layer inception_4b/relu_5x5_reduce
I0403 15:01:55.441387  2570 net.cpp:91] Creating Layer inception_4b/relu_5x5_reduce
I0403 15:01:55.441418  2570 net.cpp:425] inception_4b/relu_5x5_reduce <- inception_4b/5x5_reduce
I0403 15:01:55.441442  2570 net.cpp:386] inception_4b/relu_5x5_reduce -> inception_4b/5x5_reduce (in-place)
I0403 15:01:55.441624  2570 net.cpp:141] Setting up inception_4b/relu_5x5_reduce
I0403 15:01:55.441649  2570 net.cpp:148] Top shape: 24 24 14 14 (112896)
I0403 15:01:55.441664  2570 net.cpp:156] Memory required for data: 965772576
I0403 15:01:55.441679  2570 layer_factory.hpp:77] Creating layer inception_4b/5x5
I0403 15:01:55.441704  2570 net.cpp:91] Creating Layer inception_4b/5x5
I0403 15:01:55.441721  2570 net.cpp:425] inception_4b/5x5 <- inception_4b/5x5_reduce
I0403 15:01:55.441742  2570 net.cpp:399] inception_4b/5x5 -> inception_4b/5x5
I0403 15:01:55.442991  2570 net.cpp:141] Setting up inception_4b/5x5
I0403 15:01:55.443018  2570 net.cpp:148] Top shape: 24 64 14 14 (301056)
I0403 15:01:55.443033  2570 net.cpp:156] Memory required for data: 966976800
I0403 15:01:55.443053  2570 layer_factory.hpp:77] Creating layer inception_4b/relu_5x5
I0403 15:01:55.443070  2570 net.cpp:91] Creating Layer inception_4b/relu_5x5
I0403 15:01:55.443086  2570 net.cpp:425] inception_4b/relu_5x5 <- inception_4b/5x5
I0403 15:01:55.443105  2570 net.cpp:386] inception_4b/relu_5x5 -> inception_4b/5x5 (in-place)
I0403 15:01:55.443399  2570 net.cpp:141] Setting up inception_4b/relu_5x5
I0403 15:01:55.443425  2570 net.cpp:148] Top shape: 24 64 14 14 (301056)
I0403 15:01:55.443440  2570 net.cpp:156] Memory required for data: 968181024
I0403 15:01:55.443455  2570 layer_factory.hpp:77] Creating layer inception_4b/pool
I0403 15:01:55.443473  2570 net.cpp:91] Creating Layer inception_4b/pool
I0403 15:01:55.443490  2570 net.cpp:425] inception_4b/pool <- inception_4a/output_inception_4a/output_0_split_4
I0403 15:01:55.443511  2570 net.cpp:399] inception_4b/pool -> inception_4b/pool
I0403 15:01:55.443577  2570 net.cpp:141] Setting up inception_4b/pool
I0403 15:01:55.443599  2570 net.cpp:148] Top shape: 24 512 14 14 (2408448)
I0403 15:01:55.443614  2570 net.cpp:156] Memory required for data: 977814816
I0403 15:01:55.443629  2570 layer_factory.hpp:77] Creating layer inception_4b/pool_proj
I0403 15:01:55.443652  2570 net.cpp:91] Creating Layer inception_4b/pool_proj
I0403 15:01:55.443670  2570 net.cpp:425] inception_4b/pool_proj <- inception_4b/pool
I0403 15:01:55.443688  2570 net.cpp:399] inception_4b/pool_proj -> inception_4b/pool_proj
I0403 15:01:55.444905  2570 net.cpp:141] Setting up inception_4b/pool_proj
I0403 15:01:55.444931  2570 net.cpp:148] Top shape: 24 64 14 14 (301056)
I0403 15:01:55.444947  2570 net.cpp:156] Memory required for data: 979019040
I0403 15:01:55.444964  2570 layer_factory.hpp:77] Creating layer inception_4b/relu_pool_proj
I0403 15:01:55.444983  2570 net.cpp:91] Creating Layer inception_4b/relu_pool_proj
I0403 15:01:55.444998  2570 net.cpp:425] inception_4b/relu_pool_proj <- inception_4b/pool_proj
I0403 15:01:55.445019  2570 net.cpp:386] inception_4b/relu_pool_proj -> inception_4b/pool_proj (in-place)
I0403 15:01:55.445200  2570 net.cpp:141] Setting up inception_4b/relu_pool_proj
I0403 15:01:55.445225  2570 net.cpp:148] Top shape: 24 64 14 14 (301056)
I0403 15:01:55.445243  2570 net.cpp:156] Memory required for data: 980223264
I0403 15:01:55.445260  2570 layer_factory.hpp:77] Creating layer inception_4b/output
I0403 15:01:55.445279  2570 net.cpp:91] Creating Layer inception_4b/output
I0403 15:01:55.445296  2570 net.cpp:425] inception_4b/output <- inception_4b/1x1
I0403 15:01:55.445312  2570 net.cpp:425] inception_4b/output <- inception_4b/3x3
I0403 15:01:55.445328  2570 net.cpp:425] inception_4b/output <- inception_4b/5x5
I0403 15:01:55.445343  2570 net.cpp:425] inception_4b/output <- inception_4b/pool_proj
I0403 15:01:55.445360  2570 net.cpp:399] inception_4b/output -> inception_4b/output
I0403 15:01:55.445408  2570 net.cpp:141] Setting up inception_4b/output
I0403 15:01:55.445430  2570 net.cpp:148] Top shape: 24 512 14 14 (2408448)
I0403 15:01:55.445446  2570 net.cpp:156] Memory required for data: 989857056
I0403 15:01:55.445477  2570 layer_factory.hpp:77] Creating layer inception_4b/output_inception_4b/output_0_split
I0403 15:01:55.445497  2570 net.cpp:91] Creating Layer inception_4b/output_inception_4b/output_0_split
I0403 15:01:55.445513  2570 net.cpp:425] inception_4b/output_inception_4b/output_0_split <- inception_4b/output
I0403 15:01:55.445531  2570 net.cpp:399] inception_4b/output_inception_4b/output_0_split -> inception_4b/output_inception_4b/output_0_split_0
I0403 15:01:55.445552  2570 net.cpp:399] inception_4b/output_inception_4b/output_0_split -> inception_4b/output_inception_4b/output_0_split_1
I0403 15:01:55.445572  2570 net.cpp:399] inception_4b/output_inception_4b/output_0_split -> inception_4b/output_inception_4b/output_0_split_2
I0403 15:01:55.445592  2570 net.cpp:399] inception_4b/output_inception_4b/output_0_split -> inception_4b/output_inception_4b/output_0_split_3
I0403 15:01:55.445677  2570 net.cpp:141] Setting up inception_4b/output_inception_4b/output_0_split
I0403 15:01:55.445703  2570 net.cpp:148] Top shape: 24 512 14 14 (2408448)
I0403 15:01:55.445719  2570 net.cpp:148] Top shape: 24 512 14 14 (2408448)
I0403 15:01:55.445734  2570 net.cpp:148] Top shape: 24 512 14 14 (2408448)
I0403 15:01:55.445750  2570 net.cpp:148] Top shape: 24 512 14 14 (2408448)
I0403 15:01:55.445765  2570 net.cpp:156] Memory required for data: 1028392224
I0403 15:01:55.445780  2570 layer_factory.hpp:77] Creating layer inception_4c/1x1
I0403 15:01:55.445801  2570 net.cpp:91] Creating Layer inception_4c/1x1
I0403 15:01:55.445818  2570 net.cpp:425] inception_4c/1x1 <- inception_4b/output_inception_4b/output_0_split_0
I0403 15:01:55.445837  2570 net.cpp:399] inception_4c/1x1 -> inception_4c/1x1
I0403 15:01:55.447288  2570 net.cpp:141] Setting up inception_4c/1x1
I0403 15:01:55.447314  2570 net.cpp:148] Top shape: 24 128 14 14 (602112)
I0403 15:01:55.447329  2570 net.cpp:156] Memory required for data: 1030800672
I0403 15:01:55.447348  2570 layer_factory.hpp:77] Creating layer inception_4c/relu_1x1
I0403 15:01:55.447370  2570 net.cpp:91] Creating Layer inception_4c/relu_1x1
I0403 15:01:55.447386  2570 net.cpp:425] inception_4c/relu_1x1 <- inception_4c/1x1
I0403 15:01:55.447403  2570 net.cpp:386] inception_4c/relu_1x1 -> inception_4c/1x1 (in-place)
I0403 15:01:55.447584  2570 net.cpp:141] Setting up inception_4c/relu_1x1
I0403 15:01:55.447612  2570 net.cpp:148] Top shape: 24 128 14 14 (602112)
I0403 15:01:55.447626  2570 net.cpp:156] Memory required for data: 1033209120
I0403 15:01:55.447641  2570 layer_factory.hpp:77] Creating layer inception_4c/3x3_reduce
I0403 15:01:55.447664  2570 net.cpp:91] Creating Layer inception_4c/3x3_reduce
I0403 15:01:55.447680  2570 net.cpp:425] inception_4c/3x3_reduce <- inception_4b/output_inception_4b/output_0_split_1
I0403 15:01:55.447698  2570 net.cpp:399] inception_4c/3x3_reduce -> inception_4c/3x3_reduce
I0403 15:01:55.449640  2570 net.cpp:141] Setting up inception_4c/3x3_reduce
I0403 15:01:55.449671  2570 net.cpp:148] Top shape: 24 128 14 14 (602112)
I0403 15:01:55.449688  2570 net.cpp:156] Memory required for data: 1035617568
I0403 15:01:55.449707  2570 layer_factory.hpp:77] Creating layer inception_4c/relu_3x3_reduce
I0403 15:01:55.449725  2570 net.cpp:91] Creating Layer inception_4c/relu_3x3_reduce
I0403 15:01:55.449743  2570 net.cpp:425] inception_4c/relu_3x3_reduce <- inception_4c/3x3_reduce
I0403 15:01:55.449762  2570 net.cpp:386] inception_4c/relu_3x3_reduce -> inception_4c/3x3_reduce (in-place)
I0403 15:01:55.450047  2570 net.cpp:141] Setting up inception_4c/relu_3x3_reduce
I0403 15:01:55.450076  2570 net.cpp:148] Top shape: 24 128 14 14 (602112)
I0403 15:01:55.450091  2570 net.cpp:156] Memory required for data: 1038026016
I0403 15:01:55.450106  2570 layer_factory.hpp:77] Creating layer inception_4c/3x3
I0403 15:01:55.450130  2570 net.cpp:91] Creating Layer inception_4c/3x3
I0403 15:01:55.450147  2570 net.cpp:425] inception_4c/3x3 <- inception_4c/3x3_reduce
I0403 15:01:55.450166  2570 net.cpp:399] inception_4c/3x3 -> inception_4c/3x3
I0403 15:01:55.453781  2570 net.cpp:141] Setting up inception_4c/3x3
I0403 15:01:55.453825  2570 net.cpp:148] Top shape: 24 256 14 14 (1204224)
I0403 15:01:55.453842  2570 net.cpp:156] Memory required for data: 1042842912
I0403 15:01:55.453874  2570 layer_factory.hpp:77] Creating layer inception_4c/relu_3x3
I0403 15:01:55.453896  2570 net.cpp:91] Creating Layer inception_4c/relu_3x3
I0403 15:01:55.453912  2570 net.cpp:425] inception_4c/relu_3x3 <- inception_4c/3x3
I0403 15:01:55.453930  2570 net.cpp:386] inception_4c/relu_3x3 -> inception_4c/3x3 (in-place)
I0403 15:01:55.454116  2570 net.cpp:141] Setting up inception_4c/relu_3x3
I0403 15:01:55.454140  2570 net.cpp:148] Top shape: 24 256 14 14 (1204224)
I0403 15:01:55.454154  2570 net.cpp:156] Memory required for data: 1047659808
I0403 15:01:55.454169  2570 layer_factory.hpp:77] Creating layer inception_4c/5x5_reduce
I0403 15:01:55.454193  2570 net.cpp:91] Creating Layer inception_4c/5x5_reduce
I0403 15:01:55.454210  2570 net.cpp:425] inception_4c/5x5_reduce <- inception_4b/output_inception_4b/output_0_split_2
I0403 15:01:55.454232  2570 net.cpp:399] inception_4c/5x5_reduce -> inception_4c/5x5_reduce
I0403 15:01:55.455339  2570 net.cpp:141] Setting up inception_4c/5x5_reduce
I0403 15:01:55.455368  2570 net.cpp:148] Top shape: 24 24 14 14 (112896)
I0403 15:01:55.455382  2570 net.cpp:156] Memory required for data: 1048111392
I0403 15:01:55.455400  2570 layer_factory.hpp:77] Creating layer inception_4c/relu_5x5_reduce
I0403 15:01:55.455420  2570 net.cpp:91] Creating Layer inception_4c/relu_5x5_reduce
I0403 15:01:55.455437  2570 net.cpp:425] inception_4c/relu_5x5_reduce <- inception_4c/5x5_reduce
I0403 15:01:55.455456  2570 net.cpp:386] inception_4c/relu_5x5_reduce -> inception_4c/5x5_reduce (in-place)
I0403 15:01:55.455642  2570 net.cpp:141] Setting up inception_4c/relu_5x5_reduce
I0403 15:01:55.455667  2570 net.cpp:148] Top shape: 24 24 14 14 (112896)
I0403 15:01:55.455682  2570 net.cpp:156] Memory required for data: 1048562976
I0403 15:01:55.455696  2570 layer_factory.hpp:77] Creating layer inception_4c/5x5
I0403 15:01:55.455718  2570 net.cpp:91] Creating Layer inception_4c/5x5
I0403 15:01:55.455735  2570 net.cpp:425] inception_4c/5x5 <- inception_4c/5x5_reduce
I0403 15:01:55.455755  2570 net.cpp:399] inception_4c/5x5 -> inception_4c/5x5
I0403 15:01:55.457008  2570 net.cpp:141] Setting up inception_4c/5x5
I0403 15:01:55.457036  2570 net.cpp:148] Top shape: 24 64 14 14 (301056)
I0403 15:01:55.457051  2570 net.cpp:156] Memory required for data: 1049767200
I0403 15:01:55.457069  2570 layer_factory.hpp:77] Creating layer inception_4c/relu_5x5
I0403 15:01:55.457090  2570 net.cpp:91] Creating Layer inception_4c/relu_5x5
I0403 15:01:55.457108  2570 net.cpp:425] inception_4c/relu_5x5 <- inception_4c/5x5
I0403 15:01:55.457124  2570 net.cpp:386] inception_4c/relu_5x5 -> inception_4c/5x5 (in-place)
I0403 15:01:55.457439  2570 net.cpp:141] Setting up inception_4c/relu_5x5
I0403 15:01:55.457466  2570 net.cpp:148] Top shape: 24 64 14 14 (301056)
I0403 15:01:55.457482  2570 net.cpp:156] Memory required for data: 1050971424
I0403 15:01:55.457497  2570 layer_factory.hpp:77] Creating layer inception_4c/pool
I0403 15:01:55.457523  2570 net.cpp:91] Creating Layer inception_4c/pool
I0403 15:01:55.457541  2570 net.cpp:425] inception_4c/pool <- inception_4b/output_inception_4b/output_0_split_3
I0403 15:01:55.457559  2570 net.cpp:399] inception_4c/pool -> inception_4c/pool
I0403 15:01:55.457628  2570 net.cpp:141] Setting up inception_4c/pool
I0403 15:01:55.457651  2570 net.cpp:148] Top shape: 24 512 14 14 (2408448)
I0403 15:01:55.457666  2570 net.cpp:156] Memory required for data: 1060605216
I0403 15:01:55.457681  2570 layer_factory.hpp:77] Creating layer inception_4c/pool_proj
I0403 15:01:55.457703  2570 net.cpp:91] Creating Layer inception_4c/pool_proj
I0403 15:01:55.457721  2570 net.cpp:425] inception_4c/pool_proj <- inception_4c/pool
I0403 15:01:55.457742  2570 net.cpp:399] inception_4c/pool_proj -> inception_4c/pool_proj
I0403 15:01:55.459033  2570 net.cpp:141] Setting up inception_4c/pool_proj
I0403 15:01:55.459061  2570 net.cpp:148] Top shape: 24 64 14 14 (301056)
I0403 15:01:55.459091  2570 net.cpp:156] Memory required for data: 1061809440
I0403 15:01:55.459111  2570 layer_factory.hpp:77] Creating layer inception_4c/relu_pool_proj
I0403 15:01:55.459131  2570 net.cpp:91] Creating Layer inception_4c/relu_pool_proj
I0403 15:01:55.459147  2570 net.cpp:425] inception_4c/relu_pool_proj <- inception_4c/pool_proj
I0403 15:01:55.459167  2570 net.cpp:386] inception_4c/relu_pool_proj -> inception_4c/pool_proj (in-place)
I0403 15:01:55.459362  2570 net.cpp:141] Setting up inception_4c/relu_pool_proj
I0403 15:01:55.459388  2570 net.cpp:148] Top shape: 24 64 14 14 (301056)
I0403 15:01:55.459403  2570 net.cpp:156] Memory required for data: 1063013664
I0403 15:01:55.459419  2570 layer_factory.hpp:77] Creating layer inception_4c/output
I0403 15:01:55.459441  2570 net.cpp:91] Creating Layer inception_4c/output
I0403 15:01:55.459458  2570 net.cpp:425] inception_4c/output <- inception_4c/1x1
I0403 15:01:55.459475  2570 net.cpp:425] inception_4c/output <- inception_4c/3x3
I0403 15:01:55.459491  2570 net.cpp:425] inception_4c/output <- inception_4c/5x5
I0403 15:01:55.459508  2570 net.cpp:425] inception_4c/output <- inception_4c/pool_proj
I0403 15:01:55.459525  2570 net.cpp:399] inception_4c/output -> inception_4c/output
I0403 15:01:55.459573  2570 net.cpp:141] Setting up inception_4c/output
I0403 15:01:55.459599  2570 net.cpp:148] Top shape: 24 512 14 14 (2408448)
I0403 15:01:55.459614  2570 net.cpp:156] Memory required for data: 1072647456
I0403 15:01:55.459630  2570 layer_factory.hpp:77] Creating layer inception_4c/output_inception_4c/output_0_split
I0403 15:01:55.459647  2570 net.cpp:91] Creating Layer inception_4c/output_inception_4c/output_0_split
I0403 15:01:55.459663  2570 net.cpp:425] inception_4c/output_inception_4c/output_0_split <- inception_4c/output
I0403 15:01:55.459683  2570 net.cpp:399] inception_4c/output_inception_4c/output_0_split -> inception_4c/output_inception_4c/output_0_split_0
I0403 15:01:55.459704  2570 net.cpp:399] inception_4c/output_inception_4c/output_0_split -> inception_4c/output_inception_4c/output_0_split_1
I0403 15:01:55.459725  2570 net.cpp:399] inception_4c/output_inception_4c/output_0_split -> inception_4c/output_inception_4c/output_0_split_2
I0403 15:01:55.459746  2570 net.cpp:399] inception_4c/output_inception_4c/output_0_split -> inception_4c/output_inception_4c/output_0_split_3
I0403 15:01:55.459833  2570 net.cpp:141] Setting up inception_4c/output_inception_4c/output_0_split
I0403 15:01:55.459861  2570 net.cpp:148] Top shape: 24 512 14 14 (2408448)
I0403 15:01:55.459878  2570 net.cpp:148] Top shape: 24 512 14 14 (2408448)
I0403 15:01:55.459894  2570 net.cpp:148] Top shape: 24 512 14 14 (2408448)
I0403 15:01:55.459910  2570 net.cpp:148] Top shape: 24 512 14 14 (2408448)
I0403 15:01:55.459924  2570 net.cpp:156] Memory required for data: 1111182624
I0403 15:01:55.459939  2570 layer_factory.hpp:77] Creating layer inception_4d/1x1
I0403 15:01:55.459964  2570 net.cpp:91] Creating Layer inception_4d/1x1
I0403 15:01:55.459980  2570 net.cpp:425] inception_4d/1x1 <- inception_4c/output_inception_4c/output_0_split_0
I0403 15:01:55.460000  2570 net.cpp:399] inception_4d/1x1 -> inception_4d/1x1
I0403 15:01:55.461458  2570 net.cpp:141] Setting up inception_4d/1x1
I0403 15:01:55.461491  2570 net.cpp:148] Top shape: 24 112 14 14 (526848)
I0403 15:01:55.461509  2570 net.cpp:156] Memory required for data: 1113290016
I0403 15:01:55.461529  2570 layer_factory.hpp:77] Creating layer inception_4d/relu_1x1
I0403 15:01:55.461546  2570 net.cpp:91] Creating Layer inception_4d/relu_1x1
I0403 15:01:55.461563  2570 net.cpp:425] inception_4d/relu_1x1 <- inception_4d/1x1
I0403 15:01:55.461581  2570 net.cpp:386] inception_4d/relu_1x1 -> inception_4d/1x1 (in-place)
I0403 15:01:55.461774  2570 net.cpp:141] Setting up inception_4d/relu_1x1
I0403 15:01:55.461802  2570 net.cpp:148] Top shape: 24 112 14 14 (526848)
I0403 15:01:55.461817  2570 net.cpp:156] Memory required for data: 1115397408
I0403 15:01:55.461833  2570 layer_factory.hpp:77] Creating layer inception_4d/3x3_reduce
I0403 15:01:55.461869  2570 net.cpp:91] Creating Layer inception_4d/3x3_reduce
I0403 15:01:55.461887  2570 net.cpp:425] inception_4d/3x3_reduce <- inception_4c/output_inception_4c/output_0_split_1
I0403 15:01:55.461910  2570 net.cpp:399] inception_4d/3x3_reduce -> inception_4d/3x3_reduce
I0403 15:01:55.463495  2570 net.cpp:141] Setting up inception_4d/3x3_reduce
I0403 15:01:55.463522  2570 net.cpp:148] Top shape: 24 144 14 14 (677376)
I0403 15:01:55.463538  2570 net.cpp:156] Memory required for data: 1118106912
I0403 15:01:55.463557  2570 layer_factory.hpp:77] Creating layer inception_4d/relu_3x3_reduce
I0403 15:01:55.463578  2570 net.cpp:91] Creating Layer inception_4d/relu_3x3_reduce
I0403 15:01:55.463596  2570 net.cpp:425] inception_4d/relu_3x3_reduce <- inception_4d/3x3_reduce
I0403 15:01:55.463614  2570 net.cpp:386] inception_4d/relu_3x3_reduce -> inception_4d/3x3_reduce (in-place)
I0403 15:01:55.463913  2570 net.cpp:141] Setting up inception_4d/relu_3x3_reduce
I0403 15:01:55.463940  2570 net.cpp:148] Top shape: 24 144 14 14 (677376)
I0403 15:01:55.463955  2570 net.cpp:156] Memory required for data: 1120816416
I0403 15:01:55.463970  2570 layer_factory.hpp:77] Creating layer inception_4d/3x3
I0403 15:01:55.463994  2570 net.cpp:91] Creating Layer inception_4d/3x3
I0403 15:01:55.464011  2570 net.cpp:425] inception_4d/3x3 <- inception_4d/3x3_reduce
I0403 15:01:55.464033  2570 net.cpp:399] inception_4d/3x3 -> inception_4d/3x3
I0403 15:01:55.468430  2570 net.cpp:141] Setting up inception_4d/3x3
I0403 15:01:55.468462  2570 net.cpp:148] Top shape: 24 288 14 14 (1354752)
I0403 15:01:55.468479  2570 net.cpp:156] Memory required for data: 1126235424
I0403 15:01:55.468498  2570 layer_factory.hpp:77] Creating layer inception_4d/relu_3x3
I0403 15:01:55.468518  2570 net.cpp:91] Creating Layer inception_4d/relu_3x3
I0403 15:01:55.468534  2570 net.cpp:425] inception_4d/relu_3x3 <- inception_4d/3x3
I0403 15:01:55.468555  2570 net.cpp:386] inception_4d/relu_3x3 -> inception_4d/3x3 (in-place)
I0403 15:01:55.468749  2570 net.cpp:141] Setting up inception_4d/relu_3x3
I0403 15:01:55.468773  2570 net.cpp:148] Top shape: 24 288 14 14 (1354752)
I0403 15:01:55.468788  2570 net.cpp:156] Memory required for data: 1131654432
I0403 15:01:55.468804  2570 layer_factory.hpp:77] Creating layer inception_4d/5x5_reduce
I0403 15:01:55.468827  2570 net.cpp:91] Creating Layer inception_4d/5x5_reduce
I0403 15:01:55.468845  2570 net.cpp:425] inception_4d/5x5_reduce <- inception_4c/output_inception_4c/output_0_split_2
I0403 15:01:55.468866  2570 net.cpp:399] inception_4d/5x5_reduce -> inception_4d/5x5_reduce
I0403 15:01:55.470062  2570 net.cpp:141] Setting up inception_4d/5x5_reduce
I0403 15:01:55.470093  2570 net.cpp:148] Top shape: 24 32 14 14 (150528)
I0403 15:01:55.470109  2570 net.cpp:156] Memory required for data: 1132256544
I0403 15:01:55.470127  2570 layer_factory.hpp:77] Creating layer inception_4d/relu_5x5_reduce
I0403 15:01:55.470146  2570 net.cpp:91] Creating Layer inception_4d/relu_5x5_reduce
I0403 15:01:55.470162  2570 net.cpp:425] inception_4d/relu_5x5_reduce <- inception_4d/5x5_reduce
I0403 15:01:55.470180  2570 net.cpp:386] inception_4d/relu_5x5_reduce -> inception_4d/5x5_reduce (in-place)
I0403 15:01:55.470384  2570 net.cpp:141] Setting up inception_4d/relu_5x5_reduce
I0403 15:01:55.470410  2570 net.cpp:148] Top shape: 24 32 14 14 (150528)
I0403 15:01:55.470427  2570 net.cpp:156] Memory required for data: 1132858656
I0403 15:01:55.470443  2570 layer_factory.hpp:77] Creating layer inception_4d/5x5
I0403 15:01:55.470466  2570 net.cpp:91] Creating Layer inception_4d/5x5
I0403 15:01:55.470484  2570 net.cpp:425] inception_4d/5x5 <- inception_4d/5x5_reduce
I0403 15:01:55.470506  2570 net.cpp:399] inception_4d/5x5 -> inception_4d/5x5
I0403 15:01:55.472045  2570 net.cpp:141] Setting up inception_4d/5x5
I0403 15:01:55.472074  2570 net.cpp:148] Top shape: 24 64 14 14 (301056)
I0403 15:01:55.472090  2570 net.cpp:156] Memory required for data: 1134062880
I0403 15:01:55.472110  2570 layer_factory.hpp:77] Creating layer inception_4d/relu_5x5
I0403 15:01:55.472147  2570 net.cpp:91] Creating Layer inception_4d/relu_5x5
I0403 15:01:55.472167  2570 net.cpp:425] inception_4d/relu_5x5 <- inception_4d/5x5
I0403 15:01:55.472184  2570 net.cpp:386] inception_4d/relu_5x5 -> inception_4d/5x5 (in-place)
I0403 15:01:55.472517  2570 net.cpp:141] Setting up inception_4d/relu_5x5
I0403 15:01:55.472544  2570 net.cpp:148] Top shape: 24 64 14 14 (301056)
I0403 15:01:55.472563  2570 net.cpp:156] Memory required for data: 1135267104
I0403 15:01:55.472579  2570 layer_factory.hpp:77] Creating layer inception_4d/pool
I0403 15:01:55.472599  2570 net.cpp:91] Creating Layer inception_4d/pool
I0403 15:01:55.472620  2570 net.cpp:425] inception_4d/pool <- inception_4c/output_inception_4c/output_0_split_3
I0403 15:01:55.472645  2570 net.cpp:399] inception_4d/pool -> inception_4d/pool
I0403 15:01:55.472715  2570 net.cpp:141] Setting up inception_4d/pool
I0403 15:01:55.472740  2570 net.cpp:148] Top shape: 24 512 14 14 (2408448)
I0403 15:01:55.472755  2570 net.cpp:156] Memory required for data: 1144900896
I0403 15:01:55.472770  2570 layer_factory.hpp:77] Creating layer inception_4d/pool_proj
I0403 15:01:55.472792  2570 net.cpp:91] Creating Layer inception_4d/pool_proj
I0403 15:01:55.472810  2570 net.cpp:425] inception_4d/pool_proj <- inception_4d/pool
I0403 15:01:55.472832  2570 net.cpp:399] inception_4d/pool_proj -> inception_4d/pool_proj
I0403 15:01:55.474671  2570 net.cpp:141] Setting up inception_4d/pool_proj
I0403 15:01:55.474704  2570 net.cpp:148] Top shape: 24 64 14 14 (301056)
I0403 15:01:55.474721  2570 net.cpp:156] Memory required for data: 1146105120
I0403 15:01:55.474740  2570 layer_factory.hpp:77] Creating layer inception_4d/relu_pool_proj
I0403 15:01:55.474759  2570 net.cpp:91] Creating Layer inception_4d/relu_pool_proj
I0403 15:01:55.474776  2570 net.cpp:425] inception_4d/relu_pool_proj <- inception_4d/pool_proj
I0403 15:01:55.474797  2570 net.cpp:386] inception_4d/relu_pool_proj -> inception_4d/pool_proj (in-place)
I0403 15:01:55.474992  2570 net.cpp:141] Setting up inception_4d/relu_pool_proj
I0403 15:01:55.475016  2570 net.cpp:148] Top shape: 24 64 14 14 (301056)
I0403 15:01:55.475031  2570 net.cpp:156] Memory required for data: 1147309344
I0403 15:01:55.475046  2570 layer_factory.hpp:77] Creating layer inception_4d/output
I0403 15:01:55.475065  2570 net.cpp:91] Creating Layer inception_4d/output
I0403 15:01:55.475081  2570 net.cpp:425] inception_4d/output <- inception_4d/1x1
I0403 15:01:55.475098  2570 net.cpp:425] inception_4d/output <- inception_4d/3x3
I0403 15:01:55.475114  2570 net.cpp:425] inception_4d/output <- inception_4d/5x5
I0403 15:01:55.475131  2570 net.cpp:425] inception_4d/output <- inception_4d/pool_proj
I0403 15:01:55.475150  2570 net.cpp:399] inception_4d/output -> inception_4d/output
I0403 15:01:55.475200  2570 net.cpp:141] Setting up inception_4d/output
I0403 15:01:55.475229  2570 net.cpp:148] Top shape: 24 528 14 14 (2483712)
I0403 15:01:55.475251  2570 net.cpp:156] Memory required for data: 1157244192
I0403 15:01:55.475267  2570 layer_factory.hpp:77] Creating layer inception_4d/output_inception_4d/output_0_split
I0403 15:01:55.475286  2570 net.cpp:91] Creating Layer inception_4d/output_inception_4d/output_0_split
I0403 15:01:55.475311  2570 net.cpp:425] inception_4d/output_inception_4d/output_0_split <- inception_4d/output
I0403 15:01:55.475329  2570 net.cpp:399] inception_4d/output_inception_4d/output_0_split -> inception_4d/output_inception_4d/output_0_split_0
I0403 15:01:55.475353  2570 net.cpp:399] inception_4d/output_inception_4d/output_0_split -> inception_4d/output_inception_4d/output_0_split_1
I0403 15:01:55.475376  2570 net.cpp:399] inception_4d/output_inception_4d/output_0_split -> inception_4d/output_inception_4d/output_0_split_2
I0403 15:01:55.475399  2570 net.cpp:399] inception_4d/output_inception_4d/output_0_split -> inception_4d/output_inception_4d/output_0_split_3
I0403 15:01:55.475419  2570 net.cpp:399] inception_4d/output_inception_4d/output_0_split -> inception_4d/output_inception_4d/output_0_split_4
I0403 15:01:55.475533  2570 net.cpp:141] Setting up inception_4d/output_inception_4d/output_0_split
I0403 15:01:55.475570  2570 net.cpp:148] Top shape: 24 528 14 14 (2483712)
I0403 15:01:55.475601  2570 net.cpp:148] Top shape: 24 528 14 14 (2483712)
I0403 15:01:55.475618  2570 net.cpp:148] Top shape: 24 528 14 14 (2483712)
I0403 15:01:55.475636  2570 net.cpp:148] Top shape: 24 528 14 14 (2483712)
I0403 15:01:55.475653  2570 net.cpp:148] Top shape: 24 528 14 14 (2483712)
I0403 15:01:55.475667  2570 net.cpp:156] Memory required for data: 1206918432
I0403 15:01:55.475682  2570 layer_factory.hpp:77] Creating layer loss2/ave_pool
I0403 15:01:55.475700  2570 net.cpp:91] Creating Layer loss2/ave_pool
I0403 15:01:55.475716  2570 net.cpp:425] loss2/ave_pool <- inception_4d/output_inception_4d/output_0_split_0
I0403 15:01:55.475735  2570 net.cpp:399] loss2/ave_pool -> loss2/ave_pool
I0403 15:01:55.476073  2570 net.cpp:141] Setting up loss2/ave_pool
I0403 15:01:55.476100  2570 net.cpp:148] Top shape: 24 528 4 4 (202752)
I0403 15:01:55.476115  2570 net.cpp:156] Memory required for data: 1207729440
I0403 15:01:55.476130  2570 layer_factory.hpp:77] Creating layer loss2/conv
I0403 15:01:55.476152  2570 net.cpp:91] Creating Layer loss2/conv
I0403 15:01:55.476169  2570 net.cpp:425] loss2/conv <- loss2/ave_pool
I0403 15:01:55.476187  2570 net.cpp:399] loss2/conv -> loss2/conv
I0403 15:01:55.478044  2570 net.cpp:141] Setting up loss2/conv
I0403 15:01:55.478071  2570 net.cpp:148] Top shape: 24 128 4 4 (49152)
I0403 15:01:55.478087  2570 net.cpp:156] Memory required for data: 1207926048
I0403 15:01:55.478104  2570 layer_factory.hpp:77] Creating layer loss2/relu_conv
I0403 15:01:55.478126  2570 net.cpp:91] Creating Layer loss2/relu_conv
I0403 15:01:55.478142  2570 net.cpp:425] loss2/relu_conv <- loss2/conv
I0403 15:01:55.478158  2570 net.cpp:386] loss2/relu_conv -> loss2/conv (in-place)
I0403 15:01:55.478440  2570 net.cpp:141] Setting up loss2/relu_conv
I0403 15:01:55.478466  2570 net.cpp:148] Top shape: 24 128 4 4 (49152)
I0403 15:01:55.478480  2570 net.cpp:156] Memory required for data: 1208122656
I0403 15:01:55.478494  2570 layer_factory.hpp:77] Creating layer loss2/fc
I0403 15:01:55.478515  2570 net.cpp:91] Creating Layer loss2/fc
I0403 15:01:55.478533  2570 net.cpp:425] loss2/fc <- loss2/conv
I0403 15:01:55.478550  2570 net.cpp:399] loss2/fc -> loss2/fc
I0403 15:01:55.495826  2570 net.cpp:141] Setting up loss2/fc
I0403 15:01:55.495860  2570 net.cpp:148] Top shape: 24 1024 (24576)
I0403 15:01:55.495877  2570 net.cpp:156] Memory required for data: 1208220960
I0403 15:01:55.495894  2570 layer_factory.hpp:77] Creating layer loss2/relu_fc
I0403 15:01:55.495913  2570 net.cpp:91] Creating Layer loss2/relu_fc
I0403 15:01:55.495929  2570 net.cpp:425] loss2/relu_fc <- loss2/fc
I0403 15:01:55.495947  2570 net.cpp:386] loss2/relu_fc -> loss2/fc (in-place)
I0403 15:01:55.496245  2570 net.cpp:141] Setting up loss2/relu_fc
I0403 15:01:55.496270  2570 net.cpp:148] Top shape: 24 1024 (24576)
I0403 15:01:55.496285  2570 net.cpp:156] Memory required for data: 1208319264
I0403 15:01:55.496299  2570 layer_factory.hpp:77] Creating layer loss2/drop_fc
I0403 15:01:55.496317  2570 net.cpp:91] Creating Layer loss2/drop_fc
I0403 15:01:55.496333  2570 net.cpp:425] loss2/drop_fc <- loss2/fc
I0403 15:01:55.496352  2570 net.cpp:386] loss2/drop_fc -> loss2/fc (in-place)
I0403 15:01:55.496402  2570 net.cpp:141] Setting up loss2/drop_fc
I0403 15:01:55.496423  2570 net.cpp:148] Top shape: 24 1024 (24576)
I0403 15:01:55.496438  2570 net.cpp:156] Memory required for data: 1208417568
I0403 15:01:55.496451  2570 layer_factory.hpp:77] Creating layer loss2/classifier_plantvillage
I0403 15:01:55.496471  2570 net.cpp:91] Creating Layer loss2/classifier_plantvillage
I0403 15:01:55.496489  2570 net.cpp:425] loss2/classifier_plantvillage <- loss2/fc
I0403 15:01:55.496508  2570 net.cpp:399] loss2/classifier_plantvillage -> loss2/classifier_plantvillage
I0403 15:01:55.496901  2570 net.cpp:141] Setting up loss2/classifier_plantvillage
I0403 15:01:55.496925  2570 net.cpp:148] Top shape: 24 38 (912)
I0403 15:01:55.496956  2570 net.cpp:156] Memory required for data: 1208421216
I0403 15:01:55.496975  2570 layer_factory.hpp:77] Creating layer loss2/classifier_plantvillage_loss2/classifier_plantvillage_0_split
I0403 15:01:55.496994  2570 net.cpp:91] Creating Layer loss2/classifier_plantvillage_loss2/classifier_plantvillage_0_split
I0403 15:01:55.497009  2570 net.cpp:425] loss2/classifier_plantvillage_loss2/classifier_plantvillage_0_split <- loss2/classifier_plantvillage
I0403 15:01:55.497028  2570 net.cpp:399] loss2/classifier_plantvillage_loss2/classifier_plantvillage_0_split -> loss2/classifier_plantvillage_loss2/classifier_plantvillage_0_split_0
I0403 15:01:55.497048  2570 net.cpp:399] loss2/classifier_plantvillage_loss2/classifier_plantvillage_0_split -> loss2/classifier_plantvillage_loss2/classifier_plantvillage_0_split_1
I0403 15:01:55.497068  2570 net.cpp:399] loss2/classifier_plantvillage_loss2/classifier_plantvillage_0_split -> loss2/classifier_plantvillage_loss2/classifier_plantvillage_0_split_2
I0403 15:01:55.497145  2570 net.cpp:141] Setting up loss2/classifier_plantvillage_loss2/classifier_plantvillage_0_split
I0403 15:01:55.497169  2570 net.cpp:148] Top shape: 24 38 (912)
I0403 15:01:55.497184  2570 net.cpp:148] Top shape: 24 38 (912)
I0403 15:01:55.497198  2570 net.cpp:148] Top shape: 24 38 (912)
I0403 15:01:55.497213  2570 net.cpp:156] Memory required for data: 1208432160
I0403 15:01:55.497228  2570 layer_factory.hpp:77] Creating layer inception_4e/1x1
I0403 15:01:55.497252  2570 net.cpp:91] Creating Layer inception_4e/1x1
I0403 15:01:55.497270  2570 net.cpp:425] inception_4e/1x1 <- inception_4d/output_inception_4d/output_0_split_1
I0403 15:01:55.497288  2570 net.cpp:399] inception_4e/1x1 -> inception_4e/1x1
I0403 15:01:55.499058  2570 net.cpp:141] Setting up inception_4e/1x1
I0403 15:01:55.499085  2570 net.cpp:148] Top shape: 24 256 14 14 (1204224)
I0403 15:01:55.499100  2570 net.cpp:156] Memory required for data: 1213249056
I0403 15:01:55.499119  2570 layer_factory.hpp:77] Creating layer inception_4e/relu_1x1
I0403 15:01:55.499138  2570 net.cpp:91] Creating Layer inception_4e/relu_1x1
I0403 15:01:55.499155  2570 net.cpp:425] inception_4e/relu_1x1 <- inception_4e/1x1
I0403 15:01:55.499171  2570 net.cpp:386] inception_4e/relu_1x1 -> inception_4e/1x1 (in-place)
I0403 15:01:55.499467  2570 net.cpp:141] Setting up inception_4e/relu_1x1
I0403 15:01:55.499492  2570 net.cpp:148] Top shape: 24 256 14 14 (1204224)
I0403 15:01:55.499506  2570 net.cpp:156] Memory required for data: 1218065952
I0403 15:01:55.499521  2570 layer_factory.hpp:77] Creating layer inception_4e/3x3_reduce
I0403 15:01:55.499543  2570 net.cpp:91] Creating Layer inception_4e/3x3_reduce
I0403 15:01:55.499559  2570 net.cpp:425] inception_4e/3x3_reduce <- inception_4d/output_inception_4d/output_0_split_2
I0403 15:01:55.499580  2570 net.cpp:399] inception_4e/3x3_reduce -> inception_4e/3x3_reduce
I0403 15:01:55.501643  2570 net.cpp:141] Setting up inception_4e/3x3_reduce
I0403 15:01:55.501672  2570 net.cpp:148] Top shape: 24 160 14 14 (752640)
I0403 15:01:55.501688  2570 net.cpp:156] Memory required for data: 1221076512
I0403 15:01:55.501706  2570 layer_factory.hpp:77] Creating layer inception_4e/relu_3x3_reduce
I0403 15:01:55.501724  2570 net.cpp:91] Creating Layer inception_4e/relu_3x3_reduce
I0403 15:01:55.501739  2570 net.cpp:425] inception_4e/relu_3x3_reduce <- inception_4e/3x3_reduce
I0403 15:01:55.501759  2570 net.cpp:386] inception_4e/relu_3x3_reduce -> inception_4e/3x3_reduce (in-place)
I0403 15:01:55.501940  2570 net.cpp:141] Setting up inception_4e/relu_3x3_reduce
I0403 15:01:55.501965  2570 net.cpp:148] Top shape: 24 160 14 14 (752640)
I0403 15:01:55.501978  2570 net.cpp:156] Memory required for data: 1224087072
I0403 15:01:55.501992  2570 layer_factory.hpp:77] Creating layer inception_4e/3x3
I0403 15:01:55.502014  2570 net.cpp:91] Creating Layer inception_4e/3x3
I0403 15:01:55.502032  2570 net.cpp:425] inception_4e/3x3 <- inception_4e/3x3_reduce
I0403 15:01:55.502051  2570 net.cpp:399] inception_4e/3x3 -> inception_4e/3x3
I0403 15:01:55.506976  2570 net.cpp:141] Setting up inception_4e/3x3
I0403 15:01:55.507019  2570 net.cpp:148] Top shape: 24 320 14 14 (1505280)
I0403 15:01:55.507033  2570 net.cpp:156] Memory required for data: 1230108192
I0403 15:01:55.507051  2570 layer_factory.hpp:77] Creating layer inception_4e/relu_3x3
I0403 15:01:55.507071  2570 net.cpp:91] Creating Layer inception_4e/relu_3x3
I0403 15:01:55.507088  2570 net.cpp:425] inception_4e/relu_3x3 <- inception_4e/3x3
I0403 15:01:55.507105  2570 net.cpp:386] inception_4e/relu_3x3 -> inception_4e/3x3 (in-place)
I0403 15:01:55.507402  2570 net.cpp:141] Setting up inception_4e/relu_3x3
I0403 15:01:55.507431  2570 net.cpp:148] Top shape: 24 320 14 14 (1505280)
I0403 15:01:55.507446  2570 net.cpp:156] Memory required for data: 1236129312
I0403 15:01:55.507459  2570 layer_factory.hpp:77] Creating layer inception_4e/5x5_reduce
I0403 15:01:55.507483  2570 net.cpp:91] Creating Layer inception_4e/5x5_reduce
I0403 15:01:55.507499  2570 net.cpp:425] inception_4e/5x5_reduce <- inception_4d/output_inception_4d/output_0_split_3
I0403 15:01:55.507519  2570 net.cpp:399] inception_4e/5x5_reduce -> inception_4e/5x5_reduce
I0403 15:01:55.508574  2570 net.cpp:141] Setting up inception_4e/5x5_reduce
I0403 15:01:55.508600  2570 net.cpp:148] Top shape: 24 32 14 14 (150528)
I0403 15:01:55.508616  2570 net.cpp:156] Memory required for data: 1236731424
I0403 15:01:55.508633  2570 layer_factory.hpp:77] Creating layer inception_4e/relu_5x5_reduce
I0403 15:01:55.508656  2570 net.cpp:91] Creating Layer inception_4e/relu_5x5_reduce
I0403 15:01:55.508672  2570 net.cpp:425] inception_4e/relu_5x5_reduce <- inception_4e/5x5_reduce
I0403 15:01:55.508689  2570 net.cpp:386] inception_4e/relu_5x5_reduce -> inception_4e/5x5_reduce (in-place)
I0403 15:01:55.508978  2570 net.cpp:141] Setting up inception_4e/relu_5x5_reduce
I0403 15:01:55.509003  2570 net.cpp:148] Top shape: 24 32 14 14 (150528)
I0403 15:01:55.509018  2570 net.cpp:156] Memory required for data: 1237333536
I0403 15:01:55.509033  2570 layer_factory.hpp:77] Creating layer inception_4e/5x5
I0403 15:01:55.509073  2570 net.cpp:91] Creating Layer inception_4e/5x5
I0403 15:01:55.509091  2570 net.cpp:425] inception_4e/5x5 <- inception_4e/5x5_reduce
I0403 15:01:55.509111  2570 net.cpp:399] inception_4e/5x5 -> inception_4e/5x5
I0403 15:01:55.510993  2570 net.cpp:141] Setting up inception_4e/5x5
I0403 15:01:55.511023  2570 net.cpp:148] Top shape: 24 128 14 14 (602112)
I0403 15:01:55.511039  2570 net.cpp:156] Memory required for data: 1239741984
I0403 15:01:55.511057  2570 layer_factory.hpp:77] Creating layer inception_4e/relu_5x5
I0403 15:01:55.511076  2570 net.cpp:91] Creating Layer inception_4e/relu_5x5
I0403 15:01:55.511092  2570 net.cpp:425] inception_4e/relu_5x5 <- inception_4e/5x5
I0403 15:01:55.511112  2570 net.cpp:386] inception_4e/relu_5x5 -> inception_4e/5x5 (in-place)
I0403 15:01:55.511317  2570 net.cpp:141] Setting up inception_4e/relu_5x5
I0403 15:01:55.511342  2570 net.cpp:148] Top shape: 24 128 14 14 (602112)
I0403 15:01:55.511356  2570 net.cpp:156] Memory required for data: 1242150432
I0403 15:01:55.511370  2570 layer_factory.hpp:77] Creating layer inception_4e/pool
I0403 15:01:55.511389  2570 net.cpp:91] Creating Layer inception_4e/pool
I0403 15:01:55.511404  2570 net.cpp:425] inception_4e/pool <- inception_4d/output_inception_4d/output_0_split_4
I0403 15:01:55.511425  2570 net.cpp:399] inception_4e/pool -> inception_4e/pool
I0403 15:01:55.511497  2570 net.cpp:141] Setting up inception_4e/pool
I0403 15:01:55.511519  2570 net.cpp:148] Top shape: 24 528 14 14 (2483712)
I0403 15:01:55.511534  2570 net.cpp:156] Memory required for data: 1252085280
I0403 15:01:55.511549  2570 layer_factory.hpp:77] Creating layer inception_4e/pool_proj
I0403 15:01:55.511572  2570 net.cpp:91] Creating Layer inception_4e/pool_proj
I0403 15:01:55.511590  2570 net.cpp:425] inception_4e/pool_proj <- inception_4e/pool
I0403 15:01:55.511607  2570 net.cpp:399] inception_4e/pool_proj -> inception_4e/pool_proj
I0403 15:01:55.513133  2570 net.cpp:141] Setting up inception_4e/pool_proj
I0403 15:01:55.513175  2570 net.cpp:148] Top shape: 24 128 14 14 (602112)
I0403 15:01:55.513192  2570 net.cpp:156] Memory required for data: 1254493728
I0403 15:01:55.513211  2570 layer_factory.hpp:77] Creating layer inception_4e/relu_pool_proj
I0403 15:01:55.513229  2570 net.cpp:91] Creating Layer inception_4e/relu_pool_proj
I0403 15:01:55.513249  2570 net.cpp:425] inception_4e/relu_pool_proj <- inception_4e/pool_proj
I0403 15:01:55.513270  2570 net.cpp:386] inception_4e/relu_pool_proj -> inception_4e/pool_proj (in-place)
I0403 15:01:55.513566  2570 net.cpp:141] Setting up inception_4e/relu_pool_proj
I0403 15:01:55.513593  2570 net.cpp:148] Top shape: 24 128 14 14 (602112)
I0403 15:01:55.513609  2570 net.cpp:156] Memory required for data: 1256902176
I0403 15:01:55.513624  2570 layer_factory.hpp:77] Creating layer inception_4e/output
I0403 15:01:55.513641  2570 net.cpp:91] Creating Layer inception_4e/output
I0403 15:01:55.513658  2570 net.cpp:425] inception_4e/output <- inception_4e/1x1
I0403 15:01:55.513674  2570 net.cpp:425] inception_4e/output <- inception_4e/3x3
I0403 15:01:55.513689  2570 net.cpp:425] inception_4e/output <- inception_4e/5x5
I0403 15:01:55.513705  2570 net.cpp:425] inception_4e/output <- inception_4e/pool_proj
I0403 15:01:55.513725  2570 net.cpp:399] inception_4e/output -> inception_4e/output
I0403 15:01:55.513773  2570 net.cpp:141] Setting up inception_4e/output
I0403 15:01:55.513797  2570 net.cpp:148] Top shape: 24 832 14 14 (3913728)
I0403 15:01:55.513810  2570 net.cpp:156] Memory required for data: 1272557088
I0403 15:01:55.513825  2570 layer_factory.hpp:77] Creating layer pool4/3x3_s2
I0403 15:01:55.513845  2570 net.cpp:91] Creating Layer pool4/3x3_s2
I0403 15:01:55.513862  2570 net.cpp:425] pool4/3x3_s2 <- inception_4e/output
I0403 15:01:55.513880  2570 net.cpp:399] pool4/3x3_s2 -> pool4/3x3_s2
I0403 15:01:55.513950  2570 net.cpp:141] Setting up pool4/3x3_s2
I0403 15:01:55.513973  2570 net.cpp:148] Top shape: 24 832 7 7 (978432)
I0403 15:01:55.513988  2570 net.cpp:156] Memory required for data: 1276470816
I0403 15:01:55.514003  2570 layer_factory.hpp:77] Creating layer pool4/3x3_s2_pool4/3x3_s2_0_split
I0403 15:01:55.514019  2570 net.cpp:91] Creating Layer pool4/3x3_s2_pool4/3x3_s2_0_split
I0403 15:01:55.514035  2570 net.cpp:425] pool4/3x3_s2_pool4/3x3_s2_0_split <- pool4/3x3_s2
I0403 15:01:55.514055  2570 net.cpp:399] pool4/3x3_s2_pool4/3x3_s2_0_split -> pool4/3x3_s2_pool4/3x3_s2_0_split_0
I0403 15:01:55.514075  2570 net.cpp:399] pool4/3x3_s2_pool4/3x3_s2_0_split -> pool4/3x3_s2_pool4/3x3_s2_0_split_1
I0403 15:01:55.514096  2570 net.cpp:399] pool4/3x3_s2_pool4/3x3_s2_0_split -> pool4/3x3_s2_pool4/3x3_s2_0_split_2
I0403 15:01:55.514117  2570 net.cpp:399] pool4/3x3_s2_pool4/3x3_s2_0_split -> pool4/3x3_s2_pool4/3x3_s2_0_split_3
I0403 15:01:55.514209  2570 net.cpp:141] Setting up pool4/3x3_s2_pool4/3x3_s2_0_split
I0403 15:01:55.514231  2570 net.cpp:148] Top shape: 24 832 7 7 (978432)
I0403 15:01:55.514252  2570 net.cpp:148] Top shape: 24 832 7 7 (978432)
I0403 15:01:55.514268  2570 net.cpp:148] Top shape: 24 832 7 7 (978432)
I0403 15:01:55.514284  2570 net.cpp:148] Top shape: 24 832 7 7 (978432)
I0403 15:01:55.514297  2570 net.cpp:156] Memory required for data: 1292125728
I0403 15:01:55.514312  2570 layer_factory.hpp:77] Creating layer inception_5a/1x1
I0403 15:01:55.514333  2570 net.cpp:91] Creating Layer inception_5a/1x1
I0403 15:01:55.514351  2570 net.cpp:425] inception_5a/1x1 <- pool4/3x3_s2_pool4/3x3_s2_0_split_0
I0403 15:01:55.514372  2570 net.cpp:399] inception_5a/1x1 -> inception_5a/1x1
I0403 15:01:55.517228  2570 net.cpp:141] Setting up inception_5a/1x1
I0403 15:01:55.517261  2570 net.cpp:148] Top shape: 24 256 7 7 (301056)
I0403 15:01:55.517277  2570 net.cpp:156] Memory required for data: 1293329952
I0403 15:01:55.517297  2570 layer_factory.hpp:77] Creating layer inception_5a/relu_1x1
I0403 15:01:55.517314  2570 net.cpp:91] Creating Layer inception_5a/relu_1x1
I0403 15:01:55.517330  2570 net.cpp:425] inception_5a/relu_1x1 <- inception_5a/1x1
I0403 15:01:55.517350  2570 net.cpp:386] inception_5a/relu_1x1 -> inception_5a/1x1 (in-place)
I0403 15:01:55.517686  2570 net.cpp:141] Setting up inception_5a/relu_1x1
I0403 15:01:55.517714  2570 net.cpp:148] Top shape: 24 256 7 7 (301056)
I0403 15:01:55.517742  2570 net.cpp:156] Memory required for data: 1294534176
I0403 15:01:55.517757  2570 layer_factory.hpp:77] Creating layer inception_5a/3x3_reduce
I0403 15:01:55.517779  2570 net.cpp:91] Creating Layer inception_5a/3x3_reduce
I0403 15:01:55.517797  2570 net.cpp:425] inception_5a/3x3_reduce <- pool4/3x3_s2_pool4/3x3_s2_0_split_1
I0403 15:01:55.517819  2570 net.cpp:399] inception_5a/3x3_reduce -> inception_5a/3x3_reduce
I0403 15:01:55.520306  2570 net.cpp:141] Setting up inception_5a/3x3_reduce
I0403 15:01:55.520335  2570 net.cpp:148] Top shape: 24 160 7 7 (188160)
I0403 15:01:55.520351  2570 net.cpp:156] Memory required for data: 1295286816
I0403 15:01:55.520370  2570 layer_factory.hpp:77] Creating layer inception_5a/relu_3x3_reduce
I0403 15:01:55.520390  2570 net.cpp:91] Creating Layer inception_5a/relu_3x3_reduce
I0403 15:01:55.520406  2570 net.cpp:425] inception_5a/relu_3x3_reduce <- inception_5a/3x3_reduce
I0403 15:01:55.520424  2570 net.cpp:386] inception_5a/relu_3x3_reduce -> inception_5a/3x3_reduce (in-place)
I0403 15:01:55.520614  2570 net.cpp:141] Setting up inception_5a/relu_3x3_reduce
I0403 15:01:55.520639  2570 net.cpp:148] Top shape: 24 160 7 7 (188160)
I0403 15:01:55.520653  2570 net.cpp:156] Memory required for data: 1296039456
I0403 15:01:55.520668  2570 layer_factory.hpp:77] Creating layer inception_5a/3x3
I0403 15:01:55.520691  2570 net.cpp:91] Creating Layer inception_5a/3x3
I0403 15:01:55.520709  2570 net.cpp:425] inception_5a/3x3 <- inception_5a/3x3_reduce
I0403 15:01:55.520730  2570 net.cpp:399] inception_5a/3x3 -> inception_5a/3x3
I0403 15:01:55.525821  2570 net.cpp:141] Setting up inception_5a/3x3
I0403 15:01:55.525854  2570 net.cpp:148] Top shape: 24 320 7 7 (376320)
I0403 15:01:55.525871  2570 net.cpp:156] Memory required for data: 1297544736
I0403 15:01:55.525890  2570 layer_factory.hpp:77] Creating layer inception_5a/relu_3x3
I0403 15:01:55.525909  2570 net.cpp:91] Creating Layer inception_5a/relu_3x3
I0403 15:01:55.525926  2570 net.cpp:425] inception_5a/relu_3x3 <- inception_5a/3x3
I0403 15:01:55.525948  2570 net.cpp:386] inception_5a/relu_3x3 -> inception_5a/3x3 (in-place)
I0403 15:01:55.526254  2570 net.cpp:141] Setting up inception_5a/relu_3x3
I0403 15:01:55.526283  2570 net.cpp:148] Top shape: 24 320 7 7 (376320)
I0403 15:01:55.526299  2570 net.cpp:156] Memory required for data: 1299050016
I0403 15:01:55.526315  2570 layer_factory.hpp:77] Creating layer inception_5a/5x5_reduce
I0403 15:01:55.526340  2570 net.cpp:91] Creating Layer inception_5a/5x5_reduce
I0403 15:01:55.526358  2570 net.cpp:425] inception_5a/5x5_reduce <- pool4/3x3_s2_pool4/3x3_s2_0_split_2
I0403 15:01:55.526379  2570 net.cpp:399] inception_5a/5x5_reduce -> inception_5a/5x5_reduce
I0403 15:01:55.527603  2570 net.cpp:141] Setting up inception_5a/5x5_reduce
I0403 15:01:55.527632  2570 net.cpp:148] Top shape: 24 32 7 7 (37632)
I0403 15:01:55.527647  2570 net.cpp:156] Memory required for data: 1299200544
I0403 15:01:55.527667  2570 layer_factory.hpp:77] Creating layer inception_5a/relu_5x5_reduce
I0403 15:01:55.527684  2570 net.cpp:91] Creating Layer inception_5a/relu_5x5_reduce
I0403 15:01:55.527700  2570 net.cpp:425] inception_5a/relu_5x5_reduce <- inception_5a/5x5_reduce
I0403 15:01:55.527720  2570 net.cpp:386] inception_5a/relu_5x5_reduce -> inception_5a/5x5_reduce (in-place)
I0403 15:01:55.528023  2570 net.cpp:141] Setting up inception_5a/relu_5x5_reduce
I0403 15:01:55.528049  2570 net.cpp:148] Top shape: 24 32 7 7 (37632)
I0403 15:01:55.528064  2570 net.cpp:156] Memory required for data: 1299351072
I0403 15:01:55.528080  2570 layer_factory.hpp:77] Creating layer inception_5a/5x5
I0403 15:01:55.528102  2570 net.cpp:91] Creating Layer inception_5a/5x5
I0403 15:01:55.528120  2570 net.cpp:425] inception_5a/5x5 <- inception_5a/5x5_reduce
I0403 15:01:55.528141  2570 net.cpp:399] inception_5a/5x5 -> inception_5a/5x5
I0403 15:01:55.529883  2570 net.cpp:141] Setting up inception_5a/5x5
I0403 15:01:55.529925  2570 net.cpp:148] Top shape: 24 128 7 7 (150528)
I0403 15:01:55.529943  2570 net.cpp:156] Memory required for data: 1299953184
I0403 15:01:55.529961  2570 layer_factory.hpp:77] Creating layer inception_5a/relu_5x5
I0403 15:01:55.529979  2570 net.cpp:91] Creating Layer inception_5a/relu_5x5
I0403 15:01:55.529995  2570 net.cpp:425] inception_5a/relu_5x5 <- inception_5a/5x5
I0403 15:01:55.530016  2570 net.cpp:386] inception_5a/relu_5x5 -> inception_5a/5x5 (in-place)
I0403 15:01:55.530226  2570 net.cpp:141] Setting up inception_5a/relu_5x5
I0403 15:01:55.530256  2570 net.cpp:148] Top shape: 24 128 7 7 (150528)
I0403 15:01:55.530272  2570 net.cpp:156] Memory required for data: 1300555296
I0403 15:01:55.530287  2570 layer_factory.hpp:77] Creating layer inception_5a/pool
I0403 15:01:55.530305  2570 net.cpp:91] Creating Layer inception_5a/pool
I0403 15:01:55.530321  2570 net.cpp:425] inception_5a/pool <- pool4/3x3_s2_pool4/3x3_s2_0_split_3
I0403 15:01:55.530342  2570 net.cpp:399] inception_5a/pool -> inception_5a/pool
I0403 15:01:55.530429  2570 net.cpp:141] Setting up inception_5a/pool
I0403 15:01:55.530453  2570 net.cpp:148] Top shape: 24 832 7 7 (978432)
I0403 15:01:55.530468  2570 net.cpp:156] Memory required for data: 1304469024
I0403 15:01:55.530483  2570 layer_factory.hpp:77] Creating layer inception_5a/pool_proj
I0403 15:01:55.530504  2570 net.cpp:91] Creating Layer inception_5a/pool_proj
I0403 15:01:55.530524  2570 net.cpp:425] inception_5a/pool_proj <- inception_5a/pool
I0403 15:01:55.530547  2570 net.cpp:399] inception_5a/pool_proj -> inception_5a/pool_proj
I0403 15:01:55.532860  2570 net.cpp:141] Setting up inception_5a/pool_proj
I0403 15:01:55.532891  2570 net.cpp:148] Top shape: 24 128 7 7 (150528)
I0403 15:01:55.532907  2570 net.cpp:156] Memory required for data: 1305071136
I0403 15:01:55.532927  2570 layer_factory.hpp:77] Creating layer inception_5a/relu_pool_proj
I0403 15:01:55.532944  2570 net.cpp:91] Creating Layer inception_5a/relu_pool_proj
I0403 15:01:55.532960  2570 net.cpp:425] inception_5a/relu_pool_proj <- inception_5a/pool_proj
I0403 15:01:55.532977  2570 net.cpp:386] inception_5a/relu_pool_proj -> inception_5a/pool_proj (in-place)
I0403 15:01:55.533287  2570 net.cpp:141] Setting up inception_5a/relu_pool_proj
I0403 15:01:55.533315  2570 net.cpp:148] Top shape: 24 128 7 7 (150528)
I0403 15:01:55.533331  2570 net.cpp:156] Memory required for data: 1305673248
I0403 15:01:55.533346  2570 layer_factory.hpp:77] Creating layer inception_5a/output
I0403 15:01:55.533363  2570 net.cpp:91] Creating Layer inception_5a/output
I0403 15:01:55.533378  2570 net.cpp:425] inception_5a/output <- inception_5a/1x1
I0403 15:01:55.533396  2570 net.cpp:425] inception_5a/output <- inception_5a/3x3
I0403 15:01:55.533411  2570 net.cpp:425] inception_5a/output <- inception_5a/5x5
I0403 15:01:55.533427  2570 net.cpp:425] inception_5a/output <- inception_5a/pool_proj
I0403 15:01:55.533443  2570 net.cpp:399] inception_5a/output -> inception_5a/output
I0403 15:01:55.533495  2570 net.cpp:141] Setting up inception_5a/output
I0403 15:01:55.533519  2570 net.cpp:148] Top shape: 24 832 7 7 (978432)
I0403 15:01:55.533534  2570 net.cpp:156] Memory required for data: 1309586976
I0403 15:01:55.533548  2570 layer_factory.hpp:77] Creating layer inception_5a/output_inception_5a/output_0_split
I0403 15:01:55.533567  2570 net.cpp:91] Creating Layer inception_5a/output_inception_5a/output_0_split
I0403 15:01:55.533584  2570 net.cpp:425] inception_5a/output_inception_5a/output_0_split <- inception_5a/output
I0403 15:01:55.533602  2570 net.cpp:399] inception_5a/output_inception_5a/output_0_split -> inception_5a/output_inception_5a/output_0_split_0
I0403 15:01:55.533623  2570 net.cpp:399] inception_5a/output_inception_5a/output_0_split -> inception_5a/output_inception_5a/output_0_split_1
I0403 15:01:55.533643  2570 net.cpp:399] inception_5a/output_inception_5a/output_0_split -> inception_5a/output_inception_5a/output_0_split_2
I0403 15:01:55.533663  2570 net.cpp:399] inception_5a/output_inception_5a/output_0_split -> inception_5a/output_inception_5a/output_0_split_3
I0403 15:01:55.533779  2570 net.cpp:141] Setting up inception_5a/output_inception_5a/output_0_split
I0403 15:01:55.533802  2570 net.cpp:148] Top shape: 24 832 7 7 (978432)
I0403 15:01:55.533819  2570 net.cpp:148] Top shape: 24 832 7 7 (978432)
I0403 15:01:55.533834  2570 net.cpp:148] Top shape: 24 832 7 7 (978432)
I0403 15:01:55.533850  2570 net.cpp:148] Top shape: 24 832 7 7 (978432)
I0403 15:01:55.533864  2570 net.cpp:156] Memory required for data: 1325241888
I0403 15:01:55.533879  2570 layer_factory.hpp:77] Creating layer inception_5b/1x1
I0403 15:01:55.533900  2570 net.cpp:91] Creating Layer inception_5b/1x1
I0403 15:01:55.533918  2570 net.cpp:425] inception_5b/1x1 <- inception_5a/output_inception_5a/output_0_split_0
I0403 15:01:55.533939  2570 net.cpp:399] inception_5b/1x1 -> inception_5b/1x1
I0403 15:01:55.537750  2570 net.cpp:141] Setting up inception_5b/1x1
I0403 15:01:55.537781  2570 net.cpp:148] Top shape: 24 384 7 7 (451584)
I0403 15:01:55.537796  2570 net.cpp:156] Memory required for data: 1327048224
I0403 15:01:55.537814  2570 layer_factory.hpp:77] Creating layer inception_5b/relu_1x1
I0403 15:01:55.537835  2570 net.cpp:91] Creating Layer inception_5b/relu_1x1
I0403 15:01:55.537853  2570 net.cpp:425] inception_5b/relu_1x1 <- inception_5b/1x1
I0403 15:01:55.537870  2570 net.cpp:386] inception_5b/relu_1x1 -> inception_5b/1x1 (in-place)
I0403 15:01:55.538178  2570 net.cpp:141] Setting up inception_5b/relu_1x1
I0403 15:01:55.538204  2570 net.cpp:148] Top shape: 24 384 7 7 (451584)
I0403 15:01:55.538223  2570 net.cpp:156] Memory required for data: 1328854560
I0403 15:01:55.538238  2570 layer_factory.hpp:77] Creating layer inception_5b/3x3_reduce
I0403 15:01:55.538275  2570 net.cpp:91] Creating Layer inception_5b/3x3_reduce
I0403 15:01:55.538293  2570 net.cpp:425] inception_5b/3x3_reduce <- inception_5a/output_inception_5a/output_0_split_1
I0403 15:01:55.538312  2570 net.cpp:399] inception_5b/3x3_reduce -> inception_5b/3x3_reduce
I0403 15:01:55.541002  2570 net.cpp:141] Setting up inception_5b/3x3_reduce
I0403 15:01:55.541033  2570 net.cpp:148] Top shape: 24 192 7 7 (225792)
I0403 15:01:55.541050  2570 net.cpp:156] Memory required for data: 1329757728
I0403 15:01:55.541069  2570 layer_factory.hpp:77] Creating layer inception_5b/relu_3x3_reduce
I0403 15:01:55.541087  2570 net.cpp:91] Creating Layer inception_5b/relu_3x3_reduce
I0403 15:01:55.541103  2570 net.cpp:425] inception_5b/relu_3x3_reduce <- inception_5b/3x3_reduce
I0403 15:01:55.541121  2570 net.cpp:386] inception_5b/relu_3x3_reduce -> inception_5b/3x3_reduce (in-place)
I0403 15:01:55.541328  2570 net.cpp:141] Setting up inception_5b/relu_3x3_reduce
I0403 15:01:55.541354  2570 net.cpp:148] Top shape: 24 192 7 7 (225792)
I0403 15:01:55.541369  2570 net.cpp:156] Memory required for data: 1330660896
I0403 15:01:55.541384  2570 layer_factory.hpp:77] Creating layer inception_5b/3x3
I0403 15:01:55.541406  2570 net.cpp:91] Creating Layer inception_5b/3x3
I0403 15:01:55.541424  2570 net.cpp:425] inception_5b/3x3 <- inception_5b/3x3_reduce
I0403 15:01:55.541446  2570 net.cpp:399] inception_5b/3x3 -> inception_5b/3x3
I0403 15:01:55.548187  2570 net.cpp:141] Setting up inception_5b/3x3
I0403 15:01:55.548223  2570 net.cpp:148] Top shape: 24 384 7 7 (451584)
I0403 15:01:55.548243  2570 net.cpp:156] Memory required for data: 1332467232
I0403 15:01:55.548262  2570 layer_factory.hpp:77] Creating layer inception_5b/relu_3x3
I0403 15:01:55.548282  2570 net.cpp:91] Creating Layer inception_5b/relu_3x3
I0403 15:01:55.548298  2570 net.cpp:425] inception_5b/relu_3x3 <- inception_5b/3x3
I0403 15:01:55.548318  2570 net.cpp:386] inception_5b/relu_3x3 -> inception_5b/3x3 (in-place)
I0403 15:01:55.548625  2570 net.cpp:141] Setting up inception_5b/relu_3x3
I0403 15:01:55.548653  2570 net.cpp:148] Top shape: 24 384 7 7 (451584)
I0403 15:01:55.548669  2570 net.cpp:156] Memory required for data: 1334273568
I0403 15:01:55.548684  2570 layer_factory.hpp:77] Creating layer inception_5b/5x5_reduce
I0403 15:01:55.548724  2570 net.cpp:91] Creating Layer inception_5b/5x5_reduce
I0403 15:01:55.548744  2570 net.cpp:425] inception_5b/5x5_reduce <- inception_5a/output_inception_5a/output_0_split_2
I0403 15:01:55.548763  2570 net.cpp:399] inception_5b/5x5_reduce -> inception_5b/5x5_reduce
I0403 15:01:55.550062  2570 net.cpp:141] Setting up inception_5b/5x5_reduce
I0403 15:01:55.550092  2570 net.cpp:148] Top shape: 24 48 7 7 (56448)
I0403 15:01:55.550108  2570 net.cpp:156] Memory required for data: 1334499360
I0403 15:01:55.550127  2570 layer_factory.hpp:77] Creating layer inception_5b/relu_5x5_reduce
I0403 15:01:55.550146  2570 net.cpp:91] Creating Layer inception_5b/relu_5x5_reduce
I0403 15:01:55.550163  2570 net.cpp:425] inception_5b/relu_5x5_reduce <- inception_5b/5x5_reduce
I0403 15:01:55.550182  2570 net.cpp:386] inception_5b/relu_5x5_reduce -> inception_5b/5x5_reduce (in-place)
I0403 15:01:55.550565  2570 net.cpp:141] Setting up inception_5b/relu_5x5_reduce
I0403 15:01:55.550592  2570 net.cpp:148] Top shape: 24 48 7 7 (56448)
I0403 15:01:55.550607  2570 net.cpp:156] Memory required for data: 1334725152
I0403 15:01:55.550622  2570 layer_factory.hpp:77] Creating layer inception_5b/5x5
I0403 15:01:55.550642  2570 net.cpp:91] Creating Layer inception_5b/5x5
I0403 15:01:55.550659  2570 net.cpp:425] inception_5b/5x5 <- inception_5b/5x5_reduce
I0403 15:01:55.550678  2570 net.cpp:399] inception_5b/5x5 -> inception_5b/5x5
I0403 15:01:55.552786  2570 net.cpp:141] Setting up inception_5b/5x5
I0403 15:01:55.552814  2570 net.cpp:148] Top shape: 24 128 7 7 (150528)
I0403 15:01:55.552829  2570 net.cpp:156] Memory required for data: 1335327264
I0403 15:01:55.552847  2570 layer_factory.hpp:77] Creating layer inception_5b/relu_5x5
I0403 15:01:55.552866  2570 net.cpp:91] Creating Layer inception_5b/relu_5x5
I0403 15:01:55.552882  2570 net.cpp:425] inception_5b/relu_5x5 <- inception_5b/5x5
I0403 15:01:55.552902  2570 net.cpp:386] inception_5b/relu_5x5 -> inception_5b/5x5 (in-place)
I0403 15:01:55.553098  2570 net.cpp:141] Setting up inception_5b/relu_5x5
I0403 15:01:55.553123  2570 net.cpp:148] Top shape: 24 128 7 7 (150528)
I0403 15:01:55.553138  2570 net.cpp:156] Memory required for data: 1335929376
I0403 15:01:55.553153  2570 layer_factory.hpp:77] Creating layer inception_5b/pool
I0403 15:01:55.553174  2570 net.cpp:91] Creating Layer inception_5b/pool
I0403 15:01:55.553190  2570 net.cpp:425] inception_5b/pool <- inception_5a/output_inception_5a/output_0_split_3
I0403 15:01:55.553208  2570 net.cpp:399] inception_5b/pool -> inception_5b/pool
I0403 15:01:55.553289  2570 net.cpp:141] Setting up inception_5b/pool
I0403 15:01:55.553313  2570 net.cpp:148] Top shape: 24 832 7 7 (978432)
I0403 15:01:55.553328  2570 net.cpp:156] Memory required for data: 1339843104
I0403 15:01:55.553342  2570 layer_factory.hpp:77] Creating layer inception_5b/pool_proj
I0403 15:01:55.553364  2570 net.cpp:91] Creating Layer inception_5b/pool_proj
I0403 15:01:55.553381  2570 net.cpp:425] inception_5b/pool_proj <- inception_5b/pool
I0403 15:01:55.553403  2570 net.cpp:399] inception_5b/pool_proj -> inception_5b/pool_proj
I0403 15:01:55.555745  2570 net.cpp:141] Setting up inception_5b/pool_proj
I0403 15:01:55.555778  2570 net.cpp:148] Top shape: 24 128 7 7 (150528)
I0403 15:01:55.555794  2570 net.cpp:156] Memory required for data: 1340445216
I0403 15:01:55.555812  2570 layer_factory.hpp:77] Creating layer inception_5b/relu_pool_proj
I0403 15:01:55.555830  2570 net.cpp:91] Creating Layer inception_5b/relu_pool_proj
I0403 15:01:55.555847  2570 net.cpp:425] inception_5b/relu_pool_proj <- inception_5b/pool_proj
I0403 15:01:55.555867  2570 net.cpp:386] inception_5b/relu_pool_proj -> inception_5b/pool_proj (in-place)
I0403 15:01:55.556166  2570 net.cpp:141] Setting up inception_5b/relu_pool_proj
I0403 15:01:55.556195  2570 net.cpp:148] Top shape: 24 128 7 7 (150528)
I0403 15:01:55.556210  2570 net.cpp:156] Memory required for data: 1341047328
I0403 15:01:55.556226  2570 layer_factory.hpp:77] Creating layer inception_5b/output
I0403 15:01:55.556246  2570 net.cpp:91] Creating Layer inception_5b/output
I0403 15:01:55.556278  2570 net.cpp:425] inception_5b/output <- inception_5b/1x1
I0403 15:01:55.556296  2570 net.cpp:425] inception_5b/output <- inception_5b/3x3
I0403 15:01:55.556313  2570 net.cpp:425] inception_5b/output <- inception_5b/5x5
I0403 15:01:55.556329  2570 net.cpp:425] inception_5b/output <- inception_5b/pool_proj
I0403 15:01:55.556349  2570 net.cpp:399] inception_5b/output -> inception_5b/output
I0403 15:01:55.556401  2570 net.cpp:141] Setting up inception_5b/output
I0403 15:01:55.556424  2570 net.cpp:148] Top shape: 24 1024 7 7 (1204224)
I0403 15:01:55.556439  2570 net.cpp:156] Memory required for data: 1345864224
I0403 15:01:55.556453  2570 layer_factory.hpp:77] Creating layer pool5/7x7_s1
I0403 15:01:55.556475  2570 net.cpp:91] Creating Layer pool5/7x7_s1
I0403 15:01:55.556493  2570 net.cpp:425] pool5/7x7_s1 <- inception_5b/output
I0403 15:01:55.556511  2570 net.cpp:399] pool5/7x7_s1 -> pool5/7x7_s1
I0403 15:01:55.556730  2570 net.cpp:141] Setting up pool5/7x7_s1
I0403 15:01:55.556756  2570 net.cpp:148] Top shape: 24 1024 1 1 (24576)
I0403 15:01:55.556771  2570 net.cpp:156] Memory required for data: 1345962528
I0403 15:01:55.556785  2570 layer_factory.hpp:77] Creating layer pool5/drop_7x7_s1
I0403 15:01:55.556803  2570 net.cpp:91] Creating Layer pool5/drop_7x7_s1
I0403 15:01:55.556819  2570 net.cpp:425] pool5/drop_7x7_s1 <- pool5/7x7_s1
I0403 15:01:55.556841  2570 net.cpp:386] pool5/drop_7x7_s1 -> pool5/7x7_s1 (in-place)
I0403 15:01:55.556892  2570 net.cpp:141] Setting up pool5/drop_7x7_s1
I0403 15:01:55.556915  2570 net.cpp:148] Top shape: 24 1024 1 1 (24576)
I0403 15:01:55.556931  2570 net.cpp:156] Memory required for data: 1346060832
I0403 15:01:55.556946  2570 layer_factory.hpp:77] Creating layer loss3/classifier_plantvillage
I0403 15:01:55.556967  2570 net.cpp:91] Creating Layer loss3/classifier_plantvillage
I0403 15:01:55.556984  2570 net.cpp:425] loss3/classifier_plantvillage <- pool5/7x7_s1
I0403 15:01:55.557004  2570 net.cpp:399] loss3/classifier_plantvillage -> loss3/classifier_plantvillage
I0403 15:01:55.557441  2570 net.cpp:141] Setting up loss3/classifier_plantvillage
I0403 15:01:55.557466  2570 net.cpp:148] Top shape: 24 38 (912)
I0403 15:01:55.557481  2570 net.cpp:156] Memory required for data: 1346064480
I0403 15:01:55.557498  2570 layer_factory.hpp:77] Creating layer loss3/classifier_plantvillage_loss3/classifier_plantvillage_0_split
I0403 15:01:55.557519  2570 net.cpp:91] Creating Layer loss3/classifier_plantvillage_loss3/classifier_plantvillage_0_split
I0403 15:01:55.557538  2570 net.cpp:425] loss3/classifier_plantvillage_loss3/classifier_plantvillage_0_split <- loss3/classifier_plantvillage
I0403 15:01:55.557557  2570 net.cpp:399] loss3/classifier_plantvillage_loss3/classifier_plantvillage_0_split -> loss3/classifier_plantvillage_loss3/classifier_plantvillage_0_split_0
I0403 15:01:55.557577  2570 net.cpp:399] loss3/classifier_plantvillage_loss3/classifier_plantvillage_0_split -> loss3/classifier_plantvillage_loss3/classifier_plantvillage_0_split_1
I0403 15:01:55.557597  2570 net.cpp:399] loss3/classifier_plantvillage_loss3/classifier_plantvillage_0_split -> loss3/classifier_plantvillage_loss3/classifier_plantvillage_0_split_2
I0403 15:01:55.557620  2570 net.cpp:399] loss3/classifier_plantvillage_loss3/classifier_plantvillage_0_split -> loss3/classifier_plantvillage_loss3/classifier_plantvillage_0_split_3
I0403 15:01:55.557725  2570 net.cpp:141] Setting up loss3/classifier_plantvillage_loss3/classifier_plantvillage_0_split
I0403 15:01:55.557749  2570 net.cpp:148] Top shape: 24 38 (912)
I0403 15:01:55.557765  2570 net.cpp:148] Top shape: 24 38 (912)
I0403 15:01:55.557780  2570 net.cpp:148] Top shape: 24 38 (912)
I0403 15:01:55.557796  2570 net.cpp:148] Top shape: 24 38 (912)
I0403 15:01:55.557809  2570 net.cpp:156] Memory required for data: 1346079072
I0403 15:01:55.557824  2570 layer_factory.hpp:77] Creating layer loss1/loss
I0403 15:01:55.557847  2570 net.cpp:91] Creating Layer loss1/loss
I0403 15:01:55.557864  2570 net.cpp:425] loss1/loss <- loss1/classifier_plantvillage_loss1/classifier_plantvillage_0_split_0
I0403 15:01:55.557895  2570 net.cpp:425] loss1/loss <- label_data_1_split_0
…
