…
I0403 15:08:56.994212  2725 net.cpp:313] The NetState phase (1) differed from the phase (0) specified by a rule in layer data
I0403 15:08:56.995343  2725 net.cpp:49] Initializing net from parameters: 
state {
  phase: TEST
}
layer {
  name: "data"
  type: "Data"
  top: "data"
  top: "label"
  include {
    phase: TEST
  }
  transform_param {
    mirror: false
    crop_size: 224
    mean_file: "/home/mohanty/data/final_dataset/lmdb/grayscale-50-50/mean.binaryproto"
  }
  data_param {
    source: "/home/mohanty/data/final_dataset/lmdb/grayscale-50-50/test_db"
    batch_size: 24
    backend: LMDB
  }
}
layer {
  name: "conv1/7x7_s2"
  type: "Convolution"
  bottom: "data"
  top: "conv1/7x7_s2"
  param {
    lr_mult: 1
    decay_mult: 1
  }
  param {
    lr_mult: 2
    decay_mult: 0
  }
  convolution_param {
    num_output: 64
    pad: 3
    kernel_size: 7
    stride: 2
    weight_filler {
      type: "xavier"
      std: 0.1
    }
    bias_filler {
      type: "constant"
      value: 0.2
    }
  }
}
layer {
  name: "conv1/relu_7x7"
  type: "ReLU"
  bottom: "conv1/7x7_s2"
  top: "conv1/7x7_s2"
}
layer {
  name: "pool1/3x3_s2"
  type: "Pooling"
  bottom: "conv1/7x7_s2"
  top: "pool1/3x3_s2"
  pooling_param {
    pool: MAX
    kernel_size: 3
    stride: 2
  }
}
layer {
  name: "pool1/norm1"
  type: "LRN"
  bottom: "pool1/3x3_s2"
  top: "pool1/norm1"
  lrn_param {
    local_size: 5
    alpha: 0.0001
    beta: 0.75
  }
}
layer {
  name: "conv2/3x3_reduce"
  type: "Convolution"
  bottom: "pool1/norm1"
  top: "conv2/3x3_reduce"
  param {
    lr_mult: 1
    decay_mult: 1
  }
  param {
    lr_mult: 2
    decay_mult: 0
  }
  convolution_param {
    num_output: 64
    kernel_size: 1
    weight_filler {
      type: "xavier"
      std: 0.1
    }
    bias_filler {
      type: "constant"
      value: 0.2
    }
  }
}
layer {
  name: "conv2/relu_3x3_reduce"
  type: "ReLU"
  bottom: "conv2/3x3_reduce"
  top: "conv2/3x3_reduce"
}
layer {
  name: "conv2/3x3"
  type: "Convolution"
  bottom: "conv2/3x3_reduce"
  top: "conv2/3x3"
  param {
    lr_mult: 1
    decay_mult: 1
  }
  param {
    lr_mult: 2
    decay_mult: 0
  }
  convolution_param {
    num_output: 192
    pad: 1
    kernel_size: 3
    weight_filler {
      type: "xavier"
      std: 0.03
    }
    bias_filler {
      type: "constant"
      value: 0.2
    }
  }
}
layer {
  name: "conv2/relu_3x3"
  type: "ReLU"
  bottom: "conv2/3x3"
  top: "conv2/3x3"
}
layer {
  name: "conv2/norm2"
  type: "LRN"
  bottom: "conv2/3x3"
  top: "conv2/norm2"
  lrn_param {
    local_size: 5
    alpha: 0.0001
    beta: 0.75
  }
}
layer {
  name: "pool2/3x3_s2"
  type: "Pooling"
  bottom: "conv2/norm2"
  top: "pool2/3x3_s2"
  pooling_param {
    pool: MAX
    kernel_size: 3
    stride: 2
  }
}
layer {
  name: "inception_3a/1x1"
  type: "Convolution"
  bottom: "pool2/3x3_s2"
  top: "inception_3a/1x1"
  param {
    lr_mult: 1
    decay_mult: 1
  }
  param {
    lr_mult: 2
    decay_mult: 0
  }
  convolution_param {
    num_output: 64
    kernel_size: 1
    weight_filler {
      type: "xavier"
      std: 0.03
    }
    bias_filler {
      type: "constant"
      value: 0.2
    }
  }
}
layer {
  name: "inception_3a/relu_1x1"
  type: "ReLU"
  bottom: "inception_3a/1x1"
  top: "inception_3a/1x1"
}
layer {
  name: "inception_3a/3x3_reduce"
  type: "Convolution"
  bottom: "pool2/3x3_s2"
  top: "inception_3a/3x3_reduce"
  param {
    lr_mult: 1
    decay_mult: 1
  }
  param {
    lr_mult: 2
    decay_mult: 0
  }
  convolution_param {
    num_output: 96
    kernel_size: 1
    weight_filler {
      type: "xavier"
      std: 0.09
    }
    bias_filler {
      type: "constant"
      value: 0.2
    }
  }
}
layer {
  name: "inception_3a/relu_3x3_reduce"
  type: "ReLU"
  bottom: "inception_3a/3x3_reduce"
  top: "inception_3a/3x3_reduce"
}
layer {
  name: "inception_3a/3x3"
  type: "Convolution"
  bottom: "inception_3a/3x3_reduce"
  top: "inception_3a/3x3"
  param {
    lr_mult: 1
    decay_mult: 1
  }
  param {
    lr_mult: 2
    decay_mult: 0
  }
  convolution_param {
    num_output: 128
    pad: 1
    kernel_size: 3
    weight_filler {
      type: "xavier"
      std: 0.03
    }
    bias_filler {
      type: "constant"
      value: 0.2
    }
  }
}
layer {
  name: "inception_3a/relu_3x3"
  type: "ReLU"
  bottom: "inception_3a/3x3"
  top: "inception_3a/3x3"
}
layer {
  name: "inception_3a/5x5_reduce"
  type: "Convolution"
  bottom: "pool2/3x3_s2"
  top: "inception_3a/5x5_reduce"
  param {
    lr_mult: 1
    decay_mult: 1
  }
  param {
    lr_mult: 2
    decay_mult: 0
  }
  convolution_param {
    num_output: 16
    kernel_size: 1
    weight_filler {
      type: "xavier"
      std: 0.2
    }
    bias_filler {
      type: "constant"
      value: 0.2
    }
  }
}
layer {
  name: "inception_3a/relu_5x5_reduce"
  type: "ReLU"
  bottom: "inception_3a/5x5_reduce"
  top: "inception_3a/5x5_reduce"
}
layer {
  name: "inception_3a/5x5"
  type: "Convolution"
  bottom: "inception_3a/5x5_reduce"
  top: "inception_3a/5x5"
  param {
    lr_mult: 1
    decay_mult: 1
  }
  param {
    lr_mult: 2
    decay_mult: 0
  }
  convolution_param {
    num_output: 32
    pad: 2
    kernel_size: 5
    weight_filler {
      type: "xavier"
      std: 0.03
    }
    bias_filler {
      type: "constant"
      value: 0.2
    }
  }
}
layer {
  name: "inception_3a/relu_5x5"
  type: "ReLU"
  bottom: "inception_3a/5x5"
  top: "inception_3a/5x5"
}
layer {
  name: "inception_3a/pool"
  type: "Pooling"
  bottom: "pool2/3x3_s2"
  top: "inception_3a/pool"
  pooling_param {
    pool: MAX
    kernel_size: 3
    stride: 1
    pad: 1
  }
}
layer {
  name: "inception_3a/pool_proj"
  type: "Convolution"
  bottom: "inception_3a/pool"
  top: "inception_3a/pool_proj"
  param {
    lr_mult: 1
    decay_mult: 1
  }
  param {
    lr_mult: 2
    decay_mult: 0
  }
  convolution_param {
    num_output: 32
    kernel_size: 1
    weight_filler {
      type: "xavier"
      std: 0.1
    }
    bias_filler {
      type: "constant"
      value: 0.2
    }
  }
}
layer {
  name: "inception_3a/relu_pool_proj"
  type: "ReLU"
  bottom: "inception_3a/pool_proj"
  top: "inception_3a/pool_proj"
}
layer {
  name: "inception_3a/output"
  type: "Concat"
  bottom: "inception_3a/1x1"
  bottom: "inception_3a/3x3"
  bottom: "inception_3a/5x5"
  bottom: "inception_3a/pool_proj"
  top: "inception_3a/output"
}
layer {
  name: "inception_3b/1x1"
  type: "Convolution"
  bottom: "inception_3a/output"
  top: "inception_3b/1x1"
  param {
    lr_mult: 1
    decay_mult: 1
  }
  param {
    lr_mult: 2
    decay_mult: 0
  }
  convolution_param {
    num_output: 128
    kernel_size: 1
    weight_filler {
      type: "xavier"
      std: 0.03
    }
    bias_filler {
      type: "constant"
      value: 0.2
    }
  }
}
layer {
  name: "inception_3b/relu_1x1"
  type: "ReLU"
  bottom: "inception_3b/1x1"
  top: "inception_3b/1x1"
}
layer {
  name: "inception_3b/3x3_reduce"
  type: "Convolution"
  bottom: "inception_3a/output"
  top: "inception_3b/3x3_reduce"
  param {
    lr_mult: 1
    decay_mult: 1
  }
  param {
    lr_mult: 2
    decay_mult: 0
  }
  convolution_param {
    num_output: 128
    kernel_size: 1
    weight_filler {
      type: "xavier"
      std: 0.09
    }
    bias_filler {
      type: "constant"
      value: 0.2
    }
  }
}
layer {
  name: "inception_3b/relu_3x3_reduce"
  type: "ReLU"
  bottom: "inception_3b/3x3_reduce"
  top: "inception_3b/3x3_reduce"
}
layer {
  name: "inception_3b/3x3"
  type: "Convolution"
  bottom: "inception_3b/3x3_reduce"
  top: "inception_3b/3x3"
  param {
    lr_mult: 1
    decay_mult: 1
  }
  param {
    lr_mult: 2
    decay_mult: 0
  }
  convolution_param {
    num_output: 192
    pad: 1
    kernel_size: 3
    weight_filler {
      type: "xavier"
      std: 0.03
    }
    bias_filler {
      type: "constant"
      value: 0.2
    }
  }
}
layer {
  name: "inception_3b/relu_3x3"
  type: "ReLU"
  bottom: "inception_3b/3x3"
  top: "inception_3b/3x3"
}
layer {
  name: "inception_3b/5x5_reduce"
  type: "Convolution"
  bottom: "inception_3a/output"
  top: "inception_3b/5x5_reduce"
  param {
    lr_mult: 1
    decay_mult: 1
  }
  param {
    lr_mult: 2
    decay_mult: 0
  }
  convolution_param {
    num_output: 32
    kernel_size: 1
    weight_filler {
      type: "xavier"
      std: 0.2
    }
    bias_filler {
      type: "constant"
      value: 0.2
    }
  }
}
layer {
  name: "inception_3b/relu_5x5_reduce"
  type: "ReLU"
  bottom: "inception_3b/5x5_reduce"
  top: "inception_3b/5x5_reduce"
}
layer {
  name: "inception_3b/5x5"
  type: "Convolution"
  bottom: "inception_3b/5x5_reduce"
  top: "inception_3b/5x5"
  param {
    lr_mult: 1
    decay_mult: 1
  }
  param {
    lr_mult: 2
    decay_mult: 0
  }
  convolution_param {
    num_output: 96
    pad: 2
    kernel_size: 5
    weight_filler {
      type: "xavier"
      std: 0.03
    }
    bias_filler {
      type: "constant"
      value: 0.2
    }
  }
}
layer {
  name: "inception_3b/relu_5x5"
  type: "ReLU"
  bottom: "inception_3b/5x5"
  top: "inception_3b/5x5"
}
layer {
  name: "inception_3b/pool"
  type: "Pooling"
  bottom: "inception_3a/output"
  top: "inception_3b/pool"
  pooling_param {
    pool: MAX
    kernel_size: 3
    stride: 1
    pad: 1
  }
}
layer {
  name: "inception_3b/pool_proj"
  type: "Convolution"
  bottom: "inception_3b/pool"
  top: "inception_3b/pool_proj"
  param {
    lr_mult: 1
    decay_mult: 1
  }
  param {
    lr_mult: 2
    decay_mult: 0
  }
  convolution_param {
    num_output: 64
    kernel_size: 1
    weight_filler {
      type: "xavier"
      std: 0.1
    }
    bias_filler {
      type: "constant"
      value: 0.2
    }
  }
}
layer {
  name: "inception_3b/relu_pool_proj"
  type: "ReLU"
  bottom: "inception_3b/pool_proj"
  top: "inception_3b/pool_proj"
}
layer {
  name: "inception_3b/output"
  type: "Concat"
  bottom: "inception_3b/1x1"
  bottom: "inception_3b/3x3"
  bottom: "inception_3b/5x5"
  bottom: "inception_3b/pool_proj"
  top: "inception_3b/output"
}
layer {
  name: "pool3/3x3_s2"
  type: "Pooling"
  bottom: "inception_3b/output"
  top: "pool3/3x3_s2"
  pooling_param {
    pool: MAX
    kernel_size: 3
    stride: 2
  }
}
layer {
  name: "inception_4a/1x1"
  type: "Convolution"
  bottom: "pool3/3x3_s2"
  top: "inception_4a/1x1"
  param {
    lr_mult: 1
    decay_mult: 1
  }
  param {
    lr_mult: 2
    decay_mult: 0
  }
  convolution_param {
    num_output: 192
    kernel_size: 1
    weight_filler {
      type: "xavier"
      std: 0.03
    }
    bias_filler {
      type: "constant"
      value: 0.2
    }
  }
}
layer {
  name: "inception_4a/relu_1x1"
  type: "ReLU"
  bottom: "inception_4a/1x1"
  top: "inception_4a/1x1"
}
layer {
  name: "inception_4a/3x3_reduce"
  type: "Convolution"
  bottom: "pool3/3x3_s2"
  top: "inception_4a/3x3_reduce"
  param {
    lr_mult: 1
    decay_mult: 1
  }
  param {
    lr_mult: 2
    decay_mult: 0
  }
  convolution_param {
    num_output: 96
    kernel_size: 1
    weight_filler {
      type: "xavier"
      std: 0.09
    }
    bias_filler {
      type: "constant"
      value: 0.2
    }
  }
}
layer {
  name: "inception_4a/relu_3x3_reduce"
  type: "ReLU"
  bottom: "inception_4a/3x3_reduce"
  top: "inception_4a/3x3_reduce"
}
layer {
  name: "inception_4a/3x3"
  type: "Convolution"
  bottom: "inception_4a/3x3_reduce"
  top: "inception_4a/3x3"
  param {
    lr_mult: 1
    decay_mult: 1
  }
  param {
    lr_mult: 2
    decay_mult: 0
  }
  convolution_param {
    num_output: 208
    pad: 1
    kernel_size: 3
    weight_filler {
      type: "xavier"
      std: 0.03
    }
    bias_filler {
      type: "constant"
      value: 0.2
    }
  }
}
layer {
  name: "inception_4a/relu_3x3"
  type: "ReLU"
  bottom: "inception_4a/3x3"
  top: "inception_4a/3x3"
}
layer {
  name: "inception_4a/5x5_reduce"
  type: "Convolution"
  bottom: "pool3/3x3_s2"
  top: "inception_4a/5x5_reduce"
  param {
    lr_mult: 1
    decay_mult: 1
  }
  param {
    lr_mult: 2
    decay_mult: 0
  }
  convolution_param {
    num_output: 16
    kernel_size: 1
    weight_filler {
      type: "xavier"
      std: 0.2
    }
    bias_filler {
      type: "constant"
      value: 0.2
    }
  }
}
layer {
  name: "inception_4a/relu_5x5_reduce"
  type: "ReLU"
  bottom: "inception_4a/5x5_reduce"
  top: "inception_4a/5x5_reduce"
}
layer {
  name: "inception_4a/5x5"
  type: "Convolution"
  bottom: "inception_4a/5x5_reduce"
  top: "inception_4a/5x5"
  param {
    lr_mult: 1
    decay_mult: 1
  }
  param {
    lr_mult: 2
    decay_mult: 0
  }
  convolution_param {
    num_output: 48
    pad: 2
    kernel_size: 5
    weight_filler {
      type: "xavier"
      std: 0.03
    }
    bias_filler {
      type: "constant"
      value: 0.2
    }
  }
}
layer {
  name: "inception_4a/relu_5x5"
  type: "ReLU"
  bottom: "inception_4a/5x5"
  top: "inception_4a/5x5"
}
layer {
  name: "inception_4a/pool"
  type: "Pooling"
  bottom: "pool3/3x3_s2"
  top: "inception_4a/pool"
  pooling_param {
    pool: MAX
    kernel_size: 3
    stride: 1
    pad: 1
  }
}
layer {
  name: "inception_4a/pool_proj"
  type: "Convolution"
  bottom: "inception_4a/pool"
  top: "inception_4a/pool_proj"
  param {
    lr_mult: 1
    decay_mult: 1
  }
  param {
    lr_mult: 2
    decay_mult: 0
  }
  convolution_param {
    num_output: 64
    kernel_size: 1
    weight_filler {
      type: "xavier"
      std: 0.1
    }
    bias_filler {
      type: "constant"
      value: 0.2
    }
  }
}
layer {
  name: "inception_4a/relu_pool_proj"
  type: "ReLU"
  bottom: "inception_4a/pool_proj"
  top: "inception_4a/pool_proj"
}
layer {
  name: "inception_4a/output"
  type: "Concat"
  bottom: "inception_4a/1x1"
  bottom: "inception_4a/3x3"
  bottom: "inception_4a/5x5"
  bottom: "inception_4a/pool_proj"
  top: "inception_4a/output"
}
layer {
  name: "loss1/ave_pool"
  type: "Pooling"
  bottom: "inception_4a/output"
  top: "loss1/ave_pool"
  pooling_param {
    pool: AVE
    kernel_size: 5
    stride: 3
  }
}
layer {
  name: "loss1/conv"
  type: "Convolution"
  bottom: "loss1/ave_pool"
  top: "loss1/conv"
  param {
    lr_mult: 1
    decay_mult: 1
  }
  param {
    lr_mult: 2
    decay_mult: 0
  }
  convolution_param {
    num_output: 128
    kernel_size: 1
    weight_filler {
      type: "xavier"
      std: 0.08
    }
    bias_filler {
      type: "constant"
      value: 0.2
    }
  }
}
layer {
  name: "loss1/relu_conv"
  type: "ReLU"
  bottom: "loss1/conv"
  top: "loss1/conv"
}
layer {
  name: "loss1/fc"
  type: "InnerProduct"
  bottom: "loss1/conv"
  top: "loss1/fc"
  param {
    lr_mult: 1
    decay_mult: 1
  }
  param {
    lr_mult: 2
    decay_mult: 0
  }
  inner_product_param {
    num_output: 1024
    weight_filler {
      type: "xavier"
      std: 0.02
    }
    bias_filler {
      type: "constant"
      value: 0.2
    }
  }
}
layer {
  name: "loss1/relu_fc"
  type: "ReLU"
  bottom: "loss1/fc"
  top: "loss1/fc"
}
layer {
  name: "loss1/drop_fc"
  type: "Dropout"
  bottom: "loss1/fc"
  top: "loss1/fc"
  dropout_param {
    dropout_ratio: 0.7
  }
}
layer {
  name: "loss1/classifier_plantvillage"
  type: "InnerProduct"
  bottom: "loss1/fc"
  top: "loss1/classifier_plantvillage"
  param {
    lr_mult: 1
    decay_mult: 1
  }
  param {
    lr_mult: 2
    decay_mult: 0
  }
  inner_product_param {
    num_output: 38
    weight_filler {
      type: "xavier"
      std: 0.0009765625
    }
    bias_filler {
      type: "constant"
      value: 0
    }
  }
}
layer {
  name: "inception_4b/1x1"
  type: "Convolution"
  bottom: "inception_4a/output"
  top: "inception_4b/1x1"
  param {
    lr_mult: 1
    decay_mult: 1
  }
  param {
    lr_mult: 2
    decay_mult: 0
  }
  convolution_param {
    num_output: 160
    kernel_size: 1
    weight_filler {
      type: "xavier"
      std: 0.03
    }
    bias_filler {
      type: "constant"
      value: 0.2
    }
  }
}
layer {
  name: "inception_4b/relu_1x1"
  type: "ReLU"
  bottom: "inception_4b/1x1"
  top: "inception_4b/1x1"
}
layer {
  name: "inception_4b/3x3_reduce"
  type: "Convolution"
  bottom: "inception_4a/output"
  top: "inception_4b/3x3_reduce"
  param {
    lr_mult: 1
    decay_mult: 1
  }
  param {
    lr_mult: 2
    decay_mult: 0
  }
  convolution_param {
    num_output: 112
    kernel_size: 1
    weight_filler {
      type: "xavier"
      std: 0.09
    }
    bias_filler {
      type: "constant"
      value: 0.2
    }
  }
}
layer {
  name: "inception_4b/relu_3x3_reduce"
  type: "ReLU"
  bottom: "inception_4b/3x3_reduce"
  top: "inception_4b/3x3_reduce"
}
layer {
  name: "inception_4b/3x3"
  type: "Convolution"
  bottom: "inception_4b/3x3_reduce"
  top: "inception_4b/3x3"
  param {
    lr_mult: 1
    decay_mult: 1
  }
  param {
    lr_mult: 2
    decay_mult: 0
  }
  convolution_param {
    num_output: 224
    pad: 1
    kernel_size: 3
    weight_filler {
      type: "xavier"
      std: 0.03
    }
    bias_filler {
      type: "constant"
      value: 0.2
    }
  }
}
layer {
  name: "inception_4b/relu_3x3"
  type: "ReLU"
  bottom: "inception_4b/3x3"
  top: "inception_4b/3x3"
}
layer {
  name: "inception_4b/5x5_reduce"
  type: "Convolution"
  bottom: "inception_4a/output"
  top: "inception_4b/5x5_reduce"
  param {
    lr_mult: 1
    decay_mult: 1
  }
  param {
    lr_mult: 2
    decay_mult: 0
  }
  convolution_param {
    num_output: 24
    kernel_size: 1
    weight_filler {
      type: "xavier"
      std: 0.2
    }
    bias_filler {
      type: "constant"
      value: 0.2
    }
  }
}
layer {
  name: "inception_4b/relu_5x5_reduce"
  type: "ReLU"
  bottom: "inception_4b/5x5_reduce"
  top: "inception_4b/5x5_reduce"
}
layer {
  name: "inception_4b/5x5"
  type: "Convolution"
  bottom: "inception_4b/5x5_reduce"
  top: "inception_4b/5x5"
  param {
    lr_mult: 1
    decay_mult: 1
  }
  param {
    lr_mult: 2
    decay_mult: 0
  }
  convolution_param {
    num_output: 64
    pad: 2
    kernel_size: 5
    weight_filler {
      type: "xavier"
      std: 0.03
    }
    bias_filler {
      type: "constant"
      value: 0.2
    }
  }
}
layer {
  name: "inception_4b/relu_5x5"
  type: "ReLU"
  bottom: "inception_4b/5x5"
  top: "inception_4b/5x5"
}
layer {
  name: "inception_4b/pool"
  type: "Pooling"
  bottom: "inception_4a/output"
  top: "inception_4b/pool"
  pooling_param {
    pool: MAX
    kernel_size: 3
    stride: 1
    pad: 1
  }
}
layer {
  name: "inception_4b/pool_proj"
  type: "Convolution"
  bottom: "inception_4b/pool"
  top: "inception_4b/pool_proj"
  param {
    lr_mult: 1
    decay_mult: 1
  }
  param {
    lr_mult: 2
    decay_mult: 0
  }
  convolution_param {
    num_output: 64
    kernel_size: 1
    weight_filler {
      type: "xavier"
      std: 0.1
    }
    bias_filler {
      type: "constant"
      value: 0.2
    }
  }
}
layer {
  name: "inception_4b/relu_pool_proj"
  type: "ReLU"
  bottom: "inception_4b/pool_proj"
  top: "inception_4b/pool_proj"
}
layer {
  name: "inception_4b/output"
  type: "Concat"
  bottom: "inception_4b/1x1"
  bottom: "inception_4b/3x3"
  bottom: "inception_4b/5x5"
  bottom: "inception_4b/pool_proj"
  top: "inception_4b/output"
}
layer {
  name: "inception_4c/1x1"
  type: "Convolution"
  bottom: "inception_4b/output"
  top: "inception_4c/1x1"
  param {
    lr_mult: 1
    decay_mult: 1
  }
  param {
    lr_mult: 2
    decay_mult: 0
  }
  convolution_param {
    num_output: 128
    kernel_size: 1
    weight_filler {
      type: "xavier"
      std: 0.03
    }
    bias_filler {
      type: "constant"
      value: 0.2
    }
  }
}
layer {
  name: "inception_4c/relu_1x1"
  type: "ReLU"
  bottom: "inception_4c/1x1"
  top: "inception_4c/1x1"
}
layer {
  name: "inception_4c/3x3_reduce"
  type: "Convolution"
  bottom: "inception_4b/output"
  top: "inception_4c/3x3_reduce"
  param {
    lr_mult: 1
    decay_mult: 1
  }
  param {
    lr_mult: 2
    decay_mult: 0
  }
  convolution_param {
    num_output: 128
    kernel_size: 1
    weight_filler {
      type: "xavier"
      std: 0.09
    }
    bias_filler {
      type: "constant"
      value: 0.2
    }
  }
}
layer {
  name: "inception_4c/relu_3x3_reduce"
  type: "ReLU"
  bottom: "inception_4c/3x3_reduce"
  top: "inception_4c/3x3_reduce"
}
layer {
  name: "inception_4c/3x3"
  type: "Convolution"
  bottom: "inception_4c/3x3_reduce"
  top: "inception_4c/3x3"
  param {
    lr_mult: 1
    decay_mult: 1
  }
  param {
    lr_mult: 2
    decay_mult: 0
  }
  convolution_param {
    num_output: 256
    pad: 1
    kernel_size: 3
    weight_filler {
      type: "xavier"
      std: 0.03
    }
    bias_filler {
      type: "constant"
      value: 0.2
    }
  }
}
layer {
  name: "inception_4c/relu_3x3"
  type: "ReLU"
  bottom: "inception_4c/3x3"
  top: "inception_4c/3x3"
}
layer {
  name: "inception_4c/5x5_reduce"
  type: "Convolution"
  bottom: "inception_4b/output"
  top: "inception_4c/5x5_reduce"
  param {
    lr_mult: 1
    decay_mult: 1
  }
  param {
    lr_mult: 2
    decay_mult: 0
  }
  convolution_param {
    num_output: 24
    kernel_size: 1
    weight_filler {
      type: "xavier"
      std: 0.2
    }
    bias_filler {
      type: "constant"
      value: 0.2
    }
  }
}
layer {
  name: "inception_4c/relu_5x5_reduce"
  type: "ReLU"
  bottom: "inception_4c/5x5_reduce"
  top: "inception_4c/5x5_reduce"
}
layer {
  name: "inception_4c/5x5"
  type: "Convolution"
  bottom: "inception_4c/5x5_reduce"
  top: "inception_4c/5x5"
  param {
    lr_mult: 1
    decay_mult: 1
  }
  param {
    lr_mult: 2
    decay_mult: 0
  }
  convolution_param {
    num_output: 64
    pad: 2
    kernel_size: 5
    weight_filler {
      type: "xavier"
      std: 0.03
    }
    bias_filler {
      type: "constant"
      value: 0.2
    }
  }
}
layer {
  name: "inception_4c/relu_5x5"
  type: "ReLU"
  bottom: "inception_4c/5x5"
  top: "inception_4c/5x5"
}
layer {
  name: "inception_4c/pool"
  type: "Pooling"
  bottom: "inception_4b/output"
  top: "inception_4c/pool"
  pooling_param {
    pool: MAX
    kernel_size: 3
    stride: 1
    pad: 1
  }
}
layer {
  name: "inception_4c/pool_proj"
  type: "Convolution"
  bottom: "inception_4c/pool"
  top: "inception_4c/pool_proj"
  param {
    lr_mult: 1
    decay_mult: 1
  }
  param {
    lr_mult: 2
    decay_mult: 0
  }
  convolution_param {
    num_output: 64
    kernel_size: 1
    weight_filler {
      type: "xavier"
      std: 0.1
    }
    bias_filler {
      type: "constant"
      value: 0.2
    }
  }
}
layer {
  name: "inception_4c/relu_pool_proj"
  type: "ReLU"
  bottom: "inception_4c/pool_proj"
  top: "inception_4c/pool_proj"
}
layer {
  name: "inception_4c/output"
  type: "Concat"
  bottom: "inception_4c/1x1"
  bottom: "inception_4c/3x3"
  bottom: "inception_4c/5x5"
  bottom: "inception_4c/pool_proj"
  top: "inception_4c/output"
}
layer {
  name: "inception_4d/1x1"
  type: "Convolution"
  bottom: "inception_4c/output"
  top: "inception_4d/1x1"
  param {
    lr_mult: 1
    decay_mult: 1
  }
  param {
    lr_mult: 2
    decay_mult: 0
  }
  convolution_param {
    num_output: 112
    kernel_size: 1
    weight_filler {
      type: "xavier"
      std: 0.03
    }
    bias_filler {
      type: "constant"
      value: 0.2
    }
  }
}
layer {
  name: "inception_4d/relu_1x1"
  type: "ReLU"
  bottom: "inception_4d/1x1"
  top: "inception_4d/1x1"
}
layer {
  name: "inception_4d/3x3_reduce"
  type: "Convolution"
  bottom: "inception_4c/output"
  top: "inception_4d/3x3_reduce"
  param {
    lr_mult: 1
    decay_mult: 1
  }
  param {
    lr_mult: 2
    decay_mult: 0
  }
  convolution_param {
    num_output: 144
    kernel_size: 1
    weight_filler {
      type: "xavier"
      std: 0.09
    }
    bias_filler {
      type: "constant"
      value: 0.2
    }
  }
}
layer {
  name: "inception_4d/relu_3x3_reduce"
  type: "ReLU"
  bottom: "inception_4d/3x3_reduce"
  top: "inception_4d/3x3_reduce"
}
layer {
  name: "inception_4d/3x3"
  type: "Convolution"
  bottom: "inception_4d/3x3_reduce"
  top: "inception_4d/3x3"
  param {
    lr_mult: 1
    decay_mult: 1
  }
  param {
    lr_mult: 2
    decay_mult: 0
  }
  convolution_param {
    num_output: 288
    pad: 1
    kernel_size: 3
    weight_filler {
      type: "xavier"
      std: 0.03
    }
    bias_filler {
      type: "constant"
      value: 0.2
    }
  }
}
layer {
  name: "inception_4d/relu_3x3"
  type: "ReLU"
  bottom: "inception_4d/3x3"
  top: "inception_4d/3x3"
}
layer {
  name: "inception_4d/5x5_reduce"
  type: "Convolution"
  bottom: "inception_4c/output"
  top: "inception_4d/5x5_reduce"
  param {
    lr_mult: 1
    decay_mult: 1
  }
  param {
    lr_mult: 2
    decay_mult: 0
  }
  convolution_param {
    num_output: 32
    kernel_size: 1
    weight_filler {
      type: "xavier"
      std: 0.2
    }
    bias_filler {
      type: "constant"
      value: 0.2
    }
  }
}
layer {
  name: "inception_4d/relu_5x5_reduce"
  type: "ReLU"
  bottom: "inception_4d/5x5_reduce"
  top: "inception_4d/5x5_reduce"
}
layer {
  name: "inception_4d/5x5"
  type: "Convolution"
  bottom: "inception_4d/5x5_reduce"
  top: "inception_4d/5x5"
  param {
    lr_mult: 1
    decay_mult: 1
  }
  param {
    lr_mult: 2
    decay_mult: 0
  }
  convolution_param {
    num_output: 64
    pad: 2
    kernel_size: 5
    weight_filler {
      type: "xavier"
      std: 0.03
    }
    bias_filler {
      type: "constant"
      value: 0.2
    }
  }
}
layer {
  name: "inception_4d/relu_5x5"
  type: "ReLU"
  bottom: "inception_4d/5x5"
  top: "inception_4d/5x5"
}
layer {
  name: "inception_4d/pool"
  type: "Pooling"
  bottom: "inception_4c/output"
  top: "inception_4d/pool"
  pooling_param {
    pool: MAX
    kernel_size: 3
    stride: 1
    pad: 1
  }
}
layer {
  name: "inception_4d/pool_proj"
  type: "Convolution"
  bottom: "inception_4d/pool"
  top: "inception_4d/pool_proj"
  param {
    lr_mult: 1
    decay_mult: 1
  }
  param {
    lr_mult: 2
    decay_mult: 0
  }
  convolution_param {
    num_output: 64
    kernel_size: 1
    weight_filler {
      type: "xavier"
      std: 0.1
    }
    bias_filler {
      type: "constant"
      value: 0.2
    }
  }
}
layer {
  name: "inception_4d/relu_pool_proj"
  type: "ReLU"
  bottom: "inception_4d/pool_proj"
  top: "inception_4d/pool_proj"
}
layer {
  name: "inception_4d/output"
  type: "Concat"
  bottom: "inception_4d/1x1"
  bottom: "inception_4d/3x3"
  bottom: "inception_4d/5x5"
  bottom: "inception_4d/pool_proj"
  top: "inception_4d/output"
}
layer {
  name: "loss2/ave_pool"
  type: "Pooling"
  bottom: "inception_4d/output"
  top: "loss2/ave_pool"
  pooling_param {
    pool: AVE
    kernel_size: 5
    stride: 3
  }
}
layer {
  name: "loss2/conv"
  type: "Convolution"
  bottom: "loss2/ave_pool"
  top: "loss2/conv"
  param {
    lr_mult: 1
    decay_mult: 1
  }
  param {
    lr_mult: 2
    decay_mult: 0
  }
  convolution_param {
    num_output: 128
    kernel_size: 1
    weight_filler {
      type: "xavier"
      std: 0.08
    }
    bias_filler {
      type: "constant"
      value: 0.2
    }
  }
}
layer {
  name: "loss2/relu_conv"
  type: "ReLU"
  bottom: "loss2/conv"
  top: "loss2/conv"
}
layer {
  name: "loss2/fc"
  type: "InnerProduct"
  bottom: "loss2/conv"
  top: "loss2/fc"
  param {
    lr_mult: 1
    decay_mult: 1
  }
  param {
    lr_mult: 2
    decay_mult: 0
  }
  inner_product_param {
    num_output: 1024
    weight_filler {
      type: "xavier"
      std: 0.02
    }
    bias_filler {
      type: "constant"
      value: 0.2
    }
  }
}
layer {
  name: "loss2/relu_fc"
  type: "ReLU"
  bottom: "loss2/fc"
  top: "loss2/fc"
}
layer {
  name: "loss2/drop_fc"
  type: "Dropout"
  bottom: "loss2/fc"
  top: "loss2/fc"
  dropout_param {
    dropout_ratio: 0.7
  }
}
layer {
  name: "loss2/classifier_plantvillage"
  type: "InnerProduct"
  bottom: "loss2/fc"
  top: "loss2/classifier_plantvillage"
  param {
    lr_mult: 1
    decay_mult: 1
  }
  param {
    lr_mult: 2
    decay_mult: 0
  }
  inner_product_param {
    num_output: 38
    weight_filler {
      type: "xavier"
      std: 0.0009765625
    }
    bias_filler {
      type: "constant"
      value: 0
    }
  }
}
layer {
  name: "inception_4e/1x1"
  type: "Convolution"
  bottom: "inception_4d/output"
  top: "inception_4e/1x1"
  param {
    lr_mult: 1
    decay_mult: 1
  }
  param {
    lr_mult: 2
    decay_mult: 0
  }
  convolution_param {
    num_output: 256
    kernel_size: 1
    weight_filler {
      type: "xavier"
      std: 0.03
    }
    bias_filler {
      type: "constant"
      value: 0.2
    }
  }
}
layer {
  name: "inception_4e/relu_1x1"
  type: "ReLU"
  bottom: "inception_4e/1x1"
  top: "inception_4e/1x1"
}
layer {
  name: "inception_4e/3x3_reduce"
  type: "Convolution"
  bottom: "inception_4d/output"
  top: "inception_4e/3x3_reduce"
  param {
    lr_mult: 1
    decay_mult: 1
  }
  param {
    lr_mult: 2
    decay_mult: 0
  }
  convolution_param {
    num_output: 160
    kernel_size: 1
    weight_filler {
      type: "xavier"
      std: 0.09
    }
    bias_filler {
      type: "constant"
      value: 0.2
    }
  }
}
layer {
  name: "inception_4e/relu_3x3_reduce"
  type: "ReLU"
  bottom: "inception_4e/3x3_reduce"
  top: "inception_4e/3x3_reduce"
}
layer {
  name: "inception_4e/3x3"
  type: "Convolution"
  bottom: "inception_4e/3x3_reduce"
  top: "inception_4e/3x3"
  param {
    lr_mult: 1
    decay_mult: 1
  }
  param {
    lr_mult: 2
    decay_mult: 0
  }
  convolution_param {
    num_output: 320
    pad: 1
    kernel_size: 3
    weight_filler {
      type: "xavier"
      std: 0.03
    }
    bias_filler {
      type: "constant"
      value: 0.2
    }
  }
}
layer {
  name: "inception_4e/relu_3x3"
  type: "ReLU"
  bottom: "inception_4e/3x3"
  top: "inception_4e/3x3"
}
layer {
  name: "inception_4e/5x5_reduce"
  type: "Convolution"
  bottom: "inception_4d/output"
  top: "inception_4e/5x5_reduce"
  param {
    lr_mult: 1
    decay_mult: 1
  }
  param {
    lr_mult: 2
    decay_mult: 0
  }
  convolution_param {
    num_output: 32
    kernel_size: 1
    weight_filler {
      type: "xavier"
      std: 0.2
    }
    bias_filler {
      type: "constant"
      value: 0.2
    }
  }
}
layer {
  name: "inception_4e/relu_5x5_reduce"
  type: "ReLU"
  bottom: "inception_4e/5x5_reduce"
  top: "inception_4e/5x5_reduce"
}
layer {
  name: "inception_4e/5x5"
  type: "Convolution"
  bottom: "inception_4e/5x5_reduce"
  top: "inception_4e/
I0403 15:08:56.996567  2725 layer_factory.hpp:77] Creating layer data
I0403 15:08:56.997141  2725 net.cpp:91] Creating Layer data
I0403 15:08:56.997170  2725 net.cpp:399] data -> data
I0403 15:08:56.997218  2725 net.cpp:399] data -> label
I0403 15:08:56.997257  2725 data_transformer.cpp:25] Loading mean file from: /home/mohanty/data/final_dataset/lmdb/grayscale-50-50/mean.binaryproto
I0403 15:08:56.999999  2728 db_lmdb.cpp:38] Opened lmdb /home/mohanty/data/final_dataset/lmdb/grayscale-50-50/test_db
I0403 15:08:57.010522  2725 data_layer.cpp:41] output data size: 24,3,224,224
I0403 15:08:57.038242  2725 net.cpp:141] Setting up data
I0403 15:08:57.038346  2725 net.cpp:148] Top shape: 24 3 224 224 (3612672)
I0403 15:08:57.038368  2725 net.cpp:148] Top shape: 24 (24)
I0403 15:08:57.038385  2725 net.cpp:156] Memory required for data: 14450784
I0403 15:08:57.038414  2725 layer_factory.hpp:77] Creating layer label_data_1_split
I0403 15:08:57.038442  2725 net.cpp:91] Creating Layer label_data_1_split
I0403 15:08:57.038461  2725 net.cpp:425] label_data_1_split <- label
I0403 15:08:57.038494  2725 net.cpp:399] label_data_1_split -> label_data_1_split_0
I0403 15:08:57.038522  2725 net.cpp:399] label_data_1_split -> label_data_1_split_1
I0403 15:08:57.038542  2725 net.cpp:399] label_data_1_split -> label_data_1_split_2
I0403 15:08:57.038563  2725 net.cpp:399] label_data_1_split -> label_data_1_split_3
I0403 15:08:57.038583  2725 net.cpp:399] label_data_1_split -> label_data_1_split_4
I0403 15:08:57.038604  2725 net.cpp:399] label_data_1_split -> label_data_1_split_5
I0403 15:08:57.038622  2725 net.cpp:399] label_data_1_split -> label_data_1_split_6
I0403 15:08:57.038642  2725 net.cpp:399] label_data_1_split -> label_data_1_split_7
I0403 15:08:57.038661  2725 net.cpp:399] label_data_1_split -> label_data_1_split_8
I0403 15:08:57.038681  2725 net.cpp:399] label_data_1_split -> label_data_1_split_9
I0403 15:08:57.038799  2725 net.cpp:141] Setting up label_data_1_split
I0403 15:08:57.038822  2725 net.cpp:148] Top shape: 24 (24)
I0403 15:08:57.038839  2725 net.cpp:148] Top shape: 24 (24)
I0403 15:08:57.038856  2725 net.cpp:148] Top shape: 24 (24)
I0403 15:08:57.038872  2725 net.cpp:148] Top shape: 24 (24)
I0403 15:08:57.038887  2725 net.cpp:148] Top shape: 24 (24)
I0403 15:08:57.038903  2725 net.cpp:148] Top shape: 24 (24)
I0403 15:08:57.038919  2725 net.cpp:148] Top shape: 24 (24)
I0403 15:08:57.038934  2725 net.cpp:148] Top shape: 24 (24)
I0403 15:08:57.038950  2725 net.cpp:148] Top shape: 24 (24)
I0403 15:08:57.038966  2725 net.cpp:148] Top shape: 24 (24)
I0403 15:08:57.039011  2725 net.cpp:156] Memory required for data: 14451744
I0403 15:08:57.039027  2725 layer_factory.hpp:77] Creating layer conv1/7x7_s2
I0403 15:08:57.039060  2725 net.cpp:91] Creating Layer conv1/7x7_s2
I0403 15:08:57.039079  2725 net.cpp:425] conv1/7x7_s2 <- data
I0403 15:08:57.039098  2725 net.cpp:399] conv1/7x7_s2 -> conv1/7x7_s2
I0403 15:08:57.178009  2725 net.cpp:141] Setting up conv1/7x7_s2
I0403 15:08:57.178098  2725 net.cpp:148] Top shape: 24 64 112 112 (19267584)
I0403 15:08:57.178117  2725 net.cpp:156] Memory required for data: 91522080
I0403 15:08:57.178146  2725 layer_factory.hpp:77] Creating layer conv1/relu_7x7
I0403 15:08:57.178174  2725 net.cpp:91] Creating Layer conv1/relu_7x7
I0403 15:08:57.178192  2725 net.cpp:425] conv1/relu_7x7 <- conv1/7x7_s2
I0403 15:08:57.178211  2725 net.cpp:386] conv1/relu_7x7 -> conv1/7x7_s2 (in-place)
I0403 15:08:57.178478  2725 net.cpp:141] Setting up conv1/relu_7x7
I0403 15:08:57.178504  2725 net.cpp:148] Top shape: 24 64 112 112 (19267584)
I0403 15:08:57.178521  2725 net.cpp:156] Memory required for data: 168592416
I0403 15:08:57.178536  2725 layer_factory.hpp:77] Creating layer pool1/3x3_s2
I0403 15:08:57.178562  2725 net.cpp:91] Creating Layer pool1/3x3_s2
I0403 15:08:57.178580  2725 net.cpp:425] pool1/3x3_s2 <- conv1/7x7_s2
I0403 15:08:57.178598  2725 net.cpp:399] pool1/3x3_s2 -> pool1/3x3_s2
I0403 15:08:57.178673  2725 net.cpp:141] Setting up pool1/3x3_s2
I0403 15:08:57.178696  2725 net.cpp:148] Top shape: 24 64 56 56 (4816896)
I0403 15:08:57.178712  2725 net.cpp:156] Memory required for data: 187860000
I0403 15:08:57.178727  2725 layer_factory.hpp:77] Creating layer pool1/norm1
I0403 15:08:57.178752  2725 net.cpp:91] Creating Layer pool1/norm1
I0403 15:08:57.178782  2725 net.cpp:425] pool1/norm1 <- pool1/3x3_s2
I0403 15:08:57.178799  2725 net.cpp:399] pool1/norm1 -> pool1/norm1
I0403 15:08:57.179085  2725 net.cpp:141] Setting up pool1/norm1
I0403 15:08:57.179112  2725 net.cpp:148] Top shape: 24 64 56 56 (4816896)
I0403 15:08:57.179128  2725 net.cpp:156] Memory required for data: 207127584
I0403 15:08:57.179143  2725 layer_factory.hpp:77] Creating layer conv2/3x3_reduce
I0403 15:08:57.179167  2725 net.cpp:91] Creating Layer conv2/3x3_reduce
I0403 15:08:57.179184  2725 net.cpp:425] conv2/3x3_reduce <- pool1/norm1
I0403 15:08:57.179203  2725 net.cpp:399] conv2/3x3_reduce -> conv2/3x3_reduce
I0403 15:08:57.180583  2725 net.cpp:141] Setting up conv2/3x3_reduce
I0403 15:08:57.180614  2725 net.cpp:148] Top shape: 24 64 56 56 (4816896)
I0403 15:08:57.180631  2725 net.cpp:156] Memory required for data: 226395168
I0403 15:08:57.180652  2725 layer_factory.hpp:77] Creating layer conv2/relu_3x3_reduce
I0403 15:08:57.180671  2725 net.cpp:91] Creating Layer conv2/relu_3x3_reduce
I0403 15:08:57.180688  2725 net.cpp:425] conv2/relu_3x3_reduce <- conv2/3x3_reduce
I0403 15:08:57.180708  2725 net.cpp:386] conv2/relu_3x3_reduce -> conv2/3x3_reduce (in-place)
I0403 15:08:57.180999  2725 net.cpp:141] Setting up conv2/relu_3x3_reduce
I0403 15:08:57.181025  2725 net.cpp:148] Top shape: 24 64 56 56 (4816896)
I0403 15:08:57.181041  2725 net.cpp:156] Memory required for data: 245662752
I0403 15:08:57.181054  2725 layer_factory.hpp:77] Creating layer conv2/3x3
I0403 15:08:57.181078  2725 net.cpp:91] Creating Layer conv2/3x3
I0403 15:08:57.181095  2725 net.cpp:425] conv2/3x3 <- conv2/3x3_reduce
I0403 15:08:57.181116  2725 net.cpp:399] conv2/3x3 -> conv2/3x3
I0403 15:08:57.183420  2725 net.cpp:141] Setting up conv2/3x3
I0403 15:08:57.183452  2725 net.cpp:148] Top shape: 24 192 56 56 (14450688)
I0403 15:08:57.183470  2725 net.cpp:156] Memory required for data: 303465504
I0403 15:08:57.183491  2725 layer_factory.hpp:77] Creating layer conv2/relu_3x3
I0403 15:08:57.183514  2725 net.cpp:91] Creating Layer conv2/relu_3x3
I0403 15:08:57.183532  2725 net.cpp:425] conv2/relu_3x3 <- conv2/3x3
I0403 15:08:57.183550  2725 net.cpp:386] conv2/relu_3x3 -> conv2/3x3 (in-place)
I0403 15:08:57.183722  2725 net.cpp:141] Setting up conv2/relu_3x3
I0403 15:08:57.183751  2725 net.cpp:148] Top shape: 24 192 56 56 (14450688)
I0403 15:08:57.183800  2725 net.cpp:156] Memory required for data: 361268256
I0403 15:08:57.183817  2725 layer_factory.hpp:77] Creating layer conv2/norm2
I0403 15:08:57.183836  2725 net.cpp:91] Creating Layer conv2/norm2
I0403 15:08:57.183852  2725 net.cpp:425] conv2/norm2 <- conv2/3x3
I0403 15:08:57.183873  2725 net.cpp:399] conv2/norm2 -> conv2/norm2
I0403 15:08:57.184182  2725 net.cpp:141] Setting up conv2/norm2
I0403 15:08:57.184209  2725 net.cpp:148] Top shape: 24 192 56 56 (14450688)
I0403 15:08:57.184223  2725 net.cpp:156] Memory required for data: 419071008
I0403 15:08:57.184239  2725 layer_factory.hpp:77] Creating layer pool2/3x3_s2
I0403 15:08:57.184257  2725 net.cpp:91] Creating Layer pool2/3x3_s2
I0403 15:08:57.184276  2725 net.cpp:425] pool2/3x3_s2 <- conv2/norm2
I0403 15:08:57.184298  2725 net.cpp:399] pool2/3x3_s2 -> pool2/3x3_s2
I0403 15:08:57.184350  2725 net.cpp:141] Setting up pool2/3x3_s2
I0403 15:08:57.184372  2725 net.cpp:148] Top shape: 24 192 28 28 (3612672)
I0403 15:08:57.184387  2725 net.cpp:156] Memory required for data: 433521696
I0403 15:08:57.184401  2725 layer_factory.hpp:77] Creating layer pool2/3x3_s2_pool2/3x3_s2_0_split
I0403 15:08:57.184422  2725 net.cpp:91] Creating Layer pool2/3x3_s2_pool2/3x3_s2_0_split
I0403 15:08:57.184439  2725 net.cpp:425] pool2/3x3_s2_pool2/3x3_s2_0_split <- pool2/3x3_s2
I0403 15:08:57.184456  2725 net.cpp:399] pool2/3x3_s2_pool2/3x3_s2_0_split -> pool2/3x3_s2_pool2/3x3_s2_0_split_0
I0403 15:08:57.184478  2725 net.cpp:399] pool2/3x3_s2_pool2/3x3_s2_0_split -> pool2/3x3_s2_pool2/3x3_s2_0_split_1
I0403 15:08:57.184499  2725 net.cpp:399] pool2/3x3_s2_pool2/3x3_s2_0_split -> pool2/3x3_s2_pool2/3x3_s2_0_split_2
I0403 15:08:57.184517  2725 net.cpp:399] pool2/3x3_s2_pool2/3x3_s2_0_split -> pool2/3x3_s2_pool2/3x3_s2_0_split_3
I0403 15:08:57.184586  2725 net.cpp:141] Setting up pool2/3x3_s2_pool2/3x3_s2_0_split
I0403 15:08:57.184608  2725 net.cpp:148] Top shape: 24 192 28 28 (3612672)
I0403 15:08:57.184623  2725 net.cpp:148] Top shape: 24 192 28 28 (3612672)
I0403 15:08:57.184639  2725 net.cpp:148] Top shape: 24 192 28 28 (3612672)
I0403 15:08:57.184654  2725 net.cpp:148] Top shape: 24 192 28 28 (3612672)
I0403 15:08:57.184669  2725 net.cpp:156] Memory required for data: 491324448
I0403 15:08:57.184682  2725 layer_factory.hpp:77] Creating layer inception_3a/1x1
I0403 15:08:57.184705  2725 net.cpp:91] Creating Layer inception_3a/1x1
I0403 15:08:57.184722  2725 net.cpp:425] inception_3a/1x1 <- pool2/3x3_s2_pool2/3x3_s2_0_split_0
I0403 15:08:57.184743  2725 net.cpp:399] inception_3a/1x1 -> inception_3a/1x1
I0403 15:08:57.186333  2725 net.cpp:141] Setting up inception_3a/1x1
I0403 15:08:57.186364  2725 net.cpp:148] Top shape: 24 64 28 28 (1204224)
I0403 15:08:57.186381  2725 net.cpp:156] Memory required for data: 496141344
I0403 15:08:57.186401  2725 layer_factory.hpp:77] Creating layer inception_3a/relu_1x1
I0403 15:08:57.186424  2725 net.cpp:91] Creating Layer inception_3a/relu_1x1
I0403 15:08:57.186440  2725 net.cpp:425] inception_3a/relu_1x1 <- inception_3a/1x1
I0403 15:08:57.186457  2725 net.cpp:386] inception_3a/relu_1x1 -> inception_3a/1x1 (in-place)
I0403 15:08:57.186640  2725 net.cpp:141] Setting up inception_3a/relu_1x1
I0403 15:08:57.186664  2725 net.cpp:148] Top shape: 24 64 28 28 (1204224)
I0403 15:08:57.186679  2725 net.cpp:156] Memory required for data: 500958240
I0403 15:08:57.186696  2725 layer_factory.hpp:77] Creating layer inception_3a/3x3_reduce
I0403 15:08:57.186717  2725 net.cpp:91] Creating Layer inception_3a/3x3_reduce
I0403 15:08:57.186734  2725 net.cpp:425] inception_3a/3x3_reduce <- pool2/3x3_s2_pool2/3x3_s2_0_split_1
I0403 15:08:57.186755  2725 net.cpp:399] inception_3a/3x3_reduce -> inception_3a/3x3_reduce
I0403 15:08:57.188462  2725 net.cpp:141] Setting up inception_3a/3x3_reduce
I0403 15:08:57.188493  2725 net.cpp:148] Top shape: 24 96 28 28 (1806336)
I0403 15:08:57.188509  2725 net.cpp:156] Memory required for data: 508183584
I0403 15:08:57.188531  2725 layer_factory.hpp:77] Creating layer inception_3a/relu_3x3_reduce
I0403 15:08:57.188571  2725 net.cpp:91] Creating Layer inception_3a/relu_3x3_reduce
I0403 15:08:57.188604  2725 net.cpp:425] inception_3a/relu_3x3_reduce <- inception_3a/3x3_reduce
I0403 15:08:57.188624  2725 net.cpp:386] inception_3a/relu_3x3_reduce -> inception_3a/3x3_reduce (in-place)
I0403 15:08:57.188808  2725 net.cpp:141] Setting up inception_3a/relu_3x3_reduce
I0403 15:08:57.188835  2725 net.cpp:148] Top shape: 24 96 28 28 (1806336)
I0403 15:08:57.188851  2725 net.cpp:156] Memory required for data: 515408928
I0403 15:08:57.188868  2725 layer_factory.hpp:77] Creating layer inception_3a/3x3
I0403 15:08:57.188901  2725 net.cpp:91] Creating Layer inception_3a/3x3
I0403 15:08:57.188920  2725 net.cpp:425] inception_3a/3x3 <- inception_3a/3x3_reduce
I0403 15:08:57.188941  2725 net.cpp:399] inception_3a/3x3 -> inception_3a/3x3
I0403 15:08:57.190613  2725 net.cpp:141] Setting up inception_3a/3x3
I0403 15:08:57.190642  2725 net.cpp:148] Top shape: 24 128 28 28 (2408448)
I0403 15:08:57.190659  2725 net.cpp:156] Memory required for data: 525042720
I0403 15:08:57.190678  2725 layer_factory.hpp:77] Creating layer inception_3a/relu_3x3
I0403 15:08:57.190701  2725 net.cpp:91] Creating Layer inception_3a/relu_3x3
I0403 15:08:57.190719  2725 net.cpp:425] inception_3a/relu_3x3 <- inception_3a/3x3
I0403 15:08:57.190740  2725 net.cpp:386] inception_3a/relu_3x3 -> inception_3a/3x3 (in-place)
I0403 15:08:57.191018  2725 net.cpp:141] Setting up inception_3a/relu_3x3
I0403 15:08:57.191045  2725 net.cpp:148] Top shape: 24 128 28 28 (2408448)
I0403 15:08:57.191062  2725 net.cpp:156] Memory required for data: 534676512
I0403 15:08:57.191078  2725 layer_factory.hpp:77] Creating layer inception_3a/5x5_reduce
I0403 15:08:57.191102  2725 net.cpp:91] Creating Layer inception_3a/5x5_reduce
I0403 15:08:57.191121  2725 net.cpp:425] inception_3a/5x5_reduce <- pool2/3x3_s2_pool2/3x3_s2_0_split_2
I0403 15:08:57.191144  2725 net.cpp:399] inception_3a/5x5_reduce -> inception_3a/5x5_reduce
I0403 15:08:57.192121  2725 net.cpp:141] Setting up inception_3a/5x5_reduce
I0403 15:08:57.192150  2725 net.cpp:148] Top shape: 24 16 28 28 (301056)
I0403 15:08:57.192180  2725 net.cpp:156] Memory required for data: 535880736
I0403 15:08:57.192200  2725 layer_factory.hpp:77] Creating layer inception_3a/relu_5x5_reduce
I0403 15:08:57.192222  2725 net.cpp:91] Creating Layer inception_3a/relu_5x5_reduce
I0403 15:08:57.192240  2725 net.cpp:425] inception_3a/relu_5x5_reduce <- inception_3a/5x5_reduce
I0403 15:08:57.192260  2725 net.cpp:386] inception_3a/relu_5x5_reduce -> inception_3a/5x5_reduce (in-place)
I0403 15:08:57.192596  2725 net.cpp:141] Setting up inception_3a/relu_5x5_reduce
I0403 15:08:57.192625  2725 net.cpp:148] Top shape: 24 16 28 28 (301056)
I0403 15:08:57.192641  2725 net.cpp:156] Memory required for data: 537084960
I0403 15:08:57.192656  2725 layer_factory.hpp:77] Creating layer inception_3a/5x5
I0403 15:08:57.192678  2725 net.cpp:91] Creating Layer inception_3a/5x5
I0403 15:08:57.192697  2725 net.cpp:425] inception_3a/5x5 <- inception_3a/5x5_reduce
I0403 15:08:57.192714  2725 net.cpp:399] inception_3a/5x5 -> inception_3a/5x5
I0403 15:08:57.193711  2725 net.cpp:141] Setting up inception_3a/5x5
I0403 15:08:57.193739  2725 net.cpp:148] Top shape: 24 32 28 28 (602112)
I0403 15:08:57.193755  2725 net.cpp:156] Memory required for data: 539493408
I0403 15:08:57.193774  2725 layer_factory.hpp:77] Creating layer inception_3a/relu_5x5
I0403 15:08:57.193794  2725 net.cpp:91] Creating Layer inception_3a/relu_5x5
I0403 15:08:57.193814  2725 net.cpp:425] inception_3a/relu_5x5 <- inception_3a/5x5
I0403 15:08:57.193831  2725 net.cpp:386] inception_3a/relu_5x5 -> inception_3a/5x5 (in-place)
I0403 15:08:57.193999  2725 net.cpp:141] Setting up inception_3a/relu_5x5
I0403 15:08:57.194025  2725 net.cpp:148] Top shape: 24 32 28 28 (602112)
I0403 15:08:57.194039  2725 net.cpp:156] Memory required for data: 541901856
I0403 15:08:57.194054  2725 layer_factory.hpp:77] Creating layer inception_3a/pool
I0403 15:08:57.194074  2725 net.cpp:91] Creating Layer inception_3a/pool
I0403 15:08:57.194105  2725 net.cpp:425] inception_3a/pool <- pool2/3x3_s2_pool2/3x3_s2_0_split_3
I0403 15:08:57.194124  2725 net.cpp:399] inception_3a/pool -> inception_3a/pool
I0403 15:08:57.194183  2725 net.cpp:141] Setting up inception_3a/pool
I0403 15:08:57.194207  2725 net.cpp:148] Top shape: 24 192 28 28 (3612672)
I0403 15:08:57.194223  2725 net.cpp:156] Memory required for data: 556352544
I0403 15:08:57.194238  2725 layer_factory.hpp:77] Creating layer inception_3a/pool_proj
I0403 15:08:57.194262  2725 net.cpp:91] Creating Layer inception_3a/pool_proj
I0403 15:08:57.194285  2725 net.cpp:425] inception_3a/pool_proj <- inception_3a/pool
I0403 15:08:57.194309  2725 net.cpp:399] inception_3a/pool_proj -> inception_3a/pool_proj
I0403 15:08:57.195278  2725 net.cpp:141] Setting up inception_3a/pool_proj
I0403 15:08:57.195310  2725 net.cpp:148] Top shape: 24 32 28 28 (602112)
I0403 15:08:57.195330  2725 net.cpp:156] Memory required for data: 558760992
I0403 15:08:57.195353  2725 layer_factory.hpp:77] Creating layer inception_3a/relu_pool_proj
I0403 15:08:57.195376  2725 net.cpp:91] Creating Layer inception_3a/relu_pool_proj
I0403 15:08:57.195394  2725 net.cpp:425] inception_3a/relu_pool_proj <- inception_3a/pool_proj
I0403 15:08:57.195412  2725 net.cpp:386] inception_3a/relu_pool_proj -> inception_3a/pool_proj (in-place)
I0403 15:08:57.195701  2725 net.cpp:141] Setting up inception_3a/relu_pool_proj
I0403 15:08:57.195729  2725 net.cpp:148] Top shape: 24 32 28 28 (602112)
I0403 15:08:57.195744  2725 net.cpp:156] Memory required for data: 561169440
I0403 15:08:57.195760  2725 layer_factory.hpp:77] Creating layer inception_3a/output
I0403 15:08:57.195780  2725 net.cpp:91] Creating Layer inception_3a/output
I0403 15:08:57.195797  2725 net.cpp:425] inception_3a/output <- inception_3a/1x1
I0403 15:08:57.195813  2725 net.cpp:425] inception_3a/output <- inception_3a/3x3
I0403 15:08:57.195830  2725 net.cpp:425] inception_3a/output <- inception_3a/5x5
I0403 15:08:57.195847  2725 net.cpp:425] inception_3a/output <- inception_3a/pool_proj
I0403 15:08:57.195865  2725 net.cpp:399] inception_3a/output -> inception_3a/output
I0403 15:08:57.195911  2725 net.cpp:141] Setting up inception_3a/output
I0403 15:08:57.195935  2725 net.cpp:148] Top shape: 24 256 28 28 (4816896)
I0403 15:08:57.195948  2725 net.cpp:156] Memory required for data: 580437024
I0403 15:08:57.195962  2725 layer_factory.hpp:77] Creating layer inception_3a/output_inception_3a/output_0_split
I0403 15:08:57.195981  2725 net.cpp:91] Creating Layer inception_3a/output_inception_3a/output_0_split
I0403 15:08:57.195994  2725 net.cpp:425] inception_3a/output_inception_3a/output_0_split <- inception_3a/output
I0403 15:08:57.196014  2725 net.cpp:399] inception_3a/output_inception_3a/output_0_split -> inception_3a/output_inception_3a/output_0_split_0
I0403 15:08:57.196034  2725 net.cpp:399] inception_3a/output_inception_3a/output_0_split -> inception_3a/output_inception_3a/output_0_split_1
I0403 15:08:57.196056  2725 net.cpp:399] inception_3a/output_inception_3a/output_0_split -> inception_3a/output_inception_3a/output_0_split_2
I0403 15:08:57.196077  2725 net.cpp:399] inception_3a/output_inception_3a/output_0_split -> inception_3a/output_inception_3a/output_0_split_3
I0403 15:08:57.196151  2725 net.cpp:141] Setting up inception_3a/output_inception_3a/output_0_split
I0403 15:08:57.196173  2725 net.cpp:148] Top shape: 24 256 28 28 (4816896)
I0403 15:08:57.196190  2725 net.cpp:148] Top shape: 24 256 28 28 (4816896)
I0403 15:08:57.196207  2725 net.cpp:148] Top shape: 24 256 28 28 (4816896)
I0403 15:08:57.196221  2725 net.cpp:148] Top shape: 24 256 28 28 (4816896)
I0403 15:08:57.196235  2725 net.cpp:156] Memory required for data: 657507360
I0403 15:08:57.196249  2725 layer_factory.hpp:77] Creating layer inception_3b/1x1
I0403 15:08:57.196274  2725 net.cpp:91] Creating Layer inception_3b/1x1
I0403 15:08:57.196293  2725 net.cpp:425] inception_3b/1x1 <- inception_3a/output_inception_3a/output_0_split_0
I0403 15:08:57.196315  2725 net.cpp:399] inception_3b/1x1 -> inception_3b/1x1
I0403 15:08:57.197439  2725 net.cpp:141] Setting up inception_3b/1x1
I0403 15:08:57.197490  2725 net.cpp:148] Top shape: 24 128 28 28 (2408448)
I0403 15:08:57.197509  2725 net.cpp:156] Memory required for data: 667141152
I0403 15:08:57.197527  2725 layer_factory.hpp:77] Creating layer inception_3b/relu_1x1
I0403 15:08:57.197546  2725 net.cpp:91] Creating Layer inception_3b/relu_1x1
I0403 15:08:57.197562  2725 net.cpp:425] inception_3b/relu_1x1 <- inception_3b/1x1
I0403 15:08:57.197582  2725 net.cpp:386] inception_3b/relu_1x1 -> inception_3b/1x1 (in-place)
I0403 15:08:57.197754  2725 net.cpp:141] Setting up inception_3b/relu_1x1
I0403 15:08:57.197779  2725 net.cpp:148] Top shape: 24 128 28 28 (2408448)
I0403 15:08:57.197794  2725 net.cpp:156] Memory required for data: 676774944
I0403 15:08:57.197808  2725 layer_factory.hpp:77] Creating layer inception_3b/3x3_reduce
I0403 15:08:57.197830  2725 net.cpp:91] Creating Layer inception_3b/3x3_reduce
I0403 15:08:57.197849  2725 net.cpp:425] inception_3b/3x3_reduce <- inception_3a/output_inception_3a/output_0_split_1
I0403 15:08:57.197868  2725 net.cpp:399] inception_3b/3x3_reduce -> inception_3b/3x3_reduce
I0403 15:08:57.198987  2725 net.cpp:141] Setting up inception_3b/3x3_reduce
I0403 15:08:57.199015  2725 net.cpp:148] Top shape: 24 128 28 28 (2408448)
I0403 15:08:57.199031  2725 net.cpp:156] Memory required for data: 686408736
I0403 15:08:57.199050  2725 layer_factory.hpp:77] Creating layer inception_3b/relu_3x3_reduce
I0403 15:08:57.199071  2725 net.cpp:91] Creating Layer inception_3b/relu_3x3_reduce
I0403 15:08:57.199089  2725 net.cpp:425] inception_3b/relu_3x3_reduce <- inception_3b/3x3_reduce
I0403 15:08:57.199108  2725 net.cpp:386] inception_3b/relu_3x3_reduce -> inception_3b/3x3_reduce (in-place)
I0403 15:08:57.199282  2725 net.cpp:141] Setting up inception_3b/relu_3x3_reduce
I0403 15:08:57.199308  2725 net.cpp:148] Top shape: 24 128 28 28 (2408448)
I0403 15:08:57.199323  2725 net.cpp:156] Memory required for data: 696042528
I0403 15:08:57.199337  2725 layer_factory.hpp:77] Creating layer inception_3b/3x3
I0403 15:08:57.199365  2725 net.cpp:91] Creating Layer inception_3b/3x3
I0403 15:08:57.199383  2725 net.cpp:425] inception_3b/3x3 <- inception_3b/3x3_reduce
I0403 15:08:57.199403  2725 net.cpp:399] inception_3b/3x3 -> inception_3b/3x3
I0403 15:08:57.202268  2725 net.cpp:141] Setting up inception_3b/3x3
I0403 15:08:57.202303  2725 net.cpp:148] Top shape: 24 192 28 28 (3612672)
I0403 15:08:57.202319  2725 net.cpp:156] Memory required for data: 710493216
I0403 15:08:57.202337  2725 layer_factory.hpp:77] Creating layer inception_3b/relu_3x3
I0403 15:08:57.202358  2725 net.cpp:91] Creating Layer inception_3b/relu_3x3
I0403 15:08:57.202376  2725 net.cpp:425] inception_3b/relu_3x3 <- inception_3b/3x3
I0403 15:08:57.202395  2725 net.cpp:386] inception_3b/relu_3x3 -> inception_3b/3x3 (in-place)
I0403 15:08:57.202666  2725 net.cpp:141] Setting up inception_3b/relu_3x3
I0403 15:08:57.202693  2725 net.cpp:148] Top shape: 24 192 28 28 (3612672)
I0403 15:08:57.202709  2725 net.cpp:156] Memory required for data: 724943904
I0403 15:08:57.202725  2725 layer_factory.hpp:77] Creating layer inception_3b/5x5_reduce
I0403 15:08:57.202749  2725 net.cpp:91] Creating Layer inception_3b/5x5_reduce
I0403 15:08:57.202767  2725 net.cpp:425] inception_3b/5x5_reduce <- inception_3a/output_inception_3a/output_0_split_2
I0403 15:08:57.202790  2725 net.cpp:399] inception_3b/5x5_reduce -> inception_3b/5x5_reduce
I0403 15:08:57.203778  2725 net.cpp:141] Setting up inception_3b/5x5_reduce
I0403 15:08:57.203809  2725 net.cpp:148] Top shape: 24 32 28 28 (602112)
I0403 15:08:57.203824  2725 net.cpp:156] Memory required for data: 727352352
I0403 15:08:57.203845  2725 layer_factory.hpp:77] Creating layer inception_3b/relu_5x5_reduce
I0403 15:08:57.203865  2725 net.cpp:91] Creating Layer inception_3b/relu_5x5_reduce
I0403 15:08:57.203882  2725 net.cpp:425] inception_3b/relu_5x5_reduce <- inception_3b/5x5_reduce
I0403 15:08:57.203899  2725 net.cpp:386] inception_3b/relu_5x5_reduce -> inception_3b/5x5_reduce (in-place)
I0403 15:08:57.204090  2725 net.cpp:141] Setting up inception_3b/relu_5x5_reduce
I0403 15:08:57.204115  2725 net.cpp:148] Top shape: 24 32 28 28 (602112)
I0403 15:08:57.204130  2725 net.cpp:156] Memory required for data: 729760800
I0403 15:08:57.204145  2725 layer_factory.hpp:77] Creating layer inception_3b/5x5
I0403 15:08:57.204169  2725 net.cpp:91] Creating Layer inception_3b/5x5
I0403 15:08:57.204185  2725 net.cpp:425] inception_3b/5x5 <- inception_3b/5x5_reduce
I0403 15:08:57.204205  2725 net.cpp:399] inception_3b/5x5 -> inception_3b/5x5
I0403 15:08:57.206177  2725 net.cpp:141] Setting up inception_3b/5x5
I0403 15:08:57.206208  2725 net.cpp:148] Top shape: 24 96 28 28 (1806336)
I0403 15:08:57.206226  2725 net.cpp:156] Memory required for data: 736986144
I0403 15:08:57.206245  2725 layer_factory.hpp:77] Creating layer inception_3b/relu_5x5
I0403 15:08:57.206264  2725 net.cpp:91] Creating Layer inception_3b/relu_5x5
I0403 15:08:57.206287  2725 net.cpp:425] inception_3b/relu_5x5 <- inception_3b/5x5
I0403 15:08:57.206308  2725 net.cpp:386] inception_3b/relu_5x5 -> inception_3b/5x5 (in-place)
I0403 15:08:57.206497  2725 net.cpp:141] Setting up inception_3b/relu_5x5
I0403 15:08:57.206523  2725 net.cpp:148] Top shape: 24 96 28 28 (1806336)
I0403 15:08:57.206538  2725 net.cpp:156] Memory required for data: 744211488
I0403 15:08:57.206553  2725 layer_factory.hpp:77] Creating layer inception_3b/pool
I0403 15:08:57.206570  2725 net.cpp:91] Creating Layer inception_3b/pool
I0403 15:08:57.206586  2725 net.cpp:425] inception_3b/pool <- inception_3a/output_inception_3a/output_0_split_3
I0403 15:08:57.206604  2725 net.cpp:399] inception_3b/pool -> inception_3b/pool
I0403 15:08:57.206662  2725 net.cpp:141] Setting up inception_3b/pool
I0403 15:08:57.206686  2725 net.cpp:148] Top shape: 24 256 28 28 (4816896)
I0403 15:08:57.206701  2725 net.cpp:156] Memory required for data: 763479072
I0403 15:08:57.206715  2725 layer_factory.hpp:77] Creating layer inception_3b/pool_proj
I0403 15:08:57.206738  2725 net.cpp:91] Creating Layer inception_3b/pool_proj
I0403 15:08:57.206755  2725 net.cpp:425] inception_3b/pool_proj <- inception_3b/pool
I0403 15:08:57.206775  2725 net.cpp:399] inception_3b/pool_proj -> inception_3b/pool_proj
I0403 15:08:57.207823  2725 net.cpp:141] Setting up inception_3b/pool_proj
I0403 15:08:57.207851  2725 net.cpp:148] Top shape: 24 64 28 28 (1204224)
I0403 15:08:57.207867  2725 net.cpp:156] Memory required for data: 768295968
I0403 15:08:57.207885  2725 layer_factory.hpp:77] Creating layer inception_3b/relu_pool_proj
I0403 15:08:57.207906  2725 net.cpp:91] Creating Layer inception_3b/relu_pool_proj
I0403 15:08:57.207922  2725 net.cpp:425] inception_3b/relu_pool_proj <- inception_3b/pool_proj
I0403 15:08:57.207939  2725 net.cpp:386] inception_3b/relu_pool_proj -> inception_3b/pool_proj (in-place)
I0403 15:08:57.208333  2725 net.cpp:141] Setting up inception_3b/relu_pool_proj
I0403 15:08:57.208359  2725 net.cpp:148] Top shape: 24 64 28 28 (1204224)
I0403 15:08:57.208377  2725 net.cpp:156] Memory required for data: 773112864
I0403 15:08:57.208392  2725 layer_factory.hpp:77] Creating layer inception_3b/output
I0403 15:08:57.208410  2725 net.cpp:91] Creating Layer inception_3b/output
I0403 15:08:57.208425  2725 net.cpp:425] inception_3b/output <- inception_3b/1x1
I0403 15:08:57.208441  2725 net.cpp:425] inception_3b/output <- inception_3b/3x3
I0403 15:08:57.208456  2725 net.cpp:425] inception_3b/output <- inception_3b/5x5
I0403 15:08:57.208472  2725 net.cpp:425] inception_3b/output <- inception_3b/pool_proj
I0403 15:08:57.208490  2725 net.cpp:399] inception_3b/output -> inception_3b/output
I0403 15:08:57.208535  2725 net.cpp:141] Setting up inception_3b/output
I0403 15:08:57.208557  2725 net.cpp:148] Top shape: 24 480 28 28 (9031680)
I0403 15:08:57.208572  2725 net.cpp:156] Memory required for data: 809239584
I0403 15:08:57.208586  2725 layer_factory.hpp:77] Creating layer pool3/3x3_s2
I0403 15:08:57.208603  2725 net.cpp:91] Creating Layer pool3/3x3_s2
I0403 15:08:57.208622  2725 net.cpp:425] pool3/3x3_s2 <- inception_3b/output
I0403 15:08:57.208655  2725 net.cpp:399] pool3/3x3_s2 -> pool3/3x3_s2
I0403 15:08:57.208714  2725 net.cpp:141] Setting up pool3/3x3_s2
I0403 15:08:57.208739  2725 net.cpp:148] Top shape: 24 480 14 14 (2257920)
I0403 15:08:57.208752  2725 net.cpp:156] Memory required for data: 818271264
I0403 15:08:57.208767  2725 layer_factory.hpp:77] Creating layer pool3/3x3_s2_pool3/3x3_s2_0_split
I0403 15:08:57.208784  2725 net.cpp:91] Creating Layer pool3/3x3_s2_pool3/3x3_s2_0_split
I0403 15:08:57.208801  2725 net.cpp:425] pool3/3x3_s2_pool3/3x3_s2_0_split <- pool3/3x3_s2
I0403 15:08:57.208819  2725 net.cpp:399] pool3/3x3_s2_pool3/3x3_s2_0_split -> pool3/3x3_s2_pool3/3x3_s2_0_split_0
I0403 15:08:57.208839  2725 net.cpp:399] pool3/3x3_s2_pool3/3x3_s2_0_split -> pool3/3x3_s2_pool3/3x3_s2_0_split_1
I0403 15:08:57.208858  2725 net.cpp:399] pool3/3x3_s2_pool3/3x3_s2_0_split -> pool3/3x3_s2_pool3/3x3_s2_0_split_2
I0403 15:08:57.208878  2725 net.cpp:399] pool3/3x3_s2_pool3/3x3_s2_0_split -> pool3/3x3_s2_pool3/3x3_s2_0_split_3
I0403 15:08:57.208971  2725 net.cpp:141] Setting up pool3/3x3_s2_pool3/3x3_s2_0_split
I0403 15:08:57.208995  2725 net.cpp:148] Top shape: 24 480 14 14 (2257920)
I0403 15:08:57.209012  2725 net.cpp:148] Top shape: 24 480 14 14 (2257920)
I0403 15:08:57.209028  2725 net.cpp:148] Top shape: 24 480 14 14 (2257920)
I0403 15:08:57.209044  2725 net.cpp:148] Top shape: 24 480 14 14 (2257920)
I0403 15:08:57.209059  2725 net.cpp:156] Memory required for data: 854397984
I0403 15:08:57.209072  2725 layer_factory.hpp:77] Creating layer inception_4a/1x1
I0403 15:08:57.209096  2725 net.cpp:91] Creating Layer inception_4a/1x1
I0403 15:08:57.209113  2725 net.cpp:425] inception_4a/1x1 <- pool3/3x3_s2_pool3/3x3_s2_0_split_0
I0403 15:08:57.209133  2725 net.cpp:399] inception_4a/1x1 -> inception_4a/1x1
I0403 15:08:57.210907  2725 net.cpp:141] Setting up inception_4a/1x1
I0403 15:08:57.210937  2725 net.cpp:148] Top shape: 24 192 14 14 (903168)
I0403 15:08:57.210953  2725 net.cpp:156] Memory required for data: 858010656
I0403 15:08:57.210971  2725 layer_factory.hpp:77] Creating layer inception_4a/relu_1x1
I0403 15:08:57.210989  2725 net.cpp:91] Creating Layer inception_4a/relu_1x1
I0403 15:08:57.211005  2725 net.cpp:425] inception_4a/relu_1x1 <- inception_4a/1x1
I0403 15:08:57.211024  2725 net.cpp:386] inception_4a/relu_1x1 -> inception_4a/1x1 (in-place)
I0403 15:08:57.211199  2725 net.cpp:141] Setting up inception_4a/relu_1x1
I0403 15:08:57.211225  2725 net.cpp:148] Top shape: 24 192 14 14 (903168)
I0403 15:08:57.211239  2725 net.cpp:156] Memory required for data: 861623328
I0403 15:08:57.211253  2725 layer_factory.hpp:77] Creating layer inception_4a/3x3_reduce
I0403 15:08:57.211278  2725 net.cpp:91] Creating Layer inception_4a/3x3_reduce
I0403 15:08:57.211297  2725 net.cpp:425] inception_4a/3x3_reduce <- pool3/3x3_s2_pool3/3x3_s2_0_split_1
I0403 15:08:57.211319  2725 net.cpp:399] inception_4a/3x3_reduce -> inception_4a/3x3_reduce
I0403 15:08:57.212602  2725 net.cpp:141] Setting up inception_4a/3x3_reduce
I0403 15:08:57.212635  2725 net.cpp:148] Top shape: 24 96 14 14 (451584)
I0403 15:08:57.212651  2725 net.cpp:156] Memory required for data: 863429664
I0403 15:08:57.212676  2725 layer_factory.hpp:77] Creating layer inception_4a/relu_3x3_reduce
I0403 15:08:57.212697  2725 net.cpp:91] Creating Layer inception_4a/relu_3x3_reduce
I0403 15:08:57.212716  2725 net.cpp:425] inception_4a/relu_3x3_reduce <- inception_4a/3x3_reduce
I0403 15:08:57.212735  2725 net.cpp:386] inception_4a/relu_3x3_reduce -> inception_4a/3x3_reduce (in-place)
I0403 15:08:57.212911  2725 net.cpp:141] Setting up inception_4a/relu_3x3_reduce
I0403 15:08:57.212936  2725 net.cpp:148] Top shape: 24 96 14 14 (451584)
I0403 15:08:57.212952  2725 net.cpp:156] Memory required for data: 865236000
I0403 15:08:57.212967  2725 layer_factory.hpp:77] Creating layer inception_4a/3x3
I0403 15:08:57.212990  2725 net.cpp:91] Creating Layer inception_4a/3x3
I0403 15:08:57.213008  2725 net.cpp:425] inception_4a/3x3 <- inception_4a/3x3_reduce
I0403 15:08:57.213029  2725 net.cpp:399] inception_4a/3x3 -> inception_4a/3x3
I0403 15:08:57.215772  2725 net.cpp:141] Setting up inception_4a/3x3
I0403 15:08:57.215802  2725 net.cpp:148] Top shape: 24 208 14 14 (978432)
I0403 15:08:57.215818  2725 net.cpp:156] Memory required for data: 869149728
I0403 15:08:57.215837  2725 layer_factory.hpp:77] Creating layer inception_4a/relu_3x3
I0403 15:08:57.215857  2725 net.cpp:91] Creating Layer inception_4a/relu_3x3
I0403 15:08:57.215875  2725 net.cpp:425] inception_4a/relu_3x3 <- inception_4a/3x3
I0403 15:08:57.215893  2725 net.cpp:386] inception_4a/relu_3x3 -> inception_4a/3x3 (in-place)
I0403 15:08:57.216171  2725 net.cpp:141] Setting up inception_4a/relu_3x3
I0403 15:08:57.216197  2725 net.cpp:148] Top shape: 24 208 14 14 (978432)
I0403 15:08:57.216212  2725 net.cpp:156] Memory required for data: 873063456
I0403 15:08:57.216226  2725 layer_factory.hpp:77] Creating layer inception_4a/5x5_reduce
I0403 15:08:57.216250  2725 net.cpp:91] Creating Layer inception_4a/5x5_reduce
I0403 15:08:57.216269  2725 net.cpp:425] inception_4a/5x5_reduce <- pool3/3x3_s2_pool3/3x3_s2_0_split_2
I0403 15:08:57.216295  2725 net.cpp:399] inception_4a/5x5_reduce -> inception_4a/5x5_reduce
I0403 15:08:57.217314  2725 net.cpp:141] Setting up inception_4a/5x5_reduce
I0403 15:08:57.217342  2725 net.cpp:148] Top shape: 24 16 14 14 (75264)
I0403 15:08:57.217360  2725 net.cpp:156] Memory required for data: 873364512
I0403 15:08:57.217377  2725 layer_factory.hpp:77] Creating layer inception_4a/relu_5x5_reduce
I0403 15:08:57.217398  2725 net.cpp:91] Creating Layer inception_4a/relu_5x5_reduce
I0403 15:08:57.217417  2725 net.cpp:425] inception_4a/relu_5x5_reduce <- inception_4a/5x5_reduce
I0403 15:08:57.217437  2725 net.cpp:386] inception_4a/relu_5x5_reduce -> inception_4a/5x5_reduce (in-place)
I0403 15:08:57.217613  2725 net.cpp:141] Setting up inception_4a/relu_5x5_reduce
I0403 15:08:57.217638  2725 net.cpp:148] Top shape: 24 16 14 14 (75264)
I0403 15:08:57.217653  2725 net.cpp:156] Memory required for data: 873665568
I0403 15:08:57.217667  2725 layer_factory.hpp:77] Creating layer inception_4a/5x5
I0403 15:08:57.217691  2725 net.cpp:91] Creating Layer inception_4a/5x5
I0403 15:08:57.217708  2725 net.cpp:425] inception_4a/5x5 <- inception_4a/5x5_reduce
I0403 15:08:57.217727  2725 net.cpp:399] inception_4a/5x5 -> inception_4a/5x5
I0403 15:08:57.218847  2725 net.cpp:141] Setting up inception_4a/5x5
I0403 15:08:57.218875  2725 net.cpp:148] Top shape: 24 48 14 14 (225792)
I0403 15:08:57.218894  2725 net.cpp:156] Memory required for data: 874568736
I0403 15:08:57.218914  2725 layer_factory.hpp:77] Creating layer inception_4a/relu_5x5
I0403 15:08:57.218932  2725 net.cpp:91] Creating Layer inception_4a/relu_5x5
I0403 15:08:57.218950  2725 net.cpp:425] inception_4a/relu_5x5 <- inception_4a/5x5
I0403 15:08:57.218967  2725 net.cpp:386] inception_4a/relu_5x5 -> inception_4a/5x5 (in-place)
I0403 15:08:57.219146  2725 net.cpp:141] Setting up inception_4a/relu_5x5
I0403 15:08:57.219174  2725 net.cpp:148] Top shape: 24 48 14 14 (225792)
I0403 15:08:57.219190  2725 net.cpp:156] Memory required for data: 875471904
I0403 15:08:57.219205  2725 layer_factory.hpp:77] Creating layer inception_4a/pool
I0403 15:08:57.219223  2725 net.cpp:91] Creating Layer inception_4a/pool
I0403 15:08:57.219239  2725 net.cpp:425] inception_4a/pool <- pool3/3x3_s2_pool3/3x3_s2_0_split_3
I0403 15:08:57.219260  2725 net.cpp:399] inception_4a/pool -> inception_4a/pool
I0403 15:08:57.219326  2725 net.cpp:141] Setting up inception_4a/pool
I0403 15:08:57.219352  2725 net.cpp:148] Top shape: 24 480 14 14 (2257920)
I0403 15:08:57.219367  2725 net.cpp:156] Memory required for data: 884503584
I0403 15:08:57.219382  2725 layer_factory.hpp:77] Creating layer inception_4a/pool_proj
I0403 15:08:57.219401  2725 net.cpp:91] Creating Layer inception_4a/pool_proj
I0403 15:08:57.219418  2725 net.cpp:425] inception_4a/pool_proj <- inception_4a/pool
I0403 15:08:57.219439  2725 net.cpp:399] inception_4a/pool_proj -> inception_4a/pool_proj
I0403 15:08:57.220610  2725 net.cpp:141] Setting up inception_4a/pool_proj
I0403 15:08:57.220643  2725 net.cpp:148] Top shape: 24 64 14 14 (301056)
I0403 15:08:57.220674  2725 net.cpp:156] Memory required for data: 885707808
I0403 15:08:57.220695  2725 layer_factory.hpp:77] Creating layer inception_4a/relu_pool_proj
I0403 15:08:57.220715  2725 net.cpp:91] Creating Layer inception_4a/relu_pool_proj
I0403 15:08:57.220732  2725 net.cpp:425] inception_4a/relu_pool_proj <- inception_4a/pool_proj
I0403 15:08:57.220749  2725 net.cpp:386] inception_4a/relu_pool_proj -> inception_4a/pool_proj (in-place)
I0403 15:08:57.221034  2725 net.cpp:141] Setting up inception_4a/relu_pool_proj
I0403 15:08:57.221065  2725 net.cpp:148] Top shape: 24 64 14 14 (301056)
I0403 15:08:57.221081  2725 net.cpp:156] Memory required for data: 886912032
I0403 15:08:57.221096  2725 layer_factory.hpp:77] Creating layer inception_4a/output
I0403 15:08:57.221113  2725 net.cpp:91] Creating Layer inception_4a/output
I0403 15:08:57.221128  2725 net.cpp:425] inception_4a/output <- inception_4a/1x1
I0403 15:08:57.221144  2725 net.cpp:425] inception_4a/output <- inception_4a/3x3
I0403 15:08:57.221160  2725 net.cpp:425] inception_4a/output <- inception_4a/5x5
I0403 15:08:57.221176  2725 net.cpp:425] inception_4a/output <- inception_4a/pool_proj
I0403 15:08:57.221194  2725 net.cpp:399] inception_4a/output -> inception_4a/output
I0403 15:08:57.221240  2725 net.cpp:141] Setting up inception_4a/output
I0403 15:08:57.221262  2725 net.cpp:148] Top shape: 24 512 14 14 (2408448)
I0403 15:08:57.221282  2725 net.cpp:156] Memory required for data: 896545824
I0403 15:08:57.221300  2725 layer_factory.hpp:77] Creating layer inception_4a/output_inception_4a/output_0_split
I0403 15:08:57.221320  2725 net.cpp:91] Creating Layer inception_4a/output_inception_4a/output_0_split
I0403 15:08:57.221338  2725 net.cpp:425] inception_4a/output_inception_4a/output_0_split <- inception_4a/output
I0403 15:08:57.221354  2725 net.cpp:399] inception_4a/output_inception_4a/output_0_split -> inception_4a/output_inception_4a/output_0_split_0
I0403 15:08:57.221375  2725 net.cpp:399] inception_4a/output_inception_4a/output_0_split -> inception_4a/output_inception_4a/output_0_split_1
I0403 15:08:57.221395  2725 net.cpp:399] inception_4a/output_inception_4a/output_0_split -> inception_4a/output_inception_4a/output_0_split_2
I0403 15:08:57.221416  2725 net.cpp:399] inception_4a/output_inception_4a/output_0_split -> inception_4a/output_inception_4a/output_0_split_3
I0403 15:08:57.221437  2725 net.cpp:399] inception_4a/output_inception_4a/output_0_split -> inception_4a/output_inception_4a/output_0_split_4
I0403 15:08:57.221531  2725 net.cpp:141] Setting up inception_4a/output_inception_4a/output_0_split
I0403 15:08:57.221554  2725 net.cpp:148] Top shape: 24 512 14 14 (2408448)
I0403 15:08:57.221570  2725 net.cpp:148] Top shape: 24 512 14 14 (2408448)
I0403 15:08:57.221586  2725 net.cpp:148] Top shape: 24 512 14 14 (2408448)
I0403 15:08:57.221601  2725 net.cpp:148] Top shape: 24 512 14 14 (2408448)
I0403 15:08:57.221616  2725 net.cpp:148] Top shape: 24 512 14 14 (2408448)
I0403 15:08:57.221631  2725 net.cpp:156] Memory required for data: 944714784
I0403 15:08:57.221644  2725 layer_factory.hpp:77] Creating layer loss1/ave_pool
I0403 15:08:57.221664  2725 net.cpp:91] Creating Layer loss1/ave_pool
I0403 15:08:57.221680  2725 net.cpp:425] loss1/ave_pool <- inception_4a/output_inception_4a/output_0_split_0
I0403 15:08:57.221698  2725 net.cpp:399] loss1/ave_pool -> loss1/ave_pool
I0403 15:08:57.221904  2725 net.cpp:141] Setting up loss1/ave_pool
I0403 15:08:57.221932  2725 net.cpp:148] Top shape: 24 512 4 4 (196608)
I0403 15:08:57.221948  2725 net.cpp:156] Memory required for data: 945501216
I0403 15:08:57.221962  2725 layer_factory.hpp:77] Creating layer loss1/conv
I0403 15:08:57.221984  2725 net.cpp:91] Creating Layer loss1/conv
I0403 15:08:57.222002  2725 net.cpp:425] loss1/conv <- loss1/ave_pool
I0403 15:08:57.222020  2725 net.cpp:399] loss1/conv -> loss1/conv
I0403 15:08:57.223497  2725 net.cpp:141] Setting up loss1/conv
I0403 15:08:57.223527  2725 net.cpp:148] Top shape: 24 128 4 4 (49152)
I0403 15:08:57.223558  2725 net.cpp:156] Memory required for data: 945697824
I0403 15:08:57.223578  2725 layer_factory.hpp:77] Creating layer loss1/relu_conv
I0403 15:08:57.223600  2725 net.cpp:91] Creating Layer loss1/relu_conv
I0403 15:08:57.223619  2725 net.cpp:425] loss1/relu_conv <- loss1/conv
I0403 15:08:57.223637  2725 net.cpp:386] loss1/relu_conv -> loss1/conv (in-place)
I0403 15:08:57.223918  2725 net.cpp:141] Setting up loss1/relu_conv
I0403 15:08:57.223945  2725 net.cpp:148] Top shape: 24 128 4 4 (49152)
I0403 15:08:57.223960  2725 net.cpp:156] Memory required for data: 945894432
I0403 15:08:57.223975  2725 layer_factory.hpp:77] Creating layer loss1/fc
I0403 15:08:57.224001  2725 net.cpp:91] Creating Layer loss1/fc
I0403 15:08:57.224020  2725 net.cpp:425] loss1/fc <- loss1/conv
I0403 15:08:57.224037  2725 net.cpp:399] loss1/fc -> loss1/fc
I0403 15:08:57.241596  2725 net.cpp:141] Setting up loss1/fc
I0403 15:08:57.241627  2725 net.cpp:148] Top shape: 24 1024 (24576)
I0403 15:08:57.241643  2725 net.cpp:156] Memory required for data: 945992736
I0403 15:08:57.241662  2725 layer_factory.hpp:77] Creating layer loss1/relu_fc
I0403 15:08:57.241683  2725 net.cpp:91] Creating Layer loss1/relu_fc
I0403 15:08:57.241699  2725 net.cpp:425] loss1/relu_fc <- loss1/fc
I0403 15:08:57.241719  2725 net.cpp:386] loss1/relu_fc -> loss1/fc (in-place)
I0403 15:08:57.241906  2725 net.cpp:141] Setting up loss1/relu_fc
I0403 15:08:57.241930  2725 net.cpp:148] Top shape: 24 1024 (24576)
I0403 15:08:57.241945  2725 net.cpp:156] Memory required for data: 946091040
I0403 15:08:57.241958  2725 layer_factory.hpp:77] Creating layer loss1/drop_fc
I0403 15:08:57.241986  2725 net.cpp:91] Creating Layer loss1/drop_fc
I0403 15:08:57.242002  2725 net.cpp:425] loss1/drop_fc <- loss1/fc
I0403 15:08:57.242022  2725 net.cpp:386] loss1/drop_fc -> loss1/fc (in-place)
I0403 15:08:57.242071  2725 net.cpp:141] Setting up loss1/drop_fc
I0403 15:08:57.242094  2725 net.cpp:148] Top shape: 24 1024 (24576)
I0403 15:08:57.242108  2725 net.cpp:156] Memory required for data: 946189344
I0403 15:08:57.242122  2725 layer_factory.hpp:77] Creating layer loss1/classifier_plantvillage
I0403 15:08:57.242143  2725 net.cpp:91] Creating Layer loss1/classifier_plantvillage
I0403 15:08:57.242161  2725 net.cpp:425] loss1/classifier_plantvillage <- loss1/fc
I0403 15:08:57.242180  2725 net.cpp:399] loss1/classifier_plantvillage -> loss1/classifier_plantvillage
I0403 15:08:57.243075  2725 net.cpp:141] Setting up loss1/classifier_plantvillage
I0403 15:08:57.243105  2725 net.cpp:148] Top shape: 24 38 (912)
I0403 15:08:57.243124  2725 net.cpp:156] Memory required for data: 946192992
I0403 15:08:57.243141  2725 layer_factory.hpp:77] Creating layer loss1/classifier_plantvillage_loss1/classifier_plantvillage_0_split
I0403 15:08:57.243160  2725 net.cpp:91] Creating Layer loss1/classifier_plantvillage_loss1/classifier_plantvillage_0_split
I0403 15:08:57.243177  2725 net.cpp:425] loss1/classifier_plantvillage_loss1/classifier_plantvillage_0_split <- loss1/classifier_plantvillage
I0403 15:08:57.243196  2725 net.cpp:399] loss1/classifier_plantvillage_loss1/classifier_plantvillage_0_split -> loss1/classifier_plantvillage_loss1/classifier_plantvillage_0_split_0
I0403 15:08:57.243216  2725 net.cpp:399] loss1/classifier_plantvillage_loss1/classifier_plantvillage_0_split -> loss1/classifier_plantvillage_loss1/classifier_plantvillage_0_split_1
I0403 15:08:57.243237  2725 net.cpp:399] loss1/classifier_plantvillage_loss1/classifier_plantvillage_0_split -> loss1/classifier_plantvillage_loss1/classifier_plantvillage_0_split_2
I0403 15:08:57.243314  2725 net.cpp:141] Setting up loss1/classifier_plantvillage_loss1/classifier_plantvillage_0_split
I0403 15:08:57.243336  2725 net.cpp:148] Top shape: 24 38 (912)
I0403 15:08:57.243352  2725 net.cpp:148] Top shape: 24 38 (912)
I0403 15:08:57.243367  2725 net.cpp:148] Top shape: 24 38 (912)
I0403 15:08:57.243381  2725 net.cpp:156] Memory required for data: 946203936
I0403 15:08:57.243396  2725 layer_factory.hpp:77] Creating layer inception_4b/1x1
I0403 15:08:57.243417  2725 net.cpp:91] Creating Layer inception_4b/1x1
I0403 15:08:57.243448  2725 net.cpp:425] inception_4b/1x1 <- inception_4a/output_inception_4a/output_0_split_1
I0403 15:08:57.243468  2725 net.cpp:399] inception_4b/1x1 -> inception_4b/1x1
I0403 15:08:57.245090  2725 net.cpp:141] Setting up inception_4b/1x1
I0403 15:08:57.245120  2725 net.cpp:148] Top shape: 24 160 14 14 (752640)
I0403 15:08:57.245136  2725 net.cpp:156] Memory required for data: 949214496
I0403 15:08:57.245154  2725 layer_factory.hpp:77] Creating layer inception_4b/relu_1x1
I0403 15:08:57.245175  2725 net.cpp:91] Creating Layer inception_4b/relu_1x1
I0403 15:08:57.245194  2725 net.cpp:425] inception_4b/relu_1x1 <- inception_4b/1x1
I0403 15:08:57.245213  2725 net.cpp:386] inception_4b/relu_1x1 -> inception_4b/1x1 (in-place)
I0403 15:08:57.245389  2725 net.cpp:141] Setting up inception_4b/relu_1x1
I0403 15:08:57.245414  2725 net.cpp:148] Top shape: 24 160 14 14 (752640)
I0403 15:08:57.245431  2725 net.cpp:156] Memory required for data: 952225056
I0403 15:08:57.245446  2725 layer_factory.hpp:77] Creating layer inception_4b/3x3_reduce
I0403 15:08:57.245470  2725 net.cpp:91] Creating Layer inception_4b/3x3_reduce
I0403 15:08:57.245487  2725 net.cpp:425] inception_4b/3x3_reduce <- inception_4a/output_inception_4a/output_0_split_2
I0403 15:08:57.245507  2725 net.cpp:399] inception_4b/3x3_reduce -> inception_4b/3x3_reduce
I0403 15:08:57.246819  2725 net.cpp:141] Setting up inception_4b/3x3_reduce
I0403 15:08:57.246847  2725 net.cpp:148] Top shape: 24 112 14 14 (526848)
I0403 15:08:57.246863  2725 net.cpp:156] Memory required for data: 954332448
I0403 15:08:57.246881  2725 layer_factory.hpp:77] Creating layer inception_4b/relu_3x3_reduce
I0403 15:08:57.246901  2725 net.cpp:91] Creating Layer inception_4b/relu_3x3_reduce
I0403 15:08:57.246918  2725 net.cpp:425] inception_4b/relu_3x3_reduce <- inception_4b/3x3_reduce
I0403 15:08:57.246935  2725 net.cpp:386] inception_4b/relu_3x3_reduce -> inception_4b/3x3_reduce (in-place)
I0403 15:08:57.247210  2725 net.cpp:141] Setting up inception_4b/relu_3x3_reduce
I0403 15:08:57.247236  2725 net.cpp:148] Top shape: 24 112 14 14 (526848)
I0403 15:08:57.247251  2725 net.cpp:156] Memory required for data: 956439840
I0403 15:08:57.247265  2725 layer_factory.hpp:77] Creating layer inception_4b/3x3
I0403 15:08:57.247292  2725 net.cpp:91] Creating Layer inception_4b/3x3
I0403 15:08:57.247309  2725 net.cpp:425] inception_4b/3x3 <- inception_4b/3x3_reduce
I0403 15:08:57.247330  2725 net.cpp:399] inception_4b/3x3 -> inception_4b/3x3
I0403 15:08:57.250248  2725 net.cpp:141] Setting up inception_4b/3x3
I0403 15:08:57.250283  2725 net.cpp:148] Top shape: 24 224 14 14 (1053696)
I0403 15:08:57.250301  2725 net.cpp:156] Memory required for data: 960654624
I0403 15:08:57.250320  2725 layer_factory.hpp:77] Creating layer inception_4b/relu_3x3
I0403 15:08:57.250337  2725 net.cpp:91] Creating Layer inception_4b/relu_3x3
I0403 15:08:57.250354  2725 net.cpp:425] inception_4b/relu_3x3 <- inception_4b/3x3
I0403 15:08:57.250372  2725 net.cpp:386] inception_4b/relu_3x3 -> inception_4b/3x3 (in-place)
I0403 15:08:57.250550  2725 net.cpp:141] Setting up inception_4b/relu_3x3
I0403 15:08:57.250574  2725 net.cpp:148] Top shape: 24 224 14 14 (1053696)
I0403 15:08:57.250589  2725 net.cpp:156] Memory required for data: 964869408
I0403 15:08:57.250605  2725 layer_factory.hpp:77] Creating layer inception_4b/5x5_reduce
I0403 15:08:57.250627  2725 net.cpp:91] Creating Layer inception_4b/5x5_reduce
I0403 15:08:57.250645  2725 net.cpp:425] inception_4b/5x5_reduce <- inception_4a/output_inception_4a/output_0_split_3
I0403 15:08:57.250666  2725 net.cpp:399] inception_4b/5x5_reduce -> inception_4b/5x5_reduce
I0403 15:08:57.251781  2725 net.cpp:141] Setting up inception_4b/5x5_reduce
I0403 15:08:57.251809  2725 net.cpp:148] Top shape: 24 24 14 14 (112896)
I0403 15:08:57.251837  2725 net.cpp:156] Memory required for data: 965320992
I0403 15:08:57.251853  2725 layer_factory.hpp:77] Creating layer inception_4b/relu_5x5_reduce
I0403 15:08:57.251885  2725 net.cpp:91] Creating Layer inception_4b/relu_5x5_reduce
I0403 15:08:57.251915  2725 net.cpp:425] inception_4b/relu_5x5_reduce <- inception_4b/5x5_reduce
I0403 15:08:57.251935  2725 net.cpp:386] inception_4b/relu_5x5_reduce -> inception_4b/5x5_reduce (in-place)
I0403 15:08:57.252117  2725 net.cpp:141] Setting up inception_4b/relu_5x5_reduce
I0403 15:08:57.252146  2725 net.cpp:148] Top shape: 24 24 14 14 (112896)
I0403 15:08:57.252161  2725 net.cpp:156] Memory required for data: 965772576
I0403 15:08:57.252176  2725 layer_factory.hpp:77] Creating layer inception_4b/5x5
I0403 15:08:57.252197  2725 net.cpp:91] Creating Layer inception_4b/5x5
I0403 15:08:57.252215  2725 net.cpp:425] inception_4b/5x5 <- inception_4b/5x5_reduce
I0403 15:08:57.252233  2725 net.cpp:399] inception_4b/5x5 -> inception_4b/5x5
I0403 15:08:57.253468  2725 net.cpp:141] Setting up inception_4b/5x5
I0403 15:08:57.253496  2725 net.cpp:148] Top shape: 24 64 14 14 (301056)
I0403 15:08:57.253511  2725 net.cpp:156] Memory required for data: 966976800
I0403 15:08:57.253530  2725 layer_factory.hpp:77] Creating layer inception_4b/relu_5x5
I0403 15:08:57.253551  2725 net.cpp:91] Creating Layer inception_4b/relu_5x5
I0403 15:08:57.253568  2725 net.cpp:425] inception_4b/relu_5x5 <- inception_4b/5x5
I0403 15:08:57.253585  2725 net.cpp:386] inception_4b/relu_5x5 -> inception_4b/5x5 (in-place)
I0403 15:08:57.253865  2725 net.cpp:141] Setting up inception_4b/relu_5x5
I0403 15:08:57.253891  2725 net.cpp:148] Top shape: 24 64 14 14 (301056)
I0403 15:08:57.253906  2725 net.cpp:156] Memory required for data: 968181024
I0403 15:08:57.253921  2725 layer_factory.hpp:77] Creating layer inception_4b/pool
I0403 15:08:57.253937  2725 net.cpp:91] Creating Layer inception_4b/pool
I0403 15:08:57.253957  2725 net.cpp:425] inception_4b/pool <- inception_4a/output_inception_4a/output_0_split_4
I0403 15:08:57.253974  2725 net.cpp:399] inception_4b/pool -> inception_4b/pool
I0403 15:08:57.254036  2725 net.cpp:141] Setting up inception_4b/pool
I0403 15:08:57.254060  2725 net.cpp:148] Top shape: 24 512 14 14 (2408448)
I0403 15:08:57.254073  2725 net.cpp:156] Memory required for data: 977814816
I0403 15:08:57.254087  2725 layer_factory.hpp:77] Creating layer inception_4b/pool_proj
I0403 15:08:57.254109  2725 net.cpp:91] Creating Layer inception_4b/pool_proj
I0403 15:08:57.254125  2725 net.cpp:425] inception_4b/pool_proj <- inception_4b/pool
I0403 15:08:57.254145  2725 net.cpp:399] inception_4b/pool_proj -> inception_4b/pool_proj
I0403 15:08:57.255329  2725 net.cpp:141] Setting up inception_4b/pool_proj
I0403 15:08:57.255357  2725 net.cpp:148] Top shape: 24 64 14 14 (301056)
I0403 15:08:57.255373  2725 net.cpp:156] Memory required for data: 979019040
I0403 15:08:57.255391  2725 layer_factory.hpp:77] Creating layer inception_4b/relu_pool_proj
I0403 15:08:57.255412  2725 net.cpp:91] Creating Layer inception_4b/relu_pool_proj
I0403 15:08:57.255432  2725 net.cpp:425] inception_4b/relu_pool_proj <- inception_4b/pool_proj
I0403 15:08:57.255450  2725 net.cpp:386] inception_4b/relu_pool_proj -> inception_4b/pool_proj (in-place)
I0403 15:08:57.255630  2725 net.cpp:141] Setting up inception_4b/relu_pool_proj
I0403 15:08:57.255656  2725 net.cpp:148] Top shape: 24 64 14 14 (301056)
I0403 15:08:57.255669  2725 net.cpp:156] Memory required for data: 980223264
I0403 15:08:57.255684  2725 layer_factory.hpp:77] Creating layer inception_4b/output
I0403 15:08:57.255707  2725 net.cpp:91] Creating Layer inception_4b/output
I0403 15:08:57.255723  2725 net.cpp:425] inception_4b/output <- inception_4b/1x1
I0403 15:08:57.255740  2725 net.cpp:425] inception_4b/output <- inception_4b/3x3
I0403 15:08:57.255755  2725 net.cpp:425] inception_4b/output <- inception_4b/5x5
I0403 15:08:57.255771  2725 net.cpp:425] inception_4b/output <- inception_4b/pool_proj
I0403 15:08:57.255789  2725 net.cpp:399] inception_4b/output -> inception_4b/output
I0403 15:08:57.255834  2725 net.cpp:141] Setting up inception_4b/output
I0403 15:08:57.255857  2725 net.cpp:148] Top shape: 24 512 14 14 (2408448)
I0403 15:08:57.255872  2725 net.cpp:156] Memory required for data: 989857056
I0403 15:08:57.255897  2725 layer_factory.hpp:77] Creating layer inception_4b/output_inception_4b/output_0_split
I0403 15:08:57.255915  2725 net.cpp:91] Creating Layer inception_4b/output_inception_4b/output_0_split
I0403 15:08:57.255931  2725 net.cpp:425] inception_4b/output_inception_4b/output_0_split <- inception_4b/output
I0403 15:08:57.255950  2725 net.cpp:399] inception_4b/output_inception_4b/output_0_split -> inception_4b/output_inception_4b/output_0_split_0
I0403 15:08:57.255982  2725 net.cpp:399] inception_4b/output_inception_4b/output_0_split -> inception_4b/output_inception_4b/output_0_split_1
I0403 15:08:57.256002  2725 net.cpp:399] inception_4b/output_inception_4b/output_0_split -> inception_4b/output_inception_4b/output_0_split_2
I0403 15:08:57.256021  2725 net.cpp:399] inception_4b/output_inception_4b/output_0_split -> inception_4b/output_inception_4b/output_0_split_3
I0403 15:08:57.256108  2725 net.cpp:141] Setting up inception_4b/output_inception_4b/output_0_split
I0403 15:08:57.256131  2725 net.cpp:148] Top shape: 24 512 14 14 (2408448)
I0403 15:08:57.256147  2725 net.cpp:148] Top shape: 24 512 14 14 (2408448)
I0403 15:08:57.256163  2725 net.cpp:148] Top shape: 24 512 14 14 (2408448)
I0403 15:08:57.256178  2725 net.cpp:148] Top shape: 24 512 14 14 (2408448)
I0403 15:08:57.256191  2725 net.cpp:156] Memory required for data: 1028392224
I0403 15:08:57.256206  2725 layer_factory.hpp:77] Creating layer inception_4c/1x1
I0403 15:08:57.256227  2725 net.cpp:91] Creating Layer inception_4c/1x1
I0403 15:08:57.256244  2725 net.cpp:425] inception_4c/1x1 <- inception_4b/output_inception_4b/output_0_split_0
I0403 15:08:57.256280  2725 net.cpp:399] inception_4c/1x1 -> inception_4c/1x1
I0403 15:08:57.257714  2725 net.cpp:141] Setting up inception_4c/1x1
I0403 15:08:57.257745  2725 net.cpp:148] Top shape: 24 128 14 14 (602112)
I0403 15:08:57.257763  2725 net.cpp:156] Memory required for data: 1030800672
I0403 15:08:57.257782  2725 layer_factory.hpp:77] Creating layer inception_4c/relu_1x1
I0403 15:08:57.257802  2725 net.cpp:91] Creating Layer inception_4c/relu_1x1
I0403 15:08:57.257818  2725 net.cpp:425] inception_4c/relu_1x1 <- inception_4c/1x1
I0403 15:08:57.257838  2725 net.cpp:386] inception_4c/relu_1x1 -> inception_4c/1x1 (in-place)
I0403 15:08:57.258014  2725 net.cpp:141] Setting up inception_4c/relu_1x1
I0403 15:08:57.258040  2725 net.cpp:148] Top shape: 24 128 14 14 (602112)
I0403 15:08:57.258054  2725 net.cpp:156] Memory required for data: 1033209120
I0403 15:08:57.258069  2725 layer_factory.hpp:77] Creating layer inception_4c/3x3_reduce
I0403 15:08:57.258091  2725 net.cpp:91] Creating Layer inception_4c/3x3_reduce
I0403 15:08:57.258108  2725 net.cpp:425] inception_4c/3x3_reduce <- inception_4b/output_inception_4b/output_0_split_1
I0403 15:08:57.258129  2725 net.cpp:399] inception_4c/3x3_reduce -> inception_4c/3x3_reduce
I0403 15:08:57.260026  2725 net.cpp:141] Setting up inception_4c/3x3_reduce
I0403 15:08:57.260056  2725 net.cpp:148] Top shape: 24 128 14 14 (602112)
I0403 15:08:57.260071  2725 net.cpp:156] Memory required for data: 1035617568
I0403 15:08:57.260089  2725 layer_factory.hpp:77] Creating layer inception_4c/relu_3x3_reduce
I0403 15:08:57.260107  2725 net.cpp:91] Creating Layer inception_4c/relu_3x3_reduce
I0403 15:08:57.260123  2725 net.cpp:425] inception_4c/relu_3x3_reduce <- inception_4c/3x3_reduce
I0403 15:08:57.260140  2725 net.cpp:386] inception_4c/relu_3x3_reduce -> inception_4c/3x3_reduce (in-place)
I0403 15:08:57.260424  2725 net.cpp:141] Setting up inception_4c/relu_3x3_reduce
I0403 15:08:57.260449  2725 net.cpp:148] Top shape: 24 128 14 14 (602112)
I0403 15:08:57.260464  2725 net.cpp:156] Memory required for data: 1038026016
I0403 15:08:57.260479  2725 layer_factory.hpp:77] Creating layer inception_4c/3x3
I0403 15:08:57.260501  2725 net.cpp:91] Creating Layer inception_4c/3x3
I0403 15:08:57.260519  2725 net.cpp:425] inception_4c/3x3 <- inception_4c/3x3_reduce
I0403 15:08:57.260538  2725 net.cpp:399] inception_4c/3x3 -> inception_4c/3x3
I0403 15:08:57.264060  2725 net.cpp:141] Setting up inception_4c/3x3
I0403 15:08:57.264101  2725 net.cpp:148] Top shape: 24 256 14 14 (1204224)
I0403 15:08:57.264119  2725 net.cpp:156] Memory required for data: 1042842912
I0403 15:08:57.264152  2725 layer_factory.hpp:77] Creating layer inception_4c/relu_3x3
I0403 15:08:57.264175  2725 net.cpp:91] Creating Layer inception_4c/relu_3x3
I0403 15:08:57.264194  2725 net.cpp:425] inception_4c/relu_3x3 <- inception_4c/3x3
I0403 15:08:57.264210  2725 net.cpp:386] inception_4c/relu_3x3 -> inception_4c/3x3 (in-place)
I0403 15:08:57.264394  2725 net.cpp:141] Setting up inception_4c/relu_3x3
I0403 15:08:57.264420  2725 net.cpp:148] Top shape: 24 256 14 14 (1204224)
I0403 15:08:57.264437  2725 net.cpp:156] Memory required for data: 1047659808
I0403 15:08:57.264451  2725 layer_factory.hpp:77] Creating layer inception_4c/5x5_reduce
I0403 15:08:57.264472  2725 net.cpp:91] Creating Layer inception_4c/5x5_reduce
I0403 15:08:57.264490  2725 net.cpp:425] inception_4c/5x5_reduce <- inception_4b/output_inception_4b/output_0_split_2
I0403 15:08:57.264513  2725 net.cpp:399] inception_4c/5x5_reduce -> inception_4c/5x5_reduce
I0403 15:08:57.265576  2725 net.cpp:141] Setting up inception_4c/5x5_reduce
I0403 15:08:57.265604  2725 net.cpp:148] Top shape: 24 24 14 14 (112896)
I0403 15:08:57.265620  2725 net.cpp:156] Memory required for data: 1048111392
I0403 15:08:57.265638  2725 layer_factory.hpp:77] Creating layer inception_4c/relu_5x5_reduce
I0403 15:08:57.265658  2725 net.cpp:91] Creating Layer inception_4c/relu_5x5_reduce
I0403 15:08:57.265674  2725 net.cpp:425] inception_4c/relu_5x5_reduce <- inception_4c/5x5_reduce
I0403 15:08:57.265691  2725 net.cpp:386] inception_4c/relu_5x5_reduce -> inception_4c/5x5_reduce (in-place)
I0403 15:08:57.265869  2725 net.cpp:141] Setting up inception_4c/relu_5x5_reduce
I0403 15:08:57.265895  2725 net.cpp:148] Top shape: 24 24 14 14 (112896)
I0403 15:08:57.265910  2725 net.cpp:156] Memory required for data: 1048562976
I0403 15:08:57.265925  2725 layer_factory.hpp:77] Creating layer inception_4c/5x5
I0403 15:08:57.265946  2725 net.cpp:91] Creating Layer inception_4c/5x5
I0403 15:08:57.265964  2725 net.cpp:425] inception_4c/5x5 <- inception_4c/5x5_reduce
I0403 15:08:57.265981  2725 net.cpp:399] inception_4c/5x5 -> inception_4c/5x5
I0403 15:08:57.267207  2725 net.cpp:141] Setting up inception_4c/5x5
I0403 15:08:57.267235  2725 net.cpp:148] Top shape: 24 64 14 14 (301056)
I0403 15:08:57.267249  2725 net.cpp:156] Memory required for data: 1049767200
I0403 15:08:57.267267  2725 layer_factory.hpp:77] Creating layer inception_4c/relu_5x5
I0403 15:08:57.267295  2725 net.cpp:91] Creating Layer inception_4c/relu_5x5
I0403 15:08:57.267313  2725 net.cpp:425] inception_4c/relu_5x5 <- inception_4c/5x5
I0403 15:08:57.267330  2725 net.cpp:386] inception_4c/relu_5x5 -> inception_4c/5x5 (in-place)
I0403 15:08:57.267626  2725 net.cpp:141] Setting up inception_4c/relu_5x5
I0403 15:08:57.267650  2725 net.cpp:148] Top shape: 24 64 14 14 (301056)
I0403 15:08:57.267664  2725 net.cpp:156] Memory required for data: 1050971424
I0403 15:08:57.267679  2725 layer_factory.hpp:77] Creating layer inception_4c/pool
I0403 15:08:57.267699  2725 net.cpp:91] Creating Layer inception_4c/pool
I0403 15:08:57.267714  2725 net.cpp:425] inception_4c/pool <- inception_4b/output_inception_4b/output_0_split_3
I0403 15:08:57.267732  2725 net.cpp:399] inception_4c/pool -> inception_4c/pool
I0403 15:08:57.267797  2725 net.cpp:141] Setting up inception_4c/pool
I0403 15:08:57.267820  2725 net.cpp:148] Top shape: 24 512 14 14 (2408448)
I0403 15:08:57.267834  2725 net.cpp:156] Memory required for data: 1060605216
I0403 15:08:57.267848  2725 layer_factory.hpp:77] Creating layer inception_4c/pool_proj
I0403 15:08:57.267870  2725 net.cpp:91] Creating Layer inception_4c/pool_proj
I0403 15:08:57.267887  2725 net.cpp:425] inception_4c/pool_proj <- inception_4c/pool
I0403 15:08:57.267906  2725 net.cpp:399] inception_4c/pool_proj -> inception_4c/pool_proj
I0403 15:08:57.269086  2725 net.cpp:141] Setting up inception_4c/pool_proj
I0403 15:08:57.269114  2725 net.cpp:148] Top shape: 24 64 14 14 (301056)
I0403 15:08:57.269143  2725 net.cpp:156] Memory required for data: 1061809440
I0403 15:08:57.269163  2725 layer_factory.hpp:77] Creating layer inception_4c/relu_pool_proj
I0403 15:08:57.269184  2725 net.cpp:91] Creating Layer inception_4c/relu_pool_proj
I0403 15:08:57.269201  2725 net.cpp:425] inception_4c/relu_pool_proj <- inception_4c/pool_proj
I0403 15:08:57.269218  2725 net.cpp:386] inception_4c/relu_pool_proj -> inception_4c/pool_proj (in-place)
I0403 15:08:57.269399  2725 net.cpp:141] Setting up inception_4c/relu_pool_proj
I0403 15:08:57.269425  2725 net.cpp:148] Top shape: 24 64 14 14 (301056)
I0403 15:08:57.269441  2725 net.cpp:156] Memory required for data: 1063013664
I0403 15:08:57.269455  2725 layer_factory.hpp:77] Creating layer inception_4c/output
I0403 15:08:57.269474  2725 net.cpp:91] Creating Layer inception_4c/output
I0403 15:08:57.269490  2725 net.cpp:425] inception_4c/output <- inception_4c/1x1
I0403 15:08:57.269506  2725 net.cpp:425] inception_4c/output <- inception_4c/3x3
I0403 15:08:57.269521  2725 net.cpp:425] inception_4c/output <- inception_4c/5x5
I0403 15:08:57.269537  2725 net.cpp:425] inception_4c/output <- inception_4c/pool_proj
I0403 15:08:57.269553  2725 net.cpp:399] inception_4c/output -> inception_4c/output
I0403 15:08:57.269600  2725 net.cpp:141] Setting up inception_4c/output
I0403 15:08:57.269623  2725 net.cpp:148] Top shape: 24 512 14 14 (2408448)
I0403 15:08:57.269635  2725 net.cpp:156] Memory required for data: 1072647456
I0403 15:08:57.269649  2725 layer_factory.hpp:77] Creating layer inception_4c/output_inception_4c/output_0_split
I0403 15:08:57.269666  2725 net.cpp:91] Creating Layer inception_4c/output_inception_4c/output_0_split
I0403 15:08:57.269681  2725 net.cpp:425] inception_4c/output_inception_4c/output_0_split <- inception_4c/output
I0403 15:08:57.269701  2725 net.cpp:399] inception_4c/output_inception_4c/output_0_split -> inception_4c/output_inception_4c/output_0_split_0
I0403 15:08:57.269721  2725 net.cpp:399] inception_4c/output_inception_4c/output_0_split -> inception_4c/output_inception_4c/output_0_split_1
I0403 15:08:57.269740  2725 net.cpp:399] inception_4c/output_inception_4c/output_0_split -> inception_4c/output_inception_4c/output_0_split_2
I0403 15:08:57.269759  2725 net.cpp:399] inception_4c/output_inception_4c/output_0_split -> inception_4c/output_inception_4c/output_0_split_3
I0403 15:08:57.269847  2725 net.cpp:141] Setting up inception_4c/output_inception_4c/output_0_split
I0403 15:08:57.269870  2725 net.cpp:148] Top shape: 24 512 14 14 (2408448)
I0403 15:08:57.269886  2725 net.cpp:148] Top shape: 24 512 14 14 (2408448)
I0403 15:08:57.269899  2725 net.cpp:148] Top shape: 24 512 14 14 (2408448)
I0403 15:08:57.269914  2725 net.cpp:148] Top shape: 24 512 14 14 (2408448)
I0403 15:08:57.269927  2725 net.cpp:156] Memory required for data: 1111182624
I0403 15:08:57.269942  2725 layer_factory.hpp:77] Creating layer inception_4d/1x1
I0403 15:08:57.269963  2725 net.cpp:91] Creating Layer inception_4d/1x1
I0403 15:08:57.269979  2725 net.cpp:425] inception_4d/1x1 <- inception_4c/output_inception_4c/output_0_split_0
I0403 15:08:57.269999  2725 net.cpp:399] inception_4d/1x1 -> inception_4d/1x1
I0403 15:08:57.271374  2725 net.cpp:141] Setting up inception_4d/1x1
I0403 15:08:57.271406  2725 net.cpp:148] Top shape: 24 112 14 14 (526848)
I0403 15:08:57.271425  2725 net.cpp:156] Memory required for data: 1113290016
I0403 15:08:57.271445  2725 layer_factory.hpp:77] Creating layer inception_4d/relu_1x1
I0403 15:08:57.271462  2725 net.cpp:91] Creating Layer inception_4d/relu_1x1
I0403 15:08:57.271479  2725 net.cpp:425] inception_4d/relu_1x1 <- inception_4d/1x1
I0403 15:08:57.271499  2725 net.cpp:386] inception_4d/relu_1x1 -> inception_4d/1x1 (in-place)
I0403 15:08:57.271697  2725 net.cpp:141] Setting up inception_4d/relu_1x1
I0403 15:08:57.271721  2725 net.cpp:148] Top shape: 24 112 14 14 (526848)
I0403 15:08:57.271736  2725 net.cpp:156] Memory required for data: 1115397408
I0403 15:08:57.271751  2725 layer_factory.hpp:77] Creating layer inception_4d/3x3_reduce
I0403 15:08:57.271785  2725 net.cpp:91] Creating Layer inception_4d/3x3_reduce
I0403 15:08:57.271805  2725 net.cpp:425] inception_4d/3x3_reduce <- inception_4c/output_inception_4c/output_0_split_1
I0403 15:08:57.271826  2725 net.cpp:399] inception_4d/3x3_reduce -> inception_4d/3x3_reduce
I0403 15:08:57.273298  2725 net.cpp:141] Setting up inception_4d/3x3_reduce
I0403 15:08:57.273330  2725 net.cpp:148] Top shape: 24 144 14 14 (677376)
I0403 15:08:57.273347  2725 net.cpp:156] Memory required for data: 1118106912
I0403 15:08:57.273366  2725 layer_factory.hpp:77] Creating layer inception_4d/relu_3x3_reduce
I0403 15:08:57.273386  2725 net.cpp:91] Creating Layer inception_4d/relu_3x3_reduce
I0403 15:08:57.273401  2725 net.cpp:425] inception_4d/relu_3x3_reduce <- inception_4d/3x3_reduce
I0403 15:08:57.273418  2725 net.cpp:386] inception_4d/relu_3x3_reduce -> inception_4d/3x3_reduce (in-place)
I0403 15:08:57.273705  2725 net.cpp:141] Setting up inception_4d/relu_3x3_reduce
I0403 15:08:57.273733  2725 net.cpp:148] Top shape: 24 144 14 14 (677376)
I0403 15:08:57.273749  2725 net.cpp:156] Memory required for data: 1120816416
I0403 15:08:57.273763  2725 layer_factory.hpp:77] Creating layer inception_4d/3x3
I0403 15:08:57.273785  2725 net.cpp:91] Creating Layer inception_4d/3x3
I0403 15:08:57.273802  2725 net.cpp:425] inception_4d/3x3 <- inception_4d/3x3_reduce
I0403 15:08:57.273820  2725 net.cpp:399] inception_4d/3x3 -> inception_4d/3x3
I0403 15:08:57.277947  2725 net.cpp:141] Setting up inception_4d/3x3
I0403 15:08:57.277977  2725 net.cpp:148] Top shape: 24 288 14 14 (1354752)
I0403 15:08:57.277993  2725 net.cpp:156] Memory required for data: 1126235424
I0403 15:08:57.278010  2725 layer_factory.hpp:77] Creating layer inception_4d/relu_3x3
I0403 15:08:57.278028  2725 net.cpp:91] Creating Layer inception_4d/relu_3x3
I0403 15:08:57.278044  2725 net.cpp:425] inception_4d/relu_3x3 <- inception_4d/3x3
I0403 15:08:57.278065  2725 net.cpp:386] inception_4d/relu_3x3 -> inception_4d/3x3 (in-place)
I0403 15:08:57.278245  2725 net.cpp:141] Setting up inception_4d/relu_3x3
I0403 15:08:57.278273  2725 net.cpp:148] Top shape: 24 288 14 14 (1354752)
I0403 15:08:57.278290  2725 net.cpp:156] Memory required for data: 1131654432
I0403 15:08:57.278304  2725 layer_factory.hpp:77] Creating layer inception_4d/5x5_reduce
I0403 15:08:57.278326  2725 net.cpp:91] Creating Layer inception_4d/5x5_reduce
I0403 15:08:57.278343  2725 net.cpp:425] inception_4d/5x5_reduce <- inception_4c/output_inception_4c/output_0_split_2
I0403 15:08:57.278364  2725 net.cpp:399] inception_4d/5x5_reduce -> inception_4d/5x5_reduce
I0403 15:08:57.279517  2725 net.cpp:141] Setting up inception_4d/5x5_reduce
I0403 15:08:57.279546  2725 net.cpp:148] Top shape: 24 32 14 14 (150528)
I0403 15:08:57.279563  2725 net.cpp:156] Memory required for data: 1132256544
I0403 15:08:57.279582  2725 layer_factory.hpp:77] Creating layer inception_4d/relu_5x5_reduce
I0403 15:08:57.279600  2725 net.cpp:91] Creating Layer inception_4d/relu_5x5_reduce
I0403 15:08:57.279618  2725 net.cpp:425] inception_4d/relu_5x5_reduce <- inception_4d/5x5_reduce
I0403 15:08:57.279639  2725 net.cpp:386] inception_4d/relu_5x5_reduce -> inception_4d/5x5_reduce (in-place)
I0403 15:08:57.279825  2725 net.cpp:141] Setting up inception_4d/relu_5x5_reduce
I0403 15:08:57.279851  2725 net.cpp:148] Top shape: 24 32 14 14 (150528)
I0403 15:08:57.279867  2725 net.cpp:156] Memory required for data: 1132858656
I0403 15:08:57.279882  2725 layer_factory.hpp:77] Creating layer inception_4d/5x5
I0403 15:08:57.279904  2725 net.cpp:91] Creating Layer inception_4d/5x5
I0403 15:08:57.279923  2725 net.cpp:425] inception_4d/5x5 <- inception_4d/5x5_reduce
I0403 15:08:57.279944  2725 net.cpp:399] inception_4d/5x5 -> inception_4d/5x5
I0403 15:08:57.281419  2725 net.cpp:141] Setting up inception_4d/5x5
I0403 15:08:57.281448  2725 net.cpp:148] Top shape: 24 64 14 14 (301056)
I0403 15:08:57.281464  2725 net.cpp:156] Memory required for data: 1134062880
I0403 15:08:57.281484  2725 layer_factory.hpp:77] Creating layer inception_4d/relu_5x5
I0403 15:08:57.281519  2725 net.cpp:91] Creating Layer inception_4d/relu_5x5
I0403 15:08:57.281538  2725 net.cpp:425] inception_4d/relu_5x5 <- inception_4d/5x5
I0403 15:08:57.281555  2725 net.cpp:386] inception_4d/relu_5x5 -> inception_4d/5x5 (in-place)
I0403 15:08:57.281857  2725 net.cpp:141] Setting up inception_4d/relu_5x5
I0403 15:08:57.281883  2725 net.cpp:148] Top shape: 24 64 14 14 (301056)
I0403 15:08:57.281898  2725 net.cpp:156] Memory required for data: 1135267104
I0403 15:08:57.281913  2725 layer_factory.hpp:77] Creating layer inception_4d/pool
I0403 15:08:57.281934  2725 net.cpp:91] Creating Layer inception_4d/pool
I0403 15:08:57.281951  2725 net.cpp:425] inception_4d/pool <- inception_4c/output_inception_4c/output_0_split_3
I0403 15:08:57.281970  2725 net.cpp:399] inception_4d/pool -> inception_4d/pool
I0403 15:08:57.282039  2725 net.cpp:141] Setting up inception_4d/pool
I0403 15:08:57.282063  2725 net.cpp:148] Top shape: 24 512 14 14 (2408448)
I0403 15:08:57.282078  2725 net.cpp:156] Memory required for data: 1144900896
I0403 15:08:57.282093  2725 layer_factory.hpp:77] Creating layer inception_4d/pool_proj
I0403 15:08:57.282114  2725 net.cpp:91] Creating Layer inception_4d/pool_proj
I0403 15:08:57.282132  2725 net.cpp:425] inception_4d/pool_proj <- inception_4d/pool
I0403 15:08:57.282153  2725 net.cpp:399] inception_4d/pool_proj -> inception_4d/pool_proj
I0403 15:08:57.283958  2725 net.cpp:141] Setting up inception_4d/pool_proj
I0403 15:08:57.283993  2725 net.cpp:148] Top shape: 24 64 14 14 (301056)
I0403 15:08:57.284008  2725 net.cpp:156] Memory required for data: 1146105120
I0403 15:08:57.284029  2725 layer_factory.hpp:77] Creating layer inception_4d/relu_pool_proj
I0403 15:08:57.284047  2725 net.cpp:91] Creating Layer inception_4d/relu_pool_proj
I0403 15:08:57.284065  2725 net.cpp:425] inception_4d/relu_pool_proj <- inception_4d/pool_proj
I0403 15:08:57.284085  2725 net.cpp:386] inception_4d/relu_pool_proj -> inception_4d/pool_proj (in-place)
I0403 15:08:57.284270  2725 net.cpp:141] Setting up inception_4d/relu_pool_proj
I0403 15:08:57.284298  2725 net.cpp:148] Top shape: 24 64 14 14 (301056)
I0403 15:08:57.284313  2725 net.cpp:156] Memory required for data: 1147309344
I0403 15:08:57.284328  2725 layer_factory.hpp:77] Creating layer inception_4d/output
I0403 15:08:57.284348  2725 net.cpp:91] Creating Layer inception_4d/output
I0403 15:08:57.284365  2725 net.cpp:425] inception_4d/output <- inception_4d/1x1
I0403 15:08:57.284382  2725 net.cpp:425] inception_4d/output <- inception_4d/3x3
I0403 15:08:57.284399  2725 net.cpp:425] inception_4d/output <- inception_4d/5x5
I0403 15:08:57.284415  2725 net.cpp:425] inception_4d/output <- inception_4d/pool_proj
I0403 15:08:57.284432  2725 net.cpp:399] inception_4d/output -> inception_4d/output
I0403 15:08:57.284482  2725 net.cpp:141] Setting up inception_4d/output
I0403 15:08:57.284504  2725 net.cpp:148] Top shape: 24 528 14 14 (2483712)
I0403 15:08:57.284519  2725 net.cpp:156] Memory required for data: 1157244192
I0403 15:08:57.284534  2725 layer_factory.hpp:77] Creating layer inception_4d/output_inception_4d/output_0_split
I0403 15:08:57.284553  2725 net.cpp:91] Creating Layer inception_4d/output_inception_4d/output_0_split
I0403 15:08:57.284567  2725 net.cpp:425] inception_4d/output_inception_4d/output_0_split <- inception_4d/output
I0403 15:08:57.284589  2725 net.cpp:399] inception_4d/output_inception_4d/output_0_split -> inception_4d/output_inception_4d/output_0_split_0
I0403 15:08:57.284610  2725 net.cpp:399] inception_4d/output_inception_4d/output_0_split -> inception_4d/output_inception_4d/output_0_split_1
I0403 15:08:57.284631  2725 net.cpp:399] inception_4d/output_inception_4d/output_0_split -> inception_4d/output_inception_4d/output_0_split_2
I0403 15:08:57.284651  2725 net.cpp:399] inception_4d/output_inception_4d/output_0_split -> inception_4d/output_inception_4d/output_0_split_3
I0403 15:08:57.284669  2725 net.cpp:399] inception_4d/output_inception_4d/output_0_split -> inception_4d/output_inception_4d/output_0_split_4
I0403 15:08:57.284773  2725 net.cpp:141] Setting up inception_4d/output_inception_4d/output_0_split
I0403 15:08:57.284811  2725 net.cpp:148] Top shape: 24 528 14 14 (2483712)
I0403 15:08:57.284833  2725 net.cpp:148] Top shape: 24 528 14 14 (2483712)
I0403 15:08:57.284850  2725 net.cpp:148] Top shape: 24 528 14 14 (2483712)
I0403 15:08:57.284865  2725 net.cpp:148] Top shape: 24 528 14 14 (2483712)
I0403 15:08:57.284881  2725 net.cpp:148] Top shape: 24 528 14 14 (2483712)
I0403 15:08:57.284895  2725 net.cpp:156] Memory required for data: 1206918432
I0403 15:08:57.284910  2725 layer_factory.hpp:77] Creating layer loss2/ave_pool
I0403 15:08:57.284929  2725 net.cpp:91] Creating Layer loss2/ave_pool
I0403 15:08:57.284943  2725 net.cpp:425] loss2/ave_pool <- inception_4d/output_inception_4d/output_0_split_0
I0403 15:08:57.284965  2725 net.cpp:399] loss2/ave_pool -> loss2/ave_pool
I0403 15:08:57.285285  2725 net.cpp:141] Setting up loss2/ave_pool
I0403 15:08:57.285312  2725 net.cpp:148] Top shape: 24 528 4 4 (202752)
I0403 15:08:57.285328  2725 net.cpp:156] Memory required for data: 1207729440
I0403 15:08:57.285343  2725 layer_factory.hpp:77] Creating layer loss2/conv
I0403 15:08:57.285367  2725 net.cpp:91] Creating Layer loss2/conv
I0403 15:08:57.285383  2725 net.cpp:425] loss2/conv <- loss2/ave_pool
I0403 15:08:57.285405  2725 net.cpp:399] loss2/conv -> loss2/conv
I0403 15:08:57.287345  2725 net.cpp:141] Setting up loss2/conv
I0403 15:08:57.287391  2725 net.cpp:148] Top shape: 24 128 4 4 (49152)
I0403 15:08:57.287408  2725 net.cpp:156] Memory required for data: 1207926048
I0403 15:08:57.287428  2725 layer_factory.hpp:77] Creating layer loss2/relu_conv
I0403 15:08:57.287451  2725 net.cpp:91] Creating Layer loss2/relu_conv
I0403 15:08:57.287468  2725 net.cpp:425] loss2/relu_conv <- loss2/conv
I0403 15:08:57.287487  2725 net.cpp:386] loss2/relu_conv -> loss2/conv (in-place)
I0403 15:08:57.287791  2725 net.cpp:141] Setting up loss2/relu_conv
I0403 15:08:57.287819  2725 net.cpp:148] Top shape: 24 128 4 4 (49152)
I0403 15:08:57.287837  2725 net.cpp:156] Memory required for data: 1208122656
I0403 15:08:57.287853  2725 layer_factory.hpp:77] Creating layer loss2/fc
I0403 15:08:57.287873  2725 net.cpp:91] Creating Layer loss2/fc
I0403 15:08:57.287890  2725 net.cpp:425] loss2/fc <- loss2/conv
I0403 15:08:57.287915  2725 net.cpp:399] loss2/fc -> loss2/fc
I0403 15:08:57.305631  2725 net.cpp:141] Setting up loss2/fc
I0403 15:08:57.305686  2725 net.cpp:148] Top shape: 24 1024 (24576)
I0403 15:08:57.305703  2725 net.cpp:156] Memory required for data: 1208220960
I0403 15:08:57.305724  2725 layer_factory.hpp:77] Creating layer loss2/relu_fc
I0403 15:08:57.305744  2725 net.cpp:91] Creating Layer loss2/relu_fc
I0403 15:08:57.305763  2725 net.cpp:425] loss2/relu_fc <- loss2/fc
I0403 15:08:57.305784  2725 net.cpp:386] loss2/relu_fc -> loss2/fc (in-place)
I0403 15:08:57.306124  2725 net.cpp:141] Setting up loss2/relu_fc
I0403 15:08:57.306151  2725 net.cpp:148] Top shape: 24 1024 (24576)
I0403 15:08:57.306169  2725 net.cpp:156] Memory required for data: 1208319264
I0403 15:08:57.306185  2725 layer_factory.hpp:77] Creating layer loss2/drop_fc
I0403 15:08:57.306202  2725 net.cpp:91] Creating Layer loss2/drop_fc
I0403 15:08:57.306219  2725 net.cpp:425] loss2/drop_fc <- loss2/fc
I0403 15:08:57.306239  2725 net.cpp:386] loss2/drop_fc -> loss2/fc (in-place)
I0403 15:08:57.306293  2725 net.cpp:141] Setting up loss2/drop_fc
I0403 15:08:57.306321  2725 net.cpp:148] Top shape: 24 1024 (24576)
I0403 15:08:57.306337  2725 net.cpp:156] Memory required for data: 1208417568
I0403 15:08:57.306352  2725 layer_factory.hpp:77] Creating layer loss2/classifier_plantvillage
I0403 15:08:57.306372  2725 net.cpp:91] Creating Layer loss2/classifier_plantvillage
I0403 15:08:57.306390  2725 net.cpp:425] loss2/classifier_plantvillage <- loss2/fc
I0403 15:08:57.306411  2725 net.cpp:399] loss2/classifier_plantvillage -> loss2/classifier_plantvillage
I0403 15:08:57.306824  2725 net.cpp:141] Setting up loss2/classifier_plantvillage
I0403 15:08:57.306850  2725 net.cpp:148] Top shape: 24 38 (912)
I0403 15:08:57.306890  2725 net.cpp:156] Memory required for data: 1208421216
I0403 15:08:57.306908  2725 layer_factory.hpp:77] Creating layer loss2/classifier_plantvillage_loss2/classifier_plantvillage_0_split
I0403 15:08:57.306926  2725 net.cpp:91] Creating Layer loss2/classifier_plantvillage_loss2/classifier_plantvillage_0_split
I0403 15:08:57.306943  2725 net.cpp:425] loss2/classifier_plantvillage_loss2/classifier_plantvillage_0_split <- loss2/classifier_plantvillage
I0403 15:08:57.306960  2725 net.cpp:399] loss2/classifier_plantvillage_loss2/classifier_plantvillage_0_split -> loss2/classifier_plantvillage_loss2/classifier_plantvillage_0_split_0
I0403 15:08:57.306982  2725 net.cpp:399] loss2/classifier_plantvillage_loss2/classifier_plantvillage_0_split -> loss2/classifier_plantvillage_loss2/classifier_plantvillage_0_split_1
I0403 15:08:57.307004  2725 net.cpp:399] loss2/classifier_plantvillage_loss2/classifier_plantvillage_0_split -> loss2/classifier_plantvillage_loss2/classifier_plantvillage_0_split_2
I0403 15:08:57.307083  2725 net.cpp:141] Setting up loss2/classifier_plantvillage_loss2/classifier_plantvillage_0_split
I0403 15:08:57.307106  2725 net.cpp:148] Top shape: 24 38 (912)
I0403 15:08:57.307122  2725 net.cpp:148] Top shape: 24 38 (912)
I0403 15:08:57.307138  2725 net.cpp:148] Top shape: 24 38 (912)
I0403 15:08:57.307152  2725 net.cpp:156] Memory required for data: 1208432160
I0403 15:08:57.307166  2725 layer_factory.hpp:77] Creating layer inception_4e/1x1
I0403 15:08:57.307186  2725 net.cpp:91] Creating Layer inception_4e/1x1
I0403 15:08:57.307204  2725 net.cpp:425] inception_4e/1x1 <- inception_4d/output_inception_4d/output_0_split_1
I0403 15:08:57.307225  2725 net.cpp:399] inception_4e/1x1 -> inception_4e/1x1
I0403 15:08:57.309077  2725 net.cpp:141] Setting up inception_4e/1x1
I0403 15:08:57.309105  2725 net.cpp:148] Top shape: 24 256 14 14 (1204224)
I0403 15:08:57.309121  2725 net.cpp:156] Memory required for data: 1213249056
I0403 15:08:57.309141  2725 layer_factory.hpp:77] Creating layer inception_4e/relu_1x1
I0403 15:08:57.309161  2725 net.cpp:91] Creating Layer inception_4e/relu_1x1
I0403 15:08:57.309178  2725 net.cpp:425] inception_4e/relu_1x1 <- inception_4e/1x1
I0403 15:08:57.309195  2725 net.cpp:386] inception_4e/relu_1x1 -> inception_4e/1x1 (in-place)
I0403 15:08:57.309497  2725 net.cpp:141] Setting up inception_4e/relu_1x1
I0403 15:08:57.309523  2725 net.cpp:148] Top shape: 24 256 14 14 (1204224)
I0403 15:08:57.309538  2725 net.cpp:156] Memory required for data: 1218065952
I0403 15:08:57.309552  2725 layer_factory.hpp:77] Creating layer inception_4e/3x3_reduce
I0403 15:08:57.309576  2725 net.cpp:91] Creating Layer inception_4e/3x3_reduce
I0403 15:08:57.309594  2725 net.cpp:425] inception_4e/3x3_reduce <- inception_4d/output_inception_4d/output_0_split_2
I0403 15:08:57.309613  2725 net.cpp:399] inception_4e/3x3_reduce -> inception_4e/3x3_reduce
I0403 15:08:57.311769  2725 net.cpp:141] Setting up inception_4e/3x3_reduce
I0403 15:08:57.311799  2725 net.cpp:148] Top shape: 24 160 14 14 (752640)
I0403 15:08:57.311815  2725 net.cpp:156] Memory required for data: 1221076512
I0403 15:08:57.311836  2725 layer_factory.hpp:77] Creating layer inception_4e/relu_3x3_reduce
I0403 15:08:57.311856  2725 net.cpp:91] Creating Layer inception_4e/relu_3x3_reduce
I0403 15:08:57.311874  2725 net.cpp:425] inception_4e/relu_3x3_reduce <- inception_4e/3x3_reduce
I0403 15:08:57.311892  2725 net.cpp:386] inception_4e/relu_3x3_reduce -> inception_4e/3x3_reduce (in-place)
I0403 15:08:57.312082  2725 net.cpp:141] Setting up inception_4e/relu_3x3_reduce
I0403 15:08:57.312109  2725 net.cpp:148] Top shape: 24 160 14 14 (752640)
I0403 15:08:57.312125  2725 net.cpp:156] Memory required for data: 1224087072
I0403 15:08:57.312140  2725 layer_factory.hpp:77] Creating layer inception_4e/3x3
I0403 15:08:57.312162  2725 net.cpp:91] Creating Layer inception_4e/3x3
I0403 15:08:57.312180  2725 net.cpp:425] inception_4e/3x3 <- inception_4e/3x3_reduce
I0403 15:08:57.312199  2725 net.cpp:399] inception_4e/3x3 -> inception_4e/3x3
I0403 15:08:57.320039  2725 net.cpp:141] Setting up inception_4e/3x3
I0403 15:08:57.320083  2725 net.cpp:148] Top shape: 24 320 14 14 (1505280)
I0403 15:08:57.320101  2725 net.cpp:156] Memory required for data: 1230108192
I0403 15:08:57.320119  2725 layer_factory.hpp:77] Creating layer inception_4e/relu_3x3
I0403 15:08:57.320137  2725 net.cpp:91] Creating Layer inception_4e/relu_3x3
I0403 15:08:57.320153  2725 net.cpp:425] inception_4e/relu_3x3 <- inception_4e/3x3
I0403 15:08:57.320185  2725 net.cpp:386] inception_4e/relu_3x3 -> inception_4e/3x3 (in-place)
I0403 15:08:57.320504  2725 net.cpp:141] Setting up inception_4e/relu_3x3
I0403 15:08:57.320533  2725 net.cpp:148] Top shape: 24 320 14 14 (1505280)
I0403 15:08:57.320549  2725 net.cpp:156] Memory required for data: 1236129312
I0403 15:08:57.320564  2725 layer_factory.hpp:77] Creating layer inception_4e/5x5_reduce
I0403 15:08:57.320585  2725 net.cpp:91] Creating Layer inception_4e/5x5_reduce
I0403 15:08:57.320603  2725 net.cpp:425] inception_4e/5x5_reduce <- inception_4d/output_inception_4d/output_0_split_3
I0403 15:08:57.320626  2725 net.cpp:399] inception_4e/5x5_reduce -> inception_4e/5x5_reduce
I0403 15:08:57.321678  2725 net.cpp:141] Setting up inception_4e/5x5_reduce
I0403 15:08:57.321707  2725 net.cpp:148] Top shape: 24 32 14 14 (150528)
I0403 15:08:57.321722  2725 net.cpp:156] Memory required for data: 1236731424
I0403 15:08:57.321740  2725 layer_factory.hpp:77] Creating layer inception_4e/relu_5x5_reduce
I0403 15:08:57.321760  2725 net.cpp:91] Creating Layer inception_4e/relu_5x5_reduce
I0403 15:08:57.321777  2725 net.cpp:425] inception_4e/relu_5x5_reduce <- inception_4e/5x5_reduce
I0403 15:08:57.321794  2725 net.cpp:386] inception_4e/relu_5x5_reduce -> inception_4e/5x5_reduce (in-place)
I0403 15:08:57.322085  2725 net.cpp:141] Setting up inception_4e/relu_5x5_reduce
I0403 15:08:57.322111  2725 net.cpp:148] Top shape: 24 32 14 14 (150528)
I0403 15:08:57.322126  2725 net.cpp:156] Memory required for data: 1237333536
I0403 15:08:57.322141  2725 layer_factory.hpp:77] Creating layer inception_4e/5x5
I0403 15:08:57.322181  2725 net.cpp:91] Creating Layer inception_4e/5x5
I0403 15:08:57.322201  2725 net.cpp:425] inception_4e/5x5 <- inception_4e/5x5_reduce
I0403 15:08:57.322221  2725 net.cpp:399] inception_4e/5x5 -> inception_4e/5x5
I0403 15:08:57.325479  2725 net.cpp:141] Setting up inception_4e/5x5
I0403 15:08:57.325507  2725 net.cpp:148] Top shape: 24 128 14 14 (602112)
I0403 15:08:57.325523  2725 net.cpp:156] Memory required for data: 1239741984
I0403 15:08:57.325542  2725 layer_factory.hpp:77] Creating layer inception_4e/relu_5x5
I0403 15:08:57.325562  2725 net.cpp:91] Creating Layer inception_4e/relu_5x5
I0403 15:08:57.325578  2725 net.cpp:425] inception_4e/relu_5x5 <- inception_4e/5x5
I0403 15:08:57.325598  2725 net.cpp:386] inception_4e/relu_5x5 -> inception_4e/5x5 (in-place)
I0403 15:08:57.325789  2725 net.cpp:141] Setting up inception_4e/relu_5x5
I0403 15:08:57.325815  2725 net.cpp:148] Top shape: 24 128 14 14 (602112)
I0403 15:08:57.325831  2725 net.cpp:156] Memory required for data: 1242150432
I0403 15:08:57.325846  2725 layer_factory.hpp:77] Creating layer inception_4e/pool
I0403 15:08:57.325867  2725 net.cpp:91] Creating Layer inception_4e/pool
I0403 15:08:57.325884  2725 net.cpp:425] inception_4e/pool <- inception_4d/output_inception_4d/output_0_split_4
I0403 15:08:57.325903  2725 net.cpp:399] inception_4e/pool -> inception_4e/pool
I0403 15:08:57.325973  2725 net.cpp:141] Setting up inception_4e/pool
I0403 15:08:57.326005  2725 net.cpp:148] Top shape: 24 528 14 14 (2483712)
I0403 15:08:57.326020  2725 net.cpp:156] Memory required for data: 1252085280
I0403 15:08:57.326033  2725 layer_factory.hpp:77] Creating layer inception_4e/pool_proj
I0403 15:08:57.326055  2725 net.cpp:91] Creating Layer inception_4e/pool_proj
I0403 15:08:57.326071  2725 net.cpp:425] inception_4e/pool_proj <- inception_4e/pool
I0403 15:08:57.326091  2725 net.cpp:399] inception_4e/pool_proj -> inception_4e/pool_proj
I0403 15:08:57.327569  2725 net.cpp:141] Setting up inception_4e/pool_proj
I0403 15:08:57.327607  2725 net.cpp:148] Top shape: 24 128 14 14 (602112)
I0403 15:08:57.327625  2725 net.cpp:156] Memory required for data: 1254493728
I0403 15:08:57.327642  2725 layer_factory.hpp:77] Creating layer inception_4e/relu_pool_proj
I0403 15:08:57.327659  2725 net.cpp:91] Creating Layer inception_4e/relu_pool_proj
I0403 15:08:57.327675  2725 net.cpp:425] inception_4e/relu_pool_proj <- inception_4e/pool_proj
I0403 15:08:57.327694  2725 net.cpp:386] inception_4e/relu_pool_proj -> inception_4e/pool_proj (in-place)
I0403 15:08:57.327980  2725 net.cpp:141] Setting up inception_4e/relu_pool_proj
I0403 15:08:57.328006  2725 net.cpp:148] Top shape: 24 128 14 14 (602112)
I0403 15:08:57.328021  2725 net.cpp:156] Memory required for data: 1256902176
I0403 15:08:57.328034  2725 layer_factory.hpp:77] Creating layer inception_4e/output
I0403 15:08:57.328052  2725 net.cpp:91] Creating Layer inception_4e/output
I0403 15:08:57.328068  2725 net.cpp:425] inception_4e/output <- inception_4e/1x1
I0403 15:08:57.328083  2725 net.cpp:425] inception_4e/output <- inception_4e/3x3
I0403 15:08:57.328099  2725 net.cpp:425] inception_4e/output <- inception_4e/5x5
I0403 15:08:57.328114  2725 net.cpp:425] inception_4e/output <- inception_4e/pool_proj
I0403 15:08:57.328133  2725 net.cpp:399] inception_4e/output -> inception_4e/output
I0403 15:08:57.328181  2725 net.cpp:141] Setting up inception_4e/output
I0403 15:08:57.328207  2725 net.cpp:148] Top shape: 24 832 14 14 (3913728)
I0403 15:08:57.328222  2725 net.cpp:156] Memory required for data: 1272557088
I0403 15:08:57.328236  2725 layer_factory.hpp:77] Creating layer pool4/3x3_s2
I0403 15:08:57.328253  2725 net.cpp:91] Creating Layer pool4/3x3_s2
I0403 15:08:57.328268  2725 net.cpp:425] pool4/3x3_s2 <- inception_4e/output
I0403 15:08:57.328289  2725 net.cpp:399] pool4/3x3_s2 -> pool4/3x3_s2
I0403 15:08:57.328357  2725 net.cpp:141] Setting up pool4/3x3_s2
I0403 15:08:57.328380  2725 net.cpp:148] Top shape: 24 832 7 7 (978432)
I0403 15:08:57.328394  2725 net.cpp:156] Memory required for data: 1276470816
I0403 15:08:57.328409  2725 layer_factory.hpp:77] Creating layer pool4/3x3_s2_pool4/3x3_s2_0_split
I0403 15:08:57.328428  2725 net.cpp:91] Creating Layer pool4/3x3_s2_pool4/3x3_s2_0_split
I0403 15:08:57.328444  2725 net.cpp:425] pool4/3x3_s2_pool4/3x3_s2_0_split <- pool4/3x3_s2
I0403 15:08:57.328460  2725 net.cpp:399] pool4/3x3_s2_pool4/3x3_s2_0_split -> pool4/3x3_s2_pool4/3x3_s2_0_split_0
I0403 15:08:57.328480  2725 net.cpp:399] pool4/3x3_s2_pool4/3x3_s2_0_split -> pool4/3x3_s2_pool4/3x3_s2_0_split_1
I0403 15:08:57.328500  2725 net.cpp:399] pool4/3x3_s2_pool4/3x3_s2_0_split -> pool4/3x3_s2_pool4/3x3_s2_0_split_2
I0403 15:08:57.328521  2725 net.cpp:399] pool4/3x3_s2_pool4/3x3_s2_0_split -> pool4/3x3_s2_pool4/3x3_s2_0_split_3
I0403 15:08:57.328610  2725 net.cpp:141] Setting up pool4/3x3_s2_pool4/3x3_s2_0_split
I0403 15:08:57.328632  2725 net.cpp:148] Top shape: 24 832 7 7 (978432)
I0403 15:08:57.328649  2725 net.cpp:148] Top shape: 24 832 7 7 (978432)
I0403 15:08:57.328663  2725 net.cpp:148] Top shape: 24 832 7 7 (978432)
I0403 15:08:57.328678  2725 net.cpp:148] Top shape: 24 832 7 7 (978432)
I0403 15:08:57.328692  2725 net.cpp:156] Memory required for data: 1292125728
I0403 15:08:57.328706  2725 layer_factory.hpp:77] Creating layer inception_5a/1x1
I0403 15:08:57.328727  2725 net.cpp:91] Creating Layer inception_5a/1x1
I0403 15:08:57.328744  2725 net.cpp:425] inception_5a/1x1 <- pool4/3x3_s2_pool4/3x3_s2_0_split_0
I0403 15:08:57.328764  2725 net.cpp:399] inception_5a/1x1 -> inception_5a/1x1
I0403 15:08:57.331588  2725 net.cpp:141] Setting up inception_5a/1x1
I0403 15:08:57.331619  2725 net.cpp:148] Top shape: 24 256 7 7 (301056)
I0403 15:08:57.331635  2725 net.cpp:156] Memory required for data: 1293329952
I0403 15:08:57.331655  2725 layer_factory.hpp:77] Creating layer inception_5a/relu_1x1
I0403 15:08:57.331676  2725 net.cpp:91] Creating Layer inception_5a/relu_1x1
I0403 15:08:57.331693  2725 net.cpp:425] inception_5a/relu_1x1 <- inception_5a/1x1
I0403 15:08:57.331712  2725 net.cpp:386] inception_5a/relu_1x1 -> inception_5a/1x1 (in-place)
I0403 15:08:57.332026  2725 net.cpp:141] Setting up inception_5a/relu_1x1
I0403 15:08:57.332053  2725 net.cpp:148] Top shape: 24 256 7 7 (301056)
I0403 15:08:57.332068  2725 net.cpp:156] Memory required for data: 1294534176
I0403 15:08:57.332083  2725 layer_factory.hpp:77] Creating layer inception_5a/3x3_reduce
I0403 15:08:57.332105  2725 net.cpp:91] Creating Layer inception_5a/3x3_reduce
I0403 15:08:57.332124  2725 net.cpp:425] inception_5a/3x3_reduce <- pool4/3x3_s2_pool4/3x3_s2_0_split_1
I0403 15:08:57.332146  2725 net.cpp:399] inception_5a/3x3_reduce -> inception_5a/3x3_reduce
I0403 15:08:57.334563  2725 net.cpp:141] Setting up inception_5a/3x3_reduce
I0403 15:08:57.334592  2725 net.cpp:148] Top shape: 24 160 7 7 (188160)
I0403 15:08:57.334609  2725 net.cpp:156] Memory required for data: 1295286816
I0403 15:08:57.334625  2725 layer_factory.hpp:77] Creating layer inception_5a/relu_3x3_reduce
I0403 15:08:57.334645  2725 net.cpp:91] Creating Layer inception_5a/relu_3x3_reduce
I0403 15:08:57.334661  2725 net.cpp:425] inception_5a/relu_3x3_reduce <- inception_5a/3x3_reduce
I0403 15:08:57.334681  2725 net.cpp:386] inception_5a/relu_3x3_reduce -> inception_5a/3x3_reduce (in-place)
I0403 15:08:57.334867  2725 net.cpp:141] Setting up inception_5a/relu_3x3_reduce
I0403 15:08:57.334890  2725 net.cpp:148] Top shape: 24 160 7 7 (188160)
I0403 15:08:57.334905  2725 net.cpp:156] Memory required for data: 1296039456
I0403 15:08:57.334919  2725 layer_factory.hpp:77] Creating layer inception_5a/3x3
I0403 15:08:57.334941  2725 net.cpp:91] Creating Layer inception_5a/3x3
I0403 15:08:57.334959  2725 net.cpp:425] inception_5a/3x3 <- inception_5a/3x3_reduce
I0403 15:08:57.334982  2725 net.cpp:399] inception_5a/3x3 -> inception_5a/3x3
I0403 15:08:57.339905  2725 net.cpp:141] Setting up inception_5a/3x3
I0403 15:08:57.339936  2725 net.cpp:148] Top shape: 24 320 7 7 (376320)
I0403 15:08:57.339952  2725 net.cpp:156] Memory required for data: 1297544736
I0403 15:08:57.339970  2725 layer_factory.hpp:77] Creating layer inception_5a/relu_3x3
I0403 15:08:57.339993  2725 net.cpp:91] Creating Layer inception_5a/relu_3x3
I0403 15:08:57.340011  2725 net.cpp:425] inception_5a/relu_3x3 <- inception_5a/3x3
I0403 15:08:57.340029  2725 net.cpp:386] inception_5a/relu_3x3 -> inception_5a/3x3 (in-place)
I0403 15:08:57.340329  2725 net.cpp:141] Setting up inception_5a/relu_3x3
I0403 15:08:57.340358  2725 net.cpp:148] Top shape: 24 320 7 7 (376320)
I0403 15:08:57.340373  2725 net.cpp:156] Memory required for data: 1299050016
I0403 15:08:57.340387  2725 layer_factory.hpp:77] Creating layer inception_5a/5x5_reduce
I0403 15:08:57.340409  2725 net.cpp:91] Creating Layer inception_5a/5x5_reduce
I0403 15:08:57.340427  2725 net.cpp:425] inception_5a/5x5_reduce <- pool4/3x3_s2_pool4/3x3_s2_0_split_2
I0403 15:08:57.340452  2725 net.cpp:399] inception_5a/5x5_reduce -> inception_5a/5x5_reduce
I0403 15:08:57.341629  2725 net.cpp:141] Setting up inception_5a/5x5_reduce
I0403 15:08:57.341662  2725 net.cpp:148] Top shape: 24 32 7 7 (37632)
I0403 15:08:57.341680  2725 net.cpp:156] Memory required for data: 1299200544
I0403 15:08:57.341698  2725 layer_factory.hpp:77] Creating layer inception_5a/relu_5x5_reduce
I0403 15:08:57.341717  2725 net.cpp:91] Creating Layer inception_5a/relu_5x5_reduce
I0403 15:08:57.341732  2725 net.cpp:425] inception_5a/relu_5x5_reduce <- inception_5a/5x5_reduce
I0403 15:08:57.341748  2725 net.cpp:386] inception_5a/relu_5x5_reduce -> inception_5a/5x5_reduce (in-place)
I0403 15:08:57.342049  2725 net.cpp:141] Setting up inception_5a/relu_5x5_reduce
I0403 15:08:57.342077  2725 net.cpp:148] Top shape: 24 32 7 7 (37632)
I0403 15:08:57.342093  2725 net.cpp:156] Memory required for data: 1299351072
I0403 15:08:57.342109  2725 layer_factory.hpp:77] Creating layer inception_5a/5x5
I0403 15:08:57.342131  2725 net.cpp:91] Creating Layer inception_5a/5x5
I0403 15:08:57.342149  2725 net.cpp:425] inception_5a/5x5 <- inception_5a/5x5_reduce
I0403 15:08:57.342170  2725 net.cpp:399] inception_5a/5x5 -> inception_5a/5x5
I0403 15:08:57.343910  2725 net.cpp:141] Setting up inception_5a/5x5
I0403 15:08:57.343952  2725 net.cpp:148] Top shape: 24 128 7 7 (150528)
I0403 15:08:57.343971  2725 net.cpp:156] Memory required for data: 1299953184
I0403 15:08:57.343991  2725 layer_factory.hpp:77] Creating layer inception_5a/relu_5x5
I0403 15:08:57.344012  2725 net.cpp:91] Creating Layer inception_5a/relu_5x5
I0403 15:08:57.344030  2725 net.cpp:425] inception_5a/relu_5x5 <- inception_5a/5x5
I0403 15:08:57.344048  2725 net.cpp:386] inception_5a/relu_5x5 -> inception_5a/5x5 (in-place)
I0403 15:08:57.344238  2725 net.cpp:141] Setting up inception_5a/relu_5x5
I0403 15:08:57.344265  2725 net.cpp:148] Top shape: 24 128 7 7 (150528)
I0403 15:08:57.344285  2725 net.cpp:156] Memory required for data: 1300555296
I0403 15:08:57.344300  2725 layer_factory.hpp:77] Creating layer inception_5a/pool
I0403 15:08:57.344317  2725 net.cpp:91] Creating Layer inception_5a/pool
I0403 15:08:57.344333  2725 net.cpp:425] inception_5a/pool <- pool4/3x3_s2_pool4/3x3_s2_0_split_3
I0403 15:08:57.344352  2725 net.cpp:399] inception_5a/pool -> inception_5a/pool
I0403 15:08:57.344425  2725 net.cpp:141] Setting up inception_5a/pool
I0403 15:08:57.344449  2725 net.cpp:148] Top shape: 24 832 7 7 (978432)
I0403 15:08:57.344465  2725 net.cpp:156] Memory required for data: 1304469024
I0403 15:08:57.344478  2725 layer_factory.hpp:77] Creating layer inception_5a/pool_proj
I0403 15:08:57.344503  2725 net.cpp:91] Creating Layer inception_5a/pool_proj
I0403 15:08:57.344521  2725 net.cpp:425] inception_5a/pool_proj <- inception_5a/pool
I0403 15:08:57.344542  2725 net.cpp:399] inception_5a/pool_proj -> inception_5a/pool_proj
I0403 15:08:57.346840  2725 net.cpp:141] Setting up inception_5a/pool_proj
I0403 15:08:57.346870  2725 net.cpp:148] Top shape: 24 128 7 7 (150528)
I0403 15:08:57.346886  2725 net.cpp:156] Memory required for data: 1305071136
I0403 15:08:57.346904  2725 layer_factory.hpp:77] Creating layer inception_5a/relu_pool_proj
I0403 15:08:57.346922  2725 net.cpp:91] Creating Layer inception_5a/relu_pool_proj
I0403 15:08:57.346942  2725 net.cpp:425] inception_5a/relu_pool_proj <- inception_5a/pool_proj
I0403 15:08:57.346959  2725 net.cpp:386] inception_5a/relu_pool_proj -> inception_5a/pool_proj (in-place)
I0403 15:08:57.347287  2725 net.cpp:141] Setting up inception_5a/relu_pool_proj
I0403 15:08:57.347326  2725 net.cpp:148] Top shape: 24 128 7 7 (150528)
I0403 15:08:57.347340  2725 net.cpp:156] Memory required for data: 1305673248
I0403 15:08:57.347354  2725 layer_factory.hpp:77] Creating layer inception_5a/output
I0403 15:08:57.347371  2725 net.cpp:91] Creating Layer inception_5a/output
I0403 15:08:57.347388  2725 net.cpp:425] inception_5a/output <- inception_5a/1x1
I0403 15:08:57.347404  2725 net.cpp:425] inception_5a/output <- inception_5a/3x3
I0403 15:08:57.347419  2725 net.cpp:425] inception_5a/output <- inception_5a/5x5
I0403 15:08:57.347434  2725 net.cpp:425] inception_5a/output <- inception_5a/pool_proj
I0403 15:08:57.347452  2725 net.cpp:399] inception_5a/output -> inception_5a/output
I0403 15:08:57.347502  2725 net.cpp:141] Setting up inception_5a/output
I0403 15:08:57.347527  2725 net.cpp:148] Top shape: 24 832 7 7 (978432)
I0403 15:08:57.347543  2725 net.cpp:156] Memory required for data: 1309586976
I0403 15:08:57.347558  2725 layer_factory.hpp:77] Creating layer inception_5a/output_inception_5a/output_0_split
I0403 15:08:57.347574  2725 net.cpp:91] Creating Layer inception_5a/output_inception_5a/output_0_split
I0403 15:08:57.347589  2725 net.cpp:425] inception_5a/output_inception_5a/output_0_split <- inception_5a/output
I0403 15:08:57.347606  2725 net.cpp:399] inception_5a/output_inception_5a/output_0_split -> inception_5a/output_inception_5a/output_0_split_0
I0403 15:08:57.347631  2725 net.cpp:399] inception_5a/output_inception_5a/output_0_split -> inception_5a/output_inception_5a/output_0_split_1
I0403 15:08:57.347651  2725 net.cpp:399] inception_5a/output_inception_5a/output_0_split -> inception_5a/output_inception_5a/output_0_split_2
I0403 15:08:57.347671  2725 net.cpp:399] inception_5a/output_inception_5a/output_0_split -> inception_5a/output_inception_5a/output_0_split_3
I0403 15:08:57.347779  2725 net.cpp:141] Setting up inception_5a/output_inception_5a/output_0_split
I0403 15:08:57.347801  2725 net.cpp:148] Top shape: 24 832 7 7 (978432)
I0403 15:08:57.347816  2725 net.cpp:148] Top shape: 24 832 7 7 (978432)
I0403 15:08:57.347832  2725 net.cpp:148] Top shape: 24 832 7 7 (978432)
I0403 15:08:57.347846  2725 net.cpp:148] Top shape: 24 832 7 7 (978432)
I0403 15:08:57.347861  2725 net.cpp:156] Memory required for data: 1325241888
I0403 15:08:57.347874  2725 layer_factory.hpp:77] Creating layer inception_5b/1x1
I0403 15:08:57.347895  2725 net.cpp:91] Creating Layer inception_5b/1x1
I0403 15:08:57.347913  2725 net.cpp:425] inception_5b/1x1 <- inception_5a/output_inception_5a/output_0_split_0
I0403 15:08:57.347934  2725 net.cpp:399] inception_5b/1x1 -> inception_5b/1x1
I0403 15:08:57.351619  2725 net.cpp:141] Setting up inception_5b/1x1
I0403 15:08:57.351649  2725 net.cpp:148] Top shape: 24 384 7 7 (451584)
I0403 15:08:57.351665  2725 net.cpp:156] Memory required for data: 1327048224
I0403 15:08:57.351683  2725 layer_factory.hpp:77] Creating layer inception_5b/relu_1x1
I0403 15:08:57.351701  2725 net.cpp:91] Creating Layer inception_5b/relu_1x1
I0403 15:08:57.351716  2725 net.cpp:425] inception_5b/relu_1x1 <- inception_5b/1x1
I0403 15:08:57.351735  2725 net.cpp:386] inception_5b/relu_1x1 -> inception_5b/1x1 (in-place)
I0403 15:08:57.352035  2725 net.cpp:141] Setting up inception_5b/relu_1x1
I0403 15:08:57.352061  2725 net.cpp:148] Top shape: 24 384 7 7 (451584)
I0403 15:08:57.352075  2725 net.cpp:156] Memory required for data: 1328854560
I0403 15:08:57.352092  2725 layer_factory.hpp:77] Creating layer inception_5b/3x3_reduce
I0403 15:08:57.352113  2725 net.cpp:91] Creating Layer inception_5b/3x3_reduce
I0403 15:08:57.352131  2725 net.cpp:425] inception_5b/3x3_reduce <- inception_5a/output_inception_5a/output_0_split_1
I0403 15:08:57.352154  2725 net.cpp:399] inception_5b/3x3_reduce -> inception_5b/3x3_reduce
I0403 15:08:57.354758  2725 net.cpp:141] Setting up inception_5b/3x3_reduce
I0403 15:08:57.354787  2725 net.cpp:148] Top shape: 24 192 7 7 (225792)
I0403 15:08:57.354804  2725 net.cpp:156] Memory required for data: 1329757728
I0403 15:08:57.354822  2725 layer_factory.hpp:77] Creating layer inception_5b/relu_3x3_reduce
I0403 15:08:57.354841  2725 net.cpp:91] Creating Layer inception_5b/relu_3x3_reduce
I0403 15:08:57.354859  2725 net.cpp:425] inception_5b/relu_3x3_reduce <- inception_5b/3x3_reduce
I0403 15:08:57.354879  2725 net.cpp:386] inception_5b/relu_3x3_reduce -> inception_5b/3x3_reduce (in-place)
I0403 15:08:57.355067  2725 net.cpp:141] Setting up inception_5b/relu_3x3_reduce
I0403 15:08:57.355093  2725 net.cpp:148] Top shape: 24 192 7 7 (225792)
I0403 15:08:57.355108  2725 net.cpp:156] Memory required for data: 1330660896
I0403 15:08:57.355123  2725 layer_factory.hpp:77] Creating layer inception_5b/3x3
I0403 15:08:57.355145  2725 net.cpp:91] Creating Layer inception_5b/3x3
I0403 15:08:57.355162  2725 net.cpp:425] inception_5b/3x3 <- inception_5b/3x3_reduce
I0403 15:08:57.355183  2725 net.cpp:399] inception_5b/3x3 -> inception_5b/3x3
I0403 15:08:57.361714  2725 net.cpp:141] Setting up inception_5b/3x3
I0403 15:08:57.361743  2725 net.cpp:148] Top shape: 24 384 7 7 (451584)
I0403 15:08:57.361759  2725 net.cpp:156] Memory required for data: 1332467232
I0403 15:08:57.361778  2725 layer_factory.hpp:77] Creating layer inception_5b/relu_3x3
I0403 15:08:57.361798  2725 net.cpp:91] Creating Layer inception_5b/relu_3x3
I0403 15:08:57.361814  2725 net.cpp:425] inception_5b/relu_3x3 <- inception_5b/3x3
I0403 15:08:57.361831  2725 net.cpp:386] inception_5b/relu_3x3 -> inception_5b/3x3 (in-place)
I0403 15:08:57.362126  2725 net.cpp:141] Setting up inception_5b/relu_3x3
I0403 15:08:57.362151  2725 net.cpp:148] Top shape: 24 384 7 7 (451584)
I0403 15:08:57.362166  2725 net.cpp:156] Memory required for data: 1334273568
I0403 15:08:57.362181  2725 layer_factory.hpp:77] Creating layer inception_5b/5x5_reduce
I0403 15:08:57.362217  2725 net.cpp:91] Creating Layer inception_5b/5x5_reduce
I0403 15:08:57.362236  2725 net.cpp:425] inception_5b/5x5_reduce <- inception_5a/output_inception_5a/output_0_split_2
I0403 15:08:57.362258  2725 net.cpp:399] inception_5b/5x5_reduce -> inception_5b/5x5_reduce
I0403 15:08:57.363522  2725 net.cpp:141] Setting up inception_5b/5x5_reduce
I0403 15:08:57.363550  2725 net.cpp:148] Top shape: 24 48 7 7 (56448)
I0403 15:08:57.363567  2725 net.cpp:156] Memory required for data: 1334499360
I0403 15:08:57.363586  2725 layer_factory.hpp:77] Creating layer inception_5b/relu_5x5_reduce
I0403 15:08:57.363605  2725 net.cpp:91] Creating Layer inception_5b/relu_5x5_reduce
I0403 15:08:57.363620  2725 net.cpp:425] inception_5b/relu_5x5_reduce <- inception_5b/5x5_reduce
I0403 15:08:57.363641  2725 net.cpp:386] inception_5b/relu_5x5_reduce -> inception_5b/5x5_reduce (in-place)
I0403 15:08:57.364012  2725 net.cpp:141] Setting up inception_5b/relu_5x5_reduce
I0403 15:08:57.364038  2725 net.cpp:148] Top shape: 24 48 7 7 (56448)
I0403 15:08:57.364053  2725 net.cpp:156] Memory required for data: 1334725152
I0403 15:08:57.364068  2725 layer_factory.hpp:77] Creating layer inception_5b/5x5
I0403 15:08:57.364087  2725 net.cpp:91] Creating Layer inception_5b/5x5
I0403 15:08:57.364104  2725 net.cpp:425] inception_5b/5x5 <- inception_5b/5x5_reduce
I0403 15:08:57.364122  2725 net.cpp:399] inception_5b/5x5 -> inception_5b/5x5
I0403 15:08:57.366132  2725 net.cpp:141] Setting up inception_5b/5x5
I0403 15:08:57.366160  2725 net.cpp:148] Top shape: 24 128 7 7 (150528)
I0403 15:08:57.366176  2725 net.cpp:156] Memory required for data: 1335327264
I0403 15:08:57.366195  2725 layer_factory.hpp:77] Creating layer inception_5b/relu_5x5
I0403 15:08:57.366215  2725 net.cpp:91] Creating Layer inception_5b/relu_5x5
I0403 15:08:57.366232  2725 net.cpp:425] inception_5b/relu_5x5 <- inception_5b/5x5
I0403 15:08:57.366250  2725 net.cpp:386] inception_5b/relu_5x5 -> inception_5b/5x5 (in-place)
I0403 15:08:57.366446  2725 net.cpp:141] Setting up inception_5b/relu_5x5
I0403 15:08:57.366473  2725 net.cpp:148] Top shape: 24 128 7 7 (150528)
I0403 15:08:57.366487  2725 net.cpp:156] Memory required for data: 1335929376
I0403 15:08:57.366503  2725 layer_factory.hpp:77] Creating layer inception_5b/pool
I0403 15:08:57.366523  2725 net.cpp:91] Creating Layer inception_5b/pool
I0403 15:08:57.366539  2725 net.cpp:425] inception_5b/pool <- inception_5a/output_inception_5a/output_0_split_3
I0403 15:08:57.366557  2725 net.cpp:399] inception_5b/pool -> inception_5b/pool
I0403 15:08:57.366629  2725 net.cpp:141] Setting up inception_5b/pool
I0403 15:08:57.366652  2725 net.cpp:148] Top shape: 24 832 7 7 (978432)
I0403 15:08:57.366667  2725 net.cpp:156] Memory required for data: 1339843104
I0403 15:08:57.366682  2725 layer_factory.hpp:77] Creating layer inception_5b/pool_proj
I0403 15:08:57.366704  2725 net.cpp:91] Creating Layer inception_5b/pool_proj
I0403 15:08:57.366722  2725 net.cpp:425] inception_5b/pool_proj <- inception_5b/pool
I0403 15:08:57.366742  2725 net.cpp:399] inception_5b/pool_proj -> inception_5b/pool_proj
I0403 15:08:57.369066  2725 net.cpp:141] Setting up inception_5b/pool_proj
I0403 15:08:57.369096  2725 net.cpp:148] Top shape: 24 128 7 7 (150528)
I0403 15:08:57.369112  2725 net.cpp:156] Memory required for data: 1340445216
I0403 15:08:57.369132  2725 layer_factory.hpp:77] Creating layer inception_5b/relu_pool_proj
I0403 15:08:57.369150  2725 net.cpp:91] Creating Layer inception_5b/relu_pool_proj
I0403 15:08:57.369168  2725 net.cpp:425] inception_5b/relu_pool_proj <- inception_5b/pool_proj
I0403 15:08:57.369190  2725 net.cpp:386] inception_5b/relu_pool_proj -> inception_5b/pool_proj (in-place)
I0403 15:08:57.369498  2725 net.cpp:141] Setting up inception_5b/relu_pool_proj
I0403 15:08:57.369524  2725 net.cpp:148] Top shape: 24 128 7 7 (150528)
I0403 15:08:57.369539  2725 net.cpp:156] Memory required for data: 1341047328
I0403 15:08:57.369554  2725 layer_factory.hpp:77] Creating layer inception_5b/output
I0403 15:08:57.369570  2725 net.cpp:91] Creating Layer inception_5b/output
I0403 15:08:57.369601  2725 net.cpp:425] inception_5b/output <- inception_5b/1x1
I0403 15:08:57.369618  2725 net.cpp:425] inception_5b/output <- inception_5b/3x3
I0403 15:08:57.369635  2725 net.cpp:425] inception_5b/output <- inception_5b/5x5
I0403 15:08:57.369652  2725 net.cpp:425] inception_5b/output <- inception_5b/pool_proj
I0403 15:08:57.369671  2725 net.cpp:399] inception_5b/output -> inception_5b/output
I0403 15:08:57.369724  2725 net.cpp:141] Setting up inception_5b/output
I0403 15:08:57.369750  2725 net.cpp:148] Top shape: 24 1024 7 7 (1204224)
I0403 15:08:57.369766  2725 net.cpp:156] Memory required for data: 1345864224
I0403 15:08:57.369781  2725 layer_factory.hpp:77] Creating layer pool5/7x7_s1
I0403 15:08:57.369798  2725 net.cpp:91] Creating Layer pool5/7x7_s1
I0403 15:08:57.369814  2725 net.cpp:425] pool5/7x7_s1 <- inception_5b/output
I0403 15:08:57.369834  2725 net.cpp:399] pool5/7x7_s1 -> pool5/7x7_s1
I0403 15:08:57.370054  2725 net.cpp:141] Setting up pool5/7x7_s1
I0403 15:08:57.370080  2725 net.cpp:148] Top shape: 24 1024 1 1 (24576)
I0403 15:08:57.370096  2725 net.cpp:156] Memory required for data: 1345962528
I0403 15:08:57.370110  2725 layer_factory.hpp:77] Creating layer pool5/drop_7x7_s1
I0403 15:08:57.370128  2725 net.cpp:91] Creating Layer pool5/drop_7x7_s1
I0403 15:08:57.370144  2725 net.cpp:425] pool5/drop_7x7_s1 <- pool5/7x7_s1
I0403 15:08:57.370164  2725 net.cpp:386] pool5/drop_7x7_s1 -> pool5/7x7_s1 (in-place)
I0403 15:08:57.370218  2725 net.cpp:141] Setting up pool5/drop_7x7_s1
I0403 15:08:57.370240  2725 net.cpp:148] Top shape: 24 1024 1 1 (24576)
I0403 15:08:57.370255  2725 net.cpp:156] Memory required for data: 1346060832
I0403 15:08:57.370270  2725 layer_factory.hpp:77] Creating layer loss3/classifier_plantvillage
I0403 15:08:57.370293  2725 net.cpp:91] Creating Layer loss3/classifier_plantvillage
I0403 15:08:57.370311  2725 net.cpp:425] loss3/classifier_plantvillage <- pool5/7x7_s1
I0403 15:08:57.370332  2725 net.cpp:399] loss3/classifier_plantvillage -> loss3/classifier_plantvillage
I0403 15:08:57.370762  2725 net.cpp:141] Setting up loss3/classifier_plantvillage
I0403 15:08:57.370786  2725 net.cpp:148] Top shape: 24 38 (912)
I0403 15:08:57.370801  2725 net.cpp:156] Memory required for data: 1346064480
I0403 15:08:57.370820  2725 layer_factory.hpp:77] Creating layer loss3/classifier_plantvillage_loss3/classifier_plantvillage_0_split
I0403 15:08:57.370841  2725 net.cpp:91] Creating Layer loss3/classifier_plantvillage_loss3/classifier_plantvillage_0_split
I0403 15:08:57.370859  2725 net.cpp:425] loss3/classifier_plantvillage_loss3/classifier_plantvillage_0_split <- loss3/classifier_plantvillage
I0403 15:08:57.370878  2725 net.cpp:399] loss3/classifier_plantvillage_loss3/classifier_plantvillage_0_split -> loss3/classifier_plantvillage_loss3/classifier_plantvillage_0_split_0
I0403 15:08:57.370899  2725 net.cpp:399] loss3/classifier_plantvillage_loss3/classifier_plantvillage_0_split -> loss3/classifier_plantvillage_loss3/classifier_plantvillage_0_split_1
I0403 15:08:57.370919  2725 net.cpp:399] loss3/classifier_plantvillage_loss3/classifier_plantvillage_0_split -> loss3/classifier_plantvillage_loss3/classifier_plantvillage_0_split_2
I0403 15:08:57.370939  2725 net.cpp:399] loss3/classifier_plantvillage_loss3/classifier_plantvillage_0_split -> loss3/classifier_plantvillage_loss3/classifier_plantvillage_0_split_3
I0403 15:08:57.371042  2725 net.cpp:141] Setting up loss3/classifier_plantvillage_loss3/classifier_plantvillage_0_split
I0403 15:08:57.371065  2725 net.cpp:148] Top shape: 24 38 (912)
I0403 15:08:57.371081  2725 net.cpp:148] Top shape: 24 38 (912)
I0403 15:08:57.371098  2725 net.cpp:148] Top shape: 24 38 (912)
I0403 15:08:57.371114  2725 net.cpp:148] Top shape: 24 38 (912)
I0403 15:08:57.371140  2725 net.cpp:156] Memory required for data: 1346079072
I0403 15:08:57.371155  2725 layer_factory.hpp:77] Creating layer loss1/loss
I0403 15:08:57.371177  2725 net.cpp:91] Creating Layer loss1/loss
I0403 15:08:57.371196  2725 net.cpp:425] loss1/loss <- loss1/classifier_plantvillage_loss1/classifier_plantvillage_0_split_0
I0403 15:08:57.371227  2725 net.cpp:425] loss1/loss <- label_data_1_split_0
…
