…
I0403 15:49:27.367279  3671 net.cpp:313] The NetState phase (1) differed from the phase (0) specified by a rule in layer data
I0403 15:49:27.368448  3671 net.cpp:49] Initializing net from parameters: 
state {
  phase: TEST
}
layer {
  name: "data"
  type: "Data"
  top: "data"
  top: "label"
  include {
    phase: TEST
  }
  transform_param {
    mirror: false
    crop_size: 224
    mean_file: "/home/mohanty/data/final_dataset/lmdb/grayscale-50-50/mean.binaryproto"
  }
  data_param {
    source: "/home/mohanty/data/final_dataset/lmdb/grayscale-50-50/test_db"
    batch_size: 24
    backend: LMDB
  }
}
layer {
  name: "conv1/7x7_s2"
  type: "Convolution"
  bottom: "data"
  top: "conv1/7x7_s2"
  param {
    lr_mult: 1
    decay_mult: 1
  }
  param {
    lr_mult: 2
    decay_mult: 0
  }
  convolution_param {
    num_output: 64
    pad: 3
    kernel_size: 7
    stride: 2
    weight_filler {
      type: "xavier"
      std: 0.1
    }
    bias_filler {
      type: "constant"
      value: 0.2
    }
  }
}
layer {
  name: "conv1/relu_7x7"
  type: "ReLU"
  bottom: "conv1/7x7_s2"
  top: "conv1/7x7_s2"
}
layer {
  name: "pool1/3x3_s2"
  type: "Pooling"
  bottom: "conv1/7x7_s2"
  top: "pool1/3x3_s2"
  pooling_param {
    pool: MAX
    kernel_size: 3
    stride: 2
  }
}
layer {
  name: "pool1/norm1"
  type: "LRN"
  bottom: "pool1/3x3_s2"
  top: "pool1/norm1"
  lrn_param {
    local_size: 5
    alpha: 0.0001
    beta: 0.75
  }
}
layer {
  name: "conv2/3x3_reduce"
  type: "Convolution"
  bottom: "pool1/norm1"
  top: "conv2/3x3_reduce"
  param {
    lr_mult: 1
    decay_mult: 1
  }
  param {
    lr_mult: 2
    decay_mult: 0
  }
  convolution_param {
    num_output: 64
    kernel_size: 1
    weight_filler {
      type: "xavier"
      std: 0.1
    }
    bias_filler {
      type: "constant"
      value: 0.2
    }
  }
}
layer {
  name: "conv2/relu_3x3_reduce"
  type: "ReLU"
  bottom: "conv2/3x3_reduce"
  top: "conv2/3x3_reduce"
}
layer {
  name: "conv2/3x3"
  type: "Convolution"
  bottom: "conv2/3x3_reduce"
  top: "conv2/3x3"
  param {
    lr_mult: 1
    decay_mult: 1
  }
  param {
    lr_mult: 2
    decay_mult: 0
  }
  convolution_param {
    num_output: 192
    pad: 1
    kernel_size: 3
    weight_filler {
      type: "xavier"
      std: 0.03
    }
    bias_filler {
      type: "constant"
      value: 0.2
    }
  }
}
layer {
  name: "conv2/relu_3x3"
  type: "ReLU"
  bottom: "conv2/3x3"
  top: "conv2/3x3"
}
layer {
  name: "conv2/norm2"
  type: "LRN"
  bottom: "conv2/3x3"
  top: "conv2/norm2"
  lrn_param {
    local_size: 5
    alpha: 0.0001
    beta: 0.75
  }
}
layer {
  name: "pool2/3x3_s2"
  type: "Pooling"
  bottom: "conv2/norm2"
  top: "pool2/3x3_s2"
  pooling_param {
    pool: MAX
    kernel_size: 3
    stride: 2
  }
}
layer {
  name: "inception_3a/1x1"
  type: "Convolution"
  bottom: "pool2/3x3_s2"
  top: "inception_3a/1x1"
  param {
    lr_mult: 1
    decay_mult: 1
  }
  param {
    lr_mult: 2
    decay_mult: 0
  }
  convolution_param {
    num_output: 64
    kernel_size: 1
    weight_filler {
      type: "xavier"
      std: 0.03
    }
    bias_filler {
      type: "constant"
      value: 0.2
    }
  }
}
layer {
  name: "inception_3a/relu_1x1"
  type: "ReLU"
  bottom: "inception_3a/1x1"
  top: "inception_3a/1x1"
}
layer {
  name: "inception_3a/3x3_reduce"
  type: "Convolution"
  bottom: "pool2/3x3_s2"
  top: "inception_3a/3x3_reduce"
  param {
    lr_mult: 1
    decay_mult: 1
  }
  param {
    lr_mult: 2
    decay_mult: 0
  }
  convolution_param {
    num_output: 96
    kernel_size: 1
    weight_filler {
      type: "xavier"
      std: 0.09
    }
    bias_filler {
      type: "constant"
      value: 0.2
    }
  }
}
layer {
  name: "inception_3a/relu_3x3_reduce"
  type: "ReLU"
  bottom: "inception_3a/3x3_reduce"
  top: "inception_3a/3x3_reduce"
}
layer {
  name: "inception_3a/3x3"
  type: "Convolution"
  bottom: "inception_3a/3x3_reduce"
  top: "inception_3a/3x3"
  param {
    lr_mult: 1
    decay_mult: 1
  }
  param {
    lr_mult: 2
    decay_mult: 0
  }
  convolution_param {
    num_output: 128
    pad: 1
    kernel_size: 3
    weight_filler {
      type: "xavier"
      std: 0.03
    }
    bias_filler {
      type: "constant"
      value: 0.2
    }
  }
}
layer {
  name: "inception_3a/relu_3x3"
  type: "ReLU"
  bottom: "inception_3a/3x3"
  top: "inception_3a/3x3"
}
layer {
  name: "inception_3a/5x5_reduce"
  type: "Convolution"
  bottom: "pool2/3x3_s2"
  top: "inception_3a/5x5_reduce"
  param {
    lr_mult: 1
    decay_mult: 1
  }
  param {
    lr_mult: 2
    decay_mult: 0
  }
  convolution_param {
    num_output: 16
    kernel_size: 1
    weight_filler {
      type: "xavier"
      std: 0.2
    }
    bias_filler {
      type: "constant"
      value: 0.2
    }
  }
}
layer {
  name: "inception_3a/relu_5x5_reduce"
  type: "ReLU"
  bottom: "inception_3a/5x5_reduce"
  top: "inception_3a/5x5_reduce"
}
layer {
  name: "inception_3a/5x5"
  type: "Convolution"
  bottom: "inception_3a/5x5_reduce"
  top: "inception_3a/5x5"
  param {
    lr_mult: 1
    decay_mult: 1
  }
  param {
    lr_mult: 2
    decay_mult: 0
  }
  convolution_param {
    num_output: 32
    pad: 2
    kernel_size: 5
    weight_filler {
      type: "xavier"
      std: 0.03
    }
    bias_filler {
      type: "constant"
      value: 0.2
    }
  }
}
layer {
  name: "inception_3a/relu_5x5"
  type: "ReLU"
  bottom: "inception_3a/5x5"
  top: "inception_3a/5x5"
}
layer {
  name: "inception_3a/pool"
  type: "Pooling"
  bottom: "pool2/3x3_s2"
  top: "inception_3a/pool"
  pooling_param {
    pool: MAX
    kernel_size: 3
    stride: 1
    pad: 1
  }
}
layer {
  name: "inception_3a/pool_proj"
  type: "Convolution"
  bottom: "inception_3a/pool"
  top: "inception_3a/pool_proj"
  param {
    lr_mult: 1
    decay_mult: 1
  }
  param {
    lr_mult: 2
    decay_mult: 0
  }
  convolution_param {
    num_output: 32
    kernel_size: 1
    weight_filler {
      type: "xavier"
      std: 0.1
    }
    bias_filler {
      type: "constant"
      value: 0.2
    }
  }
}
layer {
  name: "inception_3a/relu_pool_proj"
  type: "ReLU"
  bottom: "inception_3a/pool_proj"
  top: "inception_3a/pool_proj"
}
layer {
  name: "inception_3a/output"
  type: "Concat"
  bottom: "inception_3a/1x1"
  bottom: "inception_3a/3x3"
  bottom: "inception_3a/5x5"
  bottom: "inception_3a/pool_proj"
  top: "inception_3a/output"
}
layer {
  name: "inception_3b/1x1"
  type: "Convolution"
  bottom: "inception_3a/output"
  top: "inception_3b/1x1"
  param {
    lr_mult: 1
    decay_mult: 1
  }
  param {
    lr_mult: 2
    decay_mult: 0
  }
  convolution_param {
    num_output: 128
    kernel_size: 1
    weight_filler {
      type: "xavier"
      std: 0.03
    }
    bias_filler {
      type: "constant"
      value: 0.2
    }
  }
}
layer {
  name: "inception_3b/relu_1x1"
  type: "ReLU"
  bottom: "inception_3b/1x1"
  top: "inception_3b/1x1"
}
layer {
  name: "inception_3b/3x3_reduce"
  type: "Convolution"
  bottom: "inception_3a/output"
  top: "inception_3b/3x3_reduce"
  param {
    lr_mult: 1
    decay_mult: 1
  }
  param {
    lr_mult: 2
    decay_mult: 0
  }
  convolution_param {
    num_output: 128
    kernel_size: 1
    weight_filler {
      type: "xavier"
      std: 0.09
    }
    bias_filler {
      type: "constant"
      value: 0.2
    }
  }
}
layer {
  name: "inception_3b/relu_3x3_reduce"
  type: "ReLU"
  bottom: "inception_3b/3x3_reduce"
  top: "inception_3b/3x3_reduce"
}
layer {
  name: "inception_3b/3x3"
  type: "Convolution"
  bottom: "inception_3b/3x3_reduce"
  top: "inception_3b/3x3"
  param {
    lr_mult: 1
    decay_mult: 1
  }
  param {
    lr_mult: 2
    decay_mult: 0
  }
  convolution_param {
    num_output: 192
    pad: 1
    kernel_size: 3
    weight_filler {
      type: "xavier"
      std: 0.03
    }
    bias_filler {
      type: "constant"
      value: 0.2
    }
  }
}
layer {
  name: "inception_3b/relu_3x3"
  type: "ReLU"
  bottom: "inception_3b/3x3"
  top: "inception_3b/3x3"
}
layer {
  name: "inception_3b/5x5_reduce"
  type: "Convolution"
  bottom: "inception_3a/output"
  top: "inception_3b/5x5_reduce"
  param {
    lr_mult: 1
    decay_mult: 1
  }
  param {
    lr_mult: 2
    decay_mult: 0
  }
  convolution_param {
    num_output: 32
    kernel_size: 1
    weight_filler {
      type: "xavier"
      std: 0.2
    }
    bias_filler {
      type: "constant"
      value: 0.2
    }
  }
}
layer {
  name: "inception_3b/relu_5x5_reduce"
  type: "ReLU"
  bottom: "inception_3b/5x5_reduce"
  top: "inception_3b/5x5_reduce"
}
layer {
  name: "inception_3b/5x5"
  type: "Convolution"
  bottom: "inception_3b/5x5_reduce"
  top: "inception_3b/5x5"
  param {
    lr_mult: 1
    decay_mult: 1
  }
  param {
    lr_mult: 2
    decay_mult: 0
  }
  convolution_param {
    num_output: 96
    pad: 2
    kernel_size: 5
    weight_filler {
      type: "xavier"
      std: 0.03
    }
    bias_filler {
      type: "constant"
      value: 0.2
    }
  }
}
layer {
  name: "inception_3b/relu_5x5"
  type: "ReLU"
  bottom: "inception_3b/5x5"
  top: "inception_3b/5x5"
}
layer {
  name: "inception_3b/pool"
  type: "Pooling"
  bottom: "inception_3a/output"
  top: "inception_3b/pool"
  pooling_param {
    pool: MAX
    kernel_size: 3
    stride: 1
    pad: 1
  }
}
layer {
  name: "inception_3b/pool_proj"
  type: "Convolution"
  bottom: "inception_3b/pool"
  top: "inception_3b/pool_proj"
  param {
    lr_mult: 1
    decay_mult: 1
  }
  param {
    lr_mult: 2
    decay_mult: 0
  }
  convolution_param {
    num_output: 64
    kernel_size: 1
    weight_filler {
      type: "xavier"
      std: 0.1
    }
    bias_filler {
      type: "constant"
      value: 0.2
    }
  }
}
layer {
  name: "inception_3b/relu_pool_proj"
  type: "ReLU"
  bottom: "inception_3b/pool_proj"
  top: "inception_3b/pool_proj"
}
layer {
  name: "inception_3b/output"
  type: "Concat"
  bottom: "inception_3b/1x1"
  bottom: "inception_3b/3x3"
  bottom: "inception_3b/5x5"
  bottom: "inception_3b/pool_proj"
  top: "inception_3b/output"
}
layer {
  name: "pool3/3x3_s2"
  type: "Pooling"
  bottom: "inception_3b/output"
  top: "pool3/3x3_s2"
  pooling_param {
    pool: MAX
    kernel_size: 3
    stride: 2
  }
}
layer {
  name: "inception_4a/1x1"
  type: "Convolution"
  bottom: "pool3/3x3_s2"
  top: "inception_4a/1x1"
  param {
    lr_mult: 1
    decay_mult: 1
  }
  param {
    lr_mult: 2
    decay_mult: 0
  }
  convolution_param {
    num_output: 192
    kernel_size: 1
    weight_filler {
      type: "xavier"
      std: 0.03
    }
    bias_filler {
      type: "constant"
      value: 0.2
    }
  }
}
layer {
  name: "inception_4a/relu_1x1"
  type: "ReLU"
  bottom: "inception_4a/1x1"
  top: "inception_4a/1x1"
}
layer {
  name: "inception_4a/3x3_reduce"
  type: "Convolution"
  bottom: "pool3/3x3_s2"
  top: "inception_4a/3x3_reduce"
  param {
    lr_mult: 1
    decay_mult: 1
  }
  param {
    lr_mult: 2
    decay_mult: 0
  }
  convolution_param {
    num_output: 96
    kernel_size: 1
    weight_filler {
      type: "xavier"
      std: 0.09
    }
    bias_filler {
      type: "constant"
      value: 0.2
    }
  }
}
layer {
  name: "inception_4a/relu_3x3_reduce"
  type: "ReLU"
  bottom: "inception_4a/3x3_reduce"
  top: "inception_4a/3x3_reduce"
}
layer {
  name: "inception_4a/3x3"
  type: "Convolution"
  bottom: "inception_4a/3x3_reduce"
  top: "inception_4a/3x3"
  param {
    lr_mult: 1
    decay_mult: 1
  }
  param {
    lr_mult: 2
    decay_mult: 0
  }
  convolution_param {
    num_output: 208
    pad: 1
    kernel_size: 3
    weight_filler {
      type: "xavier"
      std: 0.03
    }
    bias_filler {
      type: "constant"
      value: 0.2
    }
  }
}
layer {
  name: "inception_4a/relu_3x3"
  type: "ReLU"
  bottom: "inception_4a/3x3"
  top: "inception_4a/3x3"
}
layer {
  name: "inception_4a/5x5_reduce"
  type: "Convolution"
  bottom: "pool3/3x3_s2"
  top: "inception_4a/5x5_reduce"
  param {
    lr_mult: 1
    decay_mult: 1
  }
  param {
    lr_mult: 2
    decay_mult: 0
  }
  convolution_param {
    num_output: 16
    kernel_size: 1
    weight_filler {
      type: "xavier"
      std: 0.2
    }
    bias_filler {
      type: "constant"
      value: 0.2
    }
  }
}
layer {
  name: "inception_4a/relu_5x5_reduce"
  type: "ReLU"
  bottom: "inception_4a/5x5_reduce"
  top: "inception_4a/5x5_reduce"
}
layer {
  name: "inception_4a/5x5"
  type: "Convolution"
  bottom: "inception_4a/5x5_reduce"
  top: "inception_4a/5x5"
  param {
    lr_mult: 1
    decay_mult: 1
  }
  param {
    lr_mult: 2
    decay_mult: 0
  }
  convolution_param {
    num_output: 48
    pad: 2
    kernel_size: 5
    weight_filler {
      type: "xavier"
      std: 0.03
    }
    bias_filler {
      type: "constant"
      value: 0.2
    }
  }
}
layer {
  name: "inception_4a/relu_5x5"
  type: "ReLU"
  bottom: "inception_4a/5x5"
  top: "inception_4a/5x5"
}
layer {
  name: "inception_4a/pool"
  type: "Pooling"
  bottom: "pool3/3x3_s2"
  top: "inception_4a/pool"
  pooling_param {
    pool: MAX
    kernel_size: 3
    stride: 1
    pad: 1
  }
}
layer {
  name: "inception_4a/pool_proj"
  type: "Convolution"
  bottom: "inception_4a/pool"
  top: "inception_4a/pool_proj"
  param {
    lr_mult: 1
    decay_mult: 1
  }
  param {
    lr_mult: 2
    decay_mult: 0
  }
  convolution_param {
    num_output: 64
    kernel_size: 1
    weight_filler {
      type: "xavier"
      std: 0.1
    }
    bias_filler {
      type: "constant"
      value: 0.2
    }
  }
}
layer {
  name: "inception_4a/relu_pool_proj"
  type: "ReLU"
  bottom: "inception_4a/pool_proj"
  top: "inception_4a/pool_proj"
}
layer {
  name: "inception_4a/output"
  type: "Concat"
  bottom: "inception_4a/1x1"
  bottom: "inception_4a/3x3"
  bottom: "inception_4a/5x5"
  bottom: "inception_4a/pool_proj"
  top: "inception_4a/output"
}
layer {
  name: "loss1/ave_pool"
  type: "Pooling"
  bottom: "inception_4a/output"
  top: "loss1/ave_pool"
  pooling_param {
    pool: AVE
    kernel_size: 5
    stride: 3
  }
}
layer {
  name: "loss1/conv"
  type: "Convolution"
  bottom: "loss1/ave_pool"
  top: "loss1/conv"
  param {
    lr_mult: 1
    decay_mult: 1
  }
  param {
    lr_mult: 2
    decay_mult: 0
  }
  convolution_param {
    num_output: 128
    kernel_size: 1
    weight_filler {
      type: "xavier"
      std: 0.08
    }
    bias_filler {
      type: "constant"
      value: 0.2
    }
  }
}
layer {
  name: "loss1/relu_conv"
  type: "ReLU"
  bottom: "loss1/conv"
  top: "loss1/conv"
}
layer {
  name: "loss1/fc"
  type: "InnerProduct"
  bottom: "loss1/conv"
  top: "loss1/fc"
  param {
    lr_mult: 1
    decay_mult: 1
  }
  param {
    lr_mult: 2
    decay_mult: 0
  }
  inner_product_param {
    num_output: 1024
    weight_filler {
      type: "xavier"
      std: 0.02
    }
    bias_filler {
      type: "constant"
      value: 0.2
    }
  }
}
layer {
  name: "loss1/relu_fc"
  type: "ReLU"
  bottom: "loss1/fc"
  top: "loss1/fc"
}
layer {
  name: "loss1/drop_fc"
  type: "Dropout"
  bottom: "loss1/fc"
  top: "loss1/fc"
  dropout_param {
    dropout_ratio: 0.7
  }
}
layer {
  name: "loss1/classifier_plantvillage"
  type: "InnerProduct"
  bottom: "loss1/fc"
  top: "loss1/classifier_plantvillage"
  param {
    lr_mult: 1
    decay_mult: 1
  }
  param {
    lr_mult: 2
    decay_mult: 0
  }
  inner_product_param {
    num_output: 38
    weight_filler {
      type: "xavier"
      std: 0.0009765625
    }
    bias_filler {
      type: "constant"
      value: 0
    }
  }
}
layer {
  name: "inception_4b/1x1"
  type: "Convolution"
  bottom: "inception_4a/output"
  top: "inception_4b/1x1"
  param {
    lr_mult: 1
    decay_mult: 1
  }
  param {
    lr_mult: 2
    decay_mult: 0
  }
  convolution_param {
    num_output: 160
    kernel_size: 1
    weight_filler {
      type: "xavier"
      std: 0.03
    }
    bias_filler {
      type: "constant"
      value: 0.2
    }
  }
}
layer {
  name: "inception_4b/relu_1x1"
  type: "ReLU"
  bottom: "inception_4b/1x1"
  top: "inception_4b/1x1"
}
layer {
  name: "inception_4b/3x3_reduce"
  type: "Convolution"
  bottom: "inception_4a/output"
  top: "inception_4b/3x3_reduce"
  param {
    lr_mult: 1
    decay_mult: 1
  }
  param {
    lr_mult: 2
    decay_mult: 0
  }
  convolution_param {
    num_output: 112
    kernel_size: 1
    weight_filler {
      type: "xavier"
      std: 0.09
    }
    bias_filler {
      type: "constant"
      value: 0.2
    }
  }
}
layer {
  name: "inception_4b/relu_3x3_reduce"
  type: "ReLU"
  bottom: "inception_4b/3x3_reduce"
  top: "inception_4b/3x3_reduce"
}
layer {
  name: "inception_4b/3x3"
  type: "Convolution"
  bottom: "inception_4b/3x3_reduce"
  top: "inception_4b/3x3"
  param {
    lr_mult: 1
    decay_mult: 1
  }
  param {
    lr_mult: 2
    decay_mult: 0
  }
  convolution_param {
    num_output: 224
    pad: 1
    kernel_size: 3
    weight_filler {
      type: "xavier"
      std: 0.03
    }
    bias_filler {
      type: "constant"
      value: 0.2
    }
  }
}
layer {
  name: "inception_4b/relu_3x3"
  type: "ReLU"
  bottom: "inception_4b/3x3"
  top: "inception_4b/3x3"
}
layer {
  name: "inception_4b/5x5_reduce"
  type: "Convolution"
  bottom: "inception_4a/output"
  top: "inception_4b/5x5_reduce"
  param {
    lr_mult: 1
    decay_mult: 1
  }
  param {
    lr_mult: 2
    decay_mult: 0
  }
  convolution_param {
    num_output: 24
    kernel_size: 1
    weight_filler {
      type: "xavier"
      std: 0.2
    }
    bias_filler {
      type: "constant"
      value: 0.2
    }
  }
}
layer {
  name: "inception_4b/relu_5x5_reduce"
  type: "ReLU"
  bottom: "inception_4b/5x5_reduce"
  top: "inception_4b/5x5_reduce"
}
layer {
  name: "inception_4b/5x5"
  type: "Convolution"
  bottom: "inception_4b/5x5_reduce"
  top: "inception_4b/5x5"
  param {
    lr_mult: 1
    decay_mult: 1
  }
  param {
    lr_mult: 2
    decay_mult: 0
  }
  convolution_param {
    num_output: 64
    pad: 2
    kernel_size: 5
    weight_filler {
      type: "xavier"
      std: 0.03
    }
    bias_filler {
      type: "constant"
      value: 0.2
    }
  }
}
layer {
  name: "inception_4b/relu_5x5"
  type: "ReLU"
  bottom: "inception_4b/5x5"
  top: "inception_4b/5x5"
}
layer {
  name: "inception_4b/pool"
  type: "Pooling"
  bottom: "inception_4a/output"
  top: "inception_4b/pool"
  pooling_param {
    pool: MAX
    kernel_size: 3
    stride: 1
    pad: 1
  }
}
layer {
  name: "inception_4b/pool_proj"
  type: "Convolution"
  bottom: "inception_4b/pool"
  top: "inception_4b/pool_proj"
  param {
    lr_mult: 1
    decay_mult: 1
  }
  param {
    lr_mult: 2
    decay_mult: 0
  }
  convolution_param {
    num_output: 64
    kernel_size: 1
    weight_filler {
      type: "xavier"
      std: 0.1
    }
    bias_filler {
      type: "constant"
      value: 0.2
    }
  }
}
layer {
  name: "inception_4b/relu_pool_proj"
  type: "ReLU"
  bottom: "inception_4b/pool_proj"
  top: "inception_4b/pool_proj"
}
layer {
  name: "inception_4b/output"
  type: "Concat"
  bottom: "inception_4b/1x1"
  bottom: "inception_4b/3x3"
  bottom: "inception_4b/5x5"
  bottom: "inception_4b/pool_proj"
  top: "inception_4b/output"
}
layer {
  name: "inception_4c/1x1"
  type: "Convolution"
  bottom: "inception_4b/output"
  top: "inception_4c/1x1"
  param {
    lr_mult: 1
    decay_mult: 1
  }
  param {
    lr_mult: 2
    decay_mult: 0
  }
  convolution_param {
    num_output: 128
    kernel_size: 1
    weight_filler {
      type: "xavier"
      std: 0.03
    }
    bias_filler {
      type: "constant"
      value: 0.2
    }
  }
}
layer {
  name: "inception_4c/relu_1x1"
  type: "ReLU"
  bottom: "inception_4c/1x1"
  top: "inception_4c/1x1"
}
layer {
  name: "inception_4c/3x3_reduce"
  type: "Convolution"
  bottom: "inception_4b/output"
  top: "inception_4c/3x3_reduce"
  param {
    lr_mult: 1
    decay_mult: 1
  }
  param {
    lr_mult: 2
    decay_mult: 0
  }
  convolution_param {
    num_output: 128
    kernel_size: 1
    weight_filler {
      type: "xavier"
      std: 0.09
    }
    bias_filler {
      type: "constant"
      value: 0.2
    }
  }
}
layer {
  name: "inception_4c/relu_3x3_reduce"
  type: "ReLU"
  bottom: "inception_4c/3x3_reduce"
  top: "inception_4c/3x3_reduce"
}
layer {
  name: "inception_4c/3x3"
  type: "Convolution"
  bottom: "inception_4c/3x3_reduce"
  top: "inception_4c/3x3"
  param {
    lr_mult: 1
    decay_mult: 1
  }
  param {
    lr_mult: 2
    decay_mult: 0
  }
  convolution_param {
    num_output: 256
    pad: 1
    kernel_size: 3
    weight_filler {
      type: "xavier"
      std: 0.03
    }
    bias_filler {
      type: "constant"
      value: 0.2
    }
  }
}
layer {
  name: "inception_4c/relu_3x3"
  type: "ReLU"
  bottom: "inception_4c/3x3"
  top: "inception_4c/3x3"
}
layer {
  name: "inception_4c/5x5_reduce"
  type: "Convolution"
  bottom: "inception_4b/output"
  top: "inception_4c/5x5_reduce"
  param {
    lr_mult: 1
    decay_mult: 1
  }
  param {
    lr_mult: 2
    decay_mult: 0
  }
  convolution_param {
    num_output: 24
    kernel_size: 1
    weight_filler {
      type: "xavier"
      std: 0.2
    }
    bias_filler {
      type: "constant"
      value: 0.2
    }
  }
}
layer {
  name: "inception_4c/relu_5x5_reduce"
  type: "ReLU"
  bottom: "inception_4c/5x5_reduce"
  top: "inception_4c/5x5_reduce"
}
layer {
  name: "inception_4c/5x5"
  type: "Convolution"
  bottom: "inception_4c/5x5_reduce"
  top: "inception_4c/5x5"
  param {
    lr_mult: 1
    decay_mult: 1
  }
  param {
    lr_mult: 2
    decay_mult: 0
  }
  convolution_param {
    num_output: 64
    pad: 2
    kernel_size: 5
    weight_filler {
      type: "xavier"
      std: 0.03
    }
    bias_filler {
      type: "constant"
      value: 0.2
    }
  }
}
layer {
  name: "inception_4c/relu_5x5"
  type: "ReLU"
  bottom: "inception_4c/5x5"
  top: "inception_4c/5x5"
}
layer {
  name: "inception_4c/pool"
  type: "Pooling"
  bottom: "inception_4b/output"
  top: "inception_4c/pool"
  pooling_param {
    pool: MAX
    kernel_size: 3
    stride: 1
    pad: 1
  }
}
layer {
  name: "inception_4c/pool_proj"
  type: "Convolution"
  bottom: "inception_4c/pool"
  top: "inception_4c/pool_proj"
  param {
    lr_mult: 1
    decay_mult: 1
  }
  param {
    lr_mult: 2
    decay_mult: 0
  }
  convolution_param {
    num_output: 64
    kernel_size: 1
    weight_filler {
      type: "xavier"
      std: 0.1
    }
    bias_filler {
      type: "constant"
      value: 0.2
    }
  }
}
layer {
  name: "inception_4c/relu_pool_proj"
  type: "ReLU"
  bottom: "inception_4c/pool_proj"
  top: "inception_4c/pool_proj"
}
layer {
  name: "inception_4c/output"
  type: "Concat"
  bottom: "inception_4c/1x1"
  bottom: "inception_4c/3x3"
  bottom: "inception_4c/5x5"
  bottom: "inception_4c/pool_proj"
  top: "inception_4c/output"
}
layer {
  name: "inception_4d/1x1"
  type: "Convolution"
  bottom: "inception_4c/output"
  top: "inception_4d/1x1"
  param {
    lr_mult: 1
    decay_mult: 1
  }
  param {
    lr_mult: 2
    decay_mult: 0
  }
  convolution_param {
    num_output: 112
    kernel_size: 1
    weight_filler {
      type: "xavier"
      std: 0.03
    }
    bias_filler {
      type: "constant"
      value: 0.2
    }
  }
}
layer {
  name: "inception_4d/relu_1x1"
  type: "ReLU"
  bottom: "inception_4d/1x1"
  top: "inception_4d/1x1"
}
layer {
  name: "inception_4d/3x3_reduce"
  type: "Convolution"
  bottom: "inception_4c/output"
  top: "inception_4d/3x3_reduce"
  param {
    lr_mult: 1
    decay_mult: 1
  }
  param {
    lr_mult: 2
    decay_mult: 0
  }
  convolution_param {
    num_output: 144
    kernel_size: 1
    weight_filler {
      type: "xavier"
      std: 0.09
    }
    bias_filler {
      type: "constant"
      value: 0.2
    }
  }
}
layer {
  name: "inception_4d/relu_3x3_reduce"
  type: "ReLU"
  bottom: "inception_4d/3x3_reduce"
  top: "inception_4d/3x3_reduce"
}
layer {
  name: "inception_4d/3x3"
  type: "Convolution"
  bottom: "inception_4d/3x3_reduce"
  top: "inception_4d/3x3"
  param {
    lr_mult: 1
    decay_mult: 1
  }
  param {
    lr_mult: 2
    decay_mult: 0
  }
  convolution_param {
    num_output: 288
    pad: 1
    kernel_size: 3
    weight_filler {
      type: "xavier"
      std: 0.03
    }
    bias_filler {
      type: "constant"
      value: 0.2
    }
  }
}
layer {
  name: "inception_4d/relu_3x3"
  type: "ReLU"
  bottom: "inception_4d/3x3"
  top: "inception_4d/3x3"
}
layer {
  name: "inception_4d/5x5_reduce"
  type: "Convolution"
  bottom: "inception_4c/output"
  top: "inception_4d/5x5_reduce"
  param {
    lr_mult: 1
    decay_mult: 1
  }
  param {
    lr_mult: 2
    decay_mult: 0
  }
  convolution_param {
    num_output: 32
    kernel_size: 1
    weight_filler {
      type: "xavier"
      std: 0.2
    }
    bias_filler {
      type: "constant"
      value: 0.2
    }
  }
}
layer {
  name: "inception_4d/relu_5x5_reduce"
  type: "ReLU"
  bottom: "inception_4d/5x5_reduce"
  top: "inception_4d/5x5_reduce"
}
layer {
  name: "inception_4d/5x5"
  type: "Convolution"
  bottom: "inception_4d/5x5_reduce"
  top: "inception_4d/5x5"
  param {
    lr_mult: 1
    decay_mult: 1
  }
  param {
    lr_mult: 2
    decay_mult: 0
  }
  convolution_param {
    num_output: 64
    pad: 2
    kernel_size: 5
    weight_filler {
      type: "xavier"
      std: 0.03
    }
    bias_filler {
      type: "constant"
      value: 0.2
    }
  }
}
layer {
  name: "inception_4d/relu_5x5"
  type: "ReLU"
  bottom: "inception_4d/5x5"
  top: "inception_4d/5x5"
}
layer {
  name: "inception_4d/pool"
  type: "Pooling"
  bottom: "inception_4c/output"
  top: "inception_4d/pool"
  pooling_param {
    pool: MAX
    kernel_size: 3
    stride: 1
    pad: 1
  }
}
layer {
  name: "inception_4d/pool_proj"
  type: "Convolution"
  bottom: "inception_4d/pool"
  top: "inception_4d/pool_proj"
  param {
    lr_mult: 1
    decay_mult: 1
  }
  param {
    lr_mult: 2
    decay_mult: 0
  }
  convolution_param {
    num_output: 64
    kernel_size: 1
    weight_filler {
      type: "xavier"
      std: 0.1
    }
    bias_filler {
      type: "constant"
      value: 0.2
    }
  }
}
layer {
  name: "inception_4d/relu_pool_proj"
  type: "ReLU"
  bottom: "inception_4d/pool_proj"
  top: "inception_4d/pool_proj"
}
layer {
  name: "inception_4d/output"
  type: "Concat"
  bottom: "inception_4d/1x1"
  bottom: "inception_4d/3x3"
  bottom: "inception_4d/5x5"
  bottom: "inception_4d/pool_proj"
  top: "inception_4d/output"
}
layer {
  name: "loss2/ave_pool"
  type: "Pooling"
  bottom: "inception_4d/output"
  top: "loss2/ave_pool"
  pooling_param {
    pool: AVE
    kernel_size: 5
    stride: 3
  }
}
layer {
  name: "loss2/conv"
  type: "Convolution"
  bottom: "loss2/ave_pool"
  top: "loss2/conv"
  param {
    lr_mult: 1
    decay_mult: 1
  }
  param {
    lr_mult: 2
    decay_mult: 0
  }
  convolution_param {
    num_output: 128
    kernel_size: 1
    weight_filler {
      type: "xavier"
      std: 0.08
    }
    bias_filler {
      type: "constant"
      value: 0.2
    }
  }
}
layer {
  name: "loss2/relu_conv"
  type: "ReLU"
  bottom: "loss2/conv"
  top: "loss2/conv"
}
layer {
  name: "loss2/fc"
  type: "InnerProduct"
  bottom: "loss2/conv"
  top: "loss2/fc"
  param {
    lr_mult: 1
    decay_mult: 1
  }
  param {
    lr_mult: 2
    decay_mult: 0
  }
  inner_product_param {
    num_output: 1024
    weight_filler {
      type: "xavier"
      std: 0.02
    }
    bias_filler {
      type: "constant"
      value: 0.2
    }
  }
}
layer {
  name: "loss2/relu_fc"
  type: "ReLU"
  bottom: "loss2/fc"
  top: "loss2/fc"
}
layer {
  name: "loss2/drop_fc"
  type: "Dropout"
  bottom: "loss2/fc"
  top: "loss2/fc"
  dropout_param {
    dropout_ratio: 0.7
  }
}
layer {
  name: "loss2/classifier_plantvillage"
  type: "InnerProduct"
  bottom: "loss2/fc"
  top: "loss2/classifier_plantvillage"
  param {
    lr_mult: 1
    decay_mult: 1
  }
  param {
    lr_mult: 2
    decay_mult: 0
  }
  inner_product_param {
    num_output: 38
    weight_filler {
      type: "xavier"
      std: 0.0009765625
    }
    bias_filler {
      type: "constant"
      value: 0
    }
  }
}
layer {
  name: "inception_4e/1x1"
  type: "Convolution"
  bottom: "inception_4d/output"
  top: "inception_4e/1x1"
  param {
    lr_mult: 1
    decay_mult: 1
  }
  param {
    lr_mult: 2
    decay_mult: 0
  }
  convolution_param {
    num_output: 256
    kernel_size: 1
    weight_filler {
      type: "xavier"
      std: 0.03
    }
    bias_filler {
      type: "constant"
      value: 0.2
    }
  }
}
layer {
  name: "inception_4e/relu_1x1"
  type: "ReLU"
  bottom: "inception_4e/1x1"
  top: "inception_4e/1x1"
}
layer {
  name: "inception_4e/3x3_reduce"
  type: "Convolution"
  bottom: "inception_4d/output"
  top: "inception_4e/3x3_reduce"
  param {
    lr_mult: 1
    decay_mult: 1
  }
  param {
    lr_mult: 2
    decay_mult: 0
  }
  convolution_param {
    num_output: 160
    kernel_size: 1
    weight_filler {
      type: "xavier"
      std: 0.09
    }
    bias_filler {
      type: "constant"
      value: 0.2
    }
  }
}
layer {
  name: "inception_4e/relu_3x3_reduce"
  type: "ReLU"
  bottom: "inception_4e/3x3_reduce"
  top: "inception_4e/3x3_reduce"
}
layer {
  name: "inception_4e/3x3"
  type: "Convolution"
  bottom: "inception_4e/3x3_reduce"
  top: "inception_4e/3x3"
  param {
    lr_mult: 1
    decay_mult: 1
  }
  param {
    lr_mult: 2
    decay_mult: 0
  }
  convolution_param {
    num_output: 320
    pad: 1
    kernel_size: 3
    weight_filler {
      type: "xavier"
      std: 0.03
    }
    bias_filler {
      type: "constant"
      value: 0.2
    }
  }
}
layer {
  name: "inception_4e/relu_3x3"
  type: "ReLU"
  bottom: "inception_4e/3x3"
  top: "inception_4e/3x3"
}
layer {
  name: "inception_4e/5x5_reduce"
  type: "Convolution"
  bottom: "inception_4d/output"
  top: "inception_4e/5x5_reduce"
  param {
    lr_mult: 1
    decay_mult: 1
  }
  param {
    lr_mult: 2
    decay_mult: 0
  }
  convolution_param {
    num_output: 32
    kernel_size: 1
    weight_filler {
      type: "xavier"
      std: 0.2
    }
    bias_filler {
      type: "constant"
      value: 0.2
    }
  }
}
layer {
  name: "inception_4e/relu_5x5_reduce"
  type: "ReLU"
  bottom: "inception_4e/5x5_reduce"
  top: "inception_4e/5x5_reduce"
}
layer {
  name: "inception_4e/5x5"
  type: "Convolution"
  bottom: "inception_4e/5x5_reduce"
  top: "inception_4e/
I0403 15:49:27.369786  3671 layer_factory.hpp:77] Creating layer data
I0403 15:49:27.370374  3671 net.cpp:91] Creating Layer data
I0403 15:49:27.370404  3671 net.cpp:399] data -> data
I0403 15:49:27.370456  3671 net.cpp:399] data -> label
I0403 15:49:27.370492  3671 data_transformer.cpp:25] Loading mean file from: /home/mohanty/data/final_dataset/lmdb/grayscale-50-50/mean.binaryproto
I0403 15:49:27.373456  3675 db_lmdb.cpp:38] Opened lmdb /home/mohanty/data/final_dataset/lmdb/grayscale-50-50/test_db
I0403 15:49:27.383991  3671 data_layer.cpp:41] output data size: 24,3,224,224
I0403 15:49:27.413123  3671 net.cpp:141] Setting up data
I0403 15:49:27.413206  3671 net.cpp:148] Top shape: 24 3 224 224 (3612672)
I0403 15:49:27.413245  3671 net.cpp:148] Top shape: 24 (24)
I0403 15:49:27.413264  3671 net.cpp:156] Memory required for data: 14450784
I0403 15:49:27.413292  3671 layer_factory.hpp:77] Creating layer label_data_1_split
I0403 15:49:27.413321  3671 net.cpp:91] Creating Layer label_data_1_split
I0403 15:49:27.413341  3671 net.cpp:425] label_data_1_split <- label
I0403 15:49:27.413375  3671 net.cpp:399] label_data_1_split -> label_data_1_split_0
I0403 15:49:27.413403  3671 net.cpp:399] label_data_1_split -> label_data_1_split_1
I0403 15:49:27.413426  3671 net.cpp:399] label_data_1_split -> label_data_1_split_2
I0403 15:49:27.413449  3671 net.cpp:399] label_data_1_split -> label_data_1_split_3
I0403 15:49:27.413470  3671 net.cpp:399] label_data_1_split -> label_data_1_split_4
I0403 15:49:27.413491  3671 net.cpp:399] label_data_1_split -> label_data_1_split_5
I0403 15:49:27.413512  3671 net.cpp:399] label_data_1_split -> label_data_1_split_6
I0403 15:49:27.413545  3671 net.cpp:399] label_data_1_split -> label_data_1_split_7
I0403 15:49:27.413566  3671 net.cpp:399] label_data_1_split -> label_data_1_split_8
I0403 15:49:27.413588  3671 net.cpp:399] label_data_1_split -> label_data_1_split_9
I0403 15:49:27.413705  3671 net.cpp:141] Setting up label_data_1_split
I0403 15:49:27.413728  3671 net.cpp:148] Top shape: 24 (24)
I0403 15:49:27.413745  3671 net.cpp:148] Top shape: 24 (24)
I0403 15:49:27.413761  3671 net.cpp:148] Top shape: 24 (24)
I0403 15:49:27.413777  3671 net.cpp:148] Top shape: 24 (24)
I0403 15:49:27.413792  3671 net.cpp:148] Top shape: 24 (24)
I0403 15:49:27.413807  3671 net.cpp:148] Top shape: 24 (24)
I0403 15:49:27.413823  3671 net.cpp:148] Top shape: 24 (24)
I0403 15:49:27.413838  3671 net.cpp:148] Top shape: 24 (24)
I0403 15:49:27.413853  3671 net.cpp:148] Top shape: 24 (24)
I0403 15:49:27.413869  3671 net.cpp:148] Top shape: 24 (24)
I0403 15:49:27.413911  3671 net.cpp:156] Memory required for data: 14451744
I0403 15:49:27.413928  3671 layer_factory.hpp:77] Creating layer conv1/7x7_s2
I0403 15:49:27.413957  3671 net.cpp:91] Creating Layer conv1/7x7_s2
I0403 15:49:27.413975  3671 net.cpp:425] conv1/7x7_s2 <- data
I0403 15:49:27.413995  3671 net.cpp:399] conv1/7x7_s2 -> conv1/7x7_s2
I0403 15:49:27.554219  3671 net.cpp:141] Setting up conv1/7x7_s2
I0403 15:49:27.554296  3671 net.cpp:148] Top shape: 24 64 112 112 (19267584)
I0403 15:49:27.554313  3671 net.cpp:156] Memory required for data: 91522080
I0403 15:49:27.554344  3671 layer_factory.hpp:77] Creating layer conv1/relu_7x7
I0403 15:49:27.554373  3671 net.cpp:91] Creating Layer conv1/relu_7x7
I0403 15:49:27.554391  3671 net.cpp:425] conv1/relu_7x7 <- conv1/7x7_s2
I0403 15:49:27.554410  3671 net.cpp:386] conv1/relu_7x7 -> conv1/7x7_s2 (in-place)
I0403 15:49:27.554666  3671 net.cpp:141] Setting up conv1/relu_7x7
I0403 15:49:27.554692  3671 net.cpp:148] Top shape: 24 64 112 112 (19267584)
I0403 15:49:27.554708  3671 net.cpp:156] Memory required for data: 168592416
I0403 15:49:27.554723  3671 layer_factory.hpp:77] Creating layer pool1/3x3_s2
I0403 15:49:27.554749  3671 net.cpp:91] Creating Layer pool1/3x3_s2
I0403 15:49:27.554766  3671 net.cpp:425] pool1/3x3_s2 <- conv1/7x7_s2
I0403 15:49:27.554785  3671 net.cpp:399] pool1/3x3_s2 -> pool1/3x3_s2
I0403 15:49:27.554859  3671 net.cpp:141] Setting up pool1/3x3_s2
I0403 15:49:27.554883  3671 net.cpp:148] Top shape: 24 64 56 56 (4816896)
I0403 15:49:27.554898  3671 net.cpp:156] Memory required for data: 187860000
I0403 15:49:27.554913  3671 layer_factory.hpp:77] Creating layer pool1/norm1
I0403 15:49:27.554939  3671 net.cpp:91] Creating Layer pool1/norm1
I0403 15:49:27.554957  3671 net.cpp:425] pool1/norm1 <- pool1/3x3_s2
I0403 15:49:27.554977  3671 net.cpp:399] pool1/norm1 -> pool1/norm1
I0403 15:49:27.555260  3671 net.cpp:141] Setting up pool1/norm1
I0403 15:49:27.555292  3671 net.cpp:148] Top shape: 24 64 56 56 (4816896)
I0403 15:49:27.555307  3671 net.cpp:156] Memory required for data: 207127584
I0403 15:49:27.555322  3671 layer_factory.hpp:77] Creating layer conv2/3x3_reduce
I0403 15:49:27.555347  3671 net.cpp:91] Creating Layer conv2/3x3_reduce
I0403 15:49:27.555364  3671 net.cpp:425] conv2/3x3_reduce <- pool1/norm1
I0403 15:49:27.555382  3671 net.cpp:399] conv2/3x3_reduce -> conv2/3x3_reduce
I0403 15:49:27.556710  3671 net.cpp:141] Setting up conv2/3x3_reduce
I0403 15:49:27.556740  3671 net.cpp:148] Top shape: 24 64 56 56 (4816896)
I0403 15:49:27.556757  3671 net.cpp:156] Memory required for data: 226395168
I0403 15:49:27.556779  3671 layer_factory.hpp:77] Creating layer conv2/relu_3x3_reduce
I0403 15:49:27.556798  3671 net.cpp:91] Creating Layer conv2/relu_3x3_reduce
I0403 15:49:27.556815  3671 net.cpp:425] conv2/relu_3x3_reduce <- conv2/3x3_reduce
I0403 15:49:27.556833  3671 net.cpp:386] conv2/relu_3x3_reduce -> conv2/3x3_reduce (in-place)
I0403 15:49:27.557080  3671 net.cpp:141] Setting up conv2/relu_3x3_reduce
I0403 15:49:27.557106  3671 net.cpp:148] Top shape: 24 64 56 56 (4816896)
I0403 15:49:27.557121  3671 net.cpp:156] Memory required for data: 245662752
I0403 15:49:27.557137  3671 layer_factory.hpp:77] Creating layer conv2/3x3
I0403 15:49:27.557159  3671 net.cpp:91] Creating Layer conv2/3x3
I0403 15:49:27.557176  3671 net.cpp:425] conv2/3x3 <- conv2/3x3_reduce
I0403 15:49:27.557195  3671 net.cpp:399] conv2/3x3 -> conv2/3x3
I0403 15:49:27.559412  3671 net.cpp:141] Setting up conv2/3x3
I0403 15:49:27.559443  3671 net.cpp:148] Top shape: 24 192 56 56 (14450688)
I0403 15:49:27.559461  3671 net.cpp:156] Memory required for data: 303465504
I0403 15:49:27.559496  3671 layer_factory.hpp:77] Creating layer conv2/relu_3x3
I0403 15:49:27.559517  3671 net.cpp:91] Creating Layer conv2/relu_3x3
I0403 15:49:27.559535  3671 net.cpp:425] conv2/relu_3x3 <- conv2/3x3
I0403 15:49:27.559552  3671 net.cpp:386] conv2/relu_3x3 -> conv2/3x3 (in-place)
I0403 15:49:27.559717  3671 net.cpp:141] Setting up conv2/relu_3x3
I0403 15:49:27.559744  3671 net.cpp:148] Top shape: 24 192 56 56 (14450688)
I0403 15:49:27.559805  3671 net.cpp:156] Memory required for data: 361268256
I0403 15:49:27.559821  3671 layer_factory.hpp:77] Creating layer conv2/norm2
I0403 15:49:27.559840  3671 net.cpp:91] Creating Layer conv2/norm2
I0403 15:49:27.559857  3671 net.cpp:425] conv2/norm2 <- conv2/3x3
I0403 15:49:27.559876  3671 net.cpp:399] conv2/norm2 -> conv2/norm2
I0403 15:49:27.560158  3671 net.cpp:141] Setting up conv2/norm2
I0403 15:49:27.560184  3671 net.cpp:148] Top shape: 24 192 56 56 (14450688)
I0403 15:49:27.560200  3671 net.cpp:156] Memory required for data: 419071008
I0403 15:49:27.560216  3671 layer_factory.hpp:77] Creating layer pool2/3x3_s2
I0403 15:49:27.560235  3671 net.cpp:91] Creating Layer pool2/3x3_s2
I0403 15:49:27.560251  3671 net.cpp:425] pool2/3x3_s2 <- conv2/norm2
I0403 15:49:27.560274  3671 net.cpp:399] pool2/3x3_s2 -> pool2/3x3_s2
I0403 15:49:27.560325  3671 net.cpp:141] Setting up pool2/3x3_s2
I0403 15:49:27.560348  3671 net.cpp:148] Top shape: 24 192 28 28 (3612672)
I0403 15:49:27.560364  3671 net.cpp:156] Memory required for data: 433521696
I0403 15:49:27.560377  3671 layer_factory.hpp:77] Creating layer pool2/3x3_s2_pool2/3x3_s2_0_split
I0403 15:49:27.560395  3671 net.cpp:91] Creating Layer pool2/3x3_s2_pool2/3x3_s2_0_split
I0403 15:49:27.560410  3671 net.cpp:425] pool2/3x3_s2_pool2/3x3_s2_0_split <- pool2/3x3_s2
I0403 15:49:27.560427  3671 net.cpp:399] pool2/3x3_s2_pool2/3x3_s2_0_split -> pool2/3x3_s2_pool2/3x3_s2_0_split_0
I0403 15:49:27.560446  3671 net.cpp:399] pool2/3x3_s2_pool2/3x3_s2_0_split -> pool2/3x3_s2_pool2/3x3_s2_0_split_1
I0403 15:49:27.560466  3671 net.cpp:399] pool2/3x3_s2_pool2/3x3_s2_0_split -> pool2/3x3_s2_pool2/3x3_s2_0_split_2
I0403 15:49:27.560485  3671 net.cpp:399] pool2/3x3_s2_pool2/3x3_s2_0_split -> pool2/3x3_s2_pool2/3x3_s2_0_split_3
I0403 15:49:27.560549  3671 net.cpp:141] Setting up pool2/3x3_s2_pool2/3x3_s2_0_split
I0403 15:49:27.560570  3671 net.cpp:148] Top shape: 24 192 28 28 (3612672)
I0403 15:49:27.560586  3671 net.cpp:148] Top shape: 24 192 28 28 (3612672)
I0403 15:49:27.560602  3671 net.cpp:148] Top shape: 24 192 28 28 (3612672)
I0403 15:49:27.560618  3671 net.cpp:148] Top shape: 24 192 28 28 (3612672)
I0403 15:49:27.560632  3671 net.cpp:156] Memory required for data: 491324448
I0403 15:49:27.560647  3671 layer_factory.hpp:77] Creating layer inception_3a/1x1
I0403 15:49:27.560667  3671 net.cpp:91] Creating Layer inception_3a/1x1
I0403 15:49:27.560683  3671 net.cpp:425] inception_3a/1x1 <- pool2/3x3_s2_pool2/3x3_s2_0_split_0
I0403 15:49:27.560703  3671 net.cpp:399] inception_3a/1x1 -> inception_3a/1x1
I0403 15:49:27.562173  3671 net.cpp:141] Setting up inception_3a/1x1
I0403 15:49:27.562204  3671 net.cpp:148] Top shape: 24 64 28 28 (1204224)
I0403 15:49:27.562221  3671 net.cpp:156] Memory required for data: 496141344
I0403 15:49:27.562242  3671 layer_factory.hpp:77] Creating layer inception_3a/relu_1x1
I0403 15:49:27.562260  3671 net.cpp:91] Creating Layer inception_3a/relu_1x1
I0403 15:49:27.562288  3671 net.cpp:425] inception_3a/relu_1x1 <- inception_3a/1x1
I0403 15:49:27.562312  3671 net.cpp:386] inception_3a/relu_1x1 -> inception_3a/1x1 (in-place)
I0403 15:49:27.562497  3671 net.cpp:141] Setting up inception_3a/relu_1x1
I0403 15:49:27.562525  3671 net.cpp:148] Top shape: 24 64 28 28 (1204224)
I0403 15:49:27.562541  3671 net.cpp:156] Memory required for data: 500958240
I0403 15:49:27.562556  3671 layer_factory.hpp:77] Creating layer inception_3a/3x3_reduce
I0403 15:49:27.562577  3671 net.cpp:91] Creating Layer inception_3a/3x3_reduce
I0403 15:49:27.562595  3671 net.cpp:425] inception_3a/3x3_reduce <- pool2/3x3_s2_pool2/3x3_s2_0_split_1
I0403 15:49:27.562614  3671 net.cpp:399] inception_3a/3x3_reduce -> inception_3a/3x3_reduce
I0403 15:49:27.564332  3671 net.cpp:141] Setting up inception_3a/3x3_reduce
I0403 15:49:27.564362  3671 net.cpp:148] Top shape: 24 96 28 28 (1806336)
I0403 15:49:27.564378  3671 net.cpp:156] Memory required for data: 508183584
I0403 15:49:27.564402  3671 layer_factory.hpp:77] Creating layer inception_3a/relu_3x3_reduce
I0403 15:49:27.564437  3671 net.cpp:91] Creating Layer inception_3a/relu_3x3_reduce
I0403 15:49:27.564455  3671 net.cpp:425] inception_3a/relu_3x3_reduce <- inception_3a/3x3_reduce
I0403 15:49:27.564472  3671 net.cpp:386] inception_3a/relu_3x3_reduce -> inception_3a/3x3_reduce (in-place)
I0403 15:49:27.564657  3671 net.cpp:141] Setting up inception_3a/relu_3x3_reduce
I0403 15:49:27.564682  3671 net.cpp:148] Top shape: 24 96 28 28 (1806336)
I0403 15:49:27.564697  3671 net.cpp:156] Memory required for data: 515408928
I0403 15:49:27.564712  3671 layer_factory.hpp:77] Creating layer inception_3a/3x3
I0403 15:49:27.564735  3671 net.cpp:91] Creating Layer inception_3a/3x3
I0403 15:49:27.564754  3671 net.cpp:425] inception_3a/3x3 <- inception_3a/3x3_reduce
I0403 15:49:27.564774  3671 net.cpp:399] inception_3a/3x3 -> inception_3a/3x3
I0403 15:49:27.566452  3671 net.cpp:141] Setting up inception_3a/3x3
I0403 15:49:27.566480  3671 net.cpp:148] Top shape: 24 128 28 28 (2408448)
I0403 15:49:27.566495  3671 net.cpp:156] Memory required for data: 525042720
I0403 15:49:27.566514  3671 layer_factory.hpp:77] Creating layer inception_3a/relu_3x3
I0403 15:49:27.566534  3671 net.cpp:91] Creating Layer inception_3a/relu_3x3
I0403 15:49:27.566551  3671 net.cpp:425] inception_3a/relu_3x3 <- inception_3a/3x3
I0403 15:49:27.566570  3671 net.cpp:386] inception_3a/relu_3x3 -> inception_3a/3x3 (in-place)
I0403 15:49:27.566846  3671 net.cpp:141] Setting up inception_3a/relu_3x3
I0403 15:49:27.566872  3671 net.cpp:148] Top shape: 24 128 28 28 (2408448)
I0403 15:49:27.566889  3671 net.cpp:156] Memory required for data: 534676512
I0403 15:49:27.566903  3671 layer_factory.hpp:77] Creating layer inception_3a/5x5_reduce
I0403 15:49:27.566927  3671 net.cpp:91] Creating Layer inception_3a/5x5_reduce
I0403 15:49:27.566946  3671 net.cpp:425] inception_3a/5x5_reduce <- pool2/3x3_s2_pool2/3x3_s2_0_split_2
I0403 15:49:27.566964  3671 net.cpp:399] inception_3a/5x5_reduce -> inception_3a/5x5_reduce
I0403 15:49:27.567917  3671 net.cpp:141] Setting up inception_3a/5x5_reduce
I0403 15:49:27.567945  3671 net.cpp:148] Top shape: 24 16 28 28 (301056)
I0403 15:49:27.567960  3671 net.cpp:156] Memory required for data: 535880736
I0403 15:49:27.567978  3671 layer_factory.hpp:77] Creating layer inception_3a/relu_5x5_reduce
I0403 15:49:27.567999  3671 net.cpp:91] Creating Layer inception_3a/relu_5x5_reduce
I0403 15:49:27.568016  3671 net.cpp:425] inception_3a/relu_5x5_reduce <- inception_3a/5x5_reduce
I0403 15:49:27.568033  3671 net.cpp:386] inception_3a/relu_5x5_reduce -> inception_3a/5x5_reduce (in-place)
I0403 15:49:27.568331  3671 net.cpp:141] Setting up inception_3a/relu_5x5_reduce
I0403 15:49:27.568359  3671 net.cpp:148] Top shape: 24 16 28 28 (301056)
I0403 15:49:27.568375  3671 net.cpp:156] Memory required for data: 537084960
I0403 15:49:27.568390  3671 layer_factory.hpp:77] Creating layer inception_3a/5x5
I0403 15:49:27.568413  3671 net.cpp:91] Creating Layer inception_3a/5x5
I0403 15:49:27.568430  3671 net.cpp:425] inception_3a/5x5 <- inception_3a/5x5_reduce
I0403 15:49:27.568449  3671 net.cpp:399] inception_3a/5x5 -> inception_3a/5x5
I0403 15:49:27.569458  3671 net.cpp:141] Setting up inception_3a/5x5
I0403 15:49:27.569486  3671 net.cpp:148] Top shape: 24 32 28 28 (602112)
I0403 15:49:27.569501  3671 net.cpp:156] Memory required for data: 539493408
I0403 15:49:27.569520  3671 layer_factory.hpp:77] Creating layer inception_3a/relu_5x5
I0403 15:49:27.569541  3671 net.cpp:91] Creating Layer inception_3a/relu_5x5
I0403 15:49:27.569560  3671 net.cpp:425] inception_3a/relu_5x5 <- inception_3a/5x5
I0403 15:49:27.569577  3671 net.cpp:386] inception_3a/relu_5x5 -> inception_3a/5x5 (in-place)
I0403 15:49:27.569746  3671 net.cpp:141] Setting up inception_3a/relu_5x5
I0403 15:49:27.569773  3671 net.cpp:148] Top shape: 24 32 28 28 (602112)
I0403 15:49:27.569789  3671 net.cpp:156] Memory required for data: 541901856
I0403 15:49:27.569804  3671 layer_factory.hpp:77] Creating layer inception_3a/pool
I0403 15:49:27.569823  3671 net.cpp:91] Creating Layer inception_3a/pool
I0403 15:49:27.569852  3671 net.cpp:425] inception_3a/pool <- pool2/3x3_s2_pool2/3x3_s2_0_split_3
I0403 15:49:27.569870  3671 net.cpp:399] inception_3a/pool -> inception_3a/pool
I0403 15:49:27.569929  3671 net.cpp:141] Setting up inception_3a/pool
I0403 15:49:27.569952  3671 net.cpp:148] Top shape: 24 192 28 28 (3612672)
I0403 15:49:27.569967  3671 net.cpp:156] Memory required for data: 556352544
I0403 15:49:27.569982  3671 layer_factory.hpp:77] Creating layer inception_3a/pool_proj
I0403 15:49:27.570003  3671 net.cpp:91] Creating Layer inception_3a/pool_proj
I0403 15:49:27.570020  3671 net.cpp:425] inception_3a/pool_proj <- inception_3a/pool
I0403 15:49:27.570044  3671 net.cpp:399] inception_3a/pool_proj -> inception_3a/pool_proj
I0403 15:49:27.571003  3671 net.cpp:141] Setting up inception_3a/pool_proj
I0403 15:49:27.571032  3671 net.cpp:148] Top shape: 24 32 28 28 (602112)
I0403 15:49:27.571048  3671 net.cpp:156] Memory required for data: 558760992
I0403 15:49:27.571071  3671 layer_factory.hpp:77] Creating layer inception_3a/relu_pool_proj
I0403 15:49:27.571091  3671 net.cpp:91] Creating Layer inception_3a/relu_pool_proj
I0403 15:49:27.571107  3671 net.cpp:425] inception_3a/relu_pool_proj <- inception_3a/pool_proj
I0403 15:49:27.571125  3671 net.cpp:386] inception_3a/relu_pool_proj -> inception_3a/pool_proj (in-place)
I0403 15:49:27.571408  3671 net.cpp:141] Setting up inception_3a/relu_pool_proj
I0403 15:49:27.571434  3671 net.cpp:148] Top shape: 24 32 28 28 (602112)
I0403 15:49:27.571452  3671 net.cpp:156] Memory required for data: 561169440
I0403 15:49:27.571467  3671 layer_factory.hpp:77] Creating layer inception_3a/output
I0403 15:49:27.571487  3671 net.cpp:91] Creating Layer inception_3a/output
I0403 15:49:27.571503  3671 net.cpp:425] inception_3a/output <- inception_3a/1x1
I0403 15:49:27.571521  3671 net.cpp:425] inception_3a/output <- inception_3a/3x3
I0403 15:49:27.571537  3671 net.cpp:425] inception_3a/output <- inception_3a/5x5
I0403 15:49:27.571552  3671 net.cpp:425] inception_3a/output <- inception_3a/pool_proj
I0403 15:49:27.571569  3671 net.cpp:399] inception_3a/output -> inception_3a/output
I0403 15:49:27.571616  3671 net.cpp:141] Setting up inception_3a/output
I0403 15:49:27.571640  3671 net.cpp:148] Top shape: 24 256 28 28 (4816896)
I0403 15:49:27.571655  3671 net.cpp:156] Memory required for data: 580437024
I0403 15:49:27.571668  3671 layer_factory.hpp:77] Creating layer inception_3a/output_inception_3a/output_0_split
I0403 15:49:27.571686  3671 net.cpp:91] Creating Layer inception_3a/output_inception_3a/output_0_split
I0403 15:49:27.571701  3671 net.cpp:425] inception_3a/output_inception_3a/output_0_split <- inception_3a/output
I0403 15:49:27.571720  3671 net.cpp:399] inception_3a/output_inception_3a/output_0_split -> inception_3a/output_inception_3a/output_0_split_0
I0403 15:49:27.571741  3671 net.cpp:399] inception_3a/output_inception_3a/output_0_split -> inception_3a/output_inception_3a/output_0_split_1
I0403 15:49:27.571765  3671 net.cpp:399] inception_3a/output_inception_3a/output_0_split -> inception_3a/output_inception_3a/output_0_split_2
I0403 15:49:27.571787  3671 net.cpp:399] inception_3a/output_inception_3a/output_0_split -> inception_3a/output_inception_3a/output_0_split_3
I0403 15:49:27.571862  3671 net.cpp:141] Setting up inception_3a/output_inception_3a/output_0_split
I0403 15:49:27.571885  3671 net.cpp:148] Top shape: 24 256 28 28 (4816896)
I0403 15:49:27.571902  3671 net.cpp:148] Top shape: 24 256 28 28 (4816896)
I0403 15:49:27.571918  3671 net.cpp:148] Top shape: 24 256 28 28 (4816896)
I0403 15:49:27.571934  3671 net.cpp:148] Top shape: 24 256 28 28 (4816896)
I0403 15:49:27.571948  3671 net.cpp:156] Memory required for data: 657507360
I0403 15:49:27.571961  3671 layer_factory.hpp:77] Creating layer inception_3b/1x1
I0403 15:49:27.571984  3671 net.cpp:91] Creating Layer inception_3b/1x1
I0403 15:49:27.572001  3671 net.cpp:425] inception_3b/1x1 <- inception_3a/output_inception_3a/output_0_split_0
I0403 15:49:27.572022  3671 net.cpp:399] inception_3b/1x1 -> inception_3b/1x1
I0403 15:49:27.573169  3671 net.cpp:141] Setting up inception_3b/1x1
I0403 15:49:27.573210  3671 net.cpp:148] Top shape: 24 128 28 28 (2408448)
I0403 15:49:27.573225  3671 net.cpp:156] Memory required for data: 667141152
I0403 15:49:27.573245  3671 layer_factory.hpp:77] Creating layer inception_3b/relu_1x1
I0403 15:49:27.573267  3671 net.cpp:91] Creating Layer inception_3b/relu_1x1
I0403 15:49:27.573289  3671 net.cpp:425] inception_3b/relu_1x1 <- inception_3b/1x1
I0403 15:49:27.573307  3671 net.cpp:386] inception_3b/relu_1x1 -> inception_3b/1x1 (in-place)
I0403 15:49:27.573478  3671 net.cpp:141] Setting up inception_3b/relu_1x1
I0403 15:49:27.573503  3671 net.cpp:148] Top shape: 24 128 28 28 (2408448)
I0403 15:49:27.573518  3671 net.cpp:156] Memory required for data: 676774944
I0403 15:49:27.573534  3671 layer_factory.hpp:77] Creating layer inception_3b/3x3_reduce
I0403 15:49:27.573556  3671 net.cpp:91] Creating Layer inception_3b/3x3_reduce
I0403 15:49:27.573575  3671 net.cpp:425] inception_3b/3x3_reduce <- inception_3a/output_inception_3a/output_0_split_1
I0403 15:49:27.573595  3671 net.cpp:399] inception_3b/3x3_reduce -> inception_3b/3x3_reduce
I0403 15:49:27.574726  3671 net.cpp:141] Setting up inception_3b/3x3_reduce
I0403 15:49:27.574755  3671 net.cpp:148] Top shape: 24 128 28 28 (2408448)
I0403 15:49:27.574770  3671 net.cpp:156] Memory required for data: 686408736
I0403 15:49:27.574789  3671 layer_factory.hpp:77] Creating layer inception_3b/relu_3x3_reduce
I0403 15:49:27.574810  3671 net.cpp:91] Creating Layer inception_3b/relu_3x3_reduce
I0403 15:49:27.574826  3671 net.cpp:425] inception_3b/relu_3x3_reduce <- inception_3b/3x3_reduce
I0403 15:49:27.574844  3671 net.cpp:386] inception_3b/relu_3x3_reduce -> inception_3b/3x3_reduce (in-place)
I0403 15:49:27.575018  3671 net.cpp:141] Setting up inception_3b/relu_3x3_reduce
I0403 15:49:27.575043  3671 net.cpp:148] Top shape: 24 128 28 28 (2408448)
I0403 15:49:27.575060  3671 net.cpp:156] Memory required for data: 696042528
I0403 15:49:27.575075  3671 layer_factory.hpp:77] Creating layer inception_3b/3x3
I0403 15:49:27.575100  3671 net.cpp:91] Creating Layer inception_3b/3x3
I0403 15:49:27.575119  3671 net.cpp:425] inception_3b/3x3 <- inception_3b/3x3_reduce
I0403 15:49:27.575140  3671 net.cpp:399] inception_3b/3x3 -> inception_3b/3x3
I0403 15:49:27.578040  3671 net.cpp:141] Setting up inception_3b/3x3
I0403 15:49:27.578069  3671 net.cpp:148] Top shape: 24 192 28 28 (3612672)
I0403 15:49:27.578086  3671 net.cpp:156] Memory required for data: 710493216
I0403 15:49:27.578104  3671 layer_factory.hpp:77] Creating layer inception_3b/relu_3x3
I0403 15:49:27.578125  3671 net.cpp:91] Creating Layer inception_3b/relu_3x3
I0403 15:49:27.578141  3671 net.cpp:425] inception_3b/relu_3x3 <- inception_3b/3x3
I0403 15:49:27.578160  3671 net.cpp:386] inception_3b/relu_3x3 -> inception_3b/3x3 (in-place)
I0403 15:49:27.578451  3671 net.cpp:141] Setting up inception_3b/relu_3x3
I0403 15:49:27.578486  3671 net.cpp:148] Top shape: 24 192 28 28 (3612672)
I0403 15:49:27.578502  3671 net.cpp:156] Memory required for data: 724943904
I0403 15:49:27.578516  3671 layer_factory.hpp:77] Creating layer inception_3b/5x5_reduce
I0403 15:49:27.578541  3671 net.cpp:91] Creating Layer inception_3b/5x5_reduce
I0403 15:49:27.578559  3671 net.cpp:425] inception_3b/5x5_reduce <- inception_3a/output_inception_3a/output_0_split_2
I0403 15:49:27.578579  3671 net.cpp:399] inception_3b/5x5_reduce -> inception_3b/5x5_reduce
I0403 15:49:27.579583  3671 net.cpp:141] Setting up inception_3b/5x5_reduce
I0403 15:49:27.579612  3671 net.cpp:148] Top shape: 24 32 28 28 (602112)
I0403 15:49:27.579627  3671 net.cpp:156] Memory required for data: 727352352
I0403 15:49:27.579645  3671 layer_factory.hpp:77] Creating layer inception_3b/relu_5x5_reduce
I0403 15:49:27.579669  3671 net.cpp:91] Creating Layer inception_3b/relu_5x5_reduce
I0403 15:49:27.579686  3671 net.cpp:425] inception_3b/relu_5x5_reduce <- inception_3b/5x5_reduce
I0403 15:49:27.579704  3671 net.cpp:386] inception_3b/relu_5x5_reduce -> inception_3b/5x5_reduce (in-place)
I0403 15:49:27.579892  3671 net.cpp:141] Setting up inception_3b/relu_5x5_reduce
I0403 15:49:27.579919  3671 net.cpp:148] Top shape: 24 32 28 28 (602112)
I0403 15:49:27.579934  3671 net.cpp:156] Memory required for data: 729760800
I0403 15:49:27.579951  3671 layer_factory.hpp:77] Creating layer inception_3b/5x5
I0403 15:49:27.579972  3671 net.cpp:91] Creating Layer inception_3b/5x5
I0403 15:49:27.579990  3671 net.cpp:425] inception_3b/5x5 <- inception_3b/5x5_reduce
I0403 15:49:27.580009  3671 net.cpp:399] inception_3b/5x5 -> inception_3b/5x5
I0403 15:49:27.581990  3671 net.cpp:141] Setting up inception_3b/5x5
I0403 15:49:27.582020  3671 net.cpp:148] Top shape: 24 96 28 28 (1806336)
I0403 15:49:27.582036  3671 net.cpp:156] Memory required for data: 736986144
I0403 15:49:27.582054  3671 layer_factory.hpp:77] Creating layer inception_3b/relu_5x5
I0403 15:49:27.582072  3671 net.cpp:91] Creating Layer inception_3b/relu_5x5
I0403 15:49:27.582088  3671 net.cpp:425] inception_3b/relu_5x5 <- inception_3b/5x5
I0403 15:49:27.582108  3671 net.cpp:386] inception_3b/relu_5x5 -> inception_3b/5x5 (in-place)
I0403 15:49:27.582312  3671 net.cpp:141] Setting up inception_3b/relu_5x5
I0403 15:49:27.582339  3671 net.cpp:148] Top shape: 24 96 28 28 (1806336)
I0403 15:49:27.582353  3671 net.cpp:156] Memory required for data: 744211488
I0403 15:49:27.582368  3671 layer_factory.hpp:77] Creating layer inception_3b/pool
I0403 15:49:27.582386  3671 net.cpp:91] Creating Layer inception_3b/pool
I0403 15:49:27.582402  3671 net.cpp:425] inception_3b/pool <- inception_3a/output_inception_3a/output_0_split_3
I0403 15:49:27.582422  3671 net.cpp:399] inception_3b/pool -> inception_3b/pool
I0403 15:49:27.582478  3671 net.cpp:141] Setting up inception_3b/pool
I0403 15:49:27.582500  3671 net.cpp:148] Top shape: 24 256 28 28 (4816896)
I0403 15:49:27.582515  3671 net.cpp:156] Memory required for data: 763479072
I0403 15:49:27.582530  3671 layer_factory.hpp:77] Creating layer inception_3b/pool_proj
I0403 15:49:27.582552  3671 net.cpp:91] Creating Layer inception_3b/pool_proj
I0403 15:49:27.582569  3671 net.cpp:425] inception_3b/pool_proj <- inception_3b/pool
I0403 15:49:27.582590  3671 net.cpp:399] inception_3b/pool_proj -> inception_3b/pool_proj
I0403 15:49:27.583637  3671 net.cpp:141] Setting up inception_3b/pool_proj
I0403 15:49:27.583667  3671 net.cpp:148] Top shape: 24 64 28 28 (1204224)
I0403 15:49:27.583683  3671 net.cpp:156] Memory required for data: 768295968
I0403 15:49:27.583700  3671 layer_factory.hpp:77] Creating layer inception_3b/relu_pool_proj
I0403 15:49:27.583719  3671 net.cpp:91] Creating Layer inception_3b/relu_pool_proj
I0403 15:49:27.583735  3671 net.cpp:425] inception_3b/relu_pool_proj <- inception_3b/pool_proj
I0403 15:49:27.583756  3671 net.cpp:386] inception_3b/relu_pool_proj -> inception_3b/pool_proj (in-place)
I0403 15:49:27.584143  3671 net.cpp:141] Setting up inception_3b/relu_pool_proj
I0403 15:49:27.584172  3671 net.cpp:148] Top shape: 24 64 28 28 (1204224)
I0403 15:49:27.584188  3671 net.cpp:156] Memory required for data: 773112864
I0403 15:49:27.584203  3671 layer_factory.hpp:77] Creating layer inception_3b/output
I0403 15:49:27.584221  3671 net.cpp:91] Creating Layer inception_3b/output
I0403 15:49:27.584238  3671 net.cpp:425] inception_3b/output <- inception_3b/1x1
I0403 15:49:27.584254  3671 net.cpp:425] inception_3b/output <- inception_3b/3x3
I0403 15:49:27.584270  3671 net.cpp:425] inception_3b/output <- inception_3b/5x5
I0403 15:49:27.584290  3671 net.cpp:425] inception_3b/output <- inception_3b/pool_proj
I0403 15:49:27.584308  3671 net.cpp:399] inception_3b/output -> inception_3b/output
I0403 15:49:27.584354  3671 net.cpp:141] Setting up inception_3b/output
I0403 15:49:27.584378  3671 net.cpp:148] Top shape: 24 480 28 28 (9031680)
I0403 15:49:27.584391  3671 net.cpp:156] Memory required for data: 809239584
I0403 15:49:27.584406  3671 layer_factory.hpp:77] Creating layer pool3/3x3_s2
I0403 15:49:27.584427  3671 net.cpp:91] Creating Layer pool3/3x3_s2
I0403 15:49:27.584444  3671 net.cpp:425] pool3/3x3_s2 <- inception_3b/output
I0403 15:49:27.584475  3671 net.cpp:399] pool3/3x3_s2 -> pool3/3x3_s2
I0403 15:49:27.584535  3671 net.cpp:141] Setting up pool3/3x3_s2
I0403 15:49:27.584558  3671 net.cpp:148] Top shape: 24 480 14 14 (2257920)
I0403 15:49:27.584573  3671 net.cpp:156] Memory required for data: 818271264
I0403 15:49:27.584589  3671 layer_factory.hpp:77] Creating layer pool3/3x3_s2_pool3/3x3_s2_0_split
I0403 15:49:27.584604  3671 net.cpp:91] Creating Layer pool3/3x3_s2_pool3/3x3_s2_0_split
I0403 15:49:27.584620  3671 net.cpp:425] pool3/3x3_s2_pool3/3x3_s2_0_split <- pool3/3x3_s2
I0403 15:49:27.584640  3671 net.cpp:399] pool3/3x3_s2_pool3/3x3_s2_0_split -> pool3/3x3_s2_pool3/3x3_s2_0_split_0
I0403 15:49:27.584661  3671 net.cpp:399] pool3/3x3_s2_pool3/3x3_s2_0_split -> pool3/3x3_s2_pool3/3x3_s2_0_split_1
I0403 15:49:27.584681  3671 net.cpp:399] pool3/3x3_s2_pool3/3x3_s2_0_split -> pool3/3x3_s2_pool3/3x3_s2_0_split_2
I0403 15:49:27.584699  3671 net.cpp:399] pool3/3x3_s2_pool3/3x3_s2_0_split -> pool3/3x3_s2_pool3/3x3_s2_0_split_3
I0403 15:49:27.584775  3671 net.cpp:141] Setting up pool3/3x3_s2_pool3/3x3_s2_0_split
I0403 15:49:27.584800  3671 net.cpp:148] Top shape: 24 480 14 14 (2257920)
I0403 15:49:27.584816  3671 net.cpp:148] Top shape: 24 480 14 14 (2257920)
I0403 15:49:27.584832  3671 net.cpp:148] Top shape: 24 480 14 14 (2257920)
I0403 15:49:27.584847  3671 net.cpp:148] Top shape: 24 480 14 14 (2257920)
I0403 15:49:27.584861  3671 net.cpp:156] Memory required for data: 854397984
I0403 15:49:27.584877  3671 layer_factory.hpp:77] Creating layer inception_4a/1x1
I0403 15:49:27.584902  3671 net.cpp:91] Creating Layer inception_4a/1x1
I0403 15:49:27.584919  3671 net.cpp:425] inception_4a/1x1 <- pool3/3x3_s2_pool3/3x3_s2_0_split_0
I0403 15:49:27.584939  3671 net.cpp:399] inception_4a/1x1 -> inception_4a/1x1
I0403 15:49:27.586536  3671 net.cpp:141] Setting up inception_4a/1x1
I0403 15:49:27.586565  3671 net.cpp:148] Top shape: 24 192 14 14 (903168)
I0403 15:49:27.586580  3671 net.cpp:156] Memory required for data: 858010656
I0403 15:49:27.586598  3671 layer_factory.hpp:77] Creating layer inception_4a/relu_1x1
I0403 15:49:27.586616  3671 net.cpp:91] Creating Layer inception_4a/relu_1x1
I0403 15:49:27.586632  3671 net.cpp:425] inception_4a/relu_1x1 <- inception_4a/1x1
I0403 15:49:27.586652  3671 net.cpp:386] inception_4a/relu_1x1 -> inception_4a/1x1 (in-place)
I0403 15:49:27.586827  3671 net.cpp:141] Setting up inception_4a/relu_1x1
I0403 15:49:27.586853  3671 net.cpp:148] Top shape: 24 192 14 14 (903168)
I0403 15:49:27.586866  3671 net.cpp:156] Memory required for data: 861623328
I0403 15:49:27.586881  3671 layer_factory.hpp:77] Creating layer inception_4a/3x3_reduce
I0403 15:49:27.586904  3671 net.cpp:91] Creating Layer inception_4a/3x3_reduce
I0403 15:49:27.586921  3671 net.cpp:425] inception_4a/3x3_reduce <- pool3/3x3_s2_pool3/3x3_s2_0_split_1
I0403 15:49:27.586942  3671 net.cpp:399] inception_4a/3x3_reduce -> inception_4a/3x3_reduce
I0403 15:49:27.588209  3671 net.cpp:141] Setting up inception_4a/3x3_reduce
I0403 15:49:27.588239  3671 net.cpp:148] Top shape: 24 96 14 14 (451584)
I0403 15:49:27.588256  3671 net.cpp:156] Memory required for data: 863429664
I0403 15:49:27.588285  3671 layer_factory.hpp:77] Creating layer inception_4a/relu_3x3_reduce
I0403 15:49:27.588306  3671 net.cpp:91] Creating Layer inception_4a/relu_3x3_reduce
I0403 15:49:27.588323  3671 net.cpp:425] inception_4a/relu_3x3_reduce <- inception_4a/3x3_reduce
I0403 15:49:27.588340  3671 net.cpp:386] inception_4a/relu_3x3_reduce -> inception_4a/3x3_reduce (in-place)
I0403 15:49:27.588515  3671 net.cpp:141] Setting up inception_4a/relu_3x3_reduce
I0403 15:49:27.588541  3671 net.cpp:148] Top shape: 24 96 14 14 (451584)
I0403 15:49:27.588556  3671 net.cpp:156] Memory required for data: 865236000
I0403 15:49:27.588569  3671 layer_factory.hpp:77] Creating layer inception_4a/3x3
I0403 15:49:27.588593  3671 net.cpp:91] Creating Layer inception_4a/3x3
I0403 15:49:27.588610  3671 net.cpp:425] inception_4a/3x3 <- inception_4a/3x3_reduce
I0403 15:49:27.588631  3671 net.cpp:399] inception_4a/3x3 -> inception_4a/3x3
I0403 15:49:27.591351  3671 net.cpp:141] Setting up inception_4a/3x3
I0403 15:49:27.591380  3671 net.cpp:148] Top shape: 24 208 14 14 (978432)
I0403 15:49:27.591397  3671 net.cpp:156] Memory required for data: 869149728
I0403 15:49:27.591414  3671 layer_factory.hpp:77] Creating layer inception_4a/relu_3x3
I0403 15:49:27.591435  3671 net.cpp:91] Creating Layer inception_4a/relu_3x3
I0403 15:49:27.591454  3671 net.cpp:425] inception_4a/relu_3x3 <- inception_4a/3x3
I0403 15:49:27.591490  3671 net.cpp:386] inception_4a/relu_3x3 -> inception_4a/3x3 (in-place)
I0403 15:49:27.591786  3671 net.cpp:141] Setting up inception_4a/relu_3x3
I0403 15:49:27.591812  3671 net.cpp:148] Top shape: 24 208 14 14 (978432)
I0403 15:49:27.591827  3671 net.cpp:156] Memory required for data: 873063456
I0403 15:49:27.591843  3671 layer_factory.hpp:77] Creating layer inception_4a/5x5_reduce
I0403 15:49:27.591866  3671 net.cpp:91] Creating Layer inception_4a/5x5_reduce
I0403 15:49:27.591883  3671 net.cpp:425] inception_4a/5x5_reduce <- pool3/3x3_s2_pool3/3x3_s2_0_split_2
I0403 15:49:27.591905  3671 net.cpp:399] inception_4a/5x5_reduce -> inception_4a/5x5_reduce
I0403 15:49:27.592952  3671 net.cpp:141] Setting up inception_4a/5x5_reduce
I0403 15:49:27.592980  3671 net.cpp:148] Top shape: 24 16 14 14 (75264)
I0403 15:49:27.592998  3671 net.cpp:156] Memory required for data: 873364512
I0403 15:49:27.593016  3671 layer_factory.hpp:77] Creating layer inception_4a/relu_5x5_reduce
I0403 15:49:27.593037  3671 net.cpp:91] Creating Layer inception_4a/relu_5x5_reduce
I0403 15:49:27.593055  3671 net.cpp:425] inception_4a/relu_5x5_reduce <- inception_4a/5x5_reduce
I0403 15:49:27.593085  3671 net.cpp:386] inception_4a/relu_5x5_reduce -> inception_4a/5x5_reduce (in-place)
I0403 15:49:27.593261  3671 net.cpp:141] Setting up inception_4a/relu_5x5_reduce
I0403 15:49:27.593292  3671 net.cpp:148] Top shape: 24 16 14 14 (75264)
I0403 15:49:27.593308  3671 net.cpp:156] Memory required for data: 873665568
I0403 15:49:27.593323  3671 layer_factory.hpp:77] Creating layer inception_4a/5x5
I0403 15:49:27.593349  3671 net.cpp:91] Creating Layer inception_4a/5x5
I0403 15:49:27.593367  3671 net.cpp:425] inception_4a/5x5 <- inception_4a/5x5_reduce
I0403 15:49:27.593387  3671 net.cpp:399] inception_4a/5x5 -> inception_4a/5x5
I0403 15:49:27.594480  3671 net.cpp:141] Setting up inception_4a/5x5
I0403 15:49:27.594511  3671 net.cpp:148] Top shape: 24 48 14 14 (225792)
I0403 15:49:27.594527  3671 net.cpp:156] Memory required for data: 874568736
I0403 15:49:27.594545  3671 layer_factory.hpp:77] Creating layer inception_4a/relu_5x5
I0403 15:49:27.594563  3671 net.cpp:91] Creating Layer inception_4a/relu_5x5
I0403 15:49:27.594579  3671 net.cpp:425] inception_4a/relu_5x5 <- inception_4a/5x5
I0403 15:49:27.594599  3671 net.cpp:386] inception_4a/relu_5x5 -> inception_4a/5x5 (in-place)
I0403 15:49:27.594777  3671 net.cpp:141] Setting up inception_4a/relu_5x5
I0403 15:49:27.594802  3671 net.cpp:148] Top shape: 24 48 14 14 (225792)
I0403 15:49:27.594816  3671 net.cpp:156] Memory required for data: 875471904
I0403 15:49:27.594831  3671 layer_factory.hpp:77] Creating layer inception_4a/pool
I0403 15:49:27.594849  3671 net.cpp:91] Creating Layer inception_4a/pool
I0403 15:49:27.594866  3671 net.cpp:425] inception_4a/pool <- pool3/3x3_s2_pool3/3x3_s2_0_split_3
I0403 15:49:27.594885  3671 net.cpp:399] inception_4a/pool -> inception_4a/pool
I0403 15:49:27.594946  3671 net.cpp:141] Setting up inception_4a/pool
I0403 15:49:27.594969  3671 net.cpp:148] Top shape: 24 480 14 14 (2257920)
I0403 15:49:27.594983  3671 net.cpp:156] Memory required for data: 884503584
I0403 15:49:27.594998  3671 layer_factory.hpp:77] Creating layer inception_4a/pool_proj
I0403 15:49:27.595021  3671 net.cpp:91] Creating Layer inception_4a/pool_proj
I0403 15:49:27.595041  3671 net.cpp:425] inception_4a/pool_proj <- inception_4a/pool
I0403 15:49:27.595058  3671 net.cpp:399] inception_4a/pool_proj -> inception_4a/pool_proj
I0403 15:49:27.596253  3671 net.cpp:141] Setting up inception_4a/pool_proj
I0403 15:49:27.596287  3671 net.cpp:148] Top shape: 24 64 14 14 (301056)
I0403 15:49:27.596318  3671 net.cpp:156] Memory required for data: 885707808
I0403 15:49:27.596338  3671 layer_factory.hpp:77] Creating layer inception_4a/relu_pool_proj
I0403 15:49:27.596357  3671 net.cpp:91] Creating Layer inception_4a/relu_pool_proj
I0403 15:49:27.596374  3671 net.cpp:425] inception_4a/relu_pool_proj <- inception_4a/pool_proj
I0403 15:49:27.596395  3671 net.cpp:386] inception_4a/relu_pool_proj -> inception_4a/pool_proj (in-place)
I0403 15:49:27.596678  3671 net.cpp:141] Setting up inception_4a/relu_pool_proj
I0403 15:49:27.596705  3671 net.cpp:148] Top shape: 24 64 14 14 (301056)
I0403 15:49:27.596722  3671 net.cpp:156] Memory required for data: 886912032
I0403 15:49:27.596737  3671 layer_factory.hpp:77] Creating layer inception_4a/output
I0403 15:49:27.596755  3671 net.cpp:91] Creating Layer inception_4a/output
I0403 15:49:27.596771  3671 net.cpp:425] inception_4a/output <- inception_4a/1x1
I0403 15:49:27.596787  3671 net.cpp:425] inception_4a/output <- inception_4a/3x3
I0403 15:49:27.596803  3671 net.cpp:425] inception_4a/output <- inception_4a/5x5
I0403 15:49:27.596818  3671 net.cpp:425] inception_4a/output <- inception_4a/pool_proj
I0403 15:49:27.596842  3671 net.cpp:399] inception_4a/output -> inception_4a/output
I0403 15:49:27.596886  3671 net.cpp:141] Setting up inception_4a/output
I0403 15:49:27.596909  3671 net.cpp:148] Top shape: 24 512 14 14 (2408448)
I0403 15:49:27.596923  3671 net.cpp:156] Memory required for data: 896545824
I0403 15:49:27.596938  3671 layer_factory.hpp:77] Creating layer inception_4a/output_inception_4a/output_0_split
I0403 15:49:27.596958  3671 net.cpp:91] Creating Layer inception_4a/output_inception_4a/output_0_split
I0403 15:49:27.596974  3671 net.cpp:425] inception_4a/output_inception_4a/output_0_split <- inception_4a/output
I0403 15:49:27.596992  3671 net.cpp:399] inception_4a/output_inception_4a/output_0_split -> inception_4a/output_inception_4a/output_0_split_0
I0403 15:49:27.597015  3671 net.cpp:399] inception_4a/output_inception_4a/output_0_split -> inception_4a/output_inception_4a/output_0_split_1
I0403 15:49:27.597035  3671 net.cpp:399] inception_4a/output_inception_4a/output_0_split -> inception_4a/output_inception_4a/output_0_split_2
I0403 15:49:27.597056  3671 net.cpp:399] inception_4a/output_inception_4a/output_0_split -> inception_4a/output_inception_4a/output_0_split_3
I0403 15:49:27.597075  3671 net.cpp:399] inception_4a/output_inception_4a/output_0_split -> inception_4a/output_inception_4a/output_0_split_4
I0403 15:49:27.597167  3671 net.cpp:141] Setting up inception_4a/output_inception_4a/output_0_split
I0403 15:49:27.597190  3671 net.cpp:148] Top shape: 24 512 14 14 (2408448)
I0403 15:49:27.597206  3671 net.cpp:148] Top shape: 24 512 14 14 (2408448)
I0403 15:49:27.597223  3671 net.cpp:148] Top shape: 24 512 14 14 (2408448)
I0403 15:49:27.597237  3671 net.cpp:148] Top shape: 24 512 14 14 (2408448)
I0403 15:49:27.597254  3671 net.cpp:148] Top shape: 24 512 14 14 (2408448)
I0403 15:49:27.597267  3671 net.cpp:156] Memory required for data: 944714784
I0403 15:49:27.597287  3671 layer_factory.hpp:77] Creating layer loss1/ave_pool
I0403 15:49:27.597307  3671 net.cpp:91] Creating Layer loss1/ave_pool
I0403 15:49:27.597323  3671 net.cpp:425] loss1/ave_pool <- inception_4a/output_inception_4a/output_0_split_0
I0403 15:49:27.597342  3671 net.cpp:399] loss1/ave_pool -> loss1/ave_pool
I0403 15:49:27.597546  3671 net.cpp:141] Setting up loss1/ave_pool
I0403 15:49:27.597574  3671 net.cpp:148] Top shape: 24 512 4 4 (196608)
I0403 15:49:27.597589  3671 net.cpp:156] Memory required for data: 945501216
I0403 15:49:27.597604  3671 layer_factory.hpp:77] Creating layer loss1/conv
I0403 15:49:27.597626  3671 net.cpp:91] Creating Layer loss1/conv
I0403 15:49:27.597645  3671 net.cpp:425] loss1/conv <- loss1/ave_pool
I0403 15:49:27.597666  3671 net.cpp:399] loss1/conv -> loss1/conv
I0403 15:49:27.599059  3671 net.cpp:141] Setting up loss1/conv
I0403 15:49:27.599087  3671 net.cpp:148] Top shape: 24 128 4 4 (49152)
I0403 15:49:27.599117  3671 net.cpp:156] Memory required for data: 945697824
I0403 15:49:27.599136  3671 layer_factory.hpp:77] Creating layer loss1/relu_conv
I0403 15:49:27.599156  3671 net.cpp:91] Creating Layer loss1/relu_conv
I0403 15:49:27.599174  3671 net.cpp:425] loss1/relu_conv <- loss1/conv
I0403 15:49:27.599191  3671 net.cpp:386] loss1/relu_conv -> loss1/conv (in-place)
I0403 15:49:27.599479  3671 net.cpp:141] Setting up loss1/relu_conv
I0403 15:49:27.599505  3671 net.cpp:148] Top shape: 24 128 4 4 (49152)
I0403 15:49:27.599521  3671 net.cpp:156] Memory required for data: 945894432
I0403 15:49:27.599536  3671 layer_factory.hpp:77] Creating layer loss1/fc
I0403 15:49:27.599561  3671 net.cpp:91] Creating Layer loss1/fc
I0403 15:49:27.599580  3671 net.cpp:425] loss1/fc <- loss1/conv
I0403 15:49:27.599598  3671 net.cpp:399] loss1/fc -> loss1/fc
I0403 15:49:27.617305  3671 net.cpp:141] Setting up loss1/fc
I0403 15:49:27.617341  3671 net.cpp:148] Top shape: 24 1024 (24576)
I0403 15:49:27.617357  3671 net.cpp:156] Memory required for data: 945992736
I0403 15:49:27.617374  3671 layer_factory.hpp:77] Creating layer loss1/relu_fc
I0403 15:49:27.617393  3671 net.cpp:91] Creating Layer loss1/relu_fc
I0403 15:49:27.617409  3671 net.cpp:425] loss1/relu_fc <- loss1/fc
I0403 15:49:27.617429  3671 net.cpp:386] loss1/relu_fc -> loss1/fc (in-place)
I0403 15:49:27.617609  3671 net.cpp:141] Setting up loss1/relu_fc
I0403 15:49:27.617632  3671 net.cpp:148] Top shape: 24 1024 (24576)
I0403 15:49:27.617647  3671 net.cpp:156] Memory required for data: 946091040
I0403 15:49:27.617661  3671 layer_factory.hpp:77] Creating layer loss1/drop_fc
I0403 15:49:27.617687  3671 net.cpp:91] Creating Layer loss1/drop_fc
I0403 15:49:27.617705  3671 net.cpp:425] loss1/drop_fc <- loss1/fc
I0403 15:49:27.617724  3671 net.cpp:386] loss1/drop_fc -> loss1/fc (in-place)
I0403 15:49:27.617774  3671 net.cpp:141] Setting up loss1/drop_fc
I0403 15:49:27.617799  3671 net.cpp:148] Top shape: 24 1024 (24576)
I0403 15:49:27.617815  3671 net.cpp:156] Memory required for data: 946189344
I0403 15:49:27.617830  3671 layer_factory.hpp:77] Creating layer loss1/classifier_plantvillage
I0403 15:49:27.617847  3671 net.cpp:91] Creating Layer loss1/classifier_plantvillage
I0403 15:49:27.617862  3671 net.cpp:425] loss1/classifier_plantvillage <- loss1/fc
I0403 15:49:27.617883  3671 net.cpp:399] loss1/classifier_plantvillage -> loss1/classifier_plantvillage
I0403 15:49:27.618815  3671 net.cpp:141] Setting up loss1/classifier_plantvillage
I0403 15:49:27.618844  3671 net.cpp:148] Top shape: 24 38 (912)
I0403 15:49:27.618859  3671 net.cpp:156] Memory required for data: 946192992
I0403 15:49:27.618875  3671 layer_factory.hpp:77] Creating layer loss1/classifier_plantvillage_loss1/classifier_plantvillage_0_split
I0403 15:49:27.618893  3671 net.cpp:91] Creating Layer loss1/classifier_plantvillage_loss1/classifier_plantvillage_0_split
I0403 15:49:27.618908  3671 net.cpp:425] loss1/classifier_plantvillage_loss1/classifier_plantvillage_0_split <- loss1/classifier_plantvillage
I0403 15:49:27.618932  3671 net.cpp:399] loss1/classifier_plantvillage_loss1/classifier_plantvillage_0_split -> loss1/classifier_plantvillage_loss1/classifier_plantvillage_0_split_0
I0403 15:49:27.618952  3671 net.cpp:399] loss1/classifier_plantvillage_loss1/classifier_plantvillage_0_split -> loss1/classifier_plantvillage_loss1/classifier_plantvillage_0_split_1
I0403 15:49:27.618973  3671 net.cpp:399] loss1/classifier_plantvillage_loss1/classifier_plantvillage_0_split -> loss1/classifier_plantvillage_loss1/classifier_plantvillage_0_split_2
I0403 15:49:27.619040  3671 net.cpp:141] Setting up loss1/classifier_plantvillage_loss1/classifier_plantvillage_0_split
I0403 15:49:27.619062  3671 net.cpp:148] Top shape: 24 38 (912)
I0403 15:49:27.619077  3671 net.cpp:148] Top shape: 24 38 (912)
I0403 15:49:27.619092  3671 net.cpp:148] Top shape: 24 38 (912)
I0403 15:49:27.619107  3671 net.cpp:156] Memory required for data: 946203936
I0403 15:49:27.619120  3671 layer_factory.hpp:77] Creating layer inception_4b/1x1
I0403 15:49:27.619145  3671 net.cpp:91] Creating Layer inception_4b/1x1
I0403 15:49:27.619179  3671 net.cpp:425] inception_4b/1x1 <- inception_4a/output_inception_4a/output_0_split_1
I0403 15:49:27.619199  3671 net.cpp:399] inception_4b/1x1 -> inception_4b/1x1
I0403 15:49:27.620796  3671 net.cpp:141] Setting up inception_4b/1x1
I0403 15:49:27.620825  3671 net.cpp:148] Top shape: 24 160 14 14 (752640)
I0403 15:49:27.620839  3671 net.cpp:156] Memory required for data: 949214496
I0403 15:49:27.620857  3671 layer_factory.hpp:77] Creating layer inception_4b/relu_1x1
I0403 15:49:27.620877  3671 net.cpp:91] Creating Layer inception_4b/relu_1x1
I0403 15:49:27.620894  3671 net.cpp:425] inception_4b/relu_1x1 <- inception_4b/1x1
I0403 15:49:27.620911  3671 net.cpp:386] inception_4b/relu_1x1 -> inception_4b/1x1 (in-place)
I0403 15:49:27.621083  3671 net.cpp:141] Setting up inception_4b/relu_1x1
I0403 15:49:27.621110  3671 net.cpp:148] Top shape: 24 160 14 14 (752640)
I0403 15:49:27.621125  3671 net.cpp:156] Memory required for data: 952225056
I0403 15:49:27.621140  3671 layer_factory.hpp:77] Creating layer inception_4b/3x3_reduce
I0403 15:49:27.621162  3671 net.cpp:91] Creating Layer inception_4b/3x3_reduce
I0403 15:49:27.621181  3671 net.cpp:425] inception_4b/3x3_reduce <- inception_4a/output_inception_4a/output_0_split_2
I0403 15:49:27.621199  3671 net.cpp:399] inception_4b/3x3_reduce -> inception_4b/3x3_reduce
I0403 15:49:27.622531  3671 net.cpp:141] Setting up inception_4b/3x3_reduce
I0403 15:49:27.622562  3671 net.cpp:148] Top shape: 24 112 14 14 (526848)
I0403 15:49:27.622578  3671 net.cpp:156] Memory required for data: 954332448
I0403 15:49:27.622596  3671 layer_factory.hpp:77] Creating layer inception_4b/relu_3x3_reduce
I0403 15:49:27.622614  3671 net.cpp:91] Creating Layer inception_4b/relu_3x3_reduce
I0403 15:49:27.622630  3671 net.cpp:425] inception_4b/relu_3x3_reduce <- inception_4b/3x3_reduce
I0403 15:49:27.622648  3671 net.cpp:386] inception_4b/relu_3x3_reduce -> inception_4b/3x3_reduce (in-place)
I0403 15:49:27.622925  3671 net.cpp:141] Setting up inception_4b/relu_3x3_reduce
I0403 15:49:27.622952  3671 net.cpp:148] Top shape: 24 112 14 14 (526848)
I0403 15:49:27.622968  3671 net.cpp:156] Memory required for data: 956439840
I0403 15:49:27.622983  3671 layer_factory.hpp:77] Creating layer inception_4b/3x3
I0403 15:49:27.623005  3671 net.cpp:91] Creating Layer inception_4b/3x3
I0403 15:49:27.623023  3671 net.cpp:425] inception_4b/3x3 <- inception_4b/3x3_reduce
I0403 15:49:27.623042  3671 net.cpp:399] inception_4b/3x3 -> inception_4b/3x3
I0403 15:49:27.625998  3671 net.cpp:141] Setting up inception_4b/3x3
I0403 15:49:27.626027  3671 net.cpp:148] Top shape: 24 224 14 14 (1053696)
I0403 15:49:27.626042  3671 net.cpp:156] Memory required for data: 960654624
I0403 15:49:27.626061  3671 layer_factory.hpp:77] Creating layer inception_4b/relu_3x3
I0403 15:49:27.626078  3671 net.cpp:91] Creating Layer inception_4b/relu_3x3
I0403 15:49:27.626093  3671 net.cpp:425] inception_4b/relu_3x3 <- inception_4b/3x3
I0403 15:49:27.626113  3671 net.cpp:386] inception_4b/relu_3x3 -> inception_4b/3x3 (in-place)
I0403 15:49:27.626293  3671 net.cpp:141] Setting up inception_4b/relu_3x3
I0403 15:49:27.626318  3671 net.cpp:148] Top shape: 24 224 14 14 (1053696)
I0403 15:49:27.626332  3671 net.cpp:156] Memory required for data: 964869408
I0403 15:49:27.626348  3671 layer_factory.hpp:77] Creating layer inception_4b/5x5_reduce
I0403 15:49:27.626369  3671 net.cpp:91] Creating Layer inception_4b/5x5_reduce
I0403 15:49:27.626387  3671 net.cpp:425] inception_4b/5x5_reduce <- inception_4a/output_inception_4a/output_0_split_3
I0403 15:49:27.626410  3671 net.cpp:399] inception_4b/5x5_reduce -> inception_4b/5x5_reduce
I0403 15:49:27.627506  3671 net.cpp:141] Setting up inception_4b/5x5_reduce
I0403 15:49:27.627534  3671 net.cpp:148] Top shape: 24 24 14 14 (112896)
I0403 15:49:27.627549  3671 net.cpp:156] Memory required for data: 965320992
I0403 15:49:27.627580  3671 layer_factory.hpp:77] Creating layer inception_4b/relu_5x5_reduce
I0403 15:49:27.627600  3671 net.cpp:91] Creating Layer inception_4b/relu_5x5_reduce
I0403 15:49:27.627630  3671 net.cpp:425] inception_4b/relu_5x5_reduce <- inception_4b/5x5_reduce
I0403 15:49:27.627648  3671 net.cpp:386] inception_4b/relu_5x5_reduce -> inception_4b/5x5_reduce (in-place)
I0403 15:49:27.627830  3671 net.cpp:141] Setting up inception_4b/relu_5x5_reduce
I0403 15:49:27.627861  3671 net.cpp:148] Top shape: 24 24 14 14 (112896)
I0403 15:49:27.627876  3671 net.cpp:156] Memory required for data: 965772576
I0403 15:49:27.627890  3671 layer_factory.hpp:77] Creating layer inception_4b/5x5
I0403 15:49:27.627912  3671 net.cpp:91] Creating Layer inception_4b/5x5
I0403 15:49:27.627929  3671 net.cpp:425] inception_4b/5x5 <- inception_4b/5x5_reduce
I0403 15:49:27.627948  3671 net.cpp:399] inception_4b/5x5 -> inception_4b/5x5
I0403 15:49:27.629143  3671 net.cpp:141] Setting up inception_4b/5x5
I0403 15:49:27.629169  3671 net.cpp:148] Top shape: 24 64 14 14 (301056)
I0403 15:49:27.629185  3671 net.cpp:156] Memory required for data: 966976800
I0403 15:49:27.629204  3671 layer_factory.hpp:77] Creating layer inception_4b/relu_5x5
I0403 15:49:27.629225  3671 net.cpp:91] Creating Layer inception_4b/relu_5x5
I0403 15:49:27.629242  3671 net.cpp:425] inception_4b/relu_5x5 <- inception_4b/5x5
I0403 15:49:27.629259  3671 net.cpp:386] inception_4b/relu_5x5 -> inception_4b/5x5 (in-place)
I0403 15:49:27.629540  3671 net.cpp:141] Setting up inception_4b/relu_5x5
I0403 15:49:27.629566  3671 net.cpp:148] Top shape: 24 64 14 14 (301056)
I0403 15:49:27.629581  3671 net.cpp:156] Memory required for data: 968181024
I0403 15:49:27.629595  3671 layer_factory.hpp:77] Creating layer inception_4b/pool
I0403 15:49:27.629616  3671 net.cpp:91] Creating Layer inception_4b/pool
I0403 15:49:27.629632  3671 net.cpp:425] inception_4b/pool <- inception_4a/output_inception_4a/output_0_split_4
I0403 15:49:27.629650  3671 net.cpp:399] inception_4b/pool -> inception_4b/pool
I0403 15:49:27.629714  3671 net.cpp:141] Setting up inception_4b/pool
I0403 15:49:27.629736  3671 net.cpp:148] Top shape: 24 512 14 14 (2408448)
I0403 15:49:27.629751  3671 net.cpp:156] Memory required for data: 977814816
I0403 15:49:27.629765  3671 layer_factory.hpp:77] Creating layer inception_4b/pool_proj
I0403 15:49:27.629786  3671 net.cpp:91] Creating Layer inception_4b/pool_proj
I0403 15:49:27.629804  3671 net.cpp:425] inception_4b/pool_proj <- inception_4b/pool
I0403 15:49:27.629824  3671 net.cpp:399] inception_4b/pool_proj -> inception_4b/pool_proj
I0403 15:49:27.631000  3671 net.cpp:141] Setting up inception_4b/pool_proj
I0403 15:49:27.631027  3671 net.cpp:148] Top shape: 24 64 14 14 (301056)
I0403 15:49:27.631043  3671 net.cpp:156] Memory required for data: 979019040
I0403 15:49:27.631062  3671 layer_factory.hpp:77] Creating layer inception_4b/relu_pool_proj
I0403 15:49:27.631080  3671 net.cpp:91] Creating Layer inception_4b/relu_pool_proj
I0403 15:49:27.631098  3671 net.cpp:425] inception_4b/relu_pool_proj <- inception_4b/pool_proj
I0403 15:49:27.631114  3671 net.cpp:386] inception_4b/relu_pool_proj -> inception_4b/pool_proj (in-place)
I0403 15:49:27.631309  3671 net.cpp:141] Setting up inception_4b/relu_pool_proj
I0403 15:49:27.631335  3671 net.cpp:148] Top shape: 24 64 14 14 (301056)
I0403 15:49:27.631350  3671 net.cpp:156] Memory required for data: 980223264
I0403 15:49:27.631366  3671 layer_factory.hpp:77] Creating layer inception_4b/output
I0403 15:49:27.631383  3671 net.cpp:91] Creating Layer inception_4b/output
I0403 15:49:27.631399  3671 net.cpp:425] inception_4b/output <- inception_4b/1x1
I0403 15:49:27.631417  3671 net.cpp:425] inception_4b/output <- inception_4b/3x3
I0403 15:49:27.631433  3671 net.cpp:425] inception_4b/output <- inception_4b/5x5
I0403 15:49:27.631448  3671 net.cpp:425] inception_4b/output <- inception_4b/pool_proj
I0403 15:49:27.631466  3671 net.cpp:399] inception_4b/output -> inception_4b/output
I0403 15:49:27.631513  3671 net.cpp:141] Setting up inception_4b/output
I0403 15:49:27.631537  3671 net.cpp:148] Top shape: 24 512 14 14 (2408448)
I0403 15:49:27.631552  3671 net.cpp:156] Memory required for data: 989857056
I0403 15:49:27.631597  3671 layer_factory.hpp:77] Creating layer inception_4b/output_inception_4b/output_0_split
I0403 15:49:27.631618  3671 net.cpp:91] Creating Layer inception_4b/output_inception_4b/output_0_split
I0403 15:49:27.631634  3671 net.cpp:425] inception_4b/output_inception_4b/output_0_split <- inception_4b/output
I0403 15:49:27.631652  3671 net.cpp:399] inception_4b/output_inception_4b/output_0_split -> inception_4b/output_inception_4b/output_0_split_0
I0403 15:49:27.631672  3671 net.cpp:399] inception_4b/output_inception_4b/output_0_split -> inception_4b/output_inception_4b/output_0_split_1
I0403 15:49:27.631691  3671 net.cpp:399] inception_4b/output_inception_4b/output_0_split -> inception_4b/output_inception_4b/output_0_split_2
I0403 15:49:27.631713  3671 net.cpp:399] inception_4b/output_inception_4b/output_0_split -> inception_4b/output_inception_4b/output_0_split_3
I0403 15:49:27.631798  3671 net.cpp:141] Setting up inception_4b/output_inception_4b/output_0_split
I0403 15:49:27.631820  3671 net.cpp:148] Top shape: 24 512 14 14 (2408448)
I0403 15:49:27.631836  3671 net.cpp:148] Top shape: 24 512 14 14 (2408448)
I0403 15:49:27.631852  3671 net.cpp:148] Top shape: 24 512 14 14 (2408448)
I0403 15:49:27.631867  3671 net.cpp:148] Top shape: 24 512 14 14 (2408448)
I0403 15:49:27.631880  3671 net.cpp:156] Memory required for data: 1028392224
I0403 15:49:27.631894  3671 layer_factory.hpp:77] Creating layer inception_4c/1x1
I0403 15:49:27.631917  3671 net.cpp:91] Creating Layer inception_4c/1x1
I0403 15:49:27.631934  3671 net.cpp:425] inception_4c/1x1 <- inception_4b/output_inception_4b/output_0_split_0
I0403 15:49:27.631955  3671 net.cpp:399] inception_4c/1x1 -> inception_4c/1x1
I0403 15:49:27.633425  3671 net.cpp:141] Setting up inception_4c/1x1
I0403 15:49:27.633455  3671 net.cpp:148] Top shape: 24 128 14 14 (602112)
I0403 15:49:27.633471  3671 net.cpp:156] Memory required for data: 1030800672
I0403 15:49:27.633488  3671 layer_factory.hpp:77] Creating layer inception_4c/relu_1x1
I0403 15:49:27.633507  3671 net.cpp:91] Creating Layer inception_4c/relu_1x1
I0403 15:49:27.633522  3671 net.cpp:425] inception_4c/relu_1x1 <- inception_4c/1x1
I0403 15:49:27.633541  3671 net.cpp:386] inception_4c/relu_1x1 -> inception_4c/1x1 (in-place)
I0403 15:49:27.633719  3671 net.cpp:141] Setting up inception_4c/relu_1x1
I0403 15:49:27.633744  3671 net.cpp:148] Top shape: 24 128 14 14 (602112)
I0403 15:49:27.633759  3671 net.cpp:156] Memory required for data: 1033209120
I0403 15:49:27.633774  3671 layer_factory.hpp:77] Creating layer inception_4c/3x3_reduce
I0403 15:49:27.633795  3671 net.cpp:91] Creating Layer inception_4c/3x3_reduce
I0403 15:49:27.633813  3671 net.cpp:425] inception_4c/3x3_reduce <- inception_4b/output_inception_4b/output_0_split_1
I0403 15:49:27.633833  3671 net.cpp:399] inception_4c/3x3_reduce -> inception_4c/3x3_reduce
I0403 15:49:27.635769  3671 net.cpp:141] Setting up inception_4c/3x3_reduce
I0403 15:49:27.635797  3671 net.cpp:148] Top shape: 24 128 14 14 (602112)
I0403 15:49:27.635813  3671 net.cpp:156] Memory required for data: 1035617568
I0403 15:49:27.635844  3671 layer_factory.hpp:77] Creating layer inception_4c/relu_3x3_reduce
I0403 15:49:27.635864  3671 net.cpp:91] Creating Layer inception_4c/relu_3x3_reduce
I0403 15:49:27.635881  3671 net.cpp:425] inception_4c/relu_3x3_reduce <- inception_4c/3x3_reduce
I0403 15:49:27.635900  3671 net.cpp:386] inception_4c/relu_3x3_reduce -> inception_4c/3x3_reduce (in-place)
I0403 15:49:27.636193  3671 net.cpp:141] Setting up inception_4c/relu_3x3_reduce
I0403 15:49:27.636222  3671 net.cpp:148] Top shape: 24 128 14 14 (602112)
I0403 15:49:27.636237  3671 net.cpp:156] Memory required for data: 1038026016
I0403 15:49:27.636251  3671 layer_factory.hpp:77] Creating layer inception_4c/3x3
I0403 15:49:27.636278  3671 net.cpp:91] Creating Layer inception_4c/3x3
I0403 15:49:27.636297  3671 net.cpp:425] inception_4c/3x3 <- inception_4c/3x3_reduce
I0403 15:49:27.636320  3671 net.cpp:399] inception_4c/3x3 -> inception_4c/3x3
I0403 15:49:27.639977  3671 net.cpp:141] Setting up inception_4c/3x3
I0403 15:49:27.640020  3671 net.cpp:148] Top shape: 24 256 14 14 (1204224)
I0403 15:49:27.640035  3671 net.cpp:156] Memory required for data: 1042842912
I0403 15:49:27.640067  3671 layer_factory.hpp:77] Creating layer inception_4c/relu_3x3
I0403 15:49:27.640089  3671 net.cpp:91] Creating Layer inception_4c/relu_3x3
I0403 15:49:27.640105  3671 net.cpp:425] inception_4c/relu_3x3 <- inception_4c/3x3
I0403 15:49:27.640121  3671 net.cpp:386] inception_4c/relu_3x3 -> inception_4c/3x3 (in-place)
I0403 15:49:27.640303  3671 net.cpp:141] Setting up inception_4c/relu_3x3
I0403 15:49:27.640328  3671 net.cpp:148] Top shape: 24 256 14 14 (1204224)
I0403 15:49:27.640342  3671 net.cpp:156] Memory required for data: 1047659808
I0403 15:49:27.640357  3671 layer_factory.hpp:77] Creating layer inception_4c/5x5_reduce
I0403 15:49:27.640379  3671 net.cpp:91] Creating Layer inception_4c/5x5_reduce
I0403 15:49:27.640396  3671 net.cpp:425] inception_4c/5x5_reduce <- inception_4b/output_inception_4b/output_0_split_2
I0403 15:49:27.640419  3671 net.cpp:399] inception_4c/5x5_reduce -> inception_4c/5x5_reduce
I0403 15:49:27.641495  3671 net.cpp:141] Setting up inception_4c/5x5_reduce
I0403 15:49:27.641523  3671 net.cpp:148] Top shape: 24 24 14 14 (112896)
I0403 15:49:27.641538  3671 net.cpp:156] Memory required for data: 1048111392
I0403 15:49:27.641556  3671 layer_factory.hpp:77] Creating layer inception_4c/relu_5x5_reduce
I0403 15:49:27.641576  3671 net.cpp:91] Creating Layer inception_4c/relu_5x5_reduce
I0403 15:49:27.641592  3671 net.cpp:425] inception_4c/relu_5x5_reduce <- inception_4c/5x5_reduce
I0403 15:49:27.641608  3671 net.cpp:386] inception_4c/relu_5x5_reduce -> inception_4c/5x5_reduce (in-place)
I0403 15:49:27.641789  3671 net.cpp:141] Setting up inception_4c/relu_5x5_reduce
I0403 15:49:27.641816  3671 net.cpp:148] Top shape: 24 24 14 14 (112896)
I0403 15:49:27.641831  3671 net.cpp:156] Memory required for data: 1048562976
I0403 15:49:27.641845  3671 layer_factory.hpp:77] Creating layer inception_4c/5x5
I0403 15:49:27.641866  3671 net.cpp:91] Creating Layer inception_4c/5x5
I0403 15:49:27.641885  3671 net.cpp:425] inception_4c/5x5 <- inception_4c/5x5_reduce
I0403 15:49:27.641902  3671 net.cpp:399] inception_4c/5x5 -> inception_4c/5x5
I0403 15:49:27.643127  3671 net.cpp:141] Setting up inception_4c/5x5
I0403 15:49:27.643157  3671 net.cpp:148] Top shape: 24 64 14 14 (301056)
I0403 15:49:27.643172  3671 net.cpp:156] Memory required for data: 1049767200
I0403 15:49:27.643192  3671 layer_factory.hpp:77] Creating layer inception_4c/relu_5x5
I0403 15:49:27.643208  3671 net.cpp:91] Creating Layer inception_4c/relu_5x5
I0403 15:49:27.643225  3671 net.cpp:425] inception_4c/relu_5x5 <- inception_4c/5x5
I0403 15:49:27.643245  3671 net.cpp:386] inception_4c/relu_5x5 -> inception_4c/5x5 (in-place)
I0403 15:49:27.643553  3671 net.cpp:141] Setting up inception_4c/relu_5x5
I0403 15:49:27.643592  3671 net.cpp:148] Top shape: 24 64 14 14 (301056)
I0403 15:49:27.643607  3671 net.cpp:156] Memory required for data: 1050971424
I0403 15:49:27.643622  3671 layer_factory.hpp:77] Creating layer inception_4c/pool
I0403 15:49:27.643640  3671 net.cpp:91] Creating Layer inception_4c/pool
I0403 15:49:27.643654  3671 net.cpp:425] inception_4c/pool <- inception_4b/output_inception_4b/output_0_split_3
I0403 15:49:27.643674  3671 net.cpp:399] inception_4c/pool -> inception_4c/pool
I0403 15:49:27.643738  3671 net.cpp:141] Setting up inception_4c/pool
I0403 15:49:27.643761  3671 net.cpp:148] Top shape: 24 512 14 14 (2408448)
I0403 15:49:27.643775  3671 net.cpp:156] Memory required for data: 1060605216
I0403 15:49:27.643790  3671 layer_factory.hpp:77] Creating layer inception_4c/pool_proj
I0403 15:49:27.643811  3671 net.cpp:91] Creating Layer inception_4c/pool_proj
I0403 15:49:27.643829  3671 net.cpp:425] inception_4c/pool_proj <- inception_4c/pool
I0403 15:49:27.643848  3671 net.cpp:399] inception_4c/pool_proj -> inception_4c/pool_proj
I0403 15:49:27.645042  3671 net.cpp:141] Setting up inception_4c/pool_proj
I0403 15:49:27.645069  3671 net.cpp:148] Top shape: 24 64 14 14 (301056)
I0403 15:49:27.645097  3671 net.cpp:156] Memory required for data: 1061809440
I0403 15:49:27.645117  3671 layer_factory.hpp:77] Creating layer inception_4c/relu_pool_proj
I0403 15:49:27.645136  3671 net.cpp:91] Creating Layer inception_4c/relu_pool_proj
I0403 15:49:27.645153  3671 net.cpp:425] inception_4c/relu_pool_proj <- inception_4c/pool_proj
I0403 15:49:27.645170  3671 net.cpp:386] inception_4c/relu_pool_proj -> inception_4c/pool_proj (in-place)
I0403 15:49:27.645354  3671 net.cpp:141] Setting up inception_4c/relu_pool_proj
I0403 15:49:27.645380  3671 net.cpp:148] Top shape: 24 64 14 14 (301056)
I0403 15:49:27.645395  3671 net.cpp:156] Memory required for data: 1063013664
I0403 15:49:27.645409  3671 layer_factory.hpp:77] Creating layer inception_4c/output
I0403 15:49:27.645426  3671 net.cpp:91] Creating Layer inception_4c/output
I0403 15:49:27.645442  3671 net.cpp:425] inception_4c/output <- inception_4c/1x1
I0403 15:49:27.645458  3671 net.cpp:425] inception_4c/output <- inception_4c/3x3
I0403 15:49:27.645474  3671 net.cpp:425] inception_4c/output <- inception_4c/5x5
I0403 15:49:27.645489  3671 net.cpp:425] inception_4c/output <- inception_4c/pool_proj
I0403 15:49:27.645506  3671 net.cpp:399] inception_4c/output -> inception_4c/output
I0403 15:49:27.645552  3671 net.cpp:141] Setting up inception_4c/output
I0403 15:49:27.645576  3671 net.cpp:148] Top shape: 24 512 14 14 (2408448)
I0403 15:49:27.645589  3671 net.cpp:156] Memory required for data: 1072647456
I0403 15:49:27.645603  3671 layer_factory.hpp:77] Creating layer inception_4c/output_inception_4c/output_0_split
I0403 15:49:27.645622  3671 net.cpp:91] Creating Layer inception_4c/output_inception_4c/output_0_split
I0403 15:49:27.645638  3671 net.cpp:425] inception_4c/output_inception_4c/output_0_split <- inception_4c/output
I0403 15:49:27.645654  3671 net.cpp:399] inception_4c/output_inception_4c/output_0_split -> inception_4c/output_inception_4c/output_0_split_0
I0403 15:49:27.645674  3671 net.cpp:399] inception_4c/output_inception_4c/output_0_split -> inception_4c/output_inception_4c/output_0_split_1
I0403 15:49:27.645694  3671 net.cpp:399] inception_4c/output_inception_4c/output_0_split -> inception_4c/output_inception_4c/output_0_split_2
I0403 15:49:27.645714  3671 net.cpp:399] inception_4c/output_inception_4c/output_0_split -> inception_4c/output_inception_4c/output_0_split_3
I0403 15:49:27.645798  3671 net.cpp:141] Setting up inception_4c/output_inception_4c/output_0_split
I0403 15:49:27.645820  3671 net.cpp:148] Top shape: 24 512 14 14 (2408448)
I0403 15:49:27.645836  3671 net.cpp:148] Top shape: 24 512 14 14 (2408448)
I0403 15:49:27.645853  3671 net.cpp:148] Top shape: 24 512 14 14 (2408448)
I0403 15:49:27.645867  3671 net.cpp:148] Top shape: 24 512 14 14 (2408448)
I0403 15:49:27.645881  3671 net.cpp:156] Memory required for data: 1111182624
I0403 15:49:27.645895  3671 layer_factory.hpp:77] Creating layer inception_4d/1x1
I0403 15:49:27.645916  3671 net.cpp:91] Creating Layer inception_4d/1x1
I0403 15:49:27.645933  3671 net.cpp:425] inception_4d/1x1 <- inception_4c/output_inception_4c/output_0_split_0
I0403 15:49:27.645954  3671 net.cpp:399] inception_4d/1x1 -> inception_4d/1x1
I0403 15:49:27.647332  3671 net.cpp:141] Setting up inception_4d/1x1
I0403 15:49:27.647361  3671 net.cpp:148] Top shape: 24 112 14 14 (526848)
I0403 15:49:27.647375  3671 net.cpp:156] Memory required for data: 1113290016
I0403 15:49:27.647393  3671 layer_factory.hpp:77] Creating layer inception_4d/relu_1x1
I0403 15:49:27.647410  3671 net.cpp:91] Creating Layer inception_4d/relu_1x1
I0403 15:49:27.647426  3671 net.cpp:425] inception_4d/relu_1x1 <- inception_4d/1x1
I0403 15:49:27.647445  3671 net.cpp:386] inception_4d/relu_1x1 -> inception_4d/1x1 (in-place)
I0403 15:49:27.647642  3671 net.cpp:141] Setting up inception_4d/relu_1x1
I0403 15:49:27.647666  3671 net.cpp:148] Top shape: 24 112 14 14 (526848)
I0403 15:49:27.647680  3671 net.cpp:156] Memory required for data: 1115397408
I0403 15:49:27.647694  3671 layer_factory.hpp:77] Creating layer inception_4d/3x3_reduce
I0403 15:49:27.647729  3671 net.cpp:91] Creating Layer inception_4d/3x3_reduce
I0403 15:49:27.647747  3671 net.cpp:425] inception_4d/3x3_reduce <- inception_4c/output_inception_4c/output_0_split_1
I0403 15:49:27.647768  3671 net.cpp:399] inception_4d/3x3_reduce -> inception_4d/3x3_reduce
I0403 15:49:27.649246  3671 net.cpp:141] Setting up inception_4d/3x3_reduce
I0403 15:49:27.649278  3671 net.cpp:148] Top shape: 24 144 14 14 (677376)
I0403 15:49:27.649296  3671 net.cpp:156] Memory required for data: 1118106912
I0403 15:49:27.649313  3671 layer_factory.hpp:77] Creating layer inception_4d/relu_3x3_reduce
I0403 15:49:27.649330  3671 net.cpp:91] Creating Layer inception_4d/relu_3x3_reduce
I0403 15:49:27.649346  3671 net.cpp:425] inception_4d/relu_3x3_reduce <- inception_4d/3x3_reduce
I0403 15:49:27.649365  3671 net.cpp:386] inception_4d/relu_3x3_reduce -> inception_4d/3x3_reduce (in-place)
I0403 15:49:27.649648  3671 net.cpp:141] Setting up inception_4d/relu_3x3_reduce
I0403 15:49:27.649677  3671 net.cpp:148] Top shape: 24 144 14 14 (677376)
I0403 15:49:27.649691  3671 net.cpp:156] Memory required for data: 1120816416
I0403 15:49:27.649708  3671 layer_factory.hpp:77] Creating layer inception_4d/3x3
I0403 15:49:27.649729  3671 net.cpp:91] Creating Layer inception_4d/3x3
I0403 15:49:27.649746  3671 net.cpp:425] inception_4d/3x3 <- inception_4d/3x3_reduce
I0403 15:49:27.649765  3671 net.cpp:399] inception_4d/3x3 -> inception_4d/3x3
I0403 15:49:27.654003  3671 net.cpp:141] Setting up inception_4d/3x3
I0403 15:49:27.654031  3671 net.cpp:148] Top shape: 24 288 14 14 (1354752)
I0403 15:49:27.654047  3671 net.cpp:156] Memory required for data: 1126235424
I0403 15:49:27.654064  3671 layer_factory.hpp:77] Creating layer inception_4d/relu_3x3
I0403 15:49:27.654084  3671 net.cpp:91] Creating Layer inception_4d/relu_3x3
I0403 15:49:27.654103  3671 net.cpp:425] inception_4d/relu_3x3 <- inception_4d/3x3
I0403 15:49:27.654119  3671 net.cpp:386] inception_4d/relu_3x3 -> inception_4d/3x3 (in-place)
I0403 15:49:27.654306  3671 net.cpp:141] Setting up inception_4d/relu_3x3
I0403 15:49:27.654331  3671 net.cpp:148] Top shape: 24 288 14 14 (1354752)
I0403 15:49:27.654345  3671 net.cpp:156] Memory required for data: 1131654432
I0403 15:49:27.654361  3671 layer_factory.hpp:77] Creating layer inception_4d/5x5_reduce
I0403 15:49:27.654383  3671 net.cpp:91] Creating Layer inception_4d/5x5_reduce
I0403 15:49:27.654400  3671 net.cpp:425] inception_4d/5x5_reduce <- inception_4c/output_inception_4c/output_0_split_2
I0403 15:49:27.654419  3671 net.cpp:399] inception_4d/5x5_reduce -> inception_4d/5x5_reduce
I0403 15:49:27.655593  3671 net.cpp:141] Setting up inception_4d/5x5_reduce
I0403 15:49:27.655621  3671 net.cpp:148] Top shape: 24 32 14 14 (150528)
I0403 15:49:27.655637  3671 net.cpp:156] Memory required for data: 1132256544
I0403 15:49:27.655654  3671 layer_factory.hpp:77] Creating layer inception_4d/relu_5x5_reduce
I0403 15:49:27.655671  3671 net.cpp:91] Creating Layer inception_4d/relu_5x5_reduce
I0403 15:49:27.655688  3671 net.cpp:425] inception_4d/relu_5x5_reduce <- inception_4d/5x5_reduce
I0403 15:49:27.655707  3671 net.cpp:386] inception_4d/relu_5x5_reduce -> inception_4d/5x5_reduce (in-place)
I0403 15:49:27.655890  3671 net.cpp:141] Setting up inception_4d/relu_5x5_reduce
I0403 15:49:27.655915  3671 net.cpp:148] Top shape: 24 32 14 14 (150528)
I0403 15:49:27.655930  3671 net.cpp:156] Memory required for data: 1132858656
I0403 15:49:27.655943  3671 layer_factory.hpp:77] Creating layer inception_4d/5x5
I0403 15:49:27.655966  3671 net.cpp:91] Creating Layer inception_4d/5x5
I0403 15:49:27.655983  3671 net.cpp:425] inception_4d/5x5 <- inception_4d/5x5_reduce
I0403 15:49:27.656004  3671 net.cpp:399] inception_4d/5x5 -> inception_4d/5x5
I0403 15:49:27.657469  3671 net.cpp:141] Setting up inception_4d/5x5
I0403 15:49:27.657498  3671 net.cpp:148] Top shape: 24 64 14 14 (301056)
I0403 15:49:27.657515  3671 net.cpp:156] Memory required for data: 1134062880
I0403 15:49:27.657533  3671 layer_factory.hpp:77] Creating layer inception_4d/relu_5x5
I0403 15:49:27.657564  3671 net.cpp:91] Creating Layer inception_4d/relu_5x5
I0403 15:49:27.657582  3671 net.cpp:425] inception_4d/relu_5x5 <- inception_4d/5x5
I0403 15:49:27.657598  3671 net.cpp:386] inception_4d/relu_5x5 -> inception_4d/5x5 (in-place)
I0403 15:49:27.657901  3671 net.cpp:141] Setting up inception_4d/relu_5x5
I0403 15:49:27.657928  3671 net.cpp:148] Top shape: 24 64 14 14 (301056)
I0403 15:49:27.657943  3671 net.cpp:156] Memory required for data: 1135267104
I0403 15:49:27.657958  3671 layer_factory.hpp:77] Creating layer inception_4d/pool
I0403 15:49:27.657976  3671 net.cpp:91] Creating Layer inception_4d/pool
I0403 15:49:27.657992  3671 net.cpp:425] inception_4d/pool <- inception_4c/output_inception_4c/output_0_split_3
I0403 15:49:27.658010  3671 net.cpp:399] inception_4d/pool -> inception_4d/pool
I0403 15:49:27.658079  3671 net.cpp:141] Setting up inception_4d/pool
I0403 15:49:27.658102  3671 net.cpp:148] Top shape: 24 512 14 14 (2408448)
I0403 15:49:27.658118  3671 net.cpp:156] Memory required for data: 1144900896
I0403 15:49:27.658131  3671 layer_factory.hpp:77] Creating layer inception_4d/pool_proj
I0403 15:49:27.658154  3671 net.cpp:91] Creating Layer inception_4d/pool_proj
I0403 15:49:27.658169  3671 net.cpp:425] inception_4d/pool_proj <- inception_4d/pool
I0403 15:49:27.658190  3671 net.cpp:399] inception_4d/pool_proj -> inception_4d/pool_proj
I0403 15:49:27.659956  3671 net.cpp:141] Setting up inception_4d/pool_proj
I0403 15:49:27.659984  3671 net.cpp:148] Top shape: 24 64 14 14 (301056)
I0403 15:49:27.659999  3671 net.cpp:156] Memory required for data: 1146105120
I0403 15:49:27.660017  3671 layer_factory.hpp:77] Creating layer inception_4d/relu_pool_proj
I0403 15:49:27.660037  3671 net.cpp:91] Creating Layer inception_4d/relu_pool_proj
I0403 15:49:27.660054  3671 net.cpp:425] inception_4d/relu_pool_proj <- inception_4d/pool_proj
I0403 15:49:27.660071  3671 net.cpp:386] inception_4d/relu_pool_proj -> inception_4d/pool_proj (in-place)
I0403 15:49:27.660254  3671 net.cpp:141] Setting up inception_4d/relu_pool_proj
I0403 15:49:27.660281  3671 net.cpp:148] Top shape: 24 64 14 14 (301056)
I0403 15:49:27.660297  3671 net.cpp:156] Memory required for data: 1147309344
I0403 15:49:27.660312  3671 layer_factory.hpp:77] Creating layer inception_4d/output
I0403 15:49:27.660331  3671 net.cpp:91] Creating Layer inception_4d/output
I0403 15:49:27.660347  3671 net.cpp:425] inception_4d/output <- inception_4d/1x1
I0403 15:49:27.660364  3671 net.cpp:425] inception_4d/output <- inception_4d/3x3
I0403 15:49:27.660380  3671 net.cpp:425] inception_4d/output <- inception_4d/5x5
I0403 15:49:27.660395  3671 net.cpp:425] inception_4d/output <- inception_4d/pool_proj
I0403 15:49:27.660413  3671 net.cpp:399] inception_4d/output -> inception_4d/output
I0403 15:49:27.660460  3671 net.cpp:141] Setting up inception_4d/output
I0403 15:49:27.660482  3671 net.cpp:148] Top shape: 24 528 14 14 (2483712)
I0403 15:49:27.660496  3671 net.cpp:156] Memory required for data: 1157244192
I0403 15:49:27.660511  3671 layer_factory.hpp:77] Creating layer inception_4d/output_inception_4d/output_0_split
I0403 15:49:27.660528  3671 net.cpp:91] Creating Layer inception_4d/output_inception_4d/output_0_split
I0403 15:49:27.660543  3671 net.cpp:425] inception_4d/output_inception_4d/output_0_split <- inception_4d/output
I0403 15:49:27.660562  3671 net.cpp:399] inception_4d/output_inception_4d/output_0_split -> inception_4d/output_inception_4d/output_0_split_0
I0403 15:49:27.660583  3671 net.cpp:399] inception_4d/output_inception_4d/output_0_split -> inception_4d/output_inception_4d/output_0_split_1
I0403 15:49:27.660604  3671 net.cpp:399] inception_4d/output_inception_4d/output_0_split -> inception_4d/output_inception_4d/output_0_split_2
I0403 15:49:27.660624  3671 net.cpp:399] inception_4d/output_inception_4d/output_0_split -> inception_4d/output_inception_4d/output_0_split_3
I0403 15:49:27.660650  3671 net.cpp:399] inception_4d/output_inception_4d/output_0_split -> inception_4d/output_inception_4d/output_0_split_4
I0403 15:49:27.660749  3671 net.cpp:141] Setting up inception_4d/output_inception_4d/output_0_split
I0403 15:49:27.660784  3671 net.cpp:148] Top shape: 24 528 14 14 (2483712)
I0403 15:49:27.660800  3671 net.cpp:148] Top shape: 24 528 14 14 (2483712)
I0403 15:49:27.660816  3671 net.cpp:148] Top shape: 24 528 14 14 (2483712)
I0403 15:49:27.660831  3671 net.cpp:148] Top shape: 24 528 14 14 (2483712)
I0403 15:49:27.660846  3671 net.cpp:148] Top shape: 24 528 14 14 (2483712)
I0403 15:49:27.660861  3671 net.cpp:156] Memory required for data: 1206918432
I0403 15:49:27.660874  3671 layer_factory.hpp:77] Creating layer loss2/ave_pool
I0403 15:49:27.660892  3671 net.cpp:91] Creating Layer loss2/ave_pool
I0403 15:49:27.660907  3671 net.cpp:425] loss2/ave_pool <- inception_4d/output_inception_4d/output_0_split_0
I0403 15:49:27.660931  3671 net.cpp:399] loss2/ave_pool -> loss2/ave_pool
I0403 15:49:27.661237  3671 net.cpp:141] Setting up loss2/ave_pool
I0403 15:49:27.661262  3671 net.cpp:148] Top shape: 24 528 4 4 (202752)
I0403 15:49:27.661283  3671 net.cpp:156] Memory required for data: 1207729440
I0403 15:49:27.661298  3671 layer_factory.hpp:77] Creating layer loss2/conv
I0403 15:49:27.661321  3671 net.cpp:91] Creating Layer loss2/conv
I0403 15:49:27.661339  3671 net.cpp:425] loss2/conv <- loss2/ave_pool
I0403 15:49:27.661360  3671 net.cpp:399] loss2/conv -> loss2/conv
I0403 15:49:27.663218  3671 net.cpp:141] Setting up loss2/conv
I0403 15:49:27.663246  3671 net.cpp:148] Top shape: 24 128 4 4 (49152)
I0403 15:49:27.663262  3671 net.cpp:156] Memory required for data: 1207926048
I0403 15:49:27.663297  3671 layer_factory.hpp:77] Creating layer loss2/relu_conv
I0403 15:49:27.663319  3671 net.cpp:91] Creating Layer loss2/relu_conv
I0403 15:49:27.663336  3671 net.cpp:425] loss2/relu_conv <- loss2/conv
I0403 15:49:27.663354  3671 net.cpp:386] loss2/relu_conv -> loss2/conv (in-place)
I0403 15:49:27.663655  3671 net.cpp:141] Setting up loss2/relu_conv
I0403 15:49:27.663681  3671 net.cpp:148] Top shape: 24 128 4 4 (49152)
I0403 15:49:27.663694  3671 net.cpp:156] Memory required for data: 1208122656
I0403 15:49:27.663709  3671 layer_factory.hpp:77] Creating layer loss2/fc
I0403 15:49:27.663729  3671 net.cpp:91] Creating Layer loss2/fc
I0403 15:49:27.663748  3671 net.cpp:425] loss2/fc <- loss2/conv
I0403 15:49:27.663769  3671 net.cpp:399] loss2/fc -> loss2/fc
I0403 15:49:27.681211  3671 net.cpp:141] Setting up loss2/fc
I0403 15:49:27.681246  3671 net.cpp:148] Top shape: 24 1024 (24576)
I0403 15:49:27.681263  3671 net.cpp:156] Memory required for data: 1208220960
I0403 15:49:27.681285  3671 layer_factory.hpp:77] Creating layer loss2/relu_fc
I0403 15:49:27.681304  3671 net.cpp:91] Creating Layer loss2/relu_fc
I0403 15:49:27.681320  3671 net.cpp:425] loss2/relu_fc <- loss2/fc
I0403 15:49:27.681340  3671 net.cpp:386] loss2/relu_fc -> loss2/fc (in-place)
I0403 15:49:27.681638  3671 net.cpp:141] Setting up loss2/relu_fc
I0403 15:49:27.681663  3671 net.cpp:148] Top shape: 24 1024 (24576)
I0403 15:49:27.681677  3671 net.cpp:156] Memory required for data: 1208319264
I0403 15:49:27.681691  3671 layer_factory.hpp:77] Creating layer loss2/drop_fc
I0403 15:49:27.681710  3671 net.cpp:91] Creating Layer loss2/drop_fc
I0403 15:49:27.681725  3671 net.cpp:425] loss2/drop_fc <- loss2/fc
I0403 15:49:27.681743  3671 net.cpp:386] loss2/drop_fc -> loss2/fc (in-place)
I0403 15:49:27.681794  3671 net.cpp:141] Setting up loss2/drop_fc
I0403 15:49:27.681816  3671 net.cpp:148] Top shape: 24 1024 (24576)
I0403 15:49:27.681830  3671 net.cpp:156] Memory required for data: 1208417568
I0403 15:49:27.681844  3671 layer_factory.hpp:77] Creating layer loss2/classifier_plantvillage
I0403 15:49:27.681861  3671 net.cpp:91] Creating Layer loss2/classifier_plantvillage
I0403 15:49:27.681877  3671 net.cpp:425] loss2/classifier_plantvillage <- loss2/fc
I0403 15:49:27.681900  3671 net.cpp:399] loss2/classifier_plantvillage -> loss2/classifier_plantvillage
I0403 15:49:27.682309  3671 net.cpp:141] Setting up loss2/classifier_plantvillage
I0403 15:49:27.682334  3671 net.cpp:148] Top shape: 24 38 (912)
I0403 15:49:27.682363  3671 net.cpp:156] Memory required for data: 1208421216
I0403 15:49:27.682381  3671 layer_factory.hpp:77] Creating layer loss2/classifier_plantvillage_loss2/classifier_plantvillage_0_split
I0403 15:49:27.682401  3671 net.cpp:91] Creating Layer loss2/classifier_plantvillage_loss2/classifier_plantvillage_0_split
I0403 15:49:27.682418  3671 net.cpp:425] loss2/classifier_plantvillage_loss2/classifier_plantvillage_0_split <- loss2/classifier_plantvillage
I0403 15:49:27.682437  3671 net.cpp:399] loss2/classifier_plantvillage_loss2/classifier_plantvillage_0_split -> loss2/classifier_plantvillage_loss2/classifier_plantvillage_0_split_0
I0403 15:49:27.682458  3671 net.cpp:399] loss2/classifier_plantvillage_loss2/classifier_plantvillage_0_split -> loss2/classifier_plantvillage_loss2/classifier_plantvillage_0_split_1
I0403 15:49:27.682478  3671 net.cpp:399] loss2/classifier_plantvillage_loss2/classifier_plantvillage_0_split -> loss2/classifier_plantvillage_loss2/classifier_plantvillage_0_split_2
I0403 15:49:27.682554  3671 net.cpp:141] Setting up loss2/classifier_plantvillage_loss2/classifier_plantvillage_0_split
I0403 15:49:27.682576  3671 net.cpp:148] Top shape: 24 38 (912)
I0403 15:49:27.682592  3671 net.cpp:148] Top shape: 24 38 (912)
I0403 15:49:27.682608  3671 net.cpp:148] Top shape: 24 38 (912)
I0403 15:49:27.682621  3671 net.cpp:156] Memory required for data: 1208432160
I0403 15:49:27.682636  3671 layer_factory.hpp:77] Creating layer inception_4e/1x1
I0403 15:49:27.682657  3671 net.cpp:91] Creating Layer inception_4e/1x1
I0403 15:49:27.682675  3671 net.cpp:425] inception_4e/1x1 <- inception_4d/output_inception_4d/output_0_split_1
I0403 15:49:27.682693  3671 net.cpp:399] inception_4e/1x1 -> inception_4e/1x1
I0403 15:49:27.684476  3671 net.cpp:141] Setting up inception_4e/1x1
I0403 15:49:27.684505  3671 net.cpp:148] Top shape: 24 256 14 14 (1204224)
I0403 15:49:27.684521  3671 net.cpp:156] Memory required for data: 1213249056
I0403 15:49:27.684540  3671 layer_factory.hpp:77] Creating layer inception_4e/relu_1x1
I0403 15:49:27.684556  3671 net.cpp:91] Creating Layer inception_4e/relu_1x1
I0403 15:49:27.684572  3671 net.cpp:425] inception_4e/relu_1x1 <- inception_4e/1x1
I0403 15:49:27.684589  3671 net.cpp:386] inception_4e/relu_1x1 -> inception_4e/1x1 (in-place)
I0403 15:49:27.684886  3671 net.cpp:141] Setting up inception_4e/relu_1x1
I0403 15:49:27.684914  3671 net.cpp:148] Top shape: 24 256 14 14 (1204224)
I0403 15:49:27.684931  3671 net.cpp:156] Memory required for data: 1218065952
I0403 15:49:27.684945  3671 layer_factory.hpp:77] Creating layer inception_4e/3x3_reduce
I0403 15:49:27.684967  3671 net.cpp:91] Creating Layer inception_4e/3x3_reduce
I0403 15:49:27.684984  3671 net.cpp:425] inception_4e/3x3_reduce <- inception_4d/output_inception_4d/output_0_split_2
I0403 15:49:27.685003  3671 net.cpp:399] inception_4e/3x3_reduce -> inception_4e/3x3_reduce
I0403 15:49:27.687109  3671 net.cpp:141] Setting up inception_4e/3x3_reduce
I0403 15:49:27.687137  3671 net.cpp:148] Top shape: 24 160 14 14 (752640)
I0403 15:49:27.687152  3671 net.cpp:156] Memory required for data: 1221076512
I0403 15:49:27.687170  3671 layer_factory.hpp:77] Creating layer inception_4e/relu_3x3_reduce
I0403 15:49:27.687189  3671 net.cpp:91] Creating Layer inception_4e/relu_3x3_reduce
I0403 15:49:27.687206  3671 net.cpp:425] inception_4e/relu_3x3_reduce <- inception_4e/3x3_reduce
I0403 15:49:27.687224  3671 net.cpp:386] inception_4e/relu_3x3_reduce -> inception_4e/3x3_reduce (in-place)
I0403 15:49:27.687415  3671 net.cpp:141] Setting up inception_4e/relu_3x3_reduce
I0403 15:49:27.687439  3671 net.cpp:148] Top shape: 24 160 14 14 (752640)
I0403 15:49:27.687453  3671 net.cpp:156] Memory required for data: 1224087072
I0403 15:49:27.687469  3671 layer_factory.hpp:77] Creating layer inception_4e/3x3
I0403 15:49:27.687490  3671 net.cpp:91] Creating Layer inception_4e/3x3
I0403 15:49:27.687507  3671 net.cpp:425] inception_4e/3x3 <- inception_4e/3x3_reduce
I0403 15:49:27.687530  3671 net.cpp:399] inception_4e/3x3 -> inception_4e/3x3
I0403 15:49:27.692486  3671 net.cpp:141] Setting up inception_4e/3x3
I0403 15:49:27.692526  3671 net.cpp:148] Top shape: 24 320 14 14 (1505280)
I0403 15:49:27.692541  3671 net.cpp:156] Memory required for data: 1230108192
I0403 15:49:27.692559  3671 layer_factory.hpp:77] Creating layer inception_4e/relu_3x3
I0403 15:49:27.692577  3671 net.cpp:91] Creating Layer inception_4e/relu_3x3
I0403 15:49:27.692594  3671 net.cpp:425] inception_4e/relu_3x3 <- inception_4e/3x3
I0403 15:49:27.692612  3671 net.cpp:386] inception_4e/relu_3x3 -> inception_4e/3x3 (in-place)
I0403 15:49:27.692912  3671 net.cpp:141] Setting up inception_4e/relu_3x3
I0403 15:49:27.692937  3671 net.cpp:148] Top shape: 24 320 14 14 (1505280)
I0403 15:49:27.692952  3671 net.cpp:156] Memory required for data: 1236129312
I0403 15:49:27.692967  3671 layer_factory.hpp:77] Creating layer inception_4e/5x5_reduce
I0403 15:49:27.692989  3671 net.cpp:91] Creating Layer inception_4e/5x5_reduce
I0403 15:49:27.693007  3671 net.cpp:425] inception_4e/5x5_reduce <- inception_4d/output_inception_4d/output_0_split_3
I0403 15:49:27.693028  3671 net.cpp:399] inception_4e/5x5_reduce -> inception_4e/5x5_reduce
I0403 15:49:27.694121  3671 net.cpp:141] Setting up inception_4e/5x5_reduce
I0403 15:49:27.694151  3671 net.cpp:148] Top shape: 24 32 14 14 (150528)
I0403 15:49:27.694167  3671 net.cpp:156] Memory required for data: 1236731424
I0403 15:49:27.694185  3671 layer_factory.hpp:77] Creating layer inception_4e/relu_5x5_reduce
I0403 15:49:27.694202  3671 net.cpp:91] Creating Layer inception_4e/relu_5x5_reduce
I0403 15:49:27.694221  3671 net.cpp:425] inception_4e/relu_5x5_reduce <- inception_4e/5x5_reduce
I0403 15:49:27.694238  3671 net.cpp:386] inception_4e/relu_5x5_reduce -> inception_4e/5x5_reduce (in-place)
I0403 15:49:27.694541  3671 net.cpp:141] Setting up inception_4e/relu_5x5_reduce
I0403 15:49:27.694568  3671 net.cpp:148] Top shape: 24 32 14 14 (150528)
I0403 15:49:27.694584  3671 net.cpp:156] Memory required for data: 1237333536
I0403 15:49:27.694598  3671 layer_factory.hpp:77] Creating layer inception_4e/5x5
I0403 15:49:27.694635  3671 net.cpp:91] Creating Layer inception_4e/5x5
I0403 15:49:27.694654  3671 net.cpp:425] inception_4e/5x5 <- inception_4e/5x5_reduce
I0403 15:49:27.694675  3671 net.cpp:399] inception_4e/5x5 -> inception_4e/5x5
I0403 15:49:27.696490  3671 net.cpp:141] Setting up inception_4e/5x5
I0403 15:49:27.696516  3671 net.cpp:148] Top shape: 24 128 14 14 (602112)
I0403 15:49:27.696532  3671 net.cpp:156] Memory required for data: 1239741984
I0403 15:49:27.696552  3671 layer_factory.hpp:77] Creating layer inception_4e/relu_5x5
I0403 15:49:27.696570  3671 net.cpp:91] Creating Layer inception_4e/relu_5x5
I0403 15:49:27.696588  3671 net.cpp:425] inception_4e/relu_5x5 <- inception_4e/5x5
I0403 15:49:27.696604  3671 net.cpp:386] inception_4e/relu_5x5 -> inception_4e/5x5 (in-place)
I0403 15:49:27.696799  3671 net.cpp:141] Setting up inception_4e/relu_5x5
I0403 15:49:27.696823  3671 net.cpp:148] Top shape: 24 128 14 14 (602112)
I0403 15:49:27.696837  3671 net.cpp:156] Memory required for data: 1242150432
I0403 15:49:27.696852  3671 layer_factory.hpp:77] Creating layer inception_4e/pool
I0403 15:49:27.696871  3671 net.cpp:91] Creating Layer inception_4e/pool
I0403 15:49:27.696888  3671 net.cpp:425] inception_4e/pool <- inception_4d/output_inception_4d/output_0_split_4
I0403 15:49:27.696908  3671 net.cpp:399] inception_4e/pool -> inception_4e/pool
I0403 15:49:27.696976  3671 net.cpp:141] Setting up inception_4e/pool
I0403 15:49:27.697000  3671 net.cpp:148] Top shape: 24 528 14 14 (2483712)
I0403 15:49:27.697013  3671 net.cpp:156] Memory required for data: 1252085280
I0403 15:49:27.697027  3671 layer_factory.hpp:77] Creating layer inception_4e/pool_proj
I0403 15:49:27.697049  3671 net.cpp:91] Creating Layer inception_4e/pool_proj
I0403 15:49:27.697067  3671 net.cpp:425] inception_4e/pool_proj <- inception_4e/pool
I0403 15:49:27.697087  3671 net.cpp:399] inception_4e/pool_proj -> inception_4e/pool_proj
I0403 15:49:27.698565  3671 net.cpp:141] Setting up inception_4e/pool_proj
I0403 15:49:27.698602  3671 net.cpp:148] Top shape: 24 128 14 14 (602112)
I0403 15:49:27.698618  3671 net.cpp:156] Memory required for data: 1254493728
I0403 15:49:27.698635  3671 layer_factory.hpp:77] Creating layer inception_4e/relu_pool_proj
I0403 15:49:27.698659  3671 net.cpp:91] Creating Layer inception_4e/relu_pool_proj
I0403 15:49:27.698676  3671 net.cpp:425] inception_4e/relu_pool_proj <- inception_4e/pool_proj
I0403 15:49:27.698693  3671 net.cpp:386] inception_4e/relu_pool_proj -> inception_4e/pool_proj (in-place)
I0403 15:49:27.698979  3671 net.cpp:141] Setting up inception_4e/relu_pool_proj
I0403 15:49:27.699004  3671 net.cpp:148] Top shape: 24 128 14 14 (602112)
I0403 15:49:27.699019  3671 net.cpp:156] Memory required for data: 1256902176
I0403 15:49:27.699034  3671 layer_factory.hpp:77] Creating layer inception_4e/output
I0403 15:49:27.699051  3671 net.cpp:91] Creating Layer inception_4e/output
I0403 15:49:27.699066  3671 net.cpp:425] inception_4e/output <- inception_4e/1x1
I0403 15:49:27.699085  3671 net.cpp:425] inception_4e/output <- inception_4e/3x3
I0403 15:49:27.699102  3671 net.cpp:425] inception_4e/output <- inception_4e/5x5
I0403 15:49:27.699118  3671 net.cpp:425] inception_4e/output <- inception_4e/pool_proj
I0403 15:49:27.699136  3671 net.cpp:399] inception_4e/output -> inception_4e/output
I0403 15:49:27.699182  3671 net.cpp:141] Setting up inception_4e/output
I0403 15:49:27.699208  3671 net.cpp:148] Top shape: 24 832 14 14 (3913728)
I0403 15:49:27.699223  3671 net.cpp:156] Memory required for data: 1272557088
I0403 15:49:27.699237  3671 layer_factory.hpp:77] Creating layer pool4/3x3_s2
I0403 15:49:27.699254  3671 net.cpp:91] Creating Layer pool4/3x3_s2
I0403 15:49:27.699273  3671 net.cpp:425] pool4/3x3_s2 <- inception_4e/output
I0403 15:49:27.699295  3671 net.cpp:399] pool4/3x3_s2 -> pool4/3x3_s2
I0403 15:49:27.699362  3671 net.cpp:141] Setting up pool4/3x3_s2
I0403 15:49:27.699386  3671 net.cpp:148] Top shape: 24 832 7 7 (978432)
I0403 15:49:27.699401  3671 net.cpp:156] Memory required for data: 1276470816
I0403 15:49:27.699416  3671 layer_factory.hpp:77] Creating layer pool4/3x3_s2_pool4/3x3_s2_0_split
I0403 15:49:27.699432  3671 net.cpp:91] Creating Layer pool4/3x3_s2_pool4/3x3_s2_0_split
I0403 15:49:27.699447  3671 net.cpp:425] pool4/3x3_s2_pool4/3x3_s2_0_split <- pool4/3x3_s2
I0403 15:49:27.699463  3671 net.cpp:399] pool4/3x3_s2_pool4/3x3_s2_0_split -> pool4/3x3_s2_pool4/3x3_s2_0_split_0
I0403 15:49:27.699483  3671 net.cpp:399] pool4/3x3_s2_pool4/3x3_s2_0_split -> pool4/3x3_s2_pool4/3x3_s2_0_split_1
I0403 15:49:27.699503  3671 net.cpp:399] pool4/3x3_s2_pool4/3x3_s2_0_split -> pool4/3x3_s2_pool4/3x3_s2_0_split_2
I0403 15:49:27.699525  3671 net.cpp:399] pool4/3x3_s2_pool4/3x3_s2_0_split -> pool4/3x3_s2_pool4/3x3_s2_0_split_3
I0403 15:49:27.699618  3671 net.cpp:141] Setting up pool4/3x3_s2_pool4/3x3_s2_0_split
I0403 15:49:27.699640  3671 net.cpp:148] Top shape: 24 832 7 7 (978432)
I0403 15:49:27.699656  3671 net.cpp:148] Top shape: 24 832 7 7 (978432)
I0403 15:49:27.699671  3671 net.cpp:148] Top shape: 24 832 7 7 (978432)
I0403 15:49:27.699686  3671 net.cpp:148] Top shape: 24 832 7 7 (978432)
I0403 15:49:27.699699  3671 net.cpp:156] Memory required for data: 1292125728
I0403 15:49:27.699713  3671 layer_factory.hpp:77] Creating layer inception_5a/1x1
I0403 15:49:27.699735  3671 net.cpp:91] Creating Layer inception_5a/1x1
I0403 15:49:27.699753  3671 net.cpp:425] inception_5a/1x1 <- pool4/3x3_s2_pool4/3x3_s2_0_split_0
I0403 15:49:27.699774  3671 net.cpp:399] inception_5a/1x1 -> inception_5a/1x1
I0403 15:49:27.702627  3671 net.cpp:141] Setting up inception_5a/1x1
I0403 15:49:27.702656  3671 net.cpp:148] Top shape: 24 256 7 7 (301056)
I0403 15:49:27.702672  3671 net.cpp:156] Memory required for data: 1293329952
I0403 15:49:27.702689  3671 layer_factory.hpp:77] Creating layer inception_5a/relu_1x1
I0403 15:49:27.702709  3671 net.cpp:91] Creating Layer inception_5a/relu_1x1
I0403 15:49:27.702725  3671 net.cpp:425] inception_5a/relu_1x1 <- inception_5a/1x1
I0403 15:49:27.702742  3671 net.cpp:386] inception_5a/relu_1x1 -> inception_5a/1x1 (in-place)
I0403 15:49:27.703057  3671 net.cpp:141] Setting up inception_5a/relu_1x1
I0403 15:49:27.703081  3671 net.cpp:148] Top shape: 24 256 7 7 (301056)
I0403 15:49:27.703096  3671 net.cpp:156] Memory required for data: 1294534176
I0403 15:49:27.703111  3671 layer_factory.hpp:77] Creating layer inception_5a/3x3_reduce
I0403 15:49:27.703135  3671 net.cpp:91] Creating Layer inception_5a/3x3_reduce
I0403 15:49:27.703151  3671 net.cpp:425] inception_5a/3x3_reduce <- pool4/3x3_s2_pool4/3x3_s2_0_split_1
I0403 15:49:27.703172  3671 net.cpp:399] inception_5a/3x3_reduce -> inception_5a/3x3_reduce
I0403 15:49:27.705595  3671 net.cpp:141] Setting up inception_5a/3x3_reduce
I0403 15:49:27.705623  3671 net.cpp:148] Top shape: 24 160 7 7 (188160)
I0403 15:49:27.705638  3671 net.cpp:156] Memory required for data: 1295286816
I0403 15:49:27.705657  3671 layer_factory.hpp:77] Creating layer inception_5a/relu_3x3_reduce
I0403 15:49:27.705674  3671 net.cpp:91] Creating Layer inception_5a/relu_3x3_reduce
I0403 15:49:27.705693  3671 net.cpp:425] inception_5a/relu_3x3_reduce <- inception_5a/3x3_reduce
I0403 15:49:27.705710  3671 net.cpp:386] inception_5a/relu_3x3_reduce -> inception_5a/3x3_reduce (in-place)
I0403 15:49:27.705894  3671 net.cpp:141] Setting up inception_5a/relu_3x3_reduce
I0403 15:49:27.705919  3671 net.cpp:148] Top shape: 24 160 7 7 (188160)
I0403 15:49:27.705932  3671 net.cpp:156] Memory required for data: 1296039456
I0403 15:49:27.705947  3671 layer_factory.hpp:77] Creating layer inception_5a/3x3
I0403 15:49:27.705970  3671 net.cpp:91] Creating Layer inception_5a/3x3
I0403 15:49:27.705986  3671 net.cpp:425] inception_5a/3x3 <- inception_5a/3x3_reduce
I0403 15:49:27.706008  3671 net.cpp:399] inception_5a/3x3 -> inception_5a/3x3
I0403 15:49:27.710986  3671 net.cpp:141] Setting up inception_5a/3x3
I0403 15:49:27.711014  3671 net.cpp:148] Top shape: 24 320 7 7 (376320)
I0403 15:49:27.711030  3671 net.cpp:156] Memory required for data: 1297544736
I0403 15:49:27.711047  3671 layer_factory.hpp:77] Creating layer inception_5a/relu_3x3
I0403 15:49:27.711067  3671 net.cpp:91] Creating Layer inception_5a/relu_3x3
I0403 15:49:27.711084  3671 net.cpp:425] inception_5a/relu_3x3 <- inception_5a/3x3
I0403 15:49:27.711102  3671 net.cpp:386] inception_5a/relu_3x3 -> inception_5a/3x3 (in-place)
I0403 15:49:27.711395  3671 net.cpp:141] Setting up inception_5a/relu_3x3
I0403 15:49:27.711421  3671 net.cpp:148] Top shape: 24 320 7 7 (376320)
I0403 15:49:27.711436  3671 net.cpp:156] Memory required for data: 1299050016
I0403 15:49:27.711450  3671 layer_factory.hpp:77] Creating layer inception_5a/5x5_reduce
I0403 15:49:27.711472  3671 net.cpp:91] Creating Layer inception_5a/5x5_reduce
I0403 15:49:27.711490  3671 net.cpp:425] inception_5a/5x5_reduce <- pool4/3x3_s2_pool4/3x3_s2_0_split_2
I0403 15:49:27.711511  3671 net.cpp:399] inception_5a/5x5_reduce -> inception_5a/5x5_reduce
I0403 15:49:27.712720  3671 net.cpp:141] Setting up inception_5a/5x5_reduce
I0403 15:49:27.712749  3671 net.cpp:148] Top shape: 24 32 7 7 (37632)
I0403 15:49:27.712764  3671 net.cpp:156] Memory required for data: 1299200544
I0403 15:49:27.712782  3671 layer_factory.hpp:77] Creating layer inception_5a/relu_5x5_reduce
I0403 15:49:27.712802  3671 net.cpp:91] Creating Layer inception_5a/relu_5x5_reduce
I0403 15:49:27.712818  3671 net.cpp:425] inception_5a/relu_5x5_reduce <- inception_5a/5x5_reduce
I0403 15:49:27.712836  3671 net.cpp:386] inception_5a/relu_5x5_reduce -> inception_5a/5x5_reduce (in-place)
I0403 15:49:27.713132  3671 net.cpp:141] Setting up inception_5a/relu_5x5_reduce
I0403 15:49:27.713158  3671 net.cpp:148] Top shape: 24 32 7 7 (37632)
I0403 15:49:27.713173  3671 net.cpp:156] Memory required for data: 1299351072
I0403 15:49:27.713188  3671 layer_factory.hpp:77] Creating layer inception_5a/5x5
I0403 15:49:27.713212  3671 net.cpp:91] Creating Layer inception_5a/5x5
I0403 15:49:27.713229  3671 net.cpp:425] inception_5a/5x5 <- inception_5a/5x5_reduce
I0403 15:49:27.713248  3671 net.cpp:399] inception_5a/5x5 -> inception_5a/5x5
I0403 15:49:27.715013  3671 net.cpp:141] Setting up inception_5a/5x5
I0403 15:49:27.715051  3671 net.cpp:148] Top shape: 24 128 7 7 (150528)
I0403 15:49:27.715067  3671 net.cpp:156] Memory required for data: 1299953184
I0403 15:49:27.715085  3671 layer_factory.hpp:77] Creating layer inception_5a/relu_5x5
I0403 15:49:27.715106  3671 net.cpp:91] Creating Layer inception_5a/relu_5x5
I0403 15:49:27.715122  3671 net.cpp:425] inception_5a/relu_5x5 <- inception_5a/5x5
I0403 15:49:27.715140  3671 net.cpp:386] inception_5a/relu_5x5 -> inception_5a/5x5 (in-place)
I0403 15:49:27.715333  3671 net.cpp:141] Setting up inception_5a/relu_5x5
I0403 15:49:27.715360  3671 net.cpp:148] Top shape: 24 128 7 7 (150528)
I0403 15:49:27.715376  3671 net.cpp:156] Memory required for data: 1300555296
I0403 15:49:27.715391  3671 layer_factory.hpp:77] Creating layer inception_5a/pool
I0403 15:49:27.715409  3671 net.cpp:91] Creating Layer inception_5a/pool
I0403 15:49:27.715425  3671 net.cpp:425] inception_5a/pool <- pool4/3x3_s2_pool4/3x3_s2_0_split_3
I0403 15:49:27.715445  3671 net.cpp:399] inception_5a/pool -> inception_5a/pool
I0403 15:49:27.715515  3671 net.cpp:141] Setting up inception_5a/pool
I0403 15:49:27.715538  3671 net.cpp:148] Top shape: 24 832 7 7 (978432)
I0403 15:49:27.715553  3671 net.cpp:156] Memory required for data: 1304469024
I0403 15:49:27.715567  3671 layer_factory.hpp:77] Creating layer inception_5a/pool_proj
I0403 15:49:27.715590  3671 net.cpp:91] Creating Layer inception_5a/pool_proj
I0403 15:49:27.715606  3671 net.cpp:425] inception_5a/pool_proj <- inception_5a/pool
I0403 15:49:27.715631  3671 net.cpp:399] inception_5a/pool_proj -> inception_5a/pool_proj
I0403 15:49:27.717896  3671 net.cpp:141] Setting up inception_5a/pool_proj
I0403 15:49:27.717926  3671 net.cpp:148] Top shape: 24 128 7 7 (150528)
I0403 15:49:27.717941  3671 net.cpp:156] Memory required for data: 1305071136
I0403 15:49:27.717959  3671 layer_factory.hpp:77] Creating layer inception_5a/relu_pool_proj
I0403 15:49:27.717978  3671 net.cpp:91] Creating Layer inception_5a/relu_pool_proj
I0403 15:49:27.717995  3671 net.cpp:425] inception_5a/relu_pool_proj <- inception_5a/pool_proj
I0403 15:49:27.718013  3671 net.cpp:386] inception_5a/relu_pool_proj -> inception_5a/pool_proj (in-place)
I0403 15:49:27.718313  3671 net.cpp:141] Setting up inception_5a/relu_pool_proj
I0403 15:49:27.718339  3671 net.cpp:148] Top shape: 24 128 7 7 (150528)
I0403 15:49:27.718354  3671 net.cpp:156] Memory required for data: 1305673248
I0403 15:49:27.718369  3671 layer_factory.hpp:77] Creating layer inception_5a/output
I0403 15:49:27.718386  3671 net.cpp:91] Creating Layer inception_5a/output
I0403 15:49:27.718401  3671 net.cpp:425] inception_5a/output <- inception_5a/1x1
I0403 15:49:27.718418  3671 net.cpp:425] inception_5a/output <- inception_5a/3x3
I0403 15:49:27.718435  3671 net.cpp:425] inception_5a/output <- inception_5a/5x5
I0403 15:49:27.718449  3671 net.cpp:425] inception_5a/output <- inception_5a/pool_proj
I0403 15:49:27.718468  3671 net.cpp:399] inception_5a/output -> inception_5a/output
I0403 15:49:27.718520  3671 net.cpp:141] Setting up inception_5a/output
I0403 15:49:27.718544  3671 net.cpp:148] Top shape: 24 832 7 7 (978432)
I0403 15:49:27.718556  3671 net.cpp:156] Memory required for data: 1309586976
I0403 15:49:27.718571  3671 layer_factory.hpp:77] Creating layer inception_5a/output_inception_5a/output_0_split
I0403 15:49:27.718587  3671 net.cpp:91] Creating Layer inception_5a/output_inception_5a/output_0_split
I0403 15:49:27.718603  3671 net.cpp:425] inception_5a/output_inception_5a/output_0_split <- inception_5a/output
I0403 15:49:27.718622  3671 net.cpp:399] inception_5a/output_inception_5a/output_0_split -> inception_5a/output_inception_5a/output_0_split_0
I0403 15:49:27.718643  3671 net.cpp:399] inception_5a/output_inception_5a/output_0_split -> inception_5a/output_inception_5a/output_0_split_1
I0403 15:49:27.718662  3671 net.cpp:399] inception_5a/output_inception_5a/output_0_split -> inception_5a/output_inception_5a/output_0_split_2
I0403 15:49:27.718683  3671 net.cpp:399] inception_5a/output_inception_5a/output_0_split -> inception_5a/output_inception_5a/output_0_split_3
I0403 15:49:27.718796  3671 net.cpp:141] Setting up inception_5a/output_inception_5a/output_0_split
I0403 15:49:27.718818  3671 net.cpp:148] Top shape: 24 832 7 7 (978432)
I0403 15:49:27.718834  3671 net.cpp:148] Top shape: 24 832 7 7 (978432)
I0403 15:49:27.718849  3671 net.cpp:148] Top shape: 24 832 7 7 (978432)
I0403 15:49:27.718865  3671 net.cpp:148] Top shape: 24 832 7 7 (978432)
I0403 15:49:27.718878  3671 net.cpp:156] Memory required for data: 1325241888
I0403 15:49:27.718893  3671 layer_factory.hpp:77] Creating layer inception_5b/1x1
I0403 15:49:27.718916  3671 net.cpp:91] Creating Layer inception_5b/1x1
I0403 15:49:27.718933  3671 net.cpp:425] inception_5b/1x1 <- inception_5a/output_inception_5a/output_0_split_0
I0403 15:49:27.718952  3671 net.cpp:399] inception_5b/1x1 -> inception_5b/1x1
I0403 15:49:27.722702  3671 net.cpp:141] Setting up inception_5b/1x1
I0403 15:49:27.722730  3671 net.cpp:148] Top shape: 24 384 7 7 (451584)
I0403 15:49:27.722746  3671 net.cpp:156] Memory required for data: 1327048224
I0403 15:49:27.722765  3671 layer_factory.hpp:77] Creating layer inception_5b/relu_1x1
I0403 15:49:27.722784  3671 net.cpp:91] Creating Layer inception_5b/relu_1x1
I0403 15:49:27.722802  3671 net.cpp:425] inception_5b/relu_1x1 <- inception_5b/1x1
I0403 15:49:27.722820  3671 net.cpp:386] inception_5b/relu_1x1 -> inception_5b/1x1 (in-place)
I0403 15:49:27.723121  3671 net.cpp:141] Setting up inception_5b/relu_1x1
I0403 15:49:27.723146  3671 net.cpp:148] Top shape: 24 384 7 7 (451584)
I0403 15:49:27.723161  3671 net.cpp:156] Memory required for data: 1328854560
I0403 15:49:27.723176  3671 layer_factory.hpp:77] Creating layer inception_5b/3x3_reduce
I0403 15:49:27.723199  3671 net.cpp:91] Creating Layer inception_5b/3x3_reduce
I0403 15:49:27.723224  3671 net.cpp:425] inception_5b/3x3_reduce <- inception_5a/output_inception_5a/output_0_split_1
I0403 15:49:27.723248  3671 net.cpp:399] inception_5b/3x3_reduce -> inception_5b/3x3_reduce
I0403 15:49:27.729022  3671 net.cpp:141] Setting up inception_5b/3x3_reduce
I0403 15:49:27.729050  3671 net.cpp:148] Top shape: 24 192 7 7 (225792)
I0403 15:49:27.729066  3671 net.cpp:156] Memory required for data: 1329757728
I0403 15:49:27.729084  3671 layer_factory.hpp:77] Creating layer inception_5b/relu_3x3_reduce
I0403 15:49:27.729102  3671 net.cpp:91] Creating Layer inception_5b/relu_3x3_reduce
I0403 15:49:27.729120  3671 net.cpp:425] inception_5b/relu_3x3_reduce <- inception_5b/3x3_reduce
I0403 15:49:27.729138  3671 net.cpp:386] inception_5b/relu_3x3_reduce -> inception_5b/3x3_reduce (in-place)
I0403 15:49:27.729347  3671 net.cpp:141] Setting up inception_5b/relu_3x3_reduce
I0403 15:49:27.729373  3671 net.cpp:148] Top shape: 24 192 7 7 (225792)
I0403 15:49:27.729388  3671 net.cpp:156] Memory required for data: 1330660896
I0403 15:49:27.729403  3671 layer_factory.hpp:77] Creating layer inception_5b/3x3
I0403 15:49:27.729425  3671 net.cpp:91] Creating Layer inception_5b/3x3
I0403 15:49:27.729442  3671 net.cpp:425] inception_5b/3x3 <- inception_5b/3x3_reduce
I0403 15:49:27.729465  3671 net.cpp:399] inception_5b/3x3 -> inception_5b/3x3
I0403 15:49:27.736238  3671 net.cpp:141] Setting up inception_5b/3x3
I0403 15:49:27.736268  3671 net.cpp:148] Top shape: 24 384 7 7 (451584)
I0403 15:49:27.736287  3671 net.cpp:156] Memory required for data: 1332467232
I0403 15:49:27.736306  3671 layer_factory.hpp:77] Creating layer inception_5b/relu_3x3
I0403 15:49:27.736327  3671 net.cpp:91] Creating Layer inception_5b/relu_3x3
I0403 15:49:27.736345  3671 net.cpp:425] inception_5b/relu_3x3 <- inception_5b/3x3
I0403 15:49:27.736361  3671 net.cpp:386] inception_5b/relu_3x3 -> inception_5b/3x3 (in-place)
I0403 15:49:27.736657  3671 net.cpp:141] Setting up inception_5b/relu_3x3
I0403 15:49:27.736683  3671 net.cpp:148] Top shape: 24 384 7 7 (451584)
I0403 15:49:27.736698  3671 net.cpp:156] Memory required for data: 1334273568
I0403 15:49:27.736713  3671 layer_factory.hpp:77] Creating layer inception_5b/5x5_reduce
I0403 15:49:27.736749  3671 net.cpp:91] Creating Layer inception_5b/5x5_reduce
I0403 15:49:27.736768  3671 net.cpp:425] inception_5b/5x5_reduce <- inception_5a/output_inception_5a/output_0_split_2
I0403 15:49:27.736790  3671 net.cpp:399] inception_5b/5x5_reduce -> inception_5b/5x5_reduce
I0403 15:49:27.738078  3671 net.cpp:141] Setting up inception_5b/5x5_reduce
I0403 15:49:27.738106  3671 net.cpp:148] Top shape: 24 48 7 7 (56448)
I0403 15:49:27.738121  3671 net.cpp:156] Memory required for data: 1334499360
I0403 15:49:27.738138  3671 layer_factory.hpp:77] Creating layer inception_5b/relu_5x5_reduce
I0403 15:49:27.738157  3671 net.cpp:91] Creating Layer inception_5b/relu_5x5_reduce
I0403 15:49:27.738173  3671 net.cpp:425] inception_5b/relu_5x5_reduce <- inception_5b/5x5_reduce
I0403 15:49:27.738191  3671 net.cpp:386] inception_5b/relu_5x5_reduce -> inception_5b/5x5_reduce (in-place)
I0403 15:49:27.738565  3671 net.cpp:141] Setting up inception_5b/relu_5x5_reduce
I0403 15:49:27.738591  3671 net.cpp:148] Top shape: 24 48 7 7 (56448)
I0403 15:49:27.738606  3671 net.cpp:156] Memory required for data: 1334725152
I0403 15:49:27.738620  3671 layer_factory.hpp:77] Creating layer inception_5b/5x5
I0403 15:49:27.738641  3671 net.cpp:91] Creating Layer inception_5b/5x5
I0403 15:49:27.738657  3671 net.cpp:425] inception_5b/5x5 <- inception_5b/5x5_reduce
I0403 15:49:27.738675  3671 net.cpp:399] inception_5b/5x5 -> inception_5b/5x5
I0403 15:49:27.740702  3671 net.cpp:141] Setting up inception_5b/5x5
I0403 15:49:27.740730  3671 net.cpp:148] Top shape: 24 128 7 7 (150528)
I0403 15:49:27.740744  3671 net.cpp:156] Memory required for data: 1335327264
I0403 15:49:27.740762  3671 layer_factory.hpp:77] Creating layer inception_5b/relu_5x5
I0403 15:49:27.740782  3671 net.cpp:91] Creating Layer inception_5b/relu_5x5
I0403 15:49:27.740799  3671 net.cpp:425] inception_5b/relu_5x5 <- inception_5b/5x5
I0403 15:49:27.740816  3671 net.cpp:386] inception_5b/relu_5x5 -> inception_5b/5x5 (in-place)
I0403 15:49:27.741008  3671 net.cpp:141] Setting up inception_5b/relu_5x5
I0403 15:49:27.741034  3671 net.cpp:148] Top shape: 24 128 7 7 (150528)
I0403 15:49:27.741050  3671 net.cpp:156] Memory required for data: 1335929376
I0403 15:49:27.741065  3671 layer_factory.hpp:77] Creating layer inception_5b/pool
I0403 15:49:27.741081  3671 net.cpp:91] Creating Layer inception_5b/pool
I0403 15:49:27.741096  3671 net.cpp:425] inception_5b/pool <- inception_5a/output_inception_5a/output_0_split_3
I0403 15:49:27.741117  3671 net.cpp:399] inception_5b/pool -> inception_5b/pool
I0403 15:49:27.741190  3671 net.cpp:141] Setting up inception_5b/pool
I0403 15:49:27.741214  3671 net.cpp:148] Top shape: 24 832 7 7 (978432)
I0403 15:49:27.741227  3671 net.cpp:156] Memory required for data: 1339843104
I0403 15:49:27.741241  3671 layer_factory.hpp:77] Creating layer inception_5b/pool_proj
I0403 15:49:27.741263  3671 net.cpp:91] Creating Layer inception_5b/pool_proj
I0403 15:49:27.741286  3671 net.cpp:425] inception_5b/pool_proj <- inception_5b/pool
I0403 15:49:27.741305  3671 net.cpp:399] inception_5b/pool_proj -> inception_5b/pool_proj
I0403 15:49:27.743630  3671 net.cpp:141] Setting up inception_5b/pool_proj
I0403 15:49:27.743659  3671 net.cpp:148] Top shape: 24 128 7 7 (150528)
I0403 15:49:27.743674  3671 net.cpp:156] Memory required for data: 1340445216
I0403 15:49:27.743692  3671 layer_factory.hpp:77] Creating layer inception_5b/relu_pool_proj
I0403 15:49:27.743712  3671 net.cpp:91] Creating Layer inception_5b/relu_pool_proj
I0403 15:49:27.743729  3671 net.cpp:425] inception_5b/relu_pool_proj <- inception_5b/pool_proj
I0403 15:49:27.743746  3671 net.cpp:386] inception_5b/relu_pool_proj -> inception_5b/pool_proj (in-place)
I0403 15:49:27.744040  3671 net.cpp:141] Setting up inception_5b/relu_pool_proj
I0403 15:49:27.744065  3671 net.cpp:148] Top shape: 24 128 7 7 (150528)
I0403 15:49:27.744081  3671 net.cpp:156] Memory required for data: 1341047328
I0403 15:49:27.744094  3671 layer_factory.hpp:77] Creating layer inception_5b/output
I0403 15:49:27.744115  3671 net.cpp:91] Creating Layer inception_5b/output
I0403 15:49:27.744144  3671 net.cpp:425] inception_5b/output <- inception_5b/1x1
I0403 15:49:27.744163  3671 net.cpp:425] inception_5b/output <- inception_5b/3x3
I0403 15:49:27.744179  3671 net.cpp:425] inception_5b/output <- inception_5b/5x5
I0403 15:49:27.744194  3671 net.cpp:425] inception_5b/output <- inception_5b/pool_proj
I0403 15:49:27.744211  3671 net.cpp:399] inception_5b/output -> inception_5b/output
I0403 15:49:27.744262  3671 net.cpp:141] Setting up inception_5b/output
I0403 15:49:27.744292  3671 net.cpp:148] Top shape: 24 1024 7 7 (1204224)
I0403 15:49:27.744308  3671 net.cpp:156] Memory required for data: 1345864224
I0403 15:49:27.744323  3671 layer_factory.hpp:77] Creating layer pool5/7x7_s1
I0403 15:49:27.744339  3671 net.cpp:91] Creating Layer pool5/7x7_s1
I0403 15:49:27.744355  3671 net.cpp:425] pool5/7x7_s1 <- inception_5b/output
I0403 15:49:27.744375  3671 net.cpp:399] pool5/7x7_s1 -> pool5/7x7_s1
I0403 15:49:27.744591  3671 net.cpp:141] Setting up pool5/7x7_s1
I0403 15:49:27.744616  3671 net.cpp:148] Top shape: 24 1024 1 1 (24576)
I0403 15:49:27.744631  3671 net.cpp:156] Memory required for data: 1345962528
I0403 15:49:27.744644  3671 layer_factory.hpp:77] Creating layer pool5/drop_7x7_s1
I0403 15:49:27.744664  3671 net.cpp:91] Creating Layer pool5/drop_7x7_s1
I0403 15:49:27.744680  3671 net.cpp:425] pool5/drop_7x7_s1 <- pool5/7x7_s1
I0403 15:49:27.744698  3671 net.cpp:386] pool5/drop_7x7_s1 -> pool5/7x7_s1 (in-place)
I0403 15:49:27.744751  3671 net.cpp:141] Setting up pool5/drop_7x7_s1
I0403 15:49:27.744773  3671 net.cpp:148] Top shape: 24 1024 1 1 (24576)
I0403 15:49:27.744787  3671 net.cpp:156] Memory required for data: 1346060832
I0403 15:49:27.744801  3671 layer_factory.hpp:77] Creating layer loss3/classifier_plantvillage
I0403 15:49:27.744820  3671 net.cpp:91] Creating Layer loss3/classifier_plantvillage
I0403 15:49:27.744839  3671 net.cpp:425] loss3/classifier_plantvillage <- pool5/7x7_s1
I0403 15:49:27.744858  3671 net.cpp:399] loss3/classifier_plantvillage -> loss3/classifier_plantvillage
I0403 15:49:27.745280  3671 net.cpp:141] Setting up loss3/classifier_plantvillage
I0403 15:49:27.745304  3671 net.cpp:148] Top shape: 24 38 (912)
I0403 15:49:27.745318  3671 net.cpp:156] Memory required for data: 1346064480
I0403 15:49:27.745337  3671 layer_factory.hpp:77] Creating layer loss3/classifier_plantvillage_loss3/classifier_plantvillage_0_split
I0403 15:49:27.745354  3671 net.cpp:91] Creating Layer loss3/classifier_plantvillage_loss3/classifier_plantvillage_0_split
I0403 15:49:27.745370  3671 net.cpp:425] loss3/classifier_plantvillage_loss3/classifier_plantvillage_0_split <- loss3/classifier_plantvillage
I0403 15:49:27.745391  3671 net.cpp:399] loss3/classifier_plantvillage_loss3/classifier_plantvillage_0_split -> loss3/classifier_plantvillage_loss3/classifier_plantvillage_0_split_0
I0403 15:49:27.745411  3671 net.cpp:399] loss3/classifier_plantvillage_loss3/classifier_plantvillage_0_split -> loss3/classifier_plantvillage_loss3/classifier_plantvillage_0_split_1
I0403 15:49:27.745431  3671 net.cpp:399] loss3/classifier_plantvillage_loss3/classifier_plantvillage_0_split -> loss3/classifier_plantvillage_loss3/classifier_plantvillage_0_split_2
I0403 15:49:27.745451  3671 net.cpp:399] loss3/classifier_plantvillage_loss3/classifier_plantvillage_0_split -> loss3/classifier_plantvillage_loss3/classifier_plantvillage_0_split_3
I0403 15:49:27.745553  3671 net.cpp:141] Setting up loss3/classifier_plantvillage_loss3/classifier_plantvillage_0_split
I0403 15:49:27.745575  3671 net.cpp:148] Top shape: 24 38 (912)
I0403 15:49:27.745591  3671 net.cpp:148] Top shape: 24 38 (912)
I0403 15:49:27.745606  3671 net.cpp:148] Top shape: 24 38 (912)
I0403 15:49:27.745621  3671 net.cpp:148] Top shape: 24 38 (912)
I0403 15:49:27.745635  3671 net.cpp:156] Memory required for data: 1346079072
I0403 15:49:27.745650  3671 layer_factory.hpp:77] Creating layer loss1/loss
I0403 15:49:27.745673  3671 net.cpp:91] Creating Layer loss1/loss
I0403 15:49:27.745690  3671 net.cpp:425] loss1/loss <- loss1/classifier_plantvillage_loss1/classifier_plantvillage_0_split_0
I0403 15:49:27.745720  3671 net.cpp:425] loss1/loss <- label_data_1_split_0
…
