…
I0403 15:26:31.834249  3091 net.cpp:313] The NetState phase (1) differed from the phase (0) specified by a rule in layer data
I0403 15:26:31.835358  3091 net.cpp:49] Initializing net from parameters: 
state {
  phase: TEST
}
layer {
  name: "data"
  type: "Data"
  top: "data"
  top: "label"
  include {
    phase: TEST
  }
  transform_param {
    mirror: false
    crop_size: 224
    mean_file: "/home/mohanty/data/final_dataset/lmdb/grayscale-50-50/mean.binaryproto"
  }
  data_param {
    source: "/home/mohanty/data/final_dataset/lmdb/grayscale-50-50/test_db"
    batch_size: 24
    backend: LMDB
  }
}
layer {
  name: "conv1/7x7_s2"
  type: "Convolution"
  bottom: "data"
  top: "conv1/7x7_s2"
  param {
    lr_mult: 1
    decay_mult: 1
  }
  param {
    lr_mult: 2
    decay_mult: 0
  }
  convolution_param {
    num_output: 64
    pad: 3
    kernel_size: 7
    stride: 2
    weight_filler {
      type: "xavier"
      std: 0.1
    }
    bias_filler {
      type: "constant"
      value: 0.2
    }
  }
}
layer {
  name: "conv1/relu_7x7"
  type: "ReLU"
  bottom: "conv1/7x7_s2"
  top: "conv1/7x7_s2"
}
layer {
  name: "pool1/3x3_s2"
  type: "Pooling"
  bottom: "conv1/7x7_s2"
  top: "pool1/3x3_s2"
  pooling_param {
    pool: MAX
    kernel_size: 3
    stride: 2
  }
}
layer {
  name: "pool1/norm1"
  type: "LRN"
  bottom: "pool1/3x3_s2"
  top: "pool1/norm1"
  lrn_param {
    local_size: 5
    alpha: 0.0001
    beta: 0.75
  }
}
layer {
  name: "conv2/3x3_reduce"
  type: "Convolution"
  bottom: "pool1/norm1"
  top: "conv2/3x3_reduce"
  param {
    lr_mult: 1
    decay_mult: 1
  }
  param {
    lr_mult: 2
    decay_mult: 0
  }
  convolution_param {
    num_output: 64
    kernel_size: 1
    weight_filler {
      type: "xavier"
      std: 0.1
    }
    bias_filler {
      type: "constant"
      value: 0.2
    }
  }
}
layer {
  name: "conv2/relu_3x3_reduce"
  type: "ReLU"
  bottom: "conv2/3x3_reduce"
  top: "conv2/3x3_reduce"
}
layer {
  name: "conv2/3x3"
  type: "Convolution"
  bottom: "conv2/3x3_reduce"
  top: "conv2/3x3"
  param {
    lr_mult: 1
    decay_mult: 1
  }
  param {
    lr_mult: 2
    decay_mult: 0
  }
  convolution_param {
    num_output: 192
    pad: 1
    kernel_size: 3
    weight_filler {
      type: "xavier"
      std: 0.03
    }
    bias_filler {
      type: "constant"
      value: 0.2
    }
  }
}
layer {
  name: "conv2/relu_3x3"
  type: "ReLU"
  bottom: "conv2/3x3"
  top: "conv2/3x3"
}
layer {
  name: "conv2/norm2"
  type: "LRN"
  bottom: "conv2/3x3"
  top: "conv2/norm2"
  lrn_param {
    local_size: 5
    alpha: 0.0001
    beta: 0.75
  }
}
layer {
  name: "pool2/3x3_s2"
  type: "Pooling"
  bottom: "conv2/norm2"
  top: "pool2/3x3_s2"
  pooling_param {
    pool: MAX
    kernel_size: 3
    stride: 2
  }
}
layer {
  name: "inception_3a/1x1"
  type: "Convolution"
  bottom: "pool2/3x3_s2"
  top: "inception_3a/1x1"
  param {
    lr_mult: 1
    decay_mult: 1
  }
  param {
    lr_mult: 2
    decay_mult: 0
  }
  convolution_param {
    num_output: 64
    kernel_size: 1
    weight_filler {
      type: "xavier"
      std: 0.03
    }
    bias_filler {
      type: "constant"
      value: 0.2
    }
  }
}
layer {
  name: "inception_3a/relu_1x1"
  type: "ReLU"
  bottom: "inception_3a/1x1"
  top: "inception_3a/1x1"
}
layer {
  name: "inception_3a/3x3_reduce"
  type: "Convolution"
  bottom: "pool2/3x3_s2"
  top: "inception_3a/3x3_reduce"
  param {
    lr_mult: 1
    decay_mult: 1
  }
  param {
    lr_mult: 2
    decay_mult: 0
  }
  convolution_param {
    num_output: 96
    kernel_size: 1
    weight_filler {
      type: "xavier"
      std: 0.09
    }
    bias_filler {
      type: "constant"
      value: 0.2
    }
  }
}
layer {
  name: "inception_3a/relu_3x3_reduce"
  type: "ReLU"
  bottom: "inception_3a/3x3_reduce"
  top: "inception_3a/3x3_reduce"
}
layer {
  name: "inception_3a/3x3"
  type: "Convolution"
  bottom: "inception_3a/3x3_reduce"
  top: "inception_3a/3x3"
  param {
    lr_mult: 1
    decay_mult: 1
  }
  param {
    lr_mult: 2
    decay_mult: 0
  }
  convolution_param {
    num_output: 128
    pad: 1
    kernel_size: 3
    weight_filler {
      type: "xavier"
      std: 0.03
    }
    bias_filler {
      type: "constant"
      value: 0.2
    }
  }
}
layer {
  name: "inception_3a/relu_3x3"
  type: "ReLU"
  bottom: "inception_3a/3x3"
  top: "inception_3a/3x3"
}
layer {
  name: "inception_3a/5x5_reduce"
  type: "Convolution"
  bottom: "pool2/3x3_s2"
  top: "inception_3a/5x5_reduce"
  param {
    lr_mult: 1
    decay_mult: 1
  }
  param {
    lr_mult: 2
    decay_mult: 0
  }
  convolution_param {
    num_output: 16
    kernel_size: 1
    weight_filler {
      type: "xavier"
      std: 0.2
    }
    bias_filler {
      type: "constant"
      value: 0.2
    }
  }
}
layer {
  name: "inception_3a/relu_5x5_reduce"
  type: "ReLU"
  bottom: "inception_3a/5x5_reduce"
  top: "inception_3a/5x5_reduce"
}
layer {
  name: "inception_3a/5x5"
  type: "Convolution"
  bottom: "inception_3a/5x5_reduce"
  top: "inception_3a/5x5"
  param {
    lr_mult: 1
    decay_mult: 1
  }
  param {
    lr_mult: 2
    decay_mult: 0
  }
  convolution_param {
    num_output: 32
    pad: 2
    kernel_size: 5
    weight_filler {
      type: "xavier"
      std: 0.03
    }
    bias_filler {
      type: "constant"
      value: 0.2
    }
  }
}
layer {
  name: "inception_3a/relu_5x5"
  type: "ReLU"
  bottom: "inception_3a/5x5"
  top: "inception_3a/5x5"
}
layer {
  name: "inception_3a/pool"
  type: "Pooling"
  bottom: "pool2/3x3_s2"
  top: "inception_3a/pool"
  pooling_param {
    pool: MAX
    kernel_size: 3
    stride: 1
    pad: 1
  }
}
layer {
  name: "inception_3a/pool_proj"
  type: "Convolution"
  bottom: "inception_3a/pool"
  top: "inception_3a/pool_proj"
  param {
    lr_mult: 1
    decay_mult: 1
  }
  param {
    lr_mult: 2
    decay_mult: 0
  }
  convolution_param {
    num_output: 32
    kernel_size: 1
    weight_filler {
      type: "xavier"
      std: 0.1
    }
    bias_filler {
      type: "constant"
      value: 0.2
    }
  }
}
layer {
  name: "inception_3a/relu_pool_proj"
  type: "ReLU"
  bottom: "inception_3a/pool_proj"
  top: "inception_3a/pool_proj"
}
layer {
  name: "inception_3a/output"
  type: "Concat"
  bottom: "inception_3a/1x1"
  bottom: "inception_3a/3x3"
  bottom: "inception_3a/5x5"
  bottom: "inception_3a/pool_proj"
  top: "inception_3a/output"
}
layer {
  name: "inception_3b/1x1"
  type: "Convolution"
  bottom: "inception_3a/output"
  top: "inception_3b/1x1"
  param {
    lr_mult: 1
    decay_mult: 1
  }
  param {
    lr_mult: 2
    decay_mult: 0
  }
  convolution_param {
    num_output: 128
    kernel_size: 1
    weight_filler {
      type: "xavier"
      std: 0.03
    }
    bias_filler {
      type: "constant"
      value: 0.2
    }
  }
}
layer {
  name: "inception_3b/relu_1x1"
  type: "ReLU"
  bottom: "inception_3b/1x1"
  top: "inception_3b/1x1"
}
layer {
  name: "inception_3b/3x3_reduce"
  type: "Convolution"
  bottom: "inception_3a/output"
  top: "inception_3b/3x3_reduce"
  param {
    lr_mult: 1
    decay_mult: 1
  }
  param {
    lr_mult: 2
    decay_mult: 0
  }
  convolution_param {
    num_output: 128
    kernel_size: 1
    weight_filler {
      type: "xavier"
      std: 0.09
    }
    bias_filler {
      type: "constant"
      value: 0.2
    }
  }
}
layer {
  name: "inception_3b/relu_3x3_reduce"
  type: "ReLU"
  bottom: "inception_3b/3x3_reduce"
  top: "inception_3b/3x3_reduce"
}
layer {
  name: "inception_3b/3x3"
  type: "Convolution"
  bottom: "inception_3b/3x3_reduce"
  top: "inception_3b/3x3"
  param {
    lr_mult: 1
    decay_mult: 1
  }
  param {
    lr_mult: 2
    decay_mult: 0
  }
  convolution_param {
    num_output: 192
    pad: 1
    kernel_size: 3
    weight_filler {
      type: "xavier"
      std: 0.03
    }
    bias_filler {
      type: "constant"
      value: 0.2
    }
  }
}
layer {
  name: "inception_3b/relu_3x3"
  type: "ReLU"
  bottom: "inception_3b/3x3"
  top: "inception_3b/3x3"
}
layer {
  name: "inception_3b/5x5_reduce"
  type: "Convolution"
  bottom: "inception_3a/output"
  top: "inception_3b/5x5_reduce"
  param {
    lr_mult: 1
    decay_mult: 1
  }
  param {
    lr_mult: 2
    decay_mult: 0
  }
  convolution_param {
    num_output: 32
    kernel_size: 1
    weight_filler {
      type: "xavier"
      std: 0.2
    }
    bias_filler {
      type: "constant"
      value: 0.2
    }
  }
}
layer {
  name: "inception_3b/relu_5x5_reduce"
  type: "ReLU"
  bottom: "inception_3b/5x5_reduce"
  top: "inception_3b/5x5_reduce"
}
layer {
  name: "inception_3b/5x5"
  type: "Convolution"
  bottom: "inception_3b/5x5_reduce"
  top: "inception_3b/5x5"
  param {
    lr_mult: 1
    decay_mult: 1
  }
  param {
    lr_mult: 2
    decay_mult: 0
  }
  convolution_param {
    num_output: 96
    pad: 2
    kernel_size: 5
    weight_filler {
      type: "xavier"
      std: 0.03
    }
    bias_filler {
      type: "constant"
      value: 0.2
    }
  }
}
layer {
  name: "inception_3b/relu_5x5"
  type: "ReLU"
  bottom: "inception_3b/5x5"
  top: "inception_3b/5x5"
}
layer {
  name: "inception_3b/pool"
  type: "Pooling"
  bottom: "inception_3a/output"
  top: "inception_3b/pool"
  pooling_param {
    pool: MAX
    kernel_size: 3
    stride: 1
    pad: 1
  }
}
layer {
  name: "inception_3b/pool_proj"
  type: "Convolution"
  bottom: "inception_3b/pool"
  top: "inception_3b/pool_proj"
  param {
    lr_mult: 1
    decay_mult: 1
  }
  param {
    lr_mult: 2
    decay_mult: 0
  }
  convolution_param {
    num_output: 64
    kernel_size: 1
    weight_filler {
      type: "xavier"
      std: 0.1
    }
    bias_filler {
      type: "constant"
      value: 0.2
    }
  }
}
layer {
  name: "inception_3b/relu_pool_proj"
  type: "ReLU"
  bottom: "inception_3b/pool_proj"
  top: "inception_3b/pool_proj"
}
layer {
  name: "inception_3b/output"
  type: "Concat"
  bottom: "inception_3b/1x1"
  bottom: "inception_3b/3x3"
  bottom: "inception_3b/5x5"
  bottom: "inception_3b/pool_proj"
  top: "inception_3b/output"
}
layer {
  name: "pool3/3x3_s2"
  type: "Pooling"
  bottom: "inception_3b/output"
  top: "pool3/3x3_s2"
  pooling_param {
    pool: MAX
    kernel_size: 3
    stride: 2
  }
}
layer {
  name: "inception_4a/1x1"
  type: "Convolution"
  bottom: "pool3/3x3_s2"
  top: "inception_4a/1x1"
  param {
    lr_mult: 1
    decay_mult: 1
  }
  param {
    lr_mult: 2
    decay_mult: 0
  }
  convolution_param {
    num_output: 192
    kernel_size: 1
    weight_filler {
      type: "xavier"
      std: 0.03
    }
    bias_filler {
      type: "constant"
      value: 0.2
    }
  }
}
layer {
  name: "inception_4a/relu_1x1"
  type: "ReLU"
  bottom: "inception_4a/1x1"
  top: "inception_4a/1x1"
}
layer {
  name: "inception_4a/3x3_reduce"
  type: "Convolution"
  bottom: "pool3/3x3_s2"
  top: "inception_4a/3x3_reduce"
  param {
    lr_mult: 1
    decay_mult: 1
  }
  param {
    lr_mult: 2
    decay_mult: 0
  }
  convolution_param {
    num_output: 96
    kernel_size: 1
    weight_filler {
      type: "xavier"
      std: 0.09
    }
    bias_filler {
      type: "constant"
      value: 0.2
    }
  }
}
layer {
  name: "inception_4a/relu_3x3_reduce"
  type: "ReLU"
  bottom: "inception_4a/3x3_reduce"
  top: "inception_4a/3x3_reduce"
}
layer {
  name: "inception_4a/3x3"
  type: "Convolution"
  bottom: "inception_4a/3x3_reduce"
  top: "inception_4a/3x3"
  param {
    lr_mult: 1
    decay_mult: 1
  }
  param {
    lr_mult: 2
    decay_mult: 0
  }
  convolution_param {
    num_output: 208
    pad: 1
    kernel_size: 3
    weight_filler {
      type: "xavier"
      std: 0.03
    }
    bias_filler {
      type: "constant"
      value: 0.2
    }
  }
}
layer {
  name: "inception_4a/relu_3x3"
  type: "ReLU"
  bottom: "inception_4a/3x3"
  top: "inception_4a/3x3"
}
layer {
  name: "inception_4a/5x5_reduce"
  type: "Convolution"
  bottom: "pool3/3x3_s2"
  top: "inception_4a/5x5_reduce"
  param {
    lr_mult: 1
    decay_mult: 1
  }
  param {
    lr_mult: 2
    decay_mult: 0
  }
  convolution_param {
    num_output: 16
    kernel_size: 1
    weight_filler {
      type: "xavier"
      std: 0.2
    }
    bias_filler {
      type: "constant"
      value: 0.2
    }
  }
}
layer {
  name: "inception_4a/relu_5x5_reduce"
  type: "ReLU"
  bottom: "inception_4a/5x5_reduce"
  top: "inception_4a/5x5_reduce"
}
layer {
  name: "inception_4a/5x5"
  type: "Convolution"
  bottom: "inception_4a/5x5_reduce"
  top: "inception_4a/5x5"
  param {
    lr_mult: 1
    decay_mult: 1
  }
  param {
    lr_mult: 2
    decay_mult: 0
  }
  convolution_param {
    num_output: 48
    pad: 2
    kernel_size: 5
    weight_filler {
      type: "xavier"
      std: 0.03
    }
    bias_filler {
      type: "constant"
      value: 0.2
    }
  }
}
layer {
  name: "inception_4a/relu_5x5"
  type: "ReLU"
  bottom: "inception_4a/5x5"
  top: "inception_4a/5x5"
}
layer {
  name: "inception_4a/pool"
  type: "Pooling"
  bottom: "pool3/3x3_s2"
  top: "inception_4a/pool"
  pooling_param {
    pool: MAX
    kernel_size: 3
    stride: 1
    pad: 1
  }
}
layer {
  name: "inception_4a/pool_proj"
  type: "Convolution"
  bottom: "inception_4a/pool"
  top: "inception_4a/pool_proj"
  param {
    lr_mult: 1
    decay_mult: 1
  }
  param {
    lr_mult: 2
    decay_mult: 0
  }
  convolution_param {
    num_output: 64
    kernel_size: 1
    weight_filler {
      type: "xavier"
      std: 0.1
    }
    bias_filler {
      type: "constant"
      value: 0.2
    }
  }
}
layer {
  name: "inception_4a/relu_pool_proj"
  type: "ReLU"
  bottom: "inception_4a/pool_proj"
  top: "inception_4a/pool_proj"
}
layer {
  name: "inception_4a/output"
  type: "Concat"
  bottom: "inception_4a/1x1"
  bottom: "inception_4a/3x3"
  bottom: "inception_4a/5x5"
  bottom: "inception_4a/pool_proj"
  top: "inception_4a/output"
}
layer {
  name: "loss1/ave_pool"
  type: "Pooling"
  bottom: "inception_4a/output"
  top: "loss1/ave_pool"
  pooling_param {
    pool: AVE
    kernel_size: 5
    stride: 3
  }
}
layer {
  name: "loss1/conv"
  type: "Convolution"
  bottom: "loss1/ave_pool"
  top: "loss1/conv"
  param {
    lr_mult: 1
    decay_mult: 1
  }
  param {
    lr_mult: 2
    decay_mult: 0
  }
  convolution_param {
    num_output: 128
    kernel_size: 1
    weight_filler {
      type: "xavier"
      std: 0.08
    }
    bias_filler {
      type: "constant"
      value: 0.2
    }
  }
}
layer {
  name: "loss1/relu_conv"
  type: "ReLU"
  bottom: "loss1/conv"
  top: "loss1/conv"
}
layer {
  name: "loss1/fc"
  type: "InnerProduct"
  bottom: "loss1/conv"
  top: "loss1/fc"
  param {
    lr_mult: 1
    decay_mult: 1
  }
  param {
    lr_mult: 2
    decay_mult: 0
  }
  inner_product_param {
    num_output: 1024
    weight_filler {
      type: "xavier"
      std: 0.02
    }
    bias_filler {
      type: "constant"
      value: 0.2
    }
  }
}
layer {
  name: "loss1/relu_fc"
  type: "ReLU"
  bottom: "loss1/fc"
  top: "loss1/fc"
}
layer {
  name: "loss1/drop_fc"
  type: "Dropout"
  bottom: "loss1/fc"
  top: "loss1/fc"
  dropout_param {
    dropout_ratio: 0.7
  }
}
layer {
  name: "loss1/classifier_plantvillage"
  type: "InnerProduct"
  bottom: "loss1/fc"
  top: "loss1/classifier_plantvillage"
  param {
    lr_mult: 1
    decay_mult: 1
  }
  param {
    lr_mult: 2
    decay_mult: 0
  }
  inner_product_param {
    num_output: 38
    weight_filler {
      type: "xavier"
      std: 0.0009765625
    }
    bias_filler {
      type: "constant"
      value: 0
    }
  }
}
layer {
  name: "inception_4b/1x1"
  type: "Convolution"
  bottom: "inception_4a/output"
  top: "inception_4b/1x1"
  param {
    lr_mult: 1
    decay_mult: 1
  }
  param {
    lr_mult: 2
    decay_mult: 0
  }
  convolution_param {
    num_output: 160
    kernel_size: 1
    weight_filler {
      type: "xavier"
      std: 0.03
    }
    bias_filler {
      type: "constant"
      value: 0.2
    }
  }
}
layer {
  name: "inception_4b/relu_1x1"
  type: "ReLU"
  bottom: "inception_4b/1x1"
  top: "inception_4b/1x1"
}
layer {
  name: "inception_4b/3x3_reduce"
  type: "Convolution"
  bottom: "inception_4a/output"
  top: "inception_4b/3x3_reduce"
  param {
    lr_mult: 1
    decay_mult: 1
  }
  param {
    lr_mult: 2
    decay_mult: 0
  }
  convolution_param {
    num_output: 112
    kernel_size: 1
    weight_filler {
      type: "xavier"
      std: 0.09
    }
    bias_filler {
      type: "constant"
      value: 0.2
    }
  }
}
layer {
  name: "inception_4b/relu_3x3_reduce"
  type: "ReLU"
  bottom: "inception_4b/3x3_reduce"
  top: "inception_4b/3x3_reduce"
}
layer {
  name: "inception_4b/3x3"
  type: "Convolution"
  bottom: "inception_4b/3x3_reduce"
  top: "inception_4b/3x3"
  param {
    lr_mult: 1
    decay_mult: 1
  }
  param {
    lr_mult: 2
    decay_mult: 0
  }
  convolution_param {
    num_output: 224
    pad: 1
    kernel_size: 3
    weight_filler {
      type: "xavier"
      std: 0.03
    }
    bias_filler {
      type: "constant"
      value: 0.2
    }
  }
}
layer {
  name: "inception_4b/relu_3x3"
  type: "ReLU"
  bottom: "inception_4b/3x3"
  top: "inception_4b/3x3"
}
layer {
  name: "inception_4b/5x5_reduce"
  type: "Convolution"
  bottom: "inception_4a/output"
  top: "inception_4b/5x5_reduce"
  param {
    lr_mult: 1
    decay_mult: 1
  }
  param {
    lr_mult: 2
    decay_mult: 0
  }
  convolution_param {
    num_output: 24
    kernel_size: 1
    weight_filler {
      type: "xavier"
      std: 0.2
    }
    bias_filler {
      type: "constant"
      value: 0.2
    }
  }
}
layer {
  name: "inception_4b/relu_5x5_reduce"
  type: "ReLU"
  bottom: "inception_4b/5x5_reduce"
  top: "inception_4b/5x5_reduce"
}
layer {
  name: "inception_4b/5x5"
  type: "Convolution"
  bottom: "inception_4b/5x5_reduce"
  top: "inception_4b/5x5"
  param {
    lr_mult: 1
    decay_mult: 1
  }
  param {
    lr_mult: 2
    decay_mult: 0
  }
  convolution_param {
    num_output: 64
    pad: 2
    kernel_size: 5
    weight_filler {
      type: "xavier"
      std: 0.03
    }
    bias_filler {
      type: "constant"
      value: 0.2
    }
  }
}
layer {
  name: "inception_4b/relu_5x5"
  type: "ReLU"
  bottom: "inception_4b/5x5"
  top: "inception_4b/5x5"
}
layer {
  name: "inception_4b/pool"
  type: "Pooling"
  bottom: "inception_4a/output"
  top: "inception_4b/pool"
  pooling_param {
    pool: MAX
    kernel_size: 3
    stride: 1
    pad: 1
  }
}
layer {
  name: "inception_4b/pool_proj"
  type: "Convolution"
  bottom: "inception_4b/pool"
  top: "inception_4b/pool_proj"
  param {
    lr_mult: 1
    decay_mult: 1
  }
  param {
    lr_mult: 2
    decay_mult: 0
  }
  convolution_param {
    num_output: 64
    kernel_size: 1
    weight_filler {
      type: "xavier"
      std: 0.1
    }
    bias_filler {
      type: "constant"
      value: 0.2
    }
  }
}
layer {
  name: "inception_4b/relu_pool_proj"
  type: "ReLU"
  bottom: "inception_4b/pool_proj"
  top: "inception_4b/pool_proj"
}
layer {
  name: "inception_4b/output"
  type: "Concat"
  bottom: "inception_4b/1x1"
  bottom: "inception_4b/3x3"
  bottom: "inception_4b/5x5"
  bottom: "inception_4b/pool_proj"
  top: "inception_4b/output"
}
layer {
  name: "inception_4c/1x1"
  type: "Convolution"
  bottom: "inception_4b/output"
  top: "inception_4c/1x1"
  param {
    lr_mult: 1
    decay_mult: 1
  }
  param {
    lr_mult: 2
    decay_mult: 0
  }
  convolution_param {
    num_output: 128
    kernel_size: 1
    weight_filler {
      type: "xavier"
      std: 0.03
    }
    bias_filler {
      type: "constant"
      value: 0.2
    }
  }
}
layer {
  name: "inception_4c/relu_1x1"
  type: "ReLU"
  bottom: "inception_4c/1x1"
  top: "inception_4c/1x1"
}
layer {
  name: "inception_4c/3x3_reduce"
  type: "Convolution"
  bottom: "inception_4b/output"
  top: "inception_4c/3x3_reduce"
  param {
    lr_mult: 1
    decay_mult: 1
  }
  param {
    lr_mult: 2
    decay_mult: 0
  }
  convolution_param {
    num_output: 128
    kernel_size: 1
    weight_filler {
      type: "xavier"
      std: 0.09
    }
    bias_filler {
      type: "constant"
      value: 0.2
    }
  }
}
layer {
  name: "inception_4c/relu_3x3_reduce"
  type: "ReLU"
  bottom: "inception_4c/3x3_reduce"
  top: "inception_4c/3x3_reduce"
}
layer {
  name: "inception_4c/3x3"
  type: "Convolution"
  bottom: "inception_4c/3x3_reduce"
  top: "inception_4c/3x3"
  param {
    lr_mult: 1
    decay_mult: 1
  }
  param {
    lr_mult: 2
    decay_mult: 0
  }
  convolution_param {
    num_output: 256
    pad: 1
    kernel_size: 3
    weight_filler {
      type: "xavier"
      std: 0.03
    }
    bias_filler {
      type: "constant"
      value: 0.2
    }
  }
}
layer {
  name: "inception_4c/relu_3x3"
  type: "ReLU"
  bottom: "inception_4c/3x3"
  top: "inception_4c/3x3"
}
layer {
  name: "inception_4c/5x5_reduce"
  type: "Convolution"
  bottom: "inception_4b/output"
  top: "inception_4c/5x5_reduce"
  param {
    lr_mult: 1
    decay_mult: 1
  }
  param {
    lr_mult: 2
    decay_mult: 0
  }
  convolution_param {
    num_output: 24
    kernel_size: 1
    weight_filler {
      type: "xavier"
      std: 0.2
    }
    bias_filler {
      type: "constant"
      value: 0.2
    }
  }
}
layer {
  name: "inception_4c/relu_5x5_reduce"
  type: "ReLU"
  bottom: "inception_4c/5x5_reduce"
  top: "inception_4c/5x5_reduce"
}
layer {
  name: "inception_4c/5x5"
  type: "Convolution"
  bottom: "inception_4c/5x5_reduce"
  top: "inception_4c/5x5"
  param {
    lr_mult: 1
    decay_mult: 1
  }
  param {
    lr_mult: 2
    decay_mult: 0
  }
  convolution_param {
    num_output: 64
    pad: 2
    kernel_size: 5
    weight_filler {
      type: "xavier"
      std: 0.03
    }
    bias_filler {
      type: "constant"
      value: 0.2
    }
  }
}
layer {
  name: "inception_4c/relu_5x5"
  type: "ReLU"
  bottom: "inception_4c/5x5"
  top: "inception_4c/5x5"
}
layer {
  name: "inception_4c/pool"
  type: "Pooling"
  bottom: "inception_4b/output"
  top: "inception_4c/pool"
  pooling_param {
    pool: MAX
    kernel_size: 3
    stride: 1
    pad: 1
  }
}
layer {
  name: "inception_4c/pool_proj"
  type: "Convolution"
  bottom: "inception_4c/pool"
  top: "inception_4c/pool_proj"
  param {
    lr_mult: 1
    decay_mult: 1
  }
  param {
    lr_mult: 2
    decay_mult: 0
  }
  convolution_param {
    num_output: 64
    kernel_size: 1
    weight_filler {
      type: "xavier"
      std: 0.1
    }
    bias_filler {
      type: "constant"
      value: 0.2
    }
  }
}
layer {
  name: "inception_4c/relu_pool_proj"
  type: "ReLU"
  bottom: "inception_4c/pool_proj"
  top: "inception_4c/pool_proj"
}
layer {
  name: "inception_4c/output"
  type: "Concat"
  bottom: "inception_4c/1x1"
  bottom: "inception_4c/3x3"
  bottom: "inception_4c/5x5"
  bottom: "inception_4c/pool_proj"
  top: "inception_4c/output"
}
layer {
  name: "inception_4d/1x1"
  type: "Convolution"
  bottom: "inception_4c/output"
  top: "inception_4d/1x1"
  param {
    lr_mult: 1
    decay_mult: 1
  }
  param {
    lr_mult: 2
    decay_mult: 0
  }
  convolution_param {
    num_output: 112
    kernel_size: 1
    weight_filler {
      type: "xavier"
      std: 0.03
    }
    bias_filler {
      type: "constant"
      value: 0.2
    }
  }
}
layer {
  name: "inception_4d/relu_1x1"
  type: "ReLU"
  bottom: "inception_4d/1x1"
  top: "inception_4d/1x1"
}
layer {
  name: "inception_4d/3x3_reduce"
  type: "Convolution"
  bottom: "inception_4c/output"
  top: "inception_4d/3x3_reduce"
  param {
    lr_mult: 1
    decay_mult: 1
  }
  param {
    lr_mult: 2
    decay_mult: 0
  }
  convolution_param {
    num_output: 144
    kernel_size: 1
    weight_filler {
      type: "xavier"
      std: 0.09
    }
    bias_filler {
      type: "constant"
      value: 0.2
    }
  }
}
layer {
  name: "inception_4d/relu_3x3_reduce"
  type: "ReLU"
  bottom: "inception_4d/3x3_reduce"
  top: "inception_4d/3x3_reduce"
}
layer {
  name: "inception_4d/3x3"
  type: "Convolution"
  bottom: "inception_4d/3x3_reduce"
  top: "inception_4d/3x3"
  param {
    lr_mult: 1
    decay_mult: 1
  }
  param {
    lr_mult: 2
    decay_mult: 0
  }
  convolution_param {
    num_output: 288
    pad: 1
    kernel_size: 3
    weight_filler {
      type: "xavier"
      std: 0.03
    }
    bias_filler {
      type: "constant"
      value: 0.2
    }
  }
}
layer {
  name: "inception_4d/relu_3x3"
  type: "ReLU"
  bottom: "inception_4d/3x3"
  top: "inception_4d/3x3"
}
layer {
  name: "inception_4d/5x5_reduce"
  type: "Convolution"
  bottom: "inception_4c/output"
  top: "inception_4d/5x5_reduce"
  param {
    lr_mult: 1
    decay_mult: 1
  }
  param {
    lr_mult: 2
    decay_mult: 0
  }
  convolution_param {
    num_output: 32
    kernel_size: 1
    weight_filler {
      type: "xavier"
      std: 0.2
    }
    bias_filler {
      type: "constant"
      value: 0.2
    }
  }
}
layer {
  name: "inception_4d/relu_5x5_reduce"
  type: "ReLU"
  bottom: "inception_4d/5x5_reduce"
  top: "inception_4d/5x5_reduce"
}
layer {
  name: "inception_4d/5x5"
  type: "Convolution"
  bottom: "inception_4d/5x5_reduce"
  top: "inception_4d/5x5"
  param {
    lr_mult: 1
    decay_mult: 1
  }
  param {
    lr_mult: 2
    decay_mult: 0
  }
  convolution_param {
    num_output: 64
    pad: 2
    kernel_size: 5
    weight_filler {
      type: "xavier"
      std: 0.03
    }
    bias_filler {
      type: "constant"
      value: 0.2
    }
  }
}
layer {
  name: "inception_4d/relu_5x5"
  type: "ReLU"
  bottom: "inception_4d/5x5"
  top: "inception_4d/5x5"
}
layer {
  name: "inception_4d/pool"
  type: "Pooling"
  bottom: "inception_4c/output"
  top: "inception_4d/pool"
  pooling_param {
    pool: MAX
    kernel_size: 3
    stride: 1
    pad: 1
  }
}
layer {
  name: "inception_4d/pool_proj"
  type: "Convolution"
  bottom: "inception_4d/pool"
  top: "inception_4d/pool_proj"
  param {
    lr_mult: 1
    decay_mult: 1
  }
  param {
    lr_mult: 2
    decay_mult: 0
  }
  convolution_param {
    num_output: 64
    kernel_size: 1
    weight_filler {
      type: "xavier"
      std: 0.1
    }
    bias_filler {
      type: "constant"
      value: 0.2
    }
  }
}
layer {
  name: "inception_4d/relu_pool_proj"
  type: "ReLU"
  bottom: "inception_4d/pool_proj"
  top: "inception_4d/pool_proj"
}
layer {
  name: "inception_4d/output"
  type: "Concat"
  bottom: "inception_4d/1x1"
  bottom: "inception_4d/3x3"
  bottom: "inception_4d/5x5"
  bottom: "inception_4d/pool_proj"
  top: "inception_4d/output"
}
layer {
  name: "loss2/ave_pool"
  type: "Pooling"
  bottom: "inception_4d/output"
  top: "loss2/ave_pool"
  pooling_param {
    pool: AVE
    kernel_size: 5
    stride: 3
  }
}
layer {
  name: "loss2/conv"
  type: "Convolution"
  bottom: "loss2/ave_pool"
  top: "loss2/conv"
  param {
    lr_mult: 1
    decay_mult: 1
  }
  param {
    lr_mult: 2
    decay_mult: 0
  }
  convolution_param {
    num_output: 128
    kernel_size: 1
    weight_filler {
      type: "xavier"
      std: 0.08
    }
    bias_filler {
      type: "constant"
      value: 0.2
    }
  }
}
layer {
  name: "loss2/relu_conv"
  type: "ReLU"
  bottom: "loss2/conv"
  top: "loss2/conv"
}
layer {
  name: "loss2/fc"
  type: "InnerProduct"
  bottom: "loss2/conv"
  top: "loss2/fc"
  param {
    lr_mult: 1
    decay_mult: 1
  }
  param {
    lr_mult: 2
    decay_mult: 0
  }
  inner_product_param {
    num_output: 1024
    weight_filler {
      type: "xavier"
      std: 0.02
    }
    bias_filler {
      type: "constant"
      value: 0.2
    }
  }
}
layer {
  name: "loss2/relu_fc"
  type: "ReLU"
  bottom: "loss2/fc"
  top: "loss2/fc"
}
layer {
  name: "loss2/drop_fc"
  type: "Dropout"
  bottom: "loss2/fc"
  top: "loss2/fc"
  dropout_param {
    dropout_ratio: 0.7
  }
}
layer {
  name: "loss2/classifier_plantvillage"
  type: "InnerProduct"
  bottom: "loss2/fc"
  top: "loss2/classifier_plantvillage"
  param {
    lr_mult: 1
    decay_mult: 1
  }
  param {
    lr_mult: 2
    decay_mult: 0
  }
  inner_product_param {
    num_output: 38
    weight_filler {
      type: "xavier"
      std: 0.0009765625
    }
    bias_filler {
      type: "constant"
      value: 0
    }
  }
}
layer {
  name: "inception_4e/1x1"
  type: "Convolution"
  bottom: "inception_4d/output"
  top: "inception_4e/1x1"
  param {
    lr_mult: 1
    decay_mult: 1
  }
  param {
    lr_mult: 2
    decay_mult: 0
  }
  convolution_param {
    num_output: 256
    kernel_size: 1
    weight_filler {
      type: "xavier"
      std: 0.03
    }
    bias_filler {
      type: "constant"
      value: 0.2
    }
  }
}
layer {
  name: "inception_4e/relu_1x1"
  type: "ReLU"
  bottom: "inception_4e/1x1"
  top: "inception_4e/1x1"
}
layer {
  name: "inception_4e/3x3_reduce"
  type: "Convolution"
  bottom: "inception_4d/output"
  top: "inception_4e/3x3_reduce"
  param {
    lr_mult: 1
    decay_mult: 1
  }
  param {
    lr_mult: 2
    decay_mult: 0
  }
  convolution_param {
    num_output: 160
    kernel_size: 1
    weight_filler {
      type: "xavier"
      std: 0.09
    }
    bias_filler {
      type: "constant"
      value: 0.2
    }
  }
}
layer {
  name: "inception_4e/relu_3x3_reduce"
  type: "ReLU"
  bottom: "inception_4e/3x3_reduce"
  top: "inception_4e/3x3_reduce"
}
layer {
  name: "inception_4e/3x3"
  type: "Convolution"
  bottom: "inception_4e/3x3_reduce"
  top: "inception_4e/3x3"
  param {
    lr_mult: 1
    decay_mult: 1
  }
  param {
    lr_mult: 2
    decay_mult: 0
  }
  convolution_param {
    num_output: 320
    pad: 1
    kernel_size: 3
    weight_filler {
      type: "xavier"
      std: 0.03
    }
    bias_filler {
      type: "constant"
      value: 0.2
    }
  }
}
layer {
  name: "inception_4e/relu_3x3"
  type: "ReLU"
  bottom: "inception_4e/3x3"
  top: "inception_4e/3x3"
}
layer {
  name: "inception_4e/5x5_reduce"
  type: "Convolution"
  bottom: "inception_4d/output"
  top: "inception_4e/5x5_reduce"
  param {
    lr_mult: 1
    decay_mult: 1
  }
  param {
    lr_mult: 2
    decay_mult: 0
  }
  convolution_param {
    num_output: 32
    kernel_size: 1
    weight_filler {
      type: "xavier"
      std: 0.2
    }
    bias_filler {
      type: "constant"
      value: 0.2
    }
  }
}
layer {
  name: "inception_4e/relu_5x5_reduce"
  type: "ReLU"
  bottom: "inception_4e/5x5_reduce"
  top: "inception_4e/5x5_reduce"
}
layer {
  name: "inception_4e/5x5"
  type: "Convolution"
  bottom: "inception_4e/5x5_reduce"
  top: "inception_4e/
I0403 15:26:31.836638  3091 layer_factory.hpp:77] Creating layer data
I0403 15:26:31.837211  3091 net.cpp:91] Creating Layer data
I0403 15:26:31.837241  3091 net.cpp:399] data -> data
I0403 15:26:31.837307  3091 net.cpp:399] data -> label
I0403 15:26:31.837347  3091 data_transformer.cpp:25] Loading mean file from: /home/mohanty/data/final_dataset/lmdb/grayscale-50-50/mean.binaryproto
I0403 15:26:31.840080  3094 db_lmdb.cpp:38] Opened lmdb /home/mohanty/data/final_dataset/lmdb/grayscale-50-50/test_db
I0403 15:26:31.850810  3091 data_layer.cpp:41] output data size: 24,3,224,224
I0403 15:26:31.879166  3091 net.cpp:141] Setting up data
I0403 15:26:31.879281  3091 net.cpp:148] Top shape: 24 3 224 224 (3612672)
I0403 15:26:31.879333  3091 net.cpp:148] Top shape: 24 (24)
I0403 15:26:31.879353  3091 net.cpp:156] Memory required for data: 14450784
I0403 15:26:31.879381  3091 layer_factory.hpp:77] Creating layer label_data_1_split
I0403 15:26:31.879408  3091 net.cpp:91] Creating Layer label_data_1_split
I0403 15:26:31.879426  3091 net.cpp:425] label_data_1_split <- label
I0403 15:26:31.879459  3091 net.cpp:399] label_data_1_split -> label_data_1_split_0
I0403 15:26:31.879487  3091 net.cpp:399] label_data_1_split -> label_data_1_split_1
I0403 15:26:31.879509  3091 net.cpp:399] label_data_1_split -> label_data_1_split_2
I0403 15:26:31.879533  3091 net.cpp:399] label_data_1_split -> label_data_1_split_3
I0403 15:26:31.879552  3091 net.cpp:399] label_data_1_split -> label_data_1_split_4
I0403 15:26:31.879575  3091 net.cpp:399] label_data_1_split -> label_data_1_split_5
I0403 15:26:31.879595  3091 net.cpp:399] label_data_1_split -> label_data_1_split_6
I0403 15:26:31.879616  3091 net.cpp:399] label_data_1_split -> label_data_1_split_7
I0403 15:26:31.879637  3091 net.cpp:399] label_data_1_split -> label_data_1_split_8
I0403 15:26:31.879658  3091 net.cpp:399] label_data_1_split -> label_data_1_split_9
I0403 15:26:31.879778  3091 net.cpp:141] Setting up label_data_1_split
I0403 15:26:31.879803  3091 net.cpp:148] Top shape: 24 (24)
I0403 15:26:31.879822  3091 net.cpp:148] Top shape: 24 (24)
I0403 15:26:31.879839  3091 net.cpp:148] Top shape: 24 (24)
I0403 15:26:31.879855  3091 net.cpp:148] Top shape: 24 (24)
I0403 15:26:31.879873  3091 net.cpp:148] Top shape: 24 (24)
I0403 15:26:31.879889  3091 net.cpp:148] Top shape: 24 (24)
I0403 15:26:31.879905  3091 net.cpp:148] Top shape: 24 (24)
I0403 15:26:31.879921  3091 net.cpp:148] Top shape: 24 (24)
I0403 15:26:31.879938  3091 net.cpp:148] Top shape: 24 (24)
I0403 15:26:31.879956  3091 net.cpp:148] Top shape: 24 (24)
I0403 15:26:31.879999  3091 net.cpp:156] Memory required for data: 14451744
I0403 15:26:31.880017  3091 layer_factory.hpp:77] Creating layer conv1/7x7_s2
I0403 15:26:31.880049  3091 net.cpp:91] Creating Layer conv1/7x7_s2
I0403 15:26:31.880069  3091 net.cpp:425] conv1/7x7_s2 <- data
I0403 15:26:31.880089  3091 net.cpp:399] conv1/7x7_s2 -> conv1/7x7_s2
I0403 15:26:32.022056  3091 net.cpp:141] Setting up conv1/7x7_s2
I0403 15:26:32.022147  3091 net.cpp:148] Top shape: 24 64 112 112 (19267584)
I0403 15:26:32.022164  3091 net.cpp:156] Memory required for data: 91522080
I0403 15:26:32.022195  3091 layer_factory.hpp:77] Creating layer conv1/relu_7x7
I0403 15:26:32.022222  3091 net.cpp:91] Creating Layer conv1/relu_7x7
I0403 15:26:32.022240  3091 net.cpp:425] conv1/relu_7x7 <- conv1/7x7_s2
I0403 15:26:32.022259  3091 net.cpp:386] conv1/relu_7x7 -> conv1/7x7_s2 (in-place)
I0403 15:26:32.022527  3091 net.cpp:141] Setting up conv1/relu_7x7
I0403 15:26:32.022555  3091 net.cpp:148] Top shape: 24 64 112 112 (19267584)
I0403 15:26:32.022570  3091 net.cpp:156] Memory required for data: 168592416
I0403 15:26:32.022586  3091 layer_factory.hpp:77] Creating layer pool1/3x3_s2
I0403 15:26:32.022611  3091 net.cpp:91] Creating Layer pool1/3x3_s2
I0403 15:26:32.022629  3091 net.cpp:425] pool1/3x3_s2 <- conv1/7x7_s2
I0403 15:26:32.022649  3091 net.cpp:399] pool1/3x3_s2 -> pool1/3x3_s2
I0403 15:26:32.022721  3091 net.cpp:141] Setting up pool1/3x3_s2
I0403 15:26:32.022745  3091 net.cpp:148] Top shape: 24 64 56 56 (4816896)
I0403 15:26:32.022761  3091 net.cpp:156] Memory required for data: 187860000
I0403 15:26:32.022776  3091 layer_factory.hpp:77] Creating layer pool1/norm1
I0403 15:26:32.022800  3091 net.cpp:91] Creating Layer pool1/norm1
I0403 15:26:32.022817  3091 net.cpp:425] pool1/norm1 <- pool1/3x3_s2
I0403 15:26:32.022835  3091 net.cpp:399] pool1/norm1 -> pool1/norm1
I0403 15:26:32.023169  3091 net.cpp:141] Setting up pool1/norm1
I0403 15:26:32.023196  3091 net.cpp:148] Top shape: 24 64 56 56 (4816896)
I0403 15:26:32.023212  3091 net.cpp:156] Memory required for data: 207127584
I0403 15:26:32.023228  3091 layer_factory.hpp:77] Creating layer conv2/3x3_reduce
I0403 15:26:32.023253  3091 net.cpp:91] Creating Layer conv2/3x3_reduce
I0403 15:26:32.023269  3091 net.cpp:425] conv2/3x3_reduce <- pool1/norm1
I0403 15:26:32.023293  3091 net.cpp:399] conv2/3x3_reduce -> conv2/3x3_reduce
I0403 15:26:32.024730  3091 net.cpp:141] Setting up conv2/3x3_reduce
I0403 15:26:32.024760  3091 net.cpp:148] Top shape: 24 64 56 56 (4816896)
I0403 15:26:32.024775  3091 net.cpp:156] Memory required for data: 226395168
I0403 15:26:32.024796  3091 layer_factory.hpp:77] Creating layer conv2/relu_3x3_reduce
I0403 15:26:32.024816  3091 net.cpp:91] Creating Layer conv2/relu_3x3_reduce
I0403 15:26:32.024830  3091 net.cpp:425] conv2/relu_3x3_reduce <- conv2/3x3_reduce
I0403 15:26:32.024849  3091 net.cpp:386] conv2/relu_3x3_reduce -> conv2/3x3_reduce (in-place)
I0403 15:26:32.025121  3091 net.cpp:141] Setting up conv2/relu_3x3_reduce
I0403 15:26:32.025148  3091 net.cpp:148] Top shape: 24 64 56 56 (4816896)
I0403 15:26:32.025163  3091 net.cpp:156] Memory required for data: 245662752
I0403 15:26:32.025178  3091 layer_factory.hpp:77] Creating layer conv2/3x3
I0403 15:26:32.025203  3091 net.cpp:91] Creating Layer conv2/3x3
I0403 15:26:32.025221  3091 net.cpp:425] conv2/3x3 <- conv2/3x3_reduce
I0403 15:26:32.025243  3091 net.cpp:399] conv2/3x3 -> conv2/3x3
I0403 15:26:32.027566  3091 net.cpp:141] Setting up conv2/3x3
I0403 15:26:32.027596  3091 net.cpp:148] Top shape: 24 192 56 56 (14450688)
I0403 15:26:32.027612  3091 net.cpp:156] Memory required for data: 303465504
I0403 15:26:32.027634  3091 layer_factory.hpp:77] Creating layer conv2/relu_3x3
I0403 15:26:32.027652  3091 net.cpp:91] Creating Layer conv2/relu_3x3
I0403 15:26:32.027668  3091 net.cpp:425] conv2/relu_3x3 <- conv2/3x3
I0403 15:26:32.027688  3091 net.cpp:386] conv2/relu_3x3 -> conv2/3x3 (in-place)
I0403 15:26:32.027895  3091 net.cpp:141] Setting up conv2/relu_3x3
I0403 15:26:32.027921  3091 net.cpp:148] Top shape: 24 192 56 56 (14450688)
I0403 15:26:32.027967  3091 net.cpp:156] Memory required for data: 361268256
I0403 15:26:32.027983  3091 layer_factory.hpp:77] Creating layer conv2/norm2
I0403 15:26:32.028003  3091 net.cpp:91] Creating Layer conv2/norm2
I0403 15:26:32.028020  3091 net.cpp:425] conv2/norm2 <- conv2/3x3
I0403 15:26:32.028038  3091 net.cpp:399] conv2/norm2 -> conv2/norm2
I0403 15:26:32.028345  3091 net.cpp:141] Setting up conv2/norm2
I0403 15:26:32.028374  3091 net.cpp:148] Top shape: 24 192 56 56 (14450688)
I0403 15:26:32.028391  3091 net.cpp:156] Memory required for data: 419071008
I0403 15:26:32.028406  3091 layer_factory.hpp:77] Creating layer pool2/3x3_s2
I0403 15:26:32.028424  3091 net.cpp:91] Creating Layer pool2/3x3_s2
I0403 15:26:32.028440  3091 net.cpp:425] pool2/3x3_s2 <- conv2/norm2
I0403 15:26:32.028458  3091 net.cpp:399] pool2/3x3_s2 -> pool2/3x3_s2
I0403 15:26:32.028513  3091 net.cpp:141] Setting up pool2/3x3_s2
I0403 15:26:32.028537  3091 net.cpp:148] Top shape: 24 192 28 28 (3612672)
I0403 15:26:32.028551  3091 net.cpp:156] Memory required for data: 433521696
I0403 15:26:32.028565  3091 layer_factory.hpp:77] Creating layer pool2/3x3_s2_pool2/3x3_s2_0_split
I0403 15:26:32.028585  3091 net.cpp:91] Creating Layer pool2/3x3_s2_pool2/3x3_s2_0_split
I0403 15:26:32.028601  3091 net.cpp:425] pool2/3x3_s2_pool2/3x3_s2_0_split <- pool2/3x3_s2
I0403 15:26:32.028619  3091 net.cpp:399] pool2/3x3_s2_pool2/3x3_s2_0_split -> pool2/3x3_s2_pool2/3x3_s2_0_split_0
I0403 15:26:32.028638  3091 net.cpp:399] pool2/3x3_s2_pool2/3x3_s2_0_split -> pool2/3x3_s2_pool2/3x3_s2_0_split_1
I0403 15:26:32.028657  3091 net.cpp:399] pool2/3x3_s2_pool2/3x3_s2_0_split -> pool2/3x3_s2_pool2/3x3_s2_0_split_2
I0403 15:26:32.028681  3091 net.cpp:399] pool2/3x3_s2_pool2/3x3_s2_0_split -> pool2/3x3_s2_pool2/3x3_s2_0_split_3
I0403 15:26:32.028751  3091 net.cpp:141] Setting up pool2/3x3_s2_pool2/3x3_s2_0_split
I0403 15:26:32.028774  3091 net.cpp:148] Top shape: 24 192 28 28 (3612672)
I0403 15:26:32.028789  3091 net.cpp:148] Top shape: 24 192 28 28 (3612672)
I0403 15:26:32.028805  3091 net.cpp:148] Top shape: 24 192 28 28 (3612672)
I0403 15:26:32.028821  3091 net.cpp:148] Top shape: 24 192 28 28 (3612672)
I0403 15:26:32.028837  3091 net.cpp:156] Memory required for data: 491324448
I0403 15:26:32.028851  3091 layer_factory.hpp:77] Creating layer inception_3a/1x1
I0403 15:26:32.028877  3091 net.cpp:91] Creating Layer inception_3a/1x1
I0403 15:26:32.028894  3091 net.cpp:425] inception_3a/1x1 <- pool2/3x3_s2_pool2/3x3_s2_0_split_0
I0403 15:26:32.028915  3091 net.cpp:399] inception_3a/1x1 -> inception_3a/1x1
I0403 15:26:32.030535  3091 net.cpp:141] Setting up inception_3a/1x1
I0403 15:26:32.030568  3091 net.cpp:148] Top shape: 24 64 28 28 (1204224)
I0403 15:26:32.030586  3091 net.cpp:156] Memory required for data: 496141344
I0403 15:26:32.030606  3091 layer_factory.hpp:77] Creating layer inception_3a/relu_1x1
I0403 15:26:32.030625  3091 net.cpp:91] Creating Layer inception_3a/relu_1x1
I0403 15:26:32.030642  3091 net.cpp:425] inception_3a/relu_1x1 <- inception_3a/1x1
I0403 15:26:32.030663  3091 net.cpp:386] inception_3a/relu_1x1 -> inception_3a/1x1 (in-place)
I0403 15:26:32.030840  3091 net.cpp:141] Setting up inception_3a/relu_1x1
I0403 15:26:32.030866  3091 net.cpp:148] Top shape: 24 64 28 28 (1204224)
I0403 15:26:32.030882  3091 net.cpp:156] Memory required for data: 500958240
I0403 15:26:32.030897  3091 layer_factory.hpp:77] Creating layer inception_3a/3x3_reduce
I0403 15:26:32.030920  3091 net.cpp:91] Creating Layer inception_3a/3x3_reduce
I0403 15:26:32.030939  3091 net.cpp:425] inception_3a/3x3_reduce <- pool2/3x3_s2_pool2/3x3_s2_0_split_1
I0403 15:26:32.030961  3091 net.cpp:399] inception_3a/3x3_reduce -> inception_3a/3x3_reduce
I0403 15:26:32.032773  3091 net.cpp:141] Setting up inception_3a/3x3_reduce
I0403 15:26:32.032804  3091 net.cpp:148] Top shape: 24 96 28 28 (1806336)
I0403 15:26:32.032820  3091 net.cpp:156] Memory required for data: 508183584
I0403 15:26:32.032845  3091 layer_factory.hpp:77] Creating layer inception_3a/relu_3x3_reduce
I0403 15:26:32.032883  3091 net.cpp:91] Creating Layer inception_3a/relu_3x3_reduce
I0403 15:26:32.032903  3091 net.cpp:425] inception_3a/relu_3x3_reduce <- inception_3a/3x3_reduce
I0403 15:26:32.032922  3091 net.cpp:386] inception_3a/relu_3x3_reduce -> inception_3a/3x3_reduce (in-place)
I0403 15:26:32.033115  3091 net.cpp:141] Setting up inception_3a/relu_3x3_reduce
I0403 15:26:32.033144  3091 net.cpp:148] Top shape: 24 96 28 28 (1806336)
I0403 15:26:32.033160  3091 net.cpp:156] Memory required for data: 515408928
I0403 15:26:32.033176  3091 layer_factory.hpp:77] Creating layer inception_3a/3x3
I0403 15:26:32.033200  3091 net.cpp:91] Creating Layer inception_3a/3x3
I0403 15:26:32.033218  3091 net.cpp:425] inception_3a/3x3 <- inception_3a/3x3_reduce
I0403 15:26:32.033238  3091 net.cpp:399] inception_3a/3x3 -> inception_3a/3x3
I0403 15:26:32.034991  3091 net.cpp:141] Setting up inception_3a/3x3
I0403 15:26:32.035022  3091 net.cpp:148] Top shape: 24 128 28 28 (2408448)
I0403 15:26:32.035037  3091 net.cpp:156] Memory required for data: 525042720
I0403 15:26:32.035058  3091 layer_factory.hpp:77] Creating layer inception_3a/relu_3x3
I0403 15:26:32.035079  3091 net.cpp:91] Creating Layer inception_3a/relu_3x3
I0403 15:26:32.035096  3091 net.cpp:425] inception_3a/relu_3x3 <- inception_3a/3x3
I0403 15:26:32.035115  3091 net.cpp:386] inception_3a/relu_3x3 -> inception_3a/3x3 (in-place)
I0403 15:26:32.035413  3091 net.cpp:141] Setting up inception_3a/relu_3x3
I0403 15:26:32.035441  3091 net.cpp:148] Top shape: 24 128 28 28 (2408448)
I0403 15:26:32.035457  3091 net.cpp:156] Memory required for data: 534676512
I0403 15:26:32.035475  3091 layer_factory.hpp:77] Creating layer inception_3a/5x5_reduce
I0403 15:26:32.035498  3091 net.cpp:91] Creating Layer inception_3a/5x5_reduce
I0403 15:26:32.035516  3091 net.cpp:425] inception_3a/5x5_reduce <- pool2/3x3_s2_pool2/3x3_s2_0_split_2
I0403 15:26:32.035542  3091 net.cpp:399] inception_3a/5x5_reduce -> inception_3a/5x5_reduce
I0403 15:26:32.036564  3091 net.cpp:141] Setting up inception_3a/5x5_reduce
I0403 15:26:32.036593  3091 net.cpp:148] Top shape: 24 16 28 28 (301056)
I0403 15:26:32.036609  3091 net.cpp:156] Memory required for data: 535880736
I0403 15:26:32.036629  3091 layer_factory.hpp:77] Creating layer inception_3a/relu_5x5_reduce
I0403 15:26:32.036651  3091 net.cpp:91] Creating Layer inception_3a/relu_5x5_reduce
I0403 15:26:32.036669  3091 net.cpp:425] inception_3a/relu_5x5_reduce <- inception_3a/5x5_reduce
I0403 15:26:32.036687  3091 net.cpp:386] inception_3a/relu_5x5_reduce -> inception_3a/5x5_reduce (in-place)
I0403 15:26:32.037004  3091 net.cpp:141] Setting up inception_3a/relu_5x5_reduce
I0403 15:26:32.037032  3091 net.cpp:148] Top shape: 24 16 28 28 (301056)
I0403 15:26:32.037048  3091 net.cpp:156] Memory required for data: 537084960
I0403 15:26:32.037065  3091 layer_factory.hpp:77] Creating layer inception_3a/5x5
I0403 15:26:32.037088  3091 net.cpp:91] Creating Layer inception_3a/5x5
I0403 15:26:32.037107  3091 net.cpp:425] inception_3a/5x5 <- inception_3a/5x5_reduce
I0403 15:26:32.037129  3091 net.cpp:399] inception_3a/5x5 -> inception_3a/5x5
I0403 15:26:32.038202  3091 net.cpp:141] Setting up inception_3a/5x5
I0403 15:26:32.038234  3091 net.cpp:148] Top shape: 24 32 28 28 (602112)
I0403 15:26:32.038251  3091 net.cpp:156] Memory required for data: 539493408
I0403 15:26:32.038276  3091 layer_factory.hpp:77] Creating layer inception_3a/relu_5x5
I0403 15:26:32.038297  3091 net.cpp:91] Creating Layer inception_3a/relu_5x5
I0403 15:26:32.038314  3091 net.cpp:425] inception_3a/relu_5x5 <- inception_3a/5x5
I0403 15:26:32.038336  3091 net.cpp:386] inception_3a/relu_5x5 -> inception_3a/5x5 (in-place)
I0403 15:26:32.038524  3091 net.cpp:141] Setting up inception_3a/relu_5x5
I0403 15:26:32.038552  3091 net.cpp:148] Top shape: 24 32 28 28 (602112)
I0403 15:26:32.038566  3091 net.cpp:156] Memory required for data: 541901856
I0403 15:26:32.038583  3091 layer_factory.hpp:77] Creating layer inception_3a/pool
I0403 15:26:32.038604  3091 net.cpp:91] Creating Layer inception_3a/pool
I0403 15:26:32.038635  3091 net.cpp:425] inception_3a/pool <- pool2/3x3_s2_pool2/3x3_s2_0_split_3
I0403 15:26:32.038655  3091 net.cpp:399] inception_3a/pool -> inception_3a/pool
I0403 15:26:32.038717  3091 net.cpp:141] Setting up inception_3a/pool
I0403 15:26:32.038741  3091 net.cpp:148] Top shape: 24 192 28 28 (3612672)
I0403 15:26:32.038756  3091 net.cpp:156] Memory required for data: 556352544
I0403 15:26:32.038772  3091 layer_factory.hpp:77] Creating layer inception_3a/pool_proj
I0403 15:26:32.038795  3091 net.cpp:91] Creating Layer inception_3a/pool_proj
I0403 15:26:32.038815  3091 net.cpp:425] inception_3a/pool_proj <- inception_3a/pool
I0403 15:26:32.038836  3091 net.cpp:399] inception_3a/pool_proj -> inception_3a/pool_proj
I0403 15:26:32.039849  3091 net.cpp:141] Setting up inception_3a/pool_proj
I0403 15:26:32.039878  3091 net.cpp:148] Top shape: 24 32 28 28 (602112)
I0403 15:26:32.039896  3091 net.cpp:156] Memory required for data: 558760992
I0403 15:26:32.039921  3091 layer_factory.hpp:77] Creating layer inception_3a/relu_pool_proj
I0403 15:26:32.039945  3091 net.cpp:91] Creating Layer inception_3a/relu_pool_proj
I0403 15:26:32.039964  3091 net.cpp:425] inception_3a/relu_pool_proj <- inception_3a/pool_proj
I0403 15:26:32.039983  3091 net.cpp:386] inception_3a/relu_pool_proj -> inception_3a/pool_proj (in-place)
I0403 15:26:32.040268  3091 net.cpp:141] Setting up inception_3a/relu_pool_proj
I0403 15:26:32.040302  3091 net.cpp:148] Top shape: 24 32 28 28 (602112)
I0403 15:26:32.040318  3091 net.cpp:156] Memory required for data: 561169440
I0403 15:26:32.040333  3091 layer_factory.hpp:77] Creating layer inception_3a/output
I0403 15:26:32.040352  3091 net.cpp:91] Creating Layer inception_3a/output
I0403 15:26:32.040369  3091 net.cpp:425] inception_3a/output <- inception_3a/1x1
I0403 15:26:32.040387  3091 net.cpp:425] inception_3a/output <- inception_3a/3x3
I0403 15:26:32.040405  3091 net.cpp:425] inception_3a/output <- inception_3a/5x5
I0403 15:26:32.040421  3091 net.cpp:425] inception_3a/output <- inception_3a/pool_proj
I0403 15:26:32.040442  3091 net.cpp:399] inception_3a/output -> inception_3a/output
I0403 15:26:32.040491  3091 net.cpp:141] Setting up inception_3a/output
I0403 15:26:32.040518  3091 net.cpp:148] Top shape: 24 256 28 28 (4816896)
I0403 15:26:32.040534  3091 net.cpp:156] Memory required for data: 580437024
I0403 15:26:32.040550  3091 layer_factory.hpp:77] Creating layer inception_3a/output_inception_3a/output_0_split
I0403 15:26:32.040568  3091 net.cpp:91] Creating Layer inception_3a/output_inception_3a/output_0_split
I0403 15:26:32.040585  3091 net.cpp:425] inception_3a/output_inception_3a/output_0_split <- inception_3a/output
I0403 15:26:32.040604  3091 net.cpp:399] inception_3a/output_inception_3a/output_0_split -> inception_3a/output_inception_3a/output_0_split_0
I0403 15:26:32.040627  3091 net.cpp:399] inception_3a/output_inception_3a/output_0_split -> inception_3a/output_inception_3a/output_0_split_1
I0403 15:26:32.040650  3091 net.cpp:399] inception_3a/output_inception_3a/output_0_split -> inception_3a/output_inception_3a/output_0_split_2
I0403 15:26:32.040673  3091 net.cpp:399] inception_3a/output_inception_3a/output_0_split -> inception_3a/output_inception_3a/output_0_split_3
I0403 15:26:32.040751  3091 net.cpp:141] Setting up inception_3a/output_inception_3a/output_0_split
I0403 15:26:32.040777  3091 net.cpp:148] Top shape: 24 256 28 28 (4816896)
I0403 15:26:32.040796  3091 net.cpp:148] Top shape: 24 256 28 28 (4816896)
I0403 15:26:32.040812  3091 net.cpp:148] Top shape: 24 256 28 28 (4816896)
I0403 15:26:32.040828  3091 net.cpp:148] Top shape: 24 256 28 28 (4816896)
I0403 15:26:32.040843  3091 net.cpp:156] Memory required for data: 657507360
I0403 15:26:32.040859  3091 layer_factory.hpp:77] Creating layer inception_3b/1x1
I0403 15:26:32.040882  3091 net.cpp:91] Creating Layer inception_3b/1x1
I0403 15:26:32.040901  3091 net.cpp:425] inception_3b/1x1 <- inception_3a/output_inception_3a/output_0_split_0
I0403 15:26:32.040923  3091 net.cpp:399] inception_3b/1x1 -> inception_3b/1x1
I0403 15:26:32.042121  3091 net.cpp:141] Setting up inception_3b/1x1
I0403 15:26:32.042166  3091 net.cpp:148] Top shape: 24 128 28 28 (2408448)
I0403 15:26:32.042184  3091 net.cpp:156] Memory required for data: 667141152
I0403 15:26:32.042204  3091 layer_factory.hpp:77] Creating layer inception_3b/relu_1x1
I0403 15:26:32.042224  3091 net.cpp:91] Creating Layer inception_3b/relu_1x1
I0403 15:26:32.042240  3091 net.cpp:425] inception_3b/relu_1x1 <- inception_3b/1x1
I0403 15:26:32.042261  3091 net.cpp:386] inception_3b/relu_1x1 -> inception_3b/1x1 (in-place)
I0403 15:26:32.042464  3091 net.cpp:141] Setting up inception_3b/relu_1x1
I0403 15:26:32.042490  3091 net.cpp:148] Top shape: 24 128 28 28 (2408448)
I0403 15:26:32.042506  3091 net.cpp:156] Memory required for data: 676774944
I0403 15:26:32.042522  3091 layer_factory.hpp:77] Creating layer inception_3b/3x3_reduce
I0403 15:26:32.042546  3091 net.cpp:91] Creating Layer inception_3b/3x3_reduce
I0403 15:26:32.042564  3091 net.cpp:425] inception_3b/3x3_reduce <- inception_3a/output_inception_3a/output_0_split_1
I0403 15:26:32.042587  3091 net.cpp:399] inception_3b/3x3_reduce -> inception_3b/3x3_reduce
I0403 15:26:32.043783  3091 net.cpp:141] Setting up inception_3b/3x3_reduce
I0403 15:26:32.043815  3091 net.cpp:148] Top shape: 24 128 28 28 (2408448)
I0403 15:26:32.043833  3091 net.cpp:156] Memory required for data: 686408736
I0403 15:26:32.043851  3091 layer_factory.hpp:77] Creating layer inception_3b/relu_3x3_reduce
I0403 15:26:32.043870  3091 net.cpp:91] Creating Layer inception_3b/relu_3x3_reduce
I0403 15:26:32.043886  3091 net.cpp:425] inception_3b/relu_3x3_reduce <- inception_3b/3x3_reduce
I0403 15:26:32.043907  3091 net.cpp:386] inception_3b/relu_3x3_reduce -> inception_3b/3x3_reduce (in-place)
I0403 15:26:32.044095  3091 net.cpp:141] Setting up inception_3b/relu_3x3_reduce
I0403 15:26:32.044121  3091 net.cpp:148] Top shape: 24 128 28 28 (2408448)
I0403 15:26:32.044137  3091 net.cpp:156] Memory required for data: 696042528
I0403 15:26:32.044152  3091 layer_factory.hpp:77] Creating layer inception_3b/3x3
I0403 15:26:32.044179  3091 net.cpp:91] Creating Layer inception_3b/3x3
I0403 15:26:32.044198  3091 net.cpp:425] inception_3b/3x3 <- inception_3b/3x3_reduce
I0403 15:26:32.044219  3091 net.cpp:399] inception_3b/3x3 -> inception_3b/3x3
I0403 15:26:32.047292  3091 net.cpp:141] Setting up inception_3b/3x3
I0403 15:26:32.047322  3091 net.cpp:148] Top shape: 24 192 28 28 (3612672)
I0403 15:26:32.047339  3091 net.cpp:156] Memory required for data: 710493216
I0403 15:26:32.047359  3091 layer_factory.hpp:77] Creating layer inception_3b/relu_3x3
I0403 15:26:32.047380  3091 net.cpp:91] Creating Layer inception_3b/relu_3x3
I0403 15:26:32.047399  3091 net.cpp:425] inception_3b/relu_3x3 <- inception_3b/3x3
I0403 15:26:32.047416  3091 net.cpp:386] inception_3b/relu_3x3 -> inception_3b/3x3 (in-place)
I0403 15:26:32.047706  3091 net.cpp:141] Setting up inception_3b/relu_3x3
I0403 15:26:32.047735  3091 net.cpp:148] Top shape: 24 192 28 28 (3612672)
I0403 15:26:32.047751  3091 net.cpp:156] Memory required for data: 724943904
I0403 15:26:32.047767  3091 layer_factory.hpp:77] Creating layer inception_3b/5x5_reduce
I0403 15:26:32.047792  3091 net.cpp:91] Creating Layer inception_3b/5x5_reduce
I0403 15:26:32.047811  3091 net.cpp:425] inception_3b/5x5_reduce <- inception_3a/output_inception_3a/output_0_split_2
I0403 15:26:32.047833  3091 net.cpp:399] inception_3b/5x5_reduce -> inception_3b/5x5_reduce
I0403 15:26:32.048892  3091 net.cpp:141] Setting up inception_3b/5x5_reduce
I0403 15:26:32.048920  3091 net.cpp:148] Top shape: 24 32 28 28 (602112)
I0403 15:26:32.048936  3091 net.cpp:156] Memory required for data: 727352352
I0403 15:26:32.048956  3091 layer_factory.hpp:77] Creating layer inception_3b/relu_5x5_reduce
I0403 15:26:32.048974  3091 net.cpp:91] Creating Layer inception_3b/relu_5x5_reduce
I0403 15:26:32.048990  3091 net.cpp:425] inception_3b/relu_5x5_reduce <- inception_3b/5x5_reduce
I0403 15:26:32.049011  3091 net.cpp:386] inception_3b/relu_5x5_reduce -> inception_3b/5x5_reduce (in-place)
I0403 15:26:32.049211  3091 net.cpp:141] Setting up inception_3b/relu_5x5_reduce
I0403 15:26:32.049237  3091 net.cpp:148] Top shape: 24 32 28 28 (602112)
I0403 15:26:32.049252  3091 net.cpp:156] Memory required for data: 729760800
I0403 15:26:32.049268  3091 layer_factory.hpp:77] Creating layer inception_3b/5x5
I0403 15:26:32.049296  3091 net.cpp:91] Creating Layer inception_3b/5x5
I0403 15:26:32.049315  3091 net.cpp:425] inception_3b/5x5 <- inception_3b/5x5_reduce
I0403 15:26:32.049337  3091 net.cpp:399] inception_3b/5x5 -> inception_3b/5x5
I0403 15:26:32.051360  3091 net.cpp:141] Setting up inception_3b/5x5
I0403 15:26:32.051393  3091 net.cpp:148] Top shape: 24 96 28 28 (1806336)
I0403 15:26:32.051410  3091 net.cpp:156] Memory required for data: 736986144
I0403 15:26:32.051429  3091 layer_factory.hpp:77] Creating layer inception_3b/relu_5x5
I0403 15:26:32.051447  3091 net.cpp:91] Creating Layer inception_3b/relu_5x5
I0403 15:26:32.051463  3091 net.cpp:425] inception_3b/relu_5x5 <- inception_3b/5x5
I0403 15:26:32.051483  3091 net.cpp:386] inception_3b/relu_5x5 -> inception_3b/5x5 (in-place)
I0403 15:26:32.051684  3091 net.cpp:141] Setting up inception_3b/relu_5x5
I0403 15:26:32.051710  3091 net.cpp:148] Top shape: 24 96 28 28 (1806336)
I0403 15:26:32.051725  3091 net.cpp:156] Memory required for data: 744211488
I0403 15:26:32.051741  3091 layer_factory.hpp:77] Creating layer inception_3b/pool
I0403 15:26:32.051759  3091 net.cpp:91] Creating Layer inception_3b/pool
I0403 15:26:32.051776  3091 net.cpp:425] inception_3b/pool <- inception_3a/output_inception_3a/output_0_split_3
I0403 15:26:32.051795  3091 net.cpp:399] inception_3b/pool -> inception_3b/pool
I0403 15:26:32.051852  3091 net.cpp:141] Setting up inception_3b/pool
I0403 15:26:32.051877  3091 net.cpp:148] Top shape: 24 256 28 28 (4816896)
I0403 15:26:32.051892  3091 net.cpp:156] Memory required for data: 763479072
I0403 15:26:32.051906  3091 layer_factory.hpp:77] Creating layer inception_3b/pool_proj
I0403 15:26:32.051930  3091 net.cpp:91] Creating Layer inception_3b/pool_proj
I0403 15:26:32.051949  3091 net.cpp:425] inception_3b/pool_proj <- inception_3b/pool
I0403 15:26:32.051969  3091 net.cpp:399] inception_3b/pool_proj -> inception_3b/pool_proj
I0403 15:26:32.053064  3091 net.cpp:141] Setting up inception_3b/pool_proj
I0403 15:26:32.053093  3091 net.cpp:148] Top shape: 24 64 28 28 (1204224)
I0403 15:26:32.053109  3091 net.cpp:156] Memory required for data: 768295968
I0403 15:26:32.053128  3091 layer_factory.hpp:77] Creating layer inception_3b/relu_pool_proj
I0403 15:26:32.053149  3091 net.cpp:91] Creating Layer inception_3b/relu_pool_proj
I0403 15:26:32.053167  3091 net.cpp:425] inception_3b/relu_pool_proj <- inception_3b/pool_proj
I0403 15:26:32.053185  3091 net.cpp:386] inception_3b/relu_pool_proj -> inception_3b/pool_proj (in-place)
I0403 15:26:32.053597  3091 net.cpp:141] Setting up inception_3b/relu_pool_proj
I0403 15:26:32.053625  3091 net.cpp:148] Top shape: 24 64 28 28 (1204224)
I0403 15:26:32.053642  3091 net.cpp:156] Memory required for data: 773112864
I0403 15:26:32.053656  3091 layer_factory.hpp:77] Creating layer inception_3b/output
I0403 15:26:32.053678  3091 net.cpp:91] Creating Layer inception_3b/output
I0403 15:26:32.053694  3091 net.cpp:425] inception_3b/output <- inception_3b/1x1
I0403 15:26:32.053711  3091 net.cpp:425] inception_3b/output <- inception_3b/3x3
I0403 15:26:32.053728  3091 net.cpp:425] inception_3b/output <- inception_3b/5x5
I0403 15:26:32.053745  3091 net.cpp:425] inception_3b/output <- inception_3b/pool_proj
I0403 15:26:32.053762  3091 net.cpp:399] inception_3b/output -> inception_3b/output
I0403 15:26:32.053807  3091 net.cpp:141] Setting up inception_3b/output
I0403 15:26:32.053833  3091 net.cpp:148] Top shape: 24 480 28 28 (9031680)
I0403 15:26:32.053848  3091 net.cpp:156] Memory required for data: 809239584
I0403 15:26:32.053864  3091 layer_factory.hpp:77] Creating layer pool3/3x3_s2
I0403 15:26:32.053881  3091 net.cpp:91] Creating Layer pool3/3x3_s2
I0403 15:26:32.053897  3091 net.cpp:425] pool3/3x3_s2 <- inception_3b/output
I0403 15:26:32.053932  3091 net.cpp:399] pool3/3x3_s2 -> pool3/3x3_s2
I0403 15:26:32.053993  3091 net.cpp:141] Setting up pool3/3x3_s2
I0403 15:26:32.054019  3091 net.cpp:148] Top shape: 24 480 14 14 (2257920)
I0403 15:26:32.054035  3091 net.cpp:156] Memory required for data: 818271264
I0403 15:26:32.054050  3091 layer_factory.hpp:77] Creating layer pool3/3x3_s2_pool3/3x3_s2_0_split
I0403 15:26:32.054069  3091 net.cpp:91] Creating Layer pool3/3x3_s2_pool3/3x3_s2_0_split
I0403 15:26:32.054083  3091 net.cpp:425] pool3/3x3_s2_pool3/3x3_s2_0_split <- pool3/3x3_s2
I0403 15:26:32.054101  3091 net.cpp:399] pool3/3x3_s2_pool3/3x3_s2_0_split -> pool3/3x3_s2_pool3/3x3_s2_0_split_0
I0403 15:26:32.054121  3091 net.cpp:399] pool3/3x3_s2_pool3/3x3_s2_0_split -> pool3/3x3_s2_pool3/3x3_s2_0_split_1
I0403 15:26:32.054144  3091 net.cpp:399] pool3/3x3_s2_pool3/3x3_s2_0_split -> pool3/3x3_s2_pool3/3x3_s2_0_split_2
I0403 15:26:32.054167  3091 net.cpp:399] pool3/3x3_s2_pool3/3x3_s2_0_split -> pool3/3x3_s2_pool3/3x3_s2_0_split_3
I0403 15:26:32.054246  3091 net.cpp:141] Setting up pool3/3x3_s2_pool3/3x3_s2_0_split
I0403 15:26:32.054273  3091 net.cpp:148] Top shape: 24 480 14 14 (2257920)
I0403 15:26:32.054291  3091 net.cpp:148] Top shape: 24 480 14 14 (2257920)
I0403 15:26:32.054307  3091 net.cpp:148] Top shape: 24 480 14 14 (2257920)
I0403 15:26:32.054323  3091 net.cpp:148] Top shape: 24 480 14 14 (2257920)
I0403 15:26:32.054337  3091 net.cpp:156] Memory required for data: 854397984
I0403 15:26:32.054352  3091 layer_factory.hpp:77] Creating layer inception_4a/1x1
I0403 15:26:32.054375  3091 net.cpp:91] Creating Layer inception_4a/1x1
I0403 15:26:32.054393  3091 net.cpp:425] inception_4a/1x1 <- pool3/3x3_s2_pool3/3x3_s2_0_split_0
I0403 15:26:32.054414  3091 net.cpp:399] inception_4a/1x1 -> inception_4a/1x1
I0403 15:26:32.056028  3091 net.cpp:141] Setting up inception_4a/1x1
I0403 15:26:32.056057  3091 net.cpp:148] Top shape: 24 192 14 14 (903168)
I0403 15:26:32.056073  3091 net.cpp:156] Memory required for data: 858010656
I0403 15:26:32.056092  3091 layer_factory.hpp:77] Creating layer inception_4a/relu_1x1
I0403 15:26:32.056113  3091 net.cpp:91] Creating Layer inception_4a/relu_1x1
I0403 15:26:32.056130  3091 net.cpp:425] inception_4a/relu_1x1 <- inception_4a/1x1
I0403 15:26:32.056149  3091 net.cpp:386] inception_4a/relu_1x1 -> inception_4a/1x1 (in-place)
I0403 15:26:32.056337  3091 net.cpp:141] Setting up inception_4a/relu_1x1
I0403 15:26:32.056363  3091 net.cpp:148] Top shape: 24 192 14 14 (903168)
I0403 15:26:32.056378  3091 net.cpp:156] Memory required for data: 861623328
I0403 15:26:32.056394  3091 layer_factory.hpp:77] Creating layer inception_4a/3x3_reduce
I0403 15:26:32.056416  3091 net.cpp:91] Creating Layer inception_4a/3x3_reduce
I0403 15:26:32.056434  3091 net.cpp:425] inception_4a/3x3_reduce <- pool3/3x3_s2_pool3/3x3_s2_0_split_1
I0403 15:26:32.056457  3091 net.cpp:399] inception_4a/3x3_reduce -> inception_4a/3x3_reduce
I0403 15:26:32.057781  3091 net.cpp:141] Setting up inception_4a/3x3_reduce
I0403 15:26:32.057809  3091 net.cpp:148] Top shape: 24 96 14 14 (451584)
I0403 15:26:32.057826  3091 net.cpp:156] Memory required for data: 863429664
I0403 15:26:32.057852  3091 layer_factory.hpp:77] Creating layer inception_4a/relu_3x3_reduce
I0403 15:26:32.057873  3091 net.cpp:91] Creating Layer inception_4a/relu_3x3_reduce
I0403 15:26:32.057891  3091 net.cpp:425] inception_4a/relu_3x3_reduce <- inception_4a/3x3_reduce
I0403 15:26:32.057909  3091 net.cpp:386] inception_4a/relu_3x3_reduce -> inception_4a/3x3_reduce (in-place)
I0403 15:26:32.058094  3091 net.cpp:141] Setting up inception_4a/relu_3x3_reduce
I0403 15:26:32.058122  3091 net.cpp:148] Top shape: 24 96 14 14 (451584)
I0403 15:26:32.058138  3091 net.cpp:156] Memory required for data: 865236000
I0403 15:26:32.058153  3091 layer_factory.hpp:77] Creating layer inception_4a/3x3
I0403 15:26:32.058176  3091 net.cpp:91] Creating Layer inception_4a/3x3
I0403 15:26:32.058193  3091 net.cpp:425] inception_4a/3x3 <- inception_4a/3x3_reduce
I0403 15:26:32.058213  3091 net.cpp:399] inception_4a/3x3 -> inception_4a/3x3
I0403 15:26:32.060963  3091 net.cpp:141] Setting up inception_4a/3x3
I0403 15:26:32.060995  3091 net.cpp:148] Top shape: 24 208 14 14 (978432)
I0403 15:26:32.061012  3091 net.cpp:156] Memory required for data: 869149728
I0403 15:26:32.061033  3091 layer_factory.hpp:77] Creating layer inception_4a/relu_3x3
I0403 15:26:32.061051  3091 net.cpp:91] Creating Layer inception_4a/relu_3x3
I0403 15:26:32.061067  3091 net.cpp:425] inception_4a/relu_3x3 <- inception_4a/3x3
I0403 15:26:32.061087  3091 net.cpp:386] inception_4a/relu_3x3 -> inception_4a/3x3 (in-place)
I0403 15:26:32.061378  3091 net.cpp:141] Setting up inception_4a/relu_3x3
I0403 15:26:32.061408  3091 net.cpp:148] Top shape: 24 208 14 14 (978432)
I0403 15:26:32.061424  3091 net.cpp:156] Memory required for data: 873063456
I0403 15:26:32.061440  3091 layer_factory.hpp:77] Creating layer inception_4a/5x5_reduce
I0403 15:26:32.061465  3091 net.cpp:91] Creating Layer inception_4a/5x5_reduce
I0403 15:26:32.061483  3091 net.cpp:425] inception_4a/5x5_reduce <- pool3/3x3_s2_pool3/3x3_s2_0_split_2
I0403 15:26:32.061503  3091 net.cpp:399] inception_4a/5x5_reduce -> inception_4a/5x5_reduce
I0403 15:26:32.062566  3091 net.cpp:141] Setting up inception_4a/5x5_reduce
I0403 15:26:32.062597  3091 net.cpp:148] Top shape: 24 16 14 14 (75264)
I0403 15:26:32.062613  3091 net.cpp:156] Memory required for data: 873364512
I0403 15:26:32.062633  3091 layer_factory.hpp:77] Creating layer inception_4a/relu_5x5_reduce
I0403 15:26:32.062651  3091 net.cpp:91] Creating Layer inception_4a/relu_5x5_reduce
I0403 15:26:32.062669  3091 net.cpp:425] inception_4a/relu_5x5_reduce <- inception_4a/5x5_reduce
I0403 15:26:32.062688  3091 net.cpp:386] inception_4a/relu_5x5_reduce -> inception_4a/5x5_reduce (in-place)
I0403 15:26:32.062870  3091 net.cpp:141] Setting up inception_4a/relu_5x5_reduce
I0403 15:26:32.062896  3091 net.cpp:148] Top shape: 24 16 14 14 (75264)
I0403 15:26:32.062911  3091 net.cpp:156] Memory required for data: 873665568
I0403 15:26:32.062927  3091 layer_factory.hpp:77] Creating layer inception_4a/5x5
I0403 15:26:32.062948  3091 net.cpp:91] Creating Layer inception_4a/5x5
I0403 15:26:32.062966  3091 net.cpp:425] inception_4a/5x5 <- inception_4a/5x5_reduce
I0403 15:26:32.062988  3091 net.cpp:399] inception_4a/5x5 -> inception_4a/5x5
I0403 15:26:32.064121  3091 net.cpp:141] Setting up inception_4a/5x5
I0403 15:26:32.064149  3091 net.cpp:148] Top shape: 24 48 14 14 (225792)
I0403 15:26:32.064164  3091 net.cpp:156] Memory required for data: 874568736
I0403 15:26:32.064183  3091 layer_factory.hpp:77] Creating layer inception_4a/relu_5x5
I0403 15:26:32.064205  3091 net.cpp:91] Creating Layer inception_4a/relu_5x5
I0403 15:26:32.064224  3091 net.cpp:425] inception_4a/relu_5x5 <- inception_4a/5x5
I0403 15:26:32.064241  3091 net.cpp:386] inception_4a/relu_5x5 -> inception_4a/5x5 (in-place)
I0403 15:26:32.064453  3091 net.cpp:141] Setting up inception_4a/relu_5x5
I0403 15:26:32.064481  3091 net.cpp:148] Top shape: 24 48 14 14 (225792)
I0403 15:26:32.064496  3091 net.cpp:156] Memory required for data: 875471904
I0403 15:26:32.064512  3091 layer_factory.hpp:77] Creating layer inception_4a/pool
I0403 15:26:32.064534  3091 net.cpp:91] Creating Layer inception_4a/pool
I0403 15:26:32.064551  3091 net.cpp:425] inception_4a/pool <- pool3/3x3_s2_pool3/3x3_s2_0_split_3
I0403 15:26:32.064574  3091 net.cpp:399] inception_4a/pool -> inception_4a/pool
I0403 15:26:32.064637  3091 net.cpp:141] Setting up inception_4a/pool
I0403 15:26:32.064663  3091 net.cpp:148] Top shape: 24 480 14 14 (2257920)
I0403 15:26:32.064678  3091 net.cpp:156] Memory required for data: 884503584
I0403 15:26:32.064694  3091 layer_factory.hpp:77] Creating layer inception_4a/pool_proj
I0403 15:26:32.064718  3091 net.cpp:91] Creating Layer inception_4a/pool_proj
I0403 15:26:32.064736  3091 net.cpp:425] inception_4a/pool_proj <- inception_4a/pool
I0403 15:26:32.064759  3091 net.cpp:399] inception_4a/pool_proj -> inception_4a/pool_proj
I0403 15:26:32.066027  3091 net.cpp:141] Setting up inception_4a/pool_proj
I0403 15:26:32.066058  3091 net.cpp:148] Top shape: 24 64 14 14 (301056)
I0403 15:26:32.066090  3091 net.cpp:156] Memory required for data: 885707808
I0403 15:26:32.066112  3091 layer_factory.hpp:77] Creating layer inception_4a/relu_pool_proj
I0403 15:26:32.066134  3091 net.cpp:91] Creating Layer inception_4a/relu_pool_proj
I0403 15:26:32.066153  3091 net.cpp:425] inception_4a/relu_pool_proj <- inception_4a/pool_proj
I0403 15:26:32.066171  3091 net.cpp:386] inception_4a/relu_pool_proj -> inception_4a/pool_proj (in-place)
I0403 15:26:32.066651  3091 net.cpp:141] Setting up inception_4a/relu_pool_proj
I0403 15:26:32.066679  3091 net.cpp:148] Top shape: 24 64 14 14 (301056)
I0403 15:26:32.066694  3091 net.cpp:156] Memory required for data: 886912032
I0403 15:26:32.066710  3091 layer_factory.hpp:77] Creating layer inception_4a/output
I0403 15:26:32.066730  3091 net.cpp:91] Creating Layer inception_4a/output
I0403 15:26:32.066747  3091 net.cpp:425] inception_4a/output <- inception_4a/1x1
I0403 15:26:32.066764  3091 net.cpp:425] inception_4a/output <- inception_4a/3x3
I0403 15:26:32.066781  3091 net.cpp:425] inception_4a/output <- inception_4a/5x5
I0403 15:26:32.066797  3091 net.cpp:425] inception_4a/output <- inception_4a/pool_proj
I0403 15:26:32.066815  3091 net.cpp:399] inception_4a/output -> inception_4a/output
I0403 15:26:32.066862  3091 net.cpp:141] Setting up inception_4a/output
I0403 15:26:32.066886  3091 net.cpp:148] Top shape: 24 512 14 14 (2408448)
I0403 15:26:32.066901  3091 net.cpp:156] Memory required for data: 896545824
I0403 15:26:32.066917  3091 layer_factory.hpp:77] Creating layer inception_4a/output_inception_4a/output_0_split
I0403 15:26:32.066936  3091 net.cpp:91] Creating Layer inception_4a/output_inception_4a/output_0_split
I0403 15:26:32.066951  3091 net.cpp:425] inception_4a/output_inception_4a/output_0_split <- inception_4a/output
I0403 15:26:32.066972  3091 net.cpp:399] inception_4a/output_inception_4a/output_0_split -> inception_4a/output_inception_4a/output_0_split_0
I0403 15:26:32.066995  3091 net.cpp:399] inception_4a/output_inception_4a/output_0_split -> inception_4a/output_inception_4a/output_0_split_1
I0403 15:26:32.067016  3091 net.cpp:399] inception_4a/output_inception_4a/output_0_split -> inception_4a/output_inception_4a/output_0_split_2
I0403 15:26:32.067037  3091 net.cpp:399] inception_4a/output_inception_4a/output_0_split -> inception_4a/output_inception_4a/output_0_split_3
I0403 15:26:32.067057  3091 net.cpp:399] inception_4a/output_inception_4a/output_0_split -> inception_4a/output_inception_4a/output_0_split_4
I0403 15:26:32.067154  3091 net.cpp:141] Setting up inception_4a/output_inception_4a/output_0_split
I0403 15:26:32.067178  3091 net.cpp:148] Top shape: 24 512 14 14 (2408448)
I0403 15:26:32.067195  3091 net.cpp:148] Top shape: 24 512 14 14 (2408448)
I0403 15:26:32.067211  3091 net.cpp:148] Top shape: 24 512 14 14 (2408448)
I0403 15:26:32.067227  3091 net.cpp:148] Top shape: 24 512 14 14 (2408448)
I0403 15:26:32.067244  3091 net.cpp:148] Top shape: 24 512 14 14 (2408448)
I0403 15:26:32.067257  3091 net.cpp:156] Memory required for data: 944714784
I0403 15:26:32.067276  3091 layer_factory.hpp:77] Creating layer loss1/ave_pool
I0403 15:26:32.067296  3091 net.cpp:91] Creating Layer loss1/ave_pool
I0403 15:26:32.067313  3091 net.cpp:425] loss1/ave_pool <- inception_4a/output_inception_4a/output_0_split_0
I0403 15:26:32.067334  3091 net.cpp:399] loss1/ave_pool -> loss1/ave_pool
I0403 15:26:32.067553  3091 net.cpp:141] Setting up loss1/ave_pool
I0403 15:26:32.067579  3091 net.cpp:148] Top shape: 24 512 4 4 (196608)
I0403 15:26:32.067597  3091 net.cpp:156] Memory required for data: 945501216
I0403 15:26:32.067613  3091 layer_factory.hpp:77] Creating layer loss1/conv
I0403 15:26:32.067633  3091 net.cpp:91] Creating Layer loss1/conv
I0403 15:26:32.067651  3091 net.cpp:425] loss1/conv <- loss1/ave_pool
I0403 15:26:32.067674  3091 net.cpp:399] loss1/conv -> loss1/conv
I0403 15:26:32.069138  3091 net.cpp:141] Setting up loss1/conv
I0403 15:26:32.069169  3091 net.cpp:148] Top shape: 24 128 4 4 (49152)
I0403 15:26:32.069201  3091 net.cpp:156] Memory required for data: 945697824
I0403 15:26:32.069226  3091 layer_factory.hpp:77] Creating layer loss1/relu_conv
I0403 15:26:32.069255  3091 net.cpp:91] Creating Layer loss1/relu_conv
I0403 15:26:32.069283  3091 net.cpp:425] loss1/relu_conv <- loss1/conv
I0403 15:26:32.069309  3091 net.cpp:386] loss1/relu_conv -> loss1/conv (in-place)
I0403 15:26:32.069602  3091 net.cpp:141] Setting up loss1/relu_conv
I0403 15:26:32.069633  3091 net.cpp:148] Top shape: 24 128 4 4 (49152)
I0403 15:26:32.069649  3091 net.cpp:156] Memory required for data: 945894432
I0403 15:26:32.069664  3091 layer_factory.hpp:77] Creating layer loss1/fc
I0403 15:26:32.069689  3091 net.cpp:91] Creating Layer loss1/fc
I0403 15:26:32.069706  3091 net.cpp:425] loss1/fc <- loss1/conv
I0403 15:26:32.069728  3091 net.cpp:399] loss1/fc -> loss1/fc
I0403 15:26:32.087525  3091 net.cpp:141] Setting up loss1/fc
I0403 15:26:32.087563  3091 net.cpp:148] Top shape: 24 1024 (24576)
I0403 15:26:32.087577  3091 net.cpp:156] Memory required for data: 945992736
I0403 15:26:32.087596  3091 layer_factory.hpp:77] Creating layer loss1/relu_fc
I0403 15:26:32.087616  3091 net.cpp:91] Creating Layer loss1/relu_fc
I0403 15:26:32.087633  3091 net.cpp:425] loss1/relu_fc <- loss1/fc
I0403 15:26:32.087651  3091 net.cpp:386] loss1/relu_fc -> loss1/fc (in-place)
I0403 15:26:32.087836  3091 net.cpp:141] Setting up loss1/relu_fc
I0403 15:26:32.087860  3091 net.cpp:148] Top shape: 24 1024 (24576)
I0403 15:26:32.087874  3091 net.cpp:156] Memory required for data: 946091040
I0403 15:26:32.087889  3091 layer_factory.hpp:77] Creating layer loss1/drop_fc
I0403 15:26:32.087916  3091 net.cpp:91] Creating Layer loss1/drop_fc
I0403 15:26:32.087934  3091 net.cpp:425] loss1/drop_fc <- loss1/fc
I0403 15:26:32.087955  3091 net.cpp:386] loss1/drop_fc -> loss1/fc (in-place)
I0403 15:26:32.088006  3091 net.cpp:141] Setting up loss1/drop_fc
I0403 15:26:32.088027  3091 net.cpp:148] Top shape: 24 1024 (24576)
I0403 15:26:32.088042  3091 net.cpp:156] Memory required for data: 946189344
I0403 15:26:32.088057  3091 layer_factory.hpp:77] Creating layer loss1/classifier_plantvillage
I0403 15:26:32.088078  3091 net.cpp:91] Creating Layer loss1/classifier_plantvillage
I0403 15:26:32.088093  3091 net.cpp:425] loss1/classifier_plantvillage <- loss1/fc
I0403 15:26:32.088110  3091 net.cpp:399] loss1/classifier_plantvillage -> loss1/classifier_plantvillage
I0403 15:26:32.088992  3091 net.cpp:141] Setting up loss1/classifier_plantvillage
I0403 15:26:32.089020  3091 net.cpp:148] Top shape: 24 38 (912)
I0403 15:26:32.089035  3091 net.cpp:156] Memory required for data: 946192992
I0403 15:26:32.089052  3091 layer_factory.hpp:77] Creating layer loss1/classifier_plantvillage_loss1/classifier_plantvillage_0_split
I0403 15:26:32.089072  3091 net.cpp:91] Creating Layer loss1/classifier_plantvillage_loss1/classifier_plantvillage_0_split
I0403 15:26:32.089089  3091 net.cpp:425] loss1/classifier_plantvillage_loss1/classifier_plantvillage_0_split <- loss1/classifier_plantvillage
I0403 15:26:32.089107  3091 net.cpp:399] loss1/classifier_plantvillage_loss1/classifier_plantvillage_0_split -> loss1/classifier_plantvillage_loss1/classifier_plantvillage_0_split_0
I0403 15:26:32.089128  3091 net.cpp:399] loss1/classifier_plantvillage_loss1/classifier_plantvillage_0_split -> loss1/classifier_plantvillage_loss1/classifier_plantvillage_0_split_1
I0403 15:26:32.089149  3091 net.cpp:399] loss1/classifier_plantvillage_loss1/classifier_plantvillage_0_split -> loss1/classifier_plantvillage_loss1/classifier_plantvillage_0_split_2
I0403 15:26:32.089213  3091 net.cpp:141] Setting up loss1/classifier_plantvillage_loss1/classifier_plantvillage_0_split
I0403 15:26:32.089236  3091 net.cpp:148] Top shape: 24 38 (912)
I0403 15:26:32.089251  3091 net.cpp:148] Top shape: 24 38 (912)
I0403 15:26:32.089267  3091 net.cpp:148] Top shape: 24 38 (912)
I0403 15:26:32.089285  3091 net.cpp:156] Memory required for data: 946203936
I0403 15:26:32.089300  3091 layer_factory.hpp:77] Creating layer inception_4b/1x1
I0403 15:26:32.089323  3091 net.cpp:91] Creating Layer inception_4b/1x1
I0403 15:26:32.089357  3091 net.cpp:425] inception_4b/1x1 <- inception_4a/output_inception_4a/output_0_split_1
I0403 15:26:32.089377  3091 net.cpp:399] inception_4b/1x1 -> inception_4b/1x1
I0403 15:26:32.091028  3091 net.cpp:141] Setting up inception_4b/1x1
I0403 15:26:32.091058  3091 net.cpp:148] Top shape: 24 160 14 14 (752640)
I0403 15:26:32.091074  3091 net.cpp:156] Memory required for data: 949214496
I0403 15:26:32.091092  3091 layer_factory.hpp:77] Creating layer inception_4b/relu_1x1
I0403 15:26:32.091109  3091 net.cpp:91] Creating Layer inception_4b/relu_1x1
I0403 15:26:32.091125  3091 net.cpp:425] inception_4b/relu_1x1 <- inception_4b/1x1
I0403 15:26:32.091145  3091 net.cpp:386] inception_4b/relu_1x1 -> inception_4b/1x1 (in-place)
I0403 15:26:32.091325  3091 net.cpp:141] Setting up inception_4b/relu_1x1
I0403 15:26:32.091349  3091 net.cpp:148] Top shape: 24 160 14 14 (752640)
I0403 15:26:32.091363  3091 net.cpp:156] Memory required for data: 952225056
I0403 15:26:32.091377  3091 layer_factory.hpp:77] Creating layer inception_4b/3x3_reduce
I0403 15:26:32.091401  3091 net.cpp:91] Creating Layer inception_4b/3x3_reduce
I0403 15:26:32.091418  3091 net.cpp:425] inception_4b/3x3_reduce <- inception_4a/output_inception_4a/output_0_split_2
I0403 15:26:32.091439  3091 net.cpp:399] inception_4b/3x3_reduce -> inception_4b/3x3_reduce
I0403 15:26:32.092767  3091 net.cpp:141] Setting up inception_4b/3x3_reduce
I0403 15:26:32.092793  3091 net.cpp:148] Top shape: 24 112 14 14 (526848)
I0403 15:26:32.092808  3091 net.cpp:156] Memory required for data: 954332448
I0403 15:26:32.092826  3091 layer_factory.hpp:77] Creating layer inception_4b/relu_3x3_reduce
I0403 15:26:32.092845  3091 net.cpp:91] Creating Layer inception_4b/relu_3x3_reduce
I0403 15:26:32.092861  3091 net.cpp:425] inception_4b/relu_3x3_reduce <- inception_4b/3x3_reduce
I0403 15:26:32.092880  3091 net.cpp:386] inception_4b/relu_3x3_reduce -> inception_4b/3x3_reduce (in-place)
I0403 15:26:32.093154  3091 net.cpp:141] Setting up inception_4b/relu_3x3_reduce
I0403 15:26:32.093179  3091 net.cpp:148] Top shape: 24 112 14 14 (526848)
I0403 15:26:32.093194  3091 net.cpp:156] Memory required for data: 956439840
I0403 15:26:32.093209  3091 layer_factory.hpp:77] Creating layer inception_4b/3x3
I0403 15:26:32.093231  3091 net.cpp:91] Creating Layer inception_4b/3x3
I0403 15:26:32.093248  3091 net.cpp:425] inception_4b/3x3 <- inception_4b/3x3_reduce
I0403 15:26:32.093269  3091 net.cpp:399] inception_4b/3x3 -> inception_4b/3x3
I0403 15:26:32.096171  3091 net.cpp:141] Setting up inception_4b/3x3
I0403 15:26:32.096200  3091 net.cpp:148] Top shape: 24 224 14 14 (1053696)
I0403 15:26:32.096217  3091 net.cpp:156] Memory required for data: 960654624
I0403 15:26:32.096235  3091 layer_factory.hpp:77] Creating layer inception_4b/relu_3x3
I0403 15:26:32.096256  3091 net.cpp:91] Creating Layer inception_4b/relu_3x3
I0403 15:26:32.096276  3091 net.cpp:425] inception_4b/relu_3x3 <- inception_4b/3x3
I0403 15:26:32.096293  3091 net.cpp:386] inception_4b/relu_3x3 -> inception_4b/3x3 (in-place)
I0403 15:26:32.096474  3091 net.cpp:141] Setting up inception_4b/relu_3x3
I0403 15:26:32.096499  3091 net.cpp:148] Top shape: 24 224 14 14 (1053696)
I0403 15:26:32.096513  3091 net.cpp:156] Memory required for data: 964869408
I0403 15:26:32.096527  3091 layer_factory.hpp:77] Creating layer inception_4b/5x5_reduce
I0403 15:26:32.096549  3091 net.cpp:91] Creating Layer inception_4b/5x5_reduce
I0403 15:26:32.096565  3091 net.cpp:425] inception_4b/5x5_reduce <- inception_4a/output_inception_4a/output_0_split_3
I0403 15:26:32.096587  3091 net.cpp:399] inception_4b/5x5_reduce -> inception_4b/5x5_reduce
I0403 15:26:32.097661  3091 net.cpp:141] Setting up inception_4b/5x5_reduce
I0403 15:26:32.097688  3091 net.cpp:148] Top shape: 24 24 14 14 (112896)
I0403 15:26:32.097703  3091 net.cpp:156] Memory required for data: 965320992
I0403 15:26:32.097720  3091 layer_factory.hpp:77] Creating layer inception_4b/relu_5x5_reduce
I0403 15:26:32.097738  3091 net.cpp:91] Creating Layer inception_4b/relu_5x5_reduce
I0403 15:26:32.097769  3091 net.cpp:425] inception_4b/relu_5x5_reduce <- inception_4b/5x5_reduce
I0403 15:26:32.097789  3091 net.cpp:386] inception_4b/relu_5x5_reduce -> inception_4b/5x5_reduce (in-place)
I0403 15:26:32.097967  3091 net.cpp:141] Setting up inception_4b/relu_5x5_reduce
I0403 15:26:32.097992  3091 net.cpp:148] Top shape: 24 24 14 14 (112896)
I0403 15:26:32.098006  3091 net.cpp:156] Memory required for data: 965772576
I0403 15:26:32.098021  3091 layer_factory.hpp:77] Creating layer inception_4b/5x5
I0403 15:26:32.098042  3091 net.cpp:91] Creating Layer inception_4b/5x5
I0403 15:26:32.098059  3091 net.cpp:425] inception_4b/5x5 <- inception_4b/5x5_reduce
I0403 15:26:32.098080  3091 net.cpp:399] inception_4b/5x5 -> inception_4b/5x5
I0403 15:26:32.099282  3091 net.cpp:141] Setting up inception_4b/5x5
I0403 15:26:32.099310  3091 net.cpp:148] Top shape: 24 64 14 14 (301056)
I0403 15:26:32.099326  3091 net.cpp:156] Memory required for data: 966976800
I0403 15:26:32.099344  3091 layer_factory.hpp:77] Creating layer inception_4b/relu_5x5
I0403 15:26:32.099362  3091 net.cpp:91] Creating Layer inception_4b/relu_5x5
I0403 15:26:32.099377  3091 net.cpp:425] inception_4b/relu_5x5 <- inception_4b/5x5
I0403 15:26:32.099397  3091 net.cpp:386] inception_4b/relu_5x5 -> inception_4b/5x5 (in-place)
I0403 15:26:32.099678  3091 net.cpp:141] Setting up inception_4b/relu_5x5
I0403 15:26:32.099706  3091 net.cpp:148] Top shape: 24 64 14 14 (301056)
I0403 15:26:32.099721  3091 net.cpp:156] Memory required for data: 968181024
I0403 15:26:32.099736  3091 layer_factory.hpp:77] Creating layer inception_4b/pool
I0403 15:26:32.099755  3091 net.cpp:91] Creating Layer inception_4b/pool
I0403 15:26:32.099771  3091 net.cpp:425] inception_4b/pool <- inception_4a/output_inception_4a/output_0_split_4
I0403 15:26:32.099791  3091 net.cpp:399] inception_4b/pool -> inception_4b/pool
I0403 15:26:32.099851  3091 net.cpp:141] Setting up inception_4b/pool
I0403 15:26:32.099877  3091 net.cpp:148] Top shape: 24 512 14 14 (2408448)
I0403 15:26:32.099891  3091 net.cpp:156] Memory required for data: 977814816
I0403 15:26:32.099906  3091 layer_factory.hpp:77] Creating layer inception_4b/pool_proj
I0403 15:26:32.099927  3091 net.cpp:91] Creating Layer inception_4b/pool_proj
I0403 15:26:32.099944  3091 net.cpp:425] inception_4b/pool_proj <- inception_4b/pool
I0403 15:26:32.099961  3091 net.cpp:399] inception_4b/pool_proj -> inception_4b/pool_proj
I0403 15:26:32.101138  3091 net.cpp:141] Setting up inception_4b/pool_proj
I0403 15:26:32.101166  3091 net.cpp:148] Top shape: 24 64 14 14 (301056)
I0403 15:26:32.101181  3091 net.cpp:156] Memory required for data: 979019040
I0403 15:26:32.101198  3091 layer_factory.hpp:77] Creating layer inception_4b/relu_pool_proj
I0403 15:26:32.101217  3091 net.cpp:91] Creating Layer inception_4b/relu_pool_proj
I0403 15:26:32.101236  3091 net.cpp:425] inception_4b/relu_pool_proj <- inception_4b/pool_proj
I0403 15:26:32.101253  3091 net.cpp:386] inception_4b/relu_pool_proj -> inception_4b/pool_proj (in-place)
I0403 15:26:32.101433  3091 net.cpp:141] Setting up inception_4b/relu_pool_proj
I0403 15:26:32.101459  3091 net.cpp:148] Top shape: 24 64 14 14 (301056)
I0403 15:26:32.101472  3091 net.cpp:156] Memory required for data: 980223264
I0403 15:26:32.101486  3091 layer_factory.hpp:77] Creating layer inception_4b/output
I0403 15:26:32.101505  3091 net.cpp:91] Creating Layer inception_4b/output
I0403 15:26:32.101521  3091 net.cpp:425] inception_4b/output <- inception_4b/1x1
I0403 15:26:32.101537  3091 net.cpp:425] inception_4b/output <- inception_4b/3x3
I0403 15:26:32.101553  3091 net.cpp:425] inception_4b/output <- inception_4b/5x5
I0403 15:26:32.101569  3091 net.cpp:425] inception_4b/output <- inception_4b/pool_proj
I0403 15:26:32.101586  3091 net.cpp:399] inception_4b/output -> inception_4b/output
I0403 15:26:32.101632  3091 net.cpp:141] Setting up inception_4b/output
I0403 15:26:32.101655  3091 net.cpp:148] Top shape: 24 512 14 14 (2408448)
I0403 15:26:32.101670  3091 net.cpp:156] Memory required for data: 989857056
I0403 15:26:32.101696  3091 layer_factory.hpp:77] Creating layer inception_4b/output_inception_4b/output_0_split
I0403 15:26:32.101714  3091 net.cpp:91] Creating Layer inception_4b/output_inception_4b/output_0_split
I0403 15:26:32.101729  3091 net.cpp:425] inception_4b/output_inception_4b/output_0_split <- inception_4b/output
I0403 15:26:32.101748  3091 net.cpp:399] inception_4b/output_inception_4b/output_0_split -> inception_4b/output_inception_4b/output_0_split_0
I0403 15:26:32.101768  3091 net.cpp:399] inception_4b/output_inception_4b/output_0_split -> inception_4b/output_inception_4b/output_0_split_1
I0403 15:26:32.101788  3091 net.cpp:399] inception_4b/output_inception_4b/output_0_split -> inception_4b/output_inception_4b/output_0_split_2
I0403 15:26:32.101807  3091 net.cpp:399] inception_4b/output_inception_4b/output_0_split -> inception_4b/output_inception_4b/output_0_split_3
I0403 15:26:32.101889  3091 net.cpp:141] Setting up inception_4b/output_inception_4b/output_0_split
I0403 15:26:32.101914  3091 net.cpp:148] Top shape: 24 512 14 14 (2408448)
I0403 15:26:32.101932  3091 net.cpp:148] Top shape: 24 512 14 14 (2408448)
I0403 15:26:32.101946  3091 net.cpp:148] Top shape: 24 512 14 14 (2408448)
I0403 15:26:32.101961  3091 net.cpp:148] Top shape: 24 512 14 14 (2408448)
I0403 15:26:32.101974  3091 net.cpp:156] Memory required for data: 1028392224
I0403 15:26:32.101989  3091 layer_factory.hpp:77] Creating layer inception_4c/1x1
I0403 15:26:32.102010  3091 net.cpp:91] Creating Layer inception_4c/1x1
I0403 15:26:32.102026  3091 net.cpp:425] inception_4c/1x1 <- inception_4b/output_inception_4b/output_0_split_0
I0403 15:26:32.102044  3091 net.cpp:399] inception_4c/1x1 -> inception_4c/1x1
I0403 15:26:32.103442  3091 net.cpp:141] Setting up inception_4c/1x1
I0403 15:26:32.103469  3091 net.cpp:148] Top shape: 24 128 14 14 (602112)
I0403 15:26:32.103484  3091 net.cpp:156] Memory required for data: 1030800672
I0403 15:26:32.103502  3091 layer_factory.hpp:77] Creating layer inception_4c/relu_1x1
I0403 15:26:32.103523  3091 net.cpp:91] Creating Layer inception_4c/relu_1x1
I0403 15:26:32.103540  3091 net.cpp:425] inception_4c/relu_1x1 <- inception_4c/1x1
I0403 15:26:32.103557  3091 net.cpp:386] inception_4c/relu_1x1 -> inception_4c/1x1 (in-place)
I0403 15:26:32.103735  3091 net.cpp:141] Setting up inception_4c/relu_1x1
I0403 15:26:32.103762  3091 net.cpp:148] Top shape: 24 128 14 14 (602112)
I0403 15:26:32.103777  3091 net.cpp:156] Memory required for data: 1033209120
I0403 15:26:32.103791  3091 layer_factory.hpp:77] Creating layer inception_4c/3x3_reduce
I0403 15:26:32.103813  3091 net.cpp:91] Creating Layer inception_4c/3x3_reduce
I0403 15:26:32.103831  3091 net.cpp:425] inception_4c/3x3_reduce <- inception_4b/output_inception_4b/output_0_split_1
I0403 15:26:32.103848  3091 net.cpp:399] inception_4c/3x3_reduce -> inception_4c/3x3_reduce
I0403 15:26:32.105741  3091 net.cpp:141] Setting up inception_4c/3x3_reduce
I0403 15:26:32.105769  3091 net.cpp:148] Top shape: 24 128 14 14 (602112)
I0403 15:26:32.105784  3091 net.cpp:156] Memory required for data: 1035617568
I0403 15:26:32.105803  3091 layer_factory.hpp:77] Creating layer inception_4c/relu_3x3_reduce
I0403 15:26:32.105820  3091 net.cpp:91] Creating Layer inception_4c/relu_3x3_reduce
I0403 15:26:32.105835  3091 net.cpp:425] inception_4c/relu_3x3_reduce <- inception_4c/3x3_reduce
I0403 15:26:32.105854  3091 net.cpp:386] inception_4c/relu_3x3_reduce -> inception_4c/3x3_reduce (in-place)
I0403 15:26:32.106135  3091 net.cpp:141] Setting up inception_4c/relu_3x3_reduce
I0403 15:26:32.106161  3091 net.cpp:148] Top shape: 24 128 14 14 (602112)
I0403 15:26:32.106175  3091 net.cpp:156] Memory required for data: 1038026016
I0403 15:26:32.106190  3091 layer_factory.hpp:77] Creating layer inception_4c/3x3
I0403 15:26:32.106214  3091 net.cpp:91] Creating Layer inception_4c/3x3
I0403 15:26:32.106230  3091 net.cpp:425] inception_4c/3x3 <- inception_4c/3x3_reduce
I0403 15:26:32.106251  3091 net.cpp:399] inception_4c/3x3 -> inception_4c/3x3
I0403 15:26:32.109766  3091 net.cpp:141] Setting up inception_4c/3x3
I0403 15:26:32.109805  3091 net.cpp:148] Top shape: 24 256 14 14 (1204224)
I0403 15:26:32.109822  3091 net.cpp:156] Memory required for data: 1042842912
I0403 15:26:32.109853  3091 layer_factory.hpp:77] Creating layer inception_4c/relu_3x3
I0403 15:26:32.109874  3091 net.cpp:91] Creating Layer inception_4c/relu_3x3
I0403 15:26:32.109889  3091 net.cpp:425] inception_4c/relu_3x3 <- inception_4c/3x3
I0403 15:26:32.109908  3091 net.cpp:386] inception_4c/relu_3x3 -> inception_4c/3x3 (in-place)
I0403 15:26:32.110088  3091 net.cpp:141] Setting up inception_4c/relu_3x3
I0403 15:26:32.110112  3091 net.cpp:148] Top shape: 24 256 14 14 (1204224)
I0403 15:26:32.110126  3091 net.cpp:156] Memory required for data: 1047659808
I0403 15:26:32.110141  3091 layer_factory.hpp:77] Creating layer inception_4c/5x5_reduce
I0403 15:26:32.110163  3091 net.cpp:91] Creating Layer inception_4c/5x5_reduce
I0403 15:26:32.110180  3091 net.cpp:425] inception_4c/5x5_reduce <- inception_4b/output_inception_4b/output_0_split_2
I0403 15:26:32.110201  3091 net.cpp:399] inception_4c/5x5_reduce -> inception_4c/5x5_reduce
I0403 15:26:32.111274  3091 net.cpp:141] Setting up inception_4c/5x5_reduce
I0403 15:26:32.111302  3091 net.cpp:148] Top shape: 24 24 14 14 (112896)
I0403 15:26:32.111317  3091 net.cpp:156] Memory required for data: 1048111392
I0403 15:26:32.111335  3091 layer_factory.hpp:77] Creating layer inception_4c/relu_5x5_reduce
I0403 15:26:32.111351  3091 net.cpp:91] Creating Layer inception_4c/relu_5x5_reduce
I0403 15:26:32.111367  3091 net.cpp:425] inception_4c/relu_5x5_reduce <- inception_4c/5x5_reduce
I0403 15:26:32.111387  3091 net.cpp:386] inception_4c/relu_5x5_reduce -> inception_4c/5x5_reduce (in-place)
I0403 15:26:32.111567  3091 net.cpp:141] Setting up inception_4c/relu_5x5_reduce
I0403 15:26:32.111591  3091 net.cpp:148] Top shape: 24 24 14 14 (112896)
I0403 15:26:32.111605  3091 net.cpp:156] Memory required for data: 1048562976
I0403 15:26:32.111620  3091 layer_factory.hpp:77] Creating layer inception_4c/5x5
I0403 15:26:32.111641  3091 net.cpp:91] Creating Layer inception_4c/5x5
I0403 15:26:32.111660  3091 net.cpp:425] inception_4c/5x5 <- inception_4c/5x5_reduce
I0403 15:26:32.111680  3091 net.cpp:399] inception_4c/5x5 -> inception_4c/5x5
I0403 15:26:32.112910  3091 net.cpp:141] Setting up inception_4c/5x5
I0403 15:26:32.112936  3091 net.cpp:148] Top shape: 24 64 14 14 (301056)
I0403 15:26:32.112951  3091 net.cpp:156] Memory required for data: 1049767200
I0403 15:26:32.112969  3091 layer_factory.hpp:77] Creating layer inception_4c/relu_5x5
I0403 15:26:32.112990  3091 net.cpp:91] Creating Layer inception_4c/relu_5x5
I0403 15:26:32.113008  3091 net.cpp:425] inception_4c/relu_5x5 <- inception_4c/5x5
I0403 15:26:32.113024  3091 net.cpp:386] inception_4c/relu_5x5 -> inception_4c/5x5 (in-place)
I0403 15:26:32.113327  3091 net.cpp:141] Setting up inception_4c/relu_5x5
I0403 15:26:32.113355  3091 net.cpp:148] Top shape: 24 64 14 14 (301056)
I0403 15:26:32.113371  3091 net.cpp:156] Memory required for data: 1050971424
I0403 15:26:32.113387  3091 layer_factory.hpp:77] Creating layer inception_4c/pool
I0403 15:26:32.113407  3091 net.cpp:91] Creating Layer inception_4c/pool
I0403 15:26:32.113425  3091 net.cpp:425] inception_4c/pool <- inception_4b/output_inception_4b/output_0_split_3
I0403 15:26:32.113443  3091 net.cpp:399] inception_4c/pool -> inception_4c/pool
I0403 15:26:32.113512  3091 net.cpp:141] Setting up inception_4c/pool
I0403 15:26:32.113534  3091 net.cpp:148] Top shape: 24 512 14 14 (2408448)
I0403 15:26:32.113548  3091 net.cpp:156] Memory required for data: 1060605216
I0403 15:26:32.113564  3091 layer_factory.hpp:77] Creating layer inception_4c/pool_proj
I0403 15:26:32.113585  3091 net.cpp:91] Creating Layer inception_4c/pool_proj
I0403 15:26:32.113603  3091 net.cpp:425] inception_4c/pool_proj <- inception_4c/pool
I0403 15:26:32.113625  3091 net.cpp:399] inception_4c/pool_proj -> inception_4c/pool_proj
I0403 15:26:32.114855  3091 net.cpp:141] Setting up inception_4c/pool_proj
I0403 15:26:32.114882  3091 net.cpp:148] Top shape: 24 64 14 14 (301056)
I0403 15:26:32.114912  3091 net.cpp:156] Memory required for data: 1061809440
I0403 15:26:32.114933  3091 layer_factory.hpp:77] Creating layer inception_4c/relu_pool_proj
I0403 15:26:32.114950  3091 net.cpp:91] Creating Layer inception_4c/relu_pool_proj
I0403 15:26:32.114966  3091 net.cpp:425] inception_4c/relu_pool_proj <- inception_4c/pool_proj
I0403 15:26:32.114985  3091 net.cpp:386] inception_4c/relu_pool_proj -> inception_4c/pool_proj (in-place)
I0403 15:26:32.115172  3091 net.cpp:141] Setting up inception_4c/relu_pool_proj
I0403 15:26:32.115197  3091 net.cpp:148] Top shape: 24 64 14 14 (301056)
I0403 15:26:32.115214  3091 net.cpp:156] Memory required for data: 1063013664
I0403 15:26:32.115229  3091 layer_factory.hpp:77] Creating layer inception_4c/output
I0403 15:26:32.115247  3091 net.cpp:91] Creating Layer inception_4c/output
I0403 15:26:32.115262  3091 net.cpp:425] inception_4c/output <- inception_4c/1x1
I0403 15:26:32.115285  3091 net.cpp:425] inception_4c/output <- inception_4c/3x3
I0403 15:26:32.115303  3091 net.cpp:425] inception_4c/output <- inception_4c/5x5
I0403 15:26:32.115320  3091 net.cpp:425] inception_4c/output <- inception_4c/pool_proj
I0403 15:26:32.115337  3091 net.cpp:399] inception_4c/output -> inception_4c/output
I0403 15:26:32.115386  3091 net.cpp:141] Setting up inception_4c/output
I0403 15:26:32.115409  3091 net.cpp:148] Top shape: 24 512 14 14 (2408448)
I0403 15:26:32.115423  3091 net.cpp:156] Memory required for data: 1072647456
I0403 15:26:32.115438  3091 layer_factory.hpp:77] Creating layer inception_4c/output_inception_4c/output_0_split
I0403 15:26:32.115455  3091 net.cpp:91] Creating Layer inception_4c/output_inception_4c/output_0_split
I0403 15:26:32.115470  3091 net.cpp:425] inception_4c/output_inception_4c/output_0_split <- inception_4c/output
I0403 15:26:32.115490  3091 net.cpp:399] inception_4c/output_inception_4c/output_0_split -> inception_4c/output_inception_4c/output_0_split_0
I0403 15:26:32.115510  3091 net.cpp:399] inception_4c/output_inception_4c/output_0_split -> inception_4c/output_inception_4c/output_0_split_1
I0403 15:26:32.115530  3091 net.cpp:399] inception_4c/output_inception_4c/output_0_split -> inception_4c/output_inception_4c/output_0_split_2
I0403 15:26:32.115551  3091 net.cpp:399] inception_4c/output_inception_4c/output_0_split -> inception_4c/output_inception_4c/output_0_split_3
I0403 15:26:32.115638  3091 net.cpp:141] Setting up inception_4c/output_inception_4c/output_0_split
I0403 15:26:32.115664  3091 net.cpp:148] Top shape: 24 512 14 14 (2408448)
I0403 15:26:32.115679  3091 net.cpp:148] Top shape: 24 512 14 14 (2408448)
I0403 15:26:32.115695  3091 net.cpp:148] Top shape: 24 512 14 14 (2408448)
I0403 15:26:32.115711  3091 net.cpp:148] Top shape: 24 512 14 14 (2408448)
I0403 15:26:32.115725  3091 net.cpp:156] Memory required for data: 1111182624
I0403 15:26:32.115739  3091 layer_factory.hpp:77] Creating layer inception_4d/1x1
I0403 15:26:32.115761  3091 net.cpp:91] Creating Layer inception_4d/1x1
I0403 15:26:32.115778  3091 net.cpp:425] inception_4d/1x1 <- inception_4c/output_inception_4c/output_0_split_0
I0403 15:26:32.115797  3091 net.cpp:399] inception_4d/1x1 -> inception_4d/1x1
I0403 15:26:32.117185  3091 net.cpp:141] Setting up inception_4d/1x1
I0403 15:26:32.117213  3091 net.cpp:148] Top shape: 24 112 14 14 (526848)
I0403 15:26:32.117229  3091 net.cpp:156] Memory required for data: 1113290016
I0403 15:26:32.117250  3091 layer_factory.hpp:77] Creating layer inception_4d/relu_1x1
I0403 15:26:32.117269  3091 net.cpp:91] Creating Layer inception_4d/relu_1x1
I0403 15:26:32.117291  3091 net.cpp:425] inception_4d/relu_1x1 <- inception_4d/1x1
I0403 15:26:32.117308  3091 net.cpp:386] inception_4d/relu_1x1 -> inception_4d/1x1 (in-place)
I0403 15:26:32.117498  3091 net.cpp:141] Setting up inception_4d/relu_1x1
I0403 15:26:32.117523  3091 net.cpp:148] Top shape: 24 112 14 14 (526848)
I0403 15:26:32.117537  3091 net.cpp:156] Memory required for data: 1115397408
I0403 15:26:32.117552  3091 layer_factory.hpp:77] Creating layer inception_4d/3x3_reduce
I0403 15:26:32.117588  3091 net.cpp:91] Creating Layer inception_4d/3x3_reduce
I0403 15:26:32.117606  3091 net.cpp:425] inception_4d/3x3_reduce <- inception_4c/output_inception_4c/output_0_split_1
I0403 15:26:32.117627  3091 net.cpp:399] inception_4d/3x3_reduce -> inception_4d/3x3_reduce
I0403 15:26:32.119156  3091 net.cpp:141] Setting up inception_4d/3x3_reduce
I0403 15:26:32.119184  3091 net.cpp:148] Top shape: 24 144 14 14 (677376)
I0403 15:26:32.119200  3091 net.cpp:156] Memory required for data: 1118106912
I0403 15:26:32.119221  3091 layer_factory.hpp:77] Creating layer inception_4d/relu_3x3_reduce
I0403 15:26:32.119241  3091 net.cpp:91] Creating Layer inception_4d/relu_3x3_reduce
I0403 15:26:32.119257  3091 net.cpp:425] inception_4d/relu_3x3_reduce <- inception_4d/3x3_reduce
I0403 15:26:32.119279  3091 net.cpp:386] inception_4d/relu_3x3_reduce -> inception_4d/3x3_reduce (in-place)
I0403 15:26:32.119573  3091 net.cpp:141] Setting up inception_4d/relu_3x3_reduce
I0403 15:26:32.119601  3091 net.cpp:148] Top shape: 24 144 14 14 (677376)
I0403 15:26:32.119616  3091 net.cpp:156] Memory required for data: 1120816416
I0403 15:26:32.119631  3091 layer_factory.hpp:77] Creating layer inception_4d/3x3
I0403 15:26:32.119652  3091 net.cpp:91] Creating Layer inception_4d/3x3
I0403 15:26:32.119669  3091 net.cpp:425] inception_4d/3x3 <- inception_4d/3x3_reduce
I0403 15:26:32.119690  3091 net.cpp:399] inception_4d/3x3 -> inception_4d/3x3
I0403 15:26:32.124095  3091 net.cpp:141] Setting up inception_4d/3x3
I0403 15:26:32.124127  3091 net.cpp:148] Top shape: 24 288 14 14 (1354752)
I0403 15:26:32.124145  3091 net.cpp:156] Memory required for data: 1126235424
I0403 15:26:32.124164  3091 layer_factory.hpp:77] Creating layer inception_4d/relu_3x3
I0403 15:26:32.124182  3091 net.cpp:91] Creating Layer inception_4d/relu_3x3
I0403 15:26:32.124199  3091 net.cpp:425] inception_4d/relu_3x3 <- inception_4d/3x3
I0403 15:26:32.124217  3091 net.cpp:386] inception_4d/relu_3x3 -> inception_4d/3x3 (in-place)
I0403 15:26:32.124418  3091 net.cpp:141] Setting up inception_4d/relu_3x3
I0403 15:26:32.124444  3091 net.cpp:148] Top shape: 24 288 14 14 (1354752)
I0403 15:26:32.124459  3091 net.cpp:156] Memory required for data: 1131654432
I0403 15:26:32.124475  3091 layer_factory.hpp:77] Creating layer inception_4d/5x5_reduce
I0403 15:26:32.124496  3091 net.cpp:91] Creating Layer inception_4d/5x5_reduce
I0403 15:26:32.124514  3091 net.cpp:425] inception_4d/5x5_reduce <- inception_4c/output_inception_4c/output_0_split_2
I0403 15:26:32.124537  3091 net.cpp:399] inception_4d/5x5_reduce -> inception_4d/5x5_reduce
I0403 15:26:32.125742  3091 net.cpp:141] Setting up inception_4d/5x5_reduce
I0403 15:26:32.125773  3091 net.cpp:148] Top shape: 24 32 14 14 (150528)
I0403 15:26:32.125792  3091 net.cpp:156] Memory required for data: 1132256544
I0403 15:26:32.125809  3091 layer_factory.hpp:77] Creating layer inception_4d/relu_5x5_reduce
I0403 15:26:32.125828  3091 net.cpp:91] Creating Layer inception_4d/relu_5x5_reduce
I0403 15:26:32.125845  3091 net.cpp:425] inception_4d/relu_5x5_reduce <- inception_4d/5x5_reduce
I0403 15:26:32.125865  3091 net.cpp:386] inception_4d/relu_5x5_reduce -> inception_4d/5x5_reduce (in-place)
I0403 15:26:32.126063  3091 net.cpp:141] Setting up inception_4d/relu_5x5_reduce
I0403 15:26:32.126090  3091 net.cpp:148] Top shape: 24 32 14 14 (150528)
I0403 15:26:32.126104  3091 net.cpp:156] Memory required for data: 1132858656
I0403 15:26:32.126119  3091 layer_factory.hpp:77] Creating layer inception_4d/5x5
I0403 15:26:32.126142  3091 net.cpp:91] Creating Layer inception_4d/5x5
I0403 15:26:32.126160  3091 net.cpp:425] inception_4d/5x5 <- inception_4d/5x5_reduce
I0403 15:26:32.126183  3091 net.cpp:399] inception_4d/5x5 -> inception_4d/5x5
I0403 15:26:32.127728  3091 net.cpp:141] Setting up inception_4d/5x5
I0403 15:26:32.127758  3091 net.cpp:148] Top shape: 24 64 14 14 (301056)
I0403 15:26:32.127774  3091 net.cpp:156] Memory required for data: 1134062880
I0403 15:26:32.127794  3091 layer_factory.hpp:77] Creating layer inception_4d/relu_5x5
I0403 15:26:32.127830  3091 net.cpp:91] Creating Layer inception_4d/relu_5x5
I0403 15:26:32.127847  3091 net.cpp:425] inception_4d/relu_5x5 <- inception_4d/5x5
I0403 15:26:32.127866  3091 net.cpp:386] inception_4d/relu_5x5 -> inception_4d/5x5 (in-place)
I0403 15:26:32.128180  3091 net.cpp:141] Setting up inception_4d/relu_5x5
I0403 15:26:32.128207  3091 net.cpp:148] Top shape: 24 64 14 14 (301056)
I0403 15:26:32.128222  3091 net.cpp:156] Memory required for data: 1135267104
I0403 15:26:32.128237  3091 layer_factory.hpp:77] Creating layer inception_4d/pool
I0403 15:26:32.128257  3091 net.cpp:91] Creating Layer inception_4d/pool
I0403 15:26:32.128276  3091 net.cpp:425] inception_4d/pool <- inception_4c/output_inception_4c/output_0_split_3
I0403 15:26:32.128299  3091 net.cpp:399] inception_4d/pool -> inception_4d/pool
I0403 15:26:32.128368  3091 net.cpp:141] Setting up inception_4d/pool
I0403 15:26:32.128393  3091 net.cpp:148] Top shape: 24 512 14 14 (2408448)
I0403 15:26:32.128409  3091 net.cpp:156] Memory required for data: 1144900896
I0403 15:26:32.128424  3091 layer_factory.hpp:77] Creating layer inception_4d/pool_proj
I0403 15:26:32.128449  3091 net.cpp:91] Creating Layer inception_4d/pool_proj
I0403 15:26:32.128468  3091 net.cpp:425] inception_4d/pool_proj <- inception_4d/pool
I0403 15:26:32.128487  3091 net.cpp:399] inception_4d/pool_proj -> inception_4d/pool_proj
I0403 15:26:32.130316  3091 net.cpp:141] Setting up inception_4d/pool_proj
I0403 15:26:32.130347  3091 net.cpp:148] Top shape: 24 64 14 14 (301056)
I0403 15:26:32.130363  3091 net.cpp:156] Memory required for data: 1146105120
I0403 15:26:32.130383  3091 layer_factory.hpp:77] Creating layer inception_4d/relu_pool_proj
I0403 15:26:32.130401  3091 net.cpp:91] Creating Layer inception_4d/relu_pool_proj
I0403 15:26:32.130419  3091 net.cpp:425] inception_4d/relu_pool_proj <- inception_4d/pool_proj
I0403 15:26:32.130436  3091 net.cpp:386] inception_4d/relu_pool_proj -> inception_4d/pool_proj (in-place)
I0403 15:26:32.130631  3091 net.cpp:141] Setting up inception_4d/relu_pool_proj
I0403 15:26:32.130657  3091 net.cpp:148] Top shape: 24 64 14 14 (301056)
I0403 15:26:32.130672  3091 net.cpp:156] Memory required for data: 1147309344
I0403 15:26:32.130688  3091 layer_factory.hpp:77] Creating layer inception_4d/output
I0403 15:26:32.130707  3091 net.cpp:91] Creating Layer inception_4d/output
I0403 15:26:32.130722  3091 net.cpp:425] inception_4d/output <- inception_4d/1x1
I0403 15:26:32.130738  3091 net.cpp:425] inception_4d/output <- inception_4d/3x3
I0403 15:26:32.130755  3091 net.cpp:425] inception_4d/output <- inception_4d/5x5
I0403 15:26:32.130772  3091 net.cpp:425] inception_4d/output <- inception_4d/pool_proj
I0403 15:26:32.130792  3091 net.cpp:399] inception_4d/output -> inception_4d/output
I0403 15:26:32.130841  3091 net.cpp:141] Setting up inception_4d/output
I0403 15:26:32.130868  3091 net.cpp:148] Top shape: 24 528 14 14 (2483712)
I0403 15:26:32.130883  3091 net.cpp:156] Memory required for data: 1157244192
I0403 15:26:32.130898  3091 layer_factory.hpp:77] Creating layer inception_4d/output_inception_4d/output_0_split
I0403 15:26:32.130916  3091 net.cpp:91] Creating Layer inception_4d/output_inception_4d/output_0_split
I0403 15:26:32.130933  3091 net.cpp:425] inception_4d/output_inception_4d/output_0_split <- inception_4d/output
I0403 15:26:32.130954  3091 net.cpp:399] inception_4d/output_inception_4d/output_0_split -> inception_4d/output_inception_4d/output_0_split_0
I0403 15:26:32.130976  3091 net.cpp:399] inception_4d/output_inception_4d/output_0_split -> inception_4d/output_inception_4d/output_0_split_1
I0403 15:26:32.130998  3091 net.cpp:399] inception_4d/output_inception_4d/output_0_split -> inception_4d/output_inception_4d/output_0_split_2
I0403 15:26:32.131019  3091 net.cpp:399] inception_4d/output_inception_4d/output_0_split -> inception_4d/output_inception_4d/output_0_split_3
I0403 15:26:32.131041  3091 net.cpp:399] inception_4d/output_inception_4d/output_0_split -> inception_4d/output_inception_4d/output_0_split_4
I0403 15:26:32.131145  3091 net.cpp:141] Setting up inception_4d/output_inception_4d/output_0_split
I0403 15:26:32.131183  3091 net.cpp:148] Top shape: 24 528 14 14 (2483712)
I0403 15:26:32.131201  3091 net.cpp:148] Top shape: 24 528 14 14 (2483712)
I0403 15:26:32.131217  3091 net.cpp:148] Top shape: 24 528 14 14 (2483712)
I0403 15:26:32.131232  3091 net.cpp:148] Top shape: 24 528 14 14 (2483712)
I0403 15:26:32.131248  3091 net.cpp:148] Top shape: 24 528 14 14 (2483712)
I0403 15:26:32.131263  3091 net.cpp:156] Memory required for data: 1206918432
I0403 15:26:32.131283  3091 layer_factory.hpp:77] Creating layer loss2/ave_pool
I0403 15:26:32.131304  3091 net.cpp:91] Creating Layer loss2/ave_pool
I0403 15:26:32.131322  3091 net.cpp:425] loss2/ave_pool <- inception_4d/output_inception_4d/output_0_split_0
I0403 15:26:32.131341  3091 net.cpp:399] loss2/ave_pool -> loss2/ave_pool
I0403 15:26:32.131680  3091 net.cpp:141] Setting up loss2/ave_pool
I0403 15:26:32.131710  3091 net.cpp:148] Top shape: 24 528 4 4 (202752)
I0403 15:26:32.131726  3091 net.cpp:156] Memory required for data: 1207729440
I0403 15:26:32.131741  3091 layer_factory.hpp:77] Creating layer loss2/conv
I0403 15:26:32.131763  3091 net.cpp:91] Creating Layer loss2/conv
I0403 15:26:32.131780  3091 net.cpp:425] loss2/conv <- loss2/ave_pool
I0403 15:26:32.131799  3091 net.cpp:399] loss2/conv -> loss2/conv
I0403 15:26:32.133721  3091 net.cpp:141] Setting up loss2/conv
I0403 15:26:32.133750  3091 net.cpp:148] Top shape: 24 128 4 4 (49152)
I0403 15:26:32.133766  3091 net.cpp:156] Memory required for data: 1207926048
I0403 15:26:32.133785  3091 layer_factory.hpp:77] Creating layer loss2/relu_conv
I0403 15:26:32.133805  3091 net.cpp:91] Creating Layer loss2/relu_conv
I0403 15:26:32.133822  3091 net.cpp:425] loss2/relu_conv <- loss2/conv
I0403 15:26:32.133841  3091 net.cpp:386] loss2/relu_conv -> loss2/conv (in-place)
I0403 15:26:32.134129  3091 net.cpp:141] Setting up loss2/relu_conv
I0403 15:26:32.134155  3091 net.cpp:148] Top shape: 24 128 4 4 (49152)
I0403 15:26:32.134171  3091 net.cpp:156] Memory required for data: 1208122656
I0403 15:26:32.134188  3091 layer_factory.hpp:77] Creating layer loss2/fc
I0403 15:26:32.134210  3091 net.cpp:91] Creating Layer loss2/fc
I0403 15:26:32.134227  3091 net.cpp:425] loss2/fc <- loss2/conv
I0403 15:26:32.134245  3091 net.cpp:399] loss2/fc -> loss2/fc
I0403 15:26:32.151963  3091 net.cpp:141] Setting up loss2/fc
I0403 15:26:32.152025  3091 net.cpp:148] Top shape: 24 1024 (24576)
I0403 15:26:32.152041  3091 net.cpp:156] Memory required for data: 1208220960
I0403 15:26:32.152061  3091 layer_factory.hpp:77] Creating layer loss2/relu_fc
I0403 15:26:32.152081  3091 net.cpp:91] Creating Layer loss2/relu_fc
I0403 15:26:32.152098  3091 net.cpp:425] loss2/relu_fc <- loss2/fc
I0403 15:26:32.152119  3091 net.cpp:386] loss2/relu_fc -> loss2/fc (in-place)
I0403 15:26:32.152469  3091 net.cpp:141] Setting up loss2/relu_fc
I0403 15:26:32.152501  3091 net.cpp:148] Top shape: 24 1024 (24576)
I0403 15:26:32.152518  3091 net.cpp:156] Memory required for data: 1208319264
I0403 15:26:32.152534  3091 layer_factory.hpp:77] Creating layer loss2/drop_fc
I0403 15:26:32.152551  3091 net.cpp:91] Creating Layer loss2/drop_fc
I0403 15:26:32.152568  3091 net.cpp:425] loss2/drop_fc <- loss2/fc
I0403 15:26:32.152590  3091 net.cpp:386] loss2/drop_fc -> loss2/fc (in-place)
I0403 15:26:32.152640  3091 net.cpp:141] Setting up loss2/drop_fc
I0403 15:26:32.152663  3091 net.cpp:148] Top shape: 24 1024 (24576)
I0403 15:26:32.152678  3091 net.cpp:156] Memory required for data: 1208417568
I0403 15:26:32.152693  3091 layer_factory.hpp:77] Creating layer loss2/classifier_plantvillage
I0403 15:26:32.152714  3091 net.cpp:91] Creating Layer loss2/classifier_plantvillage
I0403 15:26:32.152731  3091 net.cpp:425] loss2/classifier_plantvillage <- loss2/fc
I0403 15:26:32.152753  3091 net.cpp:399] loss2/classifier_plantvillage -> loss2/classifier_plantvillage
I0403 15:26:32.153165  3091 net.cpp:141] Setting up loss2/classifier_plantvillage
I0403 15:26:32.153193  3091 net.cpp:148] Top shape: 24 38 (912)
I0403 15:26:32.153234  3091 net.cpp:156] Memory required for data: 1208421216
I0403 15:26:32.153252  3091 layer_factory.hpp:77] Creating layer loss2/classifier_plantvillage_loss2/classifier_plantvillage_0_split
I0403 15:26:32.153276  3091 net.cpp:91] Creating Layer loss2/classifier_plantvillage_loss2/classifier_plantvillage_0_split
I0403 15:26:32.153295  3091 net.cpp:425] loss2/classifier_plantvillage_loss2/classifier_plantvillage_0_split <- loss2/classifier_plantvillage
I0403 15:26:32.153312  3091 net.cpp:399] loss2/classifier_plantvillage_loss2/classifier_plantvillage_0_split -> loss2/classifier_plantvillage_loss2/classifier_plantvillage_0_split_0
I0403 15:26:32.153333  3091 net.cpp:399] loss2/classifier_plantvillage_loss2/classifier_plantvillage_0_split -> loss2/classifier_plantvillage_loss2/classifier_plantvillage_0_split_1
I0403 15:26:32.153355  3091 net.cpp:399] loss2/classifier_plantvillage_loss2/classifier_plantvillage_0_split -> loss2/classifier_plantvillage_loss2/classifier_plantvillage_0_split_2
I0403 15:26:32.153435  3091 net.cpp:141] Setting up loss2/classifier_plantvillage_loss2/classifier_plantvillage_0_split
I0403 15:26:32.153458  3091 net.cpp:148] Top shape: 24 38 (912)
I0403 15:26:32.153475  3091 net.cpp:148] Top shape: 24 38 (912)
I0403 15:26:32.153491  3091 net.cpp:148] Top shape: 24 38 (912)
I0403 15:26:32.153504  3091 net.cpp:156] Memory required for data: 1208432160
I0403 15:26:32.153519  3091 layer_factory.hpp:77] Creating layer inception_4e/1x1
I0403 15:26:32.153540  3091 net.cpp:91] Creating Layer inception_4e/1x1
I0403 15:26:32.153558  3091 net.cpp:425] inception_4e/1x1 <- inception_4d/output_inception_4d/output_0_split_1
I0403 15:26:32.153579  3091 net.cpp:399] inception_4e/1x1 -> inception_4e/1x1
I0403 15:26:32.155458  3091 net.cpp:141] Setting up inception_4e/1x1
I0403 15:26:32.155486  3091 net.cpp:148] Top shape: 24 256 14 14 (1204224)
I0403 15:26:32.155501  3091 net.cpp:156] Memory required for data: 1213249056
I0403 15:26:32.155519  3091 layer_factory.hpp:77] Creating layer inception_4e/relu_1x1
I0403 15:26:32.155540  3091 net.cpp:91] Creating Layer inception_4e/relu_1x1
I0403 15:26:32.155557  3091 net.cpp:425] inception_4e/relu_1x1 <- inception_4e/1x1
I0403 15:26:32.155575  3091 net.cpp:386] inception_4e/relu_1x1 -> inception_4e/1x1 (in-place)
I0403 15:26:32.155879  3091 net.cpp:141] Setting up inception_4e/relu_1x1
I0403 15:26:32.155905  3091 net.cpp:148] Top shape: 24 256 14 14 (1204224)
I0403 15:26:32.155920  3091 net.cpp:156] Memory required for data: 1218065952
I0403 15:26:32.155935  3091 layer_factory.hpp:77] Creating layer inception_4e/3x3_reduce
I0403 15:26:32.155957  3091 net.cpp:91] Creating Layer inception_4e/3x3_reduce
I0403 15:26:32.155974  3091 net.cpp:425] inception_4e/3x3_reduce <- inception_4d/output_inception_4d/output_0_split_2
I0403 15:26:32.155997  3091 net.cpp:399] inception_4e/3x3_reduce -> inception_4e/3x3_reduce
I0403 15:26:32.158174  3091 net.cpp:141] Setting up inception_4e/3x3_reduce
I0403 15:26:32.158203  3091 net.cpp:148] Top shape: 24 160 14 14 (752640)
I0403 15:26:32.158218  3091 net.cpp:156] Memory required for data: 1221076512
I0403 15:26:32.158236  3091 layer_factory.hpp:77] Creating layer inception_4e/relu_3x3_reduce
I0403 15:26:32.158257  3091 net.cpp:91] Creating Layer inception_4e/relu_3x3_reduce
I0403 15:26:32.158277  3091 net.cpp:425] inception_4e/relu_3x3_reduce <- inception_4e/3x3_reduce
I0403 15:26:32.158296  3091 net.cpp:386] inception_4e/relu_3x3_reduce -> inception_4e/3x3_reduce (in-place)
I0403 15:26:32.158486  3091 net.cpp:141] Setting up inception_4e/relu_3x3_reduce
I0403 15:26:32.158511  3091 net.cpp:148] Top shape: 24 160 14 14 (752640)
I0403 15:26:32.158526  3091 net.cpp:156] Memory required for data: 1224087072
I0403 15:26:32.158541  3091 layer_factory.hpp:77] Creating layer inception_4e/3x3
I0403 15:26:32.158563  3091 net.cpp:91] Creating Layer inception_4e/3x3
I0403 15:26:32.158581  3091 net.cpp:425] inception_4e/3x3 <- inception_4e/3x3_reduce
I0403 15:26:32.158602  3091 net.cpp:399] inception_4e/3x3 -> inception_4e/3x3
I0403 15:26:32.163570  3091 net.cpp:141] Setting up inception_4e/3x3
I0403 15:26:32.163614  3091 net.cpp:148] Top shape: 24 320 14 14 (1505280)
I0403 15:26:32.163630  3091 net.cpp:156] Memory required for data: 1230108192
I0403 15:26:32.163650  3091 layer_factory.hpp:77] Creating layer inception_4e/relu_3x3
I0403 15:26:32.163669  3091 net.cpp:91] Creating Layer inception_4e/relu_3x3
I0403 15:26:32.163686  3091 net.cpp:425] inception_4e/relu_3x3 <- inception_4e/3x3
I0403 15:26:32.163703  3091 net.cpp:386] inception_4e/relu_3x3 -> inception_4e/3x3 (in-place)
I0403 15:26:32.164000  3091 net.cpp:141] Setting up inception_4e/relu_3x3
I0403 15:26:32.164028  3091 net.cpp:148] Top shape: 24 320 14 14 (1505280)
I0403 15:26:32.164044  3091 net.cpp:156] Memory required for data: 1236129312
I0403 15:26:32.164059  3091 layer_factory.hpp:77] Creating layer inception_4e/5x5_reduce
I0403 15:26:32.164083  3091 net.cpp:91] Creating Layer inception_4e/5x5_reduce
I0403 15:26:32.164099  3091 net.cpp:425] inception_4e/5x5_reduce <- inception_4d/output_inception_4d/output_0_split_3
I0403 15:26:32.164119  3091 net.cpp:399] inception_4e/5x5_reduce -> inception_4e/5x5_reduce
I0403 15:26:32.165210  3091 net.cpp:141] Setting up inception_4e/5x5_reduce
I0403 15:26:32.165237  3091 net.cpp:148] Top shape: 24 32 14 14 (150528)
I0403 15:26:32.165251  3091 net.cpp:156] Memory required for data: 1236731424
I0403 15:26:32.165273  3091 layer_factory.hpp:77] Creating layer inception_4e/relu_5x5_reduce
I0403 15:26:32.165293  3091 net.cpp:91] Creating Layer inception_4e/relu_5x5_reduce
I0403 15:26:32.165309  3091 net.cpp:425] inception_4e/relu_5x5_reduce <- inception_4e/5x5_reduce
I0403 15:26:32.165329  3091 net.cpp:386] inception_4e/relu_5x5_reduce -> inception_4e/5x5_reduce (in-place)
I0403 15:26:32.165624  3091 net.cpp:141] Setting up inception_4e/relu_5x5_reduce
I0403 15:26:32.165650  3091 net.cpp:148] Top shape: 24 32 14 14 (150528)
I0403 15:26:32.165665  3091 net.cpp:156] Memory required for data: 1237333536
I0403 15:26:32.165679  3091 layer_factory.hpp:77] Creating layer inception_4e/5x5
I0403 15:26:32.165716  3091 net.cpp:91] Creating Layer inception_4e/5x5
I0403 15:26:32.165735  3091 net.cpp:425] inception_4e/5x5 <- inception_4e/5x5_reduce
I0403 15:26:32.165755  3091 net.cpp:399] inception_4e/5x5 -> inception_4e/5x5
I0403 15:26:32.167614  3091 net.cpp:141] Setting up inception_4e/5x5
I0403 15:26:32.167644  3091 net.cpp:148] Top shape: 24 128 14 14 (602112)
I0403 15:26:32.167659  3091 net.cpp:156] Memory required for data: 1239741984
I0403 15:26:32.167676  3091 layer_factory.hpp:77] Creating layer inception_4e/relu_5x5
I0403 15:26:32.167693  3091 net.cpp:91] Creating Layer inception_4e/relu_5x5
I0403 15:26:32.167709  3091 net.cpp:425] inception_4e/relu_5x5 <- inception_4e/5x5
I0403 15:26:32.167728  3091 net.cpp:386] inception_4e/relu_5x5 -> inception_4e/5x5 (in-place)
I0403 15:26:32.167922  3091 net.cpp:141] Setting up inception_4e/relu_5x5
I0403 15:26:32.167946  3091 net.cpp:148] Top shape: 24 128 14 14 (602112)
I0403 15:26:32.167961  3091 net.cpp:156] Memory required for data: 1242150432
I0403 15:26:32.167975  3091 layer_factory.hpp:77] Creating layer inception_4e/pool
I0403 15:26:32.167996  3091 net.cpp:91] Creating Layer inception_4e/pool
I0403 15:26:32.168014  3091 net.cpp:425] inception_4e/pool <- inception_4d/output_inception_4d/output_0_split_4
I0403 15:26:32.168031  3091 net.cpp:399] inception_4e/pool -> inception_4e/pool
I0403 15:26:32.168099  3091 net.cpp:141] Setting up inception_4e/pool
I0403 15:26:32.168123  3091 net.cpp:148] Top shape: 24 528 14 14 (2483712)
I0403 15:26:32.168138  3091 net.cpp:156] Memory required for data: 1252085280
I0403 15:26:32.168151  3091 layer_factory.hpp:77] Creating layer inception_4e/pool_proj
I0403 15:26:32.168172  3091 net.cpp:91] Creating Layer inception_4e/pool_proj
I0403 15:26:32.168190  3091 net.cpp:425] inception_4e/pool_proj <- inception_4e/pool
I0403 15:26:32.168210  3091 net.cpp:399] inception_4e/pool_proj -> inception_4e/pool_proj
I0403 15:26:32.169749  3091 net.cpp:141] Setting up inception_4e/pool_proj
I0403 15:26:32.169791  3091 net.cpp:148] Top shape: 24 128 14 14 (602112)
I0403 15:26:32.169808  3091 net.cpp:156] Memory required for data: 1254493728
I0403 15:26:32.169827  3091 layer_factory.hpp:77] Creating layer inception_4e/relu_pool_proj
I0403 15:26:32.169845  3091 net.cpp:91] Creating Layer inception_4e/relu_pool_proj
I0403 15:26:32.169862  3091 net.cpp:425] inception_4e/relu_pool_proj <- inception_4e/pool_proj
I0403 15:26:32.169880  3091 net.cpp:386] inception_4e/relu_pool_proj -> inception_4e/pool_proj (in-place)
I0403 15:26:32.170179  3091 net.cpp:141] Setting up inception_4e/relu_pool_proj
I0403 15:26:32.170208  3091 net.cpp:148] Top shape: 24 128 14 14 (602112)
I0403 15:26:32.170225  3091 net.cpp:156] Memory required for data: 1256902176
I0403 15:26:32.170240  3091 layer_factory.hpp:77] Creating layer inception_4e/output
I0403 15:26:32.170258  3091 net.cpp:91] Creating Layer inception_4e/output
I0403 15:26:32.170279  3091 net.cpp:425] inception_4e/output <- inception_4e/1x1
I0403 15:26:32.170297  3091 net.cpp:425] inception_4e/output <- inception_4e/3x3
I0403 15:26:32.170315  3091 net.cpp:425] inception_4e/output <- inception_4e/5x5
I0403 15:26:32.170330  3091 net.cpp:425] inception_4e/output <- inception_4e/pool_proj
I0403 15:26:32.170347  3091 net.cpp:399] inception_4e/output -> inception_4e/output
I0403 15:26:32.170398  3091 net.cpp:141] Setting up inception_4e/output
I0403 15:26:32.170423  3091 net.cpp:148] Top shape: 24 832 14 14 (3913728)
I0403 15:26:32.170436  3091 net.cpp:156] Memory required for data: 1272557088
I0403 15:26:32.170451  3091 layer_factory.hpp:77] Creating layer pool4/3x3_s2
I0403 15:26:32.170471  3091 net.cpp:91] Creating Layer pool4/3x3_s2
I0403 15:26:32.170487  3091 net.cpp:425] pool4/3x3_s2 <- inception_4e/output
I0403 15:26:32.170506  3091 net.cpp:399] pool4/3x3_s2 -> pool4/3x3_s2
I0403 15:26:32.170577  3091 net.cpp:141] Setting up pool4/3x3_s2
I0403 15:26:32.170600  3091 net.cpp:148] Top shape: 24 832 7 7 (978432)
I0403 15:26:32.170615  3091 net.cpp:156] Memory required for data: 1276470816
I0403 15:26:32.170629  3091 layer_factory.hpp:77] Creating layer pool4/3x3_s2_pool4/3x3_s2_0_split
I0403 15:26:32.170646  3091 net.cpp:91] Creating Layer pool4/3x3_s2_pool4/3x3_s2_0_split
I0403 15:26:32.170662  3091 net.cpp:425] pool4/3x3_s2_pool4/3x3_s2_0_split <- pool4/3x3_s2
I0403 15:26:32.170681  3091 net.cpp:399] pool4/3x3_s2_pool4/3x3_s2_0_split -> pool4/3x3_s2_pool4/3x3_s2_0_split_0
I0403 15:26:32.170702  3091 net.cpp:399] pool4/3x3_s2_pool4/3x3_s2_0_split -> pool4/3x3_s2_pool4/3x3_s2_0_split_1
I0403 15:26:32.170723  3091 net.cpp:399] pool4/3x3_s2_pool4/3x3_s2_0_split -> pool4/3x3_s2_pool4/3x3_s2_0_split_2
I0403 15:26:32.170742  3091 net.cpp:399] pool4/3x3_s2_pool4/3x3_s2_0_split -> pool4/3x3_s2_pool4/3x3_s2_0_split_3
I0403 15:26:32.170835  3091 net.cpp:141] Setting up pool4/3x3_s2_pool4/3x3_s2_0_split
I0403 15:26:32.170861  3091 net.cpp:148] Top shape: 24 832 7 7 (978432)
I0403 15:26:32.170877  3091 net.cpp:148] Top shape: 24 832 7 7 (978432)
I0403 15:26:32.170893  3091 net.cpp:148] Top shape: 24 832 7 7 (978432)
I0403 15:26:32.170909  3091 net.cpp:148] Top shape: 24 832 7 7 (978432)
I0403 15:26:32.170922  3091 net.cpp:156] Memory required for data: 1292125728
I0403 15:26:32.170938  3091 layer_factory.hpp:77] Creating layer inception_5a/1x1
I0403 15:26:32.170959  3091 net.cpp:91] Creating Layer inception_5a/1x1
I0403 15:26:32.170976  3091 net.cpp:425] inception_5a/1x1 <- pool4/3x3_s2_pool4/3x3_s2_0_split_0
I0403 15:26:32.170995  3091 net.cpp:399] inception_5a/1x1 -> inception_5a/1x1
I0403 15:26:32.173894  3091 net.cpp:141] Setting up inception_5a/1x1
I0403 15:26:32.173923  3091 net.cpp:148] Top shape: 24 256 7 7 (301056)
I0403 15:26:32.173938  3091 net.cpp:156] Memory required for data: 1293329952
I0403 15:26:32.173957  3091 layer_factory.hpp:77] Creating layer inception_5a/relu_1x1
I0403 15:26:32.173975  3091 net.cpp:91] Creating Layer inception_5a/relu_1x1
I0403 15:26:32.173995  3091 net.cpp:425] inception_5a/relu_1x1 <- inception_5a/1x1
I0403 15:26:32.174011  3091 net.cpp:386] inception_5a/relu_1x1 -> inception_5a/1x1 (in-place)
I0403 15:26:32.174338  3091 net.cpp:141] Setting up inception_5a/relu_1x1
I0403 15:26:32.174365  3091 net.cpp:148] Top shape: 24 256 7 7 (301056)
I0403 15:26:32.174381  3091 net.cpp:156] Memory required for data: 1294534176
I0403 15:26:32.174396  3091 layer_factory.hpp:77] Creating layer inception_5a/3x3_reduce
I0403 15:26:32.174418  3091 net.cpp:91] Creating Layer inception_5a/3x3_reduce
I0403 15:26:32.174435  3091 net.cpp:425] inception_5a/3x3_reduce <- pool4/3x3_s2_pool4/3x3_s2_0_split_1
I0403 15:26:32.174458  3091 net.cpp:399] inception_5a/3x3_reduce -> inception_5a/3x3_reduce
I0403 15:26:32.176934  3091 net.cpp:141] Setting up inception_5a/3x3_reduce
I0403 15:26:32.176964  3091 net.cpp:148] Top shape: 24 160 7 7 (188160)
I0403 15:26:32.176981  3091 net.cpp:156] Memory required for data: 1295286816
I0403 15:26:32.177000  3091 layer_factory.hpp:77] Creating layer inception_5a/relu_3x3_reduce
I0403 15:26:32.177018  3091 net.cpp:91] Creating Layer inception_5a/relu_3x3_reduce
I0403 15:26:32.177034  3091 net.cpp:425] inception_5a/relu_3x3_reduce <- inception_5a/3x3_reduce
I0403 15:26:32.177052  3091 net.cpp:386] inception_5a/relu_3x3_reduce -> inception_5a/3x3_reduce (in-place)
I0403 15:26:32.177248  3091 net.cpp:141] Setting up inception_5a/relu_3x3_reduce
I0403 15:26:32.177278  3091 net.cpp:148] Top shape: 24 160 7 7 (188160)
I0403 15:26:32.177296  3091 net.cpp:156] Memory required for data: 1296039456
I0403 15:26:32.177311  3091 layer_factory.hpp:77] Creating layer inception_5a/3x3
I0403 15:26:32.177333  3091 net.cpp:91] Creating Layer inception_5a/3x3
I0403 15:26:32.177351  3091 net.cpp:425] inception_5a/3x3 <- inception_5a/3x3_reduce
I0403 15:26:32.177373  3091 net.cpp:399] inception_5a/3x3 -> inception_5a/3x3
I0403 15:26:32.182597  3091 net.cpp:141] Setting up inception_5a/3x3
I0403 15:26:32.182627  3091 net.cpp:148] Top shape: 24 320 7 7 (376320)
I0403 15:26:32.182642  3091 net.cpp:156] Memory required for data: 1297544736
I0403 15:26:32.182662  3091 layer_factory.hpp:77] Creating layer inception_5a/relu_3x3
I0403 15:26:32.182679  3091 net.cpp:91] Creating Layer inception_5a/relu_3x3
I0403 15:26:32.182696  3091 net.cpp:425] inception_5a/relu_3x3 <- inception_5a/3x3
I0403 15:26:32.182716  3091 net.cpp:386] inception_5a/relu_3x3 -> inception_5a/3x3 (in-place)
I0403 15:26:32.183018  3091 net.cpp:141] Setting up inception_5a/relu_3x3
I0403 15:26:32.183045  3091 net.cpp:148] Top shape: 24 320 7 7 (376320)
I0403 15:26:32.183060  3091 net.cpp:156] Memory required for data: 1299050016
I0403 15:26:32.183075  3091 layer_factory.hpp:77] Creating layer inception_5a/5x5_reduce
I0403 15:26:32.183097  3091 net.cpp:91] Creating Layer inception_5a/5x5_reduce
I0403 15:26:32.183115  3091 net.cpp:425] inception_5a/5x5_reduce <- pool4/3x3_s2_pool4/3x3_s2_0_split_2
I0403 15:26:32.183137  3091 net.cpp:399] inception_5a/5x5_reduce -> inception_5a/5x5_reduce
I0403 15:26:32.184336  3091 net.cpp:141] Setting up inception_5a/5x5_reduce
I0403 15:26:32.184365  3091 net.cpp:148] Top shape: 24 32 7 7 (37632)
I0403 15:26:32.184381  3091 net.cpp:156] Memory required for data: 1299200544
I0403 15:26:32.184399  3091 layer_factory.hpp:77] Creating layer inception_5a/relu_5x5_reduce
I0403 15:26:32.184420  3091 net.cpp:91] Creating Layer inception_5a/relu_5x5_reduce
I0403 15:26:32.184437  3091 net.cpp:425] inception_5a/relu_5x5_reduce <- inception_5a/5x5_reduce
I0403 15:26:32.184455  3091 net.cpp:386] inception_5a/relu_5x5_reduce -> inception_5a/5x5_reduce (in-place)
I0403 15:26:32.184762  3091 net.cpp:141] Setting up inception_5a/relu_5x5_reduce
I0403 15:26:32.184789  3091 net.cpp:148] Top shape: 24 32 7 7 (37632)
I0403 15:26:32.184804  3091 net.cpp:156] Memory required for data: 1299351072
I0403 15:26:32.184819  3091 layer_factory.hpp:77] Creating layer inception_5a/5x5
I0403 15:26:32.184842  3091 net.cpp:91] Creating Layer inception_5a/5x5
I0403 15:26:32.184860  3091 net.cpp:425] inception_5a/5x5 <- inception_5a/5x5_reduce
I0403 15:26:32.184883  3091 net.cpp:399] inception_5a/5x5 -> inception_5a/5x5
I0403 15:26:32.186676  3091 net.cpp:141] Setting up inception_5a/5x5
I0403 15:26:32.186717  3091 net.cpp:148] Top shape: 24 128 7 7 (150528)
I0403 15:26:32.186731  3091 net.cpp:156] Memory required for data: 1299953184
I0403 15:26:32.186749  3091 layer_factory.hpp:77] Creating layer inception_5a/relu_5x5
I0403 15:26:32.186767  3091 net.cpp:91] Creating Layer inception_5a/relu_5x5
I0403 15:26:32.186784  3091 net.cpp:425] inception_5a/relu_5x5 <- inception_5a/5x5
I0403 15:26:32.186802  3091 net.cpp:386] inception_5a/relu_5x5 -> inception_5a/5x5 (in-place)
I0403 15:26:32.186991  3091 net.cpp:141] Setting up inception_5a/relu_5x5
I0403 15:26:32.187016  3091 net.cpp:148] Top shape: 24 128 7 7 (150528)
I0403 15:26:32.187031  3091 net.cpp:156] Memory required for data: 1300555296
I0403 15:26:32.187046  3091 layer_factory.hpp:77] Creating layer inception_5a/pool
I0403 15:26:32.187064  3091 net.cpp:91] Creating Layer inception_5a/pool
I0403 15:26:32.187082  3091 net.cpp:425] inception_5a/pool <- pool4/3x3_s2_pool4/3x3_s2_0_split_3
I0403 15:26:32.187099  3091 net.cpp:399] inception_5a/pool -> inception_5a/pool
I0403 15:26:32.187170  3091 net.cpp:141] Setting up inception_5a/pool
I0403 15:26:32.187192  3091 net.cpp:148] Top shape: 24 832 7 7 (978432)
I0403 15:26:32.187207  3091 net.cpp:156] Memory required for data: 1304469024
I0403 15:26:32.187222  3091 layer_factory.hpp:77] Creating layer inception_5a/pool_proj
I0403 15:26:32.187243  3091 net.cpp:91] Creating Layer inception_5a/pool_proj
I0403 15:26:32.187261  3091 net.cpp:425] inception_5a/pool_proj <- inception_5a/pool
I0403 15:26:32.187286  3091 net.cpp:399] inception_5a/pool_proj -> inception_5a/pool_proj
I0403 15:26:32.189538  3091 net.cpp:141] Setting up inception_5a/pool_proj
I0403 15:26:32.189568  3091 net.cpp:148] Top shape: 24 128 7 7 (150528)
I0403 15:26:32.189584  3091 net.cpp:156] Memory required for data: 1305071136
I0403 15:26:32.189602  3091 layer_factory.hpp:77] Creating layer inception_5a/relu_pool_proj
I0403 15:26:32.189620  3091 net.cpp:91] Creating Layer inception_5a/relu_pool_proj
I0403 15:26:32.189636  3091 net.cpp:425] inception_5a/relu_pool_proj <- inception_5a/pool_proj
I0403 15:26:32.189656  3091 net.cpp:386] inception_5a/relu_pool_proj -> inception_5a/pool_proj (in-place)
I0403 15:26:32.189966  3091 net.cpp:141] Setting up inception_5a/relu_pool_proj
I0403 15:26:32.189996  3091 net.cpp:148] Top shape: 24 128 7 7 (150528)
I0403 15:26:32.190012  3091 net.cpp:156] Memory required for data: 1305673248
I0403 15:26:32.190027  3091 layer_factory.hpp:77] Creating layer inception_5a/output
I0403 15:26:32.190044  3091 net.cpp:91] Creating Layer inception_5a/output
I0403 15:26:32.190073  3091 net.cpp:425] inception_5a/output <- inception_5a/1x1
I0403 15:26:32.190089  3091 net.cpp:425] inception_5a/output <- inception_5a/3x3
I0403 15:26:32.190105  3091 net.cpp:425] inception_5a/output <- inception_5a/5x5
I0403 15:26:32.190121  3091 net.cpp:425] inception_5a/output <- inception_5a/pool_proj
I0403 15:26:32.190140  3091 net.cpp:399] inception_5a/output -> inception_5a/output
I0403 15:26:32.190189  3091 net.cpp:141] Setting up inception_5a/output
I0403 15:26:32.190212  3091 net.cpp:148] Top shape: 24 832 7 7 (978432)
I0403 15:26:32.190225  3091 net.cpp:156] Memory required for data: 1309586976
I0403 15:26:32.190239  3091 layer_factory.hpp:77] Creating layer inception_5a/output_inception_5a/output_0_split
I0403 15:26:32.190259  3091 net.cpp:91] Creating Layer inception_5a/output_inception_5a/output_0_split
I0403 15:26:32.190279  3091 net.cpp:425] inception_5a/output_inception_5a/output_0_split <- inception_5a/output
I0403 15:26:32.190297  3091 net.cpp:399] inception_5a/output_inception_5a/output_0_split -> inception_5a/output_inception_5a/output_0_split_0
I0403 15:26:32.190317  3091 net.cpp:399] inception_5a/output_inception_5a/output_0_split -> inception_5a/output_inception_5a/output_0_split_1
I0403 15:26:32.190337  3091 net.cpp:399] inception_5a/output_inception_5a/output_0_split -> inception_5a/output_inception_5a/output_0_split_2
I0403 15:26:32.190361  3091 net.cpp:399] inception_5a/output_inception_5a/output_0_split -> inception_5a/output_inception_5a/output_0_split_3
I0403 15:26:32.190470  3091 net.cpp:141] Setting up inception_5a/output_inception_5a/output_0_split
I0403 15:26:32.190493  3091 net.cpp:148] Top shape: 24 832 7 7 (978432)
I0403 15:26:32.190510  3091 net.cpp:148] Top shape: 24 832 7 7 (978432)
I0403 15:26:32.190524  3091 net.cpp:148] Top shape: 24 832 7 7 (978432)
I0403 15:26:32.190539  3091 net.cpp:148] Top shape: 24 832 7 7 (978432)
I0403 15:26:32.190553  3091 net.cpp:156] Memory required for data: 1325241888
I0403 15:26:32.190568  3091 layer_factory.hpp:77] Creating layer inception_5b/1x1
I0403 15:26:32.190590  3091 net.cpp:91] Creating Layer inception_5b/1x1
I0403 15:26:32.190608  3091 net.cpp:425] inception_5b/1x1 <- inception_5a/output_inception_5a/output_0_split_0
I0403 15:26:32.190629  3091 net.cpp:399] inception_5b/1x1 -> inception_5b/1x1
I0403 15:26:32.194320  3091 net.cpp:141] Setting up inception_5b/1x1
I0403 15:26:32.194350  3091 net.cpp:148] Top shape: 24 384 7 7 (451584)
I0403 15:26:32.194366  3091 net.cpp:156] Memory required for data: 1327048224
I0403 15:26:32.194386  3091 layer_factory.hpp:77] Creating layer inception_5b/relu_1x1
I0403 15:26:32.194402  3091 net.cpp:91] Creating Layer inception_5b/relu_1x1
I0403 15:26:32.194418  3091 net.cpp:425] inception_5b/relu_1x1 <- inception_5b/1x1
I0403 15:26:32.194435  3091 net.cpp:386] inception_5b/relu_1x1 -> inception_5b/1x1 (in-place)
I0403 15:26:32.194736  3091 net.cpp:141] Setting up inception_5b/relu_1x1
I0403 15:26:32.194763  3091 net.cpp:148] Top shape: 24 384 7 7 (451584)
I0403 15:26:32.194778  3091 net.cpp:156] Memory required for data: 1328854560
I0403 15:26:32.194794  3091 layer_factory.hpp:77] Creating layer inception_5b/3x3_reduce
I0403 15:26:32.194815  3091 net.cpp:91] Creating Layer inception_5b/3x3_reduce
I0403 15:26:32.194833  3091 net.cpp:425] inception_5b/3x3_reduce <- inception_5a/output_inception_5a/output_0_split_1
I0403 15:26:32.194851  3091 net.cpp:399] inception_5b/3x3_reduce -> inception_5b/3x3_reduce
I0403 15:26:32.197476  3091 net.cpp:141] Setting up inception_5b/3x3_reduce
I0403 15:26:32.197507  3091 net.cpp:148] Top shape: 24 192 7 7 (225792)
I0403 15:26:32.197523  3091 net.cpp:156] Memory required for data: 1329757728
I0403 15:26:32.197542  3091 layer_factory.hpp:77] Creating layer inception_5b/relu_3x3_reduce
I0403 15:26:32.197559  3091 net.cpp:91] Creating Layer inception_5b/relu_3x3_reduce
I0403 15:26:32.197576  3091 net.cpp:425] inception_5b/relu_3x3_reduce <- inception_5b/3x3_reduce
I0403 15:26:32.197594  3091 net.cpp:386] inception_5b/relu_3x3_reduce -> inception_5b/3x3_reduce (in-place)
I0403 15:26:32.197782  3091 net.cpp:141] Setting up inception_5b/relu_3x3_reduce
I0403 15:26:32.197808  3091 net.cpp:148] Top shape: 24 192 7 7 (225792)
I0403 15:26:32.197821  3091 net.cpp:156] Memory required for data: 1330660896
I0403 15:26:32.197836  3091 layer_factory.hpp:77] Creating layer inception_5b/3x3
I0403 15:26:32.197857  3091 net.cpp:91] Creating Layer inception_5b/3x3
I0403 15:26:32.197875  3091 net.cpp:425] inception_5b/3x3 <- inception_5b/3x3_reduce
I0403 15:26:32.197897  3091 net.cpp:399] inception_5b/3x3 -> inception_5b/3x3
I0403 15:26:32.204473  3091 net.cpp:141] Setting up inception_5b/3x3
I0403 15:26:32.204502  3091 net.cpp:148] Top shape: 24 384 7 7 (451584)
I0403 15:26:32.204519  3091 net.cpp:156] Memory required for data: 1332467232
I0403 15:26:32.204536  3091 layer_factory.hpp:77] Creating layer inception_5b/relu_3x3
I0403 15:26:32.204555  3091 net.cpp:91] Creating Layer inception_5b/relu_3x3
I0403 15:26:32.204571  3091 net.cpp:425] inception_5b/relu_3x3 <- inception_5b/3x3
I0403 15:26:32.204591  3091 net.cpp:386] inception_5b/relu_3x3 -> inception_5b/3x3 (in-place)
I0403 15:26:32.204885  3091 net.cpp:141] Setting up inception_5b/relu_3x3
I0403 15:26:32.204915  3091 net.cpp:148] Top shape: 24 384 7 7 (451584)
I0403 15:26:32.204931  3091 net.cpp:156] Memory required for data: 1334273568
I0403 15:26:32.204946  3091 layer_factory.hpp:77] Creating layer inception_5b/5x5_reduce
I0403 15:26:32.204983  3091 net.cpp:91] Creating Layer inception_5b/5x5_reduce
I0403 15:26:32.205003  3091 net.cpp:425] inception_5b/5x5_reduce <- inception_5a/output_inception_5a/output_0_split_2
I0403 15:26:32.205021  3091 net.cpp:399] inception_5b/5x5_reduce -> inception_5b/5x5_reduce
I0403 15:26:32.206280  3091 net.cpp:141] Setting up inception_5b/5x5_reduce
I0403 15:26:32.206310  3091 net.cpp:148] Top shape: 24 48 7 7 (56448)
I0403 15:26:32.206326  3091 net.cpp:156] Memory required for data: 1334499360
I0403 15:26:32.206343  3091 layer_factory.hpp:77] Creating layer inception_5b/relu_5x5_reduce
I0403 15:26:32.206362  3091 net.cpp:91] Creating Layer inception_5b/relu_5x5_reduce
I0403 15:26:32.206377  3091 net.cpp:425] inception_5b/relu_5x5_reduce <- inception_5b/5x5_reduce
I0403 15:26:32.206396  3091 net.cpp:386] inception_5b/relu_5x5_reduce -> inception_5b/5x5_reduce (in-place)
I0403 15:26:32.206764  3091 net.cpp:141] Setting up inception_5b/relu_5x5_reduce
I0403 15:26:32.206790  3091 net.cpp:148] Top shape: 24 48 7 7 (56448)
I0403 15:26:32.206805  3091 net.cpp:156] Memory required for data: 1334725152
I0403 15:26:32.206820  3091 layer_factory.hpp:77] Creating layer inception_5b/5x5
I0403 15:26:32.206840  3091 net.cpp:91] Creating Layer inception_5b/5x5
I0403 15:26:32.206856  3091 net.cpp:425] inception_5b/5x5 <- inception_5b/5x5_reduce
I0403 15:26:32.206876  3091 net.cpp:399] inception_5b/5x5 -> inception_5b/5x5
I0403 15:26:32.208889  3091 net.cpp:141] Setting up inception_5b/5x5
I0403 15:26:32.208916  3091 net.cpp:148] Top shape: 24 128 7 7 (150528)
I0403 15:26:32.208931  3091 net.cpp:156] Memory required for data: 1335327264
I0403 15:26:32.208950  3091 layer_factory.hpp:77] Creating layer inception_5b/relu_5x5
I0403 15:26:32.208967  3091 net.cpp:91] Creating Layer inception_5b/relu_5x5
I0403 15:26:32.209014  3091 net.cpp:425] inception_5b/relu_5x5 <- inception_5b/5x5
I0403 15:26:32.209031  3091 net.cpp:386] inception_5b/relu_5x5 -> inception_5b/5x5 (in-place)
I0403 15:26:32.209230  3091 net.cpp:141] Setting up inception_5b/relu_5x5
I0403 15:26:32.209256  3091 net.cpp:148] Top shape: 24 128 7 7 (150528)
I0403 15:26:32.209287  3091 net.cpp:156] Memory required for data: 1335929376
I0403 15:26:32.209303  3091 layer_factory.hpp:77] Creating layer inception_5b/pool
I0403 15:26:32.209322  3091 net.cpp:91] Creating Layer inception_5b/pool
I0403 15:26:32.209339  3091 net.cpp:425] inception_5b/pool <- inception_5a/output_inception_5a/output_0_split_3
I0403 15:26:32.209357  3091 net.cpp:399] inception_5b/pool -> inception_5b/pool
I0403 15:26:32.209430  3091 net.cpp:141] Setting up inception_5b/pool
I0403 15:26:32.209455  3091 net.cpp:148] Top shape: 24 832 7 7 (978432)
I0403 15:26:32.209467  3091 net.cpp:156] Memory required for data: 1339843104
I0403 15:26:32.209482  3091 layer_factory.hpp:77] Creating layer inception_5b/pool_proj
I0403 15:26:32.209503  3091 net.cpp:91] Creating Layer inception_5b/pool_proj
I0403 15:26:32.209520  3091 net.cpp:425] inception_5b/pool_proj <- inception_5b/pool
I0403 15:26:32.209540  3091 net.cpp:399] inception_5b/pool_proj -> inception_5b/pool_proj
I0403 15:26:32.214939  3091 net.cpp:141] Setting up inception_5b/pool_proj
I0403 15:26:32.214969  3091 net.cpp:148] Top shape: 24 128 7 7 (150528)
I0403 15:26:32.214985  3091 net.cpp:156] Memory required for data: 1340445216
I0403 15:26:32.215004  3091 layer_factory.hpp:77] Creating layer inception_5b/relu_pool_proj
I0403 15:26:32.215023  3091 net.cpp:91] Creating Layer inception_5b/relu_pool_proj
I0403 15:26:32.215039  3091 net.cpp:425] inception_5b/relu_pool_proj <- inception_5b/pool_proj
I0403 15:26:32.215059  3091 net.cpp:386] inception_5b/relu_pool_proj -> inception_5b/pool_proj (in-place)
I0403 15:26:32.215376  3091 net.cpp:141] Setting up inception_5b/relu_pool_proj
I0403 15:26:32.215404  3091 net.cpp:148] Top shape: 24 128 7 7 (150528)
I0403 15:26:32.215418  3091 net.cpp:156] Memory required for data: 1341047328
I0403 15:26:32.215433  3091 layer_factory.hpp:77] Creating layer inception_5b/output
I0403 15:26:32.215451  3091 net.cpp:91] Creating Layer inception_5b/output
I0403 15:26:32.215482  3091 net.cpp:425] inception_5b/output <- inception_5b/1x1
I0403 15:26:32.215502  3091 net.cpp:425] inception_5b/output <- inception_5b/3x3
I0403 15:26:32.215517  3091 net.cpp:425] inception_5b/output <- inception_5b/5x5
I0403 15:26:32.215534  3091 net.cpp:425] inception_5b/output <- inception_5b/pool_proj
I0403 15:26:32.215553  3091 net.cpp:399] inception_5b/output -> inception_5b/output
I0403 15:26:32.215606  3091 net.cpp:141] Setting up inception_5b/output
I0403 15:26:32.215631  3091 net.cpp:148] Top shape: 24 1024 7 7 (1204224)
I0403 15:26:32.215647  3091 net.cpp:156] Memory required for data: 1345864224
I0403 15:26:32.215662  3091 layer_factory.hpp:77] Creating layer pool5/7x7_s1
I0403 15:26:32.215680  3091 net.cpp:91] Creating Layer pool5/7x7_s1
I0403 15:26:32.215697  3091 net.cpp:425] pool5/7x7_s1 <- inception_5b/output
I0403 15:26:32.215714  3091 net.cpp:399] pool5/7x7_s1 -> pool5/7x7_s1
I0403 15:26:32.215952  3091 net.cpp:141] Setting up pool5/7x7_s1
I0403 15:26:32.215980  3091 net.cpp:148] Top shape: 24 1024 1 1 (24576)
I0403 15:26:32.215994  3091 net.cpp:156] Memory required for data: 1345962528
I0403 15:26:32.216011  3091 layer_factory.hpp:77] Creating layer pool5/drop_7x7_s1
I0403 15:26:32.216028  3091 net.cpp:91] Creating Layer pool5/drop_7x7_s1
I0403 15:26:32.216044  3091 net.cpp:425] pool5/drop_7x7_s1 <- pool5/7x7_s1
I0403 15:26:32.216064  3091 net.cpp:386] pool5/drop_7x7_s1 -> pool5/7x7_s1 (in-place)
I0403 15:26:32.216116  3091 net.cpp:141] Setting up pool5/drop_7x7_s1
I0403 15:26:32.216155  3091 net.cpp:148] Top shape: 24 1024 1 1 (24576)
I0403 15:26:32.216169  3091 net.cpp:156] Memory required for data: 1346060832
I0403 15:26:32.216184  3091 layer_factory.hpp:77] Creating layer loss3/classifier_plantvillage
I0403 15:26:32.216203  3091 net.cpp:91] Creating Layer loss3/classifier_plantvillage
I0403 15:26:32.216219  3091 net.cpp:425] loss3/classifier_plantvillage <- pool5/7x7_s1
I0403 15:26:32.216240  3091 net.cpp:399] loss3/classifier_plantvillage -> loss3/classifier_plantvillage
I0403 15:26:32.216696  3091 net.cpp:141] Setting up loss3/classifier_plantvillage
I0403 15:26:32.216722  3091 net.cpp:148] Top shape: 24 38 (912)
I0403 15:26:32.216749  3091 net.cpp:156] Memory required for data: 1346064480
I0403 15:26:32.216768  3091 layer_factory.hpp:77] Creating layer loss3/classifier_plantvillage_loss3/classifier_plantvillage_0_split
I0403 15:26:32.216789  3091 net.cpp:91] Creating Layer loss3/classifier_plantvillage_loss3/classifier_plantvillage_0_split
I0403 15:26:32.216805  3091 net.cpp:425] loss3/classifier_plantvillage_loss3/classifier_plantvillage_0_split <- loss3/classifier_plantvillage
I0403 15:26:32.216822  3091 net.cpp:399] loss3/classifier_plantvillage_loss3/classifier_plantvillage_0_split -> loss3/classifier_plantvillage_loss3/classifier_plantvillage_0_split_0
I0403 15:26:32.216843  3091 net.cpp:399] loss3/classifier_plantvillage_loss3/classifier_plantvillage_0_split -> loss3/classifier_plantvillage_loss3/classifier_plantvillage_0_split_1
I0403 15:26:32.216866  3091 net.cpp:399] loss3/classifier_plantvillage_loss3/classifier_plantvillage_0_split -> loss3/classifier_plantvillage_loss3/classifier_plantvillage_0_split_2
I0403 15:26:32.216887  3091 net.cpp:399] loss3/classifier_plantvillage_loss3/classifier_plantvillage_0_split -> loss3/classifier_plantvillage_loss3/classifier_plantvillage_0_split_3
I0403 15:26:32.216989  3091 net.cpp:141] Setting up loss3/classifier_plantvillage_loss3/classifier_plantvillage_0_split
I0403 15:26:32.217013  3091 net.cpp:148] Top shape: 24 38 (912)
I0403 15:26:32.217031  3091 net.cpp:148] Top shape: 24 38 (912)
I0403 15:26:32.217046  3091 net.cpp:148] Top shape: 24 38 (912)
I0403 15:26:32.217061  3091 net.cpp:148] Top shape: 24 38 (912)
I0403 15:26:32.217075  3091 net.cpp:156] Memory required for data: 1346079072
I0403 15:26:32.217090  3091 layer_factory.hpp:77] Creating layer loss1/loss
I0403 15:26:32.217111  3091 net.cpp:91] Creating Layer loss1/loss
I0403 15:26:32.217128  3091 net.cpp:425] loss1/loss <- loss1/classifier_plantvillage_loss1/classifier_plantvillage_0_split_0
I0403 15:26:32.217159  3091 net.cpp:425] loss1/loss <- label_data_1_split_0
…
