…
I0403 15:00:09.963817  2403 net.cpp:313] The NetState phase (1) differed from the phase (0) specified by a rule in layer data
I0403 15:00:09.965026  2403 net.cpp:49] Initializing net from parameters: 
state {
  phase: TEST
}
layer {
  name: "data"
  type: "Data"
  top: "data"
  top: "label"
  include {
    phase: TEST
  }
  transform_param {
    mirror: false
    crop_size: 224
    mean_file: "/home/mohanty/data/final_dataset/lmdb/grayscale-50-50/mean.binaryproto"
  }
  data_param {
    source: "/home/mohanty/data/final_dataset/lmdb/grayscale-50-50/test_db"
    batch_size: 24
    backend: LMDB
  }
}
layer {
  name: "conv1/7x7_s2"
  type: "Convolution"
  bottom: "data"
  top: "conv1/7x7_s2"
  param {
    lr_mult: 1
    decay_mult: 1
  }
  param {
    lr_mult: 2
    decay_mult: 0
  }
  convolution_param {
    num_output: 64
    pad: 3
    kernel_size: 7
    stride: 2
    weight_filler {
      type: "xavier"
      std: 0.1
    }
    bias_filler {
      type: "constant"
      value: 0.2
    }
  }
}
layer {
  name: "conv1/relu_7x7"
  type: "ReLU"
  bottom: "conv1/7x7_s2"
  top: "conv1/7x7_s2"
}
layer {
  name: "pool1/3x3_s2"
  type: "Pooling"
  bottom: "conv1/7x7_s2"
  top: "pool1/3x3_s2"
  pooling_param {
    pool: MAX
    kernel_size: 3
    stride: 2
  }
}
layer {
  name: "pool1/norm1"
  type: "LRN"
  bottom: "pool1/3x3_s2"
  top: "pool1/norm1"
  lrn_param {
    local_size: 5
    alpha: 0.0001
    beta: 0.75
  }
}
layer {
  name: "conv2/3x3_reduce"
  type: "Convolution"
  bottom: "pool1/norm1"
  top: "conv2/3x3_reduce"
  param {
    lr_mult: 1
    decay_mult: 1
  }
  param {
    lr_mult: 2
    decay_mult: 0
  }
  convolution_param {
    num_output: 64
    kernel_size: 1
    weight_filler {
      type: "xavier"
      std: 0.1
    }
    bias_filler {
      type: "constant"
      value: 0.2
    }
  }
}
layer {
  name: "conv2/relu_3x3_reduce"
  type: "ReLU"
  bottom: "conv2/3x3_reduce"
  top: "conv2/3x3_reduce"
}
layer {
  name: "conv2/3x3"
  type: "Convolution"
  bottom: "conv2/3x3_reduce"
  top: "conv2/3x3"
  param {
    lr_mult: 1
    decay_mult: 1
  }
  param {
    lr_mult: 2
    decay_mult: 0
  }
  convolution_param {
    num_output: 192
    pad: 1
    kernel_size: 3
    weight_filler {
      type: "xavier"
      std: 0.03
    }
    bias_filler {
      type: "constant"
      value: 0.2
    }
  }
}
layer {
  name: "conv2/relu_3x3"
  type: "ReLU"
  bottom: "conv2/3x3"
  top: "conv2/3x3"
}
layer {
  name: "conv2/norm2"
  type: "LRN"
  bottom: "conv2/3x3"
  top: "conv2/norm2"
  lrn_param {
    local_size: 5
    alpha: 0.0001
    beta: 0.75
  }
}
layer {
  name: "pool2/3x3_s2"
  type: "Pooling"
  bottom: "conv2/norm2"
  top: "pool2/3x3_s2"
  pooling_param {
    pool: MAX
    kernel_size: 3
    stride: 2
  }
}
layer {
  name: "inception_3a/1x1"
  type: "Convolution"
  bottom: "pool2/3x3_s2"
  top: "inception_3a/1x1"
  param {
    lr_mult: 1
    decay_mult: 1
  }
  param {
    lr_mult: 2
    decay_mult: 0
  }
  convolution_param {
    num_output: 64
    kernel_size: 1
    weight_filler {
      type: "xavier"
      std: 0.03
    }
    bias_filler {
      type: "constant"
      value: 0.2
    }
  }
}
layer {
  name: "inception_3a/relu_1x1"
  type: "ReLU"
  bottom: "inception_3a/1x1"
  top: "inception_3a/1x1"
}
layer {
  name: "inception_3a/3x3_reduce"
  type: "Convolution"
  bottom: "pool2/3x3_s2"
  top: "inception_3a/3x3_reduce"
  param {
    lr_mult: 1
    decay_mult: 1
  }
  param {
    lr_mult: 2
    decay_mult: 0
  }
  convolution_param {
    num_output: 96
    kernel_size: 1
    weight_filler {
      type: "xavier"
      std: 0.09
    }
    bias_filler {
      type: "constant"
      value: 0.2
    }
  }
}
layer {
  name: "inception_3a/relu_3x3_reduce"
  type: "ReLU"
  bottom: "inception_3a/3x3_reduce"
  top: "inception_3a/3x3_reduce"
}
layer {
  name: "inception_3a/3x3"
  type: "Convolution"
  bottom: "inception_3a/3x3_reduce"
  top: "inception_3a/3x3"
  param {
    lr_mult: 1
    decay_mult: 1
  }
  param {
    lr_mult: 2
    decay_mult: 0
  }
  convolution_param {
    num_output: 128
    pad: 1
    kernel_size: 3
    weight_filler {
      type: "xavier"
      std: 0.03
    }
    bias_filler {
      type: "constant"
      value: 0.2
    }
  }
}
layer {
  name: "inception_3a/relu_3x3"
  type: "ReLU"
  bottom: "inception_3a/3x3"
  top: "inception_3a/3x3"
}
layer {
  name: "inception_3a/5x5_reduce"
  type: "Convolution"
  bottom: "pool2/3x3_s2"
  top: "inception_3a/5x5_reduce"
  param {
    lr_mult: 1
    decay_mult: 1
  }
  param {
    lr_mult: 2
    decay_mult: 0
  }
  convolution_param {
    num_output: 16
    kernel_size: 1
    weight_filler {
      type: "xavier"
      std: 0.2
    }
    bias_filler {
      type: "constant"
      value: 0.2
    }
  }
}
layer {
  name: "inception_3a/relu_5x5_reduce"
  type: "ReLU"
  bottom: "inception_3a/5x5_reduce"
  top: "inception_3a/5x5_reduce"
}
layer {
  name: "inception_3a/5x5"
  type: "Convolution"
  bottom: "inception_3a/5x5_reduce"
  top: "inception_3a/5x5"
  param {
    lr_mult: 1
    decay_mult: 1
  }
  param {
    lr_mult: 2
    decay_mult: 0
  }
  convolution_param {
    num_output: 32
    pad: 2
    kernel_size: 5
    weight_filler {
      type: "xavier"
      std: 0.03
    }
    bias_filler {
      type: "constant"
      value: 0.2
    }
  }
}
layer {
  name: "inception_3a/relu_5x5"
  type: "ReLU"
  bottom: "inception_3a/5x5"
  top: "inception_3a/5x5"
}
layer {
  name: "inception_3a/pool"
  type: "Pooling"
  bottom: "pool2/3x3_s2"
  top: "inception_3a/pool"
  pooling_param {
    pool: MAX
    kernel_size: 3
    stride: 1
    pad: 1
  }
}
layer {
  name: "inception_3a/pool_proj"
  type: "Convolution"
  bottom: "inception_3a/pool"
  top: "inception_3a/pool_proj"
  param {
    lr_mult: 1
    decay_mult: 1
  }
  param {
    lr_mult: 2
    decay_mult: 0
  }
  convolution_param {
    num_output: 32
    kernel_size: 1
    weight_filler {
      type: "xavier"
      std: 0.1
    }
    bias_filler {
      type: "constant"
      value: 0.2
    }
  }
}
layer {
  name: "inception_3a/relu_pool_proj"
  type: "ReLU"
  bottom: "inception_3a/pool_proj"
  top: "inception_3a/pool_proj"
}
layer {
  name: "inception_3a/output"
  type: "Concat"
  bottom: "inception_3a/1x1"
  bottom: "inception_3a/3x3"
  bottom: "inception_3a/5x5"
  bottom: "inception_3a/pool_proj"
  top: "inception_3a/output"
}
layer {
  name: "inception_3b/1x1"
  type: "Convolution"
  bottom: "inception_3a/output"
  top: "inception_3b/1x1"
  param {
    lr_mult: 1
    decay_mult: 1
  }
  param {
    lr_mult: 2
    decay_mult: 0
  }
  convolution_param {
    num_output: 128
    kernel_size: 1
    weight_filler {
      type: "xavier"
      std: 0.03
    }
    bias_filler {
      type: "constant"
      value: 0.2
    }
  }
}
layer {
  name: "inception_3b/relu_1x1"
  type: "ReLU"
  bottom: "inception_3b/1x1"
  top: "inception_3b/1x1"
}
layer {
  name: "inception_3b/3x3_reduce"
  type: "Convolution"
  bottom: "inception_3a/output"
  top: "inception_3b/3x3_reduce"
  param {
    lr_mult: 1
    decay_mult: 1
  }
  param {
    lr_mult: 2
    decay_mult: 0
  }
  convolution_param {
    num_output: 128
    kernel_size: 1
    weight_filler {
      type: "xavier"
      std: 0.09
    }
    bias_filler {
      type: "constant"
      value: 0.2
    }
  }
}
layer {
  name: "inception_3b/relu_3x3_reduce"
  type: "ReLU"
  bottom: "inception_3b/3x3_reduce"
  top: "inception_3b/3x3_reduce"
}
layer {
  name: "inception_3b/3x3"
  type: "Convolution"
  bottom: "inception_3b/3x3_reduce"
  top: "inception_3b/3x3"
  param {
    lr_mult: 1
    decay_mult: 1
  }
  param {
    lr_mult: 2
    decay_mult: 0
  }
  convolution_param {
    num_output: 192
    pad: 1
    kernel_size: 3
    weight_filler {
      type: "xavier"
      std: 0.03
    }
    bias_filler {
      type: "constant"
      value: 0.2
    }
  }
}
layer {
  name: "inception_3b/relu_3x3"
  type: "ReLU"
  bottom: "inception_3b/3x3"
  top: "inception_3b/3x3"
}
layer {
  name: "inception_3b/5x5_reduce"
  type: "Convolution"
  bottom: "inception_3a/output"
  top: "inception_3b/5x5_reduce"
  param {
    lr_mult: 1
    decay_mult: 1
  }
  param {
    lr_mult: 2
    decay_mult: 0
  }
  convolution_param {
    num_output: 32
    kernel_size: 1
    weight_filler {
      type: "xavier"
      std: 0.2
    }
    bias_filler {
      type: "constant"
      value: 0.2
    }
  }
}
layer {
  name: "inception_3b/relu_5x5_reduce"
  type: "ReLU"
  bottom: "inception_3b/5x5_reduce"
  top: "inception_3b/5x5_reduce"
}
layer {
  name: "inception_3b/5x5"
  type: "Convolution"
  bottom: "inception_3b/5x5_reduce"
  top: "inception_3b/5x5"
  param {
    lr_mult: 1
    decay_mult: 1
  }
  param {
    lr_mult: 2
    decay_mult: 0
  }
  convolution_param {
    num_output: 96
    pad: 2
    kernel_size: 5
    weight_filler {
      type: "xavier"
      std: 0.03
    }
    bias_filler {
      type: "constant"
      value: 0.2
    }
  }
}
layer {
  name: "inception_3b/relu_5x5"
  type: "ReLU"
  bottom: "inception_3b/5x5"
  top: "inception_3b/5x5"
}
layer {
  name: "inception_3b/pool"
  type: "Pooling"
  bottom: "inception_3a/output"
  top: "inception_3b/pool"
  pooling_param {
    pool: MAX
    kernel_size: 3
    stride: 1
    pad: 1
  }
}
layer {
  name: "inception_3b/pool_proj"
  type: "Convolution"
  bottom: "inception_3b/pool"
  top: "inception_3b/pool_proj"
  param {
    lr_mult: 1
    decay_mult: 1
  }
  param {
    lr_mult: 2
    decay_mult: 0
  }
  convolution_param {
    num_output: 64
    kernel_size: 1
    weight_filler {
      type: "xavier"
      std: 0.1
    }
    bias_filler {
      type: "constant"
      value: 0.2
    }
  }
}
layer {
  name: "inception_3b/relu_pool_proj"
  type: "ReLU"
  bottom: "inception_3b/pool_proj"
  top: "inception_3b/pool_proj"
}
layer {
  name: "inception_3b/output"
  type: "Concat"
  bottom: "inception_3b/1x1"
  bottom: "inception_3b/3x3"
  bottom: "inception_3b/5x5"
  bottom: "inception_3b/pool_proj"
  top: "inception_3b/output"
}
layer {
  name: "pool3/3x3_s2"
  type: "Pooling"
  bottom: "inception_3b/output"
  top: "pool3/3x3_s2"
  pooling_param {
    pool: MAX
    kernel_size: 3
    stride: 2
  }
}
layer {
  name: "inception_4a/1x1"
  type: "Convolution"
  bottom: "pool3/3x3_s2"
  top: "inception_4a/1x1"
  param {
    lr_mult: 1
    decay_mult: 1
  }
  param {
    lr_mult: 2
    decay_mult: 0
  }
  convolution_param {
    num_output: 192
    kernel_size: 1
    weight_filler {
      type: "xavier"
      std: 0.03
    }
    bias_filler {
      type: "constant"
      value: 0.2
    }
  }
}
layer {
  name: "inception_4a/relu_1x1"
  type: "ReLU"
  bottom: "inception_4a/1x1"
  top: "inception_4a/1x1"
}
layer {
  name: "inception_4a/3x3_reduce"
  type: "Convolution"
  bottom: "pool3/3x3_s2"
  top: "inception_4a/3x3_reduce"
  param {
    lr_mult: 1
    decay_mult: 1
  }
  param {
    lr_mult: 2
    decay_mult: 0
  }
  convolution_param {
    num_output: 96
    kernel_size: 1
    weight_filler {
      type: "xavier"
      std: 0.09
    }
    bias_filler {
      type: "constant"
      value: 0.2
    }
  }
}
layer {
  name: "inception_4a/relu_3x3_reduce"
  type: "ReLU"
  bottom: "inception_4a/3x3_reduce"
  top: "inception_4a/3x3_reduce"
}
layer {
  name: "inception_4a/3x3"
  type: "Convolution"
  bottom: "inception_4a/3x3_reduce"
  top: "inception_4a/3x3"
  param {
    lr_mult: 1
    decay_mult: 1
  }
  param {
    lr_mult: 2
    decay_mult: 0
  }
  convolution_param {
    num_output: 208
    pad: 1
    kernel_size: 3
    weight_filler {
      type: "xavier"
      std: 0.03
    }
    bias_filler {
      type: "constant"
      value: 0.2
    }
  }
}
layer {
  name: "inception_4a/relu_3x3"
  type: "ReLU"
  bottom: "inception_4a/3x3"
  top: "inception_4a/3x3"
}
layer {
  name: "inception_4a/5x5_reduce"
  type: "Convolution"
  bottom: "pool3/3x3_s2"
  top: "inception_4a/5x5_reduce"
  param {
    lr_mult: 1
    decay_mult: 1
  }
  param {
    lr_mult: 2
    decay_mult: 0
  }
  convolution_param {
    num_output: 16
    kernel_size: 1
    weight_filler {
      type: "xavier"
      std: 0.2
    }
    bias_filler {
      type: "constant"
      value: 0.2
    }
  }
}
layer {
  name: "inception_4a/relu_5x5_reduce"
  type: "ReLU"
  bottom: "inception_4a/5x5_reduce"
  top: "inception_4a/5x5_reduce"
}
layer {
  name: "inception_4a/5x5"
  type: "Convolution"
  bottom: "inception_4a/5x5_reduce"
  top: "inception_4a/5x5"
  param {
    lr_mult: 1
    decay_mult: 1
  }
  param {
    lr_mult: 2
    decay_mult: 0
  }
  convolution_param {
    num_output: 48
    pad: 2
    kernel_size: 5
    weight_filler {
      type: "xavier"
      std: 0.03
    }
    bias_filler {
      type: "constant"
      value: 0.2
    }
  }
}
layer {
  name: "inception_4a/relu_5x5"
  type: "ReLU"
  bottom: "inception_4a/5x5"
  top: "inception_4a/5x5"
}
layer {
  name: "inception_4a/pool"
  type: "Pooling"
  bottom: "pool3/3x3_s2"
  top: "inception_4a/pool"
  pooling_param {
    pool: MAX
    kernel_size: 3
    stride: 1
    pad: 1
  }
}
layer {
  name: "inception_4a/pool_proj"
  type: "Convolution"
  bottom: "inception_4a/pool"
  top: "inception_4a/pool_proj"
  param {
    lr_mult: 1
    decay_mult: 1
  }
  param {
    lr_mult: 2
    decay_mult: 0
  }
  convolution_param {
    num_output: 64
    kernel_size: 1
    weight_filler {
      type: "xavier"
      std: 0.1
    }
    bias_filler {
      type: "constant"
      value: 0.2
    }
  }
}
layer {
  name: "inception_4a/relu_pool_proj"
  type: "ReLU"
  bottom: "inception_4a/pool_proj"
  top: "inception_4a/pool_proj"
}
layer {
  name: "inception_4a/output"
  type: "Concat"
  bottom: "inception_4a/1x1"
  bottom: "inception_4a/3x3"
  bottom: "inception_4a/5x5"
  bottom: "inception_4a/pool_proj"
  top: "inception_4a/output"
}
layer {
  name: "loss1/ave_pool"
  type: "Pooling"
  bottom: "inception_4a/output"
  top: "loss1/ave_pool"
  pooling_param {
    pool: AVE
    kernel_size: 5
    stride: 3
  }
}
layer {
  name: "loss1/conv"
  type: "Convolution"
  bottom: "loss1/ave_pool"
  top: "loss1/conv"
  param {
    lr_mult: 1
    decay_mult: 1
  }
  param {
    lr_mult: 2
    decay_mult: 0
  }
  convolution_param {
    num_output: 128
    kernel_size: 1
    weight_filler {
      type: "xavier"
      std: 0.08
    }
    bias_filler {
      type: "constant"
      value: 0.2
    }
  }
}
layer {
  name: "loss1/relu_conv"
  type: "ReLU"
  bottom: "loss1/conv"
  top: "loss1/conv"
}
layer {
  name: "loss1/fc"
  type: "InnerProduct"
  bottom: "loss1/conv"
  top: "loss1/fc"
  param {
    lr_mult: 1
    decay_mult: 1
  }
  param {
    lr_mult: 2
    decay_mult: 0
  }
  inner_product_param {
    num_output: 1024
    weight_filler {
      type: "xavier"
      std: 0.02
    }
    bias_filler {
      type: "constant"
      value: 0.2
    }
  }
}
layer {
  name: "loss1/relu_fc"
  type: "ReLU"
  bottom: "loss1/fc"
  top: "loss1/fc"
}
layer {
  name: "loss1/drop_fc"
  type: "Dropout"
  bottom: "loss1/fc"
  top: "loss1/fc"
  dropout_param {
    dropout_ratio: 0.7
  }
}
layer {
  name: "loss1/classifier_plantvillage"
  type: "InnerProduct"
  bottom: "loss1/fc"
  top: "loss1/classifier_plantvillage"
  param {
    lr_mult: 1
    decay_mult: 1
  }
  param {
    lr_mult: 2
    decay_mult: 0
  }
  inner_product_param {
    num_output: 38
    weight_filler {
      type: "xavier"
      std: 0.0009765625
    }
    bias_filler {
      type: "constant"
      value: 0
    }
  }
}
layer {
  name: "inception_4b/1x1"
  type: "Convolution"
  bottom: "inception_4a/output"
  top: "inception_4b/1x1"
  param {
    lr_mult: 1
    decay_mult: 1
  }
  param {
    lr_mult: 2
    decay_mult: 0
  }
  convolution_param {
    num_output: 160
    kernel_size: 1
    weight_filler {
      type: "xavier"
      std: 0.03
    }
    bias_filler {
      type: "constant"
      value: 0.2
    }
  }
}
layer {
  name: "inception_4b/relu_1x1"
  type: "ReLU"
  bottom: "inception_4b/1x1"
  top: "inception_4b/1x1"
}
layer {
  name: "inception_4b/3x3_reduce"
  type: "Convolution"
  bottom: "inception_4a/output"
  top: "inception_4b/3x3_reduce"
  param {
    lr_mult: 1
    decay_mult: 1
  }
  param {
    lr_mult: 2
    decay_mult: 0
  }
  convolution_param {
    num_output: 112
    kernel_size: 1
    weight_filler {
      type: "xavier"
      std: 0.09
    }
    bias_filler {
      type: "constant"
      value: 0.2
    }
  }
}
layer {
  name: "inception_4b/relu_3x3_reduce"
  type: "ReLU"
  bottom: "inception_4b/3x3_reduce"
  top: "inception_4b/3x3_reduce"
}
layer {
  name: "inception_4b/3x3"
  type: "Convolution"
  bottom: "inception_4b/3x3_reduce"
  top: "inception_4b/3x3"
  param {
    lr_mult: 1
    decay_mult: 1
  }
  param {
    lr_mult: 2
    decay_mult: 0
  }
  convolution_param {
    num_output: 224
    pad: 1
    kernel_size: 3
    weight_filler {
      type: "xavier"
      std: 0.03
    }
    bias_filler {
      type: "constant"
      value: 0.2
    }
  }
}
layer {
  name: "inception_4b/relu_3x3"
  type: "ReLU"
  bottom: "inception_4b/3x3"
  top: "inception_4b/3x3"
}
layer {
  name: "inception_4b/5x5_reduce"
  type: "Convolution"
  bottom: "inception_4a/output"
  top: "inception_4b/5x5_reduce"
  param {
    lr_mult: 1
    decay_mult: 1
  }
  param {
    lr_mult: 2
    decay_mult: 0
  }
  convolution_param {
    num_output: 24
    kernel_size: 1
    weight_filler {
      type: "xavier"
      std: 0.2
    }
    bias_filler {
      type: "constant"
      value: 0.2
    }
  }
}
layer {
  name: "inception_4b/relu_5x5_reduce"
  type: "ReLU"
  bottom: "inception_4b/5x5_reduce"
  top: "inception_4b/5x5_reduce"
}
layer {
  name: "inception_4b/5x5"
  type: "Convolution"
  bottom: "inception_4b/5x5_reduce"
  top: "inception_4b/5x5"
  param {
    lr_mult: 1
    decay_mult: 1
  }
  param {
    lr_mult: 2
    decay_mult: 0
  }
  convolution_param {
    num_output: 64
    pad: 2
    kernel_size: 5
    weight_filler {
      type: "xavier"
      std: 0.03
    }
    bias_filler {
      type: "constant"
      value: 0.2
    }
  }
}
layer {
  name: "inception_4b/relu_5x5"
  type: "ReLU"
  bottom: "inception_4b/5x5"
  top: "inception_4b/5x5"
}
layer {
  name: "inception_4b/pool"
  type: "Pooling"
  bottom: "inception_4a/output"
  top: "inception_4b/pool"
  pooling_param {
    pool: MAX
    kernel_size: 3
    stride: 1
    pad: 1
  }
}
layer {
  name: "inception_4b/pool_proj"
  type: "Convolution"
  bottom: "inception_4b/pool"
  top: "inception_4b/pool_proj"
  param {
    lr_mult: 1
    decay_mult: 1
  }
  param {
    lr_mult: 2
    decay_mult: 0
  }
  convolution_param {
    num_output: 64
    kernel_size: 1
    weight_filler {
      type: "xavier"
      std: 0.1
    }
    bias_filler {
      type: "constant"
      value: 0.2
    }
  }
}
layer {
  name: "inception_4b/relu_pool_proj"
  type: "ReLU"
  bottom: "inception_4b/pool_proj"
  top: "inception_4b/pool_proj"
}
layer {
  name: "inception_4b/output"
  type: "Concat"
  bottom: "inception_4b/1x1"
  bottom: "inception_4b/3x3"
  bottom: "inception_4b/5x5"
  bottom: "inception_4b/pool_proj"
  top: "inception_4b/output"
}
layer {
  name: "inception_4c/1x1"
  type: "Convolution"
  bottom: "inception_4b/output"
  top: "inception_4c/1x1"
  param {
    lr_mult: 1
    decay_mult: 1
  }
  param {
    lr_mult: 2
    decay_mult: 0
  }
  convolution_param {
    num_output: 128
    kernel_size: 1
    weight_filler {
      type: "xavier"
      std: 0.03
    }
    bias_filler {
      type: "constant"
      value: 0.2
    }
  }
}
layer {
  name: "inception_4c/relu_1x1"
  type: "ReLU"
  bottom: "inception_4c/1x1"
  top: "inception_4c/1x1"
}
layer {
  name: "inception_4c/3x3_reduce"
  type: "Convolution"
  bottom: "inception_4b/output"
  top: "inception_4c/3x3_reduce"
  param {
    lr_mult: 1
    decay_mult: 1
  }
  param {
    lr_mult: 2
    decay_mult: 0
  }
  convolution_param {
    num_output: 128
    kernel_size: 1
    weight_filler {
      type: "xavier"
      std: 0.09
    }
    bias_filler {
      type: "constant"
      value: 0.2
    }
  }
}
layer {
  name: "inception_4c/relu_3x3_reduce"
  type: "ReLU"
  bottom: "inception_4c/3x3_reduce"
  top: "inception_4c/3x3_reduce"
}
layer {
  name: "inception_4c/3x3"
  type: "Convolution"
  bottom: "inception_4c/3x3_reduce"
  top: "inception_4c/3x3"
  param {
    lr_mult: 1
    decay_mult: 1
  }
  param {
    lr_mult: 2
    decay_mult: 0
  }
  convolution_param {
    num_output: 256
    pad: 1
    kernel_size: 3
    weight_filler {
      type: "xavier"
      std: 0.03
    }
    bias_filler {
      type: "constant"
      value: 0.2
    }
  }
}
layer {
  name: "inception_4c/relu_3x3"
  type: "ReLU"
  bottom: "inception_4c/3x3"
  top: "inception_4c/3x3"
}
layer {
  name: "inception_4c/5x5_reduce"
  type: "Convolution"
  bottom: "inception_4b/output"
  top: "inception_4c/5x5_reduce"
  param {
    lr_mult: 1
    decay_mult: 1
  }
  param {
    lr_mult: 2
    decay_mult: 0
  }
  convolution_param {
    num_output: 24
    kernel_size: 1
    weight_filler {
      type: "xavier"
      std: 0.2
    }
    bias_filler {
      type: "constant"
      value: 0.2
    }
  }
}
layer {
  name: "inception_4c/relu_5x5_reduce"
  type: "ReLU"
  bottom: "inception_4c/5x5_reduce"
  top: "inception_4c/5x5_reduce"
}
layer {
  name: "inception_4c/5x5"
  type: "Convolution"
  bottom: "inception_4c/5x5_reduce"
  top: "inception_4c/5x5"
  param {
    lr_mult: 1
    decay_mult: 1
  }
  param {
    lr_mult: 2
    decay_mult: 0
  }
  convolution_param {
    num_output: 64
    pad: 2
    kernel_size: 5
    weight_filler {
      type: "xavier"
      std: 0.03
    }
    bias_filler {
      type: "constant"
      value: 0.2
    }
  }
}
layer {
  name: "inception_4c/relu_5x5"
  type: "ReLU"
  bottom: "inception_4c/5x5"
  top: "inception_4c/5x5"
}
layer {
  name: "inception_4c/pool"
  type: "Pooling"
  bottom: "inception_4b/output"
  top: "inception_4c/pool"
  pooling_param {
    pool: MAX
    kernel_size: 3
    stride: 1
    pad: 1
  }
}
layer {
  name: "inception_4c/pool_proj"
  type: "Convolution"
  bottom: "inception_4c/pool"
  top: "inception_4c/pool_proj"
  param {
    lr_mult: 1
    decay_mult: 1
  }
  param {
    lr_mult: 2
    decay_mult: 0
  }
  convolution_param {
    num_output: 64
    kernel_size: 1
    weight_filler {
      type: "xavier"
      std: 0.1
    }
    bias_filler {
      type: "constant"
      value: 0.2
    }
  }
}
layer {
  name: "inception_4c/relu_pool_proj"
  type: "ReLU"
  bottom: "inception_4c/pool_proj"
  top: "inception_4c/pool_proj"
}
layer {
  name: "inception_4c/output"
  type: "Concat"
  bottom: "inception_4c/1x1"
  bottom: "inception_4c/3x3"
  bottom: "inception_4c/5x5"
  bottom: "inception_4c/pool_proj"
  top: "inception_4c/output"
}
layer {
  name: "inception_4d/1x1"
  type: "Convolution"
  bottom: "inception_4c/output"
  top: "inception_4d/1x1"
  param {
    lr_mult: 1
    decay_mult: 1
  }
  param {
    lr_mult: 2
    decay_mult: 0
  }
  convolution_param {
    num_output: 112
    kernel_size: 1
    weight_filler {
      type: "xavier"
      std: 0.03
    }
    bias_filler {
      type: "constant"
      value: 0.2
    }
  }
}
layer {
  name: "inception_4d/relu_1x1"
  type: "ReLU"
  bottom: "inception_4d/1x1"
  top: "inception_4d/1x1"
}
layer {
  name: "inception_4d/3x3_reduce"
  type: "Convolution"
  bottom: "inception_4c/output"
  top: "inception_4d/3x3_reduce"
  param {
    lr_mult: 1
    decay_mult: 1
  }
  param {
    lr_mult: 2
    decay_mult: 0
  }
  convolution_param {
    num_output: 144
    kernel_size: 1
    weight_filler {
      type: "xavier"
      std: 0.09
    }
    bias_filler {
      type: "constant"
      value: 0.2
    }
  }
}
layer {
  name: "inception_4d/relu_3x3_reduce"
  type: "ReLU"
  bottom: "inception_4d/3x3_reduce"
  top: "inception_4d/3x3_reduce"
}
layer {
  name: "inception_4d/3x3"
  type: "Convolution"
  bottom: "inception_4d/3x3_reduce"
  top: "inception_4d/3x3"
  param {
    lr_mult: 1
    decay_mult: 1
  }
  param {
    lr_mult: 2
    decay_mult: 0
  }
  convolution_param {
    num_output: 288
    pad: 1
    kernel_size: 3
    weight_filler {
      type: "xavier"
      std: 0.03
    }
    bias_filler {
      type: "constant"
      value: 0.2
    }
  }
}
layer {
  name: "inception_4d/relu_3x3"
  type: "ReLU"
  bottom: "inception_4d/3x3"
  top: "inception_4d/3x3"
}
layer {
  name: "inception_4d/5x5_reduce"
  type: "Convolution"
  bottom: "inception_4c/output"
  top: "inception_4d/5x5_reduce"
  param {
    lr_mult: 1
    decay_mult: 1
  }
  param {
    lr_mult: 2
    decay_mult: 0
  }
  convolution_param {
    num_output: 32
    kernel_size: 1
    weight_filler {
      type: "xavier"
      std: 0.2
    }
    bias_filler {
      type: "constant"
      value: 0.2
    }
  }
}
layer {
  name: "inception_4d/relu_5x5_reduce"
  type: "ReLU"
  bottom: "inception_4d/5x5_reduce"
  top: "inception_4d/5x5_reduce"
}
layer {
  name: "inception_4d/5x5"
  type: "Convolution"
  bottom: "inception_4d/5x5_reduce"
  top: "inception_4d/5x5"
  param {
    lr_mult: 1
    decay_mult: 1
  }
  param {
    lr_mult: 2
    decay_mult: 0
  }
  convolution_param {
    num_output: 64
    pad: 2
    kernel_size: 5
    weight_filler {
      type: "xavier"
      std: 0.03
    }
    bias_filler {
      type: "constant"
      value: 0.2
    }
  }
}
layer {
  name: "inception_4d/relu_5x5"
  type: "ReLU"
  bottom: "inception_4d/5x5"
  top: "inception_4d/5x5"
}
layer {
  name: "inception_4d/pool"
  type: "Pooling"
  bottom: "inception_4c/output"
  top: "inception_4d/pool"
  pooling_param {
    pool: MAX
    kernel_size: 3
    stride: 1
    pad: 1
  }
}
layer {
  name: "inception_4d/pool_proj"
  type: "Convolution"
  bottom: "inception_4d/pool"
  top: "inception_4d/pool_proj"
  param {
    lr_mult: 1
    decay_mult: 1
  }
  param {
    lr_mult: 2
    decay_mult: 0
  }
  convolution_param {
    num_output: 64
    kernel_size: 1
    weight_filler {
      type: "xavier"
      std: 0.1
    }
    bias_filler {
      type: "constant"
      value: 0.2
    }
  }
}
layer {
  name: "inception_4d/relu_pool_proj"
  type: "ReLU"
  bottom: "inception_4d/pool_proj"
  top: "inception_4d/pool_proj"
}
layer {
  name: "inception_4d/output"
  type: "Concat"
  bottom: "inception_4d/1x1"
  bottom: "inception_4d/3x3"
  bottom: "inception_4d/5x5"
  bottom: "inception_4d/pool_proj"
  top: "inception_4d/output"
}
layer {
  name: "loss2/ave_pool"
  type: "Pooling"
  bottom: "inception_4d/output"
  top: "loss2/ave_pool"
  pooling_param {
    pool: AVE
    kernel_size: 5
    stride: 3
  }
}
layer {
  name: "loss2/conv"
  type: "Convolution"
  bottom: "loss2/ave_pool"
  top: "loss2/conv"
  param {
    lr_mult: 1
    decay_mult: 1
  }
  param {
    lr_mult: 2
    decay_mult: 0
  }
  convolution_param {
    num_output: 128
    kernel_size: 1
    weight_filler {
      type: "xavier"
      std: 0.08
    }
    bias_filler {
      type: "constant"
      value: 0.2
    }
  }
}
layer {
  name: "loss2/relu_conv"
  type: "ReLU"
  bottom: "loss2/conv"
  top: "loss2/conv"
}
layer {
  name: "loss2/fc"
  type: "InnerProduct"
  bottom: "loss2/conv"
  top: "loss2/fc"
  param {
    lr_mult: 1
    decay_mult: 1
  }
  param {
    lr_mult: 2
    decay_mult: 0
  }
  inner_product_param {
    num_output: 1024
    weight_filler {
      type: "xavier"
      std: 0.02
    }
    bias_filler {
      type: "constant"
      value: 0.2
    }
  }
}
layer {
  name: "loss2/relu_fc"
  type: "ReLU"
  bottom: "loss2/fc"
  top: "loss2/fc"
}
layer {
  name: "loss2/drop_fc"
  type: "Dropout"
  bottom: "loss2/fc"
  top: "loss2/fc"
  dropout_param {
    dropout_ratio: 0.7
  }
}
layer {
  name: "loss2/classifier_plantvillage"
  type: "InnerProduct"
  bottom: "loss2/fc"
  top: "loss2/classifier_plantvillage"
  param {
    lr_mult: 1
    decay_mult: 1
  }
  param {
    lr_mult: 2
    decay_mult: 0
  }
  inner_product_param {
    num_output: 38
    weight_filler {
      type: "xavier"
      std: 0.0009765625
    }
    bias_filler {
      type: "constant"
      value: 0
    }
  }
}
layer {
  name: "inception_4e/1x1"
  type: "Convolution"
  bottom: "inception_4d/output"
  top: "inception_4e/1x1"
  param {
    lr_mult: 1
    decay_mult: 1
  }
  param {
    lr_mult: 2
    decay_mult: 0
  }
  convolution_param {
    num_output: 256
    kernel_size: 1
    weight_filler {
      type: "xavier"
      std: 0.03
    }
    bias_filler {
      type: "constant"
      value: 0.2
    }
  }
}
layer {
  name: "inception_4e/relu_1x1"
  type: "ReLU"
  bottom: "inception_4e/1x1"
  top: "inception_4e/1x1"
}
layer {
  name: "inception_4e/3x3_reduce"
  type: "Convolution"
  bottom: "inception_4d/output"
  top: "inception_4e/3x3_reduce"
  param {
    lr_mult: 1
    decay_mult: 1
  }
  param {
    lr_mult: 2
    decay_mult: 0
  }
  convolution_param {
    num_output: 160
    kernel_size: 1
    weight_filler {
      type: "xavier"
      std: 0.09
    }
    bias_filler {
      type: "constant"
      value: 0.2
    }
  }
}
layer {
  name: "inception_4e/relu_3x3_reduce"
  type: "ReLU"
  bottom: "inception_4e/3x3_reduce"
  top: "inception_4e/3x3_reduce"
}
layer {
  name: "inception_4e/3x3"
  type: "Convolution"
  bottom: "inception_4e/3x3_reduce"
  top: "inception_4e/3x3"
  param {
    lr_mult: 1
    decay_mult: 1
  }
  param {
    lr_mult: 2
    decay_mult: 0
  }
  convolution_param {
    num_output: 320
    pad: 1
    kernel_size: 3
    weight_filler {
      type: "xavier"
      std: 0.03
    }
    bias_filler {
      type: "constant"
      value: 0.2
    }
  }
}
layer {
  name: "inception_4e/relu_3x3"
  type: "ReLU"
  bottom: "inception_4e/3x3"
  top: "inception_4e/3x3"
}
layer {
  name: "inception_4e/5x5_reduce"
  type: "Convolution"
  bottom: "inception_4d/output"
  top: "inception_4e/5x5_reduce"
  param {
    lr_mult: 1
    decay_mult: 1
  }
  param {
    lr_mult: 2
    decay_mult: 0
  }
  convolution_param {
    num_output: 32
    kernel_size: 1
    weight_filler {
      type: "xavier"
      std: 0.2
    }
    bias_filler {
      type: "constant"
      value: 0.2
    }
  }
}
layer {
  name: "inception_4e/relu_5x5_reduce"
  type: "ReLU"
  bottom: "inception_4e/5x5_reduce"
  top: "inception_4e/5x5_reduce"
}
layer {
  name: "inception_4e/5x5"
  type: "Convolution"
  bottom: "inception_4e/5x5_reduce"
  top: "inception_4e/
I0403 15:00:09.966366  2403 layer_factory.hpp:77] Creating layer data
I0403 15:00:09.967007  2403 net.cpp:91] Creating Layer data
I0403 15:00:09.967039  2403 net.cpp:399] data -> data
I0403 15:00:09.967092  2403 net.cpp:399] data -> label
I0403 15:00:09.967128  2403 data_transformer.cpp:25] Loading mean file from: /home/mohanty/data/final_dataset/lmdb/grayscale-50-50/mean.binaryproto
I0403 15:00:09.977176  2406 db_lmdb.cpp:38] Opened lmdb /home/mohanty/data/final_dataset/lmdb/grayscale-50-50/test_db
I0403 15:00:09.980546  2403 data_layer.cpp:41] output data size: 24,3,224,224
I0403 15:00:10.008363  2403 net.cpp:141] Setting up data
I0403 15:00:10.008443  2403 net.cpp:148] Top shape: 24 3 224 224 (3612672)
I0403 15:00:10.008469  2403 net.cpp:148] Top shape: 24 (24)
I0403 15:00:10.008486  2403 net.cpp:156] Memory required for data: 14450784
I0403 15:00:10.008514  2403 layer_factory.hpp:77] Creating layer label_data_1_split
I0403 15:00:10.008541  2403 net.cpp:91] Creating Layer label_data_1_split
I0403 15:00:10.008561  2403 net.cpp:425] label_data_1_split <- label
I0403 15:00:10.008594  2403 net.cpp:399] label_data_1_split -> label_data_1_split_0
I0403 15:00:10.008623  2403 net.cpp:399] label_data_1_split -> label_data_1_split_1
I0403 15:00:10.008646  2403 net.cpp:399] label_data_1_split -> label_data_1_split_2
I0403 15:00:10.008671  2403 net.cpp:399] label_data_1_split -> label_data_1_split_3
I0403 15:00:10.008692  2403 net.cpp:399] label_data_1_split -> label_data_1_split_4
I0403 15:00:10.008713  2403 net.cpp:399] label_data_1_split -> label_data_1_split_5
I0403 15:00:10.008733  2403 net.cpp:399] label_data_1_split -> label_data_1_split_6
I0403 15:00:10.008755  2403 net.cpp:399] label_data_1_split -> label_data_1_split_7
I0403 15:00:10.008775  2403 net.cpp:399] label_data_1_split -> label_data_1_split_8
I0403 15:00:10.008798  2403 net.cpp:399] label_data_1_split -> label_data_1_split_9
I0403 15:00:10.008919  2403 net.cpp:141] Setting up label_data_1_split
I0403 15:00:10.008944  2403 net.cpp:148] Top shape: 24 (24)
I0403 15:00:10.008962  2403 net.cpp:148] Top shape: 24 (24)
I0403 15:00:10.008980  2403 net.cpp:148] Top shape: 24 (24)
I0403 15:00:10.008996  2403 net.cpp:148] Top shape: 24 (24)
I0403 15:00:10.009012  2403 net.cpp:148] Top shape: 24 (24)
I0403 15:00:10.009029  2403 net.cpp:148] Top shape: 24 (24)
I0403 15:00:10.009047  2403 net.cpp:148] Top shape: 24 (24)
I0403 15:00:10.009063  2403 net.cpp:148] Top shape: 24 (24)
I0403 15:00:10.009079  2403 net.cpp:148] Top shape: 24 (24)
I0403 15:00:10.009098  2403 net.cpp:148] Top shape: 24 (24)
I0403 15:00:10.009142  2403 net.cpp:156] Memory required for data: 14451744
I0403 15:00:10.009160  2403 layer_factory.hpp:77] Creating layer conv1/7x7_s2
I0403 15:00:10.009194  2403 net.cpp:91] Creating Layer conv1/7x7_s2
I0403 15:00:10.009213  2403 net.cpp:425] conv1/7x7_s2 <- data
I0403 15:00:10.009234  2403 net.cpp:399] conv1/7x7_s2 -> conv1/7x7_s2
I0403 15:00:10.151401  2403 net.cpp:141] Setting up conv1/7x7_s2
I0403 15:00:10.151443  2403 net.cpp:148] Top shape: 24 64 112 112 (19267584)
I0403 15:00:10.151463  2403 net.cpp:156] Memory required for data: 91522080
I0403 15:00:10.151494  2403 layer_factory.hpp:77] Creating layer conv1/relu_7x7
I0403 15:00:10.151521  2403 net.cpp:91] Creating Layer conv1/relu_7x7
I0403 15:00:10.151540  2403 net.cpp:425] conv1/relu_7x7 <- conv1/7x7_s2
I0403 15:00:10.151561  2403 net.cpp:386] conv1/relu_7x7 -> conv1/7x7_s2 (in-place)
I0403 15:00:10.151815  2403 net.cpp:141] Setting up conv1/relu_7x7
I0403 15:00:10.151844  2403 net.cpp:148] Top shape: 24 64 112 112 (19267584)
I0403 15:00:10.151859  2403 net.cpp:156] Memory required for data: 168592416
I0403 15:00:10.151876  2403 layer_factory.hpp:77] Creating layer pool1/3x3_s2
I0403 15:00:10.151901  2403 net.cpp:91] Creating Layer pool1/3x3_s2
I0403 15:00:10.151919  2403 net.cpp:425] pool1/3x3_s2 <- conv1/7x7_s2
I0403 15:00:10.151938  2403 net.cpp:399] pool1/3x3_s2 -> pool1/3x3_s2
I0403 15:00:10.152011  2403 net.cpp:141] Setting up pool1/3x3_s2
I0403 15:00:10.152036  2403 net.cpp:148] Top shape: 24 64 56 56 (4816896)
I0403 15:00:10.152051  2403 net.cpp:156] Memory required for data: 187860000
I0403 15:00:10.152067  2403 layer_factory.hpp:77] Creating layer pool1/norm1
I0403 15:00:10.152092  2403 net.cpp:91] Creating Layer pool1/norm1
I0403 15:00:10.152110  2403 net.cpp:425] pool1/norm1 <- pool1/3x3_s2
I0403 15:00:10.152129  2403 net.cpp:399] pool1/norm1 -> pool1/norm1
I0403 15:00:10.152426  2403 net.cpp:141] Setting up pool1/norm1
I0403 15:00:10.152453  2403 net.cpp:148] Top shape: 24 64 56 56 (4816896)
I0403 15:00:10.152470  2403 net.cpp:156] Memory required for data: 207127584
I0403 15:00:10.152487  2403 layer_factory.hpp:77] Creating layer conv2/3x3_reduce
I0403 15:00:10.152513  2403 net.cpp:91] Creating Layer conv2/3x3_reduce
I0403 15:00:10.152529  2403 net.cpp:425] conv2/3x3_reduce <- pool1/norm1
I0403 15:00:10.152549  2403 net.cpp:399] conv2/3x3_reduce -> conv2/3x3_reduce
I0403 15:00:10.153928  2403 net.cpp:141] Setting up conv2/3x3_reduce
I0403 15:00:10.153957  2403 net.cpp:148] Top shape: 24 64 56 56 (4816896)
I0403 15:00:10.153975  2403 net.cpp:156] Memory required for data: 226395168
I0403 15:00:10.153996  2403 layer_factory.hpp:77] Creating layer conv2/relu_3x3_reduce
I0403 15:00:10.154018  2403 net.cpp:91] Creating Layer conv2/relu_3x3_reduce
I0403 15:00:10.154036  2403 net.cpp:425] conv2/relu_3x3_reduce <- conv2/3x3_reduce
I0403 15:00:10.154054  2403 net.cpp:386] conv2/relu_3x3_reduce -> conv2/3x3_reduce (in-place)
I0403 15:00:10.154330  2403 net.cpp:141] Setting up conv2/relu_3x3_reduce
I0403 15:00:10.154357  2403 net.cpp:148] Top shape: 24 64 56 56 (4816896)
I0403 15:00:10.154374  2403 net.cpp:156] Memory required for data: 245662752
I0403 15:00:10.154391  2403 layer_factory.hpp:77] Creating layer conv2/3x3
I0403 15:00:10.154414  2403 net.cpp:91] Creating Layer conv2/3x3
I0403 15:00:10.154434  2403 net.cpp:425] conv2/3x3 <- conv2/3x3_reduce
I0403 15:00:10.154456  2403 net.cpp:399] conv2/3x3 -> conv2/3x3
I0403 15:00:10.156781  2403 net.cpp:141] Setting up conv2/3x3
I0403 15:00:10.156813  2403 net.cpp:148] Top shape: 24 192 56 56 (14450688)
I0403 15:00:10.156832  2403 net.cpp:156] Memory required for data: 303465504
I0403 15:00:10.156858  2403 layer_factory.hpp:77] Creating layer conv2/relu_3x3
I0403 15:00:10.156885  2403 net.cpp:91] Creating Layer conv2/relu_3x3
I0403 15:00:10.156904  2403 net.cpp:425] conv2/relu_3x3 <- conv2/3x3
I0403 15:00:10.156924  2403 net.cpp:386] conv2/relu_3x3 -> conv2/3x3 (in-place)
I0403 15:00:10.157099  2403 net.cpp:141] Setting up conv2/relu_3x3
I0403 15:00:10.157127  2403 net.cpp:148] Top shape: 24 192 56 56 (14450688)
I0403 15:00:10.157176  2403 net.cpp:156] Memory required for data: 361268256
I0403 15:00:10.157193  2403 layer_factory.hpp:77] Creating layer conv2/norm2
I0403 15:00:10.157212  2403 net.cpp:91] Creating Layer conv2/norm2
I0403 15:00:10.157229  2403 net.cpp:425] conv2/norm2 <- conv2/3x3
I0403 15:00:10.157255  2403 net.cpp:399] conv2/norm2 -> conv2/norm2
I0403 15:00:10.157565  2403 net.cpp:141] Setting up conv2/norm2
I0403 15:00:10.157593  2403 net.cpp:148] Top shape: 24 192 56 56 (14450688)
I0403 15:00:10.157608  2403 net.cpp:156] Memory required for data: 419071008
I0403 15:00:10.157624  2403 layer_factory.hpp:77] Creating layer pool2/3x3_s2
I0403 15:00:10.157642  2403 net.cpp:91] Creating Layer pool2/3x3_s2
I0403 15:00:10.157660  2403 net.cpp:425] pool2/3x3_s2 <- conv2/norm2
I0403 15:00:10.157682  2403 net.cpp:399] pool2/3x3_s2 -> pool2/3x3_s2
I0403 15:00:10.157737  2403 net.cpp:141] Setting up pool2/3x3_s2
I0403 15:00:10.157760  2403 net.cpp:148] Top shape: 24 192 28 28 (3612672)
I0403 15:00:10.157775  2403 net.cpp:156] Memory required for data: 433521696
I0403 15:00:10.157791  2403 layer_factory.hpp:77] Creating layer pool2/3x3_s2_pool2/3x3_s2_0_split
I0403 15:00:10.157814  2403 net.cpp:91] Creating Layer pool2/3x3_s2_pool2/3x3_s2_0_split
I0403 15:00:10.157830  2403 net.cpp:425] pool2/3x3_s2_pool2/3x3_s2_0_split <- pool2/3x3_s2
I0403 15:00:10.157850  2403 net.cpp:399] pool2/3x3_s2_pool2/3x3_s2_0_split -> pool2/3x3_s2_pool2/3x3_s2_0_split_0
I0403 15:00:10.157871  2403 net.cpp:399] pool2/3x3_s2_pool2/3x3_s2_0_split -> pool2/3x3_s2_pool2/3x3_s2_0_split_1
I0403 15:00:10.157891  2403 net.cpp:399] pool2/3x3_s2_pool2/3x3_s2_0_split -> pool2/3x3_s2_pool2/3x3_s2_0_split_2
I0403 15:00:10.157912  2403 net.cpp:399] pool2/3x3_s2_pool2/3x3_s2_0_split -> pool2/3x3_s2_pool2/3x3_s2_0_split_3
I0403 15:00:10.157982  2403 net.cpp:141] Setting up pool2/3x3_s2_pool2/3x3_s2_0_split
I0403 15:00:10.158006  2403 net.cpp:148] Top shape: 24 192 28 28 (3612672)
I0403 15:00:10.158023  2403 net.cpp:148] Top shape: 24 192 28 28 (3612672)
I0403 15:00:10.158041  2403 net.cpp:148] Top shape: 24 192 28 28 (3612672)
I0403 15:00:10.158056  2403 net.cpp:148] Top shape: 24 192 28 28 (3612672)
I0403 15:00:10.158071  2403 net.cpp:156] Memory required for data: 491324448
I0403 15:00:10.158085  2403 layer_factory.hpp:77] Creating layer inception_3a/1x1
I0403 15:00:10.158121  2403 net.cpp:91] Creating Layer inception_3a/1x1
I0403 15:00:10.158139  2403 net.cpp:425] inception_3a/1x1 <- pool2/3x3_s2_pool2/3x3_s2_0_split_0
I0403 15:00:10.158161  2403 net.cpp:399] inception_3a/1x1 -> inception_3a/1x1
I0403 15:00:10.159679  2403 net.cpp:141] Setting up inception_3a/1x1
I0403 15:00:10.159709  2403 net.cpp:148] Top shape: 24 64 28 28 (1204224)
I0403 15:00:10.159726  2403 net.cpp:156] Memory required for data: 496141344
I0403 15:00:10.159746  2403 layer_factory.hpp:77] Creating layer inception_3a/relu_1x1
I0403 15:00:10.159768  2403 net.cpp:91] Creating Layer inception_3a/relu_1x1
I0403 15:00:10.159786  2403 net.cpp:425] inception_3a/relu_1x1 <- inception_3a/1x1
I0403 15:00:10.159804  2403 net.cpp:386] inception_3a/relu_1x1 -> inception_3a/1x1 (in-place)
I0403 15:00:10.159976  2403 net.cpp:141] Setting up inception_3a/relu_1x1
I0403 15:00:10.160001  2403 net.cpp:148] Top shape: 24 64 28 28 (1204224)
I0403 15:00:10.160015  2403 net.cpp:156] Memory required for data: 500958240
I0403 15:00:10.160030  2403 layer_factory.hpp:77] Creating layer inception_3a/3x3_reduce
I0403 15:00:10.160054  2403 net.cpp:91] Creating Layer inception_3a/3x3_reduce
I0403 15:00:10.160071  2403 net.cpp:425] inception_3a/3x3_reduce <- pool2/3x3_s2_pool2/3x3_s2_0_split_1
I0403 15:00:10.160090  2403 net.cpp:399] inception_3a/3x3_reduce -> inception_3a/3x3_reduce
I0403 15:00:10.161767  2403 net.cpp:141] Setting up inception_3a/3x3_reduce
I0403 15:00:10.161798  2403 net.cpp:148] Top shape: 24 96 28 28 (1806336)
I0403 15:00:10.161814  2403 net.cpp:156] Memory required for data: 508183584
I0403 15:00:10.161837  2403 layer_factory.hpp:77] Creating layer inception_3a/relu_3x3_reduce
I0403 15:00:10.161875  2403 net.cpp:91] Creating Layer inception_3a/relu_3x3_reduce
I0403 15:00:10.161895  2403 net.cpp:425] inception_3a/relu_3x3_reduce <- inception_3a/3x3_reduce
I0403 15:00:10.161913  2403 net.cpp:386] inception_3a/relu_3x3_reduce -> inception_3a/3x3_reduce (in-place)
I0403 15:00:10.162093  2403 net.cpp:141] Setting up inception_3a/relu_3x3_reduce
I0403 15:00:10.162120  2403 net.cpp:148] Top shape: 24 96 28 28 (1806336)
I0403 15:00:10.162137  2403 net.cpp:156] Memory required for data: 515408928
I0403 15:00:10.162153  2403 layer_factory.hpp:77] Creating layer inception_3a/3x3
I0403 15:00:10.162174  2403 net.cpp:91] Creating Layer inception_3a/3x3
I0403 15:00:10.162194  2403 net.cpp:425] inception_3a/3x3 <- inception_3a/3x3_reduce
I0403 15:00:10.162216  2403 net.cpp:399] inception_3a/3x3 -> inception_3a/3x3
I0403 15:00:10.163847  2403 net.cpp:141] Setting up inception_3a/3x3
I0403 15:00:10.163877  2403 net.cpp:148] Top shape: 24 128 28 28 (2408448)
I0403 15:00:10.163893  2403 net.cpp:156] Memory required for data: 525042720
I0403 15:00:10.163913  2403 layer_factory.hpp:77] Creating layer inception_3a/relu_3x3
I0403 15:00:10.163933  2403 net.cpp:91] Creating Layer inception_3a/relu_3x3
I0403 15:00:10.163951  2403 net.cpp:425] inception_3a/relu_3x3 <- inception_3a/3x3
I0403 15:00:10.163969  2403 net.cpp:386] inception_3a/relu_3x3 -> inception_3a/3x3 (in-place)
I0403 15:00:10.164245  2403 net.cpp:141] Setting up inception_3a/relu_3x3
I0403 15:00:10.164273  2403 net.cpp:148] Top shape: 24 128 28 28 (2408448)
I0403 15:00:10.164288  2403 net.cpp:156] Memory required for data: 534676512
I0403 15:00:10.164302  2403 layer_factory.hpp:77] Creating layer inception_3a/5x5_reduce
I0403 15:00:10.164325  2403 net.cpp:91] Creating Layer inception_3a/5x5_reduce
I0403 15:00:10.164342  2403 net.cpp:425] inception_3a/5x5_reduce <- pool2/3x3_s2_pool2/3x3_s2_0_split_2
I0403 15:00:10.164364  2403 net.cpp:399] inception_3a/5x5_reduce -> inception_3a/5x5_reduce
I0403 15:00:10.165326  2403 net.cpp:141] Setting up inception_3a/5x5_reduce
I0403 15:00:10.165357  2403 net.cpp:148] Top shape: 24 16 28 28 (301056)
I0403 15:00:10.165374  2403 net.cpp:156] Memory required for data: 535880736
I0403 15:00:10.165395  2403 layer_factory.hpp:77] Creating layer inception_3a/relu_5x5_reduce
I0403 15:00:10.165413  2403 net.cpp:91] Creating Layer inception_3a/relu_5x5_reduce
I0403 15:00:10.165429  2403 net.cpp:425] inception_3a/relu_5x5_reduce <- inception_3a/5x5_reduce
I0403 15:00:10.165447  2403 net.cpp:386] inception_3a/relu_5x5_reduce -> inception_3a/5x5_reduce (in-place)
I0403 15:00:10.165746  2403 net.cpp:141] Setting up inception_3a/relu_5x5_reduce
I0403 15:00:10.165776  2403 net.cpp:148] Top shape: 24 16 28 28 (301056)
I0403 15:00:10.165793  2403 net.cpp:156] Memory required for data: 537084960
I0403 15:00:10.165808  2403 layer_factory.hpp:77] Creating layer inception_3a/5x5
I0403 15:00:10.165832  2403 net.cpp:91] Creating Layer inception_3a/5x5
I0403 15:00:10.165848  2403 net.cpp:425] inception_3a/5x5 <- inception_3a/5x5_reduce
I0403 15:00:10.165868  2403 net.cpp:399] inception_3a/5x5 -> inception_3a/5x5
I0403 15:00:10.166859  2403 net.cpp:141] Setting up inception_3a/5x5
I0403 15:00:10.166888  2403 net.cpp:148] Top shape: 24 32 28 28 (602112)
I0403 15:00:10.166904  2403 net.cpp:156] Memory required for data: 539493408
I0403 15:00:10.166923  2403 layer_factory.hpp:77] Creating layer inception_3a/relu_5x5
I0403 15:00:10.166944  2403 net.cpp:91] Creating Layer inception_3a/relu_5x5
I0403 15:00:10.166963  2403 net.cpp:425] inception_3a/relu_5x5 <- inception_3a/5x5
I0403 15:00:10.166982  2403 net.cpp:386] inception_3a/relu_5x5 -> inception_3a/5x5 (in-place)
I0403 15:00:10.167153  2403 net.cpp:141] Setting up inception_3a/relu_5x5
I0403 15:00:10.167179  2403 net.cpp:148] Top shape: 24 32 28 28 (602112)
I0403 15:00:10.167196  2403 net.cpp:156] Memory required for data: 541901856
I0403 15:00:10.167212  2403 layer_factory.hpp:77] Creating layer inception_3a/pool
I0403 15:00:10.167232  2403 net.cpp:91] Creating Layer inception_3a/pool
I0403 15:00:10.167266  2403 net.cpp:425] inception_3a/pool <- pool2/3x3_s2_pool2/3x3_s2_0_split_3
I0403 15:00:10.167289  2403 net.cpp:399] inception_3a/pool -> inception_3a/pool
I0403 15:00:10.167345  2403 net.cpp:141] Setting up inception_3a/pool
I0403 15:00:10.167367  2403 net.cpp:148] Top shape: 24 192 28 28 (3612672)
I0403 15:00:10.167382  2403 net.cpp:156] Memory required for data: 556352544
I0403 15:00:10.167397  2403 layer_factory.hpp:77] Creating layer inception_3a/pool_proj
I0403 15:00:10.167421  2403 net.cpp:91] Creating Layer inception_3a/pool_proj
I0403 15:00:10.167439  2403 net.cpp:425] inception_3a/pool_proj <- inception_3a/pool
I0403 15:00:10.167460  2403 net.cpp:399] inception_3a/pool_proj -> inception_3a/pool_proj
I0403 15:00:10.168402  2403 net.cpp:141] Setting up inception_3a/pool_proj
I0403 15:00:10.168431  2403 net.cpp:148] Top shape: 24 32 28 28 (602112)
I0403 15:00:10.168447  2403 net.cpp:156] Memory required for data: 558760992
I0403 15:00:10.168473  2403 layer_factory.hpp:77] Creating layer inception_3a/relu_pool_proj
I0403 15:00:10.168494  2403 net.cpp:91] Creating Layer inception_3a/relu_pool_proj
I0403 15:00:10.168510  2403 net.cpp:425] inception_3a/relu_pool_proj <- inception_3a/pool_proj
I0403 15:00:10.168529  2403 net.cpp:386] inception_3a/relu_pool_proj -> inception_3a/pool_proj (in-place)
I0403 15:00:10.168797  2403 net.cpp:141] Setting up inception_3a/relu_pool_proj
I0403 15:00:10.168824  2403 net.cpp:148] Top shape: 24 32 28 28 (602112)
I0403 15:00:10.168841  2403 net.cpp:156] Memory required for data: 561169440
I0403 15:00:10.168858  2403 layer_factory.hpp:77] Creating layer inception_3a/output
I0403 15:00:10.168879  2403 net.cpp:91] Creating Layer inception_3a/output
I0403 15:00:10.168896  2403 net.cpp:425] inception_3a/output <- inception_3a/1x1
I0403 15:00:10.168915  2403 net.cpp:425] inception_3a/output <- inception_3a/3x3
I0403 15:00:10.168931  2403 net.cpp:425] inception_3a/output <- inception_3a/5x5
I0403 15:00:10.168948  2403 net.cpp:425] inception_3a/output <- inception_3a/pool_proj
I0403 15:00:10.168967  2403 net.cpp:399] inception_3a/output -> inception_3a/output
I0403 15:00:10.169013  2403 net.cpp:141] Setting up inception_3a/output
I0403 15:00:10.169037  2403 net.cpp:148] Top shape: 24 256 28 28 (4816896)
I0403 15:00:10.169052  2403 net.cpp:156] Memory required for data: 580437024
I0403 15:00:10.169067  2403 layer_factory.hpp:77] Creating layer inception_3a/output_inception_3a/output_0_split
I0403 15:00:10.169085  2403 net.cpp:91] Creating Layer inception_3a/output_inception_3a/output_0_split
I0403 15:00:10.169100  2403 net.cpp:425] inception_3a/output_inception_3a/output_0_split <- inception_3a/output
I0403 15:00:10.169121  2403 net.cpp:399] inception_3a/output_inception_3a/output_0_split -> inception_3a/output_inception_3a/output_0_split_0
I0403 15:00:10.169140  2403 net.cpp:399] inception_3a/output_inception_3a/output_0_split -> inception_3a/output_inception_3a/output_0_split_1
I0403 15:00:10.169163  2403 net.cpp:399] inception_3a/output_inception_3a/output_0_split -> inception_3a/output_inception_3a/output_0_split_2
I0403 15:00:10.169185  2403 net.cpp:399] inception_3a/output_inception_3a/output_0_split -> inception_3a/output_inception_3a/output_0_split_3
I0403 15:00:10.169265  2403 net.cpp:141] Setting up inception_3a/output_inception_3a/output_0_split
I0403 15:00:10.169288  2403 net.cpp:148] Top shape: 24 256 28 28 (4816896)
I0403 15:00:10.169306  2403 net.cpp:148] Top shape: 24 256 28 28 (4816896)
I0403 15:00:10.169322  2403 net.cpp:148] Top shape: 24 256 28 28 (4816896)
I0403 15:00:10.169337  2403 net.cpp:148] Top shape: 24 256 28 28 (4816896)
I0403 15:00:10.169351  2403 net.cpp:156] Memory required for data: 657507360
I0403 15:00:10.169366  2403 layer_factory.hpp:77] Creating layer inception_3b/1x1
I0403 15:00:10.169389  2403 net.cpp:91] Creating Layer inception_3b/1x1
I0403 15:00:10.169405  2403 net.cpp:425] inception_3b/1x1 <- inception_3a/output_inception_3a/output_0_split_0
I0403 15:00:10.169427  2403 net.cpp:399] inception_3b/1x1 -> inception_3b/1x1
I0403 15:00:10.170534  2403 net.cpp:141] Setting up inception_3b/1x1
I0403 15:00:10.170573  2403 net.cpp:148] Top shape: 24 128 28 28 (2408448)
I0403 15:00:10.170590  2403 net.cpp:156] Memory required for data: 667141152
I0403 15:00:10.170609  2403 layer_factory.hpp:77] Creating layer inception_3b/relu_1x1
I0403 15:00:10.170627  2403 net.cpp:91] Creating Layer inception_3b/relu_1x1
I0403 15:00:10.170644  2403 net.cpp:425] inception_3b/relu_1x1 <- inception_3b/1x1
I0403 15:00:10.170663  2403 net.cpp:386] inception_3b/relu_1x1 -> inception_3b/1x1 (in-place)
I0403 15:00:10.170835  2403 net.cpp:141] Setting up inception_3b/relu_1x1
I0403 15:00:10.170860  2403 net.cpp:148] Top shape: 24 128 28 28 (2408448)
I0403 15:00:10.170873  2403 net.cpp:156] Memory required for data: 676774944
I0403 15:00:10.170888  2403 layer_factory.hpp:77] Creating layer inception_3b/3x3_reduce
I0403 15:00:10.170913  2403 net.cpp:91] Creating Layer inception_3b/3x3_reduce
I0403 15:00:10.170930  2403 net.cpp:425] inception_3b/3x3_reduce <- inception_3a/output_inception_3a/output_0_split_1
I0403 15:00:10.170951  2403 net.cpp:399] inception_3b/3x3_reduce -> inception_3b/3x3_reduce
I0403 15:00:10.172065  2403 net.cpp:141] Setting up inception_3b/3x3_reduce
I0403 15:00:10.172094  2403 net.cpp:148] Top shape: 24 128 28 28 (2408448)
I0403 15:00:10.172111  2403 net.cpp:156] Memory required for data: 686408736
I0403 15:00:10.172130  2403 layer_factory.hpp:77] Creating layer inception_3b/relu_3x3_reduce
I0403 15:00:10.172152  2403 net.cpp:91] Creating Layer inception_3b/relu_3x3_reduce
I0403 15:00:10.172169  2403 net.cpp:425] inception_3b/relu_3x3_reduce <- inception_3b/3x3_reduce
I0403 15:00:10.172188  2403 net.cpp:386] inception_3b/relu_3x3_reduce -> inception_3b/3x3_reduce (in-place)
I0403 15:00:10.172366  2403 net.cpp:141] Setting up inception_3b/relu_3x3_reduce
I0403 15:00:10.172399  2403 net.cpp:148] Top shape: 24 128 28 28 (2408448)
I0403 15:00:10.172415  2403 net.cpp:156] Memory required for data: 696042528
I0403 15:00:10.172430  2403 layer_factory.hpp:77] Creating layer inception_3b/3x3
I0403 15:00:10.172456  2403 net.cpp:91] Creating Layer inception_3b/3x3
I0403 15:00:10.172474  2403 net.cpp:425] inception_3b/3x3 <- inception_3b/3x3_reduce
I0403 15:00:10.172493  2403 net.cpp:399] inception_3b/3x3 -> inception_3b/3x3
I0403 15:00:10.175379  2403 net.cpp:141] Setting up inception_3b/3x3
I0403 15:00:10.175410  2403 net.cpp:148] Top shape: 24 192 28 28 (3612672)
I0403 15:00:10.175426  2403 net.cpp:156] Memory required for data: 710493216
I0403 15:00:10.175446  2403 layer_factory.hpp:77] Creating layer inception_3b/relu_3x3
I0403 15:00:10.175467  2403 net.cpp:91] Creating Layer inception_3b/relu_3x3
I0403 15:00:10.175487  2403 net.cpp:425] inception_3b/relu_3x3 <- inception_3b/3x3
I0403 15:00:10.175504  2403 net.cpp:386] inception_3b/relu_3x3 -> inception_3b/3x3 (in-place)
I0403 15:00:10.175776  2403 net.cpp:141] Setting up inception_3b/relu_3x3
I0403 15:00:10.175803  2403 net.cpp:148] Top shape: 24 192 28 28 (3612672)
I0403 15:00:10.175819  2403 net.cpp:156] Memory required for data: 724943904
I0403 15:00:10.175834  2403 layer_factory.hpp:77] Creating layer inception_3b/5x5_reduce
I0403 15:00:10.175856  2403 net.cpp:91] Creating Layer inception_3b/5x5_reduce
I0403 15:00:10.175874  2403 net.cpp:425] inception_3b/5x5_reduce <- inception_3a/output_inception_3a/output_0_split_2
I0403 15:00:10.175897  2403 net.cpp:399] inception_3b/5x5_reduce -> inception_3b/5x5_reduce
I0403 15:00:10.176903  2403 net.cpp:141] Setting up inception_3b/5x5_reduce
I0403 15:00:10.176929  2403 net.cpp:148] Top shape: 24 32 28 28 (602112)
I0403 15:00:10.176947  2403 net.cpp:156] Memory required for data: 727352352
I0403 15:00:10.176966  2403 layer_factory.hpp:77] Creating layer inception_3b/relu_5x5_reduce
I0403 15:00:10.176987  2403 net.cpp:91] Creating Layer inception_3b/relu_5x5_reduce
I0403 15:00:10.177003  2403 net.cpp:425] inception_3b/relu_5x5_reduce <- inception_3b/5x5_reduce
I0403 15:00:10.177021  2403 net.cpp:386] inception_3b/relu_5x5_reduce -> inception_3b/5x5_reduce (in-place)
I0403 15:00:10.177201  2403 net.cpp:141] Setting up inception_3b/relu_5x5_reduce
I0403 15:00:10.177227  2403 net.cpp:148] Top shape: 24 32 28 28 (602112)
I0403 15:00:10.177247  2403 net.cpp:156] Memory required for data: 729760800
I0403 15:00:10.177263  2403 layer_factory.hpp:77] Creating layer inception_3b/5x5
I0403 15:00:10.177284  2403 net.cpp:91] Creating Layer inception_3b/5x5
I0403 15:00:10.177301  2403 net.cpp:425] inception_3b/5x5 <- inception_3b/5x5_reduce
I0403 15:00:10.177320  2403 net.cpp:399] inception_3b/5x5 -> inception_3b/5x5
I0403 15:00:10.179204  2403 net.cpp:141] Setting up inception_3b/5x5
I0403 15:00:10.179234  2403 net.cpp:148] Top shape: 24 96 28 28 (1806336)
I0403 15:00:10.179255  2403 net.cpp:156] Memory required for data: 736986144
I0403 15:00:10.179273  2403 layer_factory.hpp:77] Creating layer inception_3b/relu_5x5
I0403 15:00:10.179296  2403 net.cpp:91] Creating Layer inception_3b/relu_5x5
I0403 15:00:10.179313  2403 net.cpp:425] inception_3b/relu_5x5 <- inception_3b/5x5
I0403 15:00:10.179332  2403 net.cpp:386] inception_3b/relu_5x5 -> inception_3b/5x5 (in-place)
I0403 15:00:10.179513  2403 net.cpp:141] Setting up inception_3b/relu_5x5
I0403 15:00:10.179538  2403 net.cpp:148] Top shape: 24 96 28 28 (1806336)
I0403 15:00:10.179553  2403 net.cpp:156] Memory required for data: 744211488
I0403 15:00:10.179566  2403 layer_factory.hpp:77] Creating layer inception_3b/pool
I0403 15:00:10.179584  2403 net.cpp:91] Creating Layer inception_3b/pool
I0403 15:00:10.179600  2403 net.cpp:425] inception_3b/pool <- inception_3a/output_inception_3a/output_0_split_3
I0403 15:00:10.179616  2403 net.cpp:399] inception_3b/pool -> inception_3b/pool
I0403 15:00:10.179672  2403 net.cpp:141] Setting up inception_3b/pool
I0403 15:00:10.179694  2403 net.cpp:148] Top shape: 24 256 28 28 (4816896)
I0403 15:00:10.179708  2403 net.cpp:156] Memory required for data: 763479072
I0403 15:00:10.179723  2403 layer_factory.hpp:77] Creating layer inception_3b/pool_proj
I0403 15:00:10.179745  2403 net.cpp:91] Creating Layer inception_3b/pool_proj
I0403 15:00:10.179762  2403 net.cpp:425] inception_3b/pool_proj <- inception_3b/pool
I0403 15:00:10.179781  2403 net.cpp:399] inception_3b/pool_proj -> inception_3b/pool_proj
I0403 15:00:10.180791  2403 net.cpp:141] Setting up inception_3b/pool_proj
I0403 15:00:10.180821  2403 net.cpp:148] Top shape: 24 64 28 28 (1204224)
I0403 15:00:10.180838  2403 net.cpp:156] Memory required for data: 768295968
I0403 15:00:10.180857  2403 layer_factory.hpp:77] Creating layer inception_3b/relu_pool_proj
I0403 15:00:10.180876  2403 net.cpp:91] Creating Layer inception_3b/relu_pool_proj
I0403 15:00:10.180891  2403 net.cpp:425] inception_3b/relu_pool_proj <- inception_3b/pool_proj
I0403 15:00:10.180910  2403 net.cpp:386] inception_3b/relu_pool_proj -> inception_3b/pool_proj (in-place)
I0403 15:00:10.181291  2403 net.cpp:141] Setting up inception_3b/relu_pool_proj
I0403 15:00:10.181321  2403 net.cpp:148] Top shape: 24 64 28 28 (1204224)
I0403 15:00:10.181337  2403 net.cpp:156] Memory required for data: 773112864
I0403 15:00:10.181352  2403 layer_factory.hpp:77] Creating layer inception_3b/output
I0403 15:00:10.181370  2403 net.cpp:91] Creating Layer inception_3b/output
I0403 15:00:10.181385  2403 net.cpp:425] inception_3b/output <- inception_3b/1x1
I0403 15:00:10.181401  2403 net.cpp:425] inception_3b/output <- inception_3b/3x3
I0403 15:00:10.181416  2403 net.cpp:425] inception_3b/output <- inception_3b/5x5
I0403 15:00:10.181432  2403 net.cpp:425] inception_3b/output <- inception_3b/pool_proj
I0403 15:00:10.181448  2403 net.cpp:399] inception_3b/output -> inception_3b/output
I0403 15:00:10.181491  2403 net.cpp:141] Setting up inception_3b/output
I0403 15:00:10.181514  2403 net.cpp:148] Top shape: 24 480 28 28 (9031680)
I0403 15:00:10.181527  2403 net.cpp:156] Memory required for data: 809239584
I0403 15:00:10.181542  2403 layer_factory.hpp:77] Creating layer pool3/3x3_s2
I0403 15:00:10.181562  2403 net.cpp:91] Creating Layer pool3/3x3_s2
I0403 15:00:10.181578  2403 net.cpp:425] pool3/3x3_s2 <- inception_3b/output
I0403 15:00:10.181609  2403 net.cpp:399] pool3/3x3_s2 -> pool3/3x3_s2
I0403 15:00:10.181665  2403 net.cpp:141] Setting up pool3/3x3_s2
I0403 15:00:10.181689  2403 net.cpp:148] Top shape: 24 480 14 14 (2257920)
I0403 15:00:10.181702  2403 net.cpp:156] Memory required for data: 818271264
I0403 15:00:10.181717  2403 layer_factory.hpp:77] Creating layer pool3/3x3_s2_pool3/3x3_s2_0_split
I0403 15:00:10.181733  2403 net.cpp:91] Creating Layer pool3/3x3_s2_pool3/3x3_s2_0_split
I0403 15:00:10.181748  2403 net.cpp:425] pool3/3x3_s2_pool3/3x3_s2_0_split <- pool3/3x3_s2
I0403 15:00:10.181766  2403 net.cpp:399] pool3/3x3_s2_pool3/3x3_s2_0_split -> pool3/3x3_s2_pool3/3x3_s2_0_split_0
I0403 15:00:10.181787  2403 net.cpp:399] pool3/3x3_s2_pool3/3x3_s2_0_split -> pool3/3x3_s2_pool3/3x3_s2_0_split_1
I0403 15:00:10.181805  2403 net.cpp:399] pool3/3x3_s2_pool3/3x3_s2_0_split -> pool3/3x3_s2_pool3/3x3_s2_0_split_2
I0403 15:00:10.181824  2403 net.cpp:399] pool3/3x3_s2_pool3/3x3_s2_0_split -> pool3/3x3_s2_pool3/3x3_s2_0_split_3
I0403 15:00:10.181898  2403 net.cpp:141] Setting up pool3/3x3_s2_pool3/3x3_s2_0_split
I0403 15:00:10.181922  2403 net.cpp:148] Top shape: 24 480 14 14 (2257920)
I0403 15:00:10.181939  2403 net.cpp:148] Top shape: 24 480 14 14 (2257920)
I0403 15:00:10.181954  2403 net.cpp:148] Top shape: 24 480 14 14 (2257920)
I0403 15:00:10.181969  2403 net.cpp:148] Top shape: 24 480 14 14 (2257920)
I0403 15:00:10.181983  2403 net.cpp:156] Memory required for data: 854397984
I0403 15:00:10.181998  2403 layer_factory.hpp:77] Creating layer inception_4a/1x1
I0403 15:00:10.182020  2403 net.cpp:91] Creating Layer inception_4a/1x1
I0403 15:00:10.182036  2403 net.cpp:425] inception_4a/1x1 <- pool3/3x3_s2_pool3/3x3_s2_0_split_0
I0403 15:00:10.182054  2403 net.cpp:399] inception_4a/1x1 -> inception_4a/1x1
I0403 15:00:10.183559  2403 net.cpp:141] Setting up inception_4a/1x1
I0403 15:00:10.183590  2403 net.cpp:148] Top shape: 24 192 14 14 (903168)
I0403 15:00:10.183606  2403 net.cpp:156] Memory required for data: 858010656
I0403 15:00:10.183625  2403 layer_factory.hpp:77] Creating layer inception_4a/relu_1x1
I0403 15:00:10.183643  2403 net.cpp:91] Creating Layer inception_4a/relu_1x1
I0403 15:00:10.183660  2403 net.cpp:425] inception_4a/relu_1x1 <- inception_4a/1x1
I0403 15:00:10.183681  2403 net.cpp:386] inception_4a/relu_1x1 -> inception_4a/1x1 (in-place)
I0403 15:00:10.183847  2403 net.cpp:141] Setting up inception_4a/relu_1x1
I0403 15:00:10.183871  2403 net.cpp:148] Top shape: 24 192 14 14 (903168)
I0403 15:00:10.183887  2403 net.cpp:156] Memory required for data: 861623328
I0403 15:00:10.183902  2403 layer_factory.hpp:77] Creating layer inception_4a/3x3_reduce
I0403 15:00:10.183923  2403 net.cpp:91] Creating Layer inception_4a/3x3_reduce
I0403 15:00:10.183939  2403 net.cpp:425] inception_4a/3x3_reduce <- pool3/3x3_s2_pool3/3x3_s2_0_split_1
I0403 15:00:10.183960  2403 net.cpp:399] inception_4a/3x3_reduce -> inception_4a/3x3_reduce
I0403 15:00:10.185174  2403 net.cpp:141] Setting up inception_4a/3x3_reduce
I0403 15:00:10.185204  2403 net.cpp:148] Top shape: 24 96 14 14 (451584)
I0403 15:00:10.185221  2403 net.cpp:156] Memory required for data: 863429664
I0403 15:00:10.185248  2403 layer_factory.hpp:77] Creating layer inception_4a/relu_3x3_reduce
I0403 15:00:10.185271  2403 net.cpp:91] Creating Layer inception_4a/relu_3x3_reduce
I0403 15:00:10.185288  2403 net.cpp:425] inception_4a/relu_3x3_reduce <- inception_4a/3x3_reduce
I0403 15:00:10.185307  2403 net.cpp:386] inception_4a/relu_3x3_reduce -> inception_4a/3x3_reduce (in-place)
I0403 15:00:10.185477  2403 net.cpp:141] Setting up inception_4a/relu_3x3_reduce
I0403 15:00:10.185502  2403 net.cpp:148] Top shape: 24 96 14 14 (451584)
I0403 15:00:10.185518  2403 net.cpp:156] Memory required for data: 865236000
I0403 15:00:10.185533  2403 layer_factory.hpp:77] Creating layer inception_4a/3x3
I0403 15:00:10.185554  2403 net.cpp:91] Creating Layer inception_4a/3x3
I0403 15:00:10.185572  2403 net.cpp:425] inception_4a/3x3 <- inception_4a/3x3_reduce
I0403 15:00:10.185593  2403 net.cpp:399] inception_4a/3x3 -> inception_4a/3x3
I0403 15:00:10.188143  2403 net.cpp:141] Setting up inception_4a/3x3
I0403 15:00:10.188172  2403 net.cpp:148] Top shape: 24 208 14 14 (978432)
I0403 15:00:10.188191  2403 net.cpp:156] Memory required for data: 869149728
I0403 15:00:10.188210  2403 layer_factory.hpp:77] Creating layer inception_4a/relu_3x3
I0403 15:00:10.188230  2403 net.cpp:91] Creating Layer inception_4a/relu_3x3
I0403 15:00:10.188253  2403 net.cpp:425] inception_4a/relu_3x3 <- inception_4a/3x3
I0403 15:00:10.188272  2403 net.cpp:386] inception_4a/relu_3x3 -> inception_4a/3x3 (in-place)
I0403 15:00:10.188535  2403 net.cpp:141] Setting up inception_4a/relu_3x3
I0403 15:00:10.188560  2403 net.cpp:148] Top shape: 24 208 14 14 (978432)
I0403 15:00:10.188575  2403 net.cpp:156] Memory required for data: 873063456
I0403 15:00:10.188590  2403 layer_factory.hpp:77] Creating layer inception_4a/5x5_reduce
I0403 15:00:10.188612  2403 net.cpp:91] Creating Layer inception_4a/5x5_reduce
I0403 15:00:10.188629  2403 net.cpp:425] inception_4a/5x5_reduce <- pool3/3x3_s2_pool3/3x3_s2_0_split_2
I0403 15:00:10.188649  2403 net.cpp:399] inception_4a/5x5_reduce -> inception_4a/5x5_reduce
I0403 15:00:10.189612  2403 net.cpp:141] Setting up inception_4a/5x5_reduce
I0403 15:00:10.189640  2403 net.cpp:148] Top shape: 24 16 14 14 (75264)
I0403 15:00:10.189656  2403 net.cpp:156] Memory required for data: 873364512
I0403 15:00:10.189676  2403 layer_factory.hpp:77] Creating layer inception_4a/relu_5x5_reduce
I0403 15:00:10.189695  2403 net.cpp:91] Creating Layer inception_4a/relu_5x5_reduce
I0403 15:00:10.189712  2403 net.cpp:425] inception_4a/relu_5x5_reduce <- inception_4a/5x5_reduce
I0403 15:00:10.189729  2403 net.cpp:386] inception_4a/relu_5x5_reduce -> inception_4a/5x5_reduce (in-place)
I0403 15:00:10.189898  2403 net.cpp:141] Setting up inception_4a/relu_5x5_reduce
I0403 15:00:10.189921  2403 net.cpp:148] Top shape: 24 16 14 14 (75264)
I0403 15:00:10.189936  2403 net.cpp:156] Memory required for data: 873665568
I0403 15:00:10.189951  2403 layer_factory.hpp:77] Creating layer inception_4a/5x5
I0403 15:00:10.189975  2403 net.cpp:91] Creating Layer inception_4a/5x5
I0403 15:00:10.189991  2403 net.cpp:425] inception_4a/5x5 <- inception_4a/5x5_reduce
I0403 15:00:10.190011  2403 net.cpp:399] inception_4a/5x5 -> inception_4a/5x5
I0403 15:00:10.191035  2403 net.cpp:141] Setting up inception_4a/5x5
I0403 15:00:10.191066  2403 net.cpp:148] Top shape: 24 48 14 14 (225792)
I0403 15:00:10.191083  2403 net.cpp:156] Memory required for data: 874568736
I0403 15:00:10.191102  2403 layer_factory.hpp:77] Creating layer inception_4a/relu_5x5
I0403 15:00:10.191120  2403 net.cpp:91] Creating Layer inception_4a/relu_5x5
I0403 15:00:10.191138  2403 net.cpp:425] inception_4a/relu_5x5 <- inception_4a/5x5
I0403 15:00:10.191192  2403 net.cpp:386] inception_4a/relu_5x5 -> inception_4a/5x5 (in-place)
I0403 15:00:10.191370  2403 net.cpp:141] Setting up inception_4a/relu_5x5
I0403 15:00:10.191395  2403 net.cpp:148] Top shape: 24 48 14 14 (225792)
I0403 15:00:10.191409  2403 net.cpp:156] Memory required for data: 875471904
I0403 15:00:10.191424  2403 layer_factory.hpp:77] Creating layer inception_4a/pool
I0403 15:00:10.191442  2403 net.cpp:91] Creating Layer inception_4a/pool
I0403 15:00:10.191457  2403 net.cpp:425] inception_4a/pool <- pool3/3x3_s2_pool3/3x3_s2_0_split_3
I0403 15:00:10.191476  2403 net.cpp:399] inception_4a/pool -> inception_4a/pool
I0403 15:00:10.191534  2403 net.cpp:141] Setting up inception_4a/pool
I0403 15:00:10.191560  2403 net.cpp:148] Top shape: 24 480 14 14 (2257920)
I0403 15:00:10.191576  2403 net.cpp:156] Memory required for data: 884503584
I0403 15:00:10.191591  2403 layer_factory.hpp:77] Creating layer inception_4a/pool_proj
I0403 15:00:10.191612  2403 net.cpp:91] Creating Layer inception_4a/pool_proj
I0403 15:00:10.191628  2403 net.cpp:425] inception_4a/pool_proj <- inception_4a/pool
I0403 15:00:10.191648  2403 net.cpp:399] inception_4a/pool_proj -> inception_4a/pool_proj
I0403 15:00:10.192765  2403 net.cpp:141] Setting up inception_4a/pool_proj
I0403 15:00:10.192798  2403 net.cpp:148] Top shape: 24 64 14 14 (301056)
I0403 15:00:10.192828  2403 net.cpp:156] Memory required for data: 885707808
I0403 15:00:10.192849  2403 layer_factory.hpp:77] Creating layer inception_4a/relu_pool_proj
I0403 15:00:10.192867  2403 net.cpp:91] Creating Layer inception_4a/relu_pool_proj
I0403 15:00:10.192883  2403 net.cpp:425] inception_4a/relu_pool_proj <- inception_4a/pool_proj
I0403 15:00:10.192903  2403 net.cpp:386] inception_4a/relu_pool_proj -> inception_4a/pool_proj (in-place)
I0403 15:00:10.193173  2403 net.cpp:141] Setting up inception_4a/relu_pool_proj
I0403 15:00:10.193202  2403 net.cpp:148] Top shape: 24 64 14 14 (301056)
I0403 15:00:10.193218  2403 net.cpp:156] Memory required for data: 886912032
I0403 15:00:10.193233  2403 layer_factory.hpp:77] Creating layer inception_4a/output
I0403 15:00:10.193256  2403 net.cpp:91] Creating Layer inception_4a/output
I0403 15:00:10.193272  2403 net.cpp:425] inception_4a/output <- inception_4a/1x1
I0403 15:00:10.193289  2403 net.cpp:425] inception_4a/output <- inception_4a/3x3
I0403 15:00:10.193306  2403 net.cpp:425] inception_4a/output <- inception_4a/5x5
I0403 15:00:10.193322  2403 net.cpp:425] inception_4a/output <- inception_4a/pool_proj
I0403 15:00:10.193341  2403 net.cpp:399] inception_4a/output -> inception_4a/output
I0403 15:00:10.193385  2403 net.cpp:141] Setting up inception_4a/output
I0403 15:00:10.193409  2403 net.cpp:148] Top shape: 24 512 14 14 (2408448)
I0403 15:00:10.193424  2403 net.cpp:156] Memory required for data: 896545824
I0403 15:00:10.193439  2403 layer_factory.hpp:77] Creating layer inception_4a/output_inception_4a/output_0_split
I0403 15:00:10.193457  2403 net.cpp:91] Creating Layer inception_4a/output_inception_4a/output_0_split
I0403 15:00:10.193473  2403 net.cpp:425] inception_4a/output_inception_4a/output_0_split <- inception_4a/output
I0403 15:00:10.193491  2403 net.cpp:399] inception_4a/output_inception_4a/output_0_split -> inception_4a/output_inception_4a/output_0_split_0
I0403 15:00:10.193511  2403 net.cpp:399] inception_4a/output_inception_4a/output_0_split -> inception_4a/output_inception_4a/output_0_split_1
I0403 15:00:10.193531  2403 net.cpp:399] inception_4a/output_inception_4a/output_0_split -> inception_4a/output_inception_4a/output_0_split_2
I0403 15:00:10.193552  2403 net.cpp:399] inception_4a/output_inception_4a/output_0_split -> inception_4a/output_inception_4a/output_0_split_3
I0403 15:00:10.193572  2403 net.cpp:399] inception_4a/output_inception_4a/output_0_split -> inception_4a/output_inception_4a/output_0_split_4
I0403 15:00:10.193660  2403 net.cpp:141] Setting up inception_4a/output_inception_4a/output_0_split
I0403 15:00:10.193682  2403 net.cpp:148] Top shape: 24 512 14 14 (2408448)
I0403 15:00:10.193698  2403 net.cpp:148] Top shape: 24 512 14 14 (2408448)
I0403 15:00:10.193713  2403 net.cpp:148] Top shape: 24 512 14 14 (2408448)
I0403 15:00:10.193729  2403 net.cpp:148] Top shape: 24 512 14 14 (2408448)
I0403 15:00:10.193745  2403 net.cpp:148] Top shape: 24 512 14 14 (2408448)
I0403 15:00:10.193758  2403 net.cpp:156] Memory required for data: 944714784
I0403 15:00:10.193773  2403 layer_factory.hpp:77] Creating layer loss1/ave_pool
I0403 15:00:10.193792  2403 net.cpp:91] Creating Layer loss1/ave_pool
I0403 15:00:10.193809  2403 net.cpp:425] loss1/ave_pool <- inception_4a/output_inception_4a/output_0_split_0
I0403 15:00:10.193826  2403 net.cpp:399] loss1/ave_pool -> loss1/ave_pool
I0403 15:00:10.194022  2403 net.cpp:141] Setting up loss1/ave_pool
I0403 15:00:10.194047  2403 net.cpp:148] Top shape: 24 512 4 4 (196608)
I0403 15:00:10.194061  2403 net.cpp:156] Memory required for data: 945501216
I0403 15:00:10.194077  2403 layer_factory.hpp:77] Creating layer loss1/conv
I0403 15:00:10.194098  2403 net.cpp:91] Creating Layer loss1/conv
I0403 15:00:10.194115  2403 net.cpp:425] loss1/conv <- loss1/ave_pool
I0403 15:00:10.194135  2403 net.cpp:399] loss1/conv -> loss1/conv
I0403 15:00:10.195492  2403 net.cpp:141] Setting up loss1/conv
I0403 15:00:10.195521  2403 net.cpp:148] Top shape: 24 128 4 4 (49152)
I0403 15:00:10.195550  2403 net.cpp:156] Memory required for data: 945697824
I0403 15:00:10.195569  2403 layer_factory.hpp:77] Creating layer loss1/relu_conv
I0403 15:00:10.195590  2403 net.cpp:91] Creating Layer loss1/relu_conv
I0403 15:00:10.195608  2403 net.cpp:425] loss1/relu_conv <- loss1/conv
I0403 15:00:10.195626  2403 net.cpp:386] loss1/relu_conv -> loss1/conv (in-place)
I0403 15:00:10.195897  2403 net.cpp:141] Setting up loss1/relu_conv
I0403 15:00:10.195924  2403 net.cpp:148] Top shape: 24 128 4 4 (49152)
I0403 15:00:10.195940  2403 net.cpp:156] Memory required for data: 945894432
I0403 15:00:10.195955  2403 layer_factory.hpp:77] Creating layer loss1/fc
I0403 15:00:10.195981  2403 net.cpp:91] Creating Layer loss1/fc
I0403 15:00:10.195997  2403 net.cpp:425] loss1/fc <- loss1/conv
I0403 15:00:10.196017  2403 net.cpp:399] loss1/fc -> loss1/fc
I0403 15:00:10.213593  2403 net.cpp:141] Setting up loss1/fc
I0403 15:00:10.213641  2403 net.cpp:148] Top shape: 24 1024 (24576)
I0403 15:00:10.213660  2403 net.cpp:156] Memory required for data: 945992736
I0403 15:00:10.213678  2403 layer_factory.hpp:77] Creating layer loss1/relu_fc
I0403 15:00:10.213698  2403 net.cpp:91] Creating Layer loss1/relu_fc
I0403 15:00:10.213716  2403 net.cpp:425] loss1/relu_fc <- loss1/fc
I0403 15:00:10.213737  2403 net.cpp:386] loss1/relu_fc -> loss1/fc (in-place)
I0403 15:00:10.213933  2403 net.cpp:141] Setting up loss1/relu_fc
I0403 15:00:10.213960  2403 net.cpp:148] Top shape: 24 1024 (24576)
I0403 15:00:10.213975  2403 net.cpp:156] Memory required for data: 946091040
I0403 15:00:10.213992  2403 layer_factory.hpp:77] Creating layer loss1/drop_fc
I0403 15:00:10.214022  2403 net.cpp:91] Creating Layer loss1/drop_fc
I0403 15:00:10.214041  2403 net.cpp:425] loss1/drop_fc <- loss1/fc
I0403 15:00:10.214061  2403 net.cpp:386] loss1/drop_fc -> loss1/fc (in-place)
I0403 15:00:10.214112  2403 net.cpp:141] Setting up loss1/drop_fc
I0403 15:00:10.214138  2403 net.cpp:148] Top shape: 24 1024 (24576)
I0403 15:00:10.214153  2403 net.cpp:156] Memory required for data: 946189344
I0403 15:00:10.214169  2403 layer_factory.hpp:77] Creating layer loss1/classifier_plantvillage
I0403 15:00:10.214193  2403 net.cpp:91] Creating Layer loss1/classifier_plantvillage
I0403 15:00:10.214210  2403 net.cpp:425] loss1/classifier_plantvillage <- loss1/fc
I0403 15:00:10.214231  2403 net.cpp:399] loss1/classifier_plantvillage -> loss1/classifier_plantvillage
I0403 15:00:10.215145  2403 net.cpp:141] Setting up loss1/classifier_plantvillage
I0403 15:00:10.215173  2403 net.cpp:148] Top shape: 24 38 (912)
I0403 15:00:10.215189  2403 net.cpp:156] Memory required for data: 946192992
I0403 15:00:10.215207  2403 layer_factory.hpp:77] Creating layer loss1/classifier_plantvillage_loss1/classifier_plantvillage_0_split
I0403 15:00:10.215226  2403 net.cpp:91] Creating Layer loss1/classifier_plantvillage_loss1/classifier_plantvillage_0_split
I0403 15:00:10.215247  2403 net.cpp:425] loss1/classifier_plantvillage_loss1/classifier_plantvillage_0_split <- loss1/classifier_plantvillage
I0403 15:00:10.215277  2403 net.cpp:399] loss1/classifier_plantvillage_loss1/classifier_plantvillage_0_split -> loss1/classifier_plantvillage_loss1/classifier_plantvillage_0_split_0
I0403 15:00:10.215299  2403 net.cpp:399] loss1/classifier_plantvillage_loss1/classifier_plantvillage_0_split -> loss1/classifier_plantvillage_loss1/classifier_plantvillage_0_split_1
I0403 15:00:10.215320  2403 net.cpp:399] loss1/classifier_plantvillage_loss1/classifier_plantvillage_0_split -> loss1/classifier_plantvillage_loss1/classifier_plantvillage_0_split_2
I0403 15:00:10.215386  2403 net.cpp:141] Setting up loss1/classifier_plantvillage_loss1/classifier_plantvillage_0_split
I0403 15:00:10.215411  2403 net.cpp:148] Top shape: 24 38 (912)
I0403 15:00:10.215428  2403 net.cpp:148] Top shape: 24 38 (912)
I0403 15:00:10.215445  2403 net.cpp:148] Top shape: 24 38 (912)
I0403 15:00:10.215458  2403 net.cpp:156] Memory required for data: 946203936
I0403 15:00:10.215473  2403 layer_factory.hpp:77] Creating layer inception_4b/1x1
I0403 15:00:10.215495  2403 net.cpp:91] Creating Layer inception_4b/1x1
I0403 15:00:10.215530  2403 net.cpp:425] inception_4b/1x1 <- inception_4a/output_inception_4a/output_0_split_1
I0403 15:00:10.215560  2403 net.cpp:399] inception_4b/1x1 -> inception_4b/1x1
I0403 15:00:10.217209  2403 net.cpp:141] Setting up inception_4b/1x1
I0403 15:00:10.217243  2403 net.cpp:148] Top shape: 24 160 14 14 (752640)
I0403 15:00:10.217274  2403 net.cpp:156] Memory required for data: 949214496
I0403 15:00:10.217295  2403 layer_factory.hpp:77] Creating layer inception_4b/relu_1x1
I0403 15:00:10.217316  2403 net.cpp:91] Creating Layer inception_4b/relu_1x1
I0403 15:00:10.217334  2403 net.cpp:425] inception_4b/relu_1x1 <- inception_4b/1x1
I0403 15:00:10.217352  2403 net.cpp:386] inception_4b/relu_1x1 -> inception_4b/1x1 (in-place)
I0403 15:00:10.217536  2403 net.cpp:141] Setting up inception_4b/relu_1x1
I0403 15:00:10.217562  2403 net.cpp:148] Top shape: 24 160 14 14 (752640)
I0403 15:00:10.217578  2403 net.cpp:156] Memory required for data: 952225056
I0403 15:00:10.217594  2403 layer_factory.hpp:77] Creating layer inception_4b/3x3_reduce
I0403 15:00:10.217619  2403 net.cpp:91] Creating Layer inception_4b/3x3_reduce
I0403 15:00:10.217638  2403 net.cpp:425] inception_4b/3x3_reduce <- inception_4a/output_inception_4a/output_0_split_2
I0403 15:00:10.217658  2403 net.cpp:399] inception_4b/3x3_reduce -> inception_4b/3x3_reduce
I0403 15:00:10.219014  2403 net.cpp:141] Setting up inception_4b/3x3_reduce
I0403 15:00:10.219043  2403 net.cpp:148] Top shape: 24 112 14 14 (526848)
I0403 15:00:10.219059  2403 net.cpp:156] Memory required for data: 954332448
I0403 15:00:10.219079  2403 layer_factory.hpp:77] Creating layer inception_4b/relu_3x3_reduce
I0403 15:00:10.219100  2403 net.cpp:91] Creating Layer inception_4b/relu_3x3_reduce
I0403 15:00:10.219118  2403 net.cpp:425] inception_4b/relu_3x3_reduce <- inception_4b/3x3_reduce
I0403 15:00:10.219137  2403 net.cpp:386] inception_4b/relu_3x3_reduce -> inception_4b/3x3_reduce (in-place)
I0403 15:00:10.219426  2403 net.cpp:141] Setting up inception_4b/relu_3x3_reduce
I0403 15:00:10.219455  2403 net.cpp:148] Top shape: 24 112 14 14 (526848)
I0403 15:00:10.219470  2403 net.cpp:156] Memory required for data: 956439840
I0403 15:00:10.219485  2403 layer_factory.hpp:77] Creating layer inception_4b/3x3
I0403 15:00:10.219508  2403 net.cpp:91] Creating Layer inception_4b/3x3
I0403 15:00:10.219527  2403 net.cpp:425] inception_4b/3x3 <- inception_4b/3x3_reduce
I0403 15:00:10.219552  2403 net.cpp:399] inception_4b/3x3 -> inception_4b/3x3
I0403 15:00:10.222517  2403 net.cpp:141] Setting up inception_4b/3x3
I0403 15:00:10.222548  2403 net.cpp:148] Top shape: 24 224 14 14 (1053696)
I0403 15:00:10.222568  2403 net.cpp:156] Memory required for data: 960654624
I0403 15:00:10.222587  2403 layer_factory.hpp:77] Creating layer inception_4b/relu_3x3
I0403 15:00:10.222606  2403 net.cpp:91] Creating Layer inception_4b/relu_3x3
I0403 15:00:10.222625  2403 net.cpp:425] inception_4b/relu_3x3 <- inception_4b/3x3
I0403 15:00:10.222645  2403 net.cpp:386] inception_4b/relu_3x3 -> inception_4b/3x3 (in-place)
I0403 15:00:10.222827  2403 net.cpp:141] Setting up inception_4b/relu_3x3
I0403 15:00:10.222854  2403 net.cpp:148] Top shape: 24 224 14 14 (1053696)
I0403 15:00:10.222870  2403 net.cpp:156] Memory required for data: 964869408
I0403 15:00:10.222887  2403 layer_factory.hpp:77] Creating layer inception_4b/5x5_reduce
I0403 15:00:10.222908  2403 net.cpp:91] Creating Layer inception_4b/5x5_reduce
I0403 15:00:10.222928  2403 net.cpp:425] inception_4b/5x5_reduce <- inception_4a/output_inception_4a/output_0_split_3
I0403 15:00:10.222950  2403 net.cpp:399] inception_4b/5x5_reduce -> inception_4b/5x5_reduce
I0403 15:00:10.224068  2403 net.cpp:141] Setting up inception_4b/5x5_reduce
I0403 15:00:10.224097  2403 net.cpp:148] Top shape: 24 24 14 14 (112896)
I0403 15:00:10.224114  2403 net.cpp:156] Memory required for data: 965320992
I0403 15:00:10.224133  2403 layer_factory.hpp:77] Creating layer inception_4b/relu_5x5_reduce
I0403 15:00:10.224155  2403 net.cpp:91] Creating Layer inception_4b/relu_5x5_reduce
I0403 15:00:10.224190  2403 net.cpp:425] inception_4b/relu_5x5_reduce <- inception_4b/5x5_reduce
I0403 15:00:10.224210  2403 net.cpp:386] inception_4b/relu_5x5_reduce -> inception_4b/5x5_reduce (in-place)
I0403 15:00:10.224396  2403 net.cpp:141] Setting up inception_4b/relu_5x5_reduce
I0403 15:00:10.224424  2403 net.cpp:148] Top shape: 24 24 14 14 (112896)
I0403 15:00:10.224442  2403 net.cpp:156] Memory required for data: 965772576
I0403 15:00:10.224457  2403 layer_factory.hpp:77] Creating layer inception_4b/5x5
I0403 15:00:10.224479  2403 net.cpp:91] Creating Layer inception_4b/5x5
I0403 15:00:10.224498  2403 net.cpp:425] inception_4b/5x5 <- inception_4b/5x5_reduce
I0403 15:00:10.224519  2403 net.cpp:399] inception_4b/5x5 -> inception_4b/5x5
I0403 15:00:10.225747  2403 net.cpp:141] Setting up inception_4b/5x5
I0403 15:00:10.225775  2403 net.cpp:148] Top shape: 24 64 14 14 (301056)
I0403 15:00:10.225792  2403 net.cpp:156] Memory required for data: 966976800
I0403 15:00:10.225812  2403 layer_factory.hpp:77] Creating layer inception_4b/relu_5x5
I0403 15:00:10.225833  2403 net.cpp:91] Creating Layer inception_4b/relu_5x5
I0403 15:00:10.225852  2403 net.cpp:425] inception_4b/relu_5x5 <- inception_4b/5x5
I0403 15:00:10.225870  2403 net.cpp:386] inception_4b/relu_5x5 -> inception_4b/5x5 (in-place)
I0403 15:00:10.226156  2403 net.cpp:141] Setting up inception_4b/relu_5x5
I0403 15:00:10.226182  2403 net.cpp:148] Top shape: 24 64 14 14 (301056)
I0403 15:00:10.226197  2403 net.cpp:156] Memory required for data: 968181024
I0403 15:00:10.226212  2403 layer_factory.hpp:77] Creating layer inception_4b/pool
I0403 15:00:10.226234  2403 net.cpp:91] Creating Layer inception_4b/pool
I0403 15:00:10.226258  2403 net.cpp:425] inception_4b/pool <- inception_4a/output_inception_4a/output_0_split_4
I0403 15:00:10.226276  2403 net.cpp:399] inception_4b/pool -> inception_4b/pool
I0403 15:00:10.226341  2403 net.cpp:141] Setting up inception_4b/pool
I0403 15:00:10.226364  2403 net.cpp:148] Top shape: 24 512 14 14 (2408448)
I0403 15:00:10.226379  2403 net.cpp:156] Memory required for data: 977814816
I0403 15:00:10.226394  2403 layer_factory.hpp:77] Creating layer inception_4b/pool_proj
I0403 15:00:10.226416  2403 net.cpp:91] Creating Layer inception_4b/pool_proj
I0403 15:00:10.226433  2403 net.cpp:425] inception_4b/pool_proj <- inception_4b/pool
I0403 15:00:10.226454  2403 net.cpp:399] inception_4b/pool_proj -> inception_4b/pool_proj
I0403 15:00:10.227649  2403 net.cpp:141] Setting up inception_4b/pool_proj
I0403 15:00:10.227679  2403 net.cpp:148] Top shape: 24 64 14 14 (301056)
I0403 15:00:10.227695  2403 net.cpp:156] Memory required for data: 979019040
I0403 15:00:10.227715  2403 layer_factory.hpp:77] Creating layer inception_4b/relu_pool_proj
I0403 15:00:10.227736  2403 net.cpp:91] Creating Layer inception_4b/relu_pool_proj
I0403 15:00:10.227754  2403 net.cpp:425] inception_4b/relu_pool_proj <- inception_4b/pool_proj
I0403 15:00:10.227774  2403 net.cpp:386] inception_4b/relu_pool_proj -> inception_4b/pool_proj (in-place)
I0403 15:00:10.227955  2403 net.cpp:141] Setting up inception_4b/relu_pool_proj
I0403 15:00:10.227983  2403 net.cpp:148] Top shape: 24 64 14 14 (301056)
I0403 15:00:10.227999  2403 net.cpp:156] Memory required for data: 980223264
I0403 15:00:10.228016  2403 layer_factory.hpp:77] Creating layer inception_4b/output
I0403 15:00:10.228035  2403 net.cpp:91] Creating Layer inception_4b/output
I0403 15:00:10.228051  2403 net.cpp:425] inception_4b/output <- inception_4b/1x1
I0403 15:00:10.228067  2403 net.cpp:425] inception_4b/output <- inception_4b/3x3
I0403 15:00:10.228085  2403 net.cpp:425] inception_4b/output <- inception_4b/5x5
I0403 15:00:10.228101  2403 net.cpp:425] inception_4b/output <- inception_4b/pool_proj
I0403 15:00:10.228118  2403 net.cpp:399] inception_4b/output -> inception_4b/output
I0403 15:00:10.228165  2403 net.cpp:141] Setting up inception_4b/output
I0403 15:00:10.228191  2403 net.cpp:148] Top shape: 24 512 14 14 (2408448)
I0403 15:00:10.228206  2403 net.cpp:156] Memory required for data: 989857056
I0403 15:00:10.228235  2403 layer_factory.hpp:77] Creating layer inception_4b/output_inception_4b/output_0_split
I0403 15:00:10.228261  2403 net.cpp:91] Creating Layer inception_4b/output_inception_4b/output_0_split
I0403 15:00:10.228278  2403 net.cpp:425] inception_4b/output_inception_4b/output_0_split <- inception_4b/output
I0403 15:00:10.228296  2403 net.cpp:399] inception_4b/output_inception_4b/output_0_split -> inception_4b/output_inception_4b/output_0_split_0
I0403 15:00:10.228317  2403 net.cpp:399] inception_4b/output_inception_4b/output_0_split -> inception_4b/output_inception_4b/output_0_split_1
I0403 15:00:10.228337  2403 net.cpp:399] inception_4b/output_inception_4b/output_0_split -> inception_4b/output_inception_4b/output_0_split_2
I0403 15:00:10.228359  2403 net.cpp:399] inception_4b/output_inception_4b/output_0_split -> inception_4b/output_inception_4b/output_0_split_3
I0403 15:00:10.228442  2403 net.cpp:141] Setting up inception_4b/output_inception_4b/output_0_split
I0403 15:00:10.228466  2403 net.cpp:148] Top shape: 24 512 14 14 (2408448)
I0403 15:00:10.228482  2403 net.cpp:148] Top shape: 24 512 14 14 (2408448)
I0403 15:00:10.228499  2403 net.cpp:148] Top shape: 24 512 14 14 (2408448)
I0403 15:00:10.228515  2403 net.cpp:148] Top shape: 24 512 14 14 (2408448)
I0403 15:00:10.228529  2403 net.cpp:156] Memory required for data: 1028392224
I0403 15:00:10.228544  2403 layer_factory.hpp:77] Creating layer inception_4c/1x1
I0403 15:00:10.228567  2403 net.cpp:91] Creating Layer inception_4c/1x1
I0403 15:00:10.228585  2403 net.cpp:425] inception_4c/1x1 <- inception_4b/output_inception_4b/output_0_split_0
I0403 15:00:10.228606  2403 net.cpp:399] inception_4c/1x1 -> inception_4c/1x1
I0403 15:00:10.230028  2403 net.cpp:141] Setting up inception_4c/1x1
I0403 15:00:10.230060  2403 net.cpp:148] Top shape: 24 128 14 14 (602112)
I0403 15:00:10.230078  2403 net.cpp:156] Memory required for data: 1030800672
I0403 15:00:10.230098  2403 layer_factory.hpp:77] Creating layer inception_4c/relu_1x1
I0403 15:00:10.230115  2403 net.cpp:91] Creating Layer inception_4c/relu_1x1
I0403 15:00:10.230132  2403 net.cpp:425] inception_4c/relu_1x1 <- inception_4c/1x1
I0403 15:00:10.230152  2403 net.cpp:386] inception_4c/relu_1x1 -> inception_4c/1x1 (in-place)
I0403 15:00:10.230340  2403 net.cpp:141] Setting up inception_4c/relu_1x1
I0403 15:00:10.230365  2403 net.cpp:148] Top shape: 24 128 14 14 (602112)
I0403 15:00:10.230381  2403 net.cpp:156] Memory required for data: 1033209120
I0403 15:00:10.230396  2403 layer_factory.hpp:77] Creating layer inception_4c/3x3_reduce
I0403 15:00:10.230418  2403 net.cpp:91] Creating Layer inception_4c/3x3_reduce
I0403 15:00:10.230437  2403 net.cpp:425] inception_4c/3x3_reduce <- inception_4b/output_inception_4b/output_0_split_1
I0403 15:00:10.230458  2403 net.cpp:399] inception_4c/3x3_reduce -> inception_4c/3x3_reduce
I0403 15:00:10.232396  2403 net.cpp:141] Setting up inception_4c/3x3_reduce
I0403 15:00:10.232426  2403 net.cpp:148] Top shape: 24 128 14 14 (602112)
I0403 15:00:10.232445  2403 net.cpp:156] Memory required for data: 1035617568
I0403 15:00:10.232463  2403 layer_factory.hpp:77] Creating layer inception_4c/relu_3x3_reduce
I0403 15:00:10.232486  2403 net.cpp:91] Creating Layer inception_4c/relu_3x3_reduce
I0403 15:00:10.232503  2403 net.cpp:425] inception_4c/relu_3x3_reduce <- inception_4c/3x3_reduce
I0403 15:00:10.232522  2403 net.cpp:386] inception_4c/relu_3x3_reduce -> inception_4c/3x3_reduce (in-place)
I0403 15:00:10.232806  2403 net.cpp:141] Setting up inception_4c/relu_3x3_reduce
I0403 15:00:10.232832  2403 net.cpp:148] Top shape: 24 128 14 14 (602112)
I0403 15:00:10.232847  2403 net.cpp:156] Memory required for data: 1038026016
I0403 15:00:10.232862  2403 layer_factory.hpp:77] Creating layer inception_4c/3x3
I0403 15:00:10.232885  2403 net.cpp:91] Creating Layer inception_4c/3x3
I0403 15:00:10.232903  2403 net.cpp:425] inception_4c/3x3 <- inception_4c/3x3_reduce
I0403 15:00:10.232925  2403 net.cpp:399] inception_4c/3x3 -> inception_4c/3x3
I0403 15:00:10.236543  2403 net.cpp:141] Setting up inception_4c/3x3
I0403 15:00:10.236583  2403 net.cpp:148] Top shape: 24 256 14 14 (1204224)
I0403 15:00:10.236600  2403 net.cpp:156] Memory required for data: 1042842912
I0403 15:00:10.236634  2403 layer_factory.hpp:77] Creating layer inception_4c/relu_3x3
I0403 15:00:10.236660  2403 net.cpp:91] Creating Layer inception_4c/relu_3x3
I0403 15:00:10.236678  2403 net.cpp:425] inception_4c/relu_3x3 <- inception_4c/3x3
I0403 15:00:10.236696  2403 net.cpp:386] inception_4c/relu_3x3 -> inception_4c/3x3 (in-place)
I0403 15:00:10.236882  2403 net.cpp:141] Setting up inception_4c/relu_3x3
I0403 15:00:10.236907  2403 net.cpp:148] Top shape: 24 256 14 14 (1204224)
I0403 15:00:10.236923  2403 net.cpp:156] Memory required for data: 1047659808
I0403 15:00:10.236938  2403 layer_factory.hpp:77] Creating layer inception_4c/5x5_reduce
I0403 15:00:10.236968  2403 net.cpp:91] Creating Layer inception_4c/5x5_reduce
I0403 15:00:10.236994  2403 net.cpp:425] inception_4c/5x5_reduce <- inception_4b/output_inception_4b/output_0_split_2
I0403 15:00:10.237027  2403 net.cpp:399] inception_4c/5x5_reduce -> inception_4c/5x5_reduce
I0403 15:00:10.238121  2403 net.cpp:141] Setting up inception_4c/5x5_reduce
I0403 15:00:10.238150  2403 net.cpp:148] Top shape: 24 24 14 14 (112896)
I0403 15:00:10.238168  2403 net.cpp:156] Memory required for data: 1048111392
I0403 15:00:10.238189  2403 layer_factory.hpp:77] Creating layer inception_4c/relu_5x5_reduce
I0403 15:00:10.238209  2403 net.cpp:91] Creating Layer inception_4c/relu_5x5_reduce
I0403 15:00:10.238227  2403 net.cpp:425] inception_4c/relu_5x5_reduce <- inception_4c/5x5_reduce
I0403 15:00:10.238250  2403 net.cpp:386] inception_4c/relu_5x5_reduce -> inception_4c/5x5_reduce (in-place)
I0403 15:00:10.238435  2403 net.cpp:141] Setting up inception_4c/relu_5x5_reduce
I0403 15:00:10.238463  2403 net.cpp:148] Top shape: 24 24 14 14 (112896)
I0403 15:00:10.238479  2403 net.cpp:156] Memory required for data: 1048562976
I0403 15:00:10.238494  2403 layer_factory.hpp:77] Creating layer inception_4c/5x5
I0403 15:00:10.238517  2403 net.cpp:91] Creating Layer inception_4c/5x5
I0403 15:00:10.238533  2403 net.cpp:425] inception_4c/5x5 <- inception_4c/5x5_reduce
I0403 15:00:10.238553  2403 net.cpp:399] inception_4c/5x5 -> inception_4c/5x5
I0403 15:00:10.239791  2403 net.cpp:141] Setting up inception_4c/5x5
I0403 15:00:10.239821  2403 net.cpp:148] Top shape: 24 64 14 14 (301056)
I0403 15:00:10.239838  2403 net.cpp:156] Memory required for data: 1049767200
I0403 15:00:10.239858  2403 layer_factory.hpp:77] Creating layer inception_4c/relu_5x5
I0403 15:00:10.239877  2403 net.cpp:91] Creating Layer inception_4c/relu_5x5
I0403 15:00:10.239894  2403 net.cpp:425] inception_4c/relu_5x5 <- inception_4c/5x5
I0403 15:00:10.239914  2403 net.cpp:386] inception_4c/relu_5x5 -> inception_4c/5x5 (in-place)
I0403 15:00:10.240206  2403 net.cpp:141] Setting up inception_4c/relu_5x5
I0403 15:00:10.240236  2403 net.cpp:148] Top shape: 24 64 14 14 (301056)
I0403 15:00:10.240257  2403 net.cpp:156] Memory required for data: 1050971424
I0403 15:00:10.240272  2403 layer_factory.hpp:77] Creating layer inception_4c/pool
I0403 15:00:10.240291  2403 net.cpp:91] Creating Layer inception_4c/pool
I0403 15:00:10.240308  2403 net.cpp:425] inception_4c/pool <- inception_4b/output_inception_4b/output_0_split_3
I0403 15:00:10.240329  2403 net.cpp:399] inception_4c/pool -> inception_4c/pool
I0403 15:00:10.240396  2403 net.cpp:141] Setting up inception_4c/pool
I0403 15:00:10.240420  2403 net.cpp:148] Top shape: 24 512 14 14 (2408448)
I0403 15:00:10.240437  2403 net.cpp:156] Memory required for data: 1060605216
I0403 15:00:10.240452  2403 layer_factory.hpp:77] Creating layer inception_4c/pool_proj
I0403 15:00:10.240473  2403 net.cpp:91] Creating Layer inception_4c/pool_proj
I0403 15:00:10.240490  2403 net.cpp:425] inception_4c/pool_proj <- inception_4c/pool
I0403 15:00:10.240512  2403 net.cpp:399] inception_4c/pool_proj -> inception_4c/pool_proj
I0403 15:00:10.241727  2403 net.cpp:141] Setting up inception_4c/pool_proj
I0403 15:00:10.241755  2403 net.cpp:148] Top shape: 24 64 14 14 (301056)
I0403 15:00:10.241783  2403 net.cpp:156] Memory required for data: 1061809440
I0403 15:00:10.241803  2403 layer_factory.hpp:77] Creating layer inception_4c/relu_pool_proj
I0403 15:00:10.241824  2403 net.cpp:91] Creating Layer inception_4c/relu_pool_proj
I0403 15:00:10.241842  2403 net.cpp:425] inception_4c/relu_pool_proj <- inception_4c/pool_proj
I0403 15:00:10.241858  2403 net.cpp:386] inception_4c/relu_pool_proj -> inception_4c/pool_proj (in-place)
I0403 15:00:10.242043  2403 net.cpp:141] Setting up inception_4c/relu_pool_proj
I0403 15:00:10.242069  2403 net.cpp:148] Top shape: 24 64 14 14 (301056)
I0403 15:00:10.242085  2403 net.cpp:156] Memory required for data: 1063013664
I0403 15:00:10.242101  2403 layer_factory.hpp:77] Creating layer inception_4c/output
I0403 15:00:10.242118  2403 net.cpp:91] Creating Layer inception_4c/output
I0403 15:00:10.242135  2403 net.cpp:425] inception_4c/output <- inception_4c/1x1
I0403 15:00:10.242151  2403 net.cpp:425] inception_4c/output <- inception_4c/3x3
I0403 15:00:10.242167  2403 net.cpp:425] inception_4c/output <- inception_4c/5x5
I0403 15:00:10.242184  2403 net.cpp:425] inception_4c/output <- inception_4c/pool_proj
I0403 15:00:10.242202  2403 net.cpp:399] inception_4c/output -> inception_4c/output
I0403 15:00:10.242259  2403 net.cpp:141] Setting up inception_4c/output
I0403 15:00:10.242282  2403 net.cpp:148] Top shape: 24 512 14 14 (2408448)
I0403 15:00:10.242297  2403 net.cpp:156] Memory required for data: 1072647456
I0403 15:00:10.242313  2403 layer_factory.hpp:77] Creating layer inception_4c/output_inception_4c/output_0_split
I0403 15:00:10.242331  2403 net.cpp:91] Creating Layer inception_4c/output_inception_4c/output_0_split
I0403 15:00:10.242347  2403 net.cpp:425] inception_4c/output_inception_4c/output_0_split <- inception_4c/output
I0403 15:00:10.242367  2403 net.cpp:399] inception_4c/output_inception_4c/output_0_split -> inception_4c/output_inception_4c/output_0_split_0
I0403 15:00:10.242388  2403 net.cpp:399] inception_4c/output_inception_4c/output_0_split -> inception_4c/output_inception_4c/output_0_split_1
I0403 15:00:10.242408  2403 net.cpp:399] inception_4c/output_inception_4c/output_0_split -> inception_4c/output_inception_4c/output_0_split_2
I0403 15:00:10.242430  2403 net.cpp:399] inception_4c/output_inception_4c/output_0_split -> inception_4c/output_inception_4c/output_0_split_3
I0403 15:00:10.242517  2403 net.cpp:141] Setting up inception_4c/output_inception_4c/output_0_split
I0403 15:00:10.242542  2403 net.cpp:148] Top shape: 24 512 14 14 (2408448)
I0403 15:00:10.242558  2403 net.cpp:148] Top shape: 24 512 14 14 (2408448)
I0403 15:00:10.242573  2403 net.cpp:148] Top shape: 24 512 14 14 (2408448)
I0403 15:00:10.242588  2403 net.cpp:148] Top shape: 24 512 14 14 (2408448)
I0403 15:00:10.242602  2403 net.cpp:156] Memory required for data: 1111182624
I0403 15:00:10.242617  2403 layer_factory.hpp:77] Creating layer inception_4d/1x1
I0403 15:00:10.242640  2403 net.cpp:91] Creating Layer inception_4d/1x1
I0403 15:00:10.242657  2403 net.cpp:425] inception_4d/1x1 <- inception_4c/output_inception_4c/output_0_split_0
I0403 15:00:10.242678  2403 net.cpp:399] inception_4d/1x1 -> inception_4d/1x1
I0403 15:00:10.244053  2403 net.cpp:141] Setting up inception_4d/1x1
I0403 15:00:10.244082  2403 net.cpp:148] Top shape: 24 112 14 14 (526848)
I0403 15:00:10.244098  2403 net.cpp:156] Memory required for data: 1113290016
I0403 15:00:10.244118  2403 layer_factory.hpp:77] Creating layer inception_4d/relu_1x1
I0403 15:00:10.244138  2403 net.cpp:91] Creating Layer inception_4d/relu_1x1
I0403 15:00:10.244154  2403 net.cpp:425] inception_4d/relu_1x1 <- inception_4d/1x1
I0403 15:00:10.244176  2403 net.cpp:386] inception_4d/relu_1x1 -> inception_4d/1x1 (in-place)
I0403 15:00:10.244365  2403 net.cpp:141] Setting up inception_4d/relu_1x1
I0403 15:00:10.244390  2403 net.cpp:148] Top shape: 24 112 14 14 (526848)
I0403 15:00:10.244405  2403 net.cpp:156] Memory required for data: 1115397408
I0403 15:00:10.244421  2403 layer_factory.hpp:77] Creating layer inception_4d/3x3_reduce
I0403 15:00:10.244457  2403 net.cpp:91] Creating Layer inception_4d/3x3_reduce
I0403 15:00:10.244477  2403 net.cpp:425] inception_4d/3x3_reduce <- inception_4c/output_inception_4c/output_0_split_1
I0403 15:00:10.244498  2403 net.cpp:399] inception_4d/3x3_reduce -> inception_4d/3x3_reduce
I0403 15:00:10.246017  2403 net.cpp:141] Setting up inception_4d/3x3_reduce
I0403 15:00:10.246048  2403 net.cpp:148] Top shape: 24 144 14 14 (677376)
I0403 15:00:10.246065  2403 net.cpp:156] Memory required for data: 1118106912
I0403 15:00:10.246083  2403 layer_factory.hpp:77] Creating layer inception_4d/relu_3x3_reduce
I0403 15:00:10.246103  2403 net.cpp:91] Creating Layer inception_4d/relu_3x3_reduce
I0403 15:00:10.246119  2403 net.cpp:425] inception_4d/relu_3x3_reduce <- inception_4d/3x3_reduce
I0403 15:00:10.246139  2403 net.cpp:386] inception_4d/relu_3x3_reduce -> inception_4d/3x3_reduce (in-place)
I0403 15:00:10.246422  2403 net.cpp:141] Setting up inception_4d/relu_3x3_reduce
I0403 15:00:10.246449  2403 net.cpp:148] Top shape: 24 144 14 14 (677376)
I0403 15:00:10.246464  2403 net.cpp:156] Memory required for data: 1120816416
I0403 15:00:10.246479  2403 layer_factory.hpp:77] Creating layer inception_4d/3x3
I0403 15:00:10.246501  2403 net.cpp:91] Creating Layer inception_4d/3x3
I0403 15:00:10.246518  2403 net.cpp:425] inception_4d/3x3 <- inception_4d/3x3_reduce
I0403 15:00:10.246537  2403 net.cpp:399] inception_4d/3x3 -> inception_4d/3x3
I0403 15:00:10.250746  2403 net.cpp:141] Setting up inception_4d/3x3
I0403 15:00:10.250776  2403 net.cpp:148] Top shape: 24 288 14 14 (1354752)
I0403 15:00:10.250792  2403 net.cpp:156] Memory required for data: 1126235424
I0403 15:00:10.250810  2403 layer_factory.hpp:77] Creating layer inception_4d/relu_3x3
I0403 15:00:10.250829  2403 net.cpp:91] Creating Layer inception_4d/relu_3x3
I0403 15:00:10.250847  2403 net.cpp:425] inception_4d/relu_3x3 <- inception_4d/3x3
I0403 15:00:10.250867  2403 net.cpp:386] inception_4d/relu_3x3 -> inception_4d/3x3 (in-place)
I0403 15:00:10.251044  2403 net.cpp:141] Setting up inception_4d/relu_3x3
I0403 15:00:10.251068  2403 net.cpp:148] Top shape: 24 288 14 14 (1354752)
I0403 15:00:10.251082  2403 net.cpp:156] Memory required for data: 1131654432
I0403 15:00:10.251097  2403 layer_factory.hpp:77] Creating layer inception_4d/5x5_reduce
I0403 15:00:10.251119  2403 net.cpp:91] Creating Layer inception_4d/5x5_reduce
I0403 15:00:10.251137  2403 net.cpp:425] inception_4d/5x5_reduce <- inception_4c/output_inception_4c/output_0_split_2
I0403 15:00:10.251166  2403 net.cpp:399] inception_4d/5x5_reduce -> inception_4d/5x5_reduce
I0403 15:00:10.252298  2403 net.cpp:141] Setting up inception_4d/5x5_reduce
I0403 15:00:10.252327  2403 net.cpp:148] Top shape: 24 32 14 14 (150528)
I0403 15:00:10.252344  2403 net.cpp:156] Memory required for data: 1132256544
I0403 15:00:10.252363  2403 layer_factory.hpp:77] Creating layer inception_4d/relu_5x5_reduce
I0403 15:00:10.252383  2403 net.cpp:91] Creating Layer inception_4d/relu_5x5_reduce
I0403 15:00:10.252400  2403 net.cpp:425] inception_4d/relu_5x5_reduce <- inception_4d/5x5_reduce
I0403 15:00:10.252418  2403 net.cpp:386] inception_4d/relu_5x5_reduce -> inception_4d/5x5_reduce (in-place)
I0403 15:00:10.252601  2403 net.cpp:141] Setting up inception_4d/relu_5x5_reduce
I0403 15:00:10.252625  2403 net.cpp:148] Top shape: 24 32 14 14 (150528)
I0403 15:00:10.252640  2403 net.cpp:156] Memory required for data: 1132858656
I0403 15:00:10.252655  2403 layer_factory.hpp:77] Creating layer inception_4d/5x5
I0403 15:00:10.252677  2403 net.cpp:91] Creating Layer inception_4d/5x5
I0403 15:00:10.252693  2403 net.cpp:425] inception_4d/5x5 <- inception_4d/5x5_reduce
I0403 15:00:10.252714  2403 net.cpp:399] inception_4d/5x5 -> inception_4d/5x5
I0403 15:00:10.254156  2403 net.cpp:141] Setting up inception_4d/5x5
I0403 15:00:10.254185  2403 net.cpp:148] Top shape: 24 64 14 14 (301056)
I0403 15:00:10.254202  2403 net.cpp:156] Memory required for data: 1134062880
I0403 15:00:10.254221  2403 layer_factory.hpp:77] Creating layer inception_4d/relu_5x5
I0403 15:00:10.254259  2403 net.cpp:91] Creating Layer inception_4d/relu_5x5
I0403 15:00:10.254281  2403 net.cpp:425] inception_4d/relu_5x5 <- inception_4d/5x5
I0403 15:00:10.254298  2403 net.cpp:386] inception_4d/relu_5x5 -> inception_4d/5x5 (in-place)
I0403 15:00:10.254592  2403 net.cpp:141] Setting up inception_4d/relu_5x5
I0403 15:00:10.254619  2403 net.cpp:148] Top shape: 24 64 14 14 (301056)
I0403 15:00:10.254634  2403 net.cpp:156] Memory required for data: 1135267104
I0403 15:00:10.254649  2403 layer_factory.hpp:77] Creating layer inception_4d/pool
I0403 15:00:10.254669  2403 net.cpp:91] Creating Layer inception_4d/pool
I0403 15:00:10.254686  2403 net.cpp:425] inception_4d/pool <- inception_4c/output_inception_4c/output_0_split_3
I0403 15:00:10.254704  2403 net.cpp:399] inception_4d/pool -> inception_4d/pool
I0403 15:00:10.254770  2403 net.cpp:141] Setting up inception_4d/pool
I0403 15:00:10.254793  2403 net.cpp:148] Top shape: 24 512 14 14 (2408448)
I0403 15:00:10.254807  2403 net.cpp:156] Memory required for data: 1144900896
I0403 15:00:10.254822  2403 layer_factory.hpp:77] Creating layer inception_4d/pool_proj
I0403 15:00:10.254842  2403 net.cpp:91] Creating Layer inception_4d/pool_proj
I0403 15:00:10.254860  2403 net.cpp:425] inception_4d/pool_proj <- inception_4d/pool
I0403 15:00:10.254880  2403 net.cpp:399] inception_4d/pool_proj -> inception_4d/pool_proj
I0403 15:00:10.256611  2403 net.cpp:141] Setting up inception_4d/pool_proj
I0403 15:00:10.256641  2403 net.cpp:148] Top shape: 24 64 14 14 (301056)
I0403 15:00:10.256657  2403 net.cpp:156] Memory required for data: 1146105120
I0403 15:00:10.256675  2403 layer_factory.hpp:77] Creating layer inception_4d/relu_pool_proj
I0403 15:00:10.256695  2403 net.cpp:91] Creating Layer inception_4d/relu_pool_proj
I0403 15:00:10.256712  2403 net.cpp:425] inception_4d/relu_pool_proj <- inception_4d/pool_proj
I0403 15:00:10.256732  2403 net.cpp:386] inception_4d/relu_pool_proj -> inception_4d/pool_proj (in-place)
I0403 15:00:10.256914  2403 net.cpp:141] Setting up inception_4d/relu_pool_proj
I0403 15:00:10.256940  2403 net.cpp:148] Top shape: 24 64 14 14 (301056)
I0403 15:00:10.256955  2403 net.cpp:156] Memory required for data: 1147309344
I0403 15:00:10.256971  2403 layer_factory.hpp:77] Creating layer inception_4d/output
I0403 15:00:10.256991  2403 net.cpp:91] Creating Layer inception_4d/output
I0403 15:00:10.257009  2403 net.cpp:425] inception_4d/output <- inception_4d/1x1
I0403 15:00:10.257026  2403 net.cpp:425] inception_4d/output <- inception_4d/3x3
I0403 15:00:10.257043  2403 net.cpp:425] inception_4d/output <- inception_4d/5x5
I0403 15:00:10.257060  2403 net.cpp:425] inception_4d/output <- inception_4d/pool_proj
I0403 15:00:10.257076  2403 net.cpp:399] inception_4d/output -> inception_4d/output
I0403 15:00:10.257127  2403 net.cpp:141] Setting up inception_4d/output
I0403 15:00:10.257150  2403 net.cpp:148] Top shape: 24 528 14 14 (2483712)
I0403 15:00:10.257165  2403 net.cpp:156] Memory required for data: 1157244192
I0403 15:00:10.257179  2403 layer_factory.hpp:77] Creating layer inception_4d/output_inception_4d/output_0_split
I0403 15:00:10.257197  2403 net.cpp:91] Creating Layer inception_4d/output_inception_4d/output_0_split
I0403 15:00:10.257213  2403 net.cpp:425] inception_4d/output_inception_4d/output_0_split <- inception_4d/output
I0403 15:00:10.257233  2403 net.cpp:399] inception_4d/output_inception_4d/output_0_split -> inception_4d/output_inception_4d/output_0_split_0
I0403 15:00:10.257259  2403 net.cpp:399] inception_4d/output_inception_4d/output_0_split -> inception_4d/output_inception_4d/output_0_split_1
I0403 15:00:10.257280  2403 net.cpp:399] inception_4d/output_inception_4d/output_0_split -> inception_4d/output_inception_4d/output_0_split_2
I0403 15:00:10.257302  2403 net.cpp:399] inception_4d/output_inception_4d/output_0_split -> inception_4d/output_inception_4d/output_0_split_3
I0403 15:00:10.257320  2403 net.cpp:399] inception_4d/output_inception_4d/output_0_split -> inception_4d/output_inception_4d/output_0_split_4
I0403 15:00:10.257422  2403 net.cpp:141] Setting up inception_4d/output_inception_4d/output_0_split
I0403 15:00:10.257457  2403 net.cpp:148] Top shape: 24 528 14 14 (2483712)
I0403 15:00:10.257474  2403 net.cpp:148] Top shape: 24 528 14 14 (2483712)
I0403 15:00:10.257490  2403 net.cpp:148] Top shape: 24 528 14 14 (2483712)
I0403 15:00:10.257506  2403 net.cpp:148] Top shape: 24 528 14 14 (2483712)
I0403 15:00:10.257521  2403 net.cpp:148] Top shape: 24 528 14 14 (2483712)
I0403 15:00:10.257536  2403 net.cpp:156] Memory required for data: 1206918432
I0403 15:00:10.257550  2403 layer_factory.hpp:77] Creating layer loss2/ave_pool
I0403 15:00:10.257567  2403 net.cpp:91] Creating Layer loss2/ave_pool
I0403 15:00:10.257583  2403 net.cpp:425] loss2/ave_pool <- inception_4d/output_inception_4d/output_0_split_0
I0403 15:00:10.257604  2403 net.cpp:399] loss2/ave_pool -> loss2/ave_pool
I0403 15:00:10.257907  2403 net.cpp:141] Setting up loss2/ave_pool
I0403 15:00:10.257933  2403 net.cpp:148] Top shape: 24 528 4 4 (202752)
I0403 15:00:10.257948  2403 net.cpp:156] Memory required for data: 1207729440
I0403 15:00:10.257963  2403 layer_factory.hpp:77] Creating layer loss2/conv
I0403 15:00:10.257985  2403 net.cpp:91] Creating Layer loss2/conv
I0403 15:00:10.258002  2403 net.cpp:425] loss2/conv <- loss2/ave_pool
I0403 15:00:10.258023  2403 net.cpp:399] loss2/conv -> loss2/conv
I0403 15:00:10.259856  2403 net.cpp:141] Setting up loss2/conv
I0403 15:00:10.259889  2403 net.cpp:148] Top shape: 24 128 4 4 (49152)
I0403 15:00:10.259907  2403 net.cpp:156] Memory required for data: 1207926048
I0403 15:00:10.259925  2403 layer_factory.hpp:77] Creating layer loss2/relu_conv
I0403 15:00:10.259943  2403 net.cpp:91] Creating Layer loss2/relu_conv
I0403 15:00:10.259959  2403 net.cpp:425] loss2/relu_conv <- loss2/conv
I0403 15:00:10.259976  2403 net.cpp:386] loss2/relu_conv -> loss2/conv (in-place)
I0403 15:00:10.260274  2403 net.cpp:141] Setting up loss2/relu_conv
I0403 15:00:10.260303  2403 net.cpp:148] Top shape: 24 128 4 4 (49152)
I0403 15:00:10.260318  2403 net.cpp:156] Memory required for data: 1208122656
I0403 15:00:10.260334  2403 layer_factory.hpp:77] Creating layer loss2/fc
I0403 15:00:10.260354  2403 net.cpp:91] Creating Layer loss2/fc
I0403 15:00:10.260370  2403 net.cpp:425] loss2/fc <- loss2/conv
I0403 15:00:10.260390  2403 net.cpp:399] loss2/fc -> loss2/fc
I0403 15:00:10.277504  2403 net.cpp:141] Setting up loss2/fc
I0403 15:00:10.277536  2403 net.cpp:148] Top shape: 24 1024 (24576)
I0403 15:00:10.277552  2403 net.cpp:156] Memory required for data: 1208220960
I0403 15:00:10.277570  2403 layer_factory.hpp:77] Creating layer loss2/relu_fc
I0403 15:00:10.277591  2403 net.cpp:91] Creating Layer loss2/relu_fc
I0403 15:00:10.277607  2403 net.cpp:425] loss2/relu_fc <- loss2/fc
I0403 15:00:10.277624  2403 net.cpp:386] loss2/relu_fc -> loss2/fc (in-place)
I0403 15:00:10.277911  2403 net.cpp:141] Setting up loss2/relu_fc
I0403 15:00:10.277937  2403 net.cpp:148] Top shape: 24 1024 (24576)
I0403 15:00:10.277952  2403 net.cpp:156] Memory required for data: 1208319264
I0403 15:00:10.277967  2403 layer_factory.hpp:77] Creating layer loss2/drop_fc
I0403 15:00:10.277987  2403 net.cpp:91] Creating Layer loss2/drop_fc
I0403 15:00:10.278003  2403 net.cpp:425] loss2/drop_fc <- loss2/fc
I0403 15:00:10.278022  2403 net.cpp:386] loss2/drop_fc -> loss2/fc (in-place)
I0403 15:00:10.278069  2403 net.cpp:141] Setting up loss2/drop_fc
I0403 15:00:10.278092  2403 net.cpp:148] Top shape: 24 1024 (24576)
I0403 15:00:10.278107  2403 net.cpp:156] Memory required for data: 1208417568
I0403 15:00:10.278122  2403 layer_factory.hpp:77] Creating layer loss2/classifier_plantvillage
I0403 15:00:10.278139  2403 net.cpp:91] Creating Layer loss2/classifier_plantvillage
I0403 15:00:10.278156  2403 net.cpp:425] loss2/classifier_plantvillage <- loss2/fc
I0403 15:00:10.278175  2403 net.cpp:399] loss2/classifier_plantvillage -> loss2/classifier_plantvillage
I0403 15:00:10.278568  2403 net.cpp:141] Setting up loss2/classifier_plantvillage
I0403 15:00:10.278594  2403 net.cpp:148] Top shape: 24 38 (912)
I0403 15:00:10.278626  2403 net.cpp:156] Memory required for data: 1208421216
I0403 15:00:10.278645  2403 layer_factory.hpp:77] Creating layer loss2/classifier_plantvillage_loss2/classifier_plantvillage_0_split
I0403 15:00:10.278662  2403 net.cpp:91] Creating Layer loss2/classifier_plantvillage_loss2/classifier_plantvillage_0_split
I0403 15:00:10.278678  2403 net.cpp:425] loss2/classifier_plantvillage_loss2/classifier_plantvillage_0_split <- loss2/classifier_plantvillage
I0403 15:00:10.278697  2403 net.cpp:399] loss2/classifier_plantvillage_loss2/classifier_plantvillage_0_split -> loss2/classifier_plantvillage_loss2/classifier_plantvillage_0_split_0
I0403 15:00:10.278718  2403 net.cpp:399] loss2/classifier_plantvillage_loss2/classifier_plantvillage_0_split -> loss2/classifier_plantvillage_loss2/classifier_plantvillage_0_split_1
I0403 15:00:10.278738  2403 net.cpp:399] loss2/classifier_plantvillage_loss2/classifier_plantvillage_0_split -> loss2/classifier_plantvillage_loss2/classifier_plantvillage_0_split_2
I0403 15:00:10.278813  2403 net.cpp:141] Setting up loss2/classifier_plantvillage_loss2/classifier_plantvillage_0_split
I0403 15:00:10.278836  2403 net.cpp:148] Top shape: 24 38 (912)
I0403 15:00:10.278852  2403 net.cpp:148] Top shape: 24 38 (912)
I0403 15:00:10.278868  2403 net.cpp:148] Top shape: 24 38 (912)
I0403 15:00:10.278882  2403 net.cpp:156] Memory required for data: 1208432160
I0403 15:00:10.278897  2403 layer_factory.hpp:77] Creating layer inception_4e/1x1
I0403 15:00:10.278918  2403 net.cpp:91] Creating Layer inception_4e/1x1
I0403 15:00:10.278935  2403 net.cpp:425] inception_4e/1x1 <- inception_4d/output_inception_4d/output_0_split_1
I0403 15:00:10.278956  2403 net.cpp:399] inception_4e/1x1 -> inception_4e/1x1
I0403 15:00:10.280712  2403 net.cpp:141] Setting up inception_4e/1x1
I0403 15:00:10.280741  2403 net.cpp:148] Top shape: 24 256 14 14 (1204224)
I0403 15:00:10.280757  2403 net.cpp:156] Memory required for data: 1213249056
I0403 15:00:10.280778  2403 layer_factory.hpp:77] Creating layer inception_4e/relu_1x1
I0403 15:00:10.280798  2403 net.cpp:91] Creating Layer inception_4e/relu_1x1
I0403 15:00:10.280814  2403 net.cpp:425] inception_4e/relu_1x1 <- inception_4e/1x1
I0403 15:00:10.280833  2403 net.cpp:386] inception_4e/relu_1x1 -> inception_4e/1x1 (in-place)
I0403 15:00:10.281122  2403 net.cpp:141] Setting up inception_4e/relu_1x1
I0403 15:00:10.281149  2403 net.cpp:148] Top shape: 24 256 14 14 (1204224)
I0403 15:00:10.281165  2403 net.cpp:156] Memory required for data: 1218065952
I0403 15:00:10.281183  2403 layer_factory.hpp:77] Creating layer inception_4e/3x3_reduce
I0403 15:00:10.281206  2403 net.cpp:91] Creating Layer inception_4e/3x3_reduce
I0403 15:00:10.281226  2403 net.cpp:425] inception_4e/3x3_reduce <- inception_4d/output_inception_4d/output_0_split_2
I0403 15:00:10.281251  2403 net.cpp:399] inception_4e/3x3_reduce -> inception_4e/3x3_reduce
I0403 15:00:10.283314  2403 net.cpp:141] Setting up inception_4e/3x3_reduce
I0403 15:00:10.283344  2403 net.cpp:148] Top shape: 24 160 14 14 (752640)
I0403 15:00:10.283362  2403 net.cpp:156] Memory required for data: 1221076512
I0403 15:00:10.283381  2403 layer_factory.hpp:77] Creating layer inception_4e/relu_3x3_reduce
I0403 15:00:10.283401  2403 net.cpp:91] Creating Layer inception_4e/relu_3x3_reduce
I0403 15:00:10.283421  2403 net.cpp:425] inception_4e/relu_3x3_reduce <- inception_4e/3x3_reduce
I0403 15:00:10.283439  2403 net.cpp:386] inception_4e/relu_3x3_reduce -> inception_4e/3x3_reduce (in-place)
I0403 15:00:10.283623  2403 net.cpp:141] Setting up inception_4e/relu_3x3_reduce
I0403 15:00:10.283651  2403 net.cpp:148] Top shape: 24 160 14 14 (752640)
I0403 15:00:10.283668  2403 net.cpp:156] Memory required for data: 1224087072
I0403 15:00:10.283682  2403 layer_factory.hpp:77] Creating layer inception_4e/3x3
I0403 15:00:10.283705  2403 net.cpp:91] Creating Layer inception_4e/3x3
I0403 15:00:10.283725  2403 net.cpp:425] inception_4e/3x3 <- inception_4e/3x3_reduce
I0403 15:00:10.283745  2403 net.cpp:399] inception_4e/3x3 -> inception_4e/3x3
I0403 15:00:10.288625  2403 net.cpp:141] Setting up inception_4e/3x3
I0403 15:00:10.288667  2403 net.cpp:148] Top shape: 24 320 14 14 (1505280)
I0403 15:00:10.288684  2403 net.cpp:156] Memory required for data: 1230108192
I0403 15:00:10.288704  2403 layer_factory.hpp:77] Creating layer inception_4e/relu_3x3
I0403 15:00:10.288722  2403 net.cpp:91] Creating Layer inception_4e/relu_3x3
I0403 15:00:10.288738  2403 net.cpp:425] inception_4e/relu_3x3 <- inception_4e/3x3
I0403 15:00:10.288758  2403 net.cpp:386] inception_4e/relu_3x3 -> inception_4e/3x3 (in-place)
I0403 15:00:10.289064  2403 net.cpp:141] Setting up inception_4e/relu_3x3
I0403 15:00:10.289091  2403 net.cpp:148] Top shape: 24 320 14 14 (1505280)
I0403 15:00:10.289106  2403 net.cpp:156] Memory required for data: 1236129312
I0403 15:00:10.289122  2403 layer_factory.hpp:77] Creating layer inception_4e/5x5_reduce
I0403 15:00:10.289146  2403 net.cpp:91] Creating Layer inception_4e/5x5_reduce
I0403 15:00:10.289163  2403 net.cpp:425] inception_4e/5x5_reduce <- inception_4d/output_inception_4d/output_0_split_3
I0403 15:00:10.289186  2403 net.cpp:399] inception_4e/5x5_reduce -> inception_4e/5x5_reduce
I0403 15:00:10.290258  2403 net.cpp:141] Setting up inception_4e/5x5_reduce
I0403 15:00:10.290287  2403 net.cpp:148] Top shape: 24 32 14 14 (150528)
I0403 15:00:10.290303  2403 net.cpp:156] Memory required for data: 1236731424
I0403 15:00:10.290323  2403 layer_factory.hpp:77] Creating layer inception_4e/relu_5x5_reduce
I0403 15:00:10.290344  2403 net.cpp:91] Creating Layer inception_4e/relu_5x5_reduce
I0403 15:00:10.290362  2403 net.cpp:425] inception_4e/relu_5x5_reduce <- inception_4e/5x5_reduce
I0403 15:00:10.290380  2403 net.cpp:386] inception_4e/relu_5x5_reduce -> inception_4e/5x5_reduce (in-place)
I0403 15:00:10.290678  2403 net.cpp:141] Setting up inception_4e/relu_5x5_reduce
I0403 15:00:10.290705  2403 net.cpp:148] Top shape: 24 32 14 14 (150528)
I0403 15:00:10.290721  2403 net.cpp:156] Memory required for data: 1237333536
I0403 15:00:10.290737  2403 layer_factory.hpp:77] Creating layer inception_4e/5x5
I0403 15:00:10.290777  2403 net.cpp:91] Creating Layer inception_4e/5x5
I0403 15:00:10.290797  2403 net.cpp:425] inception_4e/5x5 <- inception_4e/5x5_reduce
I0403 15:00:10.290817  2403 net.cpp:399] inception_4e/5x5 -> inception_4e/5x5
I0403 15:00:10.292670  2403 net.cpp:141] Setting up inception_4e/5x5
I0403 15:00:10.292698  2403 net.cpp:148] Top shape: 24 128 14 14 (602112)
I0403 15:00:10.292716  2403 net.cpp:156] Memory required for data: 1239741984
I0403 15:00:10.292737  2403 layer_factory.hpp:77] Creating layer inception_4e/relu_5x5
I0403 15:00:10.292758  2403 net.cpp:91] Creating Layer inception_4e/relu_5x5
I0403 15:00:10.292778  2403 net.cpp:425] inception_4e/relu_5x5 <- inception_4e/5x5
I0403 15:00:10.292796  2403 net.cpp:386] inception_4e/relu_5x5 -> inception_4e/5x5 (in-place)
I0403 15:00:10.292994  2403 net.cpp:141] Setting up inception_4e/relu_5x5
I0403 15:00:10.293021  2403 net.cpp:148] Top shape: 24 128 14 14 (602112)
I0403 15:00:10.293037  2403 net.cpp:156] Memory required for data: 1242150432
I0403 15:00:10.293052  2403 layer_factory.hpp:77] Creating layer inception_4e/pool
I0403 15:00:10.293071  2403 net.cpp:91] Creating Layer inception_4e/pool
I0403 15:00:10.293087  2403 net.cpp:425] inception_4e/pool <- inception_4d/output_inception_4d/output_0_split_4
I0403 15:00:10.293105  2403 net.cpp:399] inception_4e/pool -> inception_4e/pool
I0403 15:00:10.293176  2403 net.cpp:141] Setting up inception_4e/pool
I0403 15:00:10.293201  2403 net.cpp:148] Top shape: 24 528 14 14 (2483712)
I0403 15:00:10.293216  2403 net.cpp:156] Memory required for data: 1252085280
I0403 15:00:10.293231  2403 layer_factory.hpp:77] Creating layer inception_4e/pool_proj
I0403 15:00:10.293267  2403 net.cpp:91] Creating Layer inception_4e/pool_proj
I0403 15:00:10.293285  2403 net.cpp:425] inception_4e/pool_proj <- inception_4e/pool
I0403 15:00:10.293308  2403 net.cpp:399] inception_4e/pool_proj -> inception_4e/pool_proj
I0403 15:00:10.294811  2403 net.cpp:141] Setting up inception_4e/pool_proj
I0403 15:00:10.294852  2403 net.cpp:148] Top shape: 24 128 14 14 (602112)
I0403 15:00:10.294870  2403 net.cpp:156] Memory required for data: 1254493728
I0403 15:00:10.294890  2403 layer_factory.hpp:77] Creating layer inception_4e/relu_pool_proj
I0403 15:00:10.294909  2403 net.cpp:91] Creating Layer inception_4e/relu_pool_proj
I0403 15:00:10.294927  2403 net.cpp:425] inception_4e/relu_pool_proj <- inception_4e/pool_proj
I0403 15:00:10.294950  2403 net.cpp:386] inception_4e/relu_pool_proj -> inception_4e/pool_proj (in-place)
I0403 15:00:10.295246  2403 net.cpp:141] Setting up inception_4e/relu_pool_proj
I0403 15:00:10.295275  2403 net.cpp:148] Top shape: 24 128 14 14 (602112)
I0403 15:00:10.295290  2403 net.cpp:156] Memory required for data: 1256902176
I0403 15:00:10.295306  2403 layer_factory.hpp:77] Creating layer inception_4e/output
I0403 15:00:10.295325  2403 net.cpp:91] Creating Layer inception_4e/output
I0403 15:00:10.295341  2403 net.cpp:425] inception_4e/output <- inception_4e/1x1
I0403 15:00:10.295359  2403 net.cpp:425] inception_4e/output <- inception_4e/3x3
I0403 15:00:10.295377  2403 net.cpp:425] inception_4e/output <- inception_4e/5x5
I0403 15:00:10.295394  2403 net.cpp:425] inception_4e/output <- inception_4e/pool_proj
I0403 15:00:10.295414  2403 net.cpp:399] inception_4e/output -> inception_4e/output
I0403 15:00:10.295465  2403 net.cpp:141] Setting up inception_4e/output
I0403 15:00:10.295493  2403 net.cpp:148] Top shape: 24 832 14 14 (3913728)
I0403 15:00:10.295511  2403 net.cpp:156] Memory required for data: 1272557088
I0403 15:00:10.295527  2403 layer_factory.hpp:77] Creating layer pool4/3x3_s2
I0403 15:00:10.295544  2403 net.cpp:91] Creating Layer pool4/3x3_s2
I0403 15:00:10.295562  2403 net.cpp:425] pool4/3x3_s2 <- inception_4e/output
I0403 15:00:10.295581  2403 net.cpp:399] pool4/3x3_s2 -> pool4/3x3_s2
I0403 15:00:10.295650  2403 net.cpp:141] Setting up pool4/3x3_s2
I0403 15:00:10.295673  2403 net.cpp:148] Top shape: 24 832 7 7 (978432)
I0403 15:00:10.295688  2403 net.cpp:156] Memory required for data: 1276470816
I0403 15:00:10.295703  2403 layer_factory.hpp:77] Creating layer pool4/3x3_s2_pool4/3x3_s2_0_split
I0403 15:00:10.295723  2403 net.cpp:91] Creating Layer pool4/3x3_s2_pool4/3x3_s2_0_split
I0403 15:00:10.295739  2403 net.cpp:425] pool4/3x3_s2_pool4/3x3_s2_0_split <- pool4/3x3_s2
I0403 15:00:10.295758  2403 net.cpp:399] pool4/3x3_s2_pool4/3x3_s2_0_split -> pool4/3x3_s2_pool4/3x3_s2_0_split_0
I0403 15:00:10.295778  2403 net.cpp:399] pool4/3x3_s2_pool4/3x3_s2_0_split -> pool4/3x3_s2_pool4/3x3_s2_0_split_1
I0403 15:00:10.295800  2403 net.cpp:399] pool4/3x3_s2_pool4/3x3_s2_0_split -> pool4/3x3_s2_pool4/3x3_s2_0_split_2
I0403 15:00:10.295821  2403 net.cpp:399] pool4/3x3_s2_pool4/3x3_s2_0_split -> pool4/3x3_s2_pool4/3x3_s2_0_split_3
I0403 15:00:10.295912  2403 net.cpp:141] Setting up pool4/3x3_s2_pool4/3x3_s2_0_split
I0403 15:00:10.295935  2403 net.cpp:148] Top shape: 24 832 7 7 (978432)
I0403 15:00:10.295953  2403 net.cpp:148] Top shape: 24 832 7 7 (978432)
I0403 15:00:10.295967  2403 net.cpp:148] Top shape: 24 832 7 7 (978432)
I0403 15:00:10.295984  2403 net.cpp:148] Top shape: 24 832 7 7 (978432)
I0403 15:00:10.295997  2403 net.cpp:156] Memory required for data: 1292125728
I0403 15:00:10.296012  2403 layer_factory.hpp:77] Creating layer inception_5a/1x1
I0403 15:00:10.296036  2403 net.cpp:91] Creating Layer inception_5a/1x1
I0403 15:00:10.296052  2403 net.cpp:425] inception_5a/1x1 <- pool4/3x3_s2_pool4/3x3_s2_0_split_0
I0403 15:00:10.296073  2403 net.cpp:399] inception_5a/1x1 -> inception_5a/1x1
I0403 15:00:10.298971  2403 net.cpp:141] Setting up inception_5a/1x1
I0403 15:00:10.299002  2403 net.cpp:148] Top shape: 24 256 7 7 (301056)
I0403 15:00:10.299018  2403 net.cpp:156] Memory required for data: 1293329952
I0403 15:00:10.299037  2403 layer_factory.hpp:77] Creating layer inception_5a/relu_1x1
I0403 15:00:10.299058  2403 net.cpp:91] Creating Layer inception_5a/relu_1x1
I0403 15:00:10.299077  2403 net.cpp:425] inception_5a/relu_1x1 <- inception_5a/1x1
I0403 15:00:10.299096  2403 net.cpp:386] inception_5a/relu_1x1 -> inception_5a/1x1 (in-place)
I0403 15:00:10.299419  2403 net.cpp:141] Setting up inception_5a/relu_1x1
I0403 15:00:10.299448  2403 net.cpp:148] Top shape: 24 256 7 7 (301056)
I0403 15:00:10.299463  2403 net.cpp:156] Memory required for data: 1294534176
I0403 15:00:10.299479  2403 layer_factory.hpp:77] Creating layer inception_5a/3x3_reduce
I0403 15:00:10.299502  2403 net.cpp:91] Creating Layer inception_5a/3x3_reduce
I0403 15:00:10.299520  2403 net.cpp:425] inception_5a/3x3_reduce <- pool4/3x3_s2_pool4/3x3_s2_0_split_1
I0403 15:00:10.299542  2403 net.cpp:399] inception_5a/3x3_reduce -> inception_5a/3x3_reduce
I0403 15:00:10.302016  2403 net.cpp:141] Setting up inception_5a/3x3_reduce
I0403 15:00:10.302047  2403 net.cpp:148] Top shape: 24 160 7 7 (188160)
I0403 15:00:10.302064  2403 net.cpp:156] Memory required for data: 1295286816
I0403 15:00:10.302083  2403 layer_factory.hpp:77] Creating layer inception_5a/relu_3x3_reduce
I0403 15:00:10.302101  2403 net.cpp:91] Creating Layer inception_5a/relu_3x3_reduce
I0403 15:00:10.302119  2403 net.cpp:425] inception_5a/relu_3x3_reduce <- inception_5a/3x3_reduce
I0403 15:00:10.302139  2403 net.cpp:386] inception_5a/relu_3x3_reduce -> inception_5a/3x3_reduce (in-place)
I0403 15:00:10.302343  2403 net.cpp:141] Setting up inception_5a/relu_3x3_reduce
I0403 15:00:10.302369  2403 net.cpp:148] Top shape: 24 160 7 7 (188160)
I0403 15:00:10.302386  2403 net.cpp:156] Memory required for data: 1296039456
I0403 15:00:10.302400  2403 layer_factory.hpp:77] Creating layer inception_5a/3x3
I0403 15:00:10.302423  2403 net.cpp:91] Creating Layer inception_5a/3x3
I0403 15:00:10.302441  2403 net.cpp:425] inception_5a/3x3 <- inception_5a/3x3_reduce
I0403 15:00:10.302464  2403 net.cpp:399] inception_5a/3x3 -> inception_5a/3x3
I0403 15:00:10.307509  2403 net.cpp:141] Setting up inception_5a/3x3
I0403 15:00:10.307540  2403 net.cpp:148] Top shape: 24 320 7 7 (376320)
I0403 15:00:10.307557  2403 net.cpp:156] Memory required for data: 1297544736
I0403 15:00:10.307577  2403 layer_factory.hpp:77] Creating layer inception_5a/relu_3x3
I0403 15:00:10.307600  2403 net.cpp:91] Creating Layer inception_5a/relu_3x3
I0403 15:00:10.307621  2403 net.cpp:425] inception_5a/relu_3x3 <- inception_5a/3x3
I0403 15:00:10.307638  2403 net.cpp:386] inception_5a/relu_3x3 -> inception_5a/3x3 (in-place)
I0403 15:00:10.307934  2403 net.cpp:141] Setting up inception_5a/relu_3x3
I0403 15:00:10.307960  2403 net.cpp:148] Top shape: 24 320 7 7 (376320)
I0403 15:00:10.307974  2403 net.cpp:156] Memory required for data: 1299050016
I0403 15:00:10.307989  2403 layer_factory.hpp:77] Creating layer inception_5a/5x5_reduce
I0403 15:00:10.308012  2403 net.cpp:91] Creating Layer inception_5a/5x5_reduce
I0403 15:00:10.308030  2403 net.cpp:425] inception_5a/5x5_reduce <- pool4/3x3_s2_pool4/3x3_s2_0_split_2
I0403 15:00:10.308053  2403 net.cpp:399] inception_5a/5x5_reduce -> inception_5a/5x5_reduce
I0403 15:00:10.309226  2403 net.cpp:141] Setting up inception_5a/5x5_reduce
I0403 15:00:10.309262  2403 net.cpp:148] Top shape: 24 32 7 7 (37632)
I0403 15:00:10.309279  2403 net.cpp:156] Memory required for data: 1299200544
I0403 15:00:10.309299  2403 layer_factory.hpp:77] Creating layer inception_5a/relu_5x5_reduce
I0403 15:00:10.309319  2403 net.cpp:91] Creating Layer inception_5a/relu_5x5_reduce
I0403 15:00:10.309336  2403 net.cpp:425] inception_5a/relu_5x5_reduce <- inception_5a/5x5_reduce
I0403 15:00:10.309353  2403 net.cpp:386] inception_5a/relu_5x5_reduce -> inception_5a/5x5_reduce (in-place)
I0403 15:00:10.309651  2403 net.cpp:141] Setting up inception_5a/relu_5x5_reduce
I0403 15:00:10.309681  2403 net.cpp:148] Top shape: 24 32 7 7 (37632)
I0403 15:00:10.309697  2403 net.cpp:156] Memory required for data: 1299351072
I0403 15:00:10.309713  2403 layer_factory.hpp:77] Creating layer inception_5a/5x5
I0403 15:00:10.309734  2403 net.cpp:91] Creating Layer inception_5a/5x5
I0403 15:00:10.309752  2403 net.cpp:425] inception_5a/5x5 <- inception_5a/5x5_reduce
I0403 15:00:10.309773  2403 net.cpp:399] inception_5a/5x5 -> inception_5a/5x5
I0403 15:00:10.311506  2403 net.cpp:141] Setting up inception_5a/5x5
I0403 15:00:10.311547  2403 net.cpp:148] Top shape: 24 128 7 7 (150528)
I0403 15:00:10.311563  2403 net.cpp:156] Memory required for data: 1299953184
I0403 15:00:10.311583  2403 layer_factory.hpp:77] Creating layer inception_5a/relu_5x5
I0403 15:00:10.311604  2403 net.cpp:91] Creating Layer inception_5a/relu_5x5
I0403 15:00:10.311620  2403 net.cpp:425] inception_5a/relu_5x5 <- inception_5a/5x5
I0403 15:00:10.311638  2403 net.cpp:386] inception_5a/relu_5x5 -> inception_5a/5x5 (in-place)
I0403 15:00:10.311831  2403 net.cpp:141] Setting up inception_5a/relu_5x5
I0403 15:00:10.311858  2403 net.cpp:148] Top shape: 24 128 7 7 (150528)
I0403 15:00:10.311874  2403 net.cpp:156] Memory required for data: 1300555296
I0403 15:00:10.311890  2403 layer_factory.hpp:77] Creating layer inception_5a/pool
I0403 15:00:10.311908  2403 net.cpp:91] Creating Layer inception_5a/pool
I0403 15:00:10.311924  2403 net.cpp:425] inception_5a/pool <- pool4/3x3_s2_pool4/3x3_s2_0_split_3
I0403 15:00:10.311942  2403 net.cpp:399] inception_5a/pool -> inception_5a/pool
I0403 15:00:10.312014  2403 net.cpp:141] Setting up inception_5a/pool
I0403 15:00:10.312037  2403 net.cpp:148] Top shape: 24 832 7 7 (978432)
I0403 15:00:10.312052  2403 net.cpp:156] Memory required for data: 1304469024
I0403 15:00:10.312068  2403 layer_factory.hpp:77] Creating layer inception_5a/pool_proj
I0403 15:00:10.312090  2403 net.cpp:91] Creating Layer inception_5a/pool_proj
I0403 15:00:10.312108  2403 net.cpp:425] inception_5a/pool_proj <- inception_5a/pool
I0403 15:00:10.312129  2403 net.cpp:399] inception_5a/pool_proj -> inception_5a/pool_proj
I0403 15:00:10.314440  2403 net.cpp:141] Setting up inception_5a/pool_proj
I0403 15:00:10.314471  2403 net.cpp:148] Top shape: 24 128 7 7 (150528)
I0403 15:00:10.314487  2403 net.cpp:156] Memory required for data: 1305071136
I0403 15:00:10.314507  2403 layer_factory.hpp:77] Creating layer inception_5a/relu_pool_proj
I0403 15:00:10.314527  2403 net.cpp:91] Creating Layer inception_5a/relu_pool_proj
I0403 15:00:10.314544  2403 net.cpp:425] inception_5a/relu_pool_proj <- inception_5a/pool_proj
I0403 15:00:10.314563  2403 net.cpp:386] inception_5a/relu_pool_proj -> inception_5a/pool_proj (in-place)
I0403 15:00:10.314862  2403 net.cpp:141] Setting up inception_5a/relu_pool_proj
I0403 15:00:10.314890  2403 net.cpp:148] Top shape: 24 128 7 7 (150528)
I0403 15:00:10.314906  2403 net.cpp:156] Memory required for data: 1305673248
I0403 15:00:10.314923  2403 layer_factory.hpp:77] Creating layer inception_5a/output
I0403 15:00:10.314940  2403 net.cpp:91] Creating Layer inception_5a/output
I0403 15:00:10.314956  2403 net.cpp:425] inception_5a/output <- inception_5a/1x1
I0403 15:00:10.314975  2403 net.cpp:425] inception_5a/output <- inception_5a/3x3
I0403 15:00:10.314991  2403 net.cpp:425] inception_5a/output <- inception_5a/5x5
I0403 15:00:10.315008  2403 net.cpp:425] inception_5a/output <- inception_5a/pool_proj
I0403 15:00:10.315028  2403 net.cpp:399] inception_5a/output -> inception_5a/output
I0403 15:00:10.315079  2403 net.cpp:141] Setting up inception_5a/output
I0403 15:00:10.315106  2403 net.cpp:148] Top shape: 24 832 7 7 (978432)
I0403 15:00:10.315122  2403 net.cpp:156] Memory required for data: 1309586976
I0403 15:00:10.315137  2403 layer_factory.hpp:77] Creating layer inception_5a/output_inception_5a/output_0_split
I0403 15:00:10.315156  2403 net.cpp:91] Creating Layer inception_5a/output_inception_5a/output_0_split
I0403 15:00:10.315172  2403 net.cpp:425] inception_5a/output_inception_5a/output_0_split <- inception_5a/output
I0403 15:00:10.315196  2403 net.cpp:399] inception_5a/output_inception_5a/output_0_split -> inception_5a/output_inception_5a/output_0_split_0
I0403 15:00:10.315217  2403 net.cpp:399] inception_5a/output_inception_5a/output_0_split -> inception_5a/output_inception_5a/output_0_split_1
I0403 15:00:10.315237  2403 net.cpp:399] inception_5a/output_inception_5a/output_0_split -> inception_5a/output_inception_5a/output_0_split_2
I0403 15:00:10.315263  2403 net.cpp:399] inception_5a/output_inception_5a/output_0_split -> inception_5a/output_inception_5a/output_0_split_3
I0403 15:00:10.315374  2403 net.cpp:141] Setting up inception_5a/output_inception_5a/output_0_split
I0403 15:00:10.315398  2403 net.cpp:148] Top shape: 24 832 7 7 (978432)
I0403 15:00:10.315418  2403 net.cpp:148] Top shape: 24 832 7 7 (978432)
I0403 15:00:10.315434  2403 net.cpp:148] Top shape: 24 832 7 7 (978432)
I0403 15:00:10.315449  2403 net.cpp:148] Top shape: 24 832 7 7 (978432)
I0403 15:00:10.315464  2403 net.cpp:156] Memory required for data: 1325241888
I0403 15:00:10.315479  2403 layer_factory.hpp:77] Creating layer inception_5b/1x1
I0403 15:00:10.315497  2403 net.cpp:91] Creating Layer inception_5b/1x1
I0403 15:00:10.315515  2403 net.cpp:425] inception_5b/1x1 <- inception_5a/output_inception_5a/output_0_split_0
I0403 15:00:10.315536  2403 net.cpp:399] inception_5b/1x1 -> inception_5b/1x1
I0403 15:00:10.319326  2403 net.cpp:141] Setting up inception_5b/1x1
I0403 15:00:10.319358  2403 net.cpp:148] Top shape: 24 384 7 7 (451584)
I0403 15:00:10.319375  2403 net.cpp:156] Memory required for data: 1327048224
I0403 15:00:10.319393  2403 layer_factory.hpp:77] Creating layer inception_5b/relu_1x1
I0403 15:00:10.319413  2403 net.cpp:91] Creating Layer inception_5b/relu_1x1
I0403 15:00:10.319430  2403 net.cpp:425] inception_5b/relu_1x1 <- inception_5b/1x1
I0403 15:00:10.319452  2403 net.cpp:386] inception_5b/relu_1x1 -> inception_5b/1x1 (in-place)
I0403 15:00:10.319761  2403 net.cpp:141] Setting up inception_5b/relu_1x1
I0403 15:00:10.319789  2403 net.cpp:148] Top shape: 24 384 7 7 (451584)
I0403 15:00:10.319808  2403 net.cpp:156] Memory required for data: 1328854560
I0403 15:00:10.319823  2403 layer_factory.hpp:77] Creating layer inception_5b/3x3_reduce
I0403 15:00:10.319846  2403 net.cpp:91] Creating Layer inception_5b/3x3_reduce
I0403 15:00:10.319865  2403 net.cpp:425] inception_5b/3x3_reduce <- inception_5a/output_inception_5a/output_0_split_1
I0403 15:00:10.319888  2403 net.cpp:399] inception_5b/3x3_reduce -> inception_5b/3x3_reduce
I0403 15:00:10.322607  2403 net.cpp:141] Setting up inception_5b/3x3_reduce
I0403 15:00:10.322634  2403 net.cpp:148] Top shape: 24 192 7 7 (225792)
I0403 15:00:10.322650  2403 net.cpp:156] Memory required for data: 1329757728
I0403 15:00:10.322669  2403 layer_factory.hpp:77] Creating layer inception_5b/relu_3x3_reduce
I0403 15:00:10.322691  2403 net.cpp:91] Creating Layer inception_5b/relu_3x3_reduce
I0403 15:00:10.322710  2403 net.cpp:425] inception_5b/relu_3x3_reduce <- inception_5b/3x3_reduce
I0403 15:00:10.322727  2403 net.cpp:386] inception_5b/relu_3x3_reduce -> inception_5b/3x3_reduce (in-place)
I0403 15:00:10.322916  2403 net.cpp:141] Setting up inception_5b/relu_3x3_reduce
I0403 15:00:10.322942  2403 net.cpp:148] Top shape: 24 192 7 7 (225792)
I0403 15:00:10.322957  2403 net.cpp:156] Memory required for data: 1330660896
I0403 15:00:10.322973  2403 layer_factory.hpp:77] Creating layer inception_5b/3x3
I0403 15:00:10.322995  2403 net.cpp:91] Creating Layer inception_5b/3x3
I0403 15:00:10.323014  2403 net.cpp:425] inception_5b/3x3 <- inception_5b/3x3_reduce
I0403 15:00:10.323035  2403 net.cpp:399] inception_5b/3x3 -> inception_5b/3x3
I0403 15:00:10.329844  2403 net.cpp:141] Setting up inception_5b/3x3
I0403 15:00:10.329874  2403 net.cpp:148] Top shape: 24 384 7 7 (451584)
I0403 15:00:10.329890  2403 net.cpp:156] Memory required for data: 1332467232
I0403 15:00:10.329910  2403 layer_factory.hpp:77] Creating layer inception_5b/relu_3x3
I0403 15:00:10.329931  2403 net.cpp:91] Creating Layer inception_5b/relu_3x3
I0403 15:00:10.329951  2403 net.cpp:425] inception_5b/relu_3x3 <- inception_5b/3x3
I0403 15:00:10.329969  2403 net.cpp:386] inception_5b/relu_3x3 -> inception_5b/3x3 (in-place)
I0403 15:00:10.330273  2403 net.cpp:141] Setting up inception_5b/relu_3x3
I0403 15:00:10.330302  2403 net.cpp:148] Top shape: 24 384 7 7 (451584)
I0403 15:00:10.330317  2403 net.cpp:156] Memory required for data: 1334273568
I0403 15:00:10.330332  2403 layer_factory.hpp:77] Creating layer inception_5b/5x5_reduce
I0403 15:00:10.330374  2403 net.cpp:91] Creating Layer inception_5b/5x5_reduce
I0403 15:00:10.330392  2403 net.cpp:425] inception_5b/5x5_reduce <- inception_5a/output_inception_5a/output_0_split_2
I0403 15:00:10.330415  2403 net.cpp:399] inception_5b/5x5_reduce -> inception_5b/5x5_reduce
I0403 15:00:10.331702  2403 net.cpp:141] Setting up inception_5b/5x5_reduce
I0403 15:00:10.331734  2403 net.cpp:148] Top shape: 24 48 7 7 (56448)
I0403 15:00:10.331751  2403 net.cpp:156] Memory required for data: 1334499360
I0403 15:00:10.331771  2403 layer_factory.hpp:77] Creating layer inception_5b/relu_5x5_reduce
I0403 15:00:10.331790  2403 net.cpp:91] Creating Layer inception_5b/relu_5x5_reduce
I0403 15:00:10.331807  2403 net.cpp:425] inception_5b/relu_5x5_reduce <- inception_5b/5x5_reduce
I0403 15:00:10.331830  2403 net.cpp:386] inception_5b/relu_5x5_reduce -> inception_5b/5x5_reduce (in-place)
I0403 15:00:10.332209  2403 net.cpp:141] Setting up inception_5b/relu_5x5_reduce
I0403 15:00:10.332237  2403 net.cpp:148] Top shape: 24 48 7 7 (56448)
I0403 15:00:10.332267  2403 net.cpp:156] Memory required for data: 1334725152
I0403 15:00:10.332283  2403 layer_factory.hpp:77] Creating layer inception_5b/5x5
I0403 15:00:10.332304  2403 net.cpp:91] Creating Layer inception_5b/5x5
I0403 15:00:10.332319  2403 net.cpp:425] inception_5b/5x5 <- inception_5b/5x5_reduce
I0403 15:00:10.332340  2403 net.cpp:399] inception_5b/5x5 -> inception_5b/5x5
I0403 15:00:10.334419  2403 net.cpp:141] Setting up inception_5b/5x5
I0403 15:00:10.334447  2403 net.cpp:148] Top shape: 24 128 7 7 (150528)
I0403 15:00:10.334465  2403 net.cpp:156] Memory required for data: 1335327264
I0403 15:00:10.334483  2403 layer_factory.hpp:77] Creating layer inception_5b/relu_5x5
I0403 15:00:10.334502  2403 net.cpp:91] Creating Layer inception_5b/relu_5x5
I0403 15:00:10.334520  2403 net.cpp:425] inception_5b/relu_5x5 <- inception_5b/5x5
I0403 15:00:10.334537  2403 net.cpp:386] inception_5b/relu_5x5 -> inception_5b/5x5 (in-place)
I0403 15:00:10.334730  2403 net.cpp:141] Setting up inception_5b/relu_5x5
I0403 15:00:10.334758  2403 net.cpp:148] Top shape: 24 128 7 7 (150528)
I0403 15:00:10.334774  2403 net.cpp:156] Memory required for data: 1335929376
I0403 15:00:10.334789  2403 layer_factory.hpp:77] Creating layer inception_5b/pool
I0403 15:00:10.334806  2403 net.cpp:91] Creating Layer inception_5b/pool
I0403 15:00:10.334822  2403 net.cpp:425] inception_5b/pool <- inception_5a/output_inception_5a/output_0_split_3
I0403 15:00:10.334842  2403 net.cpp:399] inception_5b/pool -> inception_5b/pool
I0403 15:00:10.334915  2403 net.cpp:141] Setting up inception_5b/pool
I0403 15:00:10.334939  2403 net.cpp:148] Top shape: 24 832 7 7 (978432)
I0403 15:00:10.334952  2403 net.cpp:156] Memory required for data: 1339843104
I0403 15:00:10.334966  2403 layer_factory.hpp:77] Creating layer inception_5b/pool_proj
I0403 15:00:10.334988  2403 net.cpp:91] Creating Layer inception_5b/pool_proj
I0403 15:00:10.335005  2403 net.cpp:425] inception_5b/pool_proj <- inception_5b/pool
I0403 15:00:10.335026  2403 net.cpp:399] inception_5b/pool_proj -> inception_5b/pool_proj
I0403 15:00:10.337319  2403 net.cpp:141] Setting up inception_5b/pool_proj
I0403 15:00:10.337350  2403 net.cpp:148] Top shape: 24 128 7 7 (150528)
I0403 15:00:10.337366  2403 net.cpp:156] Memory required for data: 1340445216
I0403 15:00:10.337385  2403 layer_factory.hpp:77] Creating layer inception_5b/relu_pool_proj
I0403 15:00:10.337406  2403 net.cpp:91] Creating Layer inception_5b/relu_pool_proj
I0403 15:00:10.337424  2403 net.cpp:425] inception_5b/relu_pool_proj <- inception_5b/pool_proj
I0403 15:00:10.337441  2403 net.cpp:386] inception_5b/relu_pool_proj -> inception_5b/pool_proj (in-place)
I0403 15:00:10.337731  2403 net.cpp:141] Setting up inception_5b/relu_pool_proj
I0403 15:00:10.337757  2403 net.cpp:148] Top shape: 24 128 7 7 (150528)
I0403 15:00:10.337771  2403 net.cpp:156] Memory required for data: 1341047328
I0403 15:00:10.337786  2403 layer_factory.hpp:77] Creating layer inception_5b/output
I0403 15:00:10.337805  2403 net.cpp:91] Creating Layer inception_5b/output
I0403 15:00:10.337836  2403 net.cpp:425] inception_5b/output <- inception_5b/1x1
I0403 15:00:10.337853  2403 net.cpp:425] inception_5b/output <- inception_5b/3x3
I0403 15:00:10.337870  2403 net.cpp:425] inception_5b/output <- inception_5b/5x5
I0403 15:00:10.337885  2403 net.cpp:425] inception_5b/output <- inception_5b/pool_proj
I0403 15:00:10.337905  2403 net.cpp:399] inception_5b/output -> inception_5b/output
I0403 15:00:10.337957  2403 net.cpp:141] Setting up inception_5b/output
I0403 15:00:10.337981  2403 net.cpp:148] Top shape: 24 1024 7 7 (1204224)
I0403 15:00:10.337996  2403 net.cpp:156] Memory required for data: 1345864224
I0403 15:00:10.338011  2403 layer_factory.hpp:77] Creating layer pool5/7x7_s1
I0403 15:00:10.338027  2403 net.cpp:91] Creating Layer pool5/7x7_s1
I0403 15:00:10.338043  2403 net.cpp:425] pool5/7x7_s1 <- inception_5b/output
I0403 15:00:10.338063  2403 net.cpp:399] pool5/7x7_s1 -> pool5/7x7_s1
I0403 15:00:10.338280  2403 net.cpp:141] Setting up pool5/7x7_s1
I0403 15:00:10.338305  2403 net.cpp:148] Top shape: 24 1024 1 1 (24576)
I0403 15:00:10.338320  2403 net.cpp:156] Memory required for data: 1345962528
I0403 15:00:10.338335  2403 layer_factory.hpp:77] Creating layer pool5/drop_7x7_s1
I0403 15:00:10.338353  2403 net.cpp:91] Creating Layer pool5/drop_7x7_s1
I0403 15:00:10.338371  2403 net.cpp:425] pool5/drop_7x7_s1 <- pool5/7x7_s1
I0403 15:00:10.338388  2403 net.cpp:386] pool5/drop_7x7_s1 -> pool5/7x7_s1 (in-place)
I0403 15:00:10.338438  2403 net.cpp:141] Setting up pool5/drop_7x7_s1
I0403 15:00:10.338460  2403 net.cpp:148] Top shape: 24 1024 1 1 (24576)
I0403 15:00:10.338474  2403 net.cpp:156] Memory required for data: 1346060832
I0403 15:00:10.338488  2403 layer_factory.hpp:77] Creating layer loss3/classifier_plantvillage
I0403 15:00:10.338508  2403 net.cpp:91] Creating Layer loss3/classifier_plantvillage
I0403 15:00:10.338524  2403 net.cpp:425] loss3/classifier_plantvillage <- pool5/7x7_s1
I0403 15:00:10.338546  2403 net.cpp:399] loss3/classifier_plantvillage -> loss3/classifier_plantvillage
I0403 15:00:10.338964  2403 net.cpp:141] Setting up loss3/classifier_plantvillage
I0403 15:00:10.338989  2403 net.cpp:148] Top shape: 24 38 (912)
I0403 15:00:10.339002  2403 net.cpp:156] Memory required for data: 1346064480
I0403 15:00:10.339020  2403 layer_factory.hpp:77] Creating layer loss3/classifier_plantvillage_loss3/classifier_plantvillage_0_split
I0403 15:00:10.339038  2403 net.cpp:91] Creating Layer loss3/classifier_plantvillage_loss3/classifier_plantvillage_0_split
I0403 15:00:10.339054  2403 net.cpp:425] loss3/classifier_plantvillage_loss3/classifier_plantvillage_0_split <- loss3/classifier_plantvillage
I0403 15:00:10.339074  2403 net.cpp:399] loss3/classifier_plantvillage_loss3/classifier_plantvillage_0_split -> loss3/classifier_plantvillage_loss3/classifier_plantvillage_0_split_0
I0403 15:00:10.339095  2403 net.cpp:399] loss3/classifier_plantvillage_loss3/classifier_plantvillage_0_split -> loss3/classifier_plantvillage_loss3/classifier_plantvillage_0_split_1
I0403 15:00:10.339114  2403 net.cpp:399] loss3/classifier_plantvillage_loss3/classifier_plantvillage_0_split -> loss3/classifier_plantvillage_loss3/classifier_plantvillage_0_split_2
I0403 15:00:10.339134  2403 net.cpp:399] loss3/classifier_plantvillage_loss3/classifier_plantvillage_0_split -> loss3/classifier_plantvillage_loss3/classifier_plantvillage_0_split_3
I0403 15:00:10.339233  2403 net.cpp:141] Setting up loss3/classifier_plantvillage_loss3/classifier_plantvillage_0_split
I0403 15:00:10.339259  2403 net.cpp:148] Top shape: 24 38 (912)
I0403 15:00:10.339277  2403 net.cpp:148] Top shape: 24 38 (912)
I0403 15:00:10.339292  2403 net.cpp:148] Top shape: 24 38 (912)
I0403 15:00:10.339308  2403 net.cpp:148] Top shape: 24 38 (912)
I0403 15:00:10.339321  2403 net.cpp:156] Memory required for data: 1346079072
I0403 15:00:10.339335  2403 layer_factory.hpp:77] Creating layer loss1/loss
I0403 15:00:10.339357  2403 net.cpp:91] Creating Layer loss1/loss
I0403 15:00:10.339375  2403 net.cpp:425] loss1/loss <- loss1/classifier_plantvillage_loss1/classifier_plantvillage_0_split_0
I0403 15:00:10.339406  2403 net.cpp:425] loss1/loss <- label_data_1_split_0
…
