…
I0403 15:17:44.540552  2920 net.cpp:313] The NetState phase (1) differed from the phase (0) specified by a rule in layer data
I0403 15:17:44.541715  2920 net.cpp:49] Initializing net from parameters: 
state {
  phase: TEST
}
layer {
  name: "data"
  type: "Data"
  top: "data"
  top: "label"
  include {
    phase: TEST
  }
  transform_param {
    mirror: false
    crop_size: 224
    mean_file: "/home/mohanty/data/final_dataset/lmdb/grayscale-50-50/mean.binaryproto"
  }
  data_param {
    source: "/home/mohanty/data/final_dataset/lmdb/grayscale-50-50/test_db"
    batch_size: 24
    backend: LMDB
  }
}
layer {
  name: "conv1/7x7_s2"
  type: "Convolution"
  bottom: "data"
  top: "conv1/7x7_s2"
  param {
    lr_mult: 1
    decay_mult: 1
  }
  param {
    lr_mult: 2
    decay_mult: 0
  }
  convolution_param {
    num_output: 64
    pad: 3
    kernel_size: 7
    stride: 2
    weight_filler {
      type: "xavier"
      std: 0.1
    }
    bias_filler {
      type: "constant"
      value: 0.2
    }
  }
}
layer {
  name: "conv1/relu_7x7"
  type: "ReLU"
  bottom: "conv1/7x7_s2"
  top: "conv1/7x7_s2"
}
layer {
  name: "pool1/3x3_s2"
  type: "Pooling"
  bottom: "conv1/7x7_s2"
  top: "pool1/3x3_s2"
  pooling_param {
    pool: MAX
    kernel_size: 3
    stride: 2
  }
}
layer {
  name: "pool1/norm1"
  type: "LRN"
  bottom: "pool1/3x3_s2"
  top: "pool1/norm1"
  lrn_param {
    local_size: 5
    alpha: 0.0001
    beta: 0.75
  }
}
layer {
  name: "conv2/3x3_reduce"
  type: "Convolution"
  bottom: "pool1/norm1"
  top: "conv2/3x3_reduce"
  param {
    lr_mult: 1
    decay_mult: 1
  }
  param {
    lr_mult: 2
    decay_mult: 0
  }
  convolution_param {
    num_output: 64
    kernel_size: 1
    weight_filler {
      type: "xavier"
      std: 0.1
    }
    bias_filler {
      type: "constant"
      value: 0.2
    }
  }
}
layer {
  name: "conv2/relu_3x3_reduce"
  type: "ReLU"
  bottom: "conv2/3x3_reduce"
  top: "conv2/3x3_reduce"
}
layer {
  name: "conv2/3x3"
  type: "Convolution"
  bottom: "conv2/3x3_reduce"
  top: "conv2/3x3"
  param {
    lr_mult: 1
    decay_mult: 1
  }
  param {
    lr_mult: 2
    decay_mult: 0
  }
  convolution_param {
    num_output: 192
    pad: 1
    kernel_size: 3
    weight_filler {
      type: "xavier"
      std: 0.03
    }
    bias_filler {
      type: "constant"
      value: 0.2
    }
  }
}
layer {
  name: "conv2/relu_3x3"
  type: "ReLU"
  bottom: "conv2/3x3"
  top: "conv2/3x3"
}
layer {
  name: "conv2/norm2"
  type: "LRN"
  bottom: "conv2/3x3"
  top: "conv2/norm2"
  lrn_param {
    local_size: 5
    alpha: 0.0001
    beta: 0.75
  }
}
layer {
  name: "pool2/3x3_s2"
  type: "Pooling"
  bottom: "conv2/norm2"
  top: "pool2/3x3_s2"
  pooling_param {
    pool: MAX
    kernel_size: 3
    stride: 2
  }
}
layer {
  name: "inception_3a/1x1"
  type: "Convolution"
  bottom: "pool2/3x3_s2"
  top: "inception_3a/1x1"
  param {
    lr_mult: 1
    decay_mult: 1
  }
  param {
    lr_mult: 2
    decay_mult: 0
  }
  convolution_param {
    num_output: 64
    kernel_size: 1
    weight_filler {
      type: "xavier"
      std: 0.03
    }
    bias_filler {
      type: "constant"
      value: 0.2
    }
  }
}
layer {
  name: "inception_3a/relu_1x1"
  type: "ReLU"
  bottom: "inception_3a/1x1"
  top: "inception_3a/1x1"
}
layer {
  name: "inception_3a/3x3_reduce"
  type: "Convolution"
  bottom: "pool2/3x3_s2"
  top: "inception_3a/3x3_reduce"
  param {
    lr_mult: 1
    decay_mult: 1
  }
  param {
    lr_mult: 2
    decay_mult: 0
  }
  convolution_param {
    num_output: 96
    kernel_size: 1
    weight_filler {
      type: "xavier"
      std: 0.09
    }
    bias_filler {
      type: "constant"
      value: 0.2
    }
  }
}
layer {
  name: "inception_3a/relu_3x3_reduce"
  type: "ReLU"
  bottom: "inception_3a/3x3_reduce"
  top: "inception_3a/3x3_reduce"
}
layer {
  name: "inception_3a/3x3"
  type: "Convolution"
  bottom: "inception_3a/3x3_reduce"
  top: "inception_3a/3x3"
  param {
    lr_mult: 1
    decay_mult: 1
  }
  param {
    lr_mult: 2
    decay_mult: 0
  }
  convolution_param {
    num_output: 128
    pad: 1
    kernel_size: 3
    weight_filler {
      type: "xavier"
      std: 0.03
    }
    bias_filler {
      type: "constant"
      value: 0.2
    }
  }
}
layer {
  name: "inception_3a/relu_3x3"
  type: "ReLU"
  bottom: "inception_3a/3x3"
  top: "inception_3a/3x3"
}
layer {
  name: "inception_3a/5x5_reduce"
  type: "Convolution"
  bottom: "pool2/3x3_s2"
  top: "inception_3a/5x5_reduce"
  param {
    lr_mult: 1
    decay_mult: 1
  }
  param {
    lr_mult: 2
    decay_mult: 0
  }
  convolution_param {
    num_output: 16
    kernel_size: 1
    weight_filler {
      type: "xavier"
      std: 0.2
    }
    bias_filler {
      type: "constant"
      value: 0.2
    }
  }
}
layer {
  name: "inception_3a/relu_5x5_reduce"
  type: "ReLU"
  bottom: "inception_3a/5x5_reduce"
  top: "inception_3a/5x5_reduce"
}
layer {
  name: "inception_3a/5x5"
  type: "Convolution"
  bottom: "inception_3a/5x5_reduce"
  top: "inception_3a/5x5"
  param {
    lr_mult: 1
    decay_mult: 1
  }
  param {
    lr_mult: 2
    decay_mult: 0
  }
  convolution_param {
    num_output: 32
    pad: 2
    kernel_size: 5
    weight_filler {
      type: "xavier"
      std: 0.03
    }
    bias_filler {
      type: "constant"
      value: 0.2
    }
  }
}
layer {
  name: "inception_3a/relu_5x5"
  type: "ReLU"
  bottom: "inception_3a/5x5"
  top: "inception_3a/5x5"
}
layer {
  name: "inception_3a/pool"
  type: "Pooling"
  bottom: "pool2/3x3_s2"
  top: "inception_3a/pool"
  pooling_param {
    pool: MAX
    kernel_size: 3
    stride: 1
    pad: 1
  }
}
layer {
  name: "inception_3a/pool_proj"
  type: "Convolution"
  bottom: "inception_3a/pool"
  top: "inception_3a/pool_proj"
  param {
    lr_mult: 1
    decay_mult: 1
  }
  param {
    lr_mult: 2
    decay_mult: 0
  }
  convolution_param {
    num_output: 32
    kernel_size: 1
    weight_filler {
      type: "xavier"
      std: 0.1
    }
    bias_filler {
      type: "constant"
      value: 0.2
    }
  }
}
layer {
  name: "inception_3a/relu_pool_proj"
  type: "ReLU"
  bottom: "inception_3a/pool_proj"
  top: "inception_3a/pool_proj"
}
layer {
  name: "inception_3a/output"
  type: "Concat"
  bottom: "inception_3a/1x1"
  bottom: "inception_3a/3x3"
  bottom: "inception_3a/5x5"
  bottom: "inception_3a/pool_proj"
  top: "inception_3a/output"
}
layer {
  name: "inception_3b/1x1"
  type: "Convolution"
  bottom: "inception_3a/output"
  top: "inception_3b/1x1"
  param {
    lr_mult: 1
    decay_mult: 1
  }
  param {
    lr_mult: 2
    decay_mult: 0
  }
  convolution_param {
    num_output: 128
    kernel_size: 1
    weight_filler {
      type: "xavier"
      std: 0.03
    }
    bias_filler {
      type: "constant"
      value: 0.2
    }
  }
}
layer {
  name: "inception_3b/relu_1x1"
  type: "ReLU"
  bottom: "inception_3b/1x1"
  top: "inception_3b/1x1"
}
layer {
  name: "inception_3b/3x3_reduce"
  type: "Convolution"
  bottom: "inception_3a/output"
  top: "inception_3b/3x3_reduce"
  param {
    lr_mult: 1
    decay_mult: 1
  }
  param {
    lr_mult: 2
    decay_mult: 0
  }
  convolution_param {
    num_output: 128
    kernel_size: 1
    weight_filler {
      type: "xavier"
      std: 0.09
    }
    bias_filler {
      type: "constant"
      value: 0.2
    }
  }
}
layer {
  name: "inception_3b/relu_3x3_reduce"
  type: "ReLU"
  bottom: "inception_3b/3x3_reduce"
  top: "inception_3b/3x3_reduce"
}
layer {
  name: "inception_3b/3x3"
  type: "Convolution"
  bottom: "inception_3b/3x3_reduce"
  top: "inception_3b/3x3"
  param {
    lr_mult: 1
    decay_mult: 1
  }
  param {
    lr_mult: 2
    decay_mult: 0
  }
  convolution_param {
    num_output: 192
    pad: 1
    kernel_size: 3
    weight_filler {
      type: "xavier"
      std: 0.03
    }
    bias_filler {
      type: "constant"
      value: 0.2
    }
  }
}
layer {
  name: "inception_3b/relu_3x3"
  type: "ReLU"
  bottom: "inception_3b/3x3"
  top: "inception_3b/3x3"
}
layer {
  name: "inception_3b/5x5_reduce"
  type: "Convolution"
  bottom: "inception_3a/output"
  top: "inception_3b/5x5_reduce"
  param {
    lr_mult: 1
    decay_mult: 1
  }
  param {
    lr_mult: 2
    decay_mult: 0
  }
  convolution_param {
    num_output: 32
    kernel_size: 1
    weight_filler {
      type: "xavier"
      std: 0.2
    }
    bias_filler {
      type: "constant"
      value: 0.2
    }
  }
}
layer {
  name: "inception_3b/relu_5x5_reduce"
  type: "ReLU"
  bottom: "inception_3b/5x5_reduce"
  top: "inception_3b/5x5_reduce"
}
layer {
  name: "inception_3b/5x5"
  type: "Convolution"
  bottom: "inception_3b/5x5_reduce"
  top: "inception_3b/5x5"
  param {
    lr_mult: 1
    decay_mult: 1
  }
  param {
    lr_mult: 2
    decay_mult: 0
  }
  convolution_param {
    num_output: 96
    pad: 2
    kernel_size: 5
    weight_filler {
      type: "xavier"
      std: 0.03
    }
    bias_filler {
      type: "constant"
      value: 0.2
    }
  }
}
layer {
  name: "inception_3b/relu_5x5"
  type: "ReLU"
  bottom: "inception_3b/5x5"
  top: "inception_3b/5x5"
}
layer {
  name: "inception_3b/pool"
  type: "Pooling"
  bottom: "inception_3a/output"
  top: "inception_3b/pool"
  pooling_param {
    pool: MAX
    kernel_size: 3
    stride: 1
    pad: 1
  }
}
layer {
  name: "inception_3b/pool_proj"
  type: "Convolution"
  bottom: "inception_3b/pool"
  top: "inception_3b/pool_proj"
  param {
    lr_mult: 1
    decay_mult: 1
  }
  param {
    lr_mult: 2
    decay_mult: 0
  }
  convolution_param {
    num_output: 64
    kernel_size: 1
    weight_filler {
      type: "xavier"
      std: 0.1
    }
    bias_filler {
      type: "constant"
      value: 0.2
    }
  }
}
layer {
  name: "inception_3b/relu_pool_proj"
  type: "ReLU"
  bottom: "inception_3b/pool_proj"
  top: "inception_3b/pool_proj"
}
layer {
  name: "inception_3b/output"
  type: "Concat"
  bottom: "inception_3b/1x1"
  bottom: "inception_3b/3x3"
  bottom: "inception_3b/5x5"
  bottom: "inception_3b/pool_proj"
  top: "inception_3b/output"
}
layer {
  name: "pool3/3x3_s2"
  type: "Pooling"
  bottom: "inception_3b/output"
  top: "pool3/3x3_s2"
  pooling_param {
    pool: MAX
    kernel_size: 3
    stride: 2
  }
}
layer {
  name: "inception_4a/1x1"
  type: "Convolution"
  bottom: "pool3/3x3_s2"
  top: "inception_4a/1x1"
  param {
    lr_mult: 1
    decay_mult: 1
  }
  param {
    lr_mult: 2
    decay_mult: 0
  }
  convolution_param {
    num_output: 192
    kernel_size: 1
    weight_filler {
      type: "xavier"
      std: 0.03
    }
    bias_filler {
      type: "constant"
      value: 0.2
    }
  }
}
layer {
  name: "inception_4a/relu_1x1"
  type: "ReLU"
  bottom: "inception_4a/1x1"
  top: "inception_4a/1x1"
}
layer {
  name: "inception_4a/3x3_reduce"
  type: "Convolution"
  bottom: "pool3/3x3_s2"
  top: "inception_4a/3x3_reduce"
  param {
    lr_mult: 1
    decay_mult: 1
  }
  param {
    lr_mult: 2
    decay_mult: 0
  }
  convolution_param {
    num_output: 96
    kernel_size: 1
    weight_filler {
      type: "xavier"
      std: 0.09
    }
    bias_filler {
      type: "constant"
      value: 0.2
    }
  }
}
layer {
  name: "inception_4a/relu_3x3_reduce"
  type: "ReLU"
  bottom: "inception_4a/3x3_reduce"
  top: "inception_4a/3x3_reduce"
}
layer {
  name: "inception_4a/3x3"
  type: "Convolution"
  bottom: "inception_4a/3x3_reduce"
  top: "inception_4a/3x3"
  param {
    lr_mult: 1
    decay_mult: 1
  }
  param {
    lr_mult: 2
    decay_mult: 0
  }
  convolution_param {
    num_output: 208
    pad: 1
    kernel_size: 3
    weight_filler {
      type: "xavier"
      std: 0.03
    }
    bias_filler {
      type: "constant"
      value: 0.2
    }
  }
}
layer {
  name: "inception_4a/relu_3x3"
  type: "ReLU"
  bottom: "inception_4a/3x3"
  top: "inception_4a/3x3"
}
layer {
  name: "inception_4a/5x5_reduce"
  type: "Convolution"
  bottom: "pool3/3x3_s2"
  top: "inception_4a/5x5_reduce"
  param {
    lr_mult: 1
    decay_mult: 1
  }
  param {
    lr_mult: 2
    decay_mult: 0
  }
  convolution_param {
    num_output: 16
    kernel_size: 1
    weight_filler {
      type: "xavier"
      std: 0.2
    }
    bias_filler {
      type: "constant"
      value: 0.2
    }
  }
}
layer {
  name: "inception_4a/relu_5x5_reduce"
  type: "ReLU"
  bottom: "inception_4a/5x5_reduce"
  top: "inception_4a/5x5_reduce"
}
layer {
  name: "inception_4a/5x5"
  type: "Convolution"
  bottom: "inception_4a/5x5_reduce"
  top: "inception_4a/5x5"
  param {
    lr_mult: 1
    decay_mult: 1
  }
  param {
    lr_mult: 2
    decay_mult: 0
  }
  convolution_param {
    num_output: 48
    pad: 2
    kernel_size: 5
    weight_filler {
      type: "xavier"
      std: 0.03
    }
    bias_filler {
      type: "constant"
      value: 0.2
    }
  }
}
layer {
  name: "inception_4a/relu_5x5"
  type: "ReLU"
  bottom: "inception_4a/5x5"
  top: "inception_4a/5x5"
}
layer {
  name: "inception_4a/pool"
  type: "Pooling"
  bottom: "pool3/3x3_s2"
  top: "inception_4a/pool"
  pooling_param {
    pool: MAX
    kernel_size: 3
    stride: 1
    pad: 1
  }
}
layer {
  name: "inception_4a/pool_proj"
  type: "Convolution"
  bottom: "inception_4a/pool"
  top: "inception_4a/pool_proj"
  param {
    lr_mult: 1
    decay_mult: 1
  }
  param {
    lr_mult: 2
    decay_mult: 0
  }
  convolution_param {
    num_output: 64
    kernel_size: 1
    weight_filler {
      type: "xavier"
      std: 0.1
    }
    bias_filler {
      type: "constant"
      value: 0.2
    }
  }
}
layer {
  name: "inception_4a/relu_pool_proj"
  type: "ReLU"
  bottom: "inception_4a/pool_proj"
  top: "inception_4a/pool_proj"
}
layer {
  name: "inception_4a/output"
  type: "Concat"
  bottom: "inception_4a/1x1"
  bottom: "inception_4a/3x3"
  bottom: "inception_4a/5x5"
  bottom: "inception_4a/pool_proj"
  top: "inception_4a/output"
}
layer {
  name: "loss1/ave_pool"
  type: "Pooling"
  bottom: "inception_4a/output"
  top: "loss1/ave_pool"
  pooling_param {
    pool: AVE
    kernel_size: 5
    stride: 3
  }
}
layer {
  name: "loss1/conv"
  type: "Convolution"
  bottom: "loss1/ave_pool"
  top: "loss1/conv"
  param {
    lr_mult: 1
    decay_mult: 1
  }
  param {
    lr_mult: 2
    decay_mult: 0
  }
  convolution_param {
    num_output: 128
    kernel_size: 1
    weight_filler {
      type: "xavier"
      std: 0.08
    }
    bias_filler {
      type: "constant"
      value: 0.2
    }
  }
}
layer {
  name: "loss1/relu_conv"
  type: "ReLU"
  bottom: "loss1/conv"
  top: "loss1/conv"
}
layer {
  name: "loss1/fc"
  type: "InnerProduct"
  bottom: "loss1/conv"
  top: "loss1/fc"
  param {
    lr_mult: 1
    decay_mult: 1
  }
  param {
    lr_mult: 2
    decay_mult: 0
  }
  inner_product_param {
    num_output: 1024
    weight_filler {
      type: "xavier"
      std: 0.02
    }
    bias_filler {
      type: "constant"
      value: 0.2
    }
  }
}
layer {
  name: "loss1/relu_fc"
  type: "ReLU"
  bottom: "loss1/fc"
  top: "loss1/fc"
}
layer {
  name: "loss1/drop_fc"
  type: "Dropout"
  bottom: "loss1/fc"
  top: "loss1/fc"
  dropout_param {
    dropout_ratio: 0.7
  }
}
layer {
  name: "loss1/classifier_plantvillage"
  type: "InnerProduct"
  bottom: "loss1/fc"
  top: "loss1/classifier_plantvillage"
  param {
    lr_mult: 1
    decay_mult: 1
  }
  param {
    lr_mult: 2
    decay_mult: 0
  }
  inner_product_param {
    num_output: 38
    weight_filler {
      type: "xavier"
      std: 0.0009765625
    }
    bias_filler {
      type: "constant"
      value: 0
    }
  }
}
layer {
  name: "inception_4b/1x1"
  type: "Convolution"
  bottom: "inception_4a/output"
  top: "inception_4b/1x1"
  param {
    lr_mult: 1
    decay_mult: 1
  }
  param {
    lr_mult: 2
    decay_mult: 0
  }
  convolution_param {
    num_output: 160
    kernel_size: 1
    weight_filler {
      type: "xavier"
      std: 0.03
    }
    bias_filler {
      type: "constant"
      value: 0.2
    }
  }
}
layer {
  name: "inception_4b/relu_1x1"
  type: "ReLU"
  bottom: "inception_4b/1x1"
  top: "inception_4b/1x1"
}
layer {
  name: "inception_4b/3x3_reduce"
  type: "Convolution"
  bottom: "inception_4a/output"
  top: "inception_4b/3x3_reduce"
  param {
    lr_mult: 1
    decay_mult: 1
  }
  param {
    lr_mult: 2
    decay_mult: 0
  }
  convolution_param {
    num_output: 112
    kernel_size: 1
    weight_filler {
      type: "xavier"
      std: 0.09
    }
    bias_filler {
      type: "constant"
      value: 0.2
    }
  }
}
layer {
  name: "inception_4b/relu_3x3_reduce"
  type: "ReLU"
  bottom: "inception_4b/3x3_reduce"
  top: "inception_4b/3x3_reduce"
}
layer {
  name: "inception_4b/3x3"
  type: "Convolution"
  bottom: "inception_4b/3x3_reduce"
  top: "inception_4b/3x3"
  param {
    lr_mult: 1
    decay_mult: 1
  }
  param {
    lr_mult: 2
    decay_mult: 0
  }
  convolution_param {
    num_output: 224
    pad: 1
    kernel_size: 3
    weight_filler {
      type: "xavier"
      std: 0.03
    }
    bias_filler {
      type: "constant"
      value: 0.2
    }
  }
}
layer {
  name: "inception_4b/relu_3x3"
  type: "ReLU"
  bottom: "inception_4b/3x3"
  top: "inception_4b/3x3"
}
layer {
  name: "inception_4b/5x5_reduce"
  type: "Convolution"
  bottom: "inception_4a/output"
  top: "inception_4b/5x5_reduce"
  param {
    lr_mult: 1
    decay_mult: 1
  }
  param {
    lr_mult: 2
    decay_mult: 0
  }
  convolution_param {
    num_output: 24
    kernel_size: 1
    weight_filler {
      type: "xavier"
      std: 0.2
    }
    bias_filler {
      type: "constant"
      value: 0.2
    }
  }
}
layer {
  name: "inception_4b/relu_5x5_reduce"
  type: "ReLU"
  bottom: "inception_4b/5x5_reduce"
  top: "inception_4b/5x5_reduce"
}
layer {
  name: "inception_4b/5x5"
  type: "Convolution"
  bottom: "inception_4b/5x5_reduce"
  top: "inception_4b/5x5"
  param {
    lr_mult: 1
    decay_mult: 1
  }
  param {
    lr_mult: 2
    decay_mult: 0
  }
  convolution_param {
    num_output: 64
    pad: 2
    kernel_size: 5
    weight_filler {
      type: "xavier"
      std: 0.03
    }
    bias_filler {
      type: "constant"
      value: 0.2
    }
  }
}
layer {
  name: "inception_4b/relu_5x5"
  type: "ReLU"
  bottom: "inception_4b/5x5"
  top: "inception_4b/5x5"
}
layer {
  name: "inception_4b/pool"
  type: "Pooling"
  bottom: "inception_4a/output"
  top: "inception_4b/pool"
  pooling_param {
    pool: MAX
    kernel_size: 3
    stride: 1
    pad: 1
  }
}
layer {
  name: "inception_4b/pool_proj"
  type: "Convolution"
  bottom: "inception_4b/pool"
  top: "inception_4b/pool_proj"
  param {
    lr_mult: 1
    decay_mult: 1
  }
  param {
    lr_mult: 2
    decay_mult: 0
  }
  convolution_param {
    num_output: 64
    kernel_size: 1
    weight_filler {
      type: "xavier"
      std: 0.1
    }
    bias_filler {
      type: "constant"
      value: 0.2
    }
  }
}
layer {
  name: "inception_4b/relu_pool_proj"
  type: "ReLU"
  bottom: "inception_4b/pool_proj"
  top: "inception_4b/pool_proj"
}
layer {
  name: "inception_4b/output"
  type: "Concat"
  bottom: "inception_4b/1x1"
  bottom: "inception_4b/3x3"
  bottom: "inception_4b/5x5"
  bottom: "inception_4b/pool_proj"
  top: "inception_4b/output"
}
layer {
  name: "inception_4c/1x1"
  type: "Convolution"
  bottom: "inception_4b/output"
  top: "inception_4c/1x1"
  param {
    lr_mult: 1
    decay_mult: 1
  }
  param {
    lr_mult: 2
    decay_mult: 0
  }
  convolution_param {
    num_output: 128
    kernel_size: 1
    weight_filler {
      type: "xavier"
      std: 0.03
    }
    bias_filler {
      type: "constant"
      value: 0.2
    }
  }
}
layer {
  name: "inception_4c/relu_1x1"
  type: "ReLU"
  bottom: "inception_4c/1x1"
  top: "inception_4c/1x1"
}
layer {
  name: "inception_4c/3x3_reduce"
  type: "Convolution"
  bottom: "inception_4b/output"
  top: "inception_4c/3x3_reduce"
  param {
    lr_mult: 1
    decay_mult: 1
  }
  param {
    lr_mult: 2
    decay_mult: 0
  }
  convolution_param {
    num_output: 128
    kernel_size: 1
    weight_filler {
      type: "xavier"
      std: 0.09
    }
    bias_filler {
      type: "constant"
      value: 0.2
    }
  }
}
layer {
  name: "inception_4c/relu_3x3_reduce"
  type: "ReLU"
  bottom: "inception_4c/3x3_reduce"
  top: "inception_4c/3x3_reduce"
}
layer {
  name: "inception_4c/3x3"
  type: "Convolution"
  bottom: "inception_4c/3x3_reduce"
  top: "inception_4c/3x3"
  param {
    lr_mult: 1
    decay_mult: 1
  }
  param {
    lr_mult: 2
    decay_mult: 0
  }
  convolution_param {
    num_output: 256
    pad: 1
    kernel_size: 3
    weight_filler {
      type: "xavier"
      std: 0.03
    }
    bias_filler {
      type: "constant"
      value: 0.2
    }
  }
}
layer {
  name: "inception_4c/relu_3x3"
  type: "ReLU"
  bottom: "inception_4c/3x3"
  top: "inception_4c/3x3"
}
layer {
  name: "inception_4c/5x5_reduce"
  type: "Convolution"
  bottom: "inception_4b/output"
  top: "inception_4c/5x5_reduce"
  param {
    lr_mult: 1
    decay_mult: 1
  }
  param {
    lr_mult: 2
    decay_mult: 0
  }
  convolution_param {
    num_output: 24
    kernel_size: 1
    weight_filler {
      type: "xavier"
      std: 0.2
    }
    bias_filler {
      type: "constant"
      value: 0.2
    }
  }
}
layer {
  name: "inception_4c/relu_5x5_reduce"
  type: "ReLU"
  bottom: "inception_4c/5x5_reduce"
  top: "inception_4c/5x5_reduce"
}
layer {
  name: "inception_4c/5x5"
  type: "Convolution"
  bottom: "inception_4c/5x5_reduce"
  top: "inception_4c/5x5"
  param {
    lr_mult: 1
    decay_mult: 1
  }
  param {
    lr_mult: 2
    decay_mult: 0
  }
  convolution_param {
    num_output: 64
    pad: 2
    kernel_size: 5
    weight_filler {
      type: "xavier"
      std: 0.03
    }
    bias_filler {
      type: "constant"
      value: 0.2
    }
  }
}
layer {
  name: "inception_4c/relu_5x5"
  type: "ReLU"
  bottom: "inception_4c/5x5"
  top: "inception_4c/5x5"
}
layer {
  name: "inception_4c/pool"
  type: "Pooling"
  bottom: "inception_4b/output"
  top: "inception_4c/pool"
  pooling_param {
    pool: MAX
    kernel_size: 3
    stride: 1
    pad: 1
  }
}
layer {
  name: "inception_4c/pool_proj"
  type: "Convolution"
  bottom: "inception_4c/pool"
  top: "inception_4c/pool_proj"
  param {
    lr_mult: 1
    decay_mult: 1
  }
  param {
    lr_mult: 2
    decay_mult: 0
  }
  convolution_param {
    num_output: 64
    kernel_size: 1
    weight_filler {
      type: "xavier"
      std: 0.1
    }
    bias_filler {
      type: "constant"
      value: 0.2
    }
  }
}
layer {
  name: "inception_4c/relu_pool_proj"
  type: "ReLU"
  bottom: "inception_4c/pool_proj"
  top: "inception_4c/pool_proj"
}
layer {
  name: "inception_4c/output"
  type: "Concat"
  bottom: "inception_4c/1x1"
  bottom: "inception_4c/3x3"
  bottom: "inception_4c/5x5"
  bottom: "inception_4c/pool_proj"
  top: "inception_4c/output"
}
layer {
  name: "inception_4d/1x1"
  type: "Convolution"
  bottom: "inception_4c/output"
  top: "inception_4d/1x1"
  param {
    lr_mult: 1
    decay_mult: 1
  }
  param {
    lr_mult: 2
    decay_mult: 0
  }
  convolution_param {
    num_output: 112
    kernel_size: 1
    weight_filler {
      type: "xavier"
      std: 0.03
    }
    bias_filler {
      type: "constant"
      value: 0.2
    }
  }
}
layer {
  name: "inception_4d/relu_1x1"
  type: "ReLU"
  bottom: "inception_4d/1x1"
  top: "inception_4d/1x1"
}
layer {
  name: "inception_4d/3x3_reduce"
  type: "Convolution"
  bottom: "inception_4c/output"
  top: "inception_4d/3x3_reduce"
  param {
    lr_mult: 1
    decay_mult: 1
  }
  param {
    lr_mult: 2
    decay_mult: 0
  }
  convolution_param {
    num_output: 144
    kernel_size: 1
    weight_filler {
      type: "xavier"
      std: 0.09
    }
    bias_filler {
      type: "constant"
      value: 0.2
    }
  }
}
layer {
  name: "inception_4d/relu_3x3_reduce"
  type: "ReLU"
  bottom: "inception_4d/3x3_reduce"
  top: "inception_4d/3x3_reduce"
}
layer {
  name: "inception_4d/3x3"
  type: "Convolution"
  bottom: "inception_4d/3x3_reduce"
  top: "inception_4d/3x3"
  param {
    lr_mult: 1
    decay_mult: 1
  }
  param {
    lr_mult: 2
    decay_mult: 0
  }
  convolution_param {
    num_output: 288
    pad: 1
    kernel_size: 3
    weight_filler {
      type: "xavier"
      std: 0.03
    }
    bias_filler {
      type: "constant"
      value: 0.2
    }
  }
}
layer {
  name: "inception_4d/relu_3x3"
  type: "ReLU"
  bottom: "inception_4d/3x3"
  top: "inception_4d/3x3"
}
layer {
  name: "inception_4d/5x5_reduce"
  type: "Convolution"
  bottom: "inception_4c/output"
  top: "inception_4d/5x5_reduce"
  param {
    lr_mult: 1
    decay_mult: 1
  }
  param {
    lr_mult: 2
    decay_mult: 0
  }
  convolution_param {
    num_output: 32
    kernel_size: 1
    weight_filler {
      type: "xavier"
      std: 0.2
    }
    bias_filler {
      type: "constant"
      value: 0.2
    }
  }
}
layer {
  name: "inception_4d/relu_5x5_reduce"
  type: "ReLU"
  bottom: "inception_4d/5x5_reduce"
  top: "inception_4d/5x5_reduce"
}
layer {
  name: "inception_4d/5x5"
  type: "Convolution"
  bottom: "inception_4d/5x5_reduce"
  top: "inception_4d/5x5"
  param {
    lr_mult: 1
    decay_mult: 1
  }
  param {
    lr_mult: 2
    decay_mult: 0
  }
  convolution_param {
    num_output: 64
    pad: 2
    kernel_size: 5
    weight_filler {
      type: "xavier"
      std: 0.03
    }
    bias_filler {
      type: "constant"
      value: 0.2
    }
  }
}
layer {
  name: "inception_4d/relu_5x5"
  type: "ReLU"
  bottom: "inception_4d/5x5"
  top: "inception_4d/5x5"
}
layer {
  name: "inception_4d/pool"
  type: "Pooling"
  bottom: "inception_4c/output"
  top: "inception_4d/pool"
  pooling_param {
    pool: MAX
    kernel_size: 3
    stride: 1
    pad: 1
  }
}
layer {
  name: "inception_4d/pool_proj"
  type: "Convolution"
  bottom: "inception_4d/pool"
  top: "inception_4d/pool_proj"
  param {
    lr_mult: 1
    decay_mult: 1
  }
  param {
    lr_mult: 2
    decay_mult: 0
  }
  convolution_param {
    num_output: 64
    kernel_size: 1
    weight_filler {
      type: "xavier"
      std: 0.1
    }
    bias_filler {
      type: "constant"
      value: 0.2
    }
  }
}
layer {
  name: "inception_4d/relu_pool_proj"
  type: "ReLU"
  bottom: "inception_4d/pool_proj"
  top: "inception_4d/pool_proj"
}
layer {
  name: "inception_4d/output"
  type: "Concat"
  bottom: "inception_4d/1x1"
  bottom: "inception_4d/3x3"
  bottom: "inception_4d/5x5"
  bottom: "inception_4d/pool_proj"
  top: "inception_4d/output"
}
layer {
  name: "loss2/ave_pool"
  type: "Pooling"
  bottom: "inception_4d/output"
  top: "loss2/ave_pool"
  pooling_param {
    pool: AVE
    kernel_size: 5
    stride: 3
  }
}
layer {
  name: "loss2/conv"
  type: "Convolution"
  bottom: "loss2/ave_pool"
  top: "loss2/conv"
  param {
    lr_mult: 1
    decay_mult: 1
  }
  param {
    lr_mult: 2
    decay_mult: 0
  }
  convolution_param {
    num_output: 128
    kernel_size: 1
    weight_filler {
      type: "xavier"
      std: 0.08
    }
    bias_filler {
      type: "constant"
      value: 0.2
    }
  }
}
layer {
  name: "loss2/relu_conv"
  type: "ReLU"
  bottom: "loss2/conv"
  top: "loss2/conv"
}
layer {
  name: "loss2/fc"
  type: "InnerProduct"
  bottom: "loss2/conv"
  top: "loss2/fc"
  param {
    lr_mult: 1
    decay_mult: 1
  }
  param {
    lr_mult: 2
    decay_mult: 0
  }
  inner_product_param {
    num_output: 1024
    weight_filler {
      type: "xavier"
      std: 0.02
    }
    bias_filler {
      type: "constant"
      value: 0.2
    }
  }
}
layer {
  name: "loss2/relu_fc"
  type: "ReLU"
  bottom: "loss2/fc"
  top: "loss2/fc"
}
layer {
  name: "loss2/drop_fc"
  type: "Dropout"
  bottom: "loss2/fc"
  top: "loss2/fc"
  dropout_param {
    dropout_ratio: 0.7
  }
}
layer {
  name: "loss2/classifier_plantvillage"
  type: "InnerProduct"
  bottom: "loss2/fc"
  top: "loss2/classifier_plantvillage"
  param {
    lr_mult: 1
    decay_mult: 1
  }
  param {
    lr_mult: 2
    decay_mult: 0
  }
  inner_product_param {
    num_output: 38
    weight_filler {
      type: "xavier"
      std: 0.0009765625
    }
    bias_filler {
      type: "constant"
      value: 0
    }
  }
}
layer {
  name: "inception_4e/1x1"
  type: "Convolution"
  bottom: "inception_4d/output"
  top: "inception_4e/1x1"
  param {
    lr_mult: 1
    decay_mult: 1
  }
  param {
    lr_mult: 2
    decay_mult: 0
  }
  convolution_param {
    num_output: 256
    kernel_size: 1
    weight_filler {
      type: "xavier"
      std: 0.03
    }
    bias_filler {
      type: "constant"
      value: 0.2
    }
  }
}
layer {
  name: "inception_4e/relu_1x1"
  type: "ReLU"
  bottom: "inception_4e/1x1"
  top: "inception_4e/1x1"
}
layer {
  name: "inception_4e/3x3_reduce"
  type: "Convolution"
  bottom: "inception_4d/output"
  top: "inception_4e/3x3_reduce"
  param {
    lr_mult: 1
    decay_mult: 1
  }
  param {
    lr_mult: 2
    decay_mult: 0
  }
  convolution_param {
    num_output: 160
    kernel_size: 1
    weight_filler {
      type: "xavier"
      std: 0.09
    }
    bias_filler {
      type: "constant"
      value: 0.2
    }
  }
}
layer {
  name: "inception_4e/relu_3x3_reduce"
  type: "ReLU"
  bottom: "inception_4e/3x3_reduce"
  top: "inception_4e/3x3_reduce"
}
layer {
  name: "inception_4e/3x3"
  type: "Convolution"
  bottom: "inception_4e/3x3_reduce"
  top: "inception_4e/3x3"
  param {
    lr_mult: 1
    decay_mult: 1
  }
  param {
    lr_mult: 2
    decay_mult: 0
  }
  convolution_param {
    num_output: 320
    pad: 1
    kernel_size: 3
    weight_filler {
      type: "xavier"
      std: 0.03
    }
    bias_filler {
      type: "constant"
      value: 0.2
    }
  }
}
layer {
  name: "inception_4e/relu_3x3"
  type: "ReLU"
  bottom: "inception_4e/3x3"
  top: "inception_4e/3x3"
}
layer {
  name: "inception_4e/5x5_reduce"
  type: "Convolution"
  bottom: "inception_4d/output"
  top: "inception_4e/5x5_reduce"
  param {
    lr_mult: 1
    decay_mult: 1
  }
  param {
    lr_mult: 2
    decay_mult: 0
  }
  convolution_param {
    num_output: 32
    kernel_size: 1
    weight_filler {
      type: "xavier"
      std: 0.2
    }
    bias_filler {
      type: "constant"
      value: 0.2
    }
  }
}
layer {
  name: "inception_4e/relu_5x5_reduce"
  type: "ReLU"
  bottom: "inception_4e/5x5_reduce"
  top: "inception_4e/5x5_reduce"
}
layer {
  name: "inception_4e/5x5"
  type: "Convolution"
  bottom: "inception_4e/5x5_reduce"
  top: "inception_4e/
I0403 15:17:44.543045  2920 layer_factory.hpp:77] Creating layer data
I0403 15:17:44.543663  2920 net.cpp:91] Creating Layer data
I0403 15:17:44.543697  2920 net.cpp:399] data -> data
I0403 15:17:44.543750  2920 net.cpp:399] data -> label
I0403 15:17:44.543787  2920 data_transformer.cpp:25] Loading mean file from: /home/mohanty/data/final_dataset/lmdb/grayscale-50-50/mean.binaryproto
I0403 15:17:44.546157  2925 db_lmdb.cpp:38] Opened lmdb /home/mohanty/data/final_dataset/lmdb/grayscale-50-50/test_db
I0403 15:17:44.557332  2920 data_layer.cpp:41] output data size: 24,3,224,224
I0403 15:17:44.585052  2920 net.cpp:141] Setting up data
I0403 15:17:44.585149  2920 net.cpp:148] Top shape: 24 3 224 224 (3612672)
I0403 15:17:44.585173  2920 net.cpp:148] Top shape: 24 (24)
I0403 15:17:44.585192  2920 net.cpp:156] Memory required for data: 14450784
I0403 15:17:44.585222  2920 layer_factory.hpp:77] Creating layer label_data_1_split
I0403 15:17:44.585280  2920 net.cpp:91] Creating Layer label_data_1_split
I0403 15:17:44.585302  2920 net.cpp:425] label_data_1_split <- label
I0403 15:17:44.585336  2920 net.cpp:399] label_data_1_split -> label_data_1_split_0
I0403 15:17:44.585364  2920 net.cpp:399] label_data_1_split -> label_data_1_split_1
I0403 15:17:44.585386  2920 net.cpp:399] label_data_1_split -> label_data_1_split_2
I0403 15:17:44.585407  2920 net.cpp:399] label_data_1_split -> label_data_1_split_3
I0403 15:17:44.585427  2920 net.cpp:399] label_data_1_split -> label_data_1_split_4
I0403 15:17:44.585448  2920 net.cpp:399] label_data_1_split -> label_data_1_split_5
I0403 15:17:44.585479  2920 net.cpp:399] label_data_1_split -> label_data_1_split_6
I0403 15:17:44.585501  2920 net.cpp:399] label_data_1_split -> label_data_1_split_7
I0403 15:17:44.585522  2920 net.cpp:399] label_data_1_split -> label_data_1_split_8
I0403 15:17:44.585544  2920 net.cpp:399] label_data_1_split -> label_data_1_split_9
I0403 15:17:44.585664  2920 net.cpp:141] Setting up label_data_1_split
I0403 15:17:44.585687  2920 net.cpp:148] Top shape: 24 (24)
I0403 15:17:44.585705  2920 net.cpp:148] Top shape: 24 (24)
I0403 15:17:44.585723  2920 net.cpp:148] Top shape: 24 (24)
I0403 15:17:44.585739  2920 net.cpp:148] Top shape: 24 (24)
I0403 15:17:44.585768  2920 net.cpp:148] Top shape: 24 (24)
I0403 15:17:44.585784  2920 net.cpp:148] Top shape: 24 (24)
I0403 15:17:44.585799  2920 net.cpp:148] Top shape: 24 (24)
I0403 15:17:44.585816  2920 net.cpp:148] Top shape: 24 (24)
I0403 15:17:44.585832  2920 net.cpp:148] Top shape: 24 (24)
I0403 15:17:44.585849  2920 net.cpp:148] Top shape: 24 (24)
I0403 15:17:44.585892  2920 net.cpp:156] Memory required for data: 14451744
I0403 15:17:44.585908  2920 layer_factory.hpp:77] Creating layer conv1/7x7_s2
I0403 15:17:44.585942  2920 net.cpp:91] Creating Layer conv1/7x7_s2
I0403 15:17:44.585959  2920 net.cpp:425] conv1/7x7_s2 <- data
I0403 15:17:44.585979  2920 net.cpp:399] conv1/7x7_s2 -> conv1/7x7_s2
I0403 15:17:44.729732  2920 net.cpp:141] Setting up conv1/7x7_s2
I0403 15:17:44.729822  2920 net.cpp:148] Top shape: 24 64 112 112 (19267584)
I0403 15:17:44.729843  2920 net.cpp:156] Memory required for data: 91522080
I0403 15:17:44.729877  2920 layer_factory.hpp:77] Creating layer conv1/relu_7x7
I0403 15:17:44.729907  2920 net.cpp:91] Creating Layer conv1/relu_7x7
I0403 15:17:44.729928  2920 net.cpp:425] conv1/relu_7x7 <- conv1/7x7_s2
I0403 15:17:44.729948  2920 net.cpp:386] conv1/relu_7x7 -> conv1/7x7_s2 (in-place)
I0403 15:17:44.730274  2920 net.cpp:141] Setting up conv1/relu_7x7
I0403 15:17:44.730304  2920 net.cpp:148] Top shape: 24 64 112 112 (19267584)
I0403 15:17:44.730320  2920 net.cpp:156] Memory required for data: 168592416
I0403 15:17:44.730337  2920 layer_factory.hpp:77] Creating layer pool1/3x3_s2
I0403 15:17:44.730363  2920 net.cpp:91] Creating Layer pool1/3x3_s2
I0403 15:17:44.730382  2920 net.cpp:425] pool1/3x3_s2 <- conv1/7x7_s2
I0403 15:17:44.730402  2920 net.cpp:399] pool1/3x3_s2 -> pool1/3x3_s2
I0403 15:17:44.730479  2920 net.cpp:141] Setting up pool1/3x3_s2
I0403 15:17:44.730504  2920 net.cpp:148] Top shape: 24 64 56 56 (4816896)
I0403 15:17:44.730520  2920 net.cpp:156] Memory required for data: 187860000
I0403 15:17:44.730535  2920 layer_factory.hpp:77] Creating layer pool1/norm1
I0403 15:17:44.730561  2920 net.cpp:91] Creating Layer pool1/norm1
I0403 15:17:44.730579  2920 net.cpp:425] pool1/norm1 <- pool1/3x3_s2
I0403 15:17:44.730598  2920 net.cpp:399] pool1/norm1 -> pool1/norm1
I0403 15:17:44.730898  2920 net.cpp:141] Setting up pool1/norm1
I0403 15:17:44.730927  2920 net.cpp:148] Top shape: 24 64 56 56 (4816896)
I0403 15:17:44.730944  2920 net.cpp:156] Memory required for data: 207127584
I0403 15:17:44.730960  2920 layer_factory.hpp:77] Creating layer conv2/3x3_reduce
I0403 15:17:44.730986  2920 net.cpp:91] Creating Layer conv2/3x3_reduce
I0403 15:17:44.731003  2920 net.cpp:425] conv2/3x3_reduce <- pool1/norm1
I0403 15:17:44.731024  2920 net.cpp:399] conv2/3x3_reduce -> conv2/3x3_reduce
I0403 15:17:44.732462  2920 net.cpp:141] Setting up conv2/3x3_reduce
I0403 15:17:44.732494  2920 net.cpp:148] Top shape: 24 64 56 56 (4816896)
I0403 15:17:44.732512  2920 net.cpp:156] Memory required for data: 226395168
I0403 15:17:44.732537  2920 layer_factory.hpp:77] Creating layer conv2/relu_3x3_reduce
I0403 15:17:44.732558  2920 net.cpp:91] Creating Layer conv2/relu_3x3_reduce
I0403 15:17:44.732575  2920 net.cpp:425] conv2/relu_3x3_reduce <- conv2/3x3_reduce
I0403 15:17:44.732594  2920 net.cpp:386] conv2/relu_3x3_reduce -> conv2/3x3_reduce (in-place)
I0403 15:17:44.732859  2920 net.cpp:141] Setting up conv2/relu_3x3_reduce
I0403 15:17:44.732887  2920 net.cpp:148] Top shape: 24 64 56 56 (4816896)
I0403 15:17:44.732904  2920 net.cpp:156] Memory required for data: 245662752
I0403 15:17:44.732920  2920 layer_factory.hpp:77] Creating layer conv2/3x3
I0403 15:17:44.732944  2920 net.cpp:91] Creating Layer conv2/3x3
I0403 15:17:44.732962  2920 net.cpp:425] conv2/3x3 <- conv2/3x3_reduce
I0403 15:17:44.732981  2920 net.cpp:399] conv2/3x3 -> conv2/3x3
I0403 15:17:44.735389  2920 net.cpp:141] Setting up conv2/3x3
I0403 15:17:44.735424  2920 net.cpp:148] Top shape: 24 192 56 56 (14450688)
I0403 15:17:44.735442  2920 net.cpp:156] Memory required for data: 303465504
I0403 15:17:44.735466  2920 layer_factory.hpp:77] Creating layer conv2/relu_3x3
I0403 15:17:44.735487  2920 net.cpp:91] Creating Layer conv2/relu_3x3
I0403 15:17:44.735505  2920 net.cpp:425] conv2/relu_3x3 <- conv2/3x3
I0403 15:17:44.735524  2920 net.cpp:386] conv2/relu_3x3 -> conv2/3x3 (in-place)
I0403 15:17:44.735694  2920 net.cpp:141] Setting up conv2/relu_3x3
I0403 15:17:44.735721  2920 net.cpp:148] Top shape: 24 192 56 56 (14450688)
I0403 15:17:44.735770  2920 net.cpp:156] Memory required for data: 361268256
I0403 15:17:44.735787  2920 layer_factory.hpp:77] Creating layer conv2/norm2
I0403 15:17:44.735807  2920 net.cpp:91] Creating Layer conv2/norm2
I0403 15:17:44.735824  2920 net.cpp:425] conv2/norm2 <- conv2/3x3
I0403 15:17:44.735844  2920 net.cpp:399] conv2/norm2 -> conv2/norm2
I0403 15:17:44.736143  2920 net.cpp:141] Setting up conv2/norm2
I0403 15:17:44.736171  2920 net.cpp:148] Top shape: 24 192 56 56 (14450688)
I0403 15:17:44.736191  2920 net.cpp:156] Memory required for data: 419071008
I0403 15:17:44.736207  2920 layer_factory.hpp:77] Creating layer pool2/3x3_s2
I0403 15:17:44.736225  2920 net.cpp:91] Creating Layer pool2/3x3_s2
I0403 15:17:44.736248  2920 net.cpp:425] pool2/3x3_s2 <- conv2/norm2
I0403 15:17:44.736268  2920 net.cpp:399] pool2/3x3_s2 -> pool2/3x3_s2
I0403 15:17:44.736321  2920 net.cpp:141] Setting up pool2/3x3_s2
I0403 15:17:44.736346  2920 net.cpp:148] Top shape: 24 192 28 28 (3612672)
I0403 15:17:44.736362  2920 net.cpp:156] Memory required for data: 433521696
I0403 15:17:44.736377  2920 layer_factory.hpp:77] Creating layer pool2/3x3_s2_pool2/3x3_s2_0_split
I0403 15:17:44.736397  2920 net.cpp:91] Creating Layer pool2/3x3_s2_pool2/3x3_s2_0_split
I0403 15:17:44.736413  2920 net.cpp:425] pool2/3x3_s2_pool2/3x3_s2_0_split <- pool2/3x3_s2
I0403 15:17:44.736433  2920 net.cpp:399] pool2/3x3_s2_pool2/3x3_s2_0_split -> pool2/3x3_s2_pool2/3x3_s2_0_split_0
I0403 15:17:44.736454  2920 net.cpp:399] pool2/3x3_s2_pool2/3x3_s2_0_split -> pool2/3x3_s2_pool2/3x3_s2_0_split_1
I0403 15:17:44.736474  2920 net.cpp:399] pool2/3x3_s2_pool2/3x3_s2_0_split -> pool2/3x3_s2_pool2/3x3_s2_0_split_2
I0403 15:17:44.736495  2920 net.cpp:399] pool2/3x3_s2_pool2/3x3_s2_0_split -> pool2/3x3_s2_pool2/3x3_s2_0_split_3
I0403 15:17:44.736562  2920 net.cpp:141] Setting up pool2/3x3_s2_pool2/3x3_s2_0_split
I0403 15:17:44.736585  2920 net.cpp:148] Top shape: 24 192 28 28 (3612672)
I0403 15:17:44.736603  2920 net.cpp:148] Top shape: 24 192 28 28 (3612672)
I0403 15:17:44.736621  2920 net.cpp:148] Top shape: 24 192 28 28 (3612672)
I0403 15:17:44.736639  2920 net.cpp:148] Top shape: 24 192 28 28 (3612672)
I0403 15:17:44.736654  2920 net.cpp:156] Memory required for data: 491324448
I0403 15:17:44.736670  2920 layer_factory.hpp:77] Creating layer inception_3a/1x1
I0403 15:17:44.736691  2920 net.cpp:91] Creating Layer inception_3a/1x1
I0403 15:17:44.736709  2920 net.cpp:425] inception_3a/1x1 <- pool2/3x3_s2_pool2/3x3_s2_0_split_0
I0403 15:17:44.736729  2920 net.cpp:399] inception_3a/1x1 -> inception_3a/1x1
I0403 15:17:44.738368  2920 net.cpp:141] Setting up inception_3a/1x1
I0403 15:17:44.738401  2920 net.cpp:148] Top shape: 24 64 28 28 (1204224)
I0403 15:17:44.738418  2920 net.cpp:156] Memory required for data: 496141344
I0403 15:17:44.738440  2920 layer_factory.hpp:77] Creating layer inception_3a/relu_1x1
I0403 15:17:44.738461  2920 net.cpp:91] Creating Layer inception_3a/relu_1x1
I0403 15:17:44.738479  2920 net.cpp:425] inception_3a/relu_1x1 <- inception_3a/1x1
I0403 15:17:44.738498  2920 net.cpp:386] inception_3a/relu_1x1 -> inception_3a/1x1 (in-place)
I0403 15:17:44.738667  2920 net.cpp:141] Setting up inception_3a/relu_1x1
I0403 15:17:44.738695  2920 net.cpp:148] Top shape: 24 64 28 28 (1204224)
I0403 15:17:44.738713  2920 net.cpp:156] Memory required for data: 500958240
I0403 15:17:44.738729  2920 layer_factory.hpp:77] Creating layer inception_3a/3x3_reduce
I0403 15:17:44.738751  2920 net.cpp:91] Creating Layer inception_3a/3x3_reduce
I0403 15:17:44.738768  2920 net.cpp:425] inception_3a/3x3_reduce <- pool2/3x3_s2_pool2/3x3_s2_0_split_1
I0403 15:17:44.738790  2920 net.cpp:399] inception_3a/3x3_reduce -> inception_3a/3x3_reduce
I0403 15:17:44.740531  2920 net.cpp:141] Setting up inception_3a/3x3_reduce
I0403 15:17:44.740566  2920 net.cpp:148] Top shape: 24 96 28 28 (1806336)
I0403 15:17:44.740586  2920 net.cpp:156] Memory required for data: 508183584
I0403 15:17:44.740610  2920 layer_factory.hpp:77] Creating layer inception_3a/relu_3x3_reduce
I0403 15:17:44.740649  2920 net.cpp:91] Creating Layer inception_3a/relu_3x3_reduce
I0403 15:17:44.740669  2920 net.cpp:425] inception_3a/relu_3x3_reduce <- inception_3a/3x3_reduce
I0403 15:17:44.740692  2920 net.cpp:386] inception_3a/relu_3x3_reduce -> inception_3a/3x3_reduce (in-place)
I0403 15:17:44.740885  2920 net.cpp:141] Setting up inception_3a/relu_3x3_reduce
I0403 15:17:44.740913  2920 net.cpp:148] Top shape: 24 96 28 28 (1806336)
I0403 15:17:44.740929  2920 net.cpp:156] Memory required for data: 515408928
I0403 15:17:44.740945  2920 layer_factory.hpp:77] Creating layer inception_3a/3x3
I0403 15:17:44.740970  2920 net.cpp:91] Creating Layer inception_3a/3x3
I0403 15:17:44.740990  2920 net.cpp:425] inception_3a/3x3 <- inception_3a/3x3_reduce
I0403 15:17:44.741013  2920 net.cpp:399] inception_3a/3x3 -> inception_3a/3x3
I0403 15:17:44.742769  2920 net.cpp:141] Setting up inception_3a/3x3
I0403 15:17:44.742802  2920 net.cpp:148] Top shape: 24 128 28 28 (2408448)
I0403 15:17:44.742820  2920 net.cpp:156] Memory required for data: 525042720
I0403 15:17:44.742841  2920 layer_factory.hpp:77] Creating layer inception_3a/relu_3x3
I0403 15:17:44.742861  2920 net.cpp:91] Creating Layer inception_3a/relu_3x3
I0403 15:17:44.742879  2920 net.cpp:425] inception_3a/relu_3x3 <- inception_3a/3x3
I0403 15:17:44.742900  2920 net.cpp:386] inception_3a/relu_3x3 -> inception_3a/3x3 (in-place)
I0403 15:17:44.743185  2920 net.cpp:141] Setting up inception_3a/relu_3x3
I0403 15:17:44.743214  2920 net.cpp:148] Top shape: 24 128 28 28 (2408448)
I0403 15:17:44.743230  2920 net.cpp:156] Memory required for data: 534676512
I0403 15:17:44.743252  2920 layer_factory.hpp:77] Creating layer inception_3a/5x5_reduce
I0403 15:17:44.743279  2920 net.cpp:91] Creating Layer inception_3a/5x5_reduce
I0403 15:17:44.743299  2920 net.cpp:425] inception_3a/5x5_reduce <- pool2/3x3_s2_pool2/3x3_s2_0_split_2
I0403 15:17:44.743319  2920 net.cpp:399] inception_3a/5x5_reduce -> inception_3a/5x5_reduce
I0403 15:17:44.744307  2920 net.cpp:141] Setting up inception_3a/5x5_reduce
I0403 15:17:44.744338  2920 net.cpp:148] Top shape: 24 16 28 28 (301056)
I0403 15:17:44.744354  2920 net.cpp:156] Memory required for data: 535880736
I0403 15:17:44.744375  2920 layer_factory.hpp:77] Creating layer inception_3a/relu_5x5_reduce
I0403 15:17:44.744395  2920 net.cpp:91] Creating Layer inception_3a/relu_5x5_reduce
I0403 15:17:44.744413  2920 net.cpp:425] inception_3a/relu_5x5_reduce <- inception_3a/5x5_reduce
I0403 15:17:44.744436  2920 net.cpp:386] inception_3a/relu_5x5_reduce -> inception_3a/5x5_reduce (in-place)
I0403 15:17:44.744738  2920 net.cpp:141] Setting up inception_3a/relu_5x5_reduce
I0403 15:17:44.744767  2920 net.cpp:148] Top shape: 24 16 28 28 (301056)
I0403 15:17:44.744783  2920 net.cpp:156] Memory required for data: 537084960
I0403 15:17:44.744812  2920 layer_factory.hpp:77] Creating layer inception_3a/5x5
I0403 15:17:44.744835  2920 net.cpp:91] Creating Layer inception_3a/5x5
I0403 15:17:44.744853  2920 net.cpp:425] inception_3a/5x5 <- inception_3a/5x5_reduce
I0403 15:17:44.744874  2920 net.cpp:399] inception_3a/5x5 -> inception_3a/5x5
I0403 15:17:44.745882  2920 net.cpp:141] Setting up inception_3a/5x5
I0403 15:17:44.745913  2920 net.cpp:148] Top shape: 24 32 28 28 (602112)
I0403 15:17:44.745931  2920 net.cpp:156] Memory required for data: 539493408
I0403 15:17:44.745950  2920 layer_factory.hpp:77] Creating layer inception_3a/relu_5x5
I0403 15:17:44.745970  2920 net.cpp:91] Creating Layer inception_3a/relu_5x5
I0403 15:17:44.745986  2920 net.cpp:425] inception_3a/relu_5x5 <- inception_3a/5x5
I0403 15:17:44.746006  2920 net.cpp:386] inception_3a/relu_5x5 -> inception_3a/5x5 (in-place)
I0403 15:17:44.746181  2920 net.cpp:141] Setting up inception_3a/relu_5x5
I0403 15:17:44.746206  2920 net.cpp:148] Top shape: 24 32 28 28 (602112)
I0403 15:17:44.746222  2920 net.cpp:156] Memory required for data: 541901856
I0403 15:17:44.746237  2920 layer_factory.hpp:77] Creating layer inception_3a/pool
I0403 15:17:44.746260  2920 net.cpp:91] Creating Layer inception_3a/pool
I0403 15:17:44.746294  2920 net.cpp:425] inception_3a/pool <- pool2/3x3_s2_pool2/3x3_s2_0_split_3
I0403 15:17:44.746316  2920 net.cpp:399] inception_3a/pool -> inception_3a/pool
I0403 15:17:44.746378  2920 net.cpp:141] Setting up inception_3a/pool
I0403 15:17:44.746403  2920 net.cpp:148] Top shape: 24 192 28 28 (3612672)
I0403 15:17:44.746418  2920 net.cpp:156] Memory required for data: 556352544
I0403 15:17:44.746434  2920 layer_factory.hpp:77] Creating layer inception_3a/pool_proj
I0403 15:17:44.746459  2920 net.cpp:91] Creating Layer inception_3a/pool_proj
I0403 15:17:44.746490  2920 net.cpp:425] inception_3a/pool_proj <- inception_3a/pool
I0403 15:17:44.746510  2920 net.cpp:399] inception_3a/pool_proj -> inception_3a/pool_proj
I0403 15:17:44.747484  2920 net.cpp:141] Setting up inception_3a/pool_proj
I0403 15:17:44.747512  2920 net.cpp:148] Top shape: 24 32 28 28 (602112)
I0403 15:17:44.747529  2920 net.cpp:156] Memory required for data: 558760992
I0403 15:17:44.747552  2920 layer_factory.hpp:77] Creating layer inception_3a/relu_pool_proj
I0403 15:17:44.747573  2920 net.cpp:91] Creating Layer inception_3a/relu_pool_proj
I0403 15:17:44.747591  2920 net.cpp:425] inception_3a/relu_pool_proj <- inception_3a/pool_proj
I0403 15:17:44.747611  2920 net.cpp:386] inception_3a/relu_pool_proj -> inception_3a/pool_proj (in-place)
I0403 15:17:44.747879  2920 net.cpp:141] Setting up inception_3a/relu_pool_proj
I0403 15:17:44.747908  2920 net.cpp:148] Top shape: 24 32 28 28 (602112)
I0403 15:17:44.747925  2920 net.cpp:156] Memory required for data: 561169440
I0403 15:17:44.747941  2920 layer_factory.hpp:77] Creating layer inception_3a/output
I0403 15:17:44.747958  2920 net.cpp:91] Creating Layer inception_3a/output
I0403 15:17:44.747974  2920 net.cpp:425] inception_3a/output <- inception_3a/1x1
I0403 15:17:44.747992  2920 net.cpp:425] inception_3a/output <- inception_3a/3x3
I0403 15:17:44.748008  2920 net.cpp:425] inception_3a/output <- inception_3a/5x5
I0403 15:17:44.748024  2920 net.cpp:425] inception_3a/output <- inception_3a/pool_proj
I0403 15:17:44.748044  2920 net.cpp:399] inception_3a/output -> inception_3a/output
I0403 15:17:44.748090  2920 net.cpp:141] Setting up inception_3a/output
I0403 15:17:44.748113  2920 net.cpp:148] Top shape: 24 256 28 28 (4816896)
I0403 15:17:44.748127  2920 net.cpp:156] Memory required for data: 580437024
I0403 15:17:44.748143  2920 layer_factory.hpp:77] Creating layer inception_3a/output_inception_3a/output_0_split
I0403 15:17:44.748164  2920 net.cpp:91] Creating Layer inception_3a/output_inception_3a/output_0_split
I0403 15:17:44.748183  2920 net.cpp:425] inception_3a/output_inception_3a/output_0_split <- inception_3a/output
I0403 15:17:44.748199  2920 net.cpp:399] inception_3a/output_inception_3a/output_0_split -> inception_3a/output_inception_3a/output_0_split_0
I0403 15:17:44.748219  2920 net.cpp:399] inception_3a/output_inception_3a/output_0_split -> inception_3a/output_inception_3a/output_0_split_1
I0403 15:17:44.748250  2920 net.cpp:399] inception_3a/output_inception_3a/output_0_split -> inception_3a/output_inception_3a/output_0_split_2
I0403 15:17:44.748281  2920 net.cpp:399] inception_3a/output_inception_3a/output_0_split -> inception_3a/output_inception_3a/output_0_split_3
I0403 15:17:44.748356  2920 net.cpp:141] Setting up inception_3a/output_inception_3a/output_0_split
I0403 15:17:44.748381  2920 net.cpp:148] Top shape: 24 256 28 28 (4816896)
I0403 15:17:44.748399  2920 net.cpp:148] Top shape: 24 256 28 28 (4816896)
I0403 15:17:44.748416  2920 net.cpp:148] Top shape: 24 256 28 28 (4816896)
I0403 15:17:44.748431  2920 net.cpp:148] Top shape: 24 256 28 28 (4816896)
I0403 15:17:44.748445  2920 net.cpp:156] Memory required for data: 657507360
I0403 15:17:44.748461  2920 layer_factory.hpp:77] Creating layer inception_3b/1x1
I0403 15:17:44.748482  2920 net.cpp:91] Creating Layer inception_3b/1x1
I0403 15:17:44.748500  2920 net.cpp:425] inception_3b/1x1 <- inception_3a/output_inception_3a/output_0_split_0
I0403 15:17:44.748519  2920 net.cpp:399] inception_3b/1x1 -> inception_3b/1x1
I0403 15:17:44.749645  2920 net.cpp:141] Setting up inception_3b/1x1
I0403 15:17:44.749686  2920 net.cpp:148] Top shape: 24 128 28 28 (2408448)
I0403 15:17:44.749707  2920 net.cpp:156] Memory required for data: 667141152
I0403 15:17:44.749727  2920 layer_factory.hpp:77] Creating layer inception_3b/relu_1x1
I0403 15:17:44.749747  2920 net.cpp:91] Creating Layer inception_3b/relu_1x1
I0403 15:17:44.749763  2920 net.cpp:425] inception_3b/relu_1x1 <- inception_3b/1x1
I0403 15:17:44.749780  2920 net.cpp:386] inception_3b/relu_1x1 -> inception_3b/1x1 (in-place)
I0403 15:17:44.749954  2920 net.cpp:141] Setting up inception_3b/relu_1x1
I0403 15:17:44.749981  2920 net.cpp:148] Top shape: 24 128 28 28 (2408448)
I0403 15:17:44.749999  2920 net.cpp:156] Memory required for data: 676774944
I0403 15:17:44.750013  2920 layer_factory.hpp:77] Creating layer inception_3b/3x3_reduce
I0403 15:17:44.750036  2920 net.cpp:91] Creating Layer inception_3b/3x3_reduce
I0403 15:17:44.750052  2920 net.cpp:425] inception_3b/3x3_reduce <- inception_3a/output_inception_3a/output_0_split_1
I0403 15:17:44.750072  2920 net.cpp:399] inception_3b/3x3_reduce -> inception_3b/3x3_reduce
I0403 15:17:44.751247  2920 net.cpp:141] Setting up inception_3b/3x3_reduce
I0403 15:17:44.751277  2920 net.cpp:148] Top shape: 24 128 28 28 (2408448)
I0403 15:17:44.751294  2920 net.cpp:156] Memory required for data: 686408736
I0403 15:17:44.751314  2920 layer_factory.hpp:77] Creating layer inception_3b/relu_3x3_reduce
I0403 15:17:44.751337  2920 net.cpp:91] Creating Layer inception_3b/relu_3x3_reduce
I0403 15:17:44.751356  2920 net.cpp:425] inception_3b/relu_3x3_reduce <- inception_3b/3x3_reduce
I0403 15:17:44.751374  2920 net.cpp:386] inception_3b/relu_3x3_reduce -> inception_3b/3x3_reduce (in-place)
I0403 15:17:44.751564  2920 net.cpp:141] Setting up inception_3b/relu_3x3_reduce
I0403 15:17:44.751588  2920 net.cpp:148] Top shape: 24 128 28 28 (2408448)
I0403 15:17:44.751603  2920 net.cpp:156] Memory required for data: 696042528
I0403 15:17:44.751617  2920 layer_factory.hpp:77] Creating layer inception_3b/3x3
I0403 15:17:44.751642  2920 net.cpp:91] Creating Layer inception_3b/3x3
I0403 15:17:44.751660  2920 net.cpp:425] inception_3b/3x3 <- inception_3b/3x3_reduce
I0403 15:17:44.751682  2920 net.cpp:399] inception_3b/3x3 -> inception_3b/3x3
I0403 15:17:44.754583  2920 net.cpp:141] Setting up inception_3b/3x3
I0403 15:17:44.754616  2920 net.cpp:148] Top shape: 24 192 28 28 (3612672)
I0403 15:17:44.754633  2920 net.cpp:156] Memory required for data: 710493216
I0403 15:17:44.754653  2920 layer_factory.hpp:77] Creating layer inception_3b/relu_3x3
I0403 15:17:44.754673  2920 net.cpp:91] Creating Layer inception_3b/relu_3x3
I0403 15:17:44.754689  2920 net.cpp:425] inception_3b/relu_3x3 <- inception_3b/3x3
I0403 15:17:44.754712  2920 net.cpp:386] inception_3b/relu_3x3 -> inception_3b/3x3 (in-place)
I0403 15:17:44.755000  2920 net.cpp:141] Setting up inception_3b/relu_3x3
I0403 15:17:44.755029  2920 net.cpp:148] Top shape: 24 192 28 28 (3612672)
I0403 15:17:44.755045  2920 net.cpp:156] Memory required for data: 724943904
I0403 15:17:44.755060  2920 layer_factory.hpp:77] Creating layer inception_3b/5x5_reduce
I0403 15:17:44.755084  2920 net.cpp:91] Creating Layer inception_3b/5x5_reduce
I0403 15:17:44.755101  2920 net.cpp:425] inception_3b/5x5_reduce <- inception_3a/output_inception_3a/output_0_split_2
I0403 15:17:44.755121  2920 net.cpp:399] inception_3b/5x5_reduce -> inception_3b/5x5_reduce
I0403 15:17:44.756103  2920 net.cpp:141] Setting up inception_3b/5x5_reduce
I0403 15:17:44.756134  2920 net.cpp:148] Top shape: 24 32 28 28 (602112)
I0403 15:17:44.756151  2920 net.cpp:156] Memory required for data: 727352352
I0403 15:17:44.756171  2920 layer_factory.hpp:77] Creating layer inception_3b/relu_5x5_reduce
I0403 15:17:44.756191  2920 net.cpp:91] Creating Layer inception_3b/relu_5x5_reduce
I0403 15:17:44.756211  2920 net.cpp:425] inception_3b/relu_5x5_reduce <- inception_3b/5x5_reduce
I0403 15:17:44.756230  2920 net.cpp:386] inception_3b/relu_5x5_reduce -> inception_3b/5x5_reduce (in-place)
I0403 15:17:44.756423  2920 net.cpp:141] Setting up inception_3b/relu_5x5_reduce
I0403 15:17:44.756448  2920 net.cpp:148] Top shape: 24 32 28 28 (602112)
I0403 15:17:44.756463  2920 net.cpp:156] Memory required for data: 729760800
I0403 15:17:44.756477  2920 layer_factory.hpp:77] Creating layer inception_3b/5x5
I0403 15:17:44.756500  2920 net.cpp:91] Creating Layer inception_3b/5x5
I0403 15:17:44.756517  2920 net.cpp:425] inception_3b/5x5 <- inception_3b/5x5_reduce
I0403 15:17:44.756537  2920 net.cpp:399] inception_3b/5x5 -> inception_3b/5x5
I0403 15:17:44.758564  2920 net.cpp:141] Setting up inception_3b/5x5
I0403 15:17:44.758594  2920 net.cpp:148] Top shape: 24 96 28 28 (1806336)
I0403 15:17:44.758610  2920 net.cpp:156] Memory required for data: 736986144
I0403 15:17:44.758630  2920 layer_factory.hpp:77] Creating layer inception_3b/relu_5x5
I0403 15:17:44.758651  2920 net.cpp:91] Creating Layer inception_3b/relu_5x5
I0403 15:17:44.758668  2920 net.cpp:425] inception_3b/relu_5x5 <- inception_3b/5x5
I0403 15:17:44.758687  2920 net.cpp:386] inception_3b/relu_5x5 -> inception_3b/5x5 (in-place)
I0403 15:17:44.758893  2920 net.cpp:141] Setting up inception_3b/relu_5x5
I0403 15:17:44.758919  2920 net.cpp:148] Top shape: 24 96 28 28 (1806336)
I0403 15:17:44.758934  2920 net.cpp:156] Memory required for data: 744211488
I0403 15:17:44.758949  2920 layer_factory.hpp:77] Creating layer inception_3b/pool
I0403 15:17:44.758966  2920 net.cpp:91] Creating Layer inception_3b/pool
I0403 15:17:44.758983  2920 net.cpp:425] inception_3b/pool <- inception_3a/output_inception_3a/output_0_split_3
I0403 15:17:44.759001  2920 net.cpp:399] inception_3b/pool -> inception_3b/pool
I0403 15:17:44.759057  2920 net.cpp:141] Setting up inception_3b/pool
I0403 15:17:44.759080  2920 net.cpp:148] Top shape: 24 256 28 28 (4816896)
I0403 15:17:44.759095  2920 net.cpp:156] Memory required for data: 763479072
I0403 15:17:44.759110  2920 layer_factory.hpp:77] Creating layer inception_3b/pool_proj
I0403 15:17:44.759135  2920 net.cpp:91] Creating Layer inception_3b/pool_proj
I0403 15:17:44.759152  2920 net.cpp:425] inception_3b/pool_proj <- inception_3b/pool
I0403 15:17:44.759171  2920 net.cpp:399] inception_3b/pool_proj -> inception_3b/pool_proj
I0403 15:17:44.760213  2920 net.cpp:141] Setting up inception_3b/pool_proj
I0403 15:17:44.760246  2920 net.cpp:148] Top shape: 24 64 28 28 (1204224)
I0403 15:17:44.760265  2920 net.cpp:156] Memory required for data: 768295968
I0403 15:17:44.760283  2920 layer_factory.hpp:77] Creating layer inception_3b/relu_pool_proj
I0403 15:17:44.760304  2920 net.cpp:91] Creating Layer inception_3b/relu_pool_proj
I0403 15:17:44.760321  2920 net.cpp:425] inception_3b/relu_pool_proj <- inception_3b/pool_proj
I0403 15:17:44.760340  2920 net.cpp:386] inception_3b/relu_pool_proj -> inception_3b/pool_proj (in-place)
I0403 15:17:44.760751  2920 net.cpp:141] Setting up inception_3b/relu_pool_proj
I0403 15:17:44.760777  2920 net.cpp:148] Top shape: 24 64 28 28 (1204224)
I0403 15:17:44.760792  2920 net.cpp:156] Memory required for data: 773112864
I0403 15:17:44.760807  2920 layer_factory.hpp:77] Creating layer inception_3b/output
I0403 15:17:44.760825  2920 net.cpp:91] Creating Layer inception_3b/output
I0403 15:17:44.760841  2920 net.cpp:425] inception_3b/output <- inception_3b/1x1
I0403 15:17:44.760859  2920 net.cpp:425] inception_3b/output <- inception_3b/3x3
I0403 15:17:44.760875  2920 net.cpp:425] inception_3b/output <- inception_3b/5x5
I0403 15:17:44.760891  2920 net.cpp:425] inception_3b/output <- inception_3b/pool_proj
I0403 15:17:44.760911  2920 net.cpp:399] inception_3b/output -> inception_3b/output
I0403 15:17:44.760954  2920 net.cpp:141] Setting up inception_3b/output
I0403 15:17:44.760979  2920 net.cpp:148] Top shape: 24 480 28 28 (9031680)
I0403 15:17:44.760995  2920 net.cpp:156] Memory required for data: 809239584
I0403 15:17:44.761010  2920 layer_factory.hpp:77] Creating layer pool3/3x3_s2
I0403 15:17:44.761028  2920 net.cpp:91] Creating Layer pool3/3x3_s2
I0403 15:17:44.761044  2920 net.cpp:425] pool3/3x3_s2 <- inception_3b/output
I0403 15:17:44.761078  2920 net.cpp:399] pool3/3x3_s2 -> pool3/3x3_s2
I0403 15:17:44.761137  2920 net.cpp:141] Setting up pool3/3x3_s2
I0403 15:17:44.761160  2920 net.cpp:148] Top shape: 24 480 14 14 (2257920)
I0403 15:17:44.761175  2920 net.cpp:156] Memory required for data: 818271264
I0403 15:17:44.761190  2920 layer_factory.hpp:77] Creating layer pool3/3x3_s2_pool3/3x3_s2_0_split
I0403 15:17:44.761209  2920 net.cpp:91] Creating Layer pool3/3x3_s2_pool3/3x3_s2_0_split
I0403 15:17:44.761226  2920 net.cpp:425] pool3/3x3_s2_pool3/3x3_s2_0_split <- pool3/3x3_s2
I0403 15:17:44.761247  2920 net.cpp:399] pool3/3x3_s2_pool3/3x3_s2_0_split -> pool3/3x3_s2_pool3/3x3_s2_0_split_0
I0403 15:17:44.761270  2920 net.cpp:399] pool3/3x3_s2_pool3/3x3_s2_0_split -> pool3/3x3_s2_pool3/3x3_s2_0_split_1
I0403 15:17:44.761289  2920 net.cpp:399] pool3/3x3_s2_pool3/3x3_s2_0_split -> pool3/3x3_s2_pool3/3x3_s2_0_split_2
I0403 15:17:44.761309  2920 net.cpp:399] pool3/3x3_s2_pool3/3x3_s2_0_split -> pool3/3x3_s2_pool3/3x3_s2_0_split_3
I0403 15:17:44.761385  2920 net.cpp:141] Setting up pool3/3x3_s2_pool3/3x3_s2_0_split
I0403 15:17:44.761409  2920 net.cpp:148] Top shape: 24 480 14 14 (2257920)
I0403 15:17:44.761425  2920 net.cpp:148] Top shape: 24 480 14 14 (2257920)
I0403 15:17:44.761441  2920 net.cpp:148] Top shape: 24 480 14 14 (2257920)
I0403 15:17:44.761457  2920 net.cpp:148] Top shape: 24 480 14 14 (2257920)
I0403 15:17:44.761471  2920 net.cpp:156] Memory required for data: 854397984
I0403 15:17:44.761485  2920 layer_factory.hpp:77] Creating layer inception_4a/1x1
I0403 15:17:44.761508  2920 net.cpp:91] Creating Layer inception_4a/1x1
I0403 15:17:44.761526  2920 net.cpp:425] inception_4a/1x1 <- pool3/3x3_s2_pool3/3x3_s2_0_split_0
I0403 15:17:44.761548  2920 net.cpp:399] inception_4a/1x1 -> inception_4a/1x1
I0403 15:17:44.763140  2920 net.cpp:141] Setting up inception_4a/1x1
I0403 15:17:44.763170  2920 net.cpp:148] Top shape: 24 192 14 14 (903168)
I0403 15:17:44.763190  2920 net.cpp:156] Memory required for data: 858010656
I0403 15:17:44.763208  2920 layer_factory.hpp:77] Creating layer inception_4a/relu_1x1
I0403 15:17:44.763229  2920 net.cpp:91] Creating Layer inception_4a/relu_1x1
I0403 15:17:44.763252  2920 net.cpp:425] inception_4a/relu_1x1 <- inception_4a/1x1
I0403 15:17:44.763273  2920 net.cpp:386] inception_4a/relu_1x1 -> inception_4a/1x1 (in-place)
I0403 15:17:44.763445  2920 net.cpp:141] Setting up inception_4a/relu_1x1
I0403 15:17:44.763475  2920 net.cpp:148] Top shape: 24 192 14 14 (903168)
I0403 15:17:44.763492  2920 net.cpp:156] Memory required for data: 861623328
I0403 15:17:44.763509  2920 layer_factory.hpp:77] Creating layer inception_4a/3x3_reduce
I0403 15:17:44.763531  2920 net.cpp:91] Creating Layer inception_4a/3x3_reduce
I0403 15:17:44.763550  2920 net.cpp:425] inception_4a/3x3_reduce <- pool3/3x3_s2_pool3/3x3_s2_0_split_1
I0403 15:17:44.763569  2920 net.cpp:399] inception_4a/3x3_reduce -> inception_4a/3x3_reduce
I0403 15:17:44.764837  2920 net.cpp:141] Setting up inception_4a/3x3_reduce
I0403 15:17:44.764864  2920 net.cpp:148] Top shape: 24 96 14 14 (451584)
I0403 15:17:44.764880  2920 net.cpp:156] Memory required for data: 863429664
I0403 15:17:44.764906  2920 layer_factory.hpp:77] Creating layer inception_4a/relu_3x3_reduce
I0403 15:17:44.764927  2920 net.cpp:91] Creating Layer inception_4a/relu_3x3_reduce
I0403 15:17:44.764945  2920 net.cpp:425] inception_4a/relu_3x3_reduce <- inception_4a/3x3_reduce
I0403 15:17:44.764966  2920 net.cpp:386] inception_4a/relu_3x3_reduce -> inception_4a/3x3_reduce (in-place)
I0403 15:17:44.765147  2920 net.cpp:141] Setting up inception_4a/relu_3x3_reduce
I0403 15:17:44.765172  2920 net.cpp:148] Top shape: 24 96 14 14 (451584)
I0403 15:17:44.765189  2920 net.cpp:156] Memory required for data: 865236000
I0403 15:17:44.765204  2920 layer_factory.hpp:77] Creating layer inception_4a/3x3
I0403 15:17:44.765226  2920 net.cpp:91] Creating Layer inception_4a/3x3
I0403 15:17:44.765249  2920 net.cpp:425] inception_4a/3x3 <- inception_4a/3x3_reduce
I0403 15:17:44.765271  2920 net.cpp:399] inception_4a/3x3 -> inception_4a/3x3
I0403 15:17:44.767998  2920 net.cpp:141] Setting up inception_4a/3x3
I0403 15:17:44.768028  2920 net.cpp:148] Top shape: 24 208 14 14 (978432)
I0403 15:17:44.768044  2920 net.cpp:156] Memory required for data: 869149728
I0403 15:17:44.768064  2920 layer_factory.hpp:77] Creating layer inception_4a/relu_3x3
I0403 15:17:44.768085  2920 net.cpp:91] Creating Layer inception_4a/relu_3x3
I0403 15:17:44.768102  2920 net.cpp:425] inception_4a/relu_3x3 <- inception_4a/3x3
I0403 15:17:44.768121  2920 net.cpp:386] inception_4a/relu_3x3 -> inception_4a/3x3 (in-place)
I0403 15:17:44.768400  2920 net.cpp:141] Setting up inception_4a/relu_3x3
I0403 15:17:44.768427  2920 net.cpp:148] Top shape: 24 208 14 14 (978432)
I0403 15:17:44.768442  2920 net.cpp:156] Memory required for data: 873063456
I0403 15:17:44.768458  2920 layer_factory.hpp:77] Creating layer inception_4a/5x5_reduce
I0403 15:17:44.768486  2920 net.cpp:91] Creating Layer inception_4a/5x5_reduce
I0403 15:17:44.768503  2920 net.cpp:425] inception_4a/5x5_reduce <- pool3/3x3_s2_pool3/3x3_s2_0_split_2
I0403 15:17:44.768523  2920 net.cpp:399] inception_4a/5x5_reduce -> inception_4a/5x5_reduce
I0403 15:17:44.769552  2920 net.cpp:141] Setting up inception_4a/5x5_reduce
I0403 15:17:44.769584  2920 net.cpp:148] Top shape: 24 16 14 14 (75264)
I0403 15:17:44.769603  2920 net.cpp:156] Memory required for data: 873364512
I0403 15:17:44.769623  2920 layer_factory.hpp:77] Creating layer inception_4a/relu_5x5_reduce
I0403 15:17:44.769641  2920 net.cpp:91] Creating Layer inception_4a/relu_5x5_reduce
I0403 15:17:44.769659  2920 net.cpp:425] inception_4a/relu_5x5_reduce <- inception_4a/5x5_reduce
I0403 15:17:44.769680  2920 net.cpp:386] inception_4a/relu_5x5_reduce -> inception_4a/5x5_reduce (in-place)
I0403 15:17:44.769870  2920 net.cpp:141] Setting up inception_4a/relu_5x5_reduce
I0403 15:17:44.769896  2920 net.cpp:148] Top shape: 24 16 14 14 (75264)
I0403 15:17:44.769911  2920 net.cpp:156] Memory required for data: 873665568
I0403 15:17:44.769925  2920 layer_factory.hpp:77] Creating layer inception_4a/5x5
I0403 15:17:44.769948  2920 net.cpp:91] Creating Layer inception_4a/5x5
I0403 15:17:44.769965  2920 net.cpp:425] inception_4a/5x5 <- inception_4a/5x5_reduce
I0403 15:17:44.769986  2920 net.cpp:399] inception_4a/5x5 -> inception_4a/5x5
I0403 15:17:44.771098  2920 net.cpp:141] Setting up inception_4a/5x5
I0403 15:17:44.771127  2920 net.cpp:148] Top shape: 24 48 14 14 (225792)
I0403 15:17:44.771143  2920 net.cpp:156] Memory required for data: 874568736
I0403 15:17:44.771162  2920 layer_factory.hpp:77] Creating layer inception_4a/relu_5x5
I0403 15:17:44.771183  2920 net.cpp:91] Creating Layer inception_4a/relu_5x5
I0403 15:17:44.771201  2920 net.cpp:425] inception_4a/relu_5x5 <- inception_4a/5x5
I0403 15:17:44.771219  2920 net.cpp:386] inception_4a/relu_5x5 -> inception_4a/5x5 (in-place)
I0403 15:17:44.771401  2920 net.cpp:141] Setting up inception_4a/relu_5x5
I0403 15:17:44.771426  2920 net.cpp:148] Top shape: 24 48 14 14 (225792)
I0403 15:17:44.771442  2920 net.cpp:156] Memory required for data: 875471904
I0403 15:17:44.771457  2920 layer_factory.hpp:77] Creating layer inception_4a/pool
I0403 15:17:44.771477  2920 net.cpp:91] Creating Layer inception_4a/pool
I0403 15:17:44.771494  2920 net.cpp:425] inception_4a/pool <- pool3/3x3_s2_pool3/3x3_s2_0_split_3
I0403 15:17:44.771513  2920 net.cpp:399] inception_4a/pool -> inception_4a/pool
I0403 15:17:44.771576  2920 net.cpp:141] Setting up inception_4a/pool
I0403 15:17:44.771600  2920 net.cpp:148] Top shape: 24 480 14 14 (2257920)
I0403 15:17:44.771615  2920 net.cpp:156] Memory required for data: 884503584
I0403 15:17:44.771631  2920 layer_factory.hpp:77] Creating layer inception_4a/pool_proj
I0403 15:17:44.771652  2920 net.cpp:91] Creating Layer inception_4a/pool_proj
I0403 15:17:44.771669  2920 net.cpp:425] inception_4a/pool_proj <- inception_4a/pool
I0403 15:17:44.771692  2920 net.cpp:399] inception_4a/pool_proj -> inception_4a/pool_proj
I0403 15:17:44.772861  2920 net.cpp:141] Setting up inception_4a/pool_proj
I0403 15:17:44.772889  2920 net.cpp:148] Top shape: 24 64 14 14 (301056)
I0403 15:17:44.772919  2920 net.cpp:156] Memory required for data: 885707808
I0403 15:17:44.772939  2920 layer_factory.hpp:77] Creating layer inception_4a/relu_pool_proj
I0403 15:17:44.772961  2920 net.cpp:91] Creating Layer inception_4a/relu_pool_proj
I0403 15:17:44.772979  2920 net.cpp:425] inception_4a/relu_pool_proj <- inception_4a/pool_proj
I0403 15:17:44.772996  2920 net.cpp:386] inception_4a/relu_pool_proj -> inception_4a/pool_proj (in-place)
I0403 15:17:44.773283  2920 net.cpp:141] Setting up inception_4a/relu_pool_proj
I0403 15:17:44.773308  2920 net.cpp:148] Top shape: 24 64 14 14 (301056)
I0403 15:17:44.773324  2920 net.cpp:156] Memory required for data: 886912032
I0403 15:17:44.773339  2920 layer_factory.hpp:77] Creating layer inception_4a/output
I0403 15:17:44.773358  2920 net.cpp:91] Creating Layer inception_4a/output
I0403 15:17:44.773375  2920 net.cpp:425] inception_4a/output <- inception_4a/1x1
I0403 15:17:44.773393  2920 net.cpp:425] inception_4a/output <- inception_4a/3x3
I0403 15:17:44.773411  2920 net.cpp:425] inception_4a/output <- inception_4a/5x5
I0403 15:17:44.773427  2920 net.cpp:425] inception_4a/output <- inception_4a/pool_proj
I0403 15:17:44.773443  2920 net.cpp:399] inception_4a/output -> inception_4a/output
I0403 15:17:44.773488  2920 net.cpp:141] Setting up inception_4a/output
I0403 15:17:44.773514  2920 net.cpp:148] Top shape: 24 512 14 14 (2408448)
I0403 15:17:44.773530  2920 net.cpp:156] Memory required for data: 896545824
I0403 15:17:44.773545  2920 layer_factory.hpp:77] Creating layer inception_4a/output_inception_4a/output_0_split
I0403 15:17:44.773561  2920 net.cpp:91] Creating Layer inception_4a/output_inception_4a/output_0_split
I0403 15:17:44.773577  2920 net.cpp:425] inception_4a/output_inception_4a/output_0_split <- inception_4a/output
I0403 15:17:44.773597  2920 net.cpp:399] inception_4a/output_inception_4a/output_0_split -> inception_4a/output_inception_4a/output_0_split_0
I0403 15:17:44.773619  2920 net.cpp:399] inception_4a/output_inception_4a/output_0_split -> inception_4a/output_inception_4a/output_0_split_1
I0403 15:17:44.773640  2920 net.cpp:399] inception_4a/output_inception_4a/output_0_split -> inception_4a/output_inception_4a/output_0_split_2
I0403 15:17:44.773661  2920 net.cpp:399] inception_4a/output_inception_4a/output_0_split -> inception_4a/output_inception_4a/output_0_split_3
I0403 15:17:44.773682  2920 net.cpp:399] inception_4a/output_inception_4a/output_0_split -> inception_4a/output_inception_4a/output_0_split_4
I0403 15:17:44.773773  2920 net.cpp:141] Setting up inception_4a/output_inception_4a/output_0_split
I0403 15:17:44.773797  2920 net.cpp:148] Top shape: 24 512 14 14 (2408448)
I0403 15:17:44.773815  2920 net.cpp:148] Top shape: 24 512 14 14 (2408448)
I0403 15:17:44.773833  2920 net.cpp:148] Top shape: 24 512 14 14 (2408448)
I0403 15:17:44.773849  2920 net.cpp:148] Top shape: 24 512 14 14 (2408448)
I0403 15:17:44.773865  2920 net.cpp:148] Top shape: 24 512 14 14 (2408448)
I0403 15:17:44.773880  2920 net.cpp:156] Memory required for data: 944714784
I0403 15:17:44.773893  2920 layer_factory.hpp:77] Creating layer loss1/ave_pool
I0403 15:17:44.773911  2920 net.cpp:91] Creating Layer loss1/ave_pool
I0403 15:17:44.773927  2920 net.cpp:425] loss1/ave_pool <- inception_4a/output_inception_4a/output_0_split_0
I0403 15:17:44.773948  2920 net.cpp:399] loss1/ave_pool -> loss1/ave_pool
I0403 15:17:44.774155  2920 net.cpp:141] Setting up loss1/ave_pool
I0403 15:17:44.774181  2920 net.cpp:148] Top shape: 24 512 4 4 (196608)
I0403 15:17:44.774196  2920 net.cpp:156] Memory required for data: 945501216
I0403 15:17:44.774211  2920 layer_factory.hpp:77] Creating layer loss1/conv
I0403 15:17:44.774233  2920 net.cpp:91] Creating Layer loss1/conv
I0403 15:17:44.774256  2920 net.cpp:425] loss1/conv <- loss1/ave_pool
I0403 15:17:44.774278  2920 net.cpp:399] loss1/conv -> loss1/conv
I0403 15:17:44.775717  2920 net.cpp:141] Setting up loss1/conv
I0403 15:17:44.775748  2920 net.cpp:148] Top shape: 24 128 4 4 (49152)
I0403 15:17:44.775780  2920 net.cpp:156] Memory required for data: 945697824
I0403 15:17:44.775801  2920 layer_factory.hpp:77] Creating layer loss1/relu_conv
I0403 15:17:44.775823  2920 net.cpp:91] Creating Layer loss1/relu_conv
I0403 15:17:44.775840  2920 net.cpp:425] loss1/relu_conv <- loss1/conv
I0403 15:17:44.775858  2920 net.cpp:386] loss1/relu_conv -> loss1/conv (in-place)
I0403 15:17:44.776140  2920 net.cpp:141] Setting up loss1/relu_conv
I0403 15:17:44.776166  2920 net.cpp:148] Top shape: 24 128 4 4 (49152)
I0403 15:17:44.776183  2920 net.cpp:156] Memory required for data: 945894432
I0403 15:17:44.776199  2920 layer_factory.hpp:77] Creating layer loss1/fc
I0403 15:17:44.776224  2920 net.cpp:91] Creating Layer loss1/fc
I0403 15:17:44.776247  2920 net.cpp:425] loss1/fc <- loss1/conv
I0403 15:17:44.776270  2920 net.cpp:399] loss1/fc -> loss1/fc
I0403 15:17:44.794497  2920 net.cpp:141] Setting up loss1/fc
I0403 15:17:44.794528  2920 net.cpp:148] Top shape: 24 1024 (24576)
I0403 15:17:44.794546  2920 net.cpp:156] Memory required for data: 945992736
I0403 15:17:44.794567  2920 layer_factory.hpp:77] Creating layer loss1/relu_fc
I0403 15:17:44.794587  2920 net.cpp:91] Creating Layer loss1/relu_fc
I0403 15:17:44.794605  2920 net.cpp:425] loss1/relu_fc <- loss1/fc
I0403 15:17:44.794625  2920 net.cpp:386] loss1/relu_fc -> loss1/fc (in-place)
I0403 15:17:44.794821  2920 net.cpp:141] Setting up loss1/relu_fc
I0403 15:17:44.794850  2920 net.cpp:148] Top shape: 24 1024 (24576)
I0403 15:17:44.794867  2920 net.cpp:156] Memory required for data: 946091040
I0403 15:17:44.794883  2920 layer_factory.hpp:77] Creating layer loss1/drop_fc
I0403 15:17:44.794911  2920 net.cpp:91] Creating Layer loss1/drop_fc
I0403 15:17:44.794930  2920 net.cpp:425] loss1/drop_fc <- loss1/fc
I0403 15:17:44.794950  2920 net.cpp:386] loss1/drop_fc -> loss1/fc (in-place)
I0403 15:17:44.795006  2920 net.cpp:141] Setting up loss1/drop_fc
I0403 15:17:44.795030  2920 net.cpp:148] Top shape: 24 1024 (24576)
I0403 15:17:44.795047  2920 net.cpp:156] Memory required for data: 946189344
I0403 15:17:44.795064  2920 layer_factory.hpp:77] Creating layer loss1/classifier_plantvillage
I0403 15:17:44.795083  2920 net.cpp:91] Creating Layer loss1/classifier_plantvillage
I0403 15:17:44.795101  2920 net.cpp:425] loss1/classifier_plantvillage <- loss1/fc
I0403 15:17:44.795125  2920 net.cpp:399] loss1/classifier_plantvillage -> loss1/classifier_plantvillage
I0403 15:17:44.796089  2920 net.cpp:141] Setting up loss1/classifier_plantvillage
I0403 15:17:44.796120  2920 net.cpp:148] Top shape: 24 38 (912)
I0403 15:17:44.796139  2920 net.cpp:156] Memory required for data: 946192992
I0403 15:17:44.796160  2920 layer_factory.hpp:77] Creating layer loss1/classifier_plantvillage_loss1/classifier_plantvillage_0_split
I0403 15:17:44.796183  2920 net.cpp:91] Creating Layer loss1/classifier_plantvillage_loss1/classifier_plantvillage_0_split
I0403 15:17:44.796203  2920 net.cpp:425] loss1/classifier_plantvillage_loss1/classifier_plantvillage_0_split <- loss1/classifier_plantvillage
I0403 15:17:44.796223  2920 net.cpp:399] loss1/classifier_plantvillage_loss1/classifier_plantvillage_0_split -> loss1/classifier_plantvillage_loss1/classifier_plantvillage_0_split_0
I0403 15:17:44.796250  2920 net.cpp:399] loss1/classifier_plantvillage_loss1/classifier_plantvillage_0_split -> loss1/classifier_plantvillage_loss1/classifier_plantvillage_0_split_1
I0403 15:17:44.796277  2920 net.cpp:399] loss1/classifier_plantvillage_loss1/classifier_plantvillage_0_split -> loss1/classifier_plantvillage_loss1/classifier_plantvillage_0_split_2
I0403 15:17:44.796351  2920 net.cpp:141] Setting up loss1/classifier_plantvillage_loss1/classifier_plantvillage_0_split
I0403 15:17:44.796377  2920 net.cpp:148] Top shape: 24 38 (912)
I0403 15:17:44.796396  2920 net.cpp:148] Top shape: 24 38 (912)
I0403 15:17:44.796413  2920 net.cpp:148] Top shape: 24 38 (912)
I0403 15:17:44.796428  2920 net.cpp:156] Memory required for data: 946203936
I0403 15:17:44.796444  2920 layer_factory.hpp:77] Creating layer inception_4b/1x1
I0403 15:17:44.796468  2920 net.cpp:91] Creating Layer inception_4b/1x1
I0403 15:17:44.796506  2920 net.cpp:425] inception_4b/1x1 <- inception_4a/output_inception_4a/output_0_split_1
I0403 15:17:44.796527  2920 net.cpp:399] inception_4b/1x1 -> inception_4b/1x1
I0403 15:17:44.798277  2920 net.cpp:141] Setting up inception_4b/1x1
I0403 15:17:44.798311  2920 net.cpp:148] Top shape: 24 160 14 14 (752640)
I0403 15:17:44.798331  2920 net.cpp:156] Memory required for data: 949214496
I0403 15:17:44.798352  2920 layer_factory.hpp:77] Creating layer inception_4b/relu_1x1
I0403 15:17:44.798372  2920 net.cpp:91] Creating Layer inception_4b/relu_1x1
I0403 15:17:44.798389  2920 net.cpp:425] inception_4b/relu_1x1 <- inception_4b/1x1
I0403 15:17:44.798410  2920 net.cpp:386] inception_4b/relu_1x1 -> inception_4b/1x1 (in-place)
I0403 15:17:44.798601  2920 net.cpp:141] Setting up inception_4b/relu_1x1
I0403 15:17:44.798629  2920 net.cpp:148] Top shape: 24 160 14 14 (752640)
I0403 15:17:44.798645  2920 net.cpp:156] Memory required for data: 952225056
I0403 15:17:44.798662  2920 layer_factory.hpp:77] Creating layer inception_4b/3x3_reduce
I0403 15:17:44.798689  2920 net.cpp:91] Creating Layer inception_4b/3x3_reduce
I0403 15:17:44.798709  2920 net.cpp:425] inception_4b/3x3_reduce <- inception_4a/output_inception_4a/output_0_split_2
I0403 15:17:44.798732  2920 net.cpp:399] inception_4b/3x3_reduce -> inception_4b/3x3_reduce
I0403 15:17:44.800164  2920 net.cpp:141] Setting up inception_4b/3x3_reduce
I0403 15:17:44.800196  2920 net.cpp:148] Top shape: 24 112 14 14 (526848)
I0403 15:17:44.800212  2920 net.cpp:156] Memory required for data: 954332448
I0403 15:17:44.800232  2920 layer_factory.hpp:77] Creating layer inception_4b/relu_3x3_reduce
I0403 15:17:44.800257  2920 net.cpp:91] Creating Layer inception_4b/relu_3x3_reduce
I0403 15:17:44.800276  2920 net.cpp:425] inception_4b/relu_3x3_reduce <- inception_4b/3x3_reduce
I0403 15:17:44.800297  2920 net.cpp:386] inception_4b/relu_3x3_reduce -> inception_4b/3x3_reduce (in-place)
I0403 15:17:44.800596  2920 net.cpp:141] Setting up inception_4b/relu_3x3_reduce
I0403 15:17:44.800624  2920 net.cpp:148] Top shape: 24 112 14 14 (526848)
I0403 15:17:44.800640  2920 net.cpp:156] Memory required for data: 956439840
I0403 15:17:44.800657  2920 layer_factory.hpp:77] Creating layer inception_4b/3x3
I0403 15:17:44.800680  2920 net.cpp:91] Creating Layer inception_4b/3x3
I0403 15:17:44.800699  2920 net.cpp:425] inception_4b/3x3 <- inception_4b/3x3_reduce
I0403 15:17:44.800722  2920 net.cpp:399] inception_4b/3x3 -> inception_4b/3x3
I0403 15:17:44.803885  2920 net.cpp:141] Setting up inception_4b/3x3
I0403 15:17:44.803918  2920 net.cpp:148] Top shape: 24 224 14 14 (1053696)
I0403 15:17:44.803936  2920 net.cpp:156] Memory required for data: 960654624
I0403 15:17:44.803957  2920 layer_factory.hpp:77] Creating layer inception_4b/relu_3x3
I0403 15:17:44.803980  2920 net.cpp:91] Creating Layer inception_4b/relu_3x3
I0403 15:17:44.804000  2920 net.cpp:425] inception_4b/relu_3x3 <- inception_4b/3x3
I0403 15:17:44.804023  2920 net.cpp:386] inception_4b/relu_3x3 -> inception_4b/3x3 (in-place)
I0403 15:17:44.804214  2920 net.cpp:141] Setting up inception_4b/relu_3x3
I0403 15:17:44.804249  2920 net.cpp:148] Top shape: 24 224 14 14 (1053696)
I0403 15:17:44.804268  2920 net.cpp:156] Memory required for data: 964869408
I0403 15:17:44.804285  2920 layer_factory.hpp:77] Creating layer inception_4b/5x5_reduce
I0403 15:17:44.804309  2920 net.cpp:91] Creating Layer inception_4b/5x5_reduce
I0403 15:17:44.804328  2920 net.cpp:425] inception_4b/5x5_reduce <- inception_4a/output_inception_4a/output_0_split_3
I0403 15:17:44.804349  2920 net.cpp:399] inception_4b/5x5_reduce -> inception_4b/5x5_reduce
I0403 15:17:44.805512  2920 net.cpp:141] Setting up inception_4b/5x5_reduce
I0403 15:17:44.805544  2920 net.cpp:148] Top shape: 24 24 14 14 (112896)
I0403 15:17:44.805562  2920 net.cpp:156] Memory required for data: 965320992
I0403 15:17:44.805582  2920 layer_factory.hpp:77] Creating layer inception_4b/relu_5x5_reduce
I0403 15:17:44.805603  2920 net.cpp:91] Creating Layer inception_4b/relu_5x5_reduce
I0403 15:17:44.805635  2920 net.cpp:425] inception_4b/relu_5x5_reduce <- inception_4b/5x5_reduce
I0403 15:17:44.805657  2920 net.cpp:386] inception_4b/relu_5x5_reduce -> inception_4b/5x5_reduce (in-place)
I0403 15:17:44.805855  2920 net.cpp:141] Setting up inception_4b/relu_5x5_reduce
I0403 15:17:44.805882  2920 net.cpp:148] Top shape: 24 24 14 14 (112896)
I0403 15:17:44.805898  2920 net.cpp:156] Memory required for data: 965772576
I0403 15:17:44.805914  2920 layer_factory.hpp:77] Creating layer inception_4b/5x5
I0403 15:17:44.805938  2920 net.cpp:91] Creating Layer inception_4b/5x5
I0403 15:17:44.805958  2920 net.cpp:425] inception_4b/5x5 <- inception_4b/5x5_reduce
I0403 15:17:44.805979  2920 net.cpp:399] inception_4b/5x5 -> inception_4b/5x5
I0403 15:17:44.807288  2920 net.cpp:141] Setting up inception_4b/5x5
I0403 15:17:44.807322  2920 net.cpp:148] Top shape: 24 64 14 14 (301056)
I0403 15:17:44.807340  2920 net.cpp:156] Memory required for data: 966976800
I0403 15:17:44.807361  2920 layer_factory.hpp:77] Creating layer inception_4b/relu_5x5
I0403 15:17:44.807382  2920 net.cpp:91] Creating Layer inception_4b/relu_5x5
I0403 15:17:44.807402  2920 net.cpp:425] inception_4b/relu_5x5 <- inception_4b/5x5
I0403 15:17:44.807423  2920 net.cpp:386] inception_4b/relu_5x5 -> inception_4b/5x5 (in-place)
I0403 15:17:44.807724  2920 net.cpp:141] Setting up inception_4b/relu_5x5
I0403 15:17:44.807756  2920 net.cpp:148] Top shape: 24 64 14 14 (301056)
I0403 15:17:44.807775  2920 net.cpp:156] Memory required for data: 968181024
I0403 15:17:44.807791  2920 layer_factory.hpp:77] Creating layer inception_4b/pool
I0403 15:17:44.807812  2920 net.cpp:91] Creating Layer inception_4b/pool
I0403 15:17:44.807831  2920 net.cpp:425] inception_4b/pool <- inception_4a/output_inception_4a/output_0_split_4
I0403 15:17:44.807853  2920 net.cpp:399] inception_4b/pool -> inception_4b/pool
I0403 15:17:44.807924  2920 net.cpp:141] Setting up inception_4b/pool
I0403 15:17:44.807948  2920 net.cpp:148] Top shape: 24 512 14 14 (2408448)
I0403 15:17:44.807965  2920 net.cpp:156] Memory required for data: 977814816
I0403 15:17:44.807981  2920 layer_factory.hpp:77] Creating layer inception_4b/pool_proj
I0403 15:17:44.808004  2920 net.cpp:91] Creating Layer inception_4b/pool_proj
I0403 15:17:44.808022  2920 net.cpp:425] inception_4b/pool_proj <- inception_4b/pool
I0403 15:17:44.808046  2920 net.cpp:399] inception_4b/pool_proj -> inception_4b/pool_proj
I0403 15:17:44.809330  2920 net.cpp:141] Setting up inception_4b/pool_proj
I0403 15:17:44.809363  2920 net.cpp:148] Top shape: 24 64 14 14 (301056)
I0403 15:17:44.809382  2920 net.cpp:156] Memory required for data: 979019040
I0403 15:17:44.809403  2920 layer_factory.hpp:77] Creating layer inception_4b/relu_pool_proj
I0403 15:17:44.809424  2920 net.cpp:91] Creating Layer inception_4b/relu_pool_proj
I0403 15:17:44.809442  2920 net.cpp:425] inception_4b/relu_pool_proj <- inception_4b/pool_proj
I0403 15:17:44.809463  2920 net.cpp:386] inception_4b/relu_pool_proj -> inception_4b/pool_proj (in-place)
I0403 15:17:44.809658  2920 net.cpp:141] Setting up inception_4b/relu_pool_proj
I0403 15:17:44.809685  2920 net.cpp:148] Top shape: 24 64 14 14 (301056)
I0403 15:17:44.809702  2920 net.cpp:156] Memory required for data: 980223264
I0403 15:17:44.809720  2920 layer_factory.hpp:77] Creating layer inception_4b/output
I0403 15:17:44.809738  2920 net.cpp:91] Creating Layer inception_4b/output
I0403 15:17:44.809757  2920 net.cpp:425] inception_4b/output <- inception_4b/1x1
I0403 15:17:44.809775  2920 net.cpp:425] inception_4b/output <- inception_4b/3x3
I0403 15:17:44.809793  2920 net.cpp:425] inception_4b/output <- inception_4b/5x5
I0403 15:17:44.809811  2920 net.cpp:425] inception_4b/output <- inception_4b/pool_proj
I0403 15:17:44.809834  2920 net.cpp:399] inception_4b/output -> inception_4b/output
I0403 15:17:44.809885  2920 net.cpp:141] Setting up inception_4b/output
I0403 15:17:44.809912  2920 net.cpp:148] Top shape: 24 512 14 14 (2408448)
I0403 15:17:44.809928  2920 net.cpp:156] Memory required for data: 989857056
I0403 15:17:44.809958  2920 layer_factory.hpp:77] Creating layer inception_4b/output_inception_4b/output_0_split
I0403 15:17:44.809978  2920 net.cpp:91] Creating Layer inception_4b/output_inception_4b/output_0_split
I0403 15:17:44.809996  2920 net.cpp:425] inception_4b/output_inception_4b/output_0_split <- inception_4b/output
I0403 15:17:44.810015  2920 net.cpp:399] inception_4b/output_inception_4b/output_0_split -> inception_4b/output_inception_4b/output_0_split_0
I0403 15:17:44.810040  2920 net.cpp:399] inception_4b/output_inception_4b/output_0_split -> inception_4b/output_inception_4b/output_0_split_1
I0403 15:17:44.810063  2920 net.cpp:399] inception_4b/output_inception_4b/output_0_split -> inception_4b/output_inception_4b/output_0_split_2
I0403 15:17:44.810084  2920 net.cpp:399] inception_4b/output_inception_4b/output_0_split -> inception_4b/output_inception_4b/output_0_split_3
I0403 15:17:44.810173  2920 net.cpp:141] Setting up inception_4b/output_inception_4b/output_0_split
I0403 15:17:44.810199  2920 net.cpp:148] Top shape: 24 512 14 14 (2408448)
I0403 15:17:44.810216  2920 net.cpp:148] Top shape: 24 512 14 14 (2408448)
I0403 15:17:44.810233  2920 net.cpp:148] Top shape: 24 512 14 14 (2408448)
I0403 15:17:44.810255  2920 net.cpp:148] Top shape: 24 512 14 14 (2408448)
I0403 15:17:44.810271  2920 net.cpp:156] Memory required for data: 1028392224
I0403 15:17:44.810286  2920 layer_factory.hpp:77] Creating layer inception_4c/1x1
I0403 15:17:44.810312  2920 net.cpp:91] Creating Layer inception_4c/1x1
I0403 15:17:44.810331  2920 net.cpp:425] inception_4c/1x1 <- inception_4b/output_inception_4b/output_0_split_0
I0403 15:17:44.810351  2920 net.cpp:399] inception_4c/1x1 -> inception_4c/1x1
I0403 15:17:44.811872  2920 net.cpp:141] Setting up inception_4c/1x1
I0403 15:17:44.811903  2920 net.cpp:148] Top shape: 24 128 14 14 (602112)
I0403 15:17:44.811921  2920 net.cpp:156] Memory required for data: 1030800672
I0403 15:17:44.811941  2920 layer_factory.hpp:77] Creating layer inception_4c/relu_1x1
I0403 15:17:44.811964  2920 net.cpp:91] Creating Layer inception_4c/relu_1x1
I0403 15:17:44.811983  2920 net.cpp:425] inception_4c/relu_1x1 <- inception_4c/1x1
I0403 15:17:44.812003  2920 net.cpp:386] inception_4c/relu_1x1 -> inception_4c/1x1 (in-place)
I0403 15:17:44.812201  2920 net.cpp:141] Setting up inception_4c/relu_1x1
I0403 15:17:44.812228  2920 net.cpp:148] Top shape: 24 128 14 14 (602112)
I0403 15:17:44.812260  2920 net.cpp:156] Memory required for data: 1033209120
I0403 15:17:44.812279  2920 layer_factory.hpp:77] Creating layer inception_4c/3x3_reduce
I0403 15:17:44.812304  2920 net.cpp:91] Creating Layer inception_4c/3x3_reduce
I0403 15:17:44.812321  2920 net.cpp:425] inception_4c/3x3_reduce <- inception_4b/output_inception_4b/output_0_split_1
I0403 15:17:44.812346  2920 net.cpp:399] inception_4c/3x3_reduce -> inception_4c/3x3_reduce
I0403 15:17:44.814409  2920 net.cpp:141] Setting up inception_4c/3x3_reduce
I0403 15:17:44.814441  2920 net.cpp:148] Top shape: 24 128 14 14 (602112)
I0403 15:17:44.814460  2920 net.cpp:156] Memory required for data: 1035617568
I0403 15:17:44.814481  2920 layer_factory.hpp:77] Creating layer inception_4c/relu_3x3_reduce
I0403 15:17:44.814501  2920 net.cpp:91] Creating Layer inception_4c/relu_3x3_reduce
I0403 15:17:44.814518  2920 net.cpp:425] inception_4c/relu_3x3_reduce <- inception_4c/3x3_reduce
I0403 15:17:44.814538  2920 net.cpp:386] inception_4c/relu_3x3_reduce -> inception_4c/3x3_reduce (in-place)
I0403 15:17:44.814847  2920 net.cpp:141] Setting up inception_4c/relu_3x3_reduce
I0403 15:17:44.814877  2920 net.cpp:148] Top shape: 24 128 14 14 (602112)
I0403 15:17:44.814893  2920 net.cpp:156] Memory required for data: 1038026016
I0403 15:17:44.814909  2920 layer_factory.hpp:77] Creating layer inception_4c/3x3
I0403 15:17:44.814934  2920 net.cpp:91] Creating Layer inception_4c/3x3
I0403 15:17:44.814954  2920 net.cpp:425] inception_4c/3x3 <- inception_4c/3x3_reduce
I0403 15:17:44.814973  2920 net.cpp:399] inception_4c/3x3 -> inception_4c/3x3
I0403 15:17:44.818701  2920 net.cpp:141] Setting up inception_4c/3x3
I0403 15:17:44.818745  2920 net.cpp:148] Top shape: 24 256 14 14 (1204224)
I0403 15:17:44.818764  2920 net.cpp:156] Memory required for data: 1042842912
I0403 15:17:44.818799  2920 layer_factory.hpp:77] Creating layer inception_4c/relu_3x3
I0403 15:17:44.818820  2920 net.cpp:91] Creating Layer inception_4c/relu_3x3
I0403 15:17:44.818837  2920 net.cpp:425] inception_4c/relu_3x3 <- inception_4c/3x3
I0403 15:17:44.818858  2920 net.cpp:386] inception_4c/relu_3x3 -> inception_4c/3x3 (in-place)
I0403 15:17:44.819039  2920 net.cpp:141] Setting up inception_4c/relu_3x3
I0403 15:17:44.819069  2920 net.cpp:148] Top shape: 24 256 14 14 (1204224)
I0403 15:17:44.819084  2920 net.cpp:156] Memory required for data: 1047659808
I0403 15:17:44.819100  2920 layer_factory.hpp:77] Creating layer inception_4c/5x5_reduce
I0403 15:17:44.819124  2920 net.cpp:91] Creating Layer inception_4c/5x5_reduce
I0403 15:17:44.819144  2920 net.cpp:425] inception_4c/5x5_reduce <- inception_4b/output_inception_4b/output_0_split_2
I0403 15:17:44.819166  2920 net.cpp:399] inception_4c/5x5_reduce -> inception_4c/5x5_reduce
I0403 15:17:44.820268  2920 net.cpp:141] Setting up inception_4c/5x5_reduce
I0403 15:17:44.820300  2920 net.cpp:148] Top shape: 24 24 14 14 (112896)
I0403 15:17:44.820317  2920 net.cpp:156] Memory required for data: 1048111392
I0403 15:17:44.820338  2920 layer_factory.hpp:77] Creating layer inception_4c/relu_5x5_reduce
I0403 15:17:44.820355  2920 net.cpp:91] Creating Layer inception_4c/relu_5x5_reduce
I0403 15:17:44.820374  2920 net.cpp:425] inception_4c/relu_5x5_reduce <- inception_4c/5x5_reduce
I0403 15:17:44.820392  2920 net.cpp:386] inception_4c/relu_5x5_reduce -> inception_4c/5x5_reduce (in-place)
I0403 15:17:44.820580  2920 net.cpp:141] Setting up inception_4c/relu_5x5_reduce
I0403 15:17:44.820605  2920 net.cpp:148] Top shape: 24 24 14 14 (112896)
I0403 15:17:44.820622  2920 net.cpp:156] Memory required for data: 1048562976
I0403 15:17:44.820638  2920 layer_factory.hpp:77] Creating layer inception_4c/5x5
I0403 15:17:44.820660  2920 net.cpp:91] Creating Layer inception_4c/5x5
I0403 15:17:44.820680  2920 net.cpp:425] inception_4c/5x5 <- inception_4c/5x5_reduce
I0403 15:17:44.820703  2920 net.cpp:399] inception_4c/5x5 -> inception_4c/5x5
I0403 15:17:44.821938  2920 net.cpp:141] Setting up inception_4c/5x5
I0403 15:17:44.821967  2920 net.cpp:148] Top shape: 24 64 14 14 (301056)
I0403 15:17:44.821984  2920 net.cpp:156] Memory required for data: 1049767200
I0403 15:17:44.822003  2920 layer_factory.hpp:77] Creating layer inception_4c/relu_5x5
I0403 15:17:44.822022  2920 net.cpp:91] Creating Layer inception_4c/relu_5x5
I0403 15:17:44.822041  2920 net.cpp:425] inception_4c/relu_5x5 <- inception_4c/5x5
I0403 15:17:44.822062  2920 net.cpp:386] inception_4c/relu_5x5 -> inception_4c/5x5 (in-place)
I0403 15:17:44.822363  2920 net.cpp:141] Setting up inception_4c/relu_5x5
I0403 15:17:44.822391  2920 net.cpp:148] Top shape: 24 64 14 14 (301056)
I0403 15:17:44.822409  2920 net.cpp:156] Memory required for data: 1050971424
I0403 15:17:44.822424  2920 layer_factory.hpp:77] Creating layer inception_4c/pool
I0403 15:17:44.822444  2920 net.cpp:91] Creating Layer inception_4c/pool
I0403 15:17:44.822461  2920 net.cpp:425] inception_4c/pool <- inception_4b/output_inception_4b/output_0_split_3
I0403 15:17:44.822482  2920 net.cpp:399] inception_4c/pool -> inception_4c/pool
I0403 15:17:44.822551  2920 net.cpp:141] Setting up inception_4c/pool
I0403 15:17:44.822574  2920 net.cpp:148] Top shape: 24 512 14 14 (2408448)
I0403 15:17:44.822589  2920 net.cpp:156] Memory required for data: 1060605216
I0403 15:17:44.822604  2920 layer_factory.hpp:77] Creating layer inception_4c/pool_proj
I0403 15:17:44.822628  2920 net.cpp:91] Creating Layer inception_4c/pool_proj
I0403 15:17:44.822646  2920 net.cpp:425] inception_4c/pool_proj <- inception_4c/pool
I0403 15:17:44.822665  2920 net.cpp:399] inception_4c/pool_proj -> inception_4c/pool_proj
I0403 15:17:44.823884  2920 net.cpp:141] Setting up inception_4c/pool_proj
I0403 15:17:44.823915  2920 net.cpp:148] Top shape: 24 64 14 14 (301056)
I0403 15:17:44.823947  2920 net.cpp:156] Memory required for data: 1061809440
I0403 15:17:44.823968  2920 layer_factory.hpp:77] Creating layer inception_4c/relu_pool_proj
I0403 15:17:44.823987  2920 net.cpp:91] Creating Layer inception_4c/relu_pool_proj
I0403 15:17:44.824005  2920 net.cpp:425] inception_4c/relu_pool_proj <- inception_4c/pool_proj
I0403 15:17:44.824025  2920 net.cpp:386] inception_4c/relu_pool_proj -> inception_4c/pool_proj (in-place)
I0403 15:17:44.824209  2920 net.cpp:141] Setting up inception_4c/relu_pool_proj
I0403 15:17:44.824235  2920 net.cpp:148] Top shape: 24 64 14 14 (301056)
I0403 15:17:44.824256  2920 net.cpp:156] Memory required for data: 1063013664
I0403 15:17:44.824273  2920 layer_factory.hpp:77] Creating layer inception_4c/output
I0403 15:17:44.824292  2920 net.cpp:91] Creating Layer inception_4c/output
I0403 15:17:44.824308  2920 net.cpp:425] inception_4c/output <- inception_4c/1x1
I0403 15:17:44.824326  2920 net.cpp:425] inception_4c/output <- inception_4c/3x3
I0403 15:17:44.824342  2920 net.cpp:425] inception_4c/output <- inception_4c/5x5
I0403 15:17:44.824357  2920 net.cpp:425] inception_4c/output <- inception_4c/pool_proj
I0403 15:17:44.824378  2920 net.cpp:399] inception_4c/output -> inception_4c/output
I0403 15:17:44.824425  2920 net.cpp:141] Setting up inception_4c/output
I0403 15:17:44.824453  2920 net.cpp:148] Top shape: 24 512 14 14 (2408448)
I0403 15:17:44.824470  2920 net.cpp:156] Memory required for data: 1072647456
I0403 15:17:44.824484  2920 layer_factory.hpp:77] Creating layer inception_4c/output_inception_4c/output_0_split
I0403 15:17:44.824502  2920 net.cpp:91] Creating Layer inception_4c/output_inception_4c/output_0_split
I0403 15:17:44.824518  2920 net.cpp:425] inception_4c/output_inception_4c/output_0_split <- inception_4c/output
I0403 15:17:44.824537  2920 net.cpp:399] inception_4c/output_inception_4c/output_0_split -> inception_4c/output_inception_4c/output_0_split_0
I0403 15:17:44.824561  2920 net.cpp:399] inception_4c/output_inception_4c/output_0_split -> inception_4c/output_inception_4c/output_0_split_1
I0403 15:17:44.824585  2920 net.cpp:399] inception_4c/output_inception_4c/output_0_split -> inception_4c/output_inception_4c/output_0_split_2
I0403 15:17:44.824606  2920 net.cpp:399] inception_4c/output_inception_4c/output_0_split -> inception_4c/output_inception_4c/output_0_split_3
I0403 15:17:44.824693  2920 net.cpp:141] Setting up inception_4c/output_inception_4c/output_0_split
I0403 15:17:44.824717  2920 net.cpp:148] Top shape: 24 512 14 14 (2408448)
I0403 15:17:44.824733  2920 net.cpp:148] Top shape: 24 512 14 14 (2408448)
I0403 15:17:44.824749  2920 net.cpp:148] Top shape: 24 512 14 14 (2408448)
I0403 15:17:44.824764  2920 net.cpp:148] Top shape: 24 512 14 14 (2408448)
I0403 15:17:44.824779  2920 net.cpp:156] Memory required for data: 1111182624
I0403 15:17:44.824792  2920 layer_factory.hpp:77] Creating layer inception_4d/1x1
I0403 15:17:44.824815  2920 net.cpp:91] Creating Layer inception_4d/1x1
I0403 15:17:44.824833  2920 net.cpp:425] inception_4d/1x1 <- inception_4c/output_inception_4c/output_0_split_0
I0403 15:17:44.824853  2920 net.cpp:399] inception_4d/1x1 -> inception_4d/1x1
I0403 15:17:44.826287  2920 net.cpp:141] Setting up inception_4d/1x1
I0403 15:17:44.826316  2920 net.cpp:148] Top shape: 24 112 14 14 (526848)
I0403 15:17:44.826333  2920 net.cpp:156] Memory required for data: 1113290016
I0403 15:17:44.826352  2920 layer_factory.hpp:77] Creating layer inception_4d/relu_1x1
I0403 15:17:44.826375  2920 net.cpp:91] Creating Layer inception_4d/relu_1x1
I0403 15:17:44.826391  2920 net.cpp:425] inception_4d/relu_1x1 <- inception_4d/1x1
I0403 15:17:44.826411  2920 net.cpp:386] inception_4d/relu_1x1 -> inception_4d/1x1 (in-place)
I0403 15:17:44.826611  2920 net.cpp:141] Setting up inception_4d/relu_1x1
I0403 15:17:44.826637  2920 net.cpp:148] Top shape: 24 112 14 14 (526848)
I0403 15:17:44.826653  2920 net.cpp:156] Memory required for data: 1115397408
I0403 15:17:44.826668  2920 layer_factory.hpp:77] Creating layer inception_4d/3x3_reduce
I0403 15:17:44.826704  2920 net.cpp:91] Creating Layer inception_4d/3x3_reduce
I0403 15:17:44.826722  2920 net.cpp:425] inception_4d/3x3_reduce <- inception_4c/output_inception_4c/output_0_split_1
I0403 15:17:44.826742  2920 net.cpp:399] inception_4d/3x3_reduce -> inception_4d/3x3_reduce
I0403 15:17:44.828259  2920 net.cpp:141] Setting up inception_4d/3x3_reduce
I0403 15:17:44.828287  2920 net.cpp:148] Top shape: 24 144 14 14 (677376)
I0403 15:17:44.828305  2920 net.cpp:156] Memory required for data: 1118106912
I0403 15:17:44.828323  2920 layer_factory.hpp:77] Creating layer inception_4d/relu_3x3_reduce
I0403 15:17:44.828346  2920 net.cpp:91] Creating Layer inception_4d/relu_3x3_reduce
I0403 15:17:44.828363  2920 net.cpp:425] inception_4d/relu_3x3_reduce <- inception_4d/3x3_reduce
I0403 15:17:44.828382  2920 net.cpp:386] inception_4d/relu_3x3_reduce -> inception_4d/3x3_reduce (in-place)
I0403 15:17:44.828675  2920 net.cpp:141] Setting up inception_4d/relu_3x3_reduce
I0403 15:17:44.828703  2920 net.cpp:148] Top shape: 24 144 14 14 (677376)
I0403 15:17:44.828718  2920 net.cpp:156] Memory required for data: 1120816416
I0403 15:17:44.828733  2920 layer_factory.hpp:77] Creating layer inception_4d/3x3
I0403 15:17:44.828755  2920 net.cpp:91] Creating Layer inception_4d/3x3
I0403 15:17:44.828773  2920 net.cpp:425] inception_4d/3x3 <- inception_4d/3x3_reduce
I0403 15:17:44.828795  2920 net.cpp:399] inception_4d/3x3 -> inception_4d/3x3
I0403 15:17:44.833075  2920 net.cpp:141] Setting up inception_4d/3x3
I0403 15:17:44.833106  2920 net.cpp:148] Top shape: 24 288 14 14 (1354752)
I0403 15:17:44.833123  2920 net.cpp:156] Memory required for data: 1126235424
I0403 15:17:44.833142  2920 layer_factory.hpp:77] Creating layer inception_4d/relu_3x3
I0403 15:17:44.833165  2920 net.cpp:91] Creating Layer inception_4d/relu_3x3
I0403 15:17:44.833184  2920 net.cpp:425] inception_4d/relu_3x3 <- inception_4d/3x3
I0403 15:17:44.833204  2920 net.cpp:386] inception_4d/relu_3x3 -> inception_4d/3x3 (in-place)
I0403 15:17:44.833412  2920 net.cpp:141] Setting up inception_4d/relu_3x3
I0403 15:17:44.833443  2920 net.cpp:148] Top shape: 24 288 14 14 (1354752)
I0403 15:17:44.833462  2920 net.cpp:156] Memory required for data: 1131654432
I0403 15:17:44.833478  2920 layer_factory.hpp:77] Creating layer inception_4d/5x5_reduce
I0403 15:17:44.833514  2920 net.cpp:91] Creating Layer inception_4d/5x5_reduce
I0403 15:17:44.833535  2920 net.cpp:425] inception_4d/5x5_reduce <- inception_4c/output_inception_4c/output_0_split_2
I0403 15:17:44.833555  2920 net.cpp:399] inception_4d/5x5_reduce -> inception_4d/5x5_reduce
I0403 15:17:44.834748  2920 net.cpp:141] Setting up inception_4d/5x5_reduce
I0403 15:17:44.834777  2920 net.cpp:148] Top shape: 24 32 14 14 (150528)
I0403 15:17:44.834794  2920 net.cpp:156] Memory required for data: 1132256544
I0403 15:17:44.834815  2920 layer_factory.hpp:77] Creating layer inception_4d/relu_5x5_reduce
I0403 15:17:44.834836  2920 net.cpp:91] Creating Layer inception_4d/relu_5x5_reduce
I0403 15:17:44.834854  2920 net.cpp:425] inception_4d/relu_5x5_reduce <- inception_4d/5x5_reduce
I0403 15:17:44.834872  2920 net.cpp:386] inception_4d/relu_5x5_reduce -> inception_4d/5x5_reduce (in-place)
I0403 15:17:44.835060  2920 net.cpp:141] Setting up inception_4d/relu_5x5_reduce
I0403 15:17:44.835089  2920 net.cpp:148] Top shape: 24 32 14 14 (150528)
I0403 15:17:44.835105  2920 net.cpp:156] Memory required for data: 1132858656
I0403 15:17:44.835121  2920 layer_factory.hpp:77] Creating layer inception_4d/5x5
I0403 15:17:44.835144  2920 net.cpp:91] Creating Layer inception_4d/5x5
I0403 15:17:44.835163  2920 net.cpp:425] inception_4d/5x5 <- inception_4d/5x5_reduce
I0403 15:17:44.835188  2920 net.cpp:399] inception_4d/5x5 -> inception_4d/5x5
I0403 15:17:44.836735  2920 net.cpp:141] Setting up inception_4d/5x5
I0403 15:17:44.836763  2920 net.cpp:148] Top shape: 24 64 14 14 (301056)
I0403 15:17:44.836781  2920 net.cpp:156] Memory required for data: 1134062880
I0403 15:17:44.836801  2920 layer_factory.hpp:77] Creating layer inception_4d/relu_5x5
I0403 15:17:44.836833  2920 net.cpp:91] Creating Layer inception_4d/relu_5x5
I0403 15:17:44.836850  2920 net.cpp:425] inception_4d/relu_5x5 <- inception_4d/5x5
I0403 15:17:44.836870  2920 net.cpp:386] inception_4d/relu_5x5 -> inception_4d/5x5 (in-place)
I0403 15:17:44.837163  2920 net.cpp:141] Setting up inception_4d/relu_5x5
I0403 15:17:44.837190  2920 net.cpp:148] Top shape: 24 64 14 14 (301056)
I0403 15:17:44.837205  2920 net.cpp:156] Memory required for data: 1135267104
I0403 15:17:44.837220  2920 layer_factory.hpp:77] Creating layer inception_4d/pool
I0403 15:17:44.837237  2920 net.cpp:91] Creating Layer inception_4d/pool
I0403 15:17:44.837258  2920 net.cpp:425] inception_4d/pool <- inception_4c/output_inception_4c/output_0_split_3
I0403 15:17:44.837280  2920 net.cpp:399] inception_4d/pool -> inception_4d/pool
I0403 15:17:44.837344  2920 net.cpp:141] Setting up inception_4d/pool
I0403 15:17:44.837368  2920 net.cpp:148] Top shape: 24 512 14 14 (2408448)
I0403 15:17:44.837381  2920 net.cpp:156] Memory required for data: 1144900896
I0403 15:17:44.837396  2920 layer_factory.hpp:77] Creating layer inception_4d/pool_proj
I0403 15:17:44.837419  2920 net.cpp:91] Creating Layer inception_4d/pool_proj
I0403 15:17:44.837436  2920 net.cpp:425] inception_4d/pool_proj <- inception_4d/pool
I0403 15:17:44.837455  2920 net.cpp:399] inception_4d/pool_proj -> inception_4d/pool_proj
I0403 15:17:44.839184  2920 net.cpp:141] Setting up inception_4d/pool_proj
I0403 15:17:44.839213  2920 net.cpp:148] Top shape: 24 64 14 14 (301056)
I0403 15:17:44.839231  2920 net.cpp:156] Memory required for data: 1146105120
I0403 15:17:44.839254  2920 layer_factory.hpp:77] Creating layer inception_4d/relu_pool_proj
I0403 15:17:44.839277  2920 net.cpp:91] Creating Layer inception_4d/relu_pool_proj
I0403 15:17:44.839293  2920 net.cpp:425] inception_4d/relu_pool_proj <- inception_4d/pool_proj
I0403 15:17:44.839310  2920 net.cpp:386] inception_4d/relu_pool_proj -> inception_4d/pool_proj (in-place)
I0403 15:17:44.839491  2920 net.cpp:141] Setting up inception_4d/relu_pool_proj
I0403 15:17:44.839519  2920 net.cpp:148] Top shape: 24 64 14 14 (301056)
I0403 15:17:44.839534  2920 net.cpp:156] Memory required for data: 1147309344
I0403 15:17:44.839548  2920 layer_factory.hpp:77] Creating layer inception_4d/output
I0403 15:17:44.839565  2920 net.cpp:91] Creating Layer inception_4d/output
I0403 15:17:44.839581  2920 net.cpp:425] inception_4d/output <- inception_4d/1x1
I0403 15:17:44.839597  2920 net.cpp:425] inception_4d/output <- inception_4d/3x3
I0403 15:17:44.839613  2920 net.cpp:425] inception_4d/output <- inception_4d/5x5
I0403 15:17:44.839629  2920 net.cpp:425] inception_4d/output <- inception_4d/pool_proj
I0403 15:17:44.839648  2920 net.cpp:399] inception_4d/output -> inception_4d/output
I0403 15:17:44.839695  2920 net.cpp:141] Setting up inception_4d/output
I0403 15:17:44.839717  2920 net.cpp:148] Top shape: 24 528 14 14 (2483712)
I0403 15:17:44.839731  2920 net.cpp:156] Memory required for data: 1157244192
I0403 15:17:44.839746  2920 layer_factory.hpp:77] Creating layer inception_4d/output_inception_4d/output_0_split
I0403 15:17:44.839766  2920 net.cpp:91] Creating Layer inception_4d/output_inception_4d/output_0_split
I0403 15:17:44.839783  2920 net.cpp:425] inception_4d/output_inception_4d/output_0_split <- inception_4d/output
I0403 15:17:44.839800  2920 net.cpp:399] inception_4d/output_inception_4d/output_0_split -> inception_4d/output_inception_4d/output_0_split_0
I0403 15:17:44.839824  2920 net.cpp:399] inception_4d/output_inception_4d/output_0_split -> inception_4d/output_inception_4d/output_0_split_1
I0403 15:17:44.839845  2920 net.cpp:399] inception_4d/output_inception_4d/output_0_split -> inception_4d/output_inception_4d/output_0_split_2
I0403 15:17:44.839866  2920 net.cpp:399] inception_4d/output_inception_4d/output_0_split -> inception_4d/output_inception_4d/output_0_split_3
I0403 15:17:44.839887  2920 net.cpp:399] inception_4d/output_inception_4d/output_0_split -> inception_4d/output_inception_4d/output_0_split_4
I0403 15:17:44.839987  2920 net.cpp:141] Setting up inception_4d/output_inception_4d/output_0_split
I0403 15:17:44.840021  2920 net.cpp:148] Top shape: 24 528 14 14 (2483712)
I0403 15:17:44.840039  2920 net.cpp:148] Top shape: 24 528 14 14 (2483712)
I0403 15:17:44.840054  2920 net.cpp:148] Top shape: 24 528 14 14 (2483712)
I0403 15:17:44.840070  2920 net.cpp:148] Top shape: 24 528 14 14 (2483712)
I0403 15:17:44.840085  2920 net.cpp:148] Top shape: 24 528 14 14 (2483712)
I0403 15:17:44.840098  2920 net.cpp:156] Memory required for data: 1206918432
I0403 15:17:44.840112  2920 layer_factory.hpp:77] Creating layer loss2/ave_pool
I0403 15:17:44.840132  2920 net.cpp:91] Creating Layer loss2/ave_pool
I0403 15:17:44.840149  2920 net.cpp:425] loss2/ave_pool <- inception_4d/output_inception_4d/output_0_split_0
I0403 15:17:44.840168  2920 net.cpp:399] loss2/ave_pool -> loss2/ave_pool
I0403 15:17:44.840477  2920 net.cpp:141] Setting up loss2/ave_pool
I0403 15:17:44.840502  2920 net.cpp:148] Top shape: 24 528 4 4 (202752)
I0403 15:17:44.840522  2920 net.cpp:156] Memory required for data: 1207729440
I0403 15:17:44.840538  2920 layer_factory.hpp:77] Creating layer loss2/conv
I0403 15:17:44.840556  2920 net.cpp:91] Creating Layer loss2/conv
I0403 15:17:44.840572  2920 net.cpp:425] loss2/conv <- loss2/ave_pool
I0403 15:17:44.840595  2920 net.cpp:399] loss2/conv -> loss2/conv
I0403 15:17:44.842464  2920 net.cpp:141] Setting up loss2/conv
I0403 15:17:44.842496  2920 net.cpp:148] Top shape: 24 128 4 4 (49152)
I0403 15:17:44.842516  2920 net.cpp:156] Memory required for data: 1207926048
I0403 15:17:44.842548  2920 layer_factory.hpp:77] Creating layer loss2/relu_conv
I0403 15:17:44.842567  2920 net.cpp:91] Creating Layer loss2/relu_conv
I0403 15:17:44.842584  2920 net.cpp:425] loss2/relu_conv <- loss2/conv
I0403 15:17:44.842604  2920 net.cpp:386] loss2/relu_conv -> loss2/conv (in-place)
I0403 15:17:44.842885  2920 net.cpp:141] Setting up loss2/relu_conv
I0403 15:17:44.842911  2920 net.cpp:148] Top shape: 24 128 4 4 (49152)
I0403 15:17:44.842926  2920 net.cpp:156] Memory required for data: 1208122656
I0403 15:17:44.842941  2920 layer_factory.hpp:77] Creating layer loss2/fc
I0403 15:17:44.842960  2920 net.cpp:91] Creating Layer loss2/fc
I0403 15:17:44.842977  2920 net.cpp:425] loss2/fc <- loss2/conv
I0403 15:17:44.842998  2920 net.cpp:399] loss2/fc -> loss2/fc
I0403 15:17:44.860620  2920 net.cpp:141] Setting up loss2/fc
I0403 15:17:44.860654  2920 net.cpp:148] Top shape: 24 1024 (24576)
I0403 15:17:44.860671  2920 net.cpp:156] Memory required for data: 1208220960
I0403 15:17:44.860689  2920 layer_factory.hpp:77] Creating layer loss2/relu_fc
I0403 15:17:44.860710  2920 net.cpp:91] Creating Layer loss2/relu_fc
I0403 15:17:44.860729  2920 net.cpp:425] loss2/relu_fc <- loss2/fc
I0403 15:17:44.860749  2920 net.cpp:386] loss2/relu_fc -> loss2/fc (in-place)
I0403 15:17:44.861038  2920 net.cpp:141] Setting up loss2/relu_fc
I0403 15:17:44.861066  2920 net.cpp:148] Top shape: 24 1024 (24576)
I0403 15:17:44.861083  2920 net.cpp:156] Memory required for data: 1208319264
I0403 15:17:44.861096  2920 layer_factory.hpp:77] Creating layer loss2/drop_fc
I0403 15:17:44.861114  2920 net.cpp:91] Creating Layer loss2/drop_fc
I0403 15:17:44.861129  2920 net.cpp:425] loss2/drop_fc <- loss2/fc
I0403 15:17:44.861146  2920 net.cpp:386] loss2/drop_fc -> loss2/fc (in-place)
I0403 15:17:44.861196  2920 net.cpp:141] Setting up loss2/drop_fc
I0403 15:17:44.861218  2920 net.cpp:148] Top shape: 24 1024 (24576)
I0403 15:17:44.861233  2920 net.cpp:156] Memory required for data: 1208417568
I0403 15:17:44.861251  2920 layer_factory.hpp:77] Creating layer loss2/classifier_plantvillage
I0403 15:17:44.861274  2920 net.cpp:91] Creating Layer loss2/classifier_plantvillage
I0403 15:17:44.861291  2920 net.cpp:425] loss2/classifier_plantvillage <- loss2/fc
I0403 15:17:44.861310  2920 net.cpp:399] loss2/classifier_plantvillage -> loss2/classifier_plantvillage
I0403 15:17:44.861702  2920 net.cpp:141] Setting up loss2/classifier_plantvillage
I0403 15:17:44.861726  2920 net.cpp:148] Top shape: 24 38 (912)
I0403 15:17:44.861757  2920 net.cpp:156] Memory required for data: 1208421216
I0403 15:17:44.861776  2920 layer_factory.hpp:77] Creating layer loss2/classifier_plantvillage_loss2/classifier_plantvillage_0_split
I0403 15:17:44.861794  2920 net.cpp:91] Creating Layer loss2/classifier_plantvillage_loss2/classifier_plantvillage_0_split
I0403 15:17:44.861810  2920 net.cpp:425] loss2/classifier_plantvillage_loss2/classifier_plantvillage_0_split <- loss2/classifier_plantvillage
I0403 15:17:44.861829  2920 net.cpp:399] loss2/classifier_plantvillage_loss2/classifier_plantvillage_0_split -> loss2/classifier_plantvillage_loss2/classifier_plantvillage_0_split_0
I0403 15:17:44.861850  2920 net.cpp:399] loss2/classifier_plantvillage_loss2/classifier_plantvillage_0_split -> loss2/classifier_plantvillage_loss2/classifier_plantvillage_0_split_1
I0403 15:17:44.861871  2920 net.cpp:399] loss2/classifier_plantvillage_loss2/classifier_plantvillage_0_split -> loss2/classifier_plantvillage_loss2/classifier_plantvillage_0_split_2
I0403 15:17:44.861945  2920 net.cpp:141] Setting up loss2/classifier_plantvillage_loss2/classifier_plantvillage_0_split
I0403 15:17:44.861970  2920 net.cpp:148] Top shape: 24 38 (912)
I0403 15:17:44.861987  2920 net.cpp:148] Top shape: 24 38 (912)
I0403 15:17:44.862002  2920 net.cpp:148] Top shape: 24 38 (912)
I0403 15:17:44.862015  2920 net.cpp:156] Memory required for data: 1208432160
I0403 15:17:44.862030  2920 layer_factory.hpp:77] Creating layer inception_4e/1x1
I0403 15:17:44.862048  2920 net.cpp:91] Creating Layer inception_4e/1x1
I0403 15:17:44.862066  2920 net.cpp:425] inception_4e/1x1 <- inception_4d/output_inception_4d/output_0_split_1
I0403 15:17:44.862084  2920 net.cpp:399] inception_4e/1x1 -> inception_4e/1x1
I0403 15:17:44.863925  2920 net.cpp:141] Setting up inception_4e/1x1
I0403 15:17:44.863955  2920 net.cpp:148] Top shape: 24 256 14 14 (1204224)
I0403 15:17:44.863970  2920 net.cpp:156] Memory required for data: 1213249056
I0403 15:17:44.863988  2920 layer_factory.hpp:77] Creating layer inception_4e/relu_1x1
I0403 15:17:44.864006  2920 net.cpp:91] Creating Layer inception_4e/relu_1x1
I0403 15:17:44.864022  2920 net.cpp:425] inception_4e/relu_1x1 <- inception_4e/1x1
I0403 15:17:44.864042  2920 net.cpp:386] inception_4e/relu_1x1 -> inception_4e/1x1 (in-place)
I0403 15:17:44.864339  2920 net.cpp:141] Setting up inception_4e/relu_1x1
I0403 15:17:44.864364  2920 net.cpp:148] Top shape: 24 256 14 14 (1204224)
I0403 15:17:44.864379  2920 net.cpp:156] Memory required for data: 1218065952
I0403 15:17:44.864394  2920 layer_factory.hpp:77] Creating layer inception_4e/3x3_reduce
I0403 15:17:44.864416  2920 net.cpp:91] Creating Layer inception_4e/3x3_reduce
I0403 15:17:44.864434  2920 net.cpp:425] inception_4e/3x3_reduce <- inception_4d/output_inception_4d/output_0_split_2
I0403 15:17:44.864454  2920 net.cpp:399] inception_4e/3x3_reduce -> inception_4e/3x3_reduce
I0403 15:17:44.866586  2920 net.cpp:141] Setting up inception_4e/3x3_reduce
I0403 15:17:44.866618  2920 net.cpp:148] Top shape: 24 160 14 14 (752640)
I0403 15:17:44.866636  2920 net.cpp:156] Memory required for data: 1221076512
I0403 15:17:44.866655  2920 layer_factory.hpp:77] Creating layer inception_4e/relu_3x3_reduce
I0403 15:17:44.866673  2920 net.cpp:91] Creating Layer inception_4e/relu_3x3_reduce
I0403 15:17:44.866689  2920 net.cpp:425] inception_4e/relu_3x3_reduce <- inception_4e/3x3_reduce
I0403 15:17:44.866708  2920 net.cpp:386] inception_4e/relu_3x3_reduce -> inception_4e/3x3_reduce (in-place)
I0403 15:17:44.866891  2920 net.cpp:141] Setting up inception_4e/relu_3x3_reduce
I0403 15:17:44.866916  2920 net.cpp:148] Top shape: 24 160 14 14 (752640)
I0403 15:17:44.866930  2920 net.cpp:156] Memory required for data: 1224087072
I0403 15:17:44.866946  2920 layer_factory.hpp:77] Creating layer inception_4e/3x3
I0403 15:17:44.866968  2920 net.cpp:91] Creating Layer inception_4e/3x3
I0403 15:17:44.866986  2920 net.cpp:425] inception_4e/3x3 <- inception_4e/3x3_reduce
I0403 15:17:44.867007  2920 net.cpp:399] inception_4e/3x3 -> inception_4e/3x3
I0403 15:17:44.871942  2920 net.cpp:141] Setting up inception_4e/3x3
I0403 15:17:44.871984  2920 net.cpp:148] Top shape: 24 320 14 14 (1505280)
I0403 15:17:44.872000  2920 net.cpp:156] Memory required for data: 1230108192
I0403 15:17:44.872020  2920 layer_factory.hpp:77] Creating layer inception_4e/relu_3x3
I0403 15:17:44.872040  2920 net.cpp:91] Creating Layer inception_4e/relu_3x3
I0403 15:17:44.872057  2920 net.cpp:425] inception_4e/relu_3x3 <- inception_4e/3x3
I0403 15:17:44.872076  2920 net.cpp:386] inception_4e/relu_3x3 -> inception_4e/3x3 (in-place)
I0403 15:17:44.872380  2920 net.cpp:141] Setting up inception_4e/relu_3x3
I0403 15:17:44.872408  2920 net.cpp:148] Top shape: 24 320 14 14 (1505280)
I0403 15:17:44.872424  2920 net.cpp:156] Memory required for data: 1236129312
I0403 15:17:44.872438  2920 layer_factory.hpp:77] Creating layer inception_4e/5x5_reduce
I0403 15:17:44.872462  2920 net.cpp:91] Creating Layer inception_4e/5x5_reduce
I0403 15:17:44.872479  2920 net.cpp:425] inception_4e/5x5_reduce <- inception_4d/output_inception_4d/output_0_split_3
I0403 15:17:44.872503  2920 net.cpp:399] inception_4e/5x5_reduce -> inception_4e/5x5_reduce
I0403 15:17:44.873545  2920 net.cpp:141] Setting up inception_4e/5x5_reduce
I0403 15:17:44.873574  2920 net.cpp:148] Top shape: 24 32 14 14 (150528)
I0403 15:17:44.873589  2920 net.cpp:156] Memory required for data: 1236731424
I0403 15:17:44.873608  2920 layer_factory.hpp:77] Creating layer inception_4e/relu_5x5_reduce
I0403 15:17:44.873627  2920 net.cpp:91] Creating Layer inception_4e/relu_5x5_reduce
I0403 15:17:44.873646  2920 net.cpp:425] inception_4e/relu_5x5_reduce <- inception_4e/5x5_reduce
I0403 15:17:44.873664  2920 net.cpp:386] inception_4e/relu_5x5_reduce -> inception_4e/5x5_reduce (in-place)
I0403 15:17:44.873956  2920 net.cpp:141] Setting up inception_4e/relu_5x5_reduce
I0403 15:17:44.873982  2920 net.cpp:148] Top shape: 24 32 14 14 (150528)
I0403 15:17:44.873997  2920 net.cpp:156] Memory required for data: 1237333536
I0403 15:17:44.874011  2920 layer_factory.hpp:77] Creating layer inception_4e/5x5
I0403 15:17:44.874048  2920 net.cpp:91] Creating Layer inception_4e/5x5
I0403 15:17:44.874068  2920 net.cpp:425] inception_4e/5x5 <- inception_4e/5x5_reduce
I0403 15:17:44.874086  2920 net.cpp:399] inception_4e/5x5 -> inception_4e/5x5
I0403 15:17:44.875944  2920 net.cpp:141] Setting up inception_4e/5x5
I0403 15:17:44.875974  2920 net.cpp:148] Top shape: 24 128 14 14 (602112)
I0403 15:17:44.875993  2920 net.cpp:156] Memory required for data: 1239741984
I0403 15:17:44.876011  2920 layer_factory.hpp:77] Creating layer inception_4e/relu_5x5
I0403 15:17:44.876031  2920 net.cpp:91] Creating Layer inception_4e/relu_5x5
I0403 15:17:44.876049  2920 net.cpp:425] inception_4e/relu_5x5 <- inception_4e/5x5
I0403 15:17:44.876066  2920 net.cpp:386] inception_4e/relu_5x5 -> inception_4e/5x5 (in-place)
I0403 15:17:44.876266  2920 net.cpp:141] Setting up inception_4e/relu_5x5
I0403 15:17:44.876291  2920 net.cpp:148] Top shape: 24 128 14 14 (602112)
I0403 15:17:44.876308  2920 net.cpp:156] Memory required for data: 1242150432
I0403 15:17:44.876323  2920 layer_factory.hpp:77] Creating layer inception_4e/pool
I0403 15:17:44.876343  2920 net.cpp:91] Creating Layer inception_4e/pool
I0403 15:17:44.876359  2920 net.cpp:425] inception_4e/pool <- inception_4d/output_inception_4d/output_0_split_4
I0403 15:17:44.876380  2920 net.cpp:399] inception_4e/pool -> inception_4e/pool
I0403 15:17:44.876449  2920 net.cpp:141] Setting up inception_4e/pool
I0403 15:17:44.876476  2920 net.cpp:148] Top shape: 24 528 14 14 (2483712)
I0403 15:17:44.876490  2920 net.cpp:156] Memory required for data: 1252085280
I0403 15:17:44.876505  2920 layer_factory.hpp:77] Creating layer inception_4e/pool_proj
I0403 15:17:44.876526  2920 net.cpp:91] Creating Layer inception_4e/pool_proj
I0403 15:17:44.876543  2920 net.cpp:425] inception_4e/pool_proj <- inception_4e/pool
I0403 15:17:44.876562  2920 net.cpp:399] inception_4e/pool_proj -> inception_4e/pool_proj
I0403 15:17:44.878029  2920 net.cpp:141] Setting up inception_4e/pool_proj
I0403 15:17:44.878070  2920 net.cpp:148] Top shape: 24 128 14 14 (602112)
I0403 15:17:44.878089  2920 net.cpp:156] Memory required for data: 1254493728
I0403 15:17:44.878108  2920 layer_factory.hpp:77] Creating layer inception_4e/relu_pool_proj
I0403 15:17:44.878126  2920 net.cpp:91] Creating Layer inception_4e/relu_pool_proj
I0403 15:17:44.878142  2920 net.cpp:425] inception_4e/relu_pool_proj <- inception_4e/pool_proj
I0403 15:17:44.878159  2920 net.cpp:386] inception_4e/relu_pool_proj -> inception_4e/pool_proj (in-place)
I0403 15:17:44.878469  2920 net.cpp:141] Setting up inception_4e/relu_pool_proj
I0403 15:17:44.878499  2920 net.cpp:148] Top shape: 24 128 14 14 (602112)
I0403 15:17:44.878515  2920 net.cpp:156] Memory required for data: 1256902176
I0403 15:17:44.878530  2920 layer_factory.hpp:77] Creating layer inception_4e/output
I0403 15:17:44.878559  2920 net.cpp:91] Creating Layer inception_4e/output
I0403 15:17:44.878574  2920 net.cpp:425] inception_4e/output <- inception_4e/1x1
I0403 15:17:44.878592  2920 net.cpp:425] inception_4e/output <- inception_4e/3x3
I0403 15:17:44.878607  2920 net.cpp:425] inception_4e/output <- inception_4e/5x5
I0403 15:17:44.878623  2920 net.cpp:425] inception_4e/output <- inception_4e/pool_proj
I0403 15:17:44.878639  2920 net.cpp:399] inception_4e/output -> inception_4e/output
I0403 15:17:44.878690  2920 net.cpp:141] Setting up inception_4e/output
I0403 15:17:44.878712  2920 net.cpp:148] Top shape: 24 832 14 14 (3913728)
I0403 15:17:44.878726  2920 net.cpp:156] Memory required for data: 1272557088
I0403 15:17:44.878741  2920 layer_factory.hpp:77] Creating layer pool4/3x3_s2
I0403 15:17:44.878761  2920 net.cpp:91] Creating Layer pool4/3x3_s2
I0403 15:17:44.878777  2920 net.cpp:425] pool4/3x3_s2 <- inception_4e/output
I0403 15:17:44.878795  2920 net.cpp:399] pool4/3x3_s2 -> pool4/3x3_s2
I0403 15:17:44.878861  2920 net.cpp:141] Setting up pool4/3x3_s2
I0403 15:17:44.878885  2920 net.cpp:148] Top shape: 24 832 7 7 (978432)
I0403 15:17:44.878900  2920 net.cpp:156] Memory required for data: 1276470816
I0403 15:17:44.878914  2920 layer_factory.hpp:77] Creating layer pool4/3x3_s2_pool4/3x3_s2_0_split
I0403 15:17:44.878931  2920 net.cpp:91] Creating Layer pool4/3x3_s2_pool4/3x3_s2_0_split
I0403 15:17:44.878947  2920 net.cpp:425] pool4/3x3_s2_pool4/3x3_s2_0_split <- pool4/3x3_s2
I0403 15:17:44.878965  2920 net.cpp:399] pool4/3x3_s2_pool4/3x3_s2_0_split -> pool4/3x3_s2_pool4/3x3_s2_0_split_0
I0403 15:17:44.878986  2920 net.cpp:399] pool4/3x3_s2_pool4/3x3_s2_0_split -> pool4/3x3_s2_pool4/3x3_s2_0_split_1
I0403 15:17:44.879006  2920 net.cpp:399] pool4/3x3_s2_pool4/3x3_s2_0_split -> pool4/3x3_s2_pool4/3x3_s2_0_split_2
I0403 15:17:44.879027  2920 net.cpp:399] pool4/3x3_s2_pool4/3x3_s2_0_split -> pool4/3x3_s2_pool4/3x3_s2_0_split_3
I0403 15:17:44.879117  2920 net.cpp:141] Setting up pool4/3x3_s2_pool4/3x3_s2_0_split
I0403 15:17:44.879139  2920 net.cpp:148] Top shape: 24 832 7 7 (978432)
I0403 15:17:44.879155  2920 net.cpp:148] Top shape: 24 832 7 7 (978432)
I0403 15:17:44.879170  2920 net.cpp:148] Top shape: 24 832 7 7 (978432)
I0403 15:17:44.879187  2920 net.cpp:148] Top shape: 24 832 7 7 (978432)
I0403 15:17:44.879200  2920 net.cpp:156] Memory required for data: 1292125728
I0403 15:17:44.879215  2920 layer_factory.hpp:77] Creating layer inception_5a/1x1
I0403 15:17:44.879242  2920 net.cpp:91] Creating Layer inception_5a/1x1
I0403 15:17:44.879274  2920 net.cpp:425] inception_5a/1x1 <- pool4/3x3_s2_pool4/3x3_s2_0_split_0
I0403 15:17:44.879294  2920 net.cpp:399] inception_5a/1x1 -> inception_5a/1x1
I0403 15:17:44.882110  2920 net.cpp:141] Setting up inception_5a/1x1
I0403 15:17:44.882143  2920 net.cpp:148] Top shape: 24 256 7 7 (301056)
I0403 15:17:44.882159  2920 net.cpp:156] Memory required for data: 1293329952
I0403 15:17:44.882177  2920 layer_factory.hpp:77] Creating layer inception_5a/relu_1x1
I0403 15:17:44.882195  2920 net.cpp:91] Creating Layer inception_5a/relu_1x1
I0403 15:17:44.882210  2920 net.cpp:425] inception_5a/relu_1x1 <- inception_5a/1x1
I0403 15:17:44.882230  2920 net.cpp:386] inception_5a/relu_1x1 -> inception_5a/1x1 (in-place)
I0403 15:17:44.882598  2920 net.cpp:141] Setting up inception_5a/relu_1x1
I0403 15:17:44.882627  2920 net.cpp:148] Top shape: 24 256 7 7 (301056)
I0403 15:17:44.882643  2920 net.cpp:156] Memory required for data: 1294534176
I0403 15:17:44.882659  2920 layer_factory.hpp:77] Creating layer inception_5a/3x3_reduce
I0403 15:17:44.882681  2920 net.cpp:91] Creating Layer inception_5a/3x3_reduce
I0403 15:17:44.882700  2920 net.cpp:425] inception_5a/3x3_reduce <- pool4/3x3_s2_pool4/3x3_s2_0_split_1
I0403 15:17:44.882720  2920 net.cpp:399] inception_5a/3x3_reduce -> inception_5a/3x3_reduce
I0403 15:17:44.885205  2920 net.cpp:141] Setting up inception_5a/3x3_reduce
I0403 15:17:44.885234  2920 net.cpp:148] Top shape: 24 160 7 7 (188160)
I0403 15:17:44.885257  2920 net.cpp:156] Memory required for data: 1295286816
I0403 15:17:44.885277  2920 layer_factory.hpp:77] Creating layer inception_5a/relu_3x3_reduce
I0403 15:17:44.885299  2920 net.cpp:91] Creating Layer inception_5a/relu_3x3_reduce
I0403 15:17:44.885318  2920 net.cpp:425] inception_5a/relu_3x3_reduce <- inception_5a/3x3_reduce
I0403 15:17:44.885337  2920 net.cpp:386] inception_5a/relu_3x3_reduce -> inception_5a/3x3_reduce (in-place)
I0403 15:17:44.885526  2920 net.cpp:141] Setting up inception_5a/relu_3x3_reduce
I0403 15:17:44.885555  2920 net.cpp:148] Top shape: 24 160 7 7 (188160)
I0403 15:17:44.885571  2920 net.cpp:156] Memory required for data: 1296039456
I0403 15:17:44.885586  2920 layer_factory.hpp:77] Creating layer inception_5a/3x3
I0403 15:17:44.885610  2920 net.cpp:91] Creating Layer inception_5a/3x3
I0403 15:17:44.885628  2920 net.cpp:425] inception_5a/3x3 <- inception_5a/3x3_reduce
I0403 15:17:44.885648  2920 net.cpp:399] inception_5a/3x3 -> inception_5a/3x3
I0403 15:17:44.890703  2920 net.cpp:141] Setting up inception_5a/3x3
I0403 15:17:44.890736  2920 net.cpp:148] Top shape: 24 320 7 7 (376320)
I0403 15:17:44.890753  2920 net.cpp:156] Memory required for data: 1297544736
I0403 15:17:44.890774  2920 layer_factory.hpp:77] Creating layer inception_5a/relu_3x3
I0403 15:17:44.890792  2920 net.cpp:91] Creating Layer inception_5a/relu_3x3
I0403 15:17:44.890810  2920 net.cpp:425] inception_5a/relu_3x3 <- inception_5a/3x3
I0403 15:17:44.890826  2920 net.cpp:386] inception_5a/relu_3x3 -> inception_5a/3x3 (in-place)
I0403 15:17:44.891124  2920 net.cpp:141] Setting up inception_5a/relu_3x3
I0403 15:17:44.891155  2920 net.cpp:148] Top shape: 24 320 7 7 (376320)
I0403 15:17:44.891171  2920 net.cpp:156] Memory required for data: 1299050016
I0403 15:17:44.891187  2920 layer_factory.hpp:77] Creating layer inception_5a/5x5_reduce
I0403 15:17:44.891209  2920 net.cpp:91] Creating Layer inception_5a/5x5_reduce
I0403 15:17:44.891227  2920 net.cpp:425] inception_5a/5x5_reduce <- pool4/3x3_s2_pool4/3x3_s2_0_split_2
I0403 15:17:44.891264  2920 net.cpp:399] inception_5a/5x5_reduce -> inception_5a/5x5_reduce
I0403 15:17:44.892458  2920 net.cpp:141] Setting up inception_5a/5x5_reduce
I0403 15:17:44.892491  2920 net.cpp:148] Top shape: 24 32 7 7 (37632)
I0403 15:17:44.892509  2920 net.cpp:156] Memory required for data: 1299200544
I0403 15:17:44.892529  2920 layer_factory.hpp:77] Creating layer inception_5a/relu_5x5_reduce
I0403 15:17:44.892547  2920 net.cpp:91] Creating Layer inception_5a/relu_5x5_reduce
I0403 15:17:44.892565  2920 net.cpp:425] inception_5a/relu_5x5_reduce <- inception_5a/5x5_reduce
I0403 15:17:44.892586  2920 net.cpp:386] inception_5a/relu_5x5_reduce -> inception_5a/5x5_reduce (in-place)
I0403 15:17:44.892890  2920 net.cpp:141] Setting up inception_5a/relu_5x5_reduce
I0403 15:17:44.892918  2920 net.cpp:148] Top shape: 24 32 7 7 (37632)
I0403 15:17:44.892935  2920 net.cpp:156] Memory required for data: 1299351072
I0403 15:17:44.892949  2920 layer_factory.hpp:77] Creating layer inception_5a/5x5
I0403 15:17:44.892972  2920 net.cpp:91] Creating Layer inception_5a/5x5
I0403 15:17:44.892990  2920 net.cpp:425] inception_5a/5x5 <- inception_5a/5x5_reduce
I0403 15:17:44.893013  2920 net.cpp:399] inception_5a/5x5 -> inception_5a/5x5
I0403 15:17:44.894764  2920 net.cpp:141] Setting up inception_5a/5x5
I0403 15:17:44.894809  2920 net.cpp:148] Top shape: 24 128 7 7 (150528)
I0403 15:17:44.894827  2920 net.cpp:156] Memory required for data: 1299953184
I0403 15:17:44.894846  2920 layer_factory.hpp:77] Creating layer inception_5a/relu_5x5
I0403 15:17:44.894865  2920 net.cpp:91] Creating Layer inception_5a/relu_5x5
I0403 15:17:44.894881  2920 net.cpp:425] inception_5a/relu_5x5 <- inception_5a/5x5
I0403 15:17:44.894898  2920 net.cpp:386] inception_5a/relu_5x5 -> inception_5a/5x5 (in-place)
I0403 15:17:44.895093  2920 net.cpp:141] Setting up inception_5a/relu_5x5
I0403 15:17:44.895118  2920 net.cpp:148] Top shape: 24 128 7 7 (150528)
I0403 15:17:44.895133  2920 net.cpp:156] Memory required for data: 1300555296
I0403 15:17:44.895148  2920 layer_factory.hpp:77] Creating layer inception_5a/pool
I0403 15:17:44.895166  2920 net.cpp:91] Creating Layer inception_5a/pool
I0403 15:17:44.895184  2920 net.cpp:425] inception_5a/pool <- pool4/3x3_s2_pool4/3x3_s2_0_split_3
I0403 15:17:44.895203  2920 net.cpp:399] inception_5a/pool -> inception_5a/pool
I0403 15:17:44.895279  2920 net.cpp:141] Setting up inception_5a/pool
I0403 15:17:44.895305  2920 net.cpp:148] Top shape: 24 832 7 7 (978432)
I0403 15:17:44.895321  2920 net.cpp:156] Memory required for data: 1304469024
I0403 15:17:44.895337  2920 layer_factory.hpp:77] Creating layer inception_5a/pool_proj
I0403 15:17:44.895359  2920 net.cpp:91] Creating Layer inception_5a/pool_proj
I0403 15:17:44.895377  2920 net.cpp:425] inception_5a/pool_proj <- inception_5a/pool
I0403 15:17:44.895396  2920 net.cpp:399] inception_5a/pool_proj -> inception_5a/pool_proj
I0403 15:17:44.897716  2920 net.cpp:141] Setting up inception_5a/pool_proj
I0403 15:17:44.897745  2920 net.cpp:148] Top shape: 24 128 7 7 (150528)
I0403 15:17:44.897761  2920 net.cpp:156] Memory required for data: 1305071136
I0403 15:17:44.897781  2920 layer_factory.hpp:77] Creating layer inception_5a/relu_pool_proj
I0403 15:17:44.897802  2920 net.cpp:91] Creating Layer inception_5a/relu_pool_proj
I0403 15:17:44.897822  2920 net.cpp:425] inception_5a/relu_pool_proj <- inception_5a/pool_proj
I0403 15:17:44.897840  2920 net.cpp:386] inception_5a/relu_pool_proj -> inception_5a/pool_proj (in-place)
I0403 15:17:44.898138  2920 net.cpp:141] Setting up inception_5a/relu_pool_proj
I0403 15:17:44.898165  2920 net.cpp:148] Top shape: 24 128 7 7 (150528)
I0403 15:17:44.898182  2920 net.cpp:156] Memory required for data: 1305673248
I0403 15:17:44.898198  2920 layer_factory.hpp:77] Creating layer inception_5a/output
I0403 15:17:44.898219  2920 net.cpp:91] Creating Layer inception_5a/output
I0403 15:17:44.898242  2920 net.cpp:425] inception_5a/output <- inception_5a/1x1
I0403 15:17:44.898277  2920 net.cpp:425] inception_5a/output <- inception_5a/3x3
I0403 15:17:44.898294  2920 net.cpp:425] inception_5a/output <- inception_5a/5x5
I0403 15:17:44.898311  2920 net.cpp:425] inception_5a/output <- inception_5a/pool_proj
I0403 15:17:44.898330  2920 net.cpp:399] inception_5a/output -> inception_5a/output
I0403 15:17:44.898385  2920 net.cpp:141] Setting up inception_5a/output
I0403 15:17:44.898409  2920 net.cpp:148] Top shape: 24 832 7 7 (978432)
I0403 15:17:44.898427  2920 net.cpp:156] Memory required for data: 1309586976
I0403 15:17:44.898442  2920 layer_factory.hpp:77] Creating layer inception_5a/output_inception_5a/output_0_split
I0403 15:17:44.898460  2920 net.cpp:91] Creating Layer inception_5a/output_inception_5a/output_0_split
I0403 15:17:44.898478  2920 net.cpp:425] inception_5a/output_inception_5a/output_0_split <- inception_5a/output
I0403 15:17:44.898500  2920 net.cpp:399] inception_5a/output_inception_5a/output_0_split -> inception_5a/output_inception_5a/output_0_split_0
I0403 15:17:44.898521  2920 net.cpp:399] inception_5a/output_inception_5a/output_0_split -> inception_5a/output_inception_5a/output_0_split_1
I0403 15:17:44.898555  2920 net.cpp:399] inception_5a/output_inception_5a/output_0_split -> inception_5a/output_inception_5a/output_0_split_2
I0403 15:17:44.898577  2920 net.cpp:399] inception_5a/output_inception_5a/output_0_split -> inception_5a/output_inception_5a/output_0_split_3
I0403 15:17:44.898691  2920 net.cpp:141] Setting up inception_5a/output_inception_5a/output_0_split
I0403 15:17:44.898720  2920 net.cpp:148] Top shape: 24 832 7 7 (978432)
I0403 15:17:44.898737  2920 net.cpp:148] Top shape: 24 832 7 7 (978432)
I0403 15:17:44.898753  2920 net.cpp:148] Top shape: 24 832 7 7 (978432)
I0403 15:17:44.898769  2920 net.cpp:148] Top shape: 24 832 7 7 (978432)
I0403 15:17:44.898782  2920 net.cpp:156] Memory required for data: 1325241888
I0403 15:17:44.898797  2920 layer_factory.hpp:77] Creating layer inception_5b/1x1
I0403 15:17:44.898819  2920 net.cpp:91] Creating Layer inception_5b/1x1
I0403 15:17:44.898838  2920 net.cpp:425] inception_5b/1x1 <- inception_5a/output_inception_5a/output_0_split_0
I0403 15:17:44.898859  2920 net.cpp:399] inception_5b/1x1 -> inception_5b/1x1
I0403 15:17:44.902670  2920 net.cpp:141] Setting up inception_5b/1x1
I0403 15:17:44.902701  2920 net.cpp:148] Top shape: 24 384 7 7 (451584)
I0403 15:17:44.902717  2920 net.cpp:156] Memory required for data: 1327048224
I0403 15:17:44.902736  2920 layer_factory.hpp:77] Creating layer inception_5b/relu_1x1
I0403 15:17:44.902756  2920 net.cpp:91] Creating Layer inception_5b/relu_1x1
I0403 15:17:44.902775  2920 net.cpp:425] inception_5b/relu_1x1 <- inception_5b/1x1
I0403 15:17:44.902793  2920 net.cpp:386] inception_5b/relu_1x1 -> inception_5b/1x1 (in-place)
I0403 15:17:44.903102  2920 net.cpp:141] Setting up inception_5b/relu_1x1
I0403 15:17:44.903131  2920 net.cpp:148] Top shape: 24 384 7 7 (451584)
I0403 15:17:44.903147  2920 net.cpp:156] Memory required for data: 1328854560
I0403 15:17:44.903162  2920 layer_factory.hpp:77] Creating layer inception_5b/3x3_reduce
I0403 15:17:44.903184  2920 net.cpp:91] Creating Layer inception_5b/3x3_reduce
I0403 15:17:44.903205  2920 net.cpp:425] inception_5b/3x3_reduce <- inception_5a/output_inception_5a/output_0_split_1
I0403 15:17:44.903228  2920 net.cpp:399] inception_5b/3x3_reduce -> inception_5b/3x3_reduce
I0403 15:17:44.905942  2920 net.cpp:141] Setting up inception_5b/3x3_reduce
I0403 15:17:44.905974  2920 net.cpp:148] Top shape: 24 192 7 7 (225792)
I0403 15:17:44.905990  2920 net.cpp:156] Memory required for data: 1329757728
I0403 15:17:44.906010  2920 layer_factory.hpp:77] Creating layer inception_5b/relu_3x3_reduce
I0403 15:17:44.906031  2920 net.cpp:91] Creating Layer inception_5b/relu_3x3_reduce
I0403 15:17:44.906049  2920 net.cpp:425] inception_5b/relu_3x3_reduce <- inception_5b/3x3_reduce
I0403 15:17:44.906069  2920 net.cpp:386] inception_5b/relu_3x3_reduce -> inception_5b/3x3_reduce (in-place)
I0403 15:17:44.906262  2920 net.cpp:141] Setting up inception_5b/relu_3x3_reduce
I0403 15:17:44.906292  2920 net.cpp:148] Top shape: 24 192 7 7 (225792)
I0403 15:17:44.906307  2920 net.cpp:156] Memory required for data: 1330660896
I0403 15:17:44.906323  2920 layer_factory.hpp:77] Creating layer inception_5b/3x3
I0403 15:17:44.906345  2920 net.cpp:91] Creating Layer inception_5b/3x3
I0403 15:17:44.906364  2920 net.cpp:425] inception_5b/3x3 <- inception_5b/3x3_reduce
I0403 15:17:44.906388  2920 net.cpp:399] inception_5b/3x3 -> inception_5b/3x3
I0403 15:17:44.913219  2920 net.cpp:141] Setting up inception_5b/3x3
I0403 15:17:44.913260  2920 net.cpp:148] Top shape: 24 384 7 7 (451584)
I0403 15:17:44.913280  2920 net.cpp:156] Memory required for data: 1332467232
I0403 15:17:44.913300  2920 layer_factory.hpp:77] Creating layer inception_5b/relu_3x3
I0403 15:17:44.913323  2920 net.cpp:91] Creating Layer inception_5b/relu_3x3
I0403 15:17:44.913343  2920 net.cpp:425] inception_5b/relu_3x3 <- inception_5b/3x3
I0403 15:17:44.913363  2920 net.cpp:386] inception_5b/relu_3x3 -> inception_5b/3x3 (in-place)
I0403 15:17:44.913664  2920 net.cpp:141] Setting up inception_5b/relu_3x3
I0403 15:17:44.913692  2920 net.cpp:148] Top shape: 24 384 7 7 (451584)
I0403 15:17:44.913709  2920 net.cpp:156] Memory required for data: 1334273568
I0403 15:17:44.913727  2920 layer_factory.hpp:77] Creating layer inception_5b/5x5_reduce
I0403 15:17:44.913769  2920 net.cpp:91] Creating Layer inception_5b/5x5_reduce
I0403 15:17:44.913790  2920 net.cpp:425] inception_5b/5x5_reduce <- inception_5a/output_inception_5a/output_0_split_2
I0403 15:17:44.913810  2920 net.cpp:399] inception_5b/5x5_reduce -> inception_5b/5x5_reduce
I0403 15:17:44.915124  2920 net.cpp:141] Setting up inception_5b/5x5_reduce
I0403 15:17:44.915154  2920 net.cpp:148] Top shape: 24 48 7 7 (56448)
I0403 15:17:44.915174  2920 net.cpp:156] Memory required for data: 1334499360
I0403 15:17:44.915194  2920 layer_factory.hpp:77] Creating layer inception_5b/relu_5x5_reduce
I0403 15:17:44.915213  2920 net.cpp:91] Creating Layer inception_5b/relu_5x5_reduce
I0403 15:17:44.915231  2920 net.cpp:425] inception_5b/relu_5x5_reduce <- inception_5b/5x5_reduce
I0403 15:17:44.915254  2920 net.cpp:386] inception_5b/relu_5x5_reduce -> inception_5b/5x5_reduce (in-place)
I0403 15:17:44.915634  2920 net.cpp:141] Setting up inception_5b/relu_5x5_reduce
I0403 15:17:44.915663  2920 net.cpp:148] Top shape: 24 48 7 7 (56448)
I0403 15:17:44.915679  2920 net.cpp:156] Memory required for data: 1334725152
I0403 15:17:44.915696  2920 layer_factory.hpp:77] Creating layer inception_5b/5x5
I0403 15:17:44.915717  2920 net.cpp:91] Creating Layer inception_5b/5x5
I0403 15:17:44.915735  2920 net.cpp:425] inception_5b/5x5 <- inception_5b/5x5_reduce
I0403 15:17:44.915755  2920 net.cpp:399] inception_5b/5x5 -> inception_5b/5x5
I0403 15:17:44.917832  2920 net.cpp:141] Setting up inception_5b/5x5
I0403 15:17:44.917865  2920 net.cpp:148] Top shape: 24 128 7 7 (150528)
I0403 15:17:44.917884  2920 net.cpp:156] Memory required for data: 1335327264
I0403 15:17:44.917906  2920 layer_factory.hpp:77] Creating layer inception_5b/relu_5x5
I0403 15:17:44.917924  2920 net.cpp:91] Creating Layer inception_5b/relu_5x5
I0403 15:17:44.917942  2920 net.cpp:425] inception_5b/relu_5x5 <- inception_5b/5x5
I0403 15:17:44.917963  2920 net.cpp:386] inception_5b/relu_5x5 -> inception_5b/5x5 (in-place)
I0403 15:17:44.918159  2920 net.cpp:141] Setting up inception_5b/relu_5x5
I0403 15:17:44.918186  2920 net.cpp:148] Top shape: 24 128 7 7 (150528)
I0403 15:17:44.918203  2920 net.cpp:156] Memory required for data: 1335929376
I0403 15:17:44.918220  2920 layer_factory.hpp:77] Creating layer inception_5b/pool
I0403 15:17:44.918257  2920 net.cpp:91] Creating Layer inception_5b/pool
I0403 15:17:44.918280  2920 net.cpp:425] inception_5b/pool <- inception_5a/output_inception_5a/output_0_split_3
I0403 15:17:44.918303  2920 net.cpp:399] inception_5b/pool -> inception_5b/pool
I0403 15:17:44.918382  2920 net.cpp:141] Setting up inception_5b/pool
I0403 15:17:44.918408  2920 net.cpp:148] Top shape: 24 832 7 7 (978432)
I0403 15:17:44.918424  2920 net.cpp:156] Memory required for data: 1339843104
I0403 15:17:44.918442  2920 layer_factory.hpp:77] Creating layer inception_5b/pool_proj
I0403 15:17:44.918465  2920 net.cpp:91] Creating Layer inception_5b/pool_proj
I0403 15:17:44.918484  2920 net.cpp:425] inception_5b/pool_proj <- inception_5b/pool
I0403 15:17:44.918505  2920 net.cpp:399] inception_5b/pool_proj -> inception_5b/pool_proj
I0403 15:17:44.920848  2920 net.cpp:141] Setting up inception_5b/pool_proj
I0403 15:17:44.920881  2920 net.cpp:148] Top shape: 24 128 7 7 (150528)
I0403 15:17:44.920898  2920 net.cpp:156] Memory required for data: 1340445216
I0403 15:17:44.920917  2920 layer_factory.hpp:77] Creating layer inception_5b/relu_pool_proj
I0403 15:17:44.920936  2920 net.cpp:91] Creating Layer inception_5b/relu_pool_proj
I0403 15:17:44.920951  2920 net.cpp:425] inception_5b/relu_pool_proj <- inception_5b/pool_proj
I0403 15:17:44.920969  2920 net.cpp:386] inception_5b/relu_pool_proj -> inception_5b/pool_proj (in-place)
I0403 15:17:44.921270  2920 net.cpp:141] Setting up inception_5b/relu_pool_proj
I0403 15:17:44.921298  2920 net.cpp:148] Top shape: 24 128 7 7 (150528)
I0403 15:17:44.921314  2920 net.cpp:156] Memory required for data: 1341047328
I0403 15:17:44.921330  2920 layer_factory.hpp:77] Creating layer inception_5b/output
I0403 15:17:44.921347  2920 net.cpp:91] Creating Layer inception_5b/output
I0403 15:17:44.921377  2920 net.cpp:425] inception_5b/output <- inception_5b/1x1
I0403 15:17:44.921396  2920 net.cpp:425] inception_5b/output <- inception_5b/3x3
I0403 15:17:44.921412  2920 net.cpp:425] inception_5b/output <- inception_5b/5x5
I0403 15:17:44.921427  2920 net.cpp:425] inception_5b/output <- inception_5b/pool_proj
I0403 15:17:44.921445  2920 net.cpp:399] inception_5b/output -> inception_5b/output
I0403 15:17:44.921497  2920 net.cpp:141] Setting up inception_5b/output
I0403 15:17:44.921520  2920 net.cpp:148] Top shape: 24 1024 7 7 (1204224)
I0403 15:17:44.921535  2920 net.cpp:156] Memory required for data: 1345864224
I0403 15:17:44.921550  2920 layer_factory.hpp:77] Creating layer pool5/7x7_s1
I0403 15:17:44.921568  2920 net.cpp:91] Creating Layer pool5/7x7_s1
I0403 15:17:44.921586  2920 net.cpp:425] pool5/7x7_s1 <- inception_5b/output
I0403 15:17:44.921603  2920 net.cpp:399] pool5/7x7_s1 -> pool5/7x7_s1
I0403 15:17:44.921816  2920 net.cpp:141] Setting up pool5/7x7_s1
I0403 15:17:44.921843  2920 net.cpp:148] Top shape: 24 1024 1 1 (24576)
I0403 15:17:44.921857  2920 net.cpp:156] Memory required for data: 1345962528
I0403 15:17:44.921872  2920 layer_factory.hpp:77] Creating layer pool5/drop_7x7_s1
I0403 15:17:44.921890  2920 net.cpp:91] Creating Layer pool5/drop_7x7_s1
I0403 15:17:44.921906  2920 net.cpp:425] pool5/drop_7x7_s1 <- pool5/7x7_s1
I0403 15:17:44.921923  2920 net.cpp:386] pool5/drop_7x7_s1 -> pool5/7x7_s1 (in-place)
I0403 15:17:44.921973  2920 net.cpp:141] Setting up pool5/drop_7x7_s1
I0403 15:17:44.921995  2920 net.cpp:148] Top shape: 24 1024 1 1 (24576)
I0403 15:17:44.922010  2920 net.cpp:156] Memory required for data: 1346060832
I0403 15:17:44.922024  2920 layer_factory.hpp:77] Creating layer loss3/classifier_plantvillage
I0403 15:17:44.922046  2920 net.cpp:91] Creating Layer loss3/classifier_plantvillage
I0403 15:17:44.922063  2920 net.cpp:425] loss3/classifier_plantvillage <- pool5/7x7_s1
I0403 15:17:44.922081  2920 net.cpp:399] loss3/classifier_plantvillage -> loss3/classifier_plantvillage
I0403 15:17:44.922502  2920 net.cpp:141] Setting up loss3/classifier_plantvillage
I0403 15:17:44.922526  2920 net.cpp:148] Top shape: 24 38 (912)
I0403 15:17:44.922543  2920 net.cpp:156] Memory required for data: 1346064480
I0403 15:17:44.922562  2920 layer_factory.hpp:77] Creating layer loss3/classifier_plantvillage_loss3/classifier_plantvillage_0_split
I0403 15:17:44.922580  2920 net.cpp:91] Creating Layer loss3/classifier_plantvillage_loss3/classifier_plantvillage_0_split
I0403 15:17:44.922596  2920 net.cpp:425] loss3/classifier_plantvillage_loss3/classifier_plantvillage_0_split <- loss3/classifier_plantvillage
I0403 15:17:44.922617  2920 net.cpp:399] loss3/classifier_plantvillage_loss3/classifier_plantvillage_0_split -> loss3/classifier_plantvillage_loss3/classifier_plantvillage_0_split_0
I0403 15:17:44.922637  2920 net.cpp:399] loss3/classifier_plantvillage_loss3/classifier_plantvillage_0_split -> loss3/classifier_plantvillage_loss3/classifier_plantvillage_0_split_1
I0403 15:17:44.922657  2920 net.cpp:399] loss3/classifier_plantvillage_loss3/classifier_plantvillage_0_split -> loss3/classifier_plantvillage_loss3/classifier_plantvillage_0_split_2
I0403 15:17:44.922677  2920 net.cpp:399] loss3/classifier_plantvillage_loss3/classifier_plantvillage_0_split -> loss3/classifier_plantvillage_loss3/classifier_plantvillage_0_split_3
I0403 15:17:44.922780  2920 net.cpp:141] Setting up loss3/classifier_plantvillage_loss3/classifier_plantvillage_0_split
I0403 15:17:44.922803  2920 net.cpp:148] Top shape: 24 38 (912)
I0403 15:17:44.922819  2920 net.cpp:148] Top shape: 24 38 (912)
I0403 15:17:44.922834  2920 net.cpp:148] Top shape: 24 38 (912)
I0403 15:17:44.922849  2920 net.cpp:148] Top shape: 24 38 (912)
I0403 15:17:44.922863  2920 net.cpp:156] Memory required for data: 1346079072
I0403 15:17:44.922876  2920 layer_factory.hpp:77] Creating layer loss1/loss
I0403 15:17:44.922899  2920 net.cpp:91] Creating Layer loss1/loss
I0403 15:17:44.922915  2920 net.cpp:425] loss1/loss <- loss1/classifier_plantvillage_loss1/classifier_plantvillage_0_split_0
I0403 15:17:44.922946  2920 net.cpp:425] loss1/loss <- label_data_1_split_0
…
