…
I0403 15:03:40.163930  2598 net.cpp:313] The NetState phase (1) differed from the phase (0) specified by a rule in layer data
I0403 15:03:40.165067  2598 net.cpp:49] Initializing net from parameters: 
state {
  phase: TEST
}
layer {
  name: "data"
  type: "Data"
  top: "data"
  top: "label"
  include {
    phase: TEST
  }
  transform_param {
    mirror: false
    crop_size: 224
    mean_file: "/home/mohanty/data/final_dataset/lmdb/grayscale-50-50/mean.binaryproto"
  }
  data_param {
    source: "/home/mohanty/data/final_dataset/lmdb/grayscale-50-50/test_db"
    batch_size: 24
    backend: LMDB
  }
}
layer {
  name: "conv1/7x7_s2"
  type: "Convolution"
  bottom: "data"
  top: "conv1/7x7_s2"
  param {
    lr_mult: 1
    decay_mult: 1
  }
  param {
    lr_mult: 2
    decay_mult: 0
  }
  convolution_param {
    num_output: 64
    pad: 3
    kernel_size: 7
    stride: 2
    weight_filler {
      type: "xavier"
      std: 0.1
    }
    bias_filler {
      type: "constant"
      value: 0.2
    }
  }
}
layer {
  name: "conv1/relu_7x7"
  type: "ReLU"
  bottom: "conv1/7x7_s2"
  top: "conv1/7x7_s2"
}
layer {
  name: "pool1/3x3_s2"
  type: "Pooling"
  bottom: "conv1/7x7_s2"
  top: "pool1/3x3_s2"
  pooling_param {
    pool: MAX
    kernel_size: 3
    stride: 2
  }
}
layer {
  name: "pool1/norm1"
  type: "LRN"
  bottom: "pool1/3x3_s2"
  top: "pool1/norm1"
  lrn_param {
    local_size: 5
    alpha: 0.0001
    beta: 0.75
  }
}
layer {
  name: "conv2/3x3_reduce"
  type: "Convolution"
  bottom: "pool1/norm1"
  top: "conv2/3x3_reduce"
  param {
    lr_mult: 1
    decay_mult: 1
  }
  param {
    lr_mult: 2
    decay_mult: 0
  }
  convolution_param {
    num_output: 64
    kernel_size: 1
    weight_filler {
      type: "xavier"
      std: 0.1
    }
    bias_filler {
      type: "constant"
      value: 0.2
    }
  }
}
layer {
  name: "conv2/relu_3x3_reduce"
  type: "ReLU"
  bottom: "conv2/3x3_reduce"
  top: "conv2/3x3_reduce"
}
layer {
  name: "conv2/3x3"
  type: "Convolution"
  bottom: "conv2/3x3_reduce"
  top: "conv2/3x3"
  param {
    lr_mult: 1
    decay_mult: 1
  }
  param {
    lr_mult: 2
    decay_mult: 0
  }
  convolution_param {
    num_output: 192
    pad: 1
    kernel_size: 3
    weight_filler {
      type: "xavier"
      std: 0.03
    }
    bias_filler {
      type: "constant"
      value: 0.2
    }
  }
}
layer {
  name: "conv2/relu_3x3"
  type: "ReLU"
  bottom: "conv2/3x3"
  top: "conv2/3x3"
}
layer {
  name: "conv2/norm2"
  type: "LRN"
  bottom: "conv2/3x3"
  top: "conv2/norm2"
  lrn_param {
    local_size: 5
    alpha: 0.0001
    beta: 0.75
  }
}
layer {
  name: "pool2/3x3_s2"
  type: "Pooling"
  bottom: "conv2/norm2"
  top: "pool2/3x3_s2"
  pooling_param {
    pool: MAX
    kernel_size: 3
    stride: 2
  }
}
layer {
  name: "inception_3a/1x1"
  type: "Convolution"
  bottom: "pool2/3x3_s2"
  top: "inception_3a/1x1"
  param {
    lr_mult: 1
    decay_mult: 1
  }
  param {
    lr_mult: 2
    decay_mult: 0
  }
  convolution_param {
    num_output: 64
    kernel_size: 1
    weight_filler {
      type: "xavier"
      std: 0.03
    }
    bias_filler {
      type: "constant"
      value: 0.2
    }
  }
}
layer {
  name: "inception_3a/relu_1x1"
  type: "ReLU"
  bottom: "inception_3a/1x1"
  top: "inception_3a/1x1"
}
layer {
  name: "inception_3a/3x3_reduce"
  type: "Convolution"
  bottom: "pool2/3x3_s2"
  top: "inception_3a/3x3_reduce"
  param {
    lr_mult: 1
    decay_mult: 1
  }
  param {
    lr_mult: 2
    decay_mult: 0
  }
  convolution_param {
    num_output: 96
    kernel_size: 1
    weight_filler {
      type: "xavier"
      std: 0.09
    }
    bias_filler {
      type: "constant"
      value: 0.2
    }
  }
}
layer {
  name: "inception_3a/relu_3x3_reduce"
  type: "ReLU"
  bottom: "inception_3a/3x3_reduce"
  top: "inception_3a/3x3_reduce"
}
layer {
  name: "inception_3a/3x3"
  type: "Convolution"
  bottom: "inception_3a/3x3_reduce"
  top: "inception_3a/3x3"
  param {
    lr_mult: 1
    decay_mult: 1
  }
  param {
    lr_mult: 2
    decay_mult: 0
  }
  convolution_param {
    num_output: 128
    pad: 1
    kernel_size: 3
    weight_filler {
      type: "xavier"
      std: 0.03
    }
    bias_filler {
      type: "constant"
      value: 0.2
    }
  }
}
layer {
  name: "inception_3a/relu_3x3"
  type: "ReLU"
  bottom: "inception_3a/3x3"
  top: "inception_3a/3x3"
}
layer {
  name: "inception_3a/5x5_reduce"
  type: "Convolution"
  bottom: "pool2/3x3_s2"
  top: "inception_3a/5x5_reduce"
  param {
    lr_mult: 1
    decay_mult: 1
  }
  param {
    lr_mult: 2
    decay_mult: 0
  }
  convolution_param {
    num_output: 16
    kernel_size: 1
    weight_filler {
      type: "xavier"
      std: 0.2
    }
    bias_filler {
      type: "constant"
      value: 0.2
    }
  }
}
layer {
  name: "inception_3a/relu_5x5_reduce"
  type: "ReLU"
  bottom: "inception_3a/5x5_reduce"
  top: "inception_3a/5x5_reduce"
}
layer {
  name: "inception_3a/5x5"
  type: "Convolution"
  bottom: "inception_3a/5x5_reduce"
  top: "inception_3a/5x5"
  param {
    lr_mult: 1
    decay_mult: 1
  }
  param {
    lr_mult: 2
    decay_mult: 0
  }
  convolution_param {
    num_output: 32
    pad: 2
    kernel_size: 5
    weight_filler {
      type: "xavier"
      std: 0.03
    }
    bias_filler {
      type: "constant"
      value: 0.2
    }
  }
}
layer {
  name: "inception_3a/relu_5x5"
  type: "ReLU"
  bottom: "inception_3a/5x5"
  top: "inception_3a/5x5"
}
layer {
  name: "inception_3a/pool"
  type: "Pooling"
  bottom: "pool2/3x3_s2"
  top: "inception_3a/pool"
  pooling_param {
    pool: MAX
    kernel_size: 3
    stride: 1
    pad: 1
  }
}
layer {
  name: "inception_3a/pool_proj"
  type: "Convolution"
  bottom: "inception_3a/pool"
  top: "inception_3a/pool_proj"
  param {
    lr_mult: 1
    decay_mult: 1
  }
  param {
    lr_mult: 2
    decay_mult: 0
  }
  convolution_param {
    num_output: 32
    kernel_size: 1
    weight_filler {
      type: "xavier"
      std: 0.1
    }
    bias_filler {
      type: "constant"
      value: 0.2
    }
  }
}
layer {
  name: "inception_3a/relu_pool_proj"
  type: "ReLU"
  bottom: "inception_3a/pool_proj"
  top: "inception_3a/pool_proj"
}
layer {
  name: "inception_3a/output"
  type: "Concat"
  bottom: "inception_3a/1x1"
  bottom: "inception_3a/3x3"
  bottom: "inception_3a/5x5"
  bottom: "inception_3a/pool_proj"
  top: "inception_3a/output"
}
layer {
  name: "inception_3b/1x1"
  type: "Convolution"
  bottom: "inception_3a/output"
  top: "inception_3b/1x1"
  param {
    lr_mult: 1
    decay_mult: 1
  }
  param {
    lr_mult: 2
    decay_mult: 0
  }
  convolution_param {
    num_output: 128
    kernel_size: 1
    weight_filler {
      type: "xavier"
      std: 0.03
    }
    bias_filler {
      type: "constant"
      value: 0.2
    }
  }
}
layer {
  name: "inception_3b/relu_1x1"
  type: "ReLU"
  bottom: "inception_3b/1x1"
  top: "inception_3b/1x1"
}
layer {
  name: "inception_3b/3x3_reduce"
  type: "Convolution"
  bottom: "inception_3a/output"
  top: "inception_3b/3x3_reduce"
  param {
    lr_mult: 1
    decay_mult: 1
  }
  param {
    lr_mult: 2
    decay_mult: 0
  }
  convolution_param {
    num_output: 128
    kernel_size: 1
    weight_filler {
      type: "xavier"
      std: 0.09
    }
    bias_filler {
      type: "constant"
      value: 0.2
    }
  }
}
layer {
  name: "inception_3b/relu_3x3_reduce"
  type: "ReLU"
  bottom: "inception_3b/3x3_reduce"
  top: "inception_3b/3x3_reduce"
}
layer {
  name: "inception_3b/3x3"
  type: "Convolution"
  bottom: "inception_3b/3x3_reduce"
  top: "inception_3b/3x3"
  param {
    lr_mult: 1
    decay_mult: 1
  }
  param {
    lr_mult: 2
    decay_mult: 0
  }
  convolution_param {
    num_output: 192
    pad: 1
    kernel_size: 3
    weight_filler {
      type: "xavier"
      std: 0.03
    }
    bias_filler {
      type: "constant"
      value: 0.2
    }
  }
}
layer {
  name: "inception_3b/relu_3x3"
  type: "ReLU"
  bottom: "inception_3b/3x3"
  top: "inception_3b/3x3"
}
layer {
  name: "inception_3b/5x5_reduce"
  type: "Convolution"
  bottom: "inception_3a/output"
  top: "inception_3b/5x5_reduce"
  param {
    lr_mult: 1
    decay_mult: 1
  }
  param {
    lr_mult: 2
    decay_mult: 0
  }
  convolution_param {
    num_output: 32
    kernel_size: 1
    weight_filler {
      type: "xavier"
      std: 0.2
    }
    bias_filler {
      type: "constant"
      value: 0.2
    }
  }
}
layer {
  name: "inception_3b/relu_5x5_reduce"
  type: "ReLU"
  bottom: "inception_3b/5x5_reduce"
  top: "inception_3b/5x5_reduce"
}
layer {
  name: "inception_3b/5x5"
  type: "Convolution"
  bottom: "inception_3b/5x5_reduce"
  top: "inception_3b/5x5"
  param {
    lr_mult: 1
    decay_mult: 1
  }
  param {
    lr_mult: 2
    decay_mult: 0
  }
  convolution_param {
    num_output: 96
    pad: 2
    kernel_size: 5
    weight_filler {
      type: "xavier"
      std: 0.03
    }
    bias_filler {
      type: "constant"
      value: 0.2
    }
  }
}
layer {
  name: "inception_3b/relu_5x5"
  type: "ReLU"
  bottom: "inception_3b/5x5"
  top: "inception_3b/5x5"
}
layer {
  name: "inception_3b/pool"
  type: "Pooling"
  bottom: "inception_3a/output"
  top: "inception_3b/pool"
  pooling_param {
    pool: MAX
    kernel_size: 3
    stride: 1
    pad: 1
  }
}
layer {
  name: "inception_3b/pool_proj"
  type: "Convolution"
  bottom: "inception_3b/pool"
  top: "inception_3b/pool_proj"
  param {
    lr_mult: 1
    decay_mult: 1
  }
  param {
    lr_mult: 2
    decay_mult: 0
  }
  convolution_param {
    num_output: 64
    kernel_size: 1
    weight_filler {
      type: "xavier"
      std: 0.1
    }
    bias_filler {
      type: "constant"
      value: 0.2
    }
  }
}
layer {
  name: "inception_3b/relu_pool_proj"
  type: "ReLU"
  bottom: "inception_3b/pool_proj"
  top: "inception_3b/pool_proj"
}
layer {
  name: "inception_3b/output"
  type: "Concat"
  bottom: "inception_3b/1x1"
  bottom: "inception_3b/3x3"
  bottom: "inception_3b/5x5"
  bottom: "inception_3b/pool_proj"
  top: "inception_3b/output"
}
layer {
  name: "pool3/3x3_s2"
  type: "Pooling"
  bottom: "inception_3b/output"
  top: "pool3/3x3_s2"
  pooling_param {
    pool: MAX
    kernel_size: 3
    stride: 2
  }
}
layer {
  name: "inception_4a/1x1"
  type: "Convolution"
  bottom: "pool3/3x3_s2"
  top: "inception_4a/1x1"
  param {
    lr_mult: 1
    decay_mult: 1
  }
  param {
    lr_mult: 2
    decay_mult: 0
  }
  convolution_param {
    num_output: 192
    kernel_size: 1
    weight_filler {
      type: "xavier"
      std: 0.03
    }
    bias_filler {
      type: "constant"
      value: 0.2
    }
  }
}
layer {
  name: "inception_4a/relu_1x1"
  type: "ReLU"
  bottom: "inception_4a/1x1"
  top: "inception_4a/1x1"
}
layer {
  name: "inception_4a/3x3_reduce"
  type: "Convolution"
  bottom: "pool3/3x3_s2"
  top: "inception_4a/3x3_reduce"
  param {
    lr_mult: 1
    decay_mult: 1
  }
  param {
    lr_mult: 2
    decay_mult: 0
  }
  convolution_param {
    num_output: 96
    kernel_size: 1
    weight_filler {
      type: "xavier"
      std: 0.09
    }
    bias_filler {
      type: "constant"
      value: 0.2
    }
  }
}
layer {
  name: "inception_4a/relu_3x3_reduce"
  type: "ReLU"
  bottom: "inception_4a/3x3_reduce"
  top: "inception_4a/3x3_reduce"
}
layer {
  name: "inception_4a/3x3"
  type: "Convolution"
  bottom: "inception_4a/3x3_reduce"
  top: "inception_4a/3x3"
  param {
    lr_mult: 1
    decay_mult: 1
  }
  param {
    lr_mult: 2
    decay_mult: 0
  }
  convolution_param {
    num_output: 208
    pad: 1
    kernel_size: 3
    weight_filler {
      type: "xavier"
      std: 0.03
    }
    bias_filler {
      type: "constant"
      value: 0.2
    }
  }
}
layer {
  name: "inception_4a/relu_3x3"
  type: "ReLU"
  bottom: "inception_4a/3x3"
  top: "inception_4a/3x3"
}
layer {
  name: "inception_4a/5x5_reduce"
  type: "Convolution"
  bottom: "pool3/3x3_s2"
  top: "inception_4a/5x5_reduce"
  param {
    lr_mult: 1
    decay_mult: 1
  }
  param {
    lr_mult: 2
    decay_mult: 0
  }
  convolution_param {
    num_output: 16
    kernel_size: 1
    weight_filler {
      type: "xavier"
      std: 0.2
    }
    bias_filler {
      type: "constant"
      value: 0.2
    }
  }
}
layer {
  name: "inception_4a/relu_5x5_reduce"
  type: "ReLU"
  bottom: "inception_4a/5x5_reduce"
  top: "inception_4a/5x5_reduce"
}
layer {
  name: "inception_4a/5x5"
  type: "Convolution"
  bottom: "inception_4a/5x5_reduce"
  top: "inception_4a/5x5"
  param {
    lr_mult: 1
    decay_mult: 1
  }
  param {
    lr_mult: 2
    decay_mult: 0
  }
  convolution_param {
    num_output: 48
    pad: 2
    kernel_size: 5
    weight_filler {
      type: "xavier"
      std: 0.03
    }
    bias_filler {
      type: "constant"
      value: 0.2
    }
  }
}
layer {
  name: "inception_4a/relu_5x5"
  type: "ReLU"
  bottom: "inception_4a/5x5"
  top: "inception_4a/5x5"
}
layer {
  name: "inception_4a/pool"
  type: "Pooling"
  bottom: "pool3/3x3_s2"
  top: "inception_4a/pool"
  pooling_param {
    pool: MAX
    kernel_size: 3
    stride: 1
    pad: 1
  }
}
layer {
  name: "inception_4a/pool_proj"
  type: "Convolution"
  bottom: "inception_4a/pool"
  top: "inception_4a/pool_proj"
  param {
    lr_mult: 1
    decay_mult: 1
  }
  param {
    lr_mult: 2
    decay_mult: 0
  }
  convolution_param {
    num_output: 64
    kernel_size: 1
    weight_filler {
      type: "xavier"
      std: 0.1
    }
    bias_filler {
      type: "constant"
      value: 0.2
    }
  }
}
layer {
  name: "inception_4a/relu_pool_proj"
  type: "ReLU"
  bottom: "inception_4a/pool_proj"
  top: "inception_4a/pool_proj"
}
layer {
  name: "inception_4a/output"
  type: "Concat"
  bottom: "inception_4a/1x1"
  bottom: "inception_4a/3x3"
  bottom: "inception_4a/5x5"
  bottom: "inception_4a/pool_proj"
  top: "inception_4a/output"
}
layer {
  name: "loss1/ave_pool"
  type: "Pooling"
  bottom: "inception_4a/output"
  top: "loss1/ave_pool"
  pooling_param {
    pool: AVE
    kernel_size: 5
    stride: 3
  }
}
layer {
  name: "loss1/conv"
  type: "Convolution"
  bottom: "loss1/ave_pool"
  top: "loss1/conv"
  param {
    lr_mult: 1
    decay_mult: 1
  }
  param {
    lr_mult: 2
    decay_mult: 0
  }
  convolution_param {
    num_output: 128
    kernel_size: 1
    weight_filler {
      type: "xavier"
      std: 0.08
    }
    bias_filler {
      type: "constant"
      value: 0.2
    }
  }
}
layer {
  name: "loss1/relu_conv"
  type: "ReLU"
  bottom: "loss1/conv"
  top: "loss1/conv"
}
layer {
  name: "loss1/fc"
  type: "InnerProduct"
  bottom: "loss1/conv"
  top: "loss1/fc"
  param {
    lr_mult: 1
    decay_mult: 1
  }
  param {
    lr_mult: 2
    decay_mult: 0
  }
  inner_product_param {
    num_output: 1024
    weight_filler {
      type: "xavier"
      std: 0.02
    }
    bias_filler {
      type: "constant"
      value: 0.2
    }
  }
}
layer {
  name: "loss1/relu_fc"
  type: "ReLU"
  bottom: "loss1/fc"
  top: "loss1/fc"
}
layer {
  name: "loss1/drop_fc"
  type: "Dropout"
  bottom: "loss1/fc"
  top: "loss1/fc"
  dropout_param {
    dropout_ratio: 0.7
  }
}
layer {
  name: "loss1/classifier_plantvillage"
  type: "InnerProduct"
  bottom: "loss1/fc"
  top: "loss1/classifier_plantvillage"
  param {
    lr_mult: 1
    decay_mult: 1
  }
  param {
    lr_mult: 2
    decay_mult: 0
  }
  inner_product_param {
    num_output: 38
    weight_filler {
      type: "xavier"
      std: 0.0009765625
    }
    bias_filler {
      type: "constant"
      value: 0
    }
  }
}
layer {
  name: "inception_4b/1x1"
  type: "Convolution"
  bottom: "inception_4a/output"
  top: "inception_4b/1x1"
  param {
    lr_mult: 1
    decay_mult: 1
  }
  param {
    lr_mult: 2
    decay_mult: 0
  }
  convolution_param {
    num_output: 160
    kernel_size: 1
    weight_filler {
      type: "xavier"
      std: 0.03
    }
    bias_filler {
      type: "constant"
      value: 0.2
    }
  }
}
layer {
  name: "inception_4b/relu_1x1"
  type: "ReLU"
  bottom: "inception_4b/1x1"
  top: "inception_4b/1x1"
}
layer {
  name: "inception_4b/3x3_reduce"
  type: "Convolution"
  bottom: "inception_4a/output"
  top: "inception_4b/3x3_reduce"
  param {
    lr_mult: 1
    decay_mult: 1
  }
  param {
    lr_mult: 2
    decay_mult: 0
  }
  convolution_param {
    num_output: 112
    kernel_size: 1
    weight_filler {
      type: "xavier"
      std: 0.09
    }
    bias_filler {
      type: "constant"
      value: 0.2
    }
  }
}
layer {
  name: "inception_4b/relu_3x3_reduce"
  type: "ReLU"
  bottom: "inception_4b/3x3_reduce"
  top: "inception_4b/3x3_reduce"
}
layer {
  name: "inception_4b/3x3"
  type: "Convolution"
  bottom: "inception_4b/3x3_reduce"
  top: "inception_4b/3x3"
  param {
    lr_mult: 1
    decay_mult: 1
  }
  param {
    lr_mult: 2
    decay_mult: 0
  }
  convolution_param {
    num_output: 224
    pad: 1
    kernel_size: 3
    weight_filler {
      type: "xavier"
      std: 0.03
    }
    bias_filler {
      type: "constant"
      value: 0.2
    }
  }
}
layer {
  name: "inception_4b/relu_3x3"
  type: "ReLU"
  bottom: "inception_4b/3x3"
  top: "inception_4b/3x3"
}
layer {
  name: "inception_4b/5x5_reduce"
  type: "Convolution"
  bottom: "inception_4a/output"
  top: "inception_4b/5x5_reduce"
  param {
    lr_mult: 1
    decay_mult: 1
  }
  param {
    lr_mult: 2
    decay_mult: 0
  }
  convolution_param {
    num_output: 24
    kernel_size: 1
    weight_filler {
      type: "xavier"
      std: 0.2
    }
    bias_filler {
      type: "constant"
      value: 0.2
    }
  }
}
layer {
  name: "inception_4b/relu_5x5_reduce"
  type: "ReLU"
  bottom: "inception_4b/5x5_reduce"
  top: "inception_4b/5x5_reduce"
}
layer {
  name: "inception_4b/5x5"
  type: "Convolution"
  bottom: "inception_4b/5x5_reduce"
  top: "inception_4b/5x5"
  param {
    lr_mult: 1
    decay_mult: 1
  }
  param {
    lr_mult: 2
    decay_mult: 0
  }
  convolution_param {
    num_output: 64
    pad: 2
    kernel_size: 5
    weight_filler {
      type: "xavier"
      std: 0.03
    }
    bias_filler {
      type: "constant"
      value: 0.2
    }
  }
}
layer {
  name: "inception_4b/relu_5x5"
  type: "ReLU"
  bottom: "inception_4b/5x5"
  top: "inception_4b/5x5"
}
layer {
  name: "inception_4b/pool"
  type: "Pooling"
  bottom: "inception_4a/output"
  top: "inception_4b/pool"
  pooling_param {
    pool: MAX
    kernel_size: 3
    stride: 1
    pad: 1
  }
}
layer {
  name: "inception_4b/pool_proj"
  type: "Convolution"
  bottom: "inception_4b/pool"
  top: "inception_4b/pool_proj"
  param {
    lr_mult: 1
    decay_mult: 1
  }
  param {
    lr_mult: 2
    decay_mult: 0
  }
  convolution_param {
    num_output: 64
    kernel_size: 1
    weight_filler {
      type: "xavier"
      std: 0.1
    }
    bias_filler {
      type: "constant"
      value: 0.2
    }
  }
}
layer {
  name: "inception_4b/relu_pool_proj"
  type: "ReLU"
  bottom: "inception_4b/pool_proj"
  top: "inception_4b/pool_proj"
}
layer {
  name: "inception_4b/output"
  type: "Concat"
  bottom: "inception_4b/1x1"
  bottom: "inception_4b/3x3"
  bottom: "inception_4b/5x5"
  bottom: "inception_4b/pool_proj"
  top: "inception_4b/output"
}
layer {
  name: "inception_4c/1x1"
  type: "Convolution"
  bottom: "inception_4b/output"
  top: "inception_4c/1x1"
  param {
    lr_mult: 1
    decay_mult: 1
  }
  param {
    lr_mult: 2
    decay_mult: 0
  }
  convolution_param {
    num_output: 128
    kernel_size: 1
    weight_filler {
      type: "xavier"
      std: 0.03
    }
    bias_filler {
      type: "constant"
      value: 0.2
    }
  }
}
layer {
  name: "inception_4c/relu_1x1"
  type: "ReLU"
  bottom: "inception_4c/1x1"
  top: "inception_4c/1x1"
}
layer {
  name: "inception_4c/3x3_reduce"
  type: "Convolution"
  bottom: "inception_4b/output"
  top: "inception_4c/3x3_reduce"
  param {
    lr_mult: 1
    decay_mult: 1
  }
  param {
    lr_mult: 2
    decay_mult: 0
  }
  convolution_param {
    num_output: 128
    kernel_size: 1
    weight_filler {
      type: "xavier"
      std: 0.09
    }
    bias_filler {
      type: "constant"
      value: 0.2
    }
  }
}
layer {
  name: "inception_4c/relu_3x3_reduce"
  type: "ReLU"
  bottom: "inception_4c/3x3_reduce"
  top: "inception_4c/3x3_reduce"
}
layer {
  name: "inception_4c/3x3"
  type: "Convolution"
  bottom: "inception_4c/3x3_reduce"
  top: "inception_4c/3x3"
  param {
    lr_mult: 1
    decay_mult: 1
  }
  param {
    lr_mult: 2
    decay_mult: 0
  }
  convolution_param {
    num_output: 256
    pad: 1
    kernel_size: 3
    weight_filler {
      type: "xavier"
      std: 0.03
    }
    bias_filler {
      type: "constant"
      value: 0.2
    }
  }
}
layer {
  name: "inception_4c/relu_3x3"
  type: "ReLU"
  bottom: "inception_4c/3x3"
  top: "inception_4c/3x3"
}
layer {
  name: "inception_4c/5x5_reduce"
  type: "Convolution"
  bottom: "inception_4b/output"
  top: "inception_4c/5x5_reduce"
  param {
    lr_mult: 1
    decay_mult: 1
  }
  param {
    lr_mult: 2
    decay_mult: 0
  }
  convolution_param {
    num_output: 24
    kernel_size: 1
    weight_filler {
      type: "xavier"
      std: 0.2
    }
    bias_filler {
      type: "constant"
      value: 0.2
    }
  }
}
layer {
  name: "inception_4c/relu_5x5_reduce"
  type: "ReLU"
  bottom: "inception_4c/5x5_reduce"
  top: "inception_4c/5x5_reduce"
}
layer {
  name: "inception_4c/5x5"
  type: "Convolution"
  bottom: "inception_4c/5x5_reduce"
  top: "inception_4c/5x5"
  param {
    lr_mult: 1
    decay_mult: 1
  }
  param {
    lr_mult: 2
    decay_mult: 0
  }
  convolution_param {
    num_output: 64
    pad: 2
    kernel_size: 5
    weight_filler {
      type: "xavier"
      std: 0.03
    }
    bias_filler {
      type: "constant"
      value: 0.2
    }
  }
}
layer {
  name: "inception_4c/relu_5x5"
  type: "ReLU"
  bottom: "inception_4c/5x5"
  top: "inception_4c/5x5"
}
layer {
  name: "inception_4c/pool"
  type: "Pooling"
  bottom: "inception_4b/output"
  top: "inception_4c/pool"
  pooling_param {
    pool: MAX
    kernel_size: 3
    stride: 1
    pad: 1
  }
}
layer {
  name: "inception_4c/pool_proj"
  type: "Convolution"
  bottom: "inception_4c/pool"
  top: "inception_4c/pool_proj"
  param {
    lr_mult: 1
    decay_mult: 1
  }
  param {
    lr_mult: 2
    decay_mult: 0
  }
  convolution_param {
    num_output: 64
    kernel_size: 1
    weight_filler {
      type: "xavier"
      std: 0.1
    }
    bias_filler {
      type: "constant"
      value: 0.2
    }
  }
}
layer {
  name: "inception_4c/relu_pool_proj"
  type: "ReLU"
  bottom: "inception_4c/pool_proj"
  top: "inception_4c/pool_proj"
}
layer {
  name: "inception_4c/output"
  type: "Concat"
  bottom: "inception_4c/1x1"
  bottom: "inception_4c/3x3"
  bottom: "inception_4c/5x5"
  bottom: "inception_4c/pool_proj"
  top: "inception_4c/output"
}
layer {
  name: "inception_4d/1x1"
  type: "Convolution"
  bottom: "inception_4c/output"
  top: "inception_4d/1x1"
  param {
    lr_mult: 1
    decay_mult: 1
  }
  param {
    lr_mult: 2
    decay_mult: 0
  }
  convolution_param {
    num_output: 112
    kernel_size: 1
    weight_filler {
      type: "xavier"
      std: 0.03
    }
    bias_filler {
      type: "constant"
      value: 0.2
    }
  }
}
layer {
  name: "inception_4d/relu_1x1"
  type: "ReLU"
  bottom: "inception_4d/1x1"
  top: "inception_4d/1x1"
}
layer {
  name: "inception_4d/3x3_reduce"
  type: "Convolution"
  bottom: "inception_4c/output"
  top: "inception_4d/3x3_reduce"
  param {
    lr_mult: 1
    decay_mult: 1
  }
  param {
    lr_mult: 2
    decay_mult: 0
  }
  convolution_param {
    num_output: 144
    kernel_size: 1
    weight_filler {
      type: "xavier"
      std: 0.09
    }
    bias_filler {
      type: "constant"
      value: 0.2
    }
  }
}
layer {
  name: "inception_4d/relu_3x3_reduce"
  type: "ReLU"
  bottom: "inception_4d/3x3_reduce"
  top: "inception_4d/3x3_reduce"
}
layer {
  name: "inception_4d/3x3"
  type: "Convolution"
  bottom: "inception_4d/3x3_reduce"
  top: "inception_4d/3x3"
  param {
    lr_mult: 1
    decay_mult: 1
  }
  param {
    lr_mult: 2
    decay_mult: 0
  }
  convolution_param {
    num_output: 288
    pad: 1
    kernel_size: 3
    weight_filler {
      type: "xavier"
      std: 0.03
    }
    bias_filler {
      type: "constant"
      value: 0.2
    }
  }
}
layer {
  name: "inception_4d/relu_3x3"
  type: "ReLU"
  bottom: "inception_4d/3x3"
  top: "inception_4d/3x3"
}
layer {
  name: "inception_4d/5x5_reduce"
  type: "Convolution"
  bottom: "inception_4c/output"
  top: "inception_4d/5x5_reduce"
  param {
    lr_mult: 1
    decay_mult: 1
  }
  param {
    lr_mult: 2
    decay_mult: 0
  }
  convolution_param {
    num_output: 32
    kernel_size: 1
    weight_filler {
      type: "xavier"
      std: 0.2
    }
    bias_filler {
      type: "constant"
      value: 0.2
    }
  }
}
layer {
  name: "inception_4d/relu_5x5_reduce"
  type: "ReLU"
  bottom: "inception_4d/5x5_reduce"
  top: "inception_4d/5x5_reduce"
}
layer {
  name: "inception_4d/5x5"
  type: "Convolution"
  bottom: "inception_4d/5x5_reduce"
  top: "inception_4d/5x5"
  param {
    lr_mult: 1
    decay_mult: 1
  }
  param {
    lr_mult: 2
    decay_mult: 0
  }
  convolution_param {
    num_output: 64
    pad: 2
    kernel_size: 5
    weight_filler {
      type: "xavier"
      std: 0.03
    }
    bias_filler {
      type: "constant"
      value: 0.2
    }
  }
}
layer {
  name: "inception_4d/relu_5x5"
  type: "ReLU"
  bottom: "inception_4d/5x5"
  top: "inception_4d/5x5"
}
layer {
  name: "inception_4d/pool"
  type: "Pooling"
  bottom: "inception_4c/output"
  top: "inception_4d/pool"
  pooling_param {
    pool: MAX
    kernel_size: 3
    stride: 1
    pad: 1
  }
}
layer {
  name: "inception_4d/pool_proj"
  type: "Convolution"
  bottom: "inception_4d/pool"
  top: "inception_4d/pool_proj"
  param {
    lr_mult: 1
    decay_mult: 1
  }
  param {
    lr_mult: 2
    decay_mult: 0
  }
  convolution_param {
    num_output: 64
    kernel_size: 1
    weight_filler {
      type: "xavier"
      std: 0.1
    }
    bias_filler {
      type: "constant"
      value: 0.2
    }
  }
}
layer {
  name: "inception_4d/relu_pool_proj"
  type: "ReLU"
  bottom: "inception_4d/pool_proj"
  top: "inception_4d/pool_proj"
}
layer {
  name: "inception_4d/output"
  type: "Concat"
  bottom: "inception_4d/1x1"
  bottom: "inception_4d/3x3"
  bottom: "inception_4d/5x5"
  bottom: "inception_4d/pool_proj"
  top: "inception_4d/output"
}
layer {
  name: "loss2/ave_pool"
  type: "Pooling"
  bottom: "inception_4d/output"
  top: "loss2/ave_pool"
  pooling_param {
    pool: AVE
    kernel_size: 5
    stride: 3
  }
}
layer {
  name: "loss2/conv"
  type: "Convolution"
  bottom: "loss2/ave_pool"
  top: "loss2/conv"
  param {
    lr_mult: 1
    decay_mult: 1
  }
  param {
    lr_mult: 2
    decay_mult: 0
  }
  convolution_param {
    num_output: 128
    kernel_size: 1
    weight_filler {
      type: "xavier"
      std: 0.08
    }
    bias_filler {
      type: "constant"
      value: 0.2
    }
  }
}
layer {
  name: "loss2/relu_conv"
  type: "ReLU"
  bottom: "loss2/conv"
  top: "loss2/conv"
}
layer {
  name: "loss2/fc"
  type: "InnerProduct"
  bottom: "loss2/conv"
  top: "loss2/fc"
  param {
    lr_mult: 1
    decay_mult: 1
  }
  param {
    lr_mult: 2
    decay_mult: 0
  }
  inner_product_param {
    num_output: 1024
    weight_filler {
      type: "xavier"
      std: 0.02
    }
    bias_filler {
      type: "constant"
      value: 0.2
    }
  }
}
layer {
  name: "loss2/relu_fc"
  type: "ReLU"
  bottom: "loss2/fc"
  top: "loss2/fc"
}
layer {
  name: "loss2/drop_fc"
  type: "Dropout"
  bottom: "loss2/fc"
  top: "loss2/fc"
  dropout_param {
    dropout_ratio: 0.7
  }
}
layer {
  name: "loss2/classifier_plantvillage"
  type: "InnerProduct"
  bottom: "loss2/fc"
  top: "loss2/classifier_plantvillage"
  param {
    lr_mult: 1
    decay_mult: 1
  }
  param {
    lr_mult: 2
    decay_mult: 0
  }
  inner_product_param {
    num_output: 38
    weight_filler {
      type: "xavier"
      std: 0.0009765625
    }
    bias_filler {
      type: "constant"
      value: 0
    }
  }
}
layer {
  name: "inception_4e/1x1"
  type: "Convolution"
  bottom: "inception_4d/output"
  top: "inception_4e/1x1"
  param {
    lr_mult: 1
    decay_mult: 1
  }
  param {
    lr_mult: 2
    decay_mult: 0
  }
  convolution_param {
    num_output: 256
    kernel_size: 1
    weight_filler {
      type: "xavier"
      std: 0.03
    }
    bias_filler {
      type: "constant"
      value: 0.2
    }
  }
}
layer {
  name: "inception_4e/relu_1x1"
  type: "ReLU"
  bottom: "inception_4e/1x1"
  top: "inception_4e/1x1"
}
layer {
  name: "inception_4e/3x3_reduce"
  type: "Convolution"
  bottom: "inception_4d/output"
  top: "inception_4e/3x3_reduce"
  param {
    lr_mult: 1
    decay_mult: 1
  }
  param {
    lr_mult: 2
    decay_mult: 0
  }
  convolution_param {
    num_output: 160
    kernel_size: 1
    weight_filler {
      type: "xavier"
      std: 0.09
    }
    bias_filler {
      type: "constant"
      value: 0.2
    }
  }
}
layer {
  name: "inception_4e/relu_3x3_reduce"
  type: "ReLU"
  bottom: "inception_4e/3x3_reduce"
  top: "inception_4e/3x3_reduce"
}
layer {
  name: "inception_4e/3x3"
  type: "Convolution"
  bottom: "inception_4e/3x3_reduce"
  top: "inception_4e/3x3"
  param {
    lr_mult: 1
    decay_mult: 1
  }
  param {
    lr_mult: 2
    decay_mult: 0
  }
  convolution_param {
    num_output: 320
    pad: 1
    kernel_size: 3
    weight_filler {
      type: "xavier"
      std: 0.03
    }
    bias_filler {
      type: "constant"
      value: 0.2
    }
  }
}
layer {
  name: "inception_4e/relu_3x3"
  type: "ReLU"
  bottom: "inception_4e/3x3"
  top: "inception_4e/3x3"
}
layer {
  name: "inception_4e/5x5_reduce"
  type: "Convolution"
  bottom: "inception_4d/output"
  top: "inception_4e/5x5_reduce"
  param {
    lr_mult: 1
    decay_mult: 1
  }
  param {
    lr_mult: 2
    decay_mult: 0
  }
  convolution_param {
    num_output: 32
    kernel_size: 1
    weight_filler {
      type: "xavier"
      std: 0.2
    }
    bias_filler {
      type: "constant"
      value: 0.2
    }
  }
}
layer {
  name: "inception_4e/relu_5x5_reduce"
  type: "ReLU"
  bottom: "inception_4e/5x5_reduce"
  top: "inception_4e/5x5_reduce"
}
layer {
  name: "inception_4e/5x5"
  type: "Convolution"
  bottom: "inception_4e/5x5_reduce"
  top: "inception_4e/
I0403 15:03:40.166487  2598 layer_factory.hpp:77] Creating layer data
I0403 15:03:40.167095  2598 net.cpp:91] Creating Layer data
I0403 15:03:40.167129  2598 net.cpp:399] data -> data
I0403 15:03:40.167179  2598 net.cpp:399] data -> label
I0403 15:03:40.167215  2598 data_transformer.cpp:25] Loading mean file from: /home/mohanty/data/final_dataset/lmdb/grayscale-50-50/mean.binaryproto
I0403 15:03:40.171591  2602 db_lmdb.cpp:38] Opened lmdb /home/mohanty/data/final_dataset/lmdb/grayscale-50-50/test_db
I0403 15:03:40.180531  2598 data_layer.cpp:41] output data size: 24,3,224,224
I0403 15:03:40.207859  2598 net.cpp:141] Setting up data
I0403 15:03:40.207926  2598 net.cpp:148] Top shape: 24 3 224 224 (3612672)
I0403 15:03:40.207949  2598 net.cpp:148] Top shape: 24 (24)
I0403 15:03:40.207965  2598 net.cpp:156] Memory required for data: 14450784
I0403 15:03:40.207993  2598 layer_factory.hpp:77] Creating layer label_data_1_split
I0403 15:03:40.208019  2598 net.cpp:91] Creating Layer label_data_1_split
I0403 15:03:40.208037  2598 net.cpp:425] label_data_1_split <- label
I0403 15:03:40.208070  2598 net.cpp:399] label_data_1_split -> label_data_1_split_0
I0403 15:03:40.208099  2598 net.cpp:399] label_data_1_split -> label_data_1_split_1
I0403 15:03:40.208120  2598 net.cpp:399] label_data_1_split -> label_data_1_split_2
I0403 15:03:40.208142  2598 net.cpp:399] label_data_1_split -> label_data_1_split_3
I0403 15:03:40.208163  2598 net.cpp:399] label_data_1_split -> label_data_1_split_4
I0403 15:03:40.208184  2598 net.cpp:399] label_data_1_split -> label_data_1_split_5
I0403 15:03:40.208204  2598 net.cpp:399] label_data_1_split -> label_data_1_split_6
I0403 15:03:40.208226  2598 net.cpp:399] label_data_1_split -> label_data_1_split_7
I0403 15:03:40.208252  2598 net.cpp:399] label_data_1_split -> label_data_1_split_8
I0403 15:03:40.208276  2598 net.cpp:399] label_data_1_split -> label_data_1_split_9
I0403 15:03:40.208392  2598 net.cpp:141] Setting up label_data_1_split
I0403 15:03:40.208416  2598 net.cpp:148] Top shape: 24 (24)
I0403 15:03:40.208434  2598 net.cpp:148] Top shape: 24 (24)
I0403 15:03:40.208451  2598 net.cpp:148] Top shape: 24 (24)
I0403 15:03:40.208467  2598 net.cpp:148] Top shape: 24 (24)
I0403 15:03:40.208484  2598 net.cpp:148] Top shape: 24 (24)
I0403 15:03:40.208500  2598 net.cpp:148] Top shape: 24 (24)
I0403 15:03:40.208518  2598 net.cpp:148] Top shape: 24 (24)
I0403 15:03:40.208534  2598 net.cpp:148] Top shape: 24 (24)
I0403 15:03:40.208549  2598 net.cpp:148] Top shape: 24 (24)
I0403 15:03:40.208566  2598 net.cpp:148] Top shape: 24 (24)
I0403 15:03:40.208611  2598 net.cpp:156] Memory required for data: 14451744
I0403 15:03:40.208626  2598 layer_factory.hpp:77] Creating layer conv1/7x7_s2
I0403 15:03:40.208659  2598 net.cpp:91] Creating Layer conv1/7x7_s2
I0403 15:03:40.208678  2598 net.cpp:425] conv1/7x7_s2 <- data
I0403 15:03:40.208698  2598 net.cpp:399] conv1/7x7_s2 -> conv1/7x7_s2
I0403 15:03:40.346302  2598 net.cpp:141] Setting up conv1/7x7_s2
I0403 15:03:40.346393  2598 net.cpp:148] Top shape: 24 64 112 112 (19267584)
I0403 15:03:40.346413  2598 net.cpp:156] Memory required for data: 91522080
I0403 15:03:40.346446  2598 layer_factory.hpp:77] Creating layer conv1/relu_7x7
I0403 15:03:40.346474  2598 net.cpp:91] Creating Layer conv1/relu_7x7
I0403 15:03:40.346494  2598 net.cpp:425] conv1/relu_7x7 <- conv1/7x7_s2
I0403 15:03:40.346513  2598 net.cpp:386] conv1/relu_7x7 -> conv1/7x7_s2 (in-place)
I0403 15:03:40.346772  2598 net.cpp:141] Setting up conv1/relu_7x7
I0403 15:03:40.346801  2598 net.cpp:148] Top shape: 24 64 112 112 (19267584)
I0403 15:03:40.346817  2598 net.cpp:156] Memory required for data: 168592416
I0403 15:03:40.346832  2598 layer_factory.hpp:77] Creating layer pool1/3x3_s2
I0403 15:03:40.346858  2598 net.cpp:91] Creating Layer pool1/3x3_s2
I0403 15:03:40.346875  2598 net.cpp:425] pool1/3x3_s2 <- conv1/7x7_s2
I0403 15:03:40.346894  2598 net.cpp:399] pool1/3x3_s2 -> pool1/3x3_s2
I0403 15:03:40.346967  2598 net.cpp:141] Setting up pool1/3x3_s2
I0403 15:03:40.346992  2598 net.cpp:148] Top shape: 24 64 56 56 (4816896)
I0403 15:03:40.347007  2598 net.cpp:156] Memory required for data: 187860000
I0403 15:03:40.347023  2598 layer_factory.hpp:77] Creating layer pool1/norm1
I0403 15:03:40.347048  2598 net.cpp:91] Creating Layer pool1/norm1
I0403 15:03:40.347066  2598 net.cpp:425] pool1/norm1 <- pool1/3x3_s2
I0403 15:03:40.347097  2598 net.cpp:399] pool1/norm1 -> pool1/norm1
I0403 15:03:40.347399  2598 net.cpp:141] Setting up pool1/norm1
I0403 15:03:40.347429  2598 net.cpp:148] Top shape: 24 64 56 56 (4816896)
I0403 15:03:40.347445  2598 net.cpp:156] Memory required for data: 207127584
I0403 15:03:40.347462  2598 layer_factory.hpp:77] Creating layer conv2/3x3_reduce
I0403 15:03:40.347488  2598 net.cpp:91] Creating Layer conv2/3x3_reduce
I0403 15:03:40.347506  2598 net.cpp:425] conv2/3x3_reduce <- pool1/norm1
I0403 15:03:40.347524  2598 net.cpp:399] conv2/3x3_reduce -> conv2/3x3_reduce
I0403 15:03:40.348929  2598 net.cpp:141] Setting up conv2/3x3_reduce
I0403 15:03:40.348961  2598 net.cpp:148] Top shape: 24 64 56 56 (4816896)
I0403 15:03:40.348978  2598 net.cpp:156] Memory required for data: 226395168
I0403 15:03:40.348999  2598 layer_factory.hpp:77] Creating layer conv2/relu_3x3_reduce
I0403 15:03:40.349017  2598 net.cpp:91] Creating Layer conv2/relu_3x3_reduce
I0403 15:03:40.349033  2598 net.cpp:425] conv2/relu_3x3_reduce <- conv2/3x3_reduce
I0403 15:03:40.349051  2598 net.cpp:386] conv2/relu_3x3_reduce -> conv2/3x3_reduce (in-place)
I0403 15:03:40.349349  2598 net.cpp:141] Setting up conv2/relu_3x3_reduce
I0403 15:03:40.349378  2598 net.cpp:148] Top shape: 24 64 56 56 (4816896)
I0403 15:03:40.349395  2598 net.cpp:156] Memory required for data: 245662752
I0403 15:03:40.349412  2598 layer_factory.hpp:77] Creating layer conv2/3x3
I0403 15:03:40.349438  2598 net.cpp:91] Creating Layer conv2/3x3
I0403 15:03:40.349457  2598 net.cpp:425] conv2/3x3 <- conv2/3x3_reduce
I0403 15:03:40.349480  2598 net.cpp:399] conv2/3x3 -> conv2/3x3
I0403 15:03:40.351912  2598 net.cpp:141] Setting up conv2/3x3
I0403 15:03:40.351944  2598 net.cpp:148] Top shape: 24 192 56 56 (14450688)
I0403 15:03:40.351963  2598 net.cpp:156] Memory required for data: 303465504
I0403 15:03:40.351984  2598 layer_factory.hpp:77] Creating layer conv2/relu_3x3
I0403 15:03:40.352010  2598 net.cpp:91] Creating Layer conv2/relu_3x3
I0403 15:03:40.352028  2598 net.cpp:425] conv2/relu_3x3 <- conv2/3x3
I0403 15:03:40.352047  2598 net.cpp:386] conv2/relu_3x3 -> conv2/3x3 (in-place)
I0403 15:03:40.352226  2598 net.cpp:141] Setting up conv2/relu_3x3
I0403 15:03:40.352267  2598 net.cpp:148] Top shape: 24 192 56 56 (14450688)
I0403 15:03:40.352324  2598 net.cpp:156] Memory required for data: 361268256
I0403 15:03:40.352342  2598 layer_factory.hpp:77] Creating layer conv2/norm2
I0403 15:03:40.352362  2598 net.cpp:91] Creating Layer conv2/norm2
I0403 15:03:40.352380  2598 net.cpp:425] conv2/norm2 <- conv2/3x3
I0403 15:03:40.352401  2598 net.cpp:399] conv2/norm2 -> conv2/norm2
I0403 15:03:40.352741  2598 net.cpp:141] Setting up conv2/norm2
I0403 15:03:40.352768  2598 net.cpp:148] Top shape: 24 192 56 56 (14450688)
I0403 15:03:40.352784  2598 net.cpp:156] Memory required for data: 419071008
I0403 15:03:40.352799  2598 layer_factory.hpp:77] Creating layer pool2/3x3_s2
I0403 15:03:40.352818  2598 net.cpp:91] Creating Layer pool2/3x3_s2
I0403 15:03:40.352834  2598 net.cpp:425] pool2/3x3_s2 <- conv2/norm2
I0403 15:03:40.352854  2598 net.cpp:399] pool2/3x3_s2 -> pool2/3x3_s2
I0403 15:03:40.352908  2598 net.cpp:141] Setting up pool2/3x3_s2
I0403 15:03:40.352933  2598 net.cpp:148] Top shape: 24 192 28 28 (3612672)
I0403 15:03:40.352948  2598 net.cpp:156] Memory required for data: 433521696
I0403 15:03:40.352962  2598 layer_factory.hpp:77] Creating layer pool2/3x3_s2_pool2/3x3_s2_0_split
I0403 15:03:40.352985  2598 net.cpp:91] Creating Layer pool2/3x3_s2_pool2/3x3_s2_0_split
I0403 15:03:40.353003  2598 net.cpp:425] pool2/3x3_s2_pool2/3x3_s2_0_split <- pool2/3x3_s2
I0403 15:03:40.353023  2598 net.cpp:399] pool2/3x3_s2_pool2/3x3_s2_0_split -> pool2/3x3_s2_pool2/3x3_s2_0_split_0
I0403 15:03:40.353044  2598 net.cpp:399] pool2/3x3_s2_pool2/3x3_s2_0_split -> pool2/3x3_s2_pool2/3x3_s2_0_split_1
I0403 15:03:40.353065  2598 net.cpp:399] pool2/3x3_s2_pool2/3x3_s2_0_split -> pool2/3x3_s2_pool2/3x3_s2_0_split_2
I0403 15:03:40.353085  2598 net.cpp:399] pool2/3x3_s2_pool2/3x3_s2_0_split -> pool2/3x3_s2_pool2/3x3_s2_0_split_3
I0403 15:03:40.353154  2598 net.cpp:141] Setting up pool2/3x3_s2_pool2/3x3_s2_0_split
I0403 15:03:40.353178  2598 net.cpp:148] Top shape: 24 192 28 28 (3612672)
I0403 15:03:40.353198  2598 net.cpp:148] Top shape: 24 192 28 28 (3612672)
I0403 15:03:40.353214  2598 net.cpp:148] Top shape: 24 192 28 28 (3612672)
I0403 15:03:40.353229  2598 net.cpp:148] Top shape: 24 192 28 28 (3612672)
I0403 15:03:40.353250  2598 net.cpp:156] Memory required for data: 491324448
I0403 15:03:40.353266  2598 layer_factory.hpp:77] Creating layer inception_3a/1x1
I0403 15:03:40.353286  2598 net.cpp:91] Creating Layer inception_3a/1x1
I0403 15:03:40.353303  2598 net.cpp:425] inception_3a/1x1 <- pool2/3x3_s2_pool2/3x3_s2_0_split_0
I0403 15:03:40.353338  2598 net.cpp:399] inception_3a/1x1 -> inception_3a/1x1
I0403 15:03:40.354993  2598 net.cpp:141] Setting up inception_3a/1x1
I0403 15:03:40.355025  2598 net.cpp:148] Top shape: 24 64 28 28 (1204224)
I0403 15:03:40.355041  2598 net.cpp:156] Memory required for data: 496141344
I0403 15:03:40.355060  2598 layer_factory.hpp:77] Creating layer inception_3a/relu_1x1
I0403 15:03:40.355082  2598 net.cpp:91] Creating Layer inception_3a/relu_1x1
I0403 15:03:40.355098  2598 net.cpp:425] inception_3a/relu_1x1 <- inception_3a/1x1
I0403 15:03:40.355116  2598 net.cpp:386] inception_3a/relu_1x1 -> inception_3a/1x1 (in-place)
I0403 15:03:40.355304  2598 net.cpp:141] Setting up inception_3a/relu_1x1
I0403 15:03:40.355341  2598 net.cpp:148] Top shape: 24 64 28 28 (1204224)
I0403 15:03:40.355357  2598 net.cpp:156] Memory required for data: 500958240
I0403 15:03:40.355373  2598 layer_factory.hpp:77] Creating layer inception_3a/3x3_reduce
I0403 15:03:40.355398  2598 net.cpp:91] Creating Layer inception_3a/3x3_reduce
I0403 15:03:40.355417  2598 net.cpp:425] inception_3a/3x3_reduce <- pool2/3x3_s2_pool2/3x3_s2_0_split_1
I0403 15:03:40.355437  2598 net.cpp:399] inception_3a/3x3_reduce -> inception_3a/3x3_reduce
I0403 15:03:40.357244  2598 net.cpp:141] Setting up inception_3a/3x3_reduce
I0403 15:03:40.357277  2598 net.cpp:148] Top shape: 24 96 28 28 (1806336)
I0403 15:03:40.357295  2598 net.cpp:156] Memory required for data: 508183584
I0403 15:03:40.357317  2598 layer_factory.hpp:77] Creating layer inception_3a/relu_3x3_reduce
I0403 15:03:40.357358  2598 net.cpp:91] Creating Layer inception_3a/relu_3x3_reduce
I0403 15:03:40.357378  2598 net.cpp:425] inception_3a/relu_3x3_reduce <- inception_3a/3x3_reduce
I0403 15:03:40.357396  2598 net.cpp:386] inception_3a/relu_3x3_reduce -> inception_3a/3x3_reduce (in-place)
I0403 15:03:40.357601  2598 net.cpp:141] Setting up inception_3a/relu_3x3_reduce
I0403 15:03:40.357627  2598 net.cpp:148] Top shape: 24 96 28 28 (1806336)
I0403 15:03:40.357642  2598 net.cpp:156] Memory required for data: 515408928
I0403 15:03:40.357657  2598 layer_factory.hpp:77] Creating layer inception_3a/3x3
I0403 15:03:40.357681  2598 net.cpp:91] Creating Layer inception_3a/3x3
I0403 15:03:40.357700  2598 net.cpp:425] inception_3a/3x3 <- inception_3a/3x3_reduce
I0403 15:03:40.357722  2598 net.cpp:399] inception_3a/3x3 -> inception_3a/3x3
I0403 15:03:40.359478  2598 net.cpp:141] Setting up inception_3a/3x3
I0403 15:03:40.359508  2598 net.cpp:148] Top shape: 24 128 28 28 (2408448)
I0403 15:03:40.359526  2598 net.cpp:156] Memory required for data: 525042720
I0403 15:03:40.359545  2598 layer_factory.hpp:77] Creating layer inception_3a/relu_3x3
I0403 15:03:40.359567  2598 net.cpp:91] Creating Layer inception_3a/relu_3x3
I0403 15:03:40.359586  2598 net.cpp:425] inception_3a/relu_3x3 <- inception_3a/3x3
I0403 15:03:40.359606  2598 net.cpp:386] inception_3a/relu_3x3 -> inception_3a/3x3 (in-place)
I0403 15:03:40.359890  2598 net.cpp:141] Setting up inception_3a/relu_3x3
I0403 15:03:40.359918  2598 net.cpp:148] Top shape: 24 128 28 28 (2408448)
I0403 15:03:40.359936  2598 net.cpp:156] Memory required for data: 534676512
I0403 15:03:40.359952  2598 layer_factory.hpp:77] Creating layer inception_3a/5x5_reduce
I0403 15:03:40.359977  2598 net.cpp:91] Creating Layer inception_3a/5x5_reduce
I0403 15:03:40.359995  2598 net.cpp:425] inception_3a/5x5_reduce <- pool2/3x3_s2_pool2/3x3_s2_0_split_2
I0403 15:03:40.360018  2598 net.cpp:399] inception_3a/5x5_reduce -> inception_3a/5x5_reduce
I0403 15:03:40.360990  2598 net.cpp:141] Setting up inception_3a/5x5_reduce
I0403 15:03:40.361021  2598 net.cpp:148] Top shape: 24 16 28 28 (301056)
I0403 15:03:40.361037  2598 net.cpp:156] Memory required for data: 535880736
I0403 15:03:40.361057  2598 layer_factory.hpp:77] Creating layer inception_3a/relu_5x5_reduce
I0403 15:03:40.361074  2598 net.cpp:91] Creating Layer inception_3a/relu_5x5_reduce
I0403 15:03:40.361091  2598 net.cpp:425] inception_3a/relu_5x5_reduce <- inception_3a/5x5_reduce
I0403 15:03:40.361110  2598 net.cpp:386] inception_3a/relu_5x5_reduce -> inception_3a/5x5_reduce (in-place)
I0403 15:03:40.361408  2598 net.cpp:141] Setting up inception_3a/relu_5x5_reduce
I0403 15:03:40.361438  2598 net.cpp:148] Top shape: 24 16 28 28 (301056)
I0403 15:03:40.361455  2598 net.cpp:156] Memory required for data: 537084960
I0403 15:03:40.361471  2598 layer_factory.hpp:77] Creating layer inception_3a/5x5
I0403 15:03:40.361495  2598 net.cpp:91] Creating Layer inception_3a/5x5
I0403 15:03:40.361512  2598 net.cpp:425] inception_3a/5x5 <- inception_3a/5x5_reduce
I0403 15:03:40.361532  2598 net.cpp:399] inception_3a/5x5 -> inception_3a/5x5
I0403 15:03:40.362567  2598 net.cpp:141] Setting up inception_3a/5x5
I0403 15:03:40.362596  2598 net.cpp:148] Top shape: 24 32 28 28 (602112)
I0403 15:03:40.362613  2598 net.cpp:156] Memory required for data: 539493408
I0403 15:03:40.362632  2598 layer_factory.hpp:77] Creating layer inception_3a/relu_5x5
I0403 15:03:40.362653  2598 net.cpp:91] Creating Layer inception_3a/relu_5x5
I0403 15:03:40.362673  2598 net.cpp:425] inception_3a/relu_5x5 <- inception_3a/5x5
I0403 15:03:40.362690  2598 net.cpp:386] inception_3a/relu_5x5 -> inception_3a/5x5 (in-place)
I0403 15:03:40.362862  2598 net.cpp:141] Setting up inception_3a/relu_5x5
I0403 15:03:40.362889  2598 net.cpp:148] Top shape: 24 32 28 28 (602112)
I0403 15:03:40.362905  2598 net.cpp:156] Memory required for data: 541901856
I0403 15:03:40.362920  2598 layer_factory.hpp:77] Creating layer inception_3a/pool
I0403 15:03:40.362941  2598 net.cpp:91] Creating Layer inception_3a/pool
I0403 15:03:40.362972  2598 net.cpp:425] inception_3a/pool <- pool2/3x3_s2_pool2/3x3_s2_0_split_3
I0403 15:03:40.362993  2598 net.cpp:399] inception_3a/pool -> inception_3a/pool
I0403 15:03:40.363065  2598 net.cpp:141] Setting up inception_3a/pool
I0403 15:03:40.363088  2598 net.cpp:148] Top shape: 24 192 28 28 (3612672)
I0403 15:03:40.363103  2598 net.cpp:156] Memory required for data: 556352544
I0403 15:03:40.363118  2598 layer_factory.hpp:77] Creating layer inception_3a/pool_proj
I0403 15:03:40.363142  2598 net.cpp:91] Creating Layer inception_3a/pool_proj
I0403 15:03:40.363159  2598 net.cpp:425] inception_3a/pool_proj <- inception_3a/pool
I0403 15:03:40.363181  2598 net.cpp:399] inception_3a/pool_proj -> inception_3a/pool_proj
I0403 15:03:40.364172  2598 net.cpp:141] Setting up inception_3a/pool_proj
I0403 15:03:40.364202  2598 net.cpp:148] Top shape: 24 32 28 28 (602112)
I0403 15:03:40.364217  2598 net.cpp:156] Memory required for data: 558760992
I0403 15:03:40.364246  2598 layer_factory.hpp:77] Creating layer inception_3a/relu_pool_proj
I0403 15:03:40.364269  2598 net.cpp:91] Creating Layer inception_3a/relu_pool_proj
I0403 15:03:40.364285  2598 net.cpp:425] inception_3a/relu_pool_proj <- inception_3a/pool_proj
I0403 15:03:40.364303  2598 net.cpp:386] inception_3a/relu_pool_proj -> inception_3a/pool_proj (in-place)
I0403 15:03:40.364588  2598 net.cpp:141] Setting up inception_3a/relu_pool_proj
I0403 15:03:40.364614  2598 net.cpp:148] Top shape: 24 32 28 28 (602112)
I0403 15:03:40.364629  2598 net.cpp:156] Memory required for data: 561169440
I0403 15:03:40.364645  2598 layer_factory.hpp:77] Creating layer inception_3a/output
I0403 15:03:40.364665  2598 net.cpp:91] Creating Layer inception_3a/output
I0403 15:03:40.364681  2598 net.cpp:425] inception_3a/output <- inception_3a/1x1
I0403 15:03:40.364696  2598 net.cpp:425] inception_3a/output <- inception_3a/3x3
I0403 15:03:40.364712  2598 net.cpp:425] inception_3a/output <- inception_3a/5x5
I0403 15:03:40.364728  2598 net.cpp:425] inception_3a/output <- inception_3a/pool_proj
I0403 15:03:40.364745  2598 net.cpp:399] inception_3a/output -> inception_3a/output
I0403 15:03:40.364794  2598 net.cpp:141] Setting up inception_3a/output
I0403 15:03:40.364816  2598 net.cpp:148] Top shape: 24 256 28 28 (4816896)
I0403 15:03:40.364831  2598 net.cpp:156] Memory required for data: 580437024
I0403 15:03:40.364845  2598 layer_factory.hpp:77] Creating layer inception_3a/output_inception_3a/output_0_split
I0403 15:03:40.364863  2598 net.cpp:91] Creating Layer inception_3a/output_inception_3a/output_0_split
I0403 15:03:40.364878  2598 net.cpp:425] inception_3a/output_inception_3a/output_0_split <- inception_3a/output
I0403 15:03:40.364897  2598 net.cpp:399] inception_3a/output_inception_3a/output_0_split -> inception_3a/output_inception_3a/output_0_split_0
I0403 15:03:40.364918  2598 net.cpp:399] inception_3a/output_inception_3a/output_0_split -> inception_3a/output_inception_3a/output_0_split_1
I0403 15:03:40.364941  2598 net.cpp:399] inception_3a/output_inception_3a/output_0_split -> inception_3a/output_inception_3a/output_0_split_2
I0403 15:03:40.364965  2598 net.cpp:399] inception_3a/output_inception_3a/output_0_split -> inception_3a/output_inception_3a/output_0_split_3
I0403 15:03:40.365041  2598 net.cpp:141] Setting up inception_3a/output_inception_3a/output_0_split
I0403 15:03:40.365063  2598 net.cpp:148] Top shape: 24 256 28 28 (4816896)
I0403 15:03:40.365080  2598 net.cpp:148] Top shape: 24 256 28 28 (4816896)
I0403 15:03:40.365095  2598 net.cpp:148] Top shape: 24 256 28 28 (4816896)
I0403 15:03:40.365111  2598 net.cpp:148] Top shape: 24 256 28 28 (4816896)
I0403 15:03:40.365125  2598 net.cpp:156] Memory required for data: 657507360
I0403 15:03:40.365139  2598 layer_factory.hpp:77] Creating layer inception_3b/1x1
I0403 15:03:40.365162  2598 net.cpp:91] Creating Layer inception_3b/1x1
I0403 15:03:40.365180  2598 net.cpp:425] inception_3b/1x1 <- inception_3a/output_inception_3a/output_0_split_0
I0403 15:03:40.365201  2598 net.cpp:399] inception_3b/1x1 -> inception_3b/1x1
I0403 15:03:40.366333  2598 net.cpp:141] Setting up inception_3b/1x1
I0403 15:03:40.366374  2598 net.cpp:148] Top shape: 24 128 28 28 (2408448)
I0403 15:03:40.366389  2598 net.cpp:156] Memory required for data: 667141152
I0403 15:03:40.366408  2598 layer_factory.hpp:77] Creating layer inception_3b/relu_1x1
I0403 15:03:40.366428  2598 net.cpp:91] Creating Layer inception_3b/relu_1x1
I0403 15:03:40.366453  2598 net.cpp:425] inception_3b/relu_1x1 <- inception_3b/1x1
I0403 15:03:40.366474  2598 net.cpp:386] inception_3b/relu_1x1 -> inception_3b/1x1 (in-place)
I0403 15:03:40.366650  2598 net.cpp:141] Setting up inception_3b/relu_1x1
I0403 15:03:40.366677  2598 net.cpp:148] Top shape: 24 128 28 28 (2408448)
I0403 15:03:40.366693  2598 net.cpp:156] Memory required for data: 676774944
I0403 15:03:40.366708  2598 layer_factory.hpp:77] Creating layer inception_3b/3x3_reduce
I0403 15:03:40.366735  2598 net.cpp:91] Creating Layer inception_3b/3x3_reduce
I0403 15:03:40.366755  2598 net.cpp:425] inception_3b/3x3_reduce <- inception_3a/output_inception_3a/output_0_split_1
I0403 15:03:40.366776  2598 net.cpp:399] inception_3b/3x3_reduce -> inception_3b/3x3_reduce
I0403 15:03:40.367938  2598 net.cpp:141] Setting up inception_3b/3x3_reduce
I0403 15:03:40.367967  2598 net.cpp:148] Top shape: 24 128 28 28 (2408448)
I0403 15:03:40.367985  2598 net.cpp:156] Memory required for data: 686408736
I0403 15:03:40.368003  2598 layer_factory.hpp:77] Creating layer inception_3b/relu_3x3_reduce
I0403 15:03:40.368024  2598 net.cpp:91] Creating Layer inception_3b/relu_3x3_reduce
I0403 15:03:40.368042  2598 net.cpp:425] inception_3b/relu_3x3_reduce <- inception_3b/3x3_reduce
I0403 15:03:40.368062  2598 net.cpp:386] inception_3b/relu_3x3_reduce -> inception_3b/3x3_reduce (in-place)
I0403 15:03:40.368232  2598 net.cpp:141] Setting up inception_3b/relu_3x3_reduce
I0403 15:03:40.368262  2598 net.cpp:148] Top shape: 24 128 28 28 (2408448)
I0403 15:03:40.368279  2598 net.cpp:156] Memory required for data: 696042528
I0403 15:03:40.368295  2598 layer_factory.hpp:77] Creating layer inception_3b/3x3
I0403 15:03:40.368321  2598 net.cpp:91] Creating Layer inception_3b/3x3
I0403 15:03:40.368340  2598 net.cpp:425] inception_3b/3x3 <- inception_3b/3x3_reduce
I0403 15:03:40.368360  2598 net.cpp:399] inception_3b/3x3 -> inception_3b/3x3
I0403 15:03:40.371250  2598 net.cpp:141] Setting up inception_3b/3x3
I0403 15:03:40.371281  2598 net.cpp:148] Top shape: 24 192 28 28 (3612672)
I0403 15:03:40.371299  2598 net.cpp:156] Memory required for data: 710493216
I0403 15:03:40.371316  2598 layer_factory.hpp:77] Creating layer inception_3b/relu_3x3
I0403 15:03:40.371338  2598 net.cpp:91] Creating Layer inception_3b/relu_3x3
I0403 15:03:40.371361  2598 net.cpp:425] inception_3b/relu_3x3 <- inception_3b/3x3
I0403 15:03:40.371377  2598 net.cpp:386] inception_3b/relu_3x3 -> inception_3b/3x3 (in-place)
I0403 15:03:40.371659  2598 net.cpp:141] Setting up inception_3b/relu_3x3
I0403 15:03:40.371685  2598 net.cpp:148] Top shape: 24 192 28 28 (3612672)
I0403 15:03:40.371701  2598 net.cpp:156] Memory required for data: 724943904
I0403 15:03:40.371714  2598 layer_factory.hpp:77] Creating layer inception_3b/5x5_reduce
I0403 15:03:40.371737  2598 net.cpp:91] Creating Layer inception_3b/5x5_reduce
I0403 15:03:40.371755  2598 net.cpp:425] inception_3b/5x5_reduce <- inception_3a/output_inception_3a/output_0_split_2
I0403 15:03:40.371778  2598 net.cpp:399] inception_3b/5x5_reduce -> inception_3b/5x5_reduce
I0403 15:03:40.372788  2598 net.cpp:141] Setting up inception_3b/5x5_reduce
I0403 15:03:40.372817  2598 net.cpp:148] Top shape: 24 32 28 28 (602112)
I0403 15:03:40.372833  2598 net.cpp:156] Memory required for data: 727352352
I0403 15:03:40.372853  2598 layer_factory.hpp:77] Creating layer inception_3b/relu_5x5_reduce
I0403 15:03:40.372874  2598 net.cpp:91] Creating Layer inception_3b/relu_5x5_reduce
I0403 15:03:40.372891  2598 net.cpp:425] inception_3b/relu_5x5_reduce <- inception_3b/5x5_reduce
I0403 15:03:40.372910  2598 net.cpp:386] inception_3b/relu_5x5_reduce -> inception_3b/5x5_reduce (in-place)
I0403 15:03:40.373106  2598 net.cpp:141] Setting up inception_3b/relu_5x5_reduce
I0403 15:03:40.373134  2598 net.cpp:148] Top shape: 24 32 28 28 (602112)
I0403 15:03:40.373150  2598 net.cpp:156] Memory required for data: 729760800
I0403 15:03:40.373165  2598 layer_factory.hpp:77] Creating layer inception_3b/5x5
I0403 15:03:40.373189  2598 net.cpp:91] Creating Layer inception_3b/5x5
I0403 15:03:40.373208  2598 net.cpp:425] inception_3b/5x5 <- inception_3b/5x5_reduce
I0403 15:03:40.373226  2598 net.cpp:399] inception_3b/5x5 -> inception_3b/5x5
I0403 15:03:40.375214  2598 net.cpp:141] Setting up inception_3b/5x5
I0403 15:03:40.375247  2598 net.cpp:148] Top shape: 24 96 28 28 (1806336)
I0403 15:03:40.375265  2598 net.cpp:156] Memory required for data: 736986144
I0403 15:03:40.375283  2598 layer_factory.hpp:77] Creating layer inception_3b/relu_5x5
I0403 15:03:40.375303  2598 net.cpp:91] Creating Layer inception_3b/relu_5x5
I0403 15:03:40.375321  2598 net.cpp:425] inception_3b/relu_5x5 <- inception_3b/5x5
I0403 15:03:40.375339  2598 net.cpp:386] inception_3b/relu_5x5 -> inception_3b/5x5 (in-place)
I0403 15:03:40.375540  2598 net.cpp:141] Setting up inception_3b/relu_5x5
I0403 15:03:40.375566  2598 net.cpp:148] Top shape: 24 96 28 28 (1806336)
I0403 15:03:40.375581  2598 net.cpp:156] Memory required for data: 744211488
I0403 15:03:40.375594  2598 layer_factory.hpp:77] Creating layer inception_3b/pool
I0403 15:03:40.375612  2598 net.cpp:91] Creating Layer inception_3b/pool
I0403 15:03:40.375628  2598 net.cpp:425] inception_3b/pool <- inception_3a/output_inception_3a/output_0_split_3
I0403 15:03:40.375645  2598 net.cpp:399] inception_3b/pool -> inception_3b/pool
I0403 15:03:40.375701  2598 net.cpp:141] Setting up inception_3b/pool
I0403 15:03:40.375725  2598 net.cpp:148] Top shape: 24 256 28 28 (4816896)
I0403 15:03:40.375738  2598 net.cpp:156] Memory required for data: 763479072
I0403 15:03:40.375752  2598 layer_factory.hpp:77] Creating layer inception_3b/pool_proj
I0403 15:03:40.375774  2598 net.cpp:91] Creating Layer inception_3b/pool_proj
I0403 15:03:40.375792  2598 net.cpp:425] inception_3b/pool_proj <- inception_3b/pool
I0403 15:03:40.375811  2598 net.cpp:399] inception_3b/pool_proj -> inception_3b/pool_proj
I0403 15:03:40.376858  2598 net.cpp:141] Setting up inception_3b/pool_proj
I0403 15:03:40.376889  2598 net.cpp:148] Top shape: 24 64 28 28 (1204224)
I0403 15:03:40.376906  2598 net.cpp:156] Memory required for data: 768295968
I0403 15:03:40.376925  2598 layer_factory.hpp:77] Creating layer inception_3b/relu_pool_proj
I0403 15:03:40.376943  2598 net.cpp:91] Creating Layer inception_3b/relu_pool_proj
I0403 15:03:40.376958  2598 net.cpp:425] inception_3b/relu_pool_proj <- inception_3b/pool_proj
I0403 15:03:40.376977  2598 net.cpp:386] inception_3b/relu_pool_proj -> inception_3b/pool_proj (in-place)
I0403 15:03:40.377360  2598 net.cpp:141] Setting up inception_3b/relu_pool_proj
I0403 15:03:40.377388  2598 net.cpp:148] Top shape: 24 64 28 28 (1204224)
I0403 15:03:40.377403  2598 net.cpp:156] Memory required for data: 773112864
I0403 15:03:40.377418  2598 layer_factory.hpp:77] Creating layer inception_3b/output
I0403 15:03:40.377435  2598 net.cpp:91] Creating Layer inception_3b/output
I0403 15:03:40.377450  2598 net.cpp:425] inception_3b/output <- inception_3b/1x1
I0403 15:03:40.377466  2598 net.cpp:425] inception_3b/output <- inception_3b/3x3
I0403 15:03:40.377482  2598 net.cpp:425] inception_3b/output <- inception_3b/5x5
I0403 15:03:40.377496  2598 net.cpp:425] inception_3b/output <- inception_3b/pool_proj
I0403 15:03:40.377513  2598 net.cpp:399] inception_3b/output -> inception_3b/output
I0403 15:03:40.377555  2598 net.cpp:141] Setting up inception_3b/output
I0403 15:03:40.377578  2598 net.cpp:148] Top shape: 24 480 28 28 (9031680)
I0403 15:03:40.377593  2598 net.cpp:156] Memory required for data: 809239584
I0403 15:03:40.377606  2598 layer_factory.hpp:77] Creating layer pool3/3x3_s2
I0403 15:03:40.377625  2598 net.cpp:91] Creating Layer pool3/3x3_s2
I0403 15:03:40.377642  2598 net.cpp:425] pool3/3x3_s2 <- inception_3b/output
I0403 15:03:40.377673  2598 net.cpp:399] pool3/3x3_s2 -> pool3/3x3_s2
I0403 15:03:40.377730  2598 net.cpp:141] Setting up pool3/3x3_s2
I0403 15:03:40.377753  2598 net.cpp:148] Top shape: 24 480 14 14 (2257920)
I0403 15:03:40.377766  2598 net.cpp:156] Memory required for data: 818271264
I0403 15:03:40.377780  2598 layer_factory.hpp:77] Creating layer pool3/3x3_s2_pool3/3x3_s2_0_split
I0403 15:03:40.377797  2598 net.cpp:91] Creating Layer pool3/3x3_s2_pool3/3x3_s2_0_split
I0403 15:03:40.377811  2598 net.cpp:425] pool3/3x3_s2_pool3/3x3_s2_0_split <- pool3/3x3_s2
I0403 15:03:40.377830  2598 net.cpp:399] pool3/3x3_s2_pool3/3x3_s2_0_split -> pool3/3x3_s2_pool3/3x3_s2_0_split_0
I0403 15:03:40.377849  2598 net.cpp:399] pool3/3x3_s2_pool3/3x3_s2_0_split -> pool3/3x3_s2_pool3/3x3_s2_0_split_1
I0403 15:03:40.377868  2598 net.cpp:399] pool3/3x3_s2_pool3/3x3_s2_0_split -> pool3/3x3_s2_pool3/3x3_s2_0_split_2
I0403 15:03:40.377885  2598 net.cpp:399] pool3/3x3_s2_pool3/3x3_s2_0_split -> pool3/3x3_s2_pool3/3x3_s2_0_split_3
I0403 15:03:40.377959  2598 net.cpp:141] Setting up pool3/3x3_s2_pool3/3x3_s2_0_split
I0403 15:03:40.377984  2598 net.cpp:148] Top shape: 24 480 14 14 (2257920)
I0403 15:03:40.378000  2598 net.cpp:148] Top shape: 24 480 14 14 (2257920)
I0403 15:03:40.378015  2598 net.cpp:148] Top shape: 24 480 14 14 (2257920)
I0403 15:03:40.378031  2598 net.cpp:148] Top shape: 24 480 14 14 (2257920)
I0403 15:03:40.378043  2598 net.cpp:156] Memory required for data: 854397984
I0403 15:03:40.378057  2598 layer_factory.hpp:77] Creating layer inception_4a/1x1
I0403 15:03:40.378078  2598 net.cpp:91] Creating Layer inception_4a/1x1
I0403 15:03:40.378094  2598 net.cpp:425] inception_4a/1x1 <- pool3/3x3_s2_pool3/3x3_s2_0_split_0
I0403 15:03:40.378113  2598 net.cpp:399] inception_4a/1x1 -> inception_4a/1x1
I0403 15:03:40.379626  2598 net.cpp:141] Setting up inception_4a/1x1
I0403 15:03:40.379657  2598 net.cpp:148] Top shape: 24 192 14 14 (903168)
I0403 15:03:40.379673  2598 net.cpp:156] Memory required for data: 858010656
I0403 15:03:40.379693  2598 layer_factory.hpp:77] Creating layer inception_4a/relu_1x1
I0403 15:03:40.379709  2598 net.cpp:91] Creating Layer inception_4a/relu_1x1
I0403 15:03:40.379726  2598 net.cpp:425] inception_4a/relu_1x1 <- inception_4a/1x1
I0403 15:03:40.379746  2598 net.cpp:386] inception_4a/relu_1x1 -> inception_4a/1x1 (in-place)
I0403 15:03:40.379919  2598 net.cpp:141] Setting up inception_4a/relu_1x1
I0403 15:03:40.379942  2598 net.cpp:148] Top shape: 24 192 14 14 (903168)
I0403 15:03:40.379958  2598 net.cpp:156] Memory required for data: 861623328
I0403 15:03:40.379972  2598 layer_factory.hpp:77] Creating layer inception_4a/3x3_reduce
I0403 15:03:40.379994  2598 net.cpp:91] Creating Layer inception_4a/3x3_reduce
I0403 15:03:40.380012  2598 net.cpp:425] inception_4a/3x3_reduce <- pool3/3x3_s2_pool3/3x3_s2_0_split_1
I0403 15:03:40.380033  2598 net.cpp:399] inception_4a/3x3_reduce -> inception_4a/3x3_reduce
I0403 15:03:40.381266  2598 net.cpp:141] Setting up inception_4a/3x3_reduce
I0403 15:03:40.381294  2598 net.cpp:148] Top shape: 24 96 14 14 (451584)
I0403 15:03:40.381309  2598 net.cpp:156] Memory required for data: 863429664
I0403 15:03:40.381331  2598 layer_factory.hpp:77] Creating layer inception_4a/relu_3x3_reduce
I0403 15:03:40.381352  2598 net.cpp:91] Creating Layer inception_4a/relu_3x3_reduce
I0403 15:03:40.381368  2598 net.cpp:425] inception_4a/relu_3x3_reduce <- inception_4a/3x3_reduce
I0403 15:03:40.381386  2598 net.cpp:386] inception_4a/relu_3x3_reduce -> inception_4a/3x3_reduce (in-place)
I0403 15:03:40.381554  2598 net.cpp:141] Setting up inception_4a/relu_3x3_reduce
I0403 15:03:40.381577  2598 net.cpp:148] Top shape: 24 96 14 14 (451584)
I0403 15:03:40.381592  2598 net.cpp:156] Memory required for data: 865236000
I0403 15:03:40.381606  2598 layer_factory.hpp:77] Creating layer inception_4a/3x3
I0403 15:03:40.381628  2598 net.cpp:91] Creating Layer inception_4a/3x3
I0403 15:03:40.381644  2598 net.cpp:425] inception_4a/3x3 <- inception_4a/3x3_reduce
I0403 15:03:40.381664  2598 net.cpp:399] inception_4a/3x3 -> inception_4a/3x3
I0403 15:03:40.384258  2598 net.cpp:141] Setting up inception_4a/3x3
I0403 15:03:40.384289  2598 net.cpp:148] Top shape: 24 208 14 14 (978432)
I0403 15:03:40.384305  2598 net.cpp:156] Memory required for data: 869149728
I0403 15:03:40.384321  2598 layer_factory.hpp:77] Creating layer inception_4a/relu_3x3
I0403 15:03:40.384341  2598 net.cpp:91] Creating Layer inception_4a/relu_3x3
I0403 15:03:40.384357  2598 net.cpp:425] inception_4a/relu_3x3 <- inception_4a/3x3
I0403 15:03:40.384374  2598 net.cpp:386] inception_4a/relu_3x3 -> inception_4a/3x3 (in-place)
I0403 15:03:40.384644  2598 net.cpp:141] Setting up inception_4a/relu_3x3
I0403 15:03:40.384670  2598 net.cpp:148] Top shape: 24 208 14 14 (978432)
I0403 15:03:40.384683  2598 net.cpp:156] Memory required for data: 873063456
I0403 15:03:40.384698  2598 layer_factory.hpp:77] Creating layer inception_4a/5x5_reduce
I0403 15:03:40.384721  2598 net.cpp:91] Creating Layer inception_4a/5x5_reduce
I0403 15:03:40.384737  2598 net.cpp:425] inception_4a/5x5_reduce <- pool3/3x3_s2_pool3/3x3_s2_0_split_2
I0403 15:03:40.384758  2598 net.cpp:399] inception_4a/5x5_reduce -> inception_4a/5x5_reduce
I0403 15:03:40.385740  2598 net.cpp:141] Setting up inception_4a/5x5_reduce
I0403 15:03:40.385768  2598 net.cpp:148] Top shape: 24 16 14 14 (75264)
I0403 15:03:40.385784  2598 net.cpp:156] Memory required for data: 873364512
I0403 15:03:40.385803  2598 layer_factory.hpp:77] Creating layer inception_4a/relu_5x5_reduce
I0403 15:03:40.385823  2598 net.cpp:91] Creating Layer inception_4a/relu_5x5_reduce
I0403 15:03:40.385840  2598 net.cpp:425] inception_4a/relu_5x5_reduce <- inception_4a/5x5_reduce
I0403 15:03:40.385859  2598 net.cpp:386] inception_4a/relu_5x5_reduce -> inception_4a/5x5_reduce (in-place)
I0403 15:03:40.386034  2598 net.cpp:141] Setting up inception_4a/relu_5x5_reduce
I0403 15:03:40.386060  2598 net.cpp:148] Top shape: 24 16 14 14 (75264)
I0403 15:03:40.386076  2598 net.cpp:156] Memory required for data: 873665568
I0403 15:03:40.386090  2598 layer_factory.hpp:77] Creating layer inception_4a/5x5
I0403 15:03:40.386114  2598 net.cpp:91] Creating Layer inception_4a/5x5
I0403 15:03:40.386133  2598 net.cpp:425] inception_4a/5x5 <- inception_4a/5x5_reduce
I0403 15:03:40.386152  2598 net.cpp:399] inception_4a/5x5 -> inception_4a/5x5
I0403 15:03:40.387219  2598 net.cpp:141] Setting up inception_4a/5x5
I0403 15:03:40.387256  2598 net.cpp:148] Top shape: 24 48 14 14 (225792)
I0403 15:03:40.387274  2598 net.cpp:156] Memory required for data: 874568736
I0403 15:03:40.387292  2598 layer_factory.hpp:77] Creating layer inception_4a/relu_5x5
I0403 15:03:40.387311  2598 net.cpp:91] Creating Layer inception_4a/relu_5x5
I0403 15:03:40.387328  2598 net.cpp:425] inception_4a/relu_5x5 <- inception_4a/5x5
I0403 15:03:40.387346  2598 net.cpp:386] inception_4a/relu_5x5 -> inception_4a/5x5 (in-place)
I0403 15:03:40.387521  2598 net.cpp:141] Setting up inception_4a/relu_5x5
I0403 15:03:40.387547  2598 net.cpp:148] Top shape: 24 48 14 14 (225792)
I0403 15:03:40.387562  2598 net.cpp:156] Memory required for data: 875471904
I0403 15:03:40.387578  2598 layer_factory.hpp:77] Creating layer inception_4a/pool
I0403 15:03:40.387594  2598 net.cpp:91] Creating Layer inception_4a/pool
I0403 15:03:40.387611  2598 net.cpp:425] inception_4a/pool <- pool3/3x3_s2_pool3/3x3_s2_0_split_3
I0403 15:03:40.387630  2598 net.cpp:399] inception_4a/pool -> inception_4a/pool
I0403 15:03:40.387688  2598 net.cpp:141] Setting up inception_4a/pool
I0403 15:03:40.387713  2598 net.cpp:148] Top shape: 24 480 14 14 (2257920)
I0403 15:03:40.387728  2598 net.cpp:156] Memory required for data: 884503584
I0403 15:03:40.387742  2598 layer_factory.hpp:77] Creating layer inception_4a/pool_proj
I0403 15:03:40.387764  2598 net.cpp:91] Creating Layer inception_4a/pool_proj
I0403 15:03:40.387781  2598 net.cpp:425] inception_4a/pool_proj <- inception_4a/pool
I0403 15:03:40.387800  2598 net.cpp:399] inception_4a/pool_proj -> inception_4a/pool_proj
I0403 15:03:40.388937  2598 net.cpp:141] Setting up inception_4a/pool_proj
I0403 15:03:40.388968  2598 net.cpp:148] Top shape: 24 64 14 14 (301056)
I0403 15:03:40.388998  2598 net.cpp:156] Memory required for data: 885707808
I0403 15:03:40.389017  2598 layer_factory.hpp:77] Creating layer inception_4a/relu_pool_proj
I0403 15:03:40.389036  2598 net.cpp:91] Creating Layer inception_4a/relu_pool_proj
I0403 15:03:40.389053  2598 net.cpp:425] inception_4a/relu_pool_proj <- inception_4a/pool_proj
I0403 15:03:40.389072  2598 net.cpp:386] inception_4a/relu_pool_proj -> inception_4a/pool_proj (in-place)
I0403 15:03:40.389366  2598 net.cpp:141] Setting up inception_4a/relu_pool_proj
I0403 15:03:40.389395  2598 net.cpp:148] Top shape: 24 64 14 14 (301056)
I0403 15:03:40.389411  2598 net.cpp:156] Memory required for data: 886912032
I0403 15:03:40.389436  2598 layer_factory.hpp:77] Creating layer inception_4a/output
I0403 15:03:40.389453  2598 net.cpp:91] Creating Layer inception_4a/output
I0403 15:03:40.389468  2598 net.cpp:425] inception_4a/output <- inception_4a/1x1
I0403 15:03:40.389484  2598 net.cpp:425] inception_4a/output <- inception_4a/3x3
I0403 15:03:40.389499  2598 net.cpp:425] inception_4a/output <- inception_4a/5x5
I0403 15:03:40.389515  2598 net.cpp:425] inception_4a/output <- inception_4a/pool_proj
I0403 15:03:40.389531  2598 net.cpp:399] inception_4a/output -> inception_4a/output
I0403 15:03:40.389575  2598 net.cpp:141] Setting up inception_4a/output
I0403 15:03:40.389597  2598 net.cpp:148] Top shape: 24 512 14 14 (2408448)
I0403 15:03:40.389611  2598 net.cpp:156] Memory required for data: 896545824
I0403 15:03:40.389626  2598 layer_factory.hpp:77] Creating layer inception_4a/output_inception_4a/output_0_split
I0403 15:03:40.389645  2598 net.cpp:91] Creating Layer inception_4a/output_inception_4a/output_0_split
I0403 15:03:40.389662  2598 net.cpp:425] inception_4a/output_inception_4a/output_0_split <- inception_4a/output
I0403 15:03:40.389678  2598 net.cpp:399] inception_4a/output_inception_4a/output_0_split -> inception_4a/output_inception_4a/output_0_split_0
I0403 15:03:40.389698  2598 net.cpp:399] inception_4a/output_inception_4a/output_0_split -> inception_4a/output_inception_4a/output_0_split_1
I0403 15:03:40.389719  2598 net.cpp:399] inception_4a/output_inception_4a/output_0_split -> inception_4a/output_inception_4a/output_0_split_2
I0403 15:03:40.389740  2598 net.cpp:399] inception_4a/output_inception_4a/output_0_split -> inception_4a/output_inception_4a/output_0_split_3
I0403 15:03:40.389760  2598 net.cpp:399] inception_4a/output_inception_4a/output_0_split -> inception_4a/output_inception_4a/output_0_split_4
I0403 15:03:40.389852  2598 net.cpp:141] Setting up inception_4a/output_inception_4a/output_0_split
I0403 15:03:40.389874  2598 net.cpp:148] Top shape: 24 512 14 14 (2408448)
I0403 15:03:40.389890  2598 net.cpp:148] Top shape: 24 512 14 14 (2408448)
I0403 15:03:40.389905  2598 net.cpp:148] Top shape: 24 512 14 14 (2408448)
I0403 15:03:40.389920  2598 net.cpp:148] Top shape: 24 512 14 14 (2408448)
I0403 15:03:40.389935  2598 net.cpp:148] Top shape: 24 512 14 14 (2408448)
I0403 15:03:40.389948  2598 net.cpp:156] Memory required for data: 944714784
I0403 15:03:40.389962  2598 layer_factory.hpp:77] Creating layer loss1/ave_pool
I0403 15:03:40.389991  2598 net.cpp:91] Creating Layer loss1/ave_pool
I0403 15:03:40.390007  2598 net.cpp:425] loss1/ave_pool <- inception_4a/output_inception_4a/output_0_split_0
I0403 15:03:40.390023  2598 net.cpp:399] loss1/ave_pool -> loss1/ave_pool
I0403 15:03:40.390224  2598 net.cpp:141] Setting up loss1/ave_pool
I0403 15:03:40.390262  2598 net.cpp:148] Top shape: 24 512 4 4 (196608)
I0403 15:03:40.390277  2598 net.cpp:156] Memory required for data: 945501216
I0403 15:03:40.390291  2598 layer_factory.hpp:77] Creating layer loss1/conv
I0403 15:03:40.390313  2598 net.cpp:91] Creating Layer loss1/conv
I0403 15:03:40.390331  2598 net.cpp:425] loss1/conv <- loss1/ave_pool
I0403 15:03:40.390349  2598 net.cpp:399] loss1/conv -> loss1/conv
I0403 15:03:40.391741  2598 net.cpp:141] Setting up loss1/conv
I0403 15:03:40.391767  2598 net.cpp:148] Top shape: 24 128 4 4 (49152)
I0403 15:03:40.391798  2598 net.cpp:156] Memory required for data: 945697824
I0403 15:03:40.391818  2598 layer_factory.hpp:77] Creating layer loss1/relu_conv
I0403 15:03:40.391839  2598 net.cpp:91] Creating Layer loss1/relu_conv
I0403 15:03:40.391855  2598 net.cpp:425] loss1/relu_conv <- loss1/conv
I0403 15:03:40.391872  2598 net.cpp:386] loss1/relu_conv -> loss1/conv (in-place)
I0403 15:03:40.392143  2598 net.cpp:141] Setting up loss1/relu_conv
I0403 15:03:40.392169  2598 net.cpp:148] Top shape: 24 128 4 4 (49152)
I0403 15:03:40.392187  2598 net.cpp:156] Memory required for data: 945894432
I0403 15:03:40.392202  2598 layer_factory.hpp:77] Creating layer loss1/fc
I0403 15:03:40.392228  2598 net.cpp:91] Creating Layer loss1/fc
I0403 15:03:40.392258  2598 net.cpp:425] loss1/fc <- loss1/conv
I0403 15:03:40.392279  2598 net.cpp:399] loss1/fc -> loss1/fc
I0403 15:03:40.410754  2598 net.cpp:141] Setting up loss1/fc
I0403 15:03:40.410794  2598 net.cpp:148] Top shape: 24 1024 (24576)
I0403 15:03:40.410810  2598 net.cpp:156] Memory required for data: 945992736
I0403 15:03:40.410830  2598 layer_factory.hpp:77] Creating layer loss1/relu_fc
I0403 15:03:40.410848  2598 net.cpp:91] Creating Layer loss1/relu_fc
I0403 15:03:40.410864  2598 net.cpp:425] loss1/relu_fc <- loss1/fc
I0403 15:03:40.410887  2598 net.cpp:386] loss1/relu_fc -> loss1/fc (in-place)
I0403 15:03:40.411078  2598 net.cpp:141] Setting up loss1/relu_fc
I0403 15:03:40.411103  2598 net.cpp:148] Top shape: 24 1024 (24576)
I0403 15:03:40.411118  2598 net.cpp:156] Memory required for data: 946091040
I0403 15:03:40.411133  2598 layer_factory.hpp:77] Creating layer loss1/drop_fc
I0403 15:03:40.411161  2598 net.cpp:91] Creating Layer loss1/drop_fc
I0403 15:03:40.411180  2598 net.cpp:425] loss1/drop_fc <- loss1/fc
I0403 15:03:40.411196  2598 net.cpp:386] loss1/drop_fc -> loss1/fc (in-place)
I0403 15:03:40.411250  2598 net.cpp:141] Setting up loss1/drop_fc
I0403 15:03:40.411274  2598 net.cpp:148] Top shape: 24 1024 (24576)
I0403 15:03:40.411288  2598 net.cpp:156] Memory required for data: 946189344
I0403 15:03:40.411303  2598 layer_factory.hpp:77] Creating layer loss1/classifier_plantvillage
I0403 15:03:40.411325  2598 net.cpp:91] Creating Layer loss1/classifier_plantvillage
I0403 15:03:40.411342  2598 net.cpp:425] loss1/classifier_plantvillage <- loss1/fc
I0403 15:03:40.411363  2598 net.cpp:399] loss1/classifier_plantvillage -> loss1/classifier_plantvillage
I0403 15:03:40.412273  2598 net.cpp:141] Setting up loss1/classifier_plantvillage
I0403 15:03:40.412302  2598 net.cpp:148] Top shape: 24 38 (912)
I0403 15:03:40.412318  2598 net.cpp:156] Memory required for data: 946192992
I0403 15:03:40.412336  2598 layer_factory.hpp:77] Creating layer loss1/classifier_plantvillage_loss1/classifier_plantvillage_0_split
I0403 15:03:40.412356  2598 net.cpp:91] Creating Layer loss1/classifier_plantvillage_loss1/classifier_plantvillage_0_split
I0403 15:03:40.412372  2598 net.cpp:425] loss1/classifier_plantvillage_loss1/classifier_plantvillage_0_split <- loss1/classifier_plantvillage
I0403 15:03:40.412394  2598 net.cpp:399] loss1/classifier_plantvillage_loss1/classifier_plantvillage_0_split -> loss1/classifier_plantvillage_loss1/classifier_plantvillage_0_split_0
I0403 15:03:40.412415  2598 net.cpp:399] loss1/classifier_plantvillage_loss1/classifier_plantvillage_0_split -> loss1/classifier_plantvillage_loss1/classifier_plantvillage_0_split_1
I0403 15:03:40.412436  2598 net.cpp:399] loss1/classifier_plantvillage_loss1/classifier_plantvillage_0_split -> loss1/classifier_plantvillage_loss1/classifier_plantvillage_0_split_2
I0403 15:03:40.412500  2598 net.cpp:141] Setting up loss1/classifier_plantvillage_loss1/classifier_plantvillage_0_split
I0403 15:03:40.412526  2598 net.cpp:148] Top shape: 24 38 (912)
I0403 15:03:40.412542  2598 net.cpp:148] Top shape: 24 38 (912)
I0403 15:03:40.412559  2598 net.cpp:148] Top shape: 24 38 (912)
I0403 15:03:40.412571  2598 net.cpp:156] Memory required for data: 946203936
I0403 15:03:40.412586  2598 layer_factory.hpp:77] Creating layer inception_4b/1x1
I0403 15:03:40.412606  2598 net.cpp:91] Creating Layer inception_4b/1x1
I0403 15:03:40.412641  2598 net.cpp:425] inception_4b/1x1 <- inception_4a/output_inception_4a/output_0_split_1
I0403 15:03:40.412662  2598 net.cpp:399] inception_4b/1x1 -> inception_4b/1x1
I0403 15:03:40.414304  2598 net.cpp:141] Setting up inception_4b/1x1
I0403 15:03:40.414335  2598 net.cpp:148] Top shape: 24 160 14 14 (752640)
I0403 15:03:40.414351  2598 net.cpp:156] Memory required for data: 949214496
I0403 15:03:40.414369  2598 layer_factory.hpp:77] Creating layer inception_4b/relu_1x1
I0403 15:03:40.414391  2598 net.cpp:91] Creating Layer inception_4b/relu_1x1
I0403 15:03:40.414410  2598 net.cpp:425] inception_4b/relu_1x1 <- inception_4b/1x1
I0403 15:03:40.414428  2598 net.cpp:386] inception_4b/relu_1x1 -> inception_4b/1x1 (in-place)
I0403 15:03:40.414613  2598 net.cpp:141] Setting up inception_4b/relu_1x1
I0403 15:03:40.414639  2598 net.cpp:148] Top shape: 24 160 14 14 (752640)
I0403 15:03:40.414654  2598 net.cpp:156] Memory required for data: 952225056
I0403 15:03:40.414669  2598 layer_factory.hpp:77] Creating layer inception_4b/3x3_reduce
I0403 15:03:40.414691  2598 net.cpp:91] Creating Layer inception_4b/3x3_reduce
I0403 15:03:40.414710  2598 net.cpp:425] inception_4b/3x3_reduce <- inception_4a/output_inception_4a/output_0_split_2
I0403 15:03:40.414728  2598 net.cpp:399] inception_4b/3x3_reduce -> inception_4b/3x3_reduce
I0403 15:03:40.416075  2598 net.cpp:141] Setting up inception_4b/3x3_reduce
I0403 15:03:40.416105  2598 net.cpp:148] Top shape: 24 112 14 14 (526848)
I0403 15:03:40.416121  2598 net.cpp:156] Memory required for data: 954332448
I0403 15:03:40.416141  2598 layer_factory.hpp:77] Creating layer inception_4b/relu_3x3_reduce
I0403 15:03:40.416162  2598 net.cpp:91] Creating Layer inception_4b/relu_3x3_reduce
I0403 15:03:40.416179  2598 net.cpp:425] inception_4b/relu_3x3_reduce <- inception_4b/3x3_reduce
I0403 15:03:40.416198  2598 net.cpp:386] inception_4b/relu_3x3_reduce -> inception_4b/3x3_reduce (in-place)
I0403 15:03:40.416493  2598 net.cpp:141] Setting up inception_4b/relu_3x3_reduce
I0403 15:03:40.416519  2598 net.cpp:148] Top shape: 24 112 14 14 (526848)
I0403 15:03:40.416534  2598 net.cpp:156] Memory required for data: 956439840
I0403 15:03:40.416549  2598 layer_factory.hpp:77] Creating layer inception_4b/3x3
I0403 15:03:40.416574  2598 net.cpp:91] Creating Layer inception_4b/3x3
I0403 15:03:40.416590  2598 net.cpp:425] inception_4b/3x3 <- inception_4b/3x3_reduce
I0403 15:03:40.416610  2598 net.cpp:399] inception_4b/3x3 -> inception_4b/3x3
I0403 15:03:40.419587  2598 net.cpp:141] Setting up inception_4b/3x3
I0403 15:03:40.419620  2598 net.cpp:148] Top shape: 24 224 14 14 (1053696)
I0403 15:03:40.419636  2598 net.cpp:156] Memory required for data: 960654624
I0403 15:03:40.419656  2598 layer_factory.hpp:77] Creating layer inception_4b/relu_3x3
I0403 15:03:40.419675  2598 net.cpp:91] Creating Layer inception_4b/relu_3x3
I0403 15:03:40.419692  2598 net.cpp:425] inception_4b/relu_3x3 <- inception_4b/3x3
I0403 15:03:40.419711  2598 net.cpp:386] inception_4b/relu_3x3 -> inception_4b/3x3 (in-place)
I0403 15:03:40.419893  2598 net.cpp:141] Setting up inception_4b/relu_3x3
I0403 15:03:40.419919  2598 net.cpp:148] Top shape: 24 224 14 14 (1053696)
I0403 15:03:40.419934  2598 net.cpp:156] Memory required for data: 964869408
I0403 15:03:40.419948  2598 layer_factory.hpp:77] Creating layer inception_4b/5x5_reduce
I0403 15:03:40.419971  2598 net.cpp:91] Creating Layer inception_4b/5x5_reduce
I0403 15:03:40.419988  2598 net.cpp:425] inception_4b/5x5_reduce <- inception_4a/output_inception_4a/output_0_split_3
I0403 15:03:40.420011  2598 net.cpp:399] inception_4b/5x5_reduce -> inception_4b/5x5_reduce
I0403 15:03:40.421094  2598 net.cpp:141] Setting up inception_4b/5x5_reduce
I0403 15:03:40.421123  2598 net.cpp:148] Top shape: 24 24 14 14 (112896)
I0403 15:03:40.421138  2598 net.cpp:156] Memory required for data: 965320992
I0403 15:03:40.421156  2598 layer_factory.hpp:77] Creating layer inception_4b/relu_5x5_reduce
I0403 15:03:40.421192  2598 net.cpp:91] Creating Layer inception_4b/relu_5x5_reduce
I0403 15:03:40.421224  2598 net.cpp:425] inception_4b/relu_5x5_reduce <- inception_4b/5x5_reduce
I0403 15:03:40.421247  2598 net.cpp:386] inception_4b/relu_5x5_reduce -> inception_4b/5x5_reduce (in-place)
I0403 15:03:40.421438  2598 net.cpp:141] Setting up inception_4b/relu_5x5_reduce
I0403 15:03:40.421478  2598 net.cpp:148] Top shape: 24 24 14 14 (112896)
I0403 15:03:40.421494  2598 net.cpp:156] Memory required for data: 965772576
I0403 15:03:40.421509  2598 layer_factory.hpp:77] Creating layer inception_4b/5x5
I0403 15:03:40.421531  2598 net.cpp:91] Creating Layer inception_4b/5x5
I0403 15:03:40.421550  2598 net.cpp:425] inception_4b/5x5 <- inception_4b/5x5_reduce
I0403 15:03:40.421567  2598 net.cpp:399] inception_4b/5x5 -> inception_4b/5x5
I0403 15:03:40.422833  2598 net.cpp:141] Setting up inception_4b/5x5
I0403 15:03:40.422863  2598 net.cpp:148] Top shape: 24 64 14 14 (301056)
I0403 15:03:40.422880  2598 net.cpp:156] Memory required for data: 966976800
I0403 15:03:40.422899  2598 layer_factory.hpp:77] Creating layer inception_4b/relu_5x5
I0403 15:03:40.422920  2598 net.cpp:91] Creating Layer inception_4b/relu_5x5
I0403 15:03:40.422938  2598 net.cpp:425] inception_4b/relu_5x5 <- inception_4b/5x5
I0403 15:03:40.422955  2598 net.cpp:386] inception_4b/relu_5x5 -> inception_4b/5x5 (in-place)
I0403 15:03:40.423246  2598 net.cpp:141] Setting up inception_4b/relu_5x5
I0403 15:03:40.423272  2598 net.cpp:148] Top shape: 24 64 14 14 (301056)
I0403 15:03:40.423287  2598 net.cpp:156] Memory required for data: 968181024
I0403 15:03:40.423302  2598 layer_factory.hpp:77] Creating layer inception_4b/pool
I0403 15:03:40.423323  2598 net.cpp:91] Creating Layer inception_4b/pool
I0403 15:03:40.423341  2598 net.cpp:425] inception_4b/pool <- inception_4a/output_inception_4a/output_0_split_4
I0403 15:03:40.423358  2598 net.cpp:399] inception_4b/pool -> inception_4b/pool
I0403 15:03:40.423424  2598 net.cpp:141] Setting up inception_4b/pool
I0403 15:03:40.423449  2598 net.cpp:148] Top shape: 24 512 14 14 (2408448)
I0403 15:03:40.423463  2598 net.cpp:156] Memory required for data: 977814816
I0403 15:03:40.423477  2598 layer_factory.hpp:77] Creating layer inception_4b/pool_proj
I0403 15:03:40.423501  2598 net.cpp:91] Creating Layer inception_4b/pool_proj
I0403 15:03:40.423517  2598 net.cpp:425] inception_4b/pool_proj <- inception_4b/pool
I0403 15:03:40.423538  2598 net.cpp:399] inception_4b/pool_proj -> inception_4b/pool_proj
I0403 15:03:40.424782  2598 net.cpp:141] Setting up inception_4b/pool_proj
I0403 15:03:40.424813  2598 net.cpp:148] Top shape: 24 64 14 14 (301056)
I0403 15:03:40.424829  2598 net.cpp:156] Memory required for data: 979019040
I0403 15:03:40.424850  2598 layer_factory.hpp:77] Creating layer inception_4b/relu_pool_proj
I0403 15:03:40.424872  2598 net.cpp:91] Creating Layer inception_4b/relu_pool_proj
I0403 15:03:40.424911  2598 net.cpp:425] inception_4b/relu_pool_proj <- inception_4b/pool_proj
I0403 15:03:40.424932  2598 net.cpp:386] inception_4b/relu_pool_proj -> inception_4b/pool_proj (in-place)
I0403 15:03:40.425125  2598 net.cpp:141] Setting up inception_4b/relu_pool_proj
I0403 15:03:40.425154  2598 net.cpp:148] Top shape: 24 64 14 14 (301056)
I0403 15:03:40.425173  2598 net.cpp:156] Memory required for data: 980223264
I0403 15:03:40.425190  2598 layer_factory.hpp:77] Creating layer inception_4b/output
I0403 15:03:40.425222  2598 net.cpp:91] Creating Layer inception_4b/output
I0403 15:03:40.425243  2598 net.cpp:425] inception_4b/output <- inception_4b/1x1
I0403 15:03:40.425262  2598 net.cpp:425] inception_4b/output <- inception_4b/3x3
I0403 15:03:40.425279  2598 net.cpp:425] inception_4b/output <- inception_4b/5x5
I0403 15:03:40.425297  2598 net.cpp:425] inception_4b/output <- inception_4b/pool_proj
I0403 15:03:40.425315  2598 net.cpp:399] inception_4b/output -> inception_4b/output
I0403 15:03:40.425364  2598 net.cpp:141] Setting up inception_4b/output
I0403 15:03:40.425390  2598 net.cpp:148] Top shape: 24 512 14 14 (2408448)
I0403 15:03:40.425406  2598 net.cpp:156] Memory required for data: 989857056
I0403 15:03:40.425436  2598 layer_factory.hpp:77] Creating layer inception_4b/output_inception_4b/output_0_split
I0403 15:03:40.425458  2598 net.cpp:91] Creating Layer inception_4b/output_inception_4b/output_0_split
I0403 15:03:40.425475  2598 net.cpp:425] inception_4b/output_inception_4b/output_0_split <- inception_4b/output
I0403 15:03:40.425493  2598 net.cpp:399] inception_4b/output_inception_4b/output_0_split -> inception_4b/output_inception_4b/output_0_split_0
I0403 15:03:40.425514  2598 net.cpp:399] inception_4b/output_inception_4b/output_0_split -> inception_4b/output_inception_4b/output_0_split_1
I0403 15:03:40.425535  2598 net.cpp:399] inception_4b/output_inception_4b/output_0_split -> inception_4b/output_inception_4b/output_0_split_2
I0403 15:03:40.425560  2598 net.cpp:399] inception_4b/output_inception_4b/output_0_split -> inception_4b/output_inception_4b/output_0_split_3
I0403 15:03:40.425648  2598 net.cpp:141] Setting up inception_4b/output_inception_4b/output_0_split
I0403 15:03:40.425673  2598 net.cpp:148] Top shape: 24 512 14 14 (2408448)
I0403 15:03:40.425689  2598 net.cpp:148] Top shape: 24 512 14 14 (2408448)
I0403 15:03:40.425705  2598 net.cpp:148] Top shape: 24 512 14 14 (2408448)
I0403 15:03:40.425721  2598 net.cpp:148] Top shape: 24 512 14 14 (2408448)
I0403 15:03:40.425735  2598 net.cpp:156] Memory required for data: 1028392224
I0403 15:03:40.425750  2598 layer_factory.hpp:77] Creating layer inception_4c/1x1
I0403 15:03:40.425773  2598 net.cpp:91] Creating Layer inception_4c/1x1
I0403 15:03:40.425791  2598 net.cpp:425] inception_4c/1x1 <- inception_4b/output_inception_4b/output_0_split_0
I0403 15:03:40.425813  2598 net.cpp:399] inception_4c/1x1 -> inception_4c/1x1
I0403 15:03:40.427289  2598 net.cpp:141] Setting up inception_4c/1x1
I0403 15:03:40.427322  2598 net.cpp:148] Top shape: 24 128 14 14 (602112)
I0403 15:03:40.427340  2598 net.cpp:156] Memory required for data: 1030800672
I0403 15:03:40.427361  2598 layer_factory.hpp:77] Creating layer inception_4c/relu_1x1
I0403 15:03:40.427379  2598 net.cpp:91] Creating Layer inception_4c/relu_1x1
I0403 15:03:40.427397  2598 net.cpp:425] inception_4c/relu_1x1 <- inception_4c/1x1
I0403 15:03:40.427417  2598 net.cpp:386] inception_4c/relu_1x1 -> inception_4c/1x1 (in-place)
I0403 15:03:40.427603  2598 net.cpp:141] Setting up inception_4c/relu_1x1
I0403 15:03:40.427630  2598 net.cpp:148] Top shape: 24 128 14 14 (602112)
I0403 15:03:40.427646  2598 net.cpp:156] Memory required for data: 1033209120
I0403 15:03:40.427662  2598 layer_factory.hpp:77] Creating layer inception_4c/3x3_reduce
I0403 15:03:40.427686  2598 net.cpp:91] Creating Layer inception_4c/3x3_reduce
I0403 15:03:40.427706  2598 net.cpp:425] inception_4c/3x3_reduce <- inception_4b/output_inception_4b/output_0_split_1
I0403 15:03:40.427728  2598 net.cpp:399] inception_4c/3x3_reduce -> inception_4c/3x3_reduce
I0403 15:03:40.429730  2598 net.cpp:141] Setting up inception_4c/3x3_reduce
I0403 15:03:40.429762  2598 net.cpp:148] Top shape: 24 128 14 14 (602112)
I0403 15:03:40.429780  2598 net.cpp:156] Memory required for data: 1035617568
I0403 15:03:40.429800  2598 layer_factory.hpp:77] Creating layer inception_4c/relu_3x3_reduce
I0403 15:03:40.429821  2598 net.cpp:91] Creating Layer inception_4c/relu_3x3_reduce
I0403 15:03:40.429839  2598 net.cpp:425] inception_4c/relu_3x3_reduce <- inception_4c/3x3_reduce
I0403 15:03:40.429859  2598 net.cpp:386] inception_4c/relu_3x3_reduce -> inception_4c/3x3_reduce (in-place)
I0403 15:03:40.430153  2598 net.cpp:141] Setting up inception_4c/relu_3x3_reduce
I0403 15:03:40.430181  2598 net.cpp:148] Top shape: 24 128 14 14 (602112)
I0403 15:03:40.430198  2598 net.cpp:156] Memory required for data: 1038026016
I0403 15:03:40.430213  2598 layer_factory.hpp:77] Creating layer inception_4c/3x3
I0403 15:03:40.430238  2598 net.cpp:91] Creating Layer inception_4c/3x3
I0403 15:03:40.430261  2598 net.cpp:425] inception_4c/3x3 <- inception_4c/3x3_reduce
I0403 15:03:40.430285  2598 net.cpp:399] inception_4c/3x3 -> inception_4c/3x3
I0403 15:03:40.434002  2598 net.cpp:141] Setting up inception_4c/3x3
I0403 15:03:40.434046  2598 net.cpp:148] Top shape: 24 256 14 14 (1204224)
I0403 15:03:40.434065  2598 net.cpp:156] Memory required for data: 1042842912
I0403 15:03:40.434099  2598 layer_factory.hpp:77] Creating layer inception_4c/relu_3x3
I0403 15:03:40.434124  2598 net.cpp:91] Creating Layer inception_4c/relu_3x3
I0403 15:03:40.434144  2598 net.cpp:425] inception_4c/relu_3x3 <- inception_4c/3x3
I0403 15:03:40.434162  2598 net.cpp:386] inception_4c/relu_3x3 -> inception_4c/3x3 (in-place)
I0403 15:03:40.434360  2598 net.cpp:141] Setting up inception_4c/relu_3x3
I0403 15:03:40.434387  2598 net.cpp:148] Top shape: 24 256 14 14 (1204224)
I0403 15:03:40.434403  2598 net.cpp:156] Memory required for data: 1047659808
I0403 15:03:40.434419  2598 layer_factory.hpp:77] Creating layer inception_4c/5x5_reduce
I0403 15:03:40.434442  2598 net.cpp:91] Creating Layer inception_4c/5x5_reduce
I0403 15:03:40.434461  2598 net.cpp:425] inception_4c/5x5_reduce <- inception_4b/output_inception_4b/output_0_split_2
I0403 15:03:40.434486  2598 net.cpp:399] inception_4c/5x5_reduce -> inception_4c/5x5_reduce
I0403 15:03:40.435621  2598 net.cpp:141] Setting up inception_4c/5x5_reduce
I0403 15:03:40.435649  2598 net.cpp:148] Top shape: 24 24 14 14 (112896)
I0403 15:03:40.435667  2598 net.cpp:156] Memory required for data: 1048111392
I0403 15:03:40.435688  2598 layer_factory.hpp:77] Creating layer inception_4c/relu_5x5_reduce
I0403 15:03:40.435708  2598 net.cpp:91] Creating Layer inception_4c/relu_5x5_reduce
I0403 15:03:40.435727  2598 net.cpp:425] inception_4c/relu_5x5_reduce <- inception_4c/5x5_reduce
I0403 15:03:40.435746  2598 net.cpp:386] inception_4c/relu_5x5_reduce -> inception_4c/5x5_reduce (in-place)
I0403 15:03:40.435936  2598 net.cpp:141] Setting up inception_4c/relu_5x5_reduce
I0403 15:03:40.435966  2598 net.cpp:148] Top shape: 24 24 14 14 (112896)
I0403 15:03:40.435981  2598 net.cpp:156] Memory required for data: 1048562976
I0403 15:03:40.435997  2598 layer_factory.hpp:77] Creating layer inception_4c/5x5
I0403 15:03:40.436019  2598 net.cpp:91] Creating Layer inception_4c/5x5
I0403 15:03:40.436038  2598 net.cpp:425] inception_4c/5x5 <- inception_4c/5x5_reduce
I0403 15:03:40.436058  2598 net.cpp:399] inception_4c/5x5 -> inception_4c/5x5
I0403 15:03:40.437346  2598 net.cpp:141] Setting up inception_4c/5x5
I0403 15:03:40.437378  2598 net.cpp:148] Top shape: 24 64 14 14 (301056)
I0403 15:03:40.437397  2598 net.cpp:156] Memory required for data: 1049767200
I0403 15:03:40.437417  2598 layer_factory.hpp:77] Creating layer inception_4c/relu_5x5
I0403 15:03:40.437435  2598 net.cpp:91] Creating Layer inception_4c/relu_5x5
I0403 15:03:40.437454  2598 net.cpp:425] inception_4c/relu_5x5 <- inception_4c/5x5
I0403 15:03:40.437475  2598 net.cpp:386] inception_4c/relu_5x5 -> inception_4c/5x5 (in-place)
I0403 15:03:40.437773  2598 net.cpp:141] Setting up inception_4c/relu_5x5
I0403 15:03:40.437804  2598 net.cpp:148] Top shape: 24 64 14 14 (301056)
I0403 15:03:40.437820  2598 net.cpp:156] Memory required for data: 1050971424
I0403 15:03:40.437836  2598 layer_factory.hpp:77] Creating layer inception_4c/pool
I0403 15:03:40.437855  2598 net.cpp:91] Creating Layer inception_4c/pool
I0403 15:03:40.437872  2598 net.cpp:425] inception_4c/pool <- inception_4b/output_inception_4b/output_0_split_3
I0403 15:03:40.437894  2598 net.cpp:399] inception_4c/pool -> inception_4c/pool
I0403 15:03:40.437960  2598 net.cpp:141] Setting up inception_4c/pool
I0403 15:03:40.437985  2598 net.cpp:148] Top shape: 24 512 14 14 (2408448)
I0403 15:03:40.438000  2598 net.cpp:156] Memory required for data: 1060605216
I0403 15:03:40.438015  2598 layer_factory.hpp:77] Creating layer inception_4c/pool_proj
I0403 15:03:40.438038  2598 net.cpp:91] Creating Layer inception_4c/pool_proj
I0403 15:03:40.438057  2598 net.cpp:425] inception_4c/pool_proj <- inception_4c/pool
I0403 15:03:40.438078  2598 net.cpp:399] inception_4c/pool_proj -> inception_4c/pool_proj
I0403 15:03:40.439343  2598 net.cpp:141] Setting up inception_4c/pool_proj
I0403 15:03:40.439373  2598 net.cpp:148] Top shape: 24 64 14 14 (301056)
I0403 15:03:40.439405  2598 net.cpp:156] Memory required for data: 1061809440
I0403 15:03:40.439425  2598 layer_factory.hpp:77] Creating layer inception_4c/relu_pool_proj
I0403 15:03:40.439448  2598 net.cpp:91] Creating Layer inception_4c/relu_pool_proj
I0403 15:03:40.439468  2598 net.cpp:425] inception_4c/relu_pool_proj <- inception_4c/pool_proj
I0403 15:03:40.439487  2598 net.cpp:386] inception_4c/relu_pool_proj -> inception_4c/pool_proj (in-place)
I0403 15:03:40.439677  2598 net.cpp:141] Setting up inception_4c/relu_pool_proj
I0403 15:03:40.439707  2598 net.cpp:148] Top shape: 24 64 14 14 (301056)
I0403 15:03:40.439724  2598 net.cpp:156] Memory required for data: 1063013664
I0403 15:03:40.439740  2598 layer_factory.hpp:77] Creating layer inception_4c/output
I0403 15:03:40.439759  2598 net.cpp:91] Creating Layer inception_4c/output
I0403 15:03:40.439775  2598 net.cpp:425] inception_4c/output <- inception_4c/1x1
I0403 15:03:40.439792  2598 net.cpp:425] inception_4c/output <- inception_4c/3x3
I0403 15:03:40.439810  2598 net.cpp:425] inception_4c/output <- inception_4c/5x5
I0403 15:03:40.439826  2598 net.cpp:425] inception_4c/output <- inception_4c/pool_proj
I0403 15:03:40.439844  2598 net.cpp:399] inception_4c/output -> inception_4c/output
I0403 15:03:40.439895  2598 net.cpp:141] Setting up inception_4c/output
I0403 15:03:40.439921  2598 net.cpp:148] Top shape: 24 512 14 14 (2408448)
I0403 15:03:40.439936  2598 net.cpp:156] Memory required for data: 1072647456
I0403 15:03:40.439951  2598 layer_factory.hpp:77] Creating layer inception_4c/output_inception_4c/output_0_split
I0403 15:03:40.439970  2598 net.cpp:91] Creating Layer inception_4c/output_inception_4c/output_0_split
I0403 15:03:40.439986  2598 net.cpp:425] inception_4c/output_inception_4c/output_0_split <- inception_4c/output
I0403 15:03:40.440018  2598 net.cpp:399] inception_4c/output_inception_4c/output_0_split -> inception_4c/output_inception_4c/output_0_split_0
I0403 15:03:40.440040  2598 net.cpp:399] inception_4c/output_inception_4c/output_0_split -> inception_4c/output_inception_4c/output_0_split_1
I0403 15:03:40.440062  2598 net.cpp:399] inception_4c/output_inception_4c/output_0_split -> inception_4c/output_inception_4c/output_0_split_2
I0403 15:03:40.440085  2598 net.cpp:399] inception_4c/output_inception_4c/output_0_split -> inception_4c/output_inception_4c/output_0_split_3
I0403 15:03:40.440174  2598 net.cpp:141] Setting up inception_4c/output_inception_4c/output_0_split
I0403 15:03:40.440199  2598 net.cpp:148] Top shape: 24 512 14 14 (2408448)
I0403 15:03:40.440215  2598 net.cpp:148] Top shape: 24 512 14 14 (2408448)
I0403 15:03:40.440232  2598 net.cpp:148] Top shape: 24 512 14 14 (2408448)
I0403 15:03:40.440253  2598 net.cpp:148] Top shape: 24 512 14 14 (2408448)
I0403 15:03:40.440268  2598 net.cpp:156] Memory required for data: 1111182624
I0403 15:03:40.440291  2598 layer_factory.hpp:77] Creating layer inception_4d/1x1
I0403 15:03:40.440315  2598 net.cpp:91] Creating Layer inception_4d/1x1
I0403 15:03:40.440331  2598 net.cpp:425] inception_4d/1x1 <- inception_4c/output_inception_4c/output_0_split_0
I0403 15:03:40.440353  2598 net.cpp:399] inception_4d/1x1 -> inception_4d/1x1
I0403 15:03:40.441781  2598 net.cpp:141] Setting up inception_4d/1x1
I0403 15:03:40.441810  2598 net.cpp:148] Top shape: 24 112 14 14 (526848)
I0403 15:03:40.441829  2598 net.cpp:156] Memory required for data: 1113290016
I0403 15:03:40.441849  2598 layer_factory.hpp:77] Creating layer inception_4d/relu_1x1
I0403 15:03:40.441869  2598 net.cpp:91] Creating Layer inception_4d/relu_1x1
I0403 15:03:40.441917  2598 net.cpp:425] inception_4d/relu_1x1 <- inception_4d/1x1
I0403 15:03:40.441936  2598 net.cpp:386] inception_4d/relu_1x1 -> inception_4d/1x1 (in-place)
I0403 15:03:40.442134  2598 net.cpp:141] Setting up inception_4d/relu_1x1
I0403 15:03:40.442162  2598 net.cpp:148] Top shape: 24 112 14 14 (526848)
I0403 15:03:40.442191  2598 net.cpp:156] Memory required for data: 1115397408
I0403 15:03:40.442209  2598 layer_factory.hpp:77] Creating layer inception_4d/3x3_reduce
I0403 15:03:40.442256  2598 net.cpp:91] Creating Layer inception_4d/3x3_reduce
I0403 15:03:40.442278  2598 net.cpp:425] inception_4d/3x3_reduce <- inception_4c/output_inception_4c/output_0_split_1
I0403 15:03:40.442301  2598 net.cpp:399] inception_4d/3x3_reduce -> inception_4d/3x3_reduce
I0403 15:03:40.443851  2598 net.cpp:141] Setting up inception_4d/3x3_reduce
I0403 15:03:40.443883  2598 net.cpp:148] Top shape: 24 144 14 14 (677376)
I0403 15:03:40.443902  2598 net.cpp:156] Memory required for data: 1118106912
I0403 15:03:40.443922  2598 layer_factory.hpp:77] Creating layer inception_4d/relu_3x3_reduce
I0403 15:03:40.443941  2598 net.cpp:91] Creating Layer inception_4d/relu_3x3_reduce
I0403 15:03:40.443958  2598 net.cpp:425] inception_4d/relu_3x3_reduce <- inception_4d/3x3_reduce
I0403 15:03:40.443980  2598 net.cpp:386] inception_4d/relu_3x3_reduce -> inception_4d/3x3_reduce (in-place)
I0403 15:03:40.444279  2598 net.cpp:141] Setting up inception_4d/relu_3x3_reduce
I0403 15:03:40.444308  2598 net.cpp:148] Top shape: 24 144 14 14 (677376)
I0403 15:03:40.444324  2598 net.cpp:156] Memory required for data: 1120816416
I0403 15:03:40.444340  2598 layer_factory.hpp:77] Creating layer inception_4d/3x3
I0403 15:03:40.444362  2598 net.cpp:91] Creating Layer inception_4d/3x3
I0403 15:03:40.444381  2598 net.cpp:425] inception_4d/3x3 <- inception_4d/3x3_reduce
I0403 15:03:40.444401  2598 net.cpp:399] inception_4d/3x3 -> inception_4d/3x3
I0403 15:03:40.448796  2598 net.cpp:141] Setting up inception_4d/3x3
I0403 15:03:40.448830  2598 net.cpp:148] Top shape: 24 288 14 14 (1354752)
I0403 15:03:40.448848  2598 net.cpp:156] Memory required for data: 1126235424
I0403 15:03:40.448868  2598 layer_factory.hpp:77] Creating layer inception_4d/relu_3x3
I0403 15:03:40.448887  2598 net.cpp:91] Creating Layer inception_4d/relu_3x3
I0403 15:03:40.448904  2598 net.cpp:425] inception_4d/relu_3x3 <- inception_4d/3x3
I0403 15:03:40.448925  2598 net.cpp:386] inception_4d/relu_3x3 -> inception_4d/3x3 (in-place)
I0403 15:03:40.449116  2598 net.cpp:141] Setting up inception_4d/relu_3x3
I0403 15:03:40.449143  2598 net.cpp:148] Top shape: 24 288 14 14 (1354752)
I0403 15:03:40.449159  2598 net.cpp:156] Memory required for data: 1131654432
I0403 15:03:40.449175  2598 layer_factory.hpp:77] Creating layer inception_4d/5x5_reduce
I0403 15:03:40.449198  2598 net.cpp:91] Creating Layer inception_4d/5x5_reduce
I0403 15:03:40.449218  2598 net.cpp:425] inception_4d/5x5_reduce <- inception_4c/output_inception_4c/output_0_split_2
I0403 15:03:40.449242  2598 net.cpp:399] inception_4d/5x5_reduce -> inception_4d/5x5_reduce
I0403 15:03:40.450450  2598 net.cpp:141] Setting up inception_4d/5x5_reduce
I0403 15:03:40.450480  2598 net.cpp:148] Top shape: 24 32 14 14 (150528)
I0403 15:03:40.450497  2598 net.cpp:156] Memory required for data: 1132256544
I0403 15:03:40.450517  2598 layer_factory.hpp:77] Creating layer inception_4d/relu_5x5_reduce
I0403 15:03:40.450537  2598 net.cpp:91] Creating Layer inception_4d/relu_5x5_reduce
I0403 15:03:40.450557  2598 net.cpp:425] inception_4d/relu_5x5_reduce <- inception_4d/5x5_reduce
I0403 15:03:40.450575  2598 net.cpp:386] inception_4d/relu_5x5_reduce -> inception_4d/5x5_reduce (in-place)
I0403 15:03:40.450769  2598 net.cpp:141] Setting up inception_4d/relu_5x5_reduce
I0403 15:03:40.450796  2598 net.cpp:148] Top shape: 24 32 14 14 (150528)
I0403 15:03:40.450812  2598 net.cpp:156] Memory required for data: 1132858656
I0403 15:03:40.450829  2598 layer_factory.hpp:77] Creating layer inception_4d/5x5
I0403 15:03:40.450851  2598 net.cpp:91] Creating Layer inception_4d/5x5
I0403 15:03:40.450871  2598 net.cpp:425] inception_4d/5x5 <- inception_4d/5x5_reduce
I0403 15:03:40.450893  2598 net.cpp:399] inception_4d/5x5 -> inception_4d/5x5
I0403 15:03:40.452432  2598 net.cpp:141] Setting up inception_4d/5x5
I0403 15:03:40.452463  2598 net.cpp:148] Top shape: 24 64 14 14 (301056)
I0403 15:03:40.452481  2598 net.cpp:156] Memory required for data: 1134062880
I0403 15:03:40.452500  2598 layer_factory.hpp:77] Creating layer inception_4d/relu_5x5
I0403 15:03:40.452535  2598 net.cpp:91] Creating Layer inception_4d/relu_5x5
I0403 15:03:40.452554  2598 net.cpp:425] inception_4d/relu_5x5 <- inception_4d/5x5
I0403 15:03:40.452574  2598 net.cpp:386] inception_4d/relu_5x5 -> inception_4d/5x5 (in-place)
I0403 15:03:40.452885  2598 net.cpp:141] Setting up inception_4d/relu_5x5
I0403 15:03:40.452914  2598 net.cpp:148] Top shape: 24 64 14 14 (301056)
I0403 15:03:40.452929  2598 net.cpp:156] Memory required for data: 1135267104
I0403 15:03:40.452945  2598 layer_factory.hpp:77] Creating layer inception_4d/pool
I0403 15:03:40.452966  2598 net.cpp:91] Creating Layer inception_4d/pool
I0403 15:03:40.452985  2598 net.cpp:425] inception_4d/pool <- inception_4c/output_inception_4c/output_0_split_3
I0403 15:03:40.453003  2598 net.cpp:399] inception_4d/pool -> inception_4d/pool
I0403 15:03:40.453073  2598 net.cpp:141] Setting up inception_4d/pool
I0403 15:03:40.453099  2598 net.cpp:148] Top shape: 24 512 14 14 (2408448)
I0403 15:03:40.453114  2598 net.cpp:156] Memory required for data: 1144900896
I0403 15:03:40.453129  2598 layer_factory.hpp:77] Creating layer inception_4d/pool_proj
I0403 15:03:40.453151  2598 net.cpp:91] Creating Layer inception_4d/pool_proj
I0403 15:03:40.453169  2598 net.cpp:425] inception_4d/pool_proj <- inception_4d/pool
I0403 15:03:40.453192  2598 net.cpp:399] inception_4d/pool_proj -> inception_4d/pool_proj
I0403 15:03:40.455024  2598 net.cpp:141] Setting up inception_4d/pool_proj
I0403 15:03:40.455054  2598 net.cpp:148] Top shape: 24 64 14 14 (301056)
I0403 15:03:40.455071  2598 net.cpp:156] Memory required for data: 1146105120
I0403 15:03:40.455091  2598 layer_factory.hpp:77] Creating layer inception_4d/relu_pool_proj
I0403 15:03:40.455111  2598 net.cpp:91] Creating Layer inception_4d/relu_pool_proj
I0403 15:03:40.455127  2598 net.cpp:425] inception_4d/relu_pool_proj <- inception_4d/pool_proj
I0403 15:03:40.455147  2598 net.cpp:386] inception_4d/relu_pool_proj -> inception_4d/pool_proj (in-place)
I0403 15:03:40.455344  2598 net.cpp:141] Setting up inception_4d/relu_pool_proj
I0403 15:03:40.455370  2598 net.cpp:148] Top shape: 24 64 14 14 (301056)
I0403 15:03:40.455386  2598 net.cpp:156] Memory required for data: 1147309344
I0403 15:03:40.455402  2598 layer_factory.hpp:77] Creating layer inception_4d/output
I0403 15:03:40.455422  2598 net.cpp:91] Creating Layer inception_4d/output
I0403 15:03:40.455440  2598 net.cpp:425] inception_4d/output <- inception_4d/1x1
I0403 15:03:40.455457  2598 net.cpp:425] inception_4d/output <- inception_4d/3x3
I0403 15:03:40.455474  2598 net.cpp:425] inception_4d/output <- inception_4d/5x5
I0403 15:03:40.455490  2598 net.cpp:425] inception_4d/output <- inception_4d/pool_proj
I0403 15:03:40.455508  2598 net.cpp:399] inception_4d/output -> inception_4d/output
I0403 15:03:40.455559  2598 net.cpp:141] Setting up inception_4d/output
I0403 15:03:40.455582  2598 net.cpp:148] Top shape: 24 528 14 14 (2483712)
I0403 15:03:40.455597  2598 net.cpp:156] Memory required for data: 1157244192
I0403 15:03:40.455612  2598 layer_factory.hpp:77] Creating layer inception_4d/output_inception_4d/output_0_split
I0403 15:03:40.455631  2598 net.cpp:91] Creating Layer inception_4d/output_inception_4d/output_0_split
I0403 15:03:40.455646  2598 net.cpp:425] inception_4d/output_inception_4d/output_0_split <- inception_4d/output
I0403 15:03:40.455667  2598 net.cpp:399] inception_4d/output_inception_4d/output_0_split -> inception_4d/output_inception_4d/output_0_split_0
I0403 15:03:40.455688  2598 net.cpp:399] inception_4d/output_inception_4d/output_0_split -> inception_4d/output_inception_4d/output_0_split_1
I0403 15:03:40.455710  2598 net.cpp:399] inception_4d/output_inception_4d/output_0_split -> inception_4d/output_inception_4d/output_0_split_2
I0403 15:03:40.455731  2598 net.cpp:399] inception_4d/output_inception_4d/output_0_split -> inception_4d/output_inception_4d/output_0_split_3
I0403 15:03:40.455752  2598 net.cpp:399] inception_4d/output_inception_4d/output_0_split -> inception_4d/output_inception_4d/output_0_split_4
I0403 15:03:40.455858  2598 net.cpp:141] Setting up inception_4d/output_inception_4d/output_0_split
I0403 15:03:40.455895  2598 net.cpp:148] Top shape: 24 528 14 14 (2483712)
I0403 15:03:40.455914  2598 net.cpp:148] Top shape: 24 528 14 14 (2483712)
I0403 15:03:40.455929  2598 net.cpp:148] Top shape: 24 528 14 14 (2483712)
I0403 15:03:40.455945  2598 net.cpp:148] Top shape: 24 528 14 14 (2483712)
I0403 15:03:40.455961  2598 net.cpp:148] Top shape: 24 528 14 14 (2483712)
I0403 15:03:40.455976  2598 net.cpp:156] Memory required for data: 1206918432
I0403 15:03:40.455991  2598 layer_factory.hpp:77] Creating layer loss2/ave_pool
I0403 15:03:40.456009  2598 net.cpp:91] Creating Layer loss2/ave_pool
I0403 15:03:40.456027  2598 net.cpp:425] loss2/ave_pool <- inception_4d/output_inception_4d/output_0_split_0
I0403 15:03:40.456048  2598 net.cpp:399] loss2/ave_pool -> loss2/ave_pool
I0403 15:03:40.456380  2598 net.cpp:141] Setting up loss2/ave_pool
I0403 15:03:40.456409  2598 net.cpp:148] Top shape: 24 528 4 4 (202752)
I0403 15:03:40.456425  2598 net.cpp:156] Memory required for data: 1207729440
I0403 15:03:40.456441  2598 layer_factory.hpp:77] Creating layer loss2/conv
I0403 15:03:40.456465  2598 net.cpp:91] Creating Layer loss2/conv
I0403 15:03:40.456483  2598 net.cpp:425] loss2/conv <- loss2/ave_pool
I0403 15:03:40.456506  2598 net.cpp:399] loss2/conv -> loss2/conv
I0403 15:03:40.458472  2598 net.cpp:141] Setting up loss2/conv
I0403 15:03:40.458505  2598 net.cpp:148] Top shape: 24 128 4 4 (49152)
I0403 15:03:40.458523  2598 net.cpp:156] Memory required for data: 1207926048
I0403 15:03:40.458544  2598 layer_factory.hpp:77] Creating layer loss2/relu_conv
I0403 15:03:40.458562  2598 net.cpp:91] Creating Layer loss2/relu_conv
I0403 15:03:40.458580  2598 net.cpp:425] loss2/relu_conv <- loss2/conv
I0403 15:03:40.458598  2598 net.cpp:386] loss2/relu_conv -> loss2/conv (in-place)
I0403 15:03:40.458894  2598 net.cpp:141] Setting up loss2/relu_conv
I0403 15:03:40.458925  2598 net.cpp:148] Top shape: 24 128 4 4 (49152)
I0403 15:03:40.458942  2598 net.cpp:156] Memory required for data: 1208122656
I0403 15:03:40.458959  2598 layer_factory.hpp:77] Creating layer loss2/fc
I0403 15:03:40.458981  2598 net.cpp:91] Creating Layer loss2/fc
I0403 15:03:40.458998  2598 net.cpp:425] loss2/fc <- loss2/conv
I0403 15:03:40.459020  2598 net.cpp:399] loss2/fc -> loss2/fc
I0403 15:03:40.476855  2598 net.cpp:141] Setting up loss2/fc
I0403 15:03:40.476892  2598 net.cpp:148] Top shape: 24 1024 (24576)
I0403 15:03:40.476909  2598 net.cpp:156] Memory required for data: 1208220960
I0403 15:03:40.476928  2598 layer_factory.hpp:77] Creating layer loss2/relu_fc
I0403 15:03:40.476950  2598 net.cpp:91] Creating Layer loss2/relu_fc
I0403 15:03:40.476969  2598 net.cpp:425] loss2/relu_fc <- loss2/fc
I0403 15:03:40.476987  2598 net.cpp:386] loss2/relu_fc -> loss2/fc (in-place)
I0403 15:03:40.477309  2598 net.cpp:141] Setting up loss2/relu_fc
I0403 15:03:40.477337  2598 net.cpp:148] Top shape: 24 1024 (24576)
I0403 15:03:40.477354  2598 net.cpp:156] Memory required for data: 1208319264
I0403 15:03:40.477370  2598 layer_factory.hpp:77] Creating layer loss2/drop_fc
I0403 15:03:40.477391  2598 net.cpp:91] Creating Layer loss2/drop_fc
I0403 15:03:40.477411  2598 net.cpp:425] loss2/drop_fc <- loss2/fc
I0403 15:03:40.477429  2598 net.cpp:386] loss2/drop_fc -> loss2/fc (in-place)
I0403 15:03:40.477478  2598 net.cpp:141] Setting up loss2/drop_fc
I0403 15:03:40.477506  2598 net.cpp:148] Top shape: 24 1024 (24576)
I0403 15:03:40.477524  2598 net.cpp:156] Memory required for data: 1208417568
I0403 15:03:40.477540  2598 layer_factory.hpp:77] Creating layer loss2/classifier_plantvillage
I0403 15:03:40.477557  2598 net.cpp:91] Creating Layer loss2/classifier_plantvillage
I0403 15:03:40.477573  2598 net.cpp:425] loss2/classifier_plantvillage <- loss2/fc
I0403 15:03:40.477594  2598 net.cpp:399] loss2/classifier_plantvillage -> loss2/classifier_plantvillage
I0403 15:03:40.478003  2598 net.cpp:141] Setting up loss2/classifier_plantvillage
I0403 15:03:40.478027  2598 net.cpp:148] Top shape: 24 38 (912)
I0403 15:03:40.478063  2598 net.cpp:156] Memory required for data: 1208421216
I0403 15:03:40.478082  2598 layer_factory.hpp:77] Creating layer loss2/classifier_plantvillage_loss2/classifier_plantvillage_0_split
I0403 15:03:40.478101  2598 net.cpp:91] Creating Layer loss2/classifier_plantvillage_loss2/classifier_plantvillage_0_split
I0403 15:03:40.478117  2598 net.cpp:425] loss2/classifier_plantvillage_loss2/classifier_plantvillage_0_split <- loss2/classifier_plantvillage
I0403 15:03:40.478135  2598 net.cpp:399] loss2/classifier_plantvillage_loss2/classifier_plantvillage_0_split -> loss2/classifier_plantvillage_loss2/classifier_plantvillage_0_split_0
I0403 15:03:40.478158  2598 net.cpp:399] loss2/classifier_plantvillage_loss2/classifier_plantvillage_0_split -> loss2/classifier_plantvillage_loss2/classifier_plantvillage_0_split_1
I0403 15:03:40.478181  2598 net.cpp:399] loss2/classifier_plantvillage_loss2/classifier_plantvillage_0_split -> loss2/classifier_plantvillage_loss2/classifier_plantvillage_0_split_2
I0403 15:03:40.478265  2598 net.cpp:141] Setting up loss2/classifier_plantvillage_loss2/classifier_plantvillage_0_split
I0403 15:03:40.478288  2598 net.cpp:148] Top shape: 24 38 (912)
I0403 15:03:40.478304  2598 net.cpp:148] Top shape: 24 38 (912)
I0403 15:03:40.478320  2598 net.cpp:148] Top shape: 24 38 (912)
I0403 15:03:40.478334  2598 net.cpp:156] Memory required for data: 1208432160
I0403 15:03:40.478348  2598 layer_factory.hpp:77] Creating layer inception_4e/1x1
I0403 15:03:40.478371  2598 net.cpp:91] Creating Layer inception_4e/1x1
I0403 15:03:40.478389  2598 net.cpp:425] inception_4e/1x1 <- inception_4d/output_inception_4d/output_0_split_1
I0403 15:03:40.478410  2598 net.cpp:399] inception_4e/1x1 -> inception_4e/1x1
I0403 15:03:40.480243  2598 net.cpp:141] Setting up inception_4e/1x1
I0403 15:03:40.480274  2598 net.cpp:148] Top shape: 24 256 14 14 (1204224)
I0403 15:03:40.480293  2598 net.cpp:156] Memory required for data: 1213249056
I0403 15:03:40.480311  2598 layer_factory.hpp:77] Creating layer inception_4e/relu_1x1
I0403 15:03:40.480330  2598 net.cpp:91] Creating Layer inception_4e/relu_1x1
I0403 15:03:40.480346  2598 net.cpp:425] inception_4e/relu_1x1 <- inception_4e/1x1
I0403 15:03:40.480365  2598 net.cpp:386] inception_4e/relu_1x1 -> inception_4e/1x1 (in-place)
I0403 15:03:40.480665  2598 net.cpp:141] Setting up inception_4e/relu_1x1
I0403 15:03:40.480693  2598 net.cpp:148] Top shape: 24 256 14 14 (1204224)
I0403 15:03:40.480710  2598 net.cpp:156] Memory required for data: 1218065952
I0403 15:03:40.480726  2598 layer_factory.hpp:77] Creating layer inception_4e/3x3_reduce
I0403 15:03:40.480747  2598 net.cpp:91] Creating Layer inception_4e/3x3_reduce
I0403 15:03:40.480765  2598 net.cpp:425] inception_4e/3x3_reduce <- inception_4d/output_inception_4d/output_0_split_2
I0403 15:03:40.480785  2598 net.cpp:399] inception_4e/3x3_reduce -> inception_4e/3x3_reduce
I0403 15:03:40.483012  2598 net.cpp:141] Setting up inception_4e/3x3_reduce
I0403 15:03:40.483042  2598 net.cpp:148] Top shape: 24 160 14 14 (752640)
I0403 15:03:40.483058  2598 net.cpp:156] Memory required for data: 1221076512
I0403 15:03:40.483078  2598 layer_factory.hpp:77] Creating layer inception_4e/relu_3x3_reduce
I0403 15:03:40.483098  2598 net.cpp:91] Creating Layer inception_4e/relu_3x3_reduce
I0403 15:03:40.483114  2598 net.cpp:425] inception_4e/relu_3x3_reduce <- inception_4e/3x3_reduce
I0403 15:03:40.483131  2598 net.cpp:386] inception_4e/relu_3x3_reduce -> inception_4e/3x3_reduce (in-place)
I0403 15:03:40.483325  2598 net.cpp:141] Setting up inception_4e/relu_3x3_reduce
I0403 15:03:40.483352  2598 net.cpp:148] Top shape: 24 160 14 14 (752640)
I0403 15:03:40.483367  2598 net.cpp:156] Memory required for data: 1224087072
I0403 15:03:40.483382  2598 layer_factory.hpp:77] Creating layer inception_4e/3x3
I0403 15:03:40.483404  2598 net.cpp:91] Creating Layer inception_4e/3x3
I0403 15:03:40.483422  2598 net.cpp:425] inception_4e/3x3 <- inception_4e/3x3_reduce
I0403 15:03:40.483441  2598 net.cpp:399] inception_4e/3x3 -> inception_4e/3x3
I0403 15:03:40.488445  2598 net.cpp:141] Setting up inception_4e/3x3
I0403 15:03:40.488490  2598 net.cpp:148] Top shape: 24 320 14 14 (1505280)
I0403 15:03:40.488509  2598 net.cpp:156] Memory required for data: 1230108192
I0403 15:03:40.488528  2598 layer_factory.hpp:77] Creating layer inception_4e/relu_3x3
I0403 15:03:40.488548  2598 net.cpp:91] Creating Layer inception_4e/relu_3x3
I0403 15:03:40.488565  2598 net.cpp:425] inception_4e/relu_3x3 <- inception_4e/3x3
I0403 15:03:40.488585  2598 net.cpp:386] inception_4e/relu_3x3 -> inception_4e/3x3 (in-place)
I0403 15:03:40.488888  2598 net.cpp:141] Setting up inception_4e/relu_3x3
I0403 15:03:40.488915  2598 net.cpp:148] Top shape: 24 320 14 14 (1505280)
I0403 15:03:40.488931  2598 net.cpp:156] Memory required for data: 1236129312
I0403 15:03:40.488947  2598 layer_factory.hpp:77] Creating layer inception_4e/5x5_reduce
I0403 15:03:40.488971  2598 net.cpp:91] Creating Layer inception_4e/5x5_reduce
I0403 15:03:40.488989  2598 net.cpp:425] inception_4e/5x5_reduce <- inception_4d/output_inception_4d/output_0_split_3
I0403 15:03:40.489012  2598 net.cpp:399] inception_4e/5x5_reduce -> inception_4e/5x5_reduce
I0403 15:03:40.490093  2598 net.cpp:141] Setting up inception_4e/5x5_reduce
I0403 15:03:40.490123  2598 net.cpp:148] Top shape: 24 32 14 14 (150528)
I0403 15:03:40.490139  2598 net.cpp:156] Memory required for data: 1236731424
I0403 15:03:40.490159  2598 layer_factory.hpp:77] Creating layer inception_4e/relu_5x5_reduce
I0403 15:03:40.490180  2598 net.cpp:91] Creating Layer inception_4e/relu_5x5_reduce
I0403 15:03:40.490198  2598 net.cpp:425] inception_4e/relu_5x5_reduce <- inception_4e/5x5_reduce
I0403 15:03:40.490216  2598 net.cpp:386] inception_4e/relu_5x5_reduce -> inception_4e/5x5_reduce (in-place)
I0403 15:03:40.490521  2598 net.cpp:141] Setting up inception_4e/relu_5x5_reduce
I0403 15:03:40.490550  2598 net.cpp:148] Top shape: 24 32 14 14 (150528)
I0403 15:03:40.490566  2598 net.cpp:156] Memory required for data: 1237333536
I0403 15:03:40.490581  2598 layer_factory.hpp:77] Creating layer inception_4e/5x5
I0403 15:03:40.490622  2598 net.cpp:91] Creating Layer inception_4e/5x5
I0403 15:03:40.490641  2598 net.cpp:425] inception_4e/5x5 <- inception_4e/5x5_reduce
I0403 15:03:40.490661  2598 net.cpp:399] inception_4e/5x5 -> inception_4e/5x5
I0403 15:03:40.492607  2598 net.cpp:141] Setting up inception_4e/5x5
I0403 15:03:40.492637  2598 net.cpp:148] Top shape: 24 128 14 14 (602112)
I0403 15:03:40.492655  2598 net.cpp:156] Memory required for data: 1239741984
I0403 15:03:40.492674  2598 layer_factory.hpp:77] Creating layer inception_4e/relu_5x5
I0403 15:03:40.492694  2598 net.cpp:91] Creating Layer inception_4e/relu_5x5
I0403 15:03:40.492710  2598 net.cpp:425] inception_4e/relu_5x5 <- inception_4e/5x5
I0403 15:03:40.492728  2598 net.cpp:386] inception_4e/relu_5x5 -> inception_4e/5x5 (in-place)
I0403 15:03:40.492926  2598 net.cpp:141] Setting up inception_4e/relu_5x5
I0403 15:03:40.492954  2598 net.cpp:148] Top shape: 24 128 14 14 (602112)
I0403 15:03:40.492969  2598 net.cpp:156] Memory required for data: 1242150432
I0403 15:03:40.492985  2598 layer_factory.hpp:77] Creating layer inception_4e/pool
I0403 15:03:40.493002  2598 net.cpp:91] Creating Layer inception_4e/pool
I0403 15:03:40.493018  2598 net.cpp:425] inception_4e/pool <- inception_4d/output_inception_4d/output_0_split_4
I0403 15:03:40.493036  2598 net.cpp:399] inception_4e/pool -> inception_4e/pool
I0403 15:03:40.493108  2598 net.cpp:141] Setting up inception_4e/pool
I0403 15:03:40.493132  2598 net.cpp:148] Top shape: 24 528 14 14 (2483712)
I0403 15:03:40.493146  2598 net.cpp:156] Memory required for data: 1252085280
I0403 15:03:40.493160  2598 layer_factory.hpp:77] Creating layer inception_4e/pool_proj
I0403 15:03:40.493182  2598 net.cpp:91] Creating Layer inception_4e/pool_proj
I0403 15:03:40.493201  2598 net.cpp:425] inception_4e/pool_proj <- inception_4e/pool
I0403 15:03:40.493221  2598 net.cpp:399] inception_4e/pool_proj -> inception_4e/pool_proj
I0403 15:03:40.494741  2598 net.cpp:141] Setting up inception_4e/pool_proj
I0403 15:03:40.494782  2598 net.cpp:148] Top shape: 24 128 14 14 (602112)
I0403 15:03:40.494799  2598 net.cpp:156] Memory required for data: 1254493728
I0403 15:03:40.494817  2598 layer_factory.hpp:77] Creating layer inception_4e/relu_pool_proj
I0403 15:03:40.494835  2598 net.cpp:91] Creating Layer inception_4e/relu_pool_proj
I0403 15:03:40.494851  2598 net.cpp:425] inception_4e/relu_pool_proj <- inception_4e/pool_proj
I0403 15:03:40.494871  2598 net.cpp:386] inception_4e/relu_pool_proj -> inception_4e/pool_proj (in-place)
I0403 15:03:40.495170  2598 net.cpp:141] Setting up inception_4e/relu_pool_proj
I0403 15:03:40.495198  2598 net.cpp:148] Top shape: 24 128 14 14 (602112)
I0403 15:03:40.495214  2598 net.cpp:156] Memory required for data: 1256902176
I0403 15:03:40.495229  2598 layer_factory.hpp:77] Creating layer inception_4e/output
I0403 15:03:40.495250  2598 net.cpp:91] Creating Layer inception_4e/output
I0403 15:03:40.495267  2598 net.cpp:425] inception_4e/output <- inception_4e/1x1
I0403 15:03:40.495285  2598 net.cpp:425] inception_4e/output <- inception_4e/3x3
I0403 15:03:40.495301  2598 net.cpp:425] inception_4e/output <- inception_4e/5x5
I0403 15:03:40.495317  2598 net.cpp:425] inception_4e/output <- inception_4e/pool_proj
I0403 15:03:40.495337  2598 net.cpp:399] inception_4e/output -> inception_4e/output
I0403 15:03:40.495386  2598 net.cpp:141] Setting up inception_4e/output
I0403 15:03:40.495412  2598 net.cpp:148] Top shape: 24 832 14 14 (3913728)
I0403 15:03:40.495427  2598 net.cpp:156] Memory required for data: 1272557088
I0403 15:03:40.495442  2598 layer_factory.hpp:77] Creating layer pool4/3x3_s2
I0403 15:03:40.495460  2598 net.cpp:91] Creating Layer pool4/3x3_s2
I0403 15:03:40.495476  2598 net.cpp:425] pool4/3x3_s2 <- inception_4e/output
I0403 15:03:40.495496  2598 net.cpp:399] pool4/3x3_s2 -> pool4/3x3_s2
I0403 15:03:40.495563  2598 net.cpp:141] Setting up pool4/3x3_s2
I0403 15:03:40.495587  2598 net.cpp:148] Top shape: 24 832 7 7 (978432)
I0403 15:03:40.495602  2598 net.cpp:156] Memory required for data: 1276470816
I0403 15:03:40.495616  2598 layer_factory.hpp:77] Creating layer pool4/3x3_s2_pool4/3x3_s2_0_split
I0403 15:03:40.495635  2598 net.cpp:91] Creating Layer pool4/3x3_s2_pool4/3x3_s2_0_split
I0403 15:03:40.495652  2598 net.cpp:425] pool4/3x3_s2_pool4/3x3_s2_0_split <- pool4/3x3_s2
I0403 15:03:40.495671  2598 net.cpp:399] pool4/3x3_s2_pool4/3x3_s2_0_split -> pool4/3x3_s2_pool4/3x3_s2_0_split_0
I0403 15:03:40.495689  2598 net.cpp:399] pool4/3x3_s2_pool4/3x3_s2_0_split -> pool4/3x3_s2_pool4/3x3_s2_0_split_1
I0403 15:03:40.495712  2598 net.cpp:399] pool4/3x3_s2_pool4/3x3_s2_0_split -> pool4/3x3_s2_pool4/3x3_s2_0_split_2
I0403 15:03:40.495733  2598 net.cpp:399] pool4/3x3_s2_pool4/3x3_s2_0_split -> pool4/3x3_s2_pool4/3x3_s2_0_split_3
I0403 15:03:40.495823  2598 net.cpp:141] Setting up pool4/3x3_s2_pool4/3x3_s2_0_split
I0403 15:03:40.495847  2598 net.cpp:148] Top shape: 24 832 7 7 (978432)
I0403 15:03:40.495863  2598 net.cpp:148] Top shape: 24 832 7 7 (978432)
I0403 15:03:40.495879  2598 net.cpp:148] Top shape: 24 832 7 7 (978432)
I0403 15:03:40.495894  2598 net.cpp:148] Top shape: 24 832 7 7 (978432)
I0403 15:03:40.495908  2598 net.cpp:156] Memory required for data: 1292125728
I0403 15:03:40.495923  2598 layer_factory.hpp:77] Creating layer inception_5a/1x1
I0403 15:03:40.495944  2598 net.cpp:91] Creating Layer inception_5a/1x1
I0403 15:03:40.495962  2598 net.cpp:425] inception_5a/1x1 <- pool4/3x3_s2_pool4/3x3_s2_0_split_0
I0403 15:03:40.495983  2598 net.cpp:399] inception_5a/1x1 -> inception_5a/1x1
I0403 15:03:40.498878  2598 net.cpp:141] Setting up inception_5a/1x1
I0403 15:03:40.498908  2598 net.cpp:148] Top shape: 24 256 7 7 (301056)
I0403 15:03:40.498924  2598 net.cpp:156] Memory required for data: 1293329952
I0403 15:03:40.498944  2598 layer_factory.hpp:77] Creating layer inception_5a/relu_1x1
I0403 15:03:40.498965  2598 net.cpp:91] Creating Layer inception_5a/relu_1x1
I0403 15:03:40.498982  2598 net.cpp:425] inception_5a/relu_1x1 <- inception_5a/1x1
I0403 15:03:40.499001  2598 net.cpp:386] inception_5a/relu_1x1 -> inception_5a/1x1 (in-place)
I0403 15:03:40.499326  2598 net.cpp:141] Setting up inception_5a/relu_1x1
I0403 15:03:40.499354  2598 net.cpp:148] Top shape: 24 256 7 7 (301056)
I0403 15:03:40.499371  2598 net.cpp:156] Memory required for data: 1294534176
I0403 15:03:40.499385  2598 layer_factory.hpp:77] Creating layer inception_5a/3x3_reduce
I0403 15:03:40.499408  2598 net.cpp:91] Creating Layer inception_5a/3x3_reduce
I0403 15:03:40.499428  2598 net.cpp:425] inception_5a/3x3_reduce <- pool4/3x3_s2_pool4/3x3_s2_0_split_1
I0403 15:03:40.499449  2598 net.cpp:399] inception_5a/3x3_reduce -> inception_5a/3x3_reduce
I0403 15:03:40.501921  2598 net.cpp:141] Setting up inception_5a/3x3_reduce
I0403 15:03:40.501951  2598 net.cpp:148] Top shape: 24 160 7 7 (188160)
I0403 15:03:40.501967  2598 net.cpp:156] Memory required for data: 1295286816
I0403 15:03:40.501986  2598 layer_factory.hpp:77] Creating layer inception_5a/relu_3x3_reduce
I0403 15:03:40.502007  2598 net.cpp:91] Creating Layer inception_5a/relu_3x3_reduce
I0403 15:03:40.502023  2598 net.cpp:425] inception_5a/relu_3x3_reduce <- inception_5a/3x3_reduce
I0403 15:03:40.502044  2598 net.cpp:386] inception_5a/relu_3x3_reduce -> inception_5a/3x3_reduce (in-place)
I0403 15:03:40.502233  2598 net.cpp:141] Setting up inception_5a/relu_3x3_reduce
I0403 15:03:40.502267  2598 net.cpp:148] Top shape: 24 160 7 7 (188160)
I0403 15:03:40.502284  2598 net.cpp:156] Memory required for data: 1296039456
I0403 15:03:40.502298  2598 layer_factory.hpp:77] Creating layer inception_5a/3x3
I0403 15:03:40.502321  2598 net.cpp:91] Creating Layer inception_5a/3x3
I0403 15:03:40.502338  2598 net.cpp:425] inception_5a/3x3 <- inception_5a/3x3_reduce
I0403 15:03:40.502360  2598 net.cpp:399] inception_5a/3x3 -> inception_5a/3x3
I0403 15:03:40.507392  2598 net.cpp:141] Setting up inception_5a/3x3
I0403 15:03:40.507423  2598 net.cpp:148] Top shape: 24 320 7 7 (376320)
I0403 15:03:40.507439  2598 net.cpp:156] Memory required for data: 1297544736
I0403 15:03:40.507457  2598 layer_factory.hpp:77] Creating layer inception_5a/relu_3x3
I0403 15:03:40.507478  2598 net.cpp:91] Creating Layer inception_5a/relu_3x3
I0403 15:03:40.507496  2598 net.cpp:425] inception_5a/relu_3x3 <- inception_5a/3x3
I0403 15:03:40.507514  2598 net.cpp:386] inception_5a/relu_3x3 -> inception_5a/3x3 (in-place)
I0403 15:03:40.507814  2598 net.cpp:141] Setting up inception_5a/relu_3x3
I0403 15:03:40.507841  2598 net.cpp:148] Top shape: 24 320 7 7 (376320)
I0403 15:03:40.507856  2598 net.cpp:156] Memory required for data: 1299050016
I0403 15:03:40.507871  2598 layer_factory.hpp:77] Creating layer inception_5a/5x5_reduce
I0403 15:03:40.507894  2598 net.cpp:91] Creating Layer inception_5a/5x5_reduce
I0403 15:03:40.507912  2598 net.cpp:425] inception_5a/5x5_reduce <- pool4/3x3_s2_pool4/3x3_s2_0_split_2
I0403 15:03:40.507935  2598 net.cpp:399] inception_5a/5x5_reduce -> inception_5a/5x5_reduce
I0403 15:03:40.509120  2598 net.cpp:141] Setting up inception_5a/5x5_reduce
I0403 15:03:40.509151  2598 net.cpp:148] Top shape: 24 32 7 7 (37632)
I0403 15:03:40.509169  2598 net.cpp:156] Memory required for data: 1299200544
I0403 15:03:40.509191  2598 layer_factory.hpp:77] Creating layer inception_5a/relu_5x5_reduce
I0403 15:03:40.509208  2598 net.cpp:91] Creating Layer inception_5a/relu_5x5_reduce
I0403 15:03:40.509224  2598 net.cpp:425] inception_5a/relu_5x5_reduce <- inception_5a/5x5_reduce
I0403 15:03:40.509245  2598 net.cpp:386] inception_5a/relu_5x5_reduce -> inception_5a/5x5_reduce (in-place)
I0403 15:03:40.509555  2598 net.cpp:141] Setting up inception_5a/relu_5x5_reduce
I0403 15:03:40.509583  2598 net.cpp:148] Top shape: 24 32 7 7 (37632)
I0403 15:03:40.509600  2598 net.cpp:156] Memory required for data: 1299351072
I0403 15:03:40.509615  2598 layer_factory.hpp:77] Creating layer inception_5a/5x5
I0403 15:03:40.509635  2598 net.cpp:91] Creating Layer inception_5a/5x5
I0403 15:03:40.509654  2598 net.cpp:425] inception_5a/5x5 <- inception_5a/5x5_reduce
I0403 15:03:40.509675  2598 net.cpp:399] inception_5a/5x5 -> inception_5a/5x5
I0403 15:03:40.511415  2598 net.cpp:141] Setting up inception_5a/5x5
I0403 15:03:40.511456  2598 net.cpp:148] Top shape: 24 128 7 7 (150528)
I0403 15:03:40.511472  2598 net.cpp:156] Memory required for data: 1299953184
I0403 15:03:40.511492  2598 layer_factory.hpp:77] Creating layer inception_5a/relu_5x5
I0403 15:03:40.511513  2598 net.cpp:91] Creating Layer inception_5a/relu_5x5
I0403 15:03:40.511531  2598 net.cpp:425] inception_5a/relu_5x5 <- inception_5a/5x5
I0403 15:03:40.511549  2598 net.cpp:386] inception_5a/relu_5x5 -> inception_5a/5x5 (in-place)
I0403 15:03:40.511741  2598 net.cpp:141] Setting up inception_5a/relu_5x5
I0403 15:03:40.511770  2598 net.cpp:148] Top shape: 24 128 7 7 (150528)
I0403 15:03:40.511785  2598 net.cpp:156] Memory required for data: 1300555296
I0403 15:03:40.511800  2598 layer_factory.hpp:77] Creating layer inception_5a/pool
I0403 15:03:40.511818  2598 net.cpp:91] Creating Layer inception_5a/pool
I0403 15:03:40.511834  2598 net.cpp:425] inception_5a/pool <- pool4/3x3_s2_pool4/3x3_s2_0_split_3
I0403 15:03:40.511853  2598 net.cpp:399] inception_5a/pool -> inception_5a/pool
I0403 15:03:40.511925  2598 net.cpp:141] Setting up inception_5a/pool
I0403 15:03:40.511950  2598 net.cpp:148] Top shape: 24 832 7 7 (978432)
I0403 15:03:40.511965  2598 net.cpp:156] Memory required for data: 1304469024
I0403 15:03:40.511979  2598 layer_factory.hpp:77] Creating layer inception_5a/pool_proj
I0403 15:03:40.512001  2598 net.cpp:91] Creating Layer inception_5a/pool_proj
I0403 15:03:40.512019  2598 net.cpp:425] inception_5a/pool_proj <- inception_5a/pool
I0403 15:03:40.512040  2598 net.cpp:399] inception_5a/pool_proj -> inception_5a/pool_proj
I0403 15:03:40.514410  2598 net.cpp:141] Setting up inception_5a/pool_proj
I0403 15:03:40.514441  2598 net.cpp:148] Top shape: 24 128 7 7 (150528)
I0403 15:03:40.514456  2598 net.cpp:156] Memory required for data: 1305071136
I0403 15:03:40.514475  2598 layer_factory.hpp:77] Creating layer inception_5a/relu_pool_proj
I0403 15:03:40.514497  2598 net.cpp:91] Creating Layer inception_5a/relu_pool_proj
I0403 15:03:40.514521  2598 net.cpp:425] inception_5a/relu_pool_proj <- inception_5a/pool_proj
I0403 15:03:40.514540  2598 net.cpp:386] inception_5a/relu_pool_proj -> inception_5a/pool_proj (in-place)
I0403 15:03:40.514843  2598 net.cpp:141] Setting up inception_5a/relu_pool_proj
I0403 15:03:40.514870  2598 net.cpp:148] Top shape: 24 128 7 7 (150528)
I0403 15:03:40.514886  2598 net.cpp:156] Memory required for data: 1305673248
I0403 15:03:40.514902  2598 layer_factory.hpp:77] Creating layer inception_5a/output
I0403 15:03:40.514920  2598 net.cpp:91] Creating Layer inception_5a/output
I0403 15:03:40.514936  2598 net.cpp:425] inception_5a/output <- inception_5a/1x1
I0403 15:03:40.514953  2598 net.cpp:425] inception_5a/output <- inception_5a/3x3
I0403 15:03:40.514969  2598 net.cpp:425] inception_5a/output <- inception_5a/5x5
I0403 15:03:40.514986  2598 net.cpp:425] inception_5a/output <- inception_5a/pool_proj
I0403 15:03:40.515007  2598 net.cpp:399] inception_5a/output -> inception_5a/output
I0403 15:03:40.515058  2598 net.cpp:141] Setting up inception_5a/output
I0403 15:03:40.515085  2598 net.cpp:148] Top shape: 24 832 7 7 (978432)
I0403 15:03:40.515100  2598 net.cpp:156] Memory required for data: 1309586976
I0403 15:03:40.515115  2598 layer_factory.hpp:77] Creating layer inception_5a/output_inception_5a/output_0_split
I0403 15:03:40.515133  2598 net.cpp:91] Creating Layer inception_5a/output_inception_5a/output_0_split
I0403 15:03:40.515149  2598 net.cpp:425] inception_5a/output_inception_5a/output_0_split <- inception_5a/output
I0403 15:03:40.515171  2598 net.cpp:399] inception_5a/output_inception_5a/output_0_split -> inception_5a/output_inception_5a/output_0_split_0
I0403 15:03:40.515194  2598 net.cpp:399] inception_5a/output_inception_5a/output_0_split -> inception_5a/output_inception_5a/output_0_split_1
I0403 15:03:40.515215  2598 net.cpp:399] inception_5a/output_inception_5a/output_0_split -> inception_5a/output_inception_5a/output_0_split_2
I0403 15:03:40.515236  2598 net.cpp:399] inception_5a/output_inception_5a/output_0_split -> inception_5a/output_inception_5a/output_0_split_3
I0403 15:03:40.515355  2598 net.cpp:141] Setting up inception_5a/output_inception_5a/output_0_split
I0403 15:03:40.515383  2598 net.cpp:148] Top shape: 24 832 7 7 (978432)
I0403 15:03:40.515400  2598 net.cpp:148] Top shape: 24 832 7 7 (978432)
I0403 15:03:40.515416  2598 net.cpp:148] Top shape: 24 832 7 7 (978432)
I0403 15:03:40.515432  2598 net.cpp:148] Top shape: 24 832 7 7 (978432)
I0403 15:03:40.515446  2598 net.cpp:156] Memory required for data: 1325241888
I0403 15:03:40.515461  2598 layer_factory.hpp:77] Creating layer inception_5b/1x1
I0403 15:03:40.515481  2598 net.cpp:91] Creating Layer inception_5b/1x1
I0403 15:03:40.515501  2598 net.cpp:425] inception_5b/1x1 <- inception_5a/output_inception_5a/output_0_split_0
I0403 15:03:40.515523  2598 net.cpp:399] inception_5b/1x1 -> inception_5b/1x1
I0403 15:03:40.519441  2598 net.cpp:141] Setting up inception_5b/1x1
I0403 15:03:40.519474  2598 net.cpp:148] Top shape: 24 384 7 7 (451584)
I0403 15:03:40.519490  2598 net.cpp:156] Memory required for data: 1327048224
I0403 15:03:40.519510  2598 layer_factory.hpp:77] Creating layer inception_5b/relu_1x1
I0403 15:03:40.519528  2598 net.cpp:91] Creating Layer inception_5b/relu_1x1
I0403 15:03:40.519546  2598 net.cpp:425] inception_5b/relu_1x1 <- inception_5b/1x1
I0403 15:03:40.519567  2598 net.cpp:386] inception_5b/relu_1x1 -> inception_5b/1x1 (in-place)
I0403 15:03:40.519891  2598 net.cpp:141] Setting up inception_5b/relu_1x1
I0403 15:03:40.519917  2598 net.cpp:148] Top shape: 24 384 7 7 (451584)
I0403 15:03:40.519933  2598 net.cpp:156] Memory required for data: 1328854560
I0403 15:03:40.519948  2598 layer_factory.hpp:77] Creating layer inception_5b/3x3_reduce
I0403 15:03:40.519973  2598 net.cpp:91] Creating Layer inception_5b/3x3_reduce
I0403 15:03:40.519990  2598 net.cpp:425] inception_5b/3x3_reduce <- inception_5a/output_inception_5a/output_0_split_1
I0403 15:03:40.520014  2598 net.cpp:399] inception_5b/3x3_reduce -> inception_5b/3x3_reduce
I0403 15:03:40.522789  2598 net.cpp:141] Setting up inception_5b/3x3_reduce
I0403 15:03:40.522821  2598 net.cpp:148] Top shape: 24 192 7 7 (225792)
I0403 15:03:40.522838  2598 net.cpp:156] Memory required for data: 1329757728
I0403 15:03:40.522857  2598 layer_factory.hpp:77] Creating layer inception_5b/relu_3x3_reduce
I0403 15:03:40.522879  2598 net.cpp:91] Creating Layer inception_5b/relu_3x3_reduce
I0403 15:03:40.522898  2598 net.cpp:425] inception_5b/relu_3x3_reduce <- inception_5b/3x3_reduce
I0403 15:03:40.522917  2598 net.cpp:386] inception_5b/relu_3x3_reduce -> inception_5b/3x3_reduce (in-place)
I0403 15:03:40.523118  2598 net.cpp:141] Setting up inception_5b/relu_3x3_reduce
I0403 15:03:40.523145  2598 net.cpp:148] Top shape: 24 192 7 7 (225792)
I0403 15:03:40.523161  2598 net.cpp:156] Memory required for data: 1330660896
I0403 15:03:40.523177  2598 layer_factory.hpp:77] Creating layer inception_5b/3x3
I0403 15:03:40.523200  2598 net.cpp:91] Creating Layer inception_5b/3x3
I0403 15:03:40.523218  2598 net.cpp:425] inception_5b/3x3 <- inception_5b/3x3_reduce
I0403 15:03:40.523246  2598 net.cpp:399] inception_5b/3x3 -> inception_5b/3x3
I0403 15:03:40.530223  2598 net.cpp:141] Setting up inception_5b/3x3
I0403 15:03:40.530259  2598 net.cpp:148] Top shape: 24 384 7 7 (451584)
I0403 15:03:40.530278  2598 net.cpp:156] Memory required for data: 1332467232
I0403 15:03:40.530298  2598 layer_factory.hpp:77] Creating layer inception_5b/relu_3x3
I0403 15:03:40.530323  2598 net.cpp:91] Creating Layer inception_5b/relu_3x3
I0403 15:03:40.530344  2598 net.cpp:425] inception_5b/relu_3x3 <- inception_5b/3x3
I0403 15:03:40.530362  2598 net.cpp:386] inception_5b/relu_3x3 -> inception_5b/3x3 (in-place)
I0403 15:03:40.530670  2598 net.cpp:141] Setting up inception_5b/relu_3x3
I0403 15:03:40.530699  2598 net.cpp:148] Top shape: 24 384 7 7 (451584)
I0403 15:03:40.530715  2598 net.cpp:156] Memory required for data: 1334273568
I0403 15:03:40.530732  2598 layer_factory.hpp:77] Creating layer inception_5b/5x5_reduce
I0403 15:03:40.530774  2598 net.cpp:91] Creating Layer inception_5b/5x5_reduce
I0403 15:03:40.530794  2598 net.cpp:425] inception_5b/5x5_reduce <- inception_5a/output_inception_5a/output_0_split_2
I0403 15:03:40.530818  2598 net.cpp:399] inception_5b/5x5_reduce -> inception_5b/5x5_reduce
I0403 15:03:40.532140  2598 net.cpp:141] Setting up inception_5b/5x5_reduce
I0403 15:03:40.532171  2598 net.cpp:148] Top shape: 24 48 7 7 (56448)
I0403 15:03:40.532191  2598 net.cpp:156] Memory required for data: 1334499360
I0403 15:03:40.532212  2598 layer_factory.hpp:77] Creating layer inception_5b/relu_5x5_reduce
I0403 15:03:40.532230  2598 net.cpp:91] Creating Layer inception_5b/relu_5x5_reduce
I0403 15:03:40.532259  2598 net.cpp:425] inception_5b/relu_5x5_reduce <- inception_5b/5x5_reduce
I0403 15:03:40.532281  2598 net.cpp:386] inception_5b/relu_5x5_reduce -> inception_5b/5x5_reduce (in-place)
I0403 15:03:40.532668  2598 net.cpp:141] Setting up inception_5b/relu_5x5_reduce
I0403 15:03:40.532697  2598 net.cpp:148] Top shape: 24 48 7 7 (56448)
I0403 15:03:40.532713  2598 net.cpp:156] Memory required for data: 1334725152
I0403 15:03:40.532729  2598 layer_factory.hpp:77] Creating layer inception_5b/5x5
I0403 15:03:40.532750  2598 net.cpp:91] Creating Layer inception_5b/5x5
I0403 15:03:40.532768  2598 net.cpp:425] inception_5b/5x5 <- inception_5b/5x5_reduce
I0403 15:03:40.532786  2598 net.cpp:399] inception_5b/5x5 -> inception_5b/5x5
I0403 15:03:40.534937  2598 net.cpp:141] Setting up inception_5b/5x5
I0403 15:03:40.534968  2598 net.cpp:148] Top shape: 24 128 7 7 (150528)
I0403 15:03:40.534984  2598 net.cpp:156] Memory required for data: 1335327264
I0403 15:03:40.535003  2598 layer_factory.hpp:77] Creating layer inception_5b/relu_5x5
I0403 15:03:40.535024  2598 net.cpp:91] Creating Layer inception_5b/relu_5x5
I0403 15:03:40.535043  2598 net.cpp:425] inception_5b/relu_5x5 <- inception_5b/5x5
I0403 15:03:40.535061  2598 net.cpp:386] inception_5b/relu_5x5 -> inception_5b/5x5 (in-place)
I0403 15:03:40.535270  2598 net.cpp:141] Setting up inception_5b/relu_5x5
I0403 15:03:40.535300  2598 net.cpp:148] Top shape: 24 128 7 7 (150528)
I0403 15:03:40.535316  2598 net.cpp:156] Memory required for data: 1335929376
I0403 15:03:40.535333  2598 layer_factory.hpp:77] Creating layer inception_5b/pool
I0403 15:03:40.535353  2598 net.cpp:91] Creating Layer inception_5b/pool
I0403 15:03:40.535370  2598 net.cpp:425] inception_5b/pool <- inception_5a/output_inception_5a/output_0_split_3
I0403 15:03:40.535392  2598 net.cpp:399] inception_5b/pool -> inception_5b/pool
I0403 15:03:40.535467  2598 net.cpp:141] Setting up inception_5b/pool
I0403 15:03:40.535491  2598 net.cpp:148] Top shape: 24 832 7 7 (978432)
I0403 15:03:40.535509  2598 net.cpp:156] Memory required for data: 1339843104
I0403 15:03:40.535524  2598 layer_factory.hpp:77] Creating layer inception_5b/pool_proj
I0403 15:03:40.535547  2598 net.cpp:91] Creating Layer inception_5b/pool_proj
I0403 15:03:40.535564  2598 net.cpp:425] inception_5b/pool_proj <- inception_5b/pool
I0403 15:03:40.535585  2598 net.cpp:399] inception_5b/pool_proj -> inception_5b/pool_proj
I0403 15:03:40.537986  2598 net.cpp:141] Setting up inception_5b/pool_proj
I0403 15:03:40.538017  2598 net.cpp:148] Top shape: 24 128 7 7 (150528)
I0403 15:03:40.538034  2598 net.cpp:156] Memory required for data: 1340445216
I0403 15:03:40.538054  2598 layer_factory.hpp:77] Creating layer inception_5b/relu_pool_proj
I0403 15:03:40.538076  2598 net.cpp:91] Creating Layer inception_5b/relu_pool_proj
I0403 15:03:40.538094  2598 net.cpp:425] inception_5b/relu_pool_proj <- inception_5b/pool_proj
I0403 15:03:40.538112  2598 net.cpp:386] inception_5b/relu_pool_proj -> inception_5b/pool_proj (in-place)
I0403 15:03:40.538430  2598 net.cpp:141] Setting up inception_5b/relu_pool_proj
I0403 15:03:40.538460  2598 net.cpp:148] Top shape: 24 128 7 7 (150528)
I0403 15:03:40.538476  2598 net.cpp:156] Memory required for data: 1341047328
I0403 15:03:40.538492  2598 layer_factory.hpp:77] Creating layer inception_5b/output
I0403 15:03:40.538511  2598 net.cpp:91] Creating Layer inception_5b/output
I0403 15:03:40.538542  2598 net.cpp:425] inception_5b/output <- inception_5b/1x1
I0403 15:03:40.538563  2598 net.cpp:425] inception_5b/output <- inception_5b/3x3
I0403 15:03:40.538580  2598 net.cpp:425] inception_5b/output <- inception_5b/5x5
I0403 15:03:40.538599  2598 net.cpp:425] inception_5b/output <- inception_5b/pool_proj
I0403 15:03:40.538619  2598 net.cpp:399] inception_5b/output -> inception_5b/output
I0403 15:03:40.538677  2598 net.cpp:141] Setting up inception_5b/output
I0403 15:03:40.538704  2598 net.cpp:148] Top shape: 24 1024 7 7 (1204224)
I0403 15:03:40.538720  2598 net.cpp:156] Memory required for data: 1345864224
I0403 15:03:40.538735  2598 layer_factory.hpp:77] Creating layer pool5/7x7_s1
I0403 15:03:40.538754  2598 net.cpp:91] Creating Layer pool5/7x7_s1
I0403 15:03:40.538772  2598 net.cpp:425] pool5/7x7_s1 <- inception_5b/output
I0403 15:03:40.538794  2598 net.cpp:399] pool5/7x7_s1 -> pool5/7x7_s1
I0403 15:03:40.539017  2598 net.cpp:141] Setting up pool5/7x7_s1
I0403 15:03:40.539044  2598 net.cpp:148] Top shape: 24 1024 1 1 (24576)
I0403 15:03:40.539059  2598 net.cpp:156] Memory required for data: 1345962528
I0403 15:03:40.539074  2598 layer_factory.hpp:77] Creating layer pool5/drop_7x7_s1
I0403 15:03:40.539095  2598 net.cpp:91] Creating Layer pool5/drop_7x7_s1
I0403 15:03:40.539113  2598 net.cpp:425] pool5/drop_7x7_s1 <- pool5/7x7_s1
I0403 15:03:40.539132  2598 net.cpp:386] pool5/drop_7x7_s1 -> pool5/7x7_s1 (in-place)
I0403 15:03:40.539186  2598 net.cpp:141] Setting up pool5/drop_7x7_s1
I0403 15:03:40.539209  2598 net.cpp:148] Top shape: 24 1024 1 1 (24576)
I0403 15:03:40.539225  2598 net.cpp:156] Memory required for data: 1346060832
I0403 15:03:40.539243  2598 layer_factory.hpp:77] Creating layer loss3/classifier_plantvillage
I0403 15:03:40.539265  2598 net.cpp:91] Creating Layer loss3/classifier_plantvillage
I0403 15:03:40.539283  2598 net.cpp:425] loss3/classifier_plantvillage <- pool5/7x7_s1
I0403 15:03:40.539304  2598 net.cpp:399] loss3/classifier_plantvillage -> loss3/classifier_plantvillage
I0403 15:03:40.539752  2598 net.cpp:141] Setting up loss3/classifier_plantvillage
I0403 15:03:40.539777  2598 net.cpp:148] Top shape: 24 38 (912)
I0403 15:03:40.539793  2598 net.cpp:156] Memory required for data: 1346064480
I0403 15:03:40.539813  2598 layer_factory.hpp:77] Creating layer loss3/classifier_plantvillage_loss3/classifier_plantvillage_0_split
I0403 15:03:40.539831  2598 net.cpp:91] Creating Layer loss3/classifier_plantvillage_loss3/classifier_plantvillage_0_split
I0403 15:03:40.539846  2598 net.cpp:425] loss3/classifier_plantvillage_loss3/classifier_plantvillage_0_split <- loss3/classifier_plantvillage
I0403 15:03:40.539867  2598 net.cpp:399] loss3/classifier_plantvillage_loss3/classifier_plantvillage_0_split -> loss3/classifier_plantvillage_loss3/classifier_plantvillage_0_split_0
I0403 15:03:40.539890  2598 net.cpp:399] loss3/classifier_plantvillage_loss3/classifier_plantvillage_0_split -> loss3/classifier_plantvillage_loss3/classifier_plantvillage_0_split_1
I0403 15:03:40.539909  2598 net.cpp:399] loss3/classifier_plantvillage_loss3/classifier_plantvillage_0_split -> loss3/classifier_plantvillage_loss3/classifier_plantvillage_0_split_2
I0403 15:03:40.539930  2598 net.cpp:399] loss3/classifier_plantvillage_loss3/classifier_plantvillage_0_split -> loss3/classifier_plantvillage_loss3/classifier_plantvillage_0_split_3
I0403 15:03:40.540035  2598 net.cpp:141] Setting up loss3/classifier_plantvillage_loss3/classifier_plantvillage_0_split
I0403 15:03:40.540060  2598 net.cpp:148] Top shape: 24 38 (912)
I0403 15:03:40.540077  2598 net.cpp:148] Top shape: 24 38 (912)
I0403 15:03:40.540093  2598 net.cpp:148] Top shape: 24 38 (912)
I0403 15:03:40.540109  2598 net.cpp:148] Top shape: 24 38 (912)
I0403 15:03:40.540124  2598 net.cpp:156] Memory required for data: 1346079072
I0403 15:03:40.540139  2598 layer_factory.hpp:77] Creating layer loss1/loss
I0403 15:03:40.540163  2598 net.cpp:91] Creating Layer loss1/loss
I0403 15:03:40.540180  2598 net.cpp:425] loss1/loss <- loss1/classifier_plantvillage_loss1/classifier_plantvillage_0_split_0
I0403 15:03:40.540212  2598 net.cpp:425] loss1/loss <- label_data_1_split_0
…
