…
I0403 15:10:42.239852  2769 net.cpp:313] The NetState phase (1) differed from the phase (0) specified by a rule in layer data
I0403 15:10:42.241063  2769 net.cpp:49] Initializing net from parameters: 
state {
  phase: TEST
}
layer {
  name: "data"
  type: "Data"
  top: "data"
  top: "label"
  include {
    phase: TEST
  }
  transform_param {
    mirror: false
    crop_size: 224
    mean_file: "/home/mohanty/data/final_dataset/lmdb/grayscale-50-50/mean.binaryproto"
  }
  data_param {
    source: "/home/mohanty/data/final_dataset/lmdb/grayscale-50-50/test_db"
    batch_size: 24
    backend: LMDB
  }
}
layer {
  name: "conv1/7x7_s2"
  type: "Convolution"
  bottom: "data"
  top: "conv1/7x7_s2"
  param {
    lr_mult: 1
    decay_mult: 1
  }
  param {
    lr_mult: 2
    decay_mult: 0
  }
  convolution_param {
    num_output: 64
    pad: 3
    kernel_size: 7
    stride: 2
    weight_filler {
      type: "xavier"
      std: 0.1
    }
    bias_filler {
      type: "constant"
      value: 0.2
    }
  }
}
layer {
  name: "conv1/relu_7x7"
  type: "ReLU"
  bottom: "conv1/7x7_s2"
  top: "conv1/7x7_s2"
}
layer {
  name: "pool1/3x3_s2"
  type: "Pooling"
  bottom: "conv1/7x7_s2"
  top: "pool1/3x3_s2"
  pooling_param {
    pool: MAX
    kernel_size: 3
    stride: 2
  }
}
layer {
  name: "pool1/norm1"
  type: "LRN"
  bottom: "pool1/3x3_s2"
  top: "pool1/norm1"
  lrn_param {
    local_size: 5
    alpha: 0.0001
    beta: 0.75
  }
}
layer {
  name: "conv2/3x3_reduce"
  type: "Convolution"
  bottom: "pool1/norm1"
  top: "conv2/3x3_reduce"
  param {
    lr_mult: 1
    decay_mult: 1
  }
  param {
    lr_mult: 2
    decay_mult: 0
  }
  convolution_param {
    num_output: 64
    kernel_size: 1
    weight_filler {
      type: "xavier"
      std: 0.1
    }
    bias_filler {
      type: "constant"
      value: 0.2
    }
  }
}
layer {
  name: "conv2/relu_3x3_reduce"
  type: "ReLU"
  bottom: "conv2/3x3_reduce"
  top: "conv2/3x3_reduce"
}
layer {
  name: "conv2/3x3"
  type: "Convolution"
  bottom: "conv2/3x3_reduce"
  top: "conv2/3x3"
  param {
    lr_mult: 1
    decay_mult: 1
  }
  param {
    lr_mult: 2
    decay_mult: 0
  }
  convolution_param {
    num_output: 192
    pad: 1
    kernel_size: 3
    weight_filler {
      type: "xavier"
      std: 0.03
    }
    bias_filler {
      type: "constant"
      value: 0.2
    }
  }
}
layer {
  name: "conv2/relu_3x3"
  type: "ReLU"
  bottom: "conv2/3x3"
  top: "conv2/3x3"
}
layer {
  name: "conv2/norm2"
  type: "LRN"
  bottom: "conv2/3x3"
  top: "conv2/norm2"
  lrn_param {
    local_size: 5
    alpha: 0.0001
    beta: 0.75
  }
}
layer {
  name: "pool2/3x3_s2"
  type: "Pooling"
  bottom: "conv2/norm2"
  top: "pool2/3x3_s2"
  pooling_param {
    pool: MAX
    kernel_size: 3
    stride: 2
  }
}
layer {
  name: "inception_3a/1x1"
  type: "Convolution"
  bottom: "pool2/3x3_s2"
  top: "inception_3a/1x1"
  param {
    lr_mult: 1
    decay_mult: 1
  }
  param {
    lr_mult: 2
    decay_mult: 0
  }
  convolution_param {
    num_output: 64
    kernel_size: 1
    weight_filler {
      type: "xavier"
      std: 0.03
    }
    bias_filler {
      type: "constant"
      value: 0.2
    }
  }
}
layer {
  name: "inception_3a/relu_1x1"
  type: "ReLU"
  bottom: "inception_3a/1x1"
  top: "inception_3a/1x1"
}
layer {
  name: "inception_3a/3x3_reduce"
  type: "Convolution"
  bottom: "pool2/3x3_s2"
  top: "inception_3a/3x3_reduce"
  param {
    lr_mult: 1
    decay_mult: 1
  }
  param {
    lr_mult: 2
    decay_mult: 0
  }
  convolution_param {
    num_output: 96
    kernel_size: 1
    weight_filler {
      type: "xavier"
      std: 0.09
    }
    bias_filler {
      type: "constant"
      value: 0.2
    }
  }
}
layer {
  name: "inception_3a/relu_3x3_reduce"
  type: "ReLU"
  bottom: "inception_3a/3x3_reduce"
  top: "inception_3a/3x3_reduce"
}
layer {
  name: "inception_3a/3x3"
  type: "Convolution"
  bottom: "inception_3a/3x3_reduce"
  top: "inception_3a/3x3"
  param {
    lr_mult: 1
    decay_mult: 1
  }
  param {
    lr_mult: 2
    decay_mult: 0
  }
  convolution_param {
    num_output: 128
    pad: 1
    kernel_size: 3
    weight_filler {
      type: "xavier"
      std: 0.03
    }
    bias_filler {
      type: "constant"
      value: 0.2
    }
  }
}
layer {
  name: "inception_3a/relu_3x3"
  type: "ReLU"
  bottom: "inception_3a/3x3"
  top: "inception_3a/3x3"
}
layer {
  name: "inception_3a/5x5_reduce"
  type: "Convolution"
  bottom: "pool2/3x3_s2"
  top: "inception_3a/5x5_reduce"
  param {
    lr_mult: 1
    decay_mult: 1
  }
  param {
    lr_mult: 2
    decay_mult: 0
  }
  convolution_param {
    num_output: 16
    kernel_size: 1
    weight_filler {
      type: "xavier"
      std: 0.2
    }
    bias_filler {
      type: "constant"
      value: 0.2
    }
  }
}
layer {
  name: "inception_3a/relu_5x5_reduce"
  type: "ReLU"
  bottom: "inception_3a/5x5_reduce"
  top: "inception_3a/5x5_reduce"
}
layer {
  name: "inception_3a/5x5"
  type: "Convolution"
  bottom: "inception_3a/5x5_reduce"
  top: "inception_3a/5x5"
  param {
    lr_mult: 1
    decay_mult: 1
  }
  param {
    lr_mult: 2
    decay_mult: 0
  }
  convolution_param {
    num_output: 32
    pad: 2
    kernel_size: 5
    weight_filler {
      type: "xavier"
      std: 0.03
    }
    bias_filler {
      type: "constant"
      value: 0.2
    }
  }
}
layer {
  name: "inception_3a/relu_5x5"
  type: "ReLU"
  bottom: "inception_3a/5x5"
  top: "inception_3a/5x5"
}
layer {
  name: "inception_3a/pool"
  type: "Pooling"
  bottom: "pool2/3x3_s2"
  top: "inception_3a/pool"
  pooling_param {
    pool: MAX
    kernel_size: 3
    stride: 1
    pad: 1
  }
}
layer {
  name: "inception_3a/pool_proj"
  type: "Convolution"
  bottom: "inception_3a/pool"
  top: "inception_3a/pool_proj"
  param {
    lr_mult: 1
    decay_mult: 1
  }
  param {
    lr_mult: 2
    decay_mult: 0
  }
  convolution_param {
    num_output: 32
    kernel_size: 1
    weight_filler {
      type: "xavier"
      std: 0.1
    }
    bias_filler {
      type: "constant"
      value: 0.2
    }
  }
}
layer {
  name: "inception_3a/relu_pool_proj"
  type: "ReLU"
  bottom: "inception_3a/pool_proj"
  top: "inception_3a/pool_proj"
}
layer {
  name: "inception_3a/output"
  type: "Concat"
  bottom: "inception_3a/1x1"
  bottom: "inception_3a/3x3"
  bottom: "inception_3a/5x5"
  bottom: "inception_3a/pool_proj"
  top: "inception_3a/output"
}
layer {
  name: "inception_3b/1x1"
  type: "Convolution"
  bottom: "inception_3a/output"
  top: "inception_3b/1x1"
  param {
    lr_mult: 1
    decay_mult: 1
  }
  param {
    lr_mult: 2
    decay_mult: 0
  }
  convolution_param {
    num_output: 128
    kernel_size: 1
    weight_filler {
      type: "xavier"
      std: 0.03
    }
    bias_filler {
      type: "constant"
      value: 0.2
    }
  }
}
layer {
  name: "inception_3b/relu_1x1"
  type: "ReLU"
  bottom: "inception_3b/1x1"
  top: "inception_3b/1x1"
}
layer {
  name: "inception_3b/3x3_reduce"
  type: "Convolution"
  bottom: "inception_3a/output"
  top: "inception_3b/3x3_reduce"
  param {
    lr_mult: 1
    decay_mult: 1
  }
  param {
    lr_mult: 2
    decay_mult: 0
  }
  convolution_param {
    num_output: 128
    kernel_size: 1
    weight_filler {
      type: "xavier"
      std: 0.09
    }
    bias_filler {
      type: "constant"
      value: 0.2
    }
  }
}
layer {
  name: "inception_3b/relu_3x3_reduce"
  type: "ReLU"
  bottom: "inception_3b/3x3_reduce"
  top: "inception_3b/3x3_reduce"
}
layer {
  name: "inception_3b/3x3"
  type: "Convolution"
  bottom: "inception_3b/3x3_reduce"
  top: "inception_3b/3x3"
  param {
    lr_mult: 1
    decay_mult: 1
  }
  param {
    lr_mult: 2
    decay_mult: 0
  }
  convolution_param {
    num_output: 192
    pad: 1
    kernel_size: 3
    weight_filler {
      type: "xavier"
      std: 0.03
    }
    bias_filler {
      type: "constant"
      value: 0.2
    }
  }
}
layer {
  name: "inception_3b/relu_3x3"
  type: "ReLU"
  bottom: "inception_3b/3x3"
  top: "inception_3b/3x3"
}
layer {
  name: "inception_3b/5x5_reduce"
  type: "Convolution"
  bottom: "inception_3a/output"
  top: "inception_3b/5x5_reduce"
  param {
    lr_mult: 1
    decay_mult: 1
  }
  param {
    lr_mult: 2
    decay_mult: 0
  }
  convolution_param {
    num_output: 32
    kernel_size: 1
    weight_filler {
      type: "xavier"
      std: 0.2
    }
    bias_filler {
      type: "constant"
      value: 0.2
    }
  }
}
layer {
  name: "inception_3b/relu_5x5_reduce"
  type: "ReLU"
  bottom: "inception_3b/5x5_reduce"
  top: "inception_3b/5x5_reduce"
}
layer {
  name: "inception_3b/5x5"
  type: "Convolution"
  bottom: "inception_3b/5x5_reduce"
  top: "inception_3b/5x5"
  param {
    lr_mult: 1
    decay_mult: 1
  }
  param {
    lr_mult: 2
    decay_mult: 0
  }
  convolution_param {
    num_output: 96
    pad: 2
    kernel_size: 5
    weight_filler {
      type: "xavier"
      std: 0.03
    }
    bias_filler {
      type: "constant"
      value: 0.2
    }
  }
}
layer {
  name: "inception_3b/relu_5x5"
  type: "ReLU"
  bottom: "inception_3b/5x5"
  top: "inception_3b/5x5"
}
layer {
  name: "inception_3b/pool"
  type: "Pooling"
  bottom: "inception_3a/output"
  top: "inception_3b/pool"
  pooling_param {
    pool: MAX
    kernel_size: 3
    stride: 1
    pad: 1
  }
}
layer {
  name: "inception_3b/pool_proj"
  type: "Convolution"
  bottom: "inception_3b/pool"
  top: "inception_3b/pool_proj"
  param {
    lr_mult: 1
    decay_mult: 1
  }
  param {
    lr_mult: 2
    decay_mult: 0
  }
  convolution_param {
    num_output: 64
    kernel_size: 1
    weight_filler {
      type: "xavier"
      std: 0.1
    }
    bias_filler {
      type: "constant"
      value: 0.2
    }
  }
}
layer {
  name: "inception_3b/relu_pool_proj"
  type: "ReLU"
  bottom: "inception_3b/pool_proj"
  top: "inception_3b/pool_proj"
}
layer {
  name: "inception_3b/output"
  type: "Concat"
  bottom: "inception_3b/1x1"
  bottom: "inception_3b/3x3"
  bottom: "inception_3b/5x5"
  bottom: "inception_3b/pool_proj"
  top: "inception_3b/output"
}
layer {
  name: "pool3/3x3_s2"
  type: "Pooling"
  bottom: "inception_3b/output"
  top: "pool3/3x3_s2"
  pooling_param {
    pool: MAX
    kernel_size: 3
    stride: 2
  }
}
layer {
  name: "inception_4a/1x1"
  type: "Convolution"
  bottom: "pool3/3x3_s2"
  top: "inception_4a/1x1"
  param {
    lr_mult: 1
    decay_mult: 1
  }
  param {
    lr_mult: 2
    decay_mult: 0
  }
  convolution_param {
    num_output: 192
    kernel_size: 1
    weight_filler {
      type: "xavier"
      std: 0.03
    }
    bias_filler {
      type: "constant"
      value: 0.2
    }
  }
}
layer {
  name: "inception_4a/relu_1x1"
  type: "ReLU"
  bottom: "inception_4a/1x1"
  top: "inception_4a/1x1"
}
layer {
  name: "inception_4a/3x3_reduce"
  type: "Convolution"
  bottom: "pool3/3x3_s2"
  top: "inception_4a/3x3_reduce"
  param {
    lr_mult: 1
    decay_mult: 1
  }
  param {
    lr_mult: 2
    decay_mult: 0
  }
  convolution_param {
    num_output: 96
    kernel_size: 1
    weight_filler {
      type: "xavier"
      std: 0.09
    }
    bias_filler {
      type: "constant"
      value: 0.2
    }
  }
}
layer {
  name: "inception_4a/relu_3x3_reduce"
  type: "ReLU"
  bottom: "inception_4a/3x3_reduce"
  top: "inception_4a/3x3_reduce"
}
layer {
  name: "inception_4a/3x3"
  type: "Convolution"
  bottom: "inception_4a/3x3_reduce"
  top: "inception_4a/3x3"
  param {
    lr_mult: 1
    decay_mult: 1
  }
  param {
    lr_mult: 2
    decay_mult: 0
  }
  convolution_param {
    num_output: 208
    pad: 1
    kernel_size: 3
    weight_filler {
      type: "xavier"
      std: 0.03
    }
    bias_filler {
      type: "constant"
      value: 0.2
    }
  }
}
layer {
  name: "inception_4a/relu_3x3"
  type: "ReLU"
  bottom: "inception_4a/3x3"
  top: "inception_4a/3x3"
}
layer {
  name: "inception_4a/5x5_reduce"
  type: "Convolution"
  bottom: "pool3/3x3_s2"
  top: "inception_4a/5x5_reduce"
  param {
    lr_mult: 1
    decay_mult: 1
  }
  param {
    lr_mult: 2
    decay_mult: 0
  }
  convolution_param {
    num_output: 16
    kernel_size: 1
    weight_filler {
      type: "xavier"
      std: 0.2
    }
    bias_filler {
      type: "constant"
      value: 0.2
    }
  }
}
layer {
  name: "inception_4a/relu_5x5_reduce"
  type: "ReLU"
  bottom: "inception_4a/5x5_reduce"
  top: "inception_4a/5x5_reduce"
}
layer {
  name: "inception_4a/5x5"
  type: "Convolution"
  bottom: "inception_4a/5x5_reduce"
  top: "inception_4a/5x5"
  param {
    lr_mult: 1
    decay_mult: 1
  }
  param {
    lr_mult: 2
    decay_mult: 0
  }
  convolution_param {
    num_output: 48
    pad: 2
    kernel_size: 5
    weight_filler {
      type: "xavier"
      std: 0.03
    }
    bias_filler {
      type: "constant"
      value: 0.2
    }
  }
}
layer {
  name: "inception_4a/relu_5x5"
  type: "ReLU"
  bottom: "inception_4a/5x5"
  top: "inception_4a/5x5"
}
layer {
  name: "inception_4a/pool"
  type: "Pooling"
  bottom: "pool3/3x3_s2"
  top: "inception_4a/pool"
  pooling_param {
    pool: MAX
    kernel_size: 3
    stride: 1
    pad: 1
  }
}
layer {
  name: "inception_4a/pool_proj"
  type: "Convolution"
  bottom: "inception_4a/pool"
  top: "inception_4a/pool_proj"
  param {
    lr_mult: 1
    decay_mult: 1
  }
  param {
    lr_mult: 2
    decay_mult: 0
  }
  convolution_param {
    num_output: 64
    kernel_size: 1
    weight_filler {
      type: "xavier"
      std: 0.1
    }
    bias_filler {
      type: "constant"
      value: 0.2
    }
  }
}
layer {
  name: "inception_4a/relu_pool_proj"
  type: "ReLU"
  bottom: "inception_4a/pool_proj"
  top: "inception_4a/pool_proj"
}
layer {
  name: "inception_4a/output"
  type: "Concat"
  bottom: "inception_4a/1x1"
  bottom: "inception_4a/3x3"
  bottom: "inception_4a/5x5"
  bottom: "inception_4a/pool_proj"
  top: "inception_4a/output"
}
layer {
  name: "loss1/ave_pool"
  type: "Pooling"
  bottom: "inception_4a/output"
  top: "loss1/ave_pool"
  pooling_param {
    pool: AVE
    kernel_size: 5
    stride: 3
  }
}
layer {
  name: "loss1/conv"
  type: "Convolution"
  bottom: "loss1/ave_pool"
  top: "loss1/conv"
  param {
    lr_mult: 1
    decay_mult: 1
  }
  param {
    lr_mult: 2
    decay_mult: 0
  }
  convolution_param {
    num_output: 128
    kernel_size: 1
    weight_filler {
      type: "xavier"
      std: 0.08
    }
    bias_filler {
      type: "constant"
      value: 0.2
    }
  }
}
layer {
  name: "loss1/relu_conv"
  type: "ReLU"
  bottom: "loss1/conv"
  top: "loss1/conv"
}
layer {
  name: "loss1/fc"
  type: "InnerProduct"
  bottom: "loss1/conv"
  top: "loss1/fc"
  param {
    lr_mult: 1
    decay_mult: 1
  }
  param {
    lr_mult: 2
    decay_mult: 0
  }
  inner_product_param {
    num_output: 1024
    weight_filler {
      type: "xavier"
      std: 0.02
    }
    bias_filler {
      type: "constant"
      value: 0.2
    }
  }
}
layer {
  name: "loss1/relu_fc"
  type: "ReLU"
  bottom: "loss1/fc"
  top: "loss1/fc"
}
layer {
  name: "loss1/drop_fc"
  type: "Dropout"
  bottom: "loss1/fc"
  top: "loss1/fc"
  dropout_param {
    dropout_ratio: 0.7
  }
}
layer {
  name: "loss1/classifier_plantvillage"
  type: "InnerProduct"
  bottom: "loss1/fc"
  top: "loss1/classifier_plantvillage"
  param {
    lr_mult: 1
    decay_mult: 1
  }
  param {
    lr_mult: 2
    decay_mult: 0
  }
  inner_product_param {
    num_output: 38
    weight_filler {
      type: "xavier"
      std: 0.0009765625
    }
    bias_filler {
      type: "constant"
      value: 0
    }
  }
}
layer {
  name: "inception_4b/1x1"
  type: "Convolution"
  bottom: "inception_4a/output"
  top: "inception_4b/1x1"
  param {
    lr_mult: 1
    decay_mult: 1
  }
  param {
    lr_mult: 2
    decay_mult: 0
  }
  convolution_param {
    num_output: 160
    kernel_size: 1
    weight_filler {
      type: "xavier"
      std: 0.03
    }
    bias_filler {
      type: "constant"
      value: 0.2
    }
  }
}
layer {
  name: "inception_4b/relu_1x1"
  type: "ReLU"
  bottom: "inception_4b/1x1"
  top: "inception_4b/1x1"
}
layer {
  name: "inception_4b/3x3_reduce"
  type: "Convolution"
  bottom: "inception_4a/output"
  top: "inception_4b/3x3_reduce"
  param {
    lr_mult: 1
    decay_mult: 1
  }
  param {
    lr_mult: 2
    decay_mult: 0
  }
  convolution_param {
    num_output: 112
    kernel_size: 1
    weight_filler {
      type: "xavier"
      std: 0.09
    }
    bias_filler {
      type: "constant"
      value: 0.2
    }
  }
}
layer {
  name: "inception_4b/relu_3x3_reduce"
  type: "ReLU"
  bottom: "inception_4b/3x3_reduce"
  top: "inception_4b/3x3_reduce"
}
layer {
  name: "inception_4b/3x3"
  type: "Convolution"
  bottom: "inception_4b/3x3_reduce"
  top: "inception_4b/3x3"
  param {
    lr_mult: 1
    decay_mult: 1
  }
  param {
    lr_mult: 2
    decay_mult: 0
  }
  convolution_param {
    num_output: 224
    pad: 1
    kernel_size: 3
    weight_filler {
      type: "xavier"
      std: 0.03
    }
    bias_filler {
      type: "constant"
      value: 0.2
    }
  }
}
layer {
  name: "inception_4b/relu_3x3"
  type: "ReLU"
  bottom: "inception_4b/3x3"
  top: "inception_4b/3x3"
}
layer {
  name: "inception_4b/5x5_reduce"
  type: "Convolution"
  bottom: "inception_4a/output"
  top: "inception_4b/5x5_reduce"
  param {
    lr_mult: 1
    decay_mult: 1
  }
  param {
    lr_mult: 2
    decay_mult: 0
  }
  convolution_param {
    num_output: 24
    kernel_size: 1
    weight_filler {
      type: "xavier"
      std: 0.2
    }
    bias_filler {
      type: "constant"
      value: 0.2
    }
  }
}
layer {
  name: "inception_4b/relu_5x5_reduce"
  type: "ReLU"
  bottom: "inception_4b/5x5_reduce"
  top: "inception_4b/5x5_reduce"
}
layer {
  name: "inception_4b/5x5"
  type: "Convolution"
  bottom: "inception_4b/5x5_reduce"
  top: "inception_4b/5x5"
  param {
    lr_mult: 1
    decay_mult: 1
  }
  param {
    lr_mult: 2
    decay_mult: 0
  }
  convolution_param {
    num_output: 64
    pad: 2
    kernel_size: 5
    weight_filler {
      type: "xavier"
      std: 0.03
    }
    bias_filler {
      type: "constant"
      value: 0.2
    }
  }
}
layer {
  name: "inception_4b/relu_5x5"
  type: "ReLU"
  bottom: "inception_4b/5x5"
  top: "inception_4b/5x5"
}
layer {
  name: "inception_4b/pool"
  type: "Pooling"
  bottom: "inception_4a/output"
  top: "inception_4b/pool"
  pooling_param {
    pool: MAX
    kernel_size: 3
    stride: 1
    pad: 1
  }
}
layer {
  name: "inception_4b/pool_proj"
  type: "Convolution"
  bottom: "inception_4b/pool"
  top: "inception_4b/pool_proj"
  param {
    lr_mult: 1
    decay_mult: 1
  }
  param {
    lr_mult: 2
    decay_mult: 0
  }
  convolution_param {
    num_output: 64
    kernel_size: 1
    weight_filler {
      type: "xavier"
      std: 0.1
    }
    bias_filler {
      type: "constant"
      value: 0.2
    }
  }
}
layer {
  name: "inception_4b/relu_pool_proj"
  type: "ReLU"
  bottom: "inception_4b/pool_proj"
  top: "inception_4b/pool_proj"
}
layer {
  name: "inception_4b/output"
  type: "Concat"
  bottom: "inception_4b/1x1"
  bottom: "inception_4b/3x3"
  bottom: "inception_4b/5x5"
  bottom: "inception_4b/pool_proj"
  top: "inception_4b/output"
}
layer {
  name: "inception_4c/1x1"
  type: "Convolution"
  bottom: "inception_4b/output"
  top: "inception_4c/1x1"
  param {
    lr_mult: 1
    decay_mult: 1
  }
  param {
    lr_mult: 2
    decay_mult: 0
  }
  convolution_param {
    num_output: 128
    kernel_size: 1
    weight_filler {
      type: "xavier"
      std: 0.03
    }
    bias_filler {
      type: "constant"
      value: 0.2
    }
  }
}
layer {
  name: "inception_4c/relu_1x1"
  type: "ReLU"
  bottom: "inception_4c/1x1"
  top: "inception_4c/1x1"
}
layer {
  name: "inception_4c/3x3_reduce"
  type: "Convolution"
  bottom: "inception_4b/output"
  top: "inception_4c/3x3_reduce"
  param {
    lr_mult: 1
    decay_mult: 1
  }
  param {
    lr_mult: 2
    decay_mult: 0
  }
  convolution_param {
    num_output: 128
    kernel_size: 1
    weight_filler {
      type: "xavier"
      std: 0.09
    }
    bias_filler {
      type: "constant"
      value: 0.2
    }
  }
}
layer {
  name: "inception_4c/relu_3x3_reduce"
  type: "ReLU"
  bottom: "inception_4c/3x3_reduce"
  top: "inception_4c/3x3_reduce"
}
layer {
  name: "inception_4c/3x3"
  type: "Convolution"
  bottom: "inception_4c/3x3_reduce"
  top: "inception_4c/3x3"
  param {
    lr_mult: 1
    decay_mult: 1
  }
  param {
    lr_mult: 2
    decay_mult: 0
  }
  convolution_param {
    num_output: 256
    pad: 1
    kernel_size: 3
    weight_filler {
      type: "xavier"
      std: 0.03
    }
    bias_filler {
      type: "constant"
      value: 0.2
    }
  }
}
layer {
  name: "inception_4c/relu_3x3"
  type: "ReLU"
  bottom: "inception_4c/3x3"
  top: "inception_4c/3x3"
}
layer {
  name: "inception_4c/5x5_reduce"
  type: "Convolution"
  bottom: "inception_4b/output"
  top: "inception_4c/5x5_reduce"
  param {
    lr_mult: 1
    decay_mult: 1
  }
  param {
    lr_mult: 2
    decay_mult: 0
  }
  convolution_param {
    num_output: 24
    kernel_size: 1
    weight_filler {
      type: "xavier"
      std: 0.2
    }
    bias_filler {
      type: "constant"
      value: 0.2
    }
  }
}
layer {
  name: "inception_4c/relu_5x5_reduce"
  type: "ReLU"
  bottom: "inception_4c/5x5_reduce"
  top: "inception_4c/5x5_reduce"
}
layer {
  name: "inception_4c/5x5"
  type: "Convolution"
  bottom: "inception_4c/5x5_reduce"
  top: "inception_4c/5x5"
  param {
    lr_mult: 1
    decay_mult: 1
  }
  param {
    lr_mult: 2
    decay_mult: 0
  }
  convolution_param {
    num_output: 64
    pad: 2
    kernel_size: 5
    weight_filler {
      type: "xavier"
      std: 0.03
    }
    bias_filler {
      type: "constant"
      value: 0.2
    }
  }
}
layer {
  name: "inception_4c/relu_5x5"
  type: "ReLU"
  bottom: "inception_4c/5x5"
  top: "inception_4c/5x5"
}
layer {
  name: "inception_4c/pool"
  type: "Pooling"
  bottom: "inception_4b/output"
  top: "inception_4c/pool"
  pooling_param {
    pool: MAX
    kernel_size: 3
    stride: 1
    pad: 1
  }
}
layer {
  name: "inception_4c/pool_proj"
  type: "Convolution"
  bottom: "inception_4c/pool"
  top: "inception_4c/pool_proj"
  param {
    lr_mult: 1
    decay_mult: 1
  }
  param {
    lr_mult: 2
    decay_mult: 0
  }
  convolution_param {
    num_output: 64
    kernel_size: 1
    weight_filler {
      type: "xavier"
      std: 0.1
    }
    bias_filler {
      type: "constant"
      value: 0.2
    }
  }
}
layer {
  name: "inception_4c/relu_pool_proj"
  type: "ReLU"
  bottom: "inception_4c/pool_proj"
  top: "inception_4c/pool_proj"
}
layer {
  name: "inception_4c/output"
  type: "Concat"
  bottom: "inception_4c/1x1"
  bottom: "inception_4c/3x3"
  bottom: "inception_4c/5x5"
  bottom: "inception_4c/pool_proj"
  top: "inception_4c/output"
}
layer {
  name: "inception_4d/1x1"
  type: "Convolution"
  bottom: "inception_4c/output"
  top: "inception_4d/1x1"
  param {
    lr_mult: 1
    decay_mult: 1
  }
  param {
    lr_mult: 2
    decay_mult: 0
  }
  convolution_param {
    num_output: 112
    kernel_size: 1
    weight_filler {
      type: "xavier"
      std: 0.03
    }
    bias_filler {
      type: "constant"
      value: 0.2
    }
  }
}
layer {
  name: "inception_4d/relu_1x1"
  type: "ReLU"
  bottom: "inception_4d/1x1"
  top: "inception_4d/1x1"
}
layer {
  name: "inception_4d/3x3_reduce"
  type: "Convolution"
  bottom: "inception_4c/output"
  top: "inception_4d/3x3_reduce"
  param {
    lr_mult: 1
    decay_mult: 1
  }
  param {
    lr_mult: 2
    decay_mult: 0
  }
  convolution_param {
    num_output: 144
    kernel_size: 1
    weight_filler {
      type: "xavier"
      std: 0.09
    }
    bias_filler {
      type: "constant"
      value: 0.2
    }
  }
}
layer {
  name: "inception_4d/relu_3x3_reduce"
  type: "ReLU"
  bottom: "inception_4d/3x3_reduce"
  top: "inception_4d/3x3_reduce"
}
layer {
  name: "inception_4d/3x3"
  type: "Convolution"
  bottom: "inception_4d/3x3_reduce"
  top: "inception_4d/3x3"
  param {
    lr_mult: 1
    decay_mult: 1
  }
  param {
    lr_mult: 2
    decay_mult: 0
  }
  convolution_param {
    num_output: 288
    pad: 1
    kernel_size: 3
    weight_filler {
      type: "xavier"
      std: 0.03
    }
    bias_filler {
      type: "constant"
      value: 0.2
    }
  }
}
layer {
  name: "inception_4d/relu_3x3"
  type: "ReLU"
  bottom: "inception_4d/3x3"
  top: "inception_4d/3x3"
}
layer {
  name: "inception_4d/5x5_reduce"
  type: "Convolution"
  bottom: "inception_4c/output"
  top: "inception_4d/5x5_reduce"
  param {
    lr_mult: 1
    decay_mult: 1
  }
  param {
    lr_mult: 2
    decay_mult: 0
  }
  convolution_param {
    num_output: 32
    kernel_size: 1
    weight_filler {
      type: "xavier"
      std: 0.2
    }
    bias_filler {
      type: "constant"
      value: 0.2
    }
  }
}
layer {
  name: "inception_4d/relu_5x5_reduce"
  type: "ReLU"
  bottom: "inception_4d/5x5_reduce"
  top: "inception_4d/5x5_reduce"
}
layer {
  name: "inception_4d/5x5"
  type: "Convolution"
  bottom: "inception_4d/5x5_reduce"
  top: "inception_4d/5x5"
  param {
    lr_mult: 1
    decay_mult: 1
  }
  param {
    lr_mult: 2
    decay_mult: 0
  }
  convolution_param {
    num_output: 64
    pad: 2
    kernel_size: 5
    weight_filler {
      type: "xavier"
      std: 0.03
    }
    bias_filler {
      type: "constant"
      value: 0.2
    }
  }
}
layer {
  name: "inception_4d/relu_5x5"
  type: "ReLU"
  bottom: "inception_4d/5x5"
  top: "inception_4d/5x5"
}
layer {
  name: "inception_4d/pool"
  type: "Pooling"
  bottom: "inception_4c/output"
  top: "inception_4d/pool"
  pooling_param {
    pool: MAX
    kernel_size: 3
    stride: 1
    pad: 1
  }
}
layer {
  name: "inception_4d/pool_proj"
  type: "Convolution"
  bottom: "inception_4d/pool"
  top: "inception_4d/pool_proj"
  param {
    lr_mult: 1
    decay_mult: 1
  }
  param {
    lr_mult: 2
    decay_mult: 0
  }
  convolution_param {
    num_output: 64
    kernel_size: 1
    weight_filler {
      type: "xavier"
      std: 0.1
    }
    bias_filler {
      type: "constant"
      value: 0.2
    }
  }
}
layer {
  name: "inception_4d/relu_pool_proj"
  type: "ReLU"
  bottom: "inception_4d/pool_proj"
  top: "inception_4d/pool_proj"
}
layer {
  name: "inception_4d/output"
  type: "Concat"
  bottom: "inception_4d/1x1"
  bottom: "inception_4d/3x3"
  bottom: "inception_4d/5x5"
  bottom: "inception_4d/pool_proj"
  top: "inception_4d/output"
}
layer {
  name: "loss2/ave_pool"
  type: "Pooling"
  bottom: "inception_4d/output"
  top: "loss2/ave_pool"
  pooling_param {
    pool: AVE
    kernel_size: 5
    stride: 3
  }
}
layer {
  name: "loss2/conv"
  type: "Convolution"
  bottom: "loss2/ave_pool"
  top: "loss2/conv"
  param {
    lr_mult: 1
    decay_mult: 1
  }
  param {
    lr_mult: 2
    decay_mult: 0
  }
  convolution_param {
    num_output: 128
    kernel_size: 1
    weight_filler {
      type: "xavier"
      std: 0.08
    }
    bias_filler {
      type: "constant"
      value: 0.2
    }
  }
}
layer {
  name: "loss2/relu_conv"
  type: "ReLU"
  bottom: "loss2/conv"
  top: "loss2/conv"
}
layer {
  name: "loss2/fc"
  type: "InnerProduct"
  bottom: "loss2/conv"
  top: "loss2/fc"
  param {
    lr_mult: 1
    decay_mult: 1
  }
  param {
    lr_mult: 2
    decay_mult: 0
  }
  inner_product_param {
    num_output: 1024
    weight_filler {
      type: "xavier"
      std: 0.02
    }
    bias_filler {
      type: "constant"
      value: 0.2
    }
  }
}
layer {
  name: "loss2/relu_fc"
  type: "ReLU"
  bottom: "loss2/fc"
  top: "loss2/fc"
}
layer {
  name: "loss2/drop_fc"
  type: "Dropout"
  bottom: "loss2/fc"
  top: "loss2/fc"
  dropout_param {
    dropout_ratio: 0.7
  }
}
layer {
  name: "loss2/classifier_plantvillage"
  type: "InnerProduct"
  bottom: "loss2/fc"
  top: "loss2/classifier_plantvillage"
  param {
    lr_mult: 1
    decay_mult: 1
  }
  param {
    lr_mult: 2
    decay_mult: 0
  }
  inner_product_param {
    num_output: 38
    weight_filler {
      type: "xavier"
      std: 0.0009765625
    }
    bias_filler {
      type: "constant"
      value: 0
    }
  }
}
layer {
  name: "inception_4e/1x1"
  type: "Convolution"
  bottom: "inception_4d/output"
  top: "inception_4e/1x1"
  param {
    lr_mult: 1
    decay_mult: 1
  }
  param {
    lr_mult: 2
    decay_mult: 0
  }
  convolution_param {
    num_output: 256
    kernel_size: 1
    weight_filler {
      type: "xavier"
      std: 0.03
    }
    bias_filler {
      type: "constant"
      value: 0.2
    }
  }
}
layer {
  name: "inception_4e/relu_1x1"
  type: "ReLU"
  bottom: "inception_4e/1x1"
  top: "inception_4e/1x1"
}
layer {
  name: "inception_4e/3x3_reduce"
  type: "Convolution"
  bottom: "inception_4d/output"
  top: "inception_4e/3x3_reduce"
  param {
    lr_mult: 1
    decay_mult: 1
  }
  param {
    lr_mult: 2
    decay_mult: 0
  }
  convolution_param {
    num_output: 160
    kernel_size: 1
    weight_filler {
      type: "xavier"
      std: 0.09
    }
    bias_filler {
      type: "constant"
      value: 0.2
    }
  }
}
layer {
  name: "inception_4e/relu_3x3_reduce"
  type: "ReLU"
  bottom: "inception_4e/3x3_reduce"
  top: "inception_4e/3x3_reduce"
}
layer {
  name: "inception_4e/3x3"
  type: "Convolution"
  bottom: "inception_4e/3x3_reduce"
  top: "inception_4e/3x3"
  param {
    lr_mult: 1
    decay_mult: 1
  }
  param {
    lr_mult: 2
    decay_mult: 0
  }
  convolution_param {
    num_output: 320
    pad: 1
    kernel_size: 3
    weight_filler {
      type: "xavier"
      std: 0.03
    }
    bias_filler {
      type: "constant"
      value: 0.2
    }
  }
}
layer {
  name: "inception_4e/relu_3x3"
  type: "ReLU"
  bottom: "inception_4e/3x3"
  top: "inception_4e/3x3"
}
layer {
  name: "inception_4e/5x5_reduce"
  type: "Convolution"
  bottom: "inception_4d/output"
  top: "inception_4e/5x5_reduce"
  param {
    lr_mult: 1
    decay_mult: 1
  }
  param {
    lr_mult: 2
    decay_mult: 0
  }
  convolution_param {
    num_output: 32
    kernel_size: 1
    weight_filler {
      type: "xavier"
      std: 0.2
    }
    bias_filler {
      type: "constant"
      value: 0.2
    }
  }
}
layer {
  name: "inception_4e/relu_5x5_reduce"
  type: "ReLU"
  bottom: "inception_4e/5x5_reduce"
  top: "inception_4e/5x5_reduce"
}
layer {
  name: "inception_4e/5x5"
  type: "Convolution"
  bottom: "inception_4e/5x5_reduce"
  top: "inception_4e/
I0403 15:10:42.242347  2769 layer_factory.hpp:77] Creating layer data
I0403 15:10:42.242967  2769 net.cpp:91] Creating Layer data
I0403 15:10:42.242998  2769 net.cpp:399] data -> data
I0403 15:10:42.243052  2769 net.cpp:399] data -> label
I0403 15:10:42.243088  2769 data_transformer.cpp:25] Loading mean file from: /home/mohanty/data/final_dataset/lmdb/grayscale-50-50/mean.binaryproto
I0403 15:10:42.245638  2773 db_lmdb.cpp:38] Opened lmdb /home/mohanty/data/final_dataset/lmdb/grayscale-50-50/test_db
I0403 15:10:42.256252  2769 data_layer.cpp:41] output data size: 24,3,224,224
I0403 15:10:42.283356  2769 net.cpp:141] Setting up data
I0403 15:10:42.283443  2769 net.cpp:148] Top shape: 24 3 224 224 (3612672)
I0403 15:10:42.283466  2769 net.cpp:148] Top shape: 24 (24)
I0403 15:10:42.283483  2769 net.cpp:156] Memory required for data: 14450784
I0403 15:10:42.283509  2769 layer_factory.hpp:77] Creating layer label_data_1_split
I0403 15:10:42.283536  2769 net.cpp:91] Creating Layer label_data_1_split
I0403 15:10:42.283555  2769 net.cpp:425] label_data_1_split <- label
I0403 15:10:42.283587  2769 net.cpp:399] label_data_1_split -> label_data_1_split_0
I0403 15:10:42.283615  2769 net.cpp:399] label_data_1_split -> label_data_1_split_1
I0403 15:10:42.283637  2769 net.cpp:399] label_data_1_split -> label_data_1_split_2
I0403 15:10:42.283658  2769 net.cpp:399] label_data_1_split -> label_data_1_split_3
I0403 15:10:42.283677  2769 net.cpp:399] label_data_1_split -> label_data_1_split_4
I0403 15:10:42.283697  2769 net.cpp:399] label_data_1_split -> label_data_1_split_5
I0403 15:10:42.283718  2769 net.cpp:399] label_data_1_split -> label_data_1_split_6
I0403 15:10:42.283738  2769 net.cpp:399] label_data_1_split -> label_data_1_split_7
I0403 15:10:42.283758  2769 net.cpp:399] label_data_1_split -> label_data_1_split_8
I0403 15:10:42.283778  2769 net.cpp:399] label_data_1_split -> label_data_1_split_9
I0403 15:10:42.283898  2769 net.cpp:141] Setting up label_data_1_split
I0403 15:10:42.283922  2769 net.cpp:148] Top shape: 24 (24)
I0403 15:10:42.283939  2769 net.cpp:148] Top shape: 24 (24)
I0403 15:10:42.283957  2769 net.cpp:148] Top shape: 24 (24)
I0403 15:10:42.283972  2769 net.cpp:148] Top shape: 24 (24)
I0403 15:10:42.283988  2769 net.cpp:148] Top shape: 24 (24)
I0403 15:10:42.284004  2769 net.cpp:148] Top shape: 24 (24)
I0403 15:10:42.284020  2769 net.cpp:148] Top shape: 24 (24)
I0403 15:10:42.284036  2769 net.cpp:148] Top shape: 24 (24)
I0403 15:10:42.284052  2769 net.cpp:148] Top shape: 24 (24)
I0403 15:10:42.284070  2769 net.cpp:148] Top shape: 24 (24)
I0403 15:10:42.284113  2769 net.cpp:156] Memory required for data: 14451744
I0403 15:10:42.284131  2769 layer_factory.hpp:77] Creating layer conv1/7x7_s2
I0403 15:10:42.284162  2769 net.cpp:91] Creating Layer conv1/7x7_s2
I0403 15:10:42.284180  2769 net.cpp:425] conv1/7x7_s2 <- data
I0403 15:10:42.284201  2769 net.cpp:399] conv1/7x7_s2 -> conv1/7x7_s2
I0403 15:10:42.424727  2769 net.cpp:141] Setting up conv1/7x7_s2
I0403 15:10:42.424816  2769 net.cpp:148] Top shape: 24 64 112 112 (19267584)
I0403 15:10:42.424835  2769 net.cpp:156] Memory required for data: 91522080
I0403 15:10:42.424866  2769 layer_factory.hpp:77] Creating layer conv1/relu_7x7
I0403 15:10:42.424895  2769 net.cpp:91] Creating Layer conv1/relu_7x7
I0403 15:10:42.424912  2769 net.cpp:425] conv1/relu_7x7 <- conv1/7x7_s2
I0403 15:10:42.424932  2769 net.cpp:386] conv1/relu_7x7 -> conv1/7x7_s2 (in-place)
I0403 15:10:42.425192  2769 net.cpp:141] Setting up conv1/relu_7x7
I0403 15:10:42.425220  2769 net.cpp:148] Top shape: 24 64 112 112 (19267584)
I0403 15:10:42.425236  2769 net.cpp:156] Memory required for data: 168592416
I0403 15:10:42.425251  2769 layer_factory.hpp:77] Creating layer pool1/3x3_s2
I0403 15:10:42.425282  2769 net.cpp:91] Creating Layer pool1/3x3_s2
I0403 15:10:42.425302  2769 net.cpp:425] pool1/3x3_s2 <- conv1/7x7_s2
I0403 15:10:42.425320  2769 net.cpp:399] pool1/3x3_s2 -> pool1/3x3_s2
I0403 15:10:42.425393  2769 net.cpp:141] Setting up pool1/3x3_s2
I0403 15:10:42.425418  2769 net.cpp:148] Top shape: 24 64 56 56 (4816896)
I0403 15:10:42.425436  2769 net.cpp:156] Memory required for data: 187860000
I0403 15:10:42.425451  2769 layer_factory.hpp:77] Creating layer pool1/norm1
I0403 15:10:42.425475  2769 net.cpp:91] Creating Layer pool1/norm1
I0403 15:10:42.425493  2769 net.cpp:425] pool1/norm1 <- pool1/3x3_s2
I0403 15:10:42.425513  2769 net.cpp:399] pool1/norm1 -> pool1/norm1
I0403 15:10:42.425833  2769 net.cpp:141] Setting up pool1/norm1
I0403 15:10:42.425861  2769 net.cpp:148] Top shape: 24 64 56 56 (4816896)
I0403 15:10:42.425879  2769 net.cpp:156] Memory required for data: 207127584
I0403 15:10:42.425894  2769 layer_factory.hpp:77] Creating layer conv2/3x3_reduce
I0403 15:10:42.425918  2769 net.cpp:91] Creating Layer conv2/3x3_reduce
I0403 15:10:42.425935  2769 net.cpp:425] conv2/3x3_reduce <- pool1/norm1
I0403 15:10:42.425954  2769 net.cpp:399] conv2/3x3_reduce -> conv2/3x3_reduce
I0403 15:10:42.427295  2769 net.cpp:141] Setting up conv2/3x3_reduce
I0403 15:10:42.427366  2769 net.cpp:148] Top shape: 24 64 56 56 (4816896)
I0403 15:10:42.427386  2769 net.cpp:156] Memory required for data: 226395168
I0403 15:10:42.427408  2769 layer_factory.hpp:77] Creating layer conv2/relu_3x3_reduce
I0403 15:10:42.427428  2769 net.cpp:91] Creating Layer conv2/relu_3x3_reduce
I0403 15:10:42.427443  2769 net.cpp:425] conv2/relu_3x3_reduce <- conv2/3x3_reduce
I0403 15:10:42.427461  2769 net.cpp:386] conv2/relu_3x3_reduce -> conv2/3x3_reduce (in-place)
I0403 15:10:42.427718  2769 net.cpp:141] Setting up conv2/relu_3x3_reduce
I0403 15:10:42.427745  2769 net.cpp:148] Top shape: 24 64 56 56 (4816896)
I0403 15:10:42.427762  2769 net.cpp:156] Memory required for data: 245662752
I0403 15:10:42.427778  2769 layer_factory.hpp:77] Creating layer conv2/3x3
I0403 15:10:42.427799  2769 net.cpp:91] Creating Layer conv2/3x3
I0403 15:10:42.427815  2769 net.cpp:425] conv2/3x3 <- conv2/3x3_reduce
I0403 15:10:42.427834  2769 net.cpp:399] conv2/3x3 -> conv2/3x3
I0403 15:10:42.430156  2769 net.cpp:141] Setting up conv2/3x3
I0403 15:10:42.430187  2769 net.cpp:148] Top shape: 24 192 56 56 (14450688)
I0403 15:10:42.430204  2769 net.cpp:156] Memory required for data: 303465504
I0403 15:10:42.430225  2769 layer_factory.hpp:77] Creating layer conv2/relu_3x3
I0403 15:10:42.430245  2769 net.cpp:91] Creating Layer conv2/relu_3x3
I0403 15:10:42.430261  2769 net.cpp:425] conv2/relu_3x3 <- conv2/3x3
I0403 15:10:42.430284  2769 net.cpp:386] conv2/relu_3x3 -> conv2/3x3 (in-place)
I0403 15:10:42.430451  2769 net.cpp:141] Setting up conv2/relu_3x3
I0403 15:10:42.430476  2769 net.cpp:148] Top shape: 24 192 56 56 (14450688)
I0403 15:10:42.430524  2769 net.cpp:156] Memory required for data: 361268256
I0403 15:10:42.430541  2769 layer_factory.hpp:77] Creating layer conv2/norm2
I0403 15:10:42.430559  2769 net.cpp:91] Creating Layer conv2/norm2
I0403 15:10:42.430575  2769 net.cpp:425] conv2/norm2 <- conv2/3x3
I0403 15:10:42.430593  2769 net.cpp:399] conv2/norm2 -> conv2/norm2
I0403 15:10:42.430891  2769 net.cpp:141] Setting up conv2/norm2
I0403 15:10:42.430917  2769 net.cpp:148] Top shape: 24 192 56 56 (14450688)
I0403 15:10:42.430932  2769 net.cpp:156] Memory required for data: 419071008
I0403 15:10:42.430948  2769 layer_factory.hpp:77] Creating layer pool2/3x3_s2
I0403 15:10:42.430966  2769 net.cpp:91] Creating Layer pool2/3x3_s2
I0403 15:10:42.430982  2769 net.cpp:425] pool2/3x3_s2 <- conv2/norm2
I0403 15:10:42.431000  2769 net.cpp:399] pool2/3x3_s2 -> pool2/3x3_s2
I0403 15:10:42.431048  2769 net.cpp:141] Setting up pool2/3x3_s2
I0403 15:10:42.431071  2769 net.cpp:148] Top shape: 24 192 28 28 (3612672)
I0403 15:10:42.431087  2769 net.cpp:156] Memory required for data: 433521696
I0403 15:10:42.431102  2769 layer_factory.hpp:77] Creating layer pool2/3x3_s2_pool2/3x3_s2_0_split
I0403 15:10:42.431118  2769 net.cpp:91] Creating Layer pool2/3x3_s2_pool2/3x3_s2_0_split
I0403 15:10:42.431134  2769 net.cpp:425] pool2/3x3_s2_pool2/3x3_s2_0_split <- pool2/3x3_s2
I0403 15:10:42.431151  2769 net.cpp:399] pool2/3x3_s2_pool2/3x3_s2_0_split -> pool2/3x3_s2_pool2/3x3_s2_0_split_0
I0403 15:10:42.431171  2769 net.cpp:399] pool2/3x3_s2_pool2/3x3_s2_0_split -> pool2/3x3_s2_pool2/3x3_s2_0_split_1
I0403 15:10:42.431191  2769 net.cpp:399] pool2/3x3_s2_pool2/3x3_s2_0_split -> pool2/3x3_s2_pool2/3x3_s2_0_split_2
I0403 15:10:42.431211  2769 net.cpp:399] pool2/3x3_s2_pool2/3x3_s2_0_split -> pool2/3x3_s2_pool2/3x3_s2_0_split_3
I0403 15:10:42.431280  2769 net.cpp:141] Setting up pool2/3x3_s2_pool2/3x3_s2_0_split
I0403 15:10:42.431303  2769 net.cpp:148] Top shape: 24 192 28 28 (3612672)
I0403 15:10:42.431320  2769 net.cpp:148] Top shape: 24 192 28 28 (3612672)
I0403 15:10:42.431335  2769 net.cpp:148] Top shape: 24 192 28 28 (3612672)
I0403 15:10:42.431352  2769 net.cpp:148] Top shape: 24 192 28 28 (3612672)
I0403 15:10:42.431366  2769 net.cpp:156] Memory required for data: 491324448
I0403 15:10:42.431380  2769 layer_factory.hpp:77] Creating layer inception_3a/1x1
I0403 15:10:42.431401  2769 net.cpp:91] Creating Layer inception_3a/1x1
I0403 15:10:42.431417  2769 net.cpp:425] inception_3a/1x1 <- pool2/3x3_s2_pool2/3x3_s2_0_split_0
I0403 15:10:42.431437  2769 net.cpp:399] inception_3a/1x1 -> inception_3a/1x1
I0403 15:10:42.432904  2769 net.cpp:141] Setting up inception_3a/1x1
I0403 15:10:42.432934  2769 net.cpp:148] Top shape: 24 64 28 28 (1204224)
I0403 15:10:42.432950  2769 net.cpp:156] Memory required for data: 496141344
I0403 15:10:42.432970  2769 layer_factory.hpp:77] Creating layer inception_3a/relu_1x1
I0403 15:10:42.432988  2769 net.cpp:91] Creating Layer inception_3a/relu_1x1
I0403 15:10:42.433004  2769 net.cpp:425] inception_3a/relu_1x1 <- inception_3a/1x1
I0403 15:10:42.433022  2769 net.cpp:386] inception_3a/relu_1x1 -> inception_3a/1x1 (in-place)
I0403 15:10:42.433184  2769 net.cpp:141] Setting up inception_3a/relu_1x1
I0403 15:10:42.433209  2769 net.cpp:148] Top shape: 24 64 28 28 (1204224)
I0403 15:10:42.433225  2769 net.cpp:156] Memory required for data: 500958240
I0403 15:10:42.433241  2769 layer_factory.hpp:77] Creating layer inception_3a/3x3_reduce
I0403 15:10:42.433261  2769 net.cpp:91] Creating Layer inception_3a/3x3_reduce
I0403 15:10:42.433291  2769 net.cpp:425] inception_3a/3x3_reduce <- pool2/3x3_s2_pool2/3x3_s2_0_split_1
I0403 15:10:42.433312  2769 net.cpp:399] inception_3a/3x3_reduce -> inception_3a/3x3_reduce
I0403 15:10:42.434998  2769 net.cpp:141] Setting up inception_3a/3x3_reduce
I0403 15:10:42.435029  2769 net.cpp:148] Top shape: 24 96 28 28 (1806336)
I0403 15:10:42.435045  2769 net.cpp:156] Memory required for data: 508183584
I0403 15:10:42.435070  2769 layer_factory.hpp:77] Creating layer inception_3a/relu_3x3_reduce
I0403 15:10:42.435106  2769 net.cpp:91] Creating Layer inception_3a/relu_3x3_reduce
I0403 15:10:42.435122  2769 net.cpp:425] inception_3a/relu_3x3_reduce <- inception_3a/3x3_reduce
I0403 15:10:42.435143  2769 net.cpp:386] inception_3a/relu_3x3_reduce -> inception_3a/3x3_reduce (in-place)
I0403 15:10:42.435336  2769 net.cpp:141] Setting up inception_3a/relu_3x3_reduce
I0403 15:10:42.435362  2769 net.cpp:148] Top shape: 24 96 28 28 (1806336)
I0403 15:10:42.435377  2769 net.cpp:156] Memory required for data: 515408928
I0403 15:10:42.435392  2769 layer_factory.hpp:77] Creating layer inception_3a/3x3
I0403 15:10:42.435415  2769 net.cpp:91] Creating Layer inception_3a/3x3
I0403 15:10:42.435434  2769 net.cpp:425] inception_3a/3x3 <- inception_3a/3x3_reduce
I0403 15:10:42.435456  2769 net.cpp:399] inception_3a/3x3 -> inception_3a/3x3
I0403 15:10:42.437183  2769 net.cpp:141] Setting up inception_3a/3x3
I0403 15:10:42.437216  2769 net.cpp:148] Top shape: 24 128 28 28 (2408448)
I0403 15:10:42.437232  2769 net.cpp:156] Memory required for data: 525042720
I0403 15:10:42.437252  2769 layer_factory.hpp:77] Creating layer inception_3a/relu_3x3
I0403 15:10:42.437274  2769 net.cpp:91] Creating Layer inception_3a/relu_3x3
I0403 15:10:42.437293  2769 net.cpp:425] inception_3a/relu_3x3 <- inception_3a/3x3
I0403 15:10:42.437314  2769 net.cpp:386] inception_3a/relu_3x3 -> inception_3a/3x3 (in-place)
I0403 15:10:42.437602  2769 net.cpp:141] Setting up inception_3a/relu_3x3
I0403 15:10:42.437631  2769 net.cpp:148] Top shape: 24 128 28 28 (2408448)
I0403 15:10:42.437647  2769 net.cpp:156] Memory required for data: 534676512
I0403 15:10:42.437675  2769 layer_factory.hpp:77] Creating layer inception_3a/5x5_reduce
I0403 15:10:42.437697  2769 net.cpp:91] Creating Layer inception_3a/5x5_reduce
I0403 15:10:42.437714  2769 net.cpp:425] inception_3a/5x5_reduce <- pool2/3x3_s2_pool2/3x3_s2_0_split_2
I0403 15:10:42.437733  2769 net.cpp:399] inception_3a/5x5_reduce -> inception_3a/5x5_reduce
I0403 15:10:42.438709  2769 net.cpp:141] Setting up inception_3a/5x5_reduce
I0403 15:10:42.438738  2769 net.cpp:148] Top shape: 24 16 28 28 (301056)
I0403 15:10:42.438755  2769 net.cpp:156] Memory required for data: 535880736
I0403 15:10:42.438774  2769 layer_factory.hpp:77] Creating layer inception_3a/relu_5x5_reduce
I0403 15:10:42.438793  2769 net.cpp:91] Creating Layer inception_3a/relu_5x5_reduce
I0403 15:10:42.438809  2769 net.cpp:425] inception_3a/relu_5x5_reduce <- inception_3a/5x5_reduce
I0403 15:10:42.438830  2769 net.cpp:386] inception_3a/relu_5x5_reduce -> inception_3a/5x5_reduce (in-place)
I0403 15:10:42.439132  2769 net.cpp:141] Setting up inception_3a/relu_5x5_reduce
I0403 15:10:42.439158  2769 net.cpp:148] Top shape: 24 16 28 28 (301056)
I0403 15:10:42.439174  2769 net.cpp:156] Memory required for data: 537084960
I0403 15:10:42.439188  2769 layer_factory.hpp:77] Creating layer inception_3a/5x5
I0403 15:10:42.439211  2769 net.cpp:91] Creating Layer inception_3a/5x5
I0403 15:10:42.439229  2769 net.cpp:425] inception_3a/5x5 <- inception_3a/5x5_reduce
I0403 15:10:42.439251  2769 net.cpp:399] inception_3a/5x5 -> inception_3a/5x5
I0403 15:10:42.440300  2769 net.cpp:141] Setting up inception_3a/5x5
I0403 15:10:42.440330  2769 net.cpp:148] Top shape: 24 32 28 28 (602112)
I0403 15:10:42.440354  2769 net.cpp:156] Memory required for data: 539493408
I0403 15:10:42.440373  2769 layer_factory.hpp:77] Creating layer inception_3a/relu_5x5
I0403 15:10:42.440394  2769 net.cpp:91] Creating Layer inception_3a/relu_5x5
I0403 15:10:42.440412  2769 net.cpp:425] inception_3a/relu_5x5 <- inception_3a/5x5
I0403 15:10:42.440431  2769 net.cpp:386] inception_3a/relu_5x5 -> inception_3a/5x5 (in-place)
I0403 15:10:42.440629  2769 net.cpp:141] Setting up inception_3a/relu_5x5
I0403 15:10:42.440654  2769 net.cpp:148] Top shape: 24 32 28 28 (602112)
I0403 15:10:42.440670  2769 net.cpp:156] Memory required for data: 541901856
I0403 15:10:42.440685  2769 layer_factory.hpp:77] Creating layer inception_3a/pool
I0403 15:10:42.440703  2769 net.cpp:91] Creating Layer inception_3a/pool
I0403 15:10:42.440735  2769 net.cpp:425] inception_3a/pool <- pool2/3x3_s2_pool2/3x3_s2_0_split_3
I0403 15:10:42.440758  2769 net.cpp:399] inception_3a/pool -> inception_3a/pool
I0403 15:10:42.440819  2769 net.cpp:141] Setting up inception_3a/pool
I0403 15:10:42.440843  2769 net.cpp:148] Top shape: 24 192 28 28 (3612672)
I0403 15:10:42.440860  2769 net.cpp:156] Memory required for data: 556352544
I0403 15:10:42.440874  2769 layer_factory.hpp:77] Creating layer inception_3a/pool_proj
I0403 15:10:42.440899  2769 net.cpp:91] Creating Layer inception_3a/pool_proj
I0403 15:10:42.440917  2769 net.cpp:425] inception_3a/pool_proj <- inception_3a/pool
I0403 15:10:42.440937  2769 net.cpp:399] inception_3a/pool_proj -> inception_3a/pool_proj
I0403 15:10:42.441951  2769 net.cpp:141] Setting up inception_3a/pool_proj
I0403 15:10:42.441980  2769 net.cpp:148] Top shape: 24 32 28 28 (602112)
I0403 15:10:42.441997  2769 net.cpp:156] Memory required for data: 558760992
I0403 15:10:42.442021  2769 layer_factory.hpp:77] Creating layer inception_3a/relu_pool_proj
I0403 15:10:42.442042  2769 net.cpp:91] Creating Layer inception_3a/relu_pool_proj
I0403 15:10:42.442059  2769 net.cpp:425] inception_3a/relu_pool_proj <- inception_3a/pool_proj
I0403 15:10:42.442080  2769 net.cpp:386] inception_3a/relu_pool_proj -> inception_3a/pool_proj (in-place)
I0403 15:10:42.442373  2769 net.cpp:141] Setting up inception_3a/relu_pool_proj
I0403 15:10:42.442402  2769 net.cpp:148] Top shape: 24 32 28 28 (602112)
I0403 15:10:42.442420  2769 net.cpp:156] Memory required for data: 561169440
I0403 15:10:42.442436  2769 layer_factory.hpp:77] Creating layer inception_3a/output
I0403 15:10:42.442456  2769 net.cpp:91] Creating Layer inception_3a/output
I0403 15:10:42.442471  2769 net.cpp:425] inception_3a/output <- inception_3a/1x1
I0403 15:10:42.442488  2769 net.cpp:425] inception_3a/output <- inception_3a/3x3
I0403 15:10:42.442504  2769 net.cpp:425] inception_3a/output <- inception_3a/5x5
I0403 15:10:42.442522  2769 net.cpp:425] inception_3a/output <- inception_3a/pool_proj
I0403 15:10:42.442538  2769 net.cpp:399] inception_3a/output -> inception_3a/output
I0403 15:10:42.442587  2769 net.cpp:141] Setting up inception_3a/output
I0403 15:10:42.442611  2769 net.cpp:148] Top shape: 24 256 28 28 (4816896)
I0403 15:10:42.442626  2769 net.cpp:156] Memory required for data: 580437024
I0403 15:10:42.442641  2769 layer_factory.hpp:77] Creating layer inception_3a/output_inception_3a/output_0_split
I0403 15:10:42.442659  2769 net.cpp:91] Creating Layer inception_3a/output_inception_3a/output_0_split
I0403 15:10:42.442675  2769 net.cpp:425] inception_3a/output_inception_3a/output_0_split <- inception_3a/output
I0403 15:10:42.442698  2769 net.cpp:399] inception_3a/output_inception_3a/output_0_split -> inception_3a/output_inception_3a/output_0_split_0
I0403 15:10:42.442719  2769 net.cpp:399] inception_3a/output_inception_3a/output_0_split -> inception_3a/output_inception_3a/output_0_split_1
I0403 15:10:42.442745  2769 net.cpp:399] inception_3a/output_inception_3a/output_0_split -> inception_3a/output_inception_3a/output_0_split_2
I0403 15:10:42.442769  2769 net.cpp:399] inception_3a/output_inception_3a/output_0_split -> inception_3a/output_inception_3a/output_0_split_3
I0403 15:10:42.442844  2769 net.cpp:141] Setting up inception_3a/output_inception_3a/output_0_split
I0403 15:10:42.442867  2769 net.cpp:148] Top shape: 24 256 28 28 (4816896)
I0403 15:10:42.442888  2769 net.cpp:148] Top shape: 24 256 28 28 (4816896)
I0403 15:10:42.442904  2769 net.cpp:148] Top shape: 24 256 28 28 (4816896)
I0403 15:10:42.442920  2769 net.cpp:148] Top shape: 24 256 28 28 (4816896)
I0403 15:10:42.442934  2769 net.cpp:156] Memory required for data: 657507360
I0403 15:10:42.442950  2769 layer_factory.hpp:77] Creating layer inception_3b/1x1
I0403 15:10:42.442970  2769 net.cpp:91] Creating Layer inception_3b/1x1
I0403 15:10:42.442987  2769 net.cpp:425] inception_3b/1x1 <- inception_3a/output_inception_3a/output_0_split_0
I0403 15:10:42.443009  2769 net.cpp:399] inception_3b/1x1 -> inception_3b/1x1
I0403 15:10:42.444223  2769 net.cpp:141] Setting up inception_3b/1x1
I0403 15:10:42.444265  2769 net.cpp:148] Top shape: 24 128 28 28 (2408448)
I0403 15:10:42.444288  2769 net.cpp:156] Memory required for data: 667141152
I0403 15:10:42.444308  2769 layer_factory.hpp:77] Creating layer inception_3b/relu_1x1
I0403 15:10:42.444330  2769 net.cpp:91] Creating Layer inception_3b/relu_1x1
I0403 15:10:42.444349  2769 net.cpp:425] inception_3b/relu_1x1 <- inception_3b/1x1
I0403 15:10:42.444366  2769 net.cpp:386] inception_3b/relu_1x1 -> inception_3b/1x1 (in-place)
I0403 15:10:42.444552  2769 net.cpp:141] Setting up inception_3b/relu_1x1
I0403 15:10:42.444581  2769 net.cpp:148] Top shape: 24 128 28 28 (2408448)
I0403 15:10:42.444597  2769 net.cpp:156] Memory required for data: 676774944
I0403 15:10:42.444612  2769 layer_factory.hpp:77] Creating layer inception_3b/3x3_reduce
I0403 15:10:42.444636  2769 net.cpp:91] Creating Layer inception_3b/3x3_reduce
I0403 15:10:42.444654  2769 net.cpp:425] inception_3b/3x3_reduce <- inception_3a/output_inception_3a/output_0_split_1
I0403 15:10:42.444674  2769 net.cpp:399] inception_3b/3x3_reduce -> inception_3b/3x3_reduce
I0403 15:10:42.445874  2769 net.cpp:141] Setting up inception_3b/3x3_reduce
I0403 15:10:42.445904  2769 net.cpp:148] Top shape: 24 128 28 28 (2408448)
I0403 15:10:42.445920  2769 net.cpp:156] Memory required for data: 686408736
I0403 15:10:42.445940  2769 layer_factory.hpp:77] Creating layer inception_3b/relu_3x3_reduce
I0403 15:10:42.445961  2769 net.cpp:91] Creating Layer inception_3b/relu_3x3_reduce
I0403 15:10:42.445978  2769 net.cpp:425] inception_3b/relu_3x3_reduce <- inception_3b/3x3_reduce
I0403 15:10:42.445996  2769 net.cpp:386] inception_3b/relu_3x3_reduce -> inception_3b/3x3_reduce (in-place)
I0403 15:10:42.446178  2769 net.cpp:141] Setting up inception_3b/relu_3x3_reduce
I0403 15:10:42.446208  2769 net.cpp:148] Top shape: 24 128 28 28 (2408448)
I0403 15:10:42.446223  2769 net.cpp:156] Memory required for data: 696042528
I0403 15:10:42.446239  2769 layer_factory.hpp:77] Creating layer inception_3b/3x3
I0403 15:10:42.446264  2769 net.cpp:91] Creating Layer inception_3b/3x3
I0403 15:10:42.446288  2769 net.cpp:425] inception_3b/3x3 <- inception_3b/3x3_reduce
I0403 15:10:42.446312  2769 net.cpp:399] inception_3b/3x3 -> inception_3b/3x3
I0403 15:10:42.449290  2769 net.cpp:141] Setting up inception_3b/3x3
I0403 15:10:42.449321  2769 net.cpp:148] Top shape: 24 192 28 28 (3612672)
I0403 15:10:42.449338  2769 net.cpp:156] Memory required for data: 710493216
I0403 15:10:42.449357  2769 layer_factory.hpp:77] Creating layer inception_3b/relu_3x3
I0403 15:10:42.449375  2769 net.cpp:91] Creating Layer inception_3b/relu_3x3
I0403 15:10:42.449393  2769 net.cpp:425] inception_3b/relu_3x3 <- inception_3b/3x3
I0403 15:10:42.449411  2769 net.cpp:386] inception_3b/relu_3x3 -> inception_3b/3x3 (in-place)
I0403 15:10:42.449692  2769 net.cpp:141] Setting up inception_3b/relu_3x3
I0403 15:10:42.449723  2769 net.cpp:148] Top shape: 24 192 28 28 (3612672)
I0403 15:10:42.449738  2769 net.cpp:156] Memory required for data: 724943904
I0403 15:10:42.449753  2769 layer_factory.hpp:77] Creating layer inception_3b/5x5_reduce
I0403 15:10:42.449776  2769 net.cpp:91] Creating Layer inception_3b/5x5_reduce
I0403 15:10:42.449793  2769 net.cpp:425] inception_3b/5x5_reduce <- inception_3a/output_inception_3a/output_0_split_2
I0403 15:10:42.449812  2769 net.cpp:399] inception_3b/5x5_reduce -> inception_3b/5x5_reduce
I0403 15:10:42.450841  2769 net.cpp:141] Setting up inception_3b/5x5_reduce
I0403 15:10:42.450870  2769 net.cpp:148] Top shape: 24 32 28 28 (602112)
I0403 15:10:42.450887  2769 net.cpp:156] Memory required for data: 727352352
I0403 15:10:42.450917  2769 layer_factory.hpp:77] Creating layer inception_3b/relu_5x5_reduce
I0403 15:10:42.450938  2769 net.cpp:91] Creating Layer inception_3b/relu_5x5_reduce
I0403 15:10:42.450955  2769 net.cpp:425] inception_3b/relu_5x5_reduce <- inception_3b/5x5_reduce
I0403 15:10:42.450973  2769 net.cpp:386] inception_3b/relu_5x5_reduce -> inception_3b/5x5_reduce (in-place)
I0403 15:10:42.451165  2769 net.cpp:141] Setting up inception_3b/relu_5x5_reduce
I0403 15:10:42.451190  2769 net.cpp:148] Top shape: 24 32 28 28 (602112)
I0403 15:10:42.451205  2769 net.cpp:156] Memory required for data: 729760800
I0403 15:10:42.451220  2769 layer_factory.hpp:77] Creating layer inception_3b/5x5
I0403 15:10:42.451242  2769 net.cpp:91] Creating Layer inception_3b/5x5
I0403 15:10:42.451261  2769 net.cpp:425] inception_3b/5x5 <- inception_3b/5x5_reduce
I0403 15:10:42.451287  2769 net.cpp:399] inception_3b/5x5 -> inception_3b/5x5
I0403 15:10:42.453351  2769 net.cpp:141] Setting up inception_3b/5x5
I0403 15:10:42.453382  2769 net.cpp:148] Top shape: 24 96 28 28 (1806336)
I0403 15:10:42.453398  2769 net.cpp:156] Memory required for data: 736986144
I0403 15:10:42.453418  2769 layer_factory.hpp:77] Creating layer inception_3b/relu_5x5
I0403 15:10:42.453441  2769 net.cpp:91] Creating Layer inception_3b/relu_5x5
I0403 15:10:42.453459  2769 net.cpp:425] inception_3b/relu_5x5 <- inception_3b/5x5
I0403 15:10:42.453477  2769 net.cpp:386] inception_3b/relu_5x5 -> inception_3b/5x5 (in-place)
I0403 15:10:42.453680  2769 net.cpp:141] Setting up inception_3b/relu_5x5
I0403 15:10:42.453706  2769 net.cpp:148] Top shape: 24 96 28 28 (1806336)
I0403 15:10:42.453722  2769 net.cpp:156] Memory required for data: 744211488
I0403 15:10:42.453737  2769 layer_factory.hpp:77] Creating layer inception_3b/pool
I0403 15:10:42.453754  2769 net.cpp:91] Creating Layer inception_3b/pool
I0403 15:10:42.453770  2769 net.cpp:425] inception_3b/pool <- inception_3a/output_inception_3a/output_0_split_3
I0403 15:10:42.453789  2769 net.cpp:399] inception_3b/pool -> inception_3b/pool
I0403 15:10:42.453847  2769 net.cpp:141] Setting up inception_3b/pool
I0403 15:10:42.453871  2769 net.cpp:148] Top shape: 24 256 28 28 (4816896)
I0403 15:10:42.453886  2769 net.cpp:156] Memory required for data: 763479072
I0403 15:10:42.453902  2769 layer_factory.hpp:77] Creating layer inception_3b/pool_proj
I0403 15:10:42.453924  2769 net.cpp:91] Creating Layer inception_3b/pool_proj
I0403 15:10:42.453943  2769 net.cpp:425] inception_3b/pool_proj <- inception_3b/pool
I0403 15:10:42.453964  2769 net.cpp:399] inception_3b/pool_proj -> inception_3b/pool_proj
I0403 15:10:42.455075  2769 net.cpp:141] Setting up inception_3b/pool_proj
I0403 15:10:42.455104  2769 net.cpp:148] Top shape: 24 64 28 28 (1204224)
I0403 15:10:42.455121  2769 net.cpp:156] Memory required for data: 768295968
I0403 15:10:42.455140  2769 layer_factory.hpp:77] Creating layer inception_3b/relu_pool_proj
I0403 15:10:42.455159  2769 net.cpp:91] Creating Layer inception_3b/relu_pool_proj
I0403 15:10:42.455175  2769 net.cpp:425] inception_3b/relu_pool_proj <- inception_3b/pool_proj
I0403 15:10:42.455198  2769 net.cpp:386] inception_3b/relu_pool_proj -> inception_3b/pool_proj (in-place)
I0403 15:10:42.455620  2769 net.cpp:141] Setting up inception_3b/relu_pool_proj
I0403 15:10:42.455651  2769 net.cpp:148] Top shape: 24 64 28 28 (1204224)
I0403 15:10:42.455667  2769 net.cpp:156] Memory required for data: 773112864
I0403 15:10:42.455682  2769 layer_factory.hpp:77] Creating layer inception_3b/output
I0403 15:10:42.455700  2769 net.cpp:91] Creating Layer inception_3b/output
I0403 15:10:42.455716  2769 net.cpp:425] inception_3b/output <- inception_3b/1x1
I0403 15:10:42.455734  2769 net.cpp:425] inception_3b/output <- inception_3b/3x3
I0403 15:10:42.455751  2769 net.cpp:425] inception_3b/output <- inception_3b/5x5
I0403 15:10:42.455767  2769 net.cpp:425] inception_3b/output <- inception_3b/pool_proj
I0403 15:10:42.455787  2769 net.cpp:399] inception_3b/output -> inception_3b/output
I0403 15:10:42.455834  2769 net.cpp:141] Setting up inception_3b/output
I0403 15:10:42.455857  2769 net.cpp:148] Top shape: 24 480 28 28 (9031680)
I0403 15:10:42.455873  2769 net.cpp:156] Memory required for data: 809239584
I0403 15:10:42.455888  2769 layer_factory.hpp:77] Creating layer pool3/3x3_s2
I0403 15:10:42.455909  2769 net.cpp:91] Creating Layer pool3/3x3_s2
I0403 15:10:42.455924  2769 net.cpp:425] pool3/3x3_s2 <- inception_3b/output
I0403 15:10:42.455960  2769 net.cpp:399] pool3/3x3_s2 -> pool3/3x3_s2
I0403 15:10:42.456022  2769 net.cpp:141] Setting up pool3/3x3_s2
I0403 15:10:42.456046  2769 net.cpp:148] Top shape: 24 480 14 14 (2257920)
I0403 15:10:42.456063  2769 net.cpp:156] Memory required for data: 818271264
I0403 15:10:42.456076  2769 layer_factory.hpp:77] Creating layer pool3/3x3_s2_pool3/3x3_s2_0_split
I0403 15:10:42.456094  2769 net.cpp:91] Creating Layer pool3/3x3_s2_pool3/3x3_s2_0_split
I0403 15:10:42.456110  2769 net.cpp:425] pool3/3x3_s2_pool3/3x3_s2_0_split <- pool3/3x3_s2
I0403 15:10:42.456131  2769 net.cpp:399] pool3/3x3_s2_pool3/3x3_s2_0_split -> pool3/3x3_s2_pool3/3x3_s2_0_split_0
I0403 15:10:42.456152  2769 net.cpp:399] pool3/3x3_s2_pool3/3x3_s2_0_split -> pool3/3x3_s2_pool3/3x3_s2_0_split_1
I0403 15:10:42.456172  2769 net.cpp:399] pool3/3x3_s2_pool3/3x3_s2_0_split -> pool3/3x3_s2_pool3/3x3_s2_0_split_2
I0403 15:10:42.456193  2769 net.cpp:399] pool3/3x3_s2_pool3/3x3_s2_0_split -> pool3/3x3_s2_pool3/3x3_s2_0_split_3
I0403 15:10:42.456277  2769 net.cpp:141] Setting up pool3/3x3_s2_pool3/3x3_s2_0_split
I0403 15:10:42.456302  2769 net.cpp:148] Top shape: 24 480 14 14 (2257920)
I0403 15:10:42.456320  2769 net.cpp:148] Top shape: 24 480 14 14 (2257920)
I0403 15:10:42.456336  2769 net.cpp:148] Top shape: 24 480 14 14 (2257920)
I0403 15:10:42.456351  2769 net.cpp:148] Top shape: 24 480 14 14 (2257920)
I0403 15:10:42.456367  2769 net.cpp:156] Memory required for data: 854397984
I0403 15:10:42.456382  2769 layer_factory.hpp:77] Creating layer inception_4a/1x1
I0403 15:10:42.456404  2769 net.cpp:91] Creating Layer inception_4a/1x1
I0403 15:10:42.456423  2769 net.cpp:425] inception_4a/1x1 <- pool3/3x3_s2_pool3/3x3_s2_0_split_0
I0403 15:10:42.456446  2769 net.cpp:399] inception_4a/1x1 -> inception_4a/1x1
I0403 15:10:42.458104  2769 net.cpp:141] Setting up inception_4a/1x1
I0403 15:10:42.458133  2769 net.cpp:148] Top shape: 24 192 14 14 (903168)
I0403 15:10:42.458149  2769 net.cpp:156] Memory required for data: 858010656
I0403 15:10:42.458168  2769 layer_factory.hpp:77] Creating layer inception_4a/relu_1x1
I0403 15:10:42.458187  2769 net.cpp:91] Creating Layer inception_4a/relu_1x1
I0403 15:10:42.458204  2769 net.cpp:425] inception_4a/relu_1x1 <- inception_4a/1x1
I0403 15:10:42.458225  2769 net.cpp:386] inception_4a/relu_1x1 -> inception_4a/1x1 (in-place)
I0403 15:10:42.458417  2769 net.cpp:141] Setting up inception_4a/relu_1x1
I0403 15:10:42.458446  2769 net.cpp:148] Top shape: 24 192 14 14 (903168)
I0403 15:10:42.458461  2769 net.cpp:156] Memory required for data: 861623328
I0403 15:10:42.458477  2769 layer_factory.hpp:77] Creating layer inception_4a/3x3_reduce
I0403 15:10:42.458499  2769 net.cpp:91] Creating Layer inception_4a/3x3_reduce
I0403 15:10:42.458518  2769 net.cpp:425] inception_4a/3x3_reduce <- pool3/3x3_s2_pool3/3x3_s2_0_split_1
I0403 15:10:42.458540  2769 net.cpp:399] inception_4a/3x3_reduce -> inception_4a/3x3_reduce
I0403 15:10:42.459890  2769 net.cpp:141] Setting up inception_4a/3x3_reduce
I0403 15:10:42.459918  2769 net.cpp:148] Top shape: 24 96 14 14 (451584)
I0403 15:10:42.459934  2769 net.cpp:156] Memory required for data: 863429664
I0403 15:10:42.459960  2769 layer_factory.hpp:77] Creating layer inception_4a/relu_3x3_reduce
I0403 15:10:42.459981  2769 net.cpp:91] Creating Layer inception_4a/relu_3x3_reduce
I0403 15:10:42.459997  2769 net.cpp:425] inception_4a/relu_3x3_reduce <- inception_4a/3x3_reduce
I0403 15:10:42.460017  2769 net.cpp:386] inception_4a/relu_3x3_reduce -> inception_4a/3x3_reduce (in-place)
I0403 15:10:42.460198  2769 net.cpp:141] Setting up inception_4a/relu_3x3_reduce
I0403 15:10:42.460223  2769 net.cpp:148] Top shape: 24 96 14 14 (451584)
I0403 15:10:42.460238  2769 net.cpp:156] Memory required for data: 865236000
I0403 15:10:42.460253  2769 layer_factory.hpp:77] Creating layer inception_4a/3x3
I0403 15:10:42.460280  2769 net.cpp:91] Creating Layer inception_4a/3x3
I0403 15:10:42.460299  2769 net.cpp:425] inception_4a/3x3 <- inception_4a/3x3_reduce
I0403 15:10:42.460321  2769 net.cpp:399] inception_4a/3x3 -> inception_4a/3x3
I0403 15:10:42.463042  2769 net.cpp:141] Setting up inception_4a/3x3
I0403 15:10:42.463070  2769 net.cpp:148] Top shape: 24 208 14 14 (978432)
I0403 15:10:42.463086  2769 net.cpp:156] Memory required for data: 869149728
I0403 15:10:42.463105  2769 layer_factory.hpp:77] Creating layer inception_4a/relu_3x3
I0403 15:10:42.463125  2769 net.cpp:91] Creating Layer inception_4a/relu_3x3
I0403 15:10:42.463142  2769 net.cpp:425] inception_4a/relu_3x3 <- inception_4a/3x3
I0403 15:10:42.463160  2769 net.cpp:386] inception_4a/relu_3x3 -> inception_4a/3x3 (in-place)
I0403 15:10:42.463456  2769 net.cpp:141] Setting up inception_4a/relu_3x3
I0403 15:10:42.463484  2769 net.cpp:148] Top shape: 24 208 14 14 (978432)
I0403 15:10:42.463498  2769 net.cpp:156] Memory required for data: 873063456
I0403 15:10:42.463513  2769 layer_factory.hpp:77] Creating layer inception_4a/5x5_reduce
I0403 15:10:42.463536  2769 net.cpp:91] Creating Layer inception_4a/5x5_reduce
I0403 15:10:42.463554  2769 net.cpp:425] inception_4a/5x5_reduce <- pool3/3x3_s2_pool3/3x3_s2_0_split_2
I0403 15:10:42.463577  2769 net.cpp:399] inception_4a/5x5_reduce -> inception_4a/5x5_reduce
I0403 15:10:42.464617  2769 net.cpp:141] Setting up inception_4a/5x5_reduce
I0403 15:10:42.464644  2769 net.cpp:148] Top shape: 24 16 14 14 (75264)
I0403 15:10:42.464660  2769 net.cpp:156] Memory required for data: 873364512
I0403 15:10:42.464679  2769 layer_factory.hpp:77] Creating layer inception_4a/relu_5x5_reduce
I0403 15:10:42.464699  2769 net.cpp:91] Creating Layer inception_4a/relu_5x5_reduce
I0403 15:10:42.464716  2769 net.cpp:425] inception_4a/relu_5x5_reduce <- inception_4a/5x5_reduce
I0403 15:10:42.464733  2769 net.cpp:386] inception_4a/relu_5x5_reduce -> inception_4a/5x5_reduce (in-place)
I0403 15:10:42.464916  2769 net.cpp:141] Setting up inception_4a/relu_5x5_reduce
I0403 15:10:42.464941  2769 net.cpp:148] Top shape: 24 16 14 14 (75264)
I0403 15:10:42.464956  2769 net.cpp:156] Memory required for data: 873665568
I0403 15:10:42.464972  2769 layer_factory.hpp:77] Creating layer inception_4a/5x5
I0403 15:10:42.464993  2769 net.cpp:91] Creating Layer inception_4a/5x5
I0403 15:10:42.465011  2769 net.cpp:425] inception_4a/5x5 <- inception_4a/5x5_reduce
I0403 15:10:42.465034  2769 net.cpp:399] inception_4a/5x5 -> inception_4a/5x5
I0403 15:10:42.466143  2769 net.cpp:141] Setting up inception_4a/5x5
I0403 15:10:42.466174  2769 net.cpp:148] Top shape: 24 48 14 14 (225792)
I0403 15:10:42.466190  2769 net.cpp:156] Memory required for data: 874568736
I0403 15:10:42.466209  2769 layer_factory.hpp:77] Creating layer inception_4a/relu_5x5
I0403 15:10:42.466228  2769 net.cpp:91] Creating Layer inception_4a/relu_5x5
I0403 15:10:42.466243  2769 net.cpp:425] inception_4a/relu_5x5 <- inception_4a/5x5
I0403 15:10:42.466264  2769 net.cpp:386] inception_4a/relu_5x5 -> inception_4a/5x5 (in-place)
I0403 15:10:42.466452  2769 net.cpp:141] Setting up inception_4a/relu_5x5
I0403 15:10:42.466477  2769 net.cpp:148] Top shape: 24 48 14 14 (225792)
I0403 15:10:42.466492  2769 net.cpp:156] Memory required for data: 875471904
I0403 15:10:42.466508  2769 layer_factory.hpp:77] Creating layer inception_4a/pool
I0403 15:10:42.466526  2769 net.cpp:91] Creating Layer inception_4a/pool
I0403 15:10:42.466542  2769 net.cpp:425] inception_4a/pool <- pool3/3x3_s2_pool3/3x3_s2_0_split_3
I0403 15:10:42.466562  2769 net.cpp:399] inception_4a/pool -> inception_4a/pool
I0403 15:10:42.466626  2769 net.cpp:141] Setting up inception_4a/pool
I0403 15:10:42.466650  2769 net.cpp:148] Top shape: 24 480 14 14 (2257920)
I0403 15:10:42.466665  2769 net.cpp:156] Memory required for data: 884503584
I0403 15:10:42.466680  2769 layer_factory.hpp:77] Creating layer inception_4a/pool_proj
I0403 15:10:42.466701  2769 net.cpp:91] Creating Layer inception_4a/pool_proj
I0403 15:10:42.466719  2769 net.cpp:425] inception_4a/pool_proj <- inception_4a/pool
I0403 15:10:42.466739  2769 net.cpp:399] inception_4a/pool_proj -> inception_4a/pool_proj
I0403 15:10:42.467931  2769 net.cpp:141] Setting up inception_4a/pool_proj
I0403 15:10:42.467960  2769 net.cpp:148] Top shape: 24 64 14 14 (301056)
I0403 15:10:42.467990  2769 net.cpp:156] Memory required for data: 885707808
I0403 15:10:42.468010  2769 layer_factory.hpp:77] Creating layer inception_4a/relu_pool_proj
I0403 15:10:42.468031  2769 net.cpp:91] Creating Layer inception_4a/relu_pool_proj
I0403 15:10:42.468049  2769 net.cpp:425] inception_4a/relu_pool_proj <- inception_4a/pool_proj
I0403 15:10:42.468066  2769 net.cpp:386] inception_4a/relu_pool_proj -> inception_4a/pool_proj (in-place)
I0403 15:10:42.468358  2769 net.cpp:141] Setting up inception_4a/relu_pool_proj
I0403 15:10:42.468385  2769 net.cpp:148] Top shape: 24 64 14 14 (301056)
I0403 15:10:42.468400  2769 net.cpp:156] Memory required for data: 886912032
I0403 15:10:42.468415  2769 layer_factory.hpp:77] Creating layer inception_4a/output
I0403 15:10:42.468435  2769 net.cpp:91] Creating Layer inception_4a/output
I0403 15:10:42.468449  2769 net.cpp:425] inception_4a/output <- inception_4a/1x1
I0403 15:10:42.468466  2769 net.cpp:425] inception_4a/output <- inception_4a/3x3
I0403 15:10:42.468482  2769 net.cpp:425] inception_4a/output <- inception_4a/5x5
I0403 15:10:42.468497  2769 net.cpp:425] inception_4a/output <- inception_4a/pool_proj
I0403 15:10:42.468518  2769 net.cpp:399] inception_4a/output -> inception_4a/output
I0403 15:10:42.468562  2769 net.cpp:141] Setting up inception_4a/output
I0403 15:10:42.468587  2769 net.cpp:148] Top shape: 24 512 14 14 (2408448)
I0403 15:10:42.468603  2769 net.cpp:156] Memory required for data: 896545824
I0403 15:10:42.468618  2769 layer_factory.hpp:77] Creating layer inception_4a/output_inception_4a/output_0_split
I0403 15:10:42.468636  2769 net.cpp:91] Creating Layer inception_4a/output_inception_4a/output_0_split
I0403 15:10:42.468652  2769 net.cpp:425] inception_4a/output_inception_4a/output_0_split <- inception_4a/output
I0403 15:10:42.468670  2769 net.cpp:399] inception_4a/output_inception_4a/output_0_split -> inception_4a/output_inception_4a/output_0_split_0
I0403 15:10:42.468693  2769 net.cpp:399] inception_4a/output_inception_4a/output_0_split -> inception_4a/output_inception_4a/output_0_split_1
I0403 15:10:42.468713  2769 net.cpp:399] inception_4a/output_inception_4a/output_0_split -> inception_4a/output_inception_4a/output_0_split_2
I0403 15:10:42.468734  2769 net.cpp:399] inception_4a/output_inception_4a/output_0_split -> inception_4a/output_inception_4a/output_0_split_3
I0403 15:10:42.468755  2769 net.cpp:399] inception_4a/output_inception_4a/output_0_split -> inception_4a/output_inception_4a/output_0_split_4
I0403 15:10:42.468847  2769 net.cpp:141] Setting up inception_4a/output_inception_4a/output_0_split
I0403 15:10:42.468871  2769 net.cpp:148] Top shape: 24 512 14 14 (2408448)
I0403 15:10:42.468888  2769 net.cpp:148] Top shape: 24 512 14 14 (2408448)
I0403 15:10:42.468904  2769 net.cpp:148] Top shape: 24 512 14 14 (2408448)
I0403 15:10:42.468919  2769 net.cpp:148] Top shape: 24 512 14 14 (2408448)
I0403 15:10:42.468935  2769 net.cpp:148] Top shape: 24 512 14 14 (2408448)
I0403 15:10:42.468948  2769 net.cpp:156] Memory required for data: 944714784
I0403 15:10:42.468963  2769 layer_factory.hpp:77] Creating layer loss1/ave_pool
I0403 15:10:42.468983  2769 net.cpp:91] Creating Layer loss1/ave_pool
I0403 15:10:42.469000  2769 net.cpp:425] loss1/ave_pool <- inception_4a/output_inception_4a/output_0_split_0
I0403 15:10:42.469018  2769 net.cpp:399] loss1/ave_pool -> loss1/ave_pool
I0403 15:10:42.469231  2769 net.cpp:141] Setting up loss1/ave_pool
I0403 15:10:42.469257  2769 net.cpp:148] Top shape: 24 512 4 4 (196608)
I0403 15:10:42.469277  2769 net.cpp:156] Memory required for data: 945501216
I0403 15:10:42.469293  2769 layer_factory.hpp:77] Creating layer loss1/conv
I0403 15:10:42.469316  2769 net.cpp:91] Creating Layer loss1/conv
I0403 15:10:42.469334  2769 net.cpp:425] loss1/conv <- loss1/ave_pool
I0403 15:10:42.469355  2769 net.cpp:399] loss1/conv -> loss1/conv
I0403 15:10:42.470798  2769 net.cpp:141] Setting up loss1/conv
I0403 15:10:42.470827  2769 net.cpp:148] Top shape: 24 128 4 4 (49152)
I0403 15:10:42.470857  2769 net.cpp:156] Memory required for data: 945697824
I0403 15:10:42.470877  2769 layer_factory.hpp:77] Creating layer loss1/relu_conv
I0403 15:10:42.470898  2769 net.cpp:91] Creating Layer loss1/relu_conv
I0403 15:10:42.470916  2769 net.cpp:425] loss1/relu_conv <- loss1/conv
I0403 15:10:42.470932  2769 net.cpp:386] loss1/relu_conv -> loss1/conv (in-place)
I0403 15:10:42.471221  2769 net.cpp:141] Setting up loss1/relu_conv
I0403 15:10:42.471247  2769 net.cpp:148] Top shape: 24 128 4 4 (49152)
I0403 15:10:42.471263  2769 net.cpp:156] Memory required for data: 945894432
I0403 15:10:42.471283  2769 layer_factory.hpp:77] Creating layer loss1/fc
I0403 15:10:42.471310  2769 net.cpp:91] Creating Layer loss1/fc
I0403 15:10:42.471330  2769 net.cpp:425] loss1/fc <- loss1/conv
I0403 15:10:42.471351  2769 net.cpp:399] loss1/fc -> loss1/fc
I0403 15:10:42.490136  2769 net.cpp:141] Setting up loss1/fc
I0403 15:10:42.490197  2769 net.cpp:148] Top shape: 24 1024 (24576)
I0403 15:10:42.490213  2769 net.cpp:156] Memory required for data: 945992736
I0403 15:10:42.490234  2769 layer_factory.hpp:77] Creating layer loss1/relu_fc
I0403 15:10:42.490255  2769 net.cpp:91] Creating Layer loss1/relu_fc
I0403 15:10:42.490277  2769 net.cpp:425] loss1/relu_fc <- loss1/fc
I0403 15:10:42.490299  2769 net.cpp:386] loss1/relu_fc -> loss1/fc (in-place)
I0403 15:10:42.490521  2769 net.cpp:141] Setting up loss1/relu_fc
I0403 15:10:42.490550  2769 net.cpp:148] Top shape: 24 1024 (24576)
I0403 15:10:42.490566  2769 net.cpp:156] Memory required for data: 946091040
I0403 15:10:42.490581  2769 layer_factory.hpp:77] Creating layer loss1/drop_fc
I0403 15:10:42.490615  2769 net.cpp:91] Creating Layer loss1/drop_fc
I0403 15:10:42.490635  2769 net.cpp:425] loss1/drop_fc <- loss1/fc
I0403 15:10:42.490653  2769 net.cpp:386] loss1/drop_fc -> loss1/fc (in-place)
I0403 15:10:42.490712  2769 net.cpp:141] Setting up loss1/drop_fc
I0403 15:10:42.490738  2769 net.cpp:148] Top shape: 24 1024 (24576)
I0403 15:10:42.490754  2769 net.cpp:156] Memory required for data: 946189344
I0403 15:10:42.490772  2769 layer_factory.hpp:77] Creating layer loss1/classifier_plantvillage
I0403 15:10:42.490792  2769 net.cpp:91] Creating Layer loss1/classifier_plantvillage
I0403 15:10:42.490808  2769 net.cpp:425] loss1/classifier_plantvillage <- loss1/fc
I0403 15:10:42.490830  2769 net.cpp:399] loss1/classifier_plantvillage -> loss1/classifier_plantvillage
I0403 15:10:42.491825  2769 net.cpp:141] Setting up loss1/classifier_plantvillage
I0403 15:10:42.491855  2769 net.cpp:148] Top shape: 24 38 (912)
I0403 15:10:42.491873  2769 net.cpp:156] Memory required for data: 946192992
I0403 15:10:42.491890  2769 layer_factory.hpp:77] Creating layer loss1/classifier_plantvillage_loss1/classifier_plantvillage_0_split
I0403 15:10:42.491911  2769 net.cpp:91] Creating Layer loss1/classifier_plantvillage_loss1/classifier_plantvillage_0_split
I0403 15:10:42.491928  2769 net.cpp:425] loss1/classifier_plantvillage_loss1/classifier_plantvillage_0_split <- loss1/classifier_plantvillage
I0403 15:10:42.491947  2769 net.cpp:399] loss1/classifier_plantvillage_loss1/classifier_plantvillage_0_split -> loss1/classifier_plantvillage_loss1/classifier_plantvillage_0_split_0
I0403 15:10:42.491968  2769 net.cpp:399] loss1/classifier_plantvillage_loss1/classifier_plantvillage_0_split -> loss1/classifier_plantvillage_loss1/classifier_plantvillage_0_split_1
I0403 15:10:42.491989  2769 net.cpp:399] loss1/classifier_plantvillage_loss1/classifier_plantvillage_0_split -> loss1/classifier_plantvillage_loss1/classifier_plantvillage_0_split_2
I0403 15:10:42.492059  2769 net.cpp:141] Setting up loss1/classifier_plantvillage_loss1/classifier_plantvillage_0_split
I0403 15:10:42.492084  2769 net.cpp:148] Top shape: 24 38 (912)
I0403 15:10:42.492100  2769 net.cpp:148] Top shape: 24 38 (912)
I0403 15:10:42.492115  2769 net.cpp:148] Top shape: 24 38 (912)
I0403 15:10:42.492130  2769 net.cpp:156] Memory required for data: 946203936
I0403 15:10:42.492143  2769 layer_factory.hpp:77] Creating layer inception_4b/1x1
I0403 15:10:42.492180  2769 net.cpp:91] Creating Layer inception_4b/1x1
I0403 15:10:42.492223  2769 net.cpp:425] inception_4b/1x1 <- inception_4a/output_inception_4a/output_0_split_1
I0403 15:10:42.492245  2769 net.cpp:399] inception_4b/1x1 -> inception_4b/1x1
I0403 15:10:42.493994  2769 net.cpp:141] Setting up inception_4b/1x1
I0403 15:10:42.494036  2769 net.cpp:148] Top shape: 24 160 14 14 (752640)
I0403 15:10:42.494053  2769 net.cpp:156] Memory required for data: 949214496
I0403 15:10:42.494073  2769 layer_factory.hpp:77] Creating layer inception_4b/relu_1x1
I0403 15:10:42.494096  2769 net.cpp:91] Creating Layer inception_4b/relu_1x1
I0403 15:10:42.494113  2769 net.cpp:425] inception_4b/relu_1x1 <- inception_4b/1x1
I0403 15:10:42.494132  2769 net.cpp:386] inception_4b/relu_1x1 -> inception_4b/1x1 (in-place)
I0403 15:10:42.494324  2769 net.cpp:141] Setting up inception_4b/relu_1x1
I0403 15:10:42.494351  2769 net.cpp:148] Top shape: 24 160 14 14 (752640)
I0403 15:10:42.494367  2769 net.cpp:156] Memory required for data: 952225056
I0403 15:10:42.494382  2769 layer_factory.hpp:77] Creating layer inception_4b/3x3_reduce
I0403 15:10:42.494407  2769 net.cpp:91] Creating Layer inception_4b/3x3_reduce
I0403 15:10:42.494427  2769 net.cpp:425] inception_4b/3x3_reduce <- inception_4a/output_inception_4a/output_0_split_2
I0403 15:10:42.494453  2769 net.cpp:399] inception_4b/3x3_reduce -> inception_4b/3x3_reduce
I0403 15:10:42.495880  2769 net.cpp:141] Setting up inception_4b/3x3_reduce
I0403 15:10:42.495911  2769 net.cpp:148] Top shape: 24 112 14 14 (526848)
I0403 15:10:42.495929  2769 net.cpp:156] Memory required for data: 954332448
I0403 15:10:42.495947  2769 layer_factory.hpp:77] Creating layer inception_4b/relu_3x3_reduce
I0403 15:10:42.495965  2769 net.cpp:91] Creating Layer inception_4b/relu_3x3_reduce
I0403 15:10:42.495982  2769 net.cpp:425] inception_4b/relu_3x3_reduce <- inception_4b/3x3_reduce
I0403 15:10:42.496002  2769 net.cpp:386] inception_4b/relu_3x3_reduce -> inception_4b/3x3_reduce (in-place)
I0403 15:10:42.496309  2769 net.cpp:141] Setting up inception_4b/relu_3x3_reduce
I0403 15:10:42.496338  2769 net.cpp:148] Top shape: 24 112 14 14 (526848)
I0403 15:10:42.496354  2769 net.cpp:156] Memory required for data: 956439840
I0403 15:10:42.496371  2769 layer_factory.hpp:77] Creating layer inception_4b/3x3
I0403 15:10:42.496393  2769 net.cpp:91] Creating Layer inception_4b/3x3
I0403 15:10:42.496412  2769 net.cpp:425] inception_4b/3x3 <- inception_4b/3x3_reduce
I0403 15:10:42.496431  2769 net.cpp:399] inception_4b/3x3 -> inception_4b/3x3
I0403 15:10:42.499604  2769 net.cpp:141] Setting up inception_4b/3x3
I0403 15:10:42.499634  2769 net.cpp:148] Top shape: 24 224 14 14 (1053696)
I0403 15:10:42.499650  2769 net.cpp:156] Memory required for data: 960654624
I0403 15:10:42.499670  2769 layer_factory.hpp:77] Creating layer inception_4b/relu_3x3
I0403 15:10:42.499691  2769 net.cpp:91] Creating Layer inception_4b/relu_3x3
I0403 15:10:42.499707  2769 net.cpp:425] inception_4b/relu_3x3 <- inception_4b/3x3
I0403 15:10:42.499725  2769 net.cpp:386] inception_4b/relu_3x3 -> inception_4b/3x3 (in-place)
I0403 15:10:42.499910  2769 net.cpp:141] Setting up inception_4b/relu_3x3
I0403 15:10:42.499936  2769 net.cpp:148] Top shape: 24 224 14 14 (1053696)
I0403 15:10:42.499950  2769 net.cpp:156] Memory required for data: 964869408
I0403 15:10:42.499965  2769 layer_factory.hpp:77] Creating layer inception_4b/5x5_reduce
I0403 15:10:42.499989  2769 net.cpp:91] Creating Layer inception_4b/5x5_reduce
I0403 15:10:42.500005  2769 net.cpp:425] inception_4b/5x5_reduce <- inception_4a/output_inception_4a/output_0_split_3
I0403 15:10:42.500028  2769 net.cpp:399] inception_4b/5x5_reduce -> inception_4b/5x5_reduce
I0403 15:10:42.501171  2769 net.cpp:141] Setting up inception_4b/5x5_reduce
I0403 15:10:42.501202  2769 net.cpp:148] Top shape: 24 24 14 14 (112896)
I0403 15:10:42.501231  2769 net.cpp:156] Memory required for data: 965320992
I0403 15:10:42.501251  2769 layer_factory.hpp:77] Creating layer inception_4b/relu_5x5_reduce
I0403 15:10:42.501274  2769 net.cpp:91] Creating Layer inception_4b/relu_5x5_reduce
I0403 15:10:42.501308  2769 net.cpp:425] inception_4b/relu_5x5_reduce <- inception_4b/5x5_reduce
I0403 15:10:42.501327  2769 net.cpp:386] inception_4b/relu_5x5_reduce -> inception_4b/5x5_reduce (in-place)
I0403 15:10:42.501533  2769 net.cpp:141] Setting up inception_4b/relu_5x5_reduce
I0403 15:10:42.501559  2769 net.cpp:148] Top shape: 24 24 14 14 (112896)
I0403 15:10:42.501574  2769 net.cpp:156] Memory required for data: 965772576
I0403 15:10:42.501590  2769 layer_factory.hpp:77] Creating layer inception_4b/5x5
I0403 15:10:42.501612  2769 net.cpp:91] Creating Layer inception_4b/5x5
I0403 15:10:42.501631  2769 net.cpp:425] inception_4b/5x5 <- inception_4b/5x5_reduce
I0403 15:10:42.501652  2769 net.cpp:399] inception_4b/5x5 -> inception_4b/5x5
I0403 15:10:42.502933  2769 net.cpp:141] Setting up inception_4b/5x5
I0403 15:10:42.502961  2769 net.cpp:148] Top shape: 24 64 14 14 (301056)
I0403 15:10:42.502976  2769 net.cpp:156] Memory required for data: 966976800
I0403 15:10:42.502995  2769 layer_factory.hpp:77] Creating layer inception_4b/relu_5x5
I0403 15:10:42.503015  2769 net.cpp:91] Creating Layer inception_4b/relu_5x5
I0403 15:10:42.503033  2769 net.cpp:425] inception_4b/relu_5x5 <- inception_4b/5x5
I0403 15:10:42.503051  2769 net.cpp:386] inception_4b/relu_5x5 -> inception_4b/5x5 (in-place)
I0403 15:10:42.503355  2769 net.cpp:141] Setting up inception_4b/relu_5x5
I0403 15:10:42.503382  2769 net.cpp:148] Top shape: 24 64 14 14 (301056)
I0403 15:10:42.503398  2769 net.cpp:156] Memory required for data: 968181024
I0403 15:10:42.503413  2769 layer_factory.hpp:77] Creating layer inception_4b/pool
I0403 15:10:42.503435  2769 net.cpp:91] Creating Layer inception_4b/pool
I0403 15:10:42.503453  2769 net.cpp:425] inception_4b/pool <- inception_4a/output_inception_4a/output_0_split_4
I0403 15:10:42.503470  2769 net.cpp:399] inception_4b/pool -> inception_4b/pool
I0403 15:10:42.503537  2769 net.cpp:141] Setting up inception_4b/pool
I0403 15:10:42.503561  2769 net.cpp:148] Top shape: 24 512 14 14 (2408448)
I0403 15:10:42.503576  2769 net.cpp:156] Memory required for data: 977814816
I0403 15:10:42.503592  2769 layer_factory.hpp:77] Creating layer inception_4b/pool_proj
I0403 15:10:42.503613  2769 net.cpp:91] Creating Layer inception_4b/pool_proj
I0403 15:10:42.503631  2769 net.cpp:425] inception_4b/pool_proj <- inception_4b/pool
I0403 15:10:42.503653  2769 net.cpp:399] inception_4b/pool_proj -> inception_4b/pool_proj
I0403 15:10:42.504887  2769 net.cpp:141] Setting up inception_4b/pool_proj
I0403 15:10:42.504916  2769 net.cpp:148] Top shape: 24 64 14 14 (301056)
I0403 15:10:42.504932  2769 net.cpp:156] Memory required for data: 979019040
I0403 15:10:42.504951  2769 layer_factory.hpp:77] Creating layer inception_4b/relu_pool_proj
I0403 15:10:42.504971  2769 net.cpp:91] Creating Layer inception_4b/relu_pool_proj
I0403 15:10:42.504988  2769 net.cpp:425] inception_4b/relu_pool_proj <- inception_4b/pool_proj
I0403 15:10:42.505007  2769 net.cpp:386] inception_4b/relu_pool_proj -> inception_4b/pool_proj (in-place)
I0403 15:10:42.505189  2769 net.cpp:141] Setting up inception_4b/relu_pool_proj
I0403 15:10:42.505214  2769 net.cpp:148] Top shape: 24 64 14 14 (301056)
I0403 15:10:42.505229  2769 net.cpp:156] Memory required for data: 980223264
I0403 15:10:42.505244  2769 layer_factory.hpp:77] Creating layer inception_4b/output
I0403 15:10:42.505262  2769 net.cpp:91] Creating Layer inception_4b/output
I0403 15:10:42.505283  2769 net.cpp:425] inception_4b/output <- inception_4b/1x1
I0403 15:10:42.505301  2769 net.cpp:425] inception_4b/output <- inception_4b/3x3
I0403 15:10:42.505317  2769 net.cpp:425] inception_4b/output <- inception_4b/5x5
I0403 15:10:42.505333  2769 net.cpp:425] inception_4b/output <- inception_4b/pool_proj
I0403 15:10:42.505352  2769 net.cpp:399] inception_4b/output -> inception_4b/output
I0403 15:10:42.505399  2769 net.cpp:141] Setting up inception_4b/output
I0403 15:10:42.505425  2769 net.cpp:148] Top shape: 24 512 14 14 (2408448)
I0403 15:10:42.505442  2769 net.cpp:156] Memory required for data: 989857056
I0403 15:10:42.505471  2769 layer_factory.hpp:77] Creating layer inception_4b/output_inception_4b/output_0_split
I0403 15:10:42.505489  2769 net.cpp:91] Creating Layer inception_4b/output_inception_4b/output_0_split
I0403 15:10:42.505506  2769 net.cpp:425] inception_4b/output_inception_4b/output_0_split <- inception_4b/output
I0403 15:10:42.505523  2769 net.cpp:399] inception_4b/output_inception_4b/output_0_split -> inception_4b/output_inception_4b/output_0_split_0
I0403 15:10:42.505543  2769 net.cpp:399] inception_4b/output_inception_4b/output_0_split -> inception_4b/output_inception_4b/output_0_split_1
I0403 15:10:42.505566  2769 net.cpp:399] inception_4b/output_inception_4b/output_0_split -> inception_4b/output_inception_4b/output_0_split_2
I0403 15:10:42.505587  2769 net.cpp:399] inception_4b/output_inception_4b/output_0_split -> inception_4b/output_inception_4b/output_0_split_3
I0403 15:10:42.505673  2769 net.cpp:141] Setting up inception_4b/output_inception_4b/output_0_split
I0403 15:10:42.505697  2769 net.cpp:148] Top shape: 24 512 14 14 (2408448)
I0403 15:10:42.505713  2769 net.cpp:148] Top shape: 24 512 14 14 (2408448)
I0403 15:10:42.505729  2769 net.cpp:148] Top shape: 24 512 14 14 (2408448)
I0403 15:10:42.505744  2769 net.cpp:148] Top shape: 24 512 14 14 (2408448)
I0403 15:10:42.505758  2769 net.cpp:156] Memory required for data: 1028392224
I0403 15:10:42.505772  2769 layer_factory.hpp:77] Creating layer inception_4c/1x1
I0403 15:10:42.505795  2769 net.cpp:91] Creating Layer inception_4c/1x1
I0403 15:10:42.505813  2769 net.cpp:425] inception_4c/1x1 <- inception_4b/output_inception_4b/output_0_split_0
I0403 15:10:42.505836  2769 net.cpp:399] inception_4c/1x1 -> inception_4c/1x1
I0403 15:10:42.507313  2769 net.cpp:141] Setting up inception_4c/1x1
I0403 15:10:42.507341  2769 net.cpp:148] Top shape: 24 128 14 14 (602112)
I0403 15:10:42.507357  2769 net.cpp:156] Memory required for data: 1030800672
I0403 15:10:42.507376  2769 layer_factory.hpp:77] Creating layer inception_4c/relu_1x1
I0403 15:10:42.507395  2769 net.cpp:91] Creating Layer inception_4c/relu_1x1
I0403 15:10:42.507411  2769 net.cpp:425] inception_4c/relu_1x1 <- inception_4c/1x1
I0403 15:10:42.507431  2769 net.cpp:386] inception_4c/relu_1x1 -> inception_4c/1x1 (in-place)
I0403 15:10:42.507616  2769 net.cpp:141] Setting up inception_4c/relu_1x1
I0403 15:10:42.507640  2769 net.cpp:148] Top shape: 24 128 14 14 (602112)
I0403 15:10:42.507655  2769 net.cpp:156] Memory required for data: 1033209120
I0403 15:10:42.507670  2769 layer_factory.hpp:77] Creating layer inception_4c/3x3_reduce
I0403 15:10:42.507694  2769 net.cpp:91] Creating Layer inception_4c/3x3_reduce
I0403 15:10:42.507710  2769 net.cpp:425] inception_4c/3x3_reduce <- inception_4b/output_inception_4b/output_0_split_1
I0403 15:10:42.507732  2769 net.cpp:399] inception_4c/3x3_reduce -> inception_4c/3x3_reduce
I0403 15:10:42.509714  2769 net.cpp:141] Setting up inception_4c/3x3_reduce
I0403 15:10:42.509744  2769 net.cpp:148] Top shape: 24 128 14 14 (602112)
I0403 15:10:42.509760  2769 net.cpp:156] Memory required for data: 1035617568
I0403 15:10:42.509778  2769 layer_factory.hpp:77] Creating layer inception_4c/relu_3x3_reduce
I0403 15:10:42.509799  2769 net.cpp:91] Creating Layer inception_4c/relu_3x3_reduce
I0403 15:10:42.509817  2769 net.cpp:425] inception_4c/relu_3x3_reduce <- inception_4c/3x3_reduce
I0403 15:10:42.509835  2769 net.cpp:386] inception_4c/relu_3x3_reduce -> inception_4c/3x3_reduce (in-place)
I0403 15:10:42.510128  2769 net.cpp:141] Setting up inception_4c/relu_3x3_reduce
I0403 15:10:42.510155  2769 net.cpp:148] Top shape: 24 128 14 14 (602112)
I0403 15:10:42.510170  2769 net.cpp:156] Memory required for data: 1038026016
I0403 15:10:42.510185  2769 layer_factory.hpp:77] Creating layer inception_4c/3x3
I0403 15:10:42.510208  2769 net.cpp:91] Creating Layer inception_4c/3x3
I0403 15:10:42.510226  2769 net.cpp:425] inception_4c/3x3 <- inception_4c/3x3_reduce
I0403 15:10:42.510249  2769 net.cpp:399] inception_4c/3x3 -> inception_4c/3x3
I0403 15:10:42.514104  2769 net.cpp:141] Setting up inception_4c/3x3
I0403 15:10:42.514147  2769 net.cpp:148] Top shape: 24 256 14 14 (1204224)
I0403 15:10:42.514163  2769 net.cpp:156] Memory required for data: 1042842912
I0403 15:10:42.514194  2769 layer_factory.hpp:77] Creating layer inception_4c/relu_3x3
I0403 15:10:42.514219  2769 net.cpp:91] Creating Layer inception_4c/relu_3x3
I0403 15:10:42.514235  2769 net.cpp:425] inception_4c/relu_3x3 <- inception_4c/3x3
I0403 15:10:42.514253  2769 net.cpp:386] inception_4c/relu_3x3 -> inception_4c/3x3 (in-place)
I0403 15:10:42.514436  2769 net.cpp:141] Setting up inception_4c/relu_3x3
I0403 15:10:42.514462  2769 net.cpp:148] Top shape: 24 256 14 14 (1204224)
I0403 15:10:42.514478  2769 net.cpp:156] Memory required for data: 1047659808
I0403 15:10:42.514493  2769 layer_factory.hpp:77] Creating layer inception_4c/5x5_reduce
I0403 15:10:42.514516  2769 net.cpp:91] Creating Layer inception_4c/5x5_reduce
I0403 15:10:42.514533  2769 net.cpp:425] inception_4c/5x5_reduce <- inception_4b/output_inception_4b/output_0_split_2
I0403 15:10:42.514552  2769 net.cpp:399] inception_4c/5x5_reduce -> inception_4c/5x5_reduce
I0403 15:10:42.515640  2769 net.cpp:141] Setting up inception_4c/5x5_reduce
I0403 15:10:42.515671  2769 net.cpp:148] Top shape: 24 24 14 14 (112896)
I0403 15:10:42.515686  2769 net.cpp:156] Memory required for data: 1048111392
I0403 15:10:42.515704  2769 layer_factory.hpp:77] Creating layer inception_4c/relu_5x5_reduce
I0403 15:10:42.515722  2769 net.cpp:91] Creating Layer inception_4c/relu_5x5_reduce
I0403 15:10:42.515738  2769 net.cpp:425] inception_4c/relu_5x5_reduce <- inception_4c/5x5_reduce
I0403 15:10:42.515755  2769 net.cpp:386] inception_4c/relu_5x5_reduce -> inception_4c/5x5_reduce (in-place)
I0403 15:10:42.515938  2769 net.cpp:141] Setting up inception_4c/relu_5x5_reduce
I0403 15:10:42.515964  2769 net.cpp:148] Top shape: 24 24 14 14 (112896)
I0403 15:10:42.515979  2769 net.cpp:156] Memory required for data: 1048562976
I0403 15:10:42.515993  2769 layer_factory.hpp:77] Creating layer inception_4c/5x5
I0403 15:10:42.516016  2769 net.cpp:91] Creating Layer inception_4c/5x5
I0403 15:10:42.516032  2769 net.cpp:425] inception_4c/5x5 <- inception_4c/5x5_reduce
I0403 15:10:42.516054  2769 net.cpp:399] inception_4c/5x5 -> inception_4c/5x5
I0403 15:10:42.517295  2769 net.cpp:141] Setting up inception_4c/5x5
I0403 15:10:42.517323  2769 net.cpp:148] Top shape: 24 64 14 14 (301056)
I0403 15:10:42.517338  2769 net.cpp:156] Memory required for data: 1049767200
I0403 15:10:42.517356  2769 layer_factory.hpp:77] Creating layer inception_4c/relu_5x5
I0403 15:10:42.517374  2769 net.cpp:91] Creating Layer inception_4c/relu_5x5
I0403 15:10:42.517390  2769 net.cpp:425] inception_4c/relu_5x5 <- inception_4c/5x5
I0403 15:10:42.517408  2769 net.cpp:386] inception_4c/relu_5x5 -> inception_4c/5x5 (in-place)
I0403 15:10:42.517694  2769 net.cpp:141] Setting up inception_4c/relu_5x5
I0403 15:10:42.517720  2769 net.cpp:148] Top shape: 24 64 14 14 (301056)
I0403 15:10:42.517735  2769 net.cpp:156] Memory required for data: 1050971424
I0403 15:10:42.517750  2769 layer_factory.hpp:77] Creating layer inception_4c/pool
I0403 15:10:42.517767  2769 net.cpp:91] Creating Layer inception_4c/pool
I0403 15:10:42.517783  2769 net.cpp:425] inception_4c/pool <- inception_4b/output_inception_4b/output_0_split_3
I0403 15:10:42.517802  2769 net.cpp:399] inception_4c/pool -> inception_4c/pool
I0403 15:10:42.517868  2769 net.cpp:141] Setting up inception_4c/pool
I0403 15:10:42.517891  2769 net.cpp:148] Top shape: 24 512 14 14 (2408448)
I0403 15:10:42.517906  2769 net.cpp:156] Memory required for data: 1060605216
I0403 15:10:42.517921  2769 layer_factory.hpp:77] Creating layer inception_4c/pool_proj
I0403 15:10:42.517945  2769 net.cpp:91] Creating Layer inception_4c/pool_proj
I0403 15:10:42.517961  2769 net.cpp:425] inception_4c/pool_proj <- inception_4c/pool
I0403 15:10:42.517981  2769 net.cpp:399] inception_4c/pool_proj -> inception_4c/pool_proj
I0403 15:10:42.519212  2769 net.cpp:141] Setting up inception_4c/pool_proj
I0403 15:10:42.519239  2769 net.cpp:148] Top shape: 24 64 14 14 (301056)
I0403 15:10:42.519268  2769 net.cpp:156] Memory required for data: 1061809440
I0403 15:10:42.519292  2769 layer_factory.hpp:77] Creating layer inception_4c/relu_pool_proj
I0403 15:10:42.519312  2769 net.cpp:91] Creating Layer inception_4c/relu_pool_proj
I0403 15:10:42.519330  2769 net.cpp:425] inception_4c/relu_pool_proj <- inception_4c/pool_proj
I0403 15:10:42.519346  2769 net.cpp:386] inception_4c/relu_pool_proj -> inception_4c/pool_proj (in-place)
I0403 15:10:42.519529  2769 net.cpp:141] Setting up inception_4c/relu_pool_proj
I0403 15:10:42.519553  2769 net.cpp:148] Top shape: 24 64 14 14 (301056)
I0403 15:10:42.519568  2769 net.cpp:156] Memory required for data: 1063013664
I0403 15:10:42.519583  2769 layer_factory.hpp:77] Creating layer inception_4c/output
I0403 15:10:42.519599  2769 net.cpp:91] Creating Layer inception_4c/output
I0403 15:10:42.519614  2769 net.cpp:425] inception_4c/output <- inception_4c/1x1
I0403 15:10:42.519630  2769 net.cpp:425] inception_4c/output <- inception_4c/3x3
I0403 15:10:42.519646  2769 net.cpp:425] inception_4c/output <- inception_4c/5x5
I0403 15:10:42.519661  2769 net.cpp:425] inception_4c/output <- inception_4c/pool_proj
I0403 15:10:42.519680  2769 net.cpp:399] inception_4c/output -> inception_4c/output
I0403 15:10:42.519727  2769 net.cpp:141] Setting up inception_4c/output
I0403 15:10:42.519752  2769 net.cpp:148] Top shape: 24 512 14 14 (2408448)
I0403 15:10:42.519767  2769 net.cpp:156] Memory required for data: 1072647456
I0403 15:10:42.519780  2769 layer_factory.hpp:77] Creating layer inception_4c/output_inception_4c/output_0_split
I0403 15:10:42.519798  2769 net.cpp:91] Creating Layer inception_4c/output_inception_4c/output_0_split
I0403 15:10:42.519812  2769 net.cpp:425] inception_4c/output_inception_4c/output_0_split <- inception_4c/output
I0403 15:10:42.519829  2769 net.cpp:399] inception_4c/output_inception_4c/output_0_split -> inception_4c/output_inception_4c/output_0_split_0
I0403 15:10:42.519848  2769 net.cpp:399] inception_4c/output_inception_4c/output_0_split -> inception_4c/output_inception_4c/output_0_split_1
I0403 15:10:42.519871  2769 net.cpp:399] inception_4c/output_inception_4c/output_0_split -> inception_4c/output_inception_4c/output_0_split_2
I0403 15:10:42.519892  2769 net.cpp:399] inception_4c/output_inception_4c/output_0_split -> inception_4c/output_inception_4c/output_0_split_3
I0403 15:10:42.519979  2769 net.cpp:141] Setting up inception_4c/output_inception_4c/output_0_split
I0403 15:10:42.520002  2769 net.cpp:148] Top shape: 24 512 14 14 (2408448)
I0403 15:10:42.520018  2769 net.cpp:148] Top shape: 24 512 14 14 (2408448)
I0403 15:10:42.520032  2769 net.cpp:148] Top shape: 24 512 14 14 (2408448)
I0403 15:10:42.520047  2769 net.cpp:148] Top shape: 24 512 14 14 (2408448)
I0403 15:10:42.520061  2769 net.cpp:156] Memory required for data: 1111182624
I0403 15:10:42.520076  2769 layer_factory.hpp:77] Creating layer inception_4d/1x1
I0403 15:10:42.520097  2769 net.cpp:91] Creating Layer inception_4d/1x1
I0403 15:10:42.520114  2769 net.cpp:425] inception_4d/1x1 <- inception_4c/output_inception_4c/output_0_split_0
I0403 15:10:42.520134  2769 net.cpp:399] inception_4d/1x1 -> inception_4d/1x1
I0403 15:10:42.521519  2769 net.cpp:141] Setting up inception_4d/1x1
I0403 15:10:42.521548  2769 net.cpp:148] Top shape: 24 112 14 14 (526848)
I0403 15:10:42.521563  2769 net.cpp:156] Memory required for data: 1113290016
I0403 15:10:42.521580  2769 layer_factory.hpp:77] Creating layer inception_4d/relu_1x1
I0403 15:10:42.521600  2769 net.cpp:91] Creating Layer inception_4d/relu_1x1
I0403 15:10:42.521616  2769 net.cpp:425] inception_4d/relu_1x1 <- inception_4d/1x1
I0403 15:10:42.521633  2769 net.cpp:386] inception_4d/relu_1x1 -> inception_4d/1x1 (in-place)
I0403 15:10:42.521817  2769 net.cpp:141] Setting up inception_4d/relu_1x1
I0403 15:10:42.521843  2769 net.cpp:148] Top shape: 24 112 14 14 (526848)
I0403 15:10:42.521859  2769 net.cpp:156] Memory required for data: 1115397408
I0403 15:10:42.521874  2769 layer_factory.hpp:77] Creating layer inception_4d/3x3_reduce
I0403 15:10:42.521908  2769 net.cpp:91] Creating Layer inception_4d/3x3_reduce
I0403 15:10:42.521924  2769 net.cpp:425] inception_4d/3x3_reduce <- inception_4c/output_inception_4c/output_0_split_1
I0403 15:10:42.521946  2769 net.cpp:399] inception_4d/3x3_reduce -> inception_4d/3x3_reduce
I0403 15:10:42.523497  2769 net.cpp:141] Setting up inception_4d/3x3_reduce
I0403 15:10:42.523525  2769 net.cpp:148] Top shape: 24 144 14 14 (677376)
I0403 15:10:42.523541  2769 net.cpp:156] Memory required for data: 1118106912
I0403 15:10:42.523561  2769 layer_factory.hpp:77] Creating layer inception_4d/relu_3x3_reduce
I0403 15:10:42.523579  2769 net.cpp:91] Creating Layer inception_4d/relu_3x3_reduce
I0403 15:10:42.523596  2769 net.cpp:425] inception_4d/relu_3x3_reduce <- inception_4d/3x3_reduce
I0403 15:10:42.523625  2769 net.cpp:386] inception_4d/relu_3x3_reduce -> inception_4d/3x3_reduce (in-place)
I0403 15:10:42.523922  2769 net.cpp:141] Setting up inception_4d/relu_3x3_reduce
I0403 15:10:42.523949  2769 net.cpp:148] Top shape: 24 144 14 14 (677376)
I0403 15:10:42.523964  2769 net.cpp:156] Memory required for data: 1120816416
I0403 15:10:42.523979  2769 layer_factory.hpp:77] Creating layer inception_4d/3x3
I0403 15:10:42.524003  2769 net.cpp:91] Creating Layer inception_4d/3x3
I0403 15:10:42.524020  2769 net.cpp:425] inception_4d/3x3 <- inception_4d/3x3_reduce
I0403 15:10:42.524041  2769 net.cpp:399] inception_4d/3x3 -> inception_4d/3x3
I0403 15:10:42.528461  2769 net.cpp:141] Setting up inception_4d/3x3
I0403 15:10:42.528491  2769 net.cpp:148] Top shape: 24 288 14 14 (1354752)
I0403 15:10:42.528508  2769 net.cpp:156] Memory required for data: 1126235424
I0403 15:10:42.528525  2769 layer_factory.hpp:77] Creating layer inception_4d/relu_3x3
I0403 15:10:42.528545  2769 net.cpp:91] Creating Layer inception_4d/relu_3x3
I0403 15:10:42.528563  2769 net.cpp:425] inception_4d/relu_3x3 <- inception_4d/3x3
I0403 15:10:42.528579  2769 net.cpp:386] inception_4d/relu_3x3 -> inception_4d/3x3 (in-place)
I0403 15:10:42.528761  2769 net.cpp:141] Setting up inception_4d/relu_3x3
I0403 15:10:42.528787  2769 net.cpp:148] Top shape: 24 288 14 14 (1354752)
I0403 15:10:42.528803  2769 net.cpp:156] Memory required for data: 1131654432
I0403 15:10:42.528818  2769 layer_factory.hpp:77] Creating layer inception_4d/5x5_reduce
I0403 15:10:42.528841  2769 net.cpp:91] Creating Layer inception_4d/5x5_reduce
I0403 15:10:42.528857  2769 net.cpp:425] inception_4d/5x5_reduce <- inception_4c/output_inception_4c/output_0_split_2
I0403 15:10:42.528877  2769 net.cpp:399] inception_4d/5x5_reduce -> inception_4d/5x5_reduce
I0403 15:10:42.530020  2769 net.cpp:141] Setting up inception_4d/5x5_reduce
I0403 15:10:42.530047  2769 net.cpp:148] Top shape: 24 32 14 14 (150528)
I0403 15:10:42.530062  2769 net.cpp:156] Memory required for data: 1132256544
I0403 15:10:42.530081  2769 layer_factory.hpp:77] Creating layer inception_4d/relu_5x5_reduce
I0403 15:10:42.530102  2769 net.cpp:91] Creating Layer inception_4d/relu_5x5_reduce
I0403 15:10:42.530117  2769 net.cpp:425] inception_4d/relu_5x5_reduce <- inception_4d/5x5_reduce
I0403 15:10:42.530135  2769 net.cpp:386] inception_4d/relu_5x5_reduce -> inception_4d/5x5_reduce (in-place)
I0403 15:10:42.530325  2769 net.cpp:141] Setting up inception_4d/relu_5x5_reduce
I0403 15:10:42.530352  2769 net.cpp:148] Top shape: 24 32 14 14 (150528)
I0403 15:10:42.530369  2769 net.cpp:156] Memory required for data: 1132858656
I0403 15:10:42.530382  2769 layer_factory.hpp:77] Creating layer inception_4d/5x5
I0403 15:10:42.530405  2769 net.cpp:91] Creating Layer inception_4d/5x5
I0403 15:10:42.530421  2769 net.cpp:425] inception_4d/5x5 <- inception_4d/5x5_reduce
I0403 15:10:42.530441  2769 net.cpp:399] inception_4d/5x5 -> inception_4d/5x5
I0403 15:10:42.531919  2769 net.cpp:141] Setting up inception_4d/5x5
I0403 15:10:42.531949  2769 net.cpp:148] Top shape: 24 64 14 14 (301056)
I0403 15:10:42.531965  2769 net.cpp:156] Memory required for data: 1134062880
I0403 15:10:42.531985  2769 layer_factory.hpp:77] Creating layer inception_4d/relu_5x5
I0403 15:10:42.532017  2769 net.cpp:91] Creating Layer inception_4d/relu_5x5
I0403 15:10:42.532034  2769 net.cpp:425] inception_4d/relu_5x5 <- inception_4d/5x5
I0403 15:10:42.532052  2769 net.cpp:386] inception_4d/relu_5x5 -> inception_4d/5x5 (in-place)
I0403 15:10:42.532356  2769 net.cpp:141] Setting up inception_4d/relu_5x5
I0403 15:10:42.532384  2769 net.cpp:148] Top shape: 24 64 14 14 (301056)
I0403 15:10:42.532402  2769 net.cpp:156] Memory required for data: 1135267104
I0403 15:10:42.532416  2769 layer_factory.hpp:77] Creating layer inception_4d/pool
I0403 15:10:42.532435  2769 net.cpp:91] Creating Layer inception_4d/pool
I0403 15:10:42.532451  2769 net.cpp:425] inception_4d/pool <- inception_4c/output_inception_4c/output_0_split_3
I0403 15:10:42.532471  2769 net.cpp:399] inception_4d/pool -> inception_4d/pool
I0403 15:10:42.532539  2769 net.cpp:141] Setting up inception_4d/pool
I0403 15:10:42.532562  2769 net.cpp:148] Top shape: 24 512 14 14 (2408448)
I0403 15:10:42.532577  2769 net.cpp:156] Memory required for data: 1144900896
I0403 15:10:42.532593  2769 layer_factory.hpp:77] Creating layer inception_4d/pool_proj
I0403 15:10:42.532613  2769 net.cpp:91] Creating Layer inception_4d/pool_proj
I0403 15:10:42.532632  2769 net.cpp:425] inception_4d/pool_proj <- inception_4d/pool
I0403 15:10:42.532650  2769 net.cpp:399] inception_4d/pool_proj -> inception_4d/pool_proj
I0403 15:10:42.534451  2769 net.cpp:141] Setting up inception_4d/pool_proj
I0403 15:10:42.534481  2769 net.cpp:148] Top shape: 24 64 14 14 (301056)
I0403 15:10:42.534497  2769 net.cpp:156] Memory required for data: 1146105120
I0403 15:10:42.534513  2769 layer_factory.hpp:77] Creating layer inception_4d/relu_pool_proj
I0403 15:10:42.534534  2769 net.cpp:91] Creating Layer inception_4d/relu_pool_proj
I0403 15:10:42.534550  2769 net.cpp:425] inception_4d/relu_pool_proj <- inception_4d/pool_proj
I0403 15:10:42.534567  2769 net.cpp:386] inception_4d/relu_pool_proj -> inception_4d/pool_proj (in-place)
I0403 15:10:42.534752  2769 net.cpp:141] Setting up inception_4d/relu_pool_proj
I0403 15:10:42.534778  2769 net.cpp:148] Top shape: 24 64 14 14 (301056)
I0403 15:10:42.534795  2769 net.cpp:156] Memory required for data: 1147309344
I0403 15:10:42.534808  2769 layer_factory.hpp:77] Creating layer inception_4d/output
I0403 15:10:42.534826  2769 net.cpp:91] Creating Layer inception_4d/output
I0403 15:10:42.534842  2769 net.cpp:425] inception_4d/output <- inception_4d/1x1
I0403 15:10:42.534858  2769 net.cpp:425] inception_4d/output <- inception_4d/3x3
I0403 15:10:42.534874  2769 net.cpp:425] inception_4d/output <- inception_4d/5x5
I0403 15:10:42.534889  2769 net.cpp:425] inception_4d/output <- inception_4d/pool_proj
I0403 15:10:42.534906  2769 net.cpp:399] inception_4d/output -> inception_4d/output
I0403 15:10:42.534955  2769 net.cpp:141] Setting up inception_4d/output
I0403 15:10:42.534978  2769 net.cpp:148] Top shape: 24 528 14 14 (2483712)
I0403 15:10:42.534992  2769 net.cpp:156] Memory required for data: 1157244192
I0403 15:10:42.535007  2769 layer_factory.hpp:77] Creating layer inception_4d/output_inception_4d/output_0_split
I0403 15:10:42.535027  2769 net.cpp:91] Creating Layer inception_4d/output_inception_4d/output_0_split
I0403 15:10:42.535043  2769 net.cpp:425] inception_4d/output_inception_4d/output_0_split <- inception_4d/output
I0403 15:10:42.535060  2769 net.cpp:399] inception_4d/output_inception_4d/output_0_split -> inception_4d/output_inception_4d/output_0_split_0
I0403 15:10:42.535080  2769 net.cpp:399] inception_4d/output_inception_4d/output_0_split -> inception_4d/output_inception_4d/output_0_split_1
I0403 15:10:42.535101  2769 net.cpp:399] inception_4d/output_inception_4d/output_0_split -> inception_4d/output_inception_4d/output_0_split_2
I0403 15:10:42.535126  2769 net.cpp:399] inception_4d/output_inception_4d/output_0_split -> inception_4d/output_inception_4d/output_0_split_3
I0403 15:10:42.535147  2769 net.cpp:399] inception_4d/output_inception_4d/output_0_split -> inception_4d/output_inception_4d/output_0_split_4
I0403 15:10:42.535248  2769 net.cpp:141] Setting up inception_4d/output_inception_4d/output_0_split
I0403 15:10:42.535287  2769 net.cpp:148] Top shape: 24 528 14 14 (2483712)
I0403 15:10:42.535305  2769 net.cpp:148] Top shape: 24 528 14 14 (2483712)
I0403 15:10:42.535320  2769 net.cpp:148] Top shape: 24 528 14 14 (2483712)
I0403 15:10:42.535336  2769 net.cpp:148] Top shape: 24 528 14 14 (2483712)
I0403 15:10:42.535351  2769 net.cpp:148] Top shape: 24 528 14 14 (2483712)
I0403 15:10:42.535365  2769 net.cpp:156] Memory required for data: 1206918432
I0403 15:10:42.535379  2769 layer_factory.hpp:77] Creating layer loss2/ave_pool
I0403 15:10:42.535398  2769 net.cpp:91] Creating Layer loss2/ave_pool
I0403 15:10:42.535413  2769 net.cpp:425] loss2/ave_pool <- inception_4d/output_inception_4d/output_0_split_0
I0403 15:10:42.535434  2769 net.cpp:399] loss2/ave_pool -> loss2/ave_pool
I0403 15:10:42.535751  2769 net.cpp:141] Setting up loss2/ave_pool
I0403 15:10:42.535778  2769 net.cpp:148] Top shape: 24 528 4 4 (202752)
I0403 15:10:42.535792  2769 net.cpp:156] Memory required for data: 1207729440
I0403 15:10:42.535807  2769 layer_factory.hpp:77] Creating layer loss2/conv
I0403 15:10:42.535830  2769 net.cpp:91] Creating Layer loss2/conv
I0403 15:10:42.535847  2769 net.cpp:425] loss2/conv <- loss2/ave_pool
I0403 15:10:42.535868  2769 net.cpp:399] loss2/conv -> loss2/conv
I0403 15:10:42.537763  2769 net.cpp:141] Setting up loss2/conv
I0403 15:10:42.537794  2769 net.cpp:148] Top shape: 24 128 4 4 (49152)
I0403 15:10:42.537811  2769 net.cpp:156] Memory required for data: 1207926048
I0403 15:10:42.537828  2769 layer_factory.hpp:77] Creating layer loss2/relu_conv
I0403 15:10:42.537847  2769 net.cpp:91] Creating Layer loss2/relu_conv
I0403 15:10:42.537863  2769 net.cpp:425] loss2/relu_conv <- loss2/conv
I0403 15:10:42.537883  2769 net.cpp:386] loss2/relu_conv -> loss2/conv (in-place)
I0403 15:10:42.538166  2769 net.cpp:141] Setting up loss2/relu_conv
I0403 15:10:42.538193  2769 net.cpp:148] Top shape: 24 128 4 4 (49152)
I0403 15:10:42.538209  2769 net.cpp:156] Memory required for data: 1208122656
I0403 15:10:42.538224  2769 layer_factory.hpp:77] Creating layer loss2/fc
I0403 15:10:42.538244  2769 net.cpp:91] Creating Layer loss2/fc
I0403 15:10:42.538260  2769 net.cpp:425] loss2/fc <- loss2/conv
I0403 15:10:42.538286  2769 net.cpp:399] loss2/fc -> loss2/fc
I0403 15:10:42.555874  2769 net.cpp:141] Setting up loss2/fc
I0403 15:10:42.555909  2769 net.cpp:148] Top shape: 24 1024 (24576)
I0403 15:10:42.555923  2769 net.cpp:156] Memory required for data: 1208220960
I0403 15:10:42.555941  2769 layer_factory.hpp:77] Creating layer loss2/relu_fc
I0403 15:10:42.555961  2769 net.cpp:91] Creating Layer loss2/relu_fc
I0403 15:10:42.555979  2769 net.cpp:425] loss2/relu_fc <- loss2/fc
I0403 15:10:42.555995  2769 net.cpp:386] loss2/relu_fc -> loss2/fc (in-place)
I0403 15:10:42.556321  2769 net.cpp:141] Setting up loss2/relu_fc
I0403 15:10:42.556349  2769 net.cpp:148] Top shape: 24 1024 (24576)
I0403 15:10:42.556365  2769 net.cpp:156] Memory required for data: 1208319264
I0403 15:10:42.556380  2769 layer_factory.hpp:77] Creating layer loss2/drop_fc
I0403 15:10:42.556401  2769 net.cpp:91] Creating Layer loss2/drop_fc
I0403 15:10:42.556418  2769 net.cpp:425] loss2/drop_fc <- loss2/fc
I0403 15:10:42.556438  2769 net.cpp:386] loss2/drop_fc -> loss2/fc (in-place)
I0403 15:10:42.556504  2769 net.cpp:141] Setting up loss2/drop_fc
I0403 15:10:42.556525  2769 net.cpp:148] Top shape: 24 1024 (24576)
I0403 15:10:42.556552  2769 net.cpp:156] Memory required for data: 1208417568
I0403 15:10:42.556566  2769 layer_factory.hpp:77] Creating layer loss2/classifier_plantvillage
I0403 15:10:42.556583  2769 net.cpp:91] Creating Layer loss2/classifier_plantvillage
I0403 15:10:42.556599  2769 net.cpp:425] loss2/classifier_plantvillage <- loss2/fc
I0403 15:10:42.556619  2769 net.cpp:399] loss2/classifier_plantvillage -> loss2/classifier_plantvillage
I0403 15:10:42.557014  2769 net.cpp:141] Setting up loss2/classifier_plantvillage
I0403 15:10:42.557037  2769 net.cpp:148] Top shape: 24 38 (912)
I0403 15:10:42.557066  2769 net.cpp:156] Memory required for data: 1208421216
I0403 15:10:42.557085  2769 layer_factory.hpp:77] Creating layer loss2/classifier_plantvillage_loss2/classifier_plantvillage_0_split
I0403 15:10:42.557101  2769 net.cpp:91] Creating Layer loss2/classifier_plantvillage_loss2/classifier_plantvillage_0_split
I0403 15:10:42.557117  2769 net.cpp:425] loss2/classifier_plantvillage_loss2/classifier_plantvillage_0_split <- loss2/classifier_plantvillage
I0403 15:10:42.557137  2769 net.cpp:399] loss2/classifier_plantvillage_loss2/classifier_plantvillage_0_split -> loss2/classifier_plantvillage_loss2/classifier_plantvillage_0_split_0
I0403 15:10:42.557157  2769 net.cpp:399] loss2/classifier_plantvillage_loss2/classifier_plantvillage_0_split -> loss2/classifier_plantvillage_loss2/classifier_plantvillage_0_split_1
I0403 15:10:42.557178  2769 net.cpp:399] loss2/classifier_plantvillage_loss2/classifier_plantvillage_0_split -> loss2/classifier_plantvillage_loss2/classifier_plantvillage_0_split_2
I0403 15:10:42.557283  2769 net.cpp:141] Setting up loss2/classifier_plantvillage_loss2/classifier_plantvillage_0_split
I0403 15:10:42.557309  2769 net.cpp:148] Top shape: 24 38 (912)
I0403 15:10:42.557327  2769 net.cpp:148] Top shape: 24 38 (912)
I0403 15:10:42.557343  2769 net.cpp:148] Top shape: 24 38 (912)
I0403 15:10:42.557358  2769 net.cpp:156] Memory required for data: 1208432160
I0403 15:10:42.557373  2769 layer_factory.hpp:77] Creating layer inception_4e/1x1
I0403 15:10:42.557392  2769 net.cpp:91] Creating Layer inception_4e/1x1
I0403 15:10:42.557410  2769 net.cpp:425] inception_4e/1x1 <- inception_4d/output_inception_4d/output_0_split_1
I0403 15:10:42.557428  2769 net.cpp:399] inception_4e/1x1 -> inception_4e/1x1
I0403 15:10:42.559325  2769 net.cpp:141] Setting up inception_4e/1x1
I0403 15:10:42.559353  2769 net.cpp:148] Top shape: 24 256 14 14 (1204224)
I0403 15:10:42.559370  2769 net.cpp:156] Memory required for data: 1213249056
I0403 15:10:42.559388  2769 layer_factory.hpp:77] Creating layer inception_4e/relu_1x1
I0403 15:10:42.559407  2769 net.cpp:91] Creating Layer inception_4e/relu_1x1
I0403 15:10:42.559422  2769 net.cpp:425] inception_4e/relu_1x1 <- inception_4e/1x1
I0403 15:10:42.559443  2769 net.cpp:386] inception_4e/relu_1x1 -> inception_4e/1x1 (in-place)
I0403 15:10:42.559758  2769 net.cpp:141] Setting up inception_4e/relu_1x1
I0403 15:10:42.559784  2769 net.cpp:148] Top shape: 24 256 14 14 (1204224)
I0403 15:10:42.559798  2769 net.cpp:156] Memory required for data: 1218065952
I0403 15:10:42.559813  2769 layer_factory.hpp:77] Creating layer inception_4e/3x3_reduce
I0403 15:10:42.559834  2769 net.cpp:91] Creating Layer inception_4e/3x3_reduce
I0403 15:10:42.559851  2769 net.cpp:425] inception_4e/3x3_reduce <- inception_4d/output_inception_4d/output_0_split_2
I0403 15:10:42.559872  2769 net.cpp:399] inception_4e/3x3_reduce -> inception_4e/3x3_reduce
I0403 15:10:42.562083  2769 net.cpp:141] Setting up inception_4e/3x3_reduce
I0403 15:10:42.562115  2769 net.cpp:148] Top shape: 24 160 14 14 (752640)
I0403 15:10:42.562131  2769 net.cpp:156] Memory required for data: 1221076512
I0403 15:10:42.562150  2769 layer_factory.hpp:77] Creating layer inception_4e/relu_3x3_reduce
I0403 15:10:42.562168  2769 net.cpp:91] Creating Layer inception_4e/relu_3x3_reduce
I0403 15:10:42.562185  2769 net.cpp:425] inception_4e/relu_3x3_reduce <- inception_4e/3x3_reduce
I0403 15:10:42.562204  2769 net.cpp:386] inception_4e/relu_3x3_reduce -> inception_4e/3x3_reduce (in-place)
I0403 15:10:42.562414  2769 net.cpp:141] Setting up inception_4e/relu_3x3_reduce
I0403 15:10:42.562441  2769 net.cpp:148] Top shape: 24 160 14 14 (752640)
I0403 15:10:42.562458  2769 net.cpp:156] Memory required for data: 1224087072
I0403 15:10:42.562472  2769 layer_factory.hpp:77] Creating layer inception_4e/3x3
I0403 15:10:42.562494  2769 net.cpp:91] Creating Layer inception_4e/3x3
I0403 15:10:42.562525  2769 net.cpp:425] inception_4e/3x3 <- inception_4e/3x3_reduce
I0403 15:10:42.562547  2769 net.cpp:399] inception_4e/3x3 -> inception_4e/3x3
I0403 15:10:42.567742  2769 net.cpp:141] Setting up inception_4e/3x3
I0403 15:10:42.567785  2769 net.cpp:148] Top shape: 24 320 14 14 (1505280)
I0403 15:10:42.567802  2769 net.cpp:156] Memory required for data: 1230108192
I0403 15:10:42.567821  2769 layer_factory.hpp:77] Creating layer inception_4e/relu_3x3
I0403 15:10:42.567838  2769 net.cpp:91] Creating Layer inception_4e/relu_3x3
I0403 15:10:42.567854  2769 net.cpp:425] inception_4e/relu_3x3 <- inception_4e/3x3
I0403 15:10:42.567873  2769 net.cpp:386] inception_4e/relu_3x3 -> inception_4e/3x3 (in-place)
I0403 15:10:42.568176  2769 net.cpp:141] Setting up inception_4e/relu_3x3
I0403 15:10:42.568202  2769 net.cpp:148] Top shape: 24 320 14 14 (1505280)
I0403 15:10:42.568230  2769 net.cpp:156] Memory required for data: 1236129312
I0403 15:10:42.568245  2769 layer_factory.hpp:77] Creating layer inception_4e/5x5_reduce
I0403 15:10:42.568275  2769 net.cpp:91] Creating Layer inception_4e/5x5_reduce
I0403 15:10:42.568296  2769 net.cpp:425] inception_4e/5x5_reduce <- inception_4d/output_inception_4d/output_0_split_3
I0403 15:10:42.568318  2769 net.cpp:399] inception_4e/5x5_reduce -> inception_4e/5x5_reduce
I0403 15:10:42.569432  2769 net.cpp:141] Setting up inception_4e/5x5_reduce
I0403 15:10:42.569463  2769 net.cpp:148] Top shape: 24 32 14 14 (150528)
I0403 15:10:42.569479  2769 net.cpp:156] Memory required for data: 1236731424
I0403 15:10:42.569499  2769 layer_factory.hpp:77] Creating layer inception_4e/relu_5x5_reduce
I0403 15:10:42.569528  2769 net.cpp:91] Creating Layer inception_4e/relu_5x5_reduce
I0403 15:10:42.569545  2769 net.cpp:425] inception_4e/relu_5x5_reduce <- inception_4e/5x5_reduce
I0403 15:10:42.569561  2769 net.cpp:386] inception_4e/relu_5x5_reduce -> inception_4e/5x5_reduce (in-place)
I0403 15:10:42.569857  2769 net.cpp:141] Setting up inception_4e/relu_5x5_reduce
I0403 15:10:42.569885  2769 net.cpp:148] Top shape: 24 32 14 14 (150528)
I0403 15:10:42.569902  2769 net.cpp:156] Memory required for data: 1237333536
I0403 15:10:42.569917  2769 layer_factory.hpp:77] Creating layer inception_4e/5x5
I0403 15:10:42.569957  2769 net.cpp:91] Creating Layer inception_4e/5x5
I0403 15:10:42.569975  2769 net.cpp:425] inception_4e/5x5 <- inception_4e/5x5_reduce
I0403 15:10:42.569994  2769 net.cpp:399] inception_4e/5x5 -> inception_4e/5x5
I0403 15:10:42.571918  2769 net.cpp:141] Setting up inception_4e/5x5
I0403 15:10:42.571944  2769 net.cpp:148] Top shape: 24 128 14 14 (602112)
I0403 15:10:42.571960  2769 net.cpp:156] Memory required for data: 1239741984
I0403 15:10:42.571979  2769 layer_factory.hpp:77] Creating layer inception_4e/relu_5x5
I0403 15:10:42.572000  2769 net.cpp:91] Creating Layer inception_4e/relu_5x5
I0403 15:10:42.572016  2769 net.cpp:425] inception_4e/relu_5x5 <- inception_4e/5x5
I0403 15:10:42.572033  2769 net.cpp:386] inception_4e/relu_5x5 -> inception_4e/5x5 (in-place)
I0403 15:10:42.572242  2769 net.cpp:141] Setting up inception_4e/relu_5x5
I0403 15:10:42.572269  2769 net.cpp:148] Top shape: 24 128 14 14 (602112)
I0403 15:10:42.572299  2769 net.cpp:156] Memory required for data: 1242150432
I0403 15:10:42.572314  2769 layer_factory.hpp:77] Creating layer inception_4e/pool
I0403 15:10:42.572332  2769 net.cpp:91] Creating Layer inception_4e/pool
I0403 15:10:42.572348  2769 net.cpp:425] inception_4e/pool <- inception_4d/output_inception_4d/output_0_split_4
I0403 15:10:42.572368  2769 net.cpp:399] inception_4e/pool -> inception_4e/pool
I0403 15:10:42.572441  2769 net.cpp:141] Setting up inception_4e/pool
I0403 15:10:42.572466  2769 net.cpp:148] Top shape: 24 528 14 14 (2483712)
I0403 15:10:42.572481  2769 net.cpp:156] Memory required for data: 1252085280
I0403 15:10:42.572496  2769 layer_factory.hpp:77] Creating layer inception_4e/pool_proj
I0403 15:10:42.572531  2769 net.cpp:91] Creating Layer inception_4e/pool_proj
I0403 15:10:42.572548  2769 net.cpp:425] inception_4e/pool_proj <- inception_4e/pool
I0403 15:10:42.572569  2769 net.cpp:399] inception_4e/pool_proj -> inception_4e/pool_proj
I0403 15:10:42.574105  2769 net.cpp:141] Setting up inception_4e/pool_proj
I0403 15:10:42.574146  2769 net.cpp:148] Top shape: 24 128 14 14 (602112)
I0403 15:10:42.574162  2769 net.cpp:156] Memory required for data: 1254493728
I0403 15:10:42.574180  2769 layer_factory.hpp:77] Creating layer inception_4e/relu_pool_proj
I0403 15:10:42.574200  2769 net.cpp:91] Creating Layer inception_4e/relu_pool_proj
I0403 15:10:42.574218  2769 net.cpp:425] inception_4e/relu_pool_proj <- inception_4e/pool_proj
I0403 15:10:42.574247  2769 net.cpp:386] inception_4e/relu_pool_proj -> inception_4e/pool_proj (in-place)
I0403 15:10:42.574564  2769 net.cpp:141] Setting up inception_4e/relu_pool_proj
I0403 15:10:42.574590  2769 net.cpp:148] Top shape: 24 128 14 14 (602112)
I0403 15:10:42.574605  2769 net.cpp:156] Memory required for data: 1256902176
I0403 15:10:42.574620  2769 layer_factory.hpp:77] Creating layer inception_4e/output
I0403 15:10:42.574640  2769 net.cpp:91] Creating Layer inception_4e/output
I0403 15:10:42.574657  2769 net.cpp:425] inception_4e/output <- inception_4e/1x1
I0403 15:10:42.574673  2769 net.cpp:425] inception_4e/output <- inception_4e/3x3
I0403 15:10:42.574689  2769 net.cpp:425] inception_4e/output <- inception_4e/5x5
I0403 15:10:42.574705  2769 net.cpp:425] inception_4e/output <- inception_4e/pool_proj
I0403 15:10:42.574723  2769 net.cpp:399] inception_4e/output -> inception_4e/output
I0403 15:10:42.574774  2769 net.cpp:141] Setting up inception_4e/output
I0403 15:10:42.574798  2769 net.cpp:148] Top shape: 24 832 14 14 (3913728)
I0403 15:10:42.574812  2769 net.cpp:156] Memory required for data: 1272557088
I0403 15:10:42.574827  2769 layer_factory.hpp:77] Creating layer pool4/3x3_s2
I0403 15:10:42.574844  2769 net.cpp:91] Creating Layer pool4/3x3_s2
I0403 15:10:42.574859  2769 net.cpp:425] pool4/3x3_s2 <- inception_4e/output
I0403 15:10:42.574880  2769 net.cpp:399] pool4/3x3_s2 -> pool4/3x3_s2
I0403 15:10:42.574949  2769 net.cpp:141] Setting up pool4/3x3_s2
I0403 15:10:42.574976  2769 net.cpp:148] Top shape: 24 832 7 7 (978432)
I0403 15:10:42.574991  2769 net.cpp:156] Memory required for data: 1276470816
I0403 15:10:42.575006  2769 layer_factory.hpp:77] Creating layer pool4/3x3_s2_pool4/3x3_s2_0_split
I0403 15:10:42.575023  2769 net.cpp:91] Creating Layer pool4/3x3_s2_pool4/3x3_s2_0_split
I0403 15:10:42.575038  2769 net.cpp:425] pool4/3x3_s2_pool4/3x3_s2_0_split <- pool4/3x3_s2
I0403 15:10:42.575054  2769 net.cpp:399] pool4/3x3_s2_pool4/3x3_s2_0_split -> pool4/3x3_s2_pool4/3x3_s2_0_split_0
I0403 15:10:42.575078  2769 net.cpp:399] pool4/3x3_s2_pool4/3x3_s2_0_split -> pool4/3x3_s2_pool4/3x3_s2_0_split_1
I0403 15:10:42.575098  2769 net.cpp:399] pool4/3x3_s2_pool4/3x3_s2_0_split -> pool4/3x3_s2_pool4/3x3_s2_0_split_2
I0403 15:10:42.575119  2769 net.cpp:399] pool4/3x3_s2_pool4/3x3_s2_0_split -> pool4/3x3_s2_pool4/3x3_s2_0_split_3
I0403 15:10:42.575209  2769 net.cpp:141] Setting up pool4/3x3_s2_pool4/3x3_s2_0_split
I0403 15:10:42.575244  2769 net.cpp:148] Top shape: 24 832 7 7 (978432)
I0403 15:10:42.575261  2769 net.cpp:148] Top shape: 24 832 7 7 (978432)
I0403 15:10:42.575283  2769 net.cpp:148] Top shape: 24 832 7 7 (978432)
I0403 15:10:42.575299  2769 net.cpp:148] Top shape: 24 832 7 7 (978432)
I0403 15:10:42.575314  2769 net.cpp:156] Memory required for data: 1292125728
I0403 15:10:42.575328  2769 layer_factory.hpp:77] Creating layer inception_5a/1x1
I0403 15:10:42.575350  2769 net.cpp:91] Creating Layer inception_5a/1x1
I0403 15:10:42.575371  2769 net.cpp:425] inception_5a/1x1 <- pool4/3x3_s2_pool4/3x3_s2_0_split_0
I0403 15:10:42.575389  2769 net.cpp:399] inception_5a/1x1 -> inception_5a/1x1
I0403 15:10:42.578438  2769 net.cpp:141] Setting up inception_5a/1x1
I0403 15:10:42.578469  2769 net.cpp:148] Top shape: 24 256 7 7 (301056)
I0403 15:10:42.578485  2769 net.cpp:156] Memory required for data: 1293329952
I0403 15:10:42.578505  2769 layer_factory.hpp:77] Creating layer inception_5a/relu_1x1
I0403 15:10:42.578524  2769 net.cpp:91] Creating Layer inception_5a/relu_1x1
I0403 15:10:42.578542  2769 net.cpp:425] inception_5a/relu_1x1 <- inception_5a/1x1
I0403 15:10:42.578559  2769 net.cpp:386] inception_5a/relu_1x1 -> inception_5a/1x1 (in-place)
I0403 15:10:42.578878  2769 net.cpp:141] Setting up inception_5a/relu_1x1
I0403 15:10:42.578905  2769 net.cpp:148] Top shape: 24 256 7 7 (301056)
I0403 15:10:42.578920  2769 net.cpp:156] Memory required for data: 1294534176
I0403 15:10:42.578936  2769 layer_factory.hpp:77] Creating layer inception_5a/3x3_reduce
I0403 15:10:42.578960  2769 net.cpp:91] Creating Layer inception_5a/3x3_reduce
I0403 15:10:42.578979  2769 net.cpp:425] inception_5a/3x3_reduce <- pool4/3x3_s2_pool4/3x3_s2_0_split_1
I0403 15:10:42.578999  2769 net.cpp:399] inception_5a/3x3_reduce -> inception_5a/3x3_reduce
I0403 15:10:42.581559  2769 net.cpp:141] Setting up inception_5a/3x3_reduce
I0403 15:10:42.581589  2769 net.cpp:148] Top shape: 24 160 7 7 (188160)
I0403 15:10:42.581605  2769 net.cpp:156] Memory required for data: 1295286816
I0403 15:10:42.581624  2769 layer_factory.hpp:77] Creating layer inception_5a/relu_3x3_reduce
I0403 15:10:42.581645  2769 net.cpp:91] Creating Layer inception_5a/relu_3x3_reduce
I0403 15:10:42.581662  2769 net.cpp:425] inception_5a/relu_3x3_reduce <- inception_5a/3x3_reduce
I0403 15:10:42.581681  2769 net.cpp:386] inception_5a/relu_3x3_reduce -> inception_5a/3x3_reduce (in-place)
I0403 15:10:42.581873  2769 net.cpp:141] Setting up inception_5a/relu_3x3_reduce
I0403 15:10:42.581899  2769 net.cpp:148] Top shape: 24 160 7 7 (188160)
I0403 15:10:42.581914  2769 net.cpp:156] Memory required for data: 1296039456
I0403 15:10:42.581929  2769 layer_factory.hpp:77] Creating layer inception_5a/3x3
I0403 15:10:42.581954  2769 net.cpp:91] Creating Layer inception_5a/3x3
I0403 15:10:42.581974  2769 net.cpp:425] inception_5a/3x3 <- inception_5a/3x3_reduce
I0403 15:10:42.581992  2769 net.cpp:399] inception_5a/3x3 -> inception_5a/3x3
I0403 15:10:42.587193  2769 net.cpp:141] Setting up inception_5a/3x3
I0403 15:10:42.587226  2769 net.cpp:148] Top shape: 24 320 7 7 (376320)
I0403 15:10:42.587244  2769 net.cpp:156] Memory required for data: 1297544736
I0403 15:10:42.587263  2769 layer_factory.hpp:77] Creating layer inception_5a/relu_3x3
I0403 15:10:42.587286  2769 net.cpp:91] Creating Layer inception_5a/relu_3x3
I0403 15:10:42.587304  2769 net.cpp:425] inception_5a/relu_3x3 <- inception_5a/3x3
I0403 15:10:42.587322  2769 net.cpp:386] inception_5a/relu_3x3 -> inception_5a/3x3 (in-place)
I0403 15:10:42.587625  2769 net.cpp:141] Setting up inception_5a/relu_3x3
I0403 15:10:42.587654  2769 net.cpp:148] Top shape: 24 320 7 7 (376320)
I0403 15:10:42.587671  2769 net.cpp:156] Memory required for data: 1299050016
I0403 15:10:42.587687  2769 layer_factory.hpp:77] Creating layer inception_5a/5x5_reduce
I0403 15:10:42.587707  2769 net.cpp:91] Creating Layer inception_5a/5x5_reduce
I0403 15:10:42.587723  2769 net.cpp:425] inception_5a/5x5_reduce <- pool4/3x3_s2_pool4/3x3_s2_0_split_2
I0403 15:10:42.587745  2769 net.cpp:399] inception_5a/5x5_reduce -> inception_5a/5x5_reduce
I0403 15:10:42.588958  2769 net.cpp:141] Setting up inception_5a/5x5_reduce
I0403 15:10:42.588990  2769 net.cpp:148] Top shape: 24 32 7 7 (37632)
I0403 15:10:42.589007  2769 net.cpp:156] Memory required for data: 1299200544
I0403 15:10:42.589026  2769 layer_factory.hpp:77] Creating layer inception_5a/relu_5x5_reduce
I0403 15:10:42.589046  2769 net.cpp:91] Creating Layer inception_5a/relu_5x5_reduce
I0403 15:10:42.589061  2769 net.cpp:425] inception_5a/relu_5x5_reduce <- inception_5a/5x5_reduce
I0403 15:10:42.589082  2769 net.cpp:386] inception_5a/relu_5x5_reduce -> inception_5a/5x5_reduce (in-place)
I0403 15:10:42.589391  2769 net.cpp:141] Setting up inception_5a/relu_5x5_reduce
I0403 15:10:42.589422  2769 net.cpp:148] Top shape: 24 32 7 7 (37632)
I0403 15:10:42.589439  2769 net.cpp:156] Memory required for data: 1299351072
I0403 15:10:42.589454  2769 layer_factory.hpp:77] Creating layer inception_5a/5x5
I0403 15:10:42.589478  2769 net.cpp:91] Creating Layer inception_5a/5x5
I0403 15:10:42.589494  2769 net.cpp:425] inception_5a/5x5 <- inception_5a/5x5_reduce
I0403 15:10:42.589514  2769 net.cpp:399] inception_5a/5x5 -> inception_5a/5x5
I0403 15:10:42.591347  2769 net.cpp:141] Setting up inception_5a/5x5
I0403 15:10:42.591393  2769 net.cpp:148] Top shape: 24 128 7 7 (150528)
I0403 15:10:42.591410  2769 net.cpp:156] Memory required for data: 1299953184
I0403 15:10:42.591430  2769 layer_factory.hpp:77] Creating layer inception_5a/relu_5x5
I0403 15:10:42.591449  2769 net.cpp:91] Creating Layer inception_5a/relu_5x5
I0403 15:10:42.591467  2769 net.cpp:425] inception_5a/relu_5x5 <- inception_5a/5x5
I0403 15:10:42.591485  2769 net.cpp:386] inception_5a/relu_5x5 -> inception_5a/5x5 (in-place)
I0403 15:10:42.591691  2769 net.cpp:141] Setting up inception_5a/relu_5x5
I0403 15:10:42.591719  2769 net.cpp:148] Top shape: 24 128 7 7 (150528)
I0403 15:10:42.591737  2769 net.cpp:156] Memory required for data: 1300555296
I0403 15:10:42.591752  2769 layer_factory.hpp:77] Creating layer inception_5a/pool
I0403 15:10:42.591770  2769 net.cpp:91] Creating Layer inception_5a/pool
I0403 15:10:42.591787  2769 net.cpp:425] inception_5a/pool <- pool4/3x3_s2_pool4/3x3_s2_0_split_3
I0403 15:10:42.591809  2769 net.cpp:399] inception_5a/pool -> inception_5a/pool
I0403 15:10:42.591884  2769 net.cpp:141] Setting up inception_5a/pool
I0403 15:10:42.591912  2769 net.cpp:148] Top shape: 24 832 7 7 (978432)
I0403 15:10:42.591928  2769 net.cpp:156] Memory required for data: 1304469024
I0403 15:10:42.591944  2769 layer_factory.hpp:77] Creating layer inception_5a/pool_proj
I0403 15:10:42.591965  2769 net.cpp:91] Creating Layer inception_5a/pool_proj
I0403 15:10:42.591982  2769 net.cpp:425] inception_5a/pool_proj <- inception_5a/pool
I0403 15:10:42.592005  2769 net.cpp:399] inception_5a/pool_proj -> inception_5a/pool_proj
I0403 15:10:42.594449  2769 net.cpp:141] Setting up inception_5a/pool_proj
I0403 15:10:42.594480  2769 net.cpp:148] Top shape: 24 128 7 7 (150528)
I0403 15:10:42.594497  2769 net.cpp:156] Memory required for data: 1305071136
I0403 15:10:42.594517  2769 layer_factory.hpp:77] Creating layer inception_5a/relu_pool_proj
I0403 15:10:42.594540  2769 net.cpp:91] Creating Layer inception_5a/relu_pool_proj
I0403 15:10:42.594558  2769 net.cpp:425] inception_5a/relu_pool_proj <- inception_5a/pool_proj
I0403 15:10:42.594576  2769 net.cpp:386] inception_5a/relu_pool_proj -> inception_5a/pool_proj (in-place)
I0403 15:10:42.594902  2769 net.cpp:141] Setting up inception_5a/relu_pool_proj
I0403 15:10:42.594929  2769 net.cpp:148] Top shape: 24 128 7 7 (150528)
I0403 15:10:42.594944  2769 net.cpp:156] Memory required for data: 1305673248
I0403 15:10:42.594959  2769 layer_factory.hpp:77] Creating layer inception_5a/output
I0403 15:10:42.594980  2769 net.cpp:91] Creating Layer inception_5a/output
I0403 15:10:42.594997  2769 net.cpp:425] inception_5a/output <- inception_5a/1x1
I0403 15:10:42.595016  2769 net.cpp:425] inception_5a/output <- inception_5a/3x3
I0403 15:10:42.595032  2769 net.cpp:425] inception_5a/output <- inception_5a/5x5
I0403 15:10:42.595048  2769 net.cpp:425] inception_5a/output <- inception_5a/pool_proj
I0403 15:10:42.595067  2769 net.cpp:399] inception_5a/output -> inception_5a/output
I0403 15:10:42.595119  2769 net.cpp:141] Setting up inception_5a/output
I0403 15:10:42.595144  2769 net.cpp:148] Top shape: 24 832 7 7 (978432)
I0403 15:10:42.595158  2769 net.cpp:156] Memory required for data: 1309586976
I0403 15:10:42.595173  2769 layer_factory.hpp:77] Creating layer inception_5a/output_inception_5a/output_0_split
I0403 15:10:42.595193  2769 net.cpp:91] Creating Layer inception_5a/output_inception_5a/output_0_split
I0403 15:10:42.595209  2769 net.cpp:425] inception_5a/output_inception_5a/output_0_split <- inception_5a/output
I0403 15:10:42.595229  2769 net.cpp:399] inception_5a/output_inception_5a/output_0_split -> inception_5a/output_inception_5a/output_0_split_0
I0403 15:10:42.595252  2769 net.cpp:399] inception_5a/output_inception_5a/output_0_split -> inception_5a/output_inception_5a/output_0_split_1
I0403 15:10:42.595275  2769 net.cpp:399] inception_5a/output_inception_5a/output_0_split -> inception_5a/output_inception_5a/output_0_split_2
I0403 15:10:42.595299  2769 net.cpp:399] inception_5a/output_inception_5a/output_0_split -> inception_5a/output_inception_5a/output_0_split_3
I0403 15:10:42.595417  2769 net.cpp:141] Setting up inception_5a/output_inception_5a/output_0_split
I0403 15:10:42.595443  2769 net.cpp:148] Top shape: 24 832 7 7 (978432)
I0403 15:10:42.595461  2769 net.cpp:148] Top shape: 24 832 7 7 (978432)
I0403 15:10:42.595479  2769 net.cpp:148] Top shape: 24 832 7 7 (978432)
I0403 15:10:42.595494  2769 net.cpp:148] Top shape: 24 832 7 7 (978432)
I0403 15:10:42.595509  2769 net.cpp:156] Memory required for data: 1325241888
I0403 15:10:42.595523  2769 layer_factory.hpp:77] Creating layer inception_5b/1x1
I0403 15:10:42.595546  2769 net.cpp:91] Creating Layer inception_5b/1x1
I0403 15:10:42.595564  2769 net.cpp:425] inception_5b/1x1 <- inception_5a/output_inception_5a/output_0_split_0
I0403 15:10:42.595583  2769 net.cpp:399] inception_5b/1x1 -> inception_5b/1x1
I0403 15:10:42.599490  2769 net.cpp:141] Setting up inception_5b/1x1
I0403 15:10:42.599522  2769 net.cpp:148] Top shape: 24 384 7 7 (451584)
I0403 15:10:42.599539  2769 net.cpp:156] Memory required for data: 1327048224
I0403 15:10:42.599557  2769 layer_factory.hpp:77] Creating layer inception_5b/relu_1x1
I0403 15:10:42.599577  2769 net.cpp:91] Creating Layer inception_5b/relu_1x1
I0403 15:10:42.599596  2769 net.cpp:425] inception_5b/relu_1x1 <- inception_5b/1x1
I0403 15:10:42.599613  2769 net.cpp:386] inception_5b/relu_1x1 -> inception_5b/1x1 (in-place)
I0403 15:10:42.599927  2769 net.cpp:141] Setting up inception_5b/relu_1x1
I0403 15:10:42.599953  2769 net.cpp:148] Top shape: 24 384 7 7 (451584)
I0403 15:10:42.599969  2769 net.cpp:156] Memory required for data: 1328854560
I0403 15:10:42.599983  2769 layer_factory.hpp:77] Creating layer inception_5b/3x3_reduce
I0403 15:10:42.600006  2769 net.cpp:91] Creating Layer inception_5b/3x3_reduce
I0403 15:10:42.600024  2769 net.cpp:425] inception_5b/3x3_reduce <- inception_5a/output_inception_5a/output_0_split_1
I0403 15:10:42.600046  2769 net.cpp:399] inception_5b/3x3_reduce -> inception_5b/3x3_reduce
I0403 15:10:42.602772  2769 net.cpp:141] Setting up inception_5b/3x3_reduce
I0403 15:10:42.602802  2769 net.cpp:148] Top shape: 24 192 7 7 (225792)
I0403 15:10:42.602818  2769 net.cpp:156] Memory required for data: 1329757728
I0403 15:10:42.602836  2769 layer_factory.hpp:77] Creating layer inception_5b/relu_3x3_reduce
I0403 15:10:42.602856  2769 net.cpp:91] Creating Layer inception_5b/relu_3x3_reduce
I0403 15:10:42.602872  2769 net.cpp:425] inception_5b/relu_3x3_reduce <- inception_5b/3x3_reduce
I0403 15:10:42.602890  2769 net.cpp:386] inception_5b/relu_3x3_reduce -> inception_5b/3x3_reduce (in-place)
I0403 15:10:42.603081  2769 net.cpp:141] Setting up inception_5b/relu_3x3_reduce
I0403 15:10:42.603108  2769 net.cpp:148] Top shape: 24 192 7 7 (225792)
I0403 15:10:42.603123  2769 net.cpp:156] Memory required for data: 1330660896
I0403 15:10:42.603138  2769 layer_factory.hpp:77] Creating layer inception_5b/3x3
I0403 15:10:42.603160  2769 net.cpp:91] Creating Layer inception_5b/3x3
I0403 15:10:42.603178  2769 net.cpp:425] inception_5b/3x3 <- inception_5b/3x3_reduce
I0403 15:10:42.603198  2769 net.cpp:399] inception_5b/3x3 -> inception_5b/3x3
I0403 15:10:42.609925  2769 net.cpp:141] Setting up inception_5b/3x3
I0403 15:10:42.609952  2769 net.cpp:148] Top shape: 24 384 7 7 (451584)
I0403 15:10:42.609968  2769 net.cpp:156] Memory required for data: 1332467232
I0403 15:10:42.609987  2769 layer_factory.hpp:77] Creating layer inception_5b/relu_3x3
I0403 15:10:42.610008  2769 net.cpp:91] Creating Layer inception_5b/relu_3x3
I0403 15:10:42.610024  2769 net.cpp:425] inception_5b/relu_3x3 <- inception_5b/3x3
I0403 15:10:42.610043  2769 net.cpp:386] inception_5b/relu_3x3 -> inception_5b/3x3 (in-place)
I0403 15:10:42.610355  2769 net.cpp:141] Setting up inception_5b/relu_3x3
I0403 15:10:42.610381  2769 net.cpp:148] Top shape: 24 384 7 7 (451584)
I0403 15:10:42.610396  2769 net.cpp:156] Memory required for data: 1334273568
I0403 15:10:42.610411  2769 layer_factory.hpp:77] Creating layer inception_5b/5x5_reduce
I0403 15:10:42.610450  2769 net.cpp:91] Creating Layer inception_5b/5x5_reduce
I0403 15:10:42.610468  2769 net.cpp:425] inception_5b/5x5_reduce <- inception_5a/output_inception_5a/output_0_split_2
I0403 15:10:42.610491  2769 net.cpp:399] inception_5b/5x5_reduce -> inception_5b/5x5_reduce
I0403 15:10:42.611778  2769 net.cpp:141] Setting up inception_5b/5x5_reduce
I0403 15:10:42.611805  2769 net.cpp:148] Top shape: 24 48 7 7 (56448)
I0403 15:10:42.611820  2769 net.cpp:156] Memory required for data: 1334499360
I0403 15:10:42.611837  2769 layer_factory.hpp:77] Creating layer inception_5b/relu_5x5_reduce
I0403 15:10:42.611858  2769 net.cpp:91] Creating Layer inception_5b/relu_5x5_reduce
I0403 15:10:42.611876  2769 net.cpp:425] inception_5b/relu_5x5_reduce <- inception_5b/5x5_reduce
I0403 15:10:42.611893  2769 net.cpp:386] inception_5b/relu_5x5_reduce -> inception_5b/5x5_reduce (in-place)
I0403 15:10:42.612283  2769 net.cpp:141] Setting up inception_5b/relu_5x5_reduce
I0403 15:10:42.612309  2769 net.cpp:148] Top shape: 24 48 7 7 (56448)
I0403 15:10:42.612325  2769 net.cpp:156] Memory required for data: 1334725152
I0403 15:10:42.612340  2769 layer_factory.hpp:77] Creating layer inception_5b/5x5
I0403 15:10:42.612360  2769 net.cpp:91] Creating Layer inception_5b/5x5
I0403 15:10:42.612377  2769 net.cpp:425] inception_5b/5x5 <- inception_5b/5x5_reduce
I0403 15:10:42.612396  2769 net.cpp:399] inception_5b/5x5 -> inception_5b/5x5
I0403 15:10:42.614506  2769 net.cpp:141] Setting up inception_5b/5x5
I0403 15:10:42.614536  2769 net.cpp:148] Top shape: 24 128 7 7 (150528)
I0403 15:10:42.614552  2769 net.cpp:156] Memory required for data: 1335327264
I0403 15:10:42.614570  2769 layer_factory.hpp:77] Creating layer inception_5b/relu_5x5
I0403 15:10:42.614591  2769 net.cpp:91] Creating Layer inception_5b/relu_5x5
I0403 15:10:42.614609  2769 net.cpp:425] inception_5b/relu_5x5 <- inception_5b/5x5
I0403 15:10:42.614626  2769 net.cpp:386] inception_5b/relu_5x5 -> inception_5b/5x5 (in-place)
I0403 15:10:42.614830  2769 net.cpp:141] Setting up inception_5b/relu_5x5
I0403 15:10:42.614855  2769 net.cpp:148] Top shape: 24 128 7 7 (150528)
I0403 15:10:42.614871  2769 net.cpp:156] Memory required for data: 1335929376
I0403 15:10:42.614886  2769 layer_factory.hpp:77] Creating layer inception_5b/pool
I0403 15:10:42.614903  2769 net.cpp:91] Creating Layer inception_5b/pool
I0403 15:10:42.614919  2769 net.cpp:425] inception_5b/pool <- inception_5a/output_inception_5a/output_0_split_3
I0403 15:10:42.614940  2769 net.cpp:399] inception_5b/pool -> inception_5b/pool
I0403 15:10:42.615016  2769 net.cpp:141] Setting up inception_5b/pool
I0403 15:10:42.615041  2769 net.cpp:148] Top shape: 24 832 7 7 (978432)
I0403 15:10:42.615056  2769 net.cpp:156] Memory required for data: 1339843104
I0403 15:10:42.615070  2769 layer_factory.hpp:77] Creating layer inception_5b/pool_proj
I0403 15:10:42.615094  2769 net.cpp:91] Creating Layer inception_5b/pool_proj
I0403 15:10:42.615125  2769 net.cpp:425] inception_5b/pool_proj <- inception_5b/pool
I0403 15:10:42.615144  2769 net.cpp:399] inception_5b/pool_proj -> inception_5b/pool_proj
I0403 15:10:42.617465  2769 net.cpp:141] Setting up inception_5b/pool_proj
I0403 15:10:42.617494  2769 net.cpp:148] Top shape: 24 128 7 7 (150528)
I0403 15:10:42.617511  2769 net.cpp:156] Memory required for data: 1340445216
I0403 15:10:42.617528  2769 layer_factory.hpp:77] Creating layer inception_5b/relu_pool_proj
I0403 15:10:42.617549  2769 net.cpp:91] Creating Layer inception_5b/relu_pool_proj
I0403 15:10:42.617566  2769 net.cpp:425] inception_5b/relu_pool_proj <- inception_5b/pool_proj
I0403 15:10:42.617583  2769 net.cpp:386] inception_5b/relu_pool_proj -> inception_5b/pool_proj (in-place)
I0403 15:10:42.617883  2769 net.cpp:141] Setting up inception_5b/relu_pool_proj
I0403 15:10:42.617909  2769 net.cpp:148] Top shape: 24 128 7 7 (150528)
I0403 15:10:42.617925  2769 net.cpp:156] Memory required for data: 1341047328
I0403 15:10:42.617939  2769 layer_factory.hpp:77] Creating layer inception_5b/output
I0403 15:10:42.617959  2769 net.cpp:91] Creating Layer inception_5b/output
I0403 15:10:42.617990  2769 net.cpp:425] inception_5b/output <- inception_5b/1x1
I0403 15:10:42.618007  2769 net.cpp:425] inception_5b/output <- inception_5b/3x3
I0403 15:10:42.618023  2769 net.cpp:425] inception_5b/output <- inception_5b/5x5
I0403 15:10:42.618038  2769 net.cpp:425] inception_5b/output <- inception_5b/pool_proj
I0403 15:10:42.618055  2769 net.cpp:399] inception_5b/output -> inception_5b/output
I0403 15:10:42.618108  2769 net.cpp:141] Setting up inception_5b/output
I0403 15:10:42.618132  2769 net.cpp:148] Top shape: 24 1024 7 7 (1204224)
I0403 15:10:42.618146  2769 net.cpp:156] Memory required for data: 1345864224
I0403 15:10:42.618161  2769 layer_factory.hpp:77] Creating layer pool5/7x7_s1
I0403 15:10:42.618178  2769 net.cpp:91] Creating Layer pool5/7x7_s1
I0403 15:10:42.618194  2769 net.cpp:425] pool5/7x7_s1 <- inception_5b/output
I0403 15:10:42.618218  2769 net.cpp:399] pool5/7x7_s1 -> pool5/7x7_s1
I0403 15:10:42.618439  2769 net.cpp:141] Setting up pool5/7x7_s1
I0403 15:10:42.618479  2769 net.cpp:148] Top shape: 24 1024 1 1 (24576)
I0403 15:10:42.618495  2769 net.cpp:156] Memory required for data: 1345962528
I0403 15:10:42.618510  2769 layer_factory.hpp:77] Creating layer pool5/drop_7x7_s1
I0403 15:10:42.618526  2769 net.cpp:91] Creating Layer pool5/drop_7x7_s1
I0403 15:10:42.618542  2769 net.cpp:425] pool5/drop_7x7_s1 <- pool5/7x7_s1
I0403 15:10:42.618558  2769 net.cpp:386] pool5/drop_7x7_s1 -> pool5/7x7_s1 (in-place)
I0403 15:10:42.618609  2769 net.cpp:141] Setting up pool5/drop_7x7_s1
I0403 15:10:42.618631  2769 net.cpp:148] Top shape: 24 1024 1 1 (24576)
I0403 15:10:42.618644  2769 net.cpp:156] Memory required for data: 1346060832
I0403 15:10:42.618659  2769 layer_factory.hpp:77] Creating layer loss3/classifier_plantvillage
I0403 15:10:42.618680  2769 net.cpp:91] Creating Layer loss3/classifier_plantvillage
I0403 15:10:42.618695  2769 net.cpp:425] loss3/classifier_plantvillage <- pool5/7x7_s1
I0403 15:10:42.618713  2769 net.cpp:399] loss3/classifier_plantvillage -> loss3/classifier_plantvillage
I0403 15:10:42.619129  2769 net.cpp:141] Setting up loss3/classifier_plantvillage
I0403 15:10:42.619153  2769 net.cpp:148] Top shape: 24 38 (912)
I0403 15:10:42.619168  2769 net.cpp:156] Memory required for data: 1346064480
I0403 15:10:42.619186  2769 layer_factory.hpp:77] Creating layer loss3/classifier_plantvillage_loss3/classifier_plantvillage_0_split
I0403 15:10:42.619204  2769 net.cpp:91] Creating Layer loss3/classifier_plantvillage_loss3/classifier_plantvillage_0_split
I0403 15:10:42.619220  2769 net.cpp:425] loss3/classifier_plantvillage_loss3/classifier_plantvillage_0_split <- loss3/classifier_plantvillage
I0403 15:10:42.619240  2769 net.cpp:399] loss3/classifier_plantvillage_loss3/classifier_plantvillage_0_split -> loss3/classifier_plantvillage_loss3/classifier_plantvillage_0_split_0
I0403 15:10:42.619261  2769 net.cpp:399] loss3/classifier_plantvillage_loss3/classifier_plantvillage_0_split -> loss3/classifier_plantvillage_loss3/classifier_plantvillage_0_split_1
I0403 15:10:42.619285  2769 net.cpp:399] loss3/classifier_plantvillage_loss3/classifier_plantvillage_0_split -> loss3/classifier_plantvillage_loss3/classifier_plantvillage_0_split_2
I0403 15:10:42.619307  2769 net.cpp:399] loss3/classifier_plantvillage_loss3/classifier_plantvillage_0_split -> loss3/classifier_plantvillage_loss3/classifier_plantvillage_0_split_3
I0403 15:10:42.619406  2769 net.cpp:141] Setting up loss3/classifier_plantvillage_loss3/classifier_plantvillage_0_split
I0403 15:10:42.619431  2769 net.cpp:148] Top shape: 24 38 (912)
I0403 15:10:42.619447  2769 net.cpp:148] Top shape: 24 38 (912)
I0403 15:10:42.619463  2769 net.cpp:148] Top shape: 24 38 (912)
I0403 15:10:42.619477  2769 net.cpp:148] Top shape: 24 38 (912)
I0403 15:10:42.619490  2769 net.cpp:156] Memory required for data: 1346079072
I0403 15:10:42.619503  2769 layer_factory.hpp:77] Creating layer loss1/loss
I0403 15:10:42.619524  2769 net.cpp:91] Creating Layer loss1/loss
I0403 15:10:42.619541  2769 net.cpp:425] loss1/loss <- loss1/classifier_plantvillage_loss1/classifier_plantvillage_0_split_0
I0403 15:10:42.619571  2769 net.cpp:425] loss1/loss <- label_data_1_split_0
…
