…
I0403 15:28:17.405633  3120 net.cpp:313] The NetState phase (1) differed from the phase (0) specified by a rule in layer data
I0403 15:28:17.406828  3120 net.cpp:49] Initializing net from parameters: 
state {
  phase: TEST
}
layer {
  name: "data"
  type: "Data"
  top: "data"
  top: "label"
  include {
    phase: TEST
  }
  transform_param {
    mirror: false
    crop_size: 224
    mean_file: "/home/mohanty/data/final_dataset/lmdb/grayscale-50-50/mean.binaryproto"
  }
  data_param {
    source: "/home/mohanty/data/final_dataset/lmdb/grayscale-50-50/test_db"
    batch_size: 24
    backend: LMDB
  }
}
layer {
  name: "conv1/7x7_s2"
  type: "Convolution"
  bottom: "data"
  top: "conv1/7x7_s2"
  param {
    lr_mult: 1
    decay_mult: 1
  }
  param {
    lr_mult: 2
    decay_mult: 0
  }
  convolution_param {
    num_output: 64
    pad: 3
    kernel_size: 7
    stride: 2
    weight_filler {
      type: "xavier"
      std: 0.1
    }
    bias_filler {
      type: "constant"
      value: 0.2
    }
  }
}
layer {
  name: "conv1/relu_7x7"
  type: "ReLU"
  bottom: "conv1/7x7_s2"
  top: "conv1/7x7_s2"
}
layer {
  name: "pool1/3x3_s2"
  type: "Pooling"
  bottom: "conv1/7x7_s2"
  top: "pool1/3x3_s2"
  pooling_param {
    pool: MAX
    kernel_size: 3
    stride: 2
  }
}
layer {
  name: "pool1/norm1"
  type: "LRN"
  bottom: "pool1/3x3_s2"
  top: "pool1/norm1"
  lrn_param {
    local_size: 5
    alpha: 0.0001
    beta: 0.75
  }
}
layer {
  name: "conv2/3x3_reduce"
  type: "Convolution"
  bottom: "pool1/norm1"
  top: "conv2/3x3_reduce"
  param {
    lr_mult: 1
    decay_mult: 1
  }
  param {
    lr_mult: 2
    decay_mult: 0
  }
  convolution_param {
    num_output: 64
    kernel_size: 1
    weight_filler {
      type: "xavier"
      std: 0.1
    }
    bias_filler {
      type: "constant"
      value: 0.2
    }
  }
}
layer {
  name: "conv2/relu_3x3_reduce"
  type: "ReLU"
  bottom: "conv2/3x3_reduce"
  top: "conv2/3x3_reduce"
}
layer {
  name: "conv2/3x3"
  type: "Convolution"
  bottom: "conv2/3x3_reduce"
  top: "conv2/3x3"
  param {
    lr_mult: 1
    decay_mult: 1
  }
  param {
    lr_mult: 2
    decay_mult: 0
  }
  convolution_param {
    num_output: 192
    pad: 1
    kernel_size: 3
    weight_filler {
      type: "xavier"
      std: 0.03
    }
    bias_filler {
      type: "constant"
      value: 0.2
    }
  }
}
layer {
  name: "conv2/relu_3x3"
  type: "ReLU"
  bottom: "conv2/3x3"
  top: "conv2/3x3"
}
layer {
  name: "conv2/norm2"
  type: "LRN"
  bottom: "conv2/3x3"
  top: "conv2/norm2"
  lrn_param {
    local_size: 5
    alpha: 0.0001
    beta: 0.75
  }
}
layer {
  name: "pool2/3x3_s2"
  type: "Pooling"
  bottom: "conv2/norm2"
  top: "pool2/3x3_s2"
  pooling_param {
    pool: MAX
    kernel_size: 3
    stride: 2
  }
}
layer {
  name: "inception_3a/1x1"
  type: "Convolution"
  bottom: "pool2/3x3_s2"
  top: "inception_3a/1x1"
  param {
    lr_mult: 1
    decay_mult: 1
  }
  param {
    lr_mult: 2
    decay_mult: 0
  }
  convolution_param {
    num_output: 64
    kernel_size: 1
    weight_filler {
      type: "xavier"
      std: 0.03
    }
    bias_filler {
      type: "constant"
      value: 0.2
    }
  }
}
layer {
  name: "inception_3a/relu_1x1"
  type: "ReLU"
  bottom: "inception_3a/1x1"
  top: "inception_3a/1x1"
}
layer {
  name: "inception_3a/3x3_reduce"
  type: "Convolution"
  bottom: "pool2/3x3_s2"
  top: "inception_3a/3x3_reduce"
  param {
    lr_mult: 1
    decay_mult: 1
  }
  param {
    lr_mult: 2
    decay_mult: 0
  }
  convolution_param {
    num_output: 96
    kernel_size: 1
    weight_filler {
      type: "xavier"
      std: 0.09
    }
    bias_filler {
      type: "constant"
      value: 0.2
    }
  }
}
layer {
  name: "inception_3a/relu_3x3_reduce"
  type: "ReLU"
  bottom: "inception_3a/3x3_reduce"
  top: "inception_3a/3x3_reduce"
}
layer {
  name: "inception_3a/3x3"
  type: "Convolution"
  bottom: "inception_3a/3x3_reduce"
  top: "inception_3a/3x3"
  param {
    lr_mult: 1
    decay_mult: 1
  }
  param {
    lr_mult: 2
    decay_mult: 0
  }
  convolution_param {
    num_output: 128
    pad: 1
    kernel_size: 3
    weight_filler {
      type: "xavier"
      std: 0.03
    }
    bias_filler {
      type: "constant"
      value: 0.2
    }
  }
}
layer {
  name: "inception_3a/relu_3x3"
  type: "ReLU"
  bottom: "inception_3a/3x3"
  top: "inception_3a/3x3"
}
layer {
  name: "inception_3a/5x5_reduce"
  type: "Convolution"
  bottom: "pool2/3x3_s2"
  top: "inception_3a/5x5_reduce"
  param {
    lr_mult: 1
    decay_mult: 1
  }
  param {
    lr_mult: 2
    decay_mult: 0
  }
  convolution_param {
    num_output: 16
    kernel_size: 1
    weight_filler {
      type: "xavier"
      std: 0.2
    }
    bias_filler {
      type: "constant"
      value: 0.2
    }
  }
}
layer {
  name: "inception_3a/relu_5x5_reduce"
  type: "ReLU"
  bottom: "inception_3a/5x5_reduce"
  top: "inception_3a/5x5_reduce"
}
layer {
  name: "inception_3a/5x5"
  type: "Convolution"
  bottom: "inception_3a/5x5_reduce"
  top: "inception_3a/5x5"
  param {
    lr_mult: 1
    decay_mult: 1
  }
  param {
    lr_mult: 2
    decay_mult: 0
  }
  convolution_param {
    num_output: 32
    pad: 2
    kernel_size: 5
    weight_filler {
      type: "xavier"
      std: 0.03
    }
    bias_filler {
      type: "constant"
      value: 0.2
    }
  }
}
layer {
  name: "inception_3a/relu_5x5"
  type: "ReLU"
  bottom: "inception_3a/5x5"
  top: "inception_3a/5x5"
}
layer {
  name: "inception_3a/pool"
  type: "Pooling"
  bottom: "pool2/3x3_s2"
  top: "inception_3a/pool"
  pooling_param {
    pool: MAX
    kernel_size: 3
    stride: 1
    pad: 1
  }
}
layer {
  name: "inception_3a/pool_proj"
  type: "Convolution"
  bottom: "inception_3a/pool"
  top: "inception_3a/pool_proj"
  param {
    lr_mult: 1
    decay_mult: 1
  }
  param {
    lr_mult: 2
    decay_mult: 0
  }
  convolution_param {
    num_output: 32
    kernel_size: 1
    weight_filler {
      type: "xavier"
      std: 0.1
    }
    bias_filler {
      type: "constant"
      value: 0.2
    }
  }
}
layer {
  name: "inception_3a/relu_pool_proj"
  type: "ReLU"
  bottom: "inception_3a/pool_proj"
  top: "inception_3a/pool_proj"
}
layer {
  name: "inception_3a/output"
  type: "Concat"
  bottom: "inception_3a/1x1"
  bottom: "inception_3a/3x3"
  bottom: "inception_3a/5x5"
  bottom: "inception_3a/pool_proj"
  top: "inception_3a/output"
}
layer {
  name: "inception_3b/1x1"
  type: "Convolution"
  bottom: "inception_3a/output"
  top: "inception_3b/1x1"
  param {
    lr_mult: 1
    decay_mult: 1
  }
  param {
    lr_mult: 2
    decay_mult: 0
  }
  convolution_param {
    num_output: 128
    kernel_size: 1
    weight_filler {
      type: "xavier"
      std: 0.03
    }
    bias_filler {
      type: "constant"
      value: 0.2
    }
  }
}
layer {
  name: "inception_3b/relu_1x1"
  type: "ReLU"
  bottom: "inception_3b/1x1"
  top: "inception_3b/1x1"
}
layer {
  name: "inception_3b/3x3_reduce"
  type: "Convolution"
  bottom: "inception_3a/output"
  top: "inception_3b/3x3_reduce"
  param {
    lr_mult: 1
    decay_mult: 1
  }
  param {
    lr_mult: 2
    decay_mult: 0
  }
  convolution_param {
    num_output: 128
    kernel_size: 1
    weight_filler {
      type: "xavier"
      std: 0.09
    }
    bias_filler {
      type: "constant"
      value: 0.2
    }
  }
}
layer {
  name: "inception_3b/relu_3x3_reduce"
  type: "ReLU"
  bottom: "inception_3b/3x3_reduce"
  top: "inception_3b/3x3_reduce"
}
layer {
  name: "inception_3b/3x3"
  type: "Convolution"
  bottom: "inception_3b/3x3_reduce"
  top: "inception_3b/3x3"
  param {
    lr_mult: 1
    decay_mult: 1
  }
  param {
    lr_mult: 2
    decay_mult: 0
  }
  convolution_param {
    num_output: 192
    pad: 1
    kernel_size: 3
    weight_filler {
      type: "xavier"
      std: 0.03
    }
    bias_filler {
      type: "constant"
      value: 0.2
    }
  }
}
layer {
  name: "inception_3b/relu_3x3"
  type: "ReLU"
  bottom: "inception_3b/3x3"
  top: "inception_3b/3x3"
}
layer {
  name: "inception_3b/5x5_reduce"
  type: "Convolution"
  bottom: "inception_3a/output"
  top: "inception_3b/5x5_reduce"
  param {
    lr_mult: 1
    decay_mult: 1
  }
  param {
    lr_mult: 2
    decay_mult: 0
  }
  convolution_param {
    num_output: 32
    kernel_size: 1
    weight_filler {
      type: "xavier"
      std: 0.2
    }
    bias_filler {
      type: "constant"
      value: 0.2
    }
  }
}
layer {
  name: "inception_3b/relu_5x5_reduce"
  type: "ReLU"
  bottom: "inception_3b/5x5_reduce"
  top: "inception_3b/5x5_reduce"
}
layer {
  name: "inception_3b/5x5"
  type: "Convolution"
  bottom: "inception_3b/5x5_reduce"
  top: "inception_3b/5x5"
  param {
    lr_mult: 1
    decay_mult: 1
  }
  param {
    lr_mult: 2
    decay_mult: 0
  }
  convolution_param {
    num_output: 96
    pad: 2
    kernel_size: 5
    weight_filler {
      type: "xavier"
      std: 0.03
    }
    bias_filler {
      type: "constant"
      value: 0.2
    }
  }
}
layer {
  name: "inception_3b/relu_5x5"
  type: "ReLU"
  bottom: "inception_3b/5x5"
  top: "inception_3b/5x5"
}
layer {
  name: "inception_3b/pool"
  type: "Pooling"
  bottom: "inception_3a/output"
  top: "inception_3b/pool"
  pooling_param {
    pool: MAX
    kernel_size: 3
    stride: 1
    pad: 1
  }
}
layer {
  name: "inception_3b/pool_proj"
  type: "Convolution"
  bottom: "inception_3b/pool"
  top: "inception_3b/pool_proj"
  param {
    lr_mult: 1
    decay_mult: 1
  }
  param {
    lr_mult: 2
    decay_mult: 0
  }
  convolution_param {
    num_output: 64
    kernel_size: 1
    weight_filler {
      type: "xavier"
      std: 0.1
    }
    bias_filler {
      type: "constant"
      value: 0.2
    }
  }
}
layer {
  name: "inception_3b/relu_pool_proj"
  type: "ReLU"
  bottom: "inception_3b/pool_proj"
  top: "inception_3b/pool_proj"
}
layer {
  name: "inception_3b/output"
  type: "Concat"
  bottom: "inception_3b/1x1"
  bottom: "inception_3b/3x3"
  bottom: "inception_3b/5x5"
  bottom: "inception_3b/pool_proj"
  top: "inception_3b/output"
}
layer {
  name: "pool3/3x3_s2"
  type: "Pooling"
  bottom: "inception_3b/output"
  top: "pool3/3x3_s2"
  pooling_param {
    pool: MAX
    kernel_size: 3
    stride: 2
  }
}
layer {
  name: "inception_4a/1x1"
  type: "Convolution"
  bottom: "pool3/3x3_s2"
  top: "inception_4a/1x1"
  param {
    lr_mult: 1
    decay_mult: 1
  }
  param {
    lr_mult: 2
    decay_mult: 0
  }
  convolution_param {
    num_output: 192
    kernel_size: 1
    weight_filler {
      type: "xavier"
      std: 0.03
    }
    bias_filler {
      type: "constant"
      value: 0.2
    }
  }
}
layer {
  name: "inception_4a/relu_1x1"
  type: "ReLU"
  bottom: "inception_4a/1x1"
  top: "inception_4a/1x1"
}
layer {
  name: "inception_4a/3x3_reduce"
  type: "Convolution"
  bottom: "pool3/3x3_s2"
  top: "inception_4a/3x3_reduce"
  param {
    lr_mult: 1
    decay_mult: 1
  }
  param {
    lr_mult: 2
    decay_mult: 0
  }
  convolution_param {
    num_output: 96
    kernel_size: 1
    weight_filler {
      type: "xavier"
      std: 0.09
    }
    bias_filler {
      type: "constant"
      value: 0.2
    }
  }
}
layer {
  name: "inception_4a/relu_3x3_reduce"
  type: "ReLU"
  bottom: "inception_4a/3x3_reduce"
  top: "inception_4a/3x3_reduce"
}
layer {
  name: "inception_4a/3x3"
  type: "Convolution"
  bottom: "inception_4a/3x3_reduce"
  top: "inception_4a/3x3"
  param {
    lr_mult: 1
    decay_mult: 1
  }
  param {
    lr_mult: 2
    decay_mult: 0
  }
  convolution_param {
    num_output: 208
    pad: 1
    kernel_size: 3
    weight_filler {
      type: "xavier"
      std: 0.03
    }
    bias_filler {
      type: "constant"
      value: 0.2
    }
  }
}
layer {
  name: "inception_4a/relu_3x3"
  type: "ReLU"
  bottom: "inception_4a/3x3"
  top: "inception_4a/3x3"
}
layer {
  name: "inception_4a/5x5_reduce"
  type: "Convolution"
  bottom: "pool3/3x3_s2"
  top: "inception_4a/5x5_reduce"
  param {
    lr_mult: 1
    decay_mult: 1
  }
  param {
    lr_mult: 2
    decay_mult: 0
  }
  convolution_param {
    num_output: 16
    kernel_size: 1
    weight_filler {
      type: "xavier"
      std: 0.2
    }
    bias_filler {
      type: "constant"
      value: 0.2
    }
  }
}
layer {
  name: "inception_4a/relu_5x5_reduce"
  type: "ReLU"
  bottom: "inception_4a/5x5_reduce"
  top: "inception_4a/5x5_reduce"
}
layer {
  name: "inception_4a/5x5"
  type: "Convolution"
  bottom: "inception_4a/5x5_reduce"
  top: "inception_4a/5x5"
  param {
    lr_mult: 1
    decay_mult: 1
  }
  param {
    lr_mult: 2
    decay_mult: 0
  }
  convolution_param {
    num_output: 48
    pad: 2
    kernel_size: 5
    weight_filler {
      type: "xavier"
      std: 0.03
    }
    bias_filler {
      type: "constant"
      value: 0.2
    }
  }
}
layer {
  name: "inception_4a/relu_5x5"
  type: "ReLU"
  bottom: "inception_4a/5x5"
  top: "inception_4a/5x5"
}
layer {
  name: "inception_4a/pool"
  type: "Pooling"
  bottom: "pool3/3x3_s2"
  top: "inception_4a/pool"
  pooling_param {
    pool: MAX
    kernel_size: 3
    stride: 1
    pad: 1
  }
}
layer {
  name: "inception_4a/pool_proj"
  type: "Convolution"
  bottom: "inception_4a/pool"
  top: "inception_4a/pool_proj"
  param {
    lr_mult: 1
    decay_mult: 1
  }
  param {
    lr_mult: 2
    decay_mult: 0
  }
  convolution_param {
    num_output: 64
    kernel_size: 1
    weight_filler {
      type: "xavier"
      std: 0.1
    }
    bias_filler {
      type: "constant"
      value: 0.2
    }
  }
}
layer {
  name: "inception_4a/relu_pool_proj"
  type: "ReLU"
  bottom: "inception_4a/pool_proj"
  top: "inception_4a/pool_proj"
}
layer {
  name: "inception_4a/output"
  type: "Concat"
  bottom: "inception_4a/1x1"
  bottom: "inception_4a/3x3"
  bottom: "inception_4a/5x5"
  bottom: "inception_4a/pool_proj"
  top: "inception_4a/output"
}
layer {
  name: "loss1/ave_pool"
  type: "Pooling"
  bottom: "inception_4a/output"
  top: "loss1/ave_pool"
  pooling_param {
    pool: AVE
    kernel_size: 5
    stride: 3
  }
}
layer {
  name: "loss1/conv"
  type: "Convolution"
  bottom: "loss1/ave_pool"
  top: "loss1/conv"
  param {
    lr_mult: 1
    decay_mult: 1
  }
  param {
    lr_mult: 2
    decay_mult: 0
  }
  convolution_param {
    num_output: 128
    kernel_size: 1
    weight_filler {
      type: "xavier"
      std: 0.08
    }
    bias_filler {
      type: "constant"
      value: 0.2
    }
  }
}
layer {
  name: "loss1/relu_conv"
  type: "ReLU"
  bottom: "loss1/conv"
  top: "loss1/conv"
}
layer {
  name: "loss1/fc"
  type: "InnerProduct"
  bottom: "loss1/conv"
  top: "loss1/fc"
  param {
    lr_mult: 1
    decay_mult: 1
  }
  param {
    lr_mult: 2
    decay_mult: 0
  }
  inner_product_param {
    num_output: 1024
    weight_filler {
      type: "xavier"
      std: 0.02
    }
    bias_filler {
      type: "constant"
      value: 0.2
    }
  }
}
layer {
  name: "loss1/relu_fc"
  type: "ReLU"
  bottom: "loss1/fc"
  top: "loss1/fc"
}
layer {
  name: "loss1/drop_fc"
  type: "Dropout"
  bottom: "loss1/fc"
  top: "loss1/fc"
  dropout_param {
    dropout_ratio: 0.7
  }
}
layer {
  name: "loss1/classifier_plantvillage"
  type: "InnerProduct"
  bottom: "loss1/fc"
  top: "loss1/classifier_plantvillage"
  param {
    lr_mult: 1
    decay_mult: 1
  }
  param {
    lr_mult: 2
    decay_mult: 0
  }
  inner_product_param {
    num_output: 38
    weight_filler {
      type: "xavier"
      std: 0.0009765625
    }
    bias_filler {
      type: "constant"
      value: 0
    }
  }
}
layer {
  name: "inception_4b/1x1"
  type: "Convolution"
  bottom: "inception_4a/output"
  top: "inception_4b/1x1"
  param {
    lr_mult: 1
    decay_mult: 1
  }
  param {
    lr_mult: 2
    decay_mult: 0
  }
  convolution_param {
    num_output: 160
    kernel_size: 1
    weight_filler {
      type: "xavier"
      std: 0.03
    }
    bias_filler {
      type: "constant"
      value: 0.2
    }
  }
}
layer {
  name: "inception_4b/relu_1x1"
  type: "ReLU"
  bottom: "inception_4b/1x1"
  top: "inception_4b/1x1"
}
layer {
  name: "inception_4b/3x3_reduce"
  type: "Convolution"
  bottom: "inception_4a/output"
  top: "inception_4b/3x3_reduce"
  param {
    lr_mult: 1
    decay_mult: 1
  }
  param {
    lr_mult: 2
    decay_mult: 0
  }
  convolution_param {
    num_output: 112
    kernel_size: 1
    weight_filler {
      type: "xavier"
      std: 0.09
    }
    bias_filler {
      type: "constant"
      value: 0.2
    }
  }
}
layer {
  name: "inception_4b/relu_3x3_reduce"
  type: "ReLU"
  bottom: "inception_4b/3x3_reduce"
  top: "inception_4b/3x3_reduce"
}
layer {
  name: "inception_4b/3x3"
  type: "Convolution"
  bottom: "inception_4b/3x3_reduce"
  top: "inception_4b/3x3"
  param {
    lr_mult: 1
    decay_mult: 1
  }
  param {
    lr_mult: 2
    decay_mult: 0
  }
  convolution_param {
    num_output: 224
    pad: 1
    kernel_size: 3
    weight_filler {
      type: "xavier"
      std: 0.03
    }
    bias_filler {
      type: "constant"
      value: 0.2
    }
  }
}
layer {
  name: "inception_4b/relu_3x3"
  type: "ReLU"
  bottom: "inception_4b/3x3"
  top: "inception_4b/3x3"
}
layer {
  name: "inception_4b/5x5_reduce"
  type: "Convolution"
  bottom: "inception_4a/output"
  top: "inception_4b/5x5_reduce"
  param {
    lr_mult: 1
    decay_mult: 1
  }
  param {
    lr_mult: 2
    decay_mult: 0
  }
  convolution_param {
    num_output: 24
    kernel_size: 1
    weight_filler {
      type: "xavier"
      std: 0.2
    }
    bias_filler {
      type: "constant"
      value: 0.2
    }
  }
}
layer {
  name: "inception_4b/relu_5x5_reduce"
  type: "ReLU"
  bottom: "inception_4b/5x5_reduce"
  top: "inception_4b/5x5_reduce"
}
layer {
  name: "inception_4b/5x5"
  type: "Convolution"
  bottom: "inception_4b/5x5_reduce"
  top: "inception_4b/5x5"
  param {
    lr_mult: 1
    decay_mult: 1
  }
  param {
    lr_mult: 2
    decay_mult: 0
  }
  convolution_param {
    num_output: 64
    pad: 2
    kernel_size: 5
    weight_filler {
      type: "xavier"
      std: 0.03
    }
    bias_filler {
      type: "constant"
      value: 0.2
    }
  }
}
layer {
  name: "inception_4b/relu_5x5"
  type: "ReLU"
  bottom: "inception_4b/5x5"
  top: "inception_4b/5x5"
}
layer {
  name: "inception_4b/pool"
  type: "Pooling"
  bottom: "inception_4a/output"
  top: "inception_4b/pool"
  pooling_param {
    pool: MAX
    kernel_size: 3
    stride: 1
    pad: 1
  }
}
layer {
  name: "inception_4b/pool_proj"
  type: "Convolution"
  bottom: "inception_4b/pool"
  top: "inception_4b/pool_proj"
  param {
    lr_mult: 1
    decay_mult: 1
  }
  param {
    lr_mult: 2
    decay_mult: 0
  }
  convolution_param {
    num_output: 64
    kernel_size: 1
    weight_filler {
      type: "xavier"
      std: 0.1
    }
    bias_filler {
      type: "constant"
      value: 0.2
    }
  }
}
layer {
  name: "inception_4b/relu_pool_proj"
  type: "ReLU"
  bottom: "inception_4b/pool_proj"
  top: "inception_4b/pool_proj"
}
layer {
  name: "inception_4b/output"
  type: "Concat"
  bottom: "inception_4b/1x1"
  bottom: "inception_4b/3x3"
  bottom: "inception_4b/5x5"
  bottom: "inception_4b/pool_proj"
  top: "inception_4b/output"
}
layer {
  name: "inception_4c/1x1"
  type: "Convolution"
  bottom: "inception_4b/output"
  top: "inception_4c/1x1"
  param {
    lr_mult: 1
    decay_mult: 1
  }
  param {
    lr_mult: 2
    decay_mult: 0
  }
  convolution_param {
    num_output: 128
    kernel_size: 1
    weight_filler {
      type: "xavier"
      std: 0.03
    }
    bias_filler {
      type: "constant"
      value: 0.2
    }
  }
}
layer {
  name: "inception_4c/relu_1x1"
  type: "ReLU"
  bottom: "inception_4c/1x1"
  top: "inception_4c/1x1"
}
layer {
  name: "inception_4c/3x3_reduce"
  type: "Convolution"
  bottom: "inception_4b/output"
  top: "inception_4c/3x3_reduce"
  param {
    lr_mult: 1
    decay_mult: 1
  }
  param {
    lr_mult: 2
    decay_mult: 0
  }
  convolution_param {
    num_output: 128
    kernel_size: 1
    weight_filler {
      type: "xavier"
      std: 0.09
    }
    bias_filler {
      type: "constant"
      value: 0.2
    }
  }
}
layer {
  name: "inception_4c/relu_3x3_reduce"
  type: "ReLU"
  bottom: "inception_4c/3x3_reduce"
  top: "inception_4c/3x3_reduce"
}
layer {
  name: "inception_4c/3x3"
  type: "Convolution"
  bottom: "inception_4c/3x3_reduce"
  top: "inception_4c/3x3"
  param {
    lr_mult: 1
    decay_mult: 1
  }
  param {
    lr_mult: 2
    decay_mult: 0
  }
  convolution_param {
    num_output: 256
    pad: 1
    kernel_size: 3
    weight_filler {
      type: "xavier"
      std: 0.03
    }
    bias_filler {
      type: "constant"
      value: 0.2
    }
  }
}
layer {
  name: "inception_4c/relu_3x3"
  type: "ReLU"
  bottom: "inception_4c/3x3"
  top: "inception_4c/3x3"
}
layer {
  name: "inception_4c/5x5_reduce"
  type: "Convolution"
  bottom: "inception_4b/output"
  top: "inception_4c/5x5_reduce"
  param {
    lr_mult: 1
    decay_mult: 1
  }
  param {
    lr_mult: 2
    decay_mult: 0
  }
  convolution_param {
    num_output: 24
    kernel_size: 1
    weight_filler {
      type: "xavier"
      std: 0.2
    }
    bias_filler {
      type: "constant"
      value: 0.2
    }
  }
}
layer {
  name: "inception_4c/relu_5x5_reduce"
  type: "ReLU"
  bottom: "inception_4c/5x5_reduce"
  top: "inception_4c/5x5_reduce"
}
layer {
  name: "inception_4c/5x5"
  type: "Convolution"
  bottom: "inception_4c/5x5_reduce"
  top: "inception_4c/5x5"
  param {
    lr_mult: 1
    decay_mult: 1
  }
  param {
    lr_mult: 2
    decay_mult: 0
  }
  convolution_param {
    num_output: 64
    pad: 2
    kernel_size: 5
    weight_filler {
      type: "xavier"
      std: 0.03
    }
    bias_filler {
      type: "constant"
      value: 0.2
    }
  }
}
layer {
  name: "inception_4c/relu_5x5"
  type: "ReLU"
  bottom: "inception_4c/5x5"
  top: "inception_4c/5x5"
}
layer {
  name: "inception_4c/pool"
  type: "Pooling"
  bottom: "inception_4b/output"
  top: "inception_4c/pool"
  pooling_param {
    pool: MAX
    kernel_size: 3
    stride: 1
    pad: 1
  }
}
layer {
  name: "inception_4c/pool_proj"
  type: "Convolution"
  bottom: "inception_4c/pool"
  top: "inception_4c/pool_proj"
  param {
    lr_mult: 1
    decay_mult: 1
  }
  param {
    lr_mult: 2
    decay_mult: 0
  }
  convolution_param {
    num_output: 64
    kernel_size: 1
    weight_filler {
      type: "xavier"
      std: 0.1
    }
    bias_filler {
      type: "constant"
      value: 0.2
    }
  }
}
layer {
  name: "inception_4c/relu_pool_proj"
  type: "ReLU"
  bottom: "inception_4c/pool_proj"
  top: "inception_4c/pool_proj"
}
layer {
  name: "inception_4c/output"
  type: "Concat"
  bottom: "inception_4c/1x1"
  bottom: "inception_4c/3x3"
  bottom: "inception_4c/5x5"
  bottom: "inception_4c/pool_proj"
  top: "inception_4c/output"
}
layer {
  name: "inception_4d/1x1"
  type: "Convolution"
  bottom: "inception_4c/output"
  top: "inception_4d/1x1"
  param {
    lr_mult: 1
    decay_mult: 1
  }
  param {
    lr_mult: 2
    decay_mult: 0
  }
  convolution_param {
    num_output: 112
    kernel_size: 1
    weight_filler {
      type: "xavier"
      std: 0.03
    }
    bias_filler {
      type: "constant"
      value: 0.2
    }
  }
}
layer {
  name: "inception_4d/relu_1x1"
  type: "ReLU"
  bottom: "inception_4d/1x1"
  top: "inception_4d/1x1"
}
layer {
  name: "inception_4d/3x3_reduce"
  type: "Convolution"
  bottom: "inception_4c/output"
  top: "inception_4d/3x3_reduce"
  param {
    lr_mult: 1
    decay_mult: 1
  }
  param {
    lr_mult: 2
    decay_mult: 0
  }
  convolution_param {
    num_output: 144
    kernel_size: 1
    weight_filler {
      type: "xavier"
      std: 0.09
    }
    bias_filler {
      type: "constant"
      value: 0.2
    }
  }
}
layer {
  name: "inception_4d/relu_3x3_reduce"
  type: "ReLU"
  bottom: "inception_4d/3x3_reduce"
  top: "inception_4d/3x3_reduce"
}
layer {
  name: "inception_4d/3x3"
  type: "Convolution"
  bottom: "inception_4d/3x3_reduce"
  top: "inception_4d/3x3"
  param {
    lr_mult: 1
    decay_mult: 1
  }
  param {
    lr_mult: 2
    decay_mult: 0
  }
  convolution_param {
    num_output: 288
    pad: 1
    kernel_size: 3
    weight_filler {
      type: "xavier"
      std: 0.03
    }
    bias_filler {
      type: "constant"
      value: 0.2
    }
  }
}
layer {
  name: "inception_4d/relu_3x3"
  type: "ReLU"
  bottom: "inception_4d/3x3"
  top: "inception_4d/3x3"
}
layer {
  name: "inception_4d/5x5_reduce"
  type: "Convolution"
  bottom: "inception_4c/output"
  top: "inception_4d/5x5_reduce"
  param {
    lr_mult: 1
    decay_mult: 1
  }
  param {
    lr_mult: 2
    decay_mult: 0
  }
  convolution_param {
    num_output: 32
    kernel_size: 1
    weight_filler {
      type: "xavier"
      std: 0.2
    }
    bias_filler {
      type: "constant"
      value: 0.2
    }
  }
}
layer {
  name: "inception_4d/relu_5x5_reduce"
  type: "ReLU"
  bottom: "inception_4d/5x5_reduce"
  top: "inception_4d/5x5_reduce"
}
layer {
  name: "inception_4d/5x5"
  type: "Convolution"
  bottom: "inception_4d/5x5_reduce"
  top: "inception_4d/5x5"
  param {
    lr_mult: 1
    decay_mult: 1
  }
  param {
    lr_mult: 2
    decay_mult: 0
  }
  convolution_param {
    num_output: 64
    pad: 2
    kernel_size: 5
    weight_filler {
      type: "xavier"
      std: 0.03
    }
    bias_filler {
      type: "constant"
      value: 0.2
    }
  }
}
layer {
  name: "inception_4d/relu_5x5"
  type: "ReLU"
  bottom: "inception_4d/5x5"
  top: "inception_4d/5x5"
}
layer {
  name: "inception_4d/pool"
  type: "Pooling"
  bottom: "inception_4c/output"
  top: "inception_4d/pool"
  pooling_param {
    pool: MAX
    kernel_size: 3
    stride: 1
    pad: 1
  }
}
layer {
  name: "inception_4d/pool_proj"
  type: "Convolution"
  bottom: "inception_4d/pool"
  top: "inception_4d/pool_proj"
  param {
    lr_mult: 1
    decay_mult: 1
  }
  param {
    lr_mult: 2
    decay_mult: 0
  }
  convolution_param {
    num_output: 64
    kernel_size: 1
    weight_filler {
      type: "xavier"
      std: 0.1
    }
    bias_filler {
      type: "constant"
      value: 0.2
    }
  }
}
layer {
  name: "inception_4d/relu_pool_proj"
  type: "ReLU"
  bottom: "inception_4d/pool_proj"
  top: "inception_4d/pool_proj"
}
layer {
  name: "inception_4d/output"
  type: "Concat"
  bottom: "inception_4d/1x1"
  bottom: "inception_4d/3x3"
  bottom: "inception_4d/5x5"
  bottom: "inception_4d/pool_proj"
  top: "inception_4d/output"
}
layer {
  name: "loss2/ave_pool"
  type: "Pooling"
  bottom: "inception_4d/output"
  top: "loss2/ave_pool"
  pooling_param {
    pool: AVE
    kernel_size: 5
    stride: 3
  }
}
layer {
  name: "loss2/conv"
  type: "Convolution"
  bottom: "loss2/ave_pool"
  top: "loss2/conv"
  param {
    lr_mult: 1
    decay_mult: 1
  }
  param {
    lr_mult: 2
    decay_mult: 0
  }
  convolution_param {
    num_output: 128
    kernel_size: 1
    weight_filler {
      type: "xavier"
      std: 0.08
    }
    bias_filler {
      type: "constant"
      value: 0.2
    }
  }
}
layer {
  name: "loss2/relu_conv"
  type: "ReLU"
  bottom: "loss2/conv"
  top: "loss2/conv"
}
layer {
  name: "loss2/fc"
  type: "InnerProduct"
  bottom: "loss2/conv"
  top: "loss2/fc"
  param {
    lr_mult: 1
    decay_mult: 1
  }
  param {
    lr_mult: 2
    decay_mult: 0
  }
  inner_product_param {
    num_output: 1024
    weight_filler {
      type: "xavier"
      std: 0.02
    }
    bias_filler {
      type: "constant"
      value: 0.2
    }
  }
}
layer {
  name: "loss2/relu_fc"
  type: "ReLU"
  bottom: "loss2/fc"
  top: "loss2/fc"
}
layer {
  name: "loss2/drop_fc"
  type: "Dropout"
  bottom: "loss2/fc"
  top: "loss2/fc"
  dropout_param {
    dropout_ratio: 0.7
  }
}
layer {
  name: "loss2/classifier_plantvillage"
  type: "InnerProduct"
  bottom: "loss2/fc"
  top: "loss2/classifier_plantvillage"
  param {
    lr_mult: 1
    decay_mult: 1
  }
  param {
    lr_mult: 2
    decay_mult: 0
  }
  inner_product_param {
    num_output: 38
    weight_filler {
      type: "xavier"
      std: 0.0009765625
    }
    bias_filler {
      type: "constant"
      value: 0
    }
  }
}
layer {
  name: "inception_4e/1x1"
  type: "Convolution"
  bottom: "inception_4d/output"
  top: "inception_4e/1x1"
  param {
    lr_mult: 1
    decay_mult: 1
  }
  param {
    lr_mult: 2
    decay_mult: 0
  }
  convolution_param {
    num_output: 256
    kernel_size: 1
    weight_filler {
      type: "xavier"
      std: 0.03
    }
    bias_filler {
      type: "constant"
      value: 0.2
    }
  }
}
layer {
  name: "inception_4e/relu_1x1"
  type: "ReLU"
  bottom: "inception_4e/1x1"
  top: "inception_4e/1x1"
}
layer {
  name: "inception_4e/3x3_reduce"
  type: "Convolution"
  bottom: "inception_4d/output"
  top: "inception_4e/3x3_reduce"
  param {
    lr_mult: 1
    decay_mult: 1
  }
  param {
    lr_mult: 2
    decay_mult: 0
  }
  convolution_param {
    num_output: 160
    kernel_size: 1
    weight_filler {
      type: "xavier"
      std: 0.09
    }
    bias_filler {
      type: "constant"
      value: 0.2
    }
  }
}
layer {
  name: "inception_4e/relu_3x3_reduce"
  type: "ReLU"
  bottom: "inception_4e/3x3_reduce"
  top: "inception_4e/3x3_reduce"
}
layer {
  name: "inception_4e/3x3"
  type: "Convolution"
  bottom: "inception_4e/3x3_reduce"
  top: "inception_4e/3x3"
  param {
    lr_mult: 1
    decay_mult: 1
  }
  param {
    lr_mult: 2
    decay_mult: 0
  }
  convolution_param {
    num_output: 320
    pad: 1
    kernel_size: 3
    weight_filler {
      type: "xavier"
      std: 0.03
    }
    bias_filler {
      type: "constant"
      value: 0.2
    }
  }
}
layer {
  name: "inception_4e/relu_3x3"
  type: "ReLU"
  bottom: "inception_4e/3x3"
  top: "inception_4e/3x3"
}
layer {
  name: "inception_4e/5x5_reduce"
  type: "Convolution"
  bottom: "inception_4d/output"
  top: "inception_4e/5x5_reduce"
  param {
    lr_mult: 1
    decay_mult: 1
  }
  param {
    lr_mult: 2
    decay_mult: 0
  }
  convolution_param {
    num_output: 32
    kernel_size: 1
    weight_filler {
      type: "xavier"
      std: 0.2
    }
    bias_filler {
      type: "constant"
      value: 0.2
    }
  }
}
layer {
  name: "inception_4e/relu_5x5_reduce"
  type: "ReLU"
  bottom: "inception_4e/5x5_reduce"
  top: "inception_4e/5x5_reduce"
}
layer {
  name: "inception_4e/5x5"
  type: "Convolution"
  bottom: "inception_4e/5x5_reduce"
  top: "inception_4e/
I0403 15:28:17.408114  3120 layer_factory.hpp:77] Creating layer data
I0403 15:28:17.408742  3120 net.cpp:91] Creating Layer data
I0403 15:28:17.408776  3120 net.cpp:399] data -> data
I0403 15:28:17.408825  3120 net.cpp:399] data -> label
I0403 15:28:17.408861  3120 data_transformer.cpp:25] Loading mean file from: /home/mohanty/data/final_dataset/lmdb/grayscale-50-50/mean.binaryproto
I0403 15:28:17.412685  3124 db_lmdb.cpp:38] Opened lmdb /home/mohanty/data/final_dataset/lmdb/grayscale-50-50/test_db
I0403 15:28:17.424373  3120 data_layer.cpp:41] output data size: 24,3,224,224
I0403 15:28:17.451805  3120 net.cpp:141] Setting up data
I0403 15:28:17.451899  3120 net.cpp:148] Top shape: 24 3 224 224 (3612672)
I0403 15:28:17.451921  3120 net.cpp:148] Top shape: 24 (24)
I0403 15:28:17.451938  3120 net.cpp:156] Memory required for data: 14450784
I0403 15:28:17.451967  3120 layer_factory.hpp:77] Creating layer label_data_1_split
I0403 15:28:17.451994  3120 net.cpp:91] Creating Layer label_data_1_split
I0403 15:28:17.452013  3120 net.cpp:425] label_data_1_split <- label
I0403 15:28:17.452044  3120 net.cpp:399] label_data_1_split -> label_data_1_split_0
I0403 15:28:17.452085  3120 net.cpp:399] label_data_1_split -> label_data_1_split_1
I0403 15:28:17.452106  3120 net.cpp:399] label_data_1_split -> label_data_1_split_2
I0403 15:28:17.452127  3120 net.cpp:399] label_data_1_split -> label_data_1_split_3
I0403 15:28:17.452147  3120 net.cpp:399] label_data_1_split -> label_data_1_split_4
I0403 15:28:17.452168  3120 net.cpp:399] label_data_1_split -> label_data_1_split_5
I0403 15:28:17.452188  3120 net.cpp:399] label_data_1_split -> label_data_1_split_6
I0403 15:28:17.452208  3120 net.cpp:399] label_data_1_split -> label_data_1_split_7
I0403 15:28:17.452229  3120 net.cpp:399] label_data_1_split -> label_data_1_split_8
I0403 15:28:17.452253  3120 net.cpp:399] label_data_1_split -> label_data_1_split_9
I0403 15:28:17.452370  3120 net.cpp:141] Setting up label_data_1_split
I0403 15:28:17.452394  3120 net.cpp:148] Top shape: 24 (24)
I0403 15:28:17.452411  3120 net.cpp:148] Top shape: 24 (24)
I0403 15:28:17.452428  3120 net.cpp:148] Top shape: 24 (24)
I0403 15:28:17.452445  3120 net.cpp:148] Top shape: 24 (24)
I0403 15:28:17.452461  3120 net.cpp:148] Top shape: 24 (24)
I0403 15:28:17.452478  3120 net.cpp:148] Top shape: 24 (24)
I0403 15:28:17.452494  3120 net.cpp:148] Top shape: 24 (24)
I0403 15:28:17.452510  3120 net.cpp:148] Top shape: 24 (24)
I0403 15:28:17.452527  3120 net.cpp:148] Top shape: 24 (24)
I0403 15:28:17.452543  3120 net.cpp:148] Top shape: 24 (24)
I0403 15:28:17.452582  3120 net.cpp:156] Memory required for data: 14451744
I0403 15:28:17.452599  3120 layer_factory.hpp:77] Creating layer conv1/7x7_s2
I0403 15:28:17.452630  3120 net.cpp:91] Creating Layer conv1/7x7_s2
I0403 15:28:17.452649  3120 net.cpp:425] conv1/7x7_s2 <- data
I0403 15:28:17.452668  3120 net.cpp:399] conv1/7x7_s2 -> conv1/7x7_s2
I0403 15:28:19.681565  3120 net.cpp:141] Setting up conv1/7x7_s2
I0403 15:28:19.681658  3120 net.cpp:148] Top shape: 24 64 112 112 (19267584)
I0403 15:28:19.681677  3120 net.cpp:156] Memory required for data: 91522080
I0403 15:28:19.681709  3120 layer_factory.hpp:77] Creating layer conv1/relu_7x7
I0403 15:28:19.681735  3120 net.cpp:91] Creating Layer conv1/relu_7x7
I0403 15:28:19.681754  3120 net.cpp:425] conv1/relu_7x7 <- conv1/7x7_s2
I0403 15:28:19.681777  3120 net.cpp:386] conv1/relu_7x7 -> conv1/7x7_s2 (in-place)
I0403 15:28:19.682050  3120 net.cpp:141] Setting up conv1/relu_7x7
I0403 15:28:19.682078  3120 net.cpp:148] Top shape: 24 64 112 112 (19267584)
I0403 15:28:19.682095  3120 net.cpp:156] Memory required for data: 168592416
I0403 15:28:19.682111  3120 layer_factory.hpp:77] Creating layer pool1/3x3_s2
I0403 15:28:19.682135  3120 net.cpp:91] Creating Layer pool1/3x3_s2
I0403 15:28:19.682152  3120 net.cpp:425] pool1/3x3_s2 <- conv1/7x7_s2
I0403 15:28:19.682174  3120 net.cpp:399] pool1/3x3_s2 -> pool1/3x3_s2
I0403 15:28:19.682252  3120 net.cpp:141] Setting up pool1/3x3_s2
I0403 15:28:19.682277  3120 net.cpp:148] Top shape: 24 64 56 56 (4816896)
I0403 15:28:19.682292  3120 net.cpp:156] Memory required for data: 187860000
I0403 15:28:19.682308  3120 layer_factory.hpp:77] Creating layer pool1/norm1
I0403 15:28:19.682335  3120 net.cpp:91] Creating Layer pool1/norm1
I0403 15:28:19.682353  3120 net.cpp:425] pool1/norm1 <- pool1/3x3_s2
I0403 15:28:19.682373  3120 net.cpp:399] pool1/norm1 -> pool1/norm1
I0403 15:28:19.682695  3120 net.cpp:141] Setting up pool1/norm1
I0403 15:28:19.682723  3120 net.cpp:148] Top shape: 24 64 56 56 (4816896)
I0403 15:28:19.682740  3120 net.cpp:156] Memory required for data: 207127584
I0403 15:28:19.682768  3120 layer_factory.hpp:77] Creating layer conv2/3x3_reduce
I0403 15:28:19.682798  3120 net.cpp:91] Creating Layer conv2/3x3_reduce
I0403 15:28:19.682816  3120 net.cpp:425] conv2/3x3_reduce <- pool1/norm1
I0403 15:28:19.682838  3120 net.cpp:399] conv2/3x3_reduce -> conv2/3x3_reduce
I0403 15:28:19.684242  3120 net.cpp:141] Setting up conv2/3x3_reduce
I0403 15:28:19.684272  3120 net.cpp:148] Top shape: 24 64 56 56 (4816896)
I0403 15:28:19.684288  3120 net.cpp:156] Memory required for data: 226395168
I0403 15:28:19.684312  3120 layer_factory.hpp:77] Creating layer conv2/relu_3x3_reduce
I0403 15:28:19.684334  3120 net.cpp:91] Creating Layer conv2/relu_3x3_reduce
I0403 15:28:19.684348  3120 net.cpp:425] conv2/relu_3x3_reduce <- conv2/3x3_reduce
I0403 15:28:19.684366  3120 net.cpp:386] conv2/relu_3x3_reduce -> conv2/3x3_reduce (in-place)
I0403 15:28:19.684638  3120 net.cpp:141] Setting up conv2/relu_3x3_reduce
I0403 15:28:19.684664  3120 net.cpp:148] Top shape: 24 64 56 56 (4816896)
I0403 15:28:19.684682  3120 net.cpp:156] Memory required for data: 245662752
I0403 15:28:19.684698  3120 layer_factory.hpp:77] Creating layer conv2/3x3
I0403 15:28:19.684722  3120 net.cpp:91] Creating Layer conv2/3x3
I0403 15:28:19.684741  3120 net.cpp:425] conv2/3x3 <- conv2/3x3_reduce
I0403 15:28:19.684761  3120 net.cpp:399] conv2/3x3 -> conv2/3x3
I0403 15:28:19.687101  3120 net.cpp:141] Setting up conv2/3x3
I0403 15:28:19.687134  3120 net.cpp:148] Top shape: 24 192 56 56 (14450688)
I0403 15:28:19.687151  3120 net.cpp:156] Memory required for data: 303465504
I0403 15:28:19.687173  3120 layer_factory.hpp:77] Creating layer conv2/relu_3x3
I0403 15:28:19.687193  3120 net.cpp:91] Creating Layer conv2/relu_3x3
I0403 15:28:19.687211  3120 net.cpp:425] conv2/relu_3x3 <- conv2/3x3
I0403 15:28:19.687228  3120 net.cpp:386] conv2/relu_3x3 -> conv2/3x3 (in-place)
I0403 15:28:19.687410  3120 net.cpp:141] Setting up conv2/relu_3x3
I0403 15:28:19.687438  3120 net.cpp:148] Top shape: 24 192 56 56 (14450688)
I0403 15:28:19.687484  3120 net.cpp:156] Memory required for data: 361268256
I0403 15:28:19.687500  3120 layer_factory.hpp:77] Creating layer conv2/norm2
I0403 15:28:19.687521  3120 net.cpp:91] Creating Layer conv2/norm2
I0403 15:28:19.687539  3120 net.cpp:425] conv2/norm2 <- conv2/3x3
I0403 15:28:19.687557  3120 net.cpp:399] conv2/norm2 -> conv2/norm2
I0403 15:28:19.687861  3120 net.cpp:141] Setting up conv2/norm2
I0403 15:28:19.687888  3120 net.cpp:148] Top shape: 24 192 56 56 (14450688)
I0403 15:28:19.687904  3120 net.cpp:156] Memory required for data: 419071008
I0403 15:28:19.687919  3120 layer_factory.hpp:77] Creating layer pool2/3x3_s2
I0403 15:28:19.687939  3120 net.cpp:91] Creating Layer pool2/3x3_s2
I0403 15:28:19.687955  3120 net.cpp:425] pool2/3x3_s2 <- conv2/norm2
I0403 15:28:19.687973  3120 net.cpp:399] pool2/3x3_s2 -> pool2/3x3_s2
I0403 15:28:19.688030  3120 net.cpp:141] Setting up pool2/3x3_s2
I0403 15:28:19.688052  3120 net.cpp:148] Top shape: 24 192 28 28 (3612672)
I0403 15:28:19.688067  3120 net.cpp:156] Memory required for data: 433521696
I0403 15:28:19.688082  3120 layer_factory.hpp:77] Creating layer pool2/3x3_s2_pool2/3x3_s2_0_split
I0403 15:28:19.688100  3120 net.cpp:91] Creating Layer pool2/3x3_s2_pool2/3x3_s2_0_split
I0403 15:28:19.688117  3120 net.cpp:425] pool2/3x3_s2_pool2/3x3_s2_0_split <- pool2/3x3_s2
I0403 15:28:19.688135  3120 net.cpp:399] pool2/3x3_s2_pool2/3x3_s2_0_split -> pool2/3x3_s2_pool2/3x3_s2_0_split_0
I0403 15:28:19.688156  3120 net.cpp:399] pool2/3x3_s2_pool2/3x3_s2_0_split -> pool2/3x3_s2_pool2/3x3_s2_0_split_1
I0403 15:28:19.688176  3120 net.cpp:399] pool2/3x3_s2_pool2/3x3_s2_0_split -> pool2/3x3_s2_pool2/3x3_s2_0_split_2
I0403 15:28:19.688196  3120 net.cpp:399] pool2/3x3_s2_pool2/3x3_s2_0_split -> pool2/3x3_s2_pool2/3x3_s2_0_split_3
I0403 15:28:19.688271  3120 net.cpp:141] Setting up pool2/3x3_s2_pool2/3x3_s2_0_split
I0403 15:28:19.688298  3120 net.cpp:148] Top shape: 24 192 28 28 (3612672)
I0403 15:28:19.688316  3120 net.cpp:148] Top shape: 24 192 28 28 (3612672)
I0403 15:28:19.688333  3120 net.cpp:148] Top shape: 24 192 28 28 (3612672)
I0403 15:28:19.688349  3120 net.cpp:148] Top shape: 24 192 28 28 (3612672)
I0403 15:28:19.688364  3120 net.cpp:156] Memory required for data: 491324448
I0403 15:28:19.688379  3120 layer_factory.hpp:77] Creating layer inception_3a/1x1
I0403 15:28:19.688401  3120 net.cpp:91] Creating Layer inception_3a/1x1
I0403 15:28:19.688418  3120 net.cpp:425] inception_3a/1x1 <- pool2/3x3_s2_pool2/3x3_s2_0_split_0
I0403 15:28:19.688438  3120 net.cpp:399] inception_3a/1x1 -> inception_3a/1x1
I0403 15:28:19.689949  3120 net.cpp:141] Setting up inception_3a/1x1
I0403 15:28:19.689978  3120 net.cpp:148] Top shape: 24 64 28 28 (1204224)
I0403 15:28:19.689995  3120 net.cpp:156] Memory required for data: 496141344
I0403 15:28:19.690013  3120 layer_factory.hpp:77] Creating layer inception_3a/relu_1x1
I0403 15:28:19.690034  3120 net.cpp:91] Creating Layer inception_3a/relu_1x1
I0403 15:28:19.690052  3120 net.cpp:425] inception_3a/relu_1x1 <- inception_3a/1x1
I0403 15:28:19.690070  3120 net.cpp:386] inception_3a/relu_1x1 -> inception_3a/1x1 (in-place)
I0403 15:28:19.690238  3120 net.cpp:141] Setting up inception_3a/relu_1x1
I0403 15:28:19.690269  3120 net.cpp:148] Top shape: 24 64 28 28 (1204224)
I0403 15:28:19.690285  3120 net.cpp:156] Memory required for data: 500958240
I0403 15:28:19.690300  3120 layer_factory.hpp:77] Creating layer inception_3a/3x3_reduce
I0403 15:28:19.690323  3120 net.cpp:91] Creating Layer inception_3a/3x3_reduce
I0403 15:28:19.690341  3120 net.cpp:425] inception_3a/3x3_reduce <- pool2/3x3_s2_pool2/3x3_s2_0_split_1
I0403 15:28:19.690362  3120 net.cpp:399] inception_3a/3x3_reduce -> inception_3a/3x3_reduce
I0403 15:28:19.692051  3120 net.cpp:141] Setting up inception_3a/3x3_reduce
I0403 15:28:19.692081  3120 net.cpp:148] Top shape: 24 96 28 28 (1806336)
I0403 15:28:19.692101  3120 net.cpp:156] Memory required for data: 508183584
I0403 15:28:19.692123  3120 layer_factory.hpp:77] Creating layer inception_3a/relu_3x3_reduce
I0403 15:28:19.692158  3120 net.cpp:91] Creating Layer inception_3a/relu_3x3_reduce
I0403 15:28:19.692176  3120 net.cpp:425] inception_3a/relu_3x3_reduce <- inception_3a/3x3_reduce
I0403 15:28:19.692196  3120 net.cpp:386] inception_3a/relu_3x3_reduce -> inception_3a/3x3_reduce (in-place)
I0403 15:28:19.692379  3120 net.cpp:141] Setting up inception_3a/relu_3x3_reduce
I0403 15:28:19.692404  3120 net.cpp:148] Top shape: 24 96 28 28 (1806336)
I0403 15:28:19.692420  3120 net.cpp:156] Memory required for data: 515408928
I0403 15:28:19.692436  3120 layer_factory.hpp:77] Creating layer inception_3a/3x3
I0403 15:28:19.692461  3120 net.cpp:91] Creating Layer inception_3a/3x3
I0403 15:28:19.692477  3120 net.cpp:425] inception_3a/3x3 <- inception_3a/3x3_reduce
I0403 15:28:19.692499  3120 net.cpp:399] inception_3a/3x3 -> inception_3a/3x3
I0403 15:28:19.694135  3120 net.cpp:141] Setting up inception_3a/3x3
I0403 15:28:19.694169  3120 net.cpp:148] Top shape: 24 128 28 28 (2408448)
I0403 15:28:19.694186  3120 net.cpp:156] Memory required for data: 525042720
I0403 15:28:19.694205  3120 layer_factory.hpp:77] Creating layer inception_3a/relu_3x3
I0403 15:28:19.694223  3120 net.cpp:91] Creating Layer inception_3a/relu_3x3
I0403 15:28:19.694243  3120 net.cpp:425] inception_3a/relu_3x3 <- inception_3a/3x3
I0403 15:28:19.694267  3120 net.cpp:386] inception_3a/relu_3x3 -> inception_3a/3x3 (in-place)
I0403 15:28:19.694550  3120 net.cpp:141] Setting up inception_3a/relu_3x3
I0403 15:28:19.694581  3120 net.cpp:148] Top shape: 24 128 28 28 (2408448)
I0403 15:28:19.694597  3120 net.cpp:156] Memory required for data: 534676512
I0403 15:28:19.694612  3120 layer_factory.hpp:77] Creating layer inception_3a/5x5_reduce
I0403 15:28:19.694636  3120 net.cpp:91] Creating Layer inception_3a/5x5_reduce
I0403 15:28:19.694654  3120 net.cpp:425] inception_3a/5x5_reduce <- pool2/3x3_s2_pool2/3x3_s2_0_split_2
I0403 15:28:19.694674  3120 net.cpp:399] inception_3a/5x5_reduce -> inception_3a/5x5_reduce
I0403 15:28:19.695631  3120 net.cpp:141] Setting up inception_3a/5x5_reduce
I0403 15:28:19.695662  3120 net.cpp:148] Top shape: 24 16 28 28 (301056)
I0403 15:28:19.695678  3120 net.cpp:156] Memory required for data: 535880736
I0403 15:28:19.695698  3120 layer_factory.hpp:77] Creating layer inception_3a/relu_5x5_reduce
I0403 15:28:19.695716  3120 net.cpp:91] Creating Layer inception_3a/relu_5x5_reduce
I0403 15:28:19.695732  3120 net.cpp:425] inception_3a/relu_5x5_reduce <- inception_3a/5x5_reduce
I0403 15:28:19.695754  3120 net.cpp:386] inception_3a/relu_5x5_reduce -> inception_3a/5x5_reduce (in-place)
I0403 15:28:19.696058  3120 net.cpp:141] Setting up inception_3a/relu_5x5_reduce
I0403 15:28:19.696084  3120 net.cpp:148] Top shape: 24 16 28 28 (301056)
I0403 15:28:19.696100  3120 net.cpp:156] Memory required for data: 537084960
I0403 15:28:19.696116  3120 layer_factory.hpp:77] Creating layer inception_3a/5x5
I0403 15:28:19.696141  3120 net.cpp:91] Creating Layer inception_3a/5x5
I0403 15:28:19.696158  3120 net.cpp:425] inception_3a/5x5 <- inception_3a/5x5_reduce
I0403 15:28:19.696180  3120 net.cpp:399] inception_3a/5x5 -> inception_3a/5x5
I0403 15:28:19.697275  3120 net.cpp:141] Setting up inception_3a/5x5
I0403 15:28:19.697302  3120 net.cpp:148] Top shape: 24 32 28 28 (602112)
I0403 15:28:19.697319  3120 net.cpp:156] Memory required for data: 539493408
I0403 15:28:19.697340  3120 layer_factory.hpp:77] Creating layer inception_3a/relu_5x5
I0403 15:28:19.697361  3120 net.cpp:91] Creating Layer inception_3a/relu_5x5
I0403 15:28:19.697378  3120 net.cpp:425] inception_3a/relu_5x5 <- inception_3a/5x5
I0403 15:28:19.697397  3120 net.cpp:386] inception_3a/relu_5x5 -> inception_3a/5x5 (in-place)
I0403 15:28:19.697584  3120 net.cpp:141] Setting up inception_3a/relu_5x5
I0403 15:28:19.697613  3120 net.cpp:148] Top shape: 24 32 28 28 (602112)
I0403 15:28:19.697628  3120 net.cpp:156] Memory required for data: 541901856
I0403 15:28:19.697643  3120 layer_factory.hpp:77] Creating layer inception_3a/pool
I0403 15:28:19.697662  3120 net.cpp:91] Creating Layer inception_3a/pool
I0403 15:28:19.697693  3120 net.cpp:425] inception_3a/pool <- pool2/3x3_s2_pool2/3x3_s2_0_split_3
I0403 15:28:19.697715  3120 net.cpp:399] inception_3a/pool -> inception_3a/pool
I0403 15:28:19.697788  3120 net.cpp:141] Setting up inception_3a/pool
I0403 15:28:19.697810  3120 net.cpp:148] Top shape: 24 192 28 28 (3612672)
I0403 15:28:19.697825  3120 net.cpp:156] Memory required for data: 556352544
I0403 15:28:19.697840  3120 layer_factory.hpp:77] Creating layer inception_3a/pool_proj
I0403 15:28:19.697868  3120 net.cpp:91] Creating Layer inception_3a/pool_proj
I0403 15:28:19.697886  3120 net.cpp:425] inception_3a/pool_proj <- inception_3a/pool
I0403 15:28:19.697906  3120 net.cpp:399] inception_3a/pool_proj -> inception_3a/pool_proj
I0403 15:28:19.698918  3120 net.cpp:141] Setting up inception_3a/pool_proj
I0403 15:28:19.698947  3120 net.cpp:148] Top shape: 24 32 28 28 (602112)
I0403 15:28:19.698963  3120 net.cpp:156] Memory required for data: 558760992
I0403 15:28:19.698988  3120 layer_factory.hpp:77] Creating layer inception_3a/relu_pool_proj
I0403 15:28:19.699008  3120 net.cpp:91] Creating Layer inception_3a/relu_pool_proj
I0403 15:28:19.699024  3120 net.cpp:425] inception_3a/relu_pool_proj <- inception_3a/pool_proj
I0403 15:28:19.699044  3120 net.cpp:386] inception_3a/relu_pool_proj -> inception_3a/pool_proj (in-place)
I0403 15:28:19.699342  3120 net.cpp:141] Setting up inception_3a/relu_pool_proj
I0403 15:28:19.699372  3120 net.cpp:148] Top shape: 24 32 28 28 (602112)
I0403 15:28:19.699388  3120 net.cpp:156] Memory required for data: 561169440
I0403 15:28:19.699404  3120 layer_factory.hpp:77] Creating layer inception_3a/output
I0403 15:28:19.699424  3120 net.cpp:91] Creating Layer inception_3a/output
I0403 15:28:19.699440  3120 net.cpp:425] inception_3a/output <- inception_3a/1x1
I0403 15:28:19.699457  3120 net.cpp:425] inception_3a/output <- inception_3a/3x3
I0403 15:28:19.699475  3120 net.cpp:425] inception_3a/output <- inception_3a/5x5
I0403 15:28:19.699491  3120 net.cpp:425] inception_3a/output <- inception_3a/pool_proj
I0403 15:28:19.699508  3120 net.cpp:399] inception_3a/output -> inception_3a/output
I0403 15:28:19.699556  3120 net.cpp:141] Setting up inception_3a/output
I0403 15:28:19.699580  3120 net.cpp:148] Top shape: 24 256 28 28 (4816896)
I0403 15:28:19.699596  3120 net.cpp:156] Memory required for data: 580437024
I0403 15:28:19.699611  3120 layer_factory.hpp:77] Creating layer inception_3a/output_inception_3a/output_0_split
I0403 15:28:19.699630  3120 net.cpp:91] Creating Layer inception_3a/output_inception_3a/output_0_split
I0403 15:28:19.699645  3120 net.cpp:425] inception_3a/output_inception_3a/output_0_split <- inception_3a/output
I0403 15:28:19.699666  3120 net.cpp:399] inception_3a/output_inception_3a/output_0_split -> inception_3a/output_inception_3a/output_0_split_0
I0403 15:28:19.699688  3120 net.cpp:399] inception_3a/output_inception_3a/output_0_split -> inception_3a/output_inception_3a/output_0_split_1
I0403 15:28:19.699714  3120 net.cpp:399] inception_3a/output_inception_3a/output_0_split -> inception_3a/output_inception_3a/output_0_split_2
I0403 15:28:19.699738  3120 net.cpp:399] inception_3a/output_inception_3a/output_0_split -> inception_3a/output_inception_3a/output_0_split_3
I0403 15:28:19.699810  3120 net.cpp:141] Setting up inception_3a/output_inception_3a/output_0_split
I0403 15:28:19.699834  3120 net.cpp:148] Top shape: 24 256 28 28 (4816896)
I0403 15:28:19.699854  3120 net.cpp:148] Top shape: 24 256 28 28 (4816896)
I0403 15:28:19.699872  3120 net.cpp:148] Top shape: 24 256 28 28 (4816896)
I0403 15:28:19.699889  3120 net.cpp:148] Top shape: 24 256 28 28 (4816896)
I0403 15:28:19.699904  3120 net.cpp:156] Memory required for data: 657507360
I0403 15:28:19.699919  3120 layer_factory.hpp:77] Creating layer inception_3b/1x1
I0403 15:28:19.699940  3120 net.cpp:91] Creating Layer inception_3b/1x1
I0403 15:28:19.699957  3120 net.cpp:425] inception_3b/1x1 <- inception_3a/output_inception_3a/output_0_split_0
I0403 15:28:19.699980  3120 net.cpp:399] inception_3b/1x1 -> inception_3b/1x1
I0403 15:28:19.701139  3120 net.cpp:141] Setting up inception_3b/1x1
I0403 15:28:19.701180  3120 net.cpp:148] Top shape: 24 128 28 28 (2408448)
I0403 15:28:19.701197  3120 net.cpp:156] Memory required for data: 667141152
I0403 15:28:19.701216  3120 layer_factory.hpp:77] Creating layer inception_3b/relu_1x1
I0403 15:28:19.701243  3120 net.cpp:91] Creating Layer inception_3b/relu_1x1
I0403 15:28:19.701262  3120 net.cpp:425] inception_3b/relu_1x1 <- inception_3b/1x1
I0403 15:28:19.701282  3120 net.cpp:386] inception_3b/relu_1x1 -> inception_3b/1x1 (in-place)
I0403 15:28:19.701458  3120 net.cpp:141] Setting up inception_3b/relu_1x1
I0403 15:28:19.701489  3120 net.cpp:148] Top shape: 24 128 28 28 (2408448)
I0403 15:28:19.701506  3120 net.cpp:156] Memory required for data: 676774944
I0403 15:28:19.701522  3120 layer_factory.hpp:77] Creating layer inception_3b/3x3_reduce
I0403 15:28:19.701547  3120 net.cpp:91] Creating Layer inception_3b/3x3_reduce
I0403 15:28:19.701565  3120 net.cpp:425] inception_3b/3x3_reduce <- inception_3a/output_inception_3a/output_0_split_1
I0403 15:28:19.701586  3120 net.cpp:399] inception_3b/3x3_reduce -> inception_3b/3x3_reduce
I0403 15:28:19.702770  3120 net.cpp:141] Setting up inception_3b/3x3_reduce
I0403 15:28:19.702800  3120 net.cpp:148] Top shape: 24 128 28 28 (2408448)
I0403 15:28:19.702816  3120 net.cpp:156] Memory required for data: 686408736
I0403 15:28:19.702836  3120 layer_factory.hpp:77] Creating layer inception_3b/relu_3x3_reduce
I0403 15:28:19.702858  3120 net.cpp:91] Creating Layer inception_3b/relu_3x3_reduce
I0403 15:28:19.702875  3120 net.cpp:425] inception_3b/relu_3x3_reduce <- inception_3b/3x3_reduce
I0403 15:28:19.702894  3120 net.cpp:386] inception_3b/relu_3x3_reduce -> inception_3b/3x3_reduce (in-place)
I0403 15:28:19.703069  3120 net.cpp:141] Setting up inception_3b/relu_3x3_reduce
I0403 15:28:19.703097  3120 net.cpp:148] Top shape: 24 128 28 28 (2408448)
I0403 15:28:19.703114  3120 net.cpp:156] Memory required for data: 696042528
I0403 15:28:19.703130  3120 layer_factory.hpp:77] Creating layer inception_3b/3x3
I0403 15:28:19.703156  3120 net.cpp:91] Creating Layer inception_3b/3x3
I0403 15:28:19.703174  3120 net.cpp:425] inception_3b/3x3 <- inception_3b/3x3_reduce
I0403 15:28:19.703197  3120 net.cpp:399] inception_3b/3x3 -> inception_3b/3x3
I0403 15:28:19.706248  3120 net.cpp:141] Setting up inception_3b/3x3
I0403 15:28:19.706280  3120 net.cpp:148] Top shape: 24 192 28 28 (3612672)
I0403 15:28:19.706298  3120 net.cpp:156] Memory required for data: 710493216
I0403 15:28:19.706318  3120 layer_factory.hpp:77] Creating layer inception_3b/relu_3x3
I0403 15:28:19.706337  3120 net.cpp:91] Creating Layer inception_3b/relu_3x3
I0403 15:28:19.706353  3120 net.cpp:425] inception_3b/relu_3x3 <- inception_3b/3x3
I0403 15:28:19.706374  3120 net.cpp:386] inception_3b/relu_3x3 -> inception_3b/3x3 (in-place)
I0403 15:28:19.706732  3120 net.cpp:141] Setting up inception_3b/relu_3x3
I0403 15:28:19.706761  3120 net.cpp:148] Top shape: 24 192 28 28 (3612672)
I0403 15:28:19.706779  3120 net.cpp:156] Memory required for data: 724943904
I0403 15:28:19.706794  3120 layer_factory.hpp:77] Creating layer inception_3b/5x5_reduce
I0403 15:28:19.706820  3120 net.cpp:91] Creating Layer inception_3b/5x5_reduce
I0403 15:28:19.706838  3120 net.cpp:425] inception_3b/5x5_reduce <- inception_3a/output_inception_3a/output_0_split_2
I0403 15:28:19.706858  3120 net.cpp:399] inception_3b/5x5_reduce -> inception_3b/5x5_reduce
I0403 15:28:19.707870  3120 net.cpp:141] Setting up inception_3b/5x5_reduce
I0403 15:28:19.707898  3120 net.cpp:148] Top shape: 24 32 28 28 (602112)
I0403 15:28:19.707916  3120 net.cpp:156] Memory required for data: 727352352
I0403 15:28:19.707936  3120 layer_factory.hpp:77] Creating layer inception_3b/relu_5x5_reduce
I0403 15:28:19.707958  3120 net.cpp:91] Creating Layer inception_3b/relu_5x5_reduce
I0403 15:28:19.707976  3120 net.cpp:425] inception_3b/relu_5x5_reduce <- inception_3b/5x5_reduce
I0403 15:28:19.707995  3120 net.cpp:386] inception_3b/relu_5x5_reduce -> inception_3b/5x5_reduce (in-place)
I0403 15:28:19.708190  3120 net.cpp:141] Setting up inception_3b/relu_5x5_reduce
I0403 15:28:19.708217  3120 net.cpp:148] Top shape: 24 32 28 28 (602112)
I0403 15:28:19.708233  3120 net.cpp:156] Memory required for data: 729760800
I0403 15:28:19.708256  3120 layer_factory.hpp:77] Creating layer inception_3b/5x5
I0403 15:28:19.708281  3120 net.cpp:91] Creating Layer inception_3b/5x5
I0403 15:28:19.708299  3120 net.cpp:425] inception_3b/5x5 <- inception_3b/5x5_reduce
I0403 15:28:19.708322  3120 net.cpp:399] inception_3b/5x5 -> inception_3b/5x5
I0403 15:28:19.710341  3120 net.cpp:141] Setting up inception_3b/5x5
I0403 15:28:19.710371  3120 net.cpp:148] Top shape: 24 96 28 28 (1806336)
I0403 15:28:19.710387  3120 net.cpp:156] Memory required for data: 736986144
I0403 15:28:19.710407  3120 layer_factory.hpp:77] Creating layer inception_3b/relu_5x5
I0403 15:28:19.710429  3120 net.cpp:91] Creating Layer inception_3b/relu_5x5
I0403 15:28:19.710448  3120 net.cpp:425] inception_3b/relu_5x5 <- inception_3b/5x5
I0403 15:28:19.710465  3120 net.cpp:386] inception_3b/relu_5x5 -> inception_3b/5x5 (in-place)
I0403 15:28:19.710664  3120 net.cpp:141] Setting up inception_3b/relu_5x5
I0403 15:28:19.710690  3120 net.cpp:148] Top shape: 24 96 28 28 (1806336)
I0403 15:28:19.710705  3120 net.cpp:156] Memory required for data: 744211488
I0403 15:28:19.710721  3120 layer_factory.hpp:77] Creating layer inception_3b/pool
I0403 15:28:19.710739  3120 net.cpp:91] Creating Layer inception_3b/pool
I0403 15:28:19.710757  3120 net.cpp:425] inception_3b/pool <- inception_3a/output_inception_3a/output_0_split_3
I0403 15:28:19.710775  3120 net.cpp:399] inception_3b/pool -> inception_3b/pool
I0403 15:28:19.710834  3120 net.cpp:141] Setting up inception_3b/pool
I0403 15:28:19.710858  3120 net.cpp:148] Top shape: 24 256 28 28 (4816896)
I0403 15:28:19.710873  3120 net.cpp:156] Memory required for data: 763479072
I0403 15:28:19.710889  3120 layer_factory.hpp:77] Creating layer inception_3b/pool_proj
I0403 15:28:19.710912  3120 net.cpp:91] Creating Layer inception_3b/pool_proj
I0403 15:28:19.710930  3120 net.cpp:425] inception_3b/pool_proj <- inception_3b/pool
I0403 15:28:19.710952  3120 net.cpp:399] inception_3b/pool_proj -> inception_3b/pool_proj
I0403 15:28:19.712023  3120 net.cpp:141] Setting up inception_3b/pool_proj
I0403 15:28:19.712051  3120 net.cpp:148] Top shape: 24 64 28 28 (1204224)
I0403 15:28:19.712069  3120 net.cpp:156] Memory required for data: 768295968
I0403 15:28:19.712087  3120 layer_factory.hpp:77] Creating layer inception_3b/relu_pool_proj
I0403 15:28:19.712106  3120 net.cpp:91] Creating Layer inception_3b/relu_pool_proj
I0403 15:28:19.712122  3120 net.cpp:425] inception_3b/relu_pool_proj <- inception_3b/pool_proj
I0403 15:28:19.712143  3120 net.cpp:386] inception_3b/relu_pool_proj -> inception_3b/pool_proj (in-place)
I0403 15:28:19.712563  3120 net.cpp:141] Setting up inception_3b/relu_pool_proj
I0403 15:28:19.712592  3120 net.cpp:148] Top shape: 24 64 28 28 (1204224)
I0403 15:28:19.712610  3120 net.cpp:156] Memory required for data: 773112864
I0403 15:28:19.712625  3120 layer_factory.hpp:77] Creating layer inception_3b/output
I0403 15:28:19.712644  3120 net.cpp:91] Creating Layer inception_3b/output
I0403 15:28:19.712661  3120 net.cpp:425] inception_3b/output <- inception_3b/1x1
I0403 15:28:19.712679  3120 net.cpp:425] inception_3b/output <- inception_3b/3x3
I0403 15:28:19.712697  3120 net.cpp:425] inception_3b/output <- inception_3b/5x5
I0403 15:28:19.712713  3120 net.cpp:425] inception_3b/output <- inception_3b/pool_proj
I0403 15:28:19.712733  3120 net.cpp:399] inception_3b/output -> inception_3b/output
I0403 15:28:19.712779  3120 net.cpp:141] Setting up inception_3b/output
I0403 15:28:19.712803  3120 net.cpp:148] Top shape: 24 480 28 28 (9031680)
I0403 15:28:19.712818  3120 net.cpp:156] Memory required for data: 809239584
I0403 15:28:19.712833  3120 layer_factory.hpp:77] Creating layer pool3/3x3_s2
I0403 15:28:19.712854  3120 net.cpp:91] Creating Layer pool3/3x3_s2
I0403 15:28:19.712872  3120 net.cpp:425] pool3/3x3_s2 <- inception_3b/output
I0403 15:28:19.712905  3120 net.cpp:399] pool3/3x3_s2 -> pool3/3x3_s2
I0403 15:28:19.712966  3120 net.cpp:141] Setting up pool3/3x3_s2
I0403 15:28:19.712990  3120 net.cpp:148] Top shape: 24 480 14 14 (2257920)
I0403 15:28:19.713007  3120 net.cpp:156] Memory required for data: 818271264
I0403 15:28:19.713022  3120 layer_factory.hpp:77] Creating layer pool3/3x3_s2_pool3/3x3_s2_0_split
I0403 15:28:19.713040  3120 net.cpp:91] Creating Layer pool3/3x3_s2_pool3/3x3_s2_0_split
I0403 15:28:19.713059  3120 net.cpp:425] pool3/3x3_s2_pool3/3x3_s2_0_split <- pool3/3x3_s2
I0403 15:28:19.713078  3120 net.cpp:399] pool3/3x3_s2_pool3/3x3_s2_0_split -> pool3/3x3_s2_pool3/3x3_s2_0_split_0
I0403 15:28:19.713100  3120 net.cpp:399] pool3/3x3_s2_pool3/3x3_s2_0_split -> pool3/3x3_s2_pool3/3x3_s2_0_split_1
I0403 15:28:19.713121  3120 net.cpp:399] pool3/3x3_s2_pool3/3x3_s2_0_split -> pool3/3x3_s2_pool3/3x3_s2_0_split_2
I0403 15:28:19.713142  3120 net.cpp:399] pool3/3x3_s2_pool3/3x3_s2_0_split -> pool3/3x3_s2_pool3/3x3_s2_0_split_3
I0403 15:28:19.713223  3120 net.cpp:141] Setting up pool3/3x3_s2_pool3/3x3_s2_0_split
I0403 15:28:19.713258  3120 net.cpp:148] Top shape: 24 480 14 14 (2257920)
I0403 15:28:19.713279  3120 net.cpp:148] Top shape: 24 480 14 14 (2257920)
I0403 15:28:19.713296  3120 net.cpp:148] Top shape: 24 480 14 14 (2257920)
I0403 15:28:19.713313  3120 net.cpp:148] Top shape: 24 480 14 14 (2257920)
I0403 15:28:19.713328  3120 net.cpp:156] Memory required for data: 854397984
I0403 15:28:19.713343  3120 layer_factory.hpp:77] Creating layer inception_4a/1x1
I0403 15:28:19.713367  3120 net.cpp:91] Creating Layer inception_4a/1x1
I0403 15:28:19.713385  3120 net.cpp:425] inception_4a/1x1 <- pool3/3x3_s2_pool3/3x3_s2_0_split_0
I0403 15:28:19.713407  3120 net.cpp:399] inception_4a/1x1 -> inception_4a/1x1
I0403 15:28:19.715008  3120 net.cpp:141] Setting up inception_4a/1x1
I0403 15:28:19.715036  3120 net.cpp:148] Top shape: 24 192 14 14 (903168)
I0403 15:28:19.715052  3120 net.cpp:156] Memory required for data: 858010656
I0403 15:28:19.715071  3120 layer_factory.hpp:77] Creating layer inception_4a/relu_1x1
I0403 15:28:19.715090  3120 net.cpp:91] Creating Layer inception_4a/relu_1x1
I0403 15:28:19.715107  3120 net.cpp:425] inception_4a/relu_1x1 <- inception_4a/1x1
I0403 15:28:19.715127  3120 net.cpp:386] inception_4a/relu_1x1 -> inception_4a/1x1 (in-place)
I0403 15:28:19.715312  3120 net.cpp:141] Setting up inception_4a/relu_1x1
I0403 15:28:19.715337  3120 net.cpp:148] Top shape: 24 192 14 14 (903168)
I0403 15:28:19.715354  3120 net.cpp:156] Memory required for data: 861623328
I0403 15:28:19.715369  3120 layer_factory.hpp:77] Creating layer inception_4a/3x3_reduce
I0403 15:28:19.715394  3120 net.cpp:91] Creating Layer inception_4a/3x3_reduce
I0403 15:28:19.715410  3120 net.cpp:425] inception_4a/3x3_reduce <- pool3/3x3_s2_pool3/3x3_s2_0_split_1
I0403 15:28:19.715432  3120 net.cpp:399] inception_4a/3x3_reduce -> inception_4a/3x3_reduce
I0403 15:28:19.716747  3120 net.cpp:141] Setting up inception_4a/3x3_reduce
I0403 15:28:19.716775  3120 net.cpp:148] Top shape: 24 96 14 14 (451584)
I0403 15:28:19.716792  3120 net.cpp:156] Memory required for data: 863429664
I0403 15:28:19.716820  3120 layer_factory.hpp:77] Creating layer inception_4a/relu_3x3_reduce
I0403 15:28:19.716840  3120 net.cpp:91] Creating Layer inception_4a/relu_3x3_reduce
I0403 15:28:19.716857  3120 net.cpp:425] inception_4a/relu_3x3_reduce <- inception_4a/3x3_reduce
I0403 15:28:19.716877  3120 net.cpp:386] inception_4a/relu_3x3_reduce -> inception_4a/3x3_reduce (in-place)
I0403 15:28:19.717059  3120 net.cpp:141] Setting up inception_4a/relu_3x3_reduce
I0403 15:28:19.717085  3120 net.cpp:148] Top shape: 24 96 14 14 (451584)
I0403 15:28:19.717100  3120 net.cpp:156] Memory required for data: 865236000
I0403 15:28:19.717116  3120 layer_factory.hpp:77] Creating layer inception_4a/3x3
I0403 15:28:19.717140  3120 net.cpp:91] Creating Layer inception_4a/3x3
I0403 15:28:19.717159  3120 net.cpp:425] inception_4a/3x3 <- inception_4a/3x3_reduce
I0403 15:28:19.717180  3120 net.cpp:399] inception_4a/3x3 -> inception_4a/3x3
I0403 15:28:19.719988  3120 net.cpp:141] Setting up inception_4a/3x3
I0403 15:28:19.720017  3120 net.cpp:148] Top shape: 24 208 14 14 (978432)
I0403 15:28:19.720033  3120 net.cpp:156] Memory required for data: 869149728
I0403 15:28:19.720052  3120 layer_factory.hpp:77] Creating layer inception_4a/relu_3x3
I0403 15:28:19.720073  3120 net.cpp:91] Creating Layer inception_4a/relu_3x3
I0403 15:28:19.720090  3120 net.cpp:425] inception_4a/relu_3x3 <- inception_4a/3x3
I0403 15:28:19.720108  3120 net.cpp:386] inception_4a/relu_3x3 -> inception_4a/3x3 (in-place)
I0403 15:28:19.720386  3120 net.cpp:141] Setting up inception_4a/relu_3x3
I0403 15:28:19.720412  3120 net.cpp:148] Top shape: 24 208 14 14 (978432)
I0403 15:28:19.720427  3120 net.cpp:156] Memory required for data: 873063456
I0403 15:28:19.720443  3120 layer_factory.hpp:77] Creating layer inception_4a/5x5_reduce
I0403 15:28:19.720466  3120 net.cpp:91] Creating Layer inception_4a/5x5_reduce
I0403 15:28:19.720484  3120 net.cpp:425] inception_4a/5x5_reduce <- pool3/3x3_s2_pool3/3x3_s2_0_split_2
I0403 15:28:19.720509  3120 net.cpp:399] inception_4a/5x5_reduce -> inception_4a/5x5_reduce
I0403 15:28:19.721524  3120 net.cpp:141] Setting up inception_4a/5x5_reduce
I0403 15:28:19.721552  3120 net.cpp:148] Top shape: 24 16 14 14 (75264)
I0403 15:28:19.721568  3120 net.cpp:156] Memory required for data: 873364512
I0403 15:28:19.721586  3120 layer_factory.hpp:77] Creating layer inception_4a/relu_5x5_reduce
I0403 15:28:19.721607  3120 net.cpp:91] Creating Layer inception_4a/relu_5x5_reduce
I0403 15:28:19.721623  3120 net.cpp:425] inception_4a/relu_5x5_reduce <- inception_4a/5x5_reduce
I0403 15:28:19.721642  3120 net.cpp:386] inception_4a/relu_5x5_reduce -> inception_4a/5x5_reduce (in-place)
I0403 15:28:19.721819  3120 net.cpp:141] Setting up inception_4a/relu_5x5_reduce
I0403 15:28:19.721846  3120 net.cpp:148] Top shape: 24 16 14 14 (75264)
I0403 15:28:19.721863  3120 net.cpp:156] Memory required for data: 873665568
I0403 15:28:19.721878  3120 layer_factory.hpp:77] Creating layer inception_4a/5x5
I0403 15:28:19.721899  3120 net.cpp:91] Creating Layer inception_4a/5x5
I0403 15:28:19.721917  3120 net.cpp:425] inception_4a/5x5 <- inception_4a/5x5_reduce
I0403 15:28:19.721938  3120 net.cpp:399] inception_4a/5x5 -> inception_4a/5x5
I0403 15:28:19.723014  3120 net.cpp:141] Setting up inception_4a/5x5
I0403 15:28:19.723044  3120 net.cpp:148] Top shape: 24 48 14 14 (225792)
I0403 15:28:19.723062  3120 net.cpp:156] Memory required for data: 874568736
I0403 15:28:19.723080  3120 layer_factory.hpp:77] Creating layer inception_4a/relu_5x5
I0403 15:28:19.723098  3120 net.cpp:91] Creating Layer inception_4a/relu_5x5
I0403 15:28:19.723114  3120 net.cpp:425] inception_4a/relu_5x5 <- inception_4a/5x5
I0403 15:28:19.723134  3120 net.cpp:386] inception_4a/relu_5x5 -> inception_4a/5x5 (in-place)
I0403 15:28:19.723322  3120 net.cpp:141] Setting up inception_4a/relu_5x5
I0403 15:28:19.723347  3120 net.cpp:148] Top shape: 24 48 14 14 (225792)
I0403 15:28:19.723363  3120 net.cpp:156] Memory required for data: 875471904
I0403 15:28:19.723378  3120 layer_factory.hpp:77] Creating layer inception_4a/pool
I0403 15:28:19.723397  3120 net.cpp:91] Creating Layer inception_4a/pool
I0403 15:28:19.723412  3120 net.cpp:425] inception_4a/pool <- pool3/3x3_s2_pool3/3x3_s2_0_split_3
I0403 15:28:19.723433  3120 net.cpp:399] inception_4a/pool -> inception_4a/pool
I0403 15:28:19.723496  3120 net.cpp:141] Setting up inception_4a/pool
I0403 15:28:19.723520  3120 net.cpp:148] Top shape: 24 480 14 14 (2257920)
I0403 15:28:19.723536  3120 net.cpp:156] Memory required for data: 884503584
I0403 15:28:19.723549  3120 layer_factory.hpp:77] Creating layer inception_4a/pool_proj
I0403 15:28:19.723572  3120 net.cpp:91] Creating Layer inception_4a/pool_proj
I0403 15:28:19.723589  3120 net.cpp:425] inception_4a/pool_proj <- inception_4a/pool
I0403 15:28:19.723610  3120 net.cpp:399] inception_4a/pool_proj -> inception_4a/pool_proj
I0403 15:28:19.724772  3120 net.cpp:141] Setting up inception_4a/pool_proj
I0403 15:28:19.724800  3120 net.cpp:148] Top shape: 24 64 14 14 (301056)
I0403 15:28:19.724830  3120 net.cpp:156] Memory required for data: 885707808
I0403 15:28:19.724850  3120 layer_factory.hpp:77] Creating layer inception_4a/relu_pool_proj
I0403 15:28:19.724871  3120 net.cpp:91] Creating Layer inception_4a/relu_pool_proj
I0403 15:28:19.724889  3120 net.cpp:425] inception_4a/relu_pool_proj <- inception_4a/pool_proj
I0403 15:28:19.724906  3120 net.cpp:386] inception_4a/relu_pool_proj -> inception_4a/pool_proj (in-place)
I0403 15:28:19.725183  3120 net.cpp:141] Setting up inception_4a/relu_pool_proj
I0403 15:28:19.725209  3120 net.cpp:148] Top shape: 24 64 14 14 (301056)
I0403 15:28:19.725224  3120 net.cpp:156] Memory required for data: 886912032
I0403 15:28:19.725244  3120 layer_factory.hpp:77] Creating layer inception_4a/output
I0403 15:28:19.725265  3120 net.cpp:91] Creating Layer inception_4a/output
I0403 15:28:19.725281  3120 net.cpp:425] inception_4a/output <- inception_4a/1x1
I0403 15:28:19.725297  3120 net.cpp:425] inception_4a/output <- inception_4a/3x3
I0403 15:28:19.725313  3120 net.cpp:425] inception_4a/output <- inception_4a/5x5
I0403 15:28:19.725329  3120 net.cpp:425] inception_4a/output <- inception_4a/pool_proj
I0403 15:28:19.725349  3120 net.cpp:399] inception_4a/output -> inception_4a/output
I0403 15:28:19.725394  3120 net.cpp:141] Setting up inception_4a/output
I0403 15:28:19.725420  3120 net.cpp:148] Top shape: 24 512 14 14 (2408448)
I0403 15:28:19.725436  3120 net.cpp:156] Memory required for data: 896545824
I0403 15:28:19.725451  3120 layer_factory.hpp:77] Creating layer inception_4a/output_inception_4a/output_0_split
I0403 15:28:19.725471  3120 net.cpp:91] Creating Layer inception_4a/output_inception_4a/output_0_split
I0403 15:28:19.725486  3120 net.cpp:425] inception_4a/output_inception_4a/output_0_split <- inception_4a/output
I0403 15:28:19.725505  3120 net.cpp:399] inception_4a/output_inception_4a/output_0_split -> inception_4a/output_inception_4a/output_0_split_0
I0403 15:28:19.725528  3120 net.cpp:399] inception_4a/output_inception_4a/output_0_split -> inception_4a/output_inception_4a/output_0_split_1
I0403 15:28:19.725548  3120 net.cpp:399] inception_4a/output_inception_4a/output_0_split -> inception_4a/output_inception_4a/output_0_split_2
I0403 15:28:19.725569  3120 net.cpp:399] inception_4a/output_inception_4a/output_0_split -> inception_4a/output_inception_4a/output_0_split_3
I0403 15:28:19.725589  3120 net.cpp:399] inception_4a/output_inception_4a/output_0_split -> inception_4a/output_inception_4a/output_0_split_4
I0403 15:28:19.725679  3120 net.cpp:141] Setting up inception_4a/output_inception_4a/output_0_split
I0403 15:28:19.725703  3120 net.cpp:148] Top shape: 24 512 14 14 (2408448)
I0403 15:28:19.725720  3120 net.cpp:148] Top shape: 24 512 14 14 (2408448)
I0403 15:28:19.725739  3120 net.cpp:148] Top shape: 24 512 14 14 (2408448)
I0403 15:28:19.725755  3120 net.cpp:148] Top shape: 24 512 14 14 (2408448)
I0403 15:28:19.725771  3120 net.cpp:148] Top shape: 24 512 14 14 (2408448)
I0403 15:28:19.725785  3120 net.cpp:156] Memory required for data: 944714784
I0403 15:28:19.725800  3120 layer_factory.hpp:77] Creating layer loss1/ave_pool
I0403 15:28:19.725819  3120 net.cpp:91] Creating Layer loss1/ave_pool
I0403 15:28:19.725836  3120 net.cpp:425] loss1/ave_pool <- inception_4a/output_inception_4a/output_0_split_0
I0403 15:28:19.725857  3120 net.cpp:399] loss1/ave_pool -> loss1/ave_pool
I0403 15:28:19.726061  3120 net.cpp:141] Setting up loss1/ave_pool
I0403 15:28:19.726088  3120 net.cpp:148] Top shape: 24 512 4 4 (196608)
I0403 15:28:19.726102  3120 net.cpp:156] Memory required for data: 945501216
I0403 15:28:19.726117  3120 layer_factory.hpp:77] Creating layer loss1/conv
I0403 15:28:19.726140  3120 net.cpp:91] Creating Layer loss1/conv
I0403 15:28:19.726157  3120 net.cpp:425] loss1/conv <- loss1/ave_pool
I0403 15:28:19.726178  3120 net.cpp:399] loss1/conv -> loss1/conv
I0403 15:28:19.727674  3120 net.cpp:141] Setting up loss1/conv
I0403 15:28:19.727704  3120 net.cpp:148] Top shape: 24 128 4 4 (49152)
I0403 15:28:19.727733  3120 net.cpp:156] Memory required for data: 945697824
I0403 15:28:19.727753  3120 layer_factory.hpp:77] Creating layer loss1/relu_conv
I0403 15:28:19.727776  3120 net.cpp:91] Creating Layer loss1/relu_conv
I0403 15:28:19.727794  3120 net.cpp:425] loss1/relu_conv <- loss1/conv
I0403 15:28:19.727813  3120 net.cpp:386] loss1/relu_conv -> loss1/conv (in-place)
I0403 15:28:19.728104  3120 net.cpp:141] Setting up loss1/relu_conv
I0403 15:28:19.728133  3120 net.cpp:148] Top shape: 24 128 4 4 (49152)
I0403 15:28:19.728149  3120 net.cpp:156] Memory required for data: 945894432
I0403 15:28:19.728165  3120 layer_factory.hpp:77] Creating layer loss1/fc
I0403 15:28:19.728193  3120 net.cpp:91] Creating Layer loss1/fc
I0403 15:28:19.728212  3120 net.cpp:425] loss1/fc <- loss1/conv
I0403 15:28:19.728234  3120 net.cpp:399] loss1/fc -> loss1/fc
I0403 15:28:19.746876  3120 net.cpp:141] Setting up loss1/fc
I0403 15:28:19.746959  3120 net.cpp:148] Top shape: 24 1024 (24576)
I0403 15:28:19.746976  3120 net.cpp:156] Memory required for data: 945992736
I0403 15:28:19.746999  3120 layer_factory.hpp:77] Creating layer loss1/relu_fc
I0403 15:28:19.747022  3120 net.cpp:91] Creating Layer loss1/relu_fc
I0403 15:28:19.747041  3120 net.cpp:425] loss1/relu_fc <- loss1/fc
I0403 15:28:19.747064  3120 net.cpp:386] loss1/relu_fc -> loss1/fc (in-place)
I0403 15:28:19.747318  3120 net.cpp:141] Setting up loss1/relu_fc
I0403 15:28:19.747344  3120 net.cpp:148] Top shape: 24 1024 (24576)
I0403 15:28:19.747364  3120 net.cpp:156] Memory required for data: 946091040
I0403 15:28:19.747380  3120 layer_factory.hpp:77] Creating layer loss1/drop_fc
I0403 15:28:19.747409  3120 net.cpp:91] Creating Layer loss1/drop_fc
I0403 15:28:19.747426  3120 net.cpp:425] loss1/drop_fc <- loss1/fc
I0403 15:28:19.747444  3120 net.cpp:386] loss1/drop_fc -> loss1/fc (in-place)
I0403 15:28:19.747501  3120 net.cpp:141] Setting up loss1/drop_fc
I0403 15:28:19.747525  3120 net.cpp:148] Top shape: 24 1024 (24576)
I0403 15:28:19.747539  3120 net.cpp:156] Memory required for data: 946189344
I0403 15:28:19.747555  3120 layer_factory.hpp:77] Creating layer loss1/classifier_plantvillage
I0403 15:28:19.747575  3120 net.cpp:91] Creating Layer loss1/classifier_plantvillage
I0403 15:28:19.747591  3120 net.cpp:425] loss1/classifier_plantvillage <- loss1/fc
I0403 15:28:19.747612  3120 net.cpp:399] loss1/classifier_plantvillage -> loss1/classifier_plantvillage
I0403 15:28:19.748594  3120 net.cpp:141] Setting up loss1/classifier_plantvillage
I0403 15:28:19.748623  3120 net.cpp:148] Top shape: 24 38 (912)
I0403 15:28:19.748641  3120 net.cpp:156] Memory required for data: 946192992
I0403 15:28:19.748659  3120 layer_factory.hpp:77] Creating layer loss1/classifier_plantvillage_loss1/classifier_plantvillage_0_split
I0403 15:28:19.748682  3120 net.cpp:91] Creating Layer loss1/classifier_plantvillage_loss1/classifier_plantvillage_0_split
I0403 15:28:19.748699  3120 net.cpp:425] loss1/classifier_plantvillage_loss1/classifier_plantvillage_0_split <- loss1/classifier_plantvillage
I0403 15:28:19.748718  3120 net.cpp:399] loss1/classifier_plantvillage_loss1/classifier_plantvillage_0_split -> loss1/classifier_plantvillage_loss1/classifier_plantvillage_0_split_0
I0403 15:28:19.748739  3120 net.cpp:399] loss1/classifier_plantvillage_loss1/classifier_plantvillage_0_split -> loss1/classifier_plantvillage_loss1/classifier_plantvillage_0_split_1
I0403 15:28:19.748761  3120 net.cpp:399] loss1/classifier_plantvillage_loss1/classifier_plantvillage_0_split -> loss1/classifier_plantvillage_loss1/classifier_plantvillage_0_split_2
I0403 15:28:19.748842  3120 net.cpp:141] Setting up loss1/classifier_plantvillage_loss1/classifier_plantvillage_0_split
I0403 15:28:19.748865  3120 net.cpp:148] Top shape: 24 38 (912)
I0403 15:28:19.748883  3120 net.cpp:148] Top shape: 24 38 (912)
I0403 15:28:19.748899  3120 net.cpp:148] Top shape: 24 38 (912)
I0403 15:28:19.748914  3120 net.cpp:156] Memory required for data: 946203936
I0403 15:28:19.748929  3120 layer_factory.hpp:77] Creating layer inception_4b/1x1
I0403 15:28:19.748952  3120 net.cpp:91] Creating Layer inception_4b/1x1
I0403 15:28:19.748991  3120 net.cpp:425] inception_4b/1x1 <- inception_4a/output_inception_4a/output_0_split_1
I0403 15:28:19.749011  3120 net.cpp:399] inception_4b/1x1 -> inception_4b/1x1
I0403 15:28:19.750720  3120 net.cpp:141] Setting up inception_4b/1x1
I0403 15:28:19.750748  3120 net.cpp:148] Top shape: 24 160 14 14 (752640)
I0403 15:28:19.750764  3120 net.cpp:156] Memory required for data: 949214496
I0403 15:28:19.750783  3120 layer_factory.hpp:77] Creating layer inception_4b/relu_1x1
I0403 15:28:19.750804  3120 net.cpp:91] Creating Layer inception_4b/relu_1x1
I0403 15:28:19.750823  3120 net.cpp:425] inception_4b/relu_1x1 <- inception_4b/1x1
I0403 15:28:19.750841  3120 net.cpp:386] inception_4b/relu_1x1 -> inception_4b/1x1 (in-place)
I0403 15:28:19.751019  3120 net.cpp:141] Setting up inception_4b/relu_1x1
I0403 15:28:19.751044  3120 net.cpp:148] Top shape: 24 160 14 14 (752640)
I0403 15:28:19.751060  3120 net.cpp:156] Memory required for data: 952225056
I0403 15:28:19.751073  3120 layer_factory.hpp:77] Creating layer inception_4b/3x3_reduce
I0403 15:28:19.751098  3120 net.cpp:91] Creating Layer inception_4b/3x3_reduce
I0403 15:28:19.751116  3120 net.cpp:425] inception_4b/3x3_reduce <- inception_4a/output_inception_4a/output_0_split_2
I0403 15:28:19.751138  3120 net.cpp:399] inception_4b/3x3_reduce -> inception_4b/3x3_reduce
I0403 15:28:19.752482  3120 net.cpp:141] Setting up inception_4b/3x3_reduce
I0403 15:28:19.752513  3120 net.cpp:148] Top shape: 24 112 14 14 (526848)
I0403 15:28:19.752529  3120 net.cpp:156] Memory required for data: 954332448
I0403 15:28:19.752548  3120 layer_factory.hpp:77] Creating layer inception_4b/relu_3x3_reduce
I0403 15:28:19.752567  3120 net.cpp:91] Creating Layer inception_4b/relu_3x3_reduce
I0403 15:28:19.752583  3120 net.cpp:425] inception_4b/relu_3x3_reduce <- inception_4b/3x3_reduce
I0403 15:28:19.752604  3120 net.cpp:386] inception_4b/relu_3x3_reduce -> inception_4b/3x3_reduce (in-place)
I0403 15:28:19.752882  3120 net.cpp:141] Setting up inception_4b/relu_3x3_reduce
I0403 15:28:19.752912  3120 net.cpp:148] Top shape: 24 112 14 14 (526848)
I0403 15:28:19.752926  3120 net.cpp:156] Memory required for data: 956439840
I0403 15:28:19.752941  3120 layer_factory.hpp:77] Creating layer inception_4b/3x3
I0403 15:28:19.752964  3120 net.cpp:91] Creating Layer inception_4b/3x3
I0403 15:28:19.752982  3120 net.cpp:425] inception_4b/3x3 <- inception_4b/3x3_reduce
I0403 15:28:19.753003  3120 net.cpp:399] inception_4b/3x3 -> inception_4b/3x3
I0403 15:28:19.756006  3120 net.cpp:141] Setting up inception_4b/3x3
I0403 15:28:19.756036  3120 net.cpp:148] Top shape: 24 224 14 14 (1053696)
I0403 15:28:19.756050  3120 net.cpp:156] Memory required for data: 960654624
I0403 15:28:19.756070  3120 layer_factory.hpp:77] Creating layer inception_4b/relu_3x3
I0403 15:28:19.756091  3120 net.cpp:91] Creating Layer inception_4b/relu_3x3
I0403 15:28:19.756109  3120 net.cpp:425] inception_4b/relu_3x3 <- inception_4b/3x3
I0403 15:28:19.756126  3120 net.cpp:386] inception_4b/relu_3x3 -> inception_4b/3x3 (in-place)
I0403 15:28:19.756309  3120 net.cpp:141] Setting up inception_4b/relu_3x3
I0403 15:28:19.756336  3120 net.cpp:148] Top shape: 24 224 14 14 (1053696)
I0403 15:28:19.756353  3120 net.cpp:156] Memory required for data: 964869408
I0403 15:28:19.756368  3120 layer_factory.hpp:77] Creating layer inception_4b/5x5_reduce
I0403 15:28:19.756388  3120 net.cpp:91] Creating Layer inception_4b/5x5_reduce
I0403 15:28:19.756405  3120 net.cpp:425] inception_4b/5x5_reduce <- inception_4a/output_inception_4a/output_0_split_3
I0403 15:28:19.756428  3120 net.cpp:399] inception_4b/5x5_reduce -> inception_4b/5x5_reduce
I0403 15:28:19.757520  3120 net.cpp:141] Setting up inception_4b/5x5_reduce
I0403 15:28:19.757550  3120 net.cpp:148] Top shape: 24 24 14 14 (112896)
I0403 15:28:19.757567  3120 net.cpp:156] Memory required for data: 965320992
I0403 15:28:19.757586  3120 layer_factory.hpp:77] Creating layer inception_4b/relu_5x5_reduce
I0403 15:28:19.757604  3120 net.cpp:91] Creating Layer inception_4b/relu_5x5_reduce
I0403 15:28:19.757637  3120 net.cpp:425] inception_4b/relu_5x5_reduce <- inception_4b/5x5_reduce
I0403 15:28:19.757654  3120 net.cpp:386] inception_4b/relu_5x5_reduce -> inception_4b/5x5_reduce (in-place)
I0403 15:28:19.757843  3120 net.cpp:141] Setting up inception_4b/relu_5x5_reduce
I0403 15:28:19.757869  3120 net.cpp:148] Top shape: 24 24 14 14 (112896)
I0403 15:28:19.757884  3120 net.cpp:156] Memory required for data: 965772576
I0403 15:28:19.757899  3120 layer_factory.hpp:77] Creating layer inception_4b/5x5
I0403 15:28:19.757921  3120 net.cpp:91] Creating Layer inception_4b/5x5
I0403 15:28:19.757939  3120 net.cpp:425] inception_4b/5x5 <- inception_4b/5x5_reduce
I0403 15:28:19.757961  3120 net.cpp:399] inception_4b/5x5 -> inception_4b/5x5
I0403 15:28:19.759193  3120 net.cpp:141] Setting up inception_4b/5x5
I0403 15:28:19.759222  3120 net.cpp:148] Top shape: 24 64 14 14 (301056)
I0403 15:28:19.759238  3120 net.cpp:156] Memory required for data: 966976800
I0403 15:28:19.759263  3120 layer_factory.hpp:77] Creating layer inception_4b/relu_5x5
I0403 15:28:19.759284  3120 net.cpp:91] Creating Layer inception_4b/relu_5x5
I0403 15:28:19.759300  3120 net.cpp:425] inception_4b/relu_5x5 <- inception_4b/5x5
I0403 15:28:19.759318  3120 net.cpp:386] inception_4b/relu_5x5 -> inception_4b/5x5 (in-place)
I0403 15:28:19.759605  3120 net.cpp:141] Setting up inception_4b/relu_5x5
I0403 15:28:19.759632  3120 net.cpp:148] Top shape: 24 64 14 14 (301056)
I0403 15:28:19.759647  3120 net.cpp:156] Memory required for data: 968181024
I0403 15:28:19.759663  3120 layer_factory.hpp:77] Creating layer inception_4b/pool
I0403 15:28:19.759687  3120 net.cpp:91] Creating Layer inception_4b/pool
I0403 15:28:19.759706  3120 net.cpp:425] inception_4b/pool <- inception_4a/output_inception_4a/output_0_split_4
I0403 15:28:19.759723  3120 net.cpp:399] inception_4b/pool -> inception_4b/pool
I0403 15:28:19.759788  3120 net.cpp:141] Setting up inception_4b/pool
I0403 15:28:19.759811  3120 net.cpp:148] Top shape: 24 512 14 14 (2408448)
I0403 15:28:19.759827  3120 net.cpp:156] Memory required for data: 977814816
I0403 15:28:19.759843  3120 layer_factory.hpp:77] Creating layer inception_4b/pool_proj
I0403 15:28:19.759865  3120 net.cpp:91] Creating Layer inception_4b/pool_proj
I0403 15:28:19.759883  3120 net.cpp:425] inception_4b/pool_proj <- inception_4b/pool
I0403 15:28:19.759904  3120 net.cpp:399] inception_4b/pool_proj -> inception_4b/pool_proj
I0403 15:28:19.761147  3120 net.cpp:141] Setting up inception_4b/pool_proj
I0403 15:28:19.761176  3120 net.cpp:148] Top shape: 24 64 14 14 (301056)
I0403 15:28:19.761194  3120 net.cpp:156] Memory required for data: 979019040
I0403 15:28:19.761214  3120 layer_factory.hpp:77] Creating layer inception_4b/relu_pool_proj
I0403 15:28:19.761232  3120 net.cpp:91] Creating Layer inception_4b/relu_pool_proj
I0403 15:28:19.761253  3120 net.cpp:425] inception_4b/relu_pool_proj <- inception_4b/pool_proj
I0403 15:28:19.761275  3120 net.cpp:386] inception_4b/relu_pool_proj -> inception_4b/pool_proj (in-place)
I0403 15:28:19.761453  3120 net.cpp:141] Setting up inception_4b/relu_pool_proj
I0403 15:28:19.761479  3120 net.cpp:148] Top shape: 24 64 14 14 (301056)
I0403 15:28:19.761494  3120 net.cpp:156] Memory required for data: 980223264
I0403 15:28:19.761510  3120 layer_factory.hpp:77] Creating layer inception_4b/output
I0403 15:28:19.761528  3120 net.cpp:91] Creating Layer inception_4b/output
I0403 15:28:19.761543  3120 net.cpp:425] inception_4b/output <- inception_4b/1x1
I0403 15:28:19.761560  3120 net.cpp:425] inception_4b/output <- inception_4b/3x3
I0403 15:28:19.761577  3120 net.cpp:425] inception_4b/output <- inception_4b/5x5
I0403 15:28:19.761595  3120 net.cpp:425] inception_4b/output <- inception_4b/pool_proj
I0403 15:28:19.761615  3120 net.cpp:399] inception_4b/output -> inception_4b/output
I0403 15:28:19.761661  3120 net.cpp:141] Setting up inception_4b/output
I0403 15:28:19.761685  3120 net.cpp:148] Top shape: 24 512 14 14 (2408448)
I0403 15:28:19.761701  3120 net.cpp:156] Memory required for data: 989857056
I0403 15:28:19.761732  3120 layer_factory.hpp:77] Creating layer inception_4b/output_inception_4b/output_0_split
I0403 15:28:19.761751  3120 net.cpp:91] Creating Layer inception_4b/output_inception_4b/output_0_split
I0403 15:28:19.761767  3120 net.cpp:425] inception_4b/output_inception_4b/output_0_split <- inception_4b/output
I0403 15:28:19.761785  3120 net.cpp:399] inception_4b/output_inception_4b/output_0_split -> inception_4b/output_inception_4b/output_0_split_0
I0403 15:28:19.761806  3120 net.cpp:399] inception_4b/output_inception_4b/output_0_split -> inception_4b/output_inception_4b/output_0_split_1
I0403 15:28:19.761828  3120 net.cpp:399] inception_4b/output_inception_4b/output_0_split -> inception_4b/output_inception_4b/output_0_split_2
I0403 15:28:19.761849  3120 net.cpp:399] inception_4b/output_inception_4b/output_0_split -> inception_4b/output_inception_4b/output_0_split_3
I0403 15:28:19.761934  3120 net.cpp:141] Setting up inception_4b/output_inception_4b/output_0_split
I0403 15:28:19.761957  3120 net.cpp:148] Top shape: 24 512 14 14 (2408448)
I0403 15:28:19.761975  3120 net.cpp:148] Top shape: 24 512 14 14 (2408448)
I0403 15:28:19.761989  3120 net.cpp:148] Top shape: 24 512 14 14 (2408448)
I0403 15:28:19.762006  3120 net.cpp:148] Top shape: 24 512 14 14 (2408448)
I0403 15:28:19.762020  3120 net.cpp:156] Memory required for data: 1028392224
I0403 15:28:19.762035  3120 layer_factory.hpp:77] Creating layer inception_4c/1x1
I0403 15:28:19.762058  3120 net.cpp:91] Creating Layer inception_4c/1x1
I0403 15:28:19.762075  3120 net.cpp:425] inception_4c/1x1 <- inception_4b/output_inception_4b/output_0_split_0
I0403 15:28:19.762097  3120 net.cpp:399] inception_4c/1x1 -> inception_4c/1x1
I0403 15:28:19.763573  3120 net.cpp:141] Setting up inception_4c/1x1
I0403 15:28:19.763602  3120 net.cpp:148] Top shape: 24 128 14 14 (602112)
I0403 15:28:19.763618  3120 net.cpp:156] Memory required for data: 1030800672
I0403 15:28:19.763638  3120 layer_factory.hpp:77] Creating layer inception_4c/relu_1x1
I0403 15:28:19.763655  3120 net.cpp:91] Creating Layer inception_4c/relu_1x1
I0403 15:28:19.763671  3120 net.cpp:425] inception_4c/relu_1x1 <- inception_4c/1x1
I0403 15:28:19.763691  3120 net.cpp:386] inception_4c/relu_1x1 -> inception_4c/1x1 (in-place)
I0403 15:28:19.763873  3120 net.cpp:141] Setting up inception_4c/relu_1x1
I0403 15:28:19.763898  3120 net.cpp:148] Top shape: 24 128 14 14 (602112)
I0403 15:28:19.763913  3120 net.cpp:156] Memory required for data: 1033209120
I0403 15:28:19.763928  3120 layer_factory.hpp:77] Creating layer inception_4c/3x3_reduce
I0403 15:28:19.763950  3120 net.cpp:91] Creating Layer inception_4c/3x3_reduce
I0403 15:28:19.763968  3120 net.cpp:425] inception_4c/3x3_reduce <- inception_4b/output_inception_4b/output_0_split_1
I0403 15:28:19.763989  3120 net.cpp:399] inception_4c/3x3_reduce -> inception_4c/3x3_reduce
I0403 15:28:19.766119  3120 net.cpp:141] Setting up inception_4c/3x3_reduce
I0403 15:28:19.766147  3120 net.cpp:148] Top shape: 24 128 14 14 (602112)
I0403 15:28:19.766165  3120 net.cpp:156] Memory required for data: 1035617568
I0403 15:28:19.766185  3120 layer_factory.hpp:77] Creating layer inception_4c/relu_3x3_reduce
I0403 15:28:19.766207  3120 net.cpp:91] Creating Layer inception_4c/relu_3x3_reduce
I0403 15:28:19.766225  3120 net.cpp:425] inception_4c/relu_3x3_reduce <- inception_4c/3x3_reduce
I0403 15:28:19.766249  3120 net.cpp:386] inception_4c/relu_3x3_reduce -> inception_4c/3x3_reduce (in-place)
I0403 15:28:19.766537  3120 net.cpp:141] Setting up inception_4c/relu_3x3_reduce
I0403 15:28:19.766566  3120 net.cpp:148] Top shape: 24 128 14 14 (602112)
I0403 15:28:19.766582  3120 net.cpp:156] Memory required for data: 1038026016
I0403 15:28:19.766598  3120 layer_factory.hpp:77] Creating layer inception_4c/3x3
I0403 15:28:19.766623  3120 net.cpp:91] Creating Layer inception_4c/3x3
I0403 15:28:19.766641  3120 net.cpp:425] inception_4c/3x3 <- inception_4c/3x3_reduce
I0403 15:28:19.766665  3120 net.cpp:399] inception_4c/3x3 -> inception_4c/3x3
I0403 15:28:19.770346  3120 net.cpp:141] Setting up inception_4c/3x3
I0403 15:28:19.770390  3120 net.cpp:148] Top shape: 24 256 14 14 (1204224)
I0403 15:28:19.770407  3120 net.cpp:156] Memory required for data: 1042842912
I0403 15:28:19.770442  3120 layer_factory.hpp:77] Creating layer inception_4c/relu_3x3
I0403 15:28:19.770463  3120 net.cpp:91] Creating Layer inception_4c/relu_3x3
I0403 15:28:19.770480  3120 net.cpp:425] inception_4c/relu_3x3 <- inception_4c/3x3
I0403 15:28:19.770498  3120 net.cpp:386] inception_4c/relu_3x3 -> inception_4c/3x3 (in-place)
I0403 15:28:19.770678  3120 net.cpp:141] Setting up inception_4c/relu_3x3
I0403 15:28:19.770704  3120 net.cpp:148] Top shape: 24 256 14 14 (1204224)
I0403 15:28:19.770720  3120 net.cpp:156] Memory required for data: 1047659808
I0403 15:28:19.770735  3120 layer_factory.hpp:77] Creating layer inception_4c/5x5_reduce
I0403 15:28:19.770759  3120 net.cpp:91] Creating Layer inception_4c/5x5_reduce
I0403 15:28:19.770777  3120 net.cpp:425] inception_4c/5x5_reduce <- inception_4b/output_inception_4b/output_0_split_2
I0403 15:28:19.770797  3120 net.cpp:399] inception_4c/5x5_reduce -> inception_4c/5x5_reduce
I0403 15:28:19.771880  3120 net.cpp:141] Setting up inception_4c/5x5_reduce
I0403 15:28:19.771913  3120 net.cpp:148] Top shape: 24 24 14 14 (112896)
I0403 15:28:19.771929  3120 net.cpp:156] Memory required for data: 1048111392
I0403 15:28:19.771950  3120 layer_factory.hpp:77] Creating layer inception_4c/relu_5x5_reduce
I0403 15:28:19.771970  3120 net.cpp:91] Creating Layer inception_4c/relu_5x5_reduce
I0403 15:28:19.771986  3120 net.cpp:425] inception_4c/relu_5x5_reduce <- inception_4c/5x5_reduce
I0403 15:28:19.772006  3120 net.cpp:386] inception_4c/relu_5x5_reduce -> inception_4c/5x5_reduce (in-place)
I0403 15:28:19.772192  3120 net.cpp:141] Setting up inception_4c/relu_5x5_reduce
I0403 15:28:19.772217  3120 net.cpp:148] Top shape: 24 24 14 14 (112896)
I0403 15:28:19.772233  3120 net.cpp:156] Memory required for data: 1048562976
I0403 15:28:19.772253  3120 layer_factory.hpp:77] Creating layer inception_4c/5x5
I0403 15:28:19.772275  3120 net.cpp:91] Creating Layer inception_4c/5x5
I0403 15:28:19.772294  3120 net.cpp:425] inception_4c/5x5 <- inception_4c/5x5_reduce
I0403 15:28:19.772315  3120 net.cpp:399] inception_4c/5x5 -> inception_4c/5x5
I0403 15:28:19.773561  3120 net.cpp:141] Setting up inception_4c/5x5
I0403 15:28:19.773589  3120 net.cpp:148] Top shape: 24 64 14 14 (301056)
I0403 15:28:19.773607  3120 net.cpp:156] Memory required for data: 1049767200
I0403 15:28:19.773625  3120 layer_factory.hpp:77] Creating layer inception_4c/relu_5x5
I0403 15:28:19.773644  3120 net.cpp:91] Creating Layer inception_4c/relu_5x5
I0403 15:28:19.773661  3120 net.cpp:425] inception_4c/relu_5x5 <- inception_4c/5x5
I0403 15:28:19.773682  3120 net.cpp:386] inception_4c/relu_5x5 -> inception_4c/5x5 (in-place)
I0403 15:28:19.774000  3120 net.cpp:141] Setting up inception_4c/relu_5x5
I0403 15:28:19.774030  3120 net.cpp:148] Top shape: 24 64 14 14 (301056)
I0403 15:28:19.774060  3120 net.cpp:156] Memory required for data: 1050971424
I0403 15:28:19.774076  3120 layer_factory.hpp:77] Creating layer inception_4c/pool
I0403 15:28:19.774101  3120 net.cpp:91] Creating Layer inception_4c/pool
I0403 15:28:19.774126  3120 net.cpp:425] inception_4c/pool <- inception_4b/output_inception_4b/output_0_split_3
I0403 15:28:19.774148  3120 net.cpp:399] inception_4c/pool -> inception_4c/pool
I0403 15:28:19.774219  3120 net.cpp:141] Setting up inception_4c/pool
I0403 15:28:19.774255  3120 net.cpp:148] Top shape: 24 512 14 14 (2408448)
I0403 15:28:19.774276  3120 net.cpp:156] Memory required for data: 1060605216
I0403 15:28:19.774296  3120 layer_factory.hpp:77] Creating layer inception_4c/pool_proj
I0403 15:28:19.774324  3120 net.cpp:91] Creating Layer inception_4c/pool_proj
I0403 15:28:19.774344  3120 net.cpp:425] inception_4c/pool_proj <- inception_4c/pool
I0403 15:28:19.774368  3120 net.cpp:399] inception_4c/pool_proj -> inception_4c/pool_proj
I0403 15:28:19.775722  3120 net.cpp:141] Setting up inception_4c/pool_proj
I0403 15:28:19.775753  3120 net.cpp:148] Top shape: 24 64 14 14 (301056)
I0403 15:28:19.775784  3120 net.cpp:156] Memory required for data: 1061809440
I0403 15:28:19.775805  3120 layer_factory.hpp:77] Creating layer inception_4c/relu_pool_proj
I0403 15:28:19.775827  3120 net.cpp:91] Creating Layer inception_4c/relu_pool_proj
I0403 15:28:19.775846  3120 net.cpp:425] inception_4c/relu_pool_proj <- inception_4c/pool_proj
I0403 15:28:19.775864  3120 net.cpp:386] inception_4c/relu_pool_proj -> inception_4c/pool_proj (in-place)
I0403 15:28:19.776056  3120 net.cpp:141] Setting up inception_4c/relu_pool_proj
I0403 15:28:19.776082  3120 net.cpp:148] Top shape: 24 64 14 14 (301056)
I0403 15:28:19.776096  3120 net.cpp:156] Memory required for data: 1063013664
I0403 15:28:19.776113  3120 layer_factory.hpp:77] Creating layer inception_4c/output
I0403 15:28:19.776130  3120 net.cpp:91] Creating Layer inception_4c/output
I0403 15:28:19.776146  3120 net.cpp:425] inception_4c/output <- inception_4c/1x1
I0403 15:28:19.776163  3120 net.cpp:425] inception_4c/output <- inception_4c/3x3
I0403 15:28:19.776180  3120 net.cpp:425] inception_4c/output <- inception_4c/5x5
I0403 15:28:19.776196  3120 net.cpp:425] inception_4c/output <- inception_4c/pool_proj
I0403 15:28:19.776216  3120 net.cpp:399] inception_4c/output -> inception_4c/output
I0403 15:28:19.776268  3120 net.cpp:141] Setting up inception_4c/output
I0403 15:28:19.776296  3120 net.cpp:148] Top shape: 24 512 14 14 (2408448)
I0403 15:28:19.776312  3120 net.cpp:156] Memory required for data: 1072647456
I0403 15:28:19.776327  3120 layer_factory.hpp:77] Creating layer inception_4c/output_inception_4c/output_0_split
I0403 15:28:19.776345  3120 net.cpp:91] Creating Layer inception_4c/output_inception_4c/output_0_split
I0403 15:28:19.776361  3120 net.cpp:425] inception_4c/output_inception_4c/output_0_split <- inception_4c/output
I0403 15:28:19.776379  3120 net.cpp:399] inception_4c/output_inception_4c/output_0_split -> inception_4c/output_inception_4c/output_0_split_0
I0403 15:28:19.776401  3120 net.cpp:399] inception_4c/output_inception_4c/output_0_split -> inception_4c/output_inception_4c/output_0_split_1
I0403 15:28:19.776423  3120 net.cpp:399] inception_4c/output_inception_4c/output_0_split -> inception_4c/output_inception_4c/output_0_split_2
I0403 15:28:19.776446  3120 net.cpp:399] inception_4c/output_inception_4c/output_0_split -> inception_4c/output_inception_4c/output_0_split_3
I0403 15:28:19.776536  3120 net.cpp:141] Setting up inception_4c/output_inception_4c/output_0_split
I0403 15:28:19.776561  3120 net.cpp:148] Top shape: 24 512 14 14 (2408448)
I0403 15:28:19.776578  3120 net.cpp:148] Top shape: 24 512 14 14 (2408448)
I0403 15:28:19.776597  3120 net.cpp:148] Top shape: 24 512 14 14 (2408448)
I0403 15:28:19.776614  3120 net.cpp:148] Top shape: 24 512 14 14 (2408448)
I0403 15:28:19.776628  3120 net.cpp:156] Memory required for data: 1111182624
I0403 15:28:19.776643  3120 layer_factory.hpp:77] Creating layer inception_4d/1x1
I0403 15:28:19.776666  3120 net.cpp:91] Creating Layer inception_4d/1x1
I0403 15:28:19.776684  3120 net.cpp:425] inception_4d/1x1 <- inception_4c/output_inception_4c/output_0_split_0
I0403 15:28:19.776707  3120 net.cpp:399] inception_4d/1x1 -> inception_4d/1x1
I0403 15:28:19.778154  3120 net.cpp:141] Setting up inception_4d/1x1
I0403 15:28:19.778182  3120 net.cpp:148] Top shape: 24 112 14 14 (526848)
I0403 15:28:19.778198  3120 net.cpp:156] Memory required for data: 1113290016
I0403 15:28:19.778218  3120 layer_factory.hpp:77] Creating layer inception_4d/relu_1x1
I0403 15:28:19.778237  3120 net.cpp:91] Creating Layer inception_4d/relu_1x1
I0403 15:28:19.778260  3120 net.cpp:425] inception_4d/relu_1x1 <- inception_4d/1x1
I0403 15:28:19.778278  3120 net.cpp:386] inception_4d/relu_1x1 -> inception_4d/1x1 (in-place)
I0403 15:28:19.778461  3120 net.cpp:141] Setting up inception_4d/relu_1x1
I0403 15:28:19.778488  3120 net.cpp:148] Top shape: 24 112 14 14 (526848)
I0403 15:28:19.778504  3120 net.cpp:156] Memory required for data: 1115397408
I0403 15:28:19.778520  3120 layer_factory.hpp:77] Creating layer inception_4d/3x3_reduce
I0403 15:28:19.778556  3120 net.cpp:91] Creating Layer inception_4d/3x3_reduce
I0403 15:28:19.778574  3120 net.cpp:425] inception_4d/3x3_reduce <- inception_4c/output_inception_4c/output_0_split_1
I0403 15:28:19.778594  3120 net.cpp:399] inception_4d/3x3_reduce -> inception_4d/3x3_reduce
I0403 15:28:19.780091  3120 net.cpp:141] Setting up inception_4d/3x3_reduce
I0403 15:28:19.780118  3120 net.cpp:148] Top shape: 24 144 14 14 (677376)
I0403 15:28:19.780134  3120 net.cpp:156] Memory required for data: 1118106912
I0403 15:28:19.780153  3120 layer_factory.hpp:77] Creating layer inception_4d/relu_3x3_reduce
I0403 15:28:19.780171  3120 net.cpp:91] Creating Layer inception_4d/relu_3x3_reduce
I0403 15:28:19.780190  3120 net.cpp:425] inception_4d/relu_3x3_reduce <- inception_4d/3x3_reduce
I0403 15:28:19.780208  3120 net.cpp:386] inception_4d/relu_3x3_reduce -> inception_4d/3x3_reduce (in-place)
I0403 15:28:19.780531  3120 net.cpp:141] Setting up inception_4d/relu_3x3_reduce
I0403 15:28:19.780557  3120 net.cpp:148] Top shape: 24 144 14 14 (677376)
I0403 15:28:19.780573  3120 net.cpp:156] Memory required for data: 1120816416
I0403 15:28:19.780588  3120 layer_factory.hpp:77] Creating layer inception_4d/3x3
I0403 15:28:19.780611  3120 net.cpp:91] Creating Layer inception_4d/3x3
I0403 15:28:19.780628  3120 net.cpp:425] inception_4d/3x3 <- inception_4d/3x3_reduce
I0403 15:28:19.780650  3120 net.cpp:399] inception_4d/3x3 -> inception_4d/3x3
I0403 15:28:19.784940  3120 net.cpp:141] Setting up inception_4d/3x3
I0403 15:28:19.784968  3120 net.cpp:148] Top shape: 24 288 14 14 (1354752)
I0403 15:28:19.784984  3120 net.cpp:156] Memory required for data: 1126235424
I0403 15:28:19.785003  3120 layer_factory.hpp:77] Creating layer inception_4d/relu_3x3
I0403 15:28:19.785023  3120 net.cpp:91] Creating Layer inception_4d/relu_3x3
I0403 15:28:19.785042  3120 net.cpp:425] inception_4d/relu_3x3 <- inception_4d/3x3
I0403 15:28:19.785059  3120 net.cpp:386] inception_4d/relu_3x3 -> inception_4d/3x3 (in-place)
I0403 15:28:19.785261  3120 net.cpp:141] Setting up inception_4d/relu_3x3
I0403 15:28:19.785290  3120 net.cpp:148] Top shape: 24 288 14 14 (1354752)
I0403 15:28:19.785306  3120 net.cpp:156] Memory required for data: 1131654432
I0403 15:28:19.785322  3120 layer_factory.hpp:77] Creating layer inception_4d/5x5_reduce
I0403 15:28:19.785346  3120 net.cpp:91] Creating Layer inception_4d/5x5_reduce
I0403 15:28:19.785363  3120 net.cpp:425] inception_4d/5x5_reduce <- inception_4c/output_inception_4c/output_0_split_2
I0403 15:28:19.785383  3120 net.cpp:399] inception_4d/5x5_reduce -> inception_4d/5x5_reduce
I0403 15:28:19.786540  3120 net.cpp:141] Setting up inception_4d/5x5_reduce
I0403 15:28:19.786568  3120 net.cpp:148] Top shape: 24 32 14 14 (150528)
I0403 15:28:19.786584  3120 net.cpp:156] Memory required for data: 1132256544
I0403 15:28:19.786603  3120 layer_factory.hpp:77] Creating layer inception_4d/relu_5x5_reduce
I0403 15:28:19.786624  3120 net.cpp:91] Creating Layer inception_4d/relu_5x5_reduce
I0403 15:28:19.786641  3120 net.cpp:425] inception_4d/relu_5x5_reduce <- inception_4d/5x5_reduce
I0403 15:28:19.786659  3120 net.cpp:386] inception_4d/relu_5x5_reduce -> inception_4d/5x5_reduce (in-place)
I0403 15:28:19.786845  3120 net.cpp:141] Setting up inception_4d/relu_5x5_reduce
I0403 15:28:19.786873  3120 net.cpp:148] Top shape: 24 32 14 14 (150528)
I0403 15:28:19.786890  3120 net.cpp:156] Memory required for data: 1132858656
I0403 15:28:19.786906  3120 layer_factory.hpp:77] Creating layer inception_4d/5x5
I0403 15:28:19.786928  3120 net.cpp:91] Creating Layer inception_4d/5x5
I0403 15:28:19.786947  3120 net.cpp:425] inception_4d/5x5 <- inception_4d/5x5_reduce
I0403 15:28:19.786967  3120 net.cpp:399] inception_4d/5x5 -> inception_4d/5x5
I0403 15:28:19.788470  3120 net.cpp:141] Setting up inception_4d/5x5
I0403 15:28:19.788502  3120 net.cpp:148] Top shape: 24 64 14 14 (301056)
I0403 15:28:19.788519  3120 net.cpp:156] Memory required for data: 1134062880
I0403 15:28:19.788539  3120 layer_factory.hpp:77] Creating layer inception_4d/relu_5x5
I0403 15:28:19.788573  3120 net.cpp:91] Creating Layer inception_4d/relu_5x5
I0403 15:28:19.788589  3120 net.cpp:425] inception_4d/relu_5x5 <- inception_4d/5x5
I0403 15:28:19.788609  3120 net.cpp:386] inception_4d/relu_5x5 -> inception_4d/5x5 (in-place)
I0403 15:28:19.788913  3120 net.cpp:141] Setting up inception_4d/relu_5x5
I0403 15:28:19.788943  3120 net.cpp:148] Top shape: 24 64 14 14 (301056)
I0403 15:28:19.788959  3120 net.cpp:156] Memory required for data: 1135267104
I0403 15:28:19.788974  3120 layer_factory.hpp:77] Creating layer inception_4d/pool
I0403 15:28:19.788991  3120 net.cpp:91] Creating Layer inception_4d/pool
I0403 15:28:19.789007  3120 net.cpp:425] inception_4d/pool <- inception_4c/output_inception_4c/output_0_split_3
I0403 15:28:19.789028  3120 net.cpp:399] inception_4d/pool -> inception_4d/pool
I0403 15:28:19.789094  3120 net.cpp:141] Setting up inception_4d/pool
I0403 15:28:19.789118  3120 net.cpp:148] Top shape: 24 512 14 14 (2408448)
I0403 15:28:19.789132  3120 net.cpp:156] Memory required for data: 1144900896
I0403 15:28:19.789147  3120 layer_factory.hpp:77] Creating layer inception_4d/pool_proj
I0403 15:28:19.789171  3120 net.cpp:91] Creating Layer inception_4d/pool_proj
I0403 15:28:19.789188  3120 net.cpp:425] inception_4d/pool_proj <- inception_4d/pool
I0403 15:28:19.789207  3120 net.cpp:399] inception_4d/pool_proj -> inception_4d/pool_proj
I0403 15:28:19.791015  3120 net.cpp:141] Setting up inception_4d/pool_proj
I0403 15:28:19.791046  3120 net.cpp:148] Top shape: 24 64 14 14 (301056)
I0403 15:28:19.791062  3120 net.cpp:156] Memory required for data: 1146105120
I0403 15:28:19.791082  3120 layer_factory.hpp:77] Creating layer inception_4d/relu_pool_proj
I0403 15:28:19.791102  3120 net.cpp:91] Creating Layer inception_4d/relu_pool_proj
I0403 15:28:19.791121  3120 net.cpp:425] inception_4d/relu_pool_proj <- inception_4d/pool_proj
I0403 15:28:19.791137  3120 net.cpp:386] inception_4d/relu_pool_proj -> inception_4d/pool_proj (in-place)
I0403 15:28:19.791328  3120 net.cpp:141] Setting up inception_4d/relu_pool_proj
I0403 15:28:19.791357  3120 net.cpp:148] Top shape: 24 64 14 14 (301056)
I0403 15:28:19.791371  3120 net.cpp:156] Memory required for data: 1147309344
I0403 15:28:19.791386  3120 layer_factory.hpp:77] Creating layer inception_4d/output
I0403 15:28:19.791404  3120 net.cpp:91] Creating Layer inception_4d/output
I0403 15:28:19.791420  3120 net.cpp:425] inception_4d/output <- inception_4d/1x1
I0403 15:28:19.791437  3120 net.cpp:425] inception_4d/output <- inception_4d/3x3
I0403 15:28:19.791455  3120 net.cpp:425] inception_4d/output <- inception_4d/5x5
I0403 15:28:19.791471  3120 net.cpp:425] inception_4d/output <- inception_4d/pool_proj
I0403 15:28:19.791488  3120 net.cpp:399] inception_4d/output -> inception_4d/output
I0403 15:28:19.791538  3120 net.cpp:141] Setting up inception_4d/output
I0403 15:28:19.791561  3120 net.cpp:148] Top shape: 24 528 14 14 (2483712)
I0403 15:28:19.791576  3120 net.cpp:156] Memory required for data: 1157244192
I0403 15:28:19.791592  3120 layer_factory.hpp:77] Creating layer inception_4d/output_inception_4d/output_0_split
I0403 15:28:19.791612  3120 net.cpp:91] Creating Layer inception_4d/output_inception_4d/output_0_split
I0403 15:28:19.791630  3120 net.cpp:425] inception_4d/output_inception_4d/output_0_split <- inception_4d/output
I0403 15:28:19.791647  3120 net.cpp:399] inception_4d/output_inception_4d/output_0_split -> inception_4d/output_inception_4d/output_0_split_0
I0403 15:28:19.791667  3120 net.cpp:399] inception_4d/output_inception_4d/output_0_split -> inception_4d/output_inception_4d/output_0_split_1
I0403 15:28:19.791692  3120 net.cpp:399] inception_4d/output_inception_4d/output_0_split -> inception_4d/output_inception_4d/output_0_split_2
I0403 15:28:19.791715  3120 net.cpp:399] inception_4d/output_inception_4d/output_0_split -> inception_4d/output_inception_4d/output_0_split_3
I0403 15:28:19.791735  3120 net.cpp:399] inception_4d/output_inception_4d/output_0_split -> inception_4d/output_inception_4d/output_0_split_4
I0403 15:28:19.791836  3120 net.cpp:141] Setting up inception_4d/output_inception_4d/output_0_split
I0403 15:28:19.791872  3120 net.cpp:148] Top shape: 24 528 14 14 (2483712)
I0403 15:28:19.791890  3120 net.cpp:148] Top shape: 24 528 14 14 (2483712)
I0403 15:28:19.791906  3120 net.cpp:148] Top shape: 24 528 14 14 (2483712)
I0403 15:28:19.791923  3120 net.cpp:148] Top shape: 24 528 14 14 (2483712)
I0403 15:28:19.791939  3120 net.cpp:148] Top shape: 24 528 14 14 (2483712)
I0403 15:28:19.791952  3120 net.cpp:156] Memory required for data: 1206918432
I0403 15:28:19.791967  3120 layer_factory.hpp:77] Creating layer loss2/ave_pool
I0403 15:28:19.791985  3120 net.cpp:91] Creating Layer loss2/ave_pool
I0403 15:28:19.792001  3120 net.cpp:425] loss2/ave_pool <- inception_4d/output_inception_4d/output_0_split_0
I0403 15:28:19.792023  3120 net.cpp:399] loss2/ave_pool -> loss2/ave_pool
I0403 15:28:19.792382  3120 net.cpp:141] Setting up loss2/ave_pool
I0403 15:28:19.792410  3120 net.cpp:148] Top shape: 24 528 4 4 (202752)
I0403 15:28:19.792439  3120 net.cpp:156] Memory required for data: 1207729440
I0403 15:28:19.792456  3120 layer_factory.hpp:77] Creating layer loss2/conv
I0403 15:28:19.792479  3120 net.cpp:91] Creating Layer loss2/conv
I0403 15:28:19.792498  3120 net.cpp:425] loss2/conv <- loss2/ave_pool
I0403 15:28:19.792520  3120 net.cpp:399] loss2/conv -> loss2/conv
I0403 15:28:19.794522  3120 net.cpp:141] Setting up loss2/conv
I0403 15:28:19.794555  3120 net.cpp:148] Top shape: 24 128 4 4 (49152)
I0403 15:28:19.794572  3120 net.cpp:156] Memory required for data: 1207926048
I0403 15:28:19.794592  3120 layer_factory.hpp:77] Creating layer loss2/relu_conv
I0403 15:28:19.794610  3120 net.cpp:91] Creating Layer loss2/relu_conv
I0403 15:28:19.794626  3120 net.cpp:425] loss2/relu_conv <- loss2/conv
I0403 15:28:19.794646  3120 net.cpp:386] loss2/relu_conv -> loss2/conv (in-place)
I0403 15:28:19.794927  3120 net.cpp:141] Setting up loss2/relu_conv
I0403 15:28:19.794956  3120 net.cpp:148] Top shape: 24 128 4 4 (49152)
I0403 15:28:19.794973  3120 net.cpp:156] Memory required for data: 1208122656
I0403 15:28:19.794988  3120 layer_factory.hpp:77] Creating layer loss2/fc
I0403 15:28:19.795008  3120 net.cpp:91] Creating Layer loss2/fc
I0403 15:28:19.795024  3120 net.cpp:425] loss2/fc <- loss2/conv
I0403 15:28:19.795047  3120 net.cpp:399] loss2/fc -> loss2/fc
I0403 15:28:19.813879  3120 net.cpp:141] Setting up loss2/fc
I0403 15:28:19.813920  3120 net.cpp:148] Top shape: 24 1024 (24576)
I0403 15:28:19.813938  3120 net.cpp:156] Memory required for data: 1208220960
I0403 15:28:19.813961  3120 layer_factory.hpp:77] Creating layer loss2/relu_fc
I0403 15:28:19.813985  3120 net.cpp:91] Creating Layer loss2/relu_fc
I0403 15:28:19.814007  3120 net.cpp:425] loss2/relu_fc <- loss2/fc
I0403 15:28:19.814028  3120 net.cpp:386] loss2/relu_fc -> loss2/fc (in-place)
I0403 15:28:19.814429  3120 net.cpp:141] Setting up loss2/relu_fc
I0403 15:28:19.814458  3120 net.cpp:148] Top shape: 24 1024 (24576)
I0403 15:28:19.814476  3120 net.cpp:156] Memory required for data: 1208319264
I0403 15:28:19.814491  3120 layer_factory.hpp:77] Creating layer loss2/drop_fc
I0403 15:28:19.814514  3120 net.cpp:91] Creating Layer loss2/drop_fc
I0403 15:28:19.814532  3120 net.cpp:425] loss2/drop_fc <- loss2/fc
I0403 15:28:19.814551  3120 net.cpp:386] loss2/drop_fc -> loss2/fc (in-place)
I0403 15:28:19.814610  3120 net.cpp:141] Setting up loss2/drop_fc
I0403 15:28:19.814635  3120 net.cpp:148] Top shape: 24 1024 (24576)
I0403 15:28:19.814651  3120 net.cpp:156] Memory required for data: 1208417568
I0403 15:28:19.814666  3120 layer_factory.hpp:77] Creating layer loss2/classifier_plantvillage
I0403 15:28:19.814687  3120 net.cpp:91] Creating Layer loss2/classifier_plantvillage
I0403 15:28:19.814704  3120 net.cpp:425] loss2/classifier_plantvillage <- loss2/fc
I0403 15:28:19.814728  3120 net.cpp:399] loss2/classifier_plantvillage -> loss2/classifier_plantvillage
I0403 15:28:19.815173  3120 net.cpp:141] Setting up loss2/classifier_plantvillage
I0403 15:28:19.815201  3120 net.cpp:148] Top shape: 24 38 (912)
I0403 15:28:19.815248  3120 net.cpp:156] Memory required for data: 1208421216
I0403 15:28:19.815271  3120 layer_factory.hpp:77] Creating layer loss2/classifier_plantvillage_loss2/classifier_plantvillage_0_split
I0403 15:28:19.815292  3120 net.cpp:91] Creating Layer loss2/classifier_plantvillage_loss2/classifier_plantvillage_0_split
I0403 15:28:19.815310  3120 net.cpp:425] loss2/classifier_plantvillage_loss2/classifier_plantvillage_0_split <- loss2/classifier_plantvillage
I0403 15:28:19.815331  3120 net.cpp:399] loss2/classifier_plantvillage_loss2/classifier_plantvillage_0_split -> loss2/classifier_plantvillage_loss2/classifier_plantvillage_0_split_0
I0403 15:28:19.815354  3120 net.cpp:399] loss2/classifier_plantvillage_loss2/classifier_plantvillage_0_split -> loss2/classifier_plantvillage_loss2/classifier_plantvillage_0_split_1
I0403 15:28:19.815377  3120 net.cpp:399] loss2/classifier_plantvillage_loss2/classifier_plantvillage_0_split -> loss2/classifier_plantvillage_loss2/classifier_plantvillage_0_split_2
I0403 15:28:19.815459  3120 net.cpp:141] Setting up loss2/classifier_plantvillage_loss2/classifier_plantvillage_0_split
I0403 15:28:19.815486  3120 net.cpp:148] Top shape: 24 38 (912)
I0403 15:28:19.815505  3120 net.cpp:148] Top shape: 24 38 (912)
I0403 15:28:19.815523  3120 net.cpp:148] Top shape: 24 38 (912)
I0403 15:28:19.815538  3120 net.cpp:156] Memory required for data: 1208432160
I0403 15:28:19.815554  3120 layer_factory.hpp:77] Creating layer inception_4e/1x1
I0403 15:28:19.815577  3120 net.cpp:91] Creating Layer inception_4e/1x1
I0403 15:28:19.815596  3120 net.cpp:425] inception_4e/1x1 <- inception_4d/output_inception_4d/output_0_split_1
I0403 15:28:19.815618  3120 net.cpp:399] inception_4e/1x1 -> inception_4e/1x1
I0403 15:28:19.817607  3120 net.cpp:141] Setting up inception_4e/1x1
I0403 15:28:19.817638  3120 net.cpp:148] Top shape: 24 256 14 14 (1204224)
I0403 15:28:19.817656  3120 net.cpp:156] Memory required for data: 1213249056
I0403 15:28:19.817675  3120 layer_factory.hpp:77] Creating layer inception_4e/relu_1x1
I0403 15:28:19.817695  3120 net.cpp:91] Creating Layer inception_4e/relu_1x1
I0403 15:28:19.817713  3120 net.cpp:425] inception_4e/relu_1x1 <- inception_4e/1x1
I0403 15:28:19.817734  3120 net.cpp:386] inception_4e/relu_1x1 -> inception_4e/1x1 (in-place)
I0403 15:28:19.818048  3120 net.cpp:141] Setting up inception_4e/relu_1x1
I0403 15:28:19.818076  3120 net.cpp:148] Top shape: 24 256 14 14 (1204224)
I0403 15:28:19.818094  3120 net.cpp:156] Memory required for data: 1218065952
I0403 15:28:19.818110  3120 layer_factory.hpp:77] Creating layer inception_4e/3x3_reduce
I0403 15:28:19.818135  3120 net.cpp:91] Creating Layer inception_4e/3x3_reduce
I0403 15:28:19.818155  3120 net.cpp:425] inception_4e/3x3_reduce <- inception_4d/output_inception_4d/output_0_split_2
I0403 15:28:19.818178  3120 net.cpp:399] inception_4e/3x3_reduce -> inception_4e/3x3_reduce
I0403 15:28:19.820443  3120 net.cpp:141] Setting up inception_4e/3x3_reduce
I0403 15:28:19.820477  3120 net.cpp:148] Top shape: 24 160 14 14 (752640)
I0403 15:28:19.820495  3120 net.cpp:156] Memory required for data: 1221076512
I0403 15:28:19.820515  3120 layer_factory.hpp:77] Creating layer inception_4e/relu_3x3_reduce
I0403 15:28:19.820535  3120 net.cpp:91] Creating Layer inception_4e/relu_3x3_reduce
I0403 15:28:19.820554  3120 net.cpp:425] inception_4e/relu_3x3_reduce <- inception_4e/3x3_reduce
I0403 15:28:19.820574  3120 net.cpp:386] inception_4e/relu_3x3_reduce -> inception_4e/3x3_reduce (in-place)
I0403 15:28:19.820773  3120 net.cpp:141] Setting up inception_4e/relu_3x3_reduce
I0403 15:28:19.820801  3120 net.cpp:148] Top shape: 24 160 14 14 (752640)
I0403 15:28:19.820816  3120 net.cpp:156] Memory required for data: 1224087072
I0403 15:28:19.820832  3120 layer_factory.hpp:77] Creating layer inception_4e/3x3
I0403 15:28:19.820857  3120 net.cpp:91] Creating Layer inception_4e/3x3
I0403 15:28:19.820875  3120 net.cpp:425] inception_4e/3x3 <- inception_4e/3x3_reduce
I0403 15:28:19.820899  3120 net.cpp:399] inception_4e/3x3 -> inception_4e/3x3
I0403 15:28:19.826362  3120 net.cpp:141] Setting up inception_4e/3x3
I0403 15:28:19.826422  3120 net.cpp:148] Top shape: 24 320 14 14 (1505280)
I0403 15:28:19.826441  3120 net.cpp:156] Memory required for data: 1230108192
I0403 15:28:19.826460  3120 layer_factory.hpp:77] Creating layer inception_4e/relu_3x3
I0403 15:28:19.826480  3120 net.cpp:91] Creating Layer inception_4e/relu_3x3
I0403 15:28:19.826498  3120 net.cpp:425] inception_4e/relu_3x3 <- inception_4e/3x3
I0403 15:28:19.826519  3120 net.cpp:386] inception_4e/relu_3x3 -> inception_4e/3x3 (in-place)
I0403 15:28:19.826830  3120 net.cpp:141] Setting up inception_4e/relu_3x3
I0403 15:28:19.826858  3120 net.cpp:148] Top shape: 24 320 14 14 (1505280)
I0403 15:28:19.826874  3120 net.cpp:156] Memory required for data: 1236129312
I0403 15:28:19.826889  3120 layer_factory.hpp:77] Creating layer inception_4e/5x5_reduce
I0403 15:28:19.826916  3120 net.cpp:91] Creating Layer inception_4e/5x5_reduce
I0403 15:28:19.826936  3120 net.cpp:425] inception_4e/5x5_reduce <- inception_4d/output_inception_4d/output_0_split_3
I0403 15:28:19.826958  3120 net.cpp:399] inception_4e/5x5_reduce -> inception_4e/5x5_reduce
I0403 15:28:19.828073  3120 net.cpp:141] Setting up inception_4e/5x5_reduce
I0403 15:28:19.828104  3120 net.cpp:148] Top shape: 24 32 14 14 (150528)
I0403 15:28:19.828122  3120 net.cpp:156] Memory required for data: 1236731424
I0403 15:28:19.828141  3120 layer_factory.hpp:77] Creating layer inception_4e/relu_5x5_reduce
I0403 15:28:19.828161  3120 net.cpp:91] Creating Layer inception_4e/relu_5x5_reduce
I0403 15:28:19.828176  3120 net.cpp:425] inception_4e/relu_5x5_reduce <- inception_4e/5x5_reduce
I0403 15:28:19.828197  3120 net.cpp:386] inception_4e/relu_5x5_reduce -> inception_4e/5x5_reduce (in-place)
I0403 15:28:19.828505  3120 net.cpp:141] Setting up inception_4e/relu_5x5_reduce
I0403 15:28:19.828534  3120 net.cpp:148] Top shape: 24 32 14 14 (150528)
I0403 15:28:19.828552  3120 net.cpp:156] Memory required for data: 1237333536
I0403 15:28:19.828567  3120 layer_factory.hpp:77] Creating layer inception_4e/5x5
I0403 15:28:19.828608  3120 net.cpp:91] Creating Layer inception_4e/5x5
I0403 15:28:19.828629  3120 net.cpp:425] inception_4e/5x5 <- inception_4e/5x5_reduce
I0403 15:28:19.828649  3120 net.cpp:399] inception_4e/5x5 -> inception_4e/5x5
I0403 15:28:19.830556  3120 net.cpp:141] Setting up inception_4e/5x5
I0403 15:28:19.830585  3120 net.cpp:148] Top shape: 24 128 14 14 (602112)
I0403 15:28:19.830605  3120 net.cpp:156] Memory required for data: 1239741984
I0403 15:28:19.830626  3120 layer_factory.hpp:77] Creating layer inception_4e/relu_5x5
I0403 15:28:19.830643  3120 net.cpp:91] Creating Layer inception_4e/relu_5x5
I0403 15:28:19.830662  3120 net.cpp:425] inception_4e/relu_5x5 <- inception_4e/5x5
I0403 15:28:19.830679  3120 net.cpp:386] inception_4e/relu_5x5 -> inception_4e/5x5 (in-place)
I0403 15:28:19.830881  3120 net.cpp:141] Setting up inception_4e/relu_5x5
I0403 15:28:19.830909  3120 net.cpp:148] Top shape: 24 128 14 14 (602112)
I0403 15:28:19.830925  3120 net.cpp:156] Memory required for data: 1242150432
I0403 15:28:19.830941  3120 layer_factory.hpp:77] Creating layer inception_4e/pool
I0403 15:28:19.830960  3120 net.cpp:91] Creating Layer inception_4e/pool
I0403 15:28:19.830978  3120 net.cpp:425] inception_4e/pool <- inception_4d/output_inception_4d/output_0_split_4
I0403 15:28:19.830999  3120 net.cpp:399] inception_4e/pool -> inception_4e/pool
I0403 15:28:19.831071  3120 net.cpp:141] Setting up inception_4e/pool
I0403 15:28:19.831099  3120 net.cpp:148] Top shape: 24 528 14 14 (2483712)
I0403 15:28:19.831115  3120 net.cpp:156] Memory required for data: 1252085280
I0403 15:28:19.831130  3120 layer_factory.hpp:77] Creating layer inception_4e/pool_proj
I0403 15:28:19.831151  3120 net.cpp:91] Creating Layer inception_4e/pool_proj
I0403 15:28:19.831169  3120 net.cpp:425] inception_4e/pool_proj <- inception_4e/pool
I0403 15:28:19.831190  3120 net.cpp:399] inception_4e/pool_proj -> inception_4e/pool_proj
I0403 15:28:19.832747  3120 net.cpp:141] Setting up inception_4e/pool_proj
I0403 15:28:19.832789  3120 net.cpp:148] Top shape: 24 128 14 14 (602112)
I0403 15:28:19.832806  3120 net.cpp:156] Memory required for data: 1254493728
I0403 15:28:19.832825  3120 layer_factory.hpp:77] Creating layer inception_4e/relu_pool_proj
I0403 15:28:19.832849  3120 net.cpp:91] Creating Layer inception_4e/relu_pool_proj
I0403 15:28:19.832866  3120 net.cpp:425] inception_4e/relu_pool_proj <- inception_4e/pool_proj
I0403 15:28:19.832883  3120 net.cpp:386] inception_4e/relu_pool_proj -> inception_4e/pool_proj (in-place)
I0403 15:28:19.833194  3120 net.cpp:141] Setting up inception_4e/relu_pool_proj
I0403 15:28:19.833220  3120 net.cpp:148] Top shape: 24 128 14 14 (602112)
I0403 15:28:19.833236  3120 net.cpp:156] Memory required for data: 1256902176
I0403 15:28:19.833266  3120 layer_factory.hpp:77] Creating layer inception_4e/output
I0403 15:28:19.833290  3120 net.cpp:91] Creating Layer inception_4e/output
I0403 15:28:19.833307  3120 net.cpp:425] inception_4e/output <- inception_4e/1x1
I0403 15:28:19.833325  3120 net.cpp:425] inception_4e/output <- inception_4e/3x3
I0403 15:28:19.833343  3120 net.cpp:425] inception_4e/output <- inception_4e/5x5
I0403 15:28:19.833359  3120 net.cpp:425] inception_4e/output <- inception_4e/pool_proj
I0403 15:28:19.833377  3120 net.cpp:399] inception_4e/output -> inception_4e/output
I0403 15:28:19.833432  3120 net.cpp:141] Setting up inception_4e/output
I0403 15:28:19.833456  3120 net.cpp:148] Top shape: 24 832 14 14 (3913728)
I0403 15:28:19.833472  3120 net.cpp:156] Memory required for data: 1272557088
I0403 15:28:19.833487  3120 layer_factory.hpp:77] Creating layer pool4/3x3_s2
I0403 15:28:19.833504  3120 net.cpp:91] Creating Layer pool4/3x3_s2
I0403 15:28:19.833521  3120 net.cpp:425] pool4/3x3_s2 <- inception_4e/output
I0403 15:28:19.833544  3120 net.cpp:399] pool4/3x3_s2 -> pool4/3x3_s2
I0403 15:28:19.833613  3120 net.cpp:141] Setting up pool4/3x3_s2
I0403 15:28:19.833641  3120 net.cpp:148] Top shape: 24 832 7 7 (978432)
I0403 15:28:19.833657  3120 net.cpp:156] Memory required for data: 1276470816
I0403 15:28:19.833673  3120 layer_factory.hpp:77] Creating layer pool4/3x3_s2_pool4/3x3_s2_0_split
I0403 15:28:19.833690  3120 net.cpp:91] Creating Layer pool4/3x3_s2_pool4/3x3_s2_0_split
I0403 15:28:19.833708  3120 net.cpp:425] pool4/3x3_s2_pool4/3x3_s2_0_split <- pool4/3x3_s2
I0403 15:28:19.833725  3120 net.cpp:399] pool4/3x3_s2_pool4/3x3_s2_0_split -> pool4/3x3_s2_pool4/3x3_s2_0_split_0
I0403 15:28:19.833748  3120 net.cpp:399] pool4/3x3_s2_pool4/3x3_s2_0_split -> pool4/3x3_s2_pool4/3x3_s2_0_split_1
I0403 15:28:19.833771  3120 net.cpp:399] pool4/3x3_s2_pool4/3x3_s2_0_split -> pool4/3x3_s2_pool4/3x3_s2_0_split_2
I0403 15:28:19.833792  3120 net.cpp:399] pool4/3x3_s2_pool4/3x3_s2_0_split -> pool4/3x3_s2_pool4/3x3_s2_0_split_3
I0403 15:28:19.833887  3120 net.cpp:141] Setting up pool4/3x3_s2_pool4/3x3_s2_0_split
I0403 15:28:19.833911  3120 net.cpp:148] Top shape: 24 832 7 7 (978432)
I0403 15:28:19.833930  3120 net.cpp:148] Top shape: 24 832 7 7 (978432)
I0403 15:28:19.833945  3120 net.cpp:148] Top shape: 24 832 7 7 (978432)
I0403 15:28:19.833962  3120 net.cpp:148] Top shape: 24 832 7 7 (978432)
I0403 15:28:19.833976  3120 net.cpp:156] Memory required for data: 1292125728
I0403 15:28:19.833992  3120 layer_factory.hpp:77] Creating layer inception_5a/1x1
I0403 15:28:19.834017  3120 net.cpp:91] Creating Layer inception_5a/1x1
I0403 15:28:19.834034  3120 net.cpp:425] inception_5a/1x1 <- pool4/3x3_s2_pool4/3x3_s2_0_split_0
I0403 15:28:19.834054  3120 net.cpp:399] inception_5a/1x1 -> inception_5a/1x1
I0403 15:28:19.837066  3120 net.cpp:141] Setting up inception_5a/1x1
I0403 15:28:19.837097  3120 net.cpp:148] Top shape: 24 256 7 7 (301056)
I0403 15:28:19.837115  3120 net.cpp:156] Memory required for data: 1293329952
I0403 15:28:19.837133  3120 layer_factory.hpp:77] Creating layer inception_5a/relu_1x1
I0403 15:28:19.837152  3120 net.cpp:91] Creating Layer inception_5a/relu_1x1
I0403 15:28:19.837168  3120 net.cpp:425] inception_5a/relu_1x1 <- inception_5a/1x1
I0403 15:28:19.837188  3120 net.cpp:386] inception_5a/relu_1x1 -> inception_5a/1x1 (in-place)
I0403 15:28:19.837498  3120 net.cpp:141] Setting up inception_5a/relu_1x1
I0403 15:28:19.837527  3120 net.cpp:148] Top shape: 24 256 7 7 (301056)
I0403 15:28:19.837543  3120 net.cpp:156] Memory required for data: 1294534176
I0403 15:28:19.837558  3120 layer_factory.hpp:77] Creating layer inception_5a/3x3_reduce
I0403 15:28:19.837581  3120 net.cpp:91] Creating Layer inception_5a/3x3_reduce
I0403 15:28:19.837599  3120 net.cpp:425] inception_5a/3x3_reduce <- pool4/3x3_s2_pool4/3x3_s2_0_split_1
I0403 15:28:19.837618  3120 net.cpp:399] inception_5a/3x3_reduce -> inception_5a/3x3_reduce
I0403 15:28:19.840092  3120 net.cpp:141] Setting up inception_5a/3x3_reduce
I0403 15:28:19.840121  3120 net.cpp:148] Top shape: 24 160 7 7 (188160)
I0403 15:28:19.840137  3120 net.cpp:156] Memory required for data: 1295286816
I0403 15:28:19.840157  3120 layer_factory.hpp:77] Creating layer inception_5a/relu_3x3_reduce
I0403 15:28:19.840181  3120 net.cpp:91] Creating Layer inception_5a/relu_3x3_reduce
I0403 15:28:19.840198  3120 net.cpp:425] inception_5a/relu_3x3_reduce <- inception_5a/3x3_reduce
I0403 15:28:19.840216  3120 net.cpp:386] inception_5a/relu_3x3_reduce -> inception_5a/3x3_reduce (in-place)
I0403 15:28:19.840409  3120 net.cpp:141] Setting up inception_5a/relu_3x3_reduce
I0403 15:28:19.840435  3120 net.cpp:148] Top shape: 24 160 7 7 (188160)
I0403 15:28:19.840450  3120 net.cpp:156] Memory required for data: 1296039456
I0403 15:28:19.840466  3120 layer_factory.hpp:77] Creating layer inception_5a/3x3
I0403 15:28:19.840492  3120 net.cpp:91] Creating Layer inception_5a/3x3
I0403 15:28:19.840509  3120 net.cpp:425] inception_5a/3x3 <- inception_5a/3x3_reduce
I0403 15:28:19.840528  3120 net.cpp:399] inception_5a/3x3 -> inception_5a/3x3
I0403 15:28:19.845819  3120 net.cpp:141] Setting up inception_5a/3x3
I0403 15:28:19.845860  3120 net.cpp:148] Top shape: 24 320 7 7 (376320)
I0403 15:28:19.845877  3120 net.cpp:156] Memory required for data: 1297544736
I0403 15:28:19.845897  3120 layer_factory.hpp:77] Creating layer inception_5a/relu_3x3
I0403 15:28:19.845917  3120 net.cpp:91] Creating Layer inception_5a/relu_3x3
I0403 15:28:19.845934  3120 net.cpp:425] inception_5a/relu_3x3 <- inception_5a/3x3
I0403 15:28:19.845953  3120 net.cpp:386] inception_5a/relu_3x3 -> inception_5a/3x3 (in-place)
I0403 15:28:19.846273  3120 net.cpp:141] Setting up inception_5a/relu_3x3
I0403 15:28:19.846303  3120 net.cpp:148] Top shape: 24 320 7 7 (376320)
I0403 15:28:19.846320  3120 net.cpp:156] Memory required for data: 1299050016
I0403 15:28:19.846336  3120 layer_factory.hpp:77] Creating layer inception_5a/5x5_reduce
I0403 15:28:19.846361  3120 net.cpp:91] Creating Layer inception_5a/5x5_reduce
I0403 15:28:19.846380  3120 net.cpp:425] inception_5a/5x5_reduce <- pool4/3x3_s2_pool4/3x3_s2_0_split_2
I0403 15:28:19.846401  3120 net.cpp:399] inception_5a/5x5_reduce -> inception_5a/5x5_reduce
I0403 15:28:19.847610  3120 net.cpp:141] Setting up inception_5a/5x5_reduce
I0403 15:28:19.847642  3120 net.cpp:148] Top shape: 24 32 7 7 (37632)
I0403 15:28:19.847661  3120 net.cpp:156] Memory required for data: 1299200544
I0403 15:28:19.847679  3120 layer_factory.hpp:77] Creating layer inception_5a/relu_5x5_reduce
I0403 15:28:19.847699  3120 net.cpp:91] Creating Layer inception_5a/relu_5x5_reduce
I0403 15:28:19.847718  3120 net.cpp:425] inception_5a/relu_5x5_reduce <- inception_5a/5x5_reduce
I0403 15:28:19.847738  3120 net.cpp:386] inception_5a/relu_5x5_reduce -> inception_5a/5x5_reduce (in-place)
I0403 15:28:19.848043  3120 net.cpp:141] Setting up inception_5a/relu_5x5_reduce
I0403 15:28:19.848073  3120 net.cpp:148] Top shape: 24 32 7 7 (37632)
I0403 15:28:19.848090  3120 net.cpp:156] Memory required for data: 1299351072
I0403 15:28:19.848106  3120 layer_factory.hpp:77] Creating layer inception_5a/5x5
I0403 15:28:19.848129  3120 net.cpp:91] Creating Layer inception_5a/5x5
I0403 15:28:19.848148  3120 net.cpp:425] inception_5a/5x5 <- inception_5a/5x5_reduce
I0403 15:28:19.848168  3120 net.cpp:399] inception_5a/5x5 -> inception_5a/5x5
I0403 15:28:19.849966  3120 net.cpp:141] Setting up inception_5a/5x5
I0403 15:28:19.850011  3120 net.cpp:148] Top shape: 24 128 7 7 (150528)
I0403 15:28:19.850029  3120 net.cpp:156] Memory required for data: 1299953184
I0403 15:28:19.850049  3120 layer_factory.hpp:77] Creating layer inception_5a/relu_5x5
I0403 15:28:19.850069  3120 net.cpp:91] Creating Layer inception_5a/relu_5x5
I0403 15:28:19.850085  3120 net.cpp:425] inception_5a/relu_5x5 <- inception_5a/5x5
I0403 15:28:19.850105  3120 net.cpp:386] inception_5a/relu_5x5 -> inception_5a/5x5 (in-place)
I0403 15:28:19.850311  3120 net.cpp:141] Setting up inception_5a/relu_5x5
I0403 15:28:19.850340  3120 net.cpp:148] Top shape: 24 128 7 7 (150528)
I0403 15:28:19.850358  3120 net.cpp:156] Memory required for data: 1300555296
I0403 15:28:19.850374  3120 layer_factory.hpp:77] Creating layer inception_5a/pool
I0403 15:28:19.850394  3120 net.cpp:91] Creating Layer inception_5a/pool
I0403 15:28:19.850411  3120 net.cpp:425] inception_5a/pool <- pool4/3x3_s2_pool4/3x3_s2_0_split_3
I0403 15:28:19.850435  3120 net.cpp:399] inception_5a/pool -> inception_5a/pool
I0403 15:28:19.850507  3120 net.cpp:141] Setting up inception_5a/pool
I0403 15:28:19.850535  3120 net.cpp:148] Top shape: 24 832 7 7 (978432)
I0403 15:28:19.850551  3120 net.cpp:156] Memory required for data: 1304469024
I0403 15:28:19.850567  3120 layer_factory.hpp:77] Creating layer inception_5a/pool_proj
I0403 15:28:19.850590  3120 net.cpp:91] Creating Layer inception_5a/pool_proj
I0403 15:28:19.850610  3120 net.cpp:425] inception_5a/pool_proj <- inception_5a/pool
I0403 15:28:19.850630  3120 net.cpp:399] inception_5a/pool_proj -> inception_5a/pool_proj
I0403 15:28:19.853046  3120 net.cpp:141] Setting up inception_5a/pool_proj
I0403 15:28:19.853076  3120 net.cpp:148] Top shape: 24 128 7 7 (150528)
I0403 15:28:19.853093  3120 net.cpp:156] Memory required for data: 1305071136
I0403 15:28:19.853112  3120 layer_factory.hpp:77] Creating layer inception_5a/relu_pool_proj
I0403 15:28:19.853134  3120 net.cpp:91] Creating Layer inception_5a/relu_pool_proj
I0403 15:28:19.853152  3120 net.cpp:425] inception_5a/relu_pool_proj <- inception_5a/pool_proj
I0403 15:28:19.853171  3120 net.cpp:386] inception_5a/relu_pool_proj -> inception_5a/pool_proj (in-place)
I0403 15:28:19.853483  3120 net.cpp:141] Setting up inception_5a/relu_pool_proj
I0403 15:28:19.853510  3120 net.cpp:148] Top shape: 24 128 7 7 (150528)
I0403 15:28:19.853526  3120 net.cpp:156] Memory required for data: 1305673248
I0403 15:28:19.853543  3120 layer_factory.hpp:77] Creating layer inception_5a/output
I0403 15:28:19.853566  3120 net.cpp:91] Creating Layer inception_5a/output
I0403 15:28:19.853585  3120 net.cpp:425] inception_5a/output <- inception_5a/1x1
I0403 15:28:19.853603  3120 net.cpp:425] inception_5a/output <- inception_5a/3x3
I0403 15:28:19.853621  3120 net.cpp:425] inception_5a/output <- inception_5a/5x5
I0403 15:28:19.853637  3120 net.cpp:425] inception_5a/output <- inception_5a/pool_proj
I0403 15:28:19.853654  3120 net.cpp:399] inception_5a/output -> inception_5a/output
I0403 15:28:19.853708  3120 net.cpp:141] Setting up inception_5a/output
I0403 15:28:19.853732  3120 net.cpp:148] Top shape: 24 832 7 7 (978432)
I0403 15:28:19.853750  3120 net.cpp:156] Memory required for data: 1309586976
I0403 15:28:19.853766  3120 layer_factory.hpp:77] Creating layer inception_5a/output_inception_5a/output_0_split
I0403 15:28:19.853785  3120 net.cpp:91] Creating Layer inception_5a/output_inception_5a/output_0_split
I0403 15:28:19.853801  3120 net.cpp:425] inception_5a/output_inception_5a/output_0_split <- inception_5a/output
I0403 15:28:19.853822  3120 net.cpp:399] inception_5a/output_inception_5a/output_0_split -> inception_5a/output_inception_5a/output_0_split_0
I0403 15:28:19.853845  3120 net.cpp:399] inception_5a/output_inception_5a/output_0_split -> inception_5a/output_inception_5a/output_0_split_1
I0403 15:28:19.853868  3120 net.cpp:399] inception_5a/output_inception_5a/output_0_split -> inception_5a/output_inception_5a/output_0_split_2
I0403 15:28:19.853890  3120 net.cpp:399] inception_5a/output_inception_5a/output_0_split -> inception_5a/output_inception_5a/output_0_split_3
I0403 15:28:19.854008  3120 net.cpp:141] Setting up inception_5a/output_inception_5a/output_0_split
I0403 15:28:19.854037  3120 net.cpp:148] Top shape: 24 832 7 7 (978432)
I0403 15:28:19.854055  3120 net.cpp:148] Top shape: 24 832 7 7 (978432)
I0403 15:28:19.854073  3120 net.cpp:148] Top shape: 24 832 7 7 (978432)
I0403 15:28:19.854090  3120 net.cpp:148] Top shape: 24 832 7 7 (978432)
I0403 15:28:19.854105  3120 net.cpp:156] Memory required for data: 1325241888
I0403 15:28:19.854120  3120 layer_factory.hpp:77] Creating layer inception_5b/1x1
I0403 15:28:19.854145  3120 net.cpp:91] Creating Layer inception_5b/1x1
I0403 15:28:19.854162  3120 net.cpp:425] inception_5b/1x1 <- inception_5a/output_inception_5a/output_0_split_0
I0403 15:28:19.854182  3120 net.cpp:399] inception_5b/1x1 -> inception_5b/1x1
I0403 15:28:19.859086  3120 net.cpp:141] Setting up inception_5b/1x1
I0403 15:28:19.859125  3120 net.cpp:148] Top shape: 24 384 7 7 (451584)
I0403 15:28:19.859143  3120 net.cpp:156] Memory required for data: 1327048224
I0403 15:28:19.859163  3120 layer_factory.hpp:77] Creating layer inception_5b/relu_1x1
I0403 15:28:19.859185  3120 net.cpp:91] Creating Layer inception_5b/relu_1x1
I0403 15:28:19.859205  3120 net.cpp:425] inception_5b/relu_1x1 <- inception_5b/1x1
I0403 15:28:19.859225  3120 net.cpp:386] inception_5b/relu_1x1 -> inception_5b/1x1 (in-place)
I0403 15:28:19.859552  3120 net.cpp:141] Setting up inception_5b/relu_1x1
I0403 15:28:19.859580  3120 net.cpp:148] Top shape: 24 384 7 7 (451584)
I0403 15:28:19.859597  3120 net.cpp:156] Memory required for data: 1328854560
I0403 15:28:19.859613  3120 layer_factory.hpp:77] Creating layer inception_5b/3x3_reduce
I0403 15:28:19.859638  3120 net.cpp:91] Creating Layer inception_5b/3x3_reduce
I0403 15:28:19.859658  3120 net.cpp:425] inception_5b/3x3_reduce <- inception_5a/output_inception_5a/output_0_split_1
I0403 15:28:19.859680  3120 net.cpp:399] inception_5b/3x3_reduce -> inception_5b/3x3_reduce
I0403 15:28:19.862531  3120 net.cpp:141] Setting up inception_5b/3x3_reduce
I0403 15:28:19.862565  3120 net.cpp:148] Top shape: 24 192 7 7 (225792)
I0403 15:28:19.862582  3120 net.cpp:156] Memory required for data: 1329757728
I0403 15:28:19.862602  3120 layer_factory.hpp:77] Creating layer inception_5b/relu_3x3_reduce
I0403 15:28:19.862625  3120 net.cpp:91] Creating Layer inception_5b/relu_3x3_reduce
I0403 15:28:19.862643  3120 net.cpp:425] inception_5b/relu_3x3_reduce <- inception_5b/3x3_reduce
I0403 15:28:19.862663  3120 net.cpp:386] inception_5b/relu_3x3_reduce -> inception_5b/3x3_reduce (in-place)
I0403 15:28:19.862866  3120 net.cpp:141] Setting up inception_5b/relu_3x3_reduce
I0403 15:28:19.862896  3120 net.cpp:148] Top shape: 24 192 7 7 (225792)
I0403 15:28:19.862915  3120 net.cpp:156] Memory required for data: 1330660896
I0403 15:28:19.862931  3120 layer_factory.hpp:77] Creating layer inception_5b/3x3
I0403 15:28:19.862956  3120 net.cpp:91] Creating Layer inception_5b/3x3
I0403 15:28:19.862975  3120 net.cpp:425] inception_5b/3x3 <- inception_5b/3x3_reduce
I0403 15:28:19.862996  3120 net.cpp:399] inception_5b/3x3 -> inception_5b/3x3
I0403 15:28:19.870234  3120 net.cpp:141] Setting up inception_5b/3x3
I0403 15:28:19.870288  3120 net.cpp:148] Top shape: 24 384 7 7 (451584)
I0403 15:28:19.870306  3120 net.cpp:156] Memory required for data: 1332467232
I0403 15:28:19.870326  3120 layer_factory.hpp:77] Creating layer inception_5b/relu_3x3
I0403 15:28:19.870350  3120 net.cpp:91] Creating Layer inception_5b/relu_3x3
I0403 15:28:19.870370  3120 net.cpp:425] inception_5b/relu_3x3 <- inception_5b/3x3
I0403 15:28:19.870390  3120 net.cpp:386] inception_5b/relu_3x3 -> inception_5b/3x3 (in-place)
I0403 15:28:19.870709  3120 net.cpp:141] Setting up inception_5b/relu_3x3
I0403 15:28:19.870738  3120 net.cpp:148] Top shape: 24 384 7 7 (451584)
I0403 15:28:19.870754  3120 net.cpp:156] Memory required for data: 1334273568
I0403 15:28:19.870770  3120 layer_factory.hpp:77] Creating layer inception_5b/5x5_reduce
I0403 15:28:19.870828  3120 net.cpp:91] Creating Layer inception_5b/5x5_reduce
I0403 15:28:19.870852  3120 net.cpp:425] inception_5b/5x5_reduce <- inception_5a/output_inception_5a/output_0_split_2
I0403 15:28:19.870873  3120 net.cpp:399] inception_5b/5x5_reduce -> inception_5b/5x5_reduce
I0403 15:28:19.872234  3120 net.cpp:141] Setting up inception_5b/5x5_reduce
I0403 15:28:19.872275  3120 net.cpp:148] Top shape: 24 48 7 7 (56448)
I0403 15:28:19.872293  3120 net.cpp:156] Memory required for data: 1334499360
I0403 15:28:19.872314  3120 layer_factory.hpp:77] Creating layer inception_5b/relu_5x5_reduce
I0403 15:28:19.872335  3120 net.cpp:91] Creating Layer inception_5b/relu_5x5_reduce
I0403 15:28:19.872354  3120 net.cpp:425] inception_5b/relu_5x5_reduce <- inception_5b/5x5_reduce
I0403 15:28:19.872373  3120 net.cpp:386] inception_5b/relu_5x5_reduce -> inception_5b/5x5_reduce (in-place)
I0403 15:28:19.872778  3120 net.cpp:141] Setting up inception_5b/relu_5x5_reduce
I0403 15:28:19.872807  3120 net.cpp:148] Top shape: 24 48 7 7 (56448)
I0403 15:28:19.872823  3120 net.cpp:156] Memory required for data: 1334725152
I0403 15:28:19.872839  3120 layer_factory.hpp:77] Creating layer inception_5b/5x5
I0403 15:28:19.872861  3120 net.cpp:91] Creating Layer inception_5b/5x5
I0403 15:28:19.872880  3120 net.cpp:425] inception_5b/5x5 <- inception_5b/5x5_reduce
I0403 15:28:19.872900  3120 net.cpp:399] inception_5b/5x5 -> inception_5b/5x5
I0403 15:28:19.875092  3120 net.cpp:141] Setting up inception_5b/5x5
I0403 15:28:19.875123  3120 net.cpp:148] Top shape: 24 128 7 7 (150528)
I0403 15:28:19.875140  3120 net.cpp:156] Memory required for data: 1335327264
I0403 15:28:19.875160  3120 layer_factory.hpp:77] Creating layer inception_5b/relu_5x5
I0403 15:28:19.875180  3120 net.cpp:91] Creating Layer inception_5b/relu_5x5
I0403 15:28:19.875197  3120 net.cpp:425] inception_5b/relu_5x5 <- inception_5b/5x5
I0403 15:28:19.875219  3120 net.cpp:386] inception_5b/relu_5x5 -> inception_5b/5x5 (in-place)
I0403 15:28:19.875427  3120 net.cpp:141] Setting up inception_5b/relu_5x5
I0403 15:28:19.875452  3120 net.cpp:148] Top shape: 24 128 7 7 (150528)
I0403 15:28:19.875468  3120 net.cpp:156] Memory required for data: 1335929376
I0403 15:28:19.875484  3120 layer_factory.hpp:77] Creating layer inception_5b/pool
I0403 15:28:19.875504  3120 net.cpp:91] Creating Layer inception_5b/pool
I0403 15:28:19.875522  3120 net.cpp:425] inception_5b/pool <- inception_5a/output_inception_5a/output_0_split_3
I0403 15:28:19.875543  3120 net.cpp:399] inception_5b/pool -> inception_5b/pool
I0403 15:28:19.875620  3120 net.cpp:141] Setting up inception_5b/pool
I0403 15:28:19.875644  3120 net.cpp:148] Top shape: 24 832 7 7 (978432)
I0403 15:28:19.875660  3120 net.cpp:156] Memory required for data: 1339843104
I0403 15:28:19.875676  3120 layer_factory.hpp:77] Creating layer inception_5b/pool_proj
I0403 15:28:19.875701  3120 net.cpp:91] Creating Layer inception_5b/pool_proj
I0403 15:28:19.875720  3120 net.cpp:425] inception_5b/pool_proj <- inception_5b/pool
I0403 15:28:19.875740  3120 net.cpp:399] inception_5b/pool_proj -> inception_5b/pool_proj
I0403 15:28:19.878180  3120 net.cpp:141] Setting up inception_5b/pool_proj
I0403 15:28:19.878211  3120 net.cpp:148] Top shape: 24 128 7 7 (150528)
I0403 15:28:19.878228  3120 net.cpp:156] Memory required for data: 1340445216
I0403 15:28:19.878253  3120 layer_factory.hpp:77] Creating layer inception_5b/relu_pool_proj
I0403 15:28:19.878276  3120 net.cpp:91] Creating Layer inception_5b/relu_pool_proj
I0403 15:28:19.878294  3120 net.cpp:425] inception_5b/relu_pool_proj <- inception_5b/pool_proj
I0403 15:28:19.878312  3120 net.cpp:386] inception_5b/relu_pool_proj -> inception_5b/pool_proj (in-place)
I0403 15:28:19.878624  3120 net.cpp:141] Setting up inception_5b/relu_pool_proj
I0403 15:28:19.878653  3120 net.cpp:148] Top shape: 24 128 7 7 (150528)
I0403 15:28:19.878669  3120 net.cpp:156] Memory required for data: 1341047328
I0403 15:28:19.878685  3120 layer_factory.hpp:77] Creating layer inception_5b/output
I0403 15:28:19.878707  3120 net.cpp:91] Creating Layer inception_5b/output
I0403 15:28:19.878746  3120 net.cpp:425] inception_5b/output <- inception_5b/1x1
I0403 15:28:19.878767  3120 net.cpp:425] inception_5b/output <- inception_5b/3x3
I0403 15:28:19.878785  3120 net.cpp:425] inception_5b/output <- inception_5b/5x5
I0403 15:28:19.878803  3120 net.cpp:425] inception_5b/output <- inception_5b/pool_proj
I0403 15:28:19.878820  3120 net.cpp:399] inception_5b/output -> inception_5b/output
I0403 15:28:19.878876  3120 net.cpp:141] Setting up inception_5b/output
I0403 15:28:19.878901  3120 net.cpp:148] Top shape: 24 1024 7 7 (1204224)
I0403 15:28:19.878917  3120 net.cpp:156] Memory required for data: 1345864224
I0403 15:28:19.878932  3120 layer_factory.hpp:77] Creating layer pool5/7x7_s1
I0403 15:28:19.878952  3120 net.cpp:91] Creating Layer pool5/7x7_s1
I0403 15:28:19.878970  3120 net.cpp:425] pool5/7x7_s1 <- inception_5b/output
I0403 15:28:19.878990  3120 net.cpp:399] pool5/7x7_s1 -> pool5/7x7_s1
I0403 15:28:19.879214  3120 net.cpp:141] Setting up pool5/7x7_s1
I0403 15:28:19.879246  3120 net.cpp:148] Top shape: 24 1024 1 1 (24576)
I0403 15:28:19.879264  3120 net.cpp:156] Memory required for data: 1345962528
I0403 15:28:19.879281  3120 layer_factory.hpp:77] Creating layer pool5/drop_7x7_s1
I0403 15:28:19.879299  3120 net.cpp:91] Creating Layer pool5/drop_7x7_s1
I0403 15:28:19.879317  3120 net.cpp:425] pool5/drop_7x7_s1 <- pool5/7x7_s1
I0403 15:28:19.879335  3120 net.cpp:386] pool5/drop_7x7_s1 -> pool5/7x7_s1 (in-place)
I0403 15:28:19.879389  3120 net.cpp:141] Setting up pool5/drop_7x7_s1
I0403 15:28:19.879415  3120 net.cpp:148] Top shape: 24 1024 1 1 (24576)
I0403 15:28:19.879429  3120 net.cpp:156] Memory required for data: 1346060832
I0403 15:28:19.879446  3120 layer_factory.hpp:77] Creating layer loss3/classifier_plantvillage
I0403 15:28:19.879467  3120 net.cpp:91] Creating Layer loss3/classifier_plantvillage
I0403 15:28:19.879484  3120 net.cpp:425] loss3/classifier_plantvillage <- pool5/7x7_s1
I0403 15:28:19.879504  3120 net.cpp:399] loss3/classifier_plantvillage -> loss3/classifier_plantvillage
I0403 15:28:19.879945  3120 net.cpp:141] Setting up loss3/classifier_plantvillage
I0403 15:28:19.879971  3120 net.cpp:148] Top shape: 24 38 (912)
I0403 15:28:19.879987  3120 net.cpp:156] Memory required for data: 1346064480
I0403 15:28:19.880007  3120 layer_factory.hpp:77] Creating layer loss3/classifier_plantvillage_loss3/classifier_plantvillage_0_split
I0403 15:28:19.880028  3120 net.cpp:91] Creating Layer loss3/classifier_plantvillage_loss3/classifier_plantvillage_0_split
I0403 15:28:19.880044  3120 net.cpp:425] loss3/classifier_plantvillage_loss3/classifier_plantvillage_0_split <- loss3/classifier_plantvillage
I0403 15:28:19.880066  3120 net.cpp:399] loss3/classifier_plantvillage_loss3/classifier_plantvillage_0_split -> loss3/classifier_plantvillage_loss3/classifier_plantvillage_0_split_0
I0403 15:28:19.880089  3120 net.cpp:399] loss3/classifier_plantvillage_loss3/classifier_plantvillage_0_split -> loss3/classifier_plantvillage_loss3/classifier_plantvillage_0_split_1
I0403 15:28:19.880110  3120 net.cpp:399] loss3/classifier_plantvillage_loss3/classifier_plantvillage_0_split -> loss3/classifier_plantvillage_loss3/classifier_plantvillage_0_split_2
I0403 15:28:19.880131  3120 net.cpp:399] loss3/classifier_plantvillage_loss3/classifier_plantvillage_0_split -> loss3/classifier_plantvillage_loss3/classifier_plantvillage_0_split_3
I0403 15:28:19.880239  3120 net.cpp:141] Setting up loss3/classifier_plantvillage_loss3/classifier_plantvillage_0_split
I0403 15:28:19.880270  3120 net.cpp:148] Top shape: 24 38 (912)
I0403 15:28:19.880287  3120 net.cpp:148] Top shape: 24 38 (912)
I0403 15:28:19.880306  3120 net.cpp:148] Top shape: 24 38 (912)
I0403 15:28:19.880321  3120 net.cpp:148] Top shape: 24 38 (912)
I0403 15:28:19.880336  3120 net.cpp:156] Memory required for data: 1346079072
I0403 15:28:19.880352  3120 layer_factory.hpp:77] Creating layer loss1/loss
I0403 15:28:19.880375  3120 net.cpp:91] Creating Layer loss1/loss
I0403 15:28:19.880394  3120 net.cpp:425] loss1/loss <- loss1/classifier_plantvillage_loss1/classifier_plantvillage_0_split_0
I0403 15:28:19.880426  3120 net.cpp:425] loss1/loss <- label_data_1_split_0
…
