…
I0403 15:35:20.291012  3259 net.cpp:313] The NetState phase (1) differed from the phase (0) specified by a rule in layer data
I0403 15:35:20.293005  3259 net.cpp:49] Initializing net from parameters: 
state {
  phase: TEST
}
layer {
  name: "data"
  type: "Data"
  top: "data"
  top: "label"
  include {
    phase: TEST
  }
  transform_param {
    mirror: false
    crop_size: 224
    mean_file: "/home/mohanty/data/final_dataset/lmdb/grayscale-50-50/mean.binaryproto"
  }
  data_param {
    source: "/home/mohanty/data/final_dataset/lmdb/grayscale-50-50/test_db"
    batch_size: 24
    backend: LMDB
  }
}
layer {
  name: "conv1/7x7_s2"
  type: "Convolution"
  bottom: "data"
  top: "conv1/7x7_s2"
  param {
    lr_mult: 1
    decay_mult: 1
  }
  param {
    lr_mult: 2
    decay_mult: 0
  }
  convolution_param {
    num_output: 64
    pad: 3
    kernel_size: 7
    stride: 2
    weight_filler {
      type: "xavier"
      std: 0.1
    }
    bias_filler {
      type: "constant"
      value: 0.2
    }
  }
}
layer {
  name: "conv1/relu_7x7"
  type: "ReLU"
  bottom: "conv1/7x7_s2"
  top: "conv1/7x7_s2"
}
layer {
  name: "pool1/3x3_s2"
  type: "Pooling"
  bottom: "conv1/7x7_s2"
  top: "pool1/3x3_s2"
  pooling_param {
    pool: MAX
    kernel_size: 3
    stride: 2
  }
}
layer {
  name: "pool1/norm1"
  type: "LRN"
  bottom: "pool1/3x3_s2"
  top: "pool1/norm1"
  lrn_param {
    local_size: 5
    alpha: 0.0001
    beta: 0.75
  }
}
layer {
  name: "conv2/3x3_reduce"
  type: "Convolution"
  bottom: "pool1/norm1"
  top: "conv2/3x3_reduce"
  param {
    lr_mult: 1
    decay_mult: 1
  }
  param {
    lr_mult: 2
    decay_mult: 0
  }
  convolution_param {
    num_output: 64
    kernel_size: 1
    weight_filler {
      type: "xavier"
      std: 0.1
    }
    bias_filler {
      type: "constant"
      value: 0.2
    }
  }
}
layer {
  name: "conv2/relu_3x3_reduce"
  type: "ReLU"
  bottom: "conv2/3x3_reduce"
  top: "conv2/3x3_reduce"
}
layer {
  name: "conv2/3x3"
  type: "Convolution"
  bottom: "conv2/3x3_reduce"
  top: "conv2/3x3"
  param {
    lr_mult: 1
    decay_mult: 1
  }
  param {
    lr_mult: 2
    decay_mult: 0
  }
  convolution_param {
    num_output: 192
    pad: 1
    kernel_size: 3
    weight_filler {
      type: "xavier"
      std: 0.03
    }
    bias_filler {
      type: "constant"
      value: 0.2
    }
  }
}
layer {
  name: "conv2/relu_3x3"
  type: "ReLU"
  bottom: "conv2/3x3"
  top: "conv2/3x3"
}
layer {
  name: "conv2/norm2"
  type: "LRN"
  bottom: "conv2/3x3"
  top: "conv2/norm2"
  lrn_param {
    local_size: 5
    alpha: 0.0001
    beta: 0.75
  }
}
layer {
  name: "pool2/3x3_s2"
  type: "Pooling"
  bottom: "conv2/norm2"
  top: "pool2/3x3_s2"
  pooling_param {
    pool: MAX
    kernel_size: 3
    stride: 2
  }
}
layer {
  name: "inception_3a/1x1"
  type: "Convolution"
  bottom: "pool2/3x3_s2"
  top: "inception_3a/1x1"
  param {
    lr_mult: 1
    decay_mult: 1
  }
  param {
    lr_mult: 2
    decay_mult: 0
  }
  convolution_param {
    num_output: 64
    kernel_size: 1
    weight_filler {
      type: "xavier"
      std: 0.03
    }
    bias_filler {
      type: "constant"
      value: 0.2
    }
  }
}
layer {
  name: "inception_3a/relu_1x1"
  type: "ReLU"
  bottom: "inception_3a/1x1"
  top: "inception_3a/1x1"
}
layer {
  name: "inception_3a/3x3_reduce"
  type: "Convolution"
  bottom: "pool2/3x3_s2"
  top: "inception_3a/3x3_reduce"
  param {
    lr_mult: 1
    decay_mult: 1
  }
  param {
    lr_mult: 2
    decay_mult: 0
  }
  convolution_param {
    num_output: 96
    kernel_size: 1
    weight_filler {
      type: "xavier"
      std: 0.09
    }
    bias_filler {
      type: "constant"
      value: 0.2
    }
  }
}
layer {
  name: "inception_3a/relu_3x3_reduce"
  type: "ReLU"
  bottom: "inception_3a/3x3_reduce"
  top: "inception_3a/3x3_reduce"
}
layer {
  name: "inception_3a/3x3"
  type: "Convolution"
  bottom: "inception_3a/3x3_reduce"
  top: "inception_3a/3x3"
  param {
    lr_mult: 1
    decay_mult: 1
  }
  param {
    lr_mult: 2
    decay_mult: 0
  }
  convolution_param {
    num_output: 128
    pad: 1
    kernel_size: 3
    weight_filler {
      type: "xavier"
      std: 0.03
    }
    bias_filler {
      type: "constant"
      value: 0.2
    }
  }
}
layer {
  name: "inception_3a/relu_3x3"
  type: "ReLU"
  bottom: "inception_3a/3x3"
  top: "inception_3a/3x3"
}
layer {
  name: "inception_3a/5x5_reduce"
  type: "Convolution"
  bottom: "pool2/3x3_s2"
  top: "inception_3a/5x5_reduce"
  param {
    lr_mult: 1
    decay_mult: 1
  }
  param {
    lr_mult: 2
    decay_mult: 0
  }
  convolution_param {
    num_output: 16
    kernel_size: 1
    weight_filler {
      type: "xavier"
      std: 0.2
    }
    bias_filler {
      type: "constant"
      value: 0.2
    }
  }
}
layer {
  name: "inception_3a/relu_5x5_reduce"
  type: "ReLU"
  bottom: "inception_3a/5x5_reduce"
  top: "inception_3a/5x5_reduce"
}
layer {
  name: "inception_3a/5x5"
  type: "Convolution"
  bottom: "inception_3a/5x5_reduce"
  top: "inception_3a/5x5"
  param {
    lr_mult: 1
    decay_mult: 1
  }
  param {
    lr_mult: 2
    decay_mult: 0
  }
  convolution_param {
    num_output: 32
    pad: 2
    kernel_size: 5
    weight_filler {
      type: "xavier"
      std: 0.03
    }
    bias_filler {
      type: "constant"
      value: 0.2
    }
  }
}
layer {
  name: "inception_3a/relu_5x5"
  type: "ReLU"
  bottom: "inception_3a/5x5"
  top: "inception_3a/5x5"
}
layer {
  name: "inception_3a/pool"
  type: "Pooling"
  bottom: "pool2/3x3_s2"
  top: "inception_3a/pool"
  pooling_param {
    pool: MAX
    kernel_size: 3
    stride: 1
    pad: 1
  }
}
layer {
  name: "inception_3a/pool_proj"
  type: "Convolution"
  bottom: "inception_3a/pool"
  top: "inception_3a/pool_proj"
  param {
    lr_mult: 1
    decay_mult: 1
  }
  param {
    lr_mult: 2
    decay_mult: 0
  }
  convolution_param {
    num_output: 32
    kernel_size: 1
    weight_filler {
      type: "xavier"
      std: 0.1
    }
    bias_filler {
      type: "constant"
      value: 0.2
    }
  }
}
layer {
  name: "inception_3a/relu_pool_proj"
  type: "ReLU"
  bottom: "inception_3a/pool_proj"
  top: "inception_3a/pool_proj"
}
layer {
  name: "inception_3a/output"
  type: "Concat"
  bottom: "inception_3a/1x1"
  bottom: "inception_3a/3x3"
  bottom: "inception_3a/5x5"
  bottom: "inception_3a/pool_proj"
  top: "inception_3a/output"
}
layer {
  name: "inception_3b/1x1"
  type: "Convolution"
  bottom: "inception_3a/output"
  top: "inception_3b/1x1"
  param {
    lr_mult: 1
    decay_mult: 1
  }
  param {
    lr_mult: 2
    decay_mult: 0
  }
  convolution_param {
    num_output: 128
    kernel_size: 1
    weight_filler {
      type: "xavier"
      std: 0.03
    }
    bias_filler {
      type: "constant"
      value: 0.2
    }
  }
}
layer {
  name: "inception_3b/relu_1x1"
  type: "ReLU"
  bottom: "inception_3b/1x1"
  top: "inception_3b/1x1"
}
layer {
  name: "inception_3b/3x3_reduce"
  type: "Convolution"
  bottom: "inception_3a/output"
  top: "inception_3b/3x3_reduce"
  param {
    lr_mult: 1
    decay_mult: 1
  }
  param {
    lr_mult: 2
    decay_mult: 0
  }
  convolution_param {
    num_output: 128
    kernel_size: 1
    weight_filler {
      type: "xavier"
      std: 0.09
    }
    bias_filler {
      type: "constant"
      value: 0.2
    }
  }
}
layer {
  name: "inception_3b/relu_3x3_reduce"
  type: "ReLU"
  bottom: "inception_3b/3x3_reduce"
  top: "inception_3b/3x3_reduce"
}
layer {
  name: "inception_3b/3x3"
  type: "Convolution"
  bottom: "inception_3b/3x3_reduce"
  top: "inception_3b/3x3"
  param {
    lr_mult: 1
    decay_mult: 1
  }
  param {
    lr_mult: 2
    decay_mult: 0
  }
  convolution_param {
    num_output: 192
    pad: 1
    kernel_size: 3
    weight_filler {
      type: "xavier"
      std: 0.03
    }
    bias_filler {
      type: "constant"
      value: 0.2
    }
  }
}
layer {
  name: "inception_3b/relu_3x3"
  type: "ReLU"
  bottom: "inception_3b/3x3"
  top: "inception_3b/3x3"
}
layer {
  name: "inception_3b/5x5_reduce"
  type: "Convolution"
  bottom: "inception_3a/output"
  top: "inception_3b/5x5_reduce"
  param {
    lr_mult: 1
    decay_mult: 1
  }
  param {
    lr_mult: 2
    decay_mult: 0
  }
  convolution_param {
    num_output: 32
    kernel_size: 1
    weight_filler {
      type: "xavier"
      std: 0.2
    }
    bias_filler {
      type: "constant"
      value: 0.2
    }
  }
}
layer {
  name: "inception_3b/relu_5x5_reduce"
  type: "ReLU"
  bottom: "inception_3b/5x5_reduce"
  top: "inception_3b/5x5_reduce"
}
layer {
  name: "inception_3b/5x5"
  type: "Convolution"
  bottom: "inception_3b/5x5_reduce"
  top: "inception_3b/5x5"
  param {
    lr_mult: 1
    decay_mult: 1
  }
  param {
    lr_mult: 2
    decay_mult: 0
  }
  convolution_param {
    num_output: 96
    pad: 2
    kernel_size: 5
    weight_filler {
      type: "xavier"
      std: 0.03
    }
    bias_filler {
      type: "constant"
      value: 0.2
    }
  }
}
layer {
  name: "inception_3b/relu_5x5"
  type: "ReLU"
  bottom: "inception_3b/5x5"
  top: "inception_3b/5x5"
}
layer {
  name: "inception_3b/pool"
  type: "Pooling"
  bottom: "inception_3a/output"
  top: "inception_3b/pool"
  pooling_param {
    pool: MAX
    kernel_size: 3
    stride: 1
    pad: 1
  }
}
layer {
  name: "inception_3b/pool_proj"
  type: "Convolution"
  bottom: "inception_3b/pool"
  top: "inception_3b/pool_proj"
  param {
    lr_mult: 1
    decay_mult: 1
  }
  param {
    lr_mult: 2
    decay_mult: 0
  }
  convolution_param {
    num_output: 64
    kernel_size: 1
    weight_filler {
      type: "xavier"
      std: 0.1
    }
    bias_filler {
      type: "constant"
      value: 0.2
    }
  }
}
layer {
  name: "inception_3b/relu_pool_proj"
  type: "ReLU"
  bottom: "inception_3b/pool_proj"
  top: "inception_3b/pool_proj"
}
layer {
  name: "inception_3b/output"
  type: "Concat"
  bottom: "inception_3b/1x1"
  bottom: "inception_3b/3x3"
  bottom: "inception_3b/5x5"
  bottom: "inception_3b/pool_proj"
  top: "inception_3b/output"
}
layer {
  name: "pool3/3x3_s2"
  type: "Pooling"
  bottom: "inception_3b/output"
  top: "pool3/3x3_s2"
  pooling_param {
    pool: MAX
    kernel_size: 3
    stride: 2
  }
}
layer {
  name: "inception_4a/1x1"
  type: "Convolution"
  bottom: "pool3/3x3_s2"
  top: "inception_4a/1x1"
  param {
    lr_mult: 1
    decay_mult: 1
  }
  param {
    lr_mult: 2
    decay_mult: 0
  }
  convolution_param {
    num_output: 192
    kernel_size: 1
    weight_filler {
      type: "xavier"
      std: 0.03
    }
    bias_filler {
      type: "constant"
      value: 0.2
    }
  }
}
layer {
  name: "inception_4a/relu_1x1"
  type: "ReLU"
  bottom: "inception_4a/1x1"
  top: "inception_4a/1x1"
}
layer {
  name: "inception_4a/3x3_reduce"
  type: "Convolution"
  bottom: "pool3/3x3_s2"
  top: "inception_4a/3x3_reduce"
  param {
    lr_mult: 1
    decay_mult: 1
  }
  param {
    lr_mult: 2
    decay_mult: 0
  }
  convolution_param {
    num_output: 96
    kernel_size: 1
    weight_filler {
      type: "xavier"
      std: 0.09
    }
    bias_filler {
      type: "constant"
      value: 0.2
    }
  }
}
layer {
  name: "inception_4a/relu_3x3_reduce"
  type: "ReLU"
  bottom: "inception_4a/3x3_reduce"
  top: "inception_4a/3x3_reduce"
}
layer {
  name: "inception_4a/3x3"
  type: "Convolution"
  bottom: "inception_4a/3x3_reduce"
  top: "inception_4a/3x3"
  param {
    lr_mult: 1
    decay_mult: 1
  }
  param {
    lr_mult: 2
    decay_mult: 0
  }
  convolution_param {
    num_output: 208
    pad: 1
    kernel_size: 3
    weight_filler {
      type: "xavier"
      std: 0.03
    }
    bias_filler {
      type: "constant"
      value: 0.2
    }
  }
}
layer {
  name: "inception_4a/relu_3x3"
  type: "ReLU"
  bottom: "inception_4a/3x3"
  top: "inception_4a/3x3"
}
layer {
  name: "inception_4a/5x5_reduce"
  type: "Convolution"
  bottom: "pool3/3x3_s2"
  top: "inception_4a/5x5_reduce"
  param {
    lr_mult: 1
    decay_mult: 1
  }
  param {
    lr_mult: 2
    decay_mult: 0
  }
  convolution_param {
    num_output: 16
    kernel_size: 1
    weight_filler {
      type: "xavier"
      std: 0.2
    }
    bias_filler {
      type: "constant"
      value: 0.2
    }
  }
}
layer {
  name: "inception_4a/relu_5x5_reduce"
  type: "ReLU"
  bottom: "inception_4a/5x5_reduce"
  top: "inception_4a/5x5_reduce"
}
layer {
  name: "inception_4a/5x5"
  type: "Convolution"
  bottom: "inception_4a/5x5_reduce"
  top: "inception_4a/5x5"
  param {
    lr_mult: 1
    decay_mult: 1
  }
  param {
    lr_mult: 2
    decay_mult: 0
  }
  convolution_param {
    num_output: 48
    pad: 2
    kernel_size: 5
    weight_filler {
      type: "xavier"
      std: 0.03
    }
    bias_filler {
      type: "constant"
      value: 0.2
    }
  }
}
layer {
  name: "inception_4a/relu_5x5"
  type: "ReLU"
  bottom: "inception_4a/5x5"
  top: "inception_4a/5x5"
}
layer {
  name: "inception_4a/pool"
  type: "Pooling"
  bottom: "pool3/3x3_s2"
  top: "inception_4a/pool"
  pooling_param {
    pool: MAX
    kernel_size: 3
    stride: 1
    pad: 1
  }
}
layer {
  name: "inception_4a/pool_proj"
  type: "Convolution"
  bottom: "inception_4a/pool"
  top: "inception_4a/pool_proj"
  param {
    lr_mult: 1
    decay_mult: 1
  }
  param {
    lr_mult: 2
    decay_mult: 0
  }
  convolution_param {
    num_output: 64
    kernel_size: 1
    weight_filler {
      type: "xavier"
      std: 0.1
    }
    bias_filler {
      type: "constant"
      value: 0.2
    }
  }
}
layer {
  name: "inception_4a/relu_pool_proj"
  type: "ReLU"
  bottom: "inception_4a/pool_proj"
  top: "inception_4a/pool_proj"
}
layer {
  name: "inception_4a/output"
  type: "Concat"
  bottom: "inception_4a/1x1"
  bottom: "inception_4a/3x3"
  bottom: "inception_4a/5x5"
  bottom: "inception_4a/pool_proj"
  top: "inception_4a/output"
}
layer {
  name: "loss1/ave_pool"
  type: "Pooling"
  bottom: "inception_4a/output"
  top: "loss1/ave_pool"
  pooling_param {
    pool: AVE
    kernel_size: 5
    stride: 3
  }
}
layer {
  name: "loss1/conv"
  type: "Convolution"
  bottom: "loss1/ave_pool"
  top: "loss1/conv"
  param {
    lr_mult: 1
    decay_mult: 1
  }
  param {
    lr_mult: 2
    decay_mult: 0
  }
  convolution_param {
    num_output: 128
    kernel_size: 1
    weight_filler {
      type: "xavier"
      std: 0.08
    }
    bias_filler {
      type: "constant"
      value: 0.2
    }
  }
}
layer {
  name: "loss1/relu_conv"
  type: "ReLU"
  bottom: "loss1/conv"
  top: "loss1/conv"
}
layer {
  name: "loss1/fc"
  type: "InnerProduct"
  bottom: "loss1/conv"
  top: "loss1/fc"
  param {
    lr_mult: 1
    decay_mult: 1
  }
  param {
    lr_mult: 2
    decay_mult: 0
  }
  inner_product_param {
    num_output: 1024
    weight_filler {
      type: "xavier"
      std: 0.02
    }
    bias_filler {
      type: "constant"
      value: 0.2
    }
  }
}
layer {
  name: "loss1/relu_fc"
  type: "ReLU"
  bottom: "loss1/fc"
  top: "loss1/fc"
}
layer {
  name: "loss1/drop_fc"
  type: "Dropout"
  bottom: "loss1/fc"
  top: "loss1/fc"
  dropout_param {
    dropout_ratio: 0.7
  }
}
layer {
  name: "loss1/classifier_plantvillage"
  type: "InnerProduct"
  bottom: "loss1/fc"
  top: "loss1/classifier_plantvillage"
  param {
    lr_mult: 1
    decay_mult: 1
  }
  param {
    lr_mult: 2
    decay_mult: 0
  }
  inner_product_param {
    num_output: 38
    weight_filler {
      type: "xavier"
      std: 0.0009765625
    }
    bias_filler {
      type: "constant"
      value: 0
    }
  }
}
layer {
  name: "inception_4b/1x1"
  type: "Convolution"
  bottom: "inception_4a/output"
  top: "inception_4b/1x1"
  param {
    lr_mult: 1
    decay_mult: 1
  }
  param {
    lr_mult: 2
    decay_mult: 0
  }
  convolution_param {
    num_output: 160
    kernel_size: 1
    weight_filler {
      type: "xavier"
      std: 0.03
    }
    bias_filler {
      type: "constant"
      value: 0.2
    }
  }
}
layer {
  name: "inception_4b/relu_1x1"
  type: "ReLU"
  bottom: "inception_4b/1x1"
  top: "inception_4b/1x1"
}
layer {
  name: "inception_4b/3x3_reduce"
  type: "Convolution"
  bottom: "inception_4a/output"
  top: "inception_4b/3x3_reduce"
  param {
    lr_mult: 1
    decay_mult: 1
  }
  param {
    lr_mult: 2
    decay_mult: 0
  }
  convolution_param {
    num_output: 112
    kernel_size: 1
    weight_filler {
      type: "xavier"
      std: 0.09
    }
    bias_filler {
      type: "constant"
      value: 0.2
    }
  }
}
layer {
  name: "inception_4b/relu_3x3_reduce"
  type: "ReLU"
  bottom: "inception_4b/3x3_reduce"
  top: "inception_4b/3x3_reduce"
}
layer {
  name: "inception_4b/3x3"
  type: "Convolution"
  bottom: "inception_4b/3x3_reduce"
  top: "inception_4b/3x3"
  param {
    lr_mult: 1
    decay_mult: 1
  }
  param {
    lr_mult: 2
    decay_mult: 0
  }
  convolution_param {
    num_output: 224
    pad: 1
    kernel_size: 3
    weight_filler {
      type: "xavier"
      std: 0.03
    }
    bias_filler {
      type: "constant"
      value: 0.2
    }
  }
}
layer {
  name: "inception_4b/relu_3x3"
  type: "ReLU"
  bottom: "inception_4b/3x3"
  top: "inception_4b/3x3"
}
layer {
  name: "inception_4b/5x5_reduce"
  type: "Convolution"
  bottom: "inception_4a/output"
  top: "inception_4b/5x5_reduce"
  param {
    lr_mult: 1
    decay_mult: 1
  }
  param {
    lr_mult: 2
    decay_mult: 0
  }
  convolution_param {
    num_output: 24
    kernel_size: 1
    weight_filler {
      type: "xavier"
      std: 0.2
    }
    bias_filler {
      type: "constant"
      value: 0.2
    }
  }
}
layer {
  name: "inception_4b/relu_5x5_reduce"
  type: "ReLU"
  bottom: "inception_4b/5x5_reduce"
  top: "inception_4b/5x5_reduce"
}
layer {
  name: "inception_4b/5x5"
  type: "Convolution"
  bottom: "inception_4b/5x5_reduce"
  top: "inception_4b/5x5"
  param {
    lr_mult: 1
    decay_mult: 1
  }
  param {
    lr_mult: 2
    decay_mult: 0
  }
  convolution_param {
    num_output: 64
    pad: 2
    kernel_size: 5
    weight_filler {
      type: "xavier"
      std: 0.03
    }
    bias_filler {
      type: "constant"
      value: 0.2
    }
  }
}
layer {
  name: "inception_4b/relu_5x5"
  type: "ReLU"
  bottom: "inception_4b/5x5"
  top: "inception_4b/5x5"
}
layer {
  name: "inception_4b/pool"
  type: "Pooling"
  bottom: "inception_4a/output"
  top: "inception_4b/pool"
  pooling_param {
    pool: MAX
    kernel_size: 3
    stride: 1
    pad: 1
  }
}
layer {
  name: "inception_4b/pool_proj"
  type: "Convolution"
  bottom: "inception_4b/pool"
  top: "inception_4b/pool_proj"
  param {
    lr_mult: 1
    decay_mult: 1
  }
  param {
    lr_mult: 2
    decay_mult: 0
  }
  convolution_param {
    num_output: 64
    kernel_size: 1
    weight_filler {
      type: "xavier"
      std: 0.1
    }
    bias_filler {
      type: "constant"
      value: 0.2
    }
  }
}
layer {
  name: "inception_4b/relu_pool_proj"
  type: "ReLU"
  bottom: "inception_4b/pool_proj"
  top: "inception_4b/pool_proj"
}
layer {
  name: "inception_4b/output"
  type: "Concat"
  bottom: "inception_4b/1x1"
  bottom: "inception_4b/3x3"
  bottom: "inception_4b/5x5"
  bottom: "inception_4b/pool_proj"
  top: "inception_4b/output"
}
layer {
  name: "inception_4c/1x1"
  type: "Convolution"
  bottom: "inception_4b/output"
  top: "inception_4c/1x1"
  param {
    lr_mult: 1
    decay_mult: 1
  }
  param {
    lr_mult: 2
    decay_mult: 0
  }
  convolution_param {
    num_output: 128
    kernel_size: 1
    weight_filler {
      type: "xavier"
      std: 0.03
    }
    bias_filler {
      type: "constant"
      value: 0.2
    }
  }
}
layer {
  name: "inception_4c/relu_1x1"
  type: "ReLU"
  bottom: "inception_4c/1x1"
  top: "inception_4c/1x1"
}
layer {
  name: "inception_4c/3x3_reduce"
  type: "Convolution"
  bottom: "inception_4b/output"
  top: "inception_4c/3x3_reduce"
  param {
    lr_mult: 1
    decay_mult: 1
  }
  param {
    lr_mult: 2
    decay_mult: 0
  }
  convolution_param {
    num_output: 128
    kernel_size: 1
    weight_filler {
      type: "xavier"
      std: 0.09
    }
    bias_filler {
      type: "constant"
      value: 0.2
    }
  }
}
layer {
  name: "inception_4c/relu_3x3_reduce"
  type: "ReLU"
  bottom: "inception_4c/3x3_reduce"
  top: "inception_4c/3x3_reduce"
}
layer {
  name: "inception_4c/3x3"
  type: "Convolution"
  bottom: "inception_4c/3x3_reduce"
  top: "inception_4c/3x3"
  param {
    lr_mult: 1
    decay_mult: 1
  }
  param {
    lr_mult: 2
    decay_mult: 0
  }
  convolution_param {
    num_output: 256
    pad: 1
    kernel_size: 3
    weight_filler {
      type: "xavier"
      std: 0.03
    }
    bias_filler {
      type: "constant"
      value: 0.2
    }
  }
}
layer {
  name: "inception_4c/relu_3x3"
  type: "ReLU"
  bottom: "inception_4c/3x3"
  top: "inception_4c/3x3"
}
layer {
  name: "inception_4c/5x5_reduce"
  type: "Convolution"
  bottom: "inception_4b/output"
  top: "inception_4c/5x5_reduce"
  param {
    lr_mult: 1
    decay_mult: 1
  }
  param {
    lr_mult: 2
    decay_mult: 0
  }
  convolution_param {
    num_output: 24
    kernel_size: 1
    weight_filler {
      type: "xavier"
      std: 0.2
    }
    bias_filler {
      type: "constant"
      value: 0.2
    }
  }
}
layer {
  name: "inception_4c/relu_5x5_reduce"
  type: "ReLU"
  bottom: "inception_4c/5x5_reduce"
  top: "inception_4c/5x5_reduce"
}
layer {
  name: "inception_4c/5x5"
  type: "Convolution"
  bottom: "inception_4c/5x5_reduce"
  top: "inception_4c/5x5"
  param {
    lr_mult: 1
    decay_mult: 1
  }
  param {
    lr_mult: 2
    decay_mult: 0
  }
  convolution_param {
    num_output: 64
    pad: 2
    kernel_size: 5
    weight_filler {
      type: "xavier"
      std: 0.03
    }
    bias_filler {
      type: "constant"
      value: 0.2
    }
  }
}
layer {
  name: "inception_4c/relu_5x5"
  type: "ReLU"
  bottom: "inception_4c/5x5"
  top: "inception_4c/5x5"
}
layer {
  name: "inception_4c/pool"
  type: "Pooling"
  bottom: "inception_4b/output"
  top: "inception_4c/pool"
  pooling_param {
    pool: MAX
    kernel_size: 3
    stride: 1
    pad: 1
  }
}
layer {
  name: "inception_4c/pool_proj"
  type: "Convolution"
  bottom: "inception_4c/pool"
  top: "inception_4c/pool_proj"
  param {
    lr_mult: 1
    decay_mult: 1
  }
  param {
    lr_mult: 2
    decay_mult: 0
  }
  convolution_param {
    num_output: 64
    kernel_size: 1
    weight_filler {
      type: "xavier"
      std: 0.1
    }
    bias_filler {
      type: "constant"
      value: 0.2
    }
  }
}
layer {
  name: "inception_4c/relu_pool_proj"
  type: "ReLU"
  bottom: "inception_4c/pool_proj"
  top: "inception_4c/pool_proj"
}
layer {
  name: "inception_4c/output"
  type: "Concat"
  bottom: "inception_4c/1x1"
  bottom: "inception_4c/3x3"
  bottom: "inception_4c/5x5"
  bottom: "inception_4c/pool_proj"
  top: "inception_4c/output"
}
layer {
  name: "inception_4d/1x1"
  type: "Convolution"
  bottom: "inception_4c/output"
  top: "inception_4d/1x1"
  param {
    lr_mult: 1
    decay_mult: 1
  }
  param {
    lr_mult: 2
    decay_mult: 0
  }
  convolution_param {
    num_output: 112
    kernel_size: 1
    weight_filler {
      type: "xavier"
      std: 0.03
    }
    bias_filler {
      type: "constant"
      value: 0.2
    }
  }
}
layer {
  name: "inception_4d/relu_1x1"
  type: "ReLU"
  bottom: "inception_4d/1x1"
  top: "inception_4d/1x1"
}
layer {
  name: "inception_4d/3x3_reduce"
  type: "Convolution"
  bottom: "inception_4c/output"
  top: "inception_4d/3x3_reduce"
  param {
    lr_mult: 1
    decay_mult: 1
  }
  param {
    lr_mult: 2
    decay_mult: 0
  }
  convolution_param {
    num_output: 144
    kernel_size: 1
    weight_filler {
      type: "xavier"
      std: 0.09
    }
    bias_filler {
      type: "constant"
      value: 0.2
    }
  }
}
layer {
  name: "inception_4d/relu_3x3_reduce"
  type: "ReLU"
  bottom: "inception_4d/3x3_reduce"
  top: "inception_4d/3x3_reduce"
}
layer {
  name: "inception_4d/3x3"
  type: "Convolution"
  bottom: "inception_4d/3x3_reduce"
  top: "inception_4d/3x3"
  param {
    lr_mult: 1
    decay_mult: 1
  }
  param {
    lr_mult: 2
    decay_mult: 0
  }
  convolution_param {
    num_output: 288
    pad: 1
    kernel_size: 3
    weight_filler {
      type: "xavier"
      std: 0.03
    }
    bias_filler {
      type: "constant"
      value: 0.2
    }
  }
}
layer {
  name: "inception_4d/relu_3x3"
  type: "ReLU"
  bottom: "inception_4d/3x3"
  top: "inception_4d/3x3"
}
layer {
  name: "inception_4d/5x5_reduce"
  type: "Convolution"
  bottom: "inception_4c/output"
  top: "inception_4d/5x5_reduce"
  param {
    lr_mult: 1
    decay_mult: 1
  }
  param {
    lr_mult: 2
    decay_mult: 0
  }
  convolution_param {
    num_output: 32
    kernel_size: 1
    weight_filler {
      type: "xavier"
      std: 0.2
    }
    bias_filler {
      type: "constant"
      value: 0.2
    }
  }
}
layer {
  name: "inception_4d/relu_5x5_reduce"
  type: "ReLU"
  bottom: "inception_4d/5x5_reduce"
  top: "inception_4d/5x5_reduce"
}
layer {
  name: "inception_4d/5x5"
  type: "Convolution"
  bottom: "inception_4d/5x5_reduce"
  top: "inception_4d/5x5"
  param {
    lr_mult: 1
    decay_mult: 1
  }
  param {
    lr_mult: 2
    decay_mult: 0
  }
  convolution_param {
    num_output: 64
    pad: 2
    kernel_size: 5
    weight_filler {
      type: "xavier"
      std: 0.03
    }
    bias_filler {
      type: "constant"
      value: 0.2
    }
  }
}
layer {
  name: "inception_4d/relu_5x5"
  type: "ReLU"
  bottom: "inception_4d/5x5"
  top: "inception_4d/5x5"
}
layer {
  name: "inception_4d/pool"
  type: "Pooling"
  bottom: "inception_4c/output"
  top: "inception_4d/pool"
  pooling_param {
    pool: MAX
    kernel_size: 3
    stride: 1
    pad: 1
  }
}
layer {
  name: "inception_4d/pool_proj"
  type: "Convolution"
  bottom: "inception_4d/pool"
  top: "inception_4d/pool_proj"
  param {
    lr_mult: 1
    decay_mult: 1
  }
  param {
    lr_mult: 2
    decay_mult: 0
  }
  convolution_param {
    num_output: 64
    kernel_size: 1
    weight_filler {
      type: "xavier"
      std: 0.1
    }
    bias_filler {
      type: "constant"
      value: 0.2
    }
  }
}
layer {
  name: "inception_4d/relu_pool_proj"
  type: "ReLU"
  bottom: "inception_4d/pool_proj"
  top: "inception_4d/pool_proj"
}
layer {
  name: "inception_4d/output"
  type: "Concat"
  bottom: "inception_4d/1x1"
  bottom: "inception_4d/3x3"
  bottom: "inception_4d/5x5"
  bottom: "inception_4d/pool_proj"
  top: "inception_4d/output"
}
layer {
  name: "loss2/ave_pool"
  type: "Pooling"
  bottom: "inception_4d/output"
  top: "loss2/ave_pool"
  pooling_param {
    pool: AVE
    kernel_size: 5
    stride: 3
  }
}
layer {
  name: "loss2/conv"
  type: "Convolution"
  bottom: "loss2/ave_pool"
  top: "loss2/conv"
  param {
    lr_mult: 1
    decay_mult: 1
  }
  param {
    lr_mult: 2
    decay_mult: 0
  }
  convolution_param {
    num_output: 128
    kernel_size: 1
    weight_filler {
      type: "xavier"
      std: 0.08
    }
    bias_filler {
      type: "constant"
      value: 0.2
    }
  }
}
layer {
  name: "loss2/relu_conv"
  type: "ReLU"
  bottom: "loss2/conv"
  top: "loss2/conv"
}
layer {
  name: "loss2/fc"
  type: "InnerProduct"
  bottom: "loss2/conv"
  top: "loss2/fc"
  param {
    lr_mult: 1
    decay_mult: 1
  }
  param {
    lr_mult: 2
    decay_mult: 0
  }
  inner_product_param {
    num_output: 1024
    weight_filler {
      type: "xavier"
      std: 0.02
    }
    bias_filler {
      type: "constant"
      value: 0.2
    }
  }
}
layer {
  name: "loss2/relu_fc"
  type: "ReLU"
  bottom: "loss2/fc"
  top: "loss2/fc"
}
layer {
  name: "loss2/drop_fc"
  type: "Dropout"
  bottom: "loss2/fc"
  top: "loss2/fc"
  dropout_param {
    dropout_ratio: 0.7
  }
}
layer {
  name: "loss2/classifier_plantvillage"
  type: "InnerProduct"
  bottom: "loss2/fc"
  top: "loss2/classifier_plantvillage"
  param {
    lr_mult: 1
    decay_mult: 1
  }
  param {
    lr_mult: 2
    decay_mult: 0
  }
  inner_product_param {
    num_output: 38
    weight_filler {
      type: "xavier"
      std: 0.0009765625
    }
    bias_filler {
      type: "constant"
      value: 0
    }
  }
}
layer {
  name: "inception_4e/1x1"
  type: "Convolution"
  bottom: "inception_4d/output"
  top: "inception_4e/1x1"
  param {
    lr_mult: 1
    decay_mult: 1
  }
  param {
    lr_mult: 2
    decay_mult: 0
  }
  convolution_param {
    num_output: 256
    kernel_size: 1
    weight_filler {
      type: "xavier"
      std: 0.03
    }
    bias_filler {
      type: "constant"
      value: 0.2
    }
  }
}
layer {
  name: "inception_4e/relu_1x1"
  type: "ReLU"
  bottom: "inception_4e/1x1"
  top: "inception_4e/1x1"
}
layer {
  name: "inception_4e/3x3_reduce"
  type: "Convolution"
  bottom: "inception_4d/output"
  top: "inception_4e/3x3_reduce"
  param {
    lr_mult: 1
    decay_mult: 1
  }
  param {
    lr_mult: 2
    decay_mult: 0
  }
  convolution_param {
    num_output: 160
    kernel_size: 1
    weight_filler {
      type: "xavier"
      std: 0.09
    }
    bias_filler {
      type: "constant"
      value: 0.2
    }
  }
}
layer {
  name: "inception_4e/relu_3x3_reduce"
  type: "ReLU"
  bottom: "inception_4e/3x3_reduce"
  top: "inception_4e/3x3_reduce"
}
layer {
  name: "inception_4e/3x3"
  type: "Convolution"
  bottom: "inception_4e/3x3_reduce"
  top: "inception_4e/3x3"
  param {
    lr_mult: 1
    decay_mult: 1
  }
  param {
    lr_mult: 2
    decay_mult: 0
  }
  convolution_param {
    num_output: 320
    pad: 1
    kernel_size: 3
    weight_filler {
      type: "xavier"
      std: 0.03
    }
    bias_filler {
      type: "constant"
      value: 0.2
    }
  }
}
layer {
  name: "inception_4e/relu_3x3"
  type: "ReLU"
  bottom: "inception_4e/3x3"
  top: "inception_4e/3x3"
}
layer {
  name: "inception_4e/5x5_reduce"
  type: "Convolution"
  bottom: "inception_4d/output"
  top: "inception_4e/5x5_reduce"
  param {
    lr_mult: 1
    decay_mult: 1
  }
  param {
    lr_mult: 2
    decay_mult: 0
  }
  convolution_param {
    num_output: 32
    kernel_size: 1
    weight_filler {
      type: "xavier"
      std: 0.2
    }
    bias_filler {
      type: "constant"
      value: 0.2
    }
  }
}
layer {
  name: "inception_4e/relu_5x5_reduce"
  type: "ReLU"
  bottom: "inception_4e/5x5_reduce"
  top: "inception_4e/5x5_reduce"
}
layer {
  name: "inception_4e/5x5"
  type: "Convolution"
  bottom: "inception_4e/5x5_reduce"
  top: "inception_4e/
I0403 15:35:20.294399  3259 layer_factory.hpp:77] Creating layer data
I0403 15:35:20.294975  3259 net.cpp:91] Creating Layer data
I0403 15:35:20.295007  3259 net.cpp:399] data -> data
I0403 15:35:20.295054  3259 net.cpp:399] data -> label
I0403 15:35:20.295089  3259 data_transformer.cpp:25] Loading mean file from: /home/mohanty/data/final_dataset/lmdb/grayscale-50-50/mean.binaryproto
I0403 15:35:20.298192  3263 db_lmdb.cpp:38] Opened lmdb /home/mohanty/data/final_dataset/lmdb/grayscale-50-50/test_db
I0403 15:35:20.308467  3259 data_layer.cpp:41] output data size: 24,3,224,224
I0403 15:35:20.335645  3259 net.cpp:141] Setting up data
I0403 15:35:20.335736  3259 net.cpp:148] Top shape: 24 3 224 224 (3612672)
I0403 15:35:20.335770  3259 net.cpp:148] Top shape: 24 (24)
I0403 15:35:20.335785  3259 net.cpp:156] Memory required for data: 14450784
I0403 15:35:20.335810  3259 layer_factory.hpp:77] Creating layer label_data_1_split
I0403 15:35:20.335839  3259 net.cpp:91] Creating Layer label_data_1_split
I0403 15:35:20.335855  3259 net.cpp:425] label_data_1_split <- label
I0403 15:35:20.335886  3259 net.cpp:399] label_data_1_split -> label_data_1_split_0
I0403 15:35:20.335914  3259 net.cpp:399] label_data_1_split -> label_data_1_split_1
I0403 15:35:20.335935  3259 net.cpp:399] label_data_1_split -> label_data_1_split_2
I0403 15:35:20.335957  3259 net.cpp:399] label_data_1_split -> label_data_1_split_3
I0403 15:35:20.335975  3259 net.cpp:399] label_data_1_split -> label_data_1_split_4
I0403 15:35:20.335994  3259 net.cpp:399] label_data_1_split -> label_data_1_split_5
I0403 15:35:20.336014  3259 net.cpp:399] label_data_1_split -> label_data_1_split_6
I0403 15:35:20.336035  3259 net.cpp:399] label_data_1_split -> label_data_1_split_7
I0403 15:35:20.336053  3259 net.cpp:399] label_data_1_split -> label_data_1_split_8
I0403 15:35:20.336074  3259 net.cpp:399] label_data_1_split -> label_data_1_split_9
I0403 15:35:20.336189  3259 net.cpp:141] Setting up label_data_1_split
I0403 15:35:20.336211  3259 net.cpp:148] Top shape: 24 (24)
I0403 15:35:20.336228  3259 net.cpp:148] Top shape: 24 (24)
I0403 15:35:20.336248  3259 net.cpp:148] Top shape: 24 (24)
I0403 15:35:20.336266  3259 net.cpp:148] Top shape: 24 (24)
I0403 15:35:20.336282  3259 net.cpp:148] Top shape: 24 (24)
I0403 15:35:20.336298  3259 net.cpp:148] Top shape: 24 (24)
I0403 15:35:20.336314  3259 net.cpp:148] Top shape: 24 (24)
I0403 15:35:20.336329  3259 net.cpp:148] Top shape: 24 (24)
I0403 15:35:20.336345  3259 net.cpp:148] Top shape: 24 (24)
I0403 15:35:20.336362  3259 net.cpp:148] Top shape: 24 (24)
I0403 15:35:20.336405  3259 net.cpp:156] Memory required for data: 14451744
I0403 15:35:20.336421  3259 layer_factory.hpp:77] Creating layer conv1/7x7_s2
I0403 15:35:20.336452  3259 net.cpp:91] Creating Layer conv1/7x7_s2
I0403 15:35:20.336472  3259 net.cpp:425] conv1/7x7_s2 <- data
I0403 15:35:20.336489  3259 net.cpp:399] conv1/7x7_s2 -> conv1/7x7_s2
I0403 15:35:22.563617  3259 net.cpp:141] Setting up conv1/7x7_s2
I0403 15:35:22.563709  3259 net.cpp:148] Top shape: 24 64 112 112 (19267584)
I0403 15:35:22.563729  3259 net.cpp:156] Memory required for data: 91522080
I0403 15:35:22.563760  3259 layer_factory.hpp:77] Creating layer conv1/relu_7x7
I0403 15:35:22.563789  3259 net.cpp:91] Creating Layer conv1/relu_7x7
I0403 15:35:22.563809  3259 net.cpp:425] conv1/relu_7x7 <- conv1/7x7_s2
I0403 15:35:22.563829  3259 net.cpp:386] conv1/relu_7x7 -> conv1/7x7_s2 (in-place)
I0403 15:35:22.564081  3259 net.cpp:141] Setting up conv1/relu_7x7
I0403 15:35:22.564108  3259 net.cpp:148] Top shape: 24 64 112 112 (19267584)
I0403 15:35:22.564123  3259 net.cpp:156] Memory required for data: 168592416
I0403 15:35:22.564139  3259 layer_factory.hpp:77] Creating layer pool1/3x3_s2
I0403 15:35:22.564164  3259 net.cpp:91] Creating Layer pool1/3x3_s2
I0403 15:35:22.564182  3259 net.cpp:425] pool1/3x3_s2 <- conv1/7x7_s2
I0403 15:35:22.564203  3259 net.cpp:399] pool1/3x3_s2 -> pool1/3x3_s2
I0403 15:35:22.564280  3259 net.cpp:141] Setting up pool1/3x3_s2
I0403 15:35:22.564304  3259 net.cpp:148] Top shape: 24 64 56 56 (4816896)
I0403 15:35:22.564318  3259 net.cpp:156] Memory required for data: 187860000
I0403 15:35:22.564333  3259 layer_factory.hpp:77] Creating layer pool1/norm1
I0403 15:35:22.564358  3259 net.cpp:91] Creating Layer pool1/norm1
I0403 15:35:22.564376  3259 net.cpp:425] pool1/norm1 <- pool1/3x3_s2
I0403 15:35:22.564394  3259 net.cpp:399] pool1/norm1 -> pool1/norm1
I0403 15:35:22.564674  3259 net.cpp:141] Setting up pool1/norm1
I0403 15:35:22.564702  3259 net.cpp:148] Top shape: 24 64 56 56 (4816896)
I0403 15:35:22.564716  3259 net.cpp:156] Memory required for data: 207127584
I0403 15:35:22.564733  3259 layer_factory.hpp:77] Creating layer conv2/3x3_reduce
I0403 15:35:22.564757  3259 net.cpp:91] Creating Layer conv2/3x3_reduce
I0403 15:35:22.564774  3259 net.cpp:425] conv2/3x3_reduce <- pool1/norm1
I0403 15:35:22.564793  3259 net.cpp:399] conv2/3x3_reduce -> conv2/3x3_reduce
I0403 15:35:22.566120  3259 net.cpp:141] Setting up conv2/3x3_reduce
I0403 15:35:22.566151  3259 net.cpp:148] Top shape: 24 64 56 56 (4816896)
I0403 15:35:22.566169  3259 net.cpp:156] Memory required for data: 226395168
I0403 15:35:22.566190  3259 layer_factory.hpp:77] Creating layer conv2/relu_3x3_reduce
I0403 15:35:22.566211  3259 net.cpp:91] Creating Layer conv2/relu_3x3_reduce
I0403 15:35:22.566229  3259 net.cpp:425] conv2/relu_3x3_reduce <- conv2/3x3_reduce
I0403 15:35:22.566253  3259 net.cpp:386] conv2/relu_3x3_reduce -> conv2/3x3_reduce (in-place)
I0403 15:35:22.566511  3259 net.cpp:141] Setting up conv2/relu_3x3_reduce
I0403 15:35:22.566539  3259 net.cpp:148] Top shape: 24 64 56 56 (4816896)
I0403 15:35:22.566555  3259 net.cpp:156] Memory required for data: 245662752
I0403 15:35:22.566571  3259 layer_factory.hpp:77] Creating layer conv2/3x3
I0403 15:35:22.566594  3259 net.cpp:91] Creating Layer conv2/3x3
I0403 15:35:22.566612  3259 net.cpp:425] conv2/3x3 <- conv2/3x3_reduce
I0403 15:35:22.566633  3259 net.cpp:399] conv2/3x3 -> conv2/3x3
I0403 15:35:22.568833  3259 net.cpp:141] Setting up conv2/3x3
I0403 15:35:22.568866  3259 net.cpp:148] Top shape: 24 192 56 56 (14450688)
I0403 15:35:22.568882  3259 net.cpp:156] Memory required for data: 303465504
I0403 15:35:22.568904  3259 layer_factory.hpp:77] Creating layer conv2/relu_3x3
I0403 15:35:22.568924  3259 net.cpp:91] Creating Layer conv2/relu_3x3
I0403 15:35:22.568941  3259 net.cpp:425] conv2/relu_3x3 <- conv2/3x3
I0403 15:35:22.568959  3259 net.cpp:386] conv2/relu_3x3 -> conv2/3x3 (in-place)
I0403 15:35:22.569123  3259 net.cpp:141] Setting up conv2/relu_3x3
I0403 15:35:22.569149  3259 net.cpp:148] Top shape: 24 192 56 56 (14450688)
I0403 15:35:22.569197  3259 net.cpp:156] Memory required for data: 361268256
I0403 15:35:22.569214  3259 layer_factory.hpp:77] Creating layer conv2/norm2
I0403 15:35:22.569233  3259 net.cpp:91] Creating Layer conv2/norm2
I0403 15:35:22.569257  3259 net.cpp:425] conv2/norm2 <- conv2/3x3
I0403 15:35:22.569278  3259 net.cpp:399] conv2/norm2 -> conv2/norm2
I0403 15:35:22.569567  3259 net.cpp:141] Setting up conv2/norm2
I0403 15:35:22.569596  3259 net.cpp:148] Top shape: 24 192 56 56 (14450688)
I0403 15:35:22.569612  3259 net.cpp:156] Memory required for data: 419071008
I0403 15:35:22.569628  3259 layer_factory.hpp:77] Creating layer pool2/3x3_s2
I0403 15:35:22.569648  3259 net.cpp:91] Creating Layer pool2/3x3_s2
I0403 15:35:22.569664  3259 net.cpp:425] pool2/3x3_s2 <- conv2/norm2
I0403 15:35:22.569682  3259 net.cpp:399] pool2/3x3_s2 -> pool2/3x3_s2
I0403 15:35:22.569733  3259 net.cpp:141] Setting up pool2/3x3_s2
I0403 15:35:22.569757  3259 net.cpp:148] Top shape: 24 192 28 28 (3612672)
I0403 15:35:22.569772  3259 net.cpp:156] Memory required for data: 433521696
I0403 15:35:22.569789  3259 layer_factory.hpp:77] Creating layer pool2/3x3_s2_pool2/3x3_s2_0_split
I0403 15:35:22.569808  3259 net.cpp:91] Creating Layer pool2/3x3_s2_pool2/3x3_s2_0_split
I0403 15:35:22.569824  3259 net.cpp:425] pool2/3x3_s2_pool2/3x3_s2_0_split <- pool2/3x3_s2
I0403 15:35:22.569842  3259 net.cpp:399] pool2/3x3_s2_pool2/3x3_s2_0_split -> pool2/3x3_s2_pool2/3x3_s2_0_split_0
I0403 15:35:22.569862  3259 net.cpp:399] pool2/3x3_s2_pool2/3x3_s2_0_split -> pool2/3x3_s2_pool2/3x3_s2_0_split_1
I0403 15:35:22.569885  3259 net.cpp:399] pool2/3x3_s2_pool2/3x3_s2_0_split -> pool2/3x3_s2_pool2/3x3_s2_0_split_2
I0403 15:35:22.569905  3259 net.cpp:399] pool2/3x3_s2_pool2/3x3_s2_0_split -> pool2/3x3_s2_pool2/3x3_s2_0_split_3
I0403 15:35:22.569972  3259 net.cpp:141] Setting up pool2/3x3_s2_pool2/3x3_s2_0_split
I0403 15:35:22.569994  3259 net.cpp:148] Top shape: 24 192 28 28 (3612672)
I0403 15:35:22.570013  3259 net.cpp:148] Top shape: 24 192 28 28 (3612672)
I0403 15:35:22.570029  3259 net.cpp:148] Top shape: 24 192 28 28 (3612672)
I0403 15:35:22.570045  3259 net.cpp:148] Top shape: 24 192 28 28 (3612672)
I0403 15:35:22.570060  3259 net.cpp:156] Memory required for data: 491324448
I0403 15:35:22.570075  3259 layer_factory.hpp:77] Creating layer inception_3a/1x1
I0403 15:35:22.570097  3259 net.cpp:91] Creating Layer inception_3a/1x1
I0403 15:35:22.570114  3259 net.cpp:425] inception_3a/1x1 <- pool2/3x3_s2_pool2/3x3_s2_0_split_0
I0403 15:35:22.570134  3259 net.cpp:399] inception_3a/1x1 -> inception_3a/1x1
I0403 15:35:22.571703  3259 net.cpp:141] Setting up inception_3a/1x1
I0403 15:35:22.571733  3259 net.cpp:148] Top shape: 24 64 28 28 (1204224)
I0403 15:35:22.571750  3259 net.cpp:156] Memory required for data: 496141344
I0403 15:35:22.571770  3259 layer_factory.hpp:77] Creating layer inception_3a/relu_1x1
I0403 15:35:22.571794  3259 net.cpp:91] Creating Layer inception_3a/relu_1x1
I0403 15:35:22.571810  3259 net.cpp:425] inception_3a/relu_1x1 <- inception_3a/1x1
I0403 15:35:22.571828  3259 net.cpp:386] inception_3a/relu_1x1 -> inception_3a/1x1 (in-place)
I0403 15:35:22.572005  3259 net.cpp:141] Setting up inception_3a/relu_1x1
I0403 15:35:22.572033  3259 net.cpp:148] Top shape: 24 64 28 28 (1204224)
I0403 15:35:22.572049  3259 net.cpp:156] Memory required for data: 500958240
I0403 15:35:22.572065  3259 layer_factory.hpp:77] Creating layer inception_3a/3x3_reduce
I0403 15:35:22.572088  3259 net.cpp:91] Creating Layer inception_3a/3x3_reduce
I0403 15:35:22.572105  3259 net.cpp:425] inception_3a/3x3_reduce <- pool2/3x3_s2_pool2/3x3_s2_0_split_1
I0403 15:35:22.572125  3259 net.cpp:399] inception_3a/3x3_reduce -> inception_3a/3x3_reduce
I0403 15:35:22.573884  3259 net.cpp:141] Setting up inception_3a/3x3_reduce
I0403 15:35:22.573915  3259 net.cpp:148] Top shape: 24 96 28 28 (1806336)
I0403 15:35:22.573931  3259 net.cpp:156] Memory required for data: 508183584
I0403 15:35:22.573953  3259 layer_factory.hpp:77] Creating layer inception_3a/relu_3x3_reduce
I0403 15:35:22.573993  3259 net.cpp:91] Creating Layer inception_3a/relu_3x3_reduce
I0403 15:35:22.574012  3259 net.cpp:425] inception_3a/relu_3x3_reduce <- inception_3a/3x3_reduce
I0403 15:35:22.574033  3259 net.cpp:386] inception_3a/relu_3x3_reduce -> inception_3a/3x3_reduce (in-place)
I0403 15:35:22.574218  3259 net.cpp:141] Setting up inception_3a/relu_3x3_reduce
I0403 15:35:22.574247  3259 net.cpp:148] Top shape: 24 96 28 28 (1806336)
I0403 15:35:22.574265  3259 net.cpp:156] Memory required for data: 515408928
I0403 15:35:22.574280  3259 layer_factory.hpp:77] Creating layer inception_3a/3x3
I0403 15:35:22.574304  3259 net.cpp:91] Creating Layer inception_3a/3x3
I0403 15:35:22.574322  3259 net.cpp:425] inception_3a/3x3 <- inception_3a/3x3_reduce
I0403 15:35:22.574345  3259 net.cpp:399] inception_3a/3x3 -> inception_3a/3x3
I0403 15:35:22.576032  3259 net.cpp:141] Setting up inception_3a/3x3
I0403 15:35:22.576063  3259 net.cpp:148] Top shape: 24 128 28 28 (2408448)
I0403 15:35:22.576081  3259 net.cpp:156] Memory required for data: 525042720
I0403 15:35:22.576099  3259 layer_factory.hpp:77] Creating layer inception_3a/relu_3x3
I0403 15:35:22.576119  3259 net.cpp:91] Creating Layer inception_3a/relu_3x3
I0403 15:35:22.576135  3259 net.cpp:425] inception_3a/relu_3x3 <- inception_3a/3x3
I0403 15:35:22.576154  3259 net.cpp:386] inception_3a/relu_3x3 -> inception_3a/3x3 (in-place)
I0403 15:35:22.576445  3259 net.cpp:141] Setting up inception_3a/relu_3x3
I0403 15:35:22.576477  3259 net.cpp:148] Top shape: 24 128 28 28 (2408448)
I0403 15:35:22.576493  3259 net.cpp:156] Memory required for data: 534676512
I0403 15:35:22.576508  3259 layer_factory.hpp:77] Creating layer inception_3a/5x5_reduce
I0403 15:35:22.576534  3259 net.cpp:91] Creating Layer inception_3a/5x5_reduce
I0403 15:35:22.576552  3259 net.cpp:425] inception_3a/5x5_reduce <- pool2/3x3_s2_pool2/3x3_s2_0_split_2
I0403 15:35:22.576572  3259 net.cpp:399] inception_3a/5x5_reduce -> inception_3a/5x5_reduce
I0403 15:35:22.577558  3259 net.cpp:141] Setting up inception_3a/5x5_reduce
I0403 15:35:22.577589  3259 net.cpp:148] Top shape: 24 16 28 28 (301056)
I0403 15:35:22.577606  3259 net.cpp:156] Memory required for data: 535880736
I0403 15:35:22.577625  3259 layer_factory.hpp:77] Creating layer inception_3a/relu_5x5_reduce
I0403 15:35:22.577646  3259 net.cpp:91] Creating Layer inception_3a/relu_5x5_reduce
I0403 15:35:22.577662  3259 net.cpp:425] inception_3a/relu_5x5_reduce <- inception_3a/5x5_reduce
I0403 15:35:22.577683  3259 net.cpp:386] inception_3a/relu_5x5_reduce -> inception_3a/5x5_reduce (in-place)
I0403 15:35:22.577997  3259 net.cpp:141] Setting up inception_3a/relu_5x5_reduce
I0403 15:35:22.578024  3259 net.cpp:148] Top shape: 24 16 28 28 (301056)
I0403 15:35:22.578040  3259 net.cpp:156] Memory required for data: 537084960
I0403 15:35:22.578055  3259 layer_factory.hpp:77] Creating layer inception_3a/5x5
I0403 15:35:22.578079  3259 net.cpp:91] Creating Layer inception_3a/5x5
I0403 15:35:22.578097  3259 net.cpp:425] inception_3a/5x5 <- inception_3a/5x5_reduce
I0403 15:35:22.578120  3259 net.cpp:399] inception_3a/5x5 -> inception_3a/5x5
I0403 15:35:22.579150  3259 net.cpp:141] Setting up inception_3a/5x5
I0403 15:35:22.579181  3259 net.cpp:148] Top shape: 24 32 28 28 (602112)
I0403 15:35:22.579200  3259 net.cpp:156] Memory required for data: 539493408
I0403 15:35:22.579218  3259 layer_factory.hpp:77] Creating layer inception_3a/relu_5x5
I0403 15:35:22.579237  3259 net.cpp:91] Creating Layer inception_3a/relu_5x5
I0403 15:35:22.579260  3259 net.cpp:425] inception_3a/relu_5x5 <- inception_3a/5x5
I0403 15:35:22.579278  3259 net.cpp:386] inception_3a/relu_5x5 -> inception_3a/5x5 (in-place)
I0403 15:35:22.579455  3259 net.cpp:141] Setting up inception_3a/relu_5x5
I0403 15:35:22.579484  3259 net.cpp:148] Top shape: 24 32 28 28 (602112)
I0403 15:35:22.579501  3259 net.cpp:156] Memory required for data: 541901856
I0403 15:35:22.579516  3259 layer_factory.hpp:77] Creating layer inception_3a/pool
I0403 15:35:22.579535  3259 net.cpp:91] Creating Layer inception_3a/pool
I0403 15:35:22.579567  3259 net.cpp:425] inception_3a/pool <- pool2/3x3_s2_pool2/3x3_s2_0_split_3
I0403 15:35:22.579592  3259 net.cpp:399] inception_3a/pool -> inception_3a/pool
I0403 15:35:22.579653  3259 net.cpp:141] Setting up inception_3a/pool
I0403 15:35:22.579680  3259 net.cpp:148] Top shape: 24 192 28 28 (3612672)
I0403 15:35:22.579696  3259 net.cpp:156] Memory required for data: 556352544
I0403 15:35:22.579712  3259 layer_factory.hpp:77] Creating layer inception_3a/pool_proj
I0403 15:35:22.579735  3259 net.cpp:91] Creating Layer inception_3a/pool_proj
I0403 15:35:22.579754  3259 net.cpp:425] inception_3a/pool_proj <- inception_3a/pool
I0403 15:35:22.579774  3259 net.cpp:399] inception_3a/pool_proj -> inception_3a/pool_proj
I0403 15:35:22.580746  3259 net.cpp:141] Setting up inception_3a/pool_proj
I0403 15:35:22.580776  3259 net.cpp:148] Top shape: 24 32 28 28 (602112)
I0403 15:35:22.580793  3259 net.cpp:156] Memory required for data: 558760992
I0403 15:35:22.580818  3259 layer_factory.hpp:77] Creating layer inception_3a/relu_pool_proj
I0403 15:35:22.580839  3259 net.cpp:91] Creating Layer inception_3a/relu_pool_proj
I0403 15:35:22.580857  3259 net.cpp:425] inception_3a/relu_pool_proj <- inception_3a/pool_proj
I0403 15:35:22.580878  3259 net.cpp:386] inception_3a/relu_pool_proj -> inception_3a/pool_proj (in-place)
I0403 15:35:22.581157  3259 net.cpp:141] Setting up inception_3a/relu_pool_proj
I0403 15:35:22.581187  3259 net.cpp:148] Top shape: 24 32 28 28 (602112)
I0403 15:35:22.581205  3259 net.cpp:156] Memory required for data: 561169440
I0403 15:35:22.581223  3259 layer_factory.hpp:77] Creating layer inception_3a/output
I0403 15:35:22.581245  3259 net.cpp:91] Creating Layer inception_3a/output
I0403 15:35:22.581264  3259 net.cpp:425] inception_3a/output <- inception_3a/1x1
I0403 15:35:22.581281  3259 net.cpp:425] inception_3a/output <- inception_3a/3x3
I0403 15:35:22.581297  3259 net.cpp:425] inception_3a/output <- inception_3a/5x5
I0403 15:35:22.581315  3259 net.cpp:425] inception_3a/output <- inception_3a/pool_proj
I0403 15:35:22.581332  3259 net.cpp:399] inception_3a/output -> inception_3a/output
I0403 15:35:22.581383  3259 net.cpp:141] Setting up inception_3a/output
I0403 15:35:22.581408  3259 net.cpp:148] Top shape: 24 256 28 28 (4816896)
I0403 15:35:22.581423  3259 net.cpp:156] Memory required for data: 580437024
I0403 15:35:22.581437  3259 layer_factory.hpp:77] Creating layer inception_3a/output_inception_3a/output_0_split
I0403 15:35:22.581457  3259 net.cpp:91] Creating Layer inception_3a/output_inception_3a/output_0_split
I0403 15:35:22.581475  3259 net.cpp:425] inception_3a/output_inception_3a/output_0_split <- inception_3a/output
I0403 15:35:22.581493  3259 net.cpp:399] inception_3a/output_inception_3a/output_0_split -> inception_3a/output_inception_3a/output_0_split_0
I0403 15:35:22.581514  3259 net.cpp:399] inception_3a/output_inception_3a/output_0_split -> inception_3a/output_inception_3a/output_0_split_1
I0403 15:35:22.581540  3259 net.cpp:399] inception_3a/output_inception_3a/output_0_split -> inception_3a/output_inception_3a/output_0_split_2
I0403 15:35:22.581563  3259 net.cpp:399] inception_3a/output_inception_3a/output_0_split -> inception_3a/output_inception_3a/output_0_split_3
I0403 15:35:22.581640  3259 net.cpp:141] Setting up inception_3a/output_inception_3a/output_0_split
I0403 15:35:22.581665  3259 net.cpp:148] Top shape: 24 256 28 28 (4816896)
I0403 15:35:22.581682  3259 net.cpp:148] Top shape: 24 256 28 28 (4816896)
I0403 15:35:22.581701  3259 net.cpp:148] Top shape: 24 256 28 28 (4816896)
I0403 15:35:22.581717  3259 net.cpp:148] Top shape: 24 256 28 28 (4816896)
I0403 15:35:22.581732  3259 net.cpp:156] Memory required for data: 657507360
I0403 15:35:22.581746  3259 layer_factory.hpp:77] Creating layer inception_3b/1x1
I0403 15:35:22.581771  3259 net.cpp:91] Creating Layer inception_3b/1x1
I0403 15:35:22.581789  3259 net.cpp:425] inception_3b/1x1 <- inception_3a/output_inception_3a/output_0_split_0
I0403 15:35:22.581809  3259 net.cpp:399] inception_3b/1x1 -> inception_3b/1x1
I0403 15:35:22.582965  3259 net.cpp:141] Setting up inception_3b/1x1
I0403 15:35:22.583006  3259 net.cpp:148] Top shape: 24 128 28 28 (2408448)
I0403 15:35:22.583022  3259 net.cpp:156] Memory required for data: 667141152
I0403 15:35:22.583041  3259 layer_factory.hpp:77] Creating layer inception_3b/relu_1x1
I0403 15:35:22.583063  3259 net.cpp:91] Creating Layer inception_3b/relu_1x1
I0403 15:35:22.583081  3259 net.cpp:425] inception_3b/relu_1x1 <- inception_3b/1x1
I0403 15:35:22.583099  3259 net.cpp:386] inception_3b/relu_1x1 -> inception_3b/1x1 (in-place)
I0403 15:35:22.583290  3259 net.cpp:141] Setting up inception_3b/relu_1x1
I0403 15:35:22.583319  3259 net.cpp:148] Top shape: 24 128 28 28 (2408448)
I0403 15:35:22.583336  3259 net.cpp:156] Memory required for data: 676774944
I0403 15:35:22.583353  3259 layer_factory.hpp:77] Creating layer inception_3b/3x3_reduce
I0403 15:35:22.583375  3259 net.cpp:91] Creating Layer inception_3b/3x3_reduce
I0403 15:35:22.583394  3259 net.cpp:425] inception_3b/3x3_reduce <- inception_3a/output_inception_3a/output_0_split_1
I0403 15:35:22.583413  3259 net.cpp:399] inception_3b/3x3_reduce -> inception_3b/3x3_reduce
I0403 15:35:22.584565  3259 net.cpp:141] Setting up inception_3b/3x3_reduce
I0403 15:35:22.584594  3259 net.cpp:148] Top shape: 24 128 28 28 (2408448)
I0403 15:35:22.584609  3259 net.cpp:156] Memory required for data: 686408736
I0403 15:35:22.584628  3259 layer_factory.hpp:77] Creating layer inception_3b/relu_3x3_reduce
I0403 15:35:22.584650  3259 net.cpp:91] Creating Layer inception_3b/relu_3x3_reduce
I0403 15:35:22.584667  3259 net.cpp:425] inception_3b/relu_3x3_reduce <- inception_3b/3x3_reduce
I0403 15:35:22.584686  3259 net.cpp:386] inception_3b/relu_3x3_reduce -> inception_3b/3x3_reduce (in-place)
I0403 15:35:22.584859  3259 net.cpp:141] Setting up inception_3b/relu_3x3_reduce
I0403 15:35:22.584887  3259 net.cpp:148] Top shape: 24 128 28 28 (2408448)
I0403 15:35:22.584903  3259 net.cpp:156] Memory required for data: 696042528
I0403 15:35:22.584918  3259 layer_factory.hpp:77] Creating layer inception_3b/3x3
I0403 15:35:22.584942  3259 net.cpp:91] Creating Layer inception_3b/3x3
I0403 15:35:22.584960  3259 net.cpp:425] inception_3b/3x3 <- inception_3b/3x3_reduce
I0403 15:35:22.584982  3259 net.cpp:399] inception_3b/3x3 -> inception_3b/3x3
I0403 15:35:22.587873  3259 net.cpp:141] Setting up inception_3b/3x3
I0403 15:35:22.587905  3259 net.cpp:148] Top shape: 24 192 28 28 (3612672)
I0403 15:35:22.587923  3259 net.cpp:156] Memory required for data: 710493216
I0403 15:35:22.587941  3259 layer_factory.hpp:77] Creating layer inception_3b/relu_3x3
I0403 15:35:22.587960  3259 net.cpp:91] Creating Layer inception_3b/relu_3x3
I0403 15:35:22.587976  3259 net.cpp:425] inception_3b/relu_3x3 <- inception_3b/3x3
I0403 15:35:22.587995  3259 net.cpp:386] inception_3b/relu_3x3 -> inception_3b/3x3 (in-place)
I0403 15:35:22.588286  3259 net.cpp:141] Setting up inception_3b/relu_3x3
I0403 15:35:22.588315  3259 net.cpp:148] Top shape: 24 192 28 28 (3612672)
I0403 15:35:22.588331  3259 net.cpp:156] Memory required for data: 724943904
I0403 15:35:22.588346  3259 layer_factory.hpp:77] Creating layer inception_3b/5x5_reduce
I0403 15:35:22.588369  3259 net.cpp:91] Creating Layer inception_3b/5x5_reduce
I0403 15:35:22.588387  3259 net.cpp:425] inception_3b/5x5_reduce <- inception_3a/output_inception_3a/output_0_split_2
I0403 15:35:22.588407  3259 net.cpp:399] inception_3b/5x5_reduce -> inception_3b/5x5_reduce
I0403 15:35:22.589387  3259 net.cpp:141] Setting up inception_3b/5x5_reduce
I0403 15:35:22.589418  3259 net.cpp:148] Top shape: 24 32 28 28 (602112)
I0403 15:35:22.589435  3259 net.cpp:156] Memory required for data: 727352352
I0403 15:35:22.589454  3259 layer_factory.hpp:77] Creating layer inception_3b/relu_5x5_reduce
I0403 15:35:22.589475  3259 net.cpp:91] Creating Layer inception_3b/relu_5x5_reduce
I0403 15:35:22.589491  3259 net.cpp:425] inception_3b/relu_5x5_reduce <- inception_3b/5x5_reduce
I0403 15:35:22.589509  3259 net.cpp:386] inception_3b/relu_5x5_reduce -> inception_3b/5x5_reduce (in-place)
I0403 15:35:22.589702  3259 net.cpp:141] Setting up inception_3b/relu_5x5_reduce
I0403 15:35:22.589727  3259 net.cpp:148] Top shape: 24 32 28 28 (602112)
I0403 15:35:22.589742  3259 net.cpp:156] Memory required for data: 729760800
I0403 15:35:22.589757  3259 layer_factory.hpp:77] Creating layer inception_3b/5x5
I0403 15:35:22.589781  3259 net.cpp:91] Creating Layer inception_3b/5x5
I0403 15:35:22.589798  3259 net.cpp:425] inception_3b/5x5 <- inception_3b/5x5_reduce
I0403 15:35:22.589819  3259 net.cpp:399] inception_3b/5x5 -> inception_3b/5x5
I0403 15:35:22.591784  3259 net.cpp:141] Setting up inception_3b/5x5
I0403 15:35:22.591812  3259 net.cpp:148] Top shape: 24 96 28 28 (1806336)
I0403 15:35:22.591828  3259 net.cpp:156] Memory required for data: 736986144
I0403 15:35:22.591846  3259 layer_factory.hpp:77] Creating layer inception_3b/relu_5x5
I0403 15:35:22.591867  3259 net.cpp:91] Creating Layer inception_3b/relu_5x5
I0403 15:35:22.591884  3259 net.cpp:425] inception_3b/relu_5x5 <- inception_3b/5x5
I0403 15:35:22.591902  3259 net.cpp:386] inception_3b/relu_5x5 -> inception_3b/5x5 (in-place)
I0403 15:35:22.592092  3259 net.cpp:141] Setting up inception_3b/relu_5x5
I0403 15:35:22.592116  3259 net.cpp:148] Top shape: 24 96 28 28 (1806336)
I0403 15:35:22.592133  3259 net.cpp:156] Memory required for data: 744211488
I0403 15:35:22.592147  3259 layer_factory.hpp:77] Creating layer inception_3b/pool
I0403 15:35:22.592165  3259 net.cpp:91] Creating Layer inception_3b/pool
I0403 15:35:22.592182  3259 net.cpp:425] inception_3b/pool <- inception_3a/output_inception_3a/output_0_split_3
I0403 15:35:22.592200  3259 net.cpp:399] inception_3b/pool -> inception_3b/pool
I0403 15:35:22.592262  3259 net.cpp:141] Setting up inception_3b/pool
I0403 15:35:22.592286  3259 net.cpp:148] Top shape: 24 256 28 28 (4816896)
I0403 15:35:22.592300  3259 net.cpp:156] Memory required for data: 763479072
I0403 15:35:22.592315  3259 layer_factory.hpp:77] Creating layer inception_3b/pool_proj
I0403 15:35:22.592339  3259 net.cpp:91] Creating Layer inception_3b/pool_proj
I0403 15:35:22.592355  3259 net.cpp:425] inception_3b/pool_proj <- inception_3b/pool
I0403 15:35:22.592376  3259 net.cpp:399] inception_3b/pool_proj -> inception_3b/pool_proj
I0403 15:35:22.593459  3259 net.cpp:141] Setting up inception_3b/pool_proj
I0403 15:35:22.593489  3259 net.cpp:148] Top shape: 24 64 28 28 (1204224)
I0403 15:35:22.593508  3259 net.cpp:156] Memory required for data: 768295968
I0403 15:35:22.593525  3259 layer_factory.hpp:77] Creating layer inception_3b/relu_pool_proj
I0403 15:35:22.593544  3259 net.cpp:91] Creating Layer inception_3b/relu_pool_proj
I0403 15:35:22.593564  3259 net.cpp:425] inception_3b/relu_pool_proj <- inception_3b/pool_proj
I0403 15:35:22.593582  3259 net.cpp:386] inception_3b/relu_pool_proj -> inception_3b/pool_proj (in-place)
I0403 15:35:22.593976  3259 net.cpp:141] Setting up inception_3b/relu_pool_proj
I0403 15:35:22.594002  3259 net.cpp:148] Top shape: 24 64 28 28 (1204224)
I0403 15:35:22.594019  3259 net.cpp:156] Memory required for data: 773112864
I0403 15:35:22.594034  3259 layer_factory.hpp:77] Creating layer inception_3b/output
I0403 15:35:22.594053  3259 net.cpp:91] Creating Layer inception_3b/output
I0403 15:35:22.594068  3259 net.cpp:425] inception_3b/output <- inception_3b/1x1
I0403 15:35:22.594084  3259 net.cpp:425] inception_3b/output <- inception_3b/3x3
I0403 15:35:22.594101  3259 net.cpp:425] inception_3b/output <- inception_3b/5x5
I0403 15:35:22.594118  3259 net.cpp:425] inception_3b/output <- inception_3b/pool_proj
I0403 15:35:22.594137  3259 net.cpp:399] inception_3b/output -> inception_3b/output
I0403 15:35:22.594183  3259 net.cpp:141] Setting up inception_3b/output
I0403 15:35:22.594209  3259 net.cpp:148] Top shape: 24 480 28 28 (9031680)
I0403 15:35:22.594225  3259 net.cpp:156] Memory required for data: 809239584
I0403 15:35:22.594244  3259 layer_factory.hpp:77] Creating layer pool3/3x3_s2
I0403 15:35:22.594264  3259 net.cpp:91] Creating Layer pool3/3x3_s2
I0403 15:35:22.594280  3259 net.cpp:425] pool3/3x3_s2 <- inception_3b/output
I0403 15:35:22.594312  3259 net.cpp:399] pool3/3x3_s2 -> pool3/3x3_s2
I0403 15:35:22.594372  3259 net.cpp:141] Setting up pool3/3x3_s2
I0403 15:35:22.594395  3259 net.cpp:148] Top shape: 24 480 14 14 (2257920)
I0403 15:35:22.594410  3259 net.cpp:156] Memory required for data: 818271264
I0403 15:35:22.594425  3259 layer_factory.hpp:77] Creating layer pool3/3x3_s2_pool3/3x3_s2_0_split
I0403 15:35:22.594444  3259 net.cpp:91] Creating Layer pool3/3x3_s2_pool3/3x3_s2_0_split
I0403 15:35:22.594460  3259 net.cpp:425] pool3/3x3_s2_pool3/3x3_s2_0_split <- pool3/3x3_s2
I0403 15:35:22.594480  3259 net.cpp:399] pool3/3x3_s2_pool3/3x3_s2_0_split -> pool3/3x3_s2_pool3/3x3_s2_0_split_0
I0403 15:35:22.594501  3259 net.cpp:399] pool3/3x3_s2_pool3/3x3_s2_0_split -> pool3/3x3_s2_pool3/3x3_s2_0_split_1
I0403 15:35:22.594521  3259 net.cpp:399] pool3/3x3_s2_pool3/3x3_s2_0_split -> pool3/3x3_s2_pool3/3x3_s2_0_split_2
I0403 15:35:22.594540  3259 net.cpp:399] pool3/3x3_s2_pool3/3x3_s2_0_split -> pool3/3x3_s2_pool3/3x3_s2_0_split_3
I0403 15:35:22.594619  3259 net.cpp:141] Setting up pool3/3x3_s2_pool3/3x3_s2_0_split
I0403 15:35:22.594642  3259 net.cpp:148] Top shape: 24 480 14 14 (2257920)
I0403 15:35:22.594658  3259 net.cpp:148] Top shape: 24 480 14 14 (2257920)
I0403 15:35:22.594676  3259 net.cpp:148] Top shape: 24 480 14 14 (2257920)
I0403 15:35:22.594691  3259 net.cpp:148] Top shape: 24 480 14 14 (2257920)
I0403 15:35:22.594704  3259 net.cpp:156] Memory required for data: 854397984
I0403 15:35:22.594719  3259 layer_factory.hpp:77] Creating layer inception_4a/1x1
I0403 15:35:22.594743  3259 net.cpp:91] Creating Layer inception_4a/1x1
I0403 15:35:22.594760  3259 net.cpp:425] inception_4a/1x1 <- pool3/3x3_s2_pool3/3x3_s2_0_split_0
I0403 15:35:22.594781  3259 net.cpp:399] inception_4a/1x1 -> inception_4a/1x1
I0403 15:35:22.596396  3259 net.cpp:141] Setting up inception_4a/1x1
I0403 15:35:22.596426  3259 net.cpp:148] Top shape: 24 192 14 14 (903168)
I0403 15:35:22.596443  3259 net.cpp:156] Memory required for data: 858010656
I0403 15:35:22.596463  3259 layer_factory.hpp:77] Creating layer inception_4a/relu_1x1
I0403 15:35:22.596485  3259 net.cpp:91] Creating Layer inception_4a/relu_1x1
I0403 15:35:22.596503  3259 net.cpp:425] inception_4a/relu_1x1 <- inception_4a/1x1
I0403 15:35:22.596523  3259 net.cpp:386] inception_4a/relu_1x1 -> inception_4a/1x1 (in-place)
I0403 15:35:22.596715  3259 net.cpp:141] Setting up inception_4a/relu_1x1
I0403 15:35:22.596740  3259 net.cpp:148] Top shape: 24 192 14 14 (903168)
I0403 15:35:22.596756  3259 net.cpp:156] Memory required for data: 861623328
I0403 15:35:22.596771  3259 layer_factory.hpp:77] Creating layer inception_4a/3x3_reduce
I0403 15:35:22.596797  3259 net.cpp:91] Creating Layer inception_4a/3x3_reduce
I0403 15:35:22.596817  3259 net.cpp:425] inception_4a/3x3_reduce <- pool3/3x3_s2_pool3/3x3_s2_0_split_1
I0403 15:35:22.596837  3259 net.cpp:399] inception_4a/3x3_reduce -> inception_4a/3x3_reduce
I0403 15:35:22.598134  3259 net.cpp:141] Setting up inception_4a/3x3_reduce
I0403 15:35:22.598163  3259 net.cpp:148] Top shape: 24 96 14 14 (451584)
I0403 15:35:22.598179  3259 net.cpp:156] Memory required for data: 863429664
I0403 15:35:22.598207  3259 layer_factory.hpp:77] Creating layer inception_4a/relu_3x3_reduce
I0403 15:35:22.598228  3259 net.cpp:91] Creating Layer inception_4a/relu_3x3_reduce
I0403 15:35:22.598250  3259 net.cpp:425] inception_4a/relu_3x3_reduce <- inception_4a/3x3_reduce
I0403 15:35:22.598273  3259 net.cpp:386] inception_4a/relu_3x3_reduce -> inception_4a/3x3_reduce (in-place)
I0403 15:35:22.598456  3259 net.cpp:141] Setting up inception_4a/relu_3x3_reduce
I0403 15:35:22.598482  3259 net.cpp:148] Top shape: 24 96 14 14 (451584)
I0403 15:35:22.598497  3259 net.cpp:156] Memory required for data: 865236000
I0403 15:35:22.598515  3259 layer_factory.hpp:77] Creating layer inception_4a/3x3
I0403 15:35:22.598539  3259 net.cpp:91] Creating Layer inception_4a/3x3
I0403 15:35:22.598558  3259 net.cpp:425] inception_4a/3x3 <- inception_4a/3x3_reduce
I0403 15:35:22.598580  3259 net.cpp:399] inception_4a/3x3 -> inception_4a/3x3
I0403 15:35:22.601364  3259 net.cpp:141] Setting up inception_4a/3x3
I0403 15:35:22.601393  3259 net.cpp:148] Top shape: 24 208 14 14 (978432)
I0403 15:35:22.601410  3259 net.cpp:156] Memory required for data: 869149728
I0403 15:35:22.601429  3259 layer_factory.hpp:77] Creating layer inception_4a/relu_3x3
I0403 15:35:22.601451  3259 net.cpp:91] Creating Layer inception_4a/relu_3x3
I0403 15:35:22.601469  3259 net.cpp:425] inception_4a/relu_3x3 <- inception_4a/3x3
I0403 15:35:22.601487  3259 net.cpp:386] inception_4a/relu_3x3 -> inception_4a/3x3 (in-place)
I0403 15:35:22.601769  3259 net.cpp:141] Setting up inception_4a/relu_3x3
I0403 15:35:22.601796  3259 net.cpp:148] Top shape: 24 208 14 14 (978432)
I0403 15:35:22.601812  3259 net.cpp:156] Memory required for data: 873063456
I0403 15:35:22.601829  3259 layer_factory.hpp:77] Creating layer inception_4a/5x5_reduce
I0403 15:35:22.601851  3259 net.cpp:91] Creating Layer inception_4a/5x5_reduce
I0403 15:35:22.601871  3259 net.cpp:425] inception_4a/5x5_reduce <- pool3/3x3_s2_pool3/3x3_s2_0_split_2
I0403 15:35:22.601896  3259 net.cpp:399] inception_4a/5x5_reduce -> inception_4a/5x5_reduce
I0403 15:35:22.602941  3259 net.cpp:141] Setting up inception_4a/5x5_reduce
I0403 15:35:22.602970  3259 net.cpp:148] Top shape: 24 16 14 14 (75264)
I0403 15:35:22.602988  3259 net.cpp:156] Memory required for data: 873364512
I0403 15:35:22.603008  3259 layer_factory.hpp:77] Creating layer inception_4a/relu_5x5_reduce
I0403 15:35:22.603029  3259 net.cpp:91] Creating Layer inception_4a/relu_5x5_reduce
I0403 15:35:22.603045  3259 net.cpp:425] inception_4a/relu_5x5_reduce <- inception_4a/5x5_reduce
I0403 15:35:22.603063  3259 net.cpp:386] inception_4a/relu_5x5_reduce -> inception_4a/5x5_reduce (in-place)
I0403 15:35:22.603255  3259 net.cpp:141] Setting up inception_4a/relu_5x5_reduce
I0403 15:35:22.603284  3259 net.cpp:148] Top shape: 24 16 14 14 (75264)
I0403 15:35:22.603301  3259 net.cpp:156] Memory required for data: 873665568
I0403 15:35:22.603317  3259 layer_factory.hpp:77] Creating layer inception_4a/5x5
I0403 15:35:22.603340  3259 net.cpp:91] Creating Layer inception_4a/5x5
I0403 15:35:22.603358  3259 net.cpp:425] inception_4a/5x5 <- inception_4a/5x5_reduce
I0403 15:35:22.603380  3259 net.cpp:399] inception_4a/5x5 -> inception_4a/5x5
I0403 15:35:22.604488  3259 net.cpp:141] Setting up inception_4a/5x5
I0403 15:35:22.604516  3259 net.cpp:148] Top shape: 24 48 14 14 (225792)
I0403 15:35:22.604534  3259 net.cpp:156] Memory required for data: 874568736
I0403 15:35:22.604554  3259 layer_factory.hpp:77] Creating layer inception_4a/relu_5x5
I0403 15:35:22.604573  3259 net.cpp:91] Creating Layer inception_4a/relu_5x5
I0403 15:35:22.604591  3259 net.cpp:425] inception_4a/relu_5x5 <- inception_4a/5x5
I0403 15:35:22.604612  3259 net.cpp:386] inception_4a/relu_5x5 -> inception_4a/5x5 (in-place)
I0403 15:35:22.604797  3259 net.cpp:141] Setting up inception_4a/relu_5x5
I0403 15:35:22.604822  3259 net.cpp:148] Top shape: 24 48 14 14 (225792)
I0403 15:35:22.604837  3259 net.cpp:156] Memory required for data: 875471904
I0403 15:35:22.604853  3259 layer_factory.hpp:77] Creating layer inception_4a/pool
I0403 15:35:22.604874  3259 net.cpp:91] Creating Layer inception_4a/pool
I0403 15:35:22.604892  3259 net.cpp:425] inception_4a/pool <- pool3/3x3_s2_pool3/3x3_s2_0_split_3
I0403 15:35:22.604910  3259 net.cpp:399] inception_4a/pool -> inception_4a/pool
I0403 15:35:22.604974  3259 net.cpp:141] Setting up inception_4a/pool
I0403 15:35:22.604998  3259 net.cpp:148] Top shape: 24 480 14 14 (2257920)
I0403 15:35:22.605015  3259 net.cpp:156] Memory required for data: 884503584
I0403 15:35:22.605029  3259 layer_factory.hpp:77] Creating layer inception_4a/pool_proj
I0403 15:35:22.605052  3259 net.cpp:91] Creating Layer inception_4a/pool_proj
I0403 15:35:22.605070  3259 net.cpp:425] inception_4a/pool_proj <- inception_4a/pool
I0403 15:35:22.605095  3259 net.cpp:399] inception_4a/pool_proj -> inception_4a/pool_proj
I0403 15:35:22.606304  3259 net.cpp:141] Setting up inception_4a/pool_proj
I0403 15:35:22.606333  3259 net.cpp:148] Top shape: 24 64 14 14 (301056)
I0403 15:35:22.606366  3259 net.cpp:156] Memory required for data: 885707808
I0403 15:35:22.606386  3259 layer_factory.hpp:77] Creating layer inception_4a/relu_pool_proj
I0403 15:35:22.606405  3259 net.cpp:91] Creating Layer inception_4a/relu_pool_proj
I0403 15:35:22.606422  3259 net.cpp:425] inception_4a/relu_pool_proj <- inception_4a/pool_proj
I0403 15:35:22.606456  3259 net.cpp:386] inception_4a/relu_pool_proj -> inception_4a/pool_proj (in-place)
I0403 15:35:22.606768  3259 net.cpp:141] Setting up inception_4a/relu_pool_proj
I0403 15:35:22.606796  3259 net.cpp:148] Top shape: 24 64 14 14 (301056)
I0403 15:35:22.606812  3259 net.cpp:156] Memory required for data: 886912032
I0403 15:35:22.606827  3259 layer_factory.hpp:77] Creating layer inception_4a/output
I0403 15:35:22.606845  3259 net.cpp:91] Creating Layer inception_4a/output
I0403 15:35:22.606863  3259 net.cpp:425] inception_4a/output <- inception_4a/1x1
I0403 15:35:22.606879  3259 net.cpp:425] inception_4a/output <- inception_4a/3x3
I0403 15:35:22.606896  3259 net.cpp:425] inception_4a/output <- inception_4a/5x5
I0403 15:35:22.606914  3259 net.cpp:425] inception_4a/output <- inception_4a/pool_proj
I0403 15:35:22.606933  3259 net.cpp:399] inception_4a/output -> inception_4a/output
I0403 15:35:22.606981  3259 net.cpp:141] Setting up inception_4a/output
I0403 15:35:22.607008  3259 net.cpp:148] Top shape: 24 512 14 14 (2408448)
I0403 15:35:22.607025  3259 net.cpp:156] Memory required for data: 896545824
I0403 15:35:22.607040  3259 layer_factory.hpp:77] Creating layer inception_4a/output_inception_4a/output_0_split
I0403 15:35:22.607059  3259 net.cpp:91] Creating Layer inception_4a/output_inception_4a/output_0_split
I0403 15:35:22.607074  3259 net.cpp:425] inception_4a/output_inception_4a/output_0_split <- inception_4a/output
I0403 15:35:22.607095  3259 net.cpp:399] inception_4a/output_inception_4a/output_0_split -> inception_4a/output_inception_4a/output_0_split_0
I0403 15:35:22.607117  3259 net.cpp:399] inception_4a/output_inception_4a/output_0_split -> inception_4a/output_inception_4a/output_0_split_1
I0403 15:35:22.607138  3259 net.cpp:399] inception_4a/output_inception_4a/output_0_split -> inception_4a/output_inception_4a/output_0_split_2
I0403 15:35:22.607161  3259 net.cpp:399] inception_4a/output_inception_4a/output_0_split -> inception_4a/output_inception_4a/output_0_split_3
I0403 15:35:22.607180  3259 net.cpp:399] inception_4a/output_inception_4a/output_0_split -> inception_4a/output_inception_4a/output_0_split_4
I0403 15:35:22.607280  3259 net.cpp:141] Setting up inception_4a/output_inception_4a/output_0_split
I0403 15:35:22.607307  3259 net.cpp:148] Top shape: 24 512 14 14 (2408448)
I0403 15:35:22.607326  3259 net.cpp:148] Top shape: 24 512 14 14 (2408448)
I0403 15:35:22.607342  3259 net.cpp:148] Top shape: 24 512 14 14 (2408448)
I0403 15:35:22.607358  3259 net.cpp:148] Top shape: 24 512 14 14 (2408448)
I0403 15:35:22.607374  3259 net.cpp:148] Top shape: 24 512 14 14 (2408448)
I0403 15:35:22.607389  3259 net.cpp:156] Memory required for data: 944714784
I0403 15:35:22.607404  3259 layer_factory.hpp:77] Creating layer loss1/ave_pool
I0403 15:35:22.607424  3259 net.cpp:91] Creating Layer loss1/ave_pool
I0403 15:35:22.607439  3259 net.cpp:425] loss1/ave_pool <- inception_4a/output_inception_4a/output_0_split_0
I0403 15:35:22.607458  3259 net.cpp:399] loss1/ave_pool -> loss1/ave_pool
I0403 15:35:22.607672  3259 net.cpp:141] Setting up loss1/ave_pool
I0403 15:35:22.607699  3259 net.cpp:148] Top shape: 24 512 4 4 (196608)
I0403 15:35:22.607715  3259 net.cpp:156] Memory required for data: 945501216
I0403 15:35:22.607730  3259 layer_factory.hpp:77] Creating layer loss1/conv
I0403 15:35:22.607754  3259 net.cpp:91] Creating Layer loss1/conv
I0403 15:35:22.607774  3259 net.cpp:425] loss1/conv <- loss1/ave_pool
I0403 15:35:22.607795  3259 net.cpp:399] loss1/conv -> loss1/conv
I0403 15:35:22.609238  3259 net.cpp:141] Setting up loss1/conv
I0403 15:35:22.609271  3259 net.cpp:148] Top shape: 24 128 4 4 (49152)
I0403 15:35:22.609303  3259 net.cpp:156] Memory required for data: 945697824
I0403 15:35:22.609325  3259 layer_factory.hpp:77] Creating layer loss1/relu_conv
I0403 15:35:22.609349  3259 net.cpp:91] Creating Layer loss1/relu_conv
I0403 15:35:22.609366  3259 net.cpp:425] loss1/relu_conv <- loss1/conv
I0403 15:35:22.609385  3259 net.cpp:386] loss1/relu_conv -> loss1/conv (in-place)
I0403 15:35:22.609674  3259 net.cpp:141] Setting up loss1/relu_conv
I0403 15:35:22.609701  3259 net.cpp:148] Top shape: 24 128 4 4 (49152)
I0403 15:35:22.609716  3259 net.cpp:156] Memory required for data: 945894432
I0403 15:35:22.609732  3259 layer_factory.hpp:77] Creating layer loss1/fc
I0403 15:35:22.609760  3259 net.cpp:91] Creating Layer loss1/fc
I0403 15:35:22.609778  3259 net.cpp:425] loss1/fc <- loss1/conv
I0403 15:35:22.609799  3259 net.cpp:399] loss1/fc -> loss1/fc
I0403 15:35:22.627897  3259 net.cpp:141] Setting up loss1/fc
I0403 15:35:22.627979  3259 net.cpp:148] Top shape: 24 1024 (24576)
I0403 15:35:22.627995  3259 net.cpp:156] Memory required for data: 945992736
I0403 15:35:22.628015  3259 layer_factory.hpp:77] Creating layer loss1/relu_fc
I0403 15:35:22.628037  3259 net.cpp:91] Creating Layer loss1/relu_fc
I0403 15:35:22.628059  3259 net.cpp:425] loss1/relu_fc <- loss1/fc
I0403 15:35:22.628079  3259 net.cpp:386] loss1/relu_fc -> loss1/fc (in-place)
I0403 15:35:22.628304  3259 net.cpp:141] Setting up loss1/relu_fc
I0403 15:35:22.628329  3259 net.cpp:148] Top shape: 24 1024 (24576)
I0403 15:35:22.628345  3259 net.cpp:156] Memory required for data: 946091040
I0403 15:35:22.628360  3259 layer_factory.hpp:77] Creating layer loss1/drop_fc
I0403 15:35:22.628391  3259 net.cpp:91] Creating Layer loss1/drop_fc
I0403 15:35:22.628409  3259 net.cpp:425] loss1/drop_fc <- loss1/fc
I0403 15:35:22.628427  3259 net.cpp:386] loss1/drop_fc -> loss1/fc (in-place)
I0403 15:35:22.628482  3259 net.cpp:141] Setting up loss1/drop_fc
I0403 15:35:22.628509  3259 net.cpp:148] Top shape: 24 1024 (24576)
I0403 15:35:22.628525  3259 net.cpp:156] Memory required for data: 946189344
I0403 15:35:22.628540  3259 layer_factory.hpp:77] Creating layer loss1/classifier_plantvillage
I0403 15:35:22.628559  3259 net.cpp:91] Creating Layer loss1/classifier_plantvillage
I0403 15:35:22.628576  3259 net.cpp:425] loss1/classifier_plantvillage <- loss1/fc
I0403 15:35:22.628597  3259 net.cpp:399] loss1/classifier_plantvillage -> loss1/classifier_plantvillage
I0403 15:35:22.629551  3259 net.cpp:141] Setting up loss1/classifier_plantvillage
I0403 15:35:22.629580  3259 net.cpp:148] Top shape: 24 38 (912)
I0403 15:35:22.629595  3259 net.cpp:156] Memory required for data: 946192992
I0403 15:35:22.629614  3259 layer_factory.hpp:77] Creating layer loss1/classifier_plantvillage_loss1/classifier_plantvillage_0_split
I0403 15:35:22.629637  3259 net.cpp:91] Creating Layer loss1/classifier_plantvillage_loss1/classifier_plantvillage_0_split
I0403 15:35:22.629654  3259 net.cpp:425] loss1/classifier_plantvillage_loss1/classifier_plantvillage_0_split <- loss1/classifier_plantvillage
I0403 15:35:22.629673  3259 net.cpp:399] loss1/classifier_plantvillage_loss1/classifier_plantvillage_0_split -> loss1/classifier_plantvillage_loss1/classifier_plantvillage_0_split_0
I0403 15:35:22.629693  3259 net.cpp:399] loss1/classifier_plantvillage_loss1/classifier_plantvillage_0_split -> loss1/classifier_plantvillage_loss1/classifier_plantvillage_0_split_1
I0403 15:35:22.629714  3259 net.cpp:399] loss1/classifier_plantvillage_loss1/classifier_plantvillage_0_split -> loss1/classifier_plantvillage_loss1/classifier_plantvillage_0_split_2
I0403 15:35:22.629784  3259 net.cpp:141] Setting up loss1/classifier_plantvillage_loss1/classifier_plantvillage_0_split
I0403 15:35:22.629808  3259 net.cpp:148] Top shape: 24 38 (912)
I0403 15:35:22.629824  3259 net.cpp:148] Top shape: 24 38 (912)
I0403 15:35:22.629840  3259 net.cpp:148] Top shape: 24 38 (912)
I0403 15:35:22.629854  3259 net.cpp:156] Memory required for data: 946203936
I0403 15:35:22.629869  3259 layer_factory.hpp:77] Creating layer inception_4b/1x1
I0403 15:35:22.629892  3259 net.cpp:91] Creating Layer inception_4b/1x1
I0403 15:35:22.629937  3259 net.cpp:425] inception_4b/1x1 <- inception_4a/output_inception_4a/output_0_split_1
I0403 15:35:22.629961  3259 net.cpp:399] inception_4b/1x1 -> inception_4b/1x1
I0403 15:35:22.631645  3259 net.cpp:141] Setting up inception_4b/1x1
I0403 15:35:22.631676  3259 net.cpp:148] Top shape: 24 160 14 14 (752640)
I0403 15:35:22.631693  3259 net.cpp:156] Memory required for data: 949214496
I0403 15:35:22.631712  3259 layer_factory.hpp:77] Creating layer inception_4b/relu_1x1
I0403 15:35:22.631731  3259 net.cpp:91] Creating Layer inception_4b/relu_1x1
I0403 15:35:22.631748  3259 net.cpp:425] inception_4b/relu_1x1 <- inception_4b/1x1
I0403 15:35:22.631767  3259 net.cpp:386] inception_4b/relu_1x1 -> inception_4b/1x1 (in-place)
I0403 15:35:22.631945  3259 net.cpp:141] Setting up inception_4b/relu_1x1
I0403 15:35:22.631973  3259 net.cpp:148] Top shape: 24 160 14 14 (752640)
I0403 15:35:22.631991  3259 net.cpp:156] Memory required for data: 952225056
I0403 15:35:22.632009  3259 layer_factory.hpp:77] Creating layer inception_4b/3x3_reduce
I0403 15:35:22.632031  3259 net.cpp:91] Creating Layer inception_4b/3x3_reduce
I0403 15:35:22.632050  3259 net.cpp:425] inception_4b/3x3_reduce <- inception_4a/output_inception_4a/output_0_split_2
I0403 15:35:22.632071  3259 net.cpp:399] inception_4b/3x3_reduce -> inception_4b/3x3_reduce
I0403 15:35:22.633440  3259 net.cpp:141] Setting up inception_4b/3x3_reduce
I0403 15:35:22.633472  3259 net.cpp:148] Top shape: 24 112 14 14 (526848)
I0403 15:35:22.633489  3259 net.cpp:156] Memory required for data: 954332448
I0403 15:35:22.633508  3259 layer_factory.hpp:77] Creating layer inception_4b/relu_3x3_reduce
I0403 15:35:22.633527  3259 net.cpp:91] Creating Layer inception_4b/relu_3x3_reduce
I0403 15:35:22.633543  3259 net.cpp:425] inception_4b/relu_3x3_reduce <- inception_4b/3x3_reduce
I0403 15:35:22.633565  3259 net.cpp:386] inception_4b/relu_3x3_reduce -> inception_4b/3x3_reduce (in-place)
I0403 15:35:22.633852  3259 net.cpp:141] Setting up inception_4b/relu_3x3_reduce
I0403 15:35:22.633882  3259 net.cpp:148] Top shape: 24 112 14 14 (526848)
I0403 15:35:22.633898  3259 net.cpp:156] Memory required for data: 956439840
I0403 15:35:22.633913  3259 layer_factory.hpp:77] Creating layer inception_4b/3x3
I0403 15:35:22.633936  3259 net.cpp:91] Creating Layer inception_4b/3x3
I0403 15:35:22.633955  3259 net.cpp:425] inception_4b/3x3 <- inception_4b/3x3_reduce
I0403 15:35:22.633973  3259 net.cpp:399] inception_4b/3x3 -> inception_4b/3x3
I0403 15:35:22.637004  3259 net.cpp:141] Setting up inception_4b/3x3
I0403 15:35:22.637034  3259 net.cpp:148] Top shape: 24 224 14 14 (1053696)
I0403 15:35:22.637050  3259 net.cpp:156] Memory required for data: 960654624
I0403 15:35:22.637069  3259 layer_factory.hpp:77] Creating layer inception_4b/relu_3x3
I0403 15:35:22.637091  3259 net.cpp:91] Creating Layer inception_4b/relu_3x3
I0403 15:35:22.637109  3259 net.cpp:425] inception_4b/relu_3x3 <- inception_4b/3x3
I0403 15:35:22.637126  3259 net.cpp:386] inception_4b/relu_3x3 -> inception_4b/3x3 (in-place)
I0403 15:35:22.637310  3259 net.cpp:141] Setting up inception_4b/relu_3x3
I0403 15:35:22.637336  3259 net.cpp:148] Top shape: 24 224 14 14 (1053696)
I0403 15:35:22.637351  3259 net.cpp:156] Memory required for data: 964869408
I0403 15:35:22.637367  3259 layer_factory.hpp:77] Creating layer inception_4b/5x5_reduce
I0403 15:35:22.637394  3259 net.cpp:91] Creating Layer inception_4b/5x5_reduce
I0403 15:35:22.637413  3259 net.cpp:425] inception_4b/5x5_reduce <- inception_4a/output_inception_4a/output_0_split_3
I0403 15:35:22.637431  3259 net.cpp:399] inception_4b/5x5_reduce -> inception_4b/5x5_reduce
I0403 15:35:22.638506  3259 net.cpp:141] Setting up inception_4b/5x5_reduce
I0403 15:35:22.638536  3259 net.cpp:148] Top shape: 24 24 14 14 (112896)
I0403 15:35:22.638553  3259 net.cpp:156] Memory required for data: 965320992
I0403 15:35:22.638572  3259 layer_factory.hpp:77] Creating layer inception_4b/relu_5x5_reduce
I0403 15:35:22.638592  3259 net.cpp:91] Creating Layer inception_4b/relu_5x5_reduce
I0403 15:35:22.638625  3259 net.cpp:425] inception_4b/relu_5x5_reduce <- inception_4b/5x5_reduce
I0403 15:35:22.638648  3259 net.cpp:386] inception_4b/relu_5x5_reduce -> inception_4b/5x5_reduce (in-place)
I0403 15:35:22.638830  3259 net.cpp:141] Setting up inception_4b/relu_5x5_reduce
I0403 15:35:22.638855  3259 net.cpp:148] Top shape: 24 24 14 14 (112896)
I0403 15:35:22.638870  3259 net.cpp:156] Memory required for data: 965772576
I0403 15:35:22.638885  3259 layer_factory.hpp:77] Creating layer inception_4b/5x5
I0403 15:35:22.638911  3259 net.cpp:91] Creating Layer inception_4b/5x5
I0403 15:35:22.638928  3259 net.cpp:425] inception_4b/5x5 <- inception_4b/5x5_reduce
I0403 15:35:22.638949  3259 net.cpp:399] inception_4b/5x5 -> inception_4b/5x5
I0403 15:35:22.640180  3259 net.cpp:141] Setting up inception_4b/5x5
I0403 15:35:22.640208  3259 net.cpp:148] Top shape: 24 64 14 14 (301056)
I0403 15:35:22.640228  3259 net.cpp:156] Memory required for data: 966976800
I0403 15:35:22.640264  3259 layer_factory.hpp:77] Creating layer inception_4b/relu_5x5
I0403 15:35:22.640285  3259 net.cpp:91] Creating Layer inception_4b/relu_5x5
I0403 15:35:22.640312  3259 net.cpp:425] inception_4b/relu_5x5 <- inception_4b/5x5
I0403 15:35:22.640331  3259 net.cpp:386] inception_4b/relu_5x5 -> inception_4b/5x5 (in-place)
I0403 15:35:22.640626  3259 net.cpp:141] Setting up inception_4b/relu_5x5
I0403 15:35:22.640655  3259 net.cpp:148] Top shape: 24 64 14 14 (301056)
I0403 15:35:22.640672  3259 net.cpp:156] Memory required for data: 968181024
I0403 15:35:22.640688  3259 layer_factory.hpp:77] Creating layer inception_4b/pool
I0403 15:35:22.640707  3259 net.cpp:91] Creating Layer inception_4b/pool
I0403 15:35:22.640724  3259 net.cpp:425] inception_4b/pool <- inception_4a/output_inception_4a/output_0_split_4
I0403 15:35:22.640743  3259 net.cpp:399] inception_4b/pool -> inception_4b/pool
I0403 15:35:22.640811  3259 net.cpp:141] Setting up inception_4b/pool
I0403 15:35:22.640836  3259 net.cpp:148] Top shape: 24 512 14 14 (2408448)
I0403 15:35:22.640852  3259 net.cpp:156] Memory required for data: 977814816
I0403 15:35:22.640867  3259 layer_factory.hpp:77] Creating layer inception_4b/pool_proj
I0403 15:35:22.640890  3259 net.cpp:91] Creating Layer inception_4b/pool_proj
I0403 15:35:22.640908  3259 net.cpp:425] inception_4b/pool_proj <- inception_4b/pool
I0403 15:35:22.640933  3259 net.cpp:399] inception_4b/pool_proj -> inception_4b/pool_proj
I0403 15:35:22.642169  3259 net.cpp:141] Setting up inception_4b/pool_proj
I0403 15:35:22.642201  3259 net.cpp:148] Top shape: 24 64 14 14 (301056)
I0403 15:35:22.642220  3259 net.cpp:156] Memory required for data: 979019040
I0403 15:35:22.642242  3259 layer_factory.hpp:77] Creating layer inception_4b/relu_pool_proj
I0403 15:35:22.642263  3259 net.cpp:91] Creating Layer inception_4b/relu_pool_proj
I0403 15:35:22.642282  3259 net.cpp:425] inception_4b/relu_pool_proj <- inception_4b/pool_proj
I0403 15:35:22.642299  3259 net.cpp:386] inception_4b/relu_pool_proj -> inception_4b/pool_proj (in-place)
I0403 15:35:22.642488  3259 net.cpp:141] Setting up inception_4b/relu_pool_proj
I0403 15:35:22.642513  3259 net.cpp:148] Top shape: 24 64 14 14 (301056)
I0403 15:35:22.642529  3259 net.cpp:156] Memory required for data: 980223264
I0403 15:35:22.642544  3259 layer_factory.hpp:77] Creating layer inception_4b/output
I0403 15:35:22.642563  3259 net.cpp:91] Creating Layer inception_4b/output
I0403 15:35:22.642580  3259 net.cpp:425] inception_4b/output <- inception_4b/1x1
I0403 15:35:22.642596  3259 net.cpp:425] inception_4b/output <- inception_4b/3x3
I0403 15:35:22.642613  3259 net.cpp:425] inception_4b/output <- inception_4b/5x5
I0403 15:35:22.642629  3259 net.cpp:425] inception_4b/output <- inception_4b/pool_proj
I0403 15:35:22.642650  3259 net.cpp:399] inception_4b/output -> inception_4b/output
I0403 15:35:22.642699  3259 net.cpp:141] Setting up inception_4b/output
I0403 15:35:22.642725  3259 net.cpp:148] Top shape: 24 512 14 14 (2408448)
I0403 15:35:22.642741  3259 net.cpp:156] Memory required for data: 989857056
I0403 15:35:22.642771  3259 layer_factory.hpp:77] Creating layer inception_4b/output_inception_4b/output_0_split
I0403 15:35:22.642791  3259 net.cpp:91] Creating Layer inception_4b/output_inception_4b/output_0_split
I0403 15:35:22.642807  3259 net.cpp:425] inception_4b/output_inception_4b/output_0_split <- inception_4b/output
I0403 15:35:22.642825  3259 net.cpp:399] inception_4b/output_inception_4b/output_0_split -> inception_4b/output_inception_4b/output_0_split_0
I0403 15:35:22.642849  3259 net.cpp:399] inception_4b/output_inception_4b/output_0_split -> inception_4b/output_inception_4b/output_0_split_1
I0403 15:35:22.642871  3259 net.cpp:399] inception_4b/output_inception_4b/output_0_split -> inception_4b/output_inception_4b/output_0_split_2
I0403 15:35:22.642892  3259 net.cpp:399] inception_4b/output_inception_4b/output_0_split -> inception_4b/output_inception_4b/output_0_split_3
I0403 15:35:22.642978  3259 net.cpp:141] Setting up inception_4b/output_inception_4b/output_0_split
I0403 15:35:22.643002  3259 net.cpp:148] Top shape: 24 512 14 14 (2408448)
I0403 15:35:22.643019  3259 net.cpp:148] Top shape: 24 512 14 14 (2408448)
I0403 15:35:22.643035  3259 net.cpp:148] Top shape: 24 512 14 14 (2408448)
I0403 15:35:22.643051  3259 net.cpp:148] Top shape: 24 512 14 14 (2408448)
I0403 15:35:22.643066  3259 net.cpp:156] Memory required for data: 1028392224
I0403 15:35:22.643081  3259 layer_factory.hpp:77] Creating layer inception_4c/1x1
I0403 15:35:22.643105  3259 net.cpp:91] Creating Layer inception_4c/1x1
I0403 15:35:22.643122  3259 net.cpp:425] inception_4c/1x1 <- inception_4b/output_inception_4b/output_0_split_0
I0403 15:35:22.643144  3259 net.cpp:399] inception_4c/1x1 -> inception_4c/1x1
I0403 15:35:22.644675  3259 net.cpp:141] Setting up inception_4c/1x1
I0403 15:35:22.644704  3259 net.cpp:148] Top shape: 24 128 14 14 (602112)
I0403 15:35:22.644721  3259 net.cpp:156] Memory required for data: 1030800672
I0403 15:35:22.644740  3259 layer_factory.hpp:77] Creating layer inception_4c/relu_1x1
I0403 15:35:22.644763  3259 net.cpp:91] Creating Layer inception_4c/relu_1x1
I0403 15:35:22.644781  3259 net.cpp:425] inception_4c/relu_1x1 <- inception_4c/1x1
I0403 15:35:22.644800  3259 net.cpp:386] inception_4c/relu_1x1 -> inception_4c/1x1 (in-place)
I0403 15:35:22.644987  3259 net.cpp:141] Setting up inception_4c/relu_1x1
I0403 15:35:22.645014  3259 net.cpp:148] Top shape: 24 128 14 14 (602112)
I0403 15:35:22.645028  3259 net.cpp:156] Memory required for data: 1033209120
I0403 15:35:22.645043  3259 layer_factory.hpp:77] Creating layer inception_4c/3x3_reduce
I0403 15:35:22.645066  3259 net.cpp:91] Creating Layer inception_4c/3x3_reduce
I0403 15:35:22.645086  3259 net.cpp:425] inception_4c/3x3_reduce <- inception_4b/output_inception_4b/output_0_split_1
I0403 15:35:22.645108  3259 net.cpp:399] inception_4c/3x3_reduce -> inception_4c/3x3_reduce
I0403 15:35:22.647153  3259 net.cpp:141] Setting up inception_4c/3x3_reduce
I0403 15:35:22.647183  3259 net.cpp:148] Top shape: 24 128 14 14 (602112)
I0403 15:35:22.647200  3259 net.cpp:156] Memory required for data: 1035617568
I0403 15:35:22.647219  3259 layer_factory.hpp:77] Creating layer inception_4c/relu_3x3_reduce
I0403 15:35:22.647245  3259 net.cpp:91] Creating Layer inception_4c/relu_3x3_reduce
I0403 15:35:22.647264  3259 net.cpp:425] inception_4c/relu_3x3_reduce <- inception_4c/3x3_reduce
I0403 15:35:22.647284  3259 net.cpp:386] inception_4c/relu_3x3_reduce -> inception_4c/3x3_reduce (in-place)
I0403 15:35:22.647578  3259 net.cpp:141] Setting up inception_4c/relu_3x3_reduce
I0403 15:35:22.647605  3259 net.cpp:148] Top shape: 24 128 14 14 (602112)
I0403 15:35:22.647621  3259 net.cpp:156] Memory required for data: 1038026016
I0403 15:35:22.647636  3259 layer_factory.hpp:77] Creating layer inception_4c/3x3
I0403 15:35:22.647666  3259 net.cpp:91] Creating Layer inception_4c/3x3
I0403 15:35:22.647686  3259 net.cpp:425] inception_4c/3x3 <- inception_4c/3x3_reduce
I0403 15:35:22.647706  3259 net.cpp:399] inception_4c/3x3 -> inception_4c/3x3
I0403 15:35:22.651458  3259 net.cpp:141] Setting up inception_4c/3x3
I0403 15:35:22.651506  3259 net.cpp:148] Top shape: 24 256 14 14 (1204224)
I0403 15:35:22.651525  3259 net.cpp:156] Memory required for data: 1042842912
I0403 15:35:22.651559  3259 layer_factory.hpp:77] Creating layer inception_4c/relu_3x3
I0403 15:35:22.651582  3259 net.cpp:91] Creating Layer inception_4c/relu_3x3
I0403 15:35:22.651610  3259 net.cpp:425] inception_4c/relu_3x3 <- inception_4c/3x3
I0403 15:35:22.651629  3259 net.cpp:386] inception_4c/relu_3x3 -> inception_4c/3x3 (in-place)
I0403 15:35:22.651823  3259 net.cpp:141] Setting up inception_4c/relu_3x3
I0403 15:35:22.651852  3259 net.cpp:148] Top shape: 24 256 14 14 (1204224)
I0403 15:35:22.651870  3259 net.cpp:156] Memory required for data: 1047659808
I0403 15:35:22.651885  3259 layer_factory.hpp:77] Creating layer inception_4c/5x5_reduce
I0403 15:35:22.651921  3259 net.cpp:91] Creating Layer inception_4c/5x5_reduce
I0403 15:35:22.651939  3259 net.cpp:425] inception_4c/5x5_reduce <- inception_4b/output_inception_4b/output_0_split_2
I0403 15:35:22.651959  3259 net.cpp:399] inception_4c/5x5_reduce -> inception_4c/5x5_reduce
I0403 15:35:22.653143  3259 net.cpp:141] Setting up inception_4c/5x5_reduce
I0403 15:35:22.653173  3259 net.cpp:148] Top shape: 24 24 14 14 (112896)
I0403 15:35:22.653189  3259 net.cpp:156] Memory required for data: 1048111392
I0403 15:35:22.653209  3259 layer_factory.hpp:77] Creating layer inception_4c/relu_5x5_reduce
I0403 15:35:22.653231  3259 net.cpp:91] Creating Layer inception_4c/relu_5x5_reduce
I0403 15:35:22.653264  3259 net.cpp:425] inception_4c/relu_5x5_reduce <- inception_4c/5x5_reduce
I0403 15:35:22.653285  3259 net.cpp:386] inception_4c/relu_5x5_reduce -> inception_4c/5x5_reduce (in-place)
I0403 15:35:22.653484  3259 net.cpp:141] Setting up inception_4c/relu_5x5_reduce
I0403 15:35:22.653512  3259 net.cpp:148] Top shape: 24 24 14 14 (112896)
I0403 15:35:22.653527  3259 net.cpp:156] Memory required for data: 1048562976
I0403 15:35:22.653543  3259 layer_factory.hpp:77] Creating layer inception_4c/5x5
I0403 15:35:22.653568  3259 net.cpp:91] Creating Layer inception_4c/5x5
I0403 15:35:22.653586  3259 net.cpp:425] inception_4c/5x5 <- inception_4c/5x5_reduce
I0403 15:35:22.653609  3259 net.cpp:399] inception_4c/5x5 -> inception_4c/5x5
I0403 15:35:22.654978  3259 net.cpp:141] Setting up inception_4c/5x5
I0403 15:35:22.655007  3259 net.cpp:148] Top shape: 24 64 14 14 (301056)
I0403 15:35:22.655025  3259 net.cpp:156] Memory required for data: 1049767200
I0403 15:35:22.655055  3259 layer_factory.hpp:77] Creating layer inception_4c/relu_5x5
I0403 15:35:22.655073  3259 net.cpp:91] Creating Layer inception_4c/relu_5x5
I0403 15:35:22.655089  3259 net.cpp:425] inception_4c/relu_5x5 <- inception_4c/5x5
I0403 15:35:22.655110  3259 net.cpp:386] inception_4c/relu_5x5 -> inception_4c/5x5 (in-place)
I0403 15:35:22.655439  3259 net.cpp:141] Setting up inception_4c/relu_5x5
I0403 15:35:22.655468  3259 net.cpp:148] Top shape: 24 64 14 14 (301056)
I0403 15:35:22.655484  3259 net.cpp:156] Memory required for data: 1050971424
I0403 15:35:22.655501  3259 layer_factory.hpp:77] Creating layer inception_4c/pool
I0403 15:35:22.655520  3259 net.cpp:91] Creating Layer inception_4c/pool
I0403 15:35:22.655539  3259 net.cpp:425] inception_4c/pool <- inception_4b/output_inception_4b/output_0_split_3
I0403 15:35:22.655560  3259 net.cpp:399] inception_4c/pool -> inception_4c/pool
I0403 15:35:22.655633  3259 net.cpp:141] Setting up inception_4c/pool
I0403 15:35:22.655661  3259 net.cpp:148] Top shape: 24 512 14 14 (2408448)
I0403 15:35:22.655678  3259 net.cpp:156] Memory required for data: 1060605216
I0403 15:35:22.655709  3259 layer_factory.hpp:77] Creating layer inception_4c/pool_proj
I0403 15:35:22.655732  3259 net.cpp:91] Creating Layer inception_4c/pool_proj
I0403 15:35:22.655750  3259 net.cpp:425] inception_4c/pool_proj <- inception_4c/pool
I0403 15:35:22.655782  3259 net.cpp:399] inception_4c/pool_proj -> inception_4c/pool_proj
I0403 15:35:22.657058  3259 net.cpp:141] Setting up inception_4c/pool_proj
I0403 15:35:22.657089  3259 net.cpp:148] Top shape: 24 64 14 14 (301056)
I0403 15:35:22.657119  3259 net.cpp:156] Memory required for data: 1061809440
I0403 15:35:22.657138  3259 layer_factory.hpp:77] Creating layer inception_4c/relu_pool_proj
I0403 15:35:22.657168  3259 net.cpp:91] Creating Layer inception_4c/relu_pool_proj
I0403 15:35:22.657186  3259 net.cpp:425] inception_4c/relu_pool_proj <- inception_4c/pool_proj
I0403 15:35:22.657203  3259 net.cpp:386] inception_4c/relu_pool_proj -> inception_4c/pool_proj (in-place)
I0403 15:35:22.657414  3259 net.cpp:141] Setting up inception_4c/relu_pool_proj
I0403 15:35:22.657443  3259 net.cpp:148] Top shape: 24 64 14 14 (301056)
I0403 15:35:22.657470  3259 net.cpp:156] Memory required for data: 1063013664
I0403 15:35:22.657486  3259 layer_factory.hpp:77] Creating layer inception_4c/output
I0403 15:35:22.657505  3259 net.cpp:91] Creating Layer inception_4c/output
I0403 15:35:22.657521  3259 net.cpp:425] inception_4c/output <- inception_4c/1x1
I0403 15:35:22.657551  3259 net.cpp:425] inception_4c/output <- inception_4c/3x3
I0403 15:35:22.657567  3259 net.cpp:425] inception_4c/output <- inception_4c/5x5
I0403 15:35:22.657583  3259 net.cpp:425] inception_4c/output <- inception_4c/pool_proj
I0403 15:35:22.657603  3259 net.cpp:399] inception_4c/output -> inception_4c/output
I0403 15:35:22.657650  3259 net.cpp:141] Setting up inception_4c/output
I0403 15:35:22.657675  3259 net.cpp:148] Top shape: 24 512 14 14 (2408448)
I0403 15:35:22.657690  3259 net.cpp:156] Memory required for data: 1072647456
I0403 15:35:22.657703  3259 layer_factory.hpp:77] Creating layer inception_4c/output_inception_4c/output_0_split
I0403 15:35:22.657723  3259 net.cpp:91] Creating Layer inception_4c/output_inception_4c/output_0_split
I0403 15:35:22.657740  3259 net.cpp:425] inception_4c/output_inception_4c/output_0_split <- inception_4c/output
I0403 15:35:22.657757  3259 net.cpp:399] inception_4c/output_inception_4c/output_0_split -> inception_4c/output_inception_4c/output_0_split_0
I0403 15:35:22.657780  3259 net.cpp:399] inception_4c/output_inception_4c/output_0_split -> inception_4c/output_inception_4c/output_0_split_1
I0403 15:35:22.657802  3259 net.cpp:399] inception_4c/output_inception_4c/output_0_split -> inception_4c/output_inception_4c/output_0_split_2
I0403 15:35:22.657822  3259 net.cpp:399] inception_4c/output_inception_4c/output_0_split -> inception_4c/output_inception_4c/output_0_split_3
I0403 15:35:22.657910  3259 net.cpp:141] Setting up inception_4c/output_inception_4c/output_0_split
I0403 15:35:22.657934  3259 net.cpp:148] Top shape: 24 512 14 14 (2408448)
I0403 15:35:22.657951  3259 net.cpp:148] Top shape: 24 512 14 14 (2408448)
I0403 15:35:22.657966  3259 net.cpp:148] Top shape: 24 512 14 14 (2408448)
I0403 15:35:22.657982  3259 net.cpp:148] Top shape: 24 512 14 14 (2408448)
I0403 15:35:22.657995  3259 net.cpp:156] Memory required for data: 1111182624
I0403 15:35:22.658011  3259 layer_factory.hpp:77] Creating layer inception_4d/1x1
I0403 15:35:22.658033  3259 net.cpp:91] Creating Layer inception_4d/1x1
I0403 15:35:22.658051  3259 net.cpp:425] inception_4d/1x1 <- inception_4c/output_inception_4c/output_0_split_0
I0403 15:35:22.658072  3259 net.cpp:399] inception_4d/1x1 -> inception_4d/1x1
I0403 15:35:22.659590  3259 net.cpp:141] Setting up inception_4d/1x1
I0403 15:35:22.659620  3259 net.cpp:148] Top shape: 24 112 14 14 (526848)
I0403 15:35:22.659634  3259 net.cpp:156] Memory required for data: 1113290016
I0403 15:35:22.659653  3259 layer_factory.hpp:77] Creating layer inception_4d/relu_1x1
I0403 15:35:22.659674  3259 net.cpp:91] Creating Layer inception_4d/relu_1x1
I0403 15:35:22.659692  3259 net.cpp:425] inception_4d/relu_1x1 <- inception_4d/1x1
I0403 15:35:22.659708  3259 net.cpp:386] inception_4d/relu_1x1 -> inception_4d/1x1 (in-place)
I0403 15:35:22.659929  3259 net.cpp:141] Setting up inception_4d/relu_1x1
I0403 15:35:22.659955  3259 net.cpp:148] Top shape: 24 112 14 14 (526848)
I0403 15:35:22.659970  3259 net.cpp:156] Memory required for data: 1115397408
I0403 15:35:22.659984  3259 layer_factory.hpp:77] Creating layer inception_4d/3x3_reduce
I0403 15:35:22.660022  3259 net.cpp:91] Creating Layer inception_4d/3x3_reduce
I0403 15:35:22.660042  3259 net.cpp:425] inception_4d/3x3_reduce <- inception_4c/output_inception_4c/output_0_split_1
I0403 15:35:22.660061  3259 net.cpp:399] inception_4d/3x3_reduce -> inception_4d/3x3_reduce
I0403 15:35:22.661671  3259 net.cpp:141] Setting up inception_4d/3x3_reduce
I0403 15:35:22.661698  3259 net.cpp:148] Top shape: 24 144 14 14 (677376)
I0403 15:35:22.661715  3259 net.cpp:156] Memory required for data: 1118106912
I0403 15:35:22.661732  3259 layer_factory.hpp:77] Creating layer inception_4d/relu_3x3_reduce
I0403 15:35:22.661751  3259 net.cpp:91] Creating Layer inception_4d/relu_3x3_reduce
I0403 15:35:22.661767  3259 net.cpp:425] inception_4d/relu_3x3_reduce <- inception_4d/3x3_reduce
I0403 15:35:22.661785  3259 net.cpp:386] inception_4d/relu_3x3_reduce -> inception_4d/3x3_reduce (in-place)
I0403 15:35:22.662068  3259 net.cpp:141] Setting up inception_4d/relu_3x3_reduce
I0403 15:35:22.662094  3259 net.cpp:148] Top shape: 24 144 14 14 (677376)
I0403 15:35:22.662109  3259 net.cpp:156] Memory required for data: 1120816416
I0403 15:35:22.662124  3259 layer_factory.hpp:77] Creating layer inception_4d/3x3
I0403 15:35:22.662147  3259 net.cpp:91] Creating Layer inception_4d/3x3
I0403 15:35:22.662176  3259 net.cpp:425] inception_4d/3x3 <- inception_4d/3x3_reduce
I0403 15:35:22.662199  3259 net.cpp:399] inception_4d/3x3 -> inception_4d/3x3
I0403 15:35:22.666437  3259 net.cpp:141] Setting up inception_4d/3x3
I0403 15:35:22.666466  3259 net.cpp:148] Top shape: 24 288 14 14 (1354752)
I0403 15:35:22.666482  3259 net.cpp:156] Memory required for data: 1126235424
I0403 15:35:22.666501  3259 layer_factory.hpp:77] Creating layer inception_4d/relu_3x3
I0403 15:35:22.666520  3259 net.cpp:91] Creating Layer inception_4d/relu_3x3
I0403 15:35:22.666538  3259 net.cpp:425] inception_4d/relu_3x3 <- inception_4d/3x3
I0403 15:35:22.666554  3259 net.cpp:386] inception_4d/relu_3x3 -> inception_4d/3x3 (in-place)
I0403 15:35:22.666730  3259 net.cpp:141] Setting up inception_4d/relu_3x3
I0403 15:35:22.666757  3259 net.cpp:148] Top shape: 24 288 14 14 (1354752)
I0403 15:35:22.666772  3259 net.cpp:156] Memory required for data: 1131654432
I0403 15:35:22.666787  3259 layer_factory.hpp:77] Creating layer inception_4d/5x5_reduce
I0403 15:35:22.666808  3259 net.cpp:91] Creating Layer inception_4d/5x5_reduce
I0403 15:35:22.666826  3259 net.cpp:425] inception_4d/5x5_reduce <- inception_4c/output_inception_4c/output_0_split_2
I0403 15:35:22.666846  3259 net.cpp:399] inception_4d/5x5_reduce -> inception_4d/5x5_reduce
I0403 15:35:22.667958  3259 net.cpp:141] Setting up inception_4d/5x5_reduce
I0403 15:35:22.667985  3259 net.cpp:148] Top shape: 24 32 14 14 (150528)
I0403 15:35:22.668001  3259 net.cpp:156] Memory required for data: 1132256544
I0403 15:35:22.668020  3259 layer_factory.hpp:77] Creating layer inception_4d/relu_5x5_reduce
I0403 15:35:22.668040  3259 net.cpp:91] Creating Layer inception_4d/relu_5x5_reduce
I0403 15:35:22.668057  3259 net.cpp:425] inception_4d/relu_5x5_reduce <- inception_4d/5x5_reduce
I0403 15:35:22.668074  3259 net.cpp:386] inception_4d/relu_5x5_reduce -> inception_4d/5x5_reduce (in-place)
I0403 15:35:22.668261  3259 net.cpp:141] Setting up inception_4d/relu_5x5_reduce
I0403 15:35:22.668287  3259 net.cpp:148] Top shape: 24 32 14 14 (150528)
I0403 15:35:22.668303  3259 net.cpp:156] Memory required for data: 1132858656
I0403 15:35:22.668318  3259 layer_factory.hpp:77] Creating layer inception_4d/5x5
I0403 15:35:22.668339  3259 net.cpp:91] Creating Layer inception_4d/5x5
I0403 15:35:22.668357  3259 net.cpp:425] inception_4d/5x5 <- inception_4d/5x5_reduce
I0403 15:35:22.668375  3259 net.cpp:399] inception_4d/5x5 -> inception_4d/5x5
I0403 15:35:22.669824  3259 net.cpp:141] Setting up inception_4d/5x5
I0403 15:35:22.669853  3259 net.cpp:148] Top shape: 24 64 14 14 (301056)
I0403 15:35:22.669869  3259 net.cpp:156] Memory required for data: 1134062880
I0403 15:35:22.669889  3259 layer_factory.hpp:77] Creating layer inception_4d/relu_5x5
I0403 15:35:22.669921  3259 net.cpp:91] Creating Layer inception_4d/relu_5x5
I0403 15:35:22.669939  3259 net.cpp:425] inception_4d/relu_5x5 <- inception_4d/5x5
I0403 15:35:22.669958  3259 net.cpp:386] inception_4d/relu_5x5 -> inception_4d/5x5 (in-place)
I0403 15:35:22.670256  3259 net.cpp:141] Setting up inception_4d/relu_5x5
I0403 15:35:22.670284  3259 net.cpp:148] Top shape: 24 64 14 14 (301056)
I0403 15:35:22.670300  3259 net.cpp:156] Memory required for data: 1135267104
I0403 15:35:22.670315  3259 layer_factory.hpp:77] Creating layer inception_4d/pool
I0403 15:35:22.670332  3259 net.cpp:91] Creating Layer inception_4d/pool
I0403 15:35:22.670348  3259 net.cpp:425] inception_4d/pool <- inception_4c/output_inception_4c/output_0_split_3
I0403 15:35:22.670368  3259 net.cpp:399] inception_4d/pool -> inception_4d/pool
I0403 15:35:22.670434  3259 net.cpp:141] Setting up inception_4d/pool
I0403 15:35:22.670459  3259 net.cpp:148] Top shape: 24 512 14 14 (2408448)
I0403 15:35:22.670474  3259 net.cpp:156] Memory required for data: 1144900896
I0403 15:35:22.670488  3259 layer_factory.hpp:77] Creating layer inception_4d/pool_proj
I0403 15:35:22.670509  3259 net.cpp:91] Creating Layer inception_4d/pool_proj
I0403 15:35:22.670527  3259 net.cpp:425] inception_4d/pool_proj <- inception_4d/pool
I0403 15:35:22.670547  3259 net.cpp:399] inception_4d/pool_proj -> inception_4d/pool_proj
I0403 15:35:22.672261  3259 net.cpp:141] Setting up inception_4d/pool_proj
I0403 15:35:22.672289  3259 net.cpp:148] Top shape: 24 64 14 14 (301056)
I0403 15:35:22.672305  3259 net.cpp:156] Memory required for data: 1146105120
I0403 15:35:22.672323  3259 layer_factory.hpp:77] Creating layer inception_4d/relu_pool_proj
I0403 15:35:22.672344  3259 net.cpp:91] Creating Layer inception_4d/relu_pool_proj
I0403 15:35:22.672360  3259 net.cpp:425] inception_4d/relu_pool_proj <- inception_4d/pool_proj
I0403 15:35:22.672377  3259 net.cpp:386] inception_4d/relu_pool_proj -> inception_4d/pool_proj (in-place)
I0403 15:35:22.672560  3259 net.cpp:141] Setting up inception_4d/relu_pool_proj
I0403 15:35:22.672587  3259 net.cpp:148] Top shape: 24 64 14 14 (301056)
I0403 15:35:22.672602  3259 net.cpp:156] Memory required for data: 1147309344
I0403 15:35:22.672617  3259 layer_factory.hpp:77] Creating layer inception_4d/output
I0403 15:35:22.672634  3259 net.cpp:91] Creating Layer inception_4d/output
I0403 15:35:22.672649  3259 net.cpp:425] inception_4d/output <- inception_4d/1x1
I0403 15:35:22.672665  3259 net.cpp:425] inception_4d/output <- inception_4d/3x3
I0403 15:35:22.672683  3259 net.cpp:425] inception_4d/output <- inception_4d/5x5
I0403 15:35:22.672699  3259 net.cpp:425] inception_4d/output <- inception_4d/pool_proj
I0403 15:35:22.672716  3259 net.cpp:399] inception_4d/output -> inception_4d/output
I0403 15:35:22.672765  3259 net.cpp:141] Setting up inception_4d/output
I0403 15:35:22.672787  3259 net.cpp:148] Top shape: 24 528 14 14 (2483712)
I0403 15:35:22.672802  3259 net.cpp:156] Memory required for data: 1157244192
I0403 15:35:22.672816  3259 layer_factory.hpp:77] Creating layer inception_4d/output_inception_4d/output_0_split
I0403 15:35:22.672837  3259 net.cpp:91] Creating Layer inception_4d/output_inception_4d/output_0_split
I0403 15:35:22.672852  3259 net.cpp:425] inception_4d/output_inception_4d/output_0_split <- inception_4d/output
I0403 15:35:22.672870  3259 net.cpp:399] inception_4d/output_inception_4d/output_0_split -> inception_4d/output_inception_4d/output_0_split_0
I0403 15:35:22.672891  3259 net.cpp:399] inception_4d/output_inception_4d/output_0_split -> inception_4d/output_inception_4d/output_0_split_1
I0403 15:35:22.672912  3259 net.cpp:399] inception_4d/output_inception_4d/output_0_split -> inception_4d/output_inception_4d/output_0_split_2
I0403 15:35:22.672935  3259 net.cpp:399] inception_4d/output_inception_4d/output_0_split -> inception_4d/output_inception_4d/output_0_split_3
I0403 15:35:22.672956  3259 net.cpp:399] inception_4d/output_inception_4d/output_0_split -> inception_4d/output_inception_4d/output_0_split_4
I0403 15:35:22.673058  3259 net.cpp:141] Setting up inception_4d/output_inception_4d/output_0_split
I0403 15:35:22.673094  3259 net.cpp:148] Top shape: 24 528 14 14 (2483712)
I0403 15:35:22.673110  3259 net.cpp:148] Top shape: 24 528 14 14 (2483712)
I0403 15:35:22.673126  3259 net.cpp:148] Top shape: 24 528 14 14 (2483712)
I0403 15:35:22.673142  3259 net.cpp:148] Top shape: 24 528 14 14 (2483712)
I0403 15:35:22.673158  3259 net.cpp:148] Top shape: 24 528 14 14 (2483712)
I0403 15:35:22.673172  3259 net.cpp:156] Memory required for data: 1206918432
I0403 15:35:22.673187  3259 layer_factory.hpp:77] Creating layer loss2/ave_pool
I0403 15:35:22.673207  3259 net.cpp:91] Creating Layer loss2/ave_pool
I0403 15:35:22.673224  3259 net.cpp:425] loss2/ave_pool <- inception_4d/output_inception_4d/output_0_split_0
I0403 15:35:22.673251  3259 net.cpp:399] loss2/ave_pool -> loss2/ave_pool
I0403 15:35:22.673560  3259 net.cpp:141] Setting up loss2/ave_pool
I0403 15:35:22.673586  3259 net.cpp:148] Top shape: 24 528 4 4 (202752)
I0403 15:35:22.673601  3259 net.cpp:156] Memory required for data: 1207729440
I0403 15:35:22.673616  3259 layer_factory.hpp:77] Creating layer loss2/conv
I0403 15:35:22.673638  3259 net.cpp:91] Creating Layer loss2/conv
I0403 15:35:22.673655  3259 net.cpp:425] loss2/conv <- loss2/ave_pool
I0403 15:35:22.673676  3259 net.cpp:399] loss2/conv -> loss2/conv
I0403 15:35:22.675696  3259 net.cpp:141] Setting up loss2/conv
I0403 15:35:22.675729  3259 net.cpp:148] Top shape: 24 128 4 4 (49152)
I0403 15:35:22.675745  3259 net.cpp:156] Memory required for data: 1207926048
I0403 15:35:22.675766  3259 layer_factory.hpp:77] Creating layer loss2/relu_conv
I0403 15:35:22.675786  3259 net.cpp:91] Creating Layer loss2/relu_conv
I0403 15:35:22.675803  3259 net.cpp:425] loss2/relu_conv <- loss2/conv
I0403 15:35:22.675824  3259 net.cpp:386] loss2/relu_conv -> loss2/conv (in-place)
I0403 15:35:22.676146  3259 net.cpp:141] Setting up loss2/relu_conv
I0403 15:35:22.676177  3259 net.cpp:148] Top shape: 24 128 4 4 (49152)
I0403 15:35:22.676193  3259 net.cpp:156] Memory required for data: 1208122656
I0403 15:35:22.676213  3259 layer_factory.hpp:77] Creating layer loss2/fc
I0403 15:35:22.676235  3259 net.cpp:91] Creating Layer loss2/fc
I0403 15:35:22.676259  3259 net.cpp:425] loss2/fc <- loss2/conv
I0403 15:35:22.676282  3259 net.cpp:399] loss2/fc -> loss2/fc
I0403 15:35:22.694780  3259 net.cpp:141] Setting up loss2/fc
I0403 15:35:22.694814  3259 net.cpp:148] Top shape: 24 1024 (24576)
I0403 15:35:22.694833  3259 net.cpp:156] Memory required for data: 1208220960
I0403 15:35:22.694851  3259 layer_factory.hpp:77] Creating layer loss2/relu_fc
I0403 15:35:22.694870  3259 net.cpp:91] Creating Layer loss2/relu_fc
I0403 15:35:22.694888  3259 net.cpp:425] loss2/relu_fc <- loss2/fc
I0403 15:35:22.694907  3259 net.cpp:386] loss2/relu_fc -> loss2/fc (in-place)
I0403 15:35:22.695233  3259 net.cpp:141] Setting up loss2/relu_fc
I0403 15:35:22.695264  3259 net.cpp:148] Top shape: 24 1024 (24576)
I0403 15:35:22.695284  3259 net.cpp:156] Memory required for data: 1208319264
I0403 15:35:22.695300  3259 layer_factory.hpp:77] Creating layer loss2/drop_fc
I0403 15:35:22.695319  3259 net.cpp:91] Creating Layer loss2/drop_fc
I0403 15:35:22.695336  3259 net.cpp:425] loss2/drop_fc <- loss2/fc
I0403 15:35:22.695354  3259 net.cpp:386] loss2/drop_fc -> loss2/fc (in-place)
I0403 15:35:22.695410  3259 net.cpp:141] Setting up loss2/drop_fc
I0403 15:35:22.695435  3259 net.cpp:148] Top shape: 24 1024 (24576)
I0403 15:35:22.695449  3259 net.cpp:156] Memory required for data: 1208417568
I0403 15:35:22.695464  3259 layer_factory.hpp:77] Creating layer loss2/classifier_plantvillage
I0403 15:35:22.695487  3259 net.cpp:91] Creating Layer loss2/classifier_plantvillage
I0403 15:35:22.695504  3259 net.cpp:425] loss2/classifier_plantvillage <- loss2/fc
I0403 15:35:22.695523  3259 net.cpp:399] loss2/classifier_plantvillage -> loss2/classifier_plantvillage
I0403 15:35:22.695947  3259 net.cpp:141] Setting up loss2/classifier_plantvillage
I0403 15:35:22.695976  3259 net.cpp:148] Top shape: 24 38 (912)
I0403 15:35:22.696010  3259 net.cpp:156] Memory required for data: 1208421216
I0403 15:35:22.696032  3259 layer_factory.hpp:77] Creating layer loss2/classifier_plantvillage_loss2/classifier_plantvillage_0_split
I0403 15:35:22.696051  3259 net.cpp:91] Creating Layer loss2/classifier_plantvillage_loss2/classifier_plantvillage_0_split
I0403 15:35:22.696069  3259 net.cpp:425] loss2/classifier_plantvillage_loss2/classifier_plantvillage_0_split <- loss2/classifier_plantvillage
I0403 15:35:22.696091  3259 net.cpp:399] loss2/classifier_plantvillage_loss2/classifier_plantvillage_0_split -> loss2/classifier_plantvillage_loss2/classifier_plantvillage_0_split_0
I0403 15:35:22.696115  3259 net.cpp:399] loss2/classifier_plantvillage_loss2/classifier_plantvillage_0_split -> loss2/classifier_plantvillage_loss2/classifier_plantvillage_0_split_1
I0403 15:35:22.696136  3259 net.cpp:399] loss2/classifier_plantvillage_loss2/classifier_plantvillage_0_split -> loss2/classifier_plantvillage_loss2/classifier_plantvillage_0_split_2
I0403 15:35:22.696219  3259 net.cpp:141] Setting up loss2/classifier_plantvillage_loss2/classifier_plantvillage_0_split
I0403 15:35:22.696250  3259 net.cpp:148] Top shape: 24 38 (912)
I0403 15:35:22.696270  3259 net.cpp:148] Top shape: 24 38 (912)
I0403 15:35:22.696286  3259 net.cpp:148] Top shape: 24 38 (912)
I0403 15:35:22.696301  3259 net.cpp:156] Memory required for data: 1208432160
I0403 15:35:22.696316  3259 layer_factory.hpp:77] Creating layer inception_4e/1x1
I0403 15:35:22.696341  3259 net.cpp:91] Creating Layer inception_4e/1x1
I0403 15:35:22.696360  3259 net.cpp:425] inception_4e/1x1 <- inception_4d/output_inception_4d/output_0_split_1
I0403 15:35:22.696380  3259 net.cpp:399] inception_4e/1x1 -> inception_4e/1x1
I0403 15:35:22.698348  3259 net.cpp:141] Setting up inception_4e/1x1
I0403 15:35:22.698381  3259 net.cpp:148] Top shape: 24 256 14 14 (1204224)
I0403 15:35:22.698400  3259 net.cpp:156] Memory required for data: 1213249056
I0403 15:35:22.698421  3259 layer_factory.hpp:77] Creating layer inception_4e/relu_1x1
I0403 15:35:22.698442  3259 net.cpp:91] Creating Layer inception_4e/relu_1x1
I0403 15:35:22.698459  3259 net.cpp:425] inception_4e/relu_1x1 <- inception_4e/1x1
I0403 15:35:22.698479  3259 net.cpp:386] inception_4e/relu_1x1 -> inception_4e/1x1 (in-place)
I0403 15:35:22.698782  3259 net.cpp:141] Setting up inception_4e/relu_1x1
I0403 15:35:22.698813  3259 net.cpp:148] Top shape: 24 256 14 14 (1204224)
I0403 15:35:22.698844  3259 net.cpp:156] Memory required for data: 1218065952
I0403 15:35:22.698861  3259 layer_factory.hpp:77] Creating layer inception_4e/3x3_reduce
I0403 15:35:22.698886  3259 net.cpp:91] Creating Layer inception_4e/3x3_reduce
I0403 15:35:22.698907  3259 net.cpp:425] inception_4e/3x3_reduce <- inception_4d/output_inception_4d/output_0_split_2
I0403 15:35:22.698932  3259 net.cpp:399] inception_4e/3x3_reduce -> inception_4e/3x3_reduce
I0403 15:35:22.701272  3259 net.cpp:141] Setting up inception_4e/3x3_reduce
I0403 15:35:22.701305  3259 net.cpp:148] Top shape: 24 160 14 14 (752640)
I0403 15:35:22.701323  3259 net.cpp:156] Memory required for data: 1221076512
I0403 15:35:22.701356  3259 layer_factory.hpp:77] Creating layer inception_4e/relu_3x3_reduce
I0403 15:35:22.701375  3259 net.cpp:91] Creating Layer inception_4e/relu_3x3_reduce
I0403 15:35:22.701406  3259 net.cpp:425] inception_4e/relu_3x3_reduce <- inception_4e/3x3_reduce
I0403 15:35:22.701428  3259 net.cpp:386] inception_4e/relu_3x3_reduce -> inception_4e/3x3_reduce (in-place)
I0403 15:35:22.701633  3259 net.cpp:141] Setting up inception_4e/relu_3x3_reduce
I0403 15:35:22.701673  3259 net.cpp:148] Top shape: 24 160 14 14 (752640)
I0403 15:35:22.701688  3259 net.cpp:156] Memory required for data: 1224087072
I0403 15:35:22.701704  3259 layer_factory.hpp:77] Creating layer inception_4e/3x3
I0403 15:35:22.701728  3259 net.cpp:91] Creating Layer inception_4e/3x3
I0403 15:35:22.701748  3259 net.cpp:425] inception_4e/3x3 <- inception_4e/3x3_reduce
I0403 15:35:22.701769  3259 net.cpp:399] inception_4e/3x3 -> inception_4e/3x3
I0403 15:35:22.706996  3259 net.cpp:141] Setting up inception_4e/3x3
I0403 15:35:22.707046  3259 net.cpp:148] Top shape: 24 320 14 14 (1505280)
I0403 15:35:22.707062  3259 net.cpp:156] Memory required for data: 1230108192
I0403 15:35:22.707083  3259 layer_factory.hpp:77] Creating layer inception_4e/relu_3x3
I0403 15:35:22.707106  3259 net.cpp:91] Creating Layer inception_4e/relu_3x3
I0403 15:35:22.707124  3259 net.cpp:425] inception_4e/relu_3x3 <- inception_4e/3x3
I0403 15:35:22.707142  3259 net.cpp:386] inception_4e/relu_3x3 -> inception_4e/3x3 (in-place)
I0403 15:35:22.707464  3259 net.cpp:141] Setting up inception_4e/relu_3x3
I0403 15:35:22.707504  3259 net.cpp:148] Top shape: 24 320 14 14 (1505280)
I0403 15:35:22.707520  3259 net.cpp:156] Memory required for data: 1236129312
I0403 15:35:22.707535  3259 layer_factory.hpp:77] Creating layer inception_4e/5x5_reduce
I0403 15:35:22.707557  3259 net.cpp:91] Creating Layer inception_4e/5x5_reduce
I0403 15:35:22.707576  3259 net.cpp:425] inception_4e/5x5_reduce <- inception_4d/output_inception_4d/output_0_split_3
I0403 15:35:22.707599  3259 net.cpp:399] inception_4e/5x5_reduce -> inception_4e/5x5_reduce
I0403 15:35:22.708744  3259 net.cpp:141] Setting up inception_4e/5x5_reduce
I0403 15:35:22.708773  3259 net.cpp:148] Top shape: 24 32 14 14 (150528)
I0403 15:35:22.708791  3259 net.cpp:156] Memory required for data: 1236731424
I0403 15:35:22.708809  3259 layer_factory.hpp:77] Creating layer inception_4e/relu_5x5_reduce
I0403 15:35:22.708828  3259 net.cpp:91] Creating Layer inception_4e/relu_5x5_reduce
I0403 15:35:22.708845  3259 net.cpp:425] inception_4e/relu_5x5_reduce <- inception_4e/5x5_reduce
I0403 15:35:22.708865  3259 net.cpp:386] inception_4e/relu_5x5_reduce -> inception_4e/5x5_reduce (in-place)
I0403 15:35:22.709168  3259 net.cpp:141] Setting up inception_4e/relu_5x5_reduce
I0403 15:35:22.709209  3259 net.cpp:148] Top shape: 24 32 14 14 (150528)
I0403 15:35:22.709226  3259 net.cpp:156] Memory required for data: 1237333536
I0403 15:35:22.709247  3259 layer_factory.hpp:77] Creating layer inception_4e/5x5
I0403 15:35:22.709291  3259 net.cpp:91] Creating Layer inception_4e/5x5
I0403 15:35:22.709311  3259 net.cpp:425] inception_4e/5x5 <- inception_4e/5x5_reduce
I0403 15:35:22.709332  3259 net.cpp:399] inception_4e/5x5 -> inception_4e/5x5
I0403 15:35:22.711361  3259 net.cpp:141] Setting up inception_4e/5x5
I0403 15:35:22.711391  3259 net.cpp:148] Top shape: 24 128 14 14 (602112)
I0403 15:35:22.711408  3259 net.cpp:156] Memory required for data: 1239741984
I0403 15:35:22.711428  3259 layer_factory.hpp:77] Creating layer inception_4e/relu_5x5
I0403 15:35:22.711450  3259 net.cpp:91] Creating Layer inception_4e/relu_5x5
I0403 15:35:22.711469  3259 net.cpp:425] inception_4e/relu_5x5 <- inception_4e/5x5
I0403 15:35:22.711500  3259 net.cpp:386] inception_4e/relu_5x5 -> inception_4e/5x5 (in-place)
I0403 15:35:22.711699  3259 net.cpp:141] Setting up inception_4e/relu_5x5
I0403 15:35:22.711725  3259 net.cpp:148] Top shape: 24 128 14 14 (602112)
I0403 15:35:22.711740  3259 net.cpp:156] Memory required for data: 1242150432
I0403 15:35:22.711755  3259 layer_factory.hpp:77] Creating layer inception_4e/pool
I0403 15:35:22.711774  3259 net.cpp:91] Creating Layer inception_4e/pool
I0403 15:35:22.711791  3259 net.cpp:425] inception_4e/pool <- inception_4d/output_inception_4d/output_0_split_4
I0403 15:35:22.711810  3259 net.cpp:399] inception_4e/pool -> inception_4e/pool
I0403 15:35:22.711882  3259 net.cpp:141] Setting up inception_4e/pool
I0403 15:35:22.711906  3259 net.cpp:148] Top shape: 24 528 14 14 (2483712)
I0403 15:35:22.711922  3259 net.cpp:156] Memory required for data: 1252085280
I0403 15:35:22.711936  3259 layer_factory.hpp:77] Creating layer inception_4e/pool_proj
I0403 15:35:22.711961  3259 net.cpp:91] Creating Layer inception_4e/pool_proj
I0403 15:35:22.711978  3259 net.cpp:425] inception_4e/pool_proj <- inception_4e/pool
I0403 15:35:22.711997  3259 net.cpp:399] inception_4e/pool_proj -> inception_4e/pool_proj
I0403 15:35:22.713527  3259 net.cpp:141] Setting up inception_4e/pool_proj
I0403 15:35:22.713572  3259 net.cpp:148] Top shape: 24 128 14 14 (602112)
I0403 15:35:22.713587  3259 net.cpp:156] Memory required for data: 1254493728
I0403 15:35:22.713608  3259 layer_factory.hpp:77] Creating layer inception_4e/relu_pool_proj
I0403 15:35:22.713629  3259 net.cpp:91] Creating Layer inception_4e/relu_pool_proj
I0403 15:35:22.713646  3259 net.cpp:425] inception_4e/relu_pool_proj <- inception_4e/pool_proj
I0403 15:35:22.713665  3259 net.cpp:386] inception_4e/relu_pool_proj -> inception_4e/pool_proj (in-place)
I0403 15:35:22.713959  3259 net.cpp:141] Setting up inception_4e/relu_pool_proj
I0403 15:35:22.713986  3259 net.cpp:148] Top shape: 24 128 14 14 (602112)
I0403 15:35:22.714002  3259 net.cpp:156] Memory required for data: 1256902176
I0403 15:35:22.714017  3259 layer_factory.hpp:77] Creating layer inception_4e/output
I0403 15:35:22.714037  3259 net.cpp:91] Creating Layer inception_4e/output
I0403 15:35:22.714056  3259 net.cpp:425] inception_4e/output <- inception_4e/1x1
I0403 15:35:22.714072  3259 net.cpp:425] inception_4e/output <- inception_4e/3x3
I0403 15:35:22.714088  3259 net.cpp:425] inception_4e/output <- inception_4e/5x5
I0403 15:35:22.714105  3259 net.cpp:425] inception_4e/output <- inception_4e/pool_proj
I0403 15:35:22.714123  3259 net.cpp:399] inception_4e/output -> inception_4e/output
I0403 15:35:22.714176  3259 net.cpp:141] Setting up inception_4e/output
I0403 15:35:22.714200  3259 net.cpp:148] Top shape: 24 832 14 14 (3913728)
I0403 15:35:22.714215  3259 net.cpp:156] Memory required for data: 1272557088
I0403 15:35:22.714229  3259 layer_factory.hpp:77] Creating layer pool4/3x3_s2
I0403 15:35:22.714252  3259 net.cpp:91] Creating Layer pool4/3x3_s2
I0403 15:35:22.714269  3259 net.cpp:425] pool4/3x3_s2 <- inception_4e/output
I0403 15:35:22.714292  3259 net.cpp:399] pool4/3x3_s2 -> pool4/3x3_s2
I0403 15:35:22.714360  3259 net.cpp:141] Setting up pool4/3x3_s2
I0403 15:35:22.714385  3259 net.cpp:148] Top shape: 24 832 7 7 (978432)
I0403 15:35:22.714400  3259 net.cpp:156] Memory required for data: 1276470816
I0403 15:35:22.714414  3259 layer_factory.hpp:77] Creating layer pool4/3x3_s2_pool4/3x3_s2_0_split
I0403 15:35:22.714437  3259 net.cpp:91] Creating Layer pool4/3x3_s2_pool4/3x3_s2_0_split
I0403 15:35:22.714453  3259 net.cpp:425] pool4/3x3_s2_pool4/3x3_s2_0_split <- pool4/3x3_s2
I0403 15:35:22.714474  3259 net.cpp:399] pool4/3x3_s2_pool4/3x3_s2_0_split -> pool4/3x3_s2_pool4/3x3_s2_0_split_0
I0403 15:35:22.714495  3259 net.cpp:399] pool4/3x3_s2_pool4/3x3_s2_0_split -> pool4/3x3_s2_pool4/3x3_s2_0_split_1
I0403 15:35:22.714516  3259 net.cpp:399] pool4/3x3_s2_pool4/3x3_s2_0_split -> pool4/3x3_s2_pool4/3x3_s2_0_split_2
I0403 15:35:22.714540  3259 net.cpp:399] pool4/3x3_s2_pool4/3x3_s2_0_split -> pool4/3x3_s2_pool4/3x3_s2_0_split_3
I0403 15:35:22.714630  3259 net.cpp:141] Setting up pool4/3x3_s2_pool4/3x3_s2_0_split
I0403 15:35:22.714654  3259 net.cpp:148] Top shape: 24 832 7 7 (978432)
I0403 15:35:22.714679  3259 net.cpp:148] Top shape: 24 832 7 7 (978432)
I0403 15:35:22.714694  3259 net.cpp:148] Top shape: 24 832 7 7 (978432)
I0403 15:35:22.714709  3259 net.cpp:148] Top shape: 24 832 7 7 (978432)
I0403 15:35:22.714723  3259 net.cpp:156] Memory required for data: 1292125728
I0403 15:35:22.714738  3259 layer_factory.hpp:77] Creating layer inception_5a/1x1
I0403 15:35:22.714758  3259 net.cpp:91] Creating Layer inception_5a/1x1
I0403 15:35:22.714776  3259 net.cpp:425] inception_5a/1x1 <- pool4/3x3_s2_pool4/3x3_s2_0_split_0
I0403 15:35:22.714797  3259 net.cpp:399] inception_5a/1x1 -> inception_5a/1x1
I0403 15:35:22.717782  3259 net.cpp:141] Setting up inception_5a/1x1
I0403 15:35:22.717814  3259 net.cpp:148] Top shape: 24 256 7 7 (301056)
I0403 15:35:22.717833  3259 net.cpp:156] Memory required for data: 1293329952
I0403 15:35:22.717852  3259 layer_factory.hpp:77] Creating layer inception_5a/relu_1x1
I0403 15:35:22.717871  3259 net.cpp:91] Creating Layer inception_5a/relu_1x1
I0403 15:35:22.717888  3259 net.cpp:425] inception_5a/relu_1x1 <- inception_5a/1x1
I0403 15:35:22.717906  3259 net.cpp:386] inception_5a/relu_1x1 -> inception_5a/1x1 (in-place)
I0403 15:35:22.718230  3259 net.cpp:141] Setting up inception_5a/relu_1x1
I0403 15:35:22.718263  3259 net.cpp:148] Top shape: 24 256 7 7 (301056)
I0403 15:35:22.718282  3259 net.cpp:156] Memory required for data: 1294534176
I0403 15:35:22.718298  3259 layer_factory.hpp:77] Creating layer inception_5a/3x3_reduce
I0403 15:35:22.718322  3259 net.cpp:91] Creating Layer inception_5a/3x3_reduce
I0403 15:35:22.718341  3259 net.cpp:425] inception_5a/3x3_reduce <- pool4/3x3_s2_pool4/3x3_s2_0_split_1
I0403 15:35:22.718361  3259 net.cpp:399] inception_5a/3x3_reduce -> inception_5a/3x3_reduce
I0403 15:35:22.720903  3259 net.cpp:141] Setting up inception_5a/3x3_reduce
I0403 15:35:22.720933  3259 net.cpp:148] Top shape: 24 160 7 7 (188160)
I0403 15:35:22.720950  3259 net.cpp:156] Memory required for data: 1295286816
I0403 15:35:22.720970  3259 layer_factory.hpp:77] Creating layer inception_5a/relu_3x3_reduce
I0403 15:35:22.720993  3259 net.cpp:91] Creating Layer inception_5a/relu_3x3_reduce
I0403 15:35:22.721010  3259 net.cpp:425] inception_5a/relu_3x3_reduce <- inception_5a/3x3_reduce
I0403 15:35:22.721029  3259 net.cpp:386] inception_5a/relu_3x3_reduce -> inception_5a/3x3_reduce (in-place)
I0403 15:35:22.721225  3259 net.cpp:141] Setting up inception_5a/relu_3x3_reduce
I0403 15:35:22.721256  3259 net.cpp:148] Top shape: 24 160 7 7 (188160)
I0403 15:35:22.721274  3259 net.cpp:156] Memory required for data: 1296039456
I0403 15:35:22.721290  3259 layer_factory.hpp:77] Creating layer inception_5a/3x3
I0403 15:35:22.721312  3259 net.cpp:91] Creating Layer inception_5a/3x3
I0403 15:35:22.721329  3259 net.cpp:425] inception_5a/3x3 <- inception_5a/3x3_reduce
I0403 15:35:22.721352  3259 net.cpp:399] inception_5a/3x3 -> inception_5a/3x3
I0403 15:35:22.726634  3259 net.cpp:141] Setting up inception_5a/3x3
I0403 15:35:22.726670  3259 net.cpp:148] Top shape: 24 320 7 7 (376320)
I0403 15:35:22.726687  3259 net.cpp:156] Memory required for data: 1297544736
I0403 15:35:22.726707  3259 layer_factory.hpp:77] Creating layer inception_5a/relu_3x3
I0403 15:35:22.726730  3259 net.cpp:91] Creating Layer inception_5a/relu_3x3
I0403 15:35:22.726760  3259 net.cpp:425] inception_5a/relu_3x3 <- inception_5a/3x3
I0403 15:35:22.726779  3259 net.cpp:386] inception_5a/relu_3x3 -> inception_5a/3x3 (in-place)
I0403 15:35:22.727089  3259 net.cpp:141] Setting up inception_5a/relu_3x3
I0403 15:35:22.727115  3259 net.cpp:148] Top shape: 24 320 7 7 (376320)
I0403 15:35:22.727133  3259 net.cpp:156] Memory required for data: 1299050016
I0403 15:35:22.727149  3259 layer_factory.hpp:77] Creating layer inception_5a/5x5_reduce
I0403 15:35:22.727175  3259 net.cpp:91] Creating Layer inception_5a/5x5_reduce
I0403 15:35:22.727195  3259 net.cpp:425] inception_5a/5x5_reduce <- pool4/3x3_s2_pool4/3x3_s2_0_split_2
I0403 15:35:22.727216  3259 net.cpp:399] inception_5a/5x5_reduce -> inception_5a/5x5_reduce
I0403 15:35:22.728468  3259 net.cpp:141] Setting up inception_5a/5x5_reduce
I0403 15:35:22.728502  3259 net.cpp:148] Top shape: 24 32 7 7 (37632)
I0403 15:35:22.728519  3259 net.cpp:156] Memory required for data: 1299200544
I0403 15:35:22.728539  3259 layer_factory.hpp:77] Creating layer inception_5a/relu_5x5_reduce
I0403 15:35:22.728559  3259 net.cpp:91] Creating Layer inception_5a/relu_5x5_reduce
I0403 15:35:22.728576  3259 net.cpp:425] inception_5a/relu_5x5_reduce <- inception_5a/5x5_reduce
I0403 15:35:22.728597  3259 net.cpp:386] inception_5a/relu_5x5_reduce -> inception_5a/5x5_reduce (in-place)
I0403 15:35:22.728906  3259 net.cpp:141] Setting up inception_5a/relu_5x5_reduce
I0403 15:35:22.728935  3259 net.cpp:148] Top shape: 24 32 7 7 (37632)
I0403 15:35:22.728950  3259 net.cpp:156] Memory required for data: 1299351072
I0403 15:35:22.728966  3259 layer_factory.hpp:77] Creating layer inception_5a/5x5
I0403 15:35:22.728991  3259 net.cpp:91] Creating Layer inception_5a/5x5
I0403 15:35:22.729009  3259 net.cpp:425] inception_5a/5x5 <- inception_5a/5x5_reduce
I0403 15:35:22.729032  3259 net.cpp:399] inception_5a/5x5 -> inception_5a/5x5
I0403 15:35:22.730837  3259 net.cpp:141] Setting up inception_5a/5x5
I0403 15:35:22.730895  3259 net.cpp:148] Top shape: 24 128 7 7 (150528)
I0403 15:35:22.730911  3259 net.cpp:156] Memory required for data: 1299953184
I0403 15:35:22.730931  3259 layer_factory.hpp:77] Creating layer inception_5a/relu_5x5
I0403 15:35:22.730952  3259 net.cpp:91] Creating Layer inception_5a/relu_5x5
I0403 15:35:22.730970  3259 net.cpp:425] inception_5a/relu_5x5 <- inception_5a/5x5
I0403 15:35:22.730989  3259 net.cpp:386] inception_5a/relu_5x5 -> inception_5a/5x5 (in-place)
I0403 15:35:22.731186  3259 net.cpp:141] Setting up inception_5a/relu_5x5
I0403 15:35:22.731212  3259 net.cpp:148] Top shape: 24 128 7 7 (150528)
I0403 15:35:22.731228  3259 net.cpp:156] Memory required for data: 1300555296
I0403 15:35:22.731250  3259 layer_factory.hpp:77] Creating layer inception_5a/pool
I0403 15:35:22.731269  3259 net.cpp:91] Creating Layer inception_5a/pool
I0403 15:35:22.731287  3259 net.cpp:425] inception_5a/pool <- pool4/3x3_s2_pool4/3x3_s2_0_split_3
I0403 15:35:22.731309  3259 net.cpp:399] inception_5a/pool -> inception_5a/pool
I0403 15:35:22.731385  3259 net.cpp:141] Setting up inception_5a/pool
I0403 15:35:22.731410  3259 net.cpp:148] Top shape: 24 832 7 7 (978432)
I0403 15:35:22.731427  3259 net.cpp:156] Memory required for data: 1304469024
I0403 15:35:22.731442  3259 layer_factory.hpp:77] Creating layer inception_5a/pool_proj
I0403 15:35:22.731467  3259 net.cpp:91] Creating Layer inception_5a/pool_proj
I0403 15:35:22.731487  3259 net.cpp:425] inception_5a/pool_proj <- inception_5a/pool
I0403 15:35:22.731505  3259 net.cpp:399] inception_5a/pool_proj -> inception_5a/pool_proj
I0403 15:35:22.733943  3259 net.cpp:141] Setting up inception_5a/pool_proj
I0403 15:35:22.733973  3259 net.cpp:148] Top shape: 24 128 7 7 (150528)
I0403 15:35:22.733990  3259 net.cpp:156] Memory required for data: 1305071136
I0403 15:35:22.734009  3259 layer_factory.hpp:77] Creating layer inception_5a/relu_pool_proj
I0403 15:35:22.734030  3259 net.cpp:91] Creating Layer inception_5a/relu_pool_proj
I0403 15:35:22.734047  3259 net.cpp:425] inception_5a/relu_pool_proj <- inception_5a/pool_proj
I0403 15:35:22.734066  3259 net.cpp:386] inception_5a/relu_pool_proj -> inception_5a/pool_proj (in-place)
I0403 15:35:22.734379  3259 net.cpp:141] Setting up inception_5a/relu_pool_proj
I0403 15:35:22.734406  3259 net.cpp:148] Top shape: 24 128 7 7 (150528)
I0403 15:35:22.734421  3259 net.cpp:156] Memory required for data: 1305673248
I0403 15:35:22.734437  3259 layer_factory.hpp:77] Creating layer inception_5a/output
I0403 15:35:22.734457  3259 net.cpp:91] Creating Layer inception_5a/output
I0403 15:35:22.734477  3259 net.cpp:425] inception_5a/output <- inception_5a/1x1
I0403 15:35:22.734494  3259 net.cpp:425] inception_5a/output <- inception_5a/3x3
I0403 15:35:22.734511  3259 net.cpp:425] inception_5a/output <- inception_5a/5x5
I0403 15:35:22.734527  3259 net.cpp:425] inception_5a/output <- inception_5a/pool_proj
I0403 15:35:22.734545  3259 net.cpp:399] inception_5a/output -> inception_5a/output
I0403 15:35:22.734601  3259 net.cpp:141] Setting up inception_5a/output
I0403 15:35:22.734624  3259 net.cpp:148] Top shape: 24 832 7 7 (978432)
I0403 15:35:22.734640  3259 net.cpp:156] Memory required for data: 1309586976
I0403 15:35:22.734657  3259 layer_factory.hpp:77] Creating layer inception_5a/output_inception_5a/output_0_split
I0403 15:35:22.734674  3259 net.cpp:91] Creating Layer inception_5a/output_inception_5a/output_0_split
I0403 15:35:22.734690  3259 net.cpp:425] inception_5a/output_inception_5a/output_0_split <- inception_5a/output
I0403 15:35:22.734712  3259 net.cpp:399] inception_5a/output_inception_5a/output_0_split -> inception_5a/output_inception_5a/output_0_split_0
I0403 15:35:22.734735  3259 net.cpp:399] inception_5a/output_inception_5a/output_0_split -> inception_5a/output_inception_5a/output_0_split_1
I0403 15:35:22.734756  3259 net.cpp:399] inception_5a/output_inception_5a/output_0_split -> inception_5a/output_inception_5a/output_0_split_2
I0403 15:35:22.734779  3259 net.cpp:399] inception_5a/output_inception_5a/output_0_split -> inception_5a/output_inception_5a/output_0_split_3
I0403 15:35:22.734894  3259 net.cpp:141] Setting up inception_5a/output_inception_5a/output_0_split
I0403 15:35:22.734921  3259 net.cpp:148] Top shape: 24 832 7 7 (978432)
I0403 15:35:22.734938  3259 net.cpp:148] Top shape: 24 832 7 7 (978432)
I0403 15:35:22.734954  3259 net.cpp:148] Top shape: 24 832 7 7 (978432)
I0403 15:35:22.734971  3259 net.cpp:148] Top shape: 24 832 7 7 (978432)
I0403 15:35:22.734985  3259 net.cpp:156] Memory required for data: 1325241888
I0403 15:35:22.735000  3259 layer_factory.hpp:77] Creating layer inception_5b/1x1
I0403 15:35:22.735023  3259 net.cpp:91] Creating Layer inception_5b/1x1
I0403 15:35:22.735041  3259 net.cpp:425] inception_5b/1x1 <- inception_5a/output_inception_5a/output_0_split_0
I0403 15:35:22.735064  3259 net.cpp:399] inception_5b/1x1 -> inception_5b/1x1
I0403 15:35:22.739114  3259 net.cpp:141] Setting up inception_5b/1x1
I0403 15:35:22.739145  3259 net.cpp:148] Top shape: 24 384 7 7 (451584)
I0403 15:35:22.739161  3259 net.cpp:156] Memory required for data: 1327048224
I0403 15:35:22.739181  3259 layer_factory.hpp:77] Creating layer inception_5b/relu_1x1
I0403 15:35:22.739202  3259 net.cpp:91] Creating Layer inception_5b/relu_1x1
I0403 15:35:22.739223  3259 net.cpp:425] inception_5b/relu_1x1 <- inception_5b/1x1
I0403 15:35:22.739244  3259 net.cpp:386] inception_5b/relu_1x1 -> inception_5b/1x1 (in-place)
I0403 15:35:22.739570  3259 net.cpp:141] Setting up inception_5b/relu_1x1
I0403 15:35:22.739598  3259 net.cpp:148] Top shape: 24 384 7 7 (451584)
I0403 15:35:22.739614  3259 net.cpp:156] Memory required for data: 1328854560
I0403 15:35:22.739629  3259 layer_factory.hpp:77] Creating layer inception_5b/3x3_reduce
I0403 15:35:22.739653  3259 net.cpp:91] Creating Layer inception_5b/3x3_reduce
I0403 15:35:22.739672  3259 net.cpp:425] inception_5b/3x3_reduce <- inception_5a/output_inception_5a/output_0_split_1
I0403 15:35:22.739696  3259 net.cpp:399] inception_5b/3x3_reduce -> inception_5b/3x3_reduce
I0403 15:35:22.742627  3259 net.cpp:141] Setting up inception_5b/3x3_reduce
I0403 15:35:22.742662  3259 net.cpp:148] Top shape: 24 192 7 7 (225792)
I0403 15:35:22.742679  3259 net.cpp:156] Memory required for data: 1329757728
I0403 15:35:22.742698  3259 layer_factory.hpp:77] Creating layer inception_5b/relu_3x3_reduce
I0403 15:35:22.742720  3259 net.cpp:91] Creating Layer inception_5b/relu_3x3_reduce
I0403 15:35:22.742739  3259 net.cpp:425] inception_5b/relu_3x3_reduce <- inception_5b/3x3_reduce
I0403 15:35:22.742758  3259 net.cpp:386] inception_5b/relu_3x3_reduce -> inception_5b/3x3_reduce (in-place)
I0403 15:35:22.742952  3259 net.cpp:141] Setting up inception_5b/relu_3x3_reduce
I0403 15:35:22.742981  3259 net.cpp:148] Top shape: 24 192 7 7 (225792)
I0403 15:35:22.742997  3259 net.cpp:156] Memory required for data: 1330660896
I0403 15:35:22.743013  3259 layer_factory.hpp:77] Creating layer inception_5b/3x3
I0403 15:35:22.743036  3259 net.cpp:91] Creating Layer inception_5b/3x3
I0403 15:35:22.743054  3259 net.cpp:425] inception_5b/3x3 <- inception_5b/3x3_reduce
I0403 15:35:22.743074  3259 net.cpp:399] inception_5b/3x3 -> inception_5b/3x3
I0403 15:35:22.750097  3259 net.cpp:141] Setting up inception_5b/3x3
I0403 15:35:22.750146  3259 net.cpp:148] Top shape: 24 384 7 7 (451584)
I0403 15:35:22.750164  3259 net.cpp:156] Memory required for data: 1332467232
I0403 15:35:22.750185  3259 layer_factory.hpp:77] Creating layer inception_5b/relu_3x3
I0403 15:35:22.750206  3259 net.cpp:91] Creating Layer inception_5b/relu_3x3
I0403 15:35:22.750226  3259 net.cpp:425] inception_5b/relu_3x3 <- inception_5b/3x3
I0403 15:35:22.750249  3259 net.cpp:386] inception_5b/relu_3x3 -> inception_5b/3x3 (in-place)
I0403 15:35:22.750565  3259 net.cpp:141] Setting up inception_5b/relu_3x3
I0403 15:35:22.750592  3259 net.cpp:148] Top shape: 24 384 7 7 (451584)
I0403 15:35:22.750608  3259 net.cpp:156] Memory required for data: 1334273568
I0403 15:35:22.750623  3259 layer_factory.hpp:77] Creating layer inception_5b/5x5_reduce
I0403 15:35:22.750670  3259 net.cpp:91] Creating Layer inception_5b/5x5_reduce
I0403 15:35:22.750691  3259 net.cpp:425] inception_5b/5x5_reduce <- inception_5a/output_inception_5a/output_0_split_2
I0403 15:35:22.750715  3259 net.cpp:399] inception_5b/5x5_reduce -> inception_5b/5x5_reduce
I0403 15:35:22.752046  3259 net.cpp:141] Setting up inception_5b/5x5_reduce
I0403 15:35:22.752075  3259 net.cpp:148] Top shape: 24 48 7 7 (56448)
I0403 15:35:22.752092  3259 net.cpp:156] Memory required for data: 1334499360
I0403 15:35:22.752112  3259 layer_factory.hpp:77] Creating layer inception_5b/relu_5x5_reduce
I0403 15:35:22.752133  3259 net.cpp:91] Creating Layer inception_5b/relu_5x5_reduce
I0403 15:35:22.752151  3259 net.cpp:425] inception_5b/relu_5x5_reduce <- inception_5b/5x5_reduce
I0403 15:35:22.752171  3259 net.cpp:386] inception_5b/relu_5x5_reduce -> inception_5b/5x5_reduce (in-place)
I0403 15:35:22.752559  3259 net.cpp:141] Setting up inception_5b/relu_5x5_reduce
I0403 15:35:22.752588  3259 net.cpp:148] Top shape: 24 48 7 7 (56448)
I0403 15:35:22.752604  3259 net.cpp:156] Memory required for data: 1334725152
I0403 15:35:22.752620  3259 layer_factory.hpp:77] Creating layer inception_5b/5x5
I0403 15:35:22.752641  3259 net.cpp:91] Creating Layer inception_5b/5x5
I0403 15:35:22.752660  3259 net.cpp:425] inception_5b/5x5 <- inception_5b/5x5_reduce
I0403 15:35:22.752681  3259 net.cpp:399] inception_5b/5x5 -> inception_5b/5x5
I0403 15:35:22.754863  3259 net.cpp:141] Setting up inception_5b/5x5
I0403 15:35:22.754899  3259 net.cpp:148] Top shape: 24 128 7 7 (150528)
I0403 15:35:22.754916  3259 net.cpp:156] Memory required for data: 1335327264
I0403 15:35:22.754936  3259 layer_factory.hpp:77] Creating layer inception_5b/relu_5x5
I0403 15:35:22.754956  3259 net.cpp:91] Creating Layer inception_5b/relu_5x5
I0403 15:35:22.754973  3259 net.cpp:425] inception_5b/relu_5x5 <- inception_5b/5x5
I0403 15:35:22.754992  3259 net.cpp:386] inception_5b/relu_5x5 -> inception_5b/5x5 (in-place)
I0403 15:35:22.755197  3259 net.cpp:141] Setting up inception_5b/relu_5x5
I0403 15:35:22.755223  3259 net.cpp:148] Top shape: 24 128 7 7 (150528)
I0403 15:35:22.755237  3259 net.cpp:156] Memory required for data: 1335929376
I0403 15:35:22.755259  3259 layer_factory.hpp:77] Creating layer inception_5b/pool
I0403 15:35:22.755277  3259 net.cpp:91] Creating Layer inception_5b/pool
I0403 15:35:22.755295  3259 net.cpp:425] inception_5b/pool <- inception_5a/output_inception_5a/output_0_split_3
I0403 15:35:22.755317  3259 net.cpp:399] inception_5b/pool -> inception_5b/pool
I0403 15:35:22.755394  3259 net.cpp:141] Setting up inception_5b/pool
I0403 15:35:22.755421  3259 net.cpp:148] Top shape: 24 832 7 7 (978432)
I0403 15:35:22.755437  3259 net.cpp:156] Memory required for data: 1339843104
I0403 15:35:22.755453  3259 layer_factory.hpp:77] Creating layer inception_5b/pool_proj
I0403 15:35:22.755477  3259 net.cpp:91] Creating Layer inception_5b/pool_proj
I0403 15:35:22.755496  3259 net.cpp:425] inception_5b/pool_proj <- inception_5b/pool
I0403 15:35:22.755516  3259 net.cpp:399] inception_5b/pool_proj -> inception_5b/pool_proj
I0403 15:35:22.757949  3259 net.cpp:141] Setting up inception_5b/pool_proj
I0403 15:35:22.757982  3259 net.cpp:148] Top shape: 24 128 7 7 (150528)
I0403 15:35:22.757997  3259 net.cpp:156] Memory required for data: 1340445216
I0403 15:35:22.758018  3259 layer_factory.hpp:77] Creating layer inception_5b/relu_pool_proj
I0403 15:35:22.758039  3259 net.cpp:91] Creating Layer inception_5b/relu_pool_proj
I0403 15:35:22.758057  3259 net.cpp:425] inception_5b/relu_pool_proj <- inception_5b/pool_proj
I0403 15:35:22.758076  3259 net.cpp:386] inception_5b/relu_pool_proj -> inception_5b/pool_proj (in-place)
I0403 15:35:22.758391  3259 net.cpp:141] Setting up inception_5b/relu_pool_proj
I0403 15:35:22.758420  3259 net.cpp:148] Top shape: 24 128 7 7 (150528)
I0403 15:35:22.758436  3259 net.cpp:156] Memory required for data: 1341047328
I0403 15:35:22.758453  3259 layer_factory.hpp:77] Creating layer inception_5b/output
I0403 15:35:22.758476  3259 net.cpp:91] Creating Layer inception_5b/output
I0403 15:35:22.758515  3259 net.cpp:425] inception_5b/output <- inception_5b/1x1
I0403 15:35:22.758534  3259 net.cpp:425] inception_5b/output <- inception_5b/3x3
I0403 15:35:22.758553  3259 net.cpp:425] inception_5b/output <- inception_5b/5x5
I0403 15:35:22.758570  3259 net.cpp:425] inception_5b/output <- inception_5b/pool_proj
I0403 15:35:22.758589  3259 net.cpp:399] inception_5b/output -> inception_5b/output
I0403 15:35:22.758646  3259 net.cpp:141] Setting up inception_5b/output
I0403 15:35:22.758671  3259 net.cpp:148] Top shape: 24 1024 7 7 (1204224)
I0403 15:35:22.758687  3259 net.cpp:156] Memory required for data: 1345864224
I0403 15:35:22.758702  3259 layer_factory.hpp:77] Creating layer pool5/7x7_s1
I0403 15:35:22.758723  3259 net.cpp:91] Creating Layer pool5/7x7_s1
I0403 15:35:22.758740  3259 net.cpp:425] pool5/7x7_s1 <- inception_5b/output
I0403 15:35:22.758762  3259 net.cpp:399] pool5/7x7_s1 -> pool5/7x7_s1
I0403 15:35:22.758986  3259 net.cpp:141] Setting up pool5/7x7_s1
I0403 15:35:22.759014  3259 net.cpp:148] Top shape: 24 1024 1 1 (24576)
I0403 15:35:22.759032  3259 net.cpp:156] Memory required for data: 1345962528
I0403 15:35:22.759047  3259 layer_factory.hpp:77] Creating layer pool5/drop_7x7_s1
I0403 15:35:22.759066  3259 net.cpp:91] Creating Layer pool5/drop_7x7_s1
I0403 15:35:22.759083  3259 net.cpp:425] pool5/drop_7x7_s1 <- pool5/7x7_s1
I0403 15:35:22.759100  3259 net.cpp:386] pool5/drop_7x7_s1 -> pool5/7x7_s1 (in-place)
I0403 15:35:22.759155  3259 net.cpp:141] Setting up pool5/drop_7x7_s1
I0403 15:35:22.759181  3259 net.cpp:148] Top shape: 24 1024 1 1 (24576)
I0403 15:35:22.759196  3259 net.cpp:156] Memory required for data: 1346060832
I0403 15:35:22.759210  3259 layer_factory.hpp:77] Creating layer loss3/classifier_plantvillage
I0403 15:35:22.759233  3259 net.cpp:91] Creating Layer loss3/classifier_plantvillage
I0403 15:35:22.759255  3259 net.cpp:425] loss3/classifier_plantvillage <- pool5/7x7_s1
I0403 15:35:22.759276  3259 net.cpp:399] loss3/classifier_plantvillage -> loss3/classifier_plantvillage
I0403 15:35:22.759758  3259 net.cpp:141] Setting up loss3/classifier_plantvillage
I0403 15:35:22.759783  3259 net.cpp:148] Top shape: 24 38 (912)
I0403 15:35:22.759799  3259 net.cpp:156] Memory required for data: 1346064480
I0403 15:35:22.759819  3259 layer_factory.hpp:77] Creating layer loss3/classifier_plantvillage_loss3/classifier_plantvillage_0_split
I0403 15:35:22.759838  3259 net.cpp:91] Creating Layer loss3/classifier_plantvillage_loss3/classifier_plantvillage_0_split
I0403 15:35:22.759855  3259 net.cpp:425] loss3/classifier_plantvillage_loss3/classifier_plantvillage_0_split <- loss3/classifier_plantvillage
I0403 15:35:22.759877  3259 net.cpp:399] loss3/classifier_plantvillage_loss3/classifier_plantvillage_0_split -> loss3/classifier_plantvillage_loss3/classifier_plantvillage_0_split_0
I0403 15:35:22.759899  3259 net.cpp:399] loss3/classifier_plantvillage_loss3/classifier_plantvillage_0_split -> loss3/classifier_plantvillage_loss3/classifier_plantvillage_0_split_1
I0403 15:35:22.759922  3259 net.cpp:399] loss3/classifier_plantvillage_loss3/classifier_plantvillage_0_split -> loss3/classifier_plantvillage_loss3/classifier_plantvillage_0_split_2
I0403 15:35:22.759944  3259 net.cpp:399] loss3/classifier_plantvillage_loss3/classifier_plantvillage_0_split -> loss3/classifier_plantvillage_loss3/classifier_plantvillage_0_split_3
I0403 15:35:22.760051  3259 net.cpp:141] Setting up loss3/classifier_plantvillage_loss3/classifier_plantvillage_0_split
I0403 15:35:22.760076  3259 net.cpp:148] Top shape: 24 38 (912)
I0403 15:35:22.760093  3259 net.cpp:148] Top shape: 24 38 (912)
I0403 15:35:22.760109  3259 net.cpp:148] Top shape: 24 38 (912)
I0403 15:35:22.760125  3259 net.cpp:148] Top shape: 24 38 (912)
I0403 15:35:22.760139  3259 net.cpp:156] Memory required for data: 1346079072
I0403 15:35:22.760155  3259 layer_factory.hpp:77] Creating layer loss1/loss
I0403 15:35:22.760179  3259 net.cpp:91] Creating Layer loss1/loss
I0403 15:35:22.760197  3259 net.cpp:425] loss1/loss <- loss1/classifier_plantvillage_loss1/classifier_plantvillage_0_split_0
I0403 15:35:22.760229  3259 net.cpp:425] loss1/loss <- label_data_1_split_0
…
