…
I0403 15:38:52.533118  3318 net.cpp:313] The NetState phase (1) differed from the phase (0) specified by a rule in layer data
I0403 15:38:52.534260  3318 net.cpp:49] Initializing net from parameters: 
state {
  phase: TEST
}
layer {
  name: "data"
  type: "Data"
  top: "data"
  top: "label"
  include {
    phase: TEST
  }
  transform_param {
    mirror: false
    crop_size: 224
    mean_file: "/home/mohanty/data/final_dataset/lmdb/grayscale-50-50/mean.binaryproto"
  }
  data_param {
    source: "/home/mohanty/data/final_dataset/lmdb/grayscale-50-50/test_db"
    batch_size: 24
    backend: LMDB
  }
}
layer {
  name: "conv1/7x7_s2"
  type: "Convolution"
  bottom: "data"
  top: "conv1/7x7_s2"
  param {
    lr_mult: 1
    decay_mult: 1
  }
  param {
    lr_mult: 2
    decay_mult: 0
  }
  convolution_param {
    num_output: 64
    pad: 3
    kernel_size: 7
    stride: 2
    weight_filler {
      type: "xavier"
      std: 0.1
    }
    bias_filler {
      type: "constant"
      value: 0.2
    }
  }
}
layer {
  name: "conv1/relu_7x7"
  type: "ReLU"
  bottom: "conv1/7x7_s2"
  top: "conv1/7x7_s2"
}
layer {
  name: "pool1/3x3_s2"
  type: "Pooling"
  bottom: "conv1/7x7_s2"
  top: "pool1/3x3_s2"
  pooling_param {
    pool: MAX
    kernel_size: 3
    stride: 2
  }
}
layer {
  name: "pool1/norm1"
  type: "LRN"
  bottom: "pool1/3x3_s2"
  top: "pool1/norm1"
  lrn_param {
    local_size: 5
    alpha: 0.0001
    beta: 0.75
  }
}
layer {
  name: "conv2/3x3_reduce"
  type: "Convolution"
  bottom: "pool1/norm1"
  top: "conv2/3x3_reduce"
  param {
    lr_mult: 1
    decay_mult: 1
  }
  param {
    lr_mult: 2
    decay_mult: 0
  }
  convolution_param {
    num_output: 64
    kernel_size: 1
    weight_filler {
      type: "xavier"
      std: 0.1
    }
    bias_filler {
      type: "constant"
      value: 0.2
    }
  }
}
layer {
  name: "conv2/relu_3x3_reduce"
  type: "ReLU"
  bottom: "conv2/3x3_reduce"
  top: "conv2/3x3_reduce"
}
layer {
  name: "conv2/3x3"
  type: "Convolution"
  bottom: "conv2/3x3_reduce"
  top: "conv2/3x3"
  param {
    lr_mult: 1
    decay_mult: 1
  }
  param {
    lr_mult: 2
    decay_mult: 0
  }
  convolution_param {
    num_output: 192
    pad: 1
    kernel_size: 3
    weight_filler {
      type: "xavier"
      std: 0.03
    }
    bias_filler {
      type: "constant"
      value: 0.2
    }
  }
}
layer {
  name: "conv2/relu_3x3"
  type: "ReLU"
  bottom: "conv2/3x3"
  top: "conv2/3x3"
}
layer {
  name: "conv2/norm2"
  type: "LRN"
  bottom: "conv2/3x3"
  top: "conv2/norm2"
  lrn_param {
    local_size: 5
    alpha: 0.0001
    beta: 0.75
  }
}
layer {
  name: "pool2/3x3_s2"
  type: "Pooling"
  bottom: "conv2/norm2"
  top: "pool2/3x3_s2"
  pooling_param {
    pool: MAX
    kernel_size: 3
    stride: 2
  }
}
layer {
  name: "inception_3a/1x1"
  type: "Convolution"
  bottom: "pool2/3x3_s2"
  top: "inception_3a/1x1"
  param {
    lr_mult: 1
    decay_mult: 1
  }
  param {
    lr_mult: 2
    decay_mult: 0
  }
  convolution_param {
    num_output: 64
    kernel_size: 1
    weight_filler {
      type: "xavier"
      std: 0.03
    }
    bias_filler {
      type: "constant"
      value: 0.2
    }
  }
}
layer {
  name: "inception_3a/relu_1x1"
  type: "ReLU"
  bottom: "inception_3a/1x1"
  top: "inception_3a/1x1"
}
layer {
  name: "inception_3a/3x3_reduce"
  type: "Convolution"
  bottom: "pool2/3x3_s2"
  top: "inception_3a/3x3_reduce"
  param {
    lr_mult: 1
    decay_mult: 1
  }
  param {
    lr_mult: 2
    decay_mult: 0
  }
  convolution_param {
    num_output: 96
    kernel_size: 1
    weight_filler {
      type: "xavier"
      std: 0.09
    }
    bias_filler {
      type: "constant"
      value: 0.2
    }
  }
}
layer {
  name: "inception_3a/relu_3x3_reduce"
  type: "ReLU"
  bottom: "inception_3a/3x3_reduce"
  top: "inception_3a/3x3_reduce"
}
layer {
  name: "inception_3a/3x3"
  type: "Convolution"
  bottom: "inception_3a/3x3_reduce"
  top: "inception_3a/3x3"
  param {
    lr_mult: 1
    decay_mult: 1
  }
  param {
    lr_mult: 2
    decay_mult: 0
  }
  convolution_param {
    num_output: 128
    pad: 1
    kernel_size: 3
    weight_filler {
      type: "xavier"
      std: 0.03
    }
    bias_filler {
      type: "constant"
      value: 0.2
    }
  }
}
layer {
  name: "inception_3a/relu_3x3"
  type: "ReLU"
  bottom: "inception_3a/3x3"
  top: "inception_3a/3x3"
}
layer {
  name: "inception_3a/5x5_reduce"
  type: "Convolution"
  bottom: "pool2/3x3_s2"
  top: "inception_3a/5x5_reduce"
  param {
    lr_mult: 1
    decay_mult: 1
  }
  param {
    lr_mult: 2
    decay_mult: 0
  }
  convolution_param {
    num_output: 16
    kernel_size: 1
    weight_filler {
      type: "xavier"
      std: 0.2
    }
    bias_filler {
      type: "constant"
      value: 0.2
    }
  }
}
layer {
  name: "inception_3a/relu_5x5_reduce"
  type: "ReLU"
  bottom: "inception_3a/5x5_reduce"
  top: "inception_3a/5x5_reduce"
}
layer {
  name: "inception_3a/5x5"
  type: "Convolution"
  bottom: "inception_3a/5x5_reduce"
  top: "inception_3a/5x5"
  param {
    lr_mult: 1
    decay_mult: 1
  }
  param {
    lr_mult: 2
    decay_mult: 0
  }
  convolution_param {
    num_output: 32
    pad: 2
    kernel_size: 5
    weight_filler {
      type: "xavier"
      std: 0.03
    }
    bias_filler {
      type: "constant"
      value: 0.2
    }
  }
}
layer {
  name: "inception_3a/relu_5x5"
  type: "ReLU"
  bottom: "inception_3a/5x5"
  top: "inception_3a/5x5"
}
layer {
  name: "inception_3a/pool"
  type: "Pooling"
  bottom: "pool2/3x3_s2"
  top: "inception_3a/pool"
  pooling_param {
    pool: MAX
    kernel_size: 3
    stride: 1
    pad: 1
  }
}
layer {
  name: "inception_3a/pool_proj"
  type: "Convolution"
  bottom: "inception_3a/pool"
  top: "inception_3a/pool_proj"
  param {
    lr_mult: 1
    decay_mult: 1
  }
  param {
    lr_mult: 2
    decay_mult: 0
  }
  convolution_param {
    num_output: 32
    kernel_size: 1
    weight_filler {
      type: "xavier"
      std: 0.1
    }
    bias_filler {
      type: "constant"
      value: 0.2
    }
  }
}
layer {
  name: "inception_3a/relu_pool_proj"
  type: "ReLU"
  bottom: "inception_3a/pool_proj"
  top: "inception_3a/pool_proj"
}
layer {
  name: "inception_3a/output"
  type: "Concat"
  bottom: "inception_3a/1x1"
  bottom: "inception_3a/3x3"
  bottom: "inception_3a/5x5"
  bottom: "inception_3a/pool_proj"
  top: "inception_3a/output"
}
layer {
  name: "inception_3b/1x1"
  type: "Convolution"
  bottom: "inception_3a/output"
  top: "inception_3b/1x1"
  param {
    lr_mult: 1
    decay_mult: 1
  }
  param {
    lr_mult: 2
    decay_mult: 0
  }
  convolution_param {
    num_output: 128
    kernel_size: 1
    weight_filler {
      type: "xavier"
      std: 0.03
    }
    bias_filler {
      type: "constant"
      value: 0.2
    }
  }
}
layer {
  name: "inception_3b/relu_1x1"
  type: "ReLU"
  bottom: "inception_3b/1x1"
  top: "inception_3b/1x1"
}
layer {
  name: "inception_3b/3x3_reduce"
  type: "Convolution"
  bottom: "inception_3a/output"
  top: "inception_3b/3x3_reduce"
  param {
    lr_mult: 1
    decay_mult: 1
  }
  param {
    lr_mult: 2
    decay_mult: 0
  }
  convolution_param {
    num_output: 128
    kernel_size: 1
    weight_filler {
      type: "xavier"
      std: 0.09
    }
    bias_filler {
      type: "constant"
      value: 0.2
    }
  }
}
layer {
  name: "inception_3b/relu_3x3_reduce"
  type: "ReLU"
  bottom: "inception_3b/3x3_reduce"
  top: "inception_3b/3x3_reduce"
}
layer {
  name: "inception_3b/3x3"
  type: "Convolution"
  bottom: "inception_3b/3x3_reduce"
  top: "inception_3b/3x3"
  param {
    lr_mult: 1
    decay_mult: 1
  }
  param {
    lr_mult: 2
    decay_mult: 0
  }
  convolution_param {
    num_output: 192
    pad: 1
    kernel_size: 3
    weight_filler {
      type: "xavier"
      std: 0.03
    }
    bias_filler {
      type: "constant"
      value: 0.2
    }
  }
}
layer {
  name: "inception_3b/relu_3x3"
  type: "ReLU"
  bottom: "inception_3b/3x3"
  top: "inception_3b/3x3"
}
layer {
  name: "inception_3b/5x5_reduce"
  type: "Convolution"
  bottom: "inception_3a/output"
  top: "inception_3b/5x5_reduce"
  param {
    lr_mult: 1
    decay_mult: 1
  }
  param {
    lr_mult: 2
    decay_mult: 0
  }
  convolution_param {
    num_output: 32
    kernel_size: 1
    weight_filler {
      type: "xavier"
      std: 0.2
    }
    bias_filler {
      type: "constant"
      value: 0.2
    }
  }
}
layer {
  name: "inception_3b/relu_5x5_reduce"
  type: "ReLU"
  bottom: "inception_3b/5x5_reduce"
  top: "inception_3b/5x5_reduce"
}
layer {
  name: "inception_3b/5x5"
  type: "Convolution"
  bottom: "inception_3b/5x5_reduce"
  top: "inception_3b/5x5"
  param {
    lr_mult: 1
    decay_mult: 1
  }
  param {
    lr_mult: 2
    decay_mult: 0
  }
  convolution_param {
    num_output: 96
    pad: 2
    kernel_size: 5
    weight_filler {
      type: "xavier"
      std: 0.03
    }
    bias_filler {
      type: "constant"
      value: 0.2
    }
  }
}
layer {
  name: "inception_3b/relu_5x5"
  type: "ReLU"
  bottom: "inception_3b/5x5"
  top: "inception_3b/5x5"
}
layer {
  name: "inception_3b/pool"
  type: "Pooling"
  bottom: "inception_3a/output"
  top: "inception_3b/pool"
  pooling_param {
    pool: MAX
    kernel_size: 3
    stride: 1
    pad: 1
  }
}
layer {
  name: "inception_3b/pool_proj"
  type: "Convolution"
  bottom: "inception_3b/pool"
  top: "inception_3b/pool_proj"
  param {
    lr_mult: 1
    decay_mult: 1
  }
  param {
    lr_mult: 2
    decay_mult: 0
  }
  convolution_param {
    num_output: 64
    kernel_size: 1
    weight_filler {
      type: "xavier"
      std: 0.1
    }
    bias_filler {
      type: "constant"
      value: 0.2
    }
  }
}
layer {
  name: "inception_3b/relu_pool_proj"
  type: "ReLU"
  bottom: "inception_3b/pool_proj"
  top: "inception_3b/pool_proj"
}
layer {
  name: "inception_3b/output"
  type: "Concat"
  bottom: "inception_3b/1x1"
  bottom: "inception_3b/3x3"
  bottom: "inception_3b/5x5"
  bottom: "inception_3b/pool_proj"
  top: "inception_3b/output"
}
layer {
  name: "pool3/3x3_s2"
  type: "Pooling"
  bottom: "inception_3b/output"
  top: "pool3/3x3_s2"
  pooling_param {
    pool: MAX
    kernel_size: 3
    stride: 2
  }
}
layer {
  name: "inception_4a/1x1"
  type: "Convolution"
  bottom: "pool3/3x3_s2"
  top: "inception_4a/1x1"
  param {
    lr_mult: 1
    decay_mult: 1
  }
  param {
    lr_mult: 2
    decay_mult: 0
  }
  convolution_param {
    num_output: 192
    kernel_size: 1
    weight_filler {
      type: "xavier"
      std: 0.03
    }
    bias_filler {
      type: "constant"
      value: 0.2
    }
  }
}
layer {
  name: "inception_4a/relu_1x1"
  type: "ReLU"
  bottom: "inception_4a/1x1"
  top: "inception_4a/1x1"
}
layer {
  name: "inception_4a/3x3_reduce"
  type: "Convolution"
  bottom: "pool3/3x3_s2"
  top: "inception_4a/3x3_reduce"
  param {
    lr_mult: 1
    decay_mult: 1
  }
  param {
    lr_mult: 2
    decay_mult: 0
  }
  convolution_param {
    num_output: 96
    kernel_size: 1
    weight_filler {
      type: "xavier"
      std: 0.09
    }
    bias_filler {
      type: "constant"
      value: 0.2
    }
  }
}
layer {
  name: "inception_4a/relu_3x3_reduce"
  type: "ReLU"
  bottom: "inception_4a/3x3_reduce"
  top: "inception_4a/3x3_reduce"
}
layer {
  name: "inception_4a/3x3"
  type: "Convolution"
  bottom: "inception_4a/3x3_reduce"
  top: "inception_4a/3x3"
  param {
    lr_mult: 1
    decay_mult: 1
  }
  param {
    lr_mult: 2
    decay_mult: 0
  }
  convolution_param {
    num_output: 208
    pad: 1
    kernel_size: 3
    weight_filler {
      type: "xavier"
      std: 0.03
    }
    bias_filler {
      type: "constant"
      value: 0.2
    }
  }
}
layer {
  name: "inception_4a/relu_3x3"
  type: "ReLU"
  bottom: "inception_4a/3x3"
  top: "inception_4a/3x3"
}
layer {
  name: "inception_4a/5x5_reduce"
  type: "Convolution"
  bottom: "pool3/3x3_s2"
  top: "inception_4a/5x5_reduce"
  param {
    lr_mult: 1
    decay_mult: 1
  }
  param {
    lr_mult: 2
    decay_mult: 0
  }
  convolution_param {
    num_output: 16
    kernel_size: 1
    weight_filler {
      type: "xavier"
      std: 0.2
    }
    bias_filler {
      type: "constant"
      value: 0.2
    }
  }
}
layer {
  name: "inception_4a/relu_5x5_reduce"
  type: "ReLU"
  bottom: "inception_4a/5x5_reduce"
  top: "inception_4a/5x5_reduce"
}
layer {
  name: "inception_4a/5x5"
  type: "Convolution"
  bottom: "inception_4a/5x5_reduce"
  top: "inception_4a/5x5"
  param {
    lr_mult: 1
    decay_mult: 1
  }
  param {
    lr_mult: 2
    decay_mult: 0
  }
  convolution_param {
    num_output: 48
    pad: 2
    kernel_size: 5
    weight_filler {
      type: "xavier"
      std: 0.03
    }
    bias_filler {
      type: "constant"
      value: 0.2
    }
  }
}
layer {
  name: "inception_4a/relu_5x5"
  type: "ReLU"
  bottom: "inception_4a/5x5"
  top: "inception_4a/5x5"
}
layer {
  name: "inception_4a/pool"
  type: "Pooling"
  bottom: "pool3/3x3_s2"
  top: "inception_4a/pool"
  pooling_param {
    pool: MAX
    kernel_size: 3
    stride: 1
    pad: 1
  }
}
layer {
  name: "inception_4a/pool_proj"
  type: "Convolution"
  bottom: "inception_4a/pool"
  top: "inception_4a/pool_proj"
  param {
    lr_mult: 1
    decay_mult: 1
  }
  param {
    lr_mult: 2
    decay_mult: 0
  }
  convolution_param {
    num_output: 64
    kernel_size: 1
    weight_filler {
      type: "xavier"
      std: 0.1
    }
    bias_filler {
      type: "constant"
      value: 0.2
    }
  }
}
layer {
  name: "inception_4a/relu_pool_proj"
  type: "ReLU"
  bottom: "inception_4a/pool_proj"
  top: "inception_4a/pool_proj"
}
layer {
  name: "inception_4a/output"
  type: "Concat"
  bottom: "inception_4a/1x1"
  bottom: "inception_4a/3x3"
  bottom: "inception_4a/5x5"
  bottom: "inception_4a/pool_proj"
  top: "inception_4a/output"
}
layer {
  name: "loss1/ave_pool"
  type: "Pooling"
  bottom: "inception_4a/output"
  top: "loss1/ave_pool"
  pooling_param {
    pool: AVE
    kernel_size: 5
    stride: 3
  }
}
layer {
  name: "loss1/conv"
  type: "Convolution"
  bottom: "loss1/ave_pool"
  top: "loss1/conv"
  param {
    lr_mult: 1
    decay_mult: 1
  }
  param {
    lr_mult: 2
    decay_mult: 0
  }
  convolution_param {
    num_output: 128
    kernel_size: 1
    weight_filler {
      type: "xavier"
      std: 0.08
    }
    bias_filler {
      type: "constant"
      value: 0.2
    }
  }
}
layer {
  name: "loss1/relu_conv"
  type: "ReLU"
  bottom: "loss1/conv"
  top: "loss1/conv"
}
layer {
  name: "loss1/fc"
  type: "InnerProduct"
  bottom: "loss1/conv"
  top: "loss1/fc"
  param {
    lr_mult: 1
    decay_mult: 1
  }
  param {
    lr_mult: 2
    decay_mult: 0
  }
  inner_product_param {
    num_output: 1024
    weight_filler {
      type: "xavier"
      std: 0.02
    }
    bias_filler {
      type: "constant"
      value: 0.2
    }
  }
}
layer {
  name: "loss1/relu_fc"
  type: "ReLU"
  bottom: "loss1/fc"
  top: "loss1/fc"
}
layer {
  name: "loss1/drop_fc"
  type: "Dropout"
  bottom: "loss1/fc"
  top: "loss1/fc"
  dropout_param {
    dropout_ratio: 0.7
  }
}
layer {
  name: "loss1/classifier_plantvillage"
  type: "InnerProduct"
  bottom: "loss1/fc"
  top: "loss1/classifier_plantvillage"
  param {
    lr_mult: 1
    decay_mult: 1
  }
  param {
    lr_mult: 2
    decay_mult: 0
  }
  inner_product_param {
    num_output: 38
    weight_filler {
      type: "xavier"
      std: 0.0009765625
    }
    bias_filler {
      type: "constant"
      value: 0
    }
  }
}
layer {
  name: "inception_4b/1x1"
  type: "Convolution"
  bottom: "inception_4a/output"
  top: "inception_4b/1x1"
  param {
    lr_mult: 1
    decay_mult: 1
  }
  param {
    lr_mult: 2
    decay_mult: 0
  }
  convolution_param {
    num_output: 160
    kernel_size: 1
    weight_filler {
      type: "xavier"
      std: 0.03
    }
    bias_filler {
      type: "constant"
      value: 0.2
    }
  }
}
layer {
  name: "inception_4b/relu_1x1"
  type: "ReLU"
  bottom: "inception_4b/1x1"
  top: "inception_4b/1x1"
}
layer {
  name: "inception_4b/3x3_reduce"
  type: "Convolution"
  bottom: "inception_4a/output"
  top: "inception_4b/3x3_reduce"
  param {
    lr_mult: 1
    decay_mult: 1
  }
  param {
    lr_mult: 2
    decay_mult: 0
  }
  convolution_param {
    num_output: 112
    kernel_size: 1
    weight_filler {
      type: "xavier"
      std: 0.09
    }
    bias_filler {
      type: "constant"
      value: 0.2
    }
  }
}
layer {
  name: "inception_4b/relu_3x3_reduce"
  type: "ReLU"
  bottom: "inception_4b/3x3_reduce"
  top: "inception_4b/3x3_reduce"
}
layer {
  name: "inception_4b/3x3"
  type: "Convolution"
  bottom: "inception_4b/3x3_reduce"
  top: "inception_4b/3x3"
  param {
    lr_mult: 1
    decay_mult: 1
  }
  param {
    lr_mult: 2
    decay_mult: 0
  }
  convolution_param {
    num_output: 224
    pad: 1
    kernel_size: 3
    weight_filler {
      type: "xavier"
      std: 0.03
    }
    bias_filler {
      type: "constant"
      value: 0.2
    }
  }
}
layer {
  name: "inception_4b/relu_3x3"
  type: "ReLU"
  bottom: "inception_4b/3x3"
  top: "inception_4b/3x3"
}
layer {
  name: "inception_4b/5x5_reduce"
  type: "Convolution"
  bottom: "inception_4a/output"
  top: "inception_4b/5x5_reduce"
  param {
    lr_mult: 1
    decay_mult: 1
  }
  param {
    lr_mult: 2
    decay_mult: 0
  }
  convolution_param {
    num_output: 24
    kernel_size: 1
    weight_filler {
      type: "xavier"
      std: 0.2
    }
    bias_filler {
      type: "constant"
      value: 0.2
    }
  }
}
layer {
  name: "inception_4b/relu_5x5_reduce"
  type: "ReLU"
  bottom: "inception_4b/5x5_reduce"
  top: "inception_4b/5x5_reduce"
}
layer {
  name: "inception_4b/5x5"
  type: "Convolution"
  bottom: "inception_4b/5x5_reduce"
  top: "inception_4b/5x5"
  param {
    lr_mult: 1
    decay_mult: 1
  }
  param {
    lr_mult: 2
    decay_mult: 0
  }
  convolution_param {
    num_output: 64
    pad: 2
    kernel_size: 5
    weight_filler {
      type: "xavier"
      std: 0.03
    }
    bias_filler {
      type: "constant"
      value: 0.2
    }
  }
}
layer {
  name: "inception_4b/relu_5x5"
  type: "ReLU"
  bottom: "inception_4b/5x5"
  top: "inception_4b/5x5"
}
layer {
  name: "inception_4b/pool"
  type: "Pooling"
  bottom: "inception_4a/output"
  top: "inception_4b/pool"
  pooling_param {
    pool: MAX
    kernel_size: 3
    stride: 1
    pad: 1
  }
}
layer {
  name: "inception_4b/pool_proj"
  type: "Convolution"
  bottom: "inception_4b/pool"
  top: "inception_4b/pool_proj"
  param {
    lr_mult: 1
    decay_mult: 1
  }
  param {
    lr_mult: 2
    decay_mult: 0
  }
  convolution_param {
    num_output: 64
    kernel_size: 1
    weight_filler {
      type: "xavier"
      std: 0.1
    }
    bias_filler {
      type: "constant"
      value: 0.2
    }
  }
}
layer {
  name: "inception_4b/relu_pool_proj"
  type: "ReLU"
  bottom: "inception_4b/pool_proj"
  top: "inception_4b/pool_proj"
}
layer {
  name: "inception_4b/output"
  type: "Concat"
  bottom: "inception_4b/1x1"
  bottom: "inception_4b/3x3"
  bottom: "inception_4b/5x5"
  bottom: "inception_4b/pool_proj"
  top: "inception_4b/output"
}
layer {
  name: "inception_4c/1x1"
  type: "Convolution"
  bottom: "inception_4b/output"
  top: "inception_4c/1x1"
  param {
    lr_mult: 1
    decay_mult: 1
  }
  param {
    lr_mult: 2
    decay_mult: 0
  }
  convolution_param {
    num_output: 128
    kernel_size: 1
    weight_filler {
      type: "xavier"
      std: 0.03
    }
    bias_filler {
      type: "constant"
      value: 0.2
    }
  }
}
layer {
  name: "inception_4c/relu_1x1"
  type: "ReLU"
  bottom: "inception_4c/1x1"
  top: "inception_4c/1x1"
}
layer {
  name: "inception_4c/3x3_reduce"
  type: "Convolution"
  bottom: "inception_4b/output"
  top: "inception_4c/3x3_reduce"
  param {
    lr_mult: 1
    decay_mult: 1
  }
  param {
    lr_mult: 2
    decay_mult: 0
  }
  convolution_param {
    num_output: 128
    kernel_size: 1
    weight_filler {
      type: "xavier"
      std: 0.09
    }
    bias_filler {
      type: "constant"
      value: 0.2
    }
  }
}
layer {
  name: "inception_4c/relu_3x3_reduce"
  type: "ReLU"
  bottom: "inception_4c/3x3_reduce"
  top: "inception_4c/3x3_reduce"
}
layer {
  name: "inception_4c/3x3"
  type: "Convolution"
  bottom: "inception_4c/3x3_reduce"
  top: "inception_4c/3x3"
  param {
    lr_mult: 1
    decay_mult: 1
  }
  param {
    lr_mult: 2
    decay_mult: 0
  }
  convolution_param {
    num_output: 256
    pad: 1
    kernel_size: 3
    weight_filler {
      type: "xavier"
      std: 0.03
    }
    bias_filler {
      type: "constant"
      value: 0.2
    }
  }
}
layer {
  name: "inception_4c/relu_3x3"
  type: "ReLU"
  bottom: "inception_4c/3x3"
  top: "inception_4c/3x3"
}
layer {
  name: "inception_4c/5x5_reduce"
  type: "Convolution"
  bottom: "inception_4b/output"
  top: "inception_4c/5x5_reduce"
  param {
    lr_mult: 1
    decay_mult: 1
  }
  param {
    lr_mult: 2
    decay_mult: 0
  }
  convolution_param {
    num_output: 24
    kernel_size: 1
    weight_filler {
      type: "xavier"
      std: 0.2
    }
    bias_filler {
      type: "constant"
      value: 0.2
    }
  }
}
layer {
  name: "inception_4c/relu_5x5_reduce"
  type: "ReLU"
  bottom: "inception_4c/5x5_reduce"
  top: "inception_4c/5x5_reduce"
}
layer {
  name: "inception_4c/5x5"
  type: "Convolution"
  bottom: "inception_4c/5x5_reduce"
  top: "inception_4c/5x5"
  param {
    lr_mult: 1
    decay_mult: 1
  }
  param {
    lr_mult: 2
    decay_mult: 0
  }
  convolution_param {
    num_output: 64
    pad: 2
    kernel_size: 5
    weight_filler {
      type: "xavier"
      std: 0.03
    }
    bias_filler {
      type: "constant"
      value: 0.2
    }
  }
}
layer {
  name: "inception_4c/relu_5x5"
  type: "ReLU"
  bottom: "inception_4c/5x5"
  top: "inception_4c/5x5"
}
layer {
  name: "inception_4c/pool"
  type: "Pooling"
  bottom: "inception_4b/output"
  top: "inception_4c/pool"
  pooling_param {
    pool: MAX
    kernel_size: 3
    stride: 1
    pad: 1
  }
}
layer {
  name: "inception_4c/pool_proj"
  type: "Convolution"
  bottom: "inception_4c/pool"
  top: "inception_4c/pool_proj"
  param {
    lr_mult: 1
    decay_mult: 1
  }
  param {
    lr_mult: 2
    decay_mult: 0
  }
  convolution_param {
    num_output: 64
    kernel_size: 1
    weight_filler {
      type: "xavier"
      std: 0.1
    }
    bias_filler {
      type: "constant"
      value: 0.2
    }
  }
}
layer {
  name: "inception_4c/relu_pool_proj"
  type: "ReLU"
  bottom: "inception_4c/pool_proj"
  top: "inception_4c/pool_proj"
}
layer {
  name: "inception_4c/output"
  type: "Concat"
  bottom: "inception_4c/1x1"
  bottom: "inception_4c/3x3"
  bottom: "inception_4c/5x5"
  bottom: "inception_4c/pool_proj"
  top: "inception_4c/output"
}
layer {
  name: "inception_4d/1x1"
  type: "Convolution"
  bottom: "inception_4c/output"
  top: "inception_4d/1x1"
  param {
    lr_mult: 1
    decay_mult: 1
  }
  param {
    lr_mult: 2
    decay_mult: 0
  }
  convolution_param {
    num_output: 112
    kernel_size: 1
    weight_filler {
      type: "xavier"
      std: 0.03
    }
    bias_filler {
      type: "constant"
      value: 0.2
    }
  }
}
layer {
  name: "inception_4d/relu_1x1"
  type: "ReLU"
  bottom: "inception_4d/1x1"
  top: "inception_4d/1x1"
}
layer {
  name: "inception_4d/3x3_reduce"
  type: "Convolution"
  bottom: "inception_4c/output"
  top: "inception_4d/3x3_reduce"
  param {
    lr_mult: 1
    decay_mult: 1
  }
  param {
    lr_mult: 2
    decay_mult: 0
  }
  convolution_param {
    num_output: 144
    kernel_size: 1
    weight_filler {
      type: "xavier"
      std: 0.09
    }
    bias_filler {
      type: "constant"
      value: 0.2
    }
  }
}
layer {
  name: "inception_4d/relu_3x3_reduce"
  type: "ReLU"
  bottom: "inception_4d/3x3_reduce"
  top: "inception_4d/3x3_reduce"
}
layer {
  name: "inception_4d/3x3"
  type: "Convolution"
  bottom: "inception_4d/3x3_reduce"
  top: "inception_4d/3x3"
  param {
    lr_mult: 1
    decay_mult: 1
  }
  param {
    lr_mult: 2
    decay_mult: 0
  }
  convolution_param {
    num_output: 288
    pad: 1
    kernel_size: 3
    weight_filler {
      type: "xavier"
      std: 0.03
    }
    bias_filler {
      type: "constant"
      value: 0.2
    }
  }
}
layer {
  name: "inception_4d/relu_3x3"
  type: "ReLU"
  bottom: "inception_4d/3x3"
  top: "inception_4d/3x3"
}
layer {
  name: "inception_4d/5x5_reduce"
  type: "Convolution"
  bottom: "inception_4c/output"
  top: "inception_4d/5x5_reduce"
  param {
    lr_mult: 1
    decay_mult: 1
  }
  param {
    lr_mult: 2
    decay_mult: 0
  }
  convolution_param {
    num_output: 32
    kernel_size: 1
    weight_filler {
      type: "xavier"
      std: 0.2
    }
    bias_filler {
      type: "constant"
      value: 0.2
    }
  }
}
layer {
  name: "inception_4d/relu_5x5_reduce"
  type: "ReLU"
  bottom: "inception_4d/5x5_reduce"
  top: "inception_4d/5x5_reduce"
}
layer {
  name: "inception_4d/5x5"
  type: "Convolution"
  bottom: "inception_4d/5x5_reduce"
  top: "inception_4d/5x5"
  param {
    lr_mult: 1
    decay_mult: 1
  }
  param {
    lr_mult: 2
    decay_mult: 0
  }
  convolution_param {
    num_output: 64
    pad: 2
    kernel_size: 5
    weight_filler {
      type: "xavier"
      std: 0.03
    }
    bias_filler {
      type: "constant"
      value: 0.2
    }
  }
}
layer {
  name: "inception_4d/relu_5x5"
  type: "ReLU"
  bottom: "inception_4d/5x5"
  top: "inception_4d/5x5"
}
layer {
  name: "inception_4d/pool"
  type: "Pooling"
  bottom: "inception_4c/output"
  top: "inception_4d/pool"
  pooling_param {
    pool: MAX
    kernel_size: 3
    stride: 1
    pad: 1
  }
}
layer {
  name: "inception_4d/pool_proj"
  type: "Convolution"
  bottom: "inception_4d/pool"
  top: "inception_4d/pool_proj"
  param {
    lr_mult: 1
    decay_mult: 1
  }
  param {
    lr_mult: 2
    decay_mult: 0
  }
  convolution_param {
    num_output: 64
    kernel_size: 1
    weight_filler {
      type: "xavier"
      std: 0.1
    }
    bias_filler {
      type: "constant"
      value: 0.2
    }
  }
}
layer {
  name: "inception_4d/relu_pool_proj"
  type: "ReLU"
  bottom: "inception_4d/pool_proj"
  top: "inception_4d/pool_proj"
}
layer {
  name: "inception_4d/output"
  type: "Concat"
  bottom: "inception_4d/1x1"
  bottom: "inception_4d/3x3"
  bottom: "inception_4d/5x5"
  bottom: "inception_4d/pool_proj"
  top: "inception_4d/output"
}
layer {
  name: "loss2/ave_pool"
  type: "Pooling"
  bottom: "inception_4d/output"
  top: "loss2/ave_pool"
  pooling_param {
    pool: AVE
    kernel_size: 5
    stride: 3
  }
}
layer {
  name: "loss2/conv"
  type: "Convolution"
  bottom: "loss2/ave_pool"
  top: "loss2/conv"
  param {
    lr_mult: 1
    decay_mult: 1
  }
  param {
    lr_mult: 2
    decay_mult: 0
  }
  convolution_param {
    num_output: 128
    kernel_size: 1
    weight_filler {
      type: "xavier"
      std: 0.08
    }
    bias_filler {
      type: "constant"
      value: 0.2
    }
  }
}
layer {
  name: "loss2/relu_conv"
  type: "ReLU"
  bottom: "loss2/conv"
  top: "loss2/conv"
}
layer {
  name: "loss2/fc"
  type: "InnerProduct"
  bottom: "loss2/conv"
  top: "loss2/fc"
  param {
    lr_mult: 1
    decay_mult: 1
  }
  param {
    lr_mult: 2
    decay_mult: 0
  }
  inner_product_param {
    num_output: 1024
    weight_filler {
      type: "xavier"
      std: 0.02
    }
    bias_filler {
      type: "constant"
      value: 0.2
    }
  }
}
layer {
  name: "loss2/relu_fc"
  type: "ReLU"
  bottom: "loss2/fc"
  top: "loss2/fc"
}
layer {
  name: "loss2/drop_fc"
  type: "Dropout"
  bottom: "loss2/fc"
  top: "loss2/fc"
  dropout_param {
    dropout_ratio: 0.7
  }
}
layer {
  name: "loss2/classifier_plantvillage"
  type: "InnerProduct"
  bottom: "loss2/fc"
  top: "loss2/classifier_plantvillage"
  param {
    lr_mult: 1
    decay_mult: 1
  }
  param {
    lr_mult: 2
    decay_mult: 0
  }
  inner_product_param {
    num_output: 38
    weight_filler {
      type: "xavier"
      std: 0.0009765625
    }
    bias_filler {
      type: "constant"
      value: 0
    }
  }
}
layer {
  name: "inception_4e/1x1"
  type: "Convolution"
  bottom: "inception_4d/output"
  top: "inception_4e/1x1"
  param {
    lr_mult: 1
    decay_mult: 1
  }
  param {
    lr_mult: 2
    decay_mult: 0
  }
  convolution_param {
    num_output: 256
    kernel_size: 1
    weight_filler {
      type: "xavier"
      std: 0.03
    }
    bias_filler {
      type: "constant"
      value: 0.2
    }
  }
}
layer {
  name: "inception_4e/relu_1x1"
  type: "ReLU"
  bottom: "inception_4e/1x1"
  top: "inception_4e/1x1"
}
layer {
  name: "inception_4e/3x3_reduce"
  type: "Convolution"
  bottom: "inception_4d/output"
  top: "inception_4e/3x3_reduce"
  param {
    lr_mult: 1
    decay_mult: 1
  }
  param {
    lr_mult: 2
    decay_mult: 0
  }
  convolution_param {
    num_output: 160
    kernel_size: 1
    weight_filler {
      type: "xavier"
      std: 0.09
    }
    bias_filler {
      type: "constant"
      value: 0.2
    }
  }
}
layer {
  name: "inception_4e/relu_3x3_reduce"
  type: "ReLU"
  bottom: "inception_4e/3x3_reduce"
  top: "inception_4e/3x3_reduce"
}
layer {
  name: "inception_4e/3x3"
  type: "Convolution"
  bottom: "inception_4e/3x3_reduce"
  top: "inception_4e/3x3"
  param {
    lr_mult: 1
    decay_mult: 1
  }
  param {
    lr_mult: 2
    decay_mult: 0
  }
  convolution_param {
    num_output: 320
    pad: 1
    kernel_size: 3
    weight_filler {
      type: "xavier"
      std: 0.03
    }
    bias_filler {
      type: "constant"
      value: 0.2
    }
  }
}
layer {
  name: "inception_4e/relu_3x3"
  type: "ReLU"
  bottom: "inception_4e/3x3"
  top: "inception_4e/3x3"
}
layer {
  name: "inception_4e/5x5_reduce"
  type: "Convolution"
  bottom: "inception_4d/output"
  top: "inception_4e/5x5_reduce"
  param {
    lr_mult: 1
    decay_mult: 1
  }
  param {
    lr_mult: 2
    decay_mult: 0
  }
  convolution_param {
    num_output: 32
    kernel_size: 1
    weight_filler {
      type: "xavier"
      std: 0.2
    }
    bias_filler {
      type: "constant"
      value: 0.2
    }
  }
}
layer {
  name: "inception_4e/relu_5x5_reduce"
  type: "ReLU"
  bottom: "inception_4e/5x5_reduce"
  top: "inception_4e/5x5_reduce"
}
layer {
  name: "inception_4e/5x5"
  type: "Convolution"
  bottom: "inception_4e/5x5_reduce"
  top: "inception_4e/
I0403 15:38:52.535472  3318 layer_factory.hpp:77] Creating layer data
I0403 15:38:52.536052  3318 net.cpp:91] Creating Layer data
I0403 15:38:52.536082  3318 net.cpp:399] data -> data
I0403 15:38:52.536131  3318 net.cpp:399] data -> label
I0403 15:38:52.536167  3318 data_transformer.cpp:25] Loading mean file from: /home/mohanty/data/final_dataset/lmdb/grayscale-50-50/mean.binaryproto
I0403 15:38:52.539067  3321 db_lmdb.cpp:38] Opened lmdb /home/mohanty/data/final_dataset/lmdb/grayscale-50-50/test_db
I0403 15:38:52.549412  3318 data_layer.cpp:41] output data size: 24,3,224,224
I0403 15:38:52.576863  3318 net.cpp:141] Setting up data
I0403 15:38:52.576967  3318 net.cpp:148] Top shape: 24 3 224 224 (3612672)
I0403 15:38:52.576989  3318 net.cpp:148] Top shape: 24 (24)
I0403 15:38:52.577005  3318 net.cpp:156] Memory required for data: 14450784
I0403 15:38:52.577033  3318 layer_factory.hpp:77] Creating layer label_data_1_split
I0403 15:38:52.577060  3318 net.cpp:91] Creating Layer label_data_1_split
I0403 15:38:52.577078  3318 net.cpp:425] label_data_1_split <- label
I0403 15:38:52.577110  3318 net.cpp:399] label_data_1_split -> label_data_1_split_0
I0403 15:38:52.577137  3318 net.cpp:399] label_data_1_split -> label_data_1_split_1
I0403 15:38:52.577158  3318 net.cpp:399] label_data_1_split -> label_data_1_split_2
I0403 15:38:52.577179  3318 net.cpp:399] label_data_1_split -> label_data_1_split_3
I0403 15:38:52.577199  3318 net.cpp:399] label_data_1_split -> label_data_1_split_4
I0403 15:38:52.577219  3318 net.cpp:399] label_data_1_split -> label_data_1_split_5
I0403 15:38:52.577239  3318 net.cpp:399] label_data_1_split -> label_data_1_split_6
I0403 15:38:52.577260  3318 net.cpp:399] label_data_1_split -> label_data_1_split_7
I0403 15:38:52.577286  3318 net.cpp:399] label_data_1_split -> label_data_1_split_8
I0403 15:38:52.577306  3318 net.cpp:399] label_data_1_split -> label_data_1_split_9
I0403 15:38:52.577424  3318 net.cpp:141] Setting up label_data_1_split
I0403 15:38:52.577446  3318 net.cpp:148] Top shape: 24 (24)
I0403 15:38:52.577464  3318 net.cpp:148] Top shape: 24 (24)
I0403 15:38:52.577505  3318 net.cpp:148] Top shape: 24 (24)
I0403 15:38:52.577522  3318 net.cpp:148] Top shape: 24 (24)
I0403 15:38:52.577538  3318 net.cpp:148] Top shape: 24 (24)
I0403 15:38:52.577554  3318 net.cpp:148] Top shape: 24 (24)
I0403 15:38:52.577570  3318 net.cpp:148] Top shape: 24 (24)
I0403 15:38:52.577586  3318 net.cpp:148] Top shape: 24 (24)
I0403 15:38:52.577601  3318 net.cpp:148] Top shape: 24 (24)
I0403 15:38:52.577617  3318 net.cpp:148] Top shape: 24 (24)
I0403 15:38:52.577661  3318 net.cpp:156] Memory required for data: 14451744
I0403 15:38:52.577678  3318 layer_factory.hpp:77] Creating layer conv1/7x7_s2
I0403 15:38:52.577710  3318 net.cpp:91] Creating Layer conv1/7x7_s2
I0403 15:38:52.577728  3318 net.cpp:425] conv1/7x7_s2 <- data
I0403 15:38:52.577749  3318 net.cpp:399] conv1/7x7_s2 -> conv1/7x7_s2
I0403 15:38:52.716374  3318 net.cpp:141] Setting up conv1/7x7_s2
I0403 15:38:52.716429  3318 net.cpp:148] Top shape: 24 64 112 112 (19267584)
I0403 15:38:52.716449  3318 net.cpp:156] Memory required for data: 91522080
I0403 15:38:52.716481  3318 layer_factory.hpp:77] Creating layer conv1/relu_7x7
I0403 15:38:52.716509  3318 net.cpp:91] Creating Layer conv1/relu_7x7
I0403 15:38:52.716528  3318 net.cpp:425] conv1/relu_7x7 <- conv1/7x7_s2
I0403 15:38:52.716548  3318 net.cpp:386] conv1/relu_7x7 -> conv1/7x7_s2 (in-place)
I0403 15:38:52.716866  3318 net.cpp:141] Setting up conv1/relu_7x7
I0403 15:38:52.716897  3318 net.cpp:148] Top shape: 24 64 112 112 (19267584)
I0403 15:38:52.716912  3318 net.cpp:156] Memory required for data: 168592416
I0403 15:38:52.716929  3318 layer_factory.hpp:77] Creating layer pool1/3x3_s2
I0403 15:38:52.716954  3318 net.cpp:91] Creating Layer pool1/3x3_s2
I0403 15:38:52.716972  3318 net.cpp:425] pool1/3x3_s2 <- conv1/7x7_s2
I0403 15:38:52.716992  3318 net.cpp:399] pool1/3x3_s2 -> pool1/3x3_s2
I0403 15:38:52.717069  3318 net.cpp:141] Setting up pool1/3x3_s2
I0403 15:38:52.717094  3318 net.cpp:148] Top shape: 24 64 56 56 (4816896)
I0403 15:38:52.717110  3318 net.cpp:156] Memory required for data: 187860000
I0403 15:38:52.717125  3318 layer_factory.hpp:77] Creating layer pool1/norm1
I0403 15:38:52.717150  3318 net.cpp:91] Creating Layer pool1/norm1
I0403 15:38:52.717169  3318 net.cpp:425] pool1/norm1 <- pool1/3x3_s2
I0403 15:38:52.717186  3318 net.cpp:399] pool1/norm1 -> pool1/norm1
I0403 15:38:52.717510  3318 net.cpp:141] Setting up pool1/norm1
I0403 15:38:52.717542  3318 net.cpp:148] Top shape: 24 64 56 56 (4816896)
I0403 15:38:52.717560  3318 net.cpp:156] Memory required for data: 207127584
I0403 15:38:52.717576  3318 layer_factory.hpp:77] Creating layer conv2/3x3_reduce
I0403 15:38:52.717603  3318 net.cpp:91] Creating Layer conv2/3x3_reduce
I0403 15:38:52.717622  3318 net.cpp:425] conv2/3x3_reduce <- pool1/norm1
I0403 15:38:52.717641  3318 net.cpp:399] conv2/3x3_reduce -> conv2/3x3_reduce
I0403 15:38:52.719136  3318 net.cpp:141] Setting up conv2/3x3_reduce
I0403 15:38:52.719166  3318 net.cpp:148] Top shape: 24 64 56 56 (4816896)
I0403 15:38:52.719183  3318 net.cpp:156] Memory required for data: 226395168
I0403 15:38:52.719205  3318 layer_factory.hpp:77] Creating layer conv2/relu_3x3_reduce
I0403 15:38:52.719228  3318 net.cpp:91] Creating Layer conv2/relu_3x3_reduce
I0403 15:38:52.719246  3318 net.cpp:425] conv2/relu_3x3_reduce <- conv2/3x3_reduce
I0403 15:38:52.719266  3318 net.cpp:386] conv2/relu_3x3_reduce -> conv2/3x3_reduce (in-place)
I0403 15:38:52.719555  3318 net.cpp:141] Setting up conv2/relu_3x3_reduce
I0403 15:38:52.719583  3318 net.cpp:148] Top shape: 24 64 56 56 (4816896)
I0403 15:38:52.719599  3318 net.cpp:156] Memory required for data: 245662752
I0403 15:38:52.719615  3318 layer_factory.hpp:77] Creating layer conv2/3x3
I0403 15:38:52.719640  3318 net.cpp:91] Creating Layer conv2/3x3
I0403 15:38:52.719663  3318 net.cpp:425] conv2/3x3 <- conv2/3x3_reduce
I0403 15:38:52.719683  3318 net.cpp:399] conv2/3x3 -> conv2/3x3
I0403 15:38:52.722205  3318 net.cpp:141] Setting up conv2/3x3
I0403 15:38:52.722237  3318 net.cpp:148] Top shape: 24 192 56 56 (14450688)
I0403 15:38:52.722254  3318 net.cpp:156] Memory required for data: 303465504
I0403 15:38:52.722287  3318 layer_factory.hpp:77] Creating layer conv2/relu_3x3
I0403 15:38:52.722313  3318 net.cpp:91] Creating Layer conv2/relu_3x3
I0403 15:38:52.722332  3318 net.cpp:425] conv2/relu_3x3 <- conv2/3x3
I0403 15:38:52.722350  3318 net.cpp:386] conv2/relu_3x3 -> conv2/3x3 (in-place)
I0403 15:38:52.722534  3318 net.cpp:141] Setting up conv2/relu_3x3
I0403 15:38:52.722561  3318 net.cpp:148] Top shape: 24 192 56 56 (14450688)
I0403 15:38:52.722607  3318 net.cpp:156] Memory required for data: 361268256
I0403 15:38:52.722625  3318 layer_factory.hpp:77] Creating layer conv2/norm2
I0403 15:38:52.722643  3318 net.cpp:91] Creating Layer conv2/norm2
I0403 15:38:52.722661  3318 net.cpp:425] conv2/norm2 <- conv2/3x3
I0403 15:38:52.722682  3318 net.cpp:399] conv2/norm2 -> conv2/norm2
I0403 15:38:52.723003  3318 net.cpp:141] Setting up conv2/norm2
I0403 15:38:52.723031  3318 net.cpp:148] Top shape: 24 192 56 56 (14450688)
I0403 15:38:52.723047  3318 net.cpp:156] Memory required for data: 419071008
I0403 15:38:52.723063  3318 layer_factory.hpp:77] Creating layer pool2/3x3_s2
I0403 15:38:52.723083  3318 net.cpp:91] Creating Layer pool2/3x3_s2
I0403 15:38:52.723098  3318 net.cpp:425] pool2/3x3_s2 <- conv2/norm2
I0403 15:38:52.723122  3318 net.cpp:399] pool2/3x3_s2 -> pool2/3x3_s2
I0403 15:38:52.723178  3318 net.cpp:141] Setting up pool2/3x3_s2
I0403 15:38:52.723201  3318 net.cpp:148] Top shape: 24 192 28 28 (3612672)
I0403 15:38:52.723217  3318 net.cpp:156] Memory required for data: 433521696
I0403 15:38:52.723232  3318 layer_factory.hpp:77] Creating layer pool2/3x3_s2_pool2/3x3_s2_0_split
I0403 15:38:52.723255  3318 net.cpp:91] Creating Layer pool2/3x3_s2_pool2/3x3_s2_0_split
I0403 15:38:52.723276  3318 net.cpp:425] pool2/3x3_s2_pool2/3x3_s2_0_split <- pool2/3x3_s2
I0403 15:38:52.723299  3318 net.cpp:399] pool2/3x3_s2_pool2/3x3_s2_0_split -> pool2/3x3_s2_pool2/3x3_s2_0_split_0
I0403 15:38:52.723321  3318 net.cpp:399] pool2/3x3_s2_pool2/3x3_s2_0_split -> pool2/3x3_s2_pool2/3x3_s2_0_split_1
I0403 15:38:52.723341  3318 net.cpp:399] pool2/3x3_s2_pool2/3x3_s2_0_split -> pool2/3x3_s2_pool2/3x3_s2_0_split_2
I0403 15:38:52.723362  3318 net.cpp:399] pool2/3x3_s2_pool2/3x3_s2_0_split -> pool2/3x3_s2_pool2/3x3_s2_0_split_3
I0403 15:38:52.723434  3318 net.cpp:141] Setting up pool2/3x3_s2_pool2/3x3_s2_0_split
I0403 15:38:52.723460  3318 net.cpp:148] Top shape: 24 192 28 28 (3612672)
I0403 15:38:52.723477  3318 net.cpp:148] Top shape: 24 192 28 28 (3612672)
I0403 15:38:52.723495  3318 net.cpp:148] Top shape: 24 192 28 28 (3612672)
I0403 15:38:52.723510  3318 net.cpp:148] Top shape: 24 192 28 28 (3612672)
I0403 15:38:52.723526  3318 net.cpp:156] Memory required for data: 491324448
I0403 15:38:52.723541  3318 layer_factory.hpp:77] Creating layer inception_3a/1x1
I0403 15:38:52.723563  3318 net.cpp:91] Creating Layer inception_3a/1x1
I0403 15:38:52.723582  3318 net.cpp:425] inception_3a/1x1 <- pool2/3x3_s2_pool2/3x3_s2_0_split_0
I0403 15:38:52.723600  3318 net.cpp:399] inception_3a/1x1 -> inception_3a/1x1
I0403 15:38:52.725181  3318 net.cpp:141] Setting up inception_3a/1x1
I0403 15:38:52.725213  3318 net.cpp:148] Top shape: 24 64 28 28 (1204224)
I0403 15:38:52.725229  3318 net.cpp:156] Memory required for data: 496141344
I0403 15:38:52.725250  3318 layer_factory.hpp:77] Creating layer inception_3a/relu_1x1
I0403 15:38:52.725275  3318 net.cpp:91] Creating Layer inception_3a/relu_1x1
I0403 15:38:52.725294  3318 net.cpp:425] inception_3a/relu_1x1 <- inception_3a/1x1
I0403 15:38:52.725313  3318 net.cpp:386] inception_3a/relu_1x1 -> inception_3a/1x1 (in-place)
I0403 15:38:52.725493  3318 net.cpp:141] Setting up inception_3a/relu_1x1
I0403 15:38:52.725519  3318 net.cpp:148] Top shape: 24 64 28 28 (1204224)
I0403 15:38:52.725535  3318 net.cpp:156] Memory required for data: 500958240
I0403 15:38:52.725553  3318 layer_factory.hpp:77] Creating layer inception_3a/3x3_reduce
I0403 15:38:52.725577  3318 net.cpp:91] Creating Layer inception_3a/3x3_reduce
I0403 15:38:52.725596  3318 net.cpp:425] inception_3a/3x3_reduce <- pool2/3x3_s2_pool2/3x3_s2_0_split_1
I0403 15:38:52.725616  3318 net.cpp:399] inception_3a/3x3_reduce -> inception_3a/3x3_reduce
I0403 15:38:52.727377  3318 net.cpp:141] Setting up inception_3a/3x3_reduce
I0403 15:38:52.727408  3318 net.cpp:148] Top shape: 24 96 28 28 (1806336)
I0403 15:38:52.727426  3318 net.cpp:156] Memory required for data: 508183584
I0403 15:38:52.727447  3318 layer_factory.hpp:77] Creating layer inception_3a/relu_3x3_reduce
I0403 15:38:52.727486  3318 net.cpp:91] Creating Layer inception_3a/relu_3x3_reduce
I0403 15:38:52.727505  3318 net.cpp:425] inception_3a/relu_3x3_reduce <- inception_3a/3x3_reduce
I0403 15:38:52.727526  3318 net.cpp:386] inception_3a/relu_3x3_reduce -> inception_3a/3x3_reduce (in-place)
I0403 15:38:52.727716  3318 net.cpp:141] Setting up inception_3a/relu_3x3_reduce
I0403 15:38:52.727742  3318 net.cpp:148] Top shape: 24 96 28 28 (1806336)
I0403 15:38:52.727758  3318 net.cpp:156] Memory required for data: 515408928
I0403 15:38:52.727773  3318 layer_factory.hpp:77] Creating layer inception_3a/3x3
I0403 15:38:52.727797  3318 net.cpp:91] Creating Layer inception_3a/3x3
I0403 15:38:52.727815  3318 net.cpp:425] inception_3a/3x3 <- inception_3a/3x3_reduce
I0403 15:38:52.727839  3318 net.cpp:399] inception_3a/3x3 -> inception_3a/3x3
I0403 15:38:52.729571  3318 net.cpp:141] Setting up inception_3a/3x3
I0403 15:38:52.729601  3318 net.cpp:148] Top shape: 24 128 28 28 (2408448)
I0403 15:38:52.729617  3318 net.cpp:156] Memory required for data: 525042720
I0403 15:38:52.729637  3318 layer_factory.hpp:77] Creating layer inception_3a/relu_3x3
I0403 15:38:52.729660  3318 net.cpp:91] Creating Layer inception_3a/relu_3x3
I0403 15:38:52.729676  3318 net.cpp:425] inception_3a/relu_3x3 <- inception_3a/3x3
I0403 15:38:52.729694  3318 net.cpp:386] inception_3a/relu_3x3 -> inception_3a/3x3 (in-place)
I0403 15:38:52.729984  3318 net.cpp:141] Setting up inception_3a/relu_3x3
I0403 15:38:52.730011  3318 net.cpp:148] Top shape: 24 128 28 28 (2408448)
I0403 15:38:52.730031  3318 net.cpp:156] Memory required for data: 534676512
I0403 15:38:52.730046  3318 layer_factory.hpp:77] Creating layer inception_3a/5x5_reduce
I0403 15:38:52.730067  3318 net.cpp:91] Creating Layer inception_3a/5x5_reduce
I0403 15:38:52.730085  3318 net.cpp:425] inception_3a/5x5_reduce <- pool2/3x3_s2_pool2/3x3_s2_0_split_2
I0403 15:38:52.730108  3318 net.cpp:399] inception_3a/5x5_reduce -> inception_3a/5x5_reduce
I0403 15:38:52.731109  3318 net.cpp:141] Setting up inception_3a/5x5_reduce
I0403 15:38:52.731142  3318 net.cpp:148] Top shape: 24 16 28 28 (301056)
I0403 15:38:52.731160  3318 net.cpp:156] Memory required for data: 535880736
I0403 15:38:52.731179  3318 layer_factory.hpp:77] Creating layer inception_3a/relu_5x5_reduce
I0403 15:38:52.731199  3318 net.cpp:91] Creating Layer inception_3a/relu_5x5_reduce
I0403 15:38:52.731216  3318 net.cpp:425] inception_3a/relu_5x5_reduce <- inception_3a/5x5_reduce
I0403 15:38:52.731235  3318 net.cpp:386] inception_3a/relu_5x5_reduce -> inception_3a/5x5_reduce (in-place)
I0403 15:38:52.731552  3318 net.cpp:141] Setting up inception_3a/relu_5x5_reduce
I0403 15:38:52.731580  3318 net.cpp:148] Top shape: 24 16 28 28 (301056)
I0403 15:38:52.731595  3318 net.cpp:156] Memory required for data: 537084960
I0403 15:38:52.731611  3318 layer_factory.hpp:77] Creating layer inception_3a/5x5
I0403 15:38:52.731636  3318 net.cpp:91] Creating Layer inception_3a/5x5
I0403 15:38:52.731653  3318 net.cpp:425] inception_3a/5x5 <- inception_3a/5x5_reduce
I0403 15:38:52.731676  3318 net.cpp:399] inception_3a/5x5 -> inception_3a/5x5
I0403 15:38:52.732733  3318 net.cpp:141] Setting up inception_3a/5x5
I0403 15:38:52.732761  3318 net.cpp:148] Top shape: 24 32 28 28 (602112)
I0403 15:38:52.732779  3318 net.cpp:156] Memory required for data: 539493408
I0403 15:38:52.732798  3318 layer_factory.hpp:77] Creating layer inception_3a/relu_5x5
I0403 15:38:52.732821  3318 net.cpp:91] Creating Layer inception_3a/relu_5x5
I0403 15:38:52.732839  3318 net.cpp:425] inception_3a/relu_5x5 <- inception_3a/5x5
I0403 15:38:52.732857  3318 net.cpp:386] inception_3a/relu_5x5 -> inception_3a/5x5 (in-place)
I0403 15:38:52.733039  3318 net.cpp:141] Setting up inception_3a/relu_5x5
I0403 15:38:52.733069  3318 net.cpp:148] Top shape: 24 32 28 28 (602112)
I0403 15:38:52.733086  3318 net.cpp:156] Memory required for data: 541901856
I0403 15:38:52.733103  3318 layer_factory.hpp:77] Creating layer inception_3a/pool
I0403 15:38:52.733121  3318 net.cpp:91] Creating Layer inception_3a/pool
I0403 15:38:52.733152  3318 net.cpp:425] inception_3a/pool <- pool2/3x3_s2_pool2/3x3_s2_0_split_3
I0403 15:38:52.733175  3318 net.cpp:399] inception_3a/pool -> inception_3a/pool
I0403 15:38:52.733235  3318 net.cpp:141] Setting up inception_3a/pool
I0403 15:38:52.733260  3318 net.cpp:148] Top shape: 24 192 28 28 (3612672)
I0403 15:38:52.733289  3318 net.cpp:156] Memory required for data: 556352544
I0403 15:38:52.733306  3318 layer_factory.hpp:77] Creating layer inception_3a/pool_proj
I0403 15:38:52.733330  3318 net.cpp:91] Creating Layer inception_3a/pool_proj
I0403 15:38:52.733348  3318 net.cpp:425] inception_3a/pool_proj <- inception_3a/pool
I0403 15:38:52.733371  3318 net.cpp:399] inception_3a/pool_proj -> inception_3a/pool_proj
I0403 15:38:52.734395  3318 net.cpp:141] Setting up inception_3a/pool_proj
I0403 15:38:52.734426  3318 net.cpp:148] Top shape: 24 32 28 28 (602112)
I0403 15:38:52.734442  3318 net.cpp:156] Memory required for data: 558760992
I0403 15:38:52.734467  3318 layer_factory.hpp:77] Creating layer inception_3a/relu_pool_proj
I0403 15:38:52.734488  3318 net.cpp:91] Creating Layer inception_3a/relu_pool_proj
I0403 15:38:52.734505  3318 net.cpp:425] inception_3a/relu_pool_proj <- inception_3a/pool_proj
I0403 15:38:52.734524  3318 net.cpp:386] inception_3a/relu_pool_proj -> inception_3a/pool_proj (in-place)
I0403 15:38:52.734818  3318 net.cpp:141] Setting up inception_3a/relu_pool_proj
I0403 15:38:52.734848  3318 net.cpp:148] Top shape: 24 32 28 28 (602112)
I0403 15:38:52.734863  3318 net.cpp:156] Memory required for data: 561169440
I0403 15:38:52.734879  3318 layer_factory.hpp:77] Creating layer inception_3a/output
I0403 15:38:52.734900  3318 net.cpp:91] Creating Layer inception_3a/output
I0403 15:38:52.734917  3318 net.cpp:425] inception_3a/output <- inception_3a/1x1
I0403 15:38:52.734935  3318 net.cpp:425] inception_3a/output <- inception_3a/3x3
I0403 15:38:52.734951  3318 net.cpp:425] inception_3a/output <- inception_3a/5x5
I0403 15:38:52.734967  3318 net.cpp:425] inception_3a/output <- inception_3a/pool_proj
I0403 15:38:52.734985  3318 net.cpp:399] inception_3a/output -> inception_3a/output
I0403 15:38:52.735036  3318 net.cpp:141] Setting up inception_3a/output
I0403 15:38:52.735060  3318 net.cpp:148] Top shape: 24 256 28 28 (4816896)
I0403 15:38:52.735076  3318 net.cpp:156] Memory required for data: 580437024
I0403 15:38:52.735091  3318 layer_factory.hpp:77] Creating layer inception_3a/output_inception_3a/output_0_split
I0403 15:38:52.735108  3318 net.cpp:91] Creating Layer inception_3a/output_inception_3a/output_0_split
I0403 15:38:52.735124  3318 net.cpp:425] inception_3a/output_inception_3a/output_0_split <- inception_3a/output
I0403 15:38:52.735146  3318 net.cpp:399] inception_3a/output_inception_3a/output_0_split -> inception_3a/output_inception_3a/output_0_split_0
I0403 15:38:52.735167  3318 net.cpp:399] inception_3a/output_inception_3a/output_0_split -> inception_3a/output_inception_3a/output_0_split_1
I0403 15:38:52.735193  3318 net.cpp:399] inception_3a/output_inception_3a/output_0_split -> inception_3a/output_inception_3a/output_0_split_2
I0403 15:38:52.735215  3318 net.cpp:399] inception_3a/output_inception_3a/output_0_split -> inception_3a/output_inception_3a/output_0_split_3
I0403 15:38:52.735301  3318 net.cpp:141] Setting up inception_3a/output_inception_3a/output_0_split
I0403 15:38:52.735324  3318 net.cpp:148] Top shape: 24 256 28 28 (4816896)
I0403 15:38:52.735342  3318 net.cpp:148] Top shape: 24 256 28 28 (4816896)
I0403 15:38:52.735358  3318 net.cpp:148] Top shape: 24 256 28 28 (4816896)
I0403 15:38:52.735375  3318 net.cpp:148] Top shape: 24 256 28 28 (4816896)
I0403 15:38:52.735391  3318 net.cpp:156] Memory required for data: 657507360
I0403 15:38:52.735406  3318 layer_factory.hpp:77] Creating layer inception_3b/1x1
I0403 15:38:52.735430  3318 net.cpp:91] Creating Layer inception_3b/1x1
I0403 15:38:52.735448  3318 net.cpp:425] inception_3b/1x1 <- inception_3a/output_inception_3a/output_0_split_0
I0403 15:38:52.735472  3318 net.cpp:399] inception_3b/1x1 -> inception_3b/1x1
I0403 15:38:52.736670  3318 net.cpp:141] Setting up inception_3b/1x1
I0403 15:38:52.736712  3318 net.cpp:148] Top shape: 24 128 28 28 (2408448)
I0403 15:38:52.736731  3318 net.cpp:156] Memory required for data: 667141152
I0403 15:38:52.736750  3318 layer_factory.hpp:77] Creating layer inception_3b/relu_1x1
I0403 15:38:52.736771  3318 net.cpp:91] Creating Layer inception_3b/relu_1x1
I0403 15:38:52.736789  3318 net.cpp:425] inception_3b/relu_1x1 <- inception_3b/1x1
I0403 15:38:52.736807  3318 net.cpp:386] inception_3b/relu_1x1 -> inception_3b/1x1 (in-place)
I0403 15:38:52.736990  3318 net.cpp:141] Setting up inception_3b/relu_1x1
I0403 15:38:52.737018  3318 net.cpp:148] Top shape: 24 128 28 28 (2408448)
I0403 15:38:52.737035  3318 net.cpp:156] Memory required for data: 676774944
I0403 15:38:52.737051  3318 layer_factory.hpp:77] Creating layer inception_3b/3x3_reduce
I0403 15:38:52.737072  3318 net.cpp:91] Creating Layer inception_3b/3x3_reduce
I0403 15:38:52.737090  3318 net.cpp:425] inception_3b/3x3_reduce <- inception_3a/output_inception_3a/output_0_split_1
I0403 15:38:52.737112  3318 net.cpp:399] inception_3b/3x3_reduce -> inception_3b/3x3_reduce
I0403 15:38:52.738308  3318 net.cpp:141] Setting up inception_3b/3x3_reduce
I0403 15:38:52.738338  3318 net.cpp:148] Top shape: 24 128 28 28 (2408448)
I0403 15:38:52.738354  3318 net.cpp:156] Memory required for data: 686408736
I0403 15:38:52.738373  3318 layer_factory.hpp:77] Creating layer inception_3b/relu_3x3_reduce
I0403 15:38:52.738396  3318 net.cpp:91] Creating Layer inception_3b/relu_3x3_reduce
I0403 15:38:52.738414  3318 net.cpp:425] inception_3b/relu_3x3_reduce <- inception_3b/3x3_reduce
I0403 15:38:52.738432  3318 net.cpp:386] inception_3b/relu_3x3_reduce -> inception_3b/3x3_reduce (in-place)
I0403 15:38:52.738611  3318 net.cpp:141] Setting up inception_3b/relu_3x3_reduce
I0403 15:38:52.738638  3318 net.cpp:148] Top shape: 24 128 28 28 (2408448)
I0403 15:38:52.738654  3318 net.cpp:156] Memory required for data: 696042528
I0403 15:38:52.738669  3318 layer_factory.hpp:77] Creating layer inception_3b/3x3
I0403 15:38:52.738697  3318 net.cpp:91] Creating Layer inception_3b/3x3
I0403 15:38:52.738715  3318 net.cpp:425] inception_3b/3x3 <- inception_3b/3x3_reduce
I0403 15:38:52.738735  3318 net.cpp:399] inception_3b/3x3 -> inception_3b/3x3
I0403 15:38:52.741783  3318 net.cpp:141] Setting up inception_3b/3x3
I0403 15:38:52.741813  3318 net.cpp:148] Top shape: 24 192 28 28 (3612672)
I0403 15:38:52.741830  3318 net.cpp:156] Memory required for data: 710493216
I0403 15:38:52.741849  3318 layer_factory.hpp:77] Creating layer inception_3b/relu_3x3
I0403 15:38:52.741871  3318 net.cpp:91] Creating Layer inception_3b/relu_3x3
I0403 15:38:52.741888  3318 net.cpp:425] inception_3b/relu_3x3 <- inception_3b/3x3
I0403 15:38:52.741907  3318 net.cpp:386] inception_3b/relu_3x3 -> inception_3b/3x3 (in-place)
I0403 15:38:52.742195  3318 net.cpp:141] Setting up inception_3b/relu_3x3
I0403 15:38:52.742223  3318 net.cpp:148] Top shape: 24 192 28 28 (3612672)
I0403 15:38:52.742239  3318 net.cpp:156] Memory required for data: 724943904
I0403 15:38:52.742255  3318 layer_factory.hpp:77] Creating layer inception_3b/5x5_reduce
I0403 15:38:52.742282  3318 net.cpp:91] Creating Layer inception_3b/5x5_reduce
I0403 15:38:52.742302  3318 net.cpp:425] inception_3b/5x5_reduce <- inception_3a/output_inception_3a/output_0_split_2
I0403 15:38:52.742326  3318 net.cpp:399] inception_3b/5x5_reduce -> inception_3b/5x5_reduce
I0403 15:38:52.743367  3318 net.cpp:141] Setting up inception_3b/5x5_reduce
I0403 15:38:52.743397  3318 net.cpp:148] Top shape: 24 32 28 28 (602112)
I0403 15:38:52.743414  3318 net.cpp:156] Memory required for data: 727352352
I0403 15:38:52.743433  3318 layer_factory.hpp:77] Creating layer inception_3b/relu_5x5_reduce
I0403 15:38:52.743455  3318 net.cpp:91] Creating Layer inception_3b/relu_5x5_reduce
I0403 15:38:52.743474  3318 net.cpp:425] inception_3b/relu_5x5_reduce <- inception_3b/5x5_reduce
I0403 15:38:52.743492  3318 net.cpp:386] inception_3b/relu_5x5_reduce -> inception_3b/5x5_reduce (in-place)
I0403 15:38:52.743691  3318 net.cpp:141] Setting up inception_3b/relu_5x5_reduce
I0403 15:38:52.743721  3318 net.cpp:148] Top shape: 24 32 28 28 (602112)
I0403 15:38:52.743736  3318 net.cpp:156] Memory required for data: 729760800
I0403 15:38:52.743752  3318 layer_factory.hpp:77] Creating layer inception_3b/5x5
I0403 15:38:52.743777  3318 net.cpp:91] Creating Layer inception_3b/5x5
I0403 15:38:52.743796  3318 net.cpp:425] inception_3b/5x5 <- inception_3b/5x5_reduce
I0403 15:38:52.743815  3318 net.cpp:399] inception_3b/5x5 -> inception_3b/5x5
I0403 15:38:52.745877  3318 net.cpp:141] Setting up inception_3b/5x5
I0403 15:38:52.745908  3318 net.cpp:148] Top shape: 24 96 28 28 (1806336)
I0403 15:38:52.745925  3318 net.cpp:156] Memory required for data: 736986144
I0403 15:38:52.745944  3318 layer_factory.hpp:77] Creating layer inception_3b/relu_5x5
I0403 15:38:52.745965  3318 net.cpp:91] Creating Layer inception_3b/relu_5x5
I0403 15:38:52.745983  3318 net.cpp:425] inception_3b/relu_5x5 <- inception_3b/5x5
I0403 15:38:52.746001  3318 net.cpp:386] inception_3b/relu_5x5 -> inception_3b/5x5 (in-place)
I0403 15:38:52.746201  3318 net.cpp:141] Setting up inception_3b/relu_5x5
I0403 15:38:52.746227  3318 net.cpp:148] Top shape: 24 96 28 28 (1806336)
I0403 15:38:52.746243  3318 net.cpp:156] Memory required for data: 744211488
I0403 15:38:52.746259  3318 layer_factory.hpp:77] Creating layer inception_3b/pool
I0403 15:38:52.746282  3318 net.cpp:91] Creating Layer inception_3b/pool
I0403 15:38:52.746300  3318 net.cpp:425] inception_3b/pool <- inception_3a/output_inception_3a/output_0_split_3
I0403 15:38:52.746320  3318 net.cpp:399] inception_3b/pool -> inception_3b/pool
I0403 15:38:52.746379  3318 net.cpp:141] Setting up inception_3b/pool
I0403 15:38:52.746403  3318 net.cpp:148] Top shape: 24 256 28 28 (4816896)
I0403 15:38:52.746418  3318 net.cpp:156] Memory required for data: 763479072
I0403 15:38:52.746434  3318 layer_factory.hpp:77] Creating layer inception_3b/pool_proj
I0403 15:38:52.746457  3318 net.cpp:91] Creating Layer inception_3b/pool_proj
I0403 15:38:52.746477  3318 net.cpp:425] inception_3b/pool_proj <- inception_3b/pool
I0403 15:38:52.746498  3318 net.cpp:399] inception_3b/pool_proj -> inception_3b/pool_proj
I0403 15:38:52.747596  3318 net.cpp:141] Setting up inception_3b/pool_proj
I0403 15:38:52.747628  3318 net.cpp:148] Top shape: 24 64 28 28 (1204224)
I0403 15:38:52.747645  3318 net.cpp:156] Memory required for data: 768295968
I0403 15:38:52.747664  3318 layer_factory.hpp:77] Creating layer inception_3b/relu_pool_proj
I0403 15:38:52.747684  3318 net.cpp:91] Creating Layer inception_3b/relu_pool_proj
I0403 15:38:52.747700  3318 net.cpp:425] inception_3b/relu_pool_proj <- inception_3b/pool_proj
I0403 15:38:52.747720  3318 net.cpp:386] inception_3b/relu_pool_proj -> inception_3b/pool_proj (in-place)
I0403 15:38:52.748132  3318 net.cpp:141] Setting up inception_3b/relu_pool_proj
I0403 15:38:52.748163  3318 net.cpp:148] Top shape: 24 64 28 28 (1204224)
I0403 15:38:52.748179  3318 net.cpp:156] Memory required for data: 773112864
I0403 15:38:52.748195  3318 layer_factory.hpp:77] Creating layer inception_3b/output
I0403 15:38:52.748214  3318 net.cpp:91] Creating Layer inception_3b/output
I0403 15:38:52.748229  3318 net.cpp:425] inception_3b/output <- inception_3b/1x1
I0403 15:38:52.748246  3318 net.cpp:425] inception_3b/output <- inception_3b/3x3
I0403 15:38:52.748263  3318 net.cpp:425] inception_3b/output <- inception_3b/5x5
I0403 15:38:52.748286  3318 net.cpp:425] inception_3b/output <- inception_3b/pool_proj
I0403 15:38:52.748306  3318 net.cpp:399] inception_3b/output -> inception_3b/output
I0403 15:38:52.748354  3318 net.cpp:141] Setting up inception_3b/output
I0403 15:38:52.748378  3318 net.cpp:148] Top shape: 24 480 28 28 (9031680)
I0403 15:38:52.748394  3318 net.cpp:156] Memory required for data: 809239584
I0403 15:38:52.748409  3318 layer_factory.hpp:77] Creating layer pool3/3x3_s2
I0403 15:38:52.748430  3318 net.cpp:91] Creating Layer pool3/3x3_s2
I0403 15:38:52.748447  3318 net.cpp:425] pool3/3x3_s2 <- inception_3b/output
I0403 15:38:52.748482  3318 net.cpp:399] pool3/3x3_s2 -> pool3/3x3_s2
I0403 15:38:52.748545  3318 net.cpp:141] Setting up pool3/3x3_s2
I0403 15:38:52.748569  3318 net.cpp:148] Top shape: 24 480 14 14 (2257920)
I0403 15:38:52.748584  3318 net.cpp:156] Memory required for data: 818271264
I0403 15:38:52.748600  3318 layer_factory.hpp:77] Creating layer pool3/3x3_s2_pool3/3x3_s2_0_split
I0403 15:38:52.748617  3318 net.cpp:91] Creating Layer pool3/3x3_s2_pool3/3x3_s2_0_split
I0403 15:38:52.748633  3318 net.cpp:425] pool3/3x3_s2_pool3/3x3_s2_0_split <- pool3/3x3_s2
I0403 15:38:52.748653  3318 net.cpp:399] pool3/3x3_s2_pool3/3x3_s2_0_split -> pool3/3x3_s2_pool3/3x3_s2_0_split_0
I0403 15:38:52.748675  3318 net.cpp:399] pool3/3x3_s2_pool3/3x3_s2_0_split -> pool3/3x3_s2_pool3/3x3_s2_0_split_1
I0403 15:38:52.748697  3318 net.cpp:399] pool3/3x3_s2_pool3/3x3_s2_0_split -> pool3/3x3_s2_pool3/3x3_s2_0_split_2
I0403 15:38:52.748716  3318 net.cpp:399] pool3/3x3_s2_pool3/3x3_s2_0_split -> pool3/3x3_s2_pool3/3x3_s2_0_split_3
I0403 15:38:52.748796  3318 net.cpp:141] Setting up pool3/3x3_s2_pool3/3x3_s2_0_split
I0403 15:38:52.748822  3318 net.cpp:148] Top shape: 24 480 14 14 (2257920)
I0403 15:38:52.748841  3318 net.cpp:148] Top shape: 24 480 14 14 (2257920)
I0403 15:38:52.748857  3318 net.cpp:148] Top shape: 24 480 14 14 (2257920)
I0403 15:38:52.748873  3318 net.cpp:148] Top shape: 24 480 14 14 (2257920)
I0403 15:38:52.748888  3318 net.cpp:156] Memory required for data: 854397984
I0403 15:38:52.748903  3318 layer_factory.hpp:77] Creating layer inception_4a/1x1
I0403 15:38:52.748926  3318 net.cpp:91] Creating Layer inception_4a/1x1
I0403 15:38:52.748945  3318 net.cpp:425] inception_4a/1x1 <- pool3/3x3_s2_pool3/3x3_s2_0_split_0
I0403 15:38:52.748965  3318 net.cpp:399] inception_4a/1x1 -> inception_4a/1x1
I0403 15:38:52.750622  3318 net.cpp:141] Setting up inception_4a/1x1
I0403 15:38:52.750654  3318 net.cpp:148] Top shape: 24 192 14 14 (903168)
I0403 15:38:52.750671  3318 net.cpp:156] Memory required for data: 858010656
I0403 15:38:52.750690  3318 layer_factory.hpp:77] Creating layer inception_4a/relu_1x1
I0403 15:38:52.750710  3318 net.cpp:91] Creating Layer inception_4a/relu_1x1
I0403 15:38:52.750726  3318 net.cpp:425] inception_4a/relu_1x1 <- inception_4a/1x1
I0403 15:38:52.750747  3318 net.cpp:386] inception_4a/relu_1x1 -> inception_4a/1x1 (in-place)
I0403 15:38:52.750932  3318 net.cpp:141] Setting up inception_4a/relu_1x1
I0403 15:38:52.750959  3318 net.cpp:148] Top shape: 24 192 14 14 (903168)
I0403 15:38:52.750975  3318 net.cpp:156] Memory required for data: 861623328
I0403 15:38:52.750990  3318 layer_factory.hpp:77] Creating layer inception_4a/3x3_reduce
I0403 15:38:52.751013  3318 net.cpp:91] Creating Layer inception_4a/3x3_reduce
I0403 15:38:52.751032  3318 net.cpp:425] inception_4a/3x3_reduce <- pool3/3x3_s2_pool3/3x3_s2_0_split_1
I0403 15:38:52.751055  3318 net.cpp:399] inception_4a/3x3_reduce -> inception_4a/3x3_reduce
I0403 15:38:52.752432  3318 net.cpp:141] Setting up inception_4a/3x3_reduce
I0403 15:38:52.752461  3318 net.cpp:148] Top shape: 24 96 14 14 (451584)
I0403 15:38:52.752477  3318 net.cpp:156] Memory required for data: 863429664
I0403 15:38:52.752507  3318 layer_factory.hpp:77] Creating layer inception_4a/relu_3x3_reduce
I0403 15:38:52.752529  3318 net.cpp:91] Creating Layer inception_4a/relu_3x3_reduce
I0403 15:38:52.752547  3318 net.cpp:425] inception_4a/relu_3x3_reduce <- inception_4a/3x3_reduce
I0403 15:38:52.752568  3318 net.cpp:386] inception_4a/relu_3x3_reduce -> inception_4a/3x3_reduce (in-place)
I0403 15:38:52.752754  3318 net.cpp:141] Setting up inception_4a/relu_3x3_reduce
I0403 15:38:52.752780  3318 net.cpp:148] Top shape: 24 96 14 14 (451584)
I0403 15:38:52.752795  3318 net.cpp:156] Memory required for data: 865236000
I0403 15:38:52.752811  3318 layer_factory.hpp:77] Creating layer inception_4a/3x3
I0403 15:38:52.752835  3318 net.cpp:91] Creating Layer inception_4a/3x3
I0403 15:38:52.752853  3318 net.cpp:425] inception_4a/3x3 <- inception_4a/3x3_reduce
I0403 15:38:52.752876  3318 net.cpp:399] inception_4a/3x3 -> inception_4a/3x3
I0403 15:38:52.755648  3318 net.cpp:141] Setting up inception_4a/3x3
I0403 15:38:52.755677  3318 net.cpp:148] Top shape: 24 208 14 14 (978432)
I0403 15:38:52.755693  3318 net.cpp:156] Memory required for data: 869149728
I0403 15:38:52.755712  3318 layer_factory.hpp:77] Creating layer inception_4a/relu_3x3
I0403 15:38:52.755733  3318 net.cpp:91] Creating Layer inception_4a/relu_3x3
I0403 15:38:52.755750  3318 net.cpp:425] inception_4a/relu_3x3 <- inception_4a/3x3
I0403 15:38:52.755767  3318 net.cpp:386] inception_4a/relu_3x3 -> inception_4a/3x3 (in-place)
I0403 15:38:52.756055  3318 net.cpp:141] Setting up inception_4a/relu_3x3
I0403 15:38:52.756083  3318 net.cpp:148] Top shape: 24 208 14 14 (978432)
I0403 15:38:52.756098  3318 net.cpp:156] Memory required for data: 873063456
I0403 15:38:52.756114  3318 layer_factory.hpp:77] Creating layer inception_4a/5x5_reduce
I0403 15:38:52.756135  3318 net.cpp:91] Creating Layer inception_4a/5x5_reduce
I0403 15:38:52.756153  3318 net.cpp:425] inception_4a/5x5_reduce <- pool3/3x3_s2_pool3/3x3_s2_0_split_2
I0403 15:38:52.756175  3318 net.cpp:399] inception_4a/5x5_reduce -> inception_4a/5x5_reduce
I0403 15:38:52.757217  3318 net.cpp:141] Setting up inception_4a/5x5_reduce
I0403 15:38:52.757244  3318 net.cpp:148] Top shape: 24 16 14 14 (75264)
I0403 15:38:52.757259  3318 net.cpp:156] Memory required for data: 873364512
I0403 15:38:52.757282  3318 layer_factory.hpp:77] Creating layer inception_4a/relu_5x5_reduce
I0403 15:38:52.757303  3318 net.cpp:91] Creating Layer inception_4a/relu_5x5_reduce
I0403 15:38:52.757320  3318 net.cpp:425] inception_4a/relu_5x5_reduce <- inception_4a/5x5_reduce
I0403 15:38:52.757339  3318 net.cpp:386] inception_4a/relu_5x5_reduce -> inception_4a/5x5_reduce (in-place)
I0403 15:38:52.757516  3318 net.cpp:141] Setting up inception_4a/relu_5x5_reduce
I0403 15:38:52.757544  3318 net.cpp:148] Top shape: 24 16 14 14 (75264)
I0403 15:38:52.757558  3318 net.cpp:156] Memory required for data: 873665568
I0403 15:38:52.757573  3318 layer_factory.hpp:77] Creating layer inception_4a/5x5
I0403 15:38:52.757594  3318 net.cpp:91] Creating Layer inception_4a/5x5
I0403 15:38:52.757612  3318 net.cpp:425] inception_4a/5x5 <- inception_4a/5x5_reduce
I0403 15:38:52.757632  3318 net.cpp:399] inception_4a/5x5 -> inception_4a/5x5
I0403 15:38:52.758709  3318 net.cpp:141] Setting up inception_4a/5x5
I0403 15:38:52.758739  3318 net.cpp:148] Top shape: 24 48 14 14 (225792)
I0403 15:38:52.758755  3318 net.cpp:156] Memory required for data: 874568736
I0403 15:38:52.758774  3318 layer_factory.hpp:77] Creating layer inception_4a/relu_5x5
I0403 15:38:52.758791  3318 net.cpp:91] Creating Layer inception_4a/relu_5x5
I0403 15:38:52.758807  3318 net.cpp:425] inception_4a/relu_5x5 <- inception_4a/5x5
I0403 15:38:52.758824  3318 net.cpp:386] inception_4a/relu_5x5 -> inception_4a/5x5 (in-place)
I0403 15:38:52.759003  3318 net.cpp:141] Setting up inception_4a/relu_5x5
I0403 15:38:52.759027  3318 net.cpp:148] Top shape: 24 48 14 14 (225792)
I0403 15:38:52.759042  3318 net.cpp:156] Memory required for data: 875471904
I0403 15:38:52.759057  3318 layer_factory.hpp:77] Creating layer inception_4a/pool
I0403 15:38:52.759074  3318 net.cpp:91] Creating Layer inception_4a/pool
I0403 15:38:52.759089  3318 net.cpp:425] inception_4a/pool <- pool3/3x3_s2_pool3/3x3_s2_0_split_3
I0403 15:38:52.759109  3318 net.cpp:399] inception_4a/pool -> inception_4a/pool
I0403 15:38:52.759171  3318 net.cpp:141] Setting up inception_4a/pool
I0403 15:38:52.759196  3318 net.cpp:148] Top shape: 24 480 14 14 (2257920)
I0403 15:38:52.759209  3318 net.cpp:156] Memory required for data: 884503584
I0403 15:38:52.759223  3318 layer_factory.hpp:77] Creating layer inception_4a/pool_proj
I0403 15:38:52.759245  3318 net.cpp:91] Creating Layer inception_4a/pool_proj
I0403 15:38:52.759263  3318 net.cpp:425] inception_4a/pool_proj <- inception_4a/pool
I0403 15:38:52.759285  3318 net.cpp:399] inception_4a/pool_proj -> inception_4a/pool_proj
I0403 15:38:52.760448  3318 net.cpp:141] Setting up inception_4a/pool_proj
I0403 15:38:52.760476  3318 net.cpp:148] Top shape: 24 64 14 14 (301056)
I0403 15:38:52.760509  3318 net.cpp:156] Memory required for data: 885707808
I0403 15:38:52.760529  3318 layer_factory.hpp:77] Creating layer inception_4a/relu_pool_proj
I0403 15:38:52.760545  3318 net.cpp:91] Creating Layer inception_4a/relu_pool_proj
I0403 15:38:52.760561  3318 net.cpp:425] inception_4a/relu_pool_proj <- inception_4a/pool_proj
I0403 15:38:52.760581  3318 net.cpp:386] inception_4a/relu_pool_proj -> inception_4a/pool_proj (in-place)
I0403 15:38:52.760885  3318 net.cpp:141] Setting up inception_4a/relu_pool_proj
I0403 15:38:52.760911  3318 net.cpp:148] Top shape: 24 64 14 14 (301056)
I0403 15:38:52.760927  3318 net.cpp:156] Memory required for data: 886912032
I0403 15:38:52.760942  3318 layer_factory.hpp:77] Creating layer inception_4a/output
I0403 15:38:52.760959  3318 net.cpp:91] Creating Layer inception_4a/output
I0403 15:38:52.760974  3318 net.cpp:425] inception_4a/output <- inception_4a/1x1
I0403 15:38:52.760992  3318 net.cpp:425] inception_4a/output <- inception_4a/3x3
I0403 15:38:52.761008  3318 net.cpp:425] inception_4a/output <- inception_4a/5x5
I0403 15:38:52.761023  3318 net.cpp:425] inception_4a/output <- inception_4a/pool_proj
I0403 15:38:52.761042  3318 net.cpp:399] inception_4a/output -> inception_4a/output
I0403 15:38:52.761086  3318 net.cpp:141] Setting up inception_4a/output
I0403 15:38:52.761111  3318 net.cpp:148] Top shape: 24 512 14 14 (2408448)
I0403 15:38:52.761127  3318 net.cpp:156] Memory required for data: 896545824
I0403 15:38:52.761142  3318 layer_factory.hpp:77] Creating layer inception_4a/output_inception_4a/output_0_split
I0403 15:38:52.761159  3318 net.cpp:91] Creating Layer inception_4a/output_inception_4a/output_0_split
I0403 15:38:52.761174  3318 net.cpp:425] inception_4a/output_inception_4a/output_0_split <- inception_4a/output
I0403 15:38:52.761191  3318 net.cpp:399] inception_4a/output_inception_4a/output_0_split -> inception_4a/output_inception_4a/output_0_split_0
I0403 15:38:52.761211  3318 net.cpp:399] inception_4a/output_inception_4a/output_0_split -> inception_4a/output_inception_4a/output_0_split_1
I0403 15:38:52.761234  3318 net.cpp:399] inception_4a/output_inception_4a/output_0_split -> inception_4a/output_inception_4a/output_0_split_2
I0403 15:38:52.761255  3318 net.cpp:399] inception_4a/output_inception_4a/output_0_split -> inception_4a/output_inception_4a/output_0_split_3
I0403 15:38:52.761279  3318 net.cpp:399] inception_4a/output_inception_4a/output_0_split -> inception_4a/output_inception_4a/output_0_split_4
I0403 15:38:52.761384  3318 net.cpp:141] Setting up inception_4a/output_inception_4a/output_0_split
I0403 15:38:52.761405  3318 net.cpp:148] Top shape: 24 512 14 14 (2408448)
I0403 15:38:52.761420  3318 net.cpp:148] Top shape: 24 512 14 14 (2408448)
I0403 15:38:52.761435  3318 net.cpp:148] Top shape: 24 512 14 14 (2408448)
I0403 15:38:52.761451  3318 net.cpp:148] Top shape: 24 512 14 14 (2408448)
I0403 15:38:52.761467  3318 net.cpp:148] Top shape: 24 512 14 14 (2408448)
I0403 15:38:52.761482  3318 net.cpp:156] Memory required for data: 944714784
I0403 15:38:52.761495  3318 layer_factory.hpp:77] Creating layer loss1/ave_pool
I0403 15:38:52.761514  3318 net.cpp:91] Creating Layer loss1/ave_pool
I0403 15:38:52.761529  3318 net.cpp:425] loss1/ave_pool <- inception_4a/output_inception_4a/output_0_split_0
I0403 15:38:52.761546  3318 net.cpp:399] loss1/ave_pool -> loss1/ave_pool
I0403 15:38:52.761749  3318 net.cpp:141] Setting up loss1/ave_pool
I0403 15:38:52.761772  3318 net.cpp:148] Top shape: 24 512 4 4 (196608)
I0403 15:38:52.761786  3318 net.cpp:156] Memory required for data: 945501216
I0403 15:38:52.761801  3318 layer_factory.hpp:77] Creating layer loss1/conv
I0403 15:38:52.761821  3318 net.cpp:91] Creating Layer loss1/conv
I0403 15:38:52.761838  3318 net.cpp:425] loss1/conv <- loss1/ave_pool
I0403 15:38:52.761858  3318 net.cpp:399] loss1/conv -> loss1/conv
I0403 15:38:52.763222  3318 net.cpp:141] Setting up loss1/conv
I0403 15:38:52.763249  3318 net.cpp:148] Top shape: 24 128 4 4 (49152)
I0403 15:38:52.763286  3318 net.cpp:156] Memory required for data: 945697824
I0403 15:38:52.763309  3318 layer_factory.hpp:77] Creating layer loss1/relu_conv
I0403 15:38:52.763329  3318 net.cpp:91] Creating Layer loss1/relu_conv
I0403 15:38:52.763345  3318 net.cpp:425] loss1/relu_conv <- loss1/conv
I0403 15:38:52.763360  3318 net.cpp:386] loss1/relu_conv -> loss1/conv (in-place)
I0403 15:38:52.763641  3318 net.cpp:141] Setting up loss1/relu_conv
I0403 15:38:52.763666  3318 net.cpp:148] Top shape: 24 128 4 4 (49152)
I0403 15:38:52.763681  3318 net.cpp:156] Memory required for data: 945894432
I0403 15:38:52.763695  3318 layer_factory.hpp:77] Creating layer loss1/fc
I0403 15:38:52.763720  3318 net.cpp:91] Creating Layer loss1/fc
I0403 15:38:52.763737  3318 net.cpp:425] loss1/fc <- loss1/conv
I0403 15:38:52.763756  3318 net.cpp:399] loss1/fc -> loss1/fc
I0403 15:38:52.781478  3318 net.cpp:141] Setting up loss1/fc
I0403 15:38:52.781517  3318 net.cpp:148] Top shape: 24 1024 (24576)
I0403 15:38:52.781533  3318 net.cpp:156] Memory required for data: 945992736
I0403 15:38:52.781551  3318 layer_factory.hpp:77] Creating layer loss1/relu_fc
I0403 15:38:52.781569  3318 net.cpp:91] Creating Layer loss1/relu_fc
I0403 15:38:52.781585  3318 net.cpp:425] loss1/relu_fc <- loss1/fc
I0403 15:38:52.781605  3318 net.cpp:386] loss1/relu_fc -> loss1/fc (in-place)
I0403 15:38:52.781791  3318 net.cpp:141] Setting up loss1/relu_fc
I0403 15:38:52.781816  3318 net.cpp:148] Top shape: 24 1024 (24576)
I0403 15:38:52.781831  3318 net.cpp:156] Memory required for data: 946091040
I0403 15:38:52.781846  3318 layer_factory.hpp:77] Creating layer loss1/drop_fc
I0403 15:38:52.781874  3318 net.cpp:91] Creating Layer loss1/drop_fc
I0403 15:38:52.781891  3318 net.cpp:425] loss1/drop_fc <- loss1/fc
I0403 15:38:52.781909  3318 net.cpp:386] loss1/drop_fc -> loss1/fc (in-place)
I0403 15:38:52.781958  3318 net.cpp:141] Setting up loss1/drop_fc
I0403 15:38:52.781985  3318 net.cpp:148] Top shape: 24 1024 (24576)
I0403 15:38:52.781999  3318 net.cpp:156] Memory required for data: 946189344
I0403 15:38:52.782014  3318 layer_factory.hpp:77] Creating layer loss1/classifier_plantvillage
I0403 15:38:52.782032  3318 net.cpp:91] Creating Layer loss1/classifier_plantvillage
I0403 15:38:52.782048  3318 net.cpp:425] loss1/classifier_plantvillage <- loss1/fc
I0403 15:38:52.782068  3318 net.cpp:399] loss1/classifier_plantvillage -> loss1/classifier_plantvillage
I0403 15:38:52.782984  3318 net.cpp:141] Setting up loss1/classifier_plantvillage
I0403 15:38:52.783010  3318 net.cpp:148] Top shape: 24 38 (912)
I0403 15:38:52.783033  3318 net.cpp:156] Memory required for data: 946192992
I0403 15:38:52.783051  3318 layer_factory.hpp:77] Creating layer loss1/classifier_plantvillage_loss1/classifier_plantvillage_0_split
I0403 15:38:52.783068  3318 net.cpp:91] Creating Layer loss1/classifier_plantvillage_loss1/classifier_plantvillage_0_split
I0403 15:38:52.783087  3318 net.cpp:425] loss1/classifier_plantvillage_loss1/classifier_plantvillage_0_split <- loss1/classifier_plantvillage
I0403 15:38:52.783104  3318 net.cpp:399] loss1/classifier_plantvillage_loss1/classifier_plantvillage_0_split -> loss1/classifier_plantvillage_loss1/classifier_plantvillage_0_split_0
I0403 15:38:52.783124  3318 net.cpp:399] loss1/classifier_plantvillage_loss1/classifier_plantvillage_0_split -> loss1/classifier_plantvillage_loss1/classifier_plantvillage_0_split_1
I0403 15:38:52.783144  3318 net.cpp:399] loss1/classifier_plantvillage_loss1/classifier_plantvillage_0_split -> loss1/classifier_plantvillage_loss1/classifier_plantvillage_0_split_2
I0403 15:38:52.783207  3318 net.cpp:141] Setting up loss1/classifier_plantvillage_loss1/classifier_plantvillage_0_split
I0403 15:38:52.783231  3318 net.cpp:148] Top shape: 24 38 (912)
I0403 15:38:52.783248  3318 net.cpp:148] Top shape: 24 38 (912)
I0403 15:38:52.783263  3318 net.cpp:148] Top shape: 24 38 (912)
I0403 15:38:52.783288  3318 net.cpp:156] Memory required for data: 946203936
I0403 15:38:52.783303  3318 layer_factory.hpp:77] Creating layer inception_4b/1x1
I0403 15:38:52.783324  3318 net.cpp:91] Creating Layer inception_4b/1x1
I0403 15:38:52.783359  3318 net.cpp:425] inception_4b/1x1 <- inception_4a/output_inception_4a/output_0_split_1
I0403 15:38:52.783378  3318 net.cpp:399] inception_4b/1x1 -> inception_4b/1x1
I0403 15:38:52.784976  3318 net.cpp:141] Setting up inception_4b/1x1
I0403 15:38:52.785003  3318 net.cpp:148] Top shape: 24 160 14 14 (752640)
I0403 15:38:52.785018  3318 net.cpp:156] Memory required for data: 949214496
I0403 15:38:52.785035  3318 layer_factory.hpp:77] Creating layer inception_4b/relu_1x1
I0403 15:38:52.785055  3318 net.cpp:91] Creating Layer inception_4b/relu_1x1
I0403 15:38:52.785071  3318 net.cpp:425] inception_4b/relu_1x1 <- inception_4b/1x1
I0403 15:38:52.785089  3318 net.cpp:386] inception_4b/relu_1x1 -> inception_4b/1x1 (in-place)
I0403 15:38:52.785261  3318 net.cpp:141] Setting up inception_4b/relu_1x1
I0403 15:38:52.785291  3318 net.cpp:148] Top shape: 24 160 14 14 (752640)
I0403 15:38:52.785306  3318 net.cpp:156] Memory required for data: 952225056
I0403 15:38:52.785321  3318 layer_factory.hpp:77] Creating layer inception_4b/3x3_reduce
I0403 15:38:52.785342  3318 net.cpp:91] Creating Layer inception_4b/3x3_reduce
I0403 15:38:52.785358  3318 net.cpp:425] inception_4b/3x3_reduce <- inception_4a/output_inception_4a/output_0_split_2
I0403 15:38:52.785377  3318 net.cpp:399] inception_4b/3x3_reduce -> inception_4b/3x3_reduce
I0403 15:38:52.786686  3318 net.cpp:141] Setting up inception_4b/3x3_reduce
I0403 15:38:52.786712  3318 net.cpp:148] Top shape: 24 112 14 14 (526848)
I0403 15:38:52.786727  3318 net.cpp:156] Memory required for data: 954332448
I0403 15:38:52.786744  3318 layer_factory.hpp:77] Creating layer inception_4b/relu_3x3_reduce
I0403 15:38:52.786767  3318 net.cpp:91] Creating Layer inception_4b/relu_3x3_reduce
I0403 15:38:52.786783  3318 net.cpp:425] inception_4b/relu_3x3_reduce <- inception_4b/3x3_reduce
I0403 15:38:52.786800  3318 net.cpp:386] inception_4b/relu_3x3_reduce -> inception_4b/3x3_reduce (in-place)
I0403 15:38:52.787075  3318 net.cpp:141] Setting up inception_4b/relu_3x3_reduce
I0403 15:38:52.787101  3318 net.cpp:148] Top shape: 24 112 14 14 (526848)
I0403 15:38:52.787117  3318 net.cpp:156] Memory required for data: 956439840
I0403 15:38:52.787130  3318 layer_factory.hpp:77] Creating layer inception_4b/3x3
I0403 15:38:52.787153  3318 net.cpp:91] Creating Layer inception_4b/3x3
I0403 15:38:52.787169  3318 net.cpp:425] inception_4b/3x3 <- inception_4b/3x3_reduce
I0403 15:38:52.787188  3318 net.cpp:399] inception_4b/3x3 -> inception_4b/3x3
I0403 15:38:52.790091  3318 net.cpp:141] Setting up inception_4b/3x3
I0403 15:38:52.790122  3318 net.cpp:148] Top shape: 24 224 14 14 (1053696)
I0403 15:38:52.790138  3318 net.cpp:156] Memory required for data: 960654624
I0403 15:38:52.790166  3318 layer_factory.hpp:77] Creating layer inception_4b/relu_3x3
I0403 15:38:52.790184  3318 net.cpp:91] Creating Layer inception_4b/relu_3x3
I0403 15:38:52.790199  3318 net.cpp:425] inception_4b/relu_3x3 <- inception_4b/3x3
I0403 15:38:52.790217  3318 net.cpp:386] inception_4b/relu_3x3 -> inception_4b/3x3 (in-place)
I0403 15:38:52.790400  3318 net.cpp:141] Setting up inception_4b/relu_3x3
I0403 15:38:52.790423  3318 net.cpp:148] Top shape: 24 224 14 14 (1053696)
I0403 15:38:52.790437  3318 net.cpp:156] Memory required for data: 964869408
I0403 15:38:52.790452  3318 layer_factory.hpp:77] Creating layer inception_4b/5x5_reduce
I0403 15:38:52.790473  3318 net.cpp:91] Creating Layer inception_4b/5x5_reduce
I0403 15:38:52.790490  3318 net.cpp:425] inception_4b/5x5_reduce <- inception_4a/output_inception_4a/output_0_split_3
I0403 15:38:52.790511  3318 net.cpp:399] inception_4b/5x5_reduce -> inception_4b/5x5_reduce
I0403 15:38:52.791566  3318 net.cpp:141] Setting up inception_4b/5x5_reduce
I0403 15:38:52.791594  3318 net.cpp:148] Top shape: 24 24 14 14 (112896)
I0403 15:38:52.791609  3318 net.cpp:156] Memory required for data: 965320992
I0403 15:38:52.791625  3318 layer_factory.hpp:77] Creating layer inception_4b/relu_5x5_reduce
I0403 15:38:52.791646  3318 net.cpp:91] Creating Layer inception_4b/relu_5x5_reduce
I0403 15:38:52.791674  3318 net.cpp:425] inception_4b/relu_5x5_reduce <- inception_4b/5x5_reduce
I0403 15:38:52.791692  3318 net.cpp:386] inception_4b/relu_5x5_reduce -> inception_4b/5x5_reduce (in-place)
I0403 15:38:52.791872  3318 net.cpp:141] Setting up inception_4b/relu_5x5_reduce
I0403 15:38:52.791898  3318 net.cpp:148] Top shape: 24 24 14 14 (112896)
I0403 15:38:52.791911  3318 net.cpp:156] Memory required for data: 965772576
I0403 15:38:52.791925  3318 layer_factory.hpp:77] Creating layer inception_4b/5x5
I0403 15:38:52.791947  3318 net.cpp:91] Creating Layer inception_4b/5x5
I0403 15:38:52.791965  3318 net.cpp:425] inception_4b/5x5 <- inception_4b/5x5_reduce
I0403 15:38:52.791985  3318 net.cpp:399] inception_4b/5x5 -> inception_4b/5x5
I0403 15:38:52.793170  3318 net.cpp:141] Setting up inception_4b/5x5
I0403 15:38:52.793197  3318 net.cpp:148] Top shape: 24 64 14 14 (301056)
I0403 15:38:52.793212  3318 net.cpp:156] Memory required for data: 966976800
I0403 15:38:52.793229  3318 layer_factory.hpp:77] Creating layer inception_4b/relu_5x5
I0403 15:38:52.793249  3318 net.cpp:91] Creating Layer inception_4b/relu_5x5
I0403 15:38:52.793267  3318 net.cpp:425] inception_4b/relu_5x5 <- inception_4b/5x5
I0403 15:38:52.793295  3318 net.cpp:386] inception_4b/relu_5x5 -> inception_4b/5x5 (in-place)
I0403 15:38:52.793581  3318 net.cpp:141] Setting up inception_4b/relu_5x5
I0403 15:38:52.793606  3318 net.cpp:148] Top shape: 24 64 14 14 (301056)
I0403 15:38:52.793620  3318 net.cpp:156] Memory required for data: 968181024
I0403 15:38:52.793634  3318 layer_factory.hpp:77] Creating layer inception_4b/pool
I0403 15:38:52.793653  3318 net.cpp:91] Creating Layer inception_4b/pool
I0403 15:38:52.793670  3318 net.cpp:425] inception_4b/pool <- inception_4a/output_inception_4a/output_0_split_4
I0403 15:38:52.793689  3318 net.cpp:399] inception_4b/pool -> inception_4b/pool
I0403 15:38:52.793752  3318 net.cpp:141] Setting up inception_4b/pool
I0403 15:38:52.793774  3318 net.cpp:148] Top shape: 24 512 14 14 (2408448)
I0403 15:38:52.793788  3318 net.cpp:156] Memory required for data: 977814816
I0403 15:38:52.793802  3318 layer_factory.hpp:77] Creating layer inception_4b/pool_proj
I0403 15:38:52.793823  3318 net.cpp:91] Creating Layer inception_4b/pool_proj
I0403 15:38:52.793840  3318 net.cpp:425] inception_4b/pool_proj <- inception_4b/pool
I0403 15:38:52.793859  3318 net.cpp:399] inception_4b/pool_proj -> inception_4b/pool_proj
I0403 15:38:52.795032  3318 net.cpp:141] Setting up inception_4b/pool_proj
I0403 15:38:52.795058  3318 net.cpp:148] Top shape: 24 64 14 14 (301056)
I0403 15:38:52.795073  3318 net.cpp:156] Memory required for data: 979019040
I0403 15:38:52.795090  3318 layer_factory.hpp:77] Creating layer inception_4b/relu_pool_proj
I0403 15:38:52.795111  3318 net.cpp:91] Creating Layer inception_4b/relu_pool_proj
I0403 15:38:52.795127  3318 net.cpp:425] inception_4b/relu_pool_proj <- inception_4b/pool_proj
I0403 15:38:52.795145  3318 net.cpp:386] inception_4b/relu_pool_proj -> inception_4b/pool_proj (in-place)
I0403 15:38:52.795325  3318 net.cpp:141] Setting up inception_4b/relu_pool_proj
I0403 15:38:52.795351  3318 net.cpp:148] Top shape: 24 64 14 14 (301056)
I0403 15:38:52.795366  3318 net.cpp:156] Memory required for data: 980223264
I0403 15:38:52.795380  3318 layer_factory.hpp:77] Creating layer inception_4b/output
I0403 15:38:52.795397  3318 net.cpp:91] Creating Layer inception_4b/output
I0403 15:38:52.795411  3318 net.cpp:425] inception_4b/output <- inception_4b/1x1
I0403 15:38:52.795428  3318 net.cpp:425] inception_4b/output <- inception_4b/3x3
I0403 15:38:52.795442  3318 net.cpp:425] inception_4b/output <- inception_4b/5x5
I0403 15:38:52.795459  3318 net.cpp:425] inception_4b/output <- inception_4b/pool_proj
I0403 15:38:52.795477  3318 net.cpp:399] inception_4b/output -> inception_4b/output
I0403 15:38:52.795521  3318 net.cpp:141] Setting up inception_4b/output
I0403 15:38:52.795542  3318 net.cpp:148] Top shape: 24 512 14 14 (2408448)
I0403 15:38:52.795557  3318 net.cpp:156] Memory required for data: 989857056
I0403 15:38:52.795584  3318 layer_factory.hpp:77] Creating layer inception_4b/output_inception_4b/output_0_split
I0403 15:38:52.795603  3318 net.cpp:91] Creating Layer inception_4b/output_inception_4b/output_0_split
I0403 15:38:52.795619  3318 net.cpp:425] inception_4b/output_inception_4b/output_0_split <- inception_4b/output
I0403 15:38:52.795636  3318 net.cpp:399] inception_4b/output_inception_4b/output_0_split -> inception_4b/output_inception_4b/output_0_split_0
I0403 15:38:52.795656  3318 net.cpp:399] inception_4b/output_inception_4b/output_0_split -> inception_4b/output_inception_4b/output_0_split_1
I0403 15:38:52.795678  3318 net.cpp:399] inception_4b/output_inception_4b/output_0_split -> inception_4b/output_inception_4b/output_0_split_2
I0403 15:38:52.795698  3318 net.cpp:399] inception_4b/output_inception_4b/output_0_split -> inception_4b/output_inception_4b/output_0_split_3
I0403 15:38:52.795778  3318 net.cpp:141] Setting up inception_4b/output_inception_4b/output_0_split
I0403 15:38:52.795799  3318 net.cpp:148] Top shape: 24 512 14 14 (2408448)
I0403 15:38:52.795815  3318 net.cpp:148] Top shape: 24 512 14 14 (2408448)
I0403 15:38:52.795830  3318 net.cpp:148] Top shape: 24 512 14 14 (2408448)
I0403 15:38:52.795845  3318 net.cpp:148] Top shape: 24 512 14 14 (2408448)
I0403 15:38:52.795857  3318 net.cpp:156] Memory required for data: 1028392224
I0403 15:38:52.795871  3318 layer_factory.hpp:77] Creating layer inception_4c/1x1
I0403 15:38:52.795892  3318 net.cpp:91] Creating Layer inception_4c/1x1
I0403 15:38:52.795908  3318 net.cpp:425] inception_4c/1x1 <- inception_4b/output_inception_4b/output_0_split_0
I0403 15:38:52.795929  3318 net.cpp:399] inception_4c/1x1 -> inception_4c/1x1
I0403 15:38:52.797323  3318 net.cpp:141] Setting up inception_4c/1x1
I0403 15:38:52.797356  3318 net.cpp:148] Top shape: 24 128 14 14 (602112)
I0403 15:38:52.797372  3318 net.cpp:156] Memory required for data: 1030800672
I0403 15:38:52.797390  3318 layer_factory.hpp:77] Creating layer inception_4c/relu_1x1
I0403 15:38:52.797407  3318 net.cpp:91] Creating Layer inception_4c/relu_1x1
I0403 15:38:52.797423  3318 net.cpp:425] inception_4c/relu_1x1 <- inception_4c/1x1
I0403 15:38:52.797441  3318 net.cpp:386] inception_4c/relu_1x1 -> inception_4c/1x1 (in-place)
I0403 15:38:52.797618  3318 net.cpp:141] Setting up inception_4c/relu_1x1
I0403 15:38:52.797642  3318 net.cpp:148] Top shape: 24 128 14 14 (602112)
I0403 15:38:52.797657  3318 net.cpp:156] Memory required for data: 1033209120
I0403 15:38:52.797672  3318 layer_factory.hpp:77] Creating layer inception_4c/3x3_reduce
I0403 15:38:52.797691  3318 net.cpp:91] Creating Layer inception_4c/3x3_reduce
I0403 15:38:52.797708  3318 net.cpp:425] inception_4c/3x3_reduce <- inception_4b/output_inception_4b/output_0_split_1
I0403 15:38:52.797729  3318 net.cpp:399] inception_4c/3x3_reduce -> inception_4c/3x3_reduce
I0403 15:38:52.799610  3318 net.cpp:141] Setting up inception_4c/3x3_reduce
I0403 15:38:52.799638  3318 net.cpp:148] Top shape: 24 128 14 14 (602112)
I0403 15:38:52.799654  3318 net.cpp:156] Memory required for data: 1035617568
I0403 15:38:52.799671  3318 layer_factory.hpp:77] Creating layer inception_4c/relu_3x3_reduce
I0403 15:38:52.799691  3318 net.cpp:91] Creating Layer inception_4c/relu_3x3_reduce
I0403 15:38:52.799706  3318 net.cpp:425] inception_4c/relu_3x3_reduce <- inception_4c/3x3_reduce
I0403 15:38:52.799723  3318 net.cpp:386] inception_4c/relu_3x3_reduce -> inception_4c/3x3_reduce (in-place)
I0403 15:38:52.800001  3318 net.cpp:141] Setting up inception_4c/relu_3x3_reduce
I0403 15:38:52.800027  3318 net.cpp:148] Top shape: 24 128 14 14 (602112)
I0403 15:38:52.800042  3318 net.cpp:156] Memory required for data: 1038026016
I0403 15:38:52.800056  3318 layer_factory.hpp:77] Creating layer inception_4c/3x3
I0403 15:38:52.800077  3318 net.cpp:91] Creating Layer inception_4c/3x3
I0403 15:38:52.800094  3318 net.cpp:425] inception_4c/3x3 <- inception_4c/3x3_reduce
I0403 15:38:52.800117  3318 net.cpp:399] inception_4c/3x3 -> inception_4c/3x3
I0403 15:38:52.803617  3318 net.cpp:141] Setting up inception_4c/3x3
I0403 15:38:52.803656  3318 net.cpp:148] Top shape: 24 256 14 14 (1204224)
I0403 15:38:52.803673  3318 net.cpp:156] Memory required for data: 1042842912
I0403 15:38:52.803704  3318 layer_factory.hpp:77] Creating layer inception_4c/relu_3x3
I0403 15:38:52.803725  3318 net.cpp:91] Creating Layer inception_4c/relu_3x3
I0403 15:38:52.803742  3318 net.cpp:425] inception_4c/relu_3x3 <- inception_4c/3x3
I0403 15:38:52.803758  3318 net.cpp:386] inception_4c/relu_3x3 -> inception_4c/3x3 (in-place)
I0403 15:38:52.803936  3318 net.cpp:141] Setting up inception_4c/relu_3x3
I0403 15:38:52.803961  3318 net.cpp:148] Top shape: 24 256 14 14 (1204224)
I0403 15:38:52.803975  3318 net.cpp:156] Memory required for data: 1047659808
I0403 15:38:52.803990  3318 layer_factory.hpp:77] Creating layer inception_4c/5x5_reduce
I0403 15:38:52.804013  3318 net.cpp:91] Creating Layer inception_4c/5x5_reduce
I0403 15:38:52.804030  3318 net.cpp:425] inception_4c/5x5_reduce <- inception_4b/output_inception_4b/output_0_split_2
I0403 15:38:52.804050  3318 net.cpp:399] inception_4c/5x5_reduce -> inception_4c/5x5_reduce
I0403 15:38:52.805104  3318 net.cpp:141] Setting up inception_4c/5x5_reduce
I0403 15:38:52.805143  3318 net.cpp:148] Top shape: 24 24 14 14 (112896)
I0403 15:38:52.805158  3318 net.cpp:156] Memory required for data: 1048111392
I0403 15:38:52.805177  3318 layer_factory.hpp:77] Creating layer inception_4c/relu_5x5_reduce
I0403 15:38:52.805202  3318 net.cpp:91] Creating Layer inception_4c/relu_5x5_reduce
I0403 15:38:52.805219  3318 net.cpp:425] inception_4c/relu_5x5_reduce <- inception_4c/5x5_reduce
I0403 15:38:52.805238  3318 net.cpp:386] inception_4c/relu_5x5_reduce -> inception_4c/5x5_reduce (in-place)
I0403 15:38:52.805425  3318 net.cpp:141] Setting up inception_4c/relu_5x5_reduce
I0403 15:38:52.805452  3318 net.cpp:148] Top shape: 24 24 14 14 (112896)
I0403 15:38:52.805467  3318 net.cpp:156] Memory required for data: 1048562976
I0403 15:38:52.805482  3318 layer_factory.hpp:77] Creating layer inception_4c/5x5
I0403 15:38:52.805505  3318 net.cpp:91] Creating Layer inception_4c/5x5
I0403 15:38:52.805521  3318 net.cpp:425] inception_4c/5x5 <- inception_4c/5x5_reduce
I0403 15:38:52.805541  3318 net.cpp:399] inception_4c/5x5 -> inception_4c/5x5
I0403 15:38:52.806778  3318 net.cpp:141] Setting up inception_4c/5x5
I0403 15:38:52.806808  3318 net.cpp:148] Top shape: 24 64 14 14 (301056)
I0403 15:38:52.806824  3318 net.cpp:156] Memory required for data: 1049767200
I0403 15:38:52.806843  3318 layer_factory.hpp:77] Creating layer inception_4c/relu_5x5
I0403 15:38:52.806860  3318 net.cpp:91] Creating Layer inception_4c/relu_5x5
I0403 15:38:52.806876  3318 net.cpp:425] inception_4c/relu_5x5 <- inception_4c/5x5
I0403 15:38:52.806896  3318 net.cpp:386] inception_4c/relu_5x5 -> inception_4c/5x5 (in-place)
I0403 15:38:52.807183  3318 net.cpp:141] Setting up inception_4c/relu_5x5
I0403 15:38:52.807210  3318 net.cpp:148] Top shape: 24 64 14 14 (301056)
I0403 15:38:52.807226  3318 net.cpp:156] Memory required for data: 1050971424
I0403 15:38:52.807241  3318 layer_factory.hpp:77] Creating layer inception_4c/pool
I0403 15:38:52.807258  3318 net.cpp:91] Creating Layer inception_4c/pool
I0403 15:38:52.807278  3318 net.cpp:425] inception_4c/pool <- inception_4b/output_inception_4b/output_0_split_3
I0403 15:38:52.807301  3318 net.cpp:399] inception_4c/pool -> inception_4c/pool
I0403 15:38:52.807365  3318 net.cpp:141] Setting up inception_4c/pool
I0403 15:38:52.807389  3318 net.cpp:148] Top shape: 24 512 14 14 (2408448)
I0403 15:38:52.807404  3318 net.cpp:156] Memory required for data: 1060605216
I0403 15:38:52.807420  3318 layer_factory.hpp:77] Creating layer inception_4c/pool_proj
I0403 15:38:52.807440  3318 net.cpp:91] Creating Layer inception_4c/pool_proj
I0403 15:38:52.807458  3318 net.cpp:425] inception_4c/pool_proj <- inception_4c/pool
I0403 15:38:52.807478  3318 net.cpp:399] inception_4c/pool_proj -> inception_4c/pool_proj
I0403 15:38:52.808698  3318 net.cpp:141] Setting up inception_4c/pool_proj
I0403 15:38:52.808727  3318 net.cpp:148] Top shape: 24 64 14 14 (301056)
I0403 15:38:52.808754  3318 net.cpp:156] Memory required for data: 1061809440
I0403 15:38:52.808774  3318 layer_factory.hpp:77] Creating layer inception_4c/relu_pool_proj
I0403 15:38:52.808794  3318 net.cpp:91] Creating Layer inception_4c/relu_pool_proj
I0403 15:38:52.808811  3318 net.cpp:425] inception_4c/relu_pool_proj <- inception_4c/pool_proj
I0403 15:38:52.808828  3318 net.cpp:386] inception_4c/relu_pool_proj -> inception_4c/pool_proj (in-place)
I0403 15:38:52.809015  3318 net.cpp:141] Setting up inception_4c/relu_pool_proj
I0403 15:38:52.809041  3318 net.cpp:148] Top shape: 24 64 14 14 (301056)
I0403 15:38:52.809056  3318 net.cpp:156] Memory required for data: 1063013664
I0403 15:38:52.809072  3318 layer_factory.hpp:77] Creating layer inception_4c/output
I0403 15:38:52.809088  3318 net.cpp:91] Creating Layer inception_4c/output
I0403 15:38:52.809103  3318 net.cpp:425] inception_4c/output <- inception_4c/1x1
I0403 15:38:52.809120  3318 net.cpp:425] inception_4c/output <- inception_4c/3x3
I0403 15:38:52.809135  3318 net.cpp:425] inception_4c/output <- inception_4c/5x5
I0403 15:38:52.809151  3318 net.cpp:425] inception_4c/output <- inception_4c/pool_proj
I0403 15:38:52.809170  3318 net.cpp:399] inception_4c/output -> inception_4c/output
I0403 15:38:52.809217  3318 net.cpp:141] Setting up inception_4c/output
I0403 15:38:52.809239  3318 net.cpp:148] Top shape: 24 512 14 14 (2408448)
I0403 15:38:52.809253  3318 net.cpp:156] Memory required for data: 1072647456
I0403 15:38:52.809268  3318 layer_factory.hpp:77] Creating layer inception_4c/output_inception_4c/output_0_split
I0403 15:38:52.809293  3318 net.cpp:91] Creating Layer inception_4c/output_inception_4c/output_0_split
I0403 15:38:52.809309  3318 net.cpp:425] inception_4c/output_inception_4c/output_0_split <- inception_4c/output
I0403 15:38:52.809326  3318 net.cpp:399] inception_4c/output_inception_4c/output_0_split -> inception_4c/output_inception_4c/output_0_split_0
I0403 15:38:52.809346  3318 net.cpp:399] inception_4c/output_inception_4c/output_0_split -> inception_4c/output_inception_4c/output_0_split_1
I0403 15:38:52.809366  3318 net.cpp:399] inception_4c/output_inception_4c/output_0_split -> inception_4c/output_inception_4c/output_0_split_2
I0403 15:38:52.809389  3318 net.cpp:399] inception_4c/output_inception_4c/output_0_split -> inception_4c/output_inception_4c/output_0_split_3
I0403 15:38:52.809476  3318 net.cpp:141] Setting up inception_4c/output_inception_4c/output_0_split
I0403 15:38:52.809499  3318 net.cpp:148] Top shape: 24 512 14 14 (2408448)
I0403 15:38:52.809515  3318 net.cpp:148] Top shape: 24 512 14 14 (2408448)
I0403 15:38:52.809530  3318 net.cpp:148] Top shape: 24 512 14 14 (2408448)
I0403 15:38:52.809545  3318 net.cpp:148] Top shape: 24 512 14 14 (2408448)
I0403 15:38:52.809559  3318 net.cpp:156] Memory required for data: 1111182624
I0403 15:38:52.809573  3318 layer_factory.hpp:77] Creating layer inception_4d/1x1
I0403 15:38:52.809594  3318 net.cpp:91] Creating Layer inception_4d/1x1
I0403 15:38:52.809612  3318 net.cpp:425] inception_4d/1x1 <- inception_4c/output_inception_4c/output_0_split_0
I0403 15:38:52.809633  3318 net.cpp:399] inception_4d/1x1 -> inception_4d/1x1
I0403 15:38:52.811015  3318 net.cpp:141] Setting up inception_4d/1x1
I0403 15:38:52.811043  3318 net.cpp:148] Top shape: 24 112 14 14 (526848)
I0403 15:38:52.811058  3318 net.cpp:156] Memory required for data: 1113290016
I0403 15:38:52.811077  3318 layer_factory.hpp:77] Creating layer inception_4d/relu_1x1
I0403 15:38:52.811097  3318 net.cpp:91] Creating Layer inception_4d/relu_1x1
I0403 15:38:52.811115  3318 net.cpp:425] inception_4d/relu_1x1 <- inception_4d/1x1
I0403 15:38:52.811132  3318 net.cpp:386] inception_4d/relu_1x1 -> inception_4d/1x1 (in-place)
I0403 15:38:52.811319  3318 net.cpp:141] Setting up inception_4d/relu_1x1
I0403 15:38:52.811344  3318 net.cpp:148] Top shape: 24 112 14 14 (526848)
I0403 15:38:52.811359  3318 net.cpp:156] Memory required for data: 1115397408
I0403 15:38:52.811373  3318 layer_factory.hpp:77] Creating layer inception_4d/3x3_reduce
I0403 15:38:52.811409  3318 net.cpp:91] Creating Layer inception_4d/3x3_reduce
I0403 15:38:52.811429  3318 net.cpp:425] inception_4d/3x3_reduce <- inception_4c/output_inception_4c/output_0_split_1
I0403 15:38:52.811450  3318 net.cpp:399] inception_4d/3x3_reduce -> inception_4d/3x3_reduce
I0403 15:38:52.813007  3318 net.cpp:141] Setting up inception_4d/3x3_reduce
I0403 15:38:52.813036  3318 net.cpp:148] Top shape: 24 144 14 14 (677376)
I0403 15:38:52.813051  3318 net.cpp:156] Memory required for data: 1118106912
I0403 15:38:52.813071  3318 layer_factory.hpp:77] Creating layer inception_4d/relu_3x3_reduce
I0403 15:38:52.813089  3318 net.cpp:91] Creating Layer inception_4d/relu_3x3_reduce
I0403 15:38:52.813107  3318 net.cpp:425] inception_4d/relu_3x3_reduce <- inception_4d/3x3_reduce
I0403 15:38:52.813125  3318 net.cpp:386] inception_4d/relu_3x3_reduce -> inception_4d/3x3_reduce (in-place)
I0403 15:38:52.813434  3318 net.cpp:141] Setting up inception_4d/relu_3x3_reduce
I0403 15:38:52.813462  3318 net.cpp:148] Top shape: 24 144 14 14 (677376)
I0403 15:38:52.813478  3318 net.cpp:156] Memory required for data: 1120816416
I0403 15:38:52.813493  3318 layer_factory.hpp:77] Creating layer inception_4d/3x3
I0403 15:38:52.813516  3318 net.cpp:91] Creating Layer inception_4d/3x3
I0403 15:38:52.813534  3318 net.cpp:425] inception_4d/3x3 <- inception_4d/3x3_reduce
I0403 15:38:52.813556  3318 net.cpp:399] inception_4d/3x3 -> inception_4d/3x3
I0403 15:38:52.817980  3318 net.cpp:141] Setting up inception_4d/3x3
I0403 15:38:52.818009  3318 net.cpp:148] Top shape: 24 288 14 14 (1354752)
I0403 15:38:52.818025  3318 net.cpp:156] Memory required for data: 1126235424
I0403 15:38:52.818044  3318 layer_factory.hpp:77] Creating layer inception_4d/relu_3x3
I0403 15:38:52.818065  3318 net.cpp:91] Creating Layer inception_4d/relu_3x3
I0403 15:38:52.818083  3318 net.cpp:425] inception_4d/relu_3x3 <- inception_4d/3x3
I0403 15:38:52.818100  3318 net.cpp:386] inception_4d/relu_3x3 -> inception_4d/3x3 (in-place)
I0403 15:38:52.818294  3318 net.cpp:141] Setting up inception_4d/relu_3x3
I0403 15:38:52.818320  3318 net.cpp:148] Top shape: 24 288 14 14 (1354752)
I0403 15:38:52.818337  3318 net.cpp:156] Memory required for data: 1131654432
I0403 15:38:52.818353  3318 layer_factory.hpp:77] Creating layer inception_4d/5x5_reduce
I0403 15:38:52.818373  3318 net.cpp:91] Creating Layer inception_4d/5x5_reduce
I0403 15:38:52.818390  3318 net.cpp:425] inception_4d/5x5_reduce <- inception_4c/output_inception_4c/output_0_split_2
I0403 15:38:52.818413  3318 net.cpp:399] inception_4d/5x5_reduce -> inception_4d/5x5_reduce
I0403 15:38:52.819599  3318 net.cpp:141] Setting up inception_4d/5x5_reduce
I0403 15:38:52.819628  3318 net.cpp:148] Top shape: 24 32 14 14 (150528)
I0403 15:38:52.819643  3318 net.cpp:156] Memory required for data: 1132256544
I0403 15:38:52.819663  3318 layer_factory.hpp:77] Creating layer inception_4d/relu_5x5_reduce
I0403 15:38:52.819684  3318 net.cpp:91] Creating Layer inception_4d/relu_5x5_reduce
I0403 15:38:52.819700  3318 net.cpp:425] inception_4d/relu_5x5_reduce <- inception_4d/5x5_reduce
I0403 15:38:52.819718  3318 net.cpp:386] inception_4d/relu_5x5_reduce -> inception_4d/5x5_reduce (in-place)
I0403 15:38:52.819910  3318 net.cpp:141] Setting up inception_4d/relu_5x5_reduce
I0403 15:38:52.819936  3318 net.cpp:148] Top shape: 24 32 14 14 (150528)
I0403 15:38:52.819950  3318 net.cpp:156] Memory required for data: 1132858656
I0403 15:38:52.819965  3318 layer_factory.hpp:77] Creating layer inception_4d/5x5
I0403 15:38:52.819993  3318 net.cpp:91] Creating Layer inception_4d/5x5
I0403 15:38:52.820011  3318 net.cpp:425] inception_4d/5x5 <- inception_4d/5x5_reduce
I0403 15:38:52.820030  3318 net.cpp:399] inception_4d/5x5 -> inception_4d/5x5
I0403 15:38:52.821630  3318 net.cpp:141] Setting up inception_4d/5x5
I0403 15:38:52.821660  3318 net.cpp:148] Top shape: 24 64 14 14 (301056)
I0403 15:38:52.821676  3318 net.cpp:156] Memory required for data: 1134062880
I0403 15:38:52.821696  3318 layer_factory.hpp:77] Creating layer inception_4d/relu_5x5
I0403 15:38:52.821734  3318 net.cpp:91] Creating Layer inception_4d/relu_5x5
I0403 15:38:52.821754  3318 net.cpp:425] inception_4d/relu_5x5 <- inception_4d/5x5
I0403 15:38:52.821774  3318 net.cpp:386] inception_4d/relu_5x5 -> inception_4d/5x5 (in-place)
I0403 15:38:52.822091  3318 net.cpp:141] Setting up inception_4d/relu_5x5
I0403 15:38:52.822119  3318 net.cpp:148] Top shape: 24 64 14 14 (301056)
I0403 15:38:52.822135  3318 net.cpp:156] Memory required for data: 1135267104
I0403 15:38:52.822151  3318 layer_factory.hpp:77] Creating layer inception_4d/pool
I0403 15:38:52.822172  3318 net.cpp:91] Creating Layer inception_4d/pool
I0403 15:38:52.822190  3318 net.cpp:425] inception_4d/pool <- inception_4c/output_inception_4c/output_0_split_3
I0403 15:38:52.822209  3318 net.cpp:399] inception_4d/pool -> inception_4d/pool
I0403 15:38:52.822294  3318 net.cpp:141] Setting up inception_4d/pool
I0403 15:38:52.822320  3318 net.cpp:148] Top shape: 24 512 14 14 (2408448)
I0403 15:38:52.822336  3318 net.cpp:156] Memory required for data: 1144900896
I0403 15:38:52.822351  3318 layer_factory.hpp:77] Creating layer inception_4d/pool_proj
I0403 15:38:52.822374  3318 net.cpp:91] Creating Layer inception_4d/pool_proj
I0403 15:38:52.822393  3318 net.cpp:425] inception_4d/pool_proj <- inception_4d/pool
I0403 15:38:52.822415  3318 net.cpp:399] inception_4d/pool_proj -> inception_4d/pool_proj
I0403 15:38:52.824296  3318 net.cpp:141] Setting up inception_4d/pool_proj
I0403 15:38:52.824327  3318 net.cpp:148] Top shape: 24 64 14 14 (301056)
I0403 15:38:52.824345  3318 net.cpp:156] Memory required for data: 1146105120
I0403 15:38:52.824365  3318 layer_factory.hpp:77] Creating layer inception_4d/relu_pool_proj
I0403 15:38:52.824386  3318 net.cpp:91] Creating Layer inception_4d/relu_pool_proj
I0403 15:38:52.824404  3318 net.cpp:425] inception_4d/relu_pool_proj <- inception_4d/pool_proj
I0403 15:38:52.824424  3318 net.cpp:386] inception_4d/relu_pool_proj -> inception_4d/pool_proj (in-place)
I0403 15:38:52.824620  3318 net.cpp:141] Setting up inception_4d/relu_pool_proj
I0403 15:38:52.824646  3318 net.cpp:148] Top shape: 24 64 14 14 (301056)
I0403 15:38:52.824666  3318 net.cpp:156] Memory required for data: 1147309344
I0403 15:38:52.824681  3318 layer_factory.hpp:77] Creating layer inception_4d/output
I0403 15:38:52.824699  3318 net.cpp:91] Creating Layer inception_4d/output
I0403 15:38:52.824717  3318 net.cpp:425] inception_4d/output <- inception_4d/1x1
I0403 15:38:52.824733  3318 net.cpp:425] inception_4d/output <- inception_4d/3x3
I0403 15:38:52.824750  3318 net.cpp:425] inception_4d/output <- inception_4d/5x5
I0403 15:38:52.824769  3318 net.cpp:425] inception_4d/output <- inception_4d/pool_proj
I0403 15:38:52.824786  3318 net.cpp:399] inception_4d/output -> inception_4d/output
I0403 15:38:52.824838  3318 net.cpp:141] Setting up inception_4d/output
I0403 15:38:52.824863  3318 net.cpp:148] Top shape: 24 528 14 14 (2483712)
I0403 15:38:52.824878  3318 net.cpp:156] Memory required for data: 1157244192
I0403 15:38:52.824894  3318 layer_factory.hpp:77] Creating layer inception_4d/output_inception_4d/output_0_split
I0403 15:38:52.824913  3318 net.cpp:91] Creating Layer inception_4d/output_inception_4d/output_0_split
I0403 15:38:52.824933  3318 net.cpp:425] inception_4d/output_inception_4d/output_0_split <- inception_4d/output
I0403 15:38:52.824951  3318 net.cpp:399] inception_4d/output_inception_4d/output_0_split -> inception_4d/output_inception_4d/output_0_split_0
I0403 15:38:52.824972  3318 net.cpp:399] inception_4d/output_inception_4d/output_0_split -> inception_4d/output_inception_4d/output_0_split_1
I0403 15:38:52.824995  3318 net.cpp:399] inception_4d/output_inception_4d/output_0_split -> inception_4d/output_inception_4d/output_0_split_2
I0403 15:38:52.825016  3318 net.cpp:399] inception_4d/output_inception_4d/output_0_split -> inception_4d/output_inception_4d/output_0_split_3
I0403 15:38:52.825038  3318 net.cpp:399] inception_4d/output_inception_4d/output_0_split -> inception_4d/output_inception_4d/output_0_split_4
I0403 15:38:52.825152  3318 net.cpp:141] Setting up inception_4d/output_inception_4d/output_0_split
I0403 15:38:52.825191  3318 net.cpp:148] Top shape: 24 528 14 14 (2483712)
I0403 15:38:52.825207  3318 net.cpp:148] Top shape: 24 528 14 14 (2483712)
I0403 15:38:52.825224  3318 net.cpp:148] Top shape: 24 528 14 14 (2483712)
I0403 15:38:52.825242  3318 net.cpp:148] Top shape: 24 528 14 14 (2483712)
I0403 15:38:52.825258  3318 net.cpp:148] Top shape: 24 528 14 14 (2483712)
I0403 15:38:52.825275  3318 net.cpp:156] Memory required for data: 1206918432
I0403 15:38:52.825292  3318 layer_factory.hpp:77] Creating layer loss2/ave_pool
I0403 15:38:52.825311  3318 net.cpp:91] Creating Layer loss2/ave_pool
I0403 15:38:52.825328  3318 net.cpp:425] loss2/ave_pool <- inception_4d/output_inception_4d/output_0_split_0
I0403 15:38:52.825350  3318 net.cpp:399] loss2/ave_pool -> loss2/ave_pool
I0403 15:38:52.825687  3318 net.cpp:141] Setting up loss2/ave_pool
I0403 15:38:52.825716  3318 net.cpp:148] Top shape: 24 528 4 4 (202752)
I0403 15:38:52.825731  3318 net.cpp:156] Memory required for data: 1207729440
I0403 15:38:52.825747  3318 layer_factory.hpp:77] Creating layer loss2/conv
I0403 15:38:52.825770  3318 net.cpp:91] Creating Layer loss2/conv
I0403 15:38:52.825789  3318 net.cpp:425] loss2/conv <- loss2/ave_pool
I0403 15:38:52.825811  3318 net.cpp:399] loss2/conv -> loss2/conv
I0403 15:38:52.827834  3318 net.cpp:141] Setting up loss2/conv
I0403 15:38:52.827868  3318 net.cpp:148] Top shape: 24 128 4 4 (49152)
I0403 15:38:52.827885  3318 net.cpp:156] Memory required for data: 1207926048
I0403 15:38:52.827905  3318 layer_factory.hpp:77] Creating layer loss2/relu_conv
I0403 15:38:52.827924  3318 net.cpp:91] Creating Layer loss2/relu_conv
I0403 15:38:52.827941  3318 net.cpp:425] loss2/relu_conv <- loss2/conv
I0403 15:38:52.827960  3318 net.cpp:386] loss2/relu_conv -> loss2/conv (in-place)
I0403 15:38:52.828264  3318 net.cpp:141] Setting up loss2/relu_conv
I0403 15:38:52.828299  3318 net.cpp:148] Top shape: 24 128 4 4 (49152)
I0403 15:38:52.828316  3318 net.cpp:156] Memory required for data: 1208122656
I0403 15:38:52.828332  3318 layer_factory.hpp:77] Creating layer loss2/fc
I0403 15:38:52.828353  3318 net.cpp:91] Creating Layer loss2/fc
I0403 15:38:52.828371  3318 net.cpp:425] loss2/fc <- loss2/conv
I0403 15:38:52.828392  3318 net.cpp:399] loss2/fc -> loss2/fc
I0403 15:38:52.846665  3318 net.cpp:141] Setting up loss2/fc
I0403 15:38:52.846719  3318 net.cpp:148] Top shape: 24 1024 (24576)
I0403 15:38:52.846735  3318 net.cpp:156] Memory required for data: 1208220960
I0403 15:38:52.846755  3318 layer_factory.hpp:77] Creating layer loss2/relu_fc
I0403 15:38:52.846776  3318 net.cpp:91] Creating Layer loss2/relu_fc
I0403 15:38:52.846796  3318 net.cpp:425] loss2/relu_fc <- loss2/fc
I0403 15:38:52.846814  3318 net.cpp:386] loss2/relu_fc -> loss2/fc (in-place)
I0403 15:38:52.847151  3318 net.cpp:141] Setting up loss2/relu_fc
I0403 15:38:52.847177  3318 net.cpp:148] Top shape: 24 1024 (24576)
I0403 15:38:52.847193  3318 net.cpp:156] Memory required for data: 1208319264
I0403 15:38:52.847208  3318 layer_factory.hpp:77] Creating layer loss2/drop_fc
I0403 15:38:52.847228  3318 net.cpp:91] Creating Layer loss2/drop_fc
I0403 15:38:52.847244  3318 net.cpp:425] loss2/drop_fc <- loss2/fc
I0403 15:38:52.847261  3318 net.cpp:386] loss2/drop_fc -> loss2/fc (in-place)
I0403 15:38:52.847319  3318 net.cpp:141] Setting up loss2/drop_fc
I0403 15:38:52.847342  3318 net.cpp:148] Top shape: 24 1024 (24576)
I0403 15:38:52.847357  3318 net.cpp:156] Memory required for data: 1208417568
I0403 15:38:52.847370  3318 layer_factory.hpp:77] Creating layer loss2/classifier_plantvillage
I0403 15:38:52.847389  3318 net.cpp:91] Creating Layer loss2/classifier_plantvillage
I0403 15:38:52.847405  3318 net.cpp:425] loss2/classifier_plantvillage <- loss2/fc
I0403 15:38:52.847425  3318 net.cpp:399] loss2/classifier_plantvillage -> loss2/classifier_plantvillage
I0403 15:38:52.847838  3318 net.cpp:141] Setting up loss2/classifier_plantvillage
I0403 15:38:52.847863  3318 net.cpp:148] Top shape: 24 38 (912)
I0403 15:38:52.847900  3318 net.cpp:156] Memory required for data: 1208421216
I0403 15:38:52.847919  3318 layer_factory.hpp:77] Creating layer loss2/classifier_plantvillage_loss2/classifier_plantvillage_0_split
I0403 15:38:52.847939  3318 net.cpp:91] Creating Layer loss2/classifier_plantvillage_loss2/classifier_plantvillage_0_split
I0403 15:38:52.847954  3318 net.cpp:425] loss2/classifier_plantvillage_loss2/classifier_plantvillage_0_split <- loss2/classifier_plantvillage
I0403 15:38:52.847971  3318 net.cpp:399] loss2/classifier_plantvillage_loss2/classifier_plantvillage_0_split -> loss2/classifier_plantvillage_loss2/classifier_plantvillage_0_split_0
I0403 15:38:52.847993  3318 net.cpp:399] loss2/classifier_plantvillage_loss2/classifier_plantvillage_0_split -> loss2/classifier_plantvillage_loss2/classifier_plantvillage_0_split_1
I0403 15:38:52.848016  3318 net.cpp:399] loss2/classifier_plantvillage_loss2/classifier_plantvillage_0_split -> loss2/classifier_plantvillage_loss2/classifier_plantvillage_0_split_2
I0403 15:38:52.848094  3318 net.cpp:141] Setting up loss2/classifier_plantvillage_loss2/classifier_plantvillage_0_split
I0403 15:38:52.848117  3318 net.cpp:148] Top shape: 24 38 (912)
I0403 15:38:52.848136  3318 net.cpp:148] Top shape: 24 38 (912)
I0403 15:38:52.848152  3318 net.cpp:148] Top shape: 24 38 (912)
I0403 15:38:52.848166  3318 net.cpp:156] Memory required for data: 1208432160
I0403 15:38:52.848181  3318 layer_factory.hpp:77] Creating layer inception_4e/1x1
I0403 15:38:52.848201  3318 net.cpp:91] Creating Layer inception_4e/1x1
I0403 15:38:52.848217  3318 net.cpp:425] inception_4e/1x1 <- inception_4d/output_inception_4d/output_0_split_1
I0403 15:38:52.848239  3318 net.cpp:399] inception_4e/1x1 -> inception_4e/1x1
I0403 15:38:52.850093  3318 net.cpp:141] Setting up inception_4e/1x1
I0403 15:38:52.850123  3318 net.cpp:148] Top shape: 24 256 14 14 (1204224)
I0403 15:38:52.850139  3318 net.cpp:156] Memory required for data: 1213249056
I0403 15:38:52.850157  3318 layer_factory.hpp:77] Creating layer inception_4e/relu_1x1
I0403 15:38:52.850175  3318 net.cpp:91] Creating Layer inception_4e/relu_1x1
I0403 15:38:52.850191  3318 net.cpp:425] inception_4e/relu_1x1 <- inception_4e/1x1
I0403 15:38:52.850210  3318 net.cpp:386] inception_4e/relu_1x1 -> inception_4e/1x1 (in-place)
I0403 15:38:52.850509  3318 net.cpp:141] Setting up inception_4e/relu_1x1
I0403 15:38:52.850538  3318 net.cpp:148] Top shape: 24 256 14 14 (1204224)
I0403 15:38:52.850553  3318 net.cpp:156] Memory required for data: 1218065952
I0403 15:38:52.850569  3318 layer_factory.hpp:77] Creating layer inception_4e/3x3_reduce
I0403 15:38:52.850590  3318 net.cpp:91] Creating Layer inception_4e/3x3_reduce
I0403 15:38:52.850607  3318 net.cpp:425] inception_4e/3x3_reduce <- inception_4d/output_inception_4d/output_0_split_2
I0403 15:38:52.850626  3318 net.cpp:399] inception_4e/3x3_reduce -> inception_4e/3x3_reduce
I0403 15:38:52.852751  3318 net.cpp:141] Setting up inception_4e/3x3_reduce
I0403 15:38:52.852780  3318 net.cpp:148] Top shape: 24 160 14 14 (752640)
I0403 15:38:52.852802  3318 net.cpp:156] Memory required for data: 1221076512
I0403 15:38:52.852821  3318 layer_factory.hpp:77] Creating layer inception_4e/relu_3x3_reduce
I0403 15:38:52.852839  3318 net.cpp:91] Creating Layer inception_4e/relu_3x3_reduce
I0403 15:38:52.852854  3318 net.cpp:425] inception_4e/relu_3x3_reduce <- inception_4e/3x3_reduce
I0403 15:38:52.852871  3318 net.cpp:386] inception_4e/relu_3x3_reduce -> inception_4e/3x3_reduce (in-place)
I0403 15:38:52.853057  3318 net.cpp:141] Setting up inception_4e/relu_3x3_reduce
I0403 15:38:52.853083  3318 net.cpp:148] Top shape: 24 160 14 14 (752640)
I0403 15:38:52.853099  3318 net.cpp:156] Memory required for data: 1224087072
I0403 15:38:52.853114  3318 layer_factory.hpp:77] Creating layer inception_4e/3x3
I0403 15:38:52.853137  3318 net.cpp:91] Creating Layer inception_4e/3x3
I0403 15:38:52.853153  3318 net.cpp:425] inception_4e/3x3 <- inception_4e/3x3_reduce
I0403 15:38:52.853173  3318 net.cpp:399] inception_4e/3x3 -> inception_4e/3x3
I0403 15:38:52.858244  3318 net.cpp:141] Setting up inception_4e/3x3
I0403 15:38:52.858295  3318 net.cpp:148] Top shape: 24 320 14 14 (1505280)
I0403 15:38:52.858314  3318 net.cpp:156] Memory required for data: 1230108192
I0403 15:38:52.858333  3318 layer_factory.hpp:77] Creating layer inception_4e/relu_3x3
I0403 15:38:52.858351  3318 net.cpp:91] Creating Layer inception_4e/relu_3x3
I0403 15:38:52.858367  3318 net.cpp:425] inception_4e/relu_3x3 <- inception_4e/3x3
I0403 15:38:52.858387  3318 net.cpp:386] inception_4e/relu_3x3 -> inception_4e/3x3 (in-place)
I0403 15:38:52.858695  3318 net.cpp:141] Setting up inception_4e/relu_3x3
I0403 15:38:52.858721  3318 net.cpp:148] Top shape: 24 320 14 14 (1505280)
I0403 15:38:52.858749  3318 net.cpp:156] Memory required for data: 1236129312
I0403 15:38:52.858764  3318 layer_factory.hpp:77] Creating layer inception_4e/5x5_reduce
I0403 15:38:52.858788  3318 net.cpp:91] Creating Layer inception_4e/5x5_reduce
I0403 15:38:52.858804  3318 net.cpp:425] inception_4e/5x5_reduce <- inception_4d/output_inception_4d/output_0_split_3
I0403 15:38:52.858826  3318 net.cpp:399] inception_4e/5x5_reduce -> inception_4e/5x5_reduce
I0403 15:38:52.859896  3318 net.cpp:141] Setting up inception_4e/5x5_reduce
I0403 15:38:52.859925  3318 net.cpp:148] Top shape: 24 32 14 14 (150528)
I0403 15:38:52.859940  3318 net.cpp:156] Memory required for data: 1236731424
I0403 15:38:52.859957  3318 layer_factory.hpp:77] Creating layer inception_4e/relu_5x5_reduce
I0403 15:38:52.859978  3318 net.cpp:91] Creating Layer inception_4e/relu_5x5_reduce
I0403 15:38:52.859995  3318 net.cpp:425] inception_4e/relu_5x5_reduce <- inception_4e/5x5_reduce
I0403 15:38:52.860013  3318 net.cpp:386] inception_4e/relu_5x5_reduce -> inception_4e/5x5_reduce (in-place)
I0403 15:38:52.860318  3318 net.cpp:141] Setting up inception_4e/relu_5x5_reduce
I0403 15:38:52.860344  3318 net.cpp:148] Top shape: 24 32 14 14 (150528)
I0403 15:38:52.860360  3318 net.cpp:156] Memory required for data: 1237333536
I0403 15:38:52.860374  3318 layer_factory.hpp:77] Creating layer inception_4e/5x5
I0403 15:38:52.860414  3318 net.cpp:91] Creating Layer inception_4e/5x5
I0403 15:38:52.860433  3318 net.cpp:425] inception_4e/5x5 <- inception_4e/5x5_reduce
I0403 15:38:52.860453  3318 net.cpp:399] inception_4e/5x5 -> inception_4e/5x5
I0403 15:38:52.862309  3318 net.cpp:141] Setting up inception_4e/5x5
I0403 15:38:52.862337  3318 net.cpp:148] Top shape: 24 128 14 14 (602112)
I0403 15:38:52.862354  3318 net.cpp:156] Memory required for data: 1239741984
I0403 15:38:52.862372  3318 layer_factory.hpp:77] Creating layer inception_4e/relu_5x5
I0403 15:38:52.862395  3318 net.cpp:91] Creating Layer inception_4e/relu_5x5
I0403 15:38:52.862412  3318 net.cpp:425] inception_4e/relu_5x5 <- inception_4e/5x5
I0403 15:38:52.862429  3318 net.cpp:386] inception_4e/relu_5x5 -> inception_4e/5x5 (in-place)
I0403 15:38:52.862623  3318 net.cpp:141] Setting up inception_4e/relu_5x5
I0403 15:38:52.862650  3318 net.cpp:148] Top shape: 24 128 14 14 (602112)
I0403 15:38:52.862668  3318 net.cpp:156] Memory required for data: 1242150432
I0403 15:38:52.862682  3318 layer_factory.hpp:77] Creating layer inception_4e/pool
I0403 15:38:52.862700  3318 net.cpp:91] Creating Layer inception_4e/pool
I0403 15:38:52.862716  3318 net.cpp:425] inception_4e/pool <- inception_4d/output_inception_4d/output_0_split_4
I0403 15:38:52.862735  3318 net.cpp:399] inception_4e/pool -> inception_4e/pool
I0403 15:38:52.862807  3318 net.cpp:141] Setting up inception_4e/pool
I0403 15:38:52.862829  3318 net.cpp:148] Top shape: 24 528 14 14 (2483712)
I0403 15:38:52.862844  3318 net.cpp:156] Memory required for data: 1252085280
I0403 15:38:52.862859  3318 layer_factory.hpp:77] Creating layer inception_4e/pool_proj
I0403 15:38:52.862879  3318 net.cpp:91] Creating Layer inception_4e/pool_proj
I0403 15:38:52.862897  3318 net.cpp:425] inception_4e/pool_proj <- inception_4e/pool
I0403 15:38:52.862918  3318 net.cpp:399] inception_4e/pool_proj -> inception_4e/pool_proj
I0403 15:38:52.864434  3318 net.cpp:141] Setting up inception_4e/pool_proj
I0403 15:38:52.864475  3318 net.cpp:148] Top shape: 24 128 14 14 (602112)
I0403 15:38:52.864492  3318 net.cpp:156] Memory required for data: 1254493728
I0403 15:38:52.864511  3318 layer_factory.hpp:77] Creating layer inception_4e/relu_pool_proj
I0403 15:38:52.864531  3318 net.cpp:91] Creating Layer inception_4e/relu_pool_proj
I0403 15:38:52.864547  3318 net.cpp:425] inception_4e/relu_pool_proj <- inception_4e/pool_proj
I0403 15:38:52.864564  3318 net.cpp:386] inception_4e/relu_pool_proj -> inception_4e/pool_proj (in-place)
I0403 15:38:52.864861  3318 net.cpp:141] Setting up inception_4e/relu_pool_proj
I0403 15:38:52.864886  3318 net.cpp:148] Top shape: 24 128 14 14 (602112)
I0403 15:38:52.864902  3318 net.cpp:156] Memory required for data: 1256902176
I0403 15:38:52.864917  3318 layer_factory.hpp:77] Creating layer inception_4e/output
I0403 15:38:52.864934  3318 net.cpp:91] Creating Layer inception_4e/output
I0403 15:38:52.864949  3318 net.cpp:425] inception_4e/output <- inception_4e/1x1
I0403 15:38:52.864966  3318 net.cpp:425] inception_4e/output <- inception_4e/3x3
I0403 15:38:52.864982  3318 net.cpp:425] inception_4e/output <- inception_4e/5x5
I0403 15:38:52.864998  3318 net.cpp:425] inception_4e/output <- inception_4e/pool_proj
I0403 15:38:52.865018  3318 net.cpp:399] inception_4e/output -> inception_4e/output
I0403 15:38:52.865072  3318 net.cpp:141] Setting up inception_4e/output
I0403 15:38:52.865094  3318 net.cpp:148] Top shape: 24 832 14 14 (3913728)
I0403 15:38:52.865109  3318 net.cpp:156] Memory required for data: 1272557088
I0403 15:38:52.865123  3318 layer_factory.hpp:77] Creating layer pool4/3x3_s2
I0403 15:38:52.865140  3318 net.cpp:91] Creating Layer pool4/3x3_s2
I0403 15:38:52.865156  3318 net.cpp:425] pool4/3x3_s2 <- inception_4e/output
I0403 15:38:52.865177  3318 net.cpp:399] pool4/3x3_s2 -> pool4/3x3_s2
I0403 15:38:52.865243  3318 net.cpp:141] Setting up pool4/3x3_s2
I0403 15:38:52.865267  3318 net.cpp:148] Top shape: 24 832 7 7 (978432)
I0403 15:38:52.865285  3318 net.cpp:156] Memory required for data: 1276470816
I0403 15:38:52.865300  3318 layer_factory.hpp:77] Creating layer pool4/3x3_s2_pool4/3x3_s2_0_split
I0403 15:38:52.865320  3318 net.cpp:91] Creating Layer pool4/3x3_s2_pool4/3x3_s2_0_split
I0403 15:38:52.865336  3318 net.cpp:425] pool4/3x3_s2_pool4/3x3_s2_0_split <- pool4/3x3_s2
I0403 15:38:52.865355  3318 net.cpp:399] pool4/3x3_s2_pool4/3x3_s2_0_split -> pool4/3x3_s2_pool4/3x3_s2_0_split_0
I0403 15:38:52.865375  3318 net.cpp:399] pool4/3x3_s2_pool4/3x3_s2_0_split -> pool4/3x3_s2_pool4/3x3_s2_0_split_1
I0403 15:38:52.865397  3318 net.cpp:399] pool4/3x3_s2_pool4/3x3_s2_0_split -> pool4/3x3_s2_pool4/3x3_s2_0_split_2
I0403 15:38:52.865417  3318 net.cpp:399] pool4/3x3_s2_pool4/3x3_s2_0_split -> pool4/3x3_s2_pool4/3x3_s2_0_split_3
I0403 15:38:52.865509  3318 net.cpp:141] Setting up pool4/3x3_s2_pool4/3x3_s2_0_split
I0403 15:38:52.865532  3318 net.cpp:148] Top shape: 24 832 7 7 (978432)
I0403 15:38:52.865548  3318 net.cpp:148] Top shape: 24 832 7 7 (978432)
I0403 15:38:52.865564  3318 net.cpp:148] Top shape: 24 832 7 7 (978432)
I0403 15:38:52.865579  3318 net.cpp:148] Top shape: 24 832 7 7 (978432)
I0403 15:38:52.865593  3318 net.cpp:156] Memory required for data: 1292125728
I0403 15:38:52.865608  3318 layer_factory.hpp:77] Creating layer inception_5a/1x1
I0403 15:38:52.865630  3318 net.cpp:91] Creating Layer inception_5a/1x1
I0403 15:38:52.865648  3318 net.cpp:425] inception_5a/1x1 <- pool4/3x3_s2_pool4/3x3_s2_0_split_0
I0403 15:38:52.865669  3318 net.cpp:399] inception_5a/1x1 -> inception_5a/1x1
I0403 15:38:52.868532  3318 net.cpp:141] Setting up inception_5a/1x1
I0403 15:38:52.868561  3318 net.cpp:148] Top shape: 24 256 7 7 (301056)
I0403 15:38:52.868577  3318 net.cpp:156] Memory required for data: 1293329952
I0403 15:38:52.868595  3318 layer_factory.hpp:77] Creating layer inception_5a/relu_1x1
I0403 15:38:52.868615  3318 net.cpp:91] Creating Layer inception_5a/relu_1x1
I0403 15:38:52.868633  3318 net.cpp:425] inception_5a/relu_1x1 <- inception_5a/1x1
I0403 15:38:52.868649  3318 net.cpp:386] inception_5a/relu_1x1 -> inception_5a/1x1 (in-place)
I0403 15:38:52.868962  3318 net.cpp:141] Setting up inception_5a/relu_1x1
I0403 15:38:52.868988  3318 net.cpp:148] Top shape: 24 256 7 7 (301056)
I0403 15:38:52.869004  3318 net.cpp:156] Memory required for data: 1294534176
I0403 15:38:52.869019  3318 layer_factory.hpp:77] Creating layer inception_5a/3x3_reduce
I0403 15:38:52.869042  3318 net.cpp:91] Creating Layer inception_5a/3x3_reduce
I0403 15:38:52.869060  3318 net.cpp:425] inception_5a/3x3_reduce <- pool4/3x3_s2_pool4/3x3_s2_0_split_1
I0403 15:38:52.869081  3318 net.cpp:399] inception_5a/3x3_reduce -> inception_5a/3x3_reduce
I0403 15:38:52.871616  3318 net.cpp:141] Setting up inception_5a/3x3_reduce
I0403 15:38:52.871646  3318 net.cpp:148] Top shape: 24 160 7 7 (188160)
I0403 15:38:52.871664  3318 net.cpp:156] Memory required for data: 1295286816
I0403 15:38:52.871682  3318 layer_factory.hpp:77] Creating layer inception_5a/relu_3x3_reduce
I0403 15:38:52.871701  3318 net.cpp:91] Creating Layer inception_5a/relu_3x3_reduce
I0403 15:38:52.871717  3318 net.cpp:425] inception_5a/relu_3x3_reduce <- inception_5a/3x3_reduce
I0403 15:38:52.871738  3318 net.cpp:386] inception_5a/relu_3x3_reduce -> inception_5a/3x3_reduce (in-place)
I0403 15:38:52.871932  3318 net.cpp:141] Setting up inception_5a/relu_3x3_reduce
I0403 15:38:52.871958  3318 net.cpp:148] Top shape: 24 160 7 7 (188160)
I0403 15:38:52.871973  3318 net.cpp:156] Memory required for data: 1296039456
I0403 15:38:52.871989  3318 layer_factory.hpp:77] Creating layer inception_5a/3x3
I0403 15:38:52.872010  3318 net.cpp:91] Creating Layer inception_5a/3x3
I0403 15:38:52.872028  3318 net.cpp:425] inception_5a/3x3 <- inception_5a/3x3_reduce
I0403 15:38:52.872051  3318 net.cpp:399] inception_5a/3x3 -> inception_5a/3x3
I0403 15:38:52.877269  3318 net.cpp:141] Setting up inception_5a/3x3
I0403 15:38:52.877305  3318 net.cpp:148] Top shape: 24 320 7 7 (376320)
I0403 15:38:52.877321  3318 net.cpp:156] Memory required for data: 1297544736
I0403 15:38:52.877339  3318 layer_factory.hpp:77] Creating layer inception_5a/relu_3x3
I0403 15:38:52.877360  3318 net.cpp:91] Creating Layer inception_5a/relu_3x3
I0403 15:38:52.877379  3318 net.cpp:425] inception_5a/relu_3x3 <- inception_5a/3x3
I0403 15:38:52.877398  3318 net.cpp:386] inception_5a/relu_3x3 -> inception_5a/3x3 (in-place)
I0403 15:38:52.877701  3318 net.cpp:141] Setting up inception_5a/relu_3x3
I0403 15:38:52.877727  3318 net.cpp:148] Top shape: 24 320 7 7 (376320)
I0403 15:38:52.877743  3318 net.cpp:156] Memory required for data: 1299050016
I0403 15:38:52.877758  3318 layer_factory.hpp:77] Creating layer inception_5a/5x5_reduce
I0403 15:38:52.877781  3318 net.cpp:91] Creating Layer inception_5a/5x5_reduce
I0403 15:38:52.877799  3318 net.cpp:425] inception_5a/5x5_reduce <- pool4/3x3_s2_pool4/3x3_s2_0_split_2
I0403 15:38:52.877823  3318 net.cpp:399] inception_5a/5x5_reduce -> inception_5a/5x5_reduce
I0403 15:38:52.879066  3318 net.cpp:141] Setting up inception_5a/5x5_reduce
I0403 15:38:52.879099  3318 net.cpp:148] Top shape: 24 32 7 7 (37632)
I0403 15:38:52.879117  3318 net.cpp:156] Memory required for data: 1299200544
I0403 15:38:52.879135  3318 layer_factory.hpp:77] Creating layer inception_5a/relu_5x5_reduce
I0403 15:38:52.879155  3318 net.cpp:91] Creating Layer inception_5a/relu_5x5_reduce
I0403 15:38:52.879173  3318 net.cpp:425] inception_5a/relu_5x5_reduce <- inception_5a/5x5_reduce
I0403 15:38:52.879190  3318 net.cpp:386] inception_5a/relu_5x5_reduce -> inception_5a/5x5_reduce (in-place)
I0403 15:38:52.879513  3318 net.cpp:141] Setting up inception_5a/relu_5x5_reduce
I0403 15:38:52.879544  3318 net.cpp:148] Top shape: 24 32 7 7 (37632)
I0403 15:38:52.879561  3318 net.cpp:156] Memory required for data: 1299351072
I0403 15:38:52.879577  3318 layer_factory.hpp:77] Creating layer inception_5a/5x5
I0403 15:38:52.879601  3318 net.cpp:91] Creating Layer inception_5a/5x5
I0403 15:38:52.879619  3318 net.cpp:425] inception_5a/5x5 <- inception_5a/5x5_reduce
I0403 15:38:52.879640  3318 net.cpp:399] inception_5a/5x5 -> inception_5a/5x5
I0403 15:38:52.881481  3318 net.cpp:141] Setting up inception_5a/5x5
I0403 15:38:52.881523  3318 net.cpp:148] Top shape: 24 128 7 7 (150528)
I0403 15:38:52.881541  3318 net.cpp:156] Memory required for data: 1299953184
I0403 15:38:52.881561  3318 layer_factory.hpp:77] Creating layer inception_5a/relu_5x5
I0403 15:38:52.881582  3318 net.cpp:91] Creating Layer inception_5a/relu_5x5
I0403 15:38:52.881600  3318 net.cpp:425] inception_5a/relu_5x5 <- inception_5a/5x5
I0403 15:38:52.881619  3318 net.cpp:386] inception_5a/relu_5x5 -> inception_5a/5x5 (in-place)
I0403 15:38:52.881821  3318 net.cpp:141] Setting up inception_5a/relu_5x5
I0403 15:38:52.881850  3318 net.cpp:148] Top shape: 24 128 7 7 (150528)
I0403 15:38:52.881867  3318 net.cpp:156] Memory required for data: 1300555296
I0403 15:38:52.881882  3318 layer_factory.hpp:77] Creating layer inception_5a/pool
I0403 15:38:52.881901  3318 net.cpp:91] Creating Layer inception_5a/pool
I0403 15:38:52.881918  3318 net.cpp:425] inception_5a/pool <- pool4/3x3_s2_pool4/3x3_s2_0_split_3
I0403 15:38:52.881938  3318 net.cpp:399] inception_5a/pool -> inception_5a/pool
I0403 15:38:52.882015  3318 net.cpp:141] Setting up inception_5a/pool
I0403 15:38:52.882040  3318 net.cpp:148] Top shape: 24 832 7 7 (978432)
I0403 15:38:52.882056  3318 net.cpp:156] Memory required for data: 1304469024
I0403 15:38:52.882071  3318 layer_factory.hpp:77] Creating layer inception_5a/pool_proj
I0403 15:38:52.882094  3318 net.cpp:91] Creating Layer inception_5a/pool_proj
I0403 15:38:52.882113  3318 net.cpp:425] inception_5a/pool_proj <- inception_5a/pool
I0403 15:38:52.882136  3318 net.cpp:399] inception_5a/pool_proj -> inception_5a/pool_proj
I0403 15:38:52.884570  3318 net.cpp:141] Setting up inception_5a/pool_proj
I0403 15:38:52.884603  3318 net.cpp:148] Top shape: 24 128 7 7 (150528)
I0403 15:38:52.884619  3318 net.cpp:156] Memory required for data: 1305071136
I0403 15:38:52.884639  3318 layer_factory.hpp:77] Creating layer inception_5a/relu_pool_proj
I0403 15:38:52.884660  3318 net.cpp:91] Creating Layer inception_5a/relu_pool_proj
I0403 15:38:52.884678  3318 net.cpp:425] inception_5a/relu_pool_proj <- inception_5a/pool_proj
I0403 15:38:52.884697  3318 net.cpp:386] inception_5a/relu_pool_proj -> inception_5a/pool_proj (in-place)
I0403 15:38:52.885015  3318 net.cpp:141] Setting up inception_5a/relu_pool_proj
I0403 15:38:52.885043  3318 net.cpp:148] Top shape: 24 128 7 7 (150528)
I0403 15:38:52.885061  3318 net.cpp:156] Memory required for data: 1305673248
I0403 15:38:52.885076  3318 layer_factory.hpp:77] Creating layer inception_5a/output
I0403 15:38:52.885094  3318 net.cpp:91] Creating Layer inception_5a/output
I0403 15:38:52.885114  3318 net.cpp:425] inception_5a/output <- inception_5a/1x1
I0403 15:38:52.885133  3318 net.cpp:425] inception_5a/output <- inception_5a/3x3
I0403 15:38:52.885149  3318 net.cpp:425] inception_5a/output <- inception_5a/5x5
I0403 15:38:52.885166  3318 net.cpp:425] inception_5a/output <- inception_5a/pool_proj
I0403 15:38:52.885185  3318 net.cpp:399] inception_5a/output -> inception_5a/output
I0403 15:38:52.885237  3318 net.cpp:141] Setting up inception_5a/output
I0403 15:38:52.885264  3318 net.cpp:148] Top shape: 24 832 7 7 (978432)
I0403 15:38:52.885285  3318 net.cpp:156] Memory required for data: 1309586976
I0403 15:38:52.885301  3318 layer_factory.hpp:77] Creating layer inception_5a/output_inception_5a/output_0_split
I0403 15:38:52.885319  3318 net.cpp:91] Creating Layer inception_5a/output_inception_5a/output_0_split
I0403 15:38:52.885336  3318 net.cpp:425] inception_5a/output_inception_5a/output_0_split <- inception_5a/output
I0403 15:38:52.885357  3318 net.cpp:399] inception_5a/output_inception_5a/output_0_split -> inception_5a/output_inception_5a/output_0_split_0
I0403 15:38:52.885380  3318 net.cpp:399] inception_5a/output_inception_5a/output_0_split -> inception_5a/output_inception_5a/output_0_split_1
I0403 15:38:52.885402  3318 net.cpp:399] inception_5a/output_inception_5a/output_0_split -> inception_5a/output_inception_5a/output_0_split_2
I0403 15:38:52.885423  3318 net.cpp:399] inception_5a/output_inception_5a/output_0_split -> inception_5a/output_inception_5a/output_0_split_3
I0403 15:38:52.885543  3318 net.cpp:141] Setting up inception_5a/output_inception_5a/output_0_split
I0403 15:38:52.885571  3318 net.cpp:148] Top shape: 24 832 7 7 (978432)
I0403 15:38:52.885588  3318 net.cpp:148] Top shape: 24 832 7 7 (978432)
I0403 15:38:52.885606  3318 net.cpp:148] Top shape: 24 832 7 7 (978432)
I0403 15:38:52.885622  3318 net.cpp:148] Top shape: 24 832 7 7 (978432)
I0403 15:38:52.885637  3318 net.cpp:156] Memory required for data: 1325241888
I0403 15:38:52.885651  3318 layer_factory.hpp:77] Creating layer inception_5b/1x1
I0403 15:38:52.885675  3318 net.cpp:91] Creating Layer inception_5b/1x1
I0403 15:38:52.885694  3318 net.cpp:425] inception_5b/1x1 <- inception_5a/output_inception_5a/output_0_split_0
I0403 15:38:52.885715  3318 net.cpp:399] inception_5b/1x1 -> inception_5b/1x1
I0403 15:38:52.889734  3318 net.cpp:141] Setting up inception_5b/1x1
I0403 15:38:52.889765  3318 net.cpp:148] Top shape: 24 384 7 7 (451584)
I0403 15:38:52.889780  3318 net.cpp:156] Memory required for data: 1327048224
I0403 15:38:52.889799  3318 layer_factory.hpp:77] Creating layer inception_5b/relu_1x1
I0403 15:38:52.889817  3318 net.cpp:91] Creating Layer inception_5b/relu_1x1
I0403 15:38:52.889834  3318 net.cpp:425] inception_5b/relu_1x1 <- inception_5b/1x1
I0403 15:38:52.889854  3318 net.cpp:386] inception_5b/relu_1x1 -> inception_5b/1x1 (in-place)
I0403 15:38:52.890189  3318 net.cpp:141] Setting up inception_5b/relu_1x1
I0403 15:38:52.890218  3318 net.cpp:148] Top shape: 24 384 7 7 (451584)
I0403 15:38:52.890233  3318 net.cpp:156] Memory required for data: 1328854560
I0403 15:38:52.890249  3318 layer_factory.hpp:77] Creating layer inception_5b/3x3_reduce
I0403 15:38:52.890288  3318 net.cpp:91] Creating Layer inception_5b/3x3_reduce
I0403 15:38:52.890308  3318 net.cpp:425] inception_5b/3x3_reduce <- inception_5a/output_inception_5a/output_0_split_1
I0403 15:38:52.890331  3318 net.cpp:399] inception_5b/3x3_reduce -> inception_5b/3x3_reduce
I0403 15:38:52.893077  3318 net.cpp:141] Setting up inception_5b/3x3_reduce
I0403 15:38:52.893110  3318 net.cpp:148] Top shape: 24 192 7 7 (225792)
I0403 15:38:52.893126  3318 net.cpp:156] Memory required for data: 1329757728
I0403 15:38:52.893146  3318 layer_factory.hpp:77] Creating layer inception_5b/relu_3x3_reduce
I0403 15:38:52.893170  3318 net.cpp:91] Creating Layer inception_5b/relu_3x3_reduce
I0403 15:38:52.893188  3318 net.cpp:425] inception_5b/relu_3x3_reduce <- inception_5b/3x3_reduce
I0403 15:38:52.893208  3318 net.cpp:386] inception_5b/relu_3x3_reduce -> inception_5b/3x3_reduce (in-place)
I0403 15:38:52.893412  3318 net.cpp:141] Setting up inception_5b/relu_3x3_reduce
I0403 15:38:52.893440  3318 net.cpp:148] Top shape: 24 192 7 7 (225792)
I0403 15:38:52.893455  3318 net.cpp:156] Memory required for data: 1330660896
I0403 15:38:52.893471  3318 layer_factory.hpp:77] Creating layer inception_5b/3x3
I0403 15:38:52.893496  3318 net.cpp:91] Creating Layer inception_5b/3x3
I0403 15:38:52.893517  3318 net.cpp:425] inception_5b/3x3 <- inception_5b/3x3_reduce
I0403 15:38:52.893542  3318 net.cpp:399] inception_5b/3x3 -> inception_5b/3x3
I0403 15:38:52.900702  3318 net.cpp:141] Setting up inception_5b/3x3
I0403 15:38:52.900735  3318 net.cpp:148] Top shape: 24 384 7 7 (451584)
I0403 15:38:52.900751  3318 net.cpp:156] Memory required for data: 1332467232
I0403 15:38:52.900770  3318 layer_factory.hpp:77] Creating layer inception_5b/relu_3x3
I0403 15:38:52.900792  3318 net.cpp:91] Creating Layer inception_5b/relu_3x3
I0403 15:38:52.900811  3318 net.cpp:425] inception_5b/relu_3x3 <- inception_5b/3x3
I0403 15:38:52.900830  3318 net.cpp:386] inception_5b/relu_3x3 -> inception_5b/3x3 (in-place)
I0403 15:38:52.901155  3318 net.cpp:141] Setting up inception_5b/relu_3x3
I0403 15:38:52.901183  3318 net.cpp:148] Top shape: 24 384 7 7 (451584)
I0403 15:38:52.901199  3318 net.cpp:156] Memory required for data: 1334273568
I0403 15:38:52.901216  3318 layer_factory.hpp:77] Creating layer inception_5b/5x5_reduce
I0403 15:38:52.901257  3318 net.cpp:91] Creating Layer inception_5b/5x5_reduce
I0403 15:38:52.901280  3318 net.cpp:425] inception_5b/5x5_reduce <- inception_5a/output_inception_5a/output_0_split_2
I0403 15:38:52.901306  3318 net.cpp:399] inception_5b/5x5_reduce -> inception_5b/5x5_reduce
I0403 15:38:52.902679  3318 net.cpp:141] Setting up inception_5b/5x5_reduce
I0403 15:38:52.902709  3318 net.cpp:148] Top shape: 24 48 7 7 (56448)
I0403 15:38:52.902725  3318 net.cpp:156] Memory required for data: 1334499360
I0403 15:38:52.902745  3318 layer_factory.hpp:77] Creating layer inception_5b/relu_5x5_reduce
I0403 15:38:52.902766  3318 net.cpp:91] Creating Layer inception_5b/relu_5x5_reduce
I0403 15:38:52.902784  3318 net.cpp:425] inception_5b/relu_5x5_reduce <- inception_5b/5x5_reduce
I0403 15:38:52.902803  3318 net.cpp:386] inception_5b/relu_5x5_reduce -> inception_5b/5x5_reduce (in-place)
I0403 15:38:52.903198  3318 net.cpp:141] Setting up inception_5b/relu_5x5_reduce
I0403 15:38:52.903226  3318 net.cpp:148] Top shape: 24 48 7 7 (56448)
I0403 15:38:52.903242  3318 net.cpp:156] Memory required for data: 1334725152
I0403 15:38:52.903259  3318 layer_factory.hpp:77] Creating layer inception_5b/5x5
I0403 15:38:52.903290  3318 net.cpp:91] Creating Layer inception_5b/5x5
I0403 15:38:52.903311  3318 net.cpp:425] inception_5b/5x5 <- inception_5b/5x5_reduce
I0403 15:38:52.903331  3318 net.cpp:399] inception_5b/5x5 -> inception_5b/5x5
I0403 15:38:52.905551  3318 net.cpp:141] Setting up inception_5b/5x5
I0403 15:38:52.905581  3318 net.cpp:148] Top shape: 24 128 7 7 (150528)
I0403 15:38:52.905598  3318 net.cpp:156] Memory required for data: 1335327264
I0403 15:38:52.905618  3318 layer_factory.hpp:77] Creating layer inception_5b/relu_5x5
I0403 15:38:52.905640  3318 net.cpp:91] Creating Layer inception_5b/relu_5x5
I0403 15:38:52.905658  3318 net.cpp:425] inception_5b/relu_5x5 <- inception_5b/5x5
I0403 15:38:52.905678  3318 net.cpp:386] inception_5b/relu_5x5 -> inception_5b/5x5 (in-place)
I0403 15:38:52.905886  3318 net.cpp:141] Setting up inception_5b/relu_5x5
I0403 15:38:52.905915  3318 net.cpp:148] Top shape: 24 128 7 7 (150528)
I0403 15:38:52.905930  3318 net.cpp:156] Memory required for data: 1335929376
I0403 15:38:52.905947  3318 layer_factory.hpp:77] Creating layer inception_5b/pool
I0403 15:38:52.905966  3318 net.cpp:91] Creating Layer inception_5b/pool
I0403 15:38:52.905984  3318 net.cpp:425] inception_5b/pool <- inception_5a/output_inception_5a/output_0_split_3
I0403 15:38:52.906007  3318 net.cpp:399] inception_5b/pool -> inception_5b/pool
I0403 15:38:52.906085  3318 net.cpp:141] Setting up inception_5b/pool
I0403 15:38:52.906111  3318 net.cpp:148] Top shape: 24 832 7 7 (978432)
I0403 15:38:52.906126  3318 net.cpp:156] Memory required for data: 1339843104
I0403 15:38:52.906142  3318 layer_factory.hpp:77] Creating layer inception_5b/pool_proj
I0403 15:38:52.906165  3318 net.cpp:91] Creating Layer inception_5b/pool_proj
I0403 15:38:52.906184  3318 net.cpp:425] inception_5b/pool_proj <- inception_5b/pool
I0403 15:38:52.906208  3318 net.cpp:399] inception_5b/pool_proj -> inception_5b/pool_proj
I0403 15:38:52.908691  3318 net.cpp:141] Setting up inception_5b/pool_proj
I0403 15:38:52.908722  3318 net.cpp:148] Top shape: 24 128 7 7 (150528)
I0403 15:38:52.908738  3318 net.cpp:156] Memory required for data: 1340445216
I0403 15:38:52.908758  3318 layer_factory.hpp:77] Creating layer inception_5b/relu_pool_proj
I0403 15:38:52.908779  3318 net.cpp:91] Creating Layer inception_5b/relu_pool_proj
I0403 15:38:52.908797  3318 net.cpp:425] inception_5b/relu_pool_proj <- inception_5b/pool_proj
I0403 15:38:52.908817  3318 net.cpp:386] inception_5b/relu_pool_proj -> inception_5b/pool_proj (in-place)
I0403 15:38:52.909137  3318 net.cpp:141] Setting up inception_5b/relu_pool_proj
I0403 15:38:52.909164  3318 net.cpp:148] Top shape: 24 128 7 7 (150528)
I0403 15:38:52.909180  3318 net.cpp:156] Memory required for data: 1341047328
I0403 15:38:52.909196  3318 layer_factory.hpp:77] Creating layer inception_5b/output
I0403 15:38:52.909214  3318 net.cpp:91] Creating Layer inception_5b/output
I0403 15:38:52.909247  3318 net.cpp:425] inception_5b/output <- inception_5b/1x1
I0403 15:38:52.909266  3318 net.cpp:425] inception_5b/output <- inception_5b/3x3
I0403 15:38:52.909289  3318 net.cpp:425] inception_5b/output <- inception_5b/5x5
I0403 15:38:52.909307  3318 net.cpp:425] inception_5b/output <- inception_5b/pool_proj
I0403 15:38:52.909329  3318 net.cpp:399] inception_5b/output -> inception_5b/output
I0403 15:38:52.909389  3318 net.cpp:141] Setting up inception_5b/output
I0403 15:38:52.909414  3318 net.cpp:148] Top shape: 24 1024 7 7 (1204224)
I0403 15:38:52.909430  3318 net.cpp:156] Memory required for data: 1345864224
I0403 15:38:52.909445  3318 layer_factory.hpp:77] Creating layer pool5/7x7_s1
I0403 15:38:52.909462  3318 net.cpp:91] Creating Layer pool5/7x7_s1
I0403 15:38:52.909479  3318 net.cpp:425] pool5/7x7_s1 <- inception_5b/output
I0403 15:38:52.909502  3318 net.cpp:399] pool5/7x7_s1 -> pool5/7x7_s1
I0403 15:38:52.909731  3318 net.cpp:141] Setting up pool5/7x7_s1
I0403 15:38:52.909757  3318 net.cpp:148] Top shape: 24 1024 1 1 (24576)
I0403 15:38:52.909773  3318 net.cpp:156] Memory required for data: 1345962528
I0403 15:38:52.909790  3318 layer_factory.hpp:77] Creating layer pool5/drop_7x7_s1
I0403 15:38:52.909811  3318 net.cpp:91] Creating Layer pool5/drop_7x7_s1
I0403 15:38:52.909828  3318 net.cpp:425] pool5/drop_7x7_s1 <- pool5/7x7_s1
I0403 15:38:52.909847  3318 net.cpp:386] pool5/drop_7x7_s1 -> pool5/7x7_s1 (in-place)
I0403 15:38:52.909901  3318 net.cpp:141] Setting up pool5/drop_7x7_s1
I0403 15:38:52.909925  3318 net.cpp:148] Top shape: 24 1024 1 1 (24576)
I0403 15:38:52.909941  3318 net.cpp:156] Memory required for data: 1346060832
I0403 15:38:52.909956  3318 layer_factory.hpp:77] Creating layer loss3/classifier_plantvillage
I0403 15:38:52.909977  3318 net.cpp:91] Creating Layer loss3/classifier_plantvillage
I0403 15:38:52.909996  3318 net.cpp:425] loss3/classifier_plantvillage <- pool5/7x7_s1
I0403 15:38:52.910017  3318 net.cpp:399] loss3/classifier_plantvillage -> loss3/classifier_plantvillage
I0403 15:38:52.910485  3318 net.cpp:141] Setting up loss3/classifier_plantvillage
I0403 15:38:52.910511  3318 net.cpp:148] Top shape: 24 38 (912)
I0403 15:38:52.910529  3318 net.cpp:156] Memory required for data: 1346064480
I0403 15:38:52.910549  3318 layer_factory.hpp:77] Creating layer loss3/classifier_plantvillage_loss3/classifier_plantvillage_0_split
I0403 15:38:52.910573  3318 net.cpp:91] Creating Layer loss3/classifier_plantvillage_loss3/classifier_plantvillage_0_split
I0403 15:38:52.910589  3318 net.cpp:425] loss3/classifier_plantvillage_loss3/classifier_plantvillage_0_split <- loss3/classifier_plantvillage
I0403 15:38:52.910611  3318 net.cpp:399] loss3/classifier_plantvillage_loss3/classifier_plantvillage_0_split -> loss3/classifier_plantvillage_loss3/classifier_plantvillage_0_split_0
I0403 15:38:52.910634  3318 net.cpp:399] loss3/classifier_plantvillage_loss3/classifier_plantvillage_0_split -> loss3/classifier_plantvillage_loss3/classifier_plantvillage_0_split_1
I0403 15:38:52.910655  3318 net.cpp:399] loss3/classifier_plantvillage_loss3/classifier_plantvillage_0_split -> loss3/classifier_plantvillage_loss3/classifier_plantvillage_0_split_2
I0403 15:38:52.910677  3318 net.cpp:399] loss3/classifier_plantvillage_loss3/classifier_plantvillage_0_split -> loss3/classifier_plantvillage_loss3/classifier_plantvillage_0_split_3
I0403 15:38:52.910785  3318 net.cpp:141] Setting up loss3/classifier_plantvillage_loss3/classifier_plantvillage_0_split
I0403 15:38:52.910809  3318 net.cpp:148] Top shape: 24 38 (912)
I0403 15:38:52.910826  3318 net.cpp:148] Top shape: 24 38 (912)
I0403 15:38:52.910843  3318 net.cpp:148] Top shape: 24 38 (912)
I0403 15:38:52.910859  3318 net.cpp:148] Top shape: 24 38 (912)
I0403 15:38:52.910874  3318 net.cpp:156] Memory required for data: 1346079072
I0403 15:38:52.910888  3318 layer_factory.hpp:77] Creating layer loss1/loss
I0403 15:38:52.910912  3318 net.cpp:91] Creating Layer loss1/loss
I0403 15:38:52.910933  3318 net.cpp:425] loss1/loss <- loss1/classifier_plantvillage_loss1/classifier_plantvillage_0_split_0
I0403 15:38:52.910965  3318 net.cpp:425] loss1/loss <- label_data_1_split_0
…
