…
I0403 15:47:41.921258  3648 net.cpp:313] The NetState phase (1) differed from the phase (0) specified by a rule in layer data
I0403 15:47:41.922410  3648 net.cpp:49] Initializing net from parameters: 
state {
  phase: TEST
}
layer {
  name: "data"
  type: "Data"
  top: "data"
  top: "label"
  include {
    phase: TEST
  }
  transform_param {
    mirror: false
    crop_size: 224
    mean_file: "/home/mohanty/data/final_dataset/lmdb/grayscale-50-50/mean.binaryproto"
  }
  data_param {
    source: "/home/mohanty/data/final_dataset/lmdb/grayscale-50-50/test_db"
    batch_size: 24
    backend: LMDB
  }
}
layer {
  name: "conv1/7x7_s2"
  type: "Convolution"
  bottom: "data"
  top: "conv1/7x7_s2"
  param {
    lr_mult: 1
    decay_mult: 1
  }
  param {
    lr_mult: 2
    decay_mult: 0
  }
  convolution_param {
    num_output: 64
    pad: 3
    kernel_size: 7
    stride: 2
    weight_filler {
      type: "xavier"
      std: 0.1
    }
    bias_filler {
      type: "constant"
      value: 0.2
    }
  }
}
layer {
  name: "conv1/relu_7x7"
  type: "ReLU"
  bottom: "conv1/7x7_s2"
  top: "conv1/7x7_s2"
}
layer {
  name: "pool1/3x3_s2"
  type: "Pooling"
  bottom: "conv1/7x7_s2"
  top: "pool1/3x3_s2"
  pooling_param {
    pool: MAX
    kernel_size: 3
    stride: 2
  }
}
layer {
  name: "pool1/norm1"
  type: "LRN"
  bottom: "pool1/3x3_s2"
  top: "pool1/norm1"
  lrn_param {
    local_size: 5
    alpha: 0.0001
    beta: 0.75
  }
}
layer {
  name: "conv2/3x3_reduce"
  type: "Convolution"
  bottom: "pool1/norm1"
  top: "conv2/3x3_reduce"
  param {
    lr_mult: 1
    decay_mult: 1
  }
  param {
    lr_mult: 2
    decay_mult: 0
  }
  convolution_param {
    num_output: 64
    kernel_size: 1
    weight_filler {
      type: "xavier"
      std: 0.1
    }
    bias_filler {
      type: "constant"
      value: 0.2
    }
  }
}
layer {
  name: "conv2/relu_3x3_reduce"
  type: "ReLU"
  bottom: "conv2/3x3_reduce"
  top: "conv2/3x3_reduce"
}
layer {
  name: "conv2/3x3"
  type: "Convolution"
  bottom: "conv2/3x3_reduce"
  top: "conv2/3x3"
  param {
    lr_mult: 1
    decay_mult: 1
  }
  param {
    lr_mult: 2
    decay_mult: 0
  }
  convolution_param {
    num_output: 192
    pad: 1
    kernel_size: 3
    weight_filler {
      type: "xavier"
      std: 0.03
    }
    bias_filler {
      type: "constant"
      value: 0.2
    }
  }
}
layer {
  name: "conv2/relu_3x3"
  type: "ReLU"
  bottom: "conv2/3x3"
  top: "conv2/3x3"
}
layer {
  name: "conv2/norm2"
  type: "LRN"
  bottom: "conv2/3x3"
  top: "conv2/norm2"
  lrn_param {
    local_size: 5
    alpha: 0.0001
    beta: 0.75
  }
}
layer {
  name: "pool2/3x3_s2"
  type: "Pooling"
  bottom: "conv2/norm2"
  top: "pool2/3x3_s2"
  pooling_param {
    pool: MAX
    kernel_size: 3
    stride: 2
  }
}
layer {
  name: "inception_3a/1x1"
  type: "Convolution"
  bottom: "pool2/3x3_s2"
  top: "inception_3a/1x1"
  param {
    lr_mult: 1
    decay_mult: 1
  }
  param {
    lr_mult: 2
    decay_mult: 0
  }
  convolution_param {
    num_output: 64
    kernel_size: 1
    weight_filler {
      type: "xavier"
      std: 0.03
    }
    bias_filler {
      type: "constant"
      value: 0.2
    }
  }
}
layer {
  name: "inception_3a/relu_1x1"
  type: "ReLU"
  bottom: "inception_3a/1x1"
  top: "inception_3a/1x1"
}
layer {
  name: "inception_3a/3x3_reduce"
  type: "Convolution"
  bottom: "pool2/3x3_s2"
  top: "inception_3a/3x3_reduce"
  param {
    lr_mult: 1
    decay_mult: 1
  }
  param {
    lr_mult: 2
    decay_mult: 0
  }
  convolution_param {
    num_output: 96
    kernel_size: 1
    weight_filler {
      type: "xavier"
      std: 0.09
    }
    bias_filler {
      type: "constant"
      value: 0.2
    }
  }
}
layer {
  name: "inception_3a/relu_3x3_reduce"
  type: "ReLU"
  bottom: "inception_3a/3x3_reduce"
  top: "inception_3a/3x3_reduce"
}
layer {
  name: "inception_3a/3x3"
  type: "Convolution"
  bottom: "inception_3a/3x3_reduce"
  top: "inception_3a/3x3"
  param {
    lr_mult: 1
    decay_mult: 1
  }
  param {
    lr_mult: 2
    decay_mult: 0
  }
  convolution_param {
    num_output: 128
    pad: 1
    kernel_size: 3
    weight_filler {
      type: "xavier"
      std: 0.03
    }
    bias_filler {
      type: "constant"
      value: 0.2
    }
  }
}
layer {
  name: "inception_3a/relu_3x3"
  type: "ReLU"
  bottom: "inception_3a/3x3"
  top: "inception_3a/3x3"
}
layer {
  name: "inception_3a/5x5_reduce"
  type: "Convolution"
  bottom: "pool2/3x3_s2"
  top: "inception_3a/5x5_reduce"
  param {
    lr_mult: 1
    decay_mult: 1
  }
  param {
    lr_mult: 2
    decay_mult: 0
  }
  convolution_param {
    num_output: 16
    kernel_size: 1
    weight_filler {
      type: "xavier"
      std: 0.2
    }
    bias_filler {
      type: "constant"
      value: 0.2
    }
  }
}
layer {
  name: "inception_3a/relu_5x5_reduce"
  type: "ReLU"
  bottom: "inception_3a/5x5_reduce"
  top: "inception_3a/5x5_reduce"
}
layer {
  name: "inception_3a/5x5"
  type: "Convolution"
  bottom: "inception_3a/5x5_reduce"
  top: "inception_3a/5x5"
  param {
    lr_mult: 1
    decay_mult: 1
  }
  param {
    lr_mult: 2
    decay_mult: 0
  }
  convolution_param {
    num_output: 32
    pad: 2
    kernel_size: 5
    weight_filler {
      type: "xavier"
      std: 0.03
    }
    bias_filler {
      type: "constant"
      value: 0.2
    }
  }
}
layer {
  name: "inception_3a/relu_5x5"
  type: "ReLU"
  bottom: "inception_3a/5x5"
  top: "inception_3a/5x5"
}
layer {
  name: "inception_3a/pool"
  type: "Pooling"
  bottom: "pool2/3x3_s2"
  top: "inception_3a/pool"
  pooling_param {
    pool: MAX
    kernel_size: 3
    stride: 1
    pad: 1
  }
}
layer {
  name: "inception_3a/pool_proj"
  type: "Convolution"
  bottom: "inception_3a/pool"
  top: "inception_3a/pool_proj"
  param {
    lr_mult: 1
    decay_mult: 1
  }
  param {
    lr_mult: 2
    decay_mult: 0
  }
  convolution_param {
    num_output: 32
    kernel_size: 1
    weight_filler {
      type: "xavier"
      std: 0.1
    }
    bias_filler {
      type: "constant"
      value: 0.2
    }
  }
}
layer {
  name: "inception_3a/relu_pool_proj"
  type: "ReLU"
  bottom: "inception_3a/pool_proj"
  top: "inception_3a/pool_proj"
}
layer {
  name: "inception_3a/output"
  type: "Concat"
  bottom: "inception_3a/1x1"
  bottom: "inception_3a/3x3"
  bottom: "inception_3a/5x5"
  bottom: "inception_3a/pool_proj"
  top: "inception_3a/output"
}
layer {
  name: "inception_3b/1x1"
  type: "Convolution"
  bottom: "inception_3a/output"
  top: "inception_3b/1x1"
  param {
    lr_mult: 1
    decay_mult: 1
  }
  param {
    lr_mult: 2
    decay_mult: 0
  }
  convolution_param {
    num_output: 128
    kernel_size: 1
    weight_filler {
      type: "xavier"
      std: 0.03
    }
    bias_filler {
      type: "constant"
      value: 0.2
    }
  }
}
layer {
  name: "inception_3b/relu_1x1"
  type: "ReLU"
  bottom: "inception_3b/1x1"
  top: "inception_3b/1x1"
}
layer {
  name: "inception_3b/3x3_reduce"
  type: "Convolution"
  bottom: "inception_3a/output"
  top: "inception_3b/3x3_reduce"
  param {
    lr_mult: 1
    decay_mult: 1
  }
  param {
    lr_mult: 2
    decay_mult: 0
  }
  convolution_param {
    num_output: 128
    kernel_size: 1
    weight_filler {
      type: "xavier"
      std: 0.09
    }
    bias_filler {
      type: "constant"
      value: 0.2
    }
  }
}
layer {
  name: "inception_3b/relu_3x3_reduce"
  type: "ReLU"
  bottom: "inception_3b/3x3_reduce"
  top: "inception_3b/3x3_reduce"
}
layer {
  name: "inception_3b/3x3"
  type: "Convolution"
  bottom: "inception_3b/3x3_reduce"
  top: "inception_3b/3x3"
  param {
    lr_mult: 1
    decay_mult: 1
  }
  param {
    lr_mult: 2
    decay_mult: 0
  }
  convolution_param {
    num_output: 192
    pad: 1
    kernel_size: 3
    weight_filler {
      type: "xavier"
      std: 0.03
    }
    bias_filler {
      type: "constant"
      value: 0.2
    }
  }
}
layer {
  name: "inception_3b/relu_3x3"
  type: "ReLU"
  bottom: "inception_3b/3x3"
  top: "inception_3b/3x3"
}
layer {
  name: "inception_3b/5x5_reduce"
  type: "Convolution"
  bottom: "inception_3a/output"
  top: "inception_3b/5x5_reduce"
  param {
    lr_mult: 1
    decay_mult: 1
  }
  param {
    lr_mult: 2
    decay_mult: 0
  }
  convolution_param {
    num_output: 32
    kernel_size: 1
    weight_filler {
      type: "xavier"
      std: 0.2
    }
    bias_filler {
      type: "constant"
      value: 0.2
    }
  }
}
layer {
  name: "inception_3b/relu_5x5_reduce"
  type: "ReLU"
  bottom: "inception_3b/5x5_reduce"
  top: "inception_3b/5x5_reduce"
}
layer {
  name: "inception_3b/5x5"
  type: "Convolution"
  bottom: "inception_3b/5x5_reduce"
  top: "inception_3b/5x5"
  param {
    lr_mult: 1
    decay_mult: 1
  }
  param {
    lr_mult: 2
    decay_mult: 0
  }
  convolution_param {
    num_output: 96
    pad: 2
    kernel_size: 5
    weight_filler {
      type: "xavier"
      std: 0.03
    }
    bias_filler {
      type: "constant"
      value: 0.2
    }
  }
}
layer {
  name: "inception_3b/relu_5x5"
  type: "ReLU"
  bottom: "inception_3b/5x5"
  top: "inception_3b/5x5"
}
layer {
  name: "inception_3b/pool"
  type: "Pooling"
  bottom: "inception_3a/output"
  top: "inception_3b/pool"
  pooling_param {
    pool: MAX
    kernel_size: 3
    stride: 1
    pad: 1
  }
}
layer {
  name: "inception_3b/pool_proj"
  type: "Convolution"
  bottom: "inception_3b/pool"
  top: "inception_3b/pool_proj"
  param {
    lr_mult: 1
    decay_mult: 1
  }
  param {
    lr_mult: 2
    decay_mult: 0
  }
  convolution_param {
    num_output: 64
    kernel_size: 1
    weight_filler {
      type: "xavier"
      std: 0.1
    }
    bias_filler {
      type: "constant"
      value: 0.2
    }
  }
}
layer {
  name: "inception_3b/relu_pool_proj"
  type: "ReLU"
  bottom: "inception_3b/pool_proj"
  top: "inception_3b/pool_proj"
}
layer {
  name: "inception_3b/output"
  type: "Concat"
  bottom: "inception_3b/1x1"
  bottom: "inception_3b/3x3"
  bottom: "inception_3b/5x5"
  bottom: "inception_3b/pool_proj"
  top: "inception_3b/output"
}
layer {
  name: "pool3/3x3_s2"
  type: "Pooling"
  bottom: "inception_3b/output"
  top: "pool3/3x3_s2"
  pooling_param {
    pool: MAX
    kernel_size: 3
    stride: 2
  }
}
layer {
  name: "inception_4a/1x1"
  type: "Convolution"
  bottom: "pool3/3x3_s2"
  top: "inception_4a/1x1"
  param {
    lr_mult: 1
    decay_mult: 1
  }
  param {
    lr_mult: 2
    decay_mult: 0
  }
  convolution_param {
    num_output: 192
    kernel_size: 1
    weight_filler {
      type: "xavier"
      std: 0.03
    }
    bias_filler {
      type: "constant"
      value: 0.2
    }
  }
}
layer {
  name: "inception_4a/relu_1x1"
  type: "ReLU"
  bottom: "inception_4a/1x1"
  top: "inception_4a/1x1"
}
layer {
  name: "inception_4a/3x3_reduce"
  type: "Convolution"
  bottom: "pool3/3x3_s2"
  top: "inception_4a/3x3_reduce"
  param {
    lr_mult: 1
    decay_mult: 1
  }
  param {
    lr_mult: 2
    decay_mult: 0
  }
  convolution_param {
    num_output: 96
    kernel_size: 1
    weight_filler {
      type: "xavier"
      std: 0.09
    }
    bias_filler {
      type: "constant"
      value: 0.2
    }
  }
}
layer {
  name: "inception_4a/relu_3x3_reduce"
  type: "ReLU"
  bottom: "inception_4a/3x3_reduce"
  top: "inception_4a/3x3_reduce"
}
layer {
  name: "inception_4a/3x3"
  type: "Convolution"
  bottom: "inception_4a/3x3_reduce"
  top: "inception_4a/3x3"
  param {
    lr_mult: 1
    decay_mult: 1
  }
  param {
    lr_mult: 2
    decay_mult: 0
  }
  convolution_param {
    num_output: 208
    pad: 1
    kernel_size: 3
    weight_filler {
      type: "xavier"
      std: 0.03
    }
    bias_filler {
      type: "constant"
      value: 0.2
    }
  }
}
layer {
  name: "inception_4a/relu_3x3"
  type: "ReLU"
  bottom: "inception_4a/3x3"
  top: "inception_4a/3x3"
}
layer {
  name: "inception_4a/5x5_reduce"
  type: "Convolution"
  bottom: "pool3/3x3_s2"
  top: "inception_4a/5x5_reduce"
  param {
    lr_mult: 1
    decay_mult: 1
  }
  param {
    lr_mult: 2
    decay_mult: 0
  }
  convolution_param {
    num_output: 16
    kernel_size: 1
    weight_filler {
      type: "xavier"
      std: 0.2
    }
    bias_filler {
      type: "constant"
      value: 0.2
    }
  }
}
layer {
  name: "inception_4a/relu_5x5_reduce"
  type: "ReLU"
  bottom: "inception_4a/5x5_reduce"
  top: "inception_4a/5x5_reduce"
}
layer {
  name: "inception_4a/5x5"
  type: "Convolution"
  bottom: "inception_4a/5x5_reduce"
  top: "inception_4a/5x5"
  param {
    lr_mult: 1
    decay_mult: 1
  }
  param {
    lr_mult: 2
    decay_mult: 0
  }
  convolution_param {
    num_output: 48
    pad: 2
    kernel_size: 5
    weight_filler {
      type: "xavier"
      std: 0.03
    }
    bias_filler {
      type: "constant"
      value: 0.2
    }
  }
}
layer {
  name: "inception_4a/relu_5x5"
  type: "ReLU"
  bottom: "inception_4a/5x5"
  top: "inception_4a/5x5"
}
layer {
  name: "inception_4a/pool"
  type: "Pooling"
  bottom: "pool3/3x3_s2"
  top: "inception_4a/pool"
  pooling_param {
    pool: MAX
    kernel_size: 3
    stride: 1
    pad: 1
  }
}
layer {
  name: "inception_4a/pool_proj"
  type: "Convolution"
  bottom: "inception_4a/pool"
  top: "inception_4a/pool_proj"
  param {
    lr_mult: 1
    decay_mult: 1
  }
  param {
    lr_mult: 2
    decay_mult: 0
  }
  convolution_param {
    num_output: 64
    kernel_size: 1
    weight_filler {
      type: "xavier"
      std: 0.1
    }
    bias_filler {
      type: "constant"
      value: 0.2
    }
  }
}
layer {
  name: "inception_4a/relu_pool_proj"
  type: "ReLU"
  bottom: "inception_4a/pool_proj"
  top: "inception_4a/pool_proj"
}
layer {
  name: "inception_4a/output"
  type: "Concat"
  bottom: "inception_4a/1x1"
  bottom: "inception_4a/3x3"
  bottom: "inception_4a/5x5"
  bottom: "inception_4a/pool_proj"
  top: "inception_4a/output"
}
layer {
  name: "loss1/ave_pool"
  type: "Pooling"
  bottom: "inception_4a/output"
  top: "loss1/ave_pool"
  pooling_param {
    pool: AVE
    kernel_size: 5
    stride: 3
  }
}
layer {
  name: "loss1/conv"
  type: "Convolution"
  bottom: "loss1/ave_pool"
  top: "loss1/conv"
  param {
    lr_mult: 1
    decay_mult: 1
  }
  param {
    lr_mult: 2
    decay_mult: 0
  }
  convolution_param {
    num_output: 128
    kernel_size: 1
    weight_filler {
      type: "xavier"
      std: 0.08
    }
    bias_filler {
      type: "constant"
      value: 0.2
    }
  }
}
layer {
  name: "loss1/relu_conv"
  type: "ReLU"
  bottom: "loss1/conv"
  top: "loss1/conv"
}
layer {
  name: "loss1/fc"
  type: "InnerProduct"
  bottom: "loss1/conv"
  top: "loss1/fc"
  param {
    lr_mult: 1
    decay_mult: 1
  }
  param {
    lr_mult: 2
    decay_mult: 0
  }
  inner_product_param {
    num_output: 1024
    weight_filler {
      type: "xavier"
      std: 0.02
    }
    bias_filler {
      type: "constant"
      value: 0.2
    }
  }
}
layer {
  name: "loss1/relu_fc"
  type: "ReLU"
  bottom: "loss1/fc"
  top: "loss1/fc"
}
layer {
  name: "loss1/drop_fc"
  type: "Dropout"
  bottom: "loss1/fc"
  top: "loss1/fc"
  dropout_param {
    dropout_ratio: 0.7
  }
}
layer {
  name: "loss1/classifier_plantvillage"
  type: "InnerProduct"
  bottom: "loss1/fc"
  top: "loss1/classifier_plantvillage"
  param {
    lr_mult: 1
    decay_mult: 1
  }
  param {
    lr_mult: 2
    decay_mult: 0
  }
  inner_product_param {
    num_output: 38
    weight_filler {
      type: "xavier"
      std: 0.0009765625
    }
    bias_filler {
      type: "constant"
      value: 0
    }
  }
}
layer {
  name: "inception_4b/1x1"
  type: "Convolution"
  bottom: "inception_4a/output"
  top: "inception_4b/1x1"
  param {
    lr_mult: 1
    decay_mult: 1
  }
  param {
    lr_mult: 2
    decay_mult: 0
  }
  convolution_param {
    num_output: 160
    kernel_size: 1
    weight_filler {
      type: "xavier"
      std: 0.03
    }
    bias_filler {
      type: "constant"
      value: 0.2
    }
  }
}
layer {
  name: "inception_4b/relu_1x1"
  type: "ReLU"
  bottom: "inception_4b/1x1"
  top: "inception_4b/1x1"
}
layer {
  name: "inception_4b/3x3_reduce"
  type: "Convolution"
  bottom: "inception_4a/output"
  top: "inception_4b/3x3_reduce"
  param {
    lr_mult: 1
    decay_mult: 1
  }
  param {
    lr_mult: 2
    decay_mult: 0
  }
  convolution_param {
    num_output: 112
    kernel_size: 1
    weight_filler {
      type: "xavier"
      std: 0.09
    }
    bias_filler {
      type: "constant"
      value: 0.2
    }
  }
}
layer {
  name: "inception_4b/relu_3x3_reduce"
  type: "ReLU"
  bottom: "inception_4b/3x3_reduce"
  top: "inception_4b/3x3_reduce"
}
layer {
  name: "inception_4b/3x3"
  type: "Convolution"
  bottom: "inception_4b/3x3_reduce"
  top: "inception_4b/3x3"
  param {
    lr_mult: 1
    decay_mult: 1
  }
  param {
    lr_mult: 2
    decay_mult: 0
  }
  convolution_param {
    num_output: 224
    pad: 1
    kernel_size: 3
    weight_filler {
      type: "xavier"
      std: 0.03
    }
    bias_filler {
      type: "constant"
      value: 0.2
    }
  }
}
layer {
  name: "inception_4b/relu_3x3"
  type: "ReLU"
  bottom: "inception_4b/3x3"
  top: "inception_4b/3x3"
}
layer {
  name: "inception_4b/5x5_reduce"
  type: "Convolution"
  bottom: "inception_4a/output"
  top: "inception_4b/5x5_reduce"
  param {
    lr_mult: 1
    decay_mult: 1
  }
  param {
    lr_mult: 2
    decay_mult: 0
  }
  convolution_param {
    num_output: 24
    kernel_size: 1
    weight_filler {
      type: "xavier"
      std: 0.2
    }
    bias_filler {
      type: "constant"
      value: 0.2
    }
  }
}
layer {
  name: "inception_4b/relu_5x5_reduce"
  type: "ReLU"
  bottom: "inception_4b/5x5_reduce"
  top: "inception_4b/5x5_reduce"
}
layer {
  name: "inception_4b/5x5"
  type: "Convolution"
  bottom: "inception_4b/5x5_reduce"
  top: "inception_4b/5x5"
  param {
    lr_mult: 1
    decay_mult: 1
  }
  param {
    lr_mult: 2
    decay_mult: 0
  }
  convolution_param {
    num_output: 64
    pad: 2
    kernel_size: 5
    weight_filler {
      type: "xavier"
      std: 0.03
    }
    bias_filler {
      type: "constant"
      value: 0.2
    }
  }
}
layer {
  name: "inception_4b/relu_5x5"
  type: "ReLU"
  bottom: "inception_4b/5x5"
  top: "inception_4b/5x5"
}
layer {
  name: "inception_4b/pool"
  type: "Pooling"
  bottom: "inception_4a/output"
  top: "inception_4b/pool"
  pooling_param {
    pool: MAX
    kernel_size: 3
    stride: 1
    pad: 1
  }
}
layer {
  name: "inception_4b/pool_proj"
  type: "Convolution"
  bottom: "inception_4b/pool"
  top: "inception_4b/pool_proj"
  param {
    lr_mult: 1
    decay_mult: 1
  }
  param {
    lr_mult: 2
    decay_mult: 0
  }
  convolution_param {
    num_output: 64
    kernel_size: 1
    weight_filler {
      type: "xavier"
      std: 0.1
    }
    bias_filler {
      type: "constant"
      value: 0.2
    }
  }
}
layer {
  name: "inception_4b/relu_pool_proj"
  type: "ReLU"
  bottom: "inception_4b/pool_proj"
  top: "inception_4b/pool_proj"
}
layer {
  name: "inception_4b/output"
  type: "Concat"
  bottom: "inception_4b/1x1"
  bottom: "inception_4b/3x3"
  bottom: "inception_4b/5x5"
  bottom: "inception_4b/pool_proj"
  top: "inception_4b/output"
}
layer {
  name: "inception_4c/1x1"
  type: "Convolution"
  bottom: "inception_4b/output"
  top: "inception_4c/1x1"
  param {
    lr_mult: 1
    decay_mult: 1
  }
  param {
    lr_mult: 2
    decay_mult: 0
  }
  convolution_param {
    num_output: 128
    kernel_size: 1
    weight_filler {
      type: "xavier"
      std: 0.03
    }
    bias_filler {
      type: "constant"
      value: 0.2
    }
  }
}
layer {
  name: "inception_4c/relu_1x1"
  type: "ReLU"
  bottom: "inception_4c/1x1"
  top: "inception_4c/1x1"
}
layer {
  name: "inception_4c/3x3_reduce"
  type: "Convolution"
  bottom: "inception_4b/output"
  top: "inception_4c/3x3_reduce"
  param {
    lr_mult: 1
    decay_mult: 1
  }
  param {
    lr_mult: 2
    decay_mult: 0
  }
  convolution_param {
    num_output: 128
    kernel_size: 1
    weight_filler {
      type: "xavier"
      std: 0.09
    }
    bias_filler {
      type: "constant"
      value: 0.2
    }
  }
}
layer {
  name: "inception_4c/relu_3x3_reduce"
  type: "ReLU"
  bottom: "inception_4c/3x3_reduce"
  top: "inception_4c/3x3_reduce"
}
layer {
  name: "inception_4c/3x3"
  type: "Convolution"
  bottom: "inception_4c/3x3_reduce"
  top: "inception_4c/3x3"
  param {
    lr_mult: 1
    decay_mult: 1
  }
  param {
    lr_mult: 2
    decay_mult: 0
  }
  convolution_param {
    num_output: 256
    pad: 1
    kernel_size: 3
    weight_filler {
      type: "xavier"
      std: 0.03
    }
    bias_filler {
      type: "constant"
      value: 0.2
    }
  }
}
layer {
  name: "inception_4c/relu_3x3"
  type: "ReLU"
  bottom: "inception_4c/3x3"
  top: "inception_4c/3x3"
}
layer {
  name: "inception_4c/5x5_reduce"
  type: "Convolution"
  bottom: "inception_4b/output"
  top: "inception_4c/5x5_reduce"
  param {
    lr_mult: 1
    decay_mult: 1
  }
  param {
    lr_mult: 2
    decay_mult: 0
  }
  convolution_param {
    num_output: 24
    kernel_size: 1
    weight_filler {
      type: "xavier"
      std: 0.2
    }
    bias_filler {
      type: "constant"
      value: 0.2
    }
  }
}
layer {
  name: "inception_4c/relu_5x5_reduce"
  type: "ReLU"
  bottom: "inception_4c/5x5_reduce"
  top: "inception_4c/5x5_reduce"
}
layer {
  name: "inception_4c/5x5"
  type: "Convolution"
  bottom: "inception_4c/5x5_reduce"
  top: "inception_4c/5x5"
  param {
    lr_mult: 1
    decay_mult: 1
  }
  param {
    lr_mult: 2
    decay_mult: 0
  }
  convolution_param {
    num_output: 64
    pad: 2
    kernel_size: 5
    weight_filler {
      type: "xavier"
      std: 0.03
    }
    bias_filler {
      type: "constant"
      value: 0.2
    }
  }
}
layer {
  name: "inception_4c/relu_5x5"
  type: "ReLU"
  bottom: "inception_4c/5x5"
  top: "inception_4c/5x5"
}
layer {
  name: "inception_4c/pool"
  type: "Pooling"
  bottom: "inception_4b/output"
  top: "inception_4c/pool"
  pooling_param {
    pool: MAX
    kernel_size: 3
    stride: 1
    pad: 1
  }
}
layer {
  name: "inception_4c/pool_proj"
  type: "Convolution"
  bottom: "inception_4c/pool"
  top: "inception_4c/pool_proj"
  param {
    lr_mult: 1
    decay_mult: 1
  }
  param {
    lr_mult: 2
    decay_mult: 0
  }
  convolution_param {
    num_output: 64
    kernel_size: 1
    weight_filler {
      type: "xavier"
      std: 0.1
    }
    bias_filler {
      type: "constant"
      value: 0.2
    }
  }
}
layer {
  name: "inception_4c/relu_pool_proj"
  type: "ReLU"
  bottom: "inception_4c/pool_proj"
  top: "inception_4c/pool_proj"
}
layer {
  name: "inception_4c/output"
  type: "Concat"
  bottom: "inception_4c/1x1"
  bottom: "inception_4c/3x3"
  bottom: "inception_4c/5x5"
  bottom: "inception_4c/pool_proj"
  top: "inception_4c/output"
}
layer {
  name: "inception_4d/1x1"
  type: "Convolution"
  bottom: "inception_4c/output"
  top: "inception_4d/1x1"
  param {
    lr_mult: 1
    decay_mult: 1
  }
  param {
    lr_mult: 2
    decay_mult: 0
  }
  convolution_param {
    num_output: 112
    kernel_size: 1
    weight_filler {
      type: "xavier"
      std: 0.03
    }
    bias_filler {
      type: "constant"
      value: 0.2
    }
  }
}
layer {
  name: "inception_4d/relu_1x1"
  type: "ReLU"
  bottom: "inception_4d/1x1"
  top: "inception_4d/1x1"
}
layer {
  name: "inception_4d/3x3_reduce"
  type: "Convolution"
  bottom: "inception_4c/output"
  top: "inception_4d/3x3_reduce"
  param {
    lr_mult: 1
    decay_mult: 1
  }
  param {
    lr_mult: 2
    decay_mult: 0
  }
  convolution_param {
    num_output: 144
    kernel_size: 1
    weight_filler {
      type: "xavier"
      std: 0.09
    }
    bias_filler {
      type: "constant"
      value: 0.2
    }
  }
}
layer {
  name: "inception_4d/relu_3x3_reduce"
  type: "ReLU"
  bottom: "inception_4d/3x3_reduce"
  top: "inception_4d/3x3_reduce"
}
layer {
  name: "inception_4d/3x3"
  type: "Convolution"
  bottom: "inception_4d/3x3_reduce"
  top: "inception_4d/3x3"
  param {
    lr_mult: 1
    decay_mult: 1
  }
  param {
    lr_mult: 2
    decay_mult: 0
  }
  convolution_param {
    num_output: 288
    pad: 1
    kernel_size: 3
    weight_filler {
      type: "xavier"
      std: 0.03
    }
    bias_filler {
      type: "constant"
      value: 0.2
    }
  }
}
layer {
  name: "inception_4d/relu_3x3"
  type: "ReLU"
  bottom: "inception_4d/3x3"
  top: "inception_4d/3x3"
}
layer {
  name: "inception_4d/5x5_reduce"
  type: "Convolution"
  bottom: "inception_4c/output"
  top: "inception_4d/5x5_reduce"
  param {
    lr_mult: 1
    decay_mult: 1
  }
  param {
    lr_mult: 2
    decay_mult: 0
  }
  convolution_param {
    num_output: 32
    kernel_size: 1
    weight_filler {
      type: "xavier"
      std: 0.2
    }
    bias_filler {
      type: "constant"
      value: 0.2
    }
  }
}
layer {
  name: "inception_4d/relu_5x5_reduce"
  type: "ReLU"
  bottom: "inception_4d/5x5_reduce"
  top: "inception_4d/5x5_reduce"
}
layer {
  name: "inception_4d/5x5"
  type: "Convolution"
  bottom: "inception_4d/5x5_reduce"
  top: "inception_4d/5x5"
  param {
    lr_mult: 1
    decay_mult: 1
  }
  param {
    lr_mult: 2
    decay_mult: 0
  }
  convolution_param {
    num_output: 64
    pad: 2
    kernel_size: 5
    weight_filler {
      type: "xavier"
      std: 0.03
    }
    bias_filler {
      type: "constant"
      value: 0.2
    }
  }
}
layer {
  name: "inception_4d/relu_5x5"
  type: "ReLU"
  bottom: "inception_4d/5x5"
  top: "inception_4d/5x5"
}
layer {
  name: "inception_4d/pool"
  type: "Pooling"
  bottom: "inception_4c/output"
  top: "inception_4d/pool"
  pooling_param {
    pool: MAX
    kernel_size: 3
    stride: 1
    pad: 1
  }
}
layer {
  name: "inception_4d/pool_proj"
  type: "Convolution"
  bottom: "inception_4d/pool"
  top: "inception_4d/pool_proj"
  param {
    lr_mult: 1
    decay_mult: 1
  }
  param {
    lr_mult: 2
    decay_mult: 0
  }
  convolution_param {
    num_output: 64
    kernel_size: 1
    weight_filler {
      type: "xavier"
      std: 0.1
    }
    bias_filler {
      type: "constant"
      value: 0.2
    }
  }
}
layer {
  name: "inception_4d/relu_pool_proj"
  type: "ReLU"
  bottom: "inception_4d/pool_proj"
  top: "inception_4d/pool_proj"
}
layer {
  name: "inception_4d/output"
  type: "Concat"
  bottom: "inception_4d/1x1"
  bottom: "inception_4d/3x3"
  bottom: "inception_4d/5x5"
  bottom: "inception_4d/pool_proj"
  top: "inception_4d/output"
}
layer {
  name: "loss2/ave_pool"
  type: "Pooling"
  bottom: "inception_4d/output"
  top: "loss2/ave_pool"
  pooling_param {
    pool: AVE
    kernel_size: 5
    stride: 3
  }
}
layer {
  name: "loss2/conv"
  type: "Convolution"
  bottom: "loss2/ave_pool"
  top: "loss2/conv"
  param {
    lr_mult: 1
    decay_mult: 1
  }
  param {
    lr_mult: 2
    decay_mult: 0
  }
  convolution_param {
    num_output: 128
    kernel_size: 1
    weight_filler {
      type: "xavier"
      std: 0.08
    }
    bias_filler {
      type: "constant"
      value: 0.2
    }
  }
}
layer {
  name: "loss2/relu_conv"
  type: "ReLU"
  bottom: "loss2/conv"
  top: "loss2/conv"
}
layer {
  name: "loss2/fc"
  type: "InnerProduct"
  bottom: "loss2/conv"
  top: "loss2/fc"
  param {
    lr_mult: 1
    decay_mult: 1
  }
  param {
    lr_mult: 2
    decay_mult: 0
  }
  inner_product_param {
    num_output: 1024
    weight_filler {
      type: "xavier"
      std: 0.02
    }
    bias_filler {
      type: "constant"
      value: 0.2
    }
  }
}
layer {
  name: "loss2/relu_fc"
  type: "ReLU"
  bottom: "loss2/fc"
  top: "loss2/fc"
}
layer {
  name: "loss2/drop_fc"
  type: "Dropout"
  bottom: "loss2/fc"
  top: "loss2/fc"
  dropout_param {
    dropout_ratio: 0.7
  }
}
layer {
  name: "loss2/classifier_plantvillage"
  type: "InnerProduct"
  bottom: "loss2/fc"
  top: "loss2/classifier_plantvillage"
  param {
    lr_mult: 1
    decay_mult: 1
  }
  param {
    lr_mult: 2
    decay_mult: 0
  }
  inner_product_param {
    num_output: 38
    weight_filler {
      type: "xavier"
      std: 0.0009765625
    }
    bias_filler {
      type: "constant"
      value: 0
    }
  }
}
layer {
  name: "inception_4e/1x1"
  type: "Convolution"
  bottom: "inception_4d/output"
  top: "inception_4e/1x1"
  param {
    lr_mult: 1
    decay_mult: 1
  }
  param {
    lr_mult: 2
    decay_mult: 0
  }
  convolution_param {
    num_output: 256
    kernel_size: 1
    weight_filler {
      type: "xavier"
      std: 0.03
    }
    bias_filler {
      type: "constant"
      value: 0.2
    }
  }
}
layer {
  name: "inception_4e/relu_1x1"
  type: "ReLU"
  bottom: "inception_4e/1x1"
  top: "inception_4e/1x1"
}
layer {
  name: "inception_4e/3x3_reduce"
  type: "Convolution"
  bottom: "inception_4d/output"
  top: "inception_4e/3x3_reduce"
  param {
    lr_mult: 1
    decay_mult: 1
  }
  param {
    lr_mult: 2
    decay_mult: 0
  }
  convolution_param {
    num_output: 160
    kernel_size: 1
    weight_filler {
      type: "xavier"
      std: 0.09
    }
    bias_filler {
      type: "constant"
      value: 0.2
    }
  }
}
layer {
  name: "inception_4e/relu_3x3_reduce"
  type: "ReLU"
  bottom: "inception_4e/3x3_reduce"
  top: "inception_4e/3x3_reduce"
}
layer {
  name: "inception_4e/3x3"
  type: "Convolution"
  bottom: "inception_4e/3x3_reduce"
  top: "inception_4e/3x3"
  param {
    lr_mult: 1
    decay_mult: 1
  }
  param {
    lr_mult: 2
    decay_mult: 0
  }
  convolution_param {
    num_output: 320
    pad: 1
    kernel_size: 3
    weight_filler {
      type: "xavier"
      std: 0.03
    }
    bias_filler {
      type: "constant"
      value: 0.2
    }
  }
}
layer {
  name: "inception_4e/relu_3x3"
  type: "ReLU"
  bottom: "inception_4e/3x3"
  top: "inception_4e/3x3"
}
layer {
  name: "inception_4e/5x5_reduce"
  type: "Convolution"
  bottom: "inception_4d/output"
  top: "inception_4e/5x5_reduce"
  param {
    lr_mult: 1
    decay_mult: 1
  }
  param {
    lr_mult: 2
    decay_mult: 0
  }
  convolution_param {
    num_output: 32
    kernel_size: 1
    weight_filler {
      type: "xavier"
      std: 0.2
    }
    bias_filler {
      type: "constant"
      value: 0.2
    }
  }
}
layer {
  name: "inception_4e/relu_5x5_reduce"
  type: "ReLU"
  bottom: "inception_4e/5x5_reduce"
  top: "inception_4e/5x5_reduce"
}
layer {
  name: "inception_4e/5x5"
  type: "Convolution"
  bottom: "inception_4e/5x5_reduce"
  top: "inception_4e/
I0403 15:47:41.923607  3648 layer_factory.hpp:77] Creating layer data
I0403 15:47:41.924192  3648 net.cpp:91] Creating Layer data
I0403 15:47:41.924223  3648 net.cpp:399] data -> data
I0403 15:47:41.924278  3648 net.cpp:399] data -> label
I0403 15:47:41.924314  3648 data_transformer.cpp:25] Loading mean file from: /home/mohanty/data/final_dataset/lmdb/grayscale-50-50/mean.binaryproto
I0403 15:47:41.928119  3651 db_lmdb.cpp:38] Opened lmdb /home/mohanty/data/final_dataset/lmdb/grayscale-50-50/test_db
I0403 15:47:41.938122  3648 data_layer.cpp:41] output data size: 24,3,224,224
I0403 15:47:41.966140  3648 net.cpp:141] Setting up data
I0403 15:47:41.966218  3648 net.cpp:148] Top shape: 24 3 224 224 (3612672)
I0403 15:47:41.966244  3648 net.cpp:148] Top shape: 24 (24)
I0403 15:47:41.966261  3648 net.cpp:156] Memory required for data: 14450784
I0403 15:47:41.966287  3648 layer_factory.hpp:77] Creating layer label_data_1_split
I0403 15:47:41.966313  3648 net.cpp:91] Creating Layer label_data_1_split
I0403 15:47:41.966332  3648 net.cpp:425] label_data_1_split <- label
I0403 15:47:41.966363  3648 net.cpp:399] label_data_1_split -> label_data_1_split_0
I0403 15:47:41.966390  3648 net.cpp:399] label_data_1_split -> label_data_1_split_1
I0403 15:47:41.966410  3648 net.cpp:399] label_data_1_split -> label_data_1_split_2
I0403 15:47:41.966433  3648 net.cpp:399] label_data_1_split -> label_data_1_split_3
I0403 15:47:41.966452  3648 net.cpp:399] label_data_1_split -> label_data_1_split_4
I0403 15:47:41.966472  3648 net.cpp:399] label_data_1_split -> label_data_1_split_5
I0403 15:47:41.966491  3648 net.cpp:399] label_data_1_split -> label_data_1_split_6
I0403 15:47:41.966511  3648 net.cpp:399] label_data_1_split -> label_data_1_split_7
I0403 15:47:41.966531  3648 net.cpp:399] label_data_1_split -> label_data_1_split_8
I0403 15:47:41.966550  3648 net.cpp:399] label_data_1_split -> label_data_1_split_9
I0403 15:47:41.966666  3648 net.cpp:141] Setting up label_data_1_split
I0403 15:47:41.966691  3648 net.cpp:148] Top shape: 24 (24)
I0403 15:47:41.966709  3648 net.cpp:148] Top shape: 24 (24)
I0403 15:47:41.966725  3648 net.cpp:148] Top shape: 24 (24)
I0403 15:47:41.966742  3648 net.cpp:148] Top shape: 24 (24)
I0403 15:47:41.966758  3648 net.cpp:148] Top shape: 24 (24)
I0403 15:47:41.966773  3648 net.cpp:148] Top shape: 24 (24)
I0403 15:47:41.966789  3648 net.cpp:148] Top shape: 24 (24)
I0403 15:47:41.966804  3648 net.cpp:148] Top shape: 24 (24)
I0403 15:47:41.966820  3648 net.cpp:148] Top shape: 24 (24)
I0403 15:47:41.966836  3648 net.cpp:148] Top shape: 24 (24)
I0403 15:47:41.966881  3648 net.cpp:156] Memory required for data: 14451744
I0403 15:47:41.966897  3648 layer_factory.hpp:77] Creating layer conv1/7x7_s2
I0403 15:47:41.966928  3648 net.cpp:91] Creating Layer conv1/7x7_s2
I0403 15:47:41.966948  3648 net.cpp:425] conv1/7x7_s2 <- data
I0403 15:47:41.966966  3648 net.cpp:399] conv1/7x7_s2 -> conv1/7x7_s2
I0403 15:47:42.118325  3648 net.cpp:141] Setting up conv1/7x7_s2
I0403 15:47:42.118397  3648 net.cpp:148] Top shape: 24 64 112 112 (19267584)
I0403 15:47:42.118415  3648 net.cpp:156] Memory required for data: 91522080
I0403 15:47:42.118446  3648 layer_factory.hpp:77] Creating layer conv1/relu_7x7
I0403 15:47:42.118474  3648 net.cpp:91] Creating Layer conv1/relu_7x7
I0403 15:47:42.118491  3648 net.cpp:425] conv1/relu_7x7 <- conv1/7x7_s2
I0403 15:47:42.118513  3648 net.cpp:386] conv1/relu_7x7 -> conv1/7x7_s2 (in-place)
I0403 15:47:42.118773  3648 net.cpp:141] Setting up conv1/relu_7x7
I0403 15:47:42.118801  3648 net.cpp:148] Top shape: 24 64 112 112 (19267584)
I0403 15:47:42.118818  3648 net.cpp:156] Memory required for data: 168592416
I0403 15:47:42.118834  3648 layer_factory.hpp:77] Creating layer pool1/3x3_s2
I0403 15:47:42.118860  3648 net.cpp:91] Creating Layer pool1/3x3_s2
I0403 15:47:42.118877  3648 net.cpp:425] pool1/3x3_s2 <- conv1/7x7_s2
I0403 15:47:42.118896  3648 net.cpp:399] pool1/3x3_s2 -> pool1/3x3_s2
I0403 15:47:42.118969  3648 net.cpp:141] Setting up pool1/3x3_s2
I0403 15:47:42.118994  3648 net.cpp:148] Top shape: 24 64 56 56 (4816896)
I0403 15:47:42.119010  3648 net.cpp:156] Memory required for data: 187860000
I0403 15:47:42.119025  3648 layer_factory.hpp:77] Creating layer pool1/norm1
I0403 15:47:42.119051  3648 net.cpp:91] Creating Layer pool1/norm1
I0403 15:47:42.119068  3648 net.cpp:425] pool1/norm1 <- pool1/3x3_s2
I0403 15:47:42.119087  3648 net.cpp:399] pool1/norm1 -> pool1/norm1
I0403 15:47:42.119421  3648 net.cpp:141] Setting up pool1/norm1
I0403 15:47:42.119448  3648 net.cpp:148] Top shape: 24 64 56 56 (4816896)
I0403 15:47:42.119464  3648 net.cpp:156] Memory required for data: 207127584
I0403 15:47:42.119479  3648 layer_factory.hpp:77] Creating layer conv2/3x3_reduce
I0403 15:47:42.119508  3648 net.cpp:91] Creating Layer conv2/3x3_reduce
I0403 15:47:42.119526  3648 net.cpp:425] conv2/3x3_reduce <- pool1/norm1
I0403 15:47:42.119545  3648 net.cpp:399] conv2/3x3_reduce -> conv2/3x3_reduce
I0403 15:47:42.120966  3648 net.cpp:141] Setting up conv2/3x3_reduce
I0403 15:47:42.121037  3648 net.cpp:148] Top shape: 24 64 56 56 (4816896)
I0403 15:47:42.121057  3648 net.cpp:156] Memory required for data: 226395168
I0403 15:47:42.121084  3648 layer_factory.hpp:77] Creating layer conv2/relu_3x3_reduce
I0403 15:47:42.121104  3648 net.cpp:91] Creating Layer conv2/relu_3x3_reduce
I0403 15:47:42.121120  3648 net.cpp:425] conv2/relu_3x3_reduce <- conv2/3x3_reduce
I0403 15:47:42.121137  3648 net.cpp:386] conv2/relu_3x3_reduce -> conv2/3x3_reduce (in-place)
I0403 15:47:42.121422  3648 net.cpp:141] Setting up conv2/relu_3x3_reduce
I0403 15:47:42.121449  3648 net.cpp:148] Top shape: 24 64 56 56 (4816896)
I0403 15:47:42.121465  3648 net.cpp:156] Memory required for data: 245662752
I0403 15:47:42.121480  3648 layer_factory.hpp:77] Creating layer conv2/3x3
I0403 15:47:42.121505  3648 net.cpp:91] Creating Layer conv2/3x3
I0403 15:47:42.121522  3648 net.cpp:425] conv2/3x3 <- conv2/3x3_reduce
I0403 15:47:42.121543  3648 net.cpp:399] conv2/3x3 -> conv2/3x3
I0403 15:47:42.123966  3648 net.cpp:141] Setting up conv2/3x3
I0403 15:47:42.123998  3648 net.cpp:148] Top shape: 24 192 56 56 (14450688)
I0403 15:47:42.124016  3648 net.cpp:156] Memory required for data: 303465504
I0403 15:47:42.124042  3648 layer_factory.hpp:77] Creating layer conv2/relu_3x3
I0403 15:47:42.124061  3648 net.cpp:91] Creating Layer conv2/relu_3x3
I0403 15:47:42.124076  3648 net.cpp:425] conv2/relu_3x3 <- conv2/3x3
I0403 15:47:42.124094  3648 net.cpp:386] conv2/relu_3x3 -> conv2/3x3 (in-place)
I0403 15:47:42.124299  3648 net.cpp:141] Setting up conv2/relu_3x3
I0403 15:47:42.124327  3648 net.cpp:148] Top shape: 24 192 56 56 (14450688)
I0403 15:47:42.124375  3648 net.cpp:156] Memory required for data: 361268256
I0403 15:47:42.124392  3648 layer_factory.hpp:77] Creating layer conv2/norm2
I0403 15:47:42.124411  3648 net.cpp:91] Creating Layer conv2/norm2
I0403 15:47:42.124431  3648 net.cpp:425] conv2/norm2 <- conv2/3x3
I0403 15:47:42.124450  3648 net.cpp:399] conv2/norm2 -> conv2/norm2
I0403 15:47:42.124771  3648 net.cpp:141] Setting up conv2/norm2
I0403 15:47:42.124800  3648 net.cpp:148] Top shape: 24 192 56 56 (14450688)
I0403 15:47:42.124816  3648 net.cpp:156] Memory required for data: 419071008
I0403 15:47:42.124832  3648 layer_factory.hpp:77] Creating layer pool2/3x3_s2
I0403 15:47:42.124851  3648 net.cpp:91] Creating Layer pool2/3x3_s2
I0403 15:47:42.124871  3648 net.cpp:425] pool2/3x3_s2 <- conv2/norm2
I0403 15:47:42.124891  3648 net.cpp:399] pool2/3x3_s2 -> pool2/3x3_s2
I0403 15:47:42.124946  3648 net.cpp:141] Setting up pool2/3x3_s2
I0403 15:47:42.124970  3648 net.cpp:148] Top shape: 24 192 28 28 (3612672)
I0403 15:47:42.124986  3648 net.cpp:156] Memory required for data: 433521696
I0403 15:47:42.125002  3648 layer_factory.hpp:77] Creating layer pool2/3x3_s2_pool2/3x3_s2_0_split
I0403 15:47:42.125021  3648 net.cpp:91] Creating Layer pool2/3x3_s2_pool2/3x3_s2_0_split
I0403 15:47:42.125037  3648 net.cpp:425] pool2/3x3_s2_pool2/3x3_s2_0_split <- pool2/3x3_s2
I0403 15:47:42.125057  3648 net.cpp:399] pool2/3x3_s2_pool2/3x3_s2_0_split -> pool2/3x3_s2_pool2/3x3_s2_0_split_0
I0403 15:47:42.125079  3648 net.cpp:399] pool2/3x3_s2_pool2/3x3_s2_0_split -> pool2/3x3_s2_pool2/3x3_s2_0_split_1
I0403 15:47:42.125100  3648 net.cpp:399] pool2/3x3_s2_pool2/3x3_s2_0_split -> pool2/3x3_s2_pool2/3x3_s2_0_split_2
I0403 15:47:42.125120  3648 net.cpp:399] pool2/3x3_s2_pool2/3x3_s2_0_split -> pool2/3x3_s2_pool2/3x3_s2_0_split_3
I0403 15:47:42.125192  3648 net.cpp:141] Setting up pool2/3x3_s2_pool2/3x3_s2_0_split
I0403 15:47:42.125218  3648 net.cpp:148] Top shape: 24 192 28 28 (3612672)
I0403 15:47:42.125236  3648 net.cpp:148] Top shape: 24 192 28 28 (3612672)
I0403 15:47:42.125252  3648 net.cpp:148] Top shape: 24 192 28 28 (3612672)
I0403 15:47:42.125268  3648 net.cpp:148] Top shape: 24 192 28 28 (3612672)
I0403 15:47:42.125288  3648 net.cpp:156] Memory required for data: 491324448
I0403 15:47:42.125304  3648 layer_factory.hpp:77] Creating layer inception_3a/1x1
I0403 15:47:42.125330  3648 net.cpp:91] Creating Layer inception_3a/1x1
I0403 15:47:42.125349  3648 net.cpp:425] inception_3a/1x1 <- pool2/3x3_s2_pool2/3x3_s2_0_split_0
I0403 15:47:42.125368  3648 net.cpp:399] inception_3a/1x1 -> inception_3a/1x1
I0403 15:47:42.126976  3648 net.cpp:141] Setting up inception_3a/1x1
I0403 15:47:42.127007  3648 net.cpp:148] Top shape: 24 64 28 28 (1204224)
I0403 15:47:42.127023  3648 net.cpp:156] Memory required for data: 496141344
I0403 15:47:42.127043  3648 layer_factory.hpp:77] Creating layer inception_3a/relu_1x1
I0403 15:47:42.127064  3648 net.cpp:91] Creating Layer inception_3a/relu_1x1
I0403 15:47:42.127082  3648 net.cpp:425] inception_3a/relu_1x1 <- inception_3a/1x1
I0403 15:47:42.127101  3648 net.cpp:386] inception_3a/relu_1x1 -> inception_3a/1x1 (in-place)
I0403 15:47:42.127285  3648 net.cpp:141] Setting up inception_3a/relu_1x1
I0403 15:47:42.127313  3648 net.cpp:148] Top shape: 24 64 28 28 (1204224)
I0403 15:47:42.127331  3648 net.cpp:156] Memory required for data: 500958240
I0403 15:47:42.127346  3648 layer_factory.hpp:77] Creating layer inception_3a/3x3_reduce
I0403 15:47:42.127370  3648 net.cpp:91] Creating Layer inception_3a/3x3_reduce
I0403 15:47:42.127388  3648 net.cpp:425] inception_3a/3x3_reduce <- pool2/3x3_s2_pool2/3x3_s2_0_split_1
I0403 15:47:42.127408  3648 net.cpp:399] inception_3a/3x3_reduce -> inception_3a/3x3_reduce
I0403 15:47:42.129174  3648 net.cpp:141] Setting up inception_3a/3x3_reduce
I0403 15:47:42.129204  3648 net.cpp:148] Top shape: 24 96 28 28 (1806336)
I0403 15:47:42.129221  3648 net.cpp:156] Memory required for data: 508183584
I0403 15:47:42.129251  3648 layer_factory.hpp:77] Creating layer inception_3a/relu_3x3_reduce
I0403 15:47:42.129292  3648 net.cpp:91] Creating Layer inception_3a/relu_3x3_reduce
I0403 15:47:42.129312  3648 net.cpp:425] inception_3a/relu_3x3_reduce <- inception_3a/3x3_reduce
I0403 15:47:42.129330  3648 net.cpp:386] inception_3a/relu_3x3_reduce -> inception_3a/3x3_reduce (in-place)
I0403 15:47:42.129526  3648 net.cpp:141] Setting up inception_3a/relu_3x3_reduce
I0403 15:47:42.129552  3648 net.cpp:148] Top shape: 24 96 28 28 (1806336)
I0403 15:47:42.129568  3648 net.cpp:156] Memory required for data: 515408928
I0403 15:47:42.129583  3648 layer_factory.hpp:77] Creating layer inception_3a/3x3
I0403 15:47:42.129609  3648 net.cpp:91] Creating Layer inception_3a/3x3
I0403 15:47:42.129627  3648 net.cpp:425] inception_3a/3x3 <- inception_3a/3x3_reduce
I0403 15:47:42.129649  3648 net.cpp:399] inception_3a/3x3 -> inception_3a/3x3
I0403 15:47:42.131383  3648 net.cpp:141] Setting up inception_3a/3x3
I0403 15:47:42.131413  3648 net.cpp:148] Top shape: 24 128 28 28 (2408448)
I0403 15:47:42.131430  3648 net.cpp:156] Memory required for data: 525042720
I0403 15:47:42.131450  3648 layer_factory.hpp:77] Creating layer inception_3a/relu_3x3
I0403 15:47:42.131472  3648 net.cpp:91] Creating Layer inception_3a/relu_3x3
I0403 15:47:42.131489  3648 net.cpp:425] inception_3a/relu_3x3 <- inception_3a/3x3
I0403 15:47:42.131507  3648 net.cpp:386] inception_3a/relu_3x3 -> inception_3a/3x3 (in-place)
I0403 15:47:42.131795  3648 net.cpp:141] Setting up inception_3a/relu_3x3
I0403 15:47:42.131825  3648 net.cpp:148] Top shape: 24 128 28 28 (2408448)
I0403 15:47:42.131841  3648 net.cpp:156] Memory required for data: 534676512
I0403 15:47:42.131857  3648 layer_factory.hpp:77] Creating layer inception_3a/5x5_reduce
I0403 15:47:42.131882  3648 net.cpp:91] Creating Layer inception_3a/5x5_reduce
I0403 15:47:42.131901  3648 net.cpp:425] inception_3a/5x5_reduce <- pool2/3x3_s2_pool2/3x3_s2_0_split_2
I0403 15:47:42.131922  3648 net.cpp:399] inception_3a/5x5_reduce -> inception_3a/5x5_reduce
I0403 15:47:42.132939  3648 net.cpp:141] Setting up inception_3a/5x5_reduce
I0403 15:47:42.132972  3648 net.cpp:148] Top shape: 24 16 28 28 (301056)
I0403 15:47:42.132988  3648 net.cpp:156] Memory required for data: 535880736
I0403 15:47:42.133008  3648 layer_factory.hpp:77] Creating layer inception_3a/relu_5x5_reduce
I0403 15:47:42.133028  3648 net.cpp:91] Creating Layer inception_3a/relu_5x5_reduce
I0403 15:47:42.133044  3648 net.cpp:425] inception_3a/relu_5x5_reduce <- inception_3a/5x5_reduce
I0403 15:47:42.133067  3648 net.cpp:386] inception_3a/relu_5x5_reduce -> inception_3a/5x5_reduce (in-place)
I0403 15:47:42.133374  3648 net.cpp:141] Setting up inception_3a/relu_5x5_reduce
I0403 15:47:42.133404  3648 net.cpp:148] Top shape: 24 16 28 28 (301056)
I0403 15:47:42.133420  3648 net.cpp:156] Memory required for data: 537084960
I0403 15:47:42.133436  3648 layer_factory.hpp:77] Creating layer inception_3a/5x5
I0403 15:47:42.133460  3648 net.cpp:91] Creating Layer inception_3a/5x5
I0403 15:47:42.133479  3648 net.cpp:425] inception_3a/5x5 <- inception_3a/5x5_reduce
I0403 15:47:42.133498  3648 net.cpp:399] inception_3a/5x5 -> inception_3a/5x5
I0403 15:47:42.134557  3648 net.cpp:141] Setting up inception_3a/5x5
I0403 15:47:42.134585  3648 net.cpp:148] Top shape: 24 32 28 28 (602112)
I0403 15:47:42.134601  3648 net.cpp:156] Memory required for data: 539493408
I0403 15:47:42.134621  3648 layer_factory.hpp:77] Creating layer inception_3a/relu_5x5
I0403 15:47:42.134642  3648 net.cpp:91] Creating Layer inception_3a/relu_5x5
I0403 15:47:42.134660  3648 net.cpp:425] inception_3a/relu_5x5 <- inception_3a/5x5
I0403 15:47:42.134680  3648 net.cpp:386] inception_3a/relu_5x5 -> inception_3a/5x5 (in-place)
I0403 15:47:42.134857  3648 net.cpp:141] Setting up inception_3a/relu_5x5
I0403 15:47:42.134886  3648 net.cpp:148] Top shape: 24 32 28 28 (602112)
I0403 15:47:42.134903  3648 net.cpp:156] Memory required for data: 541901856
I0403 15:47:42.134920  3648 layer_factory.hpp:77] Creating layer inception_3a/pool
I0403 15:47:42.134939  3648 net.cpp:91] Creating Layer inception_3a/pool
I0403 15:47:42.134971  3648 net.cpp:425] inception_3a/pool <- pool2/3x3_s2_pool2/3x3_s2_0_split_3
I0403 15:47:42.134994  3648 net.cpp:399] inception_3a/pool -> inception_3a/pool
I0403 15:47:42.135056  3648 net.cpp:141] Setting up inception_3a/pool
I0403 15:47:42.135079  3648 net.cpp:148] Top shape: 24 192 28 28 (3612672)
I0403 15:47:42.135095  3648 net.cpp:156] Memory required for data: 556352544
I0403 15:47:42.135112  3648 layer_factory.hpp:77] Creating layer inception_3a/pool_proj
I0403 15:47:42.135134  3648 net.cpp:91] Creating Layer inception_3a/pool_proj
I0403 15:47:42.135152  3648 net.cpp:425] inception_3a/pool_proj <- inception_3a/pool
I0403 15:47:42.135175  3648 net.cpp:399] inception_3a/pool_proj -> inception_3a/pool_proj
I0403 15:47:42.136198  3648 net.cpp:141] Setting up inception_3a/pool_proj
I0403 15:47:42.136229  3648 net.cpp:148] Top shape: 24 32 28 28 (602112)
I0403 15:47:42.136245  3648 net.cpp:156] Memory required for data: 558760992
I0403 15:47:42.136275  3648 layer_factory.hpp:77] Creating layer inception_3a/relu_pool_proj
I0403 15:47:42.136297  3648 net.cpp:91] Creating Layer inception_3a/relu_pool_proj
I0403 15:47:42.136314  3648 net.cpp:425] inception_3a/relu_pool_proj <- inception_3a/pool_proj
I0403 15:47:42.136335  3648 net.cpp:386] inception_3a/relu_pool_proj -> inception_3a/pool_proj (in-place)
I0403 15:47:42.136626  3648 net.cpp:141] Setting up inception_3a/relu_pool_proj
I0403 15:47:42.136653  3648 net.cpp:148] Top shape: 24 32 28 28 (602112)
I0403 15:47:42.136669  3648 net.cpp:156] Memory required for data: 561169440
I0403 15:47:42.136685  3648 layer_factory.hpp:77] Creating layer inception_3a/output
I0403 15:47:42.136706  3648 net.cpp:91] Creating Layer inception_3a/output
I0403 15:47:42.136723  3648 net.cpp:425] inception_3a/output <- inception_3a/1x1
I0403 15:47:42.136741  3648 net.cpp:425] inception_3a/output <- inception_3a/3x3
I0403 15:47:42.136757  3648 net.cpp:425] inception_3a/output <- inception_3a/5x5
I0403 15:47:42.136773  3648 net.cpp:425] inception_3a/output <- inception_3a/pool_proj
I0403 15:47:42.136791  3648 net.cpp:399] inception_3a/output -> inception_3a/output
I0403 15:47:42.136842  3648 net.cpp:141] Setting up inception_3a/output
I0403 15:47:42.136867  3648 net.cpp:148] Top shape: 24 256 28 28 (4816896)
I0403 15:47:42.136881  3648 net.cpp:156] Memory required for data: 580437024
I0403 15:47:42.136896  3648 layer_factory.hpp:77] Creating layer inception_3a/output_inception_3a/output_0_split
I0403 15:47:42.136915  3648 net.cpp:91] Creating Layer inception_3a/output_inception_3a/output_0_split
I0403 15:47:42.136930  3648 net.cpp:425] inception_3a/output_inception_3a/output_0_split <- inception_3a/output
I0403 15:47:42.136952  3648 net.cpp:399] inception_3a/output_inception_3a/output_0_split -> inception_3a/output_inception_3a/output_0_split_0
I0403 15:47:42.136975  3648 net.cpp:399] inception_3a/output_inception_3a/output_0_split -> inception_3a/output_inception_3a/output_0_split_1
I0403 15:47:42.137001  3648 net.cpp:399] inception_3a/output_inception_3a/output_0_split -> inception_3a/output_inception_3a/output_0_split_2
I0403 15:47:42.137023  3648 net.cpp:399] inception_3a/output_inception_3a/output_0_split -> inception_3a/output_inception_3a/output_0_split_3
I0403 15:47:42.137099  3648 net.cpp:141] Setting up inception_3a/output_inception_3a/output_0_split
I0403 15:47:42.137123  3648 net.cpp:148] Top shape: 24 256 28 28 (4816896)
I0403 15:47:42.137143  3648 net.cpp:148] Top shape: 24 256 28 28 (4816896)
I0403 15:47:42.137161  3648 net.cpp:148] Top shape: 24 256 28 28 (4816896)
I0403 15:47:42.137178  3648 net.cpp:148] Top shape: 24 256 28 28 (4816896)
I0403 15:47:42.137192  3648 net.cpp:156] Memory required for data: 657507360
I0403 15:47:42.137207  3648 layer_factory.hpp:77] Creating layer inception_3b/1x1
I0403 15:47:42.137229  3648 net.cpp:91] Creating Layer inception_3b/1x1
I0403 15:47:42.137246  3648 net.cpp:425] inception_3b/1x1 <- inception_3a/output_inception_3a/output_0_split_0
I0403 15:47:42.137269  3648 net.cpp:399] inception_3b/1x1 -> inception_3b/1x1
I0403 15:47:42.138470  3648 net.cpp:141] Setting up inception_3b/1x1
I0403 15:47:42.138514  3648 net.cpp:148] Top shape: 24 128 28 28 (2408448)
I0403 15:47:42.138530  3648 net.cpp:156] Memory required for data: 667141152
I0403 15:47:42.138550  3648 layer_factory.hpp:77] Creating layer inception_3b/relu_1x1
I0403 15:47:42.138572  3648 net.cpp:91] Creating Layer inception_3b/relu_1x1
I0403 15:47:42.138592  3648 net.cpp:425] inception_3b/relu_1x1 <- inception_3b/1x1
I0403 15:47:42.138609  3648 net.cpp:386] inception_3b/relu_1x1 -> inception_3b/1x1 (in-place)
I0403 15:47:42.138793  3648 net.cpp:141] Setting up inception_3b/relu_1x1
I0403 15:47:42.138819  3648 net.cpp:148] Top shape: 24 128 28 28 (2408448)
I0403 15:47:42.138835  3648 net.cpp:156] Memory required for data: 676774944
I0403 15:47:42.138851  3648 layer_factory.hpp:77] Creating layer inception_3b/3x3_reduce
I0403 15:47:42.138876  3648 net.cpp:91] Creating Layer inception_3b/3x3_reduce
I0403 15:47:42.138895  3648 net.cpp:425] inception_3b/3x3_reduce <- inception_3a/output_inception_3a/output_0_split_1
I0403 15:47:42.138916  3648 net.cpp:399] inception_3b/3x3_reduce -> inception_3b/3x3_reduce
I0403 15:47:42.140110  3648 net.cpp:141] Setting up inception_3b/3x3_reduce
I0403 15:47:42.140139  3648 net.cpp:148] Top shape: 24 128 28 28 (2408448)
I0403 15:47:42.140156  3648 net.cpp:156] Memory required for data: 686408736
I0403 15:47:42.140175  3648 layer_factory.hpp:77] Creating layer inception_3b/relu_3x3_reduce
I0403 15:47:42.140197  3648 net.cpp:91] Creating Layer inception_3b/relu_3x3_reduce
I0403 15:47:42.140216  3648 net.cpp:425] inception_3b/relu_3x3_reduce <- inception_3b/3x3_reduce
I0403 15:47:42.140234  3648 net.cpp:386] inception_3b/relu_3x3_reduce -> inception_3b/3x3_reduce (in-place)
I0403 15:47:42.140421  3648 net.cpp:141] Setting up inception_3b/relu_3x3_reduce
I0403 15:47:42.140449  3648 net.cpp:148] Top shape: 24 128 28 28 (2408448)
I0403 15:47:42.140467  3648 net.cpp:156] Memory required for data: 696042528
I0403 15:47:42.140483  3648 layer_factory.hpp:77] Creating layer inception_3b/3x3
I0403 15:47:42.140508  3648 net.cpp:91] Creating Layer inception_3b/3x3
I0403 15:47:42.140527  3648 net.cpp:425] inception_3b/3x3 <- inception_3b/3x3_reduce
I0403 15:47:42.140549  3648 net.cpp:399] inception_3b/3x3 -> inception_3b/3x3
I0403 15:47:42.143615  3648 net.cpp:141] Setting up inception_3b/3x3
I0403 15:47:42.143646  3648 net.cpp:148] Top shape: 24 192 28 28 (3612672)
I0403 15:47:42.143662  3648 net.cpp:156] Memory required for data: 710493216
I0403 15:47:42.143682  3648 layer_factory.hpp:77] Creating layer inception_3b/relu_3x3
I0403 15:47:42.143703  3648 net.cpp:91] Creating Layer inception_3b/relu_3x3
I0403 15:47:42.143721  3648 net.cpp:425] inception_3b/relu_3x3 <- inception_3b/3x3
I0403 15:47:42.143740  3648 net.cpp:386] inception_3b/relu_3x3 -> inception_3b/3x3 (in-place)
I0403 15:47:42.144029  3648 net.cpp:141] Setting up inception_3b/relu_3x3
I0403 15:47:42.144057  3648 net.cpp:148] Top shape: 24 192 28 28 (3612672)
I0403 15:47:42.144073  3648 net.cpp:156] Memory required for data: 724943904
I0403 15:47:42.144089  3648 layer_factory.hpp:77] Creating layer inception_3b/5x5_reduce
I0403 15:47:42.144115  3648 net.cpp:91] Creating Layer inception_3b/5x5_reduce
I0403 15:47:42.144134  3648 net.cpp:425] inception_3b/5x5_reduce <- inception_3a/output_inception_3a/output_0_split_2
I0403 15:47:42.144155  3648 net.cpp:399] inception_3b/5x5_reduce -> inception_3b/5x5_reduce
I0403 15:47:42.145190  3648 net.cpp:141] Setting up inception_3b/5x5_reduce
I0403 15:47:42.145220  3648 net.cpp:148] Top shape: 24 32 28 28 (602112)
I0403 15:47:42.145237  3648 net.cpp:156] Memory required for data: 727352352
I0403 15:47:42.145257  3648 layer_factory.hpp:77] Creating layer inception_3b/relu_5x5_reduce
I0403 15:47:42.145282  3648 net.cpp:91] Creating Layer inception_3b/relu_5x5_reduce
I0403 15:47:42.145303  3648 net.cpp:425] inception_3b/relu_5x5_reduce <- inception_3b/5x5_reduce
I0403 15:47:42.145320  3648 net.cpp:386] inception_3b/relu_5x5_reduce -> inception_3b/5x5_reduce (in-place)
I0403 15:47:42.145534  3648 net.cpp:141] Setting up inception_3b/relu_5x5_reduce
I0403 15:47:42.145562  3648 net.cpp:148] Top shape: 24 32 28 28 (602112)
I0403 15:47:42.145578  3648 net.cpp:156] Memory required for data: 729760800
I0403 15:47:42.145594  3648 layer_factory.hpp:77] Creating layer inception_3b/5x5
I0403 15:47:42.145617  3648 net.cpp:91] Creating Layer inception_3b/5x5
I0403 15:47:42.145637  3648 net.cpp:425] inception_3b/5x5 <- inception_3b/5x5_reduce
I0403 15:47:42.145656  3648 net.cpp:399] inception_3b/5x5 -> inception_3b/5x5
I0403 15:47:42.147727  3648 net.cpp:141] Setting up inception_3b/5x5
I0403 15:47:42.147755  3648 net.cpp:148] Top shape: 24 96 28 28 (1806336)
I0403 15:47:42.147773  3648 net.cpp:156] Memory required for data: 736986144
I0403 15:47:42.147791  3648 layer_factory.hpp:77] Creating layer inception_3b/relu_5x5
I0403 15:47:42.147809  3648 net.cpp:91] Creating Layer inception_3b/relu_5x5
I0403 15:47:42.147825  3648 net.cpp:425] inception_3b/relu_5x5 <- inception_3b/5x5
I0403 15:47:42.147846  3648 net.cpp:386] inception_3b/relu_5x5 -> inception_3b/5x5 (in-place)
I0403 15:47:42.148042  3648 net.cpp:141] Setting up inception_3b/relu_5x5
I0403 15:47:42.148068  3648 net.cpp:148] Top shape: 24 96 28 28 (1806336)
I0403 15:47:42.148083  3648 net.cpp:156] Memory required for data: 744211488
I0403 15:47:42.148098  3648 layer_factory.hpp:77] Creating layer inception_3b/pool
I0403 15:47:42.148118  3648 net.cpp:91] Creating Layer inception_3b/pool
I0403 15:47:42.148133  3648 net.cpp:425] inception_3b/pool <- inception_3a/output_inception_3a/output_0_split_3
I0403 15:47:42.148152  3648 net.cpp:399] inception_3b/pool -> inception_3b/pool
I0403 15:47:42.148211  3648 net.cpp:141] Setting up inception_3b/pool
I0403 15:47:42.148233  3648 net.cpp:148] Top shape: 24 256 28 28 (4816896)
I0403 15:47:42.148248  3648 net.cpp:156] Memory required for data: 763479072
I0403 15:47:42.148263  3648 layer_factory.hpp:77] Creating layer inception_3b/pool_proj
I0403 15:47:42.148304  3648 net.cpp:91] Creating Layer inception_3b/pool_proj
I0403 15:47:42.148324  3648 net.cpp:425] inception_3b/pool_proj <- inception_3b/pool
I0403 15:47:42.148347  3648 net.cpp:399] inception_3b/pool_proj -> inception_3b/pool_proj
I0403 15:47:42.149435  3648 net.cpp:141] Setting up inception_3b/pool_proj
I0403 15:47:42.149464  3648 net.cpp:148] Top shape: 24 64 28 28 (1204224)
I0403 15:47:42.149480  3648 net.cpp:156] Memory required for data: 768295968
I0403 15:47:42.149499  3648 layer_factory.hpp:77] Creating layer inception_3b/relu_pool_proj
I0403 15:47:42.149518  3648 net.cpp:91] Creating Layer inception_3b/relu_pool_proj
I0403 15:47:42.149534  3648 net.cpp:425] inception_3b/relu_pool_proj <- inception_3b/pool_proj
I0403 15:47:42.149554  3648 net.cpp:386] inception_3b/relu_pool_proj -> inception_3b/pool_proj (in-place)
I0403 15:47:42.149958  3648 net.cpp:141] Setting up inception_3b/relu_pool_proj
I0403 15:47:42.149987  3648 net.cpp:148] Top shape: 24 64 28 28 (1204224)
I0403 15:47:42.150003  3648 net.cpp:156] Memory required for data: 773112864
I0403 15:47:42.150018  3648 layer_factory.hpp:77] Creating layer inception_3b/output
I0403 15:47:42.150037  3648 net.cpp:91] Creating Layer inception_3b/output
I0403 15:47:42.150053  3648 net.cpp:425] inception_3b/output <- inception_3b/1x1
I0403 15:47:42.150070  3648 net.cpp:425] inception_3b/output <- inception_3b/3x3
I0403 15:47:42.150085  3648 net.cpp:425] inception_3b/output <- inception_3b/5x5
I0403 15:47:42.150102  3648 net.cpp:425] inception_3b/output <- inception_3b/pool_proj
I0403 15:47:42.150120  3648 net.cpp:399] inception_3b/output -> inception_3b/output
I0403 15:47:42.150166  3648 net.cpp:141] Setting up inception_3b/output
I0403 15:47:42.150189  3648 net.cpp:148] Top shape: 24 480 28 28 (9031680)
I0403 15:47:42.150204  3648 net.cpp:156] Memory required for data: 809239584
I0403 15:47:42.150220  3648 layer_factory.hpp:77] Creating layer pool3/3x3_s2
I0403 15:47:42.150245  3648 net.cpp:91] Creating Layer pool3/3x3_s2
I0403 15:47:42.150262  3648 net.cpp:425] pool3/3x3_s2 <- inception_3b/output
I0403 15:47:42.150300  3648 net.cpp:399] pool3/3x3_s2 -> pool3/3x3_s2
I0403 15:47:42.150362  3648 net.cpp:141] Setting up pool3/3x3_s2
I0403 15:47:42.150387  3648 net.cpp:148] Top shape: 24 480 14 14 (2257920)
I0403 15:47:42.150401  3648 net.cpp:156] Memory required for data: 818271264
I0403 15:47:42.150416  3648 layer_factory.hpp:77] Creating layer pool3/3x3_s2_pool3/3x3_s2_0_split
I0403 15:47:42.150434  3648 net.cpp:91] Creating Layer pool3/3x3_s2_pool3/3x3_s2_0_split
I0403 15:47:42.150449  3648 net.cpp:425] pool3/3x3_s2_pool3/3x3_s2_0_split <- pool3/3x3_s2
I0403 15:47:42.150468  3648 net.cpp:399] pool3/3x3_s2_pool3/3x3_s2_0_split -> pool3/3x3_s2_pool3/3x3_s2_0_split_0
I0403 15:47:42.150490  3648 net.cpp:399] pool3/3x3_s2_pool3/3x3_s2_0_split -> pool3/3x3_s2_pool3/3x3_s2_0_split_1
I0403 15:47:42.150509  3648 net.cpp:399] pool3/3x3_s2_pool3/3x3_s2_0_split -> pool3/3x3_s2_pool3/3x3_s2_0_split_2
I0403 15:47:42.150529  3648 net.cpp:399] pool3/3x3_s2_pool3/3x3_s2_0_split -> pool3/3x3_s2_pool3/3x3_s2_0_split_3
I0403 15:47:42.150605  3648 net.cpp:141] Setting up pool3/3x3_s2_pool3/3x3_s2_0_split
I0403 15:47:42.150630  3648 net.cpp:148] Top shape: 24 480 14 14 (2257920)
I0403 15:47:42.150647  3648 net.cpp:148] Top shape: 24 480 14 14 (2257920)
I0403 15:47:42.150663  3648 net.cpp:148] Top shape: 24 480 14 14 (2257920)
I0403 15:47:42.150681  3648 net.cpp:148] Top shape: 24 480 14 14 (2257920)
I0403 15:47:42.150694  3648 net.cpp:156] Memory required for data: 854397984
I0403 15:47:42.150709  3648 layer_factory.hpp:77] Creating layer inception_4a/1x1
I0403 15:47:42.150732  3648 net.cpp:91] Creating Layer inception_4a/1x1
I0403 15:47:42.150750  3648 net.cpp:425] inception_4a/1x1 <- pool3/3x3_s2_pool3/3x3_s2_0_split_0
I0403 15:47:42.150773  3648 net.cpp:399] inception_4a/1x1 -> inception_4a/1x1
I0403 15:47:42.152389  3648 net.cpp:141] Setting up inception_4a/1x1
I0403 15:47:42.152416  3648 net.cpp:148] Top shape: 24 192 14 14 (903168)
I0403 15:47:42.152432  3648 net.cpp:156] Memory required for data: 858010656
I0403 15:47:42.152451  3648 layer_factory.hpp:77] Creating layer inception_4a/relu_1x1
I0403 15:47:42.152470  3648 net.cpp:91] Creating Layer inception_4a/relu_1x1
I0403 15:47:42.152487  3648 net.cpp:425] inception_4a/relu_1x1 <- inception_4a/1x1
I0403 15:47:42.152506  3648 net.cpp:386] inception_4a/relu_1x1 -> inception_4a/1x1 (in-place)
I0403 15:47:42.152685  3648 net.cpp:141] Setting up inception_4a/relu_1x1
I0403 15:47:42.152711  3648 net.cpp:148] Top shape: 24 192 14 14 (903168)
I0403 15:47:42.152726  3648 net.cpp:156] Memory required for data: 861623328
I0403 15:47:42.152742  3648 layer_factory.hpp:77] Creating layer inception_4a/3x3_reduce
I0403 15:47:42.152765  3648 net.cpp:91] Creating Layer inception_4a/3x3_reduce
I0403 15:47:42.152782  3648 net.cpp:425] inception_4a/3x3_reduce <- pool3/3x3_s2_pool3/3x3_s2_0_split_1
I0403 15:47:42.152804  3648 net.cpp:399] inception_4a/3x3_reduce -> inception_4a/3x3_reduce
I0403 15:47:42.154088  3648 net.cpp:141] Setting up inception_4a/3x3_reduce
I0403 15:47:42.154119  3648 net.cpp:148] Top shape: 24 96 14 14 (451584)
I0403 15:47:42.154135  3648 net.cpp:156] Memory required for data: 863429664
I0403 15:47:42.154161  3648 layer_factory.hpp:77] Creating layer inception_4a/relu_3x3_reduce
I0403 15:47:42.154181  3648 net.cpp:91] Creating Layer inception_4a/relu_3x3_reduce
I0403 15:47:42.154198  3648 net.cpp:425] inception_4a/relu_3x3_reduce <- inception_4a/3x3_reduce
I0403 15:47:42.154218  3648 net.cpp:386] inception_4a/relu_3x3_reduce -> inception_4a/3x3_reduce (in-place)
I0403 15:47:42.154402  3648 net.cpp:141] Setting up inception_4a/relu_3x3_reduce
I0403 15:47:42.154428  3648 net.cpp:148] Top shape: 24 96 14 14 (451584)
I0403 15:47:42.154443  3648 net.cpp:156] Memory required for data: 865236000
I0403 15:47:42.154459  3648 layer_factory.hpp:77] Creating layer inception_4a/3x3
I0403 15:47:42.154484  3648 net.cpp:91] Creating Layer inception_4a/3x3
I0403 15:47:42.154500  3648 net.cpp:425] inception_4a/3x3 <- inception_4a/3x3_reduce
I0403 15:47:42.154522  3648 net.cpp:399] inception_4a/3x3 -> inception_4a/3x3
I0403 15:47:42.157323  3648 net.cpp:141] Setting up inception_4a/3x3
I0403 15:47:42.157353  3648 net.cpp:148] Top shape: 24 208 14 14 (978432)
I0403 15:47:42.157371  3648 net.cpp:156] Memory required for data: 869149728
I0403 15:47:42.157389  3648 layer_factory.hpp:77] Creating layer inception_4a/relu_3x3
I0403 15:47:42.157412  3648 net.cpp:91] Creating Layer inception_4a/relu_3x3
I0403 15:47:42.157428  3648 net.cpp:425] inception_4a/relu_3x3 <- inception_4a/3x3
I0403 15:47:42.157447  3648 net.cpp:386] inception_4a/relu_3x3 -> inception_4a/3x3 (in-place)
I0403 15:47:42.157737  3648 net.cpp:141] Setting up inception_4a/relu_3x3
I0403 15:47:42.157765  3648 net.cpp:148] Top shape: 24 208 14 14 (978432)
I0403 15:47:42.157781  3648 net.cpp:156] Memory required for data: 873063456
I0403 15:47:42.157798  3648 layer_factory.hpp:77] Creating layer inception_4a/5x5_reduce
I0403 15:47:42.157821  3648 net.cpp:91] Creating Layer inception_4a/5x5_reduce
I0403 15:47:42.157840  3648 net.cpp:425] inception_4a/5x5_reduce <- pool3/3x3_s2_pool3/3x3_s2_0_split_2
I0403 15:47:42.157862  3648 net.cpp:399] inception_4a/5x5_reduce -> inception_4a/5x5_reduce
I0403 15:47:42.158921  3648 net.cpp:141] Setting up inception_4a/5x5_reduce
I0403 15:47:42.158949  3648 net.cpp:148] Top shape: 24 16 14 14 (75264)
I0403 15:47:42.158965  3648 net.cpp:156] Memory required for data: 873364512
I0403 15:47:42.158984  3648 layer_factory.hpp:77] Creating layer inception_4a/relu_5x5_reduce
I0403 15:47:42.159006  3648 net.cpp:91] Creating Layer inception_4a/relu_5x5_reduce
I0403 15:47:42.159024  3648 net.cpp:425] inception_4a/relu_5x5_reduce <- inception_4a/5x5_reduce
I0403 15:47:42.159044  3648 net.cpp:386] inception_4a/relu_5x5_reduce -> inception_4a/5x5_reduce (in-place)
I0403 15:47:42.159227  3648 net.cpp:141] Setting up inception_4a/relu_5x5_reduce
I0403 15:47:42.159257  3648 net.cpp:148] Top shape: 24 16 14 14 (75264)
I0403 15:47:42.159278  3648 net.cpp:156] Memory required for data: 873665568
I0403 15:47:42.159296  3648 layer_factory.hpp:77] Creating layer inception_4a/5x5
I0403 15:47:42.159319  3648 net.cpp:91] Creating Layer inception_4a/5x5
I0403 15:47:42.159337  3648 net.cpp:425] inception_4a/5x5 <- inception_4a/5x5_reduce
I0403 15:47:42.159358  3648 net.cpp:399] inception_4a/5x5 -> inception_4a/5x5
I0403 15:47:42.160482  3648 net.cpp:141] Setting up inception_4a/5x5
I0403 15:47:42.160514  3648 net.cpp:148] Top shape: 24 48 14 14 (225792)
I0403 15:47:42.160531  3648 net.cpp:156] Memory required for data: 874568736
I0403 15:47:42.160550  3648 layer_factory.hpp:77] Creating layer inception_4a/relu_5x5
I0403 15:47:42.160569  3648 net.cpp:91] Creating Layer inception_4a/relu_5x5
I0403 15:47:42.160588  3648 net.cpp:425] inception_4a/relu_5x5 <- inception_4a/5x5
I0403 15:47:42.160607  3648 net.cpp:386] inception_4a/relu_5x5 -> inception_4a/5x5 (in-place)
I0403 15:47:42.160790  3648 net.cpp:141] Setting up inception_4a/relu_5x5
I0403 15:47:42.160817  3648 net.cpp:148] Top shape: 24 48 14 14 (225792)
I0403 15:47:42.160833  3648 net.cpp:156] Memory required for data: 875471904
I0403 15:47:42.160850  3648 layer_factory.hpp:77] Creating layer inception_4a/pool
I0403 15:47:42.160868  3648 net.cpp:91] Creating Layer inception_4a/pool
I0403 15:47:42.160886  3648 net.cpp:425] inception_4a/pool <- pool3/3x3_s2_pool3/3x3_s2_0_split_3
I0403 15:47:42.160907  3648 net.cpp:399] inception_4a/pool -> inception_4a/pool
I0403 15:47:42.160970  3648 net.cpp:141] Setting up inception_4a/pool
I0403 15:47:42.160995  3648 net.cpp:148] Top shape: 24 480 14 14 (2257920)
I0403 15:47:42.161011  3648 net.cpp:156] Memory required for data: 884503584
I0403 15:47:42.161026  3648 layer_factory.hpp:77] Creating layer inception_4a/pool_proj
I0403 15:47:42.161052  3648 net.cpp:91] Creating Layer inception_4a/pool_proj
I0403 15:47:42.161070  3648 net.cpp:425] inception_4a/pool_proj <- inception_4a/pool
I0403 15:47:42.161090  3648 net.cpp:399] inception_4a/pool_proj -> inception_4a/pool_proj
I0403 15:47:42.162312  3648 net.cpp:141] Setting up inception_4a/pool_proj
I0403 15:47:42.162344  3648 net.cpp:148] Top shape: 24 64 14 14 (301056)
I0403 15:47:42.162375  3648 net.cpp:156] Memory required for data: 885707808
I0403 15:47:42.162396  3648 layer_factory.hpp:77] Creating layer inception_4a/relu_pool_proj
I0403 15:47:42.162415  3648 net.cpp:91] Creating Layer inception_4a/relu_pool_proj
I0403 15:47:42.162433  3648 net.cpp:425] inception_4a/relu_pool_proj <- inception_4a/pool_proj
I0403 15:47:42.162456  3648 net.cpp:386] inception_4a/relu_pool_proj -> inception_4a/pool_proj (in-place)
I0403 15:47:42.162755  3648 net.cpp:141] Setting up inception_4a/relu_pool_proj
I0403 15:47:42.162786  3648 net.cpp:148] Top shape: 24 64 14 14 (301056)
I0403 15:47:42.162802  3648 net.cpp:156] Memory required for data: 886912032
I0403 15:47:42.162818  3648 layer_factory.hpp:77] Creating layer inception_4a/output
I0403 15:47:42.162837  3648 net.cpp:91] Creating Layer inception_4a/output
I0403 15:47:42.162854  3648 net.cpp:425] inception_4a/output <- inception_4a/1x1
I0403 15:47:42.162871  3648 net.cpp:425] inception_4a/output <- inception_4a/3x3
I0403 15:47:42.162889  3648 net.cpp:425] inception_4a/output <- inception_4a/5x5
I0403 15:47:42.162904  3648 net.cpp:425] inception_4a/output <- inception_4a/pool_proj
I0403 15:47:42.162925  3648 net.cpp:399] inception_4a/output -> inception_4a/output
I0403 15:47:42.162971  3648 net.cpp:141] Setting up inception_4a/output
I0403 15:47:42.162997  3648 net.cpp:148] Top shape: 24 512 14 14 (2408448)
I0403 15:47:42.163012  3648 net.cpp:156] Memory required for data: 896545824
I0403 15:47:42.163027  3648 layer_factory.hpp:77] Creating layer inception_4a/output_inception_4a/output_0_split
I0403 15:47:42.163048  3648 net.cpp:91] Creating Layer inception_4a/output_inception_4a/output_0_split
I0403 15:47:42.163065  3648 net.cpp:425] inception_4a/output_inception_4a/output_0_split <- inception_4a/output
I0403 15:47:42.163084  3648 net.cpp:399] inception_4a/output_inception_4a/output_0_split -> inception_4a/output_inception_4a/output_0_split_0
I0403 15:47:42.163110  3648 net.cpp:399] inception_4a/output_inception_4a/output_0_split -> inception_4a/output_inception_4a/output_0_split_1
I0403 15:47:42.163132  3648 net.cpp:399] inception_4a/output_inception_4a/output_0_split -> inception_4a/output_inception_4a/output_0_split_2
I0403 15:47:42.163153  3648 net.cpp:399] inception_4a/output_inception_4a/output_0_split -> inception_4a/output_inception_4a/output_0_split_3
I0403 15:47:42.163173  3648 net.cpp:399] inception_4a/output_inception_4a/output_0_split -> inception_4a/output_inception_4a/output_0_split_4
I0403 15:47:42.163269  3648 net.cpp:141] Setting up inception_4a/output_inception_4a/output_0_split
I0403 15:47:42.163300  3648 net.cpp:148] Top shape: 24 512 14 14 (2408448)
I0403 15:47:42.163317  3648 net.cpp:148] Top shape: 24 512 14 14 (2408448)
I0403 15:47:42.163334  3648 net.cpp:148] Top shape: 24 512 14 14 (2408448)
I0403 15:47:42.163350  3648 net.cpp:148] Top shape: 24 512 14 14 (2408448)
I0403 15:47:42.163367  3648 net.cpp:148] Top shape: 24 512 14 14 (2408448)
I0403 15:47:42.163381  3648 net.cpp:156] Memory required for data: 944714784
I0403 15:47:42.163398  3648 layer_factory.hpp:77] Creating layer loss1/ave_pool
I0403 15:47:42.163419  3648 net.cpp:91] Creating Layer loss1/ave_pool
I0403 15:47:42.163436  3648 net.cpp:425] loss1/ave_pool <- inception_4a/output_inception_4a/output_0_split_0
I0403 15:47:42.163455  3648 net.cpp:399] loss1/ave_pool -> loss1/ave_pool
I0403 15:47:42.163666  3648 net.cpp:141] Setting up loss1/ave_pool
I0403 15:47:42.163696  3648 net.cpp:148] Top shape: 24 512 4 4 (196608)
I0403 15:47:42.163712  3648 net.cpp:156] Memory required for data: 945501216
I0403 15:47:42.163728  3648 layer_factory.hpp:77] Creating layer loss1/conv
I0403 15:47:42.163751  3648 net.cpp:91] Creating Layer loss1/conv
I0403 15:47:42.163770  3648 net.cpp:425] loss1/conv <- loss1/ave_pool
I0403 15:47:42.163791  3648 net.cpp:399] loss1/conv -> loss1/conv
I0403 15:47:42.165259  3648 net.cpp:141] Setting up loss1/conv
I0403 15:47:42.165293  3648 net.cpp:148] Top shape: 24 128 4 4 (49152)
I0403 15:47:42.165324  3648 net.cpp:156] Memory required for data: 945697824
I0403 15:47:42.165346  3648 layer_factory.hpp:77] Creating layer loss1/relu_conv
I0403 15:47:42.165369  3648 net.cpp:91] Creating Layer loss1/relu_conv
I0403 15:47:42.165386  3648 net.cpp:425] loss1/relu_conv <- loss1/conv
I0403 15:47:42.165405  3648 net.cpp:386] loss1/relu_conv -> loss1/conv (in-place)
I0403 15:47:42.165706  3648 net.cpp:141] Setting up loss1/relu_conv
I0403 15:47:42.165735  3648 net.cpp:148] Top shape: 24 128 4 4 (49152)
I0403 15:47:42.165750  3648 net.cpp:156] Memory required for data: 945894432
I0403 15:47:42.165766  3648 layer_factory.hpp:77] Creating layer loss1/fc
I0403 15:47:42.165794  3648 net.cpp:91] Creating Layer loss1/fc
I0403 15:47:42.165813  3648 net.cpp:425] loss1/fc <- loss1/conv
I0403 15:47:42.165833  3648 net.cpp:399] loss1/fc -> loss1/fc
I0403 15:47:42.184404  3648 net.cpp:141] Setting up loss1/fc
I0403 15:47:42.184439  3648 net.cpp:148] Top shape: 24 1024 (24576)
I0403 15:47:42.184455  3648 net.cpp:156] Memory required for data: 945992736
I0403 15:47:42.184474  3648 layer_factory.hpp:77] Creating layer loss1/relu_fc
I0403 15:47:42.184494  3648 net.cpp:91] Creating Layer loss1/relu_fc
I0403 15:47:42.184510  3648 net.cpp:425] loss1/relu_fc <- loss1/fc
I0403 15:47:42.184530  3648 net.cpp:386] loss1/relu_fc -> loss1/fc (in-place)
I0403 15:47:42.184730  3648 net.cpp:141] Setting up loss1/relu_fc
I0403 15:47:42.184754  3648 net.cpp:148] Top shape: 24 1024 (24576)
I0403 15:47:42.184769  3648 net.cpp:156] Memory required for data: 946091040
I0403 15:47:42.184783  3648 layer_factory.hpp:77] Creating layer loss1/drop_fc
I0403 15:47:42.184811  3648 net.cpp:91] Creating Layer loss1/drop_fc
I0403 15:47:42.184828  3648 net.cpp:425] loss1/drop_fc <- loss1/fc
I0403 15:47:42.184846  3648 net.cpp:386] loss1/drop_fc -> loss1/fc (in-place)
I0403 15:47:42.184897  3648 net.cpp:141] Setting up loss1/drop_fc
I0403 15:47:42.184922  3648 net.cpp:148] Top shape: 24 1024 (24576)
I0403 15:47:42.184938  3648 net.cpp:156] Memory required for data: 946189344
I0403 15:47:42.184953  3648 layer_factory.hpp:77] Creating layer loss1/classifier_plantvillage
I0403 15:47:42.184973  3648 net.cpp:91] Creating Layer loss1/classifier_plantvillage
I0403 15:47:42.184988  3648 net.cpp:425] loss1/classifier_plantvillage <- loss1/fc
I0403 15:47:42.185009  3648 net.cpp:399] loss1/classifier_plantvillage -> loss1/classifier_plantvillage
I0403 15:47:42.185945  3648 net.cpp:141] Setting up loss1/classifier_plantvillage
I0403 15:47:42.185973  3648 net.cpp:148] Top shape: 24 38 (912)
I0403 15:47:42.185988  3648 net.cpp:156] Memory required for data: 946192992
I0403 15:47:42.186007  3648 layer_factory.hpp:77] Creating layer loss1/classifier_plantvillage_loss1/classifier_plantvillage_0_split
I0403 15:47:42.186024  3648 net.cpp:91] Creating Layer loss1/classifier_plantvillage_loss1/classifier_plantvillage_0_split
I0403 15:47:42.186040  3648 net.cpp:425] loss1/classifier_plantvillage_loss1/classifier_plantvillage_0_split <- loss1/classifier_plantvillage
I0403 15:47:42.186059  3648 net.cpp:399] loss1/classifier_plantvillage_loss1/classifier_plantvillage_0_split -> loss1/classifier_plantvillage_loss1/classifier_plantvillage_0_split_0
I0403 15:47:42.186080  3648 net.cpp:399] loss1/classifier_plantvillage_loss1/classifier_plantvillage_0_split -> loss1/classifier_plantvillage_loss1/classifier_plantvillage_0_split_1
I0403 15:47:42.186100  3648 net.cpp:399] loss1/classifier_plantvillage_loss1/classifier_plantvillage_0_split -> loss1/classifier_plantvillage_loss1/classifier_plantvillage_0_split_2
I0403 15:47:42.186168  3648 net.cpp:141] Setting up loss1/classifier_plantvillage_loss1/classifier_plantvillage_0_split
I0403 15:47:42.186192  3648 net.cpp:148] Top shape: 24 38 (912)
I0403 15:47:42.186208  3648 net.cpp:148] Top shape: 24 38 (912)
I0403 15:47:42.186223  3648 net.cpp:148] Top shape: 24 38 (912)
I0403 15:47:42.186236  3648 net.cpp:156] Memory required for data: 946203936
I0403 15:47:42.186251  3648 layer_factory.hpp:77] Creating layer inception_4b/1x1
I0403 15:47:42.186277  3648 net.cpp:91] Creating Layer inception_4b/1x1
I0403 15:47:42.186313  3648 net.cpp:425] inception_4b/1x1 <- inception_4a/output_inception_4a/output_0_split_1
I0403 15:47:42.186333  3648 net.cpp:399] inception_4b/1x1 -> inception_4b/1x1
I0403 15:47:42.187957  3648 net.cpp:141] Setting up inception_4b/1x1
I0403 15:47:42.187985  3648 net.cpp:148] Top shape: 24 160 14 14 (752640)
I0403 15:47:42.188004  3648 net.cpp:156] Memory required for data: 949214496
I0403 15:47:42.188022  3648 layer_factory.hpp:77] Creating layer inception_4b/relu_1x1
I0403 15:47:42.188043  3648 net.cpp:91] Creating Layer inception_4b/relu_1x1
I0403 15:47:42.188060  3648 net.cpp:425] inception_4b/relu_1x1 <- inception_4b/1x1
I0403 15:47:42.188077  3648 net.cpp:386] inception_4b/relu_1x1 -> inception_4b/1x1 (in-place)
I0403 15:47:42.188266  3648 net.cpp:141] Setting up inception_4b/relu_1x1
I0403 15:47:42.188299  3648 net.cpp:148] Top shape: 24 160 14 14 (752640)
I0403 15:47:42.188315  3648 net.cpp:156] Memory required for data: 952225056
I0403 15:47:42.188331  3648 layer_factory.hpp:77] Creating layer inception_4b/3x3_reduce
I0403 15:47:42.188354  3648 net.cpp:91] Creating Layer inception_4b/3x3_reduce
I0403 15:47:42.188372  3648 net.cpp:425] inception_4b/3x3_reduce <- inception_4a/output_inception_4a/output_0_split_2
I0403 15:47:42.188392  3648 net.cpp:399] inception_4b/3x3_reduce -> inception_4b/3x3_reduce
I0403 15:47:42.189775  3648 net.cpp:141] Setting up inception_4b/3x3_reduce
I0403 15:47:42.189806  3648 net.cpp:148] Top shape: 24 112 14 14 (526848)
I0403 15:47:42.189822  3648 net.cpp:156] Memory required for data: 954332448
I0403 15:47:42.189841  3648 layer_factory.hpp:77] Creating layer inception_4b/relu_3x3_reduce
I0403 15:47:42.189859  3648 net.cpp:91] Creating Layer inception_4b/relu_3x3_reduce
I0403 15:47:42.189875  3648 net.cpp:425] inception_4b/relu_3x3_reduce <- inception_4b/3x3_reduce
I0403 15:47:42.189893  3648 net.cpp:386] inception_4b/relu_3x3_reduce -> inception_4b/3x3_reduce (in-place)
I0403 15:47:42.190174  3648 net.cpp:141] Setting up inception_4b/relu_3x3_reduce
I0403 15:47:42.190203  3648 net.cpp:148] Top shape: 24 112 14 14 (526848)
I0403 15:47:42.190219  3648 net.cpp:156] Memory required for data: 956439840
I0403 15:47:42.190234  3648 layer_factory.hpp:77] Creating layer inception_4b/3x3
I0403 15:47:42.190255  3648 net.cpp:91] Creating Layer inception_4b/3x3
I0403 15:47:42.190276  3648 net.cpp:425] inception_4b/3x3 <- inception_4b/3x3_reduce
I0403 15:47:42.190299  3648 net.cpp:399] inception_4b/3x3 -> inception_4b/3x3
I0403 15:47:42.193315  3648 net.cpp:141] Setting up inception_4b/3x3
I0403 15:47:42.193344  3648 net.cpp:148] Top shape: 24 224 14 14 (1053696)
I0403 15:47:42.193359  3648 net.cpp:156] Memory required for data: 960654624
I0403 15:47:42.193378  3648 layer_factory.hpp:77] Creating layer inception_4b/relu_3x3
I0403 15:47:42.193397  3648 net.cpp:91] Creating Layer inception_4b/relu_3x3
I0403 15:47:42.193413  3648 net.cpp:425] inception_4b/relu_3x3 <- inception_4b/3x3
I0403 15:47:42.193434  3648 net.cpp:386] inception_4b/relu_3x3 -> inception_4b/3x3 (in-place)
I0403 15:47:42.193613  3648 net.cpp:141] Setting up inception_4b/relu_3x3
I0403 15:47:42.193637  3648 net.cpp:148] Top shape: 24 224 14 14 (1053696)
I0403 15:47:42.193652  3648 net.cpp:156] Memory required for data: 964869408
I0403 15:47:42.193666  3648 layer_factory.hpp:77] Creating layer inception_4b/5x5_reduce
I0403 15:47:42.193689  3648 net.cpp:91] Creating Layer inception_4b/5x5_reduce
I0403 15:47:42.193706  3648 net.cpp:425] inception_4b/5x5_reduce <- inception_4a/output_inception_4a/output_0_split_3
I0403 15:47:42.193728  3648 net.cpp:399] inception_4b/5x5_reduce -> inception_4b/5x5_reduce
I0403 15:47:42.194804  3648 net.cpp:141] Setting up inception_4b/5x5_reduce
I0403 15:47:42.194833  3648 net.cpp:148] Top shape: 24 24 14 14 (112896)
I0403 15:47:42.194849  3648 net.cpp:156] Memory required for data: 965320992
I0403 15:47:42.194867  3648 layer_factory.hpp:77] Creating layer inception_4b/relu_5x5_reduce
I0403 15:47:42.194888  3648 net.cpp:91] Creating Layer inception_4b/relu_5x5_reduce
I0403 15:47:42.194919  3648 net.cpp:425] inception_4b/relu_5x5_reduce <- inception_4b/5x5_reduce
I0403 15:47:42.194938  3648 net.cpp:386] inception_4b/relu_5x5_reduce -> inception_4b/5x5_reduce (in-place)
I0403 15:47:42.195122  3648 net.cpp:141] Setting up inception_4b/relu_5x5_reduce
I0403 15:47:42.195149  3648 net.cpp:148] Top shape: 24 24 14 14 (112896)
I0403 15:47:42.195165  3648 net.cpp:156] Memory required for data: 965772576
I0403 15:47:42.195180  3648 layer_factory.hpp:77] Creating layer inception_4b/5x5
I0403 15:47:42.195202  3648 net.cpp:91] Creating Layer inception_4b/5x5
I0403 15:47:42.195221  3648 net.cpp:425] inception_4b/5x5 <- inception_4b/5x5_reduce
I0403 15:47:42.195240  3648 net.cpp:399] inception_4b/5x5 -> inception_4b/5x5
I0403 15:47:42.196502  3648 net.cpp:141] Setting up inception_4b/5x5
I0403 15:47:42.196530  3648 net.cpp:148] Top shape: 24 64 14 14 (301056)
I0403 15:47:42.196547  3648 net.cpp:156] Memory required for data: 966976800
I0403 15:47:42.196564  3648 layer_factory.hpp:77] Creating layer inception_4b/relu_5x5
I0403 15:47:42.196584  3648 net.cpp:91] Creating Layer inception_4b/relu_5x5
I0403 15:47:42.196601  3648 net.cpp:425] inception_4b/relu_5x5 <- inception_4b/5x5
I0403 15:47:42.196619  3648 net.cpp:386] inception_4b/relu_5x5 -> inception_4b/5x5 (in-place)
I0403 15:47:42.196907  3648 net.cpp:141] Setting up inception_4b/relu_5x5
I0403 15:47:42.196933  3648 net.cpp:148] Top shape: 24 64 14 14 (301056)
I0403 15:47:42.196948  3648 net.cpp:156] Memory required for data: 968181024
I0403 15:47:42.196962  3648 layer_factory.hpp:77] Creating layer inception_4b/pool
I0403 15:47:42.196985  3648 net.cpp:91] Creating Layer inception_4b/pool
I0403 15:47:42.197002  3648 net.cpp:425] inception_4b/pool <- inception_4a/output_inception_4a/output_0_split_4
I0403 15:47:42.197021  3648 net.cpp:399] inception_4b/pool -> inception_4b/pool
I0403 15:47:42.197085  3648 net.cpp:141] Setting up inception_4b/pool
I0403 15:47:42.197109  3648 net.cpp:148] Top shape: 24 512 14 14 (2408448)
I0403 15:47:42.197124  3648 net.cpp:156] Memory required for data: 977814816
I0403 15:47:42.197139  3648 layer_factory.hpp:77] Creating layer inception_4b/pool_proj
I0403 15:47:42.197160  3648 net.cpp:91] Creating Layer inception_4b/pool_proj
I0403 15:47:42.197177  3648 net.cpp:425] inception_4b/pool_proj <- inception_4b/pool
I0403 15:47:42.197198  3648 net.cpp:399] inception_4b/pool_proj -> inception_4b/pool_proj
I0403 15:47:42.198402  3648 net.cpp:141] Setting up inception_4b/pool_proj
I0403 15:47:42.198429  3648 net.cpp:148] Top shape: 24 64 14 14 (301056)
I0403 15:47:42.198446  3648 net.cpp:156] Memory required for data: 979019040
I0403 15:47:42.198464  3648 layer_factory.hpp:77] Creating layer inception_4b/relu_pool_proj
I0403 15:47:42.198485  3648 net.cpp:91] Creating Layer inception_4b/relu_pool_proj
I0403 15:47:42.198503  3648 net.cpp:425] inception_4b/relu_pool_proj <- inception_4b/pool_proj
I0403 15:47:42.198519  3648 net.cpp:386] inception_4b/relu_pool_proj -> inception_4b/pool_proj (in-place)
I0403 15:47:42.198700  3648 net.cpp:141] Setting up inception_4b/relu_pool_proj
I0403 15:47:42.198727  3648 net.cpp:148] Top shape: 24 64 14 14 (301056)
I0403 15:47:42.198742  3648 net.cpp:156] Memory required for data: 980223264
I0403 15:47:42.198756  3648 layer_factory.hpp:77] Creating layer inception_4b/output
I0403 15:47:42.198775  3648 net.cpp:91] Creating Layer inception_4b/output
I0403 15:47:42.198789  3648 net.cpp:425] inception_4b/output <- inception_4b/1x1
I0403 15:47:42.198807  3648 net.cpp:425] inception_4b/output <- inception_4b/3x3
I0403 15:47:42.198822  3648 net.cpp:425] inception_4b/output <- inception_4b/5x5
I0403 15:47:42.198838  3648 net.cpp:425] inception_4b/output <- inception_4b/pool_proj
I0403 15:47:42.198854  3648 net.cpp:399] inception_4b/output -> inception_4b/output
I0403 15:47:42.198901  3648 net.cpp:141] Setting up inception_4b/output
I0403 15:47:42.198925  3648 net.cpp:148] Top shape: 24 512 14 14 (2408448)
I0403 15:47:42.198940  3648 net.cpp:156] Memory required for data: 989857056
I0403 15:47:42.198967  3648 layer_factory.hpp:77] Creating layer inception_4b/output_inception_4b/output_0_split
I0403 15:47:42.198987  3648 net.cpp:91] Creating Layer inception_4b/output_inception_4b/output_0_split
I0403 15:47:42.199004  3648 net.cpp:425] inception_4b/output_inception_4b/output_0_split <- inception_4b/output
I0403 15:47:42.199021  3648 net.cpp:399] inception_4b/output_inception_4b/output_0_split -> inception_4b/output_inception_4b/output_0_split_0
I0403 15:47:42.199041  3648 net.cpp:399] inception_4b/output_inception_4b/output_0_split -> inception_4b/output_inception_4b/output_0_split_1
I0403 15:47:42.199061  3648 net.cpp:399] inception_4b/output_inception_4b/output_0_split -> inception_4b/output_inception_4b/output_0_split_2
I0403 15:47:42.199084  3648 net.cpp:399] inception_4b/output_inception_4b/output_0_split -> inception_4b/output_inception_4b/output_0_split_3
I0403 15:47:42.199169  3648 net.cpp:141] Setting up inception_4b/output_inception_4b/output_0_split
I0403 15:47:42.199193  3648 net.cpp:148] Top shape: 24 512 14 14 (2408448)
I0403 15:47:42.199209  3648 net.cpp:148] Top shape: 24 512 14 14 (2408448)
I0403 15:47:42.199225  3648 net.cpp:148] Top shape: 24 512 14 14 (2408448)
I0403 15:47:42.199240  3648 net.cpp:148] Top shape: 24 512 14 14 (2408448)
I0403 15:47:42.199254  3648 net.cpp:156] Memory required for data: 1028392224
I0403 15:47:42.199268  3648 layer_factory.hpp:77] Creating layer inception_4c/1x1
I0403 15:47:42.199295  3648 net.cpp:91] Creating Layer inception_4c/1x1
I0403 15:47:42.199326  3648 net.cpp:425] inception_4c/1x1 <- inception_4b/output_inception_4b/output_0_split_0
I0403 15:47:42.199347  3648 net.cpp:399] inception_4c/1x1 -> inception_4c/1x1
I0403 15:47:42.200831  3648 net.cpp:141] Setting up inception_4c/1x1
I0403 15:47:42.200860  3648 net.cpp:148] Top shape: 24 128 14 14 (602112)
I0403 15:47:42.200876  3648 net.cpp:156] Memory required for data: 1030800672
I0403 15:47:42.200894  3648 layer_factory.hpp:77] Creating layer inception_4c/relu_1x1
I0403 15:47:42.200912  3648 net.cpp:91] Creating Layer inception_4c/relu_1x1
I0403 15:47:42.200927  3648 net.cpp:425] inception_4c/relu_1x1 <- inception_4c/1x1
I0403 15:47:42.200947  3648 net.cpp:386] inception_4c/relu_1x1 -> inception_4c/1x1 (in-place)
I0403 15:47:42.201130  3648 net.cpp:141] Setting up inception_4c/relu_1x1
I0403 15:47:42.201155  3648 net.cpp:148] Top shape: 24 128 14 14 (602112)
I0403 15:47:42.201170  3648 net.cpp:156] Memory required for data: 1033209120
I0403 15:47:42.201185  3648 layer_factory.hpp:77] Creating layer inception_4c/3x3_reduce
I0403 15:47:42.201208  3648 net.cpp:91] Creating Layer inception_4c/3x3_reduce
I0403 15:47:42.201227  3648 net.cpp:425] inception_4c/3x3_reduce <- inception_4b/output_inception_4b/output_0_split_1
I0403 15:47:42.201249  3648 net.cpp:399] inception_4c/3x3_reduce -> inception_4c/3x3_reduce
I0403 15:47:42.203193  3648 net.cpp:141] Setting up inception_4c/3x3_reduce
I0403 15:47:42.203223  3648 net.cpp:148] Top shape: 24 128 14 14 (602112)
I0403 15:47:42.203238  3648 net.cpp:156] Memory required for data: 1035617568
I0403 15:47:42.203258  3648 layer_factory.hpp:77] Creating layer inception_4c/relu_3x3_reduce
I0403 15:47:42.203282  3648 net.cpp:91] Creating Layer inception_4c/relu_3x3_reduce
I0403 15:47:42.203301  3648 net.cpp:425] inception_4c/relu_3x3_reduce <- inception_4c/3x3_reduce
I0403 15:47:42.203318  3648 net.cpp:386] inception_4c/relu_3x3_reduce -> inception_4c/3x3_reduce (in-place)
I0403 15:47:42.203603  3648 net.cpp:141] Setting up inception_4c/relu_3x3_reduce
I0403 15:47:42.203629  3648 net.cpp:148] Top shape: 24 128 14 14 (602112)
I0403 15:47:42.203644  3648 net.cpp:156] Memory required for data: 1038026016
I0403 15:47:42.203660  3648 layer_factory.hpp:77] Creating layer inception_4c/3x3
I0403 15:47:42.203682  3648 net.cpp:91] Creating Layer inception_4c/3x3
I0403 15:47:42.203701  3648 net.cpp:425] inception_4c/3x3 <- inception_4c/3x3_reduce
I0403 15:47:42.203722  3648 net.cpp:399] inception_4c/3x3 -> inception_4c/3x3
I0403 15:47:42.207324  3648 net.cpp:141] Setting up inception_4c/3x3
I0403 15:47:42.207365  3648 net.cpp:148] Top shape: 24 256 14 14 (1204224)
I0403 15:47:42.207382  3648 net.cpp:156] Memory required for data: 1042842912
I0403 15:47:42.207415  3648 layer_factory.hpp:77] Creating layer inception_4c/relu_3x3
I0403 15:47:42.207438  3648 net.cpp:91] Creating Layer inception_4c/relu_3x3
I0403 15:47:42.207455  3648 net.cpp:425] inception_4c/relu_3x3 <- inception_4c/3x3
I0403 15:47:42.207473  3648 net.cpp:386] inception_4c/relu_3x3 -> inception_4c/3x3 (in-place)
I0403 15:47:42.207653  3648 net.cpp:141] Setting up inception_4c/relu_3x3
I0403 15:47:42.207679  3648 net.cpp:148] Top shape: 24 256 14 14 (1204224)
I0403 15:47:42.207696  3648 net.cpp:156] Memory required for data: 1047659808
I0403 15:47:42.207711  3648 layer_factory.hpp:77] Creating layer inception_4c/5x5_reduce
I0403 15:47:42.207731  3648 net.cpp:91] Creating Layer inception_4c/5x5_reduce
I0403 15:47:42.207749  3648 net.cpp:425] inception_4c/5x5_reduce <- inception_4b/output_inception_4b/output_0_split_2
I0403 15:47:42.207772  3648 net.cpp:399] inception_4c/5x5_reduce -> inception_4c/5x5_reduce
I0403 15:47:42.208931  3648 net.cpp:141] Setting up inception_4c/5x5_reduce
I0403 15:47:42.208961  3648 net.cpp:148] Top shape: 24 24 14 14 (112896)
I0403 15:47:42.208976  3648 net.cpp:156] Memory required for data: 1048111392
I0403 15:47:42.208997  3648 layer_factory.hpp:77] Creating layer inception_4c/relu_5x5_reduce
I0403 15:47:42.209017  3648 net.cpp:91] Creating Layer inception_4c/relu_5x5_reduce
I0403 15:47:42.209034  3648 net.cpp:425] inception_4c/relu_5x5_reduce <- inception_4c/5x5_reduce
I0403 15:47:42.209053  3648 net.cpp:386] inception_4c/relu_5x5_reduce -> inception_4c/5x5_reduce (in-place)
I0403 15:47:42.209245  3648 net.cpp:141] Setting up inception_4c/relu_5x5_reduce
I0403 15:47:42.209277  3648 net.cpp:148] Top shape: 24 24 14 14 (112896)
I0403 15:47:42.209295  3648 net.cpp:156] Memory required for data: 1048562976
I0403 15:47:42.209311  3648 layer_factory.hpp:77] Creating layer inception_4c/5x5
I0403 15:47:42.209333  3648 net.cpp:91] Creating Layer inception_4c/5x5
I0403 15:47:42.209352  3648 net.cpp:425] inception_4c/5x5 <- inception_4c/5x5_reduce
I0403 15:47:42.209370  3648 net.cpp:399] inception_4c/5x5 -> inception_4c/5x5
I0403 15:47:42.210652  3648 net.cpp:141] Setting up inception_4c/5x5
I0403 15:47:42.210683  3648 net.cpp:148] Top shape: 24 64 14 14 (301056)
I0403 15:47:42.210700  3648 net.cpp:156] Memory required for data: 1049767200
I0403 15:47:42.210719  3648 layer_factory.hpp:77] Creating layer inception_4c/relu_5x5
I0403 15:47:42.210738  3648 net.cpp:91] Creating Layer inception_4c/relu_5x5
I0403 15:47:42.210755  3648 net.cpp:425] inception_4c/relu_5x5 <- inception_4c/5x5
I0403 15:47:42.210775  3648 net.cpp:386] inception_4c/relu_5x5 -> inception_4c/5x5 (in-place)
I0403 15:47:42.211076  3648 net.cpp:141] Setting up inception_4c/relu_5x5
I0403 15:47:42.211104  3648 net.cpp:148] Top shape: 24 64 14 14 (301056)
I0403 15:47:42.211120  3648 net.cpp:156] Memory required for data: 1050971424
I0403 15:47:42.211136  3648 layer_factory.hpp:77] Creating layer inception_4c/pool
I0403 15:47:42.211154  3648 net.cpp:91] Creating Layer inception_4c/pool
I0403 15:47:42.211170  3648 net.cpp:425] inception_4c/pool <- inception_4b/output_inception_4b/output_0_split_3
I0403 15:47:42.211192  3648 net.cpp:399] inception_4c/pool -> inception_4c/pool
I0403 15:47:42.211259  3648 net.cpp:141] Setting up inception_4c/pool
I0403 15:47:42.211288  3648 net.cpp:148] Top shape: 24 512 14 14 (2408448)
I0403 15:47:42.211304  3648 net.cpp:156] Memory required for data: 1060605216
I0403 15:47:42.211319  3648 layer_factory.hpp:77] Creating layer inception_4c/pool_proj
I0403 15:47:42.211344  3648 net.cpp:91] Creating Layer inception_4c/pool_proj
I0403 15:47:42.211362  3648 net.cpp:425] inception_4c/pool_proj <- inception_4c/pool
I0403 15:47:42.211381  3648 net.cpp:399] inception_4c/pool_proj -> inception_4c/pool_proj
I0403 15:47:42.212692  3648 net.cpp:141] Setting up inception_4c/pool_proj
I0403 15:47:42.212720  3648 net.cpp:148] Top shape: 24 64 14 14 (301056)
I0403 15:47:42.212751  3648 net.cpp:156] Memory required for data: 1061809440
I0403 15:47:42.212771  3648 layer_factory.hpp:77] Creating layer inception_4c/relu_pool_proj
I0403 15:47:42.212792  3648 net.cpp:91] Creating Layer inception_4c/relu_pool_proj
I0403 15:47:42.212810  3648 net.cpp:425] inception_4c/relu_pool_proj <- inception_4c/pool_proj
I0403 15:47:42.212831  3648 net.cpp:386] inception_4c/relu_pool_proj -> inception_4c/pool_proj (in-place)
I0403 15:47:42.213019  3648 net.cpp:141] Setting up inception_4c/relu_pool_proj
I0403 15:47:42.213052  3648 net.cpp:148] Top shape: 24 64 14 14 (301056)
I0403 15:47:42.213068  3648 net.cpp:156] Memory required for data: 1063013664
I0403 15:47:42.213083  3648 layer_factory.hpp:77] Creating layer inception_4c/output
I0403 15:47:42.213104  3648 net.cpp:91] Creating Layer inception_4c/output
I0403 15:47:42.213120  3648 net.cpp:425] inception_4c/output <- inception_4c/1x1
I0403 15:47:42.213137  3648 net.cpp:425] inception_4c/output <- inception_4c/3x3
I0403 15:47:42.213153  3648 net.cpp:425] inception_4c/output <- inception_4c/5x5
I0403 15:47:42.213170  3648 net.cpp:425] inception_4c/output <- inception_4c/pool_proj
I0403 15:47:42.213186  3648 net.cpp:399] inception_4c/output -> inception_4c/output
I0403 15:47:42.213235  3648 net.cpp:141] Setting up inception_4c/output
I0403 15:47:42.213259  3648 net.cpp:148] Top shape: 24 512 14 14 (2408448)
I0403 15:47:42.213279  3648 net.cpp:156] Memory required for data: 1072647456
I0403 15:47:42.213295  3648 layer_factory.hpp:77] Creating layer inception_4c/output_inception_4c/output_0_split
I0403 15:47:42.213316  3648 net.cpp:91] Creating Layer inception_4c/output_inception_4c/output_0_split
I0403 15:47:42.213333  3648 net.cpp:425] inception_4c/output_inception_4c/output_0_split <- inception_4c/output
I0403 15:47:42.213351  3648 net.cpp:399] inception_4c/output_inception_4c/output_0_split -> inception_4c/output_inception_4c/output_0_split_0
I0403 15:47:42.213371  3648 net.cpp:399] inception_4c/output_inception_4c/output_0_split -> inception_4c/output_inception_4c/output_0_split_1
I0403 15:47:42.213392  3648 net.cpp:399] inception_4c/output_inception_4c/output_0_split -> inception_4c/output_inception_4c/output_0_split_2
I0403 15:47:42.213415  3648 net.cpp:399] inception_4c/output_inception_4c/output_0_split -> inception_4c/output_inception_4c/output_0_split_3
I0403 15:47:42.213505  3648 net.cpp:141] Setting up inception_4c/output_inception_4c/output_0_split
I0403 15:47:42.213531  3648 net.cpp:148] Top shape: 24 512 14 14 (2408448)
I0403 15:47:42.213546  3648 net.cpp:148] Top shape: 24 512 14 14 (2408448)
I0403 15:47:42.213562  3648 net.cpp:148] Top shape: 24 512 14 14 (2408448)
I0403 15:47:42.213578  3648 net.cpp:148] Top shape: 24 512 14 14 (2408448)
I0403 15:47:42.213593  3648 net.cpp:156] Memory required for data: 1111182624
I0403 15:47:42.213608  3648 layer_factory.hpp:77] Creating layer inception_4d/1x1
I0403 15:47:42.213630  3648 net.cpp:91] Creating Layer inception_4d/1x1
I0403 15:47:42.213649  3648 net.cpp:425] inception_4d/1x1 <- inception_4c/output_inception_4c/output_0_split_0
I0403 15:47:42.213670  3648 net.cpp:399] inception_4d/1x1 -> inception_4d/1x1
I0403 15:47:42.215085  3648 net.cpp:141] Setting up inception_4d/1x1
I0403 15:47:42.215114  3648 net.cpp:148] Top shape: 24 112 14 14 (526848)
I0403 15:47:42.215131  3648 net.cpp:156] Memory required for data: 1113290016
I0403 15:47:42.215149  3648 layer_factory.hpp:77] Creating layer inception_4d/relu_1x1
I0403 15:47:42.215168  3648 net.cpp:91] Creating Layer inception_4d/relu_1x1
I0403 15:47:42.215184  3648 net.cpp:425] inception_4d/relu_1x1 <- inception_4d/1x1
I0403 15:47:42.215204  3648 net.cpp:386] inception_4d/relu_1x1 -> inception_4d/1x1 (in-place)
I0403 15:47:42.215399  3648 net.cpp:141] Setting up inception_4d/relu_1x1
I0403 15:47:42.215425  3648 net.cpp:148] Top shape: 24 112 14 14 (526848)
I0403 15:47:42.215440  3648 net.cpp:156] Memory required for data: 1115397408
I0403 15:47:42.215456  3648 layer_factory.hpp:77] Creating layer inception_4d/3x3_reduce
I0403 15:47:42.215493  3648 net.cpp:91] Creating Layer inception_4d/3x3_reduce
I0403 15:47:42.215512  3648 net.cpp:425] inception_4d/3x3_reduce <- inception_4c/output_inception_4c/output_0_split_1
I0403 15:47:42.215535  3648 net.cpp:399] inception_4d/3x3_reduce -> inception_4d/3x3_reduce
I0403 15:47:42.217119  3648 net.cpp:141] Setting up inception_4d/3x3_reduce
I0403 15:47:42.217149  3648 net.cpp:148] Top shape: 24 144 14 14 (677376)
I0403 15:47:42.217166  3648 net.cpp:156] Memory required for data: 1118106912
I0403 15:47:42.217186  3648 layer_factory.hpp:77] Creating layer inception_4d/relu_3x3_reduce
I0403 15:47:42.217205  3648 net.cpp:91] Creating Layer inception_4d/relu_3x3_reduce
I0403 15:47:42.217221  3648 net.cpp:425] inception_4d/relu_3x3_reduce <- inception_4d/3x3_reduce
I0403 15:47:42.217242  3648 net.cpp:386] inception_4d/relu_3x3_reduce -> inception_4d/3x3_reduce (in-place)
I0403 15:47:42.217548  3648 net.cpp:141] Setting up inception_4d/relu_3x3_reduce
I0403 15:47:42.217578  3648 net.cpp:148] Top shape: 24 144 14 14 (677376)
I0403 15:47:42.217594  3648 net.cpp:156] Memory required for data: 1120816416
I0403 15:47:42.217609  3648 layer_factory.hpp:77] Creating layer inception_4d/3x3
I0403 15:47:42.217633  3648 net.cpp:91] Creating Layer inception_4d/3x3
I0403 15:47:42.217651  3648 net.cpp:425] inception_4d/3x3 <- inception_4d/3x3_reduce
I0403 15:47:42.217670  3648 net.cpp:399] inception_4d/3x3 -> inception_4d/3x3
I0403 15:47:42.222121  3648 net.cpp:141] Setting up inception_4d/3x3
I0403 15:47:42.222151  3648 net.cpp:148] Top shape: 24 288 14 14 (1354752)
I0403 15:47:42.222167  3648 net.cpp:156] Memory required for data: 1126235424
I0403 15:47:42.222184  3648 layer_factory.hpp:77] Creating layer inception_4d/relu_3x3
I0403 15:47:42.222205  3648 net.cpp:91] Creating Layer inception_4d/relu_3x3
I0403 15:47:42.222224  3648 net.cpp:425] inception_4d/relu_3x3 <- inception_4d/3x3
I0403 15:47:42.222242  3648 net.cpp:386] inception_4d/relu_3x3 -> inception_4d/3x3 (in-place)
I0403 15:47:42.222441  3648 net.cpp:141] Setting up inception_4d/relu_3x3
I0403 15:47:42.222468  3648 net.cpp:148] Top shape: 24 288 14 14 (1354752)
I0403 15:47:42.222483  3648 net.cpp:156] Memory required for data: 1131654432
I0403 15:47:42.222498  3648 layer_factory.hpp:77] Creating layer inception_4d/5x5_reduce
I0403 15:47:42.222523  3648 net.cpp:91] Creating Layer inception_4d/5x5_reduce
I0403 15:47:42.222540  3648 net.cpp:425] inception_4d/5x5_reduce <- inception_4c/output_inception_4c/output_0_split_2
I0403 15:47:42.222560  3648 net.cpp:399] inception_4d/5x5_reduce -> inception_4d/5x5_reduce
I0403 15:47:42.223742  3648 net.cpp:141] Setting up inception_4d/5x5_reduce
I0403 15:47:42.223772  3648 net.cpp:148] Top shape: 24 32 14 14 (150528)
I0403 15:47:42.223788  3648 net.cpp:156] Memory required for data: 1132256544
I0403 15:47:42.223806  3648 layer_factory.hpp:77] Creating layer inception_4d/relu_5x5_reduce
I0403 15:47:42.223827  3648 net.cpp:91] Creating Layer inception_4d/relu_5x5_reduce
I0403 15:47:42.223845  3648 net.cpp:425] inception_4d/relu_5x5_reduce <- inception_4d/5x5_reduce
I0403 15:47:42.223863  3648 net.cpp:386] inception_4d/relu_5x5_reduce -> inception_4d/5x5_reduce (in-place)
I0403 15:47:42.224056  3648 net.cpp:141] Setting up inception_4d/relu_5x5_reduce
I0403 15:47:42.224081  3648 net.cpp:148] Top shape: 24 32 14 14 (150528)
I0403 15:47:42.224099  3648 net.cpp:156] Memory required for data: 1132858656
I0403 15:47:42.224115  3648 layer_factory.hpp:77] Creating layer inception_4d/5x5
I0403 15:47:42.224135  3648 net.cpp:91] Creating Layer inception_4d/5x5
I0403 15:47:42.224153  3648 net.cpp:425] inception_4d/5x5 <- inception_4d/5x5_reduce
I0403 15:47:42.224174  3648 net.cpp:399] inception_4d/5x5 -> inception_4d/5x5
I0403 15:47:42.225736  3648 net.cpp:141] Setting up inception_4d/5x5
I0403 15:47:42.225767  3648 net.cpp:148] Top shape: 24 64 14 14 (301056)
I0403 15:47:42.225785  3648 net.cpp:156] Memory required for data: 1134062880
I0403 15:47:42.225805  3648 layer_factory.hpp:77] Creating layer inception_4d/relu_5x5
I0403 15:47:42.225841  3648 net.cpp:91] Creating Layer inception_4d/relu_5x5
I0403 15:47:42.225858  3648 net.cpp:425] inception_4d/relu_5x5 <- inception_4d/5x5
I0403 15:47:42.225877  3648 net.cpp:386] inception_4d/relu_5x5 -> inception_4d/5x5 (in-place)
I0403 15:47:42.226191  3648 net.cpp:141] Setting up inception_4d/relu_5x5
I0403 15:47:42.226222  3648 net.cpp:148] Top shape: 24 64 14 14 (301056)
I0403 15:47:42.226238  3648 net.cpp:156] Memory required for data: 1135267104
I0403 15:47:42.226254  3648 layer_factory.hpp:77] Creating layer inception_4d/pool
I0403 15:47:42.226276  3648 net.cpp:91] Creating Layer inception_4d/pool
I0403 15:47:42.226294  3648 net.cpp:425] inception_4d/pool <- inception_4c/output_inception_4c/output_0_split_3
I0403 15:47:42.226315  3648 net.cpp:399] inception_4d/pool -> inception_4d/pool
I0403 15:47:42.226382  3648 net.cpp:141] Setting up inception_4d/pool
I0403 15:47:42.226408  3648 net.cpp:148] Top shape: 24 512 14 14 (2408448)
I0403 15:47:42.226423  3648 net.cpp:156] Memory required for data: 1144900896
I0403 15:47:42.226438  3648 layer_factory.hpp:77] Creating layer inception_4d/pool_proj
I0403 15:47:42.226460  3648 net.cpp:91] Creating Layer inception_4d/pool_proj
I0403 15:47:42.226480  3648 net.cpp:425] inception_4d/pool_proj <- inception_4d/pool
I0403 15:47:42.226501  3648 net.cpp:399] inception_4d/pool_proj -> inception_4d/pool_proj
I0403 15:47:42.228399  3648 net.cpp:141] Setting up inception_4d/pool_proj
I0403 15:47:42.228428  3648 net.cpp:148] Top shape: 24 64 14 14 (301056)
I0403 15:47:42.228445  3648 net.cpp:156] Memory required for data: 1146105120
I0403 15:47:42.228462  3648 layer_factory.hpp:77] Creating layer inception_4d/relu_pool_proj
I0403 15:47:42.228483  3648 net.cpp:91] Creating Layer inception_4d/relu_pool_proj
I0403 15:47:42.228500  3648 net.cpp:425] inception_4d/relu_pool_proj <- inception_4d/pool_proj
I0403 15:47:42.228518  3648 net.cpp:386] inception_4d/relu_pool_proj -> inception_4d/pool_proj (in-place)
I0403 15:47:42.228703  3648 net.cpp:141] Setting up inception_4d/relu_pool_proj
I0403 15:47:42.228727  3648 net.cpp:148] Top shape: 24 64 14 14 (301056)
I0403 15:47:42.228742  3648 net.cpp:156] Memory required for data: 1147309344
I0403 15:47:42.228757  3648 layer_factory.hpp:77] Creating layer inception_4d/output
I0403 15:47:42.228780  3648 net.cpp:91] Creating Layer inception_4d/output
I0403 15:47:42.228797  3648 net.cpp:425] inception_4d/output <- inception_4d/1x1
I0403 15:47:42.228813  3648 net.cpp:425] inception_4d/output <- inception_4d/3x3
I0403 15:47:42.228829  3648 net.cpp:425] inception_4d/output <- inception_4d/5x5
I0403 15:47:42.228845  3648 net.cpp:425] inception_4d/output <- inception_4d/pool_proj
I0403 15:47:42.228863  3648 net.cpp:399] inception_4d/output -> inception_4d/output
I0403 15:47:42.228911  3648 net.cpp:141] Setting up inception_4d/output
I0403 15:47:42.228935  3648 net.cpp:148] Top shape: 24 528 14 14 (2483712)
I0403 15:47:42.228950  3648 net.cpp:156] Memory required for data: 1157244192
I0403 15:47:42.228965  3648 layer_factory.hpp:77] Creating layer inception_4d/output_inception_4d/output_0_split
I0403 15:47:42.228982  3648 net.cpp:91] Creating Layer inception_4d/output_inception_4d/output_0_split
I0403 15:47:42.228998  3648 net.cpp:425] inception_4d/output_inception_4d/output_0_split <- inception_4d/output
I0403 15:47:42.229019  3648 net.cpp:399] inception_4d/output_inception_4d/output_0_split -> inception_4d/output_inception_4d/output_0_split_0
I0403 15:47:42.229040  3648 net.cpp:399] inception_4d/output_inception_4d/output_0_split -> inception_4d/output_inception_4d/output_0_split_1
I0403 15:47:42.229061  3648 net.cpp:399] inception_4d/output_inception_4d/output_0_split -> inception_4d/output_inception_4d/output_0_split_2
I0403 15:47:42.229081  3648 net.cpp:399] inception_4d/output_inception_4d/output_0_split -> inception_4d/output_inception_4d/output_0_split_3
I0403 15:47:42.229106  3648 net.cpp:399] inception_4d/output_inception_4d/output_0_split -> inception_4d/output_inception_4d/output_0_split_4
I0403 15:47:42.229207  3648 net.cpp:141] Setting up inception_4d/output_inception_4d/output_0_split
I0403 15:47:42.229243  3648 net.cpp:148] Top shape: 24 528 14 14 (2483712)
I0403 15:47:42.229260  3648 net.cpp:148] Top shape: 24 528 14 14 (2483712)
I0403 15:47:42.229281  3648 net.cpp:148] Top shape: 24 528 14 14 (2483712)
I0403 15:47:42.229297  3648 net.cpp:148] Top shape: 24 528 14 14 (2483712)
I0403 15:47:42.229313  3648 net.cpp:148] Top shape: 24 528 14 14 (2483712)
I0403 15:47:42.229327  3648 net.cpp:156] Memory required for data: 1206918432
I0403 15:47:42.229342  3648 layer_factory.hpp:77] Creating layer loss2/ave_pool
I0403 15:47:42.229359  3648 net.cpp:91] Creating Layer loss2/ave_pool
I0403 15:47:42.229375  3648 net.cpp:425] loss2/ave_pool <- inception_4d/output_inception_4d/output_0_split_0
I0403 15:47:42.229395  3648 net.cpp:399] loss2/ave_pool -> loss2/ave_pool
I0403 15:47:42.233202  3648 net.cpp:141] Setting up loss2/ave_pool
I0403 15:47:42.233229  3648 net.cpp:148] Top shape: 24 528 4 4 (202752)
I0403 15:47:42.233244  3648 net.cpp:156] Memory required for data: 1207729440
I0403 15:47:42.233258  3648 layer_factory.hpp:77] Creating layer loss2/conv
I0403 15:47:42.233294  3648 net.cpp:91] Creating Layer loss2/conv
I0403 15:47:42.233314  3648 net.cpp:425] loss2/conv <- loss2/ave_pool
I0403 15:47:42.233336  3648 net.cpp:399] loss2/conv -> loss2/conv
I0403 15:47:42.235235  3648 net.cpp:141] Setting up loss2/conv
I0403 15:47:42.235266  3648 net.cpp:148] Top shape: 24 128 4 4 (49152)
I0403 15:47:42.235286  3648 net.cpp:156] Memory required for data: 1207926048
I0403 15:47:42.235306  3648 layer_factory.hpp:77] Creating layer loss2/relu_conv
I0403 15:47:42.235323  3648 net.cpp:91] Creating Layer loss2/relu_conv
I0403 15:47:42.235340  3648 net.cpp:425] loss2/relu_conv <- loss2/conv
I0403 15:47:42.235359  3648 net.cpp:386] loss2/relu_conv -> loss2/conv (in-place)
I0403 15:47:42.235648  3648 net.cpp:141] Setting up loss2/relu_conv
I0403 15:47:42.235677  3648 net.cpp:148] Top shape: 24 128 4 4 (49152)
I0403 15:47:42.235692  3648 net.cpp:156] Memory required for data: 1208122656
I0403 15:47:42.235707  3648 layer_factory.hpp:77] Creating layer loss2/fc
I0403 15:47:42.235728  3648 net.cpp:91] Creating Layer loss2/fc
I0403 15:47:42.235743  3648 net.cpp:425] loss2/fc <- loss2/conv
I0403 15:47:42.235765  3648 net.cpp:399] loss2/fc -> loss2/fc
I0403 15:47:42.253576  3648 net.cpp:141] Setting up loss2/fc
I0403 15:47:42.253607  3648 net.cpp:148] Top shape: 24 1024 (24576)
I0403 15:47:42.253623  3648 net.cpp:156] Memory required for data: 1208220960
I0403 15:47:42.253643  3648 layer_factory.hpp:77] Creating layer loss2/relu_fc
I0403 15:47:42.253662  3648 net.cpp:91] Creating Layer loss2/relu_fc
I0403 15:47:42.253679  3648 net.cpp:425] loss2/relu_fc <- loss2/fc
I0403 15:47:42.253697  3648 net.cpp:386] loss2/relu_fc -> loss2/fc (in-place)
I0403 15:47:42.253996  3648 net.cpp:141] Setting up loss2/relu_fc
I0403 15:47:42.254022  3648 net.cpp:148] Top shape: 24 1024 (24576)
I0403 15:47:42.254037  3648 net.cpp:156] Memory required for data: 1208319264
I0403 15:47:42.254052  3648 layer_factory.hpp:77] Creating layer loss2/drop_fc
I0403 15:47:42.254072  3648 net.cpp:91] Creating Layer loss2/drop_fc
I0403 15:47:42.254089  3648 net.cpp:425] loss2/drop_fc <- loss2/fc
I0403 15:47:42.254107  3648 net.cpp:386] loss2/drop_fc -> loss2/fc (in-place)
I0403 15:47:42.254158  3648 net.cpp:141] Setting up loss2/drop_fc
I0403 15:47:42.254180  3648 net.cpp:148] Top shape: 24 1024 (24576)
I0403 15:47:42.254195  3648 net.cpp:156] Memory required for data: 1208417568
I0403 15:47:42.254209  3648 layer_factory.hpp:77] Creating layer loss2/classifier_plantvillage
I0403 15:47:42.254227  3648 net.cpp:91] Creating Layer loss2/classifier_plantvillage
I0403 15:47:42.254243  3648 net.cpp:425] loss2/classifier_plantvillage <- loss2/fc
I0403 15:47:42.254266  3648 net.cpp:399] loss2/classifier_plantvillage -> loss2/classifier_plantvillage
I0403 15:47:42.254686  3648 net.cpp:141] Setting up loss2/classifier_plantvillage
I0403 15:47:42.254712  3648 net.cpp:148] Top shape: 24 38 (912)
I0403 15:47:42.254745  3648 net.cpp:156] Memory required for data: 1208421216
I0403 15:47:42.254765  3648 layer_factory.hpp:77] Creating layer loss2/classifier_plantvillage_loss2/classifier_plantvillage_0_split
I0403 15:47:42.254783  3648 net.cpp:91] Creating Layer loss2/classifier_plantvillage_loss2/classifier_plantvillage_0_split
I0403 15:47:42.254801  3648 net.cpp:425] loss2/classifier_plantvillage_loss2/classifier_plantvillage_0_split <- loss2/classifier_plantvillage
I0403 15:47:42.254822  3648 net.cpp:399] loss2/classifier_plantvillage_loss2/classifier_plantvillage_0_split -> loss2/classifier_plantvillage_loss2/classifier_plantvillage_0_split_0
I0403 15:47:42.254842  3648 net.cpp:399] loss2/classifier_plantvillage_loss2/classifier_plantvillage_0_split -> loss2/classifier_plantvillage_loss2/classifier_plantvillage_0_split_1
I0403 15:47:42.254864  3648 net.cpp:399] loss2/classifier_plantvillage_loss2/classifier_plantvillage_0_split -> loss2/classifier_plantvillage_loss2/classifier_plantvillage_0_split_2
I0403 15:47:42.254947  3648 net.cpp:141] Setting up loss2/classifier_plantvillage_loss2/classifier_plantvillage_0_split
I0403 15:47:42.254972  3648 net.cpp:148] Top shape: 24 38 (912)
I0403 15:47:42.255002  3648 net.cpp:148] Top shape: 24 38 (912)
I0403 15:47:42.255017  3648 net.cpp:148] Top shape: 24 38 (912)
I0403 15:47:42.255029  3648 net.cpp:156] Memory required for data: 1208432160
I0403 15:47:42.255043  3648 layer_factory.hpp:77] Creating layer inception_4e/1x1
I0403 15:47:42.255066  3648 net.cpp:91] Creating Layer inception_4e/1x1
I0403 15:47:42.255084  3648 net.cpp:425] inception_4e/1x1 <- inception_4d/output_inception_4d/output_0_split_1
I0403 15:47:42.255105  3648 net.cpp:399] inception_4e/1x1 -> inception_4e/1x1
I0403 15:47:42.256924  3648 net.cpp:141] Setting up inception_4e/1x1
I0403 15:47:42.256954  3648 net.cpp:148] Top shape: 24 256 14 14 (1204224)
I0403 15:47:42.256971  3648 net.cpp:156] Memory required for data: 1213249056
I0403 15:47:42.256990  3648 layer_factory.hpp:77] Creating layer inception_4e/relu_1x1
I0403 15:47:42.257009  3648 net.cpp:91] Creating Layer inception_4e/relu_1x1
I0403 15:47:42.257025  3648 net.cpp:425] inception_4e/relu_1x1 <- inception_4e/1x1
I0403 15:47:42.257042  3648 net.cpp:386] inception_4e/relu_1x1 -> inception_4e/1x1 (in-place)
I0403 15:47:42.257347  3648 net.cpp:141] Setting up inception_4e/relu_1x1
I0403 15:47:42.257375  3648 net.cpp:148] Top shape: 24 256 14 14 (1204224)
I0403 15:47:42.257391  3648 net.cpp:156] Memory required for data: 1218065952
I0403 15:47:42.257406  3648 layer_factory.hpp:77] Creating layer inception_4e/3x3_reduce
I0403 15:47:42.257428  3648 net.cpp:91] Creating Layer inception_4e/3x3_reduce
I0403 15:47:42.257446  3648 net.cpp:425] inception_4e/3x3_reduce <- inception_4d/output_inception_4d/output_0_split_2
I0403 15:47:42.257465  3648 net.cpp:399] inception_4e/3x3_reduce -> inception_4e/3x3_reduce
I0403 15:47:42.259637  3648 net.cpp:141] Setting up inception_4e/3x3_reduce
I0403 15:47:42.259666  3648 net.cpp:148] Top shape: 24 160 14 14 (752640)
I0403 15:47:42.259682  3648 net.cpp:156] Memory required for data: 1221076512
I0403 15:47:42.259701  3648 layer_factory.hpp:77] Creating layer inception_4e/relu_3x3_reduce
I0403 15:47:42.259721  3648 net.cpp:91] Creating Layer inception_4e/relu_3x3_reduce
I0403 15:47:42.259738  3648 net.cpp:425] inception_4e/relu_3x3_reduce <- inception_4e/3x3_reduce
I0403 15:47:42.259757  3648 net.cpp:386] inception_4e/relu_3x3_reduce -> inception_4e/3x3_reduce (in-place)
I0403 15:47:42.259948  3648 net.cpp:141] Setting up inception_4e/relu_3x3_reduce
I0403 15:47:42.259973  3648 net.cpp:148] Top shape: 24 160 14 14 (752640)
I0403 15:47:42.259987  3648 net.cpp:156] Memory required for data: 1224087072
I0403 15:47:42.260001  3648 layer_factory.hpp:77] Creating layer inception_4e/3x3
I0403 15:47:42.260023  3648 net.cpp:91] Creating Layer inception_4e/3x3
I0403 15:47:42.260040  3648 net.cpp:425] inception_4e/3x3 <- inception_4e/3x3_reduce
I0403 15:47:42.260063  3648 net.cpp:399] inception_4e/3x3 -> inception_4e/3x3
I0403 15:47:42.265096  3648 net.cpp:141] Setting up inception_4e/3x3
I0403 15:47:42.265137  3648 net.cpp:148] Top shape: 24 320 14 14 (1505280)
I0403 15:47:42.265153  3648 net.cpp:156] Memory required for data: 1230108192
I0403 15:47:42.265172  3648 layer_factory.hpp:77] Creating layer inception_4e/relu_3x3
I0403 15:47:42.265190  3648 net.cpp:91] Creating Layer inception_4e/relu_3x3
I0403 15:47:42.265205  3648 net.cpp:425] inception_4e/relu_3x3 <- inception_4e/3x3
I0403 15:47:42.265226  3648 net.cpp:386] inception_4e/relu_3x3 -> inception_4e/3x3 (in-place)
I0403 15:47:42.265537  3648 net.cpp:141] Setting up inception_4e/relu_3x3
I0403 15:47:42.265565  3648 net.cpp:148] Top shape: 24 320 14 14 (1505280)
I0403 15:47:42.265580  3648 net.cpp:156] Memory required for data: 1236129312
I0403 15:47:42.265595  3648 layer_factory.hpp:77] Creating layer inception_4e/5x5_reduce
I0403 15:47:42.265619  3648 net.cpp:91] Creating Layer inception_4e/5x5_reduce
I0403 15:47:42.265636  3648 net.cpp:425] inception_4e/5x5_reduce <- inception_4d/output_inception_4d/output_0_split_3
I0403 15:47:42.265657  3648 net.cpp:399] inception_4e/5x5_reduce -> inception_4e/5x5_reduce
I0403 15:47:42.266800  3648 net.cpp:141] Setting up inception_4e/5x5_reduce
I0403 15:47:42.266831  3648 net.cpp:148] Top shape: 24 32 14 14 (150528)
I0403 15:47:42.266849  3648 net.cpp:156] Memory required for data: 1236731424
I0403 15:47:42.266868  3648 layer_factory.hpp:77] Creating layer inception_4e/relu_5x5_reduce
I0403 15:47:42.266886  3648 net.cpp:91] Creating Layer inception_4e/relu_5x5_reduce
I0403 15:47:42.266903  3648 net.cpp:425] inception_4e/relu_5x5_reduce <- inception_4e/5x5_reduce
I0403 15:47:42.266922  3648 net.cpp:386] inception_4e/relu_5x5_reduce -> inception_4e/5x5_reduce (in-place)
I0403 15:47:42.267237  3648 net.cpp:141] Setting up inception_4e/relu_5x5_reduce
I0403 15:47:42.267266  3648 net.cpp:148] Top shape: 24 32 14 14 (150528)
I0403 15:47:42.267288  3648 net.cpp:156] Memory required for data: 1237333536
I0403 15:47:42.267304  3648 layer_factory.hpp:77] Creating layer inception_4e/5x5
I0403 15:47:42.267345  3648 net.cpp:91] Creating Layer inception_4e/5x5
I0403 15:47:42.267365  3648 net.cpp:425] inception_4e/5x5 <- inception_4e/5x5_reduce
I0403 15:47:42.267386  3648 net.cpp:399] inception_4e/5x5 -> inception_4e/5x5
I0403 15:47:42.269282  3648 net.cpp:141] Setting up inception_4e/5x5
I0403 15:47:42.269311  3648 net.cpp:148] Top shape: 24 128 14 14 (602112)
I0403 15:47:42.269327  3648 net.cpp:156] Memory required for data: 1239741984
I0403 15:47:42.269347  3648 layer_factory.hpp:77] Creating layer inception_4e/relu_5x5
I0403 15:47:42.269368  3648 net.cpp:91] Creating Layer inception_4e/relu_5x5
I0403 15:47:42.269387  3648 net.cpp:425] inception_4e/relu_5x5 <- inception_4e/5x5
I0403 15:47:42.269405  3648 net.cpp:386] inception_4e/relu_5x5 -> inception_4e/5x5 (in-place)
I0403 15:47:42.269613  3648 net.cpp:141] Setting up inception_4e/relu_5x5
I0403 15:47:42.269642  3648 net.cpp:148] Top shape: 24 128 14 14 (602112)
I0403 15:47:42.269659  3648 net.cpp:156] Memory required for data: 1242150432
I0403 15:47:42.269675  3648 layer_factory.hpp:77] Creating layer inception_4e/pool
I0403 15:47:42.269691  3648 net.cpp:91] Creating Layer inception_4e/pool
I0403 15:47:42.269708  3648 net.cpp:425] inception_4e/pool <- inception_4d/output_inception_4d/output_0_split_4
I0403 15:47:42.269729  3648 net.cpp:399] inception_4e/pool -> inception_4e/pool
I0403 15:47:42.269800  3648 net.cpp:141] Setting up inception_4e/pool
I0403 15:47:42.269825  3648 net.cpp:148] Top shape: 24 528 14 14 (2483712)
I0403 15:47:42.269840  3648 net.cpp:156] Memory required for data: 1252085280
I0403 15:47:42.269856  3648 layer_factory.hpp:77] Creating layer inception_4e/pool_proj
I0403 15:47:42.269879  3648 net.cpp:91] Creating Layer inception_4e/pool_proj
I0403 15:47:42.269897  3648 net.cpp:425] inception_4e/pool_proj <- inception_4e/pool
I0403 15:47:42.269919  3648 net.cpp:399] inception_4e/pool_proj -> inception_4e/pool_proj
I0403 15:47:42.271478  3648 net.cpp:141] Setting up inception_4e/pool_proj
I0403 15:47:42.271519  3648 net.cpp:148] Top shape: 24 128 14 14 (602112)
I0403 15:47:42.271536  3648 net.cpp:156] Memory required for data: 1254493728
I0403 15:47:42.271555  3648 layer_factory.hpp:77] Creating layer inception_4e/relu_pool_proj
I0403 15:47:42.271577  3648 net.cpp:91] Creating Layer inception_4e/relu_pool_proj
I0403 15:47:42.271595  3648 net.cpp:425] inception_4e/relu_pool_proj <- inception_4e/pool_proj
I0403 15:47:42.271613  3648 net.cpp:386] inception_4e/relu_pool_proj -> inception_4e/pool_proj (in-place)
I0403 15:47:42.271919  3648 net.cpp:141] Setting up inception_4e/relu_pool_proj
I0403 15:47:42.271946  3648 net.cpp:148] Top shape: 24 128 14 14 (602112)
I0403 15:47:42.271961  3648 net.cpp:156] Memory required for data: 1256902176
I0403 15:47:42.271977  3648 layer_factory.hpp:77] Creating layer inception_4e/output
I0403 15:47:42.271997  3648 net.cpp:91] Creating Layer inception_4e/output
I0403 15:47:42.272014  3648 net.cpp:425] inception_4e/output <- inception_4e/1x1
I0403 15:47:42.272032  3648 net.cpp:425] inception_4e/output <- inception_4e/3x3
I0403 15:47:42.272048  3648 net.cpp:425] inception_4e/output <- inception_4e/5x5
I0403 15:47:42.272065  3648 net.cpp:425] inception_4e/output <- inception_4e/pool_proj
I0403 15:47:42.272083  3648 net.cpp:399] inception_4e/output -> inception_4e/output
I0403 15:47:42.272133  3648 net.cpp:141] Setting up inception_4e/output
I0403 15:47:42.272161  3648 net.cpp:148] Top shape: 24 832 14 14 (3913728)
I0403 15:47:42.272177  3648 net.cpp:156] Memory required for data: 1272557088
I0403 15:47:42.272192  3648 layer_factory.hpp:77] Creating layer pool4/3x3_s2
I0403 15:47:42.272210  3648 net.cpp:91] Creating Layer pool4/3x3_s2
I0403 15:47:42.272227  3648 net.cpp:425] pool4/3x3_s2 <- inception_4e/output
I0403 15:47:42.272248  3648 net.cpp:399] pool4/3x3_s2 -> pool4/3x3_s2
I0403 15:47:42.272341  3648 net.cpp:141] Setting up pool4/3x3_s2
I0403 15:47:42.272370  3648 net.cpp:148] Top shape: 24 832 7 7 (978432)
I0403 15:47:42.272387  3648 net.cpp:156] Memory required for data: 1276470816
I0403 15:47:42.272403  3648 layer_factory.hpp:77] Creating layer pool4/3x3_s2_pool4/3x3_s2_0_split
I0403 15:47:42.272423  3648 net.cpp:91] Creating Layer pool4/3x3_s2_pool4/3x3_s2_0_split
I0403 15:47:42.272439  3648 net.cpp:425] pool4/3x3_s2_pool4/3x3_s2_0_split <- pool4/3x3_s2
I0403 15:47:42.272459  3648 net.cpp:399] pool4/3x3_s2_pool4/3x3_s2_0_split -> pool4/3x3_s2_pool4/3x3_s2_0_split_0
I0403 15:47:42.272480  3648 net.cpp:399] pool4/3x3_s2_pool4/3x3_s2_0_split -> pool4/3x3_s2_pool4/3x3_s2_0_split_1
I0403 15:47:42.272502  3648 net.cpp:399] pool4/3x3_s2_pool4/3x3_s2_0_split -> pool4/3x3_s2_pool4/3x3_s2_0_split_2
I0403 15:47:42.272526  3648 net.cpp:399] pool4/3x3_s2_pool4/3x3_s2_0_split -> pool4/3x3_s2_pool4/3x3_s2_0_split_3
I0403 15:47:42.272634  3648 net.cpp:141] Setting up pool4/3x3_s2_pool4/3x3_s2_0_split
I0403 15:47:42.272658  3648 net.cpp:148] Top shape: 24 832 7 7 (978432)
I0403 15:47:42.272675  3648 net.cpp:148] Top shape: 24 832 7 7 (978432)
I0403 15:47:42.272692  3648 net.cpp:148] Top shape: 24 832 7 7 (978432)
I0403 15:47:42.272707  3648 net.cpp:148] Top shape: 24 832 7 7 (978432)
I0403 15:47:42.272722  3648 net.cpp:156] Memory required for data: 1292125728
I0403 15:47:42.272737  3648 layer_factory.hpp:77] Creating layer inception_5a/1x1
I0403 15:47:42.272759  3648 net.cpp:91] Creating Layer inception_5a/1x1
I0403 15:47:42.272778  3648 net.cpp:425] inception_5a/1x1 <- pool4/3x3_s2_pool4/3x3_s2_0_split_0
I0403 15:47:42.272800  3648 net.cpp:399] inception_5a/1x1 -> inception_5a/1x1
I0403 15:47:42.275761  3648 net.cpp:141] Setting up inception_5a/1x1
I0403 15:47:42.275792  3648 net.cpp:148] Top shape: 24 256 7 7 (301056)
I0403 15:47:42.275809  3648 net.cpp:156] Memory required for data: 1293329952
I0403 15:47:42.275826  3648 layer_factory.hpp:77] Creating layer inception_5a/relu_1x1
I0403 15:47:42.275847  3648 net.cpp:91] Creating Layer inception_5a/relu_1x1
I0403 15:47:42.275864  3648 net.cpp:425] inception_5a/relu_1x1 <- inception_5a/1x1
I0403 15:47:42.275883  3648 net.cpp:386] inception_5a/relu_1x1 -> inception_5a/1x1 (in-place)
I0403 15:47:42.276208  3648 net.cpp:141] Setting up inception_5a/relu_1x1
I0403 15:47:42.276237  3648 net.cpp:148] Top shape: 24 256 7 7 (301056)
I0403 15:47:42.276252  3648 net.cpp:156] Memory required for data: 1294534176
I0403 15:47:42.276268  3648 layer_factory.hpp:77] Creating layer inception_5a/3x3_reduce
I0403 15:47:42.276311  3648 net.cpp:91] Creating Layer inception_5a/3x3_reduce
I0403 15:47:42.276331  3648 net.cpp:425] inception_5a/3x3_reduce <- pool4/3x3_s2_pool4/3x3_s2_0_split_1
I0403 15:47:42.276351  3648 net.cpp:399] inception_5a/3x3_reduce -> inception_5a/3x3_reduce
I0403 15:47:42.278942  3648 net.cpp:141] Setting up inception_5a/3x3_reduce
I0403 15:47:42.278972  3648 net.cpp:148] Top shape: 24 160 7 7 (188160)
I0403 15:47:42.278988  3648 net.cpp:156] Memory required for data: 1295286816
I0403 15:47:42.279007  3648 layer_factory.hpp:77] Creating layer inception_5a/relu_3x3_reduce
I0403 15:47:42.279028  3648 net.cpp:91] Creating Layer inception_5a/relu_3x3_reduce
I0403 15:47:42.279045  3648 net.cpp:425] inception_5a/relu_3x3_reduce <- inception_5a/3x3_reduce
I0403 15:47:42.279064  3648 net.cpp:386] inception_5a/relu_3x3_reduce -> inception_5a/3x3_reduce (in-place)
I0403 15:47:42.279263  3648 net.cpp:141] Setting up inception_5a/relu_3x3_reduce
I0403 15:47:42.279294  3648 net.cpp:148] Top shape: 24 160 7 7 (188160)
I0403 15:47:42.279309  3648 net.cpp:156] Memory required for data: 1296039456
I0403 15:47:42.279325  3648 layer_factory.hpp:77] Creating layer inception_5a/3x3
I0403 15:47:42.279348  3648 net.cpp:91] Creating Layer inception_5a/3x3
I0403 15:47:42.279367  3648 net.cpp:425] inception_5a/3x3 <- inception_5a/3x3_reduce
I0403 15:47:42.279392  3648 net.cpp:399] inception_5a/3x3 -> inception_5a/3x3
I0403 15:47:42.284608  3648 net.cpp:141] Setting up inception_5a/3x3
I0403 15:47:42.284638  3648 net.cpp:148] Top shape: 24 320 7 7 (376320)
I0403 15:47:42.284654  3648 net.cpp:156] Memory required for data: 1297544736
I0403 15:47:42.284673  3648 layer_factory.hpp:77] Creating layer inception_5a/relu_3x3
I0403 15:47:42.284694  3648 net.cpp:91] Creating Layer inception_5a/relu_3x3
I0403 15:47:42.284713  3648 net.cpp:425] inception_5a/relu_3x3 <- inception_5a/3x3
I0403 15:47:42.284731  3648 net.cpp:386] inception_5a/relu_3x3 -> inception_5a/3x3 (in-place)
I0403 15:47:42.285070  3648 net.cpp:141] Setting up inception_5a/relu_3x3
I0403 15:47:42.285099  3648 net.cpp:148] Top shape: 24 320 7 7 (376320)
I0403 15:47:42.285114  3648 net.cpp:156] Memory required for data: 1299050016
I0403 15:47:42.285130  3648 layer_factory.hpp:77] Creating layer inception_5a/5x5_reduce
I0403 15:47:42.285152  3648 net.cpp:91] Creating Layer inception_5a/5x5_reduce
I0403 15:47:42.285171  3648 net.cpp:425] inception_5a/5x5_reduce <- pool4/3x3_s2_pool4/3x3_s2_0_split_2
I0403 15:47:42.285193  3648 net.cpp:399] inception_5a/5x5_reduce -> inception_5a/5x5_reduce
I0403 15:47:42.286396  3648 net.cpp:141] Setting up inception_5a/5x5_reduce
I0403 15:47:42.286423  3648 net.cpp:148] Top shape: 24 32 7 7 (37632)
I0403 15:47:42.286439  3648 net.cpp:156] Memory required for data: 1299200544
I0403 15:47:42.286458  3648 layer_factory.hpp:77] Creating layer inception_5a/relu_5x5_reduce
I0403 15:47:42.286478  3648 net.cpp:91] Creating Layer inception_5a/relu_5x5_reduce
I0403 15:47:42.286496  3648 net.cpp:425] inception_5a/relu_5x5_reduce <- inception_5a/5x5_reduce
I0403 15:47:42.286514  3648 net.cpp:386] inception_5a/relu_5x5_reduce -> inception_5a/5x5_reduce (in-place)
I0403 15:47:42.286821  3648 net.cpp:141] Setting up inception_5a/relu_5x5_reduce
I0403 15:47:42.286849  3648 net.cpp:148] Top shape: 24 32 7 7 (37632)
I0403 15:47:42.286865  3648 net.cpp:156] Memory required for data: 1299351072
I0403 15:47:42.286880  3648 layer_factory.hpp:77] Creating layer inception_5a/5x5
I0403 15:47:42.286902  3648 net.cpp:91] Creating Layer inception_5a/5x5
I0403 15:47:42.286919  3648 net.cpp:425] inception_5a/5x5 <- inception_5a/5x5_reduce
I0403 15:47:42.286938  3648 net.cpp:399] inception_5a/5x5 -> inception_5a/5x5
I0403 15:47:42.288708  3648 net.cpp:141] Setting up inception_5a/5x5
I0403 15:47:42.288748  3648 net.cpp:148] Top shape: 24 128 7 7 (150528)
I0403 15:47:42.288765  3648 net.cpp:156] Memory required for data: 1299953184
I0403 15:47:42.288784  3648 layer_factory.hpp:77] Creating layer inception_5a/relu_5x5
I0403 15:47:42.288803  3648 net.cpp:91] Creating Layer inception_5a/relu_5x5
I0403 15:47:42.288821  3648 net.cpp:425] inception_5a/relu_5x5 <- inception_5a/5x5
I0403 15:47:42.288839  3648 net.cpp:386] inception_5a/relu_5x5 -> inception_5a/5x5 (in-place)
I0403 15:47:42.289034  3648 net.cpp:141] Setting up inception_5a/relu_5x5
I0403 15:47:42.289062  3648 net.cpp:148] Top shape: 24 128 7 7 (150528)
I0403 15:47:42.289077  3648 net.cpp:156] Memory required for data: 1300555296
I0403 15:47:42.289093  3648 layer_factory.hpp:77] Creating layer inception_5a/pool
I0403 15:47:42.289109  3648 net.cpp:91] Creating Layer inception_5a/pool
I0403 15:47:42.289125  3648 net.cpp:425] inception_5a/pool <- pool4/3x3_s2_pool4/3x3_s2_0_split_3
I0403 15:47:42.289146  3648 net.cpp:399] inception_5a/pool -> inception_5a/pool
I0403 15:47:42.289216  3648 net.cpp:141] Setting up inception_5a/pool
I0403 15:47:42.289240  3648 net.cpp:148] Top shape: 24 832 7 7 (978432)
I0403 15:47:42.289255  3648 net.cpp:156] Memory required for data: 1304469024
I0403 15:47:42.289274  3648 layer_factory.hpp:77] Creating layer inception_5a/pool_proj
I0403 15:47:42.289299  3648 net.cpp:91] Creating Layer inception_5a/pool_proj
I0403 15:47:42.289316  3648 net.cpp:425] inception_5a/pool_proj <- inception_5a/pool
I0403 15:47:42.289337  3648 net.cpp:399] inception_5a/pool_proj -> inception_5a/pool_proj
I0403 15:47:42.291688  3648 net.cpp:141] Setting up inception_5a/pool_proj
I0403 15:47:42.291718  3648 net.cpp:148] Top shape: 24 128 7 7 (150528)
I0403 15:47:42.291734  3648 net.cpp:156] Memory required for data: 1305071136
I0403 15:47:42.291754  3648 layer_factory.hpp:77] Creating layer inception_5a/relu_pool_proj
I0403 15:47:42.291774  3648 net.cpp:91] Creating Layer inception_5a/relu_pool_proj
I0403 15:47:42.291790  3648 net.cpp:425] inception_5a/relu_pool_proj <- inception_5a/pool_proj
I0403 15:47:42.291808  3648 net.cpp:386] inception_5a/relu_pool_proj -> inception_5a/pool_proj (in-place)
I0403 15:47:42.292107  3648 net.cpp:141] Setting up inception_5a/relu_pool_proj
I0403 15:47:42.292134  3648 net.cpp:148] Top shape: 24 128 7 7 (150528)
I0403 15:47:42.292148  3648 net.cpp:156] Memory required for data: 1305673248
I0403 15:47:42.292163  3648 layer_factory.hpp:77] Creating layer inception_5a/output
I0403 15:47:42.292181  3648 net.cpp:91] Creating Layer inception_5a/output
I0403 15:47:42.292196  3648 net.cpp:425] inception_5a/output <- inception_5a/1x1
I0403 15:47:42.292213  3648 net.cpp:425] inception_5a/output <- inception_5a/3x3
I0403 15:47:42.292229  3648 net.cpp:425] inception_5a/output <- inception_5a/5x5
I0403 15:47:42.292245  3648 net.cpp:425] inception_5a/output <- inception_5a/pool_proj
I0403 15:47:42.292264  3648 net.cpp:399] inception_5a/output -> inception_5a/output
I0403 15:47:42.292330  3648 net.cpp:141] Setting up inception_5a/output
I0403 15:47:42.292356  3648 net.cpp:148] Top shape: 24 832 7 7 (978432)
I0403 15:47:42.292371  3648 net.cpp:156] Memory required for data: 1309586976
I0403 15:47:42.292384  3648 layer_factory.hpp:77] Creating layer inception_5a/output_inception_5a/output_0_split
I0403 15:47:42.292402  3648 net.cpp:91] Creating Layer inception_5a/output_inception_5a/output_0_split
I0403 15:47:42.292418  3648 net.cpp:425] inception_5a/output_inception_5a/output_0_split <- inception_5a/output
I0403 15:47:42.292438  3648 net.cpp:399] inception_5a/output_inception_5a/output_0_split -> inception_5a/output_inception_5a/output_0_split_0
I0403 15:47:42.292459  3648 net.cpp:399] inception_5a/output_inception_5a/output_0_split -> inception_5a/output_inception_5a/output_0_split_1
I0403 15:47:42.292480  3648 net.cpp:399] inception_5a/output_inception_5a/output_0_split -> inception_5a/output_inception_5a/output_0_split_2
I0403 15:47:42.292501  3648 net.cpp:399] inception_5a/output_inception_5a/output_0_split -> inception_5a/output_inception_5a/output_0_split_3
I0403 15:47:42.292619  3648 net.cpp:141] Setting up inception_5a/output_inception_5a/output_0_split
I0403 15:47:42.292644  3648 net.cpp:148] Top shape: 24 832 7 7 (978432)
I0403 15:47:42.292659  3648 net.cpp:148] Top shape: 24 832 7 7 (978432)
I0403 15:47:42.292675  3648 net.cpp:148] Top shape: 24 832 7 7 (978432)
I0403 15:47:42.292690  3648 net.cpp:148] Top shape: 24 832 7 7 (978432)
I0403 15:47:42.292704  3648 net.cpp:156] Memory required for data: 1325241888
I0403 15:47:42.292718  3648 layer_factory.hpp:77] Creating layer inception_5b/1x1
I0403 15:47:42.292742  3648 net.cpp:91] Creating Layer inception_5b/1x1
I0403 15:47:42.292759  3648 net.cpp:425] inception_5b/1x1 <- inception_5a/output_inception_5a/output_0_split_0
I0403 15:47:42.292778  3648 net.cpp:399] inception_5b/1x1 -> inception_5b/1x1
I0403 15:47:42.296571  3648 net.cpp:141] Setting up inception_5b/1x1
I0403 15:47:42.296602  3648 net.cpp:148] Top shape: 24 384 7 7 (451584)
I0403 15:47:42.296617  3648 net.cpp:156] Memory required for data: 1327048224
I0403 15:47:42.296636  3648 layer_factory.hpp:77] Creating layer inception_5b/relu_1x1
I0403 15:47:42.296656  3648 net.cpp:91] Creating Layer inception_5b/relu_1x1
I0403 15:47:42.296674  3648 net.cpp:425] inception_5b/relu_1x1 <- inception_5b/1x1
I0403 15:47:42.296692  3648 net.cpp:386] inception_5b/relu_1x1 -> inception_5b/1x1 (in-place)
I0403 15:47:42.296998  3648 net.cpp:141] Setting up inception_5b/relu_1x1
I0403 15:47:42.297024  3648 net.cpp:148] Top shape: 24 384 7 7 (451584)
I0403 15:47:42.297039  3648 net.cpp:156] Memory required for data: 1328854560
I0403 15:47:42.297055  3648 layer_factory.hpp:77] Creating layer inception_5b/3x3_reduce
I0403 15:47:42.297076  3648 net.cpp:91] Creating Layer inception_5b/3x3_reduce
I0403 15:47:42.297094  3648 net.cpp:425] inception_5b/3x3_reduce <- inception_5a/output_inception_5a/output_0_split_1
I0403 15:47:42.297117  3648 net.cpp:399] inception_5b/3x3_reduce -> inception_5b/3x3_reduce
I0403 15:47:42.299839  3648 net.cpp:141] Setting up inception_5b/3x3_reduce
I0403 15:47:42.299870  3648 net.cpp:148] Top shape: 24 192 7 7 (225792)
I0403 15:47:42.299885  3648 net.cpp:156] Memory required for data: 1329757728
I0403 15:47:42.299904  3648 layer_factory.hpp:77] Creating layer inception_5b/relu_3x3_reduce
I0403 15:47:42.299926  3648 net.cpp:91] Creating Layer inception_5b/relu_3x3_reduce
I0403 15:47:42.299942  3648 net.cpp:425] inception_5b/relu_3x3_reduce <- inception_5b/3x3_reduce
I0403 15:47:42.299960  3648 net.cpp:386] inception_5b/relu_3x3_reduce -> inception_5b/3x3_reduce (in-place)
I0403 15:47:42.300149  3648 net.cpp:141] Setting up inception_5b/relu_3x3_reduce
I0403 15:47:42.300174  3648 net.cpp:148] Top shape: 24 192 7 7 (225792)
I0403 15:47:42.300192  3648 net.cpp:156] Memory required for data: 1330660896
I0403 15:47:42.300209  3648 layer_factory.hpp:77] Creating layer inception_5b/3x3
I0403 15:47:42.300228  3648 net.cpp:91] Creating Layer inception_5b/3x3
I0403 15:47:42.300246  3648 net.cpp:425] inception_5b/3x3 <- inception_5b/3x3_reduce
I0403 15:47:42.300267  3648 net.cpp:399] inception_5b/3x3 -> inception_5b/3x3
I0403 15:47:42.307070  3648 net.cpp:141] Setting up inception_5b/3x3
I0403 15:47:42.307098  3648 net.cpp:148] Top shape: 24 384 7 7 (451584)
I0403 15:47:42.307113  3648 net.cpp:156] Memory required for data: 1332467232
I0403 15:47:42.307132  3648 layer_factory.hpp:77] Creating layer inception_5b/relu_3x3
I0403 15:47:42.307153  3648 net.cpp:91] Creating Layer inception_5b/relu_3x3
I0403 15:47:42.307170  3648 net.cpp:425] inception_5b/relu_3x3 <- inception_5b/3x3
I0403 15:47:42.307188  3648 net.cpp:386] inception_5b/relu_3x3 -> inception_5b/3x3 (in-place)
I0403 15:47:42.307489  3648 net.cpp:141] Setting up inception_5b/relu_3x3
I0403 15:47:42.307517  3648 net.cpp:148] Top shape: 24 384 7 7 (451584)
I0403 15:47:42.307530  3648 net.cpp:156] Memory required for data: 1334273568
I0403 15:47:42.307546  3648 layer_factory.hpp:77] Creating layer inception_5b/5x5_reduce
I0403 15:47:42.307585  3648 net.cpp:91] Creating Layer inception_5b/5x5_reduce
I0403 15:47:42.307603  3648 net.cpp:425] inception_5b/5x5_reduce <- inception_5a/output_inception_5a/output_0_split_2
I0403 15:47:42.307627  3648 net.cpp:399] inception_5b/5x5_reduce -> inception_5b/5x5_reduce
I0403 15:47:42.308933  3648 net.cpp:141] Setting up inception_5b/5x5_reduce
I0403 15:47:42.308962  3648 net.cpp:148] Top shape: 24 48 7 7 (56448)
I0403 15:47:42.308979  3648 net.cpp:156] Memory required for data: 1334499360
I0403 15:47:42.308996  3648 layer_factory.hpp:77] Creating layer inception_5b/relu_5x5_reduce
I0403 15:47:42.309016  3648 net.cpp:91] Creating Layer inception_5b/relu_5x5_reduce
I0403 15:47:42.309034  3648 net.cpp:425] inception_5b/relu_5x5_reduce <- inception_5b/5x5_reduce
I0403 15:47:42.309052  3648 net.cpp:386] inception_5b/relu_5x5_reduce -> inception_5b/5x5_reduce (in-place)
I0403 15:47:42.309438  3648 net.cpp:141] Setting up inception_5b/relu_5x5_reduce
I0403 15:47:42.309465  3648 net.cpp:148] Top shape: 24 48 7 7 (56448)
I0403 15:47:42.309481  3648 net.cpp:156] Memory required for data: 1334725152
I0403 15:47:42.309496  3648 layer_factory.hpp:77] Creating layer inception_5b/5x5
I0403 15:47:42.309517  3648 net.cpp:91] Creating Layer inception_5b/5x5
I0403 15:47:42.309535  3648 net.cpp:425] inception_5b/5x5 <- inception_5b/5x5_reduce
I0403 15:47:42.309553  3648 net.cpp:399] inception_5b/5x5 -> inception_5b/5x5
I0403 15:47:42.311612  3648 net.cpp:141] Setting up inception_5b/5x5
I0403 15:47:42.311640  3648 net.cpp:148] Top shape: 24 128 7 7 (150528)
I0403 15:47:42.311655  3648 net.cpp:156] Memory required for data: 1335327264
I0403 15:47:42.311674  3648 layer_factory.hpp:77] Creating layer inception_5b/relu_5x5
I0403 15:47:42.311696  3648 net.cpp:91] Creating Layer inception_5b/relu_5x5
I0403 15:47:42.311712  3648 net.cpp:425] inception_5b/relu_5x5 <- inception_5b/5x5
I0403 15:47:42.311730  3648 net.cpp:386] inception_5b/relu_5x5 -> inception_5b/5x5 (in-place)
I0403 15:47:42.311925  3648 net.cpp:141] Setting up inception_5b/relu_5x5
I0403 15:47:42.311954  3648 net.cpp:148] Top shape: 24 128 7 7 (150528)
I0403 15:47:42.311969  3648 net.cpp:156] Memory required for data: 1335929376
I0403 15:47:42.311985  3648 layer_factory.hpp:77] Creating layer inception_5b/pool
I0403 15:47:42.312001  3648 net.cpp:91] Creating Layer inception_5b/pool
I0403 15:47:42.312018  3648 net.cpp:425] inception_5b/pool <- inception_5a/output_inception_5a/output_0_split_3
I0403 15:47:42.312038  3648 net.cpp:399] inception_5b/pool -> inception_5b/pool
I0403 15:47:42.312113  3648 net.cpp:141] Setting up inception_5b/pool
I0403 15:47:42.312136  3648 net.cpp:148] Top shape: 24 832 7 7 (978432)
I0403 15:47:42.312150  3648 net.cpp:156] Memory required for data: 1339843104
I0403 15:47:42.312165  3648 layer_factory.hpp:77] Creating layer inception_5b/pool_proj
I0403 15:47:42.312188  3648 net.cpp:91] Creating Layer inception_5b/pool_proj
I0403 15:47:42.312206  3648 net.cpp:425] inception_5b/pool_proj <- inception_5b/pool
I0403 15:47:42.312225  3648 net.cpp:399] inception_5b/pool_proj -> inception_5b/pool_proj
I0403 15:47:42.314560  3648 net.cpp:141] Setting up inception_5b/pool_proj
I0403 15:47:42.314590  3648 net.cpp:148] Top shape: 24 128 7 7 (150528)
I0403 15:47:42.314606  3648 net.cpp:156] Memory required for data: 1340445216
I0403 15:47:42.314625  3648 layer_factory.hpp:77] Creating layer inception_5b/relu_pool_proj
I0403 15:47:42.314646  3648 net.cpp:91] Creating Layer inception_5b/relu_pool_proj
I0403 15:47:42.314663  3648 net.cpp:425] inception_5b/relu_pool_proj <- inception_5b/pool_proj
I0403 15:47:42.314680  3648 net.cpp:386] inception_5b/relu_pool_proj -> inception_5b/pool_proj (in-place)
I0403 15:47:42.314980  3648 net.cpp:141] Setting up inception_5b/relu_pool_proj
I0403 15:47:42.315006  3648 net.cpp:148] Top shape: 24 128 7 7 (150528)
I0403 15:47:42.315021  3648 net.cpp:156] Memory required for data: 1341047328
I0403 15:47:42.315037  3648 layer_factory.hpp:77] Creating layer inception_5b/output
I0403 15:47:42.315057  3648 net.cpp:91] Creating Layer inception_5b/output
I0403 15:47:42.315088  3648 net.cpp:425] inception_5b/output <- inception_5b/1x1
I0403 15:47:42.315105  3648 net.cpp:425] inception_5b/output <- inception_5b/3x3
I0403 15:47:42.315121  3648 net.cpp:425] inception_5b/output <- inception_5b/5x5
I0403 15:47:42.315137  3648 net.cpp:425] inception_5b/output <- inception_5b/pool_proj
I0403 15:47:42.315155  3648 net.cpp:399] inception_5b/output -> inception_5b/output
I0403 15:47:42.315208  3648 net.cpp:141] Setting up inception_5b/output
I0403 15:47:42.315233  3648 net.cpp:148] Top shape: 24 1024 7 7 (1204224)
I0403 15:47:42.315248  3648 net.cpp:156] Memory required for data: 1345864224
I0403 15:47:42.315263  3648 layer_factory.hpp:77] Creating layer pool5/7x7_s1
I0403 15:47:42.315285  3648 net.cpp:91] Creating Layer pool5/7x7_s1
I0403 15:47:42.315304  3648 net.cpp:425] pool5/7x7_s1 <- inception_5b/output
I0403 15:47:42.315325  3648 net.cpp:399] pool5/7x7_s1 -> pool5/7x7_s1
I0403 15:47:42.315546  3648 net.cpp:141] Setting up pool5/7x7_s1
I0403 15:47:42.315572  3648 net.cpp:148] Top shape: 24 1024 1 1 (24576)
I0403 15:47:42.315587  3648 net.cpp:156] Memory required for data: 1345962528
I0403 15:47:42.315600  3648 layer_factory.hpp:77] Creating layer pool5/drop_7x7_s1
I0403 15:47:42.315620  3648 net.cpp:91] Creating Layer pool5/drop_7x7_s1
I0403 15:47:42.315637  3648 net.cpp:425] pool5/drop_7x7_s1 <- pool5/7x7_s1
I0403 15:47:42.315655  3648 net.cpp:386] pool5/drop_7x7_s1 -> pool5/7x7_s1 (in-place)
I0403 15:47:42.315706  3648 net.cpp:141] Setting up pool5/drop_7x7_s1
I0403 15:47:42.315731  3648 net.cpp:148] Top shape: 24 1024 1 1 (24576)
I0403 15:47:42.315744  3648 net.cpp:156] Memory required for data: 1346060832
I0403 15:47:42.315759  3648 layer_factory.hpp:77] Creating layer loss3/classifier_plantvillage
I0403 15:47:42.315780  3648 net.cpp:91] Creating Layer loss3/classifier_plantvillage
I0403 15:47:42.315798  3648 net.cpp:425] loss3/classifier_plantvillage <- pool5/7x7_s1
I0403 15:47:42.315815  3648 net.cpp:399] loss3/classifier_plantvillage -> loss3/classifier_plantvillage
I0403 15:47:42.316241  3648 net.cpp:141] Setting up loss3/classifier_plantvillage
I0403 15:47:42.316265  3648 net.cpp:148] Top shape: 24 38 (912)
I0403 15:47:42.316299  3648 net.cpp:156] Memory required for data: 1346064480
I0403 15:47:42.316319  3648 layer_factory.hpp:77] Creating layer loss3/classifier_plantvillage_loss3/classifier_plantvillage_0_split
I0403 15:47:42.316337  3648 net.cpp:91] Creating Layer loss3/classifier_plantvillage_loss3/classifier_plantvillage_0_split
I0403 15:47:42.316354  3648 net.cpp:425] loss3/classifier_plantvillage_loss3/classifier_plantvillage_0_split <- loss3/classifier_plantvillage
I0403 15:47:42.316376  3648 net.cpp:399] loss3/classifier_plantvillage_loss3/classifier_plantvillage_0_split -> loss3/classifier_plantvillage_loss3/classifier_plantvillage_0_split_0
I0403 15:47:42.316398  3648 net.cpp:399] loss3/classifier_plantvillage_loss3/classifier_plantvillage_0_split -> loss3/classifier_plantvillage_loss3/classifier_plantvillage_0_split_1
I0403 15:47:42.316419  3648 net.cpp:399] loss3/classifier_plantvillage_loss3/classifier_plantvillage_0_split -> loss3/classifier_plantvillage_loss3/classifier_plantvillage_0_split_2
I0403 15:47:42.316439  3648 net.cpp:399] loss3/classifier_plantvillage_loss3/classifier_plantvillage_0_split -> loss3/classifier_plantvillage_loss3/classifier_plantvillage_0_split_3
I0403 15:47:42.316545  3648 net.cpp:141] Setting up loss3/classifier_plantvillage_loss3/classifier_plantvillage_0_split
I0403 15:47:42.316571  3648 net.cpp:148] Top shape: 24 38 (912)
I0403 15:47:42.316588  3648 net.cpp:148] Top shape: 24 38 (912)
I0403 15:47:42.316606  3648 net.cpp:148] Top shape: 24 38 (912)
I0403 15:47:42.316620  3648 net.cpp:148] Top shape: 24 38 (912)
I0403 15:47:42.316635  3648 net.cpp:156] Memory required for data: 1346079072
I0403 15:47:42.316650  3648 layer_factory.hpp:77] Creating layer loss1/loss
I0403 15:47:42.316673  3648 net.cpp:91] Creating Layer loss1/loss
I0403 15:47:42.316691  3648 net.cpp:425] loss1/loss <- loss1/classifier_plantvillage_loss1/classifier_plantvillage_0_split_0
I0403 15:47:42.316722  3648 net.cpp:425] loss1/loss <- label_data_1_split_0
…
