…
I0403 15:45:55.382501  3589 net.cpp:313] The NetState phase (1) differed from the phase (0) specified by a rule in layer data
I0403 15:45:55.383730  3589 net.cpp:49] Initializing net from parameters: 
state {
  phase: TEST
}
layer {
  name: "data"
  type: "Data"
  top: "data"
  top: "label"
  include {
    phase: TEST
  }
  transform_param {
    mirror: false
    crop_size: 224
    mean_file: "/home/mohanty/data/final_dataset/lmdb/grayscale-50-50/mean.binaryproto"
  }
  data_param {
    source: "/home/mohanty/data/final_dataset/lmdb/grayscale-50-50/test_db"
    batch_size: 24
    backend: LMDB
  }
}
layer {
  name: "conv1/7x7_s2"
  type: "Convolution"
  bottom: "data"
  top: "conv1/7x7_s2"
  param {
    lr_mult: 1
    decay_mult: 1
  }
  param {
    lr_mult: 2
    decay_mult: 0
  }
  convolution_param {
    num_output: 64
    pad: 3
    kernel_size: 7
    stride: 2
    weight_filler {
      type: "xavier"
      std: 0.1
    }
    bias_filler {
      type: "constant"
      value: 0.2
    }
  }
}
layer {
  name: "conv1/relu_7x7"
  type: "ReLU"
  bottom: "conv1/7x7_s2"
  top: "conv1/7x7_s2"
}
layer {
  name: "pool1/3x3_s2"
  type: "Pooling"
  bottom: "conv1/7x7_s2"
  top: "pool1/3x3_s2"
  pooling_param {
    pool: MAX
    kernel_size: 3
    stride: 2
  }
}
layer {
  name: "pool1/norm1"
  type: "LRN"
  bottom: "pool1/3x3_s2"
  top: "pool1/norm1"
  lrn_param {
    local_size: 5
    alpha: 0.0001
    beta: 0.75
  }
}
layer {
  name: "conv2/3x3_reduce"
  type: "Convolution"
  bottom: "pool1/norm1"
  top: "conv2/3x3_reduce"
  param {
    lr_mult: 1
    decay_mult: 1
  }
  param {
    lr_mult: 2
    decay_mult: 0
  }
  convolution_param {
    num_output: 64
    kernel_size: 1
    weight_filler {
      type: "xavier"
      std: 0.1
    }
    bias_filler {
      type: "constant"
      value: 0.2
    }
  }
}
layer {
  name: "conv2/relu_3x3_reduce"
  type: "ReLU"
  bottom: "conv2/3x3_reduce"
  top: "conv2/3x3_reduce"
}
layer {
  name: "conv2/3x3"
  type: "Convolution"
  bottom: "conv2/3x3_reduce"
  top: "conv2/3x3"
  param {
    lr_mult: 1
    decay_mult: 1
  }
  param {
    lr_mult: 2
    decay_mult: 0
  }
  convolution_param {
    num_output: 192
    pad: 1
    kernel_size: 3
    weight_filler {
      type: "xavier"
      std: 0.03
    }
    bias_filler {
      type: "constant"
      value: 0.2
    }
  }
}
layer {
  name: "conv2/relu_3x3"
  type: "ReLU"
  bottom: "conv2/3x3"
  top: "conv2/3x3"
}
layer {
  name: "conv2/norm2"
  type: "LRN"
  bottom: "conv2/3x3"
  top: "conv2/norm2"
  lrn_param {
    local_size: 5
    alpha: 0.0001
    beta: 0.75
  }
}
layer {
  name: "pool2/3x3_s2"
  type: "Pooling"
  bottom: "conv2/norm2"
  top: "pool2/3x3_s2"
  pooling_param {
    pool: MAX
    kernel_size: 3
    stride: 2
  }
}
layer {
  name: "inception_3a/1x1"
  type: "Convolution"
  bottom: "pool2/3x3_s2"
  top: "inception_3a/1x1"
  param {
    lr_mult: 1
    decay_mult: 1
  }
  param {
    lr_mult: 2
    decay_mult: 0
  }
  convolution_param {
    num_output: 64
    kernel_size: 1
    weight_filler {
      type: "xavier"
      std: 0.03
    }
    bias_filler {
      type: "constant"
      value: 0.2
    }
  }
}
layer {
  name: "inception_3a/relu_1x1"
  type: "ReLU"
  bottom: "inception_3a/1x1"
  top: "inception_3a/1x1"
}
layer {
  name: "inception_3a/3x3_reduce"
  type: "Convolution"
  bottom: "pool2/3x3_s2"
  top: "inception_3a/3x3_reduce"
  param {
    lr_mult: 1
    decay_mult: 1
  }
  param {
    lr_mult: 2
    decay_mult: 0
  }
  convolution_param {
    num_output: 96
    kernel_size: 1
    weight_filler {
      type: "xavier"
      std: 0.09
    }
    bias_filler {
      type: "constant"
      value: 0.2
    }
  }
}
layer {
  name: "inception_3a/relu_3x3_reduce"
  type: "ReLU"
  bottom: "inception_3a/3x3_reduce"
  top: "inception_3a/3x3_reduce"
}
layer {
  name: "inception_3a/3x3"
  type: "Convolution"
  bottom: "inception_3a/3x3_reduce"
  top: "inception_3a/3x3"
  param {
    lr_mult: 1
    decay_mult: 1
  }
  param {
    lr_mult: 2
    decay_mult: 0
  }
  convolution_param {
    num_output: 128
    pad: 1
    kernel_size: 3
    weight_filler {
      type: "xavier"
      std: 0.03
    }
    bias_filler {
      type: "constant"
      value: 0.2
    }
  }
}
layer {
  name: "inception_3a/relu_3x3"
  type: "ReLU"
  bottom: "inception_3a/3x3"
  top: "inception_3a/3x3"
}
layer {
  name: "inception_3a/5x5_reduce"
  type: "Convolution"
  bottom: "pool2/3x3_s2"
  top: "inception_3a/5x5_reduce"
  param {
    lr_mult: 1
    decay_mult: 1
  }
  param {
    lr_mult: 2
    decay_mult: 0
  }
  convolution_param {
    num_output: 16
    kernel_size: 1
    weight_filler {
      type: "xavier"
      std: 0.2
    }
    bias_filler {
      type: "constant"
      value: 0.2
    }
  }
}
layer {
  name: "inception_3a/relu_5x5_reduce"
  type: "ReLU"
  bottom: "inception_3a/5x5_reduce"
  top: "inception_3a/5x5_reduce"
}
layer {
  name: "inception_3a/5x5"
  type: "Convolution"
  bottom: "inception_3a/5x5_reduce"
  top: "inception_3a/5x5"
  param {
    lr_mult: 1
    decay_mult: 1
  }
  param {
    lr_mult: 2
    decay_mult: 0
  }
  convolution_param {
    num_output: 32
    pad: 2
    kernel_size: 5
    weight_filler {
      type: "xavier"
      std: 0.03
    }
    bias_filler {
      type: "constant"
      value: 0.2
    }
  }
}
layer {
  name: "inception_3a/relu_5x5"
  type: "ReLU"
  bottom: "inception_3a/5x5"
  top: "inception_3a/5x5"
}
layer {
  name: "inception_3a/pool"
  type: "Pooling"
  bottom: "pool2/3x3_s2"
  top: "inception_3a/pool"
  pooling_param {
    pool: MAX
    kernel_size: 3
    stride: 1
    pad: 1
  }
}
layer {
  name: "inception_3a/pool_proj"
  type: "Convolution"
  bottom: "inception_3a/pool"
  top: "inception_3a/pool_proj"
  param {
    lr_mult: 1
    decay_mult: 1
  }
  param {
    lr_mult: 2
    decay_mult: 0
  }
  convolution_param {
    num_output: 32
    kernel_size: 1
    weight_filler {
      type: "xavier"
      std: 0.1
    }
    bias_filler {
      type: "constant"
      value: 0.2
    }
  }
}
layer {
  name: "inception_3a/relu_pool_proj"
  type: "ReLU"
  bottom: "inception_3a/pool_proj"
  top: "inception_3a/pool_proj"
}
layer {
  name: "inception_3a/output"
  type: "Concat"
  bottom: "inception_3a/1x1"
  bottom: "inception_3a/3x3"
  bottom: "inception_3a/5x5"
  bottom: "inception_3a/pool_proj"
  top: "inception_3a/output"
}
layer {
  name: "inception_3b/1x1"
  type: "Convolution"
  bottom: "inception_3a/output"
  top: "inception_3b/1x1"
  param {
    lr_mult: 1
    decay_mult: 1
  }
  param {
    lr_mult: 2
    decay_mult: 0
  }
  convolution_param {
    num_output: 128
    kernel_size: 1
    weight_filler {
      type: "xavier"
      std: 0.03
    }
    bias_filler {
      type: "constant"
      value: 0.2
    }
  }
}
layer {
  name: "inception_3b/relu_1x1"
  type: "ReLU"
  bottom: "inception_3b/1x1"
  top: "inception_3b/1x1"
}
layer {
  name: "inception_3b/3x3_reduce"
  type: "Convolution"
  bottom: "inception_3a/output"
  top: "inception_3b/3x3_reduce"
  param {
    lr_mult: 1
    decay_mult: 1
  }
  param {
    lr_mult: 2
    decay_mult: 0
  }
  convolution_param {
    num_output: 128
    kernel_size: 1
    weight_filler {
      type: "xavier"
      std: 0.09
    }
    bias_filler {
      type: "constant"
      value: 0.2
    }
  }
}
layer {
  name: "inception_3b/relu_3x3_reduce"
  type: "ReLU"
  bottom: "inception_3b/3x3_reduce"
  top: "inception_3b/3x3_reduce"
}
layer {
  name: "inception_3b/3x3"
  type: "Convolution"
  bottom: "inception_3b/3x3_reduce"
  top: "inception_3b/3x3"
  param {
    lr_mult: 1
    decay_mult: 1
  }
  param {
    lr_mult: 2
    decay_mult: 0
  }
  convolution_param {
    num_output: 192
    pad: 1
    kernel_size: 3
    weight_filler {
      type: "xavier"
      std: 0.03
    }
    bias_filler {
      type: "constant"
      value: 0.2
    }
  }
}
layer {
  name: "inception_3b/relu_3x3"
  type: "ReLU"
  bottom: "inception_3b/3x3"
  top: "inception_3b/3x3"
}
layer {
  name: "inception_3b/5x5_reduce"
  type: "Convolution"
  bottom: "inception_3a/output"
  top: "inception_3b/5x5_reduce"
  param {
    lr_mult: 1
    decay_mult: 1
  }
  param {
    lr_mult: 2
    decay_mult: 0
  }
  convolution_param {
    num_output: 32
    kernel_size: 1
    weight_filler {
      type: "xavier"
      std: 0.2
    }
    bias_filler {
      type: "constant"
      value: 0.2
    }
  }
}
layer {
  name: "inception_3b/relu_5x5_reduce"
  type: "ReLU"
  bottom: "inception_3b/5x5_reduce"
  top: "inception_3b/5x5_reduce"
}
layer {
  name: "inception_3b/5x5"
  type: "Convolution"
  bottom: "inception_3b/5x5_reduce"
  top: "inception_3b/5x5"
  param {
    lr_mult: 1
    decay_mult: 1
  }
  param {
    lr_mult: 2
    decay_mult: 0
  }
  convolution_param {
    num_output: 96
    pad: 2
    kernel_size: 5
    weight_filler {
      type: "xavier"
      std: 0.03
    }
    bias_filler {
      type: "constant"
      value: 0.2
    }
  }
}
layer {
  name: "inception_3b/relu_5x5"
  type: "ReLU"
  bottom: "inception_3b/5x5"
  top: "inception_3b/5x5"
}
layer {
  name: "inception_3b/pool"
  type: "Pooling"
  bottom: "inception_3a/output"
  top: "inception_3b/pool"
  pooling_param {
    pool: MAX
    kernel_size: 3
    stride: 1
    pad: 1
  }
}
layer {
  name: "inception_3b/pool_proj"
  type: "Convolution"
  bottom: "inception_3b/pool"
  top: "inception_3b/pool_proj"
  param {
    lr_mult: 1
    decay_mult: 1
  }
  param {
    lr_mult: 2
    decay_mult: 0
  }
  convolution_param {
    num_output: 64
    kernel_size: 1
    weight_filler {
      type: "xavier"
      std: 0.1
    }
    bias_filler {
      type: "constant"
      value: 0.2
    }
  }
}
layer {
  name: "inception_3b/relu_pool_proj"
  type: "ReLU"
  bottom: "inception_3b/pool_proj"
  top: "inception_3b/pool_proj"
}
layer {
  name: "inception_3b/output"
  type: "Concat"
  bottom: "inception_3b/1x1"
  bottom: "inception_3b/3x3"
  bottom: "inception_3b/5x5"
  bottom: "inception_3b/pool_proj"
  top: "inception_3b/output"
}
layer {
  name: "pool3/3x3_s2"
  type: "Pooling"
  bottom: "inception_3b/output"
  top: "pool3/3x3_s2"
  pooling_param {
    pool: MAX
    kernel_size: 3
    stride: 2
  }
}
layer {
  name: "inception_4a/1x1"
  type: "Convolution"
  bottom: "pool3/3x3_s2"
  top: "inception_4a/1x1"
  param {
    lr_mult: 1
    decay_mult: 1
  }
  param {
    lr_mult: 2
    decay_mult: 0
  }
  convolution_param {
    num_output: 192
    kernel_size: 1
    weight_filler {
      type: "xavier"
      std: 0.03
    }
    bias_filler {
      type: "constant"
      value: 0.2
    }
  }
}
layer {
  name: "inception_4a/relu_1x1"
  type: "ReLU"
  bottom: "inception_4a/1x1"
  top: "inception_4a/1x1"
}
layer {
  name: "inception_4a/3x3_reduce"
  type: "Convolution"
  bottom: "pool3/3x3_s2"
  top: "inception_4a/3x3_reduce"
  param {
    lr_mult: 1
    decay_mult: 1
  }
  param {
    lr_mult: 2
    decay_mult: 0
  }
  convolution_param {
    num_output: 96
    kernel_size: 1
    weight_filler {
      type: "xavier"
      std: 0.09
    }
    bias_filler {
      type: "constant"
      value: 0.2
    }
  }
}
layer {
  name: "inception_4a/relu_3x3_reduce"
  type: "ReLU"
  bottom: "inception_4a/3x3_reduce"
  top: "inception_4a/3x3_reduce"
}
layer {
  name: "inception_4a/3x3"
  type: "Convolution"
  bottom: "inception_4a/3x3_reduce"
  top: "inception_4a/3x3"
  param {
    lr_mult: 1
    decay_mult: 1
  }
  param {
    lr_mult: 2
    decay_mult: 0
  }
  convolution_param {
    num_output: 208
    pad: 1
    kernel_size: 3
    weight_filler {
      type: "xavier"
      std: 0.03
    }
    bias_filler {
      type: "constant"
      value: 0.2
    }
  }
}
layer {
  name: "inception_4a/relu_3x3"
  type: "ReLU"
  bottom: "inception_4a/3x3"
  top: "inception_4a/3x3"
}
layer {
  name: "inception_4a/5x5_reduce"
  type: "Convolution"
  bottom: "pool3/3x3_s2"
  top: "inception_4a/5x5_reduce"
  param {
    lr_mult: 1
    decay_mult: 1
  }
  param {
    lr_mult: 2
    decay_mult: 0
  }
  convolution_param {
    num_output: 16
    kernel_size: 1
    weight_filler {
      type: "xavier"
      std: 0.2
    }
    bias_filler {
      type: "constant"
      value: 0.2
    }
  }
}
layer {
  name: "inception_4a/relu_5x5_reduce"
  type: "ReLU"
  bottom: "inception_4a/5x5_reduce"
  top: "inception_4a/5x5_reduce"
}
layer {
  name: "inception_4a/5x5"
  type: "Convolution"
  bottom: "inception_4a/5x5_reduce"
  top: "inception_4a/5x5"
  param {
    lr_mult: 1
    decay_mult: 1
  }
  param {
    lr_mult: 2
    decay_mult: 0
  }
  convolution_param {
    num_output: 48
    pad: 2
    kernel_size: 5
    weight_filler {
      type: "xavier"
      std: 0.03
    }
    bias_filler {
      type: "constant"
      value: 0.2
    }
  }
}
layer {
  name: "inception_4a/relu_5x5"
  type: "ReLU"
  bottom: "inception_4a/5x5"
  top: "inception_4a/5x5"
}
layer {
  name: "inception_4a/pool"
  type: "Pooling"
  bottom: "pool3/3x3_s2"
  top: "inception_4a/pool"
  pooling_param {
    pool: MAX
    kernel_size: 3
    stride: 1
    pad: 1
  }
}
layer {
  name: "inception_4a/pool_proj"
  type: "Convolution"
  bottom: "inception_4a/pool"
  top: "inception_4a/pool_proj"
  param {
    lr_mult: 1
    decay_mult: 1
  }
  param {
    lr_mult: 2
    decay_mult: 0
  }
  convolution_param {
    num_output: 64
    kernel_size: 1
    weight_filler {
      type: "xavier"
      std: 0.1
    }
    bias_filler {
      type: "constant"
      value: 0.2
    }
  }
}
layer {
  name: "inception_4a/relu_pool_proj"
  type: "ReLU"
  bottom: "inception_4a/pool_proj"
  top: "inception_4a/pool_proj"
}
layer {
  name: "inception_4a/output"
  type: "Concat"
  bottom: "inception_4a/1x1"
  bottom: "inception_4a/3x3"
  bottom: "inception_4a/5x5"
  bottom: "inception_4a/pool_proj"
  top: "inception_4a/output"
}
layer {
  name: "loss1/ave_pool"
  type: "Pooling"
  bottom: "inception_4a/output"
  top: "loss1/ave_pool"
  pooling_param {
    pool: AVE
    kernel_size: 5
    stride: 3
  }
}
layer {
  name: "loss1/conv"
  type: "Convolution"
  bottom: "loss1/ave_pool"
  top: "loss1/conv"
  param {
    lr_mult: 1
    decay_mult: 1
  }
  param {
    lr_mult: 2
    decay_mult: 0
  }
  convolution_param {
    num_output: 128
    kernel_size: 1
    weight_filler {
      type: "xavier"
      std: 0.08
    }
    bias_filler {
      type: "constant"
      value: 0.2
    }
  }
}
layer {
  name: "loss1/relu_conv"
  type: "ReLU"
  bottom: "loss1/conv"
  top: "loss1/conv"
}
layer {
  name: "loss1/fc"
  type: "InnerProduct"
  bottom: "loss1/conv"
  top: "loss1/fc"
  param {
    lr_mult: 1
    decay_mult: 1
  }
  param {
    lr_mult: 2
    decay_mult: 0
  }
  inner_product_param {
    num_output: 1024
    weight_filler {
      type: "xavier"
      std: 0.02
    }
    bias_filler {
      type: "constant"
      value: 0.2
    }
  }
}
layer {
  name: "loss1/relu_fc"
  type: "ReLU"
  bottom: "loss1/fc"
  top: "loss1/fc"
}
layer {
  name: "loss1/drop_fc"
  type: "Dropout"
  bottom: "loss1/fc"
  top: "loss1/fc"
  dropout_param {
    dropout_ratio: 0.7
  }
}
layer {
  name: "loss1/classifier_plantvillage"
  type: "InnerProduct"
  bottom: "loss1/fc"
  top: "loss1/classifier_plantvillage"
  param {
    lr_mult: 1
    decay_mult: 1
  }
  param {
    lr_mult: 2
    decay_mult: 0
  }
  inner_product_param {
    num_output: 38
    weight_filler {
      type: "xavier"
      std: 0.0009765625
    }
    bias_filler {
      type: "constant"
      value: 0
    }
  }
}
layer {
  name: "inception_4b/1x1"
  type: "Convolution"
  bottom: "inception_4a/output"
  top: "inception_4b/1x1"
  param {
    lr_mult: 1
    decay_mult: 1
  }
  param {
    lr_mult: 2
    decay_mult: 0
  }
  convolution_param {
    num_output: 160
    kernel_size: 1
    weight_filler {
      type: "xavier"
      std: 0.03
    }
    bias_filler {
      type: "constant"
      value: 0.2
    }
  }
}
layer {
  name: "inception_4b/relu_1x1"
  type: "ReLU"
  bottom: "inception_4b/1x1"
  top: "inception_4b/1x1"
}
layer {
  name: "inception_4b/3x3_reduce"
  type: "Convolution"
  bottom: "inception_4a/output"
  top: "inception_4b/3x3_reduce"
  param {
    lr_mult: 1
    decay_mult: 1
  }
  param {
    lr_mult: 2
    decay_mult: 0
  }
  convolution_param {
    num_output: 112
    kernel_size: 1
    weight_filler {
      type: "xavier"
      std: 0.09
    }
    bias_filler {
      type: "constant"
      value: 0.2
    }
  }
}
layer {
  name: "inception_4b/relu_3x3_reduce"
  type: "ReLU"
  bottom: "inception_4b/3x3_reduce"
  top: "inception_4b/3x3_reduce"
}
layer {
  name: "inception_4b/3x3"
  type: "Convolution"
  bottom: "inception_4b/3x3_reduce"
  top: "inception_4b/3x3"
  param {
    lr_mult: 1
    decay_mult: 1
  }
  param {
    lr_mult: 2
    decay_mult: 0
  }
  convolution_param {
    num_output: 224
    pad: 1
    kernel_size: 3
    weight_filler {
      type: "xavier"
      std: 0.03
    }
    bias_filler {
      type: "constant"
      value: 0.2
    }
  }
}
layer {
  name: "inception_4b/relu_3x3"
  type: "ReLU"
  bottom: "inception_4b/3x3"
  top: "inception_4b/3x3"
}
layer {
  name: "inception_4b/5x5_reduce"
  type: "Convolution"
  bottom: "inception_4a/output"
  top: "inception_4b/5x5_reduce"
  param {
    lr_mult: 1
    decay_mult: 1
  }
  param {
    lr_mult: 2
    decay_mult: 0
  }
  convolution_param {
    num_output: 24
    kernel_size: 1
    weight_filler {
      type: "xavier"
      std: 0.2
    }
    bias_filler {
      type: "constant"
      value: 0.2
    }
  }
}
layer {
  name: "inception_4b/relu_5x5_reduce"
  type: "ReLU"
  bottom: "inception_4b/5x5_reduce"
  top: "inception_4b/5x5_reduce"
}
layer {
  name: "inception_4b/5x5"
  type: "Convolution"
  bottom: "inception_4b/5x5_reduce"
  top: "inception_4b/5x5"
  param {
    lr_mult: 1
    decay_mult: 1
  }
  param {
    lr_mult: 2
    decay_mult: 0
  }
  convolution_param {
    num_output: 64
    pad: 2
    kernel_size: 5
    weight_filler {
      type: "xavier"
      std: 0.03
    }
    bias_filler {
      type: "constant"
      value: 0.2
    }
  }
}
layer {
  name: "inception_4b/relu_5x5"
  type: "ReLU"
  bottom: "inception_4b/5x5"
  top: "inception_4b/5x5"
}
layer {
  name: "inception_4b/pool"
  type: "Pooling"
  bottom: "inception_4a/output"
  top: "inception_4b/pool"
  pooling_param {
    pool: MAX
    kernel_size: 3
    stride: 1
    pad: 1
  }
}
layer {
  name: "inception_4b/pool_proj"
  type: "Convolution"
  bottom: "inception_4b/pool"
  top: "inception_4b/pool_proj"
  param {
    lr_mult: 1
    decay_mult: 1
  }
  param {
    lr_mult: 2
    decay_mult: 0
  }
  convolution_param {
    num_output: 64
    kernel_size: 1
    weight_filler {
      type: "xavier"
      std: 0.1
    }
    bias_filler {
      type: "constant"
      value: 0.2
    }
  }
}
layer {
  name: "inception_4b/relu_pool_proj"
  type: "ReLU"
  bottom: "inception_4b/pool_proj"
  top: "inception_4b/pool_proj"
}
layer {
  name: "inception_4b/output"
  type: "Concat"
  bottom: "inception_4b/1x1"
  bottom: "inception_4b/3x3"
  bottom: "inception_4b/5x5"
  bottom: "inception_4b/pool_proj"
  top: "inception_4b/output"
}
layer {
  name: "inception_4c/1x1"
  type: "Convolution"
  bottom: "inception_4b/output"
  top: "inception_4c/1x1"
  param {
    lr_mult: 1
    decay_mult: 1
  }
  param {
    lr_mult: 2
    decay_mult: 0
  }
  convolution_param {
    num_output: 128
    kernel_size: 1
    weight_filler {
      type: "xavier"
      std: 0.03
    }
    bias_filler {
      type: "constant"
      value: 0.2
    }
  }
}
layer {
  name: "inception_4c/relu_1x1"
  type: "ReLU"
  bottom: "inception_4c/1x1"
  top: "inception_4c/1x1"
}
layer {
  name: "inception_4c/3x3_reduce"
  type: "Convolution"
  bottom: "inception_4b/output"
  top: "inception_4c/3x3_reduce"
  param {
    lr_mult: 1
    decay_mult: 1
  }
  param {
    lr_mult: 2
    decay_mult: 0
  }
  convolution_param {
    num_output: 128
    kernel_size: 1
    weight_filler {
      type: "xavier"
      std: 0.09
    }
    bias_filler {
      type: "constant"
      value: 0.2
    }
  }
}
layer {
  name: "inception_4c/relu_3x3_reduce"
  type: "ReLU"
  bottom: "inception_4c/3x3_reduce"
  top: "inception_4c/3x3_reduce"
}
layer {
  name: "inception_4c/3x3"
  type: "Convolution"
  bottom: "inception_4c/3x3_reduce"
  top: "inception_4c/3x3"
  param {
    lr_mult: 1
    decay_mult: 1
  }
  param {
    lr_mult: 2
    decay_mult: 0
  }
  convolution_param {
    num_output: 256
    pad: 1
    kernel_size: 3
    weight_filler {
      type: "xavier"
      std: 0.03
    }
    bias_filler {
      type: "constant"
      value: 0.2
    }
  }
}
layer {
  name: "inception_4c/relu_3x3"
  type: "ReLU"
  bottom: "inception_4c/3x3"
  top: "inception_4c/3x3"
}
layer {
  name: "inception_4c/5x5_reduce"
  type: "Convolution"
  bottom: "inception_4b/output"
  top: "inception_4c/5x5_reduce"
  param {
    lr_mult: 1
    decay_mult: 1
  }
  param {
    lr_mult: 2
    decay_mult: 0
  }
  convolution_param {
    num_output: 24
    kernel_size: 1
    weight_filler {
      type: "xavier"
      std: 0.2
    }
    bias_filler {
      type: "constant"
      value: 0.2
    }
  }
}
layer {
  name: "inception_4c/relu_5x5_reduce"
  type: "ReLU"
  bottom: "inception_4c/5x5_reduce"
  top: "inception_4c/5x5_reduce"
}
layer {
  name: "inception_4c/5x5"
  type: "Convolution"
  bottom: "inception_4c/5x5_reduce"
  top: "inception_4c/5x5"
  param {
    lr_mult: 1
    decay_mult: 1
  }
  param {
    lr_mult: 2
    decay_mult: 0
  }
  convolution_param {
    num_output: 64
    pad: 2
    kernel_size: 5
    weight_filler {
      type: "xavier"
      std: 0.03
    }
    bias_filler {
      type: "constant"
      value: 0.2
    }
  }
}
layer {
  name: "inception_4c/relu_5x5"
  type: "ReLU"
  bottom: "inception_4c/5x5"
  top: "inception_4c/5x5"
}
layer {
  name: "inception_4c/pool"
  type: "Pooling"
  bottom: "inception_4b/output"
  top: "inception_4c/pool"
  pooling_param {
    pool: MAX
    kernel_size: 3
    stride: 1
    pad: 1
  }
}
layer {
  name: "inception_4c/pool_proj"
  type: "Convolution"
  bottom: "inception_4c/pool"
  top: "inception_4c/pool_proj"
  param {
    lr_mult: 1
    decay_mult: 1
  }
  param {
    lr_mult: 2
    decay_mult: 0
  }
  convolution_param {
    num_output: 64
    kernel_size: 1
    weight_filler {
      type: "xavier"
      std: 0.1
    }
    bias_filler {
      type: "constant"
      value: 0.2
    }
  }
}
layer {
  name: "inception_4c/relu_pool_proj"
  type: "ReLU"
  bottom: "inception_4c/pool_proj"
  top: "inception_4c/pool_proj"
}
layer {
  name: "inception_4c/output"
  type: "Concat"
  bottom: "inception_4c/1x1"
  bottom: "inception_4c/3x3"
  bottom: "inception_4c/5x5"
  bottom: "inception_4c/pool_proj"
  top: "inception_4c/output"
}
layer {
  name: "inception_4d/1x1"
  type: "Convolution"
  bottom: "inception_4c/output"
  top: "inception_4d/1x1"
  param {
    lr_mult: 1
    decay_mult: 1
  }
  param {
    lr_mult: 2
    decay_mult: 0
  }
  convolution_param {
    num_output: 112
    kernel_size: 1
    weight_filler {
      type: "xavier"
      std: 0.03
    }
    bias_filler {
      type: "constant"
      value: 0.2
    }
  }
}
layer {
  name: "inception_4d/relu_1x1"
  type: "ReLU"
  bottom: "inception_4d/1x1"
  top: "inception_4d/1x1"
}
layer {
  name: "inception_4d/3x3_reduce"
  type: "Convolution"
  bottom: "inception_4c/output"
  top: "inception_4d/3x3_reduce"
  param {
    lr_mult: 1
    decay_mult: 1
  }
  param {
    lr_mult: 2
    decay_mult: 0
  }
  convolution_param {
    num_output: 144
    kernel_size: 1
    weight_filler {
      type: "xavier"
      std: 0.09
    }
    bias_filler {
      type: "constant"
      value: 0.2
    }
  }
}
layer {
  name: "inception_4d/relu_3x3_reduce"
  type: "ReLU"
  bottom: "inception_4d/3x3_reduce"
  top: "inception_4d/3x3_reduce"
}
layer {
  name: "inception_4d/3x3"
  type: "Convolution"
  bottom: "inception_4d/3x3_reduce"
  top: "inception_4d/3x3"
  param {
    lr_mult: 1
    decay_mult: 1
  }
  param {
    lr_mult: 2
    decay_mult: 0
  }
  convolution_param {
    num_output: 288
    pad: 1
    kernel_size: 3
    weight_filler {
      type: "xavier"
      std: 0.03
    }
    bias_filler {
      type: "constant"
      value: 0.2
    }
  }
}
layer {
  name: "inception_4d/relu_3x3"
  type: "ReLU"
  bottom: "inception_4d/3x3"
  top: "inception_4d/3x3"
}
layer {
  name: "inception_4d/5x5_reduce"
  type: "Convolution"
  bottom: "inception_4c/output"
  top: "inception_4d/5x5_reduce"
  param {
    lr_mult: 1
    decay_mult: 1
  }
  param {
    lr_mult: 2
    decay_mult: 0
  }
  convolution_param {
    num_output: 32
    kernel_size: 1
    weight_filler {
      type: "xavier"
      std: 0.2
    }
    bias_filler {
      type: "constant"
      value: 0.2
    }
  }
}
layer {
  name: "inception_4d/relu_5x5_reduce"
  type: "ReLU"
  bottom: "inception_4d/5x5_reduce"
  top: "inception_4d/5x5_reduce"
}
layer {
  name: "inception_4d/5x5"
  type: "Convolution"
  bottom: "inception_4d/5x5_reduce"
  top: "inception_4d/5x5"
  param {
    lr_mult: 1
    decay_mult: 1
  }
  param {
    lr_mult: 2
    decay_mult: 0
  }
  convolution_param {
    num_output: 64
    pad: 2
    kernel_size: 5
    weight_filler {
      type: "xavier"
      std: 0.03
    }
    bias_filler {
      type: "constant"
      value: 0.2
    }
  }
}
layer {
  name: "inception_4d/relu_5x5"
  type: "ReLU"
  bottom: "inception_4d/5x5"
  top: "inception_4d/5x5"
}
layer {
  name: "inception_4d/pool"
  type: "Pooling"
  bottom: "inception_4c/output"
  top: "inception_4d/pool"
  pooling_param {
    pool: MAX
    kernel_size: 3
    stride: 1
    pad: 1
  }
}
layer {
  name: "inception_4d/pool_proj"
  type: "Convolution"
  bottom: "inception_4d/pool"
  top: "inception_4d/pool_proj"
  param {
    lr_mult: 1
    decay_mult: 1
  }
  param {
    lr_mult: 2
    decay_mult: 0
  }
  convolution_param {
    num_output: 64
    kernel_size: 1
    weight_filler {
      type: "xavier"
      std: 0.1
    }
    bias_filler {
      type: "constant"
      value: 0.2
    }
  }
}
layer {
  name: "inception_4d/relu_pool_proj"
  type: "ReLU"
  bottom: "inception_4d/pool_proj"
  top: "inception_4d/pool_proj"
}
layer {
  name: "inception_4d/output"
  type: "Concat"
  bottom: "inception_4d/1x1"
  bottom: "inception_4d/3x3"
  bottom: "inception_4d/5x5"
  bottom: "inception_4d/pool_proj"
  top: "inception_4d/output"
}
layer {
  name: "loss2/ave_pool"
  type: "Pooling"
  bottom: "inception_4d/output"
  top: "loss2/ave_pool"
  pooling_param {
    pool: AVE
    kernel_size: 5
    stride: 3
  }
}
layer {
  name: "loss2/conv"
  type: "Convolution"
  bottom: "loss2/ave_pool"
  top: "loss2/conv"
  param {
    lr_mult: 1
    decay_mult: 1
  }
  param {
    lr_mult: 2
    decay_mult: 0
  }
  convolution_param {
    num_output: 128
    kernel_size: 1
    weight_filler {
      type: "xavier"
      std: 0.08
    }
    bias_filler {
      type: "constant"
      value: 0.2
    }
  }
}
layer {
  name: "loss2/relu_conv"
  type: "ReLU"
  bottom: "loss2/conv"
  top: "loss2/conv"
}
layer {
  name: "loss2/fc"
  type: "InnerProduct"
  bottom: "loss2/conv"
  top: "loss2/fc"
  param {
    lr_mult: 1
    decay_mult: 1
  }
  param {
    lr_mult: 2
    decay_mult: 0
  }
  inner_product_param {
    num_output: 1024
    weight_filler {
      type: "xavier"
      std: 0.02
    }
    bias_filler {
      type: "constant"
      value: 0.2
    }
  }
}
layer {
  name: "loss2/relu_fc"
  type: "ReLU"
  bottom: "loss2/fc"
  top: "loss2/fc"
}
layer {
  name: "loss2/drop_fc"
  type: "Dropout"
  bottom: "loss2/fc"
  top: "loss2/fc"
  dropout_param {
    dropout_ratio: 0.7
  }
}
layer {
  name: "loss2/classifier_plantvillage"
  type: "InnerProduct"
  bottom: "loss2/fc"
  top: "loss2/classifier_plantvillage"
  param {
    lr_mult: 1
    decay_mult: 1
  }
  param {
    lr_mult: 2
    decay_mult: 0
  }
  inner_product_param {
    num_output: 38
    weight_filler {
      type: "xavier"
      std: 0.0009765625
    }
    bias_filler {
      type: "constant"
      value: 0
    }
  }
}
layer {
  name: "inception_4e/1x1"
  type: "Convolution"
  bottom: "inception_4d/output"
  top: "inception_4e/1x1"
  param {
    lr_mult: 1
    decay_mult: 1
  }
  param {
    lr_mult: 2
    decay_mult: 0
  }
  convolution_param {
    num_output: 256
    kernel_size: 1
    weight_filler {
      type: "xavier"
      std: 0.03
    }
    bias_filler {
      type: "constant"
      value: 0.2
    }
  }
}
layer {
  name: "inception_4e/relu_1x1"
  type: "ReLU"
  bottom: "inception_4e/1x1"
  top: "inception_4e/1x1"
}
layer {
  name: "inception_4e/3x3_reduce"
  type: "Convolution"
  bottom: "inception_4d/output"
  top: "inception_4e/3x3_reduce"
  param {
    lr_mult: 1
    decay_mult: 1
  }
  param {
    lr_mult: 2
    decay_mult: 0
  }
  convolution_param {
    num_output: 160
    kernel_size: 1
    weight_filler {
      type: "xavier"
      std: 0.09
    }
    bias_filler {
      type: "constant"
      value: 0.2
    }
  }
}
layer {
  name: "inception_4e/relu_3x3_reduce"
  type: "ReLU"
  bottom: "inception_4e/3x3_reduce"
  top: "inception_4e/3x3_reduce"
}
layer {
  name: "inception_4e/3x3"
  type: "Convolution"
  bottom: "inception_4e/3x3_reduce"
  top: "inception_4e/3x3"
  param {
    lr_mult: 1
    decay_mult: 1
  }
  param {
    lr_mult: 2
    decay_mult: 0
  }
  convolution_param {
    num_output: 320
    pad: 1
    kernel_size: 3
    weight_filler {
      type: "xavier"
      std: 0.03
    }
    bias_filler {
      type: "constant"
      value: 0.2
    }
  }
}
layer {
  name: "inception_4e/relu_3x3"
  type: "ReLU"
  bottom: "inception_4e/3x3"
  top: "inception_4e/3x3"
}
layer {
  name: "inception_4e/5x5_reduce"
  type: "Convolution"
  bottom: "inception_4d/output"
  top: "inception_4e/5x5_reduce"
  param {
    lr_mult: 1
    decay_mult: 1
  }
  param {
    lr_mult: 2
    decay_mult: 0
  }
  convolution_param {
    num_output: 32
    kernel_size: 1
    weight_filler {
      type: "xavier"
      std: 0.2
    }
    bias_filler {
      type: "constant"
      value: 0.2
    }
  }
}
layer {
  name: "inception_4e/relu_5x5_reduce"
  type: "ReLU"
  bottom: "inception_4e/5x5_reduce"
  top: "inception_4e/5x5_reduce"
}
layer {
  name: "inception_4e/5x5"
  type: "Convolution"
  bottom: "inception_4e/5x5_reduce"
  top: "inception_4e/
I0403 15:45:55.385035  3589 layer_factory.hpp:77] Creating layer data
I0403 15:45:55.385664  3589 net.cpp:91] Creating Layer data
I0403 15:45:55.385701  3589 net.cpp:399] data -> data
I0403 15:45:55.385757  3589 net.cpp:399] data -> label
I0403 15:45:55.385802  3589 data_transformer.cpp:25] Loading mean file from: /home/mohanty/data/final_dataset/lmdb/grayscale-50-50/mean.binaryproto
I0403 15:45:55.403326  3614 db_lmdb.cpp:38] Opened lmdb /home/mohanty/data/final_dataset/lmdb/grayscale-50-50/test_db
I0403 15:45:55.415307  3589 data_layer.cpp:41] output data size: 24,3,224,224
I0403 15:45:55.444691  3589 net.cpp:141] Setting up data
I0403 15:45:55.444782  3589 net.cpp:148] Top shape: 24 3 224 224 (3612672)
I0403 15:45:55.444810  3589 net.cpp:148] Top shape: 24 (24)
I0403 15:45:55.444828  3589 net.cpp:156] Memory required for data: 14450784
I0403 15:45:55.444855  3589 layer_factory.hpp:77] Creating layer label_data_1_split
I0403 15:45:55.444883  3589 net.cpp:91] Creating Layer label_data_1_split
I0403 15:45:55.444901  3589 net.cpp:425] label_data_1_split <- label
I0403 15:45:55.444934  3589 net.cpp:399] label_data_1_split -> label_data_1_split_0
I0403 15:45:55.444963  3589 net.cpp:399] label_data_1_split -> label_data_1_split_1
I0403 15:45:55.444985  3589 net.cpp:399] label_data_1_split -> label_data_1_split_2
I0403 15:45:55.445009  3589 net.cpp:399] label_data_1_split -> label_data_1_split_3
I0403 15:45:55.445030  3589 net.cpp:399] label_data_1_split -> label_data_1_split_4
I0403 15:45:55.445051  3589 net.cpp:399] label_data_1_split -> label_data_1_split_5
I0403 15:45:55.445071  3589 net.cpp:399] label_data_1_split -> label_data_1_split_6
I0403 15:45:55.445093  3589 net.cpp:399] label_data_1_split -> label_data_1_split_7
I0403 15:45:55.445117  3589 net.cpp:399] label_data_1_split -> label_data_1_split_8
I0403 15:45:55.445142  3589 net.cpp:399] label_data_1_split -> label_data_1_split_9
I0403 15:45:55.445267  3589 net.cpp:141] Setting up label_data_1_split
I0403 15:45:55.445297  3589 net.cpp:148] Top shape: 24 (24)
I0403 15:45:55.445315  3589 net.cpp:148] Top shape: 24 (24)
I0403 15:45:55.445333  3589 net.cpp:148] Top shape: 24 (24)
I0403 15:45:55.445350  3589 net.cpp:148] Top shape: 24 (24)
I0403 15:45:55.445369  3589 net.cpp:148] Top shape: 24 (24)
I0403 15:45:55.445384  3589 net.cpp:148] Top shape: 24 (24)
I0403 15:45:55.445402  3589 net.cpp:148] Top shape: 24 (24)
I0403 15:45:55.445420  3589 net.cpp:148] Top shape: 24 (24)
I0403 15:45:55.445436  3589 net.cpp:148] Top shape: 24 (24)
I0403 15:45:55.445456  3589 net.cpp:148] Top shape: 24 (24)
I0403 15:45:55.445503  3589 net.cpp:156] Memory required for data: 14451744
I0403 15:45:55.445521  3589 layer_factory.hpp:77] Creating layer conv1/7x7_s2
I0403 15:45:55.445554  3589 net.cpp:91] Creating Layer conv1/7x7_s2
I0403 15:45:55.445574  3589 net.cpp:425] conv1/7x7_s2 <- data
I0403 15:45:55.445597  3589 net.cpp:399] conv1/7x7_s2 -> conv1/7x7_s2
I0403 15:45:56.088866  3589 net.cpp:141] Setting up conv1/7x7_s2
I0403 15:45:56.088942  3589 net.cpp:148] Top shape: 24 64 112 112 (19267584)
I0403 15:45:56.088960  3589 net.cpp:156] Memory required for data: 91522080
I0403 15:45:56.088996  3589 layer_factory.hpp:77] Creating layer conv1/relu_7x7
I0403 15:45:56.089025  3589 net.cpp:91] Creating Layer conv1/relu_7x7
I0403 15:45:56.089046  3589 net.cpp:425] conv1/relu_7x7 <- conv1/7x7_s2
I0403 15:45:56.089066  3589 net.cpp:386] conv1/relu_7x7 -> conv1/7x7_s2 (in-place)
I0403 15:45:56.089349  3589 net.cpp:141] Setting up conv1/relu_7x7
I0403 15:45:56.089380  3589 net.cpp:148] Top shape: 24 64 112 112 (19267584)
I0403 15:45:56.089400  3589 net.cpp:156] Memory required for data: 168592416
I0403 15:45:56.089416  3589 layer_factory.hpp:77] Creating layer pool1/3x3_s2
I0403 15:45:56.089442  3589 net.cpp:91] Creating Layer pool1/3x3_s2
I0403 15:45:56.089462  3589 net.cpp:425] pool1/3x3_s2 <- conv1/7x7_s2
I0403 15:45:56.089480  3589 net.cpp:399] pool1/3x3_s2 -> pool1/3x3_s2
I0403 15:45:56.089561  3589 net.cpp:141] Setting up pool1/3x3_s2
I0403 15:45:56.089587  3589 net.cpp:148] Top shape: 24 64 56 56 (4816896)
I0403 15:45:56.089603  3589 net.cpp:156] Memory required for data: 187860000
I0403 15:45:56.089619  3589 layer_factory.hpp:77] Creating layer pool1/norm1
I0403 15:45:56.089646  3589 net.cpp:91] Creating Layer pool1/norm1
I0403 15:45:56.089665  3589 net.cpp:425] pool1/norm1 <- pool1/3x3_s2
I0403 15:45:56.089684  3589 net.cpp:399] pool1/norm1 -> pool1/norm1
I0403 15:45:56.089997  3589 net.cpp:141] Setting up pool1/norm1
I0403 15:45:56.090025  3589 net.cpp:148] Top shape: 24 64 56 56 (4816896)
I0403 15:45:56.090042  3589 net.cpp:156] Memory required for data: 207127584
I0403 15:45:56.090059  3589 layer_factory.hpp:77] Creating layer conv2/3x3_reduce
I0403 15:45:56.090087  3589 net.cpp:91] Creating Layer conv2/3x3_reduce
I0403 15:45:56.090106  3589 net.cpp:425] conv2/3x3_reduce <- pool1/norm1
I0403 15:45:56.090126  3589 net.cpp:399] conv2/3x3_reduce -> conv2/3x3_reduce
I0403 15:45:56.091496  3589 net.cpp:141] Setting up conv2/3x3_reduce
I0403 15:45:56.091528  3589 net.cpp:148] Top shape: 24 64 56 56 (4816896)
I0403 15:45:56.091545  3589 net.cpp:156] Memory required for data: 226395168
I0403 15:45:56.091568  3589 layer_factory.hpp:77] Creating layer conv2/relu_3x3_reduce
I0403 15:45:56.091591  3589 net.cpp:91] Creating Layer conv2/relu_3x3_reduce
I0403 15:45:56.091609  3589 net.cpp:425] conv2/relu_3x3_reduce <- conv2/3x3_reduce
I0403 15:45:56.091629  3589 net.cpp:386] conv2/relu_3x3_reduce -> conv2/3x3_reduce (in-place)
I0403 15:45:56.091904  3589 net.cpp:141] Setting up conv2/relu_3x3_reduce
I0403 15:45:56.091933  3589 net.cpp:148] Top shape: 24 64 56 56 (4816896)
I0403 15:45:56.091948  3589 net.cpp:156] Memory required for data: 245662752
I0403 15:45:56.091965  3589 layer_factory.hpp:77] Creating layer conv2/3x3
I0403 15:45:56.091990  3589 net.cpp:91] Creating Layer conv2/3x3
I0403 15:45:56.092010  3589 net.cpp:425] conv2/3x3 <- conv2/3x3_reduce
I0403 15:45:56.092032  3589 net.cpp:399] conv2/3x3 -> conv2/3x3
I0403 15:45:56.094460  3589 net.cpp:141] Setting up conv2/3x3
I0403 15:45:56.094492  3589 net.cpp:148] Top shape: 24 192 56 56 (14450688)
I0403 15:45:56.094511  3589 net.cpp:156] Memory required for data: 303465504
I0403 15:45:56.094533  3589 layer_factory.hpp:77] Creating layer conv2/relu_3x3
I0403 15:45:56.094557  3589 net.cpp:91] Creating Layer conv2/relu_3x3
I0403 15:45:56.094574  3589 net.cpp:425] conv2/relu_3x3 <- conv2/3x3
I0403 15:45:56.094594  3589 net.cpp:386] conv2/relu_3x3 -> conv2/3x3 (in-place)
I0403 15:45:56.094775  3589 net.cpp:141] Setting up conv2/relu_3x3
I0403 15:45:56.094802  3589 net.cpp:148] Top shape: 24 192 56 56 (14450688)
I0403 15:45:56.094849  3589 net.cpp:156] Memory required for data: 361268256
I0403 15:45:56.094867  3589 layer_factory.hpp:77] Creating layer conv2/norm2
I0403 15:45:56.094889  3589 net.cpp:91] Creating Layer conv2/norm2
I0403 15:45:56.094907  3589 net.cpp:425] conv2/norm2 <- conv2/3x3
I0403 15:45:56.094928  3589 net.cpp:399] conv2/norm2 -> conv2/norm2
I0403 15:45:56.095248  3589 net.cpp:141] Setting up conv2/norm2
I0403 15:45:56.095279  3589 net.cpp:148] Top shape: 24 192 56 56 (14450688)
I0403 15:45:56.095298  3589 net.cpp:156] Memory required for data: 419071008
I0403 15:45:56.095314  3589 layer_factory.hpp:77] Creating layer pool2/3x3_s2
I0403 15:45:56.095334  3589 net.cpp:91] Creating Layer pool2/3x3_s2
I0403 15:45:56.095350  3589 net.cpp:425] pool2/3x3_s2 <- conv2/norm2
I0403 15:45:56.095371  3589 net.cpp:399] pool2/3x3_s2 -> pool2/3x3_s2
I0403 15:45:56.095427  3589 net.cpp:141] Setting up pool2/3x3_s2
I0403 15:45:56.095454  3589 net.cpp:148] Top shape: 24 192 28 28 (3612672)
I0403 15:45:56.095471  3589 net.cpp:156] Memory required for data: 433521696
I0403 15:45:56.095487  3589 layer_factory.hpp:77] Creating layer pool2/3x3_s2_pool2/3x3_s2_0_split
I0403 15:45:56.095507  3589 net.cpp:91] Creating Layer pool2/3x3_s2_pool2/3x3_s2_0_split
I0403 15:45:56.095523  3589 net.cpp:425] pool2/3x3_s2_pool2/3x3_s2_0_split <- pool2/3x3_s2
I0403 15:45:56.095541  3589 net.cpp:399] pool2/3x3_s2_pool2/3x3_s2_0_split -> pool2/3x3_s2_pool2/3x3_s2_0_split_0
I0403 15:45:56.095562  3589 net.cpp:399] pool2/3x3_s2_pool2/3x3_s2_0_split -> pool2/3x3_s2_pool2/3x3_s2_0_split_1
I0403 15:45:56.095587  3589 net.cpp:399] pool2/3x3_s2_pool2/3x3_s2_0_split -> pool2/3x3_s2_pool2/3x3_s2_0_split_2
I0403 15:45:56.095609  3589 net.cpp:399] pool2/3x3_s2_pool2/3x3_s2_0_split -> pool2/3x3_s2_pool2/3x3_s2_0_split_3
I0403 15:45:56.095684  3589 net.cpp:141] Setting up pool2/3x3_s2_pool2/3x3_s2_0_split
I0403 15:45:56.095708  3589 net.cpp:148] Top shape: 24 192 28 28 (3612672)
I0403 15:45:56.095726  3589 net.cpp:148] Top shape: 24 192 28 28 (3612672)
I0403 15:45:56.095743  3589 net.cpp:148] Top shape: 24 192 28 28 (3612672)
I0403 15:45:56.095760  3589 net.cpp:148] Top shape: 24 192 28 28 (3612672)
I0403 15:45:56.095777  3589 net.cpp:156] Memory required for data: 491324448
I0403 15:45:56.095793  3589 layer_factory.hpp:77] Creating layer inception_3a/1x1
I0403 15:45:56.095820  3589 net.cpp:91] Creating Layer inception_3a/1x1
I0403 15:45:56.095839  3589 net.cpp:425] inception_3a/1x1 <- pool2/3x3_s2_pool2/3x3_s2_0_split_0
I0403 15:45:56.095861  3589 net.cpp:399] inception_3a/1x1 -> inception_3a/1x1
I0403 15:45:56.097473  3589 net.cpp:141] Setting up inception_3a/1x1
I0403 15:45:56.097506  3589 net.cpp:148] Top shape: 24 64 28 28 (1204224)
I0403 15:45:56.097522  3589 net.cpp:156] Memory required for data: 496141344
I0403 15:45:56.097543  3589 layer_factory.hpp:77] Creating layer inception_3a/relu_1x1
I0403 15:45:56.140219  3589 net.cpp:91] Creating Layer inception_3a/relu_1x1
I0403 15:45:56.140262  3589 net.cpp:425] inception_3a/relu_1x1 <- inception_3a/1x1
I0403 15:45:56.140288  3589 net.cpp:386] inception_3a/relu_1x1 -> inception_3a/1x1 (in-place)
I0403 15:45:56.140480  3589 net.cpp:141] Setting up inception_3a/relu_1x1
I0403 15:45:56.140509  3589 net.cpp:148] Top shape: 24 64 28 28 (1204224)
I0403 15:45:56.140528  3589 net.cpp:156] Memory required for data: 500958240
I0403 15:45:56.140545  3589 layer_factory.hpp:77] Creating layer inception_3a/3x3_reduce
I0403 15:45:56.140570  3589 net.cpp:91] Creating Layer inception_3a/3x3_reduce
I0403 15:45:56.140589  3589 net.cpp:425] inception_3a/3x3_reduce <- pool2/3x3_s2_pool2/3x3_s2_0_split_1
I0403 15:45:56.140611  3589 net.cpp:399] inception_3a/3x3_reduce -> inception_3a/3x3_reduce
I0403 15:45:56.142464  3589 net.cpp:141] Setting up inception_3a/3x3_reduce
I0403 15:45:56.142499  3589 net.cpp:148] Top shape: 24 96 28 28 (1806336)
I0403 15:45:56.142521  3589 net.cpp:156] Memory required for data: 508183584
I0403 15:45:56.142545  3589 layer_factory.hpp:77] Creating layer inception_3a/relu_3x3_reduce
I0403 15:45:56.142592  3589 net.cpp:91] Creating Layer inception_3a/relu_3x3_reduce
I0403 15:45:56.142611  3589 net.cpp:425] inception_3a/relu_3x3_reduce <- inception_3a/3x3_reduce
I0403 15:45:56.142630  3589 net.cpp:386] inception_3a/relu_3x3_reduce -> inception_3a/3x3_reduce (in-place)
I0403 15:45:56.142820  3589 net.cpp:141] Setting up inception_3a/relu_3x3_reduce
I0403 15:45:56.142849  3589 net.cpp:148] Top shape: 24 96 28 28 (1806336)
I0403 15:45:56.142866  3589 net.cpp:156] Memory required for data: 515408928
I0403 15:45:56.142884  3589 layer_factory.hpp:77] Creating layer inception_3a/3x3
I0403 15:45:56.142909  3589 net.cpp:91] Creating Layer inception_3a/3x3
I0403 15:45:56.142927  3589 net.cpp:425] inception_3a/3x3 <- inception_3a/3x3_reduce
I0403 15:45:56.142951  3589 net.cpp:399] inception_3a/3x3 -> inception_3a/3x3
I0403 15:45:56.144709  3589 net.cpp:141] Setting up inception_3a/3x3
I0403 15:45:56.144745  3589 net.cpp:148] Top shape: 24 128 28 28 (2408448)
I0403 15:45:56.144767  3589 net.cpp:156] Memory required for data: 525042720
I0403 15:45:56.144791  3589 layer_factory.hpp:77] Creating layer inception_3a/relu_3x3
I0403 15:45:56.144814  3589 net.cpp:91] Creating Layer inception_3a/relu_3x3
I0403 15:45:56.144834  3589 net.cpp:425] inception_3a/relu_3x3 <- inception_3a/3x3
I0403 15:45:56.144852  3589 net.cpp:386] inception_3a/relu_3x3 -> inception_3a/3x3 (in-place)
I0403 15:45:56.145133  3589 net.cpp:141] Setting up inception_3a/relu_3x3
I0403 15:45:56.145164  3589 net.cpp:148] Top shape: 24 128 28 28 (2408448)
I0403 15:45:56.145181  3589 net.cpp:156] Memory required for data: 534676512
I0403 15:45:56.145197  3589 layer_factory.hpp:77] Creating layer inception_3a/5x5_reduce
I0403 15:45:56.145221  3589 net.cpp:91] Creating Layer inception_3a/5x5_reduce
I0403 15:45:56.145244  3589 net.cpp:425] inception_3a/5x5_reduce <- pool2/3x3_s2_pool2/3x3_s2_0_split_2
I0403 15:45:56.145270  3589 net.cpp:399] inception_3a/5x5_reduce -> inception_3a/5x5_reduce
I0403 15:45:56.146281  3589 net.cpp:141] Setting up inception_3a/5x5_reduce
I0403 15:45:56.146320  3589 net.cpp:148] Top shape: 24 16 28 28 (301056)
I0403 15:45:56.146338  3589 net.cpp:156] Memory required for data: 535880736
I0403 15:45:56.146364  3589 layer_factory.hpp:77] Creating layer inception_3a/relu_5x5_reduce
I0403 15:45:56.146387  3589 net.cpp:91] Creating Layer inception_3a/relu_5x5_reduce
I0403 15:45:56.146405  3589 net.cpp:425] inception_3a/relu_5x5_reduce <- inception_3a/5x5_reduce
I0403 15:45:56.146425  3589 net.cpp:386] inception_3a/relu_5x5_reduce -> inception_3a/5x5_reduce (in-place)
I0403 15:45:56.146728  3589 net.cpp:141] Setting up inception_3a/relu_5x5_reduce
I0403 15:45:56.146756  3589 net.cpp:148] Top shape: 24 16 28 28 (301056)
I0403 15:45:56.146772  3589 net.cpp:156] Memory required for data: 537084960
I0403 15:45:56.146788  3589 layer_factory.hpp:77] Creating layer inception_3a/5x5
I0403 15:45:56.146814  3589 net.cpp:91] Creating Layer inception_3a/5x5
I0403 15:45:56.146832  3589 net.cpp:425] inception_3a/5x5 <- inception_3a/5x5_reduce
I0403 15:45:56.146853  3589 net.cpp:399] inception_3a/5x5 -> inception_3a/5x5
I0403 15:45:56.147922  3589 net.cpp:141] Setting up inception_3a/5x5
I0403 15:45:56.147949  3589 net.cpp:148] Top shape: 24 32 28 28 (602112)
I0403 15:45:56.147969  3589 net.cpp:156] Memory required for data: 539493408
I0403 15:45:56.147989  3589 layer_factory.hpp:77] Creating layer inception_3a/relu_5x5
I0403 15:45:56.148010  3589 net.cpp:91] Creating Layer inception_3a/relu_5x5
I0403 15:45:56.148028  3589 net.cpp:425] inception_3a/relu_5x5 <- inception_3a/5x5
I0403 15:45:56.148051  3589 net.cpp:386] inception_3a/relu_5x5 -> inception_3a/5x5 (in-place)
I0403 15:45:56.148229  3589 net.cpp:141] Setting up inception_3a/relu_5x5
I0403 15:45:56.148260  3589 net.cpp:148] Top shape: 24 32 28 28 (602112)
I0403 15:45:56.148277  3589 net.cpp:156] Memory required for data: 541901856
I0403 15:45:56.148293  3589 layer_factory.hpp:77] Creating layer inception_3a/pool
I0403 15:45:56.148314  3589 net.cpp:91] Creating Layer inception_3a/pool
I0403 15:45:56.148350  3589 net.cpp:425] inception_3a/pool <- pool2/3x3_s2_pool2/3x3_s2_0_split_3
I0403 15:45:56.148370  3589 net.cpp:399] inception_3a/pool -> inception_3a/pool
I0403 15:45:56.148430  3589 net.cpp:141] Setting up inception_3a/pool
I0403 15:45:56.148457  3589 net.cpp:148] Top shape: 24 192 28 28 (3612672)
I0403 15:45:56.148476  3589 net.cpp:156] Memory required for data: 556352544
I0403 15:45:56.148493  3589 layer_factory.hpp:77] Creating layer inception_3a/pool_proj
I0403 15:45:56.148516  3589 net.cpp:91] Creating Layer inception_3a/pool_proj
I0403 15:45:56.148535  3589 net.cpp:425] inception_3a/pool_proj <- inception_3a/pool
I0403 15:45:56.148561  3589 net.cpp:399] inception_3a/pool_proj -> inception_3a/pool_proj
I0403 15:45:56.149587  3589 net.cpp:141] Setting up inception_3a/pool_proj
I0403 15:45:56.149619  3589 net.cpp:148] Top shape: 24 32 28 28 (602112)
I0403 15:45:56.149636  3589 net.cpp:156] Memory required for data: 558760992
I0403 15:45:56.149659  3589 layer_factory.hpp:77] Creating layer inception_3a/relu_pool_proj
I0403 15:45:56.149682  3589 net.cpp:91] Creating Layer inception_3a/relu_pool_proj
I0403 15:45:56.149700  3589 net.cpp:425] inception_3a/relu_pool_proj <- inception_3a/pool_proj
I0403 15:45:56.149721  3589 net.cpp:386] inception_3a/relu_pool_proj -> inception_3a/pool_proj (in-place)
I0403 15:45:56.150015  3589 net.cpp:141] Setting up inception_3a/relu_pool_proj
I0403 15:45:56.150043  3589 net.cpp:148] Top shape: 24 32 28 28 (602112)
I0403 15:45:56.150060  3589 net.cpp:156] Memory required for data: 561169440
I0403 15:45:56.150076  3589 layer_factory.hpp:77] Creating layer inception_3a/output
I0403 15:45:56.150094  3589 net.cpp:91] Creating Layer inception_3a/output
I0403 15:45:56.150111  3589 net.cpp:425] inception_3a/output <- inception_3a/1x1
I0403 15:45:56.150130  3589 net.cpp:425] inception_3a/output <- inception_3a/3x3
I0403 15:45:56.150146  3589 net.cpp:425] inception_3a/output <- inception_3a/5x5
I0403 15:45:56.150166  3589 net.cpp:425] inception_3a/output <- inception_3a/pool_proj
I0403 15:45:56.150189  3589 net.cpp:399] inception_3a/output -> inception_3a/output
I0403 15:45:56.150249  3589 net.cpp:141] Setting up inception_3a/output
I0403 15:45:56.150274  3589 net.cpp:148] Top shape: 24 256 28 28 (4816896)
I0403 15:45:56.150296  3589 net.cpp:156] Memory required for data: 580437024
I0403 15:45:56.150312  3589 layer_factory.hpp:77] Creating layer inception_3a/output_inception_3a/output_0_split
I0403 15:45:56.150331  3589 net.cpp:91] Creating Layer inception_3a/output_inception_3a/output_0_split
I0403 15:45:56.150346  3589 net.cpp:425] inception_3a/output_inception_3a/output_0_split <- inception_3a/output
I0403 15:45:56.150370  3589 net.cpp:399] inception_3a/output_inception_3a/output_0_split -> inception_3a/output_inception_3a/output_0_split_0
I0403 15:45:56.150393  3589 net.cpp:399] inception_3a/output_inception_3a/output_0_split -> inception_3a/output_inception_3a/output_0_split_1
I0403 15:45:56.150415  3589 net.cpp:399] inception_3a/output_inception_3a/output_0_split -> inception_3a/output_inception_3a/output_0_split_2
I0403 15:45:56.150444  3589 net.cpp:399] inception_3a/output_inception_3a/output_0_split -> inception_3a/output_inception_3a/output_0_split_3
I0403 15:45:56.150522  3589 net.cpp:141] Setting up inception_3a/output_inception_3a/output_0_split
I0403 15:45:56.150547  3589 net.cpp:148] Top shape: 24 256 28 28 (4816896)
I0403 15:45:56.150565  3589 net.cpp:148] Top shape: 24 256 28 28 (4816896)
I0403 15:45:56.150588  3589 net.cpp:148] Top shape: 24 256 28 28 (4816896)
I0403 15:45:56.150605  3589 net.cpp:148] Top shape: 24 256 28 28 (4816896)
I0403 15:45:56.150620  3589 net.cpp:156] Memory required for data: 657507360
I0403 15:45:56.150635  3589 layer_factory.hpp:77] Creating layer inception_3b/1x1
I0403 15:45:56.150665  3589 net.cpp:91] Creating Layer inception_3b/1x1
I0403 15:45:56.150683  3589 net.cpp:425] inception_3b/1x1 <- inception_3a/output_inception_3a/output_0_split_0
I0403 15:45:56.150706  3589 net.cpp:399] inception_3b/1x1 -> inception_3b/1x1
I0403 15:45:56.151882  3589 net.cpp:141] Setting up inception_3b/1x1
I0403 15:45:56.151924  3589 net.cpp:148] Top shape: 24 128 28 28 (2408448)
I0403 15:45:56.151942  3589 net.cpp:156] Memory required for data: 667141152
I0403 15:45:56.151962  3589 layer_factory.hpp:77] Creating layer inception_3b/relu_1x1
I0403 15:45:56.151979  3589 net.cpp:91] Creating Layer inception_3b/relu_1x1
I0403 15:45:56.151996  3589 net.cpp:425] inception_3b/relu_1x1 <- inception_3b/1x1
I0403 15:45:56.152019  3589 net.cpp:386] inception_3b/relu_1x1 -> inception_3b/1x1 (in-place)
I0403 15:45:56.152200  3589 net.cpp:141] Setting up inception_3b/relu_1x1
I0403 15:45:56.152226  3589 net.cpp:148] Top shape: 24 128 28 28 (2408448)
I0403 15:45:56.152247  3589 net.cpp:156] Memory required for data: 676774944
I0403 15:45:56.152264  3589 layer_factory.hpp:77] Creating layer inception_3b/3x3_reduce
I0403 15:45:56.152287  3589 net.cpp:91] Creating Layer inception_3b/3x3_reduce
I0403 15:45:56.152307  3589 net.cpp:425] inception_3b/3x3_reduce <- inception_3a/output_inception_3a/output_0_split_1
I0403 15:45:56.152333  3589 net.cpp:399] inception_3b/3x3_reduce -> inception_3b/3x3_reduce
I0403 15:45:56.153517  3589 net.cpp:141] Setting up inception_3b/3x3_reduce
I0403 15:45:56.153547  3589 net.cpp:148] Top shape: 24 128 28 28 (2408448)
I0403 15:45:56.153563  3589 net.cpp:156] Memory required for data: 686408736
I0403 15:45:56.153583  3589 layer_factory.hpp:77] Creating layer inception_3b/relu_3x3_reduce
I0403 15:45:56.153601  3589 net.cpp:91] Creating Layer inception_3b/relu_3x3_reduce
I0403 15:45:56.153619  3589 net.cpp:425] inception_3b/relu_3x3_reduce <- inception_3b/3x3_reduce
I0403 15:45:56.153640  3589 net.cpp:386] inception_3b/relu_3x3_reduce -> inception_3b/3x3_reduce (in-place)
I0403 15:45:56.153816  3589 net.cpp:141] Setting up inception_3b/relu_3x3_reduce
I0403 15:45:56.153843  3589 net.cpp:148] Top shape: 24 128 28 28 (2408448)
I0403 15:45:56.153858  3589 net.cpp:156] Memory required for data: 696042528
I0403 15:45:56.153874  3589 layer_factory.hpp:77] Creating layer inception_3b/3x3
I0403 15:45:56.153901  3589 net.cpp:91] Creating Layer inception_3b/3x3
I0403 15:45:56.153920  3589 net.cpp:425] inception_3b/3x3 <- inception_3b/3x3_reduce
I0403 15:45:56.153940  3589 net.cpp:399] inception_3b/3x3 -> inception_3b/3x3
I0403 15:45:56.157033  3589 net.cpp:141] Setting up inception_3b/3x3
I0403 15:45:56.157064  3589 net.cpp:148] Top shape: 24 192 28 28 (3612672)
I0403 15:45:56.157089  3589 net.cpp:156] Memory required for data: 710493216
I0403 15:45:56.157109  3589 layer_factory.hpp:77] Creating layer inception_3b/relu_3x3
I0403 15:45:56.157131  3589 net.cpp:91] Creating Layer inception_3b/relu_3x3
I0403 15:45:56.157150  3589 net.cpp:425] inception_3b/relu_3x3 <- inception_3b/3x3
I0403 15:45:56.157168  3589 net.cpp:386] inception_3b/relu_3x3 -> inception_3b/3x3 (in-place)
I0403 15:45:56.157469  3589 net.cpp:141] Setting up inception_3b/relu_3x3
I0403 15:45:56.157497  3589 net.cpp:148] Top shape: 24 192 28 28 (3612672)
I0403 15:45:56.157513  3589 net.cpp:156] Memory required for data: 724943904
I0403 15:45:56.157529  3589 layer_factory.hpp:77] Creating layer inception_3b/5x5_reduce
I0403 15:45:56.157554  3589 net.cpp:91] Creating Layer inception_3b/5x5_reduce
I0403 15:45:56.157573  3589 net.cpp:425] inception_3b/5x5_reduce <- inception_3a/output_inception_3a/output_0_split_2
I0403 15:45:56.157595  3589 net.cpp:399] inception_3b/5x5_reduce -> inception_3b/5x5_reduce
I0403 15:45:56.158620  3589 net.cpp:141] Setting up inception_3b/5x5_reduce
I0403 15:45:56.158649  3589 net.cpp:148] Top shape: 24 32 28 28 (602112)
I0403 15:45:56.158669  3589 net.cpp:156] Memory required for data: 727352352
I0403 15:45:56.158692  3589 layer_factory.hpp:77] Creating layer inception_3b/relu_5x5_reduce
I0403 15:45:56.158715  3589 net.cpp:91] Creating Layer inception_3b/relu_5x5_reduce
I0403 15:45:56.158733  3589 net.cpp:425] inception_3b/relu_5x5_reduce <- inception_3b/5x5_reduce
I0403 15:45:56.158756  3589 net.cpp:386] inception_3b/relu_5x5_reduce -> inception_3b/5x5_reduce (in-place)
I0403 15:45:56.158960  3589 net.cpp:141] Setting up inception_3b/relu_5x5_reduce
I0403 15:45:56.158994  3589 net.cpp:148] Top shape: 24 32 28 28 (602112)
I0403 15:45:56.159013  3589 net.cpp:156] Memory required for data: 729760800
I0403 15:45:56.159029  3589 layer_factory.hpp:77] Creating layer inception_3b/5x5
I0403 15:45:56.159050  3589 net.cpp:91] Creating Layer inception_3b/5x5
I0403 15:45:56.159067  3589 net.cpp:425] inception_3b/5x5 <- inception_3b/5x5_reduce
I0403 15:45:56.159090  3589 net.cpp:399] inception_3b/5x5 -> inception_3b/5x5
I0403 15:45:56.161151  3589 net.cpp:141] Setting up inception_3b/5x5
I0403 15:45:56.161181  3589 net.cpp:148] Top shape: 24 96 28 28 (1806336)
I0403 15:45:56.161198  3589 net.cpp:156] Memory required for data: 736986144
I0403 15:45:56.161218  3589 layer_factory.hpp:77] Creating layer inception_3b/relu_5x5
I0403 15:45:56.161237  3589 net.cpp:91] Creating Layer inception_3b/relu_5x5
I0403 15:45:56.161259  3589 net.cpp:425] inception_3b/relu_5x5 <- inception_3b/5x5
I0403 15:45:56.161281  3589 net.cpp:386] inception_3b/relu_5x5 -> inception_3b/5x5 (in-place)
I0403 15:45:56.161478  3589 net.cpp:141] Setting up inception_3b/relu_5x5
I0403 15:45:56.161505  3589 net.cpp:148] Top shape: 24 96 28 28 (1806336)
I0403 15:45:56.161521  3589 net.cpp:156] Memory required for data: 744211488
I0403 15:45:56.161537  3589 layer_factory.hpp:77] Creating layer inception_3b/pool
I0403 15:45:56.161556  3589 net.cpp:91] Creating Layer inception_3b/pool
I0403 15:45:56.161573  3589 net.cpp:425] inception_3b/pool <- inception_3a/output_inception_3a/output_0_split_3
I0403 15:45:56.161595  3589 net.cpp:399] inception_3b/pool -> inception_3b/pool
I0403 15:45:56.161653  3589 net.cpp:141] Setting up inception_3b/pool
I0403 15:45:56.161679  3589 net.cpp:148] Top shape: 24 256 28 28 (4816896)
I0403 15:45:56.161695  3589 net.cpp:156] Memory required for data: 763479072
I0403 15:45:56.161710  3589 layer_factory.hpp:77] Creating layer inception_3b/pool_proj
I0403 15:45:56.161732  3589 net.cpp:91] Creating Layer inception_3b/pool_proj
I0403 15:45:56.161751  3589 net.cpp:425] inception_3b/pool_proj <- inception_3b/pool
I0403 15:45:56.161774  3589 net.cpp:399] inception_3b/pool_proj -> inception_3b/pool_proj
I0403 15:45:56.162863  3589 net.cpp:141] Setting up inception_3b/pool_proj
I0403 15:45:56.162895  3589 net.cpp:148] Top shape: 24 64 28 28 (1204224)
I0403 15:45:56.162912  3589 net.cpp:156] Memory required for data: 768295968
I0403 15:45:56.162932  3589 layer_factory.hpp:77] Creating layer inception_3b/relu_pool_proj
I0403 15:45:56.162950  3589 net.cpp:91] Creating Layer inception_3b/relu_pool_proj
I0403 15:45:56.162968  3589 net.cpp:425] inception_3b/relu_pool_proj <- inception_3b/pool_proj
I0403 15:45:56.162986  3589 net.cpp:386] inception_3b/relu_pool_proj -> inception_3b/pool_proj (in-place)
I0403 15:45:56.163399  3589 net.cpp:141] Setting up inception_3b/relu_pool_proj
I0403 15:45:56.163427  3589 net.cpp:148] Top shape: 24 64 28 28 (1204224)
I0403 15:45:56.163444  3589 net.cpp:156] Memory required for data: 773112864
I0403 15:45:56.163460  3589 layer_factory.hpp:77] Creating layer inception_3b/output
I0403 15:45:56.163483  3589 net.cpp:91] Creating Layer inception_3b/output
I0403 15:45:56.163501  3589 net.cpp:425] inception_3b/output <- inception_3b/1x1
I0403 15:45:56.163518  3589 net.cpp:425] inception_3b/output <- inception_3b/3x3
I0403 15:45:56.163535  3589 net.cpp:425] inception_3b/output <- inception_3b/5x5
I0403 15:45:56.163558  3589 net.cpp:425] inception_3b/output <- inception_3b/pool_proj
I0403 15:45:56.163576  3589 net.cpp:399] inception_3b/output -> inception_3b/output
I0403 15:45:56.163624  3589 net.cpp:141] Setting up inception_3b/output
I0403 15:45:56.163648  3589 net.cpp:148] Top shape: 24 480 28 28 (9031680)
I0403 15:45:56.163664  3589 net.cpp:156] Memory required for data: 809239584
I0403 15:45:56.163683  3589 layer_factory.hpp:77] Creating layer pool3/3x3_s2
I0403 15:45:56.163702  3589 net.cpp:91] Creating Layer pool3/3x3_s2
I0403 15:45:56.163718  3589 net.cpp:425] pool3/3x3_s2 <- inception_3b/output
I0403 15:45:56.163755  3589 net.cpp:399] pool3/3x3_s2 -> pool3/3x3_s2
I0403 15:45:56.163817  3589 net.cpp:141] Setting up pool3/3x3_s2
I0403 15:45:56.163843  3589 net.cpp:148] Top shape: 24 480 14 14 (2257920)
I0403 15:45:56.163859  3589 net.cpp:156] Memory required for data: 818271264
I0403 15:45:56.163875  3589 layer_factory.hpp:77] Creating layer pool3/3x3_s2_pool3/3x3_s2_0_split
I0403 15:45:56.163897  3589 net.cpp:91] Creating Layer pool3/3x3_s2_pool3/3x3_s2_0_split
I0403 15:45:56.163913  3589 net.cpp:425] pool3/3x3_s2_pool3/3x3_s2_0_split <- pool3/3x3_s2
I0403 15:45:56.163933  3589 net.cpp:399] pool3/3x3_s2_pool3/3x3_s2_0_split -> pool3/3x3_s2_pool3/3x3_s2_0_split_0
I0403 15:45:56.163955  3589 net.cpp:399] pool3/3x3_s2_pool3/3x3_s2_0_split -> pool3/3x3_s2_pool3/3x3_s2_0_split_1
I0403 15:45:56.163976  3589 net.cpp:399] pool3/3x3_s2_pool3/3x3_s2_0_split -> pool3/3x3_s2_pool3/3x3_s2_0_split_2
I0403 15:45:56.163996  3589 net.cpp:399] pool3/3x3_s2_pool3/3x3_s2_0_split -> pool3/3x3_s2_pool3/3x3_s2_0_split_3
I0403 15:45:56.164077  3589 net.cpp:141] Setting up pool3/3x3_s2_pool3/3x3_s2_0_split
I0403 15:45:56.164103  3589 net.cpp:148] Top shape: 24 480 14 14 (2257920)
I0403 15:45:56.164121  3589 net.cpp:148] Top shape: 24 480 14 14 (2257920)
I0403 15:45:56.164139  3589 net.cpp:148] Top shape: 24 480 14 14 (2257920)
I0403 15:45:56.164155  3589 net.cpp:148] Top shape: 24 480 14 14 (2257920)
I0403 15:45:56.164170  3589 net.cpp:156] Memory required for data: 854397984
I0403 15:45:56.164186  3589 layer_factory.hpp:77] Creating layer inception_4a/1x1
I0403 15:45:56.164207  3589 net.cpp:91] Creating Layer inception_4a/1x1
I0403 15:45:56.164224  3589 net.cpp:425] inception_4a/1x1 <- pool3/3x3_s2_pool3/3x3_s2_0_split_0
I0403 15:45:56.164252  3589 net.cpp:399] inception_4a/1x1 -> inception_4a/1x1
I0403 15:45:56.165890  3589 net.cpp:141] Setting up inception_4a/1x1
I0403 15:45:56.165922  3589 net.cpp:148] Top shape: 24 192 14 14 (903168)
I0403 15:45:56.165940  3589 net.cpp:156] Memory required for data: 858010656
I0403 15:45:56.165959  3589 layer_factory.hpp:77] Creating layer inception_4a/relu_1x1
I0403 15:45:56.165979  3589 net.cpp:91] Creating Layer inception_4a/relu_1x1
I0403 15:45:56.165995  3589 net.cpp:425] inception_4a/relu_1x1 <- inception_4a/1x1
I0403 15:45:56.166013  3589 net.cpp:386] inception_4a/relu_1x1 -> inception_4a/1x1 (in-place)
I0403 15:45:56.166200  3589 net.cpp:141] Setting up inception_4a/relu_1x1
I0403 15:45:56.166229  3589 net.cpp:148] Top shape: 24 192 14 14 (903168)
I0403 15:45:56.166250  3589 net.cpp:156] Memory required for data: 861623328
I0403 15:45:56.166268  3589 layer_factory.hpp:77] Creating layer inception_4a/3x3_reduce
I0403 15:45:56.166292  3589 net.cpp:91] Creating Layer inception_4a/3x3_reduce
I0403 15:45:56.166311  3589 net.cpp:425] inception_4a/3x3_reduce <- pool3/3x3_s2_pool3/3x3_s2_0_split_1
I0403 15:45:56.166333  3589 net.cpp:399] inception_4a/3x3_reduce -> inception_4a/3x3_reduce
I0403 15:45:56.167656  3589 net.cpp:141] Setting up inception_4a/3x3_reduce
I0403 15:45:56.167687  3589 net.cpp:148] Top shape: 24 96 14 14 (451584)
I0403 15:45:56.167706  3589 net.cpp:156] Memory required for data: 863429664
I0403 15:45:56.167732  3589 layer_factory.hpp:77] Creating layer inception_4a/relu_3x3_reduce
I0403 15:45:56.167753  3589 net.cpp:91] Creating Layer inception_4a/relu_3x3_reduce
I0403 15:45:56.167770  3589 net.cpp:425] inception_4a/relu_3x3_reduce <- inception_4a/3x3_reduce
I0403 15:45:56.167789  3589 net.cpp:386] inception_4a/relu_3x3_reduce -> inception_4a/3x3_reduce (in-place)
I0403 15:45:56.167973  3589 net.cpp:141] Setting up inception_4a/relu_3x3_reduce
I0403 15:45:56.168001  3589 net.cpp:148] Top shape: 24 96 14 14 (451584)
I0403 15:45:56.168018  3589 net.cpp:156] Memory required for data: 865236000
I0403 15:45:56.168035  3589 layer_factory.hpp:77] Creating layer inception_4a/3x3
I0403 15:45:56.168057  3589 net.cpp:91] Creating Layer inception_4a/3x3
I0403 15:45:56.168076  3589 net.cpp:425] inception_4a/3x3 <- inception_4a/3x3_reduce
I0403 15:45:56.168098  3589 net.cpp:399] inception_4a/3x3 -> inception_4a/3x3
I0403 15:45:56.170931  3589 net.cpp:141] Setting up inception_4a/3x3
I0403 15:45:56.170963  3589 net.cpp:148] Top shape: 24 208 14 14 (978432)
I0403 15:45:56.170979  3589 net.cpp:156] Memory required for data: 869149728
I0403 15:45:56.170999  3589 layer_factory.hpp:77] Creating layer inception_4a/relu_3x3
I0403 15:45:56.171017  3589 net.cpp:91] Creating Layer inception_4a/relu_3x3
I0403 15:45:56.171035  3589 net.cpp:425] inception_4a/relu_3x3 <- inception_4a/3x3
I0403 15:45:56.171054  3589 net.cpp:386] inception_4a/relu_3x3 -> inception_4a/3x3 (in-place)
I0403 15:45:56.171352  3589 net.cpp:141] Setting up inception_4a/relu_3x3
I0403 15:45:56.171382  3589 net.cpp:148] Top shape: 24 208 14 14 (978432)
I0403 15:45:56.171398  3589 net.cpp:156] Memory required for data: 873063456
I0403 15:45:56.171417  3589 layer_factory.hpp:77] Creating layer inception_4a/5x5_reduce
I0403 15:45:56.171449  3589 net.cpp:91] Creating Layer inception_4a/5x5_reduce
I0403 15:45:56.171473  3589 net.cpp:425] inception_4a/5x5_reduce <- pool3/3x3_s2_pool3/3x3_s2_0_split_2
I0403 15:45:56.171499  3589 net.cpp:399] inception_4a/5x5_reduce -> inception_4a/5x5_reduce
I0403 15:45:56.172583  3589 net.cpp:141] Setting up inception_4a/5x5_reduce
I0403 15:45:56.172613  3589 net.cpp:148] Top shape: 24 16 14 14 (75264)
I0403 15:45:56.172631  3589 net.cpp:156] Memory required for data: 873364512
I0403 15:45:56.172649  3589 layer_factory.hpp:77] Creating layer inception_4a/relu_5x5_reduce
I0403 15:45:56.172668  3589 net.cpp:91] Creating Layer inception_4a/relu_5x5_reduce
I0403 15:45:56.172686  3589 net.cpp:425] inception_4a/relu_5x5_reduce <- inception_4a/5x5_reduce
I0403 15:45:56.172708  3589 net.cpp:386] inception_4a/relu_5x5_reduce -> inception_4a/5x5_reduce (in-place)
I0403 15:45:56.172900  3589 net.cpp:141] Setting up inception_4a/relu_5x5_reduce
I0403 15:45:56.172930  3589 net.cpp:148] Top shape: 24 16 14 14 (75264)
I0403 15:45:56.172945  3589 net.cpp:156] Memory required for data: 873665568
I0403 15:45:56.172961  3589 layer_factory.hpp:77] Creating layer inception_4a/5x5
I0403 15:45:56.172986  3589 net.cpp:91] Creating Layer inception_4a/5x5
I0403 15:45:56.173004  3589 net.cpp:425] inception_4a/5x5 <- inception_4a/5x5_reduce
I0403 15:45:56.173027  3589 net.cpp:399] inception_4a/5x5 -> inception_4a/5x5
I0403 15:45:56.174165  3589 net.cpp:141] Setting up inception_4a/5x5
I0403 15:45:56.174196  3589 net.cpp:148] Top shape: 24 48 14 14 (225792)
I0403 15:45:56.174217  3589 net.cpp:156] Memory required for data: 874568736
I0403 15:45:56.174247  3589 layer_factory.hpp:77] Creating layer inception_4a/relu_5x5
I0403 15:45:56.174274  3589 net.cpp:91] Creating Layer inception_4a/relu_5x5
I0403 15:45:56.174295  3589 net.cpp:425] inception_4a/relu_5x5 <- inception_4a/5x5
I0403 15:45:56.174316  3589 net.cpp:386] inception_4a/relu_5x5 -> inception_4a/5x5 (in-place)
I0403 15:45:56.174499  3589 net.cpp:141] Setting up inception_4a/relu_5x5
I0403 15:45:56.174530  3589 net.cpp:148] Top shape: 24 48 14 14 (225792)
I0403 15:45:56.174569  3589 net.cpp:156] Memory required for data: 875471904
I0403 15:45:56.174587  3589 layer_factory.hpp:77] Creating layer inception_4a/pool
I0403 15:45:56.174605  3589 net.cpp:91] Creating Layer inception_4a/pool
I0403 15:45:56.174623  3589 net.cpp:425] inception_4a/pool <- pool3/3x3_s2_pool3/3x3_s2_0_split_3
I0403 15:45:56.174643  3589 net.cpp:399] inception_4a/pool -> inception_4a/pool
I0403 15:45:56.174718  3589 net.cpp:141] Setting up inception_4a/pool
I0403 15:45:56.174747  3589 net.cpp:148] Top shape: 24 480 14 14 (2257920)
I0403 15:45:56.174772  3589 net.cpp:156] Memory required for data: 884503584
I0403 15:45:56.174796  3589 layer_factory.hpp:77] Creating layer inception_4a/pool_proj
I0403 15:45:56.174821  3589 net.cpp:91] Creating Layer inception_4a/pool_proj
I0403 15:45:56.174839  3589 net.cpp:425] inception_4a/pool_proj <- inception_4a/pool
I0403 15:45:56.174860  3589 net.cpp:399] inception_4a/pool_proj -> inception_4a/pool_proj
I0403 15:45:56.176081  3589 net.cpp:141] Setting up inception_4a/pool_proj
I0403 15:45:56.176115  3589 net.cpp:148] Top shape: 24 64 14 14 (301056)
I0403 15:45:56.210147  3589 net.cpp:156] Memory required for data: 885707808
I0403 15:45:56.210182  3589 layer_factory.hpp:77] Creating layer inception_4a/relu_pool_proj
I0403 15:45:56.210208  3589 net.cpp:91] Creating Layer inception_4a/relu_pool_proj
I0403 15:45:56.210227  3589 net.cpp:425] inception_4a/relu_pool_proj <- inception_4a/pool_proj
I0403 15:45:56.210264  3589 net.cpp:386] inception_4a/relu_pool_proj -> inception_4a/pool_proj (in-place)
I0403 15:45:56.210613  3589 net.cpp:141] Setting up inception_4a/relu_pool_proj
I0403 15:45:56.210644  3589 net.cpp:148] Top shape: 24 64 14 14 (301056)
I0403 15:45:56.210664  3589 net.cpp:156] Memory required for data: 886912032
I0403 15:45:56.210682  3589 layer_factory.hpp:77] Creating layer inception_4a/output
I0403 15:45:56.210702  3589 net.cpp:91] Creating Layer inception_4a/output
I0403 15:45:56.210724  3589 net.cpp:425] inception_4a/output <- inception_4a/1x1
I0403 15:45:56.210752  3589 net.cpp:425] inception_4a/output <- inception_4a/3x3
I0403 15:45:56.210777  3589 net.cpp:425] inception_4a/output <- inception_4a/5x5
I0403 15:45:56.210794  3589 net.cpp:425] inception_4a/output <- inception_4a/pool_proj
I0403 15:45:56.210813  3589 net.cpp:399] inception_4a/output -> inception_4a/output
I0403 15:45:56.210865  3589 net.cpp:141] Setting up inception_4a/output
I0403 15:45:56.210889  3589 net.cpp:148] Top shape: 24 512 14 14 (2408448)
I0403 15:45:56.210906  3589 net.cpp:156] Memory required for data: 896545824
I0403 15:45:56.210922  3589 layer_factory.hpp:77] Creating layer inception_4a/output_inception_4a/output_0_split
I0403 15:45:56.210943  3589 net.cpp:91] Creating Layer inception_4a/output_inception_4a/output_0_split
I0403 15:45:56.210969  3589 net.cpp:425] inception_4a/output_inception_4a/output_0_split <- inception_4a/output
I0403 15:45:56.210995  3589 net.cpp:399] inception_4a/output_inception_4a/output_0_split -> inception_4a/output_inception_4a/output_0_split_0
I0403 15:45:56.211029  3589 net.cpp:399] inception_4a/output_inception_4a/output_0_split -> inception_4a/output_inception_4a/output_0_split_1
I0403 15:45:56.211055  3589 net.cpp:399] inception_4a/output_inception_4a/output_0_split -> inception_4a/output_inception_4a/output_0_split_2
I0403 15:45:56.211083  3589 net.cpp:399] inception_4a/output_inception_4a/output_0_split -> inception_4a/output_inception_4a/output_0_split_3
I0403 15:45:56.211112  3589 net.cpp:399] inception_4a/output_inception_4a/output_0_split -> inception_4a/output_inception_4a/output_0_split_4
I0403 15:45:56.211215  3589 net.cpp:141] Setting up inception_4a/output_inception_4a/output_0_split
I0403 15:45:56.211246  3589 net.cpp:148] Top shape: 24 512 14 14 (2408448)
I0403 15:45:56.211269  3589 net.cpp:148] Top shape: 24 512 14 14 (2408448)
I0403 15:45:56.211299  3589 net.cpp:148] Top shape: 24 512 14 14 (2408448)
I0403 15:45:56.211319  3589 net.cpp:148] Top shape: 24 512 14 14 (2408448)
I0403 15:45:56.211345  3589 net.cpp:148] Top shape: 24 512 14 14 (2408448)
I0403 15:45:56.211366  3589 net.cpp:156] Memory required for data: 944714784
I0403 15:45:56.211381  3589 layer_factory.hpp:77] Creating layer loss1/ave_pool
I0403 15:45:56.211400  3589 net.cpp:91] Creating Layer loss1/ave_pool
I0403 15:45:56.211417  3589 net.cpp:425] loss1/ave_pool <- inception_4a/output_inception_4a/output_0_split_0
I0403 15:45:56.211439  3589 net.cpp:399] loss1/ave_pool -> loss1/ave_pool
I0403 15:45:56.211657  3589 net.cpp:141] Setting up loss1/ave_pool
I0403 15:45:56.211690  3589 net.cpp:148] Top shape: 24 512 4 4 (196608)
I0403 15:45:56.211707  3589 net.cpp:156] Memory required for data: 945501216
I0403 15:45:56.211724  3589 layer_factory.hpp:77] Creating layer loss1/conv
I0403 15:45:56.211747  3589 net.cpp:91] Creating Layer loss1/conv
I0403 15:45:56.211766  3589 net.cpp:425] loss1/conv <- loss1/ave_pool
I0403 15:45:56.211786  3589 net.cpp:399] loss1/conv -> loss1/conv
I0403 15:45:56.213320  3589 net.cpp:141] Setting up loss1/conv
I0403 15:45:56.213356  3589 net.cpp:148] Top shape: 24 128 4 4 (49152)
I0403 15:45:56.213393  3589 net.cpp:156] Memory required for data: 945697824
I0403 15:45:56.213416  3589 layer_factory.hpp:77] Creating layer loss1/relu_conv
I0403 15:45:56.213436  3589 net.cpp:91] Creating Layer loss1/relu_conv
I0403 15:45:56.213457  3589 net.cpp:425] loss1/relu_conv <- loss1/conv
I0403 15:45:56.213479  3589 net.cpp:386] loss1/relu_conv -> loss1/conv (in-place)
I0403 15:45:56.213773  3589 net.cpp:141] Setting up loss1/relu_conv
I0403 15:45:56.213801  3589 net.cpp:148] Top shape: 24 128 4 4 (49152)
I0403 15:45:56.213817  3589 net.cpp:156] Memory required for data: 945894432
I0403 15:45:56.213835  3589 layer_factory.hpp:77] Creating layer loss1/fc
I0403 15:45:56.213861  3589 net.cpp:91] Creating Layer loss1/fc
I0403 15:45:56.213881  3589 net.cpp:425] loss1/fc <- loss1/conv
I0403 15:45:56.213909  3589 net.cpp:399] loss1/fc -> loss1/fc
I0403 15:45:56.233716  3589 net.cpp:141] Setting up loss1/fc
I0403 15:45:56.233767  3589 net.cpp:148] Top shape: 24 1024 (24576)
I0403 15:45:56.233784  3589 net.cpp:156] Memory required for data: 945992736
I0403 15:45:56.233817  3589 layer_factory.hpp:77] Creating layer loss1/relu_fc
I0403 15:45:56.233839  3589 net.cpp:91] Creating Layer loss1/relu_fc
I0403 15:45:56.233857  3589 net.cpp:425] loss1/relu_fc <- loss1/fc
I0403 15:45:56.233876  3589 net.cpp:386] loss1/relu_fc -> loss1/fc (in-place)
I0403 15:45:56.234094  3589 net.cpp:141] Setting up loss1/relu_fc
I0403 15:45:56.234122  3589 net.cpp:148] Top shape: 24 1024 (24576)
I0403 15:45:56.234139  3589 net.cpp:156] Memory required for data: 946091040
I0403 15:45:56.234158  3589 layer_factory.hpp:77] Creating layer loss1/drop_fc
I0403 15:45:56.234191  3589 net.cpp:91] Creating Layer loss1/drop_fc
I0403 15:45:56.234211  3589 net.cpp:425] loss1/drop_fc <- loss1/fc
I0403 15:45:56.234236  3589 net.cpp:386] loss1/drop_fc -> loss1/fc (in-place)
I0403 15:45:56.234323  3589 net.cpp:141] Setting up loss1/drop_fc
I0403 15:45:56.234347  3589 net.cpp:148] Top shape: 24 1024 (24576)
I0403 15:45:56.234364  3589 net.cpp:156] Memory required for data: 946189344
I0403 15:45:56.234381  3589 layer_factory.hpp:77] Creating layer loss1/classifier_plantvillage
I0403 15:45:56.234417  3589 net.cpp:91] Creating Layer loss1/classifier_plantvillage
I0403 15:45:56.234436  3589 net.cpp:425] loss1/classifier_plantvillage <- loss1/fc
I0403 15:45:56.234458  3589 net.cpp:399] loss1/classifier_plantvillage -> loss1/classifier_plantvillage
I0403 15:45:56.235463  3589 net.cpp:141] Setting up loss1/classifier_plantvillage
I0403 15:45:56.235493  3589 net.cpp:148] Top shape: 24 38 (912)
I0403 15:45:56.235510  3589 net.cpp:156] Memory required for data: 946192992
I0403 15:45:56.235530  3589 layer_factory.hpp:77] Creating layer loss1/classifier_plantvillage_loss1/classifier_plantvillage_0_split
I0403 15:45:56.235550  3589 net.cpp:91] Creating Layer loss1/classifier_plantvillage_loss1/classifier_plantvillage_0_split
I0403 15:45:56.235568  3589 net.cpp:425] loss1/classifier_plantvillage_loss1/classifier_plantvillage_0_split <- loss1/classifier_plantvillage
I0403 15:45:56.235589  3589 net.cpp:399] loss1/classifier_plantvillage_loss1/classifier_plantvillage_0_split -> loss1/classifier_plantvillage_loss1/classifier_plantvillage_0_split_0
I0403 15:45:56.235611  3589 net.cpp:399] loss1/classifier_plantvillage_loss1/classifier_plantvillage_0_split -> loss1/classifier_plantvillage_loss1/classifier_plantvillage_0_split_1
I0403 15:45:56.235633  3589 net.cpp:399] loss1/classifier_plantvillage_loss1/classifier_plantvillage_0_split -> loss1/classifier_plantvillage_loss1/classifier_plantvillage_0_split_2
I0403 15:45:56.235703  3589 net.cpp:141] Setting up loss1/classifier_plantvillage_loss1/classifier_plantvillage_0_split
I0403 15:45:56.235728  3589 net.cpp:148] Top shape: 24 38 (912)
I0403 15:45:56.235746  3589 net.cpp:148] Top shape: 24 38 (912)
I0403 15:45:56.235764  3589 net.cpp:148] Top shape: 24 38 (912)
I0403 15:45:56.235779  3589 net.cpp:156] Memory required for data: 946203936
I0403 15:45:56.235795  3589 layer_factory.hpp:77] Creating layer inception_4b/1x1
I0403 15:45:56.235818  3589 net.cpp:91] Creating Layer inception_4b/1x1
I0403 15:45:56.235858  3589 net.cpp:425] inception_4b/1x1 <- inception_4a/output_inception_4a/output_0_split_1
I0403 15:45:56.235879  3589 net.cpp:399] inception_4b/1x1 -> inception_4b/1x1
I0403 15:45:56.237628  3589 net.cpp:141] Setting up inception_4b/1x1
I0403 15:45:56.237665  3589 net.cpp:148] Top shape: 24 160 14 14 (752640)
I0403 15:45:56.237682  3589 net.cpp:156] Memory required for data: 949214496
I0403 15:45:56.237702  3589 layer_factory.hpp:77] Creating layer inception_4b/relu_1x1
I0403 15:45:56.237725  3589 net.cpp:91] Creating Layer inception_4b/relu_1x1
I0403 15:45:56.237747  3589 net.cpp:425] inception_4b/relu_1x1 <- inception_4b/1x1
I0403 15:45:56.237773  3589 net.cpp:386] inception_4b/relu_1x1 -> inception_4b/1x1 (in-place)
I0403 15:45:56.237960  3589 net.cpp:141] Setting up inception_4b/relu_1x1
I0403 15:45:56.237989  3589 net.cpp:148] Top shape: 24 160 14 14 (752640)
I0403 15:45:56.238005  3589 net.cpp:156] Memory required for data: 952225056
I0403 15:45:56.238021  3589 layer_factory.hpp:77] Creating layer inception_4b/3x3_reduce
I0403 15:45:56.238045  3589 net.cpp:91] Creating Layer inception_4b/3x3_reduce
I0403 15:45:56.238065  3589 net.cpp:425] inception_4b/3x3_reduce <- inception_4a/output_inception_4a/output_0_split_2
I0403 15:45:56.238087  3589 net.cpp:399] inception_4b/3x3_reduce -> inception_4b/3x3_reduce
I0403 15:45:56.268923  3589 net.cpp:141] Setting up inception_4b/3x3_reduce
I0403 15:45:56.268965  3589 net.cpp:148] Top shape: 24 112 14 14 (526848)
I0403 15:45:56.268985  3589 net.cpp:156] Memory required for data: 954332448
I0403 15:45:56.269006  3589 layer_factory.hpp:77] Creating layer inception_4b/relu_3x3_reduce
I0403 15:45:56.269028  3589 net.cpp:91] Creating Layer inception_4b/relu_3x3_reduce
I0403 15:45:56.269047  3589 net.cpp:425] inception_4b/relu_3x3_reduce <- inception_4b/3x3_reduce
I0403 15:45:56.269068  3589 net.cpp:386] inception_4b/relu_3x3_reduce -> inception_4b/3x3_reduce (in-place)
I0403 15:45:56.269412  3589 net.cpp:141] Setting up inception_4b/relu_3x3_reduce
I0403 15:45:56.269443  3589 net.cpp:148] Top shape: 24 112 14 14 (526848)
I0403 15:45:56.269459  3589 net.cpp:156] Memory required for data: 956439840
I0403 15:45:56.269476  3589 layer_factory.hpp:77] Creating layer inception_4b/3x3
I0403 15:45:56.269500  3589 net.cpp:91] Creating Layer inception_4b/3x3
I0403 15:45:56.269520  3589 net.cpp:425] inception_4b/3x3 <- inception_4b/3x3_reduce
I0403 15:45:56.269557  3589 net.cpp:399] inception_4b/3x3 -> inception_4b/3x3
I0403 15:45:56.272804  3589 net.cpp:141] Setting up inception_4b/3x3
I0403 15:45:56.272841  3589 net.cpp:148] Top shape: 24 224 14 14 (1053696)
I0403 15:45:56.272866  3589 net.cpp:156] Memory required for data: 960654624
I0403 15:45:56.272910  3589 layer_factory.hpp:77] Creating layer inception_4b/relu_3x3
I0403 15:45:56.272938  3589 net.cpp:91] Creating Layer inception_4b/relu_3x3
I0403 15:45:56.272969  3589 net.cpp:425] inception_4b/relu_3x3 <- inception_4b/3x3
I0403 15:45:56.273000  3589 net.cpp:386] inception_4b/relu_3x3 -> inception_4b/3x3 (in-place)
I0403 15:45:56.273195  3589 net.cpp:141] Setting up inception_4b/relu_3x3
I0403 15:45:56.273223  3589 net.cpp:148] Top shape: 24 224 14 14 (1053696)
I0403 15:45:56.273260  3589 net.cpp:156] Memory required for data: 964869408
I0403 15:45:56.273289  3589 layer_factory.hpp:77] Creating layer inception_4b/5x5_reduce
I0403 15:45:56.273325  3589 net.cpp:91] Creating Layer inception_4b/5x5_reduce
I0403 15:45:56.273345  3589 net.cpp:425] inception_4b/5x5_reduce <- inception_4a/output_inception_4a/output_0_split_3
I0403 15:45:56.273370  3589 net.cpp:399] inception_4b/5x5_reduce -> inception_4b/5x5_reduce
I0403 15:45:56.274510  3589 net.cpp:141] Setting up inception_4b/5x5_reduce
I0403 15:45:56.274540  3589 net.cpp:148] Top shape: 24 24 14 14 (112896)
I0403 15:45:56.274559  3589 net.cpp:156] Memory required for data: 965320992
I0403 15:45:56.274580  3589 layer_factory.hpp:77] Creating layer inception_4b/relu_5x5_reduce
I0403 15:45:56.274605  3589 net.cpp:91] Creating Layer inception_4b/relu_5x5_reduce
I0403 15:45:56.274643  3589 net.cpp:425] inception_4b/relu_5x5_reduce <- inception_4b/5x5_reduce
I0403 15:45:56.274663  3589 net.cpp:386] inception_4b/relu_5x5_reduce -> inception_4b/5x5_reduce (in-place)
I0403 15:45:56.274853  3589 net.cpp:141] Setting up inception_4b/relu_5x5_reduce
I0403 15:45:56.274879  3589 net.cpp:148] Top shape: 24 24 14 14 (112896)
I0403 15:45:56.274895  3589 net.cpp:156] Memory required for data: 965772576
I0403 15:45:56.274911  3589 layer_factory.hpp:77] Creating layer inception_4b/5x5
I0403 15:45:56.274937  3589 net.cpp:91] Creating Layer inception_4b/5x5
I0403 15:45:56.274963  3589 net.cpp:425] inception_4b/5x5 <- inception_4b/5x5_reduce
I0403 15:45:56.274989  3589 net.cpp:399] inception_4b/5x5 -> inception_4b/5x5
I0403 15:45:56.276340  3589 net.cpp:141] Setting up inception_4b/5x5
I0403 15:45:56.276376  3589 net.cpp:148] Top shape: 24 64 14 14 (301056)
I0403 15:45:56.276396  3589 net.cpp:156] Memory required for data: 966976800
I0403 15:45:56.276417  3589 layer_factory.hpp:77] Creating layer inception_4b/relu_5x5
I0403 15:45:56.276437  3589 net.cpp:91] Creating Layer inception_4b/relu_5x5
I0403 15:45:56.276459  3589 net.cpp:425] inception_4b/relu_5x5 <- inception_4b/5x5
I0403 15:45:56.276481  3589 net.cpp:386] inception_4b/relu_5x5 -> inception_4b/5x5 (in-place)
I0403 15:45:56.276779  3589 net.cpp:141] Setting up inception_4b/relu_5x5
I0403 15:45:56.276813  3589 net.cpp:148] Top shape: 24 64 14 14 (301056)
I0403 15:45:56.276829  3589 net.cpp:156] Memory required for data: 968181024
I0403 15:45:56.276845  3589 layer_factory.hpp:77] Creating layer inception_4b/pool
I0403 15:45:56.276865  3589 net.cpp:91] Creating Layer inception_4b/pool
I0403 15:45:56.276886  3589 net.cpp:425] inception_4b/pool <- inception_4a/output_inception_4a/output_0_split_4
I0403 15:45:56.276911  3589 net.cpp:399] inception_4b/pool -> inception_4b/pool
I0403 15:45:56.276981  3589 net.cpp:141] Setting up inception_4b/pool
I0403 15:45:56.277011  3589 net.cpp:148] Top shape: 24 512 14 14 (2408448)
I0403 15:45:56.277032  3589 net.cpp:156] Memory required for data: 977814816
I0403 15:45:56.277050  3589 layer_factory.hpp:77] Creating layer inception_4b/pool_proj
I0403 15:45:56.277076  3589 net.cpp:91] Creating Layer inception_4b/pool_proj
I0403 15:45:56.277093  3589 net.cpp:425] inception_4b/pool_proj <- inception_4b/pool
I0403 15:45:56.277114  3589 net.cpp:399] inception_4b/pool_proj -> inception_4b/pool_proj
I0403 15:45:56.278434  3589 net.cpp:141] Setting up inception_4b/pool_proj
I0403 15:45:56.278473  3589 net.cpp:148] Top shape: 24 64 14 14 (301056)
I0403 15:45:56.278491  3589 net.cpp:156] Memory required for data: 979019040
I0403 15:45:56.278514  3589 layer_factory.hpp:77] Creating layer inception_4b/relu_pool_proj
I0403 15:45:56.278539  3589 net.cpp:91] Creating Layer inception_4b/relu_pool_proj
I0403 15:45:56.278558  3589 net.cpp:425] inception_4b/relu_pool_proj <- inception_4b/pool_proj
I0403 15:45:56.278585  3589 net.cpp:386] inception_4b/relu_pool_proj -> inception_4b/pool_proj (in-place)
I0403 15:45:56.278779  3589 net.cpp:141] Setting up inception_4b/relu_pool_proj
I0403 15:45:56.278807  3589 net.cpp:148] Top shape: 24 64 14 14 (301056)
I0403 15:45:56.278836  3589 net.cpp:156] Memory required for data: 980223264
I0403 15:45:56.278856  3589 layer_factory.hpp:77] Creating layer inception_4b/output
I0403 15:45:56.278878  3589 net.cpp:91] Creating Layer inception_4b/output
I0403 15:45:56.278903  3589 net.cpp:425] inception_4b/output <- inception_4b/1x1
I0403 15:45:56.278931  3589 net.cpp:425] inception_4b/output <- inception_4b/3x3
I0403 15:45:56.278954  3589 net.cpp:425] inception_4b/output <- inception_4b/5x5
I0403 15:45:56.278970  3589 net.cpp:425] inception_4b/output <- inception_4b/pool_proj
I0403 15:45:56.278988  3589 net.cpp:399] inception_4b/output -> inception_4b/output
I0403 15:45:56.279042  3589 net.cpp:141] Setting up inception_4b/output
I0403 15:45:56.279067  3589 net.cpp:148] Top shape: 24 512 14 14 (2408448)
I0403 15:45:56.279083  3589 net.cpp:156] Memory required for data: 989857056
I0403 15:45:56.279114  3589 layer_factory.hpp:77] Creating layer inception_4b/output_inception_4b/output_0_split
I0403 15:45:56.279135  3589 net.cpp:91] Creating Layer inception_4b/output_inception_4b/output_0_split
I0403 15:45:56.279162  3589 net.cpp:425] inception_4b/output_inception_4b/output_0_split <- inception_4b/output
I0403 15:45:56.279184  3589 net.cpp:399] inception_4b/output_inception_4b/output_0_split -> inception_4b/output_inception_4b/output_0_split_0
I0403 15:45:56.279211  3589 net.cpp:399] inception_4b/output_inception_4b/output_0_split -> inception_4b/output_inception_4b/output_0_split_1
I0403 15:45:56.279244  3589 net.cpp:399] inception_4b/output_inception_4b/output_0_split -> inception_4b/output_inception_4b/output_0_split_2
I0403 15:45:56.279268  3589 net.cpp:399] inception_4b/output_inception_4b/output_0_split -> inception_4b/output_inception_4b/output_0_split_3
I0403 15:45:56.279358  3589 net.cpp:141] Setting up inception_4b/output_inception_4b/output_0_split
I0403 15:45:56.279384  3589 net.cpp:148] Top shape: 24 512 14 14 (2408448)
I0403 15:45:56.279402  3589 net.cpp:148] Top shape: 24 512 14 14 (2408448)
I0403 15:45:56.279419  3589 net.cpp:148] Top shape: 24 512 14 14 (2408448)
I0403 15:45:56.279439  3589 net.cpp:148] Top shape: 24 512 14 14 (2408448)
I0403 15:45:56.279458  3589 net.cpp:156] Memory required for data: 1028392224
I0403 15:45:56.279476  3589 layer_factory.hpp:77] Creating layer inception_4c/1x1
I0403 15:45:56.279505  3589 net.cpp:91] Creating Layer inception_4c/1x1
I0403 15:45:56.279530  3589 net.cpp:425] inception_4c/1x1 <- inception_4b/output_inception_4b/output_0_split_0
I0403 15:45:56.279564  3589 net.cpp:399] inception_4c/1x1 -> inception_4c/1x1
I0403 15:45:56.281121  3589 net.cpp:141] Setting up inception_4c/1x1
I0403 15:45:56.281157  3589 net.cpp:148] Top shape: 24 128 14 14 (602112)
I0403 15:45:56.281174  3589 net.cpp:156] Memory required for data: 1030800672
I0403 15:45:56.281194  3589 layer_factory.hpp:77] Creating layer inception_4c/relu_1x1
I0403 15:45:56.281213  3589 net.cpp:91] Creating Layer inception_4c/relu_1x1
I0403 15:45:56.281231  3589 net.cpp:425] inception_4c/relu_1x1 <- inception_4c/1x1
I0403 15:45:56.281275  3589 net.cpp:386] inception_4c/relu_1x1 -> inception_4c/1x1 (in-place)
I0403 15:45:56.281473  3589 net.cpp:141] Setting up inception_4c/relu_1x1
I0403 15:45:56.281502  3589 net.cpp:148] Top shape: 24 128 14 14 (602112)
I0403 15:45:56.281522  3589 net.cpp:156] Memory required for data: 1033209120
I0403 15:45:56.281548  3589 layer_factory.hpp:77] Creating layer inception_4c/3x3_reduce
I0403 15:45:56.281579  3589 net.cpp:91] Creating Layer inception_4c/3x3_reduce
I0403 15:45:56.281597  3589 net.cpp:425] inception_4c/3x3_reduce <- inception_4b/output_inception_4b/output_0_split_1
I0403 15:45:56.281622  3589 net.cpp:399] inception_4c/3x3_reduce -> inception_4c/3x3_reduce
I0403 15:45:56.283731  3589 net.cpp:141] Setting up inception_4c/3x3_reduce
I0403 15:45:56.283764  3589 net.cpp:148] Top shape: 24 128 14 14 (602112)
I0403 15:45:56.283785  3589 net.cpp:156] Memory required for data: 1035617568
I0403 15:45:56.283809  3589 layer_factory.hpp:77] Creating layer inception_4c/relu_3x3_reduce
I0403 15:45:56.283843  3589 net.cpp:91] Creating Layer inception_4c/relu_3x3_reduce
I0403 15:45:56.283862  3589 net.cpp:425] inception_4c/relu_3x3_reduce <- inception_4c/3x3_reduce
I0403 15:45:56.283881  3589 net.cpp:386] inception_4c/relu_3x3_reduce -> inception_4c/3x3_reduce (in-place)
I0403 15:45:56.284195  3589 net.cpp:141] Setting up inception_4c/relu_3x3_reduce
I0403 15:45:56.284225  3589 net.cpp:148] Top shape: 24 128 14 14 (602112)
I0403 15:45:56.284246  3589 net.cpp:156] Memory required for data: 1038026016
I0403 15:45:56.284265  3589 layer_factory.hpp:77] Creating layer inception_4c/3x3
I0403 15:45:56.284288  3589 net.cpp:91] Creating Layer inception_4c/3x3
I0403 15:45:56.284318  3589 net.cpp:425] inception_4c/3x3 <- inception_4c/3x3_reduce
I0403 15:45:56.284345  3589 net.cpp:399] inception_4c/3x3 -> inception_4c/3x3
I0403 15:45:56.288233  3589 net.cpp:141] Setting up inception_4c/3x3
I0403 15:45:56.288281  3589 net.cpp:148] Top shape: 24 256 14 14 (1204224)
I0403 15:45:56.288300  3589 net.cpp:156] Memory required for data: 1042842912
I0403 15:45:56.288336  3589 layer_factory.hpp:77] Creating layer inception_4c/relu_3x3
I0403 15:45:56.288359  3589 net.cpp:91] Creating Layer inception_4c/relu_3x3
I0403 15:45:56.288379  3589 net.cpp:425] inception_4c/relu_3x3 <- inception_4c/3x3
I0403 15:45:56.288398  3589 net.cpp:386] inception_4c/relu_3x3 -> inception_4c/3x3 (in-place)
I0403 15:45:56.288588  3589 net.cpp:141] Setting up inception_4c/relu_3x3
I0403 15:45:56.288614  3589 net.cpp:148] Top shape: 24 256 14 14 (1204224)
I0403 15:45:56.288630  3589 net.cpp:156] Memory required for data: 1047659808
I0403 15:45:56.288645  3589 layer_factory.hpp:77] Creating layer inception_4c/5x5_reduce
I0403 15:45:56.288671  3589 net.cpp:91] Creating Layer inception_4c/5x5_reduce
I0403 15:45:56.288689  3589 net.cpp:425] inception_4c/5x5_reduce <- inception_4b/output_inception_4b/output_0_split_2
I0403 15:45:56.288712  3589 net.cpp:399] inception_4c/5x5_reduce -> inception_4c/5x5_reduce
I0403 15:45:56.289868  3589 net.cpp:141] Setting up inception_4c/5x5_reduce
I0403 15:45:56.289908  3589 net.cpp:148] Top shape: 24 24 14 14 (112896)
I0403 15:45:56.289929  3589 net.cpp:156] Memory required for data: 1048111392
I0403 15:45:56.289955  3589 layer_factory.hpp:77] Creating layer inception_4c/relu_5x5_reduce
I0403 15:45:56.289981  3589 net.cpp:91] Creating Layer inception_4c/relu_5x5_reduce
I0403 15:45:56.290000  3589 net.cpp:425] inception_4c/relu_5x5_reduce <- inception_4c/5x5_reduce
I0403 15:45:56.290019  3589 net.cpp:386] inception_4c/relu_5x5_reduce -> inception_4c/5x5_reduce (in-place)
I0403 15:45:56.290230  3589 net.cpp:141] Setting up inception_4c/relu_5x5_reduce
I0403 15:45:56.290266  3589 net.cpp:148] Top shape: 24 24 14 14 (112896)
I0403 15:45:56.290284  3589 net.cpp:156] Memory required for data: 1048562976
I0403 15:45:56.290303  3589 layer_factory.hpp:77] Creating layer inception_4c/5x5
I0403 15:45:56.290335  3589 net.cpp:91] Creating Layer inception_4c/5x5
I0403 15:45:56.290355  3589 net.cpp:425] inception_4c/5x5 <- inception_4c/5x5_reduce
I0403 15:45:56.290375  3589 net.cpp:399] inception_4c/5x5 -> inception_4c/5x5
I0403 15:45:56.291700  3589 net.cpp:141] Setting up inception_4c/5x5
I0403 15:45:56.291738  3589 net.cpp:148] Top shape: 24 64 14 14 (301056)
I0403 15:45:56.291756  3589 net.cpp:156] Memory required for data: 1049767200
I0403 15:45:56.291779  3589 layer_factory.hpp:77] Creating layer inception_4c/relu_5x5
I0403 15:45:56.291798  3589 net.cpp:91] Creating Layer inception_4c/relu_5x5
I0403 15:45:56.291820  3589 net.cpp:425] inception_4c/relu_5x5 <- inception_4c/5x5
I0403 15:45:56.291847  3589 net.cpp:386] inception_4c/relu_5x5 -> inception_4c/5x5 (in-place)
I0403 15:45:56.292156  3589 net.cpp:141] Setting up inception_4c/relu_5x5
I0403 15:45:56.292191  3589 net.cpp:148] Top shape: 24 64 14 14 (301056)
I0403 15:45:56.292209  3589 net.cpp:156] Memory required for data: 1050971424
I0403 15:45:56.292225  3589 layer_factory.hpp:77] Creating layer inception_4c/pool
I0403 15:45:56.292256  3589 net.cpp:91] Creating Layer inception_4c/pool
I0403 15:45:56.292285  3589 net.cpp:425] inception_4c/pool <- inception_4b/output_inception_4b/output_0_split_3
I0403 15:45:56.292309  3589 net.cpp:399] inception_4c/pool -> inception_4c/pool
I0403 15:45:56.292381  3589 net.cpp:141] Setting up inception_4c/pool
I0403 15:45:56.292409  3589 net.cpp:148] Top shape: 24 512 14 14 (2408448)
I0403 15:45:56.292433  3589 net.cpp:156] Memory required for data: 1060605216
I0403 15:45:56.292453  3589 layer_factory.hpp:77] Creating layer inception_4c/pool_proj
I0403 15:45:56.292475  3589 net.cpp:91] Creating Layer inception_4c/pool_proj
I0403 15:45:56.292498  3589 net.cpp:425] inception_4c/pool_proj <- inception_4c/pool
I0403 15:45:56.292527  3589 net.cpp:399] inception_4c/pool_proj -> inception_4c/pool_proj
I0403 15:45:56.293818  3589 net.cpp:141] Setting up inception_4c/pool_proj
I0403 15:45:56.323307  3589 net.cpp:148] Top shape: 24 64 14 14 (301056)
I0403 15:45:56.323345  3589 net.cpp:156] Memory required for data: 1061809440
I0403 15:45:56.323369  3589 layer_factory.hpp:77] Creating layer inception_4c/relu_pool_proj
I0403 15:45:56.323403  3589 net.cpp:91] Creating Layer inception_4c/relu_pool_proj
I0403 15:45:56.323426  3589 net.cpp:425] inception_4c/relu_pool_proj <- inception_4c/pool_proj
I0403 15:45:56.323456  3589 net.cpp:386] inception_4c/relu_pool_proj -> inception_4c/pool_proj (in-place)
I0403 15:45:56.323686  3589 net.cpp:141] Setting up inception_4c/relu_pool_proj
I0403 15:45:56.323719  3589 net.cpp:148] Top shape: 24 64 14 14 (301056)
I0403 15:45:56.323752  3589 net.cpp:156] Memory required for data: 1063013664
I0403 15:45:56.323783  3589 layer_factory.hpp:77] Creating layer inception_4c/output
I0403 15:45:56.323807  3589 net.cpp:91] Creating Layer inception_4c/output
I0403 15:45:56.323823  3589 net.cpp:425] inception_4c/output <- inception_4c/1x1
I0403 15:45:56.323854  3589 net.cpp:425] inception_4c/output <- inception_4c/3x3
I0403 15:45:56.323871  3589 net.cpp:425] inception_4c/output <- inception_4c/5x5
I0403 15:45:56.323899  3589 net.cpp:425] inception_4c/output <- inception_4c/pool_proj
I0403 15:45:56.323920  3589 net.cpp:399] inception_4c/output -> inception_4c/output
I0403 15:45:56.323982  3589 net.cpp:141] Setting up inception_4c/output
I0403 15:45:56.324007  3589 net.cpp:148] Top shape: 24 512 14 14 (2408448)
I0403 15:45:56.324024  3589 net.cpp:156] Memory required for data: 1072647456
I0403 15:45:56.324051  3589 layer_factory.hpp:77] Creating layer inception_4c/output_inception_4c/output_0_split
I0403 15:45:56.324080  3589 net.cpp:91] Creating Layer inception_4c/output_inception_4c/output_0_split
I0403 15:45:56.324100  3589 net.cpp:425] inception_4c/output_inception_4c/output_0_split <- inception_4c/output
I0403 15:45:56.324126  3589 net.cpp:399] inception_4c/output_inception_4c/output_0_split -> inception_4c/output_inception_4c/output_0_split_0
I0403 15:45:56.324151  3589 net.cpp:399] inception_4c/output_inception_4c/output_0_split -> inception_4c/output_inception_4c/output_0_split_1
I0403 15:45:56.324177  3589 net.cpp:399] inception_4c/output_inception_4c/output_0_split -> inception_4c/output_inception_4c/output_0_split_2
I0403 15:45:56.324199  3589 net.cpp:399] inception_4c/output_inception_4c/output_0_split -> inception_4c/output_inception_4c/output_0_split_3
I0403 15:45:56.324326  3589 net.cpp:141] Setting up inception_4c/output_inception_4c/output_0_split
I0403 15:45:56.324367  3589 net.cpp:148] Top shape: 24 512 14 14 (2408448)
I0403 15:45:56.324385  3589 net.cpp:148] Top shape: 24 512 14 14 (2408448)
I0403 15:45:56.324410  3589 net.cpp:148] Top shape: 24 512 14 14 (2408448)
I0403 15:45:56.324427  3589 net.cpp:148] Top shape: 24 512 14 14 (2408448)
I0403 15:45:56.324442  3589 net.cpp:156] Memory required for data: 1111182624
I0403 15:45:56.324457  3589 layer_factory.hpp:77] Creating layer inception_4d/1x1
I0403 15:45:56.324492  3589 net.cpp:91] Creating Layer inception_4d/1x1
I0403 15:45:56.324515  3589 net.cpp:425] inception_4d/1x1 <- inception_4c/output_inception_4c/output_0_split_0
I0403 15:45:56.324544  3589 net.cpp:399] inception_4d/1x1 -> inception_4d/1x1
I0403 15:45:56.326051  3589 net.cpp:141] Setting up inception_4d/1x1
I0403 15:45:56.326081  3589 net.cpp:148] Top shape: 24 112 14 14 (526848)
I0403 15:45:56.326097  3589 net.cpp:156] Memory required for data: 1113290016
I0403 15:45:56.326117  3589 layer_factory.hpp:77] Creating layer inception_4d/relu_1x1
I0403 15:45:56.326136  3589 net.cpp:91] Creating Layer inception_4d/relu_1x1
I0403 15:45:56.326153  3589 net.cpp:425] inception_4d/relu_1x1 <- inception_4d/1x1
I0403 15:45:56.326174  3589 net.cpp:386] inception_4d/relu_1x1 -> inception_4d/1x1 (in-place)
I0403 15:45:56.326383  3589 net.cpp:141] Setting up inception_4d/relu_1x1
I0403 15:45:56.326411  3589 net.cpp:148] Top shape: 24 112 14 14 (526848)
I0403 15:45:56.326426  3589 net.cpp:156] Memory required for data: 1115397408
I0403 15:45:56.326443  3589 layer_factory.hpp:77] Creating layer inception_4d/3x3_reduce
I0403 15:45:56.326496  3589 net.cpp:91] Creating Layer inception_4d/3x3_reduce
I0403 15:45:56.326516  3589 net.cpp:425] inception_4d/3x3_reduce <- inception_4c/output_inception_4c/output_0_split_1
I0403 15:45:56.326552  3589 net.cpp:399] inception_4d/3x3_reduce -> inception_4d/3x3_reduce
I0403 15:45:56.328181  3589 net.cpp:141] Setting up inception_4d/3x3_reduce
I0403 15:45:56.328220  3589 net.cpp:148] Top shape: 24 144 14 14 (677376)
I0403 15:45:56.328248  3589 net.cpp:156] Memory required for data: 1118106912
I0403 15:45:56.328279  3589 layer_factory.hpp:77] Creating layer inception_4d/relu_3x3_reduce
I0403 15:45:56.328301  3589 net.cpp:91] Creating Layer inception_4d/relu_3x3_reduce
I0403 15:45:56.328326  3589 net.cpp:425] inception_4d/relu_3x3_reduce <- inception_4d/3x3_reduce
I0403 15:45:56.328352  3589 net.cpp:386] inception_4d/relu_3x3_reduce -> inception_4d/3x3_reduce (in-place)
I0403 15:45:56.328668  3589 net.cpp:141] Setting up inception_4d/relu_3x3_reduce
I0403 15:45:56.328702  3589 net.cpp:148] Top shape: 24 144 14 14 (677376)
I0403 15:45:56.328719  3589 net.cpp:156] Memory required for data: 1120816416
I0403 15:45:56.328735  3589 layer_factory.hpp:77] Creating layer inception_4d/3x3
I0403 15:45:56.328769  3589 net.cpp:91] Creating Layer inception_4d/3x3
I0403 15:45:56.328789  3589 net.cpp:425] inception_4d/3x3 <- inception_4d/3x3_reduce
I0403 15:45:56.328809  3589 net.cpp:399] inception_4d/3x3 -> inception_4d/3x3
I0403 15:45:56.333569  3589 net.cpp:141] Setting up inception_4d/3x3
I0403 15:45:56.333603  3589 net.cpp:148] Top shape: 24 288 14 14 (1354752)
I0403 15:45:56.333621  3589 net.cpp:156] Memory required for data: 1126235424
I0403 15:45:56.333647  3589 layer_factory.hpp:77] Creating layer inception_4d/relu_3x3
I0403 15:45:56.333665  3589 net.cpp:91] Creating Layer inception_4d/relu_3x3
I0403 15:45:56.333684  3589 net.cpp:425] inception_4d/relu_3x3 <- inception_4d/3x3
I0403 15:45:56.333706  3589 net.cpp:386] inception_4d/relu_3x3 -> inception_4d/3x3 (in-place)
I0403 15:45:56.333906  3589 net.cpp:141] Setting up inception_4d/relu_3x3
I0403 15:45:56.333932  3589 net.cpp:148] Top shape: 24 288 14 14 (1354752)
I0403 15:45:56.333947  3589 net.cpp:156] Memory required for data: 1131654432
I0403 15:45:56.333968  3589 layer_factory.hpp:77] Creating layer inception_4d/5x5_reduce
I0403 15:45:56.333997  3589 net.cpp:91] Creating Layer inception_4d/5x5_reduce
I0403 15:45:56.334020  3589 net.cpp:425] inception_4d/5x5_reduce <- inception_4c/output_inception_4c/output_0_split_2
I0403 15:45:56.334043  3589 net.cpp:399] inception_4d/5x5_reduce -> inception_4d/5x5_reduce
I0403 15:45:56.335281  3589 net.cpp:141] Setting up inception_4d/5x5_reduce
I0403 15:45:56.335311  3589 net.cpp:148] Top shape: 24 32 14 14 (150528)
I0403 15:45:56.335328  3589 net.cpp:156] Memory required for data: 1132256544
I0403 15:45:56.335347  3589 layer_factory.hpp:77] Creating layer inception_4d/relu_5x5_reduce
I0403 15:45:56.335366  3589 net.cpp:91] Creating Layer inception_4d/relu_5x5_reduce
I0403 15:45:56.335383  3589 net.cpp:425] inception_4d/relu_5x5_reduce <- inception_4d/5x5_reduce
I0403 15:45:56.335404  3589 net.cpp:386] inception_4d/relu_5x5_reduce -> inception_4d/5x5_reduce (in-place)
I0403 15:45:56.335598  3589 net.cpp:141] Setting up inception_4d/relu_5x5_reduce
I0403 15:45:56.335624  3589 net.cpp:148] Top shape: 24 32 14 14 (150528)
I0403 15:45:56.335640  3589 net.cpp:156] Memory required for data: 1132858656
I0403 15:45:56.335656  3589 layer_factory.hpp:77] Creating layer inception_4d/5x5
I0403 15:45:56.335680  3589 net.cpp:91] Creating Layer inception_4d/5x5
I0403 15:45:56.335698  3589 net.cpp:425] inception_4d/5x5 <- inception_4d/5x5_reduce
I0403 15:45:56.335721  3589 net.cpp:399] inception_4d/5x5 -> inception_4d/5x5
I0403 15:45:56.337288  3589 net.cpp:141] Setting up inception_4d/5x5
I0403 15:45:56.337318  3589 net.cpp:148] Top shape: 24 64 14 14 (301056)
I0403 15:45:56.337335  3589 net.cpp:156] Memory required for data: 1134062880
I0403 15:45:56.337357  3589 layer_factory.hpp:77] Creating layer inception_4d/relu_5x5
I0403 15:45:56.337400  3589 net.cpp:91] Creating Layer inception_4d/relu_5x5
I0403 15:45:56.337419  3589 net.cpp:425] inception_4d/relu_5x5 <- inception_4d/5x5
I0403 15:45:56.337438  3589 net.cpp:386] inception_4d/relu_5x5 -> inception_4d/5x5 (in-place)
I0403 15:45:56.337751  3589 net.cpp:141] Setting up inception_4d/relu_5x5
I0403 15:45:56.337782  3589 net.cpp:148] Top shape: 24 64 14 14 (301056)
I0403 15:45:56.337800  3589 net.cpp:156] Memory required for data: 1135267104
I0403 15:45:56.337824  3589 layer_factory.hpp:77] Creating layer inception_4d/pool
I0403 15:45:56.337857  3589 net.cpp:91] Creating Layer inception_4d/pool
I0403 15:45:56.337878  3589 net.cpp:425] inception_4d/pool <- inception_4c/output_inception_4c/output_0_split_3
I0403 15:45:56.337906  3589 net.cpp:399] inception_4d/pool -> inception_4d/pool
I0403 15:45:56.337980  3589 net.cpp:141] Setting up inception_4d/pool
I0403 15:45:56.338006  3589 net.cpp:148] Top shape: 24 512 14 14 (2408448)
I0403 15:45:56.338024  3589 net.cpp:156] Memory required for data: 1144900896
I0403 15:45:56.338040  3589 layer_factory.hpp:77] Creating layer inception_4d/pool_proj
I0403 15:45:56.338063  3589 net.cpp:91] Creating Layer inception_4d/pool_proj
I0403 15:45:56.338083  3589 net.cpp:425] inception_4d/pool_proj <- inception_4d/pool
I0403 15:45:56.338104  3589 net.cpp:399] inception_4d/pool_proj -> inception_4d/pool_proj
I0403 15:45:56.340018  3589 net.cpp:141] Setting up inception_4d/pool_proj
I0403 15:45:56.340049  3589 net.cpp:148] Top shape: 24 64 14 14 (301056)
I0403 15:45:56.340066  3589 net.cpp:156] Memory required for data: 1146105120
I0403 15:45:56.340087  3589 layer_factory.hpp:77] Creating layer inception_4d/relu_pool_proj
I0403 15:45:56.340107  3589 net.cpp:91] Creating Layer inception_4d/relu_pool_proj
I0403 15:45:56.340129  3589 net.cpp:425] inception_4d/relu_pool_proj <- inception_4d/pool_proj
I0403 15:45:56.340152  3589 net.cpp:386] inception_4d/relu_pool_proj -> inception_4d/pool_proj (in-place)
I0403 15:45:56.340353  3589 net.cpp:141] Setting up inception_4d/relu_pool_proj
I0403 15:45:56.340384  3589 net.cpp:148] Top shape: 24 64 14 14 (301056)
I0403 15:45:56.340409  3589 net.cpp:156] Memory required for data: 1147309344
I0403 15:45:56.340426  3589 layer_factory.hpp:77] Creating layer inception_4d/output
I0403 15:45:56.340445  3589 net.cpp:91] Creating Layer inception_4d/output
I0403 15:45:56.340461  3589 net.cpp:425] inception_4d/output <- inception_4d/1x1
I0403 15:45:56.340482  3589 net.cpp:425] inception_4d/output <- inception_4d/3x3
I0403 15:45:56.340502  3589 net.cpp:425] inception_4d/output <- inception_4d/5x5
I0403 15:45:56.340518  3589 net.cpp:425] inception_4d/output <- inception_4d/pool_proj
I0403 15:45:56.340536  3589 net.cpp:399] inception_4d/output -> inception_4d/output
I0403 15:45:56.340589  3589 net.cpp:141] Setting up inception_4d/output
I0403 15:45:56.340615  3589 net.cpp:148] Top shape: 24 528 14 14 (2483712)
I0403 15:45:56.340641  3589 net.cpp:156] Memory required for data: 1157244192
I0403 15:45:56.340657  3589 layer_factory.hpp:77] Creating layer inception_4d/output_inception_4d/output_0_split
I0403 15:45:56.340677  3589 net.cpp:91] Creating Layer inception_4d/output_inception_4d/output_0_split
I0403 15:45:56.340694  3589 net.cpp:425] inception_4d/output_inception_4d/output_0_split <- inception_4d/output
I0403 15:45:56.340718  3589 net.cpp:399] inception_4d/output_inception_4d/output_0_split -> inception_4d/output_inception_4d/output_0_split_0
I0403 15:45:56.340740  3589 net.cpp:399] inception_4d/output_inception_4d/output_0_split -> inception_4d/output_inception_4d/output_0_split_1
I0403 15:45:56.340765  3589 net.cpp:399] inception_4d/output_inception_4d/output_0_split -> inception_4d/output_inception_4d/output_0_split_2
I0403 15:45:56.340788  3589 net.cpp:399] inception_4d/output_inception_4d/output_0_split -> inception_4d/output_inception_4d/output_0_split_3
I0403 15:45:56.340811  3589 net.cpp:399] inception_4d/output_inception_4d/output_0_split -> inception_4d/output_inception_4d/output_0_split_4
I0403 15:45:56.340927  3589 net.cpp:141] Setting up inception_4d/output_inception_4d/output_0_split
I0403 15:45:56.340970  3589 net.cpp:148] Top shape: 24 528 14 14 (2483712)
I0403 15:45:56.340988  3589 net.cpp:148] Top shape: 24 528 14 14 (2483712)
I0403 15:45:56.341006  3589 net.cpp:148] Top shape: 24 528 14 14 (2483712)
I0403 15:45:56.341023  3589 net.cpp:148] Top shape: 24 528 14 14 (2483712)
I0403 15:45:56.341042  3589 net.cpp:148] Top shape: 24 528 14 14 (2483712)
I0403 15:45:56.341066  3589 net.cpp:156] Memory required for data: 1206918432
I0403 15:45:56.341084  3589 layer_factory.hpp:77] Creating layer loss2/ave_pool
I0403 15:45:56.341102  3589 net.cpp:91] Creating Layer loss2/ave_pool
I0403 15:45:56.341122  3589 net.cpp:425] loss2/ave_pool <- inception_4d/output_inception_4d/output_0_split_0
I0403 15:45:56.341150  3589 net.cpp:399] loss2/ave_pool -> loss2/ave_pool
I0403 15:45:56.341509  3589 net.cpp:141] Setting up loss2/ave_pool
I0403 15:45:56.341541  3589 net.cpp:148] Top shape: 24 528 4 4 (202752)
I0403 15:45:56.341558  3589 net.cpp:156] Memory required for data: 1207729440
I0403 15:45:56.341575  3589 layer_factory.hpp:77] Creating layer loss2/conv
I0403 15:45:56.341599  3589 net.cpp:91] Creating Layer loss2/conv
I0403 15:45:56.341619  3589 net.cpp:425] loss2/conv <- loss2/ave_pool
I0403 15:45:56.341650  3589 net.cpp:399] loss2/conv -> loss2/conv
I0403 15:45:56.343698  3589 net.cpp:141] Setting up loss2/conv
I0403 15:45:56.343734  3589 net.cpp:148] Top shape: 24 128 4 4 (49152)
I0403 15:45:56.343755  3589 net.cpp:156] Memory required for data: 1207926048
I0403 15:45:56.343783  3589 layer_factory.hpp:77] Creating layer loss2/relu_conv
I0403 15:45:56.343806  3589 net.cpp:91] Creating Layer loss2/relu_conv
I0403 15:45:56.343830  3589 net.cpp:425] loss2/relu_conv <- loss2/conv
I0403 15:45:56.343859  3589 net.cpp:386] loss2/relu_conv -> loss2/conv (in-place)
I0403 15:45:56.344161  3589 net.cpp:141] Setting up loss2/relu_conv
I0403 15:45:56.344194  3589 net.cpp:148] Top shape: 24 128 4 4 (49152)
I0403 15:45:56.344219  3589 net.cpp:156] Memory required for data: 1208122656
I0403 15:45:56.344247  3589 layer_factory.hpp:77] Creating layer loss2/fc
I0403 15:45:56.344280  3589 net.cpp:91] Creating Layer loss2/fc
I0403 15:45:56.344303  3589 net.cpp:425] loss2/fc <- loss2/conv
I0403 15:45:56.344336  3589 net.cpp:399] loss2/fc -> loss2/fc
I0403 15:45:56.363596  3589 net.cpp:141] Setting up loss2/fc
I0403 15:45:56.383821  3589 net.cpp:148] Top shape: 24 1024 (24576)
I0403 15:45:56.383849  3589 net.cpp:156] Memory required for data: 1208220960
I0403 15:45:56.383875  3589 layer_factory.hpp:77] Creating layer loss2/relu_fc
I0403 15:45:56.383908  3589 net.cpp:91] Creating Layer loss2/relu_fc
I0403 15:45:56.383925  3589 net.cpp:425] loss2/relu_fc <- loss2/fc
I0403 15:45:56.383949  3589 net.cpp:386] loss2/relu_fc -> loss2/fc (in-place)
I0403 15:45:56.384349  3589 net.cpp:141] Setting up loss2/relu_fc
I0403 15:45:56.384378  3589 net.cpp:148] Top shape: 24 1024 (24576)
I0403 15:45:56.384413  3589 net.cpp:156] Memory required for data: 1208319264
I0403 15:45:56.384439  3589 layer_factory.hpp:77] Creating layer loss2/drop_fc
I0403 15:45:56.384480  3589 net.cpp:91] Creating Layer loss2/drop_fc
I0403 15:45:56.384501  3589 net.cpp:425] loss2/drop_fc <- loss2/fc
I0403 15:45:56.384522  3589 net.cpp:386] loss2/drop_fc -> loss2/fc (in-place)
I0403 15:45:56.384582  3589 net.cpp:141] Setting up loss2/drop_fc
I0403 15:45:56.384614  3589 net.cpp:148] Top shape: 24 1024 (24576)
I0403 15:45:56.384630  3589 net.cpp:156] Memory required for data: 1208417568
I0403 15:45:56.384652  3589 layer_factory.hpp:77] Creating layer loss2/classifier_plantvillage
I0403 15:45:56.384678  3589 net.cpp:91] Creating Layer loss2/classifier_plantvillage
I0403 15:45:56.384698  3589 net.cpp:425] loss2/classifier_plantvillage <- loss2/fc
I0403 15:45:56.384728  3589 net.cpp:399] loss2/classifier_plantvillage -> loss2/classifier_plantvillage
I0403 15:45:56.385154  3589 net.cpp:141] Setting up loss2/classifier_plantvillage
I0403 15:45:56.385185  3589 net.cpp:148] Top shape: 24 38 (912)
I0403 15:45:56.385236  3589 net.cpp:156] Memory required for data: 1208421216
I0403 15:45:56.385284  3589 layer_factory.hpp:77] Creating layer loss2/classifier_plantvillage_loss2/classifier_plantvillage_0_split
I0403 15:45:56.385311  3589 net.cpp:91] Creating Layer loss2/classifier_plantvillage_loss2/classifier_plantvillage_0_split
I0403 15:45:56.385330  3589 net.cpp:425] loss2/classifier_plantvillage_loss2/classifier_plantvillage_0_split <- loss2/classifier_plantvillage
I0403 15:45:56.385349  3589 net.cpp:399] loss2/classifier_plantvillage_loss2/classifier_plantvillage_0_split -> loss2/classifier_plantvillage_loss2/classifier_plantvillage_0_split_0
I0403 15:45:56.385373  3589 net.cpp:399] loss2/classifier_plantvillage_loss2/classifier_plantvillage_0_split -> loss2/classifier_plantvillage_loss2/classifier_plantvillage_0_split_1
I0403 15:45:56.385397  3589 net.cpp:399] loss2/classifier_plantvillage_loss2/classifier_plantvillage_0_split -> loss2/classifier_plantvillage_loss2/classifier_plantvillage_0_split_2
I0403 15:45:56.385479  3589 net.cpp:141] Setting up loss2/classifier_plantvillage_loss2/classifier_plantvillage_0_split
I0403 15:45:56.385526  3589 net.cpp:148] Top shape: 24 38 (912)
I0403 15:45:56.385543  3589 net.cpp:148] Top shape: 24 38 (912)
I0403 15:45:56.385560  3589 net.cpp:148] Top shape: 24 38 (912)
I0403 15:45:56.385576  3589 net.cpp:156] Memory required for data: 1208432160
I0403 15:45:56.385596  3589 layer_factory.hpp:77] Creating layer inception_4e/1x1
I0403 15:45:56.385627  3589 net.cpp:91] Creating Layer inception_4e/1x1
I0403 15:45:56.385658  3589 net.cpp:425] inception_4e/1x1 <- inception_4d/output_inception_4d/output_0_split_1
I0403 15:45:56.385679  3589 net.cpp:399] inception_4e/1x1 -> inception_4e/1x1
I0403 15:45:56.387678  3589 net.cpp:141] Setting up inception_4e/1x1
I0403 15:45:56.387708  3589 net.cpp:148] Top shape: 24 256 14 14 (1204224)
I0403 15:45:56.387729  3589 net.cpp:156] Memory required for data: 1213249056
I0403 15:45:56.387750  3589 layer_factory.hpp:77] Creating layer inception_4e/relu_1x1
I0403 15:45:56.387770  3589 net.cpp:91] Creating Layer inception_4e/relu_1x1
I0403 15:45:56.387795  3589 net.cpp:425] inception_4e/relu_1x1 <- inception_4e/1x1
I0403 15:45:56.387817  3589 net.cpp:386] inception_4e/relu_1x1 -> inception_4e/1x1 (in-place)
I0403 15:45:56.388130  3589 net.cpp:141] Setting up inception_4e/relu_1x1
I0403 15:45:56.388164  3589 net.cpp:148] Top shape: 24 256 14 14 (1204224)
I0403 15:45:56.388183  3589 net.cpp:156] Memory required for data: 1218065952
I0403 15:45:56.388200  3589 layer_factory.hpp:77] Creating layer inception_4e/3x3_reduce
I0403 15:45:56.388221  3589 net.cpp:91] Creating Layer inception_4e/3x3_reduce
I0403 15:45:56.388243  3589 net.cpp:425] inception_4e/3x3_reduce <- inception_4d/output_inception_4d/output_0_split_2
I0403 15:45:56.388268  3589 net.cpp:399] inception_4e/3x3_reduce -> inception_4e/3x3_reduce
I0403 15:45:56.390667  3589 net.cpp:141] Setting up inception_4e/3x3_reduce
I0403 15:45:56.390699  3589 net.cpp:148] Top shape: 24 160 14 14 (752640)
I0403 15:45:56.390717  3589 net.cpp:156] Memory required for data: 1221076512
I0403 15:45:56.390736  3589 layer_factory.hpp:77] Creating layer inception_4e/relu_3x3_reduce
I0403 15:45:56.390758  3589 net.cpp:91] Creating Layer inception_4e/relu_3x3_reduce
I0403 15:45:56.390777  3589 net.cpp:425] inception_4e/relu_3x3_reduce <- inception_4e/3x3_reduce
I0403 15:45:56.390800  3589 net.cpp:386] inception_4e/relu_3x3_reduce -> inception_4e/3x3_reduce (in-place)
I0403 15:45:56.391027  3589 net.cpp:141] Setting up inception_4e/relu_3x3_reduce
I0403 15:45:56.391068  3589 net.cpp:148] Top shape: 24 160 14 14 (752640)
I0403 15:45:56.391096  3589 net.cpp:156] Memory required for data: 1224087072
I0403 15:45:56.391115  3589 layer_factory.hpp:77] Creating layer inception_4e/3x3
I0403 15:45:56.391139  3589 net.cpp:91] Creating Layer inception_4e/3x3
I0403 15:45:56.391156  3589 net.cpp:425] inception_4e/3x3 <- inception_4e/3x3_reduce
I0403 15:45:56.391176  3589 net.cpp:399] inception_4e/3x3 -> inception_4e/3x3
I0403 15:45:56.396642  3589 net.cpp:141] Setting up inception_4e/3x3
I0403 15:45:56.396690  3589 net.cpp:148] Top shape: 24 320 14 14 (1505280)
I0403 15:45:56.396709  3589 net.cpp:156] Memory required for data: 1230108192
I0403 15:45:56.396728  3589 layer_factory.hpp:77] Creating layer inception_4e/relu_3x3
I0403 15:45:56.396750  3589 net.cpp:91] Creating Layer inception_4e/relu_3x3
I0403 15:45:56.396770  3589 net.cpp:425] inception_4e/relu_3x3 <- inception_4e/3x3
I0403 15:45:56.396793  3589 net.cpp:386] inception_4e/relu_3x3 -> inception_4e/3x3 (in-place)
I0403 15:45:56.397142  3589 net.cpp:141] Setting up inception_4e/relu_3x3
I0403 15:45:56.397171  3589 net.cpp:148] Top shape: 24 320 14 14 (1505280)
I0403 15:45:56.397202  3589 net.cpp:156] Memory required for data: 1236129312
I0403 15:45:56.397219  3589 layer_factory.hpp:77] Creating layer inception_4e/5x5_reduce
I0403 15:45:56.397274  3589 net.cpp:91] Creating Layer inception_4e/5x5_reduce
I0403 15:45:56.397295  3589 net.cpp:425] inception_4e/5x5_reduce <- inception_4d/output_inception_4d/output_0_split_3
I0403 15:45:56.397320  3589 net.cpp:399] inception_4e/5x5_reduce -> inception_4e/5x5_reduce
I0403 15:45:56.398448  3589 net.cpp:141] Setting up inception_4e/5x5_reduce
I0403 15:45:56.398478  3589 net.cpp:148] Top shape: 24 32 14 14 (150528)
I0403 15:45:56.398495  3589 net.cpp:156] Memory required for data: 1236731424
I0403 15:45:56.398515  3589 layer_factory.hpp:77] Creating layer inception_4e/relu_5x5_reduce
I0403 15:45:56.398536  3589 net.cpp:91] Creating Layer inception_4e/relu_5x5_reduce
I0403 15:45:56.398555  3589 net.cpp:425] inception_4e/relu_5x5_reduce <- inception_4e/5x5_reduce
I0403 15:45:56.398574  3589 net.cpp:386] inception_4e/relu_5x5_reduce -> inception_4e/5x5_reduce (in-place)
I0403 15:45:56.398890  3589 net.cpp:141] Setting up inception_4e/relu_5x5_reduce
I0403 15:45:56.398917  3589 net.cpp:148] Top shape: 24 32 14 14 (150528)
I0403 15:45:56.398934  3589 net.cpp:156] Memory required for data: 1237333536
I0403 15:45:56.398952  3589 layer_factory.hpp:77] Creating layer inception_4e/5x5
I0403 15:45:56.398995  3589 net.cpp:91] Creating Layer inception_4e/5x5
I0403 15:45:56.399018  3589 net.cpp:425] inception_4e/5x5 <- inception_4e/5x5_reduce
I0403 15:45:56.399039  3589 net.cpp:399] inception_4e/5x5 -> inception_4e/5x5
I0403 15:45:56.400995  3589 net.cpp:141] Setting up inception_4e/5x5
I0403 15:45:56.401026  3589 net.cpp:148] Top shape: 24 128 14 14 (602112)
I0403 15:45:56.401042  3589 net.cpp:156] Memory required for data: 1239741984
I0403 15:45:56.401063  3589 layer_factory.hpp:77] Creating layer inception_4e/relu_5x5
I0403 15:45:56.401087  3589 net.cpp:91] Creating Layer inception_4e/relu_5x5
I0403 15:45:56.401108  3589 net.cpp:425] inception_4e/relu_5x5 <- inception_4e/5x5
I0403 15:45:56.401134  3589 net.cpp:386] inception_4e/relu_5x5 -> inception_4e/5x5 (in-place)
I0403 15:45:56.401353  3589 net.cpp:141] Setting up inception_4e/relu_5x5
I0403 15:45:56.401382  3589 net.cpp:148] Top shape: 24 128 14 14 (602112)
I0403 15:45:56.401403  3589 net.cpp:156] Memory required for data: 1242150432
I0403 15:45:56.401419  3589 layer_factory.hpp:77] Creating layer inception_4e/pool
I0403 15:45:56.401442  3589 net.cpp:91] Creating Layer inception_4e/pool
I0403 15:45:56.401459  3589 net.cpp:425] inception_4e/pool <- inception_4d/output_inception_4d/output_0_split_4
I0403 15:45:56.401486  3589 net.cpp:399] inception_4e/pool -> inception_4e/pool
I0403 15:45:56.401561  3589 net.cpp:141] Setting up inception_4e/pool
I0403 15:45:56.401589  3589 net.cpp:148] Top shape: 24 528 14 14 (2483712)
I0403 15:45:56.401614  3589 net.cpp:156] Memory required for data: 1252085280
I0403 15:45:56.401641  3589 layer_factory.hpp:77] Creating layer inception_4e/pool_proj
I0403 15:45:56.401665  3589 net.cpp:91] Creating Layer inception_4e/pool_proj
I0403 15:45:56.401684  3589 net.cpp:425] inception_4e/pool_proj <- inception_4e/pool
I0403 15:45:56.401706  3589 net.cpp:399] inception_4e/pool_proj -> inception_4e/pool_proj
I0403 15:45:56.403309  3589 net.cpp:141] Setting up inception_4e/pool_proj
I0403 15:45:56.403352  3589 net.cpp:148] Top shape: 24 128 14 14 (602112)
I0403 15:45:56.403369  3589 net.cpp:156] Memory required for data: 1254493728
I0403 15:45:56.403388  3589 layer_factory.hpp:77] Creating layer inception_4e/relu_pool_proj
I0403 15:45:56.403409  3589 net.cpp:91] Creating Layer inception_4e/relu_pool_proj
I0403 15:45:56.403429  3589 net.cpp:425] inception_4e/relu_pool_proj <- inception_4e/pool_proj
I0403 15:45:56.403450  3589 net.cpp:386] inception_4e/relu_pool_proj -> inception_4e/pool_proj (in-place)
I0403 15:45:56.403764  3589 net.cpp:141] Setting up inception_4e/relu_pool_proj
I0403 15:45:56.403792  3589 net.cpp:148] Top shape: 24 128 14 14 (602112)
I0403 15:45:56.403817  3589 net.cpp:156] Memory required for data: 1256902176
I0403 15:45:56.403843  3589 layer_factory.hpp:77] Creating layer inception_4e/output
I0403 15:45:56.403863  3589 net.cpp:91] Creating Layer inception_4e/output
I0403 15:45:56.403882  3589 net.cpp:425] inception_4e/output <- inception_4e/1x1
I0403 15:45:56.403899  3589 net.cpp:425] inception_4e/output <- inception_4e/3x3
I0403 15:45:56.403916  3589 net.cpp:425] inception_4e/output <- inception_4e/5x5
I0403 15:45:56.403934  3589 net.cpp:425] inception_4e/output <- inception_4e/pool_proj
I0403 15:45:56.403954  3589 net.cpp:399] inception_4e/output -> inception_4e/output
I0403 15:45:56.404006  3589 net.cpp:141] Setting up inception_4e/output
I0403 15:45:56.404033  3589 net.cpp:148] Top shape: 24 832 14 14 (3913728)
I0403 15:45:56.404049  3589 net.cpp:156] Memory required for data: 1272557088
I0403 15:45:56.404065  3589 layer_factory.hpp:77] Creating layer pool4/3x3_s2
I0403 15:45:56.404084  3589 net.cpp:91] Creating Layer pool4/3x3_s2
I0403 15:45:56.404100  3589 net.cpp:425] pool4/3x3_s2 <- inception_4e/output
I0403 15:45:56.404125  3589 net.cpp:399] pool4/3x3_s2 -> pool4/3x3_s2
I0403 15:45:56.404206  3589 net.cpp:141] Setting up pool4/3x3_s2
I0403 15:45:56.404232  3589 net.cpp:148] Top shape: 24 832 7 7 (978432)
I0403 15:45:56.404255  3589 net.cpp:156] Memory required for data: 1276470816
I0403 15:45:56.404271  3589 layer_factory.hpp:77] Creating layer pool4/3x3_s2_pool4/3x3_s2_0_split
I0403 15:45:56.404292  3589 net.cpp:91] Creating Layer pool4/3x3_s2_pool4/3x3_s2_0_split
I0403 15:45:56.404310  3589 net.cpp:425] pool4/3x3_s2_pool4/3x3_s2_0_split <- pool4/3x3_s2
I0403 15:45:56.404330  3589 net.cpp:399] pool4/3x3_s2_pool4/3x3_s2_0_split -> pool4/3x3_s2_pool4/3x3_s2_0_split_0
I0403 15:45:56.404350  3589 net.cpp:399] pool4/3x3_s2_pool4/3x3_s2_0_split -> pool4/3x3_s2_pool4/3x3_s2_0_split_1
I0403 15:45:56.404371  3589 net.cpp:399] pool4/3x3_s2_pool4/3x3_s2_0_split -> pool4/3x3_s2_pool4/3x3_s2_0_split_2
I0403 15:45:56.404394  3589 net.cpp:399] pool4/3x3_s2_pool4/3x3_s2_0_split -> pool4/3x3_s2_pool4/3x3_s2_0_split_3
I0403 15:45:56.404500  3589 net.cpp:141] Setting up pool4/3x3_s2_pool4/3x3_s2_0_split
I0403 15:45:56.404525  3589 net.cpp:148] Top shape: 24 832 7 7 (978432)
I0403 15:45:56.404543  3589 net.cpp:148] Top shape: 24 832 7 7 (978432)
I0403 15:45:56.404561  3589 net.cpp:148] Top shape: 24 832 7 7 (978432)
I0403 15:45:56.404577  3589 net.cpp:148] Top shape: 24 832 7 7 (978432)
I0403 15:45:56.404592  3589 net.cpp:156] Memory required for data: 1292125728
I0403 15:45:56.404608  3589 layer_factory.hpp:77] Creating layer inception_5a/1x1
I0403 15:45:56.404633  3589 net.cpp:91] Creating Layer inception_5a/1x1
I0403 15:45:56.404654  3589 net.cpp:425] inception_5a/1x1 <- pool4/3x3_s2_pool4/3x3_s2_0_split_0
I0403 15:45:56.404676  3589 net.cpp:399] inception_5a/1x1 -> inception_5a/1x1
I0403 15:45:56.407723  3589 net.cpp:141] Setting up inception_5a/1x1
I0403 15:45:56.407757  3589 net.cpp:148] Top shape: 24 256 7 7 (301056)
I0403 15:45:56.407779  3589 net.cpp:156] Memory required for data: 1293329952
I0403 15:45:56.407799  3589 layer_factory.hpp:77] Creating layer inception_5a/relu_1x1
I0403 15:45:56.407820  3589 net.cpp:91] Creating Layer inception_5a/relu_1x1
I0403 15:45:56.407838  3589 net.cpp:425] inception_5a/relu_1x1 <- inception_5a/1x1
I0403 15:45:56.407858  3589 net.cpp:386] inception_5a/relu_1x1 -> inception_5a/1x1 (in-place)
I0403 15:45:56.408190  3589 net.cpp:141] Setting up inception_5a/relu_1x1
I0403 15:45:56.408217  3589 net.cpp:148] Top shape: 24 256 7 7 (301056)
I0403 15:45:56.408234  3589 net.cpp:156] Memory required for data: 1294534176
I0403 15:45:56.408257  3589 layer_factory.hpp:77] Creating layer inception_5a/3x3_reduce
I0403 15:45:56.408282  3589 net.cpp:91] Creating Layer inception_5a/3x3_reduce
I0403 15:45:56.408305  3589 net.cpp:425] inception_5a/3x3_reduce <- pool4/3x3_s2_pool4/3x3_s2_0_split_1
I0403 15:45:56.408329  3589 net.cpp:399] inception_5a/3x3_reduce -> inception_5a/3x3_reduce
I0403 15:45:56.410976  3589 net.cpp:141] Setting up inception_5a/3x3_reduce
I0403 15:45:56.411010  3589 net.cpp:148] Top shape: 24 160 7 7 (188160)
I0403 15:45:56.411028  3589 net.cpp:156] Memory required for data: 1295286816
I0403 15:45:56.411047  3589 layer_factory.hpp:77] Creating layer inception_5a/relu_3x3_reduce
I0403 15:45:56.411068  3589 net.cpp:91] Creating Layer inception_5a/relu_3x3_reduce
I0403 15:45:56.411085  3589 net.cpp:425] inception_5a/relu_3x3_reduce <- inception_5a/3x3_reduce
I0403 15:45:56.411113  3589 net.cpp:386] inception_5a/relu_3x3_reduce -> inception_5a/3x3_reduce (in-place)
I0403 15:45:56.411315  3589 net.cpp:141] Setting up inception_5a/relu_3x3_reduce
I0403 15:45:56.411342  3589 net.cpp:148] Top shape: 24 160 7 7 (188160)
I0403 15:45:56.411360  3589 net.cpp:156] Memory required for data: 1296039456
I0403 15:45:56.411383  3589 layer_factory.hpp:77] Creating layer inception_5a/3x3
I0403 15:45:56.411411  3589 net.cpp:91] Creating Layer inception_5a/3x3
I0403 15:45:56.411429  3589 net.cpp:425] inception_5a/3x3 <- inception_5a/3x3_reduce
I0403 15:45:56.411454  3589 net.cpp:399] inception_5a/3x3 -> inception_5a/3x3
I0403 15:45:56.416966  3589 net.cpp:141] Setting up inception_5a/3x3
I0403 15:45:56.441809  3589 net.cpp:148] Top shape: 24 320 7 7 (376320)
I0403 15:45:56.441836  3589 net.cpp:156] Memory required for data: 1297544736
I0403 15:45:56.441860  3589 layer_factory.hpp:77] Creating layer inception_5a/relu_3x3
I0403 15:45:56.441884  3589 net.cpp:91] Creating Layer inception_5a/relu_3x3
I0403 15:45:56.441903  3589 net.cpp:425] inception_5a/relu_3x3 <- inception_5a/3x3
I0403 15:45:56.441922  3589 net.cpp:386] inception_5a/relu_3x3 -> inception_5a/3x3 (in-place)
I0403 15:45:56.442272  3589 net.cpp:141] Setting up inception_5a/relu_3x3
I0403 15:45:56.442306  3589 net.cpp:148] Top shape: 24 320 7 7 (376320)
I0403 15:45:56.442327  3589 net.cpp:156] Memory required for data: 1299050016
I0403 15:45:56.442347  3589 layer_factory.hpp:77] Creating layer inception_5a/5x5_reduce
I0403 15:45:56.442371  3589 net.cpp:91] Creating Layer inception_5a/5x5_reduce
I0403 15:45:56.442390  3589 net.cpp:425] inception_5a/5x5_reduce <- pool4/3x3_s2_pool4/3x3_s2_0_split_2
I0403 15:45:56.442414  3589 net.cpp:399] inception_5a/5x5_reduce -> inception_5a/5x5_reduce
I0403 15:45:56.443696  3589 net.cpp:141] Setting up inception_5a/5x5_reduce
I0403 15:45:56.443730  3589 net.cpp:148] Top shape: 24 32 7 7 (37632)
I0403 15:45:56.443748  3589 net.cpp:156] Memory required for data: 1299200544
I0403 15:45:56.443769  3589 layer_factory.hpp:77] Creating layer inception_5a/relu_5x5_reduce
I0403 15:45:56.443797  3589 net.cpp:91] Creating Layer inception_5a/relu_5x5_reduce
I0403 15:45:56.443816  3589 net.cpp:425] inception_5a/relu_5x5_reduce <- inception_5a/5x5_reduce
I0403 15:45:56.443835  3589 net.cpp:386] inception_5a/relu_5x5_reduce -> inception_5a/5x5_reduce (in-place)
I0403 15:45:56.444156  3589 net.cpp:141] Setting up inception_5a/relu_5x5_reduce
I0403 15:45:56.444185  3589 net.cpp:148] Top shape: 24 32 7 7 (37632)
I0403 15:45:56.444202  3589 net.cpp:156] Memory required for data: 1299351072
I0403 15:45:56.444218  3589 layer_factory.hpp:77] Creating layer inception_5a/5x5
I0403 15:45:56.444247  3589 net.cpp:91] Creating Layer inception_5a/5x5
I0403 15:45:56.444267  3589 net.cpp:425] inception_5a/5x5 <- inception_5a/5x5_reduce
I0403 15:45:56.444291  3589 net.cpp:399] inception_5a/5x5 -> inception_5a/5x5
I0403 15:45:56.446131  3589 net.cpp:141] Setting up inception_5a/5x5
I0403 15:45:56.446180  3589 net.cpp:148] Top shape: 24 128 7 7 (150528)
I0403 15:45:56.446202  3589 net.cpp:156] Memory required for data: 1299953184
I0403 15:45:56.446231  3589 layer_factory.hpp:77] Creating layer inception_5a/relu_5x5
I0403 15:45:56.446317  3589 net.cpp:91] Creating Layer inception_5a/relu_5x5
I0403 15:45:56.446337  3589 net.cpp:425] inception_5a/relu_5x5 <- inception_5a/5x5
I0403 15:45:56.446357  3589 net.cpp:386] inception_5a/relu_5x5 -> inception_5a/5x5 (in-place)
I0403 15:45:56.446560  3589 net.cpp:141] Setting up inception_5a/relu_5x5
I0403 15:45:56.446601  3589 net.cpp:148] Top shape: 24 128 7 7 (150528)
I0403 15:45:56.446619  3589 net.cpp:156] Memory required for data: 1300555296
I0403 15:45:56.446635  3589 layer_factory.hpp:77] Creating layer inception_5a/pool
I0403 15:45:56.446656  3589 net.cpp:91] Creating Layer inception_5a/pool
I0403 15:45:56.446674  3589 net.cpp:425] inception_5a/pool <- pool4/3x3_s2_pool4/3x3_s2_0_split_3
I0403 15:45:56.446696  3589 net.cpp:399] inception_5a/pool -> inception_5a/pool
I0403 15:45:56.446771  3589 net.cpp:141] Setting up inception_5a/pool
I0403 15:45:56.446797  3589 net.cpp:148] Top shape: 24 832 7 7 (978432)
I0403 15:45:56.446813  3589 net.cpp:156] Memory required for data: 1304469024
I0403 15:45:56.446830  3589 layer_factory.hpp:77] Creating layer inception_5a/pool_proj
I0403 15:45:56.446853  3589 net.cpp:91] Creating Layer inception_5a/pool_proj
I0403 15:45:56.446872  3589 net.cpp:425] inception_5a/pool_proj <- inception_5a/pool
I0403 15:45:56.446895  3589 net.cpp:399] inception_5a/pool_proj -> inception_5a/pool_proj
I0403 15:45:56.449342  3589 net.cpp:141] Setting up inception_5a/pool_proj
I0403 15:45:56.449379  3589 net.cpp:148] Top shape: 24 128 7 7 (150528)
I0403 15:45:56.449404  3589 net.cpp:156] Memory required for data: 1305071136
I0403 15:45:56.449424  3589 layer_factory.hpp:77] Creating layer inception_5a/relu_pool_proj
I0403 15:45:56.449442  3589 net.cpp:91] Creating Layer inception_5a/relu_pool_proj
I0403 15:45:56.449460  3589 net.cpp:425] inception_5a/relu_pool_proj <- inception_5a/pool_proj
I0403 15:45:56.449481  3589 net.cpp:386] inception_5a/relu_pool_proj -> inception_5a/pool_proj (in-place)
I0403 15:45:56.449787  3589 net.cpp:141] Setting up inception_5a/relu_pool_proj
I0403 15:45:56.449820  3589 net.cpp:148] Top shape: 24 128 7 7 (150528)
I0403 15:45:56.449841  3589 net.cpp:156] Memory required for data: 1305673248
I0403 15:45:56.449858  3589 layer_factory.hpp:77] Creating layer inception_5a/output
I0403 15:45:56.449879  3589 net.cpp:91] Creating Layer inception_5a/output
I0403 15:45:56.449898  3589 net.cpp:425] inception_5a/output <- inception_5a/1x1
I0403 15:45:56.449918  3589 net.cpp:425] inception_5a/output <- inception_5a/3x3
I0403 15:45:56.449935  3589 net.cpp:425] inception_5a/output <- inception_5a/5x5
I0403 15:45:56.449957  3589 net.cpp:425] inception_5a/output <- inception_5a/pool_proj
I0403 15:45:56.449980  3589 net.cpp:399] inception_5a/output -> inception_5a/output
I0403 15:45:56.450042  3589 net.cpp:141] Setting up inception_5a/output
I0403 15:45:56.450073  3589 net.cpp:148] Top shape: 24 832 7 7 (978432)
I0403 15:45:56.450090  3589 net.cpp:156] Memory required for data: 1309586976
I0403 15:45:56.450106  3589 layer_factory.hpp:77] Creating layer inception_5a/output_inception_5a/output_0_split
I0403 15:45:56.450125  3589 net.cpp:91] Creating Layer inception_5a/output_inception_5a/output_0_split
I0403 15:45:56.450141  3589 net.cpp:425] inception_5a/output_inception_5a/output_0_split <- inception_5a/output
I0403 15:45:56.450160  3589 net.cpp:399] inception_5a/output_inception_5a/output_0_split -> inception_5a/output_inception_5a/output_0_split_0
I0403 15:45:56.450181  3589 net.cpp:399] inception_5a/output_inception_5a/output_0_split -> inception_5a/output_inception_5a/output_0_split_1
I0403 15:45:56.450206  3589 net.cpp:399] inception_5a/output_inception_5a/output_0_split -> inception_5a/output_inception_5a/output_0_split_2
I0403 15:45:56.450228  3589 net.cpp:399] inception_5a/output_inception_5a/output_0_split -> inception_5a/output_inception_5a/output_0_split_3
I0403 15:45:56.450353  3589 net.cpp:141] Setting up inception_5a/output_inception_5a/output_0_split
I0403 15:45:56.450381  3589 net.cpp:148] Top shape: 24 832 7 7 (978432)
I0403 15:45:56.450399  3589 net.cpp:148] Top shape: 24 832 7 7 (978432)
I0403 15:45:56.450417  3589 net.cpp:148] Top shape: 24 832 7 7 (978432)
I0403 15:45:56.450433  3589 net.cpp:148] Top shape: 24 832 7 7 (978432)
I0403 15:45:56.450448  3589 net.cpp:156] Memory required for data: 1325241888
I0403 15:45:56.450464  3589 layer_factory.hpp:77] Creating layer inception_5b/1x1
I0403 15:45:56.450487  3589 net.cpp:91] Creating Layer inception_5b/1x1
I0403 15:45:56.450506  3589 net.cpp:425] inception_5b/1x1 <- inception_5a/output_inception_5a/output_0_split_0
I0403 15:45:56.450530  3589 net.cpp:399] inception_5b/1x1 -> inception_5b/1x1
I0403 15:45:56.454587  3589 net.cpp:141] Setting up inception_5b/1x1
I0403 15:45:56.454622  3589 net.cpp:148] Top shape: 24 384 7 7 (451584)
I0403 15:45:56.454640  3589 net.cpp:156] Memory required for data: 1327048224
I0403 15:45:56.454660  3589 layer_factory.hpp:77] Creating layer inception_5b/relu_1x1
I0403 15:45:56.454680  3589 net.cpp:91] Creating Layer inception_5b/relu_1x1
I0403 15:45:56.454701  3589 net.cpp:425] inception_5b/relu_1x1 <- inception_5b/1x1
I0403 15:45:56.454723  3589 net.cpp:386] inception_5b/relu_1x1 -> inception_5b/1x1 (in-place)
I0403 15:45:56.455040  3589 net.cpp:141] Setting up inception_5b/relu_1x1
I0403 15:45:56.455070  3589 net.cpp:148] Top shape: 24 384 7 7 (451584)
I0403 15:45:56.455087  3589 net.cpp:156] Memory required for data: 1328854560
I0403 15:45:56.455102  3589 layer_factory.hpp:77] Creating layer inception_5b/3x3_reduce
I0403 15:45:56.455127  3589 net.cpp:91] Creating Layer inception_5b/3x3_reduce
I0403 15:45:56.455145  3589 net.cpp:425] inception_5b/3x3_reduce <- inception_5a/output_inception_5a/output_0_split_1
I0403 15:45:56.455166  3589 net.cpp:399] inception_5b/3x3_reduce -> inception_5b/3x3_reduce
I0403 15:45:56.458065  3589 net.cpp:141] Setting up inception_5b/3x3_reduce
I0403 15:45:56.458097  3589 net.cpp:148] Top shape: 24 192 7 7 (225792)
I0403 15:45:56.458127  3589 net.cpp:156] Memory required for data: 1329757728
I0403 15:45:56.458147  3589 layer_factory.hpp:77] Creating layer inception_5b/relu_3x3_reduce
I0403 15:45:56.458165  3589 net.cpp:91] Creating Layer inception_5b/relu_3x3_reduce
I0403 15:45:56.458183  3589 net.cpp:425] inception_5b/relu_3x3_reduce <- inception_5b/3x3_reduce
I0403 15:45:56.458216  3589 net.cpp:386] inception_5b/relu_3x3_reduce -> inception_5b/3x3_reduce (in-place)
I0403 15:45:56.458432  3589 net.cpp:141] Setting up inception_5b/relu_3x3_reduce
I0403 15:45:56.458463  3589 net.cpp:148] Top shape: 24 192 7 7 (225792)
I0403 15:45:56.458485  3589 net.cpp:156] Memory required for data: 1330660896
I0403 15:45:56.458505  3589 layer_factory.hpp:77] Creating layer inception_5b/3x3
I0403 15:45:56.458531  3589 net.cpp:91] Creating Layer inception_5b/3x3
I0403 15:45:56.458561  3589 net.cpp:425] inception_5b/3x3 <- inception_5b/3x3_reduce
I0403 15:45:56.458583  3589 net.cpp:399] inception_5b/3x3 -> inception_5b/3x3
I0403 15:45:56.466006  3589 net.cpp:141] Setting up inception_5b/3x3
I0403 15:45:56.466042  3589 net.cpp:148] Top shape: 24 384 7 7 (451584)
I0403 15:45:56.466073  3589 net.cpp:156] Memory required for data: 1332467232
I0403 15:45:56.466095  3589 layer_factory.hpp:77] Creating layer inception_5b/relu_3x3
I0403 15:45:56.466116  3589 net.cpp:91] Creating Layer inception_5b/relu_3x3
I0403 15:45:56.466142  3589 net.cpp:425] inception_5b/relu_3x3 <- inception_5b/3x3
I0403 15:45:56.466166  3589 net.cpp:386] inception_5b/relu_3x3 -> inception_5b/3x3 (in-place)
I0403 15:45:56.466513  3589 net.cpp:141] Setting up inception_5b/relu_3x3
I0403 15:45:56.466544  3589 net.cpp:148] Top shape: 24 384 7 7 (451584)
I0403 15:45:56.466564  3589 net.cpp:156] Memory required for data: 1334273568
I0403 15:45:56.466594  3589 layer_factory.hpp:77] Creating layer inception_5b/5x5_reduce
I0403 15:45:56.466637  3589 net.cpp:91] Creating Layer inception_5b/5x5_reduce
I0403 15:45:56.466657  3589 net.cpp:425] inception_5b/5x5_reduce <- inception_5a/output_inception_5a/output_0_split_2
I0403 15:45:56.466681  3589 net.cpp:399] inception_5b/5x5_reduce -> inception_5b/5x5_reduce
I0403 15:45:56.468073  3589 net.cpp:141] Setting up inception_5b/5x5_reduce
I0403 15:45:56.468109  3589 net.cpp:148] Top shape: 24 48 7 7 (56448)
I0403 15:45:56.468130  3589 net.cpp:156] Memory required for data: 1334499360
I0403 15:45:56.468149  3589 layer_factory.hpp:77] Creating layer inception_5b/relu_5x5_reduce
I0403 15:45:56.468169  3589 net.cpp:91] Creating Layer inception_5b/relu_5x5_reduce
I0403 15:45:56.468190  3589 net.cpp:425] inception_5b/relu_5x5_reduce <- inception_5b/5x5_reduce
I0403 15:45:56.468209  3589 net.cpp:386] inception_5b/relu_5x5_reduce -> inception_5b/5x5_reduce (in-place)
I0403 15:45:56.468624  3589 net.cpp:141] Setting up inception_5b/relu_5x5_reduce
I0403 15:45:56.468652  3589 net.cpp:148] Top shape: 24 48 7 7 (56448)
I0403 15:45:56.468669  3589 net.cpp:156] Memory required for data: 1334725152
I0403 15:45:56.468688  3589 layer_factory.hpp:77] Creating layer inception_5b/5x5
I0403 15:45:56.468710  3589 net.cpp:91] Creating Layer inception_5b/5x5
I0403 15:45:56.468734  3589 net.cpp:425] inception_5b/5x5 <- inception_5b/5x5_reduce
I0403 15:45:56.468758  3589 net.cpp:399] inception_5b/5x5 -> inception_5b/5x5
I0403 15:45:56.471029  3589 net.cpp:141] Setting up inception_5b/5x5
I0403 15:45:56.471065  3589 net.cpp:148] Top shape: 24 128 7 7 (150528)
I0403 15:45:56.471087  3589 net.cpp:156] Memory required for data: 1335327264
I0403 15:45:56.471115  3589 layer_factory.hpp:77] Creating layer inception_5b/relu_5x5
I0403 15:45:56.471138  3589 net.cpp:91] Creating Layer inception_5b/relu_5x5
I0403 15:45:56.471164  3589 net.cpp:425] inception_5b/relu_5x5 <- inception_5b/5x5
I0403 15:45:56.471194  3589 net.cpp:386] inception_5b/relu_5x5 -> inception_5b/5x5 (in-place)
I0403 15:45:56.471412  3589 net.cpp:141] Setting up inception_5b/relu_5x5
I0403 15:45:56.471446  3589 net.cpp:148] Top shape: 24 128 7 7 (150528)
I0403 15:45:56.471473  3589 net.cpp:156] Memory required for data: 1335929376
I0403 15:45:56.471499  3589 layer_factory.hpp:77] Creating layer inception_5b/pool
I0403 15:45:56.471519  3589 net.cpp:91] Creating Layer inception_5b/pool
I0403 15:45:56.471546  3589 net.cpp:425] inception_5b/pool <- inception_5a/output_inception_5a/output_0_split_3
I0403 15:45:56.471570  3589 net.cpp:399] inception_5b/pool -> inception_5b/pool
I0403 15:45:56.471657  3589 net.cpp:141] Setting up inception_5b/pool
I0403 15:45:56.471688  3589 net.cpp:148] Top shape: 24 832 7 7 (978432)
I0403 15:45:56.471704  3589 net.cpp:156] Memory required for data: 1339843104
I0403 15:45:56.471729  3589 layer_factory.hpp:77] Creating layer inception_5b/pool_proj
I0403 15:45:56.471762  3589 net.cpp:91] Creating Layer inception_5b/pool_proj
I0403 15:45:56.471786  3589 net.cpp:425] inception_5b/pool_proj <- inception_5b/pool
I0403 15:45:56.471818  3589 net.cpp:399] inception_5b/pool_proj -> inception_5b/pool_proj
I0403 15:45:56.474382  3589 net.cpp:141] Setting up inception_5b/pool_proj
I0403 15:45:56.474416  3589 net.cpp:148] Top shape: 24 128 7 7 (150528)
I0403 15:45:56.474437  3589 net.cpp:156] Memory required for data: 1340445216
I0403 15:45:56.474469  3589 layer_factory.hpp:77] Creating layer inception_5b/relu_pool_proj
I0403 15:45:56.474498  3589 net.cpp:91] Creating Layer inception_5b/relu_pool_proj
I0403 15:45:56.474519  3589 net.cpp:425] inception_5b/relu_pool_proj <- inception_5b/pool_proj
I0403 15:45:56.474537  3589 net.cpp:386] inception_5b/relu_pool_proj -> inception_5b/pool_proj (in-place)
I0403 15:45:56.474854  3589 net.cpp:141] Setting up inception_5b/relu_pool_proj
I0403 15:45:56.501780  3589 net.cpp:148] Top shape: 24 128 7 7 (150528)
I0403 15:45:56.501801  3589 net.cpp:156] Memory required for data: 1341047328
I0403 15:45:56.501817  3589 layer_factory.hpp:77] Creating layer inception_5b/output
I0403 15:45:56.501837  3589 net.cpp:91] Creating Layer inception_5b/output
I0403 15:45:56.501873  3589 net.cpp:425] inception_5b/output <- inception_5b/1x1
I0403 15:45:56.501893  3589 net.cpp:425] inception_5b/output <- inception_5b/3x3
I0403 15:45:56.501909  3589 net.cpp:425] inception_5b/output <- inception_5b/5x5
I0403 15:45:56.501927  3589 net.cpp:425] inception_5b/output <- inception_5b/pool_proj
I0403 15:45:56.501953  3589 net.cpp:399] inception_5b/output -> inception_5b/output
I0403 15:45:56.502017  3589 net.cpp:141] Setting up inception_5b/output
I0403 15:45:56.502058  3589 net.cpp:148] Top shape: 24 1024 7 7 (1204224)
I0403 15:45:56.502075  3589 net.cpp:156] Memory required for data: 1345864224
I0403 15:45:56.502092  3589 layer_factory.hpp:77] Creating layer pool5/7x7_s1
I0403 15:45:56.502111  3589 net.cpp:91] Creating Layer pool5/7x7_s1
I0403 15:45:56.502128  3589 net.cpp:425] pool5/7x7_s1 <- inception_5b/output
I0403 15:45:56.502151  3589 net.cpp:399] pool5/7x7_s1 -> pool5/7x7_s1
I0403 15:45:56.502440  3589 net.cpp:141] Setting up pool5/7x7_s1
I0403 15:45:56.502473  3589 net.cpp:148] Top shape: 24 1024 1 1 (24576)
I0403 15:45:56.502495  3589 net.cpp:156] Memory required for data: 1345962528
I0403 15:45:56.502527  3589 layer_factory.hpp:77] Creating layer pool5/drop_7x7_s1
I0403 15:45:56.502549  3589 net.cpp:91] Creating Layer pool5/drop_7x7_s1
I0403 15:45:56.502568  3589 net.cpp:425] pool5/drop_7x7_s1 <- pool5/7x7_s1
I0403 15:45:56.502598  3589 net.cpp:386] pool5/drop_7x7_s1 -> pool5/7x7_s1 (in-place)
I0403 15:45:56.502651  3589 net.cpp:141] Setting up pool5/drop_7x7_s1
I0403 15:45:56.502681  3589 net.cpp:148] Top shape: 24 1024 1 1 (24576)
I0403 15:45:56.502699  3589 net.cpp:156] Memory required for data: 1346060832
I0403 15:45:56.502720  3589 layer_factory.hpp:77] Creating layer loss3/classifier_plantvillage
I0403 15:45:56.502745  3589 net.cpp:91] Creating Layer loss3/classifier_plantvillage
I0403 15:45:56.502776  3589 net.cpp:425] loss3/classifier_plantvillage <- pool5/7x7_s1
I0403 15:45:56.502813  3589 net.cpp:399] loss3/classifier_plantvillage -> loss3/classifier_plantvillage
I0403 15:45:56.503306  3589 net.cpp:141] Setting up loss3/classifier_plantvillage
I0403 15:45:56.503335  3589 net.cpp:148] Top shape: 24 38 (912)
I0403 15:45:56.503351  3589 net.cpp:156] Memory required for data: 1346064480
I0403 15:45:56.503371  3589 layer_factory.hpp:77] Creating layer loss3/classifier_plantvillage_loss3/classifier_plantvillage_0_split
I0403 15:45:56.503391  3589 net.cpp:91] Creating Layer loss3/classifier_plantvillage_loss3/classifier_plantvillage_0_split
I0403 15:45:56.503409  3589 net.cpp:425] loss3/classifier_plantvillage_loss3/classifier_plantvillage_0_split <- loss3/classifier_plantvillage
I0403 15:45:56.503428  3589 net.cpp:399] loss3/classifier_plantvillage_loss3/classifier_plantvillage_0_split -> loss3/classifier_plantvillage_loss3/classifier_plantvillage_0_split_0
I0403 15:45:56.503455  3589 net.cpp:399] loss3/classifier_plantvillage_loss3/classifier_plantvillage_0_split -> loss3/classifier_plantvillage_loss3/classifier_plantvillage_0_split_1
I0403 15:45:56.503479  3589 net.cpp:399] loss3/classifier_plantvillage_loss3/classifier_plantvillage_0_split -> loss3/classifier_plantvillage_loss3/classifier_plantvillage_0_split_2
I0403 15:45:56.503504  3589 net.cpp:399] loss3/classifier_plantvillage_loss3/classifier_plantvillage_0_split -> loss3/classifier_plantvillage_loss3/classifier_plantvillage_0_split_3
I0403 15:45:56.503612  3589 net.cpp:141] Setting up loss3/classifier_plantvillage_loss3/classifier_plantvillage_0_split
I0403 15:45:56.503638  3589 net.cpp:148] Top shape: 24 38 (912)
I0403 15:45:56.503655  3589 net.cpp:148] Top shape: 24 38 (912)
I0403 15:45:56.503672  3589 net.cpp:148] Top shape: 24 38 (912)
I0403 15:45:56.503700  3589 net.cpp:148] Top shape: 24 38 (912)
I0403 15:45:56.503715  3589 net.cpp:156] Memory required for data: 1346079072
I0403 15:45:56.503729  3589 layer_factory.hpp:77] Creating layer loss1/loss
I0403 15:45:56.503754  3589 net.cpp:91] Creating Layer loss1/loss
I0403 15:45:56.503773  3589 net.cpp:425] loss1/loss <- loss1/classifier_plantvillage_loss1/classifier_plantvillage_0_split_0
I0403 15:45:56.503806  3589 net.cpp:425] loss1/loss <- label_data_1_split_0
…
