…
I0403 14:58:24.943276  2351 net.cpp:313] The NetState phase (1) differed from the phase (0) specified by a rule in layer data
I0403 14:58:24.944504  2351 net.cpp:49] Initializing net from parameters: 
state {
  phase: TEST
}
layer {
  name: "data"
  type: "Data"
  top: "data"
  top: "label"
  include {
    phase: TEST
  }
  transform_param {
    mirror: false
    crop_size: 224
    mean_file: "/home/mohanty/data/final_dataset/lmdb/grayscale-50-50/mean.binaryproto"
  }
  data_param {
    source: "/home/mohanty/data/final_dataset/lmdb/grayscale-50-50/test_db"
    batch_size: 24
    backend: LMDB
  }
}
layer {
  name: "conv1/7x7_s2"
  type: "Convolution"
  bottom: "data"
  top: "conv1/7x7_s2"
  param {
    lr_mult: 1
    decay_mult: 1
  }
  param {
    lr_mult: 2
    decay_mult: 0
  }
  convolution_param {
    num_output: 64
    pad: 3
    kernel_size: 7
    stride: 2
    weight_filler {
      type: "xavier"
      std: 0.1
    }
    bias_filler {
      type: "constant"
      value: 0.2
    }
  }
}
layer {
  name: "conv1/relu_7x7"
  type: "ReLU"
  bottom: "conv1/7x7_s2"
  top: "conv1/7x7_s2"
}
layer {
  name: "pool1/3x3_s2"
  type: "Pooling"
  bottom: "conv1/7x7_s2"
  top: "pool1/3x3_s2"
  pooling_param {
    pool: MAX
    kernel_size: 3
    stride: 2
  }
}
layer {
  name: "pool1/norm1"
  type: "LRN"
  bottom: "pool1/3x3_s2"
  top: "pool1/norm1"
  lrn_param {
    local_size: 5
    alpha: 0.0001
    beta: 0.75
  }
}
layer {
  name: "conv2/3x3_reduce"
  type: "Convolution"
  bottom: "pool1/norm1"
  top: "conv2/3x3_reduce"
  param {
    lr_mult: 1
    decay_mult: 1
  }
  param {
    lr_mult: 2
    decay_mult: 0
  }
  convolution_param {
    num_output: 64
    kernel_size: 1
    weight_filler {
      type: "xavier"
      std: 0.1
    }
    bias_filler {
      type: "constant"
      value: 0.2
    }
  }
}
layer {
  name: "conv2/relu_3x3_reduce"
  type: "ReLU"
  bottom: "conv2/3x3_reduce"
  top: "conv2/3x3_reduce"
}
layer {
  name: "conv2/3x3"
  type: "Convolution"
  bottom: "conv2/3x3_reduce"
  top: "conv2/3x3"
  param {
    lr_mult: 1
    decay_mult: 1
  }
  param {
    lr_mult: 2
    decay_mult: 0
  }
  convolution_param {
    num_output: 192
    pad: 1
    kernel_size: 3
    weight_filler {
      type: "xavier"
      std: 0.03
    }
    bias_filler {
      type: "constant"
      value: 0.2
    }
  }
}
layer {
  name: "conv2/relu_3x3"
  type: "ReLU"
  bottom: "conv2/3x3"
  top: "conv2/3x3"
}
layer {
  name: "conv2/norm2"
  type: "LRN"
  bottom: "conv2/3x3"
  top: "conv2/norm2"
  lrn_param {
    local_size: 5
    alpha: 0.0001
    beta: 0.75
  }
}
layer {
  name: "pool2/3x3_s2"
  type: "Pooling"
  bottom: "conv2/norm2"
  top: "pool2/3x3_s2"
  pooling_param {
    pool: MAX
    kernel_size: 3
    stride: 2
  }
}
layer {
  name: "inception_3a/1x1"
  type: "Convolution"
  bottom: "pool2/3x3_s2"
  top: "inception_3a/1x1"
  param {
    lr_mult: 1
    decay_mult: 1
  }
  param {
    lr_mult: 2
    decay_mult: 0
  }
  convolution_param {
    num_output: 64
    kernel_size: 1
    weight_filler {
      type: "xavier"
      std: 0.03
    }
    bias_filler {
      type: "constant"
      value: 0.2
    }
  }
}
layer {
  name: "inception_3a/relu_1x1"
  type: "ReLU"
  bottom: "inception_3a/1x1"
  top: "inception_3a/1x1"
}
layer {
  name: "inception_3a/3x3_reduce"
  type: "Convolution"
  bottom: "pool2/3x3_s2"
  top: "inception_3a/3x3_reduce"
  param {
    lr_mult: 1
    decay_mult: 1
  }
  param {
    lr_mult: 2
    decay_mult: 0
  }
  convolution_param {
    num_output: 96
    kernel_size: 1
    weight_filler {
      type: "xavier"
      std: 0.09
    }
    bias_filler {
      type: "constant"
      value: 0.2
    }
  }
}
layer {
  name: "inception_3a/relu_3x3_reduce"
  type: "ReLU"
  bottom: "inception_3a/3x3_reduce"
  top: "inception_3a/3x3_reduce"
}
layer {
  name: "inception_3a/3x3"
  type: "Convolution"
  bottom: "inception_3a/3x3_reduce"
  top: "inception_3a/3x3"
  param {
    lr_mult: 1
    decay_mult: 1
  }
  param {
    lr_mult: 2
    decay_mult: 0
  }
  convolution_param {
    num_output: 128
    pad: 1
    kernel_size: 3
    weight_filler {
      type: "xavier"
      std: 0.03
    }
    bias_filler {
      type: "constant"
      value: 0.2
    }
  }
}
layer {
  name: "inception_3a/relu_3x3"
  type: "ReLU"
  bottom: "inception_3a/3x3"
  top: "inception_3a/3x3"
}
layer {
  name: "inception_3a/5x5_reduce"
  type: "Convolution"
  bottom: "pool2/3x3_s2"
  top: "inception_3a/5x5_reduce"
  param {
    lr_mult: 1
    decay_mult: 1
  }
  param {
    lr_mult: 2
    decay_mult: 0
  }
  convolution_param {
    num_output: 16
    kernel_size: 1
    weight_filler {
      type: "xavier"
      std: 0.2
    }
    bias_filler {
      type: "constant"
      value: 0.2
    }
  }
}
layer {
  name: "inception_3a/relu_5x5_reduce"
  type: "ReLU"
  bottom: "inception_3a/5x5_reduce"
  top: "inception_3a/5x5_reduce"
}
layer {
  name: "inception_3a/5x5"
  type: "Convolution"
  bottom: "inception_3a/5x5_reduce"
  top: "inception_3a/5x5"
  param {
    lr_mult: 1
    decay_mult: 1
  }
  param {
    lr_mult: 2
    decay_mult: 0
  }
  convolution_param {
    num_output: 32
    pad: 2
    kernel_size: 5
    weight_filler {
      type: "xavier"
      std: 0.03
    }
    bias_filler {
      type: "constant"
      value: 0.2
    }
  }
}
layer {
  name: "inception_3a/relu_5x5"
  type: "ReLU"
  bottom: "inception_3a/5x5"
  top: "inception_3a/5x5"
}
layer {
  name: "inception_3a/pool"
  type: "Pooling"
  bottom: "pool2/3x3_s2"
  top: "inception_3a/pool"
  pooling_param {
    pool: MAX
    kernel_size: 3
    stride: 1
    pad: 1
  }
}
layer {
  name: "inception_3a/pool_proj"
  type: "Convolution"
  bottom: "inception_3a/pool"
  top: "inception_3a/pool_proj"
  param {
    lr_mult: 1
    decay_mult: 1
  }
  param {
    lr_mult: 2
    decay_mult: 0
  }
  convolution_param {
    num_output: 32
    kernel_size: 1
    weight_filler {
      type: "xavier"
      std: 0.1
    }
    bias_filler {
      type: "constant"
      value: 0.2
    }
  }
}
layer {
  name: "inception_3a/relu_pool_proj"
  type: "ReLU"
  bottom: "inception_3a/pool_proj"
  top: "inception_3a/pool_proj"
}
layer {
  name: "inception_3a/output"
  type: "Concat"
  bottom: "inception_3a/1x1"
  bottom: "inception_3a/3x3"
  bottom: "inception_3a/5x5"
  bottom: "inception_3a/pool_proj"
  top: "inception_3a/output"
}
layer {
  name: "inception_3b/1x1"
  type: "Convolution"
  bottom: "inception_3a/output"
  top: "inception_3b/1x1"
  param {
    lr_mult: 1
    decay_mult: 1
  }
  param {
    lr_mult: 2
    decay_mult: 0
  }
  convolution_param {
    num_output: 128
    kernel_size: 1
    weight_filler {
      type: "xavier"
      std: 0.03
    }
    bias_filler {
      type: "constant"
      value: 0.2
    }
  }
}
layer {
  name: "inception_3b/relu_1x1"
  type: "ReLU"
  bottom: "inception_3b/1x1"
  top: "inception_3b/1x1"
}
layer {
  name: "inception_3b/3x3_reduce"
  type: "Convolution"
  bottom: "inception_3a/output"
  top: "inception_3b/3x3_reduce"
  param {
    lr_mult: 1
    decay_mult: 1
  }
  param {
    lr_mult: 2
    decay_mult: 0
  }
  convolution_param {
    num_output: 128
    kernel_size: 1
    weight_filler {
      type: "xavier"
      std: 0.09
    }
    bias_filler {
      type: "constant"
      value: 0.2
    }
  }
}
layer {
  name: "inception_3b/relu_3x3_reduce"
  type: "ReLU"
  bottom: "inception_3b/3x3_reduce"
  top: "inception_3b/3x3_reduce"
}
layer {
  name: "inception_3b/3x3"
  type: "Convolution"
  bottom: "inception_3b/3x3_reduce"
  top: "inception_3b/3x3"
  param {
    lr_mult: 1
    decay_mult: 1
  }
  param {
    lr_mult: 2
    decay_mult: 0
  }
  convolution_param {
    num_output: 192
    pad: 1
    kernel_size: 3
    weight_filler {
      type: "xavier"
      std: 0.03
    }
    bias_filler {
      type: "constant"
      value: 0.2
    }
  }
}
layer {
  name: "inception_3b/relu_3x3"
  type: "ReLU"
  bottom: "inception_3b/3x3"
  top: "inception_3b/3x3"
}
layer {
  name: "inception_3b/5x5_reduce"
  type: "Convolution"
  bottom: "inception_3a/output"
  top: "inception_3b/5x5_reduce"
  param {
    lr_mult: 1
    decay_mult: 1
  }
  param {
    lr_mult: 2
    decay_mult: 0
  }
  convolution_param {
    num_output: 32
    kernel_size: 1
    weight_filler {
      type: "xavier"
      std: 0.2
    }
    bias_filler {
      type: "constant"
      value: 0.2
    }
  }
}
layer {
  name: "inception_3b/relu_5x5_reduce"
  type: "ReLU"
  bottom: "inception_3b/5x5_reduce"
  top: "inception_3b/5x5_reduce"
}
layer {
  name: "inception_3b/5x5"
  type: "Convolution"
  bottom: "inception_3b/5x5_reduce"
  top: "inception_3b/5x5"
  param {
    lr_mult: 1
    decay_mult: 1
  }
  param {
    lr_mult: 2
    decay_mult: 0
  }
  convolution_param {
    num_output: 96
    pad: 2
    kernel_size: 5
    weight_filler {
      type: "xavier"
      std: 0.03
    }
    bias_filler {
      type: "constant"
      value: 0.2
    }
  }
}
layer {
  name: "inception_3b/relu_5x5"
  type: "ReLU"
  bottom: "inception_3b/5x5"
  top: "inception_3b/5x5"
}
layer {
  name: "inception_3b/pool"
  type: "Pooling"
  bottom: "inception_3a/output"
  top: "inception_3b/pool"
  pooling_param {
    pool: MAX
    kernel_size: 3
    stride: 1
    pad: 1
  }
}
layer {
  name: "inception_3b/pool_proj"
  type: "Convolution"
  bottom: "inception_3b/pool"
  top: "inception_3b/pool_proj"
  param {
    lr_mult: 1
    decay_mult: 1
  }
  param {
    lr_mult: 2
    decay_mult: 0
  }
  convolution_param {
    num_output: 64
    kernel_size: 1
    weight_filler {
      type: "xavier"
      std: 0.1
    }
    bias_filler {
      type: "constant"
      value: 0.2
    }
  }
}
layer {
  name: "inception_3b/relu_pool_proj"
  type: "ReLU"
  bottom: "inception_3b/pool_proj"
  top: "inception_3b/pool_proj"
}
layer {
  name: "inception_3b/output"
  type: "Concat"
  bottom: "inception_3b/1x1"
  bottom: "inception_3b/3x3"
  bottom: "inception_3b/5x5"
  bottom: "inception_3b/pool_proj"
  top: "inception_3b/output"
}
layer {
  name: "pool3/3x3_s2"
  type: "Pooling"
  bottom: "inception_3b/output"
  top: "pool3/3x3_s2"
  pooling_param {
    pool: MAX
    kernel_size: 3
    stride: 2
  }
}
layer {
  name: "inception_4a/1x1"
  type: "Convolution"
  bottom: "pool3/3x3_s2"
  top: "inception_4a/1x1"
  param {
    lr_mult: 1
    decay_mult: 1
  }
  param {
    lr_mult: 2
    decay_mult: 0
  }
  convolution_param {
    num_output: 192
    kernel_size: 1
    weight_filler {
      type: "xavier"
      std: 0.03
    }
    bias_filler {
      type: "constant"
      value: 0.2
    }
  }
}
layer {
  name: "inception_4a/relu_1x1"
  type: "ReLU"
  bottom: "inception_4a/1x1"
  top: "inception_4a/1x1"
}
layer {
  name: "inception_4a/3x3_reduce"
  type: "Convolution"
  bottom: "pool3/3x3_s2"
  top: "inception_4a/3x3_reduce"
  param {
    lr_mult: 1
    decay_mult: 1
  }
  param {
    lr_mult: 2
    decay_mult: 0
  }
  convolution_param {
    num_output: 96
    kernel_size: 1
    weight_filler {
      type: "xavier"
      std: 0.09
    }
    bias_filler {
      type: "constant"
      value: 0.2
    }
  }
}
layer {
  name: "inception_4a/relu_3x3_reduce"
  type: "ReLU"
  bottom: "inception_4a/3x3_reduce"
  top: "inception_4a/3x3_reduce"
}
layer {
  name: "inception_4a/3x3"
  type: "Convolution"
  bottom: "inception_4a/3x3_reduce"
  top: "inception_4a/3x3"
  param {
    lr_mult: 1
    decay_mult: 1
  }
  param {
    lr_mult: 2
    decay_mult: 0
  }
  convolution_param {
    num_output: 208
    pad: 1
    kernel_size: 3
    weight_filler {
      type: "xavier"
      std: 0.03
    }
    bias_filler {
      type: "constant"
      value: 0.2
    }
  }
}
layer {
  name: "inception_4a/relu_3x3"
  type: "ReLU"
  bottom: "inception_4a/3x3"
  top: "inception_4a/3x3"
}
layer {
  name: "inception_4a/5x5_reduce"
  type: "Convolution"
  bottom: "pool3/3x3_s2"
  top: "inception_4a/5x5_reduce"
  param {
    lr_mult: 1
    decay_mult: 1
  }
  param {
    lr_mult: 2
    decay_mult: 0
  }
  convolution_param {
    num_output: 16
    kernel_size: 1
    weight_filler {
      type: "xavier"
      std: 0.2
    }
    bias_filler {
      type: "constant"
      value: 0.2
    }
  }
}
layer {
  name: "inception_4a/relu_5x5_reduce"
  type: "ReLU"
  bottom: "inception_4a/5x5_reduce"
  top: "inception_4a/5x5_reduce"
}
layer {
  name: "inception_4a/5x5"
  type: "Convolution"
  bottom: "inception_4a/5x5_reduce"
  top: "inception_4a/5x5"
  param {
    lr_mult: 1
    decay_mult: 1
  }
  param {
    lr_mult: 2
    decay_mult: 0
  }
  convolution_param {
    num_output: 48
    pad: 2
    kernel_size: 5
    weight_filler {
      type: "xavier"
      std: 0.03
    }
    bias_filler {
      type: "constant"
      value: 0.2
    }
  }
}
layer {
  name: "inception_4a/relu_5x5"
  type: "ReLU"
  bottom: "inception_4a/5x5"
  top: "inception_4a/5x5"
}
layer {
  name: "inception_4a/pool"
  type: "Pooling"
  bottom: "pool3/3x3_s2"
  top: "inception_4a/pool"
  pooling_param {
    pool: MAX
    kernel_size: 3
    stride: 1
    pad: 1
  }
}
layer {
  name: "inception_4a/pool_proj"
  type: "Convolution"
  bottom: "inception_4a/pool"
  top: "inception_4a/pool_proj"
  param {
    lr_mult: 1
    decay_mult: 1
  }
  param {
    lr_mult: 2
    decay_mult: 0
  }
  convolution_param {
    num_output: 64
    kernel_size: 1
    weight_filler {
      type: "xavier"
      std: 0.1
    }
    bias_filler {
      type: "constant"
      value: 0.2
    }
  }
}
layer {
  name: "inception_4a/relu_pool_proj"
  type: "ReLU"
  bottom: "inception_4a/pool_proj"
  top: "inception_4a/pool_proj"
}
layer {
  name: "inception_4a/output"
  type: "Concat"
  bottom: "inception_4a/1x1"
  bottom: "inception_4a/3x3"
  bottom: "inception_4a/5x5"
  bottom: "inception_4a/pool_proj"
  top: "inception_4a/output"
}
layer {
  name: "loss1/ave_pool"
  type: "Pooling"
  bottom: "inception_4a/output"
  top: "loss1/ave_pool"
  pooling_param {
    pool: AVE
    kernel_size: 5
    stride: 3
  }
}
layer {
  name: "loss1/conv"
  type: "Convolution"
  bottom: "loss1/ave_pool"
  top: "loss1/conv"
  param {
    lr_mult: 1
    decay_mult: 1
  }
  param {
    lr_mult: 2
    decay_mult: 0
  }
  convolution_param {
    num_output: 128
    kernel_size: 1
    weight_filler {
      type: "xavier"
      std: 0.08
    }
    bias_filler {
      type: "constant"
      value: 0.2
    }
  }
}
layer {
  name: "loss1/relu_conv"
  type: "ReLU"
  bottom: "loss1/conv"
  top: "loss1/conv"
}
layer {
  name: "loss1/fc"
  type: "InnerProduct"
  bottom: "loss1/conv"
  top: "loss1/fc"
  param {
    lr_mult: 1
    decay_mult: 1
  }
  param {
    lr_mult: 2
    decay_mult: 0
  }
  inner_product_param {
    num_output: 1024
    weight_filler {
      type: "xavier"
      std: 0.02
    }
    bias_filler {
      type: "constant"
      value: 0.2
    }
  }
}
layer {
  name: "loss1/relu_fc"
  type: "ReLU"
  bottom: "loss1/fc"
  top: "loss1/fc"
}
layer {
  name: "loss1/drop_fc"
  type: "Dropout"
  bottom: "loss1/fc"
  top: "loss1/fc"
  dropout_param {
    dropout_ratio: 0.7
  }
}
layer {
  name: "loss1/classifier_plantvillage"
  type: "InnerProduct"
  bottom: "loss1/fc"
  top: "loss1/classifier_plantvillage"
  param {
    lr_mult: 1
    decay_mult: 1
  }
  param {
    lr_mult: 2
    decay_mult: 0
  }
  inner_product_param {
    num_output: 38
    weight_filler {
      type: "xavier"
      std: 0.0009765625
    }
    bias_filler {
      type: "constant"
      value: 0
    }
  }
}
layer {
  name: "inception_4b/1x1"
  type: "Convolution"
  bottom: "inception_4a/output"
  top: "inception_4b/1x1"
  param {
    lr_mult: 1
    decay_mult: 1
  }
  param {
    lr_mult: 2
    decay_mult: 0
  }
  convolution_param {
    num_output: 160
    kernel_size: 1
    weight_filler {
      type: "xavier"
      std: 0.03
    }
    bias_filler {
      type: "constant"
      value: 0.2
    }
  }
}
layer {
  name: "inception_4b/relu_1x1"
  type: "ReLU"
  bottom: "inception_4b/1x1"
  top: "inception_4b/1x1"
}
layer {
  name: "inception_4b/3x3_reduce"
  type: "Convolution"
  bottom: "inception_4a/output"
  top: "inception_4b/3x3_reduce"
  param {
    lr_mult: 1
    decay_mult: 1
  }
  param {
    lr_mult: 2
    decay_mult: 0
  }
  convolution_param {
    num_output: 112
    kernel_size: 1
    weight_filler {
      type: "xavier"
      std: 0.09
    }
    bias_filler {
      type: "constant"
      value: 0.2
    }
  }
}
layer {
  name: "inception_4b/relu_3x3_reduce"
  type: "ReLU"
  bottom: "inception_4b/3x3_reduce"
  top: "inception_4b/3x3_reduce"
}
layer {
  name: "inception_4b/3x3"
  type: "Convolution"
  bottom: "inception_4b/3x3_reduce"
  top: "inception_4b/3x3"
  param {
    lr_mult: 1
    decay_mult: 1
  }
  param {
    lr_mult: 2
    decay_mult: 0
  }
  convolution_param {
    num_output: 224
    pad: 1
    kernel_size: 3
    weight_filler {
      type: "xavier"
      std: 0.03
    }
    bias_filler {
      type: "constant"
      value: 0.2
    }
  }
}
layer {
  name: "inception_4b/relu_3x3"
  type: "ReLU"
  bottom: "inception_4b/3x3"
  top: "inception_4b/3x3"
}
layer {
  name: "inception_4b/5x5_reduce"
  type: "Convolution"
  bottom: "inception_4a/output"
  top: "inception_4b/5x5_reduce"
  param {
    lr_mult: 1
    decay_mult: 1
  }
  param {
    lr_mult: 2
    decay_mult: 0
  }
  convolution_param {
    num_output: 24
    kernel_size: 1
    weight_filler {
      type: "xavier"
      std: 0.2
    }
    bias_filler {
      type: "constant"
      value: 0.2
    }
  }
}
layer {
  name: "inception_4b/relu_5x5_reduce"
  type: "ReLU"
  bottom: "inception_4b/5x5_reduce"
  top: "inception_4b/5x5_reduce"
}
layer {
  name: "inception_4b/5x5"
  type: "Convolution"
  bottom: "inception_4b/5x5_reduce"
  top: "inception_4b/5x5"
  param {
    lr_mult: 1
    decay_mult: 1
  }
  param {
    lr_mult: 2
    decay_mult: 0
  }
  convolution_param {
    num_output: 64
    pad: 2
    kernel_size: 5
    weight_filler {
      type: "xavier"
      std: 0.03
    }
    bias_filler {
      type: "constant"
      value: 0.2
    }
  }
}
layer {
  name: "inception_4b/relu_5x5"
  type: "ReLU"
  bottom: "inception_4b/5x5"
  top: "inception_4b/5x5"
}
layer {
  name: "inception_4b/pool"
  type: "Pooling"
  bottom: "inception_4a/output"
  top: "inception_4b/pool"
  pooling_param {
    pool: MAX
    kernel_size: 3
    stride: 1
    pad: 1
  }
}
layer {
  name: "inception_4b/pool_proj"
  type: "Convolution"
  bottom: "inception_4b/pool"
  top: "inception_4b/pool_proj"
  param {
    lr_mult: 1
    decay_mult: 1
  }
  param {
    lr_mult: 2
    decay_mult: 0
  }
  convolution_param {
    num_output: 64
    kernel_size: 1
    weight_filler {
      type: "xavier"
      std: 0.1
    }
    bias_filler {
      type: "constant"
      value: 0.2
    }
  }
}
layer {
  name: "inception_4b/relu_pool_proj"
  type: "ReLU"
  bottom: "inception_4b/pool_proj"
  top: "inception_4b/pool_proj"
}
layer {
  name: "inception_4b/output"
  type: "Concat"
  bottom: "inception_4b/1x1"
  bottom: "inception_4b/3x3"
  bottom: "inception_4b/5x5"
  bottom: "inception_4b/pool_proj"
  top: "inception_4b/output"
}
layer {
  name: "inception_4c/1x1"
  type: "Convolution"
  bottom: "inception_4b/output"
  top: "inception_4c/1x1"
  param {
    lr_mult: 1
    decay_mult: 1
  }
  param {
    lr_mult: 2
    decay_mult: 0
  }
  convolution_param {
    num_output: 128
    kernel_size: 1
    weight_filler {
      type: "xavier"
      std: 0.03
    }
    bias_filler {
      type: "constant"
      value: 0.2
    }
  }
}
layer {
  name: "inception_4c/relu_1x1"
  type: "ReLU"
  bottom: "inception_4c/1x1"
  top: "inception_4c/1x1"
}
layer {
  name: "inception_4c/3x3_reduce"
  type: "Convolution"
  bottom: "inception_4b/output"
  top: "inception_4c/3x3_reduce"
  param {
    lr_mult: 1
    decay_mult: 1
  }
  param {
    lr_mult: 2
    decay_mult: 0
  }
  convolution_param {
    num_output: 128
    kernel_size: 1
    weight_filler {
      type: "xavier"
      std: 0.09
    }
    bias_filler {
      type: "constant"
      value: 0.2
    }
  }
}
layer {
  name: "inception_4c/relu_3x3_reduce"
  type: "ReLU"
  bottom: "inception_4c/3x3_reduce"
  top: "inception_4c/3x3_reduce"
}
layer {
  name: "inception_4c/3x3"
  type: "Convolution"
  bottom: "inception_4c/3x3_reduce"
  top: "inception_4c/3x3"
  param {
    lr_mult: 1
    decay_mult: 1
  }
  param {
    lr_mult: 2
    decay_mult: 0
  }
  convolution_param {
    num_output: 256
    pad: 1
    kernel_size: 3
    weight_filler {
      type: "xavier"
      std: 0.03
    }
    bias_filler {
      type: "constant"
      value: 0.2
    }
  }
}
layer {
  name: "inception_4c/relu_3x3"
  type: "ReLU"
  bottom: "inception_4c/3x3"
  top: "inception_4c/3x3"
}
layer {
  name: "inception_4c/5x5_reduce"
  type: "Convolution"
  bottom: "inception_4b/output"
  top: "inception_4c/5x5_reduce"
  param {
    lr_mult: 1
    decay_mult: 1
  }
  param {
    lr_mult: 2
    decay_mult: 0
  }
  convolution_param {
    num_output: 24
    kernel_size: 1
    weight_filler {
      type: "xavier"
      std: 0.2
    }
    bias_filler {
      type: "constant"
      value: 0.2
    }
  }
}
layer {
  name: "inception_4c/relu_5x5_reduce"
  type: "ReLU"
  bottom: "inception_4c/5x5_reduce"
  top: "inception_4c/5x5_reduce"
}
layer {
  name: "inception_4c/5x5"
  type: "Convolution"
  bottom: "inception_4c/5x5_reduce"
  top: "inception_4c/5x5"
  param {
    lr_mult: 1
    decay_mult: 1
  }
  param {
    lr_mult: 2
    decay_mult: 0
  }
  convolution_param {
    num_output: 64
    pad: 2
    kernel_size: 5
    weight_filler {
      type: "xavier"
      std: 0.03
    }
    bias_filler {
      type: "constant"
      value: 0.2
    }
  }
}
layer {
  name: "inception_4c/relu_5x5"
  type: "ReLU"
  bottom: "inception_4c/5x5"
  top: "inception_4c/5x5"
}
layer {
  name: "inception_4c/pool"
  type: "Pooling"
  bottom: "inception_4b/output"
  top: "inception_4c/pool"
  pooling_param {
    pool: MAX
    kernel_size: 3
    stride: 1
    pad: 1
  }
}
layer {
  name: "inception_4c/pool_proj"
  type: "Convolution"
  bottom: "inception_4c/pool"
  top: "inception_4c/pool_proj"
  param {
    lr_mult: 1
    decay_mult: 1
  }
  param {
    lr_mult: 2
    decay_mult: 0
  }
  convolution_param {
    num_output: 64
    kernel_size: 1
    weight_filler {
      type: "xavier"
      std: 0.1
    }
    bias_filler {
      type: "constant"
      value: 0.2
    }
  }
}
layer {
  name: "inception_4c/relu_pool_proj"
  type: "ReLU"
  bottom: "inception_4c/pool_proj"
  top: "inception_4c/pool_proj"
}
layer {
  name: "inception_4c/output"
  type: "Concat"
  bottom: "inception_4c/1x1"
  bottom: "inception_4c/3x3"
  bottom: "inception_4c/5x5"
  bottom: "inception_4c/pool_proj"
  top: "inception_4c/output"
}
layer {
  name: "inception_4d/1x1"
  type: "Convolution"
  bottom: "inception_4c/output"
  top: "inception_4d/1x1"
  param {
    lr_mult: 1
    decay_mult: 1
  }
  param {
    lr_mult: 2
    decay_mult: 0
  }
  convolution_param {
    num_output: 112
    kernel_size: 1
    weight_filler {
      type: "xavier"
      std: 0.03
    }
    bias_filler {
      type: "constant"
      value: 0.2
    }
  }
}
layer {
  name: "inception_4d/relu_1x1"
  type: "ReLU"
  bottom: "inception_4d/1x1"
  top: "inception_4d/1x1"
}
layer {
  name: "inception_4d/3x3_reduce"
  type: "Convolution"
  bottom: "inception_4c/output"
  top: "inception_4d/3x3_reduce"
  param {
    lr_mult: 1
    decay_mult: 1
  }
  param {
    lr_mult: 2
    decay_mult: 0
  }
  convolution_param {
    num_output: 144
    kernel_size: 1
    weight_filler {
      type: "xavier"
      std: 0.09
    }
    bias_filler {
      type: "constant"
      value: 0.2
    }
  }
}
layer {
  name: "inception_4d/relu_3x3_reduce"
  type: "ReLU"
  bottom: "inception_4d/3x3_reduce"
  top: "inception_4d/3x3_reduce"
}
layer {
  name: "inception_4d/3x3"
  type: "Convolution"
  bottom: "inception_4d/3x3_reduce"
  top: "inception_4d/3x3"
  param {
    lr_mult: 1
    decay_mult: 1
  }
  param {
    lr_mult: 2
    decay_mult: 0
  }
  convolution_param {
    num_output: 288
    pad: 1
    kernel_size: 3
    weight_filler {
      type: "xavier"
      std: 0.03
    }
    bias_filler {
      type: "constant"
      value: 0.2
    }
  }
}
layer {
  name: "inception_4d/relu_3x3"
  type: "ReLU"
  bottom: "inception_4d/3x3"
  top: "inception_4d/3x3"
}
layer {
  name: "inception_4d/5x5_reduce"
  type: "Convolution"
  bottom: "inception_4c/output"
  top: "inception_4d/5x5_reduce"
  param {
    lr_mult: 1
    decay_mult: 1
  }
  param {
    lr_mult: 2
    decay_mult: 0
  }
  convolution_param {
    num_output: 32
    kernel_size: 1
    weight_filler {
      type: "xavier"
      std: 0.2
    }
    bias_filler {
      type: "constant"
      value: 0.2
    }
  }
}
layer {
  name: "inception_4d/relu_5x5_reduce"
  type: "ReLU"
  bottom: "inception_4d/5x5_reduce"
  top: "inception_4d/5x5_reduce"
}
layer {
  name: "inception_4d/5x5"
  type: "Convolution"
  bottom: "inception_4d/5x5_reduce"
  top: "inception_4d/5x5"
  param {
    lr_mult: 1
    decay_mult: 1
  }
  param {
    lr_mult: 2
    decay_mult: 0
  }
  convolution_param {
    num_output: 64
    pad: 2
    kernel_size: 5
    weight_filler {
      type: "xavier"
      std: 0.03
    }
    bias_filler {
      type: "constant"
      value: 0.2
    }
  }
}
layer {
  name: "inception_4d/relu_5x5"
  type: "ReLU"
  bottom: "inception_4d/5x5"
  top: "inception_4d/5x5"
}
layer {
  name: "inception_4d/pool"
  type: "Pooling"
  bottom: "inception_4c/output"
  top: "inception_4d/pool"
  pooling_param {
    pool: MAX
    kernel_size: 3
    stride: 1
    pad: 1
  }
}
layer {
  name: "inception_4d/pool_proj"
  type: "Convolution"
  bottom: "inception_4d/pool"
  top: "inception_4d/pool_proj"
  param {
    lr_mult: 1
    decay_mult: 1
  }
  param {
    lr_mult: 2
    decay_mult: 0
  }
  convolution_param {
    num_output: 64
    kernel_size: 1
    weight_filler {
      type: "xavier"
      std: 0.1
    }
    bias_filler {
      type: "constant"
      value: 0.2
    }
  }
}
layer {
  name: "inception_4d/relu_pool_proj"
  type: "ReLU"
  bottom: "inception_4d/pool_proj"
  top: "inception_4d/pool_proj"
}
layer {
  name: "inception_4d/output"
  type: "Concat"
  bottom: "inception_4d/1x1"
  bottom: "inception_4d/3x3"
  bottom: "inception_4d/5x5"
  bottom: "inception_4d/pool_proj"
  top: "inception_4d/output"
}
layer {
  name: "loss2/ave_pool"
  type: "Pooling"
  bottom: "inception_4d/output"
  top: "loss2/ave_pool"
  pooling_param {
    pool: AVE
    kernel_size: 5
    stride: 3
  }
}
layer {
  name: "loss2/conv"
  type: "Convolution"
  bottom: "loss2/ave_pool"
  top: "loss2/conv"
  param {
    lr_mult: 1
    decay_mult: 1
  }
  param {
    lr_mult: 2
    decay_mult: 0
  }
  convolution_param {
    num_output: 128
    kernel_size: 1
    weight_filler {
      type: "xavier"
      std: 0.08
    }
    bias_filler {
      type: "constant"
      value: 0.2
    }
  }
}
layer {
  name: "loss2/relu_conv"
  type: "ReLU"
  bottom: "loss2/conv"
  top: "loss2/conv"
}
layer {
  name: "loss2/fc"
  type: "InnerProduct"
  bottom: "loss2/conv"
  top: "loss2/fc"
  param {
    lr_mult: 1
    decay_mult: 1
  }
  param {
    lr_mult: 2
    decay_mult: 0
  }
  inner_product_param {
    num_output: 1024
    weight_filler {
      type: "xavier"
      std: 0.02
    }
    bias_filler {
      type: "constant"
      value: 0.2
    }
  }
}
layer {
  name: "loss2/relu_fc"
  type: "ReLU"
  bottom: "loss2/fc"
  top: "loss2/fc"
}
layer {
  name: "loss2/drop_fc"
  type: "Dropout"
  bottom: "loss2/fc"
  top: "loss2/fc"
  dropout_param {
    dropout_ratio: 0.7
  }
}
layer {
  name: "loss2/classifier_plantvillage"
  type: "InnerProduct"
  bottom: "loss2/fc"
  top: "loss2/classifier_plantvillage"
  param {
    lr_mult: 1
    decay_mult: 1
  }
  param {
    lr_mult: 2
    decay_mult: 0
  }
  inner_product_param {
    num_output: 38
    weight_filler {
      type: "xavier"
      std: 0.0009765625
    }
    bias_filler {
      type: "constant"
      value: 0
    }
  }
}
layer {
  name: "inception_4e/1x1"
  type: "Convolution"
  bottom: "inception_4d/output"
  top: "inception_4e/1x1"
  param {
    lr_mult: 1
    decay_mult: 1
  }
  param {
    lr_mult: 2
    decay_mult: 0
  }
  convolution_param {
    num_output: 256
    kernel_size: 1
    weight_filler {
      type: "xavier"
      std: 0.03
    }
    bias_filler {
      type: "constant"
      value: 0.2
    }
  }
}
layer {
  name: "inception_4e/relu_1x1"
  type: "ReLU"
  bottom: "inception_4e/1x1"
  top: "inception_4e/1x1"
}
layer {
  name: "inception_4e/3x3_reduce"
  type: "Convolution"
  bottom: "inception_4d/output"
  top: "inception_4e/3x3_reduce"
  param {
    lr_mult: 1
    decay_mult: 1
  }
  param {
    lr_mult: 2
    decay_mult: 0
  }
  convolution_param {
    num_output: 160
    kernel_size: 1
    weight_filler {
      type: "xavier"
      std: 0.09
    }
    bias_filler {
      type: "constant"
      value: 0.2
    }
  }
}
layer {
  name: "inception_4e/relu_3x3_reduce"
  type: "ReLU"
  bottom: "inception_4e/3x3_reduce"
  top: "inception_4e/3x3_reduce"
}
layer {
  name: "inception_4e/3x3"
  type: "Convolution"
  bottom: "inception_4e/3x3_reduce"
  top: "inception_4e/3x3"
  param {
    lr_mult: 1
    decay_mult: 1
  }
  param {
    lr_mult: 2
    decay_mult: 0
  }
  convolution_param {
    num_output: 320
    pad: 1
    kernel_size: 3
    weight_filler {
      type: "xavier"
      std: 0.03
    }
    bias_filler {
      type: "constant"
      value: 0.2
    }
  }
}
layer {
  name: "inception_4e/relu_3x3"
  type: "ReLU"
  bottom: "inception_4e/3x3"
  top: "inception_4e/3x3"
}
layer {
  name: "inception_4e/5x5_reduce"
  type: "Convolution"
  bottom: "inception_4d/output"
  top: "inception_4e/5x5_reduce"
  param {
    lr_mult: 1
    decay_mult: 1
  }
  param {
    lr_mult: 2
    decay_mult: 0
  }
  convolution_param {
    num_output: 32
    kernel_size: 1
    weight_filler {
      type: "xavier"
      std: 0.2
    }
    bias_filler {
      type: "constant"
      value: 0.2
    }
  }
}
layer {
  name: "inception_4e/relu_5x5_reduce"
  type: "ReLU"
  bottom: "inception_4e/5x5_reduce"
  top: "inception_4e/5x5_reduce"
}
layer {
  name: "inception_4e/5x5"
  type: "Convolution"
  bottom: "inception_4e/5x5_reduce"
  top: "inception_4e/
I0403 14:58:24.945775  2351 layer_factory.hpp:77] Creating layer data
I0403 14:58:24.946401  2351 net.cpp:91] Creating Layer data
I0403 14:58:24.946435  2351 net.cpp:399] data -> data
I0403 14:58:24.946487  2351 net.cpp:399] data -> label
I0403 14:58:24.946524  2351 data_transformer.cpp:25] Loading mean file from: /home/mohanty/data/final_dataset/lmdb/grayscale-50-50/mean.binaryproto
I0403 14:58:24.976037  2354 db_lmdb.cpp:38] Opened lmdb /home/mohanty/data/final_dataset/lmdb/grayscale-50-50/test_db
I0403 14:58:24.982362  2351 data_layer.cpp:41] output data size: 24,3,224,224
I0403 14:58:25.010735  2351 net.cpp:141] Setting up data
I0403 14:58:25.010818  2351 net.cpp:148] Top shape: 24 3 224 224 (3612672)
I0403 14:58:25.010841  2351 net.cpp:148] Top shape: 24 (24)
I0403 14:58:25.010857  2351 net.cpp:156] Memory required for data: 14450784
I0403 14:58:25.010885  2351 layer_factory.hpp:77] Creating layer label_data_1_split
I0403 14:58:25.010911  2351 net.cpp:91] Creating Layer label_data_1_split
I0403 14:58:25.010929  2351 net.cpp:425] label_data_1_split <- label
I0403 14:58:25.010962  2351 net.cpp:399] label_data_1_split -> label_data_1_split_0
I0403 14:58:25.010990  2351 net.cpp:399] label_data_1_split -> label_data_1_split_1
I0403 14:58:25.011013  2351 net.cpp:399] label_data_1_split -> label_data_1_split_2
I0403 14:58:25.011034  2351 net.cpp:399] label_data_1_split -> label_data_1_split_3
I0403 14:58:25.011054  2351 net.cpp:399] label_data_1_split -> label_data_1_split_4
I0403 14:58:25.011075  2351 net.cpp:399] label_data_1_split -> label_data_1_split_5
I0403 14:58:25.011095  2351 net.cpp:399] label_data_1_split -> label_data_1_split_6
I0403 14:58:25.011116  2351 net.cpp:399] label_data_1_split -> label_data_1_split_7
I0403 14:58:25.011135  2351 net.cpp:399] label_data_1_split -> label_data_1_split_8
I0403 14:58:25.011157  2351 net.cpp:399] label_data_1_split -> label_data_1_split_9
I0403 14:58:25.011281  2351 net.cpp:141] Setting up label_data_1_split
I0403 14:58:25.011306  2351 net.cpp:148] Top shape: 24 (24)
I0403 14:58:25.011323  2351 net.cpp:148] Top shape: 24 (24)
I0403 14:58:25.011340  2351 net.cpp:148] Top shape: 24 (24)
I0403 14:58:25.011356  2351 net.cpp:148] Top shape: 24 (24)
I0403 14:58:25.011373  2351 net.cpp:148] Top shape: 24 (24)
I0403 14:58:25.011389  2351 net.cpp:148] Top shape: 24 (24)
I0403 14:58:25.011404  2351 net.cpp:148] Top shape: 24 (24)
I0403 14:58:25.011420  2351 net.cpp:148] Top shape: 24 (24)
I0403 14:58:25.011438  2351 net.cpp:148] Top shape: 24 (24)
I0403 14:58:25.011456  2351 net.cpp:148] Top shape: 24 (24)
I0403 14:58:25.011500  2351 net.cpp:156] Memory required for data: 14451744
I0403 14:58:25.011517  2351 layer_factory.hpp:77] Creating layer conv1/7x7_s2
I0403 14:58:25.011548  2351 net.cpp:91] Creating Layer conv1/7x7_s2
I0403 14:58:25.011567  2351 net.cpp:425] conv1/7x7_s2 <- data
I0403 14:58:25.011587  2351 net.cpp:399] conv1/7x7_s2 -> conv1/7x7_s2
I0403 14:58:25.165451  2351 net.cpp:141] Setting up conv1/7x7_s2
I0403 14:58:25.165529  2351 net.cpp:148] Top shape: 24 64 112 112 (19267584)
I0403 14:58:25.165546  2351 net.cpp:156] Memory required for data: 91522080
I0403 14:58:25.165580  2351 layer_factory.hpp:77] Creating layer conv1/relu_7x7
I0403 14:58:25.165606  2351 net.cpp:91] Creating Layer conv1/relu_7x7
I0403 14:58:25.165626  2351 net.cpp:425] conv1/relu_7x7 <- conv1/7x7_s2
I0403 14:58:25.165647  2351 net.cpp:386] conv1/relu_7x7 -> conv1/7x7_s2 (in-place)
I0403 14:58:25.165935  2351 net.cpp:141] Setting up conv1/relu_7x7
I0403 14:58:25.165963  2351 net.cpp:148] Top shape: 24 64 112 112 (19267584)
I0403 14:58:25.165980  2351 net.cpp:156] Memory required for data: 168592416
I0403 14:58:25.165997  2351 layer_factory.hpp:77] Creating layer pool1/3x3_s2
I0403 14:58:25.166021  2351 net.cpp:91] Creating Layer pool1/3x3_s2
I0403 14:58:25.166040  2351 net.cpp:425] pool1/3x3_s2 <- conv1/7x7_s2
I0403 14:58:25.166064  2351 net.cpp:399] pool1/3x3_s2 -> pool1/3x3_s2
I0403 14:58:25.166142  2351 net.cpp:141] Setting up pool1/3x3_s2
I0403 14:58:25.166168  2351 net.cpp:148] Top shape: 24 64 56 56 (4816896)
I0403 14:58:25.166184  2351 net.cpp:156] Memory required for data: 187860000
I0403 14:58:25.166199  2351 layer_factory.hpp:77] Creating layer pool1/norm1
I0403 14:58:25.166226  2351 net.cpp:91] Creating Layer pool1/norm1
I0403 14:58:25.166250  2351 net.cpp:425] pool1/norm1 <- pool1/3x3_s2
I0403 14:58:25.166273  2351 net.cpp:399] pool1/norm1 -> pool1/norm1
I0403 14:58:25.166599  2351 net.cpp:141] Setting up pool1/norm1
I0403 14:58:25.166627  2351 net.cpp:148] Top shape: 24 64 56 56 (4816896)
I0403 14:58:25.166642  2351 net.cpp:156] Memory required for data: 207127584
I0403 14:58:25.166658  2351 layer_factory.hpp:77] Creating layer conv2/3x3_reduce
I0403 14:58:25.166687  2351 net.cpp:91] Creating Layer conv2/3x3_reduce
I0403 14:58:25.166704  2351 net.cpp:425] conv2/3x3_reduce <- pool1/norm1
I0403 14:58:25.166725  2351 net.cpp:399] conv2/3x3_reduce -> conv2/3x3_reduce
I0403 14:58:25.168170  2351 net.cpp:141] Setting up conv2/3x3_reduce
I0403 14:58:25.168205  2351 net.cpp:148] Top shape: 24 64 56 56 (4816896)
I0403 14:58:25.168222  2351 net.cpp:156] Memory required for data: 226395168
I0403 14:58:25.168248  2351 layer_factory.hpp:77] Creating layer conv2/relu_3x3_reduce
I0403 14:58:25.168269  2351 net.cpp:91] Creating Layer conv2/relu_3x3_reduce
I0403 14:58:25.168287  2351 net.cpp:425] conv2/relu_3x3_reduce <- conv2/3x3_reduce
I0403 14:58:25.168308  2351 net.cpp:386] conv2/relu_3x3_reduce -> conv2/3x3_reduce (in-place)
I0403 14:58:25.168593  2351 net.cpp:141] Setting up conv2/relu_3x3_reduce
I0403 14:58:25.168623  2351 net.cpp:148] Top shape: 24 64 56 56 (4816896)
I0403 14:58:25.168640  2351 net.cpp:156] Memory required for data: 245662752
I0403 14:58:25.168655  2351 layer_factory.hpp:77] Creating layer conv2/3x3
I0403 14:58:25.168680  2351 net.cpp:91] Creating Layer conv2/3x3
I0403 14:58:25.168699  2351 net.cpp:425] conv2/3x3 <- conv2/3x3_reduce
I0403 14:58:25.168718  2351 net.cpp:399] conv2/3x3 -> conv2/3x3
I0403 14:58:25.171151  2351 net.cpp:141] Setting up conv2/3x3
I0403 14:58:25.171186  2351 net.cpp:148] Top shape: 24 192 56 56 (14450688)
I0403 14:58:25.171205  2351 net.cpp:156] Memory required for data: 303465504
I0403 14:58:25.171226  2351 layer_factory.hpp:77] Creating layer conv2/relu_3x3
I0403 14:58:25.171252  2351 net.cpp:91] Creating Layer conv2/relu_3x3
I0403 14:58:25.171268  2351 net.cpp:425] conv2/relu_3x3 <- conv2/3x3
I0403 14:58:25.171286  2351 net.cpp:386] conv2/relu_3x3 -> conv2/3x3 (in-place)
I0403 14:58:25.171483  2351 net.cpp:141] Setting up conv2/relu_3x3
I0403 14:58:25.171509  2351 net.cpp:148] Top shape: 24 192 56 56 (14450688)
I0403 14:58:25.171555  2351 net.cpp:156] Memory required for data: 361268256
I0403 14:58:25.171572  2351 layer_factory.hpp:77] Creating layer conv2/norm2
I0403 14:58:25.171596  2351 net.cpp:91] Creating Layer conv2/norm2
I0403 14:58:25.171613  2351 net.cpp:425] conv2/norm2 <- conv2/3x3
I0403 14:58:25.171633  2351 net.cpp:399] conv2/norm2 -> conv2/norm2
I0403 14:58:25.171958  2351 net.cpp:141] Setting up conv2/norm2
I0403 14:58:25.171986  2351 net.cpp:148] Top shape: 24 192 56 56 (14450688)
I0403 14:58:25.172003  2351 net.cpp:156] Memory required for data: 419071008
I0403 14:58:25.172018  2351 layer_factory.hpp:77] Creating layer pool2/3x3_s2
I0403 14:58:25.172039  2351 net.cpp:91] Creating Layer pool2/3x3_s2
I0403 14:58:25.172055  2351 net.cpp:425] pool2/3x3_s2 <- conv2/norm2
I0403 14:58:25.172073  2351 net.cpp:399] pool2/3x3_s2 -> pool2/3x3_s2
I0403 14:58:25.172128  2351 net.cpp:141] Setting up pool2/3x3_s2
I0403 14:58:25.172153  2351 net.cpp:148] Top shape: 24 192 28 28 (3612672)
I0403 14:58:25.172173  2351 net.cpp:156] Memory required for data: 433521696
I0403 14:58:25.172195  2351 layer_factory.hpp:77] Creating layer pool2/3x3_s2_pool2/3x3_s2_0_split
I0403 14:58:25.172220  2351 net.cpp:91] Creating Layer pool2/3x3_s2_pool2/3x3_s2_0_split
I0403 14:58:25.172245  2351 net.cpp:425] pool2/3x3_s2_pool2/3x3_s2_0_split <- pool2/3x3_s2
I0403 14:58:25.172271  2351 net.cpp:399] pool2/3x3_s2_pool2/3x3_s2_0_split -> pool2/3x3_s2_pool2/3x3_s2_0_split_0
I0403 14:58:25.172292  2351 net.cpp:399] pool2/3x3_s2_pool2/3x3_s2_0_split -> pool2/3x3_s2_pool2/3x3_s2_0_split_1
I0403 14:58:25.172313  2351 net.cpp:399] pool2/3x3_s2_pool2/3x3_s2_0_split -> pool2/3x3_s2_pool2/3x3_s2_0_split_2
I0403 14:58:25.172334  2351 net.cpp:399] pool2/3x3_s2_pool2/3x3_s2_0_split -> pool2/3x3_s2_pool2/3x3_s2_0_split_3
I0403 14:58:25.172410  2351 net.cpp:141] Setting up pool2/3x3_s2_pool2/3x3_s2_0_split
I0403 14:58:25.172438  2351 net.cpp:148] Top shape: 24 192 28 28 (3612672)
I0403 14:58:25.172456  2351 net.cpp:148] Top shape: 24 192 28 28 (3612672)
I0403 14:58:25.172472  2351 net.cpp:148] Top shape: 24 192 28 28 (3612672)
I0403 14:58:25.172488  2351 net.cpp:148] Top shape: 24 192 28 28 (3612672)
I0403 14:58:25.172502  2351 net.cpp:156] Memory required for data: 491324448
I0403 14:58:25.172518  2351 layer_factory.hpp:77] Creating layer inception_3a/1x1
I0403 14:58:25.172540  2351 net.cpp:91] Creating Layer inception_3a/1x1
I0403 14:58:25.172559  2351 net.cpp:425] inception_3a/1x1 <- pool2/3x3_s2_pool2/3x3_s2_0_split_0
I0403 14:58:25.172579  2351 net.cpp:399] inception_3a/1x1 -> inception_3a/1x1
I0403 14:58:25.174197  2351 net.cpp:141] Setting up inception_3a/1x1
I0403 14:58:25.174231  2351 net.cpp:148] Top shape: 24 64 28 28 (1204224)
I0403 14:58:25.174252  2351 net.cpp:156] Memory required for data: 496141344
I0403 14:58:25.174273  2351 layer_factory.hpp:77] Creating layer inception_3a/relu_1x1
I0403 14:58:25.174294  2351 net.cpp:91] Creating Layer inception_3a/relu_1x1
I0403 14:58:25.174312  2351 net.cpp:425] inception_3a/relu_1x1 <- inception_3a/1x1
I0403 14:58:25.174330  2351 net.cpp:386] inception_3a/relu_1x1 -> inception_3a/1x1 (in-place)
I0403 14:58:25.174511  2351 net.cpp:141] Setting up inception_3a/relu_1x1
I0403 14:58:25.174540  2351 net.cpp:148] Top shape: 24 64 28 28 (1204224)
I0403 14:58:25.174556  2351 net.cpp:156] Memory required for data: 500958240
I0403 14:58:25.174571  2351 layer_factory.hpp:77] Creating layer inception_3a/3x3_reduce
I0403 14:58:25.174594  2351 net.cpp:91] Creating Layer inception_3a/3x3_reduce
I0403 14:58:25.174613  2351 net.cpp:425] inception_3a/3x3_reduce <- pool2/3x3_s2_pool2/3x3_s2_0_split_1
I0403 14:58:25.174633  2351 net.cpp:399] inception_3a/3x3_reduce -> inception_3a/3x3_reduce
I0403 14:58:25.176424  2351 net.cpp:141] Setting up inception_3a/3x3_reduce
I0403 14:58:25.176456  2351 net.cpp:148] Top shape: 24 96 28 28 (1806336)
I0403 14:58:25.176473  2351 net.cpp:156] Memory required for data: 508183584
I0403 14:58:25.176498  2351 layer_factory.hpp:77] Creating layer inception_3a/relu_3x3_reduce
I0403 14:58:25.176535  2351 net.cpp:91] Creating Layer inception_3a/relu_3x3_reduce
I0403 14:58:25.176553  2351 net.cpp:425] inception_3a/relu_3x3_reduce <- inception_3a/3x3_reduce
I0403 14:58:25.176571  2351 net.cpp:386] inception_3a/relu_3x3_reduce -> inception_3a/3x3_reduce (in-place)
I0403 14:58:25.176766  2351 net.cpp:141] Setting up inception_3a/relu_3x3_reduce
I0403 14:58:25.176792  2351 net.cpp:148] Top shape: 24 96 28 28 (1806336)
I0403 14:58:25.176807  2351 net.cpp:156] Memory required for data: 515408928
I0403 14:58:25.176823  2351 layer_factory.hpp:77] Creating layer inception_3a/3x3
I0403 14:58:25.176848  2351 net.cpp:91] Creating Layer inception_3a/3x3
I0403 14:58:25.176867  2351 net.cpp:425] inception_3a/3x3 <- inception_3a/3x3_reduce
I0403 14:58:25.176888  2351 net.cpp:399] inception_3a/3x3 -> inception_3a/3x3
I0403 14:58:25.178627  2351 net.cpp:141] Setting up inception_3a/3x3
I0403 14:58:25.178658  2351 net.cpp:148] Top shape: 24 128 28 28 (2408448)
I0403 14:58:25.178673  2351 net.cpp:156] Memory required for data: 525042720
I0403 14:58:25.178692  2351 layer_factory.hpp:77] Creating layer inception_3a/relu_3x3
I0403 14:58:25.178714  2351 net.cpp:91] Creating Layer inception_3a/relu_3x3
I0403 14:58:25.178731  2351 net.cpp:425] inception_3a/relu_3x3 <- inception_3a/3x3
I0403 14:58:25.178750  2351 net.cpp:386] inception_3a/relu_3x3 -> inception_3a/3x3 (in-place)
I0403 14:58:25.179035  2351 net.cpp:141] Setting up inception_3a/relu_3x3
I0403 14:58:25.179064  2351 net.cpp:148] Top shape: 24 128 28 28 (2408448)
I0403 14:58:25.179080  2351 net.cpp:156] Memory required for data: 534676512
I0403 14:58:25.179095  2351 layer_factory.hpp:77] Creating layer inception_3a/5x5_reduce
I0403 14:58:25.179118  2351 net.cpp:91] Creating Layer inception_3a/5x5_reduce
I0403 14:58:25.179136  2351 net.cpp:425] inception_3a/5x5_reduce <- pool2/3x3_s2_pool2/3x3_s2_0_split_2
I0403 14:58:25.179157  2351 net.cpp:399] inception_3a/5x5_reduce -> inception_3a/5x5_reduce
I0403 14:58:25.180196  2351 net.cpp:141] Setting up inception_3a/5x5_reduce
I0403 14:58:25.180225  2351 net.cpp:148] Top shape: 24 16 28 28 (301056)
I0403 14:58:25.180245  2351 net.cpp:156] Memory required for data: 535880736
I0403 14:58:25.180266  2351 layer_factory.hpp:77] Creating layer inception_3a/relu_5x5_reduce
I0403 14:58:25.180289  2351 net.cpp:91] Creating Layer inception_3a/relu_5x5_reduce
I0403 14:58:25.180306  2351 net.cpp:425] inception_3a/relu_5x5_reduce <- inception_3a/5x5_reduce
I0403 14:58:25.180325  2351 net.cpp:386] inception_3a/relu_5x5_reduce -> inception_3a/5x5_reduce (in-place)
I0403 14:58:25.180635  2351 net.cpp:141] Setting up inception_3a/relu_5x5_reduce
I0403 14:58:25.180665  2351 net.cpp:148] Top shape: 24 16 28 28 (301056)
I0403 14:58:25.180681  2351 net.cpp:156] Memory required for data: 537084960
I0403 14:58:25.180697  2351 layer_factory.hpp:77] Creating layer inception_3a/5x5
I0403 14:58:25.180721  2351 net.cpp:91] Creating Layer inception_3a/5x5
I0403 14:58:25.180738  2351 net.cpp:425] inception_3a/5x5 <- inception_3a/5x5_reduce
I0403 14:58:25.180757  2351 net.cpp:399] inception_3a/5x5 -> inception_3a/5x5
I0403 14:58:25.181825  2351 net.cpp:141] Setting up inception_3a/5x5
I0403 14:58:25.181859  2351 net.cpp:148] Top shape: 24 32 28 28 (602112)
I0403 14:58:25.181875  2351 net.cpp:156] Memory required for data: 539493408
I0403 14:58:25.181898  2351 layer_factory.hpp:77] Creating layer inception_3a/relu_5x5
I0403 14:58:25.181921  2351 net.cpp:91] Creating Layer inception_3a/relu_5x5
I0403 14:58:25.181938  2351 net.cpp:425] inception_3a/relu_5x5 <- inception_3a/5x5
I0403 14:58:25.181957  2351 net.cpp:386] inception_3a/relu_5x5 -> inception_3a/5x5 (in-place)
I0403 14:58:25.182138  2351 net.cpp:141] Setting up inception_3a/relu_5x5
I0403 14:58:25.182168  2351 net.cpp:148] Top shape: 24 32 28 28 (602112)
I0403 14:58:25.182183  2351 net.cpp:156] Memory required for data: 541901856
I0403 14:58:25.182199  2351 layer_factory.hpp:77] Creating layer inception_3a/pool
I0403 14:58:25.182217  2351 net.cpp:91] Creating Layer inception_3a/pool
I0403 14:58:25.182260  2351 net.cpp:425] inception_3a/pool <- pool2/3x3_s2_pool2/3x3_s2_0_split_3
I0403 14:58:25.182281  2351 net.cpp:399] inception_3a/pool -> inception_3a/pool
I0403 14:58:25.182343  2351 net.cpp:141] Setting up inception_3a/pool
I0403 14:58:25.182368  2351 net.cpp:148] Top shape: 24 192 28 28 (3612672)
I0403 14:58:25.182384  2351 net.cpp:156] Memory required for data: 556352544
I0403 14:58:25.182399  2351 layer_factory.hpp:77] Creating layer inception_3a/pool_proj
I0403 14:58:25.182423  2351 net.cpp:91] Creating Layer inception_3a/pool_proj
I0403 14:58:25.182442  2351 net.cpp:425] inception_3a/pool_proj <- inception_3a/pool
I0403 14:58:25.182464  2351 net.cpp:399] inception_3a/pool_proj -> inception_3a/pool_proj
I0403 14:58:25.183480  2351 net.cpp:141] Setting up inception_3a/pool_proj
I0403 14:58:25.183508  2351 net.cpp:148] Top shape: 24 32 28 28 (602112)
I0403 14:58:25.183524  2351 net.cpp:156] Memory required for data: 558760992
I0403 14:58:25.183550  2351 layer_factory.hpp:77] Creating layer inception_3a/relu_pool_proj
I0403 14:58:25.183571  2351 net.cpp:91] Creating Layer inception_3a/relu_pool_proj
I0403 14:58:25.183588  2351 net.cpp:425] inception_3a/relu_pool_proj <- inception_3a/pool_proj
I0403 14:58:25.183607  2351 net.cpp:386] inception_3a/relu_pool_proj -> inception_3a/pool_proj (in-place)
I0403 14:58:25.183907  2351 net.cpp:141] Setting up inception_3a/relu_pool_proj
I0403 14:58:25.183934  2351 net.cpp:148] Top shape: 24 32 28 28 (602112)
I0403 14:58:25.183950  2351 net.cpp:156] Memory required for data: 561169440
I0403 14:58:25.183966  2351 layer_factory.hpp:77] Creating layer inception_3a/output
I0403 14:58:25.183987  2351 net.cpp:91] Creating Layer inception_3a/output
I0403 14:58:25.184005  2351 net.cpp:425] inception_3a/output <- inception_3a/1x1
I0403 14:58:25.184022  2351 net.cpp:425] inception_3a/output <- inception_3a/3x3
I0403 14:58:25.184038  2351 net.cpp:425] inception_3a/output <- inception_3a/5x5
I0403 14:58:25.184054  2351 net.cpp:425] inception_3a/output <- inception_3a/pool_proj
I0403 14:58:25.184072  2351 net.cpp:399] inception_3a/output -> inception_3a/output
I0403 14:58:25.184121  2351 net.cpp:141] Setting up inception_3a/output
I0403 14:58:25.184146  2351 net.cpp:148] Top shape: 24 256 28 28 (4816896)
I0403 14:58:25.184160  2351 net.cpp:156] Memory required for data: 580437024
I0403 14:58:25.184176  2351 layer_factory.hpp:77] Creating layer inception_3a/output_inception_3a/output_0_split
I0403 14:58:25.184193  2351 net.cpp:91] Creating Layer inception_3a/output_inception_3a/output_0_split
I0403 14:58:25.184209  2351 net.cpp:425] inception_3a/output_inception_3a/output_0_split <- inception_3a/output
I0403 14:58:25.184231  2351 net.cpp:399] inception_3a/output_inception_3a/output_0_split -> inception_3a/output_inception_3a/output_0_split_0
I0403 14:58:25.184257  2351 net.cpp:399] inception_3a/output_inception_3a/output_0_split -> inception_3a/output_inception_3a/output_0_split_1
I0403 14:58:25.184284  2351 net.cpp:399] inception_3a/output_inception_3a/output_0_split -> inception_3a/output_inception_3a/output_0_split_2
I0403 14:58:25.184308  2351 net.cpp:399] inception_3a/output_inception_3a/output_0_split -> inception_3a/output_inception_3a/output_0_split_3
I0403 14:58:25.184383  2351 net.cpp:141] Setting up inception_3a/output_inception_3a/output_0_split
I0403 14:58:25.184407  2351 net.cpp:148] Top shape: 24 256 28 28 (4816896)
I0403 14:58:25.184425  2351 net.cpp:148] Top shape: 24 256 28 28 (4816896)
I0403 14:58:25.184442  2351 net.cpp:148] Top shape: 24 256 28 28 (4816896)
I0403 14:58:25.184458  2351 net.cpp:148] Top shape: 24 256 28 28 (4816896)
I0403 14:58:25.184473  2351 net.cpp:156] Memory required for data: 657507360
I0403 14:58:25.184489  2351 layer_factory.hpp:77] Creating layer inception_3b/1x1
I0403 14:58:25.184512  2351 net.cpp:91] Creating Layer inception_3b/1x1
I0403 14:58:25.184531  2351 net.cpp:425] inception_3b/1x1 <- inception_3a/output_inception_3a/output_0_split_0
I0403 14:58:25.184552  2351 net.cpp:399] inception_3b/1x1 -> inception_3b/1x1
I0403 14:58:25.185780  2351 net.cpp:141] Setting up inception_3b/1x1
I0403 14:58:25.185820  2351 net.cpp:148] Top shape: 24 128 28 28 (2408448)
I0403 14:58:25.185837  2351 net.cpp:156] Memory required for data: 667141152
I0403 14:58:25.185856  2351 layer_factory.hpp:77] Creating layer inception_3b/relu_1x1
I0403 14:58:25.185879  2351 net.cpp:91] Creating Layer inception_3b/relu_1x1
I0403 14:58:25.185896  2351 net.cpp:425] inception_3b/relu_1x1 <- inception_3b/1x1
I0403 14:58:25.185914  2351 net.cpp:386] inception_3b/relu_1x1 -> inception_3b/1x1 (in-place)
I0403 14:58:25.186100  2351 net.cpp:141] Setting up inception_3b/relu_1x1
I0403 14:58:25.186127  2351 net.cpp:148] Top shape: 24 128 28 28 (2408448)
I0403 14:58:25.186142  2351 net.cpp:156] Memory required for data: 676774944
I0403 14:58:25.186158  2351 layer_factory.hpp:77] Creating layer inception_3b/3x3_reduce
I0403 14:58:25.186183  2351 net.cpp:91] Creating Layer inception_3b/3x3_reduce
I0403 14:58:25.186202  2351 net.cpp:425] inception_3b/3x3_reduce <- inception_3a/output_inception_3a/output_0_split_1
I0403 14:58:25.186223  2351 net.cpp:399] inception_3b/3x3_reduce -> inception_3b/3x3_reduce
I0403 14:58:25.187443  2351 net.cpp:141] Setting up inception_3b/3x3_reduce
I0403 14:58:25.187472  2351 net.cpp:148] Top shape: 24 128 28 28 (2408448)
I0403 14:58:25.187489  2351 net.cpp:156] Memory required for data: 686408736
I0403 14:58:25.187508  2351 layer_factory.hpp:77] Creating layer inception_3b/relu_3x3_reduce
I0403 14:58:25.187530  2351 net.cpp:91] Creating Layer inception_3b/relu_3x3_reduce
I0403 14:58:25.187546  2351 net.cpp:425] inception_3b/relu_3x3_reduce <- inception_3b/3x3_reduce
I0403 14:58:25.187566  2351 net.cpp:386] inception_3b/relu_3x3_reduce -> inception_3b/3x3_reduce (in-place)
I0403 14:58:25.187752  2351 net.cpp:141] Setting up inception_3b/relu_3x3_reduce
I0403 14:58:25.187780  2351 net.cpp:148] Top shape: 24 128 28 28 (2408448)
I0403 14:58:25.187795  2351 net.cpp:156] Memory required for data: 696042528
I0403 14:58:25.187810  2351 layer_factory.hpp:77] Creating layer inception_3b/3x3
I0403 14:58:25.187839  2351 net.cpp:91] Creating Layer inception_3b/3x3
I0403 14:58:25.187856  2351 net.cpp:425] inception_3b/3x3 <- inception_3b/3x3_reduce
I0403 14:58:25.187880  2351 net.cpp:399] inception_3b/3x3 -> inception_3b/3x3
I0403 14:58:25.190970  2351 net.cpp:141] Setting up inception_3b/3x3
I0403 14:58:25.191006  2351 net.cpp:148] Top shape: 24 192 28 28 (3612672)
I0403 14:58:25.191031  2351 net.cpp:156] Memory required for data: 710493216
I0403 14:58:25.191058  2351 layer_factory.hpp:77] Creating layer inception_3b/relu_3x3
I0403 14:58:25.191085  2351 net.cpp:91] Creating Layer inception_3b/relu_3x3
I0403 14:58:25.191108  2351 net.cpp:425] inception_3b/relu_3x3 <- inception_3b/3x3
I0403 14:58:25.191128  2351 net.cpp:386] inception_3b/relu_3x3 -> inception_3b/3x3 (in-place)
I0403 14:58:25.191431  2351 net.cpp:141] Setting up inception_3b/relu_3x3
I0403 14:58:25.191459  2351 net.cpp:148] Top shape: 24 192 28 28 (3612672)
I0403 14:58:25.191474  2351 net.cpp:156] Memory required for data: 724943904
I0403 14:58:25.191491  2351 layer_factory.hpp:77] Creating layer inception_3b/5x5_reduce
I0403 14:58:25.191515  2351 net.cpp:91] Creating Layer inception_3b/5x5_reduce
I0403 14:58:25.191536  2351 net.cpp:425] inception_3b/5x5_reduce <- inception_3a/output_inception_3a/output_0_split_2
I0403 14:58:25.191556  2351 net.cpp:399] inception_3b/5x5_reduce -> inception_3b/5x5_reduce
I0403 14:58:25.192613  2351 net.cpp:141] Setting up inception_3b/5x5_reduce
I0403 14:58:25.192642  2351 net.cpp:148] Top shape: 24 32 28 28 (602112)
I0403 14:58:25.192658  2351 net.cpp:156] Memory required for data: 727352352
I0403 14:58:25.192677  2351 layer_factory.hpp:77] Creating layer inception_3b/relu_5x5_reduce
I0403 14:58:25.192698  2351 net.cpp:91] Creating Layer inception_3b/relu_5x5_reduce
I0403 14:58:25.192715  2351 net.cpp:425] inception_3b/relu_5x5_reduce <- inception_3b/5x5_reduce
I0403 14:58:25.192734  2351 net.cpp:386] inception_3b/relu_5x5_reduce -> inception_3b/5x5_reduce (in-place)
I0403 14:58:25.192937  2351 net.cpp:141] Setting up inception_3b/relu_5x5_reduce
I0403 14:58:25.192966  2351 net.cpp:148] Top shape: 24 32 28 28 (602112)
I0403 14:58:25.192982  2351 net.cpp:156] Memory required for data: 729760800
I0403 14:58:25.192997  2351 layer_factory.hpp:77] Creating layer inception_3b/5x5
I0403 14:58:25.193020  2351 net.cpp:91] Creating Layer inception_3b/5x5
I0403 14:58:25.193038  2351 net.cpp:425] inception_3b/5x5 <- inception_3b/5x5_reduce
I0403 14:58:25.193058  2351 net.cpp:399] inception_3b/5x5 -> inception_3b/5x5
I0403 14:58:25.195132  2351 net.cpp:141] Setting up inception_3b/5x5
I0403 14:58:25.195164  2351 net.cpp:148] Top shape: 24 96 28 28 (1806336)
I0403 14:58:25.195180  2351 net.cpp:156] Memory required for data: 736986144
I0403 14:58:25.195200  2351 layer_factory.hpp:77] Creating layer inception_3b/relu_5x5
I0403 14:58:25.195221  2351 net.cpp:91] Creating Layer inception_3b/relu_5x5
I0403 14:58:25.195238  2351 net.cpp:425] inception_3b/relu_5x5 <- inception_3b/5x5
I0403 14:58:25.195264  2351 net.cpp:386] inception_3b/relu_5x5 -> inception_3b/5x5 (in-place)
I0403 14:58:25.195479  2351 net.cpp:141] Setting up inception_3b/relu_5x5
I0403 14:58:25.195508  2351 net.cpp:148] Top shape: 24 96 28 28 (1806336)
I0403 14:58:25.195523  2351 net.cpp:156] Memory required for data: 744211488
I0403 14:58:25.195538  2351 layer_factory.hpp:77] Creating layer inception_3b/pool
I0403 14:58:25.195557  2351 net.cpp:91] Creating Layer inception_3b/pool
I0403 14:58:25.195574  2351 net.cpp:425] inception_3b/pool <- inception_3a/output_inception_3a/output_0_split_3
I0403 14:58:25.195593  2351 net.cpp:399] inception_3b/pool -> inception_3b/pool
I0403 14:58:25.195653  2351 net.cpp:141] Setting up inception_3b/pool
I0403 14:58:25.195677  2351 net.cpp:148] Top shape: 24 256 28 28 (4816896)
I0403 14:58:25.195693  2351 net.cpp:156] Memory required for data: 763479072
I0403 14:58:25.195708  2351 layer_factory.hpp:77] Creating layer inception_3b/pool_proj
I0403 14:58:25.195732  2351 net.cpp:91] Creating Layer inception_3b/pool_proj
I0403 14:58:25.195750  2351 net.cpp:425] inception_3b/pool_proj <- inception_3b/pool
I0403 14:58:25.195772  2351 net.cpp:399] inception_3b/pool_proj -> inception_3b/pool_proj
I0403 14:58:25.196897  2351 net.cpp:141] Setting up inception_3b/pool_proj
I0403 14:58:25.196929  2351 net.cpp:148] Top shape: 24 64 28 28 (1204224)
I0403 14:58:25.196946  2351 net.cpp:156] Memory required for data: 768295968
I0403 14:58:25.196966  2351 layer_factory.hpp:77] Creating layer inception_3b/relu_pool_proj
I0403 14:58:25.196985  2351 net.cpp:91] Creating Layer inception_3b/relu_pool_proj
I0403 14:58:25.197001  2351 net.cpp:425] inception_3b/relu_pool_proj <- inception_3b/pool_proj
I0403 14:58:25.197021  2351 net.cpp:386] inception_3b/relu_pool_proj -> inception_3b/pool_proj (in-place)
I0403 14:58:25.197443  2351 net.cpp:141] Setting up inception_3b/relu_pool_proj
I0403 14:58:25.197474  2351 net.cpp:148] Top shape: 24 64 28 28 (1204224)
I0403 14:58:25.197491  2351 net.cpp:156] Memory required for data: 773112864
I0403 14:58:25.197507  2351 layer_factory.hpp:77] Creating layer inception_3b/output
I0403 14:58:25.197526  2351 net.cpp:91] Creating Layer inception_3b/output
I0403 14:58:25.197542  2351 net.cpp:425] inception_3b/output <- inception_3b/1x1
I0403 14:58:25.197561  2351 net.cpp:425] inception_3b/output <- inception_3b/3x3
I0403 14:58:25.197576  2351 net.cpp:425] inception_3b/output <- inception_3b/5x5
I0403 14:58:25.197593  2351 net.cpp:425] inception_3b/output <- inception_3b/pool_proj
I0403 14:58:25.197612  2351 net.cpp:399] inception_3b/output -> inception_3b/output
I0403 14:58:25.197659  2351 net.cpp:141] Setting up inception_3b/output
I0403 14:58:25.197684  2351 net.cpp:148] Top shape: 24 480 28 28 (9031680)
I0403 14:58:25.197698  2351 net.cpp:156] Memory required for data: 809239584
I0403 14:58:25.197713  2351 layer_factory.hpp:77] Creating layer pool3/3x3_s2
I0403 14:58:25.197734  2351 net.cpp:91] Creating Layer pool3/3x3_s2
I0403 14:58:25.197751  2351 net.cpp:425] pool3/3x3_s2 <- inception_3b/output
I0403 14:58:25.197788  2351 net.cpp:399] pool3/3x3_s2 -> pool3/3x3_s2
I0403 14:58:25.197852  2351 net.cpp:141] Setting up pool3/3x3_s2
I0403 14:58:25.197876  2351 net.cpp:148] Top shape: 24 480 14 14 (2257920)
I0403 14:58:25.197891  2351 net.cpp:156] Memory required for data: 818271264
I0403 14:58:25.197906  2351 layer_factory.hpp:77] Creating layer pool3/3x3_s2_pool3/3x3_s2_0_split
I0403 14:58:25.197924  2351 net.cpp:91] Creating Layer pool3/3x3_s2_pool3/3x3_s2_0_split
I0403 14:58:25.197940  2351 net.cpp:425] pool3/3x3_s2_pool3/3x3_s2_0_split <- pool3/3x3_s2
I0403 14:58:25.197960  2351 net.cpp:399] pool3/3x3_s2_pool3/3x3_s2_0_split -> pool3/3x3_s2_pool3/3x3_s2_0_split_0
I0403 14:58:25.197981  2351 net.cpp:399] pool3/3x3_s2_pool3/3x3_s2_0_split -> pool3/3x3_s2_pool3/3x3_s2_0_split_1
I0403 14:58:25.198001  2351 net.cpp:399] pool3/3x3_s2_pool3/3x3_s2_0_split -> pool3/3x3_s2_pool3/3x3_s2_0_split_2
I0403 14:58:25.198021  2351 net.cpp:399] pool3/3x3_s2_pool3/3x3_s2_0_split -> pool3/3x3_s2_pool3/3x3_s2_0_split_3
I0403 14:58:25.198101  2351 net.cpp:141] Setting up pool3/3x3_s2_pool3/3x3_s2_0_split
I0403 14:58:25.198127  2351 net.cpp:148] Top shape: 24 480 14 14 (2257920)
I0403 14:58:25.198145  2351 net.cpp:148] Top shape: 24 480 14 14 (2257920)
I0403 14:58:25.198161  2351 net.cpp:148] Top shape: 24 480 14 14 (2257920)
I0403 14:58:25.198178  2351 net.cpp:148] Top shape: 24 480 14 14 (2257920)
I0403 14:58:25.198191  2351 net.cpp:156] Memory required for data: 854397984
I0403 14:58:25.198207  2351 layer_factory.hpp:77] Creating layer inception_4a/1x1
I0403 14:58:25.198230  2351 net.cpp:91] Creating Layer inception_4a/1x1
I0403 14:58:25.198253  2351 net.cpp:425] inception_4a/1x1 <- pool3/3x3_s2_pool3/3x3_s2_0_split_0
I0403 14:58:25.198273  2351 net.cpp:399] inception_4a/1x1 -> inception_4a/1x1
I0403 14:58:25.199923  2351 net.cpp:141] Setting up inception_4a/1x1
I0403 14:58:25.199952  2351 net.cpp:148] Top shape: 24 192 14 14 (903168)
I0403 14:58:25.199968  2351 net.cpp:156] Memory required for data: 858010656
I0403 14:58:25.199987  2351 layer_factory.hpp:77] Creating layer inception_4a/relu_1x1
I0403 14:58:25.200006  2351 net.cpp:91] Creating Layer inception_4a/relu_1x1
I0403 14:58:25.200023  2351 net.cpp:425] inception_4a/relu_1x1 <- inception_4a/1x1
I0403 14:58:25.200043  2351 net.cpp:386] inception_4a/relu_1x1 -> inception_4a/1x1 (in-place)
I0403 14:58:25.200228  2351 net.cpp:141] Setting up inception_4a/relu_1x1
I0403 14:58:25.200259  2351 net.cpp:148] Top shape: 24 192 14 14 (903168)
I0403 14:58:25.200275  2351 net.cpp:156] Memory required for data: 861623328
I0403 14:58:25.200290  2351 layer_factory.hpp:77] Creating layer inception_4a/3x3_reduce
I0403 14:58:25.200314  2351 net.cpp:91] Creating Layer inception_4a/3x3_reduce
I0403 14:58:25.200332  2351 net.cpp:425] inception_4a/3x3_reduce <- pool3/3x3_s2_pool3/3x3_s2_0_split_1
I0403 14:58:25.200355  2351 net.cpp:399] inception_4a/3x3_reduce -> inception_4a/3x3_reduce
I0403 14:58:25.201706  2351 net.cpp:141] Setting up inception_4a/3x3_reduce
I0403 14:58:25.201737  2351 net.cpp:148] Top shape: 24 96 14 14 (451584)
I0403 14:58:25.201755  2351 net.cpp:156] Memory required for data: 863429664
I0403 14:58:25.201781  2351 layer_factory.hpp:77] Creating layer inception_4a/relu_3x3_reduce
I0403 14:58:25.201802  2351 net.cpp:91] Creating Layer inception_4a/relu_3x3_reduce
I0403 14:58:25.201818  2351 net.cpp:425] inception_4a/relu_3x3_reduce <- inception_4a/3x3_reduce
I0403 14:58:25.201836  2351 net.cpp:386] inception_4a/relu_3x3_reduce -> inception_4a/3x3_reduce (in-place)
I0403 14:58:25.202026  2351 net.cpp:141] Setting up inception_4a/relu_3x3_reduce
I0403 14:58:25.202052  2351 net.cpp:148] Top shape: 24 96 14 14 (451584)
I0403 14:58:25.202069  2351 net.cpp:156] Memory required for data: 865236000
I0403 14:58:25.202085  2351 layer_factory.hpp:77] Creating layer inception_4a/3x3
I0403 14:58:25.202107  2351 net.cpp:91] Creating Layer inception_4a/3x3
I0403 14:58:25.202126  2351 net.cpp:425] inception_4a/3x3 <- inception_4a/3x3_reduce
I0403 14:58:25.202147  2351 net.cpp:399] inception_4a/3x3 -> inception_4a/3x3
I0403 14:58:25.204983  2351 net.cpp:141] Setting up inception_4a/3x3
I0403 14:58:25.205014  2351 net.cpp:148] Top shape: 24 208 14 14 (978432)
I0403 14:58:25.205030  2351 net.cpp:156] Memory required for data: 869149728
I0403 14:58:25.205050  2351 layer_factory.hpp:77] Creating layer inception_4a/relu_3x3
I0403 14:58:25.205071  2351 net.cpp:91] Creating Layer inception_4a/relu_3x3
I0403 14:58:25.205090  2351 net.cpp:425] inception_4a/relu_3x3 <- inception_4a/3x3
I0403 14:58:25.205107  2351 net.cpp:386] inception_4a/relu_3x3 -> inception_4a/3x3 (in-place)
I0403 14:58:25.205404  2351 net.cpp:141] Setting up inception_4a/relu_3x3
I0403 14:58:25.205432  2351 net.cpp:148] Top shape: 24 208 14 14 (978432)
I0403 14:58:25.205447  2351 net.cpp:156] Memory required for data: 873063456
I0403 14:58:25.205464  2351 layer_factory.hpp:77] Creating layer inception_4a/5x5_reduce
I0403 14:58:25.205487  2351 net.cpp:91] Creating Layer inception_4a/5x5_reduce
I0403 14:58:25.205507  2351 net.cpp:425] inception_4a/5x5_reduce <- pool3/3x3_s2_pool3/3x3_s2_0_split_2
I0403 14:58:25.205528  2351 net.cpp:399] inception_4a/5x5_reduce -> inception_4a/5x5_reduce
I0403 14:58:25.206614  2351 net.cpp:141] Setting up inception_4a/5x5_reduce
I0403 14:58:25.206643  2351 net.cpp:148] Top shape: 24 16 14 14 (75264)
I0403 14:58:25.206660  2351 net.cpp:156] Memory required for data: 873364512
I0403 14:58:25.206678  2351 layer_factory.hpp:77] Creating layer inception_4a/relu_5x5_reduce
I0403 14:58:25.206699  2351 net.cpp:91] Creating Layer inception_4a/relu_5x5_reduce
I0403 14:58:25.206715  2351 net.cpp:425] inception_4a/relu_5x5_reduce <- inception_4a/5x5_reduce
I0403 14:58:25.206734  2351 net.cpp:386] inception_4a/relu_5x5_reduce -> inception_4a/5x5_reduce (in-place)
I0403 14:58:25.206919  2351 net.cpp:141] Setting up inception_4a/relu_5x5_reduce
I0403 14:58:25.206949  2351 net.cpp:148] Top shape: 24 16 14 14 (75264)
I0403 14:58:25.206966  2351 net.cpp:156] Memory required for data: 873665568
I0403 14:58:25.206981  2351 layer_factory.hpp:77] Creating layer inception_4a/5x5
I0403 14:58:25.207005  2351 net.cpp:91] Creating Layer inception_4a/5x5
I0403 14:58:25.207022  2351 net.cpp:425] inception_4a/5x5 <- inception_4a/5x5_reduce
I0403 14:58:25.207042  2351 net.cpp:399] inception_4a/5x5 -> inception_4a/5x5
I0403 14:58:25.208183  2351 net.cpp:141] Setting up inception_4a/5x5
I0403 14:58:25.208214  2351 net.cpp:148] Top shape: 24 48 14 14 (225792)
I0403 14:58:25.208231  2351 net.cpp:156] Memory required for data: 874568736
I0403 14:58:25.208256  2351 layer_factory.hpp:77] Creating layer inception_4a/relu_5x5
I0403 14:58:25.208276  2351 net.cpp:91] Creating Layer inception_4a/relu_5x5
I0403 14:58:25.208292  2351 net.cpp:425] inception_4a/relu_5x5 <- inception_4a/5x5
I0403 14:58:25.208312  2351 net.cpp:386] inception_4a/relu_5x5 -> inception_4a/5x5 (in-place)
I0403 14:58:25.208500  2351 net.cpp:141] Setting up inception_4a/relu_5x5
I0403 14:58:25.208526  2351 net.cpp:148] Top shape: 24 48 14 14 (225792)
I0403 14:58:25.208542  2351 net.cpp:156] Memory required for data: 875471904
I0403 14:58:25.208557  2351 layer_factory.hpp:77] Creating layer inception_4a/pool
I0403 14:58:25.208576  2351 net.cpp:91] Creating Layer inception_4a/pool
I0403 14:58:25.208592  2351 net.cpp:425] inception_4a/pool <- pool3/3x3_s2_pool3/3x3_s2_0_split_3
I0403 14:58:25.208613  2351 net.cpp:399] inception_4a/pool -> inception_4a/pool
I0403 14:58:25.208678  2351 net.cpp:141] Setting up inception_4a/pool
I0403 14:58:25.208703  2351 net.cpp:148] Top shape: 24 480 14 14 (2257920)
I0403 14:58:25.208717  2351 net.cpp:156] Memory required for data: 884503584
I0403 14:58:25.208734  2351 layer_factory.hpp:77] Creating layer inception_4a/pool_proj
I0403 14:58:25.208766  2351 net.cpp:91] Creating Layer inception_4a/pool_proj
I0403 14:58:25.208783  2351 net.cpp:425] inception_4a/pool_proj <- inception_4a/pool
I0403 14:58:25.208803  2351 net.cpp:399] inception_4a/pool_proj -> inception_4a/pool_proj
I0403 14:58:25.210036  2351 net.cpp:141] Setting up inception_4a/pool_proj
I0403 14:58:25.210067  2351 net.cpp:148] Top shape: 24 64 14 14 (301056)
I0403 14:58:25.210099  2351 net.cpp:156] Memory required for data: 885707808
I0403 14:58:25.210120  2351 layer_factory.hpp:77] Creating layer inception_4a/relu_pool_proj
I0403 14:58:25.210139  2351 net.cpp:91] Creating Layer inception_4a/relu_pool_proj
I0403 14:58:25.210155  2351 net.cpp:425] inception_4a/relu_pool_proj <- inception_4a/pool_proj
I0403 14:58:25.210177  2351 net.cpp:386] inception_4a/relu_pool_proj -> inception_4a/pool_proj (in-place)
I0403 14:58:25.210475  2351 net.cpp:141] Setting up inception_4a/relu_pool_proj
I0403 14:58:25.210505  2351 net.cpp:148] Top shape: 24 64 14 14 (301056)
I0403 14:58:25.210522  2351 net.cpp:156] Memory required for data: 886912032
I0403 14:58:25.210537  2351 layer_factory.hpp:77] Creating layer inception_4a/output
I0403 14:58:25.210556  2351 net.cpp:91] Creating Layer inception_4a/output
I0403 14:58:25.210572  2351 net.cpp:425] inception_4a/output <- inception_4a/1x1
I0403 14:58:25.210590  2351 net.cpp:425] inception_4a/output <- inception_4a/3x3
I0403 14:58:25.210608  2351 net.cpp:425] inception_4a/output <- inception_4a/5x5
I0403 14:58:25.210624  2351 net.cpp:425] inception_4a/output <- inception_4a/pool_proj
I0403 14:58:25.210644  2351 net.cpp:399] inception_4a/output -> inception_4a/output
I0403 14:58:25.210691  2351 net.cpp:141] Setting up inception_4a/output
I0403 14:58:25.210716  2351 net.cpp:148] Top shape: 24 512 14 14 (2408448)
I0403 14:58:25.210731  2351 net.cpp:156] Memory required for data: 896545824
I0403 14:58:25.210747  2351 layer_factory.hpp:77] Creating layer inception_4a/output_inception_4a/output_0_split
I0403 14:58:25.210768  2351 net.cpp:91] Creating Layer inception_4a/output_inception_4a/output_0_split
I0403 14:58:25.210785  2351 net.cpp:425] inception_4a/output_inception_4a/output_0_split <- inception_4a/output
I0403 14:58:25.210804  2351 net.cpp:399] inception_4a/output_inception_4a/output_0_split -> inception_4a/output_inception_4a/output_0_split_0
I0403 14:58:25.210829  2351 net.cpp:399] inception_4a/output_inception_4a/output_0_split -> inception_4a/output_inception_4a/output_0_split_1
I0403 14:58:25.210850  2351 net.cpp:399] inception_4a/output_inception_4a/output_0_split -> inception_4a/output_inception_4a/output_0_split_2
I0403 14:58:25.210872  2351 net.cpp:399] inception_4a/output_inception_4a/output_0_split -> inception_4a/output_inception_4a/output_0_split_3
I0403 14:58:25.210892  2351 net.cpp:399] inception_4a/output_inception_4a/output_0_split -> inception_4a/output_inception_4a/output_0_split_4
I0403 14:58:25.210988  2351 net.cpp:141] Setting up inception_4a/output_inception_4a/output_0_split
I0403 14:58:25.211011  2351 net.cpp:148] Top shape: 24 512 14 14 (2408448)
I0403 14:58:25.211030  2351 net.cpp:148] Top shape: 24 512 14 14 (2408448)
I0403 14:58:25.211045  2351 net.cpp:148] Top shape: 24 512 14 14 (2408448)
I0403 14:58:25.211061  2351 net.cpp:148] Top shape: 24 512 14 14 (2408448)
I0403 14:58:25.211078  2351 net.cpp:148] Top shape: 24 512 14 14 (2408448)
I0403 14:58:25.211092  2351 net.cpp:156] Memory required for data: 944714784
I0403 14:58:25.211108  2351 layer_factory.hpp:77] Creating layer loss1/ave_pool
I0403 14:58:25.211128  2351 net.cpp:91] Creating Layer loss1/ave_pool
I0403 14:58:25.211145  2351 net.cpp:425] loss1/ave_pool <- inception_4a/output_inception_4a/output_0_split_0
I0403 14:58:25.211165  2351 net.cpp:399] loss1/ave_pool -> loss1/ave_pool
I0403 14:58:25.211388  2351 net.cpp:141] Setting up loss1/ave_pool
I0403 14:58:25.211418  2351 net.cpp:148] Top shape: 24 512 4 4 (196608)
I0403 14:58:25.211436  2351 net.cpp:156] Memory required for data: 945501216
I0403 14:58:25.211452  2351 layer_factory.hpp:77] Creating layer loss1/conv
I0403 14:58:25.211483  2351 net.cpp:91] Creating Layer loss1/conv
I0403 14:58:25.211499  2351 net.cpp:425] loss1/conv <- loss1/ave_pool
I0403 14:58:25.211519  2351 net.cpp:399] loss1/conv -> loss1/conv
I0403 14:58:25.213012  2351 net.cpp:141] Setting up loss1/conv
I0403 14:58:25.213042  2351 net.cpp:148] Top shape: 24 128 4 4 (49152)
I0403 14:58:25.213073  2351 net.cpp:156] Memory required for data: 945697824
I0403 14:58:25.213093  2351 layer_factory.hpp:77] Creating layer loss1/relu_conv
I0403 14:58:25.213116  2351 net.cpp:91] Creating Layer loss1/relu_conv
I0403 14:58:25.213135  2351 net.cpp:425] loss1/relu_conv <- loss1/conv
I0403 14:58:25.213152  2351 net.cpp:386] loss1/relu_conv -> loss1/conv (in-place)
I0403 14:58:25.213460  2351 net.cpp:141] Setting up loss1/relu_conv
I0403 14:58:25.213488  2351 net.cpp:148] Top shape: 24 128 4 4 (49152)
I0403 14:58:25.213503  2351 net.cpp:156] Memory required for data: 945894432
I0403 14:58:25.213520  2351 layer_factory.hpp:77] Creating layer loss1/fc
I0403 14:58:25.213547  2351 net.cpp:91] Creating Layer loss1/fc
I0403 14:58:25.213567  2351 net.cpp:425] loss1/fc <- loss1/conv
I0403 14:58:25.213585  2351 net.cpp:399] loss1/fc -> loss1/fc
I0403 14:58:25.232174  2351 net.cpp:141] Setting up loss1/fc
I0403 14:58:25.232213  2351 net.cpp:148] Top shape: 24 1024 (24576)
I0403 14:58:25.232228  2351 net.cpp:156] Memory required for data: 945992736
I0403 14:58:25.232252  2351 layer_factory.hpp:77] Creating layer loss1/relu_fc
I0403 14:58:25.232275  2351 net.cpp:91] Creating Layer loss1/relu_fc
I0403 14:58:25.232292  2351 net.cpp:425] loss1/relu_fc <- loss1/fc
I0403 14:58:25.232313  2351 net.cpp:386] loss1/relu_fc -> loss1/fc (in-place)
I0403 14:58:25.232522  2351 net.cpp:141] Setting up loss1/relu_fc
I0403 14:58:25.232547  2351 net.cpp:148] Top shape: 24 1024 (24576)
I0403 14:58:25.232561  2351 net.cpp:156] Memory required for data: 946091040
I0403 14:58:25.232576  2351 layer_factory.hpp:77] Creating layer loss1/drop_fc
I0403 14:58:25.232604  2351 net.cpp:91] Creating Layer loss1/drop_fc
I0403 14:58:25.232622  2351 net.cpp:425] loss1/drop_fc <- loss1/fc
I0403 14:58:25.232642  2351 net.cpp:386] loss1/drop_fc -> loss1/fc (in-place)
I0403 14:58:25.232697  2351 net.cpp:141] Setting up loss1/drop_fc
I0403 14:58:25.232722  2351 net.cpp:148] Top shape: 24 1024 (24576)
I0403 14:58:25.232738  2351 net.cpp:156] Memory required for data: 946189344
I0403 14:58:25.232753  2351 layer_factory.hpp:77] Creating layer loss1/classifier_plantvillage
I0403 14:58:25.232772  2351 net.cpp:91] Creating Layer loss1/classifier_plantvillage
I0403 14:58:25.232789  2351 net.cpp:425] loss1/classifier_plantvillage <- loss1/fc
I0403 14:58:25.232810  2351 net.cpp:399] loss1/classifier_plantvillage -> loss1/classifier_plantvillage
I0403 14:58:25.233765  2351 net.cpp:141] Setting up loss1/classifier_plantvillage
I0403 14:58:25.233795  2351 net.cpp:148] Top shape: 24 38 (912)
I0403 14:58:25.233810  2351 net.cpp:156] Memory required for data: 946192992
I0403 14:58:25.233829  2351 layer_factory.hpp:77] Creating layer loss1/classifier_plantvillage_loss1/classifier_plantvillage_0_split
I0403 14:58:25.233849  2351 net.cpp:91] Creating Layer loss1/classifier_plantvillage_loss1/classifier_plantvillage_0_split
I0403 14:58:25.233863  2351 net.cpp:425] loss1/classifier_plantvillage_loss1/classifier_plantvillage_0_split <- loss1/classifier_plantvillage
I0403 14:58:25.233883  2351 net.cpp:399] loss1/classifier_plantvillage_loss1/classifier_plantvillage_0_split -> loss1/classifier_plantvillage_loss1/classifier_plantvillage_0_split_0
I0403 14:58:25.233906  2351 net.cpp:399] loss1/classifier_plantvillage_loss1/classifier_plantvillage_0_split -> loss1/classifier_plantvillage_loss1/classifier_plantvillage_0_split_1
I0403 14:58:25.233927  2351 net.cpp:399] loss1/classifier_plantvillage_loss1/classifier_plantvillage_0_split -> loss1/classifier_plantvillage_loss1/classifier_plantvillage_0_split_2
I0403 14:58:25.233995  2351 net.cpp:141] Setting up loss1/classifier_plantvillage_loss1/classifier_plantvillage_0_split
I0403 14:58:25.234019  2351 net.cpp:148] Top shape: 24 38 (912)
I0403 14:58:25.234035  2351 net.cpp:148] Top shape: 24 38 (912)
I0403 14:58:25.234050  2351 net.cpp:148] Top shape: 24 38 (912)
I0403 14:58:25.234064  2351 net.cpp:156] Memory required for data: 946203936
I0403 14:58:25.234079  2351 layer_factory.hpp:77] Creating layer inception_4b/1x1
I0403 14:58:25.234103  2351 net.cpp:91] Creating Layer inception_4b/1x1
I0403 14:58:25.234141  2351 net.cpp:425] inception_4b/1x1 <- inception_4a/output_inception_4a/output_0_split_1
I0403 14:58:25.234163  2351 net.cpp:399] inception_4b/1x1 -> inception_4b/1x1
I0403 14:58:25.235894  2351 net.cpp:141] Setting up inception_4b/1x1
I0403 14:58:25.235924  2351 net.cpp:148] Top shape: 24 160 14 14 (752640)
I0403 14:58:25.235939  2351 net.cpp:156] Memory required for data: 949214496
I0403 14:58:25.235957  2351 layer_factory.hpp:77] Creating layer inception_4b/relu_1x1
I0403 14:58:25.235977  2351 net.cpp:91] Creating Layer inception_4b/relu_1x1
I0403 14:58:25.235996  2351 net.cpp:425] inception_4b/relu_1x1 <- inception_4b/1x1
I0403 14:58:25.236012  2351 net.cpp:386] inception_4b/relu_1x1 -> inception_4b/1x1 (in-place)
I0403 14:58:25.236194  2351 net.cpp:141] Setting up inception_4b/relu_1x1
I0403 14:58:25.236222  2351 net.cpp:148] Top shape: 24 160 14 14 (752640)
I0403 14:58:25.236238  2351 net.cpp:156] Memory required for data: 952225056
I0403 14:58:25.236258  2351 layer_factory.hpp:77] Creating layer inception_4b/3x3_reduce
I0403 14:58:25.236282  2351 net.cpp:91] Creating Layer inception_4b/3x3_reduce
I0403 14:58:25.236300  2351 net.cpp:425] inception_4b/3x3_reduce <- inception_4a/output_inception_4a/output_0_split_2
I0403 14:58:25.236320  2351 net.cpp:399] inception_4b/3x3_reduce -> inception_4b/3x3_reduce
I0403 14:58:25.237709  2351 net.cpp:141] Setting up inception_4b/3x3_reduce
I0403 14:58:25.237740  2351 net.cpp:148] Top shape: 24 112 14 14 (526848)
I0403 14:58:25.237756  2351 net.cpp:156] Memory required for data: 954332448
I0403 14:58:25.237776  2351 layer_factory.hpp:77] Creating layer inception_4b/relu_3x3_reduce
I0403 14:58:25.237793  2351 net.cpp:91] Creating Layer inception_4b/relu_3x3_reduce
I0403 14:58:25.237809  2351 net.cpp:425] inception_4b/relu_3x3_reduce <- inception_4b/3x3_reduce
I0403 14:58:25.237826  2351 net.cpp:386] inception_4b/relu_3x3_reduce -> inception_4b/3x3_reduce (in-place)
I0403 14:58:25.238116  2351 net.cpp:141] Setting up inception_4b/relu_3x3_reduce
I0403 14:58:25.238145  2351 net.cpp:148] Top shape: 24 112 14 14 (526848)
I0403 14:58:25.238162  2351 net.cpp:156] Memory required for data: 956439840
I0403 14:58:25.238176  2351 layer_factory.hpp:77] Creating layer inception_4b/3x3
I0403 14:58:25.238199  2351 net.cpp:91] Creating Layer inception_4b/3x3
I0403 14:58:25.238216  2351 net.cpp:425] inception_4b/3x3 <- inception_4b/3x3_reduce
I0403 14:58:25.238235  2351 net.cpp:399] inception_4b/3x3 -> inception_4b/3x3
I0403 14:58:25.241308  2351 net.cpp:141] Setting up inception_4b/3x3
I0403 14:58:25.241338  2351 net.cpp:148] Top shape: 24 224 14 14 (1053696)
I0403 14:58:25.241354  2351 net.cpp:156] Memory required for data: 960654624
I0403 14:58:25.241374  2351 layer_factory.hpp:77] Creating layer inception_4b/relu_3x3
I0403 14:58:25.241391  2351 net.cpp:91] Creating Layer inception_4b/relu_3x3
I0403 14:58:25.241406  2351 net.cpp:425] inception_4b/relu_3x3 <- inception_4b/3x3
I0403 14:58:25.241426  2351 net.cpp:386] inception_4b/relu_3x3 -> inception_4b/3x3 (in-place)
I0403 14:58:25.241611  2351 net.cpp:141] Setting up inception_4b/relu_3x3
I0403 14:58:25.241637  2351 net.cpp:148] Top shape: 24 224 14 14 (1053696)
I0403 14:58:25.241652  2351 net.cpp:156] Memory required for data: 964869408
I0403 14:58:25.241667  2351 layer_factory.hpp:77] Creating layer inception_4b/5x5_reduce
I0403 14:58:25.241688  2351 net.cpp:91] Creating Layer inception_4b/5x5_reduce
I0403 14:58:25.241706  2351 net.cpp:425] inception_4b/5x5_reduce <- inception_4a/output_inception_4a/output_0_split_3
I0403 14:58:25.241729  2351 net.cpp:399] inception_4b/5x5_reduce -> inception_4b/5x5_reduce
I0403 14:58:25.242843  2351 net.cpp:141] Setting up inception_4b/5x5_reduce
I0403 14:58:25.242871  2351 net.cpp:148] Top shape: 24 24 14 14 (112896)
I0403 14:58:25.242887  2351 net.cpp:156] Memory required for data: 965320992
I0403 14:58:25.242905  2351 layer_factory.hpp:77] Creating layer inception_4b/relu_5x5_reduce
I0403 14:58:25.242925  2351 net.cpp:91] Creating Layer inception_4b/relu_5x5_reduce
I0403 14:58:25.242957  2351 net.cpp:425] inception_4b/relu_5x5_reduce <- inception_4b/5x5_reduce
I0403 14:58:25.242976  2351 net.cpp:386] inception_4b/relu_5x5_reduce -> inception_4b/5x5_reduce (in-place)
I0403 14:58:25.243167  2351 net.cpp:141] Setting up inception_4b/relu_5x5_reduce
I0403 14:58:25.243194  2351 net.cpp:148] Top shape: 24 24 14 14 (112896)
I0403 14:58:25.243211  2351 net.cpp:156] Memory required for data: 965772576
I0403 14:58:25.243226  2351 layer_factory.hpp:77] Creating layer inception_4b/5x5
I0403 14:58:25.243258  2351 net.cpp:91] Creating Layer inception_4b/5x5
I0403 14:58:25.243278  2351 net.cpp:425] inception_4b/5x5 <- inception_4b/5x5_reduce
I0403 14:58:25.243297  2351 net.cpp:399] inception_4b/5x5 -> inception_4b/5x5
I0403 14:58:25.244586  2351 net.cpp:141] Setting up inception_4b/5x5
I0403 14:58:25.244616  2351 net.cpp:148] Top shape: 24 64 14 14 (301056)
I0403 14:58:25.244632  2351 net.cpp:156] Memory required for data: 966976800
I0403 14:58:25.244652  2351 layer_factory.hpp:77] Creating layer inception_4b/relu_5x5
I0403 14:58:25.244673  2351 net.cpp:91] Creating Layer inception_4b/relu_5x5
I0403 14:58:25.244690  2351 net.cpp:425] inception_4b/relu_5x5 <- inception_4b/5x5
I0403 14:58:25.244709  2351 net.cpp:386] inception_4b/relu_5x5 -> inception_4b/5x5 (in-place)
I0403 14:58:25.245014  2351 net.cpp:141] Setting up inception_4b/relu_5x5
I0403 14:58:25.245041  2351 net.cpp:148] Top shape: 24 64 14 14 (301056)
I0403 14:58:25.245057  2351 net.cpp:156] Memory required for data: 968181024
I0403 14:58:25.245072  2351 layer_factory.hpp:77] Creating layer inception_4b/pool
I0403 14:58:25.245095  2351 net.cpp:91] Creating Layer inception_4b/pool
I0403 14:58:25.245112  2351 net.cpp:425] inception_4b/pool <- inception_4a/output_inception_4a/output_0_split_4
I0403 14:58:25.245131  2351 net.cpp:399] inception_4b/pool -> inception_4b/pool
I0403 14:58:25.245200  2351 net.cpp:141] Setting up inception_4b/pool
I0403 14:58:25.245225  2351 net.cpp:148] Top shape: 24 512 14 14 (2408448)
I0403 14:58:25.245244  2351 net.cpp:156] Memory required for data: 977814816
I0403 14:58:25.245261  2351 layer_factory.hpp:77] Creating layer inception_4b/pool_proj
I0403 14:58:25.245285  2351 net.cpp:91] Creating Layer inception_4b/pool_proj
I0403 14:58:25.245303  2351 net.cpp:425] inception_4b/pool_proj <- inception_4b/pool
I0403 14:58:25.245326  2351 net.cpp:399] inception_4b/pool_proj -> inception_4b/pool_proj
I0403 14:58:25.246603  2351 net.cpp:141] Setting up inception_4b/pool_proj
I0403 14:58:25.246631  2351 net.cpp:148] Top shape: 24 64 14 14 (301056)
I0403 14:58:25.246647  2351 net.cpp:156] Memory required for data: 979019040
I0403 14:58:25.246666  2351 layer_factory.hpp:77] Creating layer inception_4b/relu_pool_proj
I0403 14:58:25.246688  2351 net.cpp:91] Creating Layer inception_4b/relu_pool_proj
I0403 14:58:25.246706  2351 net.cpp:425] inception_4b/relu_pool_proj <- inception_4b/pool_proj
I0403 14:58:25.246723  2351 net.cpp:386] inception_4b/relu_pool_proj -> inception_4b/pool_proj (in-place)
I0403 14:58:25.246913  2351 net.cpp:141] Setting up inception_4b/relu_pool_proj
I0403 14:58:25.246942  2351 net.cpp:148] Top shape: 24 64 14 14 (301056)
I0403 14:58:25.246959  2351 net.cpp:156] Memory required for data: 980223264
I0403 14:58:25.246974  2351 layer_factory.hpp:77] Creating layer inception_4b/output
I0403 14:58:25.246994  2351 net.cpp:91] Creating Layer inception_4b/output
I0403 14:58:25.247009  2351 net.cpp:425] inception_4b/output <- inception_4b/1x1
I0403 14:58:25.247026  2351 net.cpp:425] inception_4b/output <- inception_4b/3x3
I0403 14:58:25.247043  2351 net.cpp:425] inception_4b/output <- inception_4b/5x5
I0403 14:58:25.247061  2351 net.cpp:425] inception_4b/output <- inception_4b/pool_proj
I0403 14:58:25.247078  2351 net.cpp:399] inception_4b/output -> inception_4b/output
I0403 14:58:25.247128  2351 net.cpp:141] Setting up inception_4b/output
I0403 14:58:25.247153  2351 net.cpp:148] Top shape: 24 512 14 14 (2408448)
I0403 14:58:25.247167  2351 net.cpp:156] Memory required for data: 989857056
I0403 14:58:25.247197  2351 layer_factory.hpp:77] Creating layer inception_4b/output_inception_4b/output_0_split
I0403 14:58:25.247218  2351 net.cpp:91] Creating Layer inception_4b/output_inception_4b/output_0_split
I0403 14:58:25.247236  2351 net.cpp:425] inception_4b/output_inception_4b/output_0_split <- inception_4b/output
I0403 14:58:25.247261  2351 net.cpp:399] inception_4b/output_inception_4b/output_0_split -> inception_4b/output_inception_4b/output_0_split_0
I0403 14:58:25.247282  2351 net.cpp:399] inception_4b/output_inception_4b/output_0_split -> inception_4b/output_inception_4b/output_0_split_1
I0403 14:58:25.247303  2351 net.cpp:399] inception_4b/output_inception_4b/output_0_split -> inception_4b/output_inception_4b/output_0_split_2
I0403 14:58:25.247326  2351 net.cpp:399] inception_4b/output_inception_4b/output_0_split -> inception_4b/output_inception_4b/output_0_split_3
I0403 14:58:25.247416  2351 net.cpp:141] Setting up inception_4b/output_inception_4b/output_0_split
I0403 14:58:25.247440  2351 net.cpp:148] Top shape: 24 512 14 14 (2408448)
I0403 14:58:25.247457  2351 net.cpp:148] Top shape: 24 512 14 14 (2408448)
I0403 14:58:25.247475  2351 net.cpp:148] Top shape: 24 512 14 14 (2408448)
I0403 14:58:25.247491  2351 net.cpp:148] Top shape: 24 512 14 14 (2408448)
I0403 14:58:25.247505  2351 net.cpp:156] Memory required for data: 1028392224
I0403 14:58:25.247521  2351 layer_factory.hpp:77] Creating layer inception_4c/1x1
I0403 14:58:25.247544  2351 net.cpp:91] Creating Layer inception_4c/1x1
I0403 14:58:25.247561  2351 net.cpp:425] inception_4c/1x1 <- inception_4b/output_inception_4b/output_0_split_0
I0403 14:58:25.247584  2351 net.cpp:399] inception_4c/1x1 -> inception_4c/1x1
I0403 14:58:25.249110  2351 net.cpp:141] Setting up inception_4c/1x1
I0403 14:58:25.249142  2351 net.cpp:148] Top shape: 24 128 14 14 (602112)
I0403 14:58:25.249158  2351 net.cpp:156] Memory required for data: 1030800672
I0403 14:58:25.249178  2351 layer_factory.hpp:77] Creating layer inception_4c/relu_1x1
I0403 14:58:25.249197  2351 net.cpp:91] Creating Layer inception_4c/relu_1x1
I0403 14:58:25.249214  2351 net.cpp:425] inception_4c/relu_1x1 <- inception_4c/1x1
I0403 14:58:25.249234  2351 net.cpp:386] inception_4c/relu_1x1 -> inception_4c/1x1 (in-place)
I0403 14:58:25.249436  2351 net.cpp:141] Setting up inception_4c/relu_1x1
I0403 14:58:25.249462  2351 net.cpp:148] Top shape: 24 128 14 14 (602112)
I0403 14:58:25.249478  2351 net.cpp:156] Memory required for data: 1033209120
I0403 14:58:25.249495  2351 layer_factory.hpp:77] Creating layer inception_4c/3x3_reduce
I0403 14:58:25.249516  2351 net.cpp:91] Creating Layer inception_4c/3x3_reduce
I0403 14:58:25.249536  2351 net.cpp:425] inception_4c/3x3_reduce <- inception_4b/output_inception_4b/output_0_split_1
I0403 14:58:25.249557  2351 net.cpp:399] inception_4c/3x3_reduce -> inception_4c/3x3_reduce
I0403 14:58:25.251603  2351 net.cpp:141] Setting up inception_4c/3x3_reduce
I0403 14:58:25.251634  2351 net.cpp:148] Top shape: 24 128 14 14 (602112)
I0403 14:58:25.251652  2351 net.cpp:156] Memory required for data: 1035617568
I0403 14:58:25.251670  2351 layer_factory.hpp:77] Creating layer inception_4c/relu_3x3_reduce
I0403 14:58:25.251691  2351 net.cpp:91] Creating Layer inception_4c/relu_3x3_reduce
I0403 14:58:25.251709  2351 net.cpp:425] inception_4c/relu_3x3_reduce <- inception_4c/3x3_reduce
I0403 14:58:25.251727  2351 net.cpp:386] inception_4c/relu_3x3_reduce -> inception_4c/3x3_reduce (in-place)
I0403 14:58:25.252033  2351 net.cpp:141] Setting up inception_4c/relu_3x3_reduce
I0403 14:58:25.252061  2351 net.cpp:148] Top shape: 24 128 14 14 (602112)
I0403 14:58:25.252077  2351 net.cpp:156] Memory required for data: 1038026016
I0403 14:58:25.252094  2351 layer_factory.hpp:77] Creating layer inception_4c/3x3
I0403 14:58:25.252116  2351 net.cpp:91] Creating Layer inception_4c/3x3
I0403 14:58:25.252135  2351 net.cpp:425] inception_4c/3x3 <- inception_4c/3x3_reduce
I0403 14:58:25.252157  2351 net.cpp:399] inception_4c/3x3 -> inception_4c/3x3
I0403 14:58:25.256005  2351 net.cpp:141] Setting up inception_4c/3x3
I0403 14:58:25.256049  2351 net.cpp:148] Top shape: 24 256 14 14 (1204224)
I0403 14:58:25.256067  2351 net.cpp:156] Memory required for data: 1042842912
I0403 14:58:25.256099  2351 layer_factory.hpp:77] Creating layer inception_4c/relu_3x3
I0403 14:58:25.256122  2351 net.cpp:91] Creating Layer inception_4c/relu_3x3
I0403 14:58:25.256140  2351 net.cpp:425] inception_4c/relu_3x3 <- inception_4c/3x3
I0403 14:58:25.256158  2351 net.cpp:386] inception_4c/relu_3x3 -> inception_4c/3x3 (in-place)
I0403 14:58:25.256356  2351 net.cpp:141] Setting up inception_4c/relu_3x3
I0403 14:58:25.256382  2351 net.cpp:148] Top shape: 24 256 14 14 (1204224)
I0403 14:58:25.256397  2351 net.cpp:156] Memory required for data: 1047659808
I0403 14:58:25.256413  2351 layer_factory.hpp:77] Creating layer inception_4c/5x5_reduce
I0403 14:58:25.256435  2351 net.cpp:91] Creating Layer inception_4c/5x5_reduce
I0403 14:58:25.256454  2351 net.cpp:425] inception_4c/5x5_reduce <- inception_4b/output_inception_4b/output_0_split_2
I0403 14:58:25.256489  2351 net.cpp:399] inception_4c/5x5_reduce -> inception_4c/5x5_reduce
I0403 14:58:25.257657  2351 net.cpp:141] Setting up inception_4c/5x5_reduce
I0403 14:58:25.257685  2351 net.cpp:148] Top shape: 24 24 14 14 (112896)
I0403 14:58:25.257702  2351 net.cpp:156] Memory required for data: 1048111392
I0403 14:58:25.257722  2351 layer_factory.hpp:77] Creating layer inception_4c/relu_5x5_reduce
I0403 14:58:25.257743  2351 net.cpp:91] Creating Layer inception_4c/relu_5x5_reduce
I0403 14:58:25.257761  2351 net.cpp:425] inception_4c/relu_5x5_reduce <- inception_4c/5x5_reduce
I0403 14:58:25.257781  2351 net.cpp:386] inception_4c/relu_5x5_reduce -> inception_4c/5x5_reduce (in-place)
I0403 14:58:25.257977  2351 net.cpp:141] Setting up inception_4c/relu_5x5_reduce
I0403 14:58:25.258005  2351 net.cpp:148] Top shape: 24 24 14 14 (112896)
I0403 14:58:25.258021  2351 net.cpp:156] Memory required for data: 1048562976
I0403 14:58:25.258038  2351 layer_factory.hpp:77] Creating layer inception_4c/5x5
I0403 14:58:25.258060  2351 net.cpp:91] Creating Layer inception_4c/5x5
I0403 14:58:25.258079  2351 net.cpp:425] inception_4c/5x5 <- inception_4c/5x5_reduce
I0403 14:58:25.258098  2351 net.cpp:399] inception_4c/5x5 -> inception_4c/5x5
I0403 14:58:25.259416  2351 net.cpp:141] Setting up inception_4c/5x5
I0403 14:58:25.259448  2351 net.cpp:148] Top shape: 24 64 14 14 (301056)
I0403 14:58:25.259466  2351 net.cpp:156] Memory required for data: 1049767200
I0403 14:58:25.259486  2351 layer_factory.hpp:77] Creating layer inception_4c/relu_5x5
I0403 14:58:25.259505  2351 net.cpp:91] Creating Layer inception_4c/relu_5x5
I0403 14:58:25.259521  2351 net.cpp:425] inception_4c/relu_5x5 <- inception_4c/5x5
I0403 14:58:25.259539  2351 net.cpp:386] inception_4c/relu_5x5 -> inception_4c/5x5 (in-place)
I0403 14:58:25.259842  2351 net.cpp:141] Setting up inception_4c/relu_5x5
I0403 14:58:25.259873  2351 net.cpp:148] Top shape: 24 64 14 14 (301056)
I0403 14:58:25.259889  2351 net.cpp:156] Memory required for data: 1050971424
I0403 14:58:25.259905  2351 layer_factory.hpp:77] Creating layer inception_4c/pool
I0403 14:58:25.259924  2351 net.cpp:91] Creating Layer inception_4c/pool
I0403 14:58:25.259941  2351 net.cpp:425] inception_4c/pool <- inception_4b/output_inception_4b/output_0_split_3
I0403 14:58:25.259961  2351 net.cpp:399] inception_4c/pool -> inception_4c/pool
I0403 14:58:25.260030  2351 net.cpp:141] Setting up inception_4c/pool
I0403 14:58:25.260056  2351 net.cpp:148] Top shape: 24 512 14 14 (2408448)
I0403 14:58:25.260071  2351 net.cpp:156] Memory required for data: 1060605216
I0403 14:58:25.260087  2351 layer_factory.hpp:77] Creating layer inception_4c/pool_proj
I0403 14:58:25.260109  2351 net.cpp:91] Creating Layer inception_4c/pool_proj
I0403 14:58:25.260129  2351 net.cpp:425] inception_4c/pool_proj <- inception_4c/pool
I0403 14:58:25.260149  2351 net.cpp:399] inception_4c/pool_proj -> inception_4c/pool_proj
I0403 14:58:25.261452  2351 net.cpp:141] Setting up inception_4c/pool_proj
I0403 14:58:25.261482  2351 net.cpp:148] Top shape: 24 64 14 14 (301056)
I0403 14:58:25.261513  2351 net.cpp:156] Memory required for data: 1061809440
I0403 14:58:25.261534  2351 layer_factory.hpp:77] Creating layer inception_4c/relu_pool_proj
I0403 14:58:25.261555  2351 net.cpp:91] Creating Layer inception_4c/relu_pool_proj
I0403 14:58:25.261572  2351 net.cpp:425] inception_4c/relu_pool_proj <- inception_4c/pool_proj
I0403 14:58:25.261590  2351 net.cpp:386] inception_4c/relu_pool_proj -> inception_4c/pool_proj (in-place)
I0403 14:58:25.261787  2351 net.cpp:141] Setting up inception_4c/relu_pool_proj
I0403 14:58:25.261816  2351 net.cpp:148] Top shape: 24 64 14 14 (301056)
I0403 14:58:25.261832  2351 net.cpp:156] Memory required for data: 1063013664
I0403 14:58:25.261847  2351 layer_factory.hpp:77] Creating layer inception_4c/output
I0403 14:58:25.261865  2351 net.cpp:91] Creating Layer inception_4c/output
I0403 14:58:25.261883  2351 net.cpp:425] inception_4c/output <- inception_4c/1x1
I0403 14:58:25.261899  2351 net.cpp:425] inception_4c/output <- inception_4c/3x3
I0403 14:58:25.261916  2351 net.cpp:425] inception_4c/output <- inception_4c/5x5
I0403 14:58:25.261932  2351 net.cpp:425] inception_4c/output <- inception_4c/pool_proj
I0403 14:58:25.261950  2351 net.cpp:399] inception_4c/output -> inception_4c/output
I0403 14:58:25.262001  2351 net.cpp:141] Setting up inception_4c/output
I0403 14:58:25.262024  2351 net.cpp:148] Top shape: 24 512 14 14 (2408448)
I0403 14:58:25.262039  2351 net.cpp:156] Memory required for data: 1072647456
I0403 14:58:25.262055  2351 layer_factory.hpp:77] Creating layer inception_4c/output_inception_4c/output_0_split
I0403 14:58:25.262075  2351 net.cpp:91] Creating Layer inception_4c/output_inception_4c/output_0_split
I0403 14:58:25.262092  2351 net.cpp:425] inception_4c/output_inception_4c/output_0_split <- inception_4c/output
I0403 14:58:25.262110  2351 net.cpp:399] inception_4c/output_inception_4c/output_0_split -> inception_4c/output_inception_4c/output_0_split_0
I0403 14:58:25.262130  2351 net.cpp:399] inception_4c/output_inception_4c/output_0_split -> inception_4c/output_inception_4c/output_0_split_1
I0403 14:58:25.262151  2351 net.cpp:399] inception_4c/output_inception_4c/output_0_split -> inception_4c/output_inception_4c/output_0_split_2
I0403 14:58:25.262172  2351 net.cpp:399] inception_4c/output_inception_4c/output_0_split -> inception_4c/output_inception_4c/output_0_split_3
I0403 14:58:25.262271  2351 net.cpp:141] Setting up inception_4c/output_inception_4c/output_0_split
I0403 14:58:25.262296  2351 net.cpp:148] Top shape: 24 512 14 14 (2408448)
I0403 14:58:25.262313  2351 net.cpp:148] Top shape: 24 512 14 14 (2408448)
I0403 14:58:25.262329  2351 net.cpp:148] Top shape: 24 512 14 14 (2408448)
I0403 14:58:25.262346  2351 net.cpp:148] Top shape: 24 512 14 14 (2408448)
I0403 14:58:25.262361  2351 net.cpp:156] Memory required for data: 1111182624
I0403 14:58:25.262375  2351 layer_factory.hpp:77] Creating layer inception_4d/1x1
I0403 14:58:25.262399  2351 net.cpp:91] Creating Layer inception_4d/1x1
I0403 14:58:25.262418  2351 net.cpp:425] inception_4d/1x1 <- inception_4c/output_inception_4c/output_0_split_0
I0403 14:58:25.262439  2351 net.cpp:399] inception_4d/1x1 -> inception_4d/1x1
I0403 14:58:25.263922  2351 net.cpp:141] Setting up inception_4d/1x1
I0403 14:58:25.263952  2351 net.cpp:148] Top shape: 24 112 14 14 (526848)
I0403 14:58:25.263968  2351 net.cpp:156] Memory required for data: 1113290016
I0403 14:58:25.263988  2351 layer_factory.hpp:77] Creating layer inception_4d/relu_1x1
I0403 14:58:25.264005  2351 net.cpp:91] Creating Layer inception_4d/relu_1x1
I0403 14:58:25.264021  2351 net.cpp:425] inception_4d/relu_1x1 <- inception_4d/1x1
I0403 14:58:25.264058  2351 net.cpp:386] inception_4d/relu_1x1 -> inception_4d/1x1 (in-place)
I0403 14:58:25.264253  2351 net.cpp:141] Setting up inception_4d/relu_1x1
I0403 14:58:25.264279  2351 net.cpp:148] Top shape: 24 112 14 14 (526848)
I0403 14:58:25.264294  2351 net.cpp:156] Memory required for data: 1115397408
I0403 14:58:25.264308  2351 layer_factory.hpp:77] Creating layer inception_4d/3x3_reduce
I0403 14:58:25.264345  2351 net.cpp:91] Creating Layer inception_4d/3x3_reduce
I0403 14:58:25.264364  2351 net.cpp:425] inception_4d/3x3_reduce <- inception_4c/output_inception_4c/output_0_split_1
I0403 14:58:25.264386  2351 net.cpp:399] inception_4d/3x3_reduce -> inception_4d/3x3_reduce
I0403 14:58:25.266001  2351 net.cpp:141] Setting up inception_4d/3x3_reduce
I0403 14:58:25.266032  2351 net.cpp:148] Top shape: 24 144 14 14 (677376)
I0403 14:58:25.266049  2351 net.cpp:156] Memory required for data: 1118106912
I0403 14:58:25.266068  2351 layer_factory.hpp:77] Creating layer inception_4d/relu_3x3_reduce
I0403 14:58:25.266086  2351 net.cpp:91] Creating Layer inception_4d/relu_3x3_reduce
I0403 14:58:25.266103  2351 net.cpp:425] inception_4d/relu_3x3_reduce <- inception_4d/3x3_reduce
I0403 14:58:25.266122  2351 net.cpp:386] inception_4d/relu_3x3_reduce -> inception_4d/3x3_reduce (in-place)
I0403 14:58:25.266432  2351 net.cpp:141] Setting up inception_4d/relu_3x3_reduce
I0403 14:58:25.266460  2351 net.cpp:148] Top shape: 24 144 14 14 (677376)
I0403 14:58:25.266476  2351 net.cpp:156] Memory required for data: 1120816416
I0403 14:58:25.266492  2351 layer_factory.hpp:77] Creating layer inception_4d/3x3
I0403 14:58:25.266515  2351 net.cpp:91] Creating Layer inception_4d/3x3
I0403 14:58:25.266532  2351 net.cpp:425] inception_4d/3x3 <- inception_4d/3x3_reduce
I0403 14:58:25.266552  2351 net.cpp:399] inception_4d/3x3 -> inception_4d/3x3
I0403 14:58:25.271028  2351 net.cpp:141] Setting up inception_4d/3x3
I0403 14:58:25.271060  2351 net.cpp:148] Top shape: 24 288 14 14 (1354752)
I0403 14:58:25.271075  2351 net.cpp:156] Memory required for data: 1126235424
I0403 14:58:25.271095  2351 layer_factory.hpp:77] Creating layer inception_4d/relu_3x3
I0403 14:58:25.271116  2351 net.cpp:91] Creating Layer inception_4d/relu_3x3
I0403 14:58:25.271133  2351 net.cpp:425] inception_4d/relu_3x3 <- inception_4d/3x3
I0403 14:58:25.271152  2351 net.cpp:386] inception_4d/relu_3x3 -> inception_4d/3x3 (in-place)
I0403 14:58:25.271350  2351 net.cpp:141] Setting up inception_4d/relu_3x3
I0403 14:58:25.271378  2351 net.cpp:148] Top shape: 24 288 14 14 (1354752)
I0403 14:58:25.271392  2351 net.cpp:156] Memory required for data: 1131654432
I0403 14:58:25.271409  2351 layer_factory.hpp:77] Creating layer inception_4d/5x5_reduce
I0403 14:58:25.271433  2351 net.cpp:91] Creating Layer inception_4d/5x5_reduce
I0403 14:58:25.271451  2351 net.cpp:425] inception_4d/5x5_reduce <- inception_4c/output_inception_4c/output_0_split_2
I0403 14:58:25.271473  2351 net.cpp:399] inception_4d/5x5_reduce -> inception_4d/5x5_reduce
I0403 14:58:25.272691  2351 net.cpp:141] Setting up inception_4d/5x5_reduce
I0403 14:58:25.272719  2351 net.cpp:148] Top shape: 24 32 14 14 (150528)
I0403 14:58:25.272735  2351 net.cpp:156] Memory required for data: 1132256544
I0403 14:58:25.272755  2351 layer_factory.hpp:77] Creating layer inception_4d/relu_5x5_reduce
I0403 14:58:25.272774  2351 net.cpp:91] Creating Layer inception_4d/relu_5x5_reduce
I0403 14:58:25.272791  2351 net.cpp:425] inception_4d/relu_5x5_reduce <- inception_4d/5x5_reduce
I0403 14:58:25.272812  2351 net.cpp:386] inception_4d/relu_5x5_reduce -> inception_4d/5x5_reduce (in-place)
I0403 14:58:25.273011  2351 net.cpp:141] Setting up inception_4d/relu_5x5_reduce
I0403 14:58:25.273037  2351 net.cpp:148] Top shape: 24 32 14 14 (150528)
I0403 14:58:25.273052  2351 net.cpp:156] Memory required for data: 1132858656
I0403 14:58:25.273068  2351 layer_factory.hpp:77] Creating layer inception_4d/5x5
I0403 14:58:25.273092  2351 net.cpp:91] Creating Layer inception_4d/5x5
I0403 14:58:25.273110  2351 net.cpp:425] inception_4d/5x5 <- inception_4d/5x5_reduce
I0403 14:58:25.273131  2351 net.cpp:399] inception_4d/5x5 -> inception_4d/5x5
I0403 14:58:25.274710  2351 net.cpp:141] Setting up inception_4d/5x5
I0403 14:58:25.274742  2351 net.cpp:148] Top shape: 24 64 14 14 (301056)
I0403 14:58:25.274760  2351 net.cpp:156] Memory required for data: 1134062880
I0403 14:58:25.274780  2351 layer_factory.hpp:77] Creating layer inception_4d/relu_5x5
I0403 14:58:25.274814  2351 net.cpp:91] Creating Layer inception_4d/relu_5x5
I0403 14:58:25.274832  2351 net.cpp:425] inception_4d/relu_5x5 <- inception_4d/5x5
I0403 14:58:25.274850  2351 net.cpp:386] inception_4d/relu_5x5 -> inception_4d/5x5 (in-place)
I0403 14:58:25.275166  2351 net.cpp:141] Setting up inception_4d/relu_5x5
I0403 14:58:25.275195  2351 net.cpp:148] Top shape: 24 64 14 14 (301056)
I0403 14:58:25.275212  2351 net.cpp:156] Memory required for data: 1135267104
I0403 14:58:25.275228  2351 layer_factory.hpp:77] Creating layer inception_4d/pool
I0403 14:58:25.275250  2351 net.cpp:91] Creating Layer inception_4d/pool
I0403 14:58:25.275269  2351 net.cpp:425] inception_4d/pool <- inception_4c/output_inception_4c/output_0_split_3
I0403 14:58:25.275288  2351 net.cpp:399] inception_4d/pool -> inception_4d/pool
I0403 14:58:25.275360  2351 net.cpp:141] Setting up inception_4d/pool
I0403 14:58:25.275385  2351 net.cpp:148] Top shape: 24 512 14 14 (2408448)
I0403 14:58:25.275400  2351 net.cpp:156] Memory required for data: 1144900896
I0403 14:58:25.275415  2351 layer_factory.hpp:77] Creating layer inception_4d/pool_proj
I0403 14:58:25.275439  2351 net.cpp:91] Creating Layer inception_4d/pool_proj
I0403 14:58:25.275457  2351 net.cpp:425] inception_4d/pool_proj <- inception_4d/pool
I0403 14:58:25.275480  2351 net.cpp:399] inception_4d/pool_proj -> inception_4d/pool_proj
I0403 14:58:25.277340  2351 net.cpp:141] Setting up inception_4d/pool_proj
I0403 14:58:25.277371  2351 net.cpp:148] Top shape: 24 64 14 14 (301056)
I0403 14:58:25.277387  2351 net.cpp:156] Memory required for data: 1146105120
I0403 14:58:25.277407  2351 layer_factory.hpp:77] Creating layer inception_4d/relu_pool_proj
I0403 14:58:25.277429  2351 net.cpp:91] Creating Layer inception_4d/relu_pool_proj
I0403 14:58:25.277447  2351 net.cpp:425] inception_4d/relu_pool_proj <- inception_4d/pool_proj
I0403 14:58:25.277467  2351 net.cpp:386] inception_4d/relu_pool_proj -> inception_4d/pool_proj (in-place)
I0403 14:58:25.277664  2351 net.cpp:141] Setting up inception_4d/relu_pool_proj
I0403 14:58:25.277690  2351 net.cpp:148] Top shape: 24 64 14 14 (301056)
I0403 14:58:25.277705  2351 net.cpp:156] Memory required for data: 1147309344
I0403 14:58:25.277720  2351 layer_factory.hpp:77] Creating layer inception_4d/output
I0403 14:58:25.277741  2351 net.cpp:91] Creating Layer inception_4d/output
I0403 14:58:25.277758  2351 net.cpp:425] inception_4d/output <- inception_4d/1x1
I0403 14:58:25.277776  2351 net.cpp:425] inception_4d/output <- inception_4d/3x3
I0403 14:58:25.277792  2351 net.cpp:425] inception_4d/output <- inception_4d/5x5
I0403 14:58:25.277808  2351 net.cpp:425] inception_4d/output <- inception_4d/pool_proj
I0403 14:58:25.277827  2351 net.cpp:399] inception_4d/output -> inception_4d/output
I0403 14:58:25.277878  2351 net.cpp:141] Setting up inception_4d/output
I0403 14:58:25.277902  2351 net.cpp:148] Top shape: 24 528 14 14 (2483712)
I0403 14:58:25.277917  2351 net.cpp:156] Memory required for data: 1157244192
I0403 14:58:25.277932  2351 layer_factory.hpp:77] Creating layer inception_4d/output_inception_4d/output_0_split
I0403 14:58:25.277951  2351 net.cpp:91] Creating Layer inception_4d/output_inception_4d/output_0_split
I0403 14:58:25.277967  2351 net.cpp:425] inception_4d/output_inception_4d/output_0_split <- inception_4d/output
I0403 14:58:25.277988  2351 net.cpp:399] inception_4d/output_inception_4d/output_0_split -> inception_4d/output_inception_4d/output_0_split_0
I0403 14:58:25.278010  2351 net.cpp:399] inception_4d/output_inception_4d/output_0_split -> inception_4d/output_inception_4d/output_0_split_1
I0403 14:58:25.278031  2351 net.cpp:399] inception_4d/output_inception_4d/output_0_split -> inception_4d/output_inception_4d/output_0_split_2
I0403 14:58:25.278053  2351 net.cpp:399] inception_4d/output_inception_4d/output_0_split -> inception_4d/output_inception_4d/output_0_split_3
I0403 14:58:25.278079  2351 net.cpp:399] inception_4d/output_inception_4d/output_0_split -> inception_4d/output_inception_4d/output_0_split_4
I0403 14:58:25.278184  2351 net.cpp:141] Setting up inception_4d/output_inception_4d/output_0_split
I0403 14:58:25.278223  2351 net.cpp:148] Top shape: 24 528 14 14 (2483712)
I0403 14:58:25.278244  2351 net.cpp:148] Top shape: 24 528 14 14 (2483712)
I0403 14:58:25.278262  2351 net.cpp:148] Top shape: 24 528 14 14 (2483712)
I0403 14:58:25.278278  2351 net.cpp:148] Top shape: 24 528 14 14 (2483712)
I0403 14:58:25.278295  2351 net.cpp:148] Top shape: 24 528 14 14 (2483712)
I0403 14:58:25.278308  2351 net.cpp:156] Memory required for data: 1206918432
I0403 14:58:25.278323  2351 layer_factory.hpp:77] Creating layer loss2/ave_pool
I0403 14:58:25.278342  2351 net.cpp:91] Creating Layer loss2/ave_pool
I0403 14:58:25.278358  2351 net.cpp:425] loss2/ave_pool <- inception_4d/output_inception_4d/output_0_split_0
I0403 14:58:25.278380  2351 net.cpp:399] loss2/ave_pool -> loss2/ave_pool
I0403 14:58:25.278718  2351 net.cpp:141] Setting up loss2/ave_pool
I0403 14:58:25.278748  2351 net.cpp:148] Top shape: 24 528 4 4 (202752)
I0403 14:58:25.278762  2351 net.cpp:156] Memory required for data: 1207729440
I0403 14:58:25.278779  2351 layer_factory.hpp:77] Creating layer loss2/conv
I0403 14:58:25.278802  2351 net.cpp:91] Creating Layer loss2/conv
I0403 14:58:25.278820  2351 net.cpp:425] loss2/conv <- loss2/ave_pool
I0403 14:58:25.278843  2351 net.cpp:399] loss2/conv -> loss2/conv
I0403 14:58:25.280860  2351 net.cpp:141] Setting up loss2/conv
I0403 14:58:25.280892  2351 net.cpp:148] Top shape: 24 128 4 4 (49152)
I0403 14:58:25.280908  2351 net.cpp:156] Memory required for data: 1207926048
I0403 14:58:25.280927  2351 layer_factory.hpp:77] Creating layer loss2/relu_conv
I0403 14:58:25.280949  2351 net.cpp:91] Creating Layer loss2/relu_conv
I0403 14:58:25.280967  2351 net.cpp:425] loss2/relu_conv <- loss2/conv
I0403 14:58:25.280985  2351 net.cpp:386] loss2/relu_conv -> loss2/conv (in-place)
I0403 14:58:25.281297  2351 net.cpp:141] Setting up loss2/relu_conv
I0403 14:58:25.281324  2351 net.cpp:148] Top shape: 24 128 4 4 (49152)
I0403 14:58:25.281340  2351 net.cpp:156] Memory required for data: 1208122656
I0403 14:58:25.281357  2351 layer_factory.hpp:77] Creating layer loss2/fc
I0403 14:58:25.281379  2351 net.cpp:91] Creating Layer loss2/fc
I0403 14:58:25.281397  2351 net.cpp:425] loss2/fc <- loss2/conv
I0403 14:58:25.281419  2351 net.cpp:399] loss2/fc -> loss2/fc
I0403 14:58:25.300047  2351 net.cpp:141] Setting up loss2/fc
I0403 14:58:25.300113  2351 net.cpp:148] Top shape: 24 1024 (24576)
I0403 14:58:25.300129  2351 net.cpp:156] Memory required for data: 1208220960
I0403 14:58:25.300150  2351 layer_factory.hpp:77] Creating layer loss2/relu_fc
I0403 14:58:25.300171  2351 net.cpp:91] Creating Layer loss2/relu_fc
I0403 14:58:25.300189  2351 net.cpp:425] loss2/relu_fc <- loss2/fc
I0403 14:58:25.300210  2351 net.cpp:386] loss2/relu_fc -> loss2/fc (in-place)
I0403 14:58:25.300573  2351 net.cpp:141] Setting up loss2/relu_fc
I0403 14:58:25.300601  2351 net.cpp:148] Top shape: 24 1024 (24576)
I0403 14:58:25.300616  2351 net.cpp:156] Memory required for data: 1208319264
I0403 14:58:25.300631  2351 layer_factory.hpp:77] Creating layer loss2/drop_fc
I0403 14:58:25.300649  2351 net.cpp:91] Creating Layer loss2/drop_fc
I0403 14:58:25.300665  2351 net.cpp:425] loss2/drop_fc <- loss2/fc
I0403 14:58:25.300685  2351 net.cpp:386] loss2/drop_fc -> loss2/fc (in-place)
I0403 14:58:25.300753  2351 net.cpp:141] Setting up loss2/drop_fc
I0403 14:58:25.300776  2351 net.cpp:148] Top shape: 24 1024 (24576)
I0403 14:58:25.300791  2351 net.cpp:156] Memory required for data: 1208417568
I0403 14:58:25.300806  2351 layer_factory.hpp:77] Creating layer loss2/classifier_plantvillage
I0403 14:58:25.300823  2351 net.cpp:91] Creating Layer loss2/classifier_plantvillage
I0403 14:58:25.300839  2351 net.cpp:425] loss2/classifier_plantvillage <- loss2/fc
I0403 14:58:25.300860  2351 net.cpp:399] loss2/classifier_plantvillage -> loss2/classifier_plantvillage
I0403 14:58:25.301283  2351 net.cpp:141] Setting up loss2/classifier_plantvillage
I0403 14:58:25.301308  2351 net.cpp:148] Top shape: 24 38 (912)
I0403 14:58:25.301350  2351 net.cpp:156] Memory required for data: 1208421216
I0403 14:58:25.301369  2351 layer_factory.hpp:77] Creating layer loss2/classifier_plantvillage_loss2/classifier_plantvillage_0_split
I0403 14:58:25.301389  2351 net.cpp:91] Creating Layer loss2/classifier_plantvillage_loss2/classifier_plantvillage_0_split
I0403 14:58:25.301406  2351 net.cpp:425] loss2/classifier_plantvillage_loss2/classifier_plantvillage_0_split <- loss2/classifier_plantvillage
I0403 14:58:25.301426  2351 net.cpp:399] loss2/classifier_plantvillage_loss2/classifier_plantvillage_0_split -> loss2/classifier_plantvillage_loss2/classifier_plantvillage_0_split_0
I0403 14:58:25.301447  2351 net.cpp:399] loss2/classifier_plantvillage_loss2/classifier_plantvillage_0_split -> loss2/classifier_plantvillage_loss2/classifier_plantvillage_0_split_1
I0403 14:58:25.301470  2351 net.cpp:399] loss2/classifier_plantvillage_loss2/classifier_plantvillage_0_split -> loss2/classifier_plantvillage_loss2/classifier_plantvillage_0_split_2
I0403 14:58:25.301547  2351 net.cpp:141] Setting up loss2/classifier_plantvillage_loss2/classifier_plantvillage_0_split
I0403 14:58:25.301569  2351 net.cpp:148] Top shape: 24 38 (912)
I0403 14:58:25.301585  2351 net.cpp:148] Top shape: 24 38 (912)
I0403 14:58:25.301600  2351 net.cpp:148] Top shape: 24 38 (912)
I0403 14:58:25.301614  2351 net.cpp:156] Memory required for data: 1208432160
I0403 14:58:25.301628  2351 layer_factory.hpp:77] Creating layer inception_4e/1x1
I0403 14:58:25.301651  2351 net.cpp:91] Creating Layer inception_4e/1x1
I0403 14:58:25.301668  2351 net.cpp:425] inception_4e/1x1 <- inception_4d/output_inception_4d/output_0_split_1
I0403 14:58:25.301687  2351 net.cpp:399] inception_4e/1x1 -> inception_4e/1x1
I0403 14:58:25.303555  2351 net.cpp:141] Setting up inception_4e/1x1
I0403 14:58:25.303585  2351 net.cpp:148] Top shape: 24 256 14 14 (1204224)
I0403 14:58:25.303601  2351 net.cpp:156] Memory required for data: 1213249056
I0403 14:58:25.303619  2351 layer_factory.hpp:77] Creating layer inception_4e/relu_1x1
I0403 14:58:25.303637  2351 net.cpp:91] Creating Layer inception_4e/relu_1x1
I0403 14:58:25.303653  2351 net.cpp:425] inception_4e/relu_1x1 <- inception_4e/1x1
I0403 14:58:25.303669  2351 net.cpp:386] inception_4e/relu_1x1 -> inception_4e/1x1 (in-place)
I0403 14:58:25.303966  2351 net.cpp:141] Setting up inception_4e/relu_1x1
I0403 14:58:25.303993  2351 net.cpp:148] Top shape: 24 256 14 14 (1204224)
I0403 14:58:25.304008  2351 net.cpp:156] Memory required for data: 1218065952
I0403 14:58:25.304023  2351 layer_factory.hpp:77] Creating layer inception_4e/3x3_reduce
I0403 14:58:25.304045  2351 net.cpp:91] Creating Layer inception_4e/3x3_reduce
I0403 14:58:25.304062  2351 net.cpp:425] inception_4e/3x3_reduce <- inception_4d/output_inception_4d/output_0_split_2
I0403 14:58:25.304081  2351 net.cpp:399] inception_4e/3x3_reduce -> inception_4e/3x3_reduce
I0403 14:58:25.306217  2351 net.cpp:141] Setting up inception_4e/3x3_reduce
I0403 14:58:25.306251  2351 net.cpp:148] Top shape: 24 160 14 14 (752640)
I0403 14:58:25.306267  2351 net.cpp:156] Memory required for data: 1221076512
I0403 14:58:25.306285  2351 layer_factory.hpp:77] Creating layer inception_4e/relu_3x3_reduce
I0403 14:58:25.306305  2351 net.cpp:91] Creating Layer inception_4e/relu_3x3_reduce
I0403 14:58:25.306324  2351 net.cpp:425] inception_4e/relu_3x3_reduce <- inception_4e/3x3_reduce
I0403 14:58:25.306340  2351 net.cpp:386] inception_4e/relu_3x3_reduce -> inception_4e/3x3_reduce (in-place)
I0403 14:58:25.306526  2351 net.cpp:141] Setting up inception_4e/relu_3x3_reduce
I0403 14:58:25.306553  2351 net.cpp:148] Top shape: 24 160 14 14 (752640)
I0403 14:58:25.306568  2351 net.cpp:156] Memory required for data: 1224087072
I0403 14:58:25.306582  2351 layer_factory.hpp:77] Creating layer inception_4e/3x3
I0403 14:58:25.306605  2351 net.cpp:91] Creating Layer inception_4e/3x3
I0403 14:58:25.306622  2351 net.cpp:425] inception_4e/3x3 <- inception_4e/3x3_reduce
I0403 14:58:25.306645  2351 net.cpp:399] inception_4e/3x3 -> inception_4e/3x3
I0403 14:58:25.314595  2351 net.cpp:141] Setting up inception_4e/3x3
I0403 14:58:25.314640  2351 net.cpp:148] Top shape: 24 320 14 14 (1505280)
I0403 14:58:25.314656  2351 net.cpp:156] Memory required for data: 1230108192
I0403 14:58:25.314674  2351 layer_factory.hpp:77] Creating layer inception_4e/relu_3x3
I0403 14:58:25.314694  2351 net.cpp:91] Creating Layer inception_4e/relu_3x3
I0403 14:58:25.314710  2351 net.cpp:425] inception_4e/relu_3x3 <- inception_4e/3x3
I0403 14:58:25.314730  2351 net.cpp:386] inception_4e/relu_3x3 -> inception_4e/3x3 (in-place)
I0403 14:58:25.315042  2351 net.cpp:141] Setting up inception_4e/relu_3x3
I0403 14:58:25.315068  2351 net.cpp:148] Top shape: 24 320 14 14 (1505280)
I0403 14:58:25.315083  2351 net.cpp:156] Memory required for data: 1236129312
I0403 14:58:25.315096  2351 layer_factory.hpp:77] Creating layer inception_4e/5x5_reduce
I0403 14:58:25.315119  2351 net.cpp:91] Creating Layer inception_4e/5x5_reduce
I0403 14:58:25.315136  2351 net.cpp:425] inception_4e/5x5_reduce <- inception_4d/output_inception_4d/output_0_split_3
I0403 14:58:25.315156  2351 net.cpp:399] inception_4e/5x5_reduce -> inception_4e/5x5_reduce
I0403 14:58:25.316202  2351 net.cpp:141] Setting up inception_4e/5x5_reduce
I0403 14:58:25.316232  2351 net.cpp:148] Top shape: 24 32 14 14 (150528)
I0403 14:58:25.316252  2351 net.cpp:156] Memory required for data: 1236731424
I0403 14:58:25.316270  2351 layer_factory.hpp:77] Creating layer inception_4e/relu_5x5_reduce
I0403 14:58:25.316288  2351 net.cpp:91] Creating Layer inception_4e/relu_5x5_reduce
I0403 14:58:25.316304  2351 net.cpp:425] inception_4e/relu_5x5_reduce <- inception_4e/5x5_reduce
I0403 14:58:25.316320  2351 net.cpp:386] inception_4e/relu_5x5_reduce -> inception_4e/5x5_reduce (in-place)
I0403 14:58:25.316611  2351 net.cpp:141] Setting up inception_4e/relu_5x5_reduce
I0403 14:58:25.316637  2351 net.cpp:148] Top shape: 24 32 14 14 (150528)
I0403 14:58:25.316653  2351 net.cpp:156] Memory required for data: 1237333536
I0403 14:58:25.316666  2351 layer_factory.hpp:77] Creating layer inception_4e/5x5
I0403 14:58:25.316704  2351 net.cpp:91] Creating Layer inception_4e/5x5
I0403 14:58:25.316721  2351 net.cpp:425] inception_4e/5x5 <- inception_4e/5x5_reduce
I0403 14:58:25.316742  2351 net.cpp:399] inception_4e/5x5 -> inception_4e/5x5
I0403 14:58:25.319907  2351 net.cpp:141] Setting up inception_4e/5x5
I0403 14:58:25.319934  2351 net.cpp:148] Top shape: 24 128 14 14 (602112)
I0403 14:58:25.319949  2351 net.cpp:156] Memory required for data: 1239741984
I0403 14:58:25.319968  2351 layer_factory.hpp:77] Creating layer inception_4e/relu_5x5
I0403 14:58:25.319988  2351 net.cpp:91] Creating Layer inception_4e/relu_5x5
I0403 14:58:25.320003  2351 net.cpp:425] inception_4e/relu_5x5 <- inception_4e/5x5
I0403 14:58:25.320020  2351 net.cpp:386] inception_4e/relu_5x5 -> inception_4e/5x5 (in-place)
I0403 14:58:25.320214  2351 net.cpp:141] Setting up inception_4e/relu_5x5
I0403 14:58:25.320238  2351 net.cpp:148] Top shape: 24 128 14 14 (602112)
I0403 14:58:25.320257  2351 net.cpp:156] Memory required for data: 1242150432
I0403 14:58:25.320272  2351 layer_factory.hpp:77] Creating layer inception_4e/pool
I0403 14:58:25.320292  2351 net.cpp:91] Creating Layer inception_4e/pool
I0403 14:58:25.320308  2351 net.cpp:425] inception_4e/pool <- inception_4d/output_inception_4d/output_0_split_4
I0403 14:58:25.320328  2351 net.cpp:399] inception_4e/pool -> inception_4e/pool
I0403 14:58:25.320395  2351 net.cpp:141] Setting up inception_4e/pool
I0403 14:58:25.320420  2351 net.cpp:148] Top shape: 24 528 14 14 (2483712)
I0403 14:58:25.320433  2351 net.cpp:156] Memory required for data: 1252085280
I0403 14:58:25.320446  2351 layer_factory.hpp:77] Creating layer inception_4e/pool_proj
I0403 14:58:25.320467  2351 net.cpp:91] Creating Layer inception_4e/pool_proj
I0403 14:58:25.320484  2351 net.cpp:425] inception_4e/pool_proj <- inception_4e/pool
I0403 14:58:25.320504  2351 net.cpp:399] inception_4e/pool_proj -> inception_4e/pool_proj
I0403 14:58:25.321961  2351 net.cpp:141] Setting up inception_4e/pool_proj
I0403 14:58:25.322000  2351 net.cpp:148] Top shape: 24 128 14 14 (602112)
I0403 14:58:25.322016  2351 net.cpp:156] Memory required for data: 1254493728
I0403 14:58:25.322033  2351 layer_factory.hpp:77] Creating layer inception_4e/relu_pool_proj
I0403 14:58:25.322052  2351 net.cpp:91] Creating Layer inception_4e/relu_pool_proj
I0403 14:58:25.322068  2351 net.cpp:425] inception_4e/relu_pool_proj <- inception_4e/pool_proj
I0403 14:58:25.322085  2351 net.cpp:386] inception_4e/relu_pool_proj -> inception_4e/pool_proj (in-place)
I0403 14:58:25.322376  2351 net.cpp:141] Setting up inception_4e/relu_pool_proj
I0403 14:58:25.322401  2351 net.cpp:148] Top shape: 24 128 14 14 (602112)
I0403 14:58:25.322414  2351 net.cpp:156] Memory required for data: 1256902176
I0403 14:58:25.322428  2351 layer_factory.hpp:77] Creating layer inception_4e/output
I0403 14:58:25.322445  2351 net.cpp:91] Creating Layer inception_4e/output
I0403 14:58:25.322460  2351 net.cpp:425] inception_4e/output <- inception_4e/1x1
I0403 14:58:25.322476  2351 net.cpp:425] inception_4e/output <- inception_4e/3x3
I0403 14:58:25.322495  2351 net.cpp:425] inception_4e/output <- inception_4e/5x5
I0403 14:58:25.322511  2351 net.cpp:425] inception_4e/output <- inception_4e/pool_proj
I0403 14:58:25.322527  2351 net.cpp:399] inception_4e/output -> inception_4e/output
I0403 14:58:25.322576  2351 net.cpp:141] Setting up inception_4e/output
I0403 14:58:25.322599  2351 net.cpp:148] Top shape: 24 832 14 14 (3913728)
I0403 14:58:25.322614  2351 net.cpp:156] Memory required for data: 1272557088
I0403 14:58:25.322629  2351 layer_factory.hpp:77] Creating layer pool4/3x3_s2
I0403 14:58:25.322646  2351 net.cpp:91] Creating Layer pool4/3x3_s2
I0403 14:58:25.322661  2351 net.cpp:425] pool4/3x3_s2 <- inception_4e/output
I0403 14:58:25.322680  2351 net.cpp:399] pool4/3x3_s2 -> pool4/3x3_s2
I0403 14:58:25.322746  2351 net.cpp:141] Setting up pool4/3x3_s2
I0403 14:58:25.322770  2351 net.cpp:148] Top shape: 24 832 7 7 (978432)
I0403 14:58:25.322784  2351 net.cpp:156] Memory required for data: 1276470816
I0403 14:58:25.322798  2351 layer_factory.hpp:77] Creating layer pool4/3x3_s2_pool4/3x3_s2_0_split
I0403 14:58:25.322815  2351 net.cpp:91] Creating Layer pool4/3x3_s2_pool4/3x3_s2_0_split
I0403 14:58:25.322829  2351 net.cpp:425] pool4/3x3_s2_pool4/3x3_s2_0_split <- pool4/3x3_s2
I0403 14:58:25.322846  2351 net.cpp:399] pool4/3x3_s2_pool4/3x3_s2_0_split -> pool4/3x3_s2_pool4/3x3_s2_0_split_0
I0403 14:58:25.322865  2351 net.cpp:399] pool4/3x3_s2_pool4/3x3_s2_0_split -> pool4/3x3_s2_pool4/3x3_s2_0_split_1
I0403 14:58:25.322885  2351 net.cpp:399] pool4/3x3_s2_pool4/3x3_s2_0_split -> pool4/3x3_s2_pool4/3x3_s2_0_split_2
I0403 14:58:25.322907  2351 net.cpp:399] pool4/3x3_s2_pool4/3x3_s2_0_split -> pool4/3x3_s2_pool4/3x3_s2_0_split_3
I0403 14:58:25.322998  2351 net.cpp:141] Setting up pool4/3x3_s2_pool4/3x3_s2_0_split
I0403 14:58:25.323019  2351 net.cpp:148] Top shape: 24 832 7 7 (978432)
I0403 14:58:25.323035  2351 net.cpp:148] Top shape: 24 832 7 7 (978432)
I0403 14:58:25.323050  2351 net.cpp:148] Top shape: 24 832 7 7 (978432)
I0403 14:58:25.323065  2351 net.cpp:148] Top shape: 24 832 7 7 (978432)
I0403 14:58:25.323077  2351 net.cpp:156] Memory required for data: 1292125728
I0403 14:58:25.323091  2351 layer_factory.hpp:77] Creating layer inception_5a/1x1
I0403 14:58:25.323112  2351 net.cpp:91] Creating Layer inception_5a/1x1
I0403 14:58:25.323129  2351 net.cpp:425] inception_5a/1x1 <- pool4/3x3_s2_pool4/3x3_s2_0_split_0
I0403 14:58:25.323151  2351 net.cpp:399] inception_5a/1x1 -> inception_5a/1x1
I0403 14:58:25.325943  2351 net.cpp:141] Setting up inception_5a/1x1
I0403 14:58:25.325973  2351 net.cpp:148] Top shape: 24 256 7 7 (301056)
I0403 14:58:25.325987  2351 net.cpp:156] Memory required for data: 1293329952
I0403 14:58:25.326005  2351 layer_factory.hpp:77] Creating layer inception_5a/relu_1x1
I0403 14:58:25.326025  2351 net.cpp:91] Creating Layer inception_5a/relu_1x1
I0403 14:58:25.326040  2351 net.cpp:425] inception_5a/relu_1x1 <- inception_5a/1x1
I0403 14:58:25.326057  2351 net.cpp:386] inception_5a/relu_1x1 -> inception_5a/1x1 (in-place)
I0403 14:58:25.326367  2351 net.cpp:141] Setting up inception_5a/relu_1x1
I0403 14:58:25.326392  2351 net.cpp:148] Top shape: 24 256 7 7 (301056)
I0403 14:58:25.326406  2351 net.cpp:156] Memory required for data: 1294534176
I0403 14:58:25.326421  2351 layer_factory.hpp:77] Creating layer inception_5a/3x3_reduce
I0403 14:58:25.326442  2351 net.cpp:91] Creating Layer inception_5a/3x3_reduce
I0403 14:58:25.326459  2351 net.cpp:425] inception_5a/3x3_reduce <- pool4/3x3_s2_pool4/3x3_s2_0_split_1
I0403 14:58:25.326479  2351 net.cpp:399] inception_5a/3x3_reduce -> inception_5a/3x3_reduce
I0403 14:58:25.328874  2351 net.cpp:141] Setting up inception_5a/3x3_reduce
I0403 14:58:25.328902  2351 net.cpp:148] Top shape: 24 160 7 7 (188160)
I0403 14:58:25.328917  2351 net.cpp:156] Memory required for data: 1295286816
I0403 14:58:25.328935  2351 layer_factory.hpp:77] Creating layer inception_5a/relu_3x3_reduce
I0403 14:58:25.328951  2351 net.cpp:91] Creating Layer inception_5a/relu_3x3_reduce
I0403 14:58:25.328970  2351 net.cpp:425] inception_5a/relu_3x3_reduce <- inception_5a/3x3_reduce
I0403 14:58:25.328987  2351 net.cpp:386] inception_5a/relu_3x3_reduce -> inception_5a/3x3_reduce (in-place)
I0403 14:58:25.329169  2351 net.cpp:141] Setting up inception_5a/relu_3x3_reduce
I0403 14:58:25.329193  2351 net.cpp:148] Top shape: 24 160 7 7 (188160)
I0403 14:58:25.329207  2351 net.cpp:156] Memory required for data: 1296039456
I0403 14:58:25.329221  2351 layer_factory.hpp:77] Creating layer inception_5a/3x3
I0403 14:58:25.329246  2351 net.cpp:91] Creating Layer inception_5a/3x3
I0403 14:58:25.329264  2351 net.cpp:425] inception_5a/3x3 <- inception_5a/3x3_reduce
I0403 14:58:25.329285  2351 net.cpp:399] inception_5a/3x3 -> inception_5a/3x3
I0403 14:58:25.334239  2351 net.cpp:141] Setting up inception_5a/3x3
I0403 14:58:25.334271  2351 net.cpp:148] Top shape: 24 320 7 7 (376320)
I0403 14:58:25.334286  2351 net.cpp:156] Memory required for data: 1297544736
I0403 14:58:25.334306  2351 layer_factory.hpp:77] Creating layer inception_5a/relu_3x3
I0403 14:58:25.334328  2351 net.cpp:91] Creating Layer inception_5a/relu_3x3
I0403 14:58:25.334357  2351 net.cpp:425] inception_5a/relu_3x3 <- inception_5a/3x3
I0403 14:58:25.334375  2351 net.cpp:386] inception_5a/relu_3x3 -> inception_5a/3x3 (in-place)
I0403 14:58:25.334661  2351 net.cpp:141] Setting up inception_5a/relu_3x3
I0403 14:58:25.334686  2351 net.cpp:148] Top shape: 24 320 7 7 (376320)
I0403 14:58:25.334700  2351 net.cpp:156] Memory required for data: 1299050016
I0403 14:58:25.334714  2351 layer_factory.hpp:77] Creating layer inception_5a/5x5_reduce
I0403 14:58:25.334735  2351 net.cpp:91] Creating Layer inception_5a/5x5_reduce
I0403 14:58:25.334753  2351 net.cpp:425] inception_5a/5x5_reduce <- pool4/3x3_s2_pool4/3x3_s2_0_split_2
I0403 14:58:25.334771  2351 net.cpp:399] inception_5a/5x5_reduce -> inception_5a/5x5_reduce
I0403 14:58:25.335916  2351 net.cpp:141] Setting up inception_5a/5x5_reduce
I0403 14:58:25.335942  2351 net.cpp:148] Top shape: 24 32 7 7 (37632)
I0403 14:58:25.335958  2351 net.cpp:156] Memory required for data: 1299200544
I0403 14:58:25.335975  2351 layer_factory.hpp:77] Creating layer inception_5a/relu_5x5_reduce
I0403 14:58:25.335994  2351 net.cpp:91] Creating Layer inception_5a/relu_5x5_reduce
I0403 14:58:25.336010  2351 net.cpp:425] inception_5a/relu_5x5_reduce <- inception_5a/5x5_reduce
I0403 14:58:25.336026  2351 net.cpp:386] inception_5a/relu_5x5_reduce -> inception_5a/5x5_reduce (in-place)
I0403 14:58:25.336321  2351 net.cpp:141] Setting up inception_5a/relu_5x5_reduce
I0403 14:58:25.336347  2351 net.cpp:148] Top shape: 24 32 7 7 (37632)
I0403 14:58:25.336361  2351 net.cpp:156] Memory required for data: 1299351072
I0403 14:58:25.336376  2351 layer_factory.hpp:77] Creating layer inception_5a/5x5
I0403 14:58:25.336398  2351 net.cpp:91] Creating Layer inception_5a/5x5
I0403 14:58:25.336416  2351 net.cpp:425] inception_5a/5x5 <- inception_5a/5x5_reduce
I0403 14:58:25.336434  2351 net.cpp:399] inception_5a/5x5 -> inception_5a/5x5
I0403 14:58:25.338106  2351 net.cpp:141] Setting up inception_5a/5x5
I0403 14:58:25.338145  2351 net.cpp:148] Top shape: 24 128 7 7 (150528)
I0403 14:58:25.338160  2351 net.cpp:156] Memory required for data: 1299953184
I0403 14:58:25.338177  2351 layer_factory.hpp:77] Creating layer inception_5a/relu_5x5
I0403 14:58:25.338196  2351 net.cpp:91] Creating Layer inception_5a/relu_5x5
I0403 14:58:25.338214  2351 net.cpp:425] inception_5a/relu_5x5 <- inception_5a/5x5
I0403 14:58:25.338232  2351 net.cpp:386] inception_5a/relu_5x5 -> inception_5a/5x5 (in-place)
I0403 14:58:25.338428  2351 net.cpp:141] Setting up inception_5a/relu_5x5
I0403 14:58:25.338454  2351 net.cpp:148] Top shape: 24 128 7 7 (150528)
I0403 14:58:25.338469  2351 net.cpp:156] Memory required for data: 1300555296
I0403 14:58:25.338484  2351 layer_factory.hpp:77] Creating layer inception_5a/pool
I0403 14:58:25.338500  2351 net.cpp:91] Creating Layer inception_5a/pool
I0403 14:58:25.338515  2351 net.cpp:425] inception_5a/pool <- pool4/3x3_s2_pool4/3x3_s2_0_split_3
I0403 14:58:25.338534  2351 net.cpp:399] inception_5a/pool -> inception_5a/pool
I0403 14:58:25.338603  2351 net.cpp:141] Setting up inception_5a/pool
I0403 14:58:25.338626  2351 net.cpp:148] Top shape: 24 832 7 7 (978432)
I0403 14:58:25.338640  2351 net.cpp:156] Memory required for data: 1304469024
I0403 14:58:25.338654  2351 layer_factory.hpp:77] Creating layer inception_5a/pool_proj
I0403 14:58:25.338675  2351 net.cpp:91] Creating Layer inception_5a/pool_proj
I0403 14:58:25.338691  2351 net.cpp:425] inception_5a/pool_proj <- inception_5a/pool
I0403 14:58:25.338711  2351 net.cpp:399] inception_5a/pool_proj -> inception_5a/pool_proj
I0403 14:58:25.340939  2351 net.cpp:141] Setting up inception_5a/pool_proj
I0403 14:58:25.340967  2351 net.cpp:148] Top shape: 24 128 7 7 (150528)
I0403 14:58:25.340982  2351 net.cpp:156] Memory required for data: 1305071136
I0403 14:58:25.340999  2351 layer_factory.hpp:77] Creating layer inception_5a/relu_pool_proj
I0403 14:58:25.341019  2351 net.cpp:91] Creating Layer inception_5a/relu_pool_proj
I0403 14:58:25.341037  2351 net.cpp:425] inception_5a/relu_pool_proj <- inception_5a/pool_proj
I0403 14:58:25.341053  2351 net.cpp:386] inception_5a/relu_pool_proj -> inception_5a/pool_proj (in-place)
I0403 14:58:25.341351  2351 net.cpp:141] Setting up inception_5a/relu_pool_proj
I0403 14:58:25.341377  2351 net.cpp:148] Top shape: 24 128 7 7 (150528)
I0403 14:58:25.341390  2351 net.cpp:156] Memory required for data: 1305673248
I0403 14:58:25.341405  2351 layer_factory.hpp:77] Creating layer inception_5a/output
I0403 14:58:25.341421  2351 net.cpp:91] Creating Layer inception_5a/output
I0403 14:58:25.341436  2351 net.cpp:425] inception_5a/output <- inception_5a/1x1
I0403 14:58:25.341452  2351 net.cpp:425] inception_5a/output <- inception_5a/3x3
I0403 14:58:25.341469  2351 net.cpp:425] inception_5a/output <- inception_5a/5x5
I0403 14:58:25.341483  2351 net.cpp:425] inception_5a/output <- inception_5a/pool_proj
I0403 14:58:25.341502  2351 net.cpp:399] inception_5a/output -> inception_5a/output
I0403 14:58:25.341553  2351 net.cpp:141] Setting up inception_5a/output
I0403 14:58:25.341577  2351 net.cpp:148] Top shape: 24 832 7 7 (978432)
I0403 14:58:25.341590  2351 net.cpp:156] Memory required for data: 1309586976
I0403 14:58:25.341603  2351 layer_factory.hpp:77] Creating layer inception_5a/output_inception_5a/output_0_split
I0403 14:58:25.341619  2351 net.cpp:91] Creating Layer inception_5a/output_inception_5a/output_0_split
I0403 14:58:25.341634  2351 net.cpp:425] inception_5a/output_inception_5a/output_0_split <- inception_5a/output
I0403 14:58:25.341653  2351 net.cpp:399] inception_5a/output_inception_5a/output_0_split -> inception_5a/output_inception_5a/output_0_split_0
I0403 14:58:25.341673  2351 net.cpp:399] inception_5a/output_inception_5a/output_0_split -> inception_5a/output_inception_5a/output_0_split_1
I0403 14:58:25.341692  2351 net.cpp:399] inception_5a/output_inception_5a/output_0_split -> inception_5a/output_inception_5a/output_0_split_2
I0403 14:58:25.341712  2351 net.cpp:399] inception_5a/output_inception_5a/output_0_split -> inception_5a/output_inception_5a/output_0_split_3
I0403 14:58:25.341820  2351 net.cpp:141] Setting up inception_5a/output_inception_5a/output_0_split
I0403 14:58:25.341842  2351 net.cpp:148] Top shape: 24 832 7 7 (978432)
I0403 14:58:25.341858  2351 net.cpp:148] Top shape: 24 832 7 7 (978432)
I0403 14:58:25.341873  2351 net.cpp:148] Top shape: 24 832 7 7 (978432)
I0403 14:58:25.341888  2351 net.cpp:148] Top shape: 24 832 7 7 (978432)
I0403 14:58:25.341902  2351 net.cpp:156] Memory required for data: 1325241888
I0403 14:58:25.341917  2351 layer_factory.hpp:77] Creating layer inception_5b/1x1
I0403 14:58:25.341939  2351 net.cpp:91] Creating Layer inception_5b/1x1
I0403 14:58:25.341955  2351 net.cpp:425] inception_5b/1x1 <- inception_5a/output_inception_5a/output_0_split_0
I0403 14:58:25.341974  2351 net.cpp:399] inception_5b/1x1 -> inception_5b/1x1
I0403 14:58:25.345769  2351 net.cpp:141] Setting up inception_5b/1x1
I0403 14:58:25.345798  2351 net.cpp:148] Top shape: 24 384 7 7 (451584)
I0403 14:58:25.345814  2351 net.cpp:156] Memory required for data: 1327048224
I0403 14:58:25.345834  2351 layer_factory.hpp:77] Creating layer inception_5b/relu_1x1
I0403 14:58:25.345851  2351 net.cpp:91] Creating Layer inception_5b/relu_1x1
I0403 14:58:25.345870  2351 net.cpp:425] inception_5b/relu_1x1 <- inception_5b/1x1
I0403 14:58:25.345888  2351 net.cpp:386] inception_5b/relu_1x1 -> inception_5b/1x1 (in-place)
I0403 14:58:25.346194  2351 net.cpp:141] Setting up inception_5b/relu_1x1
I0403 14:58:25.346220  2351 net.cpp:148] Top shape: 24 384 7 7 (451584)
I0403 14:58:25.346235  2351 net.cpp:156] Memory required for data: 1328854560
I0403 14:58:25.346254  2351 layer_factory.hpp:77] Creating layer inception_5b/3x3_reduce
I0403 14:58:25.346278  2351 net.cpp:91] Creating Layer inception_5b/3x3_reduce
I0403 14:58:25.346297  2351 net.cpp:425] inception_5b/3x3_reduce <- inception_5a/output_inception_5a/output_0_split_1
I0403 14:58:25.346318  2351 net.cpp:399] inception_5b/3x3_reduce -> inception_5b/3x3_reduce
I0403 14:58:25.348990  2351 net.cpp:141] Setting up inception_5b/3x3_reduce
I0403 14:58:25.349020  2351 net.cpp:148] Top shape: 24 192 7 7 (225792)
I0403 14:58:25.349035  2351 net.cpp:156] Memory required for data: 1329757728
I0403 14:58:25.349053  2351 layer_factory.hpp:77] Creating layer inception_5b/relu_3x3_reduce
I0403 14:58:25.349071  2351 net.cpp:91] Creating Layer inception_5b/relu_3x3_reduce
I0403 14:58:25.349087  2351 net.cpp:425] inception_5b/relu_3x3_reduce <- inception_5b/3x3_reduce
I0403 14:58:25.349107  2351 net.cpp:386] inception_5b/relu_3x3_reduce -> inception_5b/3x3_reduce (in-place)
I0403 14:58:25.349303  2351 net.cpp:141] Setting up inception_5b/relu_3x3_reduce
I0403 14:58:25.349328  2351 net.cpp:148] Top shape: 24 192 7 7 (225792)
I0403 14:58:25.349342  2351 net.cpp:156] Memory required for data: 1330660896
I0403 14:58:25.349357  2351 layer_factory.hpp:77] Creating layer inception_5b/3x3
I0403 14:58:25.349378  2351 net.cpp:91] Creating Layer inception_5b/3x3
I0403 14:58:25.349395  2351 net.cpp:425] inception_5b/3x3 <- inception_5b/3x3_reduce
I0403 14:58:25.349416  2351 net.cpp:399] inception_5b/3x3 -> inception_5b/3x3
I0403 14:58:25.356144  2351 net.cpp:141] Setting up inception_5b/3x3
I0403 14:58:25.356173  2351 net.cpp:148] Top shape: 24 384 7 7 (451584)
I0403 14:58:25.356189  2351 net.cpp:156] Memory required for data: 1332467232
I0403 14:58:25.356207  2351 layer_factory.hpp:77] Creating layer inception_5b/relu_3x3
I0403 14:58:25.356228  2351 net.cpp:91] Creating Layer inception_5b/relu_3x3
I0403 14:58:25.356250  2351 net.cpp:425] inception_5b/relu_3x3 <- inception_5b/3x3
I0403 14:58:25.356267  2351 net.cpp:386] inception_5b/relu_3x3 -> inception_5b/3x3 (in-place)
I0403 14:58:25.356575  2351 net.cpp:141] Setting up inception_5b/relu_3x3
I0403 14:58:25.356600  2351 net.cpp:148] Top shape: 24 384 7 7 (451584)
I0403 14:58:25.356616  2351 net.cpp:156] Memory required for data: 1334273568
I0403 14:58:25.356631  2351 layer_factory.hpp:77] Creating layer inception_5b/5x5_reduce
I0403 14:58:25.356667  2351 net.cpp:91] Creating Layer inception_5b/5x5_reduce
I0403 14:58:25.356686  2351 net.cpp:425] inception_5b/5x5_reduce <- inception_5a/output_inception_5a/output_0_split_2
I0403 14:58:25.356709  2351 net.cpp:399] inception_5b/5x5_reduce -> inception_5b/5x5_reduce
I0403 14:58:25.358016  2351 net.cpp:141] Setting up inception_5b/5x5_reduce
I0403 14:58:25.358045  2351 net.cpp:148] Top shape: 24 48 7 7 (56448)
I0403 14:58:25.358062  2351 net.cpp:156] Memory required for data: 1334499360
I0403 14:58:25.358081  2351 layer_factory.hpp:77] Creating layer inception_5b/relu_5x5_reduce
I0403 14:58:25.358101  2351 net.cpp:91] Creating Layer inception_5b/relu_5x5_reduce
I0403 14:58:25.358119  2351 net.cpp:425] inception_5b/relu_5x5_reduce <- inception_5b/5x5_reduce
I0403 14:58:25.358136  2351 net.cpp:386] inception_5b/relu_5x5_reduce -> inception_5b/5x5_reduce (in-place)
I0403 14:58:25.358527  2351 net.cpp:141] Setting up inception_5b/relu_5x5_reduce
I0403 14:58:25.358554  2351 net.cpp:148] Top shape: 24 48 7 7 (56448)
I0403 14:58:25.358571  2351 net.cpp:156] Memory required for data: 1334725152
I0403 14:58:25.358585  2351 layer_factory.hpp:77] Creating layer inception_5b/5x5
I0403 14:58:25.358606  2351 net.cpp:91] Creating Layer inception_5b/5x5
I0403 14:58:25.358623  2351 net.cpp:425] inception_5b/5x5 <- inception_5b/5x5_reduce
I0403 14:58:25.358642  2351 net.cpp:399] inception_5b/5x5 -> inception_5b/5x5
I0403 14:58:25.360807  2351 net.cpp:141] Setting up inception_5b/5x5
I0403 14:58:25.360836  2351 net.cpp:148] Top shape: 24 128 7 7 (150528)
I0403 14:58:25.360851  2351 net.cpp:156] Memory required for data: 1335327264
I0403 14:58:25.360868  2351 layer_factory.hpp:77] Creating layer inception_5b/relu_5x5
I0403 14:58:25.360888  2351 net.cpp:91] Creating Layer inception_5b/relu_5x5
I0403 14:58:25.360905  2351 net.cpp:425] inception_5b/relu_5x5 <- inception_5b/5x5
I0403 14:58:25.360924  2351 net.cpp:386] inception_5b/relu_5x5 -> inception_5b/5x5 (in-place)
I0403 14:58:25.361122  2351 net.cpp:141] Setting up inception_5b/relu_5x5
I0403 14:58:25.361148  2351 net.cpp:148] Top shape: 24 128 7 7 (150528)
I0403 14:58:25.361163  2351 net.cpp:156] Memory required for data: 1335929376
I0403 14:58:25.361178  2351 layer_factory.hpp:77] Creating layer inception_5b/pool
I0403 14:58:25.361196  2351 net.cpp:91] Creating Layer inception_5b/pool
I0403 14:58:25.361212  2351 net.cpp:425] inception_5b/pool <- inception_5a/output_inception_5a/output_0_split_3
I0403 14:58:25.361232  2351 net.cpp:399] inception_5b/pool -> inception_5b/pool
I0403 14:58:25.361309  2351 net.cpp:141] Setting up inception_5b/pool
I0403 14:58:25.361332  2351 net.cpp:148] Top shape: 24 832 7 7 (978432)
I0403 14:58:25.361346  2351 net.cpp:156] Memory required for data: 1339843104
I0403 14:58:25.361361  2351 layer_factory.hpp:77] Creating layer inception_5b/pool_proj
I0403 14:58:25.361382  2351 net.cpp:91] Creating Layer inception_5b/pool_proj
I0403 14:58:25.361400  2351 net.cpp:425] inception_5b/pool_proj <- inception_5b/pool
I0403 14:58:25.361419  2351 net.cpp:399] inception_5b/pool_proj -> inception_5b/pool_proj
I0403 14:58:25.363745  2351 net.cpp:141] Setting up inception_5b/pool_proj
I0403 14:58:25.363775  2351 net.cpp:148] Top shape: 24 128 7 7 (150528)
I0403 14:58:25.363790  2351 net.cpp:156] Memory required for data: 1340445216
I0403 14:58:25.363809  2351 layer_factory.hpp:77] Creating layer inception_5b/relu_pool_proj
I0403 14:58:25.363829  2351 net.cpp:91] Creating Layer inception_5b/relu_pool_proj
I0403 14:58:25.363847  2351 net.cpp:425] inception_5b/relu_pool_proj <- inception_5b/pool_proj
I0403 14:58:25.363863  2351 net.cpp:386] inception_5b/relu_pool_proj -> inception_5b/pool_proj (in-place)
I0403 14:58:25.364162  2351 net.cpp:141] Setting up inception_5b/relu_pool_proj
I0403 14:58:25.364195  2351 net.cpp:148] Top shape: 24 128 7 7 (150528)
I0403 14:58:25.364210  2351 net.cpp:156] Memory required for data: 1341047328
I0403 14:58:25.364224  2351 layer_factory.hpp:77] Creating layer inception_5b/output
I0403 14:58:25.364250  2351 net.cpp:91] Creating Layer inception_5b/output
I0403 14:58:25.364281  2351 net.cpp:425] inception_5b/output <- inception_5b/1x1
I0403 14:58:25.364300  2351 net.cpp:425] inception_5b/output <- inception_5b/3x3
I0403 14:58:25.364315  2351 net.cpp:425] inception_5b/output <- inception_5b/5x5
I0403 14:58:25.364331  2351 net.cpp:425] inception_5b/output <- inception_5b/pool_proj
I0403 14:58:25.364348  2351 net.cpp:399] inception_5b/output -> inception_5b/output
I0403 14:58:25.364399  2351 net.cpp:141] Setting up inception_5b/output
I0403 14:58:25.364424  2351 net.cpp:148] Top shape: 24 1024 7 7 (1204224)
I0403 14:58:25.364439  2351 net.cpp:156] Memory required for data: 1345864224
I0403 14:58:25.364454  2351 layer_factory.hpp:77] Creating layer pool5/7x7_s1
I0403 14:58:25.364471  2351 net.cpp:91] Creating Layer pool5/7x7_s1
I0403 14:58:25.364487  2351 net.cpp:425] pool5/7x7_s1 <- inception_5b/output
I0403 14:58:25.364506  2351 net.cpp:399] pool5/7x7_s1 -> pool5/7x7_s1
I0403 14:58:25.364725  2351 net.cpp:141] Setting up pool5/7x7_s1
I0403 14:58:25.364751  2351 net.cpp:148] Top shape: 24 1024 1 1 (24576)
I0403 14:58:25.364765  2351 net.cpp:156] Memory required for data: 1345962528
I0403 14:58:25.364780  2351 layer_factory.hpp:77] Creating layer pool5/drop_7x7_s1
I0403 14:58:25.364799  2351 net.cpp:91] Creating Layer pool5/drop_7x7_s1
I0403 14:58:25.364816  2351 net.cpp:425] pool5/drop_7x7_s1 <- pool5/7x7_s1
I0403 14:58:25.364833  2351 net.cpp:386] pool5/drop_7x7_s1 -> pool5/7x7_s1 (in-place)
I0403 14:58:25.364884  2351 net.cpp:141] Setting up pool5/drop_7x7_s1
I0403 14:58:25.364907  2351 net.cpp:148] Top shape: 24 1024 1 1 (24576)
I0403 14:58:25.364922  2351 net.cpp:156] Memory required for data: 1346060832
I0403 14:58:25.364935  2351 layer_factory.hpp:77] Creating layer loss3/classifier_plantvillage
I0403 14:58:25.364953  2351 net.cpp:91] Creating Layer loss3/classifier_plantvillage
I0403 14:58:25.364972  2351 net.cpp:425] loss3/classifier_plantvillage <- pool5/7x7_s1
I0403 14:58:25.364991  2351 net.cpp:399] loss3/classifier_plantvillage -> loss3/classifier_plantvillage
I0403 14:58:25.365425  2351 net.cpp:141] Setting up loss3/classifier_plantvillage
I0403 14:58:25.365449  2351 net.cpp:148] Top shape: 24 38 (912)
I0403 14:58:25.365463  2351 net.cpp:156] Memory required for data: 1346064480
I0403 14:58:25.365481  2351 layer_factory.hpp:77] Creating layer loss3/classifier_plantvillage_loss3/classifier_plantvillage_0_split
I0403 14:58:25.365499  2351 net.cpp:91] Creating Layer loss3/classifier_plantvillage_loss3/classifier_plantvillage_0_split
I0403 14:58:25.365515  2351 net.cpp:425] loss3/classifier_plantvillage_loss3/classifier_plantvillage_0_split <- loss3/classifier_plantvillage
I0403 14:58:25.365535  2351 net.cpp:399] loss3/classifier_plantvillage_loss3/classifier_plantvillage_0_split -> loss3/classifier_plantvillage_loss3/classifier_plantvillage_0_split_0
I0403 14:58:25.365556  2351 net.cpp:399] loss3/classifier_plantvillage_loss3/classifier_plantvillage_0_split -> loss3/classifier_plantvillage_loss3/classifier_plantvillage_0_split_1
I0403 14:58:25.365576  2351 net.cpp:399] loss3/classifier_plantvillage_loss3/classifier_plantvillage_0_split -> loss3/classifier_plantvillage_loss3/classifier_plantvillage_0_split_2
I0403 14:58:25.365595  2351 net.cpp:399] loss3/classifier_plantvillage_loss3/classifier_plantvillage_0_split -> loss3/classifier_plantvillage_loss3/classifier_plantvillage_0_split_3
I0403 14:58:25.365699  2351 net.cpp:141] Setting up loss3/classifier_plantvillage_loss3/classifier_plantvillage_0_split
I0403 14:58:25.365721  2351 net.cpp:148] Top shape: 24 38 (912)
I0403 14:58:25.365737  2351 net.cpp:148] Top shape: 24 38 (912)
I0403 14:58:25.365753  2351 net.cpp:148] Top shape: 24 38 (912)
I0403 14:58:25.365768  2351 net.cpp:148] Top shape: 24 38 (912)
I0403 14:58:25.365782  2351 net.cpp:156] Memory required for data: 1346079072
I0403 14:58:25.365797  2351 layer_factory.hpp:77] Creating layer loss1/loss
I0403 14:58:25.365819  2351 net.cpp:91] Creating Layer loss1/loss
I0403 14:58:25.365836  2351 net.cpp:425] loss1/loss <- loss1/classifier_plantvillage_loss1/classifier_plantvillage_0_split_0
I0403 14:58:25.365867  2351 net.cpp:425] loss1/loss <- label_data_1_split_0
…
