…
I0403 15:40:37.679322  3359 net.cpp:313] The NetState phase (1) differed from the phase (0) specified by a rule in layer data
I0403 15:40:37.680869  3359 net.cpp:49] Initializing net from parameters: 
state {
  phase: TEST
}
layer {
  name: "data"
  type: "Data"
  top: "data"
  top: "label"
  include {
    phase: TEST
  }
  transform_param {
    mirror: false
    crop_size: 224
    mean_file: "/home/mohanty/data/final_dataset/lmdb/grayscale-50-50/mean.binaryproto"
  }
  data_param {
    source: "/home/mohanty/data/final_dataset/lmdb/grayscale-50-50/test_db"
    batch_size: 24
    backend: LMDB
  }
}
layer {
  name: "conv1/7x7_s2"
  type: "Convolution"
  bottom: "data"
  top: "conv1/7x7_s2"
  param {
    lr_mult: 1
    decay_mult: 1
  }
  param {
    lr_mult: 2
    decay_mult: 0
  }
  convolution_param {
    num_output: 64
    pad: 3
    kernel_size: 7
    stride: 2
    weight_filler {
      type: "xavier"
      std: 0.1
    }
    bias_filler {
      type: "constant"
      value: 0.2
    }
  }
}
layer {
  name: "conv1/relu_7x7"
  type: "ReLU"
  bottom: "conv1/7x7_s2"
  top: "conv1/7x7_s2"
}
layer {
  name: "pool1/3x3_s2"
  type: "Pooling"
  bottom: "conv1/7x7_s2"
  top: "pool1/3x3_s2"
  pooling_param {
    pool: MAX
    kernel_size: 3
    stride: 2
  }
}
layer {
  name: "pool1/norm1"
  type: "LRN"
  bottom: "pool1/3x3_s2"
  top: "pool1/norm1"
  lrn_param {
    local_size: 5
    alpha: 0.0001
    beta: 0.75
  }
}
layer {
  name: "conv2/3x3_reduce"
  type: "Convolution"
  bottom: "pool1/norm1"
  top: "conv2/3x3_reduce"
  param {
    lr_mult: 1
    decay_mult: 1
  }
  param {
    lr_mult: 2
    decay_mult: 0
  }
  convolution_param {
    num_output: 64
    kernel_size: 1
    weight_filler {
      type: "xavier"
      std: 0.1
    }
    bias_filler {
      type: "constant"
      value: 0.2
    }
  }
}
layer {
  name: "conv2/relu_3x3_reduce"
  type: "ReLU"
  bottom: "conv2/3x3_reduce"
  top: "conv2/3x3_reduce"
}
layer {
  name: "conv2/3x3"
  type: "Convolution"
  bottom: "conv2/3x3_reduce"
  top: "conv2/3x3"
  param {
    lr_mult: 1
    decay_mult: 1
  }
  param {
    lr_mult: 2
    decay_mult: 0
  }
  convolution_param {
    num_output: 192
    pad: 1
    kernel_size: 3
    weight_filler {
      type: "xavier"
      std: 0.03
    }
    bias_filler {
      type: "constant"
      value: 0.2
    }
  }
}
layer {
  name: "conv2/relu_3x3"
  type: "ReLU"
  bottom: "conv2/3x3"
  top: "conv2/3x3"
}
layer {
  name: "conv2/norm2"
  type: "LRN"
  bottom: "conv2/3x3"
  top: "conv2/norm2"
  lrn_param {
    local_size: 5
    alpha: 0.0001
    beta: 0.75
  }
}
layer {
  name: "pool2/3x3_s2"
  type: "Pooling"
  bottom: "conv2/norm2"
  top: "pool2/3x3_s2"
  pooling_param {
    pool: MAX
    kernel_size: 3
    stride: 2
  }
}
layer {
  name: "inception_3a/1x1"
  type: "Convolution"
  bottom: "pool2/3x3_s2"
  top: "inception_3a/1x1"
  param {
    lr_mult: 1
    decay_mult: 1
  }
  param {
    lr_mult: 2
    decay_mult: 0
  }
  convolution_param {
    num_output: 64
    kernel_size: 1
    weight_filler {
      type: "xavier"
      std: 0.03
    }
    bias_filler {
      type: "constant"
      value: 0.2
    }
  }
}
layer {
  name: "inception_3a/relu_1x1"
  type: "ReLU"
  bottom: "inception_3a/1x1"
  top: "inception_3a/1x1"
}
layer {
  name: "inception_3a/3x3_reduce"
  type: "Convolution"
  bottom: "pool2/3x3_s2"
  top: "inception_3a/3x3_reduce"
  param {
    lr_mult: 1
    decay_mult: 1
  }
  param {
    lr_mult: 2
    decay_mult: 0
  }
  convolution_param {
    num_output: 96
    kernel_size: 1
    weight_filler {
      type: "xavier"
      std: 0.09
    }
    bias_filler {
      type: "constant"
      value: 0.2
    }
  }
}
layer {
  name: "inception_3a/relu_3x3_reduce"
  type: "ReLU"
  bottom: "inception_3a/3x3_reduce"
  top: "inception_3a/3x3_reduce"
}
layer {
  name: "inception_3a/3x3"
  type: "Convolution"
  bottom: "inception_3a/3x3_reduce"
  top: "inception_3a/3x3"
  param {
    lr_mult: 1
    decay_mult: 1
  }
  param {
    lr_mult: 2
    decay_mult: 0
  }
  convolution_param {
    num_output: 128
    pad: 1
    kernel_size: 3
    weight_filler {
      type: "xavier"
      std: 0.03
    }
    bias_filler {
      type: "constant"
      value: 0.2
    }
  }
}
layer {
  name: "inception_3a/relu_3x3"
  type: "ReLU"
  bottom: "inception_3a/3x3"
  top: "inception_3a/3x3"
}
layer {
  name: "inception_3a/5x5_reduce"
  type: "Convolution"
  bottom: "pool2/3x3_s2"
  top: "inception_3a/5x5_reduce"
  param {
    lr_mult: 1
    decay_mult: 1
  }
  param {
    lr_mult: 2
    decay_mult: 0
  }
  convolution_param {
    num_output: 16
    kernel_size: 1
    weight_filler {
      type: "xavier"
      std: 0.2
    }
    bias_filler {
      type: "constant"
      value: 0.2
    }
  }
}
layer {
  name: "inception_3a/relu_5x5_reduce"
  type: "ReLU"
  bottom: "inception_3a/5x5_reduce"
  top: "inception_3a/5x5_reduce"
}
layer {
  name: "inception_3a/5x5"
  type: "Convolution"
  bottom: "inception_3a/5x5_reduce"
  top: "inception_3a/5x5"
  param {
    lr_mult: 1
    decay_mult: 1
  }
  param {
    lr_mult: 2
    decay_mult: 0
  }
  convolution_param {
    num_output: 32
    pad: 2
    kernel_size: 5
    weight_filler {
      type: "xavier"
      std: 0.03
    }
    bias_filler {
      type: "constant"
      value: 0.2
    }
  }
}
layer {
  name: "inception_3a/relu_5x5"
  type: "ReLU"
  bottom: "inception_3a/5x5"
  top: "inception_3a/5x5"
}
layer {
  name: "inception_3a/pool"
  type: "Pooling"
  bottom: "pool2/3x3_s2"
  top: "inception_3a/pool"
  pooling_param {
    pool: MAX
    kernel_size: 3
    stride: 1
    pad: 1
  }
}
layer {
  name: "inception_3a/pool_proj"
  type: "Convolution"
  bottom: "inception_3a/pool"
  top: "inception_3a/pool_proj"
  param {
    lr_mult: 1
    decay_mult: 1
  }
  param {
    lr_mult: 2
    decay_mult: 0
  }
  convolution_param {
    num_output: 32
    kernel_size: 1
    weight_filler {
      type: "xavier"
      std: 0.1
    }
    bias_filler {
      type: "constant"
      value: 0.2
    }
  }
}
layer {
  name: "inception_3a/relu_pool_proj"
  type: "ReLU"
  bottom: "inception_3a/pool_proj"
  top: "inception_3a/pool_proj"
}
layer {
  name: "inception_3a/output"
  type: "Concat"
  bottom: "inception_3a/1x1"
  bottom: "inception_3a/3x3"
  bottom: "inception_3a/5x5"
  bottom: "inception_3a/pool_proj"
  top: "inception_3a/output"
}
layer {
  name: "inception_3b/1x1"
  type: "Convolution"
  bottom: "inception_3a/output"
  top: "inception_3b/1x1"
  param {
    lr_mult: 1
    decay_mult: 1
  }
  param {
    lr_mult: 2
    decay_mult: 0
  }
  convolution_param {
    num_output: 128
    kernel_size: 1
    weight_filler {
      type: "xavier"
      std: 0.03
    }
    bias_filler {
      type: "constant"
      value: 0.2
    }
  }
}
layer {
  name: "inception_3b/relu_1x1"
  type: "ReLU"
  bottom: "inception_3b/1x1"
  top: "inception_3b/1x1"
}
layer {
  name: "inception_3b/3x3_reduce"
  type: "Convolution"
  bottom: "inception_3a/output"
  top: "inception_3b/3x3_reduce"
  param {
    lr_mult: 1
    decay_mult: 1
  }
  param {
    lr_mult: 2
    decay_mult: 0
  }
  convolution_param {
    num_output: 128
    kernel_size: 1
    weight_filler {
      type: "xavier"
      std: 0.09
    }
    bias_filler {
      type: "constant"
      value: 0.2
    }
  }
}
layer {
  name: "inception_3b/relu_3x3_reduce"
  type: "ReLU"
  bottom: "inception_3b/3x3_reduce"
  top: "inception_3b/3x3_reduce"
}
layer {
  name: "inception_3b/3x3"
  type: "Convolution"
  bottom: "inception_3b/3x3_reduce"
  top: "inception_3b/3x3"
  param {
    lr_mult: 1
    decay_mult: 1
  }
  param {
    lr_mult: 2
    decay_mult: 0
  }
  convolution_param {
    num_output: 192
    pad: 1
    kernel_size: 3
    weight_filler {
      type: "xavier"
      std: 0.03
    }
    bias_filler {
      type: "constant"
      value: 0.2
    }
  }
}
layer {
  name: "inception_3b/relu_3x3"
  type: "ReLU"
  bottom: "inception_3b/3x3"
  top: "inception_3b/3x3"
}
layer {
  name: "inception_3b/5x5_reduce"
  type: "Convolution"
  bottom: "inception_3a/output"
  top: "inception_3b/5x5_reduce"
  param {
    lr_mult: 1
    decay_mult: 1
  }
  param {
    lr_mult: 2
    decay_mult: 0
  }
  convolution_param {
    num_output: 32
    kernel_size: 1
    weight_filler {
      type: "xavier"
      std: 0.2
    }
    bias_filler {
      type: "constant"
      value: 0.2
    }
  }
}
layer {
  name: "inception_3b/relu_5x5_reduce"
  type: "ReLU"
  bottom: "inception_3b/5x5_reduce"
  top: "inception_3b/5x5_reduce"
}
layer {
  name: "inception_3b/5x5"
  type: "Convolution"
  bottom: "inception_3b/5x5_reduce"
  top: "inception_3b/5x5"
  param {
    lr_mult: 1
    decay_mult: 1
  }
  param {
    lr_mult: 2
    decay_mult: 0
  }
  convolution_param {
    num_output: 96
    pad: 2
    kernel_size: 5
    weight_filler {
      type: "xavier"
      std: 0.03
    }
    bias_filler {
      type: "constant"
      value: 0.2
    }
  }
}
layer {
  name: "inception_3b/relu_5x5"
  type: "ReLU"
  bottom: "inception_3b/5x5"
  top: "inception_3b/5x5"
}
layer {
  name: "inception_3b/pool"
  type: "Pooling"
  bottom: "inception_3a/output"
  top: "inception_3b/pool"
  pooling_param {
    pool: MAX
    kernel_size: 3
    stride: 1
    pad: 1
  }
}
layer {
  name: "inception_3b/pool_proj"
  type: "Convolution"
  bottom: "inception_3b/pool"
  top: "inception_3b/pool_proj"
  param {
    lr_mult: 1
    decay_mult: 1
  }
  param {
    lr_mult: 2
    decay_mult: 0
  }
  convolution_param {
    num_output: 64
    kernel_size: 1
    weight_filler {
      type: "xavier"
      std: 0.1
    }
    bias_filler {
      type: "constant"
      value: 0.2
    }
  }
}
layer {
  name: "inception_3b/relu_pool_proj"
  type: "ReLU"
  bottom: "inception_3b/pool_proj"
  top: "inception_3b/pool_proj"
}
layer {
  name: "inception_3b/output"
  type: "Concat"
  bottom: "inception_3b/1x1"
  bottom: "inception_3b/3x3"
  bottom: "inception_3b/5x5"
  bottom: "inception_3b/pool_proj"
  top: "inception_3b/output"
}
layer {
  name: "pool3/3x3_s2"
  type: "Pooling"
  bottom: "inception_3b/output"
  top: "pool3/3x3_s2"
  pooling_param {
    pool: MAX
    kernel_size: 3
    stride: 2
  }
}
layer {
  name: "inception_4a/1x1"
  type: "Convolution"
  bottom: "pool3/3x3_s2"
  top: "inception_4a/1x1"
  param {
    lr_mult: 1
    decay_mult: 1
  }
  param {
    lr_mult: 2
    decay_mult: 0
  }
  convolution_param {
    num_output: 192
    kernel_size: 1
    weight_filler {
      type: "xavier"
      std: 0.03
    }
    bias_filler {
      type: "constant"
      value: 0.2
    }
  }
}
layer {
  name: "inception_4a/relu_1x1"
  type: "ReLU"
  bottom: "inception_4a/1x1"
  top: "inception_4a/1x1"
}
layer {
  name: "inception_4a/3x3_reduce"
  type: "Convolution"
  bottom: "pool3/3x3_s2"
  top: "inception_4a/3x3_reduce"
  param {
    lr_mult: 1
    decay_mult: 1
  }
  param {
    lr_mult: 2
    decay_mult: 0
  }
  convolution_param {
    num_output: 96
    kernel_size: 1
    weight_filler {
      type: "xavier"
      std: 0.09
    }
    bias_filler {
      type: "constant"
      value: 0.2
    }
  }
}
layer {
  name: "inception_4a/relu_3x3_reduce"
  type: "ReLU"
  bottom: "inception_4a/3x3_reduce"
  top: "inception_4a/3x3_reduce"
}
layer {
  name: "inception_4a/3x3"
  type: "Convolution"
  bottom: "inception_4a/3x3_reduce"
  top: "inception_4a/3x3"
  param {
    lr_mult: 1
    decay_mult: 1
  }
  param {
    lr_mult: 2
    decay_mult: 0
  }
  convolution_param {
    num_output: 208
    pad: 1
    kernel_size: 3
    weight_filler {
      type: "xavier"
      std: 0.03
    }
    bias_filler {
      type: "constant"
      value: 0.2
    }
  }
}
layer {
  name: "inception_4a/relu_3x3"
  type: "ReLU"
  bottom: "inception_4a/3x3"
  top: "inception_4a/3x3"
}
layer {
  name: "inception_4a/5x5_reduce"
  type: "Convolution"
  bottom: "pool3/3x3_s2"
  top: "inception_4a/5x5_reduce"
  param {
    lr_mult: 1
    decay_mult: 1
  }
  param {
    lr_mult: 2
    decay_mult: 0
  }
  convolution_param {
    num_output: 16
    kernel_size: 1
    weight_filler {
      type: "xavier"
      std: 0.2
    }
    bias_filler {
      type: "constant"
      value: 0.2
    }
  }
}
layer {
  name: "inception_4a/relu_5x5_reduce"
  type: "ReLU"
  bottom: "inception_4a/5x5_reduce"
  top: "inception_4a/5x5_reduce"
}
layer {
  name: "inception_4a/5x5"
  type: "Convolution"
  bottom: "inception_4a/5x5_reduce"
  top: "inception_4a/5x5"
  param {
    lr_mult: 1
    decay_mult: 1
  }
  param {
    lr_mult: 2
    decay_mult: 0
  }
  convolution_param {
    num_output: 48
    pad: 2
    kernel_size: 5
    weight_filler {
      type: "xavier"
      std: 0.03
    }
    bias_filler {
      type: "constant"
      value: 0.2
    }
  }
}
layer {
  name: "inception_4a/relu_5x5"
  type: "ReLU"
  bottom: "inception_4a/5x5"
  top: "inception_4a/5x5"
}
layer {
  name: "inception_4a/pool"
  type: "Pooling"
  bottom: "pool3/3x3_s2"
  top: "inception_4a/pool"
  pooling_param {
    pool: MAX
    kernel_size: 3
    stride: 1
    pad: 1
  }
}
layer {
  name: "inception_4a/pool_proj"
  type: "Convolution"
  bottom: "inception_4a/pool"
  top: "inception_4a/pool_proj"
  param {
    lr_mult: 1
    decay_mult: 1
  }
  param {
    lr_mult: 2
    decay_mult: 0
  }
  convolution_param {
    num_output: 64
    kernel_size: 1
    weight_filler {
      type: "xavier"
      std: 0.1
    }
    bias_filler {
      type: "constant"
      value: 0.2
    }
  }
}
layer {
  name: "inception_4a/relu_pool_proj"
  type: "ReLU"
  bottom: "inception_4a/pool_proj"
  top: "inception_4a/pool_proj"
}
layer {
  name: "inception_4a/output"
  type: "Concat"
  bottom: "inception_4a/1x1"
  bottom: "inception_4a/3x3"
  bottom: "inception_4a/5x5"
  bottom: "inception_4a/pool_proj"
  top: "inception_4a/output"
}
layer {
  name: "loss1/ave_pool"
  type: "Pooling"
  bottom: "inception_4a/output"
  top: "loss1/ave_pool"
  pooling_param {
    pool: AVE
    kernel_size: 5
    stride: 3
  }
}
layer {
  name: "loss1/conv"
  type: "Convolution"
  bottom: "loss1/ave_pool"
  top: "loss1/conv"
  param {
    lr_mult: 1
    decay_mult: 1
  }
  param {
    lr_mult: 2
    decay_mult: 0
  }
  convolution_param {
    num_output: 128
    kernel_size: 1
    weight_filler {
      type: "xavier"
      std: 0.08
    }
    bias_filler {
      type: "constant"
      value: 0.2
    }
  }
}
layer {
  name: "loss1/relu_conv"
  type: "ReLU"
  bottom: "loss1/conv"
  top: "loss1/conv"
}
layer {
  name: "loss1/fc"
  type: "InnerProduct"
  bottom: "loss1/conv"
  top: "loss1/fc"
  param {
    lr_mult: 1
    decay_mult: 1
  }
  param {
    lr_mult: 2
    decay_mult: 0
  }
  inner_product_param {
    num_output: 1024
    weight_filler {
      type: "xavier"
      std: 0.02
    }
    bias_filler {
      type: "constant"
      value: 0.2
    }
  }
}
layer {
  name: "loss1/relu_fc"
  type: "ReLU"
  bottom: "loss1/fc"
  top: "loss1/fc"
}
layer {
  name: "loss1/drop_fc"
  type: "Dropout"
  bottom: "loss1/fc"
  top: "loss1/fc"
  dropout_param {
    dropout_ratio: 0.7
  }
}
layer {
  name: "loss1/classifier_plantvillage"
  type: "InnerProduct"
  bottom: "loss1/fc"
  top: "loss1/classifier_plantvillage"
  param {
    lr_mult: 1
    decay_mult: 1
  }
  param {
    lr_mult: 2
    decay_mult: 0
  }
  inner_product_param {
    num_output: 38
    weight_filler {
      type: "xavier"
      std: 0.0009765625
    }
    bias_filler {
      type: "constant"
      value: 0
    }
  }
}
layer {
  name: "inception_4b/1x1"
  type: "Convolution"
  bottom: "inception_4a/output"
  top: "inception_4b/1x1"
  param {
    lr_mult: 1
    decay_mult: 1
  }
  param {
    lr_mult: 2
    decay_mult: 0
  }
  convolution_param {
    num_output: 160
    kernel_size: 1
    weight_filler {
      type: "xavier"
      std: 0.03
    }
    bias_filler {
      type: "constant"
      value: 0.2
    }
  }
}
layer {
  name: "inception_4b/relu_1x1"
  type: "ReLU"
  bottom: "inception_4b/1x1"
  top: "inception_4b/1x1"
}
layer {
  name: "inception_4b/3x3_reduce"
  type: "Convolution"
  bottom: "inception_4a/output"
  top: "inception_4b/3x3_reduce"
  param {
    lr_mult: 1
    decay_mult: 1
  }
  param {
    lr_mult: 2
    decay_mult: 0
  }
  convolution_param {
    num_output: 112
    kernel_size: 1
    weight_filler {
      type: "xavier"
      std: 0.09
    }
    bias_filler {
      type: "constant"
      value: 0.2
    }
  }
}
layer {
  name: "inception_4b/relu_3x3_reduce"
  type: "ReLU"
  bottom: "inception_4b/3x3_reduce"
  top: "inception_4b/3x3_reduce"
}
layer {
  name: "inception_4b/3x3"
  type: "Convolution"
  bottom: "inception_4b/3x3_reduce"
  top: "inception_4b/3x3"
  param {
    lr_mult: 1
    decay_mult: 1
  }
  param {
    lr_mult: 2
    decay_mult: 0
  }
  convolution_param {
    num_output: 224
    pad: 1
    kernel_size: 3
    weight_filler {
      type: "xavier"
      std: 0.03
    }
    bias_filler {
      type: "constant"
      value: 0.2
    }
  }
}
layer {
  name: "inception_4b/relu_3x3"
  type: "ReLU"
  bottom: "inception_4b/3x3"
  top: "inception_4b/3x3"
}
layer {
  name: "inception_4b/5x5_reduce"
  type: "Convolution"
  bottom: "inception_4a/output"
  top: "inception_4b/5x5_reduce"
  param {
    lr_mult: 1
    decay_mult: 1
  }
  param {
    lr_mult: 2
    decay_mult: 0
  }
  convolution_param {
    num_output: 24
    kernel_size: 1
    weight_filler {
      type: "xavier"
      std: 0.2
    }
    bias_filler {
      type: "constant"
      value: 0.2
    }
  }
}
layer {
  name: "inception_4b/relu_5x5_reduce"
  type: "ReLU"
  bottom: "inception_4b/5x5_reduce"
  top: "inception_4b/5x5_reduce"
}
layer {
  name: "inception_4b/5x5"
  type: "Convolution"
  bottom: "inception_4b/5x5_reduce"
  top: "inception_4b/5x5"
  param {
    lr_mult: 1
    decay_mult: 1
  }
  param {
    lr_mult: 2
    decay_mult: 0
  }
  convolution_param {
    num_output: 64
    pad: 2
    kernel_size: 5
    weight_filler {
      type: "xavier"
      std: 0.03
    }
    bias_filler {
      type: "constant"
      value: 0.2
    }
  }
}
layer {
  name: "inception_4b/relu_5x5"
  type: "ReLU"
  bottom: "inception_4b/5x5"
  top: "inception_4b/5x5"
}
layer {
  name: "inception_4b/pool"
  type: "Pooling"
  bottom: "inception_4a/output"
  top: "inception_4b/pool"
  pooling_param {
    pool: MAX
    kernel_size: 3
    stride: 1
    pad: 1
  }
}
layer {
  name: "inception_4b/pool_proj"
  type: "Convolution"
  bottom: "inception_4b/pool"
  top: "inception_4b/pool_proj"
  param {
    lr_mult: 1
    decay_mult: 1
  }
  param {
    lr_mult: 2
    decay_mult: 0
  }
  convolution_param {
    num_output: 64
    kernel_size: 1
    weight_filler {
      type: "xavier"
      std: 0.1
    }
    bias_filler {
      type: "constant"
      value: 0.2
    }
  }
}
layer {
  name: "inception_4b/relu_pool_proj"
  type: "ReLU"
  bottom: "inception_4b/pool_proj"
  top: "inception_4b/pool_proj"
}
layer {
  name: "inception_4b/output"
  type: "Concat"
  bottom: "inception_4b/1x1"
  bottom: "inception_4b/3x3"
  bottom: "inception_4b/5x5"
  bottom: "inception_4b/pool_proj"
  top: "inception_4b/output"
}
layer {
  name: "inception_4c/1x1"
  type: "Convolution"
  bottom: "inception_4b/output"
  top: "inception_4c/1x1"
  param {
    lr_mult: 1
    decay_mult: 1
  }
  param {
    lr_mult: 2
    decay_mult: 0
  }
  convolution_param {
    num_output: 128
    kernel_size: 1
    weight_filler {
      type: "xavier"
      std: 0.03
    }
    bias_filler {
      type: "constant"
      value: 0.2
    }
  }
}
layer {
  name: "inception_4c/relu_1x1"
  type: "ReLU"
  bottom: "inception_4c/1x1"
  top: "inception_4c/1x1"
}
layer {
  name: "inception_4c/3x3_reduce"
  type: "Convolution"
  bottom: "inception_4b/output"
  top: "inception_4c/3x3_reduce"
  param {
    lr_mult: 1
    decay_mult: 1
  }
  param {
    lr_mult: 2
    decay_mult: 0
  }
  convolution_param {
    num_output: 128
    kernel_size: 1
    weight_filler {
      type: "xavier"
      std: 0.09
    }
    bias_filler {
      type: "constant"
      value: 0.2
    }
  }
}
layer {
  name: "inception_4c/relu_3x3_reduce"
  type: "ReLU"
  bottom: "inception_4c/3x3_reduce"
  top: "inception_4c/3x3_reduce"
}
layer {
  name: "inception_4c/3x3"
  type: "Convolution"
  bottom: "inception_4c/3x3_reduce"
  top: "inception_4c/3x3"
  param {
    lr_mult: 1
    decay_mult: 1
  }
  param {
    lr_mult: 2
    decay_mult: 0
  }
  convolution_param {
    num_output: 256
    pad: 1
    kernel_size: 3
    weight_filler {
      type: "xavier"
      std: 0.03
    }
    bias_filler {
      type: "constant"
      value: 0.2
    }
  }
}
layer {
  name: "inception_4c/relu_3x3"
  type: "ReLU"
  bottom: "inception_4c/3x3"
  top: "inception_4c/3x3"
}
layer {
  name: "inception_4c/5x5_reduce"
  type: "Convolution"
  bottom: "inception_4b/output"
  top: "inception_4c/5x5_reduce"
  param {
    lr_mult: 1
    decay_mult: 1
  }
  param {
    lr_mult: 2
    decay_mult: 0
  }
  convolution_param {
    num_output: 24
    kernel_size: 1
    weight_filler {
      type: "xavier"
      std: 0.2
    }
    bias_filler {
      type: "constant"
      value: 0.2
    }
  }
}
layer {
  name: "inception_4c/relu_5x5_reduce"
  type: "ReLU"
  bottom: "inception_4c/5x5_reduce"
  top: "inception_4c/5x5_reduce"
}
layer {
  name: "inception_4c/5x5"
  type: "Convolution"
  bottom: "inception_4c/5x5_reduce"
  top: "inception_4c/5x5"
  param {
    lr_mult: 1
    decay_mult: 1
  }
  param {
    lr_mult: 2
    decay_mult: 0
  }
  convolution_param {
    num_output: 64
    pad: 2
    kernel_size: 5
    weight_filler {
      type: "xavier"
      std: 0.03
    }
    bias_filler {
      type: "constant"
      value: 0.2
    }
  }
}
layer {
  name: "inception_4c/relu_5x5"
  type: "ReLU"
  bottom: "inception_4c/5x5"
  top: "inception_4c/5x5"
}
layer {
  name: "inception_4c/pool"
  type: "Pooling"
  bottom: "inception_4b/output"
  top: "inception_4c/pool"
  pooling_param {
    pool: MAX
    kernel_size: 3
    stride: 1
    pad: 1
  }
}
layer {
  name: "inception_4c/pool_proj"
  type: "Convolution"
  bottom: "inception_4c/pool"
  top: "inception_4c/pool_proj"
  param {
    lr_mult: 1
    decay_mult: 1
  }
  param {
    lr_mult: 2
    decay_mult: 0
  }
  convolution_param {
    num_output: 64
    kernel_size: 1
    weight_filler {
      type: "xavier"
      std: 0.1
    }
    bias_filler {
      type: "constant"
      value: 0.2
    }
  }
}
layer {
  name: "inception_4c/relu_pool_proj"
  type: "ReLU"
  bottom: "inception_4c/pool_proj"
  top: "inception_4c/pool_proj"
}
layer {
  name: "inception_4c/output"
  type: "Concat"
  bottom: "inception_4c/1x1"
  bottom: "inception_4c/3x3"
  bottom: "inception_4c/5x5"
  bottom: "inception_4c/pool_proj"
  top: "inception_4c/output"
}
layer {
  name: "inception_4d/1x1"
  type: "Convolution"
  bottom: "inception_4c/output"
  top: "inception_4d/1x1"
  param {
    lr_mult: 1
    decay_mult: 1
  }
  param {
    lr_mult: 2
    decay_mult: 0
  }
  convolution_param {
    num_output: 112
    kernel_size: 1
    weight_filler {
      type: "xavier"
      std: 0.03
    }
    bias_filler {
      type: "constant"
      value: 0.2
    }
  }
}
layer {
  name: "inception_4d/relu_1x1"
  type: "ReLU"
  bottom: "inception_4d/1x1"
  top: "inception_4d/1x1"
}
layer {
  name: "inception_4d/3x3_reduce"
  type: "Convolution"
  bottom: "inception_4c/output"
  top: "inception_4d/3x3_reduce"
  param {
    lr_mult: 1
    decay_mult: 1
  }
  param {
    lr_mult: 2
    decay_mult: 0
  }
  convolution_param {
    num_output: 144
    kernel_size: 1
    weight_filler {
      type: "xavier"
      std: 0.09
    }
    bias_filler {
      type: "constant"
      value: 0.2
    }
  }
}
layer {
  name: "inception_4d/relu_3x3_reduce"
  type: "ReLU"
  bottom: "inception_4d/3x3_reduce"
  top: "inception_4d/3x3_reduce"
}
layer {
  name: "inception_4d/3x3"
  type: "Convolution"
  bottom: "inception_4d/3x3_reduce"
  top: "inception_4d/3x3"
  param {
    lr_mult: 1
    decay_mult: 1
  }
  param {
    lr_mult: 2
    decay_mult: 0
  }
  convolution_param {
    num_output: 288
    pad: 1
    kernel_size: 3
    weight_filler {
      type: "xavier"
      std: 0.03
    }
    bias_filler {
      type: "constant"
      value: 0.2
    }
  }
}
layer {
  name: "inception_4d/relu_3x3"
  type: "ReLU"
  bottom: "inception_4d/3x3"
  top: "inception_4d/3x3"
}
layer {
  name: "inception_4d/5x5_reduce"
  type: "Convolution"
  bottom: "inception_4c/output"
  top: "inception_4d/5x5_reduce"
  param {
    lr_mult: 1
    decay_mult: 1
  }
  param {
    lr_mult: 2
    decay_mult: 0
  }
  convolution_param {
    num_output: 32
    kernel_size: 1
    weight_filler {
      type: "xavier"
      std: 0.2
    }
    bias_filler {
      type: "constant"
      value: 0.2
    }
  }
}
layer {
  name: "inception_4d/relu_5x5_reduce"
  type: "ReLU"
  bottom: "inception_4d/5x5_reduce"
  top: "inception_4d/5x5_reduce"
}
layer {
  name: "inception_4d/5x5"
  type: "Convolution"
  bottom: "inception_4d/5x5_reduce"
  top: "inception_4d/5x5"
  param {
    lr_mult: 1
    decay_mult: 1
  }
  param {
    lr_mult: 2
    decay_mult: 0
  }
  convolution_param {
    num_output: 64
    pad: 2
    kernel_size: 5
    weight_filler {
      type: "xavier"
      std: 0.03
    }
    bias_filler {
      type: "constant"
      value: 0.2
    }
  }
}
layer {
  name: "inception_4d/relu_5x5"
  type: "ReLU"
  bottom: "inception_4d/5x5"
  top: "inception_4d/5x5"
}
layer {
  name: "inception_4d/pool"
  type: "Pooling"
  bottom: "inception_4c/output"
  top: "inception_4d/pool"
  pooling_param {
    pool: MAX
    kernel_size: 3
    stride: 1
    pad: 1
  }
}
layer {
  name: "inception_4d/pool_proj"
  type: "Convolution"
  bottom: "inception_4d/pool"
  top: "inception_4d/pool_proj"
  param {
    lr_mult: 1
    decay_mult: 1
  }
  param {
    lr_mult: 2
    decay_mult: 0
  }
  convolution_param {
    num_output: 64
    kernel_size: 1
    weight_filler {
      type: "xavier"
      std: 0.1
    }
    bias_filler {
      type: "constant"
      value: 0.2
    }
  }
}
layer {
  name: "inception_4d/relu_pool_proj"
  type: "ReLU"
  bottom: "inception_4d/pool_proj"
  top: "inception_4d/pool_proj"
}
layer {
  name: "inception_4d/output"
  type: "Concat"
  bottom: "inception_4d/1x1"
  bottom: "inception_4d/3x3"
  bottom: "inception_4d/5x5"
  bottom: "inception_4d/pool_proj"
  top: "inception_4d/output"
}
layer {
  name: "loss2/ave_pool"
  type: "Pooling"
  bottom: "inception_4d/output"
  top: "loss2/ave_pool"
  pooling_param {
    pool: AVE
    kernel_size: 5
    stride: 3
  }
}
layer {
  name: "loss2/conv"
  type: "Convolution"
  bottom: "loss2/ave_pool"
  top: "loss2/conv"
  param {
    lr_mult: 1
    decay_mult: 1
  }
  param {
    lr_mult: 2
    decay_mult: 0
  }
  convolution_param {
    num_output: 128
    kernel_size: 1
    weight_filler {
      type: "xavier"
      std: 0.08
    }
    bias_filler {
      type: "constant"
      value: 0.2
    }
  }
}
layer {
  name: "loss2/relu_conv"
  type: "ReLU"
  bottom: "loss2/conv"
  top: "loss2/conv"
}
layer {
  name: "loss2/fc"
  type: "InnerProduct"
  bottom: "loss2/conv"
  top: "loss2/fc"
  param {
    lr_mult: 1
    decay_mult: 1
  }
  param {
    lr_mult: 2
    decay_mult: 0
  }
  inner_product_param {
    num_output: 1024
    weight_filler {
      type: "xavier"
      std: 0.02
    }
    bias_filler {
      type: "constant"
      value: 0.2
    }
  }
}
layer {
  name: "loss2/relu_fc"
  type: "ReLU"
  bottom: "loss2/fc"
  top: "loss2/fc"
}
layer {
  name: "loss2/drop_fc"
  type: "Dropout"
  bottom: "loss2/fc"
  top: "loss2/fc"
  dropout_param {
    dropout_ratio: 0.7
  }
}
layer {
  name: "loss2/classifier_plantvillage"
  type: "InnerProduct"
  bottom: "loss2/fc"
  top: "loss2/classifier_plantvillage"
  param {
    lr_mult: 1
    decay_mult: 1
  }
  param {
    lr_mult: 2
    decay_mult: 0
  }
  inner_product_param {
    num_output: 38
    weight_filler {
      type: "xavier"
      std: 0.0009765625
    }
    bias_filler {
      type: "constant"
      value: 0
    }
  }
}
layer {
  name: "inception_4e/1x1"
  type: "Convolution"
  bottom: "inception_4d/output"
  top: "inception_4e/1x1"
  param {
    lr_mult: 1
    decay_mult: 1
  }
  param {
    lr_mult: 2
    decay_mult: 0
  }
  convolution_param {
    num_output: 256
    kernel_size: 1
    weight_filler {
      type: "xavier"
      std: 0.03
    }
    bias_filler {
      type: "constant"
      value: 0.2
    }
  }
}
layer {
  name: "inception_4e/relu_1x1"
  type: "ReLU"
  bottom: "inception_4e/1x1"
  top: "inception_4e/1x1"
}
layer {
  name: "inception_4e/3x3_reduce"
  type: "Convolution"
  bottom: "inception_4d/output"
  top: "inception_4e/3x3_reduce"
  param {
    lr_mult: 1
    decay_mult: 1
  }
  param {
    lr_mult: 2
    decay_mult: 0
  }
  convolution_param {
    num_output: 160
    kernel_size: 1
    weight_filler {
      type: "xavier"
      std: 0.09
    }
    bias_filler {
      type: "constant"
      value: 0.2
    }
  }
}
layer {
  name: "inception_4e/relu_3x3_reduce"
  type: "ReLU"
  bottom: "inception_4e/3x3_reduce"
  top: "inception_4e/3x3_reduce"
}
layer {
  name: "inception_4e/3x3"
  type: "Convolution"
  bottom: "inception_4e/3x3_reduce"
  top: "inception_4e/3x3"
  param {
    lr_mult: 1
    decay_mult: 1
  }
  param {
    lr_mult: 2
    decay_mult: 0
  }
  convolution_param {
    num_output: 320
    pad: 1
    kernel_size: 3
    weight_filler {
      type: "xavier"
      std: 0.03
    }
    bias_filler {
      type: "constant"
      value: 0.2
    }
  }
}
layer {
  name: "inception_4e/relu_3x3"
  type: "ReLU"
  bottom: "inception_4e/3x3"
  top: "inception_4e/3x3"
}
layer {
  name: "inception_4e/5x5_reduce"
  type: "Convolution"
  bottom: "inception_4d/output"
  top: "inception_4e/5x5_reduce"
  param {
    lr_mult: 1
    decay_mult: 1
  }
  param {
    lr_mult: 2
    decay_mult: 0
  }
  convolution_param {
    num_output: 32
    kernel_size: 1
    weight_filler {
      type: "xavier"
      std: 0.2
    }
    bias_filler {
      type: "constant"
      value: 0.2
    }
  }
}
layer {
  name: "inception_4e/relu_5x5_reduce"
  type: "ReLU"
  bottom: "inception_4e/5x5_reduce"
  top: "inception_4e/5x5_reduce"
}
layer {
  name: "inception_4e/5x5"
  type: "Convolution"
  bottom: "inception_4e/5x5_reduce"
  top: "inception_4e/
I0403 15:40:37.682399  3359 layer_factory.hpp:77] Creating layer data
I0403 15:40:37.683110  3359 net.cpp:91] Creating Layer data
I0403 15:40:37.683158  3359 net.cpp:399] data -> data
I0403 15:40:37.683219  3359 net.cpp:399] data -> label
I0403 15:40:37.683262  3359 data_transformer.cpp:25] Loading mean file from: /home/mohanty/data/final_dataset/lmdb/grayscale-50-50/mean.binaryproto
I0403 15:40:37.686169  3362 db_lmdb.cpp:38] Opened lmdb /home/mohanty/data/final_dataset/lmdb/grayscale-50-50/test_db
I0403 15:40:37.698782  3359 data_layer.cpp:41] output data size: 24,3,224,224
I0403 15:40:37.730216  3359 net.cpp:141] Setting up data
I0403 15:40:37.730322  3359 net.cpp:148] Top shape: 24 3 224 224 (3612672)
I0403 15:40:37.730350  3359 net.cpp:148] Top shape: 24 (24)
I0403 15:40:37.730370  3359 net.cpp:156] Memory required for data: 14450784
I0403 15:40:37.730401  3359 layer_factory.hpp:77] Creating layer label_data_1_split
I0403 15:40:37.730432  3359 net.cpp:91] Creating Layer label_data_1_split
I0403 15:40:37.730454  3359 net.cpp:425] label_data_1_split <- label
I0403 15:40:37.730491  3359 net.cpp:399] label_data_1_split -> label_data_1_split_0
I0403 15:40:37.730523  3359 net.cpp:399] label_data_1_split -> label_data_1_split_1
I0403 15:40:37.730550  3359 net.cpp:399] label_data_1_split -> label_data_1_split_2
I0403 15:40:37.730574  3359 net.cpp:399] label_data_1_split -> label_data_1_split_3
I0403 15:40:37.730598  3359 net.cpp:399] label_data_1_split -> label_data_1_split_4
I0403 15:40:37.730622  3359 net.cpp:399] label_data_1_split -> label_data_1_split_5
I0403 15:40:37.730644  3359 net.cpp:399] label_data_1_split -> label_data_1_split_6
I0403 15:40:37.730669  3359 net.cpp:399] label_data_1_split -> label_data_1_split_7
I0403 15:40:37.730692  3359 net.cpp:399] label_data_1_split -> label_data_1_split_8
I0403 15:40:37.730717  3359 net.cpp:399] label_data_1_split -> label_data_1_split_9
I0403 15:40:37.730854  3359 net.cpp:141] Setting up label_data_1_split
I0403 15:40:37.730880  3359 net.cpp:148] Top shape: 24 (24)
I0403 15:40:37.730901  3359 net.cpp:148] Top shape: 24 (24)
I0403 15:40:37.730921  3359 net.cpp:148] Top shape: 24 (24)
I0403 15:40:37.730940  3359 net.cpp:148] Top shape: 24 (24)
I0403 15:40:37.730959  3359 net.cpp:148] Top shape: 24 (24)
I0403 15:40:37.730978  3359 net.cpp:148] Top shape: 24 (24)
I0403 15:40:37.730998  3359 net.cpp:148] Top shape: 24 (24)
I0403 15:40:37.731016  3359 net.cpp:148] Top shape: 24 (24)
I0403 15:40:37.731035  3359 net.cpp:148] Top shape: 24 (24)
I0403 15:40:37.731055  3359 net.cpp:148] Top shape: 24 (24)
I0403 15:40:37.731106  3359 net.cpp:156] Memory required for data: 14451744
I0403 15:40:37.731125  3359 layer_factory.hpp:77] Creating layer conv1/7x7_s2
I0403 15:40:37.731163  3359 net.cpp:91] Creating Layer conv1/7x7_s2
I0403 15:40:37.731185  3359 net.cpp:425] conv1/7x7_s2 <- data
I0403 15:40:37.731209  3359 net.cpp:399] conv1/7x7_s2 -> conv1/7x7_s2
I0403 15:40:37.893414  3359 net.cpp:141] Setting up conv1/7x7_s2
I0403 15:40:37.893576  3359 net.cpp:148] Top shape: 24 64 112 112 (19267584)
I0403 15:40:37.893602  3359 net.cpp:156] Memory required for data: 91522080
I0403 15:40:37.893640  3359 layer_factory.hpp:77] Creating layer conv1/relu_7x7
I0403 15:40:37.893672  3359 net.cpp:91] Creating Layer conv1/relu_7x7
I0403 15:40:37.893694  3359 net.cpp:425] conv1/relu_7x7 <- conv1/7x7_s2
I0403 15:40:37.893718  3359 net.cpp:386] conv1/relu_7x7 -> conv1/7x7_s2 (in-place)
I0403 15:40:37.894023  3359 net.cpp:141] Setting up conv1/relu_7x7
I0403 15:40:37.894057  3359 net.cpp:148] Top shape: 24 64 112 112 (19267584)
I0403 15:40:37.894074  3359 net.cpp:156] Memory required for data: 168592416
I0403 15:40:37.894093  3359 layer_factory.hpp:77] Creating layer pool1/3x3_s2
I0403 15:40:37.894124  3359 net.cpp:91] Creating Layer pool1/3x3_s2
I0403 15:40:37.894145  3359 net.cpp:425] pool1/3x3_s2 <- conv1/7x7_s2
I0403 15:40:37.894167  3359 net.cpp:399] pool1/3x3_s2 -> pool1/3x3_s2
I0403 15:40:37.894255  3359 net.cpp:141] Setting up pool1/3x3_s2
I0403 15:40:37.894291  3359 net.cpp:148] Top shape: 24 64 56 56 (4816896)
I0403 15:40:37.894310  3359 net.cpp:156] Memory required for data: 187860000
I0403 15:40:37.894328  3359 layer_factory.hpp:77] Creating layer pool1/norm1
I0403 15:40:37.894357  3359 net.cpp:91] Creating Layer pool1/norm1
I0403 15:40:37.894379  3359 net.cpp:425] pool1/norm1 <- pool1/3x3_s2
I0403 15:40:37.894402  3359 net.cpp:399] pool1/norm1 -> pool1/norm1
I0403 15:40:37.894738  3359 net.cpp:141] Setting up pool1/norm1
I0403 15:40:37.894772  3359 net.cpp:148] Top shape: 24 64 56 56 (4816896)
I0403 15:40:37.894790  3359 net.cpp:156] Memory required for data: 207127584
I0403 15:40:37.894809  3359 layer_factory.hpp:77] Creating layer conv2/3x3_reduce
I0403 15:40:37.894837  3359 net.cpp:91] Creating Layer conv2/3x3_reduce
I0403 15:40:37.894857  3359 net.cpp:425] conv2/3x3_reduce <- pool1/norm1
I0403 15:40:37.894881  3359 net.cpp:399] conv2/3x3_reduce -> conv2/3x3_reduce
I0403 15:40:37.896582  3359 net.cpp:141] Setting up conv2/3x3_reduce
I0403 15:40:37.896618  3359 net.cpp:148] Top shape: 24 64 56 56 (4816896)
I0403 15:40:37.896637  3359 net.cpp:156] Memory required for data: 226395168
I0403 15:40:37.896662  3359 layer_factory.hpp:77] Creating layer conv2/relu_3x3_reduce
I0403 15:40:37.896688  3359 net.cpp:91] Creating Layer conv2/relu_3x3_reduce
I0403 15:40:37.896708  3359 net.cpp:425] conv2/relu_3x3_reduce <- conv2/3x3_reduce
I0403 15:40:37.896730  3359 net.cpp:386] conv2/relu_3x3_reduce -> conv2/3x3_reduce (in-place)
I0403 15:40:37.897049  3359 net.cpp:141] Setting up conv2/relu_3x3_reduce
I0403 15:40:37.897083  3359 net.cpp:148] Top shape: 24 64 56 56 (4816896)
I0403 15:40:37.897099  3359 net.cpp:156] Memory required for data: 245662752
I0403 15:40:37.897119  3359 layer_factory.hpp:77] Creating layer conv2/3x3
I0403 15:40:37.897148  3359 net.cpp:91] Creating Layer conv2/3x3
I0403 15:40:37.897171  3359 net.cpp:425] conv2/3x3 <- conv2/3x3_reduce
I0403 15:40:37.897193  3359 net.cpp:399] conv2/3x3 -> conv2/3x3
I0403 15:40:37.900794  3359 net.cpp:141] Setting up conv2/3x3
I0403 15:40:37.900830  3359 net.cpp:148] Top shape: 24 192 56 56 (14450688)
I0403 15:40:37.900849  3359 net.cpp:156] Memory required for data: 303465504
I0403 15:40:37.900876  3359 layer_factory.hpp:77] Creating layer conv2/relu_3x3
I0403 15:40:37.900902  3359 net.cpp:91] Creating Layer conv2/relu_3x3
I0403 15:40:37.900921  3359 net.cpp:425] conv2/relu_3x3 <- conv2/3x3
I0403 15:40:37.900943  3359 net.cpp:386] conv2/relu_3x3 -> conv2/3x3 (in-place)
I0403 15:40:37.901159  3359 net.cpp:141] Setting up conv2/relu_3x3
I0403 15:40:37.901188  3359 net.cpp:148] Top shape: 24 192 56 56 (14450688)
I0403 15:40:37.901242  3359 net.cpp:156] Memory required for data: 361268256
I0403 15:40:37.901262  3359 layer_factory.hpp:77] Creating layer conv2/norm2
I0403 15:40:37.901289  3359 net.cpp:91] Creating Layer conv2/norm2
I0403 15:40:37.901310  3359 net.cpp:425] conv2/norm2 <- conv2/3x3
I0403 15:40:37.901335  3359 net.cpp:399] conv2/norm2 -> conv2/norm2
I0403 15:40:37.901700  3359 net.cpp:141] Setting up conv2/norm2
I0403 15:40:37.901733  3359 net.cpp:148] Top shape: 24 192 56 56 (14450688)
I0403 15:40:37.901751  3359 net.cpp:156] Memory required for data: 419071008
I0403 15:40:37.901769  3359 layer_factory.hpp:77] Creating layer pool2/3x3_s2
I0403 15:40:37.901790  3359 net.cpp:91] Creating Layer pool2/3x3_s2
I0403 15:40:37.901811  3359 net.cpp:425] pool2/3x3_s2 <- conv2/norm2
I0403 15:40:37.901876  3359 net.cpp:399] pool2/3x3_s2 -> pool2/3x3_s2
I0403 15:40:37.901943  3359 net.cpp:141] Setting up pool2/3x3_s2
I0403 15:40:37.901971  3359 net.cpp:148] Top shape: 24 192 28 28 (3612672)
I0403 15:40:37.901989  3359 net.cpp:156] Memory required for data: 433521696
I0403 15:40:37.902007  3359 layer_factory.hpp:77] Creating layer pool2/3x3_s2_pool2/3x3_s2_0_split
I0403 15:40:37.902031  3359 net.cpp:91] Creating Layer pool2/3x3_s2_pool2/3x3_s2_0_split
I0403 15:40:37.902051  3359 net.cpp:425] pool2/3x3_s2_pool2/3x3_s2_0_split <- pool2/3x3_s2
I0403 15:40:37.902076  3359 net.cpp:399] pool2/3x3_s2_pool2/3x3_s2_0_split -> pool2/3x3_s2_pool2/3x3_s2_0_split_0
I0403 15:40:37.902101  3359 net.cpp:399] pool2/3x3_s2_pool2/3x3_s2_0_split -> pool2/3x3_s2_pool2/3x3_s2_0_split_1
I0403 15:40:37.902127  3359 net.cpp:399] pool2/3x3_s2_pool2/3x3_s2_0_split -> pool2/3x3_s2_pool2/3x3_s2_0_split_2
I0403 15:40:37.902149  3359 net.cpp:399] pool2/3x3_s2_pool2/3x3_s2_0_split -> pool2/3x3_s2_pool2/3x3_s2_0_split_3
I0403 15:40:37.902233  3359 net.cpp:141] Setting up pool2/3x3_s2_pool2/3x3_s2_0_split
I0403 15:40:37.902263  3359 net.cpp:148] Top shape: 24 192 28 28 (3612672)
I0403 15:40:37.902298  3359 net.cpp:148] Top shape: 24 192 28 28 (3612672)
I0403 15:40:37.902319  3359 net.cpp:148] Top shape: 24 192 28 28 (3612672)
I0403 15:40:37.902339  3359 net.cpp:148] Top shape: 24 192 28 28 (3612672)
I0403 15:40:37.902355  3359 net.cpp:156] Memory required for data: 491324448
I0403 15:40:37.902374  3359 layer_factory.hpp:77] Creating layer inception_3a/1x1
I0403 15:40:37.902400  3359 net.cpp:91] Creating Layer inception_3a/1x1
I0403 15:40:37.902421  3359 net.cpp:425] inception_3a/1x1 <- pool2/3x3_s2_pool2/3x3_s2_0_split_0
I0403 15:40:37.902446  3359 net.cpp:399] inception_3a/1x1 -> inception_3a/1x1
I0403 15:40:37.904327  3359 net.cpp:141] Setting up inception_3a/1x1
I0403 15:40:37.904363  3359 net.cpp:148] Top shape: 24 64 28 28 (1204224)
I0403 15:40:37.904383  3359 net.cpp:156] Memory required for data: 496141344
I0403 15:40:37.904407  3359 layer_factory.hpp:77] Creating layer inception_3a/relu_1x1
I0403 15:40:37.904433  3359 net.cpp:91] Creating Layer inception_3a/relu_1x1
I0403 15:40:37.904453  3359 net.cpp:425] inception_3a/relu_1x1 <- inception_3a/1x1
I0403 15:40:37.904474  3359 net.cpp:386] inception_3a/relu_1x1 -> inception_3a/1x1 (in-place)
I0403 15:40:37.904686  3359 net.cpp:141] Setting up inception_3a/relu_1x1
I0403 15:40:37.904721  3359 net.cpp:148] Top shape: 24 64 28 28 (1204224)
I0403 15:40:37.904739  3359 net.cpp:156] Memory required for data: 500958240
I0403 15:40:37.904757  3359 layer_factory.hpp:77] Creating layer inception_3a/3x3_reduce
I0403 15:40:37.904784  3359 net.cpp:91] Creating Layer inception_3a/3x3_reduce
I0403 15:40:37.904808  3359 net.cpp:425] inception_3a/3x3_reduce <- pool2/3x3_s2_pool2/3x3_s2_0_split_1
I0403 15:40:37.904830  3359 net.cpp:399] inception_3a/3x3_reduce -> inception_3a/3x3_reduce
I0403 15:40:37.906980  3359 net.cpp:141] Setting up inception_3a/3x3_reduce
I0403 15:40:37.907016  3359 net.cpp:148] Top shape: 24 96 28 28 (1806336)
I0403 15:40:37.907034  3359 net.cpp:156] Memory required for data: 508183584
I0403 15:40:37.907061  3359 layer_factory.hpp:77] Creating layer inception_3a/relu_3x3_reduce
I0403 15:40:37.907106  3359 net.cpp:91] Creating Layer inception_3a/relu_3x3_reduce
I0403 15:40:37.907129  3359 net.cpp:425] inception_3a/relu_3x3_reduce <- inception_3a/3x3_reduce
I0403 15:40:37.907153  3359 net.cpp:386] inception_3a/relu_3x3_reduce -> inception_3a/3x3_reduce (in-place)
I0403 15:40:37.907385  3359 net.cpp:141] Setting up inception_3a/relu_3x3_reduce
I0403 15:40:37.907416  3359 net.cpp:148] Top shape: 24 96 28 28 (1806336)
I0403 15:40:37.907434  3359 net.cpp:156] Memory required for data: 515408928
I0403 15:40:37.907452  3359 layer_factory.hpp:77] Creating layer inception_3a/3x3
I0403 15:40:37.907480  3359 net.cpp:91] Creating Layer inception_3a/3x3
I0403 15:40:37.907500  3359 net.cpp:425] inception_3a/3x3 <- inception_3a/3x3_reduce
I0403 15:40:37.907526  3359 net.cpp:399] inception_3a/3x3 -> inception_3a/3x3
I0403 15:40:37.909518  3359 net.cpp:141] Setting up inception_3a/3x3
I0403 15:40:37.909551  3359 net.cpp:148] Top shape: 24 128 28 28 (2408448)
I0403 15:40:37.909574  3359 net.cpp:156] Memory required for data: 525042720
I0403 15:40:37.909598  3359 layer_factory.hpp:77] Creating layer inception_3a/relu_3x3
I0403 15:40:37.909620  3359 net.cpp:91] Creating Layer inception_3a/relu_3x3
I0403 15:40:37.909639  3359 net.cpp:425] inception_3a/relu_3x3 <- inception_3a/3x3
I0403 15:40:37.909662  3359 net.cpp:386] inception_3a/relu_3x3 -> inception_3a/3x3 (in-place)
I0403 15:40:37.909988  3359 net.cpp:141] Setting up inception_3a/relu_3x3
I0403 15:40:37.910022  3359 net.cpp:148] Top shape: 24 128 28 28 (2408448)
I0403 15:40:37.910043  3359 net.cpp:156] Memory required for data: 534676512
I0403 15:40:37.910063  3359 layer_factory.hpp:77] Creating layer inception_3a/5x5_reduce
I0403 15:40:37.910087  3359 net.cpp:91] Creating Layer inception_3a/5x5_reduce
I0403 15:40:37.910109  3359 net.cpp:425] inception_3a/5x5_reduce <- pool2/3x3_s2_pool2/3x3_s2_0_split_2
I0403 15:40:37.910133  3359 net.cpp:399] inception_3a/5x5_reduce -> inception_3a/5x5_reduce
I0403 15:40:37.911293  3359 net.cpp:141] Setting up inception_3a/5x5_reduce
I0403 15:40:37.911330  3359 net.cpp:148] Top shape: 24 16 28 28 (301056)
I0403 15:40:37.911351  3359 net.cpp:156] Memory required for data: 535880736
I0403 15:40:37.911375  3359 layer_factory.hpp:77] Creating layer inception_3a/relu_5x5_reduce
I0403 15:40:37.911396  3359 net.cpp:91] Creating Layer inception_3a/relu_5x5_reduce
I0403 15:40:37.911417  3359 net.cpp:425] inception_3a/relu_5x5_reduce <- inception_3a/5x5_reduce
I0403 15:40:37.911438  3359 net.cpp:386] inception_3a/relu_5x5_reduce -> inception_3a/5x5_reduce (in-place)
I0403 15:40:37.911794  3359 net.cpp:141] Setting up inception_3a/relu_5x5_reduce
I0403 15:40:37.911826  3359 net.cpp:148] Top shape: 24 16 28 28 (301056)
I0403 15:40:37.911845  3359 net.cpp:156] Memory required for data: 537084960
I0403 15:40:37.911864  3359 layer_factory.hpp:77] Creating layer inception_3a/5x5
I0403 15:40:37.911890  3359 net.cpp:91] Creating Layer inception_3a/5x5
I0403 15:40:37.911911  3359 net.cpp:425] inception_3a/5x5 <- inception_3a/5x5_reduce
I0403 15:40:37.911937  3359 net.cpp:399] inception_3a/5x5 -> inception_3a/5x5
I0403 15:40:37.913156  3359 net.cpp:141] Setting up inception_3a/5x5
I0403 15:40:37.913189  3359 net.cpp:148] Top shape: 24 32 28 28 (602112)
I0403 15:40:37.913208  3359 net.cpp:156] Memory required for data: 539493408
I0403 15:40:37.913233  3359 layer_factory.hpp:77] Creating layer inception_3a/relu_5x5
I0403 15:40:37.913257  3359 net.cpp:91] Creating Layer inception_3a/relu_5x5
I0403 15:40:37.913285  3359 net.cpp:425] inception_3a/relu_5x5 <- inception_3a/5x5
I0403 15:40:37.913306  3359 net.cpp:386] inception_3a/relu_5x5 -> inception_3a/5x5 (in-place)
I0403 15:40:37.913522  3359 net.cpp:141] Setting up inception_3a/relu_5x5
I0403 15:40:37.913555  3359 net.cpp:148] Top shape: 24 32 28 28 (602112)
I0403 15:40:37.913573  3359 net.cpp:156] Memory required for data: 541901856
I0403 15:40:37.913592  3359 layer_factory.hpp:77] Creating layer inception_3a/pool
I0403 15:40:37.913614  3359 net.cpp:91] Creating Layer inception_3a/pool
I0403 15:40:37.913650  3359 net.cpp:425] inception_3a/pool <- pool2/3x3_s2_pool2/3x3_s2_0_split_3
I0403 15:40:37.913676  3359 net.cpp:399] inception_3a/pool -> inception_3a/pool
I0403 15:40:37.913746  3359 net.cpp:141] Setting up inception_3a/pool
I0403 15:40:37.913775  3359 net.cpp:148] Top shape: 24 192 28 28 (3612672)
I0403 15:40:37.913792  3359 net.cpp:156] Memory required for data: 556352544
I0403 15:40:37.913810  3359 layer_factory.hpp:77] Creating layer inception_3a/pool_proj
I0403 15:40:37.913838  3359 net.cpp:91] Creating Layer inception_3a/pool_proj
I0403 15:40:37.913861  3359 net.cpp:425] inception_3a/pool_proj <- inception_3a/pool
I0403 15:40:37.913887  3359 net.cpp:399] inception_3a/pool_proj -> inception_3a/pool_proj
I0403 15:40:37.915047  3359 net.cpp:141] Setting up inception_3a/pool_proj
I0403 15:40:37.915081  3359 net.cpp:148] Top shape: 24 32 28 28 (602112)
I0403 15:40:37.915101  3359 net.cpp:156] Memory required for data: 558760992
I0403 15:40:37.915129  3359 layer_factory.hpp:77] Creating layer inception_3a/relu_pool_proj
I0403 15:40:37.915153  3359 net.cpp:91] Creating Layer inception_3a/relu_pool_proj
I0403 15:40:37.915174  3359 net.cpp:425] inception_3a/relu_pool_proj <- inception_3a/pool_proj
I0403 15:40:37.915195  3359 net.cpp:386] inception_3a/relu_pool_proj -> inception_3a/pool_proj (in-place)
I0403 15:40:37.915527  3359 net.cpp:141] Setting up inception_3a/relu_pool_proj
I0403 15:40:37.915560  3359 net.cpp:148] Top shape: 24 32 28 28 (602112)
I0403 15:40:37.915582  3359 net.cpp:156] Memory required for data: 561169440
I0403 15:40:37.915601  3359 layer_factory.hpp:77] Creating layer inception_3a/output
I0403 15:40:37.915626  3359 net.cpp:91] Creating Layer inception_3a/output
I0403 15:40:37.915644  3359 net.cpp:425] inception_3a/output <- inception_3a/1x1
I0403 15:40:37.915664  3359 net.cpp:425] inception_3a/output <- inception_3a/3x3
I0403 15:40:37.915684  3359 net.cpp:425] inception_3a/output <- inception_3a/5x5
I0403 15:40:37.915704  3359 net.cpp:425] inception_3a/output <- inception_3a/pool_proj
I0403 15:40:37.915724  3359 net.cpp:399] inception_3a/output -> inception_3a/output
I0403 15:40:37.915782  3359 net.cpp:141] Setting up inception_3a/output
I0403 15:40:37.915809  3359 net.cpp:148] Top shape: 24 256 28 28 (4816896)
I0403 15:40:37.915827  3359 net.cpp:156] Memory required for data: 580437024
I0403 15:40:37.915845  3359 layer_factory.hpp:77] Creating layer inception_3a/output_inception_3a/output_0_split
I0403 15:40:37.915866  3359 net.cpp:91] Creating Layer inception_3a/output_inception_3a/output_0_split
I0403 15:40:37.915885  3359 net.cpp:425] inception_3a/output_inception_3a/output_0_split <- inception_3a/output
I0403 15:40:37.915909  3359 net.cpp:399] inception_3a/output_inception_3a/output_0_split -> inception_3a/output_inception_3a/output_0_split_0
I0403 15:40:37.915933  3359 net.cpp:399] inception_3a/output_inception_3a/output_0_split -> inception_3a/output_inception_3a/output_0_split_1
I0403 15:40:37.915963  3359 net.cpp:399] inception_3a/output_inception_3a/output_0_split -> inception_3a/output_inception_3a/output_0_split_2
I0403 15:40:37.915989  3359 net.cpp:399] inception_3a/output_inception_3a/output_0_split -> inception_3a/output_inception_3a/output_0_split_3
I0403 15:40:37.916081  3359 net.cpp:141] Setting up inception_3a/output_inception_3a/output_0_split
I0403 15:40:37.916110  3359 net.cpp:148] Top shape: 24 256 28 28 (4816896)
I0403 15:40:37.916131  3359 net.cpp:148] Top shape: 24 256 28 28 (4816896)
I0403 15:40:37.916151  3359 net.cpp:148] Top shape: 24 256 28 28 (4816896)
I0403 15:40:37.916169  3359 net.cpp:148] Top shape: 24 256 28 28 (4816896)
I0403 15:40:37.916187  3359 net.cpp:156] Memory required for data: 657507360
I0403 15:40:37.916204  3359 layer_factory.hpp:77] Creating layer inception_3b/1x1
I0403 15:40:37.916232  3359 net.cpp:91] Creating Layer inception_3b/1x1
I0403 15:40:37.916254  3359 net.cpp:425] inception_3b/1x1 <- inception_3a/output_inception_3a/output_0_split_0
I0403 15:40:37.916285  3359 net.cpp:399] inception_3b/1x1 -> inception_3b/1x1
I0403 15:40:37.917656  3359 net.cpp:141] Setting up inception_3b/1x1
I0403 15:40:37.917706  3359 net.cpp:148] Top shape: 24 128 28 28 (2408448)
I0403 15:40:37.917726  3359 net.cpp:156] Memory required for data: 667141152
I0403 15:40:37.917748  3359 layer_factory.hpp:77] Creating layer inception_3b/relu_1x1
I0403 15:40:37.917773  3359 net.cpp:91] Creating Layer inception_3b/relu_1x1
I0403 15:40:37.917794  3359 net.cpp:425] inception_3b/relu_1x1 <- inception_3b/1x1
I0403 15:40:37.917815  3359 net.cpp:386] inception_3b/relu_1x1 -> inception_3b/1x1 (in-place)
I0403 15:40:37.918030  3359 net.cpp:141] Setting up inception_3b/relu_1x1
I0403 15:40:37.918062  3359 net.cpp:148] Top shape: 24 128 28 28 (2408448)
I0403 15:40:37.918081  3359 net.cpp:156] Memory required for data: 676774944
I0403 15:40:37.918099  3359 layer_factory.hpp:77] Creating layer inception_3b/3x3_reduce
I0403 15:40:37.918125  3359 net.cpp:91] Creating Layer inception_3b/3x3_reduce
I0403 15:40:37.918146  3359 net.cpp:425] inception_3b/3x3_reduce <- inception_3a/output_inception_3a/output_0_split_1
I0403 15:40:37.918172  3359 net.cpp:399] inception_3b/3x3_reduce -> inception_3b/3x3_reduce
I0403 15:40:37.919559  3359 net.cpp:141] Setting up inception_3b/3x3_reduce
I0403 15:40:37.919594  3359 net.cpp:148] Top shape: 24 128 28 28 (2408448)
I0403 15:40:37.919612  3359 net.cpp:156] Memory required for data: 686408736
I0403 15:40:37.919634  3359 layer_factory.hpp:77] Creating layer inception_3b/relu_3x3_reduce
I0403 15:40:37.919659  3359 net.cpp:91] Creating Layer inception_3b/relu_3x3_reduce
I0403 15:40:37.919680  3359 net.cpp:425] inception_3b/relu_3x3_reduce <- inception_3b/3x3_reduce
I0403 15:40:37.919703  3359 net.cpp:386] inception_3b/relu_3x3_reduce -> inception_3b/3x3_reduce (in-place)
I0403 15:40:37.919911  3359 net.cpp:141] Setting up inception_3b/relu_3x3_reduce
I0403 15:40:37.919942  3359 net.cpp:148] Top shape: 24 128 28 28 (2408448)
I0403 15:40:37.919960  3359 net.cpp:156] Memory required for data: 696042528
I0403 15:40:37.919978  3359 layer_factory.hpp:77] Creating layer inception_3b/3x3
I0403 15:40:37.920011  3359 net.cpp:91] Creating Layer inception_3b/3x3
I0403 15:40:37.920032  3359 net.cpp:425] inception_3b/3x3 <- inception_3b/3x3_reduce
I0403 15:40:37.920058  3359 net.cpp:399] inception_3b/3x3 -> inception_3b/3x3
I0403 15:40:37.923575  3359 net.cpp:141] Setting up inception_3b/3x3
I0403 15:40:37.923611  3359 net.cpp:148] Top shape: 24 192 28 28 (3612672)
I0403 15:40:37.923634  3359 net.cpp:156] Memory required for data: 710493216
I0403 15:40:37.923657  3359 layer_factory.hpp:77] Creating layer inception_3b/relu_3x3
I0403 15:40:37.923679  3359 net.cpp:91] Creating Layer inception_3b/relu_3x3
I0403 15:40:37.923699  3359 net.cpp:425] inception_3b/relu_3x3 <- inception_3b/3x3
I0403 15:40:37.923720  3359 net.cpp:386] inception_3b/relu_3x3 -> inception_3b/3x3 (in-place)
I0403 15:40:37.924053  3359 net.cpp:141] Setting up inception_3b/relu_3x3
I0403 15:40:37.924085  3359 net.cpp:148] Top shape: 24 192 28 28 (3612672)
I0403 15:40:37.924108  3359 net.cpp:156] Memory required for data: 724943904
I0403 15:40:37.924126  3359 layer_factory.hpp:77] Creating layer inception_3b/5x5_reduce
I0403 15:40:37.924151  3359 net.cpp:91] Creating Layer inception_3b/5x5_reduce
I0403 15:40:37.924171  3359 net.cpp:425] inception_3b/5x5_reduce <- inception_3a/output_inception_3a/output_0_split_2
I0403 15:40:37.924198  3359 net.cpp:399] inception_3b/5x5_reduce -> inception_3b/5x5_reduce
I0403 15:40:37.925410  3359 net.cpp:141] Setting up inception_3b/5x5_reduce
I0403 15:40:37.925444  3359 net.cpp:148] Top shape: 24 32 28 28 (602112)
I0403 15:40:37.925462  3359 net.cpp:156] Memory required for data: 727352352
I0403 15:40:37.925485  3359 layer_factory.hpp:77] Creating layer inception_3b/relu_5x5_reduce
I0403 15:40:37.925510  3359 net.cpp:91] Creating Layer inception_3b/relu_5x5_reduce
I0403 15:40:37.925531  3359 net.cpp:425] inception_3b/relu_5x5_reduce <- inception_3b/5x5_reduce
I0403 15:40:37.925554  3359 net.cpp:386] inception_3b/relu_5x5_reduce -> inception_3b/5x5_reduce (in-place)
I0403 15:40:37.925789  3359 net.cpp:141] Setting up inception_3b/relu_5x5_reduce
I0403 15:40:37.925822  3359 net.cpp:148] Top shape: 24 32 28 28 (602112)
I0403 15:40:37.925842  3359 net.cpp:156] Memory required for data: 729760800
I0403 15:40:37.925859  3359 layer_factory.hpp:77] Creating layer inception_3b/5x5
I0403 15:40:37.925886  3359 net.cpp:91] Creating Layer inception_3b/5x5
I0403 15:40:37.925907  3359 net.cpp:425] inception_3b/5x5 <- inception_3b/5x5_reduce
I0403 15:40:37.925930  3359 net.cpp:399] inception_3b/5x5 -> inception_3b/5x5
I0403 15:40:37.928300  3359 net.cpp:141] Setting up inception_3b/5x5
I0403 15:40:37.928336  3359 net.cpp:148] Top shape: 24 96 28 28 (1806336)
I0403 15:40:37.928354  3359 net.cpp:156] Memory required for data: 736986144
I0403 15:40:37.928377  3359 layer_factory.hpp:77] Creating layer inception_3b/relu_5x5
I0403 15:40:37.928401  3359 net.cpp:91] Creating Layer inception_3b/relu_5x5
I0403 15:40:37.928422  3359 net.cpp:425] inception_3b/relu_5x5 <- inception_3b/5x5
I0403 15:40:37.928444  3359 net.cpp:386] inception_3b/relu_5x5 -> inception_3b/5x5 (in-place)
I0403 15:40:37.928678  3359 net.cpp:141] Setting up inception_3b/relu_5x5
I0403 15:40:37.928709  3359 net.cpp:148] Top shape: 24 96 28 28 (1806336)
I0403 15:40:37.928726  3359 net.cpp:156] Memory required for data: 744211488
I0403 15:40:37.928745  3359 layer_factory.hpp:77] Creating layer inception_3b/pool
I0403 15:40:37.928766  3359 net.cpp:91] Creating Layer inception_3b/pool
I0403 15:40:37.928786  3359 net.cpp:425] inception_3b/pool <- inception_3a/output_inception_3a/output_0_split_3
I0403 15:40:37.928808  3359 net.cpp:399] inception_3b/pool -> inception_3b/pool
I0403 15:40:37.928875  3359 net.cpp:141] Setting up inception_3b/pool
I0403 15:40:37.928903  3359 net.cpp:148] Top shape: 24 256 28 28 (4816896)
I0403 15:40:37.928921  3359 net.cpp:156] Memory required for data: 763479072
I0403 15:40:37.928941  3359 layer_factory.hpp:77] Creating layer inception_3b/pool_proj
I0403 15:40:37.928967  3359 net.cpp:91] Creating Layer inception_3b/pool_proj
I0403 15:40:37.928989  3359 net.cpp:425] inception_3b/pool_proj <- inception_3b/pool
I0403 15:40:37.929014  3359 net.cpp:399] inception_3b/pool_proj -> inception_3b/pool_proj
I0403 15:40:37.930292  3359 net.cpp:141] Setting up inception_3b/pool_proj
I0403 15:40:37.930328  3359 net.cpp:148] Top shape: 24 64 28 28 (1204224)
I0403 15:40:37.930349  3359 net.cpp:156] Memory required for data: 768295968
I0403 15:40:37.930372  3359 layer_factory.hpp:77] Creating layer inception_3b/relu_pool_proj
I0403 15:40:37.930394  3359 net.cpp:91] Creating Layer inception_3b/relu_pool_proj
I0403 15:40:37.930414  3359 net.cpp:425] inception_3b/relu_pool_proj <- inception_3b/pool_proj
I0403 15:40:37.930439  3359 net.cpp:386] inception_3b/relu_pool_proj -> inception_3b/pool_proj (in-place)
I0403 15:40:37.930907  3359 net.cpp:141] Setting up inception_3b/relu_pool_proj
I0403 15:40:37.930943  3359 net.cpp:148] Top shape: 24 64 28 28 (1204224)
I0403 15:40:37.930961  3359 net.cpp:156] Memory required for data: 773112864
I0403 15:40:37.930980  3359 layer_factory.hpp:77] Creating layer inception_3b/output
I0403 15:40:37.931001  3359 net.cpp:91] Creating Layer inception_3b/output
I0403 15:40:37.931021  3359 net.cpp:425] inception_3b/output <- inception_3b/1x1
I0403 15:40:37.931042  3359 net.cpp:425] inception_3b/output <- inception_3b/3x3
I0403 15:40:37.931061  3359 net.cpp:425] inception_3b/output <- inception_3b/5x5
I0403 15:40:37.931080  3359 net.cpp:425] inception_3b/output <- inception_3b/pool_proj
I0403 15:40:37.931102  3359 net.cpp:399] inception_3b/output -> inception_3b/output
I0403 15:40:37.931155  3359 net.cpp:141] Setting up inception_3b/output
I0403 15:40:37.931183  3359 net.cpp:148] Top shape: 24 480 28 28 (9031680)
I0403 15:40:37.931201  3359 net.cpp:156] Memory required for data: 809239584
I0403 15:40:37.931221  3359 layer_factory.hpp:77] Creating layer pool3/3x3_s2
I0403 15:40:37.931246  3359 net.cpp:91] Creating Layer pool3/3x3_s2
I0403 15:40:37.931265  3359 net.cpp:425] pool3/3x3_s2 <- inception_3b/output
I0403 15:40:37.931311  3359 net.cpp:399] pool3/3x3_s2 -> pool3/3x3_s2
I0403 15:40:37.931385  3359 net.cpp:141] Setting up pool3/3x3_s2
I0403 15:40:37.931413  3359 net.cpp:148] Top shape: 24 480 14 14 (2257920)
I0403 15:40:37.931432  3359 net.cpp:156] Memory required for data: 818271264
I0403 15:40:37.931449  3359 layer_factory.hpp:77] Creating layer pool3/3x3_s2_pool3/3x3_s2_0_split
I0403 15:40:37.931469  3359 net.cpp:91] Creating Layer pool3/3x3_s2_pool3/3x3_s2_0_split
I0403 15:40:37.931488  3359 net.cpp:425] pool3/3x3_s2_pool3/3x3_s2_0_split <- pool3/3x3_s2
I0403 15:40:37.931511  3359 net.cpp:399] pool3/3x3_s2_pool3/3x3_s2_0_split -> pool3/3x3_s2_pool3/3x3_s2_0_split_0
I0403 15:40:37.931536  3359 net.cpp:399] pool3/3x3_s2_pool3/3x3_s2_0_split -> pool3/3x3_s2_pool3/3x3_s2_0_split_1
I0403 15:40:37.931560  3359 net.cpp:399] pool3/3x3_s2_pool3/3x3_s2_0_split -> pool3/3x3_s2_pool3/3x3_s2_0_split_2
I0403 15:40:37.931584  3359 net.cpp:399] pool3/3x3_s2_pool3/3x3_s2_0_split -> pool3/3x3_s2_pool3/3x3_s2_0_split_3
I0403 15:40:37.931676  3359 net.cpp:141] Setting up pool3/3x3_s2_pool3/3x3_s2_0_split
I0403 15:40:37.931706  3359 net.cpp:148] Top shape: 24 480 14 14 (2257920)
I0403 15:40:37.931727  3359 net.cpp:148] Top shape: 24 480 14 14 (2257920)
I0403 15:40:37.931746  3359 net.cpp:148] Top shape: 24 480 14 14 (2257920)
I0403 15:40:37.931766  3359 net.cpp:148] Top shape: 24 480 14 14 (2257920)
I0403 15:40:37.931783  3359 net.cpp:156] Memory required for data: 854397984
I0403 15:40:37.931800  3359 layer_factory.hpp:77] Creating layer inception_4a/1x1
I0403 15:40:37.931826  3359 net.cpp:91] Creating Layer inception_4a/1x1
I0403 15:40:37.931848  3359 net.cpp:425] inception_4a/1x1 <- pool3/3x3_s2_pool3/3x3_s2_0_split_0
I0403 15:40:37.931871  3359 net.cpp:399] inception_4a/1x1 -> inception_4a/1x1
I0403 15:40:37.933799  3359 net.cpp:141] Setting up inception_4a/1x1
I0403 15:40:37.933832  3359 net.cpp:148] Top shape: 24 192 14 14 (903168)
I0403 15:40:37.933851  3359 net.cpp:156] Memory required for data: 858010656
I0403 15:40:37.933874  3359 layer_factory.hpp:77] Creating layer inception_4a/relu_1x1
I0403 15:40:37.933897  3359 net.cpp:91] Creating Layer inception_4a/relu_1x1
I0403 15:40:37.933915  3359 net.cpp:425] inception_4a/relu_1x1 <- inception_4a/1x1
I0403 15:40:37.933939  3359 net.cpp:386] inception_4a/relu_1x1 -> inception_4a/1x1 (in-place)
I0403 15:40:37.934152  3359 net.cpp:141] Setting up inception_4a/relu_1x1
I0403 15:40:37.934183  3359 net.cpp:148] Top shape: 24 192 14 14 (903168)
I0403 15:40:37.934201  3359 net.cpp:156] Memory required for data: 861623328
I0403 15:40:37.934221  3359 layer_factory.hpp:77] Creating layer inception_4a/3x3_reduce
I0403 15:40:37.934247  3359 net.cpp:91] Creating Layer inception_4a/3x3_reduce
I0403 15:40:37.934268  3359 net.cpp:425] inception_4a/3x3_reduce <- pool3/3x3_s2_pool3/3x3_s2_0_split_1
I0403 15:40:37.934301  3359 net.cpp:399] inception_4a/3x3_reduce -> inception_4a/3x3_reduce
I0403 15:40:37.935852  3359 net.cpp:141] Setting up inception_4a/3x3_reduce
I0403 15:40:37.935885  3359 net.cpp:148] Top shape: 24 96 14 14 (451584)
I0403 15:40:37.935904  3359 net.cpp:156] Memory required for data: 863429664
I0403 15:40:37.935936  3359 layer_factory.hpp:77] Creating layer inception_4a/relu_3x3_reduce
I0403 15:40:37.935961  3359 net.cpp:91] Creating Layer inception_4a/relu_3x3_reduce
I0403 15:40:37.935979  3359 net.cpp:425] inception_4a/relu_3x3_reduce <- inception_4a/3x3_reduce
I0403 15:40:37.936003  3359 net.cpp:386] inception_4a/relu_3x3_reduce -> inception_4a/3x3_reduce (in-place)
I0403 15:40:37.936218  3359 net.cpp:141] Setting up inception_4a/relu_3x3_reduce
I0403 15:40:37.936249  3359 net.cpp:148] Top shape: 24 96 14 14 (451584)
I0403 15:40:37.936267  3359 net.cpp:156] Memory required for data: 865236000
I0403 15:40:37.936291  3359 layer_factory.hpp:77] Creating layer inception_4a/3x3
I0403 15:40:37.936319  3359 net.cpp:91] Creating Layer inception_4a/3x3
I0403 15:40:37.936342  3359 net.cpp:425] inception_4a/3x3 <- inception_4a/3x3_reduce
I0403 15:40:37.936367  3359 net.cpp:399] inception_4a/3x3 -> inception_4a/3x3
I0403 15:40:37.939604  3359 net.cpp:141] Setting up inception_4a/3x3
I0403 15:40:37.939640  3359 net.cpp:148] Top shape: 24 208 14 14 (978432)
I0403 15:40:37.939658  3359 net.cpp:156] Memory required for data: 869149728
I0403 15:40:37.939682  3359 layer_factory.hpp:77] Creating layer inception_4a/relu_3x3
I0403 15:40:37.939705  3359 net.cpp:91] Creating Layer inception_4a/relu_3x3
I0403 15:40:37.939726  3359 net.cpp:425] inception_4a/relu_3x3 <- inception_4a/3x3
I0403 15:40:37.939748  3359 net.cpp:386] inception_4a/relu_3x3 -> inception_4a/3x3 (in-place)
I0403 15:40:37.940084  3359 net.cpp:141] Setting up inception_4a/relu_3x3
I0403 15:40:37.940116  3359 net.cpp:148] Top shape: 24 208 14 14 (978432)
I0403 15:40:37.940135  3359 net.cpp:156] Memory required for data: 873063456
I0403 15:40:37.940155  3359 layer_factory.hpp:77] Creating layer inception_4a/5x5_reduce
I0403 15:40:37.940182  3359 net.cpp:91] Creating Layer inception_4a/5x5_reduce
I0403 15:40:37.940203  3359 net.cpp:425] inception_4a/5x5_reduce <- pool3/3x3_s2_pool3/3x3_s2_0_split_2
I0403 15:40:37.940232  3359 net.cpp:399] inception_4a/5x5_reduce -> inception_4a/5x5_reduce
I0403 15:40:37.941474  3359 net.cpp:141] Setting up inception_4a/5x5_reduce
I0403 15:40:37.941509  3359 net.cpp:148] Top shape: 24 16 14 14 (75264)
I0403 15:40:37.941527  3359 net.cpp:156] Memory required for data: 873364512
I0403 15:40:37.941550  3359 layer_factory.hpp:77] Creating layer inception_4a/relu_5x5_reduce
I0403 15:40:37.941576  3359 net.cpp:91] Creating Layer inception_4a/relu_5x5_reduce
I0403 15:40:37.941597  3359 net.cpp:425] inception_4a/relu_5x5_reduce <- inception_4a/5x5_reduce
I0403 15:40:37.941618  3359 net.cpp:386] inception_4a/relu_5x5_reduce -> inception_4a/5x5_reduce (in-place)
I0403 15:40:37.941834  3359 net.cpp:141] Setting up inception_4a/relu_5x5_reduce
I0403 15:40:37.941869  3359 net.cpp:148] Top shape: 24 16 14 14 (75264)
I0403 15:40:37.941889  3359 net.cpp:156] Memory required for data: 873665568
I0403 15:40:37.941906  3359 layer_factory.hpp:77] Creating layer inception_4a/5x5
I0403 15:40:37.941933  3359 net.cpp:91] Creating Layer inception_4a/5x5
I0403 15:40:37.941954  3359 net.cpp:425] inception_4a/5x5 <- inception_4a/5x5_reduce
I0403 15:40:37.941977  3359 net.cpp:399] inception_4a/5x5 -> inception_4a/5x5
I0403 15:40:37.943302  3359 net.cpp:141] Setting up inception_4a/5x5
I0403 15:40:37.943339  3359 net.cpp:148] Top shape: 24 48 14 14 (225792)
I0403 15:40:37.943359  3359 net.cpp:156] Memory required for data: 874568736
I0403 15:40:37.943382  3359 layer_factory.hpp:77] Creating layer inception_4a/relu_5x5
I0403 15:40:37.943404  3359 net.cpp:91] Creating Layer inception_4a/relu_5x5
I0403 15:40:37.943424  3359 net.cpp:425] inception_4a/relu_5x5 <- inception_4a/5x5
I0403 15:40:37.943445  3359 net.cpp:386] inception_4a/relu_5x5 -> inception_4a/5x5 (in-place)
I0403 15:40:37.943663  3359 net.cpp:141] Setting up inception_4a/relu_5x5
I0403 15:40:37.943694  3359 net.cpp:148] Top shape: 24 48 14 14 (225792)
I0403 15:40:37.943712  3359 net.cpp:156] Memory required for data: 875471904
I0403 15:40:37.943730  3359 layer_factory.hpp:77] Creating layer inception_4a/pool
I0403 15:40:37.943753  3359 net.cpp:91] Creating Layer inception_4a/pool
I0403 15:40:37.943771  3359 net.cpp:425] inception_4a/pool <- pool3/3x3_s2_pool3/3x3_s2_0_split_3
I0403 15:40:37.943799  3359 net.cpp:399] inception_4a/pool -> inception_4a/pool
I0403 15:40:37.943874  3359 net.cpp:141] Setting up inception_4a/pool
I0403 15:40:37.943905  3359 net.cpp:148] Top shape: 24 480 14 14 (2257920)
I0403 15:40:37.943922  3359 net.cpp:156] Memory required for data: 884503584
I0403 15:40:37.943940  3359 layer_factory.hpp:77] Creating layer inception_4a/pool_proj
I0403 15:40:37.943967  3359 net.cpp:91] Creating Layer inception_4a/pool_proj
I0403 15:40:37.943989  3359 net.cpp:425] inception_4a/pool_proj <- inception_4a/pool
I0403 15:40:37.944015  3359 net.cpp:399] inception_4a/pool_proj -> inception_4a/pool_proj
I0403 15:40:37.945439  3359 net.cpp:141] Setting up inception_4a/pool_proj
I0403 15:40:37.945473  3359 net.cpp:148] Top shape: 24 64 14 14 (301056)
I0403 15:40:37.945514  3359 net.cpp:156] Memory required for data: 885707808
I0403 15:40:37.945539  3359 layer_factory.hpp:77] Creating layer inception_4a/relu_pool_proj
I0403 15:40:37.945560  3359 net.cpp:91] Creating Layer inception_4a/relu_pool_proj
I0403 15:40:37.945580  3359 net.cpp:425] inception_4a/relu_pool_proj <- inception_4a/pool_proj
I0403 15:40:37.945605  3359 net.cpp:386] inception_4a/relu_pool_proj -> inception_4a/pool_proj (in-place)
I0403 15:40:37.945945  3359 net.cpp:141] Setting up inception_4a/relu_pool_proj
I0403 15:40:37.945977  3359 net.cpp:148] Top shape: 24 64 14 14 (301056)
I0403 15:40:37.945996  3359 net.cpp:156] Memory required for data: 886912032
I0403 15:40:37.946015  3359 layer_factory.hpp:77] Creating layer inception_4a/output
I0403 15:40:37.946036  3359 net.cpp:91] Creating Layer inception_4a/output
I0403 15:40:37.946055  3359 net.cpp:425] inception_4a/output <- inception_4a/1x1
I0403 15:40:37.946076  3359 net.cpp:425] inception_4a/output <- inception_4a/3x3
I0403 15:40:37.946096  3359 net.cpp:425] inception_4a/output <- inception_4a/5x5
I0403 15:40:37.946116  3359 net.cpp:425] inception_4a/output <- inception_4a/pool_proj
I0403 15:40:37.946141  3359 net.cpp:399] inception_4a/output -> inception_4a/output
I0403 15:40:37.946194  3359 net.cpp:141] Setting up inception_4a/output
I0403 15:40:37.946228  3359 net.cpp:148] Top shape: 24 512 14 14 (2408448)
I0403 15:40:37.946245  3359 net.cpp:156] Memory required for data: 896545824
I0403 15:40:37.946264  3359 layer_factory.hpp:77] Creating layer inception_4a/output_inception_4a/output_0_split
I0403 15:40:37.946290  3359 net.cpp:91] Creating Layer inception_4a/output_inception_4a/output_0_split
I0403 15:40:37.946311  3359 net.cpp:425] inception_4a/output_inception_4a/output_0_split <- inception_4a/output
I0403 15:40:37.946332  3359 net.cpp:399] inception_4a/output_inception_4a/output_0_split -> inception_4a/output_inception_4a/output_0_split_0
I0403 15:40:37.946360  3359 net.cpp:399] inception_4a/output_inception_4a/output_0_split -> inception_4a/output_inception_4a/output_0_split_1
I0403 15:40:37.946387  3359 net.cpp:399] inception_4a/output_inception_4a/output_0_split -> inception_4a/output_inception_4a/output_0_split_2
I0403 15:40:37.946413  3359 net.cpp:399] inception_4a/output_inception_4a/output_0_split -> inception_4a/output_inception_4a/output_0_split_3
I0403 15:40:37.946436  3359 net.cpp:399] inception_4a/output_inception_4a/output_0_split -> inception_4a/output_inception_4a/output_0_split_4
I0403 15:40:37.946548  3359 net.cpp:141] Setting up inception_4a/output_inception_4a/output_0_split
I0403 15:40:37.946576  3359 net.cpp:148] Top shape: 24 512 14 14 (2408448)
I0403 15:40:37.946596  3359 net.cpp:148] Top shape: 24 512 14 14 (2408448)
I0403 15:40:37.946615  3359 net.cpp:148] Top shape: 24 512 14 14 (2408448)
I0403 15:40:37.946635  3359 net.cpp:148] Top shape: 24 512 14 14 (2408448)
I0403 15:40:37.946653  3359 net.cpp:148] Top shape: 24 512 14 14 (2408448)
I0403 15:40:37.946669  3359 net.cpp:156] Memory required for data: 944714784
I0403 15:40:37.946688  3359 layer_factory.hpp:77] Creating layer loss1/ave_pool
I0403 15:40:37.946712  3359 net.cpp:91] Creating Layer loss1/ave_pool
I0403 15:40:37.946732  3359 net.cpp:425] loss1/ave_pool <- inception_4a/output_inception_4a/output_0_split_0
I0403 15:40:37.946754  3359 net.cpp:399] loss1/ave_pool -> loss1/ave_pool
I0403 15:40:37.947008  3359 net.cpp:141] Setting up loss1/ave_pool
I0403 15:40:37.947039  3359 net.cpp:148] Top shape: 24 512 4 4 (196608)
I0403 15:40:37.947058  3359 net.cpp:156] Memory required for data: 945501216
I0403 15:40:37.947077  3359 layer_factory.hpp:77] Creating layer loss1/conv
I0403 15:40:37.947103  3359 net.cpp:91] Creating Layer loss1/conv
I0403 15:40:37.947125  3359 net.cpp:425] loss1/conv <- loss1/ave_pool
I0403 15:40:37.947150  3359 net.cpp:399] loss1/conv -> loss1/conv
I0403 15:40:37.948890  3359 net.cpp:141] Setting up loss1/conv
I0403 15:40:37.948925  3359 net.cpp:148] Top shape: 24 128 4 4 (49152)
I0403 15:40:37.948961  3359 net.cpp:156] Memory required for data: 945697824
I0403 15:40:37.948987  3359 layer_factory.hpp:77] Creating layer loss1/relu_conv
I0403 15:40:37.949010  3359 net.cpp:91] Creating Layer loss1/relu_conv
I0403 15:40:37.949030  3359 net.cpp:425] loss1/relu_conv <- loss1/conv
I0403 15:40:37.949051  3359 net.cpp:386] loss1/relu_conv -> loss1/conv (in-place)
I0403 15:40:37.949400  3359 net.cpp:141] Setting up loss1/relu_conv
I0403 15:40:37.949434  3359 net.cpp:148] Top shape: 24 128 4 4 (49152)
I0403 15:40:37.949453  3359 net.cpp:156] Memory required for data: 945894432
I0403 15:40:37.949471  3359 layer_factory.hpp:77] Creating layer loss1/fc
I0403 15:40:37.949502  3359 net.cpp:91] Creating Layer loss1/fc
I0403 15:40:37.949524  3359 net.cpp:425] loss1/fc <- loss1/conv
I0403 15:40:37.949548  3359 net.cpp:399] loss1/fc -> loss1/fc
I0403 15:40:37.971254  3359 net.cpp:141] Setting up loss1/fc
I0403 15:40:37.971325  3359 net.cpp:148] Top shape: 24 1024 (24576)
I0403 15:40:37.971344  3359 net.cpp:156] Memory required for data: 945992736
I0403 15:40:37.971371  3359 layer_factory.hpp:77] Creating layer loss1/relu_fc
I0403 15:40:37.971395  3359 net.cpp:91] Creating Layer loss1/relu_fc
I0403 15:40:37.971415  3359 net.cpp:425] loss1/relu_fc <- loss1/fc
I0403 15:40:37.971441  3359 net.cpp:386] loss1/relu_fc -> loss1/fc (in-place)
I0403 15:40:37.971700  3359 net.cpp:141] Setting up loss1/relu_fc
I0403 15:40:37.971730  3359 net.cpp:148] Top shape: 24 1024 (24576)
I0403 15:40:37.971748  3359 net.cpp:156] Memory required for data: 946091040
I0403 15:40:37.971765  3359 layer_factory.hpp:77] Creating layer loss1/drop_fc
I0403 15:40:37.971801  3359 net.cpp:91] Creating Layer loss1/drop_fc
I0403 15:40:37.971822  3359 net.cpp:425] loss1/drop_fc <- loss1/fc
I0403 15:40:37.971844  3359 net.cpp:386] loss1/drop_fc -> loss1/fc (in-place)
I0403 15:40:37.971909  3359 net.cpp:141] Setting up loss1/drop_fc
I0403 15:40:37.971941  3359 net.cpp:148] Top shape: 24 1024 (24576)
I0403 15:40:37.971961  3359 net.cpp:156] Memory required for data: 946189344
I0403 15:40:37.971979  3359 layer_factory.hpp:77] Creating layer loss1/classifier_plantvillage
I0403 15:40:37.972002  3359 net.cpp:91] Creating Layer loss1/classifier_plantvillage
I0403 15:40:37.972021  3359 net.cpp:425] loss1/classifier_plantvillage <- loss1/fc
I0403 15:40:37.972049  3359 net.cpp:399] loss1/classifier_plantvillage -> loss1/classifier_plantvillage
I0403 15:40:37.973160  3359 net.cpp:141] Setting up loss1/classifier_plantvillage
I0403 15:40:37.973193  3359 net.cpp:148] Top shape: 24 38 (912)
I0403 15:40:37.973215  3359 net.cpp:156] Memory required for data: 946192992
I0403 15:40:37.973237  3359 layer_factory.hpp:77] Creating layer loss1/classifier_plantvillage_loss1/classifier_plantvillage_0_split
I0403 15:40:37.973259  3359 net.cpp:91] Creating Layer loss1/classifier_plantvillage_loss1/classifier_plantvillage_0_split
I0403 15:40:37.973289  3359 net.cpp:425] loss1/classifier_plantvillage_loss1/classifier_plantvillage_0_split <- loss1/classifier_plantvillage
I0403 15:40:37.973311  3359 net.cpp:399] loss1/classifier_plantvillage_loss1/classifier_plantvillage_0_split -> loss1/classifier_plantvillage_loss1/classifier_plantvillage_0_split_0
I0403 15:40:37.973336  3359 net.cpp:399] loss1/classifier_plantvillage_loss1/classifier_plantvillage_0_split -> loss1/classifier_plantvillage_loss1/classifier_plantvillage_0_split_1
I0403 15:40:37.973361  3359 net.cpp:399] loss1/classifier_plantvillage_loss1/classifier_plantvillage_0_split -> loss1/classifier_plantvillage_loss1/classifier_plantvillage_0_split_2
I0403 15:40:37.973445  3359 net.cpp:141] Setting up loss1/classifier_plantvillage_loss1/classifier_plantvillage_0_split
I0403 15:40:37.973479  3359 net.cpp:148] Top shape: 24 38 (912)
I0403 15:40:37.973501  3359 net.cpp:148] Top shape: 24 38 (912)
I0403 15:40:37.973520  3359 net.cpp:148] Top shape: 24 38 (912)
I0403 15:40:37.973538  3359 net.cpp:156] Memory required for data: 946203936
I0403 15:40:37.973557  3359 layer_factory.hpp:77] Creating layer inception_4b/1x1
I0403 15:40:37.973584  3359 net.cpp:91] Creating Layer inception_4b/1x1
I0403 15:40:37.973634  3359 net.cpp:425] inception_4b/1x1 <- inception_4a/output_inception_4a/output_0_split_1
I0403 15:40:37.973659  3359 net.cpp:399] inception_4b/1x1 -> inception_4b/1x1
I0403 15:40:37.975700  3359 net.cpp:141] Setting up inception_4b/1x1
I0403 15:40:37.975735  3359 net.cpp:148] Top shape: 24 160 14 14 (752640)
I0403 15:40:37.975756  3359 net.cpp:156] Memory required for data: 949214496
I0403 15:40:37.975780  3359 layer_factory.hpp:77] Creating layer inception_4b/relu_1x1
I0403 15:40:37.975805  3359 net.cpp:91] Creating Layer inception_4b/relu_1x1
I0403 15:40:37.975827  3359 net.cpp:425] inception_4b/relu_1x1 <- inception_4b/1x1
I0403 15:40:37.975849  3359 net.cpp:386] inception_4b/relu_1x1 -> inception_4b/1x1 (in-place)
I0403 15:40:37.976070  3359 net.cpp:141] Setting up inception_4b/relu_1x1
I0403 15:40:37.976104  3359 net.cpp:148] Top shape: 24 160 14 14 (752640)
I0403 15:40:37.976122  3359 net.cpp:156] Memory required for data: 952225056
I0403 15:40:37.976141  3359 layer_factory.hpp:77] Creating layer inception_4b/3x3_reduce
I0403 15:40:37.976169  3359 net.cpp:91] Creating Layer inception_4b/3x3_reduce
I0403 15:40:37.976193  3359 net.cpp:425] inception_4b/3x3_reduce <- inception_4a/output_inception_4a/output_0_split_2
I0403 15:40:37.976219  3359 net.cpp:399] inception_4b/3x3_reduce -> inception_4b/3x3_reduce
I0403 15:40:37.977879  3359 net.cpp:141] Setting up inception_4b/3x3_reduce
I0403 15:40:37.977912  3359 net.cpp:148] Top shape: 24 112 14 14 (526848)
I0403 15:40:37.977931  3359 net.cpp:156] Memory required for data: 954332448
I0403 15:40:37.977958  3359 layer_factory.hpp:77] Creating layer inception_4b/relu_3x3_reduce
I0403 15:40:37.977982  3359 net.cpp:91] Creating Layer inception_4b/relu_3x3_reduce
I0403 15:40:37.978003  3359 net.cpp:425] inception_4b/relu_3x3_reduce <- inception_4b/3x3_reduce
I0403 15:40:37.978024  3359 net.cpp:386] inception_4b/relu_3x3_reduce -> inception_4b/3x3_reduce (in-place)
I0403 15:40:37.978369  3359 net.cpp:141] Setting up inception_4b/relu_3x3_reduce
I0403 15:40:37.978404  3359 net.cpp:148] Top shape: 24 112 14 14 (526848)
I0403 15:40:37.978423  3359 net.cpp:156] Memory required for data: 956439840
I0403 15:40:37.978442  3359 layer_factory.hpp:77] Creating layer inception_4b/3x3
I0403 15:40:37.978469  3359 net.cpp:91] Creating Layer inception_4b/3x3
I0403 15:40:37.978490  3359 net.cpp:425] inception_4b/3x3 <- inception_4b/3x3_reduce
I0403 15:40:37.978513  3359 net.cpp:399] inception_4b/3x3 -> inception_4b/3x3
I0403 15:40:37.982172  3359 net.cpp:141] Setting up inception_4b/3x3
I0403 15:40:37.982208  3359 net.cpp:148] Top shape: 24 224 14 14 (1053696)
I0403 15:40:37.982229  3359 net.cpp:156] Memory required for data: 960654624
I0403 15:40:37.982254  3359 layer_factory.hpp:77] Creating layer inception_4b/relu_3x3
I0403 15:40:37.982287  3359 net.cpp:91] Creating Layer inception_4b/relu_3x3
I0403 15:40:37.982316  3359 net.cpp:425] inception_4b/relu_3x3 <- inception_4b/3x3
I0403 15:40:37.982338  3359 net.cpp:386] inception_4b/relu_3x3 -> inception_4b/3x3 (in-place)
I0403 15:40:37.982561  3359 net.cpp:141] Setting up inception_4b/relu_3x3
I0403 15:40:37.982594  3359 net.cpp:148] Top shape: 24 224 14 14 (1053696)
I0403 15:40:37.982612  3359 net.cpp:156] Memory required for data: 964869408
I0403 15:40:37.982632  3359 layer_factory.hpp:77] Creating layer inception_4b/5x5_reduce
I0403 15:40:37.982658  3359 net.cpp:91] Creating Layer inception_4b/5x5_reduce
I0403 15:40:37.982681  3359 net.cpp:425] inception_4b/5x5_reduce <- inception_4a/output_inception_4a/output_0_split_3
I0403 15:40:37.982707  3359 net.cpp:399] inception_4b/5x5_reduce -> inception_4b/5x5_reduce
I0403 15:40:37.984020  3359 net.cpp:141] Setting up inception_4b/5x5_reduce
I0403 15:40:37.984055  3359 net.cpp:148] Top shape: 24 24 14 14 (112896)
I0403 15:40:37.984073  3359 net.cpp:156] Memory required for data: 965320992
I0403 15:40:37.984097  3359 layer_factory.hpp:77] Creating layer inception_4b/relu_5x5_reduce
I0403 15:40:37.984122  3359 net.cpp:91] Creating Layer inception_4b/relu_5x5_reduce
I0403 15:40:37.984161  3359 net.cpp:425] inception_4b/relu_5x5_reduce <- inception_4b/5x5_reduce
I0403 15:40:37.984185  3359 net.cpp:386] inception_4b/relu_5x5_reduce -> inception_4b/5x5_reduce (in-place)
I0403 15:40:37.984416  3359 net.cpp:141] Setting up inception_4b/relu_5x5_reduce
I0403 15:40:37.984447  3359 net.cpp:148] Top shape: 24 24 14 14 (112896)
I0403 15:40:37.984465  3359 net.cpp:156] Memory required for data: 965772576
I0403 15:40:37.984483  3359 layer_factory.hpp:77] Creating layer inception_4b/5x5
I0403 15:40:37.984510  3359 net.cpp:91] Creating Layer inception_4b/5x5
I0403 15:40:37.984532  3359 net.cpp:425] inception_4b/5x5 <- inception_4b/5x5_reduce
I0403 15:40:37.984558  3359 net.cpp:399] inception_4b/5x5 -> inception_4b/5x5
I0403 15:40:37.986049  3359 net.cpp:141] Setting up inception_4b/5x5
I0403 15:40:37.986085  3359 net.cpp:148] Top shape: 24 64 14 14 (301056)
I0403 15:40:37.986104  3359 net.cpp:156] Memory required for data: 966976800
I0403 15:40:37.986127  3359 layer_factory.hpp:77] Creating layer inception_4b/relu_5x5
I0403 15:40:37.986151  3359 net.cpp:91] Creating Layer inception_4b/relu_5x5
I0403 15:40:37.986173  3359 net.cpp:425] inception_4b/relu_5x5 <- inception_4b/5x5
I0403 15:40:37.986196  3359 net.cpp:386] inception_4b/relu_5x5 -> inception_4b/5x5 (in-place)
I0403 15:40:37.986548  3359 net.cpp:141] Setting up inception_4b/relu_5x5
I0403 15:40:37.986582  3359 net.cpp:148] Top shape: 24 64 14 14 (301056)
I0403 15:40:37.986601  3359 net.cpp:156] Memory required for data: 968181024
I0403 15:40:37.986620  3359 layer_factory.hpp:77] Creating layer inception_4b/pool
I0403 15:40:37.986645  3359 net.cpp:91] Creating Layer inception_4b/pool
I0403 15:40:37.986667  3359 net.cpp:425] inception_4b/pool <- inception_4a/output_inception_4a/output_0_split_4
I0403 15:40:37.986691  3359 net.cpp:399] inception_4b/pool -> inception_4b/pool
I0403 15:40:37.986776  3359 net.cpp:141] Setting up inception_4b/pool
I0403 15:40:37.986806  3359 net.cpp:148] Top shape: 24 512 14 14 (2408448)
I0403 15:40:37.986825  3359 net.cpp:156] Memory required for data: 977814816
I0403 15:40:37.986845  3359 layer_factory.hpp:77] Creating layer inception_4b/pool_proj
I0403 15:40:37.986871  3359 net.cpp:91] Creating Layer inception_4b/pool_proj
I0403 15:40:37.986894  3359 net.cpp:425] inception_4b/pool_proj <- inception_4b/pool
I0403 15:40:37.986922  3359 net.cpp:399] inception_4b/pool_proj -> inception_4b/pool_proj
I0403 15:40:37.988390  3359 net.cpp:141] Setting up inception_4b/pool_proj
I0403 15:40:37.988425  3359 net.cpp:148] Top shape: 24 64 14 14 (301056)
I0403 15:40:37.988450  3359 net.cpp:156] Memory required for data: 979019040
I0403 15:40:37.988472  3359 layer_factory.hpp:77] Creating layer inception_4b/relu_pool_proj
I0403 15:40:37.988495  3359 net.cpp:91] Creating Layer inception_4b/relu_pool_proj
I0403 15:40:37.988517  3359 net.cpp:425] inception_4b/relu_pool_proj <- inception_4b/pool_proj
I0403 15:40:37.988538  3359 net.cpp:386] inception_4b/relu_pool_proj -> inception_4b/pool_proj (in-place)
I0403 15:40:37.988761  3359 net.cpp:141] Setting up inception_4b/relu_pool_proj
I0403 15:40:37.988795  3359 net.cpp:148] Top shape: 24 64 14 14 (301056)
I0403 15:40:37.988814  3359 net.cpp:156] Memory required for data: 980223264
I0403 15:40:37.988832  3359 layer_factory.hpp:77] Creating layer inception_4b/output
I0403 15:40:37.988854  3359 net.cpp:91] Creating Layer inception_4b/output
I0403 15:40:37.988873  3359 net.cpp:425] inception_4b/output <- inception_4b/1x1
I0403 15:40:37.988893  3359 net.cpp:425] inception_4b/output <- inception_4b/3x3
I0403 15:40:37.988914  3359 net.cpp:425] inception_4b/output <- inception_4b/5x5
I0403 15:40:37.988934  3359 net.cpp:425] inception_4b/output <- inception_4b/pool_proj
I0403 15:40:37.988958  3359 net.cpp:399] inception_4b/output -> inception_4b/output
I0403 15:40:37.989014  3359 net.cpp:141] Setting up inception_4b/output
I0403 15:40:37.989043  3359 net.cpp:148] Top shape: 24 512 14 14 (2408448)
I0403 15:40:37.989061  3359 net.cpp:156] Memory required for data: 989857056
I0403 15:40:37.989097  3359 layer_factory.hpp:77] Creating layer inception_4b/output_inception_4b/output_0_split
I0403 15:40:37.989122  3359 net.cpp:91] Creating Layer inception_4b/output_inception_4b/output_0_split
I0403 15:40:37.989142  3359 net.cpp:425] inception_4b/output_inception_4b/output_0_split <- inception_4b/output
I0403 15:40:37.989166  3359 net.cpp:399] inception_4b/output_inception_4b/output_0_split -> inception_4b/output_inception_4b/output_0_split_0
I0403 15:40:37.989192  3359 net.cpp:399] inception_4b/output_inception_4b/output_0_split -> inception_4b/output_inception_4b/output_0_split_1
I0403 15:40:37.989218  3359 net.cpp:399] inception_4b/output_inception_4b/output_0_split -> inception_4b/output_inception_4b/output_0_split_2
I0403 15:40:37.989244  3359 net.cpp:399] inception_4b/output_inception_4b/output_0_split -> inception_4b/output_inception_4b/output_0_split_3
I0403 15:40:37.989351  3359 net.cpp:141] Setting up inception_4b/output_inception_4b/output_0_split
I0403 15:40:37.989380  3359 net.cpp:148] Top shape: 24 512 14 14 (2408448)
I0403 15:40:37.989400  3359 net.cpp:148] Top shape: 24 512 14 14 (2408448)
I0403 15:40:37.989420  3359 net.cpp:148] Top shape: 24 512 14 14 (2408448)
I0403 15:40:37.989439  3359 net.cpp:148] Top shape: 24 512 14 14 (2408448)
I0403 15:40:37.989456  3359 net.cpp:156] Memory required for data: 1028392224
I0403 15:40:37.989475  3359 layer_factory.hpp:77] Creating layer inception_4c/1x1
I0403 15:40:37.989501  3359 net.cpp:91] Creating Layer inception_4c/1x1
I0403 15:40:37.989522  3359 net.cpp:425] inception_4c/1x1 <- inception_4b/output_inception_4b/output_0_split_0
I0403 15:40:37.989549  3359 net.cpp:399] inception_4c/1x1 -> inception_4c/1x1
I0403 15:40:37.991303  3359 net.cpp:141] Setting up inception_4c/1x1
I0403 15:40:37.991343  3359 net.cpp:148] Top shape: 24 128 14 14 (602112)
I0403 15:40:37.991364  3359 net.cpp:156] Memory required for data: 1030800672
I0403 15:40:37.991387  3359 layer_factory.hpp:77] Creating layer inception_4c/relu_1x1
I0403 15:40:37.991410  3359 net.cpp:91] Creating Layer inception_4c/relu_1x1
I0403 15:40:37.991430  3359 net.cpp:425] inception_4c/relu_1x1 <- inception_4c/1x1
I0403 15:40:37.991453  3359 net.cpp:386] inception_4c/relu_1x1 -> inception_4c/1x1 (in-place)
I0403 15:40:37.991674  3359 net.cpp:141] Setting up inception_4c/relu_1x1
I0403 15:40:37.991706  3359 net.cpp:148] Top shape: 24 128 14 14 (602112)
I0403 15:40:37.991724  3359 net.cpp:156] Memory required for data: 1033209120
I0403 15:40:37.991744  3359 layer_factory.hpp:77] Creating layer inception_4c/3x3_reduce
I0403 15:40:37.991770  3359 net.cpp:91] Creating Layer inception_4c/3x3_reduce
I0403 15:40:37.991791  3359 net.cpp:425] inception_4c/3x3_reduce <- inception_4b/output_inception_4b/output_0_split_1
I0403 15:40:37.991817  3359 net.cpp:399] inception_4c/3x3_reduce -> inception_4c/3x3_reduce
I0403 15:40:37.994199  3359 net.cpp:141] Setting up inception_4c/3x3_reduce
I0403 15:40:37.994235  3359 net.cpp:148] Top shape: 24 128 14 14 (602112)
I0403 15:40:37.994252  3359 net.cpp:156] Memory required for data: 1035617568
I0403 15:40:37.994280  3359 layer_factory.hpp:77] Creating layer inception_4c/relu_3x3_reduce
I0403 15:40:37.994308  3359 net.cpp:91] Creating Layer inception_4c/relu_3x3_reduce
I0403 15:40:37.994330  3359 net.cpp:425] inception_4c/relu_3x3_reduce <- inception_4c/3x3_reduce
I0403 15:40:37.994351  3359 net.cpp:386] inception_4c/relu_3x3_reduce -> inception_4c/3x3_reduce (in-place)
I0403 15:40:37.994704  3359 net.cpp:141] Setting up inception_4c/relu_3x3_reduce
I0403 15:40:37.994737  3359 net.cpp:148] Top shape: 24 128 14 14 (602112)
I0403 15:40:37.994756  3359 net.cpp:156] Memory required for data: 1038026016
I0403 15:40:37.994776  3359 layer_factory.hpp:77] Creating layer inception_4c/3x3
I0403 15:40:37.994803  3359 net.cpp:91] Creating Layer inception_4c/3x3
I0403 15:40:37.994825  3359 net.cpp:425] inception_4c/3x3 <- inception_4c/3x3_reduce
I0403 15:40:37.994853  3359 net.cpp:399] inception_4c/3x3 -> inception_4c/3x3
I0403 15:40:37.999240  3359 net.cpp:141] Setting up inception_4c/3x3
I0403 15:40:37.999296  3359 net.cpp:148] Top shape: 24 256 14 14 (1204224)
I0403 15:40:37.999318  3359 net.cpp:156] Memory required for data: 1042842912
I0403 15:40:37.999358  3359 layer_factory.hpp:77] Creating layer inception_4c/relu_3x3
I0403 15:40:37.999387  3359 net.cpp:91] Creating Layer inception_4c/relu_3x3
I0403 15:40:37.999409  3359 net.cpp:425] inception_4c/relu_3x3 <- inception_4c/3x3
I0403 15:40:37.999430  3359 net.cpp:386] inception_4c/relu_3x3 -> inception_4c/3x3 (in-place)
I0403 15:40:37.999656  3359 net.cpp:141] Setting up inception_4c/relu_3x3
I0403 15:40:37.999688  3359 net.cpp:148] Top shape: 24 256 14 14 (1204224)
I0403 15:40:37.999706  3359 net.cpp:156] Memory required for data: 1047659808
I0403 15:40:37.999725  3359 layer_factory.hpp:77] Creating layer inception_4c/5x5_reduce
I0403 15:40:37.999757  3359 net.cpp:91] Creating Layer inception_4c/5x5_reduce
I0403 15:40:37.999779  3359 net.cpp:425] inception_4c/5x5_reduce <- inception_4b/output_inception_4b/output_0_split_2
I0403 15:40:37.999804  3359 net.cpp:399] inception_4c/5x5_reduce -> inception_4c/5x5_reduce
I0403 15:40:38.001143  3359 net.cpp:141] Setting up inception_4c/5x5_reduce
I0403 15:40:38.001178  3359 net.cpp:148] Top shape: 24 24 14 14 (112896)
I0403 15:40:38.001199  3359 net.cpp:156] Memory required for data: 1048111392
I0403 15:40:38.001225  3359 layer_factory.hpp:77] Creating layer inception_4c/relu_5x5_reduce
I0403 15:40:38.001250  3359 net.cpp:91] Creating Layer inception_4c/relu_5x5_reduce
I0403 15:40:38.001277  3359 net.cpp:425] inception_4c/relu_5x5_reduce <- inception_4c/5x5_reduce
I0403 15:40:38.001302  3359 net.cpp:386] inception_4c/relu_5x5_reduce -> inception_4c/5x5_reduce (in-place)
I0403 15:40:38.001528  3359 net.cpp:141] Setting up inception_4c/relu_5x5_reduce
I0403 15:40:38.001560  3359 net.cpp:148] Top shape: 24 24 14 14 (112896)
I0403 15:40:38.001577  3359 net.cpp:156] Memory required for data: 1048562976
I0403 15:40:38.001596  3359 layer_factory.hpp:77] Creating layer inception_4c/5x5
I0403 15:40:38.001623  3359 net.cpp:91] Creating Layer inception_4c/5x5
I0403 15:40:38.001646  3359 net.cpp:425] inception_4c/5x5 <- inception_4c/5x5_reduce
I0403 15:40:38.001672  3359 net.cpp:399] inception_4c/5x5 -> inception_4c/5x5
I0403 15:40:38.003201  3359 net.cpp:141] Setting up inception_4c/5x5
I0403 15:40:38.003239  3359 net.cpp:148] Top shape: 24 64 14 14 (301056)
I0403 15:40:38.003259  3359 net.cpp:156] Memory required for data: 1049767200
I0403 15:40:38.003289  3359 layer_factory.hpp:77] Creating layer inception_4c/relu_5x5
I0403 15:40:38.003311  3359 net.cpp:91] Creating Layer inception_4c/relu_5x5
I0403 15:40:38.003331  3359 net.cpp:425] inception_4c/relu_5x5 <- inception_4c/5x5
I0403 15:40:38.003356  3359 net.cpp:386] inception_4c/relu_5x5 -> inception_4c/5x5 (in-place)
I0403 15:40:38.003705  3359 net.cpp:141] Setting up inception_4c/relu_5x5
I0403 15:40:38.003741  3359 net.cpp:148] Top shape: 24 64 14 14 (301056)
I0403 15:40:38.003762  3359 net.cpp:156] Memory required for data: 1050971424
I0403 15:40:38.003782  3359 layer_factory.hpp:77] Creating layer inception_4c/pool
I0403 15:40:38.003804  3359 net.cpp:91] Creating Layer inception_4c/pool
I0403 15:40:38.003824  3359 net.cpp:425] inception_4c/pool <- inception_4b/output_inception_4b/output_0_split_3
I0403 15:40:38.003850  3359 net.cpp:399] inception_4c/pool -> inception_4c/pool
I0403 15:40:38.003929  3359 net.cpp:141] Setting up inception_4c/pool
I0403 15:40:38.003960  3359 net.cpp:148] Top shape: 24 512 14 14 (2408448)
I0403 15:40:38.003979  3359 net.cpp:156] Memory required for data: 1060605216
I0403 15:40:38.003998  3359 layer_factory.hpp:77] Creating layer inception_4c/pool_proj
I0403 15:40:38.004022  3359 net.cpp:91] Creating Layer inception_4c/pool_proj
I0403 15:40:38.004043  3359 net.cpp:425] inception_4c/pool_proj <- inception_4c/pool
I0403 15:40:38.004068  3359 net.cpp:399] inception_4c/pool_proj -> inception_4c/pool_proj
I0403 15:40:38.005568  3359 net.cpp:141] Setting up inception_4c/pool_proj
I0403 15:40:38.005601  3359 net.cpp:148] Top shape: 24 64 14 14 (301056)
I0403 15:40:38.005637  3359 net.cpp:156] Memory required for data: 1061809440
I0403 15:40:38.005661  3359 layer_factory.hpp:77] Creating layer inception_4c/relu_pool_proj
I0403 15:40:38.005691  3359 net.cpp:91] Creating Layer inception_4c/relu_pool_proj
I0403 15:40:38.005712  3359 net.cpp:425] inception_4c/relu_pool_proj <- inception_4c/pool_proj
I0403 15:40:38.005733  3359 net.cpp:386] inception_4c/relu_pool_proj -> inception_4c/pool_proj (in-place)
I0403 15:40:38.005956  3359 net.cpp:141] Setting up inception_4c/relu_pool_proj
I0403 15:40:38.005990  3359 net.cpp:148] Top shape: 24 64 14 14 (301056)
I0403 15:40:38.006008  3359 net.cpp:156] Memory required for data: 1063013664
I0403 15:40:38.006027  3359 layer_factory.hpp:77] Creating layer inception_4c/output
I0403 15:40:38.006048  3359 net.cpp:91] Creating Layer inception_4c/output
I0403 15:40:38.006067  3359 net.cpp:425] inception_4c/output <- inception_4c/1x1
I0403 15:40:38.006088  3359 net.cpp:425] inception_4c/output <- inception_4c/3x3
I0403 15:40:38.006108  3359 net.cpp:425] inception_4c/output <- inception_4c/5x5
I0403 15:40:38.006126  3359 net.cpp:425] inception_4c/output <- inception_4c/pool_proj
I0403 15:40:38.006150  3359 net.cpp:399] inception_4c/output -> inception_4c/output
I0403 15:40:38.006207  3359 net.cpp:141] Setting up inception_4c/output
I0403 15:40:38.006237  3359 net.cpp:148] Top shape: 24 512 14 14 (2408448)
I0403 15:40:38.006253  3359 net.cpp:156] Memory required for data: 1072647456
I0403 15:40:38.006276  3359 layer_factory.hpp:77] Creating layer inception_4c/output_inception_4c/output_0_split
I0403 15:40:38.006304  3359 net.cpp:91] Creating Layer inception_4c/output_inception_4c/output_0_split
I0403 15:40:38.006325  3359 net.cpp:425] inception_4c/output_inception_4c/output_0_split <- inception_4c/output
I0403 15:40:38.006345  3359 net.cpp:399] inception_4c/output_inception_4c/output_0_split -> inception_4c/output_inception_4c/output_0_split_0
I0403 15:40:38.006371  3359 net.cpp:399] inception_4c/output_inception_4c/output_0_split -> inception_4c/output_inception_4c/output_0_split_1
I0403 15:40:38.006397  3359 net.cpp:399] inception_4c/output_inception_4c/output_0_split -> inception_4c/output_inception_4c/output_0_split_2
I0403 15:40:38.006423  3359 net.cpp:399] inception_4c/output_inception_4c/output_0_split -> inception_4c/output_inception_4c/output_0_split_3
I0403 15:40:38.006528  3359 net.cpp:141] Setting up inception_4c/output_inception_4c/output_0_split
I0403 15:40:38.006557  3359 net.cpp:148] Top shape: 24 512 14 14 (2408448)
I0403 15:40:38.006577  3359 net.cpp:148] Top shape: 24 512 14 14 (2408448)
I0403 15:40:38.006597  3359 net.cpp:148] Top shape: 24 512 14 14 (2408448)
I0403 15:40:38.006615  3359 net.cpp:148] Top shape: 24 512 14 14 (2408448)
I0403 15:40:38.006633  3359 net.cpp:156] Memory required for data: 1111182624
I0403 15:40:38.006650  3359 layer_factory.hpp:77] Creating layer inception_4d/1x1
I0403 15:40:38.006677  3359 net.cpp:91] Creating Layer inception_4d/1x1
I0403 15:40:38.006700  3359 net.cpp:425] inception_4d/1x1 <- inception_4c/output_inception_4c/output_0_split_0
I0403 15:40:38.006726  3359 net.cpp:399] inception_4d/1x1 -> inception_4d/1x1
I0403 15:40:38.008425  3359 net.cpp:141] Setting up inception_4d/1x1
I0403 15:40:38.008460  3359 net.cpp:148] Top shape: 24 112 14 14 (526848)
I0403 15:40:38.008479  3359 net.cpp:156] Memory required for data: 1113290016
I0403 15:40:38.008502  3359 layer_factory.hpp:77] Creating layer inception_4d/relu_1x1
I0403 15:40:38.008527  3359 net.cpp:91] Creating Layer inception_4d/relu_1x1
I0403 15:40:38.008548  3359 net.cpp:425] inception_4d/relu_1x1 <- inception_4d/1x1
I0403 15:40:38.008569  3359 net.cpp:386] inception_4d/relu_1x1 -> inception_4d/1x1 (in-place)
I0403 15:40:38.008793  3359 net.cpp:141] Setting up inception_4d/relu_1x1
I0403 15:40:38.008824  3359 net.cpp:148] Top shape: 24 112 14 14 (526848)
I0403 15:40:38.008842  3359 net.cpp:156] Memory required for data: 1115397408
I0403 15:40:38.008862  3359 layer_factory.hpp:77] Creating layer inception_4d/3x3_reduce
I0403 15:40:38.008904  3359 net.cpp:91] Creating Layer inception_4d/3x3_reduce
I0403 15:40:38.008929  3359 net.cpp:425] inception_4d/3x3_reduce <- inception_4c/output_inception_4c/output_0_split_1
I0403 15:40:38.008952  3359 net.cpp:399] inception_4d/3x3_reduce -> inception_4d/3x3_reduce
I0403 15:40:38.010815  3359 net.cpp:141] Setting up inception_4d/3x3_reduce
I0403 15:40:38.010849  3359 net.cpp:148] Top shape: 24 144 14 14 (677376)
I0403 15:40:38.010869  3359 net.cpp:156] Memory required for data: 1118106912
I0403 15:40:38.010891  3359 layer_factory.hpp:77] Creating layer inception_4d/relu_3x3_reduce
I0403 15:40:38.010915  3359 net.cpp:91] Creating Layer inception_4d/relu_3x3_reduce
I0403 15:40:38.010934  3359 net.cpp:425] inception_4d/relu_3x3_reduce <- inception_4d/3x3_reduce
I0403 15:40:38.010958  3359 net.cpp:386] inception_4d/relu_3x3_reduce -> inception_4d/3x3_reduce (in-place)
I0403 15:40:38.011320  3359 net.cpp:141] Setting up inception_4d/relu_3x3_reduce
I0403 15:40:38.011353  3359 net.cpp:148] Top shape: 24 144 14 14 (677376)
I0403 15:40:38.011373  3359 net.cpp:156] Memory required for data: 1120816416
I0403 15:40:38.011390  3359 layer_factory.hpp:77] Creating layer inception_4d/3x3
I0403 15:40:38.011417  3359 net.cpp:91] Creating Layer inception_4d/3x3
I0403 15:40:38.011440  3359 net.cpp:425] inception_4d/3x3 <- inception_4d/3x3_reduce
I0403 15:40:38.011466  3359 net.cpp:399] inception_4d/3x3 -> inception_4d/3x3
I0403 15:40:38.016695  3359 net.cpp:141] Setting up inception_4d/3x3
I0403 15:40:38.016731  3359 net.cpp:148] Top shape: 24 288 14 14 (1354752)
I0403 15:40:38.016749  3359 net.cpp:156] Memory required for data: 1126235424
I0403 15:40:38.016772  3359 layer_factory.hpp:77] Creating layer inception_4d/relu_3x3
I0403 15:40:38.016796  3359 net.cpp:91] Creating Layer inception_4d/relu_3x3
I0403 15:40:38.016818  3359 net.cpp:425] inception_4d/relu_3x3 <- inception_4d/3x3
I0403 15:40:38.016839  3359 net.cpp:386] inception_4d/relu_3x3 -> inception_4d/3x3 (in-place)
I0403 15:40:38.017061  3359 net.cpp:141] Setting up inception_4d/relu_3x3
I0403 15:40:38.017096  3359 net.cpp:148] Top shape: 24 288 14 14 (1354752)
I0403 15:40:38.017114  3359 net.cpp:156] Memory required for data: 1131654432
I0403 15:40:38.017132  3359 layer_factory.hpp:77] Creating layer inception_4d/5x5_reduce
I0403 15:40:38.017156  3359 net.cpp:91] Creating Layer inception_4d/5x5_reduce
I0403 15:40:38.017177  3359 net.cpp:425] inception_4d/5x5_reduce <- inception_4c/output_inception_4c/output_0_split_2
I0403 15:40:38.017205  3359 net.cpp:399] inception_4d/5x5_reduce -> inception_4d/5x5_reduce
I0403 15:40:38.018607  3359 net.cpp:141] Setting up inception_4d/5x5_reduce
I0403 15:40:38.018641  3359 net.cpp:148] Top shape: 24 32 14 14 (150528)
I0403 15:40:38.018661  3359 net.cpp:156] Memory required for data: 1132256544
I0403 15:40:38.018683  3359 layer_factory.hpp:77] Creating layer inception_4d/relu_5x5_reduce
I0403 15:40:38.018707  3359 net.cpp:91] Creating Layer inception_4d/relu_5x5_reduce
I0403 15:40:38.018729  3359 net.cpp:425] inception_4d/relu_5x5_reduce <- inception_4d/5x5_reduce
I0403 15:40:38.018751  3359 net.cpp:386] inception_4d/relu_5x5_reduce -> inception_4d/5x5_reduce (in-place)
I0403 15:40:38.018985  3359 net.cpp:141] Setting up inception_4d/relu_5x5_reduce
I0403 15:40:38.019014  3359 net.cpp:148] Top shape: 24 32 14 14 (150528)
I0403 15:40:38.019032  3359 net.cpp:156] Memory required for data: 1132858656
I0403 15:40:38.019050  3359 layer_factory.hpp:77] Creating layer inception_4d/5x5
I0403 15:40:38.019080  3359 net.cpp:91] Creating Layer inception_4d/5x5
I0403 15:40:38.019104  3359 net.cpp:425] inception_4d/5x5 <- inception_4d/5x5_reduce
I0403 15:40:38.019129  3359 net.cpp:399] inception_4d/5x5 -> inception_4d/5x5
I0403 15:40:38.020936  3359 net.cpp:141] Setting up inception_4d/5x5
I0403 15:40:38.020972  3359 net.cpp:148] Top shape: 24 64 14 14 (301056)
I0403 15:40:38.020992  3359 net.cpp:156] Memory required for data: 1134062880
I0403 15:40:38.021016  3359 layer_factory.hpp:77] Creating layer inception_4d/relu_5x5
I0403 15:40:38.021057  3359 net.cpp:91] Creating Layer inception_4d/relu_5x5
I0403 15:40:38.021080  3359 net.cpp:425] inception_4d/relu_5x5 <- inception_4d/5x5
I0403 15:40:38.021103  3359 net.cpp:386] inception_4d/relu_5x5 -> inception_4d/5x5 (in-place)
I0403 15:40:38.021472  3359 net.cpp:141] Setting up inception_4d/relu_5x5
I0403 15:40:38.021507  3359 net.cpp:148] Top shape: 24 64 14 14 (301056)
I0403 15:40:38.021528  3359 net.cpp:156] Memory required for data: 1135267104
I0403 15:40:38.021545  3359 layer_factory.hpp:77] Creating layer inception_4d/pool
I0403 15:40:38.021569  3359 net.cpp:91] Creating Layer inception_4d/pool
I0403 15:40:38.021587  3359 net.cpp:425] inception_4d/pool <- inception_4c/output_inception_4c/output_0_split_3
I0403 15:40:38.021613  3359 net.cpp:399] inception_4d/pool -> inception_4d/pool
I0403 15:40:38.021697  3359 net.cpp:141] Setting up inception_4d/pool
I0403 15:40:38.021726  3359 net.cpp:148] Top shape: 24 512 14 14 (2408448)
I0403 15:40:38.021744  3359 net.cpp:156] Memory required for data: 1144900896
I0403 15:40:38.021761  3359 layer_factory.hpp:77] Creating layer inception_4d/pool_proj
I0403 15:40:38.021787  3359 net.cpp:91] Creating Layer inception_4d/pool_proj
I0403 15:40:38.021809  3359 net.cpp:425] inception_4d/pool_proj <- inception_4d/pool
I0403 15:40:38.021836  3359 net.cpp:399] inception_4d/pool_proj -> inception_4d/pool_proj
I0403 15:40:38.023983  3359 net.cpp:141] Setting up inception_4d/pool_proj
I0403 15:40:38.024019  3359 net.cpp:148] Top shape: 24 64 14 14 (301056)
I0403 15:40:38.024037  3359 net.cpp:156] Memory required for data: 1146105120
I0403 15:40:38.024060  3359 layer_factory.hpp:77] Creating layer inception_4d/relu_pool_proj
I0403 15:40:38.024086  3359 net.cpp:91] Creating Layer inception_4d/relu_pool_proj
I0403 15:40:38.024108  3359 net.cpp:425] inception_4d/relu_pool_proj <- inception_4d/pool_proj
I0403 15:40:38.024130  3359 net.cpp:386] inception_4d/relu_pool_proj -> inception_4d/pool_proj (in-place)
I0403 15:40:38.024371  3359 net.cpp:141] Setting up inception_4d/relu_pool_proj
I0403 15:40:38.024405  3359 net.cpp:148] Top shape: 24 64 14 14 (301056)
I0403 15:40:38.024423  3359 net.cpp:156] Memory required for data: 1147309344
I0403 15:40:38.024441  3359 layer_factory.hpp:77] Creating layer inception_4d/output
I0403 15:40:38.024463  3359 net.cpp:91] Creating Layer inception_4d/output
I0403 15:40:38.024482  3359 net.cpp:425] inception_4d/output <- inception_4d/1x1
I0403 15:40:38.024503  3359 net.cpp:425] inception_4d/output <- inception_4d/3x3
I0403 15:40:38.024523  3359 net.cpp:425] inception_4d/output <- inception_4d/5x5
I0403 15:40:38.024543  3359 net.cpp:425] inception_4d/output <- inception_4d/pool_proj
I0403 15:40:38.024564  3359 net.cpp:399] inception_4d/output -> inception_4d/output
I0403 15:40:38.024627  3359 net.cpp:141] Setting up inception_4d/output
I0403 15:40:38.024657  3359 net.cpp:148] Top shape: 24 528 14 14 (2483712)
I0403 15:40:38.024675  3359 net.cpp:156] Memory required for data: 1157244192
I0403 15:40:38.024693  3359 layer_factory.hpp:77] Creating layer inception_4d/output_inception_4d/output_0_split
I0403 15:40:38.024718  3359 net.cpp:91] Creating Layer inception_4d/output_inception_4d/output_0_split
I0403 15:40:38.024739  3359 net.cpp:425] inception_4d/output_inception_4d/output_0_split <- inception_4d/output
I0403 15:40:38.024760  3359 net.cpp:399] inception_4d/output_inception_4d/output_0_split -> inception_4d/output_inception_4d/output_0_split_0
I0403 15:40:38.024785  3359 net.cpp:399] inception_4d/output_inception_4d/output_0_split -> inception_4d/output_inception_4d/output_0_split_1
I0403 15:40:38.024811  3359 net.cpp:399] inception_4d/output_inception_4d/output_0_split -> inception_4d/output_inception_4d/output_0_split_2
I0403 15:40:38.024838  3359 net.cpp:399] inception_4d/output_inception_4d/output_0_split -> inception_4d/output_inception_4d/output_0_split_3
I0403 15:40:38.024866  3359 net.cpp:399] inception_4d/output_inception_4d/output_0_split -> inception_4d/output_inception_4d/output_0_split_4
I0403 15:40:38.024996  3359 net.cpp:141] Setting up inception_4d/output_inception_4d/output_0_split
I0403 15:40:38.025040  3359 net.cpp:148] Top shape: 24 528 14 14 (2483712)
I0403 15:40:38.025060  3359 net.cpp:148] Top shape: 24 528 14 14 (2483712)
I0403 15:40:38.025080  3359 net.cpp:148] Top shape: 24 528 14 14 (2483712)
I0403 15:40:38.025100  3359 net.cpp:148] Top shape: 24 528 14 14 (2483712)
I0403 15:40:38.025120  3359 net.cpp:148] Top shape: 24 528 14 14 (2483712)
I0403 15:40:38.025137  3359 net.cpp:156] Memory required for data: 1206918432
I0403 15:40:38.025156  3359 layer_factory.hpp:77] Creating layer loss2/ave_pool
I0403 15:40:38.025178  3359 net.cpp:91] Creating Layer loss2/ave_pool
I0403 15:40:38.025198  3359 net.cpp:425] loss2/ave_pool <- inception_4d/output_inception_4d/output_0_split_0
I0403 15:40:38.025225  3359 net.cpp:399] loss2/ave_pool -> loss2/ave_pool
I0403 15:40:38.025619  3359 net.cpp:141] Setting up loss2/ave_pool
I0403 15:40:38.025651  3359 net.cpp:148] Top shape: 24 528 4 4 (202752)
I0403 15:40:38.025671  3359 net.cpp:156] Memory required for data: 1207729440
I0403 15:40:38.025689  3359 layer_factory.hpp:77] Creating layer loss2/conv
I0403 15:40:38.025717  3359 net.cpp:91] Creating Layer loss2/conv
I0403 15:40:38.025740  3359 net.cpp:425] loss2/conv <- loss2/ave_pool
I0403 15:40:38.025766  3359 net.cpp:399] loss2/conv -> loss2/conv
I0403 15:40:38.028074  3359 net.cpp:141] Setting up loss2/conv
I0403 15:40:38.028111  3359 net.cpp:148] Top shape: 24 128 4 4 (49152)
I0403 15:40:38.028131  3359 net.cpp:156] Memory required for data: 1207926048
I0403 15:40:38.028153  3359 layer_factory.hpp:77] Creating layer loss2/relu_conv
I0403 15:40:38.028175  3359 net.cpp:91] Creating Layer loss2/relu_conv
I0403 15:40:38.028195  3359 net.cpp:425] loss2/relu_conv <- loss2/conv
I0403 15:40:38.028218  3359 net.cpp:386] loss2/relu_conv -> loss2/conv (in-place)
I0403 15:40:38.028568  3359 net.cpp:141] Setting up loss2/relu_conv
I0403 15:40:38.028604  3359 net.cpp:148] Top shape: 24 128 4 4 (49152)
I0403 15:40:38.028623  3359 net.cpp:156] Memory required for data: 1208122656
I0403 15:40:38.028642  3359 layer_factory.hpp:77] Creating layer loss2/fc
I0403 15:40:38.028666  3359 net.cpp:91] Creating Layer loss2/fc
I0403 15:40:38.028687  3359 net.cpp:425] loss2/fc <- loss2/conv
I0403 15:40:38.028712  3359 net.cpp:399] loss2/fc -> loss2/fc
I0403 15:40:38.050400  3359 net.cpp:141] Setting up loss2/fc
I0403 15:40:38.050472  3359 net.cpp:148] Top shape: 24 1024 (24576)
I0403 15:40:38.050489  3359 net.cpp:156] Memory required for data: 1208220960
I0403 15:40:38.050514  3359 layer_factory.hpp:77] Creating layer loss2/relu_fc
I0403 15:40:38.050540  3359 net.cpp:91] Creating Layer loss2/relu_fc
I0403 15:40:38.050562  3359 net.cpp:425] loss2/relu_fc <- loss2/fc
I0403 15:40:38.050585  3359 net.cpp:386] loss2/relu_fc -> loss2/fc (in-place)
I0403 15:40:38.051010  3359 net.cpp:141] Setting up loss2/relu_fc
I0403 15:40:38.051043  3359 net.cpp:148] Top shape: 24 1024 (24576)
I0403 15:40:38.051061  3359 net.cpp:156] Memory required for data: 1208319264
I0403 15:40:38.051080  3359 layer_factory.hpp:77] Creating layer loss2/drop_fc
I0403 15:40:38.051107  3359 net.cpp:91] Creating Layer loss2/drop_fc
I0403 15:40:38.051128  3359 net.cpp:425] loss2/drop_fc <- loss2/fc
I0403 15:40:38.051149  3359 net.cpp:386] loss2/drop_fc -> loss2/fc (in-place)
I0403 15:40:38.051213  3359 net.cpp:141] Setting up loss2/drop_fc
I0403 15:40:38.051241  3359 net.cpp:148] Top shape: 24 1024 (24576)
I0403 15:40:38.051259  3359 net.cpp:156] Memory required for data: 1208417568
I0403 15:40:38.051283  3359 layer_factory.hpp:77] Creating layer loss2/classifier_plantvillage
I0403 15:40:38.051307  3359 net.cpp:91] Creating Layer loss2/classifier_plantvillage
I0403 15:40:38.051327  3359 net.cpp:425] loss2/classifier_plantvillage <- loss2/fc
I0403 15:40:38.051355  3359 net.cpp:399] loss2/classifier_plantvillage -> loss2/classifier_plantvillage
I0403 15:40:38.051862  3359 net.cpp:141] Setting up loss2/classifier_plantvillage
I0403 15:40:38.051893  3359 net.cpp:148] Top shape: 24 38 (912)
I0403 15:40:38.051935  3359 net.cpp:156] Memory required for data: 1208421216
I0403 15:40:38.051959  3359 layer_factory.hpp:77] Creating layer loss2/classifier_plantvillage_loss2/classifier_plantvillage_0_split
I0403 15:40:38.051981  3359 net.cpp:91] Creating Layer loss2/classifier_plantvillage_loss2/classifier_plantvillage_0_split
I0403 15:40:38.052000  3359 net.cpp:425] loss2/classifier_plantvillage_loss2/classifier_plantvillage_0_split <- loss2/classifier_plantvillage
I0403 15:40:38.052024  3359 net.cpp:399] loss2/classifier_plantvillage_loss2/classifier_plantvillage_0_split -> loss2/classifier_plantvillage_loss2/classifier_plantvillage_0_split_0
I0403 15:40:38.052050  3359 net.cpp:399] loss2/classifier_plantvillage_loss2/classifier_plantvillage_0_split -> loss2/classifier_plantvillage_loss2/classifier_plantvillage_0_split_1
I0403 15:40:38.052076  3359 net.cpp:399] loss2/classifier_plantvillage_loss2/classifier_plantvillage_0_split -> loss2/classifier_plantvillage_loss2/classifier_plantvillage_0_split_2
I0403 15:40:38.052171  3359 net.cpp:141] Setting up loss2/classifier_plantvillage_loss2/classifier_plantvillage_0_split
I0403 15:40:38.052203  3359 net.cpp:148] Top shape: 24 38 (912)
I0403 15:40:38.052224  3359 net.cpp:148] Top shape: 24 38 (912)
I0403 15:40:38.052243  3359 net.cpp:148] Top shape: 24 38 (912)
I0403 15:40:38.052261  3359 net.cpp:156] Memory required for data: 1208432160
I0403 15:40:38.052300  3359 layer_factory.hpp:77] Creating layer inception_4e/1x1
I0403 15:40:38.052330  3359 net.cpp:91] Creating Layer inception_4e/1x1
I0403 15:40:38.052350  3359 net.cpp:425] inception_4e/1x1 <- inception_4d/output_inception_4d/output_0_split_1
I0403 15:40:38.052376  3359 net.cpp:399] inception_4e/1x1 -> inception_4e/1x1
I0403 15:40:38.054672  3359 net.cpp:141] Setting up inception_4e/1x1
I0403 15:40:38.054710  3359 net.cpp:148] Top shape: 24 256 14 14 (1204224)
I0403 15:40:38.054730  3359 net.cpp:156] Memory required for data: 1213249056
I0403 15:40:38.054752  3359 layer_factory.hpp:77] Creating layer inception_4e/relu_1x1
I0403 15:40:38.054775  3359 net.cpp:91] Creating Layer inception_4e/relu_1x1
I0403 15:40:38.054795  3359 net.cpp:425] inception_4e/relu_1x1 <- inception_4e/1x1
I0403 15:40:38.054819  3359 net.cpp:386] inception_4e/relu_1x1 -> inception_4e/1x1 (in-place)
I0403 15:40:38.055186  3359 net.cpp:141] Setting up inception_4e/relu_1x1
I0403 15:40:38.055222  3359 net.cpp:148] Top shape: 24 256 14 14 (1204224)
I0403 15:40:38.055240  3359 net.cpp:156] Memory required for data: 1218065952
I0403 15:40:38.055259  3359 layer_factory.hpp:77] Creating layer inception_4e/3x3_reduce
I0403 15:40:38.055294  3359 net.cpp:91] Creating Layer inception_4e/3x3_reduce
I0403 15:40:38.055316  3359 net.cpp:425] inception_4e/3x3_reduce <- inception_4d/output_inception_4d/output_0_split_2
I0403 15:40:38.055341  3359 net.cpp:399] inception_4e/3x3_reduce -> inception_4e/3x3_reduce
I0403 15:40:38.057935  3359 net.cpp:141] Setting up inception_4e/3x3_reduce
I0403 15:40:38.057973  3359 net.cpp:148] Top shape: 24 160 14 14 (752640)
I0403 15:40:38.057993  3359 net.cpp:156] Memory required for data: 1221076512
I0403 15:40:38.058015  3359 layer_factory.hpp:77] Creating layer inception_4e/relu_3x3_reduce
I0403 15:40:38.058037  3359 net.cpp:91] Creating Layer inception_4e/relu_3x3_reduce
I0403 15:40:38.058058  3359 net.cpp:425] inception_4e/relu_3x3_reduce <- inception_4e/3x3_reduce
I0403 15:40:38.058079  3359 net.cpp:386] inception_4e/relu_3x3_reduce -> inception_4e/3x3_reduce (in-place)
I0403 15:40:38.058316  3359 net.cpp:141] Setting up inception_4e/relu_3x3_reduce
I0403 15:40:38.058349  3359 net.cpp:148] Top shape: 24 160 14 14 (752640)
I0403 15:40:38.058368  3359 net.cpp:156] Memory required for data: 1224087072
I0403 15:40:38.058387  3359 layer_factory.hpp:77] Creating layer inception_4e/3x3
I0403 15:40:38.058414  3359 net.cpp:91] Creating Layer inception_4e/3x3
I0403 15:40:38.058435  3359 net.cpp:425] inception_4e/3x3 <- inception_4e/3x3_reduce
I0403 15:40:38.058462  3359 net.cpp:399] inception_4e/3x3 -> inception_4e/3x3
I0403 15:40:38.064615  3359 net.cpp:141] Setting up inception_4e/3x3
I0403 15:40:38.064666  3359 net.cpp:148] Top shape: 24 320 14 14 (1505280)
I0403 15:40:38.064687  3359 net.cpp:156] Memory required for data: 1230108192
I0403 15:40:38.064712  3359 layer_factory.hpp:77] Creating layer inception_4e/relu_3x3
I0403 15:40:38.064733  3359 net.cpp:91] Creating Layer inception_4e/relu_3x3
I0403 15:40:38.064754  3359 net.cpp:425] inception_4e/relu_3x3 <- inception_4e/3x3
I0403 15:40:38.064779  3359 net.cpp:386] inception_4e/relu_3x3 -> inception_4e/3x3 (in-place)
I0403 15:40:38.065143  3359 net.cpp:141] Setting up inception_4e/relu_3x3
I0403 15:40:38.065176  3359 net.cpp:148] Top shape: 24 320 14 14 (1505280)
I0403 15:40:38.065194  3359 net.cpp:156] Memory required for data: 1236129312
I0403 15:40:38.065212  3359 layer_factory.hpp:77] Creating layer inception_4e/5x5_reduce
I0403 15:40:38.065242  3359 net.cpp:91] Creating Layer inception_4e/5x5_reduce
I0403 15:40:38.065264  3359 net.cpp:425] inception_4e/5x5_reduce <- inception_4d/output_inception_4d/output_0_split_3
I0403 15:40:38.065299  3359 net.cpp:399] inception_4e/5x5_reduce -> inception_4e/5x5_reduce
I0403 15:40:38.066617  3359 net.cpp:141] Setting up inception_4e/5x5_reduce
I0403 15:40:38.066651  3359 net.cpp:148] Top shape: 24 32 14 14 (150528)
I0403 15:40:38.066670  3359 net.cpp:156] Memory required for data: 1236731424
I0403 15:40:38.066695  3359 layer_factory.hpp:77] Creating layer inception_4e/relu_5x5_reduce
I0403 15:40:38.066717  3359 net.cpp:91] Creating Layer inception_4e/relu_5x5_reduce
I0403 15:40:38.066736  3359 net.cpp:425] inception_4e/relu_5x5_reduce <- inception_4e/5x5_reduce
I0403 15:40:38.066758  3359 net.cpp:386] inception_4e/relu_5x5_reduce -> inception_4e/5x5_reduce (in-place)
I0403 15:40:38.067121  3359 net.cpp:141] Setting up inception_4e/relu_5x5_reduce
I0403 15:40:38.067153  3359 net.cpp:148] Top shape: 24 32 14 14 (150528)
I0403 15:40:38.067172  3359 net.cpp:156] Memory required for data: 1237333536
I0403 15:40:38.067190  3359 layer_factory.hpp:77] Creating layer inception_4e/5x5
I0403 15:40:38.067239  3359 net.cpp:91] Creating Layer inception_4e/5x5
I0403 15:40:38.067265  3359 net.cpp:425] inception_4e/5x5 <- inception_4e/5x5_reduce
I0403 15:40:38.067296  3359 net.cpp:399] inception_4e/5x5 -> inception_4e/5x5
I0403 15:40:38.069552  3359 net.cpp:141] Setting up inception_4e/5x5
I0403 15:40:38.069587  3359 net.cpp:148] Top shape: 24 128 14 14 (602112)
I0403 15:40:38.069607  3359 net.cpp:156] Memory required for data: 1239741984
I0403 15:40:38.069629  3359 layer_factory.hpp:77] Creating layer inception_4e/relu_5x5
I0403 15:40:38.069654  3359 net.cpp:91] Creating Layer inception_4e/relu_5x5
I0403 15:40:38.069674  3359 net.cpp:425] inception_4e/relu_5x5 <- inception_4e/5x5
I0403 15:40:38.069696  3359 net.cpp:386] inception_4e/relu_5x5 -> inception_4e/5x5 (in-place)
I0403 15:40:38.069937  3359 net.cpp:141] Setting up inception_4e/relu_5x5
I0403 15:40:38.069970  3359 net.cpp:148] Top shape: 24 128 14 14 (602112)
I0403 15:40:38.069988  3359 net.cpp:156] Memory required for data: 1242150432
I0403 15:40:38.070008  3359 layer_factory.hpp:77] Creating layer inception_4e/pool
I0403 15:40:38.070030  3359 net.cpp:91] Creating Layer inception_4e/pool
I0403 15:40:38.070050  3359 net.cpp:425] inception_4e/pool <- inception_4d/output_inception_4d/output_0_split_4
I0403 15:40:38.070071  3359 net.cpp:399] inception_4e/pool -> inception_4e/pool
I0403 15:40:38.070159  3359 net.cpp:141] Setting up inception_4e/pool
I0403 15:40:38.070189  3359 net.cpp:148] Top shape: 24 528 14 14 (2483712)
I0403 15:40:38.070206  3359 net.cpp:156] Memory required for data: 1252085280
I0403 15:40:38.070225  3359 layer_factory.hpp:77] Creating layer inception_4e/pool_proj
I0403 15:40:38.070251  3359 net.cpp:91] Creating Layer inception_4e/pool_proj
I0403 15:40:38.070279  3359 net.cpp:425] inception_4e/pool_proj <- inception_4e/pool
I0403 15:40:38.070307  3359 net.cpp:399] inception_4e/pool_proj -> inception_4e/pool_proj
I0403 15:40:38.072152  3359 net.cpp:141] Setting up inception_4e/pool_proj
I0403 15:40:38.072201  3359 net.cpp:148] Top shape: 24 128 14 14 (602112)
I0403 15:40:38.072221  3359 net.cpp:156] Memory required for data: 1254493728
I0403 15:40:38.072242  3359 layer_factory.hpp:77] Creating layer inception_4e/relu_pool_proj
I0403 15:40:38.072268  3359 net.cpp:91] Creating Layer inception_4e/relu_pool_proj
I0403 15:40:38.072294  3359 net.cpp:425] inception_4e/relu_pool_proj <- inception_4e/pool_proj
I0403 15:40:38.072317  3359 net.cpp:386] inception_4e/relu_pool_proj -> inception_4e/pool_proj (in-place)
I0403 15:40:38.072679  3359 net.cpp:141] Setting up inception_4e/relu_pool_proj
I0403 15:40:38.072711  3359 net.cpp:148] Top shape: 24 128 14 14 (602112)
I0403 15:40:38.072731  3359 net.cpp:156] Memory required for data: 1256902176
I0403 15:40:38.072749  3359 layer_factory.hpp:77] Creating layer inception_4e/output
I0403 15:40:38.072772  3359 net.cpp:91] Creating Layer inception_4e/output
I0403 15:40:38.072791  3359 net.cpp:425] inception_4e/output <- inception_4e/1x1
I0403 15:40:38.072813  3359 net.cpp:425] inception_4e/output <- inception_4e/3x3
I0403 15:40:38.072832  3359 net.cpp:425] inception_4e/output <- inception_4e/5x5
I0403 15:40:38.072851  3359 net.cpp:425] inception_4e/output <- inception_4e/pool_proj
I0403 15:40:38.072875  3359 net.cpp:399] inception_4e/output -> inception_4e/output
I0403 15:40:38.072940  3359 net.cpp:141] Setting up inception_4e/output
I0403 15:40:38.072969  3359 net.cpp:148] Top shape: 24 832 14 14 (3913728)
I0403 15:40:38.072988  3359 net.cpp:156] Memory required for data: 1272557088
I0403 15:40:38.073005  3359 layer_factory.hpp:77] Creating layer pool4/3x3_s2
I0403 15:40:38.073026  3359 net.cpp:91] Creating Layer pool4/3x3_s2
I0403 15:40:38.073045  3359 net.cpp:425] pool4/3x3_s2 <- inception_4e/output
I0403 15:40:38.073071  3359 net.cpp:399] pool4/3x3_s2 -> pool4/3x3_s2
I0403 15:40:38.073153  3359 net.cpp:141] Setting up pool4/3x3_s2
I0403 15:40:38.073182  3359 net.cpp:148] Top shape: 24 832 7 7 (978432)
I0403 15:40:38.073199  3359 net.cpp:156] Memory required for data: 1276470816
I0403 15:40:38.073217  3359 layer_factory.hpp:77] Creating layer pool4/3x3_s2_pool4/3x3_s2_0_split
I0403 15:40:38.073242  3359 net.cpp:91] Creating Layer pool4/3x3_s2_pool4/3x3_s2_0_split
I0403 15:40:38.073263  3359 net.cpp:425] pool4/3x3_s2_pool4/3x3_s2_0_split <- pool4/3x3_s2
I0403 15:40:38.073308  3359 net.cpp:399] pool4/3x3_s2_pool4/3x3_s2_0_split -> pool4/3x3_s2_pool4/3x3_s2_0_split_0
I0403 15:40:38.073343  3359 net.cpp:399] pool4/3x3_s2_pool4/3x3_s2_0_split -> pool4/3x3_s2_pool4/3x3_s2_0_split_1
I0403 15:40:38.073369  3359 net.cpp:399] pool4/3x3_s2_pool4/3x3_s2_0_split -> pool4/3x3_s2_pool4/3x3_s2_0_split_2
I0403 15:40:38.073395  3359 net.cpp:399] pool4/3x3_s2_pool4/3x3_s2_0_split -> pool4/3x3_s2_pool4/3x3_s2_0_split_3
I0403 15:40:38.073505  3359 net.cpp:141] Setting up pool4/3x3_s2_pool4/3x3_s2_0_split
I0403 15:40:38.073534  3359 net.cpp:148] Top shape: 24 832 7 7 (978432)
I0403 15:40:38.073554  3359 net.cpp:148] Top shape: 24 832 7 7 (978432)
I0403 15:40:38.073573  3359 net.cpp:148] Top shape: 24 832 7 7 (978432)
I0403 15:40:38.073593  3359 net.cpp:148] Top shape: 24 832 7 7 (978432)
I0403 15:40:38.073611  3359 net.cpp:156] Memory required for data: 1292125728
I0403 15:40:38.073628  3359 layer_factory.hpp:77] Creating layer inception_5a/1x1
I0403 15:40:38.073655  3359 net.cpp:91] Creating Layer inception_5a/1x1
I0403 15:40:38.073676  3359 net.cpp:425] inception_5a/1x1 <- pool4/3x3_s2_pool4/3x3_s2_0_split_0
I0403 15:40:38.073703  3359 net.cpp:399] inception_5a/1x1 -> inception_5a/1x1
I0403 15:40:38.077199  3359 net.cpp:141] Setting up inception_5a/1x1
I0403 15:40:38.077234  3359 net.cpp:148] Top shape: 24 256 7 7 (301056)
I0403 15:40:38.077256  3359 net.cpp:156] Memory required for data: 1293329952
I0403 15:40:38.077285  3359 layer_factory.hpp:77] Creating layer inception_5a/relu_1x1
I0403 15:40:38.077308  3359 net.cpp:91] Creating Layer inception_5a/relu_1x1
I0403 15:40:38.077328  3359 net.cpp:425] inception_5a/relu_1x1 <- inception_5a/1x1
I0403 15:40:38.077350  3359 net.cpp:386] inception_5a/relu_1x1 -> inception_5a/1x1 (in-place)
I0403 15:40:38.077730  3359 net.cpp:141] Setting up inception_5a/relu_1x1
I0403 15:40:38.077762  3359 net.cpp:148] Top shape: 24 256 7 7 (301056)
I0403 15:40:38.077785  3359 net.cpp:156] Memory required for data: 1294534176
I0403 15:40:38.077805  3359 layer_factory.hpp:77] Creating layer inception_5a/3x3_reduce
I0403 15:40:38.077828  3359 net.cpp:91] Creating Layer inception_5a/3x3_reduce
I0403 15:40:38.077849  3359 net.cpp:425] inception_5a/3x3_reduce <- pool4/3x3_s2_pool4/3x3_s2_0_split_1
I0403 15:40:38.077877  3359 net.cpp:399] inception_5a/3x3_reduce -> inception_5a/3x3_reduce
I0403 15:40:38.080873  3359 net.cpp:141] Setting up inception_5a/3x3_reduce
I0403 15:40:38.080909  3359 net.cpp:148] Top shape: 24 160 7 7 (188160)
I0403 15:40:38.080929  3359 net.cpp:156] Memory required for data: 1295286816
I0403 15:40:38.080951  3359 layer_factory.hpp:77] Creating layer inception_5a/relu_3x3_reduce
I0403 15:40:38.080973  3359 net.cpp:91] Creating Layer inception_5a/relu_3x3_reduce
I0403 15:40:38.080993  3359 net.cpp:425] inception_5a/relu_3x3_reduce <- inception_5a/3x3_reduce
I0403 15:40:38.081018  3359 net.cpp:386] inception_5a/relu_3x3_reduce -> inception_5a/3x3_reduce (in-place)
I0403 15:40:38.081249  3359 net.cpp:141] Setting up inception_5a/relu_3x3_reduce
I0403 15:40:38.081284  3359 net.cpp:148] Top shape: 24 160 7 7 (188160)
I0403 15:40:38.081305  3359 net.cpp:156] Memory required for data: 1296039456
I0403 15:40:38.081323  3359 layer_factory.hpp:77] Creating layer inception_5a/3x3
I0403 15:40:38.081351  3359 net.cpp:91] Creating Layer inception_5a/3x3
I0403 15:40:38.081372  3359 net.cpp:425] inception_5a/3x3 <- inception_5a/3x3_reduce
I0403 15:40:38.081398  3359 net.cpp:399] inception_5a/3x3 -> inception_5a/3x3
I0403 15:40:38.087601  3359 net.cpp:141] Setting up inception_5a/3x3
I0403 15:40:38.087638  3359 net.cpp:148] Top shape: 24 320 7 7 (376320)
I0403 15:40:38.087657  3359 net.cpp:156] Memory required for data: 1297544736
I0403 15:40:38.087680  3359 layer_factory.hpp:77] Creating layer inception_5a/relu_3x3
I0403 15:40:38.087705  3359 net.cpp:91] Creating Layer inception_5a/relu_3x3
I0403 15:40:38.087728  3359 net.cpp:425] inception_5a/relu_3x3 <- inception_5a/3x3
I0403 15:40:38.087749  3359 net.cpp:386] inception_5a/relu_3x3 -> inception_5a/3x3 (in-place)
I0403 15:40:38.088114  3359 net.cpp:141] Setting up inception_5a/relu_3x3
I0403 15:40:38.088145  3359 net.cpp:148] Top shape: 24 320 7 7 (376320)
I0403 15:40:38.088165  3359 net.cpp:156] Memory required for data: 1299050016
I0403 15:40:38.088183  3359 layer_factory.hpp:77] Creating layer inception_5a/5x5_reduce
I0403 15:40:38.088212  3359 net.cpp:91] Creating Layer inception_5a/5x5_reduce
I0403 15:40:38.088238  3359 net.cpp:425] inception_5a/5x5_reduce <- pool4/3x3_s2_pool4/3x3_s2_0_split_2
I0403 15:40:38.088263  3359 net.cpp:399] inception_5a/5x5_reduce -> inception_5a/5x5_reduce
I0403 15:40:38.089709  3359 net.cpp:141] Setting up inception_5a/5x5_reduce
I0403 15:40:38.089745  3359 net.cpp:148] Top shape: 24 32 7 7 (37632)
I0403 15:40:38.089766  3359 net.cpp:156] Memory required for data: 1299200544
I0403 15:40:38.089789  3359 layer_factory.hpp:77] Creating layer inception_5a/relu_5x5_reduce
I0403 15:40:38.089810  3359 net.cpp:91] Creating Layer inception_5a/relu_5x5_reduce
I0403 15:40:38.089830  3359 net.cpp:425] inception_5a/relu_5x5_reduce <- inception_5a/5x5_reduce
I0403 15:40:38.089851  3359 net.cpp:386] inception_5a/relu_5x5_reduce -> inception_5a/5x5_reduce (in-place)
I0403 15:40:38.090221  3359 net.cpp:141] Setting up inception_5a/relu_5x5_reduce
I0403 15:40:38.090256  3359 net.cpp:148] Top shape: 24 32 7 7 (37632)
I0403 15:40:38.090281  3359 net.cpp:156] Memory required for data: 1299351072
I0403 15:40:38.090301  3359 layer_factory.hpp:77] Creating layer inception_5a/5x5
I0403 15:40:38.090327  3359 net.cpp:91] Creating Layer inception_5a/5x5
I0403 15:40:38.090349  3359 net.cpp:425] inception_5a/5x5 <- inception_5a/5x5_reduce
I0403 15:40:38.090373  3359 net.cpp:399] inception_5a/5x5 -> inception_5a/5x5
I0403 15:40:38.092489  3359 net.cpp:141] Setting up inception_5a/5x5
I0403 15:40:38.092538  3359 net.cpp:148] Top shape: 24 128 7 7 (150528)
I0403 15:40:38.092558  3359 net.cpp:156] Memory required for data: 1299953184
I0403 15:40:38.092581  3359 layer_factory.hpp:77] Creating layer inception_5a/relu_5x5
I0403 15:40:38.092607  3359 net.cpp:91] Creating Layer inception_5a/relu_5x5
I0403 15:40:38.092628  3359 net.cpp:425] inception_5a/relu_5x5 <- inception_5a/5x5
I0403 15:40:38.092650  3359 net.cpp:386] inception_5a/relu_5x5 -> inception_5a/5x5 (in-place)
I0403 15:40:38.092883  3359 net.cpp:141] Setting up inception_5a/relu_5x5
I0403 15:40:38.092916  3359 net.cpp:148] Top shape: 24 128 7 7 (150528)
I0403 15:40:38.092934  3359 net.cpp:156] Memory required for data: 1300555296
I0403 15:40:38.092953  3359 layer_factory.hpp:77] Creating layer inception_5a/pool
I0403 15:40:38.092975  3359 net.cpp:91] Creating Layer inception_5a/pool
I0403 15:40:38.092995  3359 net.cpp:425] inception_5a/pool <- pool4/3x3_s2_pool4/3x3_s2_0_split_3
I0403 15:40:38.093020  3359 net.cpp:399] inception_5a/pool -> inception_5a/pool
I0403 15:40:38.093108  3359 net.cpp:141] Setting up inception_5a/pool
I0403 15:40:38.093138  3359 net.cpp:148] Top shape: 24 832 7 7 (978432)
I0403 15:40:38.093155  3359 net.cpp:156] Memory required for data: 1304469024
I0403 15:40:38.093173  3359 layer_factory.hpp:77] Creating layer inception_5a/pool_proj
I0403 15:40:38.093199  3359 net.cpp:91] Creating Layer inception_5a/pool_proj
I0403 15:40:38.093224  3359 net.cpp:425] inception_5a/pool_proj <- inception_5a/pool
I0403 15:40:38.093247  3359 net.cpp:399] inception_5a/pool_proj -> inception_5a/pool_proj
I0403 15:40:38.096041  3359 net.cpp:141] Setting up inception_5a/pool_proj
I0403 15:40:38.096078  3359 net.cpp:148] Top shape: 24 128 7 7 (150528)
I0403 15:40:38.096097  3359 net.cpp:156] Memory required for data: 1305071136
I0403 15:40:38.096120  3359 layer_factory.hpp:77] Creating layer inception_5a/relu_pool_proj
I0403 15:40:38.096145  3359 net.cpp:91] Creating Layer inception_5a/relu_pool_proj
I0403 15:40:38.096166  3359 net.cpp:425] inception_5a/relu_pool_proj <- inception_5a/pool_proj
I0403 15:40:38.096189  3359 net.cpp:386] inception_5a/relu_pool_proj -> inception_5a/pool_proj (in-place)
I0403 15:40:38.096555  3359 net.cpp:141] Setting up inception_5a/relu_pool_proj
I0403 15:40:38.096587  3359 net.cpp:148] Top shape: 24 128 7 7 (150528)
I0403 15:40:38.096606  3359 net.cpp:156] Memory required for data: 1305673248
I0403 15:40:38.096624  3359 layer_factory.hpp:77] Creating layer inception_5a/output
I0403 15:40:38.096648  3359 net.cpp:91] Creating Layer inception_5a/output
I0403 15:40:38.096668  3359 net.cpp:425] inception_5a/output <- inception_5a/1x1
I0403 15:40:38.096690  3359 net.cpp:425] inception_5a/output <- inception_5a/3x3
I0403 15:40:38.096709  3359 net.cpp:425] inception_5a/output <- inception_5a/5x5
I0403 15:40:38.096730  3359 net.cpp:425] inception_5a/output <- inception_5a/pool_proj
I0403 15:40:38.096750  3359 net.cpp:399] inception_5a/output -> inception_5a/output
I0403 15:40:38.096812  3359 net.cpp:141] Setting up inception_5a/output
I0403 15:40:38.096843  3359 net.cpp:148] Top shape: 24 832 7 7 (978432)
I0403 15:40:38.096863  3359 net.cpp:156] Memory required for data: 1309586976
I0403 15:40:38.096880  3359 layer_factory.hpp:77] Creating layer inception_5a/output_inception_5a/output_0_split
I0403 15:40:38.096901  3359 net.cpp:91] Creating Layer inception_5a/output_inception_5a/output_0_split
I0403 15:40:38.096920  3359 net.cpp:425] inception_5a/output_inception_5a/output_0_split <- inception_5a/output
I0403 15:40:38.096946  3359 net.cpp:399] inception_5a/output_inception_5a/output_0_split -> inception_5a/output_inception_5a/output_0_split_0
I0403 15:40:38.096972  3359 net.cpp:399] inception_5a/output_inception_5a/output_0_split -> inception_5a/output_inception_5a/output_0_split_1
I0403 15:40:38.096997  3359 net.cpp:399] inception_5a/output_inception_5a/output_0_split -> inception_5a/output_inception_5a/output_0_split_2
I0403 15:40:38.097023  3359 net.cpp:399] inception_5a/output_inception_5a/output_0_split -> inception_5a/output_inception_5a/output_0_split_3
I0403 15:40:38.097162  3359 net.cpp:141] Setting up inception_5a/output_inception_5a/output_0_split
I0403 15:40:38.097193  3359 net.cpp:148] Top shape: 24 832 7 7 (978432)
I0403 15:40:38.097215  3359 net.cpp:148] Top shape: 24 832 7 7 (978432)
I0403 15:40:38.097235  3359 net.cpp:148] Top shape: 24 832 7 7 (978432)
I0403 15:40:38.097254  3359 net.cpp:148] Top shape: 24 832 7 7 (978432)
I0403 15:40:38.097276  3359 net.cpp:156] Memory required for data: 1325241888
I0403 15:40:38.097296  3359 layer_factory.hpp:77] Creating layer inception_5b/1x1
I0403 15:40:38.097323  3359 net.cpp:91] Creating Layer inception_5b/1x1
I0403 15:40:38.097347  3359 net.cpp:425] inception_5b/1x1 <- inception_5a/output_inception_5a/output_0_split_0
I0403 15:40:38.097370  3359 net.cpp:399] inception_5b/1x1 -> inception_5b/1x1
I0403 15:40:38.101997  3359 net.cpp:141] Setting up inception_5b/1x1
I0403 15:40:38.102035  3359 net.cpp:148] Top shape: 24 384 7 7 (451584)
I0403 15:40:38.102053  3359 net.cpp:156] Memory required for data: 1327048224
I0403 15:40:38.102077  3359 layer_factory.hpp:77] Creating layer inception_5b/relu_1x1
I0403 15:40:38.102098  3359 net.cpp:91] Creating Layer inception_5b/relu_1x1
I0403 15:40:38.102118  3359 net.cpp:425] inception_5b/relu_1x1 <- inception_5b/1x1
I0403 15:40:38.102144  3359 net.cpp:386] inception_5b/relu_1x1 -> inception_5b/1x1 (in-place)
I0403 15:40:38.102533  3359 net.cpp:141] Setting up inception_5b/relu_1x1
I0403 15:40:38.102571  3359 net.cpp:148] Top shape: 24 384 7 7 (451584)
I0403 15:40:38.102596  3359 net.cpp:156] Memory required for data: 1328854560
I0403 15:40:38.102624  3359 layer_factory.hpp:77] Creating layer inception_5b/3x3_reduce
I0403 15:40:38.102661  3359 net.cpp:91] Creating Layer inception_5b/3x3_reduce
I0403 15:40:38.102687  3359 net.cpp:425] inception_5b/3x3_reduce <- inception_5a/output_inception_5a/output_0_split_1
I0403 15:40:38.102722  3359 net.cpp:399] inception_5b/3x3_reduce -> inception_5b/3x3_reduce
I0403 15:40:38.105993  3359 net.cpp:141] Setting up inception_5b/3x3_reduce
I0403 15:40:38.106029  3359 net.cpp:148] Top shape: 24 192 7 7 (225792)
I0403 15:40:38.106047  3359 net.cpp:156] Memory required for data: 1329757728
I0403 15:40:38.106070  3359 layer_factory.hpp:77] Creating layer inception_5b/relu_3x3_reduce
I0403 15:40:38.106096  3359 net.cpp:91] Creating Layer inception_5b/relu_3x3_reduce
I0403 15:40:38.106117  3359 net.cpp:425] inception_5b/relu_3x3_reduce <- inception_5b/3x3_reduce
I0403 15:40:38.106139  3359 net.cpp:386] inception_5b/relu_3x3_reduce -> inception_5b/3x3_reduce (in-place)
I0403 15:40:38.106380  3359 net.cpp:141] Setting up inception_5b/relu_3x3_reduce
I0403 15:40:38.106411  3359 net.cpp:148] Top shape: 24 192 7 7 (225792)
I0403 15:40:38.106431  3359 net.cpp:156] Memory required for data: 1330660896
I0403 15:40:38.106448  3359 layer_factory.hpp:77] Creating layer inception_5b/3x3
I0403 15:40:38.106477  3359 net.cpp:91] Creating Layer inception_5b/3x3
I0403 15:40:38.106499  3359 net.cpp:425] inception_5b/3x3 <- inception_5b/3x3_reduce
I0403 15:40:38.106523  3359 net.cpp:399] inception_5b/3x3 -> inception_5b/3x3
I0403 15:40:38.114795  3359 net.cpp:141] Setting up inception_5b/3x3
I0403 15:40:38.114833  3359 net.cpp:148] Top shape: 24 384 7 7 (451584)
I0403 15:40:38.114853  3359 net.cpp:156] Memory required for data: 1332467232
I0403 15:40:38.114876  3359 layer_factory.hpp:77] Creating layer inception_5b/relu_3x3
I0403 15:40:38.114900  3359 net.cpp:91] Creating Layer inception_5b/relu_3x3
I0403 15:40:38.114923  3359 net.cpp:425] inception_5b/relu_3x3 <- inception_5b/3x3
I0403 15:40:38.114943  3359 net.cpp:386] inception_5b/relu_3x3 -> inception_5b/3x3 (in-place)
I0403 15:40:38.115321  3359 net.cpp:141] Setting up inception_5b/relu_3x3
I0403 15:40:38.115355  3359 net.cpp:148] Top shape: 24 384 7 7 (451584)
I0403 15:40:38.115373  3359 net.cpp:156] Memory required for data: 1334273568
I0403 15:40:38.115391  3359 layer_factory.hpp:77] Creating layer inception_5b/5x5_reduce
I0403 15:40:38.115442  3359 net.cpp:91] Creating Layer inception_5b/5x5_reduce
I0403 15:40:38.115466  3359 net.cpp:425] inception_5b/5x5_reduce <- inception_5a/output_inception_5a/output_0_split_2
I0403 15:40:38.115495  3359 net.cpp:399] inception_5b/5x5_reduce -> inception_5b/5x5_reduce
I0403 15:40:38.117084  3359 net.cpp:141] Setting up inception_5b/5x5_reduce
I0403 15:40:38.117117  3359 net.cpp:148] Top shape: 24 48 7 7 (56448)
I0403 15:40:38.117136  3359 net.cpp:156] Memory required for data: 1334499360
I0403 15:40:38.117158  3359 layer_factory.hpp:77] Creating layer inception_5b/relu_5x5_reduce
I0403 15:40:38.117182  3359 net.cpp:91] Creating Layer inception_5b/relu_5x5_reduce
I0403 15:40:38.117203  3359 net.cpp:425] inception_5b/relu_5x5_reduce <- inception_5b/5x5_reduce
I0403 15:40:38.117225  3359 net.cpp:386] inception_5b/relu_5x5_reduce -> inception_5b/5x5_reduce (in-place)
I0403 15:40:38.117689  3359 net.cpp:141] Setting up inception_5b/relu_5x5_reduce
I0403 15:40:38.117722  3359 net.cpp:148] Top shape: 24 48 7 7 (56448)
I0403 15:40:38.117741  3359 net.cpp:156] Memory required for data: 1334725152
I0403 15:40:38.117759  3359 layer_factory.hpp:77] Creating layer inception_5b/5x5
I0403 15:40:38.117784  3359 net.cpp:91] Creating Layer inception_5b/5x5
I0403 15:40:38.117805  3359 net.cpp:425] inception_5b/5x5 <- inception_5b/5x5_reduce
I0403 15:40:38.117830  3359 net.cpp:399] inception_5b/5x5 -> inception_5b/5x5
I0403 15:40:38.120390  3359 net.cpp:141] Setting up inception_5b/5x5
I0403 15:40:38.120425  3359 net.cpp:148] Top shape: 24 128 7 7 (150528)
I0403 15:40:38.120445  3359 net.cpp:156] Memory required for data: 1335327264
I0403 15:40:38.120467  3359 layer_factory.hpp:77] Creating layer inception_5b/relu_5x5
I0403 15:40:38.120493  3359 net.cpp:91] Creating Layer inception_5b/relu_5x5
I0403 15:40:38.120514  3359 net.cpp:425] inception_5b/relu_5x5 <- inception_5b/5x5
I0403 15:40:38.120535  3359 net.cpp:386] inception_5b/relu_5x5 -> inception_5b/5x5 (in-place)
I0403 15:40:38.120777  3359 net.cpp:141] Setting up inception_5b/relu_5x5
I0403 15:40:38.120811  3359 net.cpp:148] Top shape: 24 128 7 7 (150528)
I0403 15:40:38.120831  3359 net.cpp:156] Memory required for data: 1335929376
I0403 15:40:38.120848  3359 layer_factory.hpp:77] Creating layer inception_5b/pool
I0403 15:40:38.120870  3359 net.cpp:91] Creating Layer inception_5b/pool
I0403 15:40:38.120892  3359 net.cpp:425] inception_5b/pool <- inception_5a/output_inception_5a/output_0_split_3
I0403 15:40:38.120918  3359 net.cpp:399] inception_5b/pool -> inception_5b/pool
I0403 15:40:38.121007  3359 net.cpp:141] Setting up inception_5b/pool
I0403 15:40:38.121039  3359 net.cpp:148] Top shape: 24 832 7 7 (978432)
I0403 15:40:38.121058  3359 net.cpp:156] Memory required for data: 1339843104
I0403 15:40:38.121076  3359 layer_factory.hpp:77] Creating layer inception_5b/pool_proj
I0403 15:40:38.121101  3359 net.cpp:91] Creating Layer inception_5b/pool_proj
I0403 15:40:38.121122  3359 net.cpp:425] inception_5b/pool_proj <- inception_5b/pool
I0403 15:40:38.121147  3359 net.cpp:399] inception_5b/pool_proj -> inception_5b/pool_proj
I0403 15:40:38.123991  3359 net.cpp:141] Setting up inception_5b/pool_proj
I0403 15:40:38.124027  3359 net.cpp:148] Top shape: 24 128 7 7 (150528)
I0403 15:40:38.124047  3359 net.cpp:156] Memory required for data: 1340445216
I0403 15:40:38.124068  3359 layer_factory.hpp:77] Creating layer inception_5b/relu_pool_proj
I0403 15:40:38.124092  3359 net.cpp:91] Creating Layer inception_5b/relu_pool_proj
I0403 15:40:38.124114  3359 net.cpp:425] inception_5b/relu_pool_proj <- inception_5b/pool_proj
I0403 15:40:38.124135  3359 net.cpp:386] inception_5b/relu_pool_proj -> inception_5b/pool_proj (in-place)
I0403 15:40:38.124507  3359 net.cpp:141] Setting up inception_5b/relu_pool_proj
I0403 15:40:38.124541  3359 net.cpp:148] Top shape: 24 128 7 7 (150528)
I0403 15:40:38.124559  3359 net.cpp:156] Memory required for data: 1341047328
I0403 15:40:38.124583  3359 layer_factory.hpp:77] Creating layer inception_5b/output
I0403 15:40:38.124604  3359 net.cpp:91] Creating Layer inception_5b/output
I0403 15:40:38.124644  3359 net.cpp:425] inception_5b/output <- inception_5b/1x1
I0403 15:40:38.124670  3359 net.cpp:425] inception_5b/output <- inception_5b/3x3
I0403 15:40:38.124691  3359 net.cpp:425] inception_5b/output <- inception_5b/5x5
I0403 15:40:38.124711  3359 net.cpp:425] inception_5b/output <- inception_5b/pool_proj
I0403 15:40:38.124733  3359 net.cpp:399] inception_5b/output -> inception_5b/output
I0403 15:40:38.124800  3359 net.cpp:141] Setting up inception_5b/output
I0403 15:40:38.124830  3359 net.cpp:148] Top shape: 24 1024 7 7 (1204224)
I0403 15:40:38.124846  3359 net.cpp:156] Memory required for data: 1345864224
I0403 15:40:38.124866  3359 layer_factory.hpp:77] Creating layer pool5/7x7_s1
I0403 15:40:38.124889  3359 net.cpp:91] Creating Layer pool5/7x7_s1
I0403 15:40:38.124908  3359 net.cpp:425] pool5/7x7_s1 <- inception_5b/output
I0403 15:40:38.124933  3359 net.cpp:399] pool5/7x7_s1 -> pool5/7x7_s1
I0403 15:40:38.125200  3359 net.cpp:141] Setting up pool5/7x7_s1
I0403 15:40:38.125232  3359 net.cpp:148] Top shape: 24 1024 1 1 (24576)
I0403 15:40:38.125250  3359 net.cpp:156] Memory required for data: 1345962528
I0403 15:40:38.125269  3359 layer_factory.hpp:77] Creating layer pool5/drop_7x7_s1
I0403 15:40:38.125300  3359 net.cpp:91] Creating Layer pool5/drop_7x7_s1
I0403 15:40:38.125321  3359 net.cpp:425] pool5/drop_7x7_s1 <- pool5/7x7_s1
I0403 15:40:38.125344  3359 net.cpp:386] pool5/drop_7x7_s1 -> pool5/7x7_s1 (in-place)
I0403 15:40:38.125406  3359 net.cpp:141] Setting up pool5/drop_7x7_s1
I0403 15:40:38.125437  3359 net.cpp:148] Top shape: 24 1024 1 1 (24576)
I0403 15:40:38.125454  3359 net.cpp:156] Memory required for data: 1346060832
I0403 15:40:38.125473  3359 layer_factory.hpp:77] Creating layer loss3/classifier_plantvillage
I0403 15:40:38.125495  3359 net.cpp:91] Creating Layer loss3/classifier_plantvillage
I0403 15:40:38.125515  3359 net.cpp:425] loss3/classifier_plantvillage <- pool5/7x7_s1
I0403 15:40:38.125541  3359 net.cpp:399] loss3/classifier_plantvillage -> loss3/classifier_plantvillage
I0403 15:40:38.126070  3359 net.cpp:141] Setting up loss3/classifier_plantvillage
I0403 15:40:38.126101  3359 net.cpp:148] Top shape: 24 38 (912)
I0403 15:40:38.126118  3359 net.cpp:156] Memory required for data: 1346064480
I0403 15:40:38.126142  3359 layer_factory.hpp:77] Creating layer loss3/classifier_plantvillage_loss3/classifier_plantvillage_0_split
I0403 15:40:38.126164  3359 net.cpp:91] Creating Layer loss3/classifier_plantvillage_loss3/classifier_plantvillage_0_split
I0403 15:40:38.126184  3359 net.cpp:425] loss3/classifier_plantvillage_loss3/classifier_plantvillage_0_split <- loss3/classifier_plantvillage
I0403 15:40:38.126209  3359 net.cpp:399] loss3/classifier_plantvillage_loss3/classifier_plantvillage_0_split -> loss3/classifier_plantvillage_loss3/classifier_plantvillage_0_split_0
I0403 15:40:38.126235  3359 net.cpp:399] loss3/classifier_plantvillage_loss3/classifier_plantvillage_0_split -> loss3/classifier_plantvillage_loss3/classifier_plantvillage_0_split_1
I0403 15:40:38.126260  3359 net.cpp:399] loss3/classifier_plantvillage_loss3/classifier_plantvillage_0_split -> loss3/classifier_plantvillage_loss3/classifier_plantvillage_0_split_2
I0403 15:40:38.126291  3359 net.cpp:399] loss3/classifier_plantvillage_loss3/classifier_plantvillage_0_split -> loss3/classifier_plantvillage_loss3/classifier_plantvillage_0_split_3
I0403 15:40:38.126417  3359 net.cpp:141] Setting up loss3/classifier_plantvillage_loss3/classifier_plantvillage_0_split
I0403 15:40:38.126447  3359 net.cpp:148] Top shape: 24 38 (912)
I0403 15:40:38.126466  3359 net.cpp:148] Top shape: 24 38 (912)
I0403 15:40:38.126485  3359 net.cpp:148] Top shape: 24 38 (912)
I0403 15:40:38.126504  3359 net.cpp:148] Top shape: 24 38 (912)
I0403 15:40:38.126521  3359 net.cpp:156] Memory required for data: 1346079072
I0403 15:40:38.126538  3359 layer_factory.hpp:77] Creating layer loss1/loss
I0403 15:40:38.126565  3359 net.cpp:91] Creating Layer loss1/loss
I0403 15:40:38.126586  3359 net.cpp:425] loss1/loss <- loss1/classifier_plantvillage_loss1/classifier_plantvillage_0_split_0
I0403 15:40:38.126624  3359 net.cpp:425] loss1/loss <- label_data_1_split_0
…
