…
I0403 15:21:14.426614  2990 net.cpp:313] The NetState phase (1) differed from the phase (0) specified by a rule in layer data
I0403 15:21:14.427762  2990 net.cpp:49] Initializing net from parameters: 
state {
  phase: TEST
}
layer {
  name: "data"
  type: "Data"
  top: "data"
  top: "label"
  include {
    phase: TEST
  }
  transform_param {
    mirror: false
    crop_size: 224
    mean_file: "/home/mohanty/data/final_dataset/lmdb/grayscale-50-50/mean.binaryproto"
  }
  data_param {
    source: "/home/mohanty/data/final_dataset/lmdb/grayscale-50-50/test_db"
    batch_size: 24
    backend: LMDB
  }
}
layer {
  name: "conv1/7x7_s2"
  type: "Convolution"
  bottom: "data"
  top: "conv1/7x7_s2"
  param {
    lr_mult: 1
    decay_mult: 1
  }
  param {
    lr_mult: 2
    decay_mult: 0
  }
  convolution_param {
    num_output: 64
    pad: 3
    kernel_size: 7
    stride: 2
    weight_filler {
      type: "xavier"
      std: 0.1
    }
    bias_filler {
      type: "constant"
      value: 0.2
    }
  }
}
layer {
  name: "conv1/relu_7x7"
  type: "ReLU"
  bottom: "conv1/7x7_s2"
  top: "conv1/7x7_s2"
}
layer {
  name: "pool1/3x3_s2"
  type: "Pooling"
  bottom: "conv1/7x7_s2"
  top: "pool1/3x3_s2"
  pooling_param {
    pool: MAX
    kernel_size: 3
    stride: 2
  }
}
layer {
  name: "pool1/norm1"
  type: "LRN"
  bottom: "pool1/3x3_s2"
  top: "pool1/norm1"
  lrn_param {
    local_size: 5
    alpha: 0.0001
    beta: 0.75
  }
}
layer {
  name: "conv2/3x3_reduce"
  type: "Convolution"
  bottom: "pool1/norm1"
  top: "conv2/3x3_reduce"
  param {
    lr_mult: 1
    decay_mult: 1
  }
  param {
    lr_mult: 2
    decay_mult: 0
  }
  convolution_param {
    num_output: 64
    kernel_size: 1
    weight_filler {
      type: "xavier"
      std: 0.1
    }
    bias_filler {
      type: "constant"
      value: 0.2
    }
  }
}
layer {
  name: "conv2/relu_3x3_reduce"
  type: "ReLU"
  bottom: "conv2/3x3_reduce"
  top: "conv2/3x3_reduce"
}
layer {
  name: "conv2/3x3"
  type: "Convolution"
  bottom: "conv2/3x3_reduce"
  top: "conv2/3x3"
  param {
    lr_mult: 1
    decay_mult: 1
  }
  param {
    lr_mult: 2
    decay_mult: 0
  }
  convolution_param {
    num_output: 192
    pad: 1
    kernel_size: 3
    weight_filler {
      type: "xavier"
      std: 0.03
    }
    bias_filler {
      type: "constant"
      value: 0.2
    }
  }
}
layer {
  name: "conv2/relu_3x3"
  type: "ReLU"
  bottom: "conv2/3x3"
  top: "conv2/3x3"
}
layer {
  name: "conv2/norm2"
  type: "LRN"
  bottom: "conv2/3x3"
  top: "conv2/norm2"
  lrn_param {
    local_size: 5
    alpha: 0.0001
    beta: 0.75
  }
}
layer {
  name: "pool2/3x3_s2"
  type: "Pooling"
  bottom: "conv2/norm2"
  top: "pool2/3x3_s2"
  pooling_param {
    pool: MAX
    kernel_size: 3
    stride: 2
  }
}
layer {
  name: "inception_3a/1x1"
  type: "Convolution"
  bottom: "pool2/3x3_s2"
  top: "inception_3a/1x1"
  param {
    lr_mult: 1
    decay_mult: 1
  }
  param {
    lr_mult: 2
    decay_mult: 0
  }
  convolution_param {
    num_output: 64
    kernel_size: 1
    weight_filler {
      type: "xavier"
      std: 0.03
    }
    bias_filler {
      type: "constant"
      value: 0.2
    }
  }
}
layer {
  name: "inception_3a/relu_1x1"
  type: "ReLU"
  bottom: "inception_3a/1x1"
  top: "inception_3a/1x1"
}
layer {
  name: "inception_3a/3x3_reduce"
  type: "Convolution"
  bottom: "pool2/3x3_s2"
  top: "inception_3a/3x3_reduce"
  param {
    lr_mult: 1
    decay_mult: 1
  }
  param {
    lr_mult: 2
    decay_mult: 0
  }
  convolution_param {
    num_output: 96
    kernel_size: 1
    weight_filler {
      type: "xavier"
      std: 0.09
    }
    bias_filler {
      type: "constant"
      value: 0.2
    }
  }
}
layer {
  name: "inception_3a/relu_3x3_reduce"
  type: "ReLU"
  bottom: "inception_3a/3x3_reduce"
  top: "inception_3a/3x3_reduce"
}
layer {
  name: "inception_3a/3x3"
  type: "Convolution"
  bottom: "inception_3a/3x3_reduce"
  top: "inception_3a/3x3"
  param {
    lr_mult: 1
    decay_mult: 1
  }
  param {
    lr_mult: 2
    decay_mult: 0
  }
  convolution_param {
    num_output: 128
    pad: 1
    kernel_size: 3
    weight_filler {
      type: "xavier"
      std: 0.03
    }
    bias_filler {
      type: "constant"
      value: 0.2
    }
  }
}
layer {
  name: "inception_3a/relu_3x3"
  type: "ReLU"
  bottom: "inception_3a/3x3"
  top: "inception_3a/3x3"
}
layer {
  name: "inception_3a/5x5_reduce"
  type: "Convolution"
  bottom: "pool2/3x3_s2"
  top: "inception_3a/5x5_reduce"
  param {
    lr_mult: 1
    decay_mult: 1
  }
  param {
    lr_mult: 2
    decay_mult: 0
  }
  convolution_param {
    num_output: 16
    kernel_size: 1
    weight_filler {
      type: "xavier"
      std: 0.2
    }
    bias_filler {
      type: "constant"
      value: 0.2
    }
  }
}
layer {
  name: "inception_3a/relu_5x5_reduce"
  type: "ReLU"
  bottom: "inception_3a/5x5_reduce"
  top: "inception_3a/5x5_reduce"
}
layer {
  name: "inception_3a/5x5"
  type: "Convolution"
  bottom: "inception_3a/5x5_reduce"
  top: "inception_3a/5x5"
  param {
    lr_mult: 1
    decay_mult: 1
  }
  param {
    lr_mult: 2
    decay_mult: 0
  }
  convolution_param {
    num_output: 32
    pad: 2
    kernel_size: 5
    weight_filler {
      type: "xavier"
      std: 0.03
    }
    bias_filler {
      type: "constant"
      value: 0.2
    }
  }
}
layer {
  name: "inception_3a/relu_5x5"
  type: "ReLU"
  bottom: "inception_3a/5x5"
  top: "inception_3a/5x5"
}
layer {
  name: "inception_3a/pool"
  type: "Pooling"
  bottom: "pool2/3x3_s2"
  top: "inception_3a/pool"
  pooling_param {
    pool: MAX
    kernel_size: 3
    stride: 1
    pad: 1
  }
}
layer {
  name: "inception_3a/pool_proj"
  type: "Convolution"
  bottom: "inception_3a/pool"
  top: "inception_3a/pool_proj"
  param {
    lr_mult: 1
    decay_mult: 1
  }
  param {
    lr_mult: 2
    decay_mult: 0
  }
  convolution_param {
    num_output: 32
    kernel_size: 1
    weight_filler {
      type: "xavier"
      std: 0.1
    }
    bias_filler {
      type: "constant"
      value: 0.2
    }
  }
}
layer {
  name: "inception_3a/relu_pool_proj"
  type: "ReLU"
  bottom: "inception_3a/pool_proj"
  top: "inception_3a/pool_proj"
}
layer {
  name: "inception_3a/output"
  type: "Concat"
  bottom: "inception_3a/1x1"
  bottom: "inception_3a/3x3"
  bottom: "inception_3a/5x5"
  bottom: "inception_3a/pool_proj"
  top: "inception_3a/output"
}
layer {
  name: "inception_3b/1x1"
  type: "Convolution"
  bottom: "inception_3a/output"
  top: "inception_3b/1x1"
  param {
    lr_mult: 1
    decay_mult: 1
  }
  param {
    lr_mult: 2
    decay_mult: 0
  }
  convolution_param {
    num_output: 128
    kernel_size: 1
    weight_filler {
      type: "xavier"
      std: 0.03
    }
    bias_filler {
      type: "constant"
      value: 0.2
    }
  }
}
layer {
  name: "inception_3b/relu_1x1"
  type: "ReLU"
  bottom: "inception_3b/1x1"
  top: "inception_3b/1x1"
}
layer {
  name: "inception_3b/3x3_reduce"
  type: "Convolution"
  bottom: "inception_3a/output"
  top: "inception_3b/3x3_reduce"
  param {
    lr_mult: 1
    decay_mult: 1
  }
  param {
    lr_mult: 2
    decay_mult: 0
  }
  convolution_param {
    num_output: 128
    kernel_size: 1
    weight_filler {
      type: "xavier"
      std: 0.09
    }
    bias_filler {
      type: "constant"
      value: 0.2
    }
  }
}
layer {
  name: "inception_3b/relu_3x3_reduce"
  type: "ReLU"
  bottom: "inception_3b/3x3_reduce"
  top: "inception_3b/3x3_reduce"
}
layer {
  name: "inception_3b/3x3"
  type: "Convolution"
  bottom: "inception_3b/3x3_reduce"
  top: "inception_3b/3x3"
  param {
    lr_mult: 1
    decay_mult: 1
  }
  param {
    lr_mult: 2
    decay_mult: 0
  }
  convolution_param {
    num_output: 192
    pad: 1
    kernel_size: 3
    weight_filler {
      type: "xavier"
      std: 0.03
    }
    bias_filler {
      type: "constant"
      value: 0.2
    }
  }
}
layer {
  name: "inception_3b/relu_3x3"
  type: "ReLU"
  bottom: "inception_3b/3x3"
  top: "inception_3b/3x3"
}
layer {
  name: "inception_3b/5x5_reduce"
  type: "Convolution"
  bottom: "inception_3a/output"
  top: "inception_3b/5x5_reduce"
  param {
    lr_mult: 1
    decay_mult: 1
  }
  param {
    lr_mult: 2
    decay_mult: 0
  }
  convolution_param {
    num_output: 32
    kernel_size: 1
    weight_filler {
      type: "xavier"
      std: 0.2
    }
    bias_filler {
      type: "constant"
      value: 0.2
    }
  }
}
layer {
  name: "inception_3b/relu_5x5_reduce"
  type: "ReLU"
  bottom: "inception_3b/5x5_reduce"
  top: "inception_3b/5x5_reduce"
}
layer {
  name: "inception_3b/5x5"
  type: "Convolution"
  bottom: "inception_3b/5x5_reduce"
  top: "inception_3b/5x5"
  param {
    lr_mult: 1
    decay_mult: 1
  }
  param {
    lr_mult: 2
    decay_mult: 0
  }
  convolution_param {
    num_output: 96
    pad: 2
    kernel_size: 5
    weight_filler {
      type: "xavier"
      std: 0.03
    }
    bias_filler {
      type: "constant"
      value: 0.2
    }
  }
}
layer {
  name: "inception_3b/relu_5x5"
  type: "ReLU"
  bottom: "inception_3b/5x5"
  top: "inception_3b/5x5"
}
layer {
  name: "inception_3b/pool"
  type: "Pooling"
  bottom: "inception_3a/output"
  top: "inception_3b/pool"
  pooling_param {
    pool: MAX
    kernel_size: 3
    stride: 1
    pad: 1
  }
}
layer {
  name: "inception_3b/pool_proj"
  type: "Convolution"
  bottom: "inception_3b/pool"
  top: "inception_3b/pool_proj"
  param {
    lr_mult: 1
    decay_mult: 1
  }
  param {
    lr_mult: 2
    decay_mult: 0
  }
  convolution_param {
    num_output: 64
    kernel_size: 1
    weight_filler {
      type: "xavier"
      std: 0.1
    }
    bias_filler {
      type: "constant"
      value: 0.2
    }
  }
}
layer {
  name: "inception_3b/relu_pool_proj"
  type: "ReLU"
  bottom: "inception_3b/pool_proj"
  top: "inception_3b/pool_proj"
}
layer {
  name: "inception_3b/output"
  type: "Concat"
  bottom: "inception_3b/1x1"
  bottom: "inception_3b/3x3"
  bottom: "inception_3b/5x5"
  bottom: "inception_3b/pool_proj"
  top: "inception_3b/output"
}
layer {
  name: "pool3/3x3_s2"
  type: "Pooling"
  bottom: "inception_3b/output"
  top: "pool3/3x3_s2"
  pooling_param {
    pool: MAX
    kernel_size: 3
    stride: 2
  }
}
layer {
  name: "inception_4a/1x1"
  type: "Convolution"
  bottom: "pool3/3x3_s2"
  top: "inception_4a/1x1"
  param {
    lr_mult: 1
    decay_mult: 1
  }
  param {
    lr_mult: 2
    decay_mult: 0
  }
  convolution_param {
    num_output: 192
    kernel_size: 1
    weight_filler {
      type: "xavier"
      std: 0.03
    }
    bias_filler {
      type: "constant"
      value: 0.2
    }
  }
}
layer {
  name: "inception_4a/relu_1x1"
  type: "ReLU"
  bottom: "inception_4a/1x1"
  top: "inception_4a/1x1"
}
layer {
  name: "inception_4a/3x3_reduce"
  type: "Convolution"
  bottom: "pool3/3x3_s2"
  top: "inception_4a/3x3_reduce"
  param {
    lr_mult: 1
    decay_mult: 1
  }
  param {
    lr_mult: 2
    decay_mult: 0
  }
  convolution_param {
    num_output: 96
    kernel_size: 1
    weight_filler {
      type: "xavier"
      std: 0.09
    }
    bias_filler {
      type: "constant"
      value: 0.2
    }
  }
}
layer {
  name: "inception_4a/relu_3x3_reduce"
  type: "ReLU"
  bottom: "inception_4a/3x3_reduce"
  top: "inception_4a/3x3_reduce"
}
layer {
  name: "inception_4a/3x3"
  type: "Convolution"
  bottom: "inception_4a/3x3_reduce"
  top: "inception_4a/3x3"
  param {
    lr_mult: 1
    decay_mult: 1
  }
  param {
    lr_mult: 2
    decay_mult: 0
  }
  convolution_param {
    num_output: 208
    pad: 1
    kernel_size: 3
    weight_filler {
      type: "xavier"
      std: 0.03
    }
    bias_filler {
      type: "constant"
      value: 0.2
    }
  }
}
layer {
  name: "inception_4a/relu_3x3"
  type: "ReLU"
  bottom: "inception_4a/3x3"
  top: "inception_4a/3x3"
}
layer {
  name: "inception_4a/5x5_reduce"
  type: "Convolution"
  bottom: "pool3/3x3_s2"
  top: "inception_4a/5x5_reduce"
  param {
    lr_mult: 1
    decay_mult: 1
  }
  param {
    lr_mult: 2
    decay_mult: 0
  }
  convolution_param {
    num_output: 16
    kernel_size: 1
    weight_filler {
      type: "xavier"
      std: 0.2
    }
    bias_filler {
      type: "constant"
      value: 0.2
    }
  }
}
layer {
  name: "inception_4a/relu_5x5_reduce"
  type: "ReLU"
  bottom: "inception_4a/5x5_reduce"
  top: "inception_4a/5x5_reduce"
}
layer {
  name: "inception_4a/5x5"
  type: "Convolution"
  bottom: "inception_4a/5x5_reduce"
  top: "inception_4a/5x5"
  param {
    lr_mult: 1
    decay_mult: 1
  }
  param {
    lr_mult: 2
    decay_mult: 0
  }
  convolution_param {
    num_output: 48
    pad: 2
    kernel_size: 5
    weight_filler {
      type: "xavier"
      std: 0.03
    }
    bias_filler {
      type: "constant"
      value: 0.2
    }
  }
}
layer {
  name: "inception_4a/relu_5x5"
  type: "ReLU"
  bottom: "inception_4a/5x5"
  top: "inception_4a/5x5"
}
layer {
  name: "inception_4a/pool"
  type: "Pooling"
  bottom: "pool3/3x3_s2"
  top: "inception_4a/pool"
  pooling_param {
    pool: MAX
    kernel_size: 3
    stride: 1
    pad: 1
  }
}
layer {
  name: "inception_4a/pool_proj"
  type: "Convolution"
  bottom: "inception_4a/pool"
  top: "inception_4a/pool_proj"
  param {
    lr_mult: 1
    decay_mult: 1
  }
  param {
    lr_mult: 2
    decay_mult: 0
  }
  convolution_param {
    num_output: 64
    kernel_size: 1
    weight_filler {
      type: "xavier"
      std: 0.1
    }
    bias_filler {
      type: "constant"
      value: 0.2
    }
  }
}
layer {
  name: "inception_4a/relu_pool_proj"
  type: "ReLU"
  bottom: "inception_4a/pool_proj"
  top: "inception_4a/pool_proj"
}
layer {
  name: "inception_4a/output"
  type: "Concat"
  bottom: "inception_4a/1x1"
  bottom: "inception_4a/3x3"
  bottom: "inception_4a/5x5"
  bottom: "inception_4a/pool_proj"
  top: "inception_4a/output"
}
layer {
  name: "loss1/ave_pool"
  type: "Pooling"
  bottom: "inception_4a/output"
  top: "loss1/ave_pool"
  pooling_param {
    pool: AVE
    kernel_size: 5
    stride: 3
  }
}
layer {
  name: "loss1/conv"
  type: "Convolution"
  bottom: "loss1/ave_pool"
  top: "loss1/conv"
  param {
    lr_mult: 1
    decay_mult: 1
  }
  param {
    lr_mult: 2
    decay_mult: 0
  }
  convolution_param {
    num_output: 128
    kernel_size: 1
    weight_filler {
      type: "xavier"
      std: 0.08
    }
    bias_filler {
      type: "constant"
      value: 0.2
    }
  }
}
layer {
  name: "loss1/relu_conv"
  type: "ReLU"
  bottom: "loss1/conv"
  top: "loss1/conv"
}
layer {
  name: "loss1/fc"
  type: "InnerProduct"
  bottom: "loss1/conv"
  top: "loss1/fc"
  param {
    lr_mult: 1
    decay_mult: 1
  }
  param {
    lr_mult: 2
    decay_mult: 0
  }
  inner_product_param {
    num_output: 1024
    weight_filler {
      type: "xavier"
      std: 0.02
    }
    bias_filler {
      type: "constant"
      value: 0.2
    }
  }
}
layer {
  name: "loss1/relu_fc"
  type: "ReLU"
  bottom: "loss1/fc"
  top: "loss1/fc"
}
layer {
  name: "loss1/drop_fc"
  type: "Dropout"
  bottom: "loss1/fc"
  top: "loss1/fc"
  dropout_param {
    dropout_ratio: 0.7
  }
}
layer {
  name: "loss1/classifier_plantvillage"
  type: "InnerProduct"
  bottom: "loss1/fc"
  top: "loss1/classifier_plantvillage"
  param {
    lr_mult: 1
    decay_mult: 1
  }
  param {
    lr_mult: 2
    decay_mult: 0
  }
  inner_product_param {
    num_output: 38
    weight_filler {
      type: "xavier"
      std: 0.0009765625
    }
    bias_filler {
      type: "constant"
      value: 0
    }
  }
}
layer {
  name: "inception_4b/1x1"
  type: "Convolution"
  bottom: "inception_4a/output"
  top: "inception_4b/1x1"
  param {
    lr_mult: 1
    decay_mult: 1
  }
  param {
    lr_mult: 2
    decay_mult: 0
  }
  convolution_param {
    num_output: 160
    kernel_size: 1
    weight_filler {
      type: "xavier"
      std: 0.03
    }
    bias_filler {
      type: "constant"
      value: 0.2
    }
  }
}
layer {
  name: "inception_4b/relu_1x1"
  type: "ReLU"
  bottom: "inception_4b/1x1"
  top: "inception_4b/1x1"
}
layer {
  name: "inception_4b/3x3_reduce"
  type: "Convolution"
  bottom: "inception_4a/output"
  top: "inception_4b/3x3_reduce"
  param {
    lr_mult: 1
    decay_mult: 1
  }
  param {
    lr_mult: 2
    decay_mult: 0
  }
  convolution_param {
    num_output: 112
    kernel_size: 1
    weight_filler {
      type: "xavier"
      std: 0.09
    }
    bias_filler {
      type: "constant"
      value: 0.2
    }
  }
}
layer {
  name: "inception_4b/relu_3x3_reduce"
  type: "ReLU"
  bottom: "inception_4b/3x3_reduce"
  top: "inception_4b/3x3_reduce"
}
layer {
  name: "inception_4b/3x3"
  type: "Convolution"
  bottom: "inception_4b/3x3_reduce"
  top: "inception_4b/3x3"
  param {
    lr_mult: 1
    decay_mult: 1
  }
  param {
    lr_mult: 2
    decay_mult: 0
  }
  convolution_param {
    num_output: 224
    pad: 1
    kernel_size: 3
    weight_filler {
      type: "xavier"
      std: 0.03
    }
    bias_filler {
      type: "constant"
      value: 0.2
    }
  }
}
layer {
  name: "inception_4b/relu_3x3"
  type: "ReLU"
  bottom: "inception_4b/3x3"
  top: "inception_4b/3x3"
}
layer {
  name: "inception_4b/5x5_reduce"
  type: "Convolution"
  bottom: "inception_4a/output"
  top: "inception_4b/5x5_reduce"
  param {
    lr_mult: 1
    decay_mult: 1
  }
  param {
    lr_mult: 2
    decay_mult: 0
  }
  convolution_param {
    num_output: 24
    kernel_size: 1
    weight_filler {
      type: "xavier"
      std: 0.2
    }
    bias_filler {
      type: "constant"
      value: 0.2
    }
  }
}
layer {
  name: "inception_4b/relu_5x5_reduce"
  type: "ReLU"
  bottom: "inception_4b/5x5_reduce"
  top: "inception_4b/5x5_reduce"
}
layer {
  name: "inception_4b/5x5"
  type: "Convolution"
  bottom: "inception_4b/5x5_reduce"
  top: "inception_4b/5x5"
  param {
    lr_mult: 1
    decay_mult: 1
  }
  param {
    lr_mult: 2
    decay_mult: 0
  }
  convolution_param {
    num_output: 64
    pad: 2
    kernel_size: 5
    weight_filler {
      type: "xavier"
      std: 0.03
    }
    bias_filler {
      type: "constant"
      value: 0.2
    }
  }
}
layer {
  name: "inception_4b/relu_5x5"
  type: "ReLU"
  bottom: "inception_4b/5x5"
  top: "inception_4b/5x5"
}
layer {
  name: "inception_4b/pool"
  type: "Pooling"
  bottom: "inception_4a/output"
  top: "inception_4b/pool"
  pooling_param {
    pool: MAX
    kernel_size: 3
    stride: 1
    pad: 1
  }
}
layer {
  name: "inception_4b/pool_proj"
  type: "Convolution"
  bottom: "inception_4b/pool"
  top: "inception_4b/pool_proj"
  param {
    lr_mult: 1
    decay_mult: 1
  }
  param {
    lr_mult: 2
    decay_mult: 0
  }
  convolution_param {
    num_output: 64
    kernel_size: 1
    weight_filler {
      type: "xavier"
      std: 0.1
    }
    bias_filler {
      type: "constant"
      value: 0.2
    }
  }
}
layer {
  name: "inception_4b/relu_pool_proj"
  type: "ReLU"
  bottom: "inception_4b/pool_proj"
  top: "inception_4b/pool_proj"
}
layer {
  name: "inception_4b/output"
  type: "Concat"
  bottom: "inception_4b/1x1"
  bottom: "inception_4b/3x3"
  bottom: "inception_4b/5x5"
  bottom: "inception_4b/pool_proj"
  top: "inception_4b/output"
}
layer {
  name: "inception_4c/1x1"
  type: "Convolution"
  bottom: "inception_4b/output"
  top: "inception_4c/1x1"
  param {
    lr_mult: 1
    decay_mult: 1
  }
  param {
    lr_mult: 2
    decay_mult: 0
  }
  convolution_param {
    num_output: 128
    kernel_size: 1
    weight_filler {
      type: "xavier"
      std: 0.03
    }
    bias_filler {
      type: "constant"
      value: 0.2
    }
  }
}
layer {
  name: "inception_4c/relu_1x1"
  type: "ReLU"
  bottom: "inception_4c/1x1"
  top: "inception_4c/1x1"
}
layer {
  name: "inception_4c/3x3_reduce"
  type: "Convolution"
  bottom: "inception_4b/output"
  top: "inception_4c/3x3_reduce"
  param {
    lr_mult: 1
    decay_mult: 1
  }
  param {
    lr_mult: 2
    decay_mult: 0
  }
  convolution_param {
    num_output: 128
    kernel_size: 1
    weight_filler {
      type: "xavier"
      std: 0.09
    }
    bias_filler {
      type: "constant"
      value: 0.2
    }
  }
}
layer {
  name: "inception_4c/relu_3x3_reduce"
  type: "ReLU"
  bottom: "inception_4c/3x3_reduce"
  top: "inception_4c/3x3_reduce"
}
layer {
  name: "inception_4c/3x3"
  type: "Convolution"
  bottom: "inception_4c/3x3_reduce"
  top: "inception_4c/3x3"
  param {
    lr_mult: 1
    decay_mult: 1
  }
  param {
    lr_mult: 2
    decay_mult: 0
  }
  convolution_param {
    num_output: 256
    pad: 1
    kernel_size: 3
    weight_filler {
      type: "xavier"
      std: 0.03
    }
    bias_filler {
      type: "constant"
      value: 0.2
    }
  }
}
layer {
  name: "inception_4c/relu_3x3"
  type: "ReLU"
  bottom: "inception_4c/3x3"
  top: "inception_4c/3x3"
}
layer {
  name: "inception_4c/5x5_reduce"
  type: "Convolution"
  bottom: "inception_4b/output"
  top: "inception_4c/5x5_reduce"
  param {
    lr_mult: 1
    decay_mult: 1
  }
  param {
    lr_mult: 2
    decay_mult: 0
  }
  convolution_param {
    num_output: 24
    kernel_size: 1
    weight_filler {
      type: "xavier"
      std: 0.2
    }
    bias_filler {
      type: "constant"
      value: 0.2
    }
  }
}
layer {
  name: "inception_4c/relu_5x5_reduce"
  type: "ReLU"
  bottom: "inception_4c/5x5_reduce"
  top: "inception_4c/5x5_reduce"
}
layer {
  name: "inception_4c/5x5"
  type: "Convolution"
  bottom: "inception_4c/5x5_reduce"
  top: "inception_4c/5x5"
  param {
    lr_mult: 1
    decay_mult: 1
  }
  param {
    lr_mult: 2
    decay_mult: 0
  }
  convolution_param {
    num_output: 64
    pad: 2
    kernel_size: 5
    weight_filler {
      type: "xavier"
      std: 0.03
    }
    bias_filler {
      type: "constant"
      value: 0.2
    }
  }
}
layer {
  name: "inception_4c/relu_5x5"
  type: "ReLU"
  bottom: "inception_4c/5x5"
  top: "inception_4c/5x5"
}
layer {
  name: "inception_4c/pool"
  type: "Pooling"
  bottom: "inception_4b/output"
  top: "inception_4c/pool"
  pooling_param {
    pool: MAX
    kernel_size: 3
    stride: 1
    pad: 1
  }
}
layer {
  name: "inception_4c/pool_proj"
  type: "Convolution"
  bottom: "inception_4c/pool"
  top: "inception_4c/pool_proj"
  param {
    lr_mult: 1
    decay_mult: 1
  }
  param {
    lr_mult: 2
    decay_mult: 0
  }
  convolution_param {
    num_output: 64
    kernel_size: 1
    weight_filler {
      type: "xavier"
      std: 0.1
    }
    bias_filler {
      type: "constant"
      value: 0.2
    }
  }
}
layer {
  name: "inception_4c/relu_pool_proj"
  type: "ReLU"
  bottom: "inception_4c/pool_proj"
  top: "inception_4c/pool_proj"
}
layer {
  name: "inception_4c/output"
  type: "Concat"
  bottom: "inception_4c/1x1"
  bottom: "inception_4c/3x3"
  bottom: "inception_4c/5x5"
  bottom: "inception_4c/pool_proj"
  top: "inception_4c/output"
}
layer {
  name: "inception_4d/1x1"
  type: "Convolution"
  bottom: "inception_4c/output"
  top: "inception_4d/1x1"
  param {
    lr_mult: 1
    decay_mult: 1
  }
  param {
    lr_mult: 2
    decay_mult: 0
  }
  convolution_param {
    num_output: 112
    kernel_size: 1
    weight_filler {
      type: "xavier"
      std: 0.03
    }
    bias_filler {
      type: "constant"
      value: 0.2
    }
  }
}
layer {
  name: "inception_4d/relu_1x1"
  type: "ReLU"
  bottom: "inception_4d/1x1"
  top: "inception_4d/1x1"
}
layer {
  name: "inception_4d/3x3_reduce"
  type: "Convolution"
  bottom: "inception_4c/output"
  top: "inception_4d/3x3_reduce"
  param {
    lr_mult: 1
    decay_mult: 1
  }
  param {
    lr_mult: 2
    decay_mult: 0
  }
  convolution_param {
    num_output: 144
    kernel_size: 1
    weight_filler {
      type: "xavier"
      std: 0.09
    }
    bias_filler {
      type: "constant"
      value: 0.2
    }
  }
}
layer {
  name: "inception_4d/relu_3x3_reduce"
  type: "ReLU"
  bottom: "inception_4d/3x3_reduce"
  top: "inception_4d/3x3_reduce"
}
layer {
  name: "inception_4d/3x3"
  type: "Convolution"
  bottom: "inception_4d/3x3_reduce"
  top: "inception_4d/3x3"
  param {
    lr_mult: 1
    decay_mult: 1
  }
  param {
    lr_mult: 2
    decay_mult: 0
  }
  convolution_param {
    num_output: 288
    pad: 1
    kernel_size: 3
    weight_filler {
      type: "xavier"
      std: 0.03
    }
    bias_filler {
      type: "constant"
      value: 0.2
    }
  }
}
layer {
  name: "inception_4d/relu_3x3"
  type: "ReLU"
  bottom: "inception_4d/3x3"
  top: "inception_4d/3x3"
}
layer {
  name: "inception_4d/5x5_reduce"
  type: "Convolution"
  bottom: "inception_4c/output"
  top: "inception_4d/5x5_reduce"
  param {
    lr_mult: 1
    decay_mult: 1
  }
  param {
    lr_mult: 2
    decay_mult: 0
  }
  convolution_param {
    num_output: 32
    kernel_size: 1
    weight_filler {
      type: "xavier"
      std: 0.2
    }
    bias_filler {
      type: "constant"
      value: 0.2
    }
  }
}
layer {
  name: "inception_4d/relu_5x5_reduce"
  type: "ReLU"
  bottom: "inception_4d/5x5_reduce"
  top: "inception_4d/5x5_reduce"
}
layer {
  name: "inception_4d/5x5"
  type: "Convolution"
  bottom: "inception_4d/5x5_reduce"
  top: "inception_4d/5x5"
  param {
    lr_mult: 1
    decay_mult: 1
  }
  param {
    lr_mult: 2
    decay_mult: 0
  }
  convolution_param {
    num_output: 64
    pad: 2
    kernel_size: 5
    weight_filler {
      type: "xavier"
      std: 0.03
    }
    bias_filler {
      type: "constant"
      value: 0.2
    }
  }
}
layer {
  name: "inception_4d/relu_5x5"
  type: "ReLU"
  bottom: "inception_4d/5x5"
  top: "inception_4d/5x5"
}
layer {
  name: "inception_4d/pool"
  type: "Pooling"
  bottom: "inception_4c/output"
  top: "inception_4d/pool"
  pooling_param {
    pool: MAX
    kernel_size: 3
    stride: 1
    pad: 1
  }
}
layer {
  name: "inception_4d/pool_proj"
  type: "Convolution"
  bottom: "inception_4d/pool"
  top: "inception_4d/pool_proj"
  param {
    lr_mult: 1
    decay_mult: 1
  }
  param {
    lr_mult: 2
    decay_mult: 0
  }
  convolution_param {
    num_output: 64
    kernel_size: 1
    weight_filler {
      type: "xavier"
      std: 0.1
    }
    bias_filler {
      type: "constant"
      value: 0.2
    }
  }
}
layer {
  name: "inception_4d/relu_pool_proj"
  type: "ReLU"
  bottom: "inception_4d/pool_proj"
  top: "inception_4d/pool_proj"
}
layer {
  name: "inception_4d/output"
  type: "Concat"
  bottom: "inception_4d/1x1"
  bottom: "inception_4d/3x3"
  bottom: "inception_4d/5x5"
  bottom: "inception_4d/pool_proj"
  top: "inception_4d/output"
}
layer {
  name: "loss2/ave_pool"
  type: "Pooling"
  bottom: "inception_4d/output"
  top: "loss2/ave_pool"
  pooling_param {
    pool: AVE
    kernel_size: 5
    stride: 3
  }
}
layer {
  name: "loss2/conv"
  type: "Convolution"
  bottom: "loss2/ave_pool"
  top: "loss2/conv"
  param {
    lr_mult: 1
    decay_mult: 1
  }
  param {
    lr_mult: 2
    decay_mult: 0
  }
  convolution_param {
    num_output: 128
    kernel_size: 1
    weight_filler {
      type: "xavier"
      std: 0.08
    }
    bias_filler {
      type: "constant"
      value: 0.2
    }
  }
}
layer {
  name: "loss2/relu_conv"
  type: "ReLU"
  bottom: "loss2/conv"
  top: "loss2/conv"
}
layer {
  name: "loss2/fc"
  type: "InnerProduct"
  bottom: "loss2/conv"
  top: "loss2/fc"
  param {
    lr_mult: 1
    decay_mult: 1
  }
  param {
    lr_mult: 2
    decay_mult: 0
  }
  inner_product_param {
    num_output: 1024
    weight_filler {
      type: "xavier"
      std: 0.02
    }
    bias_filler {
      type: "constant"
      value: 0.2
    }
  }
}
layer {
  name: "loss2/relu_fc"
  type: "ReLU"
  bottom: "loss2/fc"
  top: "loss2/fc"
}
layer {
  name: "loss2/drop_fc"
  type: "Dropout"
  bottom: "loss2/fc"
  top: "loss2/fc"
  dropout_param {
    dropout_ratio: 0.7
  }
}
layer {
  name: "loss2/classifier_plantvillage"
  type: "InnerProduct"
  bottom: "loss2/fc"
  top: "loss2/classifier_plantvillage"
  param {
    lr_mult: 1
    decay_mult: 1
  }
  param {
    lr_mult: 2
    decay_mult: 0
  }
  inner_product_param {
    num_output: 38
    weight_filler {
      type: "xavier"
      std: 0.0009765625
    }
    bias_filler {
      type: "constant"
      value: 0
    }
  }
}
layer {
  name: "inception_4e/1x1"
  type: "Convolution"
  bottom: "inception_4d/output"
  top: "inception_4e/1x1"
  param {
    lr_mult: 1
    decay_mult: 1
  }
  param {
    lr_mult: 2
    decay_mult: 0
  }
  convolution_param {
    num_output: 256
    kernel_size: 1
    weight_filler {
      type: "xavier"
      std: 0.03
    }
    bias_filler {
      type: "constant"
      value: 0.2
    }
  }
}
layer {
  name: "inception_4e/relu_1x1"
  type: "ReLU"
  bottom: "inception_4e/1x1"
  top: "inception_4e/1x1"
}
layer {
  name: "inception_4e/3x3_reduce"
  type: "Convolution"
  bottom: "inception_4d/output"
  top: "inception_4e/3x3_reduce"
  param {
    lr_mult: 1
    decay_mult: 1
  }
  param {
    lr_mult: 2
    decay_mult: 0
  }
  convolution_param {
    num_output: 160
    kernel_size: 1
    weight_filler {
      type: "xavier"
      std: 0.09
    }
    bias_filler {
      type: "constant"
      value: 0.2
    }
  }
}
layer {
  name: "inception_4e/relu_3x3_reduce"
  type: "ReLU"
  bottom: "inception_4e/3x3_reduce"
  top: "inception_4e/3x3_reduce"
}
layer {
  name: "inception_4e/3x3"
  type: "Convolution"
  bottom: "inception_4e/3x3_reduce"
  top: "inception_4e/3x3"
  param {
    lr_mult: 1
    decay_mult: 1
  }
  param {
    lr_mult: 2
    decay_mult: 0
  }
  convolution_param {
    num_output: 320
    pad: 1
    kernel_size: 3
    weight_filler {
      type: "xavier"
      std: 0.03
    }
    bias_filler {
      type: "constant"
      value: 0.2
    }
  }
}
layer {
  name: "inception_4e/relu_3x3"
  type: "ReLU"
  bottom: "inception_4e/3x3"
  top: "inception_4e/3x3"
}
layer {
  name: "inception_4e/5x5_reduce"
  type: "Convolution"
  bottom: "inception_4d/output"
  top: "inception_4e/5x5_reduce"
  param {
    lr_mult: 1
    decay_mult: 1
  }
  param {
    lr_mult: 2
    decay_mult: 0
  }
  convolution_param {
    num_output: 32
    kernel_size: 1
    weight_filler {
      type: "xavier"
      std: 0.2
    }
    bias_filler {
      type: "constant"
      value: 0.2
    }
  }
}
layer {
  name: "inception_4e/relu_5x5_reduce"
  type: "ReLU"
  bottom: "inception_4e/5x5_reduce"
  top: "inception_4e/5x5_reduce"
}
layer {
  name: "inception_4e/5x5"
  type: "Convolution"
  bottom: "inception_4e/5x5_reduce"
  top: "inception_4e/
I0403 15:21:14.428956  2990 layer_factory.hpp:77] Creating layer data
I0403 15:21:14.429538  2990 net.cpp:91] Creating Layer data
I0403 15:21:14.429568  2990 net.cpp:399] data -> data
I0403 15:21:14.429618  2990 net.cpp:399] data -> label
I0403 15:21:14.429653  2990 data_transformer.cpp:25] Loading mean file from: /home/mohanty/data/final_dataset/lmdb/grayscale-50-50/mean.binaryproto
I0403 15:21:14.432683  2995 db_lmdb.cpp:38] Opened lmdb /home/mohanty/data/final_dataset/lmdb/grayscale-50-50/test_db
I0403 15:21:14.442801  2990 data_layer.cpp:41] output data size: 24,3,224,224
I0403 15:21:14.469872  2990 net.cpp:141] Setting up data
I0403 15:21:14.469930  2990 net.cpp:148] Top shape: 24 3 224 224 (3612672)
I0403 15:21:14.469954  2990 net.cpp:148] Top shape: 24 (24)
I0403 15:21:14.469969  2990 net.cpp:156] Memory required for data: 14450784
I0403 15:21:14.470000  2990 layer_factory.hpp:77] Creating layer label_data_1_split
I0403 15:21:14.470032  2990 net.cpp:91] Creating Layer label_data_1_split
I0403 15:21:14.470055  2990 net.cpp:425] label_data_1_split <- label
I0403 15:21:14.470093  2990 net.cpp:399] label_data_1_split -> label_data_1_split_0
I0403 15:21:14.470127  2990 net.cpp:399] label_data_1_split -> label_data_1_split_1
I0403 15:21:14.470151  2990 net.cpp:399] label_data_1_split -> label_data_1_split_2
I0403 15:21:14.470175  2990 net.cpp:399] label_data_1_split -> label_data_1_split_3
I0403 15:21:14.470196  2990 net.cpp:399] label_data_1_split -> label_data_1_split_4
I0403 15:21:14.470217  2990 net.cpp:399] label_data_1_split -> label_data_1_split_5
I0403 15:21:14.470237  2990 net.cpp:399] label_data_1_split -> label_data_1_split_6
I0403 15:21:14.470263  2990 net.cpp:399] label_data_1_split -> label_data_1_split_7
I0403 15:21:14.470283  2990 net.cpp:399] label_data_1_split -> label_data_1_split_8
I0403 15:21:14.470304  2990 net.cpp:399] label_data_1_split -> label_data_1_split_9
I0403 15:21:14.470418  2990 net.cpp:141] Setting up label_data_1_split
I0403 15:21:14.470443  2990 net.cpp:148] Top shape: 24 (24)
I0403 15:21:14.470459  2990 net.cpp:148] Top shape: 24 (24)
I0403 15:21:14.470476  2990 net.cpp:148] Top shape: 24 (24)
I0403 15:21:14.470491  2990 net.cpp:148] Top shape: 24 (24)
I0403 15:21:14.470509  2990 net.cpp:148] Top shape: 24 (24)
I0403 15:21:14.470523  2990 net.cpp:148] Top shape: 24 (24)
I0403 15:21:14.470540  2990 net.cpp:148] Top shape: 24 (24)
I0403 15:21:14.470556  2990 net.cpp:148] Top shape: 24 (24)
I0403 15:21:14.470572  2990 net.cpp:148] Top shape: 24 (24)
I0403 15:21:14.470588  2990 net.cpp:148] Top shape: 24 (24)
I0403 15:21:14.470634  2990 net.cpp:156] Memory required for data: 14451744
I0403 15:21:14.470650  2990 layer_factory.hpp:77] Creating layer conv1/7x7_s2
I0403 15:21:14.470684  2990 net.cpp:91] Creating Layer conv1/7x7_s2
I0403 15:21:14.470702  2990 net.cpp:425] conv1/7x7_s2 <- data
I0403 15:21:14.470722  2990 net.cpp:399] conv1/7x7_s2 -> conv1/7x7_s2
I0403 15:21:14.612180  2990 net.cpp:141] Setting up conv1/7x7_s2
I0403 15:21:14.612279  2990 net.cpp:148] Top shape: 24 64 112 112 (19267584)
I0403 15:21:14.612299  2990 net.cpp:156] Memory required for data: 91522080
I0403 15:21:14.612332  2990 layer_factory.hpp:77] Creating layer conv1/relu_7x7
I0403 15:21:14.612360  2990 net.cpp:91] Creating Layer conv1/relu_7x7
I0403 15:21:14.612380  2990 net.cpp:425] conv1/relu_7x7 <- conv1/7x7_s2
I0403 15:21:14.612398  2990 net.cpp:386] conv1/relu_7x7 -> conv1/7x7_s2 (in-place)
I0403 15:21:14.612661  2990 net.cpp:141] Setting up conv1/relu_7x7
I0403 15:21:14.612689  2990 net.cpp:148] Top shape: 24 64 112 112 (19267584)
I0403 15:21:14.612706  2990 net.cpp:156] Memory required for data: 168592416
I0403 15:21:14.612725  2990 layer_factory.hpp:77] Creating layer pool1/3x3_s2
I0403 15:21:14.612752  2990 net.cpp:91] Creating Layer pool1/3x3_s2
I0403 15:21:14.612777  2990 net.cpp:425] pool1/3x3_s2 <- conv1/7x7_s2
I0403 15:21:14.612805  2990 net.cpp:399] pool1/3x3_s2 -> pool1/3x3_s2
I0403 15:21:14.612895  2990 net.cpp:141] Setting up pool1/3x3_s2
I0403 15:21:14.612928  2990 net.cpp:148] Top shape: 24 64 56 56 (4816896)
I0403 15:21:14.612948  2990 net.cpp:156] Memory required for data: 187860000
I0403 15:21:14.612972  2990 layer_factory.hpp:77] Creating layer pool1/norm1
I0403 15:21:14.613004  2990 net.cpp:91] Creating Layer pool1/norm1
I0403 15:21:14.613023  2990 net.cpp:425] pool1/norm1 <- pool1/3x3_s2
I0403 15:21:14.613040  2990 net.cpp:399] pool1/norm1 -> pool1/norm1
I0403 15:21:14.613329  2990 net.cpp:141] Setting up pool1/norm1
I0403 15:21:14.613358  2990 net.cpp:148] Top shape: 24 64 56 56 (4816896)
I0403 15:21:14.613373  2990 net.cpp:156] Memory required for data: 207127584
I0403 15:21:14.613389  2990 layer_factory.hpp:77] Creating layer conv2/3x3_reduce
I0403 15:21:14.613415  2990 net.cpp:91] Creating Layer conv2/3x3_reduce
I0403 15:21:14.613432  2990 net.cpp:425] conv2/3x3_reduce <- pool1/norm1
I0403 15:21:14.613464  2990 net.cpp:399] conv2/3x3_reduce -> conv2/3x3_reduce
I0403 15:21:14.615123  2990 net.cpp:141] Setting up conv2/3x3_reduce
I0403 15:21:14.615154  2990 net.cpp:148] Top shape: 24 64 56 56 (4816896)
I0403 15:21:14.615185  2990 net.cpp:156] Memory required for data: 226395168
I0403 15:21:14.615207  2990 layer_factory.hpp:77] Creating layer conv2/relu_3x3_reduce
I0403 15:21:14.615226  2990 net.cpp:91] Creating Layer conv2/relu_3x3_reduce
I0403 15:21:14.615247  2990 net.cpp:425] conv2/relu_3x3_reduce <- conv2/3x3_reduce
I0403 15:21:14.615267  2990 net.cpp:386] conv2/relu_3x3_reduce -> conv2/3x3_reduce (in-place)
I0403 15:21:14.615530  2990 net.cpp:141] Setting up conv2/relu_3x3_reduce
I0403 15:21:14.615556  2990 net.cpp:148] Top shape: 24 64 56 56 (4816896)
I0403 15:21:14.615572  2990 net.cpp:156] Memory required for data: 245662752
I0403 15:21:14.615588  2990 layer_factory.hpp:77] Creating layer conv2/3x3
I0403 15:21:14.615610  2990 net.cpp:91] Creating Layer conv2/3x3
I0403 15:21:14.615628  2990 net.cpp:425] conv2/3x3 <- conv2/3x3_reduce
I0403 15:21:14.615645  2990 net.cpp:399] conv2/3x3 -> conv2/3x3
I0403 15:21:14.618036  2990 net.cpp:141] Setting up conv2/3x3
I0403 15:21:14.618068  2990 net.cpp:148] Top shape: 24 192 56 56 (14450688)
I0403 15:21:14.618085  2990 net.cpp:156] Memory required for data: 303465504
I0403 15:21:14.618108  2990 layer_factory.hpp:77] Creating layer conv2/relu_3x3
I0403 15:21:14.618127  2990 net.cpp:91] Creating Layer conv2/relu_3x3
I0403 15:21:14.618144  2990 net.cpp:425] conv2/relu_3x3 <- conv2/3x3
I0403 15:21:14.618173  2990 net.cpp:386] conv2/relu_3x3 -> conv2/3x3 (in-place)
I0403 15:21:14.618358  2990 net.cpp:141] Setting up conv2/relu_3x3
I0403 15:21:14.618384  2990 net.cpp:148] Top shape: 24 192 56 56 (14450688)
I0403 15:21:14.618430  2990 net.cpp:156] Memory required for data: 361268256
I0403 15:21:14.618448  2990 layer_factory.hpp:77] Creating layer conv2/norm2
I0403 15:21:14.618484  2990 net.cpp:91] Creating Layer conv2/norm2
I0403 15:21:14.618500  2990 net.cpp:425] conv2/norm2 <- conv2/3x3
I0403 15:21:14.618518  2990 net.cpp:399] conv2/norm2 -> conv2/norm2
I0403 15:21:14.618823  2990 net.cpp:141] Setting up conv2/norm2
I0403 15:21:14.618849  2990 net.cpp:148] Top shape: 24 192 56 56 (14450688)
I0403 15:21:14.618865  2990 net.cpp:156] Memory required for data: 419071008
I0403 15:21:14.618880  2990 layer_factory.hpp:77] Creating layer pool2/3x3_s2
I0403 15:21:14.618901  2990 net.cpp:91] Creating Layer pool2/3x3_s2
I0403 15:21:14.618918  2990 net.cpp:425] pool2/3x3_s2 <- conv2/norm2
I0403 15:21:14.618937  2990 net.cpp:399] pool2/3x3_s2 -> pool2/3x3_s2
I0403 15:21:14.618991  2990 net.cpp:141] Setting up pool2/3x3_s2
I0403 15:21:14.619014  2990 net.cpp:148] Top shape: 24 192 28 28 (3612672)
I0403 15:21:14.619029  2990 net.cpp:156] Memory required for data: 433521696
I0403 15:21:14.619042  2990 layer_factory.hpp:77] Creating layer pool2/3x3_s2_pool2/3x3_s2_0_split
I0403 15:21:14.619060  2990 net.cpp:91] Creating Layer pool2/3x3_s2_pool2/3x3_s2_0_split
I0403 15:21:14.619076  2990 net.cpp:425] pool2/3x3_s2_pool2/3x3_s2_0_split <- pool2/3x3_s2
I0403 15:21:14.619096  2990 net.cpp:399] pool2/3x3_s2_pool2/3x3_s2_0_split -> pool2/3x3_s2_pool2/3x3_s2_0_split_0
I0403 15:21:14.619115  2990 net.cpp:399] pool2/3x3_s2_pool2/3x3_s2_0_split -> pool2/3x3_s2_pool2/3x3_s2_0_split_1
I0403 15:21:14.619135  2990 net.cpp:399] pool2/3x3_s2_pool2/3x3_s2_0_split -> pool2/3x3_s2_pool2/3x3_s2_0_split_2
I0403 15:21:14.619155  2990 net.cpp:399] pool2/3x3_s2_pool2/3x3_s2_0_split -> pool2/3x3_s2_pool2/3x3_s2_0_split_3
I0403 15:21:14.619225  2990 net.cpp:141] Setting up pool2/3x3_s2_pool2/3x3_s2_0_split
I0403 15:21:14.619254  2990 net.cpp:148] Top shape: 24 192 28 28 (3612672)
I0403 15:21:14.619273  2990 net.cpp:148] Top shape: 24 192 28 28 (3612672)
I0403 15:21:14.619289  2990 net.cpp:148] Top shape: 24 192 28 28 (3612672)
I0403 15:21:14.619305  2990 net.cpp:148] Top shape: 24 192 28 28 (3612672)
I0403 15:21:14.619319  2990 net.cpp:156] Memory required for data: 491324448
I0403 15:21:14.619334  2990 layer_factory.hpp:77] Creating layer inception_3a/1x1
I0403 15:21:14.619356  2990 net.cpp:91] Creating Layer inception_3a/1x1
I0403 15:21:14.619374  2990 net.cpp:425] inception_3a/1x1 <- pool2/3x3_s2_pool2/3x3_s2_0_split_0
I0403 15:21:14.619395  2990 net.cpp:399] inception_3a/1x1 -> inception_3a/1x1
I0403 15:21:14.621001  2990 net.cpp:141] Setting up inception_3a/1x1
I0403 15:21:14.621029  2990 net.cpp:148] Top shape: 24 64 28 28 (1204224)
I0403 15:21:14.621045  2990 net.cpp:156] Memory required for data: 496141344
I0403 15:21:14.621064  2990 layer_factory.hpp:77] Creating layer inception_3a/relu_1x1
I0403 15:21:14.621084  2990 net.cpp:91] Creating Layer inception_3a/relu_1x1
I0403 15:21:14.621103  2990 net.cpp:425] inception_3a/relu_1x1 <- inception_3a/1x1
I0403 15:21:14.621120  2990 net.cpp:386] inception_3a/relu_1x1 -> inception_3a/1x1 (in-place)
I0403 15:21:14.621299  2990 net.cpp:141] Setting up inception_3a/relu_1x1
I0403 15:21:14.621323  2990 net.cpp:148] Top shape: 24 64 28 28 (1204224)
I0403 15:21:14.621338  2990 net.cpp:156] Memory required for data: 500958240
I0403 15:21:14.621354  2990 layer_factory.hpp:77] Creating layer inception_3a/3x3_reduce
I0403 15:21:14.621377  2990 net.cpp:91] Creating Layer inception_3a/3x3_reduce
I0403 15:21:14.621394  2990 net.cpp:425] inception_3a/3x3_reduce <- pool2/3x3_s2_pool2/3x3_s2_0_split_1
I0403 15:21:14.621417  2990 net.cpp:399] inception_3a/3x3_reduce -> inception_3a/3x3_reduce
I0403 15:21:14.623339  2990 net.cpp:141] Setting up inception_3a/3x3_reduce
I0403 15:21:14.623371  2990 net.cpp:148] Top shape: 24 96 28 28 (1806336)
I0403 15:21:14.623388  2990 net.cpp:156] Memory required for data: 508183584
I0403 15:21:14.623410  2990 layer_factory.hpp:77] Creating layer inception_3a/relu_3x3_reduce
I0403 15:21:14.623445  2990 net.cpp:91] Creating Layer inception_3a/relu_3x3_reduce
I0403 15:21:14.623462  2990 net.cpp:425] inception_3a/relu_3x3_reduce <- inception_3a/3x3_reduce
I0403 15:21:14.623483  2990 net.cpp:386] inception_3a/relu_3x3_reduce -> inception_3a/3x3_reduce (in-place)
I0403 15:21:14.623661  2990 net.cpp:141] Setting up inception_3a/relu_3x3_reduce
I0403 15:21:14.623687  2990 net.cpp:148] Top shape: 24 96 28 28 (1806336)
I0403 15:21:14.623702  2990 net.cpp:156] Memory required for data: 515408928
I0403 15:21:14.623716  2990 layer_factory.hpp:77] Creating layer inception_3a/3x3
I0403 15:21:14.623739  2990 net.cpp:91] Creating Layer inception_3a/3x3
I0403 15:21:14.623756  2990 net.cpp:425] inception_3a/3x3 <- inception_3a/3x3_reduce
I0403 15:21:14.623777  2990 net.cpp:399] inception_3a/3x3 -> inception_3a/3x3
I0403 15:21:14.625461  2990 net.cpp:141] Setting up inception_3a/3x3
I0403 15:21:14.625493  2990 net.cpp:148] Top shape: 24 128 28 28 (2408448)
I0403 15:21:14.625509  2990 net.cpp:156] Memory required for data: 525042720
I0403 15:21:14.625527  2990 layer_factory.hpp:77] Creating layer inception_3a/relu_3x3
I0403 15:21:14.625545  2990 net.cpp:91] Creating Layer inception_3a/relu_3x3
I0403 15:21:14.625562  2990 net.cpp:425] inception_3a/relu_3x3 <- inception_3a/3x3
I0403 15:21:14.625582  2990 net.cpp:386] inception_3a/relu_3x3 -> inception_3a/3x3 (in-place)
I0403 15:21:14.625916  2990 net.cpp:141] Setting up inception_3a/relu_3x3
I0403 15:21:14.625944  2990 net.cpp:148] Top shape: 24 128 28 28 (2408448)
I0403 15:21:14.625960  2990 net.cpp:156] Memory required for data: 534676512
I0403 15:21:14.625975  2990 layer_factory.hpp:77] Creating layer inception_3a/5x5_reduce
I0403 15:21:14.625998  2990 net.cpp:91] Creating Layer inception_3a/5x5_reduce
I0403 15:21:14.626014  2990 net.cpp:425] inception_3a/5x5_reduce <- pool2/3x3_s2_pool2/3x3_s2_0_split_2
I0403 15:21:14.626034  2990 net.cpp:399] inception_3a/5x5_reduce -> inception_3a/5x5_reduce
I0403 15:21:14.626976  2990 net.cpp:141] Setting up inception_3a/5x5_reduce
I0403 15:21:14.627002  2990 net.cpp:148] Top shape: 24 16 28 28 (301056)
I0403 15:21:14.627017  2990 net.cpp:156] Memory required for data: 535880736
I0403 15:21:14.627037  2990 layer_factory.hpp:77] Creating layer inception_3a/relu_5x5_reduce
I0403 15:21:14.627054  2990 net.cpp:91] Creating Layer inception_3a/relu_5x5_reduce
I0403 15:21:14.627070  2990 net.cpp:425] inception_3a/relu_5x5_reduce <- inception_3a/5x5_reduce
I0403 15:21:14.627090  2990 net.cpp:386] inception_3a/relu_5x5_reduce -> inception_3a/5x5_reduce (in-place)
I0403 15:21:14.627389  2990 net.cpp:141] Setting up inception_3a/relu_5x5_reduce
I0403 15:21:14.627416  2990 net.cpp:148] Top shape: 24 16 28 28 (301056)
I0403 15:21:14.627431  2990 net.cpp:156] Memory required for data: 537084960
I0403 15:21:14.627446  2990 layer_factory.hpp:77] Creating layer inception_3a/5x5
I0403 15:21:14.627470  2990 net.cpp:91] Creating Layer inception_3a/5x5
I0403 15:21:14.627486  2990 net.cpp:425] inception_3a/5x5 <- inception_3a/5x5_reduce
I0403 15:21:14.627506  2990 net.cpp:399] inception_3a/5x5 -> inception_3a/5x5
I0403 15:21:14.628689  2990 net.cpp:141] Setting up inception_3a/5x5
I0403 15:21:14.628718  2990 net.cpp:148] Top shape: 24 32 28 28 (602112)
I0403 15:21:14.628736  2990 net.cpp:156] Memory required for data: 539493408
I0403 15:21:14.628754  2990 layer_factory.hpp:77] Creating layer inception_3a/relu_5x5
I0403 15:21:14.628772  2990 net.cpp:91] Creating Layer inception_3a/relu_5x5
I0403 15:21:14.628788  2990 net.cpp:425] inception_3a/relu_5x5 <- inception_3a/5x5
I0403 15:21:14.628808  2990 net.cpp:386] inception_3a/relu_5x5 -> inception_3a/5x5 (in-place)
I0403 15:21:14.628978  2990 net.cpp:141] Setting up inception_3a/relu_5x5
I0403 15:21:14.629004  2990 net.cpp:148] Top shape: 24 32 28 28 (602112)
I0403 15:21:14.629019  2990 net.cpp:156] Memory required for data: 541901856
I0403 15:21:14.629034  2990 layer_factory.hpp:77] Creating layer inception_3a/pool
I0403 15:21:14.629051  2990 net.cpp:91] Creating Layer inception_3a/pool
I0403 15:21:14.629081  2990 net.cpp:425] inception_3a/pool <- pool2/3x3_s2_pool2/3x3_s2_0_split_3
I0403 15:21:14.629102  2990 net.cpp:399] inception_3a/pool -> inception_3a/pool
I0403 15:21:14.629159  2990 net.cpp:141] Setting up inception_3a/pool
I0403 15:21:14.629182  2990 net.cpp:148] Top shape: 24 192 28 28 (3612672)
I0403 15:21:14.629197  2990 net.cpp:156] Memory required for data: 556352544
I0403 15:21:14.629214  2990 layer_factory.hpp:77] Creating layer inception_3a/pool_proj
I0403 15:21:14.629238  2990 net.cpp:91] Creating Layer inception_3a/pool_proj
I0403 15:21:14.629261  2990 net.cpp:425] inception_3a/pool_proj <- inception_3a/pool
I0403 15:21:14.629281  2990 net.cpp:399] inception_3a/pool_proj -> inception_3a/pool_proj
I0403 15:21:14.630285  2990 net.cpp:141] Setting up inception_3a/pool_proj
I0403 15:21:14.630314  2990 net.cpp:148] Top shape: 24 32 28 28 (602112)
I0403 15:21:14.630331  2990 net.cpp:156] Memory required for data: 558760992
I0403 15:21:14.630354  2990 layer_factory.hpp:77] Creating layer inception_3a/relu_pool_proj
I0403 15:21:14.630374  2990 net.cpp:91] Creating Layer inception_3a/relu_pool_proj
I0403 15:21:14.630390  2990 net.cpp:425] inception_3a/relu_pool_proj <- inception_3a/pool_proj
I0403 15:21:14.630410  2990 net.cpp:386] inception_3a/relu_pool_proj -> inception_3a/pool_proj (in-place)
I0403 15:21:14.630734  2990 net.cpp:141] Setting up inception_3a/relu_pool_proj
I0403 15:21:14.630764  2990 net.cpp:148] Top shape: 24 32 28 28 (602112)
I0403 15:21:14.630779  2990 net.cpp:156] Memory required for data: 561169440
I0403 15:21:14.630795  2990 layer_factory.hpp:77] Creating layer inception_3a/output
I0403 15:21:14.630813  2990 net.cpp:91] Creating Layer inception_3a/output
I0403 15:21:14.630830  2990 net.cpp:425] inception_3a/output <- inception_3a/1x1
I0403 15:21:14.630846  2990 net.cpp:425] inception_3a/output <- inception_3a/3x3
I0403 15:21:14.630862  2990 net.cpp:425] inception_3a/output <- inception_3a/5x5
I0403 15:21:14.630878  2990 net.cpp:425] inception_3a/output <- inception_3a/pool_proj
I0403 15:21:14.630898  2990 net.cpp:399] inception_3a/output -> inception_3a/output
I0403 15:21:14.630944  2990 net.cpp:141] Setting up inception_3a/output
I0403 15:21:14.630966  2990 net.cpp:148] Top shape: 24 256 28 28 (4816896)
I0403 15:21:14.630981  2990 net.cpp:156] Memory required for data: 580437024
I0403 15:21:14.630996  2990 layer_factory.hpp:77] Creating layer inception_3a/output_inception_3a/output_0_split
I0403 15:21:14.631016  2990 net.cpp:91] Creating Layer inception_3a/output_inception_3a/output_0_split
I0403 15:21:14.631033  2990 net.cpp:425] inception_3a/output_inception_3a/output_0_split <- inception_3a/output
I0403 15:21:14.631052  2990 net.cpp:399] inception_3a/output_inception_3a/output_0_split -> inception_3a/output_inception_3a/output_0_split_0
I0403 15:21:14.631072  2990 net.cpp:399] inception_3a/output_inception_3a/output_0_split -> inception_3a/output_inception_3a/output_0_split_1
I0403 15:21:14.631095  2990 net.cpp:399] inception_3a/output_inception_3a/output_0_split -> inception_3a/output_inception_3a/output_0_split_2
I0403 15:21:14.631117  2990 net.cpp:399] inception_3a/output_inception_3a/output_0_split -> inception_3a/output_inception_3a/output_0_split_3
I0403 15:21:14.631189  2990 net.cpp:141] Setting up inception_3a/output_inception_3a/output_0_split
I0403 15:21:14.631213  2990 net.cpp:148] Top shape: 24 256 28 28 (4816896)
I0403 15:21:14.631232  2990 net.cpp:148] Top shape: 24 256 28 28 (4816896)
I0403 15:21:14.631253  2990 net.cpp:148] Top shape: 24 256 28 28 (4816896)
I0403 15:21:14.631269  2990 net.cpp:148] Top shape: 24 256 28 28 (4816896)
I0403 15:21:14.631283  2990 net.cpp:156] Memory required for data: 657507360
I0403 15:21:14.631299  2990 layer_factory.hpp:77] Creating layer inception_3b/1x1
I0403 15:21:14.631321  2990 net.cpp:91] Creating Layer inception_3b/1x1
I0403 15:21:14.631338  2990 net.cpp:425] inception_3b/1x1 <- inception_3a/output_inception_3a/output_0_split_0
I0403 15:21:14.631357  2990 net.cpp:399] inception_3b/1x1 -> inception_3b/1x1
I0403 15:21:14.632488  2990 net.cpp:141] Setting up inception_3b/1x1
I0403 15:21:14.632526  2990 net.cpp:148] Top shape: 24 128 28 28 (2408448)
I0403 15:21:14.632545  2990 net.cpp:156] Memory required for data: 667141152
I0403 15:21:14.632565  2990 layer_factory.hpp:77] Creating layer inception_3b/relu_1x1
I0403 15:21:14.632583  2990 net.cpp:91] Creating Layer inception_3b/relu_1x1
I0403 15:21:14.632599  2990 net.cpp:425] inception_3b/relu_1x1 <- inception_3b/1x1
I0403 15:21:14.632616  2990 net.cpp:386] inception_3b/relu_1x1 -> inception_3b/1x1 (in-place)
I0403 15:21:14.632791  2990 net.cpp:141] Setting up inception_3b/relu_1x1
I0403 15:21:14.632818  2990 net.cpp:148] Top shape: 24 128 28 28 (2408448)
I0403 15:21:14.632834  2990 net.cpp:156] Memory required for data: 676774944
I0403 15:21:14.632849  2990 layer_factory.hpp:77] Creating layer inception_3b/3x3_reduce
I0403 15:21:14.632871  2990 net.cpp:91] Creating Layer inception_3b/3x3_reduce
I0403 15:21:14.632889  2990 net.cpp:425] inception_3b/3x3_reduce <- inception_3a/output_inception_3a/output_0_split_1
I0403 15:21:14.632910  2990 net.cpp:399] inception_3b/3x3_reduce -> inception_3b/3x3_reduce
I0403 15:21:14.634084  2990 net.cpp:141] Setting up inception_3b/3x3_reduce
I0403 15:21:14.634114  2990 net.cpp:148] Top shape: 24 128 28 28 (2408448)
I0403 15:21:14.634129  2990 net.cpp:156] Memory required for data: 686408736
I0403 15:21:14.634147  2990 layer_factory.hpp:77] Creating layer inception_3b/relu_3x3_reduce
I0403 15:21:14.634169  2990 net.cpp:91] Creating Layer inception_3b/relu_3x3_reduce
I0403 15:21:14.634186  2990 net.cpp:425] inception_3b/relu_3x3_reduce <- inception_3b/3x3_reduce
I0403 15:21:14.634205  2990 net.cpp:386] inception_3b/relu_3x3_reduce -> inception_3b/3x3_reduce (in-place)
I0403 15:21:14.634388  2990 net.cpp:141] Setting up inception_3b/relu_3x3_reduce
I0403 15:21:14.634414  2990 net.cpp:148] Top shape: 24 128 28 28 (2408448)
I0403 15:21:14.634430  2990 net.cpp:156] Memory required for data: 696042528
I0403 15:21:14.634445  2990 layer_factory.hpp:77] Creating layer inception_3b/3x3
I0403 15:21:14.634470  2990 net.cpp:91] Creating Layer inception_3b/3x3
I0403 15:21:14.634490  2990 net.cpp:425] inception_3b/3x3 <- inception_3b/3x3_reduce
I0403 15:21:14.634511  2990 net.cpp:399] inception_3b/3x3 -> inception_3b/3x3
I0403 15:21:14.637467  2990 net.cpp:141] Setting up inception_3b/3x3
I0403 15:21:14.637500  2990 net.cpp:148] Top shape: 24 192 28 28 (3612672)
I0403 15:21:14.637516  2990 net.cpp:156] Memory required for data: 710493216
I0403 15:21:14.637536  2990 layer_factory.hpp:77] Creating layer inception_3b/relu_3x3
I0403 15:21:14.637555  2990 net.cpp:91] Creating Layer inception_3b/relu_3x3
I0403 15:21:14.637573  2990 net.cpp:425] inception_3b/relu_3x3 <- inception_3b/3x3
I0403 15:21:14.637593  2990 net.cpp:386] inception_3b/relu_3x3 -> inception_3b/3x3 (in-place)
I0403 15:21:14.637905  2990 net.cpp:141] Setting up inception_3b/relu_3x3
I0403 15:21:14.637935  2990 net.cpp:148] Top shape: 24 192 28 28 (3612672)
I0403 15:21:14.637951  2990 net.cpp:156] Memory required for data: 724943904
I0403 15:21:14.637967  2990 layer_factory.hpp:77] Creating layer inception_3b/5x5_reduce
I0403 15:21:14.637994  2990 net.cpp:91] Creating Layer inception_3b/5x5_reduce
I0403 15:21:14.638011  2990 net.cpp:425] inception_3b/5x5_reduce <- inception_3a/output_inception_3a/output_0_split_2
I0403 15:21:14.638031  2990 net.cpp:399] inception_3b/5x5_reduce -> inception_3b/5x5_reduce
I0403 15:21:14.639075  2990 net.cpp:141] Setting up inception_3b/5x5_reduce
I0403 15:21:14.639106  2990 net.cpp:148] Top shape: 24 32 28 28 (602112)
I0403 15:21:14.639123  2990 net.cpp:156] Memory required for data: 727352352
I0403 15:21:14.639142  2990 layer_factory.hpp:77] Creating layer inception_3b/relu_5x5_reduce
I0403 15:21:14.639160  2990 net.cpp:91] Creating Layer inception_3b/relu_5x5_reduce
I0403 15:21:14.639178  2990 net.cpp:425] inception_3b/relu_5x5_reduce <- inception_3b/5x5_reduce
I0403 15:21:14.639197  2990 net.cpp:386] inception_3b/relu_5x5_reduce -> inception_3b/5x5_reduce (in-place)
I0403 15:21:14.639397  2990 net.cpp:141] Setting up inception_3b/relu_5x5_reduce
I0403 15:21:14.639423  2990 net.cpp:148] Top shape: 24 32 28 28 (602112)
I0403 15:21:14.639439  2990 net.cpp:156] Memory required for data: 729760800
I0403 15:21:14.639456  2990 layer_factory.hpp:77] Creating layer inception_3b/5x5
I0403 15:21:14.639478  2990 net.cpp:91] Creating Layer inception_3b/5x5
I0403 15:21:14.639497  2990 net.cpp:425] inception_3b/5x5 <- inception_3b/5x5_reduce
I0403 15:21:14.639518  2990 net.cpp:399] inception_3b/5x5 -> inception_3b/5x5
I0403 15:21:14.641515  2990 net.cpp:141] Setting up inception_3b/5x5
I0403 15:21:14.641544  2990 net.cpp:148] Top shape: 24 96 28 28 (1806336)
I0403 15:21:14.641561  2990 net.cpp:156] Memory required for data: 736986144
I0403 15:21:14.641580  2990 layer_factory.hpp:77] Creating layer inception_3b/relu_5x5
I0403 15:21:14.641602  2990 net.cpp:91] Creating Layer inception_3b/relu_5x5
I0403 15:21:14.641619  2990 net.cpp:425] inception_3b/relu_5x5 <- inception_3b/5x5
I0403 15:21:14.641636  2990 net.cpp:386] inception_3b/relu_5x5 -> inception_3b/5x5 (in-place)
I0403 15:21:14.641834  2990 net.cpp:141] Setting up inception_3b/relu_5x5
I0403 15:21:14.641861  2990 net.cpp:148] Top shape: 24 96 28 28 (1806336)
I0403 15:21:14.641877  2990 net.cpp:156] Memory required for data: 744211488
I0403 15:21:14.641893  2990 layer_factory.hpp:77] Creating layer inception_3b/pool
I0403 15:21:14.641911  2990 net.cpp:91] Creating Layer inception_3b/pool
I0403 15:21:14.641928  2990 net.cpp:425] inception_3b/pool <- inception_3a/output_inception_3a/output_0_split_3
I0403 15:21:14.641947  2990 net.cpp:399] inception_3b/pool -> inception_3b/pool
I0403 15:21:14.642005  2990 net.cpp:141] Setting up inception_3b/pool
I0403 15:21:14.642030  2990 net.cpp:148] Top shape: 24 256 28 28 (4816896)
I0403 15:21:14.642045  2990 net.cpp:156] Memory required for data: 763479072
I0403 15:21:14.642060  2990 layer_factory.hpp:77] Creating layer inception_3b/pool_proj
I0403 15:21:14.642083  2990 net.cpp:91] Creating Layer inception_3b/pool_proj
I0403 15:21:14.642102  2990 net.cpp:425] inception_3b/pool_proj <- inception_3b/pool
I0403 15:21:14.642120  2990 net.cpp:399] inception_3b/pool_proj -> inception_3b/pool_proj
I0403 15:21:14.643208  2990 net.cpp:141] Setting up inception_3b/pool_proj
I0403 15:21:14.643236  2990 net.cpp:148] Top shape: 24 64 28 28 (1204224)
I0403 15:21:14.643259  2990 net.cpp:156] Memory required for data: 768295968
I0403 15:21:14.643277  2990 layer_factory.hpp:77] Creating layer inception_3b/relu_pool_proj
I0403 15:21:14.643296  2990 net.cpp:91] Creating Layer inception_3b/relu_pool_proj
I0403 15:21:14.643313  2990 net.cpp:425] inception_3b/relu_pool_proj <- inception_3b/pool_proj
I0403 15:21:14.643334  2990 net.cpp:386] inception_3b/relu_pool_proj -> inception_3b/pool_proj (in-place)
I0403 15:21:14.643790  2990 net.cpp:141] Setting up inception_3b/relu_pool_proj
I0403 15:21:14.643817  2990 net.cpp:148] Top shape: 24 64 28 28 (1204224)
I0403 15:21:14.643834  2990 net.cpp:156] Memory required for data: 773112864
I0403 15:21:14.643849  2990 layer_factory.hpp:77] Creating layer inception_3b/output
I0403 15:21:14.643867  2990 net.cpp:91] Creating Layer inception_3b/output
I0403 15:21:14.643884  2990 net.cpp:425] inception_3b/output <- inception_3b/1x1
I0403 15:21:14.643901  2990 net.cpp:425] inception_3b/output <- inception_3b/3x3
I0403 15:21:14.643918  2990 net.cpp:425] inception_3b/output <- inception_3b/5x5
I0403 15:21:14.643935  2990 net.cpp:425] inception_3b/output <- inception_3b/pool_proj
I0403 15:21:14.643955  2990 net.cpp:399] inception_3b/output -> inception_3b/output
I0403 15:21:14.643999  2990 net.cpp:141] Setting up inception_3b/output
I0403 15:21:14.644026  2990 net.cpp:148] Top shape: 24 480 28 28 (9031680)
I0403 15:21:14.644042  2990 net.cpp:156] Memory required for data: 809239584
I0403 15:21:14.644057  2990 layer_factory.hpp:77] Creating layer pool3/3x3_s2
I0403 15:21:14.644075  2990 net.cpp:91] Creating Layer pool3/3x3_s2
I0403 15:21:14.644091  2990 net.cpp:425] pool3/3x3_s2 <- inception_3b/output
I0403 15:21:14.644127  2990 net.cpp:399] pool3/3x3_s2 -> pool3/3x3_s2
I0403 15:21:14.644186  2990 net.cpp:141] Setting up pool3/3x3_s2
I0403 15:21:14.644210  2990 net.cpp:148] Top shape: 24 480 14 14 (2257920)
I0403 15:21:14.644227  2990 net.cpp:156] Memory required for data: 818271264
I0403 15:21:14.644244  2990 layer_factory.hpp:77] Creating layer pool3/3x3_s2_pool3/3x3_s2_0_split
I0403 15:21:14.644268  2990 net.cpp:91] Creating Layer pool3/3x3_s2_pool3/3x3_s2_0_split
I0403 15:21:14.644285  2990 net.cpp:425] pool3/3x3_s2_pool3/3x3_s2_0_split <- pool3/3x3_s2
I0403 15:21:14.644304  2990 net.cpp:399] pool3/3x3_s2_pool3/3x3_s2_0_split -> pool3/3x3_s2_pool3/3x3_s2_0_split_0
I0403 15:21:14.644325  2990 net.cpp:399] pool3/3x3_s2_pool3/3x3_s2_0_split -> pool3/3x3_s2_pool3/3x3_s2_0_split_1
I0403 15:21:14.644345  2990 net.cpp:399] pool3/3x3_s2_pool3/3x3_s2_0_split -> pool3/3x3_s2_pool3/3x3_s2_0_split_2
I0403 15:21:14.644366  2990 net.cpp:399] pool3/3x3_s2_pool3/3x3_s2_0_split -> pool3/3x3_s2_pool3/3x3_s2_0_split_3
I0403 15:21:14.644444  2990 net.cpp:141] Setting up pool3/3x3_s2_pool3/3x3_s2_0_split
I0403 15:21:14.644469  2990 net.cpp:148] Top shape: 24 480 14 14 (2257920)
I0403 15:21:14.644485  2990 net.cpp:148] Top shape: 24 480 14 14 (2257920)
I0403 15:21:14.644501  2990 net.cpp:148] Top shape: 24 480 14 14 (2257920)
I0403 15:21:14.644518  2990 net.cpp:148] Top shape: 24 480 14 14 (2257920)
I0403 15:21:14.644533  2990 net.cpp:156] Memory required for data: 854397984
I0403 15:21:14.644548  2990 layer_factory.hpp:77] Creating layer inception_4a/1x1
I0403 15:21:14.644572  2990 net.cpp:91] Creating Layer inception_4a/1x1
I0403 15:21:14.644588  2990 net.cpp:425] inception_4a/1x1 <- pool3/3x3_s2_pool3/3x3_s2_0_split_0
I0403 15:21:14.644611  2990 net.cpp:399] inception_4a/1x1 -> inception_4a/1x1
I0403 15:21:14.646322  2990 net.cpp:141] Setting up inception_4a/1x1
I0403 15:21:14.646352  2990 net.cpp:148] Top shape: 24 192 14 14 (903168)
I0403 15:21:14.646368  2990 net.cpp:156] Memory required for data: 858010656
I0403 15:21:14.646387  2990 layer_factory.hpp:77] Creating layer inception_4a/relu_1x1
I0403 15:21:14.646409  2990 net.cpp:91] Creating Layer inception_4a/relu_1x1
I0403 15:21:14.646425  2990 net.cpp:425] inception_4a/relu_1x1 <- inception_4a/1x1
I0403 15:21:14.646443  2990 net.cpp:386] inception_4a/relu_1x1 -> inception_4a/1x1 (in-place)
I0403 15:21:14.646621  2990 net.cpp:141] Setting up inception_4a/relu_1x1
I0403 15:21:14.646651  2990 net.cpp:148] Top shape: 24 192 14 14 (903168)
I0403 15:21:14.646667  2990 net.cpp:156] Memory required for data: 861623328
I0403 15:21:14.646683  2990 layer_factory.hpp:77] Creating layer inception_4a/3x3_reduce
I0403 15:21:14.646706  2990 net.cpp:91] Creating Layer inception_4a/3x3_reduce
I0403 15:21:14.646724  2990 net.cpp:425] inception_4a/3x3_reduce <- pool3/3x3_s2_pool3/3x3_s2_0_split_1
I0403 15:21:14.646744  2990 net.cpp:399] inception_4a/3x3_reduce -> inception_4a/3x3_reduce
I0403 15:21:14.648039  2990 net.cpp:141] Setting up inception_4a/3x3_reduce
I0403 15:21:14.648068  2990 net.cpp:148] Top shape: 24 96 14 14 (451584)
I0403 15:21:14.648084  2990 net.cpp:156] Memory required for data: 863429664
I0403 15:21:14.648111  2990 layer_factory.hpp:77] Creating layer inception_4a/relu_3x3_reduce
I0403 15:21:14.648133  2990 net.cpp:91] Creating Layer inception_4a/relu_3x3_reduce
I0403 15:21:14.648149  2990 net.cpp:425] inception_4a/relu_3x3_reduce <- inception_4a/3x3_reduce
I0403 15:21:14.648170  2990 net.cpp:386] inception_4a/relu_3x3_reduce -> inception_4a/3x3_reduce (in-place)
I0403 15:21:14.648355  2990 net.cpp:141] Setting up inception_4a/relu_3x3_reduce
I0403 15:21:14.648380  2990 net.cpp:148] Top shape: 24 96 14 14 (451584)
I0403 15:21:14.648396  2990 net.cpp:156] Memory required for data: 865236000
I0403 15:21:14.648411  2990 layer_factory.hpp:77] Creating layer inception_4a/3x3
I0403 15:21:14.648435  2990 net.cpp:91] Creating Layer inception_4a/3x3
I0403 15:21:14.648454  2990 net.cpp:425] inception_4a/3x3 <- inception_4a/3x3_reduce
I0403 15:21:14.648475  2990 net.cpp:399] inception_4a/3x3 -> inception_4a/3x3
I0403 15:21:14.651211  2990 net.cpp:141] Setting up inception_4a/3x3
I0403 15:21:14.651244  2990 net.cpp:148] Top shape: 24 208 14 14 (978432)
I0403 15:21:14.651262  2990 net.cpp:156] Memory required for data: 869149728
I0403 15:21:14.651283  2990 layer_factory.hpp:77] Creating layer inception_4a/relu_3x3
I0403 15:21:14.651304  2990 net.cpp:91] Creating Layer inception_4a/relu_3x3
I0403 15:21:14.651321  2990 net.cpp:425] inception_4a/relu_3x3 <- inception_4a/3x3
I0403 15:21:14.651340  2990 net.cpp:386] inception_4a/relu_3x3 -> inception_4a/3x3 (in-place)
I0403 15:21:14.651721  2990 net.cpp:141] Setting up inception_4a/relu_3x3
I0403 15:21:14.651747  2990 net.cpp:148] Top shape: 24 208 14 14 (978432)
I0403 15:21:14.651762  2990 net.cpp:156] Memory required for data: 873063456
I0403 15:21:14.651778  2990 layer_factory.hpp:77] Creating layer inception_4a/5x5_reduce
I0403 15:21:14.651804  2990 net.cpp:91] Creating Layer inception_4a/5x5_reduce
I0403 15:21:14.651823  2990 net.cpp:425] inception_4a/5x5_reduce <- pool3/3x3_s2_pool3/3x3_s2_0_split_2
I0403 15:21:14.651844  2990 net.cpp:399] inception_4a/5x5_reduce -> inception_4a/5x5_reduce
I0403 15:21:14.652981  2990 net.cpp:141] Setting up inception_4a/5x5_reduce
I0403 15:21:14.653010  2990 net.cpp:148] Top shape: 24 16 14 14 (75264)
I0403 15:21:14.653028  2990 net.cpp:156] Memory required for data: 873364512
I0403 15:21:14.653046  2990 layer_factory.hpp:77] Creating layer inception_4a/relu_5x5_reduce
I0403 15:21:14.653064  2990 net.cpp:91] Creating Layer inception_4a/relu_5x5_reduce
I0403 15:21:14.653080  2990 net.cpp:425] inception_4a/relu_5x5_reduce <- inception_4a/5x5_reduce
I0403 15:21:14.653100  2990 net.cpp:386] inception_4a/relu_5x5_reduce -> inception_4a/5x5_reduce (in-place)
I0403 15:21:14.653282  2990 net.cpp:141] Setting up inception_4a/relu_5x5_reduce
I0403 15:21:14.653307  2990 net.cpp:148] Top shape: 24 16 14 14 (75264)
I0403 15:21:14.653323  2990 net.cpp:156] Memory required for data: 873665568
I0403 15:21:14.653338  2990 layer_factory.hpp:77] Creating layer inception_4a/5x5
I0403 15:21:14.653360  2990 net.cpp:91] Creating Layer inception_4a/5x5
I0403 15:21:14.653378  2990 net.cpp:425] inception_4a/5x5 <- inception_4a/5x5_reduce
I0403 15:21:14.653399  2990 net.cpp:399] inception_4a/5x5 -> inception_4a/5x5
I0403 15:21:14.654603  2990 net.cpp:141] Setting up inception_4a/5x5
I0403 15:21:14.654631  2990 net.cpp:148] Top shape: 24 48 14 14 (225792)
I0403 15:21:14.654646  2990 net.cpp:156] Memory required for data: 874568736
I0403 15:21:14.654665  2990 layer_factory.hpp:77] Creating layer inception_4a/relu_5x5
I0403 15:21:14.654685  2990 net.cpp:91] Creating Layer inception_4a/relu_5x5
I0403 15:21:14.654702  2990 net.cpp:425] inception_4a/relu_5x5 <- inception_4a/5x5
I0403 15:21:14.654719  2990 net.cpp:386] inception_4a/relu_5x5 -> inception_4a/5x5 (in-place)
I0403 15:21:14.654893  2990 net.cpp:141] Setting up inception_4a/relu_5x5
I0403 15:21:14.654918  2990 net.cpp:148] Top shape: 24 48 14 14 (225792)
I0403 15:21:14.654933  2990 net.cpp:156] Memory required for data: 875471904
I0403 15:21:14.654948  2990 layer_factory.hpp:77] Creating layer inception_4a/pool
I0403 15:21:14.654968  2990 net.cpp:91] Creating Layer inception_4a/pool
I0403 15:21:14.654985  2990 net.cpp:425] inception_4a/pool <- pool3/3x3_s2_pool3/3x3_s2_0_split_3
I0403 15:21:14.655004  2990 net.cpp:399] inception_4a/pool -> inception_4a/pool
I0403 15:21:14.655066  2990 net.cpp:141] Setting up inception_4a/pool
I0403 15:21:14.655089  2990 net.cpp:148] Top shape: 24 480 14 14 (2257920)
I0403 15:21:14.655103  2990 net.cpp:156] Memory required for data: 884503584
I0403 15:21:14.655118  2990 layer_factory.hpp:77] Creating layer inception_4a/pool_proj
I0403 15:21:14.655140  2990 net.cpp:91] Creating Layer inception_4a/pool_proj
I0403 15:21:14.655158  2990 net.cpp:425] inception_4a/pool_proj <- inception_4a/pool
I0403 15:21:14.655179  2990 net.cpp:399] inception_4a/pool_proj -> inception_4a/pool_proj
I0403 15:21:14.656448  2990 net.cpp:141] Setting up inception_4a/pool_proj
I0403 15:21:14.656477  2990 net.cpp:148] Top shape: 24 64 14 14 (301056)
I0403 15:21:14.656508  2990 net.cpp:156] Memory required for data: 885707808
I0403 15:21:14.656527  2990 layer_factory.hpp:77] Creating layer inception_4a/relu_pool_proj
I0403 15:21:14.656550  2990 net.cpp:91] Creating Layer inception_4a/relu_pool_proj
I0403 15:21:14.656568  2990 net.cpp:425] inception_4a/relu_pool_proj <- inception_4a/pool_proj
I0403 15:21:14.656586  2990 net.cpp:386] inception_4a/relu_pool_proj -> inception_4a/pool_proj (in-place)
I0403 15:21:14.656868  2990 net.cpp:141] Setting up inception_4a/relu_pool_proj
I0403 15:21:14.656895  2990 net.cpp:148] Top shape: 24 64 14 14 (301056)
I0403 15:21:14.656910  2990 net.cpp:156] Memory required for data: 886912032
I0403 15:21:14.656925  2990 layer_factory.hpp:77] Creating layer inception_4a/output
I0403 15:21:14.656942  2990 net.cpp:91] Creating Layer inception_4a/output
I0403 15:21:14.656975  2990 net.cpp:425] inception_4a/output <- inception_4a/1x1
I0403 15:21:14.656992  2990 net.cpp:425] inception_4a/output <- inception_4a/3x3
I0403 15:21:14.657009  2990 net.cpp:425] inception_4a/output <- inception_4a/5x5
I0403 15:21:14.657026  2990 net.cpp:425] inception_4a/output <- inception_4a/pool_proj
I0403 15:21:14.657043  2990 net.cpp:399] inception_4a/output -> inception_4a/output
I0403 15:21:14.657088  2990 net.cpp:141] Setting up inception_4a/output
I0403 15:21:14.657114  2990 net.cpp:148] Top shape: 24 512 14 14 (2408448)
I0403 15:21:14.657130  2990 net.cpp:156] Memory required for data: 896545824
I0403 15:21:14.657146  2990 layer_factory.hpp:77] Creating layer inception_4a/output_inception_4a/output_0_split
I0403 15:21:14.657166  2990 net.cpp:91] Creating Layer inception_4a/output_inception_4a/output_0_split
I0403 15:21:14.657181  2990 net.cpp:425] inception_4a/output_inception_4a/output_0_split <- inception_4a/output
I0403 15:21:14.657202  2990 net.cpp:399] inception_4a/output_inception_4a/output_0_split -> inception_4a/output_inception_4a/output_0_split_0
I0403 15:21:14.657227  2990 net.cpp:399] inception_4a/output_inception_4a/output_0_split -> inception_4a/output_inception_4a/output_0_split_1
I0403 15:21:14.657265  2990 net.cpp:399] inception_4a/output_inception_4a/output_0_split -> inception_4a/output_inception_4a/output_0_split_2
I0403 15:21:14.657287  2990 net.cpp:399] inception_4a/output_inception_4a/output_0_split -> inception_4a/output_inception_4a/output_0_split_3
I0403 15:21:14.657307  2990 net.cpp:399] inception_4a/output_inception_4a/output_0_split -> inception_4a/output_inception_4a/output_0_split_4
I0403 15:21:14.657398  2990 net.cpp:141] Setting up inception_4a/output_inception_4a/output_0_split
I0403 15:21:14.657421  2990 net.cpp:148] Top shape: 24 512 14 14 (2408448)
I0403 15:21:14.657441  2990 net.cpp:148] Top shape: 24 512 14 14 (2408448)
I0403 15:21:14.657459  2990 net.cpp:148] Top shape: 24 512 14 14 (2408448)
I0403 15:21:14.657475  2990 net.cpp:148] Top shape: 24 512 14 14 (2408448)
I0403 15:21:14.657491  2990 net.cpp:148] Top shape: 24 512 14 14 (2408448)
I0403 15:21:14.657505  2990 net.cpp:156] Memory required for data: 944714784
I0403 15:21:14.657521  2990 layer_factory.hpp:77] Creating layer loss1/ave_pool
I0403 15:21:14.657538  2990 net.cpp:91] Creating Layer loss1/ave_pool
I0403 15:21:14.657554  2990 net.cpp:425] loss1/ave_pool <- inception_4a/output_inception_4a/output_0_split_0
I0403 15:21:14.657574  2990 net.cpp:399] loss1/ave_pool -> loss1/ave_pool
I0403 15:21:14.657776  2990 net.cpp:141] Setting up loss1/ave_pool
I0403 15:21:14.657802  2990 net.cpp:148] Top shape: 24 512 4 4 (196608)
I0403 15:21:14.657819  2990 net.cpp:156] Memory required for data: 945501216
I0403 15:21:14.657832  2990 layer_factory.hpp:77] Creating layer loss1/conv
I0403 15:21:14.657855  2990 net.cpp:91] Creating Layer loss1/conv
I0403 15:21:14.657872  2990 net.cpp:425] loss1/conv <- loss1/ave_pool
I0403 15:21:14.657893  2990 net.cpp:399] loss1/conv -> loss1/conv
I0403 15:21:14.659366  2990 net.cpp:141] Setting up loss1/conv
I0403 15:21:14.659394  2990 net.cpp:148] Top shape: 24 128 4 4 (49152)
I0403 15:21:14.659423  2990 net.cpp:156] Memory required for data: 945697824
I0403 15:21:14.659443  2990 layer_factory.hpp:77] Creating layer loss1/relu_conv
I0403 15:21:14.659464  2990 net.cpp:91] Creating Layer loss1/relu_conv
I0403 15:21:14.659482  2990 net.cpp:425] loss1/relu_conv <- loss1/conv
I0403 15:21:14.659498  2990 net.cpp:386] loss1/relu_conv -> loss1/conv (in-place)
I0403 15:21:14.659778  2990 net.cpp:141] Setting up loss1/relu_conv
I0403 15:21:14.659806  2990 net.cpp:148] Top shape: 24 128 4 4 (49152)
I0403 15:21:14.659821  2990 net.cpp:156] Memory required for data: 945894432
I0403 15:21:14.659837  2990 layer_factory.hpp:77] Creating layer loss1/fc
I0403 15:21:14.659862  2990 net.cpp:91] Creating Layer loss1/fc
I0403 15:21:14.659881  2990 net.cpp:425] loss1/fc <- loss1/conv
I0403 15:21:14.659901  2990 net.cpp:399] loss1/fc -> loss1/fc
I0403 15:21:14.677711  2990 net.cpp:141] Setting up loss1/fc
I0403 15:21:14.677755  2990 net.cpp:148] Top shape: 24 1024 (24576)
I0403 15:21:14.677772  2990 net.cpp:156] Memory required for data: 945992736
I0403 15:21:14.677791  2990 layer_factory.hpp:77] Creating layer loss1/relu_fc
I0403 15:21:14.677810  2990 net.cpp:91] Creating Layer loss1/relu_fc
I0403 15:21:14.677826  2990 net.cpp:425] loss1/relu_fc <- loss1/fc
I0403 15:21:14.677845  2990 net.cpp:386] loss1/relu_fc -> loss1/fc (in-place)
I0403 15:21:14.678040  2990 net.cpp:141] Setting up loss1/relu_fc
I0403 15:21:14.678068  2990 net.cpp:148] Top shape: 24 1024 (24576)
I0403 15:21:14.678083  2990 net.cpp:156] Memory required for data: 946091040
I0403 15:21:14.678099  2990 layer_factory.hpp:77] Creating layer loss1/drop_fc
I0403 15:21:14.678127  2990 net.cpp:91] Creating Layer loss1/drop_fc
I0403 15:21:14.678144  2990 net.cpp:425] loss1/drop_fc <- loss1/fc
I0403 15:21:14.678161  2990 net.cpp:386] loss1/drop_fc -> loss1/fc (in-place)
I0403 15:21:14.678215  2990 net.cpp:141] Setting up loss1/drop_fc
I0403 15:21:14.678242  2990 net.cpp:148] Top shape: 24 1024 (24576)
I0403 15:21:14.678259  2990 net.cpp:156] Memory required for data: 946189344
I0403 15:21:14.678274  2990 layer_factory.hpp:77] Creating layer loss1/classifier_plantvillage
I0403 15:21:14.678294  2990 net.cpp:91] Creating Layer loss1/classifier_plantvillage
I0403 15:21:14.678310  2990 net.cpp:425] loss1/classifier_plantvillage <- loss1/fc
I0403 15:21:14.678331  2990 net.cpp:399] loss1/classifier_plantvillage -> loss1/classifier_plantvillage
I0403 15:21:14.679232  2990 net.cpp:141] Setting up loss1/classifier_plantvillage
I0403 15:21:14.679265  2990 net.cpp:148] Top shape: 24 38 (912)
I0403 15:21:14.679280  2990 net.cpp:156] Memory required for data: 946192992
I0403 15:21:14.679299  2990 layer_factory.hpp:77] Creating layer loss1/classifier_plantvillage_loss1/classifier_plantvillage_0_split
I0403 15:21:14.679319  2990 net.cpp:91] Creating Layer loss1/classifier_plantvillage_loss1/classifier_plantvillage_0_split
I0403 15:21:14.679337  2990 net.cpp:425] loss1/classifier_plantvillage_loss1/classifier_plantvillage_0_split <- loss1/classifier_plantvillage
I0403 15:21:14.679355  2990 net.cpp:399] loss1/classifier_plantvillage_loss1/classifier_plantvillage_0_split -> loss1/classifier_plantvillage_loss1/classifier_plantvillage_0_split_0
I0403 15:21:14.679376  2990 net.cpp:399] loss1/classifier_plantvillage_loss1/classifier_plantvillage_0_split -> loss1/classifier_plantvillage_loss1/classifier_plantvillage_0_split_1
I0403 15:21:14.679397  2990 net.cpp:399] loss1/classifier_plantvillage_loss1/classifier_plantvillage_0_split -> loss1/classifier_plantvillage_loss1/classifier_plantvillage_0_split_2
I0403 15:21:14.679466  2990 net.cpp:141] Setting up loss1/classifier_plantvillage_loss1/classifier_plantvillage_0_split
I0403 15:21:14.679488  2990 net.cpp:148] Top shape: 24 38 (912)
I0403 15:21:14.679505  2990 net.cpp:148] Top shape: 24 38 (912)
I0403 15:21:14.679520  2990 net.cpp:148] Top shape: 24 38 (912)
I0403 15:21:14.679534  2990 net.cpp:156] Memory required for data: 946203936
I0403 15:21:14.679549  2990 layer_factory.hpp:77] Creating layer inception_4b/1x1
I0403 15:21:14.679572  2990 net.cpp:91] Creating Layer inception_4b/1x1
I0403 15:21:14.679608  2990 net.cpp:425] inception_4b/1x1 <- inception_4a/output_inception_4a/output_0_split_1
I0403 15:21:14.679630  2990 net.cpp:399] inception_4b/1x1 -> inception_4b/1x1
I0403 15:21:14.681407  2990 net.cpp:141] Setting up inception_4b/1x1
I0403 15:21:14.681437  2990 net.cpp:148] Top shape: 24 160 14 14 (752640)
I0403 15:21:14.681453  2990 net.cpp:156] Memory required for data: 949214496
I0403 15:21:14.681471  2990 layer_factory.hpp:77] Creating layer inception_4b/relu_1x1
I0403 15:21:14.681489  2990 net.cpp:91] Creating Layer inception_4b/relu_1x1
I0403 15:21:14.681505  2990 net.cpp:425] inception_4b/relu_1x1 <- inception_4b/1x1
I0403 15:21:14.681524  2990 net.cpp:386] inception_4b/relu_1x1 -> inception_4b/1x1 (in-place)
I0403 15:21:14.681699  2990 net.cpp:141] Setting up inception_4b/relu_1x1
I0403 15:21:14.681723  2990 net.cpp:148] Top shape: 24 160 14 14 (752640)
I0403 15:21:14.681738  2990 net.cpp:156] Memory required for data: 952225056
I0403 15:21:14.681752  2990 layer_factory.hpp:77] Creating layer inception_4b/3x3_reduce
I0403 15:21:14.681774  2990 net.cpp:91] Creating Layer inception_4b/3x3_reduce
I0403 15:21:14.681792  2990 net.cpp:425] inception_4b/3x3_reduce <- inception_4a/output_inception_4a/output_0_split_2
I0403 15:21:14.681813  2990 net.cpp:399] inception_4b/3x3_reduce -> inception_4b/3x3_reduce
I0403 15:21:14.683182  2990 net.cpp:141] Setting up inception_4b/3x3_reduce
I0403 15:21:14.683208  2990 net.cpp:148] Top shape: 24 112 14 14 (526848)
I0403 15:21:14.683225  2990 net.cpp:156] Memory required for data: 954332448
I0403 15:21:14.683248  2990 layer_factory.hpp:77] Creating layer inception_4b/relu_3x3_reduce
I0403 15:21:14.683266  2990 net.cpp:91] Creating Layer inception_4b/relu_3x3_reduce
I0403 15:21:14.683284  2990 net.cpp:425] inception_4b/relu_3x3_reduce <- inception_4b/3x3_reduce
I0403 15:21:14.683305  2990 net.cpp:386] inception_4b/relu_3x3_reduce -> inception_4b/3x3_reduce (in-place)
I0403 15:21:14.683578  2990 net.cpp:141] Setting up inception_4b/relu_3x3_reduce
I0403 15:21:14.683603  2990 net.cpp:148] Top shape: 24 112 14 14 (526848)
I0403 15:21:14.683617  2990 net.cpp:156] Memory required for data: 956439840
I0403 15:21:14.683632  2990 layer_factory.hpp:77] Creating layer inception_4b/3x3
I0403 15:21:14.683655  2990 net.cpp:91] Creating Layer inception_4b/3x3
I0403 15:21:14.683671  2990 net.cpp:425] inception_4b/3x3 <- inception_4b/3x3_reduce
I0403 15:21:14.683692  2990 net.cpp:399] inception_4b/3x3 -> inception_4b/3x3
I0403 15:21:14.686697  2990 net.cpp:141] Setting up inception_4b/3x3
I0403 15:21:14.686727  2990 net.cpp:148] Top shape: 24 224 14 14 (1053696)
I0403 15:21:14.686741  2990 net.cpp:156] Memory required for data: 960654624
I0403 15:21:14.686760  2990 layer_factory.hpp:77] Creating layer inception_4b/relu_3x3
I0403 15:21:14.686781  2990 net.cpp:91] Creating Layer inception_4b/relu_3x3
I0403 15:21:14.686800  2990 net.cpp:425] inception_4b/relu_3x3 <- inception_4b/3x3
I0403 15:21:14.686817  2990 net.cpp:386] inception_4b/relu_3x3 -> inception_4b/3x3 (in-place)
I0403 15:21:14.687000  2990 net.cpp:141] Setting up inception_4b/relu_3x3
I0403 15:21:14.687026  2990 net.cpp:148] Top shape: 24 224 14 14 (1053696)
I0403 15:21:14.687042  2990 net.cpp:156] Memory required for data: 964869408
I0403 15:21:14.687057  2990 layer_factory.hpp:77] Creating layer inception_4b/5x5_reduce
I0403 15:21:14.687082  2990 net.cpp:91] Creating Layer inception_4b/5x5_reduce
I0403 15:21:14.687099  2990 net.cpp:425] inception_4b/5x5_reduce <- inception_4a/output_inception_4a/output_0_split_3
I0403 15:21:14.687119  2990 net.cpp:399] inception_4b/5x5_reduce -> inception_4b/5x5_reduce
I0403 15:21:14.688205  2990 net.cpp:141] Setting up inception_4b/5x5_reduce
I0403 15:21:14.688235  2990 net.cpp:148] Top shape: 24 24 14 14 (112896)
I0403 15:21:14.688254  2990 net.cpp:156] Memory required for data: 965320992
I0403 15:21:14.688274  2990 layer_factory.hpp:77] Creating layer inception_4b/relu_5x5_reduce
I0403 15:21:14.688292  2990 net.cpp:91] Creating Layer inception_4b/relu_5x5_reduce
I0403 15:21:14.688323  2990 net.cpp:425] inception_4b/relu_5x5_reduce <- inception_4b/5x5_reduce
I0403 15:21:14.688344  2990 net.cpp:386] inception_4b/relu_5x5_reduce -> inception_4b/5x5_reduce (in-place)
I0403 15:21:14.688530  2990 net.cpp:141] Setting up inception_4b/relu_5x5_reduce
I0403 15:21:14.688555  2990 net.cpp:148] Top shape: 24 24 14 14 (112896)
I0403 15:21:14.688571  2990 net.cpp:156] Memory required for data: 965772576
I0403 15:21:14.688586  2990 layer_factory.hpp:77] Creating layer inception_4b/5x5
I0403 15:21:14.688609  2990 net.cpp:91] Creating Layer inception_4b/5x5
I0403 15:21:14.688627  2990 net.cpp:425] inception_4b/5x5 <- inception_4b/5x5_reduce
I0403 15:21:14.688647  2990 net.cpp:399] inception_4b/5x5 -> inception_4b/5x5
I0403 15:21:14.689975  2990 net.cpp:141] Setting up inception_4b/5x5
I0403 15:21:14.690006  2990 net.cpp:148] Top shape: 24 64 14 14 (301056)
I0403 15:21:14.690022  2990 net.cpp:156] Memory required for data: 966976800
I0403 15:21:14.690042  2990 layer_factory.hpp:77] Creating layer inception_4b/relu_5x5
I0403 15:21:14.690059  2990 net.cpp:91] Creating Layer inception_4b/relu_5x5
I0403 15:21:14.690075  2990 net.cpp:425] inception_4b/relu_5x5 <- inception_4b/5x5
I0403 15:21:14.690094  2990 net.cpp:386] inception_4b/relu_5x5 -> inception_4b/5x5 (in-place)
I0403 15:21:14.690449  2990 net.cpp:141] Setting up inception_4b/relu_5x5
I0403 15:21:14.690492  2990 net.cpp:148] Top shape: 24 64 14 14 (301056)
I0403 15:21:14.690510  2990 net.cpp:156] Memory required for data: 968181024
I0403 15:21:14.690526  2990 layer_factory.hpp:77] Creating layer inception_4b/pool
I0403 15:21:14.690544  2990 net.cpp:91] Creating Layer inception_4b/pool
I0403 15:21:14.690560  2990 net.cpp:425] inception_4b/pool <- inception_4a/output_inception_4a/output_0_split_4
I0403 15:21:14.690582  2990 net.cpp:399] inception_4b/pool -> inception_4b/pool
I0403 15:21:14.690646  2990 net.cpp:141] Setting up inception_4b/pool
I0403 15:21:14.690670  2990 net.cpp:148] Top shape: 24 512 14 14 (2408448)
I0403 15:21:14.690685  2990 net.cpp:156] Memory required for data: 977814816
I0403 15:21:14.690701  2990 layer_factory.hpp:77] Creating layer inception_4b/pool_proj
I0403 15:21:14.690723  2990 net.cpp:91] Creating Layer inception_4b/pool_proj
I0403 15:21:14.690742  2990 net.cpp:425] inception_4b/pool_proj <- inception_4b/pool
I0403 15:21:14.690762  2990 net.cpp:399] inception_4b/pool_proj -> inception_4b/pool_proj
I0403 15:21:14.692040  2990 net.cpp:141] Setting up inception_4b/pool_proj
I0403 15:21:14.692070  2990 net.cpp:148] Top shape: 24 64 14 14 (301056)
I0403 15:21:14.692086  2990 net.cpp:156] Memory required for data: 979019040
I0403 15:21:14.692106  2990 layer_factory.hpp:77] Creating layer inception_4b/relu_pool_proj
I0403 15:21:14.692124  2990 net.cpp:91] Creating Layer inception_4b/relu_pool_proj
I0403 15:21:14.692140  2990 net.cpp:425] inception_4b/relu_pool_proj <- inception_4b/pool_proj
I0403 15:21:14.692160  2990 net.cpp:386] inception_4b/relu_pool_proj -> inception_4b/pool_proj (in-place)
I0403 15:21:14.692354  2990 net.cpp:141] Setting up inception_4b/relu_pool_proj
I0403 15:21:14.692380  2990 net.cpp:148] Top shape: 24 64 14 14 (301056)
I0403 15:21:14.692395  2990 net.cpp:156] Memory required for data: 980223264
I0403 15:21:14.692409  2990 layer_factory.hpp:77] Creating layer inception_4b/output
I0403 15:21:14.692427  2990 net.cpp:91] Creating Layer inception_4b/output
I0403 15:21:14.692443  2990 net.cpp:425] inception_4b/output <- inception_4b/1x1
I0403 15:21:14.692461  2990 net.cpp:425] inception_4b/output <- inception_4b/3x3
I0403 15:21:14.692476  2990 net.cpp:425] inception_4b/output <- inception_4b/5x5
I0403 15:21:14.692493  2990 net.cpp:425] inception_4b/output <- inception_4b/pool_proj
I0403 15:21:14.692512  2990 net.cpp:399] inception_4b/output -> inception_4b/output
I0403 15:21:14.692559  2990 net.cpp:141] Setting up inception_4b/output
I0403 15:21:14.692584  2990 net.cpp:148] Top shape: 24 512 14 14 (2408448)
I0403 15:21:14.692600  2990 net.cpp:156] Memory required for data: 989857056
I0403 15:21:14.692628  2990 layer_factory.hpp:77] Creating layer inception_4b/output_inception_4b/output_0_split
I0403 15:21:14.692646  2990 net.cpp:91] Creating Layer inception_4b/output_inception_4b/output_0_split
I0403 15:21:14.692662  2990 net.cpp:425] inception_4b/output_inception_4b/output_0_split <- inception_4b/output
I0403 15:21:14.692679  2990 net.cpp:399] inception_4b/output_inception_4b/output_0_split -> inception_4b/output_inception_4b/output_0_split_0
I0403 15:21:14.692703  2990 net.cpp:399] inception_4b/output_inception_4b/output_0_split -> inception_4b/output_inception_4b/output_0_split_1
I0403 15:21:14.692725  2990 net.cpp:399] inception_4b/output_inception_4b/output_0_split -> inception_4b/output_inception_4b/output_0_split_2
I0403 15:21:14.692745  2990 net.cpp:399] inception_4b/output_inception_4b/output_0_split -> inception_4b/output_inception_4b/output_0_split_3
I0403 15:21:14.692831  2990 net.cpp:141] Setting up inception_4b/output_inception_4b/output_0_split
I0403 15:21:14.692853  2990 net.cpp:148] Top shape: 24 512 14 14 (2408448)
I0403 15:21:14.692870  2990 net.cpp:148] Top shape: 24 512 14 14 (2408448)
I0403 15:21:14.692886  2990 net.cpp:148] Top shape: 24 512 14 14 (2408448)
I0403 15:21:14.692903  2990 net.cpp:148] Top shape: 24 512 14 14 (2408448)
I0403 15:21:14.692916  2990 net.cpp:156] Memory required for data: 1028392224
I0403 15:21:14.692931  2990 layer_factory.hpp:77] Creating layer inception_4c/1x1
I0403 15:21:14.692955  2990 net.cpp:91] Creating Layer inception_4c/1x1
I0403 15:21:14.692973  2990 net.cpp:425] inception_4c/1x1 <- inception_4b/output_inception_4b/output_0_split_0
I0403 15:21:14.692991  2990 net.cpp:399] inception_4c/1x1 -> inception_4c/1x1
I0403 15:21:14.694550  2990 net.cpp:141] Setting up inception_4c/1x1
I0403 15:21:14.694578  2990 net.cpp:148] Top shape: 24 128 14 14 (602112)
I0403 15:21:14.694593  2990 net.cpp:156] Memory required for data: 1030800672
I0403 15:21:14.694612  2990 layer_factory.hpp:77] Creating layer inception_4c/relu_1x1
I0403 15:21:14.694633  2990 net.cpp:91] Creating Layer inception_4c/relu_1x1
I0403 15:21:14.694650  2990 net.cpp:425] inception_4c/relu_1x1 <- inception_4c/1x1
I0403 15:21:14.694669  2990 net.cpp:386] inception_4c/relu_1x1 -> inception_4c/1x1 (in-place)
I0403 15:21:14.694845  2990 net.cpp:141] Setting up inception_4c/relu_1x1
I0403 15:21:14.694870  2990 net.cpp:148] Top shape: 24 128 14 14 (602112)
I0403 15:21:14.694888  2990 net.cpp:156] Memory required for data: 1033209120
I0403 15:21:14.694903  2990 layer_factory.hpp:77] Creating layer inception_4c/3x3_reduce
I0403 15:21:14.694923  2990 net.cpp:91] Creating Layer inception_4c/3x3_reduce
I0403 15:21:14.694941  2990 net.cpp:425] inception_4c/3x3_reduce <- inception_4b/output_inception_4b/output_0_split_1
I0403 15:21:14.694963  2990 net.cpp:399] inception_4c/3x3_reduce -> inception_4c/3x3_reduce
I0403 15:21:14.697099  2990 net.cpp:141] Setting up inception_4c/3x3_reduce
I0403 15:21:14.697130  2990 net.cpp:148] Top shape: 24 128 14 14 (602112)
I0403 15:21:14.697146  2990 net.cpp:156] Memory required for data: 1035617568
I0403 15:21:14.697165  2990 layer_factory.hpp:77] Creating layer inception_4c/relu_3x3_reduce
I0403 15:21:14.697182  2990 net.cpp:91] Creating Layer inception_4c/relu_3x3_reduce
I0403 15:21:14.697199  2990 net.cpp:425] inception_4c/relu_3x3_reduce <- inception_4c/3x3_reduce
I0403 15:21:14.697218  2990 net.cpp:386] inception_4c/relu_3x3_reduce -> inception_4c/3x3_reduce (in-place)
I0403 15:21:14.697506  2990 net.cpp:141] Setting up inception_4c/relu_3x3_reduce
I0403 15:21:14.697535  2990 net.cpp:148] Top shape: 24 128 14 14 (602112)
I0403 15:21:14.697551  2990 net.cpp:156] Memory required for data: 1038026016
I0403 15:21:14.697566  2990 layer_factory.hpp:77] Creating layer inception_4c/3x3
I0403 15:21:14.697589  2990 net.cpp:91] Creating Layer inception_4c/3x3
I0403 15:21:14.697607  2990 net.cpp:425] inception_4c/3x3 <- inception_4c/3x3_reduce
I0403 15:21:14.697628  2990 net.cpp:399] inception_4c/3x3 -> inception_4c/3x3
I0403 15:21:14.701237  2990 net.cpp:141] Setting up inception_4c/3x3
I0403 15:21:14.701287  2990 net.cpp:148] Top shape: 24 256 14 14 (1204224)
I0403 15:21:14.701311  2990 net.cpp:156] Memory required for data: 1042842912
I0403 15:21:14.701352  2990 layer_factory.hpp:77] Creating layer inception_4c/relu_3x3
I0403 15:21:14.701375  2990 net.cpp:91] Creating Layer inception_4c/relu_3x3
I0403 15:21:14.701397  2990 net.cpp:425] inception_4c/relu_3x3 <- inception_4c/3x3
I0403 15:21:14.701424  2990 net.cpp:386] inception_4c/relu_3x3 -> inception_4c/3x3 (in-place)
I0403 15:21:14.701606  2990 net.cpp:141] Setting up inception_4c/relu_3x3
I0403 15:21:14.701635  2990 net.cpp:148] Top shape: 24 256 14 14 (1204224)
I0403 15:21:14.701655  2990 net.cpp:156] Memory required for data: 1047659808
I0403 15:21:14.701674  2990 layer_factory.hpp:77] Creating layer inception_4c/5x5_reduce
I0403 15:21:14.701704  2990 net.cpp:91] Creating Layer inception_4c/5x5_reduce
I0403 15:21:14.701725  2990 net.cpp:425] inception_4c/5x5_reduce <- inception_4b/output_inception_4b/output_0_split_2
I0403 15:21:14.701752  2990 net.cpp:399] inception_4c/5x5_reduce -> inception_4c/5x5_reduce
I0403 15:21:14.702911  2990 net.cpp:141] Setting up inception_4c/5x5_reduce
I0403 15:21:14.702942  2990 net.cpp:148] Top shape: 24 24 14 14 (112896)
I0403 15:21:14.702958  2990 net.cpp:156] Memory required for data: 1048111392
I0403 15:21:14.702977  2990 layer_factory.hpp:77] Creating layer inception_4c/relu_5x5_reduce
I0403 15:21:14.702996  2990 net.cpp:91] Creating Layer inception_4c/relu_5x5_reduce
I0403 15:21:14.703011  2990 net.cpp:425] inception_4c/relu_5x5_reduce <- inception_4c/5x5_reduce
I0403 15:21:14.703028  2990 net.cpp:386] inception_4c/relu_5x5_reduce -> inception_4c/5x5_reduce (in-place)
I0403 15:21:14.703217  2990 net.cpp:141] Setting up inception_4c/relu_5x5_reduce
I0403 15:21:14.703246  2990 net.cpp:148] Top shape: 24 24 14 14 (112896)
I0403 15:21:14.703263  2990 net.cpp:156] Memory required for data: 1048562976
I0403 15:21:14.703279  2990 layer_factory.hpp:77] Creating layer inception_4c/5x5
I0403 15:21:14.703300  2990 net.cpp:91] Creating Layer inception_4c/5x5
I0403 15:21:14.703318  2990 net.cpp:425] inception_4c/5x5 <- inception_4c/5x5_reduce
I0403 15:21:14.703339  2990 net.cpp:399] inception_4c/5x5 -> inception_4c/5x5
I0403 15:21:14.704612  2990 net.cpp:141] Setting up inception_4c/5x5
I0403 15:21:14.704639  2990 net.cpp:148] Top shape: 24 64 14 14 (301056)
I0403 15:21:14.704656  2990 net.cpp:156] Memory required for data: 1049767200
I0403 15:21:14.704675  2990 layer_factory.hpp:77] Creating layer inception_4c/relu_5x5
I0403 15:21:14.704705  2990 net.cpp:91] Creating Layer inception_4c/relu_5x5
I0403 15:21:14.704722  2990 net.cpp:425] inception_4c/relu_5x5 <- inception_4c/5x5
I0403 15:21:14.704741  2990 net.cpp:386] inception_4c/relu_5x5 -> inception_4c/5x5 (in-place)
I0403 15:21:14.705116  2990 net.cpp:141] Setting up inception_4c/relu_5x5
I0403 15:21:14.705143  2990 net.cpp:148] Top shape: 24 64 14 14 (301056)
I0403 15:21:14.705159  2990 net.cpp:156] Memory required for data: 1050971424
I0403 15:21:14.705174  2990 layer_factory.hpp:77] Creating layer inception_4c/pool
I0403 15:21:14.705193  2990 net.cpp:91] Creating Layer inception_4c/pool
I0403 15:21:14.705210  2990 net.cpp:425] inception_4c/pool <- inception_4b/output_inception_4b/output_0_split_3
I0403 15:21:14.705231  2990 net.cpp:399] inception_4c/pool -> inception_4c/pool
I0403 15:21:14.705304  2990 net.cpp:141] Setting up inception_4c/pool
I0403 15:21:14.705328  2990 net.cpp:148] Top shape: 24 512 14 14 (2408448)
I0403 15:21:14.705343  2990 net.cpp:156] Memory required for data: 1060605216
I0403 15:21:14.705358  2990 layer_factory.hpp:77] Creating layer inception_4c/pool_proj
I0403 15:21:14.705382  2990 net.cpp:91] Creating Layer inception_4c/pool_proj
I0403 15:21:14.705399  2990 net.cpp:425] inception_4c/pool_proj <- inception_4c/pool
I0403 15:21:14.705418  2990 net.cpp:399] inception_4c/pool_proj -> inception_4c/pool_proj
I0403 15:21:14.706647  2990 net.cpp:141] Setting up inception_4c/pool_proj
I0403 15:21:14.706677  2990 net.cpp:148] Top shape: 24 64 14 14 (301056)
I0403 15:21:14.706708  2990 net.cpp:156] Memory required for data: 1061809440
I0403 15:21:14.706729  2990 layer_factory.hpp:77] Creating layer inception_4c/relu_pool_proj
I0403 15:21:14.706748  2990 net.cpp:91] Creating Layer inception_4c/relu_pool_proj
I0403 15:21:14.706764  2990 net.cpp:425] inception_4c/relu_pool_proj <- inception_4c/pool_proj
I0403 15:21:14.706784  2990 net.cpp:386] inception_4c/relu_pool_proj -> inception_4c/pool_proj (in-place)
I0403 15:21:14.706967  2990 net.cpp:141] Setting up inception_4c/relu_pool_proj
I0403 15:21:14.706993  2990 net.cpp:148] Top shape: 24 64 14 14 (301056)
I0403 15:21:14.707008  2990 net.cpp:156] Memory required for data: 1063013664
I0403 15:21:14.707023  2990 layer_factory.hpp:77] Creating layer inception_4c/output
I0403 15:21:14.707041  2990 net.cpp:91] Creating Layer inception_4c/output
I0403 15:21:14.707057  2990 net.cpp:425] inception_4c/output <- inception_4c/1x1
I0403 15:21:14.707074  2990 net.cpp:425] inception_4c/output <- inception_4c/3x3
I0403 15:21:14.707090  2990 net.cpp:425] inception_4c/output <- inception_4c/5x5
I0403 15:21:14.707106  2990 net.cpp:425] inception_4c/output <- inception_4c/pool_proj
I0403 15:21:14.707125  2990 net.cpp:399] inception_4c/output -> inception_4c/output
I0403 15:21:14.707171  2990 net.cpp:141] Setting up inception_4c/output
I0403 15:21:14.707197  2990 net.cpp:148] Top shape: 24 512 14 14 (2408448)
I0403 15:21:14.707216  2990 net.cpp:156] Memory required for data: 1072647456
I0403 15:21:14.707231  2990 layer_factory.hpp:77] Creating layer inception_4c/output_inception_4c/output_0_split
I0403 15:21:14.707253  2990 net.cpp:91] Creating Layer inception_4c/output_inception_4c/output_0_split
I0403 15:21:14.707270  2990 net.cpp:425] inception_4c/output_inception_4c/output_0_split <- inception_4c/output
I0403 15:21:14.707288  2990 net.cpp:399] inception_4c/output_inception_4c/output_0_split -> inception_4c/output_inception_4c/output_0_split_0
I0403 15:21:14.707310  2990 net.cpp:399] inception_4c/output_inception_4c/output_0_split -> inception_4c/output_inception_4c/output_0_split_1
I0403 15:21:14.707332  2990 net.cpp:399] inception_4c/output_inception_4c/output_0_split -> inception_4c/output_inception_4c/output_0_split_2
I0403 15:21:14.707353  2990 net.cpp:399] inception_4c/output_inception_4c/output_0_split -> inception_4c/output_inception_4c/output_0_split_3
I0403 15:21:14.707442  2990 net.cpp:141] Setting up inception_4c/output_inception_4c/output_0_split
I0403 15:21:14.707464  2990 net.cpp:148] Top shape: 24 512 14 14 (2408448)
I0403 15:21:14.707481  2990 net.cpp:148] Top shape: 24 512 14 14 (2408448)
I0403 15:21:14.707496  2990 net.cpp:148] Top shape: 24 512 14 14 (2408448)
I0403 15:21:14.707512  2990 net.cpp:148] Top shape: 24 512 14 14 (2408448)
I0403 15:21:14.707526  2990 net.cpp:156] Memory required for data: 1111182624
I0403 15:21:14.707541  2990 layer_factory.hpp:77] Creating layer inception_4d/1x1
I0403 15:21:14.707563  2990 net.cpp:91] Creating Layer inception_4d/1x1
I0403 15:21:14.707582  2990 net.cpp:425] inception_4d/1x1 <- inception_4c/output_inception_4c/output_0_split_0
I0403 15:21:14.707602  2990 net.cpp:399] inception_4d/1x1 -> inception_4d/1x1
I0403 15:21:14.708989  2990 net.cpp:141] Setting up inception_4d/1x1
I0403 15:21:14.709018  2990 net.cpp:148] Top shape: 24 112 14 14 (526848)
I0403 15:21:14.709033  2990 net.cpp:156] Memory required for data: 1113290016
I0403 15:21:14.709053  2990 layer_factory.hpp:77] Creating layer inception_4d/relu_1x1
I0403 15:21:14.709072  2990 net.cpp:91] Creating Layer inception_4d/relu_1x1
I0403 15:21:14.709090  2990 net.cpp:425] inception_4d/relu_1x1 <- inception_4d/1x1
I0403 15:21:14.709107  2990 net.cpp:386] inception_4d/relu_1x1 -> inception_4d/1x1 (in-place)
I0403 15:21:14.709308  2990 net.cpp:141] Setting up inception_4d/relu_1x1
I0403 15:21:14.709336  2990 net.cpp:148] Top shape: 24 112 14 14 (526848)
I0403 15:21:14.709352  2990 net.cpp:156] Memory required for data: 1115397408
I0403 15:21:14.709368  2990 layer_factory.hpp:77] Creating layer inception_4d/3x3_reduce
I0403 15:21:14.709406  2990 net.cpp:91] Creating Layer inception_4d/3x3_reduce
I0403 15:21:14.709426  2990 net.cpp:425] inception_4d/3x3_reduce <- inception_4c/output_inception_4c/output_0_split_1
I0403 15:21:14.709446  2990 net.cpp:399] inception_4d/3x3_reduce -> inception_4d/3x3_reduce
I0403 15:21:14.711009  2990 net.cpp:141] Setting up inception_4d/3x3_reduce
I0403 15:21:14.711036  2990 net.cpp:148] Top shape: 24 144 14 14 (677376)
I0403 15:21:14.711052  2990 net.cpp:156] Memory required for data: 1118106912
I0403 15:21:14.711071  2990 layer_factory.hpp:77] Creating layer inception_4d/relu_3x3_reduce
I0403 15:21:14.711092  2990 net.cpp:91] Creating Layer inception_4d/relu_3x3_reduce
I0403 15:21:14.711109  2990 net.cpp:425] inception_4d/relu_3x3_reduce <- inception_4d/3x3_reduce
I0403 15:21:14.711127  2990 net.cpp:386] inception_4d/relu_3x3_reduce -> inception_4d/3x3_reduce (in-place)
I0403 15:21:14.711438  2990 net.cpp:141] Setting up inception_4d/relu_3x3_reduce
I0403 15:21:14.711467  2990 net.cpp:148] Top shape: 24 144 14 14 (677376)
I0403 15:21:14.711493  2990 net.cpp:156] Memory required for data: 1120816416
I0403 15:21:14.711509  2990 layer_factory.hpp:77] Creating layer inception_4d/3x3
I0403 15:21:14.711532  2990 net.cpp:91] Creating Layer inception_4d/3x3
I0403 15:21:14.711549  2990 net.cpp:425] inception_4d/3x3 <- inception_4d/3x3_reduce
I0403 15:21:14.711572  2990 net.cpp:399] inception_4d/3x3 -> inception_4d/3x3
I0403 15:21:14.715915  2990 net.cpp:141] Setting up inception_4d/3x3
I0403 15:21:14.715945  2990 net.cpp:148] Top shape: 24 288 14 14 (1354752)
I0403 15:21:14.715960  2990 net.cpp:156] Memory required for data: 1126235424
I0403 15:21:14.715980  2990 layer_factory.hpp:77] Creating layer inception_4d/relu_3x3
I0403 15:21:14.716001  2990 net.cpp:91] Creating Layer inception_4d/relu_3x3
I0403 15:21:14.716018  2990 net.cpp:425] inception_4d/relu_3x3 <- inception_4d/3x3
I0403 15:21:14.716035  2990 net.cpp:386] inception_4d/relu_3x3 -> inception_4d/3x3 (in-place)
I0403 15:21:14.716238  2990 net.cpp:141] Setting up inception_4d/relu_3x3
I0403 15:21:14.716270  2990 net.cpp:148] Top shape: 24 288 14 14 (1354752)
I0403 15:21:14.716287  2990 net.cpp:156] Memory required for data: 1131654432
I0403 15:21:14.716303  2990 layer_factory.hpp:77] Creating layer inception_4d/5x5_reduce
I0403 15:21:14.716325  2990 net.cpp:91] Creating Layer inception_4d/5x5_reduce
I0403 15:21:14.716343  2990 net.cpp:425] inception_4d/5x5_reduce <- inception_4c/output_inception_4c/output_0_split_2
I0403 15:21:14.716363  2990 net.cpp:399] inception_4d/5x5_reduce -> inception_4d/5x5_reduce
I0403 15:21:14.717567  2990 net.cpp:141] Setting up inception_4d/5x5_reduce
I0403 15:21:14.717595  2990 net.cpp:148] Top shape: 24 32 14 14 (150528)
I0403 15:21:14.717612  2990 net.cpp:156] Memory required for data: 1132256544
I0403 15:21:14.717629  2990 layer_factory.hpp:77] Creating layer inception_4d/relu_5x5_reduce
I0403 15:21:14.717650  2990 net.cpp:91] Creating Layer inception_4d/relu_5x5_reduce
I0403 15:21:14.717667  2990 net.cpp:425] inception_4d/relu_5x5_reduce <- inception_4d/5x5_reduce
I0403 15:21:14.717685  2990 net.cpp:386] inception_4d/relu_5x5_reduce -> inception_4d/5x5_reduce (in-place)
I0403 15:21:14.717874  2990 net.cpp:141] Setting up inception_4d/relu_5x5_reduce
I0403 15:21:14.717901  2990 net.cpp:148] Top shape: 24 32 14 14 (150528)
I0403 15:21:14.717916  2990 net.cpp:156] Memory required for data: 1132858656
I0403 15:21:14.717932  2990 layer_factory.hpp:77] Creating layer inception_4d/5x5
I0403 15:21:14.717954  2990 net.cpp:91] Creating Layer inception_4d/5x5
I0403 15:21:14.717972  2990 net.cpp:425] inception_4d/5x5 <- inception_4d/5x5_reduce
I0403 15:21:14.717993  2990 net.cpp:399] inception_4d/5x5 -> inception_4d/5x5
I0403 15:21:14.719545  2990 net.cpp:141] Setting up inception_4d/5x5
I0403 15:21:14.719586  2990 net.cpp:148] Top shape: 24 64 14 14 (301056)
I0403 15:21:14.719601  2990 net.cpp:156] Memory required for data: 1134062880
I0403 15:21:14.719621  2990 layer_factory.hpp:77] Creating layer inception_4d/relu_5x5
I0403 15:21:14.719656  2990 net.cpp:91] Creating Layer inception_4d/relu_5x5
I0403 15:21:14.719673  2990 net.cpp:425] inception_4d/relu_5x5 <- inception_4d/5x5
I0403 15:21:14.719693  2990 net.cpp:386] inception_4d/relu_5x5 -> inception_4d/5x5 (in-place)
I0403 15:21:14.720015  2990 net.cpp:141] Setting up inception_4d/relu_5x5
I0403 15:21:14.720042  2990 net.cpp:148] Top shape: 24 64 14 14 (301056)
I0403 15:21:14.720058  2990 net.cpp:156] Memory required for data: 1135267104
I0403 15:21:14.720083  2990 layer_factory.hpp:77] Creating layer inception_4d/pool
I0403 15:21:14.720103  2990 net.cpp:91] Creating Layer inception_4d/pool
I0403 15:21:14.720120  2990 net.cpp:425] inception_4d/pool <- inception_4c/output_inception_4c/output_0_split_3
I0403 15:21:14.720141  2990 net.cpp:399] inception_4d/pool -> inception_4d/pool
I0403 15:21:14.720212  2990 net.cpp:141] Setting up inception_4d/pool
I0403 15:21:14.720237  2990 net.cpp:148] Top shape: 24 512 14 14 (2408448)
I0403 15:21:14.720258  2990 net.cpp:156] Memory required for data: 1144900896
I0403 15:21:14.720286  2990 layer_factory.hpp:77] Creating layer inception_4d/pool_proj
I0403 15:21:14.720310  2990 net.cpp:91] Creating Layer inception_4d/pool_proj
I0403 15:21:14.720329  2990 net.cpp:425] inception_4d/pool_proj <- inception_4d/pool
I0403 15:21:14.720347  2990 net.cpp:399] inception_4d/pool_proj -> inception_4d/pool_proj
I0403 15:21:14.722103  2990 net.cpp:141] Setting up inception_4d/pool_proj
I0403 15:21:14.722131  2990 net.cpp:148] Top shape: 24 64 14 14 (301056)
I0403 15:21:14.722146  2990 net.cpp:156] Memory required for data: 1146105120
I0403 15:21:14.722164  2990 layer_factory.hpp:77] Creating layer inception_4d/relu_pool_proj
I0403 15:21:14.722185  2990 net.cpp:91] Creating Layer inception_4d/relu_pool_proj
I0403 15:21:14.722203  2990 net.cpp:425] inception_4d/relu_pool_proj <- inception_4d/pool_proj
I0403 15:21:14.722220  2990 net.cpp:386] inception_4d/relu_pool_proj -> inception_4d/pool_proj (in-place)
I0403 15:21:14.722409  2990 net.cpp:141] Setting up inception_4d/relu_pool_proj
I0403 15:21:14.722436  2990 net.cpp:148] Top shape: 24 64 14 14 (301056)
I0403 15:21:14.722452  2990 net.cpp:156] Memory required for data: 1147309344
I0403 15:21:14.722467  2990 layer_factory.hpp:77] Creating layer inception_4d/output
I0403 15:21:14.722486  2990 net.cpp:91] Creating Layer inception_4d/output
I0403 15:21:14.722501  2990 net.cpp:425] inception_4d/output <- inception_4d/1x1
I0403 15:21:14.722517  2990 net.cpp:425] inception_4d/output <- inception_4d/3x3
I0403 15:21:14.722533  2990 net.cpp:425] inception_4d/output <- inception_4d/5x5
I0403 15:21:14.722548  2990 net.cpp:425] inception_4d/output <- inception_4d/pool_proj
I0403 15:21:14.722568  2990 net.cpp:399] inception_4d/output -> inception_4d/output
I0403 15:21:14.722615  2990 net.cpp:141] Setting up inception_4d/output
I0403 15:21:14.722637  2990 net.cpp:148] Top shape: 24 528 14 14 (2483712)
I0403 15:21:14.722651  2990 net.cpp:156] Memory required for data: 1157244192
I0403 15:21:14.722666  2990 layer_factory.hpp:77] Creating layer inception_4d/output_inception_4d/output_0_split
I0403 15:21:14.722687  2990 net.cpp:91] Creating Layer inception_4d/output_inception_4d/output_0_split
I0403 15:21:14.722703  2990 net.cpp:425] inception_4d/output_inception_4d/output_0_split <- inception_4d/output
I0403 15:21:14.722720  2990 net.cpp:399] inception_4d/output_inception_4d/output_0_split -> inception_4d/output_inception_4d/output_0_split_0
I0403 15:21:14.722744  2990 net.cpp:399] inception_4d/output_inception_4d/output_0_split -> inception_4d/output_inception_4d/output_0_split_1
I0403 15:21:14.722765  2990 net.cpp:399] inception_4d/output_inception_4d/output_0_split -> inception_4d/output_inception_4d/output_0_split_2
I0403 15:21:14.722786  2990 net.cpp:399] inception_4d/output_inception_4d/output_0_split -> inception_4d/output_inception_4d/output_0_split_3
I0403 15:21:14.722805  2990 net.cpp:399] inception_4d/output_inception_4d/output_0_split -> inception_4d/output_inception_4d/output_0_split_4
I0403 15:21:14.722908  2990 net.cpp:141] Setting up inception_4d/output_inception_4d/output_0_split
I0403 15:21:14.722944  2990 net.cpp:148] Top shape: 24 528 14 14 (2483712)
I0403 15:21:14.722960  2990 net.cpp:148] Top shape: 24 528 14 14 (2483712)
I0403 15:21:14.722976  2990 net.cpp:148] Top shape: 24 528 14 14 (2483712)
I0403 15:21:14.722991  2990 net.cpp:148] Top shape: 24 528 14 14 (2483712)
I0403 15:21:14.723007  2990 net.cpp:148] Top shape: 24 528 14 14 (2483712)
I0403 15:21:14.723021  2990 net.cpp:156] Memory required for data: 1206918432
I0403 15:21:14.723036  2990 layer_factory.hpp:77] Creating layer loss2/ave_pool
I0403 15:21:14.723055  2990 net.cpp:91] Creating Layer loss2/ave_pool
I0403 15:21:14.723073  2990 net.cpp:425] loss2/ave_pool <- inception_4d/output_inception_4d/output_0_split_0
I0403 15:21:14.723090  2990 net.cpp:399] loss2/ave_pool -> loss2/ave_pool
I0403 15:21:14.723402  2990 net.cpp:141] Setting up loss2/ave_pool
I0403 15:21:14.723428  2990 net.cpp:148] Top shape: 24 528 4 4 (202752)
I0403 15:21:14.723446  2990 net.cpp:156] Memory required for data: 1207729440
I0403 15:21:14.723461  2990 layer_factory.hpp:77] Creating layer loss2/conv
I0403 15:21:14.723481  2990 net.cpp:91] Creating Layer loss2/conv
I0403 15:21:14.723498  2990 net.cpp:425] loss2/conv <- loss2/ave_pool
I0403 15:21:14.723520  2990 net.cpp:399] loss2/conv -> loss2/conv
I0403 15:21:14.725474  2990 net.cpp:141] Setting up loss2/conv
I0403 15:21:14.725504  2990 net.cpp:148] Top shape: 24 128 4 4 (49152)
I0403 15:21:14.725522  2990 net.cpp:156] Memory required for data: 1207926048
I0403 15:21:14.725540  2990 layer_factory.hpp:77] Creating layer loss2/relu_conv
I0403 15:21:14.725559  2990 net.cpp:91] Creating Layer loss2/relu_conv
I0403 15:21:14.725576  2990 net.cpp:425] loss2/relu_conv <- loss2/conv
I0403 15:21:14.725597  2990 net.cpp:386] loss2/relu_conv -> loss2/conv (in-place)
I0403 15:21:14.725893  2990 net.cpp:141] Setting up loss2/relu_conv
I0403 15:21:14.725919  2990 net.cpp:148] Top shape: 24 128 4 4 (49152)
I0403 15:21:14.725934  2990 net.cpp:156] Memory required for data: 1208122656
I0403 15:21:14.725949  2990 layer_factory.hpp:77] Creating layer loss2/fc
I0403 15:21:14.725968  2990 net.cpp:91] Creating Layer loss2/fc
I0403 15:21:14.725985  2990 net.cpp:425] loss2/fc <- loss2/conv
I0403 15:21:14.726007  2990 net.cpp:399] loss2/fc -> loss2/fc
I0403 15:21:14.746659  2990 net.cpp:141] Setting up loss2/fc
I0403 15:21:14.746753  2990 net.cpp:148] Top shape: 24 1024 (24576)
I0403 15:21:14.747129  2990 net.cpp:156] Memory required for data: 1208220960
I0403 15:21:14.747159  2990 layer_factory.hpp:77] Creating layer loss2/relu_fc
I0403 15:21:14.747190  2990 net.cpp:91] Creating Layer loss2/relu_fc
I0403 15:21:14.747212  2990 net.cpp:425] loss2/relu_fc <- loss2/fc
I0403 15:21:14.747233  2990 net.cpp:386] loss2/relu_fc -> loss2/fc (in-place)
I0403 15:21:14.790663  2990 net.cpp:141] Setting up loss2/relu_fc
I0403 15:21:14.790766  2990 net.cpp:148] Top shape: 24 1024 (24576)
I0403 15:21:14.790782  2990 net.cpp:156] Memory required for data: 1208319264
I0403 15:21:14.790802  2990 layer_factory.hpp:77] Creating layer loss2/drop_fc
I0403 15:21:14.790824  2990 net.cpp:91] Creating Layer loss2/drop_fc
I0403 15:21:14.790844  2990 net.cpp:425] loss2/drop_fc <- loss2/fc
I0403 15:21:14.790866  2990 net.cpp:386] loss2/drop_fc -> loss2/fc (in-place)
I0403 15:21:14.790940  2990 net.cpp:141] Setting up loss2/drop_fc
I0403 15:21:14.790963  2990 net.cpp:148] Top shape: 24 1024 (24576)
I0403 15:21:14.790978  2990 net.cpp:156] Memory required for data: 1208417568
I0403 15:21:14.790993  2990 layer_factory.hpp:77] Creating layer loss2/classifier_plantvillage
I0403 15:21:14.791019  2990 net.cpp:91] Creating Layer loss2/classifier_plantvillage
I0403 15:21:14.791038  2990 net.cpp:425] loss2/classifier_plantvillage <- loss2/fc
I0403 15:21:14.791056  2990 net.cpp:399] loss2/classifier_plantvillage -> loss2/classifier_plantvillage
I0403 15:21:14.791669  2990 net.cpp:141] Setting up loss2/classifier_plantvillage
I0403 15:21:14.791735  2990 net.cpp:148] Top shape: 24 38 (912)
I0403 15:21:14.791833  2990 net.cpp:156] Memory required for data: 1208421216
I0403 15:21:14.791887  2990 layer_factory.hpp:77] Creating layer loss2/classifier_plantvillage_loss2/classifier_plantvillage_0_split
I0403 15:21:14.791934  2990 net.cpp:91] Creating Layer loss2/classifier_plantvillage_loss2/classifier_plantvillage_0_split
I0403 15:21:14.791978  2990 net.cpp:425] loss2/classifier_plantvillage_loss2/classifier_plantvillage_0_split <- loss2/classifier_plantvillage
I0403 15:21:14.792031  2990 net.cpp:399] loss2/classifier_plantvillage_loss2/classifier_plantvillage_0_split -> loss2/classifier_plantvillage_loss2/classifier_plantvillage_0_split_0
I0403 15:21:14.792085  2990 net.cpp:399] loss2/classifier_plantvillage_loss2/classifier_plantvillage_0_split -> loss2/classifier_plantvillage_loss2/classifier_plantvillage_0_split_1
I0403 15:21:14.792140  2990 net.cpp:399] loss2/classifier_plantvillage_loss2/classifier_plantvillage_0_split -> loss2/classifier_plantvillage_loss2/classifier_plantvillage_0_split_2
I0403 15:21:14.792297  2990 net.cpp:141] Setting up loss2/classifier_plantvillage_loss2/classifier_plantvillage_0_split
I0403 15:21:14.792326  2990 net.cpp:148] Top shape: 24 38 (912)
I0403 15:21:14.792343  2990 net.cpp:148] Top shape: 24 38 (912)
I0403 15:21:14.792361  2990 net.cpp:148] Top shape: 24 38 (912)
I0403 15:21:14.792376  2990 net.cpp:156] Memory required for data: 1208432160
I0403 15:21:14.792390  2990 layer_factory.hpp:77] Creating layer inception_4e/1x1
I0403 15:21:14.792413  2990 net.cpp:91] Creating Layer inception_4e/1x1
I0403 15:21:14.792433  2990 net.cpp:425] inception_4e/1x1 <- inception_4d/output_inception_4d/output_0_split_1
I0403 15:21:14.792453  2990 net.cpp:399] inception_4e/1x1 -> inception_4e/1x1
I0403 15:21:14.864378  2990 net.cpp:141] Setting up inception_4e/1x1
I0403 15:21:14.864441  2990 net.cpp:148] Top shape: 24 256 14 14 (1204224)
I0403 15:21:14.864462  2990 net.cpp:156] Memory required for data: 1213249056
I0403 15:21:14.864491  2990 layer_factory.hpp:77] Creating layer inception_4e/relu_1x1
I0403 15:21:14.864521  2990 net.cpp:91] Creating Layer inception_4e/relu_1x1
I0403 15:21:14.864540  2990 net.cpp:425] inception_4e/relu_1x1 <- inception_4e/1x1
I0403 15:21:14.864569  2990 net.cpp:386] inception_4e/relu_1x1 -> inception_4e/1x1 (in-place)
I0403 15:21:14.865150  2990 net.cpp:141] Setting up inception_4e/relu_1x1
I0403 15:21:14.865221  2990 net.cpp:148] Top shape: 24 256 14 14 (1204224)
I0403 15:21:14.865267  2990 net.cpp:156] Memory required for data: 1218065952
I0403 15:21:14.865288  2990 layer_factory.hpp:77] Creating layer inception_4e/3x3_reduce
I0403 15:21:14.865324  2990 net.cpp:91] Creating Layer inception_4e/3x3_reduce
I0403 15:21:14.865350  2990 net.cpp:425] inception_4e/3x3_reduce <- inception_4d/output_inception_4d/output_0_split_2
I0403 15:21:14.865389  2990 net.cpp:399] inception_4e/3x3_reduce -> inception_4e/3x3_reduce
I0403 15:21:14.869343  2990 net.cpp:141] Setting up inception_4e/3x3_reduce
I0403 15:21:14.869426  2990 net.cpp:148] Top shape: 24 160 14 14 (752640)
I0403 15:21:14.869472  2990 net.cpp:156] Memory required for data: 1221076512
I0403 15:21:14.869524  2990 layer_factory.hpp:77] Creating layer inception_4e/relu_3x3_reduce
I0403 15:21:14.869591  2990 net.cpp:91] Creating Layer inception_4e/relu_3x3_reduce
I0403 15:21:14.869637  2990 net.cpp:425] inception_4e/relu_3x3_reduce <- inception_4e/3x3_reduce
I0403 15:21:14.869689  2990 net.cpp:386] inception_4e/relu_3x3_reduce -> inception_4e/3x3_reduce (in-place)
I0403 15:21:14.870141  2990 net.cpp:141] Setting up inception_4e/relu_3x3_reduce
I0403 15:21:14.870208  2990 net.cpp:148] Top shape: 24 160 14 14 (752640)
I0403 15:21:14.870260  2990 net.cpp:156] Memory required for data: 1224087072
I0403 15:21:14.870321  2990 layer_factory.hpp:77] Creating layer inception_4e/3x3
I0403 15:21:14.870383  2990 net.cpp:91] Creating Layer inception_4e/3x3
I0403 15:21:14.870406  2990 net.cpp:425] inception_4e/3x3 <- inception_4e/3x3_reduce
I0403 15:21:14.870477  2990 net.cpp:399] inception_4e/3x3 -> inception_4e/3x3
I0403 15:21:14.876834  2990 net.cpp:141] Setting up inception_4e/3x3
I0403 15:21:14.876893  2990 net.cpp:148] Top shape: 24 320 14 14 (1505280)
I0403 15:21:14.876910  2990 net.cpp:156] Memory required for data: 1230108192
I0403 15:21:14.876931  2990 layer_factory.hpp:77] Creating layer inception_4e/relu_3x3
I0403 15:21:14.876953  2990 net.cpp:91] Creating Layer inception_4e/relu_3x3
I0403 15:21:14.876973  2990 net.cpp:425] inception_4e/relu_3x3 <- inception_4e/3x3
I0403 15:21:14.876992  2990 net.cpp:386] inception_4e/relu_3x3 -> inception_4e/3x3 (in-place)
I0403 15:21:14.877326  2990 net.cpp:141] Setting up inception_4e/relu_3x3
I0403 15:21:14.877356  2990 net.cpp:148] Top shape: 24 320 14 14 (1505280)
I0403 15:21:14.877372  2990 net.cpp:156] Memory required for data: 1236129312
I0403 15:21:14.877388  2990 layer_factory.hpp:77] Creating layer inception_4e/5x5_reduce
I0403 15:21:14.877413  2990 net.cpp:91] Creating Layer inception_4e/5x5_reduce
I0403 15:21:14.877432  2990 net.cpp:425] inception_4e/5x5_reduce <- inception_4d/output_inception_4d/output_0_split_3
I0403 15:21:14.877461  2990 net.cpp:399] inception_4e/5x5_reduce -> inception_4e/5x5_reduce
I0403 15:21:14.878621  2990 net.cpp:141] Setting up inception_4e/5x5_reduce
I0403 15:21:14.878651  2990 net.cpp:148] Top shape: 24 32 14 14 (150528)
I0403 15:21:14.878669  2990 net.cpp:156] Memory required for data: 1236731424
I0403 15:21:14.878689  2990 layer_factory.hpp:77] Creating layer inception_4e/relu_5x5_reduce
I0403 15:21:14.878707  2990 net.cpp:91] Creating Layer inception_4e/relu_5x5_reduce
I0403 15:21:14.878726  2990 net.cpp:425] inception_4e/relu_5x5_reduce <- inception_4e/5x5_reduce
I0403 15:21:14.878746  2990 net.cpp:386] inception_4e/relu_5x5_reduce -> inception_4e/5x5_reduce (in-place)
I0403 15:21:14.879070  2990 net.cpp:141] Setting up inception_4e/relu_5x5_reduce
I0403 15:21:14.879097  2990 net.cpp:148] Top shape: 24 32 14 14 (150528)
I0403 15:21:14.879113  2990 net.cpp:156] Memory required for data: 1237333536
I0403 15:21:14.879129  2990 layer_factory.hpp:77] Creating layer inception_4e/5x5
I0403 15:21:14.879170  2990 net.cpp:91] Creating Layer inception_4e/5x5
I0403 15:21:14.879191  2990 net.cpp:425] inception_4e/5x5 <- inception_4e/5x5_reduce
I0403 15:21:14.879212  2990 net.cpp:399] inception_4e/5x5 -> inception_4e/5x5
I0403 15:21:14.881163  2990 net.cpp:141] Setting up inception_4e/5x5
I0403 15:21:14.881194  2990 net.cpp:148] Top shape: 24 128 14 14 (602112)
I0403 15:21:14.881212  2990 net.cpp:156] Memory required for data: 1239741984
I0403 15:21:14.881232  2990 layer_factory.hpp:77] Creating layer inception_4e/relu_5x5
I0403 15:21:14.881268  2990 net.cpp:91] Creating Layer inception_4e/relu_5x5
I0403 15:21:14.881284  2990 net.cpp:425] inception_4e/relu_5x5 <- inception_4e/5x5
I0403 15:21:14.881302  2990 net.cpp:386] inception_4e/relu_5x5 -> inception_4e/5x5 (in-place)
I0403 15:21:14.881510  2990 net.cpp:141] Setting up inception_4e/relu_5x5
I0403 15:21:14.881537  2990 net.cpp:148] Top shape: 24 128 14 14 (602112)
I0403 15:21:14.881552  2990 net.cpp:156] Memory required for data: 1242150432
I0403 15:21:14.881568  2990 layer_factory.hpp:77] Creating layer inception_4e/pool
I0403 15:21:14.881588  2990 net.cpp:91] Creating Layer inception_4e/pool
I0403 15:21:14.881605  2990 net.cpp:425] inception_4e/pool <- inception_4d/output_inception_4d/output_0_split_4
I0403 15:21:14.881626  2990 net.cpp:399] inception_4e/pool -> inception_4e/pool
I0403 15:21:14.881700  2990 net.cpp:141] Setting up inception_4e/pool
I0403 15:21:14.881731  2990 net.cpp:148] Top shape: 24 528 14 14 (2483712)
I0403 15:21:14.881749  2990 net.cpp:156] Memory required for data: 1252085280
I0403 15:21:14.881765  2990 layer_factory.hpp:77] Creating layer inception_4e/pool_proj
I0403 15:21:14.881788  2990 net.cpp:91] Creating Layer inception_4e/pool_proj
I0403 15:21:14.881805  2990 net.cpp:425] inception_4e/pool_proj <- inception_4e/pool
I0403 15:21:14.881825  2990 net.cpp:399] inception_4e/pool_proj -> inception_4e/pool_proj
I0403 15:21:14.883417  2990 net.cpp:141] Setting up inception_4e/pool_proj
I0403 15:21:14.883463  2990 net.cpp:148] Top shape: 24 128 14 14 (602112)
I0403 15:21:14.883481  2990 net.cpp:156] Memory required for data: 1254493728
I0403 15:21:14.883502  2990 layer_factory.hpp:77] Creating layer inception_4e/relu_pool_proj
I0403 15:21:14.883522  2990 net.cpp:91] Creating Layer inception_4e/relu_pool_proj
I0403 15:21:14.883539  2990 net.cpp:425] inception_4e/relu_pool_proj <- inception_4e/pool_proj
I0403 15:21:14.883558  2990 net.cpp:386] inception_4e/relu_pool_proj -> inception_4e/pool_proj (in-place)
I0403 15:21:14.883870  2990 net.cpp:141] Setting up inception_4e/relu_pool_proj
I0403 15:21:14.883901  2990 net.cpp:148] Top shape: 24 128 14 14 (602112)
I0403 15:21:14.883919  2990 net.cpp:156] Memory required for data: 1256902176
I0403 15:21:14.883934  2990 layer_factory.hpp:77] Creating layer inception_4e/output
I0403 15:21:14.883955  2990 net.cpp:91] Creating Layer inception_4e/output
I0403 15:21:14.883971  2990 net.cpp:425] inception_4e/output <- inception_4e/1x1
I0403 15:21:14.883990  2990 net.cpp:425] inception_4e/output <- inception_4e/3x3
I0403 15:21:14.884008  2990 net.cpp:425] inception_4e/output <- inception_4e/5x5
I0403 15:21:14.884026  2990 net.cpp:425] inception_4e/output <- inception_4e/pool_proj
I0403 15:21:14.884044  2990 net.cpp:399] inception_4e/output -> inception_4e/output
I0403 15:21:14.884099  2990 net.cpp:141] Setting up inception_4e/output
I0403 15:21:14.884124  2990 net.cpp:148] Top shape: 24 832 14 14 (3913728)
I0403 15:21:14.884140  2990 net.cpp:156] Memory required for data: 1272557088
I0403 15:21:14.884156  2990 layer_factory.hpp:77] Creating layer pool4/3x3_s2
I0403 15:21:14.884177  2990 net.cpp:91] Creating Layer pool4/3x3_s2
I0403 15:21:14.884196  2990 net.cpp:425] pool4/3x3_s2 <- inception_4e/output
I0403 15:21:14.884217  2990 net.cpp:399] pool4/3x3_s2 -> pool4/3x3_s2
I0403 15:21:14.884296  2990 net.cpp:141] Setting up pool4/3x3_s2
I0403 15:21:14.884325  2990 net.cpp:148] Top shape: 24 832 7 7 (978432)
I0403 15:21:14.884343  2990 net.cpp:156] Memory required for data: 1276470816
I0403 15:21:14.884361  2990 layer_factory.hpp:77] Creating layer pool4/3x3_s2_pool4/3x3_s2_0_split
I0403 15:21:14.884380  2990 net.cpp:91] Creating Layer pool4/3x3_s2_pool4/3x3_s2_0_split
I0403 15:21:14.884399  2990 net.cpp:425] pool4/3x3_s2_pool4/3x3_s2_0_split <- pool4/3x3_s2
I0403 15:21:14.884421  2990 net.cpp:399] pool4/3x3_s2_pool4/3x3_s2_0_split -> pool4/3x3_s2_pool4/3x3_s2_0_split_0
I0403 15:21:14.884444  2990 net.cpp:399] pool4/3x3_s2_pool4/3x3_s2_0_split -> pool4/3x3_s2_pool4/3x3_s2_0_split_1
I0403 15:21:14.884469  2990 net.cpp:399] pool4/3x3_s2_pool4/3x3_s2_0_split -> pool4/3x3_s2_pool4/3x3_s2_0_split_2
I0403 15:21:14.884491  2990 net.cpp:399] pool4/3x3_s2_pool4/3x3_s2_0_split -> pool4/3x3_s2_pool4/3x3_s2_0_split_3
I0403 15:21:14.884590  2990 net.cpp:141] Setting up pool4/3x3_s2_pool4/3x3_s2_0_split
I0403 15:21:14.884615  2990 net.cpp:148] Top shape: 24 832 7 7 (978432)
I0403 15:21:14.884634  2990 net.cpp:148] Top shape: 24 832 7 7 (978432)
I0403 15:21:14.884650  2990 net.cpp:148] Top shape: 24 832 7 7 (978432)
I0403 15:21:14.884667  2990 net.cpp:148] Top shape: 24 832 7 7 (978432)
I0403 15:21:14.884682  2990 net.cpp:156] Memory required for data: 1292125728
I0403 15:21:14.884699  2990 layer_factory.hpp:77] Creating layer inception_5a/1x1
I0403 15:21:14.884724  2990 net.cpp:91] Creating Layer inception_5a/1x1
I0403 15:21:14.884743  2990 net.cpp:425] inception_5a/1x1 <- pool4/3x3_s2_pool4/3x3_s2_0_split_0
I0403 15:21:14.884763  2990 net.cpp:399] inception_5a/1x1 -> inception_5a/1x1
I0403 15:21:14.887827  2990 net.cpp:141] Setting up inception_5a/1x1
I0403 15:21:14.887868  2990 net.cpp:148] Top shape: 24 256 7 7 (301056)
I0403 15:21:14.887889  2990 net.cpp:156] Memory required for data: 1293329952
I0403 15:21:14.887912  2990 layer_factory.hpp:77] Creating layer inception_5a/relu_1x1
I0403 15:21:14.887935  2990 net.cpp:91] Creating Layer inception_5a/relu_1x1
I0403 15:21:14.887954  2990 net.cpp:425] inception_5a/relu_1x1 <- inception_5a/1x1
I0403 15:21:14.887979  2990 net.cpp:386] inception_5a/relu_1x1 -> inception_5a/1x1 (in-place)
I0403 15:21:14.888320  2990 net.cpp:141] Setting up inception_5a/relu_1x1
I0403 15:21:14.888351  2990 net.cpp:148] Top shape: 24 256 7 7 (301056)
I0403 15:21:14.888370  2990 net.cpp:156] Memory required for data: 1294534176
I0403 15:21:14.888386  2990 layer_factory.hpp:77] Creating layer inception_5a/3x3_reduce
I0403 15:21:14.888411  2990 net.cpp:91] Creating Layer inception_5a/3x3_reduce
I0403 15:21:14.888429  2990 net.cpp:425] inception_5a/3x3_reduce <- pool4/3x3_s2_pool4/3x3_s2_0_split_1
I0403 15:21:14.888450  2990 net.cpp:399] inception_5a/3x3_reduce -> inception_5a/3x3_reduce
I0403 15:21:14.891079  2990 net.cpp:141] Setting up inception_5a/3x3_reduce
I0403 15:21:14.891119  2990 net.cpp:148] Top shape: 24 160 7 7 (188160)
I0403 15:21:14.891136  2990 net.cpp:156] Memory required for data: 1295286816
I0403 15:21:14.891160  2990 layer_factory.hpp:77] Creating layer inception_5a/relu_3x3_reduce
I0403 15:21:14.891183  2990 net.cpp:91] Creating Layer inception_5a/relu_3x3_reduce
I0403 15:21:14.891203  2990 net.cpp:425] inception_5a/relu_3x3_reduce <- inception_5a/3x3_reduce
I0403 15:21:14.891222  2990 net.cpp:386] inception_5a/relu_3x3_reduce -> inception_5a/3x3_reduce (in-place)
I0403 15:21:14.891433  2990 net.cpp:141] Setting up inception_5a/relu_3x3_reduce
I0403 15:21:14.891463  2990 net.cpp:148] Top shape: 24 160 7 7 (188160)
I0403 15:21:14.891480  2990 net.cpp:156] Memory required for data: 1296039456
I0403 15:21:14.891497  2990 layer_factory.hpp:77] Creating layer inception_5a/3x3
I0403 15:21:14.891522  2990 net.cpp:91] Creating Layer inception_5a/3x3
I0403 15:21:14.891541  2990 net.cpp:425] inception_5a/3x3 <- inception_5a/3x3_reduce
I0403 15:21:14.891561  2990 net.cpp:399] inception_5a/3x3 -> inception_5a/3x3
I0403 15:21:14.896966  2990 net.cpp:141] Setting up inception_5a/3x3
I0403 15:21:14.897001  2990 net.cpp:148] Top shape: 24 320 7 7 (376320)
I0403 15:21:14.897019  2990 net.cpp:156] Memory required for data: 1297544736
I0403 15:21:14.897040  2990 layer_factory.hpp:77] Creating layer inception_5a/relu_3x3
I0403 15:21:14.897059  2990 net.cpp:91] Creating Layer inception_5a/relu_3x3
I0403 15:21:14.897078  2990 net.cpp:425] inception_5a/relu_3x3 <- inception_5a/3x3
I0403 15:21:14.897095  2990 net.cpp:386] inception_5a/relu_3x3 -> inception_5a/3x3 (in-place)
I0403 15:21:14.897418  2990 net.cpp:141] Setting up inception_5a/relu_3x3
I0403 15:21:14.897449  2990 net.cpp:148] Top shape: 24 320 7 7 (376320)
I0403 15:21:14.897466  2990 net.cpp:156] Memory required for data: 1299050016
I0403 15:21:14.897483  2990 layer_factory.hpp:77] Creating layer inception_5a/5x5_reduce
I0403 15:21:14.897508  2990 net.cpp:91] Creating Layer inception_5a/5x5_reduce
I0403 15:21:14.897527  2990 net.cpp:425] inception_5a/5x5_reduce <- pool4/3x3_s2_pool4/3x3_s2_0_split_2
I0403 15:21:14.897548  2990 net.cpp:399] inception_5a/5x5_reduce -> inception_5a/5x5_reduce
I0403 15:21:14.898809  2990 net.cpp:141] Setting up inception_5a/5x5_reduce
I0403 15:21:14.898843  2990 net.cpp:148] Top shape: 24 32 7 7 (37632)
I0403 15:21:14.898859  2990 net.cpp:156] Memory required for data: 1299200544
I0403 15:21:14.898880  2990 layer_factory.hpp:77] Creating layer inception_5a/relu_5x5_reduce
I0403 15:21:14.898900  2990 net.cpp:91] Creating Layer inception_5a/relu_5x5_reduce
I0403 15:21:14.898917  2990 net.cpp:425] inception_5a/relu_5x5_reduce <- inception_5a/5x5_reduce
I0403 15:21:14.898938  2990 net.cpp:386] inception_5a/relu_5x5_reduce -> inception_5a/5x5_reduce (in-place)
I0403 15:21:14.899261  2990 net.cpp:141] Setting up inception_5a/relu_5x5_reduce
I0403 15:21:14.899289  2990 net.cpp:148] Top shape: 24 32 7 7 (37632)
I0403 15:21:14.899307  2990 net.cpp:156] Memory required for data: 1299351072
I0403 15:21:14.899322  2990 layer_factory.hpp:77] Creating layer inception_5a/5x5
I0403 15:21:14.899348  2990 net.cpp:91] Creating Layer inception_5a/5x5
I0403 15:21:14.899366  2990 net.cpp:425] inception_5a/5x5 <- inception_5a/5x5_reduce
I0403 15:21:14.899389  2990 net.cpp:399] inception_5a/5x5 -> inception_5a/5x5
I0403 15:21:14.901232  2990 net.cpp:141] Setting up inception_5a/5x5
I0403 15:21:14.901283  2990 net.cpp:148] Top shape: 24 128 7 7 (150528)
I0403 15:21:14.901301  2990 net.cpp:156] Memory required for data: 1299953184
I0403 15:21:14.901322  2990 layer_factory.hpp:77] Creating layer inception_5a/relu_5x5
I0403 15:21:14.901341  2990 net.cpp:91] Creating Layer inception_5a/relu_5x5
I0403 15:21:14.901360  2990 net.cpp:425] inception_5a/relu_5x5 <- inception_5a/5x5
I0403 15:21:14.901377  2990 net.cpp:386] inception_5a/relu_5x5 -> inception_5a/5x5 (in-place)
I0403 15:21:14.901588  2990 net.cpp:141] Setting up inception_5a/relu_5x5
I0403 15:21:14.901615  2990 net.cpp:148] Top shape: 24 128 7 7 (150528)
I0403 15:21:14.901633  2990 net.cpp:156] Memory required for data: 1300555296
I0403 15:21:14.901648  2990 layer_factory.hpp:77] Creating layer inception_5a/pool
I0403 15:21:14.901667  2990 net.cpp:91] Creating Layer inception_5a/pool
I0403 15:21:14.901684  2990 net.cpp:425] inception_5a/pool <- pool4/3x3_s2_pool4/3x3_s2_0_split_3
I0403 15:21:14.901706  2990 net.cpp:399] inception_5a/pool -> inception_5a/pool
I0403 15:21:14.901782  2990 net.cpp:141] Setting up inception_5a/pool
I0403 15:21:14.901810  2990 net.cpp:148] Top shape: 24 832 7 7 (978432)
I0403 15:21:14.901828  2990 net.cpp:156] Memory required for data: 1304469024
I0403 15:21:14.901842  2990 layer_factory.hpp:77] Creating layer inception_5a/pool_proj
I0403 15:21:14.901866  2990 net.cpp:91] Creating Layer inception_5a/pool_proj
I0403 15:21:14.901885  2990 net.cpp:425] inception_5a/pool_proj <- inception_5a/pool
I0403 15:21:14.901906  2990 net.cpp:399] inception_5a/pool_proj -> inception_5a/pool_proj
I0403 15:21:14.904366  2990 net.cpp:141] Setting up inception_5a/pool_proj
I0403 15:21:14.904398  2990 net.cpp:148] Top shape: 24 128 7 7 (150528)
I0403 15:21:14.904415  2990 net.cpp:156] Memory required for data: 1305071136
I0403 15:21:14.904435  2990 layer_factory.hpp:77] Creating layer inception_5a/relu_pool_proj
I0403 15:21:14.904458  2990 net.cpp:91] Creating Layer inception_5a/relu_pool_proj
I0403 15:21:14.904475  2990 net.cpp:425] inception_5a/relu_pool_proj <- inception_5a/pool_proj
I0403 15:21:14.904495  2990 net.cpp:386] inception_5a/relu_pool_proj -> inception_5a/pool_proj (in-place)
I0403 15:21:14.904810  2990 net.cpp:141] Setting up inception_5a/relu_pool_proj
I0403 15:21:14.904839  2990 net.cpp:148] Top shape: 24 128 7 7 (150528)
I0403 15:21:14.904855  2990 net.cpp:156] Memory required for data: 1305673248
I0403 15:21:14.904872  2990 layer_factory.hpp:77] Creating layer inception_5a/output
I0403 15:21:14.904892  2990 net.cpp:91] Creating Layer inception_5a/output
I0403 15:21:14.904911  2990 net.cpp:425] inception_5a/output <- inception_5a/1x1
I0403 15:21:14.904930  2990 net.cpp:425] inception_5a/output <- inception_5a/3x3
I0403 15:21:14.904947  2990 net.cpp:425] inception_5a/output <- inception_5a/5x5
I0403 15:21:14.904965  2990 net.cpp:425] inception_5a/output <- inception_5a/pool_proj
I0403 15:21:14.904984  2990 net.cpp:399] inception_5a/output -> inception_5a/output
I0403 15:21:14.905040  2990 net.cpp:141] Setting up inception_5a/output
I0403 15:21:14.905066  2990 net.cpp:148] Top shape: 24 832 7 7 (978432)
I0403 15:21:14.905082  2990 net.cpp:156] Memory required for data: 1309586976
I0403 15:21:14.905098  2990 layer_factory.hpp:77] Creating layer inception_5a/output_inception_5a/output_0_split
I0403 15:21:14.905117  2990 net.cpp:91] Creating Layer inception_5a/output_inception_5a/output_0_split
I0403 15:21:14.905134  2990 net.cpp:425] inception_5a/output_inception_5a/output_0_split <- inception_5a/output
I0403 15:21:14.905155  2990 net.cpp:399] inception_5a/output_inception_5a/output_0_split -> inception_5a/output_inception_5a/output_0_split_0
I0403 15:21:14.905179  2990 net.cpp:399] inception_5a/output_inception_5a/output_0_split -> inception_5a/output_inception_5a/output_0_split_1
I0403 15:21:14.905200  2990 net.cpp:399] inception_5a/output_inception_5a/output_0_split -> inception_5a/output_inception_5a/output_0_split_2
I0403 15:21:14.905222  2990 net.cpp:399] inception_5a/output_inception_5a/output_0_split -> inception_5a/output_inception_5a/output_0_split_3
I0403 15:21:14.905349  2990 net.cpp:141] Setting up inception_5a/output_inception_5a/output_0_split
I0403 15:21:14.905380  2990 net.cpp:148] Top shape: 24 832 7 7 (978432)
I0403 15:21:14.905400  2990 net.cpp:148] Top shape: 24 832 7 7 (978432)
I0403 15:21:14.905416  2990 net.cpp:148] Top shape: 24 832 7 7 (978432)
I0403 15:21:14.905433  2990 net.cpp:148] Top shape: 24 832 7 7 (978432)
I0403 15:21:14.905448  2990 net.cpp:156] Memory required for data: 1325241888
I0403 15:21:14.905464  2990 layer_factory.hpp:77] Creating layer inception_5b/1x1
I0403 15:21:14.905488  2990 net.cpp:91] Creating Layer inception_5b/1x1
I0403 15:21:14.905508  2990 net.cpp:425] inception_5b/1x1 <- inception_5a/output_inception_5a/output_0_split_0
I0403 15:21:14.905530  2990 net.cpp:399] inception_5b/1x1 -> inception_5b/1x1
I0403 15:21:14.909572  2990 net.cpp:141] Setting up inception_5b/1x1
I0403 15:21:14.909603  2990 net.cpp:148] Top shape: 24 384 7 7 (451584)
I0403 15:21:14.909621  2990 net.cpp:156] Memory required for data: 1327048224
I0403 15:21:14.909641  2990 layer_factory.hpp:77] Creating layer inception_5b/relu_1x1
I0403 15:21:14.909662  2990 net.cpp:91] Creating Layer inception_5b/relu_1x1
I0403 15:21:14.909682  2990 net.cpp:425] inception_5b/relu_1x1 <- inception_5b/1x1
I0403 15:21:14.909700  2990 net.cpp:386] inception_5b/relu_1x1 -> inception_5b/1x1 (in-place)
I0403 15:21:14.910029  2990 net.cpp:141] Setting up inception_5b/relu_1x1
I0403 15:21:14.910058  2990 net.cpp:148] Top shape: 24 384 7 7 (451584)
I0403 15:21:14.910074  2990 net.cpp:156] Memory required for data: 1328854560
I0403 15:21:14.910090  2990 layer_factory.hpp:77] Creating layer inception_5b/3x3_reduce
I0403 15:21:14.910115  2990 net.cpp:91] Creating Layer inception_5b/3x3_reduce
I0403 15:21:14.910135  2990 net.cpp:425] inception_5b/3x3_reduce <- inception_5a/output_inception_5a/output_0_split_1
I0403 15:21:14.910156  2990 net.cpp:399] inception_5b/3x3_reduce -> inception_5b/3x3_reduce
I0403 15:21:14.913003  2990 net.cpp:141] Setting up inception_5b/3x3_reduce
I0403 15:21:14.913033  2990 net.cpp:148] Top shape: 24 192 7 7 (225792)
I0403 15:21:14.913050  2990 net.cpp:156] Memory required for data: 1329757728
I0403 15:21:14.913070  2990 layer_factory.hpp:77] Creating layer inception_5b/relu_3x3_reduce
I0403 15:21:14.913091  2990 net.cpp:91] Creating Layer inception_5b/relu_3x3_reduce
I0403 15:21:14.913108  2990 net.cpp:425] inception_5b/relu_3x3_reduce <- inception_5b/3x3_reduce
I0403 15:21:14.913126  2990 net.cpp:386] inception_5b/relu_3x3_reduce -> inception_5b/3x3_reduce (in-place)
I0403 15:21:14.913336  2990 net.cpp:141] Setting up inception_5b/relu_3x3_reduce
I0403 15:21:14.913365  2990 net.cpp:148] Top shape: 24 192 7 7 (225792)
I0403 15:21:14.913380  2990 net.cpp:156] Memory required for data: 1330660896
I0403 15:21:14.913398  2990 layer_factory.hpp:77] Creating layer inception_5b/3x3
I0403 15:21:14.913420  2990 net.cpp:91] Creating Layer inception_5b/3x3
I0403 15:21:14.913439  2990 net.cpp:425] inception_5b/3x3 <- inception_5b/3x3_reduce
I0403 15:21:14.913461  2990 net.cpp:399] inception_5b/3x3 -> inception_5b/3x3
I0403 15:21:14.920435  2990 net.cpp:141] Setting up inception_5b/3x3
I0403 15:21:14.920466  2990 net.cpp:148] Top shape: 24 384 7 7 (451584)
I0403 15:21:14.920482  2990 net.cpp:156] Memory required for data: 1332467232
I0403 15:21:14.920502  2990 layer_factory.hpp:77] Creating layer inception_5b/relu_3x3
I0403 15:21:14.920523  2990 net.cpp:91] Creating Layer inception_5b/relu_3x3
I0403 15:21:14.920542  2990 net.cpp:425] inception_5b/relu_3x3 <- inception_5b/3x3
I0403 15:21:14.920560  2990 net.cpp:386] inception_5b/relu_3x3 -> inception_5b/3x3 (in-place)
I0403 15:21:14.920869  2990 net.cpp:141] Setting up inception_5b/relu_3x3
I0403 15:21:14.920897  2990 net.cpp:148] Top shape: 24 384 7 7 (451584)
I0403 15:21:14.920913  2990 net.cpp:156] Memory required for data: 1334273568
I0403 15:21:14.920928  2990 layer_factory.hpp:77] Creating layer inception_5b/5x5_reduce
I0403 15:21:14.920970  2990 net.cpp:91] Creating Layer inception_5b/5x5_reduce
I0403 15:21:14.920990  2990 net.cpp:425] inception_5b/5x5_reduce <- inception_5a/output_inception_5a/output_0_split_2
I0403 15:21:14.921010  2990 net.cpp:399] inception_5b/5x5_reduce -> inception_5b/5x5_reduce
I0403 15:21:14.922358  2990 net.cpp:141] Setting up inception_5b/5x5_reduce
I0403 15:21:14.922386  2990 net.cpp:148] Top shape: 24 48 7 7 (56448)
I0403 15:21:14.922405  2990 net.cpp:156] Memory required for data: 1334499360
I0403 15:21:14.922425  2990 layer_factory.hpp:77] Creating layer inception_5b/relu_5x5_reduce
I0403 15:21:14.922444  2990 net.cpp:91] Creating Layer inception_5b/relu_5x5_reduce
I0403 15:21:14.922462  2990 net.cpp:425] inception_5b/relu_5x5_reduce <- inception_5b/5x5_reduce
I0403 15:21:14.922480  2990 net.cpp:386] inception_5b/relu_5x5_reduce -> inception_5b/5x5_reduce (in-place)
I0403 15:21:14.922874  2990 net.cpp:141] Setting up inception_5b/relu_5x5_reduce
I0403 15:21:14.922901  2990 net.cpp:148] Top shape: 24 48 7 7 (56448)
I0403 15:21:14.922917  2990 net.cpp:156] Memory required for data: 1334725152
I0403 15:21:14.922933  2990 layer_factory.hpp:77] Creating layer inception_5b/5x5
I0403 15:21:14.922955  2990 net.cpp:91] Creating Layer inception_5b/5x5
I0403 15:21:14.922972  2990 net.cpp:425] inception_5b/5x5 <- inception_5b/5x5_reduce
I0403 15:21:14.922992  2990 net.cpp:399] inception_5b/5x5 -> inception_5b/5x5
I0403 15:21:14.925133  2990 net.cpp:141] Setting up inception_5b/5x5
I0403 15:21:14.925164  2990 net.cpp:148] Top shape: 24 128 7 7 (150528)
I0403 15:21:14.925182  2990 net.cpp:156] Memory required for data: 1335327264
I0403 15:21:14.925202  2990 layer_factory.hpp:77] Creating layer inception_5b/relu_5x5
I0403 15:21:14.925221  2990 net.cpp:91] Creating Layer inception_5b/relu_5x5
I0403 15:21:14.925242  2990 net.cpp:425] inception_5b/relu_5x5 <- inception_5b/5x5
I0403 15:21:14.925264  2990 net.cpp:386] inception_5b/relu_5x5 -> inception_5b/5x5 (in-place)
I0403 15:21:14.925467  2990 net.cpp:141] Setting up inception_5b/relu_5x5
I0403 15:21:14.925493  2990 net.cpp:148] Top shape: 24 128 7 7 (150528)
I0403 15:21:14.925509  2990 net.cpp:156] Memory required for data: 1335929376
I0403 15:21:14.925524  2990 layer_factory.hpp:77] Creating layer inception_5b/pool
I0403 15:21:14.925544  2990 net.cpp:91] Creating Layer inception_5b/pool
I0403 15:21:14.925561  2990 net.cpp:425] inception_5b/pool <- inception_5a/output_inception_5a/output_0_split_3
I0403 15:21:14.925585  2990 net.cpp:399] inception_5b/pool -> inception_5b/pool
I0403 15:21:14.925662  2990 net.cpp:141] Setting up inception_5b/pool
I0403 15:21:14.925688  2990 net.cpp:148] Top shape: 24 832 7 7 (978432)
I0403 15:21:14.925704  2990 net.cpp:156] Memory required for data: 1339843104
I0403 15:21:14.925719  2990 layer_factory.hpp:77] Creating layer inception_5b/pool_proj
I0403 15:21:14.925743  2990 net.cpp:91] Creating Layer inception_5b/pool_proj
I0403 15:21:14.925761  2990 net.cpp:425] inception_5b/pool_proj <- inception_5b/pool
I0403 15:21:14.925781  2990 net.cpp:399] inception_5b/pool_proj -> inception_5b/pool_proj
I0403 15:21:14.928179  2990 net.cpp:141] Setting up inception_5b/pool_proj
I0403 15:21:14.928211  2990 net.cpp:148] Top shape: 24 128 7 7 (150528)
I0403 15:21:14.928228  2990 net.cpp:156] Memory required for data: 1340445216
I0403 15:21:14.928254  2990 layer_factory.hpp:77] Creating layer inception_5b/relu_pool_proj
I0403 15:21:14.928275  2990 net.cpp:91] Creating Layer inception_5b/relu_pool_proj
I0403 15:21:14.928293  2990 net.cpp:425] inception_5b/relu_pool_proj <- inception_5b/pool_proj
I0403 15:21:14.928311  2990 net.cpp:386] inception_5b/relu_pool_proj -> inception_5b/pool_proj (in-place)
I0403 15:21:14.928622  2990 net.cpp:141] Setting up inception_5b/relu_pool_proj
I0403 15:21:14.928652  2990 net.cpp:148] Top shape: 24 128 7 7 (150528)
I0403 15:21:14.928668  2990 net.cpp:156] Memory required for data: 1341047328
I0403 15:21:14.928685  2990 layer_factory.hpp:77] Creating layer inception_5b/output
I0403 15:21:14.928704  2990 net.cpp:91] Creating Layer inception_5b/output
I0403 15:21:14.928735  2990 net.cpp:425] inception_5b/output <- inception_5b/1x1
I0403 15:21:14.928753  2990 net.cpp:425] inception_5b/output <- inception_5b/3x3
I0403 15:21:14.928771  2990 net.cpp:425] inception_5b/output <- inception_5b/5x5
I0403 15:21:14.928788  2990 net.cpp:425] inception_5b/output <- inception_5b/pool_proj
I0403 15:21:14.928807  2990 net.cpp:399] inception_5b/output -> inception_5b/output
I0403 15:21:14.928863  2990 net.cpp:141] Setting up inception_5b/output
I0403 15:21:14.928887  2990 net.cpp:148] Top shape: 24 1024 7 7 (1204224)
I0403 15:21:14.928902  2990 net.cpp:156] Memory required for data: 1345864224
I0403 15:21:14.928918  2990 layer_factory.hpp:77] Creating layer pool5/7x7_s1
I0403 15:21:14.928938  2990 net.cpp:91] Creating Layer pool5/7x7_s1
I0403 15:21:14.928956  2990 net.cpp:425] pool5/7x7_s1 <- inception_5b/output
I0403 15:21:14.928974  2990 net.cpp:399] pool5/7x7_s1 -> pool5/7x7_s1
I0403 15:21:14.929204  2990 net.cpp:141] Setting up pool5/7x7_s1
I0403 15:21:14.929232  2990 net.cpp:148] Top shape: 24 1024 1 1 (24576)
I0403 15:21:14.929270  2990 net.cpp:156] Memory required for data: 1345962528
I0403 15:21:14.929288  2990 layer_factory.hpp:77] Creating layer pool5/drop_7x7_s1
I0403 15:21:14.929313  2990 net.cpp:91] Creating Layer pool5/drop_7x7_s1
I0403 15:21:14.929330  2990 net.cpp:425] pool5/drop_7x7_s1 <- pool5/7x7_s1
I0403 15:21:14.929349  2990 net.cpp:386] pool5/drop_7x7_s1 -> pool5/7x7_s1 (in-place)
I0403 15:21:14.929404  2990 net.cpp:141] Setting up pool5/drop_7x7_s1
I0403 15:21:14.929430  2990 net.cpp:148] Top shape: 24 1024 1 1 (24576)
I0403 15:21:14.929445  2990 net.cpp:156] Memory required for data: 1346060832
I0403 15:21:14.929461  2990 layer_factory.hpp:77] Creating layer loss3/classifier_plantvillage
I0403 15:21:14.929484  2990 net.cpp:91] Creating Layer loss3/classifier_plantvillage
I0403 15:21:14.929502  2990 net.cpp:425] loss3/classifier_plantvillage <- pool5/7x7_s1
I0403 15:21:14.929522  2990 net.cpp:399] loss3/classifier_plantvillage -> loss3/classifier_plantvillage
I0403 15:21:14.929986  2990 net.cpp:141] Setting up loss3/classifier_plantvillage
I0403 15:21:14.930013  2990 net.cpp:148] Top shape: 24 38 (912)
I0403 15:21:14.930029  2990 net.cpp:156] Memory required for data: 1346064480
I0403 15:21:14.930049  2990 layer_factory.hpp:77] Creating layer loss3/classifier_plantvillage_loss3/classifier_plantvillage_0_split
I0403 15:21:14.930068  2990 net.cpp:91] Creating Layer loss3/classifier_plantvillage_loss3/classifier_plantvillage_0_split
I0403 15:21:14.930084  2990 net.cpp:425] loss3/classifier_plantvillage_loss3/classifier_plantvillage_0_split <- loss3/classifier_plantvillage
I0403 15:21:14.930106  2990 net.cpp:399] loss3/classifier_plantvillage_loss3/classifier_plantvillage_0_split -> loss3/classifier_plantvillage_loss3/classifier_plantvillage_0_split_0
I0403 15:21:14.930130  2990 net.cpp:399] loss3/classifier_plantvillage_loss3/classifier_plantvillage_0_split -> loss3/classifier_plantvillage_loss3/classifier_plantvillage_0_split_1
I0403 15:21:14.930152  2990 net.cpp:399] loss3/classifier_plantvillage_loss3/classifier_plantvillage_0_split -> loss3/classifier_plantvillage_loss3/classifier_plantvillage_0_split_2
I0403 15:21:14.930174  2990 net.cpp:399] loss3/classifier_plantvillage_loss3/classifier_plantvillage_0_split -> loss3/classifier_plantvillage_loss3/classifier_plantvillage_0_split_3
I0403 15:21:14.930295  2990 net.cpp:141] Setting up loss3/classifier_plantvillage_loss3/classifier_plantvillage_0_split
I0403 15:21:14.930320  2990 net.cpp:148] Top shape: 24 38 (912)
I0403 15:21:14.930338  2990 net.cpp:148] Top shape: 24 38 (912)
I0403 15:21:14.930356  2990 net.cpp:148] Top shape: 24 38 (912)
I0403 15:21:14.930372  2990 net.cpp:148] Top shape: 24 38 (912)
I0403 15:21:14.930387  2990 net.cpp:156] Memory required for data: 1346079072
I0403 15:21:14.930402  2990 layer_factory.hpp:77] Creating layer loss1/loss
I0403 15:21:14.930426  2990 net.cpp:91] Creating Layer loss1/loss
I0403 15:21:14.930444  2990 net.cpp:425] loss1/loss <- loss1/classifier_plantvillage_loss1/classifier_plantvillage_0_split_0
I0403 15:21:14.930477  2990 net.cpp:425] loss1/loss <- label_data_1_split_0
…
